…
I1220 17:57:35.588083 53862 net.cpp:294] The NetState phase (0) differed from the phase (1) specified by a rule in layer data
I1220 17:57:35.588446 53862 net.cpp:51] Initializing net from parameters: 
state {
  phase: TRAIN
  level: 0
  stage: ""
}
layer {
  name: "data"
  type: "Data"
  top: "data"
  top: "label"
  include {
    phase: TRAIN
  }
  transform_param {
    mirror: false
    crop_size: 227
    mean_file: "/home/ydwu/database/imagenet/ilsvrc12/imagenet_mean.binaryproto"
  }
  data_param {
    source: "/home/ydwu/database/imagenet/ilsvrc12/lmdb_resize/ilsvrc12_train_lmdb/"
    batch_size: 32
    backend: LMDB
  }
}
layer {
  name: "quantized_data"
  type: "Quantization"
  bottom: "data"
  top: "quantized_data"
  quantization_param {
    round_method: FLOOR
    round_strategy: AGGRESSIVE
    bit_width: 8
    range: -129.93526
    range: 160.78912
  }
}
layer {
  name: "conv1"
  type: "Convolution"
  bottom: "quantized_data"
  top: "conv1"
  param {
    lr_mult: 1
    decay_mult: 1
  }
  param {
    lr_mult: 2
    decay_mult: 0
  }
  convolution_param {
    num_output: 96
    pad: 0
    kernel_size: 11
    group: 1
    stride: 4
    weight_filler {
      type: "gaussian"
      std: 1.1e+13
    }
    bias_filler {
      type: "constant"
      std: 0.1
    }
  }
}
layer {
  name: "quantized_conv1"
  type: "Quantization"
  bottom: "conv1"
  top: "quantized_conv1"
  quantization_param {
    round_method: FLOOR
    round_strategy: AGGRESSIVE
    bit_width: 8
    range: -2732.7351
    range: 2531.042
  }
}
layer {
  name: "relu1"
  type: "ReLU"
  bottom: "quantized_conv1"
  top: "relu1"
}
layer {
  name: "quantized_relu1"
  type: "Quantization"
  bottom: "relu1"
  top: "quantized_relu1"
  quantization_param {
    round_method: FLOOR
    round_strategy: AGGRESSIVE
    bit_width: 8
    range: 1
    range: 2531.042
  }
}
layer {
  name: "pool1"
  type: "Pooling"
  bottom: "quantized_relu1"
  top: "pool1"
  pooling_param {
    pool: MAX
    kernel_size: 3
    stride: 2
  }
}
layer {
  name: "quantized_pool1"
  type: "Quantization"
  bottom: "pool1"
  top: "quantized_pool1"
  quantization_param {
    round_method: FLOOR
    round_strategy: AGGRESSIVE
    bit_width: 8
    range: 1
    range: 2531.042
  }
}
layer {
  name: "norm1"
  type: "LRN"
  bottom: "quantized_pool1"
  top: "norm1"
  lrn_param {
    local_size: 5
    alpha: 0.0001
    beta: 0.75
  }
}
layer {
  name: "quantized_norm1"
  type: "Quantization"
  bottom: "norm1"
  top: "quantized_norm1"
  quantization_param {
    round_method: FLOOR
    round_strategy: AGGRESSIVE
    bit_width: 8
    range: 1
    range: 138.70576
  }
}
layer {
  name: "conv2"
  type: "Convolution"
  bottom: "quantized_norm1"
  top: "conv2"
  param {
    lr_mult: 1
    decay_mult: 1
  }
  param {
    lr_mult: 2
    decay_mult: 0
  }
  convolution_param {
    num_output: 256
    pad: 2
    kernel_size: 5
    group: 2
    stride: 1
    weight_filler {
      type: "gaussian"
      std: 1.1e+13
    }
    bias_filler {
      type: "constant"
      std: 0.1
    }
  }
}
layer {
  name: "quantized_conv2"
  type: "Quantization"
  bottom: "conv2"
  top: "quantized_conv2"
  quantization_param {
    round_method: FLOOR
    round_strategy: AGGRESSIVE
    bit_width: 8
    range: -647.61908
    range: 492.23111
  }
}
layer {
  name: "relu2"
  type: "ReLU"
  bottom: "quantized_conv2"
  top: "relu2"
}
layer {
  name: "quantized_relu2"
  type: "Quantization"
  bottom: "relu2"
  top: "quantized_relu2"
  quantization_param {
    round_method: FLOOR
    round_strategy: AGGRESSIVE
    bit_width: 8
    range: 1
    range: 492.23111
  }
}
layer {
  name: "pool2"
  type: "Pooling"
  bottom: "quantized_relu2"
  top: "pool2"
  pooling_param {
    pool: MAX
    kernel_size: 3
    stride: 2
  }
}
layer {
  name: "quantized_pool2"
  type: "Quantization"
  bottom: "pool2"
  top: "quantized_pool2"
  quantization_param {
    round_method: FLOOR
    round_strategy: AGGRESSIVE
    bit_width: 8
    range: 1
    range: 492.23111
  }
}
layer {
  name: "norm2"
  type: "LRN"
  bottom: "quantized_pool2"
  top: "norm2"
  lrn_param {
    local_size: 5
    alpha: 0.0001
    beta: 0.75
  }
}
layer {
  name: "quantized_norm2"
  type: "Quantization"
  bottom: "norm2"
  top: "quantized_norm2"
  quantization_param {
    round_method: FLOOR
    round_strategy: AGGRESSIVE
    bit_width: 8
    range: 1
    range: 138.72636
  }
}
layer {
  name: "conv3"
  type: "Convolution"
  bottom: "quantized_norm2"
  top: "conv3"
  param {
    lr_mult: 1
    decay_mult: 1
  }
  param {
    lr_mult: 2
    decay_mult: 0
  }
  convolution_param {
    num_output: 384
    pad: 1
    kernel_size: 3
    group: 1
    stride: 1
    weight_filler {
      type: "gaussian"
      std: 1.1e+13
    }
    bias_filler {
      type: "constant"
      std: 0.1
    }
  }
}
layer {
  name: "quantized_conv3"
  type: "Quantization"
  bottom: "conv3"
  top: "quantized_conv3"
  quantization_param {
    round_method: FLOOR
    round_strategy: AGGRESSIVE
    bit_width: 8
    range: -389.56516
    range: 331.98178
  }
}
layer {
  name: "relu3"
  type: "ReLU"
  bottom: "quantized_conv3"
  top: "relu3"
}
layer {
  name: "quantized_relu3"
  type: "Quantization"
  bottom: "relu3"
  top: "quantized_relu3"
  quantization_param {
    round_method: FLOOR
    round_strategy: AGGRESSIVE
    bit_width: 8
    range: 1
    range: 331.98178
  }
}
layer {
  name: "conv4"
  type: "Convolution"
  bottom: "quantized_relu3"
  top: "conv4"
  param {
    lr_mult: 1
    decay_mult: 1
  }
  param {
    lr_mult: 2
    decay_mult: 0
  }
  convolution_param {
    num_output: 384
    pad: 1
    kernel_size: 3
    group: 2
    stride: 1
    weight_filler {
      type: "gaussian"
      std: 1.1e+13
    }
    bias_filler {
      type: "constant"
      std: 0.1
    }
  }
}
layer {
  name: "quantized_conv4"
  type: "Quantization"
  bottom: "conv4"
  top: "quantized_conv4"
  quantization_param {
    round_method: FLOOR
    round_strategy: AGGRESSIVE
    bit_width: 8
    range: -231.20598
    range: 283.87189
  }
}
layer {
  name: "relu4"
  type: "ReLU"
  bottom: "quantized_conv4"
  top: "relu4"
}
layer {
  name: "quantized_relu4"
  type: "Quantization"
  bottom: "relu4"
  top: "quantized_relu4"
  quantization_param {
    round_method: FLOOR
    round_strategy: AGGRESSIVE
    bit_width: 8
    range: 1
    range: 283.87189
  }
}
layer {
  name: "conv5"
  type: "Convolution"
  bottom: "quantized_relu4"
  top: "conv5"
  param {
    lr_mult: 1
    decay_mult: 1
  }
  param {
    lr_mult: 2
    decay_mult: 0
  }
  convolution_param {
    num_output: 256
    pad: 1
    kernel_size: 3
    group: 2
    stride: 1
    weight_filler {
      type: "gaussian"
      std: 1.1e+13
    }
    bias_filler {
      type: "constant"
      std: 0.1
    }
  }
}
layer {
  name: "quantized_conv5"
  type: "Quantization"
  bottom: "conv5"
  top: "quantized_conv5"
  quantization_param {
    round_method: FLOOR
    round_strategy: AGGRESSIVE
    bit_width: 8
    range: -172.60567
    range: 272.57315
  }
}
layer {
  name: "relu5"
  type: "ReLU"
  bottom: "quantized_conv5"
  top: "relu5"
}
layer {
  name: "quantized_relu5"
  type: "Quantization"
  bottom: "relu5"
  top: "quantized_relu5"
  quantization_param {
    round_method: FLOOR
    round_strategy: AGGRESSIVE
    bit_width: 8
    range: 1
    range: 272.57315
  }
}
layer {
  name: "pool5"
  type: "Pooling"
  bottom: "quantized_relu5"
  top: "pool5"
  pooling_param {
    pool: MAX
    kernel_size: 3
    stride: 2
  }
}
layer {
  name: "quantized_pool5"
  type: "Quantization"
  bottom: "pool5"
  top: "quantized_pool5"
  quantization_param {
    round_method: FLOOR
    round_strategy: AGGRESSIVE
    bit_width: 8
    range: 1
    range: 272.57315
  }
}
layer {
  name: "fc6"
  type: "InnerProduct"
  bottom: "quantized_pool5"
  top: "fc6"
  param {
    lr_mult: 1
    decay_mult: 1
  }
  param {
    lr_mult: 2
    decay_mult: 0
  }
  inner_product_param {
    num_output: 4096
    weight_filler {
      type: "gaussian"
      std: 1.05e+13
    }
    bias_filler {
      type: "constant"
      value: 0.1
    }
  }
}
layer {
  name: "quantized_fc6"
  type: "Quantization"
  bottom: "fc6"
  top: "quantized_fc6"
  quantization_param {
    round_method: FLOOR
    round_strategy: AGGRESSIVE
    bit_width: 8
    range: -114.02487
    range: 58.541733
  }
}
layer {
  name: "relu6"
  type: "ReLU"
  bottom: "quantized_fc6"
  top: "relu6"
}
layer {
  name: "quantized_relu6"
  type: "Quantization"
  bottom: "relu6"
  top: "quantized_relu6"
  quantization_param {
    round_method: FLOOR
    round_strategy: AGGRESSIVE
    bit_width: 8
    range: 1
    range: 58.541733
  }
}
layer {
  name: "fc7"
  type: "InnerProduct"
  bottom: "quantized_relu6"
  top: "fc7"
  param {
    lr_mult: 1
    decay_mult: 1
  }
  param {
    lr_mult: 2
    decay_mult: 0
  }
  inner_product_param {
    num_output: 4096
    weight_filler {
      type: "gaussian"
      std: 1.05e+13
    }
    bias_filler {
      type: "constant"
      value: 0.1
    }
  }
}
layer {
  name: "quantized_fc7"
  type: "Quantization"
  bottom: "fc7"
  top: "quantized_fc7"
  quantization_param {
    round_method: FLOOR
    round_strategy: AGGRESSIVE
    bit_width: 8
    range: -26.019335
    range: 19.125257
  }
}
layer {
  name: "relu7"
  type: "ReLU"
  bottom: "quantized_fc7"
  top: "relu7"
}
layer {
  name: "quantized_relu7"
  type: "Quantization"
  bottom: "relu7"
  top: "quantized_relu7"
  quantization_param {
    round_method: FLOOR
    round_strategy: AGGRESSIVE
    bit_width: 8
    range: 1
    range: 19.125257
  }
}
layer {
  name: "fc8"
  type: "InnerProduct"
  bottom: "quantized_relu7"
  top: "fc8"
  param {
    lr_mult: 1
    decay_mult: 1
  }
  param {
    lr_mult: 2
    decay_mult: 0
  }
  inner_product_param {
    num_output: 1000
  }
}
layer {
  name: "quantized_fc8"
  type: "Quantization"
  bottom: "fc8"
  top: "quantized_fc8"
  quantization_param {
    round_method: FLOOR
    round_strategy: AGGRESSIVE
    bit_width: 8
    range: -9.849781
    range: 45.688446
  }
}
layer {
  name: "probs"
  type: "Softmax"
  bottom: "quantized_fc8"
  top: "probs"
}
layer {
  name: "loss"
  type: "SoftmaxWithLoss"
  bottom: "quantized_fc8"
  bottom: "label"
  top: "loss"
}
layer {
  name: "acc_top1"
  type: "Accuracy"
  bottom: "quantized_fc8"
  bottom: "label"
  top: "acc_top1"
  accuracy_param {
    top_k: 1
  }
}
layer {
  name: "acc_top5"
  type: "Accuracy"
  bottom: "quantized_fc8"
  bottom: "label"
  top: "acc_top5"
  accuracy_param {
    top_k: 5
  }
}
I1220 17:57:35.588682 53862 layer_factory.hpp:77] Creating layer data
I1220 17:57:35.588805 53862 db_lmdb.cpp:35] Opened lmdb /home/ydwu/database/imagenet/ilsvrc12/lmdb_resize/ilsvrc12_train_lmdb/
I1220 17:57:35.588846 53862 net.cpp:84] Creating Layer data
I1220 17:57:35.588865 53862 net.cpp:380] data -> data
I1220 17:57:35.588897 53862 net.cpp:380] data -> label
I1220 17:57:35.588920 53862 data_transformer.cpp:25] Loading mean file from: /home/ydwu/database/imagenet/ilsvrc12/imagenet_mean.binaryproto
I1220 17:57:35.591528 53862 data_layer.cpp:45] output data size: 32,3,227,227
I1220 17:57:35.613034 53862 net.cpp:122] Setting up data
I1220 17:57:35.613134 53862 net.cpp:129] Top shape: 32 3 227 227 (4946784)
I1220 17:57:35.613170 53862 net.cpp:129] Top shape: 32 (32)
I1220 17:57:35.613178 53862 net.cpp:137] Memory required for data: 19787264
I1220 17:57:35.613195 53862 layer_factory.hpp:77] Creating layer label_data_1_split
I1220 17:57:35.613217 53862 net.cpp:84] Creating Layer label_data_1_split
I1220 17:57:35.613229 53862 net.cpp:406] label_data_1_split <- label
I1220 17:57:35.613250 53862 net.cpp:380] label_data_1_split -> label_data_1_split_0
I1220 17:57:35.613267 53862 net.cpp:380] label_data_1_split -> label_data_1_split_1
I1220 17:57:35.613291 53862 net.cpp:380] label_data_1_split -> label_data_1_split_2
I1220 17:57:35.613327 53862 net.cpp:122] Setting up label_data_1_split
I1220 17:57:35.613337 53862 net.cpp:129] Top shape: 32 (32)
I1220 17:57:35.613344 53862 net.cpp:129] Top shape: 32 (32)
I1220 17:57:35.613351 53862 net.cpp:129] Top shape: 32 (32)
I1220 17:57:35.613358 53862 net.cpp:137] Memory required for data: 19787648
I1220 17:57:35.613364 53862 layer_factory.hpp:77] Creating layer quantized_data
I1220 17:57:35.613379 53862 net.cpp:84] Creating Layer quantized_data
I1220 17:57:35.613386 53862 net.cpp:406] quantized_data <- data
I1220 17:57:35.613396 53862 net.cpp:380] quantized_data -> quantized_data
I1220 17:57:35.613411 53862 net.cpp:122] Setting up quantized_data
I1220 17:57:35.613420 53862 net.cpp:129] Top shape: 32 3 227 227 (4946784)
I1220 17:57:35.613427 53862 net.cpp:137] Memory required for data: 39574784
I1220 17:57:35.613433 53862 layer_factory.hpp:77] Creating layer conv1
I1220 17:57:35.613459 53862 net.cpp:84] Creating Layer conv1
I1220 17:57:35.613468 53862 net.cpp:406] conv1 <- quantized_data
I1220 17:57:35.613478 53862 net.cpp:380] conv1 -> conv1
I1220 17:57:35.614594 53862 net.cpp:122] Setting up conv1
I1220 17:57:35.614609 53862 net.cpp:129] Top shape: 32 96 55 55 (9292800)
I1220 17:57:35.614615 53862 net.cpp:137] Memory required for data: 76745984
I1220 17:57:35.614639 53862 layer_factory.hpp:77] Creating layer quantized_conv1
I1220 17:57:35.614650 53862 net.cpp:84] Creating Layer quantized_conv1
I1220 17:57:35.614658 53862 net.cpp:406] quantized_conv1 <- conv1
I1220 17:57:35.614667 53862 net.cpp:380] quantized_conv1 -> quantized_conv1
I1220 17:57:35.614678 53862 net.cpp:122] Setting up quantized_conv1
I1220 17:57:35.614687 53862 net.cpp:129] Top shape: 32 96 55 55 (9292800)
I1220 17:57:35.614693 53862 net.cpp:137] Memory required for data: 113917184
I1220 17:57:35.614699 53862 layer_factory.hpp:77] Creating layer relu1
I1220 17:57:35.614709 53862 net.cpp:84] Creating Layer relu1
I1220 17:57:35.614715 53862 net.cpp:406] relu1 <- quantized_conv1
I1220 17:57:35.614724 53862 net.cpp:380] relu1 -> relu1
I1220 17:57:35.614734 53862 net.cpp:122] Setting up relu1
I1220 17:57:35.614742 53862 net.cpp:129] Top shape: 32 96 55 55 (9292800)
I1220 17:57:35.614749 53862 net.cpp:137] Memory required for data: 151088384
I1220 17:57:35.614755 53862 layer_factory.hpp:77] Creating layer quantized_relu1
I1220 17:57:35.614764 53862 net.cpp:84] Creating Layer quantized_relu1
I1220 17:57:35.614771 53862 net.cpp:406] quantized_relu1 <- relu1
I1220 17:57:35.614780 53862 net.cpp:380] quantized_relu1 -> quantized_relu1
I1220 17:57:35.614792 53862 net.cpp:122] Setting up quantized_relu1
I1220 17:57:35.614801 53862 net.cpp:129] Top shape: 32 96 55 55 (9292800)
I1220 17:57:35.614807 53862 net.cpp:137] Memory required for data: 188259584
I1220 17:57:35.614814 53862 layer_factory.hpp:77] Creating layer pool1
I1220 17:57:35.614825 53862 net.cpp:84] Creating Layer pool1
I1220 17:57:35.614831 53862 net.cpp:406] pool1 <- quantized_relu1
I1220 17:57:35.614840 53862 net.cpp:380] pool1 -> pool1
I1220 17:57:35.614864 53862 net.cpp:122] Setting up pool1
I1220 17:57:35.614874 53862 net.cpp:129] Top shape: 32 96 27 27 (2239488)
I1220 17:57:35.614881 53862 net.cpp:137] Memory required for data: 197217536
I1220 17:57:35.614888 53862 layer_factory.hpp:77] Creating layer quantized_pool1
I1220 17:57:35.614898 53862 net.cpp:84] Creating Layer quantized_pool1
I1220 17:57:35.614905 53862 net.cpp:406] quantized_pool1 <- pool1
I1220 17:57:35.614915 53862 net.cpp:380] quantized_pool1 -> quantized_pool1
I1220 17:57:35.614924 53862 net.cpp:122] Setting up quantized_pool1
I1220 17:57:35.614933 53862 net.cpp:129] Top shape: 32 96 27 27 (2239488)
I1220 17:57:35.614939 53862 net.cpp:137] Memory required for data: 206175488
I1220 17:57:35.614945 53862 layer_factory.hpp:77] Creating layer norm1
I1220 17:57:35.614967 53862 net.cpp:84] Creating Layer norm1
I1220 17:57:35.614977 53862 net.cpp:406] norm1 <- quantized_pool1
I1220 17:57:35.614986 53862 net.cpp:380] norm1 -> norm1
I1220 17:57:35.615010 53862 net.cpp:122] Setting up norm1
I1220 17:57:35.615027 53862 net.cpp:129] Top shape: 32 96 27 27 (2239488)
I1220 17:57:35.615034 53862 net.cpp:137] Memory required for data: 215133440
I1220 17:57:35.615041 53862 layer_factory.hpp:77] Creating layer quantized_norm1
I1220 17:57:35.615051 53862 net.cpp:84] Creating Layer quantized_norm1
I1220 17:57:35.615057 53862 net.cpp:406] quantized_norm1 <- norm1
I1220 17:57:35.615067 53862 net.cpp:380] quantized_norm1 -> quantized_norm1
I1220 17:57:35.615077 53862 net.cpp:122] Setting up quantized_norm1
I1220 17:57:35.615085 53862 net.cpp:129] Top shape: 32 96 27 27 (2239488)
I1220 17:57:35.615092 53862 net.cpp:137] Memory required for data: 224091392
I1220 17:57:35.615098 53862 layer_factory.hpp:77] Creating layer conv2
I1220 17:57:35.615111 53862 net.cpp:84] Creating Layer conv2
I1220 17:57:35.615118 53862 net.cpp:406] conv2 <- quantized_norm1
I1220 17:57:35.615128 53862 net.cpp:380] conv2 -> conv2
I1220 17:57:35.624408 53862 net.cpp:122] Setting up conv2
I1220 17:57:35.624459 53862 net.cpp:129] Top shape: 32 256 27 27 (5971968)
I1220 17:57:35.624465 53862 net.cpp:137] Memory required for data: 247979264
I1220 17:57:35.624485 53862 layer_factory.hpp:77] Creating layer quantized_conv2
I1220 17:57:35.624501 53862 net.cpp:84] Creating Layer quantized_conv2
I1220 17:57:35.624511 53862 net.cpp:406] quantized_conv2 <- conv2
I1220 17:57:35.624526 53862 net.cpp:380] quantized_conv2 -> quantized_conv2
I1220 17:57:35.624543 53862 net.cpp:122] Setting up quantized_conv2
I1220 17:57:35.624552 53862 net.cpp:129] Top shape: 32 256 27 27 (5971968)
I1220 17:57:35.624558 53862 net.cpp:137] Memory required for data: 271867136
I1220 17:57:35.624564 53862 layer_factory.hpp:77] Creating layer relu2
I1220 17:57:35.624574 53862 net.cpp:84] Creating Layer relu2
I1220 17:57:35.624580 53862 net.cpp:406] relu2 <- quantized_conv2
I1220 17:57:35.624591 53862 net.cpp:380] relu2 -> relu2
I1220 17:57:35.624603 53862 net.cpp:122] Setting up relu2
I1220 17:57:35.624614 53862 net.cpp:129] Top shape: 32 256 27 27 (5971968)
I1220 17:57:35.624619 53862 net.cpp:137] Memory required for data: 295755008
I1220 17:57:35.624626 53862 layer_factory.hpp:77] Creating layer quantized_relu2
I1220 17:57:35.624635 53862 net.cpp:84] Creating Layer quantized_relu2
I1220 17:57:35.624642 53862 net.cpp:406] quantized_relu2 <- relu2
I1220 17:57:35.624652 53862 net.cpp:380] quantized_relu2 -> quantized_relu2
I1220 17:57:35.624663 53862 net.cpp:122] Setting up quantized_relu2
I1220 17:57:35.624671 53862 net.cpp:129] Top shape: 32 256 27 27 (5971968)
I1220 17:57:35.624677 53862 net.cpp:137] Memory required for data: 319642880
I1220 17:57:35.624685 53862 layer_factory.hpp:77] Creating layer pool2
I1220 17:57:35.624694 53862 net.cpp:84] Creating Layer pool2
I1220 17:57:35.624701 53862 net.cpp:406] pool2 <- quantized_relu2
I1220 17:57:35.624711 53862 net.cpp:380] pool2 -> pool2
I1220 17:57:35.624727 53862 net.cpp:122] Setting up pool2
I1220 17:57:35.624735 53862 net.cpp:129] Top shape: 32 256 13 13 (1384448)
I1220 17:57:35.624742 53862 net.cpp:137] Memory required for data: 325180672
I1220 17:57:35.624748 53862 layer_factory.hpp:77] Creating layer quantized_pool2
I1220 17:57:35.624760 53862 net.cpp:84] Creating Layer quantized_pool2
I1220 17:57:35.624768 53862 net.cpp:406] quantized_pool2 <- pool2
I1220 17:57:35.624778 53862 net.cpp:380] quantized_pool2 -> quantized_pool2
I1220 17:57:35.624788 53862 net.cpp:122] Setting up quantized_pool2
I1220 17:57:35.624797 53862 net.cpp:129] Top shape: 32 256 13 13 (1384448)
I1220 17:57:35.624804 53862 net.cpp:137] Memory required for data: 330718464
I1220 17:57:35.624810 53862 layer_factory.hpp:77] Creating layer norm2
I1220 17:57:35.624824 53862 net.cpp:84] Creating Layer norm2
I1220 17:57:35.624831 53862 net.cpp:406] norm2 <- quantized_pool2
I1220 17:57:35.624840 53862 net.cpp:380] norm2 -> norm2
I1220 17:57:35.624851 53862 net.cpp:122] Setting up norm2
I1220 17:57:35.624861 53862 net.cpp:129] Top shape: 32 256 13 13 (1384448)
I1220 17:57:35.624866 53862 net.cpp:137] Memory required for data: 336256256
I1220 17:57:35.624902 53862 layer_factory.hpp:77] Creating layer quantized_norm2
I1220 17:57:35.624912 53862 net.cpp:84] Creating Layer quantized_norm2
I1220 17:57:35.624918 53862 net.cpp:406] quantized_norm2 <- norm2
I1220 17:57:35.624929 53862 net.cpp:380] quantized_norm2 -> quantized_norm2
I1220 17:57:35.624940 53862 net.cpp:122] Setting up quantized_norm2
I1220 17:57:35.624948 53862 net.cpp:129] Top shape: 32 256 13 13 (1384448)
I1220 17:57:35.624955 53862 net.cpp:137] Memory required for data: 341794048
I1220 17:57:35.624961 53862 layer_factory.hpp:77] Creating layer conv3
I1220 17:57:35.624979 53862 net.cpp:84] Creating Layer conv3
I1220 17:57:35.624986 53862 net.cpp:406] conv3 <- quantized_norm2
I1220 17:57:35.624999 53862 net.cpp:380] conv3 -> conv3
I1220 17:57:35.652344 53862 net.cpp:122] Setting up conv3
I1220 17:57:35.652397 53862 net.cpp:129] Top shape: 32 384 13 13 (2076672)
I1220 17:57:35.652405 53862 net.cpp:137] Memory required for data: 350100736
I1220 17:57:35.652423 53862 layer_factory.hpp:77] Creating layer quantized_conv3
I1220 17:57:35.652441 53862 net.cpp:84] Creating Layer quantized_conv3
I1220 17:57:35.652451 53862 net.cpp:406] quantized_conv3 <- conv3
I1220 17:57:35.652463 53862 net.cpp:380] quantized_conv3 -> quantized_conv3
I1220 17:57:35.652480 53862 net.cpp:122] Setting up quantized_conv3
I1220 17:57:35.652489 53862 net.cpp:129] Top shape: 32 384 13 13 (2076672)
I1220 17:57:35.652495 53862 net.cpp:137] Memory required for data: 358407424
I1220 17:57:35.652501 53862 layer_factory.hpp:77] Creating layer relu3
I1220 17:57:35.652513 53862 net.cpp:84] Creating Layer relu3
I1220 17:57:35.652520 53862 net.cpp:406] relu3 <- quantized_conv3
I1220 17:57:35.652529 53862 net.cpp:380] relu3 -> relu3
I1220 17:57:35.652539 53862 net.cpp:122] Setting up relu3
I1220 17:57:35.652547 53862 net.cpp:129] Top shape: 32 384 13 13 (2076672)
I1220 17:57:35.652554 53862 net.cpp:137] Memory required for data: 366714112
I1220 17:57:35.652560 53862 layer_factory.hpp:77] Creating layer quantized_relu3
I1220 17:57:35.652568 53862 net.cpp:84] Creating Layer quantized_relu3
I1220 17:57:35.652578 53862 net.cpp:406] quantized_relu3 <- relu3
I1220 17:57:35.652587 53862 net.cpp:380] quantized_relu3 -> quantized_relu3
I1220 17:57:35.652597 53862 net.cpp:122] Setting up quantized_relu3
I1220 17:57:35.652606 53862 net.cpp:129] Top shape: 32 384 13 13 (2076672)
I1220 17:57:35.652612 53862 net.cpp:137] Memory required for data: 375020800
I1220 17:57:35.652618 53862 layer_factory.hpp:77] Creating layer conv4
I1220 17:57:35.652637 53862 net.cpp:84] Creating Layer conv4
I1220 17:57:35.652645 53862 net.cpp:406] conv4 <- quantized_relu3
I1220 17:57:35.652657 53862 net.cpp:380] conv4 -> conv4
I1220 17:57:35.672744 53862 net.cpp:122] Setting up conv4
I1220 17:57:35.672794 53862 net.cpp:129] Top shape: 32 384 13 13 (2076672)
I1220 17:57:35.672802 53862 net.cpp:137] Memory required for data: 383327488
I1220 17:57:35.672816 53862 layer_factory.hpp:77] Creating layer quantized_conv4
I1220 17:57:35.672832 53862 net.cpp:84] Creating Layer quantized_conv4
I1220 17:57:35.672842 53862 net.cpp:406] quantized_conv4 <- conv4
I1220 17:57:35.672857 53862 net.cpp:380] quantized_conv4 -> quantized_conv4
I1220 17:57:35.672874 53862 net.cpp:122] Setting up quantized_conv4
I1220 17:57:35.672883 53862 net.cpp:129] Top shape: 32 384 13 13 (2076672)
I1220 17:57:35.672889 53862 net.cpp:137] Memory required for data: 391634176
I1220 17:57:35.672896 53862 layer_factory.hpp:77] Creating layer relu4
I1220 17:57:35.672905 53862 net.cpp:84] Creating Layer relu4
I1220 17:57:35.672912 53862 net.cpp:406] relu4 <- quantized_conv4
I1220 17:57:35.672924 53862 net.cpp:380] relu4 -> relu4
I1220 17:57:35.672933 53862 net.cpp:122] Setting up relu4
I1220 17:57:35.672942 53862 net.cpp:129] Top shape: 32 384 13 13 (2076672)
I1220 17:57:35.672948 53862 net.cpp:137] Memory required for data: 399940864
I1220 17:57:35.672955 53862 layer_factory.hpp:77] Creating layer quantized_relu4
I1220 17:57:35.672963 53862 net.cpp:84] Creating Layer quantized_relu4
I1220 17:57:35.672986 53862 net.cpp:406] quantized_relu4 <- relu4
I1220 17:57:35.673013 53862 net.cpp:380] quantized_relu4 -> quantized_relu4
I1220 17:57:35.673024 53862 net.cpp:122] Setting up quantized_relu4
I1220 17:57:35.673033 53862 net.cpp:129] Top shape: 32 384 13 13 (2076672)
I1220 17:57:35.673040 53862 net.cpp:137] Memory required for data: 408247552
I1220 17:57:35.673046 53862 layer_factory.hpp:77] Creating layer conv5
I1220 17:57:35.673064 53862 net.cpp:84] Creating Layer conv5
I1220 17:57:35.673072 53862 net.cpp:406] conv5 <- quantized_relu4
I1220 17:57:35.673081 53862 net.cpp:380] conv5 -> conv5
I1220 17:57:35.686763 53862 net.cpp:122] Setting up conv5
I1220 17:57:35.686812 53862 net.cpp:129] Top shape: 32 256 13 13 (1384448)
I1220 17:57:35.686820 53862 net.cpp:137] Memory required for data: 413785344
I1220 17:57:35.686841 53862 layer_factory.hpp:77] Creating layer quantized_conv5
I1220 17:57:35.686859 53862 net.cpp:84] Creating Layer quantized_conv5
I1220 17:57:35.686868 53862 net.cpp:406] quantized_conv5 <- conv5
I1220 17:57:35.686883 53862 net.cpp:380] quantized_conv5 -> quantized_conv5
I1220 17:57:35.686900 53862 net.cpp:122] Setting up quantized_conv5
I1220 17:57:35.686909 53862 net.cpp:129] Top shape: 32 256 13 13 (1384448)
I1220 17:57:35.686915 53862 net.cpp:137] Memory required for data: 419323136
I1220 17:57:35.686923 53862 layer_factory.hpp:77] Creating layer relu5
I1220 17:57:35.686931 53862 net.cpp:84] Creating Layer relu5
I1220 17:57:35.686939 53862 net.cpp:406] relu5 <- quantized_conv5
I1220 17:57:35.686946 53862 net.cpp:380] relu5 -> relu5
I1220 17:57:35.686969 53862 net.cpp:122] Setting up relu5
I1220 17:57:35.686981 53862 net.cpp:129] Top shape: 32 256 13 13 (1384448)
I1220 17:57:35.686987 53862 net.cpp:137] Memory required for data: 424860928
I1220 17:57:35.686995 53862 layer_factory.hpp:77] Creating layer quantized_relu5
I1220 17:57:35.687003 53862 net.cpp:84] Creating Layer quantized_relu5
I1220 17:57:35.687011 53862 net.cpp:406] quantized_relu5 <- relu5
I1220 17:57:35.687021 53862 net.cpp:380] quantized_relu5 -> quantized_relu5
I1220 17:57:35.687032 53862 net.cpp:122] Setting up quantized_relu5
I1220 17:57:35.687041 53862 net.cpp:129] Top shape: 32 256 13 13 (1384448)
I1220 17:57:35.687047 53862 net.cpp:137] Memory required for data: 430398720
I1220 17:57:35.687053 53862 layer_factory.hpp:77] Creating layer pool5
I1220 17:57:35.687064 53862 net.cpp:84] Creating Layer pool5
I1220 17:57:35.687070 53862 net.cpp:406] pool5 <- quantized_relu5
I1220 17:57:35.687083 53862 net.cpp:380] pool5 -> pool5
I1220 17:57:35.687096 53862 net.cpp:122] Setting up pool5
I1220 17:57:35.687105 53862 net.cpp:129] Top shape: 32 256 6 6 (294912)
I1220 17:57:35.687111 53862 net.cpp:137] Memory required for data: 431578368
I1220 17:57:35.687119 53862 layer_factory.hpp:77] Creating layer quantized_pool5
I1220 17:57:35.687137 53862 net.cpp:84] Creating Layer quantized_pool5
I1220 17:57:35.687145 53862 net.cpp:406] quantized_pool5 <- pool5
I1220 17:57:35.687155 53862 net.cpp:380] quantized_pool5 -> quantized_pool5
I1220 17:57:35.687165 53862 net.cpp:122] Setting up quantized_pool5
I1220 17:57:35.687173 53862 net.cpp:129] Top shape: 32 256 6 6 (294912)
I1220 17:57:35.687180 53862 net.cpp:137] Memory required for data: 432758016
I1220 17:57:35.687186 53862 layer_factory.hpp:77] Creating layer fc6
I1220 17:57:35.687206 53862 net.cpp:84] Creating Layer fc6
I1220 17:57:35.687213 53862 net.cpp:406] fc6 <- quantized_pool5
I1220 17:57:35.687222 53862 net.cpp:380] fc6 -> fc6
I1220 17:57:36.816277 53862 net.cpp:122] Setting up fc6
I1220 17:57:36.816346 53862 net.cpp:129] Top shape: 32 4096 (131072)
I1220 17:57:36.816354 53862 net.cpp:137] Memory required for data: 433282304
I1220 17:57:36.816370 53862 layer_factory.hpp:77] Creating layer quantized_fc6
I1220 17:57:36.816390 53862 net.cpp:84] Creating Layer quantized_fc6
I1220 17:57:36.816399 53862 net.cpp:406] quantized_fc6 <- fc6
I1220 17:57:36.816416 53862 net.cpp:380] quantized_fc6 -> quantized_fc6
I1220 17:57:36.816435 53862 net.cpp:122] Setting up quantized_fc6
I1220 17:57:36.816457 53862 net.cpp:129] Top shape: 32 4096 (131072)
I1220 17:57:36.816478 53862 net.cpp:137] Memory required for data: 433806592
I1220 17:57:36.816484 53862 layer_factory.hpp:77] Creating layer relu6
I1220 17:57:36.816494 53862 net.cpp:84] Creating Layer relu6
I1220 17:57:36.816501 53862 net.cpp:406] relu6 <- quantized_fc6
I1220 17:57:36.816510 53862 net.cpp:380] relu6 -> relu6
I1220 17:57:36.816521 53862 net.cpp:122] Setting up relu6
I1220 17:57:36.816529 53862 net.cpp:129] Top shape: 32 4096 (131072)
I1220 17:57:36.816535 53862 net.cpp:137] Memory required for data: 434330880
I1220 17:57:36.816541 53862 layer_factory.hpp:77] Creating layer quantized_relu6
I1220 17:57:36.816550 53862 net.cpp:84] Creating Layer quantized_relu6
I1220 17:57:36.816557 53862 net.cpp:406] quantized_relu6 <- relu6
I1220 17:57:36.816567 53862 net.cpp:380] quantized_relu6 -> quantized_relu6
I1220 17:57:36.816576 53862 net.cpp:122] Setting up quantized_relu6
I1220 17:57:36.816584 53862 net.cpp:129] Top shape: 32 4096 (131072)
I1220 17:57:36.816591 53862 net.cpp:137] Memory required for data: 434855168
I1220 17:57:36.816597 53862 layer_factory.hpp:77] Creating layer fc7
I1220 17:57:36.816613 53862 net.cpp:84] Creating Layer fc7
I1220 17:57:36.816622 53862 net.cpp:406] fc7 <- quantized_relu6
I1220 17:57:36.816630 53862 net.cpp:380] fc7 -> fc7
I1220 17:57:37.318043 53862 net.cpp:122] Setting up fc7
I1220 17:57:37.318100 53862 net.cpp:129] Top shape: 32 4096 (131072)
I1220 17:57:37.318107 53862 net.cpp:137] Memory required for data: 435379456
I1220 17:57:37.318122 53862 layer_factory.hpp:77] Creating layer quantized_fc7
I1220 17:57:37.318138 53862 net.cpp:84] Creating Layer quantized_fc7
I1220 17:57:37.318148 53862 net.cpp:406] quantized_fc7 <- fc7
I1220 17:57:37.318164 53862 net.cpp:380] quantized_fc7 -> quantized_fc7
I1220 17:57:37.318182 53862 net.cpp:122] Setting up quantized_fc7
I1220 17:57:37.318192 53862 net.cpp:129] Top shape: 32 4096 (131072)
I1220 17:57:37.318197 53862 net.cpp:137] Memory required for data: 435903744
I1220 17:57:37.318203 53862 layer_factory.hpp:77] Creating layer relu7
I1220 17:57:37.318213 53862 net.cpp:84] Creating Layer relu7
I1220 17:57:37.318219 53862 net.cpp:406] relu7 <- quantized_fc7
I1220 17:57:37.318228 53862 net.cpp:380] relu7 -> relu7
I1220 17:57:37.318238 53862 net.cpp:122] Setting up relu7
I1220 17:57:37.318246 53862 net.cpp:129] Top shape: 32 4096 (131072)
I1220 17:57:37.318253 53862 net.cpp:137] Memory required for data: 436428032
I1220 17:57:37.318259 53862 layer_factory.hpp:77] Creating layer quantized_relu7
I1220 17:57:37.318267 53862 net.cpp:84] Creating Layer quantized_relu7
I1220 17:57:37.318274 53862 net.cpp:406] quantized_relu7 <- relu7
I1220 17:57:37.318285 53862 net.cpp:380] quantized_relu7 -> quantized_relu7
I1220 17:57:37.318295 53862 net.cpp:122] Setting up quantized_relu7
I1220 17:57:37.318305 53862 net.cpp:129] Top shape: 32 4096 (131072)
I1220 17:57:37.318310 53862 net.cpp:137] Memory required for data: 436952320
I1220 17:57:37.318316 53862 layer_factory.hpp:77] Creating layer fc8
I1220 17:57:37.318327 53862 net.cpp:84] Creating Layer fc8
I1220 17:57:37.318334 53862 net.cpp:406] fc8 <- quantized_relu7
I1220 17:57:37.318343 53862 net.cpp:380] fc8 -> fc8
I1220 17:57:37.325506 53862 net.cpp:122] Setting up fc8
I1220 17:57:37.325572 53862 net.cpp:129] Top shape: 32 1000 (32000)
I1220 17:57:37.325579 53862 net.cpp:137] Memory required for data: 437080320
I1220 17:57:37.325594 53862 layer_factory.hpp:77] Creating layer quantized_fc8
I1220 17:57:37.325615 53862 net.cpp:84] Creating Layer quantized_fc8
I1220 17:57:37.325626 53862 net.cpp:406] quantized_fc8 <- fc8
I1220 17:57:37.325640 53862 net.cpp:380] quantized_fc8 -> quantized_fc8
I1220 17:57:37.325657 53862 net.cpp:122] Setting up quantized_fc8
I1220 17:57:37.325666 53862 net.cpp:129] Top shape: 32 1000 (32000)
I1220 17:57:37.325672 53862 net.cpp:137] Memory required for data: 437208320
I1220 17:57:37.325678 53862 layer_factory.hpp:77] Creating layer quantized_fc8_quantized_fc8_0_split
I1220 17:57:37.325695 53862 net.cpp:84] Creating Layer quantized_fc8_quantized_fc8_0_split
I1220 17:57:37.325731 53862 net.cpp:406] quantized_fc8_quantized_fc8_0_split <- quantized_fc8
I1220 17:57:37.325740 53862 net.cpp:380] quantized_fc8_quantized_fc8_0_split -> quantized_fc8_quantized_fc8_0_split_0
I1220 17:57:37.325750 53862 net.cpp:380] quantized_fc8_quantized_fc8_0_split -> quantized_fc8_quantized_fc8_0_split_1
I1220 17:57:37.325760 53862 net.cpp:380] quantized_fc8_quantized_fc8_0_split -> quantized_fc8_quantized_fc8_0_split_2
I1220 17:57:37.325769 53862 net.cpp:380] quantized_fc8_quantized_fc8_0_split -> quantized_fc8_quantized_fc8_0_split_3
I1220 17:57:37.325783 53862 net.cpp:122] Setting up quantized_fc8_quantized_fc8_0_split
I1220 17:57:37.325791 53862 net.cpp:129] Top shape: 32 1000 (32000)
I1220 17:57:37.325799 53862 net.cpp:129] Top shape: 32 1000 (32000)
I1220 17:57:37.325806 53862 net.cpp:129] Top shape: 32 1000 (32000)
I1220 17:57:37.325812 53862 net.cpp:129] Top shape: 32 1000 (32000)
I1220 17:57:37.325819 53862 net.cpp:137] Memory required for data: 437720320
I1220 17:57:37.325825 53862 layer_factory.hpp:77] Creating layer probs
I1220 17:57:37.325834 53862 net.cpp:84] Creating Layer probs
I1220 17:57:37.325841 53862 net.cpp:406] probs <- quantized_fc8_quantized_fc8_0_split_0
I1220 17:57:37.325852 53862 net.cpp:380] probs -> probs
I1220 17:57:37.325875 53862 net.cpp:122] Setting up probs
I1220 17:57:37.325886 53862 net.cpp:129] Top shape: 32 1000 (32000)
I1220 17:57:37.325891 53862 net.cpp:137] Memory required for data: 437848320
I1220 17:57:37.325897 53862 layer_factory.hpp:77] Creating layer loss
I1220 17:57:37.325907 53862 net.cpp:84] Creating Layer loss
I1220 17:57:37.325914 53862 net.cpp:406] loss <- quantized_fc8_quantized_fc8_0_split_1
I1220 17:57:37.325922 53862 net.cpp:406] loss <- label_data_1_split_0
I1220 17:57:37.325932 53862 net.cpp:380] loss -> loss
…
I1220 17:57:37.327663 53862 net.cpp:294] The NetState phase (1) differed from the phase (0) specified by a rule in layer data
I1220 17:57:37.327999 53862 net.cpp:51] Initializing net from parameters: 
state {
  phase: TEST
}
layer {
  name: "data"
  type: "Data"
  top: "data"
  top: "label"
  include {
    phase: TEST
  }
  transform_param {
    mirror: false
    crop_size: 227
    mean_file: "/home/ydwu/database/imagenet/ilsvrc12/imagenet_mean.binaryproto"
  }
  data_param {
    source: "/home/ydwu/database/imagenet/ilsvrc12/lmdb_resize/ilsvrc12_val_lmdb/"
    batch_size: 20
    backend: LMDB
  }
}
layer {
  name: "quantized_data"
  type: "Quantization"
  bottom: "data"
  top: "quantized_data"
  quantization_param {
    round_method: FLOOR
    round_strategy: AGGRESSIVE
    bit_width: 8
    range: -129.93526
    range: 160.78912
  }
}
layer {
  name: "conv1"
  type: "Convolution"
  bottom: "quantized_data"
  top: "conv1"
  param {
    lr_mult: 1
    decay_mult: 1
  }
  param {
    lr_mult: 2
    decay_mult: 0
  }
  convolution_param {
    num_output: 96
    pad: 0
    kernel_size: 11
    group: 1
    stride: 4
    weight_filler {
      type: "gaussian"
      std: 1.1e+13
    }
    bias_filler {
      type: "constant"
      std: 0.1
    }
  }
}
layer {
  name: "quantized_conv1"
  type: "Quantization"
  bottom: "conv1"
  top: "quantized_conv1"
  quantization_param {
    round_method: FLOOR
    round_strategy: AGGRESSIVE
    bit_width: 8
    range: -2732.7351
    range: 2531.042
  }
}
layer {
  name: "relu1"
  type: "ReLU"
  bottom: "quantized_conv1"
  top: "relu1"
}
layer {
  name: "quantized_relu1"
  type: "Quantization"
  bottom: "relu1"
  top: "quantized_relu1"
  quantization_param {
    round_method: FLOOR
    round_strategy: AGGRESSIVE
    bit_width: 8
    range: 1
    range: 2531.042
  }
}
layer {
  name: "pool1"
  type: "Pooling"
  bottom: "quantized_relu1"
  top: "pool1"
  pooling_param {
    pool: MAX
    kernel_size: 3
    stride: 2
  }
}
layer {
  name: "quantized_pool1"
  type: "Quantization"
  bottom: "pool1"
  top: "quantized_pool1"
  quantization_param {
    round_method: FLOOR
    round_strategy: AGGRESSIVE
    bit_width: 8
    range: 1
    range: 2531.042
  }
}
layer {
  name: "norm1"
  type: "LRN"
  bottom: "quantized_pool1"
  top: "norm1"
  lrn_param {
    local_size: 5
    alpha: 0.0001
    beta: 0.75
  }
}
layer {
  name: "quantized_norm1"
  type: "Quantization"
  bottom: "norm1"
  top: "quantized_norm1"
  quantization_param {
    round_method: FLOOR
    round_strategy: AGGRESSIVE
    bit_width: 8
    range: 1
    range: 138.70576
  }
}
layer {
  name: "conv2"
  type: "Convolution"
  bottom: "quantized_norm1"
  top: "conv2"
  param {
    lr_mult: 1
    decay_mult: 1
  }
  param {
    lr_mult: 2
    decay_mult: 0
  }
  convolution_param {
    num_output: 256
    pad: 2
    kernel_size: 5
    group: 2
    stride: 1
    weight_filler {
      type: "gaussian"
      std: 1.1e+13
    }
    bias_filler {
      type: "constant"
      std: 0.1
    }
  }
}
layer {
  name: "quantized_conv2"
  type: "Quantization"
  bottom: "conv2"
  top: "quantized_conv2"
  quantization_param {
    round_method: FLOOR
    round_strategy: AGGRESSIVE
    bit_width: 8
    range: -647.61908
    range: 492.23111
  }
}
layer {
  name: "relu2"
  type: "ReLU"
  bottom: "quantized_conv2"
  top: "relu2"
}
layer {
  name: "quantized_relu2"
  type: "Quantization"
  bottom: "relu2"
  top: "quantized_relu2"
  quantization_param {
    round_method: FLOOR
    round_strategy: AGGRESSIVE
    bit_width: 8
    range: 1
    range: 492.23111
  }
}
layer {
  name: "pool2"
  type: "Pooling"
  bottom: "quantized_relu2"
  top: "pool2"
  pooling_param {
    pool: MAX
    kernel_size: 3
    stride: 2
  }
}
layer {
  name: "quantized_pool2"
  type: "Quantization"
  bottom: "pool2"
  top: "quantized_pool2"
  quantization_param {
    round_method: FLOOR
    round_strategy: AGGRESSIVE
    bit_width: 8
    range: 1
    range: 492.23111
  }
}
layer {
  name: "norm2"
  type: "LRN"
  bottom: "quantized_pool2"
  top: "norm2"
  lrn_param {
    local_size: 5
    alpha: 0.0001
    beta: 0.75
  }
}
layer {
  name: "quantized_norm2"
  type: "Quantization"
  bottom: "norm2"
  top: "quantized_norm2"
  quantization_param {
    round_method: FLOOR
    round_strategy: AGGRESSIVE
    bit_width: 8
    range: 1
    range: 138.72636
  }
}
layer {
  name: "conv3"
  type: "Convolution"
  bottom: "quantized_norm2"
  top: "conv3"
  param {
    lr_mult: 1
    decay_mult: 1
  }
  param {
    lr_mult: 2
    decay_mult: 0
  }
  convolution_param {
    num_output: 384
    pad: 1
    kernel_size: 3
    group: 1
    stride: 1
    weight_filler {
      type: "gaussian"
      std: 1.1e+13
    }
    bias_filler {
      type: "constant"
      std: 0.1
    }
  }
}
layer {
  name: "quantized_conv3"
  type: "Quantization"
  bottom: "conv3"
  top: "quantized_conv3"
  quantization_param {
    round_method: FLOOR
    round_strategy: AGGRESSIVE
    bit_width: 8
    range: -389.56516
    range: 331.98178
  }
}
layer {
  name: "relu3"
  type: "ReLU"
  bottom: "quantized_conv3"
  top: "relu3"
}
layer {
  name: "quantized_relu3"
  type: "Quantization"
  bottom: "relu3"
  top: "quantized_relu3"
  quantization_param {
    round_method: FLOOR
    round_strategy: AGGRESSIVE
    bit_width: 8
    range: 1
    range: 331.98178
  }
}
layer {
  name: "conv4"
  type: "Convolution"
  bottom: "quantized_relu3"
  top: "conv4"
  param {
    lr_mult: 1
    decay_mult: 1
  }
  param {
    lr_mult: 2
    decay_mult: 0
  }
  convolution_param {
    num_output: 384
    pad: 1
    kernel_size: 3
    group: 2
    stride: 1
    weight_filler {
      type: "gaussian"
      std: 1.1e+13
    }
    bias_filler {
      type: "constant"
      std: 0.1
    }
  }
}
layer {
  name: "quantized_conv4"
  type: "Quantization"
  bottom: "conv4"
  top: "quantized_conv4"
  quantization_param {
    round_method: FLOOR
    round_strategy: AGGRESSIVE
    bit_width: 8
    range: -231.20598
    range: 283.87189
  }
}
layer {
  name: "relu4"
  type: "ReLU"
  bottom: "quantized_conv4"
  top: "relu4"
}
layer {
  name: "quantized_relu4"
  type: "Quantization"
  bottom: "relu4"
  top: "quantized_relu4"
  quantization_param {
    round_method: FLOOR
    round_strategy: AGGRESSIVE
    bit_width: 8
    range: 1
    range: 283.87189
  }
}
layer {
  name: "conv5"
  type: "Convolution"
  bottom: "quantized_relu4"
  top: "conv5"
  param {
    lr_mult: 1
    decay_mult: 1
  }
  param {
    lr_mult: 2
    decay_mult: 0
  }
  convolution_param {
    num_output: 256
    pad: 1
    kernel_size: 3
    group: 2
    stride: 1
    weight_filler {
      type: "gaussian"
      std: 1.1e+13
    }
    bias_filler {
      type: "constant"
      std: 0.1
    }
  }
}
layer {
  name: "quantized_conv5"
  type: "Quantization"
  bottom: "conv5"
  top: "quantized_conv5"
  quantization_param {
    round_method: FLOOR
    round_strategy: AGGRESSIVE
    bit_width: 8
    range: -172.60567
    range: 272.57315
  }
}
layer {
  name: "relu5"
  type: "ReLU"
  bottom: "quantized_conv5"
  top: "relu5"
}
layer {
  name: "quantized_relu5"
  type: "Quantization"
  bottom: "relu5"
  top: "quantized_relu5"
  quantization_param {
    round_method: FLOOR
    round_strategy: AGGRESSIVE
    bit_width: 8
    range: 1
    range: 272.57315
  }
}
layer {
  name: "pool5"
  type: "Pooling"
  bottom: "quantized_relu5"
  top: "pool5"
  pooling_param {
    pool: MAX
    kernel_size: 3
    stride: 2
  }
}
layer {
  name: "quantized_pool5"
  type: "Quantization"
  bottom: "pool5"
  top: "quantized_pool5"
  quantization_param {
    round_method: FLOOR
    round_strategy: AGGRESSIVE
    bit_width: 8
    range: 1
    range: 272.57315
  }
}
layer {
  name: "fc6"
  type: "InnerProduct"
  bottom: "quantized_pool5"
  top: "fc6"
  param {
    lr_mult: 1
    decay_mult: 1
  }
  param {
    lr_mult: 2
    decay_mult: 0
  }
  inner_product_param {
    num_output: 4096
    weight_filler {
      type: "gaussian"
      std: 1.05e+13
    }
    bias_filler {
      type: "constant"
      value: 0.1
    }
  }
}
layer {
  name: "quantized_fc6"
  type: "Quantization"
  bottom: "fc6"
  top: "quantized_fc6"
  quantization_param {
    round_method: FLOOR
    round_strategy: AGGRESSIVE
    bit_width: 8
    range: -114.02487
    range: 58.541733
  }
}
layer {
  name: "relu6"
  type: "ReLU"
  bottom: "quantized_fc6"
  top: "relu6"
}
layer {
  name: "quantized_relu6"
  type: "Quantization"
  bottom: "relu6"
  top: "quantized_relu6"
  quantization_param {
    round_method: FLOOR
    round_strategy: AGGRESSIVE
    bit_width: 8
    range: 1
    range: 58.541733
  }
}
layer {
  name: "fc7"
  type: "InnerProduct"
  bottom: "quantized_relu6"
  top: "fc7"
  param {
    lr_mult: 1
    decay_mult: 1
  }
  param {
    lr_mult: 2
    decay_mult: 0
  }
  inner_product_param {
    num_output: 4096
    weight_filler {
      type: "gaussian"
      std: 1.05e+13
    }
    bias_filler {
      type: "constant"
      value: 0.1
    }
  }
}
layer {
  name: "quantized_fc7"
  type: "Quantization"
  bottom: "fc7"
  top: "quantized_fc7"
  quantization_param {
    round_method: FLOOR
    round_strategy: AGGRESSIVE
    bit_width: 8
    range: -26.019335
    range: 19.125257
  }
}
layer {
  name: "relu7"
  type: "ReLU"
  bottom: "quantized_fc7"
  top: "relu7"
}
layer {
  name: "quantized_relu7"
  type: "Quantization"
  bottom: "relu7"
  top: "quantized_relu7"
  quantization_param {
    round_method: FLOOR
    round_strategy: AGGRESSIVE
    bit_width: 8
    range: 1
    range: 19.125257
  }
}
layer {
  name: "fc8"
  type: "InnerProduct"
  bottom: "quantized_relu7"
  top: "fc8"
  param {
    lr_mult: 1
    decay_mult: 1
  }
  param {
    lr_mult: 2
    decay_mult: 0
  }
  inner_product_param {
    num_output: 1000
  }
}
layer {
  name: "quantized_fc8"
  type: "Quantization"
  bottom: "fc8"
  top: "quantized_fc8"
  quantization_param {
    round_method: FLOOR
    round_strategy: AGGRESSIVE
    bit_width: 8
    range: -9.849781
    range: 45.688446
  }
}
layer {
  name: "probs"
  type: "Softmax"
  bottom: "quantized_fc8"
  top: "probs"
}
layer {
  name: "loss"
  type: "SoftmaxWithLoss"
  bottom: "quantized_fc8"
  bottom: "label"
  top: "loss"
}
layer {
  name: "acc_top1"
  type: "Accuracy"
  bottom: "quantized_fc8"
  bottom: "label"
  top: "acc_top1"
  accuracy_param {
    top_k: 1
  }
}
layer {
  name: "acc_top5"
  type: "Accuracy"
  bottom: "quantized_fc8"
  bottom: "label"
  top: "acc_top5"
  accuracy_param {
    top_k: 5
  }
}
I1220 17:57:37.328181 53862 layer_factory.hpp:77] Creating layer data
I1220 17:57:37.328264 53862 db_lmdb.cpp:35] Opened lmdb /home/ydwu/database/imagenet/ilsvrc12/lmdb_resize/ilsvrc12_val_lmdb/
I1220 17:57:37.328291 53862 net.cpp:84] Creating Layer data
I1220 17:57:37.328301 53862 net.cpp:380] data -> data
I1220 17:57:37.328315 53862 net.cpp:380] data -> label
I1220 17:57:37.328327 53862 data_transformer.cpp:25] Loading mean file from: /home/ydwu/database/imagenet/ilsvrc12/imagenet_mean.binaryproto
I1220 17:57:37.330590 53862 data_layer.cpp:45] output data size: 20,3,227,227
I1220 17:57:37.343567 53862 net.cpp:122] Setting up data
I1220 17:57:37.343633 53862 net.cpp:129] Top shape: 20 3 227 227 (3091740)
I1220 17:57:37.343642 53862 net.cpp:129] Top shape: 20 (20)
I1220 17:57:37.343649 53862 net.cpp:137] Memory required for data: 12367040
I1220 17:57:37.343660 53862 layer_factory.hpp:77] Creating layer label_data_1_split
I1220 17:57:37.343683 53862 net.cpp:84] Creating Layer label_data_1_split
I1220 17:57:37.343693 53862 net.cpp:406] label_data_1_split <- label
I1220 17:57:37.343704 53862 net.cpp:380] label_data_1_split -> label_data_1_split_0
I1220 17:57:37.343721 53862 net.cpp:380] label_data_1_split -> label_data_1_split_1
I1220 17:57:37.343734 53862 net.cpp:380] label_data_1_split -> label_data_1_split_2
I1220 17:57:37.343749 53862 net.cpp:122] Setting up label_data_1_split
I1220 17:57:37.343756 53862 net.cpp:129] Top shape: 20 (20)
I1220 17:57:37.343763 53862 net.cpp:129] Top shape: 20 (20)
I1220 17:57:37.343771 53862 net.cpp:129] Top shape: 20 (20)
I1220 17:57:37.343777 53862 net.cpp:137] Memory required for data: 12367280
I1220 17:57:37.343783 53862 layer_factory.hpp:77] Creating layer quantized_data
I1220 17:57:37.343797 53862 net.cpp:84] Creating Layer quantized_data
I1220 17:57:37.343804 53862 net.cpp:406] quantized_data <- data
I1220 17:57:37.343816 53862 net.cpp:380] quantized_data -> quantized_data
I1220 17:57:37.343827 53862 net.cpp:122] Setting up quantized_data
I1220 17:57:37.343834 53862 net.cpp:129] Top shape: 20 3 227 227 (3091740)
I1220 17:57:37.343840 53862 net.cpp:137] Memory required for data: 24734240
I1220 17:57:37.343847 53862 layer_factory.hpp:77] Creating layer conv1
I1220 17:57:37.343868 53862 net.cpp:84] Creating Layer conv1
I1220 17:57:37.343889 53862 net.cpp:406] conv1 <- quantized_data
I1220 17:57:37.343914 53862 net.cpp:380] conv1 -> conv1
I1220 17:57:37.345010 53862 net.cpp:122] Setting up conv1
I1220 17:57:37.345024 53862 net.cpp:129] Top shape: 20 96 55 55 (5808000)
I1220 17:57:37.345031 53862 net.cpp:137] Memory required for data: 47966240
I1220 17:57:37.345044 53862 layer_factory.hpp:77] Creating layer quantized_conv1
I1220 17:57:37.345058 53862 net.cpp:84] Creating Layer quantized_conv1
I1220 17:57:37.345065 53862 net.cpp:406] quantized_conv1 <- conv1
I1220 17:57:37.345074 53862 net.cpp:380] quantized_conv1 -> quantized_conv1
I1220 17:57:37.345085 53862 net.cpp:122] Setting up quantized_conv1
I1220 17:57:37.345093 53862 net.cpp:129] Top shape: 20 96 55 55 (5808000)
I1220 17:57:37.345099 53862 net.cpp:137] Memory required for data: 71198240
I1220 17:57:37.345105 53862 layer_factory.hpp:77] Creating layer relu1
I1220 17:57:37.345116 53862 net.cpp:84] Creating Layer relu1
I1220 17:57:37.345124 53862 net.cpp:406] relu1 <- quantized_conv1
I1220 17:57:37.345132 53862 net.cpp:380] relu1 -> relu1
I1220 17:57:37.345142 53862 net.cpp:122] Setting up relu1
I1220 17:57:37.345150 53862 net.cpp:129] Top shape: 20 96 55 55 (5808000)
I1220 17:57:37.345156 53862 net.cpp:137] Memory required for data: 94430240
I1220 17:57:37.345163 53862 layer_factory.hpp:77] Creating layer quantized_relu1
I1220 17:57:37.345171 53862 net.cpp:84] Creating Layer quantized_relu1
I1220 17:57:37.345178 53862 net.cpp:406] quantized_relu1 <- relu1
I1220 17:57:37.345188 53862 net.cpp:380] quantized_relu1 -> quantized_relu1
I1220 17:57:37.345198 53862 net.cpp:122] Setting up quantized_relu1
I1220 17:57:37.345207 53862 net.cpp:129] Top shape: 20 96 55 55 (5808000)
I1220 17:57:37.345213 53862 net.cpp:137] Memory required for data: 117662240
I1220 17:57:37.345219 53862 layer_factory.hpp:77] Creating layer pool1
I1220 17:57:37.345233 53862 net.cpp:84] Creating Layer pool1
I1220 17:57:37.345240 53862 net.cpp:406] pool1 <- quantized_relu1
I1220 17:57:37.345252 53862 net.cpp:380] pool1 -> pool1
I1220 17:57:37.345265 53862 net.cpp:122] Setting up pool1
I1220 17:57:37.345274 53862 net.cpp:129] Top shape: 20 96 27 27 (1399680)
I1220 17:57:37.345280 53862 net.cpp:137] Memory required for data: 123260960
I1220 17:57:37.345286 53862 layer_factory.hpp:77] Creating layer quantized_pool1
I1220 17:57:37.345296 53862 net.cpp:84] Creating Layer quantized_pool1
I1220 17:57:37.345302 53862 net.cpp:406] quantized_pool1 <- pool1
I1220 17:57:37.345314 53862 net.cpp:380] quantized_pool1 -> quantized_pool1
I1220 17:57:37.345324 53862 net.cpp:122] Setting up quantized_pool1
I1220 17:57:37.345333 53862 net.cpp:129] Top shape: 20 96 27 27 (1399680)
I1220 17:57:37.345430 53862 net.cpp:137] Memory required for data: 128859680
I1220 17:57:37.345448 53862 layer_factory.hpp:77] Creating layer norm1
I1220 17:57:37.345471 53862 net.cpp:84] Creating Layer norm1
I1220 17:57:37.345481 53862 net.cpp:406] norm1 <- quantized_pool1
I1220 17:57:37.345494 53862 net.cpp:380] norm1 -> norm1
I1220 17:57:37.345510 53862 net.cpp:122] Setting up norm1
I1220 17:57:37.345521 53862 net.cpp:129] Top shape: 20 96 27 27 (1399680)
I1220 17:57:37.345527 53862 net.cpp:137] Memory required for data: 134458400
I1220 17:57:37.345535 53862 layer_factory.hpp:77] Creating layer quantized_norm1
I1220 17:57:37.345546 53862 net.cpp:84] Creating Layer quantized_norm1
I1220 17:57:37.345551 53862 net.cpp:406] quantized_norm1 <- norm1
I1220 17:57:37.345562 53862 net.cpp:380] quantized_norm1 -> quantized_norm1
I1220 17:57:37.345573 53862 net.cpp:122] Setting up quantized_norm1
I1220 17:57:37.345582 53862 net.cpp:129] Top shape: 20 96 27 27 (1399680)
I1220 17:57:37.345588 53862 net.cpp:137] Memory required for data: 140057120
I1220 17:57:37.345595 53862 layer_factory.hpp:77] Creating layer conv2
I1220 17:57:37.345613 53862 net.cpp:84] Creating Layer conv2
I1220 17:57:37.345620 53862 net.cpp:406] conv2 <- quantized_norm1
I1220 17:57:37.345635 53862 net.cpp:380] conv2 -> conv2
I1220 17:57:37.355183 53862 net.cpp:122] Setting up conv2
I1220 17:57:37.355233 53862 net.cpp:129] Top shape: 20 256 27 27 (3732480)
I1220 17:57:37.355255 53862 net.cpp:137] Memory required for data: 154987040
I1220 17:57:37.355273 53862 layer_factory.hpp:77] Creating layer quantized_conv2
I1220 17:57:37.355290 53862 net.cpp:84] Creating Layer quantized_conv2
I1220 17:57:37.355298 53862 net.cpp:406] quantized_conv2 <- conv2
I1220 17:57:37.355314 53862 net.cpp:380] quantized_conv2 -> quantized_conv2
I1220 17:57:37.355330 53862 net.cpp:122] Setting up quantized_conv2
I1220 17:57:37.355340 53862 net.cpp:129] Top shape: 20 256 27 27 (3732480)
I1220 17:57:37.355345 53862 net.cpp:137] Memory required for data: 169916960
I1220 17:57:37.355352 53862 layer_factory.hpp:77] Creating layer relu2
I1220 17:57:37.355363 53862 net.cpp:84] Creating Layer relu2
I1220 17:57:37.355371 53862 net.cpp:406] relu2 <- quantized_conv2
I1220 17:57:37.355381 53862 net.cpp:380] relu2 -> relu2
I1220 17:57:37.355391 53862 net.cpp:122] Setting up relu2
I1220 17:57:37.355401 53862 net.cpp:129] Top shape: 20 256 27 27 (3732480)
I1220 17:57:37.355406 53862 net.cpp:137] Memory required for data: 184846880
I1220 17:57:37.355413 53862 layer_factory.hpp:77] Creating layer quantized_relu2
I1220 17:57:37.355422 53862 net.cpp:84] Creating Layer quantized_relu2
I1220 17:57:37.355428 53862 net.cpp:406] quantized_relu2 <- relu2
I1220 17:57:37.355439 53862 net.cpp:380] quantized_relu2 -> quantized_relu2
I1220 17:57:37.355449 53862 net.cpp:122] Setting up quantized_relu2
I1220 17:57:37.355459 53862 net.cpp:129] Top shape: 20 256 27 27 (3732480)
I1220 17:57:37.355465 53862 net.cpp:137] Memory required for data: 199776800
I1220 17:57:37.355471 53862 layer_factory.hpp:77] Creating layer pool2
I1220 17:57:37.355482 53862 net.cpp:84] Creating Layer pool2
I1220 17:57:37.355494 53862 net.cpp:406] pool2 <- quantized_relu2
I1220 17:57:37.355502 53862 net.cpp:380] pool2 -> pool2
I1220 17:57:37.355515 53862 net.cpp:122] Setting up pool2
I1220 17:57:37.355523 53862 net.cpp:129] Top shape: 20 256 13 13 (865280)
I1220 17:57:37.355530 53862 net.cpp:137] Memory required for data: 203237920
I1220 17:57:37.355536 53862 layer_factory.hpp:77] Creating layer quantized_pool2
I1220 17:57:37.355547 53862 net.cpp:84] Creating Layer quantized_pool2
I1220 17:57:37.355556 53862 net.cpp:406] quantized_pool2 <- pool2
I1220 17:57:37.355566 53862 net.cpp:380] quantized_pool2 -> quantized_pool2
I1220 17:57:37.355576 53862 net.cpp:122] Setting up quantized_pool2
I1220 17:57:37.355584 53862 net.cpp:129] Top shape: 20 256 13 13 (865280)
I1220 17:57:37.355590 53862 net.cpp:137] Memory required for data: 206699040
I1220 17:57:37.355597 53862 layer_factory.hpp:77] Creating layer norm2
I1220 17:57:37.355609 53862 net.cpp:84] Creating Layer norm2
I1220 17:57:37.355617 53862 net.cpp:406] norm2 <- quantized_pool2
I1220 17:57:37.355625 53862 net.cpp:380] norm2 -> norm2
I1220 17:57:37.355636 53862 net.cpp:122] Setting up norm2
I1220 17:57:37.355644 53862 net.cpp:129] Top shape: 20 256 13 13 (865280)
I1220 17:57:37.355651 53862 net.cpp:137] Memory required for data: 210160160
I1220 17:57:37.355657 53862 layer_factory.hpp:77] Creating layer quantized_norm2
I1220 17:57:37.355669 53862 net.cpp:84] Creating Layer quantized_norm2
I1220 17:57:37.355675 53862 net.cpp:406] quantized_norm2 <- norm2
I1220 17:57:37.355684 53862 net.cpp:380] quantized_norm2 -> quantized_norm2
I1220 17:57:37.355693 53862 net.cpp:122] Setting up quantized_norm2
I1220 17:57:37.355701 53862 net.cpp:129] Top shape: 20 256 13 13 (865280)
I1220 17:57:37.355707 53862 net.cpp:137] Memory required for data: 213621280
I1220 17:57:37.355715 53862 layer_factory.hpp:77] Creating layer conv3
I1220 17:57:37.355731 53862 net.cpp:84] Creating Layer conv3
I1220 17:57:37.355738 53862 net.cpp:406] conv3 <- quantized_norm2
I1220 17:57:37.355751 53862 net.cpp:380] conv3 -> conv3
I1220 17:57:37.382727 53862 net.cpp:122] Setting up conv3
I1220 17:57:37.382779 53862 net.cpp:129] Top shape: 20 384 13 13 (1297920)
I1220 17:57:37.382786 53862 net.cpp:137] Memory required for data: 218812960
I1220 17:57:37.382807 53862 layer_factory.hpp:77] Creating layer quantized_conv3
I1220 17:57:37.382851 53862 net.cpp:84] Creating Layer quantized_conv3
I1220 17:57:37.382861 53862 net.cpp:406] quantized_conv3 <- conv3
I1220 17:57:37.382875 53862 net.cpp:380] quantized_conv3 -> quantized_conv3
I1220 17:57:37.382892 53862 net.cpp:122] Setting up quantized_conv3
I1220 17:57:37.382901 53862 net.cpp:129] Top shape: 20 384 13 13 (1297920)
I1220 17:57:37.382907 53862 net.cpp:137] Memory required for data: 224004640
I1220 17:57:37.382915 53862 layer_factory.hpp:77] Creating layer relu3
I1220 17:57:37.382926 53862 net.cpp:84] Creating Layer relu3
I1220 17:57:37.382933 53862 net.cpp:406] relu3 <- quantized_conv3
I1220 17:57:37.382942 53862 net.cpp:380] relu3 -> relu3
I1220 17:57:37.382952 53862 net.cpp:122] Setting up relu3
I1220 17:57:37.382968 53862 net.cpp:129] Top shape: 20 384 13 13 (1297920)
I1220 17:57:37.382975 53862 net.cpp:137] Memory required for data: 229196320
I1220 17:57:37.382982 53862 layer_factory.hpp:77] Creating layer quantized_relu3
I1220 17:57:37.382993 53862 net.cpp:84] Creating Layer quantized_relu3
I1220 17:57:37.383002 53862 net.cpp:406] quantized_relu3 <- relu3
I1220 17:57:37.383009 53862 net.cpp:380] quantized_relu3 -> quantized_relu3
I1220 17:57:37.383020 53862 net.cpp:122] Setting up quantized_relu3
I1220 17:57:37.383028 53862 net.cpp:129] Top shape: 20 384 13 13 (1297920)
I1220 17:57:37.383035 53862 net.cpp:137] Memory required for data: 234388000
I1220 17:57:37.383041 53862 layer_factory.hpp:77] Creating layer conv4
I1220 17:57:37.383060 53862 net.cpp:84] Creating Layer conv4
I1220 17:57:37.383069 53862 net.cpp:406] conv4 <- quantized_relu3
I1220 17:57:37.383081 53862 net.cpp:380] conv4 -> conv4
I1220 17:57:37.403527 53862 net.cpp:122] Setting up conv4
I1220 17:57:37.403573 53862 net.cpp:129] Top shape: 20 384 13 13 (1297920)
I1220 17:57:37.403580 53862 net.cpp:137] Memory required for data: 239579680
I1220 17:57:37.403594 53862 layer_factory.hpp:77] Creating layer quantized_conv4
I1220 17:57:37.403611 53862 net.cpp:84] Creating Layer quantized_conv4
I1220 17:57:37.403621 53862 net.cpp:406] quantized_conv4 <- conv4
I1220 17:57:37.403633 53862 net.cpp:380] quantized_conv4 -> quantized_conv4
I1220 17:57:37.403650 53862 net.cpp:122] Setting up quantized_conv4
I1220 17:57:37.403658 53862 net.cpp:129] Top shape: 20 384 13 13 (1297920)
I1220 17:57:37.403664 53862 net.cpp:137] Memory required for data: 244771360
I1220 17:57:37.403671 53862 layer_factory.hpp:77] Creating layer relu4
I1220 17:57:37.403681 53862 net.cpp:84] Creating Layer relu4
I1220 17:57:37.403689 53862 net.cpp:406] relu4 <- quantized_conv4
I1220 17:57:37.403697 53862 net.cpp:380] relu4 -> relu4
I1220 17:57:37.403707 53862 net.cpp:122] Setting up relu4
I1220 17:57:37.403717 53862 net.cpp:129] Top shape: 20 384 13 13 (1297920)
I1220 17:57:37.403723 53862 net.cpp:137] Memory required for data: 249963040
I1220 17:57:37.403728 53862 layer_factory.hpp:77] Creating layer quantized_relu4
I1220 17:57:37.403738 53862 net.cpp:84] Creating Layer quantized_relu4
I1220 17:57:37.403744 53862 net.cpp:406] quantized_relu4 <- relu4
I1220 17:57:37.403755 53862 net.cpp:380] quantized_relu4 -> quantized_relu4
I1220 17:57:37.403766 53862 net.cpp:122] Setting up quantized_relu4
I1220 17:57:37.403774 53862 net.cpp:129] Top shape: 20 384 13 13 (1297920)
I1220 17:57:37.403780 53862 net.cpp:137] Memory required for data: 255154720
I1220 17:57:37.403787 53862 layer_factory.hpp:77] Creating layer conv5
I1220 17:57:37.403803 53862 net.cpp:84] Creating Layer conv5
I1220 17:57:37.403810 53862 net.cpp:406] conv5 <- quantized_relu4
I1220 17:57:37.403820 53862 net.cpp:380] conv5 -> conv5
I1220 17:57:37.417428 53862 net.cpp:122] Setting up conv5
I1220 17:57:37.417444 53862 net.cpp:129] Top shape: 20 256 13 13 (865280)
I1220 17:57:37.417451 53862 net.cpp:137] Memory required for data: 258615840
I1220 17:57:37.417465 53862 layer_factory.hpp:77] Creating layer quantized_conv5
I1220 17:57:37.417475 53862 net.cpp:84] Creating Layer quantized_conv5
I1220 17:57:37.417486 53862 net.cpp:406] quantized_conv5 <- conv5
I1220 17:57:37.417510 53862 net.cpp:380] quantized_conv5 -> quantized_conv5
I1220 17:57:37.417534 53862 net.cpp:122] Setting up quantized_conv5
I1220 17:57:37.417544 53862 net.cpp:129] Top shape: 20 256 13 13 (865280)
I1220 17:57:37.417551 53862 net.cpp:137] Memory required for data: 262076960
I1220 17:57:37.417557 53862 layer_factory.hpp:77] Creating layer relu5
I1220 17:57:37.417565 53862 net.cpp:84] Creating Layer relu5
I1220 17:57:37.417572 53862 net.cpp:406] relu5 <- quantized_conv5
I1220 17:57:37.417583 53862 net.cpp:380] relu5 -> relu5
I1220 17:57:37.417595 53862 net.cpp:122] Setting up relu5
I1220 17:57:37.417605 53862 net.cpp:129] Top shape: 20 256 13 13 (865280)
I1220 17:57:37.417611 53862 net.cpp:137] Memory required for data: 265538080
I1220 17:57:37.417618 53862 layer_factory.hpp:77] Creating layer quantized_relu5
I1220 17:57:37.417626 53862 net.cpp:84] Creating Layer quantized_relu5
I1220 17:57:37.417634 53862 net.cpp:406] quantized_relu5 <- relu5
I1220 17:57:37.417644 53862 net.cpp:380] quantized_relu5 -> quantized_relu5
I1220 17:57:37.417654 53862 net.cpp:122] Setting up quantized_relu5
I1220 17:57:37.417662 53862 net.cpp:129] Top shape: 20 256 13 13 (865280)
I1220 17:57:37.417668 53862 net.cpp:137] Memory required for data: 268999200
I1220 17:57:37.417675 53862 layer_factory.hpp:77] Creating layer pool5
I1220 17:57:37.417685 53862 net.cpp:84] Creating Layer pool5
I1220 17:57:37.417692 53862 net.cpp:406] pool5 <- quantized_relu5
I1220 17:57:37.417702 53862 net.cpp:380] pool5 -> pool5
I1220 17:57:37.417716 53862 net.cpp:122] Setting up pool5
I1220 17:57:37.417726 53862 net.cpp:129] Top shape: 20 256 6 6 (184320)
I1220 17:57:37.417732 53862 net.cpp:137] Memory required for data: 269736480
I1220 17:57:37.417738 53862 layer_factory.hpp:77] Creating layer quantized_pool5
I1220 17:57:37.417753 53862 net.cpp:84] Creating Layer quantized_pool5
I1220 17:57:37.417760 53862 net.cpp:406] quantized_pool5 <- pool5
I1220 17:57:37.417769 53862 net.cpp:380] quantized_pool5 -> quantized_pool5
I1220 17:57:37.417779 53862 net.cpp:122] Setting up quantized_pool5
I1220 17:57:37.417788 53862 net.cpp:129] Top shape: 20 256 6 6 (184320)
I1220 17:57:37.417794 53862 net.cpp:137] Memory required for data: 270473760
I1220 17:57:37.417800 53862 layer_factory.hpp:77] Creating layer fc6
I1220 17:57:37.417814 53862 net.cpp:84] Creating Layer fc6
I1220 17:57:37.417822 53862 net.cpp:406] fc6 <- quantized_pool5
I1220 17:57:37.417830 53862 net.cpp:380] fc6 -> fc6
I1220 17:57:38.544016 53862 net.cpp:122] Setting up fc6
I1220 17:57:38.544073 53862 net.cpp:129] Top shape: 20 4096 (81920)
I1220 17:57:38.544081 53862 net.cpp:137] Memory required for data: 270801440
I1220 17:57:38.544096 53862 layer_factory.hpp:77] Creating layer quantized_fc6
I1220 17:57:38.544114 53862 net.cpp:84] Creating Layer quantized_fc6
I1220 17:57:38.544124 53862 net.cpp:406] quantized_fc6 <- fc6
I1220 17:57:38.544140 53862 net.cpp:380] quantized_fc6 -> quantized_fc6
I1220 17:57:38.544158 53862 net.cpp:122] Setting up quantized_fc6
I1220 17:57:38.544167 53862 net.cpp:129] Top shape: 20 4096 (81920)
I1220 17:57:38.544173 53862 net.cpp:137] Memory required for data: 271129120
I1220 17:57:38.544180 53862 layer_factory.hpp:77] Creating layer relu6
I1220 17:57:38.544189 53862 net.cpp:84] Creating Layer relu6
I1220 17:57:38.544196 53862 net.cpp:406] relu6 <- quantized_fc6
I1220 17:57:38.544205 53862 net.cpp:380] relu6 -> relu6
I1220 17:57:38.544215 53862 net.cpp:122] Setting up relu6
I1220 17:57:38.544224 53862 net.cpp:129] Top shape: 20 4096 (81920)
I1220 17:57:38.544230 53862 net.cpp:137] Memory required for data: 271456800
I1220 17:57:38.544236 53862 layer_factory.hpp:77] Creating layer quantized_relu6
I1220 17:57:38.544245 53862 net.cpp:84] Creating Layer quantized_relu6
I1220 17:57:38.544252 53862 net.cpp:406] quantized_relu6 <- relu6
I1220 17:57:38.544262 53862 net.cpp:380] quantized_relu6 -> quantized_relu6
I1220 17:57:38.544271 53862 net.cpp:122] Setting up quantized_relu6
I1220 17:57:38.544281 53862 net.cpp:129] Top shape: 20 4096 (81920)
I1220 17:57:38.544286 53862 net.cpp:137] Memory required for data: 271784480
I1220 17:57:38.544320 53862 layer_factory.hpp:77] Creating layer fc7
I1220 17:57:38.544337 53862 net.cpp:84] Creating Layer fc7
I1220 17:57:38.544344 53862 net.cpp:406] fc7 <- quantized_relu6
I1220 17:57:38.544354 53862 net.cpp:380] fc7 -> fc7
I1220 17:57:39.045248 53862 net.cpp:122] Setting up fc7
I1220 17:57:39.045315 53862 net.cpp:129] Top shape: 20 4096 (81920)
I1220 17:57:39.045322 53862 net.cpp:137] Memory required for data: 272112160
I1220 17:57:39.045337 53862 layer_factory.hpp:77] Creating layer quantized_fc7
I1220 17:57:39.045361 53862 net.cpp:84] Creating Layer quantized_fc7
I1220 17:57:39.045373 53862 net.cpp:406] quantized_fc7 <- fc7
I1220 17:57:39.045387 53862 net.cpp:380] quantized_fc7 -> quantized_fc7
I1220 17:57:39.045404 53862 net.cpp:122] Setting up quantized_fc7
I1220 17:57:39.045413 53862 net.cpp:129] Top shape: 20 4096 (81920)
I1220 17:57:39.045420 53862 net.cpp:137] Memory required for data: 272439840
I1220 17:57:39.045426 53862 layer_factory.hpp:77] Creating layer relu7
I1220 17:57:39.045436 53862 net.cpp:84] Creating Layer relu7
I1220 17:57:39.045444 53862 net.cpp:406] relu7 <- quantized_fc7
I1220 17:57:39.045452 53862 net.cpp:380] relu7 -> relu7
I1220 17:57:39.045462 53862 net.cpp:122] Setting up relu7
I1220 17:57:39.045470 53862 net.cpp:129] Top shape: 20 4096 (81920)
I1220 17:57:39.045477 53862 net.cpp:137] Memory required for data: 272767520
I1220 17:57:39.045483 53862 layer_factory.hpp:77] Creating layer quantized_relu7
I1220 17:57:39.045492 53862 net.cpp:84] Creating Layer quantized_relu7
I1220 17:57:39.045500 53862 net.cpp:406] quantized_relu7 <- relu7
I1220 17:57:39.045512 53862 net.cpp:380] quantized_relu7 -> quantized_relu7
I1220 17:57:39.045522 53862 net.cpp:122] Setting up quantized_relu7
I1220 17:57:39.045531 53862 net.cpp:129] Top shape: 20 4096 (81920)
I1220 17:57:39.045537 53862 net.cpp:137] Memory required for data: 273095200
I1220 17:57:39.045544 53862 layer_factory.hpp:77] Creating layer fc8
I1220 17:57:39.045555 53862 net.cpp:84] Creating Layer fc8
I1220 17:57:39.045562 53862 net.cpp:406] fc8 <- quantized_relu7
I1220 17:57:39.045572 53862 net.cpp:380] fc8 -> fc8
I1220 17:57:39.052057 53862 net.cpp:122] Setting up fc8
I1220 17:57:39.052120 53862 net.cpp:129] Top shape: 20 1000 (20000)
I1220 17:57:39.052129 53862 net.cpp:137] Memory required for data: 273175200
I1220 17:57:39.052144 53862 layer_factory.hpp:77] Creating layer quantized_fc8
I1220 17:57:39.052170 53862 net.cpp:84] Creating Layer quantized_fc8
I1220 17:57:39.052181 53862 net.cpp:406] quantized_fc8 <- fc8
I1220 17:57:39.052194 53862 net.cpp:380] quantized_fc8 -> quantized_fc8
I1220 17:57:39.052212 53862 net.cpp:122] Setting up quantized_fc8
I1220 17:57:39.052220 53862 net.cpp:129] Top shape: 20 1000 (20000)
I1220 17:57:39.052227 53862 net.cpp:137] Memory required for data: 273255200
I1220 17:57:39.052233 53862 layer_factory.hpp:77] Creating layer quantized_fc8_quantized_fc8_0_split
I1220 17:57:39.052245 53862 net.cpp:84] Creating Layer quantized_fc8_quantized_fc8_0_split
I1220 17:57:39.052253 53862 net.cpp:406] quantized_fc8_quantized_fc8_0_split <- quantized_fc8
I1220 17:57:39.052263 53862 net.cpp:380] quantized_fc8_quantized_fc8_0_split -> quantized_fc8_quantized_fc8_0_split_0
I1220 17:57:39.052273 53862 net.cpp:380] quantized_fc8_quantized_fc8_0_split -> quantized_fc8_quantized_fc8_0_split_1
I1220 17:57:39.052283 53862 net.cpp:380] quantized_fc8_quantized_fc8_0_split -> quantized_fc8_quantized_fc8_0_split_2
I1220 17:57:39.052292 53862 net.cpp:380] quantized_fc8_quantized_fc8_0_split -> quantized_fc8_quantized_fc8_0_split_3
I1220 17:57:39.052305 53862 net.cpp:122] Setting up quantized_fc8_quantized_fc8_0_split
I1220 17:57:39.052314 53862 net.cpp:129] Top shape: 20 1000 (20000)
I1220 17:57:39.052322 53862 net.cpp:129] Top shape: 20 1000 (20000)
I1220 17:57:39.052330 53862 net.cpp:129] Top shape: 20 1000 (20000)
I1220 17:57:39.052336 53862 net.cpp:129] Top shape: 20 1000 (20000)
I1220 17:57:39.052342 53862 net.cpp:137] Memory required for data: 273575200
I1220 17:57:39.052363 53862 layer_factory.hpp:77] Creating layer probs
I1220 17:57:39.052392 53862 net.cpp:84] Creating Layer probs
I1220 17:57:39.052399 53862 net.cpp:406] probs <- quantized_fc8_quantized_fc8_0_split_0
I1220 17:57:39.052410 53862 net.cpp:380] probs -> probs
I1220 17:57:39.052428 53862 net.cpp:122] Setting up probs
I1220 17:57:39.052438 53862 net.cpp:129] Top shape: 20 1000 (20000)
I1220 17:57:39.052444 53862 net.cpp:137] Memory required for data: 273655200
I1220 17:57:39.052450 53862 layer_factory.hpp:77] Creating layer loss
I1220 17:57:39.052459 53862 net.cpp:84] Creating Layer loss
I1220 17:57:39.052466 53862 net.cpp:406] loss <- quantized_fc8_quantized_fc8_0_split_1
I1220 17:57:39.052474 53862 net.cpp:406] loss <- label_data_1_split_0
I1220 17:57:39.052485 53862 net.cpp:380] loss -> loss
…
