…
I1221 18:02:45.032038  6049 net.cpp:296] The NetState phase (0) differed from the phase (1) specified by a rule in layer data
I1221 18:02:45.032388  6049 net.cpp:51] Initializing net from parameters: 
state {
  phase: TRAIN
  level: 0
  stage: ""
}
layer {
  name: "data"
  type: "Data"
  top: "data"
  top: "label"
  include {
    phase: TRAIN
  }
  transform_param {
    mirror: false
    crop_size: 227
    mean_file: "/home/ydwu/database/imagenet/ilsvrc12/imagenet_mean.binaryproto"
  }
  data_param {
    source: "/home/ydwu/database/imagenet/ilsvrc12/lmdb_resize/ilsvrc12_train_lmdb/"
    batch_size: 32
    backend: LMDB
  }
}
layer {
  name: "quantized_data"
  type: "Quantization"
  bottom: "data"
  top: "quantized_data"
  quantization_param {
    round_method: FLOOR
    round_strategy: AGGRESSIVE
    bit_width: 8
    range: -129.93526
    range: 160.78912
  }
}
layer {
  name: "conv1"
  type: "QuanConvolution"
  bottom: "quantized_data"
  top: "conv1"
  param {
    lr_mult: 1
    decay_mult: 1
  }
  param {
    lr_mult: 2
    decay_mult: 0
  }
  convolution_param {
    num_output: 96
    pad: 0
    kernel_size: 11
    group: 1
    stride: 4
    weight_filler {
      type: "gaussian"
      std: 1.1e+13
    }
    bias_filler {
      type: "constant"
      std: 0.1
    }
  }
}
layer {
  name: "quantized_conv1"
  type: "Quantization"
  bottom: "conv1"
  top: "quantized_conv1"
  quantization_param {
    round_method: FLOOR
    round_strategy: AGGRESSIVE
    bit_width: 8
    range: -2732.7351
    range: 2531.042
  }
}
layer {
  name: "relu1"
  type: "ReLU"
  bottom: "quantized_conv1"
  top: "relu1"
}
layer {
  name: "quantized_relu1"
  type: "Quantization"
  bottom: "relu1"
  top: "quantized_relu1"
  quantization_param {
    round_method: FLOOR
    round_strategy: AGGRESSIVE
    bit_width: 8
    range: 1
    range: 2531.042
  }
}
layer {
  name: "pool1"
  type: "Pooling"
  bottom: "quantized_relu1"
  top: "pool1"
  pooling_param {
    pool: MAX
    kernel_size: 3
    stride: 2
  }
}
layer {
  name: "quantized_pool1"
  type: "Quantization"
  bottom: "pool1"
  top: "quantized_pool1"
  quantization_param {
    round_method: FLOOR
    round_strategy: AGGRESSIVE
    bit_width: 8
    range: 1
    range: 2531.042
  }
}
layer {
  name: "norm1"
  type: "LRN"
  bottom: "quantized_pool1"
  top: "norm1"
  lrn_param {
    local_size: 5
    alpha: 0.0001
    beta: 0.75
  }
}
layer {
  name: "quantized_norm1"
  type: "Quantization"
  bottom: "norm1"
  top: "quantized_norm1"
  quantization_param {
    round_method: FLOOR
    round_strategy: AGGRESSIVE
    bit_width: 8
    range: 1
    range: 138.70576
  }
}
layer {
  name: "conv2"
  type: "QuanConvolution"
  bottom: "quantized_norm1"
  top: "conv2"
  param {
    lr_mult: 1
    decay_mult: 1
  }
  param {
    lr_mult: 2
    decay_mult: 0
  }
  convolution_param {
    num_output: 256
    pad: 2
    kernel_size: 5
    group: 2
    stride: 1
    weight_filler {
      type: "gaussian"
      std: 1.1e+13
    }
    bias_filler {
      type: "constant"
      std: 0.1
    }
  }
}
layer {
  name: "quantized_conv2"
  type: "Quantization"
  bottom: "conv2"
  top: "quantized_conv2"
  quantization_param {
    round_method: FLOOR
    round_strategy: AGGRESSIVE
    bit_width: 8
    range: -647.61908
    range: 492.23111
  }
}
layer {
  name: "relu2"
  type: "ReLU"
  bottom: "quantized_conv2"
  top: "relu2"
}
layer {
  name: "quantized_relu2"
  type: "Quantization"
  bottom: "relu2"
  top: "quantized_relu2"
  quantization_param {
    round_method: FLOOR
    round_strategy: AGGRESSIVE
    bit_width: 8
    range: 1
    range: 492.23111
  }
}
layer {
  name: "pool2"
  type: "Pooling"
  bottom: "quantized_relu2"
  top: "pool2"
  pooling_param {
    pool: MAX
    kernel_size: 3
    stride: 2
  }
}
layer {
  name: "quantized_pool2"
  type: "Quantization"
  bottom: "pool2"
  top: "quantized_pool2"
  quantization_param {
    round_method: FLOOR
    round_strategy: AGGRESSIVE
    bit_width: 8
    range: 1
    range: 492.23111
  }
}
layer {
  name: "norm2"
  type: "LRN"
  bottom: "quantized_pool2"
  top: "norm2"
  lrn_param {
    local_size: 5
    alpha: 0.0001
    beta: 0.75
  }
}
layer {
  name: "quantized_norm2"
  type: "Quantization"
  bottom: "norm2"
  top: "quantized_norm2"
  quantization_param {
    round_method: FLOOR
    round_strategy: AGGRESSIVE
    bit_width: 8
    range: 1
    range: 138.72636
  }
}
layer {
  name: "conv3"
  type: "QuanConvolution"
  bottom: "quantized_norm2"
  top: "conv3"
  param {
    lr_mult: 1
    decay_mult: 1
  }
  param {
    lr_mult: 2
    decay_mult: 0
  }
  convolution_param {
    num_output: 384
    pad: 1
    kernel_size: 3
    group: 1
    stride: 1
    weight_filler {
      type: "gaussian"
      std: 1.1e+13
    }
    bias_filler {
      type: "constant"
      std: 0.1
    }
  }
}
layer {
  name: "quantized_conv3"
  type: "Quantization"
  bottom: "conv3"
  top: "quantized_conv3"
  quantization_param {
    round_method: FLOOR
    round_strategy: AGGRESSIVE
    bit_width: 8
    range: -389.56516
    range: 331.98178
  }
}
layer {
  name: "relu3"
  type: "ReLU"
  bottom: "quantized_conv3"
  top: "relu3"
}
layer {
  name: "quantized_relu3"
  type: "Quantization"
  bottom: "relu3"
  top: "quantized_relu3"
  quantization_param {
    round_method: FLOOR
    round_strategy: AGGRESSIVE
    bit_width: 8
    range: 1
    range: 331.98178
  }
}
layer {
  name: "conv4"
  type: "QuanConvolution"
  bottom: "quantized_relu3"
  top: "conv4"
  param {
    lr_mult: 1
    decay_mult: 1
  }
  param {
    lr_mult: 2
    decay_mult: 0
  }
  convolution_param {
    num_output: 384
    pad: 1
    kernel_size: 3
    group: 2
    stride: 1
    weight_filler {
      type: "gaussian"
      std: 1.1e+13
    }
    bias_filler {
      type: "constant"
      std: 0.1
    }
  }
}
layer {
  name: "quantized_conv4"
  type: "Quantization"
  bottom: "conv4"
  top: "quantized_conv4"
  quantization_param {
    round_method: FLOOR
    round_strategy: AGGRESSIVE
    bit_width: 8
    range: -231.20598
    range: 283.87189
  }
}
layer {
  name: "relu4"
  type: "ReLU"
  bottom: "quantized_conv4"
  top: "relu4"
}
layer {
  name: "quantized_relu4"
  type: "Quantization"
  bottom: "relu4"
  top: "quantized_relu4"
  quantization_param {
    round_method: FLOOR
    round_strategy: AGGRESSIVE
    bit_width: 8
    range: 1
    range: 283.87189
  }
}
layer {
  name: "conv5"
  type: "QuanConvolution"
  bottom: "quantized_relu4"
  top: "conv5"
  param {
    lr_mult: 1
    decay_mult: 1
  }
  param {
    lr_mult: 2
    decay_mult: 0
  }
  convolution_param {
    num_output: 256
    pad: 1
    kernel_size: 3
    group: 2
    stride: 1
    weight_filler {
      type: "gaussian"
      std: 1.1e+13
    }
    bias_filler {
      type: "constant"
      std: 0.1
    }
  }
}
layer {
  name: "quantized_conv5"
  type: "Quantization"
  bottom: "conv5"
  top: "quantized_conv5"
  quantization_param {
    round_method: FLOOR
    round_strategy: AGGRESSIVE
    bit_width: 8
    range: -172.60567
    range: 272.57315
  }
}
layer {
  name: "relu5"
  type: "ReLU"
  bottom: "quantized_conv5"
  top: "relu5"
}
layer {
  name: "quantized_relu5"
  type: "Quantization"
  bottom: "relu5"
  top: "quantized_relu5"
  quantization_param {
    round_method: FLOOR
    round_strategy: AGGRESSIVE
    bit_width: 8
    range: 1
    range: 272.57315
  }
}
layer {
  name: "pool5"
  type: "Pooling"
  bottom: "quantized_relu5"
  top: "pool5"
  pooling_param {
    pool: MAX
    kernel_size: 3
    stride: 2
  }
}
layer {
  name: "quantized_pool5"
  type: "Quantization"
  bottom: "pool5"
  top: "quantized_pool5"
  quantization_param {
    round_method: FLOOR
    round_strategy: AGGRESSIVE
    bit_width: 8
    range: 1
    range: 272.57315
  }
}
layer {
  name: "fc6"
  type: "QuanInnerProduct"
  bottom: "quantized_pool5"
  top: "fc6"
  param {
    lr_mult: 1
    decay_mult: 1
  }
  param {
    lr_mult: 2
    decay_mult: 0
  }
  quan_inner_product_param {
    num_output: 4096
    weight_filler {
      type: "gaussian"
      std: 1.05e+13
    }
    bias_filler {
      type: "constant"
      value: 0.1
    }
  }
}
layer {
  name: "quantized_fc6"
  type: "Quantization"
  bottom: "fc6"
  top: "quantized_fc6"
  quantization_param {
    round_method: FLOOR
    round_strategy: AGGRESSIVE
    bit_width: 8
    range: -114.02487
    range: 58.541733
  }
}
layer {
  name: "relu6"
  type: "ReLU"
  bottom: "quantized_fc6"
  top: "relu6"
}
layer {
  name: "quantized_relu6"
  type: "Quantization"
  bottom: "relu6"
  top: "quantized_relu6"
  quantization_param {
    round_method: FLOOR
    round_strategy: AGGRESSIVE
    bit_width: 8
    range: 1
    range: 58.541733
  }
}
layer {
  name: "fc7"
  type: "QuanInnerProduct"
  bottom: "quantized_relu6"
  top: "fc7"
  param {
    lr_mult: 1
    decay_mult: 1
  }
  param {
    lr_mult: 2
    decay_mult: 0
  }
  quan_inner_product_param {
    num_output: 4096
    weight_filler {
      type: "gaussian"
      std: 1.05e+13
    }
    bias_filler {
      type: "constant"
      value: 0.1
    }
  }
}
layer {
  name: "quantized_fc7"
  type: "Quantization"
  bottom: "fc7"
  top: "quantized_fc7"
  quantization_param {
    round_method: FLOOR
    round_strategy: AGGRESSIVE
    bit_width: 8
    range: -26.019335
    range: 19.125257
  }
}
layer {
  name: "relu7"
  type: "ReLU"
  bottom: "quantized_fc7"
  top: "relu7"
}
layer {
  name: "quantized_relu7"
  type: "Quantization"
  bottom: "relu7"
  top: "quantized_relu7"
  quantization_param {
    round_method: FLOOR
    round_strategy: AGGRESSIVE
    bit_width: 8
    range: 1
    range: 19.125257
  }
}
layer {
  name: "fc8"
  type: "QuanInnerProduct"
  bottom: "quantized_relu7"
  top: "fc8"
  param {
    lr_mult: 1
    decay_mult: 1
  }
  param {
    lr_mult: 2
    decay_mult: 0
  }
  quan_inner_product_param {
    num_output: 1000
  }
}
layer {
  name: "quantized_fc8"
  type: "Quantization"
  bottom: "fc8"
  top: "quantized_fc8"
  quantization_param {
    round_method: FLOOR
    round_strategy: AGGRESSIVE
    bit_width: 8
    range: -9.849781
    range: 45.688446
  }
}
layer {
  name: "probs"
  type: "Softmax"
  bottom: "quantized_fc8"
  top: "probs"
}
layer {
  name: "loss"
  type: "SoftmaxWithLoss"
  bottom: "quantized_fc8"
  bottom: "label"
  top: "loss"
}
layer {
  name: "acc_top1"
  type: "Accuracy"
  bottom: "quantized_fc8"
  bottom: "label"
  top: "acc_top1"
  accuracy_param {
    top_k: 1
  }
}
layer {
  name: "acc_top5"
  type: "Accuracy"
  bottom: "quantized_fc8"
  bottom: "label"
  top: "acc_top5"
  accuracy_param {
    top_k: 5
  }
}
I1221 18:02:45.032621  6049 layer_factory.hpp:77] Creating layer data
I1221 18:02:45.032742  6049 db_lmdb.cpp:35] Opened lmdb /home/ydwu/database/imagenet/ilsvrc12/lmdb_resize/ilsvrc12_train_lmdb/
I1221 18:02:45.032781  6049 net.cpp:84] Creating Layer data
I1221 18:02:45.032799  6049 net.cpp:382] data -> data
I1221 18:02:45.032832  6049 net.cpp:382] data -> label
I1221 18:02:45.032846  6049 net.cpp:110] =========1
I1221 18:02:45.032853  6049 net.cpp:121] =========2
I1221 18:02:45.032862  6049 layer.hpp:70] =========3
I1221 18:02:45.032873  6049 data_transformer.cpp:25] Loading mean file from: /home/ydwu/database/imagenet/ilsvrc12/imagenet_mean.binaryproto
I1221 18:02:45.035347  6049 data_layer.cpp:45] output data size: 32,3,227,227
I1221 18:02:45.057287  6049 net.cpp:124] Setting up data
I1221 18:02:45.057355  6049 net.cpp:131] Top shape: 32 3 227 227 (4946784)
I1221 18:02:45.057365  6049 net.cpp:131] Top shape: 32 (32)
I1221 18:02:45.057371  6049 net.cpp:139] Memory required for data: 19787264
I1221 18:02:45.057387  6049 layer_factory.hpp:77] Creating layer label_data_1_split
I1221 18:02:45.057410  6049 net.cpp:84] Creating Layer label_data_1_split
I1221 18:02:45.057433  6049 net.cpp:408] label_data_1_split <- label
I1221 18:02:45.057468  6049 net.cpp:382] label_data_1_split -> label_data_1_split_0
I1221 18:02:45.057487  6049 net.cpp:382] label_data_1_split -> label_data_1_split_1
I1221 18:02:45.057497  6049 net.cpp:382] label_data_1_split -> label_data_1_split_2
I1221 18:02:45.057504  6049 net.cpp:110] =========1
I1221 18:02:45.057510  6049 net.cpp:121] =========2
I1221 18:02:45.057519  6049 layer.hpp:70] =========3
I1221 18:02:45.057531  6049 net.cpp:124] Setting up label_data_1_split
I1221 18:02:45.057539  6049 net.cpp:131] Top shape: 32 (32)
I1221 18:02:45.057548  6049 net.cpp:131] Top shape: 32 (32)
I1221 18:02:45.057554  6049 net.cpp:131] Top shape: 32 (32)
I1221 18:02:45.057559  6049 net.cpp:139] Memory required for data: 19787648
I1221 18:02:45.057566  6049 layer_factory.hpp:77] Creating layer quantized_data
I1221 18:02:45.057580  6049 net.cpp:84] Creating Layer quantized_data
I1221 18:02:45.057587  6049 net.cpp:408] quantized_data <- data
I1221 18:02:45.057597  6049 net.cpp:382] quantized_data -> quantized_data
I1221 18:02:45.057607  6049 net.cpp:110] =========1
I1221 18:02:45.057615  6049 net.cpp:121] =========2
I1221 18:02:45.057620  6049 layer.hpp:70] =========3
I1221 18:02:45.057629  6049 net.cpp:124] Setting up quantized_data
I1221 18:02:45.057636  6049 net.cpp:131] Top shape: 32 3 227 227 (4946784)
I1221 18:02:45.057642  6049 net.cpp:139] Memory required for data: 39574784
I1221 18:02:45.057648  6049 layer_factory.hpp:77] Creating layer conv1
I1221 18:02:45.057672  6049 net.cpp:84] Creating Layer conv1
I1221 18:02:45.057678  6049 net.cpp:408] conv1 <- quantized_data
I1221 18:02:45.057688  6049 net.cpp:382] conv1 -> conv1
I1221 18:02:45.057701  6049 net.cpp:110] =========1
I1221 18:02:45.057708  6049 net.cpp:121] =========2
I1221 18:02:45.057714  6049 layer.hpp:70] =========3
I1221 18:02:45.058818  6049 net.cpp:124] Setting up conv1
I1221 18:02:45.058833  6049 net.cpp:131] Top shape: 32 96 55 55 (9292800)
I1221 18:02:45.058840  6049 net.cpp:139] Memory required for data: 76745984
I1221 18:02:45.058858  6049 layer_factory.hpp:77] Creating layer quantized_conv1
I1221 18:02:45.058871  6049 net.cpp:84] Creating Layer quantized_conv1
I1221 18:02:45.058878  6049 net.cpp:408] quantized_conv1 <- conv1
I1221 18:02:45.058887  6049 net.cpp:382] quantized_conv1 -> quantized_conv1
I1221 18:02:45.058897  6049 net.cpp:110] =========1
I1221 18:02:45.058903  6049 net.cpp:121] =========2
I1221 18:02:45.058908  6049 layer.hpp:70] =========3
I1221 18:02:45.058915  6049 net.cpp:124] Setting up quantized_conv1
I1221 18:02:45.058923  6049 net.cpp:131] Top shape: 32 96 55 55 (9292800)
I1221 18:02:45.058928  6049 net.cpp:139] Memory required for data: 113917184
I1221 18:02:45.058934  6049 layer_factory.hpp:77] Creating layer relu1
I1221 18:02:45.058946  6049 net.cpp:84] Creating Layer relu1
I1221 18:02:45.058954  6049 net.cpp:408] relu1 <- quantized_conv1
I1221 18:02:45.058969  6049 net.cpp:382] relu1 -> relu1
I1221 18:02:45.058979  6049 net.cpp:110] =========1
I1221 18:02:45.058985  6049 net.cpp:121] =========2
I1221 18:02:45.058991  6049 layer.hpp:70] =========3
I1221 18:02:45.058997  6049 net.cpp:124] Setting up relu1
I1221 18:02:45.059005  6049 net.cpp:131] Top shape: 32 96 55 55 (9292800)
I1221 18:02:45.059011  6049 net.cpp:139] Memory required for data: 151088384
I1221 18:02:45.059018  6049 layer_factory.hpp:77] Creating layer quantized_relu1
I1221 18:02:45.059027  6049 net.cpp:84] Creating Layer quantized_relu1
I1221 18:02:45.059033  6049 net.cpp:408] quantized_relu1 <- relu1
I1221 18:02:45.059041  6049 net.cpp:382] quantized_relu1 -> quantized_relu1
I1221 18:02:45.059051  6049 net.cpp:110] =========1
I1221 18:02:45.059056  6049 net.cpp:121] =========2
I1221 18:02:45.059062  6049 layer.hpp:70] =========3
I1221 18:02:45.059068  6049 net.cpp:124] Setting up quantized_relu1
I1221 18:02:45.059075  6049 net.cpp:131] Top shape: 32 96 55 55 (9292800)
I1221 18:02:45.059082  6049 net.cpp:139] Memory required for data: 188259584
I1221 18:02:45.059087  6049 layer_factory.hpp:77] Creating layer pool1
I1221 18:02:45.059104  6049 net.cpp:84] Creating Layer pool1
I1221 18:02:45.059118  6049 net.cpp:408] pool1 <- quantized_relu1
I1221 18:02:45.059128  6049 net.cpp:382] pool1 -> pool1
I1221 18:02:45.059139  6049 net.cpp:110] =========1
I1221 18:02:45.059144  6049 net.cpp:121] =========2
I1221 18:02:45.059150  6049 layer.hpp:70] =========3
I1221 18:02:45.059170  6049 net.cpp:124] Setting up pool1
I1221 18:02:45.059180  6049 net.cpp:131] Top shape: 32 96 27 27 (2239488)
I1221 18:02:45.059185  6049 net.cpp:139] Memory required for data: 197217536
I1221 18:02:45.059191  6049 layer_factory.hpp:77] Creating layer quantized_pool1
I1221 18:02:45.059201  6049 net.cpp:84] Creating Layer quantized_pool1
I1221 18:02:45.059208  6049 net.cpp:408] quantized_pool1 <- pool1
I1221 18:02:45.059217  6049 net.cpp:382] quantized_pool1 -> quantized_pool1
I1221 18:02:45.059226  6049 net.cpp:110] =========1
I1221 18:02:45.059231  6049 net.cpp:121] =========2
I1221 18:02:45.059237  6049 layer.hpp:70] =========3
I1221 18:02:45.059243  6049 net.cpp:124] Setting up quantized_pool1
I1221 18:02:45.059250  6049 net.cpp:131] Top shape: 32 96 27 27 (2239488)
I1221 18:02:45.059257  6049 net.cpp:139] Memory required for data: 206175488
I1221 18:02:45.059262  6049 layer_factory.hpp:77] Creating layer norm1
I1221 18:02:45.059273  6049 net.cpp:84] Creating Layer norm1
I1221 18:02:45.059279  6049 net.cpp:408] norm1 <- quantized_pool1
I1221 18:02:45.059288  6049 net.cpp:382] norm1 -> norm1
I1221 18:02:45.059298  6049 net.cpp:110] =========1
I1221 18:02:45.059304  6049 net.cpp:121] =========2
I1221 18:02:45.059309  6049 layer.hpp:70] =========3
I1221 18:02:45.059320  6049 net.cpp:124] Setting up norm1
I1221 18:02:45.059329  6049 net.cpp:131] Top shape: 32 96 27 27 (2239488)
I1221 18:02:45.059334  6049 net.cpp:139] Memory required for data: 215133440
I1221 18:02:45.059340  6049 layer_factory.hpp:77] Creating layer quantized_norm1
I1221 18:02:45.059350  6049 net.cpp:84] Creating Layer quantized_norm1
I1221 18:02:45.059355  6049 net.cpp:408] quantized_norm1 <- norm1
I1221 18:02:45.059363  6049 net.cpp:382] quantized_norm1 -> quantized_norm1
I1221 18:02:45.059372  6049 net.cpp:110] =========1
I1221 18:02:45.059378  6049 net.cpp:121] =========2
I1221 18:02:45.059383  6049 layer.hpp:70] =========3
I1221 18:02:45.059389  6049 net.cpp:124] Setting up quantized_norm1
I1221 18:02:45.059397  6049 net.cpp:131] Top shape: 32 96 27 27 (2239488)
I1221 18:02:45.059402  6049 net.cpp:139] Memory required for data: 224091392
I1221 18:02:45.059408  6049 layer_factory.hpp:77] Creating layer conv2
I1221 18:02:45.059420  6049 net.cpp:84] Creating Layer conv2
I1221 18:02:45.059427  6049 net.cpp:408] conv2 <- quantized_norm1
I1221 18:02:45.059437  6049 net.cpp:382] conv2 -> conv2
I1221 18:02:45.059447  6049 net.cpp:110] =========1
I1221 18:02:45.059453  6049 net.cpp:121] =========2
I1221 18:02:45.059458  6049 layer.hpp:70] =========3
I1221 18:02:45.068640  6049 net.cpp:124] Setting up conv2
I1221 18:02:45.068658  6049 net.cpp:131] Top shape: 32 256 27 27 (5971968)
I1221 18:02:45.068665  6049 net.cpp:139] Memory required for data: 247979264
I1221 18:02:45.068676  6049 layer_factory.hpp:77] Creating layer quantized_conv2
I1221 18:02:45.068689  6049 net.cpp:84] Creating Layer quantized_conv2
I1221 18:02:45.068696  6049 net.cpp:408] quantized_conv2 <- conv2
I1221 18:02:45.068706  6049 net.cpp:382] quantized_conv2 -> quantized_conv2
I1221 18:02:45.068714  6049 net.cpp:110] =========1
I1221 18:02:45.068722  6049 net.cpp:121] =========2
I1221 18:02:45.068727  6049 layer.hpp:70] =========3
I1221 18:02:45.068732  6049 net.cpp:124] Setting up quantized_conv2
I1221 18:02:45.068740  6049 net.cpp:131] Top shape: 32 256 27 27 (5971968)
I1221 18:02:45.068745  6049 net.cpp:139] Memory required for data: 271867136
I1221 18:02:45.068753  6049 layer_factory.hpp:77] Creating layer relu2
I1221 18:02:45.068760  6049 net.cpp:84] Creating Layer relu2
I1221 18:02:45.068766  6049 net.cpp:408] relu2 <- quantized_conv2
I1221 18:02:45.068776  6049 net.cpp:382] relu2 -> relu2
I1221 18:02:45.068791  6049 net.cpp:110] =========1
I1221 18:02:45.068805  6049 net.cpp:121] =========2
I1221 18:02:45.068811  6049 layer.hpp:70] =========3
I1221 18:02:45.068817  6049 net.cpp:124] Setting up relu2
I1221 18:02:45.068825  6049 net.cpp:131] Top shape: 32 256 27 27 (5971968)
I1221 18:02:45.068831  6049 net.cpp:139] Memory required for data: 295755008
I1221 18:02:45.068838  6049 layer_factory.hpp:77] Creating layer quantized_relu2
I1221 18:02:45.068846  6049 net.cpp:84] Creating Layer quantized_relu2
I1221 18:02:45.068853  6049 net.cpp:408] quantized_relu2 <- relu2
I1221 18:02:45.068863  6049 net.cpp:382] quantized_relu2 -> quantized_relu2
I1221 18:02:45.068872  6049 net.cpp:110] =========1
I1221 18:02:45.068878  6049 net.cpp:121] =========2
I1221 18:02:45.068883  6049 layer.hpp:70] =========3
I1221 18:02:45.068891  6049 net.cpp:124] Setting up quantized_relu2
I1221 18:02:45.068897  6049 net.cpp:131] Top shape: 32 256 27 27 (5971968)
I1221 18:02:45.068903  6049 net.cpp:139] Memory required for data: 319642880
I1221 18:02:45.068909  6049 layer_factory.hpp:77] Creating layer pool2
I1221 18:02:45.068918  6049 net.cpp:84] Creating Layer pool2
I1221 18:02:45.068924  6049 net.cpp:408] pool2 <- quantized_relu2
I1221 18:02:45.068934  6049 net.cpp:382] pool2 -> pool2
I1221 18:02:45.068943  6049 net.cpp:110] =========1
I1221 18:02:45.068949  6049 net.cpp:121] =========2
I1221 18:02:45.068954  6049 layer.hpp:70] =========3
I1221 18:02:45.068962  6049 net.cpp:124] Setting up pool2
I1221 18:02:45.068969  6049 net.cpp:131] Top shape: 32 256 13 13 (1384448)
I1221 18:02:45.068975  6049 net.cpp:139] Memory required for data: 325180672
I1221 18:02:45.068981  6049 layer_factory.hpp:77] Creating layer quantized_pool2
I1221 18:02:45.068994  6049 net.cpp:84] Creating Layer quantized_pool2
I1221 18:02:45.069000  6049 net.cpp:408] quantized_pool2 <- pool2
I1221 18:02:45.069008  6049 net.cpp:382] quantized_pool2 -> quantized_pool2
I1221 18:02:45.069016  6049 net.cpp:110] =========1
I1221 18:02:45.069022  6049 net.cpp:121] =========2
I1221 18:02:45.069031  6049 layer.hpp:70] =========3
I1221 18:02:45.069037  6049 net.cpp:124] Setting up quantized_pool2
I1221 18:02:45.069044  6049 net.cpp:131] Top shape: 32 256 13 13 (1384448)
I1221 18:02:45.069051  6049 net.cpp:139] Memory required for data: 330718464
I1221 18:02:45.069056  6049 layer_factory.hpp:77] Creating layer norm2
I1221 18:02:45.069067  6049 net.cpp:84] Creating Layer norm2
I1221 18:02:45.069074  6049 net.cpp:408] norm2 <- quantized_pool2
I1221 18:02:45.069082  6049 net.cpp:382] norm2 -> norm2
I1221 18:02:45.069090  6049 net.cpp:110] =========1
I1221 18:02:45.069097  6049 net.cpp:121] =========2
I1221 18:02:45.069102  6049 layer.hpp:70] =========3
I1221 18:02:45.069108  6049 net.cpp:124] Setting up norm2
I1221 18:02:45.069118  6049 net.cpp:131] Top shape: 32 256 13 13 (1384448)
I1221 18:02:45.069124  6049 net.cpp:139] Memory required for data: 336256256
I1221 18:02:45.069130  6049 layer_factory.hpp:77] Creating layer quantized_norm2
I1221 18:02:45.069139  6049 net.cpp:84] Creating Layer quantized_norm2
I1221 18:02:45.069146  6049 net.cpp:408] quantized_norm2 <- norm2
I1221 18:02:45.069154  6049 net.cpp:382] quantized_norm2 -> quantized_norm2
I1221 18:02:45.069161  6049 net.cpp:110] =========1
I1221 18:02:45.069167  6049 net.cpp:121] =========2
I1221 18:02:45.069173  6049 layer.hpp:70] =========3
I1221 18:02:45.069180  6049 net.cpp:124] Setting up quantized_norm2
I1221 18:02:45.069186  6049 net.cpp:131] Top shape: 32 256 13 13 (1384448)
I1221 18:02:45.069192  6049 net.cpp:139] Memory required for data: 341794048
I1221 18:02:45.069198  6049 layer_factory.hpp:77] Creating layer conv3
I1221 18:02:45.069211  6049 net.cpp:84] Creating Layer conv3
I1221 18:02:45.069218  6049 net.cpp:408] conv3 <- quantized_norm2
I1221 18:02:45.069228  6049 net.cpp:382] conv3 -> conv3
I1221 18:02:45.069238  6049 net.cpp:110] =========1
I1221 18:02:45.069245  6049 net.cpp:121] =========2
I1221 18:02:45.069252  6049 layer.hpp:70] =========3
I1221 18:02:45.096017  6049 net.cpp:124] Setting up conv3
I1221 18:02:45.096042  6049 net.cpp:131] Top shape: 32 384 13 13 (2076672)
I1221 18:02:45.096061  6049 net.cpp:139] Memory required for data: 350100736
I1221 18:02:45.096074  6049 layer_factory.hpp:77] Creating layer quantized_conv3
I1221 18:02:45.096087  6049 net.cpp:84] Creating Layer quantized_conv3
I1221 18:02:45.096096  6049 net.cpp:408] quantized_conv3 <- conv3
I1221 18:02:45.096104  6049 net.cpp:382] quantized_conv3 -> quantized_conv3
I1221 18:02:45.096114  6049 net.cpp:110] =========1
I1221 18:02:45.096122  6049 net.cpp:121] =========2
I1221 18:02:45.096127  6049 layer.hpp:70] =========3
I1221 18:02:45.096133  6049 net.cpp:124] Setting up quantized_conv3
I1221 18:02:45.096140  6049 net.cpp:131] Top shape: 32 384 13 13 (2076672)
I1221 18:02:45.096146  6049 net.cpp:139] Memory required for data: 358407424
I1221 18:02:45.096153  6049 layer_factory.hpp:77] Creating layer relu3
I1221 18:02:45.096163  6049 net.cpp:84] Creating Layer relu3
I1221 18:02:45.096170  6049 net.cpp:408] relu3 <- quantized_conv3
I1221 18:02:45.096179  6049 net.cpp:382] relu3 -> relu3
I1221 18:02:45.096186  6049 net.cpp:110] =========1
I1221 18:02:45.096192  6049 net.cpp:121] =========2
I1221 18:02:45.096197  6049 layer.hpp:70] =========3
I1221 18:02:45.096204  6049 net.cpp:124] Setting up relu3
I1221 18:02:45.096211  6049 net.cpp:131] Top shape: 32 384 13 13 (2076672)
I1221 18:02:45.096217  6049 net.cpp:139] Memory required for data: 366714112
I1221 18:02:45.096223  6049 layer_factory.hpp:77] Creating layer quantized_relu3
I1221 18:02:45.096231  6049 net.cpp:84] Creating Layer quantized_relu3
I1221 18:02:45.096238  6049 net.cpp:408] quantized_relu3 <- relu3
I1221 18:02:45.096248  6049 net.cpp:382] quantized_relu3 -> quantized_relu3
I1221 18:02:45.096257  6049 net.cpp:110] =========1
I1221 18:02:45.096263  6049 net.cpp:121] =========2
I1221 18:02:45.096269  6049 layer.hpp:70] =========3
I1221 18:02:45.096276  6049 net.cpp:124] Setting up quantized_relu3
I1221 18:02:45.096282  6049 net.cpp:131] Top shape: 32 384 13 13 (2076672)
I1221 18:02:45.096288  6049 net.cpp:139] Memory required for data: 375020800
I1221 18:02:45.096295  6049 layer_factory.hpp:77] Creating layer conv4
I1221 18:02:45.096307  6049 net.cpp:84] Creating Layer conv4
I1221 18:02:45.096315  6049 net.cpp:408] conv4 <- quantized_relu3
I1221 18:02:45.096325  6049 net.cpp:382] conv4 -> conv4
I1221 18:02:45.096335  6049 net.cpp:110] =========1
I1221 18:02:45.096343  6049 net.cpp:121] =========2
I1221 18:02:45.096349  6049 layer.hpp:70] =========3
I1221 18:02:45.116088  6049 net.cpp:124] Setting up conv4
I1221 18:02:45.116106  6049 net.cpp:131] Top shape: 32 384 13 13 (2076672)
I1221 18:02:45.116113  6049 net.cpp:139] Memory required for data: 383327488
I1221 18:02:45.116122  6049 layer_factory.hpp:77] Creating layer quantized_conv4
I1221 18:02:45.116134  6049 net.cpp:84] Creating Layer quantized_conv4
I1221 18:02:45.116142  6049 net.cpp:408] quantized_conv4 <- conv4
I1221 18:02:45.116150  6049 net.cpp:382] quantized_conv4 -> quantized_conv4
I1221 18:02:45.116159  6049 net.cpp:110] =========1
I1221 18:02:45.116165  6049 net.cpp:121] =========2
I1221 18:02:45.116171  6049 layer.hpp:70] =========3
I1221 18:02:45.116178  6049 net.cpp:124] Setting up quantized_conv4
I1221 18:02:45.116184  6049 net.cpp:131] Top shape: 32 384 13 13 (2076672)
I1221 18:02:45.116190  6049 net.cpp:139] Memory required for data: 391634176
I1221 18:02:45.116197  6049 layer_factory.hpp:77] Creating layer relu4
I1221 18:02:45.116204  6049 net.cpp:84] Creating Layer relu4
I1221 18:02:45.116211  6049 net.cpp:408] relu4 <- quantized_conv4
I1221 18:02:45.116220  6049 net.cpp:382] relu4 -> relu4
I1221 18:02:45.116230  6049 net.cpp:110] =========1
I1221 18:02:45.116235  6049 net.cpp:121] =========2
I1221 18:02:45.116241  6049 layer.hpp:70] =========3
I1221 18:02:45.116247  6049 net.cpp:124] Setting up relu4
I1221 18:02:45.116255  6049 net.cpp:131] Top shape: 32 384 13 13 (2076672)
I1221 18:02:45.116261  6049 net.cpp:139] Memory required for data: 399940864
I1221 18:02:45.116267  6049 layer_factory.hpp:77] Creating layer quantized_relu4
I1221 18:02:45.116281  6049 net.cpp:84] Creating Layer quantized_relu4
I1221 18:02:45.116297  6049 net.cpp:408] quantized_relu4 <- relu4
I1221 18:02:45.116307  6049 net.cpp:382] quantized_relu4 -> quantized_relu4
I1221 18:02:45.116317  6049 net.cpp:110] =========1
I1221 18:02:45.116344  6049 net.cpp:121] =========2
I1221 18:02:45.116350  6049 layer.hpp:70] =========3
I1221 18:02:45.116358  6049 net.cpp:124] Setting up quantized_relu4
I1221 18:02:45.116364  6049 net.cpp:131] Top shape: 32 384 13 13 (2076672)
I1221 18:02:45.116370  6049 net.cpp:139] Memory required for data: 408247552
I1221 18:02:45.116377  6049 layer_factory.hpp:77] Creating layer conv5
I1221 18:02:45.116391  6049 net.cpp:84] Creating Layer conv5
I1221 18:02:45.116400  6049 net.cpp:408] conv5 <- quantized_relu4
I1221 18:02:45.116410  6049 net.cpp:382] conv5 -> conv5
I1221 18:02:45.116420  6049 net.cpp:110] =========1
I1221 18:02:45.116427  6049 net.cpp:121] =========2
I1221 18:02:45.116432  6049 layer.hpp:70] =========3
I1221 18:02:45.129817  6049 net.cpp:124] Setting up conv5
I1221 18:02:45.129833  6049 net.cpp:131] Top shape: 32 256 13 13 (1384448)
I1221 18:02:45.129840  6049 net.cpp:139] Memory required for data: 413785344
I1221 18:02:45.129853  6049 layer_factory.hpp:77] Creating layer quantized_conv5
I1221 18:02:45.129863  6049 net.cpp:84] Creating Layer quantized_conv5
I1221 18:02:45.129869  6049 net.cpp:408] quantized_conv5 <- conv5
I1221 18:02:45.129879  6049 net.cpp:382] quantized_conv5 -> quantized_conv5
I1221 18:02:45.129890  6049 net.cpp:110] =========1
I1221 18:02:45.129896  6049 net.cpp:121] =========2
I1221 18:02:45.129902  6049 layer.hpp:70] =========3
I1221 18:02:45.129909  6049 net.cpp:124] Setting up quantized_conv5
I1221 18:02:45.129916  6049 net.cpp:131] Top shape: 32 256 13 13 (1384448)
I1221 18:02:45.129922  6049 net.cpp:139] Memory required for data: 419323136
I1221 18:02:45.129928  6049 layer_factory.hpp:77] Creating layer relu5
I1221 18:02:45.129936  6049 net.cpp:84] Creating Layer relu5
I1221 18:02:45.129942  6049 net.cpp:408] relu5 <- quantized_conv5
I1221 18:02:45.129952  6049 net.cpp:382] relu5 -> relu5
I1221 18:02:45.129963  6049 net.cpp:110] =========1
I1221 18:02:45.129971  6049 net.cpp:121] =========2
I1221 18:02:45.129976  6049 layer.hpp:70] =========3
I1221 18:02:45.129982  6049 net.cpp:124] Setting up relu5
I1221 18:02:45.129989  6049 net.cpp:131] Top shape: 32 256 13 13 (1384448)
I1221 18:02:45.129995  6049 net.cpp:139] Memory required for data: 424860928
I1221 18:02:45.130002  6049 layer_factory.hpp:77] Creating layer quantized_relu5
I1221 18:02:45.130010  6049 net.cpp:84] Creating Layer quantized_relu5
I1221 18:02:45.130017  6049 net.cpp:408] quantized_relu5 <- relu5
I1221 18:02:45.130026  6049 net.cpp:382] quantized_relu5 -> quantized_relu5
I1221 18:02:45.130035  6049 net.cpp:110] =========1
I1221 18:02:45.130041  6049 net.cpp:121] =========2
I1221 18:02:45.130048  6049 layer.hpp:70] =========3
I1221 18:02:45.130053  6049 net.cpp:124] Setting up quantized_relu5
I1221 18:02:45.130061  6049 net.cpp:131] Top shape: 32 256 13 13 (1384448)
I1221 18:02:45.130066  6049 net.cpp:139] Memory required for data: 430398720
I1221 18:02:45.130074  6049 layer_factory.hpp:77] Creating layer pool5
I1221 18:02:45.130082  6049 net.cpp:84] Creating Layer pool5
I1221 18:02:45.130089  6049 net.cpp:408] pool5 <- quantized_relu5
I1221 18:02:45.130100  6049 net.cpp:382] pool5 -> pool5
I1221 18:02:45.130110  6049 net.cpp:110] =========1
I1221 18:02:45.130116  6049 net.cpp:121] =========2
I1221 18:02:45.130121  6049 layer.hpp:70] =========3
I1221 18:02:45.130131  6049 net.cpp:124] Setting up pool5
I1221 18:02:45.130137  6049 net.cpp:131] Top shape: 32 256 6 6 (294912)
I1221 18:02:45.130143  6049 net.cpp:139] Memory required for data: 431578368
I1221 18:02:45.130149  6049 layer_factory.hpp:77] Creating layer quantized_pool5
I1221 18:02:45.130163  6049 net.cpp:84] Creating Layer quantized_pool5
I1221 18:02:45.130172  6049 net.cpp:408] quantized_pool5 <- pool5
I1221 18:02:45.130179  6049 net.cpp:382] quantized_pool5 -> quantized_pool5
I1221 18:02:45.130188  6049 net.cpp:110] =========1
I1221 18:02:45.130199  6049 net.cpp:121] =========2
I1221 18:02:45.130213  6049 layer.hpp:70] =========3
I1221 18:02:45.130220  6049 net.cpp:124] Setting up quantized_pool5
I1221 18:02:45.130228  6049 net.cpp:131] Top shape: 32 256 6 6 (294912)
I1221 18:02:45.130234  6049 net.cpp:139] Memory required for data: 432758016
I1221 18:02:45.130239  6049 layer_factory.hpp:77] Creating layer fc6
I1221 18:02:45.130256  6049 net.cpp:84] Creating Layer fc6
I1221 18:02:45.130264  6049 net.cpp:408] fc6 <- quantized_pool5
I1221 18:02:45.130273  6049 net.cpp:382] fc6 -> fc6
I1221 18:02:45.130287  6049 net.cpp:110] =========1
I1221 18:02:45.130295  6049 net.cpp:121] =========2
I1221 18:02:45.130301  6049 layer.hpp:70] =========3
I1221 18:02:45.130308  6049 quan_inner_product_layer.cpp:21] 4096   4096
I1221 18:02:45.130316  6049 quan_inner_product_layer.cpp:46] 4096+++++9216++++0
I1221 18:02:45.130322  6049 quan_inner_product_layer.cpp:48] =========4
I1221 18:02:45.130328  6049 quan_inner_product_layer.cpp:52] =========5
I1221 18:02:46.234318  6049 quan_inner_product_layer.cpp:54] =========6
I1221 18:02:46.234416  6049 net.cpp:124] Setting up fc6
I1221 18:02:46.234431  6049 net.cpp:131] Top shape: 32 4096 (131072)
I1221 18:02:46.234438  6049 net.cpp:139] Memory required for data: 433282304
I1221 18:02:46.234453  6049 layer_factory.hpp:77] Creating layer quantized_fc6
I1221 18:02:46.234470  6049 net.cpp:84] Creating Layer quantized_fc6
I1221 18:02:46.234479  6049 net.cpp:408] quantized_fc6 <- fc6
I1221 18:02:46.234493  6049 net.cpp:382] quantized_fc6 -> quantized_fc6
I1221 18:02:46.234506  6049 net.cpp:110] =========1
I1221 18:02:46.234513  6049 net.cpp:121] =========2
I1221 18:02:46.234519  6049 layer.hpp:70] =========3
I1221 18:02:46.234526  6049 net.cpp:124] Setting up quantized_fc6
I1221 18:02:46.234534  6049 net.cpp:131] Top shape: 32 4096 (131072)
I1221 18:02:46.234540  6049 net.cpp:139] Memory required for data: 433806592
I1221 18:02:46.234546  6049 layer_factory.hpp:77] Creating layer relu6
I1221 18:02:46.234555  6049 net.cpp:84] Creating Layer relu6
I1221 18:02:46.234562  6049 net.cpp:408] relu6 <- quantized_fc6
I1221 18:02:46.234573  6049 net.cpp:382] relu6 -> relu6
I1221 18:02:46.234582  6049 net.cpp:110] =========1
I1221 18:02:46.234588  6049 net.cpp:121] =========2
I1221 18:02:46.234594  6049 layer.hpp:70] =========3
I1221 18:02:46.234601  6049 net.cpp:124] Setting up relu6
I1221 18:02:46.234608  6049 net.cpp:131] Top shape: 32 4096 (131072)
I1221 18:02:46.234613  6049 net.cpp:139] Memory required for data: 434330880
I1221 18:02:46.234621  6049 layer_factory.hpp:77] Creating layer quantized_relu6
I1221 18:02:46.234628  6049 net.cpp:84] Creating Layer quantized_relu6
I1221 18:02:46.234635  6049 net.cpp:408] quantized_relu6 <- relu6
I1221 18:02:46.234644  6049 net.cpp:382] quantized_relu6 -> quantized_relu6
I1221 18:02:46.234652  6049 net.cpp:110] =========1
I1221 18:02:46.234658  6049 net.cpp:121] =========2
I1221 18:02:46.234664  6049 layer.hpp:70] =========3
I1221 18:02:46.234670  6049 net.cpp:124] Setting up quantized_relu6
I1221 18:02:46.234678  6049 net.cpp:131] Top shape: 32 4096 (131072)
I1221 18:02:46.234683  6049 net.cpp:139] Memory required for data: 434855168
I1221 18:02:46.234689  6049 layer_factory.hpp:77] Creating layer fc7
I1221 18:02:46.234701  6049 net.cpp:84] Creating Layer fc7
I1221 18:02:46.234709  6049 net.cpp:408] fc7 <- quantized_relu6
I1221 18:02:46.234719  6049 net.cpp:382] fc7 -> fc7
I1221 18:02:46.234730  6049 net.cpp:110] =========1
I1221 18:02:46.234736  6049 net.cpp:121] =========2
I1221 18:02:46.234742  6049 layer.hpp:70] =========3
I1221 18:02:46.234747  6049 quan_inner_product_layer.cpp:21] 4096   4096
I1221 18:02:46.234755  6049 quan_inner_product_layer.cpp:46] 4096+++++4096++++0
I1221 18:02:46.234761  6049 quan_inner_product_layer.cpp:48] =========4
I1221 18:02:46.234767  6049 quan_inner_product_layer.cpp:52] =========5
I1221 18:02:46.727418  6049 quan_inner_product_layer.cpp:54] =========6
I1221 18:02:46.727529  6049 net.cpp:124] Setting up fc7
I1221 18:02:46.727558  6049 net.cpp:131] Top shape: 32 4096 (131072)
I1221 18:02:46.727578  6049 net.cpp:139] Memory required for data: 435379456
I1221 18:02:46.727594  6049 layer_factory.hpp:77] Creating layer quantized_fc7
I1221 18:02:46.727614  6049 net.cpp:84] Creating Layer quantized_fc7
I1221 18:02:46.727624  6049 net.cpp:408] quantized_fc7 <- fc7
I1221 18:02:46.727636  6049 net.cpp:382] quantized_fc7 -> quantized_fc7
I1221 18:02:46.727651  6049 net.cpp:110] =========1
I1221 18:02:46.727658  6049 net.cpp:121] =========2
I1221 18:02:46.727664  6049 layer.hpp:70] =========3
I1221 18:02:46.727672  6049 net.cpp:124] Setting up quantized_fc7
I1221 18:02:46.727679  6049 net.cpp:131] Top shape: 32 4096 (131072)
I1221 18:02:46.727685  6049 net.cpp:139] Memory required for data: 435903744
I1221 18:02:46.727691  6049 layer_factory.hpp:77] Creating layer relu7
I1221 18:02:46.727700  6049 net.cpp:84] Creating Layer relu7
I1221 18:02:46.727706  6049 net.cpp:408] relu7 <- quantized_fc7
I1221 18:02:46.727716  6049 net.cpp:382] relu7 -> relu7
I1221 18:02:46.727726  6049 net.cpp:110] =========1
I1221 18:02:46.727732  6049 net.cpp:121] =========2
I1221 18:02:46.727737  6049 layer.hpp:70] =========3
I1221 18:02:46.727744  6049 net.cpp:124] Setting up relu7
I1221 18:02:46.727751  6049 net.cpp:131] Top shape: 32 4096 (131072)
I1221 18:02:46.727757  6049 net.cpp:139] Memory required for data: 436428032
I1221 18:02:46.727763  6049 layer_factory.hpp:77] Creating layer quantized_relu7
I1221 18:02:46.727771  6049 net.cpp:84] Creating Layer quantized_relu7
I1221 18:02:46.727777  6049 net.cpp:408] quantized_relu7 <- relu7
I1221 18:02:46.727787  6049 net.cpp:382] quantized_relu7 -> quantized_relu7
I1221 18:02:46.727795  6049 net.cpp:110] =========1
I1221 18:02:46.727802  6049 net.cpp:121] =========2
I1221 18:02:46.727807  6049 layer.hpp:70] =========3
I1221 18:02:46.727813  6049 net.cpp:124] Setting up quantized_relu7
I1221 18:02:46.727820  6049 net.cpp:131] Top shape: 32 4096 (131072)
I1221 18:02:46.727826  6049 net.cpp:139] Memory required for data: 436952320
I1221 18:02:46.727833  6049 layer_factory.hpp:77] Creating layer fc8
I1221 18:02:46.727843  6049 net.cpp:84] Creating Layer fc8
I1221 18:02:46.727849  6049 net.cpp:408] fc8 <- quantized_relu7
I1221 18:02:46.727860  6049 net.cpp:382] fc8 -> fc8
I1221 18:02:46.727870  6049 net.cpp:110] =========1
I1221 18:02:46.727876  6049 net.cpp:121] =========2
I1221 18:02:46.727882  6049 layer.hpp:70] =========3
I1221 18:02:46.727888  6049 quan_inner_product_layer.cpp:21] 1000   1000
I1221 18:02:46.727895  6049 quan_inner_product_layer.cpp:46] 1000+++++4096++++0
I1221 18:02:46.727901  6049 quan_inner_product_layer.cpp:48] =========4
I1221 18:02:46.727907  6049 quan_inner_product_layer.cpp:52] =========5
I1221 18:02:46.734622  6049 quan_inner_product_layer.cpp:54] =========6
I1221 18:02:46.734700  6049 net.cpp:124] Setting up fc8
I1221 18:02:46.734719  6049 net.cpp:131] Top shape: 32 1000 (32000)
I1221 18:02:46.734725  6049 net.cpp:139] Memory required for data: 437080320
I1221 18:02:46.734740  6049 layer_factory.hpp:77] Creating layer quantized_fc8
I1221 18:02:46.734756  6049 net.cpp:84] Creating Layer quantized_fc8
I1221 18:02:46.734766  6049 net.cpp:408] quantized_fc8 <- fc8
I1221 18:02:46.734778  6049 net.cpp:382] quantized_fc8 -> quantized_fc8
I1221 18:02:46.734793  6049 net.cpp:110] =========1
I1221 18:02:46.734799  6049 net.cpp:121] =========2
I1221 18:02:46.734805  6049 layer.hpp:70] =========3
I1221 18:02:46.734813  6049 net.cpp:124] Setting up quantized_fc8
I1221 18:02:46.734820  6049 net.cpp:131] Top shape: 32 1000 (32000)
I1221 18:02:46.734827  6049 net.cpp:139] Memory required for data: 437208320
I1221 18:02:46.734833  6049 layer_factory.hpp:77] Creating layer quantized_fc8_quantized_fc8_0_split
I1221 18:02:46.734844  6049 net.cpp:84] Creating Layer quantized_fc8_quantized_fc8_0_split
I1221 18:02:46.734850  6049 net.cpp:408] quantized_fc8_quantized_fc8_0_split <- quantized_fc8
I1221 18:02:46.734859  6049 net.cpp:382] quantized_fc8_quantized_fc8_0_split -> quantized_fc8_quantized_fc8_0_split_0
I1221 18:02:46.734884  6049 net.cpp:382] quantized_fc8_quantized_fc8_0_split -> quantized_fc8_quantized_fc8_0_split_1
I1221 18:02:46.734910  6049 net.cpp:382] quantized_fc8_quantized_fc8_0_split -> quantized_fc8_quantized_fc8_0_split_2
I1221 18:02:46.734920  6049 net.cpp:382] quantized_fc8_quantized_fc8_0_split -> quantized_fc8_quantized_fc8_0_split_3
I1221 18:02:46.734928  6049 net.cpp:110] =========1
I1221 18:02:46.734935  6049 net.cpp:121] =========2
I1221 18:02:46.734941  6049 layer.hpp:70] =========3
I1221 18:02:46.734947  6049 net.cpp:124] Setting up quantized_fc8_quantized_fc8_0_split
I1221 18:02:46.734969  6049 net.cpp:131] Top shape: 32 1000 (32000)
I1221 18:02:46.734978  6049 net.cpp:131] Top shape: 32 1000 (32000)
I1221 18:02:46.734985  6049 net.cpp:131] Top shape: 32 1000 (32000)
I1221 18:02:46.734992  6049 net.cpp:131] Top shape: 32 1000 (32000)
I1221 18:02:46.734997  6049 net.cpp:139] Memory required for data: 437720320
I1221 18:02:46.735004  6049 layer_factory.hpp:77] Creating layer probs
I1221 18:02:46.735013  6049 net.cpp:84] Creating Layer probs
I1221 18:02:46.735019  6049 net.cpp:408] probs <- quantized_fc8_quantized_fc8_0_split_0
I1221 18:02:46.735030  6049 net.cpp:382] probs -> probs
I1221 18:02:46.735039  6049 net.cpp:110] =========1
I1221 18:02:46.735045  6049 net.cpp:121] =========2
I1221 18:02:46.735051  6049 layer.hpp:70] =========3
I1221 18:02:46.735072  6049 net.cpp:124] Setting up probs
I1221 18:02:46.735081  6049 net.cpp:131] Top shape: 32 1000 (32000)
I1221 18:02:46.735087  6049 net.cpp:139] Memory required for data: 437848320
I1221 18:02:46.735093  6049 layer_factory.hpp:77] Creating layer loss
I1221 18:02:46.735106  6049 net.cpp:84] Creating Layer loss
I1221 18:02:46.735113  6049 net.cpp:408] loss <- quantized_fc8_quantized_fc8_0_split_1
I1221 18:02:46.735121  6049 net.cpp:408] loss <- label_data_1_split_0
I1221 18:02:46.735128  6049 net.cpp:382] loss -> loss
…
I1221 18:02:46.736876  6049 net.cpp:296] The NetState phase (1) differed from the phase (0) specified by a rule in layer data
I1221 18:02:46.737210  6049 net.cpp:51] Initializing net from parameters: 
state {
  phase: TEST
}
layer {
  name: "data"
  type: "Data"
  top: "data"
  top: "label"
  include {
    phase: TEST
  }
  transform_param {
    mirror: false
    crop_size: 227
    mean_file: "/home/ydwu/database/imagenet/ilsvrc12/imagenet_mean.binaryproto"
  }
  data_param {
    source: "/home/ydwu/database/imagenet/ilsvrc12/lmdb_resize/ilsvrc12_val_lmdb/"
    batch_size: 20
    backend: LMDB
  }
}
layer {
  name: "quantized_data"
  type: "Quantization"
  bottom: "data"
  top: "quantized_data"
  quantization_param {
    round_method: FLOOR
    round_strategy: AGGRESSIVE
    bit_width: 8
    range: -129.93526
    range: 160.78912
  }
}
layer {
  name: "conv1"
  type: "QuanConvolution"
  bottom: "quantized_data"
  top: "conv1"
  param {
    lr_mult: 1
    decay_mult: 1
  }
  param {
    lr_mult: 2
    decay_mult: 0
  }
  convolution_param {
    num_output: 96
    pad: 0
    kernel_size: 11
    group: 1
    stride: 4
    weight_filler {
      type: "gaussian"
      std: 1.1e+13
    }
    bias_filler {
      type: "constant"
      std: 0.1
    }
  }
}
layer {
  name: "quantized_conv1"
  type: "Quantization"
  bottom: "conv1"
  top: "quantized_conv1"
  quantization_param {
    round_method: FLOOR
    round_strategy: AGGRESSIVE
    bit_width: 8
    range: -2732.7351
    range: 2531.042
  }
}
layer {
  name: "relu1"
  type: "ReLU"
  bottom: "quantized_conv1"
  top: "relu1"
}
layer {
  name: "quantized_relu1"
  type: "Quantization"
  bottom: "relu1"
  top: "quantized_relu1"
  quantization_param {
    round_method: FLOOR
    round_strategy: AGGRESSIVE
    bit_width: 8
    range: 1
    range: 2531.042
  }
}
layer {
  name: "pool1"
  type: "Pooling"
  bottom: "quantized_relu1"
  top: "pool1"
  pooling_param {
    pool: MAX
    kernel_size: 3
    stride: 2
  }
}
layer {
  name: "quantized_pool1"
  type: "Quantization"
  bottom: "pool1"
  top: "quantized_pool1"
  quantization_param {
    round_method: FLOOR
    round_strategy: AGGRESSIVE
    bit_width: 8
    range: 1
    range: 2531.042
  }
}
layer {
  name: "norm1"
  type: "LRN"
  bottom: "quantized_pool1"
  top: "norm1"
  lrn_param {
    local_size: 5
    alpha: 0.0001
    beta: 0.75
  }
}
layer {
  name: "quantized_norm1"
  type: "Quantization"
  bottom: "norm1"
  top: "quantized_norm1"
  quantization_param {
    round_method: FLOOR
    round_strategy: AGGRESSIVE
    bit_width: 8
    range: 1
    range: 138.70576
  }
}
layer {
  name: "conv2"
  type: "QuanConvolution"
  bottom: "quantized_norm1"
  top: "conv2"
  param {
    lr_mult: 1
    decay_mult: 1
  }
  param {
    lr_mult: 2
    decay_mult: 0
  }
  convolution_param {
    num_output: 256
    pad: 2
    kernel_size: 5
    group: 2
    stride: 1
    weight_filler {
      type: "gaussian"
      std: 1.1e+13
    }
    bias_filler {
      type: "constant"
      std: 0.1
    }
  }
}
layer {
  name: "quantized_conv2"
  type: "Quantization"
  bottom: "conv2"
  top: "quantized_conv2"
  quantization_param {
    round_method: FLOOR
    round_strategy: AGGRESSIVE
    bit_width: 8
    range: -647.61908
    range: 492.23111
  }
}
layer {
  name: "relu2"
  type: "ReLU"
  bottom: "quantized_conv2"
  top: "relu2"
}
layer {
  name: "quantized_relu2"
  type: "Quantization"
  bottom: "relu2"
  top: "quantized_relu2"
  quantization_param {
    round_method: FLOOR
    round_strategy: AGGRESSIVE
    bit_width: 8
    range: 1
    range: 492.23111
  }
}
layer {
  name: "pool2"
  type: "Pooling"
  bottom: "quantized_relu2"
  top: "pool2"
  pooling_param {
    pool: MAX
    kernel_size: 3
    stride: 2
  }
}
layer {
  name: "quantized_pool2"
  type: "Quantization"
  bottom: "pool2"
  top: "quantized_pool2"
  quantization_param {
    round_method: FLOOR
    round_strategy: AGGRESSIVE
    bit_width: 8
    range: 1
    range: 492.23111
  }
}
layer {
  name: "norm2"
  type: "LRN"
  bottom: "quantized_pool2"
  top: "norm2"
  lrn_param {
    local_size: 5
    alpha: 0.0001
    beta: 0.75
  }
}
layer {
  name: "quantized_norm2"
  type: "Quantization"
  bottom: "norm2"
  top: "quantized_norm2"
  quantization_param {
    round_method: FLOOR
    round_strategy: AGGRESSIVE
    bit_width: 8
    range: 1
    range: 138.72636
  }
}
layer {
  name: "conv3"
  type: "QuanConvolution"
  bottom: "quantized_norm2"
  top: "conv3"
  param {
    lr_mult: 1
    decay_mult: 1
  }
  param {
    lr_mult: 2
    decay_mult: 0
  }
  convolution_param {
    num_output: 384
    pad: 1
    kernel_size: 3
    group: 1
    stride: 1
    weight_filler {
      type: "gaussian"
      std: 1.1e+13
    }
    bias_filler {
      type: "constant"
      std: 0.1
    }
  }
}
layer {
  name: "quantized_conv3"
  type: "Quantization"
  bottom: "conv3"
  top: "quantized_conv3"
  quantization_param {
    round_method: FLOOR
    round_strategy: AGGRESSIVE
    bit_width: 8
    range: -389.56516
    range: 331.98178
  }
}
layer {
  name: "relu3"
  type: "ReLU"
  bottom: "quantized_conv3"
  top: "relu3"
}
layer {
  name: "quantized_relu3"
  type: "Quantization"
  bottom: "relu3"
  top: "quantized_relu3"
  quantization_param {
    round_method: FLOOR
    round_strategy: AGGRESSIVE
    bit_width: 8
    range: 1
    range: 331.98178
  }
}
layer {
  name: "conv4"
  type: "QuanConvolution"
  bottom: "quantized_relu3"
  top: "conv4"
  param {
    lr_mult: 1
    decay_mult: 1
  }
  param {
    lr_mult: 2
    decay_mult: 0
  }
  convolution_param {
    num_output: 384
    pad: 1
    kernel_size: 3
    group: 2
    stride: 1
    weight_filler {
      type: "gaussian"
      std: 1.1e+13
    }
    bias_filler {
      type: "constant"
      std: 0.1
    }
  }
}
layer {
  name: "quantized_conv4"
  type: "Quantization"
  bottom: "conv4"
  top: "quantized_conv4"
  quantization_param {
    round_method: FLOOR
    round_strategy: AGGRESSIVE
    bit_width: 8
    range: -231.20598
    range: 283.87189
  }
}
layer {
  name: "relu4"
  type: "ReLU"
  bottom: "quantized_conv4"
  top: "relu4"
}
layer {
  name: "quantized_relu4"
  type: "Quantization"
  bottom: "relu4"
  top: "quantized_relu4"
  quantization_param {
    round_method: FLOOR
    round_strategy: AGGRESSIVE
    bit_width: 8
    range: 1
    range: 283.87189
  }
}
layer {
  name: "conv5"
  type: "QuanConvolution"
  bottom: "quantized_relu4"
  top: "conv5"
  param {
    lr_mult: 1
    decay_mult: 1
  }
  param {
    lr_mult: 2
    decay_mult: 0
  }
  convolution_param {
    num_output: 256
    pad: 1
    kernel_size: 3
    group: 2
    stride: 1
    weight_filler {
      type: "gaussian"
      std: 1.1e+13
    }
    bias_filler {
      type: "constant"
      std: 0.1
    }
  }
}
layer {
  name: "quantized_conv5"
  type: "Quantization"
  bottom: "conv5"
  top: "quantized_conv5"
  quantization_param {
    round_method: FLOOR
    round_strategy: AGGRESSIVE
    bit_width: 8
    range: -172.60567
    range: 272.57315
  }
}
layer {
  name: "relu5"
  type: "ReLU"
  bottom: "quantized_conv5"
  top: "relu5"
}
layer {
  name: "quantized_relu5"
  type: "Quantization"
  bottom: "relu5"
  top: "quantized_relu5"
  quantization_param {
    round_method: FLOOR
    round_strategy: AGGRESSIVE
    bit_width: 8
    range: 1
    range: 272.57315
  }
}
layer {
  name: "pool5"
  type: "Pooling"
  bottom: "quantized_relu5"
  top: "pool5"
  pooling_param {
    pool: MAX
    kernel_size: 3
    stride: 2
  }
}
layer {
  name: "quantized_pool5"
  type: "Quantization"
  bottom: "pool5"
  top: "quantized_pool5"
  quantization_param {
    round_method: FLOOR
    round_strategy: AGGRESSIVE
    bit_width: 8
    range: 1
    range: 272.57315
  }
}
layer {
  name: "fc6"
  type: "QuanInnerProduct"
  bottom: "quantized_pool5"
  top: "fc6"
  param {
    lr_mult: 1
    decay_mult: 1
  }
  param {
    lr_mult: 2
    decay_mult: 0
  }
  quan_inner_product_param {
    num_output: 4096
    weight_filler {
      type: "gaussian"
      std: 1.05e+13
    }
    bias_filler {
      type: "constant"
      value: 0.1
    }
  }
}
layer {
  name: "quantized_fc6"
  type: "Quantization"
  bottom: "fc6"
  top: "quantized_fc6"
  quantization_param {
    round_method: FLOOR
    round_strategy: AGGRESSIVE
    bit_width: 8
    range: -114.02487
    range: 58.541733
  }
}
layer {
  name: "relu6"
  type: "ReLU"
  bottom: "quantized_fc6"
  top: "relu6"
}
layer {
  name: "quantized_relu6"
  type: "Quantization"
  bottom: "relu6"
  top: "quantized_relu6"
  quantization_param {
    round_method: FLOOR
    round_strategy: AGGRESSIVE
    bit_width: 8
    range: 1
    range: 58.541733
  }
}
layer {
  name: "fc7"
  type: "QuanInnerProduct"
  bottom: "quantized_relu6"
  top: "fc7"
  param {
    lr_mult: 1
    decay_mult: 1
  }
  param {
    lr_mult: 2
    decay_mult: 0
  }
  quan_inner_product_param {
    num_output: 4096
    weight_filler {
      type: "gaussian"
      std: 1.05e+13
    }
    bias_filler {
      type: "constant"
      value: 0.1
    }
  }
}
layer {
  name: "quantized_fc7"
  type: "Quantization"
  bottom: "fc7"
  top: "quantized_fc7"
  quantization_param {
    round_method: FLOOR
    round_strategy: AGGRESSIVE
    bit_width: 8
    range: -26.019335
    range: 19.125257
  }
}
layer {
  name: "relu7"
  type: "ReLU"
  bottom: "quantized_fc7"
  top: "relu7"
}
layer {
  name: "quantized_relu7"
  type: "Quantization"
  bottom: "relu7"
  top: "quantized_relu7"
  quantization_param {
    round_method: FLOOR
    round_strategy: AGGRESSIVE
    bit_width: 8
    range: 1
    range: 19.125257
  }
}
layer {
  name: "fc8"
  type: "QuanInnerProduct"
  bottom: "quantized_relu7"
  top: "fc8"
  param {
    lr_mult: 1
    decay_mult: 1
  }
  param {
    lr_mult: 2
    decay_mult: 0
  }
  quan_inner_product_param {
    num_output: 1000
  }
}
layer {
  name: "quantized_fc8"
  type: "Quantization"
  bottom: "fc8"
  top: "quantized_fc8"
  quantization_param {
    round_method: FLOOR
    round_strategy: AGGRESSIVE
    bit_width: 8
    range: -9.849781
    range: 45.688446
  }
}
layer {
  name: "probs"
  type: "Softmax"
  bottom: "quantized_fc8"
  top: "probs"
}
layer {
  name: "loss"
  type: "SoftmaxWithLoss"
  bottom: "quantized_fc8"
  bottom: "label"
  top: "loss"
}
layer {
  name: "acc_top1"
  type: "Accuracy"
  bottom: "quantized_fc8"
  bottom: "label"
  top: "acc_top1"
  accuracy_param {
    top_k: 1
  }
}
layer {
  name: "acc_top5"
  type: "Accuracy"
  bottom: "quantized_fc8"
  bottom: "label"
  top: "acc_top5"
  accuracy_param {
    top_k: 5
  }
}
I1221 18:02:46.737385  6049 layer_factory.hpp:77] Creating layer data
I1221 18:02:46.737469  6049 db_lmdb.cpp:35] Opened lmdb /home/ydwu/database/imagenet/ilsvrc12/lmdb_resize/ilsvrc12_val_lmdb/
I1221 18:02:46.737495  6049 net.cpp:84] Creating Layer data
I1221 18:02:46.737504  6049 net.cpp:382] data -> data
I1221 18:02:46.737517  6049 net.cpp:382] data -> label
I1221 18:02:46.737529  6049 net.cpp:110] =========1
I1221 18:02:46.737534  6049 net.cpp:121] =========2
I1221 18:02:46.737540  6049 layer.hpp:70] =========3
I1221 18:02:46.737547  6049 data_transformer.cpp:25] Loading mean file from: /home/ydwu/database/imagenet/ilsvrc12/imagenet_mean.binaryproto
I1221 18:02:46.739706  6049 data_layer.cpp:45] output data size: 20,3,227,227
I1221 18:02:46.752810  6049 net.cpp:124] Setting up data
I1221 18:02:46.752878  6049 net.cpp:131] Top shape: 20 3 227 227 (3091740)
I1221 18:02:46.752888  6049 net.cpp:131] Top shape: 20 (20)
I1221 18:02:46.752894  6049 net.cpp:139] Memory required for data: 12367040
I1221 18:02:46.752907  6049 layer_factory.hpp:77] Creating layer label_data_1_split
I1221 18:02:46.752926  6049 net.cpp:84] Creating Layer label_data_1_split
I1221 18:02:46.752934  6049 net.cpp:408] label_data_1_split <- label
I1221 18:02:46.752944  6049 net.cpp:382] label_data_1_split -> label_data_1_split_0
I1221 18:02:46.752964  6049 net.cpp:382] label_data_1_split -> label_data_1_split_1
I1221 18:02:46.752974  6049 net.cpp:382] label_data_1_split -> label_data_1_split_2
I1221 18:02:46.752982  6049 net.cpp:110] =========1
I1221 18:02:46.752990  6049 net.cpp:121] =========2
I1221 18:02:46.752995  6049 layer.hpp:70] =========3
I1221 18:02:46.753018  6049 net.cpp:124] Setting up label_data_1_split
I1221 18:02:46.753039  6049 net.cpp:131] Top shape: 20 (20)
I1221 18:02:46.753047  6049 net.cpp:131] Top shape: 20 (20)
I1221 18:02:46.753054  6049 net.cpp:131] Top shape: 20 (20)
I1221 18:02:46.753060  6049 net.cpp:139] Memory required for data: 12367280
I1221 18:02:46.753067  6049 layer_factory.hpp:77] Creating layer quantized_data
I1221 18:02:46.753082  6049 net.cpp:84] Creating Layer quantized_data
I1221 18:02:46.753089  6049 net.cpp:408] quantized_data <- data
I1221 18:02:46.753098  6049 net.cpp:382] quantized_data -> quantized_data
I1221 18:02:46.753106  6049 net.cpp:110] =========1
I1221 18:02:46.753113  6049 net.cpp:121] =========2
I1221 18:02:46.753118  6049 layer.hpp:70] =========3
I1221 18:02:46.753125  6049 net.cpp:124] Setting up quantized_data
I1221 18:02:46.753132  6049 net.cpp:131] Top shape: 20 3 227 227 (3091740)
I1221 18:02:46.753139  6049 net.cpp:139] Memory required for data: 24734240
I1221 18:02:46.753144  6049 layer_factory.hpp:77] Creating layer conv1
I1221 18:02:46.753163  6049 net.cpp:84] Creating Layer conv1
I1221 18:02:46.753170  6049 net.cpp:408] conv1 <- quantized_data
I1221 18:02:46.753181  6049 net.cpp:382] conv1 -> conv1
I1221 18:02:46.753192  6049 net.cpp:110] =========1
I1221 18:02:46.753199  6049 net.cpp:121] =========2
I1221 18:02:46.753204  6049 layer.hpp:70] =========3
I1221 18:02:46.754294  6049 net.cpp:124] Setting up conv1
I1221 18:02:46.754308  6049 net.cpp:131] Top shape: 20 96 55 55 (5808000)
I1221 18:02:46.754315  6049 net.cpp:139] Memory required for data: 47966240
I1221 18:02:46.754331  6049 layer_factory.hpp:77] Creating layer quantized_conv1
I1221 18:02:46.754343  6049 net.cpp:84] Creating Layer quantized_conv1
I1221 18:02:46.754350  6049 net.cpp:408] quantized_conv1 <- conv1
I1221 18:02:46.754359  6049 net.cpp:382] quantized_conv1 -> quantized_conv1
I1221 18:02:46.754367  6049 net.cpp:110] =========1
I1221 18:02:46.754376  6049 net.cpp:121] =========2
I1221 18:02:46.754382  6049 layer.hpp:70] =========3
I1221 18:02:46.754389  6049 net.cpp:124] Setting up quantized_conv1
I1221 18:02:46.754395  6049 net.cpp:131] Top shape: 20 96 55 55 (5808000)
I1221 18:02:46.754401  6049 net.cpp:139] Memory required for data: 71198240
I1221 18:02:46.754408  6049 layer_factory.hpp:77] Creating layer relu1
I1221 18:02:46.754420  6049 net.cpp:84] Creating Layer relu1
I1221 18:02:46.754426  6049 net.cpp:408] relu1 <- quantized_conv1
I1221 18:02:46.754434  6049 net.cpp:382] relu1 -> relu1
I1221 18:02:46.754443  6049 net.cpp:110] =========1
I1221 18:02:46.754449  6049 net.cpp:121] =========2
I1221 18:02:46.754454  6049 layer.hpp:70] =========3
I1221 18:02:46.754462  6049 net.cpp:124] Setting up relu1
I1221 18:02:46.754468  6049 net.cpp:131] Top shape: 20 96 55 55 (5808000)
I1221 18:02:46.754474  6049 net.cpp:139] Memory required for data: 94430240
I1221 18:02:46.754482  6049 layer_factory.hpp:77] Creating layer quantized_relu1
I1221 18:02:46.754492  6049 net.cpp:84] Creating Layer quantized_relu1
I1221 18:02:46.754499  6049 net.cpp:408] quantized_relu1 <- relu1
I1221 18:02:46.754508  6049 net.cpp:382] quantized_relu1 -> quantized_relu1
I1221 18:02:46.754516  6049 net.cpp:110] =========1
I1221 18:02:46.754523  6049 net.cpp:121] =========2
I1221 18:02:46.754528  6049 layer.hpp:70] =========3
I1221 18:02:46.754534  6049 net.cpp:124] Setting up quantized_relu1
I1221 18:02:46.754541  6049 net.cpp:131] Top shape: 20 96 55 55 (5808000)
I1221 18:02:46.754547  6049 net.cpp:139] Memory required for data: 117662240
I1221 18:02:46.754554  6049 layer_factory.hpp:77] Creating layer pool1
I1221 18:02:46.754565  6049 net.cpp:84] Creating Layer pool1
I1221 18:02:46.754572  6049 net.cpp:408] pool1 <- quantized_relu1
I1221 18:02:46.754580  6049 net.cpp:382] pool1 -> pool1
I1221 18:02:46.754590  6049 net.cpp:110] =========1
I1221 18:02:46.754595  6049 net.cpp:121] =========2
I1221 18:02:46.754601  6049 layer.hpp:70] =========3
I1221 18:02:46.754609  6049 net.cpp:124] Setting up pool1
I1221 18:02:46.754617  6049 net.cpp:131] Top shape: 20 96 27 27 (1399680)
I1221 18:02:46.754628  6049 net.cpp:139] Memory required for data: 123260960
I1221 18:02:46.754642  6049 layer_factory.hpp:77] Creating layer quantized_pool1
I1221 18:02:46.754653  6049 net.cpp:84] Creating Layer quantized_pool1
I1221 18:02:46.754660  6049 net.cpp:408] quantized_pool1 <- pool1
I1221 18:02:46.754668  6049 net.cpp:382] quantized_pool1 -> quantized_pool1
I1221 18:02:46.754678  6049 net.cpp:110] =========1
I1221 18:02:46.754683  6049 net.cpp:121] =========2
I1221 18:02:46.754688  6049 layer.hpp:70] =========3
I1221 18:02:46.754695  6049 net.cpp:124] Setting up quantized_pool1
I1221 18:02:46.754703  6049 net.cpp:131] Top shape: 20 96 27 27 (1399680)
I1221 18:02:46.754709  6049 net.cpp:139] Memory required for data: 128859680
I1221 18:02:46.754714  6049 layer_factory.hpp:77] Creating layer norm1
I1221 18:02:46.754731  6049 net.cpp:84] Creating Layer norm1
I1221 18:02:46.754739  6049 net.cpp:408] norm1 <- quantized_pool1
I1221 18:02:46.754745  6049 net.cpp:382] norm1 -> norm1
I1221 18:02:46.754755  6049 net.cpp:110] =========1
I1221 18:02:46.754763  6049 net.cpp:121] =========2
I1221 18:02:46.754770  6049 layer.hpp:70] =========3
I1221 18:02:46.754777  6049 net.cpp:124] Setting up norm1
I1221 18:02:46.754784  6049 net.cpp:131] Top shape: 20 96 27 27 (1399680)
I1221 18:02:46.754791  6049 net.cpp:139] Memory required for data: 134458400
I1221 18:02:46.754796  6049 layer_factory.hpp:77] Creating layer quantized_norm1
I1221 18:02:46.754806  6049 net.cpp:84] Creating Layer quantized_norm1
I1221 18:02:46.754812  6049 net.cpp:408] quantized_norm1 <- norm1
I1221 18:02:46.754819  6049 net.cpp:382] quantized_norm1 -> quantized_norm1
I1221 18:02:46.754827  6049 net.cpp:110] =========1
I1221 18:02:46.754833  6049 net.cpp:121] =========2
I1221 18:02:46.754839  6049 layer.hpp:70] =========3
I1221 18:02:46.754845  6049 net.cpp:124] Setting up quantized_norm1
I1221 18:02:46.754853  6049 net.cpp:131] Top shape: 20 96 27 27 (1399680)
I1221 18:02:46.754858  6049 net.cpp:139] Memory required for data: 140057120
I1221 18:02:46.754864  6049 layer_factory.hpp:77] Creating layer conv2
I1221 18:02:46.754878  6049 net.cpp:84] Creating Layer conv2
I1221 18:02:46.754885  6049 net.cpp:408] conv2 <- quantized_norm1
I1221 18:02:46.754895  6049 net.cpp:382] conv2 -> conv2
I1221 18:02:46.754905  6049 net.cpp:110] =========1
I1221 18:02:46.754912  6049 net.cpp:121] =========2
I1221 18:02:46.754917  6049 layer.hpp:70] =========3
I1221 18:02:46.764184  6049 net.cpp:124] Setting up conv2
I1221 18:02:46.764231  6049 net.cpp:131] Top shape: 20 256 27 27 (3732480)
I1221 18:02:46.764238  6049 net.cpp:139] Memory required for data: 154987040
I1221 18:02:46.764257  6049 layer_factory.hpp:77] Creating layer quantized_conv2
I1221 18:02:46.764272  6049 net.cpp:84] Creating Layer quantized_conv2
I1221 18:02:46.764281  6049 net.cpp:408] quantized_conv2 <- conv2
I1221 18:02:46.764292  6049 net.cpp:382] quantized_conv2 -> quantized_conv2
I1221 18:02:46.764307  6049 net.cpp:110] =========1
I1221 18:02:46.764312  6049 net.cpp:121] =========2
I1221 18:02:46.764318  6049 layer.hpp:70] =========3
I1221 18:02:46.764325  6049 net.cpp:124] Setting up quantized_conv2
I1221 18:02:46.764333  6049 net.cpp:131] Top shape: 20 256 27 27 (3732480)
I1221 18:02:46.764338  6049 net.cpp:139] Memory required for data: 169916960
I1221 18:02:46.764344  6049 layer_factory.hpp:77] Creating layer relu2
I1221 18:02:46.764356  6049 net.cpp:84] Creating Layer relu2
I1221 18:02:46.764364  6049 net.cpp:408] relu2 <- quantized_conv2
I1221 18:02:46.764372  6049 net.cpp:382] relu2 -> relu2
I1221 18:02:46.764382  6049 net.cpp:110] =========1
I1221 18:02:46.764389  6049 net.cpp:121] =========2
I1221 18:02:46.764394  6049 layer.hpp:70] =========3
I1221 18:02:46.764400  6049 net.cpp:124] Setting up relu2
I1221 18:02:46.764412  6049 net.cpp:131] Top shape: 20 256 27 27 (3732480)
I1221 18:02:46.764418  6049 net.cpp:139] Memory required for data: 184846880
I1221 18:02:46.764425  6049 layer_factory.hpp:77] Creating layer quantized_relu2
I1221 18:02:46.764433  6049 net.cpp:84] Creating Layer quantized_relu2
I1221 18:02:46.764451  6049 net.cpp:408] quantized_relu2 <- relu2
I1221 18:02:46.764472  6049 net.cpp:382] quantized_relu2 -> quantized_relu2
I1221 18:02:46.764482  6049 net.cpp:110] =========1
I1221 18:02:46.764488  6049 net.cpp:121] =========2
I1221 18:02:46.764494  6049 layer.hpp:70] =========3
I1221 18:02:46.764500  6049 net.cpp:124] Setting up quantized_relu2
I1221 18:02:46.764508  6049 net.cpp:131] Top shape: 20 256 27 27 (3732480)
I1221 18:02:46.764513  6049 net.cpp:139] Memory required for data: 199776800
I1221 18:02:46.764520  6049 layer_factory.hpp:77] Creating layer pool2
I1221 18:02:46.764533  6049 net.cpp:84] Creating Layer pool2
I1221 18:02:46.764539  6049 net.cpp:408] pool2 <- quantized_relu2
I1221 18:02:46.764547  6049 net.cpp:382] pool2 -> pool2
I1221 18:02:46.764556  6049 net.cpp:110] =========1
I1221 18:02:46.764562  6049 net.cpp:121] =========2
I1221 18:02:46.764567  6049 layer.hpp:70] =========3
I1221 18:02:46.764576  6049 net.cpp:124] Setting up pool2
I1221 18:02:46.764586  6049 net.cpp:131] Top shape: 20 256 13 13 (865280)
I1221 18:02:46.764593  6049 net.cpp:139] Memory required for data: 203237920
I1221 18:02:46.764600  6049 layer_factory.hpp:77] Creating layer quantized_pool2
I1221 18:02:46.764611  6049 net.cpp:84] Creating Layer quantized_pool2
I1221 18:02:46.764617  6049 net.cpp:408] quantized_pool2 <- pool2
I1221 18:02:46.764624  6049 net.cpp:382] quantized_pool2 -> quantized_pool2
I1221 18:02:46.764633  6049 net.cpp:110] =========1
I1221 18:02:46.764638  6049 net.cpp:121] =========2
I1221 18:02:46.764644  6049 layer.hpp:70] =========3
I1221 18:02:46.764650  6049 net.cpp:124] Setting up quantized_pool2
I1221 18:02:46.764657  6049 net.cpp:131] Top shape: 20 256 13 13 (865280)
I1221 18:02:46.764663  6049 net.cpp:139] Memory required for data: 206699040
I1221 18:02:46.764669  6049 layer_factory.hpp:77] Creating layer norm2
I1221 18:02:46.764684  6049 net.cpp:84] Creating Layer norm2
I1221 18:02:46.764691  6049 net.cpp:408] norm2 <- quantized_pool2
I1221 18:02:46.764701  6049 net.cpp:382] norm2 -> norm2
I1221 18:02:46.764711  6049 net.cpp:110] =========1
I1221 18:02:46.764717  6049 net.cpp:121] =========2
I1221 18:02:46.764722  6049 layer.hpp:70] =========3
I1221 18:02:46.764730  6049 net.cpp:124] Setting up norm2
I1221 18:02:46.764737  6049 net.cpp:131] Top shape: 20 256 13 13 (865280)
I1221 18:02:46.764744  6049 net.cpp:139] Memory required for data: 210160160
I1221 18:02:46.764750  6049 layer_factory.hpp:77] Creating layer quantized_norm2
I1221 18:02:46.764757  6049 net.cpp:84] Creating Layer quantized_norm2
I1221 18:02:46.764763  6049 net.cpp:408] quantized_norm2 <- norm2
I1221 18:02:46.764771  6049 net.cpp:382] quantized_norm2 -> quantized_norm2
I1221 18:02:46.764780  6049 net.cpp:110] =========1
I1221 18:02:46.764786  6049 net.cpp:121] =========2
I1221 18:02:46.764791  6049 layer.hpp:70] =========3
I1221 18:02:46.764797  6049 net.cpp:124] Setting up quantized_norm2
I1221 18:02:46.764807  6049 net.cpp:131] Top shape: 20 256 13 13 (865280)
I1221 18:02:46.764814  6049 net.cpp:139] Memory required for data: 213621280
I1221 18:02:46.764838  6049 layer_factory.hpp:77] Creating layer conv3
I1221 18:02:46.764863  6049 net.cpp:84] Creating Layer conv3
I1221 18:02:46.764870  6049 net.cpp:408] conv3 <- quantized_norm2
I1221 18:02:46.764879  6049 net.cpp:382] conv3 -> conv3
I1221 18:02:46.764889  6049 net.cpp:110] =========1
I1221 18:02:46.764895  6049 net.cpp:121] =========2
I1221 18:02:46.764901  6049 layer.hpp:70] =========3
I1221 18:02:46.791132  6049 net.cpp:124] Setting up conv3
I1221 18:02:46.791184  6049 net.cpp:131] Top shape: 20 384 13 13 (1297920)
I1221 18:02:46.791191  6049 net.cpp:139] Memory required for data: 218812960
I1221 18:02:46.791210  6049 layer_factory.hpp:77] Creating layer quantized_conv3
I1221 18:02:46.791229  6049 net.cpp:84] Creating Layer quantized_conv3
I1221 18:02:46.791236  6049 net.cpp:408] quantized_conv3 <- conv3
I1221 18:02:46.791251  6049 net.cpp:382] quantized_conv3 -> quantized_conv3
I1221 18:02:46.791267  6049 net.cpp:110] =========1
I1221 18:02:46.791275  6049 net.cpp:121] =========2
I1221 18:02:46.791296  6049 layer.hpp:70] =========3
I1221 18:02:46.791316  6049 net.cpp:124] Setting up quantized_conv3
I1221 18:02:46.791324  6049 net.cpp:131] Top shape: 20 384 13 13 (1297920)
I1221 18:02:46.791330  6049 net.cpp:139] Memory required for data: 224004640
I1221 18:02:46.791337  6049 layer_factory.hpp:77] Creating layer relu3
I1221 18:02:46.791347  6049 net.cpp:84] Creating Layer relu3
I1221 18:02:46.791353  6049 net.cpp:408] relu3 <- quantized_conv3
I1221 18:02:46.791364  6049 net.cpp:382] relu3 -> relu3
I1221 18:02:46.791373  6049 net.cpp:110] =========1
I1221 18:02:46.791379  6049 net.cpp:121] =========2
I1221 18:02:46.791385  6049 layer.hpp:70] =========3
I1221 18:02:46.791391  6049 net.cpp:124] Setting up relu3
I1221 18:02:46.791399  6049 net.cpp:131] Top shape: 20 384 13 13 (1297920)
I1221 18:02:46.791405  6049 net.cpp:139] Memory required for data: 229196320
I1221 18:02:46.791411  6049 layer_factory.hpp:77] Creating layer quantized_relu3
I1221 18:02:46.791420  6049 net.cpp:84] Creating Layer quantized_relu3
I1221 18:02:46.791426  6049 net.cpp:408] quantized_relu3 <- relu3
I1221 18:02:46.791435  6049 net.cpp:382] quantized_relu3 -> quantized_relu3
I1221 18:02:46.791447  6049 net.cpp:110] =========1
I1221 18:02:46.791455  6049 net.cpp:121] =========2
I1221 18:02:46.791460  6049 layer.hpp:70] =========3
I1221 18:02:46.791466  6049 net.cpp:124] Setting up quantized_relu3
I1221 18:02:46.791473  6049 net.cpp:131] Top shape: 20 384 13 13 (1297920)
I1221 18:02:46.791479  6049 net.cpp:139] Memory required for data: 234388000
I1221 18:02:46.791486  6049 layer_factory.hpp:77] Creating layer conv4
I1221 18:02:46.791501  6049 net.cpp:84] Creating Layer conv4
I1221 18:02:46.791507  6049 net.cpp:408] conv4 <- quantized_relu3
I1221 18:02:46.791517  6049 net.cpp:382] conv4 -> conv4
I1221 18:02:46.791528  6049 net.cpp:110] =========1
I1221 18:02:46.791534  6049 net.cpp:121] =========2
I1221 18:02:46.791540  6049 layer.hpp:70] =========3
I1221 18:02:46.811436  6049 net.cpp:124] Setting up conv4
I1221 18:02:46.811480  6049 net.cpp:131] Top shape: 20 384 13 13 (1297920)
I1221 18:02:46.811486  6049 net.cpp:139] Memory required for data: 239579680
I1221 18:02:46.811499  6049 layer_factory.hpp:77] Creating layer quantized_conv4
I1221 18:02:46.811516  6049 net.cpp:84] Creating Layer quantized_conv4
I1221 18:02:46.811523  6049 net.cpp:408] quantized_conv4 <- conv4
I1221 18:02:46.811535  6049 net.cpp:382] quantized_conv4 -> quantized_conv4
I1221 18:02:46.811548  6049 net.cpp:110] =========1
I1221 18:02:46.811555  6049 net.cpp:121] =========2
I1221 18:02:46.811561  6049 layer.hpp:70] =========3
I1221 18:02:46.811568  6049 net.cpp:124] Setting up quantized_conv4
I1221 18:02:46.811576  6049 net.cpp:131] Top shape: 20 384 13 13 (1297920)
I1221 18:02:46.811583  6049 net.cpp:139] Memory required for data: 244771360
I1221 18:02:46.811589  6049 layer_factory.hpp:77] Creating layer relu4
I1221 18:02:46.811600  6049 net.cpp:84] Creating Layer relu4
I1221 18:02:46.811607  6049 net.cpp:408] relu4 <- quantized_conv4
I1221 18:02:46.811615  6049 net.cpp:382] relu4 -> relu4
I1221 18:02:46.811625  6049 net.cpp:110] =========1
I1221 18:02:46.811630  6049 net.cpp:121] =========2
I1221 18:02:46.811635  6049 layer.hpp:70] =========3
I1221 18:02:46.811642  6049 net.cpp:124] Setting up relu4
I1221 18:02:46.811650  6049 net.cpp:131] Top shape: 20 384 13 13 (1297920)
I1221 18:02:46.811655  6049 net.cpp:139] Memory required for data: 249963040
I1221 18:02:46.811662  6049 layer_factory.hpp:77] Creating layer quantized_relu4
I1221 18:02:46.811672  6049 net.cpp:84] Creating Layer quantized_relu4
I1221 18:02:46.811679  6049 net.cpp:408] quantized_relu4 <- relu4
I1221 18:02:46.811687  6049 net.cpp:382] quantized_relu4 -> quantized_relu4
I1221 18:02:46.811697  6049 net.cpp:110] =========1
I1221 18:02:46.811702  6049 net.cpp:121] =========2
I1221 18:02:46.811708  6049 layer.hpp:70] =========3
I1221 18:02:46.811714  6049 net.cpp:124] Setting up quantized_relu4
I1221 18:02:46.811722  6049 net.cpp:131] Top shape: 20 384 13 13 (1297920)
I1221 18:02:46.811739  6049 net.cpp:139] Memory required for data: 255154720
I1221 18:02:46.811758  6049 layer_factory.hpp:77] Creating layer conv5
I1221 18:02:46.811775  6049 net.cpp:84] Creating Layer conv5
I1221 18:02:46.811782  6049 net.cpp:408] conv5 <- quantized_relu4
I1221 18:02:46.811794  6049 net.cpp:382] conv5 -> conv5
I1221 18:02:46.811805  6049 net.cpp:110] =========1
I1221 18:02:46.811811  6049 net.cpp:121] =========2
I1221 18:02:46.811816  6049 layer.hpp:70] =========3
I1221 18:02:46.825042  6049 net.cpp:124] Setting up conv5
I1221 18:02:46.825058  6049 net.cpp:131] Top shape: 20 256 13 13 (865280)
I1221 18:02:46.825064  6049 net.cpp:139] Memory required for data: 258615840
I1221 18:02:46.825078  6049 layer_factory.hpp:77] Creating layer quantized_conv5
I1221 18:02:46.825090  6049 net.cpp:84] Creating Layer quantized_conv5
I1221 18:02:46.825098  6049 net.cpp:408] quantized_conv5 <- conv5
I1221 18:02:46.825106  6049 net.cpp:382] quantized_conv5 -> quantized_conv5
I1221 18:02:46.825116  6049 net.cpp:110] =========1
I1221 18:02:46.825122  6049 net.cpp:121] =========2
I1221 18:02:46.825127  6049 layer.hpp:70] =========3
I1221 18:02:46.825134  6049 net.cpp:124] Setting up quantized_conv5
I1221 18:02:46.825141  6049 net.cpp:131] Top shape: 20 256 13 13 (865280)
I1221 18:02:46.825147  6049 net.cpp:139] Memory required for data: 262076960
I1221 18:02:46.825153  6049 layer_factory.hpp:77] Creating layer relu5
I1221 18:02:46.825165  6049 net.cpp:84] Creating Layer relu5
I1221 18:02:46.825170  6049 net.cpp:408] relu5 <- quantized_conv5
I1221 18:02:46.825178  6049 net.cpp:382] relu5 -> relu5
I1221 18:02:46.825189  6049 net.cpp:110] =========1
I1221 18:02:46.825196  6049 net.cpp:121] =========2
I1221 18:02:46.825201  6049 layer.hpp:70] =========3
I1221 18:02:46.825207  6049 net.cpp:124] Setting up relu5
I1221 18:02:46.825215  6049 net.cpp:131] Top shape: 20 256 13 13 (865280)
I1221 18:02:46.825222  6049 net.cpp:139] Memory required for data: 265538080
I1221 18:02:46.825227  6049 layer_factory.hpp:77] Creating layer quantized_relu5
I1221 18:02:46.825238  6049 net.cpp:84] Creating Layer quantized_relu5
I1221 18:02:46.825245  6049 net.cpp:408] quantized_relu5 <- relu5
I1221 18:02:46.825253  6049 net.cpp:382] quantized_relu5 -> quantized_relu5
I1221 18:02:46.825261  6049 net.cpp:110] =========1
I1221 18:02:46.825268  6049 net.cpp:121] =========2
I1221 18:02:46.825273  6049 layer.hpp:70] =========3
I1221 18:02:46.825279  6049 net.cpp:124] Setting up quantized_relu5
I1221 18:02:46.825287  6049 net.cpp:131] Top shape: 20 256 13 13 (865280)
I1221 18:02:46.825294  6049 net.cpp:139] Memory required for data: 268999200
I1221 18:02:46.825299  6049 layer_factory.hpp:77] Creating layer pool5
I1221 18:02:46.825311  6049 net.cpp:84] Creating Layer pool5
I1221 18:02:46.825318  6049 net.cpp:408] pool5 <- quantized_relu5
I1221 18:02:46.825326  6049 net.cpp:382] pool5 -> pool5
I1221 18:02:46.825335  6049 net.cpp:110] =========1
I1221 18:02:46.825341  6049 net.cpp:121] =========2
I1221 18:02:46.825347  6049 layer.hpp:70] =========3
I1221 18:02:46.825356  6049 net.cpp:124] Setting up pool5
I1221 18:02:46.825364  6049 net.cpp:131] Top shape: 20 256 6 6 (184320)
I1221 18:02:46.825371  6049 net.cpp:139] Memory required for data: 269736480
I1221 18:02:46.825376  6049 layer_factory.hpp:77] Creating layer quantized_pool5
I1221 18:02:46.825390  6049 net.cpp:84] Creating Layer quantized_pool5
I1221 18:02:46.825397  6049 net.cpp:408] quantized_pool5 <- pool5
I1221 18:02:46.825407  6049 net.cpp:382] quantized_pool5 -> quantized_pool5
I1221 18:02:46.825417  6049 net.cpp:110] =========1
I1221 18:02:46.825423  6049 net.cpp:121] =========2
I1221 18:02:46.825428  6049 layer.hpp:70] =========3
I1221 18:02:46.825434  6049 net.cpp:124] Setting up quantized_pool5
I1221 18:02:46.825441  6049 net.cpp:131] Top shape: 20 256 6 6 (184320)
I1221 18:02:46.825448  6049 net.cpp:139] Memory required for data: 270473760
I1221 18:02:46.825453  6049 layer_factory.hpp:77] Creating layer fc6
I1221 18:02:46.825464  6049 net.cpp:84] Creating Layer fc6
I1221 18:02:46.825471  6049 net.cpp:408] fc6 <- quantized_pool5
I1221 18:02:46.825495  6049 net.cpp:382] fc6 -> fc6
I1221 18:02:46.825506  6049 net.cpp:110] =========1
I1221 18:02:46.825513  6049 net.cpp:121] =========2
I1221 18:02:46.825518  6049 layer.hpp:70] =========3
I1221 18:02:46.825525  6049 quan_inner_product_layer.cpp:21] 4096   4096
I1221 18:02:46.825531  6049 quan_inner_product_layer.cpp:46] 4096+++++9216++++0
I1221 18:02:46.825537  6049 quan_inner_product_layer.cpp:48] =========4
I1221 18:02:46.825543  6049 quan_inner_product_layer.cpp:52] =========5
I1221 18:02:47.934732  6049 quan_inner_product_layer.cpp:54] =========6
I1221 18:02:47.934828  6049 net.cpp:124] Setting up fc6
I1221 18:02:47.934844  6049 net.cpp:131] Top shape: 20 4096 (81920)
I1221 18:02:47.934850  6049 net.cpp:139] Memory required for data: 270801440
I1221 18:02:47.934865  6049 layer_factory.hpp:77] Creating layer quantized_fc6
I1221 18:02:47.934882  6049 net.cpp:84] Creating Layer quantized_fc6
I1221 18:02:47.934891  6049 net.cpp:408] quantized_fc6 <- fc6
I1221 18:02:47.934903  6049 net.cpp:382] quantized_fc6 -> quantized_fc6
I1221 18:02:47.934917  6049 net.cpp:110] =========1
I1221 18:02:47.934924  6049 net.cpp:121] =========2
I1221 18:02:47.934931  6049 layer.hpp:70] =========3
I1221 18:02:47.934938  6049 net.cpp:124] Setting up quantized_fc6
I1221 18:02:47.934945  6049 net.cpp:131] Top shape: 20 4096 (81920)
I1221 18:02:47.934952  6049 net.cpp:139] Memory required for data: 271129120
I1221 18:02:47.934962  6049 layer_factory.hpp:77] Creating layer relu6
I1221 18:02:47.934976  6049 net.cpp:84] Creating Layer relu6
I1221 18:02:47.934984  6049 net.cpp:408] relu6 <- quantized_fc6
I1221 18:02:47.934993  6049 net.cpp:382] relu6 -> relu6
I1221 18:02:47.935001  6049 net.cpp:110] =========1
I1221 18:02:47.935008  6049 net.cpp:121] =========2
I1221 18:02:47.935014  6049 layer.hpp:70] =========3
I1221 18:02:47.935019  6049 net.cpp:124] Setting up relu6
I1221 18:02:47.935027  6049 net.cpp:131] Top shape: 20 4096 (81920)
I1221 18:02:47.935032  6049 net.cpp:139] Memory required for data: 271456800
I1221 18:02:47.935039  6049 layer_factory.hpp:77] Creating layer quantized_relu6
I1221 18:02:47.935047  6049 net.cpp:84] Creating Layer quantized_relu6
I1221 18:02:47.935055  6049 net.cpp:408] quantized_relu6 <- relu6
I1221 18:02:47.935063  6049 net.cpp:382] quantized_relu6 -> quantized_relu6
I1221 18:02:47.935072  6049 net.cpp:110] =========1
I1221 18:02:47.935078  6049 net.cpp:121] =========2
I1221 18:02:47.935083  6049 layer.hpp:70] =========3
I1221 18:02:47.935091  6049 net.cpp:124] Setting up quantized_relu6
I1221 18:02:47.935097  6049 net.cpp:131] Top shape: 20 4096 (81920)
I1221 18:02:47.935103  6049 net.cpp:139] Memory required for data: 271784480
I1221 18:02:47.935109  6049 layer_factory.hpp:77] Creating layer fc7
I1221 18:02:47.935122  6049 net.cpp:84] Creating Layer fc7
I1221 18:02:47.935127  6049 net.cpp:408] fc7 <- quantized_relu6
I1221 18:02:47.935139  6049 net.cpp:382] fc7 -> fc7
I1221 18:02:47.935150  6049 net.cpp:110] =========1
I1221 18:02:47.935156  6049 net.cpp:121] =========2
I1221 18:02:47.935163  6049 layer.hpp:70] =========3
I1221 18:02:47.935168  6049 quan_inner_product_layer.cpp:21] 4096   4096
I1221 18:02:47.935174  6049 quan_inner_product_layer.cpp:46] 4096+++++4096++++0
I1221 18:02:47.935181  6049 quan_inner_product_layer.cpp:48] =========4
I1221 18:02:47.935187  6049 quan_inner_product_layer.cpp:52] =========5
I1221 18:02:48.426746  6049 quan_inner_product_layer.cpp:54] =========6
I1221 18:02:48.426827  6049 net.cpp:124] Setting up fc7
I1221 18:02:48.426843  6049 net.cpp:131] Top shape: 20 4096 (81920)
I1221 18:02:48.426851  6049 net.cpp:139] Memory required for data: 272112160
I1221 18:02:48.426864  6049 layer_factory.hpp:77] Creating layer quantized_fc7
I1221 18:02:48.426882  6049 net.cpp:84] Creating Layer quantized_fc7
I1221 18:02:48.426892  6049 net.cpp:408] quantized_fc7 <- fc7
I1221 18:02:48.426903  6049 net.cpp:382] quantized_fc7 -> quantized_fc7
I1221 18:02:48.426918  6049 net.cpp:110] =========1
I1221 18:02:48.426923  6049 net.cpp:121] =========2
I1221 18:02:48.426944  6049 layer.hpp:70] =========3
I1221 18:02:48.426971  6049 net.cpp:124] Setting up quantized_fc7
I1221 18:02:48.426980  6049 net.cpp:131] Top shape: 20 4096 (81920)
I1221 18:02:48.426986  6049 net.cpp:139] Memory required for data: 272439840
I1221 18:02:48.426992  6049 layer_factory.hpp:77] Creating layer relu7
I1221 18:02:48.427006  6049 net.cpp:84] Creating Layer relu7
I1221 18:02:48.427012  6049 net.cpp:408] relu7 <- quantized_fc7
I1221 18:02:48.427021  6049 net.cpp:382] relu7 -> relu7
I1221 18:02:48.427031  6049 net.cpp:110] =========1
I1221 18:02:48.427037  6049 net.cpp:121] =========2
I1221 18:02:48.427042  6049 layer.hpp:70] =========3
I1221 18:02:48.427048  6049 net.cpp:124] Setting up relu7
I1221 18:02:48.427055  6049 net.cpp:131] Top shape: 20 4096 (81920)
I1221 18:02:48.427062  6049 net.cpp:139] Memory required for data: 272767520
I1221 18:02:48.427067  6049 layer_factory.hpp:77] Creating layer quantized_relu7
I1221 18:02:48.427076  6049 net.cpp:84] Creating Layer quantized_relu7
I1221 18:02:48.427083  6049 net.cpp:408] quantized_relu7 <- relu7
I1221 18:02:48.427091  6049 net.cpp:382] quantized_relu7 -> quantized_relu7
I1221 18:02:48.427100  6049 net.cpp:110] =========1
I1221 18:02:48.427106  6049 net.cpp:121] =========2
I1221 18:02:48.427112  6049 layer.hpp:70] =========3
I1221 18:02:48.427119  6049 net.cpp:124] Setting up quantized_relu7
I1221 18:02:48.427125  6049 net.cpp:131] Top shape: 20 4096 (81920)
I1221 18:02:48.427131  6049 net.cpp:139] Memory required for data: 273095200
I1221 18:02:48.427137  6049 layer_factory.hpp:77] Creating layer fc8
I1221 18:02:48.427150  6049 net.cpp:84] Creating Layer fc8
I1221 18:02:48.427157  6049 net.cpp:408] fc8 <- quantized_relu7
I1221 18:02:48.427166  6049 net.cpp:382] fc8 -> fc8
I1221 18:02:48.427175  6049 net.cpp:110] =========1
I1221 18:02:48.427181  6049 net.cpp:121] =========2
I1221 18:02:48.427187  6049 layer.hpp:70] =========3
I1221 18:02:48.427192  6049 quan_inner_product_layer.cpp:21] 1000   1000
I1221 18:02:48.427199  6049 quan_inner_product_layer.cpp:46] 1000+++++4096++++8
I1221 18:02:48.427206  6049 quan_inner_product_layer.cpp:48] =========4
I1221 18:02:48.427212  6049 quan_inner_product_layer.cpp:52] =========5
I1221 18:02:48.433854  6049 quan_inner_product_layer.cpp:54] =========6
I1221 18:02:48.433933  6049 net.cpp:124] Setting up fc8
I1221 18:02:48.433948  6049 net.cpp:131] Top shape: 20 1000 (20000)
I1221 18:02:48.433955  6049 net.cpp:139] Memory required for data: 273175200
I1221 18:02:48.433969  6049 layer_factory.hpp:77] Creating layer quantized_fc8
I1221 18:02:48.433986  6049 net.cpp:84] Creating Layer quantized_fc8
I1221 18:02:48.433996  6049 net.cpp:408] quantized_fc8 <- fc8
I1221 18:02:48.434010  6049 net.cpp:382] quantized_fc8 -> quantized_fc8
I1221 18:02:48.434026  6049 net.cpp:110] =========1
I1221 18:02:48.434032  6049 net.cpp:121] =========2
I1221 18:02:48.434038  6049 layer.hpp:70] =========3
I1221 18:02:48.434046  6049 net.cpp:124] Setting up quantized_fc8
I1221 18:02:48.434053  6049 net.cpp:131] Top shape: 20 1000 (20000)
I1221 18:02:48.434059  6049 net.cpp:139] Memory required for data: 273255200
I1221 18:02:48.434065  6049 layer_factory.hpp:77] Creating layer quantized_fc8_quantized_fc8_0_split
I1221 18:02:48.434075  6049 net.cpp:84] Creating Layer quantized_fc8_quantized_fc8_0_split
I1221 18:02:48.434082  6049 net.cpp:408] quantized_fc8_quantized_fc8_0_split <- quantized_fc8
I1221 18:02:48.434092  6049 net.cpp:382] quantized_fc8_quantized_fc8_0_split -> quantized_fc8_quantized_fc8_0_split_0
I1221 18:02:48.434103  6049 net.cpp:382] quantized_fc8_quantized_fc8_0_split -> quantized_fc8_quantized_fc8_0_split_1
I1221 18:02:48.434113  6049 net.cpp:382] quantized_fc8_quantized_fc8_0_split -> quantized_fc8_quantized_fc8_0_split_2
I1221 18:02:48.434121  6049 net.cpp:382] quantized_fc8_quantized_fc8_0_split -> quantized_fc8_quantized_fc8_0_split_3
I1221 18:02:48.434128  6049 net.cpp:110] =========1
I1221 18:02:48.434134  6049 net.cpp:121] =========2
I1221 18:02:48.434141  6049 layer.hpp:70] =========3
I1221 18:02:48.434162  6049 net.cpp:124] Setting up quantized_fc8_quantized_fc8_0_split
I1221 18:02:48.434183  6049 net.cpp:131] Top shape: 20 1000 (20000)
I1221 18:02:48.434190  6049 net.cpp:131] Top shape: 20 1000 (20000)
I1221 18:02:48.434197  6049 net.cpp:131] Top shape: 20 1000 (20000)
I1221 18:02:48.434204  6049 net.cpp:131] Top shape: 20 1000 (20000)
I1221 18:02:48.434211  6049 net.cpp:139] Memory required for data: 273575200
I1221 18:02:48.434216  6049 layer_factory.hpp:77] Creating layer probs
I1221 18:02:48.434228  6049 net.cpp:84] Creating Layer probs
I1221 18:02:48.434236  6049 net.cpp:408] probs <- quantized_fc8_quantized_fc8_0_split_0
I1221 18:02:48.434244  6049 net.cpp:382] probs -> probs
I1221 18:02:48.434252  6049 net.cpp:110] =========1
I1221 18:02:48.434258  6049 net.cpp:121] =========2
I1221 18:02:48.434264  6049 layer.hpp:70] =========3
I1221 18:02:48.434278  6049 net.cpp:124] Setting up probs
I1221 18:02:48.434288  6049 net.cpp:131] Top shape: 20 1000 (20000)
I1221 18:02:48.434293  6049 net.cpp:139] Memory required for data: 273655200
I1221 18:02:48.434299  6049 layer_factory.hpp:77] Creating layer loss
I1221 18:02:48.434309  6049 net.cpp:84] Creating Layer loss
I1221 18:02:48.434314  6049 net.cpp:408] loss <- quantized_fc8_quantized_fc8_0_split_1
I1221 18:02:48.434321  6049 net.cpp:408] loss <- label_data_1_split_0
I1221 18:02:48.434329  6049 net.cpp:382] loss -> loss
…
