…
I1221 21:04:04.972743  7098 net.cpp:296] The NetState phase (0) differed from the phase (1) specified by a rule in layer data
I1221 21:04:04.973111  7098 net.cpp:51] Initializing net from parameters: 
state {
  phase: TRAIN
  level: 0
  stage: ""
}
layer {
  name: "data"
  type: "Data"
  top: "data"
  top: "label"
  include {
    phase: TRAIN
  }
  transform_param {
    mirror: false
    crop_size: 227
    mean_file: "/home/ydwu/database/imagenet/ilsvrc12/imagenet_mean.binaryproto"
  }
  data_param {
    source: "/home/ydwu/database/imagenet/ilsvrc12/lmdb_resize/ilsvrc12_train_lmdb/"
    batch_size: 32
    backend: LMDB
  }
}
layer {
  name: "quantized_data"
  type: "Quantization"
  bottom: "data"
  top: "quantized_data"
  quantization_param {
    round_method: FLOOR
    round_strategy: AGGRESSIVE
    bit_width: 8
    range: -129.93526
    range: 160.78912
  }
}
layer {
  name: "conv1"
  type: "QuanConvolution"
  bottom: "quantized_data"
  top: "conv1"
  param {
    lr_mult: 1
    decay_mult: 1
  }
  param {
    lr_mult: 2
    decay_mult: 0
  }
  convolution_param {
    num_output: 96
    pad: 0
    kernel_size: 11
    group: 1
    stride: 4
    weight_filler {
      type: "gaussian"
      std: 1.1e+13
    }
    bias_filler {
      type: "constant"
      std: 0.1
    }
  }
}
layer {
  name: "quantized_conv1"
  type: "Quantization"
  bottom: "conv1"
  top: "quantized_conv1"
  quantization_param {
    round_method: FLOOR
    round_strategy: AGGRESSIVE
    bit_width: 8
    range: -2732.7351
    range: 2531.042
  }
}
layer {
  name: "relu1"
  type: "ReLU"
  bottom: "quantized_conv1"
  top: "relu1"
}
layer {
  name: "quantized_relu1"
  type: "Quantization"
  bottom: "relu1"
  top: "quantized_relu1"
  quantization_param {
    round_method: FLOOR
    round_strategy: AGGRESSIVE
    bit_width: 8
    range: 1
    range: 2531.042
  }
}
layer {
  name: "pool1"
  type: "Pooling"
  bottom: "quantized_relu1"
  top: "pool1"
  pooling_param {
    pool: MAX
    kernel_size: 3
    stride: 2
  }
}
layer {
  name: "quantized_pool1"
  type: "Quantization"
  bottom: "pool1"
  top: "quantized_pool1"
  quantization_param {
    round_method: FLOOR
    round_strategy: AGGRESSIVE
    bit_width: 8
    range: 1
    range: 2531.042
  }
}
layer {
  name: "norm1"
  type: "LRN"
  bottom: "quantized_pool1"
  top: "norm1"
  lrn_param {
    local_size: 5
    alpha: 0.0001
    beta: 0.75
  }
}
layer {
  name: "quantized_norm1"
  type: "Quantization"
  bottom: "norm1"
  top: "quantized_norm1"
  quantization_param {
    round_method: FLOOR
    round_strategy: AGGRESSIVE
    bit_width: 8
    range: 1
    range: 138.70576
  }
}
layer {
  name: "conv2"
  type: "QuanConvolution"
  bottom: "quantized_norm1"
  top: "conv2"
  param {
    lr_mult: 1
    decay_mult: 1
  }
  param {
    lr_mult: 2
    decay_mult: 0
  }
  convolution_param {
    num_output: 256
    pad: 2
    kernel_size: 5
    group: 2
    stride: 1
    weight_filler {
      type: "gaussian"
      std: 1.1e+13
    }
    bias_filler {
      type: "constant"
      std: 0.1
    }
  }
}
layer {
  name: "quantized_conv2"
  type: "Quantization"
  bottom: "conv2"
  top: "quantized_conv2"
  quantization_param {
    round_method: FLOOR
    round_strategy: AGGRESSIVE
    bit_width: 8
    range: -647.61908
    range: 492.23111
  }
}
layer {
  name: "relu2"
  type: "ReLU"
  bottom: "quantized_conv2"
  top: "relu2"
}
layer {
  name: "quantized_relu2"
  type: "Quantization"
  bottom: "relu2"
  top: "quantized_relu2"
  quantization_param {
    round_method: FLOOR
    round_strategy: AGGRESSIVE
    bit_width: 8
    range: 1
    range: 492.23111
  }
}
layer {
  name: "pool2"
  type: "Pooling"
  bottom: "quantized_relu2"
  top: "pool2"
  pooling_param {
    pool: MAX
    kernel_size: 3
    stride: 2
  }
}
layer {
  name: "quantized_pool2"
  type: "Quantization"
  bottom: "pool2"
  top: "quantized_pool2"
  quantization_param {
    round_method: FLOOR
    round_strategy: AGGRESSIVE
    bit_width: 8
    range: 1
    range: 492.23111
  }
}
layer {
  name: "norm2"
  type: "LRN"
  bottom: "quantized_pool2"
  top: "norm2"
  lrn_param {
    local_size: 5
    alpha: 0.0001
    beta: 0.75
  }
}
layer {
  name: "quantized_norm2"
  type: "Quantization"
  bottom: "norm2"
  top: "quantized_norm2"
  quantization_param {
    round_method: FLOOR
    round_strategy: AGGRESSIVE
    bit_width: 8
    range: 1
    range: 138.72636
  }
}
layer {
  name: "conv3"
  type: "QuanConvolution"
  bottom: "quantized_norm2"
  top: "conv3"
  param {
    lr_mult: 1
    decay_mult: 1
  }
  param {
    lr_mult: 2
    decay_mult: 0
  }
  convolution_param {
    num_output: 384
    pad: 1
    kernel_size: 3
    group: 1
    stride: 1
    weight_filler {
      type: "gaussian"
      std: 1.1e+13
    }
    bias_filler {
      type: "constant"
      std: 0.1
    }
  }
}
layer {
  name: "quantized_conv3"
  type: "Quantization"
  bottom: "conv3"
  top: "quantized_conv3"
  quantization_param {
    round_method: FLOOR
    round_strategy: AGGRESSIVE
    bit_width: 8
    range: -389.56516
    range: 331.98178
  }
}
layer {
  name: "relu3"
  type: "ReLU"
  bottom: "quantized_conv3"
  top: "relu3"
}
layer {
  name: "quantized_relu3"
  type: "Quantization"
  bottom: "relu3"
  top: "quantized_relu3"
  quantization_param {
    round_method: FLOOR
    round_strategy: AGGRESSIVE
    bit_width: 8
    range: 1
    range: 331.98178
  }
}
layer {
  name: "conv4"
  type: "QuanConvolution"
  bottom: "quantized_relu3"
  top: "conv4"
  param {
    lr_mult: 1
    decay_mult: 1
  }
  param {
    lr_mult: 2
    decay_mult: 0
  }
  convolution_param {
    num_output: 384
    pad: 1
    kernel_size: 3
    group: 2
    stride: 1
    weight_filler {
      type: "gaussian"
      std: 1.1e+13
    }
    bias_filler {
      type: "constant"
      std: 0.1
    }
  }
}
layer {
  name: "quantized_conv4"
  type: "Quantization"
  bottom: "conv4"
  top: "quantized_conv4"
  quantization_param {
    round_method: FLOOR
    round_strategy: AGGRESSIVE
    bit_width: 8
    range: -231.20598
    range: 283.87189
  }
}
layer {
  name: "relu4"
  type: "ReLU"
  bottom: "quantized_conv4"
  top: "relu4"
}
layer {
  name: "quantized_relu4"
  type: "Quantization"
  bottom: "relu4"
  top: "quantized_relu4"
  quantization_param {
    round_method: FLOOR
    round_strategy: AGGRESSIVE
    bit_width: 8
    range: 1
    range: 283.87189
  }
}
layer {
  name: "conv5"
  type: "QuanConvolution"
  bottom: "quantized_relu4"
  top: "conv5"
  param {
    lr_mult: 1
    decay_mult: 1
  }
  param {
    lr_mult: 2
    decay_mult: 0
  }
  convolution_param {
    num_output: 256
    pad: 1
    kernel_size: 3
    group: 2
    stride: 1
    weight_filler {
      type: "gaussian"
      std: 1.1e+13
    }
    bias_filler {
      type: "constant"
      std: 0.1
    }
  }
}
layer {
  name: "quantized_conv5"
  type: "Quantization"
  bottom: "conv5"
  top: "quantized_conv5"
  quantization_param {
    round_method: FLOOR
    round_strategy: AGGRESSIVE
    bit_width: 8
    range: -172.60567
    range: 272.57315
  }
}
layer {
  name: "relu5"
  type: "ReLU"
  bottom: "quantized_conv5"
  top: "relu5"
}
layer {
  name: "quantized_relu5"
  type: "Quantization"
  bottom: "relu5"
  top: "quantized_relu5"
  quantization_param {
    round_method: FLOOR
    round_strategy: AGGRESSIVE
    bit_width: 8
    range: 1
    range: 272.57315
  }
}
layer {
  name: "pool5"
  type: "Pooling"
  bottom: "quantized_relu5"
  top: "pool5"
  pooling_param {
    pool: MAX
    kernel_size: 3
    stride: 2
  }
}
layer {
  name: "quantized_pool5"
  type: "Quantization"
  bottom: "pool5"
  top: "quantized_pool5"
  quantization_param {
    round_method: FLOOR
    round_strategy: AGGRESSIVE
    bit_width: 8
    range: 1
    range: 272.57315
  }
}
layer {
  name: "fc6"
  type: "QuanInnerProduct"
  bottom: "quantized_pool5"
  top: "fc6"
  param {
    lr_mult: 1
    decay_mult: 1
  }
  param {
    lr_mult: 2
    decay_mult: 0
  }
  quan_inner_product_param {
    num_output: 4096
    weight_filler {
      type: "gaussian"
      std: 1.05e+13
    }
    bias_filler {
      type: "constant"
      value: 0.1
    }
  }
}
layer {
  name: "quantized_fc6"
  type: "Quantization"
  bottom: "fc6"
  top: "quantized_fc6"
  quantization_param {
    round_method: FLOOR
    round_strategy: AGGRESSIVE
    bit_width: 8
    range: -114.02487
    range: 58.541733
  }
}
layer {
  name: "relu6"
  type: "ReLU"
  bottom: "quantized_fc6"
  top: "relu6"
}
layer {
  name: "quantized_relu6"
  type: "Quantization"
  bottom: "relu6"
  top: "quantized_relu6"
  quantization_param {
    round_method: FLOOR
    round_strategy: AGGRESSIVE
    bit_width: 8
    range: 1
    range: 58.541733
  }
}
layer {
  name: "fc7"
  type: "QuanInnerProduct"
  bottom: "quantized_relu6"
  top: "fc7"
  param {
    lr_mult: 1
    decay_mult: 1
  }
  param {
    lr_mult: 2
    decay_mult: 0
  }
  quan_inner_product_param {
    num_output: 4096
    weight_filler {
      type: "gaussian"
      std: 1.05e+13
    }
    bias_filler {
      type: "constant"
      value: 0.1
    }
  }
}
layer {
  name: "quantized_fc7"
  type: "Quantization"
  bottom: "fc7"
  top: "quantized_fc7"
  quantization_param {
    round_method: FLOOR
    round_strategy: AGGRESSIVE
    bit_width: 8
    range: -26.019335
    range: 19.125257
  }
}
layer {
  name: "relu7"
  type: "ReLU"
  bottom: "quantized_fc7"
  top: "relu7"
}
layer {
  name: "quantized_relu7"
  type: "Quantization"
  bottom: "relu7"
  top: "quantized_relu7"
  quantization_param {
    round_method: FLOOR
    round_strategy: AGGRESSIVE
    bit_width: 8
    range: 1
    range: 19.125257
  }
}
layer {
  name: "fc8"
  type: "QuanInnerProduct"
  bottom: "quantized_relu7"
  top: "fc8"
  param {
    lr_mult: 1
    decay_mult: 1
  }
  param {
    lr_mult: 2
    decay_mult: 0
  }
  quan_inner_product_param {
    num_output: 1000
  }
}
layer {
  name: "quantized_fc8"
  type: "Quantization"
  bottom: "fc8"
  top: "quantized_fc8"
  quantization_param {
    round_method: FLOOR
    round_strategy: AGGRESSIVE
    bit_width: 8
    range: -9.849781
    range: 45.688446
  }
}
layer {
  name: "probs"
  type: "Softmax"
  bottom: "quantized_fc8"
  top: "probs"
}
layer {
  name: "loss"
  type: "SoftmaxWithLoss"
  bottom: "quantized_fc8"
  bottom: "label"
  top: "loss"
}
layer {
  name: "acc_top1"
  type: "Accuracy"
  bottom: "quantized_fc8"
  bottom: "label"
  top: "acc_top1"
  accuracy_param {
    top_k: 1
  }
}
layer {
  name: "acc_top5"
  type: "Accuracy"
  bottom: "quantized_fc8"
  bottom: "label"
  top: "acc_top5"
  accuracy_param {
    top_k: 5
  }
}
I1221 21:04:04.973350  7098 layer_factory.hpp:77] Creating layer data
I1221 21:04:04.985015  7098 db_lmdb.cpp:35] Opened lmdb /home/ydwu/database/imagenet/ilsvrc12/lmdb_resize/ilsvrc12_train_lmdb/
I1221 21:04:05.002287  7098 net.cpp:84] Creating Layer data
I1221 21:04:05.002318  7098 net.cpp:382] data -> data
I1221 21:04:05.002357  7098 net.cpp:382] data -> label
I1221 21:04:05.002372  7098 net.cpp:110] =========1
I1221 21:04:05.002379  7098 net.cpp:121] =========2
I1221 21:04:05.002388  7098 layer.hpp:70] =========3
I1221 21:04:05.002400  7098 data_transformer.cpp:25] Loading mean file from: /home/ydwu/database/imagenet/ilsvrc12/imagenet_mean.binaryproto
I1221 21:04:05.037848  7098 data_layer.cpp:45] output data size: 32,3,227,227
I1221 21:04:05.060144  7098 net.cpp:124] Setting up data
I1221 21:04:05.060214  7098 net.cpp:131] Top shape: 32 3 227 227 (4946784)
I1221 21:04:05.060225  7098 net.cpp:131] Top shape: 32 (32)
I1221 21:04:05.060231  7098 net.cpp:139] Memory required for data: 19787264
I1221 21:04:05.060247  7098 layer_factory.hpp:77] Creating layer label_data_1_split
I1221 21:04:05.060268  7098 net.cpp:84] Creating Layer label_data_1_split
I1221 21:04:05.060294  7098 net.cpp:408] label_data_1_split <- label
I1221 21:04:05.060330  7098 net.cpp:382] label_data_1_split -> label_data_1_split_0
I1221 21:04:05.060348  7098 net.cpp:382] label_data_1_split -> label_data_1_split_1
I1221 21:04:05.060359  7098 net.cpp:382] label_data_1_split -> label_data_1_split_2
I1221 21:04:05.060369  7098 net.cpp:110] =========1
I1221 21:04:05.060375  7098 net.cpp:121] =========2
I1221 21:04:05.060384  7098 layer.hpp:70] =========3
I1221 21:04:05.060396  7098 net.cpp:124] Setting up label_data_1_split
I1221 21:04:05.060405  7098 net.cpp:131] Top shape: 32 (32)
I1221 21:04:05.060412  7098 net.cpp:131] Top shape: 32 (32)
I1221 21:04:05.060420  7098 net.cpp:131] Top shape: 32 (32)
I1221 21:04:05.060426  7098 net.cpp:139] Memory required for data: 19787648
I1221 21:04:05.060433  7098 layer_factory.hpp:77] Creating layer quantized_data
I1221 21:04:05.060447  7098 net.cpp:84] Creating Layer quantized_data
I1221 21:04:05.060454  7098 net.cpp:408] quantized_data <- data
I1221 21:04:05.060464  7098 net.cpp:382] quantized_data -> quantized_data
I1221 21:04:05.060475  7098 net.cpp:110] =========1
I1221 21:04:05.060482  7098 net.cpp:121] =========2
I1221 21:04:05.060488  7098 layer.hpp:70] =========3
I1221 21:04:05.060498  7098 net.cpp:124] Setting up quantized_data
I1221 21:04:05.060506  7098 net.cpp:131] Top shape: 32 3 227 227 (4946784)
I1221 21:04:05.060513  7098 net.cpp:139] Memory required for data: 39574784
I1221 21:04:05.060519  7098 layer_factory.hpp:77] Creating layer conv1
I1221 21:04:05.060542  7098 net.cpp:84] Creating Layer conv1
I1221 21:04:05.060550  7098 net.cpp:408] conv1 <- quantized_data
I1221 21:04:05.060560  7098 net.cpp:382] conv1 -> conv1
I1221 21:04:05.060575  7098 net.cpp:110] =========1
I1221 21:04:05.060580  7098 net.cpp:121] =========2
I1221 21:04:05.060586  7098 layer.hpp:70] =========3
I1221 21:04:05.061718  7098 net.cpp:124] Setting up conv1
I1221 21:04:05.061733  7098 net.cpp:131] Top shape: 32 96 55 55 (9292800)
I1221 21:04:05.061740  7098 net.cpp:139] Memory required for data: 76745984
I1221 21:04:05.061759  7098 layer_factory.hpp:77] Creating layer quantized_conv1
I1221 21:04:05.061771  7098 net.cpp:84] Creating Layer quantized_conv1
I1221 21:04:05.061779  7098 net.cpp:408] quantized_conv1 <- conv1
I1221 21:04:05.061789  7098 net.cpp:382] quantized_conv1 -> quantized_conv1
I1221 21:04:05.061801  7098 net.cpp:110] =========1
I1221 21:04:05.061808  7098 net.cpp:121] =========2
I1221 21:04:05.061815  7098 layer.hpp:70] =========3
I1221 21:04:05.061821  7098 net.cpp:124] Setting up quantized_conv1
I1221 21:04:05.061830  7098 net.cpp:131] Top shape: 32 96 55 55 (9292800)
I1221 21:04:05.061836  7098 net.cpp:139] Memory required for data: 113917184
I1221 21:04:05.061842  7098 layer_factory.hpp:77] Creating layer relu1
I1221 21:04:05.061854  7098 net.cpp:84] Creating Layer relu1
I1221 21:04:05.061861  7098 net.cpp:408] relu1 <- quantized_conv1
I1221 21:04:05.061870  7098 net.cpp:382] relu1 -> relu1
I1221 21:04:05.061879  7098 net.cpp:110] =========1
I1221 21:04:05.061887  7098 net.cpp:121] =========2
I1221 21:04:05.061892  7098 layer.hpp:70] =========3
I1221 21:04:05.061898  7098 net.cpp:124] Setting up relu1
I1221 21:04:05.061906  7098 net.cpp:131] Top shape: 32 96 55 55 (9292800)
I1221 21:04:05.061913  7098 net.cpp:139] Memory required for data: 151088384
I1221 21:04:05.061920  7098 layer_factory.hpp:77] Creating layer quantized_relu1
I1221 21:04:05.061929  7098 net.cpp:84] Creating Layer quantized_relu1
I1221 21:04:05.061936  7098 net.cpp:408] quantized_relu1 <- relu1
I1221 21:04:05.061945  7098 net.cpp:382] quantized_relu1 -> quantized_relu1
I1221 21:04:05.061954  7098 net.cpp:110] =========1
I1221 21:04:05.061960  7098 net.cpp:121] =========2
I1221 21:04:05.061966  7098 layer.hpp:70] =========3
I1221 21:04:05.061974  7098 net.cpp:124] Setting up quantized_relu1
I1221 21:04:05.061980  7098 net.cpp:131] Top shape: 32 96 55 55 (9292800)
I1221 21:04:05.061986  7098 net.cpp:139] Memory required for data: 188259584
I1221 21:04:05.061993  7098 layer_factory.hpp:77] Creating layer pool1
I1221 21:04:05.062011  7098 net.cpp:84] Creating Layer pool1
I1221 21:04:05.062024  7098 net.cpp:408] pool1 <- quantized_relu1
I1221 21:04:05.062034  7098 net.cpp:382] pool1 -> pool1
I1221 21:04:05.062045  7098 net.cpp:110] =========1
I1221 21:04:05.062052  7098 net.cpp:121] =========2
I1221 21:04:05.062057  7098 layer.hpp:70] =========3
I1221 21:04:05.062077  7098 net.cpp:124] Setting up pool1
I1221 21:04:05.062086  7098 net.cpp:131] Top shape: 32 96 27 27 (2239488)
I1221 21:04:05.062093  7098 net.cpp:139] Memory required for data: 197217536
I1221 21:04:05.062099  7098 layer_factory.hpp:77] Creating layer quantized_pool1
I1221 21:04:05.062110  7098 net.cpp:84] Creating Layer quantized_pool1
I1221 21:04:05.062117  7098 net.cpp:408] quantized_pool1 <- pool1
I1221 21:04:05.062126  7098 net.cpp:382] quantized_pool1 -> quantized_pool1
I1221 21:04:05.062136  7098 net.cpp:110] =========1
I1221 21:04:05.062142  7098 net.cpp:121] =========2
I1221 21:04:05.062149  7098 layer.hpp:70] =========3
I1221 21:04:05.062155  7098 net.cpp:124] Setting up quantized_pool1
I1221 21:04:05.062162  7098 net.cpp:131] Top shape: 32 96 27 27 (2239488)
I1221 21:04:05.062168  7098 net.cpp:139] Memory required for data: 206175488
I1221 21:04:05.062175  7098 layer_factory.hpp:77] Creating layer norm1
I1221 21:04:05.062186  7098 net.cpp:84] Creating Layer norm1
I1221 21:04:05.062193  7098 net.cpp:408] norm1 <- quantized_pool1
I1221 21:04:05.062202  7098 net.cpp:382] norm1 -> norm1
I1221 21:04:05.062212  7098 net.cpp:110] =========1
I1221 21:04:05.062218  7098 net.cpp:121] =========2
I1221 21:04:05.062224  7098 layer.hpp:70] =========3
I1221 21:04:05.062235  7098 net.cpp:124] Setting up norm1
I1221 21:04:05.062243  7098 net.cpp:131] Top shape: 32 96 27 27 (2239488)
I1221 21:04:05.062249  7098 net.cpp:139] Memory required for data: 215133440
I1221 21:04:05.062256  7098 layer_factory.hpp:77] Creating layer quantized_norm1
I1221 21:04:05.062266  7098 net.cpp:84] Creating Layer quantized_norm1
I1221 21:04:05.062273  7098 net.cpp:408] quantized_norm1 <- norm1
I1221 21:04:05.062281  7098 net.cpp:382] quantized_norm1 -> quantized_norm1
I1221 21:04:05.062290  7098 net.cpp:110] =========1
I1221 21:04:05.062296  7098 net.cpp:121] =========2
I1221 21:04:05.062302  7098 layer.hpp:70] =========3
I1221 21:04:05.062309  7098 net.cpp:124] Setting up quantized_norm1
I1221 21:04:05.062316  7098 net.cpp:131] Top shape: 32 96 27 27 (2239488)
I1221 21:04:05.062324  7098 net.cpp:139] Memory required for data: 224091392
I1221 21:04:05.062330  7098 layer_factory.hpp:77] Creating layer conv2
I1221 21:04:05.062341  7098 net.cpp:84] Creating Layer conv2
I1221 21:04:05.062348  7098 net.cpp:408] conv2 <- quantized_norm1
I1221 21:04:05.062358  7098 net.cpp:382] conv2 -> conv2
I1221 21:04:05.062368  7098 net.cpp:110] =========1
I1221 21:04:05.062376  7098 net.cpp:121] =========2
I1221 21:04:05.062381  7098 layer.hpp:70] =========3
I1221 21:04:05.071771  7098 net.cpp:124] Setting up conv2
I1221 21:04:05.071787  7098 net.cpp:131] Top shape: 32 256 27 27 (5971968)
I1221 21:04:05.071794  7098 net.cpp:139] Memory required for data: 247979264
I1221 21:04:05.071806  7098 layer_factory.hpp:77] Creating layer quantized_conv2
I1221 21:04:05.071816  7098 net.cpp:84] Creating Layer quantized_conv2
I1221 21:04:05.071823  7098 net.cpp:408] quantized_conv2 <- conv2
I1221 21:04:05.071835  7098 net.cpp:382] quantized_conv2 -> quantized_conv2
I1221 21:04:05.071844  7098 net.cpp:110] =========1
I1221 21:04:05.071851  7098 net.cpp:121] =========2
I1221 21:04:05.071857  7098 layer.hpp:70] =========3
I1221 21:04:05.071864  7098 net.cpp:124] Setting up quantized_conv2
I1221 21:04:05.071871  7098 net.cpp:131] Top shape: 32 256 27 27 (5971968)
I1221 21:04:05.071878  7098 net.cpp:139] Memory required for data: 271867136
I1221 21:04:05.071884  7098 layer_factory.hpp:77] Creating layer relu2
I1221 21:04:05.071892  7098 net.cpp:84] Creating Layer relu2
I1221 21:04:05.071899  7098 net.cpp:408] relu2 <- quantized_conv2
I1221 21:04:05.071910  7098 net.cpp:382] relu2 -> relu2
I1221 21:04:05.071925  7098 net.cpp:110] =========1
I1221 21:04:05.071939  7098 net.cpp:121] =========2
I1221 21:04:05.071945  7098 layer.hpp:70] =========3
I1221 21:04:05.071952  7098 net.cpp:124] Setting up relu2
I1221 21:04:05.071961  7098 net.cpp:131] Top shape: 32 256 27 27 (5971968)
I1221 21:04:05.071967  7098 net.cpp:139] Memory required for data: 295755008
I1221 21:04:05.071974  7098 layer_factory.hpp:77] Creating layer quantized_relu2
I1221 21:04:05.071983  7098 net.cpp:84] Creating Layer quantized_relu2
I1221 21:04:05.071990  7098 net.cpp:408] quantized_relu2 <- relu2
I1221 21:04:05.072000  7098 net.cpp:382] quantized_relu2 -> quantized_relu2
I1221 21:04:05.072010  7098 net.cpp:110] =========1
I1221 21:04:05.072016  7098 net.cpp:121] =========2
I1221 21:04:05.072022  7098 layer.hpp:70] =========3
I1221 21:04:05.072029  7098 net.cpp:124] Setting up quantized_relu2
I1221 21:04:05.072037  7098 net.cpp:131] Top shape: 32 256 27 27 (5971968)
I1221 21:04:05.072043  7098 net.cpp:139] Memory required for data: 319642880
I1221 21:04:05.072049  7098 layer_factory.hpp:77] Creating layer pool2
I1221 21:04:05.072058  7098 net.cpp:84] Creating Layer pool2
I1221 21:04:05.072065  7098 net.cpp:408] pool2 <- quantized_relu2
I1221 21:04:05.072077  7098 net.cpp:382] pool2 -> pool2
I1221 21:04:05.072085  7098 net.cpp:110] =========1
I1221 21:04:05.072091  7098 net.cpp:121] =========2
I1221 21:04:05.072098  7098 layer.hpp:70] =========3
I1221 21:04:05.072106  7098 net.cpp:124] Setting up pool2
I1221 21:04:05.072113  7098 net.cpp:131] Top shape: 32 256 13 13 (1384448)
I1221 21:04:05.072120  7098 net.cpp:139] Memory required for data: 325180672
I1221 21:04:05.072126  7098 layer_factory.hpp:77] Creating layer quantized_pool2
I1221 21:04:05.072136  7098 net.cpp:84] Creating Layer quantized_pool2
I1221 21:04:05.072144  7098 net.cpp:408] quantized_pool2 <- pool2
I1221 21:04:05.072154  7098 net.cpp:382] quantized_pool2 -> quantized_pool2
I1221 21:04:05.072163  7098 net.cpp:110] =========1
I1221 21:04:05.072170  7098 net.cpp:121] =========2
I1221 21:04:05.072176  7098 layer.hpp:70] =========3
I1221 21:04:05.072183  7098 net.cpp:124] Setting up quantized_pool2
I1221 21:04:05.072191  7098 net.cpp:131] Top shape: 32 256 13 13 (1384448)
I1221 21:04:05.072197  7098 net.cpp:139] Memory required for data: 330718464
I1221 21:04:05.072204  7098 layer_factory.hpp:77] Creating layer norm2
I1221 21:04:05.072216  7098 net.cpp:84] Creating Layer norm2
I1221 21:04:05.072222  7098 net.cpp:408] norm2 <- quantized_pool2
I1221 21:04:05.072232  7098 net.cpp:382] norm2 -> norm2
I1221 21:04:05.072239  7098 net.cpp:110] =========1
I1221 21:04:05.072247  7098 net.cpp:121] =========2
I1221 21:04:05.072252  7098 layer.hpp:70] =========3
I1221 21:04:05.072259  7098 net.cpp:124] Setting up norm2
I1221 21:04:05.072266  7098 net.cpp:131] Top shape: 32 256 13 13 (1384448)
I1221 21:04:05.072273  7098 net.cpp:139] Memory required for data: 336256256
I1221 21:04:05.072279  7098 layer_factory.hpp:77] Creating layer quantized_norm2
I1221 21:04:05.072288  7098 net.cpp:84] Creating Layer quantized_norm2
I1221 21:04:05.072294  7098 net.cpp:408] quantized_norm2 <- norm2
I1221 21:04:05.072305  7098 net.cpp:382] quantized_norm2 -> quantized_norm2
I1221 21:04:05.072314  7098 net.cpp:110] =========1
I1221 21:04:05.072320  7098 net.cpp:121] =========2
I1221 21:04:05.072326  7098 layer.hpp:70] =========3
I1221 21:04:05.072333  7098 net.cpp:124] Setting up quantized_norm2
I1221 21:04:05.072340  7098 net.cpp:131] Top shape: 32 256 13 13 (1384448)
I1221 21:04:05.072346  7098 net.cpp:139] Memory required for data: 341794048
I1221 21:04:05.072353  7098 layer_factory.hpp:77] Creating layer conv3
I1221 21:04:05.072366  7098 net.cpp:84] Creating Layer conv3
I1221 21:04:05.072374  7098 net.cpp:408] conv3 <- quantized_norm2
I1221 21:04:05.072386  7098 net.cpp:382] conv3 -> conv3
I1221 21:04:05.072396  7098 net.cpp:110] =========1
I1221 21:04:05.072402  7098 net.cpp:121] =========2
I1221 21:04:05.072408  7098 layer.hpp:70] =========3
I1221 21:04:05.099720  7098 net.cpp:124] Setting up conv3
I1221 21:04:05.099737  7098 net.cpp:131] Top shape: 32 384 13 13 (2076672)
I1221 21:04:05.099757  7098 net.cpp:139] Memory required for data: 350100736
I1221 21:04:05.099773  7098 layer_factory.hpp:77] Creating layer quantized_conv3
I1221 21:04:05.099784  7098 net.cpp:84] Creating Layer quantized_conv3
I1221 21:04:05.099792  7098 net.cpp:408] quantized_conv3 <- conv3
I1221 21:04:05.099800  7098 net.cpp:382] quantized_conv3 -> quantized_conv3
I1221 21:04:05.099810  7098 net.cpp:110] =========1
I1221 21:04:05.099817  7098 net.cpp:121] =========2
I1221 21:04:05.099823  7098 layer.hpp:70] =========3
I1221 21:04:05.099829  7098 net.cpp:124] Setting up quantized_conv3
I1221 21:04:05.099838  7098 net.cpp:131] Top shape: 32 384 13 13 (2076672)
I1221 21:04:05.099843  7098 net.cpp:139] Memory required for data: 358407424
I1221 21:04:05.099850  7098 layer_factory.hpp:77] Creating layer relu3
I1221 21:04:05.099862  7098 net.cpp:84] Creating Layer relu3
I1221 21:04:05.099870  7098 net.cpp:408] relu3 <- quantized_conv3
I1221 21:04:05.099879  7098 net.cpp:382] relu3 -> relu3
I1221 21:04:05.099887  7098 net.cpp:110] =========1
I1221 21:04:05.099894  7098 net.cpp:121] =========2
I1221 21:04:05.099900  7098 layer.hpp:70] =========3
I1221 21:04:05.099905  7098 net.cpp:124] Setting up relu3
I1221 21:04:05.099913  7098 net.cpp:131] Top shape: 32 384 13 13 (2076672)
I1221 21:04:05.099920  7098 net.cpp:139] Memory required for data: 366714112
I1221 21:04:05.099926  7098 layer_factory.hpp:77] Creating layer quantized_relu3
I1221 21:04:05.099936  7098 net.cpp:84] Creating Layer quantized_relu3
I1221 21:04:05.099944  7098 net.cpp:408] quantized_relu3 <- relu3
I1221 21:04:05.099953  7098 net.cpp:382] quantized_relu3 -> quantized_relu3
I1221 21:04:05.099962  7098 net.cpp:110] =========1
I1221 21:04:05.099968  7098 net.cpp:121] =========2
I1221 21:04:05.099974  7098 layer.hpp:70] =========3
I1221 21:04:05.099980  7098 net.cpp:124] Setting up quantized_relu3
I1221 21:04:05.099988  7098 net.cpp:131] Top shape: 32 384 13 13 (2076672)
I1221 21:04:05.099994  7098 net.cpp:139] Memory required for data: 375020800
I1221 21:04:05.100002  7098 layer_factory.hpp:77] Creating layer conv4
I1221 21:04:05.100019  7098 net.cpp:84] Creating Layer conv4
I1221 21:04:05.100028  7098 net.cpp:408] conv4 <- quantized_relu3
I1221 21:04:05.100039  7098 net.cpp:382] conv4 -> conv4
I1221 21:04:05.100049  7098 net.cpp:110] =========1
I1221 21:04:05.100056  7098 net.cpp:121] =========2
I1221 21:04:05.100062  7098 layer.hpp:70] =========3
I1221 21:04:05.121013  7098 net.cpp:124] Setting up conv4
I1221 21:04:05.121032  7098 net.cpp:131] Top shape: 32 384 13 13 (2076672)
I1221 21:04:05.121039  7098 net.cpp:139] Memory required for data: 383327488
I1221 21:04:05.121049  7098 layer_factory.hpp:77] Creating layer quantized_conv4
I1221 21:04:05.121060  7098 net.cpp:84] Creating Layer quantized_conv4
I1221 21:04:05.121068  7098 net.cpp:408] quantized_conv4 <- conv4
I1221 21:04:05.121078  7098 net.cpp:382] quantized_conv4 -> quantized_conv4
I1221 21:04:05.121089  7098 net.cpp:110] =========1
I1221 21:04:05.121095  7098 net.cpp:121] =========2
I1221 21:04:05.121101  7098 layer.hpp:70] =========3
I1221 21:04:05.121109  7098 net.cpp:124] Setting up quantized_conv4
I1221 21:04:05.121115  7098 net.cpp:131] Top shape: 32 384 13 13 (2076672)
I1221 21:04:05.121122  7098 net.cpp:139] Memory required for data: 391634176
I1221 21:04:05.121129  7098 layer_factory.hpp:77] Creating layer relu4
I1221 21:04:05.121137  7098 net.cpp:84] Creating Layer relu4
I1221 21:04:05.121143  7098 net.cpp:408] relu4 <- quantized_conv4
I1221 21:04:05.121155  7098 net.cpp:382] relu4 -> relu4
I1221 21:04:05.121163  7098 net.cpp:110] =========1
I1221 21:04:05.121170  7098 net.cpp:121] =========2
I1221 21:04:05.121176  7098 layer.hpp:70] =========3
I1221 21:04:05.121181  7098 net.cpp:124] Setting up relu4
I1221 21:04:05.121189  7098 net.cpp:131] Top shape: 32 384 13 13 (2076672)
I1221 21:04:05.121196  7098 net.cpp:139] Memory required for data: 399940864
I1221 21:04:05.121202  7098 layer_factory.hpp:77] Creating layer quantized_relu4
I1221 21:04:05.121222  7098 net.cpp:84] Creating Layer quantized_relu4
I1221 21:04:05.121237  7098 net.cpp:408] quantized_relu4 <- relu4
I1221 21:04:05.121246  7098 net.cpp:382] quantized_relu4 -> quantized_relu4
I1221 21:04:05.121256  7098 net.cpp:110] =========1
I1221 21:04:05.121263  7098 net.cpp:121] =========2
I1221 21:04:05.121268  7098 layer.hpp:70] =========3
I1221 21:04:05.121274  7098 net.cpp:124] Setting up quantized_relu4
I1221 21:04:05.121282  7098 net.cpp:131] Top shape: 32 384 13 13 (2076672)
I1221 21:04:05.121289  7098 net.cpp:139] Memory required for data: 408247552
I1221 21:04:05.121295  7098 layer_factory.hpp:77] Creating layer conv5
I1221 21:04:05.121311  7098 net.cpp:84] Creating Layer conv5
I1221 21:04:05.121320  7098 net.cpp:408] conv5 <- quantized_relu4
I1221 21:04:05.121328  7098 net.cpp:382] conv5 -> conv5
I1221 21:04:05.121338  7098 net.cpp:110] =========1
I1221 21:04:05.121345  7098 net.cpp:121] =========2
I1221 21:04:05.121351  7098 layer.hpp:70] =========3
I1221 21:04:05.135373  7098 net.cpp:124] Setting up conv5
I1221 21:04:05.135392  7098 net.cpp:131] Top shape: 32 256 13 13 (1384448)
I1221 21:04:05.135398  7098 net.cpp:139] Memory required for data: 413785344
I1221 21:04:05.135412  7098 layer_factory.hpp:77] Creating layer quantized_conv5
I1221 21:04:05.135423  7098 net.cpp:84] Creating Layer quantized_conv5
I1221 21:04:05.135432  7098 net.cpp:408] quantized_conv5 <- conv5
I1221 21:04:05.135442  7098 net.cpp:382] quantized_conv5 -> quantized_conv5
I1221 21:04:05.135452  7098 net.cpp:110] =========1
I1221 21:04:05.135458  7098 net.cpp:121] =========2
I1221 21:04:05.135464  7098 layer.hpp:70] =========3
I1221 21:04:05.135471  7098 net.cpp:124] Setting up quantized_conv5
I1221 21:04:05.135479  7098 net.cpp:131] Top shape: 32 256 13 13 (1384448)
I1221 21:04:05.135485  7098 net.cpp:139] Memory required for data: 419323136
I1221 21:04:05.135493  7098 layer_factory.hpp:77] Creating layer relu5
I1221 21:04:05.135500  7098 net.cpp:84] Creating Layer relu5
I1221 21:04:05.135506  7098 net.cpp:408] relu5 <- quantized_conv5
I1221 21:04:05.135514  7098 net.cpp:382] relu5 -> relu5
I1221 21:04:05.135529  7098 net.cpp:110] =========1
I1221 21:04:05.135535  7098 net.cpp:121] =========2
I1221 21:04:05.135540  7098 layer.hpp:70] =========3
I1221 21:04:05.135547  7098 net.cpp:124] Setting up relu5
I1221 21:04:05.135555  7098 net.cpp:131] Top shape: 32 256 13 13 (1384448)
I1221 21:04:05.135561  7098 net.cpp:139] Memory required for data: 424860928
I1221 21:04:05.135568  7098 layer_factory.hpp:77] Creating layer quantized_relu5
I1221 21:04:05.135577  7098 net.cpp:84] Creating Layer quantized_relu5
I1221 21:04:05.135583  7098 net.cpp:408] quantized_relu5 <- relu5
I1221 21:04:05.135594  7098 net.cpp:382] quantized_relu5 -> quantized_relu5
I1221 21:04:05.135604  7098 net.cpp:110] =========1
I1221 21:04:05.135610  7098 net.cpp:121] =========2
I1221 21:04:05.135617  7098 layer.hpp:70] =========3
I1221 21:04:05.135623  7098 net.cpp:124] Setting up quantized_relu5
I1221 21:04:05.135630  7098 net.cpp:131] Top shape: 32 256 13 13 (1384448)
I1221 21:04:05.135637  7098 net.cpp:139] Memory required for data: 430398720
I1221 21:04:05.135643  7098 layer_factory.hpp:77] Creating layer pool5
I1221 21:04:05.135653  7098 net.cpp:84] Creating Layer pool5
I1221 21:04:05.135660  7098 net.cpp:408] pool5 <- quantized_relu5
I1221 21:04:05.135673  7098 net.cpp:382] pool5 -> pool5
I1221 21:04:05.135682  7098 net.cpp:110] =========1
I1221 21:04:05.135689  7098 net.cpp:121] =========2
I1221 21:04:05.135694  7098 layer.hpp:70] =========3
I1221 21:04:05.135704  7098 net.cpp:124] Setting up pool5
I1221 21:04:05.135711  7098 net.cpp:131] Top shape: 32 256 6 6 (294912)
I1221 21:04:05.135718  7098 net.cpp:139] Memory required for data: 431578368
I1221 21:04:05.135725  7098 layer_factory.hpp:77] Creating layer quantized_pool5
I1221 21:04:05.135738  7098 net.cpp:84] Creating Layer quantized_pool5
I1221 21:04:05.135746  7098 net.cpp:408] quantized_pool5 <- pool5
I1221 21:04:05.135754  7098 net.cpp:382] quantized_pool5 -> quantized_pool5
I1221 21:04:05.135763  7098 net.cpp:110] =========1
I1221 21:04:05.135776  7098 net.cpp:121] =========2
I1221 21:04:05.135789  7098 layer.hpp:70] =========3
I1221 21:04:05.135797  7098 net.cpp:124] Setting up quantized_pool5
I1221 21:04:05.135804  7098 net.cpp:131] Top shape: 32 256 6 6 (294912)
I1221 21:04:05.135812  7098 net.cpp:139] Memory required for data: 432758016
I1221 21:04:05.135818  7098 layer_factory.hpp:77] Creating layer fc6
I1221 21:04:05.135835  7098 net.cpp:84] Creating Layer fc6
I1221 21:04:05.135843  7098 net.cpp:408] fc6 <- quantized_pool5
I1221 21:04:05.135851  7098 net.cpp:382] fc6 -> fc6
I1221 21:04:05.135866  7098 net.cpp:110] =========1
I1221 21:04:05.135872  7098 net.cpp:121] =========2
I1221 21:04:05.135880  7098 layer.hpp:70] =========3
I1221 21:04:05.135888  7098 quan_inner_product_layer.cpp:21] 4096   4096
I1221 21:04:05.135895  7098 quan_inner_product_layer.cpp:46] 4096+++++9216++++0
I1221 21:04:05.135902  7098 quan_inner_product_layer.cpp:48] =========4
I1221 21:04:05.135908  7098 quan_inner_product_layer.cpp:52] =========5
I1221 21:04:06.288538  7098 quan_inner_product_layer.cpp:54] =========6
I1221 21:04:06.288631  7098 net.cpp:124] Setting up fc6
I1221 21:04:06.288646  7098 net.cpp:131] Top shape: 32 4096 (131072)
I1221 21:04:06.288653  7098 net.cpp:139] Memory required for data: 433282304
I1221 21:04:06.288668  7098 layer_factory.hpp:77] Creating layer quantized_fc6
I1221 21:04:06.288686  7098 net.cpp:84] Creating Layer quantized_fc6
I1221 21:04:06.288694  7098 net.cpp:408] quantized_fc6 <- fc6
I1221 21:04:06.288710  7098 net.cpp:382] quantized_fc6 -> quantized_fc6
I1221 21:04:06.288724  7098 net.cpp:110] =========1
I1221 21:04:06.288731  7098 net.cpp:121] =========2
I1221 21:04:06.288738  7098 layer.hpp:70] =========3
I1221 21:04:06.288745  7098 net.cpp:124] Setting up quantized_fc6
I1221 21:04:06.288753  7098 net.cpp:131] Top shape: 32 4096 (131072)
I1221 21:04:06.288759  7098 net.cpp:139] Memory required for data: 433806592
I1221 21:04:06.288765  7098 layer_factory.hpp:77] Creating layer relu6
I1221 21:04:06.288775  7098 net.cpp:84] Creating Layer relu6
I1221 21:04:06.288782  7098 net.cpp:408] relu6 <- quantized_fc6
I1221 21:04:06.288791  7098 net.cpp:382] relu6 -> relu6
I1221 21:04:06.288800  7098 net.cpp:110] =========1
I1221 21:04:06.288806  7098 net.cpp:121] =========2
I1221 21:04:06.288811  7098 layer.hpp:70] =========3
I1221 21:04:06.288818  7098 net.cpp:124] Setting up relu6
I1221 21:04:06.288825  7098 net.cpp:131] Top shape: 32 4096 (131072)
I1221 21:04:06.288831  7098 net.cpp:139] Memory required for data: 434330880
I1221 21:04:06.288838  7098 layer_factory.hpp:77] Creating layer quantized_relu6
I1221 21:04:06.288847  7098 net.cpp:84] Creating Layer quantized_relu6
I1221 21:04:06.288853  7098 net.cpp:408] quantized_relu6 <- relu6
I1221 21:04:06.288862  7098 net.cpp:382] quantized_relu6 -> quantized_relu6
I1221 21:04:06.288872  7098 net.cpp:110] =========1
I1221 21:04:06.288878  7098 net.cpp:121] =========2
I1221 21:04:06.288883  7098 layer.hpp:70] =========3
I1221 21:04:06.288890  7098 net.cpp:124] Setting up quantized_relu6
I1221 21:04:06.288897  7098 net.cpp:131] Top shape: 32 4096 (131072)
I1221 21:04:06.288903  7098 net.cpp:139] Memory required for data: 434855168
I1221 21:04:06.288910  7098 layer_factory.hpp:77] Creating layer fc7
I1221 21:04:06.288924  7098 net.cpp:84] Creating Layer fc7
I1221 21:04:06.288931  7098 net.cpp:408] fc7 <- quantized_relu6
I1221 21:04:06.288940  7098 net.cpp:382] fc7 -> fc7
I1221 21:04:06.288951  7098 net.cpp:110] =========1
I1221 21:04:06.288957  7098 net.cpp:121] =========2
I1221 21:04:06.288964  7098 layer.hpp:70] =========3
I1221 21:04:06.288969  7098 quan_inner_product_layer.cpp:21] 4096   4096
I1221 21:04:06.288975  7098 quan_inner_product_layer.cpp:46] 4096+++++4096++++0
I1221 21:04:06.288982  7098 quan_inner_product_layer.cpp:48] =========4
I1221 21:04:06.288990  7098 quan_inner_product_layer.cpp:52] =========5
I1221 21:04:06.777935  7098 quan_inner_product_layer.cpp:54] =========6
I1221 21:04:06.778038  7098 net.cpp:124] Setting up fc7
I1221 21:04:06.778069  7098 net.cpp:131] Top shape: 32 4096 (131072)
I1221 21:04:06.778090  7098 net.cpp:139] Memory required for data: 435379456
I1221 21:04:06.778103  7098 layer_factory.hpp:77] Creating layer quantized_fc7
I1221 21:04:06.778120  7098 net.cpp:84] Creating Layer quantized_fc7
I1221 21:04:06.778129  7098 net.cpp:408] quantized_fc7 <- fc7
I1221 21:04:06.778143  7098 net.cpp:382] quantized_fc7 -> quantized_fc7
I1221 21:04:06.778158  7098 net.cpp:110] =========1
I1221 21:04:06.778164  7098 net.cpp:121] =========2
I1221 21:04:06.778172  7098 layer.hpp:70] =========3
I1221 21:04:06.778178  7098 net.cpp:124] Setting up quantized_fc7
I1221 21:04:06.778185  7098 net.cpp:131] Top shape: 32 4096 (131072)
I1221 21:04:06.778192  7098 net.cpp:139] Memory required for data: 435903744
I1221 21:04:06.778198  7098 layer_factory.hpp:77] Creating layer relu7
I1221 21:04:06.778206  7098 net.cpp:84] Creating Layer relu7
I1221 21:04:06.778213  7098 net.cpp:408] relu7 <- quantized_fc7
I1221 21:04:06.778221  7098 net.cpp:382] relu7 -> relu7
I1221 21:04:06.778229  7098 net.cpp:110] =========1
I1221 21:04:06.778235  7098 net.cpp:121] =========2
I1221 21:04:06.778241  7098 layer.hpp:70] =========3
I1221 21:04:06.778247  7098 net.cpp:124] Setting up relu7
I1221 21:04:06.778254  7098 net.cpp:131] Top shape: 32 4096 (131072)
I1221 21:04:06.778260  7098 net.cpp:139] Memory required for data: 436428032
I1221 21:04:06.778266  7098 layer_factory.hpp:77] Creating layer quantized_relu7
I1221 21:04:06.778275  7098 net.cpp:84] Creating Layer quantized_relu7
I1221 21:04:06.778281  7098 net.cpp:408] quantized_relu7 <- relu7
I1221 21:04:06.778292  7098 net.cpp:382] quantized_relu7 -> quantized_relu7
I1221 21:04:06.778301  7098 net.cpp:110] =========1
I1221 21:04:06.778307  7098 net.cpp:121] =========2
I1221 21:04:06.778313  7098 layer.hpp:70] =========3
I1221 21:04:06.778319  7098 net.cpp:124] Setting up quantized_relu7
I1221 21:04:06.778326  7098 net.cpp:131] Top shape: 32 4096 (131072)
I1221 21:04:06.778332  7098 net.cpp:139] Memory required for data: 436952320
I1221 21:04:06.778338  7098 layer_factory.hpp:77] Creating layer fc8
I1221 21:04:06.778349  7098 net.cpp:84] Creating Layer fc8
I1221 21:04:06.778355  7098 net.cpp:408] fc8 <- quantized_relu7
I1221 21:04:06.778364  7098 net.cpp:382] fc8 -> fc8
I1221 21:04:06.778373  7098 net.cpp:110] =========1
I1221 21:04:06.778379  7098 net.cpp:121] =========2
I1221 21:04:06.778385  7098 layer.hpp:70] =========3
I1221 21:04:06.778390  7098 quan_inner_product_layer.cpp:21] 1000   1000
I1221 21:04:06.778398  7098 quan_inner_product_layer.cpp:46] 1000+++++4096++++0
I1221 21:04:06.778403  7098 quan_inner_product_layer.cpp:48] =========4
I1221 21:04:06.778410  7098 quan_inner_product_layer.cpp:52] =========5
I1221 21:04:06.785055  7098 quan_inner_product_layer.cpp:54] =========6
I1221 21:04:06.785138  7098 net.cpp:124] Setting up fc8
I1221 21:04:06.785153  7098 net.cpp:131] Top shape: 32 1000 (32000)
I1221 21:04:06.785161  7098 net.cpp:139] Memory required for data: 437080320
I1221 21:04:06.785174  7098 layer_factory.hpp:77] Creating layer quantized_fc8
I1221 21:04:06.785193  7098 net.cpp:84] Creating Layer quantized_fc8
I1221 21:04:06.785202  7098 net.cpp:408] quantized_fc8 <- fc8
I1221 21:04:06.785215  7098 net.cpp:382] quantized_fc8 -> quantized_fc8
I1221 21:04:06.785229  7098 net.cpp:110] =========1
I1221 21:04:06.785235  7098 net.cpp:121] =========2
I1221 21:04:06.785241  7098 layer.hpp:70] =========3
I1221 21:04:06.785248  7098 net.cpp:124] Setting up quantized_fc8
I1221 21:04:06.785255  7098 net.cpp:131] Top shape: 32 1000 (32000)
I1221 21:04:06.785261  7098 net.cpp:139] Memory required for data: 437208320
I1221 21:04:06.785267  7098 layer_factory.hpp:77] Creating layer quantized_fc8_quantized_fc8_0_split
I1221 21:04:06.785280  7098 net.cpp:84] Creating Layer quantized_fc8_quantized_fc8_0_split
I1221 21:04:06.785286  7098 net.cpp:408] quantized_fc8_quantized_fc8_0_split <- quantized_fc8
I1221 21:04:06.785295  7098 net.cpp:382] quantized_fc8_quantized_fc8_0_split -> quantized_fc8_quantized_fc8_0_split_0
I1221 21:04:06.785320  7098 net.cpp:382] quantized_fc8_quantized_fc8_0_split -> quantized_fc8_quantized_fc8_0_split_1
I1221 21:04:06.785342  7098 net.cpp:382] quantized_fc8_quantized_fc8_0_split -> quantized_fc8_quantized_fc8_0_split_2
I1221 21:04:06.785352  7098 net.cpp:382] quantized_fc8_quantized_fc8_0_split -> quantized_fc8_quantized_fc8_0_split_3
I1221 21:04:06.785360  7098 net.cpp:110] =========1
I1221 21:04:06.785367  7098 net.cpp:121] =========2
I1221 21:04:06.785372  7098 layer.hpp:70] =========3
I1221 21:04:06.785382  7098 net.cpp:124] Setting up quantized_fc8_quantized_fc8_0_split
I1221 21:04:06.785390  7098 net.cpp:131] Top shape: 32 1000 (32000)
I1221 21:04:06.785398  7098 net.cpp:131] Top shape: 32 1000 (32000)
I1221 21:04:06.785403  7098 net.cpp:131] Top shape: 32 1000 (32000)
I1221 21:04:06.785410  7098 net.cpp:131] Top shape: 32 1000 (32000)
I1221 21:04:06.785416  7098 net.cpp:139] Memory required for data: 437720320
I1221 21:04:06.785423  7098 layer_factory.hpp:77] Creating layer probs
I1221 21:04:06.785431  7098 net.cpp:84] Creating Layer probs
I1221 21:04:06.785437  7098 net.cpp:408] probs <- quantized_fc8_quantized_fc8_0_split_0
I1221 21:04:06.785449  7098 net.cpp:382] probs -> probs
I1221 21:04:06.785457  7098 net.cpp:110] =========1
I1221 21:04:06.785464  7098 net.cpp:121] =========2
I1221 21:04:06.785470  7098 layer.hpp:70] =========3
I1221 21:04:06.785492  7098 net.cpp:124] Setting up probs
I1221 21:04:06.785501  7098 net.cpp:131] Top shape: 32 1000 (32000)
I1221 21:04:06.785506  7098 net.cpp:139] Memory required for data: 437848320
I1221 21:04:06.785513  7098 layer_factory.hpp:77] Creating layer loss
I1221 21:04:06.785524  7098 net.cpp:84] Creating Layer loss
I1221 21:04:06.785531  7098 net.cpp:408] loss <- quantized_fc8_quantized_fc8_0_split_1
I1221 21:04:06.785538  7098 net.cpp:408] loss <- label_data_1_split_0
I1221 21:04:06.785555  7098 net.cpp:382] loss -> loss
…
I1221 21:04:06.787302  7098 net.cpp:296] The NetState phase (1) differed from the phase (0) specified by a rule in layer data
I1221 21:04:06.787631  7098 net.cpp:51] Initializing net from parameters: 
state {
  phase: TEST
}
layer {
  name: "data"
  type: "Data"
  top: "data"
  top: "label"
  include {
    phase: TEST
  }
  transform_param {
    mirror: false
    crop_size: 227
    mean_file: "/home/ydwu/database/imagenet/ilsvrc12/imagenet_mean.binaryproto"
  }
  data_param {
    source: "/home/ydwu/database/imagenet/ilsvrc12/lmdb_resize/ilsvrc12_val_lmdb/"
    batch_size: 20
    backend: LMDB
  }
}
layer {
  name: "quantized_data"
  type: "Quantization"
  bottom: "data"
  top: "quantized_data"
  quantization_param {
    round_method: FLOOR
    round_strategy: AGGRESSIVE
    bit_width: 8
    range: -129.93526
    range: 160.78912
  }
}
layer {
  name: "conv1"
  type: "QuanConvolution"
  bottom: "quantized_data"
  top: "conv1"
  param {
    lr_mult: 1
    decay_mult: 1
  }
  param {
    lr_mult: 2
    decay_mult: 0
  }
  convolution_param {
    num_output: 96
    pad: 0
    kernel_size: 11
    group: 1
    stride: 4
    weight_filler {
      type: "gaussian"
      std: 1.1e+13
    }
    bias_filler {
      type: "constant"
      std: 0.1
    }
  }
}
layer {
  name: "quantized_conv1"
  type: "Quantization"
  bottom: "conv1"
  top: "quantized_conv1"
  quantization_param {
    round_method: FLOOR
    round_strategy: AGGRESSIVE
    bit_width: 8
    range: -2732.7351
    range: 2531.042
  }
}
layer {
  name: "relu1"
  type: "ReLU"
  bottom: "quantized_conv1"
  top: "relu1"
}
layer {
  name: "quantized_relu1"
  type: "Quantization"
  bottom: "relu1"
  top: "quantized_relu1"
  quantization_param {
    round_method: FLOOR
    round_strategy: AGGRESSIVE
    bit_width: 8
    range: 1
    range: 2531.042
  }
}
layer {
  name: "pool1"
  type: "Pooling"
  bottom: "quantized_relu1"
  top: "pool1"
  pooling_param {
    pool: MAX
    kernel_size: 3
    stride: 2
  }
}
layer {
  name: "quantized_pool1"
  type: "Quantization"
  bottom: "pool1"
  top: "quantized_pool1"
  quantization_param {
    round_method: FLOOR
    round_strategy: AGGRESSIVE
    bit_width: 8
    range: 1
    range: 2531.042
  }
}
layer {
  name: "norm1"
  type: "LRN"
  bottom: "quantized_pool1"
  top: "norm1"
  lrn_param {
    local_size: 5
    alpha: 0.0001
    beta: 0.75
  }
}
layer {
  name: "quantized_norm1"
  type: "Quantization"
  bottom: "norm1"
  top: "quantized_norm1"
  quantization_param {
    round_method: FLOOR
    round_strategy: AGGRESSIVE
    bit_width: 8
    range: 1
    range: 138.70576
  }
}
layer {
  name: "conv2"
  type: "QuanConvolution"
  bottom: "quantized_norm1"
  top: "conv2"
  param {
    lr_mult: 1
    decay_mult: 1
  }
  param {
    lr_mult: 2
    decay_mult: 0
  }
  convolution_param {
    num_output: 256
    pad: 2
    kernel_size: 5
    group: 2
    stride: 1
    weight_filler {
      type: "gaussian"
      std: 1.1e+13
    }
    bias_filler {
      type: "constant"
      std: 0.1
    }
  }
}
layer {
  name: "quantized_conv2"
  type: "Quantization"
  bottom: "conv2"
  top: "quantized_conv2"
  quantization_param {
    round_method: FLOOR
    round_strategy: AGGRESSIVE
    bit_width: 8
    range: -647.61908
    range: 492.23111
  }
}
layer {
  name: "relu2"
  type: "ReLU"
  bottom: "quantized_conv2"
  top: "relu2"
}
layer {
  name: "quantized_relu2"
  type: "Quantization"
  bottom: "relu2"
  top: "quantized_relu2"
  quantization_param {
    round_method: FLOOR
    round_strategy: AGGRESSIVE
    bit_width: 8
    range: 1
    range: 492.23111
  }
}
layer {
  name: "pool2"
  type: "Pooling"
  bottom: "quantized_relu2"
  top: "pool2"
  pooling_param {
    pool: MAX
    kernel_size: 3
    stride: 2
  }
}
layer {
  name: "quantized_pool2"
  type: "Quantization"
  bottom: "pool2"
  top: "quantized_pool2"
  quantization_param {
    round_method: FLOOR
    round_strategy: AGGRESSIVE
    bit_width: 8
    range: 1
    range: 492.23111
  }
}
layer {
  name: "norm2"
  type: "LRN"
  bottom: "quantized_pool2"
  top: "norm2"
  lrn_param {
    local_size: 5
    alpha: 0.0001
    beta: 0.75
  }
}
layer {
  name: "quantized_norm2"
  type: "Quantization"
  bottom: "norm2"
  top: "quantized_norm2"
  quantization_param {
    round_method: FLOOR
    round_strategy: AGGRESSIVE
    bit_width: 8
    range: 1
    range: 138.72636
  }
}
layer {
  name: "conv3"
  type: "QuanConvolution"
  bottom: "quantized_norm2"
  top: "conv3"
  param {
    lr_mult: 1
    decay_mult: 1
  }
  param {
    lr_mult: 2
    decay_mult: 0
  }
  convolution_param {
    num_output: 384
    pad: 1
    kernel_size: 3
    group: 1
    stride: 1
    weight_filler {
      type: "gaussian"
      std: 1.1e+13
    }
    bias_filler {
      type: "constant"
      std: 0.1
    }
  }
}
layer {
  name: "quantized_conv3"
  type: "Quantization"
  bottom: "conv3"
  top: "quantized_conv3"
  quantization_param {
    round_method: FLOOR
    round_strategy: AGGRESSIVE
    bit_width: 8
    range: -389.56516
    range: 331.98178
  }
}
layer {
  name: "relu3"
  type: "ReLU"
  bottom: "quantized_conv3"
  top: "relu3"
}
layer {
  name: "quantized_relu3"
  type: "Quantization"
  bottom: "relu3"
  top: "quantized_relu3"
  quantization_param {
    round_method: FLOOR
    round_strategy: AGGRESSIVE
    bit_width: 8
    range: 1
    range: 331.98178
  }
}
layer {
  name: "conv4"
  type: "QuanConvolution"
  bottom: "quantized_relu3"
  top: "conv4"
  param {
    lr_mult: 1
    decay_mult: 1
  }
  param {
    lr_mult: 2
    decay_mult: 0
  }
  convolution_param {
    num_output: 384
    pad: 1
    kernel_size: 3
    group: 2
    stride: 1
    weight_filler {
      type: "gaussian"
      std: 1.1e+13
    }
    bias_filler {
      type: "constant"
      std: 0.1
    }
  }
}
layer {
  name: "quantized_conv4"
  type: "Quantization"
  bottom: "conv4"
  top: "quantized_conv4"
  quantization_param {
    round_method: FLOOR
    round_strategy: AGGRESSIVE
    bit_width: 8
    range: -231.20598
    range: 283.87189
  }
}
layer {
  name: "relu4"
  type: "ReLU"
  bottom: "quantized_conv4"
  top: "relu4"
}
layer {
  name: "quantized_relu4"
  type: "Quantization"
  bottom: "relu4"
  top: "quantized_relu4"
  quantization_param {
    round_method: FLOOR
    round_strategy: AGGRESSIVE
    bit_width: 8
    range: 1
    range: 283.87189
  }
}
layer {
  name: "conv5"
  type: "QuanConvolution"
  bottom: "quantized_relu4"
  top: "conv5"
  param {
    lr_mult: 1
    decay_mult: 1
  }
  param {
    lr_mult: 2
    decay_mult: 0
  }
  convolution_param {
    num_output: 256
    pad: 1
    kernel_size: 3
    group: 2
    stride: 1
    weight_filler {
      type: "gaussian"
      std: 1.1e+13
    }
    bias_filler {
      type: "constant"
      std: 0.1
    }
  }
}
layer {
  name: "quantized_conv5"
  type: "Quantization"
  bottom: "conv5"
  top: "quantized_conv5"
  quantization_param {
    round_method: FLOOR
    round_strategy: AGGRESSIVE
    bit_width: 8
    range: -172.60567
    range: 272.57315
  }
}
layer {
  name: "relu5"
  type: "ReLU"
  bottom: "quantized_conv5"
  top: "relu5"
}
layer {
  name: "quantized_relu5"
  type: "Quantization"
  bottom: "relu5"
  top: "quantized_relu5"
  quantization_param {
    round_method: FLOOR
    round_strategy: AGGRESSIVE
    bit_width: 8
    range: 1
    range: 272.57315
  }
}
layer {
  name: "pool5"
  type: "Pooling"
  bottom: "quantized_relu5"
  top: "pool5"
  pooling_param {
    pool: MAX
    kernel_size: 3
    stride: 2
  }
}
layer {
  name: "quantized_pool5"
  type: "Quantization"
  bottom: "pool5"
  top: "quantized_pool5"
  quantization_param {
    round_method: FLOOR
    round_strategy: AGGRESSIVE
    bit_width: 8
    range: 1
    range: 272.57315
  }
}
layer {
  name: "fc6"
  type: "QuanInnerProduct"
  bottom: "quantized_pool5"
  top: "fc6"
  param {
    lr_mult: 1
    decay_mult: 1
  }
  param {
    lr_mult: 2
    decay_mult: 0
  }
  quan_inner_product_param {
    num_output: 4096
    weight_filler {
      type: "gaussian"
      std: 1.05e+13
    }
    bias_filler {
      type: "constant"
      value: 0.1
    }
  }
}
layer {
  name: "quantized_fc6"
  type: "Quantization"
  bottom: "fc6"
  top: "quantized_fc6"
  quantization_param {
    round_method: FLOOR
    round_strategy: AGGRESSIVE
    bit_width: 8
    range: -114.02487
    range: 58.541733
  }
}
layer {
  name: "relu6"
  type: "ReLU"
  bottom: "quantized_fc6"
  top: "relu6"
}
layer {
  name: "quantized_relu6"
  type: "Quantization"
  bottom: "relu6"
  top: "quantized_relu6"
  quantization_param {
    round_method: FLOOR
    round_strategy: AGGRESSIVE
    bit_width: 8
    range: 1
    range: 58.541733
  }
}
layer {
  name: "fc7"
  type: "QuanInnerProduct"
  bottom: "quantized_relu6"
  top: "fc7"
  param {
    lr_mult: 1
    decay_mult: 1
  }
  param {
    lr_mult: 2
    decay_mult: 0
  }
  quan_inner_product_param {
    num_output: 4096
    weight_filler {
      type: "gaussian"
      std: 1.05e+13
    }
    bias_filler {
      type: "constant"
      value: 0.1
    }
  }
}
layer {
  name: "quantized_fc7"
  type: "Quantization"
  bottom: "fc7"
  top: "quantized_fc7"
  quantization_param {
    round_method: FLOOR
    round_strategy: AGGRESSIVE
    bit_width: 8
    range: -26.019335
    range: 19.125257
  }
}
layer {
  name: "relu7"
  type: "ReLU"
  bottom: "quantized_fc7"
  top: "relu7"
}
layer {
  name: "quantized_relu7"
  type: "Quantization"
  bottom: "relu7"
  top: "quantized_relu7"
  quantization_param {
    round_method: FLOOR
    round_strategy: AGGRESSIVE
    bit_width: 8
    range: 1
    range: 19.125257
  }
}
layer {
  name: "fc8"
  type: "QuanInnerProduct"
  bottom: "quantized_relu7"
  top: "fc8"
  param {
    lr_mult: 1
    decay_mult: 1
  }
  param {
    lr_mult: 2
    decay_mult: 0
  }
  quan_inner_product_param {
    num_output: 1000
  }
}
layer {
  name: "quantized_fc8"
  type: "Quantization"
  bottom: "fc8"
  top: "quantized_fc8"
  quantization_param {
    round_method: FLOOR
    round_strategy: AGGRESSIVE
    bit_width: 8
    range: -9.849781
    range: 45.688446
  }
}
layer {
  name: "probs"
  type: "Softmax"
  bottom: "quantized_fc8"
  top: "probs"
}
layer {
  name: "loss"
  type: "SoftmaxWithLoss"
  bottom: "quantized_fc8"
  bottom: "label"
  top: "loss"
}
layer {
  name: "acc_top1"
  type: "Accuracy"
  bottom: "quantized_fc8"
  bottom: "label"
  top: "acc_top1"
  accuracy_param {
    top_k: 1
  }
}
layer {
  name: "acc_top5"
  type: "Accuracy"
  bottom: "quantized_fc8"
  bottom: "label"
  top: "acc_top5"
  accuracy_param {
    top_k: 5
  }
}
I1221 21:04:06.787799  7098 layer_factory.hpp:77] Creating layer data
I1221 21:04:06.886569  7098 db_lmdb.cpp:35] Opened lmdb /home/ydwu/database/imagenet/ilsvrc12/lmdb_resize/ilsvrc12_val_lmdb/
I1221 21:04:06.886600  7098 net.cpp:84] Creating Layer data
I1221 21:04:06.886610  7098 net.cpp:382] data -> data
I1221 21:04:06.886623  7098 net.cpp:382] data -> label
I1221 21:04:06.886633  7098 net.cpp:110] =========1
I1221 21:04:06.886639  7098 net.cpp:121] =========2
I1221 21:04:06.886646  7098 layer.hpp:70] =========3
I1221 21:04:06.886652  7098 data_transformer.cpp:25] Loading mean file from: /home/ydwu/database/imagenet/ilsvrc12/imagenet_mean.binaryproto
I1221 21:04:06.890733  7098 data_layer.cpp:45] output data size: 20,3,227,227
I1221 21:04:06.904224  7098 net.cpp:124] Setting up data
I1221 21:04:06.904287  7098 net.cpp:131] Top shape: 20 3 227 227 (3091740)
I1221 21:04:06.904297  7098 net.cpp:131] Top shape: 20 (20)
I1221 21:04:06.904304  7098 net.cpp:139] Memory required for data: 12367040
I1221 21:04:06.904316  7098 layer_factory.hpp:77] Creating layer label_data_1_split
I1221 21:04:06.904345  7098 net.cpp:84] Creating Layer label_data_1_split
I1221 21:04:06.904355  7098 net.cpp:408] label_data_1_split <- label
I1221 21:04:06.904366  7098 net.cpp:382] label_data_1_split -> label_data_1_split_0
I1221 21:04:06.904386  7098 net.cpp:382] label_data_1_split -> label_data_1_split_1
I1221 21:04:06.904397  7098 net.cpp:382] label_data_1_split -> label_data_1_split_2
I1221 21:04:06.904405  7098 net.cpp:110] =========1
I1221 21:04:06.904412  7098 net.cpp:121] =========2
I1221 21:04:06.904418  7098 layer.hpp:70] =========3
I1221 21:04:06.904441  7098 net.cpp:124] Setting up label_data_1_split
I1221 21:04:06.904462  7098 net.cpp:131] Top shape: 20 (20)
I1221 21:04:06.904470  7098 net.cpp:131] Top shape: 20 (20)
I1221 21:04:06.904477  7098 net.cpp:131] Top shape: 20 (20)
I1221 21:04:06.904482  7098 net.cpp:139] Memory required for data: 12367280
I1221 21:04:06.904489  7098 layer_factory.hpp:77] Creating layer quantized_data
I1221 21:04:06.904501  7098 net.cpp:84] Creating Layer quantized_data
I1221 21:04:06.904508  7098 net.cpp:408] quantized_data <- data
I1221 21:04:06.904520  7098 net.cpp:382] quantized_data -> quantized_data
I1221 21:04:06.904530  7098 net.cpp:110] =========1
I1221 21:04:06.904536  7098 net.cpp:121] =========2
I1221 21:04:06.904541  7098 layer.hpp:70] =========3
I1221 21:04:06.904547  7098 net.cpp:124] Setting up quantized_data
I1221 21:04:06.904556  7098 net.cpp:131] Top shape: 20 3 227 227 (3091740)
I1221 21:04:06.904561  7098 net.cpp:139] Memory required for data: 24734240
I1221 21:04:06.904567  7098 layer_factory.hpp:77] Creating layer conv1
I1221 21:04:06.904585  7098 net.cpp:84] Creating Layer conv1
I1221 21:04:06.904593  7098 net.cpp:408] conv1 <- quantized_data
I1221 21:04:06.904603  7098 net.cpp:382] conv1 -> conv1
I1221 21:04:06.904614  7098 net.cpp:110] =========1
I1221 21:04:06.904620  7098 net.cpp:121] =========2
I1221 21:04:06.904626  7098 layer.hpp:70] =========3
I1221 21:04:06.905685  7098 net.cpp:124] Setting up conv1
I1221 21:04:06.905699  7098 net.cpp:131] Top shape: 20 96 55 55 (5808000)
I1221 21:04:06.905705  7098 net.cpp:139] Memory required for data: 47966240
I1221 21:04:06.905719  7098 layer_factory.hpp:77] Creating layer quantized_conv1
I1221 21:04:06.905732  7098 net.cpp:84] Creating Layer quantized_conv1
I1221 21:04:06.905740  7098 net.cpp:408] quantized_conv1 <- conv1
I1221 21:04:06.905747  7098 net.cpp:382] quantized_conv1 -> quantized_conv1
I1221 21:04:06.905756  7098 net.cpp:110] =========1
I1221 21:04:06.905762  7098 net.cpp:121] =========2
I1221 21:04:06.905768  7098 layer.hpp:70] =========3
I1221 21:04:06.905774  7098 net.cpp:124] Setting up quantized_conv1
I1221 21:04:06.905781  7098 net.cpp:131] Top shape: 20 96 55 55 (5808000)
I1221 21:04:06.905787  7098 net.cpp:139] Memory required for data: 71198240
I1221 21:04:06.905793  7098 layer_factory.hpp:77] Creating layer relu1
I1221 21:04:06.905807  7098 net.cpp:84] Creating Layer relu1
I1221 21:04:06.905813  7098 net.cpp:408] relu1 <- quantized_conv1
I1221 21:04:06.905822  7098 net.cpp:382] relu1 -> relu1
I1221 21:04:06.905830  7098 net.cpp:110] =========1
I1221 21:04:06.905836  7098 net.cpp:121] =========2
I1221 21:04:06.905841  7098 layer.hpp:70] =========3
I1221 21:04:06.905848  7098 net.cpp:124] Setting up relu1
I1221 21:04:06.905855  7098 net.cpp:131] Top shape: 20 96 55 55 (5808000)
I1221 21:04:06.905861  7098 net.cpp:139] Memory required for data: 94430240
I1221 21:04:06.905867  7098 layer_factory.hpp:77] Creating layer quantized_relu1
I1221 21:04:06.905879  7098 net.cpp:84] Creating Layer quantized_relu1
I1221 21:04:06.905885  7098 net.cpp:408] quantized_relu1 <- relu1
I1221 21:04:06.905894  7098 net.cpp:382] quantized_relu1 -> quantized_relu1
I1221 21:04:06.905901  7098 net.cpp:110] =========1
I1221 21:04:06.905907  7098 net.cpp:121] =========2
I1221 21:04:06.905913  7098 layer.hpp:70] =========3
I1221 21:04:06.905920  7098 net.cpp:124] Setting up quantized_relu1
I1221 21:04:06.905926  7098 net.cpp:131] Top shape: 20 96 55 55 (5808000)
I1221 21:04:06.905932  7098 net.cpp:139] Memory required for data: 117662240
I1221 21:04:06.905938  7098 layer_factory.hpp:77] Creating layer pool1
I1221 21:04:06.905951  7098 net.cpp:84] Creating Layer pool1
I1221 21:04:06.905958  7098 net.cpp:408] pool1 <- quantized_relu1
I1221 21:04:06.905966  7098 net.cpp:382] pool1 -> pool1
I1221 21:04:06.905974  7098 net.cpp:110] =========1
I1221 21:04:06.905980  7098 net.cpp:121] =========2
I1221 21:04:06.905985  7098 layer.hpp:70] =========3
I1221 21:04:06.905995  7098 net.cpp:124] Setting up pool1
I1221 21:04:06.906002  7098 net.cpp:131] Top shape: 20 96 27 27 (1399680)
I1221 21:04:06.906013  7098 net.cpp:139] Memory required for data: 123260960
I1221 21:04:06.906026  7098 layer_factory.hpp:77] Creating layer quantized_pool1
I1221 21:04:06.906039  7098 net.cpp:84] Creating Layer quantized_pool1
I1221 21:04:06.906046  7098 net.cpp:408] quantized_pool1 <- pool1
I1221 21:04:06.906054  7098 net.cpp:382] quantized_pool1 -> quantized_pool1
I1221 21:04:06.906064  7098 net.cpp:110] =========1
I1221 21:04:06.906069  7098 net.cpp:121] =========2
I1221 21:04:06.906075  7098 layer.hpp:70] =========3
I1221 21:04:06.906080  7098 net.cpp:124] Setting up quantized_pool1
I1221 21:04:06.906087  7098 net.cpp:131] Top shape: 20 96 27 27 (1399680)
I1221 21:04:06.906093  7098 net.cpp:139] Memory required for data: 128859680
I1221 21:04:06.906100  7098 layer_factory.hpp:77] Creating layer norm1
I1221 21:04:06.906111  7098 net.cpp:84] Creating Layer norm1
I1221 21:04:06.906118  7098 net.cpp:408] norm1 <- quantized_pool1
I1221 21:04:06.906126  7098 net.cpp:382] norm1 -> norm1
I1221 21:04:06.906134  7098 net.cpp:110] =========1
I1221 21:04:06.906141  7098 net.cpp:121] =========2
I1221 21:04:06.906147  7098 layer.hpp:70] =========3
I1221 21:04:06.906153  7098 net.cpp:124] Setting up norm1
I1221 21:04:06.906160  7098 net.cpp:131] Top shape: 20 96 27 27 (1399680)
I1221 21:04:06.906167  7098 net.cpp:139] Memory required for data: 134458400
I1221 21:04:06.906173  7098 layer_factory.hpp:77] Creating layer quantized_norm1
I1221 21:04:06.906183  7098 net.cpp:84] Creating Layer quantized_norm1
I1221 21:04:06.906190  7098 net.cpp:408] quantized_norm1 <- norm1
I1221 21:04:06.906198  7098 net.cpp:382] quantized_norm1 -> quantized_norm1
I1221 21:04:06.906206  7098 net.cpp:110] =========1
I1221 21:04:06.906214  7098 net.cpp:121] =========2
I1221 21:04:06.906220  7098 layer.hpp:70] =========3
I1221 21:04:06.906226  7098 net.cpp:124] Setting up quantized_norm1
I1221 21:04:06.906234  7098 net.cpp:131] Top shape: 20 96 27 27 (1399680)
I1221 21:04:06.906239  7098 net.cpp:139] Memory required for data: 140057120
I1221 21:04:06.906245  7098 layer_factory.hpp:77] Creating layer conv2
I1221 21:04:06.906256  7098 net.cpp:84] Creating Layer conv2
I1221 21:04:06.906263  7098 net.cpp:408] conv2 <- quantized_norm1
I1221 21:04:06.906273  7098 net.cpp:382] conv2 -> conv2
I1221 21:04:06.906283  7098 net.cpp:110] =========1
I1221 21:04:06.906291  7098 net.cpp:121] =========2
I1221 21:04:06.906296  7098 layer.hpp:70] =========3
I1221 21:04:06.915436  7098 net.cpp:124] Setting up conv2
I1221 21:04:06.915452  7098 net.cpp:131] Top shape: 20 256 27 27 (3732480)
I1221 21:04:06.915458  7098 net.cpp:139] Memory required for data: 154987040
I1221 21:04:06.915468  7098 layer_factory.hpp:77] Creating layer quantized_conv2
I1221 21:04:06.915482  7098 net.cpp:84] Creating Layer quantized_conv2
I1221 21:04:06.915488  7098 net.cpp:408] quantized_conv2 <- conv2
I1221 21:04:06.915498  7098 net.cpp:382] quantized_conv2 -> quantized_conv2
I1221 21:04:06.915506  7098 net.cpp:110] =========1
I1221 21:04:06.915513  7098 net.cpp:121] =========2
I1221 21:04:06.915518  7098 layer.hpp:70] =========3
I1221 21:04:06.915524  7098 net.cpp:124] Setting up quantized_conv2
I1221 21:04:06.915531  7098 net.cpp:131] Top shape: 20 256 27 27 (3732480)
I1221 21:04:06.915537  7098 net.cpp:139] Memory required for data: 169916960
I1221 21:04:06.915544  7098 layer_factory.hpp:77] Creating layer relu2
I1221 21:04:06.915558  7098 net.cpp:84] Creating Layer relu2
I1221 21:04:06.915565  7098 net.cpp:408] relu2 <- quantized_conv2
I1221 21:04:06.915573  7098 net.cpp:382] relu2 -> relu2
I1221 21:04:06.915582  7098 net.cpp:110] =========1
I1221 21:04:06.915588  7098 net.cpp:121] =========2
I1221 21:04:06.915593  7098 layer.hpp:70] =========3
I1221 21:04:06.915599  7098 net.cpp:124] Setting up relu2
I1221 21:04:06.915607  7098 net.cpp:131] Top shape: 20 256 27 27 (3732480)
I1221 21:04:06.915613  7098 net.cpp:139] Memory required for data: 184846880
I1221 21:04:06.915619  7098 layer_factory.hpp:77] Creating layer quantized_relu2
I1221 21:04:06.915630  7098 net.cpp:84] Creating Layer quantized_relu2
I1221 21:04:06.915642  7098 net.cpp:408] quantized_relu2 <- relu2
I1221 21:04:06.915658  7098 net.cpp:382] quantized_relu2 -> quantized_relu2
I1221 21:04:06.915668  7098 net.cpp:110] =========1
I1221 21:04:06.915673  7098 net.cpp:121] =========2
I1221 21:04:06.915678  7098 layer.hpp:70] =========3
I1221 21:04:06.915685  7098 net.cpp:124] Setting up quantized_relu2
I1221 21:04:06.915693  7098 net.cpp:131] Top shape: 20 256 27 27 (3732480)
I1221 21:04:06.915699  7098 net.cpp:139] Memory required for data: 199776800
I1221 21:04:06.915704  7098 layer_factory.hpp:77] Creating layer pool2
I1221 21:04:06.915715  7098 net.cpp:84] Creating Layer pool2
I1221 21:04:06.915721  7098 net.cpp:408] pool2 <- quantized_relu2
I1221 21:04:06.915729  7098 net.cpp:382] pool2 -> pool2
I1221 21:04:06.915737  7098 net.cpp:110] =========1
I1221 21:04:06.915743  7098 net.cpp:121] =========2
I1221 21:04:06.915750  7098 layer.hpp:70] =========3
I1221 21:04:06.915756  7098 net.cpp:124] Setting up pool2
I1221 21:04:06.915765  7098 net.cpp:131] Top shape: 20 256 13 13 (865280)
I1221 21:04:06.915769  7098 net.cpp:139] Memory required for data: 203237920
I1221 21:04:06.915776  7098 layer_factory.hpp:77] Creating layer quantized_pool2
I1221 21:04:06.915788  7098 net.cpp:84] Creating Layer quantized_pool2
I1221 21:04:06.915796  7098 net.cpp:408] quantized_pool2 <- pool2
I1221 21:04:06.915802  7098 net.cpp:382] quantized_pool2 -> quantized_pool2
I1221 21:04:06.915812  7098 net.cpp:110] =========1
I1221 21:04:06.915817  7098 net.cpp:121] =========2
I1221 21:04:06.915822  7098 layer.hpp:70] =========3
I1221 21:04:06.915828  7098 net.cpp:124] Setting up quantized_pool2
I1221 21:04:06.915835  7098 net.cpp:131] Top shape: 20 256 13 13 (865280)
I1221 21:04:06.915841  7098 net.cpp:139] Memory required for data: 206699040
I1221 21:04:06.915848  7098 layer_factory.hpp:77] Creating layer norm2
I1221 21:04:06.915858  7098 net.cpp:84] Creating Layer norm2
I1221 21:04:06.915864  7098 net.cpp:408] norm2 <- quantized_pool2
I1221 21:04:06.915873  7098 net.cpp:382] norm2 -> norm2
I1221 21:04:06.915880  7098 net.cpp:110] =========1
I1221 21:04:06.915886  7098 net.cpp:121] =========2
I1221 21:04:06.915892  7098 layer.hpp:70] =========3
I1221 21:04:06.915899  7098 net.cpp:124] Setting up norm2
I1221 21:04:06.915906  7098 net.cpp:131] Top shape: 20 256 13 13 (865280)
I1221 21:04:06.915912  7098 net.cpp:139] Memory required for data: 210160160
I1221 21:04:06.915918  7098 layer_factory.hpp:77] Creating layer quantized_norm2
I1221 21:04:06.915928  7098 net.cpp:84] Creating Layer quantized_norm2
I1221 21:04:06.915935  7098 net.cpp:408] quantized_norm2 <- norm2
I1221 21:04:06.915946  7098 net.cpp:382] quantized_norm2 -> quantized_norm2
I1221 21:04:06.915953  7098 net.cpp:110] =========1
I1221 21:04:06.915959  7098 net.cpp:121] =========2
I1221 21:04:06.915966  7098 layer.hpp:70] =========3
I1221 21:04:06.915971  7098 net.cpp:124] Setting up quantized_norm2
I1221 21:04:06.915979  7098 net.cpp:131] Top shape: 20 256 13 13 (865280)
I1221 21:04:06.915985  7098 net.cpp:139] Memory required for data: 213621280
I1221 21:04:06.915992  7098 layer_factory.hpp:77] Creating layer conv3
I1221 21:04:06.916002  7098 net.cpp:84] Creating Layer conv3
I1221 21:04:06.916008  7098 net.cpp:408] conv3 <- quantized_norm2
I1221 21:04:06.916019  7098 net.cpp:382] conv3 -> conv3
I1221 21:04:06.916028  7098 net.cpp:110] =========1
I1221 21:04:06.916034  7098 net.cpp:121] =========2
I1221 21:04:06.916040  7098 layer.hpp:70] =========3
I1221 21:04:06.941578  7098 net.cpp:124] Setting up conv3
I1221 21:04:06.941596  7098 net.cpp:131] Top shape: 20 384 13 13 (1297920)
I1221 21:04:06.941602  7098 net.cpp:139] Memory required for data: 218812960
I1221 21:04:06.941613  7098 layer_factory.hpp:77] Creating layer quantized_conv3
I1221 21:04:06.941623  7098 net.cpp:84] Creating Layer quantized_conv3
I1221 21:04:06.941630  7098 net.cpp:408] quantized_conv3 <- conv3
I1221 21:04:06.941642  7098 net.cpp:382] quantized_conv3 -> quantized_conv3
I1221 21:04:06.941650  7098 net.cpp:110] =========1
I1221 21:04:06.941656  7098 net.cpp:121] =========2
I1221 21:04:06.941668  7098 layer.hpp:70] =========3
I1221 21:04:06.941681  7098 net.cpp:124] Setting up quantized_conv3
I1221 21:04:06.941689  7098 net.cpp:131] Top shape: 20 384 13 13 (1297920)
I1221 21:04:06.941695  7098 net.cpp:139] Memory required for data: 224004640
I1221 21:04:06.941702  7098 layer_factory.hpp:77] Creating layer relu3
I1221 21:04:06.941710  7098 net.cpp:84] Creating Layer relu3
I1221 21:04:06.941716  7098 net.cpp:408] relu3 <- quantized_conv3
I1221 21:04:06.941730  7098 net.cpp:382] relu3 -> relu3
I1221 21:04:06.941740  7098 net.cpp:110] =========1
I1221 21:04:06.941745  7098 net.cpp:121] =========2
I1221 21:04:06.941751  7098 layer.hpp:70] =========3
I1221 21:04:06.941757  7098 net.cpp:124] Setting up relu3
I1221 21:04:06.941764  7098 net.cpp:131] Top shape: 20 384 13 13 (1297920)
I1221 21:04:06.941771  7098 net.cpp:139] Memory required for data: 229196320
I1221 21:04:06.941777  7098 layer_factory.hpp:77] Creating layer quantized_relu3
I1221 21:04:06.941785  7098 net.cpp:84] Creating Layer quantized_relu3
I1221 21:04:06.941792  7098 net.cpp:408] quantized_relu3 <- relu3
I1221 21:04:06.941798  7098 net.cpp:382] quantized_relu3 -> quantized_relu3
I1221 21:04:06.941807  7098 net.cpp:110] =========1
I1221 21:04:06.941813  7098 net.cpp:121] =========2
I1221 21:04:06.941818  7098 layer.hpp:70] =========3
I1221 21:04:06.941824  7098 net.cpp:124] Setting up quantized_relu3
I1221 21:04:06.941831  7098 net.cpp:131] Top shape: 20 384 13 13 (1297920)
I1221 21:04:06.941838  7098 net.cpp:139] Memory required for data: 234388000
I1221 21:04:06.941844  7098 layer_factory.hpp:77] Creating layer conv4
I1221 21:04:06.941859  7098 net.cpp:84] Creating Layer conv4
I1221 21:04:06.941866  7098 net.cpp:408] conv4 <- quantized_relu3
I1221 21:04:06.941877  7098 net.cpp:382] conv4 -> conv4
I1221 21:04:06.941887  7098 net.cpp:110] =========1
I1221 21:04:06.941893  7098 net.cpp:121] =========2
I1221 21:04:06.941900  7098 layer.hpp:70] =========3
I1221 21:04:06.961452  7098 net.cpp:124] Setting up conv4
I1221 21:04:06.961472  7098 net.cpp:131] Top shape: 20 384 13 13 (1297920)
I1221 21:04:06.961478  7098 net.cpp:139] Memory required for data: 239579680
I1221 21:04:06.961488  7098 layer_factory.hpp:77] Creating layer quantized_conv4
I1221 21:04:06.961499  7098 net.cpp:84] Creating Layer quantized_conv4
I1221 21:04:06.961506  7098 net.cpp:408] quantized_conv4 <- conv4
I1221 21:04:06.961521  7098 net.cpp:382] quantized_conv4 -> quantized_conv4
I1221 21:04:06.961531  7098 net.cpp:110] =========1
I1221 21:04:06.961537  7098 net.cpp:121] =========2
I1221 21:04:06.961544  7098 layer.hpp:70] =========3
I1221 21:04:06.961549  7098 net.cpp:124] Setting up quantized_conv4
I1221 21:04:06.961556  7098 net.cpp:131] Top shape: 20 384 13 13 (1297920)
I1221 21:04:06.961562  7098 net.cpp:139] Memory required for data: 244771360
I1221 21:04:06.961568  7098 layer_factory.hpp:77] Creating layer relu4
I1221 21:04:06.961576  7098 net.cpp:84] Creating Layer relu4
I1221 21:04:06.961582  7098 net.cpp:408] relu4 <- quantized_conv4
I1221 21:04:06.961591  7098 net.cpp:382] relu4 -> relu4
I1221 21:04:06.961598  7098 net.cpp:110] =========1
I1221 21:04:06.961604  7098 net.cpp:121] =========2
I1221 21:04:06.961609  7098 layer.hpp:70] =========3
I1221 21:04:06.961616  7098 net.cpp:124] Setting up relu4
I1221 21:04:06.961622  7098 net.cpp:131] Top shape: 20 384 13 13 (1297920)
I1221 21:04:06.961628  7098 net.cpp:139] Memory required for data: 249963040
I1221 21:04:06.961635  7098 layer_factory.hpp:77] Creating layer quantized_relu4
I1221 21:04:06.961645  7098 net.cpp:84] Creating Layer quantized_relu4
I1221 21:04:06.961652  7098 net.cpp:408] quantized_relu4 <- relu4
I1221 21:04:06.961660  7098 net.cpp:382] quantized_relu4 -> quantized_relu4
I1221 21:04:06.961669  7098 net.cpp:110] =========1
I1221 21:04:06.961674  7098 net.cpp:121] =========2
I1221 21:04:06.961680  7098 layer.hpp:70] =========3
I1221 21:04:06.961686  7098 net.cpp:124] Setting up quantized_relu4
I1221 21:04:06.961694  7098 net.cpp:131] Top shape: 20 384 13 13 (1297920)
I1221 21:04:06.961705  7098 net.cpp:139] Memory required for data: 255154720
I1221 21:04:06.961724  7098 layer_factory.hpp:77] Creating layer conv5
I1221 21:04:06.961737  7098 net.cpp:84] Creating Layer conv5
I1221 21:04:06.961745  7098 net.cpp:408] conv5 <- quantized_relu4
I1221 21:04:06.961755  7098 net.cpp:382] conv5 -> conv5
I1221 21:04:06.961766  7098 net.cpp:110] =========1
I1221 21:04:06.961771  7098 net.cpp:121] =========2
I1221 21:04:06.961777  7098 layer.hpp:70] =========3
I1221 21:04:06.974793  7098 net.cpp:124] Setting up conv5
I1221 21:04:06.974812  7098 net.cpp:131] Top shape: 20 256 13 13 (865280)
I1221 21:04:06.974817  7098 net.cpp:139] Memory required for data: 258615840
I1221 21:04:06.974831  7098 layer_factory.hpp:77] Creating layer quantized_conv5
I1221 21:04:06.974843  7098 net.cpp:84] Creating Layer quantized_conv5
I1221 21:04:06.974849  7098 net.cpp:408] quantized_conv5 <- conv5
I1221 21:04:06.974858  7098 net.cpp:382] quantized_conv5 -> quantized_conv5
I1221 21:04:06.974866  7098 net.cpp:110] =========1
I1221 21:04:06.974872  7098 net.cpp:121] =========2
I1221 21:04:06.974879  7098 layer.hpp:70] =========3
I1221 21:04:06.974884  7098 net.cpp:124] Setting up quantized_conv5
I1221 21:04:06.974891  7098 net.cpp:131] Top shape: 20 256 13 13 (865280)
I1221 21:04:06.974897  7098 net.cpp:139] Memory required for data: 262076960
I1221 21:04:06.974903  7098 layer_factory.hpp:77] Creating layer relu5
I1221 21:04:06.974911  7098 net.cpp:84] Creating Layer relu5
I1221 21:04:06.974917  7098 net.cpp:408] relu5 <- quantized_conv5
I1221 21:04:06.974927  7098 net.cpp:382] relu5 -> relu5
I1221 21:04:06.974937  7098 net.cpp:110] =========1
I1221 21:04:06.974946  7098 net.cpp:121] =========2
I1221 21:04:06.974952  7098 layer.hpp:70] =========3
I1221 21:04:06.974964  7098 net.cpp:124] Setting up relu5
I1221 21:04:06.974972  7098 net.cpp:131] Top shape: 20 256 13 13 (865280)
I1221 21:04:06.974978  7098 net.cpp:139] Memory required for data: 265538080
I1221 21:04:06.974984  7098 layer_factory.hpp:77] Creating layer quantized_relu5
I1221 21:04:06.974993  7098 net.cpp:84] Creating Layer quantized_relu5
I1221 21:04:06.974999  7098 net.cpp:408] quantized_relu5 <- relu5
I1221 21:04:06.975008  7098 net.cpp:382] quantized_relu5 -> quantized_relu5
I1221 21:04:06.975019  7098 net.cpp:110] =========1
I1221 21:04:06.975026  7098 net.cpp:121] =========2
I1221 21:04:06.975031  7098 layer.hpp:70] =========3
I1221 21:04:06.975039  7098 net.cpp:124] Setting up quantized_relu5
I1221 21:04:06.975045  7098 net.cpp:131] Top shape: 20 256 13 13 (865280)
I1221 21:04:06.975051  7098 net.cpp:139] Memory required for data: 268999200
I1221 21:04:06.975059  7098 layer_factory.hpp:77] Creating layer pool5
I1221 21:04:06.975080  7098 net.cpp:84] Creating Layer pool5
I1221 21:04:06.975095  7098 net.cpp:408] pool5 <- quantized_relu5
I1221 21:04:06.975111  7098 net.cpp:382] pool5 -> pool5
I1221 21:04:06.975121  7098 net.cpp:110] =========1
I1221 21:04:06.975126  7098 net.cpp:121] =========2
I1221 21:04:06.975132  7098 layer.hpp:70] =========3
I1221 21:04:06.975142  7098 net.cpp:124] Setting up pool5
I1221 21:04:06.975155  7098 net.cpp:131] Top shape: 20 256 6 6 (184320)
I1221 21:04:06.975162  7098 net.cpp:139] Memory required for data: 269736480
I1221 21:04:06.975168  7098 layer_factory.hpp:77] Creating layer quantized_pool5
I1221 21:04:06.975179  7098 net.cpp:84] Creating Layer quantized_pool5
I1221 21:04:06.975185  7098 net.cpp:408] quantized_pool5 <- pool5
I1221 21:04:06.975193  7098 net.cpp:382] quantized_pool5 -> quantized_pool5
I1221 21:04:06.975201  7098 net.cpp:110] =========1
I1221 21:04:06.975208  7098 net.cpp:121] =========2
I1221 21:04:06.975212  7098 layer.hpp:70] =========3
I1221 21:04:06.975219  7098 net.cpp:124] Setting up quantized_pool5
I1221 21:04:06.975226  7098 net.cpp:131] Top shape: 20 256 6 6 (184320)
I1221 21:04:06.975232  7098 net.cpp:139] Memory required for data: 270473760
I1221 21:04:06.975239  7098 layer_factory.hpp:77] Creating layer fc6
I1221 21:04:06.975251  7098 net.cpp:84] Creating Layer fc6
I1221 21:04:06.975282  7098 net.cpp:408] fc6 <- quantized_pool5
I1221 21:04:06.975308  7098 net.cpp:382] fc6 -> fc6
I1221 21:04:06.975320  7098 net.cpp:110] =========1
I1221 21:04:06.975327  7098 net.cpp:121] =========2
I1221 21:04:06.975332  7098 layer.hpp:70] =========3
I1221 21:04:06.975338  7098 quan_inner_product_layer.cpp:21] 4096   4096
I1221 21:04:06.975344  7098 quan_inner_product_layer.cpp:46] 4096+++++9216++++0
I1221 21:04:06.975350  7098 quan_inner_product_layer.cpp:48] =========4
I1221 21:04:06.975356  7098 quan_inner_product_layer.cpp:52] =========5
I1221 21:04:08.061554  7098 quan_inner_product_layer.cpp:54] =========6
I1221 21:04:08.061651  7098 net.cpp:124] Setting up fc6
I1221 21:04:08.061668  7098 net.cpp:131] Top shape: 20 4096 (81920)
I1221 21:04:08.061674  7098 net.cpp:139] Memory required for data: 270801440
I1221 21:04:08.061689  7098 layer_factory.hpp:77] Creating layer quantized_fc6
I1221 21:04:08.061710  7098 net.cpp:84] Creating Layer quantized_fc6
I1221 21:04:08.061720  7098 net.cpp:408] quantized_fc6 <- fc6
I1221 21:04:08.061734  7098 net.cpp:382] quantized_fc6 -> quantized_fc6
I1221 21:04:08.061748  7098 net.cpp:110] =========1
I1221 21:04:08.061755  7098 net.cpp:121] =========2
I1221 21:04:08.061761  7098 layer.hpp:70] =========3
I1221 21:04:08.061769  7098 net.cpp:124] Setting up quantized_fc6
I1221 21:04:08.061776  7098 net.cpp:131] Top shape: 20 4096 (81920)
I1221 21:04:08.061782  7098 net.cpp:139] Memory required for data: 271129120
I1221 21:04:08.061789  7098 layer_factory.hpp:77] Creating layer relu6
I1221 21:04:08.061800  7098 net.cpp:84] Creating Layer relu6
I1221 21:04:08.061805  7098 net.cpp:408] relu6 <- quantized_fc6
I1221 21:04:08.061815  7098 net.cpp:382] relu6 -> relu6
I1221 21:04:08.061823  7098 net.cpp:110] =========1
I1221 21:04:08.061830  7098 net.cpp:121] =========2
I1221 21:04:08.061836  7098 layer.hpp:70] =========3
I1221 21:04:08.061841  7098 net.cpp:124] Setting up relu6
I1221 21:04:08.061849  7098 net.cpp:131] Top shape: 20 4096 (81920)
I1221 21:04:08.061856  7098 net.cpp:139] Memory required for data: 271456800
I1221 21:04:08.061862  7098 layer_factory.hpp:77] Creating layer quantized_relu6
I1221 21:04:08.061870  7098 net.cpp:84] Creating Layer quantized_relu6
I1221 21:04:08.061877  7098 net.cpp:408] quantized_relu6 <- relu6
I1221 21:04:08.061889  7098 net.cpp:382] quantized_relu6 -> quantized_relu6
I1221 21:04:08.061899  7098 net.cpp:110] =========1
I1221 21:04:08.061905  7098 net.cpp:121] =========2
I1221 21:04:08.061911  7098 layer.hpp:70] =========3
I1221 21:04:08.061918  7098 net.cpp:124] Setting up quantized_relu6
I1221 21:04:08.061925  7098 net.cpp:131] Top shape: 20 4096 (81920)
I1221 21:04:08.061931  7098 net.cpp:139] Memory required for data: 271784480
I1221 21:04:08.061939  7098 layer_factory.hpp:77] Creating layer fc7
I1221 21:04:08.061950  7098 net.cpp:84] Creating Layer fc7
I1221 21:04:08.061957  7098 net.cpp:408] fc7 <- quantized_relu6
I1221 21:04:08.061965  7098 net.cpp:382] fc7 -> fc7
I1221 21:04:08.061976  7098 net.cpp:110] =========1
I1221 21:04:08.061982  7098 net.cpp:121] =========2
I1221 21:04:08.061988  7098 layer.hpp:70] =========3
I1221 21:04:08.061995  7098 quan_inner_product_layer.cpp:21] 4096   4096
I1221 21:04:08.062001  7098 quan_inner_product_layer.cpp:46] 4096+++++4096++++0
I1221 21:04:08.062007  7098 quan_inner_product_layer.cpp:48] =========4
I1221 21:04:08.062014  7098 quan_inner_product_layer.cpp:52] =========5
I1221 21:04:08.557426  7098 quan_inner_product_layer.cpp:54] =========6
I1221 21:04:08.557523  7098 net.cpp:124] Setting up fc7
I1221 21:04:08.557539  7098 net.cpp:131] Top shape: 20 4096 (81920)
I1221 21:04:08.557546  7098 net.cpp:139] Memory required for data: 272112160
I1221 21:04:08.557560  7098 layer_factory.hpp:77] Creating layer quantized_fc7
I1221 21:04:08.557585  7098 net.cpp:84] Creating Layer quantized_fc7
I1221 21:04:08.557595  7098 net.cpp:408] quantized_fc7 <- fc7
I1221 21:04:08.557608  7098 net.cpp:382] quantized_fc7 -> quantized_fc7
I1221 21:04:08.557623  7098 net.cpp:110] =========1
I1221 21:04:08.557629  7098 net.cpp:121] =========2
I1221 21:04:08.557649  7098 layer.hpp:70] =========3
I1221 21:04:08.557672  7098 net.cpp:124] Setting up quantized_fc7
I1221 21:04:08.557679  7098 net.cpp:131] Top shape: 20 4096 (81920)
I1221 21:04:08.557685  7098 net.cpp:139] Memory required for data: 272439840
I1221 21:04:08.557693  7098 layer_factory.hpp:77] Creating layer relu7
I1221 21:04:08.557701  7098 net.cpp:84] Creating Layer relu7
I1221 21:04:08.557708  7098 net.cpp:408] relu7 <- quantized_fc7
I1221 21:04:08.557718  7098 net.cpp:382] relu7 -> relu7
I1221 21:04:08.557726  7098 net.cpp:110] =========1
I1221 21:04:08.557732  7098 net.cpp:121] =========2
I1221 21:04:08.557739  7098 layer.hpp:70] =========3
I1221 21:04:08.557744  7098 net.cpp:124] Setting up relu7
I1221 21:04:08.557752  7098 net.cpp:131] Top shape: 20 4096 (81920)
I1221 21:04:08.557759  7098 net.cpp:139] Memory required for data: 272767520
I1221 21:04:08.557765  7098 layer_factory.hpp:77] Creating layer quantized_relu7
I1221 21:04:08.557775  7098 net.cpp:84] Creating Layer quantized_relu7
I1221 21:04:08.557782  7098 net.cpp:408] quantized_relu7 <- relu7
I1221 21:04:08.557792  7098 net.cpp:382] quantized_relu7 -> quantized_relu7
I1221 21:04:08.557801  7098 net.cpp:110] =========1
I1221 21:04:08.557807  7098 net.cpp:121] =========2
I1221 21:04:08.557813  7098 layer.hpp:70] =========3
I1221 21:04:08.557819  7098 net.cpp:124] Setting up quantized_relu7
I1221 21:04:08.557826  7098 net.cpp:131] Top shape: 20 4096 (81920)
I1221 21:04:08.557832  7098 net.cpp:139] Memory required for data: 273095200
I1221 21:04:08.557839  7098 layer_factory.hpp:77] Creating layer fc8
I1221 21:04:08.557849  7098 net.cpp:84] Creating Layer fc8
I1221 21:04:08.557857  7098 net.cpp:408] fc8 <- quantized_relu7
I1221 21:04:08.557864  7098 net.cpp:382] fc8 -> fc8
I1221 21:04:08.557874  7098 net.cpp:110] =========1
I1221 21:04:08.557881  7098 net.cpp:121] =========2
I1221 21:04:08.557888  7098 layer.hpp:70] =========3
I1221 21:04:08.557893  7098 quan_inner_product_layer.cpp:21] 1000   1000
I1221 21:04:08.557899  7098 quan_inner_product_layer.cpp:46] 1000+++++4096++++8
I1221 21:04:08.557906  7098 quan_inner_product_layer.cpp:48] =========4
I1221 21:04:08.557912  7098 quan_inner_product_layer.cpp:52] =========5
I1221 21:04:08.564831  7098 quan_inner_product_layer.cpp:54] =========6
I1221 21:04:08.564913  7098 net.cpp:124] Setting up fc8
I1221 21:04:08.564930  7098 net.cpp:131] Top shape: 20 1000 (20000)
I1221 21:04:08.564936  7098 net.cpp:139] Memory required for data: 273175200
I1221 21:04:08.564951  7098 layer_factory.hpp:77] Creating layer quantized_fc8
I1221 21:04:08.564967  7098 net.cpp:84] Creating Layer quantized_fc8
I1221 21:04:08.564977  7098 net.cpp:408] quantized_fc8 <- fc8
I1221 21:04:08.564992  7098 net.cpp:382] quantized_fc8 -> quantized_fc8
I1221 21:04:08.565007  7098 net.cpp:110] =========1
I1221 21:04:08.565013  7098 net.cpp:121] =========2
I1221 21:04:08.565021  7098 layer.hpp:70] =========3
I1221 21:04:08.565027  7098 net.cpp:124] Setting up quantized_fc8
I1221 21:04:08.565035  7098 net.cpp:131] Top shape: 20 1000 (20000)
I1221 21:04:08.565042  7098 net.cpp:139] Memory required for data: 273255200
I1221 21:04:08.565047  7098 layer_factory.hpp:77] Creating layer quantized_fc8_quantized_fc8_0_split
I1221 21:04:08.565057  7098 net.cpp:84] Creating Layer quantized_fc8_quantized_fc8_0_split
I1221 21:04:08.565064  7098 net.cpp:408] quantized_fc8_quantized_fc8_0_split <- quantized_fc8
I1221 21:04:08.565073  7098 net.cpp:382] quantized_fc8_quantized_fc8_0_split -> quantized_fc8_quantized_fc8_0_split_0
I1221 21:04:08.565084  7098 net.cpp:382] quantized_fc8_quantized_fc8_0_split -> quantized_fc8_quantized_fc8_0_split_1
I1221 21:04:08.565094  7098 net.cpp:382] quantized_fc8_quantized_fc8_0_split -> quantized_fc8_quantized_fc8_0_split_2
I1221 21:04:08.565104  7098 net.cpp:382] quantized_fc8_quantized_fc8_0_split -> quantized_fc8_quantized_fc8_0_split_3
I1221 21:04:08.565111  7098 net.cpp:110] =========1
I1221 21:04:08.565117  7098 net.cpp:121] =========2
I1221 21:04:08.565124  7098 layer.hpp:70] =========3
I1221 21:04:08.565146  7098 net.cpp:124] Setting up quantized_fc8_quantized_fc8_0_split
I1221 21:04:08.565168  7098 net.cpp:131] Top shape: 20 1000 (20000)
I1221 21:04:08.565176  7098 net.cpp:131] Top shape: 20 1000 (20000)
I1221 21:04:08.565183  7098 net.cpp:131] Top shape: 20 1000 (20000)
I1221 21:04:08.565191  7098 net.cpp:131] Top shape: 20 1000 (20000)
I1221 21:04:08.565196  7098 net.cpp:139] Memory required for data: 273575200
I1221 21:04:08.565202  7098 layer_factory.hpp:77] Creating layer probs
I1221 21:04:08.565214  7098 net.cpp:84] Creating Layer probs
I1221 21:04:08.565222  7098 net.cpp:408] probs <- quantized_fc8_quantized_fc8_0_split_0
I1221 21:04:08.565230  7098 net.cpp:382] probs -> probs
I1221 21:04:08.565239  7098 net.cpp:110] =========1
I1221 21:04:08.565245  7098 net.cpp:121] =========2
I1221 21:04:08.565251  7098 layer.hpp:70] =========3
I1221 21:04:08.565273  7098 net.cpp:124] Setting up probs
I1221 21:04:08.565281  7098 net.cpp:131] Top shape: 20 1000 (20000)
I1221 21:04:08.565287  7098 net.cpp:139] Memory required for data: 273655200
I1221 21:04:08.565294  7098 layer_factory.hpp:77] Creating layer loss
I1221 21:04:08.565307  7098 net.cpp:84] Creating Layer loss
I1221 21:04:08.565315  7098 net.cpp:408] loss <- quantized_fc8_quantized_fc8_0_split_1
I1221 21:04:08.565322  7098 net.cpp:408] loss <- label_data_1_split_0
I1221 21:04:08.565330  7098 net.cpp:382] loss -> loss
…
