…
I1222 17:44:15.961498  6570 net.cpp:294] The NetState phase (0) differed from the phase (1) specified by a rule in layer data
I1222 17:44:15.961920  6570 net.cpp:51] Initializing net from parameters: 
state {
  phase: TRAIN
  level: 0
  stage: ""
}
layer {
  name: "data"
  type: "Data"
  top: "data"
  top: "label"
  include {
    phase: TRAIN
  }
  transform_param {
    mirror: false
    crop_size: 227
    mean_file: "/home/ydwu/database/imagenet/ilsvrc12/imagenet_mean.binaryproto"
  }
  data_param {
    source: "/home/ydwu/database/imagenet/ilsvrc12/lmdb_resize/ilsvrc12_train_lmdb/"
    batch_size: 32
    backend: LMDB
  }
}
layer {
  name: "quantized_data"
  type: "Quantization"
  bottom: "data"
  top: "quantized_data"
  quantization_param {
    round_method: FLOOR
    round_strategy: AGGRESSIVE
    bit_width: 8
    range: -129.93526
    range: 160.78912
  }
}
layer {
  name: "conv1"
  type: "QuanConvolution"
  bottom: "quantized_data"
  top: "conv1"
  param {
    lr_mult: 1
    decay_mult: 1
  }
  param {
    lr_mult: 2
    decay_mult: 0
  }
  convolution_param {
    num_output: 96
    pad: 0
    kernel_size: 11
    group: 1
    stride: 4
    weight_filler {
      type: "gaussian"
      std: 1.1e+13
    }
    bias_filler {
      type: "constant"
      std: 0.1
    }
  }
}
layer {
  name: "quantized_conv1"
  type: "Quantization"
  bottom: "conv1"
  top: "quantized_conv1"
  quantization_param {
    round_method: FLOOR
    round_strategy: AGGRESSIVE
    bit_width: 8
    range: -2732.7351
    range: 2531.042
  }
}
layer {
  name: "relu1"
  type: "ReLU"
  bottom: "quantized_conv1"
  top: "relu1"
}
layer {
  name: "quantized_relu1"
  type: "Quantization"
  bottom: "relu1"
  top: "quantized_relu1"
  quantization_param {
    round_method: FLOOR
    round_strategy: AGGRESSIVE
    bit_width: 8
    range: 1
    range: 2531.042
  }
}
layer {
  name: "pool1"
  type: "Pooling"
  bottom: "quantized_relu1"
  top: "pool1"
  pooling_param {
    pool: MAX
    kernel_size: 3
    stride: 2
  }
}
layer {
  name: "quantized_pool1"
  type: "Quantization"
  bottom: "pool1"
  top: "quantized_pool1"
  quantization_param {
    round_method: FLOOR
    round_strategy: AGGRESSIVE
    bit_width: 8
    range: 1
    range: 2531.042
  }
}
layer {
  name: "norm1"
  type: "LRN"
  bottom: "quantized_pool1"
  top: "norm1"
  lrn_param {
    local_size: 5
    alpha: 0.0001
    beta: 0.75
  }
}
layer {
  name: "quantized_norm1"
  type: "Quantization"
  bottom: "norm1"
  top: "quantized_norm1"
  quantization_param {
    round_method: FLOOR
    round_strategy: AGGRESSIVE
    bit_width: 8
    range: 1
    range: 138.70576
  }
}
layer {
  name: "conv2"
  type: "QuanConvolution"
  bottom: "quantized_norm1"
  top: "conv2"
  param {
    lr_mult: 1
    decay_mult: 1
  }
  param {
    lr_mult: 2
    decay_mult: 0
  }
  convolution_param {
    num_output: 256
    pad: 2
    kernel_size: 5
    group: 2
    stride: 1
    weight_filler {
      type: "gaussian"
      std: 1.1e+13
    }
    bias_filler {
      type: "constant"
      std: 0.1
    }
  }
}
layer {
  name: "quantized_conv2"
  type: "Quantization"
  bottom: "conv2"
  top: "quantized_conv2"
  quantization_param {
    round_method: FLOOR
    round_strategy: AGGRESSIVE
    bit_width: 8
    range: -647.61908
    range: 492.23111
  }
}
layer {
  name: "relu2"
  type: "ReLU"
  bottom: "quantized_conv2"
  top: "relu2"
}
layer {
  name: "quantized_relu2"
  type: "Quantization"
  bottom: "relu2"
  top: "quantized_relu2"
  quantization_param {
    round_method: FLOOR
    round_strategy: AGGRESSIVE
    bit_width: 8
    range: 1
    range: 492.23111
  }
}
layer {
  name: "pool2"
  type: "Pooling"
  bottom: "quantized_relu2"
  top: "pool2"
  pooling_param {
    pool: MAX
    kernel_size: 3
    stride: 2
  }
}
layer {
  name: "quantized_pool2"
  type: "Quantization"
  bottom: "pool2"
  top: "quantized_pool2"
  quantization_param {
    round_method: FLOOR
    round_strategy: AGGRESSIVE
    bit_width: 8
    range: 1
    range: 492.23111
  }
}
layer {
  name: "norm2"
  type: "LRN"
  bottom: "quantized_pool2"
  top: "norm2"
  lrn_param {
    local_size: 5
    alpha: 0.0001
    beta: 0.75
  }
}
layer {
  name: "quantized_norm2"
  type: "Quantization"
  bottom: "norm2"
  top: "quantized_norm2"
  quantization_param {
    round_method: FLOOR
    round_strategy: AGGRESSIVE
    bit_width: 8
    range: 1
    range: 138.72636
  }
}
layer {
  name: "conv3"
  type: "QuanConvolution"
  bottom: "quantized_norm2"
  top: "conv3"
  param {
    lr_mult: 1
    decay_mult: 1
  }
  param {
    lr_mult: 2
    decay_mult: 0
  }
  convolution_param {
    num_output: 384
    pad: 1
    kernel_size: 3
    group: 1
    stride: 1
    weight_filler {
      type: "gaussian"
      std: 1.1e+13
    }
    bias_filler {
      type: "constant"
      std: 0.1
    }
  }
}
layer {
  name: "quantized_conv3"
  type: "Quantization"
  bottom: "conv3"
  top: "quantized_conv3"
  quantization_param {
    round_method: FLOOR
    round_strategy: AGGRESSIVE
    bit_width: 8
    range: -389.56516
    range: 331.98178
  }
}
layer {
  name: "relu3"
  type: "ReLU"
  bottom: "quantized_conv3"
  top: "relu3"
}
layer {
  name: "quantized_relu3"
  type: "Quantization"
  bottom: "relu3"
  top: "quantized_relu3"
  quantization_param {
    round_method: FLOOR
    round_strategy: AGGRESSIVE
    bit_width: 8
    range: 1
    range: 331.98178
  }
}
layer {
  name: "conv4"
  type: "QuanConvolution"
  bottom: "quantized_relu3"
  top: "conv4"
  param {
    lr_mult: 1
    decay_mult: 1
  }
  param {
    lr_mult: 2
    decay_mult: 0
  }
  convolution_param {
    num_output: 384
    pad: 1
    kernel_size: 3
    group: 2
    stride: 1
    weight_filler {
      type: "gaussian"
      std: 1.1e+13
    }
    bias_filler {
      type: "constant"
      std: 0.1
    }
  }
}
layer {
  name: "quantized_conv4"
  type: "Quantization"
  bottom: "conv4"
  top: "quantized_conv4"
  quantization_param {
    round_method: FLOOR
    round_strategy: AGGRESSIVE
    bit_width: 8
    range: -231.20598
    range: 283.87189
  }
}
layer {
  name: "relu4"
  type: "ReLU"
  bottom: "quantized_conv4"
  top: "relu4"
}
layer {
  name: "quantized_relu4"
  type: "Quantization"
  bottom: "relu4"
  top: "quantized_relu4"
  quantization_param {
    round_method: FLOOR
    round_strategy: AGGRESSIVE
    bit_width: 8
    range: 1
    range: 283.87189
  }
}
layer {
  name: "conv5"
  type: "QuanConvolution"
  bottom: "quantized_relu4"
  top: "conv5"
  param {
    lr_mult: 1
    decay_mult: 1
  }
  param {
    lr_mult: 2
    decay_mult: 0
  }
  convolution_param {
    num_output: 256
    pad: 1
    kernel_size: 3
    group: 2
    stride: 1
    weight_filler {
      type: "gaussian"
      std: 1.1e+13
    }
    bias_filler {
      type: "constant"
      std: 0.1
    }
  }
}
layer {
  name: "quantized_conv5"
  type: "Quantization"
  bottom: "conv5"
  top: "quantized_conv5"
  quantization_param {
    round_method: FLOOR
    round_strategy: AGGRESSIVE
    bit_width: 8
    range: -172.60567
    range: 272.57315
  }
}
layer {
  name: "relu5"
  type: "ReLU"
  bottom: "quantized_conv5"
  top: "relu5"
}
layer {
  name: "quantized_relu5"
  type: "Quantization"
  bottom: "relu5"
  top: "quantized_relu5"
  quantization_param {
    round_method: FLOOR
    round_strategy: AGGRESSIVE
    bit_width: 8
    range: 1
    range: 272.57315
  }
}
layer {
  name: "pool5"
  type: "Pooling"
  bottom: "quantized_relu5"
  top: "pool5"
  pooling_param {
    pool: MAX
    kernel_size: 3
    stride: 2
  }
}
layer {
  name: "quantized_pool5"
  type: "Quantization"
  bottom: "pool5"
  top: "quantized_pool5"
  quantization_param {
    round_method: FLOOR
    round_strategy: AGGRESSIVE
    bit_width: 8
    range: 1
    range: 272.57315
  }
}
layer {
  name: "fc6"
  type: "QuanInnerProduct"
  bottom: "quantized_pool5"
  top: "fc6"
  param {
    lr_mult: 1
    decay_mult: 1
  }
  param {
    lr_mult: 2
    decay_mult: 0
  }
  quan_inner_product_param {
    num_output: 4096
    weight_filler {
      type: "gaussian"
      std: 1.05e+13
    }
    bias_filler {
      type: "constant"
      value: 0.1
    }
    bit_width: 8
  }
}
layer {
  name: "quantized_fc6"
  type: "Quantization"
  bottom: "fc6"
  top: "quantized_fc6"
  quantization_param {
    round_method: FLOOR
    round_strategy: AGGRESSIVE
    bit_width: 8
    range: -114.02487
    range: 58.541733
  }
}
layer {
  name: "relu6"
  type: "ReLU"
  bottom: "quantized_fc6"
  top: "relu6"
}
layer {
  name: "quantized_relu6"
  type: "Quantization"
  bottom: "relu6"
  top: "quantized_relu6"
  quantization_param {
    round_method: FLOOR
    round_strategy: AGGRESSIVE
    bit_width: 8
    range: 1
    range: 58.541733
  }
}
layer {
  name: "fc7"
  type: "QuanInnerProduct"
  bottom: "quantized_relu6"
  top: "fc7"
  param {
    lr_mult: 1
    decay_mult: 1
  }
  param {
    lr_mult: 2
    decay_mult: 0
  }
  quan_inner_product_param {
    num_output: 4096
    weight_filler {
      type: "gaussian"
      std: 1.05e+13
    }
    bias_filler {
      type: "constant"
      value: 0.1
    }
    bit_width: 8
  }
}
layer {
  name: "quantized_fc7"
  type: "Quantization"
  bottom: "fc7"
  top: "quantized_fc7"
  quantization_param {
    round_method: FLOOR
    round_strategy: AGGRESSIVE
    bit_width: 8
    range: -26.019335
    range: 19.125257
  }
}
layer {
  name: "relu7"
  type: "ReLU"
  bottom: "quantized_fc7"
  top: "relu7"
}
layer {
  name: "quantized_relu7"
  type: "Quantization"
  bottom: "relu7"
  top: "quantized_relu7"
  quantization_param {
    round_method: FLOOR
    round_strategy: AGGRESSIVE
    bit_width: 8
    range: 1
    range: 19.125257
  }
}
layer {
  name: "fc8"
  type: "QuanInnerProduct"
  bottom: "quantized_relu7"
  top: "fc8"
  param {
    lr_mult: 1
    decay_mult: 1
  }
  param {
    lr_mult: 2
    decay_mult: 0
  }
  quan_inner_product_param {
    num_output: 1000
    bit_width: 8
  }
}
layer {
  name: "quantized_fc8"
  type: "Quantization"
  bottom: "fc8"
  top: "quantized_fc8"
  quantization_param {
    round_method: FLOOR
    round_strategy: AGGRESSIVE
    bit_width: 8
    range: -9.849781
    range: 45.688446
  }
}
layer {
  name: "probs"
  type: "Softmax"
  bottom: "quantized_fc8"
  top: "probs"
}
layer {
  name: "loss"
  type: "SoftmaxWithLoss"
  bottom: "quantized_fc8"
  bottom: "label"
  top: "loss"
}
layer {
  name: "acc_top1"
  type: "Accuracy"
  bottom: "quantized_fc8"
  bottom: "label"
  top: "acc_top1"
  accuracy_param {
    top_k: 1
  }
}
layer {
  name: "acc_top5"
  type: "Accuracy"
  bottom: "quantized_fc8"
  bottom: "label"
  top: "acc_top5"
  accuracy_param {
    top_k: 5
  }
}
I1222 17:44:15.962155  6570 layer_factory.hpp:77] Creating layer data
I1222 17:44:15.962275  6570 db_lmdb.cpp:35] Opened lmdb /home/ydwu/database/imagenet/ilsvrc12/lmdb_resize/ilsvrc12_train_lmdb/
I1222 17:44:15.962314  6570 net.cpp:84] Creating Layer data
I1222 17:44:15.962330  6570 net.cpp:380] data -> data
I1222 17:44:15.962361  6570 net.cpp:380] data -> label
I1222 17:44:15.962383  6570 data_transformer.cpp:25] Loading mean file from: /home/ydwu/database/imagenet/ilsvrc12/imagenet_mean.binaryproto
I1222 17:44:15.964854  6570 data_layer.cpp:45] output data size: 32,3,227,227
I1222 17:44:15.987823  6570 net.cpp:122] Setting up data
I1222 17:44:15.987915  6570 net.cpp:129] Top shape: 32 3 227 227 (4946784)
I1222 17:44:15.987927  6570 net.cpp:129] Top shape: 32 (32)
I1222 17:44:15.987934  6570 net.cpp:137] Memory required for data: 19787264
I1222 17:44:15.987951  6570 layer_factory.hpp:77] Creating layer label_data_1_split
I1222 17:44:15.987972  6570 net.cpp:84] Creating Layer label_data_1_split
I1222 17:44:15.987982  6570 net.cpp:406] label_data_1_split <- label
I1222 17:44:15.988004  6570 net.cpp:380] label_data_1_split -> label_data_1_split_0
I1222 17:44:15.988049  6570 net.cpp:380] label_data_1_split -> label_data_1_split_1
I1222 17:44:15.988060  6570 net.cpp:380] label_data_1_split -> label_data_1_split_2
I1222 17:44:15.988078  6570 net.cpp:122] Setting up label_data_1_split
I1222 17:44:15.988087  6570 net.cpp:129] Top shape: 32 (32)
I1222 17:44:15.988095  6570 net.cpp:129] Top shape: 32 (32)
I1222 17:44:15.988102  6570 net.cpp:129] Top shape: 32 (32)
I1222 17:44:15.988108  6570 net.cpp:137] Memory required for data: 19787648
I1222 17:44:15.988114  6570 layer_factory.hpp:77] Creating layer quantized_data
I1222 17:44:15.988128  6570 net.cpp:84] Creating Layer quantized_data
I1222 17:44:15.988135  6570 net.cpp:406] quantized_data <- data
I1222 17:44:15.988145  6570 net.cpp:380] quantized_data -> quantized_data
I1222 17:44:15.988160  6570 net.cpp:122] Setting up quantized_data
I1222 17:44:15.988169  6570 net.cpp:129] Top shape: 32 3 227 227 (4946784)
I1222 17:44:15.988175  6570 net.cpp:137] Memory required for data: 39574784
I1222 17:44:15.988181  6570 layer_factory.hpp:77] Creating layer conv1
I1222 17:44:15.988204  6570 net.cpp:84] Creating Layer conv1
I1222 17:44:15.988212  6570 net.cpp:406] conv1 <- quantized_data
I1222 17:44:15.988222  6570 net.cpp:380] conv1 -> conv1
I1222 17:44:15.989306  6570 net.cpp:122] Setting up conv1
I1222 17:44:15.989321  6570 net.cpp:129] Top shape: 32 96 55 55 (9292800)
I1222 17:44:15.989328  6570 net.cpp:137] Memory required for data: 76745984
I1222 17:44:15.989348  6570 layer_factory.hpp:77] Creating layer quantized_conv1
I1222 17:44:15.989361  6570 net.cpp:84] Creating Layer quantized_conv1
I1222 17:44:15.989368  6570 net.cpp:406] quantized_conv1 <- conv1
I1222 17:44:15.989377  6570 net.cpp:380] quantized_conv1 -> quantized_conv1
I1222 17:44:15.989388  6570 net.cpp:122] Setting up quantized_conv1
I1222 17:44:15.989398  6570 net.cpp:129] Top shape: 32 96 55 55 (9292800)
I1222 17:44:15.989403  6570 net.cpp:137] Memory required for data: 113917184
I1222 17:44:15.989410  6570 layer_factory.hpp:77] Creating layer relu1
I1222 17:44:15.989421  6570 net.cpp:84] Creating Layer relu1
I1222 17:44:15.989428  6570 net.cpp:406] relu1 <- quantized_conv1
I1222 17:44:15.989437  6570 net.cpp:380] relu1 -> relu1
I1222 17:44:15.989447  6570 net.cpp:122] Setting up relu1
I1222 17:44:15.989456  6570 net.cpp:129] Top shape: 32 96 55 55 (9292800)
I1222 17:44:15.989464  6570 net.cpp:137] Memory required for data: 151088384
I1222 17:44:15.989470  6570 layer_factory.hpp:77] Creating layer quantized_relu1
I1222 17:44:15.989478  6570 net.cpp:84] Creating Layer quantized_relu1
I1222 17:44:15.989485  6570 net.cpp:406] quantized_relu1 <- relu1
I1222 17:44:15.989493  6570 net.cpp:380] quantized_relu1 -> quantized_relu1
I1222 17:44:15.989503  6570 net.cpp:122] Setting up quantized_relu1
I1222 17:44:15.989511  6570 net.cpp:129] Top shape: 32 96 55 55 (9292800)
I1222 17:44:15.989517  6570 net.cpp:137] Memory required for data: 188259584
I1222 17:44:15.989529  6570 layer_factory.hpp:77] Creating layer pool1
I1222 17:44:15.989540  6570 net.cpp:84] Creating Layer pool1
I1222 17:44:15.989547  6570 net.cpp:406] pool1 <- quantized_relu1
I1222 17:44:15.989557  6570 net.cpp:380] pool1 -> pool1
I1222 17:44:15.989583  6570 net.cpp:122] Setting up pool1
I1222 17:44:15.989593  6570 net.cpp:129] Top shape: 32 96 27 27 (2239488)
I1222 17:44:15.989599  6570 net.cpp:137] Memory required for data: 197217536
I1222 17:44:15.989606  6570 layer_factory.hpp:77] Creating layer quantized_pool1
I1222 17:44:15.989616  6570 net.cpp:84] Creating Layer quantized_pool1
I1222 17:44:15.989624  6570 net.cpp:406] quantized_pool1 <- pool1
I1222 17:44:15.989632  6570 net.cpp:380] quantized_pool1 -> quantized_pool1
I1222 17:44:15.989642  6570 net.cpp:122] Setting up quantized_pool1
I1222 17:44:15.989650  6570 net.cpp:129] Top shape: 32 96 27 27 (2239488)
I1222 17:44:15.989656  6570 net.cpp:137] Memory required for data: 206175488
I1222 17:44:15.989662  6570 layer_factory.hpp:77] Creating layer norm1
I1222 17:44:15.989673  6570 net.cpp:84] Creating Layer norm1
I1222 17:44:15.989686  6570 net.cpp:406] norm1 <- quantized_pool1
I1222 17:44:15.989703  6570 net.cpp:380] norm1 -> norm1
I1222 17:44:15.989719  6570 net.cpp:122] Setting up norm1
I1222 17:44:15.989728  6570 net.cpp:129] Top shape: 32 96 27 27 (2239488)
I1222 17:44:15.989734  6570 net.cpp:137] Memory required for data: 215133440
I1222 17:44:15.989740  6570 layer_factory.hpp:77] Creating layer quantized_norm1
I1222 17:44:15.989749  6570 net.cpp:84] Creating Layer quantized_norm1
I1222 17:44:15.989756  6570 net.cpp:406] quantized_norm1 <- norm1
I1222 17:44:15.989765  6570 net.cpp:380] quantized_norm1 -> quantized_norm1
I1222 17:44:15.989774  6570 net.cpp:122] Setting up quantized_norm1
I1222 17:44:15.989784  6570 net.cpp:129] Top shape: 32 96 27 27 (2239488)
I1222 17:44:15.989789  6570 net.cpp:137] Memory required for data: 224091392
I1222 17:44:15.989795  6570 layer_factory.hpp:77] Creating layer conv2
I1222 17:44:15.989806  6570 net.cpp:84] Creating Layer conv2
I1222 17:44:15.989814  6570 net.cpp:406] conv2 <- quantized_norm1
I1222 17:44:15.989822  6570 net.cpp:380] conv2 -> conv2
I1222 17:44:15.998797  6570 net.cpp:122] Setting up conv2
I1222 17:44:15.998842  6570 net.cpp:129] Top shape: 32 256 27 27 (5971968)
I1222 17:44:15.998847  6570 net.cpp:137] Memory required for data: 247979264
I1222 17:44:15.998865  6570 layer_factory.hpp:77] Creating layer quantized_conv2
I1222 17:44:15.998888  6570 net.cpp:84] Creating Layer quantized_conv2
I1222 17:44:15.998898  6570 net.cpp:406] quantized_conv2 <- conv2
I1222 17:44:15.998909  6570 net.cpp:380] quantized_conv2 -> quantized_conv2
I1222 17:44:15.998925  6570 net.cpp:122] Setting up quantized_conv2
I1222 17:44:15.998934  6570 net.cpp:129] Top shape: 32 256 27 27 (5971968)
I1222 17:44:15.998940  6570 net.cpp:137] Memory required for data: 271867136
I1222 17:44:15.998947  6570 layer_factory.hpp:77] Creating layer relu2
I1222 17:44:15.998966  6570 net.cpp:84] Creating Layer relu2
I1222 17:44:15.998975  6570 net.cpp:406] relu2 <- quantized_conv2
I1222 17:44:15.998983  6570 net.cpp:380] relu2 -> relu2
I1222 17:44:15.998996  6570 net.cpp:122] Setting up relu2
I1222 17:44:15.999004  6570 net.cpp:129] Top shape: 32 256 27 27 (5971968)
I1222 17:44:15.999011  6570 net.cpp:137] Memory required for data: 295755008
I1222 17:44:15.999017  6570 layer_factory.hpp:77] Creating layer quantized_relu2
I1222 17:44:15.999028  6570 net.cpp:84] Creating Layer quantized_relu2
I1222 17:44:15.999035  6570 net.cpp:406] quantized_relu2 <- relu2
I1222 17:44:15.999043  6570 net.cpp:380] quantized_relu2 -> quantized_relu2
I1222 17:44:15.999053  6570 net.cpp:122] Setting up quantized_relu2
I1222 17:44:15.999063  6570 net.cpp:129] Top shape: 32 256 27 27 (5971968)
I1222 17:44:15.999068  6570 net.cpp:137] Memory required for data: 319642880
I1222 17:44:15.999074  6570 layer_factory.hpp:77] Creating layer pool2
I1222 17:44:15.999086  6570 net.cpp:84] Creating Layer pool2
I1222 17:44:15.999094  6570 net.cpp:406] pool2 <- quantized_relu2
I1222 17:44:15.999102  6570 net.cpp:380] pool2 -> pool2
I1222 17:44:15.999116  6570 net.cpp:122] Setting up pool2
I1222 17:44:15.999125  6570 net.cpp:129] Top shape: 32 256 13 13 (1384448)
I1222 17:44:15.999131  6570 net.cpp:137] Memory required for data: 325180672
I1222 17:44:15.999137  6570 layer_factory.hpp:77] Creating layer quantized_pool2
I1222 17:44:15.999150  6570 net.cpp:84] Creating Layer quantized_pool2
I1222 17:44:15.999158  6570 net.cpp:406] quantized_pool2 <- pool2
I1222 17:44:15.999166  6570 net.cpp:380] quantized_pool2 -> quantized_pool2
I1222 17:44:15.999176  6570 net.cpp:122] Setting up quantized_pool2
I1222 17:44:15.999184  6570 net.cpp:129] Top shape: 32 256 13 13 (1384448)
I1222 17:44:15.999191  6570 net.cpp:137] Memory required for data: 330718464
I1222 17:44:15.999197  6570 layer_factory.hpp:77] Creating layer norm2
I1222 17:44:15.999217  6570 net.cpp:84] Creating Layer norm2
I1222 17:44:15.999224  6570 net.cpp:406] norm2 <- quantized_pool2
I1222 17:44:15.999233  6570 net.cpp:380] norm2 -> norm2
I1222 17:44:15.999244  6570 net.cpp:122] Setting up norm2
I1222 17:44:15.999265  6570 net.cpp:129] Top shape: 32 256 13 13 (1384448)
I1222 17:44:15.999284  6570 net.cpp:137] Memory required for data: 336256256
I1222 17:44:15.999291  6570 layer_factory.hpp:77] Creating layer quantized_norm2
I1222 17:44:15.999302  6570 net.cpp:84] Creating Layer quantized_norm2
I1222 17:44:15.999310  6570 net.cpp:406] quantized_norm2 <- norm2
I1222 17:44:15.999320  6570 net.cpp:380] quantized_norm2 -> quantized_norm2
I1222 17:44:15.999330  6570 net.cpp:122] Setting up quantized_norm2
I1222 17:44:15.999339  6570 net.cpp:129] Top shape: 32 256 13 13 (1384448)
I1222 17:44:15.999346  6570 net.cpp:137] Memory required for data: 341794048
I1222 17:44:15.999351  6570 layer_factory.hpp:77] Creating layer conv3
I1222 17:44:15.999364  6570 net.cpp:84] Creating Layer conv3
I1222 17:44:15.999372  6570 net.cpp:406] conv3 <- quantized_norm2
I1222 17:44:15.999382  6570 net.cpp:380] conv3 -> conv3
I1222 17:44:16.025461  6570 net.cpp:122] Setting up conv3
I1222 17:44:16.025508  6570 net.cpp:129] Top shape: 32 384 13 13 (2076672)
I1222 17:44:16.025516  6570 net.cpp:137] Memory required for data: 350100736
I1222 17:44:16.025532  6570 layer_factory.hpp:77] Creating layer quantized_conv3
I1222 17:44:16.025549  6570 net.cpp:84] Creating Layer quantized_conv3
I1222 17:44:16.025558  6570 net.cpp:406] quantized_conv3 <- conv3
I1222 17:44:16.025573  6570 net.cpp:380] quantized_conv3 -> quantized_conv3
I1222 17:44:16.025590  6570 net.cpp:122] Setting up quantized_conv3
I1222 17:44:16.025599  6570 net.cpp:129] Top shape: 32 384 13 13 (2076672)
I1222 17:44:16.025605  6570 net.cpp:137] Memory required for data: 358407424
I1222 17:44:16.025611  6570 layer_factory.hpp:77] Creating layer relu3
I1222 17:44:16.025621  6570 net.cpp:84] Creating Layer relu3
I1222 17:44:16.025627  6570 net.cpp:406] relu3 <- quantized_conv3
I1222 17:44:16.025638  6570 net.cpp:380] relu3 -> relu3
I1222 17:44:16.025655  6570 net.cpp:122] Setting up relu3
I1222 17:44:16.025663  6570 net.cpp:129] Top shape: 32 384 13 13 (2076672)
I1222 17:44:16.025671  6570 net.cpp:137] Memory required for data: 366714112
I1222 17:44:16.025676  6570 layer_factory.hpp:77] Creating layer quantized_relu3
I1222 17:44:16.025684  6570 net.cpp:84] Creating Layer quantized_relu3
I1222 17:44:16.025691  6570 net.cpp:406] quantized_relu3 <- relu3
I1222 17:44:16.025699  6570 net.cpp:380] quantized_relu3 -> quantized_relu3
I1222 17:44:16.025708  6570 net.cpp:122] Setting up quantized_relu3
I1222 17:44:16.025717  6570 net.cpp:129] Top shape: 32 384 13 13 (2076672)
I1222 17:44:16.025723  6570 net.cpp:137] Memory required for data: 375020800
I1222 17:44:16.025729  6570 layer_factory.hpp:77] Creating layer conv4
I1222 17:44:16.025746  6570 net.cpp:84] Creating Layer conv4
I1222 17:44:16.025754  6570 net.cpp:406] conv4 <- quantized_relu3
I1222 17:44:16.025769  6570 net.cpp:380] conv4 -> conv4
I1222 17:44:16.045672  6570 net.cpp:122] Setting up conv4
I1222 17:44:16.045719  6570 net.cpp:129] Top shape: 32 384 13 13 (2076672)
I1222 17:44:16.045727  6570 net.cpp:137] Memory required for data: 383327488
I1222 17:44:16.045739  6570 layer_factory.hpp:77] Creating layer quantized_conv4
I1222 17:44:16.045758  6570 net.cpp:84] Creating Layer quantized_conv4
I1222 17:44:16.045768  6570 net.cpp:406] quantized_conv4 <- conv4
I1222 17:44:16.045783  6570 net.cpp:380] quantized_conv4 -> quantized_conv4
I1222 17:44:16.045799  6570 net.cpp:122] Setting up quantized_conv4
I1222 17:44:16.045809  6570 net.cpp:129] Top shape: 32 384 13 13 (2076672)
I1222 17:44:16.045814  6570 net.cpp:137] Memory required for data: 391634176
I1222 17:44:16.045820  6570 layer_factory.hpp:77] Creating layer relu4
I1222 17:44:16.045830  6570 net.cpp:84] Creating Layer relu4
I1222 17:44:16.045837  6570 net.cpp:406] relu4 <- quantized_conv4
I1222 17:44:16.045845  6570 net.cpp:380] relu4 -> relu4
I1222 17:44:16.045855  6570 net.cpp:122] Setting up relu4
I1222 17:44:16.045864  6570 net.cpp:129] Top shape: 32 384 13 13 (2076672)
I1222 17:44:16.045871  6570 net.cpp:137] Memory required for data: 399940864
I1222 17:44:16.045876  6570 layer_factory.hpp:77] Creating layer quantized_relu4
I1222 17:44:16.045915  6570 net.cpp:84] Creating Layer quantized_relu4
I1222 17:44:16.045923  6570 net.cpp:406] quantized_relu4 <- relu4
I1222 17:44:16.045933  6570 net.cpp:380] quantized_relu4 -> quantized_relu4
I1222 17:44:16.045943  6570 net.cpp:122] Setting up quantized_relu4
I1222 17:44:16.045951  6570 net.cpp:129] Top shape: 32 384 13 13 (2076672)
I1222 17:44:16.045958  6570 net.cpp:137] Memory required for data: 408247552
I1222 17:44:16.045964  6570 layer_factory.hpp:77] Creating layer conv5
I1222 17:44:16.045980  6570 net.cpp:84] Creating Layer conv5
I1222 17:44:16.045987  6570 net.cpp:406] conv5 <- quantized_relu4
I1222 17:44:16.046000  6570 net.cpp:380] conv5 -> conv5
I1222 17:44:16.059372  6570 net.cpp:122] Setting up conv5
I1222 17:44:16.059418  6570 net.cpp:129] Top shape: 32 256 13 13 (1384448)
I1222 17:44:16.059425  6570 net.cpp:137] Memory required for data: 413785344
I1222 17:44:16.059447  6570 layer_factory.hpp:77] Creating layer quantized_conv5
I1222 17:44:16.059463  6570 net.cpp:84] Creating Layer quantized_conv5
I1222 17:44:16.059473  6570 net.cpp:406] quantized_conv5 <- conv5
I1222 17:44:16.059486  6570 net.cpp:380] quantized_conv5 -> quantized_conv5
I1222 17:44:16.059504  6570 net.cpp:122] Setting up quantized_conv5
I1222 17:44:16.059512  6570 net.cpp:129] Top shape: 32 256 13 13 (1384448)
I1222 17:44:16.059518  6570 net.cpp:137] Memory required for data: 419323136
I1222 17:44:16.059525  6570 layer_factory.hpp:77] Creating layer relu5
I1222 17:44:16.059536  6570 net.cpp:84] Creating Layer relu5
I1222 17:44:16.059545  6570 net.cpp:406] relu5 <- quantized_conv5
I1222 17:44:16.059552  6570 net.cpp:380] relu5 -> relu5
I1222 17:44:16.059567  6570 net.cpp:122] Setting up relu5
I1222 17:44:16.059577  6570 net.cpp:129] Top shape: 32 256 13 13 (1384448)
I1222 17:44:16.059584  6570 net.cpp:137] Memory required for data: 424860928
I1222 17:44:16.059594  6570 layer_factory.hpp:77] Creating layer quantized_relu5
I1222 17:44:16.059602  6570 net.cpp:84] Creating Layer quantized_relu5
I1222 17:44:16.059609  6570 net.cpp:406] quantized_relu5 <- relu5
I1222 17:44:16.059617  6570 net.cpp:380] quantized_relu5 -> quantized_relu5
I1222 17:44:16.059630  6570 net.cpp:122] Setting up quantized_relu5
I1222 17:44:16.059639  6570 net.cpp:129] Top shape: 32 256 13 13 (1384448)
I1222 17:44:16.059645  6570 net.cpp:137] Memory required for data: 430398720
I1222 17:44:16.059651  6570 layer_factory.hpp:77] Creating layer pool5
I1222 17:44:16.059664  6570 net.cpp:84] Creating Layer pool5
I1222 17:44:16.059671  6570 net.cpp:406] pool5 <- quantized_relu5
I1222 17:44:16.059679  6570 net.cpp:380] pool5 -> pool5
I1222 17:44:16.059693  6570 net.cpp:122] Setting up pool5
I1222 17:44:16.059705  6570 net.cpp:129] Top shape: 32 256 6 6 (294912)
I1222 17:44:16.059711  6570 net.cpp:137] Memory required for data: 431578368
I1222 17:44:16.059717  6570 layer_factory.hpp:77] Creating layer quantized_pool5
I1222 17:44:16.059731  6570 net.cpp:84] Creating Layer quantized_pool5
I1222 17:44:16.059737  6570 net.cpp:406] quantized_pool5 <- pool5
I1222 17:44:16.059748  6570 net.cpp:380] quantized_pool5 -> quantized_pool5
I1222 17:44:16.059758  6570 net.cpp:122] Setting up quantized_pool5
I1222 17:44:16.059767  6570 net.cpp:129] Top shape: 32 256 6 6 (294912)
I1222 17:44:16.059773  6570 net.cpp:137] Memory required for data: 432758016
I1222 17:44:16.059780  6570 layer_factory.hpp:77] Creating layer fc6
I1222 17:44:16.059797  6570 net.cpp:84] Creating Layer fc6
I1222 17:44:16.059803  6570 net.cpp:406] fc6 <- quantized_pool5
I1222 17:44:16.059814  6570 net.cpp:380] fc6 -> fc6
I1222 17:44:16.059831  6570 quan_inner_product_layer.cpp:21] 4096   4096
I1222 17:44:17.141337  6570 net.cpp:122] Setting up fc6
I1222 17:44:17.141393  6570 net.cpp:129] Top shape: 32 4096 (131072)
I1222 17:44:17.141404  6570 net.cpp:137] Memory required for data: 433282304
I1222 17:44:17.141418  6570 layer_factory.hpp:77] Creating layer quantized_fc6
I1222 17:44:17.141438  6570 net.cpp:84] Creating Layer quantized_fc6
I1222 17:44:17.141460  6570 net.cpp:406] quantized_fc6 <- fc6
I1222 17:44:17.141496  6570 net.cpp:380] quantized_fc6 -> quantized_fc6
I1222 17:44:17.141515  6570 net.cpp:122] Setting up quantized_fc6
I1222 17:44:17.141522  6570 net.cpp:129] Top shape: 32 4096 (131072)
I1222 17:44:17.141528  6570 net.cpp:137] Memory required for data: 433806592
I1222 17:44:17.141535  6570 layer_factory.hpp:77] Creating layer relu6
I1222 17:44:17.141543  6570 net.cpp:84] Creating Layer relu6
I1222 17:44:17.141551  6570 net.cpp:406] relu6 <- quantized_fc6
I1222 17:44:17.141558  6570 net.cpp:380] relu6 -> relu6
I1222 17:44:17.141568  6570 net.cpp:122] Setting up relu6
I1222 17:44:17.141577  6570 net.cpp:129] Top shape: 32 4096 (131072)
I1222 17:44:17.141582  6570 net.cpp:137] Memory required for data: 434330880
I1222 17:44:17.141587  6570 layer_factory.hpp:77] Creating layer quantized_relu6
I1222 17:44:17.141597  6570 net.cpp:84] Creating Layer quantized_relu6
I1222 17:44:17.141602  6570 net.cpp:406] quantized_relu6 <- relu6
I1222 17:44:17.141613  6570 net.cpp:380] quantized_relu6 -> quantized_relu6
I1222 17:44:17.141623  6570 net.cpp:122] Setting up quantized_relu6
I1222 17:44:17.141631  6570 net.cpp:129] Top shape: 32 4096 (131072)
I1222 17:44:17.141638  6570 net.cpp:137] Memory required for data: 434855168
I1222 17:44:17.141644  6570 layer_factory.hpp:77] Creating layer fc7
I1222 17:44:17.141654  6570 net.cpp:84] Creating Layer fc7
I1222 17:44:17.141661  6570 net.cpp:406] fc7 <- quantized_relu6
I1222 17:44:17.141669  6570 net.cpp:380] fc7 -> fc7
I1222 17:44:17.141680  6570 quan_inner_product_layer.cpp:21] 4096   4096
I1222 17:44:17.618525  6570 net.cpp:122] Setting up fc7
I1222 17:44:17.618583  6570 net.cpp:129] Top shape: 32 4096 (131072)
I1222 17:44:17.618590  6570 net.cpp:137] Memory required for data: 435379456
I1222 17:44:17.618603  6570 layer_factory.hpp:77] Creating layer quantized_fc7
I1222 17:44:17.618620  6570 net.cpp:84] Creating Layer quantized_fc7
I1222 17:44:17.618629  6570 net.cpp:406] quantized_fc7 <- fc7
I1222 17:44:17.618641  6570 net.cpp:380] quantized_fc7 -> quantized_fc7
I1222 17:44:17.618659  6570 net.cpp:122] Setting up quantized_fc7
I1222 17:44:17.618667  6570 net.cpp:129] Top shape: 32 4096 (131072)
I1222 17:44:17.618674  6570 net.cpp:137] Memory required for data: 435903744
I1222 17:44:17.618680  6570 layer_factory.hpp:77] Creating layer relu7
I1222 17:44:17.618688  6570 net.cpp:84] Creating Layer relu7
I1222 17:44:17.618695  6570 net.cpp:406] relu7 <- quantized_fc7
I1222 17:44:17.618703  6570 net.cpp:380] relu7 -> relu7
I1222 17:44:17.618713  6570 net.cpp:122] Setting up relu7
I1222 17:44:17.618721  6570 net.cpp:129] Top shape: 32 4096 (131072)
I1222 17:44:17.618727  6570 net.cpp:137] Memory required for data: 436428032
I1222 17:44:17.618733  6570 layer_factory.hpp:77] Creating layer quantized_relu7
I1222 17:44:17.618748  6570 net.cpp:84] Creating Layer quantized_relu7
I1222 17:44:17.618755  6570 net.cpp:406] quantized_relu7 <- relu7
I1222 17:44:17.618764  6570 net.cpp:380] quantized_relu7 -> quantized_relu7
I1222 17:44:17.618774  6570 net.cpp:122] Setting up quantized_relu7
I1222 17:44:17.618782  6570 net.cpp:129] Top shape: 32 4096 (131072)
I1222 17:44:17.618788  6570 net.cpp:137] Memory required for data: 436952320
I1222 17:44:17.618793  6570 layer_factory.hpp:77] Creating layer fc8
I1222 17:44:17.618804  6570 net.cpp:84] Creating Layer fc8
I1222 17:44:17.618810  6570 net.cpp:406] fc8 <- quantized_relu7
I1222 17:44:17.618819  6570 net.cpp:380] fc8 -> fc8
I1222 17:44:17.618829  6570 quan_inner_product_layer.cpp:21] 1000   1000
I1222 17:44:17.625777  6570 net.cpp:122] Setting up fc8
I1222 17:44:17.625838  6570 net.cpp:129] Top shape: 32 1000 (32000)
I1222 17:44:17.625845  6570 net.cpp:137] Memory required for data: 437080320
I1222 17:44:17.625859  6570 layer_factory.hpp:77] Creating layer quantized_fc8
I1222 17:44:17.625875  6570 net.cpp:84] Creating Layer quantized_fc8
I1222 17:44:17.625885  6570 net.cpp:406] quantized_fc8 <- fc8
I1222 17:44:17.625900  6570 net.cpp:380] quantized_fc8 -> quantized_fc8
I1222 17:44:17.625917  6570 net.cpp:122] Setting up quantized_fc8
I1222 17:44:17.625953  6570 net.cpp:129] Top shape: 32 1000 (32000)
I1222 17:44:17.625960  6570 net.cpp:137] Memory required for data: 437208320
I1222 17:44:17.625967  6570 layer_factory.hpp:77] Creating layer quantized_fc8_quantized_fc8_0_split
I1222 17:44:17.625977  6570 net.cpp:84] Creating Layer quantized_fc8_quantized_fc8_0_split
I1222 17:44:17.625983  6570 net.cpp:406] quantized_fc8_quantized_fc8_0_split <- quantized_fc8
I1222 17:44:17.625994  6570 net.cpp:380] quantized_fc8_quantized_fc8_0_split -> quantized_fc8_quantized_fc8_0_split_0
I1222 17:44:17.626004  6570 net.cpp:380] quantized_fc8_quantized_fc8_0_split -> quantized_fc8_quantized_fc8_0_split_1
I1222 17:44:17.626014  6570 net.cpp:380] quantized_fc8_quantized_fc8_0_split -> quantized_fc8_quantized_fc8_0_split_2
I1222 17:44:17.626024  6570 net.cpp:380] quantized_fc8_quantized_fc8_0_split -> quantized_fc8_quantized_fc8_0_split_3
I1222 17:44:17.626034  6570 net.cpp:122] Setting up quantized_fc8_quantized_fc8_0_split
I1222 17:44:17.626045  6570 net.cpp:129] Top shape: 32 1000 (32000)
I1222 17:44:17.626052  6570 net.cpp:129] Top shape: 32 1000 (32000)
I1222 17:44:17.626058  6570 net.cpp:129] Top shape: 32 1000 (32000)
I1222 17:44:17.626065  6570 net.cpp:129] Top shape: 32 1000 (32000)
I1222 17:44:17.626071  6570 net.cpp:137] Memory required for data: 437720320
I1222 17:44:17.626077  6570 layer_factory.hpp:77] Creating layer probs
I1222 17:44:17.626086  6570 net.cpp:84] Creating Layer probs
I1222 17:44:17.626093  6570 net.cpp:406] probs <- quantized_fc8_quantized_fc8_0_split_0
I1222 17:44:17.626101  6570 net.cpp:380] probs -> probs
I1222 17:44:17.626123  6570 net.cpp:122] Setting up probs
I1222 17:44:17.626132  6570 net.cpp:129] Top shape: 32 1000 (32000)
I1222 17:44:17.626138  6570 net.cpp:137] Memory required for data: 437848320
I1222 17:44:17.626144  6570 layer_factory.hpp:77] Creating layer loss
I1222 17:44:17.626157  6570 net.cpp:84] Creating Layer loss
I1222 17:44:17.626164  6570 net.cpp:406] loss <- quantized_fc8_quantized_fc8_0_split_1
I1222 17:44:17.626171  6570 net.cpp:406] loss <- label_data_1_split_0
I1222 17:44:17.626183  6570 net.cpp:380] loss -> loss
…
I1222 17:44:17.627872  6570 net.cpp:294] The NetState phase (1) differed from the phase (0) specified by a rule in layer data
I1222 17:44:17.628206  6570 net.cpp:51] Initializing net from parameters: 
state {
  phase: TEST
}
layer {
  name: "data"
  type: "Data"
  top: "data"
  top: "label"
  include {
    phase: TEST
  }
  transform_param {
    mirror: false
    crop_size: 227
    mean_file: "/home/ydwu/database/imagenet/ilsvrc12/imagenet_mean.binaryproto"
  }
  data_param {
    source: "/home/ydwu/database/imagenet/ilsvrc12/lmdb_resize/ilsvrc12_val_lmdb/"
    batch_size: 20
    backend: LMDB
  }
}
layer {
  name: "quantized_data"
  type: "Quantization"
  bottom: "data"
  top: "quantized_data"
  quantization_param {
    round_method: FLOOR
    round_strategy: AGGRESSIVE
    bit_width: 8
    range: -129.93526
    range: 160.78912
  }
}
layer {
  name: "conv1"
  type: "QuanConvolution"
  bottom: "quantized_data"
  top: "conv1"
  param {
    lr_mult: 1
    decay_mult: 1
  }
  param {
    lr_mult: 2
    decay_mult: 0
  }
  convolution_param {
    num_output: 96
    pad: 0
    kernel_size: 11
    group: 1
    stride: 4
    weight_filler {
      type: "gaussian"
      std: 1.1e+13
    }
    bias_filler {
      type: "constant"
      std: 0.1
    }
  }
}
layer {
  name: "quantized_conv1"
  type: "Quantization"
  bottom: "conv1"
  top: "quantized_conv1"
  quantization_param {
    round_method: FLOOR
    round_strategy: AGGRESSIVE
    bit_width: 8
    range: -2732.7351
    range: 2531.042
  }
}
layer {
  name: "relu1"
  type: "ReLU"
  bottom: "quantized_conv1"
  top: "relu1"
}
layer {
  name: "quantized_relu1"
  type: "Quantization"
  bottom: "relu1"
  top: "quantized_relu1"
  quantization_param {
    round_method: FLOOR
    round_strategy: AGGRESSIVE
    bit_width: 8
    range: 1
    range: 2531.042
  }
}
layer {
  name: "pool1"
  type: "Pooling"
  bottom: "quantized_relu1"
  top: "pool1"
  pooling_param {
    pool: MAX
    kernel_size: 3
    stride: 2
  }
}
layer {
  name: "quantized_pool1"
  type: "Quantization"
  bottom: "pool1"
  top: "quantized_pool1"
  quantization_param {
    round_method: FLOOR
    round_strategy: AGGRESSIVE
    bit_width: 8
    range: 1
    range: 2531.042
  }
}
layer {
  name: "norm1"
  type: "LRN"
  bottom: "quantized_pool1"
  top: "norm1"
  lrn_param {
    local_size: 5
    alpha: 0.0001
    beta: 0.75
  }
}
layer {
  name: "quantized_norm1"
  type: "Quantization"
  bottom: "norm1"
  top: "quantized_norm1"
  quantization_param {
    round_method: FLOOR
    round_strategy: AGGRESSIVE
    bit_width: 8
    range: 1
    range: 138.70576
  }
}
layer {
  name: "conv2"
  type: "QuanConvolution"
  bottom: "quantized_norm1"
  top: "conv2"
  param {
    lr_mult: 1
    decay_mult: 1
  }
  param {
    lr_mult: 2
    decay_mult: 0
  }
  convolution_param {
    num_output: 256
    pad: 2
    kernel_size: 5
    group: 2
    stride: 1
    weight_filler {
      type: "gaussian"
      std: 1.1e+13
    }
    bias_filler {
      type: "constant"
      std: 0.1
    }
  }
}
layer {
  name: "quantized_conv2"
  type: "Quantization"
  bottom: "conv2"
  top: "quantized_conv2"
  quantization_param {
    round_method: FLOOR
    round_strategy: AGGRESSIVE
    bit_width: 8
    range: -647.61908
    range: 492.23111
  }
}
layer {
  name: "relu2"
  type: "ReLU"
  bottom: "quantized_conv2"
  top: "relu2"
}
layer {
  name: "quantized_relu2"
  type: "Quantization"
  bottom: "relu2"
  top: "quantized_relu2"
  quantization_param {
    round_method: FLOOR
    round_strategy: AGGRESSIVE
    bit_width: 8
    range: 1
    range: 492.23111
  }
}
layer {
  name: "pool2"
  type: "Pooling"
  bottom: "quantized_relu2"
  top: "pool2"
  pooling_param {
    pool: MAX
    kernel_size: 3
    stride: 2
  }
}
layer {
  name: "quantized_pool2"
  type: "Quantization"
  bottom: "pool2"
  top: "quantized_pool2"
  quantization_param {
    round_method: FLOOR
    round_strategy: AGGRESSIVE
    bit_width: 8
    range: 1
    range: 492.23111
  }
}
layer {
  name: "norm2"
  type: "LRN"
  bottom: "quantized_pool2"
  top: "norm2"
  lrn_param {
    local_size: 5
    alpha: 0.0001
    beta: 0.75
  }
}
layer {
  name: "quantized_norm2"
  type: "Quantization"
  bottom: "norm2"
  top: "quantized_norm2"
  quantization_param {
    round_method: FLOOR
    round_strategy: AGGRESSIVE
    bit_width: 8
    range: 1
    range: 138.72636
  }
}
layer {
  name: "conv3"
  type: "QuanConvolution"
  bottom: "quantized_norm2"
  top: "conv3"
  param {
    lr_mult: 1
    decay_mult: 1
  }
  param {
    lr_mult: 2
    decay_mult: 0
  }
  convolution_param {
    num_output: 384
    pad: 1
    kernel_size: 3
    group: 1
    stride: 1
    weight_filler {
      type: "gaussian"
      std: 1.1e+13
    }
    bias_filler {
      type: "constant"
      std: 0.1
    }
  }
}
layer {
  name: "quantized_conv3"
  type: "Quantization"
  bottom: "conv3"
  top: "quantized_conv3"
  quantization_param {
    round_method: FLOOR
    round_strategy: AGGRESSIVE
    bit_width: 8
    range: -389.56516
    range: 331.98178
  }
}
layer {
  name: "relu3"
  type: "ReLU"
  bottom: "quantized_conv3"
  top: "relu3"
}
layer {
  name: "quantized_relu3"
  type: "Quantization"
  bottom: "relu3"
  top: "quantized_relu3"
  quantization_param {
    round_method: FLOOR
    round_strategy: AGGRESSIVE
    bit_width: 8
    range: 1
    range: 331.98178
  }
}
layer {
  name: "conv4"
  type: "QuanConvolution"
  bottom: "quantized_relu3"
  top: "conv4"
  param {
    lr_mult: 1
    decay_mult: 1
  }
  param {
    lr_mult: 2
    decay_mult: 0
  }
  convolution_param {
    num_output: 384
    pad: 1
    kernel_size: 3
    group: 2
    stride: 1
    weight_filler {
      type: "gaussian"
      std: 1.1e+13
    }
    bias_filler {
      type: "constant"
      std: 0.1
    }
  }
}
layer {
  name: "quantized_conv4"
  type: "Quantization"
  bottom: "conv4"
  top: "quantized_conv4"
  quantization_param {
    round_method: FLOOR
    round_strategy: AGGRESSIVE
    bit_width: 8
    range: -231.20598
    range: 283.87189
  }
}
layer {
  name: "relu4"
  type: "ReLU"
  bottom: "quantized_conv4"
  top: "relu4"
}
layer {
  name: "quantized_relu4"
  type: "Quantization"
  bottom: "relu4"
  top: "quantized_relu4"
  quantization_param {
    round_method: FLOOR
    round_strategy: AGGRESSIVE
    bit_width: 8
    range: 1
    range: 283.87189
  }
}
layer {
  name: "conv5"
  type: "QuanConvolution"
  bottom: "quantized_relu4"
  top: "conv5"
  param {
    lr_mult: 1
    decay_mult: 1
  }
  param {
    lr_mult: 2
    decay_mult: 0
  }
  convolution_param {
    num_output: 256
    pad: 1
    kernel_size: 3
    group: 2
    stride: 1
    weight_filler {
      type: "gaussian"
      std: 1.1e+13
    }
    bias_filler {
      type: "constant"
      std: 0.1
    }
  }
}
layer {
  name: "quantized_conv5"
  type: "Quantization"
  bottom: "conv5"
  top: "quantized_conv5"
  quantization_param {
    round_method: FLOOR
    round_strategy: AGGRESSIVE
    bit_width: 8
    range: -172.60567
    range: 272.57315
  }
}
layer {
  name: "relu5"
  type: "ReLU"
  bottom: "quantized_conv5"
  top: "relu5"
}
layer {
  name: "quantized_relu5"
  type: "Quantization"
  bottom: "relu5"
  top: "quantized_relu5"
  quantization_param {
    round_method: FLOOR
    round_strategy: AGGRESSIVE
    bit_width: 8
    range: 1
    range: 272.57315
  }
}
layer {
  name: "pool5"
  type: "Pooling"
  bottom: "quantized_relu5"
  top: "pool5"
  pooling_param {
    pool: MAX
    kernel_size: 3
    stride: 2
  }
}
layer {
  name: "quantized_pool5"
  type: "Quantization"
  bottom: "pool5"
  top: "quantized_pool5"
  quantization_param {
    round_method: FLOOR
    round_strategy: AGGRESSIVE
    bit_width: 8
    range: 1
    range: 272.57315
  }
}
layer {
  name: "fc6"
  type: "QuanInnerProduct"
  bottom: "quantized_pool5"
  top: "fc6"
  param {
    lr_mult: 1
    decay_mult: 1
  }
  param {
    lr_mult: 2
    decay_mult: 0
  }
  quan_inner_product_param {
    num_output: 4096
    weight_filler {
      type: "gaussian"
      std: 1.05e+13
    }
    bias_filler {
      type: "constant"
      value: 0.1
    }
    bit_width: 8
  }
}
layer {
  name: "quantized_fc6"
  type: "Quantization"
  bottom: "fc6"
  top: "quantized_fc6"
  quantization_param {
    round_method: FLOOR
    round_strategy: AGGRESSIVE
    bit_width: 8
    range: -114.02487
    range: 58.541733
  }
}
layer {
  name: "relu6"
  type: "ReLU"
  bottom: "quantized_fc6"
  top: "relu6"
}
layer {
  name: "quantized_relu6"
  type: "Quantization"
  bottom: "relu6"
  top: "quantized_relu6"
  quantization_param {
    round_method: FLOOR
    round_strategy: AGGRESSIVE
    bit_width: 8
    range: 1
    range: 58.541733
  }
}
layer {
  name: "fc7"
  type: "QuanInnerProduct"
  bottom: "quantized_relu6"
  top: "fc7"
  param {
    lr_mult: 1
    decay_mult: 1
  }
  param {
    lr_mult: 2
    decay_mult: 0
  }
  quan_inner_product_param {
    num_output: 4096
    weight_filler {
      type: "gaussian"
      std: 1.05e+13
    }
    bias_filler {
      type: "constant"
      value: 0.1
    }
    bit_width: 8
  }
}
layer {
  name: "quantized_fc7"
  type: "Quantization"
  bottom: "fc7"
  top: "quantized_fc7"
  quantization_param {
    round_method: FLOOR
    round_strategy: AGGRESSIVE
    bit_width: 8
    range: -26.019335
    range: 19.125257
  }
}
layer {
  name: "relu7"
  type: "ReLU"
  bottom: "quantized_fc7"
  top: "relu7"
}
layer {
  name: "quantized_relu7"
  type: "Quantization"
  bottom: "relu7"
  top: "quantized_relu7"
  quantization_param {
    round_method: FLOOR
    round_strategy: AGGRESSIVE
    bit_width: 8
    range: 1
    range: 19.125257
  }
}
layer {
  name: "fc8"
  type: "QuanInnerProduct"
  bottom: "quantized_relu7"
  top: "fc8"
  param {
    lr_mult: 1
    decay_mult: 1
  }
  param {
    lr_mult: 2
    decay_mult: 0
  }
  quan_inner_product_param {
    num_output: 1000
    bit_width: 8
  }
}
layer {
  name: "quantized_fc8"
  type: "Quantization"
  bottom: "fc8"
  top: "quantized_fc8"
  quantization_param {
    round_method: FLOOR
    round_strategy: AGGRESSIVE
    bit_width: 8
    range: -9.849781
    range: 45.688446
  }
}
layer {
  name: "probs"
  type: "Softmax"
  bottom: "quantized_fc8"
  top: "probs"
}
layer {
  name: "loss"
  type: "SoftmaxWithLoss"
  bottom: "quantized_fc8"
  bottom: "label"
  top: "loss"
}
layer {
  name: "acc_top1"
  type: "Accuracy"
  bottom: "quantized_fc8"
  bottom: "label"
  top: "acc_top1"
  accuracy_param {
    top_k: 1
  }
}
layer {
  name: "acc_top5"
  type: "Accuracy"
  bottom: "quantized_fc8"
  bottom: "label"
  top: "acc_top5"
  accuracy_param {
    top_k: 5
  }
}
I1222 17:44:17.628384  6570 layer_factory.hpp:77] Creating layer data
I1222 17:44:17.628463  6570 db_lmdb.cpp:35] Opened lmdb /home/ydwu/database/imagenet/ilsvrc12/lmdb_resize/ilsvrc12_val_lmdb/
I1222 17:44:17.628487  6570 net.cpp:84] Creating Layer data
I1222 17:44:17.628497  6570 net.cpp:380] data -> data
I1222 17:44:17.628509  6570 net.cpp:380] data -> label
I1222 17:44:17.628521  6570 data_transformer.cpp:25] Loading mean file from: /home/ydwu/database/imagenet/ilsvrc12/imagenet_mean.binaryproto
I1222 17:44:17.630738  6570 data_layer.cpp:45] output data size: 20,3,227,227
I1222 17:44:17.644464  6570 net.cpp:122] Setting up data
I1222 17:44:17.644528  6570 net.cpp:129] Top shape: 20 3 227 227 (3091740)
I1222 17:44:17.644546  6570 net.cpp:129] Top shape: 20 (20)
I1222 17:44:17.644552  6570 net.cpp:137] Memory required for data: 12367040
I1222 17:44:17.644563  6570 layer_factory.hpp:77] Creating layer label_data_1_split
I1222 17:44:17.644582  6570 net.cpp:84] Creating Layer label_data_1_split
I1222 17:44:17.644592  6570 net.cpp:406] label_data_1_split <- label
I1222 17:44:17.644603  6570 net.cpp:380] label_data_1_split -> label_data_1_split_0
I1222 17:44:17.644623  6570 net.cpp:380] label_data_1_split -> label_data_1_split_1
I1222 17:44:17.644632  6570 net.cpp:380] label_data_1_split -> label_data_1_split_2
I1222 17:44:17.644645  6570 net.cpp:122] Setting up label_data_1_split
I1222 17:44:17.644654  6570 net.cpp:129] Top shape: 20 (20)
I1222 17:44:17.644660  6570 net.cpp:129] Top shape: 20 (20)
I1222 17:44:17.644667  6570 net.cpp:129] Top shape: 20 (20)
I1222 17:44:17.644673  6570 net.cpp:137] Memory required for data: 12367280
I1222 17:44:17.644680  6570 layer_factory.hpp:77] Creating layer quantized_data
I1222 17:44:17.644695  6570 net.cpp:84] Creating Layer quantized_data
I1222 17:44:17.644701  6570 net.cpp:406] quantized_data <- data
I1222 17:44:17.644726  6570 net.cpp:380] quantized_data -> quantized_data
I1222 17:44:17.644752  6570 net.cpp:122] Setting up quantized_data
I1222 17:44:17.644762  6570 net.cpp:129] Top shape: 20 3 227 227 (3091740)
I1222 17:44:17.644767  6570 net.cpp:137] Memory required for data: 24734240
I1222 17:44:17.644773  6570 layer_factory.hpp:77] Creating layer conv1
I1222 17:44:17.644788  6570 net.cpp:84] Creating Layer conv1
I1222 17:44:17.644795  6570 net.cpp:406] conv1 <- quantized_data
I1222 17:44:17.644806  6570 net.cpp:380] conv1 -> conv1
I1222 17:44:17.645869  6570 net.cpp:122] Setting up conv1
I1222 17:44:17.645882  6570 net.cpp:129] Top shape: 20 96 55 55 (5808000)
I1222 17:44:17.645889  6570 net.cpp:137] Memory required for data: 47966240
I1222 17:44:17.645902  6570 layer_factory.hpp:77] Creating layer quantized_conv1
I1222 17:44:17.645915  6570 net.cpp:84] Creating Layer quantized_conv1
I1222 17:44:17.645923  6570 net.cpp:406] quantized_conv1 <- conv1
I1222 17:44:17.645931  6570 net.cpp:380] quantized_conv1 -> quantized_conv1
I1222 17:44:17.645942  6570 net.cpp:122] Setting up quantized_conv1
I1222 17:44:17.645951  6570 net.cpp:129] Top shape: 20 96 55 55 (5808000)
I1222 17:44:17.645956  6570 net.cpp:137] Memory required for data: 71198240
I1222 17:44:17.645962  6570 layer_factory.hpp:77] Creating layer relu1
I1222 17:44:17.645972  6570 net.cpp:84] Creating Layer relu1
I1222 17:44:17.645977  6570 net.cpp:406] relu1 <- quantized_conv1
I1222 17:44:17.645987  6570 net.cpp:380] relu1 -> relu1
I1222 17:44:17.645998  6570 net.cpp:122] Setting up relu1
I1222 17:44:17.646008  6570 net.cpp:129] Top shape: 20 96 55 55 (5808000)
I1222 17:44:17.646013  6570 net.cpp:137] Memory required for data: 94430240
I1222 17:44:17.646019  6570 layer_factory.hpp:77] Creating layer quantized_relu1
I1222 17:44:17.646028  6570 net.cpp:84] Creating Layer quantized_relu1
I1222 17:44:17.646034  6570 net.cpp:406] quantized_relu1 <- relu1
I1222 17:44:17.646044  6570 net.cpp:380] quantized_relu1 -> quantized_relu1
I1222 17:44:17.646054  6570 net.cpp:122] Setting up quantized_relu1
I1222 17:44:17.646062  6570 net.cpp:129] Top shape: 20 96 55 55 (5808000)
I1222 17:44:17.646069  6570 net.cpp:137] Memory required for data: 117662240
I1222 17:44:17.646075  6570 layer_factory.hpp:77] Creating layer pool1
I1222 17:44:17.646085  6570 net.cpp:84] Creating Layer pool1
I1222 17:44:17.646091  6570 net.cpp:406] pool1 <- quantized_relu1
I1222 17:44:17.646102  6570 net.cpp:380] pool1 -> pool1
I1222 17:44:17.646116  6570 net.cpp:122] Setting up pool1
I1222 17:44:17.646124  6570 net.cpp:129] Top shape: 20 96 27 27 (1399680)
I1222 17:44:17.646131  6570 net.cpp:137] Memory required for data: 123260960
I1222 17:44:17.646136  6570 layer_factory.hpp:77] Creating layer quantized_pool1
I1222 17:44:17.646145  6570 net.cpp:84] Creating Layer quantized_pool1
I1222 17:44:17.646152  6570 net.cpp:406] quantized_pool1 <- pool1
I1222 17:44:17.646162  6570 net.cpp:380] quantized_pool1 -> quantized_pool1
I1222 17:44:17.646173  6570 net.cpp:122] Setting up quantized_pool1
I1222 17:44:17.646180  6570 net.cpp:129] Top shape: 20 96 27 27 (1399680)
I1222 17:44:17.646186  6570 net.cpp:137] Memory required for data: 128859680
I1222 17:44:17.646193  6570 layer_factory.hpp:77] Creating layer norm1
I1222 17:44:17.646203  6570 net.cpp:84] Creating Layer norm1
I1222 17:44:17.646209  6570 net.cpp:406] norm1 <- quantized_pool1
I1222 17:44:17.646220  6570 net.cpp:380] norm1 -> norm1
I1222 17:44:17.646232  6570 net.cpp:122] Setting up norm1
I1222 17:44:17.646240  6570 net.cpp:129] Top shape: 20 96 27 27 (1399680)
I1222 17:44:17.646246  6570 net.cpp:137] Memory required for data: 134458400
I1222 17:44:17.646252  6570 layer_factory.hpp:77] Creating layer quantized_norm1
I1222 17:44:17.646262  6570 net.cpp:84] Creating Layer quantized_norm1
I1222 17:44:17.646270  6570 net.cpp:406] quantized_norm1 <- norm1
I1222 17:44:17.646277  6570 net.cpp:380] quantized_norm1 -> quantized_norm1
I1222 17:44:17.646286  6570 net.cpp:122] Setting up quantized_norm1
I1222 17:44:17.646294  6570 net.cpp:129] Top shape: 20 96 27 27 (1399680)
I1222 17:44:17.646312  6570 net.cpp:137] Memory required for data: 140057120
I1222 17:44:17.646319  6570 layer_factory.hpp:77] Creating layer conv2
I1222 17:44:17.646332  6570 net.cpp:84] Creating Layer conv2
I1222 17:44:17.646340  6570 net.cpp:406] conv2 <- quantized_norm1
I1222 17:44:17.646351  6570 net.cpp:380] conv2 -> conv2
I1222 17:44:17.655308  6570 net.cpp:122] Setting up conv2
I1222 17:44:17.655350  6570 net.cpp:129] Top shape: 20 256 27 27 (3732480)
I1222 17:44:17.655356  6570 net.cpp:137] Memory required for data: 154987040
I1222 17:44:17.655372  6570 layer_factory.hpp:77] Creating layer quantized_conv2
I1222 17:44:17.655390  6570 net.cpp:84] Creating Layer quantized_conv2
I1222 17:44:17.655400  6570 net.cpp:406] quantized_conv2 <- conv2
I1222 17:44:17.655411  6570 net.cpp:380] quantized_conv2 -> quantized_conv2
I1222 17:44:17.655426  6570 net.cpp:122] Setting up quantized_conv2
I1222 17:44:17.655434  6570 net.cpp:129] Top shape: 20 256 27 27 (3732480)
I1222 17:44:17.655441  6570 net.cpp:137] Memory required for data: 169916960
I1222 17:44:17.655447  6570 layer_factory.hpp:77] Creating layer relu2
I1222 17:44:17.655455  6570 net.cpp:84] Creating Layer relu2
I1222 17:44:17.655462  6570 net.cpp:406] relu2 <- quantized_conv2
I1222 17:44:17.655472  6570 net.cpp:380] relu2 -> relu2
I1222 17:44:17.655484  6570 net.cpp:122] Setting up relu2
I1222 17:44:17.655493  6570 net.cpp:129] Top shape: 20 256 27 27 (3732480)
I1222 17:44:17.655500  6570 net.cpp:137] Memory required for data: 184846880
I1222 17:44:17.655505  6570 layer_factory.hpp:77] Creating layer quantized_relu2
I1222 17:44:17.655516  6570 net.cpp:84] Creating Layer quantized_relu2
I1222 17:44:17.655524  6570 net.cpp:406] quantized_relu2 <- relu2
I1222 17:44:17.655532  6570 net.cpp:380] quantized_relu2 -> quantized_relu2
I1222 17:44:17.655541  6570 net.cpp:122] Setting up quantized_relu2
I1222 17:44:17.655550  6570 net.cpp:129] Top shape: 20 256 27 27 (3732480)
I1222 17:44:17.655555  6570 net.cpp:137] Memory required for data: 199776800
I1222 17:44:17.655561  6570 layer_factory.hpp:77] Creating layer pool2
I1222 17:44:17.655572  6570 net.cpp:84] Creating Layer pool2
I1222 17:44:17.655578  6570 net.cpp:406] pool2 <- quantized_relu2
I1222 17:44:17.655588  6570 net.cpp:380] pool2 -> pool2
I1222 17:44:17.655602  6570 net.cpp:122] Setting up pool2
I1222 17:44:17.655611  6570 net.cpp:129] Top shape: 20 256 13 13 (865280)
I1222 17:44:17.655617  6570 net.cpp:137] Memory required for data: 203237920
I1222 17:44:17.655623  6570 layer_factory.hpp:77] Creating layer quantized_pool2
I1222 17:44:17.655637  6570 net.cpp:84] Creating Layer quantized_pool2
I1222 17:44:17.655643  6570 net.cpp:406] quantized_pool2 <- pool2
I1222 17:44:17.655652  6570 net.cpp:380] quantized_pool2 -> quantized_pool2
I1222 17:44:17.655661  6570 net.cpp:122] Setting up quantized_pool2
I1222 17:44:17.655669  6570 net.cpp:129] Top shape: 20 256 13 13 (865280)
I1222 17:44:17.655675  6570 net.cpp:137] Memory required for data: 206699040
I1222 17:44:17.655681  6570 layer_factory.hpp:77] Creating layer norm2
I1222 17:44:17.655694  6570 net.cpp:84] Creating Layer norm2
I1222 17:44:17.655701  6570 net.cpp:406] norm2 <- quantized_pool2
I1222 17:44:17.655709  6570 net.cpp:380] norm2 -> norm2
I1222 17:44:17.655720  6570 net.cpp:122] Setting up norm2
I1222 17:44:17.655731  6570 net.cpp:129] Top shape: 20 256 13 13 (865280)
I1222 17:44:17.655737  6570 net.cpp:137] Memory required for data: 210160160
I1222 17:44:17.655743  6570 layer_factory.hpp:77] Creating layer quantized_norm2
I1222 17:44:17.655752  6570 net.cpp:84] Creating Layer quantized_norm2
I1222 17:44:17.655758  6570 net.cpp:406] quantized_norm2 <- norm2
I1222 17:44:17.655766  6570 net.cpp:380] quantized_norm2 -> quantized_norm2
I1222 17:44:17.655776  6570 net.cpp:122] Setting up quantized_norm2
I1222 17:44:17.655784  6570 net.cpp:129] Top shape: 20 256 13 13 (865280)
I1222 17:44:17.655791  6570 net.cpp:137] Memory required for data: 213621280
I1222 17:44:17.655797  6570 layer_factory.hpp:77] Creating layer conv3
I1222 17:44:17.655825  6570 net.cpp:84] Creating Layer conv3
I1222 17:44:17.655845  6570 net.cpp:406] conv3 <- quantized_norm2
I1222 17:44:17.655858  6570 net.cpp:380] conv3 -> conv3
I1222 17:44:17.680996  6570 net.cpp:122] Setting up conv3
I1222 17:44:17.681046  6570 net.cpp:129] Top shape: 20 384 13 13 (1297920)
I1222 17:44:17.681052  6570 net.cpp:137] Memory required for data: 218812960
I1222 17:44:17.681071  6570 layer_factory.hpp:77] Creating layer quantized_conv3
I1222 17:44:17.681088  6570 net.cpp:84] Creating Layer quantized_conv3
I1222 17:44:17.681097  6570 net.cpp:406] quantized_conv3 <- conv3
I1222 17:44:17.681109  6570 net.cpp:380] quantized_conv3 -> quantized_conv3
I1222 17:44:17.681131  6570 net.cpp:122] Setting up quantized_conv3
I1222 17:44:17.681140  6570 net.cpp:129] Top shape: 20 384 13 13 (1297920)
I1222 17:44:17.681146  6570 net.cpp:137] Memory required for data: 224004640
I1222 17:44:17.681152  6570 layer_factory.hpp:77] Creating layer relu3
I1222 17:44:17.681161  6570 net.cpp:84] Creating Layer relu3
I1222 17:44:17.681169  6570 net.cpp:406] relu3 <- quantized_conv3
I1222 17:44:17.681176  6570 net.cpp:380] relu3 -> relu3
I1222 17:44:17.681186  6570 net.cpp:122] Setting up relu3
I1222 17:44:17.681195  6570 net.cpp:129] Top shape: 20 384 13 13 (1297920)
I1222 17:44:17.681200  6570 net.cpp:137] Memory required for data: 229196320
I1222 17:44:17.681206  6570 layer_factory.hpp:77] Creating layer quantized_relu3
I1222 17:44:17.681221  6570 net.cpp:84] Creating Layer quantized_relu3
I1222 17:44:17.681228  6570 net.cpp:406] quantized_relu3 <- relu3
I1222 17:44:17.681237  6570 net.cpp:380] quantized_relu3 -> quantized_relu3
I1222 17:44:17.681246  6570 net.cpp:122] Setting up quantized_relu3
I1222 17:44:17.681277  6570 net.cpp:129] Top shape: 20 384 13 13 (1297920)
I1222 17:44:17.681283  6570 net.cpp:137] Memory required for data: 234388000
I1222 17:44:17.681290  6570 layer_factory.hpp:77] Creating layer conv4
I1222 17:44:17.681308  6570 net.cpp:84] Creating Layer conv4
I1222 17:44:17.681315  6570 net.cpp:406] conv4 <- quantized_relu3
I1222 17:44:17.681326  6570 net.cpp:380] conv4 -> conv4
I1222 17:44:17.700390  6570 net.cpp:122] Setting up conv4
I1222 17:44:17.700434  6570 net.cpp:129] Top shape: 20 384 13 13 (1297920)
I1222 17:44:17.700443  6570 net.cpp:137] Memory required for data: 239579680
I1222 17:44:17.700453  6570 layer_factory.hpp:77] Creating layer quantized_conv4
I1222 17:44:17.700469  6570 net.cpp:84] Creating Layer quantized_conv4
I1222 17:44:17.700477  6570 net.cpp:406] quantized_conv4 <- conv4
I1222 17:44:17.700489  6570 net.cpp:380] quantized_conv4 -> quantized_conv4
I1222 17:44:17.700505  6570 net.cpp:122] Setting up quantized_conv4
I1222 17:44:17.700515  6570 net.cpp:129] Top shape: 20 384 13 13 (1297920)
I1222 17:44:17.700520  6570 net.cpp:137] Memory required for data: 244771360
I1222 17:44:17.700526  6570 layer_factory.hpp:77] Creating layer relu4
I1222 17:44:17.700534  6570 net.cpp:84] Creating Layer relu4
I1222 17:44:17.700541  6570 net.cpp:406] relu4 <- quantized_conv4
I1222 17:44:17.700552  6570 net.cpp:380] relu4 -> relu4
I1222 17:44:17.700562  6570 net.cpp:122] Setting up relu4
I1222 17:44:17.700570  6570 net.cpp:129] Top shape: 20 384 13 13 (1297920)
I1222 17:44:17.700577  6570 net.cpp:137] Memory required for data: 249963040
I1222 17:44:17.700582  6570 layer_factory.hpp:77] Creating layer quantized_relu4
I1222 17:44:17.700590  6570 net.cpp:84] Creating Layer quantized_relu4
I1222 17:44:17.700598  6570 net.cpp:406] quantized_relu4 <- relu4
I1222 17:44:17.700613  6570 net.cpp:380] quantized_relu4 -> quantized_relu4
I1222 17:44:17.700623  6570 net.cpp:122] Setting up quantized_relu4
I1222 17:44:17.700631  6570 net.cpp:129] Top shape: 20 384 13 13 (1297920)
I1222 17:44:17.700637  6570 net.cpp:137] Memory required for data: 255154720
I1222 17:44:17.700644  6570 layer_factory.hpp:77] Creating layer conv5
I1222 17:44:17.700659  6570 net.cpp:84] Creating Layer conv5
I1222 17:44:17.700667  6570 net.cpp:406] conv5 <- quantized_relu4
I1222 17:44:17.700678  6570 net.cpp:380] conv5 -> conv5
I1222 17:44:17.713377  6570 net.cpp:122] Setting up conv5
I1222 17:44:17.713407  6570 net.cpp:129] Top shape: 20 256 13 13 (865280)
I1222 17:44:17.713413  6570 net.cpp:137] Memory required for data: 258615840
I1222 17:44:17.713426  6570 layer_factory.hpp:77] Creating layer quantized_conv5
I1222 17:44:17.713436  6570 net.cpp:84] Creating Layer quantized_conv5
I1222 17:44:17.713443  6570 net.cpp:406] quantized_conv5 <- conv5
I1222 17:44:17.713454  6570 net.cpp:380] quantized_conv5 -> quantized_conv5
I1222 17:44:17.713465  6570 net.cpp:122] Setting up quantized_conv5
I1222 17:44:17.713474  6570 net.cpp:129] Top shape: 20 256 13 13 (865280)
I1222 17:44:17.713480  6570 net.cpp:137] Memory required for data: 262076960
I1222 17:44:17.713485  6570 layer_factory.hpp:77] Creating layer relu5
I1222 17:44:17.713493  6570 net.cpp:84] Creating Layer relu5
I1222 17:44:17.713500  6570 net.cpp:406] relu5 <- quantized_conv5
I1222 17:44:17.713510  6570 net.cpp:380] relu5 -> relu5
I1222 17:44:17.713522  6570 net.cpp:122] Setting up relu5
I1222 17:44:17.713531  6570 net.cpp:129] Top shape: 20 256 13 13 (865280)
I1222 17:44:17.713537  6570 net.cpp:137] Memory required for data: 265538080
I1222 17:44:17.713544  6570 layer_factory.hpp:77] Creating layer quantized_relu5
I1222 17:44:17.713552  6570 net.cpp:84] Creating Layer quantized_relu5
I1222 17:44:17.713560  6570 net.cpp:406] quantized_relu5 <- relu5
I1222 17:44:17.713570  6570 net.cpp:380] quantized_relu5 -> quantized_relu5
I1222 17:44:17.713582  6570 net.cpp:122] Setting up quantized_relu5
I1222 17:44:17.713589  6570 net.cpp:129] Top shape: 20 256 13 13 (865280)
I1222 17:44:17.713595  6570 net.cpp:137] Memory required for data: 268999200
I1222 17:44:17.713601  6570 layer_factory.hpp:77] Creating layer pool5
I1222 17:44:17.713613  6570 net.cpp:84] Creating Layer pool5
I1222 17:44:17.713620  6570 net.cpp:406] pool5 <- quantized_relu5
I1222 17:44:17.713629  6570 net.cpp:380] pool5 -> pool5
I1222 17:44:17.713642  6570 net.cpp:122] Setting up pool5
I1222 17:44:17.713650  6570 net.cpp:129] Top shape: 20 256 6 6 (184320)
I1222 17:44:17.713656  6570 net.cpp:137] Memory required for data: 269736480
I1222 17:44:17.713662  6570 layer_factory.hpp:77] Creating layer quantized_pool5
I1222 17:44:17.713677  6570 net.cpp:84] Creating Layer quantized_pool5
I1222 17:44:17.713685  6570 net.cpp:406] quantized_pool5 <- pool5
I1222 17:44:17.713693  6570 net.cpp:380] quantized_pool5 -> quantized_pool5
I1222 17:44:17.713703  6570 net.cpp:122] Setting up quantized_pool5
I1222 17:44:17.713711  6570 net.cpp:129] Top shape: 20 256 6 6 (184320)
I1222 17:44:17.713717  6570 net.cpp:137] Memory required for data: 270473760
I1222 17:44:17.713723  6570 layer_factory.hpp:77] Creating layer fc6
I1222 17:44:17.713737  6570 net.cpp:84] Creating Layer fc6
I1222 17:44:17.713743  6570 net.cpp:406] fc6 <- quantized_pool5
I1222 17:44:17.713753  6570 net.cpp:380] fc6 -> fc6
I1222 17:44:17.713764  6570 quan_inner_product_layer.cpp:21] 4096   4096
I1222 17:44:18.771819  6570 net.cpp:122] Setting up fc6
I1222 17:44:18.771878  6570 net.cpp:129] Top shape: 20 4096 (81920)
I1222 17:44:18.771885  6570 net.cpp:137] Memory required for data: 270801440
I1222 17:44:18.771899  6570 layer_factory.hpp:77] Creating layer quantized_fc6
I1222 17:44:18.771916  6570 net.cpp:84] Creating Layer quantized_fc6
I1222 17:44:18.771925  6570 net.cpp:406] quantized_fc6 <- fc6
I1222 17:44:18.771939  6570 net.cpp:380] quantized_fc6 -> quantized_fc6
I1222 17:44:18.771956  6570 net.cpp:122] Setting up quantized_fc6
I1222 17:44:18.771965  6570 net.cpp:129] Top shape: 20 4096 (81920)
I1222 17:44:18.771970  6570 net.cpp:137] Memory required for data: 271129120
I1222 17:44:18.771976  6570 layer_factory.hpp:77] Creating layer relu6
I1222 17:44:18.771986  6570 net.cpp:84] Creating Layer relu6
I1222 17:44:18.771992  6570 net.cpp:406] relu6 <- quantized_fc6
I1222 17:44:18.772003  6570 net.cpp:380] relu6 -> relu6
I1222 17:44:18.772014  6570 net.cpp:122] Setting up relu6
I1222 17:44:18.772022  6570 net.cpp:129] Top shape: 20 4096 (81920)
I1222 17:44:18.772028  6570 net.cpp:137] Memory required for data: 271456800
I1222 17:44:18.772060  6570 layer_factory.hpp:77] Creating layer quantized_relu6
I1222 17:44:18.772070  6570 net.cpp:84] Creating Layer quantized_relu6
I1222 17:44:18.772076  6570 net.cpp:406] quantized_relu6 <- relu6
I1222 17:44:18.772086  6570 net.cpp:380] quantized_relu6 -> quantized_relu6
I1222 17:44:18.772096  6570 net.cpp:122] Setting up quantized_relu6
I1222 17:44:18.772104  6570 net.cpp:129] Top shape: 20 4096 (81920)
I1222 17:44:18.772110  6570 net.cpp:137] Memory required for data: 271784480
I1222 17:44:18.772116  6570 layer_factory.hpp:77] Creating layer fc7
I1222 17:44:18.772127  6570 net.cpp:84] Creating Layer fc7
I1222 17:44:18.772133  6570 net.cpp:406] fc7 <- quantized_relu6
I1222 17:44:18.772145  6570 net.cpp:380] fc7 -> fc7
I1222 17:44:18.772156  6570 quan_inner_product_layer.cpp:21] 4096   4096
I1222 17:44:19.240023  6570 net.cpp:122] Setting up fc7
I1222 17:44:19.240142  6570 net.cpp:129] Top shape: 20 4096 (81920)
I1222 17:44:19.240180  6570 net.cpp:137] Memory required for data: 272112160
I1222 17:44:19.240195  6570 layer_factory.hpp:77] Creating layer quantized_fc7
I1222 17:44:19.240212  6570 net.cpp:84] Creating Layer quantized_fc7
I1222 17:44:19.240222  6570 net.cpp:406] quantized_fc7 <- fc7
I1222 17:44:19.240239  6570 net.cpp:380] quantized_fc7 -> quantized_fc7
I1222 17:44:19.240257  6570 net.cpp:122] Setting up quantized_fc7
I1222 17:44:19.240265  6570 net.cpp:129] Top shape: 20 4096 (81920)
I1222 17:44:19.240272  6570 net.cpp:137] Memory required for data: 272439840
I1222 17:44:19.240278  6570 layer_factory.hpp:77] Creating layer relu7
I1222 17:44:19.240288  6570 net.cpp:84] Creating Layer relu7
I1222 17:44:19.240296  6570 net.cpp:406] relu7 <- quantized_fc7
I1222 17:44:19.240304  6570 net.cpp:380] relu7 -> relu7
I1222 17:44:19.240314  6570 net.cpp:122] Setting up relu7
I1222 17:44:19.240322  6570 net.cpp:129] Top shape: 20 4096 (81920)
I1222 17:44:19.240329  6570 net.cpp:137] Memory required for data: 272767520
I1222 17:44:19.240334  6570 layer_factory.hpp:77] Creating layer quantized_relu7
I1222 17:44:19.240342  6570 net.cpp:84] Creating Layer quantized_relu7
I1222 17:44:19.240350  6570 net.cpp:406] quantized_relu7 <- relu7
I1222 17:44:19.240358  6570 net.cpp:380] quantized_relu7 -> quantized_relu7
I1222 17:44:19.240368  6570 net.cpp:122] Setting up quantized_relu7
I1222 17:44:19.240376  6570 net.cpp:129] Top shape: 20 4096 (81920)
I1222 17:44:19.240382  6570 net.cpp:137] Memory required for data: 273095200
I1222 17:44:19.240388  6570 layer_factory.hpp:77] Creating layer fc8
I1222 17:44:19.240398  6570 net.cpp:84] Creating Layer fc8
I1222 17:44:19.240404  6570 net.cpp:406] fc8 <- quantized_relu7
I1222 17:44:19.240416  6570 net.cpp:380] fc8 -> fc8
I1222 17:44:19.240427  6570 quan_inner_product_layer.cpp:21] 1000   1000
I1222 17:44:19.247063  6570 net.cpp:122] Setting up fc8
I1222 17:44:19.247123  6570 net.cpp:129] Top shape: 20 1000 (20000)
I1222 17:44:19.247130  6570 net.cpp:137] Memory required for data: 273175200
I1222 17:44:19.247143  6570 layer_factory.hpp:77] Creating layer quantized_fc8
I1222 17:44:19.247159  6570 net.cpp:84] Creating Layer quantized_fc8
I1222 17:44:19.247169  6570 net.cpp:406] quantized_fc8 <- fc8
I1222 17:44:19.247182  6570 net.cpp:380] quantized_fc8 -> quantized_fc8
I1222 17:44:19.247200  6570 net.cpp:122] Setting up quantized_fc8
I1222 17:44:19.247208  6570 net.cpp:129] Top shape: 20 1000 (20000)
I1222 17:44:19.247215  6570 net.cpp:137] Memory required for data: 273255200
I1222 17:44:19.247220  6570 layer_factory.hpp:77] Creating layer quantized_fc8_quantized_fc8_0_split
I1222 17:44:19.247232  6570 net.cpp:84] Creating Layer quantized_fc8_quantized_fc8_0_split
I1222 17:44:19.247239  6570 net.cpp:406] quantized_fc8_quantized_fc8_0_split <- quantized_fc8
I1222 17:44:19.247248  6570 net.cpp:380] quantized_fc8_quantized_fc8_0_split -> quantized_fc8_quantized_fc8_0_split_0
I1222 17:44:19.247261  6570 net.cpp:380] quantized_fc8_quantized_fc8_0_split -> quantized_fc8_quantized_fc8_0_split_1
I1222 17:44:19.247270  6570 net.cpp:380] quantized_fc8_quantized_fc8_0_split -> quantized_fc8_quantized_fc8_0_split_2
I1222 17:44:19.247306  6570 net.cpp:380] quantized_fc8_quantized_fc8_0_split -> quantized_fc8_quantized_fc8_0_split_3
I1222 17:44:19.247318  6570 net.cpp:122] Setting up quantized_fc8_quantized_fc8_0_split
I1222 17:44:19.247326  6570 net.cpp:129] Top shape: 20 1000 (20000)
I1222 17:44:19.247334  6570 net.cpp:129] Top shape: 20 1000 (20000)
I1222 17:44:19.247340  6570 net.cpp:129] Top shape: 20 1000 (20000)
I1222 17:44:19.247347  6570 net.cpp:129] Top shape: 20 1000 (20000)
I1222 17:44:19.247352  6570 net.cpp:137] Memory required for data: 273575200
I1222 17:44:19.247359  6570 layer_factory.hpp:77] Creating layer probs
I1222 17:44:19.247367  6570 net.cpp:84] Creating Layer probs
I1222 17:44:19.247375  6570 net.cpp:406] probs <- quantized_fc8_quantized_fc8_0_split_0
I1222 17:44:19.247385  6570 net.cpp:380] probs -> probs
I1222 17:44:19.247402  6570 net.cpp:122] Setting up probs
I1222 17:44:19.247411  6570 net.cpp:129] Top shape: 20 1000 (20000)
I1222 17:44:19.247417  6570 net.cpp:137] Memory required for data: 273655200
I1222 17:44:19.247423  6570 layer_factory.hpp:77] Creating layer loss
I1222 17:44:19.247434  6570 net.cpp:84] Creating Layer loss
I1222 17:44:19.247442  6570 net.cpp:406] loss <- quantized_fc8_quantized_fc8_0_split_1
I1222 17:44:19.247448  6570 net.cpp:406] loss <- label_data_1_split_0
I1222 17:44:19.247457  6570 net.cpp:380] loss -> loss
…
