…
I1221 09:41:32.717036 23235 net.cpp:294] The NetState phase (0) differed from the phase (1) specified by a rule in layer data
I1221 09:41:32.717398 23235 net.cpp:51] Initializing net from parameters: 
state {
  phase: TRAIN
  level: 0
  stage: ""
}
layer {
  name: "data"
  type: "Data"
  top: "data"
  top: "label"
  include {
    phase: TRAIN
  }
  transform_param {
    mirror: false
    crop_size: 227
    mean_file: "/home/ydwu/database/imagenet/ilsvrc12/imagenet_mean.binaryproto"
  }
  data_param {
    source: "/home/ydwu/database/imagenet/ilsvrc12/lmdb_resize/ilsvrc12_train_lmdb/"
    batch_size: 32
    backend: LMDB
  }
}
layer {
  name: "quantized_data"
  type: "Quantization"
  bottom: "data"
  top: "quantized_data"
  quantization_param {
    round_method: FLOOR
    round_strategy: AGGRESSIVE
    bit_width: 8
    range: -129.93526
    range: 160.78912
  }
}
layer {
  name: "conv1"
  type: "Convolution"
  bottom: "quantized_data"
  top: "conv1"
  param {
    lr_mult: 1
    decay_mult: 1
  }
  param {
    lr_mult: 2
    decay_mult: 0
  }
  convolution_param {
    num_output: 96
    pad: 0
    kernel_size: 11
    group: 1
    stride: 4
    weight_filler {
      type: "gaussian"
      std: 1.1e+13
    }
    bias_filler {
      type: "constant"
      std: 0.1
    }
  }
}
layer {
  name: "quantized_conv1"
  type: "Quantization"
  bottom: "conv1"
  top: "quantized_conv1"
  quantization_param {
    round_method: FLOOR
    round_strategy: AGGRESSIVE
    bit_width: 8
    range: -2732.7351
    range: 2531.042
  }
}
layer {
  name: "relu1"
  type: "ReLU"
  bottom: "quantized_conv1"
  top: "relu1"
}
layer {
  name: "quantized_relu1"
  type: "Quantization"
  bottom: "relu1"
  top: "quantized_relu1"
  quantization_param {
    round_method: FLOOR
    round_strategy: AGGRESSIVE
    bit_width: 8
    range: 1
    range: 2531.042
  }
}
layer {
  name: "pool1"
  type: "Pooling"
  bottom: "quantized_relu1"
  top: "pool1"
  pooling_param {
    pool: MAX
    kernel_size: 3
    stride: 2
  }
}
layer {
  name: "quantized_pool1"
  type: "Quantization"
  bottom: "pool1"
  top: "quantized_pool1"
  quantization_param {
    round_method: FLOOR
    round_strategy: AGGRESSIVE
    bit_width: 8
    range: 1
    range: 2531.042
  }
}
layer {
  name: "norm1"
  type: "LRN"
  bottom: "quantized_pool1"
  top: "norm1"
  lrn_param {
    local_size: 5
    alpha: 0.0001
    beta: 0.75
  }
}
layer {
  name: "quantized_norm1"
  type: "Quantization"
  bottom: "norm1"
  top: "quantized_norm1"
  quantization_param {
    round_method: FLOOR
    round_strategy: AGGRESSIVE
    bit_width: 8
    range: 1
    range: 138.70576
  }
}
layer {
  name: "conv2"
  type: "Convolution"
  bottom: "quantized_norm1"
  top: "conv2"
  param {
    lr_mult: 1
    decay_mult: 1
  }
  param {
    lr_mult: 2
    decay_mult: 0
  }
  convolution_param {
    num_output: 256
    pad: 2
    kernel_size: 5
    group: 2
    stride: 1
    weight_filler {
      type: "gaussian"
      std: 1.1e+13
    }
    bias_filler {
      type: "constant"
      std: 0.1
    }
  }
}
layer {
  name: "quantized_conv2"
  type: "Quantization"
  bottom: "conv2"
  top: "quantized_conv2"
  quantization_param {
    round_method: FLOOR
    round_strategy: AGGRESSIVE
    bit_width: 8
    range: -647.61908
    range: 492.23111
  }
}
layer {
  name: "relu2"
  type: "ReLU"
  bottom: "quantized_conv2"
  top: "relu2"
}
layer {
  name: "quantized_relu2"
  type: "Quantization"
  bottom: "relu2"
  top: "quantized_relu2"
  quantization_param {
    round_method: FLOOR
    round_strategy: AGGRESSIVE
    bit_width: 8
    range: 1
    range: 492.23111
  }
}
layer {
  name: "pool2"
  type: "Pooling"
  bottom: "quantized_relu2"
  top: "pool2"
  pooling_param {
    pool: MAX
    kernel_size: 3
    stride: 2
  }
}
layer {
  name: "quantized_pool2"
  type: "Quantization"
  bottom: "pool2"
  top: "quantized_pool2"
  quantization_param {
    round_method: FLOOR
    round_strategy: AGGRESSIVE
    bit_width: 8
    range: 1
    range: 492.23111
  }
}
layer {
  name: "norm2"
  type: "LRN"
  bottom: "quantized_pool2"
  top: "norm2"
  lrn_param {
    local_size: 5
    alpha: 0.0001
    beta: 0.75
  }
}
layer {
  name: "quantized_norm2"
  type: "Quantization"
  bottom: "norm2"
  top: "quantized_norm2"
  quantization_param {
    round_method: FLOOR
    round_strategy: AGGRESSIVE
    bit_width: 8
    range: 1
    range: 138.72636
  }
}
layer {
  name: "conv3"
  type: "Convolution"
  bottom: "quantized_norm2"
  top: "conv3"
  param {
    lr_mult: 1
    decay_mult: 1
  }
  param {
    lr_mult: 2
    decay_mult: 0
  }
  convolution_param {
    num_output: 384
    pad: 1
    kernel_size: 3
    group: 1
    stride: 1
    weight_filler {
      type: "gaussian"
      std: 1.1e+13
    }
    bias_filler {
      type: "constant"
      std: 0.1
    }
  }
}
layer {
  name: "quantized_conv3"
  type: "Quantization"
  bottom: "conv3"
  top: "quantized_conv3"
  quantization_param {
    round_method: FLOOR
    round_strategy: AGGRESSIVE
    bit_width: 8
    range: -389.56516
    range: 331.98178
  }
}
layer {
  name: "relu3"
  type: "ReLU"
  bottom: "quantized_conv3"
  top: "relu3"
}
layer {
  name: "quantized_relu3"
  type: "Quantization"
  bottom: "relu3"
  top: "quantized_relu3"
  quantization_param {
    round_method: FLOOR
    round_strategy: AGGRESSIVE
    bit_width: 8
    range: 1
    range: 331.98178
  }
}
layer {
  name: "conv4"
  type: "Convolution"
  bottom: "quantized_relu3"
  top: "conv4"
  param {
    lr_mult: 1
    decay_mult: 1
  }
  param {
    lr_mult: 2
    decay_mult: 0
  }
  convolution_param {
    num_output: 384
    pad: 1
    kernel_size: 3
    group: 2
    stride: 1
    weight_filler {
      type: "gaussian"
      std: 1.1e+13
    }
    bias_filler {
      type: "constant"
      std: 0.1
    }
  }
}
layer {
  name: "quantized_conv4"
  type: "Quantization"
  bottom: "conv4"
  top: "quantized_conv4"
  quantization_param {
    round_method: FLOOR
    round_strategy: AGGRESSIVE
    bit_width: 8
    range: -231.20598
    range: 283.87189
  }
}
layer {
  name: "relu4"
  type: "ReLU"
  bottom: "quantized_conv4"
  top: "relu4"
}
layer {
  name: "quantized_relu4"
  type: "Quantization"
  bottom: "relu4"
  top: "quantized_relu4"
  quantization_param {
    round_method: FLOOR
    round_strategy: AGGRESSIVE
    bit_width: 8
    range: 1
    range: 283.87189
  }
}
layer {
  name: "conv5"
  type: "Convolution"
  bottom: "quantized_relu4"
  top: "conv5"
  param {
    lr_mult: 1
    decay_mult: 1
  }
  param {
    lr_mult: 2
    decay_mult: 0
  }
  convolution_param {
    num_output: 256
    pad: 1
    kernel_size: 3
    group: 2
    stride: 1
    weight_filler {
      type: "gaussian"
      std: 1.1e+13
    }
    bias_filler {
      type: "constant"
      std: 0.1
    }
  }
}
layer {
  name: "quantized_conv5"
  type: "Quantization"
  bottom: "conv5"
  top: "quantized_conv5"
  quantization_param {
    round_method: FLOOR
    round_strategy: AGGRESSIVE
    bit_width: 8
    range: -172.60567
    range: 272.57315
  }
}
layer {
  name: "relu5"
  type: "ReLU"
  bottom: "quantized_conv5"
  top: "relu5"
}
layer {
  name: "quantized_relu5"
  type: "Quantization"
  bottom: "relu5"
  top: "quantized_relu5"
  quantization_param {
    round_method: FLOOR
    round_strategy: AGGRESSIVE
    bit_width: 8
    range: 1
    range: 272.57315
  }
}
layer {
  name: "pool5"
  type: "Pooling"
  bottom: "quantized_relu5"
  top: "pool5"
  pooling_param {
    pool: MAX
    kernel_size: 3
    stride: 2
  }
}
layer {
  name: "quantized_pool5"
  type: "Quantization"
  bottom: "pool5"
  top: "quantized_pool5"
  quantization_param {
    round_method: FLOOR
    round_strategy: AGGRESSIVE
    bit_width: 8
    range: 1
    range: 272.57315
  }
}
layer {
  name: "fc6"
  type: "InnerProduct"
  bottom: "quantized_pool5"
  top: "fc6"
  param {
    lr_mult: 1
    decay_mult: 1
  }
  param {
    lr_mult: 2
    decay_mult: 0
  }
  inner_product_param {
    num_output: 4096
    weight_filler {
      type: "gaussian"
      std: 1.05e+13
    }
    bias_filler {
      type: "constant"
      value: 0.1
    }
  }
}
layer {
  name: "quantized_fc6"
  type: "Quantization"
  bottom: "fc6"
  top: "quantized_fc6"
  quantization_param {
    round_method: FLOOR
    round_strategy: AGGRESSIVE
    bit_width: 8
    range: -114.02487
    range: 58.541733
  }
}
layer {
  name: "relu6"
  type: "ReLU"
  bottom: "quantized_fc6"
  top: "relu6"
}
layer {
  name: "quantized_relu6"
  type: "Quantization"
  bottom: "relu6"
  top: "quantized_relu6"
  quantization_param {
    round_method: FLOOR
    round_strategy: AGGRESSIVE
    bit_width: 8
    range: 1
    range: 58.541733
  }
}
layer {
  name: "fc7"
  type: "InnerProduct"
  bottom: "quantized_relu6"
  top: "fc7"
  param {
    lr_mult: 1
    decay_mult: 1
  }
  param {
    lr_mult: 2
    decay_mult: 0
  }
  inner_product_param {
    num_output: 4096
    weight_filler {
      type: "gaussian"
      std: 1.05e+13
    }
    bias_filler {
      type: "constant"
      value: 0.1
    }
  }
}
layer {
  name: "quantized_fc7"
  type: "Quantization"
  bottom: "fc7"
  top: "quantized_fc7"
  quantization_param {
    round_method: FLOOR
    round_strategy: AGGRESSIVE
    bit_width: 8
    range: -26.019335
    range: 19.125257
  }
}
layer {
  name: "relu7"
  type: "ReLU"
  bottom: "quantized_fc7"
  top: "relu7"
}
layer {
  name: "quantized_relu7"
  type: "Quantization"
  bottom: "relu7"
  top: "quantized_relu7"
  quantization_param {
    round_method: FLOOR
    round_strategy: AGGRESSIVE
    bit_width: 8
    range: 1
    range: 19.125257
  }
}
layer {
  name: "fc8"
  type: "InnerProduct"
  bottom: "quantized_relu7"
  top: "fc8"
  param {
    lr_mult: 1
    decay_mult: 1
  }
  param {
    lr_mult: 2
    decay_mult: 0
  }
  inner_product_param {
    num_output: 1000
  }
}
layer {
  name: "quantized_fc8"
  type: "Quantization"
  bottom: "fc8"
  top: "quantized_fc8"
  quantization_param {
    round_method: FLOOR
    round_strategy: AGGRESSIVE
    bit_width: 8
    range: -9.849781
    range: 45.688446
  }
}
layer {
  name: "probs"
  type: "Softmax"
  bottom: "quantized_fc8"
  top: "probs"
}
layer {
  name: "loss"
  type: "SoftmaxWithLoss"
  bottom: "quantized_fc8"
  bottom: "label"
  top: "loss"
}
layer {
  name: "acc_top1"
  type: "Accuracy"
  bottom: "quantized_fc8"
  bottom: "label"
  top: "acc_top1"
  accuracy_param {
    top_k: 1
  }
}
layer {
  name: "acc_top5"
  type: "Accuracy"
  bottom: "quantized_fc8"
  bottom: "label"
  top: "acc_top5"
  accuracy_param {
    top_k: 5
  }
}
I1221 09:41:32.717631 23235 layer_factory.hpp:77] Creating layer data
I1221 09:41:32.717753 23235 db_lmdb.cpp:35] Opened lmdb /home/ydwu/database/imagenet/ilsvrc12/lmdb_resize/ilsvrc12_train_lmdb/
I1221 09:41:32.717795 23235 net.cpp:84] Creating Layer data
I1221 09:41:32.717813 23235 net.cpp:380] data -> data
I1221 09:41:32.717846 23235 net.cpp:380] data -> label
I1221 09:41:32.717870 23235 data_transformer.cpp:25] Loading mean file from: /home/ydwu/database/imagenet/ilsvrc12/imagenet_mean.binaryproto
I1221 09:41:32.720374 23235 data_layer.cpp:45] output data size: 32,3,227,227
I1221 09:41:32.741004 23235 net.cpp:122] Setting up data
I1221 09:41:32.741111 23235 net.cpp:129] Top shape: 32 3 227 227 (4946784)
I1221 09:41:32.741130 23235 net.cpp:129] Top shape: 32 (32)
I1221 09:41:32.741144 23235 net.cpp:137] Memory required for data: 19787264
I1221 09:41:32.741165 23235 layer_factory.hpp:77] Creating layer label_data_1_split
I1221 09:41:32.741189 23235 net.cpp:84] Creating Layer label_data_1_split
I1221 09:41:32.741199 23235 net.cpp:406] label_data_1_split <- label
I1221 09:41:32.741220 23235 net.cpp:380] label_data_1_split -> label_data_1_split_0
I1221 09:41:32.741237 23235 net.cpp:380] label_data_1_split -> label_data_1_split_1
I1221 09:41:32.741261 23235 net.cpp:380] label_data_1_split -> label_data_1_split_2
I1221 09:41:32.741297 23235 net.cpp:122] Setting up label_data_1_split
I1221 09:41:32.741307 23235 net.cpp:129] Top shape: 32 (32)
I1221 09:41:32.741315 23235 net.cpp:129] Top shape: 32 (32)
I1221 09:41:32.741322 23235 net.cpp:129] Top shape: 32 (32)
I1221 09:41:32.741329 23235 net.cpp:137] Memory required for data: 19787648
I1221 09:41:32.741335 23235 layer_factory.hpp:77] Creating layer quantized_data
I1221 09:41:32.741351 23235 net.cpp:84] Creating Layer quantized_data
I1221 09:41:32.741358 23235 net.cpp:406] quantized_data <- data
I1221 09:41:32.741369 23235 net.cpp:380] quantized_data -> quantized_data
I1221 09:41:32.741384 23235 net.cpp:122] Setting up quantized_data
I1221 09:41:32.741394 23235 net.cpp:129] Top shape: 32 3 227 227 (4946784)
I1221 09:41:32.741400 23235 net.cpp:137] Memory required for data: 39574784
I1221 09:41:32.741406 23235 layer_factory.hpp:77] Creating layer conv1
I1221 09:41:32.741430 23235 net.cpp:84] Creating Layer conv1
I1221 09:41:32.741439 23235 net.cpp:406] conv1 <- quantized_data
I1221 09:41:32.741449 23235 net.cpp:380] conv1 -> conv1
I1221 09:41:32.742570 23235 net.cpp:122] Setting up conv1
I1221 09:41:32.742585 23235 net.cpp:129] Top shape: 32 96 55 55 (9292800)
I1221 09:41:32.742593 23235 net.cpp:137] Memory required for data: 76745984
I1221 09:41:32.742614 23235 layer_factory.hpp:77] Creating layer quantized_conv1
I1221 09:41:32.742625 23235 net.cpp:84] Creating Layer quantized_conv1
I1221 09:41:32.742632 23235 net.cpp:406] quantized_conv1 <- conv1
I1221 09:41:32.742642 23235 net.cpp:380] quantized_conv1 -> quantized_conv1
I1221 09:41:32.742653 23235 net.cpp:122] Setting up quantized_conv1
I1221 09:41:32.742663 23235 net.cpp:129] Top shape: 32 96 55 55 (9292800)
I1221 09:41:32.742669 23235 net.cpp:137] Memory required for data: 113917184
I1221 09:41:32.742676 23235 layer_factory.hpp:77] Creating layer relu1
I1221 09:41:32.742688 23235 net.cpp:84] Creating Layer relu1
I1221 09:41:32.742696 23235 net.cpp:406] relu1 <- quantized_conv1
I1221 09:41:32.742707 23235 net.cpp:380] relu1 -> relu1
I1221 09:41:32.742717 23235 net.cpp:122] Setting up relu1
I1221 09:41:32.742727 23235 net.cpp:129] Top shape: 32 96 55 55 (9292800)
I1221 09:41:32.742733 23235 net.cpp:137] Memory required for data: 151088384
I1221 09:41:32.742739 23235 layer_factory.hpp:77] Creating layer quantized_relu1
I1221 09:41:32.742748 23235 net.cpp:84] Creating Layer quantized_relu1
I1221 09:41:32.742755 23235 net.cpp:406] quantized_relu1 <- relu1
I1221 09:41:32.742764 23235 net.cpp:380] quantized_relu1 -> quantized_relu1
I1221 09:41:32.742774 23235 net.cpp:122] Setting up quantized_relu1
I1221 09:41:32.742784 23235 net.cpp:129] Top shape: 32 96 55 55 (9292800)
I1221 09:41:32.742789 23235 net.cpp:137] Memory required for data: 188259584
I1221 09:41:32.742796 23235 layer_factory.hpp:77] Creating layer pool1
I1221 09:41:32.742807 23235 net.cpp:84] Creating Layer pool1
I1221 09:41:32.742815 23235 net.cpp:406] pool1 <- quantized_relu1
I1221 09:41:32.742833 23235 net.cpp:380] pool1 -> pool1
I1221 09:41:32.742858 23235 net.cpp:122] Setting up pool1
I1221 09:41:32.742869 23235 net.cpp:129] Top shape: 32 96 27 27 (2239488)
I1221 09:41:32.742875 23235 net.cpp:137] Memory required for data: 197217536
I1221 09:41:32.742882 23235 layer_factory.hpp:77] Creating layer quantized_pool1
I1221 09:41:32.742893 23235 net.cpp:84] Creating Layer quantized_pool1
I1221 09:41:32.742900 23235 net.cpp:406] quantized_pool1 <- pool1
I1221 09:41:32.742910 23235 net.cpp:380] quantized_pool1 -> quantized_pool1
I1221 09:41:32.742920 23235 net.cpp:122] Setting up quantized_pool1
I1221 09:41:32.742929 23235 net.cpp:129] Top shape: 32 96 27 27 (2239488)
I1221 09:41:32.742935 23235 net.cpp:137] Memory required for data: 206175488
I1221 09:41:32.742943 23235 layer_factory.hpp:77] Creating layer norm1
I1221 09:41:32.742954 23235 net.cpp:84] Creating Layer norm1
I1221 09:41:32.742969 23235 net.cpp:406] norm1 <- quantized_pool1
I1221 09:41:32.742977 23235 net.cpp:380] norm1 -> norm1
I1221 09:41:32.743000 23235 net.cpp:122] Setting up norm1
I1221 09:41:32.743018 23235 net.cpp:129] Top shape: 32 96 27 27 (2239488)
I1221 09:41:32.743026 23235 net.cpp:137] Memory required for data: 215133440
I1221 09:41:32.743032 23235 layer_factory.hpp:77] Creating layer quantized_norm1
I1221 09:41:32.743042 23235 net.cpp:84] Creating Layer quantized_norm1
I1221 09:41:32.743049 23235 net.cpp:406] quantized_norm1 <- norm1
I1221 09:41:32.743058 23235 net.cpp:380] quantized_norm1 -> quantized_norm1
I1221 09:41:32.743069 23235 net.cpp:122] Setting up quantized_norm1
I1221 09:41:32.743077 23235 net.cpp:129] Top shape: 32 96 27 27 (2239488)
I1221 09:41:32.743084 23235 net.cpp:137] Memory required for data: 224091392
I1221 09:41:32.743090 23235 layer_factory.hpp:77] Creating layer conv2
I1221 09:41:32.743104 23235 net.cpp:84] Creating Layer conv2
I1221 09:41:32.743111 23235 net.cpp:406] conv2 <- quantized_norm1
I1221 09:41:32.743122 23235 net.cpp:380] conv2 -> conv2
I1221 09:41:32.752416 23235 net.cpp:122] Setting up conv2
I1221 09:41:32.752462 23235 net.cpp:129] Top shape: 32 256 27 27 (5971968)
I1221 09:41:32.752470 23235 net.cpp:137] Memory required for data: 247979264
I1221 09:41:32.752488 23235 layer_factory.hpp:77] Creating layer quantized_conv2
I1221 09:41:32.752507 23235 net.cpp:84] Creating Layer quantized_conv2
I1221 09:41:32.752517 23235 net.cpp:406] quantized_conv2 <- conv2
I1221 09:41:32.752529 23235 net.cpp:380] quantized_conv2 -> quantized_conv2
I1221 09:41:32.752545 23235 net.cpp:122] Setting up quantized_conv2
I1221 09:41:32.752554 23235 net.cpp:129] Top shape: 32 256 27 27 (5971968)
I1221 09:41:32.752562 23235 net.cpp:137] Memory required for data: 271867136
I1221 09:41:32.752568 23235 layer_factory.hpp:77] Creating layer relu2
I1221 09:41:32.752580 23235 net.cpp:84] Creating Layer relu2
I1221 09:41:32.752588 23235 net.cpp:406] relu2 <- quantized_conv2
I1221 09:41:32.752596 23235 net.cpp:380] relu2 -> relu2
I1221 09:41:32.752609 23235 net.cpp:122] Setting up relu2
I1221 09:41:32.752617 23235 net.cpp:129] Top shape: 32 256 27 27 (5971968)
I1221 09:41:32.752624 23235 net.cpp:137] Memory required for data: 295755008
I1221 09:41:32.752631 23235 layer_factory.hpp:77] Creating layer quantized_relu2
I1221 09:41:32.752640 23235 net.cpp:84] Creating Layer quantized_relu2
I1221 09:41:32.752647 23235 net.cpp:406] quantized_relu2 <- relu2
I1221 09:41:32.752661 23235 net.cpp:380] quantized_relu2 -> quantized_relu2
I1221 09:41:32.752672 23235 net.cpp:122] Setting up quantized_relu2
I1221 09:41:32.752681 23235 net.cpp:129] Top shape: 32 256 27 27 (5971968)
I1221 09:41:32.752687 23235 net.cpp:137] Memory required for data: 319642880
I1221 09:41:32.752694 23235 layer_factory.hpp:77] Creating layer pool2
I1221 09:41:32.752707 23235 net.cpp:84] Creating Layer pool2
I1221 09:41:32.752714 23235 net.cpp:406] pool2 <- quantized_relu2
I1221 09:41:32.752723 23235 net.cpp:380] pool2 -> pool2
I1221 09:41:32.752737 23235 net.cpp:122] Setting up pool2
I1221 09:41:32.752746 23235 net.cpp:129] Top shape: 32 256 13 13 (1384448)
I1221 09:41:32.752753 23235 net.cpp:137] Memory required for data: 325180672
I1221 09:41:32.752759 23235 layer_factory.hpp:77] Creating layer quantized_pool2
I1221 09:41:32.752774 23235 net.cpp:84] Creating Layer quantized_pool2
I1221 09:41:32.752780 23235 net.cpp:406] quantized_pool2 <- pool2
I1221 09:41:32.752789 23235 net.cpp:380] quantized_pool2 -> quantized_pool2
I1221 09:41:32.752799 23235 net.cpp:122] Setting up quantized_pool2
I1221 09:41:32.752809 23235 net.cpp:129] Top shape: 32 256 13 13 (1384448)
I1221 09:41:32.752815 23235 net.cpp:137] Memory required for data: 330718464
I1221 09:41:32.752822 23235 layer_factory.hpp:77] Creating layer norm2
I1221 09:41:32.752835 23235 net.cpp:84] Creating Layer norm2
I1221 09:41:32.752842 23235 net.cpp:406] norm2 <- quantized_pool2
I1221 09:41:32.752851 23235 net.cpp:380] norm2 -> norm2
I1221 09:41:32.752863 23235 net.cpp:122] Setting up norm2
I1221 09:41:32.752872 23235 net.cpp:129] Top shape: 32 256 13 13 (1384448)
I1221 09:41:32.752879 23235 net.cpp:137] Memory required for data: 336256256
I1221 09:41:32.752915 23235 layer_factory.hpp:77] Creating layer quantized_norm2
I1221 09:41:32.752928 23235 net.cpp:84] Creating Layer quantized_norm2
I1221 09:41:32.752938 23235 net.cpp:406] quantized_norm2 <- norm2
I1221 09:41:32.752945 23235 net.cpp:380] quantized_norm2 -> quantized_norm2
I1221 09:41:32.752956 23235 net.cpp:122] Setting up quantized_norm2
I1221 09:41:32.752965 23235 net.cpp:129] Top shape: 32 256 13 13 (1384448)
I1221 09:41:32.752971 23235 net.cpp:137] Memory required for data: 341794048
I1221 09:41:32.752979 23235 layer_factory.hpp:77] Creating layer conv3
I1221 09:41:32.752995 23235 net.cpp:84] Creating Layer conv3
I1221 09:41:32.753002 23235 net.cpp:406] conv3 <- quantized_norm2
I1221 09:41:32.753015 23235 net.cpp:380] conv3 -> conv3
I1221 09:41:32.779830 23235 net.cpp:122] Setting up conv3
I1221 09:41:32.779881 23235 net.cpp:129] Top shape: 32 384 13 13 (2076672)
I1221 09:41:32.779887 23235 net.cpp:137] Memory required for data: 350100736
I1221 09:41:32.779906 23235 layer_factory.hpp:77] Creating layer quantized_conv3
I1221 09:41:32.779924 23235 net.cpp:84] Creating Layer quantized_conv3
I1221 09:41:32.779933 23235 net.cpp:406] quantized_conv3 <- conv3
I1221 09:41:32.779945 23235 net.cpp:380] quantized_conv3 -> quantized_conv3
I1221 09:41:32.779963 23235 net.cpp:122] Setting up quantized_conv3
I1221 09:41:32.779971 23235 net.cpp:129] Top shape: 32 384 13 13 (2076672)
I1221 09:41:32.779978 23235 net.cpp:137] Memory required for data: 358407424
I1221 09:41:32.779984 23235 layer_factory.hpp:77] Creating layer relu3
I1221 09:41:32.779997 23235 net.cpp:84] Creating Layer relu3
I1221 09:41:32.780004 23235 net.cpp:406] relu3 <- quantized_conv3
I1221 09:41:32.780014 23235 net.cpp:380] relu3 -> relu3
I1221 09:41:32.780025 23235 net.cpp:122] Setting up relu3
I1221 09:41:32.780033 23235 net.cpp:129] Top shape: 32 384 13 13 (2076672)
I1221 09:41:32.780040 23235 net.cpp:137] Memory required for data: 366714112
I1221 09:41:32.780046 23235 layer_factory.hpp:77] Creating layer quantized_relu3
I1221 09:41:32.780057 23235 net.cpp:84] Creating Layer quantized_relu3
I1221 09:41:32.780064 23235 net.cpp:406] quantized_relu3 <- relu3
I1221 09:41:32.780073 23235 net.cpp:380] quantized_relu3 -> quantized_relu3
I1221 09:41:32.780083 23235 net.cpp:122] Setting up quantized_relu3
I1221 09:41:32.780092 23235 net.cpp:129] Top shape: 32 384 13 13 (2076672)
I1221 09:41:32.780099 23235 net.cpp:137] Memory required for data: 375020800
I1221 09:41:32.780107 23235 layer_factory.hpp:77] Creating layer conv4
I1221 09:41:32.780124 23235 net.cpp:84] Creating Layer conv4
I1221 09:41:32.780131 23235 net.cpp:406] conv4 <- quantized_relu3
I1221 09:41:32.780144 23235 net.cpp:380] conv4 -> conv4
I1221 09:41:32.800571 23235 net.cpp:122] Setting up conv4
I1221 09:41:32.800622 23235 net.cpp:129] Top shape: 32 384 13 13 (2076672)
I1221 09:41:32.800629 23235 net.cpp:137] Memory required for data: 383327488
I1221 09:41:32.800643 23235 layer_factory.hpp:77] Creating layer quantized_conv4
I1221 09:41:32.800662 23235 net.cpp:84] Creating Layer quantized_conv4
I1221 09:41:32.800671 23235 net.cpp:406] quantized_conv4 <- conv4
I1221 09:41:32.800685 23235 net.cpp:380] quantized_conv4 -> quantized_conv4
I1221 09:41:32.800703 23235 net.cpp:122] Setting up quantized_conv4
I1221 09:41:32.800710 23235 net.cpp:129] Top shape: 32 384 13 13 (2076672)
I1221 09:41:32.800717 23235 net.cpp:137] Memory required for data: 391634176
I1221 09:41:32.800724 23235 layer_factory.hpp:77] Creating layer relu4
I1221 09:41:32.800736 23235 net.cpp:84] Creating Layer relu4
I1221 09:41:32.800743 23235 net.cpp:406] relu4 <- quantized_conv4
I1221 09:41:32.800752 23235 net.cpp:380] relu4 -> relu4
I1221 09:41:32.800762 23235 net.cpp:122] Setting up relu4
I1221 09:41:32.800771 23235 net.cpp:129] Top shape: 32 384 13 13 (2076672)
I1221 09:41:32.800778 23235 net.cpp:137] Memory required for data: 399940864
I1221 09:41:32.800786 23235 layer_factory.hpp:77] Creating layer quantized_relu4
I1221 09:41:32.800793 23235 net.cpp:84] Creating Layer quantized_relu4
I1221 09:41:32.800814 23235 net.cpp:406] quantized_relu4 <- relu4
I1221 09:41:32.800842 23235 net.cpp:380] quantized_relu4 -> quantized_relu4
I1221 09:41:32.800854 23235 net.cpp:122] Setting up quantized_relu4
I1221 09:41:32.800863 23235 net.cpp:129] Top shape: 32 384 13 13 (2076672)
I1221 09:41:32.800869 23235 net.cpp:137] Memory required for data: 408247552
I1221 09:41:32.800876 23235 layer_factory.hpp:77] Creating layer conv5
I1221 09:41:32.800894 23235 net.cpp:84] Creating Layer conv5
I1221 09:41:32.800901 23235 net.cpp:406] conv5 <- quantized_relu4
I1221 09:41:32.800911 23235 net.cpp:380] conv5 -> conv5
I1221 09:41:32.814535 23235 net.cpp:122] Setting up conv5
I1221 09:41:32.814584 23235 net.cpp:129] Top shape: 32 256 13 13 (1384448)
I1221 09:41:32.814592 23235 net.cpp:137] Memory required for data: 413785344
I1221 09:41:32.814611 23235 layer_factory.hpp:77] Creating layer quantized_conv5
I1221 09:41:32.814631 23235 net.cpp:84] Creating Layer quantized_conv5
I1221 09:41:32.814641 23235 net.cpp:406] quantized_conv5 <- conv5
I1221 09:41:32.814656 23235 net.cpp:380] quantized_conv5 -> quantized_conv5
I1221 09:41:32.814671 23235 net.cpp:122] Setting up quantized_conv5
I1221 09:41:32.814680 23235 net.cpp:129] Top shape: 32 256 13 13 (1384448)
I1221 09:41:32.814687 23235 net.cpp:137] Memory required for data: 419323136
I1221 09:41:32.814694 23235 layer_factory.hpp:77] Creating layer relu5
I1221 09:41:32.814703 23235 net.cpp:84] Creating Layer relu5
I1221 09:41:32.814710 23235 net.cpp:406] relu5 <- quantized_conv5
I1221 09:41:32.814723 23235 net.cpp:380] relu5 -> relu5
I1221 09:41:32.814738 23235 net.cpp:122] Setting up relu5
I1221 09:41:32.814749 23235 net.cpp:129] Top shape: 32 256 13 13 (1384448)
I1221 09:41:32.814755 23235 net.cpp:137] Memory required for data: 424860928
I1221 09:41:32.814761 23235 layer_factory.hpp:77] Creating layer quantized_relu5
I1221 09:41:32.814774 23235 net.cpp:84] Creating Layer quantized_relu5
I1221 09:41:32.814780 23235 net.cpp:406] quantized_relu5 <- relu5
I1221 09:41:32.814790 23235 net.cpp:380] quantized_relu5 -> quantized_relu5
I1221 09:41:32.814800 23235 net.cpp:122] Setting up quantized_relu5
I1221 09:41:32.814808 23235 net.cpp:129] Top shape: 32 256 13 13 (1384448)
I1221 09:41:32.814815 23235 net.cpp:137] Memory required for data: 430398720
I1221 09:41:32.814821 23235 layer_factory.hpp:77] Creating layer pool5
I1221 09:41:32.814831 23235 net.cpp:84] Creating Layer pool5
I1221 09:41:32.814838 23235 net.cpp:406] pool5 <- quantized_relu5
I1221 09:41:32.814849 23235 net.cpp:380] pool5 -> pool5
I1221 09:41:32.814863 23235 net.cpp:122] Setting up pool5
I1221 09:41:32.814872 23235 net.cpp:129] Top shape: 32 256 6 6 (294912)
I1221 09:41:32.814879 23235 net.cpp:137] Memory required for data: 431578368
I1221 09:41:32.814887 23235 layer_factory.hpp:77] Creating layer quantized_pool5
I1221 09:41:32.814900 23235 net.cpp:84] Creating Layer quantized_pool5
I1221 09:41:32.814908 23235 net.cpp:406] quantized_pool5 <- pool5
I1221 09:41:32.814918 23235 net.cpp:380] quantized_pool5 -> quantized_pool5
I1221 09:41:32.814929 23235 net.cpp:122] Setting up quantized_pool5
I1221 09:41:32.814936 23235 net.cpp:129] Top shape: 32 256 6 6 (294912)
I1221 09:41:32.814944 23235 net.cpp:137] Memory required for data: 432758016
I1221 09:41:32.814950 23235 layer_factory.hpp:77] Creating layer fc6
I1221 09:41:32.814975 23235 net.cpp:84] Creating Layer fc6
I1221 09:41:32.814985 23235 net.cpp:406] fc6 <- quantized_pool5
I1221 09:41:32.814996 23235 net.cpp:380] fc6 -> fc6
I1221 09:41:33.908352 23235 net.cpp:122] Setting up fc6
I1221 09:41:33.908411 23235 net.cpp:129] Top shape: 32 4096 (131072)
I1221 09:41:33.908419 23235 net.cpp:137] Memory required for data: 433282304
I1221 09:41:33.908433 23235 layer_factory.hpp:77] Creating layer quantized_fc6
I1221 09:41:33.908452 23235 net.cpp:84] Creating Layer quantized_fc6
I1221 09:41:33.908460 23235 net.cpp:406] quantized_fc6 <- fc6
I1221 09:41:33.908480 23235 net.cpp:380] quantized_fc6 -> quantized_fc6
I1221 09:41:33.908499 23235 net.cpp:122] Setting up quantized_fc6
I1221 09:41:33.908519 23235 net.cpp:129] Top shape: 32 4096 (131072)
I1221 09:41:33.908540 23235 net.cpp:137] Memory required for data: 433806592
I1221 09:41:33.908546 23235 layer_factory.hpp:77] Creating layer relu6
I1221 09:41:33.908556 23235 net.cpp:84] Creating Layer relu6
I1221 09:41:33.908563 23235 net.cpp:406] relu6 <- quantized_fc6
I1221 09:41:33.908571 23235 net.cpp:380] relu6 -> relu6
I1221 09:41:33.908581 23235 net.cpp:122] Setting up relu6
I1221 09:41:33.908589 23235 net.cpp:129] Top shape: 32 4096 (131072)
I1221 09:41:33.908596 23235 net.cpp:137] Memory required for data: 434330880
I1221 09:41:33.908601 23235 layer_factory.hpp:77] Creating layer quantized_relu6
I1221 09:41:33.908610 23235 net.cpp:84] Creating Layer quantized_relu6
I1221 09:41:33.908617 23235 net.cpp:406] quantized_relu6 <- relu6
I1221 09:41:33.908625 23235 net.cpp:380] quantized_relu6 -> quantized_relu6
I1221 09:41:33.908634 23235 net.cpp:122] Setting up quantized_relu6
I1221 09:41:33.908643 23235 net.cpp:129] Top shape: 32 4096 (131072)
I1221 09:41:33.908648 23235 net.cpp:137] Memory required for data: 434855168
I1221 09:41:33.908655 23235 layer_factory.hpp:77] Creating layer fc7
I1221 09:41:33.908669 23235 net.cpp:84] Creating Layer fc7
I1221 09:41:33.908676 23235 net.cpp:406] fc7 <- quantized_relu6
I1221 09:41:33.908686 23235 net.cpp:380] fc7 -> fc7
I1221 09:41:34.375398 23235 net.cpp:122] Setting up fc7
I1221 09:41:34.375460 23235 net.cpp:129] Top shape: 32 4096 (131072)
I1221 09:41:34.375468 23235 net.cpp:137] Memory required for data: 435379456
I1221 09:41:34.375483 23235 layer_factory.hpp:77] Creating layer quantized_fc7
I1221 09:41:34.375501 23235 net.cpp:84] Creating Layer quantized_fc7
I1221 09:41:34.375511 23235 net.cpp:406] quantized_fc7 <- fc7
I1221 09:41:34.375524 23235 net.cpp:380] quantized_fc7 -> quantized_fc7
I1221 09:41:34.375540 23235 net.cpp:122] Setting up quantized_fc7
I1221 09:41:34.375550 23235 net.cpp:129] Top shape: 32 4096 (131072)
I1221 09:41:34.375555 23235 net.cpp:137] Memory required for data: 435903744
I1221 09:41:34.375561 23235 layer_factory.hpp:77] Creating layer relu7
I1221 09:41:34.375571 23235 net.cpp:84] Creating Layer relu7
I1221 09:41:34.375577 23235 net.cpp:406] relu7 <- quantized_fc7
I1221 09:41:34.375586 23235 net.cpp:380] relu7 -> relu7
I1221 09:41:34.375596 23235 net.cpp:122] Setting up relu7
I1221 09:41:34.375604 23235 net.cpp:129] Top shape: 32 4096 (131072)
I1221 09:41:34.375610 23235 net.cpp:137] Memory required for data: 436428032
I1221 09:41:34.375617 23235 layer_factory.hpp:77] Creating layer quantized_relu7
I1221 09:41:34.375625 23235 net.cpp:84] Creating Layer quantized_relu7
I1221 09:41:34.375633 23235 net.cpp:406] quantized_relu7 <- relu7
I1221 09:41:34.375643 23235 net.cpp:380] quantized_relu7 -> quantized_relu7
I1221 09:41:34.375653 23235 net.cpp:122] Setting up quantized_relu7
I1221 09:41:34.375661 23235 net.cpp:129] Top shape: 32 4096 (131072)
I1221 09:41:34.375668 23235 net.cpp:137] Memory required for data: 436952320
I1221 09:41:34.375674 23235 layer_factory.hpp:77] Creating layer fc8
I1221 09:41:34.375685 23235 net.cpp:84] Creating Layer fc8
I1221 09:41:34.375692 23235 net.cpp:406] fc8 <- quantized_relu7
I1221 09:41:34.375700 23235 net.cpp:380] fc8 -> fc8
I1221 09:41:34.382131 23235 net.cpp:122] Setting up fc8
I1221 09:41:34.382194 23235 net.cpp:129] Top shape: 32 1000 (32000)
I1221 09:41:34.382202 23235 net.cpp:137] Memory required for data: 437080320
I1221 09:41:34.382216 23235 layer_factory.hpp:77] Creating layer quantized_fc8
I1221 09:41:34.382236 23235 net.cpp:84] Creating Layer quantized_fc8
I1221 09:41:34.382246 23235 net.cpp:406] quantized_fc8 <- fc8
I1221 09:41:34.382258 23235 net.cpp:380] quantized_fc8 -> quantized_fc8
I1221 09:41:34.382275 23235 net.cpp:122] Setting up quantized_fc8
I1221 09:41:34.382287 23235 net.cpp:129] Top shape: 32 1000 (32000)
I1221 09:41:34.382292 23235 net.cpp:137] Memory required for data: 437208320
I1221 09:41:34.382298 23235 layer_factory.hpp:77] Creating layer quantized_fc8_quantized_fc8_0_split
I1221 09:41:34.382308 23235 net.cpp:84] Creating Layer quantized_fc8_quantized_fc8_0_split
I1221 09:41:34.382377 23235 net.cpp:406] quantized_fc8_quantized_fc8_0_split <- quantized_fc8
I1221 09:41:34.382386 23235 net.cpp:380] quantized_fc8_quantized_fc8_0_split -> quantized_fc8_quantized_fc8_0_split_0
I1221 09:41:34.382396 23235 net.cpp:380] quantized_fc8_quantized_fc8_0_split -> quantized_fc8_quantized_fc8_0_split_1
I1221 09:41:34.382406 23235 net.cpp:380] quantized_fc8_quantized_fc8_0_split -> quantized_fc8_quantized_fc8_0_split_2
I1221 09:41:34.382418 23235 net.cpp:380] quantized_fc8_quantized_fc8_0_split -> quantized_fc8_quantized_fc8_0_split_3
I1221 09:41:34.382429 23235 net.cpp:122] Setting up quantized_fc8_quantized_fc8_0_split
I1221 09:41:34.382438 23235 net.cpp:129] Top shape: 32 1000 (32000)
I1221 09:41:34.382446 23235 net.cpp:129] Top shape: 32 1000 (32000)
I1221 09:41:34.382452 23235 net.cpp:129] Top shape: 32 1000 (32000)
I1221 09:41:34.382458 23235 net.cpp:129] Top shape: 32 1000 (32000)
I1221 09:41:34.382464 23235 net.cpp:137] Memory required for data: 437720320
I1221 09:41:34.382472 23235 layer_factory.hpp:77] Creating layer probs
I1221 09:41:34.382480 23235 net.cpp:84] Creating Layer probs
I1221 09:41:34.382493 23235 net.cpp:406] probs <- quantized_fc8_quantized_fc8_0_split_0
I1221 09:41:34.382500 23235 net.cpp:380] probs -> probs
I1221 09:41:34.382525 23235 net.cpp:122] Setting up probs
I1221 09:41:34.382534 23235 net.cpp:129] Top shape: 32 1000 (32000)
I1221 09:41:34.382540 23235 net.cpp:137] Memory required for data: 437848320
I1221 09:41:34.382546 23235 layer_factory.hpp:77] Creating layer loss
I1221 09:41:34.382557 23235 net.cpp:84] Creating Layer loss
I1221 09:41:34.382565 23235 net.cpp:406] loss <- quantized_fc8_quantized_fc8_0_split_1
I1221 09:41:34.382573 23235 net.cpp:406] loss <- label_data_1_split_0
I1221 09:41:34.382582 23235 net.cpp:380] loss -> loss
…
I1221 09:41:34.384415 23235 net.cpp:294] The NetState phase (1) differed from the phase (0) specified by a rule in layer data
I1221 09:41:34.384747 23235 net.cpp:51] Initializing net from parameters: 
state {
  phase: TEST
}
layer {
  name: "data"
  type: "Data"
  top: "data"
  top: "label"
  include {
    phase: TEST
  }
  transform_param {
    mirror: false
    crop_size: 227
    mean_file: "/home/ydwu/database/imagenet/ilsvrc12/imagenet_mean.binaryproto"
  }
  data_param {
    source: "/home/ydwu/database/imagenet/ilsvrc12/lmdb_resize/ilsvrc12_val_lmdb/"
    batch_size: 20
    backend: LMDB
  }
}
layer {
  name: "quantized_data"
  type: "Quantization"
  bottom: "data"
  top: "quantized_data"
  quantization_param {
    round_method: FLOOR
    round_strategy: AGGRESSIVE
    bit_width: 8
    range: -129.93526
    range: 160.78912
  }
}
layer {
  name: "conv1"
  type: "Convolution"
  bottom: "quantized_data"
  top: "conv1"
  param {
    lr_mult: 1
    decay_mult: 1
  }
  param {
    lr_mult: 2
    decay_mult: 0
  }
  convolution_param {
    num_output: 96
    pad: 0
    kernel_size: 11
    group: 1
    stride: 4
    weight_filler {
      type: "gaussian"
      std: 1.1e+13
    }
    bias_filler {
      type: "constant"
      std: 0.1
    }
  }
}
layer {
  name: "quantized_conv1"
  type: "Quantization"
  bottom: "conv1"
  top: "quantized_conv1"
  quantization_param {
    round_method: FLOOR
    round_strategy: AGGRESSIVE
    bit_width: 8
    range: -2732.7351
    range: 2531.042
  }
}
layer {
  name: "relu1"
  type: "ReLU"
  bottom: "quantized_conv1"
  top: "relu1"
}
layer {
  name: "quantized_relu1"
  type: "Quantization"
  bottom: "relu1"
  top: "quantized_relu1"
  quantization_param {
    round_method: FLOOR
    round_strategy: AGGRESSIVE
    bit_width: 8
    range: 1
    range: 2531.042
  }
}
layer {
  name: "pool1"
  type: "Pooling"
  bottom: "quantized_relu1"
  top: "pool1"
  pooling_param {
    pool: MAX
    kernel_size: 3
    stride: 2
  }
}
layer {
  name: "quantized_pool1"
  type: "Quantization"
  bottom: "pool1"
  top: "quantized_pool1"
  quantization_param {
    round_method: FLOOR
    round_strategy: AGGRESSIVE
    bit_width: 8
    range: 1
    range: 2531.042
  }
}
layer {
  name: "norm1"
  type: "LRN"
  bottom: "quantized_pool1"
  top: "norm1"
  lrn_param {
    local_size: 5
    alpha: 0.0001
    beta: 0.75
  }
}
layer {
  name: "quantized_norm1"
  type: "Quantization"
  bottom: "norm1"
  top: "quantized_norm1"
  quantization_param {
    round_method: FLOOR
    round_strategy: AGGRESSIVE
    bit_width: 8
    range: 1
    range: 138.70576
  }
}
layer {
  name: "conv2"
  type: "Convolution"
  bottom: "quantized_norm1"
  top: "conv2"
  param {
    lr_mult: 1
    decay_mult: 1
  }
  param {
    lr_mult: 2
    decay_mult: 0
  }
  convolution_param {
    num_output: 256
    pad: 2
    kernel_size: 5
    group: 2
    stride: 1
    weight_filler {
      type: "gaussian"
      std: 1.1e+13
    }
    bias_filler {
      type: "constant"
      std: 0.1
    }
  }
}
layer {
  name: "quantized_conv2"
  type: "Quantization"
  bottom: "conv2"
  top: "quantized_conv2"
  quantization_param {
    round_method: FLOOR
    round_strategy: AGGRESSIVE
    bit_width: 8
    range: -647.61908
    range: 492.23111
  }
}
layer {
  name: "relu2"
  type: "ReLU"
  bottom: "quantized_conv2"
  top: "relu2"
}
layer {
  name: "quantized_relu2"
  type: "Quantization"
  bottom: "relu2"
  top: "quantized_relu2"
  quantization_param {
    round_method: FLOOR
    round_strategy: AGGRESSIVE
    bit_width: 8
    range: 1
    range: 492.23111
  }
}
layer {
  name: "pool2"
  type: "Pooling"
  bottom: "quantized_relu2"
  top: "pool2"
  pooling_param {
    pool: MAX
    kernel_size: 3
    stride: 2
  }
}
layer {
  name: "quantized_pool2"
  type: "Quantization"
  bottom: "pool2"
  top: "quantized_pool2"
  quantization_param {
    round_method: FLOOR
    round_strategy: AGGRESSIVE
    bit_width: 8
    range: 1
    range: 492.23111
  }
}
layer {
  name: "norm2"
  type: "LRN"
  bottom: "quantized_pool2"
  top: "norm2"
  lrn_param {
    local_size: 5
    alpha: 0.0001
    beta: 0.75
  }
}
layer {
  name: "quantized_norm2"
  type: "Quantization"
  bottom: "norm2"
  top: "quantized_norm2"
  quantization_param {
    round_method: FLOOR
    round_strategy: AGGRESSIVE
    bit_width: 8
    range: 1
    range: 138.72636
  }
}
layer {
  name: "conv3"
  type: "Convolution"
  bottom: "quantized_norm2"
  top: "conv3"
  param {
    lr_mult: 1
    decay_mult: 1
  }
  param {
    lr_mult: 2
    decay_mult: 0
  }
  convolution_param {
    num_output: 384
    pad: 1
    kernel_size: 3
    group: 1
    stride: 1
    weight_filler {
      type: "gaussian"
      std: 1.1e+13
    }
    bias_filler {
      type: "constant"
      std: 0.1
    }
  }
}
layer {
  name: "quantized_conv3"
  type: "Quantization"
  bottom: "conv3"
  top: "quantized_conv3"
  quantization_param {
    round_method: FLOOR
    round_strategy: AGGRESSIVE
    bit_width: 8
    range: -389.56516
    range: 331.98178
  }
}
layer {
  name: "relu3"
  type: "ReLU"
  bottom: "quantized_conv3"
  top: "relu3"
}
layer {
  name: "quantized_relu3"
  type: "Quantization"
  bottom: "relu3"
  top: "quantized_relu3"
  quantization_param {
    round_method: FLOOR
    round_strategy: AGGRESSIVE
    bit_width: 8
    range: 1
    range: 331.98178
  }
}
layer {
  name: "conv4"
  type: "Convolution"
  bottom: "quantized_relu3"
  top: "conv4"
  param {
    lr_mult: 1
    decay_mult: 1
  }
  param {
    lr_mult: 2
    decay_mult: 0
  }
  convolution_param {
    num_output: 384
    pad: 1
    kernel_size: 3
    group: 2
    stride: 1
    weight_filler {
      type: "gaussian"
      std: 1.1e+13
    }
    bias_filler {
      type: "constant"
      std: 0.1
    }
  }
}
layer {
  name: "quantized_conv4"
  type: "Quantization"
  bottom: "conv4"
  top: "quantized_conv4"
  quantization_param {
    round_method: FLOOR
    round_strategy: AGGRESSIVE
    bit_width: 8
    range: -231.20598
    range: 283.87189
  }
}
layer {
  name: "relu4"
  type: "ReLU"
  bottom: "quantized_conv4"
  top: "relu4"
}
layer {
  name: "quantized_relu4"
  type: "Quantization"
  bottom: "relu4"
  top: "quantized_relu4"
  quantization_param {
    round_method: FLOOR
    round_strategy: AGGRESSIVE
    bit_width: 8
    range: 1
    range: 283.87189
  }
}
layer {
  name: "conv5"
  type: "Convolution"
  bottom: "quantized_relu4"
  top: "conv5"
  param {
    lr_mult: 1
    decay_mult: 1
  }
  param {
    lr_mult: 2
    decay_mult: 0
  }
  convolution_param {
    num_output: 256
    pad: 1
    kernel_size: 3
    group: 2
    stride: 1
    weight_filler {
      type: "gaussian"
      std: 1.1e+13
    }
    bias_filler {
      type: "constant"
      std: 0.1
    }
  }
}
layer {
  name: "quantized_conv5"
  type: "Quantization"
  bottom: "conv5"
  top: "quantized_conv5"
  quantization_param {
    round_method: FLOOR
    round_strategy: AGGRESSIVE
    bit_width: 8
    range: -172.60567
    range: 272.57315
  }
}
layer {
  name: "relu5"
  type: "ReLU"
  bottom: "quantized_conv5"
  top: "relu5"
}
layer {
  name: "quantized_relu5"
  type: "Quantization"
  bottom: "relu5"
  top: "quantized_relu5"
  quantization_param {
    round_method: FLOOR
    round_strategy: AGGRESSIVE
    bit_width: 8
    range: 1
    range: 272.57315
  }
}
layer {
  name: "pool5"
  type: "Pooling"
  bottom: "quantized_relu5"
  top: "pool5"
  pooling_param {
    pool: MAX
    kernel_size: 3
    stride: 2
  }
}
layer {
  name: "quantized_pool5"
  type: "Quantization"
  bottom: "pool5"
  top: "quantized_pool5"
  quantization_param {
    round_method: FLOOR
    round_strategy: AGGRESSIVE
    bit_width: 8
    range: 1
    range: 272.57315
  }
}
layer {
  name: "fc6"
  type: "InnerProduct"
  bottom: "quantized_pool5"
  top: "fc6"
  param {
    lr_mult: 1
    decay_mult: 1
  }
  param {
    lr_mult: 2
    decay_mult: 0
  }
  inner_product_param {
    num_output: 4096
    weight_filler {
      type: "gaussian"
      std: 1.05e+13
    }
    bias_filler {
      type: "constant"
      value: 0.1
    }
  }
}
layer {
  name: "quantized_fc6"
  type: "Quantization"
  bottom: "fc6"
  top: "quantized_fc6"
  quantization_param {
    round_method: FLOOR
    round_strategy: AGGRESSIVE
    bit_width: 8
    range: -114.02487
    range: 58.541733
  }
}
layer {
  name: "relu6"
  type: "ReLU"
  bottom: "quantized_fc6"
  top: "relu6"
}
layer {
  name: "quantized_relu6"
  type: "Quantization"
  bottom: "relu6"
  top: "quantized_relu6"
  quantization_param {
    round_method: FLOOR
    round_strategy: AGGRESSIVE
    bit_width: 8
    range: 1
    range: 58.541733
  }
}
layer {
  name: "fc7"
  type: "InnerProduct"
  bottom: "quantized_relu6"
  top: "fc7"
  param {
    lr_mult: 1
    decay_mult: 1
  }
  param {
    lr_mult: 2
    decay_mult: 0
  }
  inner_product_param {
    num_output: 4096
    weight_filler {
      type: "gaussian"
      std: 1.05e+13
    }
    bias_filler {
      type: "constant"
      value: 0.1
    }
  }
}
layer {
  name: "quantized_fc7"
  type: "Quantization"
  bottom: "fc7"
  top: "quantized_fc7"
  quantization_param {
    round_method: FLOOR
    round_strategy: AGGRESSIVE
    bit_width: 8
    range: -26.019335
    range: 19.125257
  }
}
layer {
  name: "relu7"
  type: "ReLU"
  bottom: "quantized_fc7"
  top: "relu7"
}
layer {
  name: "quantized_relu7"
  type: "Quantization"
  bottom: "relu7"
  top: "quantized_relu7"
  quantization_param {
    round_method: FLOOR
    round_strategy: AGGRESSIVE
    bit_width: 8
    range: 1
    range: 19.125257
  }
}
layer {
  name: "fc8"
  type: "InnerProduct"
  bottom: "quantized_relu7"
  top: "fc8"
  param {
    lr_mult: 1
    decay_mult: 1
  }
  param {
    lr_mult: 2
    decay_mult: 0
  }
  inner_product_param {
    num_output: 1000
  }
}
layer {
  name: "quantized_fc8"
  type: "Quantization"
  bottom: "fc8"
  top: "quantized_fc8"
  quantization_param {
    round_method: FLOOR
    round_strategy: AGGRESSIVE
    bit_width: 8
    range: -9.849781
    range: 45.688446
  }
}
layer {
  name: "probs"
  type: "Softmax"
  bottom: "quantized_fc8"
  top: "probs"
}
layer {
  name: "loss"
  type: "SoftmaxWithLoss"
  bottom: "quantized_fc8"
  bottom: "label"
  top: "loss"
}
layer {
  name: "acc_top1"
  type: "Accuracy"
  bottom: "quantized_fc8"
  bottom: "label"
  top: "acc_top1"
  accuracy_param {
    top_k: 1
  }
}
layer {
  name: "acc_top5"
  type: "Accuracy"
  bottom: "quantized_fc8"
  bottom: "label"
  top: "acc_top5"
  accuracy_param {
    top_k: 5
  }
}
I1221 09:41:34.384928 23235 layer_factory.hpp:77] Creating layer data
I1221 09:41:34.385004 23235 db_lmdb.cpp:35] Opened lmdb /home/ydwu/database/imagenet/ilsvrc12/lmdb_resize/ilsvrc12_val_lmdb/
I1221 09:41:34.385031 23235 net.cpp:84] Creating Layer data
I1221 09:41:34.385042 23235 net.cpp:380] data -> data
I1221 09:41:34.385056 23235 net.cpp:380] data -> label
I1221 09:41:34.385069 23235 data_transformer.cpp:25] Loading mean file from: /home/ydwu/database/imagenet/ilsvrc12/imagenet_mean.binaryproto
I1221 09:41:34.387209 23235 data_layer.cpp:45] output data size: 20,3,227,227
I1221 09:41:34.399811 23235 net.cpp:122] Setting up data
I1221 09:41:34.399873 23235 net.cpp:129] Top shape: 20 3 227 227 (3091740)
I1221 09:41:34.399883 23235 net.cpp:129] Top shape: 20 (20)
I1221 09:41:34.399889 23235 net.cpp:137] Memory required for data: 12367040
I1221 09:41:34.399901 23235 layer_factory.hpp:77] Creating layer label_data_1_split
I1221 09:41:34.399924 23235 net.cpp:84] Creating Layer label_data_1_split
I1221 09:41:34.399933 23235 net.cpp:406] label_data_1_split <- label
I1221 09:41:34.399946 23235 net.cpp:380] label_data_1_split -> label_data_1_split_0
I1221 09:41:34.399966 23235 net.cpp:380] label_data_1_split -> label_data_1_split_1
I1221 09:41:34.399976 23235 net.cpp:380] label_data_1_split -> label_data_1_split_2
I1221 09:41:34.399989 23235 net.cpp:122] Setting up label_data_1_split
I1221 09:41:34.399997 23235 net.cpp:129] Top shape: 20 (20)
I1221 09:41:34.400005 23235 net.cpp:129] Top shape: 20 (20)
I1221 09:41:34.400013 23235 net.cpp:129] Top shape: 20 (20)
I1221 09:41:34.400019 23235 net.cpp:137] Memory required for data: 12367280
I1221 09:41:34.400027 23235 layer_factory.hpp:77] Creating layer quantized_data
I1221 09:41:34.400038 23235 net.cpp:84] Creating Layer quantized_data
I1221 09:41:34.400045 23235 net.cpp:406] quantized_data <- data
I1221 09:41:34.400056 23235 net.cpp:380] quantized_data -> quantized_data
I1221 09:41:34.400068 23235 net.cpp:122] Setting up quantized_data
I1221 09:41:34.400076 23235 net.cpp:129] Top shape: 20 3 227 227 (3091740)
I1221 09:41:34.400082 23235 net.cpp:137] Memory required for data: 24734240
I1221 09:41:34.400089 23235 layer_factory.hpp:77] Creating layer conv1
I1221 09:41:34.400110 23235 net.cpp:84] Creating Layer conv1
I1221 09:41:34.400131 23235 net.cpp:406] conv1 <- quantized_data
I1221 09:41:34.400157 23235 net.cpp:380] conv1 -> conv1
I1221 09:41:34.401232 23235 net.cpp:122] Setting up conv1
I1221 09:41:34.401245 23235 net.cpp:129] Top shape: 20 96 55 55 (5808000)
I1221 09:41:34.401252 23235 net.cpp:137] Memory required for data: 47966240
I1221 09:41:34.401265 23235 layer_factory.hpp:77] Creating layer quantized_conv1
I1221 09:41:34.401279 23235 net.cpp:84] Creating Layer quantized_conv1
I1221 09:41:34.401288 23235 net.cpp:406] quantized_conv1 <- conv1
I1221 09:41:34.401296 23235 net.cpp:380] quantized_conv1 -> quantized_conv1
I1221 09:41:34.401306 23235 net.cpp:122] Setting up quantized_conv1
I1221 09:41:34.401315 23235 net.cpp:129] Top shape: 20 96 55 55 (5808000)
I1221 09:41:34.401321 23235 net.cpp:137] Memory required for data: 71198240
I1221 09:41:34.401327 23235 layer_factory.hpp:77] Creating layer relu1
I1221 09:41:34.401340 23235 net.cpp:84] Creating Layer relu1
I1221 09:41:34.401346 23235 net.cpp:406] relu1 <- quantized_conv1
I1221 09:41:34.401355 23235 net.cpp:380] relu1 -> relu1
I1221 09:41:34.401365 23235 net.cpp:122] Setting up relu1
I1221 09:41:34.401374 23235 net.cpp:129] Top shape: 20 96 55 55 (5808000)
I1221 09:41:34.401381 23235 net.cpp:137] Memory required for data: 94430240
I1221 09:41:34.401387 23235 layer_factory.hpp:77] Creating layer quantized_relu1
I1221 09:41:34.401396 23235 net.cpp:84] Creating Layer quantized_relu1
I1221 09:41:34.401402 23235 net.cpp:406] quantized_relu1 <- relu1
I1221 09:41:34.401417 23235 net.cpp:380] quantized_relu1 -> quantized_relu1
I1221 09:41:34.401427 23235 net.cpp:122] Setting up quantized_relu1
I1221 09:41:34.401437 23235 net.cpp:129] Top shape: 20 96 55 55 (5808000)
I1221 09:41:34.401443 23235 net.cpp:137] Memory required for data: 117662240
I1221 09:41:34.401449 23235 layer_factory.hpp:77] Creating layer pool1
I1221 09:41:34.401463 23235 net.cpp:84] Creating Layer pool1
I1221 09:41:34.401469 23235 net.cpp:406] pool1 <- quantized_relu1
I1221 09:41:34.401477 23235 net.cpp:380] pool1 -> pool1
I1221 09:41:34.401491 23235 net.cpp:122] Setting up pool1
I1221 09:41:34.401499 23235 net.cpp:129] Top shape: 20 96 27 27 (1399680)
I1221 09:41:34.401506 23235 net.cpp:137] Memory required for data: 123260960
I1221 09:41:34.401512 23235 layer_factory.hpp:77] Creating layer quantized_pool1
I1221 09:41:34.401525 23235 net.cpp:84] Creating Layer quantized_pool1
I1221 09:41:34.401643 23235 net.cpp:406] quantized_pool1 <- pool1
I1221 09:41:34.401664 23235 net.cpp:380] quantized_pool1 -> quantized_pool1
I1221 09:41:34.401682 23235 net.cpp:122] Setting up quantized_pool1
I1221 09:41:34.401692 23235 net.cpp:129] Top shape: 20 96 27 27 (1399680)
I1221 09:41:34.401698 23235 net.cpp:137] Memory required for data: 128859680
I1221 09:41:34.401705 23235 layer_factory.hpp:77] Creating layer norm1
I1221 09:41:34.401721 23235 net.cpp:84] Creating Layer norm1
I1221 09:41:34.401728 23235 net.cpp:406] norm1 <- quantized_pool1
I1221 09:41:34.401737 23235 net.cpp:380] norm1 -> norm1
I1221 09:41:34.401751 23235 net.cpp:122] Setting up norm1
I1221 09:41:34.401758 23235 net.cpp:129] Top shape: 20 96 27 27 (1399680)
I1221 09:41:34.401765 23235 net.cpp:137] Memory required for data: 134458400
I1221 09:41:34.401772 23235 layer_factory.hpp:77] Creating layer quantized_norm1
I1221 09:41:34.401783 23235 net.cpp:84] Creating Layer quantized_norm1
I1221 09:41:34.401790 23235 net.cpp:406] quantized_norm1 <- norm1
I1221 09:41:34.401799 23235 net.cpp:380] quantized_norm1 -> quantized_norm1
I1221 09:41:34.401808 23235 net.cpp:122] Setting up quantized_norm1
I1221 09:41:34.401818 23235 net.cpp:129] Top shape: 20 96 27 27 (1399680)
I1221 09:41:34.401823 23235 net.cpp:137] Memory required for data: 140057120
I1221 09:41:34.401830 23235 layer_factory.hpp:77] Creating layer conv2
I1221 09:41:34.401846 23235 net.cpp:84] Creating Layer conv2
I1221 09:41:34.401854 23235 net.cpp:406] conv2 <- quantized_norm1
I1221 09:41:34.401866 23235 net.cpp:380] conv2 -> conv2
I1221 09:41:34.411077 23235 net.cpp:122] Setting up conv2
I1221 09:41:34.411124 23235 net.cpp:129] Top shape: 20 256 27 27 (3732480)
I1221 09:41:34.411145 23235 net.cpp:137] Memory required for data: 154987040
I1221 09:41:34.411161 23235 layer_factory.hpp:77] Creating layer quantized_conv2
I1221 09:41:34.411178 23235 net.cpp:84] Creating Layer quantized_conv2
I1221 09:41:34.411187 23235 net.cpp:406] quantized_conv2 <- conv2
I1221 09:41:34.411198 23235 net.cpp:380] quantized_conv2 -> quantized_conv2
I1221 09:41:34.411212 23235 net.cpp:122] Setting up quantized_conv2
I1221 09:41:34.411221 23235 net.cpp:129] Top shape: 20 256 27 27 (3732480)
I1221 09:41:34.411227 23235 net.cpp:137] Memory required for data: 169916960
I1221 09:41:34.411234 23235 layer_factory.hpp:77] Creating layer relu2
I1221 09:41:34.411245 23235 net.cpp:84] Creating Layer relu2
I1221 09:41:34.411252 23235 net.cpp:406] relu2 <- quantized_conv2
I1221 09:41:34.411262 23235 net.cpp:380] relu2 -> relu2
I1221 09:41:34.411273 23235 net.cpp:122] Setting up relu2
I1221 09:41:34.411281 23235 net.cpp:129] Top shape: 20 256 27 27 (3732480)
I1221 09:41:34.411288 23235 net.cpp:137] Memory required for data: 184846880
I1221 09:41:34.411294 23235 layer_factory.hpp:77] Creating layer quantized_relu2
I1221 09:41:34.411306 23235 net.cpp:84] Creating Layer quantized_relu2
I1221 09:41:34.411314 23235 net.cpp:406] quantized_relu2 <- relu2
I1221 09:41:34.411321 23235 net.cpp:380] quantized_relu2 -> quantized_relu2
I1221 09:41:34.411331 23235 net.cpp:122] Setting up quantized_relu2
I1221 09:41:34.411340 23235 net.cpp:129] Top shape: 20 256 27 27 (3732480)
I1221 09:41:34.411346 23235 net.cpp:137] Memory required for data: 199776800
I1221 09:41:34.411353 23235 layer_factory.hpp:77] Creating layer pool2
I1221 09:41:34.411365 23235 net.cpp:84] Creating Layer pool2
I1221 09:41:34.411372 23235 net.cpp:406] pool2 <- quantized_relu2
I1221 09:41:34.411381 23235 net.cpp:380] pool2 -> pool2
I1221 09:41:34.411394 23235 net.cpp:122] Setting up pool2
I1221 09:41:34.411402 23235 net.cpp:129] Top shape: 20 256 13 13 (865280)
I1221 09:41:34.411409 23235 net.cpp:137] Memory required for data: 203237920
I1221 09:41:34.411415 23235 layer_factory.hpp:77] Creating layer quantized_pool2
I1221 09:41:34.411429 23235 net.cpp:84] Creating Layer quantized_pool2
I1221 09:41:34.411437 23235 net.cpp:406] quantized_pool2 <- pool2
I1221 09:41:34.411447 23235 net.cpp:380] quantized_pool2 -> quantized_pool2
I1221 09:41:34.411456 23235 net.cpp:122] Setting up quantized_pool2
I1221 09:41:34.411464 23235 net.cpp:129] Top shape: 20 256 13 13 (865280)
I1221 09:41:34.411470 23235 net.cpp:137] Memory required for data: 206699040
I1221 09:41:34.411478 23235 layer_factory.hpp:77] Creating layer norm2
I1221 09:41:34.411491 23235 net.cpp:84] Creating Layer norm2
I1221 09:41:34.411499 23235 net.cpp:406] norm2 <- quantized_pool2
I1221 09:41:34.411507 23235 net.cpp:380] norm2 -> norm2
I1221 09:41:34.411520 23235 net.cpp:122] Setting up norm2
I1221 09:41:34.411527 23235 net.cpp:129] Top shape: 20 256 13 13 (865280)
I1221 09:41:34.411533 23235 net.cpp:137] Memory required for data: 210160160
I1221 09:41:34.411540 23235 layer_factory.hpp:77] Creating layer quantized_norm2
I1221 09:41:34.411550 23235 net.cpp:84] Creating Layer quantized_norm2
I1221 09:41:34.411558 23235 net.cpp:406] quantized_norm2 <- norm2
I1221 09:41:34.411566 23235 net.cpp:380] quantized_norm2 -> quantized_norm2
I1221 09:41:34.411576 23235 net.cpp:122] Setting up quantized_norm2
I1221 09:41:34.411588 23235 net.cpp:129] Top shape: 20 256 13 13 (865280)
I1221 09:41:34.411594 23235 net.cpp:137] Memory required for data: 213621280
I1221 09:41:34.411602 23235 layer_factory.hpp:77] Creating layer conv3
I1221 09:41:34.411617 23235 net.cpp:84] Creating Layer conv3
I1221 09:41:34.411623 23235 net.cpp:406] conv3 <- quantized_norm2
I1221 09:41:34.411635 23235 net.cpp:380] conv3 -> conv3
I1221 09:41:34.437717 23235 net.cpp:122] Setting up conv3
I1221 09:41:34.437767 23235 net.cpp:129] Top shape: 20 384 13 13 (1297920)
I1221 09:41:34.437774 23235 net.cpp:137] Memory required for data: 218812960
I1221 09:41:34.437793 23235 layer_factory.hpp:77] Creating layer quantized_conv3
I1221 09:41:34.437837 23235 net.cpp:84] Creating Layer quantized_conv3
I1221 09:41:34.437847 23235 net.cpp:406] quantized_conv3 <- conv3
I1221 09:41:34.437860 23235 net.cpp:380] quantized_conv3 -> quantized_conv3
I1221 09:41:34.437875 23235 net.cpp:122] Setting up quantized_conv3
I1221 09:41:34.437885 23235 net.cpp:129] Top shape: 20 384 13 13 (1297920)
I1221 09:41:34.437891 23235 net.cpp:137] Memory required for data: 224004640
I1221 09:41:34.437897 23235 layer_factory.hpp:77] Creating layer relu3
I1221 09:41:34.437911 23235 net.cpp:84] Creating Layer relu3
I1221 09:41:34.437917 23235 net.cpp:406] relu3 <- quantized_conv3
I1221 09:41:34.437927 23235 net.cpp:380] relu3 -> relu3
I1221 09:41:34.437937 23235 net.cpp:122] Setting up relu3
I1221 09:41:34.437944 23235 net.cpp:129] Top shape: 20 384 13 13 (1297920)
I1221 09:41:34.437950 23235 net.cpp:137] Memory required for data: 229196320
I1221 09:41:34.437958 23235 layer_factory.hpp:77] Creating layer quantized_relu3
I1221 09:41:34.437968 23235 net.cpp:84] Creating Layer quantized_relu3
I1221 09:41:34.437975 23235 net.cpp:406] quantized_relu3 <- relu3
I1221 09:41:34.437984 23235 net.cpp:380] quantized_relu3 -> quantized_relu3
I1221 09:41:34.437994 23235 net.cpp:122] Setting up quantized_relu3
I1221 09:41:34.438002 23235 net.cpp:129] Top shape: 20 384 13 13 (1297920)
I1221 09:41:34.438009 23235 net.cpp:137] Memory required for data: 234388000
I1221 09:41:34.438015 23235 layer_factory.hpp:77] Creating layer conv4
I1221 09:41:34.438033 23235 net.cpp:84] Creating Layer conv4
I1221 09:41:34.438041 23235 net.cpp:406] conv4 <- quantized_relu3
I1221 09:41:34.438052 23235 net.cpp:380] conv4 -> conv4
I1221 09:41:34.457468 23235 net.cpp:122] Setting up conv4
I1221 09:41:34.457516 23235 net.cpp:129] Top shape: 20 384 13 13 (1297920)
I1221 09:41:34.457523 23235 net.cpp:137] Memory required for data: 239579680
I1221 09:41:34.457535 23235 layer_factory.hpp:77] Creating layer quantized_conv4
I1221 09:41:34.457552 23235 net.cpp:84] Creating Layer quantized_conv4
I1221 09:41:34.457561 23235 net.cpp:406] quantized_conv4 <- conv4
I1221 09:41:34.457573 23235 net.cpp:380] quantized_conv4 -> quantized_conv4
I1221 09:41:34.457589 23235 net.cpp:122] Setting up quantized_conv4
I1221 09:41:34.457598 23235 net.cpp:129] Top shape: 20 384 13 13 (1297920)
I1221 09:41:34.457604 23235 net.cpp:137] Memory required for data: 244771360
I1221 09:41:34.457610 23235 layer_factory.hpp:77] Creating layer relu4
I1221 09:41:34.457624 23235 net.cpp:84] Creating Layer relu4
I1221 09:41:34.457631 23235 net.cpp:406] relu4 <- quantized_conv4
I1221 09:41:34.457639 23235 net.cpp:380] relu4 -> relu4
I1221 09:41:34.457649 23235 net.cpp:122] Setting up relu4
I1221 09:41:34.457657 23235 net.cpp:129] Top shape: 20 384 13 13 (1297920)
I1221 09:41:34.457664 23235 net.cpp:137] Memory required for data: 249963040
I1221 09:41:34.457669 23235 layer_factory.hpp:77] Creating layer quantized_relu4
I1221 09:41:34.457679 23235 net.cpp:84] Creating Layer quantized_relu4
I1221 09:41:34.457684 23235 net.cpp:406] quantized_relu4 <- relu4
I1221 09:41:34.457695 23235 net.cpp:380] quantized_relu4 -> quantized_relu4
I1221 09:41:34.457705 23235 net.cpp:122] Setting up quantized_relu4
I1221 09:41:34.457715 23235 net.cpp:129] Top shape: 20 384 13 13 (1297920)
I1221 09:41:34.457720 23235 net.cpp:137] Memory required for data: 255154720
I1221 09:41:34.457726 23235 layer_factory.hpp:77] Creating layer conv5
I1221 09:41:34.457743 23235 net.cpp:84] Creating Layer conv5
I1221 09:41:34.457751 23235 net.cpp:406] conv5 <- quantized_relu4
I1221 09:41:34.457762 23235 net.cpp:380] conv5 -> conv5
I1221 09:41:34.470403 23235 net.cpp:122] Setting up conv5
I1221 09:41:34.470419 23235 net.cpp:129] Top shape: 20 256 13 13 (865280)
I1221 09:41:34.470425 23235 net.cpp:137] Memory required for data: 258615840
I1221 09:41:34.470439 23235 layer_factory.hpp:77] Creating layer quantized_conv5
I1221 09:41:34.470453 23235 net.cpp:84] Creating Layer quantized_conv5
I1221 09:41:34.470459 23235 net.cpp:406] quantized_conv5 <- conv5
I1221 09:41:34.470481 23235 net.cpp:380] quantized_conv5 -> quantized_conv5
I1221 09:41:34.470505 23235 net.cpp:122] Setting up quantized_conv5
I1221 09:41:34.470515 23235 net.cpp:129] Top shape: 20 256 13 13 (865280)
I1221 09:41:34.470520 23235 net.cpp:137] Memory required for data: 262076960
I1221 09:41:34.470527 23235 layer_factory.hpp:77] Creating layer relu5
I1221 09:41:34.470535 23235 net.cpp:84] Creating Layer relu5
I1221 09:41:34.470541 23235 net.cpp:406] relu5 <- quantized_conv5
I1221 09:41:34.470552 23235 net.cpp:380] relu5 -> relu5
I1221 09:41:34.470564 23235 net.cpp:122] Setting up relu5
I1221 09:41:34.470577 23235 net.cpp:129] Top shape: 20 256 13 13 (865280)
I1221 09:41:34.470582 23235 net.cpp:137] Memory required for data: 265538080
I1221 09:41:34.470588 23235 layer_factory.hpp:77] Creating layer quantized_relu5
I1221 09:41:34.470597 23235 net.cpp:84] Creating Layer quantized_relu5
I1221 09:41:34.470603 23235 net.cpp:406] quantized_relu5 <- relu5
I1221 09:41:34.470612 23235 net.cpp:380] quantized_relu5 -> quantized_relu5
I1221 09:41:34.470621 23235 net.cpp:122] Setting up quantized_relu5
I1221 09:41:34.470629 23235 net.cpp:129] Top shape: 20 256 13 13 (865280)
I1221 09:41:34.470635 23235 net.cpp:137] Memory required for data: 268999200
I1221 09:41:34.470641 23235 layer_factory.hpp:77] Creating layer pool5
I1221 09:41:34.470651 23235 net.cpp:84] Creating Layer pool5
I1221 09:41:34.470657 23235 net.cpp:406] pool5 <- quantized_relu5
I1221 09:41:34.470669 23235 net.cpp:380] pool5 -> pool5
I1221 09:41:34.470681 23235 net.cpp:122] Setting up pool5
I1221 09:41:34.470690 23235 net.cpp:129] Top shape: 20 256 6 6 (184320)
I1221 09:41:34.470696 23235 net.cpp:137] Memory required for data: 269736480
I1221 09:41:34.470702 23235 layer_factory.hpp:77] Creating layer quantized_pool5
I1221 09:41:34.470716 23235 net.cpp:84] Creating Layer quantized_pool5
I1221 09:41:34.470724 23235 net.cpp:406] quantized_pool5 <- pool5
I1221 09:41:34.470732 23235 net.cpp:380] quantized_pool5 -> quantized_pool5
I1221 09:41:34.470742 23235 net.cpp:122] Setting up quantized_pool5
I1221 09:41:34.470751 23235 net.cpp:129] Top shape: 20 256 6 6 (184320)
I1221 09:41:34.470757 23235 net.cpp:137] Memory required for data: 270473760
I1221 09:41:34.470763 23235 layer_factory.hpp:77] Creating layer fc6
I1221 09:41:34.470777 23235 net.cpp:84] Creating Layer fc6
I1221 09:41:34.470783 23235 net.cpp:406] fc6 <- quantized_pool5
I1221 09:41:34.470793 23235 net.cpp:380] fc6 -> fc6
I1221 09:41:35.525260 23235 net.cpp:122] Setting up fc6
I1221 09:41:35.525321 23235 net.cpp:129] Top shape: 20 4096 (81920)
I1221 09:41:35.525329 23235 net.cpp:137] Memory required for data: 270801440
I1221 09:41:35.525344 23235 layer_factory.hpp:77] Creating layer quantized_fc6
I1221 09:41:35.525362 23235 net.cpp:84] Creating Layer quantized_fc6
I1221 09:41:35.525370 23235 net.cpp:406] quantized_fc6 <- fc6
I1221 09:41:35.525387 23235 net.cpp:380] quantized_fc6 -> quantized_fc6
I1221 09:41:35.525403 23235 net.cpp:122] Setting up quantized_fc6
I1221 09:41:35.525413 23235 net.cpp:129] Top shape: 20 4096 (81920)
I1221 09:41:35.525418 23235 net.cpp:137] Memory required for data: 271129120
I1221 09:41:35.525424 23235 layer_factory.hpp:77] Creating layer relu6
I1221 09:41:35.525434 23235 net.cpp:84] Creating Layer relu6
I1221 09:41:35.525441 23235 net.cpp:406] relu6 <- quantized_fc6
I1221 09:41:35.525450 23235 net.cpp:380] relu6 -> relu6
I1221 09:41:35.525460 23235 net.cpp:122] Setting up relu6
I1221 09:41:35.525467 23235 net.cpp:129] Top shape: 20 4096 (81920)
I1221 09:41:35.525473 23235 net.cpp:137] Memory required for data: 271456800
I1221 09:41:35.525480 23235 layer_factory.hpp:77] Creating layer quantized_relu6
I1221 09:41:35.525490 23235 net.cpp:84] Creating Layer quantized_relu6
I1221 09:41:35.525496 23235 net.cpp:406] quantized_relu6 <- relu6
I1221 09:41:35.525507 23235 net.cpp:380] quantized_relu6 -> quantized_relu6
I1221 09:41:35.525518 23235 net.cpp:122] Setting up quantized_relu6
I1221 09:41:35.525527 23235 net.cpp:129] Top shape: 20 4096 (81920)
I1221 09:41:35.525547 23235 net.cpp:137] Memory required for data: 271784480
I1221 09:41:35.525566 23235 layer_factory.hpp:77] Creating layer fc7
I1221 09:41:35.525579 23235 net.cpp:84] Creating Layer fc7
I1221 09:41:35.525586 23235 net.cpp:406] fc7 <- quantized_relu6
I1221 09:41:35.525595 23235 net.cpp:380] fc7 -> fc7
I1221 09:41:36.025216 23235 net.cpp:122] Setting up fc7
I1221 09:41:36.025280 23235 net.cpp:129] Top shape: 20 4096 (81920)
I1221 09:41:36.025288 23235 net.cpp:137] Memory required for data: 272112160
I1221 09:41:36.025303 23235 layer_factory.hpp:77] Creating layer quantized_fc7
I1221 09:41:36.025323 23235 net.cpp:84] Creating Layer quantized_fc7
I1221 09:41:36.025334 23235 net.cpp:406] quantized_fc7 <- fc7
I1221 09:41:36.025347 23235 net.cpp:380] quantized_fc7 -> quantized_fc7
I1221 09:41:36.025364 23235 net.cpp:122] Setting up quantized_fc7
I1221 09:41:36.025373 23235 net.cpp:129] Top shape: 20 4096 (81920)
I1221 09:41:36.025379 23235 net.cpp:137] Memory required for data: 272439840
I1221 09:41:36.025387 23235 layer_factory.hpp:77] Creating layer relu7
I1221 09:41:36.025396 23235 net.cpp:84] Creating Layer relu7
I1221 09:41:36.025403 23235 net.cpp:406] relu7 <- quantized_fc7
I1221 09:41:36.025413 23235 net.cpp:380] relu7 -> relu7
I1221 09:41:36.025423 23235 net.cpp:122] Setting up relu7
I1221 09:41:36.025431 23235 net.cpp:129] Top shape: 20 4096 (81920)
I1221 09:41:36.025437 23235 net.cpp:137] Memory required for data: 272767520
I1221 09:41:36.025444 23235 layer_factory.hpp:77] Creating layer quantized_relu7
I1221 09:41:36.025454 23235 net.cpp:84] Creating Layer quantized_relu7
I1221 09:41:36.025460 23235 net.cpp:406] quantized_relu7 <- relu7
I1221 09:41:36.025472 23235 net.cpp:380] quantized_relu7 -> quantized_relu7
I1221 09:41:36.025483 23235 net.cpp:122] Setting up quantized_relu7
I1221 09:41:36.025491 23235 net.cpp:129] Top shape: 20 4096 (81920)
I1221 09:41:36.025498 23235 net.cpp:137] Memory required for data: 273095200
I1221 09:41:36.025504 23235 layer_factory.hpp:77] Creating layer fc8
I1221 09:41:36.025516 23235 net.cpp:84] Creating Layer fc8
I1221 09:41:36.025523 23235 net.cpp:406] fc8 <- quantized_relu7
I1221 09:41:36.025532 23235 net.cpp:380] fc8 -> fc8
I1221 09:41:36.032104 23235 net.cpp:122] Setting up fc8
I1221 09:41:36.032166 23235 net.cpp:129] Top shape: 20 1000 (20000)
I1221 09:41:36.032174 23235 net.cpp:137] Memory required for data: 273175200
I1221 09:41:36.032189 23235 layer_factory.hpp:77] Creating layer quantized_fc8
I1221 09:41:36.032209 23235 net.cpp:84] Creating Layer quantized_fc8
I1221 09:41:36.032219 23235 net.cpp:406] quantized_fc8 <- fc8
I1221 09:41:36.032233 23235 net.cpp:380] quantized_fc8 -> quantized_fc8
I1221 09:41:36.032253 23235 net.cpp:122] Setting up quantized_fc8
I1221 09:41:36.032263 23235 net.cpp:129] Top shape: 20 1000 (20000)
I1221 09:41:36.032269 23235 net.cpp:137] Memory required for data: 273255200
I1221 09:41:36.032275 23235 layer_factory.hpp:77] Creating layer quantized_fc8_quantized_fc8_0_split
I1221 09:41:36.032285 23235 net.cpp:84] Creating Layer quantized_fc8_quantized_fc8_0_split
I1221 09:41:36.032292 23235 net.cpp:406] quantized_fc8_quantized_fc8_0_split <- quantized_fc8
I1221 09:41:36.032300 23235 net.cpp:380] quantized_fc8_quantized_fc8_0_split -> quantized_fc8_quantized_fc8_0_split_0
I1221 09:41:36.032310 23235 net.cpp:380] quantized_fc8_quantized_fc8_0_split -> quantized_fc8_quantized_fc8_0_split_1
I1221 09:41:36.032320 23235 net.cpp:380] quantized_fc8_quantized_fc8_0_split -> quantized_fc8_quantized_fc8_0_split_2
I1221 09:41:36.032332 23235 net.cpp:380] quantized_fc8_quantized_fc8_0_split -> quantized_fc8_quantized_fc8_0_split_3
I1221 09:41:36.032344 23235 net.cpp:122] Setting up quantized_fc8_quantized_fc8_0_split
I1221 09:41:36.032353 23235 net.cpp:129] Top shape: 20 1000 (20000)
I1221 09:41:36.032361 23235 net.cpp:129] Top shape: 20 1000 (20000)
I1221 09:41:36.032367 23235 net.cpp:129] Top shape: 20 1000 (20000)
I1221 09:41:36.032375 23235 net.cpp:129] Top shape: 20 1000 (20000)
I1221 09:41:36.032382 23235 net.cpp:137] Memory required for data: 273575200
I1221 09:41:36.032409 23235 layer_factory.hpp:77] Creating layer probs
I1221 09:41:36.032436 23235 net.cpp:84] Creating Layer probs
I1221 09:41:36.032444 23235 net.cpp:406] probs <- quantized_fc8_quantized_fc8_0_split_0
I1221 09:41:36.032452 23235 net.cpp:380] probs -> probs
I1221 09:41:36.032470 23235 net.cpp:122] Setting up probs
I1221 09:41:36.032480 23235 net.cpp:129] Top shape: 20 1000 (20000)
I1221 09:41:36.032485 23235 net.cpp:137] Memory required for data: 273655200
I1221 09:41:36.032492 23235 layer_factory.hpp:77] Creating layer loss
I1221 09:41:36.032502 23235 net.cpp:84] Creating Layer loss
I1221 09:41:36.032510 23235 net.cpp:406] loss <- quantized_fc8_quantized_fc8_0_split_1
I1221 09:41:36.032517 23235 net.cpp:406] loss <- label_data_1_split_0
I1221 09:41:36.032526 23235 net.cpp:380] loss -> loss
…
