…
I0110 19:36:08.986492 34243 net.cpp:294] The NetState phase (0) differed from the phase (1) specified by a rule in layer accuracy_5
I0110 19:36:08.986737 34243 net.cpp:51] Initializing net from parameters: 
name: "AlexNet-BN"
state {
  phase: TRAIN
  level: 0
  stage: ""
}
layer {
  name: "data"
  type: "Data"
  top: "data"
  top: "label"
  include {
    phase: TRAIN
  }
  transform_param {
    mirror: true
    crop_size: 224
    mean_value: 103.939
    mean_value: 116.779
    mean_value: 123.68
  }
  data_param {
    source: "/home/ydwu/database/imagenet/ilsvrc12/lmdb_resize/ilsvrc12_train_lmdb"
    batch_size: 200
    backend: LMDB
  }
}
layer {
  name: "conv1"
  type: "Convolution"
  bottom: "data"
  top: "conv1"
  param {
    lr_mult: 1
    decay_mult: 1
  }
  param {
    lr_mult: 2
    decay_mult: 0
  }
  convolution_param {
    num_output: 96
    pad: 2
    kernel_size: 11
    stride: 4
    weight_filler {
      type: "gaussian"
      std: 0.01
    }
    bias_filler {
      type: "constant"
      value: 0
    }
  }
}
layer {
  name: "bn1"
  type: "BatchNorm"
  bottom: "conv1"
  top: "conv1"
}
layer {
  name: "scale1"
  type: "Scale"
  bottom: "conv1"
  top: "conv1"
  scale_param {
    bias_term: true
  }
}
layer {
  name: "relu1"
  type: "ReLU"
  bottom: "conv1"
  top: "conv1"
}
layer {
  name: "pool1"
  type: "Pooling"
  bottom: "conv1"
  top: "pool1"
  pooling_param {
    pool: MAX
    kernel_size: 3
    stride: 2
  }
}
layer {
  name: "quantized_conv1"
  type: "Quantization"
  bottom: "pool1"
  top: "pool1"
  quantization_param {
    round_method: ROUND
    round_strategy: AGGRESSIVE
    bit_width: 4
    range: 0
    range: 13.965383
  }
}
layer {
  name: "conv2"
  type: "Convolution"
  bottom: "pool1"
  top: "conv2"
  param {
    lr_mult: 1
    decay_mult: 1
  }
  param {
    lr_mult: 2
    decay_mult: 0
  }
  convolution_param {
    num_output: 256
    pad: 2
    kernel_size: 5
    weight_filler {
      type: "gaussian"
      std: 0.01
    }
    bias_filler {
      type: "constant"
      value: 0.1
    }
  }
}
layer {
  name: "bn2"
  type: "BatchNorm"
  bottom: "conv2"
  top: "conv2"
}
layer {
  name: "scale2"
  type: "Scale"
  bottom: "conv2"
  top: "conv2"
  scale_param {
    bias_term: true
  }
}
layer {
  name: "relu2"
  type: "ReLU"
  bottom: "conv2"
  top: "conv2"
}
layer {
  name: "pool2"
  type: "Pooling"
  bottom: "conv2"
  top: "pool2"
  pooling_param {
    pool: MAX
    kernel_size: 3
    stride: 2
  }
}
layer {
  name: "quantized_conv2"
  type: "Quantization"
  bottom: "pool2"
  top: "pool2"
  quantization_param {
    round_method: ROUND
    round_strategy: AGGRESSIVE
    bit_width: 4
    range: 0
    range: 6.74956
  }
}
layer {
  name: "conv3"
  type: "Convolution"
  bottom: "pool2"
  top: "conv3"
  param {
    lr_mult: 1
    decay_mult: 1
  }
  param {
    lr_mult: 2
    decay_mult: 0
  }
  convolution_param {
    num_output: 384
    pad: 1
    kernel_size: 3
    weight_filler {
      type: "gaussian"
      std: 0.01
    }
    bias_filler {
      type: "constant"
      value: 0
    }
  }
}
layer {
  name: "bn3"
  type: "BatchNorm"
  bottom: "conv3"
  top: "conv3"
}
layer {
  name: "scale3"
  type: "Scale"
  bottom: "conv3"
  top: "conv3"
  scale_param {
    bias_term: true
  }
}
layer {
  name: "relu3"
  type: "ReLU"
  bottom: "conv3"
  top: "conv3"
}
layer {
  name: "quantized_conv3"
  type: "Quantization"
  bottom: "conv3"
  top: "conv3"
  quantization_param {
    round_method: ROUND
    round_strategy: AGGRESSIVE
    bit_width: 4
    range: 0
    range: 8.48454
  }
}
layer {
  name: "conv4"
  type: "Convolution"
  bottom: "conv3"
  top: "conv4"
  param {
    lr_mult: 1
    decay_mult: 1
  }
  param {
    lr_mult: 2
    decay_mult: 0
  }
  convolution_param {
    num_output: 384
    pad: 1
    kernel_size: 3
    weight_filler {
      type: "gaussian"
      std: 0.01
    }
    bias_filler {
      type: "constant"
      value: 0.1
    }
  }
}
layer {
  name: "bn4"
  type: "BatchNorm"
  bottom: "conv4"
  top: "conv4"
}
layer {
  name: "scale4"
  type: "Scale"
  bottom: "conv4"
  top: "conv4"
  scale_param {
    bias_term: true
  }
}
layer {
  name: "relu4"
  type: "ReLU"
  bottom: "conv4"
  top: "conv4"
}
layer {
  name: "quantized_conv4"
  type: "Quantization"
  bottom: "conv4"
  top: "conv4"
  quantization_param {
    round_method: ROUND
    round_strategy: AGGRESSIVE
    bit_width: 4
    range: 0
    range: 7.3369722
  }
}
layer {
  name: "conv5"
  type: "Convolution"
  bottom: "conv4"
  top: "conv5"
  param {
    lr_mult: 1
    decay_mult: 1
  }
  param {
    lr_mult: 2
    decay_mult: 0
  }
  convolution_param {
    num_output: 256
    pad: 1
    kernel_size: 3
    weight_filler {
      type: "gaussian"
      std: 0.01
    }
    bias_filler {
      type: "constant"
      value: 0.1
    }
  }
}
layer {
  name: "bn5"
  type: "BatchNorm"
  bottom: "conv5"
  top: "conv5"
}
layer {
  name: "scale5"
  type: "Scale"
  bottom: "conv5"
  top: "conv5"
  scale_param {
    bias_term: true
  }
}
layer {
  name: "relu5"
  type: "ReLU"
  bottom: "conv5"
  top: "conv5"
}
layer {
  name: "pool5"
  type: "Pooling"
  bottom: "conv5"
  top: "pool5"
  pooling_param {
    pool: MAX
    kernel_size: 3
    stride: 2
  }
}
layer {
  name: "quantized_conv5"
  type: "Quantization"
  bottom: "pool5"
  top: "pool5"
  quantization_param {
    round_method: ROUND
    round_strategy: AGGRESSIVE
    bit_width: 4
    range: 0
    range: 8.7577133
  }
}
layer {
  name: "fc6"
  type: "InnerProduct"
  bottom: "pool5"
  top: "fc6"
  param {
    lr_mult: 1
    decay_mult: 1
  }
  param {
    lr_mult: 2
    decay_mult: 0
  }
  inner_product_param {
    num_output: 4096
    weight_filler {
      type: "gaussian"
      std: 0.005
    }
    bias_filler {
      type: "constant"
      value: 0.1
    }
  }
}
layer {
  name: "bn6"
  type: "BatchNorm"
  bottom: "fc6"
  top: "fc6"
}
layer {
  name: "scale6"
  type: "Scale"
  bottom: "fc6"
  top: "fc6"
  scale_param {
    bias_term: true
  }
}
layer {
  name: "relu6"
  type: "ReLU"
  bottom: "fc6"
  top: "fc6"
}
layer {
  name: "drop6"
  type: "Dropout"
  bottom: "fc6"
  top: "fc6"
  dropout_param {
    dropout_ratio: 0.5
  }
}
layer {
  name: "quantized_fc6"
  type: "Quantization"
  bottom: "fc6"
  top: "fc6"
  quantization_param {
    round_method: ROUND
    round_strategy: AGGRESSIVE
    bit_width: 4
    range: 0
    range: 1.659358
  }
}
layer {
  name: "fc7"
  type: "InnerProduct"
  bottom: "fc6"
  top: "fc7"
  param {
    lr_mult: 1
    decay_mult: 1
  }
  param {
    lr_mult: 2
    decay_mult: 0
  }
  inner_product_param {
    num_output: 4096
    weight_filler {
      type: "gaussian"
      std: 0.005
    }
    bias_filler {
      type: "constant"
      value: 0.1
    }
  }
}
layer {
  name: "bn7"
  type: "BatchNorm"
  bottom: "fc7"
  top: "fc7"
}
layer {
  name: "scale7"
  type: "Scale"
  bottom: "fc7"
  top: "fc7"
  scale_param {
    bias_term: true
  }
}
layer {
  name: "relu7"
  type: "ReLU"
  bottom: "fc7"
  top: "fc7"
}
layer {
  name: "drop7"
  type: "Dropout"
  bottom: "fc7"
  top: "fc7"
  dropout_param {
    dropout_ratio: 0.5
  }
}
layer {
  name: "quantized_fc7"
  type: "Quantization"
  bottom: "fc7"
  top: "fc7"
  quantization_param {
    round_method: ROUND
    round_strategy: AGGRESSIVE
    bit_width: 4
    range: 0
    range: 7.5598521
  }
}
layer {
  name: "fc8"
  type: "InnerProduct"
  bottom: "fc7"
  top: "fc8"
  param {
    lr_mult: 1
    decay_mult: 1
  }
  param {
    lr_mult: 2
    decay_mult: 0
  }
  inner_product_param {
    num_output: 1000
    weight_filler {
      type: "gaussian"
      std: 0.01
    }
    bias_filler {
      type: "constant"
      value: 0
    }
  }
}
layer {
  name: "accuracy_5_TRAIN"
  type: "Accuracy"
  bottom: "fc8"
  bottom: "label"
  top: "accuracy_5_TRAIN"
  include {
    phase: TRAIN
  }
  accuracy_param {
    top_k: 5
  }
}
layer {
  name: "loss"
  type: "SoftmaxWithLoss"
  bottom: "fc8"
  bottom: "label"
  top: "loss"
}
I0110 19:36:08.986991 34243 layer_factory.hpp:77] Creating layer data
I0110 19:36:08.987118 34243 db_lmdb.cpp:35] Opened lmdb /home/ydwu/database/imagenet/ilsvrc12/lmdb_resize/ilsvrc12_train_lmdb
I0110 19:36:08.987165 34243 net.cpp:84] Creating Layer data
I0110 19:36:08.987187 34243 net.cpp:380] data -> data
I0110 19:36:08.987223 34243 net.cpp:380] data -> label
I0110 19:36:08.988857 34243 data_layer.cpp:45] output data size: 200,3,224,224
I0110 19:36:09.328369 34243 net.cpp:122] Setting up data
I0110 19:36:09.328425 34243 net.cpp:129] Top shape: 200 3 224 224 (30105600)
I0110 19:36:09.328449 34243 net.cpp:129] Top shape: 200 (200)
I0110 19:36:09.328462 34243 net.cpp:137] Memory required for data: 120423200
I0110 19:36:09.328481 34243 layer_factory.hpp:77] Creating layer label_data_1_split
I0110 19:36:09.328505 34243 net.cpp:84] Creating Layer label_data_1_split
I0110 19:36:09.328519 34243 net.cpp:406] label_data_1_split <- label
I0110 19:36:09.328543 34243 net.cpp:380] label_data_1_split -> label_data_1_split_0
I0110 19:36:09.328563 34243 net.cpp:380] label_data_1_split -> label_data_1_split_1
I0110 19:36:09.328619 34243 net.cpp:122] Setting up label_data_1_split
I0110 19:36:09.328634 34243 net.cpp:129] Top shape: 200 (200)
I0110 19:36:09.328645 34243 net.cpp:129] Top shape: 200 (200)
I0110 19:36:09.328653 34243 net.cpp:137] Memory required for data: 120424800
I0110 19:36:09.328662 34243 layer_factory.hpp:77] Creating layer conv1
I0110 19:36:09.328696 34243 net.cpp:84] Creating Layer conv1
I0110 19:36:09.328706 34243 net.cpp:406] conv1 <- data
I0110 19:36:09.328719 34243 net.cpp:380] conv1 -> conv1
I0110 19:36:09.349617 34243 net.cpp:122] Setting up conv1
I0110 19:36:09.349653 34243 net.cpp:129] Top shape: 200 96 55 55 (58080000)
I0110 19:36:09.349665 34243 net.cpp:137] Memory required for data: 352744800
I0110 19:36:09.349691 34243 layer_factory.hpp:77] Creating layer bn1
I0110 19:36:09.349714 34243 net.cpp:84] Creating Layer bn1
I0110 19:36:09.349726 34243 net.cpp:406] bn1 <- conv1
I0110 19:36:09.349740 34243 net.cpp:367] bn1 -> conv1 (in-place)
I0110 19:36:09.349931 34243 net.cpp:122] Setting up bn1
I0110 19:36:09.349949 34243 net.cpp:129] Top shape: 200 96 55 55 (58080000)
I0110 19:36:09.349959 34243 net.cpp:137] Memory required for data: 585064800
I0110 19:36:09.349975 34243 layer_factory.hpp:77] Creating layer scale1
I0110 19:36:09.349994 34243 net.cpp:84] Creating Layer scale1
I0110 19:36:09.350004 34243 net.cpp:406] scale1 <- conv1
I0110 19:36:09.350016 34243 net.cpp:367] scale1 -> conv1 (in-place)
I0110 19:36:09.350076 34243 layer_factory.hpp:77] Creating layer scale1
I0110 19:36:09.350208 34243 net.cpp:122] Setting up scale1
I0110 19:36:09.350232 34243 net.cpp:129] Top shape: 200 96 55 55 (58080000)
I0110 19:36:09.350242 34243 net.cpp:137] Memory required for data: 817384800
I0110 19:36:09.350255 34243 layer_factory.hpp:77] Creating layer relu1
I0110 19:36:09.350271 34243 net.cpp:84] Creating Layer relu1
I0110 19:36:09.350281 34243 net.cpp:406] relu1 <- conv1
I0110 19:36:09.350292 34243 net.cpp:367] relu1 -> conv1 (in-place)
I0110 19:36:09.350307 34243 net.cpp:122] Setting up relu1
I0110 19:36:09.350318 34243 net.cpp:129] Top shape: 200 96 55 55 (58080000)
I0110 19:36:09.350327 34243 net.cpp:137] Memory required for data: 1049704800
I0110 19:36:09.350337 34243 layer_factory.hpp:77] Creating layer pool1
I0110 19:36:09.350349 34243 net.cpp:84] Creating Layer pool1
I0110 19:36:09.350359 34243 net.cpp:406] pool1 <- conv1
I0110 19:36:09.350404 34243 net.cpp:380] pool1 -> pool1
I0110 19:36:09.350467 34243 net.cpp:122] Setting up pool1
I0110 19:36:09.350484 34243 net.cpp:129] Top shape: 200 96 27 27 (13996800)
I0110 19:36:09.350494 34243 net.cpp:137] Memory required for data: 1105692000
I0110 19:36:09.350503 34243 layer_factory.hpp:77] Creating layer quantized_conv1
I0110 19:36:09.350518 34243 net.cpp:84] Creating Layer quantized_conv1
I0110 19:36:09.350528 34243 net.cpp:406] quantized_conv1 <- pool1
I0110 19:36:09.350540 34243 net.cpp:367] quantized_conv1 -> pool1 (in-place)
I0110 19:36:09.350558 34243 net.cpp:122] Setting up quantized_conv1
I0110 19:36:09.350569 34243 net.cpp:129] Top shape: 200 96 27 27 (13996800)
I0110 19:36:09.350577 34243 net.cpp:137] Memory required for data: 1161679200
I0110 19:36:09.350586 34243 layer_factory.hpp:77] Creating layer conv2
I0110 19:36:09.350605 34243 net.cpp:84] Creating Layer conv2
I0110 19:36:09.350615 34243 net.cpp:406] conv2 <- pool1
I0110 19:36:09.350627 34243 net.cpp:380] conv2 -> conv2
I0110 19:36:09.370704 34243 net.cpp:122] Setting up conv2
I0110 19:36:09.370746 34243 net.cpp:129] Top shape: 200 256 27 27 (37324800)
I0110 19:36:09.370756 34243 net.cpp:137] Memory required for data: 1310978400
I0110 19:36:09.370779 34243 layer_factory.hpp:77] Creating layer bn2
I0110 19:36:09.370797 34243 net.cpp:84] Creating Layer bn2
I0110 19:36:09.370810 34243 net.cpp:406] bn2 <- conv2
I0110 19:36:09.370824 34243 net.cpp:367] bn2 -> conv2 (in-place)
I0110 19:36:09.371007 34243 net.cpp:122] Setting up bn2
I0110 19:36:09.371024 34243 net.cpp:129] Top shape: 200 256 27 27 (37324800)
I0110 19:36:09.371033 34243 net.cpp:137] Memory required for data: 1460277600
I0110 19:36:09.371047 34243 layer_factory.hpp:77] Creating layer scale2
I0110 19:36:09.371063 34243 net.cpp:84] Creating Layer scale2
I0110 19:36:09.371073 34243 net.cpp:406] scale2 <- conv2
I0110 19:36:09.371083 34243 net.cpp:367] scale2 -> conv2 (in-place)
I0110 19:36:09.371140 34243 layer_factory.hpp:77] Creating layer scale2
I0110 19:36:09.371248 34243 net.cpp:122] Setting up scale2
I0110 19:36:09.371264 34243 net.cpp:129] Top shape: 200 256 27 27 (37324800)
I0110 19:36:09.371273 34243 net.cpp:137] Memory required for data: 1609576800
I0110 19:36:09.371286 34243 layer_factory.hpp:77] Creating layer relu2
I0110 19:36:09.371299 34243 net.cpp:84] Creating Layer relu2
I0110 19:36:09.371309 34243 net.cpp:406] relu2 <- conv2
I0110 19:36:09.371320 34243 net.cpp:367] relu2 -> conv2 (in-place)
I0110 19:36:09.371332 34243 net.cpp:122] Setting up relu2
I0110 19:36:09.371343 34243 net.cpp:129] Top shape: 200 256 27 27 (37324800)
I0110 19:36:09.371352 34243 net.cpp:137] Memory required for data: 1758876000
I0110 19:36:09.371361 34243 layer_factory.hpp:77] Creating layer pool2
I0110 19:36:09.371374 34243 net.cpp:84] Creating Layer pool2
I0110 19:36:09.371384 34243 net.cpp:406] pool2 <- conv2
I0110 19:36:09.371395 34243 net.cpp:380] pool2 -> pool2
I0110 19:36:09.371441 34243 net.cpp:122] Setting up pool2
I0110 19:36:09.371457 34243 net.cpp:129] Top shape: 200 256 13 13 (8652800)
I0110 19:36:09.371466 34243 net.cpp:137] Memory required for data: 1793487200
I0110 19:36:09.371475 34243 layer_factory.hpp:77] Creating layer quantized_conv2
I0110 19:36:09.371490 34243 net.cpp:84] Creating Layer quantized_conv2
I0110 19:36:09.371500 34243 net.cpp:406] quantized_conv2 <- pool2
I0110 19:36:09.371510 34243 net.cpp:367] quantized_conv2 -> pool2 (in-place)
I0110 19:36:09.371523 34243 net.cpp:122] Setting up quantized_conv2
I0110 19:36:09.371534 34243 net.cpp:129] Top shape: 200 256 13 13 (8652800)
I0110 19:36:09.371543 34243 net.cpp:137] Memory required for data: 1828098400
I0110 19:36:09.371552 34243 layer_factory.hpp:77] Creating layer conv3
I0110 19:36:09.371569 34243 net.cpp:84] Creating Layer conv3
I0110 19:36:09.371579 34243 net.cpp:406] conv3 <- pool2
I0110 19:36:09.371592 34243 net.cpp:380] conv3 -> conv3
I0110 19:36:09.398738 34243 net.cpp:122] Setting up conv3
I0110 19:36:09.398789 34243 net.cpp:129] Top shape: 200 384 13 13 (12979200)
I0110 19:36:09.398840 34243 net.cpp:137] Memory required for data: 1880015200
I0110 19:36:09.398859 34243 layer_factory.hpp:77] Creating layer bn3
I0110 19:36:09.398878 34243 net.cpp:84] Creating Layer bn3
I0110 19:36:09.398890 34243 net.cpp:406] bn3 <- conv3
I0110 19:36:09.398905 34243 net.cpp:367] bn3 -> conv3 (in-place)
I0110 19:36:09.399083 34243 net.cpp:122] Setting up bn3
I0110 19:36:09.399101 34243 net.cpp:129] Top shape: 200 384 13 13 (12979200)
I0110 19:36:09.399109 34243 net.cpp:137] Memory required for data: 1931932000
I0110 19:36:09.399129 34243 layer_factory.hpp:77] Creating layer scale3
I0110 19:36:09.399147 34243 net.cpp:84] Creating Layer scale3
I0110 19:36:09.399158 34243 net.cpp:406] scale3 <- conv3
I0110 19:36:09.399168 34243 net.cpp:367] scale3 -> conv3 (in-place)
I0110 19:36:09.399222 34243 layer_factory.hpp:77] Creating layer scale3
I0110 19:36:09.399336 34243 net.cpp:122] Setting up scale3
I0110 19:36:09.399353 34243 net.cpp:129] Top shape: 200 384 13 13 (12979200)
I0110 19:36:09.399361 34243 net.cpp:137] Memory required for data: 1983848800
I0110 19:36:09.399374 34243 layer_factory.hpp:77] Creating layer relu3
I0110 19:36:09.399387 34243 net.cpp:84] Creating Layer relu3
I0110 19:36:09.399397 34243 net.cpp:406] relu3 <- conv3
I0110 19:36:09.399408 34243 net.cpp:367] relu3 -> conv3 (in-place)
I0110 19:36:09.399420 34243 net.cpp:122] Setting up relu3
I0110 19:36:09.399431 34243 net.cpp:129] Top shape: 200 384 13 13 (12979200)
I0110 19:36:09.399441 34243 net.cpp:137] Memory required for data: 2035765600
I0110 19:36:09.399448 34243 layer_factory.hpp:77] Creating layer quantized_conv3
I0110 19:36:09.399461 34243 net.cpp:84] Creating Layer quantized_conv3
I0110 19:36:09.399471 34243 net.cpp:406] quantized_conv3 <- conv3
I0110 19:36:09.399482 34243 net.cpp:367] quantized_conv3 -> conv3 (in-place)
I0110 19:36:09.399495 34243 net.cpp:122] Setting up quantized_conv3
I0110 19:36:09.399507 34243 net.cpp:129] Top shape: 200 384 13 13 (12979200)
I0110 19:36:09.399514 34243 net.cpp:137] Memory required for data: 2087682400
I0110 19:36:09.399523 34243 layer_factory.hpp:77] Creating layer conv4
I0110 19:36:09.399541 34243 net.cpp:84] Creating Layer conv4
I0110 19:36:09.399550 34243 net.cpp:406] conv4 <- conv3
I0110 19:36:09.399562 34243 net.cpp:380] conv4 -> conv4
I0110 19:36:09.440486 34243 net.cpp:122] Setting up conv4
I0110 19:36:09.440537 34243 net.cpp:129] Top shape: 200 384 13 13 (12979200)
I0110 19:36:09.440548 34243 net.cpp:137] Memory required for data: 2139599200
I0110 19:36:09.440564 34243 layer_factory.hpp:77] Creating layer bn4
I0110 19:36:09.440583 34243 net.cpp:84] Creating Layer bn4
I0110 19:36:09.440594 34243 net.cpp:406] bn4 <- conv4
I0110 19:36:09.440609 34243 net.cpp:367] bn4 -> conv4 (in-place)
I0110 19:36:09.440784 34243 net.cpp:122] Setting up bn4
I0110 19:36:09.440800 34243 net.cpp:129] Top shape: 200 384 13 13 (12979200)
I0110 19:36:09.440809 34243 net.cpp:137] Memory required for data: 2191516000
I0110 19:36:09.440824 34243 layer_factory.hpp:77] Creating layer scale4
I0110 19:36:09.440837 34243 net.cpp:84] Creating Layer scale4
I0110 19:36:09.440847 34243 net.cpp:406] scale4 <- conv4
I0110 19:36:09.440858 34243 net.cpp:367] scale4 -> conv4 (in-place)
I0110 19:36:09.440910 34243 layer_factory.hpp:77] Creating layer scale4
I0110 19:36:09.441022 34243 net.cpp:122] Setting up scale4
I0110 19:36:09.441038 34243 net.cpp:129] Top shape: 200 384 13 13 (12979200)
I0110 19:36:09.441048 34243 net.cpp:137] Memory required for data: 2243432800
I0110 19:36:09.441061 34243 layer_factory.hpp:77] Creating layer relu4
I0110 19:36:09.441073 34243 net.cpp:84] Creating Layer relu4
I0110 19:36:09.441082 34243 net.cpp:406] relu4 <- conv4
I0110 19:36:09.441094 34243 net.cpp:367] relu4 -> conv4 (in-place)
I0110 19:36:09.441107 34243 net.cpp:122] Setting up relu4
I0110 19:36:09.441118 34243 net.cpp:129] Top shape: 200 384 13 13 (12979200)
I0110 19:36:09.441126 34243 net.cpp:137] Memory required for data: 2295349600
I0110 19:36:09.441135 34243 layer_factory.hpp:77] Creating layer quantized_conv4
I0110 19:36:09.441148 34243 net.cpp:84] Creating Layer quantized_conv4
I0110 19:36:09.441205 34243 net.cpp:406] quantized_conv4 <- conv4
I0110 19:36:09.441218 34243 net.cpp:367] quantized_conv4 -> conv4 (in-place)
I0110 19:36:09.441231 34243 net.cpp:122] Setting up quantized_conv4
I0110 19:36:09.441243 34243 net.cpp:129] Top shape: 200 384 13 13 (12979200)
I0110 19:36:09.441251 34243 net.cpp:137] Memory required for data: 2347266400
I0110 19:36:09.441260 34243 layer_factory.hpp:77] Creating layer conv5
I0110 19:36:09.441279 34243 net.cpp:84] Creating Layer conv5
I0110 19:36:09.441288 34243 net.cpp:406] conv5 <- conv4
I0110 19:36:09.441301 34243 net.cpp:380] conv5 -> conv5
I0110 19:36:09.468961 34243 net.cpp:122] Setting up conv5
I0110 19:36:09.469012 34243 net.cpp:129] Top shape: 200 256 13 13 (8652800)
I0110 19:36:09.469022 34243 net.cpp:137] Memory required for data: 2381877600
I0110 19:36:09.469038 34243 layer_factory.hpp:77] Creating layer bn5
I0110 19:36:09.469056 34243 net.cpp:84] Creating Layer bn5
I0110 19:36:09.469069 34243 net.cpp:406] bn5 <- conv5
I0110 19:36:09.469084 34243 net.cpp:367] bn5 -> conv5 (in-place)
I0110 19:36:09.469257 34243 net.cpp:122] Setting up bn5
I0110 19:36:09.469274 34243 net.cpp:129] Top shape: 200 256 13 13 (8652800)
I0110 19:36:09.469282 34243 net.cpp:137] Memory required for data: 2416488800
I0110 19:36:09.469305 34243 layer_factory.hpp:77] Creating layer scale5
I0110 19:36:09.469321 34243 net.cpp:84] Creating Layer scale5
I0110 19:36:09.469331 34243 net.cpp:406] scale5 <- conv5
I0110 19:36:09.469342 34243 net.cpp:367] scale5 -> conv5 (in-place)
I0110 19:36:09.469398 34243 layer_factory.hpp:77] Creating layer scale5
I0110 19:36:09.469508 34243 net.cpp:122] Setting up scale5
I0110 19:36:09.469524 34243 net.cpp:129] Top shape: 200 256 13 13 (8652800)
I0110 19:36:09.469534 34243 net.cpp:137] Memory required for data: 2451100000
I0110 19:36:09.469547 34243 layer_factory.hpp:77] Creating layer relu5
I0110 19:36:09.469559 34243 net.cpp:84] Creating Layer relu5
I0110 19:36:09.469569 34243 net.cpp:406] relu5 <- conv5
I0110 19:36:09.469579 34243 net.cpp:367] relu5 -> conv5 (in-place)
I0110 19:36:09.469593 34243 net.cpp:122] Setting up relu5
I0110 19:36:09.469602 34243 net.cpp:129] Top shape: 200 256 13 13 (8652800)
I0110 19:36:09.469611 34243 net.cpp:137] Memory required for data: 2485711200
I0110 19:36:09.469620 34243 layer_factory.hpp:77] Creating layer pool5
I0110 19:36:09.469632 34243 net.cpp:84] Creating Layer pool5
I0110 19:36:09.469642 34243 net.cpp:406] pool5 <- conv5
I0110 19:36:09.469655 34243 net.cpp:380] pool5 -> pool5
I0110 19:36:09.469700 34243 net.cpp:122] Setting up pool5
I0110 19:36:09.469715 34243 net.cpp:129] Top shape: 200 256 6 6 (1843200)
I0110 19:36:09.469725 34243 net.cpp:137] Memory required for data: 2493084000
I0110 19:36:09.469733 34243 layer_factory.hpp:77] Creating layer quantized_conv5
I0110 19:36:09.469748 34243 net.cpp:84] Creating Layer quantized_conv5
I0110 19:36:09.469758 34243 net.cpp:406] quantized_conv5 <- pool5
I0110 19:36:09.469769 34243 net.cpp:367] quantized_conv5 -> pool5 (in-place)
I0110 19:36:09.469782 34243 net.cpp:122] Setting up quantized_conv5
I0110 19:36:09.469794 34243 net.cpp:129] Top shape: 200 256 6 6 (1843200)
I0110 19:36:09.469802 34243 net.cpp:137] Memory required for data: 2500456800
I0110 19:36:09.469812 34243 layer_factory.hpp:77] Creating layer fc6
I0110 19:36:09.469837 34243 net.cpp:84] Creating Layer fc6
I0110 19:36:09.469847 34243 net.cpp:406] fc6 <- pool5
I0110 19:36:09.469861 34243 net.cpp:380] fc6 -> fc6
I0110 19:36:10.591775 34243 net.cpp:122] Setting up fc6
I0110 19:36:10.591840 34243 net.cpp:129] Top shape: 200 4096 (819200)
I0110 19:36:10.591850 34243 net.cpp:137] Memory required for data: 2503733600
I0110 19:36:10.591868 34243 layer_factory.hpp:77] Creating layer bn6
I0110 19:36:10.591887 34243 net.cpp:84] Creating Layer bn6
I0110 19:36:10.591899 34243 net.cpp:406] bn6 <- fc6
I0110 19:36:10.591914 34243 net.cpp:367] bn6 -> fc6 (in-place)
I0110 19:36:10.592098 34243 net.cpp:122] Setting up bn6
I0110 19:36:10.592115 34243 net.cpp:129] Top shape: 200 4096 (819200)
I0110 19:36:10.592165 34243 net.cpp:137] Memory required for data: 2507010400
I0110 19:36:10.592181 34243 layer_factory.hpp:77] Creating layer scale6
I0110 19:36:10.592201 34243 net.cpp:84] Creating Layer scale6
I0110 19:36:10.592211 34243 net.cpp:406] scale6 <- fc6
I0110 19:36:10.592222 34243 net.cpp:367] scale6 -> fc6 (in-place)
I0110 19:36:10.592275 34243 layer_factory.hpp:77] Creating layer scale6
I0110 19:36:10.592397 34243 net.cpp:122] Setting up scale6
I0110 19:36:10.592413 34243 net.cpp:129] Top shape: 200 4096 (819200)
I0110 19:36:10.592422 34243 net.cpp:137] Memory required for data: 2510287200
I0110 19:36:10.592434 34243 layer_factory.hpp:77] Creating layer relu6
I0110 19:36:10.592447 34243 net.cpp:84] Creating Layer relu6
I0110 19:36:10.592458 34243 net.cpp:406] relu6 <- fc6
I0110 19:36:10.592468 34243 net.cpp:367] relu6 -> fc6 (in-place)
I0110 19:36:10.592480 34243 net.cpp:122] Setting up relu6
I0110 19:36:10.592491 34243 net.cpp:129] Top shape: 200 4096 (819200)
I0110 19:36:10.592500 34243 net.cpp:137] Memory required for data: 2513564000
I0110 19:36:10.592509 34243 layer_factory.hpp:77] Creating layer drop6
I0110 19:36:10.592531 34243 net.cpp:84] Creating Layer drop6
I0110 19:36:10.592541 34243 net.cpp:406] drop6 <- fc6
I0110 19:36:10.592552 34243 net.cpp:367] drop6 -> fc6 (in-place)
I0110 19:36:10.592593 34243 net.cpp:122] Setting up drop6
I0110 19:36:10.592608 34243 net.cpp:129] Top shape: 200 4096 (819200)
I0110 19:36:10.592617 34243 net.cpp:137] Memory required for data: 2516840800
I0110 19:36:10.592627 34243 layer_factory.hpp:77] Creating layer quantized_fc6
I0110 19:36:10.592640 34243 net.cpp:84] Creating Layer quantized_fc6
I0110 19:36:10.592650 34243 net.cpp:406] quantized_fc6 <- fc6
I0110 19:36:10.592663 34243 net.cpp:367] quantized_fc6 -> fc6 (in-place)
I0110 19:36:10.592675 34243 net.cpp:122] Setting up quantized_fc6
I0110 19:36:10.592686 34243 net.cpp:129] Top shape: 200 4096 (819200)
I0110 19:36:10.592695 34243 net.cpp:137] Memory required for data: 2520117600
I0110 19:36:10.592703 34243 layer_factory.hpp:77] Creating layer fc7
I0110 19:36:10.592718 34243 net.cpp:84] Creating Layer fc7
I0110 19:36:10.592728 34243 net.cpp:406] fc7 <- fc6
I0110 19:36:10.592741 34243 net.cpp:380] fc7 -> fc7
I0110 19:36:11.086235 34243 net.cpp:122] Setting up fc7
I0110 19:36:11.086297 34243 net.cpp:129] Top shape: 200 4096 (819200)
I0110 19:36:11.086308 34243 net.cpp:137] Memory required for data: 2523394400
I0110 19:36:11.086324 34243 layer_factory.hpp:77] Creating layer bn7
I0110 19:36:11.086344 34243 net.cpp:84] Creating Layer bn7
I0110 19:36:11.086355 34243 net.cpp:406] bn7 <- fc7
I0110 19:36:11.086370 34243 net.cpp:367] bn7 -> fc7 (in-place)
I0110 19:36:11.086558 34243 net.cpp:122] Setting up bn7
I0110 19:36:11.086575 34243 net.cpp:129] Top shape: 200 4096 (819200)
I0110 19:36:11.086583 34243 net.cpp:137] Memory required for data: 2526671200
I0110 19:36:11.086598 34243 layer_factory.hpp:77] Creating layer scale7
I0110 19:36:11.086612 34243 net.cpp:84] Creating Layer scale7
I0110 19:36:11.086622 34243 net.cpp:406] scale7 <- fc7
I0110 19:36:11.086633 34243 net.cpp:367] scale7 -> fc7 (in-place)
I0110 19:36:11.086685 34243 layer_factory.hpp:77] Creating layer scale7
I0110 19:36:11.086807 34243 net.cpp:122] Setting up scale7
I0110 19:36:11.086823 34243 net.cpp:129] Top shape: 200 4096 (819200)
I0110 19:36:11.086833 34243 net.cpp:137] Memory required for data: 2529948000
I0110 19:36:11.086845 34243 layer_factory.hpp:77] Creating layer relu7
I0110 19:36:11.086858 34243 net.cpp:84] Creating Layer relu7
I0110 19:36:11.086869 34243 net.cpp:406] relu7 <- fc7
I0110 19:36:11.086879 34243 net.cpp:367] relu7 -> fc7 (in-place)
I0110 19:36:11.086891 34243 net.cpp:122] Setting up relu7
I0110 19:36:11.086902 34243 net.cpp:129] Top shape: 200 4096 (819200)
I0110 19:36:11.086910 34243 net.cpp:137] Memory required for data: 2533224800
I0110 19:36:11.086920 34243 layer_factory.hpp:77] Creating layer drop7
I0110 19:36:11.086932 34243 net.cpp:84] Creating Layer drop7
I0110 19:36:11.086941 34243 net.cpp:406] drop7 <- fc7
I0110 19:36:11.086997 34243 net.cpp:367] drop7 -> fc7 (in-place)
I0110 19:36:11.087033 34243 net.cpp:122] Setting up drop7
I0110 19:36:11.087049 34243 net.cpp:129] Top shape: 200 4096 (819200)
I0110 19:36:11.087057 34243 net.cpp:137] Memory required for data: 2536501600
I0110 19:36:11.087066 34243 layer_factory.hpp:77] Creating layer quantized_fc7
I0110 19:36:11.087080 34243 net.cpp:84] Creating Layer quantized_fc7
I0110 19:36:11.087090 34243 net.cpp:406] quantized_fc7 <- fc7
I0110 19:36:11.087101 34243 net.cpp:367] quantized_fc7 -> fc7 (in-place)
I0110 19:36:11.087115 34243 net.cpp:122] Setting up quantized_fc7
I0110 19:36:11.087126 34243 net.cpp:129] Top shape: 200 4096 (819200)
I0110 19:36:11.087133 34243 net.cpp:137] Memory required for data: 2539778400
I0110 19:36:11.087142 34243 layer_factory.hpp:77] Creating layer fc8
I0110 19:36:11.087157 34243 net.cpp:84] Creating Layer fc8
I0110 19:36:11.087167 34243 net.cpp:406] fc8 <- fc7
I0110 19:36:11.087179 34243 net.cpp:380] fc8 -> fc8
I0110 19:36:11.209043 34243 net.cpp:122] Setting up fc8
I0110 19:36:11.209105 34243 net.cpp:129] Top shape: 200 1000 (200000)
I0110 19:36:11.209116 34243 net.cpp:137] Memory required for data: 2540578400
I0110 19:36:11.209133 34243 layer_factory.hpp:77] Creating layer fc8_fc8_0_split
I0110 19:36:11.209151 34243 net.cpp:84] Creating Layer fc8_fc8_0_split
I0110 19:36:11.209163 34243 net.cpp:406] fc8_fc8_0_split <- fc8
I0110 19:36:11.209179 34243 net.cpp:380] fc8_fc8_0_split -> fc8_fc8_0_split_0
I0110 19:36:11.209198 34243 net.cpp:380] fc8_fc8_0_split -> fc8_fc8_0_split_1
I0110 19:36:11.209254 34243 net.cpp:122] Setting up fc8_fc8_0_split
I0110 19:36:11.209270 34243 net.cpp:129] Top shape: 200 1000 (200000)
I0110 19:36:11.209280 34243 net.cpp:129] Top shape: 200 1000 (200000)
I0110 19:36:11.209288 34243 net.cpp:137] Memory required for data: 2542178400
I0110 19:36:11.209297 34243 layer_factory.hpp:77] Creating layer accuracy_5_TRAIN
I0110 19:36:11.209323 34243 net.cpp:84] Creating Layer accuracy_5_TRAIN
I0110 19:36:11.209333 34243 net.cpp:406] accuracy_5_TRAIN <- fc8_fc8_0_split_0
I0110 19:36:11.209343 34243 net.cpp:406] accuracy_5_TRAIN <- label_data_1_split_0
…
I0110 19:36:11.212504 34243 net.cpp:294] The NetState phase (1) differed from the phase (0) specified by a rule in layer accuracy_5_TRAIN
I0110 19:36:11.212754 34243 net.cpp:51] Initializing net from parameters: 
name: "AlexNet-BN"
state {
  phase: TEST
}
layer {
  name: "data"
  type: "Data"
  top: "data"
  top: "label"
  include {
    phase: TEST
  }
  transform_param {
    mirror: false
    crop_size: 224
    mean_value: 103.939
    mean_value: 116.779
    mean_value: 123.68
  }
  data_param {
    source: "/home/ydwu/database/imagenet/ilsvrc12/lmdb_resize/ilsvrc12_val_lmdb"
    batch_size: 200
    backend: LMDB
  }
}
layer {
  name: "conv1"
  type: "Convolution"
  bottom: "data"
  top: "conv1"
  param {
    lr_mult: 1
    decay_mult: 1
  }
  param {
    lr_mult: 2
    decay_mult: 0
  }
  convolution_param {
    num_output: 96
    pad: 2
    kernel_size: 11
    stride: 4
    weight_filler {
      type: "gaussian"
      std: 0.01
    }
    bias_filler {
      type: "constant"
      value: 0
    }
  }
}
layer {
  name: "bn1"
  type: "BatchNorm"
  bottom: "conv1"
  top: "conv1"
}
layer {
  name: "scale1"
  type: "Scale"
  bottom: "conv1"
  top: "conv1"
  scale_param {
    bias_term: true
  }
}
layer {
  name: "relu1"
  type: "ReLU"
  bottom: "conv1"
  top: "conv1"
}
layer {
  name: "pool1"
  type: "Pooling"
  bottom: "conv1"
  top: "pool1"
  pooling_param {
    pool: MAX
    kernel_size: 3
    stride: 2
  }
}
layer {
  name: "quantized_conv1"
  type: "Quantization"
  bottom: "pool1"
  top: "pool1"
  quantization_param {
    round_method: ROUND
    round_strategy: AGGRESSIVE
    bit_width: 4
    range: 0
    range: 13.965383
  }
}
layer {
  name: "conv2"
  type: "Convolution"
  bottom: "pool1"
  top: "conv2"
  param {
    lr_mult: 1
    decay_mult: 1
  }
  param {
    lr_mult: 2
    decay_mult: 0
  }
  convolution_param {
    num_output: 256
    pad: 2
    kernel_size: 5
    weight_filler {
      type: "gaussian"
      std: 0.01
    }
    bias_filler {
      type: "constant"
      value: 0.1
    }
  }
}
layer {
  name: "bn2"
  type: "BatchNorm"
  bottom: "conv2"
  top: "conv2"
}
layer {
  name: "scale2"
  type: "Scale"
  bottom: "conv2"
  top: "conv2"
  scale_param {
    bias_term: true
  }
}
layer {
  name: "relu2"
  type: "ReLU"
  bottom: "conv2"
  top: "conv2"
}
layer {
  name: "pool2"
  type: "Pooling"
  bottom: "conv2"
  top: "pool2"
  pooling_param {
    pool: MAX
    kernel_size: 3
    stride: 2
  }
}
layer {
  name: "quantized_conv2"
  type: "Quantization"
  bottom: "pool2"
  top: "pool2"
  quantization_param {
    round_method: ROUND
    round_strategy: AGGRESSIVE
    bit_width: 4
    range: 0
    range: 6.74956
  }
}
layer {
  name: "conv3"
  type: "Convolution"
  bottom: "pool2"
  top: "conv3"
  param {
    lr_mult: 1
    decay_mult: 1
  }
  param {
    lr_mult: 2
    decay_mult: 0
  }
  convolution_param {
    num_output: 384
    pad: 1
    kernel_size: 3
    weight_filler {
      type: "gaussian"
      std: 0.01
    }
    bias_filler {
      type: "constant"
      value: 0
    }
  }
}
layer {
  name: "bn3"
  type: "BatchNorm"
  bottom: "conv3"
  top: "conv3"
}
layer {
  name: "scale3"
  type: "Scale"
  bottom: "conv3"
  top: "conv3"
  scale_param {
    bias_term: true
  }
}
layer {
  name: "relu3"
  type: "ReLU"
  bottom: "conv3"
  top: "conv3"
}
layer {
  name: "quantized_conv3"
  type: "Quantization"
  bottom: "conv3"
  top: "conv3"
  quantization_param {
    round_method: ROUND
    round_strategy: AGGRESSIVE
    bit_width: 4
    range: 0
    range: 8.48454
  }
}
layer {
  name: "conv4"
  type: "Convolution"
  bottom: "conv3"
  top: "conv4"
  param {
    lr_mult: 1
    decay_mult: 1
  }
  param {
    lr_mult: 2
    decay_mult: 0
  }
  convolution_param {
    num_output: 384
    pad: 1
    kernel_size: 3
    weight_filler {
      type: "gaussian"
      std: 0.01
    }
    bias_filler {
      type: "constant"
      value: 0.1
    }
  }
}
layer {
  name: "bn4"
  type: "BatchNorm"
  bottom: "conv4"
  top: "conv4"
}
layer {
  name: "scale4"
  type: "Scale"
  bottom: "conv4"
  top: "conv4"
  scale_param {
    bias_term: true
  }
}
layer {
  name: "relu4"
  type: "ReLU"
  bottom: "conv4"
  top: "conv4"
}
layer {
  name: "quantized_conv4"
  type: "Quantization"
  bottom: "conv4"
  top: "conv4"
  quantization_param {
    round_method: ROUND
    round_strategy: AGGRESSIVE
    bit_width: 4
    range: 0
    range: 7.3369722
  }
}
layer {
  name: "conv5"
  type: "Convolution"
  bottom: "conv4"
  top: "conv5"
  param {
    lr_mult: 1
    decay_mult: 1
  }
  param {
    lr_mult: 2
    decay_mult: 0
  }
  convolution_param {
    num_output: 256
    pad: 1
    kernel_size: 3
    weight_filler {
      type: "gaussian"
      std: 0.01
    }
    bias_filler {
      type: "constant"
      value: 0.1
    }
  }
}
layer {
  name: "bn5"
  type: "BatchNorm"
  bottom: "conv5"
  top: "conv5"
}
layer {
  name: "scale5"
  type: "Scale"
  bottom: "conv5"
  top: "conv5"
  scale_param {
    bias_term: true
  }
}
layer {
  name: "relu5"
  type: "ReLU"
  bottom: "conv5"
  top: "conv5"
}
layer {
  name: "pool5"
  type: "Pooling"
  bottom: "conv5"
  top: "pool5"
  pooling_param {
    pool: MAX
    kernel_size: 3
    stride: 2
  }
}
layer {
  name: "quantized_conv5"
  type: "Quantization"
  bottom: "pool5"
  top: "pool5"
  quantization_param {
    round_method: ROUND
    round_strategy: AGGRESSIVE
    bit_width: 4
    range: 0
    range: 8.7577133
  }
}
layer {
  name: "fc6"
  type: "InnerProduct"
  bottom: "pool5"
  top: "fc6"
  param {
    lr_mult: 1
    decay_mult: 1
  }
  param {
    lr_mult: 2
    decay_mult: 0
  }
  inner_product_param {
    num_output: 4096
    weight_filler {
      type: "gaussian"
      std: 0.005
    }
    bias_filler {
      type: "constant"
      value: 0.1
    }
  }
}
layer {
  name: "bn6"
  type: "BatchNorm"
  bottom: "fc6"
  top: "fc6"
}
layer {
  name: "scale6"
  type: "Scale"
  bottom: "fc6"
  top: "fc6"
  scale_param {
    bias_term: true
  }
}
layer {
  name: "relu6"
  type: "ReLU"
  bottom: "fc6"
  top: "fc6"
}
layer {
  name: "drop6"
  type: "Dropout"
  bottom: "fc6"
  top: "fc6"
  dropout_param {
    dropout_ratio: 0.5
  }
}
layer {
  name: "quantized_fc6"
  type: "Quantization"
  bottom: "fc6"
  top: "fc6"
  quantization_param {
    round_method: ROUND
    round_strategy: AGGRESSIVE
    bit_width: 4
    range: 0
    range: 1.659358
  }
}
layer {
  name: "fc7"
  type: "InnerProduct"
  bottom: "fc6"
  top: "fc7"
  param {
    lr_mult: 1
    decay_mult: 1
  }
  param {
    lr_mult: 2
    decay_mult: 0
  }
  inner_product_param {
    num_output: 4096
    weight_filler {
      type: "gaussian"
      std: 0.005
    }
    bias_filler {
      type: "constant"
      value: 0.1
    }
  }
}
layer {
  name: "bn7"
  type: "BatchNorm"
  bottom: "fc7"
  top: "fc7"
}
layer {
  name: "scale7"
  type: "Scale"
  bottom: "fc7"
  top: "fc7"
  scale_param {
    bias_term: true
  }
}
layer {
  name: "relu7"
  type: "ReLU"
  bottom: "fc7"
  top: "fc7"
}
layer {
  name: "drop7"
  type: "Dropout"
  bottom: "fc7"
  top: "fc7"
  dropout_param {
    dropout_ratio: 0.5
  }
}
layer {
  name: "quantized_fc7"
  type: "Quantization"
  bottom: "fc7"
  top: "fc7"
  quantization_param {
    round_method: ROUND
    round_strategy: AGGRESSIVE
    bit_width: 4
    range: 0
    range: 7.5598521
  }
}
layer {
  name: "fc8"
  type: "InnerProduct"
  bottom: "fc7"
  top: "fc8"
  param {
    lr_mult: 1
    decay_mult: 1
  }
  param {
    lr_mult: 2
    decay_mult: 0
  }
  inner_product_param {
    num_output: 1000
    weight_filler {
      type: "gaussian"
      std: 0.01
    }
    bias_filler {
      type: "constant"
      value: 0
    }
  }
}
layer {
  name: "accuracy"
  type: "Accuracy"
  bottom: "fc8"
  bottom: "label"
  top: "accuracy"
  include {
    phase: TEST
  }
}
layer {
  name: "accuracy_5"
  type: "Accuracy"
  bottom: "fc8"
  bottom: "label"
  top: "accuracy_5"
  include {
    phase: TEST
  }
  accuracy_param {
    top_k: 5
  }
}
layer {
  name: "loss"
  type: "SoftmaxWithLoss"
  bottom: "fc8"
  bottom: "label"
  top: "loss"
}
I0110 19:36:11.212941 34243 layer_factory.hpp:77] Creating layer data
I0110 19:36:11.213017 34243 db_lmdb.cpp:35] Opened lmdb /home/ydwu/database/imagenet/ilsvrc12/lmdb_resize/ilsvrc12_val_lmdb
I0110 19:36:11.213047 34243 net.cpp:84] Creating Layer data
I0110 19:36:11.213062 34243 net.cpp:380] data -> data
I0110 19:36:11.213078 34243 net.cpp:380] data -> label
I0110 19:36:11.213315 34243 data_layer.cpp:45] output data size: 200,3,224,224
I0110 19:36:11.546519 34243 net.cpp:122] Setting up data
I0110 19:36:11.546567 34243 net.cpp:129] Top shape: 200 3 224 224 (30105600)
I0110 19:36:11.546581 34243 net.cpp:129] Top shape: 200 (200)
I0110 19:36:11.546591 34243 net.cpp:137] Memory required for data: 120423200
I0110 19:36:11.546604 34243 layer_factory.hpp:77] Creating layer label_data_1_split
I0110 19:36:11.546627 34243 net.cpp:84] Creating Layer label_data_1_split
I0110 19:36:11.546638 34243 net.cpp:406] label_data_1_split <- label
I0110 19:36:11.546653 34243 net.cpp:380] label_data_1_split -> label_data_1_split_0
I0110 19:36:11.546672 34243 net.cpp:380] label_data_1_split -> label_data_1_split_1
I0110 19:36:11.546686 34243 net.cpp:380] label_data_1_split -> label_data_1_split_2
I0110 19:36:11.546787 34243 net.cpp:122] Setting up label_data_1_split
I0110 19:36:11.546804 34243 net.cpp:129] Top shape: 200 (200)
I0110 19:36:11.546815 34243 net.cpp:129] Top shape: 200 (200)
I0110 19:36:11.546825 34243 net.cpp:129] Top shape: 200 (200)
I0110 19:36:11.546833 34243 net.cpp:137] Memory required for data: 120425600
I0110 19:36:11.546842 34243 layer_factory.hpp:77] Creating layer conv1
I0110 19:36:11.546864 34243 net.cpp:84] Creating Layer conv1
I0110 19:36:11.546875 34243 net.cpp:406] conv1 <- data
I0110 19:36:11.546887 34243 net.cpp:380] conv1 -> conv1
I0110 19:36:11.565961 34243 net.cpp:122] Setting up conv1
I0110 19:36:11.565984 34243 net.cpp:129] Top shape: 200 96 55 55 (58080000)
I0110 19:36:11.565994 34243 net.cpp:137] Memory required for data: 352745600
I0110 19:36:11.566009 34243 layer_factory.hpp:77] Creating layer bn1
I0110 19:36:11.566025 34243 net.cpp:84] Creating Layer bn1
I0110 19:36:11.566035 34243 net.cpp:406] bn1 <- conv1
I0110 19:36:11.566046 34243 net.cpp:367] bn1 -> conv1 (in-place)
I0110 19:36:11.566262 34243 net.cpp:122] Setting up bn1
I0110 19:36:11.566277 34243 net.cpp:129] Top shape: 200 96 55 55 (58080000)
I0110 19:36:11.566287 34243 net.cpp:137] Memory required for data: 585065600
I0110 19:36:11.566303 34243 layer_factory.hpp:77] Creating layer scale1
I0110 19:36:11.566320 34243 net.cpp:84] Creating Layer scale1
I0110 19:36:11.566330 34243 net.cpp:406] scale1 <- conv1
I0110 19:36:11.566341 34243 net.cpp:367] scale1 -> conv1 (in-place)
I0110 19:36:11.566395 34243 layer_factory.hpp:77] Creating layer scale1
I0110 19:36:11.566529 34243 net.cpp:122] Setting up scale1
I0110 19:36:11.566546 34243 net.cpp:129] Top shape: 200 96 55 55 (58080000)
I0110 19:36:11.566555 34243 net.cpp:137] Memory required for data: 817385600
I0110 19:36:11.566568 34243 layer_factory.hpp:77] Creating layer relu1
I0110 19:36:11.566581 34243 net.cpp:84] Creating Layer relu1
I0110 19:36:11.566591 34243 net.cpp:406] relu1 <- conv1
I0110 19:36:11.566601 34243 net.cpp:367] relu1 -> conv1 (in-place)
I0110 19:36:11.566614 34243 net.cpp:122] Setting up relu1
I0110 19:36:11.566624 34243 net.cpp:129] Top shape: 200 96 55 55 (58080000)
I0110 19:36:11.566633 34243 net.cpp:137] Memory required for data: 1049705600
I0110 19:36:11.566642 34243 layer_factory.hpp:77] Creating layer pool1
I0110 19:36:11.566655 34243 net.cpp:84] Creating Layer pool1
I0110 19:36:11.566664 34243 net.cpp:406] pool1 <- conv1
I0110 19:36:11.566675 34243 net.cpp:380] pool1 -> pool1
I0110 19:36:11.566725 34243 net.cpp:122] Setting up pool1
I0110 19:36:11.566740 34243 net.cpp:129] Top shape: 200 96 27 27 (13996800)
I0110 19:36:11.566750 34243 net.cpp:137] Memory required for data: 1105692800
I0110 19:36:11.566757 34243 layer_factory.hpp:77] Creating layer quantized_conv1
I0110 19:36:11.566771 34243 net.cpp:84] Creating Layer quantized_conv1
I0110 19:36:11.566781 34243 net.cpp:406] quantized_conv1 <- pool1
I0110 19:36:11.566792 34243 net.cpp:367] quantized_conv1 -> pool1 (in-place)
I0110 19:36:11.566805 34243 net.cpp:122] Setting up quantized_conv1
I0110 19:36:11.566817 34243 net.cpp:129] Top shape: 200 96 27 27 (13996800)
I0110 19:36:11.566825 34243 net.cpp:137] Memory required for data: 1161680000
I0110 19:36:11.566834 34243 layer_factory.hpp:77] Creating layer conv2
I0110 19:36:11.566851 34243 net.cpp:84] Creating Layer conv2
I0110 19:36:11.566861 34243 net.cpp:406] conv2 <- pool1
I0110 19:36:11.566874 34243 net.cpp:380] conv2 -> conv2
I0110 19:36:11.585777 34243 net.cpp:122] Setting up conv2
I0110 19:36:11.585826 34243 net.cpp:129] Top shape: 200 256 27 27 (37324800)
I0110 19:36:11.585837 34243 net.cpp:137] Memory required for data: 1310979200
I0110 19:36:11.585858 34243 layer_factory.hpp:77] Creating layer bn2
I0110 19:36:11.585878 34243 net.cpp:84] Creating Layer bn2
I0110 19:36:11.585891 34243 net.cpp:406] bn2 <- conv2
I0110 19:36:11.585906 34243 net.cpp:367] bn2 -> conv2 (in-place)
I0110 19:36:11.586100 34243 net.cpp:122] Setting up bn2
I0110 19:36:11.586117 34243 net.cpp:129] Top shape: 200 256 27 27 (37324800)
I0110 19:36:11.586127 34243 net.cpp:137] Memory required for data: 1460278400
I0110 19:36:11.586181 34243 layer_factory.hpp:77] Creating layer scale2
I0110 19:36:11.586199 34243 net.cpp:84] Creating Layer scale2
I0110 19:36:11.586210 34243 net.cpp:406] scale2 <- conv2
I0110 19:36:11.586221 34243 net.cpp:367] scale2 -> conv2 (in-place)
I0110 19:36:11.586280 34243 layer_factory.hpp:77] Creating layer scale2
I0110 19:36:11.586406 34243 net.cpp:122] Setting up scale2
I0110 19:36:11.586422 34243 net.cpp:129] Top shape: 200 256 27 27 (37324800)
I0110 19:36:11.586432 34243 net.cpp:137] Memory required for data: 1609577600
I0110 19:36:11.586443 34243 layer_factory.hpp:77] Creating layer relu2
I0110 19:36:11.586457 34243 net.cpp:84] Creating Layer relu2
I0110 19:36:11.586467 34243 net.cpp:406] relu2 <- conv2
I0110 19:36:11.586477 34243 net.cpp:367] relu2 -> conv2 (in-place)
I0110 19:36:11.586489 34243 net.cpp:122] Setting up relu2
I0110 19:36:11.586500 34243 net.cpp:129] Top shape: 200 256 27 27 (37324800)
I0110 19:36:11.586509 34243 net.cpp:137] Memory required for data: 1758876800
I0110 19:36:11.586518 34243 layer_factory.hpp:77] Creating layer pool2
I0110 19:36:11.586530 34243 net.cpp:84] Creating Layer pool2
I0110 19:36:11.586539 34243 net.cpp:406] pool2 <- conv2
I0110 19:36:11.586551 34243 net.cpp:380] pool2 -> pool2
I0110 19:36:11.586601 34243 net.cpp:122] Setting up pool2
I0110 19:36:11.586618 34243 net.cpp:129] Top shape: 200 256 13 13 (8652800)
I0110 19:36:11.586627 34243 net.cpp:137] Memory required for data: 1793488000
I0110 19:36:11.586637 34243 layer_factory.hpp:77] Creating layer quantized_conv2
I0110 19:36:11.586650 34243 net.cpp:84] Creating Layer quantized_conv2
I0110 19:36:11.586659 34243 net.cpp:406] quantized_conv2 <- pool2
I0110 19:36:11.586673 34243 net.cpp:367] quantized_conv2 -> pool2 (in-place)
I0110 19:36:11.586686 34243 net.cpp:122] Setting up quantized_conv2
I0110 19:36:11.586697 34243 net.cpp:129] Top shape: 200 256 13 13 (8652800)
I0110 19:36:11.586706 34243 net.cpp:137] Memory required for data: 1828099200
I0110 19:36:11.586715 34243 layer_factory.hpp:77] Creating layer conv3
I0110 19:36:11.586733 34243 net.cpp:84] Creating Layer conv3
I0110 19:36:11.586743 34243 net.cpp:406] conv3 <- pool2
I0110 19:36:11.586755 34243 net.cpp:380] conv3 -> conv3
I0110 19:36:11.613837 34243 net.cpp:122] Setting up conv3
I0110 19:36:11.613886 34243 net.cpp:129] Top shape: 200 384 13 13 (12979200)
I0110 19:36:11.613898 34243 net.cpp:137] Memory required for data: 1880016000
I0110 19:36:11.613914 34243 layer_factory.hpp:77] Creating layer bn3
I0110 19:36:11.613932 34243 net.cpp:84] Creating Layer bn3
I0110 19:36:11.613945 34243 net.cpp:406] bn3 <- conv3
I0110 19:36:11.613960 34243 net.cpp:367] bn3 -> conv3 (in-place)
I0110 19:36:11.614152 34243 net.cpp:122] Setting up bn3
I0110 19:36:11.614169 34243 net.cpp:129] Top shape: 200 384 13 13 (12979200)
I0110 19:36:11.614179 34243 net.cpp:137] Memory required for data: 1931932800
I0110 19:36:11.614198 34243 layer_factory.hpp:77] Creating layer scale3
I0110 19:36:11.614217 34243 net.cpp:84] Creating Layer scale3
I0110 19:36:11.614228 34243 net.cpp:406] scale3 <- conv3
I0110 19:36:11.614239 34243 net.cpp:367] scale3 -> conv3 (in-place)
I0110 19:36:11.614296 34243 layer_factory.hpp:77] Creating layer scale3
I0110 19:36:11.614420 34243 net.cpp:122] Setting up scale3
I0110 19:36:11.614437 34243 net.cpp:129] Top shape: 200 384 13 13 (12979200)
I0110 19:36:11.614446 34243 net.cpp:137] Memory required for data: 1983849600
I0110 19:36:11.614459 34243 layer_factory.hpp:77] Creating layer relu3
I0110 19:36:11.614471 34243 net.cpp:84] Creating Layer relu3
I0110 19:36:11.614481 34243 net.cpp:406] relu3 <- conv3
I0110 19:36:11.614491 34243 net.cpp:367] relu3 -> conv3 (in-place)
I0110 19:36:11.614504 34243 net.cpp:122] Setting up relu3
I0110 19:36:11.614516 34243 net.cpp:129] Top shape: 200 384 13 13 (12979200)
I0110 19:36:11.614524 34243 net.cpp:137] Memory required for data: 2035766400
I0110 19:36:11.614532 34243 layer_factory.hpp:77] Creating layer quantized_conv3
I0110 19:36:11.614545 34243 net.cpp:84] Creating Layer quantized_conv3
I0110 19:36:11.614595 34243 net.cpp:406] quantized_conv3 <- conv3
I0110 19:36:11.614609 34243 net.cpp:367] quantized_conv3 -> conv3 (in-place)
I0110 19:36:11.614621 34243 net.cpp:122] Setting up quantized_conv3
I0110 19:36:11.614634 34243 net.cpp:129] Top shape: 200 384 13 13 (12979200)
I0110 19:36:11.614642 34243 net.cpp:137] Memory required for data: 2087683200
I0110 19:36:11.614650 34243 layer_factory.hpp:77] Creating layer conv4
I0110 19:36:11.614670 34243 net.cpp:84] Creating Layer conv4
I0110 19:36:11.614679 34243 net.cpp:406] conv4 <- conv3
I0110 19:36:11.614691 34243 net.cpp:380] conv4 -> conv4
I0110 19:36:11.654891 34243 net.cpp:122] Setting up conv4
I0110 19:36:11.654937 34243 net.cpp:129] Top shape: 200 384 13 13 (12979200)
I0110 19:36:11.654948 34243 net.cpp:137] Memory required for data: 2139600000
I0110 19:36:11.654968 34243 layer_factory.hpp:77] Creating layer bn4
I0110 19:36:11.654989 34243 net.cpp:84] Creating Layer bn4
I0110 19:36:11.655000 34243 net.cpp:406] bn4 <- conv4
I0110 19:36:11.655015 34243 net.cpp:367] bn4 -> conv4 (in-place)
I0110 19:36:11.655207 34243 net.cpp:122] Setting up bn4
I0110 19:36:11.655225 34243 net.cpp:129] Top shape: 200 384 13 13 (12979200)
I0110 19:36:11.655233 34243 net.cpp:137] Memory required for data: 2191516800
I0110 19:36:11.655247 34243 layer_factory.hpp:77] Creating layer scale4
I0110 19:36:11.655262 34243 net.cpp:84] Creating Layer scale4
I0110 19:36:11.655272 34243 net.cpp:406] scale4 <- conv4
I0110 19:36:11.655283 34243 net.cpp:367] scale4 -> conv4 (in-place)
I0110 19:36:11.655339 34243 layer_factory.hpp:77] Creating layer scale4
I0110 19:36:11.655462 34243 net.cpp:122] Setting up scale4
I0110 19:36:11.655478 34243 net.cpp:129] Top shape: 200 384 13 13 (12979200)
I0110 19:36:11.655488 34243 net.cpp:137] Memory required for data: 2243433600
I0110 19:36:11.655500 34243 layer_factory.hpp:77] Creating layer relu4
I0110 19:36:11.655514 34243 net.cpp:84] Creating Layer relu4
I0110 19:36:11.655524 34243 net.cpp:406] relu4 <- conv4
I0110 19:36:11.655534 34243 net.cpp:367] relu4 -> conv4 (in-place)
I0110 19:36:11.655546 34243 net.cpp:122] Setting up relu4
I0110 19:36:11.655557 34243 net.cpp:129] Top shape: 200 384 13 13 (12979200)
I0110 19:36:11.655566 34243 net.cpp:137] Memory required for data: 2295350400
I0110 19:36:11.655575 34243 layer_factory.hpp:77] Creating layer quantized_conv4
I0110 19:36:11.655587 34243 net.cpp:84] Creating Layer quantized_conv4
I0110 19:36:11.655597 34243 net.cpp:406] quantized_conv4 <- conv4
I0110 19:36:11.655608 34243 net.cpp:367] quantized_conv4 -> conv4 (in-place)
I0110 19:36:11.655622 34243 net.cpp:122] Setting up quantized_conv4
I0110 19:36:11.655632 34243 net.cpp:129] Top shape: 200 384 13 13 (12979200)
I0110 19:36:11.655642 34243 net.cpp:137] Memory required for data: 2347267200
I0110 19:36:11.655650 34243 layer_factory.hpp:77] Creating layer conv5
I0110 19:36:11.655668 34243 net.cpp:84] Creating Layer conv5
I0110 19:36:11.655678 34243 net.cpp:406] conv5 <- conv4
I0110 19:36:11.655691 34243 net.cpp:380] conv5 -> conv5
I0110 19:36:11.682677 34243 net.cpp:122] Setting up conv5
I0110 19:36:11.682726 34243 net.cpp:129] Top shape: 200 256 13 13 (8652800)
I0110 19:36:11.682736 34243 net.cpp:137] Memory required for data: 2381878400
I0110 19:36:11.682752 34243 layer_factory.hpp:77] Creating layer bn5
I0110 19:36:11.682771 34243 net.cpp:84] Creating Layer bn5
I0110 19:36:11.682783 34243 net.cpp:406] bn5 <- conv5
I0110 19:36:11.682798 34243 net.cpp:367] bn5 -> conv5 (in-place)
I0110 19:36:11.683001 34243 net.cpp:122] Setting up bn5
I0110 19:36:11.683018 34243 net.cpp:129] Top shape: 200 256 13 13 (8652800)
I0110 19:36:11.683027 34243 net.cpp:137] Memory required for data: 2416489600
I0110 19:36:11.683049 34243 layer_factory.hpp:77] Creating layer scale5
I0110 19:36:11.683065 34243 net.cpp:84] Creating Layer scale5
I0110 19:36:11.683075 34243 net.cpp:406] scale5 <- conv5
I0110 19:36:11.683087 34243 net.cpp:367] scale5 -> conv5 (in-place)
I0110 19:36:11.683147 34243 layer_factory.hpp:77] Creating layer scale5
I0110 19:36:11.683271 34243 net.cpp:122] Setting up scale5
I0110 19:36:11.683327 34243 net.cpp:129] Top shape: 200 256 13 13 (8652800)
I0110 19:36:11.683338 34243 net.cpp:137] Memory required for data: 2451100800
I0110 19:36:11.683351 34243 layer_factory.hpp:77] Creating layer relu5
I0110 19:36:11.683363 34243 net.cpp:84] Creating Layer relu5
I0110 19:36:11.683373 34243 net.cpp:406] relu5 <- conv5
I0110 19:36:11.683384 34243 net.cpp:367] relu5 -> conv5 (in-place)
I0110 19:36:11.683396 34243 net.cpp:122] Setting up relu5
I0110 19:36:11.683408 34243 net.cpp:129] Top shape: 200 256 13 13 (8652800)
I0110 19:36:11.683416 34243 net.cpp:137] Memory required for data: 2485712000
I0110 19:36:11.683424 34243 layer_factory.hpp:77] Creating layer pool5
I0110 19:36:11.683437 34243 net.cpp:84] Creating Layer pool5
I0110 19:36:11.683446 34243 net.cpp:406] pool5 <- conv5
I0110 19:36:11.683459 34243 net.cpp:380] pool5 -> pool5
I0110 19:36:11.683511 34243 net.cpp:122] Setting up pool5
I0110 19:36:11.683526 34243 net.cpp:129] Top shape: 200 256 6 6 (1843200)
I0110 19:36:11.683534 34243 net.cpp:137] Memory required for data: 2493084800
I0110 19:36:11.683543 34243 layer_factory.hpp:77] Creating layer quantized_conv5
I0110 19:36:11.683558 34243 net.cpp:84] Creating Layer quantized_conv5
I0110 19:36:11.683568 34243 net.cpp:406] quantized_conv5 <- pool5
I0110 19:36:11.683579 34243 net.cpp:367] quantized_conv5 -> pool5 (in-place)
I0110 19:36:11.683593 34243 net.cpp:122] Setting up quantized_conv5
I0110 19:36:11.683604 34243 net.cpp:129] Top shape: 200 256 6 6 (1843200)
I0110 19:36:11.683612 34243 net.cpp:137] Memory required for data: 2500457600
I0110 19:36:11.683621 34243 layer_factory.hpp:77] Creating layer fc6
I0110 19:36:11.683636 34243 net.cpp:84] Creating Layer fc6
I0110 19:36:11.683645 34243 net.cpp:406] fc6 <- pool5
I0110 19:36:11.683657 34243 net.cpp:380] fc6 -> fc6
I0110 19:36:12.805533 34243 net.cpp:122] Setting up fc6
I0110 19:36:12.805593 34243 net.cpp:129] Top shape: 200 4096 (819200)
I0110 19:36:12.805604 34243 net.cpp:137] Memory required for data: 2503734400
I0110 19:36:12.805621 34243 layer_factory.hpp:77] Creating layer bn6
I0110 19:36:12.805640 34243 net.cpp:84] Creating Layer bn6
I0110 19:36:12.805652 34243 net.cpp:406] bn6 <- fc6
I0110 19:36:12.805668 34243 net.cpp:367] bn6 -> fc6 (in-place)
I0110 19:36:12.805866 34243 net.cpp:122] Setting up bn6
I0110 19:36:12.805883 34243 net.cpp:129] Top shape: 200 4096 (819200)
I0110 19:36:12.805892 34243 net.cpp:137] Memory required for data: 2507011200
I0110 19:36:12.805907 34243 layer_factory.hpp:77] Creating layer scale6
I0110 19:36:12.805927 34243 net.cpp:84] Creating Layer scale6
I0110 19:36:12.805936 34243 net.cpp:406] scale6 <- fc6
I0110 19:36:12.805948 34243 net.cpp:367] scale6 -> fc6 (in-place)
I0110 19:36:12.806001 34243 layer_factory.hpp:77] Creating layer scale6
I0110 19:36:12.806133 34243 net.cpp:122] Setting up scale6
I0110 19:36:12.806150 34243 net.cpp:129] Top shape: 200 4096 (819200)
I0110 19:36:12.806159 34243 net.cpp:137] Memory required for data: 2510288000
I0110 19:36:12.806172 34243 layer_factory.hpp:77] Creating layer relu6
I0110 19:36:12.806185 34243 net.cpp:84] Creating Layer relu6
I0110 19:36:12.806195 34243 net.cpp:406] relu6 <- fc6
I0110 19:36:12.806206 34243 net.cpp:367] relu6 -> fc6 (in-place)
I0110 19:36:12.806219 34243 net.cpp:122] Setting up relu6
I0110 19:36:12.806231 34243 net.cpp:129] Top shape: 200 4096 (819200)
I0110 19:36:12.806238 34243 net.cpp:137] Memory required for data: 2513564800
I0110 19:36:12.806247 34243 layer_factory.hpp:77] Creating layer drop6
I0110 19:36:12.806260 34243 net.cpp:84] Creating Layer drop6
I0110 19:36:12.806270 34243 net.cpp:406] drop6 <- fc6
I0110 19:36:12.806282 34243 net.cpp:367] drop6 -> fc6 (in-place)
I0110 19:36:12.806314 34243 net.cpp:122] Setting up drop6
I0110 19:36:12.806329 34243 net.cpp:129] Top shape: 200 4096 (819200)
I0110 19:36:12.806339 34243 net.cpp:137] Memory required for data: 2516841600
I0110 19:36:12.806349 34243 layer_factory.hpp:77] Creating layer quantized_fc6
I0110 19:36:12.806363 34243 net.cpp:84] Creating Layer quantized_fc6
I0110 19:36:12.806411 34243 net.cpp:406] quantized_fc6 <- fc6
I0110 19:36:12.806427 34243 net.cpp:367] quantized_fc6 -> fc6 (in-place)
I0110 19:36:12.806439 34243 net.cpp:122] Setting up quantized_fc6
I0110 19:36:12.806450 34243 net.cpp:129] Top shape: 200 4096 (819200)
I0110 19:36:12.806459 34243 net.cpp:137] Memory required for data: 2520118400
I0110 19:36:12.806468 34243 layer_factory.hpp:77] Creating layer fc7
I0110 19:36:12.806483 34243 net.cpp:84] Creating Layer fc7
I0110 19:36:12.806493 34243 net.cpp:406] fc7 <- fc6
I0110 19:36:12.806504 34243 net.cpp:380] fc7 -> fc7
I0110 19:36:13.299299 34243 net.cpp:122] Setting up fc7
I0110 19:36:13.299345 34243 net.cpp:129] Top shape: 200 4096 (819200)
I0110 19:36:13.299355 34243 net.cpp:137] Memory required for data: 2523395200
I0110 19:36:13.299372 34243 layer_factory.hpp:77] Creating layer bn7
I0110 19:36:13.299392 34243 net.cpp:84] Creating Layer bn7
I0110 19:36:13.299404 34243 net.cpp:406] bn7 <- fc7
I0110 19:36:13.299419 34243 net.cpp:367] bn7 -> fc7 (in-place)
I0110 19:36:13.299626 34243 net.cpp:122] Setting up bn7
I0110 19:36:13.299643 34243 net.cpp:129] Top shape: 200 4096 (819200)
I0110 19:36:13.299652 34243 net.cpp:137] Memory required for data: 2526672000
I0110 19:36:13.299666 34243 layer_factory.hpp:77] Creating layer scale7
I0110 19:36:13.299680 34243 net.cpp:84] Creating Layer scale7
I0110 19:36:13.299690 34243 net.cpp:406] scale7 <- fc7
I0110 19:36:13.299701 34243 net.cpp:367] scale7 -> fc7 (in-place)
I0110 19:36:13.299754 34243 layer_factory.hpp:77] Creating layer scale7
I0110 19:36:13.299886 34243 net.cpp:122] Setting up scale7
I0110 19:36:13.299902 34243 net.cpp:129] Top shape: 200 4096 (819200)
I0110 19:36:13.299911 34243 net.cpp:137] Memory required for data: 2529948800
I0110 19:36:13.299923 34243 layer_factory.hpp:77] Creating layer relu7
I0110 19:36:13.299937 34243 net.cpp:84] Creating Layer relu7
I0110 19:36:13.299947 34243 net.cpp:406] relu7 <- fc7
I0110 19:36:13.299957 34243 net.cpp:367] relu7 -> fc7 (in-place)
I0110 19:36:13.299970 34243 net.cpp:122] Setting up relu7
I0110 19:36:13.299980 34243 net.cpp:129] Top shape: 200 4096 (819200)
I0110 19:36:13.299989 34243 net.cpp:137] Memory required for data: 2533225600
I0110 19:36:13.299998 34243 layer_factory.hpp:77] Creating layer drop7
I0110 19:36:13.300011 34243 net.cpp:84] Creating Layer drop7
I0110 19:36:13.300021 34243 net.cpp:406] drop7 <- fc7
I0110 19:36:13.300032 34243 net.cpp:367] drop7 -> fc7 (in-place)
I0110 19:36:13.300065 34243 net.cpp:122] Setting up drop7
I0110 19:36:13.300081 34243 net.cpp:129] Top shape: 200 4096 (819200)
I0110 19:36:13.300089 34243 net.cpp:137] Memory required for data: 2536502400
I0110 19:36:13.300098 34243 layer_factory.hpp:77] Creating layer quantized_fc7
I0110 19:36:13.300112 34243 net.cpp:84] Creating Layer quantized_fc7
I0110 19:36:13.300122 34243 net.cpp:406] quantized_fc7 <- fc7
I0110 19:36:13.300134 34243 net.cpp:367] quantized_fc7 -> fc7 (in-place)
I0110 19:36:13.300148 34243 net.cpp:122] Setting up quantized_fc7
I0110 19:36:13.300158 34243 net.cpp:129] Top shape: 200 4096 (819200)
I0110 19:36:13.300166 34243 net.cpp:137] Memory required for data: 2539779200
I0110 19:36:13.300175 34243 layer_factory.hpp:77] Creating layer fc8
I0110 19:36:13.300190 34243 net.cpp:84] Creating Layer fc8
I0110 19:36:13.300200 34243 net.cpp:406] fc8 <- fc7
I0110 19:36:13.300212 34243 net.cpp:380] fc8 -> fc8
I0110 19:36:13.423254 34243 net.cpp:122] Setting up fc8
I0110 19:36:13.423305 34243 net.cpp:129] Top shape: 200 1000 (200000)
I0110 19:36:13.423319 34243 net.cpp:137] Memory required for data: 2540579200
I0110 19:36:13.423337 34243 layer_factory.hpp:77] Creating layer fc8_fc8_0_split
I0110 19:36:13.423357 34243 net.cpp:84] Creating Layer fc8_fc8_0_split
I0110 19:36:13.423368 34243 net.cpp:406] fc8_fc8_0_split <- fc8
I0110 19:36:13.423384 34243 net.cpp:380] fc8_fc8_0_split -> fc8_fc8_0_split_0
I0110 19:36:13.423408 34243 net.cpp:380] fc8_fc8_0_split -> fc8_fc8_0_split_1
I0110 19:36:13.423420 34243 net.cpp:380] fc8_fc8_0_split -> fc8_fc8_0_split_2
I0110 19:36:13.423487 34243 net.cpp:122] Setting up fc8_fc8_0_split
I0110 19:36:13.423543 34243 net.cpp:129] Top shape: 200 1000 (200000)
I0110 19:36:13.423554 34243 net.cpp:129] Top shape: 200 1000 (200000)
I0110 19:36:13.423564 34243 net.cpp:129] Top shape: 200 1000 (200000)
I0110 19:36:13.423573 34243 net.cpp:137] Memory required for data: 2542979200
I0110 19:36:13.423583 34243 layer_factory.hpp:77] Creating layer accuracy
I0110 19:36:13.423596 34243 net.cpp:84] Creating Layer accuracy
I0110 19:36:13.423606 34243 net.cpp:406] accuracy <- fc8_fc8_0_split_0
I0110 19:36:13.423617 34243 net.cpp:406] accuracy <- label_data_1_split_0
I0110 19:36:13.423630 34243 net.cpp:380] accuracy -> accuracy
…
