…
I0111 12:16:10.311976 18115 net.cpp:294] The NetState phase (0) differed from the phase (1) specified by a rule in layer accuracy_5
I0111 12:16:10.312265 18115 net.cpp:51] Initializing net from parameters: 
name: "AlexNet-BN"
state {
  phase: TRAIN
  level: 0
  stage: ""
}
layer {
  name: "data"
  type: "Data"
  top: "data"
  top: "label"
  include {
    phase: TRAIN
  }
  transform_param {
    mirror: true
    crop_size: 224
    mean_value: 103.939
    mean_value: 116.779
    mean_value: 123.68
  }
  data_param {
    source: "/home/ydwu/database/imagenet/ilsvrc12/lmdb_resize/ilsvrc12_train_lmdb"
    batch_size: 200
    backend: LMDB
  }
}
layer {
  name: "conv1"
  type: "QuanConvolution"
  bottom: "data"
  top: "conv1"
  param {
    lr_mult: 1
    decay_mult: 1
  }
  param {
    lr_mult: 2
    decay_mult: 0
  }
  quan_convolution_param {
    num_output: 96
    pad: 2
    kernel_size: 11
    stride: 4
    weight_filler {
      type: "gaussian"
      std: 0.01
    }
    bias_filler {
      type: "constant"
      value: 0
    }
    round_method: ROUND
    round_strategy: NEUTRAL
    bit_width: 4
    range_low: -0.872089
    range_high: 0.927025
  }
}
layer {
  name: "bn1"
  type: "BatchNorm"
  bottom: "conv1"
  top: "conv1"
}
layer {
  name: "scale1"
  type: "Scale"
  bottom: "conv1"
  top: "conv1"
  scale_param {
    bias_term: true
  }
}
layer {
  name: "relu1"
  type: "ReLU"
  bottom: "conv1"
  top: "conv1"
}
layer {
  name: "pool1"
  type: "Pooling"
  bottom: "conv1"
  top: "pool1"
  pooling_param {
    pool: MAX
    kernel_size: 3
    stride: 2
  }
}
layer {
  name: "conv2"
  type: "QuanConvolution"
  bottom: "pool1"
  top: "conv2"
  param {
    lr_mult: 1
    decay_mult: 1
  }
  param {
    lr_mult: 2
    decay_mult: 0
  }
  quan_convolution_param {
    num_output: 256
    pad: 2
    kernel_size: 5
    weight_filler {
      type: "gaussian"
      std: 0.01
    }
    bias_filler {
      type: "constant"
      value: 0.1
    }
    round_method: ROUND
    round_strategy: NEUTRAL
    bit_width: 4
    range_low: -0.806018
    range_high: 1.5182
  }
}
layer {
  name: "bn2"
  type: "BatchNorm"
  bottom: "conv2"
  top: "conv2"
}
layer {
  name: "scale2"
  type: "Scale"
  bottom: "conv2"
  top: "conv2"
  scale_param {
    bias_term: true
  }
}
layer {
  name: "relu2"
  type: "ReLU"
  bottom: "conv2"
  top: "conv2"
}
layer {
  name: "pool2"
  type: "Pooling"
  bottom: "conv2"
  top: "pool2"
  pooling_param {
    pool: MAX
    kernel_size: 3
    stride: 2
  }
}
layer {
  name: "conv3"
  type: "QuanConvolution"
  bottom: "pool2"
  top: "conv3"
  param {
    lr_mult: 1
    decay_mult: 1
  }
  param {
    lr_mult: 2
    decay_mult: 0
  }
  quan_convolution_param {
    num_output: 384
    pad: 1
    kernel_size: 3
    weight_filler {
      type: "gaussian"
      std: 0.01
    }
    bias_filler {
      type: "constant"
      value: 0
    }
    round_method: ROUND
    round_strategy: NEUTRAL
    bit_width: 4
    range_low: -0.621858
    range_high: 0.673858
  }
}
layer {
  name: "bn3"
  type: "BatchNorm"
  bottom: "conv3"
  top: "conv3"
}
layer {
  name: "scale3"
  type: "Scale"
  bottom: "conv3"
  top: "conv3"
  scale_param {
    bias_term: true
  }
}
layer {
  name: "relu3"
  type: "ReLU"
  bottom: "conv3"
  top: "conv3"
}
layer {
  name: "conv4"
  type: "QuanConvolution"
  bottom: "conv3"
  top: "conv4"
  param {
    lr_mult: 1
    decay_mult: 1
  }
  param {
    lr_mult: 2
    decay_mult: 0
  }
  quan_convolution_param {
    num_output: 384
    pad: 1
    kernel_size: 3
    weight_filler {
      type: "gaussian"
      std: 0.01
    }
    bias_filler {
      type: "constant"
      value: 0.1
    }
    round_method: ROUND
    round_strategy: NEUTRAL
    bit_width: 4
    range_low: -0.376634
    range_high: 0.341829
  }
}
layer {
  name: "bn4"
  type: "BatchNorm"
  bottom: "conv4"
  top: "conv4"
}
layer {
  name: "scale4"
  type: "Scale"
  bottom: "conv4"
  top: "conv4"
  scale_param {
    bias_term: true
  }
}
layer {
  name: "relu4"
  type: "ReLU"
  bottom: "conv4"
  top: "conv4"
}
layer {
  name: "conv5"
  type: "QuanConvolution"
  bottom: "conv4"
  top: "conv5"
  param {
    lr_mult: 1
    decay_mult: 1
  }
  param {
    lr_mult: 2
    decay_mult: 0
  }
  quan_convolution_param {
    num_output: 256
    pad: 1
    kernel_size: 3
    weight_filler {
      type: "gaussian"
      std: 0.01
    }
    bias_filler {
      type: "constant"
      value: 0.1
    }
    round_method: ROUND
    round_strategy: NEUTRAL
    bit_width: 4
    range_low: -0.347658
    range_high: 0.330042
  }
}
layer {
  name: "bn5"
  type: "BatchNorm"
  bottom: "conv5"
  top: "conv5"
}
layer {
  name: "scale5"
  type: "Scale"
  bottom: "conv5"
  top: "conv5"
  scale_param {
    bias_term: true
  }
}
layer {
  name: "relu5"
  type: "ReLU"
  bottom: "conv5"
  top: "conv5"
}
layer {
  name: "pool5"
  type: "Pooling"
  bottom: "conv5"
  top: "pool5"
  pooling_param {
    pool: MAX
    kernel_size: 3
    stride: 2
  }
}
layer {
  name: "fc6"
  type: "QuanInnerProduct"
  bottom: "pool5"
  top: "fc6"
  param {
    lr_mult: 1
    decay_mult: 1
  }
  param {
    lr_mult: 2
    decay_mult: 0
  }
  quan_inner_product_param {
    num_output: 4096
    weight_filler {
      type: "gaussian"
      std: 0.005
    }
    bias_filler {
      type: "constant"
      value: 0.1
    }
    round_method: ROUND
    round_strategy: NEUTRAL
    bit_width: 4
    range_low: -0.160061
    range_high: 0.148064
  }
}
layer {
  name: "bn6"
  type: "BatchNorm"
  bottom: "fc6"
  top: "fc6"
}
layer {
  name: "scale6"
  type: "Scale"
  bottom: "fc6"
  top: "fc6"
  scale_param {
    bias_term: true
  }
}
layer {
  name: "relu6"
  type: "ReLU"
  bottom: "fc6"
  top: "fc6"
}
layer {
  name: "drop6"
  type: "Dropout"
  bottom: "fc6"
  top: "fc6"
  dropout_param {
    dropout_ratio: 0.5
  }
}
layer {
  name: "fc7"
  type: "QuanInnerProduct"
  bottom: "fc6"
  top: "fc7"
  param {
    lr_mult: 1
    decay_mult: 1
  }
  param {
    lr_mult: 2
    decay_mult: 0
  }
  quan_inner_product_param {
    num_output: 4096
    weight_filler {
      type: "gaussian"
      std: 0.005
    }
    bias_filler {
      type: "constant"
      value: 0.1
    }
    round_method: ROUND
    round_strategy: NEUTRAL
    bit_width: 4
    range_low: -0.162636
    range_high: 0.197684
  }
}
layer {
  name: "bn7"
  type: "BatchNorm"
  bottom: "fc7"
  top: "fc7"
}
layer {
  name: "scale7"
  type: "Scale"
  bottom: "fc7"
  top: "fc7"
  scale_param {
    bias_term: true
  }
}
layer {
  name: "relu7"
  type: "ReLU"
  bottom: "fc7"
  top: "fc7"
}
layer {
  name: "drop7"
  type: "Dropout"
  bottom: "fc7"
  top: "fc7"
  dropout_param {
    dropout_ratio: 0.5
  }
}
layer {
  name: "fc8"
  type: "QuanInnerProduct"
  bottom: "fc7"
  top: "fc8"
  param {
    lr_mult: 1
    decay_mult: 1
  }
  param {
    lr_mult: 2
    decay_mult: 0
  }
  quan_inner_product_param {
    num_output: 1000
    weight_filler {
      type: "gaussian"
      std: 0.01
    }
    bias_filler {
      type: "constant"
      value: 0
    }
    round_method: ROUND
    round_strategy: NEUTRAL
    bit_width: 4
    range_low: -0.141857
    range_high: 0.274249
  }
}
layer {
  name: "accuracy_5_TRAIN"
  type: "Accuracy"
  bottom: "fc8"
  bottom: "label"
  top: "accuracy_5_TRAIN"
  include {
    phase: TRAIN
  }
  accuracy_param {
    top_k: 5
  }
}
layer {
  name: "loss"
  type: "SoftmaxWithLoss"
  bottom: "fc8"
  bottom: "label"
  top: "loss"
}
I0111 12:16:10.312517 18115 layer_factory.hpp:77] Creating layer data
I0111 12:16:10.324854 18115 db_lmdb.cpp:35] Opened lmdb /home/ydwu/database/imagenet/ilsvrc12/lmdb_resize/ilsvrc12_train_lmdb
I0111 12:16:10.325328 18115 net.cpp:84] Creating Layer data
I0111 12:16:10.325376 18115 net.cpp:380] data -> data
I0111 12:16:10.325419 18115 net.cpp:380] data -> label
I0111 12:16:10.327908 18115 data_layer.cpp:45] output data size: 200,3,224,224
I0111 12:16:10.695479 18115 net.cpp:122] Setting up data
I0111 12:16:10.695549 18115 net.cpp:129] Top shape: 200 3 224 224 (30105600)
I0111 12:16:10.695564 18115 net.cpp:129] Top shape: 200 (200)
I0111 12:16:10.695572 18115 net.cpp:137] Memory required for data: 120423200
I0111 12:16:10.695601 18115 layer_factory.hpp:77] Creating layer label_data_1_split
I0111 12:16:10.695627 18115 net.cpp:84] Creating Layer label_data_1_split
I0111 12:16:10.695641 18115 net.cpp:406] label_data_1_split <- label
I0111 12:16:10.695665 18115 net.cpp:380] label_data_1_split -> label_data_1_split_0
I0111 12:16:10.695686 18115 net.cpp:380] label_data_1_split -> label_data_1_split_1
I0111 12:16:10.695868 18115 net.cpp:122] Setting up label_data_1_split
I0111 12:16:10.695930 18115 net.cpp:129] Top shape: 200 (200)
I0111 12:16:10.695937 18115 net.cpp:129] Top shape: 200 (200)
I0111 12:16:10.695942 18115 net.cpp:137] Memory required for data: 120424800
I0111 12:16:10.695955 18115 layer_factory.hpp:77] Creating layer conv1
I0111 12:16:10.696029 18115 net.cpp:84] Creating Layer conv1
I0111 12:16:10.696040 18115 net.cpp:406] conv1 <- data
I0111 12:16:10.696055 18115 net.cpp:380] conv1 -> conv1
ydwu=======get:
bit_width=4;  round_method=0;  round_strategy=1;  is_runtime=0;  range_low=-0.872089;  range_high=0.927025
I0111 12:16:10.709868 18115 net.cpp:122] Setting up conv1
I0111 12:16:10.709905 18115 net.cpp:129] Top shape: 200 96 55 55 (58080000)
I0111 12:16:10.709913 18115 net.cpp:137] Memory required for data: 352744800
I0111 12:16:10.709947 18115 layer_factory.hpp:77] Creating layer bn1
I0111 12:16:10.709966 18115 net.cpp:84] Creating Layer bn1
I0111 12:16:10.709974 18115 net.cpp:406] bn1 <- conv1
I0111 12:16:10.709991 18115 net.cpp:367] bn1 -> conv1 (in-place)
I0111 12:16:10.710219 18115 net.cpp:122] Setting up bn1
I0111 12:16:10.710234 18115 net.cpp:129] Top shape: 200 96 55 55 (58080000)
I0111 12:16:10.710240 18115 net.cpp:137] Memory required for data: 585064800
I0111 12:16:10.710258 18115 layer_factory.hpp:77] Creating layer scale1
I0111 12:16:10.710274 18115 net.cpp:84] Creating Layer scale1
I0111 12:16:10.710281 18115 net.cpp:406] scale1 <- conv1
I0111 12:16:10.710291 18115 net.cpp:367] scale1 -> conv1 (in-place)
I0111 12:16:10.710361 18115 layer_factory.hpp:77] Creating layer scale1
I0111 12:16:10.728893 18115 net.cpp:122] Setting up scale1
I0111 12:16:10.728956 18115 net.cpp:129] Top shape: 200 96 55 55 (58080000)
I0111 12:16:10.728965 18115 net.cpp:137] Memory required for data: 817384800
I0111 12:16:10.729001 18115 layer_factory.hpp:77] Creating layer relu1
I0111 12:16:10.729019 18115 net.cpp:84] Creating Layer relu1
I0111 12:16:10.729028 18115 net.cpp:406] relu1 <- conv1
I0111 12:16:10.729053 18115 net.cpp:367] relu1 -> conv1 (in-place)
I0111 12:16:10.729079 18115 net.cpp:122] Setting up relu1
I0111 12:16:10.729089 18115 net.cpp:129] Top shape: 200 96 55 55 (58080000)
I0111 12:16:10.729094 18115 net.cpp:137] Memory required for data: 1049704800
I0111 12:16:10.729099 18115 layer_factory.hpp:77] Creating layer pool1
I0111 12:16:10.729111 18115 net.cpp:84] Creating Layer pool1
I0111 12:16:10.729117 18115 net.cpp:406] pool1 <- conv1
I0111 12:16:10.729127 18115 net.cpp:380] pool1 -> pool1
I0111 12:16:10.729197 18115 net.cpp:122] Setting up pool1
I0111 12:16:10.729212 18115 net.cpp:129] Top shape: 200 96 27 27 (13996800)
I0111 12:16:10.729218 18115 net.cpp:137] Memory required for data: 1105692000
I0111 12:16:10.729223 18115 layer_factory.hpp:77] Creating layer conv2
I0111 12:16:10.729243 18115 net.cpp:84] Creating Layer conv2
I0111 12:16:10.729251 18115 net.cpp:406] conv2 <- pool1
I0111 12:16:10.729264 18115 net.cpp:380] conv2 -> conv2
ydwu=======get:
bit_width=4;  round_method=0;  round_strategy=1;  is_runtime=0;  range_low=-0.806018;  range_high=1.5182
I0111 12:16:10.741894 18115 net.cpp:122] Setting up conv2
I0111 12:16:10.741972 18115 net.cpp:129] Top shape: 200 256 27 27 (37324800)
I0111 12:16:10.741979 18115 net.cpp:137] Memory required for data: 1254991200
I0111 12:16:10.742003 18115 layer_factory.hpp:77] Creating layer bn2
I0111 12:16:10.742025 18115 net.cpp:84] Creating Layer bn2
I0111 12:16:10.742033 18115 net.cpp:406] bn2 <- conv2
I0111 12:16:10.742046 18115 net.cpp:367] bn2 -> conv2 (in-place)
I0111 12:16:10.742250 18115 net.cpp:122] Setting up bn2
I0111 12:16:10.742265 18115 net.cpp:129] Top shape: 200 256 27 27 (37324800)
I0111 12:16:10.742270 18115 net.cpp:137] Memory required for data: 1404290400
I0111 12:16:10.742281 18115 layer_factory.hpp:77] Creating layer scale2
I0111 12:16:10.742295 18115 net.cpp:84] Creating Layer scale2
I0111 12:16:10.742303 18115 net.cpp:406] scale2 <- conv2
I0111 12:16:10.742312 18115 net.cpp:367] scale2 -> conv2 (in-place)
I0111 12:16:10.742370 18115 layer_factory.hpp:77] Creating layer scale2
I0111 12:16:10.742498 18115 net.cpp:122] Setting up scale2
I0111 12:16:10.742511 18115 net.cpp:129] Top shape: 200 256 27 27 (37324800)
I0111 12:16:10.742518 18115 net.cpp:137] Memory required for data: 1553589600
I0111 12:16:10.742529 18115 layer_factory.hpp:77] Creating layer relu2
I0111 12:16:10.742540 18115 net.cpp:84] Creating Layer relu2
I0111 12:16:10.742547 18115 net.cpp:406] relu2 <- conv2
I0111 12:16:10.742557 18115 net.cpp:367] relu2 -> conv2 (in-place)
I0111 12:16:10.742568 18115 net.cpp:122] Setting up relu2
I0111 12:16:10.742576 18115 net.cpp:129] Top shape: 200 256 27 27 (37324800)
I0111 12:16:10.742583 18115 net.cpp:137] Memory required for data: 1702888800
I0111 12:16:10.742589 18115 layer_factory.hpp:77] Creating layer pool2
I0111 12:16:10.742601 18115 net.cpp:84] Creating Layer pool2
I0111 12:16:10.742609 18115 net.cpp:406] pool2 <- conv2
I0111 12:16:10.742619 18115 net.cpp:380] pool2 -> pool2
I0111 12:16:10.742668 18115 net.cpp:122] Setting up pool2
I0111 12:16:10.742681 18115 net.cpp:129] Top shape: 200 256 13 13 (8652800)
I0111 12:16:10.742688 18115 net.cpp:137] Memory required for data: 1737500000
I0111 12:16:10.742694 18115 layer_factory.hpp:77] Creating layer conv3
I0111 12:16:10.742712 18115 net.cpp:84] Creating Layer conv3
I0111 12:16:10.742719 18115 net.cpp:406] conv3 <- pool2
I0111 12:16:10.742730 18115 net.cpp:380] conv3 -> conv3
ydwu=======get:
bit_width=4;  round_method=0;  round_strategy=1;  is_runtime=0;  range_low=-0.621858;  range_high=0.673858
I0111 12:16:10.758283 18115 net.cpp:122] Setting up conv3
I0111 12:16:10.758317 18115 net.cpp:129] Top shape: 200 384 13 13 (12979200)
I0111 12:16:10.758324 18115 net.cpp:137] Memory required for data: 1789416800
I0111 12:16:10.758339 18115 layer_factory.hpp:77] Creating layer bn3
I0111 12:16:10.758359 18115 net.cpp:84] Creating Layer bn3
I0111 12:16:10.758369 18115 net.cpp:406] bn3 <- conv3
I0111 12:16:10.758383 18115 net.cpp:367] bn3 -> conv3 (in-place)
I0111 12:16:10.758589 18115 net.cpp:122] Setting up bn3
I0111 12:16:10.758604 18115 net.cpp:129] Top shape: 200 384 13 13 (12979200)
I0111 12:16:10.758610 18115 net.cpp:137] Memory required for data: 1841333600
I0111 12:16:10.758630 18115 layer_factory.hpp:77] Creating layer scale3
I0111 12:16:10.758644 18115 net.cpp:84] Creating Layer scale3
I0111 12:16:10.758652 18115 net.cpp:406] scale3 <- conv3
I0111 12:16:10.758662 18115 net.cpp:367] scale3 -> conv3 (in-place)
I0111 12:16:10.758720 18115 layer_factory.hpp:77] Creating layer scale3
I0111 12:16:10.758849 18115 net.cpp:122] Setting up scale3
I0111 12:16:10.758863 18115 net.cpp:129] Top shape: 200 384 13 13 (12979200)
I0111 12:16:10.758870 18115 net.cpp:137] Memory required for data: 1893250400
I0111 12:16:10.758882 18115 layer_factory.hpp:77] Creating layer relu3
I0111 12:16:10.758893 18115 net.cpp:84] Creating Layer relu3
I0111 12:16:10.758900 18115 net.cpp:406] relu3 <- conv3
I0111 12:16:10.758910 18115 net.cpp:367] relu3 -> conv3 (in-place)
I0111 12:16:10.758921 18115 net.cpp:122] Setting up relu3
I0111 12:16:10.758930 18115 net.cpp:129] Top shape: 200 384 13 13 (12979200)
I0111 12:16:10.758936 18115 net.cpp:137] Memory required for data: 1945167200
I0111 12:16:10.758944 18115 layer_factory.hpp:77] Creating layer conv4
I0111 12:16:10.759016 18115 net.cpp:84] Creating Layer conv4
I0111 12:16:10.759026 18115 net.cpp:406] conv4 <- conv3
I0111 12:16:10.759037 18115 net.cpp:380] conv4 -> conv4
ydwu=======get:
bit_width=4;  round_method=0;  round_strategy=1;  is_runtime=0;  range_low=-0.376634;  range_high=0.341829
I0111 12:16:10.782493 18115 net.cpp:122] Setting up conv4
I0111 12:16:10.782551 18115 net.cpp:129] Top shape: 200 384 13 13 (12979200)
I0111 12:16:10.782559 18115 net.cpp:137] Memory required for data: 1997084000
I0111 12:16:10.782588 18115 layer_factory.hpp:77] Creating layer bn4
I0111 12:16:10.782613 18115 net.cpp:84] Creating Layer bn4
I0111 12:16:10.782622 18115 net.cpp:406] bn4 <- conv4
I0111 12:16:10.782639 18115 net.cpp:367] bn4 -> conv4 (in-place)
I0111 12:16:10.782881 18115 net.cpp:122] Setting up bn4
I0111 12:16:10.782896 18115 net.cpp:129] Top shape: 200 384 13 13 (12979200)
I0111 12:16:10.782902 18115 net.cpp:137] Memory required for data: 2049000800
I0111 12:16:10.782917 18115 layer_factory.hpp:77] Creating layer scale4
I0111 12:16:10.782938 18115 net.cpp:84] Creating Layer scale4
I0111 12:16:10.782945 18115 net.cpp:406] scale4 <- conv4
I0111 12:16:10.782955 18115 net.cpp:367] scale4 -> conv4 (in-place)
I0111 12:16:10.783020 18115 layer_factory.hpp:77] Creating layer scale4
I0111 12:16:10.783167 18115 net.cpp:122] Setting up scale4
I0111 12:16:10.783182 18115 net.cpp:129] Top shape: 200 384 13 13 (12979200)
I0111 12:16:10.783190 18115 net.cpp:137] Memory required for data: 2100917600
I0111 12:16:10.783201 18115 layer_factory.hpp:77] Creating layer relu4
I0111 12:16:10.783213 18115 net.cpp:84] Creating Layer relu4
I0111 12:16:10.783221 18115 net.cpp:406] relu4 <- conv4
I0111 12:16:10.783233 18115 net.cpp:367] relu4 -> conv4 (in-place)
I0111 12:16:10.783246 18115 net.cpp:122] Setting up relu4
I0111 12:16:10.783254 18115 net.cpp:129] Top shape: 200 384 13 13 (12979200)
I0111 12:16:10.783262 18115 net.cpp:137] Memory required for data: 2152834400
I0111 12:16:10.783269 18115 layer_factory.hpp:77] Creating layer conv5
I0111 12:16:10.783296 18115 net.cpp:84] Creating Layer conv5
I0111 12:16:10.783304 18115 net.cpp:406] conv5 <- conv4
I0111 12:16:10.783316 18115 net.cpp:380] conv5 -> conv5
ydwu=======get:
bit_width=4;  round_method=0;  round_strategy=1;  is_runtime=0;  range_low=-0.347658;  range_high=0.330042
I0111 12:16:10.800117 18115 net.cpp:122] Setting up conv5
I0111 12:16:10.800153 18115 net.cpp:129] Top shape: 200 256 13 13 (8652800)
I0111 12:16:10.800159 18115 net.cpp:137] Memory required for data: 2187445600
I0111 12:16:10.800177 18115 layer_factory.hpp:77] Creating layer bn5
I0111 12:16:10.800201 18115 net.cpp:84] Creating Layer bn5
I0111 12:16:10.800210 18115 net.cpp:406] bn5 <- conv5
I0111 12:16:10.800230 18115 net.cpp:367] bn5 -> conv5 (in-place)
I0111 12:16:10.800464 18115 net.cpp:122] Setting up bn5
I0111 12:16:10.800480 18115 net.cpp:129] Top shape: 200 256 13 13 (8652800)
I0111 12:16:10.800487 18115 net.cpp:137] Memory required for data: 2222056800
I0111 12:16:10.800513 18115 layer_factory.hpp:77] Creating layer scale5
I0111 12:16:10.800528 18115 net.cpp:84] Creating Layer scale5
I0111 12:16:10.800534 18115 net.cpp:406] scale5 <- conv5
I0111 12:16:10.800544 18115 net.cpp:367] scale5 -> conv5 (in-place)
I0111 12:16:10.800612 18115 layer_factory.hpp:77] Creating layer scale5
I0111 12:16:10.800750 18115 net.cpp:122] Setting up scale5
I0111 12:16:10.800765 18115 net.cpp:129] Top shape: 200 256 13 13 (8652800)
I0111 12:16:10.800772 18115 net.cpp:137] Memory required for data: 2256668000
I0111 12:16:10.800783 18115 layer_factory.hpp:77] Creating layer relu5
I0111 12:16:10.800796 18115 net.cpp:84] Creating Layer relu5
I0111 12:16:10.800806 18115 net.cpp:406] relu5 <- conv5
I0111 12:16:10.800817 18115 net.cpp:367] relu5 -> conv5 (in-place)
I0111 12:16:10.800827 18115 net.cpp:122] Setting up relu5
I0111 12:16:10.800837 18115 net.cpp:129] Top shape: 200 256 13 13 (8652800)
I0111 12:16:10.800843 18115 net.cpp:137] Memory required for data: 2291279200
I0111 12:16:10.800849 18115 layer_factory.hpp:77] Creating layer pool5
I0111 12:16:10.800861 18115 net.cpp:84] Creating Layer pool5
I0111 12:16:10.800868 18115 net.cpp:406] pool5 <- conv5
I0111 12:16:10.800880 18115 net.cpp:380] pool5 -> pool5
I0111 12:16:10.800932 18115 net.cpp:122] Setting up pool5
I0111 12:16:10.800994 18115 net.cpp:129] Top shape: 200 256 6 6 (1843200)
I0111 12:16:10.801002 18115 net.cpp:137] Memory required for data: 2298652000
I0111 12:16:10.801009 18115 layer_factory.hpp:77] Creating layer fc6
I0111 12:16:10.801026 18115 net.cpp:84] Creating Layer fc6
I0111 12:16:10.801034 18115 net.cpp:406] fc6 <- pool5
I0111 12:16:10.801045 18115 net.cpp:380] fc6 -> fc6
I0111 12:16:10.801065 18115 quan_inner_product_layer.cpp:21] 4096   4096
ydwu=======get:
bit_width=4;  round_method=0;  round_strategy=1;  is_runtime=0;  range_low=-0.160061;  range_high=0.148064
I0111 12:16:11.428503 18115 net.cpp:122] Setting up fc6
I0111 12:16:11.428545 18115 net.cpp:129] Top shape: 200 4096 (819200)
I0111 12:16:11.428551 18115 net.cpp:137] Memory required for data: 2301928800
I0111 12:16:11.428570 18115 layer_factory.hpp:77] Creating layer bn6
I0111 12:16:11.428598 18115 net.cpp:84] Creating Layer bn6
I0111 12:16:11.428608 18115 net.cpp:406] bn6 <- fc6
I0111 12:16:11.428622 18115 net.cpp:367] bn6 -> fc6 (in-place)
I0111 12:16:11.428829 18115 net.cpp:122] Setting up bn6
I0111 12:16:11.428841 18115 net.cpp:129] Top shape: 200 4096 (819200)
I0111 12:16:11.428846 18115 net.cpp:137] Memory required for data: 2305205600
I0111 12:16:11.428858 18115 layer_factory.hpp:77] Creating layer scale6
I0111 12:16:11.428872 18115 net.cpp:84] Creating Layer scale6
I0111 12:16:11.428879 18115 net.cpp:406] scale6 <- fc6
I0111 12:16:11.428887 18115 net.cpp:367] scale6 -> fc6 (in-place)
I0111 12:16:11.428941 18115 layer_factory.hpp:77] Creating layer scale6
I0111 12:16:11.429072 18115 net.cpp:122] Setting up scale6
I0111 12:16:11.429085 18115 net.cpp:129] Top shape: 200 4096 (819200)
I0111 12:16:11.429090 18115 net.cpp:137] Memory required for data: 2308482400
I0111 12:16:11.429100 18115 layer_factory.hpp:77] Creating layer relu6
I0111 12:16:11.429108 18115 net.cpp:84] Creating Layer relu6
I0111 12:16:11.429116 18115 net.cpp:406] relu6 <- fc6
I0111 12:16:11.429127 18115 net.cpp:367] relu6 -> fc6 (in-place)
I0111 12:16:11.429138 18115 net.cpp:122] Setting up relu6
I0111 12:16:11.429144 18115 net.cpp:129] Top shape: 200 4096 (819200)
I0111 12:16:11.429152 18115 net.cpp:137] Memory required for data: 2311759200
I0111 12:16:11.429158 18115 layer_factory.hpp:77] Creating layer drop6
I0111 12:16:11.429169 18115 net.cpp:84] Creating Layer drop6
I0111 12:16:11.429177 18115 net.cpp:406] drop6 <- fc6
I0111 12:16:11.429188 18115 net.cpp:367] drop6 -> fc6 (in-place)
I0111 12:16:11.429224 18115 net.cpp:122] Setting up drop6
I0111 12:16:11.429236 18115 net.cpp:129] Top shape: 200 4096 (819200)
I0111 12:16:11.429244 18115 net.cpp:137] Memory required for data: 2315036000
I0111 12:16:11.429250 18115 layer_factory.hpp:77] Creating layer fc7
I0111 12:16:11.429267 18115 net.cpp:84] Creating Layer fc7
I0111 12:16:11.429275 18115 net.cpp:406] fc7 <- fc6
I0111 12:16:11.429285 18115 net.cpp:380] fc7 -> fc7
I0111 12:16:11.429297 18115 quan_inner_product_layer.cpp:21] 4096   4096
ydwu=======get:
bit_width=4;  round_method=0;  round_strategy=1;  is_runtime=0;  range_low=-0.162636;  range_high=0.197684
I0111 12:16:11.687923 18115 net.cpp:122] Setting up fc7
I0111 12:16:11.687976 18115 net.cpp:129] Top shape: 200 4096 (819200)
I0111 12:16:11.687983 18115 net.cpp:137] Memory required for data: 2318312800
I0111 12:16:11.688000 18115 layer_factory.hpp:77] Creating layer bn7
I0111 12:16:11.688019 18115 net.cpp:84] Creating Layer bn7
I0111 12:16:11.688027 18115 net.cpp:406] bn7 <- fc7
I0111 12:16:11.688045 18115 net.cpp:367] bn7 -> fc7 (in-place)
I0111 12:16:11.688293 18115 net.cpp:122] Setting up bn7
I0111 12:16:11.688308 18115 net.cpp:129] Top shape: 200 4096 (819200)
I0111 12:16:11.688321 18115 net.cpp:137] Memory required for data: 2321589600
I0111 12:16:11.688334 18115 layer_factory.hpp:77] Creating layer scale7
I0111 12:16:11.688374 18115 net.cpp:84] Creating Layer scale7
I0111 12:16:11.688390 18115 net.cpp:406] scale7 <- fc7
I0111 12:16:11.688400 18115 net.cpp:367] scale7 -> fc7 (in-place)
I0111 12:16:11.688473 18115 layer_factory.hpp:77] Creating layer scale7
I0111 12:16:11.688642 18115 net.cpp:122] Setting up scale7
I0111 12:16:11.688655 18115 net.cpp:129] Top shape: 200 4096 (819200)
I0111 12:16:11.688673 18115 net.cpp:137] Memory required for data: 2324866400
I0111 12:16:11.688683 18115 layer_factory.hpp:77] Creating layer relu7
I0111 12:16:11.688752 18115 net.cpp:84] Creating Layer relu7
I0111 12:16:11.688760 18115 net.cpp:406] relu7 <- fc7
I0111 12:16:11.688769 18115 net.cpp:367] relu7 -> fc7 (in-place)
I0111 12:16:11.688778 18115 net.cpp:122] Setting up relu7
I0111 12:16:11.688799 18115 net.cpp:129] Top shape: 200 4096 (819200)
I0111 12:16:11.688805 18115 net.cpp:137] Memory required for data: 2328143200
I0111 12:16:11.688812 18115 layer_factory.hpp:77] Creating layer drop7
I0111 12:16:11.688833 18115 net.cpp:84] Creating Layer drop7
I0111 12:16:11.688839 18115 net.cpp:406] drop7 <- fc7
I0111 12:16:11.688846 18115 net.cpp:367] drop7 -> fc7 (in-place)
I0111 12:16:11.688904 18115 net.cpp:122] Setting up drop7
I0111 12:16:11.688927 18115 net.cpp:129] Top shape: 200 4096 (819200)
I0111 12:16:11.688933 18115 net.cpp:137] Memory required for data: 2331420000
I0111 12:16:11.688940 18115 layer_factory.hpp:77] Creating layer fc8
I0111 12:16:11.688967 18115 net.cpp:84] Creating Layer fc8
I0111 12:16:11.688974 18115 net.cpp:406] fc8 <- fc7
I0111 12:16:11.688997 18115 net.cpp:380] fc8 -> fc8
I0111 12:16:11.689009 18115 quan_inner_product_layer.cpp:21] 1000   1000
ydwu=======get:
bit_width=4;  round_method=0;  round_strategy=1;  is_runtime=0;  range_low=-0.141857;  range_high=0.274249
I0111 12:16:11.751688 18115 net.cpp:122] Setting up fc8
I0111 12:16:11.751724 18115 net.cpp:129] Top shape: 200 1000 (200000)
I0111 12:16:11.751737 18115 net.cpp:137] Memory required for data: 2332220000
I0111 12:16:11.751750 18115 layer_factory.hpp:77] Creating layer fc8_fc8_0_split
I0111 12:16:11.751778 18115 net.cpp:84] Creating Layer fc8_fc8_0_split
I0111 12:16:11.751787 18115 net.cpp:406] fc8_fc8_0_split <- fc8
I0111 12:16:11.751811 18115 net.cpp:380] fc8_fc8_0_split -> fc8_fc8_0_split_0
I0111 12:16:11.751827 18115 net.cpp:380] fc8_fc8_0_split -> fc8_fc8_0_split_1
I0111 12:16:11.751907 18115 net.cpp:122] Setting up fc8_fc8_0_split
I0111 12:16:11.751929 18115 net.cpp:129] Top shape: 200 1000 (200000)
I0111 12:16:11.751935 18115 net.cpp:129] Top shape: 200 1000 (200000)
I0111 12:16:11.751940 18115 net.cpp:137] Memory required for data: 2333820000
I0111 12:16:11.751945 18115 layer_factory.hpp:77] Creating layer accuracy_5_TRAIN
I0111 12:16:11.751957 18115 net.cpp:84] Creating Layer accuracy_5_TRAIN
I0111 12:16:11.751963 18115 net.cpp:406] accuracy_5_TRAIN <- fc8_fc8_0_split_0
I0111 12:16:11.751969 18115 net.cpp:406] accuracy_5_TRAIN <- label_data_1_split_0
…
I0111 12:16:11.755017 18115 net.cpp:294] The NetState phase (1) differed from the phase (0) specified by a rule in layer accuracy_5_TRAIN
I0111 12:16:11.755306 18115 net.cpp:51] Initializing net from parameters: 
name: "AlexNet-BN"
state {
  phase: TEST
}
layer {
  name: "data"
  type: "Data"
  top: "data"
  top: "label"
  include {
    phase: TEST
  }
  transform_param {
    mirror: false
    crop_size: 224
    mean_value: 103.939
    mean_value: 116.779
    mean_value: 123.68
  }
  data_param {
    source: "/home/ydwu/database/imagenet/ilsvrc12/lmdb_resize/ilsvrc12_val_lmdb"
    batch_size: 200
    backend: LMDB
  }
}
layer {
  name: "conv1"
  type: "QuanConvolution"
  bottom: "data"
  top: "conv1"
  param {
    lr_mult: 1
    decay_mult: 1
  }
  param {
    lr_mult: 2
    decay_mult: 0
  }
  quan_convolution_param {
    num_output: 96
    pad: 2
    kernel_size: 11
    stride: 4
    weight_filler {
      type: "gaussian"
      std: 0.01
    }
    bias_filler {
      type: "constant"
      value: 0
    }
    round_method: ROUND
    round_strategy: NEUTRAL
    bit_width: 4
    range_low: -0.872089
    range_high: 0.927025
  }
}
layer {
  name: "bn1"
  type: "BatchNorm"
  bottom: "conv1"
  top: "conv1"
}
layer {
  name: "scale1"
  type: "Scale"
  bottom: "conv1"
  top: "conv1"
  scale_param {
    bias_term: true
  }
}
layer {
  name: "relu1"
  type: "ReLU"
  bottom: "conv1"
  top: "conv1"
}
layer {
  name: "pool1"
  type: "Pooling"
  bottom: "conv1"
  top: "pool1"
  pooling_param {
    pool: MAX
    kernel_size: 3
    stride: 2
  }
}
layer {
  name: "conv2"
  type: "QuanConvolution"
  bottom: "pool1"
  top: "conv2"
  param {
    lr_mult: 1
    decay_mult: 1
  }
  param {
    lr_mult: 2
    decay_mult: 0
  }
  quan_convolution_param {
    num_output: 256
    pad: 2
    kernel_size: 5
    weight_filler {
      type: "gaussian"
      std: 0.01
    }
    bias_filler {
      type: "constant"
      value: 0.1
    }
    round_method: ROUND
    round_strategy: NEUTRAL
    bit_width: 4
    range_low: -0.806018
    range_high: 1.5182
  }
}
layer {
  name: "bn2"
  type: "BatchNorm"
  bottom: "conv2"
  top: "conv2"
}
layer {
  name: "scale2"
  type: "Scale"
  bottom: "conv2"
  top: "conv2"
  scale_param {
    bias_term: true
  }
}
layer {
  name: "relu2"
  type: "ReLU"
  bottom: "conv2"
  top: "conv2"
}
layer {
  name: "pool2"
  type: "Pooling"
  bottom: "conv2"
  top: "pool2"
  pooling_param {
    pool: MAX
    kernel_size: 3
    stride: 2
  }
}
layer {
  name: "conv3"
  type: "QuanConvolution"
  bottom: "pool2"
  top: "conv3"
  param {
    lr_mult: 1
    decay_mult: 1
  }
  param {
    lr_mult: 2
    decay_mult: 0
  }
  quan_convolution_param {
    num_output: 384
    pad: 1
    kernel_size: 3
    weight_filler {
      type: "gaussian"
      std: 0.01
    }
    bias_filler {
      type: "constant"
      value: 0
    }
    round_method: ROUND
    round_strategy: NEUTRAL
    bit_width: 4
    range_low: -0.621858
    range_high: 0.673858
  }
}
layer {
  name: "bn3"
  type: "BatchNorm"
  bottom: "conv3"
  top: "conv3"
}
layer {
  name: "scale3"
  type: "Scale"
  bottom: "conv3"
  top: "conv3"
  scale_param {
    bias_term: true
  }
}
layer {
  name: "relu3"
  type: "ReLU"
  bottom: "conv3"
  top: "conv3"
}
layer {
  name: "conv4"
  type: "QuanConvolution"
  bottom: "conv3"
  top: "conv4"
  param {
    lr_mult: 1
    decay_mult: 1
  }
  param {
    lr_mult: 2
    decay_mult: 0
  }
  quan_convolution_param {
    num_output: 384
    pad: 1
    kernel_size: 3
    weight_filler {
      type: "gaussian"
      std: 0.01
    }
    bias_filler {
      type: "constant"
      value: 0.1
    }
    round_method: ROUND
    round_strategy: NEUTRAL
    bit_width: 4
    range_low: -0.376634
    range_high: 0.341829
  }
}
layer {
  name: "bn4"
  type: "BatchNorm"
  bottom: "conv4"
  top: "conv4"
}
layer {
  name: "scale4"
  type: "Scale"
  bottom: "conv4"
  top: "conv4"
  scale_param {
    bias_term: true
  }
}
layer {
  name: "relu4"
  type: "ReLU"
  bottom: "conv4"
  top: "conv4"
}
layer {
  name: "conv5"
  type: "QuanConvolution"
  bottom: "conv4"
  top: "conv5"
  param {
    lr_mult: 1
    decay_mult: 1
  }
  param {
    lr_mult: 2
    decay_mult: 0
  }
  quan_convolution_param {
    num_output: 256
    pad: 1
    kernel_size: 3
    weight_filler {
      type: "gaussian"
      std: 0.01
    }
    bias_filler {
      type: "constant"
      value: 0.1
    }
    round_method: ROUND
    round_strategy: NEUTRAL
    bit_width: 4
    range_low: -0.347658
    range_high: 0.330042
  }
}
layer {
  name: "bn5"
  type: "BatchNorm"
  bottom: "conv5"
  top: "conv5"
}
layer {
  name: "scale5"
  type: "Scale"
  bottom: "conv5"
  top: "conv5"
  scale_param {
    bias_term: true
  }
}
layer {
  name: "relu5"
  type: "ReLU"
  bottom: "conv5"
  top: "conv5"
}
layer {
  name: "pool5"
  type: "Pooling"
  bottom: "conv5"
  top: "pool5"
  pooling_param {
    pool: MAX
    kernel_size: 3
    stride: 2
  }
}
layer {
  name: "fc6"
  type: "QuanInnerProduct"
  bottom: "pool5"
  top: "fc6"
  param {
    lr_mult: 1
    decay_mult: 1
  }
  param {
    lr_mult: 2
    decay_mult: 0
  }
  quan_inner_product_param {
    num_output: 4096
    weight_filler {
      type: "gaussian"
      std: 0.005
    }
    bias_filler {
      type: "constant"
      value: 0.1
    }
    round_method: ROUND
    round_strategy: NEUTRAL
    bit_width: 4
    range_low: -0.160061
    range_high: 0.148064
  }
}
layer {
  name: "bn6"
  type: "BatchNorm"
  bottom: "fc6"
  top: "fc6"
}
layer {
  name: "scale6"
  type: "Scale"
  bottom: "fc6"
  top: "fc6"
  scale_param {
    bias_term: true
  }
}
layer {
  name: "relu6"
  type: "ReLU"
  bottom: "fc6"
  top: "fc6"
}
layer {
  name: "drop6"
  type: "Dropout"
  bottom: "fc6"
  top: "fc6"
  dropout_param {
    dropout_ratio: 0.5
  }
}
layer {
  name: "fc7"
  type: "QuanInnerProduct"
  bottom: "fc6"
  top: "fc7"
  param {
    lr_mult: 1
    decay_mult: 1
  }
  param {
    lr_mult: 2
    decay_mult: 0
  }
  quan_inner_product_param {
    num_output: 4096
    weight_filler {
      type: "gaussian"
      std: 0.005
    }
    bias_filler {
      type: "constant"
      value: 0.1
    }
    round_method: ROUND
    round_strategy: NEUTRAL
    bit_width: 4
    range_low: -0.162636
    range_high: 0.197684
  }
}
layer {
  name: "bn7"
  type: "BatchNorm"
  bottom: "fc7"
  top: "fc7"
}
layer {
  name: "scale7"
  type: "Scale"
  bottom: "fc7"
  top: "fc7"
  scale_param {
    bias_term: true
  }
}
layer {
  name: "relu7"
  type: "ReLU"
  bottom: "fc7"
  top: "fc7"
}
layer {
  name: "drop7"
  type: "Dropout"
  bottom: "fc7"
  top: "fc7"
  dropout_param {
    dropout_ratio: 0.5
  }
}
layer {
  name: "fc8"
  type: "QuanInnerProduct"
  bottom: "fc7"
  top: "fc8"
  param {
    lr_mult: 1
    decay_mult: 1
  }
  param {
    lr_mult: 2
    decay_mult: 0
  }
  quan_inner_product_param {
    num_output: 1000
    weight_filler {
      type: "gaussian"
      std: 0.01
    }
    bias_filler {
      type: "constant"
      value: 0
    }
    round_method: ROUND
    round_strategy: NEUTRAL
    bit_width: 4
    range_low: -0.141857
    range_high: 0.274249
  }
}
layer {
  name: "accuracy"
  type: "Accuracy"
  bottom: "fc8"
  bottom: "label"
  top: "accuracy"
  include {
    phase: TEST
  }
}
layer {
  name: "accuracy_5"
  type: "Accuracy"
  bottom: "fc8"
  bottom: "label"
  top: "accuracy_5"
  include {
    phase: TEST
  }
  accuracy_param {
    top_k: 5
  }
}
layer {
  name: "loss"
  type: "SoftmaxWithLoss"
  bottom: "fc8"
  bottom: "label"
  top: "loss"
}
I0111 12:16:11.755496 18115 layer_factory.hpp:77] Creating layer data
I0111 12:16:11.826369 18115 db_lmdb.cpp:35] Opened lmdb /home/ydwu/database/imagenet/ilsvrc12/lmdb_resize/ilsvrc12_val_lmdb
I0111 12:16:11.826717 18115 net.cpp:84] Creating Layer data
I0111 12:16:11.826753 18115 net.cpp:380] data -> data
I0111 12:16:11.826769 18115 net.cpp:380] data -> label
I0111 12:16:11.827153 18115 data_layer.cpp:45] output data size: 200,3,224,224
I0111 12:16:12.204545 18115 net.cpp:122] Setting up data
I0111 12:16:12.204622 18115 net.cpp:129] Top shape: 200 3 224 224 (30105600)
I0111 12:16:12.204632 18115 net.cpp:129] Top shape: 200 (200)
I0111 12:16:12.204638 18115 net.cpp:137] Memory required for data: 120423200
I0111 12:16:12.204653 18115 layer_factory.hpp:77] Creating layer label_data_1_split
I0111 12:16:12.204684 18115 net.cpp:84] Creating Layer label_data_1_split
I0111 12:16:12.204694 18115 net.cpp:406] label_data_1_split <- label
I0111 12:16:12.204711 18115 net.cpp:380] label_data_1_split -> label_data_1_split_0
I0111 12:16:12.204733 18115 net.cpp:380] label_data_1_split -> label_data_1_split_1
I0111 12:16:12.204746 18115 net.cpp:380] label_data_1_split -> label_data_1_split_2
I0111 12:16:12.204831 18115 net.cpp:122] Setting up label_data_1_split
I0111 12:16:12.204845 18115 net.cpp:129] Top shape: 200 (200)
I0111 12:16:12.204852 18115 net.cpp:129] Top shape: 200 (200)
I0111 12:16:12.204859 18115 net.cpp:129] Top shape: 200 (200)
I0111 12:16:12.204864 18115 net.cpp:137] Memory required for data: 120425600
I0111 12:16:12.204872 18115 layer_factory.hpp:77] Creating layer conv1
I0111 12:16:12.204897 18115 net.cpp:84] Creating Layer conv1
I0111 12:16:12.204905 18115 net.cpp:406] conv1 <- data
I0111 12:16:12.204918 18115 net.cpp:380] conv1 -> conv1
ydwu=======get:
bit_width=4;  round_method=0;  round_strategy=1;  is_runtime=0;  range_low=-0.872089;  range_high=0.927025
I0111 12:16:12.205874 18115 net.cpp:122] Setting up conv1
I0111 12:16:12.205902 18115 net.cpp:129] Top shape: 200 96 55 55 (58080000)
I0111 12:16:12.205909 18115 net.cpp:137] Memory required for data: 352745600
I0111 12:16:12.205927 18115 layer_factory.hpp:77] Creating layer bn1
I0111 12:16:12.205940 18115 net.cpp:84] Creating Layer bn1
I0111 12:16:12.205947 18115 net.cpp:406] bn1 <- conv1
I0111 12:16:12.206033 18115 net.cpp:367] bn1 -> conv1 (in-place)
I0111 12:16:12.206270 18115 net.cpp:122] Setting up bn1
I0111 12:16:12.206286 18115 net.cpp:129] Top shape: 200 96 55 55 (58080000)
I0111 12:16:12.206293 18115 net.cpp:137] Memory required for data: 585065600
I0111 12:16:12.206310 18115 layer_factory.hpp:77] Creating layer scale1
I0111 12:16:12.206324 18115 net.cpp:84] Creating Layer scale1
I0111 12:16:12.206331 18115 net.cpp:406] scale1 <- conv1
I0111 12:16:12.206339 18115 net.cpp:367] scale1 -> conv1 (in-place)
I0111 12:16:12.206409 18115 layer_factory.hpp:77] Creating layer scale1
I0111 12:16:12.206624 18115 net.cpp:122] Setting up scale1
I0111 12:16:12.206640 18115 net.cpp:129] Top shape: 200 96 55 55 (58080000)
I0111 12:16:12.206645 18115 net.cpp:137] Memory required for data: 817385600
I0111 12:16:12.206655 18115 layer_factory.hpp:77] Creating layer relu1
I0111 12:16:12.206665 18115 net.cpp:84] Creating Layer relu1
I0111 12:16:12.206673 18115 net.cpp:406] relu1 <- conv1
I0111 12:16:12.206683 18115 net.cpp:367] relu1 -> conv1 (in-place)
I0111 12:16:12.206697 18115 net.cpp:122] Setting up relu1
I0111 12:16:12.206707 18115 net.cpp:129] Top shape: 200 96 55 55 (58080000)
I0111 12:16:12.206712 18115 net.cpp:137] Memory required for data: 1049705600
I0111 12:16:12.206718 18115 layer_factory.hpp:77] Creating layer pool1
I0111 12:16:12.206730 18115 net.cpp:84] Creating Layer pool1
I0111 12:16:12.206737 18115 net.cpp:406] pool1 <- conv1
I0111 12:16:12.206748 18115 net.cpp:380] pool1 -> pool1
I0111 12:16:12.206809 18115 net.cpp:122] Setting up pool1
I0111 12:16:12.206821 18115 net.cpp:129] Top shape: 200 96 27 27 (13996800)
I0111 12:16:12.206827 18115 net.cpp:137] Memory required for data: 1105692800
I0111 12:16:12.206835 18115 layer_factory.hpp:77] Creating layer conv2
I0111 12:16:12.206848 18115 net.cpp:84] Creating Layer conv2
I0111 12:16:12.206856 18115 net.cpp:406] conv2 <- pool1
I0111 12:16:12.206868 18115 net.cpp:380] conv2 -> conv2
ydwu=======get:
bit_width=4;  round_method=0;  round_strategy=1;  is_runtime=0;  range_low=-0.806018;  range_high=1.5182
I0111 12:16:12.235493 18115 net.cpp:122] Setting up conv2
I0111 12:16:12.235527 18115 net.cpp:129] Top shape: 200 256 27 27 (37324800)
I0111 12:16:12.235533 18115 net.cpp:137] Memory required for data: 1254992000
I0111 12:16:12.235548 18115 layer_factory.hpp:77] Creating layer bn2
I0111 12:16:12.235561 18115 net.cpp:84] Creating Layer bn2
I0111 12:16:12.235569 18115 net.cpp:406] bn2 <- conv2
I0111 12:16:12.235579 18115 net.cpp:367] bn2 -> conv2 (in-place)
I0111 12:16:12.235797 18115 net.cpp:122] Setting up bn2
I0111 12:16:12.235822 18115 net.cpp:129] Top shape: 200 256 27 27 (37324800)
I0111 12:16:12.235829 18115 net.cpp:137] Memory required for data: 1404291200
I0111 12:16:12.235841 18115 layer_factory.hpp:77] Creating layer scale2
I0111 12:16:12.235851 18115 net.cpp:84] Creating Layer scale2
I0111 12:16:12.235857 18115 net.cpp:406] scale2 <- conv2
I0111 12:16:12.235865 18115 net.cpp:367] scale2 -> conv2 (in-place)
I0111 12:16:12.235919 18115 layer_factory.hpp:77] Creating layer scale2
I0111 12:16:12.236045 18115 net.cpp:122] Setting up scale2
I0111 12:16:12.236058 18115 net.cpp:129] Top shape: 200 256 27 27 (37324800)
I0111 12:16:12.236065 18115 net.cpp:137] Memory required for data: 1553590400
I0111 12:16:12.236075 18115 layer_factory.hpp:77] Creating layer relu2
I0111 12:16:12.236085 18115 net.cpp:84] Creating Layer relu2
I0111 12:16:12.236093 18115 net.cpp:406] relu2 <- conv2
I0111 12:16:12.236101 18115 net.cpp:367] relu2 -> conv2 (in-place)
I0111 12:16:12.236111 18115 net.cpp:122] Setting up relu2
I0111 12:16:12.236119 18115 net.cpp:129] Top shape: 200 256 27 27 (37324800)
I0111 12:16:12.236125 18115 net.cpp:137] Memory required for data: 1702889600
I0111 12:16:12.236131 18115 layer_factory.hpp:77] Creating layer pool2
I0111 12:16:12.236142 18115 net.cpp:84] Creating Layer pool2
I0111 12:16:12.236148 18115 net.cpp:406] pool2 <- conv2
I0111 12:16:12.236158 18115 net.cpp:380] pool2 -> pool2
I0111 12:16:12.236207 18115 net.cpp:122] Setting up pool2
I0111 12:16:12.236220 18115 net.cpp:129] Top shape: 200 256 13 13 (8652800)
I0111 12:16:12.236227 18115 net.cpp:137] Memory required for data: 1737500800
I0111 12:16:12.236254 18115 layer_factory.hpp:77] Creating layer conv3
I0111 12:16:12.236269 18115 net.cpp:84] Creating Layer conv3
I0111 12:16:12.236276 18115 net.cpp:406] conv3 <- pool2
I0111 12:16:12.236287 18115 net.cpp:380] conv3 -> conv3
ydwu=======get:
bit_width=4;  round_method=0;  round_strategy=1;  is_runtime=0;  range_low=-0.621858;  range_high=0.673858
I0111 12:16:12.250892 18115 net.cpp:122] Setting up conv3
I0111 12:16:12.250926 18115 net.cpp:129] Top shape: 200 384 13 13 (12979200)
I0111 12:16:12.250932 18115 net.cpp:137] Memory required for data: 1789417600
I0111 12:16:12.250959 18115 layer_factory.hpp:77] Creating layer bn3
I0111 12:16:12.250977 18115 net.cpp:84] Creating Layer bn3
I0111 12:16:12.250983 18115 net.cpp:406] bn3 <- conv3
I0111 12:16:12.251009 18115 net.cpp:367] bn3 -> conv3 (in-place)
I0111 12:16:12.251227 18115 net.cpp:122] Setting up bn3
I0111 12:16:12.251241 18115 net.cpp:129] Top shape: 200 384 13 13 (12979200)
I0111 12:16:12.251260 18115 net.cpp:137] Memory required for data: 1841334400
I0111 12:16:12.251281 18115 layer_factory.hpp:77] Creating layer scale3
I0111 12:16:12.251293 18115 net.cpp:84] Creating Layer scale3
I0111 12:16:12.251299 18115 net.cpp:406] scale3 <- conv3
I0111 12:16:12.251308 18115 net.cpp:367] scale3 -> conv3 (in-place)
I0111 12:16:12.251375 18115 layer_factory.hpp:77] Creating layer scale3
I0111 12:16:12.251533 18115 net.cpp:122] Setting up scale3
I0111 12:16:12.251546 18115 net.cpp:129] Top shape: 200 384 13 13 (12979200)
I0111 12:16:12.251564 18115 net.cpp:137] Memory required for data: 1893251200
I0111 12:16:12.251572 18115 layer_factory.hpp:77] Creating layer relu3
I0111 12:16:12.251585 18115 net.cpp:84] Creating Layer relu3
I0111 12:16:12.251591 18115 net.cpp:406] relu3 <- conv3
I0111 12:16:12.251602 18115 net.cpp:367] relu3 -> conv3 (in-place)
I0111 12:16:12.251613 18115 net.cpp:122] Setting up relu3
I0111 12:16:12.251621 18115 net.cpp:129] Top shape: 200 384 13 13 (12979200)
I0111 12:16:12.251626 18115 net.cpp:137] Memory required for data: 1945168000
I0111 12:16:12.251632 18115 layer_factory.hpp:77] Creating layer conv4
I0111 12:16:12.251653 18115 net.cpp:84] Creating Layer conv4
I0111 12:16:12.251660 18115 net.cpp:406] conv4 <- conv3
I0111 12:16:12.251672 18115 net.cpp:380] conv4 -> conv4
ydwu=======get:
bit_width=4;  round_method=0;  round_strategy=1;  is_runtime=0;  range_low=-0.376634;  range_high=0.341829
I0111 12:16:12.273468 18115 net.cpp:122] Setting up conv4
I0111 12:16:12.273512 18115 net.cpp:129] Top shape: 200 384 13 13 (12979200)
I0111 12:16:12.273519 18115 net.cpp:137] Memory required for data: 1997084800
I0111 12:16:12.273537 18115 layer_factory.hpp:77] Creating layer bn4
I0111 12:16:12.273558 18115 net.cpp:84] Creating Layer bn4
I0111 12:16:12.273567 18115 net.cpp:406] bn4 <- conv4
I0111 12:16:12.273581 18115 net.cpp:367] bn4 -> conv4 (in-place)
I0111 12:16:12.273852 18115 net.cpp:122] Setting up bn4
I0111 12:16:12.273867 18115 net.cpp:129] Top shape: 200 384 13 13 (12979200)
I0111 12:16:12.273874 18115 net.cpp:137] Memory required for data: 2049001600
I0111 12:16:12.273885 18115 layer_factory.hpp:77] Creating layer scale4
I0111 12:16:12.273900 18115 net.cpp:84] Creating Layer scale4
I0111 12:16:12.273916 18115 net.cpp:406] scale4 <- conv4
I0111 12:16:12.273926 18115 net.cpp:367] scale4 -> conv4 (in-place)
I0111 12:16:12.274003 18115 layer_factory.hpp:77] Creating layer scale4
I0111 12:16:12.274176 18115 net.cpp:122] Setting up scale4
I0111 12:16:12.274190 18115 net.cpp:129] Top shape: 200 384 13 13 (12979200)
I0111 12:16:12.274209 18115 net.cpp:137] Memory required for data: 2100918400
I0111 12:16:12.274219 18115 layer_factory.hpp:77] Creating layer relu4
I0111 12:16:12.274230 18115 net.cpp:84] Creating Layer relu4
I0111 12:16:12.274236 18115 net.cpp:406] relu4 <- conv4
I0111 12:16:12.274245 18115 net.cpp:367] relu4 -> conv4 (in-place)
I0111 12:16:12.274255 18115 net.cpp:122] Setting up relu4
I0111 12:16:12.274264 18115 net.cpp:129] Top shape: 200 384 13 13 (12979200)
I0111 12:16:12.274271 18115 net.cpp:137] Memory required for data: 2152835200
I0111 12:16:12.274277 18115 layer_factory.hpp:77] Creating layer conv5
I0111 12:16:12.274297 18115 net.cpp:84] Creating Layer conv5
I0111 12:16:12.274305 18115 net.cpp:406] conv5 <- conv4
I0111 12:16:12.274363 18115 net.cpp:380] conv5 -> conv5
ydwu=======get:
bit_width=4;  round_method=0;  round_strategy=1;  is_runtime=0;  range_low=-0.347658;  range_high=0.330042
I0111 12:16:12.289912 18115 net.cpp:122] Setting up conv5
I0111 12:16:12.289942 18115 net.cpp:129] Top shape: 200 256 13 13 (8652800)
I0111 12:16:12.289950 18115 net.cpp:137] Memory required for data: 2187446400
I0111 12:16:12.289968 18115 layer_factory.hpp:77] Creating layer bn5
I0111 12:16:12.289984 18115 net.cpp:84] Creating Layer bn5
I0111 12:16:12.289994 18115 net.cpp:406] bn5 <- conv5
I0111 12:16:12.290010 18115 net.cpp:367] bn5 -> conv5 (in-place)
I0111 12:16:12.290253 18115 net.cpp:122] Setting up bn5
I0111 12:16:12.290267 18115 net.cpp:129] Top shape: 200 256 13 13 (8652800)
I0111 12:16:12.290276 18115 net.cpp:137] Memory required for data: 2222057600
I0111 12:16:12.290302 18115 layer_factory.hpp:77] Creating layer scale5
I0111 12:16:12.290316 18115 net.cpp:84] Creating Layer scale5
I0111 12:16:12.290323 18115 net.cpp:406] scale5 <- conv5
I0111 12:16:12.290333 18115 net.cpp:367] scale5 -> conv5 (in-place)
I0111 12:16:12.290411 18115 layer_factory.hpp:77] Creating layer scale5
I0111 12:16:12.290560 18115 net.cpp:122] Setting up scale5
I0111 12:16:12.290575 18115 net.cpp:129] Top shape: 200 256 13 13 (8652800)
I0111 12:16:12.290581 18115 net.cpp:137] Memory required for data: 2256668800
I0111 12:16:12.290591 18115 layer_factory.hpp:77] Creating layer relu5
I0111 12:16:12.290606 18115 net.cpp:84] Creating Layer relu5
I0111 12:16:12.290614 18115 net.cpp:406] relu5 <- conv5
I0111 12:16:12.290623 18115 net.cpp:367] relu5 -> conv5 (in-place)
I0111 12:16:12.290633 18115 net.cpp:122] Setting up relu5
I0111 12:16:12.290642 18115 net.cpp:129] Top shape: 200 256 13 13 (8652800)
I0111 12:16:12.290649 18115 net.cpp:137] Memory required for data: 2291280000
I0111 12:16:12.290657 18115 layer_factory.hpp:77] Creating layer pool5
I0111 12:16:12.290670 18115 net.cpp:84] Creating Layer pool5
I0111 12:16:12.290678 18115 net.cpp:406] pool5 <- conv5
I0111 12:16:12.290688 18115 net.cpp:380] pool5 -> pool5
I0111 12:16:12.290743 18115 net.cpp:122] Setting up pool5
I0111 12:16:12.290757 18115 net.cpp:129] Top shape: 200 256 6 6 (1843200)
I0111 12:16:12.290765 18115 net.cpp:137] Memory required for data: 2298652800
I0111 12:16:12.290771 18115 layer_factory.hpp:77] Creating layer fc6
I0111 12:16:12.290786 18115 net.cpp:84] Creating Layer fc6
I0111 12:16:12.290792 18115 net.cpp:406] fc6 <- pool5
I0111 12:16:12.290805 18115 net.cpp:380] fc6 -> fc6
I0111 12:16:12.290819 18115 quan_inner_product_layer.cpp:21] 4096   4096
ydwu=======get:
bit_width=4;  round_method=0;  round_strategy=1;  is_runtime=0;  range_low=-0.160061;  range_high=0.148064
I0111 12:16:12.886950 18115 net.cpp:122] Setting up fc6
I0111 12:16:12.887001 18115 net.cpp:129] Top shape: 200 4096 (819200)
I0111 12:16:12.887006 18115 net.cpp:137] Memory required for data: 2301929600
I0111 12:16:12.887024 18115 layer_factory.hpp:77] Creating layer bn6
I0111 12:16:12.887045 18115 net.cpp:84] Creating Layer bn6
I0111 12:16:12.887053 18115 net.cpp:406] bn6 <- fc6
I0111 12:16:12.887068 18115 net.cpp:367] bn6 -> fc6 (in-place)
I0111 12:16:12.887306 18115 net.cpp:122] Setting up bn6
I0111 12:16:12.887320 18115 net.cpp:129] Top shape: 200 4096 (819200)
I0111 12:16:12.887336 18115 net.cpp:137] Memory required for data: 2305206400
I0111 12:16:12.887373 18115 layer_factory.hpp:77] Creating layer scale6
I0111 12:16:12.887385 18115 net.cpp:84] Creating Layer scale6
I0111 12:16:12.887392 18115 net.cpp:406] scale6 <- fc6
I0111 12:16:12.887404 18115 net.cpp:367] scale6 -> fc6 (in-place)
I0111 12:16:12.887472 18115 layer_factory.hpp:77] Creating layer scale6
I0111 12:16:12.887647 18115 net.cpp:122] Setting up scale6
I0111 12:16:12.887676 18115 net.cpp:129] Top shape: 200 4096 (819200)
I0111 12:16:12.887682 18115 net.cpp:137] Memory required for data: 2308483200
I0111 12:16:12.887691 18115 layer_factory.hpp:77] Creating layer relu6
I0111 12:16:12.887701 18115 net.cpp:84] Creating Layer relu6
I0111 12:16:12.887708 18115 net.cpp:406] relu6 <- fc6
I0111 12:16:12.887717 18115 net.cpp:367] relu6 -> fc6 (in-place)
I0111 12:16:12.887727 18115 net.cpp:122] Setting up relu6
I0111 12:16:12.887734 18115 net.cpp:129] Top shape: 200 4096 (819200)
I0111 12:16:12.887740 18115 net.cpp:137] Memory required for data: 2311760000
I0111 12:16:12.887785 18115 layer_factory.hpp:77] Creating layer drop6
I0111 12:16:12.887797 18115 net.cpp:84] Creating Layer drop6
I0111 12:16:12.887804 18115 net.cpp:406] drop6 <- fc6
I0111 12:16:12.887815 18115 net.cpp:367] drop6 -> fc6 (in-place)
I0111 12:16:12.887848 18115 net.cpp:122] Setting up drop6
I0111 12:16:12.887863 18115 net.cpp:129] Top shape: 200 4096 (819200)
I0111 12:16:12.887871 18115 net.cpp:137] Memory required for data: 2315036800
I0111 12:16:12.887876 18115 layer_factory.hpp:77] Creating layer fc7
I0111 12:16:12.887889 18115 net.cpp:84] Creating Layer fc7
I0111 12:16:12.887897 18115 net.cpp:406] fc7 <- fc6
I0111 12:16:12.887908 18115 net.cpp:380] fc7 -> fc7
I0111 12:16:12.887922 18115 quan_inner_product_layer.cpp:21] 4096   4096
ydwu=======get:
bit_width=4;  round_method=0;  round_strategy=1;  is_runtime=0;  range_low=-0.162636;  range_high=0.197684
I0111 12:16:13.144645 18115 net.cpp:122] Setting up fc7
I0111 12:16:13.144687 18115 net.cpp:129] Top shape: 200 4096 (819200)
I0111 12:16:13.144695 18115 net.cpp:137] Memory required for data: 2318313600
I0111 12:16:13.144713 18115 layer_factory.hpp:77] Creating layer bn7
I0111 12:16:13.144735 18115 net.cpp:84] Creating Layer bn7
I0111 12:16:13.144745 18115 net.cpp:406] bn7 <- fc7
I0111 12:16:13.144758 18115 net.cpp:367] bn7 -> fc7 (in-place)
I0111 12:16:13.145002 18115 net.cpp:122] Setting up bn7
I0111 12:16:13.145016 18115 net.cpp:129] Top shape: 200 4096 (819200)
I0111 12:16:13.145023 18115 net.cpp:137] Memory required for data: 2321590400
I0111 12:16:13.145036 18115 layer_factory.hpp:77] Creating layer scale7
I0111 12:16:13.145058 18115 net.cpp:84] Creating Layer scale7
I0111 12:16:13.145066 18115 net.cpp:406] scale7 <- fc7
I0111 12:16:13.145074 18115 net.cpp:367] scale7 -> fc7 (in-place)
I0111 12:16:13.145133 18115 layer_factory.hpp:77] Creating layer scale7
I0111 12:16:13.145278 18115 net.cpp:122] Setting up scale7
I0111 12:16:13.145293 18115 net.cpp:129] Top shape: 200 4096 (819200)
I0111 12:16:13.145300 18115 net.cpp:137] Memory required for data: 2324867200
I0111 12:16:13.145310 18115 layer_factory.hpp:77] Creating layer relu7
I0111 12:16:13.145320 18115 net.cpp:84] Creating Layer relu7
I0111 12:16:13.145328 18115 net.cpp:406] relu7 <- fc7
I0111 12:16:13.145335 18115 net.cpp:367] relu7 -> fc7 (in-place)
I0111 12:16:13.145345 18115 net.cpp:122] Setting up relu7
I0111 12:16:13.145354 18115 net.cpp:129] Top shape: 200 4096 (819200)
I0111 12:16:13.145359 18115 net.cpp:137] Memory required for data: 2328144000
I0111 12:16:13.145366 18115 layer_factory.hpp:77] Creating layer drop7
I0111 12:16:13.145376 18115 net.cpp:84] Creating Layer drop7
I0111 12:16:13.145383 18115 net.cpp:406] drop7 <- fc7
I0111 12:16:13.145393 18115 net.cpp:367] drop7 -> fc7 (in-place)
I0111 12:16:13.145426 18115 net.cpp:122] Setting up drop7
I0111 12:16:13.145437 18115 net.cpp:129] Top shape: 200 4096 (819200)
I0111 12:16:13.145444 18115 net.cpp:137] Memory required for data: 2331420800
I0111 12:16:13.145450 18115 layer_factory.hpp:77] Creating layer fc8
I0111 12:16:13.145463 18115 net.cpp:84] Creating Layer fc8
I0111 12:16:13.145469 18115 net.cpp:406] fc8 <- fc7
I0111 12:16:13.145483 18115 net.cpp:380] fc8 -> fc8
I0111 12:16:13.145495 18115 quan_inner_product_layer.cpp:21] 1000   1000
ydwu=======get:
bit_width=4;  round_method=0;  round_strategy=1;  is_runtime=0;  range_low=-0.141857;  range_high=0.274249
I0111 12:16:13.207307 18115 net.cpp:122] Setting up fc8
I0111 12:16:13.207346 18115 net.cpp:129] Top shape: 200 1000 (200000)
I0111 12:16:13.207353 18115 net.cpp:137] Memory required for data: 2332220800
I0111 12:16:13.207370 18115 layer_factory.hpp:77] Creating layer fc8_fc8_0_split
I0111 12:16:13.207386 18115 net.cpp:84] Creating Layer fc8_fc8_0_split
I0111 12:16:13.207393 18115 net.cpp:406] fc8_fc8_0_split <- fc8
I0111 12:16:13.207407 18115 net.cpp:380] fc8_fc8_0_split -> fc8_fc8_0_split_0
I0111 12:16:13.207430 18115 net.cpp:380] fc8_fc8_0_split -> fc8_fc8_0_split_1
I0111 12:16:13.207442 18115 net.cpp:380] fc8_fc8_0_split -> fc8_fc8_0_split_2
I0111 12:16:13.207514 18115 net.cpp:122] Setting up fc8_fc8_0_split
I0111 12:16:13.207526 18115 net.cpp:129] Top shape: 200 1000 (200000)
I0111 12:16:13.207535 18115 net.cpp:129] Top shape: 200 1000 (200000)
I0111 12:16:13.207541 18115 net.cpp:129] Top shape: 200 1000 (200000)
I0111 12:16:13.207587 18115 net.cpp:137] Memory required for data: 2334620800
I0111 12:16:13.207594 18115 layer_factory.hpp:77] Creating layer accuracy
I0111 12:16:13.207607 18115 net.cpp:84] Creating Layer accuracy
I0111 12:16:13.207613 18115 net.cpp:406] accuracy <- fc8_fc8_0_split_0
I0111 12:16:13.207621 18115 net.cpp:406] accuracy <- label_data_1_split_0
I0111 12:16:13.207634 18115 net.cpp:380] accuracy -> accuracy
…
