…
I0112 10:07:33.024215 53784 net.cpp:294] The NetState phase (0) differed from the phase (1) specified by a rule in layer accuracy_5
I0112 10:07:33.024574 53784 net.cpp:51] Initializing net from parameters: 
name: "AlexNet-BN"
state {
  phase: TRAIN
  level: 0
  stage: ""
}
layer {
  name: "data"
  type: "Data"
  top: "data"
  top: "label"
  include {
    phase: TRAIN
  }
  transform_param {
    mirror: true
    crop_size: 224
    mean_value: 103.939
    mean_value: 116.779
    mean_value: 123.68
  }
  data_param {
    source: "/home/DATA/imagenet_resize/lmdb_resize/ilsvrc12_train_lmdb"
    batch_size: 200
    backend: LMDB
  }
}
layer {
  name: "conv1"
  type: "QuanConvolution"
  bottom: "data"
  top: "conv1"
  param {
    lr_mult: 1
    decay_mult: 1
  }
  param {
    lr_mult: 2
    decay_mult: 0
  }
  quan_convolution_param {
    num_output: 96
    pad: 2
    kernel_size: 11
    stride: 4
    weight_filler {
      type: "gaussian"
      std: 0.01
    }
    bias_filler {
      type: "constant"
      value: 0
    }
    round_method: ROUND
    round_strategy: NEUTRAL
    bit_width: 8
    range_low: -0.872089
    range_high: 0.927025
  }
}
layer {
  name: "bn1"
  type: "BatchNorm"
  bottom: "conv1"
  top: "conv1"
}
layer {
  name: "scale1"
  type: "Scale"
  bottom: "conv1"
  top: "conv1"
  scale_param {
    bias_term: true
  }
}
layer {
  name: "relu1"
  type: "ReLU"
  bottom: "conv1"
  top: "conv1"
}
layer {
  name: "pool1"
  type: "Pooling"
  bottom: "conv1"
  top: "pool1"
  pooling_param {
    pool: MAX
    kernel_size: 3
    stride: 2
  }
}
layer {
  name: "quantized_conv1"
  type: "Quantization"
  bottom: "pool1"
  top: "pool1"
  quantization_param {
    round_method: ROUND
    round_strategy: AGGRESSIVE
    bit_width: 4
    range: 0
    range: 13.965383
  }
}
layer {
  name: "conv2"
  type: "QuanConvolution"
  bottom: "pool1"
  top: "conv2"
  param {
    lr_mult: 1
    decay_mult: 1
  }
  param {
    lr_mult: 2
    decay_mult: 0
  }
  quan_convolution_param {
    num_output: 256
    pad: 2
    kernel_size: 5
    weight_filler {
      type: "gaussian"
      std: 0.01
    }
    bias_filler {
      type: "constant"
      value: 0.1
    }
    round_method: ROUND
    round_strategy: NEUTRAL
    bit_width: 8
    range_low: -0.806018
    range_high: 1.5182
  }
}
layer {
  name: "bn2"
  type: "BatchNorm"
  bottom: "conv2"
  top: "conv2"
}
layer {
  name: "scale2"
  type: "Scale"
  bottom: "conv2"
  top: "conv2"
  scale_param {
    bias_term: true
  }
}
layer {
  name: "relu2"
  type: "ReLU"
  bottom: "conv2"
  top: "conv2"
}
layer {
  name: "pool2"
  type: "Pooling"
  bottom: "conv2"
  top: "pool2"
  pooling_param {
    pool: MAX
    kernel_size: 3
    stride: 2
  }
}
layer {
  name: "quantized_conv1"
  type: "Quantization"
  bottom: "pool2"
  top: "pool2"
  quantization_param {
    round_method: ROUND
    round_strategy: AGGRESSIVE
    bit_width: 4
    range: 0
    range: 6.74956
  }
}
layer {
  name: "conv3"
  type: "QuanConvolution"
  bottom: "pool2"
  top: "conv3"
  param {
    lr_mult: 1
    decay_mult: 1
  }
  param {
    lr_mult: 2
    decay_mult: 0
  }
  quan_convolution_param {
    num_output: 384
    pad: 1
    kernel_size: 3
    weight_filler {
      type: "gaussian"
      std: 0.01
    }
    bias_filler {
      type: "constant"
      value: 0
    }
    round_method: ROUND
    round_strategy: NEUTRAL
    bit_width: 8
    range_low: -0.621858
    range_high: 0.673858
  }
}
layer {
  name: "bn3"
  type: "BatchNorm"
  bottom: "conv3"
  top: "conv3"
}
layer {
  name: "scale3"
  type: "Scale"
  bottom: "conv3"
  top: "conv3"
  scale_param {
    bias_term: true
  }
}
layer {
  name: "relu3"
  type: "ReLU"
  bottom: "conv3"
  top: "conv3"
}
layer {
  name: "quantized_conv1"
  type: "Quantization"
  bottom: "conv3"
  top: "conv3"
  quantization_param {
    round_method: ROUND
    round_strategy: AGGRESSIVE
    bit_width: 4
    range: 0
    range: 8.48454
  }
}
layer {
  name: "conv4"
  type: "QuanConvolution"
  bottom: "conv3"
  top: "conv4"
  param {
    lr_mult: 1
    decay_mult: 1
  }
  param {
    lr_mult: 2
    decay_mult: 0
  }
  quan_convolution_param {
    num_output: 384
    pad: 1
    kernel_size: 3
    weight_filler {
      type: "gaussian"
      std: 0.01
    }
    bias_filler {
      type: "constant"
      value: 0.1
    }
    round_method: ROUND
    round_strategy: NEUTRAL
    bit_width: 8
    range_low: -0.376634
    range_high: 0.341829
  }
}
layer {
  name: "bn4"
  type: "BatchNorm"
  bottom: "conv4"
  top: "conv4"
}
layer {
  name: "scale4"
  type: "Scale"
  bottom: "conv4"
  top: "conv4"
  scale_param {
    bias_term: true
  }
}
layer {
  name: "relu4"
  type: "ReLU"
  bottom: "conv4"
  top: "conv4"
}
layer {
  name: "quantized_conv1"
  type: "Quantization"
  bottom: "conv4"
  top: "conv4"
  quantization_param {
    round_method: ROUND
    round_strategy: AGGRESSIVE
    bit_width: 4
    range: 0
    range: 7.3369722
  }
}
layer {
  name: "conv5"
  type: "QuanConvolution"
  bottom: "conv4"
  top: "conv5"
  param {
    lr_mult: 1
    decay_mult: 1
  }
  param {
    lr_mult: 2
    decay_mult: 0
  }
  quan_convolution_param {
    num_output: 256
    pad: 1
    kernel_size: 3
    weight_filler {
      type: "gaussian"
      std: 0.01
    }
    bias_filler {
      type: "constant"
      value: 0.1
    }
    round_method: ROUND
    round_strategy: NEUTRAL
    bit_width: 8
    range_low: -0.347658
    range_high: 0.330042
  }
}
layer {
  name: "bn5"
  type: "BatchNorm"
  bottom: "conv5"
  top: "conv5"
}
layer {
  name: "scale5"
  type: "Scale"
  bottom: "conv5"
  top: "conv5"
  scale_param {
    bias_term: true
  }
}
layer {
  name: "relu5"
  type: "ReLU"
  bottom: "conv5"
  top: "conv5"
}
layer {
  name: "pool5"
  type: "Pooling"
  bottom: "conv5"
  top: "pool5"
  pooling_param {
    pool: MAX
    kernel_size: 3
    stride: 2
  }
}
layer {
  name: "quantized_conv1"
  type: "Quantization"
  bottom: "pool5"
  top: "pool5"
  quantization_param {
    round_method: ROUND
    round_strategy: AGGRESSIVE
    bit_width: 4
    range: 0
    range: 8.7577133
  }
}
layer {
  name: "fc6"
  type: "QuanInnerProduct"
  bottom: "pool5"
  top: "fc6"
  param {
    lr_mult: 1
    decay_mult: 1
  }
  param {
    lr_mult: 2
    decay_mult: 0
  }
  quan_inner_product_param {
    num_output: 4096
    weight_filler {
      type: "gaussian"
      std: 0.005
    }
    bias_filler {
      type: "constant"
      value: 0.1
    }
    round_method: ROUND
    round_strategy: NEUTRAL
    bit_width: 8
    range_low: -0.160061
    range_high: 0.148064
  }
}
layer {
  name: "bn6"
  type: "BatchNorm"
  bottom: "fc6"
  top: "fc6"
}
layer {
  name: "scale6"
  type: "Scale"
  bottom: "fc6"
  top: "fc6"
  scale_param {
    bias_term: true
  }
}
layer {
  name: "relu6"
  type: "ReLU"
  bottom: "fc6"
  top: "fc6"
}
layer {
  name: "drop6"
  type: "Dropout"
  bottom: "fc6"
  top: "fc6"
  dropout_param {
    dropout_ratio: 0.5
  }
}
layer {
  name: "quantized_conv1"
  type: "Quantization"
  bottom: "fc6"
  top: "fc6"
  quantization_param {
    round_method: ROUND
    round_strategy: AGGRESSIVE
    bit_width: 4
    range: 0
    range: 1.659358
  }
}
layer {
  name: "fc7"
  type: "QuanInnerProduct"
  bottom: "fc6"
  top: "fc7"
  param {
    lr_mult: 1
    decay_mult: 1
  }
  param {
    lr_mult: 2
    decay_mult: 0
  }
  quan_inner_product_param {
    num_output: 4096
    weight_filler {
      type: "gaussian"
      std: 0.005
    }
    bias_filler {
      type: "constant"
      value: 0.1
    }
    round_method: ROUND
    round_strategy: NEUTRAL
    bit_width: 8
    range_low: -0.162636
    range_high: 0.197684
  }
}
layer {
  name: "bn7"
  type: "BatchNorm"
  bottom: "fc7"
  top: "fc7"
}
layer {
  name: "scale7"
  type: "Scale"
  bottom: "fc7"
  top: "fc7"
  scale_param {
    bias_term: true
  }
}
layer {
  name: "relu7"
  type: "ReLU"
  bottom: "fc7"
  top: "fc7"
}
layer {
  name: "drop7"
  type: "Dropout"
  bottom: "fc7"
  top: "fc7"
  dropout_param {
    dropout_ratio: 0.5
  }
}
layer {
  name: "quantized_conv1"
  type: "Quantization"
  bottom: "fc7"
  top: "fc7"
  quantization_param {
    round_method: ROUND
    round_strategy: AGGRESSIVE
    bit_width: 4
    range: 0
    range: 7.5598521
  }
}
layer {
  name: "fc8"
  type: "QuanInnerProduct"
  bottom: "fc7"
  top: "fc8"
  param {
    lr_mult: 1
    decay_mult: 1
  }
  param {
    lr_mult: 2
    decay_mult: 0
  }
  quan_inner_product_param {
    num_output: 1000
    weight_filler {
      type: "gaussian"
      std: 0.01
    }
    bias_filler {
      type: "constant"
      value: 0
    }
    round_method: ROUND
    round_strategy: NEUTRAL
    bit_width: 8
    range_low: -0.141857
    range_high: 0.274249
  }
}
layer {
  name: "accuracy_5_TRAIN"
  type: "Accuracy"
  bottom: "fc8"
  bottom: "label"
  top: "accuracy_5_TRAIN"
  include {
    phase: TRAIN
  }
  accuracy_param {
    top_k: 5
  }
}
layer {
  name: "loss"
  type: "SoftmaxWithLoss"
  bottom: "fc8"
  bottom: "label"
  top: "loss"
}
I0112 10:07:33.024884 53784 layer_factory.hpp:77] Creating layer data
I0112 10:07:33.025063 53784 db_lmdb.cpp:35] Opened lmdb /home/DATA/imagenet_resize/lmdb_resize/ilsvrc12_train_lmdb
I0112 10:07:33.025136 53784 net.cpp:84] Creating Layer data
I0112 10:07:33.025156 53784 net.cpp:380] data -> data
I0112 10:07:33.025192 53784 net.cpp:380] data -> label
I0112 10:07:33.027439 53784 data_layer.cpp:45] output data size: 200,3,224,224
I0112 10:07:33.409832 53784 net.cpp:122] Setting up data
I0112 10:07:33.409889 53784 net.cpp:129] Top shape: 200 3 224 224 (30105600)
I0112 10:07:33.409898 53784 net.cpp:129] Top shape: 200 (200)
I0112 10:07:33.409929 53784 net.cpp:137] Memory required for data: 120423200
I0112 10:07:33.409950 53784 layer_factory.hpp:77] Creating layer label_data_1_split
I0112 10:07:33.409997 53784 net.cpp:84] Creating Layer label_data_1_split
I0112 10:07:33.410009 53784 net.cpp:406] label_data_1_split <- label
I0112 10:07:33.410032 53784 net.cpp:380] label_data_1_split -> label_data_1_split_0
I0112 10:07:33.410059 53784 net.cpp:380] label_data_1_split -> label_data_1_split_1
I0112 10:07:33.410146 53784 net.cpp:122] Setting up label_data_1_split
I0112 10:07:33.410159 53784 net.cpp:129] Top shape: 200 (200)
I0112 10:07:33.410166 53784 net.cpp:129] Top shape: 200 (200)
I0112 10:07:33.410171 53784 net.cpp:137] Memory required for data: 120424800
I0112 10:07:33.410177 53784 layer_factory.hpp:77] Creating layer conv1
I0112 10:07:33.410204 53784 net.cpp:84] Creating Layer conv1
I0112 10:07:33.410212 53784 net.cpp:406] conv1 <- data
I0112 10:07:33.410223 53784 net.cpp:380] conv1 -> conv1
ydwu=======get:
bit_width=8;  round_method=0;  round_strategy=1;  is_runtime=0;  range_low=-0.872089;  range_high=0.927025
I0112 10:07:33.418388 53784 net.cpp:122] Setting up conv1
I0112 10:07:33.418423 53784 net.cpp:129] Top shape: 200 96 55 55 (58080000)
I0112 10:07:33.418431 53784 net.cpp:137] Memory required for data: 352744800
I0112 10:07:33.418471 53784 layer_factory.hpp:77] Creating layer bn1
I0112 10:07:33.418493 53784 net.cpp:84] Creating Layer bn1
I0112 10:07:33.418500 53784 net.cpp:406] bn1 <- conv1
I0112 10:07:33.418512 53784 net.cpp:367] bn1 -> conv1 (in-place)
I0112 10:07:33.437156 53784 net.cpp:122] Setting up bn1
I0112 10:07:33.437189 53784 net.cpp:129] Top shape: 200 96 55 55 (58080000)
I0112 10:07:33.437198 53784 net.cpp:137] Memory required for data: 585064800
I0112 10:07:33.437230 53784 layer_factory.hpp:77] Creating layer scale1
I0112 10:07:33.437253 53784 net.cpp:84] Creating Layer scale1
I0112 10:07:33.437263 53784 net.cpp:406] scale1 <- conv1
I0112 10:07:33.437337 53784 net.cpp:367] scale1 -> conv1 (in-place)
I0112 10:07:33.437422 53784 layer_factory.hpp:77] Creating layer scale1
I0112 10:07:33.437634 53784 net.cpp:122] Setting up scale1
I0112 10:07:33.437652 53784 net.cpp:129] Top shape: 200 96 55 55 (58080000)
I0112 10:07:33.437665 53784 net.cpp:137] Memory required for data: 817384800
I0112 10:07:33.437678 53784 layer_factory.hpp:77] Creating layer relu1
I0112 10:07:33.437696 53784 net.cpp:84] Creating Layer relu1
I0112 10:07:33.437706 53784 net.cpp:406] relu1 <- conv1
I0112 10:07:33.437717 53784 net.cpp:367] relu1 -> conv1 (in-place)
I0112 10:07:33.437732 53784 net.cpp:122] Setting up relu1
I0112 10:07:33.437747 53784 net.cpp:129] Top shape: 200 96 55 55 (58080000)
I0112 10:07:33.437755 53784 net.cpp:137] Memory required for data: 1049704800
I0112 10:07:33.437762 53784 layer_factory.hpp:77] Creating layer pool1
I0112 10:07:33.437777 53784 net.cpp:84] Creating Layer pool1
I0112 10:07:33.437788 53784 net.cpp:406] pool1 <- conv1
I0112 10:07:33.437799 53784 net.cpp:380] pool1 -> pool1
I0112 10:07:33.437893 53784 net.cpp:122] Setting up pool1
I0112 10:07:33.437912 53784 net.cpp:129] Top shape: 200 96 27 27 (13996800)
I0112 10:07:33.437922 53784 net.cpp:137] Memory required for data: 1105692000
I0112 10:07:33.437932 53784 layer_factory.hpp:77] Creating layer quantized_conv1
I0112 10:07:33.437948 53784 net.cpp:84] Creating Layer quantized_conv1
I0112 10:07:33.437958 53784 net.cpp:406] quantized_conv1 <- pool1
I0112 10:07:33.437970 53784 net.cpp:367] quantized_conv1 -> pool1 (in-place)
I0112 10:07:33.437988 53784 net.cpp:122] Setting up quantized_conv1
I0112 10:07:33.438000 53784 net.cpp:129] Top shape: 200 96 27 27 (13996800)
I0112 10:07:33.438009 53784 net.cpp:137] Memory required for data: 1161679200
I0112 10:07:33.438019 53784 layer_factory.hpp:77] Creating layer conv2
I0112 10:07:33.438040 53784 net.cpp:84] Creating Layer conv2
I0112 10:07:33.438050 53784 net.cpp:406] conv2 <- pool1
I0112 10:07:33.438064 53784 net.cpp:380] conv2 -> conv2
ydwu=======get:
bit_width=8;  round_method=0;  round_strategy=1;  is_runtime=0;  range_low=-0.806018;  range_high=1.5182
I0112 10:07:33.454478 53784 net.cpp:122] Setting up conv2
I0112 10:07:33.454540 53784 net.cpp:129] Top shape: 200 256 27 27 (37324800)
I0112 10:07:33.454550 53784 net.cpp:137] Memory required for data: 1310978400
I0112 10:07:33.454597 53784 layer_factory.hpp:77] Creating layer bn2
I0112 10:07:33.454638 53784 net.cpp:84] Creating Layer bn2
I0112 10:07:33.454650 53784 net.cpp:406] bn2 <- conv2
I0112 10:07:33.454672 53784 net.cpp:367] bn2 -> conv2 (in-place)
I0112 10:07:33.454936 53784 net.cpp:122] Setting up bn2
I0112 10:07:33.454954 53784 net.cpp:129] Top shape: 200 256 27 27 (37324800)
I0112 10:07:33.454969 53784 net.cpp:137] Memory required for data: 1460277600
I0112 10:07:33.454983 53784 layer_factory.hpp:77] Creating layer scale2
I0112 10:07:33.455003 53784 net.cpp:84] Creating Layer scale2
I0112 10:07:33.455011 53784 net.cpp:406] scale2 <- conv2
I0112 10:07:33.455021 53784 net.cpp:367] scale2 -> conv2 (in-place)
I0112 10:07:33.455108 53784 layer_factory.hpp:77] Creating layer scale2
I0112 10:07:33.455269 53784 net.cpp:122] Setting up scale2
I0112 10:07:33.455286 53784 net.cpp:129] Top shape: 200 256 27 27 (37324800)
I0112 10:07:33.455301 53784 net.cpp:137] Memory required for data: 1609576800
I0112 10:07:33.455310 53784 layer_factory.hpp:77] Creating layer relu2
I0112 10:07:33.455323 53784 net.cpp:84] Creating Layer relu2
I0112 10:07:33.455332 53784 net.cpp:406] relu2 <- conv2
I0112 10:07:33.455343 53784 net.cpp:367] relu2 -> conv2 (in-place)
I0112 10:07:33.455356 53784 net.cpp:122] Setting up relu2
I0112 10:07:33.455368 53784 net.cpp:129] Top shape: 200 256 27 27 (37324800)
I0112 10:07:33.455376 53784 net.cpp:137] Memory required for data: 1758876000
I0112 10:07:33.455384 53784 layer_factory.hpp:77] Creating layer pool2
I0112 10:07:33.455407 53784 net.cpp:84] Creating Layer pool2
I0112 10:07:33.455415 53784 net.cpp:406] pool2 <- conv2
I0112 10:07:33.455427 53784 net.cpp:380] pool2 -> pool2
I0112 10:07:33.455487 53784 net.cpp:122] Setting up pool2
I0112 10:07:33.455503 53784 net.cpp:129] Top shape: 200 256 13 13 (8652800)
I0112 10:07:33.455595 53784 net.cpp:137] Memory required for data: 1793487200
I0112 10:07:33.455605 53784 layer_factory.hpp:77] Creating layer quantized_conv1
I0112 10:07:33.455623 53784 net.cpp:84] Creating Layer quantized_conv1
I0112 10:07:33.455632 53784 net.cpp:406] quantized_conv1 <- pool2
I0112 10:07:33.455646 53784 net.cpp:367] quantized_conv1 -> pool2 (in-place)
I0112 10:07:33.455662 53784 net.cpp:122] Setting up quantized_conv1
I0112 10:07:33.455673 53784 net.cpp:129] Top shape: 200 256 13 13 (8652800)
I0112 10:07:33.455682 53784 net.cpp:137] Memory required for data: 1828098400
I0112 10:07:33.455690 53784 layer_factory.hpp:77] Creating layer conv3
I0112 10:07:33.455721 53784 net.cpp:84] Creating Layer conv3
I0112 10:07:33.455730 53784 net.cpp:406] conv3 <- pool2
I0112 10:07:33.455745 53784 net.cpp:380] conv3 -> conv3
ydwu=======get:
bit_width=8;  round_method=0;  round_strategy=1;  is_runtime=0;  range_low=-0.621858;  range_high=0.673858
I0112 10:07:33.472673 53784 net.cpp:122] Setting up conv3
I0112 10:07:33.472709 53784 net.cpp:129] Top shape: 200 384 13 13 (12979200)
I0112 10:07:33.472719 53784 net.cpp:137] Memory required for data: 1880015200
I0112 10:07:33.472738 53784 layer_factory.hpp:77] Creating layer bn3
I0112 10:07:33.472759 53784 net.cpp:84] Creating Layer bn3
I0112 10:07:33.472769 53784 net.cpp:406] bn3 <- conv3
I0112 10:07:33.472786 53784 net.cpp:367] bn3 -> conv3 (in-place)
I0112 10:07:33.473013 53784 net.cpp:122] Setting up bn3
I0112 10:07:33.473031 53784 net.cpp:129] Top shape: 200 384 13 13 (12979200)
I0112 10:07:33.473040 53784 net.cpp:137] Memory required for data: 1931932000
I0112 10:07:33.473068 53784 layer_factory.hpp:77] Creating layer scale3
I0112 10:07:33.473093 53784 net.cpp:84] Creating Layer scale3
I0112 10:07:33.473104 53784 net.cpp:406] scale3 <- conv3
I0112 10:07:33.473114 53784 net.cpp:367] scale3 -> conv3 (in-place)
I0112 10:07:33.473182 53784 layer_factory.hpp:77] Creating layer scale3
I0112 10:07:33.473331 53784 net.cpp:122] Setting up scale3
I0112 10:07:33.473347 53784 net.cpp:129] Top shape: 200 384 13 13 (12979200)
I0112 10:07:33.473356 53784 net.cpp:137] Memory required for data: 1983848800
I0112 10:07:33.473368 53784 layer_factory.hpp:77] Creating layer relu3
I0112 10:07:33.473382 53784 net.cpp:84] Creating Layer relu3
I0112 10:07:33.473390 53784 net.cpp:406] relu3 <- conv3
I0112 10:07:33.473402 53784 net.cpp:367] relu3 -> conv3 (in-place)
I0112 10:07:33.473415 53784 net.cpp:122] Setting up relu3
I0112 10:07:33.473425 53784 net.cpp:129] Top shape: 200 384 13 13 (12979200)
I0112 10:07:33.473433 53784 net.cpp:137] Memory required for data: 2035765600
I0112 10:07:33.473441 53784 layer_factory.hpp:77] Creating layer quantized_conv1
I0112 10:07:33.473455 53784 net.cpp:84] Creating Layer quantized_conv1
I0112 10:07:33.473465 53784 net.cpp:406] quantized_conv1 <- conv3
I0112 10:07:33.473476 53784 net.cpp:367] quantized_conv1 -> conv3 (in-place)
I0112 10:07:33.473489 53784 net.cpp:122] Setting up quantized_conv1
I0112 10:07:33.473500 53784 net.cpp:129] Top shape: 200 384 13 13 (12979200)
I0112 10:07:33.473510 53784 net.cpp:137] Memory required for data: 2087682400
I0112 10:07:33.473518 53784 layer_factory.hpp:77] Creating layer conv4
I0112 10:07:33.473544 53784 net.cpp:84] Creating Layer conv4
I0112 10:07:33.473552 53784 net.cpp:406] conv4 <- conv3
I0112 10:07:33.473573 53784 net.cpp:380] conv4 -> conv4
ydwu=======get:
bit_width=8;  round_method=0;  round_strategy=1;  is_runtime=0;  range_low=-0.376634;  range_high=0.341829
I0112 10:07:33.497671 53784 net.cpp:122] Setting up conv4
I0112 10:07:33.497714 53784 net.cpp:129] Top shape: 200 384 13 13 (12979200)
I0112 10:07:33.497720 53784 net.cpp:137] Memory required for data: 2139599200
I0112 10:07:33.497735 53784 layer_factory.hpp:77] Creating layer bn4
I0112 10:07:33.497756 53784 net.cpp:84] Creating Layer bn4
I0112 10:07:33.497766 53784 net.cpp:406] bn4 <- conv4
I0112 10:07:33.497789 53784 net.cpp:367] bn4 -> conv4 (in-place)
I0112 10:07:33.498034 53784 net.cpp:122] Setting up bn4
I0112 10:07:33.498049 53784 net.cpp:129] Top shape: 200 384 13 13 (12979200)
I0112 10:07:33.498054 53784 net.cpp:137] Memory required for data: 2191516000
I0112 10:07:33.498066 53784 layer_factory.hpp:77] Creating layer scale4
I0112 10:07:33.498077 53784 net.cpp:84] Creating Layer scale4
I0112 10:07:33.498133 53784 net.cpp:406] scale4 <- conv4
I0112 10:07:33.498152 53784 net.cpp:367] scale4 -> conv4 (in-place)
I0112 10:07:33.498219 53784 layer_factory.hpp:77] Creating layer scale4
I0112 10:07:33.498358 53784 net.cpp:122] Setting up scale4
I0112 10:07:33.498373 53784 net.cpp:129] Top shape: 200 384 13 13 (12979200)
I0112 10:07:33.498383 53784 net.cpp:137] Memory required for data: 2243432800
I0112 10:07:33.498394 53784 layer_factory.hpp:77] Creating layer relu4
I0112 10:07:33.498404 53784 net.cpp:84] Creating Layer relu4
I0112 10:07:33.498410 53784 net.cpp:406] relu4 <- conv4
I0112 10:07:33.498423 53784 net.cpp:367] relu4 -> conv4 (in-place)
I0112 10:07:33.498435 53784 net.cpp:122] Setting up relu4
I0112 10:07:33.498445 53784 net.cpp:129] Top shape: 200 384 13 13 (12979200)
I0112 10:07:33.498451 53784 net.cpp:137] Memory required for data: 2295349600
I0112 10:07:33.498456 53784 layer_factory.hpp:77] Creating layer quantized_conv1
I0112 10:07:33.498471 53784 net.cpp:84] Creating Layer quantized_conv1
I0112 10:07:33.498477 53784 net.cpp:406] quantized_conv1 <- conv4
I0112 10:07:33.498486 53784 net.cpp:367] quantized_conv1 -> conv4 (in-place)
I0112 10:07:33.498497 53784 net.cpp:122] Setting up quantized_conv1
I0112 10:07:33.498507 53784 net.cpp:129] Top shape: 200 384 13 13 (12979200)
I0112 10:07:33.498513 53784 net.cpp:137] Memory required for data: 2347266400
I0112 10:07:33.498520 53784 layer_factory.hpp:77] Creating layer conv5
I0112 10:07:33.498538 53784 net.cpp:84] Creating Layer conv5
I0112 10:07:33.498546 53784 net.cpp:406] conv5 <- conv4
I0112 10:07:33.498560 53784 net.cpp:380] conv5 -> conv5
ydwu=======get:
bit_width=8;  round_method=0;  round_strategy=1;  is_runtime=0;  range_low=-0.347658;  range_high=0.330042
I0112 10:07:33.514297 53784 net.cpp:122] Setting up conv5
I0112 10:07:33.514328 53784 net.cpp:129] Top shape: 200 256 13 13 (8652800)
I0112 10:07:33.514336 53784 net.cpp:137] Memory required for data: 2381877600
I0112 10:07:33.514353 53784 layer_factory.hpp:77] Creating layer bn5
I0112 10:07:33.514370 53784 net.cpp:84] Creating Layer bn5
I0112 10:07:33.514380 53784 net.cpp:406] bn5 <- conv5
I0112 10:07:33.514394 53784 net.cpp:367] bn5 -> conv5 (in-place)
I0112 10:07:33.514626 53784 net.cpp:122] Setting up bn5
I0112 10:07:33.514639 53784 net.cpp:129] Top shape: 200 256 13 13 (8652800)
I0112 10:07:33.514645 53784 net.cpp:137] Memory required for data: 2416488800
I0112 10:07:33.514672 53784 layer_factory.hpp:77] Creating layer scale5
I0112 10:07:33.514688 53784 net.cpp:84] Creating Layer scale5
I0112 10:07:33.514693 53784 net.cpp:406] scale5 <- conv5
I0112 10:07:33.514703 53784 net.cpp:367] scale5 -> conv5 (in-place)
I0112 10:07:33.514763 53784 layer_factory.hpp:77] Creating layer scale5
I0112 10:07:33.514897 53784 net.cpp:122] Setting up scale5
I0112 10:07:33.514911 53784 net.cpp:129] Top shape: 200 256 13 13 (8652800)
I0112 10:07:33.514917 53784 net.cpp:137] Memory required for data: 2451100000
I0112 10:07:33.514927 53784 layer_factory.hpp:77] Creating layer relu5
I0112 10:07:33.514941 53784 net.cpp:84] Creating Layer relu5
I0112 10:07:33.514950 53784 net.cpp:406] relu5 <- conv5
I0112 10:07:33.514957 53784 net.cpp:367] relu5 -> conv5 (in-place)
I0112 10:07:33.514968 53784 net.cpp:122] Setting up relu5
I0112 10:07:33.514977 53784 net.cpp:129] Top shape: 200 256 13 13 (8652800)
I0112 10:07:33.514986 53784 net.cpp:137] Memory required for data: 2485711200
I0112 10:07:33.514993 53784 layer_factory.hpp:77] Creating layer pool5
I0112 10:07:33.515007 53784 net.cpp:84] Creating Layer pool5
I0112 10:07:33.515017 53784 net.cpp:406] pool5 <- conv5
I0112 10:07:33.515027 53784 net.cpp:380] pool5 -> pool5
I0112 10:07:33.515079 53784 net.cpp:122] Setting up pool5
I0112 10:07:33.515092 53784 net.cpp:129] Top shape: 200 256 6 6 (1843200)
I0112 10:07:33.515100 53784 net.cpp:137] Memory required for data: 2493084000
I0112 10:07:33.515107 53784 layer_factory.hpp:77] Creating layer quantized_conv1
I0112 10:07:33.515120 53784 net.cpp:84] Creating Layer quantized_conv1
I0112 10:07:33.515127 53784 net.cpp:406] quantized_conv1 <- pool5
I0112 10:07:33.515141 53784 net.cpp:367] quantized_conv1 -> pool5 (in-place)
I0112 10:07:33.515153 53784 net.cpp:122] Setting up quantized_conv1
I0112 10:07:33.515208 53784 net.cpp:129] Top shape: 200 256 6 6 (1843200)
I0112 10:07:33.515215 53784 net.cpp:137] Memory required for data: 2500456800
I0112 10:07:33.515223 53784 layer_factory.hpp:77] Creating layer fc6
I0112 10:07:33.515236 53784 net.cpp:84] Creating Layer fc6
I0112 10:07:33.515244 53784 net.cpp:406] fc6 <- pool5
I0112 10:07:33.515254 53784 net.cpp:380] fc6 -> fc6
I0112 10:07:33.515274 53784 quan_inner_product_layer.cpp:21] 4096   4096
ydwu=======get:
bit_width=8;  round_method=0;  round_strategy=1;  is_runtime=0;  range_low=-0.160061;  range_high=0.148064
I0112 10:07:34.187881 53784 net.cpp:122] Setting up fc6
I0112 10:07:34.187921 53784 net.cpp:129] Top shape: 200 4096 (819200)
I0112 10:07:34.187927 53784 net.cpp:137] Memory required for data: 2503733600
I0112 10:07:34.187949 53784 layer_factory.hpp:77] Creating layer bn6
I0112 10:07:34.187973 53784 net.cpp:84] Creating Layer bn6
I0112 10:07:34.187981 53784 net.cpp:406] bn6 <- fc6
I0112 10:07:34.187996 53784 net.cpp:367] bn6 -> fc6 (in-place)
I0112 10:07:34.188218 53784 net.cpp:122] Setting up bn6
I0112 10:07:34.188232 53784 net.cpp:129] Top shape: 200 4096 (819200)
I0112 10:07:34.188244 53784 net.cpp:137] Memory required for data: 2507010400
I0112 10:07:34.188256 53784 layer_factory.hpp:77] Creating layer scale6
I0112 10:07:34.188277 53784 net.cpp:84] Creating Layer scale6
I0112 10:07:34.188285 53784 net.cpp:406] scale6 <- fc6
I0112 10:07:34.188293 53784 net.cpp:367] scale6 -> fc6 (in-place)
I0112 10:07:34.188356 53784 layer_factory.hpp:77] Creating layer scale6
I0112 10:07:34.188521 53784 net.cpp:122] Setting up scale6
I0112 10:07:34.188558 53784 net.cpp:129] Top shape: 200 4096 (819200)
I0112 10:07:34.188565 53784 net.cpp:137] Memory required for data: 2510287200
I0112 10:07:34.188576 53784 layer_factory.hpp:77] Creating layer relu6
I0112 10:07:34.188586 53784 net.cpp:84] Creating Layer relu6
I0112 10:07:34.188592 53784 net.cpp:406] relu6 <- fc6
I0112 10:07:34.188604 53784 net.cpp:367] relu6 -> fc6 (in-place)
I0112 10:07:34.188629 53784 net.cpp:122] Setting up relu6
I0112 10:07:34.188639 53784 net.cpp:129] Top shape: 200 4096 (819200)
I0112 10:07:34.188647 53784 net.cpp:137] Memory required for data: 2513564000
I0112 10:07:34.188653 53784 layer_factory.hpp:77] Creating layer drop6
I0112 10:07:34.188664 53784 net.cpp:84] Creating Layer drop6
I0112 10:07:34.188671 53784 net.cpp:406] drop6 <- fc6
I0112 10:07:34.188694 53784 net.cpp:367] drop6 -> fc6 (in-place)
I0112 10:07:34.188738 53784 net.cpp:122] Setting up drop6
I0112 10:07:34.188766 53784 net.cpp:129] Top shape: 200 4096 (819200)
I0112 10:07:34.188774 53784 net.cpp:137] Memory required for data: 2516840800
I0112 10:07:34.188781 53784 layer_factory.hpp:77] Creating layer quantized_conv1
I0112 10:07:34.188793 53784 net.cpp:84] Creating Layer quantized_conv1
I0112 10:07:34.188801 53784 net.cpp:406] quantized_conv1 <- fc6
I0112 10:07:34.188825 53784 net.cpp:367] quantized_conv1 -> fc6 (in-place)
I0112 10:07:34.188838 53784 net.cpp:122] Setting up quantized_conv1
I0112 10:07:34.188846 53784 net.cpp:129] Top shape: 200 4096 (819200)
I0112 10:07:34.188853 53784 net.cpp:137] Memory required for data: 2520117600
I0112 10:07:34.188860 53784 layer_factory.hpp:77] Creating layer fc7
I0112 10:07:34.188871 53784 net.cpp:84] Creating Layer fc7
I0112 10:07:34.188894 53784 net.cpp:406] fc7 <- fc6
I0112 10:07:34.188907 53784 net.cpp:380] fc7 -> fc7
I0112 10:07:34.188921 53784 quan_inner_product_layer.cpp:21] 4096   4096
ydwu=======get:
bit_width=8;  round_method=0;  round_strategy=1;  is_runtime=0;  range_low=-0.162636;  range_high=0.197684
I0112 10:07:34.474953 53784 net.cpp:122] Setting up fc7
I0112 10:07:34.475006 53784 net.cpp:129] Top shape: 200 4096 (819200)
I0112 10:07:34.475013 53784 net.cpp:137] Memory required for data: 2523394400
I0112 10:07:34.475037 53784 layer_factory.hpp:77] Creating layer bn7
I0112 10:07:34.475057 53784 net.cpp:84] Creating Layer bn7
I0112 10:07:34.475067 53784 net.cpp:406] bn7 <- fc7
I0112 10:07:34.475080 53784 net.cpp:367] bn7 -> fc7 (in-place)
I0112 10:07:34.475314 53784 net.cpp:122] Setting up bn7
I0112 10:07:34.475328 53784 net.cpp:129] Top shape: 200 4096 (819200)
I0112 10:07:34.475340 53784 net.cpp:137] Memory required for data: 2526671200
I0112 10:07:34.475352 53784 layer_factory.hpp:77] Creating layer scale7
I0112 10:07:34.475414 53784 net.cpp:84] Creating Layer scale7
I0112 10:07:34.475420 53784 net.cpp:406] scale7 <- fc7
I0112 10:07:34.475427 53784 net.cpp:367] scale7 -> fc7 (in-place)
I0112 10:07:34.475487 53784 layer_factory.hpp:77] Creating layer scale7
I0112 10:07:34.475622 53784 net.cpp:122] Setting up scale7
I0112 10:07:34.475636 53784 net.cpp:129] Top shape: 200 4096 (819200)
I0112 10:07:34.475651 53784 net.cpp:137] Memory required for data: 2529948000
I0112 10:07:34.475661 53784 layer_factory.hpp:77] Creating layer relu7
I0112 10:07:34.475672 53784 net.cpp:84] Creating Layer relu7
I0112 10:07:34.475680 53784 net.cpp:406] relu7 <- fc7
I0112 10:07:34.475689 53784 net.cpp:367] relu7 -> fc7 (in-place)
I0112 10:07:34.475700 53784 net.cpp:122] Setting up relu7
I0112 10:07:34.475708 53784 net.cpp:129] Top shape: 200 4096 (819200)
I0112 10:07:34.475715 53784 net.cpp:137] Memory required for data: 2533224800
I0112 10:07:34.475723 53784 layer_factory.hpp:77] Creating layer drop7
I0112 10:07:34.475734 53784 net.cpp:84] Creating Layer drop7
I0112 10:07:34.475741 53784 net.cpp:406] drop7 <- fc7
I0112 10:07:34.475749 53784 net.cpp:367] drop7 -> fc7 (in-place)
I0112 10:07:34.475782 53784 net.cpp:122] Setting up drop7
I0112 10:07:34.475795 53784 net.cpp:129] Top shape: 200 4096 (819200)
I0112 10:07:34.475801 53784 net.cpp:137] Memory required for data: 2536501600
I0112 10:07:34.475808 53784 layer_factory.hpp:77] Creating layer quantized_conv1
I0112 10:07:34.475821 53784 net.cpp:84] Creating Layer quantized_conv1
I0112 10:07:34.475828 53784 net.cpp:406] quantized_conv1 <- fc7
I0112 10:07:34.475837 53784 net.cpp:367] quantized_conv1 -> fc7 (in-place)
I0112 10:07:34.475848 53784 net.cpp:122] Setting up quantized_conv1
I0112 10:07:34.475857 53784 net.cpp:129] Top shape: 200 4096 (819200)
I0112 10:07:34.475863 53784 net.cpp:137] Memory required for data: 2539778400
I0112 10:07:34.475870 53784 layer_factory.hpp:77] Creating layer fc8
I0112 10:07:34.475883 53784 net.cpp:84] Creating Layer fc8
I0112 10:07:34.475889 53784 net.cpp:406] fc8 <- fc7
I0112 10:07:34.475903 53784 net.cpp:380] fc8 -> fc8
I0112 10:07:34.475914 53784 quan_inner_product_layer.cpp:21] 1000   1000
ydwu=======get:
bit_width=8;  round_method=0;  round_strategy=1;  is_runtime=0;  range_low=-0.141857;  range_high=0.274249
I0112 10:07:34.545236 53784 net.cpp:122] Setting up fc8
I0112 10:07:34.545284 53784 net.cpp:129] Top shape: 200 1000 (200000)
I0112 10:07:34.545291 53784 net.cpp:137] Memory required for data: 2540578400
I0112 10:07:34.545310 53784 layer_factory.hpp:77] Creating layer fc8_fc8_0_split
I0112 10:07:34.545327 53784 net.cpp:84] Creating Layer fc8_fc8_0_split
I0112 10:07:34.545336 53784 net.cpp:406] fc8_fc8_0_split <- fc8
I0112 10:07:34.545351 53784 net.cpp:380] fc8_fc8_0_split -> fc8_fc8_0_split_0
I0112 10:07:34.545367 53784 net.cpp:380] fc8_fc8_0_split -> fc8_fc8_0_split_1
I0112 10:07:34.545433 53784 net.cpp:122] Setting up fc8_fc8_0_split
I0112 10:07:34.545445 53784 net.cpp:129] Top shape: 200 1000 (200000)
I0112 10:07:34.545454 53784 net.cpp:129] Top shape: 200 1000 (200000)
I0112 10:07:34.545461 53784 net.cpp:137] Memory required for data: 2542178400
I0112 10:07:34.545469 53784 layer_factory.hpp:77] Creating layer accuracy_5_TRAIN
I0112 10:07:34.545490 53784 net.cpp:84] Creating Layer accuracy_5_TRAIN
I0112 10:07:34.545498 53784 net.cpp:406] accuracy_5_TRAIN <- fc8_fc8_0_split_0
I0112 10:07:34.545507 53784 net.cpp:406] accuracy_5_TRAIN <- label_data_1_split_0
…
I0112 10:07:34.548646 53784 net.cpp:294] The NetState phase (1) differed from the phase (0) specified by a rule in layer accuracy_5_TRAIN
I0112 10:07:34.548995 53784 net.cpp:51] Initializing net from parameters: 
name: "AlexNet-BN"
state {
  phase: TEST
}
layer {
  name: "data"
  type: "Data"
  top: "data"
  top: "label"
  include {
    phase: TEST
  }
  transform_param {
    mirror: false
    crop_size: 224
    mean_value: 103.939
    mean_value: 116.779
    mean_value: 123.68
  }
  data_param {
    source: "/home/DATA/imagenet_resize/lmdb_resize/ilsvrc12_val_lmdb"
    batch_size: 200
    backend: LMDB
  }
}
layer {
  name: "conv1"
  type: "QuanConvolution"
  bottom: "data"
  top: "conv1"
  param {
    lr_mult: 1
    decay_mult: 1
  }
  param {
    lr_mult: 2
    decay_mult: 0
  }
  quan_convolution_param {
    num_output: 96
    pad: 2
    kernel_size: 11
    stride: 4
    weight_filler {
      type: "gaussian"
      std: 0.01
    }
    bias_filler {
      type: "constant"
      value: 0
    }
    round_method: ROUND
    round_strategy: NEUTRAL
    bit_width: 8
    range_low: -0.872089
    range_high: 0.927025
  }
}
layer {
  name: "bn1"
  type: "BatchNorm"
  bottom: "conv1"
  top: "conv1"
}
layer {
  name: "scale1"
  type: "Scale"
  bottom: "conv1"
  top: "conv1"
  scale_param {
    bias_term: true
  }
}
layer {
  name: "relu1"
  type: "ReLU"
  bottom: "conv1"
  top: "conv1"
}
layer {
  name: "pool1"
  type: "Pooling"
  bottom: "conv1"
  top: "pool1"
  pooling_param {
    pool: MAX
    kernel_size: 3
    stride: 2
  }
}
layer {
  name: "quantized_conv1"
  type: "Quantization"
  bottom: "pool1"
  top: "pool1"
  quantization_param {
    round_method: ROUND
    round_strategy: AGGRESSIVE
    bit_width: 4
    range: 0
    range: 13.965383
  }
}
layer {
  name: "conv2"
  type: "QuanConvolution"
  bottom: "pool1"
  top: "conv2"
  param {
    lr_mult: 1
    decay_mult: 1
  }
  param {
    lr_mult: 2
    decay_mult: 0
  }
  quan_convolution_param {
    num_output: 256
    pad: 2
    kernel_size: 5
    weight_filler {
      type: "gaussian"
      std: 0.01
    }
    bias_filler {
      type: "constant"
      value: 0.1
    }
    round_method: ROUND
    round_strategy: NEUTRAL
    bit_width: 8
    range_low: -0.806018
    range_high: 1.5182
  }
}
layer {
  name: "bn2"
  type: "BatchNorm"
  bottom: "conv2"
  top: "conv2"
}
layer {
  name: "scale2"
  type: "Scale"
  bottom: "conv2"
  top: "conv2"
  scale_param {
    bias_term: true
  }
}
layer {
  name: "relu2"
  type: "ReLU"
  bottom: "conv2"
  top: "conv2"
}
layer {
  name: "pool2"
  type: "Pooling"
  bottom: "conv2"
  top: "pool2"
  pooling_param {
    pool: MAX
    kernel_size: 3
    stride: 2
  }
}
layer {
  name: "quantized_conv1"
  type: "Quantization"
  bottom: "pool2"
  top: "pool2"
  quantization_param {
    round_method: ROUND
    round_strategy: AGGRESSIVE
    bit_width: 4
    range: 0
    range: 6.74956
  }
}
layer {
  name: "conv3"
  type: "QuanConvolution"
  bottom: "pool2"
  top: "conv3"
  param {
    lr_mult: 1
    decay_mult: 1
  }
  param {
    lr_mult: 2
    decay_mult: 0
  }
  quan_convolution_param {
    num_output: 384
    pad: 1
    kernel_size: 3
    weight_filler {
      type: "gaussian"
      std: 0.01
    }
    bias_filler {
      type: "constant"
      value: 0
    }
    round_method: ROUND
    round_strategy: NEUTRAL
    bit_width: 8
    range_low: -0.621858
    range_high: 0.673858
  }
}
layer {
  name: "bn3"
  type: "BatchNorm"
  bottom: "conv3"
  top: "conv3"
}
layer {
  name: "scale3"
  type: "Scale"
  bottom: "conv3"
  top: "conv3"
  scale_param {
    bias_term: true
  }
}
layer {
  name: "relu3"
  type: "ReLU"
  bottom: "conv3"
  top: "conv3"
}
layer {
  name: "quantized_conv1"
  type: "Quantization"
  bottom: "conv3"
  top: "conv3"
  quantization_param {
    round_method: ROUND
    round_strategy: AGGRESSIVE
    bit_width: 4
    range: 0
    range: 8.48454
  }
}
layer {
  name: "conv4"
  type: "QuanConvolution"
  bottom: "conv3"
  top: "conv4"
  param {
    lr_mult: 1
    decay_mult: 1
  }
  param {
    lr_mult: 2
    decay_mult: 0
  }
  quan_convolution_param {
    num_output: 384
    pad: 1
    kernel_size: 3
    weight_filler {
      type: "gaussian"
      std: 0.01
    }
    bias_filler {
      type: "constant"
      value: 0.1
    }
    round_method: ROUND
    round_strategy: NEUTRAL
    bit_width: 8
    range_low: -0.376634
    range_high: 0.341829
  }
}
layer {
  name: "bn4"
  type: "BatchNorm"
  bottom: "conv4"
  top: "conv4"
}
layer {
  name: "scale4"
  type: "Scale"
  bottom: "conv4"
  top: "conv4"
  scale_param {
    bias_term: true
  }
}
layer {
  name: "relu4"
  type: "ReLU"
  bottom: "conv4"
  top: "conv4"
}
layer {
  name: "quantized_conv1"
  type: "Quantization"
  bottom: "conv4"
  top: "conv4"
  quantization_param {
    round_method: ROUND
    round_strategy: AGGRESSIVE
    bit_width: 4
    range: 0
    range: 7.3369722
  }
}
layer {
  name: "conv5"
  type: "QuanConvolution"
  bottom: "conv4"
  top: "conv5"
  param {
    lr_mult: 1
    decay_mult: 1
  }
  param {
    lr_mult: 2
    decay_mult: 0
  }
  quan_convolution_param {
    num_output: 256
    pad: 1
    kernel_size: 3
    weight_filler {
      type: "gaussian"
      std: 0.01
    }
    bias_filler {
      type: "constant"
      value: 0.1
    }
    round_method: ROUND
    round_strategy: NEUTRAL
    bit_width: 8
    range_low: -0.347658
    range_high: 0.330042
  }
}
layer {
  name: "bn5"
  type: "BatchNorm"
  bottom: "conv5"
  top: "conv5"
}
layer {
  name: "scale5"
  type: "Scale"
  bottom: "conv5"
  top: "conv5"
  scale_param {
    bias_term: true
  }
}
layer {
  name: "relu5"
  type: "ReLU"
  bottom: "conv5"
  top: "conv5"
}
layer {
  name: "pool5"
  type: "Pooling"
  bottom: "conv5"
  top: "pool5"
  pooling_param {
    pool: MAX
    kernel_size: 3
    stride: 2
  }
}
layer {
  name: "quantized_conv1"
  type: "Quantization"
  bottom: "pool5"
  top: "pool5"
  quantization_param {
    round_method: ROUND
    round_strategy: AGGRESSIVE
    bit_width: 4
    range: 0
    range: 8.7577133
  }
}
layer {
  name: "fc6"
  type: "QuanInnerProduct"
  bottom: "pool5"
  top: "fc6"
  param {
    lr_mult: 1
    decay_mult: 1
  }
  param {
    lr_mult: 2
    decay_mult: 0
  }
  quan_inner_product_param {
    num_output: 4096
    weight_filler {
      type: "gaussian"
      std: 0.005
    }
    bias_filler {
      type: "constant"
      value: 0.1
    }
    round_method: ROUND
    round_strategy: NEUTRAL
    bit_width: 8
    range_low: -0.160061
    range_high: 0.148064
  }
}
layer {
  name: "bn6"
  type: "BatchNorm"
  bottom: "fc6"
  top: "fc6"
}
layer {
  name: "scale6"
  type: "Scale"
  bottom: "fc6"
  top: "fc6"
  scale_param {
    bias_term: true
  }
}
layer {
  name: "relu6"
  type: "ReLU"
  bottom: "fc6"
  top: "fc6"
}
layer {
  name: "drop6"
  type: "Dropout"
  bottom: "fc6"
  top: "fc6"
  dropout_param {
    dropout_ratio: 0.5
  }
}
layer {
  name: "quantized_conv1"
  type: "Quantization"
  bottom: "fc6"
  top: "fc6"
  quantization_param {
    round_method: ROUND
    round_strategy: AGGRESSIVE
    bit_width: 4
    range: 0
    range: 1.659358
  }
}
layer {
  name: "fc7"
  type: "QuanInnerProduct"
  bottom: "fc6"
  top: "fc7"
  param {
    lr_mult: 1
    decay_mult: 1
  }
  param {
    lr_mult: 2
    decay_mult: 0
  }
  quan_inner_product_param {
    num_output: 4096
    weight_filler {
      type: "gaussian"
      std: 0.005
    }
    bias_filler {
      type: "constant"
      value: 0.1
    }
    round_method: ROUND
    round_strategy: NEUTRAL
    bit_width: 8
    range_low: -0.162636
    range_high: 0.197684
  }
}
layer {
  name: "bn7"
  type: "BatchNorm"
  bottom: "fc7"
  top: "fc7"
}
layer {
  name: "scale7"
  type: "Scale"
  bottom: "fc7"
  top: "fc7"
  scale_param {
    bias_term: true
  }
}
layer {
  name: "relu7"
  type: "ReLU"
  bottom: "fc7"
  top: "fc7"
}
layer {
  name: "drop7"
  type: "Dropout"
  bottom: "fc7"
  top: "fc7"
  dropout_param {
    dropout_ratio: 0.5
  }
}
layer {
  name: "quantized_conv1"
  type: "Quantization"
  bottom: "fc7"
  top: "fc7"
  quantization_param {
    round_method: ROUND
    round_strategy: AGGRESSIVE
    bit_width: 4
    range: 0
    range: 7.5598521
  }
}
layer {
  name: "fc8"
  type: "QuanInnerProduct"
  bottom: "fc7"
  top: "fc8"
  param {
    lr_mult: 1
    decay_mult: 1
  }
  param {
    lr_mult: 2
    decay_mult: 0
  }
  quan_inner_product_param {
    num_output: 1000
    weight_filler {
      type: "gaussian"
      std: 0.01
    }
    bias_filler {
      type: "constant"
      value: 0
    }
    round_method: ROUND
    round_strategy: NEUTRAL
    bit_width: 8
    range_low: -0.141857
    range_high: 0.274249
  }
}
layer {
  name: "accuracy"
  type: "Accuracy"
  bottom: "fc8"
  bottom: "label"
  top: "accuracy"
  include {
    phase: TEST
  }
}
layer {
  name: "accuracy_5"
  type: "Accuracy"
  bottom: "fc8"
  bottom: "label"
  top: "accuracy_5"
  include {
    phase: TEST
  }
  accuracy_param {
    top_k: 5
  }
}
layer {
  name: "loss"
  type: "SoftmaxWithLoss"
  bottom: "fc8"
  bottom: "label"
  top: "loss"
}
I0112 10:07:34.549237 53784 layer_factory.hpp:77] Creating layer data
I0112 10:07:34.549355 53784 db_lmdb.cpp:35] Opened lmdb /home/DATA/imagenet_resize/lmdb_resize/ilsvrc12_val_lmdb
I0112 10:07:34.549418 53784 net.cpp:84] Creating Layer data
I0112 10:07:34.549434 53784 net.cpp:380] data -> data
I0112 10:07:34.549448 53784 net.cpp:380] data -> label
I0112 10:07:34.549911 53784 data_layer.cpp:45] output data size: 200,3,224,224
I0112 10:07:34.988732 53784 net.cpp:122] Setting up data
I0112 10:07:34.988818 53784 net.cpp:129] Top shape: 200 3 224 224 (30105600)
I0112 10:07:34.988847 53784 net.cpp:129] Top shape: 200 (200)
I0112 10:07:34.988865 53784 net.cpp:137] Memory required for data: 120423200
I0112 10:07:34.988876 53784 layer_factory.hpp:77] Creating layer label_data_1_split
I0112 10:07:34.988915 53784 net.cpp:84] Creating Layer label_data_1_split
I0112 10:07:34.988929 53784 net.cpp:406] label_data_1_split <- label
I0112 10:07:34.988943 53784 net.cpp:380] label_data_1_split -> label_data_1_split_0
I0112 10:07:34.988962 53784 net.cpp:380] label_data_1_split -> label_data_1_split_1
I0112 10:07:34.988975 53784 net.cpp:380] label_data_1_split -> label_data_1_split_2
I0112 10:07:34.989076 53784 net.cpp:122] Setting up label_data_1_split
I0112 10:07:34.989091 53784 net.cpp:129] Top shape: 200 (200)
I0112 10:07:34.989099 53784 net.cpp:129] Top shape: 200 (200)
I0112 10:07:34.989107 53784 net.cpp:129] Top shape: 200 (200)
I0112 10:07:34.989114 53784 net.cpp:137] Memory required for data: 120425600
I0112 10:07:34.989122 53784 layer_factory.hpp:77] Creating layer conv1
I0112 10:07:34.989147 53784 net.cpp:84] Creating Layer conv1
I0112 10:07:34.989156 53784 net.cpp:406] conv1 <- data
I0112 10:07:34.989168 53784 net.cpp:380] conv1 -> conv1
ydwu=======get:
bit_width=8;  round_method=0;  round_strategy=1;  is_runtime=0;  range_low=-0.872089;  range_high=0.927025
I0112 10:07:34.990046 53784 net.cpp:122] Setting up conv1
I0112 10:07:34.990062 53784 net.cpp:129] Top shape: 200 96 55 55 (58080000)
I0112 10:07:34.990069 53784 net.cpp:137] Memory required for data: 352745600
I0112 10:07:34.990101 53784 layer_factory.hpp:77] Creating layer bn1
I0112 10:07:34.990115 53784 net.cpp:84] Creating Layer bn1
I0112 10:07:34.990123 53784 net.cpp:406] bn1 <- conv1
I0112 10:07:34.990133 53784 net.cpp:367] bn1 -> conv1 (in-place)
I0112 10:07:34.990423 53784 net.cpp:122] Setting up bn1
I0112 10:07:34.990439 53784 net.cpp:129] Top shape: 200 96 55 55 (58080000)
I0112 10:07:34.990447 53784 net.cpp:137] Memory required for data: 585065600
I0112 10:07:34.990465 53784 layer_factory.hpp:77] Creating layer scale1
I0112 10:07:34.990480 53784 net.cpp:84] Creating Layer scale1
I0112 10:07:34.990487 53784 net.cpp:406] scale1 <- conv1
I0112 10:07:34.990497 53784 net.cpp:367] scale1 -> conv1 (in-place)
I0112 10:07:34.990552 53784 layer_factory.hpp:77] Creating layer scale1
I0112 10:07:35.009186 53784 net.cpp:122] Setting up scale1
I0112 10:07:35.009213 53784 net.cpp:129] Top shape: 200 96 55 55 (58080000)
I0112 10:07:35.009222 53784 net.cpp:137] Memory required for data: 817385600
I0112 10:07:35.009234 53784 layer_factory.hpp:77] Creating layer relu1
I0112 10:07:35.009290 53784 net.cpp:84] Creating Layer relu1
I0112 10:07:35.009299 53784 net.cpp:406] relu1 <- conv1
I0112 10:07:35.009308 53784 net.cpp:367] relu1 -> conv1 (in-place)
I0112 10:07:35.009325 53784 net.cpp:122] Setting up relu1
I0112 10:07:35.009332 53784 net.cpp:129] Top shape: 200 96 55 55 (58080000)
I0112 10:07:35.009337 53784 net.cpp:137] Memory required for data: 1049705600
I0112 10:07:35.009342 53784 layer_factory.hpp:77] Creating layer pool1
I0112 10:07:35.009352 53784 net.cpp:84] Creating Layer pool1
I0112 10:07:35.009357 53784 net.cpp:406] pool1 <- conv1
I0112 10:07:35.009366 53784 net.cpp:380] pool1 -> pool1
I0112 10:07:35.009423 53784 net.cpp:122] Setting up pool1
I0112 10:07:35.009445 53784 net.cpp:129] Top shape: 200 96 27 27 (13996800)
I0112 10:07:35.009450 53784 net.cpp:137] Memory required for data: 1105692800
I0112 10:07:35.009455 53784 layer_factory.hpp:77] Creating layer quantized_conv1
I0112 10:07:35.009466 53784 net.cpp:84] Creating Layer quantized_conv1
I0112 10:07:35.009471 53784 net.cpp:406] quantized_conv1 <- pool1
I0112 10:07:35.009479 53784 net.cpp:367] quantized_conv1 -> pool1 (in-place)
I0112 10:07:35.009490 53784 net.cpp:122] Setting up quantized_conv1
I0112 10:07:35.009496 53784 net.cpp:129] Top shape: 200 96 27 27 (13996800)
I0112 10:07:35.009505 53784 net.cpp:137] Memory required for data: 1161680000
I0112 10:07:35.009511 53784 layer_factory.hpp:77] Creating layer conv2
I0112 10:07:35.009526 53784 net.cpp:84] Creating Layer conv2
I0112 10:07:35.009533 53784 net.cpp:406] conv2 <- pool1
I0112 10:07:35.009542 53784 net.cpp:380] conv2 -> conv2
ydwu=======get:
bit_width=8;  round_method=0;  round_strategy=1;  is_runtime=0;  range_low=-0.806018;  range_high=1.5182
I0112 10:07:35.019964 53784 net.cpp:122] Setting up conv2
I0112 10:07:35.020004 53784 net.cpp:129] Top shape: 200 256 27 27 (37324800)
I0112 10:07:35.020009 53784 net.cpp:137] Memory required for data: 1310979200
I0112 10:07:35.020030 53784 layer_factory.hpp:77] Creating layer bn2
I0112 10:07:35.020046 53784 net.cpp:84] Creating Layer bn2
I0112 10:07:35.020053 53784 net.cpp:406] bn2 <- conv2
I0112 10:07:35.020071 53784 net.cpp:367] bn2 -> conv2 (in-place)
I0112 10:07:35.020293 53784 net.cpp:122] Setting up bn2
I0112 10:07:35.020308 53784 net.cpp:129] Top shape: 200 256 27 27 (37324800)
I0112 10:07:35.020320 53784 net.cpp:137] Memory required for data: 1460278400
I0112 10:07:35.020331 53784 layer_factory.hpp:77] Creating layer scale2
I0112 10:07:35.020344 53784 net.cpp:84] Creating Layer scale2
I0112 10:07:35.020350 53784 net.cpp:406] scale2 <- conv2
I0112 10:07:35.020359 53784 net.cpp:367] scale2 -> conv2 (in-place)
I0112 10:07:35.020418 53784 layer_factory.hpp:77] Creating layer scale2
I0112 10:07:35.020550 53784 net.cpp:122] Setting up scale2
I0112 10:07:35.020562 53784 net.cpp:129] Top shape: 200 256 27 27 (37324800)
I0112 10:07:35.020570 53784 net.cpp:137] Memory required for data: 1609577600
I0112 10:07:35.020578 53784 layer_factory.hpp:77] Creating layer relu2
I0112 10:07:35.020591 53784 net.cpp:84] Creating Layer relu2
I0112 10:07:35.020598 53784 net.cpp:406] relu2 <- conv2
I0112 10:07:35.020608 53784 net.cpp:367] relu2 -> conv2 (in-place)
I0112 10:07:35.020618 53784 net.cpp:122] Setting up relu2
I0112 10:07:35.020627 53784 net.cpp:129] Top shape: 200 256 27 27 (37324800)
I0112 10:07:35.020633 53784 net.cpp:137] Memory required for data: 1758876800
I0112 10:07:35.020640 53784 layer_factory.hpp:77] Creating layer pool2
I0112 10:07:35.020651 53784 net.cpp:84] Creating Layer pool2
I0112 10:07:35.020658 53784 net.cpp:406] pool2 <- conv2
I0112 10:07:35.020669 53784 net.cpp:380] pool2 -> pool2
I0112 10:07:35.020722 53784 net.cpp:122] Setting up pool2
I0112 10:07:35.020735 53784 net.cpp:129] Top shape: 200 256 13 13 (8652800)
I0112 10:07:35.020743 53784 net.cpp:137] Memory required for data: 1793488000
I0112 10:07:35.020750 53784 layer_factory.hpp:77] Creating layer quantized_conv1
I0112 10:07:35.020763 53784 net.cpp:84] Creating Layer quantized_conv1
I0112 10:07:35.020771 53784 net.cpp:406] quantized_conv1 <- pool2
I0112 10:07:35.020781 53784 net.cpp:367] quantized_conv1 -> pool2 (in-place)
I0112 10:07:35.020792 53784 net.cpp:122] Setting up quantized_conv1
I0112 10:07:35.020840 53784 net.cpp:129] Top shape: 200 256 13 13 (8652800)
I0112 10:07:35.020848 53784 net.cpp:137] Memory required for data: 1828099200
I0112 10:07:35.020855 53784 layer_factory.hpp:77] Creating layer conv3
I0112 10:07:35.020869 53784 net.cpp:84] Creating Layer conv3
I0112 10:07:35.020877 53784 net.cpp:406] conv3 <- pool2
I0112 10:07:35.020889 53784 net.cpp:380] conv3 -> conv3
ydwu=======get:
bit_width=8;  round_method=0;  round_strategy=1;  is_runtime=0;  range_low=-0.621858;  range_high=0.673858
I0112 10:07:35.035501 53784 net.cpp:122] Setting up conv3
I0112 10:07:35.035532 53784 net.cpp:129] Top shape: 200 384 13 13 (12979200)
I0112 10:07:35.035539 53784 net.cpp:137] Memory required for data: 1880016000
I0112 10:07:35.035555 53784 layer_factory.hpp:77] Creating layer bn3
I0112 10:07:35.035573 53784 net.cpp:84] Creating Layer bn3
I0112 10:07:35.035583 53784 net.cpp:406] bn3 <- conv3
I0112 10:07:35.035595 53784 net.cpp:367] bn3 -> conv3 (in-place)
I0112 10:07:35.035806 53784 net.cpp:122] Setting up bn3
I0112 10:07:35.035820 53784 net.cpp:129] Top shape: 200 384 13 13 (12979200)
I0112 10:07:35.035827 53784 net.cpp:137] Memory required for data: 1931932800
I0112 10:07:35.035848 53784 layer_factory.hpp:77] Creating layer scale3
I0112 10:07:35.035866 53784 net.cpp:84] Creating Layer scale3
I0112 10:07:35.035873 53784 net.cpp:406] scale3 <- conv3
I0112 10:07:35.035883 53784 net.cpp:367] scale3 -> conv3 (in-place)
I0112 10:07:35.035941 53784 layer_factory.hpp:77] Creating layer scale3
I0112 10:07:35.036073 53784 net.cpp:122] Setting up scale3
I0112 10:07:35.036087 53784 net.cpp:129] Top shape: 200 384 13 13 (12979200)
I0112 10:07:35.036093 53784 net.cpp:137] Memory required for data: 1983849600
I0112 10:07:35.036104 53784 layer_factory.hpp:77] Creating layer relu3
I0112 10:07:35.036115 53784 net.cpp:84] Creating Layer relu3
I0112 10:07:35.036123 53784 net.cpp:406] relu3 <- conv3
I0112 10:07:35.036132 53784 net.cpp:367] relu3 -> conv3 (in-place)
I0112 10:07:35.036144 53784 net.cpp:122] Setting up relu3
I0112 10:07:35.036152 53784 net.cpp:129] Top shape: 200 384 13 13 (12979200)
I0112 10:07:35.036159 53784 net.cpp:137] Memory required for data: 2035766400
I0112 10:07:35.036166 53784 layer_factory.hpp:77] Creating layer quantized_conv1
I0112 10:07:35.036178 53784 net.cpp:84] Creating Layer quantized_conv1
I0112 10:07:35.036185 53784 net.cpp:406] quantized_conv1 <- conv3
I0112 10:07:35.036195 53784 net.cpp:367] quantized_conv1 -> conv3 (in-place)
I0112 10:07:35.036206 53784 net.cpp:122] Setting up quantized_conv1
I0112 10:07:35.036214 53784 net.cpp:129] Top shape: 200 384 13 13 (12979200)
I0112 10:07:35.036221 53784 net.cpp:137] Memory required for data: 2087683200
I0112 10:07:35.036228 53784 layer_factory.hpp:77] Creating layer conv4
I0112 10:07:35.036244 53784 net.cpp:84] Creating Layer conv4
I0112 10:07:35.036252 53784 net.cpp:406] conv4 <- conv3
I0112 10:07:35.036264 53784 net.cpp:380] conv4 -> conv4
ydwu=======get:
bit_width=8;  round_method=0;  round_strategy=1;  is_runtime=0;  range_low=-0.376634;  range_high=0.341829
I0112 10:07:35.058001 53784 net.cpp:122] Setting up conv4
I0112 10:07:35.058034 53784 net.cpp:129] Top shape: 200 384 13 13 (12979200)
I0112 10:07:35.058043 53784 net.cpp:137] Memory required for data: 2139600000
I0112 10:07:35.058058 53784 layer_factory.hpp:77] Creating layer bn4
I0112 10:07:35.058076 53784 net.cpp:84] Creating Layer bn4
I0112 10:07:35.058086 53784 net.cpp:406] bn4 <- conv4
I0112 10:07:35.058099 53784 net.cpp:367] bn4 -> conv4 (in-place)
I0112 10:07:35.058322 53784 net.cpp:122] Setting up bn4
I0112 10:07:35.058336 53784 net.cpp:129] Top shape: 200 384 13 13 (12979200)
I0112 10:07:35.058341 53784 net.cpp:137] Memory required for data: 2191516800
I0112 10:07:35.058352 53784 layer_factory.hpp:77] Creating layer scale4
I0112 10:07:35.058363 53784 net.cpp:84] Creating Layer scale4
I0112 10:07:35.058370 53784 net.cpp:406] scale4 <- conv4
I0112 10:07:35.058388 53784 net.cpp:367] scale4 -> conv4 (in-place)
I0112 10:07:35.058445 53784 layer_factory.hpp:77] Creating layer scale4
I0112 10:07:35.058583 53784 net.cpp:122] Setting up scale4
I0112 10:07:35.058598 53784 net.cpp:129] Top shape: 200 384 13 13 (12979200)
I0112 10:07:35.058604 53784 net.cpp:137] Memory required for data: 2243433600
I0112 10:07:35.058614 53784 layer_factory.hpp:77] Creating layer relu4
I0112 10:07:35.058668 53784 net.cpp:84] Creating Layer relu4
I0112 10:07:35.058676 53784 net.cpp:406] relu4 <- conv4
I0112 10:07:35.058686 53784 net.cpp:367] relu4 -> conv4 (in-place)
I0112 10:07:35.058696 53784 net.cpp:122] Setting up relu4
I0112 10:07:35.058704 53784 net.cpp:129] Top shape: 200 384 13 13 (12979200)
I0112 10:07:35.058712 53784 net.cpp:137] Memory required for data: 2295350400
I0112 10:07:35.058717 53784 layer_factory.hpp:77] Creating layer quantized_conv1
I0112 10:07:35.058729 53784 net.cpp:84] Creating Layer quantized_conv1
I0112 10:07:35.058737 53784 net.cpp:406] quantized_conv1 <- conv4
I0112 10:07:35.058748 53784 net.cpp:367] quantized_conv1 -> conv4 (in-place)
I0112 10:07:35.058759 53784 net.cpp:122] Setting up quantized_conv1
I0112 10:07:35.058768 53784 net.cpp:129] Top shape: 200 384 13 13 (12979200)
I0112 10:07:35.058774 53784 net.cpp:137] Memory required for data: 2347267200
I0112 10:07:35.058781 53784 layer_factory.hpp:77] Creating layer conv5
I0112 10:07:35.058799 53784 net.cpp:84] Creating Layer conv5
I0112 10:07:35.058806 53784 net.cpp:406] conv5 <- conv4
I0112 10:07:35.058820 53784 net.cpp:380] conv5 -> conv5
ydwu=======get:
bit_width=8;  round_method=0;  round_strategy=1;  is_runtime=0;  range_low=-0.347658;  range_high=0.330042
I0112 10:07:35.073493 53784 net.cpp:122] Setting up conv5
I0112 10:07:35.073524 53784 net.cpp:129] Top shape: 200 256 13 13 (8652800)
I0112 10:07:35.073530 53784 net.cpp:137] Memory required for data: 2381878400
I0112 10:07:35.073546 53784 layer_factory.hpp:77] Creating layer bn5
I0112 10:07:35.073566 53784 net.cpp:84] Creating Layer bn5
I0112 10:07:35.073575 53784 net.cpp:406] bn5 <- conv5
I0112 10:07:35.073590 53784 net.cpp:367] bn5 -> conv5 (in-place)
I0112 10:07:35.073824 53784 net.cpp:122] Setting up bn5
I0112 10:07:35.073837 53784 net.cpp:129] Top shape: 200 256 13 13 (8652800)
I0112 10:07:35.073843 53784 net.cpp:137] Memory required for data: 2416489600
I0112 10:07:35.073879 53784 layer_factory.hpp:77] Creating layer scale5
I0112 10:07:35.073894 53784 net.cpp:84] Creating Layer scale5
I0112 10:07:35.073902 53784 net.cpp:406] scale5 <- conv5
I0112 10:07:35.073911 53784 net.cpp:367] scale5 -> conv5 (in-place)
I0112 10:07:35.073983 53784 layer_factory.hpp:77] Creating layer scale5
I0112 10:07:35.074113 53784 net.cpp:122] Setting up scale5
I0112 10:07:35.074126 53784 net.cpp:129] Top shape: 200 256 13 13 (8652800)
I0112 10:07:35.074133 53784 net.cpp:137] Memory required for data: 2451100800
I0112 10:07:35.074143 53784 layer_factory.hpp:77] Creating layer relu5
I0112 10:07:35.074156 53784 net.cpp:84] Creating Layer relu5
I0112 10:07:35.074163 53784 net.cpp:406] relu5 <- conv5
I0112 10:07:35.074172 53784 net.cpp:367] relu5 -> conv5 (in-place)
I0112 10:07:35.074182 53784 net.cpp:122] Setting up relu5
I0112 10:07:35.074189 53784 net.cpp:129] Top shape: 200 256 13 13 (8652800)
I0112 10:07:35.074196 53784 net.cpp:137] Memory required for data: 2485712000
I0112 10:07:35.074203 53784 layer_factory.hpp:77] Creating layer pool5
I0112 10:07:35.074213 53784 net.cpp:84] Creating Layer pool5
I0112 10:07:35.074220 53784 net.cpp:406] pool5 <- conv5
I0112 10:07:35.074234 53784 net.cpp:380] pool5 -> pool5
I0112 10:07:35.074281 53784 net.cpp:122] Setting up pool5
I0112 10:07:35.074295 53784 net.cpp:129] Top shape: 200 256 6 6 (1843200)
I0112 10:07:35.074301 53784 net.cpp:137] Memory required for data: 2493084800
I0112 10:07:35.074306 53784 layer_factory.hpp:77] Creating layer quantized_conv1
I0112 10:07:35.074321 53784 net.cpp:84] Creating Layer quantized_conv1
I0112 10:07:35.074327 53784 net.cpp:406] quantized_conv1 <- pool5
I0112 10:07:35.074347 53784 net.cpp:367] quantized_conv1 -> pool5 (in-place)
I0112 10:07:35.074359 53784 net.cpp:122] Setting up quantized_conv1
I0112 10:07:35.074368 53784 net.cpp:129] Top shape: 200 256 6 6 (1843200)
I0112 10:07:35.074375 53784 net.cpp:137] Memory required for data: 2500457600
I0112 10:07:35.074381 53784 layer_factory.hpp:77] Creating layer fc6
I0112 10:07:35.074393 53784 net.cpp:84] Creating Layer fc6
I0112 10:07:35.074399 53784 net.cpp:406] fc6 <- pool5
I0112 10:07:35.074409 53784 net.cpp:380] fc6 -> fc6
I0112 10:07:35.074462 53784 quan_inner_product_layer.cpp:21] 4096   4096
ydwu=======get:
bit_width=8;  round_method=0;  round_strategy=1;  is_runtime=0;  range_low=-0.160061;  range_high=0.148064
I0112 10:07:35.724825 53784 net.cpp:122] Setting up fc6
I0112 10:07:35.724894 53784 net.cpp:129] Top shape: 200 4096 (819200)
I0112 10:07:35.724905 53784 net.cpp:137] Memory required for data: 2503734400
I0112 10:07:35.724925 53784 layer_factory.hpp:77] Creating layer bn6
I0112 10:07:35.724951 53784 net.cpp:84] Creating Layer bn6
I0112 10:07:35.724961 53784 net.cpp:406] bn6 <- fc6
I0112 10:07:35.724973 53784 net.cpp:367] bn6 -> fc6 (in-place)
I0112 10:07:35.725221 53784 net.cpp:122] Setting up bn6
I0112 10:07:35.725250 53784 net.cpp:129] Top shape: 200 4096 (819200)
I0112 10:07:35.725257 53784 net.cpp:137] Memory required for data: 2507011200
I0112 10:07:35.725270 53784 layer_factory.hpp:77] Creating layer scale6
I0112 10:07:35.725299 53784 net.cpp:84] Creating Layer scale6
I0112 10:07:35.725307 53784 net.cpp:406] scale6 <- fc6
I0112 10:07:35.725328 53784 net.cpp:367] scale6 -> fc6 (in-place)
I0112 10:07:35.725402 53784 layer_factory.hpp:77] Creating layer scale6
I0112 10:07:35.725566 53784 net.cpp:122] Setting up scale6
I0112 10:07:35.725580 53784 net.cpp:129] Top shape: 200 4096 (819200)
I0112 10:07:35.725599 53784 net.cpp:137] Memory required for data: 2510288000
I0112 10:07:35.725608 53784 layer_factory.hpp:77] Creating layer relu6
I0112 10:07:35.725620 53784 net.cpp:84] Creating Layer relu6
I0112 10:07:35.725630 53784 net.cpp:406] relu6 <- fc6
I0112 10:07:35.725638 53784 net.cpp:367] relu6 -> fc6 (in-place)
I0112 10:07:35.725661 53784 net.cpp:122] Setting up relu6
I0112 10:07:35.725667 53784 net.cpp:129] Top shape: 200 4096 (819200)
I0112 10:07:35.725672 53784 net.cpp:137] Memory required for data: 2513564800
I0112 10:07:35.725677 53784 layer_factory.hpp:77] Creating layer drop6
I0112 10:07:35.725687 53784 net.cpp:84] Creating Layer drop6
I0112 10:07:35.725692 53784 net.cpp:406] drop6 <- fc6
I0112 10:07:35.725703 53784 net.cpp:367] drop6 -> fc6 (in-place)
I0112 10:07:35.725749 53784 net.cpp:122] Setting up drop6
I0112 10:07:35.725762 53784 net.cpp:129] Top shape: 200 4096 (819200)
I0112 10:07:35.725780 53784 net.cpp:137] Memory required for data: 2516841600
I0112 10:07:35.725787 53784 layer_factory.hpp:77] Creating layer quantized_conv1
I0112 10:07:35.725801 53784 net.cpp:84] Creating Layer quantized_conv1
I0112 10:07:35.725807 53784 net.cpp:406] quantized_conv1 <- fc6
I0112 10:07:35.725822 53784 net.cpp:367] quantized_conv1 -> fc6 (in-place)
I0112 10:07:35.725853 53784 net.cpp:122] Setting up quantized_conv1
I0112 10:07:35.725862 53784 net.cpp:129] Top shape: 200 4096 (819200)
I0112 10:07:35.725869 53784 net.cpp:137] Memory required for data: 2520118400
I0112 10:07:35.725877 53784 layer_factory.hpp:77] Creating layer fc7
I0112 10:07:35.725889 53784 net.cpp:84] Creating Layer fc7
I0112 10:07:35.725903 53784 net.cpp:406] fc7 <- fc6
I0112 10:07:35.725916 53784 net.cpp:380] fc7 -> fc7
I0112 10:07:35.725930 53784 quan_inner_product_layer.cpp:21] 4096   4096
ydwu=======get:
bit_width=8;  round_method=0;  round_strategy=1;  is_runtime=0;  range_low=-0.162636;  range_high=0.197684
I0112 10:07:36.059551 53784 net.cpp:122] Setting up fc7
I0112 10:07:36.059607 53784 net.cpp:129] Top shape: 200 4096 (819200)
I0112 10:07:36.059613 53784 net.cpp:137] Memory required for data: 2523395200
I0112 10:07:36.059631 53784 layer_factory.hpp:77] Creating layer bn7
I0112 10:07:36.059649 53784 net.cpp:84] Creating Layer bn7
I0112 10:07:36.059656 53784 net.cpp:406] bn7 <- fc7
I0112 10:07:36.059669 53784 net.cpp:367] bn7 -> fc7 (in-place)
I0112 10:07:36.060067 53784 net.cpp:122] Setting up bn7
I0112 10:07:36.060081 53784 net.cpp:129] Top shape: 200 4096 (819200)
I0112 10:07:36.060109 53784 net.cpp:137] Memory required for data: 2526672000
I0112 10:07:36.060140 53784 layer_factory.hpp:77] Creating layer scale7
I0112 10:07:36.060168 53784 net.cpp:84] Creating Layer scale7
I0112 10:07:36.060189 53784 net.cpp:406] scale7 <- fc7
I0112 10:07:36.060207 53784 net.cpp:367] scale7 -> fc7 (in-place)
I0112 10:07:36.060349 53784 layer_factory.hpp:77] Creating layer scale7
I0112 10:07:36.060765 53784 net.cpp:122] Setting up scale7
I0112 10:07:36.060816 53784 net.cpp:129] Top shape: 200 4096 (819200)
I0112 10:07:36.060972 53784 net.cpp:137] Memory required for data: 2529948800
I0112 10:07:36.061106 53784 layer_factory.hpp:77] Creating layer relu7
I0112 10:07:36.061158 53784 net.cpp:84] Creating Layer relu7
I0112 10:07:36.061188 53784 net.cpp:406] relu7 <- fc7
I0112 10:07:36.061233 53784 net.cpp:367] relu7 -> fc7 (in-place)
I0112 10:07:36.061422 53784 net.cpp:122] Setting up relu7
I0112 10:07:36.061450 53784 net.cpp:129] Top shape: 200 4096 (819200)
I0112 10:07:36.061509 53784 net.cpp:137] Memory required for data: 2533225600
I0112 10:07:36.061560 53784 layer_factory.hpp:77] Creating layer drop7
I0112 10:07:36.061610 53784 net.cpp:84] Creating Layer drop7
I0112 10:07:36.061645 53784 net.cpp:406] drop7 <- fc7
I0112 10:07:36.061686 53784 net.cpp:367] drop7 -> fc7 (in-place)
I0112 10:07:36.061974 53784 net.cpp:122] Setting up drop7
I0112 10:07:36.062649 53784 net.cpp:129] Top shape: 200 4096 (819200)
I0112 10:07:36.062670 53784 net.cpp:137] Memory required for data: 2536502400
I0112 10:07:36.062746 53784 layer_factory.hpp:77] Creating layer quantized_conv1
I0112 10:07:36.062849 53784 net.cpp:84] Creating Layer quantized_conv1
I0112 10:07:36.062896 53784 net.cpp:406] quantized_conv1 <- fc7
I0112 10:07:36.062947 53784 net.cpp:367] quantized_conv1 -> fc7 (in-place)
I0112 10:07:36.062996 53784 net.cpp:122] Setting up quantized_conv1
I0112 10:07:36.063043 53784 net.cpp:129] Top shape: 200 4096 (819200)
I0112 10:07:36.063076 53784 net.cpp:137] Memory required for data: 2539779200
I0112 10:07:36.063313 53784 layer_factory.hpp:77] Creating layer fc8
I0112 10:07:36.063379 53784 net.cpp:84] Creating Layer fc8
I0112 10:07:36.063392 53784 net.cpp:406] fc8 <- fc7
I0112 10:07:36.063439 53784 net.cpp:380] fc8 -> fc8
I0112 10:07:36.063482 53784 quan_inner_product_layer.cpp:21] 1000   1000
ydwu=======get:
bit_width=8;  round_method=0;  round_strategy=1;  is_runtime=0;  range_low=-0.141857;  range_high=0.274249
I0112 10:07:36.158228 53784 net.cpp:122] Setting up fc8
I0112 10:07:36.158291 53784 net.cpp:129] Top shape: 200 1000 (200000)
I0112 10:07:36.158299 53784 net.cpp:137] Memory required for data: 2540579200
I0112 10:07:36.158330 53784 layer_factory.hpp:77] Creating layer fc8_fc8_0_split
I0112 10:07:36.158361 53784 net.cpp:84] Creating Layer fc8_fc8_0_split
I0112 10:07:36.158372 53784 net.cpp:406] fc8_fc8_0_split <- fc8
I0112 10:07:36.158408 53784 net.cpp:380] fc8_fc8_0_split -> fc8_fc8_0_split_0
I0112 10:07:36.158440 53784 net.cpp:380] fc8_fc8_0_split -> fc8_fc8_0_split_1
I0112 10:07:36.158465 53784 net.cpp:380] fc8_fc8_0_split -> fc8_fc8_0_split_2
I0112 10:07:36.158605 53784 net.cpp:122] Setting up fc8_fc8_0_split
I0112 10:07:36.158619 53784 net.cpp:129] Top shape: 200 1000 (200000)
I0112 10:07:36.158633 53784 net.cpp:129] Top shape: 200 1000 (200000)
I0112 10:07:36.158651 53784 net.cpp:129] Top shape: 200 1000 (200000)
I0112 10:07:36.158665 53784 net.cpp:137] Memory required for data: 2542979200
I0112 10:07:36.158675 53784 layer_factory.hpp:77] Creating layer accuracy
I0112 10:07:36.158692 53784 net.cpp:84] Creating Layer accuracy
I0112 10:07:36.158707 53784 net.cpp:406] accuracy <- fc8_fc8_0_split_0
I0112 10:07:36.158727 53784 net.cpp:406] accuracy <- label_data_1_split_0
I0112 10:07:36.158743 53784 net.cpp:380] accuracy -> accuracy
…
