…
I0111 17:54:25.171476 20349 net.cpp:294] The NetState phase (1) differed from the phase (0) specified by a rule in layer accuracy_5_TRAIN
I0111 17:54:25.171857 20349 net.cpp:51] Initializing net from parameters: 
name: "AlexNet-BN"
state {
  phase: TEST
  level: 0
  stage: ""
}
layer {
  name: "data"
  type: "Data"
  top: "data"
  top: "label"
  include {
    phase: TEST
  }
  transform_param {
    mirror: false
    crop_size: 224
    mean_value: 103.939
    mean_value: 116.779
    mean_value: 123.68
  }
  data_param {
    source: "/home/DATA/imagenet_resize/lmdb_resize/ilsvrc12_val_lmdb"
    batch_size: 200
    backend: LMDB
  }
}
layer {
  name: "conv1"
  type: "QuanConvolution"
  bottom: "data"
  top: "conv1"
  param {
    lr_mult: 1
    decay_mult: 1
  }
  param {
    lr_mult: 2
    decay_mult: 0
  }
  quan_convolution_param {
    num_output: 96
    pad: 2
    kernel_size: 11
    stride: 4
    weight_filler {
      type: "gaussian"
      std: 0.01
    }
    bias_filler {
      type: "constant"
      value: 0
    }
    round_method: ROUND
    round_strategy: NEUTRAL
    bit_width: 8
    range_low: -0.872089
    range_high: 0.927025
  }
}
layer {
  name: "bn1"
  type: "BatchNorm"
  bottom: "conv1"
  top: "conv1"
}
layer {
  name: "scale1"
  type: "Scale"
  bottom: "conv1"
  top: "conv1"
  scale_param {
    bias_term: true
  }
}
layer {
  name: "relu1"
  type: "ReLU"
  bottom: "conv1"
  top: "conv1"
}
layer {
  name: "pool1"
  type: "Pooling"
  bottom: "conv1"
  top: "pool1"
  pooling_param {
    pool: MAX
    kernel_size: 3
    stride: 2
  }
}
layer {
  name: "quantized_conv1"
  type: "Quantization"
  bottom: "pool1"
  top: "pool1"
  quantization_param {
    round_method: ROUND
    round_strategy: AGGRESSIVE
    bit_width: 4
    range: 0
    range: 13.965383
  }
}
layer {
  name: "conv2"
  type: "QuanConvolution"
  bottom: "pool1"
  top: "conv2"
  param {
    lr_mult: 1
    decay_mult: 1
  }
  param {
    lr_mult: 2
    decay_mult: 0
  }
  quan_convolution_param {
    num_output: 256
    pad: 2
    kernel_size: 5
    weight_filler {
      type: "gaussian"
      std: 0.01
    }
    bias_filler {
      type: "constant"
      value: 0.1
    }
    round_method: ROUND
    round_strategy: NEUTRAL
    bit_width: 8
    range_low: -0.806018
    range_high: 1.5182
  }
}
layer {
  name: "bn2"
  type: "BatchNorm"
  bottom: "conv2"
  top: "conv2"
}
layer {
  name: "scale2"
  type: "Scale"
  bottom: "conv2"
  top: "conv2"
  scale_param {
    bias_term: true
  }
}
layer {
  name: "relu2"
  type: "ReLU"
  bottom: "conv2"
  top: "conv2"
}
layer {
  name: "pool2"
  type: "Pooling"
  bottom: "conv2"
  top: "pool2"
  pooling_param {
    pool: MAX
    kernel_size: 3
    stride: 2
  }
}
layer {
  name: "quantized_conv1"
  type: "Quantization"
  bottom: "pool2"
  top: "pool2"
  quantization_param {
    round_method: ROUND
    round_strategy: AGGRESSIVE
    bit_width: 4
    range: 0
    range: 6.74956
  }
}
layer {
  name: "conv3"
  type: "QuanConvolution"
  bottom: "pool2"
  top: "conv3"
  param {
    lr_mult: 1
    decay_mult: 1
  }
  param {
    lr_mult: 2
    decay_mult: 0
  }
  quan_convolution_param {
    num_output: 384
    pad: 1
    kernel_size: 3
    weight_filler {
      type: "gaussian"
      std: 0.01
    }
    bias_filler {
      type: "constant"
      value: 0
    }
    round_method: ROUND
    round_strategy: NEUTRAL
    bit_width: 8
    range_low: -0.621858
    range_high: 0.673858
  }
}
layer {
  name: "bn3"
  type: "BatchNorm"
  bottom: "conv3"
  top: "conv3"
}
layer {
  name: "scale3"
  type: "Scale"
  bottom: "conv3"
  top: "conv3"
  scale_param {
    bias_term: true
  }
}
layer {
  name: "relu3"
  type: "ReLU"
  bottom: "conv3"
  top: "conv3"
}
layer {
  name: "quantized_conv1"
  type: "Quantization"
  bottom: "conv3"
  top: "conv3"
  quantization_param {
    round_method: ROUND
    round_strategy: AGGRESSIVE
    bit_width: 4
    range: 0
    range: 8.48454
  }
}
layer {
  name: "conv4"
  type: "QuanConvolution"
  bottom: "conv3"
  top: "conv4"
  param {
    lr_mult: 1
    decay_mult: 1
  }
  param {
    lr_mult: 2
    decay_mult: 0
  }
  quan_convolution_param {
    num_output: 384
    pad: 1
    kernel_size: 3
    weight_filler {
      type: "gaussian"
      std: 0.01
    }
    bias_filler {
      type: "constant"
      value: 0.1
    }
    round_method: ROUND
    round_strategy: NEUTRAL
    bit_width: 8
    range_low: -0.376634
    range_high: 0.341829
  }
}
layer {
  name: "bn4"
  type: "BatchNorm"
  bottom: "conv4"
  top: "conv4"
}
layer {
  name: "scale4"
  type: "Scale"
  bottom: "conv4"
  top: "conv4"
  scale_param {
    bias_term: true
  }
}
layer {
  name: "relu4"
  type: "ReLU"
  bottom: "conv4"
  top: "conv4"
}
layer {
  name: "quantized_conv1"
  type: "Quantization"
  bottom: "conv4"
  top: "conv4"
  quantization_param {
    round_method: ROUND
    round_strategy: AGGRESSIVE
    bit_width: 4
    range: 0
    range: 7.3369722
  }
}
layer {
  name: "conv5"
  type: "QuanConvolution"
  bottom: "conv4"
  top: "conv5"
  param {
    lr_mult: 1
    decay_mult: 1
  }
  param {
    lr_mult: 2
    decay_mult: 0
  }
  quan_convolution_param {
    num_output: 256
    pad: 1
    kernel_size: 3
    weight_filler {
      type: "gaussian"
      std: 0.01
    }
    bias_filler {
      type: "constant"
      value: 0.1
    }
    round_method: ROUND
    round_strategy: NEUTRAL
    bit_width: 8
    range_low: -0.347658
    range_high: 0.330042
  }
}
layer {
  name: "bn5"
  type: "BatchNorm"
  bottom: "conv5"
  top: "conv5"
}
layer {
  name: "scale5"
  type: "Scale"
  bottom: "conv5"
  top: "conv5"
  scale_param {
    bias_term: true
  }
}
layer {
  name: "relu5"
  type: "ReLU"
  bottom: "conv5"
  top: "conv5"
}
layer {
  name: "pool5"
  type: "Pooling"
  bottom: "conv5"
  top: "pool5"
  pooling_param {
    pool: MAX
    kernel_size: 3
    stride: 2
  }
}
layer {
  name: "quantized_conv1"
  type: "Quantization"
  bottom: "pool5"
  top: "pool5"
  quantization_param {
    round_method: ROUND
    round_strategy: AGGRESSIVE
    bit_width: 4
    range: 0
    range: 8.7577133
  }
}
layer {
  name: "fc6"
  type: "QuanInnerProduct"
  bottom: "pool5"
  top: "fc6"
  param {
    lr_mult: 1
    decay_mult: 1
  }
  param {
    lr_mult: 2
    decay_mult: 0
  }
  quan_inner_product_param {
    num_output: 4096
    weight_filler {
      type: "gaussian"
      std: 0.005
    }
    bias_filler {
      type: "constant"
      value: 0.1
    }
    round_method: ROUND
    round_strategy: NEUTRAL
    bit_width: 8
    range_low: -0.160061
    range_high: 0.148064
  }
}
layer {
  name: "bn6"
  type: "BatchNorm"
  bottom: "fc6"
  top: "fc6"
}
layer {
  name: "scale6"
  type: "Scale"
  bottom: "fc6"
  top: "fc6"
  scale_param {
    bias_term: true
  }
}
layer {
  name: "relu6"
  type: "ReLU"
  bottom: "fc6"
  top: "fc6"
}
layer {
  name: "drop6"
  type: "Dropout"
  bottom: "fc6"
  top: "fc6"
  dropout_param {
    dropout_ratio: 0.5
  }
}
layer {
  name: "quantized_conv1"
  type: "Quantization"
  bottom: "fc6"
  top: "fc6"
  quantization_param {
    round_method: ROUND
    round_strategy: AGGRESSIVE
    bit_width: 4
    range: 0
    range: 1.659358
  }
}
layer {
  name: "fc7"
  type: "QuanInnerProduct"
  bottom: "fc6"
  top: "fc7"
  param {
    lr_mult: 1
    decay_mult: 1
  }
  param {
    lr_mult: 2
    decay_mult: 0
  }
  quan_inner_product_param {
    num_output: 4096
    weight_filler {
      type: "gaussian"
      std: 0.005
    }
    bias_filler {
      type: "constant"
      value: 0.1
    }
    round_method: ROUND
    round_strategy: NEUTRAL
    bit_width: 8
    range_low: -0.162636
    range_high: 0.197684
  }
}
layer {
  name: "bn7"
  type: "BatchNorm"
  bottom: "fc7"
  top: "fc7"
}
layer {
  name: "scale7"
  type: "Scale"
  bottom: "fc7"
  top: "fc7"
  scale_param {
    bias_term: true
  }
}
layer {
  name: "relu7"
  type: "ReLU"
  bottom: "fc7"
  top: "fc7"
}
layer {
  name: "drop7"
  type: "Dropout"
  bottom: "fc7"
  top: "fc7"
  dropout_param {
    dropout_ratio: 0.5
  }
}
layer {
  name: "quantized_conv1"
  type: "Quantization"
  bottom: "fc7"
  top: "fc7"
  quantization_param {
    round_method: ROUND
    round_strategy: AGGRESSIVE
    bit_width: 4
    range: 0
    range: 7.5598521
  }
}
layer {
  name: "fc8"
  type: "QuanInnerProduct"
  bottom: "fc7"
  top: "fc8"
  param {
    lr_mult: 1
    decay_mult: 1
  }
  param {
    lr_mult: 2
    decay_mult: 0
  }
  quan_inner_product_param {
    num_output: 1000
    weight_filler {
      type: "gaussian"
      std: 0.01
    }
    bias_filler {
      type: "constant"
      value: 0
    }
    round_method: ROUND
    round_strategy: NEUTRAL
    bit_width: 8
    range_low: -0.141857
    range_high: 0.274249
  }
}
layer {
  name: "accuracy"
  type: "Accuracy"
  bottom: "fc8"
  bottom: "label"
  top: "accuracy"
  include {
    phase: TEST
  }
}
layer {
  name: "accuracy_5"
  type: "Accuracy"
  bottom: "fc8"
  bottom: "label"
  top: "accuracy_5"
  include {
    phase: TEST
  }
  accuracy_param {
    top_k: 5
  }
}
layer {
  name: "loss"
  type: "SoftmaxWithLoss"
  bottom: "fc8"
  bottom: "label"
  top: "loss"
}
I0111 17:54:25.172168 20349 layer_factory.hpp:77] Creating layer data
I0111 17:54:25.198315 20349 db_lmdb.cpp:35] Opened lmdb /home/DATA/imagenet_resize/lmdb_resize/ilsvrc12_val_lmdb
I0111 17:54:25.207599 20349 net.cpp:84] Creating Layer data
I0111 17:54:25.207653 20349 net.cpp:380] data -> data
I0111 17:54:25.207708 20349 net.cpp:380] data -> label
I0111 17:54:25.238942 20349 data_layer.cpp:45] output data size: 200,3,224,224
I0111 17:54:25.670658 20349 net.cpp:122] Setting up data
I0111 17:54:25.670727 20349 net.cpp:129] Top shape: 200 3 224 224 (30105600)
I0111 17:54:25.670737 20349 net.cpp:129] Top shape: 200 (200)
I0111 17:54:25.670745 20349 net.cpp:137] Memory required for data: 120423200
I0111 17:54:25.670784 20349 layer_factory.hpp:77] Creating layer label_data_1_split
I0111 17:54:25.670814 20349 net.cpp:84] Creating Layer label_data_1_split
I0111 17:54:25.670826 20349 net.cpp:406] label_data_1_split <- label
I0111 17:54:25.670857 20349 net.cpp:380] label_data_1_split -> label_data_1_split_0
I0111 17:54:25.670878 20349 net.cpp:380] label_data_1_split -> label_data_1_split_1
I0111 17:54:25.670892 20349 net.cpp:380] label_data_1_split -> label_data_1_split_2
I0111 17:54:25.671031 20349 net.cpp:122] Setting up label_data_1_split
I0111 17:54:25.671084 20349 net.cpp:129] Top shape: 200 (200)
I0111 17:54:25.671097 20349 net.cpp:129] Top shape: 200 (200)
I0111 17:54:25.671110 20349 net.cpp:129] Top shape: 200 (200)
I0111 17:54:25.671119 20349 net.cpp:137] Memory required for data: 120425600
I0111 17:54:25.671133 20349 layer_factory.hpp:77] Creating layer conv1
I0111 17:54:25.671175 20349 net.cpp:84] Creating Layer conv1
I0111 17:54:25.671186 20349 net.cpp:406] conv1 <- data
I0111 17:54:25.671205 20349 net.cpp:380] conv1 -> conv1
ydwu=======get:
bit_width=8;  round_method=0;  round_strategy=1;  is_runtime=0;  range_low=-0.872089;  range_high=0.927025
I0111 17:54:25.780403 20349 net.cpp:122] Setting up conv1
I0111 17:54:25.780455 20349 net.cpp:129] Top shape: 200 96 55 55 (58080000)
I0111 17:54:25.780478 20349 net.cpp:137] Memory required for data: 352745600
I0111 17:54:25.780546 20349 layer_factory.hpp:77] Creating layer bn1
I0111 17:54:25.780580 20349 net.cpp:84] Creating Layer bn1
I0111 17:54:25.780594 20349 net.cpp:406] bn1 <- conv1
I0111 17:54:25.780611 20349 net.cpp:367] bn1 -> conv1 (in-place)
I0111 17:54:25.780911 20349 net.cpp:122] Setting up bn1
I0111 17:54:25.780941 20349 net.cpp:129] Top shape: 200 96 55 55 (58080000)
I0111 17:54:25.780949 20349 net.cpp:137] Memory required for data: 585065600
I0111 17:54:25.780972 20349 layer_factory.hpp:77] Creating layer scale1
I0111 17:54:25.780992 20349 net.cpp:84] Creating Layer scale1
I0111 17:54:25.781002 20349 net.cpp:406] scale1 <- conv1
I0111 17:54:25.781014 20349 net.cpp:367] scale1 -> conv1 (in-place)
I0111 17:54:25.781111 20349 layer_factory.hpp:77] Creating layer scale1
I0111 17:54:25.781311 20349 net.cpp:122] Setting up scale1
I0111 17:54:25.781340 20349 net.cpp:129] Top shape: 200 96 55 55 (58080000)
I0111 17:54:25.781348 20349 net.cpp:137] Memory required for data: 817385600
I0111 17:54:25.781364 20349 layer_factory.hpp:77] Creating layer relu1
I0111 17:54:25.781419 20349 net.cpp:84] Creating Layer relu1
I0111 17:54:25.781430 20349 net.cpp:406] relu1 <- conv1
I0111 17:54:25.781443 20349 net.cpp:367] relu1 -> conv1 (in-place)
I0111 17:54:25.781457 20349 net.cpp:122] Setting up relu1
I0111 17:54:25.781479 20349 net.cpp:129] Top shape: 200 96 55 55 (58080000)
I0111 17:54:25.781487 20349 net.cpp:137] Memory required for data: 1049705600
I0111 17:54:25.781494 20349 layer_factory.hpp:77] Creating layer pool1
I0111 17:54:25.781512 20349 net.cpp:84] Creating Layer pool1
I0111 17:54:25.781520 20349 net.cpp:406] pool1 <- conv1
I0111 17:54:25.781545 20349 net.cpp:380] pool1 -> pool1
I0111 17:54:25.781625 20349 net.cpp:122] Setting up pool1
I0111 17:54:25.781638 20349 net.cpp:129] Top shape: 200 96 27 27 (13996800)
I0111 17:54:25.781643 20349 net.cpp:137] Memory required for data: 1105692800
I0111 17:54:25.781661 20349 layer_factory.hpp:77] Creating layer quantized_conv1
I0111 17:54:25.781672 20349 net.cpp:84] Creating Layer quantized_conv1
I0111 17:54:25.781680 20349 net.cpp:406] quantized_conv1 <- pool1
I0111 17:54:25.781690 20349 net.cpp:367] quantized_conv1 -> pool1 (in-place)
I0111 17:54:25.781703 20349 net.cpp:122] Setting up quantized_conv1
I0111 17:54:25.781713 20349 net.cpp:129] Top shape: 200 96 27 27 (13996800)
I0111 17:54:25.781724 20349 net.cpp:137] Memory required for data: 1161680000
I0111 17:54:25.781736 20349 layer_factory.hpp:77] Creating layer conv2
I0111 17:54:25.781764 20349 net.cpp:84] Creating Layer conv2
I0111 17:54:25.781780 20349 net.cpp:406] conv2 <- pool1
I0111 17:54:25.781810 20349 net.cpp:380] conv2 -> conv2
ydwu=======get:
bit_width=8;  round_method=0;  round_strategy=1;  is_runtime=0;  range_low=-0.806018;  range_high=1.5182
I0111 17:54:25.797142 20349 net.cpp:122] Setting up conv2
I0111 17:54:25.797173 20349 net.cpp:129] Top shape: 200 256 27 27 (37324800)
I0111 17:54:25.797188 20349 net.cpp:137] Memory required for data: 1310979200
I0111 17:54:25.797216 20349 layer_factory.hpp:77] Creating layer bn2
I0111 17:54:25.797242 20349 net.cpp:84] Creating Layer bn2
I0111 17:54:25.797256 20349 net.cpp:406] bn2 <- conv2
I0111 17:54:25.797276 20349 net.cpp:367] bn2 -> conv2 (in-place)
I0111 17:54:25.797611 20349 net.cpp:122] Setting up bn2
I0111 17:54:25.797631 20349 net.cpp:129] Top shape: 200 256 27 27 (37324800)
I0111 17:54:25.797641 20349 net.cpp:137] Memory required for data: 1460278400
I0111 17:54:25.797667 20349 layer_factory.hpp:77] Creating layer scale2
I0111 17:54:25.797683 20349 net.cpp:84] Creating Layer scale2
I0111 17:54:25.797693 20349 net.cpp:406] scale2 <- conv2
I0111 17:54:25.797710 20349 net.cpp:367] scale2 -> conv2 (in-place)
I0111 17:54:25.797792 20349 layer_factory.hpp:77] Creating layer scale2
I0111 17:54:25.798017 20349 net.cpp:122] Setting up scale2
I0111 17:54:25.798039 20349 net.cpp:129] Top shape: 200 256 27 27 (37324800)
I0111 17:54:25.798049 20349 net.cpp:137] Memory required for data: 1609577600
I0111 17:54:25.798089 20349 layer_factory.hpp:77] Creating layer relu2
I0111 17:54:25.798105 20349 net.cpp:84] Creating Layer relu2
I0111 17:54:25.798115 20349 net.cpp:406] relu2 <- conv2
I0111 17:54:25.798127 20349 net.cpp:367] relu2 -> conv2 (in-place)
I0111 17:54:25.798141 20349 net.cpp:122] Setting up relu2
I0111 17:54:25.798153 20349 net.cpp:129] Top shape: 200 256 27 27 (37324800)
I0111 17:54:25.798163 20349 net.cpp:137] Memory required for data: 1758876800
I0111 17:54:25.798172 20349 layer_factory.hpp:77] Creating layer pool2
I0111 17:54:25.798198 20349 net.cpp:84] Creating Layer pool2
I0111 17:54:25.798209 20349 net.cpp:406] pool2 <- conv2
I0111 17:54:25.798223 20349 net.cpp:380] pool2 -> pool2
I0111 17:54:25.798292 20349 net.cpp:122] Setting up pool2
I0111 17:54:25.798310 20349 net.cpp:129] Top shape: 200 256 13 13 (8652800)
I0111 17:54:25.798319 20349 net.cpp:137] Memory required for data: 1793488000
I0111 17:54:25.798328 20349 layer_factory.hpp:77] Creating layer quantized_conv1
I0111 17:54:25.798357 20349 net.cpp:84] Creating Layer quantized_conv1
I0111 17:54:25.798370 20349 net.cpp:406] quantized_conv1 <- pool2
I0111 17:54:25.798388 20349 net.cpp:367] quantized_conv1 -> pool2 (in-place)
I0111 17:54:25.798429 20349 net.cpp:122] Setting up quantized_conv1
I0111 17:54:25.798440 20349 net.cpp:129] Top shape: 200 256 13 13 (8652800)
I0111 17:54:25.798446 20349 net.cpp:137] Memory required for data: 1828099200
I0111 17:54:25.798454 20349 layer_factory.hpp:77] Creating layer conv3
I0111 17:54:25.798472 20349 net.cpp:84] Creating Layer conv3
I0111 17:54:25.798480 20349 net.cpp:406] conv3 <- pool2
I0111 17:54:25.798491 20349 net.cpp:380] conv3 -> conv3
ydwu=======get:
bit_width=8;  round_method=0;  round_strategy=1;  is_runtime=0;  range_low=-0.621858;  range_high=0.673858
I0111 17:54:25.818089 20349 net.cpp:122] Setting up conv3
I0111 17:54:25.818121 20349 net.cpp:129] Top shape: 200 384 13 13 (12979200)
I0111 17:54:25.818135 20349 net.cpp:137] Memory required for data: 1880016000
I0111 17:54:25.818161 20349 layer_factory.hpp:77] Creating layer bn3
I0111 17:54:25.818186 20349 net.cpp:84] Creating Layer bn3
I0111 17:54:25.818202 20349 net.cpp:406] bn3 <- conv3
I0111 17:54:25.818226 20349 net.cpp:367] bn3 -> conv3 (in-place)
I0111 17:54:25.818562 20349 net.cpp:122] Setting up bn3
I0111 17:54:25.818581 20349 net.cpp:129] Top shape: 200 384 13 13 (12979200)
I0111 17:54:25.818593 20349 net.cpp:137] Memory required for data: 1931932800
I0111 17:54:25.818621 20349 layer_factory.hpp:77] Creating layer scale3
I0111 17:54:25.818645 20349 net.cpp:84] Creating Layer scale3
I0111 17:54:25.818657 20349 net.cpp:406] scale3 <- conv3
I0111 17:54:25.818671 20349 net.cpp:367] scale3 -> conv3 (in-place)
I0111 17:54:25.818742 20349 layer_factory.hpp:77] Creating layer scale3
I0111 17:54:25.818927 20349 net.cpp:122] Setting up scale3
I0111 17:54:25.818945 20349 net.cpp:129] Top shape: 200 384 13 13 (12979200)
I0111 17:54:25.818955 20349 net.cpp:137] Memory required for data: 1983849600
I0111 17:54:25.818971 20349 layer_factory.hpp:77] Creating layer relu3
I0111 17:54:25.818986 20349 net.cpp:84] Creating Layer relu3
I0111 17:54:25.818996 20349 net.cpp:406] relu3 <- conv3
I0111 17:54:25.819013 20349 net.cpp:367] relu3 -> conv3 (in-place)
I0111 17:54:25.819028 20349 net.cpp:122] Setting up relu3
I0111 17:54:25.819041 20349 net.cpp:129] Top shape: 200 384 13 13 (12979200)
I0111 17:54:25.819051 20349 net.cpp:137] Memory required for data: 2035766400
I0111 17:54:25.819061 20349 layer_factory.hpp:77] Creating layer quantized_conv1
I0111 17:54:25.819077 20349 net.cpp:84] Creating Layer quantized_conv1
I0111 17:54:25.819087 20349 net.cpp:406] quantized_conv1 <- conv3
I0111 17:54:25.819100 20349 net.cpp:367] quantized_conv1 -> conv3 (in-place)
I0111 17:54:25.819119 20349 net.cpp:122] Setting up quantized_conv1
I0111 17:54:25.819133 20349 net.cpp:129] Top shape: 200 384 13 13 (12979200)
I0111 17:54:25.819144 20349 net.cpp:137] Memory required for data: 2087683200
I0111 17:54:25.819154 20349 layer_factory.hpp:77] Creating layer conv4
I0111 17:54:25.819175 20349 net.cpp:84] Creating Layer conv4
I0111 17:54:25.819185 20349 net.cpp:406] conv4 <- conv3
I0111 17:54:25.819205 20349 net.cpp:380] conv4 -> conv4
ydwu=======get:
bit_width=8;  round_method=0;  round_strategy=1;  is_runtime=0;  range_low=-0.376634;  range_high=0.341829
I0111 17:54:25.846616 20349 net.cpp:122] Setting up conv4
I0111 17:54:25.846669 20349 net.cpp:129] Top shape: 200 384 13 13 (12979200)
I0111 17:54:25.846689 20349 net.cpp:137] Memory required for data: 2139600000
I0111 17:54:25.846710 20349 layer_factory.hpp:77] Creating layer bn4
I0111 17:54:25.846745 20349 net.cpp:84] Creating Layer bn4
I0111 17:54:25.846755 20349 net.cpp:406] bn4 <- conv4
I0111 17:54:25.846770 20349 net.cpp:367] bn4 -> conv4 (in-place)
I0111 17:54:25.847072 20349 net.cpp:122] Setting up bn4
I0111 17:54:25.847103 20349 net.cpp:129] Top shape: 200 384 13 13 (12979200)
I0111 17:54:25.847112 20349 net.cpp:137] Memory required for data: 2191516800
I0111 17:54:25.847131 20349 layer_factory.hpp:77] Creating layer scale4
I0111 17:54:25.847146 20349 net.cpp:84] Creating Layer scale4
I0111 17:54:25.847167 20349 net.cpp:406] scale4 <- conv4
I0111 17:54:25.847178 20349 net.cpp:367] scale4 -> conv4 (in-place)
I0111 17:54:25.847265 20349 layer_factory.hpp:77] Creating layer scale4
I0111 17:54:25.847470 20349 net.cpp:122] Setting up scale4
I0111 17:54:25.847486 20349 net.cpp:129] Top shape: 200 384 13 13 (12979200)
I0111 17:54:25.847506 20349 net.cpp:137] Memory required for data: 2243433600
I0111 17:54:25.847569 20349 layer_factory.hpp:77] Creating layer relu4
I0111 17:54:25.847587 20349 net.cpp:84] Creating Layer relu4
I0111 17:54:25.847595 20349 net.cpp:406] relu4 <- conv4
I0111 17:54:25.847605 20349 net.cpp:367] relu4 -> conv4 (in-place)
I0111 17:54:25.847628 20349 net.cpp:122] Setting up relu4
I0111 17:54:25.847638 20349 net.cpp:129] Top shape: 200 384 13 13 (12979200)
I0111 17:54:25.847647 20349 net.cpp:137] Memory required for data: 2295350400
I0111 17:54:25.847657 20349 layer_factory.hpp:77] Creating layer quantized_conv1
I0111 17:54:25.847671 20349 net.cpp:84] Creating Layer quantized_conv1
I0111 17:54:25.847681 20349 net.cpp:406] quantized_conv1 <- conv4
I0111 17:54:25.847698 20349 net.cpp:367] quantized_conv1 -> conv4 (in-place)
I0111 17:54:25.847715 20349 net.cpp:122] Setting up quantized_conv1
I0111 17:54:25.847730 20349 net.cpp:129] Top shape: 200 384 13 13 (12979200)
I0111 17:54:25.847741 20349 net.cpp:137] Memory required for data: 2347267200
I0111 17:54:25.847750 20349 layer_factory.hpp:77] Creating layer conv5
I0111 17:54:25.847771 20349 net.cpp:84] Creating Layer conv5
I0111 17:54:25.847779 20349 net.cpp:406] conv5 <- conv4
I0111 17:54:25.847790 20349 net.cpp:380] conv5 -> conv5
ydwu=======get:
bit_width=8;  round_method=0;  round_strategy=1;  is_runtime=0;  range_low=-0.347658;  range_high=0.330042
I0111 17:54:25.867092 20349 net.cpp:122] Setting up conv5
I0111 17:54:25.867128 20349 net.cpp:129] Top shape: 200 256 13 13 (8652800)
I0111 17:54:25.867136 20349 net.cpp:137] Memory required for data: 2381878400
I0111 17:54:25.867148 20349 layer_factory.hpp:77] Creating layer bn5
I0111 17:54:25.867171 20349 net.cpp:84] Creating Layer bn5
I0111 17:54:25.867184 20349 net.cpp:406] bn5 <- conv5
I0111 17:54:25.867204 20349 net.cpp:367] bn5 -> conv5 (in-place)
I0111 17:54:25.867532 20349 net.cpp:122] Setting up bn5
I0111 17:54:25.867561 20349 net.cpp:129] Top shape: 200 256 13 13 (8652800)
I0111 17:54:25.867569 20349 net.cpp:137] Memory required for data: 2416489600
I0111 17:54:25.867600 20349 layer_factory.hpp:77] Creating layer scale5
I0111 17:54:25.867630 20349 net.cpp:84] Creating Layer scale5
I0111 17:54:25.867640 20349 net.cpp:406] scale5 <- conv5
I0111 17:54:25.867650 20349 net.cpp:367] scale5 -> conv5 (in-place)
I0111 17:54:25.867746 20349 layer_factory.hpp:77] Creating layer scale5
I0111 17:54:25.867923 20349 net.cpp:122] Setting up scale5
I0111 17:54:25.867941 20349 net.cpp:129] Top shape: 200 256 13 13 (8652800)
I0111 17:54:25.867951 20349 net.cpp:137] Memory required for data: 2451100800
I0111 17:54:25.867966 20349 layer_factory.hpp:77] Creating layer relu5
I0111 17:54:25.867980 20349 net.cpp:84] Creating Layer relu5
I0111 17:54:25.867990 20349 net.cpp:406] relu5 <- conv5
I0111 17:54:25.868005 20349 net.cpp:367] relu5 -> conv5 (in-place)
I0111 17:54:25.868019 20349 net.cpp:122] Setting up relu5
I0111 17:54:25.868032 20349 net.cpp:129] Top shape: 200 256 13 13 (8652800)
I0111 17:54:25.868041 20349 net.cpp:137] Memory required for data: 2485712000
I0111 17:54:25.868052 20349 layer_factory.hpp:77] Creating layer pool5
I0111 17:54:25.868067 20349 net.cpp:84] Creating Layer pool5
I0111 17:54:25.868075 20349 net.cpp:406] pool5 <- conv5
I0111 17:54:25.868089 20349 net.cpp:380] pool5 -> pool5
I0111 17:54:25.868154 20349 net.cpp:122] Setting up pool5
I0111 17:54:25.868170 20349 net.cpp:129] Top shape: 200 256 6 6 (1843200)
I0111 17:54:25.868180 20349 net.cpp:137] Memory required for data: 2493084800
I0111 17:54:25.868191 20349 layer_factory.hpp:77] Creating layer quantized_conv1
I0111 17:54:25.868206 20349 net.cpp:84] Creating Layer quantized_conv1
I0111 17:54:25.868216 20349 net.cpp:406] quantized_conv1 <- pool5
I0111 17:54:25.868229 20349 net.cpp:367] quantized_conv1 -> pool5 (in-place)
I0111 17:54:25.868247 20349 net.cpp:122] Setting up quantized_conv1
I0111 17:54:25.868263 20349 net.cpp:129] Top shape: 200 256 6 6 (1843200)
I0111 17:54:25.868274 20349 net.cpp:137] Memory required for data: 2500457600
I0111 17:54:25.868283 20349 layer_factory.hpp:77] Creating layer fc6
I0111 17:54:25.868295 20349 net.cpp:84] Creating Layer fc6
I0111 17:54:25.868302 20349 net.cpp:406] fc6 <- pool5
I0111 17:54:25.868345 20349 net.cpp:380] fc6 -> fc6
I0111 17:54:25.868363 20349 quan_inner_product_layer.cpp:21] 4096   4096
ydwu=======get:
bit_width=8;  round_method=0;  round_strategy=1;  is_runtime=0;  range_low=-0.160061;  range_high=0.148064
I0111 17:54:26.600857 20349 net.cpp:122] Setting up fc6
I0111 17:54:26.600903 20349 net.cpp:129] Top shape: 200 4096 (819200)
I0111 17:54:26.600910 20349 net.cpp:137] Memory required for data: 2503734400
I0111 17:54:26.600927 20349 layer_factory.hpp:77] Creating layer bn6
I0111 17:54:26.600952 20349 net.cpp:84] Creating Layer bn6
I0111 17:54:26.600962 20349 net.cpp:406] bn6 <- fc6
I0111 17:54:26.600987 20349 net.cpp:367] bn6 -> fc6 (in-place)
I0111 17:54:26.601258 20349 net.cpp:122] Setting up bn6
I0111 17:54:26.601274 20349 net.cpp:129] Top shape: 200 4096 (819200)
I0111 17:54:26.601287 20349 net.cpp:137] Memory required for data: 2507011200
I0111 17:54:26.601300 20349 layer_factory.hpp:77] Creating layer scale6
I0111 17:54:26.601336 20349 net.cpp:84] Creating Layer scale6
I0111 17:54:26.601343 20349 net.cpp:406] scale6 <- fc6
I0111 17:54:26.601361 20349 net.cpp:367] scale6 -> fc6 (in-place)
I0111 17:54:26.601429 20349 layer_factory.hpp:77] Creating layer scale6
I0111 17:54:26.601585 20349 net.cpp:122] Setting up scale6
I0111 17:54:26.601600 20349 net.cpp:129] Top shape: 200 4096 (819200)
I0111 17:54:26.601613 20349 net.cpp:137] Memory required for data: 2510288000
I0111 17:54:26.601622 20349 layer_factory.hpp:77] Creating layer relu6
I0111 17:54:26.601632 20349 net.cpp:84] Creating Layer relu6
I0111 17:54:26.601639 20349 net.cpp:406] relu6 <- fc6
I0111 17:54:26.601651 20349 net.cpp:367] relu6 -> fc6 (in-place)
I0111 17:54:26.601663 20349 net.cpp:122] Setting up relu6
I0111 17:54:26.601671 20349 net.cpp:129] Top shape: 200 4096 (819200)
I0111 17:54:26.601678 20349 net.cpp:137] Memory required for data: 2513564800
I0111 17:54:26.601683 20349 layer_factory.hpp:77] Creating layer drop6
I0111 17:54:26.601704 20349 net.cpp:84] Creating Layer drop6
I0111 17:54:26.601711 20349 net.cpp:406] drop6 <- fc6
I0111 17:54:26.601722 20349 net.cpp:367] drop6 -> fc6 (in-place)
I0111 17:54:26.601764 20349 net.cpp:122] Setting up drop6
I0111 17:54:26.601778 20349 net.cpp:129] Top shape: 200 4096 (819200)
I0111 17:54:26.601794 20349 net.cpp:137] Memory required for data: 2516841600
I0111 17:54:26.601802 20349 layer_factory.hpp:77] Creating layer quantized_conv1
I0111 17:54:26.601840 20349 net.cpp:84] Creating Layer quantized_conv1
I0111 17:54:26.601850 20349 net.cpp:406] quantized_conv1 <- fc6
I0111 17:54:26.601861 20349 net.cpp:367] quantized_conv1 -> fc6 (in-place)
I0111 17:54:26.601873 20349 net.cpp:122] Setting up quantized_conv1
I0111 17:54:26.601883 20349 net.cpp:129] Top shape: 200 4096 (819200)
I0111 17:54:26.601903 20349 net.cpp:137] Memory required for data: 2520118400
I0111 17:54:26.601912 20349 layer_factory.hpp:77] Creating layer fc7
I0111 17:54:26.601925 20349 net.cpp:84] Creating Layer fc7
I0111 17:54:26.601933 20349 net.cpp:406] fc7 <- fc6
I0111 17:54:26.601943 20349 net.cpp:380] fc7 -> fc7
I0111 17:54:26.601958 20349 quan_inner_product_layer.cpp:21] 4096   4096
ydwu=======get:
bit_width=8;  round_method=0;  round_strategy=1;  is_runtime=0;  range_low=-0.162636;  range_high=0.197684
I0111 17:54:26.896082 20349 net.cpp:122] Setting up fc7
I0111 17:54:26.896152 20349 net.cpp:129] Top shape: 200 4096 (819200)
I0111 17:54:26.896168 20349 net.cpp:137] Memory required for data: 2523395200
I0111 17:54:26.896210 20349 layer_factory.hpp:77] Creating layer bn7
I0111 17:54:26.896240 20349 net.cpp:84] Creating Layer bn7
I0111 17:54:26.896262 20349 net.cpp:406] bn7 <- fc7
I0111 17:54:26.896282 20349 net.cpp:367] bn7 -> fc7 (in-place)
I0111 17:54:26.896564 20349 net.cpp:122] Setting up bn7
I0111 17:54:26.896596 20349 net.cpp:129] Top shape: 200 4096 (819200)
I0111 17:54:26.896610 20349 net.cpp:137] Memory required for data: 2526672000
I0111 17:54:26.896642 20349 layer_factory.hpp:77] Creating layer scale7
I0111 17:54:26.896679 20349 net.cpp:84] Creating Layer scale7
I0111 17:54:26.896687 20349 net.cpp:406] scale7 <- fc7
I0111 17:54:26.896705 20349 net.cpp:367] scale7 -> fc7 (in-place)
I0111 17:54:26.896800 20349 layer_factory.hpp:77] Creating layer scale7
I0111 17:54:26.897011 20349 net.cpp:122] Setting up scale7
I0111 17:54:26.897037 20349 net.cpp:129] Top shape: 200 4096 (819200)
I0111 17:54:26.897112 20349 net.cpp:137] Memory required for data: 2529948800
I0111 17:54:26.897143 20349 layer_factory.hpp:77] Creating layer relu7
I0111 17:54:26.897166 20349 net.cpp:84] Creating Layer relu7
I0111 17:54:26.897176 20349 net.cpp:406] relu7 <- fc7
I0111 17:54:26.897188 20349 net.cpp:367] relu7 -> fc7 (in-place)
I0111 17:54:26.897203 20349 net.cpp:122] Setting up relu7
I0111 17:54:26.897213 20349 net.cpp:129] Top shape: 200 4096 (819200)
I0111 17:54:26.897220 20349 net.cpp:137] Memory required for data: 2533225600
I0111 17:54:26.897228 20349 layer_factory.hpp:77] Creating layer drop7
I0111 17:54:26.897251 20349 net.cpp:84] Creating Layer drop7
I0111 17:54:26.897267 20349 net.cpp:406] drop7 <- fc7
I0111 17:54:26.897280 20349 net.cpp:367] drop7 -> fc7 (in-place)
I0111 17:54:26.897330 20349 net.cpp:122] Setting up drop7
I0111 17:54:26.897347 20349 net.cpp:129] Top shape: 200 4096 (819200)
I0111 17:54:26.897356 20349 net.cpp:137] Memory required for data: 2536502400
I0111 17:54:26.897367 20349 layer_factory.hpp:77] Creating layer quantized_conv1
I0111 17:54:26.897403 20349 net.cpp:84] Creating Layer quantized_conv1
I0111 17:54:26.897410 20349 net.cpp:406] quantized_conv1 <- fc7
I0111 17:54:26.897423 20349 net.cpp:367] quantized_conv1 -> fc7 (in-place)
I0111 17:54:26.897440 20349 net.cpp:122] Setting up quantized_conv1
I0111 17:54:26.897450 20349 net.cpp:129] Top shape: 200 4096 (819200)
I0111 17:54:26.897457 20349 net.cpp:137] Memory required for data: 2539779200
I0111 17:54:26.897464 20349 layer_factory.hpp:77] Creating layer fc8
I0111 17:54:26.897478 20349 net.cpp:84] Creating Layer fc8
I0111 17:54:26.897485 20349 net.cpp:406] fc8 <- fc7
I0111 17:54:26.897495 20349 net.cpp:380] fc8 -> fc8
I0111 17:54:26.897512 20349 quan_inner_product_layer.cpp:21] 1000   1000
ydwu=======get:
bit_width=8;  round_method=0;  round_strategy=1;  is_runtime=0;  range_low=-0.141857;  range_high=0.274249
I0111 17:54:26.980592 20349 net.cpp:122] Setting up fc8
I0111 17:54:26.980639 20349 net.cpp:129] Top shape: 200 1000 (200000)
I0111 17:54:26.980648 20349 net.cpp:137] Memory required for data: 2540579200
I0111 17:54:26.980666 20349 layer_factory.hpp:77] Creating layer fc8_fc8_0_split
I0111 17:54:26.980690 20349 net.cpp:84] Creating Layer fc8_fc8_0_split
I0111 17:54:26.980700 20349 net.cpp:406] fc8_fc8_0_split <- fc8
I0111 17:54:26.980731 20349 net.cpp:380] fc8_fc8_0_split -> fc8_fc8_0_split_0
I0111 17:54:26.980753 20349 net.cpp:380] fc8_fc8_0_split -> fc8_fc8_0_split_1
I0111 17:54:26.980777 20349 net.cpp:380] fc8_fc8_0_split -> fc8_fc8_0_split_2
I0111 17:54:26.980866 20349 net.cpp:122] Setting up fc8_fc8_0_split
I0111 17:54:26.980880 20349 net.cpp:129] Top shape: 200 1000 (200000)
I0111 17:54:26.980901 20349 net.cpp:129] Top shape: 200 1000 (200000)
I0111 17:54:26.980907 20349 net.cpp:129] Top shape: 200 1000 (200000)
I0111 17:54:26.980913 20349 net.cpp:137] Memory required for data: 2542979200
I0111 17:54:26.980921 20349 layer_factory.hpp:77] Creating layer accuracy
I0111 17:54:26.980936 20349 net.cpp:84] Creating Layer accuracy
I0111 17:54:26.980942 20349 net.cpp:406] accuracy <- fc8_fc8_0_split_0
I0111 17:54:26.980952 20349 net.cpp:406] accuracy <- label_data_1_split_0
I0111 17:54:26.980962 20349 net.cpp:380] accuracy -> accuracy
…
I0111 18:04:57.827775 20429 net.cpp:294] The NetState phase (0) differed from the phase (1) specified by a rule in layer accuracy_5
I0111 18:04:57.828138 20429 net.cpp:51] Initializing net from parameters: 
name: "AlexNet-BN"
state {
  phase: TRAIN
  level: 0
  stage: ""
}
layer {
  name: "data"
  type: "Data"
  top: "data"
  top: "label"
  include {
    phase: TRAIN
  }
  transform_param {
    mirror: true
    crop_size: 224
    mean_value: 103.939
    mean_value: 116.779
    mean_value: 123.68
  }
  data_param {
    source: "/home/DATA/imagenet_resize/lmdb_resize/ilsvrc12_train_lmdb"
    batch_size: 200
    backend: LMDB
  }
}
layer {
  name: "conv1"
  type: "QuanConvolution"
  bottom: "data"
  top: "conv1"
  param {
    lr_mult: 1
    decay_mult: 1
  }
  param {
    lr_mult: 2
    decay_mult: 0
  }
  quan_convolution_param {
    num_output: 96
    pad: 2
    kernel_size: 11
    stride: 4
    weight_filler {
      type: "gaussian"
      std: 0.01
    }
    bias_filler {
      type: "constant"
      value: 0
    }
    round_method: ROUND
    round_strategy: NEUTRAL
    bit_width: 8
    range_low: -0.872089
    range_high: 0.927025
  }
}
layer {
  name: "bn1"
  type: "BatchNorm"
  bottom: "conv1"
  top: "conv1"
}
layer {
  name: "scale1"
  type: "Scale"
  bottom: "conv1"
  top: "conv1"
  scale_param {
    bias_term: true
  }
}
layer {
  name: "relu1"
  type: "ReLU"
  bottom: "conv1"
  top: "conv1"
}
layer {
  name: "pool1"
  type: "Pooling"
  bottom: "conv1"
  top: "pool1"
  pooling_param {
    pool: MAX
    kernel_size: 3
    stride: 2
  }
}
layer {
  name: "quantized_conv1"
  type: "Quantization"
  bottom: "pool1"
  top: "pool1"
  quantization_param {
    round_method: ROUND
    round_strategy: AGGRESSIVE
    bit_width: 4
    range: 0
    range: 13.965383
  }
}
layer {
  name: "conv2"
  type: "QuanConvolution"
  bottom: "pool1"
  top: "conv2"
  param {
    lr_mult: 1
    decay_mult: 1
  }
  param {
    lr_mult: 2
    decay_mult: 0
  }
  quan_convolution_param {
    num_output: 256
    pad: 2
    kernel_size: 5
    weight_filler {
      type: "gaussian"
      std: 0.01
    }
    bias_filler {
      type: "constant"
      value: 0.1
    }
    round_method: ROUND
    round_strategy: NEUTRAL
    bit_width: 8
    range_low: -0.806018
    range_high: 1.5182
  }
}
layer {
  name: "bn2"
  type: "BatchNorm"
  bottom: "conv2"
  top: "conv2"
}
layer {
  name: "scale2"
  type: "Scale"
  bottom: "conv2"
  top: "conv2"
  scale_param {
    bias_term: true
  }
}
layer {
  name: "relu2"
  type: "ReLU"
  bottom: "conv2"
  top: "conv2"
}
layer {
  name: "pool2"
  type: "Pooling"
  bottom: "conv2"
  top: "pool2"
  pooling_param {
    pool: MAX
    kernel_size: 3
    stride: 2
  }
}
layer {
  name: "quantized_conv1"
  type: "Quantization"
  bottom: "pool2"
  top: "pool2"
  quantization_param {
    round_method: ROUND
    round_strategy: AGGRESSIVE
    bit_width: 4
    range: 0
    range: 6.74956
  }
}
layer {
  name: "conv3"
  type: "QuanConvolution"
  bottom: "pool2"
  top: "conv3"
  param {
    lr_mult: 1
    decay_mult: 1
  }
  param {
    lr_mult: 2
    decay_mult: 0
  }
  quan_convolution_param {
    num_output: 384
    pad: 1
    kernel_size: 3
    weight_filler {
      type: "gaussian"
      std: 0.01
    }
    bias_filler {
      type: "constant"
      value: 0
    }
    round_method: ROUND
    round_strategy: NEUTRAL
    bit_width: 8
    range_low: -0.621858
    range_high: 0.673858
  }
}
layer {
  name: "bn3"
  type: "BatchNorm"
  bottom: "conv3"
  top: "conv3"
}
layer {
  name: "scale3"
  type: "Scale"
  bottom: "conv3"
  top: "conv3"
  scale_param {
    bias_term: true
  }
}
layer {
  name: "relu3"
  type: "ReLU"
  bottom: "conv3"
  top: "conv3"
}
layer {
  name: "quantized_conv1"
  type: "Quantization"
  bottom: "conv3"
  top: "conv3"
  quantization_param {
    round_method: ROUND
    round_strategy: AGGRESSIVE
    bit_width: 4
    range: 0
    range: 8.48454
  }
}
layer {
  name: "conv4"
  type: "QuanConvolution"
  bottom: "conv3"
  top: "conv4"
  param {
    lr_mult: 1
    decay_mult: 1
  }
  param {
    lr_mult: 2
    decay_mult: 0
  }
  quan_convolution_param {
    num_output: 384
    pad: 1
    kernel_size: 3
    weight_filler {
      type: "gaussian"
      std: 0.01
    }
    bias_filler {
      type: "constant"
      value: 0.1
    }
    round_method: ROUND
    round_strategy: NEUTRAL
    bit_width: 8
    range_low: -0.376634
    range_high: 0.341829
  }
}
layer {
  name: "bn4"
  type: "BatchNorm"
  bottom: "conv4"
  top: "conv4"
}
layer {
  name: "scale4"
  type: "Scale"
  bottom: "conv4"
  top: "conv4"
  scale_param {
    bias_term: true
  }
}
layer {
  name: "relu4"
  type: "ReLU"
  bottom: "conv4"
  top: "conv4"
}
layer {
  name: "quantized_conv1"
  type: "Quantization"
  bottom: "conv4"
  top: "conv4"
  quantization_param {
    round_method: ROUND
    round_strategy: AGGRESSIVE
    bit_width: 4
    range: 0
    range: 7.3369722
  }
}
layer {
  name: "conv5"
  type: "QuanConvolution"
  bottom: "conv4"
  top: "conv5"
  param {
    lr_mult: 1
    decay_mult: 1
  }
  param {
    lr_mult: 2
    decay_mult: 0
  }
  quan_convolution_param {
    num_output: 256
    pad: 1
    kernel_size: 3
    weight_filler {
      type: "gaussian"
      std: 0.01
    }
    bias_filler {
      type: "constant"
      value: 0.1
    }
    round_method: ROUND
    round_strategy: NEUTRAL
    bit_width: 8
    range_low: -0.347658
    range_high: 0.330042
  }
}
layer {
  name: "bn5"
  type: "BatchNorm"
  bottom: "conv5"
  top: "conv5"
}
layer {
  name: "scale5"
  type: "Scale"
  bottom: "conv5"
  top: "conv5"
  scale_param {
    bias_term: true
  }
}
layer {
  name: "relu5"
  type: "ReLU"
  bottom: "conv5"
  top: "conv5"
}
layer {
  name: "pool5"
  type: "Pooling"
  bottom: "conv5"
  top: "pool5"
  pooling_param {
    pool: MAX
    kernel_size: 3
    stride: 2
  }
}
layer {
  name: "quantized_conv1"
  type: "Quantization"
  bottom: "pool5"
  top: "pool5"
  quantization_param {
    round_method: ROUND
    round_strategy: AGGRESSIVE
    bit_width: 4
    range: 0
    range: 8.7577133
  }
}
layer {
  name: "fc6"
  type: "QuanInnerProduct"
  bottom: "pool5"
  top: "fc6"
  param {
    lr_mult: 1
    decay_mult: 1
  }
  param {
    lr_mult: 2
    decay_mult: 0
  }
  quan_inner_product_param {
    num_output: 4096
    weight_filler {
      type: "gaussian"
      std: 0.005
    }
    bias_filler {
      type: "constant"
      value: 0.1
    }
    round_method: ROUND
    round_strategy: NEUTRAL
    bit_width: 8
    range_low: -0.160061
    range_high: 0.148064
  }
}
layer {
  name: "bn6"
  type: "BatchNorm"
  bottom: "fc6"
  top: "fc6"
}
layer {
  name: "scale6"
  type: "Scale"
  bottom: "fc6"
  top: "fc6"
  scale_param {
    bias_term: true
  }
}
layer {
  name: "relu6"
  type: "ReLU"
  bottom: "fc6"
  top: "fc6"
}
layer {
  name: "drop6"
  type: "Dropout"
  bottom: "fc6"
  top: "fc6"
  dropout_param {
    dropout_ratio: 0.5
  }
}
layer {
  name: "quantized_conv1"
  type: "Quantization"
  bottom: "fc6"
  top: "fc6"
  quantization_param {
    round_method: ROUND
    round_strategy: AGGRESSIVE
    bit_width: 4
    range: 0
    range: 1.659358
  }
}
layer {
  name: "fc7"
  type: "QuanInnerProduct"
  bottom: "fc6"
  top: "fc7"
  param {
    lr_mult: 1
    decay_mult: 1
  }
  param {
    lr_mult: 2
    decay_mult: 0
  }
  quan_inner_product_param {
    num_output: 4096
    weight_filler {
      type: "gaussian"
      std: 0.005
    }
    bias_filler {
      type: "constant"
      value: 0.1
    }
    round_method: ROUND
    round_strategy: NEUTRAL
    bit_width: 8
    range_low: -0.162636
    range_high: 0.197684
  }
}
layer {
  name: "bn7"
  type: "BatchNorm"
  bottom: "fc7"
  top: "fc7"
}
layer {
  name: "scale7"
  type: "Scale"
  bottom: "fc7"
  top: "fc7"
  scale_param {
    bias_term: true
  }
}
layer {
  name: "relu7"
  type: "ReLU"
  bottom: "fc7"
  top: "fc7"
}
layer {
  name: "drop7"
  type: "Dropout"
  bottom: "fc7"
  top: "fc7"
  dropout_param {
    dropout_ratio: 0.5
  }
}
layer {
  name: "quantized_conv1"
  type: "Quantization"
  bottom: "fc7"
  top: "fc7"
  quantization_param {
    round_method: ROUND
    round_strategy: AGGRESSIVE
    bit_width: 4
    range: 0
    range: 7.5598521
  }
}
layer {
  name: "fc8"
  type: "QuanInnerProduct"
  bottom: "fc7"
  top: "fc8"
  param {
    lr_mult: 1
    decay_mult: 1
  }
  param {
    lr_mult: 2
    decay_mult: 0
  }
  quan_inner_product_param {
    num_output: 1000
    weight_filler {
      type: "gaussian"
      std: 0.01
    }
    bias_filler {
      type: "constant"
      value: 0
    }
    round_method: ROUND
    round_strategy: NEUTRAL
    bit_width: 8
    range_low: -0.141857
    range_high: 0.274249
  }
}
layer {
  name: "accuracy_5_TRAIN"
  type: "Accuracy"
  bottom: "fc8"
  bottom: "label"
  top: "accuracy_5_TRAIN"
  include {
    phase: TRAIN
  }
  accuracy_param {
    top_k: 5
  }
}
layer {
  name: "loss"
  type: "SoftmaxWithLoss"
  bottom: "fc8"
  bottom: "label"
  top: "loss"
}
I0111 18:04:57.828439 20429 layer_factory.hpp:77] Creating layer data
I0111 18:04:57.860201 20429 db_lmdb.cpp:35] Opened lmdb /home/DATA/imagenet_resize/lmdb_resize/ilsvrc12_train_lmdb
I0111 18:04:57.870749 20429 net.cpp:84] Creating Layer data
I0111 18:04:57.870791 20429 net.cpp:380] data -> data
I0111 18:04:57.870826 20429 net.cpp:380] data -> label
I0111 18:04:57.880707 20429 data_layer.cpp:45] output data size: 200,3,224,224
I0111 18:04:58.248072 20429 net.cpp:122] Setting up data
I0111 18:04:58.248148 20429 net.cpp:129] Top shape: 200 3 224 224 (30105600)
I0111 18:04:58.248160 20429 net.cpp:129] Top shape: 200 (200)
I0111 18:04:58.248167 20429 net.cpp:137] Memory required for data: 120423200
I0111 18:04:58.248201 20429 layer_factory.hpp:77] Creating layer label_data_1_split
I0111 18:04:58.248227 20429 net.cpp:84] Creating Layer label_data_1_split
I0111 18:04:58.248240 20429 net.cpp:406] label_data_1_split <- label
I0111 18:04:58.248265 20429 net.cpp:380] label_data_1_split -> label_data_1_split_0
I0111 18:04:58.248301 20429 net.cpp:380] label_data_1_split -> label_data_1_split_1
I0111 18:04:58.248419 20429 net.cpp:122] Setting up label_data_1_split
I0111 18:04:58.248431 20429 net.cpp:129] Top shape: 200 (200)
I0111 18:04:58.248438 20429 net.cpp:129] Top shape: 200 (200)
I0111 18:04:58.248443 20429 net.cpp:137] Memory required for data: 120424800
I0111 18:04:58.248448 20429 layer_factory.hpp:77] Creating layer conv1
I0111 18:04:58.248491 20429 net.cpp:84] Creating Layer conv1
I0111 18:04:58.248499 20429 net.cpp:406] conv1 <- data
I0111 18:04:58.248512 20429 net.cpp:380] conv1 -> conv1
ydwu=======get:
bit_width=8;  round_method=0;  round_strategy=1;  is_runtime=0;  range_low=-0.872089;  range_high=0.927025
I0111 18:04:58.270277 20429 net.cpp:122] Setting up conv1
I0111 18:04:58.270314 20429 net.cpp:129] Top shape: 200 96 55 55 (58080000)
I0111 18:04:58.270323 20429 net.cpp:137] Memory required for data: 352744800
I0111 18:04:58.270354 20429 layer_factory.hpp:77] Creating layer bn1
I0111 18:04:58.270380 20429 net.cpp:84] Creating Layer bn1
I0111 18:04:58.270386 20429 net.cpp:406] bn1 <- conv1
I0111 18:04:58.270395 20429 net.cpp:367] bn1 -> conv1 (in-place)
I0111 18:04:58.270617 20429 net.cpp:122] Setting up bn1
I0111 18:04:58.270630 20429 net.cpp:129] Top shape: 200 96 55 55 (58080000)
I0111 18:04:58.270648 20429 net.cpp:137] Memory required for data: 585064800
I0111 18:04:58.270663 20429 layer_factory.hpp:77] Creating layer scale1
I0111 18:04:58.270676 20429 net.cpp:84] Creating Layer scale1
I0111 18:04:58.270684 20429 net.cpp:406] scale1 <- conv1
I0111 18:04:58.270742 20429 net.cpp:367] scale1 -> conv1 (in-place)
I0111 18:04:58.270813 20429 layer_factory.hpp:77] Creating layer scale1
I0111 18:04:58.270962 20429 net.cpp:122] Setting up scale1
I0111 18:04:58.270975 20429 net.cpp:129] Top shape: 200 96 55 55 (58080000)
I0111 18:04:58.270993 20429 net.cpp:137] Memory required for data: 817384800
I0111 18:04:58.271003 20429 layer_factory.hpp:77] Creating layer relu1
I0111 18:04:58.271013 20429 net.cpp:84] Creating Layer relu1
I0111 18:04:58.271019 20429 net.cpp:406] relu1 <- conv1
I0111 18:04:58.271029 20429 net.cpp:367] relu1 -> conv1 (in-place)
I0111 18:04:58.271051 20429 net.cpp:122] Setting up relu1
I0111 18:04:58.271060 20429 net.cpp:129] Top shape: 200 96 55 55 (58080000)
I0111 18:04:58.271067 20429 net.cpp:137] Memory required for data: 1049704800
I0111 18:04:58.271075 20429 layer_factory.hpp:77] Creating layer pool1
I0111 18:04:58.271087 20429 net.cpp:84] Creating Layer pool1
I0111 18:04:58.271095 20429 net.cpp:406] pool1 <- conv1
I0111 18:04:58.271104 20429 net.cpp:380] pool1 -> pool1
I0111 18:04:58.271178 20429 net.cpp:122] Setting up pool1
I0111 18:04:58.271190 20429 net.cpp:129] Top shape: 200 96 27 27 (13996800)
I0111 18:04:58.271198 20429 net.cpp:137] Memory required for data: 1105692000
I0111 18:04:58.271203 20429 layer_factory.hpp:77] Creating layer quantized_conv1
I0111 18:04:58.271215 20429 net.cpp:84] Creating Layer quantized_conv1
I0111 18:04:58.271235 20429 net.cpp:406] quantized_conv1 <- pool1
I0111 18:04:58.271245 20429 net.cpp:367] quantized_conv1 -> pool1 (in-place)
I0111 18:04:58.271258 20429 net.cpp:122] Setting up quantized_conv1
I0111 18:04:58.271268 20429 net.cpp:129] Top shape: 200 96 27 27 (13996800)
I0111 18:04:58.271275 20429 net.cpp:137] Memory required for data: 1161679200
I0111 18:04:58.271281 20429 layer_factory.hpp:77] Creating layer conv2
I0111 18:04:58.271298 20429 net.cpp:84] Creating Layer conv2
I0111 18:04:58.271306 20429 net.cpp:406] conv2 <- pool1
I0111 18:04:58.271317 20429 net.cpp:380] conv2 -> conv2
ydwu=======get:
bit_width=8;  round_method=0;  round_strategy=1;  is_runtime=0;  range_low=-0.806018;  range_high=1.5182
I0111 18:04:58.282549 20429 net.cpp:122] Setting up conv2
I0111 18:04:58.282572 20429 net.cpp:129] Top shape: 200 256 27 27 (37324800)
I0111 18:04:58.282593 20429 net.cpp:137] Memory required for data: 1310978400
I0111 18:04:58.282610 20429 layer_factory.hpp:77] Creating layer bn2
I0111 18:04:58.282624 20429 net.cpp:84] Creating Layer bn2
I0111 18:04:58.282632 20429 net.cpp:406] bn2 <- conv2
I0111 18:04:58.282644 20429 net.cpp:367] bn2 -> conv2 (in-place)
I0111 18:04:58.282841 20429 net.cpp:122] Setting up bn2
I0111 18:04:58.282856 20429 net.cpp:129] Top shape: 200 256 27 27 (37324800)
I0111 18:04:58.282862 20429 net.cpp:137] Memory required for data: 1460277600
I0111 18:04:58.282887 20429 layer_factory.hpp:77] Creating layer scale2
I0111 18:04:58.282899 20429 net.cpp:84] Creating Layer scale2
I0111 18:04:58.282907 20429 net.cpp:406] scale2 <- conv2
I0111 18:04:58.282917 20429 net.cpp:367] scale2 -> conv2 (in-place)
I0111 18:04:58.282977 20429 layer_factory.hpp:77] Creating layer scale2
I0111 18:04:58.283092 20429 net.cpp:122] Setting up scale2
I0111 18:04:58.283104 20429 net.cpp:129] Top shape: 200 256 27 27 (37324800)
I0111 18:04:58.283110 20429 net.cpp:137] Memory required for data: 1609576800
I0111 18:04:58.283133 20429 layer_factory.hpp:77] Creating layer relu2
I0111 18:04:58.283144 20429 net.cpp:84] Creating Layer relu2
I0111 18:04:58.283151 20429 net.cpp:406] relu2 <- conv2
I0111 18:04:58.283161 20429 net.cpp:367] relu2 -> conv2 (in-place)
I0111 18:04:58.283171 20429 net.cpp:122] Setting up relu2
I0111 18:04:58.283180 20429 net.cpp:129] Top shape: 200 256 27 27 (37324800)
I0111 18:04:58.283187 20429 net.cpp:137] Memory required for data: 1758876000
I0111 18:04:58.283193 20429 layer_factory.hpp:77] Creating layer pool2
I0111 18:04:58.283216 20429 net.cpp:84] Creating Layer pool2
I0111 18:04:58.283224 20429 net.cpp:406] pool2 <- conv2
I0111 18:04:58.283234 20429 net.cpp:380] pool2 -> pool2
I0111 18:04:58.283290 20429 net.cpp:122] Setting up pool2
I0111 18:04:58.283303 20429 net.cpp:129] Top shape: 200 256 13 13 (8652800)
I0111 18:04:58.283339 20429 net.cpp:137] Memory required for data: 1793487200
I0111 18:04:58.283347 20429 layer_factory.hpp:77] Creating layer quantized_conv1
I0111 18:04:58.283358 20429 net.cpp:84] Creating Layer quantized_conv1
I0111 18:04:58.283365 20429 net.cpp:406] quantized_conv1 <- pool2
I0111 18:04:58.283375 20429 net.cpp:367] quantized_conv1 -> pool2 (in-place)
I0111 18:04:58.283385 20429 net.cpp:122] Setting up quantized_conv1
I0111 18:04:58.283393 20429 net.cpp:129] Top shape: 200 256 13 13 (8652800)
I0111 18:04:58.283399 20429 net.cpp:137] Memory required for data: 1828098400
I0111 18:04:58.283406 20429 layer_factory.hpp:77] Creating layer conv3
I0111 18:04:58.283418 20429 net.cpp:84] Creating Layer conv3
I0111 18:04:58.283426 20429 net.cpp:406] conv3 <- pool2
I0111 18:04:58.283437 20429 net.cpp:380] conv3 -> conv3
ydwu=======get:
bit_width=8;  round_method=0;  round_strategy=1;  is_runtime=0;  range_low=-0.621858;  range_high=0.673858
I0111 18:04:58.297771 20429 net.cpp:122] Setting up conv3
I0111 18:04:58.297804 20429 net.cpp:129] Top shape: 200 384 13 13 (12979200)
I0111 18:04:58.297811 20429 net.cpp:137] Memory required for data: 1880015200
I0111 18:04:58.297844 20429 layer_factory.hpp:77] Creating layer bn3
I0111 18:04:58.297860 20429 net.cpp:84] Creating Layer bn3
I0111 18:04:58.297868 20429 net.cpp:406] bn3 <- conv3
I0111 18:04:58.297878 20429 net.cpp:367] bn3 -> conv3 (in-place)
I0111 18:04:58.298089 20429 net.cpp:122] Setting up bn3
I0111 18:04:58.298115 20429 net.cpp:129] Top shape: 200 384 13 13 (12979200)
I0111 18:04:58.298121 20429 net.cpp:137] Memory required for data: 1931932000
I0111 18:04:58.298140 20429 layer_factory.hpp:77] Creating layer scale3
I0111 18:04:58.298154 20429 net.cpp:84] Creating Layer scale3
I0111 18:04:58.298162 20429 net.cpp:406] scale3 <- conv3
I0111 18:04:58.298172 20429 net.cpp:367] scale3 -> conv3 (in-place)
I0111 18:04:58.298221 20429 layer_factory.hpp:77] Creating layer scale3
I0111 18:04:58.298348 20429 net.cpp:122] Setting up scale3
I0111 18:04:58.298362 20429 net.cpp:129] Top shape: 200 384 13 13 (12979200)
I0111 18:04:58.298369 20429 net.cpp:137] Memory required for data: 1983848800
I0111 18:04:58.298380 20429 layer_factory.hpp:77] Creating layer relu3
I0111 18:04:58.298391 20429 net.cpp:84] Creating Layer relu3
I0111 18:04:58.298398 20429 net.cpp:406] relu3 <- conv3
I0111 18:04:58.298409 20429 net.cpp:367] relu3 -> conv3 (in-place)
I0111 18:04:58.298418 20429 net.cpp:122] Setting up relu3
I0111 18:04:58.298427 20429 net.cpp:129] Top shape: 200 384 13 13 (12979200)
I0111 18:04:58.298434 20429 net.cpp:137] Memory required for data: 2035765600
I0111 18:04:58.298441 20429 layer_factory.hpp:77] Creating layer quantized_conv1
I0111 18:04:58.298452 20429 net.cpp:84] Creating Layer quantized_conv1
I0111 18:04:58.298460 20429 net.cpp:406] quantized_conv1 <- conv3
I0111 18:04:58.298468 20429 net.cpp:367] quantized_conv1 -> conv3 (in-place)
I0111 18:04:58.298481 20429 net.cpp:122] Setting up quantized_conv1
I0111 18:04:58.298491 20429 net.cpp:129] Top shape: 200 384 13 13 (12979200)
I0111 18:04:58.298497 20429 net.cpp:137] Memory required for data: 2087682400
I0111 18:04:58.298504 20429 layer_factory.hpp:77] Creating layer conv4
I0111 18:04:58.298518 20429 net.cpp:84] Creating Layer conv4
I0111 18:04:58.298526 20429 net.cpp:406] conv4 <- conv3
I0111 18:04:58.298537 20429 net.cpp:380] conv4 -> conv4
ydwu=======get:
bit_width=8;  round_method=0;  round_strategy=1;  is_runtime=0;  range_low=-0.376634;  range_high=0.341829
I0111 18:04:58.320158 20429 net.cpp:122] Setting up conv4
I0111 18:04:58.320181 20429 net.cpp:129] Top shape: 200 384 13 13 (12979200)
I0111 18:04:58.320188 20429 net.cpp:137] Memory required for data: 2139599200
I0111 18:04:58.320199 20429 layer_factory.hpp:77] Creating layer bn4
I0111 18:04:58.320211 20429 net.cpp:84] Creating Layer bn4
I0111 18:04:58.320219 20429 net.cpp:406] bn4 <- conv4
I0111 18:04:58.320231 20429 net.cpp:367] bn4 -> conv4 (in-place)
I0111 18:04:58.320436 20429 net.cpp:122] Setting up bn4
I0111 18:04:58.320451 20429 net.cpp:129] Top shape: 200 384 13 13 (12979200)
I0111 18:04:58.320461 20429 net.cpp:137] Memory required for data: 2191516000
I0111 18:04:58.320472 20429 layer_factory.hpp:77] Creating layer scale4
I0111 18:04:58.320483 20429 net.cpp:84] Creating Layer scale4
I0111 18:04:58.320523 20429 net.cpp:406] scale4 <- conv4
I0111 18:04:58.320531 20429 net.cpp:367] scale4 -> conv4 (in-place)
I0111 18:04:58.320580 20429 layer_factory.hpp:77] Creating layer scale4
I0111 18:04:58.320709 20429 net.cpp:122] Setting up scale4
I0111 18:04:58.320722 20429 net.cpp:129] Top shape: 200 384 13 13 (12979200)
I0111 18:04:58.320729 20429 net.cpp:137] Memory required for data: 2243432800
I0111 18:04:58.320739 20429 layer_factory.hpp:77] Creating layer relu4
I0111 18:04:58.320749 20429 net.cpp:84] Creating Layer relu4
I0111 18:04:58.320755 20429 net.cpp:406] relu4 <- conv4
I0111 18:04:58.320766 20429 net.cpp:367] relu4 -> conv4 (in-place)
I0111 18:04:58.320776 20429 net.cpp:122] Setting up relu4
I0111 18:04:58.320785 20429 net.cpp:129] Top shape: 200 384 13 13 (12979200)
I0111 18:04:58.320791 20429 net.cpp:137] Memory required for data: 2295349600
I0111 18:04:58.320796 20429 layer_factory.hpp:77] Creating layer quantized_conv1
I0111 18:04:58.320818 20429 net.cpp:84] Creating Layer quantized_conv1
I0111 18:04:58.320827 20429 net.cpp:406] quantized_conv1 <- conv4
I0111 18:04:58.320835 20429 net.cpp:367] quantized_conv1 -> conv4 (in-place)
I0111 18:04:58.320845 20429 net.cpp:122] Setting up quantized_conv1
I0111 18:04:58.320854 20429 net.cpp:129] Top shape: 200 384 13 13 (12979200)
I0111 18:04:58.320860 20429 net.cpp:137] Memory required for data: 2347266400
I0111 18:04:58.320868 20429 layer_factory.hpp:77] Creating layer conv5
I0111 18:04:58.320883 20429 net.cpp:84] Creating Layer conv5
I0111 18:04:58.320891 20429 net.cpp:406] conv5 <- conv4
I0111 18:04:58.320904 20429 net.cpp:380] conv5 -> conv5
ydwu=======get:
bit_width=8;  round_method=0;  round_strategy=1;  is_runtime=0;  range_low=-0.347658;  range_high=0.330042
I0111 18:04:58.336361 20429 net.cpp:122] Setting up conv5
I0111 18:04:58.336380 20429 net.cpp:129] Top shape: 200 256 13 13 (8652800)
I0111 18:04:58.336387 20429 net.cpp:137] Memory required for data: 2381877600
I0111 18:04:58.336400 20429 layer_factory.hpp:77] Creating layer bn5
I0111 18:04:58.336424 20429 net.cpp:84] Creating Layer bn5
I0111 18:04:58.336432 20429 net.cpp:406] bn5 <- conv5
I0111 18:04:58.336446 20429 net.cpp:367] bn5 -> conv5 (in-place)
I0111 18:04:58.336660 20429 net.cpp:122] Setting up bn5
I0111 18:04:58.336675 20429 net.cpp:129] Top shape: 200 256 13 13 (8652800)
I0111 18:04:58.336683 20429 net.cpp:137] Memory required for data: 2416488800
I0111 18:04:58.336707 20429 layer_factory.hpp:77] Creating layer scale5
I0111 18:04:58.336720 20429 net.cpp:84] Creating Layer scale5
I0111 18:04:58.336727 20429 net.cpp:406] scale5 <- conv5
I0111 18:04:58.336737 20429 net.cpp:367] scale5 -> conv5 (in-place)
I0111 18:04:58.336802 20429 layer_factory.hpp:77] Creating layer scale5
I0111 18:04:58.336925 20429 net.cpp:122] Setting up scale5
I0111 18:04:58.336940 20429 net.cpp:129] Top shape: 200 256 13 13 (8652800)
I0111 18:04:58.336946 20429 net.cpp:137] Memory required for data: 2451100000
I0111 18:04:58.336956 20429 layer_factory.hpp:77] Creating layer relu5
I0111 18:04:58.336985 20429 net.cpp:84] Creating Layer relu5
I0111 18:04:58.336993 20429 net.cpp:406] relu5 <- conv5
I0111 18:04:58.337002 20429 net.cpp:367] relu5 -> conv5 (in-place)
I0111 18:04:58.337013 20429 net.cpp:122] Setting up relu5
I0111 18:04:58.337021 20429 net.cpp:129] Top shape: 200 256 13 13 (8652800)
I0111 18:04:58.337028 20429 net.cpp:137] Memory required for data: 2485711200
I0111 18:04:58.337034 20429 layer_factory.hpp:77] Creating layer pool5
I0111 18:04:58.337049 20429 net.cpp:84] Creating Layer pool5
I0111 18:04:58.337056 20429 net.cpp:406] pool5 <- conv5
I0111 18:04:58.337065 20429 net.cpp:380] pool5 -> pool5
I0111 18:04:58.337117 20429 net.cpp:122] Setting up pool5
I0111 18:04:58.337131 20429 net.cpp:129] Top shape: 200 256 6 6 (1843200)
I0111 18:04:58.337137 20429 net.cpp:137] Memory required for data: 2493084000
I0111 18:04:58.337146 20429 layer_factory.hpp:77] Creating layer quantized_conv1
I0111 18:04:58.337155 20429 net.cpp:84] Creating Layer quantized_conv1
I0111 18:04:58.337162 20429 net.cpp:406] quantized_conv1 <- pool5
I0111 18:04:58.337186 20429 net.cpp:367] quantized_conv1 -> pool5 (in-place)
I0111 18:04:58.337198 20429 net.cpp:122] Setting up quantized_conv1
I0111 18:04:58.337239 20429 net.cpp:129] Top shape: 200 256 6 6 (1843200)
I0111 18:04:58.337249 20429 net.cpp:137] Memory required for data: 2500456800
I0111 18:04:58.337263 20429 layer_factory.hpp:77] Creating layer fc6
I0111 18:04:58.337276 20429 net.cpp:84] Creating Layer fc6
I0111 18:04:58.337283 20429 net.cpp:406] fc6 <- pool5
I0111 18:04:58.337294 20429 net.cpp:380] fc6 -> fc6
I0111 18:04:58.337312 20429 quan_inner_product_layer.cpp:21] 4096   4096
ydwu=======get:
bit_width=8;  round_method=0;  round_strategy=1;  is_runtime=0;  range_low=-0.160061;  range_high=0.148064
I0111 18:04:58.950455 20429 net.cpp:122] Setting up fc6
I0111 18:04:58.950515 20429 net.cpp:129] Top shape: 200 4096 (819200)
I0111 18:04:58.950522 20429 net.cpp:137] Memory required for data: 2503733600
I0111 18:04:58.950549 20429 layer_factory.hpp:77] Creating layer bn6
I0111 18:04:58.950572 20429 net.cpp:84] Creating Layer bn6
I0111 18:04:58.950584 20429 net.cpp:406] bn6 <- fc6
I0111 18:04:58.950598 20429 net.cpp:367] bn6 -> fc6 (in-place)
I0111 18:04:58.950837 20429 net.cpp:122] Setting up bn6
I0111 18:04:58.950851 20429 net.cpp:129] Top shape: 200 4096 (819200)
I0111 18:04:58.950870 20429 net.cpp:137] Memory required for data: 2507010400
I0111 18:04:58.950883 20429 layer_factory.hpp:77] Creating layer scale6
I0111 18:04:58.950908 20429 net.cpp:84] Creating Layer scale6
I0111 18:04:58.950917 20429 net.cpp:406] scale6 <- fc6
I0111 18:04:58.950927 20429 net.cpp:367] scale6 -> fc6 (in-place)
I0111 18:04:58.950987 20429 layer_factory.hpp:77] Creating layer scale6
I0111 18:04:58.951135 20429 net.cpp:122] Setting up scale6
I0111 18:04:58.951149 20429 net.cpp:129] Top shape: 200 4096 (819200)
I0111 18:04:58.951156 20429 net.cpp:137] Memory required for data: 2510287200
I0111 18:04:58.951167 20429 layer_factory.hpp:77] Creating layer relu6
I0111 18:04:58.951179 20429 net.cpp:84] Creating Layer relu6
I0111 18:04:58.951192 20429 net.cpp:406] relu6 <- fc6
I0111 18:04:58.951205 20429 net.cpp:367] relu6 -> fc6 (in-place)
I0111 18:04:58.951216 20429 net.cpp:122] Setting up relu6
I0111 18:04:58.951225 20429 net.cpp:129] Top shape: 200 4096 (819200)
I0111 18:04:58.951232 20429 net.cpp:137] Memory required for data: 2513564000
I0111 18:04:58.951239 20429 layer_factory.hpp:77] Creating layer drop6
I0111 18:04:58.951251 20429 net.cpp:84] Creating Layer drop6
I0111 18:04:58.951257 20429 net.cpp:406] drop6 <- fc6
I0111 18:04:58.951267 20429 net.cpp:367] drop6 -> fc6 (in-place)
I0111 18:04:58.951313 20429 net.cpp:122] Setting up drop6
I0111 18:04:58.951325 20429 net.cpp:129] Top shape: 200 4096 (819200)
I0111 18:04:58.951333 20429 net.cpp:137] Memory required for data: 2516840800
I0111 18:04:58.951339 20429 layer_factory.hpp:77] Creating layer quantized_conv1
I0111 18:04:58.951351 20429 net.cpp:84] Creating Layer quantized_conv1
I0111 18:04:58.951359 20429 net.cpp:406] quantized_conv1 <- fc6
I0111 18:04:58.951367 20429 net.cpp:367] quantized_conv1 -> fc6 (in-place)
I0111 18:04:58.951380 20429 net.cpp:122] Setting up quantized_conv1
I0111 18:04:58.951388 20429 net.cpp:129] Top shape: 200 4096 (819200)
I0111 18:04:58.951395 20429 net.cpp:137] Memory required for data: 2520117600
I0111 18:04:58.951401 20429 layer_factory.hpp:77] Creating layer fc7
I0111 18:04:58.951414 20429 net.cpp:84] Creating Layer fc7
I0111 18:04:58.951421 20429 net.cpp:406] fc7 <- fc6
I0111 18:04:58.951434 20429 net.cpp:380] fc7 -> fc7
I0111 18:04:58.951448 20429 quan_inner_product_layer.cpp:21] 4096   4096
ydwu=======get:
bit_width=8;  round_method=0;  round_strategy=1;  is_runtime=0;  range_low=-0.162636;  range_high=0.197684
I0111 18:04:59.219722 20429 net.cpp:122] Setting up fc7
I0111 18:04:59.219779 20429 net.cpp:129] Top shape: 200 4096 (819200)
I0111 18:04:59.219785 20429 net.cpp:137] Memory required for data: 2523394400
I0111 18:04:59.219805 20429 layer_factory.hpp:77] Creating layer bn7
I0111 18:04:59.219841 20429 net.cpp:84] Creating Layer bn7
I0111 18:04:59.219849 20429 net.cpp:406] bn7 <- fc7
I0111 18:04:59.219861 20429 net.cpp:367] bn7 -> fc7 (in-place)
I0111 18:04:59.220124 20429 net.cpp:122] Setting up bn7
I0111 18:04:59.220149 20429 net.cpp:129] Top shape: 200 4096 (819200)
I0111 18:04:59.220156 20429 net.cpp:137] Memory required for data: 2526671200
I0111 18:04:59.220168 20429 layer_factory.hpp:77] Creating layer scale7
I0111 18:04:59.220240 20429 net.cpp:84] Creating Layer scale7
I0111 18:04:59.220247 20429 net.cpp:406] scale7 <- fc7
I0111 18:04:59.220254 20429 net.cpp:367] scale7 -> fc7 (in-place)
I0111 18:04:59.220338 20429 layer_factory.hpp:77] Creating layer scale7
I0111 18:04:59.220510 20429 net.cpp:122] Setting up scale7
I0111 18:04:59.220523 20429 net.cpp:129] Top shape: 200 4096 (819200)
I0111 18:04:59.220541 20429 net.cpp:137] Memory required for data: 2529948000
I0111 18:04:59.220552 20429 layer_factory.hpp:77] Creating layer relu7
I0111 18:04:59.220566 20429 net.cpp:84] Creating Layer relu7
I0111 18:04:59.220573 20429 net.cpp:406] relu7 <- fc7
I0111 18:04:59.220582 20429 net.cpp:367] relu7 -> fc7 (in-place)
I0111 18:04:59.220597 20429 net.cpp:122] Setting up relu7
I0111 18:04:59.220604 20429 net.cpp:129] Top shape: 200 4096 (819200)
I0111 18:04:59.220612 20429 net.cpp:137] Memory required for data: 2533224800
I0111 18:04:59.220618 20429 layer_factory.hpp:77] Creating layer drop7
I0111 18:04:59.220630 20429 net.cpp:84] Creating Layer drop7
I0111 18:04:59.220638 20429 net.cpp:406] drop7 <- fc7
I0111 18:04:59.220646 20429 net.cpp:367] drop7 -> fc7 (in-place)
I0111 18:04:59.220681 20429 net.cpp:122] Setting up drop7
I0111 18:04:59.220695 20429 net.cpp:129] Top shape: 200 4096 (819200)
I0111 18:04:59.220701 20429 net.cpp:137] Memory required for data: 2536501600
I0111 18:04:59.220708 20429 layer_factory.hpp:77] Creating layer quantized_conv1
I0111 18:04:59.220721 20429 net.cpp:84] Creating Layer quantized_conv1
I0111 18:04:59.220727 20429 net.cpp:406] quantized_conv1 <- fc7
I0111 18:04:59.220736 20429 net.cpp:367] quantized_conv1 -> fc7 (in-place)
I0111 18:04:59.220748 20429 net.cpp:122] Setting up quantized_conv1
I0111 18:04:59.220757 20429 net.cpp:129] Top shape: 200 4096 (819200)
I0111 18:04:59.220763 20429 net.cpp:137] Memory required for data: 2539778400
I0111 18:04:59.220769 20429 layer_factory.hpp:77] Creating layer fc8
I0111 18:04:59.220782 20429 net.cpp:84] Creating Layer fc8
I0111 18:04:59.220789 20429 net.cpp:406] fc8 <- fc7
I0111 18:04:59.220801 20429 net.cpp:380] fc8 -> fc8
I0111 18:04:59.220815 20429 quan_inner_product_layer.cpp:21] 1000   1000
ydwu=======get:
bit_width=8;  round_method=0;  round_strategy=1;  is_runtime=0;  range_low=-0.141857;  range_high=0.274249
I0111 18:04:59.287291 20429 net.cpp:122] Setting up fc8
I0111 18:04:59.287331 20429 net.cpp:129] Top shape: 200 1000 (200000)
I0111 18:04:59.287338 20429 net.cpp:137] Memory required for data: 2540578400
I0111 18:04:59.287355 20429 layer_factory.hpp:77] Creating layer fc8_fc8_0_split
I0111 18:04:59.287384 20429 net.cpp:84] Creating Layer fc8_fc8_0_split
I0111 18:04:59.287392 20429 net.cpp:406] fc8_fc8_0_split <- fc8
I0111 18:04:59.287405 20429 net.cpp:380] fc8_fc8_0_split -> fc8_fc8_0_split_0
I0111 18:04:59.287420 20429 net.cpp:380] fc8_fc8_0_split -> fc8_fc8_0_split_1
I0111 18:04:59.287492 20429 net.cpp:122] Setting up fc8_fc8_0_split
I0111 18:04:59.287518 20429 net.cpp:129] Top shape: 200 1000 (200000)
I0111 18:04:59.287525 20429 net.cpp:129] Top shape: 200 1000 (200000)
I0111 18:04:59.287530 20429 net.cpp:137] Memory required for data: 2542178400
I0111 18:04:59.287536 20429 layer_factory.hpp:77] Creating layer accuracy_5_TRAIN
I0111 18:04:59.287554 20429 net.cpp:84] Creating Layer accuracy_5_TRAIN
I0111 18:04:59.287572 20429 net.cpp:406] accuracy_5_TRAIN <- fc8_fc8_0_split_0
I0111 18:04:59.287580 20429 net.cpp:406] accuracy_5_TRAIN <- label_data_1_split_0
…
