…
I0115 21:22:39.127847 141844 net.cpp:294] The NetState phase (0) differed from the phase (1) specified by a rule in layer accuracy_5
I0115 21:22:39.128271 141844 net.cpp:51] Initializing net from parameters: 
name: "AlexNet-BN"
state {
  phase: TRAIN
  level: 0
  stage: ""
}
layer {
  name: "data"
  type: "Data"
  top: "data"
  top: "label"
  include {
    phase: TRAIN
  }
  transform_param {
    mirror: true
    crop_size: 224
    mean_value: 103.939
    mean_value: 116.779
    mean_value: 123.68
  }
  data_param {
    source: "/home/DATA/imagenet_resize/lmdb_resize/ilsvrc12_train_lmdb"
    batch_size: 128
    backend: LMDB
  }
}
layer {
  name: "conv1"
  type: "QuanConvolution"
  bottom: "data"
  top: "conv1"
  param {
    lr_mult: 1
    decay_mult: 1
  }
  param {
    lr_mult: 2
    decay_mult: 0
  }
  quan_convolution_param {
    num_output: 96
    pad: 2
    kernel_size: 11
    stride: 4
    weight_filler {
      type: "gaussian"
      std: 0.01
    }
    bias_filler {
      type: "constant"
      value: 0
    }
    round_method: ROUND
    round_strategy: NEUTRAL
    bit_width: 8
    range_low: -0.872089
    range_high: 0.927025
  }
}
layer {
  name: "bn1"
  type: "BatchNorm"
  bottom: "conv1"
  top: "conv1"
}
layer {
  name: "scale1"
  type: "Scale"
  bottom: "conv1"
  top: "conv1"
  scale_param {
    bias_term: true
  }
}
layer {
  name: "relu1"
  type: "ReLU"
  bottom: "conv1"
  top: "conv1"
}
layer {
  name: "pool1"
  type: "Pooling"
  bottom: "conv1"
  top: "pool1"
  pooling_param {
    pool: MAX
    kernel_size: 3
    stride: 2
  }
}
layer {
  name: "quantized_conv1"
  type: "Quantization"
  bottom: "pool1"
  top: "pool1"
  quantization_param {
    round_method: ROUND
    round_strategy: AGGRESSIVE
    bit_width: 4
    range: 0
    range: 13.965383
  }
}
layer {
  name: "conv2"
  type: "QuanConvolution"
  bottom: "pool1"
  top: "conv2"
  param {
    lr_mult: 1
    decay_mult: 1
  }
  param {
    lr_mult: 2
    decay_mult: 0
  }
  quan_convolution_param {
    num_output: 256
    pad: 2
    kernel_size: 5
    weight_filler {
      type: "gaussian"
      std: 0.01
    }
    bias_filler {
      type: "constant"
      value: 0.1
    }
    round_method: ROUND
    round_strategy: NEUTRAL
    bit_width: 8
    range_low: -0.806018
    range_high: 1.5182
  }
}
layer {
  name: "bn2"
  type: "BatchNorm"
  bottom: "conv2"
  top: "conv2"
}
layer {
  name: "scale2"
  type: "Scale"
  bottom: "conv2"
  top: "conv2"
  scale_param {
    bias_term: true
  }
}
layer {
  name: "relu2"
  type: "ReLU"
  bottom: "conv2"
  top: "conv2"
}
layer {
  name: "pool2"
  type: "Pooling"
  bottom: "conv2"
  top: "pool2"
  pooling_param {
    pool: MAX
    kernel_size: 3
    stride: 2
  }
}
layer {
  name: "quantized_conv1"
  type: "Quantization"
  bottom: "pool2"
  top: "pool2"
  quantization_param {
    round_method: ROUND
    round_strategy: AGGRESSIVE
    bit_width: 4
    range: 0
    range: 6.74956
  }
}
layer {
  name: "conv3"
  type: "QuanConvolution"
  bottom: "pool2"
  top: "conv3"
  param {
    lr_mult: 1
    decay_mult: 1
  }
  param {
    lr_mult: 2
    decay_mult: 0
  }
  quan_convolution_param {
    num_output: 384
    pad: 1
    kernel_size: 3
    weight_filler {
      type: "gaussian"
      std: 0.01
    }
    bias_filler {
      type: "constant"
      value: 0
    }
    round_method: ROUND
    round_strategy: NEUTRAL
    bit_width: 8
    range_low: -0.621858
    range_high: 0.673858
  }
}
layer {
  name: "bn3"
  type: "BatchNorm"
  bottom: "conv3"
  top: "conv3"
}
layer {
  name: "scale3"
  type: "Scale"
  bottom: "conv3"
  top: "conv3"
  scale_param {
    bias_term: true
  }
}
layer {
  name: "relu3"
  type: "ReLU"
  bottom: "conv3"
  top: "conv3"
}
layer {
  name: "quantized_conv1"
  type: "Quantization"
  bottom: "conv3"
  top: "conv3"
  quantization_param {
    round_method: ROUND
    round_strategy: AGGRESSIVE
    bit_width: 4
    range: 0
    range: 8.48454
  }
}
layer {
  name: "conv4"
  type: "QuanConvolution"
  bottom: "conv3"
  top: "conv4"
  param {
    lr_mult: 1
    decay_mult: 1
  }
  param {
    lr_mult: 2
    decay_mult: 0
  }
  quan_convolution_param {
    num_output: 384
    pad: 1
    kernel_size: 3
    weight_filler {
      type: "gaussian"
      std: 0.01
    }
    bias_filler {
      type: "constant"
      value: 0.1
    }
    round_method: ROUND
    round_strategy: NEUTRAL
    bit_width: 8
    range_low: -0.376634
    range_high: 0.341829
  }
}
layer {
  name: "bn4"
  type: "BatchNorm"
  bottom: "conv4"
  top: "conv4"
}
layer {
  name: "scale4"
  type: "Scale"
  bottom: "conv4"
  top: "conv4"
  scale_param {
    bias_term: true
  }
}
layer {
  name: "relu4"
  type: "ReLU"
  bottom: "conv4"
  top: "conv4"
}
layer {
  name: "quantized_conv1"
  type: "Quantization"
  bottom: "conv4"
  top: "conv4"
  quantization_param {
    round_method: ROUND
    round_strategy: AGGRESSIVE
    bit_width: 4
    range: 0
    range: 7.3369722
  }
}
layer {
  name: "conv5"
  type: "QuanConvolution"
  bottom: "conv4"
  top: "conv5"
  param {
    lr_mult: 1
    decay_mult: 1
  }
  param {
    lr_mult: 2
    decay_mult: 0
  }
  quan_convolution_param {
    num_output: 256
    pad: 1
    kernel_size: 3
    weight_filler {
      type: "gaussian"
      std: 0.01
    }
    bias_filler {
      type: "constant"
      value: 0.1
    }
    round_method: ROUND
    round_strategy: NEUTRAL
    bit_width: 8
    range_low: -0.347658
    range_high: 0.330042
  }
}
layer {
  name: "bn5"
  type: "BatchNorm"
  bottom: "conv5"
  top: "conv5"
}
layer {
  name: "scale5"
  type: "Scale"
  bottom: "conv5"
  top: "conv5"
  scale_param {
    bias_term: true
  }
}
layer {
  name: "relu5"
  type: "ReLU"
  bottom: "conv5"
  top: "conv5"
}
layer {
  name: "pool5"
  type: "Pooling"
  bottom: "conv5"
  top: "pool5"
  pooling_param {
    pool: MAX
    kernel_size: 3
    stride: 2
  }
}
layer {
  name: "quantized_conv1"
  type: "Quantization"
  bottom: "pool5"
  top: "pool5"
  quantization_param {
    round_method: ROUND
    round_strategy: AGGRESSIVE
    bit_width: 4
    range: 0
    range: 8.7577133
  }
}
layer {
  name: "fc6"
  type: "QuanInnerProduct"
  bottom: "pool5"
  top: "fc6"
  param {
    lr_mult: 1
    decay_mult: 1
  }
  param {
    lr_mult: 2
    decay_mult: 0
  }
  quan_inner_product_param {
    num_output: 4096
    weight_filler {
      type: "gaussian"
      std: 0.005
    }
    bias_filler {
      type: "constant"
      value: 0.1
    }
    round_method: ROUND
    round_strategy: NEUTRAL
    bit_width: 8
    range_low: -0.160061
    range_high: 0.148064
  }
}
layer {
  name: "bn6"
  type: "BatchNorm"
  bottom: "fc6"
  top: "fc6"
}
layer {
  name: "scale6"
  type: "Scale"
  bottom: "fc6"
  top: "fc6"
  scale_param {
    bias_term: true
  }
}
layer {
  name: "relu6"
  type: "ReLU"
  bottom: "fc6"
  top: "fc6"
}
layer {
  name: "drop6"
  type: "Dropout"
  bottom: "fc6"
  top: "fc6"
  dropout_param {
    dropout_ratio: 0.5
  }
}
layer {
  name: "quantized_conv1"
  type: "Quantization"
  bottom: "fc6"
  top: "fc6"
  quantization_param {
    round_method: ROUND
    round_strategy: AGGRESSIVE
    bit_width: 4
    range: 0
    range: 1.659358
  }
}
layer {
  name: "fc7"
  type: "QuanInnerProduct"
  bottom: "fc6"
  top: "fc7"
  param {
    lr_mult: 1
    decay_mult: 1
  }
  param {
    lr_mult: 2
    decay_mult: 0
  }
  quan_inner_product_param {
    num_output: 4096
    weight_filler {
      type: "gaussian"
      std: 0.005
    }
    bias_filler {
      type: "constant"
      value: 0.1
    }
    round_method: ROUND
    round_strategy: NEUTRAL
    bit_width: 8
    range_low: -0.162636
    range_high: 0.197684
  }
}
layer {
  name: "bn7"
  type: "BatchNorm"
  bottom: "fc7"
  top: "fc7"
}
layer {
  name: "scale7"
  type: "Scale"
  bottom: "fc7"
  top: "fc7"
  scale_param {
    bias_term: true
  }
}
layer {
  name: "relu7"
  type: "ReLU"
  bottom: "fc7"
  top: "fc7"
}
layer {
  name: "drop7"
  type: "Dropout"
  bottom: "fc7"
  top: "fc7"
  dropout_param {
    dropout_ratio: 0.5
  }
}
layer {
  name: "quantized_conv1"
  type: "Quantization"
  bottom: "fc7"
  top: "fc7"
  quantization_param {
    round_method: ROUND
    round_strategy: AGGRESSIVE
    bit_width: 4
    range: 0
    range: 7.5598521
  }
}
layer {
  name: "fc8"
  type: "QuanInnerProduct"
  bottom: "fc7"
  top: "fc8"
  param {
    lr_mult: 1
    decay_mult: 1
  }
  param {
    lr_mult: 2
    decay_mult: 0
  }
  quan_inner_product_param {
    num_output: 1000
    weight_filler {
      type: "gaussian"
      std: 0.01
    }
    bias_filler {
      type: "constant"
      value: 0
    }
    round_method: ROUND
    round_strategy: NEUTRAL
    bit_width: 8
    range_low: -0.141857
    range_high: 0.274249
  }
}
layer {
  name: "accuracy_5_TRAIN"
  type: "Accuracy"
  bottom: "fc8"
  bottom: "label"
  top: "accuracy_5_TRAIN"
  include {
    phase: TRAIN
  }
  accuracy_param {
    top_k: 5
  }
}
layer {
  name: "loss"
  type: "SoftmaxWithLoss"
  bottom: "fc8"
  bottom: "label"
  top: "loss"
}
I0115 21:22:39.128588 141844 layer_factory.hpp:77] Creating layer data
I0115 21:22:39.128792 141844 db_lmdb.cpp:35] Opened lmdb /home/DATA/imagenet_resize/lmdb_resize/ilsvrc12_train_lmdb
I0115 21:22:39.128890 141844 net.cpp:84] Creating Layer data
I0115 21:22:39.128913 141844 net.cpp:380] data -> data
I0115 21:22:39.128962 141844 net.cpp:380] data -> label
I0115 21:22:39.131222 141844 data_layer.cpp:45] output data size: 128,3,224,224
I0115 21:22:39.381019 141844 net.cpp:122] Setting up data
I0115 21:22:39.381090 141844 net.cpp:129] Top shape: 128 3 224 224 (19267584)
I0115 21:22:39.381099 141844 net.cpp:129] Top shape: 128 (128)
I0115 21:22:39.381106 141844 net.cpp:137] Memory required for data: 77070848
I0115 21:22:39.381124 141844 layer_factory.hpp:77] Creating layer label_data_1_split
I0115 21:22:39.381160 141844 net.cpp:84] Creating Layer label_data_1_split
I0115 21:22:39.381171 141844 net.cpp:406] label_data_1_split <- label
I0115 21:22:39.381192 141844 net.cpp:380] label_data_1_split -> label_data_1_split_0
I0115 21:22:39.381213 141844 net.cpp:380] label_data_1_split -> label_data_1_split_1
I0115 21:22:39.381330 141844 net.cpp:122] Setting up label_data_1_split
I0115 21:22:39.381371 141844 net.cpp:129] Top shape: 128 (128)
I0115 21:22:39.381379 141844 net.cpp:129] Top shape: 128 (128)
I0115 21:22:39.381384 141844 net.cpp:137] Memory required for data: 77071872
I0115 21:22:39.381395 141844 layer_factory.hpp:77] Creating layer conv1
I0115 21:22:39.381433 141844 net.cpp:84] Creating Layer conv1
I0115 21:22:39.381454 141844 net.cpp:406] conv1 <- data
I0115 21:22:39.381476 141844 net.cpp:380] conv1 -> conv1
ydwu=======get:
bit_width=8;  round_method=0;  round_strategy=1;  is_runtime=0;  range_low=-0.872089;  range_high=0.927025
I0115 21:22:39.396733 141844 net.cpp:122] Setting up conv1
I0115 21:22:39.396754 141844 net.cpp:129] Top shape: 128 96 55 55 (37171200)
I0115 21:22:39.396759 141844 net.cpp:137] Memory required for data: 225756672
I0115 21:22:39.396800 141844 layer_factory.hpp:77] Creating layer bn1
I0115 21:22:39.396816 141844 net.cpp:84] Creating Layer bn1
I0115 21:22:39.396824 141844 net.cpp:406] bn1 <- conv1
I0115 21:22:39.396836 141844 net.cpp:367] bn1 -> conv1 (in-place)
I0115 21:22:39.397053 141844 net.cpp:122] Setting up bn1
I0115 21:22:39.397068 141844 net.cpp:129] Top shape: 128 96 55 55 (37171200)
I0115 21:22:39.397085 141844 net.cpp:137] Memory required for data: 374441472
I0115 21:22:39.397102 141844 layer_factory.hpp:77] Creating layer scale1
I0115 21:22:39.397119 141844 net.cpp:84] Creating Layer scale1
I0115 21:22:39.397126 141844 net.cpp:406] scale1 <- conv1
I0115 21:22:39.397188 141844 net.cpp:367] scale1 -> conv1 (in-place)
I0115 21:22:39.397253 141844 layer_factory.hpp:77] Creating layer scale1
I0115 21:22:39.397404 141844 net.cpp:122] Setting up scale1
I0115 21:22:39.397429 141844 net.cpp:129] Top shape: 128 96 55 55 (37171200)
I0115 21:22:39.397438 141844 net.cpp:137] Memory required for data: 523126272
I0115 21:22:39.397447 141844 layer_factory.hpp:77] Creating layer relu1
I0115 21:22:39.397459 141844 net.cpp:84] Creating Layer relu1
I0115 21:22:39.397466 141844 net.cpp:406] relu1 <- conv1
I0115 21:22:39.397477 141844 net.cpp:367] relu1 -> conv1 (in-place)
I0115 21:22:39.397488 141844 net.cpp:122] Setting up relu1
I0115 21:22:39.397497 141844 net.cpp:129] Top shape: 128 96 55 55 (37171200)
I0115 21:22:39.397505 141844 net.cpp:137] Memory required for data: 671811072
I0115 21:22:39.397511 141844 layer_factory.hpp:77] Creating layer pool1
I0115 21:22:39.397523 141844 net.cpp:84] Creating Layer pool1
I0115 21:22:39.397531 141844 net.cpp:406] pool1 <- conv1
I0115 21:22:39.397541 141844 net.cpp:380] pool1 -> pool1
I0115 21:22:39.397609 141844 net.cpp:122] Setting up pool1
I0115 21:22:39.397624 141844 net.cpp:129] Top shape: 128 96 27 27 (8957952)
I0115 21:22:39.397631 141844 net.cpp:137] Memory required for data: 707642880
I0115 21:22:39.397639 141844 layer_factory.hpp:77] Creating layer quantized_conv1
I0115 21:22:39.397651 141844 net.cpp:84] Creating Layer quantized_conv1
I0115 21:22:39.397658 141844 net.cpp:406] quantized_conv1 <- pool1
I0115 21:22:39.397668 141844 net.cpp:367] quantized_conv1 -> pool1 (in-place)
I0115 21:22:39.397682 141844 net.cpp:122] Setting up quantized_conv1
I0115 21:22:39.397692 141844 net.cpp:129] Top shape: 128 96 27 27 (8957952)
I0115 21:22:39.397699 141844 net.cpp:137] Memory required for data: 743474688
I0115 21:22:39.397706 141844 layer_factory.hpp:77] Creating layer conv2
I0115 21:22:39.397722 141844 net.cpp:84] Creating Layer conv2
I0115 21:22:39.397729 141844 net.cpp:406] conv2 <- pool1
I0115 21:22:39.397740 141844 net.cpp:380] conv2 -> conv2
ydwu=======get:
bit_width=8;  round_method=0;  round_strategy=1;  is_runtime=0;  range_low=-0.806018;  range_high=1.5182
I0115 21:22:39.409847 141844 net.cpp:122] Setting up conv2
I0115 21:22:39.409879 141844 net.cpp:129] Top shape: 128 256 27 27 (23887872)
I0115 21:22:39.409888 141844 net.cpp:137] Memory required for data: 839026176
I0115 21:22:39.409911 141844 layer_factory.hpp:77] Creating layer bn2
I0115 21:22:39.409929 141844 net.cpp:84] Creating Layer bn2
I0115 21:22:39.409937 141844 net.cpp:406] bn2 <- conv2
I0115 21:22:39.409950 141844 net.cpp:367] bn2 -> conv2 (in-place)
I0115 21:22:39.410158 141844 net.cpp:122] Setting up bn2
I0115 21:22:39.410173 141844 net.cpp:129] Top shape: 128 256 27 27 (23887872)
I0115 21:22:39.410181 141844 net.cpp:137] Memory required for data: 934577664
I0115 21:22:39.410194 141844 layer_factory.hpp:77] Creating layer scale2
I0115 21:22:39.410207 141844 net.cpp:84] Creating Layer scale2
I0115 21:22:39.410214 141844 net.cpp:406] scale2 <- conv2
I0115 21:22:39.410224 141844 net.cpp:367] scale2 -> conv2 (in-place)
I0115 21:22:39.410270 141844 layer_factory.hpp:77] Creating layer scale2
I0115 21:22:39.410398 141844 net.cpp:122] Setting up scale2
I0115 21:22:39.410411 141844 net.cpp:129] Top shape: 128 256 27 27 (23887872)
I0115 21:22:39.410418 141844 net.cpp:137] Memory required for data: 1030129152
I0115 21:22:39.410429 141844 layer_factory.hpp:77] Creating layer relu2
I0115 21:22:39.410441 141844 net.cpp:84] Creating Layer relu2
I0115 21:22:39.410449 141844 net.cpp:406] relu2 <- conv2
I0115 21:22:39.410459 141844 net.cpp:367] relu2 -> conv2 (in-place)
I0115 21:22:39.410470 141844 net.cpp:122] Setting up relu2
I0115 21:22:39.410478 141844 net.cpp:129] Top shape: 128 256 27 27 (23887872)
I0115 21:22:39.410485 141844 net.cpp:137] Memory required for data: 1125680640
I0115 21:22:39.410492 141844 layer_factory.hpp:77] Creating layer pool2
I0115 21:22:39.410506 141844 net.cpp:84] Creating Layer pool2
I0115 21:22:39.410512 141844 net.cpp:406] pool2 <- conv2
I0115 21:22:39.410523 141844 net.cpp:380] pool2 -> pool2
I0115 21:22:39.410573 141844 net.cpp:122] Setting up pool2
I0115 21:22:39.410624 141844 net.cpp:129] Top shape: 128 256 13 13 (5537792)
I0115 21:22:39.410631 141844 net.cpp:137] Memory required for data: 1147831808
I0115 21:22:39.410639 141844 layer_factory.hpp:77] Creating layer quantized_conv1
I0115 21:22:39.410651 141844 net.cpp:84] Creating Layer quantized_conv1
I0115 21:22:39.410658 141844 net.cpp:406] quantized_conv1 <- pool2
I0115 21:22:39.410670 141844 net.cpp:367] quantized_conv1 -> pool2 (in-place)
I0115 21:22:39.410681 141844 net.cpp:122] Setting up quantized_conv1
I0115 21:22:39.410691 141844 net.cpp:129] Top shape: 128 256 13 13 (5537792)
I0115 21:22:39.410697 141844 net.cpp:137] Memory required for data: 1169982976
I0115 21:22:39.410703 141844 layer_factory.hpp:77] Creating layer conv3
I0115 21:22:39.410719 141844 net.cpp:84] Creating Layer conv3
I0115 21:22:39.410727 141844 net.cpp:406] conv3 <- pool2
I0115 21:22:39.410738 141844 net.cpp:380] conv3 -> conv3
ydwu=======get:
bit_width=8;  round_method=0;  round_strategy=1;  is_runtime=0;  range_low=-0.621858;  range_high=0.673858
I0115 21:22:39.426038 141844 net.cpp:122] Setting up conv3
I0115 21:22:39.426069 141844 net.cpp:129] Top shape: 128 384 13 13 (8306688)
I0115 21:22:39.426077 141844 net.cpp:137] Memory required for data: 1203209728
I0115 21:22:39.426095 141844 layer_factory.hpp:77] Creating layer bn3
I0115 21:22:39.426113 141844 net.cpp:84] Creating Layer bn3
I0115 21:22:39.426122 141844 net.cpp:406] bn3 <- conv3
I0115 21:22:39.426136 141844 net.cpp:367] bn3 -> conv3 (in-place)
I0115 21:22:39.426362 141844 net.cpp:122] Setting up bn3
I0115 21:22:39.426378 141844 net.cpp:129] Top shape: 128 384 13 13 (8306688)
I0115 21:22:39.426384 141844 net.cpp:137] Memory required for data: 1236436480
I0115 21:22:39.426406 141844 layer_factory.hpp:77] Creating layer scale3
I0115 21:22:39.426424 141844 net.cpp:84] Creating Layer scale3
I0115 21:22:39.426432 141844 net.cpp:406] scale3 <- conv3
I0115 21:22:39.426442 141844 net.cpp:367] scale3 -> conv3 (in-place)
I0115 21:22:39.426488 141844 layer_factory.hpp:77] Creating layer scale3
I0115 21:22:39.426618 141844 net.cpp:122] Setting up scale3
I0115 21:22:39.426633 141844 net.cpp:129] Top shape: 128 384 13 13 (8306688)
I0115 21:22:39.426640 141844 net.cpp:137] Memory required for data: 1269663232
I0115 21:22:39.426651 141844 layer_factory.hpp:77] Creating layer relu3
I0115 21:22:39.426663 141844 net.cpp:84] Creating Layer relu3
I0115 21:22:39.426671 141844 net.cpp:406] relu3 <- conv3
I0115 21:22:39.426681 141844 net.cpp:367] relu3 -> conv3 (in-place)
I0115 21:22:39.426692 141844 net.cpp:122] Setting up relu3
I0115 21:22:39.426700 141844 net.cpp:129] Top shape: 128 384 13 13 (8306688)
I0115 21:22:39.426707 141844 net.cpp:137] Memory required for data: 1302889984
I0115 21:22:39.426714 141844 layer_factory.hpp:77] Creating layer quantized_conv1
I0115 21:22:39.426726 141844 net.cpp:84] Creating Layer quantized_conv1
I0115 21:22:39.426733 141844 net.cpp:406] quantized_conv1 <- conv3
I0115 21:22:39.426743 141844 net.cpp:367] quantized_conv1 -> conv3 (in-place)
I0115 21:22:39.426754 141844 net.cpp:122] Setting up quantized_conv1
I0115 21:22:39.426764 141844 net.cpp:129] Top shape: 128 384 13 13 (8306688)
I0115 21:22:39.426770 141844 net.cpp:137] Memory required for data: 1336116736
I0115 21:22:39.426777 141844 layer_factory.hpp:77] Creating layer conv4
I0115 21:22:39.426795 141844 net.cpp:84] Creating Layer conv4
I0115 21:22:39.426801 141844 net.cpp:406] conv4 <- conv3
I0115 21:22:39.426813 141844 net.cpp:380] conv4 -> conv4
ydwu=======get:
bit_width=8;  round_method=0;  round_strategy=1;  is_runtime=0;  range_low=-0.376634;  range_high=0.341829
I0115 21:22:39.449702 141844 net.cpp:122] Setting up conv4
I0115 21:22:39.449735 141844 net.cpp:129] Top shape: 128 384 13 13 (8306688)
I0115 21:22:39.449743 141844 net.cpp:137] Memory required for data: 1369343488
I0115 21:22:39.449757 141844 layer_factory.hpp:77] Creating layer bn4
I0115 21:22:39.449775 141844 net.cpp:84] Creating Layer bn4
I0115 21:22:39.449784 141844 net.cpp:406] bn4 <- conv4
I0115 21:22:39.449798 141844 net.cpp:367] bn4 -> conv4 (in-place)
I0115 21:22:39.450036 141844 net.cpp:122] Setting up bn4
I0115 21:22:39.450049 141844 net.cpp:129] Top shape: 128 384 13 13 (8306688)
I0115 21:22:39.450055 141844 net.cpp:137] Memory required for data: 1402570240
I0115 21:22:39.450115 141844 layer_factory.hpp:77] Creating layer scale4
I0115 21:22:39.450127 141844 net.cpp:84] Creating Layer scale4
I0115 21:22:39.450134 141844 net.cpp:406] scale4 <- conv4
I0115 21:22:39.450143 141844 net.cpp:367] scale4 -> conv4 (in-place)
I0115 21:22:39.450193 141844 layer_factory.hpp:77] Creating layer scale4
I0115 21:22:39.450331 141844 net.cpp:122] Setting up scale4
I0115 21:22:39.450346 141844 net.cpp:129] Top shape: 128 384 13 13 (8306688)
I0115 21:22:39.450353 141844 net.cpp:137] Memory required for data: 1435796992
I0115 21:22:39.450364 141844 layer_factory.hpp:77] Creating layer relu4
I0115 21:22:39.450378 141844 net.cpp:84] Creating Layer relu4
I0115 21:22:39.450386 141844 net.cpp:406] relu4 <- conv4
I0115 21:22:39.450395 141844 net.cpp:367] relu4 -> conv4 (in-place)
I0115 21:22:39.450405 141844 net.cpp:122] Setting up relu4
I0115 21:22:39.450414 141844 net.cpp:129] Top shape: 128 384 13 13 (8306688)
I0115 21:22:39.450422 141844 net.cpp:137] Memory required for data: 1469023744
I0115 21:22:39.450428 141844 layer_factory.hpp:77] Creating layer quantized_conv1
I0115 21:22:39.450440 141844 net.cpp:84] Creating Layer quantized_conv1
I0115 21:22:39.450450 141844 net.cpp:406] quantized_conv1 <- conv4
I0115 21:22:39.450460 141844 net.cpp:367] quantized_conv1 -> conv4 (in-place)
I0115 21:22:39.450471 141844 net.cpp:122] Setting up quantized_conv1
I0115 21:22:39.450480 141844 net.cpp:129] Top shape: 128 384 13 13 (8306688)
I0115 21:22:39.450487 141844 net.cpp:137] Memory required for data: 1502250496
I0115 21:22:39.450495 141844 layer_factory.hpp:77] Creating layer conv5
I0115 21:22:39.450512 141844 net.cpp:84] Creating Layer conv5
I0115 21:22:39.450520 141844 net.cpp:406] conv5 <- conv4
I0115 21:22:39.450533 141844 net.cpp:380] conv5 -> conv5
ydwu=======get:
bit_width=8;  round_method=0;  round_strategy=1;  is_runtime=0;  range_low=-0.347658;  range_high=0.330042
I0115 21:22:39.466078 141844 net.cpp:122] Setting up conv5
I0115 21:22:39.466110 141844 net.cpp:129] Top shape: 128 256 13 13 (5537792)
I0115 21:22:39.466117 141844 net.cpp:137] Memory required for data: 1524401664
I0115 21:22:39.466131 141844 layer_factory.hpp:77] Creating layer bn5
I0115 21:22:39.466148 141844 net.cpp:84] Creating Layer bn5
I0115 21:22:39.466156 141844 net.cpp:406] bn5 <- conv5
I0115 21:22:39.466167 141844 net.cpp:367] bn5 -> conv5 (in-place)
I0115 21:22:39.466397 141844 net.cpp:122] Setting up bn5
I0115 21:22:39.466411 141844 net.cpp:129] Top shape: 128 256 13 13 (5537792)
I0115 21:22:39.466418 141844 net.cpp:137] Memory required for data: 1546552832
I0115 21:22:39.466440 141844 layer_factory.hpp:77] Creating layer scale5
I0115 21:22:39.466456 141844 net.cpp:84] Creating Layer scale5
I0115 21:22:39.466464 141844 net.cpp:406] scale5 <- conv5
I0115 21:22:39.466472 141844 net.cpp:367] scale5 -> conv5 (in-place)
I0115 21:22:39.466526 141844 layer_factory.hpp:77] Creating layer scale5
I0115 21:22:39.466658 141844 net.cpp:122] Setting up scale5
I0115 21:22:39.466673 141844 net.cpp:129] Top shape: 128 256 13 13 (5537792)
I0115 21:22:39.466680 141844 net.cpp:137] Memory required for data: 1568704000
I0115 21:22:39.466689 141844 layer_factory.hpp:77] Creating layer relu5
I0115 21:22:39.466699 141844 net.cpp:84] Creating Layer relu5
I0115 21:22:39.466706 141844 net.cpp:406] relu5 <- conv5
I0115 21:22:39.466719 141844 net.cpp:367] relu5 -> conv5 (in-place)
I0115 21:22:39.466732 141844 net.cpp:122] Setting up relu5
I0115 21:22:39.466740 141844 net.cpp:129] Top shape: 128 256 13 13 (5537792)
I0115 21:22:39.466747 141844 net.cpp:137] Memory required for data: 1590855168
I0115 21:22:39.466754 141844 layer_factory.hpp:77] Creating layer pool5
I0115 21:22:39.466766 141844 net.cpp:84] Creating Layer pool5
I0115 21:22:39.466773 141844 net.cpp:406] pool5 <- conv5
I0115 21:22:39.466784 141844 net.cpp:380] pool5 -> pool5
I0115 21:22:39.466842 141844 net.cpp:122] Setting up pool5
I0115 21:22:39.466856 141844 net.cpp:129] Top shape: 128 256 6 6 (1179648)
I0115 21:22:39.466862 141844 net.cpp:137] Memory required for data: 1595573760
I0115 21:22:39.466871 141844 layer_factory.hpp:77] Creating layer quantized_conv1
I0115 21:22:39.466882 141844 net.cpp:84] Creating Layer quantized_conv1
I0115 21:22:39.466931 141844 net.cpp:406] quantized_conv1 <- pool5
I0115 21:22:39.466943 141844 net.cpp:367] quantized_conv1 -> pool5 (in-place)
I0115 21:22:39.466954 141844 net.cpp:122] Setting up quantized_conv1
I0115 21:22:39.466964 141844 net.cpp:129] Top shape: 128 256 6 6 (1179648)
I0115 21:22:39.466971 141844 net.cpp:137] Memory required for data: 1600292352
I0115 21:22:39.466979 141844 layer_factory.hpp:77] Creating layer fc6
I0115 21:22:39.466990 141844 net.cpp:84] Creating Layer fc6
I0115 21:22:39.466997 141844 net.cpp:406] fc6 <- pool5
I0115 21:22:39.467010 141844 net.cpp:380] fc6 -> fc6
I0115 21:22:39.467031 141844 quan_inner_product_layer.cpp:21] 4096   4096
ydwu=======get:
bit_width=8;  round_method=0;  round_strategy=1;  is_runtime=0;  range_low=-0.160061;  range_high=0.148064
I0115 21:22:40.099261 141844 net.cpp:122] Setting up fc6
I0115 21:22:40.099313 141844 net.cpp:129] Top shape: 128 4096 (524288)
I0115 21:22:40.099319 141844 net.cpp:137] Memory required for data: 1602389504
I0115 21:22:40.099345 141844 layer_factory.hpp:77] Creating layer bn6
I0115 21:22:40.099362 141844 net.cpp:84] Creating Layer bn6
I0115 21:22:40.099371 141844 net.cpp:406] bn6 <- fc6
I0115 21:22:40.099385 141844 net.cpp:367] bn6 -> fc6 (in-place)
I0115 21:22:40.099615 141844 net.cpp:122] Setting up bn6
I0115 21:22:40.099628 141844 net.cpp:129] Top shape: 128 4096 (524288)
I0115 21:22:40.099642 141844 net.cpp:137] Memory required for data: 1604486656
I0115 21:22:40.099653 141844 layer_factory.hpp:77] Creating layer scale6
I0115 21:22:40.099674 141844 net.cpp:84] Creating Layer scale6
I0115 21:22:40.099683 141844 net.cpp:406] scale6 <- fc6
I0115 21:22:40.099690 141844 net.cpp:367] scale6 -> fc6 (in-place)
I0115 21:22:40.099743 141844 layer_factory.hpp:77] Creating layer scale6
I0115 21:22:40.099896 141844 net.cpp:122] Setting up scale6
I0115 21:22:40.099910 141844 net.cpp:129] Top shape: 128 4096 (524288)
I0115 21:22:40.099915 141844 net.cpp:137] Memory required for data: 1606583808
I0115 21:22:40.099930 141844 layer_factory.hpp:77] Creating layer relu6
I0115 21:22:40.099946 141844 net.cpp:84] Creating Layer relu6
I0115 21:22:40.099952 141844 net.cpp:406] relu6 <- fc6
I0115 21:22:40.099961 141844 net.cpp:367] relu6 -> fc6 (in-place)
I0115 21:22:40.099972 141844 net.cpp:122] Setting up relu6
I0115 21:22:40.099978 141844 net.cpp:129] Top shape: 128 4096 (524288)
I0115 21:22:40.099985 141844 net.cpp:137] Memory required for data: 1608680960
I0115 21:22:40.099990 141844 layer_factory.hpp:77] Creating layer drop6
I0115 21:22:40.100003 141844 net.cpp:84] Creating Layer drop6
I0115 21:22:40.100015 141844 net.cpp:406] drop6 <- fc6
I0115 21:22:40.100025 141844 net.cpp:367] drop6 -> fc6 (in-place)
I0115 21:22:40.100061 141844 net.cpp:122] Setting up drop6
I0115 21:22:40.100080 141844 net.cpp:129] Top shape: 128 4096 (524288)
I0115 21:22:40.100085 141844 net.cpp:137] Memory required for data: 1610778112
I0115 21:22:40.100090 141844 layer_factory.hpp:77] Creating layer quantized_conv1
I0115 21:22:40.100101 141844 net.cpp:84] Creating Layer quantized_conv1
I0115 21:22:40.100106 141844 net.cpp:406] quantized_conv1 <- fc6
I0115 21:22:40.100114 141844 net.cpp:367] quantized_conv1 -> fc6 (in-place)
I0115 21:22:40.100123 141844 net.cpp:122] Setting up quantized_conv1
I0115 21:22:40.100138 141844 net.cpp:129] Top shape: 128 4096 (524288)
I0115 21:22:40.100143 141844 net.cpp:137] Memory required for data: 1612875264
I0115 21:22:40.100148 141844 layer_factory.hpp:77] Creating layer fc7
I0115 21:22:40.100158 141844 net.cpp:84] Creating Layer fc7
I0115 21:22:40.100165 141844 net.cpp:406] fc7 <- fc6
I0115 21:22:40.100178 141844 net.cpp:380] fc7 -> fc7
I0115 21:22:40.100190 141844 quan_inner_product_layer.cpp:21] 4096   4096
ydwu=======get:
bit_width=8;  round_method=0;  round_strategy=1;  is_runtime=0;  range_low=-0.162636;  range_high=0.197684
I0115 21:22:40.373750 141844 net.cpp:122] Setting up fc7
I0115 21:22:40.373793 141844 net.cpp:129] Top shape: 128 4096 (524288)
I0115 21:22:40.373800 141844 net.cpp:137] Memory required for data: 1614972416
I0115 21:22:40.373847 141844 layer_factory.hpp:77] Creating layer bn7
I0115 21:22:40.373872 141844 net.cpp:84] Creating Layer bn7
I0115 21:22:40.373883 141844 net.cpp:406] bn7 <- fc7
I0115 21:22:40.373894 141844 net.cpp:367] bn7 -> fc7 (in-place)
I0115 21:22:40.374203 141844 net.cpp:122] Setting up bn7
I0115 21:22:40.374220 141844 net.cpp:129] Top shape: 128 4096 (524288)
I0115 21:22:40.374233 141844 net.cpp:137] Memory required for data: 1617069568
I0115 21:22:40.374244 141844 layer_factory.hpp:77] Creating layer scale7
I0115 21:22:40.374256 141844 net.cpp:84] Creating Layer scale7
I0115 21:22:40.374264 141844 net.cpp:406] scale7 <- fc7
I0115 21:22:40.374271 141844 net.cpp:367] scale7 -> fc7 (in-place)
I0115 21:22:40.374331 141844 layer_factory.hpp:77] Creating layer scale7
I0115 21:22:40.374480 141844 net.cpp:122] Setting up scale7
I0115 21:22:40.374493 141844 net.cpp:129] Top shape: 128 4096 (524288)
I0115 21:22:40.374500 141844 net.cpp:137] Memory required for data: 1619166720
I0115 21:22:40.374513 141844 layer_factory.hpp:77] Creating layer relu7
I0115 21:22:40.374522 141844 net.cpp:84] Creating Layer relu7
I0115 21:22:40.374528 141844 net.cpp:406] relu7 <- fc7
I0115 21:22:40.374541 141844 net.cpp:367] relu7 -> fc7 (in-place)
I0115 21:22:40.374552 141844 net.cpp:122] Setting up relu7
I0115 21:22:40.374560 141844 net.cpp:129] Top shape: 128 4096 (524288)
I0115 21:22:40.374567 141844 net.cpp:137] Memory required for data: 1621263872
I0115 21:22:40.374575 141844 layer_factory.hpp:77] Creating layer drop7
I0115 21:22:40.374588 141844 net.cpp:84] Creating Layer drop7
I0115 21:22:40.374593 141844 net.cpp:406] drop7 <- fc7
I0115 21:22:40.374608 141844 net.cpp:367] drop7 -> fc7 (in-place)
I0115 21:22:40.374634 141844 net.cpp:122] Setting up drop7
I0115 21:22:40.374642 141844 net.cpp:129] Top shape: 128 4096 (524288)
I0115 21:22:40.374650 141844 net.cpp:137] Memory required for data: 1623361024
I0115 21:22:40.374657 141844 layer_factory.hpp:77] Creating layer quantized_conv1
I0115 21:22:40.374670 141844 net.cpp:84] Creating Layer quantized_conv1
I0115 21:22:40.374677 141844 net.cpp:406] quantized_conv1 <- fc7
I0115 21:22:40.374689 141844 net.cpp:367] quantized_conv1 -> fc7 (in-place)
I0115 21:22:40.374701 141844 net.cpp:122] Setting up quantized_conv1
I0115 21:22:40.374709 141844 net.cpp:129] Top shape: 128 4096 (524288)
I0115 21:22:40.374716 141844 net.cpp:137] Memory required for data: 1625458176
I0115 21:22:40.374723 141844 layer_factory.hpp:77] Creating layer fc8
I0115 21:22:40.374737 141844 net.cpp:84] Creating Layer fc8
I0115 21:22:40.374744 141844 net.cpp:406] fc8 <- fc7
I0115 21:22:40.374753 141844 net.cpp:380] fc8 -> fc8
I0115 21:22:40.374766 141844 quan_inner_product_layer.cpp:21] 1000   1000
ydwu=======get:
bit_width=8;  round_method=0;  round_strategy=1;  is_runtime=0;  range_low=-0.141857;  range_high=0.274249
I0115 21:22:40.443863 141844 net.cpp:122] Setting up fc8
I0115 21:22:40.443898 141844 net.cpp:129] Top shape: 128 1000 (128000)
I0115 21:22:40.443907 141844 net.cpp:137] Memory required for data: 1625970176
I0115 21:22:40.443925 141844 layer_factory.hpp:77] Creating layer fc8_fc8_0_split
I0115 21:22:40.443946 141844 net.cpp:84] Creating Layer fc8_fc8_0_split
I0115 21:22:40.443955 141844 net.cpp:406] fc8_fc8_0_split <- fc8
I0115 21:22:40.443974 141844 net.cpp:380] fc8_fc8_0_split -> fc8_fc8_0_split_0
I0115 21:22:40.443991 141844 net.cpp:380] fc8_fc8_0_split -> fc8_fc8_0_split_1
I0115 21:22:40.444043 141844 net.cpp:122] Setting up fc8_fc8_0_split
I0115 21:22:40.444056 141844 net.cpp:129] Top shape: 128 1000 (128000)
I0115 21:22:40.444067 141844 net.cpp:129] Top shape: 128 1000 (128000)
I0115 21:22:40.444073 141844 net.cpp:137] Memory required for data: 1626994176
I0115 21:22:40.444080 141844 layer_factory.hpp:77] Creating layer accuracy_5_TRAIN
I0115 21:22:40.444097 141844 net.cpp:84] Creating Layer accuracy_5_TRAIN
I0115 21:22:40.444103 141844 net.cpp:406] accuracy_5_TRAIN <- fc8_fc8_0_split_0
I0115 21:22:40.444113 141844 net.cpp:406] accuracy_5_TRAIN <- label_data_1_split_0
…
I0115 21:22:40.489598 141844 net.cpp:294] The NetState phase (1) differed from the phase (0) specified by a rule in layer accuracy_5_TRAIN
I0115 21:22:40.489964 141844 net.cpp:51] Initializing net from parameters: 
name: "AlexNet-BN"
state {
  phase: TEST
}
layer {
  name: "data"
  type: "Data"
  top: "data"
  top: "label"
  include {
    phase: TEST
  }
  transform_param {
    mirror: false
    crop_size: 224
    mean_value: 103.939
    mean_value: 116.779
    mean_value: 123.68
  }
  data_param {
    source: "/home/DATA/imagenet_resize/lmdb_resize/ilsvrc12_val_lmdb"
    batch_size: 200
    backend: LMDB
  }
}
layer {
  name: "conv1"
  type: "QuanConvolution"
  bottom: "data"
  top: "conv1"
  param {
    lr_mult: 1
    decay_mult: 1
  }
  param {
    lr_mult: 2
    decay_mult: 0
  }
  quan_convolution_param {
    num_output: 96
    pad: 2
    kernel_size: 11
    stride: 4
    weight_filler {
      type: "gaussian"
      std: 0.01
    }
    bias_filler {
      type: "constant"
      value: 0
    }
    round_method: ROUND
    round_strategy: NEUTRAL
    bit_width: 8
    range_low: -0.872089
    range_high: 0.927025
  }
}
layer {
  name: "bn1"
  type: "BatchNorm"
  bottom: "conv1"
  top: "conv1"
}
layer {
  name: "scale1"
  type: "Scale"
  bottom: "conv1"
  top: "conv1"
  scale_param {
    bias_term: true
  }
}
layer {
  name: "relu1"
  type: "ReLU"
  bottom: "conv1"
  top: "conv1"
}
layer {
  name: "pool1"
  type: "Pooling"
  bottom: "conv1"
  top: "pool1"
  pooling_param {
    pool: MAX
    kernel_size: 3
    stride: 2
  }
}
layer {
  name: "quantized_conv1"
  type: "Quantization"
  bottom: "pool1"
  top: "pool1"
  quantization_param {
    round_method: ROUND
    round_strategy: AGGRESSIVE
    bit_width: 4
    range: 0
    range: 13.965383
  }
}
layer {
  name: "conv2"
  type: "QuanConvolution"
  bottom: "pool1"
  top: "conv2"
  param {
    lr_mult: 1
    decay_mult: 1
  }
  param {
    lr_mult: 2
    decay_mult: 0
  }
  quan_convolution_param {
    num_output: 256
    pad: 2
    kernel_size: 5
    weight_filler {
      type: "gaussian"
      std: 0.01
    }
    bias_filler {
      type: "constant"
      value: 0.1
    }
    round_method: ROUND
    round_strategy: NEUTRAL
    bit_width: 8
    range_low: -0.806018
    range_high: 1.5182
  }
}
layer {
  name: "bn2"
  type: "BatchNorm"
  bottom: "conv2"
  top: "conv2"
}
layer {
  name: "scale2"
  type: "Scale"
  bottom: "conv2"
  top: "conv2"
  scale_param {
    bias_term: true
  }
}
layer {
  name: "relu2"
  type: "ReLU"
  bottom: "conv2"
  top: "conv2"
}
layer {
  name: "pool2"
  type: "Pooling"
  bottom: "conv2"
  top: "pool2"
  pooling_param {
    pool: MAX
    kernel_size: 3
    stride: 2
  }
}
layer {
  name: "quantized_conv1"
  type: "Quantization"
  bottom: "pool2"
  top: "pool2"
  quantization_param {
    round_method: ROUND
    round_strategy: AGGRESSIVE
    bit_width: 4
    range: 0
    range: 6.74956
  }
}
layer {
  name: "conv3"
  type: "QuanConvolution"
  bottom: "pool2"
  top: "conv3"
  param {
    lr_mult: 1
    decay_mult: 1
  }
  param {
    lr_mult: 2
    decay_mult: 0
  }
  quan_convolution_param {
    num_output: 384
    pad: 1
    kernel_size: 3
    weight_filler {
      type: "gaussian"
      std: 0.01
    }
    bias_filler {
      type: "constant"
      value: 0
    }
    round_method: ROUND
    round_strategy: NEUTRAL
    bit_width: 8
    range_low: -0.621858
    range_high: 0.673858
  }
}
layer {
  name: "bn3"
  type: "BatchNorm"
  bottom: "conv3"
  top: "conv3"
}
layer {
  name: "scale3"
  type: "Scale"
  bottom: "conv3"
  top: "conv3"
  scale_param {
    bias_term: true
  }
}
layer {
  name: "relu3"
  type: "ReLU"
  bottom: "conv3"
  top: "conv3"
}
layer {
  name: "quantized_conv1"
  type: "Quantization"
  bottom: "conv3"
  top: "conv3"
  quantization_param {
    round_method: ROUND
    round_strategy: AGGRESSIVE
    bit_width: 4
    range: 0
    range: 8.48454
  }
}
layer {
  name: "conv4"
  type: "QuanConvolution"
  bottom: "conv3"
  top: "conv4"
  param {
    lr_mult: 1
    decay_mult: 1
  }
  param {
    lr_mult: 2
    decay_mult: 0
  }
  quan_convolution_param {
    num_output: 384
    pad: 1
    kernel_size: 3
    weight_filler {
      type: "gaussian"
      std: 0.01
    }
    bias_filler {
      type: "constant"
      value: 0.1
    }
    round_method: ROUND
    round_strategy: NEUTRAL
    bit_width: 8
    range_low: -0.376634
    range_high: 0.341829
  }
}
layer {
  name: "bn4"
  type: "BatchNorm"
  bottom: "conv4"
  top: "conv4"
}
layer {
  name: "scale4"
  type: "Scale"
  bottom: "conv4"
  top: "conv4"
  scale_param {
    bias_term: true
  }
}
layer {
  name: "relu4"
  type: "ReLU"
  bottom: "conv4"
  top: "conv4"
}
layer {
  name: "quantized_conv1"
  type: "Quantization"
  bottom: "conv4"
  top: "conv4"
  quantization_param {
    round_method: ROUND
    round_strategy: AGGRESSIVE
    bit_width: 4
    range: 0
    range: 7.3369722
  }
}
layer {
  name: "conv5"
  type: "QuanConvolution"
  bottom: "conv4"
  top: "conv5"
  param {
    lr_mult: 1
    decay_mult: 1
  }
  param {
    lr_mult: 2
    decay_mult: 0
  }
  quan_convolution_param {
    num_output: 256
    pad: 1
    kernel_size: 3
    weight_filler {
      type: "gaussian"
      std: 0.01
    }
    bias_filler {
      type: "constant"
      value: 0.1
    }
    round_method: ROUND
    round_strategy: NEUTRAL
    bit_width: 8
    range_low: -0.347658
    range_high: 0.330042
  }
}
layer {
  name: "bn5"
  type: "BatchNorm"
  bottom: "conv5"
  top: "conv5"
}
layer {
  name: "scale5"
  type: "Scale"
  bottom: "conv5"
  top: "conv5"
  scale_param {
    bias_term: true
  }
}
layer {
  name: "relu5"
  type: "ReLU"
  bottom: "conv5"
  top: "conv5"
}
layer {
  name: "pool5"
  type: "Pooling"
  bottom: "conv5"
  top: "pool5"
  pooling_param {
    pool: MAX
    kernel_size: 3
    stride: 2
  }
}
layer {
  name: "quantized_conv1"
  type: "Quantization"
  bottom: "pool5"
  top: "pool5"
  quantization_param {
    round_method: ROUND
    round_strategy: AGGRESSIVE
    bit_width: 4
    range: 0
    range: 8.7577133
  }
}
layer {
  name: "fc6"
  type: "QuanInnerProduct"
  bottom: "pool5"
  top: "fc6"
  param {
    lr_mult: 1
    decay_mult: 1
  }
  param {
    lr_mult: 2
    decay_mult: 0
  }
  quan_inner_product_param {
    num_output: 4096
    weight_filler {
      type: "gaussian"
      std: 0.005
    }
    bias_filler {
      type: "constant"
      value: 0.1
    }
    round_method: ROUND
    round_strategy: NEUTRAL
    bit_width: 8
    range_low: -0.160061
    range_high: 0.148064
  }
}
layer {
  name: "bn6"
  type: "BatchNorm"
  bottom: "fc6"
  top: "fc6"
}
layer {
  name: "scale6"
  type: "Scale"
  bottom: "fc6"
  top: "fc6"
  scale_param {
    bias_term: true
  }
}
layer {
  name: "relu6"
  type: "ReLU"
  bottom: "fc6"
  top: "fc6"
}
layer {
  name: "drop6"
  type: "Dropout"
  bottom: "fc6"
  top: "fc6"
  dropout_param {
    dropout_ratio: 0.5
  }
}
layer {
  name: "quantized_conv1"
  type: "Quantization"
  bottom: "fc6"
  top: "fc6"
  quantization_param {
    round_method: ROUND
    round_strategy: AGGRESSIVE
    bit_width: 4
    range: 0
    range: 1.659358
  }
}
layer {
  name: "fc7"
  type: "QuanInnerProduct"
  bottom: "fc6"
  top: "fc7"
  param {
    lr_mult: 1
    decay_mult: 1
  }
  param {
    lr_mult: 2
    decay_mult: 0
  }
  quan_inner_product_param {
    num_output: 4096
    weight_filler {
      type: "gaussian"
      std: 0.005
    }
    bias_filler {
      type: "constant"
      value: 0.1
    }
    round_method: ROUND
    round_strategy: NEUTRAL
    bit_width: 8
    range_low: -0.162636
    range_high: 0.197684
  }
}
layer {
  name: "bn7"
  type: "BatchNorm"
  bottom: "fc7"
  top: "fc7"
}
layer {
  name: "scale7"
  type: "Scale"
  bottom: "fc7"
  top: "fc7"
  scale_param {
    bias_term: true
  }
}
layer {
  name: "relu7"
  type: "ReLU"
  bottom: "fc7"
  top: "fc7"
}
layer {
  name: "drop7"
  type: "Dropout"
  bottom: "fc7"
  top: "fc7"
  dropout_param {
    dropout_ratio: 0.5
  }
}
layer {
  name: "quantized_conv1"
  type: "Quantization"
  bottom: "fc7"
  top: "fc7"
  quantization_param {
    round_method: ROUND
    round_strategy: AGGRESSIVE
    bit_width: 4
    range: 0
    range: 7.5598521
  }
}
layer {
  name: "fc8"
  type: "QuanInnerProduct"
  bottom: "fc7"
  top: "fc8"
  param {
    lr_mult: 1
    decay_mult: 1
  }
  param {
    lr_mult: 2
    decay_mult: 0
  }
  quan_inner_product_param {
    num_output: 1000
    weight_filler {
      type: "gaussian"
      std: 0.01
    }
    bias_filler {
      type: "constant"
      value: 0
    }
    round_method: ROUND
    round_strategy: NEUTRAL
    bit_width: 8
    range_low: -0.141857
    range_high: 0.274249
  }
}
layer {
  name: "accuracy"
  type: "Accuracy"
  bottom: "fc8"
  bottom: "label"
  top: "accuracy"
  include {
    phase: TEST
  }
}
layer {
  name: "accuracy_5"
  type: "Accuracy"
  bottom: "fc8"
  bottom: "label"
  top: "accuracy_5"
  include {
    phase: TEST
  }
  accuracy_param {
    top_k: 5
  }
}
layer {
  name: "loss"
  type: "SoftmaxWithLoss"
  bottom: "fc8"
  bottom: "label"
  top: "loss"
}
I0115 21:22:40.490206 141844 layer_factory.hpp:77] Creating layer data
I0115 21:22:40.490331 141844 db_lmdb.cpp:35] Opened lmdb /home/DATA/imagenet_resize/lmdb_resize/ilsvrc12_val_lmdb
I0115 21:22:40.490392 141844 net.cpp:84] Creating Layer data
I0115 21:22:40.490420 141844 net.cpp:380] data -> data
I0115 21:22:40.490434 141844 net.cpp:380] data -> label
I0115 21:22:40.490830 141844 data_layer.cpp:45] output data size: 200,3,224,224
I0115 21:22:40.856056 141844 net.cpp:122] Setting up data
I0115 21:22:40.856125 141844 net.cpp:129] Top shape: 200 3 224 224 (30105600)
I0115 21:22:40.856135 141844 net.cpp:129] Top shape: 200 (200)
I0115 21:22:40.856140 141844 net.cpp:137] Memory required for data: 120423200
I0115 21:22:40.856153 141844 layer_factory.hpp:77] Creating layer label_data_1_split
I0115 21:22:40.856179 141844 net.cpp:84] Creating Layer label_data_1_split
I0115 21:22:40.856189 141844 net.cpp:406] label_data_1_split <- label
I0115 21:22:40.856204 141844 net.cpp:380] label_data_1_split -> label_data_1_split_0
I0115 21:22:40.856225 141844 net.cpp:380] label_data_1_split -> label_data_1_split_1
I0115 21:22:40.856235 141844 net.cpp:380] label_data_1_split -> label_data_1_split_2
I0115 21:22:40.856546 141844 net.cpp:122] Setting up label_data_1_split
I0115 21:22:40.856612 141844 net.cpp:129] Top shape: 200 (200)
I0115 21:22:40.856626 141844 net.cpp:129] Top shape: 200 (200)
I0115 21:22:40.856640 141844 net.cpp:129] Top shape: 200 (200)
I0115 21:22:40.856652 141844 net.cpp:137] Memory required for data: 120425600
I0115 21:22:40.856667 141844 layer_factory.hpp:77] Creating layer conv1
I0115 21:22:40.856717 141844 net.cpp:84] Creating Layer conv1
I0115 21:22:40.856732 141844 net.cpp:406] conv1 <- data
I0115 21:22:40.856755 141844 net.cpp:380] conv1 -> conv1
ydwu=======get:
bit_width=8;  round_method=0;  round_strategy=1;  is_runtime=0;  range_low=-0.872089;  range_high=0.927025
I0115 21:22:40.858268 141844 net.cpp:122] Setting up conv1
I0115 21:22:40.858295 141844 net.cpp:129] Top shape: 200 96 55 55 (58080000)
I0115 21:22:40.858304 141844 net.cpp:137] Memory required for data: 352745600
I0115 21:22:40.858332 141844 layer_factory.hpp:77] Creating layer bn1
I0115 21:22:40.858355 141844 net.cpp:84] Creating Layer bn1
I0115 21:22:40.858367 141844 net.cpp:406] bn1 <- conv1
I0115 21:22:40.858381 141844 net.cpp:367] bn1 -> conv1 (in-place)
I0115 21:22:40.858757 141844 net.cpp:122] Setting up bn1
I0115 21:22:40.858783 141844 net.cpp:129] Top shape: 200 96 55 55 (58080000)
I0115 21:22:40.858793 141844 net.cpp:137] Memory required for data: 585065600
I0115 21:22:40.858825 141844 layer_factory.hpp:77] Creating layer scale1
I0115 21:22:40.858856 141844 net.cpp:84] Creating Layer scale1
I0115 21:22:40.858870 141844 net.cpp:406] scale1 <- conv1
I0115 21:22:40.858978 141844 net.cpp:367] scale1 -> conv1 (in-place)
I0115 21:22:40.879457 141844 layer_factory.hpp:77] Creating layer scale1
I0115 21:22:40.879729 141844 net.cpp:122] Setting up scale1
I0115 21:22:40.879756 141844 net.cpp:129] Top shape: 200 96 55 55 (58080000)
I0115 21:22:40.879765 141844 net.cpp:137] Memory required for data: 817385600
I0115 21:22:40.879782 141844 layer_factory.hpp:77] Creating layer relu1
I0115 21:22:40.879801 141844 net.cpp:84] Creating Layer relu1
I0115 21:22:40.879812 141844 net.cpp:406] relu1 <- conv1
I0115 21:22:40.879828 141844 net.cpp:367] relu1 -> conv1 (in-place)
I0115 21:22:40.879845 141844 net.cpp:122] Setting up relu1
I0115 21:22:40.879859 141844 net.cpp:129] Top shape: 200 96 55 55 (58080000)
I0115 21:22:40.879868 141844 net.cpp:137] Memory required for data: 1049705600
I0115 21:22:40.879878 141844 layer_factory.hpp:77] Creating layer pool1
I0115 21:22:40.879895 141844 net.cpp:84] Creating Layer pool1
I0115 21:22:40.879906 141844 net.cpp:406] pool1 <- conv1
I0115 21:22:40.879922 141844 net.cpp:380] pool1 -> pool1
I0115 21:22:40.880002 141844 net.cpp:122] Setting up pool1
I0115 21:22:40.880022 141844 net.cpp:129] Top shape: 200 96 27 27 (13996800)
I0115 21:22:40.880030 141844 net.cpp:137] Memory required for data: 1105692800
I0115 21:22:40.880039 141844 layer_factory.hpp:77] Creating layer quantized_conv1
I0115 21:22:40.880054 141844 net.cpp:84] Creating Layer quantized_conv1
I0115 21:22:40.880065 141844 net.cpp:406] quantized_conv1 <- pool1
I0115 21:22:40.880077 141844 net.cpp:367] quantized_conv1 -> pool1 (in-place)
I0115 21:22:40.880095 141844 net.cpp:122] Setting up quantized_conv1
I0115 21:22:40.880108 141844 net.cpp:129] Top shape: 200 96 27 27 (13996800)
I0115 21:22:40.880118 141844 net.cpp:137] Memory required for data: 1161680000
I0115 21:22:40.880127 141844 layer_factory.hpp:77] Creating layer conv2
I0115 21:22:40.880153 141844 net.cpp:84] Creating Layer conv2
I0115 21:22:40.880164 141844 net.cpp:406] conv2 <- pool1
I0115 21:22:40.880179 141844 net.cpp:380] conv2 -> conv2
ydwu=======get:
bit_width=8;  round_method=0;  round_strategy=1;  is_runtime=0;  range_low=-0.806018;  range_high=1.5182
I0115 21:22:40.892500 141844 net.cpp:122] Setting up conv2
I0115 21:22:40.892535 141844 net.cpp:129] Top shape: 200 256 27 27 (37324800)
I0115 21:22:40.892542 141844 net.cpp:137] Memory required for data: 1310979200
I0115 21:22:40.892571 141844 layer_factory.hpp:77] Creating layer bn2
I0115 21:22:40.892591 141844 net.cpp:84] Creating Layer bn2
I0115 21:22:40.892601 141844 net.cpp:406] bn2 <- conv2
I0115 21:22:40.892616 141844 net.cpp:367] bn2 -> conv2 (in-place)
I0115 21:22:40.892868 141844 net.cpp:122] Setting up bn2
I0115 21:22:40.892885 141844 net.cpp:129] Top shape: 200 256 27 27 (37324800)
I0115 21:22:40.892894 141844 net.cpp:137] Memory required for data: 1460278400
I0115 21:22:40.892909 141844 layer_factory.hpp:77] Creating layer scale2
I0115 21:22:40.892923 141844 net.cpp:84] Creating Layer scale2
I0115 21:22:40.892931 141844 net.cpp:406] scale2 <- conv2
I0115 21:22:40.892943 141844 net.cpp:367] scale2 -> conv2 (in-place)
I0115 21:22:40.893013 141844 layer_factory.hpp:77] Creating layer scale2
I0115 21:22:40.893164 141844 net.cpp:122] Setting up scale2
I0115 21:22:40.893180 141844 net.cpp:129] Top shape: 200 256 27 27 (37324800)
I0115 21:22:40.893188 141844 net.cpp:137] Memory required for data: 1609577600
I0115 21:22:40.893200 141844 layer_factory.hpp:77] Creating layer relu2
I0115 21:22:40.893213 141844 net.cpp:84] Creating Layer relu2
I0115 21:22:40.893221 141844 net.cpp:406] relu2 <- conv2
I0115 21:22:40.893232 141844 net.cpp:367] relu2 -> conv2 (in-place)
I0115 21:22:40.893244 141844 net.cpp:122] Setting up relu2
I0115 21:22:40.893254 141844 net.cpp:129] Top shape: 200 256 27 27 (37324800)
I0115 21:22:40.893261 141844 net.cpp:137] Memory required for data: 1758876800
I0115 21:22:40.893270 141844 layer_factory.hpp:77] Creating layer pool2
I0115 21:22:40.893283 141844 net.cpp:84] Creating Layer pool2
I0115 21:22:40.893291 141844 net.cpp:406] pool2 <- conv2
I0115 21:22:40.893304 141844 net.cpp:380] pool2 -> pool2
I0115 21:22:40.893364 141844 net.cpp:122] Setting up pool2
I0115 21:22:40.893379 141844 net.cpp:129] Top shape: 200 256 13 13 (8652800)
I0115 21:22:40.893445 141844 net.cpp:137] Memory required for data: 1793488000
I0115 21:22:40.893455 141844 layer_factory.hpp:77] Creating layer quantized_conv1
I0115 21:22:40.893468 141844 net.cpp:84] Creating Layer quantized_conv1
I0115 21:22:40.893476 141844 net.cpp:406] quantized_conv1 <- pool2
I0115 21:22:40.893488 141844 net.cpp:367] quantized_conv1 -> pool2 (in-place)
I0115 21:22:40.893501 141844 net.cpp:122] Setting up quantized_conv1
I0115 21:22:40.893512 141844 net.cpp:129] Top shape: 200 256 13 13 (8652800)
I0115 21:22:40.893518 141844 net.cpp:137] Memory required for data: 1828099200
I0115 21:22:40.893527 141844 layer_factory.hpp:77] Creating layer conv3
I0115 21:22:40.893544 141844 net.cpp:84] Creating Layer conv3
I0115 21:22:40.893553 141844 net.cpp:406] conv3 <- pool2
I0115 21:22:40.893564 141844 net.cpp:380] conv3 -> conv3
ydwu=======get:
bit_width=8;  round_method=0;  round_strategy=1;  is_runtime=0;  range_low=-0.621858;  range_high=0.673858
I0115 21:22:40.909492 141844 net.cpp:122] Setting up conv3
I0115 21:22:40.909524 141844 net.cpp:129] Top shape: 200 384 13 13 (12979200)
I0115 21:22:40.909533 141844 net.cpp:137] Memory required for data: 1880016000
I0115 21:22:40.909550 141844 layer_factory.hpp:77] Creating layer bn3
I0115 21:22:40.909569 141844 net.cpp:84] Creating Layer bn3
I0115 21:22:40.909579 141844 net.cpp:406] bn3 <- conv3
I0115 21:22:40.909593 141844 net.cpp:367] bn3 -> conv3 (in-place)
I0115 21:22:40.909843 141844 net.cpp:122] Setting up bn3
I0115 21:22:40.909859 141844 net.cpp:129] Top shape: 200 384 13 13 (12979200)
I0115 21:22:40.909873 141844 net.cpp:137] Memory required for data: 1931932800
I0115 21:22:40.909898 141844 layer_factory.hpp:77] Creating layer scale3
I0115 21:22:40.909921 141844 net.cpp:84] Creating Layer scale3
I0115 21:22:40.909929 141844 net.cpp:406] scale3 <- conv3
I0115 21:22:40.909940 141844 net.cpp:367] scale3 -> conv3 (in-place)
I0115 21:22:40.910012 141844 layer_factory.hpp:77] Creating layer scale3
I0115 21:22:40.910153 141844 net.cpp:122] Setting up scale3
I0115 21:22:40.910167 141844 net.cpp:129] Top shape: 200 384 13 13 (12979200)
I0115 21:22:40.910174 141844 net.cpp:137] Memory required for data: 1983849600
I0115 21:22:40.910187 141844 layer_factory.hpp:77] Creating layer relu3
I0115 21:22:40.910198 141844 net.cpp:84] Creating Layer relu3
I0115 21:22:40.910207 141844 net.cpp:406] relu3 <- conv3
I0115 21:22:40.910217 141844 net.cpp:367] relu3 -> conv3 (in-place)
I0115 21:22:40.910228 141844 net.cpp:122] Setting up relu3
I0115 21:22:40.910236 141844 net.cpp:129] Top shape: 200 384 13 13 (12979200)
I0115 21:22:40.910243 141844 net.cpp:137] Memory required for data: 2035766400
I0115 21:22:40.910251 141844 layer_factory.hpp:77] Creating layer quantized_conv1
I0115 21:22:40.910264 141844 net.cpp:84] Creating Layer quantized_conv1
I0115 21:22:40.910270 141844 net.cpp:406] quantized_conv1 <- conv3
I0115 21:22:40.910280 141844 net.cpp:367] quantized_conv1 -> conv3 (in-place)
I0115 21:22:40.910291 141844 net.cpp:122] Setting up quantized_conv1
I0115 21:22:40.910301 141844 net.cpp:129] Top shape: 200 384 13 13 (12979200)
I0115 21:22:40.910308 141844 net.cpp:137] Memory required for data: 2087683200
I0115 21:22:40.910315 141844 layer_factory.hpp:77] Creating layer conv4
I0115 21:22:40.910331 141844 net.cpp:84] Creating Layer conv4
I0115 21:22:40.910339 141844 net.cpp:406] conv4 <- conv3
I0115 21:22:40.910351 141844 net.cpp:380] conv4 -> conv4
ydwu=======get:
bit_width=8;  round_method=0;  round_strategy=1;  is_runtime=0;  range_low=-0.376634;  range_high=0.341829
I0115 21:22:40.937403 141844 net.cpp:122] Setting up conv4
I0115 21:22:40.937438 141844 net.cpp:129] Top shape: 200 384 13 13 (12979200)
I0115 21:22:40.937444 141844 net.cpp:137] Memory required for data: 2139600000
I0115 21:22:40.937461 141844 layer_factory.hpp:77] Creating layer bn4
I0115 21:22:40.937480 141844 net.cpp:84] Creating Layer bn4
I0115 21:22:40.937490 141844 net.cpp:406] bn4 <- conv4
I0115 21:22:40.937505 141844 net.cpp:367] bn4 -> conv4 (in-place)
I0115 21:22:40.937757 141844 net.cpp:122] Setting up bn4
I0115 21:22:40.937772 141844 net.cpp:129] Top shape: 200 384 13 13 (12979200)
I0115 21:22:40.937777 141844 net.cpp:137] Memory required for data: 2191516800
I0115 21:22:40.937789 141844 layer_factory.hpp:77] Creating layer scale4
I0115 21:22:40.937870 141844 net.cpp:84] Creating Layer scale4
I0115 21:22:40.937878 141844 net.cpp:406] scale4 <- conv4
I0115 21:22:40.937886 141844 net.cpp:367] scale4 -> conv4 (in-place)
I0115 21:22:40.937965 141844 layer_factory.hpp:77] Creating layer scale4
I0115 21:22:40.938115 141844 net.cpp:122] Setting up scale4
I0115 21:22:40.938130 141844 net.cpp:129] Top shape: 200 384 13 13 (12979200)
I0115 21:22:40.938136 141844 net.cpp:137] Memory required for data: 2243433600
I0115 21:22:40.938146 141844 layer_factory.hpp:77] Creating layer relu4
I0115 21:22:40.938159 141844 net.cpp:84] Creating Layer relu4
I0115 21:22:40.938168 141844 net.cpp:406] relu4 <- conv4
I0115 21:22:40.938179 141844 net.cpp:367] relu4 -> conv4 (in-place)
I0115 21:22:40.938190 141844 net.cpp:122] Setting up relu4
I0115 21:22:40.938199 141844 net.cpp:129] Top shape: 200 384 13 13 (12979200)
I0115 21:22:40.938207 141844 net.cpp:137] Memory required for data: 2295350400
I0115 21:22:40.938216 141844 layer_factory.hpp:77] Creating layer quantized_conv1
I0115 21:22:40.938232 141844 net.cpp:84] Creating Layer quantized_conv1
I0115 21:22:40.938239 141844 net.cpp:406] quantized_conv1 <- conv4
I0115 21:22:40.938247 141844 net.cpp:367] quantized_conv1 -> conv4 (in-place)
I0115 21:22:40.938259 141844 net.cpp:122] Setting up quantized_conv1
I0115 21:22:40.938268 141844 net.cpp:129] Top shape: 200 384 13 13 (12979200)
I0115 21:22:40.938274 141844 net.cpp:137] Memory required for data: 2347267200
I0115 21:22:40.938280 141844 layer_factory.hpp:77] Creating layer conv5
I0115 21:22:40.938298 141844 net.cpp:84] Creating Layer conv5
I0115 21:22:40.938307 141844 net.cpp:406] conv5 <- conv4
I0115 21:22:40.938318 141844 net.cpp:380] conv5 -> conv5
ydwu=======get:
bit_width=8;  round_method=0;  round_strategy=1;  is_runtime=0;  range_low=-0.347658;  range_high=0.330042
I0115 21:22:40.957027 141844 net.cpp:122] Setting up conv5
I0115 21:22:40.957067 141844 net.cpp:129] Top shape: 200 256 13 13 (8652800)
I0115 21:22:40.957075 141844 net.cpp:137] Memory required for data: 2381878400
I0115 21:22:40.957094 141844 layer_factory.hpp:77] Creating layer bn5
I0115 21:22:40.957113 141844 net.cpp:84] Creating Layer bn5
I0115 21:22:40.957123 141844 net.cpp:406] bn5 <- conv5
I0115 21:22:40.957137 141844 net.cpp:367] bn5 -> conv5 (in-place)
I0115 21:22:40.957408 141844 net.cpp:122] Setting up bn5
I0115 21:22:40.957423 141844 net.cpp:129] Top shape: 200 256 13 13 (8652800)
I0115 21:22:40.957430 141844 net.cpp:137] Memory required for data: 2416489600
I0115 21:22:40.957456 141844 layer_factory.hpp:77] Creating layer scale5
I0115 21:22:40.957475 141844 net.cpp:84] Creating Layer scale5
I0115 21:22:40.957484 141844 net.cpp:406] scale5 <- conv5
I0115 21:22:40.957494 141844 net.cpp:367] scale5 -> conv5 (in-place)
I0115 21:22:40.957566 141844 layer_factory.hpp:77] Creating layer scale5
I0115 21:22:40.957712 141844 net.cpp:122] Setting up scale5
I0115 21:22:40.957727 141844 net.cpp:129] Top shape: 200 256 13 13 (8652800)
I0115 21:22:40.957736 141844 net.cpp:137] Memory required for data: 2451100800
I0115 21:22:40.957747 141844 layer_factory.hpp:77] Creating layer relu5
I0115 21:22:40.957758 141844 net.cpp:84] Creating Layer relu5
I0115 21:22:40.957765 141844 net.cpp:406] relu5 <- conv5
I0115 21:22:40.957779 141844 net.cpp:367] relu5 -> conv5 (in-place)
I0115 21:22:40.957798 141844 net.cpp:122] Setting up relu5
I0115 21:22:40.957808 141844 net.cpp:129] Top shape: 200 256 13 13 (8652800)
I0115 21:22:40.957828 141844 net.cpp:137] Memory required for data: 2485712000
I0115 21:22:40.957837 141844 layer_factory.hpp:77] Creating layer pool5
I0115 21:22:40.957851 141844 net.cpp:84] Creating Layer pool5
I0115 21:22:40.957862 141844 net.cpp:406] pool5 <- conv5
I0115 21:22:40.957873 141844 net.cpp:380] pool5 -> pool5
I0115 21:22:40.957934 141844 net.cpp:122] Setting up pool5
I0115 21:22:40.957948 141844 net.cpp:129] Top shape: 200 256 6 6 (1843200)
I0115 21:22:40.957955 141844 net.cpp:137] Memory required for data: 2493084800
I0115 21:22:40.957963 141844 layer_factory.hpp:77] Creating layer quantized_conv1
I0115 21:22:40.957975 141844 net.cpp:84] Creating Layer quantized_conv1
I0115 21:22:40.958029 141844 net.cpp:406] quantized_conv1 <- pool5
I0115 21:22:40.958041 141844 net.cpp:367] quantized_conv1 -> pool5 (in-place)
I0115 21:22:40.958053 141844 net.cpp:122] Setting up quantized_conv1
I0115 21:22:40.958063 141844 net.cpp:129] Top shape: 200 256 6 6 (1843200)
I0115 21:22:40.958070 141844 net.cpp:137] Memory required for data: 2500457600
I0115 21:22:40.958077 141844 layer_factory.hpp:77] Creating layer fc6
I0115 21:22:40.958094 141844 net.cpp:84] Creating Layer fc6
I0115 21:22:40.958102 141844 net.cpp:406] fc6 <- pool5
I0115 21:22:40.958112 141844 net.cpp:380] fc6 -> fc6
I0115 21:22:40.958127 141844 quan_inner_product_layer.cpp:21] 4096   4096
ydwu=======get:
bit_width=8;  round_method=0;  round_strategy=1;  is_runtime=0;  range_low=-0.160061;  range_high=0.148064
I0115 21:22:41.603772 141844 net.cpp:122] Setting up fc6
I0115 21:22:41.603812 141844 net.cpp:129] Top shape: 200 4096 (819200)
I0115 21:22:41.603819 141844 net.cpp:137] Memory required for data: 2503734400
I0115 21:22:41.603837 141844 layer_factory.hpp:77] Creating layer bn6
I0115 21:22:41.603862 141844 net.cpp:84] Creating Layer bn6
I0115 21:22:41.603869 141844 net.cpp:406] bn6 <- fc6
I0115 21:22:41.603883 141844 net.cpp:367] bn6 -> fc6 (in-place)
I0115 21:22:41.604142 141844 net.cpp:122] Setting up bn6
I0115 21:22:41.604158 141844 net.cpp:129] Top shape: 200 4096 (819200)
I0115 21:22:41.604164 141844 net.cpp:137] Memory required for data: 2507011200
I0115 21:22:41.604177 141844 layer_factory.hpp:77] Creating layer scale6
I0115 21:22:41.604199 141844 net.cpp:84] Creating Layer scale6
I0115 21:22:41.604208 141844 net.cpp:406] scale6 <- fc6
I0115 21:22:41.604218 141844 net.cpp:367] scale6 -> fc6 (in-place)
I0115 21:22:41.604280 141844 layer_factory.hpp:77] Creating layer scale6
I0115 21:22:41.604434 141844 net.cpp:122] Setting up scale6
I0115 21:22:41.604449 141844 net.cpp:129] Top shape: 200 4096 (819200)
I0115 21:22:41.604454 141844 net.cpp:137] Memory required for data: 2510288000
I0115 21:22:41.604465 141844 layer_factory.hpp:77] Creating layer relu6
I0115 21:22:41.604477 141844 net.cpp:84] Creating Layer relu6
I0115 21:22:41.604485 141844 net.cpp:406] relu6 <- fc6
I0115 21:22:41.604495 141844 net.cpp:367] relu6 -> fc6 (in-place)
I0115 21:22:41.604506 141844 net.cpp:122] Setting up relu6
I0115 21:22:41.604513 141844 net.cpp:129] Top shape: 200 4096 (819200)
I0115 21:22:41.604521 141844 net.cpp:137] Memory required for data: 2513564800
I0115 21:22:41.604528 141844 layer_factory.hpp:77] Creating layer drop6
I0115 21:22:41.604540 141844 net.cpp:84] Creating Layer drop6
I0115 21:22:41.604548 141844 net.cpp:406] drop6 <- fc6
I0115 21:22:41.604562 141844 net.cpp:367] drop6 -> fc6 (in-place)
I0115 21:22:41.604596 141844 net.cpp:122] Setting up drop6
I0115 21:22:41.604609 141844 net.cpp:129] Top shape: 200 4096 (819200)
I0115 21:22:41.604616 141844 net.cpp:137] Memory required for data: 2516841600
I0115 21:22:41.604624 141844 layer_factory.hpp:77] Creating layer quantized_conv1
I0115 21:22:41.604641 141844 net.cpp:84] Creating Layer quantized_conv1
I0115 21:22:41.604650 141844 net.cpp:406] quantized_conv1 <- fc6
I0115 21:22:41.604660 141844 net.cpp:367] quantized_conv1 -> fc6 (in-place)
I0115 21:22:41.604672 141844 net.cpp:122] Setting up quantized_conv1
I0115 21:22:41.604682 141844 net.cpp:129] Top shape: 200 4096 (819200)
I0115 21:22:41.604689 141844 net.cpp:137] Memory required for data: 2520118400
I0115 21:22:41.604697 141844 layer_factory.hpp:77] Creating layer fc7
I0115 21:22:41.604710 141844 net.cpp:84] Creating Layer fc7
I0115 21:22:41.604718 141844 net.cpp:406] fc7 <- fc6
I0115 21:22:41.604732 141844 net.cpp:380] fc7 -> fc7
I0115 21:22:41.604748 141844 quan_inner_product_layer.cpp:21] 4096   4096
ydwu=======get:
bit_width=8;  round_method=0;  round_strategy=1;  is_runtime=0;  range_low=-0.162636;  range_high=0.197684
I0115 21:22:41.872424 141844 net.cpp:122] Setting up fc7
I0115 21:22:41.872462 141844 net.cpp:129] Top shape: 200 4096 (819200)
I0115 21:22:41.872468 141844 net.cpp:137] Memory required for data: 2523395200
I0115 21:22:41.872493 141844 layer_factory.hpp:77] Creating layer bn7
I0115 21:22:41.872509 141844 net.cpp:84] Creating Layer bn7
I0115 21:22:41.872517 141844 net.cpp:406] bn7 <- fc7
I0115 21:22:41.872536 141844 net.cpp:367] bn7 -> fc7 (in-place)
I0115 21:22:41.872834 141844 net.cpp:122] Setting up bn7
I0115 21:22:41.872848 141844 net.cpp:129] Top shape: 200 4096 (819200)
I0115 21:22:41.872853 141844 net.cpp:137] Memory required for data: 2526672000
I0115 21:22:41.872869 141844 layer_factory.hpp:77] Creating layer scale7
I0115 21:22:41.872882 141844 net.cpp:84] Creating Layer scale7
I0115 21:22:41.872889 141844 net.cpp:406] scale7 <- fc7
I0115 21:22:41.872897 141844 net.cpp:367] scale7 -> fc7 (in-place)
I0115 21:22:41.872961 141844 layer_factory.hpp:77] Creating layer scale7
I0115 21:22:41.873111 141844 net.cpp:122] Setting up scale7
I0115 21:22:41.873124 141844 net.cpp:129] Top shape: 200 4096 (819200)
I0115 21:22:41.873136 141844 net.cpp:137] Memory required for data: 2529948800
I0115 21:22:41.873145 141844 layer_factory.hpp:77] Creating layer relu7
I0115 21:22:41.873157 141844 net.cpp:84] Creating Layer relu7
I0115 21:22:41.873164 141844 net.cpp:406] relu7 <- fc7
I0115 21:22:41.873172 141844 net.cpp:367] relu7 -> fc7 (in-place)
I0115 21:22:41.873181 141844 net.cpp:122] Setting up relu7
I0115 21:22:41.873189 141844 net.cpp:129] Top shape: 200 4096 (819200)
I0115 21:22:41.873194 141844 net.cpp:137] Memory required for data: 2533225600
I0115 21:22:41.873201 141844 layer_factory.hpp:77] Creating layer drop7
I0115 21:22:41.873212 141844 net.cpp:84] Creating Layer drop7
I0115 21:22:41.873217 141844 net.cpp:406] drop7 <- fc7
I0115 21:22:41.873229 141844 net.cpp:367] drop7 -> fc7 (in-place)
I0115 21:22:41.873260 141844 net.cpp:122] Setting up drop7
I0115 21:22:41.873270 141844 net.cpp:129] Top shape: 200 4096 (819200)
I0115 21:22:41.873277 141844 net.cpp:137] Memory required for data: 2536502400
I0115 21:22:41.873284 141844 layer_factory.hpp:77] Creating layer quantized_conv1
I0115 21:22:41.873298 141844 net.cpp:84] Creating Layer quantized_conv1
I0115 21:22:41.873306 141844 net.cpp:406] quantized_conv1 <- fc7
I0115 21:22:41.873314 141844 net.cpp:367] quantized_conv1 -> fc7 (in-place)
I0115 21:22:41.873325 141844 net.cpp:122] Setting up quantized_conv1
I0115 21:22:41.873333 141844 net.cpp:129] Top shape: 200 4096 (819200)
I0115 21:22:41.873340 141844 net.cpp:137] Memory required for data: 2539779200
I0115 21:22:41.873347 141844 layer_factory.hpp:77] Creating layer fc8
I0115 21:22:41.873359 141844 net.cpp:84] Creating Layer fc8
I0115 21:22:41.873366 141844 net.cpp:406] fc8 <- fc7
I0115 21:22:41.873375 141844 net.cpp:380] fc8 -> fc8
I0115 21:22:41.873390 141844 quan_inner_product_layer.cpp:21] 1000   1000
ydwu=======get:
bit_width=8;  round_method=0;  round_strategy=1;  is_runtime=0;  range_low=-0.141857;  range_high=0.274249
I0115 21:22:41.936861 141844 net.cpp:122] Setting up fc8
I0115 21:22:41.936892 141844 net.cpp:129] Top shape: 200 1000 (200000)
I0115 21:22:41.936898 141844 net.cpp:137] Memory required for data: 2540579200
I0115 21:22:41.936911 141844 layer_factory.hpp:77] Creating layer fc8_fc8_0_split
I0115 21:22:41.936924 141844 net.cpp:84] Creating Layer fc8_fc8_0_split
I0115 21:22:41.936933 141844 net.cpp:406] fc8_fc8_0_split <- fc8
I0115 21:22:41.936946 141844 net.cpp:380] fc8_fc8_0_split -> fc8_fc8_0_split_0
I0115 21:22:41.936966 141844 net.cpp:380] fc8_fc8_0_split -> fc8_fc8_0_split_1
I0115 21:22:41.936977 141844 net.cpp:380] fc8_fc8_0_split -> fc8_fc8_0_split_2
I0115 21:22:41.937047 141844 net.cpp:122] Setting up fc8_fc8_0_split
I0115 21:22:41.937059 141844 net.cpp:129] Top shape: 200 1000 (200000)
I0115 21:22:41.937065 141844 net.cpp:129] Top shape: 200 1000 (200000)
I0115 21:22:41.937072 141844 net.cpp:129] Top shape: 200 1000 (200000)
I0115 21:22:41.937077 141844 net.cpp:137] Memory required for data: 2542979200
I0115 21:22:41.937081 141844 layer_factory.hpp:77] Creating layer accuracy
I0115 21:22:41.937093 141844 net.cpp:84] Creating Layer accuracy
I0115 21:22:41.937100 141844 net.cpp:406] accuracy <- fc8_fc8_0_split_0
I0115 21:22:41.937108 141844 net.cpp:406] accuracy <- label_data_1_split_0
I0115 21:22:41.937117 141844 net.cpp:380] accuracy -> accuracy
…
