…
I0117 09:19:08.647677 156740 net.cpp:294] The NetState phase (0) differed from the phase (1) specified by a rule in layer accuracy_5
I0117 09:19:08.648094 156740 net.cpp:51] Initializing net from parameters: 
name: "AlexNet-BN"
state {
  phase: TRAIN
  level: 0
  stage: ""
}
layer {
  name: "data"
  type: "Data"
  top: "data"
  top: "label"
  include {
    phase: TRAIN
  }
  transform_param {
    mirror: true
    crop_size: 224
    mean_value: 103.939
    mean_value: 116.779
    mean_value: 123.68
  }
  data_param {
    source: "/home/DATA/imagenet_resize/lmdb_resize/ilsvrc12_train_lmdb"
    batch_size: 128
    backend: LMDB
  }
}
layer {
  name: "conv1"
  type: "QuanConvolution"
  bottom: "data"
  top: "conv1"
  param {
    lr_mult: 1
    decay_mult: 1
  }
  param {
    lr_mult: 2
    decay_mult: 0
  }
  quan_convolution_param {
    num_output: 96
    pad: 2
    kernel_size: 11
    stride: 4
    weight_filler {
      type: "gaussian"
      std: 0.01
    }
    bias_filler {
      type: "constant"
      value: 0
    }
    round_method: ROUND
    round_strategy: NEUTRAL
    bit_width: 8
    range_low: -0.872089
    range_high: 0.927025
  }
}
layer {
  name: "bn1"
  type: "BatchNorm"
  bottom: "conv1"
  top: "conv1"
}
layer {
  name: "scale1"
  type: "Scale"
  bottom: "conv1"
  top: "conv1"
  scale_param {
    bias_term: true
  }
}
layer {
  name: "relu1"
  type: "ReLU"
  bottom: "conv1"
  top: "conv1"
}
layer {
  name: "pool1"
  type: "Pooling"
  bottom: "conv1"
  top: "pool1"
  pooling_param {
    pool: MAX
    kernel_size: 3
    stride: 2
  }
}
layer {
  name: "quantized_conv1"
  type: "Quantization"
  bottom: "pool1"
  top: "pool1"
  quantization_param {
    round_method: ROUND
    round_strategy: AGGRESSIVE
    bit_width: 4
    range: 0
    range: 13.965383
  }
}
layer {
  name: "conv2"
  type: "QuanConvolution"
  bottom: "pool1"
  top: "conv2"
  param {
    lr_mult: 1
    decay_mult: 1
  }
  param {
    lr_mult: 2
    decay_mult: 0
  }
  quan_convolution_param {
    num_output: 256
    pad: 2
    kernel_size: 5
    weight_filler {
      type: "gaussian"
      std: 0.01
    }
    bias_filler {
      type: "constant"
      value: 0.1
    }
    round_method: ROUND
    round_strategy: NEUTRAL
    bit_width: 8
    range_low: -0.806018
    range_high: 1.5182
  }
}
layer {
  name: "bn2"
  type: "BatchNorm"
  bottom: "conv2"
  top: "conv2"
}
layer {
  name: "scale2"
  type: "Scale"
  bottom: "conv2"
  top: "conv2"
  scale_param {
    bias_term: true
  }
}
layer {
  name: "relu2"
  type: "ReLU"
  bottom: "conv2"
  top: "conv2"
}
layer {
  name: "pool2"
  type: "Pooling"
  bottom: "conv2"
  top: "pool2"
  pooling_param {
    pool: MAX
    kernel_size: 3
    stride: 2
  }
}
layer {
  name: "quantized_conv1"
  type: "Quantization"
  bottom: "pool2"
  top: "pool2"
  quantization_param {
    round_method: ROUND
    round_strategy: AGGRESSIVE
    bit_width: 4
    range: 0
    range: 6.74956
  }
}
layer {
  name: "conv3"
  type: "QuanConvolution"
  bottom: "pool2"
  top: "conv3"
  param {
    lr_mult: 1
    decay_mult: 1
  }
  param {
    lr_mult: 2
    decay_mult: 0
  }
  quan_convolution_param {
    num_output: 384
    pad: 1
    kernel_size: 3
    weight_filler {
      type: "gaussian"
      std: 0.01
    }
    bias_filler {
      type: "constant"
      value: 0
    }
    round_method: ROUND
    round_strategy: NEUTRAL
    bit_width: 8
    range_low: -0.621858
    range_high: 0.673858
  }
}
layer {
  name: "bn3"
  type: "BatchNorm"
  bottom: "conv3"
  top: "conv3"
}
layer {
  name: "scale3"
  type: "Scale"
  bottom: "conv3"
  top: "conv3"
  scale_param {
    bias_term: true
  }
}
layer {
  name: "relu3"
  type: "ReLU"
  bottom: "conv3"
  top: "conv3"
}
layer {
  name: "quantized_conv1"
  type: "Quantization"
  bottom: "conv3"
  top: "conv3"
  quantization_param {
    round_method: ROUND
    round_strategy: AGGRESSIVE
    bit_width: 4
    range: 0
    range: 8.48454
  }
}
layer {
  name: "conv4"
  type: "QuanConvolution"
  bottom: "conv3"
  top: "conv4"
  param {
    lr_mult: 1
    decay_mult: 1
  }
  param {
    lr_mult: 2
    decay_mult: 0
  }
  quan_convolution_param {
    num_output: 384
    pad: 1
    kernel_size: 3
    weight_filler {
      type: "gaussian"
      std: 0.01
    }
    bias_filler {
      type: "constant"
      value: 0.1
    }
    round_method: ROUND
    round_strategy: NEUTRAL
    bit_width: 8
    range_low: -0.376634
    range_high: 0.341829
  }
}
layer {
  name: "bn4"
  type: "BatchNorm"
  bottom: "conv4"
  top: "conv4"
}
layer {
  name: "scale4"
  type: "Scale"
  bottom: "conv4"
  top: "conv4"
  scale_param {
    bias_term: true
  }
}
layer {
  name: "relu4"
  type: "ReLU"
  bottom: "conv4"
  top: "conv4"
}
layer {
  name: "quantized_conv1"
  type: "Quantization"
  bottom: "conv4"
  top: "conv4"
  quantization_param {
    round_method: ROUND
    round_strategy: AGGRESSIVE
    bit_width: 4
    range: 0
    range: 7.3369722
  }
}
layer {
  name: "conv5"
  type: "QuanConvolution"
  bottom: "conv4"
  top: "conv5"
  param {
    lr_mult: 1
    decay_mult: 1
  }
  param {
    lr_mult: 2
    decay_mult: 0
  }
  quan_convolution_param {
    num_output: 256
    pad: 1
    kernel_size: 3
    weight_filler {
      type: "gaussian"
      std: 0.01
    }
    bias_filler {
      type: "constant"
      value: 0.1
    }
    round_method: ROUND
    round_strategy: NEUTRAL
    bit_width: 8
    range_low: -0.347658
    range_high: 0.330042
  }
}
layer {
  name: "bn5"
  type: "BatchNorm"
  bottom: "conv5"
  top: "conv5"
}
layer {
  name: "scale5"
  type: "Scale"
  bottom: "conv5"
  top: "conv5"
  scale_param {
    bias_term: true
  }
}
layer {
  name: "relu5"
  type: "ReLU"
  bottom: "conv5"
  top: "conv5"
}
layer {
  name: "pool5"
  type: "Pooling"
  bottom: "conv5"
  top: "pool5"
  pooling_param {
    pool: MAX
    kernel_size: 3
    stride: 2
  }
}
layer {
  name: "quantized_conv1"
  type: "Quantization"
  bottom: "pool5"
  top: "pool5"
  quantization_param {
    round_method: ROUND
    round_strategy: AGGRESSIVE
    bit_width: 4
    range: 0
    range: 8.7577133
  }
}
layer {
  name: "fc6"
  type: "QuanInnerProduct"
  bottom: "pool5"
  top: "fc6"
  param {
    lr_mult: 1
    decay_mult: 1
  }
  param {
    lr_mult: 2
    decay_mult: 0
  }
  quan_inner_product_param {
    num_output: 4096
    weight_filler {
      type: "gaussian"
      std: 0.005
    }
    bias_filler {
      type: "constant"
      value: 0.1
    }
    round_method: ROUND
    round_strategy: NEUTRAL
    bit_width: 8
    range_low: -0.160061
    range_high: 0.148064
  }
}
layer {
  name: "bn6"
  type: "BatchNorm"
  bottom: "fc6"
  top: "fc6"
}
layer {
  name: "scale6"
  type: "Scale"
  bottom: "fc6"
  top: "fc6"
  scale_param {
    bias_term: true
  }
}
layer {
  name: "relu6"
  type: "ReLU"
  bottom: "fc6"
  top: "fc6"
}
layer {
  name: "drop6"
  type: "Dropout"
  bottom: "fc6"
  top: "fc6"
  dropout_param {
    dropout_ratio: 0.5
  }
}
layer {
  name: "quantized_conv1"
  type: "Quantization"
  bottom: "fc6"
  top: "fc6"
  quantization_param {
    round_method: ROUND
    round_strategy: AGGRESSIVE
    bit_width: 4
    range: 0
    range: 1.659358
  }
}
layer {
  name: "fc7"
  type: "QuanInnerProduct"
  bottom: "fc6"
  top: "fc7"
  param {
    lr_mult: 1
    decay_mult: 1
  }
  param {
    lr_mult: 2
    decay_mult: 0
  }
  quan_inner_product_param {
    num_output: 4096
    weight_filler {
      type: "gaussian"
      std: 0.005
    }
    bias_filler {
      type: "constant"
      value: 0.1
    }
    round_method: ROUND
    round_strategy: NEUTRAL
    bit_width: 8
    range_low: -0.162636
    range_high: 0.197684
  }
}
layer {
  name: "bn7"
  type: "BatchNorm"
  bottom: "fc7"
  top: "fc7"
}
layer {
  name: "scale7"
  type: "Scale"
  bottom: "fc7"
  top: "fc7"
  scale_param {
    bias_term: true
  }
}
layer {
  name: "relu7"
  type: "ReLU"
  bottom: "fc7"
  top: "fc7"
}
layer {
  name: "drop7"
  type: "Dropout"
  bottom: "fc7"
  top: "fc7"
  dropout_param {
    dropout_ratio: 0.5
  }
}
layer {
  name: "quantized_conv1"
  type: "Quantization"
  bottom: "fc7"
  top: "fc7"
  quantization_param {
    round_method: ROUND
    round_strategy: AGGRESSIVE
    bit_width: 4
    range: 0
    range: 7.5598521
  }
}
layer {
  name: "fc8"
  type: "QuanInnerProduct"
  bottom: "fc7"
  top: "fc8"
  param {
    lr_mult: 1
    decay_mult: 1
  }
  param {
    lr_mult: 2
    decay_mult: 0
  }
  quan_inner_product_param {
    num_output: 1000
    weight_filler {
      type: "gaussian"
      std: 0.01
    }
    bias_filler {
      type: "constant"
      value: 0
    }
    round_method: ROUND
    round_strategy: NEUTRAL
    bit_width: 8
    range_low: -0.141857
    range_high: 0.274249
  }
}
layer {
  name: "accuracy_5_TRAIN"
  type: "Accuracy"
  bottom: "fc8"
  bottom: "label"
  top: "accuracy_5_TRAIN"
  include {
    phase: TRAIN
  }
  accuracy_param {
    top_k: 5
  }
}
layer {
  name: "loss"
  type: "SoftmaxWithLoss"
  bottom: "fc8"
  bottom: "label"
  top: "loss"
}
I0117 09:19:08.648397 156740 layer_factory.hpp:77] Creating layer data
I0117 09:19:08.668776 156740 db_lmdb.cpp:35] Opened lmdb /home/DATA/imagenet_resize/lmdb_resize/ilsvrc12_train_lmdb
I0117 09:19:08.696069 156740 net.cpp:84] Creating Layer data
I0117 09:19:08.696167 156740 net.cpp:380] data -> data
I0117 09:19:08.696223 156740 net.cpp:380] data -> label
I0117 09:19:08.706038 156740 data_layer.cpp:45] output data size: 128,3,224,224
I0117 09:19:09.338507 156740 net.cpp:122] Setting up data
I0117 09:19:09.338614 156740 net.cpp:129] Top shape: 128 3 224 224 (19267584)
I0117 09:19:09.338635 156740 net.cpp:129] Top shape: 128 (128)
I0117 09:19:09.338644 156740 net.cpp:137] Memory required for data: 77070848
I0117 09:19:09.338665 156740 layer_factory.hpp:77] Creating layer label_data_1_split
I0117 09:19:09.338691 156740 net.cpp:84] Creating Layer label_data_1_split
I0117 09:19:09.338704 156740 net.cpp:406] label_data_1_split <- label
I0117 09:19:09.338733 156740 net.cpp:380] label_data_1_split -> label_data_1_split_0
I0117 09:19:09.338757 156740 net.cpp:380] label_data_1_split -> label_data_1_split_1
I0117 09:19:09.338840 156740 net.cpp:122] Setting up label_data_1_split
I0117 09:19:09.338853 156740 net.cpp:129] Top shape: 128 (128)
I0117 09:19:09.338860 156740 net.cpp:129] Top shape: 128 (128)
I0117 09:19:09.338865 156740 net.cpp:137] Memory required for data: 77071872
I0117 09:19:09.338873 156740 layer_factory.hpp:77] Creating layer conv1
I0117 09:19:09.338910 156740 net.cpp:84] Creating Layer conv1
I0117 09:19:09.338919 156740 net.cpp:406] conv1 <- data
I0117 09:19:09.338933 156740 net.cpp:380] conv1 -> conv1
ydwu=======get:
bit_width=8;  round_method=0;  round_strategy=1;  is_runtime=0;  range_low=-0.872089;  range_high=0.927025
I0117 09:19:09.354446 156740 net.cpp:122] Setting up conv1
I0117 09:19:09.354480 156740 net.cpp:129] Top shape: 128 96 55 55 (37171200)
I0117 09:19:09.354487 156740 net.cpp:137] Memory required for data: 225756672
I0117 09:19:09.354526 156740 layer_factory.hpp:77] Creating layer bn1
I0117 09:19:09.354547 156740 net.cpp:84] Creating Layer bn1
I0117 09:19:09.354553 156740 net.cpp:406] bn1 <- conv1
I0117 09:19:09.354564 156740 net.cpp:367] bn1 -> conv1 (in-place)
I0117 09:19:09.354776 156740 net.cpp:122] Setting up bn1
I0117 09:19:09.354791 156740 net.cpp:129] Top shape: 128 96 55 55 (37171200)
I0117 09:19:09.354797 156740 net.cpp:137] Memory required for data: 374441472
I0117 09:19:09.354812 156740 layer_factory.hpp:77] Creating layer scale1
I0117 09:19:09.354827 156740 net.cpp:84] Creating Layer scale1
I0117 09:19:09.354835 156740 net.cpp:406] scale1 <- conv1
I0117 09:19:09.354845 156740 net.cpp:367] scale1 -> conv1 (in-place)
I0117 09:19:09.354893 156740 layer_factory.hpp:77] Creating layer scale1
I0117 09:19:09.355028 156740 net.cpp:122] Setting up scale1
I0117 09:19:09.355042 156740 net.cpp:129] Top shape: 128 96 55 55 (37171200)
I0117 09:19:09.355048 156740 net.cpp:137] Memory required for data: 523126272
I0117 09:19:09.355057 156740 layer_factory.hpp:77] Creating layer relu1
I0117 09:19:09.355067 156740 net.cpp:84] Creating Layer relu1
I0117 09:19:09.355075 156740 net.cpp:406] relu1 <- conv1
I0117 09:19:09.355087 156740 net.cpp:367] relu1 -> conv1 (in-place)
I0117 09:19:09.355113 156740 net.cpp:122] Setting up relu1
I0117 09:19:09.355175 156740 net.cpp:129] Top shape: 128 96 55 55 (37171200)
I0117 09:19:09.355183 156740 net.cpp:137] Memory required for data: 671811072
I0117 09:19:09.355191 156740 layer_factory.hpp:77] Creating layer pool1
I0117 09:19:09.355203 156740 net.cpp:84] Creating Layer pool1
I0117 09:19:09.355211 156740 net.cpp:406] pool1 <- conv1
I0117 09:19:09.355222 156740 net.cpp:380] pool1 -> pool1
I0117 09:19:09.355283 156740 net.cpp:122] Setting up pool1
I0117 09:19:09.355298 156740 net.cpp:129] Top shape: 128 96 27 27 (8957952)
I0117 09:19:09.355304 156740 net.cpp:137] Memory required for data: 707642880
I0117 09:19:09.355311 156740 layer_factory.hpp:77] Creating layer quantized_conv1
I0117 09:19:09.355324 156740 net.cpp:84] Creating Layer quantized_conv1
I0117 09:19:09.355331 156740 net.cpp:406] quantized_conv1 <- pool1
I0117 09:19:09.355341 156740 net.cpp:367] quantized_conv1 -> pool1 (in-place)
I0117 09:19:09.355363 156740 net.cpp:122] Setting up quantized_conv1
I0117 09:19:09.355373 156740 net.cpp:129] Top shape: 128 96 27 27 (8957952)
I0117 09:19:09.355381 156740 net.cpp:137] Memory required for data: 743474688
I0117 09:19:09.355387 156740 layer_factory.hpp:77] Creating layer conv2
I0117 09:19:09.355406 156740 net.cpp:84] Creating Layer conv2
I0117 09:19:09.355414 156740 net.cpp:406] conv2 <- pool1
I0117 09:19:09.355425 156740 net.cpp:380] conv2 -> conv2
ydwu=======get:
bit_width=8;  round_method=0;  round_strategy=1;  is_runtime=0;  range_low=-0.806018;  range_high=1.5182
I0117 09:19:09.367209 156740 net.cpp:122] Setting up conv2
I0117 09:19:09.367238 156740 net.cpp:129] Top shape: 128 256 27 27 (23887872)
I0117 09:19:09.367242 156740 net.cpp:137] Memory required for data: 839026176
I0117 09:19:09.367259 156740 layer_factory.hpp:77] Creating layer bn2
I0117 09:19:09.367285 156740 net.cpp:84] Creating Layer bn2
I0117 09:19:09.367292 156740 net.cpp:406] bn2 <- conv2
I0117 09:19:09.367303 156740 net.cpp:367] bn2 -> conv2 (in-place)
I0117 09:19:09.367506 156740 net.cpp:122] Setting up bn2
I0117 09:19:09.367519 156740 net.cpp:129] Top shape: 128 256 27 27 (23887872)
I0117 09:19:09.367524 156740 net.cpp:137] Memory required for data: 934577664
I0117 09:19:09.367535 156740 layer_factory.hpp:77] Creating layer scale2
I0117 09:19:09.367545 156740 net.cpp:84] Creating Layer scale2
I0117 09:19:09.367558 156740 net.cpp:406] scale2 <- conv2
I0117 09:19:09.367568 156740 net.cpp:367] scale2 -> conv2 (in-place)
I0117 09:19:09.367610 156740 layer_factory.hpp:77] Creating layer scale2
I0117 09:19:09.367738 156740 net.cpp:122] Setting up scale2
I0117 09:19:09.367750 156740 net.cpp:129] Top shape: 128 256 27 27 (23887872)
I0117 09:19:09.367756 156740 net.cpp:137] Memory required for data: 1030129152
I0117 09:19:09.367765 156740 layer_factory.hpp:77] Creating layer relu2
I0117 09:19:09.367774 156740 net.cpp:84] Creating Layer relu2
I0117 09:19:09.367781 156740 net.cpp:406] relu2 <- conv2
I0117 09:19:09.367792 156740 net.cpp:367] relu2 -> conv2 (in-place)
I0117 09:19:09.367802 156740 net.cpp:122] Setting up relu2
I0117 09:19:09.367811 156740 net.cpp:129] Top shape: 128 256 27 27 (23887872)
I0117 09:19:09.367818 156740 net.cpp:137] Memory required for data: 1125680640
I0117 09:19:09.367825 156740 layer_factory.hpp:77] Creating layer pool2
I0117 09:19:09.367837 156740 net.cpp:84] Creating Layer pool2
I0117 09:19:09.367844 156740 net.cpp:406] pool2 <- conv2
I0117 09:19:09.367856 156740 net.cpp:380] pool2 -> pool2
I0117 09:19:09.367902 156740 net.cpp:122] Setting up pool2
I0117 09:19:09.367913 156740 net.cpp:129] Top shape: 128 256 13 13 (5537792)
I0117 09:19:09.367920 156740 net.cpp:137] Memory required for data: 1147831808
I0117 09:19:09.367928 156740 layer_factory.hpp:77] Creating layer quantized_conv1
I0117 09:19:09.367939 156740 net.cpp:84] Creating Layer quantized_conv1
I0117 09:19:09.367947 156740 net.cpp:406] quantized_conv1 <- pool2
I0117 09:19:09.367959 156740 net.cpp:367] quantized_conv1 -> pool2 (in-place)
I0117 09:19:09.367969 156740 net.cpp:122] Setting up quantized_conv1
I0117 09:19:09.367979 156740 net.cpp:129] Top shape: 128 256 13 13 (5537792)
I0117 09:19:09.367985 156740 net.cpp:137] Memory required for data: 1169982976
I0117 09:19:09.367992 156740 layer_factory.hpp:77] Creating layer conv3
I0117 09:19:09.368031 156740 net.cpp:84] Creating Layer conv3
I0117 09:19:09.368038 156740 net.cpp:406] conv3 <- pool2
I0117 09:19:09.368050 156740 net.cpp:380] conv3 -> conv3
ydwu=======get:
bit_width=8;  round_method=0;  round_strategy=1;  is_runtime=0;  range_low=-0.621858;  range_high=0.673858
I0117 09:19:09.383170 156740 net.cpp:122] Setting up conv3
I0117 09:19:09.383190 156740 net.cpp:129] Top shape: 128 384 13 13 (8306688)
I0117 09:19:09.383199 156740 net.cpp:137] Memory required for data: 1203209728
I0117 09:19:09.383213 156740 layer_factory.hpp:77] Creating layer bn3
I0117 09:19:09.383225 156740 net.cpp:84] Creating Layer bn3
I0117 09:19:09.383234 156740 net.cpp:406] bn3 <- conv3
I0117 09:19:09.383246 156740 net.cpp:367] bn3 -> conv3 (in-place)
I0117 09:19:09.383448 156740 net.cpp:122] Setting up bn3
I0117 09:19:09.383463 156740 net.cpp:129] Top shape: 128 384 13 13 (8306688)
I0117 09:19:09.383471 156740 net.cpp:137] Memory required for data: 1236436480
I0117 09:19:09.383491 156740 layer_factory.hpp:77] Creating layer scale3
I0117 09:19:09.383507 156740 net.cpp:84] Creating Layer scale3
I0117 09:19:09.383514 156740 net.cpp:406] scale3 <- conv3
I0117 09:19:09.383524 156740 net.cpp:367] scale3 -> conv3 (in-place)
I0117 09:19:09.383566 156740 layer_factory.hpp:77] Creating layer scale3
I0117 09:19:09.383692 156740 net.cpp:122] Setting up scale3
I0117 09:19:09.383705 156740 net.cpp:129] Top shape: 128 384 13 13 (8306688)
I0117 09:19:09.383713 156740 net.cpp:137] Memory required for data: 1269663232
I0117 09:19:09.383725 156740 layer_factory.hpp:77] Creating layer relu3
I0117 09:19:09.383735 156740 net.cpp:84] Creating Layer relu3
I0117 09:19:09.383749 156740 net.cpp:406] relu3 <- conv3
I0117 09:19:09.383760 156740 net.cpp:367] relu3 -> conv3 (in-place)
I0117 09:19:09.383771 156740 net.cpp:122] Setting up relu3
I0117 09:19:09.383780 156740 net.cpp:129] Top shape: 128 384 13 13 (8306688)
I0117 09:19:09.383787 156740 net.cpp:137] Memory required for data: 1302889984
I0117 09:19:09.383795 156740 layer_factory.hpp:77] Creating layer quantized_conv1
I0117 09:19:09.383806 156740 net.cpp:84] Creating Layer quantized_conv1
I0117 09:19:09.383813 156740 net.cpp:406] quantized_conv1 <- conv3
I0117 09:19:09.383824 156740 net.cpp:367] quantized_conv1 -> conv3 (in-place)
I0117 09:19:09.383836 156740 net.cpp:122] Setting up quantized_conv1
I0117 09:19:09.383846 156740 net.cpp:129] Top shape: 128 384 13 13 (8306688)
I0117 09:19:09.383852 156740 net.cpp:137] Memory required for data: 1336116736
I0117 09:19:09.383860 156740 layer_factory.hpp:77] Creating layer conv4
I0117 09:19:09.383874 156740 net.cpp:84] Creating Layer conv4
I0117 09:19:09.383882 156740 net.cpp:406] conv4 <- conv3
I0117 09:19:09.383894 156740 net.cpp:380] conv4 -> conv4
ydwu=======get:
bit_width=8;  round_method=0;  round_strategy=1;  is_runtime=0;  range_low=-0.376634;  range_high=0.341829
I0117 09:19:09.442005 156740 net.cpp:122] Setting up conv4
I0117 09:19:09.442049 156740 net.cpp:129] Top shape: 128 384 13 13 (8306688)
I0117 09:19:09.442056 156740 net.cpp:137] Memory required for data: 1369343488
I0117 09:19:09.442075 156740 layer_factory.hpp:77] Creating layer bn4
I0117 09:19:09.442093 156740 net.cpp:84] Creating Layer bn4
I0117 09:19:09.442102 156740 net.cpp:406] bn4 <- conv4
I0117 09:19:09.442117 156740 net.cpp:367] bn4 -> conv4 (in-place)
I0117 09:19:09.442332 156740 net.cpp:122] Setting up bn4
I0117 09:19:09.442351 156740 net.cpp:129] Top shape: 128 384 13 13 (8306688)
I0117 09:19:09.442365 156740 net.cpp:137] Memory required for data: 1402570240
I0117 09:19:09.442379 156740 layer_factory.hpp:77] Creating layer scale4
I0117 09:19:09.442392 156740 net.cpp:84] Creating Layer scale4
I0117 09:19:09.442400 156740 net.cpp:406] scale4 <- conv4
I0117 09:19:09.442410 156740 net.cpp:367] scale4 -> conv4 (in-place)
I0117 09:19:09.442458 156740 layer_factory.hpp:77] Creating layer scale4
I0117 09:19:09.442595 156740 net.cpp:122] Setting up scale4
I0117 09:19:09.442608 156740 net.cpp:129] Top shape: 128 384 13 13 (8306688)
I0117 09:19:09.442615 156740 net.cpp:137] Memory required for data: 1435796992
I0117 09:19:09.442627 156740 layer_factory.hpp:77] Creating layer relu4
I0117 09:19:09.442638 156740 net.cpp:84] Creating Layer relu4
I0117 09:19:09.442646 156740 net.cpp:406] relu4 <- conv4
I0117 09:19:09.442703 156740 net.cpp:367] relu4 -> conv4 (in-place)
I0117 09:19:09.442715 156740 net.cpp:122] Setting up relu4
I0117 09:19:09.442725 156740 net.cpp:129] Top shape: 128 384 13 13 (8306688)
I0117 09:19:09.442733 156740 net.cpp:137] Memory required for data: 1469023744
I0117 09:19:09.442739 156740 layer_factory.hpp:77] Creating layer quantized_conv1
I0117 09:19:09.442751 156740 net.cpp:84] Creating Layer quantized_conv1
I0117 09:19:09.442759 156740 net.cpp:406] quantized_conv1 <- conv4
I0117 09:19:09.442771 156740 net.cpp:367] quantized_conv1 -> conv4 (in-place)
I0117 09:19:09.442783 156740 net.cpp:122] Setting up quantized_conv1
I0117 09:19:09.442792 156740 net.cpp:129] Top shape: 128 384 13 13 (8306688)
I0117 09:19:09.442800 156740 net.cpp:137] Memory required for data: 1502250496
I0117 09:19:09.442807 156740 layer_factory.hpp:77] Creating layer conv5
I0117 09:19:09.442827 156740 net.cpp:84] Creating Layer conv5
I0117 09:19:09.442836 156740 net.cpp:406] conv5 <- conv4
I0117 09:19:09.442847 156740 net.cpp:380] conv5 -> conv5
ydwu=======get:
bit_width=8;  round_method=0;  round_strategy=1;  is_runtime=0;  range_low=-0.347658;  range_high=0.330042
I0117 09:19:09.458037 156740 net.cpp:122] Setting up conv5
I0117 09:19:09.458055 156740 net.cpp:129] Top shape: 128 256 13 13 (5537792)
I0117 09:19:09.458062 156740 net.cpp:137] Memory required for data: 1524401664
I0117 09:19:09.458075 156740 layer_factory.hpp:77] Creating layer bn5
I0117 09:19:09.458089 156740 net.cpp:84] Creating Layer bn5
I0117 09:19:09.458097 156740 net.cpp:406] bn5 <- conv5
I0117 09:19:09.458107 156740 net.cpp:367] bn5 -> conv5 (in-place)
I0117 09:19:09.458317 156740 net.cpp:122] Setting up bn5
I0117 09:19:09.458330 156740 net.cpp:129] Top shape: 128 256 13 13 (5537792)
I0117 09:19:09.458338 156740 net.cpp:137] Memory required for data: 1546552832
I0117 09:19:09.458360 156740 layer_factory.hpp:77] Creating layer scale5
I0117 09:19:09.458375 156740 net.cpp:84] Creating Layer scale5
I0117 09:19:09.458384 156740 net.cpp:406] scale5 <- conv5
I0117 09:19:09.458394 156740 net.cpp:367] scale5 -> conv5 (in-place)
I0117 09:19:09.458439 156740 layer_factory.hpp:77] Creating layer scale5
I0117 09:19:09.458572 156740 net.cpp:122] Setting up scale5
I0117 09:19:09.458590 156740 net.cpp:129] Top shape: 128 256 13 13 (5537792)
I0117 09:19:09.458596 156740 net.cpp:137] Memory required for data: 1568704000
I0117 09:19:09.458608 156740 layer_factory.hpp:77] Creating layer relu5
I0117 09:19:09.458618 156740 net.cpp:84] Creating Layer relu5
I0117 09:19:09.458626 156740 net.cpp:406] relu5 <- conv5
I0117 09:19:09.458636 156740 net.cpp:367] relu5 -> conv5 (in-place)
I0117 09:19:09.458647 156740 net.cpp:122] Setting up relu5
I0117 09:19:09.458662 156740 net.cpp:129] Top shape: 128 256 13 13 (5537792)
I0117 09:19:09.458668 156740 net.cpp:137] Memory required for data: 1590855168
I0117 09:19:09.458676 156740 layer_factory.hpp:77] Creating layer pool5
I0117 09:19:09.458693 156740 net.cpp:84] Creating Layer pool5
I0117 09:19:09.458700 156740 net.cpp:406] pool5 <- conv5
I0117 09:19:09.458710 156740 net.cpp:380] pool5 -> pool5
I0117 09:19:09.458760 156740 net.cpp:122] Setting up pool5
I0117 09:19:09.458780 156740 net.cpp:129] Top shape: 128 256 6 6 (1179648)
I0117 09:19:09.458786 156740 net.cpp:137] Memory required for data: 1595573760
I0117 09:19:09.458794 156740 layer_factory.hpp:77] Creating layer quantized_conv1
I0117 09:19:09.458804 156740 net.cpp:84] Creating Layer quantized_conv1
I0117 09:19:09.458812 156740 net.cpp:406] quantized_conv1 <- pool5
I0117 09:19:09.458822 156740 net.cpp:367] quantized_conv1 -> pool5 (in-place)
I0117 09:19:09.458832 156740 net.cpp:122] Setting up quantized_conv1
I0117 09:19:09.458842 156740 net.cpp:129] Top shape: 128 256 6 6 (1179648)
I0117 09:19:09.458848 156740 net.cpp:137] Memory required for data: 1600292352
I0117 09:19:09.458856 156740 layer_factory.hpp:77] Creating layer fc6
I0117 09:19:09.458868 156740 net.cpp:84] Creating Layer fc6
I0117 09:19:09.458876 156740 net.cpp:406] fc6 <- pool5
I0117 09:19:09.458889 156740 net.cpp:380] fc6 -> fc6
I0117 09:19:09.458909 156740 quan_inner_product_layer.cpp:21] 4096   4096
ydwu=======get:
bit_width=8;  round_method=0;  round_strategy=1;  is_runtime=0;  range_low=-0.160061;  range_high=0.148064
I0117 09:19:10.120437 156740 net.cpp:122] Setting up fc6
I0117 09:19:10.120474 156740 net.cpp:129] Top shape: 128 4096 (524288)
I0117 09:19:10.120482 156740 net.cpp:137] Memory required for data: 1602389504
I0117 09:19:10.120525 156740 layer_factory.hpp:77] Creating layer bn6
I0117 09:19:10.120551 156740 net.cpp:84] Creating Layer bn6
I0117 09:19:10.120560 156740 net.cpp:406] bn6 <- fc6
I0117 09:19:10.120579 156740 net.cpp:367] bn6 -> fc6 (in-place)
I0117 09:19:10.120837 156740 net.cpp:122] Setting up bn6
I0117 09:19:10.120856 156740 net.cpp:129] Top shape: 128 4096 (524288)
I0117 09:19:10.120862 156740 net.cpp:137] Memory required for data: 1604486656
I0117 09:19:10.120874 156740 layer_factory.hpp:77] Creating layer scale6
I0117 09:19:10.120898 156740 net.cpp:84] Creating Layer scale6
I0117 09:19:10.120905 156740 net.cpp:406] scale6 <- fc6
I0117 09:19:10.120914 156740 net.cpp:367] scale6 -> fc6 (in-place)
I0117 09:19:10.120966 156740 layer_factory.hpp:77] Creating layer scale6
I0117 09:19:10.121115 156740 net.cpp:122] Setting up scale6
I0117 09:19:10.121129 156740 net.cpp:129] Top shape: 128 4096 (524288)
I0117 09:19:10.121135 156740 net.cpp:137] Memory required for data: 1606583808
I0117 09:19:10.121145 156740 layer_factory.hpp:77] Creating layer relu6
I0117 09:19:10.121155 156740 net.cpp:84] Creating Layer relu6
I0117 09:19:10.121162 156740 net.cpp:406] relu6 <- fc6
I0117 09:19:10.121174 156740 net.cpp:367] relu6 -> fc6 (in-place)
I0117 09:19:10.121186 156740 net.cpp:122] Setting up relu6
I0117 09:19:10.121194 156740 net.cpp:129] Top shape: 128 4096 (524288)
I0117 09:19:10.121201 156740 net.cpp:137] Memory required for data: 1608680960
I0117 09:19:10.121208 156740 layer_factory.hpp:77] Creating layer drop6
I0117 09:19:10.121220 156740 net.cpp:84] Creating Layer drop6
I0117 09:19:10.121227 156740 net.cpp:406] drop6 <- fc6
I0117 09:19:10.121237 156740 net.cpp:367] drop6 -> fc6 (in-place)
I0117 09:19:10.121274 156740 net.cpp:122] Setting up drop6
I0117 09:19:10.121286 156740 net.cpp:129] Top shape: 128 4096 (524288)
I0117 09:19:10.121294 156740 net.cpp:137] Memory required for data: 1610778112
I0117 09:19:10.121301 156740 layer_factory.hpp:77] Creating layer quantized_conv1
I0117 09:19:10.121314 156740 net.cpp:84] Creating Layer quantized_conv1
I0117 09:19:10.121320 156740 net.cpp:406] quantized_conv1 <- fc6
I0117 09:19:10.121330 156740 net.cpp:367] quantized_conv1 -> fc6 (in-place)
I0117 09:19:10.121342 156740 net.cpp:122] Setting up quantized_conv1
I0117 09:19:10.121351 156740 net.cpp:129] Top shape: 128 4096 (524288)
I0117 09:19:10.121358 156740 net.cpp:137] Memory required for data: 1612875264
I0117 09:19:10.121366 156740 layer_factory.hpp:77] Creating layer fc7
I0117 09:19:10.121378 156740 net.cpp:84] Creating Layer fc7
I0117 09:19:10.121385 156740 net.cpp:406] fc7 <- fc6
I0117 09:19:10.121399 156740 net.cpp:380] fc7 -> fc7
I0117 09:19:10.121413 156740 quan_inner_product_layer.cpp:21] 4096   4096
ydwu=======get:
bit_width=8;  round_method=0;  round_strategy=1;  is_runtime=0;  range_low=-0.162636;  range_high=0.197684
I0117 09:19:10.429770 156740 net.cpp:122] Setting up fc7
I0117 09:19:10.429843 156740 net.cpp:129] Top shape: 128 4096 (524288)
I0117 09:19:10.429853 156740 net.cpp:137] Memory required for data: 1614972416
I0117 09:19:10.429872 156740 layer_factory.hpp:77] Creating layer bn7
I0117 09:19:10.429904 156740 net.cpp:84] Creating Layer bn7
I0117 09:19:10.429914 156740 net.cpp:406] bn7 <- fc7
I0117 09:19:10.429927 156740 net.cpp:367] bn7 -> fc7 (in-place)
I0117 09:19:10.430160 156740 net.cpp:122] Setting up bn7
I0117 09:19:10.430176 156740 net.cpp:129] Top shape: 128 4096 (524288)
I0117 09:19:10.430182 156740 net.cpp:137] Memory required for data: 1617069568
I0117 09:19:10.430197 156740 layer_factory.hpp:77] Creating layer scale7
I0117 09:19:10.430213 156740 net.cpp:84] Creating Layer scale7
I0117 09:19:10.430222 156740 net.cpp:406] scale7 <- fc7
I0117 09:19:10.430232 156740 net.cpp:367] scale7 -> fc7 (in-place)
I0117 09:19:10.430284 156740 layer_factory.hpp:77] Creating layer scale7
I0117 09:19:10.430430 156740 net.cpp:122] Setting up scale7
I0117 09:19:10.430444 156740 net.cpp:129] Top shape: 128 4096 (524288)
I0117 09:19:10.430451 156740 net.cpp:137] Memory required for data: 1619166720
I0117 09:19:10.430507 156740 layer_factory.hpp:77] Creating layer relu7
I0117 09:19:10.430519 156740 net.cpp:84] Creating Layer relu7
I0117 09:19:10.430526 156740 net.cpp:406] relu7 <- fc7
I0117 09:19:10.430538 156740 net.cpp:367] relu7 -> fc7 (in-place)
I0117 09:19:10.430550 156740 net.cpp:122] Setting up relu7
I0117 09:19:10.430559 156740 net.cpp:129] Top shape: 128 4096 (524288)
I0117 09:19:10.430565 156740 net.cpp:137] Memory required for data: 1621263872
I0117 09:19:10.430573 156740 layer_factory.hpp:77] Creating layer drop7
I0117 09:19:10.430584 156740 net.cpp:84] Creating Layer drop7
I0117 09:19:10.430591 156740 net.cpp:406] drop7 <- fc7
I0117 09:19:10.430600 156740 net.cpp:367] drop7 -> fc7 (in-place)
I0117 09:19:10.430630 156740 net.cpp:122] Setting up drop7
I0117 09:19:10.430642 156740 net.cpp:129] Top shape: 128 4096 (524288)
I0117 09:19:10.430649 156740 net.cpp:137] Memory required for data: 1623361024
I0117 09:19:10.430656 156740 layer_factory.hpp:77] Creating layer quantized_conv1
I0117 09:19:10.430670 156740 net.cpp:84] Creating Layer quantized_conv1
I0117 09:19:10.430676 156740 net.cpp:406] quantized_conv1 <- fc7
I0117 09:19:10.430688 156740 net.cpp:367] quantized_conv1 -> fc7 (in-place)
I0117 09:19:10.430701 156740 net.cpp:122] Setting up quantized_conv1
I0117 09:19:10.430709 156740 net.cpp:129] Top shape: 128 4096 (524288)
I0117 09:19:10.430716 156740 net.cpp:137] Memory required for data: 1625458176
I0117 09:19:10.430723 156740 layer_factory.hpp:77] Creating layer fc8
I0117 09:19:10.430737 156740 net.cpp:84] Creating Layer fc8
I0117 09:19:10.430743 156740 net.cpp:406] fc8 <- fc7
I0117 09:19:10.430753 156740 net.cpp:380] fc8 -> fc8
I0117 09:19:10.430768 156740 quan_inner_product_layer.cpp:21] 1000   1000
ydwu=======get:
bit_width=8;  round_method=0;  round_strategy=1;  is_runtime=0;  range_low=-0.141857;  range_high=0.274249
I0117 09:19:10.504834 156740 net.cpp:122] Setting up fc8
I0117 09:19:10.504870 156740 net.cpp:129] Top shape: 128 1000 (128000)
I0117 09:19:10.504878 156740 net.cpp:137] Memory required for data: 1625970176
I0117 09:19:10.504896 156740 layer_factory.hpp:77] Creating layer fc8_fc8_0_split
I0117 09:19:10.504926 156740 net.cpp:84] Creating Layer fc8_fc8_0_split
I0117 09:19:10.504936 156740 net.cpp:406] fc8_fc8_0_split <- fc8
I0117 09:19:10.504951 156740 net.cpp:380] fc8_fc8_0_split -> fc8_fc8_0_split_0
I0117 09:19:10.504968 156740 net.cpp:380] fc8_fc8_0_split -> fc8_fc8_0_split_1
I0117 09:19:10.505039 156740 net.cpp:122] Setting up fc8_fc8_0_split
I0117 09:19:10.505053 156740 net.cpp:129] Top shape: 128 1000 (128000)
I0117 09:19:10.505061 156740 net.cpp:129] Top shape: 128 1000 (128000)
I0117 09:19:10.505067 156740 net.cpp:137] Memory required for data: 1626994176
I0117 09:19:10.505074 156740 layer_factory.hpp:77] Creating layer accuracy_5_TRAIN
I0117 09:19:10.505105 156740 net.cpp:84] Creating Layer accuracy_5_TRAIN
I0117 09:19:10.505112 156740 net.cpp:406] accuracy_5_TRAIN <- fc8_fc8_0_split_0
I0117 09:19:10.505122 156740 net.cpp:406] accuracy_5_TRAIN <- label_data_1_split_0
…
I0117 09:19:10.508653 156740 net.cpp:294] The NetState phase (1) differed from the phase (0) specified by a rule in layer accuracy_5_TRAIN
I0117 09:19:10.508998 156740 net.cpp:51] Initializing net from parameters: 
name: "AlexNet-BN"
state {
  phase: TEST
}
layer {
  name: "data"
  type: "Data"
  top: "data"
  top: "label"
  include {
    phase: TEST
  }
  transform_param {
    mirror: false
    crop_size: 224
    mean_value: 103.939
    mean_value: 116.779
    mean_value: 123.68
  }
  data_param {
    source: "/home/DATA/imagenet_resize/lmdb_resize/ilsvrc12_val_lmdb"
    batch_size: 200
    backend: LMDB
  }
}
layer {
  name: "conv1"
  type: "QuanConvolution"
  bottom: "data"
  top: "conv1"
  param {
    lr_mult: 1
    decay_mult: 1
  }
  param {
    lr_mult: 2
    decay_mult: 0
  }
  quan_convolution_param {
    num_output: 96
    pad: 2
    kernel_size: 11
    stride: 4
    weight_filler {
      type: "gaussian"
      std: 0.01
    }
    bias_filler {
      type: "constant"
      value: 0
    }
    round_method: ROUND
    round_strategy: NEUTRAL
    bit_width: 8
    range_low: -0.872089
    range_high: 0.927025
  }
}
layer {
  name: "bn1"
  type: "BatchNorm"
  bottom: "conv1"
  top: "conv1"
}
layer {
  name: "scale1"
  type: "Scale"
  bottom: "conv1"
  top: "conv1"
  scale_param {
    bias_term: true
  }
}
layer {
  name: "relu1"
  type: "ReLU"
  bottom: "conv1"
  top: "conv1"
}
layer {
  name: "pool1"
  type: "Pooling"
  bottom: "conv1"
  top: "pool1"
  pooling_param {
    pool: MAX
    kernel_size: 3
    stride: 2
  }
}
layer {
  name: "quantized_conv1"
  type: "Quantization"
  bottom: "pool1"
  top: "pool1"
  quantization_param {
    round_method: ROUND
    round_strategy: AGGRESSIVE
    bit_width: 4
    range: 0
    range: 13.965383
  }
}
layer {
  name: "conv2"
  type: "QuanConvolution"
  bottom: "pool1"
  top: "conv2"
  param {
    lr_mult: 1
    decay_mult: 1
  }
  param {
    lr_mult: 2
    decay_mult: 0
  }
  quan_convolution_param {
    num_output: 256
    pad: 2
    kernel_size: 5
    weight_filler {
      type: "gaussian"
      std: 0.01
    }
    bias_filler {
      type: "constant"
      value: 0.1
    }
    round_method: ROUND
    round_strategy: NEUTRAL
    bit_width: 8
    range_low: -0.806018
    range_high: 1.5182
  }
}
layer {
  name: "bn2"
  type: "BatchNorm"
  bottom: "conv2"
  top: "conv2"
}
layer {
  name: "scale2"
  type: "Scale"
  bottom: "conv2"
  top: "conv2"
  scale_param {
    bias_term: true
  }
}
layer {
  name: "relu2"
  type: "ReLU"
  bottom: "conv2"
  top: "conv2"
}
layer {
  name: "pool2"
  type: "Pooling"
  bottom: "conv2"
  top: "pool2"
  pooling_param {
    pool: MAX
    kernel_size: 3
    stride: 2
  }
}
layer {
  name: "quantized_conv1"
  type: "Quantization"
  bottom: "pool2"
  top: "pool2"
  quantization_param {
    round_method: ROUND
    round_strategy: AGGRESSIVE
    bit_width: 4
    range: 0
    range: 6.74956
  }
}
layer {
  name: "conv3"
  type: "QuanConvolution"
  bottom: "pool2"
  top: "conv3"
  param {
    lr_mult: 1
    decay_mult: 1
  }
  param {
    lr_mult: 2
    decay_mult: 0
  }
  quan_convolution_param {
    num_output: 384
    pad: 1
    kernel_size: 3
    weight_filler {
      type: "gaussian"
      std: 0.01
    }
    bias_filler {
      type: "constant"
      value: 0
    }
    round_method: ROUND
    round_strategy: NEUTRAL
    bit_width: 8
    range_low: -0.621858
    range_high: 0.673858
  }
}
layer {
  name: "bn3"
  type: "BatchNorm"
  bottom: "conv3"
  top: "conv3"
}
layer {
  name: "scale3"
  type: "Scale"
  bottom: "conv3"
  top: "conv3"
  scale_param {
    bias_term: true
  }
}
layer {
  name: "relu3"
  type: "ReLU"
  bottom: "conv3"
  top: "conv3"
}
layer {
  name: "quantized_conv1"
  type: "Quantization"
  bottom: "conv3"
  top: "conv3"
  quantization_param {
    round_method: ROUND
    round_strategy: AGGRESSIVE
    bit_width: 4
    range: 0
    range: 8.48454
  }
}
layer {
  name: "conv4"
  type: "QuanConvolution"
  bottom: "conv3"
  top: "conv4"
  param {
    lr_mult: 1
    decay_mult: 1
  }
  param {
    lr_mult: 2
    decay_mult: 0
  }
  quan_convolution_param {
    num_output: 384
    pad: 1
    kernel_size: 3
    weight_filler {
      type: "gaussian"
      std: 0.01
    }
    bias_filler {
      type: "constant"
      value: 0.1
    }
    round_method: ROUND
    round_strategy: NEUTRAL
    bit_width: 8
    range_low: -0.376634
    range_high: 0.341829
  }
}
layer {
  name: "bn4"
  type: "BatchNorm"
  bottom: "conv4"
  top: "conv4"
}
layer {
  name: "scale4"
  type: "Scale"
  bottom: "conv4"
  top: "conv4"
  scale_param {
    bias_term: true
  }
}
layer {
  name: "relu4"
  type: "ReLU"
  bottom: "conv4"
  top: "conv4"
}
layer {
  name: "quantized_conv1"
  type: "Quantization"
  bottom: "conv4"
  top: "conv4"
  quantization_param {
    round_method: ROUND
    round_strategy: AGGRESSIVE
    bit_width: 4
    range: 0
    range: 7.3369722
  }
}
layer {
  name: "conv5"
  type: "QuanConvolution"
  bottom: "conv4"
  top: "conv5"
  param {
    lr_mult: 1
    decay_mult: 1
  }
  param {
    lr_mult: 2
    decay_mult: 0
  }
  quan_convolution_param {
    num_output: 256
    pad: 1
    kernel_size: 3
    weight_filler {
      type: "gaussian"
      std: 0.01
    }
    bias_filler {
      type: "constant"
      value: 0.1
    }
    round_method: ROUND
    round_strategy: NEUTRAL
    bit_width: 8
    range_low: -0.347658
    range_high: 0.330042
  }
}
layer {
  name: "bn5"
  type: "BatchNorm"
  bottom: "conv5"
  top: "conv5"
}
layer {
  name: "scale5"
  type: "Scale"
  bottom: "conv5"
  top: "conv5"
  scale_param {
    bias_term: true
  }
}
layer {
  name: "relu5"
  type: "ReLU"
  bottom: "conv5"
  top: "conv5"
}
layer {
  name: "pool5"
  type: "Pooling"
  bottom: "conv5"
  top: "pool5"
  pooling_param {
    pool: MAX
    kernel_size: 3
    stride: 2
  }
}
layer {
  name: "quantized_conv1"
  type: "Quantization"
  bottom: "pool5"
  top: "pool5"
  quantization_param {
    round_method: ROUND
    round_strategy: AGGRESSIVE
    bit_width: 4
    range: 0
    range: 8.7577133
  }
}
layer {
  name: "fc6"
  type: "QuanInnerProduct"
  bottom: "pool5"
  top: "fc6"
  param {
    lr_mult: 1
    decay_mult: 1
  }
  param {
    lr_mult: 2
    decay_mult: 0
  }
  quan_inner_product_param {
    num_output: 4096
    weight_filler {
      type: "gaussian"
      std: 0.005
    }
    bias_filler {
      type: "constant"
      value: 0.1
    }
    round_method: ROUND
    round_strategy: NEUTRAL
    bit_width: 8
    range_low: -0.160061
    range_high: 0.148064
  }
}
layer {
  name: "bn6"
  type: "BatchNorm"
  bottom: "fc6"
  top: "fc6"
}
layer {
  name: "scale6"
  type: "Scale"
  bottom: "fc6"
  top: "fc6"
  scale_param {
    bias_term: true
  }
}
layer {
  name: "relu6"
  type: "ReLU"
  bottom: "fc6"
  top: "fc6"
}
layer {
  name: "drop6"
  type: "Dropout"
  bottom: "fc6"
  top: "fc6"
  dropout_param {
    dropout_ratio: 0.5
  }
}
layer {
  name: "quantized_conv1"
  type: "Quantization"
  bottom: "fc6"
  top: "fc6"
  quantization_param {
    round_method: ROUND
    round_strategy: AGGRESSIVE
    bit_width: 4
    range: 0
    range: 1.659358
  }
}
layer {
  name: "fc7"
  type: "QuanInnerProduct"
  bottom: "fc6"
  top: "fc7"
  param {
    lr_mult: 1
    decay_mult: 1
  }
  param {
    lr_mult: 2
    decay_mult: 0
  }
  quan_inner_product_param {
    num_output: 4096
    weight_filler {
      type: "gaussian"
      std: 0.005
    }
    bias_filler {
      type: "constant"
      value: 0.1
    }
    round_method: ROUND
    round_strategy: NEUTRAL
    bit_width: 8
    range_low: -0.162636
    range_high: 0.197684
  }
}
layer {
  name: "bn7"
  type: "BatchNorm"
  bottom: "fc7"
  top: "fc7"
}
layer {
  name: "scale7"
  type: "Scale"
  bottom: "fc7"
  top: "fc7"
  scale_param {
    bias_term: true
  }
}
layer {
  name: "relu7"
  type: "ReLU"
  bottom: "fc7"
  top: "fc7"
}
layer {
  name: "drop7"
  type: "Dropout"
  bottom: "fc7"
  top: "fc7"
  dropout_param {
    dropout_ratio: 0.5
  }
}
layer {
  name: "quantized_conv1"
  type: "Quantization"
  bottom: "fc7"
  top: "fc7"
  quantization_param {
    round_method: ROUND
    round_strategy: AGGRESSIVE
    bit_width: 4
    range: 0
    range: 7.5598521
  }
}
layer {
  name: "fc8"
  type: "QuanInnerProduct"
  bottom: "fc7"
  top: "fc8"
  param {
    lr_mult: 1
    decay_mult: 1
  }
  param {
    lr_mult: 2
    decay_mult: 0
  }
  quan_inner_product_param {
    num_output: 1000
    weight_filler {
      type: "gaussian"
      std: 0.01
    }
    bias_filler {
      type: "constant"
      value: 0
    }
    round_method: ROUND
    round_strategy: NEUTRAL
    bit_width: 8
    range_low: -0.141857
    range_high: 0.274249
  }
}
layer {
  name: "accuracy"
  type: "Accuracy"
  bottom: "fc8"
  bottom: "label"
  top: "accuracy"
  include {
    phase: TEST
  }
}
layer {
  name: "accuracy_5"
  type: "Accuracy"
  bottom: "fc8"
  bottom: "label"
  top: "accuracy_5"
  include {
    phase: TEST
  }
  accuracy_param {
    top_k: 5
  }
}
layer {
  name: "loss"
  type: "SoftmaxWithLoss"
  bottom: "fc8"
  bottom: "label"
  top: "loss"
}
I0117 09:19:10.509232 156740 layer_factory.hpp:77] Creating layer data
I0117 09:19:10.642096 156740 db_lmdb.cpp:35] Opened lmdb /home/DATA/imagenet_resize/lmdb_resize/ilsvrc12_val_lmdb
I0117 09:19:10.642264 156740 net.cpp:84] Creating Layer data
I0117 09:19:10.642309 156740 net.cpp:380] data -> data
I0117 09:19:10.642343 156740 net.cpp:380] data -> label
I0117 09:19:10.647338 156740 data_layer.cpp:45] output data size: 200,3,224,224
I0117 09:19:11.191390 156740 net.cpp:122] Setting up data
I0117 09:19:11.191488 156740 net.cpp:129] Top shape: 200 3 224 224 (30105600)
I0117 09:19:11.191505 156740 net.cpp:129] Top shape: 200 (200)
I0117 09:19:11.191525 156740 net.cpp:137] Memory required for data: 120423200
I0117 09:19:11.191540 156740 layer_factory.hpp:77] Creating layer label_data_1_split
I0117 09:19:11.191571 156740 net.cpp:84] Creating Layer label_data_1_split
I0117 09:19:11.191588 156740 net.cpp:406] label_data_1_split <- label
I0117 09:19:11.191604 156740 net.cpp:380] label_data_1_split -> label_data_1_split_0
I0117 09:19:11.191627 156740 net.cpp:380] label_data_1_split -> label_data_1_split_1
I0117 09:19:11.191640 156740 net.cpp:380] label_data_1_split -> label_data_1_split_2
I0117 09:19:11.192008 156740 net.cpp:122] Setting up label_data_1_split
I0117 09:19:11.192088 156740 net.cpp:129] Top shape: 200 (200)
I0117 09:19:11.192106 156740 net.cpp:129] Top shape: 200 (200)
I0117 09:19:11.192144 156740 net.cpp:129] Top shape: 200 (200)
I0117 09:19:11.192158 156740 net.cpp:137] Memory required for data: 120425600
I0117 09:19:11.192201 156740 layer_factory.hpp:77] Creating layer conv1
I0117 09:19:11.192301 156740 net.cpp:84] Creating Layer conv1
I0117 09:19:11.192345 156740 net.cpp:406] conv1 <- data
I0117 09:19:11.192378 156740 net.cpp:380] conv1 -> conv1
ydwu=======get:
bit_width=8;  round_method=0;  round_strategy=1;  is_runtime=0;  range_low=-0.872089;  range_high=0.927025
I0117 09:19:11.212731 156740 net.cpp:122] Setting up conv1
I0117 09:19:11.212801 156740 net.cpp:129] Top shape: 200 96 55 55 (58080000)
I0117 09:19:11.212832 156740 net.cpp:137] Memory required for data: 352745600
I0117 09:19:11.212888 156740 layer_factory.hpp:77] Creating layer bn1
I0117 09:19:11.212924 156740 net.cpp:84] Creating Layer bn1
I0117 09:19:11.212949 156740 net.cpp:406] bn1 <- conv1
I0117 09:19:11.212973 156740 net.cpp:367] bn1 -> conv1 (in-place)
I0117 09:19:11.213656 156740 net.cpp:122] Setting up bn1
I0117 09:19:11.213685 156740 net.cpp:129] Top shape: 200 96 55 55 (58080000)
I0117 09:19:11.213703 156740 net.cpp:137] Memory required for data: 585065600
I0117 09:19:11.213768 156740 layer_factory.hpp:77] Creating layer scale1
I0117 09:19:11.213805 156740 net.cpp:84] Creating Layer scale1
I0117 09:19:11.213846 156740 net.cpp:406] scale1 <- conv1
I0117 09:19:11.213876 156740 net.cpp:367] scale1 -> conv1 (in-place)
I0117 09:19:11.213994 156740 layer_factory.hpp:77] Creating layer scale1
I0117 09:19:11.214253 156740 net.cpp:122] Setting up scale1
I0117 09:19:11.214269 156740 net.cpp:129] Top shape: 200 96 55 55 (58080000)
I0117 09:19:11.214275 156740 net.cpp:137] Memory required for data: 817385600
I0117 09:19:11.214287 156740 layer_factory.hpp:77] Creating layer relu1
I0117 09:19:11.214298 156740 net.cpp:84] Creating Layer relu1
I0117 09:19:11.214305 156740 net.cpp:406] relu1 <- conv1
I0117 09:19:11.214314 156740 net.cpp:367] relu1 -> conv1 (in-place)
I0117 09:19:11.214325 156740 net.cpp:122] Setting up relu1
I0117 09:19:11.214334 156740 net.cpp:129] Top shape: 200 96 55 55 (58080000)
I0117 09:19:11.214391 156740 net.cpp:137] Memory required for data: 1049705600
I0117 09:19:11.214398 156740 layer_factory.hpp:77] Creating layer pool1
I0117 09:19:11.214409 156740 net.cpp:84] Creating Layer pool1
I0117 09:19:11.214416 156740 net.cpp:406] pool1 <- conv1
I0117 09:19:11.214427 156740 net.cpp:380] pool1 -> pool1
I0117 09:19:11.214483 156740 net.cpp:122] Setting up pool1
I0117 09:19:11.214496 156740 net.cpp:129] Top shape: 200 96 27 27 (13996800)
I0117 09:19:11.214503 156740 net.cpp:137] Memory required for data: 1105692800
I0117 09:19:11.214507 156740 layer_factory.hpp:77] Creating layer quantized_conv1
I0117 09:19:11.214519 156740 net.cpp:84] Creating Layer quantized_conv1
I0117 09:19:11.214527 156740 net.cpp:406] quantized_conv1 <- pool1
I0117 09:19:11.214537 156740 net.cpp:367] quantized_conv1 -> pool1 (in-place)
I0117 09:19:11.214550 156740 net.cpp:122] Setting up quantized_conv1
I0117 09:19:11.214581 156740 net.cpp:129] Top shape: 200 96 27 27 (13996800)
I0117 09:19:11.214588 156740 net.cpp:137] Memory required for data: 1161680000
I0117 09:19:11.214596 156740 layer_factory.hpp:77] Creating layer conv2
I0117 09:19:11.214615 156740 net.cpp:84] Creating Layer conv2
I0117 09:19:11.214622 156740 net.cpp:406] conv2 <- pool1
I0117 09:19:11.214634 156740 net.cpp:380] conv2 -> conv2
ydwu=======get:
bit_width=8;  round_method=0;  round_strategy=1;  is_runtime=0;  range_low=-0.806018;  range_high=1.5182
I0117 09:19:11.228719 156740 net.cpp:122] Setting up conv2
I0117 09:19:11.228756 156740 net.cpp:129] Top shape: 200 256 27 27 (37324800)
I0117 09:19:11.228765 156740 net.cpp:137] Memory required for data: 1310979200
I0117 09:19:11.228843 156740 layer_factory.hpp:77] Creating layer bn2
I0117 09:19:11.228879 156740 net.cpp:84] Creating Layer bn2
I0117 09:19:11.228889 156740 net.cpp:406] bn2 <- conv2
I0117 09:19:11.228904 156740 net.cpp:367] bn2 -> conv2 (in-place)
I0117 09:19:11.229271 156740 net.cpp:122] Setting up bn2
I0117 09:19:11.229290 156740 net.cpp:129] Top shape: 200 256 27 27 (37324800)
I0117 09:19:11.229297 156740 net.cpp:137] Memory required for data: 1460278400
I0117 09:19:11.229312 156740 layer_factory.hpp:77] Creating layer scale2
I0117 09:19:11.229329 156740 net.cpp:84] Creating Layer scale2
I0117 09:19:11.229337 156740 net.cpp:406] scale2 <- conv2
I0117 09:19:11.229347 156740 net.cpp:367] scale2 -> conv2 (in-place)
I0117 09:19:11.229481 156740 layer_factory.hpp:77] Creating layer scale2
I0117 09:19:11.229703 156740 net.cpp:122] Setting up scale2
I0117 09:19:11.229722 156740 net.cpp:129] Top shape: 200 256 27 27 (37324800)
I0117 09:19:11.229729 156740 net.cpp:137] Memory required for data: 1609577600
I0117 09:19:11.229742 156740 layer_factory.hpp:77] Creating layer relu2
I0117 09:19:11.229801 156740 net.cpp:84] Creating Layer relu2
I0117 09:19:11.229835 156740 net.cpp:406] relu2 <- conv2
I0117 09:19:11.229849 156740 net.cpp:367] relu2 -> conv2 (in-place)
I0117 09:19:11.229876 156740 net.cpp:122] Setting up relu2
I0117 09:19:11.229887 156740 net.cpp:129] Top shape: 200 256 27 27 (37324800)
I0117 09:19:11.229895 156740 net.cpp:137] Memory required for data: 1758876800
I0117 09:19:11.229902 156740 layer_factory.hpp:77] Creating layer pool2
I0117 09:19:11.229928 156740 net.cpp:84] Creating Layer pool2
I0117 09:19:11.229936 156740 net.cpp:406] pool2 <- conv2
I0117 09:19:11.230002 156740 net.cpp:380] pool2 -> pool2
I0117 09:19:11.230069 156740 net.cpp:122] Setting up pool2
I0117 09:19:11.230085 156740 net.cpp:129] Top shape: 200 256 13 13 (8652800)
I0117 09:19:11.230093 156740 net.cpp:137] Memory required for data: 1793488000
I0117 09:19:11.230103 156740 layer_factory.hpp:77] Creating layer quantized_conv1
I0117 09:19:11.230118 156740 net.cpp:84] Creating Layer quantized_conv1
I0117 09:19:11.230128 156740 net.cpp:406] quantized_conv1 <- pool2
I0117 09:19:11.230185 156740 net.cpp:367] quantized_conv1 -> pool2 (in-place)
I0117 09:19:11.230206 156740 net.cpp:122] Setting up quantized_conv1
I0117 09:19:11.230216 156740 net.cpp:129] Top shape: 200 256 13 13 (8652800)
I0117 09:19:11.230224 156740 net.cpp:137] Memory required for data: 1828099200
I0117 09:19:11.230232 156740 layer_factory.hpp:77] Creating layer conv3
I0117 09:19:11.230304 156740 net.cpp:84] Creating Layer conv3
I0117 09:19:11.230314 156740 net.cpp:406] conv3 <- pool2
I0117 09:19:11.230372 156740 net.cpp:380] conv3 -> conv3
ydwu=======get:
bit_width=8;  round_method=0;  round_strategy=1;  is_runtime=0;  range_low=-0.621858;  range_high=0.673858
I0117 09:19:11.258569 156740 net.cpp:122] Setting up conv3
I0117 09:19:11.258627 156740 net.cpp:129] Top shape: 200 384 13 13 (12979200)
I0117 09:19:11.258636 156740 net.cpp:137] Memory required for data: 1880016000
I0117 09:19:11.258654 156740 layer_factory.hpp:77] Creating layer bn3
I0117 09:19:11.258695 156740 net.cpp:84] Creating Layer bn3
I0117 09:19:11.258708 156740 net.cpp:406] bn3 <- conv3
I0117 09:19:11.258723 156740 net.cpp:367] bn3 -> conv3 (in-place)
I0117 09:19:11.258955 156740 net.cpp:122] Setting up bn3
I0117 09:19:11.258970 156740 net.cpp:129] Top shape: 200 384 13 13 (12979200)
I0117 09:19:11.258977 156740 net.cpp:137] Memory required for data: 1931932800
I0117 09:19:11.259001 156740 layer_factory.hpp:77] Creating layer scale3
I0117 09:19:11.259022 156740 net.cpp:84] Creating Layer scale3
I0117 09:19:11.259030 156740 net.cpp:406] scale3 <- conv3
I0117 09:19:11.259042 156740 net.cpp:367] scale3 -> conv3 (in-place)
I0117 09:19:11.259111 156740 layer_factory.hpp:77] Creating layer scale3
I0117 09:19:11.259256 156740 net.cpp:122] Setting up scale3
I0117 09:19:11.259271 156740 net.cpp:129] Top shape: 200 384 13 13 (12979200)
I0117 09:19:11.259286 156740 net.cpp:137] Memory required for data: 1983849600
I0117 09:19:11.259299 156740 layer_factory.hpp:77] Creating layer relu3
I0117 09:19:11.259310 156740 net.cpp:84] Creating Layer relu3
I0117 09:19:11.259317 156740 net.cpp:406] relu3 <- conv3
I0117 09:19:11.259328 156740 net.cpp:367] relu3 -> conv3 (in-place)
I0117 09:19:11.259346 156740 net.cpp:122] Setting up relu3
I0117 09:19:11.259356 156740 net.cpp:129] Top shape: 200 384 13 13 (12979200)
I0117 09:19:11.259362 156740 net.cpp:137] Memory required for data: 2035766400
I0117 09:19:11.259369 156740 layer_factory.hpp:77] Creating layer quantized_conv1
I0117 09:19:11.259382 156740 net.cpp:84] Creating Layer quantized_conv1
I0117 09:19:11.259389 156740 net.cpp:406] quantized_conv1 <- conv3
I0117 09:19:11.259399 156740 net.cpp:367] quantized_conv1 -> conv3 (in-place)
I0117 09:19:11.259412 156740 net.cpp:122] Setting up quantized_conv1
I0117 09:19:11.259421 156740 net.cpp:129] Top shape: 200 384 13 13 (12979200)
I0117 09:19:11.259428 156740 net.cpp:137] Memory required for data: 2087683200
I0117 09:19:11.259434 156740 layer_factory.hpp:77] Creating layer conv4
I0117 09:19:11.259454 156740 net.cpp:84] Creating Layer conv4
I0117 09:19:11.259460 156740 net.cpp:406] conv4 <- conv3
I0117 09:19:11.259481 156740 net.cpp:380] conv4 -> conv4
ydwu=======get:
bit_width=8;  round_method=0;  round_strategy=1;  is_runtime=0;  range_low=-0.376634;  range_high=0.341829
I0117 09:19:11.285491 156740 net.cpp:122] Setting up conv4
I0117 09:19:11.285558 156740 net.cpp:129] Top shape: 200 384 13 13 (12979200)
I0117 09:19:11.285570 156740 net.cpp:137] Memory required for data: 2139600000
I0117 09:19:11.285595 156740 layer_factory.hpp:77] Creating layer bn4
I0117 09:19:11.285627 156740 net.cpp:84] Creating Layer bn4
I0117 09:19:11.285640 156740 net.cpp:406] bn4 <- conv4
I0117 09:19:11.285655 156740 net.cpp:367] bn4 -> conv4 (in-place)
I0117 09:19:11.286057 156740 net.cpp:122] Setting up bn4
I0117 09:19:11.286106 156740 net.cpp:129] Top shape: 200 384 13 13 (12979200)
I0117 09:19:11.286120 156740 net.cpp:137] Memory required for data: 2191516800
I0117 09:19:11.286141 156740 layer_factory.hpp:77] Creating layer scale4
I0117 09:19:11.286166 156740 net.cpp:84] Creating Layer scale4
I0117 09:19:11.286178 156740 net.cpp:406] scale4 <- conv4
I0117 09:19:11.286192 156740 net.cpp:367] scale4 -> conv4 (in-place)
I0117 09:19:11.286304 156740 layer_factory.hpp:77] Creating layer scale4
I0117 09:19:11.286504 156740 net.cpp:122] Setting up scale4
I0117 09:19:11.286520 156740 net.cpp:129] Top shape: 200 384 13 13 (12979200)
I0117 09:19:11.286527 156740 net.cpp:137] Memory required for data: 2243433600
I0117 09:19:11.286538 156740 layer_factory.hpp:77] Creating layer relu4
I0117 09:19:11.286554 156740 net.cpp:84] Creating Layer relu4
I0117 09:19:11.286562 156740 net.cpp:406] relu4 <- conv4
I0117 09:19:11.286628 156740 net.cpp:367] relu4 -> conv4 (in-place)
I0117 09:19:11.286641 156740 net.cpp:122] Setting up relu4
I0117 09:19:11.286650 156740 net.cpp:129] Top shape: 200 384 13 13 (12979200)
I0117 09:19:11.286658 156740 net.cpp:137] Memory required for data: 2295350400
I0117 09:19:11.286664 156740 layer_factory.hpp:77] Creating layer quantized_conv1
I0117 09:19:11.286676 156740 net.cpp:84] Creating Layer quantized_conv1
I0117 09:19:11.286684 156740 net.cpp:406] quantized_conv1 <- conv4
I0117 09:19:11.286695 156740 net.cpp:367] quantized_conv1 -> conv4 (in-place)
I0117 09:19:11.286708 156740 net.cpp:122] Setting up quantized_conv1
I0117 09:19:11.286716 156740 net.cpp:129] Top shape: 200 384 13 13 (12979200)
I0117 09:19:11.286723 156740 net.cpp:137] Memory required for data: 2347267200
I0117 09:19:11.286731 156740 layer_factory.hpp:77] Creating layer conv5
I0117 09:19:11.286751 156740 net.cpp:84] Creating Layer conv5
I0117 09:19:11.286759 156740 net.cpp:406] conv5 <- conv4
I0117 09:19:11.286770 156740 net.cpp:380] conv5 -> conv5
ydwu=======get:
bit_width=8;  round_method=0;  round_strategy=1;  is_runtime=0;  range_low=-0.347658;  range_high=0.330042
I0117 09:19:11.304456 156740 net.cpp:122] Setting up conv5
I0117 09:19:11.304504 156740 net.cpp:129] Top shape: 200 256 13 13 (8652800)
I0117 09:19:11.304512 156740 net.cpp:137] Memory required for data: 2381878400
I0117 09:19:11.304531 156740 layer_factory.hpp:77] Creating layer bn5
I0117 09:19:11.304556 156740 net.cpp:84] Creating Layer bn5
I0117 09:19:11.304567 156740 net.cpp:406] bn5 <- conv5
I0117 09:19:11.304581 156740 net.cpp:367] bn5 -> conv5 (in-place)
I0117 09:19:11.304852 156740 net.cpp:122] Setting up bn5
I0117 09:19:11.304867 156740 net.cpp:129] Top shape: 200 256 13 13 (8652800)
I0117 09:19:11.304874 156740 net.cpp:137] Memory required for data: 2416489600
I0117 09:19:11.304899 156740 layer_factory.hpp:77] Creating layer scale5
I0117 09:19:11.304919 156740 net.cpp:84] Creating Layer scale5
I0117 09:19:11.304927 156740 net.cpp:406] scale5 <- conv5
I0117 09:19:11.304937 156740 net.cpp:367] scale5 -> conv5 (in-place)
I0117 09:19:11.305017 156740 layer_factory.hpp:77] Creating layer scale5
I0117 09:19:11.305163 156740 net.cpp:122] Setting up scale5
I0117 09:19:11.305177 156740 net.cpp:129] Top shape: 200 256 13 13 (8652800)
I0117 09:19:11.305186 156740 net.cpp:137] Memory required for data: 2451100800
I0117 09:19:11.305197 156740 layer_factory.hpp:77] Creating layer relu5
I0117 09:19:11.305207 156740 net.cpp:84] Creating Layer relu5
I0117 09:19:11.305214 156740 net.cpp:406] relu5 <- conv5
I0117 09:19:11.305227 156740 net.cpp:367] relu5 -> conv5 (in-place)
I0117 09:19:11.305239 156740 net.cpp:122] Setting up relu5
I0117 09:19:11.305248 156740 net.cpp:129] Top shape: 200 256 13 13 (8652800)
I0117 09:19:11.305255 156740 net.cpp:137] Memory required for data: 2485712000
I0117 09:19:11.305263 156740 layer_factory.hpp:77] Creating layer pool5
I0117 09:19:11.305274 156740 net.cpp:84] Creating Layer pool5
I0117 09:19:11.305281 156740 net.cpp:406] pool5 <- conv5
I0117 09:19:11.305291 156740 net.cpp:380] pool5 -> pool5
I0117 09:19:11.305349 156740 net.cpp:122] Setting up pool5
I0117 09:19:11.305362 156740 net.cpp:129] Top shape: 200 256 6 6 (1843200)
I0117 09:19:11.305369 156740 net.cpp:137] Memory required for data: 2493084800
I0117 09:19:11.305377 156740 layer_factory.hpp:77] Creating layer quantized_conv1
I0117 09:19:11.305390 156740 net.cpp:84] Creating Layer quantized_conv1
I0117 09:19:11.305397 156740 net.cpp:406] quantized_conv1 <- pool5
I0117 09:19:11.305408 156740 net.cpp:367] quantized_conv1 -> pool5 (in-place)
I0117 09:19:11.305419 156740 net.cpp:122] Setting up quantized_conv1
I0117 09:19:11.305428 156740 net.cpp:129] Top shape: 200 256 6 6 (1843200)
I0117 09:19:11.305435 156740 net.cpp:137] Memory required for data: 2500457600
I0117 09:19:11.305443 156740 layer_factory.hpp:77] Creating layer fc6
I0117 09:19:11.305455 156740 net.cpp:84] Creating Layer fc6
I0117 09:19:11.305462 156740 net.cpp:406] fc6 <- pool5
I0117 09:19:11.305475 156740 net.cpp:380] fc6 -> fc6
I0117 09:19:11.305490 156740 quan_inner_product_layer.cpp:21] 4096   4096
ydwu=======get:
bit_width=8;  round_method=0;  round_strategy=1;  is_runtime=0;  range_low=-0.160061;  range_high=0.148064
I0117 09:19:12.075744 156740 net.cpp:122] Setting up fc6
I0117 09:19:12.075824 156740 net.cpp:129] Top shape: 200 4096 (819200)
I0117 09:19:12.075834 156740 net.cpp:137] Memory required for data: 2503734400
I0117 09:19:12.075855 156740 layer_factory.hpp:77] Creating layer bn6
I0117 09:19:12.075877 156740 net.cpp:84] Creating Layer bn6
I0117 09:19:12.075888 156740 net.cpp:406] bn6 <- fc6
I0117 09:19:12.075911 156740 net.cpp:367] bn6 -> fc6 (in-place)
I0117 09:19:12.076187 156740 net.cpp:122] Setting up bn6
I0117 09:19:12.076202 156740 net.cpp:129] Top shape: 200 4096 (819200)
I0117 09:19:12.076210 156740 net.cpp:137] Memory required for data: 2507011200
I0117 09:19:12.076225 156740 layer_factory.hpp:77] Creating layer scale6
I0117 09:19:12.076251 156740 net.cpp:84] Creating Layer scale6
I0117 09:19:12.076259 156740 net.cpp:406] scale6 <- fc6
I0117 09:19:12.076269 156740 net.cpp:367] scale6 -> fc6 (in-place)
I0117 09:19:12.076339 156740 layer_factory.hpp:77] Creating layer scale6
I0117 09:19:12.076503 156740 net.cpp:122] Setting up scale6
I0117 09:19:12.076517 156740 net.cpp:129] Top shape: 200 4096 (819200)
I0117 09:19:12.076524 156740 net.cpp:137] Memory required for data: 2510288000
I0117 09:19:12.076535 156740 layer_factory.hpp:77] Creating layer relu6
I0117 09:19:12.076547 156740 net.cpp:84] Creating Layer relu6
I0117 09:19:12.076555 156740 net.cpp:406] relu6 <- fc6
I0117 09:19:12.076567 156740 net.cpp:367] relu6 -> fc6 (in-place)
I0117 09:19:12.076580 156740 net.cpp:122] Setting up relu6
I0117 09:19:12.076587 156740 net.cpp:129] Top shape: 200 4096 (819200)
I0117 09:19:12.076594 156740 net.cpp:137] Memory required for data: 2513564800
I0117 09:19:12.076601 156740 layer_factory.hpp:77] Creating layer drop6
I0117 09:19:12.076613 156740 net.cpp:84] Creating Layer drop6
I0117 09:19:12.076620 156740 net.cpp:406] drop6 <- fc6
I0117 09:19:12.076633 156740 net.cpp:367] drop6 -> fc6 (in-place)
I0117 09:19:12.076668 156740 net.cpp:122] Setting up drop6
I0117 09:19:12.076680 156740 net.cpp:129] Top shape: 200 4096 (819200)
I0117 09:19:12.076687 156740 net.cpp:137] Memory required for data: 2516841600
I0117 09:19:12.076694 156740 layer_factory.hpp:77] Creating layer quantized_conv1
I0117 09:19:12.076714 156740 net.cpp:84] Creating Layer quantized_conv1
I0117 09:19:12.076721 156740 net.cpp:406] quantized_conv1 <- fc6
I0117 09:19:12.076730 156740 net.cpp:367] quantized_conv1 -> fc6 (in-place)
I0117 09:19:12.076742 156740 net.cpp:122] Setting up quantized_conv1
I0117 09:19:12.076751 156740 net.cpp:129] Top shape: 200 4096 (819200)
I0117 09:19:12.076758 156740 net.cpp:137] Memory required for data: 2520118400
I0117 09:19:12.076764 156740 layer_factory.hpp:77] Creating layer fc7
I0117 09:19:12.076781 156740 net.cpp:84] Creating Layer fc7
I0117 09:19:12.076787 156740 net.cpp:406] fc7 <- fc6
I0117 09:19:12.076798 156740 net.cpp:380] fc7 -> fc7
I0117 09:19:12.076813 156740 quan_inner_product_layer.cpp:21] 4096   4096
ydwu=======get:
bit_width=8;  round_method=0;  round_strategy=1;  is_runtime=0;  range_low=-0.162636;  range_high=0.197684
I0117 09:19:12.404794 156740 net.cpp:122] Setting up fc7
I0117 09:19:12.404839 156740 net.cpp:129] Top shape: 200 4096 (819200)
I0117 09:19:12.404845 156740 net.cpp:137] Memory required for data: 2523395200
I0117 09:19:12.404863 156740 layer_factory.hpp:77] Creating layer bn7
I0117 09:19:12.404889 156740 net.cpp:84] Creating Layer bn7
I0117 09:19:12.404903 156740 net.cpp:406] bn7 <- fc7
I0117 09:19:12.404923 156740 net.cpp:367] bn7 -> fc7 (in-place)
I0117 09:19:12.405257 156740 net.cpp:122] Setting up bn7
I0117 09:19:12.405277 156740 net.cpp:129] Top shape: 200 4096 (819200)
I0117 09:19:12.405288 156740 net.cpp:137] Memory required for data: 2526672000
I0117 09:19:12.405302 156740 layer_factory.hpp:77] Creating layer scale7
I0117 09:19:12.405318 156740 net.cpp:84] Creating Layer scale7
I0117 09:19:12.405325 156740 net.cpp:406] scale7 <- fc7
I0117 09:19:12.405340 156740 net.cpp:367] scale7 -> fc7 (in-place)
I0117 09:19:12.405411 156740 layer_factory.hpp:77] Creating layer scale7
I0117 09:19:12.405616 156740 net.cpp:122] Setting up scale7
I0117 09:19:12.405630 156740 net.cpp:129] Top shape: 200 4096 (819200)
I0117 09:19:12.405642 156740 net.cpp:137] Memory required for data: 2529948800
I0117 09:19:12.405709 156740 layer_factory.hpp:77] Creating layer relu7
I0117 09:19:12.405720 156740 net.cpp:84] Creating Layer relu7
I0117 09:19:12.405731 156740 net.cpp:406] relu7 <- fc7
I0117 09:19:12.405750 156740 net.cpp:367] relu7 -> fc7 (in-place)
I0117 09:19:12.405761 156740 net.cpp:122] Setting up relu7
I0117 09:19:12.405767 156740 net.cpp:129] Top shape: 200 4096 (819200)
I0117 09:19:12.405772 156740 net.cpp:137] Memory required for data: 2533225600
I0117 09:19:12.405778 156740 layer_factory.hpp:77] Creating layer drop7
I0117 09:19:12.405797 156740 net.cpp:84] Creating Layer drop7
I0117 09:19:12.405805 156740 net.cpp:406] drop7 <- fc7
I0117 09:19:12.405831 156740 net.cpp:367] drop7 -> fc7 (in-place)
I0117 09:19:12.405875 156740 net.cpp:122] Setting up drop7
I0117 09:19:12.405892 156740 net.cpp:129] Top shape: 200 4096 (819200)
I0117 09:19:12.405905 156740 net.cpp:137] Memory required for data: 2536502400
I0117 09:19:12.405912 156740 layer_factory.hpp:77] Creating layer quantized_conv1
I0117 09:19:12.405925 156740 net.cpp:84] Creating Layer quantized_conv1
I0117 09:19:12.405936 156740 net.cpp:406] quantized_conv1 <- fc7
I0117 09:19:12.405951 156740 net.cpp:367] quantized_conv1 -> fc7 (in-place)
I0117 09:19:12.405963 156740 net.cpp:122] Setting up quantized_conv1
I0117 09:19:12.405977 156740 net.cpp:129] Top shape: 200 4096 (819200)
I0117 09:19:12.405984 156740 net.cpp:137] Memory required for data: 2539779200
I0117 09:19:12.405992 156740 layer_factory.hpp:77] Creating layer fc8
I0117 09:19:12.406004 156740 net.cpp:84] Creating Layer fc8
I0117 09:19:12.406016 156740 net.cpp:406] fc8 <- fc7
I0117 09:19:12.406028 156740 net.cpp:380] fc8 -> fc8
I0117 09:19:12.406040 156740 quan_inner_product_layer.cpp:21] 1000   1000
ydwu=======get:
bit_width=8;  round_method=0;  round_strategy=1;  is_runtime=0;  range_low=-0.141857;  range_high=0.274249
I0117 09:19:12.506871 156740 net.cpp:122] Setting up fc8
I0117 09:19:12.506916 156740 net.cpp:129] Top shape: 200 1000 (200000)
I0117 09:19:12.506925 156740 net.cpp:137] Memory required for data: 2540579200
I0117 09:19:12.506958 156740 layer_factory.hpp:77] Creating layer fc8_fc8_0_split
I0117 09:19:12.506983 156740 net.cpp:84] Creating Layer fc8_fc8_0_split
I0117 09:19:12.506992 156740 net.cpp:406] fc8_fc8_0_split <- fc8
I0117 09:19:12.507027 156740 net.cpp:380] fc8_fc8_0_split -> fc8_fc8_0_split_0
I0117 09:19:12.507053 156740 net.cpp:380] fc8_fc8_0_split -> fc8_fc8_0_split_1
I0117 09:19:12.507078 156740 net.cpp:380] fc8_fc8_0_split -> fc8_fc8_0_split_2
I0117 09:19:12.507182 156740 net.cpp:122] Setting up fc8_fc8_0_split
I0117 09:19:12.507210 156740 net.cpp:129] Top shape: 200 1000 (200000)
I0117 09:19:12.507218 156740 net.cpp:129] Top shape: 200 1000 (200000)
I0117 09:19:12.507225 156740 net.cpp:129] Top shape: 200 1000 (200000)
I0117 09:19:12.507230 156740 net.cpp:137] Memory required for data: 2542979200
I0117 09:19:12.507236 156740 layer_factory.hpp:77] Creating layer accuracy
I0117 09:19:12.507262 156740 net.cpp:84] Creating Layer accuracy
I0117 09:19:12.507269 156740 net.cpp:406] accuracy <- fc8_fc8_0_split_0
I0117 09:19:12.507277 156740 net.cpp:406] accuracy <- label_data_1_split_0
I0117 09:19:12.507308 156740 net.cpp:380] accuracy -> accuracy
…
