…
I0113 14:03:16.338307 101223 net.cpp:294] The NetState phase (0) differed from the phase (1) specified by a rule in layer accuracy_5
I0113 14:03:16.339069 101223 net.cpp:51] Initializing net from parameters: 
name: "AlexNet-BN"
state {
  phase: TRAIN
  level: 0
  stage: ""
}
layer {
  name: "data"
  type: "Data"
  top: "data"
  top: "label"
  include {
    phase: TRAIN
  }
  transform_param {
    mirror: true
    crop_size: 224
    mean_value: 103.939
    mean_value: 116.779
    mean_value: 123.68
  }
  data_param {
    source: "/home/DATA/imagenet_resize/lmdb_resize/ilsvrc12_train_lmdb"
    batch_size: 200
    backend: LMDB
  }
}
layer {
  name: "conv1"
  type: "QuanConvolution"
  bottom: "data"
  top: "conv1"
  param {
    lr_mult: 1
    decay_mult: 1
  }
  param {
    lr_mult: 2
    decay_mult: 0
  }
  quan_convolution_param {
    num_output: 96
    pad: 2
    kernel_size: 11
    stride: 4
    weight_filler {
      type: "gaussian"
      std: 0.01
    }
    bias_filler {
      type: "constant"
      value: 0
    }
    round_method: ROUND
    round_strategy: NEUTRAL
    bit_width: 8
    range_low: -0.872089
    range_high: 0.927025
  }
}
layer {
  name: "bn1"
  type: "BatchNorm"
  bottom: "conv1"
  top: "conv1"
}
layer {
  name: "scale1"
  type: "Scale"
  bottom: "conv1"
  top: "conv1"
  scale_param {
    bias_term: true
  }
}
layer {
  name: "relu1"
  type: "ReLU"
  bottom: "conv1"
  top: "conv1"
}
layer {
  name: "pool1"
  type: "Pooling"
  bottom: "conv1"
  top: "pool1"
  pooling_param {
    pool: MAX
    kernel_size: 3
    stride: 2
  }
}
layer {
  name: "quantized_conv1"
  type: "Quantization"
  bottom: "pool1"
  top: "pool1"
  quantization_param {
    round_method: ROUND
    round_strategy: AGGRESSIVE
    bit_width: 4
    range: 0
    range: 13.965383
  }
}
layer {
  name: "conv2"
  type: "QuanConvolution"
  bottom: "pool1"
  top: "conv2"
  param {
    lr_mult: 1
    decay_mult: 1
  }
  param {
    lr_mult: 2
    decay_mult: 0
  }
  quan_convolution_param {
    num_output: 256
    pad: 2
    kernel_size: 5
    weight_filler {
      type: "gaussian"
      std: 0.01
    }
    bias_filler {
      type: "constant"
      value: 0.1
    }
    round_method: ROUND
    round_strategy: NEUTRAL
    bit_width: 8
    range_low: -0.806018
    range_high: 1.5182
  }
}
layer {
  name: "bn2"
  type: "BatchNorm"
  bottom: "conv2"
  top: "conv2"
}
layer {
  name: "scale2"
  type: "Scale"
  bottom: "conv2"
  top: "conv2"
  scale_param {
    bias_term: true
  }
}
layer {
  name: "relu2"
  type: "ReLU"
  bottom: "conv2"
  top: "conv2"
}
layer {
  name: "pool2"
  type: "Pooling"
  bottom: "conv2"
  top: "pool2"
  pooling_param {
    pool: MAX
    kernel_size: 3
    stride: 2
  }
}
layer {
  name: "quantized_conv1"
  type: "Quantization"
  bottom: "pool2"
  top: "pool2"
  quantization_param {
    round_method: ROUND
    round_strategy: AGGRESSIVE
    bit_width: 4
    range: 0
    range: 6.74956
  }
}
layer {
  name: "conv3"
  type: "QuanConvolution"
  bottom: "pool2"
  top: "conv3"
  param {
    lr_mult: 1
    decay_mult: 1
  }
  param {
    lr_mult: 2
    decay_mult: 0
  }
  quan_convolution_param {
    num_output: 384
    pad: 1
    kernel_size: 3
    weight_filler {
      type: "gaussian"
      std: 0.01
    }
    bias_filler {
      type: "constant"
      value: 0
    }
    round_method: ROUND
    round_strategy: NEUTRAL
    bit_width: 8
    range_low: -0.621858
    range_high: 0.673858
  }
}
layer {
  name: "bn3"
  type: "BatchNorm"
  bottom: "conv3"
  top: "conv3"
}
layer {
  name: "scale3"
  type: "Scale"
  bottom: "conv3"
  top: "conv3"
  scale_param {
    bias_term: true
  }
}
layer {
  name: "relu3"
  type: "ReLU"
  bottom: "conv3"
  top: "conv3"
}
layer {
  name: "quantized_conv1"
  type: "Quantization"
  bottom: "conv3"
  top: "conv3"
  quantization_param {
    round_method: ROUND
    round_strategy: AGGRESSIVE
    bit_width: 4
    range: 0
    range: 8.48454
  }
}
layer {
  name: "conv4"
  type: "QuanConvolution"
  bottom: "conv3"
  top: "conv4"
  param {
    lr_mult: 1
    decay_mult: 1
  }
  param {
    lr_mult: 2
    decay_mult: 0
  }
  quan_convolution_param {
    num_output: 384
    pad: 1
    kernel_size: 3
    weight_filler {
      type: "gaussian"
      std: 0.01
    }
    bias_filler {
      type: "constant"
      value: 0.1
    }
    round_method: ROUND
    round_strategy: NEUTRAL
    bit_width: 8
    range_low: -0.376634
    range_high: 0.341829
  }
}
layer {
  name: "bn4"
  type: "BatchNorm"
  bottom: "conv4"
  top: "conv4"
}
layer {
  name: "scale4"
  type: "Scale"
  bottom: "conv4"
  top: "conv4"
  scale_param {
    bias_term: true
  }
}
layer {
  name: "relu4"
  type: "ReLU"
  bottom: "conv4"
  top: "conv4"
}
layer {
  name: "quantized_conv1"
  type: "Quantization"
  bottom: "conv4"
  top: "conv4"
  quantization_param {
    round_method: ROUND
    round_strategy: AGGRESSIVE
    bit_width: 4
    range: 0
    range: 7.3369722
  }
}
layer {
  name: "conv5"
  type: "QuanConvolution"
  bottom: "conv4"
  top: "conv5"
  param {
    lr_mult: 1
    decay_mult: 1
  }
  param {
    lr_mult: 2
    decay_mult: 0
  }
  quan_convolution_param {
    num_output: 256
    pad: 1
    kernel_size: 3
    weight_filler {
      type: "gaussian"
      std: 0.01
    }
    bias_filler {
      type: "constant"
      value: 0.1
    }
    round_method: ROUND
    round_strategy: NEUTRAL
    bit_width: 8
    range_low: -0.347658
    range_high: 0.330042
  }
}
layer {
  name: "bn5"
  type: "BatchNorm"
  bottom: "conv5"
  top: "conv5"
}
layer {
  name: "scale5"
  type: "Scale"
  bottom: "conv5"
  top: "conv5"
  scale_param {
    bias_term: true
  }
}
layer {
  name: "relu5"
  type: "ReLU"
  bottom: "conv5"
  top: "conv5"
}
layer {
  name: "pool5"
  type: "Pooling"
  bottom: "conv5"
  top: "pool5"
  pooling_param {
    pool: MAX
    kernel_size: 3
    stride: 2
  }
}
layer {
  name: "quantized_conv1"
  type: "Quantization"
  bottom: "pool5"
  top: "pool5"
  quantization_param {
    round_method: ROUND
    round_strategy: AGGRESSIVE
    bit_width: 4
    range: 0
    range: 8.7577133
  }
}
layer {
  name: "fc6"
  type: "QuanInnerProduct"
  bottom: "pool5"
  top: "fc6"
  param {
    lr_mult: 1
    decay_mult: 1
  }
  param {
    lr_mult: 2
    decay_mult: 0
  }
  quan_inner_product_param {
    num_output: 4096
    weight_filler {
      type: "gaussian"
      std: 0.005
    }
    bias_filler {
      type: "constant"
      value: 0.1
    }
    round_method: ROUND
    round_strategy: NEUTRAL
    bit_width: 8
    range_low: -0.160061
    range_high: 0.148064
  }
}
layer {
  name: "bn6"
  type: "BatchNorm"
  bottom: "fc6"
  top: "fc6"
}
layer {
  name: "scale6"
  type: "Scale"
  bottom: "fc6"
  top: "fc6"
  scale_param {
    bias_term: true
  }
}
layer {
  name: "relu6"
  type: "ReLU"
  bottom: "fc6"
  top: "fc6"
}
layer {
  name: "drop6"
  type: "Dropout"
  bottom: "fc6"
  top: "fc6"
  dropout_param {
    dropout_ratio: 0.5
  }
}
layer {
  name: "quantized_conv1"
  type: "Quantization"
  bottom: "fc6"
  top: "fc6"
  quantization_param {
    round_method: ROUND
    round_strategy: AGGRESSIVE
    bit_width: 4
    range: 0
    range: 1.659358
  }
}
layer {
  name: "fc7"
  type: "QuanInnerProduct"
  bottom: "fc6"
  top: "fc7"
  param {
    lr_mult: 1
    decay_mult: 1
  }
  param {
    lr_mult: 2
    decay_mult: 0
  }
  quan_inner_product_param {
    num_output: 4096
    weight_filler {
      type: "gaussian"
      std: 0.005
    }
    bias_filler {
      type: "constant"
      value: 0.1
    }
    round_method: ROUND
    round_strategy: NEUTRAL
    bit_width: 8
    range_low: -0.162636
    range_high: 0.197684
  }
}
layer {
  name: "bn7"
  type: "BatchNorm"
  bottom: "fc7"
  top: "fc7"
}
layer {
  name: "scale7"
  type: "Scale"
  bottom: "fc7"
  top: "fc7"
  scale_param {
    bias_term: true
  }
}
layer {
  name: "relu7"
  type: "ReLU"
  bottom: "fc7"
  top: "fc7"
}
layer {
  name: "drop7"
  type: "Dropout"
  bottom: "fc7"
  top: "fc7"
  dropout_param {
    dropout_ratio: 0.5
  }
}
layer {
  name: "quantized_conv1"
  type: "Quantization"
  bottom: "fc7"
  top: "fc7"
  quantization_param {
    round_method: ROUND
    round_strategy: AGGRESSIVE
    bit_width: 4
    range: 0
    range: 7.5598521
  }
}
layer {
  name: "fc8"
  type: "QuanInnerProduct"
  bottom: "fc7"
  top: "fc8"
  param {
    lr_mult: 1
    decay_mult: 1
  }
  param {
    lr_mult: 2
    decay_mult: 0
  }
  quan_inner_product_param {
    num_output: 1000
    weight_filler {
      type: "gaussian"
      std: 0.01
    }
    bias_filler {
      type: "constant"
      value: 0
    }
    round_method: ROUND
    round_strategy: NEUTRAL
    bit_width: 8
    range_low: -0.141857
    range_high: 0.274249
  }
}
layer {
  name: "accuracy_5_TRAIN"
  type: "Accuracy"
  bottom: "fc8"
  bottom: "label"
  top: "accuracy_5_TRAIN"
  include {
    phase: TRAIN
  }
  accuracy_param {
    top_k: 5
  }
}
layer {
  name: "loss"
  type: "SoftmaxWithLoss"
  bottom: "fc8"
  bottom: "label"
  top: "loss"
}
I0113 14:03:16.339643 101223 layer_factory.hpp:77] Creating layer data
I0113 14:03:16.360723 101223 db_lmdb.cpp:35] Opened lmdb /home/DATA/imagenet_resize/lmdb_resize/ilsvrc12_train_lmdb
I0113 14:03:16.371140 101223 net.cpp:84] Creating Layer data
I0113 14:03:16.371193 101223 net.cpp:380] data -> data
I0113 14:03:16.371250 101223 net.cpp:380] data -> label
I0113 14:03:16.375295 101223 data_layer.cpp:45] output data size: 200,3,224,224
I0113 14:03:16.783493 101223 net.cpp:122] Setting up data
I0113 14:03:16.783560 101223 net.cpp:129] Top shape: 200 3 224 224 (30105600)
I0113 14:03:16.783571 101223 net.cpp:129] Top shape: 200 (200)
I0113 14:03:16.783577 101223 net.cpp:137] Memory required for data: 120423200
I0113 14:03:16.783592 101223 layer_factory.hpp:77] Creating layer label_data_1_split
I0113 14:03:16.783618 101223 net.cpp:84] Creating Layer label_data_1_split
I0113 14:03:16.783639 101223 net.cpp:406] label_data_1_split <- label
I0113 14:03:16.783663 101223 net.cpp:380] label_data_1_split -> label_data_1_split_0
I0113 14:03:16.783684 101223 net.cpp:380] label_data_1_split -> label_data_1_split_1
I0113 14:03:16.784011 101223 net.cpp:122] Setting up label_data_1_split
I0113 14:03:16.784067 101223 net.cpp:129] Top shape: 200 (200)
I0113 14:03:16.784082 101223 net.cpp:129] Top shape: 200 (200)
I0113 14:03:16.784096 101223 net.cpp:137] Memory required for data: 120424800
I0113 14:03:16.784113 101223 layer_factory.hpp:77] Creating layer conv1
I0113 14:03:16.784174 101223 net.cpp:84] Creating Layer conv1
I0113 14:03:16.784193 101223 net.cpp:406] conv1 <- data
I0113 14:03:16.784221 101223 net.cpp:380] conv1 -> conv1
ydwu=======get:
bit_width=8;  round_method=0;  round_strategy=1;  is_runtime=0;  range_low=-0.872089;  range_high=0.927025
I0113 14:03:16.808262 101223 net.cpp:122] Setting up conv1
I0113 14:03:16.808320 101223 net.cpp:129] Top shape: 200 96 55 55 (58080000)
I0113 14:03:16.808336 101223 net.cpp:137] Memory required for data: 352744800
I0113 14:03:16.808389 101223 layer_factory.hpp:77] Creating layer bn1
I0113 14:03:16.808415 101223 net.cpp:84] Creating Layer bn1
I0113 14:03:16.808430 101223 net.cpp:406] bn1 <- conv1
I0113 14:03:16.808450 101223 net.cpp:367] bn1 -> conv1 (in-place)
I0113 14:03:16.808888 101223 net.cpp:122] Setting up bn1
I0113 14:03:16.808920 101223 net.cpp:129] Top shape: 200 96 55 55 (58080000)
I0113 14:03:16.808935 101223 net.cpp:137] Memory required for data: 585064800
I0113 14:03:16.808971 101223 layer_factory.hpp:77] Creating layer scale1
I0113 14:03:16.809000 101223 net.cpp:84] Creating Layer scale1
I0113 14:03:16.809015 101223 net.cpp:406] scale1 <- conv1
I0113 14:03:16.809098 101223 net.cpp:367] scale1 -> conv1 (in-place)
I0113 14:03:16.809218 101223 layer_factory.hpp:77] Creating layer scale1
I0113 14:03:16.809506 101223 net.cpp:122] Setting up scale1
I0113 14:03:16.809538 101223 net.cpp:129] Top shape: 200 96 55 55 (58080000)
I0113 14:03:16.809553 101223 net.cpp:137] Memory required for data: 817384800
I0113 14:03:16.809576 101223 layer_factory.hpp:77] Creating layer relu1
I0113 14:03:16.809597 101223 net.cpp:84] Creating Layer relu1
I0113 14:03:16.809613 101223 net.cpp:406] relu1 <- conv1
I0113 14:03:16.809633 101223 net.cpp:367] relu1 -> conv1 (in-place)
I0113 14:03:16.809655 101223 net.cpp:122] Setting up relu1
I0113 14:03:16.809674 101223 net.cpp:129] Top shape: 200 96 55 55 (58080000)
I0113 14:03:16.809687 101223 net.cpp:137] Memory required for data: 1049704800
I0113 14:03:16.809701 101223 layer_factory.hpp:77] Creating layer pool1
I0113 14:03:16.809723 101223 net.cpp:84] Creating Layer pool1
I0113 14:03:16.809737 101223 net.cpp:406] pool1 <- conv1
I0113 14:03:16.809757 101223 net.cpp:380] pool1 -> pool1
I0113 14:03:16.809988 101223 net.cpp:122] Setting up pool1
I0113 14:03:16.810039 101223 net.cpp:129] Top shape: 200 96 27 27 (13996800)
I0113 14:03:16.810055 101223 net.cpp:137] Memory required for data: 1105692000
I0113 14:03:16.810070 101223 layer_factory.hpp:77] Creating layer quantized_conv1
I0113 14:03:16.810092 101223 net.cpp:84] Creating Layer quantized_conv1
I0113 14:03:16.810107 101223 net.cpp:406] quantized_conv1 <- pool1
I0113 14:03:16.810150 101223 net.cpp:367] quantized_conv1 -> pool1 (in-place)
I0113 14:03:16.810178 101223 net.cpp:122] Setting up quantized_conv1
I0113 14:03:16.810210 101223 net.cpp:129] Top shape: 200 96 27 27 (13996800)
I0113 14:03:16.810226 101223 net.cpp:137] Memory required for data: 1161679200
I0113 14:03:16.810240 101223 layer_factory.hpp:77] Creating layer conv2
I0113 14:03:16.810339 101223 net.cpp:84] Creating Layer conv2
I0113 14:03:16.810362 101223 net.cpp:406] conv2 <- pool1
I0113 14:03:16.810387 101223 net.cpp:380] conv2 -> conv2
ydwu=======get:
bit_width=8;  round_method=0;  round_strategy=1;  is_runtime=0;  range_low=-0.806018;  range_high=1.5182
I0113 14:03:16.832231 101223 net.cpp:122] Setting up conv2
I0113 14:03:16.832271 101223 net.cpp:129] Top shape: 200 256 27 27 (37324800)
I0113 14:03:16.832281 101223 net.cpp:137] Memory required for data: 1310978400
I0113 14:03:16.832309 101223 layer_factory.hpp:77] Creating layer bn2
I0113 14:03:16.832330 101223 net.cpp:84] Creating Layer bn2
I0113 14:03:16.832343 101223 net.cpp:406] bn2 <- conv2
I0113 14:03:16.832360 101223 net.cpp:367] bn2 -> conv2 (in-place)
I0113 14:03:16.832679 101223 net.cpp:122] Setting up bn2
I0113 14:03:16.832703 101223 net.cpp:129] Top shape: 200 256 27 27 (37324800)
I0113 14:03:16.832713 101223 net.cpp:137] Memory required for data: 1460277600
I0113 14:03:16.832732 101223 layer_factory.hpp:77] Creating layer scale2
I0113 14:03:16.832749 101223 net.cpp:84] Creating Layer scale2
I0113 14:03:16.832762 101223 net.cpp:406] scale2 <- conv2
I0113 14:03:16.832775 101223 net.cpp:367] scale2 -> conv2 (in-place)
I0113 14:03:16.832855 101223 layer_factory.hpp:77] Creating layer scale2
I0113 14:03:16.833055 101223 net.cpp:122] Setting up scale2
I0113 14:03:16.833078 101223 net.cpp:129] Top shape: 200 256 27 27 (37324800)
I0113 14:03:16.833089 101223 net.cpp:137] Memory required for data: 1609576800
I0113 14:03:16.833107 101223 layer_factory.hpp:77] Creating layer relu2
I0113 14:03:16.833125 101223 net.cpp:84] Creating Layer relu2
I0113 14:03:16.833137 101223 net.cpp:406] relu2 <- conv2
I0113 14:03:16.833154 101223 net.cpp:367] relu2 -> conv2 (in-place)
I0113 14:03:16.833171 101223 net.cpp:122] Setting up relu2
I0113 14:03:16.833185 101223 net.cpp:129] Top shape: 200 256 27 27 (37324800)
I0113 14:03:16.833196 101223 net.cpp:137] Memory required for data: 1758876000
I0113 14:03:16.833207 101223 layer_factory.hpp:77] Creating layer pool2
I0113 14:03:16.833225 101223 net.cpp:84] Creating Layer pool2
I0113 14:03:16.833236 101223 net.cpp:406] pool2 <- conv2
I0113 14:03:16.833252 101223 net.cpp:380] pool2 -> pool2
I0113 14:03:16.833328 101223 net.cpp:122] Setting up pool2
I0113 14:03:16.833379 101223 net.cpp:129] Top shape: 200 256 13 13 (8652800)
I0113 14:03:16.833392 101223 net.cpp:137] Memory required for data: 1793487200
I0113 14:03:16.833405 101223 layer_factory.hpp:77] Creating layer quantized_conv1
I0113 14:03:16.833425 101223 net.cpp:84] Creating Layer quantized_conv1
I0113 14:03:16.833436 101223 net.cpp:406] quantized_conv1 <- pool2
I0113 14:03:16.833453 101223 net.cpp:367] quantized_conv1 -> pool2 (in-place)
I0113 14:03:16.833472 101223 net.cpp:122] Setting up quantized_conv1
I0113 14:03:16.833485 101223 net.cpp:129] Top shape: 200 256 13 13 (8652800)
I0113 14:03:16.833497 101223 net.cpp:137] Memory required for data: 1828098400
I0113 14:03:16.833508 101223 layer_factory.hpp:77] Creating layer conv3
I0113 14:03:16.833529 101223 net.cpp:84] Creating Layer conv3
I0113 14:03:16.833541 101223 net.cpp:406] conv3 <- pool2
I0113 14:03:16.833559 101223 net.cpp:380] conv3 -> conv3
ydwu=======get:
bit_width=8;  round_method=0;  round_strategy=1;  is_runtime=0;  range_low=-0.621858;  range_high=0.673858
I0113 14:03:16.859823 101223 net.cpp:122] Setting up conv3
I0113 14:03:16.859865 101223 net.cpp:129] Top shape: 200 384 13 13 (12979200)
I0113 14:03:16.859875 101223 net.cpp:137] Memory required for data: 1880015200
I0113 14:03:16.859895 101223 layer_factory.hpp:77] Creating layer bn3
I0113 14:03:16.859917 101223 net.cpp:84] Creating Layer bn3
I0113 14:03:16.859930 101223 net.cpp:406] bn3 <- conv3
I0113 14:03:16.859949 101223 net.cpp:367] bn3 -> conv3 (in-place)
I0113 14:03:16.860224 101223 net.cpp:122] Setting up bn3
I0113 14:03:16.860244 101223 net.cpp:129] Top shape: 200 384 13 13 (12979200)
I0113 14:03:16.860252 101223 net.cpp:137] Memory required for data: 1931932000
I0113 14:03:16.860280 101223 layer_factory.hpp:77] Creating layer scale3
I0113 14:03:16.860302 101223 net.cpp:84] Creating Layer scale3
I0113 14:03:16.860312 101223 net.cpp:406] scale3 <- conv3
I0113 14:03:16.860324 101223 net.cpp:367] scale3 -> conv3 (in-place)
I0113 14:03:16.860399 101223 layer_factory.hpp:77] Creating layer scale3
I0113 14:03:16.860574 101223 net.cpp:122] Setting up scale3
I0113 14:03:16.860592 101223 net.cpp:129] Top shape: 200 384 13 13 (12979200)
I0113 14:03:16.860602 101223 net.cpp:137] Memory required for data: 1983848800
I0113 14:03:16.860615 101223 layer_factory.hpp:77] Creating layer relu3
I0113 14:03:16.860630 101223 net.cpp:84] Creating Layer relu3
I0113 14:03:16.860641 101223 net.cpp:406] relu3 <- conv3
I0113 14:03:16.860654 101223 net.cpp:367] relu3 -> conv3 (in-place)
I0113 14:03:16.860669 101223 net.cpp:122] Setting up relu3
I0113 14:03:16.860682 101223 net.cpp:129] Top shape: 200 384 13 13 (12979200)
I0113 14:03:16.860690 101223 net.cpp:137] Memory required for data: 2035765600
I0113 14:03:16.860699 101223 layer_factory.hpp:77] Creating layer quantized_conv1
I0113 14:03:16.860715 101223 net.cpp:84] Creating Layer quantized_conv1
I0113 14:03:16.860725 101223 net.cpp:406] quantized_conv1 <- conv3
I0113 14:03:16.860738 101223 net.cpp:367] quantized_conv1 -> conv3 (in-place)
I0113 14:03:16.860754 101223 net.cpp:122] Setting up quantized_conv1
I0113 14:03:16.860766 101223 net.cpp:129] Top shape: 200 384 13 13 (12979200)
I0113 14:03:16.860775 101223 net.cpp:137] Memory required for data: 2087682400
I0113 14:03:16.860785 101223 layer_factory.hpp:77] Creating layer conv4
I0113 14:03:16.860805 101223 net.cpp:84] Creating Layer conv4
I0113 14:03:16.860816 101223 net.cpp:406] conv4 <- conv3
I0113 14:03:16.860831 101223 net.cpp:380] conv4 -> conv4
ydwu=======get:
bit_width=8;  round_method=0;  round_strategy=1;  is_runtime=0;  range_low=-0.376634;  range_high=0.341829
I0113 14:03:16.890370 101223 net.cpp:122] Setting up conv4
I0113 14:03:16.890406 101223 net.cpp:129] Top shape: 200 384 13 13 (12979200)
I0113 14:03:16.890416 101223 net.cpp:137] Memory required for data: 2139599200
I0113 14:03:16.890436 101223 layer_factory.hpp:77] Creating layer bn4
I0113 14:03:16.890458 101223 net.cpp:84] Creating Layer bn4
I0113 14:03:16.890470 101223 net.cpp:406] bn4 <- conv4
I0113 14:03:16.890486 101223 net.cpp:367] bn4 -> conv4 (in-place)
I0113 14:03:16.890758 101223 net.cpp:122] Setting up bn4
I0113 14:03:16.890777 101223 net.cpp:129] Top shape: 200 384 13 13 (12979200)
I0113 14:03:16.890786 101223 net.cpp:137] Memory required for data: 2191516000
I0113 14:03:16.890851 101223 layer_factory.hpp:77] Creating layer scale4
I0113 14:03:16.890867 101223 net.cpp:84] Creating Layer scale4
I0113 14:03:16.890877 101223 net.cpp:406] scale4 <- conv4
I0113 14:03:16.890887 101223 net.cpp:367] scale4 -> conv4 (in-place)
I0113 14:03:16.890959 101223 layer_factory.hpp:77] Creating layer scale4
I0113 14:03:16.891126 101223 net.cpp:122] Setting up scale4
I0113 14:03:16.891144 101223 net.cpp:129] Top shape: 200 384 13 13 (12979200)
I0113 14:03:16.891152 101223 net.cpp:137] Memory required for data: 2243432800
I0113 14:03:16.891166 101223 layer_factory.hpp:77] Creating layer relu4
I0113 14:03:16.891183 101223 net.cpp:84] Creating Layer relu4
I0113 14:03:16.891192 101223 net.cpp:406] relu4 <- conv4
I0113 14:03:16.891203 101223 net.cpp:367] relu4 -> conv4 (in-place)
I0113 14:03:16.891217 101223 net.cpp:122] Setting up relu4
I0113 14:03:16.891227 101223 net.cpp:129] Top shape: 200 384 13 13 (12979200)
I0113 14:03:16.891237 101223 net.cpp:137] Memory required for data: 2295349600
I0113 14:03:16.891244 101223 layer_factory.hpp:77] Creating layer quantized_conv1
I0113 14:03:16.891258 101223 net.cpp:84] Creating Layer quantized_conv1
I0113 14:03:16.891268 101223 net.cpp:406] quantized_conv1 <- conv4
I0113 14:03:16.891281 101223 net.cpp:367] quantized_conv1 -> conv4 (in-place)
I0113 14:03:16.891295 101223 net.cpp:122] Setting up quantized_conv1
I0113 14:03:16.891306 101223 net.cpp:129] Top shape: 200 384 13 13 (12979200)
I0113 14:03:16.891314 101223 net.cpp:137] Memory required for data: 2347266400
I0113 14:03:16.891324 101223 layer_factory.hpp:77] Creating layer conv5
I0113 14:03:16.891345 101223 net.cpp:84] Creating Layer conv5
I0113 14:03:16.891355 101223 net.cpp:406] conv5 <- conv4
I0113 14:03:16.891367 101223 net.cpp:380] conv5 -> conv5
ydwu=======get:
bit_width=8;  round_method=0;  round_strategy=1;  is_runtime=0;  range_low=-0.347658;  range_high=0.330042
I0113 14:03:16.909862 101223 net.cpp:122] Setting up conv5
I0113 14:03:16.909895 101223 net.cpp:129] Top shape: 200 256 13 13 (8652800)
I0113 14:03:16.909904 101223 net.cpp:137] Memory required for data: 2381877600
I0113 14:03:16.909922 101223 layer_factory.hpp:77] Creating layer bn5
I0113 14:03:16.909940 101223 net.cpp:84] Creating Layer bn5
I0113 14:03:16.909950 101223 net.cpp:406] bn5 <- conv5
I0113 14:03:16.909965 101223 net.cpp:367] bn5 -> conv5 (in-place)
I0113 14:03:16.910229 101223 net.cpp:122] Setting up bn5
I0113 14:03:16.910246 101223 net.cpp:129] Top shape: 200 256 13 13 (8652800)
I0113 14:03:16.910254 101223 net.cpp:137] Memory required for data: 2416488800
I0113 14:03:16.910281 101223 layer_factory.hpp:77] Creating layer scale5
I0113 14:03:16.910300 101223 net.cpp:84] Creating Layer scale5
I0113 14:03:16.910308 101223 net.cpp:406] scale5 <- conv5
I0113 14:03:16.910320 101223 net.cpp:367] scale5 -> conv5 (in-place)
I0113 14:03:16.910392 101223 layer_factory.hpp:77] Creating layer scale5
I0113 14:03:16.910553 101223 net.cpp:122] Setting up scale5
I0113 14:03:16.910570 101223 net.cpp:129] Top shape: 200 256 13 13 (8652800)
I0113 14:03:16.910578 101223 net.cpp:137] Memory required for data: 2451100000
I0113 14:03:16.910591 101223 layer_factory.hpp:77] Creating layer relu5
I0113 14:03:16.910604 101223 net.cpp:84] Creating Layer relu5
I0113 14:03:16.910612 101223 net.cpp:406] relu5 <- conv5
I0113 14:03:16.910626 101223 net.cpp:367] relu5 -> conv5 (in-place)
I0113 14:03:16.910640 101223 net.cpp:122] Setting up relu5
I0113 14:03:16.910650 101223 net.cpp:129] Top shape: 200 256 13 13 (8652800)
I0113 14:03:16.910658 101223 net.cpp:137] Memory required for data: 2485711200
I0113 14:03:16.910666 101223 layer_factory.hpp:77] Creating layer pool5
I0113 14:03:16.910681 101223 net.cpp:84] Creating Layer pool5
I0113 14:03:16.910688 101223 net.cpp:406] pool5 <- conv5
I0113 14:03:16.910699 101223 net.cpp:380] pool5 -> pool5
I0113 14:03:16.910760 101223 net.cpp:122] Setting up pool5
I0113 14:03:16.910778 101223 net.cpp:129] Top shape: 200 256 6 6 (1843200)
I0113 14:03:16.910785 101223 net.cpp:137] Memory required for data: 2493084000
I0113 14:03:16.910794 101223 layer_factory.hpp:77] Creating layer quantized_conv1
I0113 14:03:16.910807 101223 net.cpp:84] Creating Layer quantized_conv1
I0113 14:03:16.910852 101223 net.cpp:406] quantized_conv1 <- pool5
I0113 14:03:16.910866 101223 net.cpp:367] quantized_conv1 -> pool5 (in-place)
I0113 14:03:16.910878 101223 net.cpp:122] Setting up quantized_conv1
I0113 14:03:16.910890 101223 net.cpp:129] Top shape: 200 256 6 6 (1843200)
I0113 14:03:16.910897 101223 net.cpp:137] Memory required for data: 2500456800
I0113 14:03:16.910905 101223 layer_factory.hpp:77] Creating layer fc6
I0113 14:03:16.910920 101223 net.cpp:84] Creating Layer fc6
I0113 14:03:16.910928 101223 net.cpp:406] fc6 <- pool5
I0113 14:03:16.910943 101223 net.cpp:380] fc6 -> fc6
I0113 14:03:16.910965 101223 quan_inner_product_layer.cpp:21] 4096   4096
ydwu=======get:
bit_width=8;  round_method=0;  round_strategy=1;  is_runtime=0;  range_low=-0.160061;  range_high=0.148064
I0113 14:03:17.511792 101223 net.cpp:122] Setting up fc6
I0113 14:03:17.511850 101223 net.cpp:129] Top shape: 200 4096 (819200)
I0113 14:03:17.511857 101223 net.cpp:137] Memory required for data: 2503733600
I0113 14:03:17.511876 101223 layer_factory.hpp:77] Creating layer bn6
I0113 14:03:17.511898 101223 net.cpp:84] Creating Layer bn6
I0113 14:03:17.511907 101223 net.cpp:406] bn6 <- fc6
I0113 14:03:17.511920 101223 net.cpp:367] bn6 -> fc6 (in-place)
I0113 14:03:17.512151 101223 net.cpp:122] Setting up bn6
I0113 14:03:17.512164 101223 net.cpp:129] Top shape: 200 4096 (819200)
I0113 14:03:17.512181 101223 net.cpp:137] Memory required for data: 2507010400
I0113 14:03:17.512193 101223 layer_factory.hpp:77] Creating layer scale6
I0113 14:03:17.512217 101223 net.cpp:84] Creating Layer scale6
I0113 14:03:17.512224 101223 net.cpp:406] scale6 <- fc6
I0113 14:03:17.512243 101223 net.cpp:367] scale6 -> fc6 (in-place)
I0113 14:03:17.512310 101223 layer_factory.hpp:77] Creating layer scale6
I0113 14:03:17.512459 101223 net.cpp:122] Setting up scale6
I0113 14:03:17.512471 101223 net.cpp:129] Top shape: 200 4096 (819200)
I0113 14:03:17.512490 101223 net.cpp:137] Memory required for data: 2510287200
I0113 14:03:17.512498 101223 layer_factory.hpp:77] Creating layer relu6
I0113 14:03:17.512512 101223 net.cpp:84] Creating Layer relu6
I0113 14:03:17.512519 101223 net.cpp:406] relu6 <- fc6
I0113 14:03:17.512528 101223 net.cpp:367] relu6 -> fc6 (in-place)
I0113 14:03:17.512537 101223 net.cpp:122] Setting up relu6
I0113 14:03:17.512544 101223 net.cpp:129] Top shape: 200 4096 (819200)
I0113 14:03:17.512550 101223 net.cpp:137] Memory required for data: 2513564000
I0113 14:03:17.512555 101223 layer_factory.hpp:77] Creating layer drop6
I0113 14:03:17.512567 101223 net.cpp:84] Creating Layer drop6
I0113 14:03:17.512573 101223 net.cpp:406] drop6 <- fc6
I0113 14:03:17.512583 101223 net.cpp:367] drop6 -> fc6 (in-place)
I0113 14:03:17.512622 101223 net.cpp:122] Setting up drop6
I0113 14:03:17.512634 101223 net.cpp:129] Top shape: 200 4096 (819200)
I0113 14:03:17.512640 101223 net.cpp:137] Memory required for data: 2516840800
I0113 14:03:17.512646 101223 layer_factory.hpp:77] Creating layer quantized_conv1
I0113 14:03:17.512663 101223 net.cpp:84] Creating Layer quantized_conv1
I0113 14:03:17.512670 101223 net.cpp:406] quantized_conv1 <- fc6
I0113 14:03:17.512678 101223 net.cpp:367] quantized_conv1 -> fc6 (in-place)
I0113 14:03:17.512688 101223 net.cpp:122] Setting up quantized_conv1
I0113 14:03:17.512696 101223 net.cpp:129] Top shape: 200 4096 (819200)
I0113 14:03:17.512703 101223 net.cpp:137] Memory required for data: 2520117600
I0113 14:03:17.512709 101223 layer_factory.hpp:77] Creating layer fc7
I0113 14:03:17.512722 101223 net.cpp:84] Creating Layer fc7
I0113 14:03:17.512728 101223 net.cpp:406] fc7 <- fc6
I0113 14:03:17.512737 101223 net.cpp:380] fc7 -> fc7
I0113 14:03:17.512753 101223 quan_inner_product_layer.cpp:21] 4096   4096
ydwu=======get:
bit_width=8;  round_method=0;  round_strategy=1;  is_runtime=0;  range_low=-0.162636;  range_high=0.197684
I0113 14:03:17.786414 101223 net.cpp:122] Setting up fc7
I0113 14:03:17.786459 101223 net.cpp:129] Top shape: 200 4096 (819200)
I0113 14:03:17.786468 101223 net.cpp:137] Memory required for data: 2523394400
I0113 14:03:17.786485 101223 layer_factory.hpp:77] Creating layer bn7
I0113 14:03:17.786507 101223 net.cpp:84] Creating Layer bn7
I0113 14:03:17.786517 101223 net.cpp:406] bn7 <- fc7
I0113 14:03:17.786541 101223 net.cpp:367] bn7 -> fc7 (in-place)
I0113 14:03:17.786844 101223 net.cpp:122] Setting up bn7
I0113 14:03:17.786859 101223 net.cpp:129] Top shape: 200 4096 (819200)
I0113 14:03:17.786865 101223 net.cpp:137] Memory required for data: 2526671200
I0113 14:03:17.786878 101223 layer_factory.hpp:77] Creating layer scale7
I0113 14:03:17.786902 101223 net.cpp:84] Creating Layer scale7
I0113 14:03:17.786911 101223 net.cpp:406] scale7 <- fc7
I0113 14:03:17.786918 101223 net.cpp:367] scale7 -> fc7 (in-place)
I0113 14:03:17.786974 101223 layer_factory.hpp:77] Creating layer scale7
I0113 14:03:17.787120 101223 net.cpp:122] Setting up scale7
I0113 14:03:17.787135 101223 net.cpp:129] Top shape: 200 4096 (819200)
I0113 14:03:17.787142 101223 net.cpp:137] Memory required for data: 2529948000
I0113 14:03:17.787153 101223 layer_factory.hpp:77] Creating layer relu7
I0113 14:03:17.787165 101223 net.cpp:84] Creating Layer relu7
I0113 14:03:17.787173 101223 net.cpp:406] relu7 <- fc7
I0113 14:03:17.787184 101223 net.cpp:367] relu7 -> fc7 (in-place)
I0113 14:03:17.787195 101223 net.cpp:122] Setting up relu7
I0113 14:03:17.787204 101223 net.cpp:129] Top shape: 200 4096 (819200)
I0113 14:03:17.787210 101223 net.cpp:137] Memory required for data: 2533224800
I0113 14:03:17.787217 101223 layer_factory.hpp:77] Creating layer drop7
I0113 14:03:17.787228 101223 net.cpp:84] Creating Layer drop7
I0113 14:03:17.787235 101223 net.cpp:406] drop7 <- fc7
I0113 14:03:17.787247 101223 net.cpp:367] drop7 -> fc7 (in-place)
I0113 14:03:17.787279 101223 net.cpp:122] Setting up drop7
I0113 14:03:17.787292 101223 net.cpp:129] Top shape: 200 4096 (819200)
I0113 14:03:17.787297 101223 net.cpp:137] Memory required for data: 2536501600
I0113 14:03:17.787304 101223 layer_factory.hpp:77] Creating layer quantized_conv1
I0113 14:03:17.787319 101223 net.cpp:84] Creating Layer quantized_conv1
I0113 14:03:17.787328 101223 net.cpp:406] quantized_conv1 <- fc7
I0113 14:03:17.787336 101223 net.cpp:367] quantized_conv1 -> fc7 (in-place)
I0113 14:03:17.787348 101223 net.cpp:122] Setting up quantized_conv1
I0113 14:03:17.787356 101223 net.cpp:129] Top shape: 200 4096 (819200)
I0113 14:03:17.787364 101223 net.cpp:137] Memory required for data: 2539778400
I0113 14:03:17.787369 101223 layer_factory.hpp:77] Creating layer fc8
I0113 14:03:17.787381 101223 net.cpp:84] Creating Layer fc8
I0113 14:03:17.787389 101223 net.cpp:406] fc8 <- fc7
I0113 14:03:17.787398 101223 net.cpp:380] fc8 -> fc8
I0113 14:03:17.787410 101223 quan_inner_product_layer.cpp:21] 1000   1000
ydwu=======get:
bit_width=8;  round_method=0;  round_strategy=1;  is_runtime=0;  range_low=-0.141857;  range_high=0.274249
I0113 14:03:17.856906 101223 net.cpp:122] Setting up fc8
I0113 14:03:17.856942 101223 net.cpp:129] Top shape: 200 1000 (200000)
I0113 14:03:17.856950 101223 net.cpp:137] Memory required for data: 2540578400
I0113 14:03:17.856964 101223 layer_factory.hpp:77] Creating layer fc8_fc8_0_split
I0113 14:03:17.856981 101223 net.cpp:84] Creating Layer fc8_fc8_0_split
I0113 14:03:17.856989 101223 net.cpp:406] fc8_fc8_0_split <- fc8
I0113 14:03:17.857004 101223 net.cpp:380] fc8_fc8_0_split -> fc8_fc8_0_split_0
I0113 14:03:17.857022 101223 net.cpp:380] fc8_fc8_0_split -> fc8_fc8_0_split_1
I0113 14:03:17.857084 101223 net.cpp:122] Setting up fc8_fc8_0_split
I0113 14:03:17.857096 101223 net.cpp:129] Top shape: 200 1000 (200000)
I0113 14:03:17.857105 101223 net.cpp:129] Top shape: 200 1000 (200000)
I0113 14:03:17.857110 101223 net.cpp:137] Memory required for data: 2542178400
I0113 14:03:17.857115 101223 layer_factory.hpp:77] Creating layer accuracy_5_TRAIN
I0113 14:03:17.857132 101223 net.cpp:84] Creating Layer accuracy_5_TRAIN
I0113 14:03:17.857141 101223 net.cpp:406] accuracy_5_TRAIN <- fc8_fc8_0_split_0
I0113 14:03:17.857148 101223 net.cpp:406] accuracy_5_TRAIN <- label_data_1_split_0
…
I0113 14:03:17.860323 101223 net.cpp:294] The NetState phase (1) differed from the phase (0) specified by a rule in layer accuracy_5_TRAIN
I0113 14:03:17.860678 101223 net.cpp:51] Initializing net from parameters: 
name: "AlexNet-BN"
state {
  phase: TEST
}
layer {
  name: "data"
  type: "Data"
  top: "data"
  top: "label"
  include {
    phase: TEST
  }
  transform_param {
    mirror: false
    crop_size: 224
    mean_value: 103.939
    mean_value: 116.779
    mean_value: 123.68
  }
  data_param {
    source: "/home/DATA/imagenet_resize/lmdb_resize/ilsvrc12_val_lmdb"
    batch_size: 200
    backend: LMDB
  }
}
layer {
  name: "conv1"
  type: "QuanConvolution"
  bottom: "data"
  top: "conv1"
  param {
    lr_mult: 1
    decay_mult: 1
  }
  param {
    lr_mult: 2
    decay_mult: 0
  }
  quan_convolution_param {
    num_output: 96
    pad: 2
    kernel_size: 11
    stride: 4
    weight_filler {
      type: "gaussian"
      std: 0.01
    }
    bias_filler {
      type: "constant"
      value: 0
    }
    round_method: ROUND
    round_strategy: NEUTRAL
    bit_width: 8
    range_low: -0.872089
    range_high: 0.927025
  }
}
layer {
  name: "bn1"
  type: "BatchNorm"
  bottom: "conv1"
  top: "conv1"
}
layer {
  name: "scale1"
  type: "Scale"
  bottom: "conv1"
  top: "conv1"
  scale_param {
    bias_term: true
  }
}
layer {
  name: "relu1"
  type: "ReLU"
  bottom: "conv1"
  top: "conv1"
}
layer {
  name: "pool1"
  type: "Pooling"
  bottom: "conv1"
  top: "pool1"
  pooling_param {
    pool: MAX
    kernel_size: 3
    stride: 2
  }
}
layer {
  name: "quantized_conv1"
  type: "Quantization"
  bottom: "pool1"
  top: "pool1"
  quantization_param {
    round_method: ROUND
    round_strategy: AGGRESSIVE
    bit_width: 4
    range: 0
    range: 13.965383
  }
}
layer {
  name: "conv2"
  type: "QuanConvolution"
  bottom: "pool1"
  top: "conv2"
  param {
    lr_mult: 1
    decay_mult: 1
  }
  param {
    lr_mult: 2
    decay_mult: 0
  }
  quan_convolution_param {
    num_output: 256
    pad: 2
    kernel_size: 5
    weight_filler {
      type: "gaussian"
      std: 0.01
    }
    bias_filler {
      type: "constant"
      value: 0.1
    }
    round_method: ROUND
    round_strategy: NEUTRAL
    bit_width: 8
    range_low: -0.806018
    range_high: 1.5182
  }
}
layer {
  name: "bn2"
  type: "BatchNorm"
  bottom: "conv2"
  top: "conv2"
}
layer {
  name: "scale2"
  type: "Scale"
  bottom: "conv2"
  top: "conv2"
  scale_param {
    bias_term: true
  }
}
layer {
  name: "relu2"
  type: "ReLU"
  bottom: "conv2"
  top: "conv2"
}
layer {
  name: "pool2"
  type: "Pooling"
  bottom: "conv2"
  top: "pool2"
  pooling_param {
    pool: MAX
    kernel_size: 3
    stride: 2
  }
}
layer {
  name: "quantized_conv1"
  type: "Quantization"
  bottom: "pool2"
  top: "pool2"
  quantization_param {
    round_method: ROUND
    round_strategy: AGGRESSIVE
    bit_width: 4
    range: 0
    range: 6.74956
  }
}
layer {
  name: "conv3"
  type: "QuanConvolution"
  bottom: "pool2"
  top: "conv3"
  param {
    lr_mult: 1
    decay_mult: 1
  }
  param {
    lr_mult: 2
    decay_mult: 0
  }
  quan_convolution_param {
    num_output: 384
    pad: 1
    kernel_size: 3
    weight_filler {
      type: "gaussian"
      std: 0.01
    }
    bias_filler {
      type: "constant"
      value: 0
    }
    round_method: ROUND
    round_strategy: NEUTRAL
    bit_width: 8
    range_low: -0.621858
    range_high: 0.673858
  }
}
layer {
  name: "bn3"
  type: "BatchNorm"
  bottom: "conv3"
  top: "conv3"
}
layer {
  name: "scale3"
  type: "Scale"
  bottom: "conv3"
  top: "conv3"
  scale_param {
    bias_term: true
  }
}
layer {
  name: "relu3"
  type: "ReLU"
  bottom: "conv3"
  top: "conv3"
}
layer {
  name: "quantized_conv1"
  type: "Quantization"
  bottom: "conv3"
  top: "conv3"
  quantization_param {
    round_method: ROUND
    round_strategy: AGGRESSIVE
    bit_width: 4
    range: 0
    range: 8.48454
  }
}
layer {
  name: "conv4"
  type: "QuanConvolution"
  bottom: "conv3"
  top: "conv4"
  param {
    lr_mult: 1
    decay_mult: 1
  }
  param {
    lr_mult: 2
    decay_mult: 0
  }
  quan_convolution_param {
    num_output: 384
    pad: 1
    kernel_size: 3
    weight_filler {
      type: "gaussian"
      std: 0.01
    }
    bias_filler {
      type: "constant"
      value: 0.1
    }
    round_method: ROUND
    round_strategy: NEUTRAL
    bit_width: 8
    range_low: -0.376634
    range_high: 0.341829
  }
}
layer {
  name: "bn4"
  type: "BatchNorm"
  bottom: "conv4"
  top: "conv4"
}
layer {
  name: "scale4"
  type: "Scale"
  bottom: "conv4"
  top: "conv4"
  scale_param {
    bias_term: true
  }
}
layer {
  name: "relu4"
  type: "ReLU"
  bottom: "conv4"
  top: "conv4"
}
layer {
  name: "quantized_conv1"
  type: "Quantization"
  bottom: "conv4"
  top: "conv4"
  quantization_param {
    round_method: ROUND
    round_strategy: AGGRESSIVE
    bit_width: 4
    range: 0
    range: 7.3369722
  }
}
layer {
  name: "conv5"
  type: "QuanConvolution"
  bottom: "conv4"
  top: "conv5"
  param {
    lr_mult: 1
    decay_mult: 1
  }
  param {
    lr_mult: 2
    decay_mult: 0
  }
  quan_convolution_param {
    num_output: 256
    pad: 1
    kernel_size: 3
    weight_filler {
      type: "gaussian"
      std: 0.01
    }
    bias_filler {
      type: "constant"
      value: 0.1
    }
    round_method: ROUND
    round_strategy: NEUTRAL
    bit_width: 8
    range_low: -0.347658
    range_high: 0.330042
  }
}
layer {
  name: "bn5"
  type: "BatchNorm"
  bottom: "conv5"
  top: "conv5"
}
layer {
  name: "scale5"
  type: "Scale"
  bottom: "conv5"
  top: "conv5"
  scale_param {
    bias_term: true
  }
}
layer {
  name: "relu5"
  type: "ReLU"
  bottom: "conv5"
  top: "conv5"
}
layer {
  name: "pool5"
  type: "Pooling"
  bottom: "conv5"
  top: "pool5"
  pooling_param {
    pool: MAX
    kernel_size: 3
    stride: 2
  }
}
layer {
  name: "quantized_conv1"
  type: "Quantization"
  bottom: "pool5"
  top: "pool5"
  quantization_param {
    round_method: ROUND
    round_strategy: AGGRESSIVE
    bit_width: 4
    range: 0
    range: 8.7577133
  }
}
layer {
  name: "fc6"
  type: "QuanInnerProduct"
  bottom: "pool5"
  top: "fc6"
  param {
    lr_mult: 1
    decay_mult: 1
  }
  param {
    lr_mult: 2
    decay_mult: 0
  }
  quan_inner_product_param {
    num_output: 4096
    weight_filler {
      type: "gaussian"
      std: 0.005
    }
    bias_filler {
      type: "constant"
      value: 0.1
    }
    round_method: ROUND
    round_strategy: NEUTRAL
    bit_width: 8
    range_low: -0.160061
    range_high: 0.148064
  }
}
layer {
  name: "bn6"
  type: "BatchNorm"
  bottom: "fc6"
  top: "fc6"
}
layer {
  name: "scale6"
  type: "Scale"
  bottom: "fc6"
  top: "fc6"
  scale_param {
    bias_term: true
  }
}
layer {
  name: "relu6"
  type: "ReLU"
  bottom: "fc6"
  top: "fc6"
}
layer {
  name: "drop6"
  type: "Dropout"
  bottom: "fc6"
  top: "fc6"
  dropout_param {
    dropout_ratio: 0.5
  }
}
layer {
  name: "quantized_conv1"
  type: "Quantization"
  bottom: "fc6"
  top: "fc6"
  quantization_param {
    round_method: ROUND
    round_strategy: AGGRESSIVE
    bit_width: 4
    range: 0
    range: 1.659358
  }
}
layer {
  name: "fc7"
  type: "QuanInnerProduct"
  bottom: "fc6"
  top: "fc7"
  param {
    lr_mult: 1
    decay_mult: 1
  }
  param {
    lr_mult: 2
    decay_mult: 0
  }
  quan_inner_product_param {
    num_output: 4096
    weight_filler {
      type: "gaussian"
      std: 0.005
    }
    bias_filler {
      type: "constant"
      value: 0.1
    }
    round_method: ROUND
    round_strategy: NEUTRAL
    bit_width: 8
    range_low: -0.162636
    range_high: 0.197684
  }
}
layer {
  name: "bn7"
  type: "BatchNorm"
  bottom: "fc7"
  top: "fc7"
}
layer {
  name: "scale7"
  type: "Scale"
  bottom: "fc7"
  top: "fc7"
  scale_param {
    bias_term: true
  }
}
layer {
  name: "relu7"
  type: "ReLU"
  bottom: "fc7"
  top: "fc7"
}
layer {
  name: "drop7"
  type: "Dropout"
  bottom: "fc7"
  top: "fc7"
  dropout_param {
    dropout_ratio: 0.5
  }
}
layer {
  name: "quantized_conv1"
  type: "Quantization"
  bottom: "fc7"
  top: "fc7"
  quantization_param {
    round_method: ROUND
    round_strategy: AGGRESSIVE
    bit_width: 4
    range: 0
    range: 7.5598521
  }
}
layer {
  name: "fc8"
  type: "QuanInnerProduct"
  bottom: "fc7"
  top: "fc8"
  param {
    lr_mult: 1
    decay_mult: 1
  }
  param {
    lr_mult: 2
    decay_mult: 0
  }
  quan_inner_product_param {
    num_output: 1000
    weight_filler {
      type: "gaussian"
      std: 0.01
    }
    bias_filler {
      type: "constant"
      value: 0
    }
    round_method: ROUND
    round_strategy: NEUTRAL
    bit_width: 8
    range_low: -0.141857
    range_high: 0.274249
  }
}
layer {
  name: "accuracy"
  type: "Accuracy"
  bottom: "fc8"
  bottom: "label"
  top: "accuracy"
  include {
    phase: TEST
  }
}
layer {
  name: "accuracy_5"
  type: "Accuracy"
  bottom: "fc8"
  bottom: "label"
  top: "accuracy_5"
  include {
    phase: TEST
  }
  accuracy_param {
    top_k: 5
  }
}
layer {
  name: "loss"
  type: "SoftmaxWithLoss"
  bottom: "fc8"
  bottom: "label"
  top: "loss"
}
I0113 14:03:17.860927 101223 layer_factory.hpp:77] Creating layer data
I0113 14:03:17.861053 101223 db_lmdb.cpp:35] Opened lmdb /home/DATA/imagenet_resize/lmdb_resize/ilsvrc12_val_lmdb
I0113 14:03:17.861088 101223 net.cpp:84] Creating Layer data
I0113 14:03:17.861102 101223 net.cpp:380] data -> data
I0113 14:03:17.861117 101223 net.cpp:380] data -> label
I0113 14:03:17.861498 101223 data_layer.cpp:45] output data size: 200,3,224,224
I0113 14:03:18.267788 101223 net.cpp:122] Setting up data
I0113 14:03:18.267866 101223 net.cpp:129] Top shape: 200 3 224 224 (30105600)
I0113 14:03:18.267880 101223 net.cpp:129] Top shape: 200 (200)
I0113 14:03:18.267887 101223 net.cpp:137] Memory required for data: 120423200
I0113 14:03:18.267897 101223 layer_factory.hpp:77] Creating layer label_data_1_split
I0113 14:03:18.267938 101223 net.cpp:84] Creating Layer label_data_1_split
I0113 14:03:18.267947 101223 net.cpp:406] label_data_1_split <- label
I0113 14:03:18.267977 101223 net.cpp:380] label_data_1_split -> label_data_1_split_0
I0113 14:03:18.267998 101223 net.cpp:380] label_data_1_split -> label_data_1_split_1
I0113 14:03:18.268009 101223 net.cpp:380] label_data_1_split -> label_data_1_split_2
I0113 14:03:18.268338 101223 net.cpp:122] Setting up label_data_1_split
I0113 14:03:18.268420 101223 net.cpp:129] Top shape: 200 (200)
I0113 14:03:18.268436 101223 net.cpp:129] Top shape: 200 (200)
I0113 14:03:18.268466 101223 net.cpp:129] Top shape: 200 (200)
I0113 14:03:18.268474 101223 net.cpp:137] Memory required for data: 120425600
I0113 14:03:18.268482 101223 layer_factory.hpp:77] Creating layer conv1
I0113 14:03:18.268514 101223 net.cpp:84] Creating Layer conv1
I0113 14:03:18.268523 101223 net.cpp:406] conv1 <- data
I0113 14:03:18.268538 101223 net.cpp:380] conv1 -> conv1
ydwu=======get:
bit_width=8;  round_method=0;  round_strategy=1;  is_runtime=0;  range_low=-0.872089;  range_high=0.927025
I0113 14:03:18.270531 101223 net.cpp:122] Setting up conv1
I0113 14:03:18.270582 101223 net.cpp:129] Top shape: 200 96 55 55 (58080000)
I0113 14:03:18.270596 101223 net.cpp:137] Memory required for data: 352745600
I0113 14:03:18.270654 101223 layer_factory.hpp:77] Creating layer bn1
I0113 14:03:18.270673 101223 net.cpp:84] Creating Layer bn1
I0113 14:03:18.270684 101223 net.cpp:406] bn1 <- conv1
I0113 14:03:18.270694 101223 net.cpp:367] bn1 -> conv1 (in-place)
I0113 14:03:18.289141 101223 net.cpp:122] Setting up bn1
I0113 14:03:18.289177 101223 net.cpp:129] Top shape: 200 96 55 55 (58080000)
I0113 14:03:18.289186 101223 net.cpp:137] Memory required for data: 585065600
I0113 14:03:18.289212 101223 layer_factory.hpp:77] Creating layer scale1
I0113 14:03:18.289234 101223 net.cpp:84] Creating Layer scale1
I0113 14:03:18.289245 101223 net.cpp:406] scale1 <- conv1
I0113 14:03:18.289314 101223 net.cpp:367] scale1 -> conv1 (in-place)
I0113 14:03:18.289396 101223 layer_factory.hpp:77] Creating layer scale1
I0113 14:03:18.289615 101223 net.cpp:122] Setting up scale1
I0113 14:03:18.289636 101223 net.cpp:129] Top shape: 200 96 55 55 (58080000)
I0113 14:03:18.289649 101223 net.cpp:137] Memory required for data: 817385600
I0113 14:03:18.289676 101223 layer_factory.hpp:77] Creating layer relu1
I0113 14:03:18.289693 101223 net.cpp:84] Creating Layer relu1
I0113 14:03:18.289705 101223 net.cpp:406] relu1 <- conv1
I0113 14:03:18.289717 101223 net.cpp:367] relu1 -> conv1 (in-place)
I0113 14:03:18.289736 101223 net.cpp:122] Setting up relu1
I0113 14:03:18.289748 101223 net.cpp:129] Top shape: 200 96 55 55 (58080000)
I0113 14:03:18.289757 101223 net.cpp:137] Memory required for data: 1049705600
I0113 14:03:18.289763 101223 layer_factory.hpp:77] Creating layer pool1
I0113 14:03:18.289780 101223 net.cpp:84] Creating Layer pool1
I0113 14:03:18.289790 101223 net.cpp:406] pool1 <- conv1
I0113 14:03:18.289803 101223 net.cpp:380] pool1 -> pool1
I0113 14:03:18.289903 101223 net.cpp:122] Setting up pool1
I0113 14:03:18.289933 101223 net.cpp:129] Top shape: 200 96 27 27 (13996800)
I0113 14:03:18.289942 101223 net.cpp:137] Memory required for data: 1105692800
I0113 14:03:18.289952 101223 layer_factory.hpp:77] Creating layer quantized_conv1
I0113 14:03:18.289968 101223 net.cpp:84] Creating Layer quantized_conv1
I0113 14:03:18.289989 101223 net.cpp:406] quantized_conv1 <- pool1
I0113 14:03:18.290004 101223 net.cpp:367] quantized_conv1 -> pool1 (in-place)
I0113 14:03:18.290019 101223 net.cpp:122] Setting up quantized_conv1
I0113 14:03:18.290029 101223 net.cpp:129] Top shape: 200 96 27 27 (13996800)
I0113 14:03:18.290036 101223 net.cpp:137] Memory required for data: 1161680000
I0113 14:03:18.290058 101223 layer_factory.hpp:77] Creating layer conv2
I0113 14:03:18.290081 101223 net.cpp:84] Creating Layer conv2
I0113 14:03:18.290091 101223 net.cpp:406] conv2 <- pool1
I0113 14:03:18.290107 101223 net.cpp:380] conv2 -> conv2
ydwu=======get:
bit_width=8;  round_method=0;  round_strategy=1;  is_runtime=0;  range_low=-0.806018;  range_high=1.5182
I0113 14:03:18.304314 101223 net.cpp:122] Setting up conv2
I0113 14:03:18.304345 101223 net.cpp:129] Top shape: 200 256 27 27 (37324800)
I0113 14:03:18.304355 101223 net.cpp:137] Memory required for data: 1310979200
I0113 14:03:18.304381 101223 layer_factory.hpp:77] Creating layer bn2
I0113 14:03:18.304401 101223 net.cpp:84] Creating Layer bn2
I0113 14:03:18.304414 101223 net.cpp:406] bn2 <- conv2
I0113 14:03:18.304428 101223 net.cpp:367] bn2 -> conv2 (in-place)
I0113 14:03:18.304699 101223 net.cpp:122] Setting up bn2
I0113 14:03:18.304718 101223 net.cpp:129] Top shape: 200 256 27 27 (37324800)
I0113 14:03:18.304728 101223 net.cpp:137] Memory required for data: 1460278400
I0113 14:03:18.304744 101223 layer_factory.hpp:77] Creating layer scale2
I0113 14:03:18.304760 101223 net.cpp:84] Creating Layer scale2
I0113 14:03:18.304770 101223 net.cpp:406] scale2 <- conv2
I0113 14:03:18.304785 101223 net.cpp:367] scale2 -> conv2 (in-place)
I0113 14:03:18.304857 101223 layer_factory.hpp:77] Creating layer scale2
I0113 14:03:18.305023 101223 net.cpp:122] Setting up scale2
I0113 14:03:18.305042 101223 net.cpp:129] Top shape: 200 256 27 27 (37324800)
I0113 14:03:18.305050 101223 net.cpp:137] Memory required for data: 1609577600
I0113 14:03:18.305064 101223 layer_factory.hpp:77] Creating layer relu2
I0113 14:03:18.305079 101223 net.cpp:84] Creating Layer relu2
I0113 14:03:18.305089 101223 net.cpp:406] relu2 <- conv2
I0113 14:03:18.305102 101223 net.cpp:367] relu2 -> conv2 (in-place)
I0113 14:03:18.305116 101223 net.cpp:122] Setting up relu2
I0113 14:03:18.305127 101223 net.cpp:129] Top shape: 200 256 27 27 (37324800)
I0113 14:03:18.305136 101223 net.cpp:137] Memory required for data: 1758876800
I0113 14:03:18.305145 101223 layer_factory.hpp:77] Creating layer pool2
I0113 14:03:18.305160 101223 net.cpp:84] Creating Layer pool2
I0113 14:03:18.305169 101223 net.cpp:406] pool2 <- conv2
I0113 14:03:18.305183 101223 net.cpp:380] pool2 -> pool2
I0113 14:03:18.305249 101223 net.cpp:122] Setting up pool2
I0113 14:03:18.305308 101223 net.cpp:129] Top shape: 200 256 13 13 (8652800)
I0113 14:03:18.305318 101223 net.cpp:137] Memory required for data: 1793488000
I0113 14:03:18.305328 101223 layer_factory.hpp:77] Creating layer quantized_conv1
I0113 14:03:18.305344 101223 net.cpp:84] Creating Layer quantized_conv1
I0113 14:03:18.305354 101223 net.cpp:406] quantized_conv1 <- pool2
I0113 14:03:18.305367 101223 net.cpp:367] quantized_conv1 -> pool2 (in-place)
I0113 14:03:18.305382 101223 net.cpp:122] Setting up quantized_conv1
I0113 14:03:18.305393 101223 net.cpp:129] Top shape: 200 256 13 13 (8652800)
I0113 14:03:18.305402 101223 net.cpp:137] Memory required for data: 1828099200
I0113 14:03:18.305411 101223 layer_factory.hpp:77] Creating layer conv3
I0113 14:03:18.305429 101223 net.cpp:84] Creating Layer conv3
I0113 14:03:18.305438 101223 net.cpp:406] conv3 <- pool2
I0113 14:03:18.305452 101223 net.cpp:380] conv3 -> conv3
ydwu=======get:
bit_width=8;  round_method=0;  round_strategy=1;  is_runtime=0;  range_low=-0.621858;  range_high=0.673858
I0113 14:03:18.324232 101223 net.cpp:122] Setting up conv3
I0113 14:03:18.324268 101223 net.cpp:129] Top shape: 200 384 13 13 (12979200)
I0113 14:03:18.324278 101223 net.cpp:137] Memory required for data: 1880016000
I0113 14:03:18.324296 101223 layer_factory.hpp:77] Creating layer bn3
I0113 14:03:18.324317 101223 net.cpp:84] Creating Layer bn3
I0113 14:03:18.324326 101223 net.cpp:406] bn3 <- conv3
I0113 14:03:18.324343 101223 net.cpp:367] bn3 -> conv3 (in-place)
I0113 14:03:18.324607 101223 net.cpp:122] Setting up bn3
I0113 14:03:18.324625 101223 net.cpp:129] Top shape: 200 384 13 13 (12979200)
I0113 14:03:18.324632 101223 net.cpp:137] Memory required for data: 1931932800
I0113 14:03:18.324656 101223 layer_factory.hpp:77] Creating layer scale3
I0113 14:03:18.324681 101223 net.cpp:84] Creating Layer scale3
I0113 14:03:18.324692 101223 net.cpp:406] scale3 <- conv3
I0113 14:03:18.324700 101223 net.cpp:367] scale3 -> conv3 (in-place)
I0113 14:03:18.324796 101223 layer_factory.hpp:77] Creating layer scale3
I0113 14:03:18.324961 101223 net.cpp:122] Setting up scale3
I0113 14:03:18.324980 101223 net.cpp:129] Top shape: 200 384 13 13 (12979200)
I0113 14:03:18.324988 101223 net.cpp:137] Memory required for data: 1983849600
I0113 14:03:18.325000 101223 layer_factory.hpp:77] Creating layer relu3
I0113 14:03:18.325011 101223 net.cpp:84] Creating Layer relu3
I0113 14:03:18.325021 101223 net.cpp:406] relu3 <- conv3
I0113 14:03:18.325033 101223 net.cpp:367] relu3 -> conv3 (in-place)
I0113 14:03:18.325047 101223 net.cpp:122] Setting up relu3
I0113 14:03:18.325058 101223 net.cpp:129] Top shape: 200 384 13 13 (12979200)
I0113 14:03:18.325067 101223 net.cpp:137] Memory required for data: 2035766400
I0113 14:03:18.325076 101223 layer_factory.hpp:77] Creating layer quantized_conv1
I0113 14:03:18.325090 101223 net.cpp:84] Creating Layer quantized_conv1
I0113 14:03:18.325099 101223 net.cpp:406] quantized_conv1 <- conv3
I0113 14:03:18.325111 101223 net.cpp:367] quantized_conv1 -> conv3 (in-place)
I0113 14:03:18.325125 101223 net.cpp:122] Setting up quantized_conv1
I0113 14:03:18.325136 101223 net.cpp:129] Top shape: 200 384 13 13 (12979200)
I0113 14:03:18.325145 101223 net.cpp:137] Memory required for data: 2087683200
I0113 14:03:18.325153 101223 layer_factory.hpp:77] Creating layer conv4
I0113 14:03:18.325173 101223 net.cpp:84] Creating Layer conv4
I0113 14:03:18.325182 101223 net.cpp:406] conv4 <- conv3
I0113 14:03:18.325196 101223 net.cpp:380] conv4 -> conv4
ydwu=======get:
bit_width=8;  round_method=0;  round_strategy=1;  is_runtime=0;  range_low=-0.376634;  range_high=0.341829
I0113 14:03:18.350721 101223 net.cpp:122] Setting up conv4
I0113 14:03:18.350757 101223 net.cpp:129] Top shape: 200 384 13 13 (12979200)
I0113 14:03:18.350766 101223 net.cpp:137] Memory required for data: 2139600000
I0113 14:03:18.350782 101223 layer_factory.hpp:77] Creating layer bn4
I0113 14:03:18.350802 101223 net.cpp:84] Creating Layer bn4
I0113 14:03:18.350814 101223 net.cpp:406] bn4 <- conv4
I0113 14:03:18.350837 101223 net.cpp:367] bn4 -> conv4 (in-place)
I0113 14:03:18.351083 101223 net.cpp:122] Setting up bn4
I0113 14:03:18.351096 101223 net.cpp:129] Top shape: 200 384 13 13 (12979200)
I0113 14:03:18.351102 101223 net.cpp:137] Memory required for data: 2191516800
I0113 14:03:18.351166 101223 layer_factory.hpp:77] Creating layer scale4
I0113 14:03:18.351179 101223 net.cpp:84] Creating Layer scale4
I0113 14:03:18.351188 101223 net.cpp:406] scale4 <- conv4
I0113 14:03:18.351198 101223 net.cpp:367] scale4 -> conv4 (in-place)
I0113 14:03:18.351269 101223 layer_factory.hpp:77] Creating layer scale4
I0113 14:03:18.351421 101223 net.cpp:122] Setting up scale4
I0113 14:03:18.351436 101223 net.cpp:129] Top shape: 200 384 13 13 (12979200)
I0113 14:03:18.351444 101223 net.cpp:137] Memory required for data: 2243433600
I0113 14:03:18.351456 101223 layer_factory.hpp:77] Creating layer relu4
I0113 14:03:18.351469 101223 net.cpp:84] Creating Layer relu4
I0113 14:03:18.351475 101223 net.cpp:406] relu4 <- conv4
I0113 14:03:18.351485 101223 net.cpp:367] relu4 -> conv4 (in-place)
I0113 14:03:18.351498 101223 net.cpp:122] Setting up relu4
I0113 14:03:18.351507 101223 net.cpp:129] Top shape: 200 384 13 13 (12979200)
I0113 14:03:18.351513 101223 net.cpp:137] Memory required for data: 2295350400
I0113 14:03:18.351518 101223 layer_factory.hpp:77] Creating layer quantized_conv1
I0113 14:03:18.351529 101223 net.cpp:84] Creating Layer quantized_conv1
I0113 14:03:18.351537 101223 net.cpp:406] quantized_conv1 <- conv4
I0113 14:03:18.351547 101223 net.cpp:367] quantized_conv1 -> conv4 (in-place)
I0113 14:03:18.351562 101223 net.cpp:122] Setting up quantized_conv1
I0113 14:03:18.351572 101223 net.cpp:129] Top shape: 200 384 13 13 (12979200)
I0113 14:03:18.351579 101223 net.cpp:137] Memory required for data: 2347267200
I0113 14:03:18.351588 101223 layer_factory.hpp:77] Creating layer conv5
I0113 14:03:18.351605 101223 net.cpp:84] Creating Layer conv5
I0113 14:03:18.351616 101223 net.cpp:406] conv5 <- conv4
I0113 14:03:18.351629 101223 net.cpp:380] conv5 -> conv5
ydwu=======get:
bit_width=8;  round_method=0;  round_strategy=1;  is_runtime=0;  range_low=-0.347658;  range_high=0.330042
I0113 14:03:18.367733 101223 net.cpp:122] Setting up conv5
I0113 14:03:18.367765 101223 net.cpp:129] Top shape: 200 256 13 13 (8652800)
I0113 14:03:18.367774 101223 net.cpp:137] Memory required for data: 2381878400
I0113 14:03:18.367794 101223 layer_factory.hpp:77] Creating layer bn5
I0113 14:03:18.367816 101223 net.cpp:84] Creating Layer bn5
I0113 14:03:18.367826 101223 net.cpp:406] bn5 <- conv5
I0113 14:03:18.367841 101223 net.cpp:367] bn5 -> conv5 (in-place)
I0113 14:03:18.368079 101223 net.cpp:122] Setting up bn5
I0113 14:03:18.368093 101223 net.cpp:129] Top shape: 200 256 13 13 (8652800)
I0113 14:03:18.368101 101223 net.cpp:137] Memory required for data: 2416489600
I0113 14:03:18.368144 101223 layer_factory.hpp:77] Creating layer scale5
I0113 14:03:18.368160 101223 net.cpp:84] Creating Layer scale5
I0113 14:03:18.368167 101223 net.cpp:406] scale5 <- conv5
I0113 14:03:18.368178 101223 net.cpp:367] scale5 -> conv5 (in-place)
I0113 14:03:18.368248 101223 layer_factory.hpp:77] Creating layer scale5
I0113 14:03:18.368388 101223 net.cpp:122] Setting up scale5
I0113 14:03:18.368403 101223 net.cpp:129] Top shape: 200 256 13 13 (8652800)
I0113 14:03:18.368412 101223 net.cpp:137] Memory required for data: 2451100800
I0113 14:03:18.368422 101223 layer_factory.hpp:77] Creating layer relu5
I0113 14:03:18.368434 101223 net.cpp:84] Creating Layer relu5
I0113 14:03:18.368443 101223 net.cpp:406] relu5 <- conv5
I0113 14:03:18.368451 101223 net.cpp:367] relu5 -> conv5 (in-place)
I0113 14:03:18.368469 101223 net.cpp:122] Setting up relu5
I0113 14:03:18.368479 101223 net.cpp:129] Top shape: 200 256 13 13 (8652800)
I0113 14:03:18.368487 101223 net.cpp:137] Memory required for data: 2485712000
I0113 14:03:18.368494 101223 layer_factory.hpp:77] Creating layer pool5
I0113 14:03:18.368507 101223 net.cpp:84] Creating Layer pool5
I0113 14:03:18.368515 101223 net.cpp:406] pool5 <- conv5
I0113 14:03:18.368525 101223 net.cpp:380] pool5 -> pool5
I0113 14:03:18.368582 101223 net.cpp:122] Setting up pool5
I0113 14:03:18.368595 101223 net.cpp:129] Top shape: 200 256 6 6 (1843200)
I0113 14:03:18.368603 101223 net.cpp:137] Memory required for data: 2493084800
I0113 14:03:18.368610 101223 layer_factory.hpp:77] Creating layer quantized_conv1
I0113 14:03:18.368623 101223 net.cpp:84] Creating Layer quantized_conv1
I0113 14:03:18.368674 101223 net.cpp:406] quantized_conv1 <- pool5
I0113 14:03:18.368688 101223 net.cpp:367] quantized_conv1 -> pool5 (in-place)
I0113 14:03:18.368702 101223 net.cpp:122] Setting up quantized_conv1
I0113 14:03:18.368712 101223 net.cpp:129] Top shape: 200 256 6 6 (1843200)
I0113 14:03:18.368721 101223 net.cpp:137] Memory required for data: 2500457600
I0113 14:03:18.368728 101223 layer_factory.hpp:77] Creating layer fc6
I0113 14:03:18.368741 101223 net.cpp:84] Creating Layer fc6
I0113 14:03:18.368749 101223 net.cpp:406] fc6 <- pool5
I0113 14:03:18.368760 101223 net.cpp:380] fc6 -> fc6
I0113 14:03:18.368773 101223 quan_inner_product_layer.cpp:21] 4096   4096
ydwu=======get:
bit_width=8;  round_method=0;  round_strategy=1;  is_runtime=0;  range_low=-0.160061;  range_high=0.148064
I0113 14:03:18.963234 101223 net.cpp:122] Setting up fc6
I0113 14:03:18.963274 101223 net.cpp:129] Top shape: 200 4096 (819200)
I0113 14:03:18.963279 101223 net.cpp:137] Memory required for data: 2503734400
I0113 14:03:18.963297 101223 layer_factory.hpp:77] Creating layer bn6
I0113 14:03:18.963315 101223 net.cpp:84] Creating Layer bn6
I0113 14:03:18.963323 101223 net.cpp:406] bn6 <- fc6
I0113 14:03:18.963335 101223 net.cpp:367] bn6 -> fc6 (in-place)
I0113 14:03:18.963559 101223 net.cpp:122] Setting up bn6
I0113 14:03:18.963572 101223 net.cpp:129] Top shape: 200 4096 (819200)
I0113 14:03:18.963577 101223 net.cpp:137] Memory required for data: 2507011200
I0113 14:03:18.963588 101223 layer_factory.hpp:77] Creating layer scale6
I0113 14:03:18.963608 101223 net.cpp:84] Creating Layer scale6
I0113 14:03:18.963615 101223 net.cpp:406] scale6 <- fc6
I0113 14:03:18.963624 101223 net.cpp:367] scale6 -> fc6 (in-place)
I0113 14:03:18.963680 101223 layer_factory.hpp:77] Creating layer scale6
I0113 14:03:18.963817 101223 net.cpp:122] Setting up scale6
I0113 14:03:18.963830 101223 net.cpp:129] Top shape: 200 4096 (819200)
I0113 14:03:18.963835 101223 net.cpp:137] Memory required for data: 2510288000
I0113 14:03:18.963845 101223 layer_factory.hpp:77] Creating layer relu6
I0113 14:03:18.963853 101223 net.cpp:84] Creating Layer relu6
I0113 14:03:18.963860 101223 net.cpp:406] relu6 <- fc6
I0113 14:03:18.963872 101223 net.cpp:367] relu6 -> fc6 (in-place)
I0113 14:03:18.963882 101223 net.cpp:122] Setting up relu6
I0113 14:03:18.963891 101223 net.cpp:129] Top shape: 200 4096 (819200)
I0113 14:03:18.963897 101223 net.cpp:137] Memory required for data: 2513564800
I0113 14:03:18.963904 101223 layer_factory.hpp:77] Creating layer drop6
I0113 14:03:18.963914 101223 net.cpp:84] Creating Layer drop6
I0113 14:03:18.963922 101223 net.cpp:406] drop6 <- fc6
I0113 14:03:18.963930 101223 net.cpp:367] drop6 -> fc6 (in-place)
I0113 14:03:18.963964 101223 net.cpp:122] Setting up drop6
I0113 14:03:18.963975 101223 net.cpp:129] Top shape: 200 4096 (819200)
I0113 14:03:18.963981 101223 net.cpp:137] Memory required for data: 2516841600
I0113 14:03:18.963989 101223 layer_factory.hpp:77] Creating layer quantized_conv1
I0113 14:03:18.964009 101223 net.cpp:84] Creating Layer quantized_conv1
I0113 14:03:18.964015 101223 net.cpp:406] quantized_conv1 <- fc6
I0113 14:03:18.964025 101223 net.cpp:367] quantized_conv1 -> fc6 (in-place)
I0113 14:03:18.964035 101223 net.cpp:122] Setting up quantized_conv1
I0113 14:03:18.964043 101223 net.cpp:129] Top shape: 200 4096 (819200)
I0113 14:03:18.964049 101223 net.cpp:137] Memory required for data: 2520118400
I0113 14:03:18.964056 101223 layer_factory.hpp:77] Creating layer fc7
I0113 14:03:18.964069 101223 net.cpp:84] Creating Layer fc7
I0113 14:03:18.964076 101223 net.cpp:406] fc7 <- fc6
I0113 14:03:18.964088 101223 net.cpp:380] fc7 -> fc7
I0113 14:03:18.964100 101223 quan_inner_product_layer.cpp:21] 4096   4096
ydwu=======get:
bit_width=8;  round_method=0;  round_strategy=1;  is_runtime=0;  range_low=-0.162636;  range_high=0.197684
I0113 14:03:19.222815 101223 net.cpp:122] Setting up fc7
I0113 14:03:19.222859 101223 net.cpp:129] Top shape: 200 4096 (819200)
I0113 14:03:19.222864 101223 net.cpp:137] Memory required for data: 2523395200
I0113 14:03:19.222882 101223 layer_factory.hpp:77] Creating layer bn7
I0113 14:03:19.222900 101223 net.cpp:84] Creating Layer bn7
I0113 14:03:19.222910 101223 net.cpp:406] bn7 <- fc7
I0113 14:03:19.222923 101223 net.cpp:367] bn7 -> fc7 (in-place)
I0113 14:03:19.223206 101223 net.cpp:122] Setting up bn7
I0113 14:03:19.223219 101223 net.cpp:129] Top shape: 200 4096 (819200)
I0113 14:03:19.223224 101223 net.cpp:137] Memory required for data: 2526672000
I0113 14:03:19.223235 101223 layer_factory.hpp:77] Creating layer scale7
I0113 14:03:19.223245 101223 net.cpp:84] Creating Layer scale7
I0113 14:03:19.223250 101223 net.cpp:406] scale7 <- fc7
I0113 14:03:19.223261 101223 net.cpp:367] scale7 -> fc7 (in-place)
I0113 14:03:19.223318 101223 layer_factory.hpp:77] Creating layer scale7
I0113 14:03:19.223460 101223 net.cpp:122] Setting up scale7
I0113 14:03:19.223474 101223 net.cpp:129] Top shape: 200 4096 (819200)
I0113 14:03:19.223479 101223 net.cpp:137] Memory required for data: 2529948800
I0113 14:03:19.223487 101223 layer_factory.hpp:77] Creating layer relu7
I0113 14:03:19.223495 101223 net.cpp:84] Creating Layer relu7
I0113 14:03:19.223501 101223 net.cpp:406] relu7 <- fc7
I0113 14:03:19.223510 101223 net.cpp:367] relu7 -> fc7 (in-place)
I0113 14:03:19.223522 101223 net.cpp:122] Setting up relu7
I0113 14:03:19.223531 101223 net.cpp:129] Top shape: 200 4096 (819200)
I0113 14:03:19.223538 101223 net.cpp:137] Memory required for data: 2533225600
I0113 14:03:19.223546 101223 layer_factory.hpp:77] Creating layer drop7
I0113 14:03:19.223556 101223 net.cpp:84] Creating Layer drop7
I0113 14:03:19.223563 101223 net.cpp:406] drop7 <- fc7
I0113 14:03:19.223570 101223 net.cpp:367] drop7 -> fc7 (in-place)
I0113 14:03:19.223603 101223 net.cpp:122] Setting up drop7
I0113 14:03:19.223613 101223 net.cpp:129] Top shape: 200 4096 (819200)
I0113 14:03:19.223618 101223 net.cpp:137] Memory required for data: 2536502400
I0113 14:03:19.223623 101223 layer_factory.hpp:77] Creating layer quantized_conv1
I0113 14:03:19.223634 101223 net.cpp:84] Creating Layer quantized_conv1
I0113 14:03:19.223639 101223 net.cpp:406] quantized_conv1 <- fc7
I0113 14:03:19.223644 101223 net.cpp:367] quantized_conv1 -> fc7 (in-place)
I0113 14:03:19.223654 101223 net.cpp:122] Setting up quantized_conv1
I0113 14:03:19.223661 101223 net.cpp:129] Top shape: 200 4096 (819200)
I0113 14:03:19.223668 101223 net.cpp:137] Memory required for data: 2539779200
I0113 14:03:19.223673 101223 layer_factory.hpp:77] Creating layer fc8
I0113 14:03:19.223685 101223 net.cpp:84] Creating Layer fc8
I0113 14:03:19.223692 101223 net.cpp:406] fc8 <- fc7
I0113 14:03:19.223702 101223 net.cpp:380] fc8 -> fc8
I0113 14:03:19.223716 101223 quan_inner_product_layer.cpp:21] 1000   1000
ydwu=======get:
bit_width=8;  round_method=0;  round_strategy=1;  is_runtime=0;  range_low=-0.141857;  range_high=0.274249
I0113 14:03:19.286067 101223 net.cpp:122] Setting up fc8
I0113 14:03:19.286099 101223 net.cpp:129] Top shape: 200 1000 (200000)
I0113 14:03:19.286105 101223 net.cpp:137] Memory required for data: 2540579200
I0113 14:03:19.286119 101223 layer_factory.hpp:77] Creating layer fc8_fc8_0_split
I0113 14:03:19.286134 101223 net.cpp:84] Creating Layer fc8_fc8_0_split
I0113 14:03:19.286144 101223 net.cpp:406] fc8_fc8_0_split <- fc8
I0113 14:03:19.286157 101223 net.cpp:380] fc8_fc8_0_split -> fc8_fc8_0_split_0
I0113 14:03:19.286180 101223 net.cpp:380] fc8_fc8_0_split -> fc8_fc8_0_split_1
I0113 14:03:19.286191 101223 net.cpp:380] fc8_fc8_0_split -> fc8_fc8_0_split_2
I0113 14:03:19.286268 101223 net.cpp:122] Setting up fc8_fc8_0_split
I0113 14:03:19.286289 101223 net.cpp:129] Top shape: 200 1000 (200000)
I0113 14:03:19.286296 101223 net.cpp:129] Top shape: 200 1000 (200000)
I0113 14:03:19.286303 101223 net.cpp:129] Top shape: 200 1000 (200000)
I0113 14:03:19.286306 101223 net.cpp:137] Memory required for data: 2542979200
I0113 14:03:19.286312 101223 layer_factory.hpp:77] Creating layer accuracy
I0113 14:03:19.286324 101223 net.cpp:84] Creating Layer accuracy
I0113 14:03:19.286329 101223 net.cpp:406] accuracy <- fc8_fc8_0_split_0
I0113 14:03:19.286335 101223 net.cpp:406] accuracy <- label_data_1_split_0
I0113 14:03:19.286348 101223 net.cpp:380] accuracy -> accuracy
…
