…
I0112 16:27:32.009466 63531 net.cpp:294] The NetState phase (0) differed from the phase (1) specified by a rule in layer accuracy_5
I0112 16:27:32.009869 63531 net.cpp:51] Initializing net from parameters: 
name: "AlexNet-BN"
state {
  phase: TRAIN
  level: 0
  stage: ""
}
layer {
  name: "data"
  type: "Data"
  top: "data"
  top: "label"
  include {
    phase: TRAIN
  }
  transform_param {
    mirror: true
    crop_size: 224
    mean_value: 103.939
    mean_value: 116.779
    mean_value: 123.68
  }
  data_param {
    source: "/home/DATA/imagenet_resize/lmdb_resize/ilsvrc12_train_lmdb"
    batch_size: 200
    backend: LMDB
  }
}
layer {
  name: "conv1"
  type: "QuanConvolution"
  bottom: "data"
  top: "conv1"
  param {
    lr_mult: 1
    decay_mult: 1
  }
  param {
    lr_mult: 2
    decay_mult: 0
  }
  quan_convolution_param {
    num_output: 96
    pad: 2
    kernel_size: 11
    stride: 4
    weight_filler {
      type: "gaussian"
      std: 0.01
    }
    bias_filler {
      type: "constant"
      value: 0
    }
    round_method: ROUND
    round_strategy: NEUTRAL
    bit_width: 8
    range_low: -0.872089
    range_high: 0.927025
  }
}
layer {
  name: "bn1"
  type: "BatchNorm"
  bottom: "conv1"
  top: "conv1"
}
layer {
  name: "scale1"
  type: "Scale"
  bottom: "conv1"
  top: "conv1"
  scale_param {
    bias_term: true
  }
}
layer {
  name: "relu1"
  type: "ReLU"
  bottom: "conv1"
  top: "conv1"
}
layer {
  name: "pool1"
  type: "Pooling"
  bottom: "conv1"
  top: "pool1"
  pooling_param {
    pool: MAX
    kernel_size: 3
    stride: 2
  }
}
layer {
  name: "quantized_conv1"
  type: "Quantization"
  bottom: "pool1"
  top: "pool1"
  quantization_param {
    round_method: ROUND
    round_strategy: AGGRESSIVE
    bit_width: 4
    range: 0
    range: 13.965383
  }
}
layer {
  name: "conv2"
  type: "QuanConvolution"
  bottom: "pool1"
  top: "conv2"
  param {
    lr_mult: 1
    decay_mult: 1
  }
  param {
    lr_mult: 2
    decay_mult: 0
  }
  quan_convolution_param {
    num_output: 256
    pad: 2
    kernel_size: 5
    weight_filler {
      type: "gaussian"
      std: 0.01
    }
    bias_filler {
      type: "constant"
      value: 0.1
    }
    round_method: ROUND
    round_strategy: NEUTRAL
    bit_width: 8
    range_low: -0.806018
    range_high: 1.5182
  }
}
layer {
  name: "bn2"
  type: "BatchNorm"
  bottom: "conv2"
  top: "conv2"
}
layer {
  name: "scale2"
  type: "Scale"
  bottom: "conv2"
  top: "conv2"
  scale_param {
    bias_term: true
  }
}
layer {
  name: "relu2"
  type: "ReLU"
  bottom: "conv2"
  top: "conv2"
}
layer {
  name: "pool2"
  type: "Pooling"
  bottom: "conv2"
  top: "pool2"
  pooling_param {
    pool: MAX
    kernel_size: 3
    stride: 2
  }
}
layer {
  name: "quantized_conv1"
  type: "Quantization"
  bottom: "pool2"
  top: "pool2"
  quantization_param {
    round_method: ROUND
    round_strategy: AGGRESSIVE
    bit_width: 4
    range: 0
    range: 6.74956
  }
}
layer {
  name: "conv3"
  type: "QuanConvolution"
  bottom: "pool2"
  top: "conv3"
  param {
    lr_mult: 1
    decay_mult: 1
  }
  param {
    lr_mult: 2
    decay_mult: 0
  }
  quan_convolution_param {
    num_output: 384
    pad: 1
    kernel_size: 3
    weight_filler {
      type: "gaussian"
      std: 0.01
    }
    bias_filler {
      type: "constant"
      value: 0
    }
    round_method: ROUND
    round_strategy: NEUTRAL
    bit_width: 8
    range_low: -0.621858
    range_high: 0.673858
  }
}
layer {
  name: "bn3"
  type: "BatchNorm"
  bottom: "conv3"
  top: "conv3"
}
layer {
  name: "scale3"
  type: "Scale"
  bottom: "conv3"
  top: "conv3"
  scale_param {
    bias_term: true
  }
}
layer {
  name: "relu3"
  type: "ReLU"
  bottom: "conv3"
  top: "conv3"
}
layer {
  name: "quantized_conv1"
  type: "Quantization"
  bottom: "conv3"
  top: "conv3"
  quantization_param {
    round_method: ROUND
    round_strategy: AGGRESSIVE
    bit_width: 4
    range: 0
    range: 8.48454
  }
}
layer {
  name: "conv4"
  type: "QuanConvolution"
  bottom: "conv3"
  top: "conv4"
  param {
    lr_mult: 1
    decay_mult: 1
  }
  param {
    lr_mult: 2
    decay_mult: 0
  }
  quan_convolution_param {
    num_output: 384
    pad: 1
    kernel_size: 3
    weight_filler {
      type: "gaussian"
      std: 0.01
    }
    bias_filler {
      type: "constant"
      value: 0.1
    }
    round_method: ROUND
    round_strategy: NEUTRAL
    bit_width: 8
    range_low: -0.376634
    range_high: 0.341829
  }
}
layer {
  name: "bn4"
  type: "BatchNorm"
  bottom: "conv4"
  top: "conv4"
}
layer {
  name: "scale4"
  type: "Scale"
  bottom: "conv4"
  top: "conv4"
  scale_param {
    bias_term: true
  }
}
layer {
  name: "relu4"
  type: "ReLU"
  bottom: "conv4"
  top: "conv4"
}
layer {
  name: "quantized_conv1"
  type: "Quantization"
  bottom: "conv4"
  top: "conv4"
  quantization_param {
    round_method: ROUND
    round_strategy: AGGRESSIVE
    bit_width: 4
    range: 0
    range: 7.3369722
  }
}
layer {
  name: "conv5"
  type: "QuanConvolution"
  bottom: "conv4"
  top: "conv5"
  param {
    lr_mult: 1
    decay_mult: 1
  }
  param {
    lr_mult: 2
    decay_mult: 0
  }
  quan_convolution_param {
    num_output: 256
    pad: 1
    kernel_size: 3
    weight_filler {
      type: "gaussian"
      std: 0.01
    }
    bias_filler {
      type: "constant"
      value: 0.1
    }
    round_method: ROUND
    round_strategy: NEUTRAL
    bit_width: 8
    range_low: -0.347658
    range_high: 0.330042
  }
}
layer {
  name: "bn5"
  type: "BatchNorm"
  bottom: "conv5"
  top: "conv5"
}
layer {
  name: "scale5"
  type: "Scale"
  bottom: "conv5"
  top: "conv5"
  scale_param {
    bias_term: true
  }
}
layer {
  name: "relu5"
  type: "ReLU"
  bottom: "conv5"
  top: "conv5"
}
layer {
  name: "pool5"
  type: "Pooling"
  bottom: "conv5"
  top: "pool5"
  pooling_param {
    pool: MAX
    kernel_size: 3
    stride: 2
  }
}
layer {
  name: "quantized_conv1"
  type: "Quantization"
  bottom: "pool5"
  top: "pool5"
  quantization_param {
    round_method: ROUND
    round_strategy: AGGRESSIVE
    bit_width: 4
    range: 0
    range: 8.7577133
  }
}
layer {
  name: "fc6"
  type: "QuanInnerProduct"
  bottom: "pool5"
  top: "fc6"
  param {
    lr_mult: 1
    decay_mult: 1
  }
  param {
    lr_mult: 2
    decay_mult: 0
  }
  quan_inner_product_param {
    num_output: 4096
    weight_filler {
      type: "gaussian"
      std: 0.005
    }
    bias_filler {
      type: "constant"
      value: 0.1
    }
    round_method: ROUND
    round_strategy: NEUTRAL
    bit_width: 8
    range_low: -0.160061
    range_high: 0.148064
  }
}
layer {
  name: "bn6"
  type: "BatchNorm"
  bottom: "fc6"
  top: "fc6"
}
layer {
  name: "scale6"
  type: "Scale"
  bottom: "fc6"
  top: "fc6"
  scale_param {
    bias_term: true
  }
}
layer {
  name: "relu6"
  type: "ReLU"
  bottom: "fc6"
  top: "fc6"
}
layer {
  name: "drop6"
  type: "Dropout"
  bottom: "fc6"
  top: "fc6"
  dropout_param {
    dropout_ratio: 0.5
  }
}
layer {
  name: "quantized_conv1"
  type: "Quantization"
  bottom: "fc6"
  top: "fc6"
  quantization_param {
    round_method: ROUND
    round_strategy: AGGRESSIVE
    bit_width: 4
    range: 0
    range: 1.659358
  }
}
layer {
  name: "fc7"
  type: "QuanInnerProduct"
  bottom: "fc6"
  top: "fc7"
  param {
    lr_mult: 1
    decay_mult: 1
  }
  param {
    lr_mult: 2
    decay_mult: 0
  }
  quan_inner_product_param {
    num_output: 4096
    weight_filler {
      type: "gaussian"
      std: 0.005
    }
    bias_filler {
      type: "constant"
      value: 0.1
    }
    round_method: ROUND
    round_strategy: NEUTRAL
    bit_width: 8
    range_low: -0.162636
    range_high: 0.197684
  }
}
layer {
  name: "bn7"
  type: "BatchNorm"
  bottom: "fc7"
  top: "fc7"
}
layer {
  name: "scale7"
  type: "Scale"
  bottom: "fc7"
  top: "fc7"
  scale_param {
    bias_term: true
  }
}
layer {
  name: "relu7"
  type: "ReLU"
  bottom: "fc7"
  top: "fc7"
}
layer {
  name: "drop7"
  type: "Dropout"
  bottom: "fc7"
  top: "fc7"
  dropout_param {
    dropout_ratio: 0.5
  }
}
layer {
  name: "quantized_conv1"
  type: "Quantization"
  bottom: "fc7"
  top: "fc7"
  quantization_param {
    round_method: ROUND
    round_strategy: AGGRESSIVE
    bit_width: 4
    range: 0
    range: 7.5598521
  }
}
layer {
  name: "fc8"
  type: "QuanInnerProduct"
  bottom: "fc7"
  top: "fc8"
  param {
    lr_mult: 1
    decay_mult: 1
  }
  param {
    lr_mult: 2
    decay_mult: 0
  }
  quan_inner_product_param {
    num_output: 1000
    weight_filler {
      type: "gaussian"
      std: 0.01
    }
    bias_filler {
      type: "constant"
      value: 0
    }
    round_method: ROUND
    round_strategy: NEUTRAL
    bit_width: 8
    range_low: -0.141857
    range_high: 0.274249
  }
}
layer {
  name: "accuracy_5_TRAIN"
  type: "Accuracy"
  bottom: "fc8"
  bottom: "label"
  top: "accuracy_5_TRAIN"
  include {
    phase: TRAIN
  }
  accuracy_param {
    top_k: 5
  }
}
layer {
  name: "loss"
  type: "SoftmaxWithLoss"
  bottom: "fc8"
  bottom: "label"
  top: "loss"
}
I0112 16:27:32.010175 63531 layer_factory.hpp:77] Creating layer data
I0112 16:27:32.010346 63531 db_lmdb.cpp:35] Opened lmdb /home/DATA/imagenet_resize/lmdb_resize/ilsvrc12_train_lmdb
I0112 16:27:32.010433 63531 net.cpp:84] Creating Layer data
I0112 16:27:32.010450 63531 net.cpp:380] data -> data
I0112 16:27:32.010480 63531 net.cpp:380] data -> label
I0112 16:27:32.012420 63531 data_layer.cpp:45] output data size: 200,3,224,224
I0112 16:27:32.382184 63531 net.cpp:122] Setting up data
I0112 16:27:32.382256 63531 net.cpp:129] Top shape: 200 3 224 224 (30105600)
I0112 16:27:32.382263 63531 net.cpp:129] Top shape: 200 (200)
I0112 16:27:32.382272 63531 net.cpp:137] Memory required for data: 120423200
I0112 16:27:32.382293 63531 layer_factory.hpp:77] Creating layer label_data_1_split
I0112 16:27:32.382328 63531 net.cpp:84] Creating Layer label_data_1_split
I0112 16:27:32.382338 63531 net.cpp:406] label_data_1_split <- label
I0112 16:27:32.382359 63531 net.cpp:380] label_data_1_split -> label_data_1_split_0
I0112 16:27:32.382380 63531 net.cpp:380] label_data_1_split -> label_data_1_split_1
I0112 16:27:32.382583 63531 net.cpp:122] Setting up label_data_1_split
I0112 16:27:32.382632 63531 net.cpp:129] Top shape: 200 (200)
I0112 16:27:32.382640 63531 net.cpp:129] Top shape: 200 (200)
I0112 16:27:32.382647 63531 net.cpp:137] Memory required for data: 120424800
I0112 16:27:32.382656 63531 layer_factory.hpp:77] Creating layer conv1
I0112 16:27:32.382696 63531 net.cpp:84] Creating Layer conv1
I0112 16:27:32.382705 63531 net.cpp:406] conv1 <- data
I0112 16:27:32.382720 63531 net.cpp:380] conv1 -> conv1
ydwu=======get:
bit_width=8;  round_method=0;  round_strategy=1;  is_runtime=0;  range_low=-0.872089;  range_high=0.927025
I0112 16:27:32.404783 63531 net.cpp:122] Setting up conv1
I0112 16:27:32.404842 63531 net.cpp:129] Top shape: 200 96 55 55 (58080000)
I0112 16:27:32.404853 63531 net.cpp:137] Memory required for data: 352744800
I0112 16:27:32.404907 63531 layer_factory.hpp:77] Creating layer bn1
I0112 16:27:32.404942 63531 net.cpp:84] Creating Layer bn1
I0112 16:27:32.404950 63531 net.cpp:406] bn1 <- conv1
I0112 16:27:32.404961 63531 net.cpp:367] bn1 -> conv1 (in-place)
I0112 16:27:32.405192 63531 net.cpp:122] Setting up bn1
I0112 16:27:32.405207 63531 net.cpp:129] Top shape: 200 96 55 55 (58080000)
I0112 16:27:32.405225 63531 net.cpp:137] Memory required for data: 585064800
I0112 16:27:32.405244 63531 layer_factory.hpp:77] Creating layer scale1
I0112 16:27:32.405269 63531 net.cpp:84] Creating Layer scale1
I0112 16:27:32.405277 63531 net.cpp:406] scale1 <- conv1
I0112 16:27:32.405341 63531 net.cpp:367] scale1 -> conv1 (in-place)
I0112 16:27:32.405429 63531 layer_factory.hpp:77] Creating layer scale1
I0112 16:27:32.405598 63531 net.cpp:122] Setting up scale1
I0112 16:27:32.405630 63531 net.cpp:129] Top shape: 200 96 55 55 (58080000)
I0112 16:27:32.405640 63531 net.cpp:137] Memory required for data: 817384800
I0112 16:27:32.405658 63531 layer_factory.hpp:77] Creating layer relu1
I0112 16:27:32.405676 63531 net.cpp:84] Creating Layer relu1
I0112 16:27:32.405697 63531 net.cpp:406] relu1 <- conv1
I0112 16:27:32.405711 63531 net.cpp:367] relu1 -> conv1 (in-place)
I0112 16:27:32.405725 63531 net.cpp:122] Setting up relu1
I0112 16:27:32.405737 63531 net.cpp:129] Top shape: 200 96 55 55 (58080000)
I0112 16:27:32.405855 63531 net.cpp:137] Memory required for data: 1049704800
I0112 16:27:32.405869 63531 layer_factory.hpp:77] Creating layer pool1
I0112 16:27:32.405889 63531 net.cpp:84] Creating Layer pool1
I0112 16:27:32.405900 63531 net.cpp:406] pool1 <- conv1
I0112 16:27:32.405915 63531 net.cpp:380] pool1 -> pool1
I0112 16:27:32.406023 63531 net.cpp:122] Setting up pool1
I0112 16:27:32.406052 63531 net.cpp:129] Top shape: 200 96 27 27 (13996800)
I0112 16:27:32.406064 63531 net.cpp:137] Memory required for data: 1105692000
I0112 16:27:32.406075 63531 layer_factory.hpp:77] Creating layer quantized_conv1
I0112 16:27:32.406095 63531 net.cpp:84] Creating Layer quantized_conv1
I0112 16:27:32.406106 63531 net.cpp:406] quantized_conv1 <- pool1
I0112 16:27:32.406123 63531 net.cpp:367] quantized_conv1 -> pool1 (in-place)
I0112 16:27:32.406144 63531 net.cpp:122] Setting up quantized_conv1
I0112 16:27:32.406160 63531 net.cpp:129] Top shape: 200 96 27 27 (13996800)
I0112 16:27:32.406170 63531 net.cpp:137] Memory required for data: 1161679200
I0112 16:27:32.406181 63531 layer_factory.hpp:77] Creating layer conv2
I0112 16:27:32.406209 63531 net.cpp:84] Creating Layer conv2
I0112 16:27:32.406220 63531 net.cpp:406] conv2 <- pool1
I0112 16:27:32.406239 63531 net.cpp:380] conv2 -> conv2
ydwu=======get:
bit_width=8;  round_method=0;  round_strategy=1;  is_runtime=0;  range_low=-0.806018;  range_high=1.5182
I0112 16:27:32.418903 63531 net.cpp:122] Setting up conv2
I0112 16:27:32.418941 63531 net.cpp:129] Top shape: 200 256 27 27 (37324800)
I0112 16:27:32.418948 63531 net.cpp:137] Memory required for data: 1310978400
I0112 16:27:32.418973 63531 layer_factory.hpp:77] Creating layer bn2
I0112 16:27:32.418993 63531 net.cpp:84] Creating Layer bn2
I0112 16:27:32.419003 63531 net.cpp:406] bn2 <- conv2
I0112 16:27:32.419018 63531 net.cpp:367] bn2 -> conv2 (in-place)
I0112 16:27:32.419220 63531 net.cpp:122] Setting up bn2
I0112 16:27:32.419235 63531 net.cpp:129] Top shape: 200 256 27 27 (37324800)
I0112 16:27:32.419242 63531 net.cpp:137] Memory required for data: 1460277600
I0112 16:27:32.419255 63531 layer_factory.hpp:77] Creating layer scale2
I0112 16:27:32.419268 63531 net.cpp:84] Creating Layer scale2
I0112 16:27:32.419275 63531 net.cpp:406] scale2 <- conv2
I0112 16:27:32.419286 63531 net.cpp:367] scale2 -> conv2 (in-place)
I0112 16:27:32.419344 63531 layer_factory.hpp:77] Creating layer scale2
I0112 16:27:32.419469 63531 net.cpp:122] Setting up scale2
I0112 16:27:32.419483 63531 net.cpp:129] Top shape: 200 256 27 27 (37324800)
I0112 16:27:32.419490 63531 net.cpp:137] Memory required for data: 1609576800
I0112 16:27:32.419502 63531 layer_factory.hpp:77] Creating layer relu2
I0112 16:27:32.419513 63531 net.cpp:84] Creating Layer relu2
I0112 16:27:32.419520 63531 net.cpp:406] relu2 <- conv2
I0112 16:27:32.419530 63531 net.cpp:367] relu2 -> conv2 (in-place)
I0112 16:27:32.419540 63531 net.cpp:122] Setting up relu2
I0112 16:27:32.419549 63531 net.cpp:129] Top shape: 200 256 27 27 (37324800)
I0112 16:27:32.419556 63531 net.cpp:137] Memory required for data: 1758876000
I0112 16:27:32.419564 63531 layer_factory.hpp:77] Creating layer pool2
I0112 16:27:32.419575 63531 net.cpp:84] Creating Layer pool2
I0112 16:27:32.419582 63531 net.cpp:406] pool2 <- conv2
I0112 16:27:32.419594 63531 net.cpp:380] pool2 -> pool2
I0112 16:27:32.419641 63531 net.cpp:122] Setting up pool2
I0112 16:27:32.419654 63531 net.cpp:129] Top shape: 200 256 13 13 (8652800)
I0112 16:27:32.419698 63531 net.cpp:137] Memory required for data: 1793487200
I0112 16:27:32.419706 63531 layer_factory.hpp:77] Creating layer quantized_conv1
I0112 16:27:32.419719 63531 net.cpp:84] Creating Layer quantized_conv1
I0112 16:27:32.419726 63531 net.cpp:406] quantized_conv1 <- pool2
I0112 16:27:32.419739 63531 net.cpp:367] quantized_conv1 -> pool2 (in-place)
I0112 16:27:32.419751 63531 net.cpp:122] Setting up quantized_conv1
I0112 16:27:32.419760 63531 net.cpp:129] Top shape: 200 256 13 13 (8652800)
I0112 16:27:32.419767 63531 net.cpp:137] Memory required for data: 1828098400
I0112 16:27:32.419775 63531 layer_factory.hpp:77] Creating layer conv3
I0112 16:27:32.419790 63531 net.cpp:84] Creating Layer conv3
I0112 16:27:32.419797 63531 net.cpp:406] conv3 <- pool2
I0112 16:27:32.419808 63531 net.cpp:380] conv3 -> conv3
ydwu=======get:
bit_width=8;  round_method=0;  round_strategy=1;  is_runtime=0;  range_low=-0.621858;  range_high=0.673858
I0112 16:27:32.436869 63531 net.cpp:122] Setting up conv3
I0112 16:27:32.436902 63531 net.cpp:129] Top shape: 200 384 13 13 (12979200)
I0112 16:27:32.436910 63531 net.cpp:137] Memory required for data: 1880015200
I0112 16:27:32.436926 63531 layer_factory.hpp:77] Creating layer bn3
I0112 16:27:32.436944 63531 net.cpp:84] Creating Layer bn3
I0112 16:27:32.436954 63531 net.cpp:406] bn3 <- conv3
I0112 16:27:32.436969 63531 net.cpp:367] bn3 -> conv3 (in-place)
I0112 16:27:32.437202 63531 net.cpp:122] Setting up bn3
I0112 16:27:32.437217 63531 net.cpp:129] Top shape: 200 384 13 13 (12979200)
I0112 16:27:32.437222 63531 net.cpp:137] Memory required for data: 1931932000
I0112 16:27:32.437244 63531 layer_factory.hpp:77] Creating layer scale3
I0112 16:27:32.437263 63531 net.cpp:84] Creating Layer scale3
I0112 16:27:32.437270 63531 net.cpp:406] scale3 <- conv3
I0112 16:27:32.437279 63531 net.cpp:367] scale3 -> conv3 (in-place)
I0112 16:27:32.437337 63531 layer_factory.hpp:77] Creating layer scale3
I0112 16:27:32.437466 63531 net.cpp:122] Setting up scale3
I0112 16:27:32.437480 63531 net.cpp:129] Top shape: 200 384 13 13 (12979200)
I0112 16:27:32.437487 63531 net.cpp:137] Memory required for data: 1983848800
I0112 16:27:32.437499 63531 layer_factory.hpp:77] Creating layer relu3
I0112 16:27:32.437510 63531 net.cpp:84] Creating Layer relu3
I0112 16:27:32.437518 63531 net.cpp:406] relu3 <- conv3
I0112 16:27:32.437527 63531 net.cpp:367] relu3 -> conv3 (in-place)
I0112 16:27:32.437538 63531 net.cpp:122] Setting up relu3
I0112 16:27:32.437568 63531 net.cpp:129] Top shape: 200 384 13 13 (12979200)
I0112 16:27:32.437575 63531 net.cpp:137] Memory required for data: 2035765600
I0112 16:27:32.437583 63531 layer_factory.hpp:77] Creating layer quantized_conv1
I0112 16:27:32.437595 63531 net.cpp:84] Creating Layer quantized_conv1
I0112 16:27:32.437602 63531 net.cpp:406] quantized_conv1 <- conv3
I0112 16:27:32.437613 63531 net.cpp:367] quantized_conv1 -> conv3 (in-place)
I0112 16:27:32.437623 63531 net.cpp:122] Setting up quantized_conv1
I0112 16:27:32.437633 63531 net.cpp:129] Top shape: 200 384 13 13 (12979200)
I0112 16:27:32.437639 63531 net.cpp:137] Memory required for data: 2087682400
I0112 16:27:32.437645 63531 layer_factory.hpp:77] Creating layer conv4
I0112 16:27:32.437661 63531 net.cpp:84] Creating Layer conv4
I0112 16:27:32.437669 63531 net.cpp:406] conv4 <- conv3
I0112 16:27:32.437680 63531 net.cpp:380] conv4 -> conv4
ydwu=======get:
bit_width=8;  round_method=0;  round_strategy=1;  is_runtime=0;  range_low=-0.376634;  range_high=0.341829
I0112 16:27:32.461521 63531 net.cpp:122] Setting up conv4
I0112 16:27:32.461560 63531 net.cpp:129] Top shape: 200 384 13 13 (12979200)
I0112 16:27:32.461570 63531 net.cpp:137] Memory required for data: 2139599200
I0112 16:27:32.461589 63531 layer_factory.hpp:77] Creating layer bn4
I0112 16:27:32.461607 63531 net.cpp:84] Creating Layer bn4
I0112 16:27:32.461617 63531 net.cpp:406] bn4 <- conv4
I0112 16:27:32.461638 63531 net.cpp:367] bn4 -> conv4 (in-place)
I0112 16:27:32.461905 63531 net.cpp:122] Setting up bn4
I0112 16:27:32.461921 63531 net.cpp:129] Top shape: 200 384 13 13 (12979200)
I0112 16:27:32.461928 63531 net.cpp:137] Memory required for data: 2191516000
I0112 16:27:32.461942 63531 layer_factory.hpp:77] Creating layer scale4
I0112 16:27:32.461957 63531 net.cpp:84] Creating Layer scale4
I0112 16:27:32.462018 63531 net.cpp:406] scale4 <- conv4
I0112 16:27:32.462029 63531 net.cpp:367] scale4 -> conv4 (in-place)
I0112 16:27:32.462093 63531 layer_factory.hpp:77] Creating layer scale4
I0112 16:27:32.462239 63531 net.cpp:122] Setting up scale4
I0112 16:27:32.462252 63531 net.cpp:129] Top shape: 200 384 13 13 (12979200)
I0112 16:27:32.462258 63531 net.cpp:137] Memory required for data: 2243432800
I0112 16:27:32.462268 63531 layer_factory.hpp:77] Creating layer relu4
I0112 16:27:32.462278 63531 net.cpp:84] Creating Layer relu4
I0112 16:27:32.462285 63531 net.cpp:406] relu4 <- conv4
I0112 16:27:32.462296 63531 net.cpp:367] relu4 -> conv4 (in-place)
I0112 16:27:32.462306 63531 net.cpp:122] Setting up relu4
I0112 16:27:32.462316 63531 net.cpp:129] Top shape: 200 384 13 13 (12979200)
I0112 16:27:32.462321 63531 net.cpp:137] Memory required for data: 2295349600
I0112 16:27:32.462327 63531 layer_factory.hpp:77] Creating layer quantized_conv1
I0112 16:27:32.462338 63531 net.cpp:84] Creating Layer quantized_conv1
I0112 16:27:32.462345 63531 net.cpp:406] quantized_conv1 <- conv4
I0112 16:27:32.462354 63531 net.cpp:367] quantized_conv1 -> conv4 (in-place)
I0112 16:27:32.462365 63531 net.cpp:122] Setting up quantized_conv1
I0112 16:27:32.462374 63531 net.cpp:129] Top shape: 200 384 13 13 (12979200)
I0112 16:27:32.462380 63531 net.cpp:137] Memory required for data: 2347266400
I0112 16:27:32.462388 63531 layer_factory.hpp:77] Creating layer conv5
I0112 16:27:32.462405 63531 net.cpp:84] Creating Layer conv5
I0112 16:27:32.462414 63531 net.cpp:406] conv5 <- conv4
I0112 16:27:32.462426 63531 net.cpp:380] conv5 -> conv5
ydwu=======get:
bit_width=8;  round_method=0;  round_strategy=1;  is_runtime=0;  range_low=-0.347658;  range_high=0.330042
I0112 16:27:32.478610 63531 net.cpp:122] Setting up conv5
I0112 16:27:32.478641 63531 net.cpp:129] Top shape: 200 256 13 13 (8652800)
I0112 16:27:32.478648 63531 net.cpp:137] Memory required for data: 2381877600
I0112 16:27:32.478677 63531 layer_factory.hpp:77] Creating layer bn5
I0112 16:27:32.478695 63531 net.cpp:84] Creating Layer bn5
I0112 16:27:32.478703 63531 net.cpp:406] bn5 <- conv5
I0112 16:27:32.478730 63531 net.cpp:367] bn5 -> conv5 (in-place)
I0112 16:27:32.478965 63531 net.cpp:122] Setting up bn5
I0112 16:27:32.478994 63531 net.cpp:129] Top shape: 200 256 13 13 (8652800)
I0112 16:27:32.479002 63531 net.cpp:137] Memory required for data: 2416488800
I0112 16:27:32.479028 63531 layer_factory.hpp:77] Creating layer scale5
I0112 16:27:32.479043 63531 net.cpp:84] Creating Layer scale5
I0112 16:27:32.479049 63531 net.cpp:406] scale5 <- conv5
I0112 16:27:32.479058 63531 net.cpp:367] scale5 -> conv5 (in-place)
I0112 16:27:32.479132 63531 layer_factory.hpp:77] Creating layer scale5
I0112 16:27:32.479287 63531 net.cpp:122] Setting up scale5
I0112 16:27:32.479313 63531 net.cpp:129] Top shape: 200 256 13 13 (8652800)
I0112 16:27:32.479321 63531 net.cpp:137] Memory required for data: 2451100000
I0112 16:27:32.479331 63531 layer_factory.hpp:77] Creating layer relu5
I0112 16:27:32.479346 63531 net.cpp:84] Creating Layer relu5
I0112 16:27:32.479352 63531 net.cpp:406] relu5 <- conv5
I0112 16:27:32.479360 63531 net.cpp:367] relu5 -> conv5 (in-place)
I0112 16:27:32.479382 63531 net.cpp:122] Setting up relu5
I0112 16:27:32.479389 63531 net.cpp:129] Top shape: 200 256 13 13 (8652800)
I0112 16:27:32.479395 63531 net.cpp:137] Memory required for data: 2485711200
I0112 16:27:32.479400 63531 layer_factory.hpp:77] Creating layer pool5
I0112 16:27:32.479416 63531 net.cpp:84] Creating Layer pool5
I0112 16:27:32.479423 63531 net.cpp:406] pool5 <- conv5
I0112 16:27:32.479444 63531 net.cpp:380] pool5 -> pool5
I0112 16:27:32.479507 63531 net.cpp:122] Setting up pool5
I0112 16:27:32.479521 63531 net.cpp:129] Top shape: 200 256 6 6 (1843200)
I0112 16:27:32.479526 63531 net.cpp:137] Memory required for data: 2493084000
I0112 16:27:32.479532 63531 layer_factory.hpp:77] Creating layer quantized_conv1
I0112 16:27:32.479542 63531 net.cpp:84] Creating Layer quantized_conv1
I0112 16:27:32.479547 63531 net.cpp:406] quantized_conv1 <- pool5
I0112 16:27:32.479570 63531 net.cpp:367] quantized_conv1 -> pool5 (in-place)
I0112 16:27:32.479581 63531 net.cpp:122] Setting up quantized_conv1
I0112 16:27:32.479645 63531 net.cpp:129] Top shape: 200 256 6 6 (1843200)
I0112 16:27:32.479651 63531 net.cpp:137] Memory required for data: 2500456800
I0112 16:27:32.479657 63531 layer_factory.hpp:77] Creating layer fc6
I0112 16:27:32.479668 63531 net.cpp:84] Creating Layer fc6
I0112 16:27:32.479686 63531 net.cpp:406] fc6 <- pool5
I0112 16:27:32.479694 63531 net.cpp:380] fc6 -> fc6
I0112 16:27:32.479712 63531 quan_inner_product_layer.cpp:21] 4096   4096
ydwu=======get:
bit_width=8;  round_method=0;  round_strategy=1;  is_runtime=0;  range_low=-0.160061;  range_high=0.148064
I0112 16:27:33.190253 63531 net.cpp:122] Setting up fc6
I0112 16:27:33.190296 63531 net.cpp:129] Top shape: 200 4096 (819200)
I0112 16:27:33.190302 63531 net.cpp:137] Memory required for data: 2503733600
I0112 16:27:33.190327 63531 layer_factory.hpp:77] Creating layer bn6
I0112 16:27:33.190347 63531 net.cpp:84] Creating Layer bn6
I0112 16:27:33.190356 63531 net.cpp:406] bn6 <- fc6
I0112 16:27:33.190369 63531 net.cpp:367] bn6 -> fc6 (in-place)
I0112 16:27:33.190583 63531 net.cpp:122] Setting up bn6
I0112 16:27:33.190596 63531 net.cpp:129] Top shape: 200 4096 (819200)
I0112 16:27:33.190601 63531 net.cpp:137] Memory required for data: 2507010400
I0112 16:27:33.190618 63531 layer_factory.hpp:77] Creating layer scale6
I0112 16:27:33.190639 63531 net.cpp:84] Creating Layer scale6
I0112 16:27:33.190646 63531 net.cpp:406] scale6 <- fc6
I0112 16:27:33.190654 63531 net.cpp:367] scale6 -> fc6 (in-place)
I0112 16:27:33.190714 63531 layer_factory.hpp:77] Creating layer scale6
I0112 16:27:33.190858 63531 net.cpp:122] Setting up scale6
I0112 16:27:33.190871 63531 net.cpp:129] Top shape: 200 4096 (819200)
I0112 16:27:33.190876 63531 net.cpp:137] Memory required for data: 2510287200
I0112 16:27:33.190884 63531 layer_factory.hpp:77] Creating layer relu6
I0112 16:27:33.190899 63531 net.cpp:84] Creating Layer relu6
I0112 16:27:33.190904 63531 net.cpp:406] relu6 <- fc6
I0112 16:27:33.190914 63531 net.cpp:367] relu6 -> fc6 (in-place)
I0112 16:27:33.190924 63531 net.cpp:122] Setting up relu6
I0112 16:27:33.190932 63531 net.cpp:129] Top shape: 200 4096 (819200)
I0112 16:27:33.190937 63531 net.cpp:137] Memory required for data: 2513564000
I0112 16:27:33.190944 63531 layer_factory.hpp:77] Creating layer drop6
I0112 16:27:33.190955 63531 net.cpp:84] Creating Layer drop6
I0112 16:27:33.190963 63531 net.cpp:406] drop6 <- fc6
I0112 16:27:33.190970 63531 net.cpp:367] drop6 -> fc6 (in-place)
I0112 16:27:33.191010 63531 net.cpp:122] Setting up drop6
I0112 16:27:33.191022 63531 net.cpp:129] Top shape: 200 4096 (819200)
I0112 16:27:33.191030 63531 net.cpp:137] Memory required for data: 2516840800
I0112 16:27:33.191036 63531 layer_factory.hpp:77] Creating layer quantized_conv1
I0112 16:27:33.191048 63531 net.cpp:84] Creating Layer quantized_conv1
I0112 16:27:33.191056 63531 net.cpp:406] quantized_conv1 <- fc6
I0112 16:27:33.191063 63531 net.cpp:367] quantized_conv1 -> fc6 (in-place)
I0112 16:27:33.191074 63531 net.cpp:122] Setting up quantized_conv1
I0112 16:27:33.191082 63531 net.cpp:129] Top shape: 200 4096 (819200)
I0112 16:27:33.191089 63531 net.cpp:137] Memory required for data: 2520117600
I0112 16:27:33.191095 63531 layer_factory.hpp:77] Creating layer fc7
I0112 16:27:33.191107 63531 net.cpp:84] Creating Layer fc7
I0112 16:27:33.191114 63531 net.cpp:406] fc7 <- fc6
I0112 16:27:33.191126 63531 net.cpp:380] fc7 -> fc7
I0112 16:27:33.191139 63531 quan_inner_product_layer.cpp:21] 4096   4096
ydwu=======get:
bit_width=8;  round_method=0;  round_strategy=1;  is_runtime=0;  range_low=-0.162636;  range_high=0.197684
I0112 16:27:33.563093 63531 net.cpp:122] Setting up fc7
I0112 16:27:33.563146 63531 net.cpp:129] Top shape: 200 4096 (819200)
I0112 16:27:33.563153 63531 net.cpp:137] Memory required for data: 2523394400
I0112 16:27:33.563169 63531 layer_factory.hpp:77] Creating layer bn7
I0112 16:27:33.563194 63531 net.cpp:84] Creating Layer bn7
I0112 16:27:33.563202 63531 net.cpp:406] bn7 <- fc7
I0112 16:27:33.563217 63531 net.cpp:367] bn7 -> fc7 (in-place)
I0112 16:27:33.563452 63531 net.cpp:122] Setting up bn7
I0112 16:27:33.563464 63531 net.cpp:129] Top shape: 200 4096 (819200)
I0112 16:27:33.563478 63531 net.cpp:137] Memory required for data: 2526671200
I0112 16:27:33.563488 63531 layer_factory.hpp:77] Creating layer scale7
I0112 16:27:33.563554 63531 net.cpp:84] Creating Layer scale7
I0112 16:27:33.563560 63531 net.cpp:406] scale7 <- fc7
I0112 16:27:33.563567 63531 net.cpp:367] scale7 -> fc7 (in-place)
I0112 16:27:33.563625 63531 layer_factory.hpp:77] Creating layer scale7
I0112 16:27:33.563767 63531 net.cpp:122] Setting up scale7
I0112 16:27:33.563779 63531 net.cpp:129] Top shape: 200 4096 (819200)
I0112 16:27:33.563791 63531 net.cpp:137] Memory required for data: 2529948000
I0112 16:27:33.563799 63531 layer_factory.hpp:77] Creating layer relu7
I0112 16:27:33.563812 63531 net.cpp:84] Creating Layer relu7
I0112 16:27:33.563819 63531 net.cpp:406] relu7 <- fc7
I0112 16:27:33.563827 63531 net.cpp:367] relu7 -> fc7 (in-place)
I0112 16:27:33.563840 63531 net.cpp:122] Setting up relu7
I0112 16:27:33.563848 63531 net.cpp:129] Top shape: 200 4096 (819200)
I0112 16:27:33.563855 63531 net.cpp:137] Memory required for data: 2533224800
I0112 16:27:33.563863 63531 layer_factory.hpp:77] Creating layer drop7
I0112 16:27:33.563874 63531 net.cpp:84] Creating Layer drop7
I0112 16:27:33.563881 63531 net.cpp:406] drop7 <- fc7
I0112 16:27:33.563889 63531 net.cpp:367] drop7 -> fc7 (in-place)
I0112 16:27:33.563921 63531 net.cpp:122] Setting up drop7
I0112 16:27:33.563933 63531 net.cpp:129] Top shape: 200 4096 (819200)
I0112 16:27:33.563940 63531 net.cpp:137] Memory required for data: 2536501600
I0112 16:27:33.563947 63531 layer_factory.hpp:77] Creating layer quantized_conv1
I0112 16:27:33.563958 63531 net.cpp:84] Creating Layer quantized_conv1
I0112 16:27:33.563966 63531 net.cpp:406] quantized_conv1 <- fc7
I0112 16:27:33.563973 63531 net.cpp:367] quantized_conv1 -> fc7 (in-place)
I0112 16:27:33.563984 63531 net.cpp:122] Setting up quantized_conv1
I0112 16:27:33.563992 63531 net.cpp:129] Top shape: 200 4096 (819200)
I0112 16:27:33.563998 63531 net.cpp:137] Memory required for data: 2539778400
I0112 16:27:33.564007 63531 layer_factory.hpp:77] Creating layer fc8
I0112 16:27:33.564018 63531 net.cpp:84] Creating Layer fc8
I0112 16:27:33.564025 63531 net.cpp:406] fc8 <- fc7
I0112 16:27:33.564038 63531 net.cpp:380] fc8 -> fc8
I0112 16:27:33.564050 63531 quan_inner_product_layer.cpp:21] 1000   1000
ydwu=======get:
bit_width=8;  round_method=0;  round_strategy=1;  is_runtime=0;  range_low=-0.141857;  range_high=0.274249
I0112 16:27:33.654117 63531 net.cpp:122] Setting up fc8
I0112 16:27:33.654176 63531 net.cpp:129] Top shape: 200 1000 (200000)
I0112 16:27:33.654184 63531 net.cpp:137] Memory required for data: 2540578400
I0112 16:27:33.654204 63531 layer_factory.hpp:77] Creating layer fc8_fc8_0_split
I0112 16:27:33.654224 63531 net.cpp:84] Creating Layer fc8_fc8_0_split
I0112 16:27:33.654235 63531 net.cpp:406] fc8_fc8_0_split <- fc8
I0112 16:27:33.654249 63531 net.cpp:380] fc8_fc8_0_split -> fc8_fc8_0_split_0
I0112 16:27:33.654266 63531 net.cpp:380] fc8_fc8_0_split -> fc8_fc8_0_split_1
I0112 16:27:33.654328 63531 net.cpp:122] Setting up fc8_fc8_0_split
I0112 16:27:33.654340 63531 net.cpp:129] Top shape: 200 1000 (200000)
I0112 16:27:33.654350 63531 net.cpp:129] Top shape: 200 1000 (200000)
I0112 16:27:33.654356 63531 net.cpp:137] Memory required for data: 2542178400
I0112 16:27:33.654363 63531 layer_factory.hpp:77] Creating layer accuracy_5_TRAIN
I0112 16:27:33.654383 63531 net.cpp:84] Creating Layer accuracy_5_TRAIN
I0112 16:27:33.654392 63531 net.cpp:406] accuracy_5_TRAIN <- fc8_fc8_0_split_0
I0112 16:27:33.654400 63531 net.cpp:406] accuracy_5_TRAIN <- label_data_1_split_0
…
I0112 16:27:33.657405 63531 net.cpp:294] The NetState phase (1) differed from the phase (0) specified by a rule in layer accuracy_5_TRAIN
I0112 16:27:33.657743 63531 net.cpp:51] Initializing net from parameters: 
name: "AlexNet-BN"
state {
  phase: TEST
}
layer {
  name: "data"
  type: "Data"
  top: "data"
  top: "label"
  include {
    phase: TEST
  }
  transform_param {
    mirror: false
    crop_size: 224
    mean_value: 103.939
    mean_value: 116.779
    mean_value: 123.68
  }
  data_param {
    source: "/home/DATA/imagenet_resize/lmdb_resize/ilsvrc12_val_lmdb"
    batch_size: 200
    backend: LMDB
  }
}
layer {
  name: "conv1"
  type: "QuanConvolution"
  bottom: "data"
  top: "conv1"
  param {
    lr_mult: 1
    decay_mult: 1
  }
  param {
    lr_mult: 2
    decay_mult: 0
  }
  quan_convolution_param {
    num_output: 96
    pad: 2
    kernel_size: 11
    stride: 4
    weight_filler {
      type: "gaussian"
      std: 0.01
    }
    bias_filler {
      type: "constant"
      value: 0
    }
    round_method: ROUND
    round_strategy: NEUTRAL
    bit_width: 8
    range_low: -0.872089
    range_high: 0.927025
  }
}
layer {
  name: "bn1"
  type: "BatchNorm"
  bottom: "conv1"
  top: "conv1"
}
layer {
  name: "scale1"
  type: "Scale"
  bottom: "conv1"
  top: "conv1"
  scale_param {
    bias_term: true
  }
}
layer {
  name: "relu1"
  type: "ReLU"
  bottom: "conv1"
  top: "conv1"
}
layer {
  name: "pool1"
  type: "Pooling"
  bottom: "conv1"
  top: "pool1"
  pooling_param {
    pool: MAX
    kernel_size: 3
    stride: 2
  }
}
layer {
  name: "quantized_conv1"
  type: "Quantization"
  bottom: "pool1"
  top: "pool1"
  quantization_param {
    round_method: ROUND
    round_strategy: AGGRESSIVE
    bit_width: 4
    range: 0
    range: 13.965383
  }
}
layer {
  name: "conv2"
  type: "QuanConvolution"
  bottom: "pool1"
  top: "conv2"
  param {
    lr_mult: 1
    decay_mult: 1
  }
  param {
    lr_mult: 2
    decay_mult: 0
  }
  quan_convolution_param {
    num_output: 256
    pad: 2
    kernel_size: 5
    weight_filler {
      type: "gaussian"
      std: 0.01
    }
    bias_filler {
      type: "constant"
      value: 0.1
    }
    round_method: ROUND
    round_strategy: NEUTRAL
    bit_width: 8
    range_low: -0.806018
    range_high: 1.5182
  }
}
layer {
  name: "bn2"
  type: "BatchNorm"
  bottom: "conv2"
  top: "conv2"
}
layer {
  name: "scale2"
  type: "Scale"
  bottom: "conv2"
  top: "conv2"
  scale_param {
    bias_term: true
  }
}
layer {
  name: "relu2"
  type: "ReLU"
  bottom: "conv2"
  top: "conv2"
}
layer {
  name: "pool2"
  type: "Pooling"
  bottom: "conv2"
  top: "pool2"
  pooling_param {
    pool: MAX
    kernel_size: 3
    stride: 2
  }
}
layer {
  name: "quantized_conv1"
  type: "Quantization"
  bottom: "pool2"
  top: "pool2"
  quantization_param {
    round_method: ROUND
    round_strategy: AGGRESSIVE
    bit_width: 4
    range: 0
    range: 6.74956
  }
}
layer {
  name: "conv3"
  type: "QuanConvolution"
  bottom: "pool2"
  top: "conv3"
  param {
    lr_mult: 1
    decay_mult: 1
  }
  param {
    lr_mult: 2
    decay_mult: 0
  }
  quan_convolution_param {
    num_output: 384
    pad: 1
    kernel_size: 3
    weight_filler {
      type: "gaussian"
      std: 0.01
    }
    bias_filler {
      type: "constant"
      value: 0
    }
    round_method: ROUND
    round_strategy: NEUTRAL
    bit_width: 8
    range_low: -0.621858
    range_high: 0.673858
  }
}
layer {
  name: "bn3"
  type: "BatchNorm"
  bottom: "conv3"
  top: "conv3"
}
layer {
  name: "scale3"
  type: "Scale"
  bottom: "conv3"
  top: "conv3"
  scale_param {
    bias_term: true
  }
}
layer {
  name: "relu3"
  type: "ReLU"
  bottom: "conv3"
  top: "conv3"
}
layer {
  name: "quantized_conv1"
  type: "Quantization"
  bottom: "conv3"
  top: "conv3"
  quantization_param {
    round_method: ROUND
    round_strategy: AGGRESSIVE
    bit_width: 4
    range: 0
    range: 8.48454
  }
}
layer {
  name: "conv4"
  type: "QuanConvolution"
  bottom: "conv3"
  top: "conv4"
  param {
    lr_mult: 1
    decay_mult: 1
  }
  param {
    lr_mult: 2
    decay_mult: 0
  }
  quan_convolution_param {
    num_output: 384
    pad: 1
    kernel_size: 3
    weight_filler {
      type: "gaussian"
      std: 0.01
    }
    bias_filler {
      type: "constant"
      value: 0.1
    }
    round_method: ROUND
    round_strategy: NEUTRAL
    bit_width: 8
    range_low: -0.376634
    range_high: 0.341829
  }
}
layer {
  name: "bn4"
  type: "BatchNorm"
  bottom: "conv4"
  top: "conv4"
}
layer {
  name: "scale4"
  type: "Scale"
  bottom: "conv4"
  top: "conv4"
  scale_param {
    bias_term: true
  }
}
layer {
  name: "relu4"
  type: "ReLU"
  bottom: "conv4"
  top: "conv4"
}
layer {
  name: "quantized_conv1"
  type: "Quantization"
  bottom: "conv4"
  top: "conv4"
  quantization_param {
    round_method: ROUND
    round_strategy: AGGRESSIVE
    bit_width: 4
    range: 0
    range: 7.3369722
  }
}
layer {
  name: "conv5"
  type: "QuanConvolution"
  bottom: "conv4"
  top: "conv5"
  param {
    lr_mult: 1
    decay_mult: 1
  }
  param {
    lr_mult: 2
    decay_mult: 0
  }
  quan_convolution_param {
    num_output: 256
    pad: 1
    kernel_size: 3
    weight_filler {
      type: "gaussian"
      std: 0.01
    }
    bias_filler {
      type: "constant"
      value: 0.1
    }
    round_method: ROUND
    round_strategy: NEUTRAL
    bit_width: 8
    range_low: -0.347658
    range_high: 0.330042
  }
}
layer {
  name: "bn5"
  type: "BatchNorm"
  bottom: "conv5"
  top: "conv5"
}
layer {
  name: "scale5"
  type: "Scale"
  bottom: "conv5"
  top: "conv5"
  scale_param {
    bias_term: true
  }
}
layer {
  name: "relu5"
  type: "ReLU"
  bottom: "conv5"
  top: "conv5"
}
layer {
  name: "pool5"
  type: "Pooling"
  bottom: "conv5"
  top: "pool5"
  pooling_param {
    pool: MAX
    kernel_size: 3
    stride: 2
  }
}
layer {
  name: "quantized_conv1"
  type: "Quantization"
  bottom: "pool5"
  top: "pool5"
  quantization_param {
    round_method: ROUND
    round_strategy: AGGRESSIVE
    bit_width: 4
    range: 0
    range: 8.7577133
  }
}
layer {
  name: "fc6"
  type: "QuanInnerProduct"
  bottom: "pool5"
  top: "fc6"
  param {
    lr_mult: 1
    decay_mult: 1
  }
  param {
    lr_mult: 2
    decay_mult: 0
  }
  quan_inner_product_param {
    num_output: 4096
    weight_filler {
      type: "gaussian"
      std: 0.005
    }
    bias_filler {
      type: "constant"
      value: 0.1
    }
    round_method: ROUND
    round_strategy: NEUTRAL
    bit_width: 8
    range_low: -0.160061
    range_high: 0.148064
  }
}
layer {
  name: "bn6"
  type: "BatchNorm"
  bottom: "fc6"
  top: "fc6"
}
layer {
  name: "scale6"
  type: "Scale"
  bottom: "fc6"
  top: "fc6"
  scale_param {
    bias_term: true
  }
}
layer {
  name: "relu6"
  type: "ReLU"
  bottom: "fc6"
  top: "fc6"
}
layer {
  name: "drop6"
  type: "Dropout"
  bottom: "fc6"
  top: "fc6"
  dropout_param {
    dropout_ratio: 0.5
  }
}
layer {
  name: "quantized_conv1"
  type: "Quantization"
  bottom: "fc6"
  top: "fc6"
  quantization_param {
    round_method: ROUND
    round_strategy: AGGRESSIVE
    bit_width: 4
    range: 0
    range: 1.659358
  }
}
layer {
  name: "fc7"
  type: "QuanInnerProduct"
  bottom: "fc6"
  top: "fc7"
  param {
    lr_mult: 1
    decay_mult: 1
  }
  param {
    lr_mult: 2
    decay_mult: 0
  }
  quan_inner_product_param {
    num_output: 4096
    weight_filler {
      type: "gaussian"
      std: 0.005
    }
    bias_filler {
      type: "constant"
      value: 0.1
    }
    round_method: ROUND
    round_strategy: NEUTRAL
    bit_width: 8
    range_low: -0.162636
    range_high: 0.197684
  }
}
layer {
  name: "bn7"
  type: "BatchNorm"
  bottom: "fc7"
  top: "fc7"
}
layer {
  name: "scale7"
  type: "Scale"
  bottom: "fc7"
  top: "fc7"
  scale_param {
    bias_term: true
  }
}
layer {
  name: "relu7"
  type: "ReLU"
  bottom: "fc7"
  top: "fc7"
}
layer {
  name: "drop7"
  type: "Dropout"
  bottom: "fc7"
  top: "fc7"
  dropout_param {
    dropout_ratio: 0.5
  }
}
layer {
  name: "quantized_conv1"
  type: "Quantization"
  bottom: "fc7"
  top: "fc7"
  quantization_param {
    round_method: ROUND
    round_strategy: AGGRESSIVE
    bit_width: 4
    range: 0
    range: 7.5598521
  }
}
layer {
  name: "fc8"
  type: "QuanInnerProduct"
  bottom: "fc7"
  top: "fc8"
  param {
    lr_mult: 1
    decay_mult: 1
  }
  param {
    lr_mult: 2
    decay_mult: 0
  }
  quan_inner_product_param {
    num_output: 1000
    weight_filler {
      type: "gaussian"
      std: 0.01
    }
    bias_filler {
      type: "constant"
      value: 0
    }
    round_method: ROUND
    round_strategy: NEUTRAL
    bit_width: 8
    range_low: -0.141857
    range_high: 0.274249
  }
}
layer {
  name: "accuracy"
  type: "Accuracy"
  bottom: "fc8"
  bottom: "label"
  top: "accuracy"
  include {
    phase: TEST
  }
}
layer {
  name: "accuracy_5"
  type: "Accuracy"
  bottom: "fc8"
  bottom: "label"
  top: "accuracy_5"
  include {
    phase: TEST
  }
  accuracy_param {
    top_k: 5
  }
}
layer {
  name: "loss"
  type: "SoftmaxWithLoss"
  bottom: "fc8"
  bottom: "label"
  top: "loss"
}
I0112 16:27:33.658287 63531 layer_factory.hpp:77] Creating layer data
I0112 16:27:33.658514 63531 db_lmdb.cpp:35] Opened lmdb /home/DATA/imagenet_resize/lmdb_resize/ilsvrc12_val_lmdb
I0112 16:27:33.658649 63531 net.cpp:84] Creating Layer data
I0112 16:27:33.658704 63531 net.cpp:380] data -> data
I0112 16:27:33.658751 63531 net.cpp:380] data -> label
I0112 16:27:33.659728 63531 data_layer.cpp:45] output data size: 200,3,224,224
I0112 16:27:34.162585 63531 net.cpp:122] Setting up data
I0112 16:27:34.162655 63531 net.cpp:129] Top shape: 200 3 224 224 (30105600)
I0112 16:27:34.162664 63531 net.cpp:129] Top shape: 200 (200)
I0112 16:27:34.162672 63531 net.cpp:137] Memory required for data: 120423200
I0112 16:27:34.162691 63531 layer_factory.hpp:77] Creating layer label_data_1_split
I0112 16:27:34.162725 63531 net.cpp:84] Creating Layer label_data_1_split
I0112 16:27:34.162734 63531 net.cpp:406] label_data_1_split <- label
I0112 16:27:34.162750 63531 net.cpp:380] label_data_1_split -> label_data_1_split_0
I0112 16:27:34.162780 63531 net.cpp:380] label_data_1_split -> label_data_1_split_1
I0112 16:27:34.162791 63531 net.cpp:380] label_data_1_split -> label_data_1_split_2
I0112 16:27:34.162995 63531 net.cpp:122] Setting up label_data_1_split
I0112 16:27:34.163045 63531 net.cpp:129] Top shape: 200 (200)
I0112 16:27:34.163054 63531 net.cpp:129] Top shape: 200 (200)
I0112 16:27:34.163063 63531 net.cpp:129] Top shape: 200 (200)
I0112 16:27:34.163069 63531 net.cpp:137] Memory required for data: 120425600
I0112 16:27:34.163079 63531 layer_factory.hpp:77] Creating layer conv1
I0112 16:27:34.163113 63531 net.cpp:84] Creating Layer conv1
I0112 16:27:34.163122 63531 net.cpp:406] conv1 <- data
I0112 16:27:34.163138 63531 net.cpp:380] conv1 -> conv1
ydwu=======get:
bit_width=8;  round_method=0;  round_strategy=1;  is_runtime=0;  range_low=-0.872089;  range_high=0.927025
I0112 16:27:34.164041 63531 net.cpp:122] Setting up conv1
I0112 16:27:34.164057 63531 net.cpp:129] Top shape: 200 96 55 55 (58080000)
I0112 16:27:34.164063 63531 net.cpp:137] Memory required for data: 352745600
I0112 16:27:34.164083 63531 layer_factory.hpp:77] Creating layer bn1
I0112 16:27:34.164096 63531 net.cpp:84] Creating Layer bn1
I0112 16:27:34.164103 63531 net.cpp:406] bn1 <- conv1
I0112 16:27:34.164113 63531 net.cpp:367] bn1 -> conv1 (in-place)
I0112 16:27:34.164379 63531 net.cpp:122] Setting up bn1
I0112 16:27:34.164396 63531 net.cpp:129] Top shape: 200 96 55 55 (58080000)
I0112 16:27:34.164403 63531 net.cpp:137] Memory required for data: 585065600
I0112 16:27:34.164422 63531 layer_factory.hpp:77] Creating layer scale1
I0112 16:27:34.164436 63531 net.cpp:84] Creating Layer scale1
I0112 16:27:34.164444 63531 net.cpp:406] scale1 <- conv1
I0112 16:27:34.164454 63531 net.cpp:367] scale1 -> conv1 (in-place)
I0112 16:27:34.164512 63531 layer_factory.hpp:77] Creating layer scale1
I0112 16:27:34.183068 63531 net.cpp:122] Setting up scale1
I0112 16:27:34.183092 63531 net.cpp:129] Top shape: 200 96 55 55 (58080000)
I0112 16:27:34.183100 63531 net.cpp:137] Memory required for data: 817385600
I0112 16:27:34.183112 63531 layer_factory.hpp:77] Creating layer relu1
I0112 16:27:34.183169 63531 net.cpp:84] Creating Layer relu1
I0112 16:27:34.183178 63531 net.cpp:406] relu1 <- conv1
I0112 16:27:34.183188 63531 net.cpp:367] relu1 -> conv1 (in-place)
I0112 16:27:34.183199 63531 net.cpp:122] Setting up relu1
I0112 16:27:34.183208 63531 net.cpp:129] Top shape: 200 96 55 55 (58080000)
I0112 16:27:34.183215 63531 net.cpp:137] Memory required for data: 1049705600
I0112 16:27:34.183221 63531 layer_factory.hpp:77] Creating layer pool1
I0112 16:27:34.183233 63531 net.cpp:84] Creating Layer pool1
I0112 16:27:34.183239 63531 net.cpp:406] pool1 <- conv1
I0112 16:27:34.183249 63531 net.cpp:380] pool1 -> pool1
I0112 16:27:34.183300 63531 net.cpp:122] Setting up pool1
I0112 16:27:34.183313 63531 net.cpp:129] Top shape: 200 96 27 27 (13996800)
I0112 16:27:34.183320 63531 net.cpp:137] Memory required for data: 1105692800
I0112 16:27:34.183326 63531 layer_factory.hpp:77] Creating layer quantized_conv1
I0112 16:27:34.183337 63531 net.cpp:84] Creating Layer quantized_conv1
I0112 16:27:34.183344 63531 net.cpp:406] quantized_conv1 <- pool1
I0112 16:27:34.183353 63531 net.cpp:367] quantized_conv1 -> pool1 (in-place)
I0112 16:27:34.183365 63531 net.cpp:122] Setting up quantized_conv1
I0112 16:27:34.183374 63531 net.cpp:129] Top shape: 200 96 27 27 (13996800)
I0112 16:27:34.183380 63531 net.cpp:137] Memory required for data: 1161680000
I0112 16:27:34.183387 63531 layer_factory.hpp:77] Creating layer conv2
I0112 16:27:34.183403 63531 net.cpp:84] Creating Layer conv2
I0112 16:27:34.183409 63531 net.cpp:406] conv2 <- pool1
I0112 16:27:34.183420 63531 net.cpp:380] conv2 -> conv2
ydwu=======get:
bit_width=8;  round_method=0;  round_strategy=1;  is_runtime=0;  range_low=-0.806018;  range_high=1.5182
I0112 16:27:34.193766 63531 net.cpp:122] Setting up conv2
I0112 16:27:34.193806 63531 net.cpp:129] Top shape: 200 256 27 27 (37324800)
I0112 16:27:34.193820 63531 net.cpp:137] Memory required for data: 1310979200
I0112 16:27:34.193845 63531 layer_factory.hpp:77] Creating layer bn2
I0112 16:27:34.193863 63531 net.cpp:84] Creating Layer bn2
I0112 16:27:34.193873 63531 net.cpp:406] bn2 <- conv2
I0112 16:27:34.193886 63531 net.cpp:367] bn2 -> conv2 (in-place)
I0112 16:27:34.194128 63531 net.cpp:122] Setting up bn2
I0112 16:27:34.194142 63531 net.cpp:129] Top shape: 200 256 27 27 (37324800)
I0112 16:27:34.194149 63531 net.cpp:137] Memory required for data: 1460278400
I0112 16:27:34.194162 63531 layer_factory.hpp:77] Creating layer scale2
I0112 16:27:34.194175 63531 net.cpp:84] Creating Layer scale2
I0112 16:27:34.194182 63531 net.cpp:406] scale2 <- conv2
I0112 16:27:34.194191 63531 net.cpp:367] scale2 -> conv2 (in-place)
I0112 16:27:34.194250 63531 layer_factory.hpp:77] Creating layer scale2
I0112 16:27:34.194418 63531 net.cpp:122] Setting up scale2
I0112 16:27:34.194432 63531 net.cpp:129] Top shape: 200 256 27 27 (37324800)
I0112 16:27:34.194439 63531 net.cpp:137] Memory required for data: 1609577600
I0112 16:27:34.194449 63531 layer_factory.hpp:77] Creating layer relu2
I0112 16:27:34.194460 63531 net.cpp:84] Creating Layer relu2
I0112 16:27:34.194468 63531 net.cpp:406] relu2 <- conv2
I0112 16:27:34.194478 63531 net.cpp:367] relu2 -> conv2 (in-place)
I0112 16:27:34.194488 63531 net.cpp:122] Setting up relu2
I0112 16:27:34.194496 63531 net.cpp:129] Top shape: 200 256 27 27 (37324800)
I0112 16:27:34.194502 63531 net.cpp:137] Memory required for data: 1758876800
I0112 16:27:34.194509 63531 layer_factory.hpp:77] Creating layer pool2
I0112 16:27:34.194521 63531 net.cpp:84] Creating Layer pool2
I0112 16:27:34.194528 63531 net.cpp:406] pool2 <- conv2
I0112 16:27:34.194540 63531 net.cpp:380] pool2 -> pool2
I0112 16:27:34.194591 63531 net.cpp:122] Setting up pool2
I0112 16:27:34.194603 63531 net.cpp:129] Top shape: 200 256 13 13 (8652800)
I0112 16:27:34.194609 63531 net.cpp:137] Memory required for data: 1793488000
I0112 16:27:34.194617 63531 layer_factory.hpp:77] Creating layer quantized_conv1
I0112 16:27:34.194628 63531 net.cpp:84] Creating Layer quantized_conv1
I0112 16:27:34.194635 63531 net.cpp:406] quantized_conv1 <- pool2
I0112 16:27:34.194645 63531 net.cpp:367] quantized_conv1 -> pool2 (in-place)
I0112 16:27:34.194655 63531 net.cpp:122] Setting up quantized_conv1
I0112 16:27:34.194706 63531 net.cpp:129] Top shape: 200 256 13 13 (8652800)
I0112 16:27:34.194713 63531 net.cpp:137] Memory required for data: 1828099200
I0112 16:27:34.194720 63531 layer_factory.hpp:77] Creating layer conv3
I0112 16:27:34.194736 63531 net.cpp:84] Creating Layer conv3
I0112 16:27:34.194742 63531 net.cpp:406] conv3 <- pool2
I0112 16:27:34.194752 63531 net.cpp:380] conv3 -> conv3
ydwu=======get:
bit_width=8;  round_method=0;  round_strategy=1;  is_runtime=0;  range_low=-0.621858;  range_high=0.673858
I0112 16:27:34.209370 63531 net.cpp:122] Setting up conv3
I0112 16:27:34.209399 63531 net.cpp:129] Top shape: 200 384 13 13 (12979200)
I0112 16:27:34.209408 63531 net.cpp:137] Memory required for data: 1880016000
I0112 16:27:34.209421 63531 layer_factory.hpp:77] Creating layer bn3
I0112 16:27:34.209439 63531 net.cpp:84] Creating Layer bn3
I0112 16:27:34.209448 63531 net.cpp:406] bn3 <- conv3
I0112 16:27:34.209461 63531 net.cpp:367] bn3 -> conv3 (in-place)
I0112 16:27:34.209668 63531 net.cpp:122] Setting up bn3
I0112 16:27:34.209682 63531 net.cpp:129] Top shape: 200 384 13 13 (12979200)
I0112 16:27:34.209688 63531 net.cpp:137] Memory required for data: 1931932800
I0112 16:27:34.209710 63531 layer_factory.hpp:77] Creating layer scale3
I0112 16:27:34.209728 63531 net.cpp:84] Creating Layer scale3
I0112 16:27:34.209734 63531 net.cpp:406] scale3 <- conv3
I0112 16:27:34.209743 63531 net.cpp:367] scale3 -> conv3 (in-place)
I0112 16:27:34.209822 63531 layer_factory.hpp:77] Creating layer scale3
I0112 16:27:34.209978 63531 net.cpp:122] Setting up scale3
I0112 16:27:34.209992 63531 net.cpp:129] Top shape: 200 384 13 13 (12979200)
I0112 16:27:34.209998 63531 net.cpp:137] Memory required for data: 1983849600
I0112 16:27:34.210009 63531 layer_factory.hpp:77] Creating layer relu3
I0112 16:27:34.210021 63531 net.cpp:84] Creating Layer relu3
I0112 16:27:34.210034 63531 net.cpp:406] relu3 <- conv3
I0112 16:27:34.210044 63531 net.cpp:367] relu3 -> conv3 (in-place)
I0112 16:27:34.210054 63531 net.cpp:122] Setting up relu3
I0112 16:27:34.210063 63531 net.cpp:129] Top shape: 200 384 13 13 (12979200)
I0112 16:27:34.210069 63531 net.cpp:137] Memory required for data: 2035766400
I0112 16:27:34.210075 63531 layer_factory.hpp:77] Creating layer quantized_conv1
I0112 16:27:34.210086 63531 net.cpp:84] Creating Layer quantized_conv1
I0112 16:27:34.210093 63531 net.cpp:406] quantized_conv1 <- conv3
I0112 16:27:34.210103 63531 net.cpp:367] quantized_conv1 -> conv3 (in-place)
I0112 16:27:34.210113 63531 net.cpp:122] Setting up quantized_conv1
I0112 16:27:34.210120 63531 net.cpp:129] Top shape: 200 384 13 13 (12979200)
I0112 16:27:34.210127 63531 net.cpp:137] Memory required for data: 2087683200
I0112 16:27:34.210134 63531 layer_factory.hpp:77] Creating layer conv4
I0112 16:27:34.210149 63531 net.cpp:84] Creating Layer conv4
I0112 16:27:34.210155 63531 net.cpp:406] conv4 <- conv3
I0112 16:27:34.210166 63531 net.cpp:380] conv4 -> conv4
ydwu=======get:
bit_width=8;  round_method=0;  round_strategy=1;  is_runtime=0;  range_low=-0.376634;  range_high=0.341829
I0112 16:27:34.238756 63531 net.cpp:122] Setting up conv4
I0112 16:27:34.238834 63531 net.cpp:129] Top shape: 200 384 13 13 (12979200)
I0112 16:27:34.238854 63531 net.cpp:137] Memory required for data: 2139600000
I0112 16:27:34.238931 63531 layer_factory.hpp:77] Creating layer bn4
I0112 16:27:34.238984 63531 net.cpp:84] Creating Layer bn4
I0112 16:27:34.239008 63531 net.cpp:406] bn4 <- conv4
I0112 16:27:34.239079 63531 net.cpp:367] bn4 -> conv4 (in-place)
I0112 16:27:34.240069 63531 net.cpp:122] Setting up bn4
I0112 16:27:34.240109 63531 net.cpp:129] Top shape: 200 384 13 13 (12979200)
I0112 16:27:34.240128 63531 net.cpp:137] Memory required for data: 2191516800
I0112 16:27:34.240171 63531 layer_factory.hpp:77] Creating layer scale4
I0112 16:27:34.240200 63531 net.cpp:84] Creating Layer scale4
I0112 16:27:34.240231 63531 net.cpp:406] scale4 <- conv4
I0112 16:27:34.240275 63531 net.cpp:367] scale4 -> conv4 (in-place)
I0112 16:27:34.240499 63531 layer_factory.hpp:77] Creating layer scale4
I0112 16:27:34.240983 63531 net.cpp:122] Setting up scale4
I0112 16:27:34.241035 63531 net.cpp:129] Top shape: 200 384 13 13 (12979200)
I0112 16:27:34.241050 63531 net.cpp:137] Memory required for data: 2243433600
I0112 16:27:34.241101 63531 layer_factory.hpp:77] Creating layer relu4
I0112 16:27:34.241195 63531 net.cpp:84] Creating Layer relu4
I0112 16:27:34.241215 63531 net.cpp:406] relu4 <- conv4
I0112 16:27:34.241236 63531 net.cpp:367] relu4 -> conv4 (in-place)
I0112 16:27:34.241277 63531 net.cpp:122] Setting up relu4
I0112 16:27:34.241307 63531 net.cpp:129] Top shape: 200 384 13 13 (12979200)
I0112 16:27:34.241324 63531 net.cpp:137] Memory required for data: 2295350400
I0112 16:27:34.241359 63531 layer_factory.hpp:77] Creating layer quantized_conv1
I0112 16:27:34.241376 63531 net.cpp:84] Creating Layer quantized_conv1
I0112 16:27:34.241389 63531 net.cpp:406] quantized_conv1 <- conv4
I0112 16:27:34.241417 63531 net.cpp:367] quantized_conv1 -> conv4 (in-place)
I0112 16:27:34.241458 63531 net.cpp:122] Setting up quantized_conv1
I0112 16:27:34.241478 63531 net.cpp:129] Top shape: 200 384 13 13 (12979200)
I0112 16:27:34.241497 63531 net.cpp:137] Memory required for data: 2347267200
I0112 16:27:34.241519 63531 layer_factory.hpp:77] Creating layer conv5
I0112 16:27:34.241554 63531 net.cpp:84] Creating Layer conv5
I0112 16:27:34.241574 63531 net.cpp:406] conv5 <- conv4
I0112 16:27:34.241611 63531 net.cpp:380] conv5 -> conv5
ydwu=======get:
bit_width=8;  round_method=0;  round_strategy=1;  is_runtime=0;  range_low=-0.347658;  range_high=0.330042
I0112 16:27:34.265765 63531 net.cpp:122] Setting up conv5
I0112 16:27:34.265797 63531 net.cpp:129] Top shape: 200 256 13 13 (8652800)
I0112 16:27:34.265805 63531 net.cpp:137] Memory required for data: 2381878400
I0112 16:27:34.265827 63531 layer_factory.hpp:77] Creating layer bn5
I0112 16:27:34.265877 63531 net.cpp:84] Creating Layer bn5
I0112 16:27:34.265887 63531 net.cpp:406] bn5 <- conv5
I0112 16:27:34.265929 63531 net.cpp:367] bn5 -> conv5 (in-place)
I0112 16:27:34.266583 63531 net.cpp:122] Setting up bn5
I0112 16:27:34.266616 63531 net.cpp:129] Top shape: 200 256 13 13 (8652800)
I0112 16:27:34.266626 63531 net.cpp:137] Memory required for data: 2416489600
I0112 16:27:34.266691 63531 layer_factory.hpp:77] Creating layer scale5
I0112 16:27:34.266732 63531 net.cpp:84] Creating Layer scale5
I0112 16:27:34.266746 63531 net.cpp:406] scale5 <- conv5
I0112 16:27:34.266767 63531 net.cpp:367] scale5 -> conv5 (in-place)
I0112 16:27:34.266911 63531 layer_factory.hpp:77] Creating layer scale5
I0112 16:27:34.267233 63531 net.cpp:122] Setting up scale5
I0112 16:27:34.267266 63531 net.cpp:129] Top shape: 200 256 13 13 (8652800)
I0112 16:27:34.267282 63531 net.cpp:137] Memory required for data: 2451100800
I0112 16:27:34.267315 63531 layer_factory.hpp:77] Creating layer relu5
I0112 16:27:34.267345 63531 net.cpp:84] Creating Layer relu5
I0112 16:27:34.267365 63531 net.cpp:406] relu5 <- conv5
I0112 16:27:34.267387 63531 net.cpp:367] relu5 -> conv5 (in-place)
I0112 16:27:34.267415 63531 net.cpp:122] Setting up relu5
I0112 16:27:34.267427 63531 net.cpp:129] Top shape: 200 256 13 13 (8652800)
I0112 16:27:34.267446 63531 net.cpp:137] Memory required for data: 2485712000
I0112 16:27:34.267463 63531 layer_factory.hpp:77] Creating layer pool5
I0112 16:27:34.267490 63531 net.cpp:84] Creating Layer pool5
I0112 16:27:34.267506 63531 net.cpp:406] pool5 <- conv5
I0112 16:27:34.267534 63531 net.cpp:380] pool5 -> pool5
I0112 16:27:34.267712 63531 net.cpp:122] Setting up pool5
I0112 16:27:34.267767 63531 net.cpp:129] Top shape: 200 256 6 6 (1843200)
I0112 16:27:34.267787 63531 net.cpp:137] Memory required for data: 2493084800
I0112 16:27:34.267822 63531 layer_factory.hpp:77] Creating layer quantized_conv1
I0112 16:27:34.267873 63531 net.cpp:84] Creating Layer quantized_conv1
I0112 16:27:34.267911 63531 net.cpp:406] quantized_conv1 <- pool5
I0112 16:27:34.267956 63531 net.cpp:367] quantized_conv1 -> pool5 (in-place)
I0112 16:27:34.267994 63531 net.cpp:122] Setting up quantized_conv1
I0112 16:27:34.268028 63531 net.cpp:129] Top shape: 200 256 6 6 (1843200)
I0112 16:27:34.268055 63531 net.cpp:137] Memory required for data: 2500457600
I0112 16:27:34.268079 63531 layer_factory.hpp:77] Creating layer fc6
I0112 16:27:34.268137 63531 net.cpp:84] Creating Layer fc6
I0112 16:27:34.268157 63531 net.cpp:406] fc6 <- pool5
I0112 16:27:34.268223 63531 net.cpp:380] fc6 -> fc6
I0112 16:27:34.268333 63531 quan_inner_product_layer.cpp:21] 4096   4096
ydwu=======get:
bit_width=8;  round_method=0;  round_strategy=1;  is_runtime=0;  range_low=-0.160061;  range_high=0.148064
I0112 16:27:35.121912 63531 net.cpp:122] Setting up fc6
I0112 16:27:35.121963 63531 net.cpp:129] Top shape: 200 4096 (819200)
I0112 16:27:35.121969 63531 net.cpp:137] Memory required for data: 2503734400
I0112 16:27:35.121986 63531 layer_factory.hpp:77] Creating layer bn6
I0112 16:27:35.122010 63531 net.cpp:84] Creating Layer bn6
I0112 16:27:35.122018 63531 net.cpp:406] bn6 <- fc6
I0112 16:27:35.122032 63531 net.cpp:367] bn6 -> fc6 (in-place)
I0112 16:27:35.122279 63531 net.cpp:122] Setting up bn6
I0112 16:27:35.122292 63531 net.cpp:129] Top shape: 200 4096 (819200)
I0112 16:27:35.122306 63531 net.cpp:137] Memory required for data: 2507011200
I0112 16:27:35.122318 63531 layer_factory.hpp:77] Creating layer scale6
I0112 16:27:35.122339 63531 net.cpp:84] Creating Layer scale6
I0112 16:27:35.122346 63531 net.cpp:406] scale6 <- fc6
I0112 16:27:35.122354 63531 net.cpp:367] scale6 -> fc6 (in-place)
I0112 16:27:35.122412 63531 layer_factory.hpp:77] Creating layer scale6
I0112 16:27:35.122560 63531 net.cpp:122] Setting up scale6
I0112 16:27:35.122575 63531 net.cpp:129] Top shape: 200 4096 (819200)
I0112 16:27:35.122589 63531 net.cpp:137] Memory required for data: 2510288000
I0112 16:27:35.122598 63531 layer_factory.hpp:77] Creating layer relu6
I0112 16:27:35.122608 63531 net.cpp:84] Creating Layer relu6
I0112 16:27:35.122615 63531 net.cpp:406] relu6 <- fc6
I0112 16:27:35.122623 63531 net.cpp:367] relu6 -> fc6 (in-place)
I0112 16:27:35.122634 63531 net.cpp:122] Setting up relu6
I0112 16:27:35.122642 63531 net.cpp:129] Top shape: 200 4096 (819200)
I0112 16:27:35.122648 63531 net.cpp:137] Memory required for data: 2513564800
I0112 16:27:35.122654 63531 layer_factory.hpp:77] Creating layer drop6
I0112 16:27:35.122665 63531 net.cpp:84] Creating Layer drop6
I0112 16:27:35.122673 63531 net.cpp:406] drop6 <- fc6
I0112 16:27:35.122684 63531 net.cpp:367] drop6 -> fc6 (in-place)
I0112 16:27:35.122715 63531 net.cpp:122] Setting up drop6
I0112 16:27:35.122727 63531 net.cpp:129] Top shape: 200 4096 (819200)
I0112 16:27:35.122735 63531 net.cpp:137] Memory required for data: 2516841600
I0112 16:27:35.122741 63531 layer_factory.hpp:77] Creating layer quantized_conv1
I0112 16:27:35.122752 63531 net.cpp:84] Creating Layer quantized_conv1
I0112 16:27:35.122759 63531 net.cpp:406] quantized_conv1 <- fc6
I0112 16:27:35.122768 63531 net.cpp:367] quantized_conv1 -> fc6 (in-place)
I0112 16:27:35.122782 63531 net.cpp:122] Setting up quantized_conv1
I0112 16:27:35.122792 63531 net.cpp:129] Top shape: 200 4096 (819200)
I0112 16:27:35.122799 63531 net.cpp:137] Memory required for data: 2520118400
I0112 16:27:35.122807 63531 layer_factory.hpp:77] Creating layer fc7
I0112 16:27:35.122818 63531 net.cpp:84] Creating Layer fc7
I0112 16:27:35.122825 63531 net.cpp:406] fc7 <- fc6
I0112 16:27:35.122835 63531 net.cpp:380] fc7 -> fc7
I0112 16:27:35.122848 63531 quan_inner_product_layer.cpp:21] 4096   4096
ydwu=======get:
bit_width=8;  round_method=0;  round_strategy=1;  is_runtime=0;  range_low=-0.162636;  range_high=0.197684
I0112 16:27:35.392292 63531 net.cpp:122] Setting up fc7
I0112 16:27:35.392333 63531 net.cpp:129] Top shape: 200 4096 (819200)
I0112 16:27:35.392340 63531 net.cpp:137] Memory required for data: 2523395200
I0112 16:27:35.392359 63531 layer_factory.hpp:77] Creating layer bn7
I0112 16:27:35.392377 63531 net.cpp:84] Creating Layer bn7
I0112 16:27:35.392387 63531 net.cpp:406] bn7 <- fc7
I0112 16:27:35.392403 63531 net.cpp:367] bn7 -> fc7 (in-place)
I0112 16:27:35.392644 63531 net.cpp:122] Setting up bn7
I0112 16:27:35.392657 63531 net.cpp:129] Top shape: 200 4096 (819200)
I0112 16:27:35.392664 63531 net.cpp:137] Memory required for data: 2526672000
I0112 16:27:35.392678 63531 layer_factory.hpp:77] Creating layer scale7
I0112 16:27:35.392690 63531 net.cpp:84] Creating Layer scale7
I0112 16:27:35.392698 63531 net.cpp:406] scale7 <- fc7
I0112 16:27:35.392709 63531 net.cpp:367] scale7 -> fc7 (in-place)
I0112 16:27:35.392763 63531 layer_factory.hpp:77] Creating layer scale7
I0112 16:27:35.392910 63531 net.cpp:122] Setting up scale7
I0112 16:27:35.392936 63531 net.cpp:129] Top shape: 200 4096 (819200)
I0112 16:27:35.393005 63531 net.cpp:137] Memory required for data: 2529948800
I0112 16:27:35.393023 63531 layer_factory.hpp:77] Creating layer relu7
I0112 16:27:35.393049 63531 net.cpp:84] Creating Layer relu7
I0112 16:27:35.393056 63531 net.cpp:406] relu7 <- fc7
I0112 16:27:35.393064 63531 net.cpp:367] relu7 -> fc7 (in-place)
I0112 16:27:35.393074 63531 net.cpp:122] Setting up relu7
I0112 16:27:35.393084 63531 net.cpp:129] Top shape: 200 4096 (819200)
I0112 16:27:35.393087 63531 net.cpp:137] Memory required for data: 2533225600
I0112 16:27:35.393095 63531 layer_factory.hpp:77] Creating layer drop7
I0112 16:27:35.393106 63531 net.cpp:84] Creating Layer drop7
I0112 16:27:35.393113 63531 net.cpp:406] drop7 <- fc7
I0112 16:27:35.393122 63531 net.cpp:367] drop7 -> fc7 (in-place)
I0112 16:27:35.393154 63531 net.cpp:122] Setting up drop7
I0112 16:27:35.393169 63531 net.cpp:129] Top shape: 200 4096 (819200)
I0112 16:27:35.393177 63531 net.cpp:137] Memory required for data: 2536502400
I0112 16:27:35.393184 63531 layer_factory.hpp:77] Creating layer quantized_conv1
I0112 16:27:35.393196 63531 net.cpp:84] Creating Layer quantized_conv1
I0112 16:27:35.393203 63531 net.cpp:406] quantized_conv1 <- fc7
I0112 16:27:35.393213 63531 net.cpp:367] quantized_conv1 -> fc7 (in-place)
I0112 16:27:35.393224 63531 net.cpp:122] Setting up quantized_conv1
I0112 16:27:35.393232 63531 net.cpp:129] Top shape: 200 4096 (819200)
I0112 16:27:35.393239 63531 net.cpp:137] Memory required for data: 2539779200
I0112 16:27:35.393246 63531 layer_factory.hpp:77] Creating layer fc8
I0112 16:27:35.393261 63531 net.cpp:84] Creating Layer fc8
I0112 16:27:35.393268 63531 net.cpp:406] fc8 <- fc7
I0112 16:27:35.393278 63531 net.cpp:380] fc8 -> fc8
I0112 16:27:35.393292 63531 quan_inner_product_layer.cpp:21] 1000   1000
ydwu=======get:
bit_width=8;  round_method=0;  round_strategy=1;  is_runtime=0;  range_low=-0.141857;  range_high=0.274249
I0112 16:27:35.472611 63531 net.cpp:122] Setting up fc8
I0112 16:27:35.472677 63531 net.cpp:129] Top shape: 200 1000 (200000)
I0112 16:27:35.472684 63531 net.cpp:137] Memory required for data: 2540579200
I0112 16:27:35.472723 63531 layer_factory.hpp:77] Creating layer fc8_fc8_0_split
I0112 16:27:35.472755 63531 net.cpp:84] Creating Layer fc8_fc8_0_split
I0112 16:27:35.472771 63531 net.cpp:406] fc8_fc8_0_split <- fc8
I0112 16:27:35.472800 63531 net.cpp:380] fc8_fc8_0_split -> fc8_fc8_0_split_0
I0112 16:27:35.472857 63531 net.cpp:380] fc8_fc8_0_split -> fc8_fc8_0_split_1
I0112 16:27:35.472873 63531 net.cpp:380] fc8_fc8_0_split -> fc8_fc8_0_split_2
I0112 16:27:35.472987 63531 net.cpp:122] Setting up fc8_fc8_0_split
I0112 16:27:35.473016 63531 net.cpp:129] Top shape: 200 1000 (200000)
I0112 16:27:35.473029 63531 net.cpp:129] Top shape: 200 1000 (200000)
I0112 16:27:35.473038 63531 net.cpp:129] Top shape: 200 1000 (200000)
I0112 16:27:35.473044 63531 net.cpp:137] Memory required for data: 2542979200
I0112 16:27:35.473052 63531 layer_factory.hpp:77] Creating layer accuracy
I0112 16:27:35.473075 63531 net.cpp:84] Creating Layer accuracy
I0112 16:27:35.473093 63531 net.cpp:406] accuracy <- fc8_fc8_0_split_0
I0112 16:27:35.473103 63531 net.cpp:406] accuracy <- label_data_1_split_0
I0112 16:27:35.473114 63531 net.cpp:380] accuracy -> accuracy
…
