…
I0111 18:06:30.035006 20449 net.cpp:294] The NetState phase (0) differed from the phase (1) specified by a rule in layer accuracy_5
I0111 18:06:30.035336 20449 net.cpp:51] Initializing net from parameters: 
name: "AlexNet-BN"
state {
  phase: TRAIN
  level: 0
  stage: ""
}
layer {
  name: "data"
  type: "Data"
  top: "data"
  top: "label"
  include {
    phase: TRAIN
  }
  transform_param {
    mirror: true
    crop_size: 224
    mean_value: 103.939
    mean_value: 116.779
    mean_value: 123.68
  }
  data_param {
    source: "/home/DATA/imagenet_resize/lmdb_resize/ilsvrc12_train_lmdb"
    batch_size: 200
    backend: LMDB
  }
}
layer {
  name: "conv1"
  type: "QuanConvolution"
  bottom: "data"
  top: "conv1"
  param {
    lr_mult: 1
    decay_mult: 1
  }
  param {
    lr_mult: 2
    decay_mult: 0
  }
  quan_convolution_param {
    num_output: 96
    pad: 2
    kernel_size: 11
    stride: 4
    weight_filler {
      type: "gaussian"
      std: 0.01
    }
    bias_filler {
      type: "constant"
      value: 0
    }
    round_method: ROUND
    round_strategy: NEUTRAL
    bit_width: 4
    range_low: -0.872089
    range_high: 0.927025
  }
}
layer {
  name: "bn1"
  type: "BatchNorm"
  bottom: "conv1"
  top: "conv1"
}
layer {
  name: "scale1"
  type: "Scale"
  bottom: "conv1"
  top: "conv1"
  scale_param {
    bias_term: true
  }
}
layer {
  name: "relu1"
  type: "ReLU"
  bottom: "conv1"
  top: "conv1"
}
layer {
  name: "pool1"
  type: "Pooling"
  bottom: "conv1"
  top: "pool1"
  pooling_param {
    pool: MAX
    kernel_size: 3
    stride: 2
  }
}
layer {
  name: "quantized_conv1"
  type: "Quantization"
  bottom: "pool1"
  top: "pool1"
  quantization_param {
    round_method: ROUND
    round_strategy: AGGRESSIVE
    bit_width: 8
    range: 0
    range: 13.965383
  }
}
layer {
  name: "conv2"
  type: "QuanConvolution"
  bottom: "pool1"
  top: "conv2"
  param {
    lr_mult: 1
    decay_mult: 1
  }
  param {
    lr_mult: 2
    decay_mult: 0
  }
  quan_convolution_param {
    num_output: 256
    pad: 2
    kernel_size: 5
    weight_filler {
      type: "gaussian"
      std: 0.01
    }
    bias_filler {
      type: "constant"
      value: 0.1
    }
    round_method: ROUND
    round_strategy: NEUTRAL
    bit_width: 4
    range_low: -0.806018
    range_high: 1.5182
  }
}
layer {
  name: "bn2"
  type: "BatchNorm"
  bottom: "conv2"
  top: "conv2"
}
layer {
  name: "scale2"
  type: "Scale"
  bottom: "conv2"
  top: "conv2"
  scale_param {
    bias_term: true
  }
}
layer {
  name: "relu2"
  type: "ReLU"
  bottom: "conv2"
  top: "conv2"
}
layer {
  name: "pool2"
  type: "Pooling"
  bottom: "conv2"
  top: "pool2"
  pooling_param {
    pool: MAX
    kernel_size: 3
    stride: 2
  }
}
layer {
  name: "quantized_conv1"
  type: "Quantization"
  bottom: "pool2"
  top: "pool2"
  quantization_param {
    round_method: ROUND
    round_strategy: AGGRESSIVE
    bit_width: 8
    range: 0
    range: 6.74956
  }
}
layer {
  name: "conv3"
  type: "QuanConvolution"
  bottom: "pool2"
  top: "conv3"
  param {
    lr_mult: 1
    decay_mult: 1
  }
  param {
    lr_mult: 2
    decay_mult: 0
  }
  quan_convolution_param {
    num_output: 384
    pad: 1
    kernel_size: 3
    weight_filler {
      type: "gaussian"
      std: 0.01
    }
    bias_filler {
      type: "constant"
      value: 0
    }
    round_method: ROUND
    round_strategy: NEUTRAL
    bit_width: 4
    range_low: -0.621858
    range_high: 0.673858
  }
}
layer {
  name: "bn3"
  type: "BatchNorm"
  bottom: "conv3"
  top: "conv3"
}
layer {
  name: "scale3"
  type: "Scale"
  bottom: "conv3"
  top: "conv3"
  scale_param {
    bias_term: true
  }
}
layer {
  name: "relu3"
  type: "ReLU"
  bottom: "conv3"
  top: "conv3"
}
layer {
  name: "quantized_conv1"
  type: "Quantization"
  bottom: "conv3"
  top: "conv3"
  quantization_param {
    round_method: ROUND
    round_strategy: AGGRESSIVE
    bit_width: 8
    range: 0
    range: 8.48454
  }
}
layer {
  name: "conv4"
  type: "QuanConvolution"
  bottom: "conv3"
  top: "conv4"
  param {
    lr_mult: 1
    decay_mult: 1
  }
  param {
    lr_mult: 2
    decay_mult: 0
  }
  quan_convolution_param {
    num_output: 384
    pad: 1
    kernel_size: 3
    weight_filler {
      type: "gaussian"
      std: 0.01
    }
    bias_filler {
      type: "constant"
      value: 0.1
    }
    round_method: ROUND
    round_strategy: NEUTRAL
    bit_width: 4
    range_low: -0.376634
    range_high: 0.341829
  }
}
layer {
  name: "bn4"
  type: "BatchNorm"
  bottom: "conv4"
  top: "conv4"
}
layer {
  name: "scale4"
  type: "Scale"
  bottom: "conv4"
  top: "conv4"
  scale_param {
    bias_term: true
  }
}
layer {
  name: "relu4"
  type: "ReLU"
  bottom: "conv4"
  top: "conv4"
}
layer {
  name: "quantized_conv1"
  type: "Quantization"
  bottom: "conv4"
  top: "conv4"
  quantization_param {
    round_method: ROUND
    round_strategy: AGGRESSIVE
    bit_width: 8
    range: 0
    range: 7.3369722
  }
}
layer {
  name: "conv5"
  type: "QuanConvolution"
  bottom: "conv4"
  top: "conv5"
  param {
    lr_mult: 1
    decay_mult: 1
  }
  param {
    lr_mult: 2
    decay_mult: 0
  }
  quan_convolution_param {
    num_output: 256
    pad: 1
    kernel_size: 3
    weight_filler {
      type: "gaussian"
      std: 0.01
    }
    bias_filler {
      type: "constant"
      value: 0.1
    }
    round_method: ROUND
    round_strategy: NEUTRAL
    bit_width: 4
    range_low: -0.347658
    range_high: 0.330042
  }
}
layer {
  name: "bn5"
  type: "BatchNorm"
  bottom: "conv5"
  top: "conv5"
}
layer {
  name: "scale5"
  type: "Scale"
  bottom: "conv5"
  top: "conv5"
  scale_param {
    bias_term: true
  }
}
layer {
  name: "relu5"
  type: "ReLU"
  bottom: "conv5"
  top: "conv5"
}
layer {
  name: "pool5"
  type: "Pooling"
  bottom: "conv5"
  top: "pool5"
  pooling_param {
    pool: MAX
    kernel_size: 3
    stride: 2
  }
}
layer {
  name: "quantized_conv1"
  type: "Quantization"
  bottom: "pool5"
  top: "pool5"
  quantization_param {
    round_method: ROUND
    round_strategy: AGGRESSIVE
    bit_width: 8
    range: 0
    range: 8.7577133
  }
}
layer {
  name: "fc6"
  type: "QuanInnerProduct"
  bottom: "pool5"
  top: "fc6"
  param {
    lr_mult: 1
    decay_mult: 1
  }
  param {
    lr_mult: 2
    decay_mult: 0
  }
  quan_inner_product_param {
    num_output: 4096
    weight_filler {
      type: "gaussian"
      std: 0.005
    }
    bias_filler {
      type: "constant"
      value: 0.1
    }
    round_method: ROUND
    round_strategy: NEUTRAL
    bit_width: 4
    range_low: -0.160061
    range_high: 0.148064
  }
}
layer {
  name: "bn6"
  type: "BatchNorm"
  bottom: "fc6"
  top: "fc6"
}
layer {
  name: "scale6"
  type: "Scale"
  bottom: "fc6"
  top: "fc6"
  scale_param {
    bias_term: true
  }
}
layer {
  name: "relu6"
  type: "ReLU"
  bottom: "fc6"
  top: "fc6"
}
layer {
  name: "drop6"
  type: "Dropout"
  bottom: "fc6"
  top: "fc6"
  dropout_param {
    dropout_ratio: 0.5
  }
}
layer {
  name: "quantized_conv1"
  type: "Quantization"
  bottom: "fc6"
  top: "fc6"
  quantization_param {
    round_method: ROUND
    round_strategy: AGGRESSIVE
    bit_width: 8
    range: 0
    range: 1.659358
  }
}
layer {
  name: "fc7"
  type: "QuanInnerProduct"
  bottom: "fc6"
  top: "fc7"
  param {
    lr_mult: 1
    decay_mult: 1
  }
  param {
    lr_mult: 2
    decay_mult: 0
  }
  quan_inner_product_param {
    num_output: 4096
    weight_filler {
      type: "gaussian"
      std: 0.005
    }
    bias_filler {
      type: "constant"
      value: 0.1
    }
    round_method: ROUND
    round_strategy: NEUTRAL
    bit_width: 4
    range_low: -0.162636
    range_high: 0.197684
  }
}
layer {
  name: "bn7"
  type: "BatchNorm"
  bottom: "fc7"
  top: "fc7"
}
layer {
  name: "scale7"
  type: "Scale"
  bottom: "fc7"
  top: "fc7"
  scale_param {
    bias_term: true
  }
}
layer {
  name: "relu7"
  type: "ReLU"
  bottom: "fc7"
  top: "fc7"
}
layer {
  name: "drop7"
  type: "Dropout"
  bottom: "fc7"
  top: "fc7"
  dropout_param {
    dropout_ratio: 0.5
  }
}
layer {
  name: "quantized_conv1"
  type: "Quantization"
  bottom: "fc7"
  top: "fc7"
  quantization_param {
    round_method: ROUND
    round_strategy: AGGRESSIVE
    bit_width: 8
    range: 0
    range: 7.5598521
  }
}
layer {
  name: "fc8"
  type: "QuanInnerProduct"
  bottom: "fc7"
  top: "fc8"
  param {
    lr_mult: 1
    decay_mult: 1
  }
  param {
    lr_mult: 2
    decay_mult: 0
  }
  quan_inner_product_param {
    num_output: 1000
    weight_filler {
      type: "gaussian"
      std: 0.01
    }
    bias_filler {
      type: "constant"
      value: 0
    }
    round_method: ROUND
    round_strategy: NEUTRAL
    bit_width: 4
    range_low: -0.141857
    range_high: 0.274249
  }
}
layer {
  name: "accuracy_5_TRAIN"
  type: "Accuracy"
  bottom: "fc8"
  bottom: "label"
  top: "accuracy_5_TRAIN"
  include {
    phase: TRAIN
  }
  accuracy_param {
    top_k: 5
  }
}
layer {
  name: "loss"
  type: "SoftmaxWithLoss"
  bottom: "fc8"
  bottom: "label"
  top: "loss"
}
I0111 18:06:30.035629 20449 layer_factory.hpp:77] Creating layer data
I0111 18:06:30.035820 20449 db_lmdb.cpp:35] Opened lmdb /home/DATA/imagenet_resize/lmdb_resize/ilsvrc12_train_lmdb
I0111 18:06:30.035909 20449 net.cpp:84] Creating Layer data
I0111 18:06:30.035925 20449 net.cpp:380] data -> data
I0111 18:06:30.035969 20449 net.cpp:380] data -> label
I0111 18:06:30.037950 20449 data_layer.cpp:45] output data size: 200,3,224,224
I0111 18:06:30.512017 20449 net.cpp:122] Setting up data
I0111 18:06:30.512092 20449 net.cpp:129] Top shape: 200 3 224 224 (30105600)
I0111 18:06:30.512104 20449 net.cpp:129] Top shape: 200 (200)
I0111 18:06:30.512112 20449 net.cpp:137] Memory required for data: 120423200
I0111 18:06:30.512130 20449 layer_factory.hpp:77] Creating layer label_data_1_split
I0111 18:06:30.512152 20449 net.cpp:84] Creating Layer label_data_1_split
I0111 18:06:30.512164 20449 net.cpp:406] label_data_1_split <- label
I0111 18:06:30.512187 20449 net.cpp:380] label_data_1_split -> label_data_1_split_0
I0111 18:06:30.512205 20449 net.cpp:380] label_data_1_split -> label_data_1_split_1
I0111 18:06:30.512277 20449 net.cpp:122] Setting up label_data_1_split
I0111 18:06:30.512290 20449 net.cpp:129] Top shape: 200 (200)
I0111 18:06:30.512297 20449 net.cpp:129] Top shape: 200 (200)
I0111 18:06:30.512302 20449 net.cpp:137] Memory required for data: 120424800
I0111 18:06:30.512308 20449 layer_factory.hpp:77] Creating layer conv1
I0111 18:06:30.512337 20449 net.cpp:84] Creating Layer conv1
I0111 18:06:30.512346 20449 net.cpp:406] conv1 <- data
I0111 18:06:30.512357 20449 net.cpp:380] conv1 -> conv1
ydwu=======get:
bit_width=4;  round_method=0;  round_strategy=1;  is_runtime=0;  range_low=-0.872089;  range_high=0.927025
I0111 18:06:30.533874 20449 net.cpp:122] Setting up conv1
I0111 18:06:30.533905 20449 net.cpp:129] Top shape: 200 96 55 55 (58080000)
I0111 18:06:30.533910 20449 net.cpp:137] Memory required for data: 352744800
I0111 18:06:30.533937 20449 layer_factory.hpp:77] Creating layer bn1
I0111 18:06:30.533952 20449 net.cpp:84] Creating Layer bn1
I0111 18:06:30.533967 20449 net.cpp:406] bn1 <- conv1
I0111 18:06:30.533974 20449 net.cpp:367] bn1 -> conv1 (in-place)
I0111 18:06:30.534175 20449 net.cpp:122] Setting up bn1
I0111 18:06:30.534189 20449 net.cpp:129] Top shape: 200 96 55 55 (58080000)
I0111 18:06:30.534195 20449 net.cpp:137] Memory required for data: 585064800
I0111 18:06:30.534217 20449 layer_factory.hpp:77] Creating layer scale1
I0111 18:06:30.534246 20449 net.cpp:84] Creating Layer scale1
I0111 18:06:30.534255 20449 net.cpp:406] scale1 <- conv1
I0111 18:06:30.534328 20449 net.cpp:367] scale1 -> conv1 (in-place)
I0111 18:06:30.534405 20449 layer_factory.hpp:77] Creating layer scale1
I0111 18:06:30.534584 20449 net.cpp:122] Setting up scale1
I0111 18:06:30.534596 20449 net.cpp:129] Top shape: 200 96 55 55 (58080000)
I0111 18:06:30.534615 20449 net.cpp:137] Memory required for data: 817384800
I0111 18:06:30.534626 20449 layer_factory.hpp:77] Creating layer relu1
I0111 18:06:30.534646 20449 net.cpp:84] Creating Layer relu1
I0111 18:06:30.534652 20449 net.cpp:406] relu1 <- conv1
I0111 18:06:30.534662 20449 net.cpp:367] relu1 -> conv1 (in-place)
I0111 18:06:30.534672 20449 net.cpp:122] Setting up relu1
I0111 18:06:30.534682 20449 net.cpp:129] Top shape: 200 96 55 55 (58080000)
I0111 18:06:30.534688 20449 net.cpp:137] Memory required for data: 1049704800
I0111 18:06:30.534694 20449 layer_factory.hpp:77] Creating layer pool1
I0111 18:06:30.534715 20449 net.cpp:84] Creating Layer pool1
I0111 18:06:30.534721 20449 net.cpp:406] pool1 <- conv1
I0111 18:06:30.534730 20449 net.cpp:380] pool1 -> pool1
I0111 18:06:30.534819 20449 net.cpp:122] Setting up pool1
I0111 18:06:30.534843 20449 net.cpp:129] Top shape: 200 96 27 27 (13996800)
I0111 18:06:30.534850 20449 net.cpp:137] Memory required for data: 1105692000
I0111 18:06:30.534857 20449 layer_factory.hpp:77] Creating layer quantized_conv1
I0111 18:06:30.534868 20449 net.cpp:84] Creating Layer quantized_conv1
I0111 18:06:30.534875 20449 net.cpp:406] quantized_conv1 <- pool1
I0111 18:06:30.534893 20449 net.cpp:367] quantized_conv1 -> pool1 (in-place)
I0111 18:06:30.534906 20449 net.cpp:122] Setting up quantized_conv1
I0111 18:06:30.534916 20449 net.cpp:129] Top shape: 200 96 27 27 (13996800)
I0111 18:06:30.534924 20449 net.cpp:137] Memory required for data: 1161679200
I0111 18:06:30.534931 20449 layer_factory.hpp:77] Creating layer conv2
I0111 18:06:30.534947 20449 net.cpp:84] Creating Layer conv2
I0111 18:06:30.534955 20449 net.cpp:406] conv2 <- pool1
I0111 18:06:30.534967 20449 net.cpp:380] conv2 -> conv2
ydwu=======get:
bit_width=4;  round_method=0;  round_strategy=1;  is_runtime=0;  range_low=-0.806018;  range_high=1.5182
I0111 18:06:30.547122 20449 net.cpp:122] Setting up conv2
I0111 18:06:30.547161 20449 net.cpp:129] Top shape: 200 256 27 27 (37324800)
I0111 18:06:30.547168 20449 net.cpp:137] Memory required for data: 1310978400
I0111 18:06:30.547188 20449 layer_factory.hpp:77] Creating layer bn2
I0111 18:06:30.547206 20449 net.cpp:84] Creating Layer bn2
I0111 18:06:30.547214 20449 net.cpp:406] bn2 <- conv2
I0111 18:06:30.547225 20449 net.cpp:367] bn2 -> conv2 (in-place)
I0111 18:06:30.547441 20449 net.cpp:122] Setting up bn2
I0111 18:06:30.547456 20449 net.cpp:129] Top shape: 200 256 27 27 (37324800)
I0111 18:06:30.547471 20449 net.cpp:137] Memory required for data: 1460277600
I0111 18:06:30.547482 20449 layer_factory.hpp:77] Creating layer scale2
I0111 18:06:30.547497 20449 net.cpp:84] Creating Layer scale2
I0111 18:06:30.547504 20449 net.cpp:406] scale2 <- conv2
I0111 18:06:30.547513 20449 net.cpp:367] scale2 -> conv2 (in-place)
I0111 18:06:30.547580 20449 layer_factory.hpp:77] Creating layer scale2
I0111 18:06:30.547721 20449 net.cpp:122] Setting up scale2
I0111 18:06:30.547734 20449 net.cpp:129] Top shape: 200 256 27 27 (37324800)
I0111 18:06:30.547749 20449 net.cpp:137] Memory required for data: 1609576800
I0111 18:06:30.547758 20449 layer_factory.hpp:77] Creating layer relu2
I0111 18:06:30.547768 20449 net.cpp:84] Creating Layer relu2
I0111 18:06:30.547775 20449 net.cpp:406] relu2 <- conv2
I0111 18:06:30.547785 20449 net.cpp:367] relu2 -> conv2 (in-place)
I0111 18:06:30.547796 20449 net.cpp:122] Setting up relu2
I0111 18:06:30.547804 20449 net.cpp:129] Top shape: 200 256 27 27 (37324800)
I0111 18:06:30.547811 20449 net.cpp:137] Memory required for data: 1758876000
I0111 18:06:30.547819 20449 layer_factory.hpp:77] Creating layer pool2
I0111 18:06:30.547832 20449 net.cpp:84] Creating Layer pool2
I0111 18:06:30.547838 20449 net.cpp:406] pool2 <- conv2
I0111 18:06:30.547848 20449 net.cpp:380] pool2 -> pool2
I0111 18:06:30.547896 20449 net.cpp:122] Setting up pool2
I0111 18:06:30.547909 20449 net.cpp:129] Top shape: 200 256 13 13 (8652800)
I0111 18:06:30.547956 20449 net.cpp:137] Memory required for data: 1793487200
I0111 18:06:30.547966 20449 layer_factory.hpp:77] Creating layer quantized_conv1
I0111 18:06:30.547979 20449 net.cpp:84] Creating Layer quantized_conv1
I0111 18:06:30.547987 20449 net.cpp:406] quantized_conv1 <- pool2
I0111 18:06:30.547999 20449 net.cpp:367] quantized_conv1 -> pool2 (in-place)
I0111 18:06:30.548012 20449 net.cpp:122] Setting up quantized_conv1
I0111 18:06:30.548022 20449 net.cpp:129] Top shape: 200 256 13 13 (8652800)
I0111 18:06:30.548028 20449 net.cpp:137] Memory required for data: 1828098400
I0111 18:06:30.548035 20449 layer_factory.hpp:77] Creating layer conv3
I0111 18:06:30.548056 20449 net.cpp:84] Creating Layer conv3
I0111 18:06:30.548064 20449 net.cpp:406] conv3 <- pool2
I0111 18:06:30.548075 20449 net.cpp:380] conv3 -> conv3
ydwu=======get:
bit_width=4;  round_method=0;  round_strategy=1;  is_runtime=0;  range_low=-0.621858;  range_high=0.673858
I0111 18:06:30.563642 20449 net.cpp:122] Setting up conv3
I0111 18:06:30.563683 20449 net.cpp:129] Top shape: 200 384 13 13 (12979200)
I0111 18:06:30.563689 20449 net.cpp:137] Memory required for data: 1880015200
I0111 18:06:30.563704 20449 layer_factory.hpp:77] Creating layer bn3
I0111 18:06:30.563729 20449 net.cpp:84] Creating Layer bn3
I0111 18:06:30.563735 20449 net.cpp:406] bn3 <- conv3
I0111 18:06:30.563750 20449 net.cpp:367] bn3 -> conv3 (in-place)
I0111 18:06:30.563964 20449 net.cpp:122] Setting up bn3
I0111 18:06:30.563987 20449 net.cpp:129] Top shape: 200 384 13 13 (12979200)
I0111 18:06:30.563993 20449 net.cpp:137] Memory required for data: 1931932000
I0111 18:06:30.564014 20449 layer_factory.hpp:77] Creating layer scale3
I0111 18:06:30.564033 20449 net.cpp:84] Creating Layer scale3
I0111 18:06:30.564039 20449 net.cpp:406] scale3 <- conv3
I0111 18:06:30.564047 20449 net.cpp:367] scale3 -> conv3 (in-place)
I0111 18:06:30.564112 20449 layer_factory.hpp:77] Creating layer scale3
I0111 18:06:30.564256 20449 net.cpp:122] Setting up scale3
I0111 18:06:30.564270 20449 net.cpp:129] Top shape: 200 384 13 13 (12979200)
I0111 18:06:30.564285 20449 net.cpp:137] Memory required for data: 1983848800
I0111 18:06:30.564293 20449 layer_factory.hpp:77] Creating layer relu3
I0111 18:06:30.564303 20449 net.cpp:84] Creating Layer relu3
I0111 18:06:30.564311 20449 net.cpp:406] relu3 <- conv3
I0111 18:06:30.564321 20449 net.cpp:367] relu3 -> conv3 (in-place)
I0111 18:06:30.564330 20449 net.cpp:122] Setting up relu3
I0111 18:06:30.564340 20449 net.cpp:129] Top shape: 200 384 13 13 (12979200)
I0111 18:06:30.564347 20449 net.cpp:137] Memory required for data: 2035765600
I0111 18:06:30.564354 20449 layer_factory.hpp:77] Creating layer quantized_conv1
I0111 18:06:30.564368 20449 net.cpp:84] Creating Layer quantized_conv1
I0111 18:06:30.564375 20449 net.cpp:406] quantized_conv1 <- conv3
I0111 18:06:30.564385 20449 net.cpp:367] quantized_conv1 -> conv3 (in-place)
I0111 18:06:30.564396 20449 net.cpp:122] Setting up quantized_conv1
I0111 18:06:30.564405 20449 net.cpp:129] Top shape: 200 384 13 13 (12979200)
I0111 18:06:30.564414 20449 net.cpp:137] Memory required for data: 2087682400
I0111 18:06:30.564420 20449 layer_factory.hpp:77] Creating layer conv4
I0111 18:06:30.564436 20449 net.cpp:84] Creating Layer conv4
I0111 18:06:30.564443 20449 net.cpp:406] conv4 <- conv3
I0111 18:06:30.564455 20449 net.cpp:380] conv4 -> conv4
ydwu=======get:
bit_width=4;  round_method=0;  round_strategy=1;  is_runtime=0;  range_low=-0.376634;  range_high=0.341829
I0111 18:06:30.587482 20449 net.cpp:122] Setting up conv4
I0111 18:06:30.587515 20449 net.cpp:129] Top shape: 200 384 13 13 (12979200)
I0111 18:06:30.587524 20449 net.cpp:137] Memory required for data: 2139599200
I0111 18:06:30.587543 20449 layer_factory.hpp:77] Creating layer bn4
I0111 18:06:30.587563 20449 net.cpp:84] Creating Layer bn4
I0111 18:06:30.587574 20449 net.cpp:406] bn4 <- conv4
I0111 18:06:30.587594 20449 net.cpp:367] bn4 -> conv4 (in-place)
I0111 18:06:30.587843 20449 net.cpp:122] Setting up bn4
I0111 18:06:30.587860 20449 net.cpp:129] Top shape: 200 384 13 13 (12979200)
I0111 18:06:30.587874 20449 net.cpp:137] Memory required for data: 2191516000
I0111 18:06:30.587888 20449 layer_factory.hpp:77] Creating layer scale4
I0111 18:06:30.587903 20449 net.cpp:84] Creating Layer scale4
I0111 18:06:30.587973 20449 net.cpp:406] scale4 <- conv4
I0111 18:06:30.587983 20449 net.cpp:367] scale4 -> conv4 (in-place)
I0111 18:06:30.588060 20449 layer_factory.hpp:77] Creating layer scale4
I0111 18:06:30.588210 20449 net.cpp:122] Setting up scale4
I0111 18:06:30.588224 20449 net.cpp:129] Top shape: 200 384 13 13 (12979200)
I0111 18:06:30.588230 20449 net.cpp:137] Memory required for data: 2243432800
I0111 18:06:30.588245 20449 layer_factory.hpp:77] Creating layer relu4
I0111 18:06:30.588258 20449 net.cpp:84] Creating Layer relu4
I0111 18:06:30.588265 20449 net.cpp:406] relu4 <- conv4
I0111 18:06:30.588274 20449 net.cpp:367] relu4 -> conv4 (in-place)
I0111 18:06:30.588285 20449 net.cpp:122] Setting up relu4
I0111 18:06:30.588294 20449 net.cpp:129] Top shape: 200 384 13 13 (12979200)
I0111 18:06:30.588302 20449 net.cpp:137] Memory required for data: 2295349600
I0111 18:06:30.588310 20449 layer_factory.hpp:77] Creating layer quantized_conv1
I0111 18:06:30.588321 20449 net.cpp:84] Creating Layer quantized_conv1
I0111 18:06:30.588332 20449 net.cpp:406] quantized_conv1 <- conv4
I0111 18:06:30.588342 20449 net.cpp:367] quantized_conv1 -> conv4 (in-place)
I0111 18:06:30.588353 20449 net.cpp:122] Setting up quantized_conv1
I0111 18:06:30.588363 20449 net.cpp:129] Top shape: 200 384 13 13 (12979200)
I0111 18:06:30.588371 20449 net.cpp:137] Memory required for data: 2347266400
I0111 18:06:30.588377 20449 layer_factory.hpp:77] Creating layer conv5
I0111 18:06:30.588397 20449 net.cpp:84] Creating Layer conv5
I0111 18:06:30.588405 20449 net.cpp:406] conv5 <- conv4
I0111 18:06:30.588416 20449 net.cpp:380] conv5 -> conv5
ydwu=======get:
bit_width=4;  round_method=0;  round_strategy=1;  is_runtime=0;  range_low=-0.347658;  range_high=0.330042
I0111 18:06:30.604452 20449 net.cpp:122] Setting up conv5
I0111 18:06:30.604488 20449 net.cpp:129] Top shape: 200 256 13 13 (8652800)
I0111 18:06:30.604496 20449 net.cpp:137] Memory required for data: 2381877600
I0111 18:06:30.604519 20449 layer_factory.hpp:77] Creating layer bn5
I0111 18:06:30.604540 20449 net.cpp:84] Creating Layer bn5
I0111 18:06:30.604549 20449 net.cpp:406] bn5 <- conv5
I0111 18:06:30.604571 20449 net.cpp:367] bn5 -> conv5 (in-place)
I0111 18:06:30.604801 20449 net.cpp:122] Setting up bn5
I0111 18:06:30.604816 20449 net.cpp:129] Top shape: 200 256 13 13 (8652800)
I0111 18:06:30.604822 20449 net.cpp:137] Memory required for data: 2416488800
I0111 18:06:30.604867 20449 layer_factory.hpp:77] Creating layer scale5
I0111 18:06:30.604885 20449 net.cpp:84] Creating Layer scale5
I0111 18:06:30.604893 20449 net.cpp:406] scale5 <- conv5
I0111 18:06:30.604902 20449 net.cpp:367] scale5 -> conv5 (in-place)
I0111 18:06:30.604982 20449 layer_factory.hpp:77] Creating layer scale5
I0111 18:06:30.605128 20449 net.cpp:122] Setting up scale5
I0111 18:06:30.605140 20449 net.cpp:129] Top shape: 200 256 13 13 (8652800)
I0111 18:06:30.605155 20449 net.cpp:137] Memory required for data: 2451100000
I0111 18:06:30.605165 20449 layer_factory.hpp:77] Creating layer relu5
I0111 18:06:30.605175 20449 net.cpp:84] Creating Layer relu5
I0111 18:06:30.605181 20449 net.cpp:406] relu5 <- conv5
I0111 18:06:30.605192 20449 net.cpp:367] relu5 -> conv5 (in-place)
I0111 18:06:30.605203 20449 net.cpp:122] Setting up relu5
I0111 18:06:30.605212 20449 net.cpp:129] Top shape: 200 256 13 13 (8652800)
I0111 18:06:30.605218 20449 net.cpp:137] Memory required for data: 2485711200
I0111 18:06:30.605224 20449 layer_factory.hpp:77] Creating layer pool5
I0111 18:06:30.605237 20449 net.cpp:84] Creating Layer pool5
I0111 18:06:30.605243 20449 net.cpp:406] pool5 <- conv5
I0111 18:06:30.605255 20449 net.cpp:380] pool5 -> pool5
I0111 18:06:30.605306 20449 net.cpp:122] Setting up pool5
I0111 18:06:30.605319 20449 net.cpp:129] Top shape: 200 256 6 6 (1843200)
I0111 18:06:30.605325 20449 net.cpp:137] Memory required for data: 2493084000
I0111 18:06:30.605334 20449 layer_factory.hpp:77] Creating layer quantized_conv1
I0111 18:06:30.605345 20449 net.cpp:84] Creating Layer quantized_conv1
I0111 18:06:30.605352 20449 net.cpp:406] quantized_conv1 <- pool5
I0111 18:06:30.605362 20449 net.cpp:367] quantized_conv1 -> pool5 (in-place)
I0111 18:06:30.605373 20449 net.cpp:122] Setting up quantized_conv1
I0111 18:06:30.605423 20449 net.cpp:129] Top shape: 200 256 6 6 (1843200)
I0111 18:06:30.605432 20449 net.cpp:137] Memory required for data: 2500456800
I0111 18:06:30.605438 20449 layer_factory.hpp:77] Creating layer fc6
I0111 18:06:30.605455 20449 net.cpp:84] Creating Layer fc6
I0111 18:06:30.605463 20449 net.cpp:406] fc6 <- pool5
I0111 18:06:30.605473 20449 net.cpp:380] fc6 -> fc6
I0111 18:06:30.605490 20449 quan_inner_product_layer.cpp:21] 4096   4096
ydwu=======get:
bit_width=4;  round_method=0;  round_strategy=1;  is_runtime=0;  range_low=-0.160061;  range_high=0.148064
I0111 18:06:31.237238 20449 net.cpp:122] Setting up fc6
I0111 18:06:31.237290 20449 net.cpp:129] Top shape: 200 4096 (819200)
I0111 18:06:31.237298 20449 net.cpp:137] Memory required for data: 2503733600
I0111 18:06:31.237314 20449 layer_factory.hpp:77] Creating layer bn6
I0111 18:06:31.237344 20449 net.cpp:84] Creating Layer bn6
I0111 18:06:31.237350 20449 net.cpp:406] bn6 <- fc6
I0111 18:06:31.237363 20449 net.cpp:367] bn6 -> fc6 (in-place)
I0111 18:06:31.237589 20449 net.cpp:122] Setting up bn6
I0111 18:06:31.237601 20449 net.cpp:129] Top shape: 200 4096 (819200)
I0111 18:06:31.237607 20449 net.cpp:137] Memory required for data: 2507010400
I0111 18:06:31.237623 20449 layer_factory.hpp:77] Creating layer scale6
I0111 18:06:31.237643 20449 net.cpp:84] Creating Layer scale6
I0111 18:06:31.237651 20449 net.cpp:406] scale6 <- fc6
I0111 18:06:31.237658 20449 net.cpp:367] scale6 -> fc6 (in-place)
I0111 18:06:31.237721 20449 layer_factory.hpp:77] Creating layer scale6
I0111 18:06:31.237867 20449 net.cpp:122] Setting up scale6
I0111 18:06:31.237880 20449 net.cpp:129] Top shape: 200 4096 (819200)
I0111 18:06:31.237885 20449 net.cpp:137] Memory required for data: 2510287200
I0111 18:06:31.237895 20449 layer_factory.hpp:77] Creating layer relu6
I0111 18:06:31.237906 20449 net.cpp:84] Creating Layer relu6
I0111 18:06:31.237915 20449 net.cpp:406] relu6 <- fc6
I0111 18:06:31.237923 20449 net.cpp:367] relu6 -> fc6 (in-place)
I0111 18:06:31.237931 20449 net.cpp:122] Setting up relu6
I0111 18:06:31.237939 20449 net.cpp:129] Top shape: 200 4096 (819200)
I0111 18:06:31.237944 20449 net.cpp:137] Memory required for data: 2513564000
I0111 18:06:31.237949 20449 layer_factory.hpp:77] Creating layer drop6
I0111 18:06:31.237960 20449 net.cpp:84] Creating Layer drop6
I0111 18:06:31.237965 20449 net.cpp:406] drop6 <- fc6
I0111 18:06:31.237977 20449 net.cpp:367] drop6 -> fc6 (in-place)
I0111 18:06:31.238014 20449 net.cpp:122] Setting up drop6
I0111 18:06:31.238025 20449 net.cpp:129] Top shape: 200 4096 (819200)
I0111 18:06:31.238032 20449 net.cpp:137] Memory required for data: 2516840800
I0111 18:06:31.238039 20449 layer_factory.hpp:77] Creating layer quantized_conv1
I0111 18:06:31.238054 20449 net.cpp:84] Creating Layer quantized_conv1
I0111 18:06:31.238061 20449 net.cpp:406] quantized_conv1 <- fc6
I0111 18:06:31.238070 20449 net.cpp:367] quantized_conv1 -> fc6 (in-place)
I0111 18:06:31.238081 20449 net.cpp:122] Setting up quantized_conv1
I0111 18:06:31.238090 20449 net.cpp:129] Top shape: 200 4096 (819200)
I0111 18:06:31.238095 20449 net.cpp:137] Memory required for data: 2520117600
I0111 18:06:31.238102 20449 layer_factory.hpp:77] Creating layer fc7
I0111 18:06:31.238114 20449 net.cpp:84] Creating Layer fc7
I0111 18:06:31.238121 20449 net.cpp:406] fc7 <- fc6
I0111 18:06:31.238131 20449 net.cpp:380] fc7 -> fc7
I0111 18:06:31.238147 20449 quan_inner_product_layer.cpp:21] 4096   4096
ydwu=======get:
bit_width=4;  round_method=0;  round_strategy=1;  is_runtime=0;  range_low=-0.162636;  range_high=0.197684
I0111 18:06:31.497977 20449 net.cpp:122] Setting up fc7
I0111 18:06:31.498029 20449 net.cpp:129] Top shape: 200 4096 (819200)
I0111 18:06:31.498035 20449 net.cpp:137] Memory required for data: 2523394400
I0111 18:06:31.498051 20449 layer_factory.hpp:77] Creating layer bn7
I0111 18:06:31.498070 20449 net.cpp:84] Creating Layer bn7
I0111 18:06:31.498078 20449 net.cpp:406] bn7 <- fc7
I0111 18:06:31.498097 20449 net.cpp:367] bn7 -> fc7 (in-place)
I0111 18:06:31.498317 20449 net.cpp:122] Setting up bn7
I0111 18:06:31.498330 20449 net.cpp:129] Top shape: 200 4096 (819200)
I0111 18:06:31.498344 20449 net.cpp:137] Memory required for data: 2526671200
I0111 18:06:31.498355 20449 layer_factory.hpp:77] Creating layer scale7
I0111 18:06:31.498422 20449 net.cpp:84] Creating Layer scale7
I0111 18:06:31.498430 20449 net.cpp:406] scale7 <- fc7
I0111 18:06:31.498436 20449 net.cpp:367] scale7 -> fc7 (in-place)
I0111 18:06:31.498492 20449 layer_factory.hpp:77] Creating layer scale7
I0111 18:06:31.498623 20449 net.cpp:122] Setting up scale7
I0111 18:06:31.498636 20449 net.cpp:129] Top shape: 200 4096 (819200)
I0111 18:06:31.498643 20449 net.cpp:137] Memory required for data: 2529948000
I0111 18:06:31.498654 20449 layer_factory.hpp:77] Creating layer relu7
I0111 18:06:31.498664 20449 net.cpp:84] Creating Layer relu7
I0111 18:06:31.498672 20449 net.cpp:406] relu7 <- fc7
I0111 18:06:31.498682 20449 net.cpp:367] relu7 -> fc7 (in-place)
I0111 18:06:31.498692 20449 net.cpp:122] Setting up relu7
I0111 18:06:31.498700 20449 net.cpp:129] Top shape: 200 4096 (819200)
I0111 18:06:31.498708 20449 net.cpp:137] Memory required for data: 2533224800
I0111 18:06:31.498714 20449 layer_factory.hpp:77] Creating layer drop7
I0111 18:06:31.498725 20449 net.cpp:84] Creating Layer drop7
I0111 18:06:31.498731 20449 net.cpp:406] drop7 <- fc7
I0111 18:06:31.498742 20449 net.cpp:367] drop7 -> fc7 (in-place)
I0111 18:06:31.498771 20449 net.cpp:122] Setting up drop7
I0111 18:06:31.498782 20449 net.cpp:129] Top shape: 200 4096 (819200)
I0111 18:06:31.498788 20449 net.cpp:137] Memory required for data: 2536501600
I0111 18:06:31.498795 20449 layer_factory.hpp:77] Creating layer quantized_conv1
I0111 18:06:31.498811 20449 net.cpp:84] Creating Layer quantized_conv1
I0111 18:06:31.498817 20449 net.cpp:406] quantized_conv1 <- fc7
I0111 18:06:31.498826 20449 net.cpp:367] quantized_conv1 -> fc7 (in-place)
I0111 18:06:31.498837 20449 net.cpp:122] Setting up quantized_conv1
I0111 18:06:31.498845 20449 net.cpp:129] Top shape: 200 4096 (819200)
I0111 18:06:31.498852 20449 net.cpp:137] Memory required for data: 2539778400
I0111 18:06:31.498859 20449 layer_factory.hpp:77] Creating layer fc8
I0111 18:06:31.498872 20449 net.cpp:84] Creating Layer fc8
I0111 18:06:31.498878 20449 net.cpp:406] fc8 <- fc7
I0111 18:06:31.498888 20449 net.cpp:380] fc8 -> fc8
I0111 18:06:31.498899 20449 quan_inner_product_layer.cpp:21] 1000   1000
ydwu=======get:
bit_width=4;  round_method=0;  round_strategy=1;  is_runtime=0;  range_low=-0.141857;  range_high=0.274249
I0111 18:06:31.563478 20449 net.cpp:122] Setting up fc8
I0111 18:06:31.563521 20449 net.cpp:129] Top shape: 200 1000 (200000)
I0111 18:06:31.563527 20449 net.cpp:137] Memory required for data: 2540578400
I0111 18:06:31.563544 20449 layer_factory.hpp:77] Creating layer fc8_fc8_0_split
I0111 18:06:31.563561 20449 net.cpp:84] Creating Layer fc8_fc8_0_split
I0111 18:06:31.563570 20449 net.cpp:406] fc8_fc8_0_split <- fc8
I0111 18:06:31.563585 20449 net.cpp:380] fc8_fc8_0_split -> fc8_fc8_0_split_0
I0111 18:06:31.563601 20449 net.cpp:380] fc8_fc8_0_split -> fc8_fc8_0_split_1
I0111 18:06:31.563665 20449 net.cpp:122] Setting up fc8_fc8_0_split
I0111 18:06:31.563678 20449 net.cpp:129] Top shape: 200 1000 (200000)
I0111 18:06:31.563685 20449 net.cpp:129] Top shape: 200 1000 (200000)
I0111 18:06:31.563690 20449 net.cpp:137] Memory required for data: 2542178400
I0111 18:06:31.563695 20449 layer_factory.hpp:77] Creating layer accuracy_5_TRAIN
I0111 18:06:31.563711 20449 net.cpp:84] Creating Layer accuracy_5_TRAIN
I0111 18:06:31.563719 20449 net.cpp:406] accuracy_5_TRAIN <- fc8_fc8_0_split_0
I0111 18:06:31.563729 20449 net.cpp:406] accuracy_5_TRAIN <- label_data_1_split_0
…
I0111 18:06:31.829427 20449 net.cpp:294] The NetState phase (1) differed from the phase (0) specified by a rule in layer accuracy_5_TRAIN
I0111 18:06:31.829790 20449 net.cpp:51] Initializing net from parameters: 
name: "AlexNet-BN"
state {
  phase: TEST
}
layer {
  name: "data"
  type: "Data"
  top: "data"
  top: "label"
  include {
    phase: TEST
  }
  transform_param {
    mirror: false
    crop_size: 224
    mean_value: 103.939
    mean_value: 116.779
    mean_value: 123.68
  }
  data_param {
    source: "/home/DATA/imagenet_resize/lmdb_resize/ilsvrc12_val_lmdb"
    batch_size: 200
    backend: LMDB
  }
}
layer {
  name: "conv1"
  type: "QuanConvolution"
  bottom: "data"
  top: "conv1"
  param {
    lr_mult: 1
    decay_mult: 1
  }
  param {
    lr_mult: 2
    decay_mult: 0
  }
  quan_convolution_param {
    num_output: 96
    pad: 2
    kernel_size: 11
    stride: 4
    weight_filler {
      type: "gaussian"
      std: 0.01
    }
    bias_filler {
      type: "constant"
      value: 0
    }
    round_method: ROUND
    round_strategy: NEUTRAL
    bit_width: 4
    range_low: -0.872089
    range_high: 0.927025
  }
}
layer {
  name: "bn1"
  type: "BatchNorm"
  bottom: "conv1"
  top: "conv1"
}
layer {
  name: "scale1"
  type: "Scale"
  bottom: "conv1"
  top: "conv1"
  scale_param {
    bias_term: true
  }
}
layer {
  name: "relu1"
  type: "ReLU"
  bottom: "conv1"
  top: "conv1"
}
layer {
  name: "pool1"
  type: "Pooling"
  bottom: "conv1"
  top: "pool1"
  pooling_param {
    pool: MAX
    kernel_size: 3
    stride: 2
  }
}
layer {
  name: "quantized_conv1"
  type: "Quantization"
  bottom: "pool1"
  top: "pool1"
  quantization_param {
    round_method: ROUND
    round_strategy: AGGRESSIVE
    bit_width: 8
    range: 0
    range: 13.965383
  }
}
layer {
  name: "conv2"
  type: "QuanConvolution"
  bottom: "pool1"
  top: "conv2"
  param {
    lr_mult: 1
    decay_mult: 1
  }
  param {
    lr_mult: 2
    decay_mult: 0
  }
  quan_convolution_param {
    num_output: 256
    pad: 2
    kernel_size: 5
    weight_filler {
      type: "gaussian"
      std: 0.01
    }
    bias_filler {
      type: "constant"
      value: 0.1
    }
    round_method: ROUND
    round_strategy: NEUTRAL
    bit_width: 4
    range_low: -0.806018
    range_high: 1.5182
  }
}
layer {
  name: "bn2"
  type: "BatchNorm"
  bottom: "conv2"
  top: "conv2"
}
layer {
  name: "scale2"
  type: "Scale"
  bottom: "conv2"
  top: "conv2"
  scale_param {
    bias_term: true
  }
}
layer {
  name: "relu2"
  type: "ReLU"
  bottom: "conv2"
  top: "conv2"
}
layer {
  name: "pool2"
  type: "Pooling"
  bottom: "conv2"
  top: "pool2"
  pooling_param {
    pool: MAX
    kernel_size: 3
    stride: 2
  }
}
layer {
  name: "quantized_conv1"
  type: "Quantization"
  bottom: "pool2"
  top: "pool2"
  quantization_param {
    round_method: ROUND
    round_strategy: AGGRESSIVE
    bit_width: 8
    range: 0
    range: 6.74956
  }
}
layer {
  name: "conv3"
  type: "QuanConvolution"
  bottom: "pool2"
  top: "conv3"
  param {
    lr_mult: 1
    decay_mult: 1
  }
  param {
    lr_mult: 2
    decay_mult: 0
  }
  quan_convolution_param {
    num_output: 384
    pad: 1
    kernel_size: 3
    weight_filler {
      type: "gaussian"
      std: 0.01
    }
    bias_filler {
      type: "constant"
      value: 0
    }
    round_method: ROUND
    round_strategy: NEUTRAL
    bit_width: 4
    range_low: -0.621858
    range_high: 0.673858
  }
}
layer {
  name: "bn3"
  type: "BatchNorm"
  bottom: "conv3"
  top: "conv3"
}
layer {
  name: "scale3"
  type: "Scale"
  bottom: "conv3"
  top: "conv3"
  scale_param {
    bias_term: true
  }
}
layer {
  name: "relu3"
  type: "ReLU"
  bottom: "conv3"
  top: "conv3"
}
layer {
  name: "quantized_conv1"
  type: "Quantization"
  bottom: "conv3"
  top: "conv3"
  quantization_param {
    round_method: ROUND
    round_strategy: AGGRESSIVE
    bit_width: 8
    range: 0
    range: 8.48454
  }
}
layer {
  name: "conv4"
  type: "QuanConvolution"
  bottom: "conv3"
  top: "conv4"
  param {
    lr_mult: 1
    decay_mult: 1
  }
  param {
    lr_mult: 2
    decay_mult: 0
  }
  quan_convolution_param {
    num_output: 384
    pad: 1
    kernel_size: 3
    weight_filler {
      type: "gaussian"
      std: 0.01
    }
    bias_filler {
      type: "constant"
      value: 0.1
    }
    round_method: ROUND
    round_strategy: NEUTRAL
    bit_width: 4
    range_low: -0.376634
    range_high: 0.341829
  }
}
layer {
  name: "bn4"
  type: "BatchNorm"
  bottom: "conv4"
  top: "conv4"
}
layer {
  name: "scale4"
  type: "Scale"
  bottom: "conv4"
  top: "conv4"
  scale_param {
    bias_term: true
  }
}
layer {
  name: "relu4"
  type: "ReLU"
  bottom: "conv4"
  top: "conv4"
}
layer {
  name: "quantized_conv1"
  type: "Quantization"
  bottom: "conv4"
  top: "conv4"
  quantization_param {
    round_method: ROUND
    round_strategy: AGGRESSIVE
    bit_width: 8
    range: 0
    range: 7.3369722
  }
}
layer {
  name: "conv5"
  type: "QuanConvolution"
  bottom: "conv4"
  top: "conv5"
  param {
    lr_mult: 1
    decay_mult: 1
  }
  param {
    lr_mult: 2
    decay_mult: 0
  }
  quan_convolution_param {
    num_output: 256
    pad: 1
    kernel_size: 3
    weight_filler {
      type: "gaussian"
      std: 0.01
    }
    bias_filler {
      type: "constant"
      value: 0.1
    }
    round_method: ROUND
    round_strategy: NEUTRAL
    bit_width: 4
    range_low: -0.347658
    range_high: 0.330042
  }
}
layer {
  name: "bn5"
  type: "BatchNorm"
  bottom: "conv5"
  top: "conv5"
}
layer {
  name: "scale5"
  type: "Scale"
  bottom: "conv5"
  top: "conv5"
  scale_param {
    bias_term: true
  }
}
layer {
  name: "relu5"
  type: "ReLU"
  bottom: "conv5"
  top: "conv5"
}
layer {
  name: "pool5"
  type: "Pooling"
  bottom: "conv5"
  top: "pool5"
  pooling_param {
    pool: MAX
    kernel_size: 3
    stride: 2
  }
}
layer {
  name: "quantized_conv1"
  type: "Quantization"
  bottom: "pool5"
  top: "pool5"
  quantization_param {
    round_method: ROUND
    round_strategy: AGGRESSIVE
    bit_width: 8
    range: 0
    range: 8.7577133
  }
}
layer {
  name: "fc6"
  type: "QuanInnerProduct"
  bottom: "pool5"
  top: "fc6"
  param {
    lr_mult: 1
    decay_mult: 1
  }
  param {
    lr_mult: 2
    decay_mult: 0
  }
  quan_inner_product_param {
    num_output: 4096
    weight_filler {
      type: "gaussian"
      std: 0.005
    }
    bias_filler {
      type: "constant"
      value: 0.1
    }
    round_method: ROUND
    round_strategy: NEUTRAL
    bit_width: 4
    range_low: -0.160061
    range_high: 0.148064
  }
}
layer {
  name: "bn6"
  type: "BatchNorm"
  bottom: "fc6"
  top: "fc6"
}
layer {
  name: "scale6"
  type: "Scale"
  bottom: "fc6"
  top: "fc6"
  scale_param {
    bias_term: true
  }
}
layer {
  name: "relu6"
  type: "ReLU"
  bottom: "fc6"
  top: "fc6"
}
layer {
  name: "drop6"
  type: "Dropout"
  bottom: "fc6"
  top: "fc6"
  dropout_param {
    dropout_ratio: 0.5
  }
}
layer {
  name: "quantized_conv1"
  type: "Quantization"
  bottom: "fc6"
  top: "fc6"
  quantization_param {
    round_method: ROUND
    round_strategy: AGGRESSIVE
    bit_width: 8
    range: 0
    range: 1.659358
  }
}
layer {
  name: "fc7"
  type: "QuanInnerProduct"
  bottom: "fc6"
  top: "fc7"
  param {
    lr_mult: 1
    decay_mult: 1
  }
  param {
    lr_mult: 2
    decay_mult: 0
  }
  quan_inner_product_param {
    num_output: 4096
    weight_filler {
      type: "gaussian"
      std: 0.005
    }
    bias_filler {
      type: "constant"
      value: 0.1
    }
    round_method: ROUND
    round_strategy: NEUTRAL
    bit_width: 4
    range_low: -0.162636
    range_high: 0.197684
  }
}
layer {
  name: "bn7"
  type: "BatchNorm"
  bottom: "fc7"
  top: "fc7"
}
layer {
  name: "scale7"
  type: "Scale"
  bottom: "fc7"
  top: "fc7"
  scale_param {
    bias_term: true
  }
}
layer {
  name: "relu7"
  type: "ReLU"
  bottom: "fc7"
  top: "fc7"
}
layer {
  name: "drop7"
  type: "Dropout"
  bottom: "fc7"
  top: "fc7"
  dropout_param {
    dropout_ratio: 0.5
  }
}
layer {
  name: "quantized_conv1"
  type: "Quantization"
  bottom: "fc7"
  top: "fc7"
  quantization_param {
    round_method: ROUND
    round_strategy: AGGRESSIVE
    bit_width: 8
    range: 0
    range: 7.5598521
  }
}
layer {
  name: "fc8"
  type: "QuanInnerProduct"
  bottom: "fc7"
  top: "fc8"
  param {
    lr_mult: 1
    decay_mult: 1
  }
  param {
    lr_mult: 2
    decay_mult: 0
  }
  quan_inner_product_param {
    num_output: 1000
    weight_filler {
      type: "gaussian"
      std: 0.01
    }
    bias_filler {
      type: "constant"
      value: 0
    }
    round_method: ROUND
    round_strategy: NEUTRAL
    bit_width: 4
    range_low: -0.141857
    range_high: 0.274249
  }
}
layer {
  name: "accuracy"
  type: "Accuracy"
  bottom: "fc8"
  bottom: "label"
  top: "accuracy"
  include {
    phase: TEST
  }
}
layer {
  name: "accuracy_5"
  type: "Accuracy"
  bottom: "fc8"
  bottom: "label"
  top: "accuracy_5"
  include {
    phase: TEST
  }
  accuracy_param {
    top_k: 5
  }
}
layer {
  name: "loss"
  type: "SoftmaxWithLoss"
  bottom: "fc8"
  bottom: "label"
  top: "loss"
}
I0111 18:06:31.830067 20449 layer_factory.hpp:77] Creating layer data
I0111 18:06:31.830196 20449 db_lmdb.cpp:35] Opened lmdb /home/DATA/imagenet_resize/lmdb_resize/ilsvrc12_val_lmdb
I0111 18:06:31.830255 20449 net.cpp:84] Creating Layer data
I0111 18:06:31.830268 20449 net.cpp:380] data -> data
I0111 18:06:31.830291 20449 net.cpp:380] data -> label
I0111 18:06:31.830754 20449 data_layer.cpp:45] output data size: 200,3,224,224
I0111 18:06:32.245244 20449 net.cpp:122] Setting up data
I0111 18:06:32.245302 20449 net.cpp:129] Top shape: 200 3 224 224 (30105600)
I0111 18:06:32.245313 20449 net.cpp:129] Top shape: 200 (200)
I0111 18:06:32.245321 20449 net.cpp:137] Memory required for data: 120423200
I0111 18:06:32.245333 20449 layer_factory.hpp:77] Creating layer label_data_1_split
I0111 18:06:32.245360 20449 net.cpp:84] Creating Layer label_data_1_split
I0111 18:06:32.245369 20449 net.cpp:406] label_data_1_split <- label
I0111 18:06:32.245385 20449 net.cpp:380] label_data_1_split -> label_data_1_split_0
I0111 18:06:32.245406 20449 net.cpp:380] label_data_1_split -> label_data_1_split_1
I0111 18:06:32.245419 20449 net.cpp:380] label_data_1_split -> label_data_1_split_2
I0111 18:06:32.245553 20449 net.cpp:122] Setting up label_data_1_split
I0111 18:06:32.245566 20449 net.cpp:129] Top shape: 200 (200)
I0111 18:06:32.245575 20449 net.cpp:129] Top shape: 200 (200)
I0111 18:06:32.245584 20449 net.cpp:129] Top shape: 200 (200)
I0111 18:06:32.245590 20449 net.cpp:137] Memory required for data: 120425600
I0111 18:06:32.245599 20449 layer_factory.hpp:77] Creating layer conv1
I0111 18:06:32.245628 20449 net.cpp:84] Creating Layer conv1
I0111 18:06:32.245636 20449 net.cpp:406] conv1 <- data
I0111 18:06:32.245651 20449 net.cpp:380] conv1 -> conv1
ydwu=======get:
bit_width=4;  round_method=0;  round_strategy=1;  is_runtime=0;  range_low=-0.872089;  range_high=0.927025
I0111 18:06:32.246606 20449 net.cpp:122] Setting up conv1
I0111 18:06:32.246623 20449 net.cpp:129] Top shape: 200 96 55 55 (58080000)
I0111 18:06:32.246630 20449 net.cpp:137] Memory required for data: 352745600
I0111 18:06:32.246650 20449 layer_factory.hpp:77] Creating layer bn1
I0111 18:06:32.246665 20449 net.cpp:84] Creating Layer bn1
I0111 18:06:32.246672 20449 net.cpp:406] bn1 <- conv1
I0111 18:06:32.246685 20449 net.cpp:367] bn1 -> conv1 (in-place)
I0111 18:06:32.247007 20449 net.cpp:122] Setting up bn1
I0111 18:06:32.247023 20449 net.cpp:129] Top shape: 200 96 55 55 (58080000)
I0111 18:06:32.247030 20449 net.cpp:137] Memory required for data: 585065600
I0111 18:06:32.247050 20449 layer_factory.hpp:77] Creating layer scale1
I0111 18:06:32.247066 20449 net.cpp:84] Creating Layer scale1
I0111 18:06:32.247072 20449 net.cpp:406] scale1 <- conv1
I0111 18:06:32.247084 20449 net.cpp:367] scale1 -> conv1 (in-place)
I0111 18:06:32.247144 20449 layer_factory.hpp:77] Creating layer scale1
I0111 18:06:32.247309 20449 net.cpp:122] Setting up scale1
I0111 18:06:32.247324 20449 net.cpp:129] Top shape: 200 96 55 55 (58080000)
I0111 18:06:32.247331 20449 net.cpp:137] Memory required for data: 817385600
I0111 18:06:32.247344 20449 layer_factory.hpp:77] Creating layer relu1
I0111 18:06:32.247397 20449 net.cpp:84] Creating Layer relu1
I0111 18:06:32.247406 20449 net.cpp:406] relu1 <- conv1
I0111 18:06:32.247416 20449 net.cpp:367] relu1 -> conv1 (in-place)
I0111 18:06:32.247428 20449 net.cpp:122] Setting up relu1
I0111 18:06:32.247437 20449 net.cpp:129] Top shape: 200 96 55 55 (58080000)
I0111 18:06:32.247444 20449 net.cpp:137] Memory required for data: 1049705600
I0111 18:06:32.247452 20449 layer_factory.hpp:77] Creating layer pool1
I0111 18:06:32.247464 20449 net.cpp:84] Creating Layer pool1
I0111 18:06:32.247472 20449 net.cpp:406] pool1 <- conv1
I0111 18:06:32.247481 20449 net.cpp:380] pool1 -> pool1
I0111 18:06:32.265951 20449 net.cpp:122] Setting up pool1
I0111 18:06:32.265998 20449 net.cpp:129] Top shape: 200 96 27 27 (13996800)
I0111 18:06:32.266008 20449 net.cpp:137] Memory required for data: 1105692800
I0111 18:06:32.266019 20449 layer_factory.hpp:77] Creating layer quantized_conv1
I0111 18:06:32.266043 20449 net.cpp:84] Creating Layer quantized_conv1
I0111 18:06:32.266054 20449 net.cpp:406] quantized_conv1 <- pool1
I0111 18:06:32.266072 20449 net.cpp:367] quantized_conv1 -> pool1 (in-place)
I0111 18:06:32.266090 20449 net.cpp:122] Setting up quantized_conv1
I0111 18:06:32.266100 20449 net.cpp:129] Top shape: 200 96 27 27 (13996800)
I0111 18:06:32.266108 20449 net.cpp:137] Memory required for data: 1161680000
I0111 18:06:32.266114 20449 layer_factory.hpp:77] Creating layer conv2
I0111 18:06:32.266137 20449 net.cpp:84] Creating Layer conv2
I0111 18:06:32.266145 20449 net.cpp:406] conv2 <- pool1
I0111 18:06:32.266160 20449 net.cpp:380] conv2 -> conv2
ydwu=======get:
bit_width=4;  round_method=0;  round_strategy=1;  is_runtime=0;  range_low=-0.806018;  range_high=1.5182
I0111 18:06:32.279245 20449 net.cpp:122] Setting up conv2
I0111 18:06:32.279299 20449 net.cpp:129] Top shape: 200 256 27 27 (37324800)
I0111 18:06:32.279309 20449 net.cpp:137] Memory required for data: 1310979200
I0111 18:06:32.279342 20449 layer_factory.hpp:77] Creating layer bn2
I0111 18:06:32.279366 20449 net.cpp:84] Creating Layer bn2
I0111 18:06:32.279376 20449 net.cpp:406] bn2 <- conv2
I0111 18:06:32.279389 20449 net.cpp:367] bn2 -> conv2 (in-place)
I0111 18:06:32.279633 20449 net.cpp:122] Setting up bn2
I0111 18:06:32.279649 20449 net.cpp:129] Top shape: 200 256 27 27 (37324800)
I0111 18:06:32.279657 20449 net.cpp:137] Memory required for data: 1460278400
I0111 18:06:32.279675 20449 layer_factory.hpp:77] Creating layer scale2
I0111 18:06:32.279697 20449 net.cpp:84] Creating Layer scale2
I0111 18:06:32.279705 20449 net.cpp:406] scale2 <- conv2
I0111 18:06:32.279716 20449 net.cpp:367] scale2 -> conv2 (in-place)
I0111 18:06:32.279793 20449 layer_factory.hpp:77] Creating layer scale2
I0111 18:06:32.279940 20449 net.cpp:122] Setting up scale2
I0111 18:06:32.279954 20449 net.cpp:129] Top shape: 200 256 27 27 (37324800)
I0111 18:06:32.279963 20449 net.cpp:137] Memory required for data: 1609577600
I0111 18:06:32.279973 20449 layer_factory.hpp:77] Creating layer relu2
I0111 18:06:32.279986 20449 net.cpp:84] Creating Layer relu2
I0111 18:06:32.279994 20449 net.cpp:406] relu2 <- conv2
I0111 18:06:32.280004 20449 net.cpp:367] relu2 -> conv2 (in-place)
I0111 18:06:32.280015 20449 net.cpp:122] Setting up relu2
I0111 18:06:32.280025 20449 net.cpp:129] Top shape: 200 256 27 27 (37324800)
I0111 18:06:32.280032 20449 net.cpp:137] Memory required for data: 1758876800
I0111 18:06:32.280040 20449 layer_factory.hpp:77] Creating layer pool2
I0111 18:06:32.280053 20449 net.cpp:84] Creating Layer pool2
I0111 18:06:32.280061 20449 net.cpp:406] pool2 <- conv2
I0111 18:06:32.280073 20449 net.cpp:380] pool2 -> pool2
I0111 18:06:32.280140 20449 net.cpp:122] Setting up pool2
I0111 18:06:32.280154 20449 net.cpp:129] Top shape: 200 256 13 13 (8652800)
I0111 18:06:32.280161 20449 net.cpp:137] Memory required for data: 1793488000
I0111 18:06:32.280169 20449 layer_factory.hpp:77] Creating layer quantized_conv1
I0111 18:06:32.280185 20449 net.cpp:84] Creating Layer quantized_conv1
I0111 18:06:32.280192 20449 net.cpp:406] quantized_conv1 <- pool2
I0111 18:06:32.280205 20449 net.cpp:367] quantized_conv1 -> pool2 (in-place)
I0111 18:06:32.280220 20449 net.cpp:122] Setting up quantized_conv1
I0111 18:06:32.280282 20449 net.cpp:129] Top shape: 200 256 13 13 (8652800)
I0111 18:06:32.280289 20449 net.cpp:137] Memory required for data: 1828099200
I0111 18:06:32.280297 20449 layer_factory.hpp:77] Creating layer conv3
I0111 18:06:32.280321 20449 net.cpp:84] Creating Layer conv3
I0111 18:06:32.280329 20449 net.cpp:406] conv3 <- pool2
I0111 18:06:32.280342 20449 net.cpp:380] conv3 -> conv3
ydwu=======get:
bit_width=4;  round_method=0;  round_strategy=1;  is_runtime=0;  range_low=-0.621858;  range_high=0.673858
I0111 18:06:32.297183 20449 net.cpp:122] Setting up conv3
I0111 18:06:32.297217 20449 net.cpp:129] Top shape: 200 384 13 13 (12979200)
I0111 18:06:32.297225 20449 net.cpp:137] Memory required for data: 1880016000
I0111 18:06:32.297243 20449 layer_factory.hpp:77] Creating layer bn3
I0111 18:06:32.297263 20449 net.cpp:84] Creating Layer bn3
I0111 18:06:32.297273 20449 net.cpp:406] bn3 <- conv3
I0111 18:06:32.297289 20449 net.cpp:367] bn3 -> conv3 (in-place)
I0111 18:06:32.297524 20449 net.cpp:122] Setting up bn3
I0111 18:06:32.297539 20449 net.cpp:129] Top shape: 200 384 13 13 (12979200)
I0111 18:06:32.297546 20449 net.cpp:137] Memory required for data: 1931932800
I0111 18:06:32.297570 20449 layer_factory.hpp:77] Creating layer scale3
I0111 18:06:32.297588 20449 net.cpp:84] Creating Layer scale3
I0111 18:06:32.297596 20449 net.cpp:406] scale3 <- conv3
I0111 18:06:32.297606 20449 net.cpp:367] scale3 -> conv3 (in-place)
I0111 18:06:32.297672 20449 layer_factory.hpp:77] Creating layer scale3
I0111 18:06:32.297828 20449 net.cpp:122] Setting up scale3
I0111 18:06:32.297843 20449 net.cpp:129] Top shape: 200 384 13 13 (12979200)
I0111 18:06:32.297850 20449 net.cpp:137] Memory required for data: 1983849600
I0111 18:06:32.297874 20449 layer_factory.hpp:77] Creating layer relu3
I0111 18:06:32.297888 20449 net.cpp:84] Creating Layer relu3
I0111 18:06:32.297895 20449 net.cpp:406] relu3 <- conv3
I0111 18:06:32.297906 20449 net.cpp:367] relu3 -> conv3 (in-place)
I0111 18:06:32.297917 20449 net.cpp:122] Setting up relu3
I0111 18:06:32.297925 20449 net.cpp:129] Top shape: 200 384 13 13 (12979200)
I0111 18:06:32.297932 20449 net.cpp:137] Memory required for data: 2035766400
I0111 18:06:32.297940 20449 layer_factory.hpp:77] Creating layer quantized_conv1
I0111 18:06:32.297951 20449 net.cpp:84] Creating Layer quantized_conv1
I0111 18:06:32.297958 20449 net.cpp:406] quantized_conv1 <- conv3
I0111 18:06:32.297968 20449 net.cpp:367] quantized_conv1 -> conv3 (in-place)
I0111 18:06:32.297979 20449 net.cpp:122] Setting up quantized_conv1
I0111 18:06:32.297988 20449 net.cpp:129] Top shape: 200 384 13 13 (12979200)
I0111 18:06:32.297996 20449 net.cpp:137] Memory required for data: 2087683200
I0111 18:06:32.298002 20449 layer_factory.hpp:77] Creating layer conv4
I0111 18:06:32.298018 20449 net.cpp:84] Creating Layer conv4
I0111 18:06:32.298025 20449 net.cpp:406] conv4 <- conv3
I0111 18:06:32.298038 20449 net.cpp:380] conv4 -> conv4
ydwu=======get:
bit_width=4;  round_method=0;  round_strategy=1;  is_runtime=0;  range_low=-0.376634;  range_high=0.341829
I0111 18:06:32.321758 20449 net.cpp:122] Setting up conv4
I0111 18:06:32.321804 20449 net.cpp:129] Top shape: 200 384 13 13 (12979200)
I0111 18:06:32.321818 20449 net.cpp:137] Memory required for data: 2139600000
I0111 18:06:32.321838 20449 layer_factory.hpp:77] Creating layer bn4
I0111 18:06:32.321857 20449 net.cpp:84] Creating Layer bn4
I0111 18:06:32.321887 20449 net.cpp:406] bn4 <- conv4
I0111 18:06:32.321904 20449 net.cpp:367] bn4 -> conv4 (in-place)
I0111 18:06:32.322145 20449 net.cpp:122] Setting up bn4
I0111 18:06:32.322160 20449 net.cpp:129] Top shape: 200 384 13 13 (12979200)
I0111 18:06:32.322167 20449 net.cpp:137] Memory required for data: 2191516800
I0111 18:06:32.322180 20449 layer_factory.hpp:77] Creating layer scale4
I0111 18:06:32.322193 20449 net.cpp:84] Creating Layer scale4
I0111 18:06:32.322201 20449 net.cpp:406] scale4 <- conv4
I0111 18:06:32.322211 20449 net.cpp:367] scale4 -> conv4 (in-place)
I0111 18:06:32.322278 20449 layer_factory.hpp:77] Creating layer scale4
I0111 18:06:32.322424 20449 net.cpp:122] Setting up scale4
I0111 18:06:32.322439 20449 net.cpp:129] Top shape: 200 384 13 13 (12979200)
I0111 18:06:32.322446 20449 net.cpp:137] Memory required for data: 2243433600
I0111 18:06:32.322458 20449 layer_factory.hpp:77] Creating layer relu4
I0111 18:06:32.322511 20449 net.cpp:84] Creating Layer relu4
I0111 18:06:32.322520 20449 net.cpp:406] relu4 <- conv4
I0111 18:06:32.322530 20449 net.cpp:367] relu4 -> conv4 (in-place)
I0111 18:06:32.322540 20449 net.cpp:122] Setting up relu4
I0111 18:06:32.322549 20449 net.cpp:129] Top shape: 200 384 13 13 (12979200)
I0111 18:06:32.322556 20449 net.cpp:137] Memory required for data: 2295350400
I0111 18:06:32.322562 20449 layer_factory.hpp:77] Creating layer quantized_conv1
I0111 18:06:32.322574 20449 net.cpp:84] Creating Layer quantized_conv1
I0111 18:06:32.322582 20449 net.cpp:406] quantized_conv1 <- conv4
I0111 18:06:32.322593 20449 net.cpp:367] quantized_conv1 -> conv4 (in-place)
I0111 18:06:32.322605 20449 net.cpp:122] Setting up quantized_conv1
I0111 18:06:32.322614 20449 net.cpp:129] Top shape: 200 384 13 13 (12979200)
I0111 18:06:32.322620 20449 net.cpp:137] Memory required for data: 2347267200
I0111 18:06:32.322628 20449 layer_factory.hpp:77] Creating layer conv5
I0111 18:06:32.322645 20449 net.cpp:84] Creating Layer conv5
I0111 18:06:32.322654 20449 net.cpp:406] conv5 <- conv4
I0111 18:06:32.322664 20449 net.cpp:380] conv5 -> conv5
ydwu=======get:
bit_width=4;  round_method=0;  round_strategy=1;  is_runtime=0;  range_low=-0.347658;  range_high=0.330042
I0111 18:06:32.338832 20449 net.cpp:122] Setting up conv5
I0111 18:06:32.338867 20449 net.cpp:129] Top shape: 200 256 13 13 (8652800)
I0111 18:06:32.338876 20449 net.cpp:137] Memory required for data: 2381878400
I0111 18:06:32.338891 20449 layer_factory.hpp:77] Creating layer bn5
I0111 18:06:32.338913 20449 net.cpp:84] Creating Layer bn5
I0111 18:06:32.338923 20449 net.cpp:406] bn5 <- conv5
I0111 18:06:32.338937 20449 net.cpp:367] bn5 -> conv5 (in-place)
I0111 18:06:32.339179 20449 net.cpp:122] Setting up bn5
I0111 18:06:32.339193 20449 net.cpp:129] Top shape: 200 256 13 13 (8652800)
I0111 18:06:32.339200 20449 net.cpp:137] Memory required for data: 2416489600
I0111 18:06:32.339236 20449 layer_factory.hpp:77] Creating layer scale5
I0111 18:06:32.339251 20449 net.cpp:84] Creating Layer scale5
I0111 18:06:32.339259 20449 net.cpp:406] scale5 <- conv5
I0111 18:06:32.339268 20449 net.cpp:367] scale5 -> conv5 (in-place)
I0111 18:06:32.339342 20449 layer_factory.hpp:77] Creating layer scale5
I0111 18:06:32.339486 20449 net.cpp:122] Setting up scale5
I0111 18:06:32.339501 20449 net.cpp:129] Top shape: 200 256 13 13 (8652800)
I0111 18:06:32.339509 20449 net.cpp:137] Memory required for data: 2451100800
I0111 18:06:32.339519 20449 layer_factory.hpp:77] Creating layer relu5
I0111 18:06:32.339530 20449 net.cpp:84] Creating Layer relu5
I0111 18:06:32.339537 20449 net.cpp:406] relu5 <- conv5
I0111 18:06:32.339553 20449 net.cpp:367] relu5 -> conv5 (in-place)
I0111 18:06:32.339565 20449 net.cpp:122] Setting up relu5
I0111 18:06:32.339573 20449 net.cpp:129] Top shape: 200 256 13 13 (8652800)
I0111 18:06:32.339581 20449 net.cpp:137] Memory required for data: 2485712000
I0111 18:06:32.339587 20449 layer_factory.hpp:77] Creating layer pool5
I0111 18:06:32.339599 20449 net.cpp:84] Creating Layer pool5
I0111 18:06:32.339606 20449 net.cpp:406] pool5 <- conv5
I0111 18:06:32.339617 20449 net.cpp:380] pool5 -> pool5
I0111 18:06:32.339670 20449 net.cpp:122] Setting up pool5
I0111 18:06:32.339684 20449 net.cpp:129] Top shape: 200 256 6 6 (1843200)
I0111 18:06:32.339691 20449 net.cpp:137] Memory required for data: 2493084800
I0111 18:06:32.339699 20449 layer_factory.hpp:77] Creating layer quantized_conv1
I0111 18:06:32.339710 20449 net.cpp:84] Creating Layer quantized_conv1
I0111 18:06:32.339717 20449 net.cpp:406] quantized_conv1 <- pool5
I0111 18:06:32.339730 20449 net.cpp:367] quantized_conv1 -> pool5 (in-place)
I0111 18:06:32.339742 20449 net.cpp:122] Setting up quantized_conv1
I0111 18:06:32.339751 20449 net.cpp:129] Top shape: 200 256 6 6 (1843200)
I0111 18:06:32.339758 20449 net.cpp:137] Memory required for data: 2500457600
I0111 18:06:32.339766 20449 layer_factory.hpp:77] Creating layer fc6
I0111 18:06:32.339777 20449 net.cpp:84] Creating Layer fc6
I0111 18:06:32.339785 20449 net.cpp:406] fc6 <- pool5
I0111 18:06:32.339795 20449 net.cpp:380] fc6 -> fc6
I0111 18:06:32.339845 20449 quan_inner_product_layer.cpp:21] 4096   4096
ydwu=======get:
bit_width=4;  round_method=0;  round_strategy=1;  is_runtime=0;  range_low=-0.160061;  range_high=0.148064
I0111 18:06:32.987972 20449 net.cpp:122] Setting up fc6
I0111 18:06:32.988029 20449 net.cpp:129] Top shape: 200 4096 (819200)
I0111 18:06:32.988035 20449 net.cpp:137] Memory required for data: 2503734400
I0111 18:06:32.988054 20449 layer_factory.hpp:77] Creating layer bn6
I0111 18:06:32.988071 20449 net.cpp:84] Creating Layer bn6
I0111 18:06:32.988080 20449 net.cpp:406] bn6 <- fc6
I0111 18:06:32.988092 20449 net.cpp:367] bn6 -> fc6 (in-place)
I0111 18:06:32.988338 20449 net.cpp:122] Setting up bn6
I0111 18:06:32.988353 20449 net.cpp:129] Top shape: 200 4096 (819200)
I0111 18:06:32.988371 20449 net.cpp:137] Memory required for data: 2507011200
I0111 18:06:32.988384 20449 layer_factory.hpp:77] Creating layer scale6
I0111 18:06:32.988404 20449 net.cpp:84] Creating Layer scale6
I0111 18:06:32.988410 20449 net.cpp:406] scale6 <- fc6
I0111 18:06:32.988420 20449 net.cpp:367] scale6 -> fc6 (in-place)
I0111 18:06:32.988481 20449 layer_factory.hpp:77] Creating layer scale6
I0111 18:06:32.988627 20449 net.cpp:122] Setting up scale6
I0111 18:06:32.988641 20449 net.cpp:129] Top shape: 200 4096 (819200)
I0111 18:06:32.988646 20449 net.cpp:137] Memory required for data: 2510288000
I0111 18:06:32.988654 20449 layer_factory.hpp:77] Creating layer relu6
I0111 18:06:32.988663 20449 net.cpp:84] Creating Layer relu6
I0111 18:06:32.988672 20449 net.cpp:406] relu6 <- fc6
I0111 18:06:32.988684 20449 net.cpp:367] relu6 -> fc6 (in-place)
I0111 18:06:32.988694 20449 net.cpp:122] Setting up relu6
I0111 18:06:32.988703 20449 net.cpp:129] Top shape: 200 4096 (819200)
I0111 18:06:32.988708 20449 net.cpp:137] Memory required for data: 2513564800
I0111 18:06:32.988715 20449 layer_factory.hpp:77] Creating layer drop6
I0111 18:06:32.988725 20449 net.cpp:84] Creating Layer drop6
I0111 18:06:32.988732 20449 net.cpp:406] drop6 <- fc6
I0111 18:06:32.988740 20449 net.cpp:367] drop6 -> fc6 (in-place)
I0111 18:06:32.988775 20449 net.cpp:122] Setting up drop6
I0111 18:06:32.988786 20449 net.cpp:129] Top shape: 200 4096 (819200)
I0111 18:06:32.988793 20449 net.cpp:137] Memory required for data: 2516841600
I0111 18:06:32.988800 20449 layer_factory.hpp:77] Creating layer quantized_conv1
I0111 18:06:32.988811 20449 net.cpp:84] Creating Layer quantized_conv1
I0111 18:06:32.988817 20449 net.cpp:406] quantized_conv1 <- fc6
I0111 18:06:32.988826 20449 net.cpp:367] quantized_conv1 -> fc6 (in-place)
I0111 18:06:32.988837 20449 net.cpp:122] Setting up quantized_conv1
I0111 18:06:32.988845 20449 net.cpp:129] Top shape: 200 4096 (819200)
I0111 18:06:32.988852 20449 net.cpp:137] Memory required for data: 2520118400
I0111 18:06:32.988857 20449 layer_factory.hpp:77] Creating layer fc7
I0111 18:06:32.988869 20449 net.cpp:84] Creating Layer fc7
I0111 18:06:32.988875 20449 net.cpp:406] fc7 <- fc6
I0111 18:06:32.988888 20449 net.cpp:380] fc7 -> fc7
I0111 18:06:32.988900 20449 quan_inner_product_layer.cpp:21] 4096   4096
ydwu=======get:
bit_width=4;  round_method=0;  round_strategy=1;  is_runtime=0;  range_low=-0.162636;  range_high=0.197684
I0111 18:06:33.257354 20449 net.cpp:122] Setting up fc7
I0111 18:06:33.257400 20449 net.cpp:129] Top shape: 200 4096 (819200)
I0111 18:06:33.257408 20449 net.cpp:137] Memory required for data: 2523395200
I0111 18:06:33.257426 20449 layer_factory.hpp:77] Creating layer bn7
I0111 18:06:33.257444 20449 net.cpp:84] Creating Layer bn7
I0111 18:06:33.257454 20449 net.cpp:406] bn7 <- fc7
I0111 18:06:33.257467 20449 net.cpp:367] bn7 -> fc7 (in-place)
I0111 18:06:33.257725 20449 net.cpp:122] Setting up bn7
I0111 18:06:33.257738 20449 net.cpp:129] Top shape: 200 4096 (819200)
I0111 18:06:33.257746 20449 net.cpp:137] Memory required for data: 2526672000
I0111 18:06:33.257760 20449 layer_factory.hpp:77] Creating layer scale7
I0111 18:06:33.257772 20449 net.cpp:84] Creating Layer scale7
I0111 18:06:33.257779 20449 net.cpp:406] scale7 <- fc7
I0111 18:06:33.257789 20449 net.cpp:367] scale7 -> fc7 (in-place)
I0111 18:06:33.257858 20449 layer_factory.hpp:77] Creating layer scale7
I0111 18:06:33.258033 20449 net.cpp:122] Setting up scale7
I0111 18:06:33.258046 20449 net.cpp:129] Top shape: 200 4096 (819200)
I0111 18:06:33.258100 20449 net.cpp:137] Memory required for data: 2529948800
I0111 18:06:33.258112 20449 layer_factory.hpp:77] Creating layer relu7
I0111 18:06:33.258123 20449 net.cpp:84] Creating Layer relu7
I0111 18:06:33.258131 20449 net.cpp:406] relu7 <- fc7
I0111 18:06:33.258143 20449 net.cpp:367] relu7 -> fc7 (in-place)
I0111 18:06:33.258154 20449 net.cpp:122] Setting up relu7
I0111 18:06:33.258163 20449 net.cpp:129] Top shape: 200 4096 (819200)
I0111 18:06:33.258169 20449 net.cpp:137] Memory required for data: 2533225600
I0111 18:06:33.258177 20449 layer_factory.hpp:77] Creating layer drop7
I0111 18:06:33.258188 20449 net.cpp:84] Creating Layer drop7
I0111 18:06:33.258194 20449 net.cpp:406] drop7 <- fc7
I0111 18:06:33.258203 20449 net.cpp:367] drop7 -> fc7 (in-place)
I0111 18:06:33.258240 20449 net.cpp:122] Setting up drop7
I0111 18:06:33.258252 20449 net.cpp:129] Top shape: 200 4096 (819200)
I0111 18:06:33.258260 20449 net.cpp:137] Memory required for data: 2536502400
I0111 18:06:33.258266 20449 layer_factory.hpp:77] Creating layer quantized_conv1
I0111 18:06:33.258277 20449 net.cpp:84] Creating Layer quantized_conv1
I0111 18:06:33.258285 20449 net.cpp:406] quantized_conv1 <- fc7
I0111 18:06:33.258297 20449 net.cpp:367] quantized_conv1 -> fc7 (in-place)
I0111 18:06:33.258309 20449 net.cpp:122] Setting up quantized_conv1
I0111 18:06:33.258318 20449 net.cpp:129] Top shape: 200 4096 (819200)
I0111 18:06:33.258324 20449 net.cpp:137] Memory required for data: 2539779200
I0111 18:06:33.258332 20449 layer_factory.hpp:77] Creating layer fc8
I0111 18:06:33.258343 20449 net.cpp:84] Creating Layer fc8
I0111 18:06:33.258350 20449 net.cpp:406] fc8 <- fc7
I0111 18:06:33.258363 20449 net.cpp:380] fc8 -> fc8
I0111 18:06:33.258375 20449 quan_inner_product_layer.cpp:21] 1000   1000
ydwu=======get:
bit_width=4;  round_method=0;  round_strategy=1;  is_runtime=0;  range_low=-0.141857;  range_high=0.274249
I0111 18:06:33.326128 20449 net.cpp:122] Setting up fc8
I0111 18:06:33.326171 20449 net.cpp:129] Top shape: 200 1000 (200000)
I0111 18:06:33.326179 20449 net.cpp:137] Memory required for data: 2540579200
I0111 18:06:33.326196 20449 layer_factory.hpp:77] Creating layer fc8_fc8_0_split
I0111 18:06:33.326215 20449 net.cpp:84] Creating Layer fc8_fc8_0_split
I0111 18:06:33.326223 20449 net.cpp:406] fc8_fc8_0_split <- fc8
I0111 18:06:33.326239 20449 net.cpp:380] fc8_fc8_0_split -> fc8_fc8_0_split_0
I0111 18:06:33.326263 20449 net.cpp:380] fc8_fc8_0_split -> fc8_fc8_0_split_1
I0111 18:06:33.326287 20449 net.cpp:380] fc8_fc8_0_split -> fc8_fc8_0_split_2
I0111 18:06:33.326378 20449 net.cpp:122] Setting up fc8_fc8_0_split
I0111 18:06:33.326393 20449 net.cpp:129] Top shape: 200 1000 (200000)
I0111 18:06:33.326400 20449 net.cpp:129] Top shape: 200 1000 (200000)
I0111 18:06:33.326407 20449 net.cpp:129] Top shape: 200 1000 (200000)
I0111 18:06:33.326412 20449 net.cpp:137] Memory required for data: 2542979200
I0111 18:06:33.326421 20449 layer_factory.hpp:77] Creating layer accuracy
I0111 18:06:33.326433 20449 net.cpp:84] Creating Layer accuracy
I0111 18:06:33.326441 20449 net.cpp:406] accuracy <- fc8_fc8_0_split_0
I0111 18:06:33.326450 20449 net.cpp:406] accuracy <- label_data_1_split_0
I0111 18:06:33.326463 20449 net.cpp:380] accuracy -> accuracy
…
