…
I0111 11:55:18.476152 17975 net.cpp:294] The NetState phase (0) differed from the phase (1) specified by a rule in layer accuracy_5
I0111 11:55:18.476510 17975 net.cpp:51] Initializing net from parameters: 
name: "AlexNet-BN"
state {
  phase: TRAIN
  level: 0
  stage: ""
}
layer {
  name: "data"
  type: "Data"
  top: "data"
  top: "label"
  include {
    phase: TRAIN
  }
  transform_param {
    mirror: true
    crop_size: 224
    mean_value: 103.939
    mean_value: 116.779
    mean_value: 123.68
  }
  data_param {
    source: "/home/ydwu/database/imagenet/ilsvrc12/lmdb_resize/ilsvrc12_train_lmdb"
    batch_size: 200
    backend: LMDB
  }
}
layer {
  name: "conv1"
  type: "QuanConvolution"
  bottom: "data"
  top: "conv1"
  param {
    lr_mult: 1
    decay_mult: 1
  }
  param {
    lr_mult: 2
    decay_mult: 0
  }
  quan_convolution_param {
    num_output: 96
    pad: 2
    kernel_size: 11
    stride: 4
    weight_filler {
      type: "gaussian"
      std: 0.01
    }
    bias_filler {
      type: "constant"
      value: 0
    }
    round_method: ROUND
    round_strategy: NEUTRAL
    bit_width: 8
    range_low: -0.872089
    range_high: 0.927025
  }
}
layer {
  name: "bn1"
  type: "BatchNorm"
  bottom: "conv1"
  top: "conv1"
}
layer {
  name: "scale1"
  type: "Scale"
  bottom: "conv1"
  top: "conv1"
  scale_param {
    bias_term: true
  }
}
layer {
  name: "relu1"
  type: "ReLU"
  bottom: "conv1"
  top: "conv1"
}
layer {
  name: "pool1"
  type: "Pooling"
  bottom: "conv1"
  top: "pool1"
  pooling_param {
    pool: MAX
    kernel_size: 3
    stride: 2
  }
}
layer {
  name: "quantized_conv1"
  type: "Quantization"
  bottom: "pool1"
  top: "pool1"
  quantization_param {
    round_method: ROUND
    round_strategy: AGGRESSIVE
    bit_width: 8
    range: 0
    range: 13.965383
  }
}
layer {
  name: "conv2"
  type: "QuanConvolution"
  bottom: "pool1"
  top: "conv2"
  param {
    lr_mult: 1
    decay_mult: 1
  }
  param {
    lr_mult: 2
    decay_mult: 0
  }
  quan_convolution_param {
    num_output: 256
    pad: 2
    kernel_size: 5
    weight_filler {
      type: "gaussian"
      std: 0.01
    }
    bias_filler {
      type: "constant"
      value: 0.1
    }
    round_method: ROUND
    round_strategy: NEUTRAL
    bit_width: 8
    range_low: -0.806018
    range_high: 1.5182
  }
}
layer {
  name: "bn2"
  type: "BatchNorm"
  bottom: "conv2"
  top: "conv2"
}
layer {
  name: "scale2"
  type: "Scale"
  bottom: "conv2"
  top: "conv2"
  scale_param {
    bias_term: true
  }
}
layer {
  name: "relu2"
  type: "ReLU"
  bottom: "conv2"
  top: "conv2"
}
layer {
  name: "pool2"
  type: "Pooling"
  bottom: "conv2"
  top: "pool2"
  pooling_param {
    pool: MAX
    kernel_size: 3
    stride: 2
  }
}
layer {
  name: "quantized_conv1"
  type: "Quantization"
  bottom: "pool2"
  top: "pool2"
  quantization_param {
    round_method: ROUND
    round_strategy: AGGRESSIVE
    bit_width: 8
    range: 0
    range: 6.74956
  }
}
layer {
  name: "conv3"
  type: "QuanConvolution"
  bottom: "pool2"
  top: "conv3"
  param {
    lr_mult: 1
    decay_mult: 1
  }
  param {
    lr_mult: 2
    decay_mult: 0
  }
  quan_convolution_param {
    num_output: 384
    pad: 1
    kernel_size: 3
    weight_filler {
      type: "gaussian"
      std: 0.01
    }
    bias_filler {
      type: "constant"
      value: 0
    }
    round_method: ROUND
    round_strategy: NEUTRAL
    bit_width: 8
    range_low: -0.621858
    range_high: 0.673858
  }
}
layer {
  name: "bn3"
  type: "BatchNorm"
  bottom: "conv3"
  top: "conv3"
}
layer {
  name: "scale3"
  type: "Scale"
  bottom: "conv3"
  top: "conv3"
  scale_param {
    bias_term: true
  }
}
layer {
  name: "relu3"
  type: "ReLU"
  bottom: "conv3"
  top: "conv3"
}
layer {
  name: "quantized_conv1"
  type: "Quantization"
  bottom: "conv3"
  top: "conv3"
  quantization_param {
    round_method: ROUND
    round_strategy: AGGRESSIVE
    bit_width: 8
    range: 0
    range: 8.48454
  }
}
layer {
  name: "conv4"
  type: "QuanConvolution"
  bottom: "conv3"
  top: "conv4"
  param {
    lr_mult: 1
    decay_mult: 1
  }
  param {
    lr_mult: 2
    decay_mult: 0
  }
  quan_convolution_param {
    num_output: 384
    pad: 1
    kernel_size: 3
    weight_filler {
      type: "gaussian"
      std: 0.01
    }
    bias_filler {
      type: "constant"
      value: 0.1
    }
    round_method: ROUND
    round_strategy: NEUTRAL
    bit_width: 8
    range_low: -0.376634
    range_high: 0.341829
  }
}
layer {
  name: "bn4"
  type: "BatchNorm"
  bottom: "conv4"
  top: "conv4"
}
layer {
  name: "scale4"
  type: "Scale"
  bottom: "conv4"
  top: "conv4"
  scale_param {
    bias_term: true
  }
}
layer {
  name: "relu4"
  type: "ReLU"
  bottom: "conv4"
  top: "conv4"
}
layer {
  name: "quantized_conv1"
  type: "Quantization"
  bottom: "conv4"
  top: "conv4"
  quantization_param {
    round_method: ROUND
    round_strategy: AGGRESSIVE
    bit_width: 8
    range: 0
    range: 7.3369722
  }
}
layer {
  name: "conv5"
  type: "QuanConvolution"
  bottom: "conv4"
  top: "conv5"
  param {
    lr_mult: 1
    decay_mult: 1
  }
  param {
    lr_mult: 2
    decay_mult: 0
  }
  quan_convolution_param {
    num_output: 256
    pad: 1
    kernel_size: 3
    weight_filler {
      type: "gaussian"
      std: 0.01
    }
    bias_filler {
      type: "constant"
      value: 0.1
    }
    round_method: ROUND
    round_strategy: NEUTRAL
    bit_width: 8
    range_low: -0.347658
    range_high: 0.330042
  }
}
layer {
  name: "bn5"
  type: "BatchNorm"
  bottom: "conv5"
  top: "conv5"
}
layer {
  name: "scale5"
  type: "Scale"
  bottom: "conv5"
  top: "conv5"
  scale_param {
    bias_term: true
  }
}
layer {
  name: "relu5"
  type: "ReLU"
  bottom: "conv5"
  top: "conv5"
}
layer {
  name: "pool5"
  type: "Pooling"
  bottom: "conv5"
  top: "pool5"
  pooling_param {
    pool: MAX
    kernel_size: 3
    stride: 2
  }
}
layer {
  name: "quantized_conv1"
  type: "Quantization"
  bottom: "pool5"
  top: "pool5"
  quantization_param {
    round_method: ROUND
    round_strategy: AGGRESSIVE
    bit_width: 8
    range: 0
    range: 8.7577133
  }
}
layer {
  name: "fc6"
  type: "QuanInnerProduct"
  bottom: "pool5"
  top: "fc6"
  param {
    lr_mult: 1
    decay_mult: 1
  }
  param {
    lr_mult: 2
    decay_mult: 0
  }
  quan_inner_product_param {
    num_output: 4096
    weight_filler {
      type: "gaussian"
      std: 0.005
    }
    bias_filler {
      type: "constant"
      value: 0.1
    }
    round_method: ROUND
    round_strategy: NEUTRAL
    bit_width: 8
    range_low: -0.160061
    range_high: 0.148064
  }
}
layer {
  name: "bn6"
  type: "BatchNorm"
  bottom: "fc6"
  top: "fc6"
}
layer {
  name: "scale6"
  type: "Scale"
  bottom: "fc6"
  top: "fc6"
  scale_param {
    bias_term: true
  }
}
layer {
  name: "relu6"
  type: "ReLU"
  bottom: "fc6"
  top: "fc6"
}
layer {
  name: "drop6"
  type: "Dropout"
  bottom: "fc6"
  top: "fc6"
  dropout_param {
    dropout_ratio: 0.5
  }
}
layer {
  name: "quantized_conv1"
  type: "Quantization"
  bottom: "fc6"
  top: "fc6"
  quantization_param {
    round_method: ROUND
    round_strategy: AGGRESSIVE
    bit_width: 8
    range: 0
    range: 1.659358
  }
}
layer {
  name: "fc7"
  type: "QuanInnerProduct"
  bottom: "fc6"
  top: "fc7"
  param {
    lr_mult: 1
    decay_mult: 1
  }
  param {
    lr_mult: 2
    decay_mult: 0
  }
  quan_inner_product_param {
    num_output: 4096
    weight_filler {
      type: "gaussian"
      std: 0.005
    }
    bias_filler {
      type: "constant"
      value: 0.1
    }
    round_method: ROUND
    round_strategy: NEUTRAL
    bit_width: 8
    range_low: -0.162636
    range_high: 0.197684
  }
}
layer {
  name: "bn7"
  type: "BatchNorm"
  bottom: "fc7"
  top: "fc7"
}
layer {
  name: "scale7"
  type: "Scale"
  bottom: "fc7"
  top: "fc7"
  scale_param {
    bias_term: true
  }
}
layer {
  name: "relu7"
  type: "ReLU"
  bottom: "fc7"
  top: "fc7"
}
layer {
  name: "drop7"
  type: "Dropout"
  bottom: "fc7"
  top: "fc7"
  dropout_param {
    dropout_ratio: 0.5
  }
}
layer {
  name: "quantized_conv1"
  type: "Quantization"
  bottom: "fc7"
  top: "fc7"
  quantization_param {
    round_method: ROUND
    round_strategy: AGGRESSIVE
    bit_width: 8
    range: 0
    range: 7.5598521
  }
}
layer {
  name: "fc8"
  type: "QuanInnerProduct"
  bottom: "fc7"
  top: "fc8"
  param {
    lr_mult: 1
    decay_mult: 1
  }
  param {
    lr_mult: 2
    decay_mult: 0
  }
  quan_inner_product_param {
    num_output: 1000
    weight_filler {
      type: "gaussian"
      std: 0.01
    }
    bias_filler {
      type: "constant"
      value: 0
    }
    round_method: ROUND
    round_strategy: NEUTRAL
    bit_width: 8
    range_low: -0.141857
    range_high: 0.274249
  }
}
layer {
  name: "accuracy_5_TRAIN"
  type: "Accuracy"
  bottom: "fc8"
  bottom: "label"
  top: "accuracy_5_TRAIN"
  include {
    phase: TRAIN
  }
  accuracy_param {
    top_k: 5
  }
}
layer {
  name: "loss"
  type: "SoftmaxWithLoss"
  bottom: "fc8"
  bottom: "label"
  top: "loss"
}
I0111 11:55:18.476835 17975 layer_factory.hpp:77] Creating layer data
I0111 11:55:18.479306 17975 db_lmdb.cpp:35] Opened lmdb /home/ydwu/database/imagenet/ilsvrc12/lmdb_resize/ilsvrc12_train_lmdb
I0111 11:55:18.479604 17975 net.cpp:84] Creating Layer data
I0111 11:55:18.479636 17975 net.cpp:380] data -> data
I0111 11:55:18.479671 17975 net.cpp:380] data -> label
I0111 11:55:18.481752 17975 data_layer.cpp:45] output data size: 200,3,224,224
I0111 11:55:18.848238 17975 net.cpp:122] Setting up data
I0111 11:55:18.848314 17975 net.cpp:129] Top shape: 200 3 224 224 (30105600)
I0111 11:55:18.848326 17975 net.cpp:129] Top shape: 200 (200)
I0111 11:55:18.848340 17975 net.cpp:137] Memory required for data: 120423200
I0111 11:55:18.848368 17975 layer_factory.hpp:77] Creating layer label_data_1_split
I0111 11:55:18.848397 17975 net.cpp:84] Creating Layer label_data_1_split
I0111 11:55:18.848408 17975 net.cpp:406] label_data_1_split <- label
I0111 11:55:18.848444 17975 net.cpp:380] label_data_1_split -> label_data_1_split_0
I0111 11:55:18.848475 17975 net.cpp:380] label_data_1_split -> label_data_1_split_1
I0111 11:55:18.848639 17975 net.cpp:122] Setting up label_data_1_split
I0111 11:55:18.848700 17975 net.cpp:129] Top shape: 200 (200)
I0111 11:55:18.848707 17975 net.cpp:129] Top shape: 200 (200)
I0111 11:55:18.848714 17975 net.cpp:137] Memory required for data: 120424800
I0111 11:55:18.848724 17975 layer_factory.hpp:77] Creating layer conv1
I0111 11:55:18.848765 17975 net.cpp:84] Creating Layer conv1
I0111 11:55:18.848774 17975 net.cpp:406] conv1 <- data
I0111 11:55:18.848789 17975 net.cpp:380] conv1 -> conv1
ydwu=======get:
bit_width=8;  round_method=0;  round_strategy=1;  is_runtime=0;  range_low=-0.872089;  range_high=0.927025
I0111 11:55:18.870512 17975 net.cpp:122] Setting up conv1
I0111 11:55:18.870532 17975 net.cpp:129] Top shape: 200 96 55 55 (58080000)
I0111 11:55:18.870546 17975 net.cpp:137] Memory required for data: 352744800
I0111 11:55:18.870574 17975 layer_factory.hpp:77] Creating layer bn1
I0111 11:55:18.870589 17975 net.cpp:84] Creating Layer bn1
I0111 11:55:18.870594 17975 net.cpp:406] bn1 <- conv1
I0111 11:55:18.870604 17975 net.cpp:367] bn1 -> conv1 (in-place)
I0111 11:55:18.870795 17975 net.cpp:122] Setting up bn1
I0111 11:55:18.870810 17975 net.cpp:129] Top shape: 200 96 55 55 (58080000)
I0111 11:55:18.870822 17975 net.cpp:137] Memory required for data: 585064800
I0111 11:55:18.870837 17975 layer_factory.hpp:77] Creating layer scale1
I0111 11:55:18.870853 17975 net.cpp:84] Creating Layer scale1
I0111 11:55:18.870860 17975 net.cpp:406] scale1 <- conv1
I0111 11:55:18.870908 17975 net.cpp:367] scale1 -> conv1 (in-place)
I0111 11:55:18.870970 17975 layer_factory.hpp:77] Creating layer scale1
I0111 11:55:18.871107 17975 net.cpp:122] Setting up scale1
I0111 11:55:18.871121 17975 net.cpp:129] Top shape: 200 96 55 55 (58080000)
I0111 11:55:18.871134 17975 net.cpp:137] Memory required for data: 817384800
I0111 11:55:18.871143 17975 layer_factory.hpp:77] Creating layer relu1
I0111 11:55:18.871152 17975 net.cpp:84] Creating Layer relu1
I0111 11:55:18.871160 17975 net.cpp:406] relu1 <- conv1
I0111 11:55:18.871170 17975 net.cpp:367] relu1 -> conv1 (in-place)
I0111 11:55:18.871179 17975 net.cpp:122] Setting up relu1
I0111 11:55:18.871186 17975 net.cpp:129] Top shape: 200 96 55 55 (58080000)
I0111 11:55:18.871193 17975 net.cpp:137] Memory required for data: 1049704800
I0111 11:55:18.871198 17975 layer_factory.hpp:77] Creating layer pool1
I0111 11:55:18.871209 17975 net.cpp:84] Creating Layer pool1
I0111 11:55:18.871217 17975 net.cpp:406] pool1 <- conv1
I0111 11:55:18.871227 17975 net.cpp:380] pool1 -> pool1
I0111 11:55:18.871282 17975 net.cpp:122] Setting up pool1
I0111 11:55:18.871295 17975 net.cpp:129] Top shape: 200 96 27 27 (13996800)
I0111 11:55:18.871302 17975 net.cpp:137] Memory required for data: 1105692000
I0111 11:55:18.871309 17975 layer_factory.hpp:77] Creating layer quantized_conv1
I0111 11:55:18.871321 17975 net.cpp:84] Creating Layer quantized_conv1
I0111 11:55:18.871327 17975 net.cpp:406] quantized_conv1 <- pool1
I0111 11:55:18.871337 17975 net.cpp:367] quantized_conv1 -> pool1 (in-place)
I0111 11:55:18.871351 17975 net.cpp:122] Setting up quantized_conv1
I0111 11:55:18.871359 17975 net.cpp:129] Top shape: 200 96 27 27 (13996800)
I0111 11:55:18.871366 17975 net.cpp:137] Memory required for data: 1161679200
I0111 11:55:18.871372 17975 layer_factory.hpp:77] Creating layer conv2
I0111 11:55:18.871387 17975 net.cpp:84] Creating Layer conv2
I0111 11:55:18.871394 17975 net.cpp:406] conv2 <- pool1
I0111 11:55:18.871404 17975 net.cpp:380] conv2 -> conv2
ydwu=======get:
bit_width=8;  round_method=0;  round_strategy=1;  is_runtime=0;  range_low=-0.806018;  range_high=1.5182
I0111 11:55:18.882896 17975 net.cpp:122] Setting up conv2
I0111 11:55:18.882930 17975 net.cpp:129] Top shape: 200 256 27 27 (37324800)
I0111 11:55:18.882937 17975 net.cpp:137] Memory required for data: 1310978400
I0111 11:55:18.882959 17975 layer_factory.hpp:77] Creating layer bn2
I0111 11:55:18.882974 17975 net.cpp:84] Creating Layer bn2
I0111 11:55:18.882983 17975 net.cpp:406] bn2 <- conv2
I0111 11:55:18.882995 17975 net.cpp:367] bn2 -> conv2 (in-place)
I0111 11:55:18.883188 17975 net.cpp:122] Setting up bn2
I0111 11:55:18.883201 17975 net.cpp:129] Top shape: 200 256 27 27 (37324800)
I0111 11:55:18.883208 17975 net.cpp:137] Memory required for data: 1460277600
I0111 11:55:18.883219 17975 layer_factory.hpp:77] Creating layer scale2
I0111 11:55:18.883230 17975 net.cpp:84] Creating Layer scale2
I0111 11:55:18.883237 17975 net.cpp:406] scale2 <- conv2
I0111 11:55:18.883245 17975 net.cpp:367] scale2 -> conv2 (in-place)
I0111 11:55:18.883301 17975 layer_factory.hpp:77] Creating layer scale2
I0111 11:55:18.883424 17975 net.cpp:122] Setting up scale2
I0111 11:55:18.883436 17975 net.cpp:129] Top shape: 200 256 27 27 (37324800)
I0111 11:55:18.883441 17975 net.cpp:137] Memory required for data: 1609576800
I0111 11:55:18.883450 17975 layer_factory.hpp:77] Creating layer relu2
I0111 11:55:18.883460 17975 net.cpp:84] Creating Layer relu2
I0111 11:55:18.883466 17975 net.cpp:406] relu2 <- conv2
I0111 11:55:18.883476 17975 net.cpp:367] relu2 -> conv2 (in-place)
I0111 11:55:18.883487 17975 net.cpp:122] Setting up relu2
I0111 11:55:18.883497 17975 net.cpp:129] Top shape: 200 256 27 27 (37324800)
I0111 11:55:18.883504 17975 net.cpp:137] Memory required for data: 1758876000
I0111 11:55:18.883509 17975 layer_factory.hpp:77] Creating layer pool2
I0111 11:55:18.883523 17975 net.cpp:84] Creating Layer pool2
I0111 11:55:18.883530 17975 net.cpp:406] pool2 <- conv2
I0111 11:55:18.883556 17975 net.cpp:380] pool2 -> pool2
I0111 11:55:18.883620 17975 net.cpp:122] Setting up pool2
I0111 11:55:18.883632 17975 net.cpp:129] Top shape: 200 256 13 13 (8652800)
I0111 11:55:18.883688 17975 net.cpp:137] Memory required for data: 1793487200
I0111 11:55:18.883697 17975 layer_factory.hpp:77] Creating layer quantized_conv1
I0111 11:55:18.883713 17975 net.cpp:84] Creating Layer quantized_conv1
I0111 11:55:18.883719 17975 net.cpp:406] quantized_conv1 <- pool2
I0111 11:55:18.883744 17975 net.cpp:367] quantized_conv1 -> pool2 (in-place)
I0111 11:55:18.883755 17975 net.cpp:122] Setting up quantized_conv1
I0111 11:55:18.883764 17975 net.cpp:129] Top shape: 200 256 13 13 (8652800)
I0111 11:55:18.883771 17975 net.cpp:137] Memory required for data: 1828098400
I0111 11:55:18.883779 17975 layer_factory.hpp:77] Creating layer conv3
I0111 11:55:18.883795 17975 net.cpp:84] Creating Layer conv3
I0111 11:55:18.883801 17975 net.cpp:406] conv3 <- pool2
I0111 11:55:18.883812 17975 net.cpp:380] conv3 -> conv3
ydwu=======get:
bit_width=8;  round_method=0;  round_strategy=1;  is_runtime=0;  range_low=-0.621858;  range_high=0.673858
I0111 11:55:18.898427 17975 net.cpp:122] Setting up conv3
I0111 11:55:18.898458 17975 net.cpp:129] Top shape: 200 384 13 13 (12979200)
I0111 11:55:18.898465 17975 net.cpp:137] Memory required for data: 1880015200
I0111 11:55:18.898483 17975 layer_factory.hpp:77] Creating layer bn3
I0111 11:55:18.898500 17975 net.cpp:84] Creating Layer bn3
I0111 11:55:18.898509 17975 net.cpp:406] bn3 <- conv3
I0111 11:55:18.898524 17975 net.cpp:367] bn3 -> conv3 (in-place)
I0111 11:55:18.898716 17975 net.cpp:122] Setting up bn3
I0111 11:55:18.898730 17975 net.cpp:129] Top shape: 200 384 13 13 (12979200)
I0111 11:55:18.898736 17975 net.cpp:137] Memory required for data: 1931932000
I0111 11:55:18.898759 17975 layer_factory.hpp:77] Creating layer scale3
I0111 11:55:18.898777 17975 net.cpp:84] Creating Layer scale3
I0111 11:55:18.898784 17975 net.cpp:406] scale3 <- conv3
I0111 11:55:18.898793 17975 net.cpp:367] scale3 -> conv3 (in-place)
I0111 11:55:18.898850 17975 layer_factory.hpp:77] Creating layer scale3
I0111 11:55:18.898973 17975 net.cpp:122] Setting up scale3
I0111 11:55:18.898986 17975 net.cpp:129] Top shape: 200 384 13 13 (12979200)
I0111 11:55:18.898993 17975 net.cpp:137] Memory required for data: 1983848800
I0111 11:55:18.899003 17975 layer_factory.hpp:77] Creating layer relu3
I0111 11:55:18.899014 17975 net.cpp:84] Creating Layer relu3
I0111 11:55:18.899021 17975 net.cpp:406] relu3 <- conv3
I0111 11:55:18.899031 17975 net.cpp:367] relu3 -> conv3 (in-place)
I0111 11:55:18.899041 17975 net.cpp:122] Setting up relu3
I0111 11:55:18.899050 17975 net.cpp:129] Top shape: 200 384 13 13 (12979200)
I0111 11:55:18.899057 17975 net.cpp:137] Memory required for data: 2035765600
I0111 11:55:18.899065 17975 layer_factory.hpp:77] Creating layer quantized_conv1
I0111 11:55:18.899078 17975 net.cpp:84] Creating Layer quantized_conv1
I0111 11:55:18.899085 17975 net.cpp:406] quantized_conv1 <- conv3
I0111 11:55:18.899096 17975 net.cpp:367] quantized_conv1 -> conv3 (in-place)
I0111 11:55:18.899106 17975 net.cpp:122] Setting up quantized_conv1
I0111 11:55:18.899114 17975 net.cpp:129] Top shape: 200 384 13 13 (12979200)
I0111 11:55:18.899121 17975 net.cpp:137] Memory required for data: 2087682400
I0111 11:55:18.899127 17975 layer_factory.hpp:77] Creating layer conv4
I0111 11:55:18.899143 17975 net.cpp:84] Creating Layer conv4
I0111 11:55:18.899152 17975 net.cpp:406] conv4 <- conv3
I0111 11:55:18.899163 17975 net.cpp:380] conv4 -> conv4
ydwu=======get:
bit_width=8;  round_method=0;  round_strategy=1;  is_runtime=0;  range_low=-0.376634;  range_high=0.341829
I0111 11:55:18.920888 17975 net.cpp:122] Setting up conv4
I0111 11:55:18.920923 17975 net.cpp:129] Top shape: 200 384 13 13 (12979200)
I0111 11:55:18.920930 17975 net.cpp:137] Memory required for data: 2139599200
I0111 11:55:18.920954 17975 layer_factory.hpp:77] Creating layer bn4
I0111 11:55:18.920971 17975 net.cpp:84] Creating Layer bn4
I0111 11:55:18.920979 17975 net.cpp:406] bn4 <- conv4
I0111 11:55:18.920990 17975 net.cpp:367] bn4 -> conv4 (in-place)
I0111 11:55:18.921212 17975 net.cpp:122] Setting up bn4
I0111 11:55:18.921226 17975 net.cpp:129] Top shape: 200 384 13 13 (12979200)
I0111 11:55:18.921239 17975 net.cpp:137] Memory required for data: 2191516000
I0111 11:55:18.921250 17975 layer_factory.hpp:77] Creating layer scale4
I0111 11:55:18.921262 17975 net.cpp:84] Creating Layer scale4
I0111 11:55:18.921326 17975 net.cpp:406] scale4 <- conv4
I0111 11:55:18.921335 17975 net.cpp:367] scale4 -> conv4 (in-place)
I0111 11:55:18.921401 17975 layer_factory.hpp:77] Creating layer scale4
I0111 11:55:18.921550 17975 net.cpp:122] Setting up scale4
I0111 11:55:18.921564 17975 net.cpp:129] Top shape: 200 384 13 13 (12979200)
I0111 11:55:18.921569 17975 net.cpp:137] Memory required for data: 2243432800
I0111 11:55:18.921578 17975 layer_factory.hpp:77] Creating layer relu4
I0111 11:55:18.921587 17975 net.cpp:84] Creating Layer relu4
I0111 11:55:18.921592 17975 net.cpp:406] relu4 <- conv4
I0111 11:55:18.921622 17975 net.cpp:367] relu4 -> conv4 (in-place)
I0111 11:55:18.921648 17975 net.cpp:122] Setting up relu4
I0111 11:55:18.921658 17975 net.cpp:129] Top shape: 200 384 13 13 (12979200)
I0111 11:55:18.921669 17975 net.cpp:137] Memory required for data: 2295349600
I0111 11:55:18.921674 17975 layer_factory.hpp:77] Creating layer quantized_conv1
I0111 11:55:18.921685 17975 net.cpp:84] Creating Layer quantized_conv1
I0111 11:55:18.921692 17975 net.cpp:406] quantized_conv1 <- conv4
I0111 11:55:18.921700 17975 net.cpp:367] quantized_conv1 -> conv4 (in-place)
I0111 11:55:18.921711 17975 net.cpp:122] Setting up quantized_conv1
I0111 11:55:18.921720 17975 net.cpp:129] Top shape: 200 384 13 13 (12979200)
I0111 11:55:18.921731 17975 net.cpp:137] Memory required for data: 2347266400
I0111 11:55:18.921736 17975 layer_factory.hpp:77] Creating layer conv5
I0111 11:55:18.921753 17975 net.cpp:84] Creating Layer conv5
I0111 11:55:18.921761 17975 net.cpp:406] conv5 <- conv4
I0111 11:55:18.921785 17975 net.cpp:380] conv5 -> conv5
ydwu=======get:
bit_width=8;  round_method=0;  round_strategy=1;  is_runtime=0;  range_low=-0.347658;  range_high=0.330042
I0111 11:55:18.936558 17975 net.cpp:122] Setting up conv5
I0111 11:55:18.936600 17975 net.cpp:129] Top shape: 200 256 13 13 (8652800)
I0111 11:55:18.936605 17975 net.cpp:137] Memory required for data: 2381877600
I0111 11:55:18.936621 17975 layer_factory.hpp:77] Creating layer bn5
I0111 11:55:18.936640 17975 net.cpp:84] Creating Layer bn5
I0111 11:55:18.936647 17975 net.cpp:406] bn5 <- conv5
I0111 11:55:18.936662 17975 net.cpp:367] bn5 -> conv5 (in-place)
I0111 11:55:18.936880 17975 net.cpp:122] Setting up bn5
I0111 11:55:18.936894 17975 net.cpp:129] Top shape: 200 256 13 13 (8652800)
I0111 11:55:18.936902 17975 net.cpp:137] Memory required for data: 2416488800
I0111 11:55:18.936925 17975 layer_factory.hpp:77] Creating layer scale5
I0111 11:55:18.936949 17975 net.cpp:84] Creating Layer scale5
I0111 11:55:18.936954 17975 net.cpp:406] scale5 <- conv5
I0111 11:55:18.936962 17975 net.cpp:367] scale5 -> conv5 (in-place)
I0111 11:55:18.937029 17975 layer_factory.hpp:77] Creating layer scale5
I0111 11:55:18.937153 17975 net.cpp:122] Setting up scale5
I0111 11:55:18.937166 17975 net.cpp:129] Top shape: 200 256 13 13 (8652800)
I0111 11:55:18.937180 17975 net.cpp:137] Memory required for data: 2451100000
I0111 11:55:18.937189 17975 layer_factory.hpp:77] Creating layer relu5
I0111 11:55:18.937201 17975 net.cpp:84] Creating Layer relu5
I0111 11:55:18.937208 17975 net.cpp:406] relu5 <- conv5
I0111 11:55:18.937216 17975 net.cpp:367] relu5 -> conv5 (in-place)
I0111 11:55:18.937225 17975 net.cpp:122] Setting up relu5
I0111 11:55:18.937234 17975 net.cpp:129] Top shape: 200 256 13 13 (8652800)
I0111 11:55:18.937242 17975 net.cpp:137] Memory required for data: 2485711200
I0111 11:55:18.937248 17975 layer_factory.hpp:77] Creating layer pool5
I0111 11:55:18.937263 17975 net.cpp:84] Creating Layer pool5
I0111 11:55:18.937270 17975 net.cpp:406] pool5 <- conv5
I0111 11:55:18.937279 17975 net.cpp:380] pool5 -> pool5
I0111 11:55:18.937327 17975 net.cpp:122] Setting up pool5
I0111 11:55:18.937340 17975 net.cpp:129] Top shape: 200 256 6 6 (1843200)
I0111 11:55:18.937346 17975 net.cpp:137] Memory required for data: 2493084000
I0111 11:55:18.937353 17975 layer_factory.hpp:77] Creating layer quantized_conv1
I0111 11:55:18.937366 17975 net.cpp:84] Creating Layer quantized_conv1
I0111 11:55:18.937373 17975 net.cpp:406] quantized_conv1 <- pool5
I0111 11:55:18.937384 17975 net.cpp:367] quantized_conv1 -> pool5 (in-place)
I0111 11:55:18.937397 17975 net.cpp:122] Setting up quantized_conv1
I0111 11:55:18.937449 17975 net.cpp:129] Top shape: 200 256 6 6 (1843200)
I0111 11:55:18.937458 17975 net.cpp:137] Memory required for data: 2500456800
I0111 11:55:18.937464 17975 layer_factory.hpp:77] Creating layer fc6
I0111 11:55:18.937477 17975 net.cpp:84] Creating Layer fc6
I0111 11:55:18.937484 17975 net.cpp:406] fc6 <- pool5
I0111 11:55:18.937494 17975 net.cpp:380] fc6 -> fc6
I0111 11:55:18.937511 17975 quan_inner_product_layer.cpp:21] 4096   4096
ydwu=======get:
bit_width=8;  round_method=0;  round_strategy=1;  is_runtime=0;  range_low=-0.160061;  range_high=0.148064
I0111 11:55:19.525951 17975 net.cpp:122] Setting up fc6
I0111 11:55:19.526008 17975 net.cpp:129] Top shape: 200 4096 (819200)
I0111 11:55:19.526015 17975 net.cpp:137] Memory required for data: 2503733600
I0111 11:55:19.526037 17975 layer_factory.hpp:77] Creating layer bn6
I0111 11:55:19.526058 17975 net.cpp:84] Creating Layer bn6
I0111 11:55:19.526068 17975 net.cpp:406] bn6 <- fc6
I0111 11:55:19.526083 17975 net.cpp:367] bn6 -> fc6 (in-place)
I0111 11:55:19.526314 17975 net.cpp:122] Setting up bn6
I0111 11:55:19.526327 17975 net.cpp:129] Top shape: 200 4096 (819200)
I0111 11:55:19.526345 17975 net.cpp:137] Memory required for data: 2507010400
I0111 11:55:19.526357 17975 layer_factory.hpp:77] Creating layer scale6
I0111 11:55:19.526381 17975 net.cpp:84] Creating Layer scale6
I0111 11:55:19.526388 17975 net.cpp:406] scale6 <- fc6
I0111 11:55:19.526408 17975 net.cpp:367] scale6 -> fc6 (in-place)
I0111 11:55:19.526476 17975 layer_factory.hpp:77] Creating layer scale6
I0111 11:55:19.526631 17975 net.cpp:122] Setting up scale6
I0111 11:55:19.526645 17975 net.cpp:129] Top shape: 200 4096 (819200)
I0111 11:55:19.526664 17975 net.cpp:137] Memory required for data: 2510287200
I0111 11:55:19.526674 17975 layer_factory.hpp:77] Creating layer relu6
I0111 11:55:19.526684 17975 net.cpp:84] Creating Layer relu6
I0111 11:55:19.526691 17975 net.cpp:406] relu6 <- fc6
I0111 11:55:19.526702 17975 net.cpp:367] relu6 -> fc6 (in-place)
I0111 11:55:19.526712 17975 net.cpp:122] Setting up relu6
I0111 11:55:19.526721 17975 net.cpp:129] Top shape: 200 4096 (819200)
I0111 11:55:19.526726 17975 net.cpp:137] Memory required for data: 2513564000
I0111 11:55:19.526733 17975 layer_factory.hpp:77] Creating layer drop6
I0111 11:55:19.526744 17975 net.cpp:84] Creating Layer drop6
I0111 11:55:19.526752 17975 net.cpp:406] drop6 <- fc6
I0111 11:55:19.526762 17975 net.cpp:367] drop6 -> fc6 (in-place)
I0111 11:55:19.526800 17975 net.cpp:122] Setting up drop6
I0111 11:55:19.526813 17975 net.cpp:129] Top shape: 200 4096 (819200)
I0111 11:55:19.526820 17975 net.cpp:137] Memory required for data: 2516840800
I0111 11:55:19.526826 17975 layer_factory.hpp:77] Creating layer quantized_conv1
I0111 11:55:19.526839 17975 net.cpp:84] Creating Layer quantized_conv1
I0111 11:55:19.526846 17975 net.cpp:406] quantized_conv1 <- fc6
I0111 11:55:19.526854 17975 net.cpp:367] quantized_conv1 -> fc6 (in-place)
I0111 11:55:19.526866 17975 net.cpp:122] Setting up quantized_conv1
I0111 11:55:19.526875 17975 net.cpp:129] Top shape: 200 4096 (819200)
I0111 11:55:19.526881 17975 net.cpp:137] Memory required for data: 2520117600
I0111 11:55:19.526888 17975 layer_factory.hpp:77] Creating layer fc7
I0111 11:55:19.526901 17975 net.cpp:84] Creating Layer fc7
I0111 11:55:19.526907 17975 net.cpp:406] fc7 <- fc6
I0111 11:55:19.526919 17975 net.cpp:380] fc7 -> fc7
I0111 11:55:19.526932 17975 quan_inner_product_layer.cpp:21] 4096   4096
ydwu=======get:
bit_width=8;  round_method=0;  round_strategy=1;  is_runtime=0;  range_low=-0.162636;  range_high=0.197684
I0111 11:55:19.786406 17975 net.cpp:122] Setting up fc7
I0111 11:55:19.786460 17975 net.cpp:129] Top shape: 200 4096 (819200)
I0111 11:55:19.786468 17975 net.cpp:137] Memory required for data: 2523394400
I0111 11:55:19.786485 17975 layer_factory.hpp:77] Creating layer bn7
I0111 11:55:19.786507 17975 net.cpp:84] Creating Layer bn7
I0111 11:55:19.786527 17975 net.cpp:406] bn7 <- fc7
I0111 11:55:19.786543 17975 net.cpp:367] bn7 -> fc7 (in-place)
I0111 11:55:19.786780 17975 net.cpp:122] Setting up bn7
I0111 11:55:19.786793 17975 net.cpp:129] Top shape: 200 4096 (819200)
I0111 11:55:19.786811 17975 net.cpp:137] Memory required for data: 2526671200
I0111 11:55:19.786823 17975 layer_factory.hpp:77] Creating layer scale7
I0111 11:55:19.786893 17975 net.cpp:84] Creating Layer scale7
I0111 11:55:19.786900 17975 net.cpp:406] scale7 <- fc7
I0111 11:55:19.786906 17975 net.cpp:367] scale7 -> fc7 (in-place)
I0111 11:55:19.786974 17975 layer_factory.hpp:77] Creating layer scale7
I0111 11:55:19.787147 17975 net.cpp:122] Setting up scale7
I0111 11:55:19.787160 17975 net.cpp:129] Top shape: 200 4096 (819200)
I0111 11:55:19.787178 17975 net.cpp:137] Memory required for data: 2529948000
I0111 11:55:19.787187 17975 layer_factory.hpp:77] Creating layer relu7
I0111 11:55:19.787201 17975 net.cpp:84] Creating Layer relu7
I0111 11:55:19.787209 17975 net.cpp:406] relu7 <- fc7
I0111 11:55:19.787215 17975 net.cpp:367] relu7 -> fc7 (in-place)
I0111 11:55:19.787223 17975 net.cpp:122] Setting up relu7
I0111 11:55:19.787230 17975 net.cpp:129] Top shape: 200 4096 (819200)
I0111 11:55:19.787236 17975 net.cpp:137] Memory required for data: 2533224800
I0111 11:55:19.787243 17975 layer_factory.hpp:77] Creating layer drop7
I0111 11:55:19.787256 17975 net.cpp:84] Creating Layer drop7
I0111 11:55:19.787263 17975 net.cpp:406] drop7 <- fc7
I0111 11:55:19.787271 17975 net.cpp:367] drop7 -> fc7 (in-place)
I0111 11:55:19.787302 17975 net.cpp:122] Setting up drop7
I0111 11:55:19.787313 17975 net.cpp:129] Top shape: 200 4096 (819200)
I0111 11:55:19.787319 17975 net.cpp:137] Memory required for data: 2536501600
I0111 11:55:19.787326 17975 layer_factory.hpp:77] Creating layer quantized_conv1
I0111 11:55:19.787338 17975 net.cpp:84] Creating Layer quantized_conv1
I0111 11:55:19.787344 17975 net.cpp:406] quantized_conv1 <- fc7
I0111 11:55:19.787353 17975 net.cpp:367] quantized_conv1 -> fc7 (in-place)
I0111 11:55:19.787362 17975 net.cpp:122] Setting up quantized_conv1
I0111 11:55:19.787370 17975 net.cpp:129] Top shape: 200 4096 (819200)
I0111 11:55:19.787376 17975 net.cpp:137] Memory required for data: 2539778400
I0111 11:55:19.787384 17975 layer_factory.hpp:77] Creating layer fc8
I0111 11:55:19.787395 17975 net.cpp:84] Creating Layer fc8
I0111 11:55:19.787400 17975 net.cpp:406] fc8 <- fc7
I0111 11:55:19.787411 17975 net.cpp:380] fc8 -> fc8
I0111 11:55:19.787425 17975 quan_inner_product_layer.cpp:21] 1000   1000
ydwu=======get:
bit_width=8;  round_method=0;  round_strategy=1;  is_runtime=0;  range_low=-0.141857;  range_high=0.274249
I0111 11:55:19.850751 17975 net.cpp:122] Setting up fc8
I0111 11:55:19.850792 17975 net.cpp:129] Top shape: 200 1000 (200000)
I0111 11:55:19.850800 17975 net.cpp:137] Memory required for data: 2540578400
I0111 11:55:19.850818 17975 layer_factory.hpp:77] Creating layer fc8_fc8_0_split
I0111 11:55:19.850839 17975 net.cpp:84] Creating Layer fc8_fc8_0_split
I0111 11:55:19.850848 17975 net.cpp:406] fc8_fc8_0_split <- fc8
I0111 11:55:19.850873 17975 net.cpp:380] fc8_fc8_0_split -> fc8_fc8_0_split_0
I0111 11:55:19.850890 17975 net.cpp:380] fc8_fc8_0_split -> fc8_fc8_0_split_1
I0111 11:55:19.850963 17975 net.cpp:122] Setting up fc8_fc8_0_split
I0111 11:55:19.850975 17975 net.cpp:129] Top shape: 200 1000 (200000)
I0111 11:55:19.850982 17975 net.cpp:129] Top shape: 200 1000 (200000)
I0111 11:55:19.850998 17975 net.cpp:137] Memory required for data: 2542178400
I0111 11:55:19.851004 17975 layer_factory.hpp:77] Creating layer accuracy_5_TRAIN
I0111 11:55:19.851022 17975 net.cpp:84] Creating Layer accuracy_5_TRAIN
I0111 11:55:19.851029 17975 net.cpp:406] accuracy_5_TRAIN <- fc8_fc8_0_split_0
I0111 11:55:19.851037 17975 net.cpp:406] accuracy_5_TRAIN <- label_data_1_split_0
…
I0111 11:55:19.854076 17975 net.cpp:294] The NetState phase (1) differed from the phase (0) specified by a rule in layer accuracy_5_TRAIN
I0111 11:55:19.854401 17975 net.cpp:51] Initializing net from parameters: 
name: "AlexNet-BN"
state {
  phase: TEST
}
layer {
  name: "data"
  type: "Data"
  top: "data"
  top: "label"
  include {
    phase: TEST
  }
  transform_param {
    mirror: false
    crop_size: 224
    mean_value: 103.939
    mean_value: 116.779
    mean_value: 123.68
  }
  data_param {
    source: "/home/ydwu/database/imagenet/ilsvrc12/lmdb_resize/ilsvrc12_val_lmdb"
    batch_size: 200
    backend: LMDB
  }
}
layer {
  name: "conv1"
  type: "QuanConvolution"
  bottom: "data"
  top: "conv1"
  param {
    lr_mult: 1
    decay_mult: 1
  }
  param {
    lr_mult: 2
    decay_mult: 0
  }
  quan_convolution_param {
    num_output: 96
    pad: 2
    kernel_size: 11
    stride: 4
    weight_filler {
      type: "gaussian"
      std: 0.01
    }
    bias_filler {
      type: "constant"
      value: 0
    }
    round_method: ROUND
    round_strategy: NEUTRAL
    bit_width: 8
    range_low: -0.872089
    range_high: 0.927025
  }
}
layer {
  name: "bn1"
  type: "BatchNorm"
  bottom: "conv1"
  top: "conv1"
}
layer {
  name: "scale1"
  type: "Scale"
  bottom: "conv1"
  top: "conv1"
  scale_param {
    bias_term: true
  }
}
layer {
  name: "relu1"
  type: "ReLU"
  bottom: "conv1"
  top: "conv1"
}
layer {
  name: "pool1"
  type: "Pooling"
  bottom: "conv1"
  top: "pool1"
  pooling_param {
    pool: MAX
    kernel_size: 3
    stride: 2
  }
}
layer {
  name: "quantized_conv1"
  type: "Quantization"
  bottom: "pool1"
  top: "pool1"
  quantization_param {
    round_method: ROUND
    round_strategy: AGGRESSIVE
    bit_width: 8
    range: 0
    range: 13.965383
  }
}
layer {
  name: "conv2"
  type: "QuanConvolution"
  bottom: "pool1"
  top: "conv2"
  param {
    lr_mult: 1
    decay_mult: 1
  }
  param {
    lr_mult: 2
    decay_mult: 0
  }
  quan_convolution_param {
    num_output: 256
    pad: 2
    kernel_size: 5
    weight_filler {
      type: "gaussian"
      std: 0.01
    }
    bias_filler {
      type: "constant"
      value: 0.1
    }
    round_method: ROUND
    round_strategy: NEUTRAL
    bit_width: 8
    range_low: -0.806018
    range_high: 1.5182
  }
}
layer {
  name: "bn2"
  type: "BatchNorm"
  bottom: "conv2"
  top: "conv2"
}
layer {
  name: "scale2"
  type: "Scale"
  bottom: "conv2"
  top: "conv2"
  scale_param {
    bias_term: true
  }
}
layer {
  name: "relu2"
  type: "ReLU"
  bottom: "conv2"
  top: "conv2"
}
layer {
  name: "pool2"
  type: "Pooling"
  bottom: "conv2"
  top: "pool2"
  pooling_param {
    pool: MAX
    kernel_size: 3
    stride: 2
  }
}
layer {
  name: "quantized_conv1"
  type: "Quantization"
  bottom: "pool2"
  top: "pool2"
  quantization_param {
    round_method: ROUND
    round_strategy: AGGRESSIVE
    bit_width: 8
    range: 0
    range: 6.74956
  }
}
layer {
  name: "conv3"
  type: "QuanConvolution"
  bottom: "pool2"
  top: "conv3"
  param {
    lr_mult: 1
    decay_mult: 1
  }
  param {
    lr_mult: 2
    decay_mult: 0
  }
  quan_convolution_param {
    num_output: 384
    pad: 1
    kernel_size: 3
    weight_filler {
      type: "gaussian"
      std: 0.01
    }
    bias_filler {
      type: "constant"
      value: 0
    }
    round_method: ROUND
    round_strategy: NEUTRAL
    bit_width: 8
    range_low: -0.621858
    range_high: 0.673858
  }
}
layer {
  name: "bn3"
  type: "BatchNorm"
  bottom: "conv3"
  top: "conv3"
}
layer {
  name: "scale3"
  type: "Scale"
  bottom: "conv3"
  top: "conv3"
  scale_param {
    bias_term: true
  }
}
layer {
  name: "relu3"
  type: "ReLU"
  bottom: "conv3"
  top: "conv3"
}
layer {
  name: "quantized_conv1"
  type: "Quantization"
  bottom: "conv3"
  top: "conv3"
  quantization_param {
    round_method: ROUND
    round_strategy: AGGRESSIVE
    bit_width: 8
    range: 0
    range: 8.48454
  }
}
layer {
  name: "conv4"
  type: "QuanConvolution"
  bottom: "conv3"
  top: "conv4"
  param {
    lr_mult: 1
    decay_mult: 1
  }
  param {
    lr_mult: 2
    decay_mult: 0
  }
  quan_convolution_param {
    num_output: 384
    pad: 1
    kernel_size: 3
    weight_filler {
      type: "gaussian"
      std: 0.01
    }
    bias_filler {
      type: "constant"
      value: 0.1
    }
    round_method: ROUND
    round_strategy: NEUTRAL
    bit_width: 8
    range_low: -0.376634
    range_high: 0.341829
  }
}
layer {
  name: "bn4"
  type: "BatchNorm"
  bottom: "conv4"
  top: "conv4"
}
layer {
  name: "scale4"
  type: "Scale"
  bottom: "conv4"
  top: "conv4"
  scale_param {
    bias_term: true
  }
}
layer {
  name: "relu4"
  type: "ReLU"
  bottom: "conv4"
  top: "conv4"
}
layer {
  name: "quantized_conv1"
  type: "Quantization"
  bottom: "conv4"
  top: "conv4"
  quantization_param {
    round_method: ROUND
    round_strategy: AGGRESSIVE
    bit_width: 8
    range: 0
    range: 7.3369722
  }
}
layer {
  name: "conv5"
  type: "QuanConvolution"
  bottom: "conv4"
  top: "conv5"
  param {
    lr_mult: 1
    decay_mult: 1
  }
  param {
    lr_mult: 2
    decay_mult: 0
  }
  quan_convolution_param {
    num_output: 256
    pad: 1
    kernel_size: 3
    weight_filler {
      type: "gaussian"
      std: 0.01
    }
    bias_filler {
      type: "constant"
      value: 0.1
    }
    round_method: ROUND
    round_strategy: NEUTRAL
    bit_width: 8
    range_low: -0.347658
    range_high: 0.330042
  }
}
layer {
  name: "bn5"
  type: "BatchNorm"
  bottom: "conv5"
  top: "conv5"
}
layer {
  name: "scale5"
  type: "Scale"
  bottom: "conv5"
  top: "conv5"
  scale_param {
    bias_term: true
  }
}
layer {
  name: "relu5"
  type: "ReLU"
  bottom: "conv5"
  top: "conv5"
}
layer {
  name: "pool5"
  type: "Pooling"
  bottom: "conv5"
  top: "pool5"
  pooling_param {
    pool: MAX
    kernel_size: 3
    stride: 2
  }
}
layer {
  name: "quantized_conv1"
  type: "Quantization"
  bottom: "pool5"
  top: "pool5"
  quantization_param {
    round_method: ROUND
    round_strategy: AGGRESSIVE
    bit_width: 8
    range: 0
    range: 8.7577133
  }
}
layer {
  name: "fc6"
  type: "QuanInnerProduct"
  bottom: "pool5"
  top: "fc6"
  param {
    lr_mult: 1
    decay_mult: 1
  }
  param {
    lr_mult: 2
    decay_mult: 0
  }
  quan_inner_product_param {
    num_output: 4096
    weight_filler {
      type: "gaussian"
      std: 0.005
    }
    bias_filler {
      type: "constant"
      value: 0.1
    }
    round_method: ROUND
    round_strategy: NEUTRAL
    bit_width: 8
    range_low: -0.160061
    range_high: 0.148064
  }
}
layer {
  name: "bn6"
  type: "BatchNorm"
  bottom: "fc6"
  top: "fc6"
}
layer {
  name: "scale6"
  type: "Scale"
  bottom: "fc6"
  top: "fc6"
  scale_param {
    bias_term: true
  }
}
layer {
  name: "relu6"
  type: "ReLU"
  bottom: "fc6"
  top: "fc6"
}
layer {
  name: "drop6"
  type: "Dropout"
  bottom: "fc6"
  top: "fc6"
  dropout_param {
    dropout_ratio: 0.5
  }
}
layer {
  name: "quantized_conv1"
  type: "Quantization"
  bottom: "fc6"
  top: "fc6"
  quantization_param {
    round_method: ROUND
    round_strategy: AGGRESSIVE
    bit_width: 8
    range: 0
    range: 1.659358
  }
}
layer {
  name: "fc7"
  type: "QuanInnerProduct"
  bottom: "fc6"
  top: "fc7"
  param {
    lr_mult: 1
    decay_mult: 1
  }
  param {
    lr_mult: 2
    decay_mult: 0
  }
  quan_inner_product_param {
    num_output: 4096
    weight_filler {
      type: "gaussian"
      std: 0.005
    }
    bias_filler {
      type: "constant"
      value: 0.1
    }
    round_method: ROUND
    round_strategy: NEUTRAL
    bit_width: 8
    range_low: -0.162636
    range_high: 0.197684
  }
}
layer {
  name: "bn7"
  type: "BatchNorm"
  bottom: "fc7"
  top: "fc7"
}
layer {
  name: "scale7"
  type: "Scale"
  bottom: "fc7"
  top: "fc7"
  scale_param {
    bias_term: true
  }
}
layer {
  name: "relu7"
  type: "ReLU"
  bottom: "fc7"
  top: "fc7"
}
layer {
  name: "drop7"
  type: "Dropout"
  bottom: "fc7"
  top: "fc7"
  dropout_param {
    dropout_ratio: 0.5
  }
}
layer {
  name: "quantized_conv1"
  type: "Quantization"
  bottom: "fc7"
  top: "fc7"
  quantization_param {
    round_method: ROUND
    round_strategy: AGGRESSIVE
    bit_width: 8
    range: 0
    range: 7.5598521
  }
}
layer {
  name: "fc8"
  type: "QuanInnerProduct"
  bottom: "fc7"
  top: "fc8"
  param {
    lr_mult: 1
    decay_mult: 1
  }
  param {
    lr_mult: 2
    decay_mult: 0
  }
  quan_inner_product_param {
    num_output: 1000
    weight_filler {
      type: "gaussian"
      std: 0.01
    }
    bias_filler {
      type: "constant"
      value: 0
    }
    round_method: ROUND
    round_strategy: NEUTRAL
    bit_width: 8
    range_low: -0.141857
    range_high: 0.274249
  }
}
layer {
  name: "accuracy"
  type: "Accuracy"
  bottom: "fc8"
  bottom: "label"
  top: "accuracy"
  include {
    phase: TEST
  }
}
layer {
  name: "accuracy_5"
  type: "Accuracy"
  bottom: "fc8"
  bottom: "label"
  top: "accuracy_5"
  include {
    phase: TEST
  }
  accuracy_param {
    top_k: 5
  }
}
layer {
  name: "loss"
  type: "SoftmaxWithLoss"
  bottom: "fc8"
  bottom: "label"
  top: "loss"
}
I0111 11:55:19.854612 17975 layer_factory.hpp:77] Creating layer data
I0111 11:55:19.857009 17975 db_lmdb.cpp:35] Opened lmdb /home/ydwu/database/imagenet/ilsvrc12/lmdb_resize/ilsvrc12_val_lmdb
I0111 11:55:19.857309 17975 net.cpp:84] Creating Layer data
I0111 11:55:19.857349 17975 net.cpp:380] data -> data
I0111 11:55:19.857365 17975 net.cpp:380] data -> label
I0111 11:55:19.857748 17975 data_layer.cpp:45] output data size: 200,3,224,224
I0111 11:55:20.216365 17975 net.cpp:122] Setting up data
I0111 11:55:20.216439 17975 net.cpp:129] Top shape: 200 3 224 224 (30105600)
I0111 11:55:20.216449 17975 net.cpp:129] Top shape: 200 (200)
I0111 11:55:20.216454 17975 net.cpp:137] Memory required for data: 120423200
I0111 11:55:20.216477 17975 layer_factory.hpp:77] Creating layer label_data_1_split
I0111 11:55:20.216501 17975 net.cpp:84] Creating Layer label_data_1_split
I0111 11:55:20.216511 17975 net.cpp:406] label_data_1_split <- label
I0111 11:55:20.216537 17975 net.cpp:380] label_data_1_split -> label_data_1_split_0
I0111 11:55:20.216559 17975 net.cpp:380] label_data_1_split -> label_data_1_split_1
I0111 11:55:20.216572 17975 net.cpp:380] label_data_1_split -> label_data_1_split_2
I0111 11:55:20.216786 17975 net.cpp:122] Setting up label_data_1_split
I0111 11:55:20.216811 17975 net.cpp:129] Top shape: 200 (200)
I0111 11:55:20.216820 17975 net.cpp:129] Top shape: 200 (200)
I0111 11:55:20.216828 17975 net.cpp:129] Top shape: 200 (200)
I0111 11:55:20.216835 17975 net.cpp:137] Memory required for data: 120425600
I0111 11:55:20.216842 17975 layer_factory.hpp:77] Creating layer conv1
I0111 11:55:20.216868 17975 net.cpp:84] Creating Layer conv1
I0111 11:55:20.216876 17975 net.cpp:406] conv1 <- data
I0111 11:55:20.216889 17975 net.cpp:380] conv1 -> conv1
ydwu=======get:
bit_width=8;  round_method=0;  round_strategy=1;  is_runtime=0;  range_low=-0.872089;  range_high=0.927025
I0111 11:55:20.217955 17975 net.cpp:122] Setting up conv1
I0111 11:55:20.217979 17975 net.cpp:129] Top shape: 200 96 55 55 (58080000)
I0111 11:55:20.217988 17975 net.cpp:137] Memory required for data: 352745600
I0111 11:55:20.218008 17975 layer_factory.hpp:77] Creating layer bn1
I0111 11:55:20.218021 17975 net.cpp:84] Creating Layer bn1
I0111 11:55:20.218029 17975 net.cpp:406] bn1 <- conv1
I0111 11:55:20.218039 17975 net.cpp:367] bn1 -> conv1 (in-place)
I0111 11:55:20.236634 17975 net.cpp:122] Setting up bn1
I0111 11:55:20.236696 17975 net.cpp:129] Top shape: 200 96 55 55 (58080000)
I0111 11:55:20.236703 17975 net.cpp:137] Memory required for data: 585065600
I0111 11:55:20.236735 17975 layer_factory.hpp:77] Creating layer scale1
I0111 11:55:20.236769 17975 net.cpp:84] Creating Layer scale1
I0111 11:55:20.236778 17975 net.cpp:406] scale1 <- conv1
I0111 11:55:20.236791 17975 net.cpp:367] scale1 -> conv1 (in-place)
I0111 11:55:20.236877 17975 layer_factory.hpp:77] Creating layer scale1
I0111 11:55:20.237068 17975 net.cpp:122] Setting up scale1
I0111 11:55:20.237082 17975 net.cpp:129] Top shape: 200 96 55 55 (58080000)
I0111 11:55:20.237088 17975 net.cpp:137] Memory required for data: 817385600
I0111 11:55:20.237099 17975 layer_factory.hpp:77] Creating layer relu1
I0111 11:55:20.237155 17975 net.cpp:84] Creating Layer relu1
I0111 11:55:20.237164 17975 net.cpp:406] relu1 <- conv1
I0111 11:55:20.237174 17975 net.cpp:367] relu1 -> conv1 (in-place)
I0111 11:55:20.237184 17975 net.cpp:122] Setting up relu1
I0111 11:55:20.237192 17975 net.cpp:129] Top shape: 200 96 55 55 (58080000)
I0111 11:55:20.237198 17975 net.cpp:137] Memory required for data: 1049705600
I0111 11:55:20.237205 17975 layer_factory.hpp:77] Creating layer pool1
I0111 11:55:20.237215 17975 net.cpp:84] Creating Layer pool1
I0111 11:55:20.237222 17975 net.cpp:406] pool1 <- conv1
I0111 11:55:20.237231 17975 net.cpp:380] pool1 -> pool1
I0111 11:55:20.237282 17975 net.cpp:122] Setting up pool1
I0111 11:55:20.237294 17975 net.cpp:129] Top shape: 200 96 27 27 (13996800)
I0111 11:55:20.237300 17975 net.cpp:137] Memory required for data: 1105692800
I0111 11:55:20.237308 17975 layer_factory.hpp:77] Creating layer quantized_conv1
I0111 11:55:20.237319 17975 net.cpp:84] Creating Layer quantized_conv1
I0111 11:55:20.237325 17975 net.cpp:406] quantized_conv1 <- pool1
I0111 11:55:20.237334 17975 net.cpp:367] quantized_conv1 -> pool1 (in-place)
I0111 11:55:20.237345 17975 net.cpp:122] Setting up quantized_conv1
I0111 11:55:20.237354 17975 net.cpp:129] Top shape: 200 96 27 27 (13996800)
I0111 11:55:20.237360 17975 net.cpp:137] Memory required for data: 1161680000
I0111 11:55:20.237366 17975 layer_factory.hpp:77] Creating layer conv2
I0111 11:55:20.237385 17975 net.cpp:84] Creating Layer conv2
I0111 11:55:20.237391 17975 net.cpp:406] conv2 <- pool1
I0111 11:55:20.237402 17975 net.cpp:380] conv2 -> conv2
ydwu=======get:
bit_width=8;  round_method=0;  round_strategy=1;  is_runtime=0;  range_low=-0.806018;  range_high=1.5182
I0111 11:55:20.247979 17975 net.cpp:122] Setting up conv2
I0111 11:55:20.248010 17975 net.cpp:129] Top shape: 200 256 27 27 (37324800)
I0111 11:55:20.248018 17975 net.cpp:137] Memory required for data: 1310979200
I0111 11:55:20.248040 17975 layer_factory.hpp:77] Creating layer bn2
I0111 11:55:20.248059 17975 net.cpp:84] Creating Layer bn2
I0111 11:55:20.248067 17975 net.cpp:406] bn2 <- conv2
I0111 11:55:20.248080 17975 net.cpp:367] bn2 -> conv2 (in-place)
I0111 11:55:20.248306 17975 net.cpp:122] Setting up bn2
I0111 11:55:20.248320 17975 net.cpp:129] Top shape: 200 256 27 27 (37324800)
I0111 11:55:20.248327 17975 net.cpp:137] Memory required for data: 1460278400
I0111 11:55:20.248340 17975 layer_factory.hpp:77] Creating layer scale2
I0111 11:55:20.248353 17975 net.cpp:84] Creating Layer scale2
I0111 11:55:20.248360 17975 net.cpp:406] scale2 <- conv2
I0111 11:55:20.248370 17975 net.cpp:367] scale2 -> conv2 (in-place)
I0111 11:55:20.248435 17975 layer_factory.hpp:77] Creating layer scale2
I0111 11:55:20.248591 17975 net.cpp:122] Setting up scale2
I0111 11:55:20.248606 17975 net.cpp:129] Top shape: 200 256 27 27 (37324800)
I0111 11:55:20.248613 17975 net.cpp:137] Memory required for data: 1609577600
I0111 11:55:20.248623 17975 layer_factory.hpp:77] Creating layer relu2
I0111 11:55:20.248636 17975 net.cpp:84] Creating Layer relu2
I0111 11:55:20.248641 17975 net.cpp:406] relu2 <- conv2
I0111 11:55:20.248652 17975 net.cpp:367] relu2 -> conv2 (in-place)
I0111 11:55:20.248663 17975 net.cpp:122] Setting up relu2
I0111 11:55:20.248672 17975 net.cpp:129] Top shape: 200 256 27 27 (37324800)
I0111 11:55:20.248678 17975 net.cpp:137] Memory required for data: 1758876800
I0111 11:55:20.248684 17975 layer_factory.hpp:77] Creating layer pool2
I0111 11:55:20.248697 17975 net.cpp:84] Creating Layer pool2
I0111 11:55:20.248704 17975 net.cpp:406] pool2 <- conv2
I0111 11:55:20.248714 17975 net.cpp:380] pool2 -> pool2
I0111 11:55:20.248771 17975 net.cpp:122] Setting up pool2
I0111 11:55:20.248785 17975 net.cpp:129] Top shape: 200 256 13 13 (8652800)
I0111 11:55:20.248792 17975 net.cpp:137] Memory required for data: 1793488000
I0111 11:55:20.248798 17975 layer_factory.hpp:77] Creating layer quantized_conv1
I0111 11:55:20.248811 17975 net.cpp:84] Creating Layer quantized_conv1
I0111 11:55:20.248818 17975 net.cpp:406] quantized_conv1 <- pool2
I0111 11:55:20.248828 17975 net.cpp:367] quantized_conv1 -> pool2 (in-place)
I0111 11:55:20.248883 17975 net.cpp:122] Setting up quantized_conv1
I0111 11:55:20.248893 17975 net.cpp:129] Top shape: 200 256 13 13 (8652800)
I0111 11:55:20.248899 17975 net.cpp:137] Memory required for data: 1828099200
I0111 11:55:20.248906 17975 layer_factory.hpp:77] Creating layer conv3
I0111 11:55:20.248924 17975 net.cpp:84] Creating Layer conv3
I0111 11:55:20.248939 17975 net.cpp:406] conv3 <- pool2
I0111 11:55:20.248950 17975 net.cpp:380] conv3 -> conv3
ydwu=======get:
bit_width=8;  round_method=0;  round_strategy=1;  is_runtime=0;  range_low=-0.621858;  range_high=0.673858
I0111 11:55:20.263561 17975 net.cpp:122] Setting up conv3
I0111 11:55:20.263588 17975 net.cpp:129] Top shape: 200 384 13 13 (12979200)
I0111 11:55:20.263597 17975 net.cpp:137] Memory required for data: 1880016000
I0111 11:55:20.263612 17975 layer_factory.hpp:77] Creating layer bn3
I0111 11:55:20.263629 17975 net.cpp:84] Creating Layer bn3
I0111 11:55:20.263638 17975 net.cpp:406] bn3 <- conv3
I0111 11:55:20.263651 17975 net.cpp:367] bn3 -> conv3 (in-place)
I0111 11:55:20.263856 17975 net.cpp:122] Setting up bn3
I0111 11:55:20.263870 17975 net.cpp:129] Top shape: 200 384 13 13 (12979200)
I0111 11:55:20.263876 17975 net.cpp:137] Memory required for data: 1931932800
I0111 11:55:20.263897 17975 layer_factory.hpp:77] Creating layer scale3
I0111 11:55:20.263916 17975 net.cpp:84] Creating Layer scale3
I0111 11:55:20.263923 17975 net.cpp:406] scale3 <- conv3
I0111 11:55:20.263932 17975 net.cpp:367] scale3 -> conv3 (in-place)
I0111 11:55:20.263990 17975 layer_factory.hpp:77] Creating layer scale3
I0111 11:55:20.264122 17975 net.cpp:122] Setting up scale3
I0111 11:55:20.264134 17975 net.cpp:129] Top shape: 200 384 13 13 (12979200)
I0111 11:55:20.264142 17975 net.cpp:137] Memory required for data: 1983849600
I0111 11:55:20.264155 17975 layer_factory.hpp:77] Creating layer relu3
I0111 11:55:20.264166 17975 net.cpp:84] Creating Layer relu3
I0111 11:55:20.264173 17975 net.cpp:406] relu3 <- conv3
I0111 11:55:20.264183 17975 net.cpp:367] relu3 -> conv3 (in-place)
I0111 11:55:20.264191 17975 net.cpp:122] Setting up relu3
I0111 11:55:20.264199 17975 net.cpp:129] Top shape: 200 384 13 13 (12979200)
I0111 11:55:20.264206 17975 net.cpp:137] Memory required for data: 2035766400
I0111 11:55:20.264212 17975 layer_factory.hpp:77] Creating layer quantized_conv1
I0111 11:55:20.264223 17975 net.cpp:84] Creating Layer quantized_conv1
I0111 11:55:20.264230 17975 net.cpp:406] quantized_conv1 <- conv3
I0111 11:55:20.264240 17975 net.cpp:367] quantized_conv1 -> conv3 (in-place)
I0111 11:55:20.264250 17975 net.cpp:122] Setting up quantized_conv1
I0111 11:55:20.264257 17975 net.cpp:129] Top shape: 200 384 13 13 (12979200)
I0111 11:55:20.264263 17975 net.cpp:137] Memory required for data: 2087683200
I0111 11:55:20.264271 17975 layer_factory.hpp:77] Creating layer conv4
I0111 11:55:20.264283 17975 net.cpp:84] Creating Layer conv4
I0111 11:55:20.264291 17975 net.cpp:406] conv4 <- conv3
I0111 11:55:20.264300 17975 net.cpp:380] conv4 -> conv4
ydwu=======get:
bit_width=8;  round_method=0;  round_strategy=1;  is_runtime=0;  range_low=-0.376634;  range_high=0.341829
I0111 11:55:20.286326 17975 net.cpp:122] Setting up conv4
I0111 11:55:20.286367 17975 net.cpp:129] Top shape: 200 384 13 13 (12979200)
I0111 11:55:20.286373 17975 net.cpp:137] Memory required for data: 2139600000
I0111 11:55:20.286388 17975 layer_factory.hpp:77] Creating layer bn4
I0111 11:55:20.286409 17975 net.cpp:84] Creating Layer bn4
I0111 11:55:20.286417 17975 net.cpp:406] bn4 <- conv4
I0111 11:55:20.286430 17975 net.cpp:367] bn4 -> conv4 (in-place)
I0111 11:55:20.286660 17975 net.cpp:122] Setting up bn4
I0111 11:55:20.286674 17975 net.cpp:129] Top shape: 200 384 13 13 (12979200)
I0111 11:55:20.286685 17975 net.cpp:137] Memory required for data: 2191516800
I0111 11:55:20.286696 17975 layer_factory.hpp:77] Creating layer scale4
I0111 11:55:20.286723 17975 net.cpp:84] Creating Layer scale4
I0111 11:55:20.286732 17975 net.cpp:406] scale4 <- conv4
I0111 11:55:20.286753 17975 net.cpp:367] scale4 -> conv4 (in-place)
I0111 11:55:20.286835 17975 layer_factory.hpp:77] Creating layer scale4
I0111 11:55:20.286978 17975 net.cpp:122] Setting up scale4
I0111 11:55:20.286993 17975 net.cpp:129] Top shape: 200 384 13 13 (12979200)
I0111 11:55:20.287006 17975 net.cpp:137] Memory required for data: 2243433600
I0111 11:55:20.287067 17975 layer_factory.hpp:77] Creating layer relu4
I0111 11:55:20.287078 17975 net.cpp:84] Creating Layer relu4
I0111 11:55:20.287084 17975 net.cpp:406] relu4 <- conv4
I0111 11:55:20.287091 17975 net.cpp:367] relu4 -> conv4 (in-place)
I0111 11:55:20.287101 17975 net.cpp:122] Setting up relu4
I0111 11:55:20.287107 17975 net.cpp:129] Top shape: 200 384 13 13 (12979200)
I0111 11:55:20.287111 17975 net.cpp:137] Memory required for data: 2295350400
I0111 11:55:20.287117 17975 layer_factory.hpp:77] Creating layer quantized_conv1
I0111 11:55:20.287133 17975 net.cpp:84] Creating Layer quantized_conv1
I0111 11:55:20.287138 17975 net.cpp:406] quantized_conv1 <- conv4
I0111 11:55:20.287149 17975 net.cpp:367] quantized_conv1 -> conv4 (in-place)
I0111 11:55:20.287160 17975 net.cpp:122] Setting up quantized_conv1
I0111 11:55:20.287169 17975 net.cpp:129] Top shape: 200 384 13 13 (12979200)
I0111 11:55:20.287175 17975 net.cpp:137] Memory required for data: 2347267200
I0111 11:55:20.287183 17975 layer_factory.hpp:77] Creating layer conv5
I0111 11:55:20.287199 17975 net.cpp:84] Creating Layer conv5
I0111 11:55:20.287207 17975 net.cpp:406] conv5 <- conv4
I0111 11:55:20.287217 17975 net.cpp:380] conv5 -> conv5
ydwu=======get:
bit_width=8;  round_method=0;  round_strategy=1;  is_runtime=0;  range_low=-0.347658;  range_high=0.330042
I0111 11:55:20.301736 17975 net.cpp:122] Setting up conv5
I0111 11:55:20.301769 17975 net.cpp:129] Top shape: 200 256 13 13 (8652800)
I0111 11:55:20.301776 17975 net.cpp:137] Memory required for data: 2381878400
I0111 11:55:20.301805 17975 layer_factory.hpp:77] Creating layer bn5
I0111 11:55:20.301841 17975 net.cpp:84] Creating Layer bn5
I0111 11:55:20.301852 17975 net.cpp:406] bn5 <- conv5
I0111 11:55:20.301885 17975 net.cpp:367] bn5 -> conv5 (in-place)
I0111 11:55:20.302114 17975 net.cpp:122] Setting up bn5
I0111 11:55:20.302127 17975 net.cpp:129] Top shape: 200 256 13 13 (8652800)
I0111 11:55:20.302134 17975 net.cpp:137] Memory required for data: 2416489600
I0111 11:55:20.302170 17975 layer_factory.hpp:77] Creating layer scale5
I0111 11:55:20.302184 17975 net.cpp:84] Creating Layer scale5
I0111 11:55:20.302191 17975 net.cpp:406] scale5 <- conv5
I0111 11:55:20.302201 17975 net.cpp:367] scale5 -> conv5 (in-place)
I0111 11:55:20.302265 17975 layer_factory.hpp:77] Creating layer scale5
I0111 11:55:20.302392 17975 net.cpp:122] Setting up scale5
I0111 11:55:20.302405 17975 net.cpp:129] Top shape: 200 256 13 13 (8652800)
I0111 11:55:20.302412 17975 net.cpp:137] Memory required for data: 2451100800
I0111 11:55:20.302423 17975 layer_factory.hpp:77] Creating layer relu5
I0111 11:55:20.302434 17975 net.cpp:84] Creating Layer relu5
I0111 11:55:20.302456 17975 net.cpp:406] relu5 <- conv5
I0111 11:55:20.302467 17975 net.cpp:367] relu5 -> conv5 (in-place)
I0111 11:55:20.302479 17975 net.cpp:122] Setting up relu5
I0111 11:55:20.302486 17975 net.cpp:129] Top shape: 200 256 13 13 (8652800)
I0111 11:55:20.302494 17975 net.cpp:137] Memory required for data: 2485712000
I0111 11:55:20.302500 17975 layer_factory.hpp:77] Creating layer pool5
I0111 11:55:20.302512 17975 net.cpp:84] Creating Layer pool5
I0111 11:55:20.302520 17975 net.cpp:406] pool5 <- conv5
I0111 11:55:20.302531 17975 net.cpp:380] pool5 -> pool5
I0111 11:55:20.302580 17975 net.cpp:122] Setting up pool5
I0111 11:55:20.302592 17975 net.cpp:129] Top shape: 200 256 6 6 (1843200)
I0111 11:55:20.302599 17975 net.cpp:137] Memory required for data: 2493084800
I0111 11:55:20.302606 17975 layer_factory.hpp:77] Creating layer quantized_conv1
I0111 11:55:20.302621 17975 net.cpp:84] Creating Layer quantized_conv1
I0111 11:55:20.302628 17975 net.cpp:406] quantized_conv1 <- pool5
I0111 11:55:20.302637 17975 net.cpp:367] quantized_conv1 -> pool5 (in-place)
I0111 11:55:20.302649 17975 net.cpp:122] Setting up quantized_conv1
I0111 11:55:20.302656 17975 net.cpp:129] Top shape: 200 256 6 6 (1843200)
I0111 11:55:20.302664 17975 net.cpp:137] Memory required for data: 2500457600
I0111 11:55:20.302670 17975 layer_factory.hpp:77] Creating layer fc6
I0111 11:55:20.302682 17975 net.cpp:84] Creating Layer fc6
I0111 11:55:20.302690 17975 net.cpp:406] fc6 <- pool5
I0111 11:55:20.302742 17975 net.cpp:380] fc6 -> fc6
I0111 11:55:20.302755 17975 quan_inner_product_layer.cpp:21] 4096   4096
ydwu=======get:
bit_width=8;  round_method=0;  round_strategy=1;  is_runtime=0;  range_low=-0.160061;  range_high=0.148064
I0111 11:55:20.912482 17975 net.cpp:122] Setting up fc6
I0111 11:55:20.912533 17975 net.cpp:129] Top shape: 200 4096 (819200)
I0111 11:55:20.912539 17975 net.cpp:137] Memory required for data: 2503734400
I0111 11:55:20.912564 17975 layer_factory.hpp:77] Creating layer bn6
I0111 11:55:20.912581 17975 net.cpp:84] Creating Layer bn6
I0111 11:55:20.912591 17975 net.cpp:406] bn6 <- fc6
I0111 11:55:20.912607 17975 net.cpp:367] bn6 -> fc6 (in-place)
I0111 11:55:20.912839 17975 net.cpp:122] Setting up bn6
I0111 11:55:20.912864 17975 net.cpp:129] Top shape: 200 4096 (819200)
I0111 11:55:20.912870 17975 net.cpp:137] Memory required for data: 2507011200
I0111 11:55:20.912881 17975 layer_factory.hpp:77] Creating layer scale6
I0111 11:55:20.912904 17975 net.cpp:84] Creating Layer scale6
I0111 11:55:20.912911 17975 net.cpp:406] scale6 <- fc6
I0111 11:55:20.912927 17975 net.cpp:367] scale6 -> fc6 (in-place)
I0111 11:55:20.912991 17975 layer_factory.hpp:77] Creating layer scale6
I0111 11:55:20.913136 17975 net.cpp:122] Setting up scale6
I0111 11:55:20.913148 17975 net.cpp:129] Top shape: 200 4096 (819200)
I0111 11:55:20.913162 17975 net.cpp:137] Memory required for data: 2510288000
I0111 11:55:20.913170 17975 layer_factory.hpp:77] Creating layer relu6
I0111 11:55:20.913179 17975 net.cpp:84] Creating Layer relu6
I0111 11:55:20.913187 17975 net.cpp:406] relu6 <- fc6
I0111 11:55:20.913198 17975 net.cpp:367] relu6 -> fc6 (in-place)
I0111 11:55:20.913208 17975 net.cpp:122] Setting up relu6
I0111 11:55:20.913215 17975 net.cpp:129] Top shape: 200 4096 (819200)
I0111 11:55:20.913221 17975 net.cpp:137] Memory required for data: 2513564800
I0111 11:55:20.913228 17975 layer_factory.hpp:77] Creating layer drop6
I0111 11:55:20.913239 17975 net.cpp:84] Creating Layer drop6
I0111 11:55:20.913246 17975 net.cpp:406] drop6 <- fc6
I0111 11:55:20.913254 17975 net.cpp:367] drop6 -> fc6 (in-place)
I0111 11:55:20.913287 17975 net.cpp:122] Setting up drop6
I0111 11:55:20.913298 17975 net.cpp:129] Top shape: 200 4096 (819200)
I0111 11:55:20.913305 17975 net.cpp:137] Memory required for data: 2516841600
I0111 11:55:20.913312 17975 layer_factory.hpp:77] Creating layer quantized_conv1
I0111 11:55:20.913323 17975 net.cpp:84] Creating Layer quantized_conv1
I0111 11:55:20.913331 17975 net.cpp:406] quantized_conv1 <- fc6
I0111 11:55:20.913339 17975 net.cpp:367] quantized_conv1 -> fc6 (in-place)
I0111 11:55:20.913350 17975 net.cpp:122] Setting up quantized_conv1
I0111 11:55:20.913358 17975 net.cpp:129] Top shape: 200 4096 (819200)
I0111 11:55:20.913364 17975 net.cpp:137] Memory required for data: 2520118400
I0111 11:55:20.913372 17975 layer_factory.hpp:77] Creating layer fc7
I0111 11:55:20.913383 17975 net.cpp:84] Creating Layer fc7
I0111 11:55:20.913388 17975 net.cpp:406] fc7 <- fc6
I0111 11:55:20.913400 17975 net.cpp:380] fc7 -> fc7
I0111 11:55:20.913414 17975 quan_inner_product_layer.cpp:21] 4096   4096
ydwu=======get:
bit_width=8;  round_method=0;  round_strategy=1;  is_runtime=0;  range_low=-0.162636;  range_high=0.197684
I0111 11:55:21.170109 17975 net.cpp:122] Setting up fc7
I0111 11:55:21.170164 17975 net.cpp:129] Top shape: 200 4096 (819200)
I0111 11:55:21.170171 17975 net.cpp:137] Memory required for data: 2523395200
I0111 11:55:21.170202 17975 layer_factory.hpp:77] Creating layer bn7
I0111 11:55:21.170230 17975 net.cpp:84] Creating Layer bn7
I0111 11:55:21.170238 17975 net.cpp:406] bn7 <- fc7
I0111 11:55:21.170251 17975 net.cpp:367] bn7 -> fc7 (in-place)
I0111 11:55:21.170524 17975 net.cpp:122] Setting up bn7
I0111 11:55:21.170538 17975 net.cpp:129] Top shape: 200 4096 (819200)
I0111 11:55:21.170557 17975 net.cpp:137] Memory required for data: 2526672000
I0111 11:55:21.170567 17975 layer_factory.hpp:77] Creating layer scale7
I0111 11:55:21.170579 17975 net.cpp:84] Creating Layer scale7
I0111 11:55:21.170586 17975 net.cpp:406] scale7 <- fc7
I0111 11:55:21.170595 17975 net.cpp:367] scale7 -> fc7 (in-place)
I0111 11:55:21.170666 17975 layer_factory.hpp:77] Creating layer scale7
I0111 11:55:21.170833 17975 net.cpp:122] Setting up scale7
I0111 11:55:21.170845 17975 net.cpp:129] Top shape: 200 4096 (819200)
I0111 11:55:21.170907 17975 net.cpp:137] Memory required for data: 2529948800
I0111 11:55:21.170929 17975 layer_factory.hpp:77] Creating layer relu7
I0111 11:55:21.170938 17975 net.cpp:84] Creating Layer relu7
I0111 11:55:21.170944 17975 net.cpp:406] relu7 <- fc7
I0111 11:55:21.170953 17975 net.cpp:367] relu7 -> fc7 (in-place)
I0111 11:55:21.170963 17975 net.cpp:122] Setting up relu7
I0111 11:55:21.170969 17975 net.cpp:129] Top shape: 200 4096 (819200)
I0111 11:55:21.170985 17975 net.cpp:137] Memory required for data: 2533225600
I0111 11:55:21.170991 17975 layer_factory.hpp:77] Creating layer drop7
I0111 11:55:21.171001 17975 net.cpp:84] Creating Layer drop7
I0111 11:55:21.171007 17975 net.cpp:406] drop7 <- fc7
I0111 11:55:21.171015 17975 net.cpp:367] drop7 -> fc7 (in-place)
I0111 11:55:21.171049 17975 net.cpp:122] Setting up drop7
I0111 11:55:21.171061 17975 net.cpp:129] Top shape: 200 4096 (819200)
I0111 11:55:21.171067 17975 net.cpp:137] Memory required for data: 2536502400
I0111 11:55:21.171073 17975 layer_factory.hpp:77] Creating layer quantized_conv1
I0111 11:55:21.171085 17975 net.cpp:84] Creating Layer quantized_conv1
I0111 11:55:21.171092 17975 net.cpp:406] quantized_conv1 <- fc7
I0111 11:55:21.171103 17975 net.cpp:367] quantized_conv1 -> fc7 (in-place)
I0111 11:55:21.171113 17975 net.cpp:122] Setting up quantized_conv1
I0111 11:55:21.171121 17975 net.cpp:129] Top shape: 200 4096 (819200)
I0111 11:55:21.171128 17975 net.cpp:137] Memory required for data: 2539779200
I0111 11:55:21.171133 17975 layer_factory.hpp:77] Creating layer fc8
I0111 11:55:21.171145 17975 net.cpp:84] Creating Layer fc8
I0111 11:55:21.171151 17975 net.cpp:406] fc8 <- fc7
I0111 11:55:21.171164 17975 net.cpp:380] fc8 -> fc8
I0111 11:55:21.171175 17975 quan_inner_product_layer.cpp:21] 1000   1000
ydwu=======get:
bit_width=8;  round_method=0;  round_strategy=1;  is_runtime=0;  range_low=-0.141857;  range_high=0.274249
I0111 11:55:21.234939 17975 net.cpp:122] Setting up fc8
I0111 11:55:21.234968 17975 net.cpp:129] Top shape: 200 1000 (200000)
I0111 11:55:21.234975 17975 net.cpp:137] Memory required for data: 2540579200
I0111 11:55:21.234989 17975 layer_factory.hpp:77] Creating layer fc8_fc8_0_split
I0111 11:55:21.235002 17975 net.cpp:84] Creating Layer fc8_fc8_0_split
I0111 11:55:21.235009 17975 net.cpp:406] fc8_fc8_0_split <- fc8
I0111 11:55:21.235026 17975 net.cpp:380] fc8_fc8_0_split -> fc8_fc8_0_split_0
I0111 11:55:21.235046 17975 net.cpp:380] fc8_fc8_0_split -> fc8_fc8_0_split_1
I0111 11:55:21.235057 17975 net.cpp:380] fc8_fc8_0_split -> fc8_fc8_0_split_2
I0111 11:55:21.235124 17975 net.cpp:122] Setting up fc8_fc8_0_split
I0111 11:55:21.235137 17975 net.cpp:129] Top shape: 200 1000 (200000)
I0111 11:55:21.235146 17975 net.cpp:129] Top shape: 200 1000 (200000)
I0111 11:55:21.235152 17975 net.cpp:129] Top shape: 200 1000 (200000)
I0111 11:55:21.235158 17975 net.cpp:137] Memory required for data: 2542979200
I0111 11:55:21.235164 17975 layer_factory.hpp:77] Creating layer accuracy
I0111 11:55:21.235177 17975 net.cpp:84] Creating Layer accuracy
I0111 11:55:21.235183 17975 net.cpp:406] accuracy <- fc8_fc8_0_split_0
I0111 11:55:21.235191 17975 net.cpp:406] accuracy <- label_data_1_split_0
I0111 11:55:21.235203 17975 net.cpp:380] accuracy -> accuracy
…
