…
I0116 12:01:47.217353 146705 net.cpp:294] The NetState phase (0) differed from the phase (1) specified by a rule in layer accuracy_5
I0116 12:01:47.217720 146705 net.cpp:51] Initializing net from parameters: 
name: "AlexNet-BN"
state {
  phase: TRAIN
  level: 0
  stage: ""
}
layer {
  name: "data"
  type: "Data"
  top: "data"
  top: "label"
  include {
    phase: TRAIN
  }
  transform_param {
    mirror: true
    crop_size: 224
    mean_value: 103.939
    mean_value: 116.779
    mean_value: 123.68
  }
  data_param {
    source: "/home/DATA/imagenet_resize/lmdb_resize/ilsvrc12_train_lmdb"
    batch_size: 200
    backend: LMDB
  }
}
layer {
  name: "conv1"
  type: "QuanConvolution"
  bottom: "data"
  top: "conv1"
  param {
    lr_mult: 1
    decay_mult: 1
  }
  param {
    lr_mult: 2
    decay_mult: 0
  }
  quan_convolution_param {
    num_output: 96
    pad: 2
    kernel_size: 11
    stride: 4
    weight_filler {
      type: "gaussian"
      std: 0.01
    }
    bias_filler {
      type: "constant"
      value: 0
    }
    round_method: ROUND
    round_strategy: NEUTRAL
    bit_width: 8
    range_low: -0.872089
    range_high: 0.927025
  }
}
layer {
  name: "bn1"
  type: "BatchNorm"
  bottom: "conv1"
  top: "conv1"
}
layer {
  name: "scale1"
  type: "Scale"
  bottom: "conv1"
  top: "conv1"
  scale_param {
    bias_term: true
  }
}
layer {
  name: "relu1"
  type: "ReLU"
  bottom: "conv1"
  top: "conv1"
}
layer {
  name: "pool1"
  type: "Pooling"
  bottom: "conv1"
  top: "pool1"
  pooling_param {
    pool: MAX
    kernel_size: 3
    stride: 2
  }
}
layer {
  name: "quantized_conv1"
  type: "Quantization"
  bottom: "pool1"
  top: "pool1"
  quantization_param {
    round_method: ROUND
    round_strategy: AGGRESSIVE
    bit_width: 8
    range: 0
    range: 13.965383
  }
}
layer {
  name: "conv2"
  type: "QuanConvolution"
  bottom: "pool1"
  top: "conv2"
  param {
    lr_mult: 1
    decay_mult: 1
  }
  param {
    lr_mult: 2
    decay_mult: 0
  }
  quan_convolution_param {
    num_output: 256
    pad: 2
    kernel_size: 5
    weight_filler {
      type: "gaussian"
      std: 0.01
    }
    bias_filler {
      type: "constant"
      value: 0.1
    }
    round_method: ROUND
    round_strategy: NEUTRAL
    bit_width: 8
    range_low: -0.806018
    range_high: 1.5182
  }
}
layer {
  name: "bn2"
  type: "BatchNorm"
  bottom: "conv2"
  top: "conv2"
}
layer {
  name: "scale2"
  type: "Scale"
  bottom: "conv2"
  top: "conv2"
  scale_param {
    bias_term: true
  }
}
layer {
  name: "relu2"
  type: "ReLU"
  bottom: "conv2"
  top: "conv2"
}
layer {
  name: "pool2"
  type: "Pooling"
  bottom: "conv2"
  top: "pool2"
  pooling_param {
    pool: MAX
    kernel_size: 3
    stride: 2
  }
}
layer {
  name: "quantized_conv1"
  type: "Quantization"
  bottom: "pool2"
  top: "pool2"
  quantization_param {
    round_method: ROUND
    round_strategy: AGGRESSIVE
    bit_width: 8
    range: 0
    range: 6.74956
  }
}
layer {
  name: "conv3"
  type: "QuanConvolution"
  bottom: "pool2"
  top: "conv3"
  param {
    lr_mult: 1
    decay_mult: 1
  }
  param {
    lr_mult: 2
    decay_mult: 0
  }
  quan_convolution_param {
    num_output: 384
    pad: 1
    kernel_size: 3
    weight_filler {
      type: "gaussian"
      std: 0.01
    }
    bias_filler {
      type: "constant"
      value: 0
    }
    round_method: ROUND
    round_strategy: NEUTRAL
    bit_width: 8
    range_low: -0.621858
    range_high: 0.673858
  }
}
layer {
  name: "bn3"
  type: "BatchNorm"
  bottom: "conv3"
  top: "conv3"
}
layer {
  name: "scale3"
  type: "Scale"
  bottom: "conv3"
  top: "conv3"
  scale_param {
    bias_term: true
  }
}
layer {
  name: "relu3"
  type: "ReLU"
  bottom: "conv3"
  top: "conv3"
}
layer {
  name: "quantized_conv1"
  type: "Quantization"
  bottom: "conv3"
  top: "conv3"
  quantization_param {
    round_method: ROUND
    round_strategy: AGGRESSIVE
    bit_width: 8
    range: 0
    range: 8.48454
  }
}
layer {
  name: "conv4"
  type: "QuanConvolution"
  bottom: "conv3"
  top: "conv4"
  param {
    lr_mult: 1
    decay_mult: 1
  }
  param {
    lr_mult: 2
    decay_mult: 0
  }
  quan_convolution_param {
    num_output: 384
    pad: 1
    kernel_size: 3
    weight_filler {
      type: "gaussian"
      std: 0.01
    }
    bias_filler {
      type: "constant"
      value: 0.1
    }
    round_method: ROUND
    round_strategy: NEUTRAL
    bit_width: 8
    range_low: -0.376634
    range_high: 0.341829
  }
}
layer {
  name: "bn4"
  type: "BatchNorm"
  bottom: "conv4"
  top: "conv4"
}
layer {
  name: "scale4"
  type: "Scale"
  bottom: "conv4"
  top: "conv4"
  scale_param {
    bias_term: true
  }
}
layer {
  name: "relu4"
  type: "ReLU"
  bottom: "conv4"
  top: "conv4"
}
layer {
  name: "quantized_conv1"
  type: "Quantization"
  bottom: "conv4"
  top: "conv4"
  quantization_param {
    round_method: ROUND
    round_strategy: AGGRESSIVE
    bit_width: 8
    range: 0
    range: 7.3369722
  }
}
layer {
  name: "conv5"
  type: "QuanConvolution"
  bottom: "conv4"
  top: "conv5"
  param {
    lr_mult: 1
    decay_mult: 1
  }
  param {
    lr_mult: 2
    decay_mult: 0
  }
  quan_convolution_param {
    num_output: 256
    pad: 1
    kernel_size: 3
    weight_filler {
      type: "gaussian"
      std: 0.01
    }
    bias_filler {
      type: "constant"
      value: 0.1
    }
    round_method: ROUND
    round_strategy: NEUTRAL
    bit_width: 8
    range_low: -0.347658
    range_high: 0.330042
  }
}
layer {
  name: "bn5"
  type: "BatchNorm"
  bottom: "conv5"
  top: "conv5"
}
layer {
  name: "scale5"
  type: "Scale"
  bottom: "conv5"
  top: "conv5"
  scale_param {
    bias_term: true
  }
}
layer {
  name: "relu5"
  type: "ReLU"
  bottom: "conv5"
  top: "conv5"
}
layer {
  name: "pool5"
  type: "Pooling"
  bottom: "conv5"
  top: "pool5"
  pooling_param {
    pool: MAX
    kernel_size: 3
    stride: 2
  }
}
layer {
  name: "quantized_conv1"
  type: "Quantization"
  bottom: "pool5"
  top: "pool5"
  quantization_param {
    round_method: ROUND
    round_strategy: AGGRESSIVE
    bit_width: 8
    range: 0
    range: 8.7577133
  }
}
layer {
  name: "fc6"
  type: "QuanInnerProduct"
  bottom: "pool5"
  top: "fc6"
  param {
    lr_mult: 1
    decay_mult: 1
  }
  param {
    lr_mult: 2
    decay_mult: 0
  }
  quan_inner_product_param {
    num_output: 4096
    weight_filler {
      type: "gaussian"
      std: 0.005
    }
    bias_filler {
      type: "constant"
      value: 0.1
    }
    round_method: ROUND
    round_strategy: NEUTRAL
    bit_width: 8
    range_low: -0.160061
    range_high: 0.148064
  }
}
layer {
  name: "bn6"
  type: "BatchNorm"
  bottom: "fc6"
  top: "fc6"
}
layer {
  name: "scale6"
  type: "Scale"
  bottom: "fc6"
  top: "fc6"
  scale_param {
    bias_term: true
  }
}
layer {
  name: "relu6"
  type: "ReLU"
  bottom: "fc6"
  top: "fc6"
}
layer {
  name: "drop6"
  type: "Dropout"
  bottom: "fc6"
  top: "fc6"
  dropout_param {
    dropout_ratio: 0.5
  }
}
layer {
  name: "quantized_conv1"
  type: "Quantization"
  bottom: "fc6"
  top: "fc6"
  quantization_param {
    round_method: ROUND
    round_strategy: AGGRESSIVE
    bit_width: 8
    range: 0
    range: 1.659358
  }
}
layer {
  name: "fc7"
  type: "QuanInnerProduct"
  bottom: "fc6"
  top: "fc7"
  param {
    lr_mult: 1
    decay_mult: 1
  }
  param {
    lr_mult: 2
    decay_mult: 0
  }
  quan_inner_product_param {
    num_output: 4096
    weight_filler {
      type: "gaussian"
      std: 0.005
    }
    bias_filler {
      type: "constant"
      value: 0.1
    }
    round_method: ROUND
    round_strategy: NEUTRAL
    bit_width: 8
    range_low: -0.162636
    range_high: 0.197684
  }
}
layer {
  name: "bn7"
  type: "BatchNorm"
  bottom: "fc7"
  top: "fc7"
}
layer {
  name: "scale7"
  type: "Scale"
  bottom: "fc7"
  top: "fc7"
  scale_param {
    bias_term: true
  }
}
layer {
  name: "relu7"
  type: "ReLU"
  bottom: "fc7"
  top: "fc7"
}
layer {
  name: "drop7"
  type: "Dropout"
  bottom: "fc7"
  top: "fc7"
  dropout_param {
    dropout_ratio: 0.5
  }
}
layer {
  name: "quantized_conv1"
  type: "Quantization"
  bottom: "fc7"
  top: "fc7"
  quantization_param {
    round_method: ROUND
    round_strategy: AGGRESSIVE
    bit_width: 8
    range: 0
    range: 7.5598521
  }
}
layer {
  name: "fc8"
  type: "QuanInnerProduct"
  bottom: "fc7"
  top: "fc8"
  param {
    lr_mult: 1
    decay_mult: 1
  }
  param {
    lr_mult: 2
    decay_mult: 0
  }
  quan_inner_product_param {
    num_output: 1000
    weight_filler {
      type: "gaussian"
      std: 0.01
    }
    bias_filler {
      type: "constant"
      value: 0
    }
    round_method: ROUND
    round_strategy: NEUTRAL
    bit_width: 8
    range_low: -0.141857
    range_high: 0.274249
  }
}
layer {
  name: "accuracy_5_TRAIN"
  type: "Accuracy"
  bottom: "fc8"
  bottom: "label"
  top: "accuracy_5_TRAIN"
  include {
    phase: TRAIN
  }
  accuracy_param {
    top_k: 5
  }
}
layer {
  name: "loss"
  type: "SoftmaxWithLoss"
  bottom: "fc8"
  bottom: "label"
  top: "loss"
}
I0116 12:01:47.218073 146705 layer_factory.hpp:77] Creating layer data
I0116 12:01:47.218252 146705 db_lmdb.cpp:35] Opened lmdb /home/DATA/imagenet_resize/lmdb_resize/ilsvrc12_train_lmdb
I0116 12:01:47.218338 146705 net.cpp:84] Creating Layer data
I0116 12:01:47.218353 146705 net.cpp:380] data -> data
I0116 12:01:47.218387 146705 net.cpp:380] data -> label
I0116 12:01:47.220532 146705 data_layer.cpp:45] output data size: 200,3,224,224
I0116 12:01:47.680104 146705 net.cpp:122] Setting up data
I0116 12:01:47.680166 146705 net.cpp:129] Top shape: 200 3 224 224 (30105600)
I0116 12:01:47.680174 146705 net.cpp:129] Top shape: 200 (200)
I0116 12:01:47.680186 146705 net.cpp:137] Memory required for data: 120423200
I0116 12:01:47.680233 146705 layer_factory.hpp:77] Creating layer label_data_1_split
I0116 12:01:47.680269 146705 net.cpp:84] Creating Layer label_data_1_split
I0116 12:01:47.680280 146705 net.cpp:406] label_data_1_split <- label
I0116 12:01:47.680305 146705 net.cpp:380] label_data_1_split -> label_data_1_split_0
I0116 12:01:47.680326 146705 net.cpp:380] label_data_1_split -> label_data_1_split_1
I0116 12:01:47.680402 146705 net.cpp:122] Setting up label_data_1_split
I0116 12:01:47.680414 146705 net.cpp:129] Top shape: 200 (200)
I0116 12:01:47.680420 146705 net.cpp:129] Top shape: 200 (200)
I0116 12:01:47.680425 146705 net.cpp:137] Memory required for data: 120424800
I0116 12:01:47.680433 146705 layer_factory.hpp:77] Creating layer conv1
I0116 12:01:47.680459 146705 net.cpp:84] Creating Layer conv1
I0116 12:01:47.680467 146705 net.cpp:406] conv1 <- data
I0116 12:01:47.680477 146705 net.cpp:380] conv1 -> conv1
ydwu=======get:
bit_width=8;  round_method=0;  round_strategy=1;  is_runtime=0;  range_low=-0.872089;  range_high=0.927025
I0116 12:01:47.711058 146705 net.cpp:122] Setting up conv1
I0116 12:01:47.711092 146705 net.cpp:129] Top shape: 200 96 55 55 (58080000)
I0116 12:01:47.711104 146705 net.cpp:137] Memory required for data: 352744800
I0116 12:01:47.711153 146705 layer_factory.hpp:77] Creating layer bn1
I0116 12:01:47.711191 146705 net.cpp:84] Creating Layer bn1
I0116 12:01:47.711200 146705 net.cpp:406] bn1 <- conv1
I0116 12:01:47.711211 146705 net.cpp:367] bn1 -> conv1 (in-place)
I0116 12:01:47.711428 146705 net.cpp:122] Setting up bn1
I0116 12:01:47.711443 146705 net.cpp:129] Top shape: 200 96 55 55 (58080000)
I0116 12:01:47.711449 146705 net.cpp:137] Memory required for data: 585064800
I0116 12:01:47.711467 146705 layer_factory.hpp:77] Creating layer scale1
I0116 12:01:47.711483 146705 net.cpp:84] Creating Layer scale1
I0116 12:01:47.711534 146705 net.cpp:406] scale1 <- conv1
I0116 12:01:47.711545 146705 net.cpp:367] scale1 -> conv1 (in-place)
I0116 12:01:47.711606 146705 layer_factory.hpp:77] Creating layer scale1
I0116 12:01:47.711748 146705 net.cpp:122] Setting up scale1
I0116 12:01:47.711762 146705 net.cpp:129] Top shape: 200 96 55 55 (58080000)
I0116 12:01:47.711768 146705 net.cpp:137] Memory required for data: 817384800
I0116 12:01:47.711778 146705 layer_factory.hpp:77] Creating layer relu1
I0116 12:01:47.711788 146705 net.cpp:84] Creating Layer relu1
I0116 12:01:47.711796 146705 net.cpp:406] relu1 <- conv1
I0116 12:01:47.711805 146705 net.cpp:367] relu1 -> conv1 (in-place)
I0116 12:01:47.711815 146705 net.cpp:122] Setting up relu1
I0116 12:01:47.711824 146705 net.cpp:129] Top shape: 200 96 55 55 (58080000)
I0116 12:01:47.711829 146705 net.cpp:137] Memory required for data: 1049704800
I0116 12:01:47.711836 146705 layer_factory.hpp:77] Creating layer pool1
I0116 12:01:47.711848 146705 net.cpp:84] Creating Layer pool1
I0116 12:01:47.711854 146705 net.cpp:406] pool1 <- conv1
I0116 12:01:47.711864 146705 net.cpp:380] pool1 -> pool1
I0116 12:01:47.711928 146705 net.cpp:122] Setting up pool1
I0116 12:01:47.711942 146705 net.cpp:129] Top shape: 200 96 27 27 (13996800)
I0116 12:01:47.711948 146705 net.cpp:137] Memory required for data: 1105692000
I0116 12:01:47.711956 146705 layer_factory.hpp:77] Creating layer quantized_conv1
I0116 12:01:47.711968 146705 net.cpp:84] Creating Layer quantized_conv1
I0116 12:01:47.711975 146705 net.cpp:406] quantized_conv1 <- pool1
I0116 12:01:47.711985 146705 net.cpp:367] quantized_conv1 -> pool1 (in-place)
I0116 12:01:47.711999 146705 net.cpp:122] Setting up quantized_conv1
I0116 12:01:47.712008 146705 net.cpp:129] Top shape: 200 96 27 27 (13996800)
I0116 12:01:47.712015 146705 net.cpp:137] Memory required for data: 1161679200
I0116 12:01:47.712023 146705 layer_factory.hpp:77] Creating layer conv2
I0116 12:01:47.712039 146705 net.cpp:84] Creating Layer conv2
I0116 12:01:47.712047 146705 net.cpp:406] conv2 <- pool1
I0116 12:01:47.712059 146705 net.cpp:380] conv2 -> conv2
ydwu=======get:
bit_width=8;  round_method=0;  round_strategy=1;  is_runtime=0;  range_low=-0.806018;  range_high=1.5182
I0116 12:01:47.726632 146705 net.cpp:122] Setting up conv2
I0116 12:01:47.726672 146705 net.cpp:129] Top shape: 200 256 27 27 (37324800)
I0116 12:01:47.726680 146705 net.cpp:137] Memory required for data: 1310978400
I0116 12:01:47.726701 146705 layer_factory.hpp:77] Creating layer bn2
I0116 12:01:47.726721 146705 net.cpp:84] Creating Layer bn2
I0116 12:01:47.726730 146705 net.cpp:406] bn2 <- conv2
I0116 12:01:47.726743 146705 net.cpp:367] bn2 -> conv2 (in-place)
I0116 12:01:47.726936 146705 net.cpp:122] Setting up bn2
I0116 12:01:47.726950 146705 net.cpp:129] Top shape: 200 256 27 27 (37324800)
I0116 12:01:47.726955 146705 net.cpp:137] Memory required for data: 1460277600
I0116 12:01:47.726966 146705 layer_factory.hpp:77] Creating layer scale2
I0116 12:01:47.726979 146705 net.cpp:84] Creating Layer scale2
I0116 12:01:47.726986 146705 net.cpp:406] scale2 <- conv2
I0116 12:01:47.726995 146705 net.cpp:367] scale2 -> conv2 (in-place)
I0116 12:01:47.727062 146705 layer_factory.hpp:77] Creating layer scale2
I0116 12:01:47.727203 146705 net.cpp:122] Setting up scale2
I0116 12:01:47.727216 146705 net.cpp:129] Top shape: 200 256 27 27 (37324800)
I0116 12:01:47.727221 146705 net.cpp:137] Memory required for data: 1609576800
I0116 12:01:47.727231 146705 layer_factory.hpp:77] Creating layer relu2
I0116 12:01:47.727241 146705 net.cpp:84] Creating Layer relu2
I0116 12:01:47.727247 146705 net.cpp:406] relu2 <- conv2
I0116 12:01:47.727255 146705 net.cpp:367] relu2 -> conv2 (in-place)
I0116 12:01:47.727267 146705 net.cpp:122] Setting up relu2
I0116 12:01:47.727274 146705 net.cpp:129] Top shape: 200 256 27 27 (37324800)
I0116 12:01:47.727279 146705 net.cpp:137] Memory required for data: 1758876000
I0116 12:01:47.727286 146705 layer_factory.hpp:77] Creating layer pool2
I0116 12:01:47.727298 146705 net.cpp:84] Creating Layer pool2
I0116 12:01:47.727304 146705 net.cpp:406] pool2 <- conv2
I0116 12:01:47.727313 146705 net.cpp:380] pool2 -> pool2
I0116 12:01:47.727357 146705 net.cpp:122] Setting up pool2
I0116 12:01:47.727408 146705 net.cpp:129] Top shape: 200 256 13 13 (8652800)
I0116 12:01:47.727416 146705 net.cpp:137] Memory required for data: 1793487200
I0116 12:01:47.727423 146705 layer_factory.hpp:77] Creating layer quantized_conv1
I0116 12:01:47.727437 146705 net.cpp:84] Creating Layer quantized_conv1
I0116 12:01:47.727443 146705 net.cpp:406] quantized_conv1 <- pool2
I0116 12:01:47.727454 146705 net.cpp:367] quantized_conv1 -> pool2 (in-place)
I0116 12:01:47.727465 146705 net.cpp:122] Setting up quantized_conv1
I0116 12:01:47.727474 146705 net.cpp:129] Top shape: 200 256 13 13 (8652800)
I0116 12:01:47.727481 146705 net.cpp:137] Memory required for data: 1828098400
I0116 12:01:47.727488 146705 layer_factory.hpp:77] Creating layer conv3
I0116 12:01:47.727504 146705 net.cpp:84] Creating Layer conv3
I0116 12:01:47.727511 146705 net.cpp:406] conv3 <- pool2
I0116 12:01:47.727521 146705 net.cpp:380] conv3 -> conv3
ydwu=======get:
bit_width=8;  round_method=0;  round_strategy=1;  is_runtime=0;  range_low=-0.621858;  range_high=0.673858
I0116 12:01:47.741917 146705 net.cpp:122] Setting up conv3
I0116 12:01:47.741936 146705 net.cpp:129] Top shape: 200 384 13 13 (12979200)
I0116 12:01:47.741943 146705 net.cpp:137] Memory required for data: 1880015200
I0116 12:01:47.741966 146705 layer_factory.hpp:77] Creating layer bn3
I0116 12:01:47.741978 146705 net.cpp:84] Creating Layer bn3
I0116 12:01:47.741986 146705 net.cpp:406] bn3 <- conv3
I0116 12:01:47.741994 146705 net.cpp:367] bn3 -> conv3 (in-place)
I0116 12:01:47.742177 146705 net.cpp:122] Setting up bn3
I0116 12:01:47.742190 146705 net.cpp:129] Top shape: 200 384 13 13 (12979200)
I0116 12:01:47.742197 146705 net.cpp:137] Memory required for data: 1931932000
I0116 12:01:47.742213 146705 layer_factory.hpp:77] Creating layer scale3
I0116 12:01:47.742228 146705 net.cpp:84] Creating Layer scale3
I0116 12:01:47.742234 146705 net.cpp:406] scale3 <- conv3
I0116 12:01:47.742241 146705 net.cpp:367] scale3 -> conv3 (in-place)
I0116 12:01:47.742286 146705 layer_factory.hpp:77] Creating layer scale3
I0116 12:01:47.742404 146705 net.cpp:122] Setting up scale3
I0116 12:01:47.742417 146705 net.cpp:129] Top shape: 200 384 13 13 (12979200)
I0116 12:01:47.742424 146705 net.cpp:137] Memory required for data: 1983848800
I0116 12:01:47.742435 146705 layer_factory.hpp:77] Creating layer relu3
I0116 12:01:47.742446 146705 net.cpp:84] Creating Layer relu3
I0116 12:01:47.742453 146705 net.cpp:406] relu3 <- conv3
I0116 12:01:47.742462 146705 net.cpp:367] relu3 -> conv3 (in-place)
I0116 12:01:47.742472 146705 net.cpp:122] Setting up relu3
I0116 12:01:47.742481 146705 net.cpp:129] Top shape: 200 384 13 13 (12979200)
I0116 12:01:47.742488 146705 net.cpp:137] Memory required for data: 2035765600
I0116 12:01:47.742496 146705 layer_factory.hpp:77] Creating layer quantized_conv1
I0116 12:01:47.742506 146705 net.cpp:84] Creating Layer quantized_conv1
I0116 12:01:47.742511 146705 net.cpp:406] quantized_conv1 <- conv3
I0116 12:01:47.742522 146705 net.cpp:367] quantized_conv1 -> conv3 (in-place)
I0116 12:01:47.742532 146705 net.cpp:122] Setting up quantized_conv1
I0116 12:01:47.742542 146705 net.cpp:129] Top shape: 200 384 13 13 (12979200)
I0116 12:01:47.742547 146705 net.cpp:137] Memory required for data: 2087682400
I0116 12:01:47.742554 146705 layer_factory.hpp:77] Creating layer conv4
I0116 12:01:47.742566 146705 net.cpp:84] Creating Layer conv4
I0116 12:01:47.742573 146705 net.cpp:406] conv4 <- conv3
I0116 12:01:47.742584 146705 net.cpp:380] conv4 -> conv4
ydwu=======get:
bit_width=8;  round_method=0;  round_strategy=1;  is_runtime=0;  range_low=-0.376634;  range_high=0.341829
I0116 12:01:47.764672 146705 net.cpp:122] Setting up conv4
I0116 12:01:47.764701 146705 net.cpp:129] Top shape: 200 384 13 13 (12979200)
I0116 12:01:47.764708 146705 net.cpp:137] Memory required for data: 2139599200
I0116 12:01:47.764722 146705 layer_factory.hpp:77] Creating layer bn4
I0116 12:01:47.764736 146705 net.cpp:84] Creating Layer bn4
I0116 12:01:47.764745 146705 net.cpp:406] bn4 <- conv4
I0116 12:01:47.764757 146705 net.cpp:367] bn4 -> conv4 (in-place)
I0116 12:01:47.764960 146705 net.cpp:122] Setting up bn4
I0116 12:01:47.764972 146705 net.cpp:129] Top shape: 200 384 13 13 (12979200)
I0116 12:01:47.764979 146705 net.cpp:137] Memory required for data: 2191516000
I0116 12:01:47.765029 146705 layer_factory.hpp:77] Creating layer scale4
I0116 12:01:47.765043 146705 net.cpp:84] Creating Layer scale4
I0116 12:01:47.765050 146705 net.cpp:406] scale4 <- conv4
I0116 12:01:47.765059 146705 net.cpp:367] scale4 -> conv4 (in-place)
I0116 12:01:47.765110 146705 layer_factory.hpp:77] Creating layer scale4
I0116 12:01:47.765234 146705 net.cpp:122] Setting up scale4
I0116 12:01:47.765247 146705 net.cpp:129] Top shape: 200 384 13 13 (12979200)
I0116 12:01:47.765255 146705 net.cpp:137] Memory required for data: 2243432800
I0116 12:01:47.765265 146705 layer_factory.hpp:77] Creating layer relu4
I0116 12:01:47.765283 146705 net.cpp:84] Creating Layer relu4
I0116 12:01:47.765291 146705 net.cpp:406] relu4 <- conv4
I0116 12:01:47.765300 146705 net.cpp:367] relu4 -> conv4 (in-place)
I0116 12:01:47.765310 146705 net.cpp:122] Setting up relu4
I0116 12:01:47.765318 146705 net.cpp:129] Top shape: 200 384 13 13 (12979200)
I0116 12:01:47.765326 146705 net.cpp:137] Memory required for data: 2295349600
I0116 12:01:47.765331 146705 layer_factory.hpp:77] Creating layer quantized_conv1
I0116 12:01:47.765346 146705 net.cpp:84] Creating Layer quantized_conv1
I0116 12:01:47.765352 146705 net.cpp:406] quantized_conv1 <- conv4
I0116 12:01:47.765362 146705 net.cpp:367] quantized_conv1 -> conv4 (in-place)
I0116 12:01:47.765372 146705 net.cpp:122] Setting up quantized_conv1
I0116 12:01:47.765380 146705 net.cpp:129] Top shape: 200 384 13 13 (12979200)
I0116 12:01:47.765386 146705 net.cpp:137] Memory required for data: 2347266400
I0116 12:01:47.765394 146705 layer_factory.hpp:77] Creating layer conv5
I0116 12:01:47.765409 146705 net.cpp:84] Creating Layer conv5
I0116 12:01:47.765416 146705 net.cpp:406] conv5 <- conv4
I0116 12:01:47.765426 146705 net.cpp:380] conv5 -> conv5
ydwu=======get:
bit_width=8;  round_method=0;  round_strategy=1;  is_runtime=0;  range_low=-0.347658;  range_high=0.330042
I0116 12:01:47.780573 146705 net.cpp:122] Setting up conv5
I0116 12:01:47.780597 146705 net.cpp:129] Top shape: 200 256 13 13 (8652800)
I0116 12:01:47.780606 146705 net.cpp:137] Memory required for data: 2381877600
I0116 12:01:47.780616 146705 layer_factory.hpp:77] Creating layer bn5
I0116 12:01:47.780629 146705 net.cpp:84] Creating Layer bn5
I0116 12:01:47.780638 146705 net.cpp:406] bn5 <- conv5
I0116 12:01:47.780648 146705 net.cpp:367] bn5 -> conv5 (in-place)
I0116 12:01:47.780866 146705 net.cpp:122] Setting up bn5
I0116 12:01:47.780880 146705 net.cpp:129] Top shape: 200 256 13 13 (8652800)
I0116 12:01:47.780886 146705 net.cpp:137] Memory required for data: 2416488800
I0116 12:01:47.780906 146705 layer_factory.hpp:77] Creating layer scale5
I0116 12:01:47.780921 146705 net.cpp:84] Creating Layer scale5
I0116 12:01:47.780930 146705 net.cpp:406] scale5 <- conv5
I0116 12:01:47.780937 146705 net.cpp:367] scale5 -> conv5 (in-place)
I0116 12:01:47.780993 146705 layer_factory.hpp:77] Creating layer scale5
I0116 12:01:47.781121 146705 net.cpp:122] Setting up scale5
I0116 12:01:47.781134 146705 net.cpp:129] Top shape: 200 256 13 13 (8652800)
I0116 12:01:47.781141 146705 net.cpp:137] Memory required for data: 2451100000
I0116 12:01:47.781149 146705 layer_factory.hpp:77] Creating layer relu5
I0116 12:01:47.781158 146705 net.cpp:84] Creating Layer relu5
I0116 12:01:47.781167 146705 net.cpp:406] relu5 <- conv5
I0116 12:01:47.781179 146705 net.cpp:367] relu5 -> conv5 (in-place)
I0116 12:01:47.781190 146705 net.cpp:122] Setting up relu5
I0116 12:01:47.781200 146705 net.cpp:129] Top shape: 200 256 13 13 (8652800)
I0116 12:01:47.781208 146705 net.cpp:137] Memory required for data: 2485711200
I0116 12:01:47.781214 146705 layer_factory.hpp:77] Creating layer pool5
I0116 12:01:47.781226 146705 net.cpp:84] Creating Layer pool5
I0116 12:01:47.781234 146705 net.cpp:406] pool5 <- conv5
I0116 12:01:47.781246 146705 net.cpp:380] pool5 -> pool5
I0116 12:01:47.781297 146705 net.cpp:122] Setting up pool5
I0116 12:01:47.781311 146705 net.cpp:129] Top shape: 200 256 6 6 (1843200)
I0116 12:01:47.781318 146705 net.cpp:137] Memory required for data: 2493084000
I0116 12:01:47.781327 146705 layer_factory.hpp:77] Creating layer quantized_conv1
I0116 12:01:47.781358 146705 net.cpp:84] Creating Layer quantized_conv1
I0116 12:01:47.781368 146705 net.cpp:406] quantized_conv1 <- pool5
I0116 12:01:47.781378 146705 net.cpp:367] quantized_conv1 -> pool5 (in-place)
I0116 12:01:47.781388 146705 net.cpp:122] Setting up quantized_conv1
I0116 12:01:47.781399 146705 net.cpp:129] Top shape: 200 256 6 6 (1843200)
I0116 12:01:47.781405 146705 net.cpp:137] Memory required for data: 2500456800
I0116 12:01:47.781412 146705 layer_factory.hpp:77] Creating layer fc6
I0116 12:01:47.781428 146705 net.cpp:84] Creating Layer fc6
I0116 12:01:47.781436 146705 net.cpp:406] fc6 <- pool5
I0116 12:01:47.781446 146705 net.cpp:380] fc6 -> fc6
I0116 12:01:47.781466 146705 quan_inner_product_layer.cpp:21] 4096   4096
ydwu=======get:
bit_width=8;  round_method=0;  round_strategy=1;  is_runtime=0;  range_low=-0.160061;  range_high=0.148064
I0116 12:01:48.420655 146705 net.cpp:122] Setting up fc6
I0116 12:01:48.420706 146705 net.cpp:129] Top shape: 200 4096 (819200)
I0116 12:01:48.420712 146705 net.cpp:137] Memory required for data: 2503733600
I0116 12:01:48.420732 146705 layer_factory.hpp:77] Creating layer bn6
I0116 12:01:48.420753 146705 net.cpp:84] Creating Layer bn6
I0116 12:01:48.420764 146705 net.cpp:406] bn6 <- fc6
I0116 12:01:48.420781 146705 net.cpp:367] bn6 -> fc6 (in-place)
I0116 12:01:48.421047 146705 net.cpp:122] Setting up bn6
I0116 12:01:48.421063 146705 net.cpp:129] Top shape: 200 4096 (819200)
I0116 12:01:48.421070 146705 net.cpp:137] Memory required for data: 2507010400
I0116 12:01:48.421085 146705 layer_factory.hpp:77] Creating layer scale6
I0116 12:01:48.421111 146705 net.cpp:84] Creating Layer scale6
I0116 12:01:48.421123 146705 net.cpp:406] scale6 <- fc6
I0116 12:01:48.421131 146705 net.cpp:367] scale6 -> fc6 (in-place)
I0116 12:01:48.421198 146705 layer_factory.hpp:77] Creating layer scale6
I0116 12:01:48.421372 146705 net.cpp:122] Setting up scale6
I0116 12:01:48.421389 146705 net.cpp:129] Top shape: 200 4096 (819200)
I0116 12:01:48.421396 146705 net.cpp:137] Memory required for data: 2510287200
I0116 12:01:48.421406 146705 layer_factory.hpp:77] Creating layer relu6
I0116 12:01:48.421417 146705 net.cpp:84] Creating Layer relu6
I0116 12:01:48.421427 146705 net.cpp:406] relu6 <- fc6
I0116 12:01:48.421439 146705 net.cpp:367] relu6 -> fc6 (in-place)
I0116 12:01:48.421453 146705 net.cpp:122] Setting up relu6
I0116 12:01:48.421463 146705 net.cpp:129] Top shape: 200 4096 (819200)
I0116 12:01:48.421474 146705 net.cpp:137] Memory required for data: 2513564000
I0116 12:01:48.421483 146705 layer_factory.hpp:77] Creating layer drop6
I0116 12:01:48.421496 146705 net.cpp:84] Creating Layer drop6
I0116 12:01:48.421504 146705 net.cpp:406] drop6 <- fc6
I0116 12:01:48.421519 146705 net.cpp:367] drop6 -> fc6 (in-place)
I0116 12:01:48.421569 146705 net.cpp:122] Setting up drop6
I0116 12:01:48.421582 146705 net.cpp:129] Top shape: 200 4096 (819200)
I0116 12:01:48.421589 146705 net.cpp:137] Memory required for data: 2516840800
I0116 12:01:48.421599 146705 layer_factory.hpp:77] Creating layer quantized_conv1
I0116 12:01:48.421617 146705 net.cpp:84] Creating Layer quantized_conv1
I0116 12:01:48.421627 146705 net.cpp:406] quantized_conv1 <- fc6
I0116 12:01:48.421640 146705 net.cpp:367] quantized_conv1 -> fc6 (in-place)
I0116 12:01:48.421655 146705 net.cpp:122] Setting up quantized_conv1
I0116 12:01:48.421665 146705 net.cpp:129] Top shape: 200 4096 (819200)
I0116 12:01:48.421672 146705 net.cpp:137] Memory required for data: 2520117600
I0116 12:01:48.421680 146705 layer_factory.hpp:77] Creating layer fc7
I0116 12:01:48.421696 146705 net.cpp:84] Creating Layer fc7
I0116 12:01:48.421705 146705 net.cpp:406] fc7 <- fc6
I0116 12:01:48.421717 146705 net.cpp:380] fc7 -> fc7
I0116 12:01:48.421733 146705 quan_inner_product_layer.cpp:21] 4096   4096
ydwu=======get:
bit_width=8;  round_method=0;  round_strategy=1;  is_runtime=0;  range_low=-0.162636;  range_high=0.197684
I0116 12:01:48.709843 146705 net.cpp:122] Setting up fc7
I0116 12:01:48.709892 146705 net.cpp:129] Top shape: 200 4096 (819200)
I0116 12:01:48.709898 146705 net.cpp:137] Memory required for data: 2523394400
I0116 12:01:48.709918 146705 layer_factory.hpp:77] Creating layer bn7
I0116 12:01:48.709942 146705 net.cpp:84] Creating Layer bn7
I0116 12:01:48.709954 146705 net.cpp:406] bn7 <- fc7
I0116 12:01:48.710026 146705 net.cpp:367] bn7 -> fc7 (in-place)
I0116 12:01:48.710253 146705 net.cpp:122] Setting up bn7
I0116 12:01:48.710266 146705 net.cpp:129] Top shape: 200 4096 (819200)
I0116 12:01:48.710273 146705 net.cpp:137] Memory required for data: 2526671200
I0116 12:01:48.710283 146705 layer_factory.hpp:77] Creating layer scale7
I0116 12:01:48.710297 146705 net.cpp:84] Creating Layer scale7
I0116 12:01:48.710306 146705 net.cpp:406] scale7 <- fc7
I0116 12:01:48.710316 146705 net.cpp:367] scale7 -> fc7 (in-place)
I0116 12:01:48.710368 146705 layer_factory.hpp:77] Creating layer scale7
I0116 12:01:48.710503 146705 net.cpp:122] Setting up scale7
I0116 12:01:48.710517 146705 net.cpp:129] Top shape: 200 4096 (819200)
I0116 12:01:48.710522 146705 net.cpp:137] Memory required for data: 2529948000
I0116 12:01:48.710531 146705 layer_factory.hpp:77] Creating layer relu7
I0116 12:01:48.710541 146705 net.cpp:84] Creating Layer relu7
I0116 12:01:48.710546 146705 net.cpp:406] relu7 <- fc7
I0116 12:01:48.710559 146705 net.cpp:367] relu7 -> fc7 (in-place)
I0116 12:01:48.710572 146705 net.cpp:122] Setting up relu7
I0116 12:01:48.710578 146705 net.cpp:129] Top shape: 200 4096 (819200)
I0116 12:01:48.710583 146705 net.cpp:137] Memory required for data: 2533224800
I0116 12:01:48.710592 146705 layer_factory.hpp:77] Creating layer drop7
I0116 12:01:48.710603 146705 net.cpp:84] Creating Layer drop7
I0116 12:01:48.710610 146705 net.cpp:406] drop7 <- fc7
I0116 12:01:48.710618 146705 net.cpp:367] drop7 -> fc7 (in-place)
I0116 12:01:48.710649 146705 net.cpp:122] Setting up drop7
I0116 12:01:48.710660 146705 net.cpp:129] Top shape: 200 4096 (819200)
I0116 12:01:48.710665 146705 net.cpp:137] Memory required for data: 2536501600
I0116 12:01:48.710670 146705 layer_factory.hpp:77] Creating layer quantized_conv1
I0116 12:01:48.710680 146705 net.cpp:84] Creating Layer quantized_conv1
I0116 12:01:48.710685 146705 net.cpp:406] quantized_conv1 <- fc7
I0116 12:01:48.710695 146705 net.cpp:367] quantized_conv1 -> fc7 (in-place)
I0116 12:01:48.710706 146705 net.cpp:122] Setting up quantized_conv1
I0116 12:01:48.710716 146705 net.cpp:129] Top shape: 200 4096 (819200)
I0116 12:01:48.710721 146705 net.cpp:137] Memory required for data: 2539778400
I0116 12:01:48.710728 146705 layer_factory.hpp:77] Creating layer fc8
I0116 12:01:48.710741 146705 net.cpp:84] Creating Layer fc8
I0116 12:01:48.710747 146705 net.cpp:406] fc8 <- fc7
I0116 12:01:48.710757 146705 net.cpp:380] fc8 -> fc8
I0116 12:01:48.710768 146705 quan_inner_product_layer.cpp:21] 1000   1000
ydwu=======get:
bit_width=8;  round_method=0;  round_strategy=1;  is_runtime=0;  range_low=-0.141857;  range_high=0.274249
I0116 12:01:48.804723 146705 net.cpp:122] Setting up fc8
I0116 12:01:48.804759 146705 net.cpp:129] Top shape: 200 1000 (200000)
I0116 12:01:48.804765 146705 net.cpp:137] Memory required for data: 2540578400
I0116 12:01:48.804783 146705 layer_factory.hpp:77] Creating layer fc8_fc8_0_split
I0116 12:01:48.804805 146705 net.cpp:84] Creating Layer fc8_fc8_0_split
I0116 12:01:48.804814 146705 net.cpp:406] fc8_fc8_0_split <- fc8
I0116 12:01:48.804834 146705 net.cpp:380] fc8_fc8_0_split -> fc8_fc8_0_split_0
I0116 12:01:48.804852 146705 net.cpp:380] fc8_fc8_0_split -> fc8_fc8_0_split_1
I0116 12:01:48.804911 146705 net.cpp:122] Setting up fc8_fc8_0_split
I0116 12:01:48.804924 146705 net.cpp:129] Top shape: 200 1000 (200000)
I0116 12:01:48.804932 146705 net.cpp:129] Top shape: 200 1000 (200000)
I0116 12:01:48.804937 146705 net.cpp:137] Memory required for data: 2542178400
I0116 12:01:48.804944 146705 layer_factory.hpp:77] Creating layer accuracy_5_TRAIN
I0116 12:01:48.804960 146705 net.cpp:84] Creating Layer accuracy_5_TRAIN
I0116 12:01:48.804966 146705 net.cpp:406] accuracy_5_TRAIN <- fc8_fc8_0_split_0
I0116 12:01:48.804976 146705 net.cpp:406] accuracy_5_TRAIN <- label_data_1_split_0
…
I0116 12:01:48.808099 146705 net.cpp:294] The NetState phase (1) differed from the phase (0) specified by a rule in layer accuracy_5_TRAIN
I0116 12:01:48.808455 146705 net.cpp:51] Initializing net from parameters: 
name: "AlexNet-BN"
state {
  phase: TEST
}
layer {
  name: "data"
  type: "Data"
  top: "data"
  top: "label"
  include {
    phase: TEST
  }
  transform_param {
    mirror: false
    crop_size: 224
    mean_value: 103.939
    mean_value: 116.779
    mean_value: 123.68
  }
  data_param {
    source: "/home/DATA/imagenet_resize/lmdb_resize/ilsvrc12_val_lmdb"
    batch_size: 200
    backend: LMDB
  }
}
layer {
  name: "conv1"
  type: "QuanConvolution"
  bottom: "data"
  top: "conv1"
  param {
    lr_mult: 1
    decay_mult: 1
  }
  param {
    lr_mult: 2
    decay_mult: 0
  }
  quan_convolution_param {
    num_output: 96
    pad: 2
    kernel_size: 11
    stride: 4
    weight_filler {
      type: "gaussian"
      std: 0.01
    }
    bias_filler {
      type: "constant"
      value: 0
    }
    round_method: ROUND
    round_strategy: NEUTRAL
    bit_width: 8
    range_low: -0.872089
    range_high: 0.927025
  }
}
layer {
  name: "bn1"
  type: "BatchNorm"
  bottom: "conv1"
  top: "conv1"
}
layer {
  name: "scale1"
  type: "Scale"
  bottom: "conv1"
  top: "conv1"
  scale_param {
    bias_term: true
  }
}
layer {
  name: "relu1"
  type: "ReLU"
  bottom: "conv1"
  top: "conv1"
}
layer {
  name: "pool1"
  type: "Pooling"
  bottom: "conv1"
  top: "pool1"
  pooling_param {
    pool: MAX
    kernel_size: 3
    stride: 2
  }
}
layer {
  name: "quantized_conv1"
  type: "Quantization"
  bottom: "pool1"
  top: "pool1"
  quantization_param {
    round_method: ROUND
    round_strategy: AGGRESSIVE
    bit_width: 8
    range: 0
    range: 13.965383
  }
}
layer {
  name: "conv2"
  type: "QuanConvolution"
  bottom: "pool1"
  top: "conv2"
  param {
    lr_mult: 1
    decay_mult: 1
  }
  param {
    lr_mult: 2
    decay_mult: 0
  }
  quan_convolution_param {
    num_output: 256
    pad: 2
    kernel_size: 5
    weight_filler {
      type: "gaussian"
      std: 0.01
    }
    bias_filler {
      type: "constant"
      value: 0.1
    }
    round_method: ROUND
    round_strategy: NEUTRAL
    bit_width: 8
    range_low: -0.806018
    range_high: 1.5182
  }
}
layer {
  name: "bn2"
  type: "BatchNorm"
  bottom: "conv2"
  top: "conv2"
}
layer {
  name: "scale2"
  type: "Scale"
  bottom: "conv2"
  top: "conv2"
  scale_param {
    bias_term: true
  }
}
layer {
  name: "relu2"
  type: "ReLU"
  bottom: "conv2"
  top: "conv2"
}
layer {
  name: "pool2"
  type: "Pooling"
  bottom: "conv2"
  top: "pool2"
  pooling_param {
    pool: MAX
    kernel_size: 3
    stride: 2
  }
}
layer {
  name: "quantized_conv1"
  type: "Quantization"
  bottom: "pool2"
  top: "pool2"
  quantization_param {
    round_method: ROUND
    round_strategy: AGGRESSIVE
    bit_width: 8
    range: 0
    range: 6.74956
  }
}
layer {
  name: "conv3"
  type: "QuanConvolution"
  bottom: "pool2"
  top: "conv3"
  param {
    lr_mult: 1
    decay_mult: 1
  }
  param {
    lr_mult: 2
    decay_mult: 0
  }
  quan_convolution_param {
    num_output: 384
    pad: 1
    kernel_size: 3
    weight_filler {
      type: "gaussian"
      std: 0.01
    }
    bias_filler {
      type: "constant"
      value: 0
    }
    round_method: ROUND
    round_strategy: NEUTRAL
    bit_width: 8
    range_low: -0.621858
    range_high: 0.673858
  }
}
layer {
  name: "bn3"
  type: "BatchNorm"
  bottom: "conv3"
  top: "conv3"
}
layer {
  name: "scale3"
  type: "Scale"
  bottom: "conv3"
  top: "conv3"
  scale_param {
    bias_term: true
  }
}
layer {
  name: "relu3"
  type: "ReLU"
  bottom: "conv3"
  top: "conv3"
}
layer {
  name: "quantized_conv1"
  type: "Quantization"
  bottom: "conv3"
  top: "conv3"
  quantization_param {
    round_method: ROUND
    round_strategy: AGGRESSIVE
    bit_width: 8
    range: 0
    range: 8.48454
  }
}
layer {
  name: "conv4"
  type: "QuanConvolution"
  bottom: "conv3"
  top: "conv4"
  param {
    lr_mult: 1
    decay_mult: 1
  }
  param {
    lr_mult: 2
    decay_mult: 0
  }
  quan_convolution_param {
    num_output: 384
    pad: 1
    kernel_size: 3
    weight_filler {
      type: "gaussian"
      std: 0.01
    }
    bias_filler {
      type: "constant"
      value: 0.1
    }
    round_method: ROUND
    round_strategy: NEUTRAL
    bit_width: 8
    range_low: -0.376634
    range_high: 0.341829
  }
}
layer {
  name: "bn4"
  type: "BatchNorm"
  bottom: "conv4"
  top: "conv4"
}
layer {
  name: "scale4"
  type: "Scale"
  bottom: "conv4"
  top: "conv4"
  scale_param {
    bias_term: true
  }
}
layer {
  name: "relu4"
  type: "ReLU"
  bottom: "conv4"
  top: "conv4"
}
layer {
  name: "quantized_conv1"
  type: "Quantization"
  bottom: "conv4"
  top: "conv4"
  quantization_param {
    round_method: ROUND
    round_strategy: AGGRESSIVE
    bit_width: 8
    range: 0
    range: 7.3369722
  }
}
layer {
  name: "conv5"
  type: "QuanConvolution"
  bottom: "conv4"
  top: "conv5"
  param {
    lr_mult: 1
    decay_mult: 1
  }
  param {
    lr_mult: 2
    decay_mult: 0
  }
  quan_convolution_param {
    num_output: 256
    pad: 1
    kernel_size: 3
    weight_filler {
      type: "gaussian"
      std: 0.01
    }
    bias_filler {
      type: "constant"
      value: 0.1
    }
    round_method: ROUND
    round_strategy: NEUTRAL
    bit_width: 8
    range_low: -0.347658
    range_high: 0.330042
  }
}
layer {
  name: "bn5"
  type: "BatchNorm"
  bottom: "conv5"
  top: "conv5"
}
layer {
  name: "scale5"
  type: "Scale"
  bottom: "conv5"
  top: "conv5"
  scale_param {
    bias_term: true
  }
}
layer {
  name: "relu5"
  type: "ReLU"
  bottom: "conv5"
  top: "conv5"
}
layer {
  name: "pool5"
  type: "Pooling"
  bottom: "conv5"
  top: "pool5"
  pooling_param {
    pool: MAX
    kernel_size: 3
    stride: 2
  }
}
layer {
  name: "quantized_conv1"
  type: "Quantization"
  bottom: "pool5"
  top: "pool5"
  quantization_param {
    round_method: ROUND
    round_strategy: AGGRESSIVE
    bit_width: 8
    range: 0
    range: 8.7577133
  }
}
layer {
  name: "fc6"
  type: "QuanInnerProduct"
  bottom: "pool5"
  top: "fc6"
  param {
    lr_mult: 1
    decay_mult: 1
  }
  param {
    lr_mult: 2
    decay_mult: 0
  }
  quan_inner_product_param {
    num_output: 4096
    weight_filler {
      type: "gaussian"
      std: 0.005
    }
    bias_filler {
      type: "constant"
      value: 0.1
    }
    round_method: ROUND
    round_strategy: NEUTRAL
    bit_width: 8
    range_low: -0.160061
    range_high: 0.148064
  }
}
layer {
  name: "bn6"
  type: "BatchNorm"
  bottom: "fc6"
  top: "fc6"
}
layer {
  name: "scale6"
  type: "Scale"
  bottom: "fc6"
  top: "fc6"
  scale_param {
    bias_term: true
  }
}
layer {
  name: "relu6"
  type: "ReLU"
  bottom: "fc6"
  top: "fc6"
}
layer {
  name: "drop6"
  type: "Dropout"
  bottom: "fc6"
  top: "fc6"
  dropout_param {
    dropout_ratio: 0.5
  }
}
layer {
  name: "quantized_conv1"
  type: "Quantization"
  bottom: "fc6"
  top: "fc6"
  quantization_param {
    round_method: ROUND
    round_strategy: AGGRESSIVE
    bit_width: 8
    range: 0
    range: 1.659358
  }
}
layer {
  name: "fc7"
  type: "QuanInnerProduct"
  bottom: "fc6"
  top: "fc7"
  param {
    lr_mult: 1
    decay_mult: 1
  }
  param {
    lr_mult: 2
    decay_mult: 0
  }
  quan_inner_product_param {
    num_output: 4096
    weight_filler {
      type: "gaussian"
      std: 0.005
    }
    bias_filler {
      type: "constant"
      value: 0.1
    }
    round_method: ROUND
    round_strategy: NEUTRAL
    bit_width: 8
    range_low: -0.162636
    range_high: 0.197684
  }
}
layer {
  name: "bn7"
  type: "BatchNorm"
  bottom: "fc7"
  top: "fc7"
}
layer {
  name: "scale7"
  type: "Scale"
  bottom: "fc7"
  top: "fc7"
  scale_param {
    bias_term: true
  }
}
layer {
  name: "relu7"
  type: "ReLU"
  bottom: "fc7"
  top: "fc7"
}
layer {
  name: "drop7"
  type: "Dropout"
  bottom: "fc7"
  top: "fc7"
  dropout_param {
    dropout_ratio: 0.5
  }
}
layer {
  name: "quantized_conv1"
  type: "Quantization"
  bottom: "fc7"
  top: "fc7"
  quantization_param {
    round_method: ROUND
    round_strategy: AGGRESSIVE
    bit_width: 8
    range: 0
    range: 7.5598521
  }
}
layer {
  name: "fc8"
  type: "QuanInnerProduct"
  bottom: "fc7"
  top: "fc8"
  param {
    lr_mult: 1
    decay_mult: 1
  }
  param {
    lr_mult: 2
    decay_mult: 0
  }
  quan_inner_product_param {
    num_output: 1000
    weight_filler {
      type: "gaussian"
      std: 0.01
    }
    bias_filler {
      type: "constant"
      value: 0
    }
    round_method: ROUND
    round_strategy: NEUTRAL
    bit_width: 8
    range_low: -0.141857
    range_high: 0.274249
  }
}
layer {
  name: "accuracy"
  type: "Accuracy"
  bottom: "fc8"
  bottom: "label"
  top: "accuracy"
  include {
    phase: TEST
  }
}
layer {
  name: "accuracy_5"
  type: "Accuracy"
  bottom: "fc8"
  bottom: "label"
  top: "accuracy_5"
  include {
    phase: TEST
  }
  accuracy_param {
    top_k: 5
  }
}
layer {
  name: "loss"
  type: "SoftmaxWithLoss"
  bottom: "fc8"
  bottom: "label"
  top: "loss"
}
I0116 12:01:48.808699 146705 layer_factory.hpp:77] Creating layer data
I0116 12:01:48.808828 146705 db_lmdb.cpp:35] Opened lmdb /home/DATA/imagenet_resize/lmdb_resize/ilsvrc12_val_lmdb
I0116 12:01:48.808897 146705 net.cpp:84] Creating Layer data
I0116 12:01:48.808928 146705 net.cpp:380] data -> data
I0116 12:01:48.808941 146705 net.cpp:380] data -> label
I0116 12:01:48.809319 146705 data_layer.cpp:45] output data size: 200,3,224,224
I0116 12:01:50.639118 146705 net.cpp:122] Setting up data
I0116 12:01:50.639175 146705 net.cpp:129] Top shape: 200 3 224 224 (30105600)
I0116 12:01:50.639186 146705 net.cpp:129] Top shape: 200 (200)
I0116 12:01:50.639195 146705 net.cpp:137] Memory required for data: 120423200
I0116 12:01:50.639222 146705 layer_factory.hpp:77] Creating layer label_data_1_split
I0116 12:01:50.639256 146705 net.cpp:84] Creating Layer label_data_1_split
I0116 12:01:50.639264 146705 net.cpp:406] label_data_1_split <- label
I0116 12:01:50.639284 146705 net.cpp:380] label_data_1_split -> label_data_1_split_0
I0116 12:01:50.639304 146705 net.cpp:380] label_data_1_split -> label_data_1_split_1
I0116 12:01:50.639317 146705 net.cpp:380] label_data_1_split -> label_data_1_split_2
I0116 12:01:50.639431 146705 net.cpp:122] Setting up label_data_1_split
I0116 12:01:50.639446 146705 net.cpp:129] Top shape: 200 (200)
I0116 12:01:50.639453 146705 net.cpp:129] Top shape: 200 (200)
I0116 12:01:50.639472 146705 net.cpp:129] Top shape: 200 (200)
I0116 12:01:50.639484 146705 net.cpp:137] Memory required for data: 120425600
I0116 12:01:50.639502 146705 layer_factory.hpp:77] Creating layer conv1
I0116 12:01:50.639539 146705 net.cpp:84] Creating Layer conv1
I0116 12:01:50.639554 146705 net.cpp:406] conv1 <- data
I0116 12:01:50.639567 146705 net.cpp:380] conv1 -> conv1
ydwu=======get:
bit_width=8;  round_method=0;  round_strategy=1;  is_runtime=0;  range_low=-0.872089;  range_high=0.927025
I0116 12:01:50.641161 146705 net.cpp:122] Setting up conv1
I0116 12:01:50.641182 146705 net.cpp:129] Top shape: 200 96 55 55 (58080000)
I0116 12:01:50.641203 146705 net.cpp:137] Memory required for data: 352745600
I0116 12:01:50.641233 146705 layer_factory.hpp:77] Creating layer bn1
I0116 12:01:50.641261 146705 net.cpp:84] Creating Layer bn1
I0116 12:01:50.641269 146705 net.cpp:406] bn1 <- conv1
I0116 12:01:50.641289 146705 net.cpp:367] bn1 -> conv1 (in-place)
I0116 12:01:50.659924 146705 net.cpp:122] Setting up bn1
I0116 12:01:50.659955 146705 net.cpp:129] Top shape: 200 96 55 55 (58080000)
I0116 12:01:50.659962 146705 net.cpp:137] Memory required for data: 585065600
I0116 12:01:50.659983 146705 layer_factory.hpp:77] Creating layer scale1
I0116 12:01:50.660001 146705 net.cpp:84] Creating Layer scale1
I0116 12:01:50.660008 146705 net.cpp:406] scale1 <- conv1
I0116 12:01:50.660068 146705 net.cpp:367] scale1 -> conv1 (in-place)
I0116 12:01:50.660133 146705 layer_factory.hpp:77] Creating layer scale1
I0116 12:01:50.660300 146705 net.cpp:122] Setting up scale1
I0116 12:01:50.660315 146705 net.cpp:129] Top shape: 200 96 55 55 (58080000)
I0116 12:01:50.660322 146705 net.cpp:137] Memory required for data: 817385600
I0116 12:01:50.660333 146705 layer_factory.hpp:77] Creating layer relu1
I0116 12:01:50.660346 146705 net.cpp:84] Creating Layer relu1
I0116 12:01:50.660353 146705 net.cpp:406] relu1 <- conv1
I0116 12:01:50.660363 146705 net.cpp:367] relu1 -> conv1 (in-place)
I0116 12:01:50.660374 146705 net.cpp:122] Setting up relu1
I0116 12:01:50.660383 146705 net.cpp:129] Top shape: 200 96 55 55 (58080000)
I0116 12:01:50.660389 146705 net.cpp:137] Memory required for data: 1049705600
I0116 12:01:50.660396 146705 layer_factory.hpp:77] Creating layer pool1
I0116 12:01:50.660409 146705 net.cpp:84] Creating Layer pool1
I0116 12:01:50.660416 146705 net.cpp:406] pool1 <- conv1
I0116 12:01:50.660426 146705 net.cpp:380] pool1 -> pool1
I0116 12:01:50.660480 146705 net.cpp:122] Setting up pool1
I0116 12:01:50.660492 146705 net.cpp:129] Top shape: 200 96 27 27 (13996800)
I0116 12:01:50.660500 146705 net.cpp:137] Memory required for data: 1105692800
I0116 12:01:50.660506 146705 layer_factory.hpp:77] Creating layer quantized_conv1
I0116 12:01:50.660519 146705 net.cpp:84] Creating Layer quantized_conv1
I0116 12:01:50.660526 146705 net.cpp:406] quantized_conv1 <- pool1
I0116 12:01:50.660537 146705 net.cpp:367] quantized_conv1 -> pool1 (in-place)
I0116 12:01:50.660562 146705 net.cpp:122] Setting up quantized_conv1
I0116 12:01:50.660571 146705 net.cpp:129] Top shape: 200 96 27 27 (13996800)
I0116 12:01:50.660578 146705 net.cpp:137] Memory required for data: 1161680000
I0116 12:01:50.660585 146705 layer_factory.hpp:77] Creating layer conv2
I0116 12:01:50.660603 146705 net.cpp:84] Creating Layer conv2
I0116 12:01:50.660610 146705 net.cpp:406] conv2 <- pool1
I0116 12:01:50.660625 146705 net.cpp:380] conv2 -> conv2
ydwu=======get:
bit_width=8;  round_method=0;  round_strategy=1;  is_runtime=0;  range_low=-0.806018;  range_high=1.5182
I0116 12:01:50.671993 146705 net.cpp:122] Setting up conv2
I0116 12:01:50.672024 146705 net.cpp:129] Top shape: 200 256 27 27 (37324800)
I0116 12:01:50.672031 146705 net.cpp:137] Memory required for data: 1310979200
I0116 12:01:50.672055 146705 layer_factory.hpp:77] Creating layer bn2
I0116 12:01:50.672072 146705 net.cpp:84] Creating Layer bn2
I0116 12:01:50.672086 146705 net.cpp:406] bn2 <- conv2
I0116 12:01:50.672101 146705 net.cpp:367] bn2 -> conv2 (in-place)
I0116 12:01:50.672324 146705 net.cpp:122] Setting up bn2
I0116 12:01:50.672339 146705 net.cpp:129] Top shape: 200 256 27 27 (37324800)
I0116 12:01:50.672346 146705 net.cpp:137] Memory required for data: 1460278400
I0116 12:01:50.672359 146705 layer_factory.hpp:77] Creating layer scale2
I0116 12:01:50.672372 146705 net.cpp:84] Creating Layer scale2
I0116 12:01:50.672380 146705 net.cpp:406] scale2 <- conv2
I0116 12:01:50.672390 146705 net.cpp:367] scale2 -> conv2 (in-place)
I0116 12:01:50.672454 146705 layer_factory.hpp:77] Creating layer scale2
I0116 12:01:50.672595 146705 net.cpp:122] Setting up scale2
I0116 12:01:50.672608 146705 net.cpp:129] Top shape: 200 256 27 27 (37324800)
I0116 12:01:50.672616 146705 net.cpp:137] Memory required for data: 1609577600
I0116 12:01:50.672626 146705 layer_factory.hpp:77] Creating layer relu2
I0116 12:01:50.672639 146705 net.cpp:84] Creating Layer relu2
I0116 12:01:50.672646 146705 net.cpp:406] relu2 <- conv2
I0116 12:01:50.672657 146705 net.cpp:367] relu2 -> conv2 (in-place)
I0116 12:01:50.672667 146705 net.cpp:122] Setting up relu2
I0116 12:01:50.672677 146705 net.cpp:129] Top shape: 200 256 27 27 (37324800)
I0116 12:01:50.672683 146705 net.cpp:137] Memory required for data: 1758876800
I0116 12:01:50.672689 146705 layer_factory.hpp:77] Creating layer pool2
I0116 12:01:50.672701 146705 net.cpp:84] Creating Layer pool2
I0116 12:01:50.672708 146705 net.cpp:406] pool2 <- conv2
I0116 12:01:50.672719 146705 net.cpp:380] pool2 -> pool2
I0116 12:01:50.672776 146705 net.cpp:122] Setting up pool2
I0116 12:01:50.672830 146705 net.cpp:129] Top shape: 200 256 13 13 (8652800)
I0116 12:01:50.672837 146705 net.cpp:137] Memory required for data: 1793488000
I0116 12:01:50.672845 146705 layer_factory.hpp:77] Creating layer quantized_conv1
I0116 12:01:50.672858 146705 net.cpp:84] Creating Layer quantized_conv1
I0116 12:01:50.672868 146705 net.cpp:406] quantized_conv1 <- pool2
I0116 12:01:50.672878 146705 net.cpp:367] quantized_conv1 -> pool2 (in-place)
I0116 12:01:50.672889 146705 net.cpp:122] Setting up quantized_conv1
I0116 12:01:50.672899 146705 net.cpp:129] Top shape: 200 256 13 13 (8652800)
I0116 12:01:50.672905 146705 net.cpp:137] Memory required for data: 1828099200
I0116 12:01:50.672912 146705 layer_factory.hpp:77] Creating layer conv3
I0116 12:01:50.672927 146705 net.cpp:84] Creating Layer conv3
I0116 12:01:50.672935 146705 net.cpp:406] conv3 <- pool2
I0116 12:01:50.672945 146705 net.cpp:380] conv3 -> conv3
ydwu=======get:
bit_width=8;  round_method=0;  round_strategy=1;  is_runtime=0;  range_low=-0.621858;  range_high=0.673858
I0116 12:01:50.689651 146705 net.cpp:122] Setting up conv3
I0116 12:01:50.689684 146705 net.cpp:129] Top shape: 200 384 13 13 (12979200)
I0116 12:01:50.689693 146705 net.cpp:137] Memory required for data: 1880016000
I0116 12:01:50.689712 146705 layer_factory.hpp:77] Creating layer bn3
I0116 12:01:50.689730 146705 net.cpp:84] Creating Layer bn3
I0116 12:01:50.689739 146705 net.cpp:406] bn3 <- conv3
I0116 12:01:50.689754 146705 net.cpp:367] bn3 -> conv3 (in-place)
I0116 12:01:50.689997 146705 net.cpp:122] Setting up bn3
I0116 12:01:50.690012 146705 net.cpp:129] Top shape: 200 384 13 13 (12979200)
I0116 12:01:50.690019 146705 net.cpp:137] Memory required for data: 1931932800
I0116 12:01:50.690042 146705 layer_factory.hpp:77] Creating layer scale3
I0116 12:01:50.690060 146705 net.cpp:84] Creating Layer scale3
I0116 12:01:50.690069 146705 net.cpp:406] scale3 <- conv3
I0116 12:01:50.690078 146705 net.cpp:367] scale3 -> conv3 (in-place)
I0116 12:01:50.690151 146705 layer_factory.hpp:77] Creating layer scale3
I0116 12:01:50.690296 146705 net.cpp:122] Setting up scale3
I0116 12:01:50.690310 146705 net.cpp:129] Top shape: 200 384 13 13 (12979200)
I0116 12:01:50.690317 146705 net.cpp:137] Memory required for data: 1983849600
I0116 12:01:50.690328 146705 layer_factory.hpp:77] Creating layer relu3
I0116 12:01:50.690340 146705 net.cpp:84] Creating Layer relu3
I0116 12:01:50.690347 146705 net.cpp:406] relu3 <- conv3
I0116 12:01:50.690357 146705 net.cpp:367] relu3 -> conv3 (in-place)
I0116 12:01:50.690368 146705 net.cpp:122] Setting up relu3
I0116 12:01:50.690377 146705 net.cpp:129] Top shape: 200 384 13 13 (12979200)
I0116 12:01:50.690384 146705 net.cpp:137] Memory required for data: 2035766400
I0116 12:01:50.690392 146705 layer_factory.hpp:77] Creating layer quantized_conv1
I0116 12:01:50.690412 146705 net.cpp:84] Creating Layer quantized_conv1
I0116 12:01:50.690418 146705 net.cpp:406] quantized_conv1 <- conv3
I0116 12:01:50.690428 146705 net.cpp:367] quantized_conv1 -> conv3 (in-place)
I0116 12:01:50.690439 146705 net.cpp:122] Setting up quantized_conv1
I0116 12:01:50.690448 146705 net.cpp:129] Top shape: 200 384 13 13 (12979200)
I0116 12:01:50.690455 146705 net.cpp:137] Memory required for data: 2087683200
I0116 12:01:50.690462 146705 layer_factory.hpp:77] Creating layer conv4
I0116 12:01:50.690479 146705 net.cpp:84] Creating Layer conv4
I0116 12:01:50.690486 146705 net.cpp:406] conv4 <- conv3
I0116 12:01:50.690497 146705 net.cpp:380] conv4 -> conv4
ydwu=======get:
bit_width=8;  round_method=0;  round_strategy=1;  is_runtime=0;  range_low=-0.376634;  range_high=0.341829
I0116 12:01:50.714751 146705 net.cpp:122] Setting up conv4
I0116 12:01:50.714784 146705 net.cpp:129] Top shape: 200 384 13 13 (12979200)
I0116 12:01:50.714792 146705 net.cpp:137] Memory required for data: 2139600000
I0116 12:01:50.714807 146705 layer_factory.hpp:77] Creating layer bn4
I0116 12:01:50.714825 146705 net.cpp:84] Creating Layer bn4
I0116 12:01:50.714836 146705 net.cpp:406] bn4 <- conv4
I0116 12:01:50.714849 146705 net.cpp:367] bn4 -> conv4 (in-place)
I0116 12:01:50.715090 146705 net.cpp:122] Setting up bn4
I0116 12:01:50.715104 146705 net.cpp:129] Top shape: 200 384 13 13 (12979200)
I0116 12:01:50.715109 146705 net.cpp:137] Memory required for data: 2191516800
I0116 12:01:50.715167 146705 layer_factory.hpp:77] Creating layer scale4
I0116 12:01:50.715179 146705 net.cpp:84] Creating Layer scale4
I0116 12:01:50.715186 146705 net.cpp:406] scale4 <- conv4
I0116 12:01:50.715196 146705 net.cpp:367] scale4 -> conv4 (in-place)
I0116 12:01:50.715275 146705 layer_factory.hpp:77] Creating layer scale4
I0116 12:01:50.715438 146705 net.cpp:122] Setting up scale4
I0116 12:01:50.715453 146705 net.cpp:129] Top shape: 200 384 13 13 (12979200)
I0116 12:01:50.715461 146705 net.cpp:137] Memory required for data: 2243433600
I0116 12:01:50.715473 146705 layer_factory.hpp:77] Creating layer relu4
I0116 12:01:50.715493 146705 net.cpp:84] Creating Layer relu4
I0116 12:01:50.715502 146705 net.cpp:406] relu4 <- conv4
I0116 12:01:50.715514 146705 net.cpp:367] relu4 -> conv4 (in-place)
I0116 12:01:50.715525 146705 net.cpp:122] Setting up relu4
I0116 12:01:50.715535 146705 net.cpp:129] Top shape: 200 384 13 13 (12979200)
I0116 12:01:50.715543 146705 net.cpp:137] Memory required for data: 2295350400
I0116 12:01:50.715549 146705 layer_factory.hpp:77] Creating layer quantized_conv1
I0116 12:01:50.715561 146705 net.cpp:84] Creating Layer quantized_conv1
I0116 12:01:50.715569 146705 net.cpp:406] quantized_conv1 <- conv4
I0116 12:01:50.715577 146705 net.cpp:367] quantized_conv1 -> conv4 (in-place)
I0116 12:01:50.715590 146705 net.cpp:122] Setting up quantized_conv1
I0116 12:01:50.715598 146705 net.cpp:129] Top shape: 200 384 13 13 (12979200)
I0116 12:01:50.715605 146705 net.cpp:137] Memory required for data: 2347267200
I0116 12:01:50.715612 146705 layer_factory.hpp:77] Creating layer conv5
I0116 12:01:50.715631 146705 net.cpp:84] Creating Layer conv5
I0116 12:01:50.715639 146705 net.cpp:406] conv5 <- conv4
I0116 12:01:50.715652 146705 net.cpp:380] conv5 -> conv5
ydwu=======get:
bit_width=8;  round_method=0;  round_strategy=1;  is_runtime=0;  range_low=-0.347658;  range_high=0.330042
I0116 12:01:50.760082 146705 net.cpp:122] Setting up conv5
I0116 12:01:50.760125 146705 net.cpp:129] Top shape: 200 256 13 13 (8652800)
I0116 12:01:50.760133 146705 net.cpp:137] Memory required for data: 2381878400
I0116 12:01:50.760149 146705 layer_factory.hpp:77] Creating layer bn5
I0116 12:01:50.760167 146705 net.cpp:84] Creating Layer bn5
I0116 12:01:50.760175 146705 net.cpp:406] bn5 <- conv5
I0116 12:01:50.760190 146705 net.cpp:367] bn5 -> conv5 (in-place)
I0116 12:01:50.760442 146705 net.cpp:122] Setting up bn5
I0116 12:01:50.760455 146705 net.cpp:129] Top shape: 200 256 13 13 (8652800)
I0116 12:01:50.760469 146705 net.cpp:137] Memory required for data: 2416489600
I0116 12:01:50.760507 146705 layer_factory.hpp:77] Creating layer scale5
I0116 12:01:50.760522 146705 net.cpp:84] Creating Layer scale5
I0116 12:01:50.760536 146705 net.cpp:406] scale5 <- conv5
I0116 12:01:50.760545 146705 net.cpp:367] scale5 -> conv5 (in-place)
I0116 12:01:50.760620 146705 layer_factory.hpp:77] Creating layer scale5
I0116 12:01:50.760768 146705 net.cpp:122] Setting up scale5
I0116 12:01:50.760783 146705 net.cpp:129] Top shape: 200 256 13 13 (8652800)
I0116 12:01:50.760797 146705 net.cpp:137] Memory required for data: 2451100800
I0116 12:01:50.760807 146705 layer_factory.hpp:77] Creating layer relu5
I0116 12:01:50.760821 146705 net.cpp:84] Creating Layer relu5
I0116 12:01:50.760829 146705 net.cpp:406] relu5 <- conv5
I0116 12:01:50.760838 146705 net.cpp:367] relu5 -> conv5 (in-place)
I0116 12:01:50.760850 146705 net.cpp:122] Setting up relu5
I0116 12:01:50.760860 146705 net.cpp:129] Top shape: 200 256 13 13 (8652800)
I0116 12:01:50.760867 146705 net.cpp:137] Memory required for data: 2485712000
I0116 12:01:50.760874 146705 layer_factory.hpp:77] Creating layer pool5
I0116 12:01:50.760891 146705 net.cpp:84] Creating Layer pool5
I0116 12:01:50.760900 146705 net.cpp:406] pool5 <- conv5
I0116 12:01:50.760910 146705 net.cpp:380] pool5 -> pool5
I0116 12:01:50.760964 146705 net.cpp:122] Setting up pool5
I0116 12:01:50.760977 146705 net.cpp:129] Top shape: 200 256 6 6 (1843200)
I0116 12:01:50.760985 146705 net.cpp:137] Memory required for data: 2493084800
I0116 12:01:50.760993 146705 layer_factory.hpp:77] Creating layer quantized_conv1
I0116 12:01:50.761005 146705 net.cpp:84] Creating Layer quantized_conv1
I0116 12:01:50.761057 146705 net.cpp:406] quantized_conv1 <- pool5
I0116 12:01:50.761071 146705 net.cpp:367] quantized_conv1 -> pool5 (in-place)
I0116 12:01:50.761085 146705 net.cpp:122] Setting up quantized_conv1
I0116 12:01:50.761095 146705 net.cpp:129] Top shape: 200 256 6 6 (1843200)
I0116 12:01:50.761101 146705 net.cpp:137] Memory required for data: 2500457600
I0116 12:01:50.761108 146705 layer_factory.hpp:77] Creating layer fc6
I0116 12:01:50.761121 146705 net.cpp:84] Creating Layer fc6
I0116 12:01:50.761129 146705 net.cpp:406] fc6 <- pool5
I0116 12:01:50.761139 146705 net.cpp:380] fc6 -> fc6
I0116 12:01:50.761152 146705 quan_inner_product_layer.cpp:21] 4096   4096
ydwu=======get:
bit_width=8;  round_method=0;  round_strategy=1;  is_runtime=0;  range_low=-0.160061;  range_high=0.148064
I0116 12:01:51.509948 146705 net.cpp:122] Setting up fc6
I0116 12:01:51.509985 146705 net.cpp:129] Top shape: 200 4096 (819200)
I0116 12:01:51.509991 146705 net.cpp:137] Memory required for data: 2503734400
I0116 12:01:51.510010 146705 layer_factory.hpp:77] Creating layer bn6
I0116 12:01:51.510033 146705 net.cpp:84] Creating Layer bn6
I0116 12:01:51.510043 146705 net.cpp:406] bn6 <- fc6
I0116 12:01:51.510071 146705 net.cpp:367] bn6 -> fc6 (in-place)
I0116 12:01:51.510342 146705 net.cpp:122] Setting up bn6
I0116 12:01:51.510356 146705 net.cpp:129] Top shape: 200 4096 (819200)
I0116 12:01:51.510362 146705 net.cpp:137] Memory required for data: 2507011200
I0116 12:01:51.510375 146705 layer_factory.hpp:77] Creating layer scale6
I0116 12:01:51.510411 146705 net.cpp:84] Creating Layer scale6
I0116 12:01:51.510421 146705 net.cpp:406] scale6 <- fc6
I0116 12:01:51.510432 146705 net.cpp:367] scale6 -> fc6 (in-place)
I0116 12:01:51.510509 146705 layer_factory.hpp:77] Creating layer scale6
I0116 12:01:51.510666 146705 net.cpp:122] Setting up scale6
I0116 12:01:51.510680 146705 net.cpp:129] Top shape: 200 4096 (819200)
I0116 12:01:51.510686 146705 net.cpp:137] Memory required for data: 2510288000
I0116 12:01:51.510695 146705 layer_factory.hpp:77] Creating layer relu6
I0116 12:01:51.510706 146705 net.cpp:84] Creating Layer relu6
I0116 12:01:51.510713 146705 net.cpp:406] relu6 <- fc6
I0116 12:01:51.510726 146705 net.cpp:367] relu6 -> fc6 (in-place)
I0116 12:01:51.510737 146705 net.cpp:122] Setting up relu6
I0116 12:01:51.510746 146705 net.cpp:129] Top shape: 200 4096 (819200)
I0116 12:01:51.510752 146705 net.cpp:137] Memory required for data: 2513564800
I0116 12:01:51.510759 146705 layer_factory.hpp:77] Creating layer drop6
I0116 12:01:51.510771 146705 net.cpp:84] Creating Layer drop6
I0116 12:01:51.510778 146705 net.cpp:406] drop6 <- fc6
I0116 12:01:51.510787 146705 net.cpp:367] drop6 -> fc6 (in-place)
I0116 12:01:51.510823 146705 net.cpp:122] Setting up drop6
I0116 12:01:51.510836 146705 net.cpp:129] Top shape: 200 4096 (819200)
I0116 12:01:51.510843 146705 net.cpp:137] Memory required for data: 2516841600
I0116 12:01:51.510850 146705 layer_factory.hpp:77] Creating layer quantized_conv1
I0116 12:01:51.510864 146705 net.cpp:84] Creating Layer quantized_conv1
I0116 12:01:51.510869 146705 net.cpp:406] quantized_conv1 <- fc6
I0116 12:01:51.510879 146705 net.cpp:367] quantized_conv1 -> fc6 (in-place)
I0116 12:01:51.510890 146705 net.cpp:122] Setting up quantized_conv1
I0116 12:01:51.510900 146705 net.cpp:129] Top shape: 200 4096 (819200)
I0116 12:01:51.510905 146705 net.cpp:137] Memory required for data: 2520118400
I0116 12:01:51.510913 146705 layer_factory.hpp:77] Creating layer fc7
I0116 12:01:51.510926 146705 net.cpp:84] Creating Layer fc7
I0116 12:01:51.510932 146705 net.cpp:406] fc7 <- fc6
I0116 12:01:51.510946 146705 net.cpp:380] fc7 -> fc7
I0116 12:01:51.510958 146705 quan_inner_product_layer.cpp:21] 4096   4096
ydwu=======get:
bit_width=8;  round_method=0;  round_strategy=1;  is_runtime=0;  range_low=-0.162636;  range_high=0.197684
I0116 12:01:51.911057 146705 net.cpp:122] Setting up fc7
I0116 12:01:51.911135 146705 net.cpp:129] Top shape: 200 4096 (819200)
I0116 12:01:51.911155 146705 net.cpp:137] Memory required for data: 2523395200
I0116 12:01:51.911207 146705 layer_factory.hpp:77] Creating layer bn7
I0116 12:01:51.911253 146705 net.cpp:84] Creating Layer bn7
I0116 12:01:51.911278 146705 net.cpp:406] bn7 <- fc7
I0116 12:01:51.911300 146705 net.cpp:367] bn7 -> fc7 (in-place)
I0116 12:01:51.911973 146705 net.cpp:122] Setting up bn7
I0116 12:01:51.912015 146705 net.cpp:129] Top shape: 200 4096 (819200)
I0116 12:01:51.912039 146705 net.cpp:137] Memory required for data: 2526672000
I0116 12:01:51.912091 146705 layer_factory.hpp:77] Creating layer scale7
I0116 12:01:51.912127 146705 net.cpp:84] Creating Layer scale7
I0116 12:01:51.912151 146705 net.cpp:406] scale7 <- fc7
I0116 12:01:51.912178 146705 net.cpp:367] scale7 -> fc7 (in-place)
I0116 12:01:51.912372 146705 layer_factory.hpp:77] Creating layer scale7
I0116 12:01:51.912823 146705 net.cpp:122] Setting up scale7
I0116 12:01:51.912856 146705 net.cpp:129] Top shape: 200 4096 (819200)
I0116 12:01:51.912879 146705 net.cpp:137] Memory required for data: 2529948800
I0116 12:01:51.912904 146705 layer_factory.hpp:77] Creating layer relu7
I0116 12:01:51.912943 146705 net.cpp:84] Creating Layer relu7
I0116 12:01:51.912966 146705 net.cpp:406] relu7 <- fc7
I0116 12:01:51.912986 146705 net.cpp:367] relu7 -> fc7 (in-place)
I0116 12:01:51.913019 146705 net.cpp:122] Setting up relu7
I0116 12:01:51.913038 146705 net.cpp:129] Top shape: 200 4096 (819200)
I0116 12:01:51.913059 146705 net.cpp:137] Memory required for data: 2533225600
I0116 12:01:51.913082 146705 layer_factory.hpp:77] Creating layer drop7
I0116 12:01:51.913107 146705 net.cpp:84] Creating Layer drop7
I0116 12:01:51.913125 146705 net.cpp:406] drop7 <- fc7
I0116 12:01:51.913139 146705 net.cpp:367] drop7 -> fc7 (in-place)
I0116 12:01:51.913218 146705 net.cpp:122] Setting up drop7
I0116 12:01:51.913249 146705 net.cpp:129] Top shape: 200 4096 (819200)
I0116 12:01:51.913261 146705 net.cpp:137] Memory required for data: 2536502400
I0116 12:01:51.913277 146705 layer_factory.hpp:77] Creating layer quantized_conv1
I0116 12:01:51.913300 146705 net.cpp:84] Creating Layer quantized_conv1
I0116 12:01:51.913318 146705 net.cpp:406] quantized_conv1 <- fc7
I0116 12:01:51.913339 146705 net.cpp:367] quantized_conv1 -> fc7 (in-place)
I0116 12:01:51.913360 146705 net.cpp:122] Setting up quantized_conv1
I0116 12:01:51.913369 146705 net.cpp:129] Top shape: 200 4096 (819200)
I0116 12:01:51.913383 146705 net.cpp:137] Memory required for data: 2539779200
I0116 12:01:51.913403 146705 layer_factory.hpp:77] Creating layer fc8
I0116 12:01:51.913429 146705 net.cpp:84] Creating Layer fc8
I0116 12:01:51.913445 146705 net.cpp:406] fc8 <- fc7
I0116 12:01:51.913473 146705 net.cpp:380] fc8 -> fc8
I0116 12:01:51.913496 146705 quan_inner_product_layer.cpp:21] 1000   1000
ydwu=======get:
bit_width=8;  round_method=0;  round_strategy=1;  is_runtime=0;  range_low=-0.141857;  range_high=0.274249
I0116 12:01:52.014379 146705 net.cpp:122] Setting up fc8
I0116 12:01:52.014451 146705 net.cpp:129] Top shape: 200 1000 (200000)
I0116 12:01:52.014472 146705 net.cpp:137] Memory required for data: 2540579200
I0116 12:01:52.014515 146705 layer_factory.hpp:77] Creating layer fc8_fc8_0_split
I0116 12:01:52.014557 146705 net.cpp:84] Creating Layer fc8_fc8_0_split
I0116 12:01:52.014595 146705 net.cpp:406] fc8_fc8_0_split <- fc8
I0116 12:01:52.014623 146705 net.cpp:380] fc8_fc8_0_split -> fc8_fc8_0_split_0
I0116 12:01:52.014689 146705 net.cpp:380] fc8_fc8_0_split -> fc8_fc8_0_split_1
I0116 12:01:52.014731 146705 net.cpp:380] fc8_fc8_0_split -> fc8_fc8_0_split_2
I0116 12:01:52.014905 146705 net.cpp:122] Setting up fc8_fc8_0_split
I0116 12:01:52.014947 146705 net.cpp:129] Top shape: 200 1000 (200000)
I0116 12:01:52.014961 146705 net.cpp:129] Top shape: 200 1000 (200000)
I0116 12:01:52.014978 146705 net.cpp:129] Top shape: 200 1000 (200000)
I0116 12:01:52.014997 146705 net.cpp:137] Memory required for data: 2542979200
I0116 12:01:52.015025 146705 layer_factory.hpp:77] Creating layer accuracy
I0116 12:01:52.015055 146705 net.cpp:84] Creating Layer accuracy
I0116 12:01:52.015069 146705 net.cpp:406] accuracy <- fc8_fc8_0_split_0
I0116 12:01:52.015091 146705 net.cpp:406] accuracy <- label_data_1_split_0
I0116 12:01:52.015120 146705 net.cpp:380] accuracy -> accuracy
…
