…
I0117 18:59:30.903569 186402 net.cpp:294] The NetState phase (0) differed from the phase (1) specified by a rule in layer accuracy_5
I0117 18:59:30.903951 186402 net.cpp:51] Initializing net from parameters: 
name: "AlexNet-BN"
state {
  phase: TRAIN
  level: 0
  stage: ""
}
layer {
  name: "data"
  type: "Data"
  top: "data"
  top: "label"
  include {
    phase: TRAIN
  }
  transform_param {
    mirror: true
    crop_size: 224
    mean_value: 103.939
    mean_value: 116.779
    mean_value: 123.68
  }
  data_param {
    source: "/home/DATA/imagenet_resize/lmdb_resize/ilsvrc12_train_lmdb"
    batch_size: 200
    backend: LMDB
  }
}
layer {
  name: "conv1"
  type: "QuanConvolution"
  bottom: "data"
  top: "conv1"
  param {
    lr_mult: 1
    decay_mult: 1
  }
  param {
    lr_mult: 2
    decay_mult: 0
  }
  quan_convolution_param {
    num_output: 96
    pad: 2
    kernel_size: 11
    stride: 4
    weight_filler {
      type: "gaussian"
      std: 0.01
    }
    bias_filler {
      type: "constant"
      value: 0
    }
    round_method: ROUND
    round_strategy: NEUTRAL
    bit_width: 8
    range_low: -0.872089
    range_high: 0.927025
  }
}
layer {
  name: "bn1"
  type: "BatchNorm"
  bottom: "conv1"
  top: "conv1"
}
layer {
  name: "scale1"
  type: "Scale"
  bottom: "conv1"
  top: "conv1"
  scale_param {
    bias_term: true
  }
}
layer {
  name: "relu1"
  type: "ReLU"
  bottom: "conv1"
  top: "conv1"
}
layer {
  name: "pool1"
  type: "Pooling"
  bottom: "conv1"
  top: "pool1"
  pooling_param {
    pool: MAX
    kernel_size: 3
    stride: 2
  }
}
layer {
  name: "quantized_conv1"
  type: "Quantization"
  bottom: "pool1"
  top: "pool1"
  quantization_param {
    round_method: ROUND
    round_strategy: AGGRESSIVE
    bit_width: 8
    range: 0
    range: 13.965383
  }
}
layer {
  name: "conv2"
  type: "QuanConvolution"
  bottom: "pool1"
  top: "conv2"
  param {
    lr_mult: 1
    decay_mult: 1
  }
  param {
    lr_mult: 2
    decay_mult: 0
  }
  quan_convolution_param {
    num_output: 256
    pad: 2
    kernel_size: 5
    weight_filler {
      type: "gaussian"
      std: 0.01
    }
    bias_filler {
      type: "constant"
      value: 0.1
    }
    round_method: ROUND
    round_strategy: NEUTRAL
    bit_width: 8
    range_low: -0.806018
    range_high: 1.5182
  }
}
layer {
  name: "bn2"
  type: "BatchNorm"
  bottom: "conv2"
  top: "conv2"
}
layer {
  name: "scale2"
  type: "Scale"
  bottom: "conv2"
  top: "conv2"
  scale_param {
    bias_term: true
  }
}
layer {
  name: "relu2"
  type: "ReLU"
  bottom: "conv2"
  top: "conv2"
}
layer {
  name: "pool2"
  type: "Pooling"
  bottom: "conv2"
  top: "pool2"
  pooling_param {
    pool: MAX
    kernel_size: 3
    stride: 2
  }
}
layer {
  name: "quantized_conv1"
  type: "Quantization"
  bottom: "pool2"
  top: "pool2"
  quantization_param {
    round_method: ROUND
    round_strategy: AGGRESSIVE
    bit_width: 8
    range: 0
    range: 6.74956
  }
}
layer {
  name: "conv3"
  type: "QuanConvolution"
  bottom: "pool2"
  top: "conv3"
  param {
    lr_mult: 1
    decay_mult: 1
  }
  param {
    lr_mult: 2
    decay_mult: 0
  }
  quan_convolution_param {
    num_output: 384
    pad: 1
    kernel_size: 3
    weight_filler {
      type: "gaussian"
      std: 0.01
    }
    bias_filler {
      type: "constant"
      value: 0
    }
    round_method: ROUND
    round_strategy: NEUTRAL
    bit_width: 8
    range_low: -0.621858
    range_high: 0.673858
  }
}
layer {
  name: "bn3"
  type: "BatchNorm"
  bottom: "conv3"
  top: "conv3"
}
layer {
  name: "scale3"
  type: "Scale"
  bottom: "conv3"
  top: "conv3"
  scale_param {
    bias_term: true
  }
}
layer {
  name: "relu3"
  type: "ReLU"
  bottom: "conv3"
  top: "conv3"
}
layer {
  name: "quantized_conv1"
  type: "Quantization"
  bottom: "conv3"
  top: "conv3"
  quantization_param {
    round_method: ROUND
    round_strategy: AGGRESSIVE
    bit_width: 8
    range: 0
    range: 8.48454
  }
}
layer {
  name: "conv4"
  type: "QuanConvolution"
  bottom: "conv3"
  top: "conv4"
  param {
    lr_mult: 1
    decay_mult: 1
  }
  param {
    lr_mult: 2
    decay_mult: 0
  }
  quan_convolution_param {
    num_output: 384
    pad: 1
    kernel_size: 3
    weight_filler {
      type: "gaussian"
      std: 0.01
    }
    bias_filler {
      type: "constant"
      value: 0.1
    }
    round_method: ROUND
    round_strategy: NEUTRAL
    bit_width: 8
    range_low: -0.376634
    range_high: 0.341829
  }
}
layer {
  name: "bn4"
  type: "BatchNorm"
  bottom: "conv4"
  top: "conv4"
}
layer {
  name: "scale4"
  type: "Scale"
  bottom: "conv4"
  top: "conv4"
  scale_param {
    bias_term: true
  }
}
layer {
  name: "relu4"
  type: "ReLU"
  bottom: "conv4"
  top: "conv4"
}
layer {
  name: "quantized_conv1"
  type: "Quantization"
  bottom: "conv4"
  top: "conv4"
  quantization_param {
    round_method: ROUND
    round_strategy: AGGRESSIVE
    bit_width: 8
    range: 0
    range: 7.3369722
  }
}
layer {
  name: "conv5"
  type: "QuanConvolution"
  bottom: "conv4"
  top: "conv5"
  param {
    lr_mult: 1
    decay_mult: 1
  }
  param {
    lr_mult: 2
    decay_mult: 0
  }
  quan_convolution_param {
    num_output: 256
    pad: 1
    kernel_size: 3
    weight_filler {
      type: "gaussian"
      std: 0.01
    }
    bias_filler {
      type: "constant"
      value: 0.1
    }
    round_method: ROUND
    round_strategy: NEUTRAL
    bit_width: 8
    range_low: -0.347658
    range_high: 0.330042
  }
}
layer {
  name: "bn5"
  type: "BatchNorm"
  bottom: "conv5"
  top: "conv5"
}
layer {
  name: "scale5"
  type: "Scale"
  bottom: "conv5"
  top: "conv5"
  scale_param {
    bias_term: true
  }
}
layer {
  name: "relu5"
  type: "ReLU"
  bottom: "conv5"
  top: "conv5"
}
layer {
  name: "pool5"
  type: "Pooling"
  bottom: "conv5"
  top: "pool5"
  pooling_param {
    pool: MAX
    kernel_size: 3
    stride: 2
  }
}
layer {
  name: "quantized_conv1"
  type: "Quantization"
  bottom: "pool5"
  top: "pool5"
  quantization_param {
    round_method: ROUND
    round_strategy: AGGRESSIVE
    bit_width: 8
    range: 0
    range: 8.7577133
  }
}
layer {
  name: "fc6"
  type: "QuanInnerProduct"
  bottom: "pool5"
  top: "fc6"
  param {
    lr_mult: 1
    decay_mult: 1
  }
  param {
    lr_mult: 2
    decay_mult: 0
  }
  quan_inner_product_param {
    num_output: 4096
    weight_filler {
      type: "gaussian"
      std: 0.005
    }
    bias_filler {
      type: "constant"
      value: 0.1
    }
    round_method: ROUND
    round_strategy: NEUTRAL
    bit_width: 8
    range_low: -0.160061
    range_high: 0.148064
  }
}
layer {
  name: "bn6"
  type: "BatchNorm"
  bottom: "fc6"
  top: "fc6"
}
layer {
  name: "scale6"
  type: "Scale"
  bottom: "fc6"
  top: "fc6"
  scale_param {
    bias_term: true
  }
}
layer {
  name: "relu6"
  type: "ReLU"
  bottom: "fc6"
  top: "fc6"
}
layer {
  name: "drop6"
  type: "Dropout"
  bottom: "fc6"
  top: "fc6"
  dropout_param {
    dropout_ratio: 0.5
  }
}
layer {
  name: "quantized_conv1"
  type: "Quantization"
  bottom: "fc6"
  top: "fc6"
  quantization_param {
    round_method: ROUND
    round_strategy: AGGRESSIVE
    bit_width: 8
    range: 0
    range: 1.659358
  }
}
layer {
  name: "fc7"
  type: "QuanInnerProduct"
  bottom: "fc6"
  top: "fc7"
  param {
    lr_mult: 1
    decay_mult: 1
  }
  param {
    lr_mult: 2
    decay_mult: 0
  }
  quan_inner_product_param {
    num_output: 4096
    weight_filler {
      type: "gaussian"
      std: 0.005
    }
    bias_filler {
      type: "constant"
      value: 0.1
    }
    round_method: ROUND
    round_strategy: NEUTRAL
    bit_width: 8
    range_low: -0.162636
    range_high: 0.197684
  }
}
layer {
  name: "bn7"
  type: "BatchNorm"
  bottom: "fc7"
  top: "fc7"
}
layer {
  name: "scale7"
  type: "Scale"
  bottom: "fc7"
  top: "fc7"
  scale_param {
    bias_term: true
  }
}
layer {
  name: "relu7"
  type: "ReLU"
  bottom: "fc7"
  top: "fc7"
}
layer {
  name: "drop7"
  type: "Dropout"
  bottom: "fc7"
  top: "fc7"
  dropout_param {
    dropout_ratio: 0.5
  }
}
layer {
  name: "quantized_conv1"
  type: "Quantization"
  bottom: "fc7"
  top: "fc7"
  quantization_param {
    round_method: ROUND
    round_strategy: AGGRESSIVE
    bit_width: 8
    range: 0
    range: 7.5598521
  }
}
layer {
  name: "fc8"
  type: "QuanInnerProduct"
  bottom: "fc7"
  top: "fc8"
  param {
    lr_mult: 1
    decay_mult: 1
  }
  param {
    lr_mult: 2
    decay_mult: 0
  }
  quan_inner_product_param {
    num_output: 1000
    weight_filler {
      type: "gaussian"
      std: 0.01
    }
    bias_filler {
      type: "constant"
      value: 0
    }
    round_method: ROUND
    round_strategy: NEUTRAL
    bit_width: 8
    range_low: -0.141857
    range_high: 0.274249
  }
}
layer {
  name: "accuracy_5_TRAIN"
  type: "Accuracy"
  bottom: "fc8"
  bottom: "label"
  top: "accuracy_5_TRAIN"
  include {
    phase: TRAIN
  }
  accuracy_param {
    top_k: 5
  }
}
layer {
  name: "loss"
  type: "SoftmaxWithLoss"
  bottom: "fc8"
  bottom: "label"
  top: "loss"
}
I0117 18:59:30.904306 186402 layer_factory.hpp:77] Creating layer data
I0117 18:59:30.925748 186402 db_lmdb.cpp:35] Opened lmdb /home/DATA/imagenet_resize/lmdb_resize/ilsvrc12_train_lmdb
I0117 18:59:30.936169 186402 net.cpp:84] Creating Layer data
I0117 18:59:30.936287 186402 net.cpp:380] data -> data
I0117 18:59:30.936353 186402 net.cpp:380] data -> label
I0117 18:59:30.946437 186402 data_layer.cpp:45] output data size: 200,3,224,224
I0117 18:59:31.634941 186402 net.cpp:122] Setting up data
I0117 18:59:31.635026 186402 net.cpp:129] Top shape: 200 3 224 224 (30105600)
I0117 18:59:31.635038 186402 net.cpp:129] Top shape: 200 (200)
I0117 18:59:31.635089 186402 net.cpp:137] Memory required for data: 120423200
I0117 18:59:31.635113 186402 layer_factory.hpp:77] Creating layer label_data_1_split
I0117 18:59:31.635152 186402 net.cpp:84] Creating Layer label_data_1_split
I0117 18:59:31.635167 186402 net.cpp:406] label_data_1_split <- label
I0117 18:59:31.635193 186402 net.cpp:380] label_data_1_split -> label_data_1_split_0
I0117 18:59:31.635216 186402 net.cpp:380] label_data_1_split -> label_data_1_split_1
I0117 18:59:31.635334 186402 net.cpp:122] Setting up label_data_1_split
I0117 18:59:31.635346 186402 net.cpp:129] Top shape: 200 (200)
I0117 18:59:31.635361 186402 net.cpp:129] Top shape: 200 (200)
I0117 18:59:31.635366 186402 net.cpp:137] Memory required for data: 120424800
I0117 18:59:31.635372 186402 layer_factory.hpp:77] Creating layer conv1
I0117 18:59:31.635401 186402 net.cpp:84] Creating Layer conv1
I0117 18:59:31.635409 186402 net.cpp:406] conv1 <- data
I0117 18:59:31.635428 186402 net.cpp:380] conv1 -> conv1
ydwu=======get:
bit_width=8;  round_method=0;  round_strategy=1;  is_runtime=0;  range_low=-0.872089;  range_high=0.927025
I0117 18:59:31.657789 186402 net.cpp:122] Setting up conv1
I0117 18:59:31.657891 186402 net.cpp:129] Top shape: 200 96 55 55 (58080000)
I0117 18:59:31.657899 186402 net.cpp:137] Memory required for data: 352744800
I0117 18:59:31.657938 186402 layer_factory.hpp:77] Creating layer bn1
I0117 18:59:31.657969 186402 net.cpp:84] Creating Layer bn1
I0117 18:59:31.657977 186402 net.cpp:406] bn1 <- conv1
I0117 18:59:31.657989 186402 net.cpp:367] bn1 -> conv1 (in-place)
I0117 18:59:31.658231 186402 net.cpp:122] Setting up bn1
I0117 18:59:31.658246 186402 net.cpp:129] Top shape: 200 96 55 55 (58080000)
I0117 18:59:31.658252 186402 net.cpp:137] Memory required for data: 585064800
I0117 18:59:31.658267 186402 layer_factory.hpp:77] Creating layer scale1
I0117 18:59:31.658283 186402 net.cpp:84] Creating Layer scale1
I0117 18:59:31.658335 186402 net.cpp:406] scale1 <- conv1
I0117 18:59:31.658344 186402 net.cpp:367] scale1 -> conv1 (in-place)
I0117 18:59:31.658406 186402 layer_factory.hpp:77] Creating layer scale1
I0117 18:59:31.658546 186402 net.cpp:122] Setting up scale1
I0117 18:59:31.658561 186402 net.cpp:129] Top shape: 200 96 55 55 (58080000)
I0117 18:59:31.658566 186402 net.cpp:137] Memory required for data: 817384800
I0117 18:59:31.658576 186402 layer_factory.hpp:77] Creating layer relu1
I0117 18:59:31.658586 186402 net.cpp:84] Creating Layer relu1
I0117 18:59:31.658592 186402 net.cpp:406] relu1 <- conv1
I0117 18:59:31.658602 186402 net.cpp:367] relu1 -> conv1 (in-place)
I0117 18:59:31.658612 186402 net.cpp:122] Setting up relu1
I0117 18:59:31.658619 186402 net.cpp:129] Top shape: 200 96 55 55 (58080000)
I0117 18:59:31.658627 186402 net.cpp:137] Memory required for data: 1049704800
I0117 18:59:31.658632 186402 layer_factory.hpp:77] Creating layer pool1
I0117 18:59:31.658641 186402 net.cpp:84] Creating Layer pool1
I0117 18:59:31.658648 186402 net.cpp:406] pool1 <- conv1
I0117 18:59:31.658656 186402 net.cpp:380] pool1 -> pool1
I0117 18:59:31.658725 186402 net.cpp:122] Setting up pool1
I0117 18:59:31.658737 186402 net.cpp:129] Top shape: 200 96 27 27 (13996800)
I0117 18:59:31.658743 186402 net.cpp:137] Memory required for data: 1105692000
I0117 18:59:31.658751 186402 layer_factory.hpp:77] Creating layer quantized_conv1
I0117 18:59:31.658762 186402 net.cpp:84] Creating Layer quantized_conv1
I0117 18:59:31.658771 186402 net.cpp:406] quantized_conv1 <- pool1
I0117 18:59:31.658779 186402 net.cpp:367] quantized_conv1 -> pool1 (in-place)
I0117 18:59:31.658793 186402 net.cpp:122] Setting up quantized_conv1
I0117 18:59:31.658802 186402 net.cpp:129] Top shape: 200 96 27 27 (13996800)
I0117 18:59:31.658809 186402 net.cpp:137] Memory required for data: 1161679200
I0117 18:59:31.658815 186402 layer_factory.hpp:77] Creating layer conv2
I0117 18:59:31.658835 186402 net.cpp:84] Creating Layer conv2
I0117 18:59:31.658843 186402 net.cpp:406] conv2 <- pool1
I0117 18:59:31.658854 186402 net.cpp:380] conv2 -> conv2
ydwu=======get:
bit_width=8;  round_method=0;  round_strategy=1;  is_runtime=0;  range_low=-0.806018;  range_high=1.5182
I0117 18:59:31.670802 186402 net.cpp:122] Setting up conv2
I0117 18:59:31.670850 186402 net.cpp:129] Top shape: 200 256 27 27 (37324800)
I0117 18:59:31.670857 186402 net.cpp:137] Memory required for data: 1310978400
I0117 18:59:31.670884 186402 layer_factory.hpp:77] Creating layer bn2
I0117 18:59:31.670904 186402 net.cpp:84] Creating Layer bn2
I0117 18:59:31.670914 186402 net.cpp:406] bn2 <- conv2
I0117 18:59:31.670929 186402 net.cpp:367] bn2 -> conv2 (in-place)
I0117 18:59:31.671136 186402 net.cpp:122] Setting up bn2
I0117 18:59:31.671152 186402 net.cpp:129] Top shape: 200 256 27 27 (37324800)
I0117 18:59:31.671159 186402 net.cpp:137] Memory required for data: 1460277600
I0117 18:59:31.671171 186402 layer_factory.hpp:77] Creating layer scale2
I0117 18:59:31.671185 186402 net.cpp:84] Creating Layer scale2
I0117 18:59:31.671193 186402 net.cpp:406] scale2 <- conv2
I0117 18:59:31.671202 186402 net.cpp:367] scale2 -> conv2 (in-place)
I0117 18:59:31.671262 186402 layer_factory.hpp:77] Creating layer scale2
I0117 18:59:31.671381 186402 net.cpp:122] Setting up scale2
I0117 18:59:31.671396 186402 net.cpp:129] Top shape: 200 256 27 27 (37324800)
I0117 18:59:31.671401 186402 net.cpp:137] Memory required for data: 1609576800
I0117 18:59:31.671412 186402 layer_factory.hpp:77] Creating layer relu2
I0117 18:59:31.671423 186402 net.cpp:84] Creating Layer relu2
I0117 18:59:31.671430 186402 net.cpp:406] relu2 <- conv2
I0117 18:59:31.671440 186402 net.cpp:367] relu2 -> conv2 (in-place)
I0117 18:59:31.671450 186402 net.cpp:122] Setting up relu2
I0117 18:59:31.671458 186402 net.cpp:129] Top shape: 200 256 27 27 (37324800)
I0117 18:59:31.671465 186402 net.cpp:137] Memory required for data: 1758876000
I0117 18:59:31.671473 186402 layer_factory.hpp:77] Creating layer pool2
I0117 18:59:31.671484 186402 net.cpp:84] Creating Layer pool2
I0117 18:59:31.671491 186402 net.cpp:406] pool2 <- conv2
I0117 18:59:31.671501 186402 net.cpp:380] pool2 -> pool2
I0117 18:59:31.671550 186402 net.cpp:122] Setting up pool2
I0117 18:59:31.671615 186402 net.cpp:129] Top shape: 200 256 13 13 (8652800)
I0117 18:59:31.671622 186402 net.cpp:137] Memory required for data: 1793487200
I0117 18:59:31.671629 186402 layer_factory.hpp:77] Creating layer quantized_conv1
I0117 18:59:31.671643 186402 net.cpp:84] Creating Layer quantized_conv1
I0117 18:59:31.671651 186402 net.cpp:406] quantized_conv1 <- pool2
I0117 18:59:31.671661 186402 net.cpp:367] quantized_conv1 -> pool2 (in-place)
I0117 18:59:31.671674 186402 net.cpp:122] Setting up quantized_conv1
I0117 18:59:31.671682 186402 net.cpp:129] Top shape: 200 256 13 13 (8652800)
I0117 18:59:31.671689 186402 net.cpp:137] Memory required for data: 1828098400
I0117 18:59:31.671695 186402 layer_factory.hpp:77] Creating layer conv3
I0117 18:59:31.671713 186402 net.cpp:84] Creating Layer conv3
I0117 18:59:31.671720 186402 net.cpp:406] conv3 <- pool2
I0117 18:59:31.671730 186402 net.cpp:380] conv3 -> conv3
ydwu=======get:
bit_width=8;  round_method=0;  round_strategy=1;  is_runtime=0;  range_low=-0.621858;  range_high=0.673858
I0117 18:59:31.688441 186402 net.cpp:122] Setting up conv3
I0117 18:59:31.688491 186402 net.cpp:129] Top shape: 200 384 13 13 (12979200)
I0117 18:59:31.688499 186402 net.cpp:137] Memory required for data: 1880015200
I0117 18:59:31.688525 186402 layer_factory.hpp:77] Creating layer bn3
I0117 18:59:31.688557 186402 net.cpp:84] Creating Layer bn3
I0117 18:59:31.688566 186402 net.cpp:406] bn3 <- conv3
I0117 18:59:31.688578 186402 net.cpp:367] bn3 -> conv3 (in-place)
I0117 18:59:31.688805 186402 net.cpp:122] Setting up bn3
I0117 18:59:31.688819 186402 net.cpp:129] Top shape: 200 384 13 13 (12979200)
I0117 18:59:31.688838 186402 net.cpp:137] Memory required for data: 1931932000
I0117 18:59:31.688861 186402 layer_factory.hpp:77] Creating layer scale3
I0117 18:59:31.688881 186402 net.cpp:84] Creating Layer scale3
I0117 18:59:31.688887 186402 net.cpp:406] scale3 <- conv3
I0117 18:59:31.688896 186402 net.cpp:367] scale3 -> conv3 (in-place)
I0117 18:59:31.688967 186402 layer_factory.hpp:77] Creating layer scale3
I0117 18:59:31.689124 186402 net.cpp:122] Setting up scale3
I0117 18:59:31.689138 186402 net.cpp:129] Top shape: 200 384 13 13 (12979200)
I0117 18:59:31.689157 186402 net.cpp:137] Memory required for data: 1983848800
I0117 18:59:31.689167 186402 layer_factory.hpp:77] Creating layer relu3
I0117 18:59:31.689179 186402 net.cpp:84] Creating Layer relu3
I0117 18:59:31.689187 186402 net.cpp:406] relu3 <- conv3
I0117 18:59:31.689196 186402 net.cpp:367] relu3 -> conv3 (in-place)
I0117 18:59:31.689208 186402 net.cpp:122] Setting up relu3
I0117 18:59:31.689216 186402 net.cpp:129] Top shape: 200 384 13 13 (12979200)
I0117 18:59:31.689221 186402 net.cpp:137] Memory required for data: 2035765600
I0117 18:59:31.689229 186402 layer_factory.hpp:77] Creating layer quantized_conv1
I0117 18:59:31.689241 186402 net.cpp:84] Creating Layer quantized_conv1
I0117 18:59:31.689249 186402 net.cpp:406] quantized_conv1 <- conv3
I0117 18:59:31.689258 186402 net.cpp:367] quantized_conv1 -> conv3 (in-place)
I0117 18:59:31.689271 186402 net.cpp:122] Setting up quantized_conv1
I0117 18:59:31.689280 186402 net.cpp:129] Top shape: 200 384 13 13 (12979200)
I0117 18:59:31.689286 186402 net.cpp:137] Memory required for data: 2087682400
I0117 18:59:31.689293 186402 layer_factory.hpp:77] Creating layer conv4
I0117 18:59:31.689311 186402 net.cpp:84] Creating Layer conv4
I0117 18:59:31.689319 186402 net.cpp:406] conv4 <- conv3
I0117 18:59:31.689330 186402 net.cpp:380] conv4 -> conv4
ydwu=======get:
bit_width=8;  round_method=0;  round_strategy=1;  is_runtime=0;  range_low=-0.376634;  range_high=0.341829
I0117 18:59:31.712929 186402 net.cpp:122] Setting up conv4
I0117 18:59:31.712973 186402 net.cpp:129] Top shape: 200 384 13 13 (12979200)
I0117 18:59:31.712982 186402 net.cpp:137] Memory required for data: 2139599200
I0117 18:59:31.712999 186402 layer_factory.hpp:77] Creating layer bn4
I0117 18:59:31.713028 186402 net.cpp:84] Creating Layer bn4
I0117 18:59:31.713037 186402 net.cpp:406] bn4 <- conv4
I0117 18:59:31.713052 186402 net.cpp:367] bn4 -> conv4 (in-place)
I0117 18:59:31.713301 186402 net.cpp:122] Setting up bn4
I0117 18:59:31.713330 186402 net.cpp:129] Top shape: 200 384 13 13 (12979200)
I0117 18:59:31.713337 186402 net.cpp:137] Memory required for data: 2191516000
I0117 18:59:31.713407 186402 layer_factory.hpp:77] Creating layer scale4
I0117 18:59:31.713421 186402 net.cpp:84] Creating Layer scale4
I0117 18:59:31.713428 186402 net.cpp:406] scale4 <- conv4
I0117 18:59:31.713438 186402 net.cpp:367] scale4 -> conv4 (in-place)
I0117 18:59:31.713501 186402 layer_factory.hpp:77] Creating layer scale4
I0117 18:59:31.713649 186402 net.cpp:122] Setting up scale4
I0117 18:59:31.713663 186402 net.cpp:129] Top shape: 200 384 13 13 (12979200)
I0117 18:59:31.713670 186402 net.cpp:137] Memory required for data: 2243432800
I0117 18:59:31.713681 186402 layer_factory.hpp:77] Creating layer relu4
I0117 18:59:31.713696 186402 net.cpp:84] Creating Layer relu4
I0117 18:59:31.713704 186402 net.cpp:406] relu4 <- conv4
I0117 18:59:31.713713 186402 net.cpp:367] relu4 -> conv4 (in-place)
I0117 18:59:31.713724 186402 net.cpp:122] Setting up relu4
I0117 18:59:31.713732 186402 net.cpp:129] Top shape: 200 384 13 13 (12979200)
I0117 18:59:31.713739 186402 net.cpp:137] Memory required for data: 2295349600
I0117 18:59:31.713747 186402 layer_factory.hpp:77] Creating layer quantized_conv1
I0117 18:59:31.713758 186402 net.cpp:84] Creating Layer quantized_conv1
I0117 18:59:31.713765 186402 net.cpp:406] quantized_conv1 <- conv4
I0117 18:59:31.713778 186402 net.cpp:367] quantized_conv1 -> conv4 (in-place)
I0117 18:59:31.713788 186402 net.cpp:122] Setting up quantized_conv1
I0117 18:59:31.713804 186402 net.cpp:129] Top shape: 200 384 13 13 (12979200)
I0117 18:59:31.713809 186402 net.cpp:137] Memory required for data: 2347266400
I0117 18:59:31.713824 186402 layer_factory.hpp:77] Creating layer conv5
I0117 18:59:31.713843 186402 net.cpp:84] Creating Layer conv5
I0117 18:59:31.713851 186402 net.cpp:406] conv5 <- conv4
I0117 18:59:31.713861 186402 net.cpp:380] conv5 -> conv5
ydwu=======get:
bit_width=8;  round_method=0;  round_strategy=1;  is_runtime=0;  range_low=-0.347658;  range_high=0.330042
I0117 18:59:31.729841 186402 net.cpp:122] Setting up conv5
I0117 18:59:31.729876 186402 net.cpp:129] Top shape: 200 256 13 13 (8652800)
I0117 18:59:31.729884 186402 net.cpp:137] Memory required for data: 2381877600
I0117 18:59:31.729902 186402 layer_factory.hpp:77] Creating layer bn5
I0117 18:59:31.729923 186402 net.cpp:84] Creating Layer bn5
I0117 18:59:31.729933 186402 net.cpp:406] bn5 <- conv5
I0117 18:59:31.729945 186402 net.cpp:367] bn5 -> conv5 (in-place)
I0117 18:59:31.730180 186402 net.cpp:122] Setting up bn5
I0117 18:59:31.730195 186402 net.cpp:129] Top shape: 200 256 13 13 (8652800)
I0117 18:59:31.730203 186402 net.cpp:137] Memory required for data: 2416488800
I0117 18:59:31.730228 186402 layer_factory.hpp:77] Creating layer scale5
I0117 18:59:31.730245 186402 net.cpp:84] Creating Layer scale5
I0117 18:59:31.730253 186402 net.cpp:406] scale5 <- conv5
I0117 18:59:31.730263 186402 net.cpp:367] scale5 -> conv5 (in-place)
I0117 18:59:31.730329 186402 layer_factory.hpp:77] Creating layer scale5
I0117 18:59:31.730460 186402 net.cpp:122] Setting up scale5
I0117 18:59:31.730474 186402 net.cpp:129] Top shape: 200 256 13 13 (8652800)
I0117 18:59:31.730481 186402 net.cpp:137] Memory required for data: 2451100000
I0117 18:59:31.730494 186402 layer_factory.hpp:77] Creating layer relu5
I0117 18:59:31.730504 186402 net.cpp:84] Creating Layer relu5
I0117 18:59:31.730511 186402 net.cpp:406] relu5 <- conv5
I0117 18:59:31.730523 186402 net.cpp:367] relu5 -> conv5 (in-place)
I0117 18:59:31.730535 186402 net.cpp:122] Setting up relu5
I0117 18:59:31.730545 186402 net.cpp:129] Top shape: 200 256 13 13 (8652800)
I0117 18:59:31.730551 186402 net.cpp:137] Memory required for data: 2485711200
I0117 18:59:31.730557 186402 layer_factory.hpp:77] Creating layer pool5
I0117 18:59:31.730569 186402 net.cpp:84] Creating Layer pool5
I0117 18:59:31.730576 186402 net.cpp:406] pool5 <- conv5
I0117 18:59:31.730585 186402 net.cpp:380] pool5 -> pool5
I0117 18:59:31.730638 186402 net.cpp:122] Setting up pool5
I0117 18:59:31.730651 186402 net.cpp:129] Top shape: 200 256 6 6 (1843200)
I0117 18:59:31.730659 186402 net.cpp:137] Memory required for data: 2493084000
I0117 18:59:31.730665 186402 layer_factory.hpp:77] Creating layer quantized_conv1
I0117 18:59:31.730720 186402 net.cpp:84] Creating Layer quantized_conv1
I0117 18:59:31.730729 186402 net.cpp:406] quantized_conv1 <- pool5
I0117 18:59:31.730738 186402 net.cpp:367] quantized_conv1 -> pool5 (in-place)
I0117 18:59:31.730751 186402 net.cpp:122] Setting up quantized_conv1
I0117 18:59:31.730760 186402 net.cpp:129] Top shape: 200 256 6 6 (1843200)
I0117 18:59:31.730767 186402 net.cpp:137] Memory required for data: 2500456800
I0117 18:59:31.730774 186402 layer_factory.hpp:77] Creating layer fc6
I0117 18:59:31.730787 186402 net.cpp:84] Creating Layer fc6
I0117 18:59:31.730794 186402 net.cpp:406] fc6 <- pool5
I0117 18:59:31.730808 186402 net.cpp:380] fc6 -> fc6
I0117 18:59:31.730828 186402 quan_inner_product_layer.cpp:21] 4096   4096
ydwu=======get:
bit_width=8;  round_method=0;  round_strategy=1;  is_runtime=0;  range_low=-0.160061;  range_high=0.148064
I0117 18:59:32.415988 186402 net.cpp:122] Setting up fc6
I0117 18:59:32.416035 186402 net.cpp:129] Top shape: 200 4096 (819200)
I0117 18:59:32.416043 186402 net.cpp:137] Memory required for data: 2503733600
I0117 18:59:32.416062 186402 layer_factory.hpp:77] Creating layer bn6
I0117 18:59:32.416080 186402 net.cpp:84] Creating Layer bn6
I0117 18:59:32.416088 186402 net.cpp:406] bn6 <- fc6
I0117 18:59:32.416105 186402 net.cpp:367] bn6 -> fc6 (in-place)
I0117 18:59:32.416390 186402 net.cpp:122] Setting up bn6
I0117 18:59:32.416404 186402 net.cpp:129] Top shape: 200 4096 (819200)
I0117 18:59:32.416422 186402 net.cpp:137] Memory required for data: 2507010400
I0117 18:59:32.416451 186402 layer_factory.hpp:77] Creating layer scale6
I0117 18:59:32.416487 186402 net.cpp:84] Creating Layer scale6
I0117 18:59:32.416494 186402 net.cpp:406] scale6 <- fc6
I0117 18:59:32.416502 186402 net.cpp:367] scale6 -> fc6 (in-place)
I0117 18:59:32.416569 186402 layer_factory.hpp:77] Creating layer scale6
I0117 18:59:32.416725 186402 net.cpp:122] Setting up scale6
I0117 18:59:32.416739 186402 net.cpp:129] Top shape: 200 4096 (819200)
I0117 18:59:32.416759 186402 net.cpp:137] Memory required for data: 2510287200
I0117 18:59:32.416769 186402 layer_factory.hpp:77] Creating layer relu6
I0117 18:59:32.416779 186402 net.cpp:84] Creating Layer relu6
I0117 18:59:32.416786 186402 net.cpp:406] relu6 <- fc6
I0117 18:59:32.416797 186402 net.cpp:367] relu6 -> fc6 (in-place)
I0117 18:59:32.416808 186402 net.cpp:122] Setting up relu6
I0117 18:59:32.416817 186402 net.cpp:129] Top shape: 200 4096 (819200)
I0117 18:59:32.416822 186402 net.cpp:137] Memory required for data: 2513564000
I0117 18:59:32.416829 186402 layer_factory.hpp:77] Creating layer drop6
I0117 18:59:32.416841 186402 net.cpp:84] Creating Layer drop6
I0117 18:59:32.416848 186402 net.cpp:406] drop6 <- fc6
I0117 18:59:32.416857 186402 net.cpp:367] drop6 -> fc6 (in-place)
I0117 18:59:32.416899 186402 net.cpp:122] Setting up drop6
I0117 18:59:32.416911 186402 net.cpp:129] Top shape: 200 4096 (819200)
I0117 18:59:32.416918 186402 net.cpp:137] Memory required for data: 2516840800
I0117 18:59:32.416925 186402 layer_factory.hpp:77] Creating layer quantized_conv1
I0117 18:59:32.416937 186402 net.cpp:84] Creating Layer quantized_conv1
I0117 18:59:32.416944 186402 net.cpp:406] quantized_conv1 <- fc6
I0117 18:59:32.416956 186402 net.cpp:367] quantized_conv1 -> fc6 (in-place)
I0117 18:59:32.416968 186402 net.cpp:122] Setting up quantized_conv1
I0117 18:59:32.416977 186402 net.cpp:129] Top shape: 200 4096 (819200)
I0117 18:59:32.416985 186402 net.cpp:137] Memory required for data: 2520117600
I0117 18:59:32.416991 186402 layer_factory.hpp:77] Creating layer fc7
I0117 18:59:32.417004 186402 net.cpp:84] Creating Layer fc7
I0117 18:59:32.417011 186402 net.cpp:406] fc7 <- fc6
I0117 18:59:32.417021 186402 net.cpp:380] fc7 -> fc7
I0117 18:59:32.417034 186402 quan_inner_product_layer.cpp:21] 4096   4096
ydwu=======get:
bit_width=8;  round_method=0;  round_strategy=1;  is_runtime=0;  range_low=-0.162636;  range_high=0.197684
I0117 18:59:32.710057 186402 net.cpp:122] Setting up fc7
I0117 18:59:32.710127 186402 net.cpp:129] Top shape: 200 4096 (819200)
I0117 18:59:32.710139 186402 net.cpp:137] Memory required for data: 2523394400
I0117 18:59:32.710162 186402 layer_factory.hpp:77] Creating layer bn7
I0117 18:59:32.710187 186402 net.cpp:84] Creating Layer bn7
I0117 18:59:32.710198 186402 net.cpp:406] bn7 <- fc7
I0117 18:59:32.710284 186402 net.cpp:367] bn7 -> fc7 (in-place)
I0117 18:59:32.710556 186402 net.cpp:122] Setting up bn7
I0117 18:59:32.710569 186402 net.cpp:129] Top shape: 200 4096 (819200)
I0117 18:59:32.710587 186402 net.cpp:137] Memory required for data: 2526671200
I0117 18:59:32.710600 186402 layer_factory.hpp:77] Creating layer scale7
I0117 18:59:32.710613 186402 net.cpp:84] Creating Layer scale7
I0117 18:59:32.710620 186402 net.cpp:406] scale7 <- fc7
I0117 18:59:32.710633 186402 net.cpp:367] scale7 -> fc7 (in-place)
I0117 18:59:32.710711 186402 layer_factory.hpp:77] Creating layer scale7
I0117 18:59:32.710870 186402 net.cpp:122] Setting up scale7
I0117 18:59:32.710882 186402 net.cpp:129] Top shape: 200 4096 (819200)
I0117 18:59:32.710901 186402 net.cpp:137] Memory required for data: 2529948000
I0117 18:59:32.710911 186402 layer_factory.hpp:77] Creating layer relu7
I0117 18:59:32.710922 186402 net.cpp:84] Creating Layer relu7
I0117 18:59:32.710929 186402 net.cpp:406] relu7 <- fc7
I0117 18:59:32.710938 186402 net.cpp:367] relu7 -> fc7 (in-place)
I0117 18:59:32.710948 186402 net.cpp:122] Setting up relu7
I0117 18:59:32.710958 186402 net.cpp:129] Top shape: 200 4096 (819200)
I0117 18:59:32.710963 186402 net.cpp:137] Memory required for data: 2533224800
I0117 18:59:32.710970 186402 layer_factory.hpp:77] Creating layer drop7
I0117 18:59:32.710986 186402 net.cpp:84] Creating Layer drop7
I0117 18:59:32.710994 186402 net.cpp:406] drop7 <- fc7
I0117 18:59:32.711001 186402 net.cpp:367] drop7 -> fc7 (in-place)
I0117 18:59:32.711037 186402 net.cpp:122] Setting up drop7
I0117 18:59:32.711050 186402 net.cpp:129] Top shape: 200 4096 (819200)
I0117 18:59:32.711056 186402 net.cpp:137] Memory required for data: 2536501600
I0117 18:59:32.711063 186402 layer_factory.hpp:77] Creating layer quantized_conv1
I0117 18:59:32.711077 186402 net.cpp:84] Creating Layer quantized_conv1
I0117 18:59:32.711084 186402 net.cpp:406] quantized_conv1 <- fc7
I0117 18:59:32.711097 186402 net.cpp:367] quantized_conv1 -> fc7 (in-place)
I0117 18:59:32.711109 186402 net.cpp:122] Setting up quantized_conv1
I0117 18:59:32.711119 186402 net.cpp:129] Top shape: 200 4096 (819200)
I0117 18:59:32.711125 186402 net.cpp:137] Memory required for data: 2539778400
I0117 18:59:32.711133 186402 layer_factory.hpp:77] Creating layer fc8
I0117 18:59:32.711146 186402 net.cpp:84] Creating Layer fc8
I0117 18:59:32.711153 186402 net.cpp:406] fc8 <- fc7
I0117 18:59:32.711163 186402 net.cpp:380] fc8 -> fc8
I0117 18:59:32.711179 186402 quan_inner_product_layer.cpp:21] 1000   1000
ydwu=======get:
bit_width=8;  round_method=0;  round_strategy=1;  is_runtime=0;  range_low=-0.141857;  range_high=0.274249
I0117 18:59:32.785195 186402 net.cpp:122] Setting up fc8
I0117 18:59:32.785264 186402 net.cpp:129] Top shape: 200 1000 (200000)
I0117 18:59:32.785277 186402 net.cpp:137] Memory required for data: 2540578400
I0117 18:59:32.785307 186402 layer_factory.hpp:77] Creating layer fc8_fc8_0_split
I0117 18:59:32.785351 186402 net.cpp:84] Creating Layer fc8_fc8_0_split
I0117 18:59:32.785362 186402 net.cpp:406] fc8_fc8_0_split <- fc8
I0117 18:59:32.785375 186402 net.cpp:380] fc8_fc8_0_split -> fc8_fc8_0_split_0
I0117 18:59:32.785398 186402 net.cpp:380] fc8_fc8_0_split -> fc8_fc8_0_split_1
I0117 18:59:32.785468 186402 net.cpp:122] Setting up fc8_fc8_0_split
I0117 18:59:32.785480 186402 net.cpp:129] Top shape: 200 1000 (200000)
I0117 18:59:32.785490 186402 net.cpp:129] Top shape: 200 1000 (200000)
I0117 18:59:32.785495 186402 net.cpp:137] Memory required for data: 2542178400
I0117 18:59:32.785502 186402 layer_factory.hpp:77] Creating layer accuracy_5_TRAIN
I0117 18:59:32.785524 186402 net.cpp:84] Creating Layer accuracy_5_TRAIN
I0117 18:59:32.785531 186402 net.cpp:406] accuracy_5_TRAIN <- fc8_fc8_0_split_0
I0117 18:59:32.785540 186402 net.cpp:406] accuracy_5_TRAIN <- label_data_1_split_0
…
I0117 18:59:32.788890 186402 net.cpp:294] The NetState phase (1) differed from the phase (0) specified by a rule in layer accuracy_5_TRAIN
I0117 18:59:32.789214 186402 net.cpp:51] Initializing net from parameters: 
name: "AlexNet-BN"
state {
  phase: TEST
}
layer {
  name: "data"
  type: "Data"
  top: "data"
  top: "label"
  include {
    phase: TEST
  }
  transform_param {
    mirror: false
    crop_size: 224
    mean_value: 103.939
    mean_value: 116.779
    mean_value: 123.68
  }
  data_param {
    source: "/home/DATA/imagenet_resize/lmdb_resize/ilsvrc12_val_lmdb"
    batch_size: 200
    backend: LMDB
  }
}
layer {
  name: "conv1"
  type: "QuanConvolution"
  bottom: "data"
  top: "conv1"
  param {
    lr_mult: 1
    decay_mult: 1
  }
  param {
    lr_mult: 2
    decay_mult: 0
  }
  quan_convolution_param {
    num_output: 96
    pad: 2
    kernel_size: 11
    stride: 4
    weight_filler {
      type: "gaussian"
      std: 0.01
    }
    bias_filler {
      type: "constant"
      value: 0
    }
    round_method: ROUND
    round_strategy: NEUTRAL
    bit_width: 8
    range_low: -0.872089
    range_high: 0.927025
  }
}
layer {
  name: "bn1"
  type: "BatchNorm"
  bottom: "conv1"
  top: "conv1"
}
layer {
  name: "scale1"
  type: "Scale"
  bottom: "conv1"
  top: "conv1"
  scale_param {
    bias_term: true
  }
}
layer {
  name: "relu1"
  type: "ReLU"
  bottom: "conv1"
  top: "conv1"
}
layer {
  name: "pool1"
  type: "Pooling"
  bottom: "conv1"
  top: "pool1"
  pooling_param {
    pool: MAX
    kernel_size: 3
    stride: 2
  }
}
layer {
  name: "quantized_conv1"
  type: "Quantization"
  bottom: "pool1"
  top: "pool1"
  quantization_param {
    round_method: ROUND
    round_strategy: AGGRESSIVE
    bit_width: 8
    range: 0
    range: 13.965383
  }
}
layer {
  name: "conv2"
  type: "QuanConvolution"
  bottom: "pool1"
  top: "conv2"
  param {
    lr_mult: 1
    decay_mult: 1
  }
  param {
    lr_mult: 2
    decay_mult: 0
  }
  quan_convolution_param {
    num_output: 256
    pad: 2
    kernel_size: 5
    weight_filler {
      type: "gaussian"
      std: 0.01
    }
    bias_filler {
      type: "constant"
      value: 0.1
    }
    round_method: ROUND
    round_strategy: NEUTRAL
    bit_width: 8
    range_low: -0.806018
    range_high: 1.5182
  }
}
layer {
  name: "bn2"
  type: "BatchNorm"
  bottom: "conv2"
  top: "conv2"
}
layer {
  name: "scale2"
  type: "Scale"
  bottom: "conv2"
  top: "conv2"
  scale_param {
    bias_term: true
  }
}
layer {
  name: "relu2"
  type: "ReLU"
  bottom: "conv2"
  top: "conv2"
}
layer {
  name: "pool2"
  type: "Pooling"
  bottom: "conv2"
  top: "pool2"
  pooling_param {
    pool: MAX
    kernel_size: 3
    stride: 2
  }
}
layer {
  name: "quantized_conv1"
  type: "Quantization"
  bottom: "pool2"
  top: "pool2"
  quantization_param {
    round_method: ROUND
    round_strategy: AGGRESSIVE
    bit_width: 8
    range: 0
    range: 6.74956
  }
}
layer {
  name: "conv3"
  type: "QuanConvolution"
  bottom: "pool2"
  top: "conv3"
  param {
    lr_mult: 1
    decay_mult: 1
  }
  param {
    lr_mult: 2
    decay_mult: 0
  }
  quan_convolution_param {
    num_output: 384
    pad: 1
    kernel_size: 3
    weight_filler {
      type: "gaussian"
      std: 0.01
    }
    bias_filler {
      type: "constant"
      value: 0
    }
    round_method: ROUND
    round_strategy: NEUTRAL
    bit_width: 8
    range_low: -0.621858
    range_high: 0.673858
  }
}
layer {
  name: "bn3"
  type: "BatchNorm"
  bottom: "conv3"
  top: "conv3"
}
layer {
  name: "scale3"
  type: "Scale"
  bottom: "conv3"
  top: "conv3"
  scale_param {
    bias_term: true
  }
}
layer {
  name: "relu3"
  type: "ReLU"
  bottom: "conv3"
  top: "conv3"
}
layer {
  name: "quantized_conv1"
  type: "Quantization"
  bottom: "conv3"
  top: "conv3"
  quantization_param {
    round_method: ROUND
    round_strategy: AGGRESSIVE
    bit_width: 8
    range: 0
    range: 8.48454
  }
}
layer {
  name: "conv4"
  type: "QuanConvolution"
  bottom: "conv3"
  top: "conv4"
  param {
    lr_mult: 1
    decay_mult: 1
  }
  param {
    lr_mult: 2
    decay_mult: 0
  }
  quan_convolution_param {
    num_output: 384
    pad: 1
    kernel_size: 3
    weight_filler {
      type: "gaussian"
      std: 0.01
    }
    bias_filler {
      type: "constant"
      value: 0.1
    }
    round_method: ROUND
    round_strategy: NEUTRAL
    bit_width: 8
    range_low: -0.376634
    range_high: 0.341829
  }
}
layer {
  name: "bn4"
  type: "BatchNorm"
  bottom: "conv4"
  top: "conv4"
}
layer {
  name: "scale4"
  type: "Scale"
  bottom: "conv4"
  top: "conv4"
  scale_param {
    bias_term: true
  }
}
layer {
  name: "relu4"
  type: "ReLU"
  bottom: "conv4"
  top: "conv4"
}
layer {
  name: "quantized_conv1"
  type: "Quantization"
  bottom: "conv4"
  top: "conv4"
  quantization_param {
    round_method: ROUND
    round_strategy: AGGRESSIVE
    bit_width: 8
    range: 0
    range: 7.3369722
  }
}
layer {
  name: "conv5"
  type: "QuanConvolution"
  bottom: "conv4"
  top: "conv5"
  param {
    lr_mult: 1
    decay_mult: 1
  }
  param {
    lr_mult: 2
    decay_mult: 0
  }
  quan_convolution_param {
    num_output: 256
    pad: 1
    kernel_size: 3
    weight_filler {
      type: "gaussian"
      std: 0.01
    }
    bias_filler {
      type: "constant"
      value: 0.1
    }
    round_method: ROUND
    round_strategy: NEUTRAL
    bit_width: 8
    range_low: -0.347658
    range_high: 0.330042
  }
}
layer {
  name: "bn5"
  type: "BatchNorm"
  bottom: "conv5"
  top: "conv5"
}
layer {
  name: "scale5"
  type: "Scale"
  bottom: "conv5"
  top: "conv5"
  scale_param {
    bias_term: true
  }
}
layer {
  name: "relu5"
  type: "ReLU"
  bottom: "conv5"
  top: "conv5"
}
layer {
  name: "pool5"
  type: "Pooling"
  bottom: "conv5"
  top: "pool5"
  pooling_param {
    pool: MAX
    kernel_size: 3
    stride: 2
  }
}
layer {
  name: "quantized_conv1"
  type: "Quantization"
  bottom: "pool5"
  top: "pool5"
  quantization_param {
    round_method: ROUND
    round_strategy: AGGRESSIVE
    bit_width: 8
    range: 0
    range: 8.7577133
  }
}
layer {
  name: "fc6"
  type: "QuanInnerProduct"
  bottom: "pool5"
  top: "fc6"
  param {
    lr_mult: 1
    decay_mult: 1
  }
  param {
    lr_mult: 2
    decay_mult: 0
  }
  quan_inner_product_param {
    num_output: 4096
    weight_filler {
      type: "gaussian"
      std: 0.005
    }
    bias_filler {
      type: "constant"
      value: 0.1
    }
    round_method: ROUND
    round_strategy: NEUTRAL
    bit_width: 8
    range_low: -0.160061
    range_high: 0.148064
  }
}
layer {
  name: "bn6"
  type: "BatchNorm"
  bottom: "fc6"
  top: "fc6"
}
layer {
  name: "scale6"
  type: "Scale"
  bottom: "fc6"
  top: "fc6"
  scale_param {
    bias_term: true
  }
}
layer {
  name: "relu6"
  type: "ReLU"
  bottom: "fc6"
  top: "fc6"
}
layer {
  name: "drop6"
  type: "Dropout"
  bottom: "fc6"
  top: "fc6"
  dropout_param {
    dropout_ratio: 0.5
  }
}
layer {
  name: "quantized_conv1"
  type: "Quantization"
  bottom: "fc6"
  top: "fc6"
  quantization_param {
    round_method: ROUND
    round_strategy: AGGRESSIVE
    bit_width: 8
    range: 0
    range: 1.659358
  }
}
layer {
  name: "fc7"
  type: "QuanInnerProduct"
  bottom: "fc6"
  top: "fc7"
  param {
    lr_mult: 1
    decay_mult: 1
  }
  param {
    lr_mult: 2
    decay_mult: 0
  }
  quan_inner_product_param {
    num_output: 4096
    weight_filler {
      type: "gaussian"
      std: 0.005
    }
    bias_filler {
      type: "constant"
      value: 0.1
    }
    round_method: ROUND
    round_strategy: NEUTRAL
    bit_width: 8
    range_low: -0.162636
    range_high: 0.197684
  }
}
layer {
  name: "bn7"
  type: "BatchNorm"
  bottom: "fc7"
  top: "fc7"
}
layer {
  name: "scale7"
  type: "Scale"
  bottom: "fc7"
  top: "fc7"
  scale_param {
    bias_term: true
  }
}
layer {
  name: "relu7"
  type: "ReLU"
  bottom: "fc7"
  top: "fc7"
}
layer {
  name: "drop7"
  type: "Dropout"
  bottom: "fc7"
  top: "fc7"
  dropout_param {
    dropout_ratio: 0.5
  }
}
layer {
  name: "quantized_conv1"
  type: "Quantization"
  bottom: "fc7"
  top: "fc7"
  quantization_param {
    round_method: ROUND
    round_strategy: AGGRESSIVE
    bit_width: 8
    range: 0
    range: 7.5598521
  }
}
layer {
  name: "fc8"
  type: "QuanInnerProduct"
  bottom: "fc7"
  top: "fc8"
  param {
    lr_mult: 1
    decay_mult: 1
  }
  param {
    lr_mult: 2
    decay_mult: 0
  }
  quan_inner_product_param {
    num_output: 1000
    weight_filler {
      type: "gaussian"
      std: 0.01
    }
    bias_filler {
      type: "constant"
      value: 0
    }
    round_method: ROUND
    round_strategy: NEUTRAL
    bit_width: 8
    range_low: -0.141857
    range_high: 0.274249
  }
}
layer {
  name: "accuracy"
  type: "Accuracy"
  bottom: "fc8"
  bottom: "label"
  top: "accuracy"
  include {
    phase: TEST
  }
}
layer {
  name: "accuracy_5"
  type: "Accuracy"
  bottom: "fc8"
  bottom: "label"
  top: "accuracy_5"
  include {
    phase: TEST
  }
  accuracy_param {
    top_k: 5
  }
}
layer {
  name: "loss"
  type: "SoftmaxWithLoss"
  bottom: "fc8"
  bottom: "label"
  top: "loss"
}
I0117 18:59:32.789440 186402 layer_factory.hpp:77] Creating layer data
I0117 18:59:32.789546 186402 db_lmdb.cpp:35] Opened lmdb /home/DATA/imagenet_resize/lmdb_resize/ilsvrc12_val_lmdb
I0117 18:59:32.789597 186402 net.cpp:84] Creating Layer data
I0117 18:59:32.789611 186402 net.cpp:380] data -> data
I0117 18:59:32.789625 186402 net.cpp:380] data -> label
I0117 18:59:32.790033 186402 data_layer.cpp:45] output data size: 200,3,224,224
I0117 18:59:33.438889 186402 net.cpp:122] Setting up data
I0117 18:59:33.438961 186402 net.cpp:129] Top shape: 200 3 224 224 (30105600)
I0117 18:59:33.438971 186402 net.cpp:129] Top shape: 200 (200)
I0117 18:59:33.438980 186402 net.cpp:137] Memory required for data: 120423200
I0117 18:59:33.438992 186402 layer_factory.hpp:77] Creating layer label_data_1_split
I0117 18:59:33.439028 186402 net.cpp:84] Creating Layer label_data_1_split
I0117 18:59:33.439038 186402 net.cpp:406] label_data_1_split <- label
I0117 18:59:33.439051 186402 net.cpp:380] label_data_1_split -> label_data_1_split_0
I0117 18:59:33.439071 186402 net.cpp:380] label_data_1_split -> label_data_1_split_1
I0117 18:59:33.439083 186402 net.cpp:380] label_data_1_split -> label_data_1_split_2
I0117 18:59:33.439229 186402 net.cpp:122] Setting up label_data_1_split
I0117 18:59:33.439241 186402 net.cpp:129] Top shape: 200 (200)
I0117 18:59:33.439247 186402 net.cpp:129] Top shape: 200 (200)
I0117 18:59:33.439261 186402 net.cpp:129] Top shape: 200 (200)
I0117 18:59:33.439266 186402 net.cpp:137] Memory required for data: 120425600
I0117 18:59:33.439272 186402 layer_factory.hpp:77] Creating layer conv1
I0117 18:59:33.439293 186402 net.cpp:84] Creating Layer conv1
I0117 18:59:33.439301 186402 net.cpp:406] conv1 <- data
I0117 18:59:33.439311 186402 net.cpp:380] conv1 -> conv1
ydwu=======get:
bit_width=8;  round_method=0;  round_strategy=1;  is_runtime=0;  range_low=-0.872089;  range_high=0.927025
I0117 18:59:33.440387 186402 net.cpp:122] Setting up conv1
I0117 18:59:33.440421 186402 net.cpp:129] Top shape: 200 96 55 55 (58080000)
I0117 18:59:33.440428 186402 net.cpp:137] Memory required for data: 352745600
I0117 18:59:33.440449 186402 layer_factory.hpp:77] Creating layer bn1
I0117 18:59:33.440466 186402 net.cpp:84] Creating Layer bn1
I0117 18:59:33.440474 186402 net.cpp:406] bn1 <- conv1
I0117 18:59:33.440485 186402 net.cpp:367] bn1 -> conv1 (in-place)
I0117 18:59:33.440886 186402 net.cpp:122] Setting up bn1
I0117 18:59:33.440910 186402 net.cpp:129] Top shape: 200 96 55 55 (58080000)
I0117 18:59:33.440917 186402 net.cpp:137] Memory required for data: 585065600
I0117 18:59:33.440937 186402 layer_factory.hpp:77] Creating layer scale1
I0117 18:59:33.440953 186402 net.cpp:84] Creating Layer scale1
I0117 18:59:33.440961 186402 net.cpp:406] scale1 <- conv1
I0117 18:59:33.441025 186402 net.cpp:367] scale1 -> conv1 (in-place)
I0117 18:59:33.459360 186402 layer_factory.hpp:77] Creating layer scale1
I0117 18:59:33.459532 186402 net.cpp:122] Setting up scale1
I0117 18:59:33.459549 186402 net.cpp:129] Top shape: 200 96 55 55 (58080000)
I0117 18:59:33.459556 186402 net.cpp:137] Memory required for data: 817385600
I0117 18:59:33.459569 186402 layer_factory.hpp:77] Creating layer relu1
I0117 18:59:33.459580 186402 net.cpp:84] Creating Layer relu1
I0117 18:59:33.459599 186402 net.cpp:406] relu1 <- conv1
I0117 18:59:33.459609 186402 net.cpp:367] relu1 -> conv1 (in-place)
I0117 18:59:33.459619 186402 net.cpp:122] Setting up relu1
I0117 18:59:33.459625 186402 net.cpp:129] Top shape: 200 96 55 55 (58080000)
I0117 18:59:33.459630 186402 net.cpp:137] Memory required for data: 1049705600
I0117 18:59:33.459635 186402 layer_factory.hpp:77] Creating layer pool1
I0117 18:59:33.459645 186402 net.cpp:84] Creating Layer pool1
I0117 18:59:33.459662 186402 net.cpp:406] pool1 <- conv1
I0117 18:59:33.459672 186402 net.cpp:380] pool1 -> pool1
I0117 18:59:33.459728 186402 net.cpp:122] Setting up pool1
I0117 18:59:33.459753 186402 net.cpp:129] Top shape: 200 96 27 27 (13996800)
I0117 18:59:33.459759 186402 net.cpp:137] Memory required for data: 1105692800
I0117 18:59:33.459764 186402 layer_factory.hpp:77] Creating layer quantized_conv1
I0117 18:59:33.459775 186402 net.cpp:84] Creating Layer quantized_conv1
I0117 18:59:33.459780 186402 net.cpp:406] quantized_conv1 <- pool1
I0117 18:59:33.459789 186402 net.cpp:367] quantized_conv1 -> pool1 (in-place)
I0117 18:59:33.459798 186402 net.cpp:122] Setting up quantized_conv1
I0117 18:59:33.459817 186402 net.cpp:129] Top shape: 200 96 27 27 (13996800)
I0117 18:59:33.459822 186402 net.cpp:137] Memory required for data: 1161680000
I0117 18:59:33.459828 186402 layer_factory.hpp:77] Creating layer conv2
I0117 18:59:33.459847 186402 net.cpp:84] Creating Layer conv2
I0117 18:59:33.459854 186402 net.cpp:406] conv2 <- pool1
I0117 18:59:33.459864 186402 net.cpp:380] conv2 -> conv2
ydwu=======get:
bit_width=8;  round_method=0;  round_strategy=1;  is_runtime=0;  range_low=-0.806018;  range_high=1.5182
I0117 18:59:33.471442 186402 net.cpp:122] Setting up conv2
I0117 18:59:33.471483 186402 net.cpp:129] Top shape: 200 256 27 27 (37324800)
I0117 18:59:33.471490 186402 net.cpp:137] Memory required for data: 1310979200
I0117 18:59:33.471510 186402 layer_factory.hpp:77] Creating layer bn2
I0117 18:59:33.471529 186402 net.cpp:84] Creating Layer bn2
I0117 18:59:33.471549 186402 net.cpp:406] bn2 <- conv2
I0117 18:59:33.471560 186402 net.cpp:367] bn2 -> conv2 (in-place)
I0117 18:59:33.471796 186402 net.cpp:122] Setting up bn2
I0117 18:59:33.471823 186402 net.cpp:129] Top shape: 200 256 27 27 (37324800)
I0117 18:59:33.471829 186402 net.cpp:137] Memory required for data: 1460278400
I0117 18:59:33.471842 186402 layer_factory.hpp:77] Creating layer scale2
I0117 18:59:33.471855 186402 net.cpp:84] Creating Layer scale2
I0117 18:59:33.471863 186402 net.cpp:406] scale2 <- conv2
I0117 18:59:33.471873 186402 net.cpp:367] scale2 -> conv2 (in-place)
I0117 18:59:33.471933 186402 layer_factory.hpp:77] Creating layer scale2
I0117 18:59:33.472069 186402 net.cpp:122] Setting up scale2
I0117 18:59:33.472084 186402 net.cpp:129] Top shape: 200 256 27 27 (37324800)
I0117 18:59:33.472091 186402 net.cpp:137] Memory required for data: 1609577600
I0117 18:59:33.472102 186402 layer_factory.hpp:77] Creating layer relu2
I0117 18:59:33.472113 186402 net.cpp:84] Creating Layer relu2
I0117 18:59:33.472121 186402 net.cpp:406] relu2 <- conv2
I0117 18:59:33.472131 186402 net.cpp:367] relu2 -> conv2 (in-place)
I0117 18:59:33.472142 186402 net.cpp:122] Setting up relu2
I0117 18:59:33.472151 186402 net.cpp:129] Top shape: 200 256 27 27 (37324800)
I0117 18:59:33.472158 186402 net.cpp:137] Memory required for data: 1758876800
I0117 18:59:33.472164 186402 layer_factory.hpp:77] Creating layer pool2
I0117 18:59:33.472177 186402 net.cpp:84] Creating Layer pool2
I0117 18:59:33.472184 186402 net.cpp:406] pool2 <- conv2
I0117 18:59:33.472194 186402 net.cpp:380] pool2 -> pool2
I0117 18:59:33.472249 186402 net.cpp:122] Setting up pool2
I0117 18:59:33.472306 186402 net.cpp:129] Top shape: 200 256 13 13 (8652800)
I0117 18:59:33.472313 186402 net.cpp:137] Memory required for data: 1793488000
I0117 18:59:33.472321 186402 layer_factory.hpp:77] Creating layer quantized_conv1
I0117 18:59:33.472333 186402 net.cpp:84] Creating Layer quantized_conv1
I0117 18:59:33.472342 186402 net.cpp:406] quantized_conv1 <- pool2
I0117 18:59:33.472352 186402 net.cpp:367] quantized_conv1 -> pool2 (in-place)
I0117 18:59:33.472363 186402 net.cpp:122] Setting up quantized_conv1
I0117 18:59:33.472371 186402 net.cpp:129] Top shape: 200 256 13 13 (8652800)
I0117 18:59:33.472378 186402 net.cpp:137] Memory required for data: 1828099200
I0117 18:59:33.472385 186402 layer_factory.hpp:77] Creating layer conv3
I0117 18:59:33.472401 186402 net.cpp:84] Creating Layer conv3
I0117 18:59:33.472409 186402 net.cpp:406] conv3 <- pool2
I0117 18:59:33.472419 186402 net.cpp:380] conv3 -> conv3
ydwu=======get:
bit_width=8;  round_method=0;  round_strategy=1;  is_runtime=0;  range_low=-0.621858;  range_high=0.673858
I0117 18:59:33.488618 186402 net.cpp:122] Setting up conv3
I0117 18:59:33.488652 186402 net.cpp:129] Top shape: 200 384 13 13 (12979200)
I0117 18:59:33.488660 186402 net.cpp:137] Memory required for data: 1880016000
I0117 18:59:33.488689 186402 layer_factory.hpp:77] Creating layer bn3
I0117 18:59:33.488709 186402 net.cpp:84] Creating Layer bn3
I0117 18:59:33.488720 186402 net.cpp:406] bn3 <- conv3
I0117 18:59:33.488732 186402 net.cpp:367] bn3 -> conv3 (in-place)
I0117 18:59:33.488981 186402 net.cpp:122] Setting up bn3
I0117 18:59:33.488996 186402 net.cpp:129] Top shape: 200 384 13 13 (12979200)
I0117 18:59:33.489001 186402 net.cpp:137] Memory required for data: 1931932800
I0117 18:59:33.489027 186402 layer_factory.hpp:77] Creating layer scale3
I0117 18:59:33.489047 186402 net.cpp:84] Creating Layer scale3
I0117 18:59:33.489064 186402 net.cpp:406] scale3 <- conv3
I0117 18:59:33.489073 186402 net.cpp:367] scale3 -> conv3 (in-place)
I0117 18:59:33.489145 186402 layer_factory.hpp:77] Creating layer scale3
I0117 18:59:33.489295 186402 net.cpp:122] Setting up scale3
I0117 18:59:33.489308 186402 net.cpp:129] Top shape: 200 384 13 13 (12979200)
I0117 18:59:33.489327 186402 net.cpp:137] Memory required for data: 1983849600
I0117 18:59:33.489337 186402 layer_factory.hpp:77] Creating layer relu3
I0117 18:59:33.489348 186402 net.cpp:84] Creating Layer relu3
I0117 18:59:33.489356 186402 net.cpp:406] relu3 <- conv3
I0117 18:59:33.489367 186402 net.cpp:367] relu3 -> conv3 (in-place)
I0117 18:59:33.489377 186402 net.cpp:122] Setting up relu3
I0117 18:59:33.489387 186402 net.cpp:129] Top shape: 200 384 13 13 (12979200)
I0117 18:59:33.489393 186402 net.cpp:137] Memory required for data: 2035766400
I0117 18:59:33.489400 186402 layer_factory.hpp:77] Creating layer quantized_conv1
I0117 18:59:33.489411 186402 net.cpp:84] Creating Layer quantized_conv1
I0117 18:59:33.489418 186402 net.cpp:406] quantized_conv1 <- conv3
I0117 18:59:33.489428 186402 net.cpp:367] quantized_conv1 -> conv3 (in-place)
I0117 18:59:33.489439 186402 net.cpp:122] Setting up quantized_conv1
I0117 18:59:33.489446 186402 net.cpp:129] Top shape: 200 384 13 13 (12979200)
I0117 18:59:33.489454 186402 net.cpp:137] Memory required for data: 2087683200
I0117 18:59:33.489460 186402 layer_factory.hpp:77] Creating layer conv4
I0117 18:59:33.489475 186402 net.cpp:84] Creating Layer conv4
I0117 18:59:33.489482 186402 net.cpp:406] conv4 <- conv3
I0117 18:59:33.489495 186402 net.cpp:380] conv4 -> conv4
ydwu=======get:
bit_width=8;  round_method=0;  round_strategy=1;  is_runtime=0;  range_low=-0.376634;  range_high=0.341829
I0117 18:59:33.514094 186402 net.cpp:122] Setting up conv4
I0117 18:59:33.514127 186402 net.cpp:129] Top shape: 200 384 13 13 (12979200)
I0117 18:59:33.514135 186402 net.cpp:137] Memory required for data: 2139600000
I0117 18:59:33.514153 186402 layer_factory.hpp:77] Creating layer bn4
I0117 18:59:33.514173 186402 net.cpp:84] Creating Layer bn4
I0117 18:59:33.514183 186402 net.cpp:406] bn4 <- conv4
I0117 18:59:33.514196 186402 net.cpp:367] bn4 -> conv4 (in-place)
I0117 18:59:33.514442 186402 net.cpp:122] Setting up bn4
I0117 18:59:33.514456 186402 net.cpp:129] Top shape: 200 384 13 13 (12979200)
I0117 18:59:33.514463 186402 net.cpp:137] Memory required for data: 2191516800
I0117 18:59:33.514521 186402 layer_factory.hpp:77] Creating layer scale4
I0117 18:59:33.514535 186402 net.cpp:84] Creating Layer scale4
I0117 18:59:33.514542 186402 net.cpp:406] scale4 <- conv4
I0117 18:59:33.514551 186402 net.cpp:367] scale4 -> conv4 (in-place)
I0117 18:59:33.514616 186402 layer_factory.hpp:77] Creating layer scale4
I0117 18:59:33.514765 186402 net.cpp:122] Setting up scale4
I0117 18:59:33.514780 186402 net.cpp:129] Top shape: 200 384 13 13 (12979200)
I0117 18:59:33.514786 186402 net.cpp:137] Memory required for data: 2243433600
I0117 18:59:33.514797 186402 layer_factory.hpp:77] Creating layer relu4
I0117 18:59:33.514811 186402 net.cpp:84] Creating Layer relu4
I0117 18:59:33.514818 186402 net.cpp:406] relu4 <- conv4
I0117 18:59:33.514828 186402 net.cpp:367] relu4 -> conv4 (in-place)
I0117 18:59:33.514838 186402 net.cpp:122] Setting up relu4
I0117 18:59:33.514847 186402 net.cpp:129] Top shape: 200 384 13 13 (12979200)
I0117 18:59:33.514854 186402 net.cpp:137] Memory required for data: 2295350400
I0117 18:59:33.514860 186402 layer_factory.hpp:77] Creating layer quantized_conv1
I0117 18:59:33.514876 186402 net.cpp:84] Creating Layer quantized_conv1
I0117 18:59:33.514883 186402 net.cpp:406] quantized_conv1 <- conv4
I0117 18:59:33.514892 186402 net.cpp:367] quantized_conv1 -> conv4 (in-place)
I0117 18:59:33.514905 186402 net.cpp:122] Setting up quantized_conv1
I0117 18:59:33.514914 186402 net.cpp:129] Top shape: 200 384 13 13 (12979200)
I0117 18:59:33.514921 186402 net.cpp:137] Memory required for data: 2347267200
I0117 18:59:33.514928 186402 layer_factory.hpp:77] Creating layer conv5
I0117 18:59:33.514946 186402 net.cpp:84] Creating Layer conv5
I0117 18:59:33.514953 186402 net.cpp:406] conv5 <- conv4
I0117 18:59:33.514973 186402 net.cpp:380] conv5 -> conv5
ydwu=======get:
bit_width=8;  round_method=0;  round_strategy=1;  is_runtime=0;  range_low=-0.347658;  range_high=0.330042
I0117 18:59:33.531491 186402 net.cpp:122] Setting up conv5
I0117 18:59:33.531525 186402 net.cpp:129] Top shape: 200 256 13 13 (8652800)
I0117 18:59:33.531533 186402 net.cpp:137] Memory required for data: 2381878400
I0117 18:59:33.531550 186402 layer_factory.hpp:77] Creating layer bn5
I0117 18:59:33.531568 186402 net.cpp:84] Creating Layer bn5
I0117 18:59:33.531577 186402 net.cpp:406] bn5 <- conv5
I0117 18:59:33.531590 186402 net.cpp:367] bn5 -> conv5 (in-place)
I0117 18:59:33.531841 186402 net.cpp:122] Setting up bn5
I0117 18:59:33.531855 186402 net.cpp:129] Top shape: 200 256 13 13 (8652800)
I0117 18:59:33.531862 186402 net.cpp:137] Memory required for data: 2416489600
I0117 18:59:33.531885 186402 layer_factory.hpp:77] Creating layer scale5
I0117 18:59:33.531903 186402 net.cpp:84] Creating Layer scale5
I0117 18:59:33.531910 186402 net.cpp:406] scale5 <- conv5
I0117 18:59:33.531929 186402 net.cpp:367] scale5 -> conv5 (in-place)
I0117 18:59:33.531993 186402 layer_factory.hpp:77] Creating layer scale5
I0117 18:59:33.532135 186402 net.cpp:122] Setting up scale5
I0117 18:59:33.532150 186402 net.cpp:129] Top shape: 200 256 13 13 (8652800)
I0117 18:59:33.532162 186402 net.cpp:137] Memory required for data: 2451100800
I0117 18:59:33.532184 186402 layer_factory.hpp:77] Creating layer relu5
I0117 18:59:33.532196 186402 net.cpp:84] Creating Layer relu5
I0117 18:59:33.532202 186402 net.cpp:406] relu5 <- conv5
I0117 18:59:33.532215 186402 net.cpp:367] relu5 -> conv5 (in-place)
I0117 18:59:33.532232 186402 net.cpp:122] Setting up relu5
I0117 18:59:33.532243 186402 net.cpp:129] Top shape: 200 256 13 13 (8652800)
I0117 18:59:33.532248 186402 net.cpp:137] Memory required for data: 2485712000
I0117 18:59:33.532255 186402 layer_factory.hpp:77] Creating layer pool5
I0117 18:59:33.532266 186402 net.cpp:84] Creating Layer pool5
I0117 18:59:33.532276 186402 net.cpp:406] pool5 <- conv5
I0117 18:59:33.532286 186402 net.cpp:380] pool5 -> pool5
I0117 18:59:33.532340 186402 net.cpp:122] Setting up pool5
I0117 18:59:33.532353 186402 net.cpp:129] Top shape: 200 256 6 6 (1843200)
I0117 18:59:33.532361 186402 net.cpp:137] Memory required for data: 2493084800
I0117 18:59:33.532367 186402 layer_factory.hpp:77] Creating layer quantized_conv1
I0117 18:59:33.532378 186402 net.cpp:84] Creating Layer quantized_conv1
I0117 18:59:33.532428 186402 net.cpp:406] quantized_conv1 <- pool5
I0117 18:59:33.532438 186402 net.cpp:367] quantized_conv1 -> pool5 (in-place)
I0117 18:59:33.532449 186402 net.cpp:122] Setting up quantized_conv1
I0117 18:59:33.532459 186402 net.cpp:129] Top shape: 200 256 6 6 (1843200)
I0117 18:59:33.532465 186402 net.cpp:137] Memory required for data: 2500457600
I0117 18:59:33.532472 186402 layer_factory.hpp:77] Creating layer fc6
I0117 18:59:33.532487 186402 net.cpp:84] Creating Layer fc6
I0117 18:59:33.532495 186402 net.cpp:406] fc6 <- pool5
I0117 18:59:33.532505 186402 net.cpp:380] fc6 -> fc6
I0117 18:59:33.532517 186402 quan_inner_product_layer.cpp:21] 4096   4096
ydwu=======get:
bit_width=8;  round_method=0;  round_strategy=1;  is_runtime=0;  range_low=-0.160061;  range_high=0.148064
I0117 18:59:34.246210 186402 net.cpp:122] Setting up fc6
I0117 18:59:34.246263 186402 net.cpp:129] Top shape: 200 4096 (819200)
I0117 18:59:34.246269 186402 net.cpp:137] Memory required for data: 2503734400
I0117 18:59:34.246290 186402 layer_factory.hpp:77] Creating layer bn6
I0117 18:59:34.246310 186402 net.cpp:84] Creating Layer bn6
I0117 18:59:34.246320 186402 net.cpp:406] bn6 <- fc6
I0117 18:59:34.246337 186402 net.cpp:367] bn6 -> fc6 (in-place)
I0117 18:59:34.246605 186402 net.cpp:122] Setting up bn6
I0117 18:59:34.246618 186402 net.cpp:129] Top shape: 200 4096 (819200)
I0117 18:59:34.246631 186402 net.cpp:137] Memory required for data: 2507011200
I0117 18:59:34.246642 186402 layer_factory.hpp:77] Creating layer scale6
I0117 18:59:34.246664 186402 net.cpp:84] Creating Layer scale6
I0117 18:59:34.246670 186402 net.cpp:406] scale6 <- fc6
I0117 18:59:34.246678 186402 net.cpp:367] scale6 -> fc6 (in-place)
I0117 18:59:34.246739 186402 layer_factory.hpp:77] Creating layer scale6
I0117 18:59:34.246884 186402 net.cpp:122] Setting up scale6
I0117 18:59:34.246897 186402 net.cpp:129] Top shape: 200 4096 (819200)
I0117 18:59:34.246902 186402 net.cpp:137] Memory required for data: 2510288000
I0117 18:59:34.246918 186402 layer_factory.hpp:77] Creating layer relu6
I0117 18:59:34.246928 186402 net.cpp:84] Creating Layer relu6
I0117 18:59:34.246937 186402 net.cpp:406] relu6 <- fc6
I0117 18:59:34.246949 186402 net.cpp:367] relu6 -> fc6 (in-place)
I0117 18:59:34.246959 186402 net.cpp:122] Setting up relu6
I0117 18:59:34.246968 186402 net.cpp:129] Top shape: 200 4096 (819200)
I0117 18:59:34.246978 186402 net.cpp:137] Memory required for data: 2513564800
I0117 18:59:34.246984 186402 layer_factory.hpp:77] Creating layer drop6
I0117 18:59:34.246994 186402 net.cpp:84] Creating Layer drop6
I0117 18:59:34.247001 186402 net.cpp:406] drop6 <- fc6
I0117 18:59:34.247012 186402 net.cpp:367] drop6 -> fc6 (in-place)
I0117 18:59:34.247045 186402 net.cpp:122] Setting up drop6
I0117 18:59:34.247056 186402 net.cpp:129] Top shape: 200 4096 (819200)
I0117 18:59:34.247061 186402 net.cpp:137] Memory required for data: 2516841600
I0117 18:59:34.247068 186402 layer_factory.hpp:77] Creating layer quantized_conv1
I0117 18:59:34.247083 186402 net.cpp:84] Creating Layer quantized_conv1
I0117 18:59:34.247090 186402 net.cpp:406] quantized_conv1 <- fc6
I0117 18:59:34.247098 186402 net.cpp:367] quantized_conv1 -> fc6 (in-place)
I0117 18:59:34.247110 186402 net.cpp:122] Setting up quantized_conv1
I0117 18:59:34.247118 186402 net.cpp:129] Top shape: 200 4096 (819200)
I0117 18:59:34.247124 186402 net.cpp:137] Memory required for data: 2520118400
I0117 18:59:34.247131 186402 layer_factory.hpp:77] Creating layer fc7
I0117 18:59:34.247143 186402 net.cpp:84] Creating Layer fc7
I0117 18:59:34.247150 186402 net.cpp:406] fc7 <- fc6
I0117 18:59:34.247159 186402 net.cpp:380] fc7 -> fc7
I0117 18:59:34.247171 186402 quan_inner_product_layer.cpp:21] 4096   4096
ydwu=======get:
bit_width=8;  round_method=0;  round_strategy=1;  is_runtime=0;  range_low=-0.162636;  range_high=0.197684
I0117 18:59:34.532325 186402 net.cpp:122] Setting up fc7
I0117 18:59:34.532369 186402 net.cpp:129] Top shape: 200 4096 (819200)
I0117 18:59:34.532375 186402 net.cpp:137] Memory required for data: 2523395200
I0117 18:59:34.532393 186402 layer_factory.hpp:77] Creating layer bn7
I0117 18:59:34.532415 186402 net.cpp:84] Creating Layer bn7
I0117 18:59:34.532425 186402 net.cpp:406] bn7 <- fc7
I0117 18:59:34.532441 186402 net.cpp:367] bn7 -> fc7 (in-place)
I0117 18:59:34.532819 186402 net.cpp:122] Setting up bn7
I0117 18:59:34.532832 186402 net.cpp:129] Top shape: 200 4096 (819200)
I0117 18:59:34.532845 186402 net.cpp:137] Memory required for data: 2526672000
I0117 18:59:34.532856 186402 layer_factory.hpp:77] Creating layer scale7
I0117 18:59:34.532888 186402 net.cpp:84] Creating Layer scale7
I0117 18:59:34.532914 186402 net.cpp:406] scale7 <- fc7
I0117 18:59:34.532923 186402 net.cpp:367] scale7 -> fc7 (in-place)
I0117 18:59:34.533016 186402 layer_factory.hpp:77] Creating layer scale7
I0117 18:59:34.533275 186402 net.cpp:122] Setting up scale7
I0117 18:59:34.533289 186402 net.cpp:129] Top shape: 200 4096 (819200)
I0117 18:59:34.533294 186402 net.cpp:137] Memory required for data: 2529948800
I0117 18:59:34.533309 186402 layer_factory.hpp:77] Creating layer relu7
I0117 18:59:34.533318 186402 net.cpp:84] Creating Layer relu7
I0117 18:59:34.533332 186402 net.cpp:406] relu7 <- fc7
I0117 18:59:34.533363 186402 net.cpp:367] relu7 -> fc7 (in-place)
I0117 18:59:34.533376 186402 net.cpp:122] Setting up relu7
I0117 18:59:34.533385 186402 net.cpp:129] Top shape: 200 4096 (819200)
I0117 18:59:34.533391 186402 net.cpp:137] Memory required for data: 2533225600
I0117 18:59:34.533396 186402 layer_factory.hpp:77] Creating layer drop7
I0117 18:59:34.533413 186402 net.cpp:84] Creating Layer drop7
I0117 18:59:34.533432 186402 net.cpp:406] drop7 <- fc7
I0117 18:59:34.533457 186402 net.cpp:367] drop7 -> fc7 (in-place)
I0117 18:59:34.533490 186402 net.cpp:122] Setting up drop7
I0117 18:59:34.533519 186402 net.cpp:129] Top shape: 200 4096 (819200)
I0117 18:59:34.533538 186402 net.cpp:137] Memory required for data: 2536502400
I0117 18:59:34.533551 186402 layer_factory.hpp:77] Creating layer quantized_conv1
I0117 18:59:34.533565 186402 net.cpp:84] Creating Layer quantized_conv1
I0117 18:59:34.533571 186402 net.cpp:406] quantized_conv1 <- fc7
I0117 18:59:34.533599 186402 net.cpp:367] quantized_conv1 -> fc7 (in-place)
I0117 18:59:34.533622 186402 net.cpp:122] Setting up quantized_conv1
I0117 18:59:34.533632 186402 net.cpp:129] Top shape: 200 4096 (819200)
I0117 18:59:34.533638 186402 net.cpp:137] Memory required for data: 2539779200
I0117 18:59:34.533644 186402 layer_factory.hpp:77] Creating layer fc8
I0117 18:59:34.533665 186402 net.cpp:84] Creating Layer fc8
I0117 18:59:34.533685 186402 net.cpp:406] fc8 <- fc7
I0117 18:59:34.533704 186402 net.cpp:380] fc8 -> fc8
I0117 18:59:34.533716 186402 quan_inner_product_layer.cpp:21] 1000   1000
ydwu=======get:
bit_width=8;  round_method=0;  round_strategy=1;  is_runtime=0;  range_low=-0.141857;  range_high=0.274249
I0117 18:59:34.603694 186402 net.cpp:122] Setting up fc8
I0117 18:59:34.603739 186402 net.cpp:129] Top shape: 200 1000 (200000)
I0117 18:59:34.603744 186402 net.cpp:137] Memory required for data: 2540579200
I0117 18:59:34.603760 186402 layer_factory.hpp:77] Creating layer fc8_fc8_0_split
I0117 18:59:34.603780 186402 net.cpp:84] Creating Layer fc8_fc8_0_split
I0117 18:59:34.603790 186402 net.cpp:406] fc8_fc8_0_split <- fc8
I0117 18:59:34.603807 186402 net.cpp:380] fc8_fc8_0_split -> fc8_fc8_0_split_0
I0117 18:59:34.603830 186402 net.cpp:380] fc8_fc8_0_split -> fc8_fc8_0_split_1
I0117 18:59:34.603842 186402 net.cpp:380] fc8_fc8_0_split -> fc8_fc8_0_split_2
I0117 18:59:34.603914 186402 net.cpp:122] Setting up fc8_fc8_0_split
I0117 18:59:34.603926 186402 net.cpp:129] Top shape: 200 1000 (200000)
I0117 18:59:34.603934 186402 net.cpp:129] Top shape: 200 1000 (200000)
I0117 18:59:34.603940 186402 net.cpp:129] Top shape: 200 1000 (200000)
I0117 18:59:34.603945 186402 net.cpp:137] Memory required for data: 2542979200
I0117 18:59:34.603950 186402 layer_factory.hpp:77] Creating layer accuracy
I0117 18:59:34.603962 186402 net.cpp:84] Creating Layer accuracy
I0117 18:59:34.603971 186402 net.cpp:406] accuracy <- fc8_fc8_0_split_0
I0117 18:59:34.603977 186402 net.cpp:406] accuracy <- label_data_1_split_0
I0117 18:59:34.603987 186402 net.cpp:380] accuracy -> accuracy
…
