…
I0115 21:18:28.003427 141796 net.cpp:294] The NetState phase (0) differed from the phase (1) specified by a rule in layer accuracy_5
I0115 21:18:28.003739 141796 net.cpp:51] Initializing net from parameters: 
name: "AlexNet-BN"
state {
  phase: TRAIN
  level: 0
  stage: ""
}
layer {
  name: "data"
  type: "Data"
  top: "data"
  top: "label"
  include {
    phase: TRAIN
  }
  transform_param {
    mirror: true
    crop_size: 224
    mean_value: 103.939
    mean_value: 116.779
    mean_value: 123.68
  }
  data_param {
    source: "/home/DATA/imagenet_resize/lmdb_resize/ilsvrc12_train_lmdb"
    batch_size: 256
    backend: LMDB
  }
}
layer {
  name: "conv1"
  type: "Convolution"
  bottom: "data"
  top: "conv1"
  param {
    lr_mult: 1
    decay_mult: 1
  }
  param {
    lr_mult: 2
    decay_mult: 0
  }
  convolution_param {
    num_output: 96
    pad: 2
    kernel_size: 11
    stride: 4
    weight_filler {
      type: "gaussian"
      std: 0.01
    }
    bias_filler {
      type: "constant"
      value: 0
    }
  }
}
layer {
  name: "bn1"
  type: "BatchNorm"
  bottom: "conv1"
  top: "conv1"
  batch_norm_param {
    use_global_stats: false
  }
}
layer {
  name: "scale1"
  type: "Scale"
  bottom: "conv1"
  top: "conv1"
  scale_param {
    bias_term: true
  }
}
layer {
  name: "relu1"
  type: "ReLU"
  bottom: "conv1"
  top: "conv1"
}
layer {
  name: "pool1"
  type: "Pooling"
  bottom: "conv1"
  top: "pool1"
  pooling_param {
    pool: MAX
    kernel_size: 3
    stride: 2
  }
}
layer {
  name: "conv2"
  type: "Convolution"
  bottom: "pool1"
  top: "conv2"
  param {
    lr_mult: 1
    decay_mult: 1
  }
  param {
    lr_mult: 2
    decay_mult: 0
  }
  convolution_param {
    num_output: 256
    pad: 2
    kernel_size: 5
    weight_filler {
      type: "gaussian"
      std: 0.01
    }
    bias_filler {
      type: "constant"
      value: 0.1
    }
  }
}
layer {
  name: "bn2"
  type: "BatchNorm"
  bottom: "conv2"
  top: "conv2"
  batch_norm_param {
    use_global_stats: false
  }
}
layer {
  name: "scale2"
  type: "Scale"
  bottom: "conv2"
  top: "conv2"
  scale_param {
    bias_term: true
  }
}
layer {
  name: "relu2"
  type: "ReLU"
  bottom: "conv2"
  top: "conv2"
}
layer {
  name: "pool2"
  type: "Pooling"
  bottom: "conv2"
  top: "pool2"
  pooling_param {
    pool: MAX
    kernel_size: 3
    stride: 2
  }
}
layer {
  name: "conv3"
  type: "Convolution"
  bottom: "pool2"
  top: "conv3"
  param {
    lr_mult: 1
    decay_mult: 1
  }
  param {
    lr_mult: 2
    decay_mult: 0
  }
  convolution_param {
    num_output: 384
    pad: 1
    kernel_size: 3
    weight_filler {
      type: "gaussian"
      std: 0.01
    }
    bias_filler {
      type: "constant"
      value: 0
    }
  }
}
layer {
  name: "bn3"
  type: "BatchNorm"
  bottom: "conv3"
  top: "conv3"
  batch_norm_param {
    use_global_stats: false
  }
}
layer {
  name: "scale3"
  type: "Scale"
  bottom: "conv3"
  top: "conv3"
  scale_param {
    bias_term: true
  }
}
layer {
  name: "relu3"
  type: "ReLU"
  bottom: "conv3"
  top: "conv3"
}
layer {
  name: "conv4"
  type: "Convolution"
  bottom: "conv3"
  top: "conv4"
  param {
    lr_mult: 1
    decay_mult: 1
  }
  param {
    lr_mult: 2
    decay_mult: 0
  }
  convolution_param {
    num_output: 384
    pad: 1
    kernel_size: 3
    weight_filler {
      type: "gaussian"
      std: 0.01
    }
    bias_filler {
      type: "constant"
      value: 0.1
    }
  }
}
layer {
  name: "bn4"
  type: "BatchNorm"
  bottom: "conv4"
  top: "conv4"
  batch_norm_param {
    use_global_stats: false
  }
}
layer {
  name: "scale4"
  type: "Scale"
  bottom: "conv4"
  top: "conv4"
  scale_param {
    bias_term: true
  }
}
layer {
  name: "relu4"
  type: "ReLU"
  bottom: "conv4"
  top: "conv4"
}
layer {
  name: "conv5"
  type: "Convolution"
  bottom: "conv4"
  top: "conv5"
  param {
    lr_mult: 1
    decay_mult: 1
  }
  param {
    lr_mult: 2
    decay_mult: 0
  }
  convolution_param {
    num_output: 256
    pad: 1
    kernel_size: 3
    weight_filler {
      type: "gaussian"
      std: 0.01
    }
    bias_filler {
      type: "constant"
      value: 0.1
    }
  }
}
layer {
  name: "bn5"
  type: "BatchNorm"
  bottom: "conv5"
  top: "conv5"
  batch_norm_param {
    use_global_stats: false
  }
}
layer {
  name: "scale5"
  type: "Scale"
  bottom: "conv5"
  top: "conv5"
  scale_param {
    bias_term: true
  }
}
layer {
  name: "relu5"
  type: "ReLU"
  bottom: "conv5"
  top: "conv5"
}
layer {
  name: "pool5"
  type: "Pooling"
  bottom: "conv5"
  top: "pool5"
  pooling_param {
    pool: MAX
    kernel_size: 3
    stride: 2
  }
}
layer {
  name: "fc6"
  type: "InnerProduct"
  bottom: "pool5"
  top: "fc6"
  param {
    lr_mult: 1
    decay_mult: 1
  }
  param {
    lr_mult: 2
    decay_mult: 0
  }
  inner_product_param {
    num_output: 4096
    weight_filler {
      type: "gaussian"
      std: 0.005
    }
    bias_filler {
      type: "constant"
      value: 0.1
    }
  }
}
layer {
  name: "bn6"
  type: "BatchNorm"
  bottom: "fc6"
  top: "fc6"
  batch_norm_param {
    use_global_stats: false
  }
}
layer {
  name: "scale6"
  type: "Scale"
  bottom: "fc6"
  top: "fc6"
  scale_param {
    bias_term: true
  }
}
layer {
  name: "relu6"
  type: "ReLU"
  bottom: "fc6"
  top: "fc6"
}
layer {
  name: "drop6"
  type: "Dropout"
  bottom: "fc6"
  top: "fc6"
  dropout_param {
    dropout_ratio: 0.5
  }
}
layer {
  name: "fc7"
  type: "InnerProduct"
  bottom: "fc6"
  top: "fc7"
  param {
    lr_mult: 1
    decay_mult: 1
  }
  param {
    lr_mult: 2
    decay_mult: 0
  }
  inner_product_param {
    num_output: 4096
    weight_filler {
      type: "gaussian"
      std: 0.005
    }
    bias_filler {
      type: "constant"
      value: 0.1
    }
  }
}
layer {
  name: "bn7"
  type: "BatchNorm"
  bottom: "fc7"
  top: "fc7"
  batch_norm_param {
    use_global_stats: false
  }
}
layer {
  name: "scale7"
  type: "Scale"
  bottom: "fc7"
  top: "fc7"
  scale_param {
    bias_term: true
  }
}
layer {
  name: "relu7"
  type: "ReLU"
  bottom: "fc7"
  top: "fc7"
}
layer {
  name: "drop7"
  type: "Dropout"
  bottom: "fc7"
  top: "fc7"
  dropout_param {
    dropout_ratio: 0.5
  }
}
layer {
  name: "fc8"
  type: "InnerProduct"
  bottom: "fc7"
  top: "fc8"
  param {
    lr_mult: 1
    decay_mult: 1
  }
  param {
    lr_mult: 2
    decay_mult: 0
  }
  inner_product_param {
    num_output: 1000
    weight_filler {
      type: "gaussian"
      std: 0.01
    }
    bias_filler {
      type: "constant"
      value: 0
    }
  }
}
layer {
  name: "accuracy_5_TRAIN"
  type: "Accuracy"
  bottom: "fc8"
  bottom: "label"
  top: "accuracy_5_TRAIN"
  include {
    phase: TRAIN
  }
  accuracy_param {
    top_k: 5
  }
}
layer {
  name: "loss"
  type: "SoftmaxWithLoss"
  bottom: "fc8"
  bottom: "label"
  top: "loss"
}
I0115 21:18:28.004021 141796 layer_factory.hpp:77] Creating layer data
I0115 21:18:28.004204 141796 db_lmdb.cpp:35] Opened lmdb /home/DATA/imagenet_resize/lmdb_resize/ilsvrc12_train_lmdb
I0115 21:18:28.017469 141796 net.cpp:84] Creating Layer data
I0115 21:18:28.017491 141796 net.cpp:380] data -> data
I0115 21:18:28.017524 141796 net.cpp:380] data -> label
I0115 21:18:28.019548 141796 data_layer.cpp:45] output data size: 256,3,224,224
I0115 21:18:28.646682 141796 net.cpp:122] Setting up data
I0115 21:18:28.646759 141796 net.cpp:129] Top shape: 256 3 224 224 (38535168)
I0115 21:18:28.646812 141796 net.cpp:129] Top shape: 256 (256)
I0115 21:18:28.646827 141796 net.cpp:137] Memory required for data: 154141696
I0115 21:18:28.646844 141796 layer_factory.hpp:77] Creating layer label_data_1_split
I0115 21:18:28.646869 141796 net.cpp:84] Creating Layer label_data_1_split
I0115 21:18:28.646880 141796 net.cpp:406] label_data_1_split <- label
I0115 21:18:28.646910 141796 net.cpp:380] label_data_1_split -> label_data_1_split_0
I0115 21:18:28.646929 141796 net.cpp:380] label_data_1_split -> label_data_1_split_1
I0115 21:18:28.647002 141796 net.cpp:122] Setting up label_data_1_split
I0115 21:18:28.647020 141796 net.cpp:129] Top shape: 256 (256)
I0115 21:18:28.647027 141796 net.cpp:129] Top shape: 256 (256)
I0115 21:18:28.647030 141796 net.cpp:137] Memory required for data: 154143744
I0115 21:18:28.647035 141796 layer_factory.hpp:77] Creating layer conv1
I0115 21:18:28.647063 141796 net.cpp:84] Creating Layer conv1
I0115 21:18:28.647068 141796 net.cpp:406] conv1 <- data
I0115 21:18:28.647084 141796 net.cpp:380] conv1 -> conv1
I0115 21:18:28.675406 141796 net.cpp:122] Setting up conv1
I0115 21:18:28.675492 141796 net.cpp:129] Top shape: 256 96 55 55 (74342400)
I0115 21:18:28.675530 141796 net.cpp:137] Memory required for data: 451513344
I0115 21:18:28.675643 141796 layer_factory.hpp:77] Creating layer bn1
I0115 21:18:28.675689 141796 net.cpp:84] Creating Layer bn1
I0115 21:18:28.675714 141796 net.cpp:406] bn1 <- conv1
I0115 21:18:28.675773 141796 net.cpp:367] bn1 -> conv1 (in-place)
I0115 21:18:28.676720 141796 net.cpp:122] Setting up bn1
I0115 21:18:28.676762 141796 net.cpp:129] Top shape: 256 96 55 55 (74342400)
I0115 21:18:28.676772 141796 net.cpp:137] Memory required for data: 748882944
I0115 21:18:28.676846 141796 layer_factory.hpp:77] Creating layer scale1
I0115 21:18:28.676887 141796 net.cpp:84] Creating Layer scale1
I0115 21:18:28.676901 141796 net.cpp:406] scale1 <- conv1
I0115 21:18:28.676933 141796 net.cpp:367] scale1 -> conv1 (in-place)
I0115 21:18:28.677081 141796 layer_factory.hpp:77] Creating layer scale1
I0115 21:18:28.677737 141796 net.cpp:122] Setting up scale1
I0115 21:18:28.677788 141796 net.cpp:129] Top shape: 256 96 55 55 (74342400)
I0115 21:18:28.677832 141796 net.cpp:137] Memory required for data: 1046252544
I0115 21:18:28.677868 141796 layer_factory.hpp:77] Creating layer relu1
I0115 21:18:28.677899 141796 net.cpp:84] Creating Layer relu1
I0115 21:18:28.677925 141796 net.cpp:406] relu1 <- conv1
I0115 21:18:28.677960 141796 net.cpp:367] relu1 -> conv1 (in-place)
I0115 21:18:28.678001 141796 net.cpp:122] Setting up relu1
I0115 21:18:28.678035 141796 net.cpp:129] Top shape: 256 96 55 55 (74342400)
I0115 21:18:28.678061 141796 net.cpp:137] Memory required for data: 1343622144
I0115 21:18:28.678087 141796 layer_factory.hpp:77] Creating layer pool1
I0115 21:18:28.678129 141796 net.cpp:84] Creating Layer pool1
I0115 21:18:28.678156 141796 net.cpp:406] pool1 <- conv1
I0115 21:18:28.678197 141796 net.cpp:380] pool1 -> pool1
I0115 21:18:28.678439 141796 net.cpp:122] Setting up pool1
I0115 21:18:28.678483 141796 net.cpp:129] Top shape: 256 96 27 27 (17915904)
I0115 21:18:28.678508 141796 net.cpp:137] Memory required for data: 1415285760
I0115 21:18:28.678535 141796 layer_factory.hpp:77] Creating layer conv2
I0115 21:18:28.678592 141796 net.cpp:84] Creating Layer conv2
I0115 21:18:28.678616 141796 net.cpp:406] conv2 <- pool1
I0115 21:18:28.678661 141796 net.cpp:380] conv2 -> conv2
I0115 21:18:28.705612 141796 net.cpp:122] Setting up conv2
I0115 21:18:28.705701 141796 net.cpp:129] Top shape: 256 256 27 27 (47775744)
I0115 21:18:28.705723 141796 net.cpp:137] Memory required for data: 1606388736
I0115 21:18:28.705791 141796 layer_factory.hpp:77] Creating layer bn2
I0115 21:18:28.705880 141796 net.cpp:84] Creating Layer bn2
I0115 21:18:28.705917 141796 net.cpp:406] bn2 <- conv2
I0115 21:18:28.705953 141796 net.cpp:367] bn2 -> conv2 (in-place)
I0115 21:18:28.706550 141796 net.cpp:122] Setting up bn2
I0115 21:18:28.706586 141796 net.cpp:129] Top shape: 256 256 27 27 (47775744)
I0115 21:18:28.706660 141796 net.cpp:137] Memory required for data: 1797491712
I0115 21:18:28.706696 141796 layer_factory.hpp:77] Creating layer scale2
I0115 21:18:28.706727 141796 net.cpp:84] Creating Layer scale2
I0115 21:18:28.706746 141796 net.cpp:406] scale2 <- conv2
I0115 21:18:28.706770 141796 net.cpp:367] scale2 -> conv2 (in-place)
I0115 21:18:28.706898 141796 layer_factory.hpp:77] Creating layer scale2
I0115 21:18:28.707226 141796 net.cpp:122] Setting up scale2
I0115 21:18:28.707250 141796 net.cpp:129] Top shape: 256 256 27 27 (47775744)
I0115 21:18:28.707268 141796 net.cpp:137] Memory required for data: 1988594688
I0115 21:18:28.707298 141796 layer_factory.hpp:77] Creating layer relu2
I0115 21:18:28.707325 141796 net.cpp:84] Creating Layer relu2
I0115 21:18:28.707345 141796 net.cpp:406] relu2 <- conv2
I0115 21:18:28.707370 141796 net.cpp:367] relu2 -> conv2 (in-place)
I0115 21:18:28.707392 141796 net.cpp:122] Setting up relu2
I0115 21:18:28.707422 141796 net.cpp:129] Top shape: 256 256 27 27 (47775744)
I0115 21:18:28.707435 141796 net.cpp:137] Memory required for data: 2179697664
I0115 21:18:28.707451 141796 layer_factory.hpp:77] Creating layer pool2
I0115 21:18:28.707484 141796 net.cpp:84] Creating Layer pool2
I0115 21:18:28.707496 141796 net.cpp:406] pool2 <- conv2
I0115 21:18:28.707530 141796 net.cpp:380] pool2 -> pool2
I0115 21:18:28.707648 141796 net.cpp:122] Setting up pool2
I0115 21:18:28.707684 141796 net.cpp:129] Top shape: 256 256 13 13 (11075584)
I0115 21:18:28.707697 141796 net.cpp:137] Memory required for data: 2224000000
I0115 21:18:28.707705 141796 layer_factory.hpp:77] Creating layer conv3
I0115 21:18:28.707759 141796 net.cpp:84] Creating Layer conv3
I0115 21:18:28.707780 141796 net.cpp:406] conv3 <- pool2
I0115 21:18:28.707820 141796 net.cpp:380] conv3 -> conv3
I0115 21:18:28.739011 141796 net.cpp:122] Setting up conv3
I0115 21:18:28.739082 141796 net.cpp:129] Top shape: 256 384 13 13 (16613376)
I0115 21:18:28.739099 141796 net.cpp:137] Memory required for data: 2290453504
I0115 21:18:28.739126 141796 layer_factory.hpp:77] Creating layer bn3
I0115 21:18:28.739163 141796 net.cpp:84] Creating Layer bn3
I0115 21:18:28.739181 141796 net.cpp:406] bn3 <- conv3
I0115 21:18:28.739215 141796 net.cpp:367] bn3 -> conv3 (in-place)
I0115 21:18:28.739539 141796 net.cpp:122] Setting up bn3
I0115 21:18:28.739562 141796 net.cpp:129] Top shape: 256 384 13 13 (16613376)
I0115 21:18:28.739573 141796 net.cpp:137] Memory required for data: 2356907008
I0115 21:18:28.739608 141796 layer_factory.hpp:77] Creating layer scale3
I0115 21:18:28.739630 141796 net.cpp:84] Creating Layer scale3
I0115 21:18:28.739639 141796 net.cpp:406] scale3 <- conv3
I0115 21:18:28.739657 141796 net.cpp:367] scale3 -> conv3 (in-place)
I0115 21:18:28.739755 141796 layer_factory.hpp:77] Creating layer scale3
I0115 21:18:28.740047 141796 net.cpp:122] Setting up scale3
I0115 21:18:28.740077 141796 net.cpp:129] Top shape: 256 384 13 13 (16613376)
I0115 21:18:28.740097 141796 net.cpp:137] Memory required for data: 2423360512
I0115 21:18:28.740118 141796 layer_factory.hpp:77] Creating layer relu3
I0115 21:18:28.740149 141796 net.cpp:84] Creating Layer relu3
I0115 21:18:28.740160 141796 net.cpp:406] relu3 <- conv3
I0115 21:18:28.740181 141796 net.cpp:367] relu3 -> conv3 (in-place)
I0115 21:18:28.740211 141796 net.cpp:122] Setting up relu3
I0115 21:18:28.740222 141796 net.cpp:129] Top shape: 256 384 13 13 (16613376)
I0115 21:18:28.740229 141796 net.cpp:137] Memory required for data: 2489814016
I0115 21:18:28.740242 141796 layer_factory.hpp:77] Creating layer conv4
I0115 21:18:28.740280 141796 net.cpp:84] Creating Layer conv4
I0115 21:18:28.740301 141796 net.cpp:406] conv4 <- conv3
I0115 21:18:28.740324 141796 net.cpp:380] conv4 -> conv4
I0115 21:18:28.779718 141796 net.cpp:122] Setting up conv4
I0115 21:18:28.779814 141796 net.cpp:129] Top shape: 256 384 13 13 (16613376)
I0115 21:18:28.779845 141796 net.cpp:137] Memory required for data: 2556267520
I0115 21:18:28.779888 141796 layer_factory.hpp:77] Creating layer bn4
I0115 21:18:28.779935 141796 net.cpp:84] Creating Layer bn4
I0115 21:18:28.780025 141796 net.cpp:406] bn4 <- conv4
I0115 21:18:28.780059 141796 net.cpp:367] bn4 -> conv4 (in-place)
I0115 21:18:28.780737 141796 net.cpp:122] Setting up bn4
I0115 21:18:28.780761 141796 net.cpp:129] Top shape: 256 384 13 13 (16613376)
I0115 21:18:28.780776 141796 net.cpp:137] Memory required for data: 2622721024
I0115 21:18:28.780809 141796 layer_factory.hpp:77] Creating layer scale4
I0115 21:18:28.780839 141796 net.cpp:84] Creating Layer scale4
I0115 21:18:28.780861 141796 net.cpp:406] scale4 <- conv4
I0115 21:18:28.780894 141796 net.cpp:367] scale4 -> conv4 (in-place)
I0115 21:18:28.780987 141796 layer_factory.hpp:77] Creating layer scale4
I0115 21:18:28.781392 141796 net.cpp:122] Setting up scale4
I0115 21:18:28.781428 141796 net.cpp:129] Top shape: 256 384 13 13 (16613376)
I0115 21:18:28.781448 141796 net.cpp:137] Memory required for data: 2689174528
I0115 21:18:28.781487 141796 layer_factory.hpp:77] Creating layer relu4
I0115 21:18:28.781512 141796 net.cpp:84] Creating Layer relu4
I0115 21:18:28.781525 141796 net.cpp:406] relu4 <- conv4
I0115 21:18:28.781548 141796 net.cpp:367] relu4 -> conv4 (in-place)
I0115 21:18:28.781574 141796 net.cpp:122] Setting up relu4
I0115 21:18:28.781596 141796 net.cpp:129] Top shape: 256 384 13 13 (16613376)
I0115 21:18:28.781613 141796 net.cpp:137] Memory required for data: 2755628032
I0115 21:18:28.781630 141796 layer_factory.hpp:77] Creating layer conv5
I0115 21:18:28.781666 141796 net.cpp:84] Creating Layer conv5
I0115 21:18:28.781679 141796 net.cpp:406] conv5 <- conv4
I0115 21:18:28.781703 141796 net.cpp:380] conv5 -> conv5
I0115 21:18:28.810056 141796 net.cpp:122] Setting up conv5
I0115 21:18:28.810148 141796 net.cpp:129] Top shape: 256 256 13 13 (11075584)
I0115 21:18:28.810171 141796 net.cpp:137] Memory required for data: 2799930368
I0115 21:18:28.810215 141796 layer_factory.hpp:77] Creating layer bn5
I0115 21:18:28.810258 141796 net.cpp:84] Creating Layer bn5
I0115 21:18:28.810278 141796 net.cpp:406] bn5 <- conv5
I0115 21:18:28.810318 141796 net.cpp:367] bn5 -> conv5 (in-place)
I0115 21:18:28.810956 141796 net.cpp:122] Setting up bn5
I0115 21:18:28.810986 141796 net.cpp:129] Top shape: 256 256 13 13 (11075584)
I0115 21:18:28.811003 141796 net.cpp:137] Memory required for data: 2844232704
I0115 21:18:28.811071 141796 layer_factory.hpp:77] Creating layer scale5
I0115 21:18:28.811108 141796 net.cpp:84] Creating Layer scale5
I0115 21:18:28.811128 141796 net.cpp:406] scale5 <- conv5
I0115 21:18:28.811156 141796 net.cpp:367] scale5 -> conv5 (in-place)
I0115 21:18:28.811309 141796 layer_factory.hpp:77] Creating layer scale5
I0115 21:18:28.811679 141796 net.cpp:122] Setting up scale5
I0115 21:18:28.811712 141796 net.cpp:129] Top shape: 256 256 13 13 (11075584)
I0115 21:18:28.811729 141796 net.cpp:137] Memory required for data: 2888535040
I0115 21:18:28.811764 141796 layer_factory.hpp:77] Creating layer relu5
I0115 21:18:28.811787 141796 net.cpp:84] Creating Layer relu5
I0115 21:18:28.811806 141796 net.cpp:406] relu5 <- conv5
I0115 21:18:28.811835 141796 net.cpp:367] relu5 -> conv5 (in-place)
I0115 21:18:28.811858 141796 net.cpp:122] Setting up relu5
I0115 21:18:28.811884 141796 net.cpp:129] Top shape: 256 256 13 13 (11075584)
I0115 21:18:28.811902 141796 net.cpp:137] Memory required for data: 2932837376
I0115 21:18:28.811918 141796 layer_factory.hpp:77] Creating layer pool5
I0115 21:18:28.811947 141796 net.cpp:84] Creating Layer pool5
I0115 21:18:28.811961 141796 net.cpp:406] pool5 <- conv5
I0115 21:18:28.811991 141796 net.cpp:380] pool5 -> pool5
I0115 21:18:28.812115 141796 net.cpp:122] Setting up pool5
I0115 21:18:28.812140 141796 net.cpp:129] Top shape: 256 256 6 6 (2359296)
I0115 21:18:28.812160 141796 net.cpp:137] Memory required for data: 2942274560
I0115 21:18:28.812178 141796 layer_factory.hpp:77] Creating layer fc6
I0115 21:18:28.812209 141796 net.cpp:84] Creating Layer fc6
I0115 21:18:28.812224 141796 net.cpp:406] fc6 <- pool5
I0115 21:18:28.812238 141796 net.cpp:380] fc6 -> fc6
I0115 21:18:29.847522 141796 net.cpp:122] Setting up fc6
I0115 21:18:29.847692 141796 net.cpp:129] Top shape: 256 4096 (1048576)
I0115 21:18:29.847712 141796 net.cpp:137] Memory required for data: 2946468864
I0115 21:18:29.847766 141796 layer_factory.hpp:77] Creating layer bn6
I0115 21:18:29.847826 141796 net.cpp:84] Creating Layer bn6
I0115 21:18:29.847844 141796 net.cpp:406] bn6 <- fc6
I0115 21:18:29.847879 141796 net.cpp:367] bn6 -> fc6 (in-place)
I0115 21:18:29.848556 141796 net.cpp:122] Setting up bn6
I0115 21:18:29.848590 141796 net.cpp:129] Top shape: 256 4096 (1048576)
I0115 21:18:29.848604 141796 net.cpp:137] Memory required for data: 2950663168
I0115 21:18:29.848649 141796 layer_factory.hpp:77] Creating layer scale6
I0115 21:18:29.848691 141796 net.cpp:84] Creating Layer scale6
I0115 21:18:29.848711 141796 net.cpp:406] scale6 <- fc6
I0115 21:18:29.848734 141796 net.cpp:367] scale6 -> fc6 (in-place)
I0115 21:18:29.848878 141796 layer_factory.hpp:77] Creating layer scale6
I0115 21:18:29.849294 141796 net.cpp:122] Setting up scale6
I0115 21:18:29.849324 141796 net.cpp:129] Top shape: 256 4096 (1048576)
I0115 21:18:29.849341 141796 net.cpp:137] Memory required for data: 2954857472
I0115 21:18:29.849369 141796 layer_factory.hpp:77] Creating layer relu6
I0115 21:18:29.849397 141796 net.cpp:84] Creating Layer relu6
I0115 21:18:29.849418 141796 net.cpp:406] relu6 <- fc6
I0115 21:18:29.849448 141796 net.cpp:367] relu6 -> fc6 (in-place)
I0115 21:18:29.849478 141796 net.cpp:122] Setting up relu6
I0115 21:18:29.849499 141796 net.cpp:129] Top shape: 256 4096 (1048576)
I0115 21:18:29.849517 141796 net.cpp:137] Memory required for data: 2959051776
I0115 21:18:29.849537 141796 layer_factory.hpp:77] Creating layer drop6
I0115 21:18:29.849565 141796 net.cpp:84] Creating Layer drop6
I0115 21:18:29.849580 141796 net.cpp:406] drop6 <- fc6
I0115 21:18:29.849591 141796 net.cpp:367] drop6 -> fc6 (in-place)
I0115 21:18:29.849680 141796 net.cpp:122] Setting up drop6
I0115 21:18:29.849706 141796 net.cpp:129] Top shape: 256 4096 (1048576)
I0115 21:18:29.849726 141796 net.cpp:137] Memory required for data: 2963246080
I0115 21:18:29.849741 141796 layer_factory.hpp:77] Creating layer fc7
I0115 21:18:29.849778 141796 net.cpp:84] Creating Layer fc7
I0115 21:18:29.849797 141796 net.cpp:406] fc7 <- fc6
I0115 21:18:29.849836 141796 net.cpp:380] fc7 -> fc7
I0115 21:18:30.290537 141796 net.cpp:122] Setting up fc7
I0115 21:18:30.290602 141796 net.cpp:129] Top shape: 256 4096 (1048576)
I0115 21:18:30.290609 141796 net.cpp:137] Memory required for data: 2967440384
I0115 21:18:30.290628 141796 layer_factory.hpp:77] Creating layer bn7
I0115 21:18:30.290659 141796 net.cpp:84] Creating Layer bn7
I0115 21:18:30.290668 141796 net.cpp:406] bn7 <- fc7
I0115 21:18:30.290679 141796 net.cpp:367] bn7 -> fc7 (in-place)
I0115 21:18:30.290876 141796 net.cpp:122] Setting up bn7
I0115 21:18:30.290892 141796 net.cpp:129] Top shape: 256 4096 (1048576)
I0115 21:18:30.290905 141796 net.cpp:137] Memory required for data: 2971634688
I0115 21:18:30.290916 141796 layer_factory.hpp:77] Creating layer scale7
I0115 21:18:30.290946 141796 net.cpp:84] Creating Layer scale7
I0115 21:18:30.290953 141796 net.cpp:406] scale7 <- fc7
I0115 21:18:30.290968 141796 net.cpp:367] scale7 -> fc7 (in-place)
I0115 21:18:30.291016 141796 layer_factory.hpp:77] Creating layer scale7
I0115 21:18:30.291154 141796 net.cpp:122] Setting up scale7
I0115 21:18:30.291167 141796 net.cpp:129] Top shape: 256 4096 (1048576)
I0115 21:18:30.291180 141796 net.cpp:137] Memory required for data: 2975828992
I0115 21:18:30.291188 141796 layer_factory.hpp:77] Creating layer relu7
I0115 21:18:30.291198 141796 net.cpp:84] Creating Layer relu7
I0115 21:18:30.291204 141796 net.cpp:406] relu7 <- fc7
I0115 21:18:30.291216 141796 net.cpp:367] relu7 -> fc7 (in-place)
I0115 21:18:30.291226 141796 net.cpp:122] Setting up relu7
I0115 21:18:30.291234 141796 net.cpp:129] Top shape: 256 4096 (1048576)
I0115 21:18:30.291240 141796 net.cpp:137] Memory required for data: 2980023296
I0115 21:18:30.291246 141796 layer_factory.hpp:77] Creating layer drop7
I0115 21:18:30.291257 141796 net.cpp:84] Creating Layer drop7
I0115 21:18:30.291306 141796 net.cpp:406] drop7 <- fc7
I0115 21:18:30.291316 141796 net.cpp:367] drop7 -> fc7 (in-place)
I0115 21:18:30.291343 141796 net.cpp:122] Setting up drop7
I0115 21:18:30.291355 141796 net.cpp:129] Top shape: 256 4096 (1048576)
I0115 21:18:30.291362 141796 net.cpp:137] Memory required for data: 2984217600
I0115 21:18:30.291368 141796 layer_factory.hpp:77] Creating layer fc8
I0115 21:18:30.291380 141796 net.cpp:84] Creating Layer fc8
I0115 21:18:30.291388 141796 net.cpp:406] fc8 <- fc7
I0115 21:18:30.291398 141796 net.cpp:380] fc8 -> fc8
I0115 21:18:30.353866 141796 net.cpp:122] Setting up fc8
I0115 21:18:30.353916 141796 net.cpp:129] Top shape: 256 1000 (256000)
I0115 21:18:30.353922 141796 net.cpp:137] Memory required for data: 2985241600
I0115 21:18:30.353935 141796 layer_factory.hpp:77] Creating layer fc8_fc8_0_split
I0115 21:18:30.353953 141796 net.cpp:84] Creating Layer fc8_fc8_0_split
I0115 21:18:30.353961 141796 net.cpp:406] fc8_fc8_0_split <- fc8
I0115 21:18:30.353983 141796 net.cpp:380] fc8_fc8_0_split -> fc8_fc8_0_split_0
I0115 21:18:30.353996 141796 net.cpp:380] fc8_fc8_0_split -> fc8_fc8_0_split_1
I0115 21:18:30.354045 141796 net.cpp:122] Setting up fc8_fc8_0_split
I0115 21:18:30.354059 141796 net.cpp:129] Top shape: 256 1000 (256000)
I0115 21:18:30.354075 141796 net.cpp:129] Top shape: 256 1000 (256000)
I0115 21:18:30.354080 141796 net.cpp:137] Memory required for data: 2987289600
I0115 21:18:30.354085 141796 layer_factory.hpp:77] Creating layer accuracy_5_TRAIN
I0115 21:18:30.354096 141796 net.cpp:84] Creating Layer accuracy_5_TRAIN
I0115 21:18:30.354102 141796 net.cpp:406] accuracy_5_TRAIN <- fc8_fc8_0_split_0
I0115 21:18:30.354110 141796 net.cpp:406] accuracy_5_TRAIN <- label_data_1_split_0
…
I0115 21:18:30.356797 141796 net.cpp:294] The NetState phase (1) differed from the phase (0) specified by a rule in layer accuracy_5_TRAIN
I0115 21:18:30.357043 141796 net.cpp:51] Initializing net from parameters: 
name: "AlexNet-BN"
state {
  phase: TEST
}
layer {
  name: "data"
  type: "Data"
  top: "data"
  top: "label"
  include {
    phase: TEST
  }
  transform_param {
    mirror: false
    crop_size: 224
    mean_value: 103.939
    mean_value: 116.779
    mean_value: 123.68
  }
  data_param {
    source: "/home/DATA/imagenet_resize/lmdb_resize/ilsvrc12_val_lmdb"
    batch_size: 50
    backend: LMDB
  }
}
layer {
  name: "conv1"
  type: "Convolution"
  bottom: "data"
  top: "conv1"
  param {
    lr_mult: 1
    decay_mult: 1
  }
  param {
    lr_mult: 2
    decay_mult: 0
  }
  convolution_param {
    num_output: 96
    pad: 2
    kernel_size: 11
    stride: 4
    weight_filler {
      type: "gaussian"
      std: 0.01
    }
    bias_filler {
      type: "constant"
      value: 0
    }
  }
}
layer {
  name: "bn1"
  type: "BatchNorm"
  bottom: "conv1"
  top: "conv1"
  batch_norm_param {
    use_global_stats: false
  }
}
layer {
  name: "scale1"
  type: "Scale"
  bottom: "conv1"
  top: "conv1"
  scale_param {
    bias_term: true
  }
}
layer {
  name: "relu1"
  type: "ReLU"
  bottom: "conv1"
  top: "conv1"
}
layer {
  name: "pool1"
  type: "Pooling"
  bottom: "conv1"
  top: "pool1"
  pooling_param {
    pool: MAX
    kernel_size: 3
    stride: 2
  }
}
layer {
  name: "conv2"
  type: "Convolution"
  bottom: "pool1"
  top: "conv2"
  param {
    lr_mult: 1
    decay_mult: 1
  }
  param {
    lr_mult: 2
    decay_mult: 0
  }
  convolution_param {
    num_output: 256
    pad: 2
    kernel_size: 5
    weight_filler {
      type: "gaussian"
      std: 0.01
    }
    bias_filler {
      type: "constant"
      value: 0.1
    }
  }
}
layer {
  name: "bn2"
  type: "BatchNorm"
  bottom: "conv2"
  top: "conv2"
  batch_norm_param {
    use_global_stats: false
  }
}
layer {
  name: "scale2"
  type: "Scale"
  bottom: "conv2"
  top: "conv2"
  scale_param {
    bias_term: true
  }
}
layer {
  name: "relu2"
  type: "ReLU"
  bottom: "conv2"
  top: "conv2"
}
layer {
  name: "pool2"
  type: "Pooling"
  bottom: "conv2"
  top: "pool2"
  pooling_param {
    pool: MAX
    kernel_size: 3
    stride: 2
  }
}
layer {
  name: "conv3"
  type: "Convolution"
  bottom: "pool2"
  top: "conv3"
  param {
    lr_mult: 1
    decay_mult: 1
  }
  param {
    lr_mult: 2
    decay_mult: 0
  }
  convolution_param {
    num_output: 384
    pad: 1
    kernel_size: 3
    weight_filler {
      type: "gaussian"
      std: 0.01
    }
    bias_filler {
      type: "constant"
      value: 0
    }
  }
}
layer {
  name: "bn3"
  type: "BatchNorm"
  bottom: "conv3"
  top: "conv3"
  batch_norm_param {
    use_global_stats: false
  }
}
layer {
  name: "scale3"
  type: "Scale"
  bottom: "conv3"
  top: "conv3"
  scale_param {
    bias_term: true
  }
}
layer {
  name: "relu3"
  type: "ReLU"
  bottom: "conv3"
  top: "conv3"
}
layer {
  name: "conv4"
  type: "Convolution"
  bottom: "conv3"
  top: "conv4"
  param {
    lr_mult: 1
    decay_mult: 1
  }
  param {
    lr_mult: 2
    decay_mult: 0
  }
  convolution_param {
    num_output: 384
    pad: 1
    kernel_size: 3
    weight_filler {
      type: "gaussian"
      std: 0.01
    }
    bias_filler {
      type: "constant"
      value: 0.1
    }
  }
}
layer {
  name: "bn4"
  type: "BatchNorm"
  bottom: "conv4"
  top: "conv4"
  batch_norm_param {
    use_global_stats: false
  }
}
layer {
  name: "scale4"
  type: "Scale"
  bottom: "conv4"
  top: "conv4"
  scale_param {
    bias_term: true
  }
}
layer {
  name: "relu4"
  type: "ReLU"
  bottom: "conv4"
  top: "conv4"
}
layer {
  name: "conv5"
  type: "Convolution"
  bottom: "conv4"
  top: "conv5"
  param {
    lr_mult: 1
    decay_mult: 1
  }
  param {
    lr_mult: 2
    decay_mult: 0
  }
  convolution_param {
    num_output: 256
    pad: 1
    kernel_size: 3
    weight_filler {
      type: "gaussian"
      std: 0.01
    }
    bias_filler {
      type: "constant"
      value: 0.1
    }
  }
}
layer {
  name: "bn5"
  type: "BatchNorm"
  bottom: "conv5"
  top: "conv5"
  batch_norm_param {
    use_global_stats: false
  }
}
layer {
  name: "scale5"
  type: "Scale"
  bottom: "conv5"
  top: "conv5"
  scale_param {
    bias_term: true
  }
}
layer {
  name: "relu5"
  type: "ReLU"
  bottom: "conv5"
  top: "conv5"
}
layer {
  name: "pool5"
  type: "Pooling"
  bottom: "conv5"
  top: "pool5"
  pooling_param {
    pool: MAX
    kernel_size: 3
    stride: 2
  }
}
layer {
  name: "fc6"
  type: "InnerProduct"
  bottom: "pool5"
  top: "fc6"
  param {
    lr_mult: 1
    decay_mult: 1
  }
  param {
    lr_mult: 2
    decay_mult: 0
  }
  inner_product_param {
    num_output: 4096
    weight_filler {
      type: "gaussian"
      std: 0.005
    }
    bias_filler {
      type: "constant"
      value: 0.1
    }
  }
}
layer {
  name: "bn6"
  type: "BatchNorm"
  bottom: "fc6"
  top: "fc6"
  batch_norm_param {
    use_global_stats: false
  }
}
layer {
  name: "scale6"
  type: "Scale"
  bottom: "fc6"
  top: "fc6"
  scale_param {
    bias_term: true
  }
}
layer {
  name: "relu6"
  type: "ReLU"
  bottom: "fc6"
  top: "fc6"
}
layer {
  name: "drop6"
  type: "Dropout"
  bottom: "fc6"
  top: "fc6"
  dropout_param {
    dropout_ratio: 0.5
  }
}
layer {
  name: "fc7"
  type: "InnerProduct"
  bottom: "fc6"
  top: "fc7"
  param {
    lr_mult: 1
    decay_mult: 1
  }
  param {
    lr_mult: 2
    decay_mult: 0
  }
  inner_product_param {
    num_output: 4096
    weight_filler {
      type: "gaussian"
      std: 0.005
    }
    bias_filler {
      type: "constant"
      value: 0.1
    }
  }
}
layer {
  name: "bn7"
  type: "BatchNorm"
  bottom: "fc7"
  top: "fc7"
  batch_norm_param {
    use_global_stats: false
  }
}
layer {
  name: "scale7"
  type: "Scale"
  bottom: "fc7"
  top: "fc7"
  scale_param {
    bias_term: true
  }
}
layer {
  name: "relu7"
  type: "ReLU"
  bottom: "fc7"
  top: "fc7"
}
layer {
  name: "drop7"
  type: "Dropout"
  bottom: "fc7"
  top: "fc7"
  dropout_param {
    dropout_ratio: 0.5
  }
}
layer {
  name: "fc8"
  type: "InnerProduct"
  bottom: "fc7"
  top: "fc8"
  param {
    lr_mult: 1
    decay_mult: 1
  }
  param {
    lr_mult: 2
    decay_mult: 0
  }
  inner_product_param {
    num_output: 1000
    weight_filler {
      type: "gaussian"
      std: 0.01
    }
    bias_filler {
      type: "constant"
      value: 0
    }
  }
}
layer {
  name: "accuracy"
  type: "Accuracy"
  bottom: "fc8"
  bottom: "label"
  top: "accuracy"
  include {
    phase: TEST
  }
}
layer {
  name: "accuracy_5"
  type: "Accuracy"
  bottom: "fc8"
  bottom: "label"
  top: "accuracy_5"
  include {
    phase: TEST
  }
  accuracy_param {
    top_k: 5
  }
}
layer {
  name: "loss"
  type: "SoftmaxWithLoss"
  bottom: "fc8"
  bottom: "label"
  top: "loss"
}
I0115 21:18:30.357264 141796 layer_factory.hpp:77] Creating layer data
I0115 21:18:30.365666 141796 db_lmdb.cpp:35] Opened lmdb /home/DATA/imagenet_resize/lmdb_resize/ilsvrc12_val_lmdb
I0115 21:18:30.365798 141796 net.cpp:84] Creating Layer data
I0115 21:18:30.365901 141796 net.cpp:380] data -> data
I0115 21:18:30.365927 141796 net.cpp:380] data -> label
I0115 21:18:30.366658 141796 data_layer.cpp:45] output data size: 50,3,224,224
I0115 21:18:30.479120 141796 net.cpp:122] Setting up data
I0115 21:18:30.479213 141796 net.cpp:129] Top shape: 50 3 224 224 (7526400)
I0115 21:18:30.479226 141796 net.cpp:129] Top shape: 50 (50)
I0115 21:18:30.479233 141796 net.cpp:137] Memory required for data: 30105800
I0115 21:18:30.479246 141796 layer_factory.hpp:77] Creating layer label_data_1_split
I0115 21:18:30.479292 141796 net.cpp:84] Creating Layer label_data_1_split
I0115 21:18:30.479303 141796 net.cpp:406] label_data_1_split <- label
I0115 21:18:30.479315 141796 net.cpp:380] label_data_1_split -> label_data_1_split_0
I0115 21:18:30.479346 141796 net.cpp:380] label_data_1_split -> label_data_1_split_1
I0115 21:18:30.479359 141796 net.cpp:380] label_data_1_split -> label_data_1_split_2
I0115 21:18:30.479598 141796 net.cpp:122] Setting up label_data_1_split
I0115 21:18:30.479666 141796 net.cpp:129] Top shape: 50 (50)
I0115 21:18:30.479676 141796 net.cpp:129] Top shape: 50 (50)
I0115 21:18:30.479686 141796 net.cpp:129] Top shape: 50 (50)
I0115 21:18:30.479691 141796 net.cpp:137] Memory required for data: 30106400
I0115 21:18:30.479702 141796 layer_factory.hpp:77] Creating layer conv1
I0115 21:18:30.479745 141796 net.cpp:84] Creating Layer conv1
I0115 21:18:30.479754 141796 net.cpp:406] conv1 <- data
I0115 21:18:30.479768 141796 net.cpp:380] conv1 -> conv1
I0115 21:18:30.480640 141796 net.cpp:122] Setting up conv1
I0115 21:18:30.480656 141796 net.cpp:129] Top shape: 50 96 55 55 (14520000)
I0115 21:18:30.480675 141796 net.cpp:137] Memory required for data: 88186400
I0115 21:18:30.480693 141796 layer_factory.hpp:77] Creating layer bn1
I0115 21:18:30.480706 141796 net.cpp:84] Creating Layer bn1
I0115 21:18:30.480715 141796 net.cpp:406] bn1 <- conv1
I0115 21:18:30.480723 141796 net.cpp:367] bn1 -> conv1 (in-place)
I0115 21:18:30.480954 141796 net.cpp:122] Setting up bn1
I0115 21:18:30.480968 141796 net.cpp:129] Top shape: 50 96 55 55 (14520000)
I0115 21:18:30.480988 141796 net.cpp:137] Memory required for data: 146266400
I0115 21:18:30.481003 141796 layer_factory.hpp:77] Creating layer scale1
I0115 21:18:30.481019 141796 net.cpp:84] Creating Layer scale1
I0115 21:18:30.481025 141796 net.cpp:406] scale1 <- conv1
I0115 21:18:30.481034 141796 net.cpp:367] scale1 -> conv1 (in-place)
I0115 21:18:30.481092 141796 layer_factory.hpp:77] Creating layer scale1
I0115 21:18:30.481407 141796 net.cpp:122] Setting up scale1
I0115 21:18:30.481432 141796 net.cpp:129] Top shape: 50 96 55 55 (14520000)
I0115 21:18:30.481441 141796 net.cpp:137] Memory required for data: 204346400
I0115 21:18:30.481453 141796 layer_factory.hpp:77] Creating layer relu1
I0115 21:18:30.481467 141796 net.cpp:84] Creating Layer relu1
I0115 21:18:30.481473 141796 net.cpp:406] relu1 <- conv1
I0115 21:18:30.481484 141796 net.cpp:367] relu1 -> conv1 (in-place)
I0115 21:18:30.481497 141796 net.cpp:122] Setting up relu1
I0115 21:18:30.481557 141796 net.cpp:129] Top shape: 50 96 55 55 (14520000)
I0115 21:18:30.481565 141796 net.cpp:137] Memory required for data: 262426400
I0115 21:18:30.481572 141796 layer_factory.hpp:77] Creating layer pool1
I0115 21:18:30.481585 141796 net.cpp:84] Creating Layer pool1
I0115 21:18:30.481592 141796 net.cpp:406] pool1 <- conv1
I0115 21:18:30.481602 141796 net.cpp:380] pool1 -> pool1
I0115 21:18:30.481665 141796 net.cpp:122] Setting up pool1
I0115 21:18:30.481679 141796 net.cpp:129] Top shape: 50 96 27 27 (3499200)
I0115 21:18:30.481685 141796 net.cpp:137] Memory required for data: 276423200
I0115 21:18:30.481693 141796 layer_factory.hpp:77] Creating layer conv2
I0115 21:18:30.481710 141796 net.cpp:84] Creating Layer conv2
I0115 21:18:30.481719 141796 net.cpp:406] conv2 <- pool1
I0115 21:18:30.481731 141796 net.cpp:380] conv2 -> conv2
I0115 21:18:30.497028 141796 net.cpp:122] Setting up conv2
I0115 21:18:30.497079 141796 net.cpp:129] Top shape: 50 256 27 27 (9331200)
I0115 21:18:30.497087 141796 net.cpp:137] Memory required for data: 313748000
I0115 21:18:30.497110 141796 layer_factory.hpp:77] Creating layer bn2
I0115 21:18:30.497144 141796 net.cpp:84] Creating Layer bn2
I0115 21:18:30.497153 141796 net.cpp:406] bn2 <- conv2
I0115 21:18:30.497164 141796 net.cpp:367] bn2 -> conv2 (in-place)
I0115 21:18:30.497400 141796 net.cpp:122] Setting up bn2
I0115 21:18:30.497416 141796 net.cpp:129] Top shape: 50 256 27 27 (9331200)
I0115 21:18:30.497433 141796 net.cpp:137] Memory required for data: 351072800
I0115 21:18:30.497447 141796 layer_factory.hpp:77] Creating layer scale2
I0115 21:18:30.497459 141796 net.cpp:84] Creating Layer scale2
I0115 21:18:30.497467 141796 net.cpp:406] scale2 <- conv2
I0115 21:18:30.497476 141796 net.cpp:367] scale2 -> conv2 (in-place)
I0115 21:18:30.497545 141796 layer_factory.hpp:77] Creating layer scale2
I0115 21:18:30.497701 141796 net.cpp:122] Setting up scale2
I0115 21:18:30.497714 141796 net.cpp:129] Top shape: 50 256 27 27 (9331200)
I0115 21:18:30.497732 141796 net.cpp:137] Memory required for data: 388397600
I0115 21:18:30.497742 141796 layer_factory.hpp:77] Creating layer relu2
I0115 21:18:30.497754 141796 net.cpp:84] Creating Layer relu2
I0115 21:18:30.497761 141796 net.cpp:406] relu2 <- conv2
I0115 21:18:30.497771 141796 net.cpp:367] relu2 -> conv2 (in-place)
I0115 21:18:30.497781 141796 net.cpp:122] Setting up relu2
I0115 21:18:30.497789 141796 net.cpp:129] Top shape: 50 256 27 27 (9331200)
I0115 21:18:30.497797 141796 net.cpp:137] Memory required for data: 425722400
I0115 21:18:30.497802 141796 layer_factory.hpp:77] Creating layer pool2
I0115 21:18:30.497855 141796 net.cpp:84] Creating Layer pool2
I0115 21:18:30.497867 141796 net.cpp:406] pool2 <- conv2
I0115 21:18:30.497879 141796 net.cpp:380] pool2 -> pool2
I0115 21:18:30.497936 141796 net.cpp:122] Setting up pool2
I0115 21:18:30.497951 141796 net.cpp:129] Top shape: 50 256 13 13 (2163200)
I0115 21:18:30.497958 141796 net.cpp:137] Memory required for data: 434375200
I0115 21:18:30.497965 141796 layer_factory.hpp:77] Creating layer conv3
I0115 21:18:30.497983 141796 net.cpp:84] Creating Layer conv3
I0115 21:18:30.497992 141796 net.cpp:406] conv3 <- pool2
I0115 21:18:30.498003 141796 net.cpp:380] conv3 -> conv3
I0115 21:18:30.513226 141796 net.cpp:122] Setting up conv3
I0115 21:18:30.513273 141796 net.cpp:129] Top shape: 50 384 13 13 (3244800)
I0115 21:18:30.513279 141796 net.cpp:137] Memory required for data: 447354400
I0115 21:18:30.513295 141796 layer_factory.hpp:77] Creating layer bn3
I0115 21:18:30.513312 141796 net.cpp:84] Creating Layer bn3
I0115 21:18:30.513320 141796 net.cpp:406] bn3 <- conv3
I0115 21:18:30.513334 141796 net.cpp:367] bn3 -> conv3 (in-place)
I0115 21:18:30.513558 141796 net.cpp:122] Setting up bn3
I0115 21:18:30.513586 141796 net.cpp:129] Top shape: 50 384 13 13 (3244800)
I0115 21:18:30.513592 141796 net.cpp:137] Memory required for data: 460333600
I0115 21:18:30.513612 141796 layer_factory.hpp:77] Creating layer scale3
I0115 21:18:30.513626 141796 net.cpp:84] Creating Layer scale3
I0115 21:18:30.513689 141796 net.cpp:406] scale3 <- conv3
I0115 21:18:30.513700 141796 net.cpp:367] scale3 -> conv3 (in-place)
I0115 21:18:30.513767 141796 layer_factory.hpp:77] Creating layer scale3
I0115 21:18:30.513937 141796 net.cpp:122] Setting up scale3
I0115 21:18:30.513953 141796 net.cpp:129] Top shape: 50 384 13 13 (3244800)
I0115 21:18:30.513972 141796 net.cpp:137] Memory required for data: 473312800
I0115 21:18:30.513981 141796 layer_factory.hpp:77] Creating layer relu3
I0115 21:18:30.513993 141796 net.cpp:84] Creating Layer relu3
I0115 21:18:30.514000 141796 net.cpp:406] relu3 <- conv3
I0115 21:18:30.514017 141796 net.cpp:367] relu3 -> conv3 (in-place)
I0115 21:18:30.514027 141796 net.cpp:122] Setting up relu3
I0115 21:18:30.514036 141796 net.cpp:129] Top shape: 50 384 13 13 (3244800)
I0115 21:18:30.514053 141796 net.cpp:137] Memory required for data: 486292000
I0115 21:18:30.514060 141796 layer_factory.hpp:77] Creating layer conv4
I0115 21:18:30.514080 141796 net.cpp:84] Creating Layer conv4
I0115 21:18:30.514086 141796 net.cpp:406] conv4 <- conv3
I0115 21:18:30.514098 141796 net.cpp:380] conv4 -> conv4
I0115 21:18:30.536574 141796 net.cpp:122] Setting up conv4
I0115 21:18:30.536623 141796 net.cpp:129] Top shape: 50 384 13 13 (3244800)
I0115 21:18:30.536629 141796 net.cpp:137] Memory required for data: 499271200
I0115 21:18:30.536645 141796 layer_factory.hpp:77] Creating layer bn4
I0115 21:18:30.536677 141796 net.cpp:84] Creating Layer bn4
I0115 21:18:30.536686 141796 net.cpp:406] bn4 <- conv4
I0115 21:18:30.536698 141796 net.cpp:367] bn4 -> conv4 (in-place)
I0115 21:18:30.536950 141796 net.cpp:122] Setting up bn4
I0115 21:18:30.536963 141796 net.cpp:129] Top shape: 50 384 13 13 (3244800)
I0115 21:18:30.536968 141796 net.cpp:137] Memory required for data: 512250400
I0115 21:18:30.536981 141796 layer_factory.hpp:77] Creating layer scale4
I0115 21:18:30.536998 141796 net.cpp:84] Creating Layer scale4
I0115 21:18:30.537011 141796 net.cpp:406] scale4 <- conv4
I0115 21:18:30.537021 141796 net.cpp:367] scale4 -> conv4 (in-place)
I0115 21:18:30.537078 141796 layer_factory.hpp:77] Creating layer scale4
I0115 21:18:30.537216 141796 net.cpp:122] Setting up scale4
I0115 21:18:30.537230 141796 net.cpp:129] Top shape: 50 384 13 13 (3244800)
I0115 21:18:30.537245 141796 net.cpp:137] Memory required for data: 525229600
I0115 21:18:30.537256 141796 layer_factory.hpp:77] Creating layer relu4
I0115 21:18:30.537267 141796 net.cpp:84] Creating Layer relu4
I0115 21:18:30.537274 141796 net.cpp:406] relu4 <- conv4
I0115 21:18:30.537286 141796 net.cpp:367] relu4 -> conv4 (in-place)
I0115 21:18:30.537297 141796 net.cpp:122] Setting up relu4
I0115 21:18:30.537305 141796 net.cpp:129] Top shape: 50 384 13 13 (3244800)
I0115 21:18:30.537312 141796 net.cpp:137] Memory required for data: 538208800
I0115 21:18:30.537319 141796 layer_factory.hpp:77] Creating layer conv5
I0115 21:18:30.537338 141796 net.cpp:84] Creating Layer conv5
I0115 21:18:30.537353 141796 net.cpp:406] conv5 <- conv4
I0115 21:18:30.537364 141796 net.cpp:380] conv5 -> conv5
I0115 21:18:30.551959 141796 net.cpp:122] Setting up conv5
I0115 21:18:30.551981 141796 net.cpp:129] Top shape: 50 256 13 13 (2163200)
I0115 21:18:30.551990 141796 net.cpp:137] Memory required for data: 546861600
I0115 21:18:30.552000 141796 layer_factory.hpp:77] Creating layer bn5
I0115 21:18:30.552014 141796 net.cpp:84] Creating Layer bn5
I0115 21:18:30.552021 141796 net.cpp:406] bn5 <- conv5
I0115 21:18:30.552031 141796 net.cpp:367] bn5 -> conv5 (in-place)
I0115 21:18:30.552274 141796 net.cpp:122] Setting up bn5
I0115 21:18:30.552289 141796 net.cpp:129] Top shape: 50 256 13 13 (2163200)
I0115 21:18:30.552297 141796 net.cpp:137] Memory required for data: 555514400
I0115 21:18:30.552322 141796 layer_factory.hpp:77] Creating layer scale5
I0115 21:18:30.552335 141796 net.cpp:84] Creating Layer scale5
I0115 21:18:30.552340 141796 net.cpp:406] scale5 <- conv5
I0115 21:18:30.552348 141796 net.cpp:367] scale5 -> conv5 (in-place)
I0115 21:18:30.552415 141796 layer_factory.hpp:77] Creating layer scale5
I0115 21:18:30.552568 141796 net.cpp:122] Setting up scale5
I0115 21:18:30.552639 141796 net.cpp:129] Top shape: 50 256 13 13 (2163200)
I0115 21:18:30.552645 141796 net.cpp:137] Memory required for data: 564167200
I0115 21:18:30.552654 141796 layer_factory.hpp:77] Creating layer relu5
I0115 21:18:30.552662 141796 net.cpp:84] Creating Layer relu5
I0115 21:18:30.552670 141796 net.cpp:406] relu5 <- conv5
I0115 21:18:30.552683 141796 net.cpp:367] relu5 -> conv5 (in-place)
I0115 21:18:30.552719 141796 net.cpp:122] Setting up relu5
I0115 21:18:30.552728 141796 net.cpp:129] Top shape: 50 256 13 13 (2163200)
I0115 21:18:30.552733 141796 net.cpp:137] Memory required for data: 572820000
I0115 21:18:30.552742 141796 layer_factory.hpp:77] Creating layer pool5
I0115 21:18:30.552752 141796 net.cpp:84] Creating Layer pool5
I0115 21:18:30.552758 141796 net.cpp:406] pool5 <- conv5
I0115 21:18:30.552767 141796 net.cpp:380] pool5 -> pool5
I0115 21:18:30.552821 141796 net.cpp:122] Setting up pool5
I0115 21:18:30.552834 141796 net.cpp:129] Top shape: 50 256 6 6 (460800)
I0115 21:18:30.552840 141796 net.cpp:137] Memory required for data: 574663200
I0115 21:18:30.552847 141796 layer_factory.hpp:77] Creating layer fc6
I0115 21:18:30.552862 141796 net.cpp:84] Creating Layer fc6
I0115 21:18:30.552870 141796 net.cpp:406] fc6 <- pool5
I0115 21:18:30.552881 141796 net.cpp:380] fc6 -> fc6
I0115 21:18:31.148932 141796 net.cpp:122] Setting up fc6
I0115 21:18:31.148999 141796 net.cpp:129] Top shape: 50 4096 (204800)
I0115 21:18:31.149005 141796 net.cpp:137] Memory required for data: 575482400
I0115 21:18:31.149024 141796 layer_factory.hpp:77] Creating layer bn6
I0115 21:18:31.149067 141796 net.cpp:84] Creating Layer bn6
I0115 21:18:31.149077 141796 net.cpp:406] bn6 <- fc6
I0115 21:18:31.149088 141796 net.cpp:367] bn6 -> fc6 (in-place)
I0115 21:18:31.149318 141796 net.cpp:122] Setting up bn6
I0115 21:18:31.149332 141796 net.cpp:129] Top shape: 50 4096 (204800)
I0115 21:18:31.149336 141796 net.cpp:137] Memory required for data: 576301600
I0115 21:18:31.149353 141796 layer_factory.hpp:77] Creating layer scale6
I0115 21:18:31.149363 141796 net.cpp:84] Creating Layer scale6
I0115 21:18:31.149377 141796 net.cpp:406] scale6 <- fc6
I0115 21:18:31.149392 141796 net.cpp:367] scale6 -> fc6 (in-place)
I0115 21:18:31.149453 141796 layer_factory.hpp:77] Creating layer scale6
I0115 21:18:31.149606 141796 net.cpp:122] Setting up scale6
I0115 21:18:31.149619 141796 net.cpp:129] Top shape: 50 4096 (204800)
I0115 21:18:31.149624 141796 net.cpp:137] Memory required for data: 577120800
I0115 21:18:31.149638 141796 layer_factory.hpp:77] Creating layer relu6
I0115 21:18:31.149647 141796 net.cpp:84] Creating Layer relu6
I0115 21:18:31.149652 141796 net.cpp:406] relu6 <- fc6
I0115 21:18:31.149663 141796 net.cpp:367] relu6 -> fc6 (in-place)
I0115 21:18:31.149674 141796 net.cpp:122] Setting up relu6
I0115 21:18:31.149684 141796 net.cpp:129] Top shape: 50 4096 (204800)
I0115 21:18:31.149690 141796 net.cpp:137] Memory required for data: 577940000
I0115 21:18:31.149695 141796 layer_factory.hpp:77] Creating layer drop6
I0115 21:18:31.149706 141796 net.cpp:84] Creating Layer drop6
I0115 21:18:31.149713 141796 net.cpp:406] drop6 <- fc6
I0115 21:18:31.149735 141796 net.cpp:367] drop6 -> fc6 (in-place)
I0115 21:18:31.149770 141796 net.cpp:122] Setting up drop6
I0115 21:18:31.149780 141796 net.cpp:129] Top shape: 50 4096 (204800)
I0115 21:18:31.149794 141796 net.cpp:137] Memory required for data: 578759200
I0115 21:18:31.149798 141796 layer_factory.hpp:77] Creating layer fc7
I0115 21:18:31.149811 141796 net.cpp:84] Creating Layer fc7
I0115 21:18:31.149834 141796 net.cpp:406] fc7 <- fc6
I0115 21:18:31.149854 141796 net.cpp:380] fc7 -> fc7
I0115 21:18:31.408906 141796 net.cpp:122] Setting up fc7
I0115 21:18:31.408973 141796 net.cpp:129] Top shape: 50 4096 (204800)
I0115 21:18:31.408979 141796 net.cpp:137] Memory required for data: 579578400
I0115 21:18:31.408996 141796 layer_factory.hpp:77] Creating layer bn7
I0115 21:18:31.409025 141796 net.cpp:84] Creating Layer bn7
I0115 21:18:31.409034 141796 net.cpp:406] bn7 <- fc7
I0115 21:18:31.409103 141796 net.cpp:367] bn7 -> fc7 (in-place)
I0115 21:18:31.409375 141796 net.cpp:122] Setting up bn7
I0115 21:18:31.409394 141796 net.cpp:129] Top shape: 50 4096 (204800)
I0115 21:18:31.409399 141796 net.cpp:137] Memory required for data: 580397600
I0115 21:18:31.409411 141796 layer_factory.hpp:77] Creating layer scale7
I0115 21:18:31.409433 141796 net.cpp:84] Creating Layer scale7
I0115 21:18:31.409441 141796 net.cpp:406] scale7 <- fc7
I0115 21:18:31.409451 141796 net.cpp:367] scale7 -> fc7 (in-place)
I0115 21:18:31.409509 141796 layer_factory.hpp:77] Creating layer scale7
I0115 21:18:31.409651 141796 net.cpp:122] Setting up scale7
I0115 21:18:31.409665 141796 net.cpp:129] Top shape: 50 4096 (204800)
I0115 21:18:31.409670 141796 net.cpp:137] Memory required for data: 581216800
I0115 21:18:31.409679 141796 layer_factory.hpp:77] Creating layer relu7
I0115 21:18:31.409688 141796 net.cpp:84] Creating Layer relu7
I0115 21:18:31.409695 141796 net.cpp:406] relu7 <- fc7
I0115 21:18:31.409703 141796 net.cpp:367] relu7 -> fc7 (in-place)
I0115 21:18:31.409713 141796 net.cpp:122] Setting up relu7
I0115 21:18:31.409720 141796 net.cpp:129] Top shape: 50 4096 (204800)
I0115 21:18:31.409726 141796 net.cpp:137] Memory required for data: 582036000
I0115 21:18:31.409732 141796 layer_factory.hpp:77] Creating layer drop7
I0115 21:18:31.409744 141796 net.cpp:84] Creating Layer drop7
I0115 21:18:31.409751 141796 net.cpp:406] drop7 <- fc7
I0115 21:18:31.409757 141796 net.cpp:367] drop7 -> fc7 (in-place)
I0115 21:18:31.409790 141796 net.cpp:122] Setting up drop7
I0115 21:18:31.409801 141796 net.cpp:129] Top shape: 50 4096 (204800)
I0115 21:18:31.409807 141796 net.cpp:137] Memory required for data: 582855200
I0115 21:18:31.409821 141796 layer_factory.hpp:77] Creating layer fc8
I0115 21:18:31.409834 141796 net.cpp:84] Creating Layer fc8
I0115 21:18:31.409842 141796 net.cpp:406] fc8 <- fc7
I0115 21:18:31.409853 141796 net.cpp:380] fc8 -> fc8
I0115 21:18:31.534369 141796 net.cpp:122] Setting up fc8
I0115 21:18:31.534481 141796 net.cpp:129] Top shape: 50 1000 (50000)
I0115 21:18:31.534502 141796 net.cpp:137] Memory required for data: 583055200
I0115 21:18:31.534550 141796 layer_factory.hpp:77] Creating layer fc8_fc8_0_split
I0115 21:18:31.534590 141796 net.cpp:84] Creating Layer fc8_fc8_0_split
I0115 21:18:31.534612 141796 net.cpp:406] fc8_fc8_0_split <- fc8
I0115 21:18:31.534647 141796 net.cpp:380] fc8_fc8_0_split -> fc8_fc8_0_split_0
I0115 21:18:31.534713 141796 net.cpp:380] fc8_fc8_0_split -> fc8_fc8_0_split_1
I0115 21:18:31.534747 141796 net.cpp:380] fc8_fc8_0_split -> fc8_fc8_0_split_2
I0115 21:18:31.534968 141796 net.cpp:122] Setting up fc8_fc8_0_split
I0115 21:18:31.535002 141796 net.cpp:129] Top shape: 50 1000 (50000)
I0115 21:18:31.535023 141796 net.cpp:129] Top shape: 50 1000 (50000)
I0115 21:18:31.535043 141796 net.cpp:129] Top shape: 50 1000 (50000)
I0115 21:18:31.535061 141796 net.cpp:137] Memory required for data: 583655200
I0115 21:18:31.535084 141796 layer_factory.hpp:77] Creating layer accuracy
I0115 21:18:31.535125 141796 net.cpp:84] Creating Layer accuracy
I0115 21:18:31.535145 141796 net.cpp:406] accuracy <- fc8_fc8_0_split_0
I0115 21:18:31.535171 141796 net.cpp:406] accuracy <- label_data_1_split_0
I0115 21:18:31.535204 141796 net.cpp:380] accuracy -> accuracy
…
