…
I0115 17:45:33.835070 140197 net.cpp:294] The NetState phase (0) differed from the phase (1) specified by a rule in layer accuracy_5
I0115 17:45:33.835335 140197 net.cpp:51] Initializing net from parameters: 
name: "AlexNet-BN"
state {
  phase: TRAIN
  level: 0
  stage: ""
}
layer {
  name: "data"
  type: "Data"
  top: "data"
  top: "label"
  include {
    phase: TRAIN
  }
  transform_param {
    mirror: true
    crop_size: 224
    mean_value: 103.939
    mean_value: 116.779
    mean_value: 123.68
  }
  data_param {
    source: "/home/DATA/imagenet_resize/lmdb_resize/ilsvrc12_train_lmdb"
    batch_size: 256
    backend: LMDB
  }
}
layer {
  name: "conv1"
  type: "Convolution"
  bottom: "data"
  top: "conv1"
  param {
    lr_mult: 1
    decay_mult: 1
  }
  param {
    lr_mult: 2
    decay_mult: 0
  }
  convolution_param {
    num_output: 96
    pad: 2
    kernel_size: 11
    stride: 4
    weight_filler {
      type: "gaussian"
      std: 0.01
    }
    bias_filler {
      type: "constant"
      value: 0
    }
  }
}
layer {
  name: "bn1"
  type: "BatchNorm"
  bottom: "conv1"
  top: "conv1"
  batch_norm_param {
    use_global_stats: false
  }
}
layer {
  name: "scale1"
  type: "Scale"
  bottom: "conv1"
  top: "conv1"
  scale_param {
    bias_term: true
  }
}
layer {
  name: "relu1"
  type: "ReLU"
  bottom: "conv1"
  top: "conv1"
}
layer {
  name: "pool1"
  type: "Pooling"
  bottom: "conv1"
  top: "pool1"
  pooling_param {
    pool: MAX
    kernel_size: 3
    stride: 2
  }
}
layer {
  name: "conv2"
  type: "Convolution"
  bottom: "pool1"
  top: "conv2"
  param {
    lr_mult: 1
    decay_mult: 1
  }
  param {
    lr_mult: 2
    decay_mult: 0
  }
  convolution_param {
    num_output: 256
    pad: 2
    kernel_size: 5
    weight_filler {
      type: "gaussian"
      std: 0.01
    }
    bias_filler {
      type: "constant"
      value: 0.1
    }
  }
}
layer {
  name: "bn2"
  type: "BatchNorm"
  bottom: "conv2"
  top: "conv2"
  batch_norm_param {
    use_global_stats: false
  }
}
layer {
  name: "scale2"
  type: "Scale"
  bottom: "conv2"
  top: "conv2"
  scale_param {
    bias_term: true
  }
}
layer {
  name: "relu2"
  type: "ReLU"
  bottom: "conv2"
  top: "conv2"
}
layer {
  name: "pool2"
  type: "Pooling"
  bottom: "conv2"
  top: "pool2"
  pooling_param {
    pool: MAX
    kernel_size: 3
    stride: 2
  }
}
layer {
  name: "conv3"
  type: "Convolution"
  bottom: "pool2"
  top: "conv3"
  param {
    lr_mult: 1
    decay_mult: 1
  }
  param {
    lr_mult: 2
    decay_mult: 0
  }
  convolution_param {
    num_output: 384
    pad: 1
    kernel_size: 3
    weight_filler {
      type: "gaussian"
      std: 0.01
    }
    bias_filler {
      type: "constant"
      value: 0
    }
  }
}
layer {
  name: "bn3"
  type: "BatchNorm"
  bottom: "conv3"
  top: "conv3"
  batch_norm_param {
    use_global_stats: false
  }
}
layer {
  name: "scale3"
  type: "Scale"
  bottom: "conv3"
  top: "conv3"
  scale_param {
    bias_term: true
  }
}
layer {
  name: "relu3"
  type: "ReLU"
  bottom: "conv3"
  top: "conv3"
}
layer {
  name: "conv4"
  type: "Convolution"
  bottom: "conv3"
  top: "conv4"
  param {
    lr_mult: 1
    decay_mult: 1
  }
  param {
    lr_mult: 2
    decay_mult: 0
  }
  convolution_param {
    num_output: 384
    pad: 1
    kernel_size: 3
    weight_filler {
      type: "gaussian"
      std: 0.01
    }
    bias_filler {
      type: "constant"
      value: 0.1
    }
  }
}
layer {
  name: "bn4"
  type: "BatchNorm"
  bottom: "conv4"
  top: "conv4"
  batch_norm_param {
    use_global_stats: false
  }
}
layer {
  name: "scale4"
  type: "Scale"
  bottom: "conv4"
  top: "conv4"
  scale_param {
    bias_term: true
  }
}
layer {
  name: "relu4"
  type: "ReLU"
  bottom: "conv4"
  top: "conv4"
}
layer {
  name: "conv5"
  type: "Convolution"
  bottom: "conv4"
  top: "conv5"
  param {
    lr_mult: 1
    decay_mult: 1
  }
  param {
    lr_mult: 2
    decay_mult: 0
  }
  convolution_param {
    num_output: 256
    pad: 1
    kernel_size: 3
    weight_filler {
      type: "gaussian"
      std: 0.01
    }
    bias_filler {
      type: "constant"
      value: 0.1
    }
  }
}
layer {
  name: "bn5"
  type: "BatchNorm"
  bottom: "conv5"
  top: "conv5"
  batch_norm_param {
    use_global_stats: false
  }
}
layer {
  name: "scale5"
  type: "Scale"
  bottom: "conv5"
  top: "conv5"
  scale_param {
    bias_term: true
  }
}
layer {
  name: "relu5"
  type: "ReLU"
  bottom: "conv5"
  top: "conv5"
}
layer {
  name: "pool5"
  type: "Pooling"
  bottom: "conv5"
  top: "pool5"
  pooling_param {
    pool: MAX
    kernel_size: 3
    stride: 2
  }
}
layer {
  name: "fc6"
  type: "InnerProduct"
  bottom: "pool5"
  top: "fc6"
  param {
    lr_mult: 1
    decay_mult: 1
  }
  param {
    lr_mult: 2
    decay_mult: 0
  }
  inner_product_param {
    num_output: 4096
    weight_filler {
      type: "gaussian"
      std: 0.005
    }
    bias_filler {
      type: "constant"
      value: 0.1
    }
  }
}
layer {
  name: "bn6"
  type: "BatchNorm"
  bottom: "fc6"
  top: "fc6"
  batch_norm_param {
    use_global_stats: false
  }
}
layer {
  name: "scale6"
  type: "Scale"
  bottom: "fc6"
  top: "fc6"
  scale_param {
    bias_term: true
  }
}
layer {
  name: "relu6"
  type: "ReLU"
  bottom: "fc6"
  top: "fc6"
}
layer {
  name: "drop6"
  type: "Dropout"
  bottom: "fc6"
  top: "fc6"
  dropout_param {
    dropout_ratio: 0.5
  }
}
layer {
  name: "fc7"
  type: "InnerProduct"
  bottom: "fc6"
  top: "fc7"
  param {
    lr_mult: 1
    decay_mult: 1
  }
  param {
    lr_mult: 2
    decay_mult: 0
  }
  inner_product_param {
    num_output: 4096
    weight_filler {
      type: "gaussian"
      std: 0.005
    }
    bias_filler {
      type: "constant"
      value: 0.1
    }
  }
}
layer {
  name: "bn7"
  type: "BatchNorm"
  bottom: "fc7"
  top: "fc7"
  batch_norm_param {
    use_global_stats: false
  }
}
layer {
  name: "scale7"
  type: "Scale"
  bottom: "fc7"
  top: "fc7"
  scale_param {
    bias_term: true
  }
}
layer {
  name: "relu7"
  type: "ReLU"
  bottom: "fc7"
  top: "fc7"
}
layer {
  name: "drop7"
  type: "Dropout"
  bottom: "fc7"
  top: "fc7"
  dropout_param {
    dropout_ratio: 0.5
  }
}
layer {
  name: "fc8"
  type: "InnerProduct"
  bottom: "fc7"
  top: "fc8"
  param {
    lr_mult: 1
    decay_mult: 1
  }
  param {
    lr_mult: 2
    decay_mult: 0
  }
  inner_product_param {
    num_output: 1000
    weight_filler {
      type: "gaussian"
      std: 0.01
    }
    bias_filler {
      type: "constant"
      value: 0
    }
  }
}
layer {
  name: "accuracy_5_TRAIN"
  type: "Accuracy"
  bottom: "fc8"
  bottom: "label"
  top: "accuracy_5_TRAIN"
  include {
    phase: TRAIN
  }
  accuracy_param {
    top_k: 5
  }
}
layer {
  name: "loss"
  type: "SoftmaxWithLoss"
  bottom: "fc8"
  bottom: "label"
  top: "loss"
}
I0115 17:45:33.835600 140197 layer_factory.hpp:77] Creating layer data
I0115 17:45:33.835783 140197 db_lmdb.cpp:35] Opened lmdb /home/DATA/imagenet_resize/lmdb_resize/ilsvrc12_train_lmdb
I0115 17:45:33.838971 140197 net.cpp:84] Creating Layer data
I0115 17:45:33.839017 140197 net.cpp:380] data -> data
I0115 17:45:33.839063 140197 net.cpp:380] data -> label
I0115 17:45:33.840991 140197 data_layer.cpp:45] output data size: 256,3,224,224
I0115 17:45:34.327131 140197 net.cpp:122] Setting up data
I0115 17:45:34.327230 140197 net.cpp:129] Top shape: 256 3 224 224 (38535168)
I0115 17:45:34.327306 140197 net.cpp:129] Top shape: 256 (256)
I0115 17:45:34.327313 140197 net.cpp:137] Memory required for data: 154141696
I0115 17:45:34.327337 140197 layer_factory.hpp:77] Creating layer label_data_1_split
I0115 17:45:34.327365 140197 net.cpp:84] Creating Layer label_data_1_split
I0115 17:45:34.327379 140197 net.cpp:406] label_data_1_split <- label
I0115 17:45:34.327409 140197 net.cpp:380] label_data_1_split -> label_data_1_split_0
I0115 17:45:34.327432 140197 net.cpp:380] label_data_1_split -> label_data_1_split_1
I0115 17:45:34.327528 140197 net.cpp:122] Setting up label_data_1_split
I0115 17:45:34.327543 140197 net.cpp:129] Top shape: 256 (256)
I0115 17:45:34.327549 140197 net.cpp:129] Top shape: 256 (256)
I0115 17:45:34.327554 140197 net.cpp:137] Memory required for data: 154143744
I0115 17:45:34.327559 140197 layer_factory.hpp:77] Creating layer conv1
I0115 17:45:34.327590 140197 net.cpp:84] Creating Layer conv1
I0115 17:45:34.327599 140197 net.cpp:406] conv1 <- data
I0115 17:45:34.327610 140197 net.cpp:380] conv1 -> conv1
I0115 17:45:34.366201 140197 net.cpp:122] Setting up conv1
I0115 17:45:34.366255 140197 net.cpp:129] Top shape: 256 96 55 55 (74342400)
I0115 17:45:34.366261 140197 net.cpp:137] Memory required for data: 451513344
I0115 17:45:34.366297 140197 layer_factory.hpp:77] Creating layer bn1
I0115 17:45:34.366325 140197 net.cpp:84] Creating Layer bn1
I0115 17:45:34.366333 140197 net.cpp:406] bn1 <- conv1
I0115 17:45:34.366345 140197 net.cpp:367] bn1 -> conv1 (in-place)
I0115 17:45:34.366569 140197 net.cpp:122] Setting up bn1
I0115 17:45:34.366583 140197 net.cpp:129] Top shape: 256 96 55 55 (74342400)
I0115 17:45:34.366598 140197 net.cpp:137] Memory required for data: 748882944
I0115 17:45:34.366613 140197 layer_factory.hpp:77] Creating layer scale1
I0115 17:45:34.366627 140197 net.cpp:84] Creating Layer scale1
I0115 17:45:34.366636 140197 net.cpp:406] scale1 <- conv1
I0115 17:45:34.366644 140197 net.cpp:367] scale1 -> conv1 (in-place)
I0115 17:45:34.366700 140197 layer_factory.hpp:77] Creating layer scale1
I0115 17:45:34.366852 140197 net.cpp:122] Setting up scale1
I0115 17:45:34.366864 140197 net.cpp:129] Top shape: 256 96 55 55 (74342400)
I0115 17:45:34.366870 140197 net.cpp:137] Memory required for data: 1046252544
I0115 17:45:34.366888 140197 layer_factory.hpp:77] Creating layer relu1
I0115 17:45:34.366897 140197 net.cpp:84] Creating Layer relu1
I0115 17:45:34.366905 140197 net.cpp:406] relu1 <- conv1
I0115 17:45:34.366915 140197 net.cpp:367] relu1 -> conv1 (in-place)
I0115 17:45:34.366926 140197 net.cpp:122] Setting up relu1
I0115 17:45:34.366933 140197 net.cpp:129] Top shape: 256 96 55 55 (74342400)
I0115 17:45:34.366942 140197 net.cpp:137] Memory required for data: 1343622144
I0115 17:45:34.366950 140197 layer_factory.hpp:77] Creating layer pool1
I0115 17:45:34.366961 140197 net.cpp:84] Creating Layer pool1
I0115 17:45:34.366968 140197 net.cpp:406] pool1 <- conv1
I0115 17:45:34.366977 140197 net.cpp:380] pool1 -> pool1
I0115 17:45:34.367043 140197 net.cpp:122] Setting up pool1
I0115 17:45:34.367054 140197 net.cpp:129] Top shape: 256 96 27 27 (17915904)
I0115 17:45:34.367059 140197 net.cpp:137] Memory required for data: 1415285760
I0115 17:45:34.367064 140197 layer_factory.hpp:77] Creating layer conv2
I0115 17:45:34.367089 140197 net.cpp:84] Creating Layer conv2
I0115 17:45:34.367094 140197 net.cpp:406] conv2 <- pool1
I0115 17:45:34.367105 140197 net.cpp:380] conv2 -> conv2
I0115 17:45:34.377948 140197 net.cpp:122] Setting up conv2
I0115 17:45:34.377969 140197 net.cpp:129] Top shape: 256 256 27 27 (47775744)
I0115 17:45:34.377982 140197 net.cpp:137] Memory required for data: 1606388736
I0115 17:45:34.377996 140197 layer_factory.hpp:77] Creating layer bn2
I0115 17:45:34.378010 140197 net.cpp:84] Creating Layer bn2
I0115 17:45:34.378017 140197 net.cpp:406] bn2 <- conv2
I0115 17:45:34.378027 140197 net.cpp:367] bn2 -> conv2 (in-place)
I0115 17:45:34.378216 140197 net.cpp:122] Setting up bn2
I0115 17:45:34.378231 140197 net.cpp:129] Top shape: 256 256 27 27 (47775744)
I0115 17:45:34.378279 140197 net.cpp:137] Memory required for data: 1797491712
I0115 17:45:34.378291 140197 layer_factory.hpp:77] Creating layer scale2
I0115 17:45:34.378301 140197 net.cpp:84] Creating Layer scale2
I0115 17:45:34.378306 140197 net.cpp:406] scale2 <- conv2
I0115 17:45:34.378315 140197 net.cpp:367] scale2 -> conv2 (in-place)
I0115 17:45:34.378362 140197 layer_factory.hpp:77] Creating layer scale2
I0115 17:45:34.378489 140197 net.cpp:122] Setting up scale2
I0115 17:45:34.378523 140197 net.cpp:129] Top shape: 256 256 27 27 (47775744)
I0115 17:45:34.378530 140197 net.cpp:137] Memory required for data: 1988594688
I0115 17:45:34.378540 140197 layer_factory.hpp:77] Creating layer relu2
I0115 17:45:34.378548 140197 net.cpp:84] Creating Layer relu2
I0115 17:45:34.378554 140197 net.cpp:406] relu2 <- conv2
I0115 17:45:34.378563 140197 net.cpp:367] relu2 -> conv2 (in-place)
I0115 17:45:34.378578 140197 net.cpp:122] Setting up relu2
I0115 17:45:34.378585 140197 net.cpp:129] Top shape: 256 256 27 27 (47775744)
I0115 17:45:34.378590 140197 net.cpp:137] Memory required for data: 2179697664
I0115 17:45:34.378598 140197 layer_factory.hpp:77] Creating layer pool2
I0115 17:45:34.378609 140197 net.cpp:84] Creating Layer pool2
I0115 17:45:34.378618 140197 net.cpp:406] pool2 <- conv2
I0115 17:45:34.378638 140197 net.cpp:380] pool2 -> pool2
I0115 17:45:34.378686 140197 net.cpp:122] Setting up pool2
I0115 17:45:34.378698 140197 net.cpp:129] Top shape: 256 256 13 13 (11075584)
I0115 17:45:34.378705 140197 net.cpp:137] Memory required for data: 2224000000
I0115 17:45:34.378710 140197 layer_factory.hpp:77] Creating layer conv3
I0115 17:45:34.378721 140197 net.cpp:84] Creating Layer conv3
I0115 17:45:34.378728 140197 net.cpp:406] conv3 <- pool2
I0115 17:45:34.378746 140197 net.cpp:380] conv3 -> conv3
I0115 17:45:34.392594 140197 net.cpp:122] Setting up conv3
I0115 17:45:34.392617 140197 net.cpp:129] Top shape: 256 384 13 13 (16613376)
I0115 17:45:34.392628 140197 net.cpp:137] Memory required for data: 2290453504
I0115 17:45:34.392637 140197 layer_factory.hpp:77] Creating layer bn3
I0115 17:45:34.392648 140197 net.cpp:84] Creating Layer bn3
I0115 17:45:34.392657 140197 net.cpp:406] bn3 <- conv3
I0115 17:45:34.392668 140197 net.cpp:367] bn3 -> conv3 (in-place)
I0115 17:45:34.392845 140197 net.cpp:122] Setting up bn3
I0115 17:45:34.392858 140197 net.cpp:129] Top shape: 256 384 13 13 (16613376)
I0115 17:45:34.392873 140197 net.cpp:137] Memory required for data: 2356907008
I0115 17:45:34.392889 140197 layer_factory.hpp:77] Creating layer scale3
I0115 17:45:34.392900 140197 net.cpp:84] Creating Layer scale3
I0115 17:45:34.392909 140197 net.cpp:406] scale3 <- conv3
I0115 17:45:34.392916 140197 net.cpp:367] scale3 -> conv3 (in-place)
I0115 17:45:34.392956 140197 layer_factory.hpp:77] Creating layer scale3
I0115 17:45:34.393082 140197 net.cpp:122] Setting up scale3
I0115 17:45:34.393105 140197 net.cpp:129] Top shape: 256 384 13 13 (16613376)
I0115 17:45:34.393110 140197 net.cpp:137] Memory required for data: 2423360512
I0115 17:45:34.393117 140197 layer_factory.hpp:77] Creating layer relu3
I0115 17:45:34.393127 140197 net.cpp:84] Creating Layer relu3
I0115 17:45:34.393132 140197 net.cpp:406] relu3 <- conv3
I0115 17:45:34.393141 140197 net.cpp:367] relu3 -> conv3 (in-place)
I0115 17:45:34.393148 140197 net.cpp:122] Setting up relu3
I0115 17:45:34.393162 140197 net.cpp:129] Top shape: 256 384 13 13 (16613376)
I0115 17:45:34.393167 140197 net.cpp:137] Memory required for data: 2489814016
I0115 17:45:34.393172 140197 layer_factory.hpp:77] Creating layer conv4
I0115 17:45:34.393187 140197 net.cpp:84] Creating Layer conv4
I0115 17:45:34.393194 140197 net.cpp:406] conv4 <- conv3
I0115 17:45:34.393203 140197 net.cpp:380] conv4 -> conv4
I0115 17:45:34.413995 140197 net.cpp:122] Setting up conv4
I0115 17:45:34.414026 140197 net.cpp:129] Top shape: 256 384 13 13 (16613376)
I0115 17:45:34.414031 140197 net.cpp:137] Memory required for data: 2556267520
I0115 17:45:34.414042 140197 layer_factory.hpp:77] Creating layer bn4
I0115 17:45:34.414057 140197 net.cpp:84] Creating Layer bn4
I0115 17:45:34.414095 140197 net.cpp:406] bn4 <- conv4
I0115 17:45:34.414106 140197 net.cpp:367] bn4 -> conv4 (in-place)
I0115 17:45:34.414296 140197 net.cpp:122] Setting up bn4
I0115 17:45:34.414309 140197 net.cpp:129] Top shape: 256 384 13 13 (16613376)
I0115 17:45:34.414322 140197 net.cpp:137] Memory required for data: 2622721024
I0115 17:45:34.414333 140197 layer_factory.hpp:77] Creating layer scale4
I0115 17:45:34.414342 140197 net.cpp:84] Creating Layer scale4
I0115 17:45:34.414350 140197 net.cpp:406] scale4 <- conv4
I0115 17:45:34.414361 140197 net.cpp:367] scale4 -> conv4 (in-place)
I0115 17:45:34.414415 140197 layer_factory.hpp:77] Creating layer scale4
I0115 17:45:34.414573 140197 net.cpp:122] Setting up scale4
I0115 17:45:34.414588 140197 net.cpp:129] Top shape: 256 384 13 13 (16613376)
I0115 17:45:34.414597 140197 net.cpp:137] Memory required for data: 2689174528
I0115 17:45:34.414609 140197 layer_factory.hpp:77] Creating layer relu4
I0115 17:45:34.414625 140197 net.cpp:84] Creating Layer relu4
I0115 17:45:34.414636 140197 net.cpp:406] relu4 <- conv4
I0115 17:45:34.414646 140197 net.cpp:367] relu4 -> conv4 (in-place)
I0115 17:45:34.414659 140197 net.cpp:122] Setting up relu4
I0115 17:45:34.414670 140197 net.cpp:129] Top shape: 256 384 13 13 (16613376)
I0115 17:45:34.414680 140197 net.cpp:137] Memory required for data: 2755628032
I0115 17:45:34.414687 140197 layer_factory.hpp:77] Creating layer conv5
I0115 17:45:34.414708 140197 net.cpp:84] Creating Layer conv5
I0115 17:45:34.414716 140197 net.cpp:406] conv5 <- conv4
I0115 17:45:34.414731 140197 net.cpp:380] conv5 -> conv5
I0115 17:45:34.428920 140197 net.cpp:122] Setting up conv5
I0115 17:45:34.428942 140197 net.cpp:129] Top shape: 256 256 13 13 (11075584)
I0115 17:45:34.428949 140197 net.cpp:137] Memory required for data: 2799930368
I0115 17:45:34.428961 140197 layer_factory.hpp:77] Creating layer bn5
I0115 17:45:34.428975 140197 net.cpp:84] Creating Layer bn5
I0115 17:45:34.428984 140197 net.cpp:406] bn5 <- conv5
I0115 17:45:34.428993 140197 net.cpp:367] bn5 -> conv5 (in-place)
I0115 17:45:34.429177 140197 net.cpp:122] Setting up bn5
I0115 17:45:34.429190 140197 net.cpp:129] Top shape: 256 256 13 13 (11075584)
I0115 17:45:34.429196 140197 net.cpp:137] Memory required for data: 2844232704
I0115 17:45:34.429215 140197 layer_factory.hpp:77] Creating layer scale5
I0115 17:45:34.429229 140197 net.cpp:84] Creating Layer scale5
I0115 17:45:34.429237 140197 net.cpp:406] scale5 <- conv5
I0115 17:45:34.429246 140197 net.cpp:367] scale5 -> conv5 (in-place)
I0115 17:45:34.429289 140197 layer_factory.hpp:77] Creating layer scale5
I0115 17:45:34.429414 140197 net.cpp:122] Setting up scale5
I0115 17:45:34.429427 140197 net.cpp:129] Top shape: 256 256 13 13 (11075584)
I0115 17:45:34.429435 140197 net.cpp:137] Memory required for data: 2888535040
I0115 17:45:34.429445 140197 layer_factory.hpp:77] Creating layer relu5
I0115 17:45:34.429455 140197 net.cpp:84] Creating Layer relu5
I0115 17:45:34.429461 140197 net.cpp:406] relu5 <- conv5
I0115 17:45:34.429471 140197 net.cpp:367] relu5 -> conv5 (in-place)
I0115 17:45:34.429481 140197 net.cpp:122] Setting up relu5
I0115 17:45:34.429488 140197 net.cpp:129] Top shape: 256 256 13 13 (11075584)
I0115 17:45:34.429496 140197 net.cpp:137] Memory required for data: 2932837376
I0115 17:45:34.429502 140197 layer_factory.hpp:77] Creating layer pool5
I0115 17:45:34.429515 140197 net.cpp:84] Creating Layer pool5
I0115 17:45:34.429522 140197 net.cpp:406] pool5 <- conv5
I0115 17:45:34.429533 140197 net.cpp:380] pool5 -> pool5
I0115 17:45:34.429570 140197 net.cpp:122] Setting up pool5
I0115 17:45:34.429582 140197 net.cpp:129] Top shape: 256 256 6 6 (2359296)
I0115 17:45:34.429589 140197 net.cpp:137] Memory required for data: 2942274560
I0115 17:45:34.429595 140197 layer_factory.hpp:77] Creating layer fc6
I0115 17:45:34.429610 140197 net.cpp:84] Creating Layer fc6
I0115 17:45:34.429618 140197 net.cpp:406] fc6 <- pool5
I0115 17:45:34.429627 140197 net.cpp:380] fc6 -> fc6
I0115 17:45:35.027137 140197 net.cpp:122] Setting up fc6
I0115 17:45:35.027248 140197 net.cpp:129] Top shape: 256 4096 (1048576)
I0115 17:45:35.027256 140197 net.cpp:137] Memory required for data: 2946468864
I0115 17:45:35.027274 140197 layer_factory.hpp:77] Creating layer bn6
I0115 17:45:35.027299 140197 net.cpp:84] Creating Layer bn6
I0115 17:45:35.027308 140197 net.cpp:406] bn6 <- fc6
I0115 17:45:35.027323 140197 net.cpp:367] bn6 -> fc6 (in-place)
I0115 17:45:35.027516 140197 net.cpp:122] Setting up bn6
I0115 17:45:35.027529 140197 net.cpp:129] Top shape: 256 4096 (1048576)
I0115 17:45:35.027535 140197 net.cpp:137] Memory required for data: 2950663168
I0115 17:45:35.027546 140197 layer_factory.hpp:77] Creating layer scale6
I0115 17:45:35.027556 140197 net.cpp:84] Creating Layer scale6
I0115 17:45:35.027564 140197 net.cpp:406] scale6 <- fc6
I0115 17:45:35.027575 140197 net.cpp:367] scale6 -> fc6 (in-place)
I0115 17:45:35.027622 140197 layer_factory.hpp:77] Creating layer scale6
I0115 17:45:35.027751 140197 net.cpp:122] Setting up scale6
I0115 17:45:35.027765 140197 net.cpp:129] Top shape: 256 4096 (1048576)
I0115 17:45:35.027770 140197 net.cpp:137] Memory required for data: 2954857472
I0115 17:45:35.027778 140197 layer_factory.hpp:77] Creating layer relu6
I0115 17:45:35.027791 140197 net.cpp:84] Creating Layer relu6
I0115 17:45:35.027797 140197 net.cpp:406] relu6 <- fc6
I0115 17:45:35.027806 140197 net.cpp:367] relu6 -> fc6 (in-place)
I0115 17:45:35.027817 140197 net.cpp:122] Setting up relu6
I0115 17:45:35.027824 140197 net.cpp:129] Top shape: 256 4096 (1048576)
I0115 17:45:35.027832 140197 net.cpp:137] Memory required for data: 2959051776
I0115 17:45:35.027838 140197 layer_factory.hpp:77] Creating layer drop6
I0115 17:45:35.027849 140197 net.cpp:84] Creating Layer drop6
I0115 17:45:35.027856 140197 net.cpp:406] drop6 <- fc6
I0115 17:45:35.027866 140197 net.cpp:367] drop6 -> fc6 (in-place)
I0115 17:45:35.027899 140197 net.cpp:122] Setting up drop6
I0115 17:45:35.027911 140197 net.cpp:129] Top shape: 256 4096 (1048576)
I0115 17:45:35.027917 140197 net.cpp:137] Memory required for data: 2963246080
I0115 17:45:35.027925 140197 layer_factory.hpp:77] Creating layer fc7
I0115 17:45:35.027940 140197 net.cpp:84] Creating Layer fc7
I0115 17:45:35.027946 140197 net.cpp:406] fc7 <- fc6
I0115 17:45:35.027956 140197 net.cpp:380] fc7 -> fc7
I0115 17:45:35.291097 140197 net.cpp:122] Setting up fc7
I0115 17:45:35.291173 140197 net.cpp:129] Top shape: 256 4096 (1048576)
I0115 17:45:35.291182 140197 net.cpp:137] Memory required for data: 2967440384
I0115 17:45:35.291204 140197 layer_factory.hpp:77] Creating layer bn7
I0115 17:45:35.291236 140197 net.cpp:84] Creating Layer bn7
I0115 17:45:35.291244 140197 net.cpp:406] bn7 <- fc7
I0115 17:45:35.291275 140197 net.cpp:367] bn7 -> fc7 (in-place)
I0115 17:45:35.291520 140197 net.cpp:122] Setting up bn7
I0115 17:45:35.291538 140197 net.cpp:129] Top shape: 256 4096 (1048576)
I0115 17:45:35.291550 140197 net.cpp:137] Memory required for data: 2971634688
I0115 17:45:35.291563 140197 layer_factory.hpp:77] Creating layer scale7
I0115 17:45:35.291587 140197 net.cpp:84] Creating Layer scale7
I0115 17:45:35.291595 140197 net.cpp:406] scale7 <- fc7
I0115 17:45:35.291605 140197 net.cpp:367] scale7 -> fc7 (in-place)
I0115 17:45:35.291667 140197 layer_factory.hpp:77] Creating layer scale7
I0115 17:45:35.291831 140197 net.cpp:122] Setting up scale7
I0115 17:45:35.291844 140197 net.cpp:129] Top shape: 256 4096 (1048576)
I0115 17:45:35.291858 140197 net.cpp:137] Memory required for data: 2975828992
I0115 17:45:35.291867 140197 layer_factory.hpp:77] Creating layer relu7
I0115 17:45:35.291878 140197 net.cpp:84] Creating Layer relu7
I0115 17:45:35.291887 140197 net.cpp:406] relu7 <- fc7
I0115 17:45:35.291894 140197 net.cpp:367] relu7 -> fc7 (in-place)
I0115 17:45:35.291904 140197 net.cpp:122] Setting up relu7
I0115 17:45:35.291913 140197 net.cpp:129] Top shape: 256 4096 (1048576)
I0115 17:45:35.291918 140197 net.cpp:137] Memory required for data: 2980023296
I0115 17:45:35.291925 140197 layer_factory.hpp:77] Creating layer drop7
I0115 17:45:35.291936 140197 net.cpp:84] Creating Layer drop7
I0115 17:45:35.291990 140197 net.cpp:406] drop7 <- fc7
I0115 17:45:35.292002 140197 net.cpp:367] drop7 -> fc7 (in-place)
I0115 17:45:35.292029 140197 net.cpp:122] Setting up drop7
I0115 17:45:35.292042 140197 net.cpp:129] Top shape: 256 4096 (1048576)
I0115 17:45:35.292048 140197 net.cpp:137] Memory required for data: 2984217600
I0115 17:45:35.292057 140197 layer_factory.hpp:77] Creating layer fc8
I0115 17:45:35.292073 140197 net.cpp:84] Creating Layer fc8
I0115 17:45:35.292080 140197 net.cpp:406] fc8 <- fc7
I0115 17:45:35.292091 140197 net.cpp:380] fc8 -> fc8
I0115 17:45:35.357225 140197 net.cpp:122] Setting up fc8
I0115 17:45:35.357291 140197 net.cpp:129] Top shape: 256 1000 (256000)
I0115 17:45:35.357297 140197 net.cpp:137] Memory required for data: 2985241600
I0115 17:45:35.357316 140197 layer_factory.hpp:77] Creating layer fc8_fc8_0_split
I0115 17:45:35.357333 140197 net.cpp:84] Creating Layer fc8_fc8_0_split
I0115 17:45:35.357342 140197 net.cpp:406] fc8_fc8_0_split <- fc8
I0115 17:45:35.357359 140197 net.cpp:380] fc8_fc8_0_split -> fc8_fc8_0_split_0
I0115 17:45:35.357376 140197 net.cpp:380] fc8_fc8_0_split -> fc8_fc8_0_split_1
I0115 17:45:35.357436 140197 net.cpp:122] Setting up fc8_fc8_0_split
I0115 17:45:35.357448 140197 net.cpp:129] Top shape: 256 1000 (256000)
I0115 17:45:35.357456 140197 net.cpp:129] Top shape: 256 1000 (256000)
I0115 17:45:35.357460 140197 net.cpp:137] Memory required for data: 2987289600
I0115 17:45:35.357466 140197 layer_factory.hpp:77] Creating layer accuracy_5_TRAIN
I0115 17:45:35.357478 140197 net.cpp:84] Creating Layer accuracy_5_TRAIN
I0115 17:45:35.357484 140197 net.cpp:406] accuracy_5_TRAIN <- fc8_fc8_0_split_0
I0115 17:45:35.357498 140197 net.cpp:406] accuracy_5_TRAIN <- label_data_1_split_0
…
I0115 17:45:35.360368 140197 net.cpp:294] The NetState phase (1) differed from the phase (0) specified by a rule in layer accuracy_5_TRAIN
I0115 17:45:35.360637 140197 net.cpp:51] Initializing net from parameters: 
name: "AlexNet-BN"
state {
  phase: TEST
}
layer {
  name: "data"
  type: "Data"
  top: "data"
  top: "label"
  include {
    phase: TEST
  }
  transform_param {
    mirror: false
    crop_size: 224
    mean_value: 103.939
    mean_value: 116.779
    mean_value: 123.68
  }
  data_param {
    source: "/home/DATA/imagenet_resize/lmdb_resize/ilsvrc12_val_lmdb"
    batch_size: 50
    backend: LMDB
  }
}
layer {
  name: "conv1"
  type: "Convolution"
  bottom: "data"
  top: "conv1"
  param {
    lr_mult: 1
    decay_mult: 1
  }
  param {
    lr_mult: 2
    decay_mult: 0
  }
  convolution_param {
    num_output: 96
    pad: 2
    kernel_size: 11
    stride: 4
    weight_filler {
      type: "gaussian"
      std: 0.01
    }
    bias_filler {
      type: "constant"
      value: 0
    }
  }
}
layer {
  name: "bn1"
  type: "BatchNorm"
  bottom: "conv1"
  top: "conv1"
  batch_norm_param {
    use_global_stats: false
  }
}
layer {
  name: "scale1"
  type: "Scale"
  bottom: "conv1"
  top: "conv1"
  scale_param {
    bias_term: true
  }
}
layer {
  name: "relu1"
  type: "ReLU"
  bottom: "conv1"
  top: "conv1"
}
layer {
  name: "pool1"
  type: "Pooling"
  bottom: "conv1"
  top: "pool1"
  pooling_param {
    pool: MAX
    kernel_size: 3
    stride: 2
  }
}
layer {
  name: "conv2"
  type: "Convolution"
  bottom: "pool1"
  top: "conv2"
  param {
    lr_mult: 1
    decay_mult: 1
  }
  param {
    lr_mult: 2
    decay_mult: 0
  }
  convolution_param {
    num_output: 256
    pad: 2
    kernel_size: 5
    weight_filler {
      type: "gaussian"
      std: 0.01
    }
    bias_filler {
      type: "constant"
      value: 0.1
    }
  }
}
layer {
  name: "bn2"
  type: "BatchNorm"
  bottom: "conv2"
  top: "conv2"
  batch_norm_param {
    use_global_stats: false
  }
}
layer {
  name: "scale2"
  type: "Scale"
  bottom: "conv2"
  top: "conv2"
  scale_param {
    bias_term: true
  }
}
layer {
  name: "relu2"
  type: "ReLU"
  bottom: "conv2"
  top: "conv2"
}
layer {
  name: "pool2"
  type: "Pooling"
  bottom: "conv2"
  top: "pool2"
  pooling_param {
    pool: MAX
    kernel_size: 3
    stride: 2
  }
}
layer {
  name: "conv3"
  type: "Convolution"
  bottom: "pool2"
  top: "conv3"
  param {
    lr_mult: 1
    decay_mult: 1
  }
  param {
    lr_mult: 2
    decay_mult: 0
  }
  convolution_param {
    num_output: 384
    pad: 1
    kernel_size: 3
    weight_filler {
      type: "gaussian"
      std: 0.01
    }
    bias_filler {
      type: "constant"
      value: 0
    }
  }
}
layer {
  name: "bn3"
  type: "BatchNorm"
  bottom: "conv3"
  top: "conv3"
  batch_norm_param {
    use_global_stats: false
  }
}
layer {
  name: "scale3"
  type: "Scale"
  bottom: "conv3"
  top: "conv3"
  scale_param {
    bias_term: true
  }
}
layer {
  name: "relu3"
  type: "ReLU"
  bottom: "conv3"
  top: "conv3"
}
layer {
  name: "conv4"
  type: "Convolution"
  bottom: "conv3"
  top: "conv4"
  param {
    lr_mult: 1
    decay_mult: 1
  }
  param {
    lr_mult: 2
    decay_mult: 0
  }
  convolution_param {
    num_output: 384
    pad: 1
    kernel_size: 3
    weight_filler {
      type: "gaussian"
      std: 0.01
    }
    bias_filler {
      type: "constant"
      value: 0.1
    }
  }
}
layer {
  name: "bn4"
  type: "BatchNorm"
  bottom: "conv4"
  top: "conv4"
  batch_norm_param {
    use_global_stats: false
  }
}
layer {
  name: "scale4"
  type: "Scale"
  bottom: "conv4"
  top: "conv4"
  scale_param {
    bias_term: true
  }
}
layer {
  name: "relu4"
  type: "ReLU"
  bottom: "conv4"
  top: "conv4"
}
layer {
  name: "conv5"
  type: "Convolution"
  bottom: "conv4"
  top: "conv5"
  param {
    lr_mult: 1
    decay_mult: 1
  }
  param {
    lr_mult: 2
    decay_mult: 0
  }
  convolution_param {
    num_output: 256
    pad: 1
    kernel_size: 3
    weight_filler {
      type: "gaussian"
      std: 0.01
    }
    bias_filler {
      type: "constant"
      value: 0.1
    }
  }
}
layer {
  name: "bn5"
  type: "BatchNorm"
  bottom: "conv5"
  top: "conv5"
  batch_norm_param {
    use_global_stats: false
  }
}
layer {
  name: "scale5"
  type: "Scale"
  bottom: "conv5"
  top: "conv5"
  scale_param {
    bias_term: true
  }
}
layer {
  name: "relu5"
  type: "ReLU"
  bottom: "conv5"
  top: "conv5"
}
layer {
  name: "pool5"
  type: "Pooling"
  bottom: "conv5"
  top: "pool5"
  pooling_param {
    pool: MAX
    kernel_size: 3
    stride: 2
  }
}
layer {
  name: "fc6"
  type: "InnerProduct"
  bottom: "pool5"
  top: "fc6"
  param {
    lr_mult: 1
    decay_mult: 1
  }
  param {
    lr_mult: 2
    decay_mult: 0
  }
  inner_product_param {
    num_output: 4096
    weight_filler {
      type: "gaussian"
      std: 0.005
    }
    bias_filler {
      type: "constant"
      value: 0.1
    }
  }
}
layer {
  name: "bn6"
  type: "BatchNorm"
  bottom: "fc6"
  top: "fc6"
  batch_norm_param {
    use_global_stats: false
  }
}
layer {
  name: "scale6"
  type: "Scale"
  bottom: "fc6"
  top: "fc6"
  scale_param {
    bias_term: true
  }
}
layer {
  name: "relu6"
  type: "ReLU"
  bottom: "fc6"
  top: "fc6"
}
layer {
  name: "drop6"
  type: "Dropout"
  bottom: "fc6"
  top: "fc6"
  dropout_param {
    dropout_ratio: 0.5
  }
}
layer {
  name: "fc7"
  type: "InnerProduct"
  bottom: "fc6"
  top: "fc7"
  param {
    lr_mult: 1
    decay_mult: 1
  }
  param {
    lr_mult: 2
    decay_mult: 0
  }
  inner_product_param {
    num_output: 4096
    weight_filler {
      type: "gaussian"
      std: 0.005
    }
    bias_filler {
      type: "constant"
      value: 0.1
    }
  }
}
layer {
  name: "bn7"
  type: "BatchNorm"
  bottom: "fc7"
  top: "fc7"
  batch_norm_param {
    use_global_stats: false
  }
}
layer {
  name: "scale7"
  type: "Scale"
  bottom: "fc7"
  top: "fc7"
  scale_param {
    bias_term: true
  }
}
layer {
  name: "relu7"
  type: "ReLU"
  bottom: "fc7"
  top: "fc7"
}
layer {
  name: "drop7"
  type: "Dropout"
  bottom: "fc7"
  top: "fc7"
  dropout_param {
    dropout_ratio: 0.5
  }
}
layer {
  name: "fc8"
  type: "InnerProduct"
  bottom: "fc7"
  top: "fc8"
  param {
    lr_mult: 1
    decay_mult: 1
  }
  param {
    lr_mult: 2
    decay_mult: 0
  }
  inner_product_param {
    num_output: 1000
    weight_filler {
      type: "gaussian"
      std: 0.01
    }
    bias_filler {
      type: "constant"
      value: 0
    }
  }
}
layer {
  name: "accuracy"
  type: "Accuracy"
  bottom: "fc8"
  bottom: "label"
  top: "accuracy"
  include {
    phase: TEST
  }
}
layer {
  name: "accuracy_5"
  type: "Accuracy"
  bottom: "fc8"
  bottom: "label"
  top: "accuracy_5"
  include {
    phase: TEST
  }
  accuracy_param {
    top_k: 5
  }
}
layer {
  name: "loss"
  type: "SoftmaxWithLoss"
  bottom: "fc8"
  bottom: "label"
  top: "loss"
}
I0115 17:45:35.360853 140197 layer_factory.hpp:77] Creating layer data
I0115 17:45:35.360971 140197 db_lmdb.cpp:35] Opened lmdb /home/DATA/imagenet_resize/lmdb_resize/ilsvrc12_val_lmdb
I0115 17:45:35.361037 140197 net.cpp:84] Creating Layer data
I0115 17:45:35.361054 140197 net.cpp:380] data -> data
I0115 17:45:35.361068 140197 net.cpp:380] data -> label
I0115 17:45:35.361443 140197 data_layer.cpp:45] output data size: 50,3,224,224
I0115 17:45:35.476054 140197 net.cpp:122] Setting up data
I0115 17:45:35.476116 140197 net.cpp:129] Top shape: 50 3 224 224 (7526400)
I0115 17:45:35.476127 140197 net.cpp:129] Top shape: 50 (50)
I0115 17:45:35.476135 140197 net.cpp:137] Memory required for data: 30105800
I0115 17:45:35.476146 140197 layer_factory.hpp:77] Creating layer label_data_1_split
I0115 17:45:35.476172 140197 net.cpp:84] Creating Layer label_data_1_split
I0115 17:45:35.476182 140197 net.cpp:406] label_data_1_split <- label
I0115 17:45:35.476197 140197 net.cpp:380] label_data_1_split -> label_data_1_split_0
I0115 17:45:35.476217 140197 net.cpp:380] label_data_1_split -> label_data_1_split_1
I0115 17:45:35.476229 140197 net.cpp:380] label_data_1_split -> label_data_1_split_2
I0115 17:45:35.476330 140197 net.cpp:122] Setting up label_data_1_split
I0115 17:45:35.476343 140197 net.cpp:129] Top shape: 50 (50)
I0115 17:45:35.476351 140197 net.cpp:129] Top shape: 50 (50)
I0115 17:45:35.476359 140197 net.cpp:129] Top shape: 50 (50)
I0115 17:45:35.476366 140197 net.cpp:137] Memory required for data: 30106400
I0115 17:45:35.476374 140197 layer_factory.hpp:77] Creating layer conv1
I0115 17:45:35.476398 140197 net.cpp:84] Creating Layer conv1
I0115 17:45:35.476408 140197 net.cpp:406] conv1 <- data
I0115 17:45:35.476421 140197 net.cpp:380] conv1 -> conv1
I0115 17:45:35.477223 140197 net.cpp:122] Setting up conv1
I0115 17:45:35.477238 140197 net.cpp:129] Top shape: 50 96 55 55 (14520000)
I0115 17:45:35.477244 140197 net.cpp:137] Memory required for data: 88186400
I0115 17:45:35.477260 140197 layer_factory.hpp:77] Creating layer bn1
I0115 17:45:35.477275 140197 net.cpp:84] Creating Layer bn1
I0115 17:45:35.477283 140197 net.cpp:406] bn1 <- conv1
I0115 17:45:35.477293 140197 net.cpp:367] bn1 -> conv1 (in-place)
I0115 17:45:35.477514 140197 net.cpp:122] Setting up bn1
I0115 17:45:35.477529 140197 net.cpp:129] Top shape: 50 96 55 55 (14520000)
I0115 17:45:35.477535 140197 net.cpp:137] Memory required for data: 146266400
I0115 17:45:35.477552 140197 layer_factory.hpp:77] Creating layer scale1
I0115 17:45:35.477566 140197 net.cpp:84] Creating Layer scale1
I0115 17:45:35.477574 140197 net.cpp:406] scale1 <- conv1
I0115 17:45:35.477584 140197 net.cpp:367] scale1 -> conv1 (in-place)
I0115 17:45:35.477635 140197 layer_factory.hpp:77] Creating layer scale1
I0115 17:45:35.477769 140197 net.cpp:122] Setting up scale1
I0115 17:45:35.477783 140197 net.cpp:129] Top shape: 50 96 55 55 (14520000)
I0115 17:45:35.477790 140197 net.cpp:137] Memory required for data: 204346400
I0115 17:45:35.477802 140197 layer_factory.hpp:77] Creating layer relu1
I0115 17:45:35.477811 140197 net.cpp:84] Creating Layer relu1
I0115 17:45:35.477838 140197 net.cpp:406] relu1 <- conv1
I0115 17:45:35.477849 140197 net.cpp:367] relu1 -> conv1 (in-place)
I0115 17:45:35.477859 140197 net.cpp:122] Setting up relu1
I0115 17:45:35.477910 140197 net.cpp:129] Top shape: 50 96 55 55 (14520000)
I0115 17:45:35.477917 140197 net.cpp:137] Memory required for data: 262426400
I0115 17:45:35.477926 140197 layer_factory.hpp:77] Creating layer pool1
I0115 17:45:35.477936 140197 net.cpp:84] Creating Layer pool1
I0115 17:45:35.477944 140197 net.cpp:406] pool1 <- conv1
I0115 17:45:35.477967 140197 net.cpp:380] pool1 -> pool1
I0115 17:45:35.478016 140197 net.cpp:122] Setting up pool1
I0115 17:45:35.478029 140197 net.cpp:129] Top shape: 50 96 27 27 (3499200)
I0115 17:45:35.478035 140197 net.cpp:137] Memory required for data: 276423200
I0115 17:45:35.478042 140197 layer_factory.hpp:77] Creating layer conv2
I0115 17:45:35.478056 140197 net.cpp:84] Creating Layer conv2
I0115 17:45:35.478065 140197 net.cpp:406] conv2 <- pool1
I0115 17:45:35.478075 140197 net.cpp:380] conv2 -> conv2
I0115 17:45:35.487857 140197 net.cpp:122] Setting up conv2
I0115 17:45:35.487879 140197 net.cpp:129] Top shape: 50 256 27 27 (9331200)
I0115 17:45:35.487885 140197 net.cpp:137] Memory required for data: 313748000
I0115 17:45:35.487902 140197 layer_factory.hpp:77] Creating layer bn2
I0115 17:45:35.487917 140197 net.cpp:84] Creating Layer bn2
I0115 17:45:35.487926 140197 net.cpp:406] bn2 <- conv2
I0115 17:45:35.487936 140197 net.cpp:367] bn2 -> conv2 (in-place)
I0115 17:45:35.488133 140197 net.cpp:122] Setting up bn2
I0115 17:45:35.488147 140197 net.cpp:129] Top shape: 50 256 27 27 (9331200)
I0115 17:45:35.488154 140197 net.cpp:137] Memory required for data: 351072800
I0115 17:45:35.488167 140197 layer_factory.hpp:77] Creating layer scale2
I0115 17:45:35.488178 140197 net.cpp:84] Creating Layer scale2
I0115 17:45:35.488184 140197 net.cpp:406] scale2 <- conv2
I0115 17:45:35.488194 140197 net.cpp:367] scale2 -> conv2 (in-place)
I0115 17:45:35.488241 140197 layer_factory.hpp:77] Creating layer scale2
I0115 17:45:35.488363 140197 net.cpp:122] Setting up scale2
I0115 17:45:35.488376 140197 net.cpp:129] Top shape: 50 256 27 27 (9331200)
I0115 17:45:35.488384 140197 net.cpp:137] Memory required for data: 388397600
I0115 17:45:35.488392 140197 layer_factory.hpp:77] Creating layer relu2
I0115 17:45:35.488404 140197 net.cpp:84] Creating Layer relu2
I0115 17:45:35.488409 140197 net.cpp:406] relu2 <- conv2
I0115 17:45:35.488420 140197 net.cpp:367] relu2 -> conv2 (in-place)
I0115 17:45:35.488428 140197 net.cpp:122] Setting up relu2
I0115 17:45:35.488437 140197 net.cpp:129] Top shape: 50 256 27 27 (9331200)
I0115 17:45:35.488443 140197 net.cpp:137] Memory required for data: 425722400
I0115 17:45:35.488450 140197 layer_factory.hpp:77] Creating layer pool2
I0115 17:45:35.488461 140197 net.cpp:84] Creating Layer pool2
I0115 17:45:35.488467 140197 net.cpp:406] pool2 <- conv2
I0115 17:45:35.488476 140197 net.cpp:380] pool2 -> pool2
I0115 17:45:35.488521 140197 net.cpp:122] Setting up pool2
I0115 17:45:35.488533 140197 net.cpp:129] Top shape: 50 256 13 13 (2163200)
I0115 17:45:35.488540 140197 net.cpp:137] Memory required for data: 434375200
I0115 17:45:35.488548 140197 layer_factory.hpp:77] Creating layer conv3
I0115 17:45:35.488561 140197 net.cpp:84] Creating Layer conv3
I0115 17:45:35.488569 140197 net.cpp:406] conv3 <- pool2
I0115 17:45:35.488579 140197 net.cpp:380] conv3 -> conv3
I0115 17:45:35.502751 140197 net.cpp:122] Setting up conv3
I0115 17:45:35.502779 140197 net.cpp:129] Top shape: 50 384 13 13 (3244800)
I0115 17:45:35.502787 140197 net.cpp:137] Memory required for data: 447354400
I0115 17:45:35.502810 140197 layer_factory.hpp:77] Creating layer bn3
I0115 17:45:35.502825 140197 net.cpp:84] Creating Layer bn3
I0115 17:45:35.502832 140197 net.cpp:406] bn3 <- conv3
I0115 17:45:35.502845 140197 net.cpp:367] bn3 -> conv3 (in-place)
I0115 17:45:35.503038 140197 net.cpp:122] Setting up bn3
I0115 17:45:35.503052 140197 net.cpp:129] Top shape: 50 384 13 13 (3244800)
I0115 17:45:35.503059 140197 net.cpp:137] Memory required for data: 460333600
I0115 17:45:35.503077 140197 layer_factory.hpp:77] Creating layer scale3
I0115 17:45:35.503087 140197 net.cpp:84] Creating Layer scale3
I0115 17:45:35.503120 140197 net.cpp:406] scale3 <- conv3
I0115 17:45:35.503132 140197 net.cpp:367] scale3 -> conv3 (in-place)
I0115 17:45:35.503193 140197 layer_factory.hpp:77] Creating layer scale3
I0115 17:45:35.503332 140197 net.cpp:122] Setting up scale3
I0115 17:45:35.503346 140197 net.cpp:129] Top shape: 50 384 13 13 (3244800)
I0115 17:45:35.503353 140197 net.cpp:137] Memory required for data: 473312800
I0115 17:45:35.503363 140197 layer_factory.hpp:77] Creating layer relu3
I0115 17:45:35.503373 140197 net.cpp:84] Creating Layer relu3
I0115 17:45:35.503381 140197 net.cpp:406] relu3 <- conv3
I0115 17:45:35.503391 140197 net.cpp:367] relu3 -> conv3 (in-place)
I0115 17:45:35.503401 140197 net.cpp:122] Setting up relu3
I0115 17:45:35.503408 140197 net.cpp:129] Top shape: 50 384 13 13 (3244800)
I0115 17:45:35.503414 140197 net.cpp:137] Memory required for data: 486292000
I0115 17:45:35.503422 140197 layer_factory.hpp:77] Creating layer conv4
I0115 17:45:35.503439 140197 net.cpp:84] Creating Layer conv4
I0115 17:45:35.503446 140197 net.cpp:406] conv4 <- conv3
I0115 17:45:35.503458 140197 net.cpp:380] conv4 -> conv4
I0115 17:45:35.527652 140197 net.cpp:122] Setting up conv4
I0115 17:45:35.527686 140197 net.cpp:129] Top shape: 50 384 13 13 (3244800)
I0115 17:45:35.527694 140197 net.cpp:137] Memory required for data: 499271200
I0115 17:45:35.527709 140197 layer_factory.hpp:77] Creating layer bn4
I0115 17:45:35.527726 140197 net.cpp:84] Creating Layer bn4
I0115 17:45:35.527734 140197 net.cpp:406] bn4 <- conv4
I0115 17:45:35.527745 140197 net.cpp:367] bn4 -> conv4 (in-place)
I0115 17:45:35.527963 140197 net.cpp:122] Setting up bn4
I0115 17:45:35.527976 140197 net.cpp:129] Top shape: 50 384 13 13 (3244800)
I0115 17:45:35.527982 140197 net.cpp:137] Memory required for data: 512250400
I0115 17:45:35.527995 140197 layer_factory.hpp:77] Creating layer scale4
I0115 17:45:35.528005 140197 net.cpp:84] Creating Layer scale4
I0115 17:45:35.528012 140197 net.cpp:406] scale4 <- conv4
I0115 17:45:35.528023 140197 net.cpp:367] scale4 -> conv4 (in-place)
I0115 17:45:35.528075 140197 layer_factory.hpp:77] Creating layer scale4
I0115 17:45:35.528208 140197 net.cpp:122] Setting up scale4
I0115 17:45:35.528223 140197 net.cpp:129] Top shape: 50 384 13 13 (3244800)
I0115 17:45:35.528230 140197 net.cpp:137] Memory required for data: 525229600
I0115 17:45:35.528241 140197 layer_factory.hpp:77] Creating layer relu4
I0115 17:45:35.528250 140197 net.cpp:84] Creating Layer relu4
I0115 17:45:35.528259 140197 net.cpp:406] relu4 <- conv4
I0115 17:45:35.528266 140197 net.cpp:367] relu4 -> conv4 (in-place)
I0115 17:45:35.528276 140197 net.cpp:122] Setting up relu4
I0115 17:45:35.528285 140197 net.cpp:129] Top shape: 50 384 13 13 (3244800)
I0115 17:45:35.528291 140197 net.cpp:137] Memory required for data: 538208800
I0115 17:45:35.528298 140197 layer_factory.hpp:77] Creating layer conv5
I0115 17:45:35.528316 140197 net.cpp:84] Creating Layer conv5
I0115 17:45:35.528322 140197 net.cpp:406] conv5 <- conv4
I0115 17:45:35.528336 140197 net.cpp:380] conv5 -> conv5
I0115 17:45:35.542888 140197 net.cpp:122] Setting up conv5
I0115 17:45:35.542914 140197 net.cpp:129] Top shape: 50 256 13 13 (2163200)
I0115 17:45:35.542922 140197 net.cpp:137] Memory required for data: 546861600
I0115 17:45:35.542933 140197 layer_factory.hpp:77] Creating layer bn5
I0115 17:45:35.542945 140197 net.cpp:84] Creating Layer bn5
I0115 17:45:35.542953 140197 net.cpp:406] bn5 <- conv5
I0115 17:45:35.542966 140197 net.cpp:367] bn5 -> conv5 (in-place)
I0115 17:45:35.543171 140197 net.cpp:122] Setting up bn5
I0115 17:45:35.543184 140197 net.cpp:129] Top shape: 50 256 13 13 (2163200)
I0115 17:45:35.543191 140197 net.cpp:137] Memory required for data: 555514400
I0115 17:45:35.543216 140197 layer_factory.hpp:77] Creating layer scale5
I0115 17:45:35.543227 140197 net.cpp:84] Creating Layer scale5
I0115 17:45:35.543234 140197 net.cpp:406] scale5 <- conv5
I0115 17:45:35.543243 140197 net.cpp:367] scale5 -> conv5 (in-place)
I0115 17:45:35.543301 140197 layer_factory.hpp:77] Creating layer scale5
I0115 17:45:35.543427 140197 net.cpp:122] Setting up scale5
I0115 17:45:35.543475 140197 net.cpp:129] Top shape: 50 256 13 13 (2163200)
I0115 17:45:35.543483 140197 net.cpp:137] Memory required for data: 564167200
I0115 17:45:35.543493 140197 layer_factory.hpp:77] Creating layer relu5
I0115 17:45:35.543505 140197 net.cpp:84] Creating Layer relu5
I0115 17:45:35.543514 140197 net.cpp:406] relu5 <- conv5
I0115 17:45:35.543522 140197 net.cpp:367] relu5 -> conv5 (in-place)
I0115 17:45:35.543532 140197 net.cpp:122] Setting up relu5
I0115 17:45:35.543540 140197 net.cpp:129] Top shape: 50 256 13 13 (2163200)
I0115 17:45:35.543546 140197 net.cpp:137] Memory required for data: 572820000
I0115 17:45:35.543553 140197 layer_factory.hpp:77] Creating layer pool5
I0115 17:45:35.543567 140197 net.cpp:84] Creating Layer pool5
I0115 17:45:35.543576 140197 net.cpp:406] pool5 <- conv5
I0115 17:45:35.543584 140197 net.cpp:380] pool5 -> pool5
I0115 17:45:35.543638 140197 net.cpp:122] Setting up pool5
I0115 17:45:35.543651 140197 net.cpp:129] Top shape: 50 256 6 6 (460800)
I0115 17:45:35.543656 140197 net.cpp:137] Memory required for data: 574663200
I0115 17:45:35.543661 140197 layer_factory.hpp:77] Creating layer fc6
I0115 17:45:35.543673 140197 net.cpp:84] Creating Layer fc6
I0115 17:45:35.543680 140197 net.cpp:406] fc6 <- pool5
I0115 17:45:35.543696 140197 net.cpp:380] fc6 -> fc6
I0115 17:45:36.141734 140197 net.cpp:122] Setting up fc6
I0115 17:45:36.141788 140197 net.cpp:129] Top shape: 50 4096 (204800)
I0115 17:45:36.141794 140197 net.cpp:137] Memory required for data: 575482400
I0115 17:45:36.141811 140197 layer_factory.hpp:77] Creating layer bn6
I0115 17:45:36.141860 140197 net.cpp:84] Creating Layer bn6
I0115 17:45:36.141870 140197 net.cpp:406] bn6 <- fc6
I0115 17:45:36.141886 140197 net.cpp:367] bn6 -> fc6 (in-place)
I0115 17:45:36.142141 140197 net.cpp:122] Setting up bn6
I0115 17:45:36.142155 140197 net.cpp:129] Top shape: 50 4096 (204800)
I0115 17:45:36.142169 140197 net.cpp:137] Memory required for data: 576301600
I0115 17:45:36.142179 140197 layer_factory.hpp:77] Creating layer scale6
I0115 17:45:36.142190 140197 net.cpp:84] Creating Layer scale6
I0115 17:45:36.142197 140197 net.cpp:406] scale6 <- fc6
I0115 17:45:36.142204 140197 net.cpp:367] scale6 -> fc6 (in-place)
I0115 17:45:36.142267 140197 layer_factory.hpp:77] Creating layer scale6
I0115 17:45:36.142413 140197 net.cpp:122] Setting up scale6
I0115 17:45:36.142426 140197 net.cpp:129] Top shape: 50 4096 (204800)
I0115 17:45:36.142431 140197 net.cpp:137] Memory required for data: 577120800
I0115 17:45:36.142446 140197 layer_factory.hpp:77] Creating layer relu6
I0115 17:45:36.142458 140197 net.cpp:84] Creating Layer relu6
I0115 17:45:36.142467 140197 net.cpp:406] relu6 <- fc6
I0115 17:45:36.142473 140197 net.cpp:367] relu6 -> fc6 (in-place)
I0115 17:45:36.142483 140197 net.cpp:122] Setting up relu6
I0115 17:45:36.142493 140197 net.cpp:129] Top shape: 50 4096 (204800)
I0115 17:45:36.142498 140197 net.cpp:137] Memory required for data: 577940000
I0115 17:45:36.142503 140197 layer_factory.hpp:77] Creating layer drop6
I0115 17:45:36.142516 140197 net.cpp:84] Creating Layer drop6
I0115 17:45:36.142530 140197 net.cpp:406] drop6 <- fc6
I0115 17:45:36.142541 140197 net.cpp:367] drop6 -> fc6 (in-place)
I0115 17:45:36.142572 140197 net.cpp:122] Setting up drop6
I0115 17:45:36.142592 140197 net.cpp:129] Top shape: 50 4096 (204800)
I0115 17:45:36.142598 140197 net.cpp:137] Memory required for data: 578759200
I0115 17:45:36.142603 140197 layer_factory.hpp:77] Creating layer fc7
I0115 17:45:36.142614 140197 net.cpp:84] Creating Layer fc7
I0115 17:45:36.142619 140197 net.cpp:406] fc7 <- fc6
I0115 17:45:36.142642 140197 net.cpp:380] fc7 -> fc7
I0115 17:45:36.413522 140197 net.cpp:122] Setting up fc7
I0115 17:45:36.413601 140197 net.cpp:129] Top shape: 50 4096 (204800)
I0115 17:45:36.413609 140197 net.cpp:137] Memory required for data: 579578400
I0115 17:45:36.413628 140197 layer_factory.hpp:77] Creating layer bn7
I0115 17:45:36.413658 140197 net.cpp:84] Creating Layer bn7
I0115 17:45:36.413666 140197 net.cpp:406] bn7 <- fc7
I0115 17:45:36.413736 140197 net.cpp:367] bn7 -> fc7 (in-place)
I0115 17:45:36.414078 140197 net.cpp:122] Setting up bn7
I0115 17:45:36.414113 140197 net.cpp:129] Top shape: 50 4096 (204800)
I0115 17:45:36.414121 140197 net.cpp:137] Memory required for data: 580397600
I0115 17:45:36.414136 140197 layer_factory.hpp:77] Creating layer scale7
I0115 17:45:36.414158 140197 net.cpp:84] Creating Layer scale7
I0115 17:45:36.414166 140197 net.cpp:406] scale7 <- fc7
I0115 17:45:36.414173 140197 net.cpp:367] scale7 -> fc7 (in-place)
I0115 17:45:36.414250 140197 layer_factory.hpp:77] Creating layer scale7
I0115 17:45:36.414412 140197 net.cpp:122] Setting up scale7
I0115 17:45:36.414433 140197 net.cpp:129] Top shape: 50 4096 (204800)
I0115 17:45:36.414448 140197 net.cpp:137] Memory required for data: 581216800
I0115 17:45:36.414469 140197 layer_factory.hpp:77] Creating layer relu7
I0115 17:45:36.414480 140197 net.cpp:84] Creating Layer relu7
I0115 17:45:36.414494 140197 net.cpp:406] relu7 <- fc7
I0115 17:45:36.414501 140197 net.cpp:367] relu7 -> fc7 (in-place)
I0115 17:45:36.414515 140197 net.cpp:122] Setting up relu7
I0115 17:45:36.414526 140197 net.cpp:129] Top shape: 50 4096 (204800)
I0115 17:45:36.414535 140197 net.cpp:137] Memory required for data: 582036000
I0115 17:45:36.414541 140197 layer_factory.hpp:77] Creating layer drop7
I0115 17:45:36.414556 140197 net.cpp:84] Creating Layer drop7
I0115 17:45:36.414566 140197 net.cpp:406] drop7 <- fc7
I0115 17:45:36.414578 140197 net.cpp:367] drop7 -> fc7 (in-place)
I0115 17:45:36.414618 140197 net.cpp:122] Setting up drop7
I0115 17:45:36.414629 140197 net.cpp:129] Top shape: 50 4096 (204800)
I0115 17:45:36.414639 140197 net.cpp:137] Memory required for data: 582855200
I0115 17:45:36.414649 140197 layer_factory.hpp:77] Creating layer fc8
I0115 17:45:36.414664 140197 net.cpp:84] Creating Layer fc8
I0115 17:45:36.414672 140197 net.cpp:406] fc8 <- fc7
I0115 17:45:36.414686 140197 net.cpp:380] fc8 -> fc8
I0115 17:45:36.479328 140197 net.cpp:122] Setting up fc8
I0115 17:45:36.479378 140197 net.cpp:129] Top shape: 50 1000 (50000)
I0115 17:45:36.479387 140197 net.cpp:137] Memory required for data: 583055200
I0115 17:45:36.479403 140197 layer_factory.hpp:77] Creating layer fc8_fc8_0_split
I0115 17:45:36.479420 140197 net.cpp:84] Creating Layer fc8_fc8_0_split
I0115 17:45:36.479429 140197 net.cpp:406] fc8_fc8_0_split <- fc8
I0115 17:45:36.479441 140197 net.cpp:380] fc8_fc8_0_split -> fc8_fc8_0_split_0
I0115 17:45:36.479468 140197 net.cpp:380] fc8_fc8_0_split -> fc8_fc8_0_split_1
I0115 17:45:36.479478 140197 net.cpp:380] fc8_fc8_0_split -> fc8_fc8_0_split_2
I0115 17:45:36.479553 140197 net.cpp:122] Setting up fc8_fc8_0_split
I0115 17:45:36.479574 140197 net.cpp:129] Top shape: 50 1000 (50000)
I0115 17:45:36.479580 140197 net.cpp:129] Top shape: 50 1000 (50000)
I0115 17:45:36.479586 140197 net.cpp:129] Top shape: 50 1000 (50000)
I0115 17:45:36.479591 140197 net.cpp:137] Memory required for data: 583655200
I0115 17:45:36.479596 140197 layer_factory.hpp:77] Creating layer accuracy
I0115 17:45:36.479607 140197 net.cpp:84] Creating Layer accuracy
I0115 17:45:36.479614 140197 net.cpp:406] accuracy <- fc8_fc8_0_split_0
I0115 17:45:36.479620 140197 net.cpp:406] accuracy <- label_data_1_split_0
I0115 17:45:36.479640 140197 net.cpp:380] accuracy -> accuracy
…
