…
I0117 20:00:17.001955 187660 net.cpp:294] The NetState phase (0) differed from the phase (1) specified by a rule in layer accuracy_5
I0117 20:00:17.002215 187660 net.cpp:51] Initializing net from parameters: 
name: "AlexNet-BN"
state {
  phase: TRAIN
  level: 0
  stage: ""
}
layer {
  name: "data"
  type: "Data"
  top: "data"
  top: "label"
  include {
    phase: TRAIN
  }
  transform_param {
    mirror: true
    crop_size: 224
    mean_value: 103.939
    mean_value: 116.779
    mean_value: 123.68
  }
  data_param {
    source: "/home/ydwu/database/imagenet/ilsvrc12/lmdb_resize/ilsvrc12_train_lmdb"
    batch_size: 256
    backend: LMDB
  }
}
layer {
  name: "conv1"
  type: "Convolution"
  bottom: "data"
  top: "conv1"
  param {
    lr_mult: 1
    decay_mult: 1
  }
  param {
    lr_mult: 2
    decay_mult: 0
  }
  convolution_param {
    num_output: 96
    pad: 2
    kernel_size: 11
    stride: 4
    weight_filler {
      type: "gaussian"
      std: 0.1
    }
    bias_filler {
      type: "constant"
      value: 0
    }
  }
}
layer {
  name: "bn1"
  type: "BatchNorm"
  bottom: "conv1"
  top: "conv1"
}
layer {
  name: "scale1"
  type: "Scale"
  bottom: "conv1"
  top: "conv1"
  scale_param {
    bias_term: true
  }
}
layer {
  name: "relu1"
  type: "ReLU"
  bottom: "conv1"
  top: "conv1"
}
layer {
  name: "pool1"
  type: "Pooling"
  bottom: "conv1"
  top: "pool1"
  pooling_param {
    pool: MAX
    kernel_size: 3
    stride: 2
  }
}
layer {
  name: "conv2"
  type: "Convolution"
  bottom: "pool1"
  top: "conv2"
  param {
    lr_mult: 1
    decay_mult: 1
  }
  param {
    lr_mult: 2
    decay_mult: 0
  }
  convolution_param {
    num_output: 256
    pad: 2
    kernel_size: 5
    weight_filler {
      type: "gaussian"
      std: 0.1
    }
    bias_filler {
      type: "constant"
      value: 0.1
    }
  }
}
layer {
  name: "bn2"
  type: "BatchNorm"
  bottom: "conv2"
  top: "conv2"
}
layer {
  name: "scale2"
  type: "Scale"
  bottom: "conv2"
  top: "conv2"
  scale_param {
    bias_term: true
  }
}
layer {
  name: "relu2"
  type: "ReLU"
  bottom: "conv2"
  top: "conv2"
}
layer {
  name: "pool2"
  type: "Pooling"
  bottom: "conv2"
  top: "pool2"
  pooling_param {
    pool: MAX
    kernel_size: 3
    stride: 2
  }
}
layer {
  name: "conv3"
  type: "Convolution"
  bottom: "pool2"
  top: "conv3"
  param {
    lr_mult: 1
    decay_mult: 1
  }
  param {
    lr_mult: 2
    decay_mult: 0
  }
  convolution_param {
    num_output: 384
    pad: 1
    kernel_size: 3
    weight_filler {
      type: "gaussian"
      std: 0.1
    }
    bias_filler {
      type: "constant"
      value: 0
    }
  }
}
layer {
  name: "bn3"
  type: "BatchNorm"
  bottom: "conv3"
  top: "conv3"
}
layer {
  name: "scale3"
  type: "Scale"
  bottom: "conv3"
  top: "conv3"
  scale_param {
    bias_term: true
  }
}
layer {
  name: "relu3"
  type: "ReLU"
  bottom: "conv3"
  top: "conv3"
}
layer {
  name: "conv4"
  type: "Convolution"
  bottom: "conv3"
  top: "conv4"
  param {
    lr_mult: 1
    decay_mult: 1
  }
  param {
    lr_mult: 2
    decay_mult: 0
  }
  convolution_param {
    num_output: 384
    pad: 1
    kernel_size: 3
    weight_filler {
      type: "gaussian"
      std: 0.1
    }
    bias_filler {
      type: "constant"
      value: 0.1
    }
  }
}
layer {
  name: "bn4"
  type: "BatchNorm"
  bottom: "conv4"
  top: "conv4"
}
layer {
  name: "scale4"
  type: "Scale"
  bottom: "conv4"
  top: "conv4"
  scale_param {
    bias_term: true
  }
}
layer {
  name: "relu4"
  type: "ReLU"
  bottom: "conv4"
  top: "conv4"
}
layer {
  name: "conv5"
  type: "Convolution"
  bottom: "conv4"
  top: "conv5"
  param {
    lr_mult: 1
    decay_mult: 1
  }
  param {
    lr_mult: 2
    decay_mult: 0
  }
  convolution_param {
    num_output: 256
    pad: 1
    kernel_size: 3
    weight_filler {
      type: "gaussian"
      std: 0.1
    }
    bias_filler {
      type: "constant"
      value: 0.1
    }
  }
}
layer {
  name: "bn5"
  type: "BatchNorm"
  bottom: "conv5"
  top: "conv5"
}
layer {
  name: "scale5"
  type: "Scale"
  bottom: "conv5"
  top: "conv5"
  scale_param {
    bias_term: true
  }
}
layer {
  name: "relu5"
  type: "ReLU"
  bottom: "conv5"
  top: "conv5"
}
layer {
  name: "pool5"
  type: "Pooling"
  bottom: "conv5"
  top: "pool5"
  pooling_param {
    pool: MAX
    kernel_size: 3
    stride: 2
  }
}
layer {
  name: "fc6"
  type: "InnerProduct"
  bottom: "pool5"
  top: "fc6"
  param {
    lr_mult: 1
    decay_mult: 1
  }
  param {
    lr_mult: 2
    decay_mult: 0
  }
  inner_product_param {
    num_output: 4096
    weight_filler {
      type: "gaussian"
      std: 0.005
    }
    bias_filler {
      type: "constant"
      value: 0.1
    }
  }
}
layer {
  name: "bn6"
  type: "BatchNorm"
  bottom: "fc6"
  top: "fc6"
}
layer {
  name: "scale6"
  type: "Scale"
  bottom: "fc6"
  top: "fc6"
  scale_param {
    bias_term: true
  }
}
layer {
  name: "relu6"
  type: "ReLU"
  bottom: "fc6"
  top: "fc6"
}
layer {
  name: "drop6"
  type: "Dropout"
  bottom: "fc6"
  top: "fc6"
  dropout_param {
    dropout_ratio: 0.5
  }
}
layer {
  name: "fc7"
  type: "InnerProduct"
  bottom: "fc6"
  top: "fc7"
  param {
    lr_mult: 1
    decay_mult: 1
  }
  param {
    lr_mult: 2
    decay_mult: 0
  }
  inner_product_param {
    num_output: 4096
    weight_filler {
      type: "gaussian"
      std: 0.005
    }
    bias_filler {
      type: "constant"
      value: 0.1
    }
  }
}
layer {
  name: "bn7"
  type: "BatchNorm"
  bottom: "fc7"
  top: "fc7"
}
layer {
  name: "scale7"
  type: "Scale"
  bottom: "fc7"
  top: "fc7"
  scale_param {
    bias_term: true
  }
}
layer {
  name: "relu7"
  type: "ReLU"
  bottom: "fc7"
  top: "fc7"
}
layer {
  name: "drop7"
  type: "Dropout"
  bottom: "fc7"
  top: "fc7"
  dropout_param {
    dropout_ratio: 0.5
  }
}
layer {
  name: "fc8"
  type: "InnerProduct"
  bottom: "fc7"
  top: "fc8"
  param {
    lr_mult: 1
    decay_mult: 1
  }
  param {
    lr_mult: 2
    decay_mult: 0
  }
  inner_product_param {
    num_output: 1000
    weight_filler {
      type: "gaussian"
      std: 0.1
    }
    bias_filler {
      type: "constant"
      value: 0.1
    }
  }
}
layer {
  name: "accuracy_5_TRAIN"
  type: "Accuracy"
  bottom: "fc8"
  bottom: "label"
  top: "accuracy_5_TRAIN"
  include {
    phase: TRAIN
  }
  accuracy_param {
    top_k: 5
  }
}
layer {
  name: "loss"
  type: "SoftmaxWithLoss"
  bottom: "fc8"
  bottom: "label"
  top: "loss"
}
I0117 20:00:17.002493 187660 layer_factory.hpp:77] Creating layer data
I0117 20:00:17.069938 187660 db_lmdb.cpp:35] Opened lmdb /home/ydwu/database/imagenet/ilsvrc12/lmdb_resize/ilsvrc12_train_lmdb
I0117 20:00:17.070276 187660 net.cpp:84] Creating Layer data
I0117 20:00:17.070324 187660 net.cpp:380] data -> data
I0117 20:00:17.070376 187660 net.cpp:380] data -> label
I0117 20:00:17.072198 187660 data_layer.cpp:45] output data size: 256,3,224,224
I0117 20:00:17.769618 187660 net.cpp:122] Setting up data
I0117 20:00:17.769696 187660 net.cpp:129] Top shape: 256 3 224 224 (38535168)
I0117 20:00:17.769708 187660 net.cpp:129] Top shape: 256 (256)
I0117 20:00:17.769723 187660 net.cpp:137] Memory required for data: 154141696
I0117 20:00:17.769752 187660 layer_factory.hpp:77] Creating layer label_data_1_split
I0117 20:00:17.769776 187660 net.cpp:84] Creating Layer label_data_1_split
I0117 20:00:17.769788 187660 net.cpp:406] label_data_1_split <- label
I0117 20:00:17.769860 187660 net.cpp:380] label_data_1_split -> label_data_1_split_0
I0117 20:00:17.769881 187660 net.cpp:380] label_data_1_split -> label_data_1_split_1
I0117 20:00:17.769959 187660 net.cpp:122] Setting up label_data_1_split
I0117 20:00:17.769973 187660 net.cpp:129] Top shape: 256 (256)
I0117 20:00:17.769979 187660 net.cpp:129] Top shape: 256 (256)
I0117 20:00:17.769984 187660 net.cpp:137] Memory required for data: 154143744
I0117 20:00:17.769989 187660 layer_factory.hpp:77] Creating layer conv1
I0117 20:00:17.770025 187660 net.cpp:84] Creating Layer conv1
I0117 20:00:17.770031 187660 net.cpp:406] conv1 <- data
I0117 20:00:17.770041 187660 net.cpp:380] conv1 -> conv1
I0117 20:00:17.796772 187660 net.cpp:122] Setting up conv1
I0117 20:00:17.796802 187660 net.cpp:129] Top shape: 256 96 55 55 (74342400)
I0117 20:00:17.796808 187660 net.cpp:137] Memory required for data: 451513344
I0117 20:00:17.796854 187660 layer_factory.hpp:77] Creating layer bn1
I0117 20:00:17.796877 187660 net.cpp:84] Creating Layer bn1
I0117 20:00:17.796883 187660 net.cpp:406] bn1 <- conv1
I0117 20:00:17.796892 187660 net.cpp:367] bn1 -> conv1 (in-place)
I0117 20:00:17.797101 187660 net.cpp:122] Setting up bn1
I0117 20:00:17.797114 187660 net.cpp:129] Top shape: 256 96 55 55 (74342400)
I0117 20:00:17.797127 187660 net.cpp:137] Memory required for data: 748882944
I0117 20:00:17.797142 187660 layer_factory.hpp:77] Creating layer scale1
I0117 20:00:17.797158 187660 net.cpp:84] Creating Layer scale1
I0117 20:00:17.797165 187660 net.cpp:406] scale1 <- conv1
I0117 20:00:17.797173 187660 net.cpp:367] scale1 -> conv1 (in-place)
I0117 20:00:17.797230 187660 layer_factory.hpp:77] Creating layer scale1
I0117 20:00:17.797377 187660 net.cpp:122] Setting up scale1
I0117 20:00:17.797391 187660 net.cpp:129] Top shape: 256 96 55 55 (74342400)
I0117 20:00:17.797396 187660 net.cpp:137] Memory required for data: 1046252544
I0117 20:00:17.797412 187660 layer_factory.hpp:77] Creating layer relu1
I0117 20:00:17.797421 187660 net.cpp:84] Creating Layer relu1
I0117 20:00:17.797427 187660 net.cpp:406] relu1 <- conv1
I0117 20:00:17.797438 187660 net.cpp:367] relu1 -> conv1 (in-place)
I0117 20:00:17.797448 187660 net.cpp:122] Setting up relu1
I0117 20:00:17.797456 187660 net.cpp:129] Top shape: 256 96 55 55 (74342400)
I0117 20:00:17.797462 187660 net.cpp:137] Memory required for data: 1343622144
I0117 20:00:17.797469 187660 layer_factory.hpp:77] Creating layer pool1
I0117 20:00:17.797482 187660 net.cpp:84] Creating Layer pool1
I0117 20:00:17.797488 187660 net.cpp:406] pool1 <- conv1
I0117 20:00:17.797497 187660 net.cpp:380] pool1 -> pool1
I0117 20:00:17.797554 187660 net.cpp:122] Setting up pool1
I0117 20:00:17.797566 187660 net.cpp:129] Top shape: 256 96 27 27 (17915904)
I0117 20:00:17.797574 187660 net.cpp:137] Memory required for data: 1415285760
I0117 20:00:17.797580 187660 layer_factory.hpp:77] Creating layer conv2
I0117 20:00:17.797593 187660 net.cpp:84] Creating Layer conv2
I0117 20:00:17.797601 187660 net.cpp:406] conv2 <- pool1
I0117 20:00:17.797612 187660 net.cpp:380] conv2 -> conv2
I0117 20:00:17.809281 187660 net.cpp:122] Setting up conv2
I0117 20:00:17.809325 187660 net.cpp:129] Top shape: 256 256 27 27 (47775744)
I0117 20:00:17.809334 187660 net.cpp:137] Memory required for data: 1606388736
I0117 20:00:17.809357 187660 layer_factory.hpp:77] Creating layer bn2
I0117 20:00:17.809378 187660 net.cpp:84] Creating Layer bn2
I0117 20:00:17.809388 187660 net.cpp:406] bn2 <- conv2
I0117 20:00:17.809402 187660 net.cpp:367] bn2 -> conv2 (in-place)
I0117 20:00:17.809628 187660 net.cpp:122] Setting up bn2
I0117 20:00:17.809641 187660 net.cpp:129] Top shape: 256 256 27 27 (47775744)
I0117 20:00:17.809654 187660 net.cpp:137] Memory required for data: 1797491712
I0117 20:00:17.809666 187660 layer_factory.hpp:77] Creating layer scale2
I0117 20:00:17.809680 187660 net.cpp:84] Creating Layer scale2
I0117 20:00:17.809687 187660 net.cpp:406] scale2 <- conv2
I0117 20:00:17.809696 187660 net.cpp:367] scale2 -> conv2 (in-place)
I0117 20:00:17.809753 187660 layer_factory.hpp:77] Creating layer scale2
I0117 20:00:17.809965 187660 net.cpp:122] Setting up scale2
I0117 20:00:17.809981 187660 net.cpp:129] Top shape: 256 256 27 27 (47775744)
I0117 20:00:17.809988 187660 net.cpp:137] Memory required for data: 1988594688
I0117 20:00:17.809998 187660 layer_factory.hpp:77] Creating layer relu2
I0117 20:00:17.810009 187660 net.cpp:84] Creating Layer relu2
I0117 20:00:17.810014 187660 net.cpp:406] relu2 <- conv2
I0117 20:00:17.810029 187660 net.cpp:367] relu2 -> conv2 (in-place)
I0117 20:00:17.810039 187660 net.cpp:122] Setting up relu2
I0117 20:00:17.810046 187660 net.cpp:129] Top shape: 256 256 27 27 (47775744)
I0117 20:00:17.810053 187660 net.cpp:137] Memory required for data: 2179697664
I0117 20:00:17.810061 187660 layer_factory.hpp:77] Creating layer pool2
I0117 20:00:17.810073 187660 net.cpp:84] Creating Layer pool2
I0117 20:00:17.810081 187660 net.cpp:406] pool2 <- conv2
I0117 20:00:17.810092 187660 net.cpp:380] pool2 -> pool2
I0117 20:00:17.810149 187660 net.cpp:122] Setting up pool2
I0117 20:00:17.810163 187660 net.cpp:129] Top shape: 256 256 13 13 (11075584)
I0117 20:00:17.810171 187660 net.cpp:137] Memory required for data: 2224000000
I0117 20:00:17.810178 187660 layer_factory.hpp:77] Creating layer conv3
I0117 20:00:17.810196 187660 net.cpp:84] Creating Layer conv3
I0117 20:00:17.810204 187660 net.cpp:406] conv3 <- pool2
I0117 20:00:17.810216 187660 net.cpp:380] conv3 -> conv3
I0117 20:00:17.825794 187660 net.cpp:122] Setting up conv3
I0117 20:00:17.825865 187660 net.cpp:129] Top shape: 256 384 13 13 (16613376)
I0117 20:00:17.825875 187660 net.cpp:137] Memory required for data: 2290453504
I0117 20:00:17.825893 187660 layer_factory.hpp:77] Creating layer bn3
I0117 20:00:17.825917 187660 net.cpp:84] Creating Layer bn3
I0117 20:00:17.825928 187660 net.cpp:406] bn3 <- conv3
I0117 20:00:17.825944 187660 net.cpp:367] bn3 -> conv3 (in-place)
I0117 20:00:17.826159 187660 net.cpp:122] Setting up bn3
I0117 20:00:17.826174 187660 net.cpp:129] Top shape: 256 384 13 13 (16613376)
I0117 20:00:17.826181 187660 net.cpp:137] Memory required for data: 2356907008
I0117 20:00:17.826207 187660 layer_factory.hpp:77] Creating layer scale3
I0117 20:00:17.826222 187660 net.cpp:84] Creating Layer scale3
I0117 20:00:17.826231 187660 net.cpp:406] scale3 <- conv3
I0117 20:00:17.826241 187660 net.cpp:367] scale3 -> conv3 (in-place)
I0117 20:00:17.826289 187660 layer_factory.hpp:77] Creating layer scale3
I0117 20:00:17.826426 187660 net.cpp:122] Setting up scale3
I0117 20:00:17.826441 187660 net.cpp:129] Top shape: 256 384 13 13 (16613376)
I0117 20:00:17.826447 187660 net.cpp:137] Memory required for data: 2423360512
I0117 20:00:17.826460 187660 layer_factory.hpp:77] Creating layer relu3
I0117 20:00:17.826473 187660 net.cpp:84] Creating Layer relu3
I0117 20:00:17.826481 187660 net.cpp:406] relu3 <- conv3
I0117 20:00:17.826493 187660 net.cpp:367] relu3 -> conv3 (in-place)
I0117 20:00:17.826504 187660 net.cpp:122] Setting up relu3
I0117 20:00:17.826514 187660 net.cpp:129] Top shape: 256 384 13 13 (16613376)
I0117 20:00:17.826521 187660 net.cpp:137] Memory required for data: 2489814016
I0117 20:00:17.826529 187660 layer_factory.hpp:77] Creating layer conv4
I0117 20:00:17.826556 187660 net.cpp:84] Creating Layer conv4
I0117 20:00:17.826565 187660 net.cpp:406] conv4 <- conv3
I0117 20:00:17.826578 187660 net.cpp:380] conv4 -> conv4
I0117 20:00:17.850277 187660 net.cpp:122] Setting up conv4
I0117 20:00:17.850332 187660 net.cpp:129] Top shape: 256 384 13 13 (16613376)
I0117 20:00:17.850338 187660 net.cpp:137] Memory required for data: 2556267520
I0117 20:00:17.850354 187660 layer_factory.hpp:77] Creating layer bn4
I0117 20:00:17.850378 187660 net.cpp:84] Creating Layer bn4
I0117 20:00:17.850386 187660 net.cpp:406] bn4 <- conv4
I0117 20:00:17.850409 187660 net.cpp:367] bn4 -> conv4 (in-place)
I0117 20:00:17.850633 187660 net.cpp:122] Setting up bn4
I0117 20:00:17.850647 187660 net.cpp:129] Top shape: 256 384 13 13 (16613376)
I0117 20:00:17.850661 187660 net.cpp:137] Memory required for data: 2622721024
I0117 20:00:17.850728 187660 layer_factory.hpp:77] Creating layer scale4
I0117 20:00:17.850740 187660 net.cpp:84] Creating Layer scale4
I0117 20:00:17.850746 187660 net.cpp:406] scale4 <- conv4
I0117 20:00:17.850754 187660 net.cpp:367] scale4 -> conv4 (in-place)
I0117 20:00:17.850803 187660 layer_factory.hpp:77] Creating layer scale4
I0117 20:00:17.850944 187660 net.cpp:122] Setting up scale4
I0117 20:00:17.850957 187660 net.cpp:129] Top shape: 256 384 13 13 (16613376)
I0117 20:00:17.850970 187660 net.cpp:137] Memory required for data: 2689174528
I0117 20:00:17.850980 187660 layer_factory.hpp:77] Creating layer relu4
I0117 20:00:17.850991 187660 net.cpp:84] Creating Layer relu4
I0117 20:00:17.850998 187660 net.cpp:406] relu4 <- conv4
I0117 20:00:17.851006 187660 net.cpp:367] relu4 -> conv4 (in-place)
I0117 20:00:17.851017 187660 net.cpp:122] Setting up relu4
I0117 20:00:17.851027 187660 net.cpp:129] Top shape: 256 384 13 13 (16613376)
I0117 20:00:17.851034 187660 net.cpp:137] Memory required for data: 2755628032
I0117 20:00:17.851048 187660 layer_factory.hpp:77] Creating layer conv5
I0117 20:00:17.851066 187660 net.cpp:84] Creating Layer conv5
I0117 20:00:17.851074 187660 net.cpp:406] conv5 <- conv4
I0117 20:00:17.851089 187660 net.cpp:380] conv5 -> conv5
I0117 20:00:17.866763 187660 net.cpp:122] Setting up conv5
I0117 20:00:17.866816 187660 net.cpp:129] Top shape: 256 256 13 13 (11075584)
I0117 20:00:17.866823 187660 net.cpp:137] Memory required for data: 2799930368
I0117 20:00:17.866840 187660 layer_factory.hpp:77] Creating layer bn5
I0117 20:00:17.866863 187660 net.cpp:84] Creating Layer bn5
I0117 20:00:17.866873 187660 net.cpp:406] bn5 <- conv5
I0117 20:00:17.866888 187660 net.cpp:367] bn5 -> conv5 (in-place)
I0117 20:00:17.867105 187660 net.cpp:122] Setting up bn5
I0117 20:00:17.867118 187660 net.cpp:129] Top shape: 256 256 13 13 (11075584)
I0117 20:00:17.867125 187660 net.cpp:137] Memory required for data: 2844232704
I0117 20:00:17.867152 187660 layer_factory.hpp:77] Creating layer scale5
I0117 20:00:17.867166 187660 net.cpp:84] Creating Layer scale5
I0117 20:00:17.867174 187660 net.cpp:406] scale5 <- conv5
I0117 20:00:17.867184 187660 net.cpp:367] scale5 -> conv5 (in-place)
I0117 20:00:17.867249 187660 layer_factory.hpp:77] Creating layer scale5
I0117 20:00:17.867379 187660 net.cpp:122] Setting up scale5
I0117 20:00:17.867398 187660 net.cpp:129] Top shape: 256 256 13 13 (11075584)
I0117 20:00:17.867405 187660 net.cpp:137] Memory required for data: 2888535040
I0117 20:00:17.867416 187660 layer_factory.hpp:77] Creating layer relu5
I0117 20:00:17.867427 187660 net.cpp:84] Creating Layer relu5
I0117 20:00:17.867435 187660 net.cpp:406] relu5 <- conv5
I0117 20:00:17.867449 187660 net.cpp:367] relu5 -> conv5 (in-place)
I0117 20:00:17.867461 187660 net.cpp:122] Setting up relu5
I0117 20:00:17.867470 187660 net.cpp:129] Top shape: 256 256 13 13 (11075584)
I0117 20:00:17.867477 187660 net.cpp:137] Memory required for data: 2932837376
I0117 20:00:17.867485 187660 layer_factory.hpp:77] Creating layer pool5
I0117 20:00:17.867497 187660 net.cpp:84] Creating Layer pool5
I0117 20:00:17.867504 187660 net.cpp:406] pool5 <- conv5
I0117 20:00:17.867516 187660 net.cpp:380] pool5 -> pool5
I0117 20:00:17.867563 187660 net.cpp:122] Setting up pool5
I0117 20:00:17.867575 187660 net.cpp:129] Top shape: 256 256 6 6 (2359296)
I0117 20:00:17.867583 187660 net.cpp:137] Memory required for data: 2942274560
I0117 20:00:17.867590 187660 layer_factory.hpp:77] Creating layer fc6
I0117 20:00:17.867604 187660 net.cpp:84] Creating Layer fc6
I0117 20:00:17.867612 187660 net.cpp:406] fc6 <- pool5
I0117 20:00:17.867625 187660 net.cpp:380] fc6 -> fc6
I0117 20:00:18.492364 187660 net.cpp:122] Setting up fc6
I0117 20:00:18.492426 187660 net.cpp:129] Top shape: 256 4096 (1048576)
I0117 20:00:18.492434 187660 net.cpp:137] Memory required for data: 2946468864
I0117 20:00:18.492451 187660 layer_factory.hpp:77] Creating layer bn6
I0117 20:00:18.492470 187660 net.cpp:84] Creating Layer bn6
I0117 20:00:18.492487 187660 net.cpp:406] bn6 <- fc6
I0117 20:00:18.492498 187660 net.cpp:367] bn6 -> fc6 (in-place)
I0117 20:00:18.492771 187660 net.cpp:122] Setting up bn6
I0117 20:00:18.492785 187660 net.cpp:129] Top shape: 256 4096 (1048576)
I0117 20:00:18.492799 187660 net.cpp:137] Memory required for data: 2950663168
I0117 20:00:18.492811 187660 layer_factory.hpp:77] Creating layer scale6
I0117 20:00:18.492822 187660 net.cpp:84] Creating Layer scale6
I0117 20:00:18.492830 187660 net.cpp:406] scale6 <- fc6
I0117 20:00:18.492837 187660 net.cpp:367] scale6 -> fc6 (in-place)
I0117 20:00:18.492897 187660 layer_factory.hpp:77] Creating layer scale6
I0117 20:00:18.493039 187660 net.cpp:122] Setting up scale6
I0117 20:00:18.493053 187660 net.cpp:129] Top shape: 256 4096 (1048576)
I0117 20:00:18.493058 187660 net.cpp:137] Memory required for data: 2954857472
I0117 20:00:18.493074 187660 layer_factory.hpp:77] Creating layer relu6
I0117 20:00:18.493086 187660 net.cpp:84] Creating Layer relu6
I0117 20:00:18.493093 187660 net.cpp:406] relu6 <- fc6
I0117 20:00:18.493103 187660 net.cpp:367] relu6 -> fc6 (in-place)
I0117 20:00:18.493113 187660 net.cpp:122] Setting up relu6
I0117 20:00:18.493121 187660 net.cpp:129] Top shape: 256 4096 (1048576)
I0117 20:00:18.493127 187660 net.cpp:137] Memory required for data: 2959051776
I0117 20:00:18.493132 187660 layer_factory.hpp:77] Creating layer drop6
I0117 20:00:18.493144 187660 net.cpp:84] Creating Layer drop6
I0117 20:00:18.493150 187660 net.cpp:406] drop6 <- fc6
I0117 20:00:18.493160 187660 net.cpp:367] drop6 -> fc6 (in-place)
I0117 20:00:18.493192 187660 net.cpp:122] Setting up drop6
I0117 20:00:18.493204 187660 net.cpp:129] Top shape: 256 4096 (1048576)
I0117 20:00:18.493211 187660 net.cpp:137] Memory required for data: 2963246080
I0117 20:00:18.493217 187660 layer_factory.hpp:77] Creating layer fc7
I0117 20:00:18.493233 187660 net.cpp:84] Creating Layer fc7
I0117 20:00:18.493242 187660 net.cpp:406] fc7 <- fc6
I0117 20:00:18.493252 187660 net.cpp:380] fc7 -> fc7
I0117 20:00:18.762403 187660 net.cpp:122] Setting up fc7
I0117 20:00:18.762471 187660 net.cpp:129] Top shape: 256 4096 (1048576)
I0117 20:00:18.762477 187660 net.cpp:137] Memory required for data: 2967440384
I0117 20:00:18.762495 187660 layer_factory.hpp:77] Creating layer bn7
I0117 20:00:18.762516 187660 net.cpp:84] Creating Layer bn7
I0117 20:00:18.762534 187660 net.cpp:406] bn7 <- fc7
I0117 20:00:18.762549 187660 net.cpp:367] bn7 -> fc7 (in-place)
I0117 20:00:18.762745 187660 net.cpp:122] Setting up bn7
I0117 20:00:18.762758 187660 net.cpp:129] Top shape: 256 4096 (1048576)
I0117 20:00:18.762773 187660 net.cpp:137] Memory required for data: 2971634688
I0117 20:00:18.762784 187660 layer_factory.hpp:77] Creating layer scale7
I0117 20:00:18.762814 187660 net.cpp:84] Creating Layer scale7
I0117 20:00:18.762821 187660 net.cpp:406] scale7 <- fc7
I0117 20:00:18.762837 187660 net.cpp:367] scale7 -> fc7 (in-place)
I0117 20:00:18.762881 187660 layer_factory.hpp:77] Creating layer scale7
I0117 20:00:18.763025 187660 net.cpp:122] Setting up scale7
I0117 20:00:18.763041 187660 net.cpp:129] Top shape: 256 4096 (1048576)
I0117 20:00:18.763053 187660 net.cpp:137] Memory required for data: 2975828992
I0117 20:00:18.763063 187660 layer_factory.hpp:77] Creating layer relu7
I0117 20:00:18.763072 187660 net.cpp:84] Creating Layer relu7
I0117 20:00:18.763079 187660 net.cpp:406] relu7 <- fc7
I0117 20:00:18.763088 187660 net.cpp:367] relu7 -> fc7 (in-place)
I0117 20:00:18.763098 187660 net.cpp:122] Setting up relu7
I0117 20:00:18.763105 187660 net.cpp:129] Top shape: 256 4096 (1048576)
I0117 20:00:18.763113 187660 net.cpp:137] Memory required for data: 2980023296
I0117 20:00:18.763118 187660 layer_factory.hpp:77] Creating layer drop7
I0117 20:00:18.763128 187660 net.cpp:84] Creating Layer drop7
I0117 20:00:18.763135 187660 net.cpp:406] drop7 <- fc7
I0117 20:00:18.763146 187660 net.cpp:367] drop7 -> fc7 (in-place)
I0117 20:00:18.763186 187660 net.cpp:122] Setting up drop7
I0117 20:00:18.763197 187660 net.cpp:129] Top shape: 256 4096 (1048576)
I0117 20:00:18.763202 187660 net.cpp:137] Memory required for data: 2984217600
I0117 20:00:18.763269 187660 layer_factory.hpp:77] Creating layer fc8
I0117 20:00:18.763289 187660 net.cpp:84] Creating Layer fc8
I0117 20:00:18.763298 187660 net.cpp:406] fc8 <- fc7
I0117 20:00:18.763309 187660 net.cpp:380] fc8 -> fc8
I0117 20:00:18.827494 187660 net.cpp:122] Setting up fc8
I0117 20:00:18.827553 187660 net.cpp:129] Top shape: 256 1000 (256000)
I0117 20:00:18.827569 187660 net.cpp:137] Memory required for data: 2985241600
I0117 20:00:18.827589 187660 layer_factory.hpp:77] Creating layer fc8_fc8_0_split
I0117 20:00:18.827610 187660 net.cpp:84] Creating Layer fc8_fc8_0_split
I0117 20:00:18.827620 187660 net.cpp:406] fc8_fc8_0_split <- fc8
I0117 20:00:18.827633 187660 net.cpp:380] fc8_fc8_0_split -> fc8_fc8_0_split_0
I0117 20:00:18.827651 187660 net.cpp:380] fc8_fc8_0_split -> fc8_fc8_0_split_1
I0117 20:00:18.827705 187660 net.cpp:122] Setting up fc8_fc8_0_split
I0117 20:00:18.827718 187660 net.cpp:129] Top shape: 256 1000 (256000)
I0117 20:00:18.827726 187660 net.cpp:129] Top shape: 256 1000 (256000)
I0117 20:00:18.827733 187660 net.cpp:137] Memory required for data: 2987289600
I0117 20:00:18.827740 187660 layer_factory.hpp:77] Creating layer accuracy_5_TRAIN
I0117 20:00:18.827757 187660 net.cpp:84] Creating Layer accuracy_5_TRAIN
I0117 20:00:18.827764 187660 net.cpp:406] accuracy_5_TRAIN <- fc8_fc8_0_split_0
I0117 20:00:18.827774 187660 net.cpp:406] accuracy_5_TRAIN <- label_data_1_split_0
…
I0117 20:00:18.830618 187660 net.cpp:294] The NetState phase (1) differed from the phase (0) specified by a rule in layer accuracy_5_TRAIN
I0117 20:00:18.830881 187660 net.cpp:51] Initializing net from parameters: 
name: "AlexNet-BN"
state {
  phase: TEST
}
layer {
  name: "data"
  type: "Data"
  top: "data"
  top: "label"
  include {
    phase: TEST
  }
  transform_param {
    mirror: false
    crop_size: 224
    mean_value: 103.939
    mean_value: 116.779
    mean_value: 123.68
  }
  data_param {
    source: "/home/ydwu/database/imagenet/ilsvrc12/lmdb_resize/ilsvrc12_val_lmdb"
    batch_size: 50
    backend: LMDB
  }
}
layer {
  name: "conv1"
  type: "Convolution"
  bottom: "data"
  top: "conv1"
  param {
    lr_mult: 1
    decay_mult: 1
  }
  param {
    lr_mult: 2
    decay_mult: 0
  }
  convolution_param {
    num_output: 96
    pad: 2
    kernel_size: 11
    stride: 4
    weight_filler {
      type: "gaussian"
      std: 0.1
    }
    bias_filler {
      type: "constant"
      value: 0
    }
  }
}
layer {
  name: "bn1"
  type: "BatchNorm"
  bottom: "conv1"
  top: "conv1"
}
layer {
  name: "scale1"
  type: "Scale"
  bottom: "conv1"
  top: "conv1"
  scale_param {
    bias_term: true
  }
}
layer {
  name: "relu1"
  type: "ReLU"
  bottom: "conv1"
  top: "conv1"
}
layer {
  name: "pool1"
  type: "Pooling"
  bottom: "conv1"
  top: "pool1"
  pooling_param {
    pool: MAX
    kernel_size: 3
    stride: 2
  }
}
layer {
  name: "conv2"
  type: "Convolution"
  bottom: "pool1"
  top: "conv2"
  param {
    lr_mult: 1
    decay_mult: 1
  }
  param {
    lr_mult: 2
    decay_mult: 0
  }
  convolution_param {
    num_output: 256
    pad: 2
    kernel_size: 5
    weight_filler {
      type: "gaussian"
      std: 0.1
    }
    bias_filler {
      type: "constant"
      value: 0.1
    }
  }
}
layer {
  name: "bn2"
  type: "BatchNorm"
  bottom: "conv2"
  top: "conv2"
}
layer {
  name: "scale2"
  type: "Scale"
  bottom: "conv2"
  top: "conv2"
  scale_param {
    bias_term: true
  }
}
layer {
  name: "relu2"
  type: "ReLU"
  bottom: "conv2"
  top: "conv2"
}
layer {
  name: "pool2"
  type: "Pooling"
  bottom: "conv2"
  top: "pool2"
  pooling_param {
    pool: MAX
    kernel_size: 3
    stride: 2
  }
}
layer {
  name: "conv3"
  type: "Convolution"
  bottom: "pool2"
  top: "conv3"
  param {
    lr_mult: 1
    decay_mult: 1
  }
  param {
    lr_mult: 2
    decay_mult: 0
  }
  convolution_param {
    num_output: 384
    pad: 1
    kernel_size: 3
    weight_filler {
      type: "gaussian"
      std: 0.1
    }
    bias_filler {
      type: "constant"
      value: 0
    }
  }
}
layer {
  name: "bn3"
  type: "BatchNorm"
  bottom: "conv3"
  top: "conv3"
}
layer {
  name: "scale3"
  type: "Scale"
  bottom: "conv3"
  top: "conv3"
  scale_param {
    bias_term: true
  }
}
layer {
  name: "relu3"
  type: "ReLU"
  bottom: "conv3"
  top: "conv3"
}
layer {
  name: "conv4"
  type: "Convolution"
  bottom: "conv3"
  top: "conv4"
  param {
    lr_mult: 1
    decay_mult: 1
  }
  param {
    lr_mult: 2
    decay_mult: 0
  }
  convolution_param {
    num_output: 384
    pad: 1
    kernel_size: 3
    weight_filler {
      type: "gaussian"
      std: 0.1
    }
    bias_filler {
      type: "constant"
      value: 0.1
    }
  }
}
layer {
  name: "bn4"
  type: "BatchNorm"
  bottom: "conv4"
  top: "conv4"
}
layer {
  name: "scale4"
  type: "Scale"
  bottom: "conv4"
  top: "conv4"
  scale_param {
    bias_term: true
  }
}
layer {
  name: "relu4"
  type: "ReLU"
  bottom: "conv4"
  top: "conv4"
}
layer {
  name: "conv5"
  type: "Convolution"
  bottom: "conv4"
  top: "conv5"
  param {
    lr_mult: 1
    decay_mult: 1
  }
  param {
    lr_mult: 2
    decay_mult: 0
  }
  convolution_param {
    num_output: 256
    pad: 1
    kernel_size: 3
    weight_filler {
      type: "gaussian"
      std: 0.1
    }
    bias_filler {
      type: "constant"
      value: 0.1
    }
  }
}
layer {
  name: "bn5"
  type: "BatchNorm"
  bottom: "conv5"
  top: "conv5"
}
layer {
  name: "scale5"
  type: "Scale"
  bottom: "conv5"
  top: "conv5"
  scale_param {
    bias_term: true
  }
}
layer {
  name: "relu5"
  type: "ReLU"
  bottom: "conv5"
  top: "conv5"
}
layer {
  name: "pool5"
  type: "Pooling"
  bottom: "conv5"
  top: "pool5"
  pooling_param {
    pool: MAX
    kernel_size: 3
    stride: 2
  }
}
layer {
  name: "fc6"
  type: "InnerProduct"
  bottom: "pool5"
  top: "fc6"
  param {
    lr_mult: 1
    decay_mult: 1
  }
  param {
    lr_mult: 2
    decay_mult: 0
  }
  inner_product_param {
    num_output: 4096
    weight_filler {
      type: "gaussian"
      std: 0.005
    }
    bias_filler {
      type: "constant"
      value: 0.1
    }
  }
}
layer {
  name: "bn6"
  type: "BatchNorm"
  bottom: "fc6"
  top: "fc6"
}
layer {
  name: "scale6"
  type: "Scale"
  bottom: "fc6"
  top: "fc6"
  scale_param {
    bias_term: true
  }
}
layer {
  name: "relu6"
  type: "ReLU"
  bottom: "fc6"
  top: "fc6"
}
layer {
  name: "drop6"
  type: "Dropout"
  bottom: "fc6"
  top: "fc6"
  dropout_param {
    dropout_ratio: 0.5
  }
}
layer {
  name: "fc7"
  type: "InnerProduct"
  bottom: "fc6"
  top: "fc7"
  param {
    lr_mult: 1
    decay_mult: 1
  }
  param {
    lr_mult: 2
    decay_mult: 0
  }
  inner_product_param {
    num_output: 4096
    weight_filler {
      type: "gaussian"
      std: 0.005
    }
    bias_filler {
      type: "constant"
      value: 0.1
    }
  }
}
layer {
  name: "bn7"
  type: "BatchNorm"
  bottom: "fc7"
  top: "fc7"
}
layer {
  name: "scale7"
  type: "Scale"
  bottom: "fc7"
  top: "fc7"
  scale_param {
    bias_term: true
  }
}
layer {
  name: "relu7"
  type: "ReLU"
  bottom: "fc7"
  top: "fc7"
}
layer {
  name: "drop7"
  type: "Dropout"
  bottom: "fc7"
  top: "fc7"
  dropout_param {
    dropout_ratio: 0.5
  }
}
layer {
  name: "fc8"
  type: "InnerProduct"
  bottom: "fc7"
  top: "fc8"
  param {
    lr_mult: 1
    decay_mult: 1
  }
  param {
    lr_mult: 2
    decay_mult: 0
  }
  inner_product_param {
    num_output: 1000
    weight_filler {
      type: "gaussian"
      std: 0.1
    }
    bias_filler {
      type: "constant"
      value: 0.1
    }
  }
}
layer {
  name: "accuracy"
  type: "Accuracy"
  bottom: "fc8"
  bottom: "label"
  top: "accuracy"
  include {
    phase: TEST
  }
}
layer {
  name: "accuracy_5"
  type: "Accuracy"
  bottom: "fc8"
  bottom: "label"
  top: "accuracy_5"
  include {
    phase: TEST
  }
  accuracy_param {
    top_k: 5
  }
}
layer {
  name: "loss"
  type: "SoftmaxWithLoss"
  bottom: "fc8"
  bottom: "label"
  top: "loss"
}
I0117 20:00:18.831101 187660 layer_factory.hpp:77] Creating layer data
I0117 20:00:20.210549 187660 db_lmdb.cpp:35] Opened lmdb /home/ydwu/database/imagenet/ilsvrc12/lmdb_resize/ilsvrc12_val_lmdb
I0117 20:00:20.210887 187660 net.cpp:84] Creating Layer data
I0117 20:00:20.210938 187660 net.cpp:380] data -> data
I0117 20:00:20.210989 187660 net.cpp:380] data -> label
I0117 20:00:20.211446 187660 data_layer.cpp:45] output data size: 50,3,224,224
I0117 20:00:20.342213 187660 net.cpp:122] Setting up data
I0117 20:00:20.342314 187660 net.cpp:129] Top shape: 50 3 224 224 (7526400)
I0117 20:00:20.342327 187660 net.cpp:129] Top shape: 50 (50)
I0117 20:00:20.342335 187660 net.cpp:137] Memory required for data: 30105800
I0117 20:00:20.342347 187660 layer_factory.hpp:77] Creating layer label_data_1_split
I0117 20:00:20.342376 187660 net.cpp:84] Creating Layer label_data_1_split
I0117 20:00:20.342386 187660 net.cpp:406] label_data_1_split <- label
I0117 20:00:20.342413 187660 net.cpp:380] label_data_1_split -> label_data_1_split_0
I0117 20:00:20.342433 187660 net.cpp:380] label_data_1_split -> label_data_1_split_1
I0117 20:00:20.342444 187660 net.cpp:380] label_data_1_split -> label_data_1_split_2
I0117 20:00:20.342715 187660 net.cpp:122] Setting up label_data_1_split
I0117 20:00:20.342749 187660 net.cpp:129] Top shape: 50 (50)
I0117 20:00:20.342759 187660 net.cpp:129] Top shape: 50 (50)
I0117 20:00:20.342767 187660 net.cpp:129] Top shape: 50 (50)
I0117 20:00:20.342773 187660 net.cpp:137] Memory required for data: 30106400
I0117 20:00:20.342780 187660 layer_factory.hpp:77] Creating layer conv1
I0117 20:00:20.342808 187660 net.cpp:84] Creating Layer conv1
I0117 20:00:20.342815 187660 net.cpp:406] conv1 <- data
I0117 20:00:20.342839 187660 net.cpp:380] conv1 -> conv1
I0117 20:00:20.343698 187660 net.cpp:122] Setting up conv1
I0117 20:00:20.343727 187660 net.cpp:129] Top shape: 50 96 55 55 (14520000)
I0117 20:00:20.343734 187660 net.cpp:137] Memory required for data: 88186400
I0117 20:00:20.343753 187660 layer_factory.hpp:77] Creating layer bn1
I0117 20:00:20.343766 187660 net.cpp:84] Creating Layer bn1
I0117 20:00:20.343772 187660 net.cpp:406] bn1 <- conv1
I0117 20:00:20.343781 187660 net.cpp:367] bn1 -> conv1 (in-place)
I0117 20:00:20.344014 187660 net.cpp:122] Setting up bn1
I0117 20:00:20.344030 187660 net.cpp:129] Top shape: 50 96 55 55 (14520000)
I0117 20:00:20.344049 187660 net.cpp:137] Memory required for data: 146266400
I0117 20:00:20.344066 187660 layer_factory.hpp:77] Creating layer scale1
I0117 20:00:20.344084 187660 net.cpp:84] Creating Layer scale1
I0117 20:00:20.344090 187660 net.cpp:406] scale1 <- conv1
I0117 20:00:20.344100 187660 net.cpp:367] scale1 -> conv1 (in-place)
I0117 20:00:20.344319 187660 layer_factory.hpp:77] Creating layer scale1
I0117 20:00:20.344558 187660 net.cpp:122] Setting up scale1
I0117 20:00:20.344583 187660 net.cpp:129] Top shape: 50 96 55 55 (14520000)
I0117 20:00:20.344590 187660 net.cpp:137] Memory required for data: 204346400
I0117 20:00:20.344605 187660 layer_factory.hpp:77] Creating layer relu1
I0117 20:00:20.344619 187660 net.cpp:84] Creating Layer relu1
I0117 20:00:20.344631 187660 net.cpp:406] relu1 <- conv1
I0117 20:00:20.344648 187660 net.cpp:367] relu1 -> conv1 (in-place)
I0117 20:00:20.344661 187660 net.cpp:122] Setting up relu1
I0117 20:00:20.344669 187660 net.cpp:129] Top shape: 50 96 55 55 (14520000)
I0117 20:00:20.344677 187660 net.cpp:137] Memory required for data: 262426400
I0117 20:00:20.344684 187660 layer_factory.hpp:77] Creating layer pool1
I0117 20:00:20.344698 187660 net.cpp:84] Creating Layer pool1
I0117 20:00:20.344705 187660 net.cpp:406] pool1 <- conv1
I0117 20:00:20.344715 187660 net.cpp:380] pool1 -> pool1
I0117 20:00:20.349345 187660 net.cpp:122] Setting up pool1
I0117 20:00:20.349370 187660 net.cpp:129] Top shape: 50 96 27 27 (3499200)
I0117 20:00:20.349377 187660 net.cpp:137] Memory required for data: 276423200
I0117 20:00:20.349383 187660 layer_factory.hpp:77] Creating layer conv2
I0117 20:00:20.349405 187660 net.cpp:84] Creating Layer conv2
I0117 20:00:20.349474 187660 net.cpp:406] conv2 <- pool1
I0117 20:00:20.349489 187660 net.cpp:380] conv2 -> conv2
I0117 20:00:20.360957 187660 net.cpp:122] Setting up conv2
I0117 20:00:20.361012 187660 net.cpp:129] Top shape: 50 256 27 27 (9331200)
I0117 20:00:20.361019 187660 net.cpp:137] Memory required for data: 313748000
I0117 20:00:20.361043 187660 layer_factory.hpp:77] Creating layer bn2
I0117 20:00:20.361065 187660 net.cpp:84] Creating Layer bn2
I0117 20:00:20.361075 187660 net.cpp:406] bn2 <- conv2
I0117 20:00:20.361088 187660 net.cpp:367] bn2 -> conv2 (in-place)
I0117 20:00:20.361315 187660 net.cpp:122] Setting up bn2
I0117 20:00:20.361330 187660 net.cpp:129] Top shape: 50 256 27 27 (9331200)
I0117 20:00:20.361335 187660 net.cpp:137] Memory required for data: 351072800
I0117 20:00:20.361347 187660 layer_factory.hpp:77] Creating layer scale2
I0117 20:00:20.361362 187660 net.cpp:84] Creating Layer scale2
I0117 20:00:20.361369 187660 net.cpp:406] scale2 <- conv2
I0117 20:00:20.361378 187660 net.cpp:367] scale2 -> conv2 (in-place)
I0117 20:00:20.361440 187660 layer_factory.hpp:77] Creating layer scale2
I0117 20:00:20.361577 187660 net.cpp:122] Setting up scale2
I0117 20:00:20.361591 187660 net.cpp:129] Top shape: 50 256 27 27 (9331200)
I0117 20:00:20.361598 187660 net.cpp:137] Memory required for data: 388397600
I0117 20:00:20.361608 187660 layer_factory.hpp:77] Creating layer relu2
I0117 20:00:20.361618 187660 net.cpp:84] Creating Layer relu2
I0117 20:00:20.361624 187660 net.cpp:406] relu2 <- conv2
I0117 20:00:20.361634 187660 net.cpp:367] relu2 -> conv2 (in-place)
I0117 20:00:20.361645 187660 net.cpp:122] Setting up relu2
I0117 20:00:20.361654 187660 net.cpp:129] Top shape: 50 256 27 27 (9331200)
I0117 20:00:20.361660 187660 net.cpp:137] Memory required for data: 425722400
I0117 20:00:20.361667 187660 layer_factory.hpp:77] Creating layer pool2
I0117 20:00:20.361680 187660 net.cpp:84] Creating Layer pool2
I0117 20:00:20.361686 187660 net.cpp:406] pool2 <- conv2
I0117 20:00:20.361698 187660 net.cpp:380] pool2 -> pool2
I0117 20:00:20.361753 187660 net.cpp:122] Setting up pool2
I0117 20:00:20.361768 187660 net.cpp:129] Top shape: 50 256 13 13 (2163200)
I0117 20:00:20.361774 187660 net.cpp:137] Memory required for data: 434375200
I0117 20:00:20.361781 187660 layer_factory.hpp:77] Creating layer conv3
I0117 20:00:20.361807 187660 net.cpp:84] Creating Layer conv3
I0117 20:00:20.361831 187660 net.cpp:406] conv3 <- pool2
I0117 20:00:20.361845 187660 net.cpp:380] conv3 -> conv3
I0117 20:00:20.377910 187660 net.cpp:122] Setting up conv3
I0117 20:00:20.377975 187660 net.cpp:129] Top shape: 50 384 13 13 (3244800)
I0117 20:00:20.377985 187660 net.cpp:137] Memory required for data: 447354400
I0117 20:00:20.378005 187660 layer_factory.hpp:77] Creating layer bn3
I0117 20:00:20.378026 187660 net.cpp:84] Creating Layer bn3
I0117 20:00:20.378036 187660 net.cpp:406] bn3 <- conv3
I0117 20:00:20.378051 187660 net.cpp:367] bn3 -> conv3 (in-place)
I0117 20:00:20.378288 187660 net.cpp:122] Setting up bn3
I0117 20:00:20.378309 187660 net.cpp:129] Top shape: 50 384 13 13 (3244800)
I0117 20:00:20.378315 187660 net.cpp:137] Memory required for data: 460333600
I0117 20:00:20.378340 187660 layer_factory.hpp:77] Creating layer scale3
I0117 20:00:20.378356 187660 net.cpp:84] Creating Layer scale3
I0117 20:00:20.378365 187660 net.cpp:406] scale3 <- conv3
I0117 20:00:20.378376 187660 net.cpp:367] scale3 -> conv3 (in-place)
I0117 20:00:20.378434 187660 layer_factory.hpp:77] Creating layer scale3
I0117 20:00:20.378576 187660 net.cpp:122] Setting up scale3
I0117 20:00:20.378590 187660 net.cpp:129] Top shape: 50 384 13 13 (3244800)
I0117 20:00:20.378597 187660 net.cpp:137] Memory required for data: 473312800
I0117 20:00:20.378607 187660 layer_factory.hpp:77] Creating layer relu3
I0117 20:00:20.378619 187660 net.cpp:84] Creating Layer relu3
I0117 20:00:20.378628 187660 net.cpp:406] relu3 <- conv3
I0117 20:00:20.378638 187660 net.cpp:367] relu3 -> conv3 (in-place)
I0117 20:00:20.378649 187660 net.cpp:122] Setting up relu3
I0117 20:00:20.378710 187660 net.cpp:129] Top shape: 50 384 13 13 (3244800)
I0117 20:00:20.378717 187660 net.cpp:137] Memory required for data: 486292000
I0117 20:00:20.378724 187660 layer_factory.hpp:77] Creating layer conv4
I0117 20:00:20.378747 187660 net.cpp:84] Creating Layer conv4
I0117 20:00:20.378756 187660 net.cpp:406] conv4 <- conv3
I0117 20:00:20.378767 187660 net.cpp:380] conv4 -> conv4
I0117 20:00:20.402670 187660 net.cpp:122] Setting up conv4
I0117 20:00:20.402724 187660 net.cpp:129] Top shape: 50 384 13 13 (3244800)
I0117 20:00:20.402731 187660 net.cpp:137] Memory required for data: 499271200
I0117 20:00:20.402750 187660 layer_factory.hpp:77] Creating layer bn4
I0117 20:00:20.402770 187660 net.cpp:84] Creating Layer bn4
I0117 20:00:20.402779 187660 net.cpp:406] bn4 <- conv4
I0117 20:00:20.402796 187660 net.cpp:367] bn4 -> conv4 (in-place)
I0117 20:00:20.403040 187660 net.cpp:122] Setting up bn4
I0117 20:00:20.403057 187660 net.cpp:129] Top shape: 50 384 13 13 (3244800)
I0117 20:00:20.403064 187660 net.cpp:137] Memory required for data: 512250400
I0117 20:00:20.403075 187660 layer_factory.hpp:77] Creating layer scale4
I0117 20:00:20.403090 187660 net.cpp:84] Creating Layer scale4
I0117 20:00:20.403096 187660 net.cpp:406] scale4 <- conv4
I0117 20:00:20.403106 187660 net.cpp:367] scale4 -> conv4 (in-place)
I0117 20:00:20.403167 187660 layer_factory.hpp:77] Creating layer scale4
I0117 20:00:20.403314 187660 net.cpp:122] Setting up scale4
I0117 20:00:20.403329 187660 net.cpp:129] Top shape: 50 384 13 13 (3244800)
I0117 20:00:20.403337 187660 net.cpp:137] Memory required for data: 525229600
I0117 20:00:20.403347 187660 layer_factory.hpp:77] Creating layer relu4
I0117 20:00:20.403362 187660 net.cpp:84] Creating Layer relu4
I0117 20:00:20.403369 187660 net.cpp:406] relu4 <- conv4
I0117 20:00:20.403378 187660 net.cpp:367] relu4 -> conv4 (in-place)
I0117 20:00:20.403389 187660 net.cpp:122] Setting up relu4
I0117 20:00:20.403398 187660 net.cpp:129] Top shape: 50 384 13 13 (3244800)
I0117 20:00:20.403404 187660 net.cpp:137] Memory required for data: 538208800
I0117 20:00:20.403411 187660 layer_factory.hpp:77] Creating layer conv5
I0117 20:00:20.403432 187660 net.cpp:84] Creating Layer conv5
I0117 20:00:20.403439 187660 net.cpp:406] conv5 <- conv4
I0117 20:00:20.403453 187660 net.cpp:380] conv5 -> conv5
I0117 20:00:20.419054 187660 net.cpp:122] Setting up conv5
I0117 20:00:20.419101 187660 net.cpp:129] Top shape: 50 256 13 13 (2163200)
I0117 20:00:20.419108 187660 net.cpp:137] Memory required for data: 546861600
I0117 20:00:20.419126 187660 layer_factory.hpp:77] Creating layer bn5
I0117 20:00:20.419147 187660 net.cpp:84] Creating Layer bn5
I0117 20:00:20.419155 187660 net.cpp:406] bn5 <- conv5
I0117 20:00:20.419172 187660 net.cpp:367] bn5 -> conv5 (in-place)
I0117 20:00:20.419416 187660 net.cpp:122] Setting up bn5
I0117 20:00:20.419431 187660 net.cpp:129] Top shape: 50 256 13 13 (2163200)
I0117 20:00:20.419438 187660 net.cpp:137] Memory required for data: 555514400
I0117 20:00:20.419464 187660 layer_factory.hpp:77] Creating layer scale5
I0117 20:00:20.419478 187660 net.cpp:84] Creating Layer scale5
I0117 20:00:20.419486 187660 net.cpp:406] scale5 <- conv5
I0117 20:00:20.419507 187660 net.cpp:367] scale5 -> conv5 (in-place)
I0117 20:00:20.419572 187660 layer_factory.hpp:77] Creating layer scale5
I0117 20:00:20.419715 187660 net.cpp:122] Setting up scale5
I0117 20:00:20.419730 187660 net.cpp:129] Top shape: 50 256 13 13 (2163200)
I0117 20:00:20.419737 187660 net.cpp:137] Memory required for data: 564167200
I0117 20:00:20.419749 187660 layer_factory.hpp:77] Creating layer relu5
I0117 20:00:20.419761 187660 net.cpp:84] Creating Layer relu5
I0117 20:00:20.419770 187660 net.cpp:406] relu5 <- conv5
I0117 20:00:20.419780 187660 net.cpp:367] relu5 -> conv5 (in-place)
I0117 20:00:20.419790 187660 net.cpp:122] Setting up relu5
I0117 20:00:20.419798 187660 net.cpp:129] Top shape: 50 256 13 13 (2163200)
I0117 20:00:20.419805 187660 net.cpp:137] Memory required for data: 572820000
I0117 20:00:20.419811 187660 layer_factory.hpp:77] Creating layer pool5
I0117 20:00:20.419872 187660 net.cpp:84] Creating Layer pool5
I0117 20:00:20.419881 187660 net.cpp:406] pool5 <- conv5
I0117 20:00:20.419891 187660 net.cpp:380] pool5 -> pool5
I0117 20:00:20.419945 187660 net.cpp:122] Setting up pool5
I0117 20:00:20.419960 187660 net.cpp:129] Top shape: 50 256 6 6 (460800)
I0117 20:00:20.419966 187660 net.cpp:137] Memory required for data: 574663200
I0117 20:00:20.419973 187660 layer_factory.hpp:77] Creating layer fc6
I0117 20:00:20.419991 187660 net.cpp:84] Creating Layer fc6
I0117 20:00:20.419997 187660 net.cpp:406] fc6 <- pool5
I0117 20:00:20.420008 187660 net.cpp:380] fc6 -> fc6
I0117 20:00:21.072033 187660 net.cpp:122] Setting up fc6
I0117 20:00:21.072100 187660 net.cpp:129] Top shape: 50 4096 (204800)
I0117 20:00:21.072108 187660 net.cpp:137] Memory required for data: 575482400
I0117 20:00:21.072124 187660 layer_factory.hpp:77] Creating layer bn6
I0117 20:00:21.072145 187660 net.cpp:84] Creating Layer bn6
I0117 20:00:21.072163 187660 net.cpp:406] bn6 <- fc6
I0117 20:00:21.072175 187660 net.cpp:367] bn6 -> fc6 (in-place)
I0117 20:00:21.072403 187660 net.cpp:122] Setting up bn6
I0117 20:00:21.072417 187660 net.cpp:129] Top shape: 50 4096 (204800)
I0117 20:00:21.072430 187660 net.cpp:137] Memory required for data: 576301600
I0117 20:00:21.072441 187660 layer_factory.hpp:77] Creating layer scale6
I0117 20:00:21.072453 187660 net.cpp:84] Creating Layer scale6
I0117 20:00:21.072459 187660 net.cpp:406] scale6 <- fc6
I0117 20:00:21.072469 187660 net.cpp:367] scale6 -> fc6 (in-place)
I0117 20:00:21.072525 187660 layer_factory.hpp:77] Creating layer scale6
I0117 20:00:21.072677 187660 net.cpp:122] Setting up scale6
I0117 20:00:21.072691 187660 net.cpp:129] Top shape: 50 4096 (204800)
I0117 20:00:21.072705 187660 net.cpp:137] Memory required for data: 577120800
I0117 20:00:21.072713 187660 layer_factory.hpp:77] Creating layer relu6
I0117 20:00:21.072722 187660 net.cpp:84] Creating Layer relu6
I0117 20:00:21.072729 187660 net.cpp:406] relu6 <- fc6
I0117 20:00:21.072737 187660 net.cpp:367] relu6 -> fc6 (in-place)
I0117 20:00:21.072751 187660 net.cpp:122] Setting up relu6
I0117 20:00:21.072760 187660 net.cpp:129] Top shape: 50 4096 (204800)
I0117 20:00:21.072767 187660 net.cpp:137] Memory required for data: 577940000
I0117 20:00:21.072773 187660 layer_factory.hpp:77] Creating layer drop6
I0117 20:00:21.072784 187660 net.cpp:84] Creating Layer drop6
I0117 20:00:21.072791 187660 net.cpp:406] drop6 <- fc6
I0117 20:00:21.072799 187660 net.cpp:367] drop6 -> fc6 (in-place)
I0117 20:00:21.072834 187660 net.cpp:122] Setting up drop6
I0117 20:00:21.072845 187660 net.cpp:129] Top shape: 50 4096 (204800)
I0117 20:00:21.072852 187660 net.cpp:137] Memory required for data: 578759200
I0117 20:00:21.072860 187660 layer_factory.hpp:77] Creating layer fc7
I0117 20:00:21.072871 187660 net.cpp:84] Creating Layer fc7
I0117 20:00:21.072878 187660 net.cpp:406] fc7 <- fc6
I0117 20:00:21.072891 187660 net.cpp:380] fc7 -> fc7
I0117 20:00:21.347172 187660 net.cpp:122] Setting up fc7
I0117 20:00:21.347262 187660 net.cpp:129] Top shape: 50 4096 (204800)
I0117 20:00:21.347276 187660 net.cpp:137] Memory required for data: 579578400
I0117 20:00:21.347328 187660 layer_factory.hpp:77] Creating layer bn7
I0117 20:00:21.347378 187660 net.cpp:84] Creating Layer bn7
I0117 20:00:21.347393 187660 net.cpp:406] bn7 <- fc7
I0117 20:00:21.347409 187660 net.cpp:367] bn7 -> fc7 (in-place)
I0117 20:00:21.347734 187660 net.cpp:122] Setting up bn7
I0117 20:00:21.347769 187660 net.cpp:129] Top shape: 50 4096 (204800)
I0117 20:00:21.347776 187660 net.cpp:137] Memory required for data: 580397600
I0117 20:00:21.347792 187660 layer_factory.hpp:77] Creating layer scale7
I0117 20:00:21.347820 187660 net.cpp:84] Creating Layer scale7
I0117 20:00:21.347841 187660 net.cpp:406] scale7 <- fc7
I0117 20:00:21.347849 187660 net.cpp:367] scale7 -> fc7 (in-place)
I0117 20:00:21.347934 187660 layer_factory.hpp:77] Creating layer scale7
I0117 20:00:21.348124 187660 net.cpp:122] Setting up scale7
I0117 20:00:21.348140 187660 net.cpp:129] Top shape: 50 4096 (204800)
I0117 20:00:21.348222 187660 net.cpp:137] Memory required for data: 581216800
I0117 20:00:21.348233 187660 layer_factory.hpp:77] Creating layer relu7
I0117 20:00:21.348244 187660 net.cpp:84] Creating Layer relu7
I0117 20:00:21.348249 187660 net.cpp:406] relu7 <- fc7
I0117 20:00:21.348256 187660 net.cpp:367] relu7 -> fc7 (in-place)
I0117 20:00:21.348278 187660 net.cpp:122] Setting up relu7
I0117 20:00:21.348285 187660 net.cpp:129] Top shape: 50 4096 (204800)
I0117 20:00:21.348290 187660 net.cpp:137] Memory required for data: 582036000
I0117 20:00:21.348296 187660 layer_factory.hpp:77] Creating layer drop7
I0117 20:00:21.348311 187660 net.cpp:84] Creating Layer drop7
I0117 20:00:21.348318 187660 net.cpp:406] drop7 <- fc7
I0117 20:00:21.348325 187660 net.cpp:367] drop7 -> fc7 (in-place)
I0117 20:00:21.348363 187660 net.cpp:122] Setting up drop7
I0117 20:00:21.348376 187660 net.cpp:129] Top shape: 50 4096 (204800)
I0117 20:00:21.348381 187660 net.cpp:137] Memory required for data: 582855200
I0117 20:00:21.348388 187660 layer_factory.hpp:77] Creating layer fc8
I0117 20:00:21.348402 187660 net.cpp:84] Creating Layer fc8
I0117 20:00:21.348409 187660 net.cpp:406] fc8 <- fc7
I0117 20:00:21.348422 187660 net.cpp:380] fc8 -> fc8
I0117 20:00:21.416230 187660 net.cpp:122] Setting up fc8
I0117 20:00:21.416322 187660 net.cpp:129] Top shape: 50 1000 (50000)
I0117 20:00:21.416332 187660 net.cpp:137] Memory required for data: 583055200
I0117 20:00:21.416357 187660 layer_factory.hpp:77] Creating layer fc8_fc8_0_split
I0117 20:00:21.416390 187660 net.cpp:84] Creating Layer fc8_fc8_0_split
I0117 20:00:21.416399 187660 net.cpp:406] fc8_fc8_0_split <- fc8
I0117 20:00:21.416417 187660 net.cpp:380] fc8_fc8_0_split -> fc8_fc8_0_split_0
I0117 20:00:21.416463 187660 net.cpp:380] fc8_fc8_0_split -> fc8_fc8_0_split_1
I0117 20:00:21.416476 187660 net.cpp:380] fc8_fc8_0_split -> fc8_fc8_0_split_2
I0117 20:00:21.416563 187660 net.cpp:122] Setting up fc8_fc8_0_split
I0117 20:00:21.416575 187660 net.cpp:129] Top shape: 50 1000 (50000)
I0117 20:00:21.416581 187660 net.cpp:129] Top shape: 50 1000 (50000)
I0117 20:00:21.416600 187660 net.cpp:129] Top shape: 50 1000 (50000)
I0117 20:00:21.416605 187660 net.cpp:137] Memory required for data: 583655200
I0117 20:00:21.416613 187660 layer_factory.hpp:77] Creating layer accuracy
I0117 20:00:21.416636 187660 net.cpp:84] Creating Layer accuracy
I0117 20:00:21.416643 187660 net.cpp:406] accuracy <- fc8_fc8_0_split_0
I0117 20:00:21.416662 187660 net.cpp:406] accuracy <- label_data_1_split_0
I0117 20:00:21.416674 187660 net.cpp:380] accuracy -> accuracy
…
