…
I0116 20:04:46.340131 151474 net.cpp:294] The NetState phase (0) differed from the phase (1) specified by a rule in layer accuracy_5
I0116 20:04:46.340430 151474 net.cpp:51] Initializing net from parameters: 
name: "AlexNet-BN"
state {
  phase: TRAIN
  level: 0
  stage: ""
}
layer {
  name: "data"
  type: "Data"
  top: "data"
  top: "label"
  include {
    phase: TRAIN
  }
  transform_param {
    mirror: true
    crop_size: 224
    mean_value: 103.939
    mean_value: 116.779
    mean_value: 123.68
  }
  data_param {
    source: "/home/ydwu/database/imagenet/ilsvrc12/lmdb_resize/ilsvrc12_train_lmdb"
    batch_size: 256
    backend: LMDB
  }
}
layer {
  name: "conv1"
  type: "Convolution"
  bottom: "data"
  top: "conv1"
  param {
    lr_mult: 1
    decay_mult: 1
  }
  param {
    lr_mult: 2
    decay_mult: 0
  }
  convolution_param {
    num_output: 96
    pad: 2
    kernel_size: 11
    stride: 4
    weight_filler {
      type: "gaussian"
      std: 0.01
    }
    bias_filler {
      type: "constant"
      value: 0
    }
  }
}
layer {
  name: "bn1"
  type: "BatchNorm"
  bottom: "conv1"
  top: "conv1"
}
layer {
  name: "scale1"
  type: "Scale"
  bottom: "conv1"
  top: "conv1"
  scale_param {
    bias_term: true
  }
}
layer {
  name: "relu1"
  type: "ReLU"
  bottom: "conv1"
  top: "conv1"
}
layer {
  name: "pool1"
  type: "Pooling"
  bottom: "conv1"
  top: "pool1"
  pooling_param {
    pool: MAX
    kernel_size: 3
    stride: 2
  }
}
layer {
  name: "conv2"
  type: "Convolution"
  bottom: "pool1"
  top: "conv2"
  param {
    lr_mult: 1
    decay_mult: 1
  }
  param {
    lr_mult: 2
    decay_mult: 0
  }
  convolution_param {
    num_output: 256
    pad: 2
    kernel_size: 5
    weight_filler {
      type: "gaussian"
      std: 0.01
    }
    bias_filler {
      type: "constant"
      value: 0.1
    }
  }
}
layer {
  name: "bn2"
  type: "BatchNorm"
  bottom: "conv2"
  top: "conv2"
}
layer {
  name: "scale2"
  type: "Scale"
  bottom: "conv2"
  top: "conv2"
  scale_param {
    bias_term: true
  }
}
layer {
  name: "relu2"
  type: "ReLU"
  bottom: "conv2"
  top: "conv2"
}
layer {
  name: "pool2"
  type: "Pooling"
  bottom: "conv2"
  top: "pool2"
  pooling_param {
    pool: MAX
    kernel_size: 3
    stride: 2
  }
}
layer {
  name: "conv3"
  type: "Convolution"
  bottom: "pool2"
  top: "conv3"
  param {
    lr_mult: 1
    decay_mult: 1
  }
  param {
    lr_mult: 2
    decay_mult: 0
  }
  convolution_param {
    num_output: 384
    pad: 1
    kernel_size: 3
    weight_filler {
      type: "gaussian"
      std: 0.01
    }
    bias_filler {
      type: "constant"
      value: 0
    }
  }
}
layer {
  name: "bn3"
  type: "BatchNorm"
  bottom: "conv3"
  top: "conv3"
}
layer {
  name: "scale3"
  type: "Scale"
  bottom: "conv3"
  top: "conv3"
  scale_param {
    bias_term: true
  }
}
layer {
  name: "relu3"
  type: "ReLU"
  bottom: "conv3"
  top: "conv3"
}
layer {
  name: "conv4"
  type: "Convolution"
  bottom: "conv3"
  top: "conv4"
  param {
    lr_mult: 1
    decay_mult: 1
  }
  param {
    lr_mult: 2
    decay_mult: 0
  }
  convolution_param {
    num_output: 384
    pad: 1
    kernel_size: 3
    weight_filler {
      type: "gaussian"
      std: 0.01
    }
    bias_filler {
      type: "constant"
      value: 0.1
    }
  }
}
layer {
  name: "bn4"
  type: "BatchNorm"
  bottom: "conv4"
  top: "conv4"
}
layer {
  name: "scale4"
  type: "Scale"
  bottom: "conv4"
  top: "conv4"
  scale_param {
    bias_term: true
  }
}
layer {
  name: "relu4"
  type: "ReLU"
  bottom: "conv4"
  top: "conv4"
}
layer {
  name: "conv5"
  type: "Convolution"
  bottom: "conv4"
  top: "conv5"
  param {
    lr_mult: 1
    decay_mult: 1
  }
  param {
    lr_mult: 2
    decay_mult: 0
  }
  convolution_param {
    num_output: 256
    pad: 1
    kernel_size: 3
    weight_filler {
      type: "gaussian"
      std: 0.01
    }
    bias_filler {
      type: "constant"
      value: 0.1
    }
  }
}
layer {
  name: "bn5"
  type: "BatchNorm"
  bottom: "conv5"
  top: "conv5"
}
layer {
  name: "scale5"
  type: "Scale"
  bottom: "conv5"
  top: "conv5"
  scale_param {
    bias_term: true
  }
}
layer {
  name: "relu5"
  type: "ReLU"
  bottom: "conv5"
  top: "conv5"
}
layer {
  name: "pool5"
  type: "Pooling"
  bottom: "conv5"
  top: "pool5"
  pooling_param {
    pool: MAX
    kernel_size: 3
    stride: 2
  }
}
layer {
  name: "fc6"
  type: "InnerProduct"
  bottom: "pool5"
  top: "fc6"
  param {
    lr_mult: 1
    decay_mult: 1
  }
  param {
    lr_mult: 2
    decay_mult: 0
  }
  inner_product_param {
    num_output: 4096
    weight_filler {
      type: "gaussian"
      std: 0.005
    }
    bias_filler {
      type: "constant"
      value: 0.1
    }
  }
}
layer {
  name: "bn6"
  type: "BatchNorm"
  bottom: "fc6"
  top: "fc6"
}
layer {
  name: "scale6"
  type: "Scale"
  bottom: "fc6"
  top: "fc6"
  scale_param {
    bias_term: true
  }
}
layer {
  name: "relu6"
  type: "ReLU"
  bottom: "fc6"
  top: "fc6"
}
layer {
  name: "drop6"
  type: "Dropout"
  bottom: "fc6"
  top: "fc6"
  dropout_param {
    dropout_ratio: 0.5
  }
}
layer {
  name: "fc7"
  type: "InnerProduct"
  bottom: "fc6"
  top: "fc7"
  param {
    lr_mult: 1
    decay_mult: 1
  }
  param {
    lr_mult: 2
    decay_mult: 0
  }
  inner_product_param {
    num_output: 4096
    weight_filler {
      type: "gaussian"
      std: 0.005
    }
    bias_filler {
      type: "constant"
      value: 0.1
    }
  }
}
layer {
  name: "bn7"
  type: "BatchNorm"
  bottom: "fc7"
  top: "fc7"
}
layer {
  name: "scale7"
  type: "Scale"
  bottom: "fc7"
  top: "fc7"
  scale_param {
    bias_term: true
  }
}
layer {
  name: "relu7"
  type: "ReLU"
  bottom: "fc7"
  top: "fc7"
}
layer {
  name: "drop7"
  type: "Dropout"
  bottom: "fc7"
  top: "fc7"
  dropout_param {
    dropout_ratio: 0.5
  }
}
layer {
  name: "fc8"
  type: "InnerProduct"
  bottom: "fc7"
  top: "fc8"
  param {
    lr_mult: 1
    decay_mult: 1
  }
  param {
    lr_mult: 2
    decay_mult: 0
  }
  inner_product_param {
    num_output: 1000
    weight_filler {
      type: "gaussian"
      std: 0.01
    }
    bias_filler {
      type: "constant"
      value: 0
    }
  }
}
layer {
  name: "accuracy_5_TRAIN"
  type: "Accuracy"
  bottom: "fc8"
  bottom: "label"
  top: "accuracy_5_TRAIN"
  include {
    phase: TRAIN
  }
  accuracy_param {
    top_k: 5
  }
}
layer {
  name: "loss"
  type: "SoftmaxWithLoss"
  bottom: "fc8"
  bottom: "label"
  top: "loss"
}
I0116 20:04:46.340706 151474 layer_factory.hpp:77] Creating layer data
I0116 20:04:46.499770 151474 db_lmdb.cpp:35] Opened lmdb /home/ydwu/database/imagenet/ilsvrc12/lmdb_resize/ilsvrc12_train_lmdb
I0116 20:04:47.173069 151474 net.cpp:84] Creating Layer data
I0116 20:04:47.173274 151474 net.cpp:380] data -> data
I0116 20:04:47.173364 151474 net.cpp:380] data -> label
I0116 20:04:47.285378 151474 data_layer.cpp:45] output data size: 256,3,224,224
I0116 20:04:47.837580 151474 net.cpp:122] Setting up data
I0116 20:04:47.837653 151474 net.cpp:129] Top shape: 256 3 224 224 (38535168)
I0116 20:04:47.837663 151474 net.cpp:129] Top shape: 256 (256)
I0116 20:04:47.837672 151474 net.cpp:137] Memory required for data: 154141696
I0116 20:04:47.837713 151474 layer_factory.hpp:77] Creating layer label_data_1_split
I0116 20:04:47.837739 151474 net.cpp:84] Creating Layer label_data_1_split
I0116 20:04:47.837752 151474 net.cpp:406] label_data_1_split <- label
I0116 20:04:47.837836 151474 net.cpp:380] label_data_1_split -> label_data_1_split_0
I0116 20:04:47.837862 151474 net.cpp:380] label_data_1_split -> label_data_1_split_1
I0116 20:04:47.837949 151474 net.cpp:122] Setting up label_data_1_split
I0116 20:04:47.837961 151474 net.cpp:129] Top shape: 256 (256)
I0116 20:04:47.837970 151474 net.cpp:129] Top shape: 256 (256)
I0116 20:04:47.837975 151474 net.cpp:137] Memory required for data: 154143744
I0116 20:04:47.837982 151474 layer_factory.hpp:77] Creating layer conv1
I0116 20:04:47.838017 151474 net.cpp:84] Creating Layer conv1
I0116 20:04:47.838026 151474 net.cpp:406] conv1 <- data
I0116 20:04:47.838038 151474 net.cpp:380] conv1 -> conv1
I0116 20:04:47.865172 151474 net.cpp:122] Setting up conv1
I0116 20:04:47.865221 151474 net.cpp:129] Top shape: 256 96 55 55 (74342400)
I0116 20:04:47.865229 151474 net.cpp:137] Memory required for data: 451513344
I0116 20:04:47.865279 151474 layer_factory.hpp:77] Creating layer bn1
I0116 20:04:47.865301 151474 net.cpp:84] Creating Layer bn1
I0116 20:04:47.865310 151474 net.cpp:406] bn1 <- conv1
I0116 20:04:47.865324 151474 net.cpp:367] bn1 -> conv1 (in-place)
I0116 20:04:47.865561 151474 net.cpp:122] Setting up bn1
I0116 20:04:47.865576 151474 net.cpp:129] Top shape: 256 96 55 55 (74342400)
I0116 20:04:47.865583 151474 net.cpp:137] Memory required for data: 748882944
I0116 20:04:47.865602 151474 layer_factory.hpp:77] Creating layer scale1
I0116 20:04:47.865617 151474 net.cpp:84] Creating Layer scale1
I0116 20:04:47.865625 151474 net.cpp:406] scale1 <- conv1
I0116 20:04:47.865635 151474 net.cpp:367] scale1 -> conv1 (in-place)
I0116 20:04:47.865689 151474 layer_factory.hpp:77] Creating layer scale1
I0116 20:04:47.865869 151474 net.cpp:122] Setting up scale1
I0116 20:04:47.865886 151474 net.cpp:129] Top shape: 256 96 55 55 (74342400)
I0116 20:04:47.865895 151474 net.cpp:137] Memory required for data: 1046252544
I0116 20:04:47.865906 151474 layer_factory.hpp:77] Creating layer relu1
I0116 20:04:47.865918 151474 net.cpp:84] Creating Layer relu1
I0116 20:04:47.865929 151474 net.cpp:406] relu1 <- conv1
I0116 20:04:47.865942 151474 net.cpp:367] relu1 -> conv1 (in-place)
I0116 20:04:47.865952 151474 net.cpp:122] Setting up relu1
I0116 20:04:47.865962 151474 net.cpp:129] Top shape: 256 96 55 55 (74342400)
I0116 20:04:47.865968 151474 net.cpp:137] Memory required for data: 1343622144
I0116 20:04:47.865975 151474 layer_factory.hpp:77] Creating layer pool1
I0116 20:04:47.865990 151474 net.cpp:84] Creating Layer pool1
I0116 20:04:47.865998 151474 net.cpp:406] pool1 <- conv1
I0116 20:04:47.866009 151474 net.cpp:380] pool1 -> pool1
I0116 20:04:47.866084 151474 net.cpp:122] Setting up pool1
I0116 20:04:47.866099 151474 net.cpp:129] Top shape: 256 96 27 27 (17915904)
I0116 20:04:47.866106 151474 net.cpp:137] Memory required for data: 1415285760
I0116 20:04:47.866113 151474 layer_factory.hpp:77] Creating layer conv2
I0116 20:04:47.866135 151474 net.cpp:84] Creating Layer conv2
I0116 20:04:47.866144 151474 net.cpp:406] conv2 <- pool1
I0116 20:04:47.866156 151474 net.cpp:380] conv2 -> conv2
I0116 20:04:47.879372 151474 net.cpp:122] Setting up conv2
I0116 20:04:47.879429 151474 net.cpp:129] Top shape: 256 256 27 27 (47775744)
I0116 20:04:47.879448 151474 net.cpp:137] Memory required for data: 1606388736
I0116 20:04:47.879478 151474 layer_factory.hpp:77] Creating layer bn2
I0116 20:04:47.879503 151474 net.cpp:84] Creating Layer bn2
I0116 20:04:47.879513 151474 net.cpp:406] bn2 <- conv2
I0116 20:04:47.879529 151474 net.cpp:367] bn2 -> conv2 (in-place)
I0116 20:04:47.879748 151474 net.cpp:122] Setting up bn2
I0116 20:04:47.879762 151474 net.cpp:129] Top shape: 256 256 27 27 (47775744)
I0116 20:04:47.879770 151474 net.cpp:137] Memory required for data: 1797491712
I0116 20:04:47.879783 151474 layer_factory.hpp:77] Creating layer scale2
I0116 20:04:47.879798 151474 net.cpp:84] Creating Layer scale2
I0116 20:04:47.879806 151474 net.cpp:406] scale2 <- conv2
I0116 20:04:47.879815 151474 net.cpp:367] scale2 -> conv2 (in-place)
I0116 20:04:47.879865 151474 layer_factory.hpp:77] Creating layer scale2
I0116 20:04:47.880050 151474 net.cpp:122] Setting up scale2
I0116 20:04:47.880065 151474 net.cpp:129] Top shape: 256 256 27 27 (47775744)
I0116 20:04:47.880072 151474 net.cpp:137] Memory required for data: 1988594688
I0116 20:04:47.880084 151474 layer_factory.hpp:77] Creating layer relu2
I0116 20:04:47.880095 151474 net.cpp:84] Creating Layer relu2
I0116 20:04:47.880102 151474 net.cpp:406] relu2 <- conv2
I0116 20:04:47.880113 151474 net.cpp:367] relu2 -> conv2 (in-place)
I0116 20:04:47.880125 151474 net.cpp:122] Setting up relu2
I0116 20:04:47.880132 151474 net.cpp:129] Top shape: 256 256 27 27 (47775744)
I0116 20:04:47.880139 151474 net.cpp:137] Memory required for data: 2179697664
I0116 20:04:47.880146 151474 layer_factory.hpp:77] Creating layer pool2
I0116 20:04:47.880161 151474 net.cpp:84] Creating Layer pool2
I0116 20:04:47.880167 151474 net.cpp:406] pool2 <- conv2
I0116 20:04:47.880178 151474 net.cpp:380] pool2 -> pool2
I0116 20:04:47.880231 151474 net.cpp:122] Setting up pool2
I0116 20:04:47.880244 151474 net.cpp:129] Top shape: 256 256 13 13 (11075584)
I0116 20:04:47.880252 151474 net.cpp:137] Memory required for data: 2224000000
I0116 20:04:47.880259 151474 layer_factory.hpp:77] Creating layer conv3
I0116 20:04:47.880278 151474 net.cpp:84] Creating Layer conv3
I0116 20:04:47.880286 151474 net.cpp:406] conv3 <- pool2
I0116 20:04:47.880300 151474 net.cpp:380] conv3 -> conv3
I0116 20:04:47.896034 151474 net.cpp:122] Setting up conv3
I0116 20:04:47.896095 151474 net.cpp:129] Top shape: 256 384 13 13 (16613376)
I0116 20:04:47.896109 151474 net.cpp:137] Memory required for data: 2290453504
I0116 20:04:47.896127 151474 layer_factory.hpp:77] Creating layer bn3
I0116 20:04:47.896148 151474 net.cpp:84] Creating Layer bn3
I0116 20:04:47.896158 151474 net.cpp:406] bn3 <- conv3
I0116 20:04:47.896174 151474 net.cpp:367] bn3 -> conv3 (in-place)
I0116 20:04:47.896389 151474 net.cpp:122] Setting up bn3
I0116 20:04:47.896404 151474 net.cpp:129] Top shape: 256 384 13 13 (16613376)
I0116 20:04:47.896411 151474 net.cpp:137] Memory required for data: 2356907008
I0116 20:04:47.896436 151474 layer_factory.hpp:77] Creating layer scale3
I0116 20:04:47.896452 151474 net.cpp:84] Creating Layer scale3
I0116 20:04:47.896461 151474 net.cpp:406] scale3 <- conv3
I0116 20:04:47.896471 151474 net.cpp:367] scale3 -> conv3 (in-place)
I0116 20:04:47.896519 151474 layer_factory.hpp:77] Creating layer scale3
I0116 20:04:47.896656 151474 net.cpp:122] Setting up scale3
I0116 20:04:47.896670 151474 net.cpp:129] Top shape: 256 384 13 13 (16613376)
I0116 20:04:47.896677 151474 net.cpp:137] Memory required for data: 2423360512
I0116 20:04:47.896688 151474 layer_factory.hpp:77] Creating layer relu3
I0116 20:04:47.896700 151474 net.cpp:84] Creating Layer relu3
I0116 20:04:47.896708 151474 net.cpp:406] relu3 <- conv3
I0116 20:04:47.896718 151474 net.cpp:367] relu3 -> conv3 (in-place)
I0116 20:04:47.896729 151474 net.cpp:122] Setting up relu3
I0116 20:04:47.896739 151474 net.cpp:129] Top shape: 256 384 13 13 (16613376)
I0116 20:04:47.896745 151474 net.cpp:137] Memory required for data: 2489814016
I0116 20:04:47.896752 151474 layer_factory.hpp:77] Creating layer conv4
I0116 20:04:47.896776 151474 net.cpp:84] Creating Layer conv4
I0116 20:04:47.896785 151474 net.cpp:406] conv4 <- conv3
I0116 20:04:47.896795 151474 net.cpp:380] conv4 -> conv4
I0116 20:04:47.920881 151474 net.cpp:122] Setting up conv4
I0116 20:04:47.920931 151474 net.cpp:129] Top shape: 256 384 13 13 (16613376)
I0116 20:04:47.920943 151474 net.cpp:137] Memory required for data: 2556267520
I0116 20:04:47.920961 151474 layer_factory.hpp:77] Creating layer bn4
I0116 20:04:47.920979 151474 net.cpp:84] Creating Layer bn4
I0116 20:04:47.920989 151474 net.cpp:406] bn4 <- conv4
I0116 20:04:47.921005 151474 net.cpp:367] bn4 -> conv4 (in-place)
I0116 20:04:47.921247 151474 net.cpp:122] Setting up bn4
I0116 20:04:47.921262 151474 net.cpp:129] Top shape: 256 384 13 13 (16613376)
I0116 20:04:47.921269 151474 net.cpp:137] Memory required for data: 2622721024
I0116 20:04:47.921327 151474 layer_factory.hpp:77] Creating layer scale4
I0116 20:04:47.921341 151474 net.cpp:84] Creating Layer scale4
I0116 20:04:47.921349 151474 net.cpp:406] scale4 <- conv4
I0116 20:04:47.921363 151474 net.cpp:367] scale4 -> conv4 (in-place)
I0116 20:04:47.921418 151474 layer_factory.hpp:77] Creating layer scale4
I0116 20:04:47.921576 151474 net.cpp:122] Setting up scale4
I0116 20:04:47.921591 151474 net.cpp:129] Top shape: 256 384 13 13 (16613376)
I0116 20:04:47.921597 151474 net.cpp:137] Memory required for data: 2689174528
I0116 20:04:47.921608 151474 layer_factory.hpp:77] Creating layer relu4
I0116 20:04:47.921619 151474 net.cpp:84] Creating Layer relu4
I0116 20:04:47.921627 151474 net.cpp:406] relu4 <- conv4
I0116 20:04:47.921643 151474 net.cpp:367] relu4 -> conv4 (in-place)
I0116 20:04:47.921658 151474 net.cpp:122] Setting up relu4
I0116 20:04:47.921666 151474 net.cpp:129] Top shape: 256 384 13 13 (16613376)
I0116 20:04:47.921672 151474 net.cpp:137] Memory required for data: 2755628032
I0116 20:04:47.921679 151474 layer_factory.hpp:77] Creating layer conv5
I0116 20:04:47.921700 151474 net.cpp:84] Creating Layer conv5
I0116 20:04:47.921712 151474 net.cpp:406] conv5 <- conv4
I0116 20:04:47.921725 151474 net.cpp:380] conv5 -> conv5
I0116 20:04:47.937969 151474 net.cpp:122] Setting up conv5
I0116 20:04:47.938037 151474 net.cpp:129] Top shape: 256 256 13 13 (11075584)
I0116 20:04:47.938045 151474 net.cpp:137] Memory required for data: 2799930368
I0116 20:04:47.938066 151474 layer_factory.hpp:77] Creating layer bn5
I0116 20:04:47.938104 151474 net.cpp:84] Creating Layer bn5
I0116 20:04:47.938118 151474 net.cpp:406] bn5 <- conv5
I0116 20:04:47.938133 151474 net.cpp:367] bn5 -> conv5 (in-place)
I0116 20:04:47.938369 151474 net.cpp:122] Setting up bn5
I0116 20:04:47.938386 151474 net.cpp:129] Top shape: 256 256 13 13 (11075584)
I0116 20:04:47.938400 151474 net.cpp:137] Memory required for data: 2844232704
I0116 20:04:47.938423 151474 layer_factory.hpp:77] Creating layer scale5
I0116 20:04:47.938438 151474 net.cpp:84] Creating Layer scale5
I0116 20:04:47.938444 151474 net.cpp:406] scale5 <- conv5
I0116 20:04:47.938455 151474 net.cpp:367] scale5 -> conv5 (in-place)
I0116 20:04:47.938518 151474 layer_factory.hpp:77] Creating layer scale5
I0116 20:04:47.938670 151474 net.cpp:122] Setting up scale5
I0116 20:04:47.938689 151474 net.cpp:129] Top shape: 256 256 13 13 (11075584)
I0116 20:04:47.938701 151474 net.cpp:137] Memory required for data: 2888535040
I0116 20:04:47.938712 151474 layer_factory.hpp:77] Creating layer relu5
I0116 20:04:47.938727 151474 net.cpp:84] Creating Layer relu5
I0116 20:04:47.938735 151474 net.cpp:406] relu5 <- conv5
I0116 20:04:47.938743 151474 net.cpp:367] relu5 -> conv5 (in-place)
I0116 20:04:47.938755 151474 net.cpp:122] Setting up relu5
I0116 20:04:47.938766 151474 net.cpp:129] Top shape: 256 256 13 13 (11075584)
I0116 20:04:47.938773 151474 net.cpp:137] Memory required for data: 2932837376
I0116 20:04:47.938781 151474 layer_factory.hpp:77] Creating layer pool5
I0116 20:04:47.938802 151474 net.cpp:84] Creating Layer pool5
I0116 20:04:47.938810 151474 net.cpp:406] pool5 <- conv5
I0116 20:04:47.938822 151474 net.cpp:380] pool5 -> pool5
I0116 20:04:47.938868 151474 net.cpp:122] Setting up pool5
I0116 20:04:47.938880 151474 net.cpp:129] Top shape: 256 256 6 6 (2359296)
I0116 20:04:47.938889 151474 net.cpp:137] Memory required for data: 2942274560
I0116 20:04:47.938896 151474 layer_factory.hpp:77] Creating layer fc6
I0116 20:04:47.938915 151474 net.cpp:84] Creating Layer fc6
I0116 20:04:47.938922 151474 net.cpp:406] fc6 <- pool5
I0116 20:04:47.938935 151474 net.cpp:380] fc6 -> fc6
I0116 20:04:48.601372 151474 net.cpp:122] Setting up fc6
I0116 20:04:48.601445 151474 net.cpp:129] Top shape: 256 4096 (1048576)
I0116 20:04:48.601456 151474 net.cpp:137] Memory required for data: 2946468864
I0116 20:04:48.601496 151474 layer_factory.hpp:77] Creating layer bn6
I0116 20:04:48.601526 151474 net.cpp:84] Creating Layer bn6
I0116 20:04:48.601541 151474 net.cpp:406] bn6 <- fc6
I0116 20:04:48.601559 151474 net.cpp:367] bn6 -> fc6 (in-place)
I0116 20:04:48.601910 151474 net.cpp:122] Setting up bn6
I0116 20:04:48.601925 151474 net.cpp:129] Top shape: 256 4096 (1048576)
I0116 20:04:48.601939 151474 net.cpp:137] Memory required for data: 2950663168
I0116 20:04:48.601951 151474 layer_factory.hpp:77] Creating layer scale6
I0116 20:04:48.601965 151474 net.cpp:84] Creating Layer scale6
I0116 20:04:48.601980 151474 net.cpp:406] scale6 <- fc6
I0116 20:04:48.601991 151474 net.cpp:367] scale6 -> fc6 (in-place)
I0116 20:04:48.602051 151474 layer_factory.hpp:77] Creating layer scale6
I0116 20:04:48.602231 151474 net.cpp:122] Setting up scale6
I0116 20:04:48.602257 151474 net.cpp:129] Top shape: 256 4096 (1048576)
I0116 20:04:48.602264 151474 net.cpp:137] Memory required for data: 2954857472
I0116 20:04:48.602274 151474 layer_factory.hpp:77] Creating layer relu6
I0116 20:04:48.602291 151474 net.cpp:84] Creating Layer relu6
I0116 20:04:48.602303 151474 net.cpp:406] relu6 <- fc6
I0116 20:04:48.602313 151474 net.cpp:367] relu6 -> fc6 (in-place)
I0116 20:04:48.602324 151474 net.cpp:122] Setting up relu6
I0116 20:04:48.602332 151474 net.cpp:129] Top shape: 256 4096 (1048576)
I0116 20:04:48.602339 151474 net.cpp:137] Memory required for data: 2959051776
I0116 20:04:48.602345 151474 layer_factory.hpp:77] Creating layer drop6
I0116 20:04:48.602360 151474 net.cpp:84] Creating Layer drop6
I0116 20:04:48.602370 151474 net.cpp:406] drop6 <- fc6
I0116 20:04:48.602383 151474 net.cpp:367] drop6 -> fc6 (in-place)
I0116 20:04:48.602427 151474 net.cpp:122] Setting up drop6
I0116 20:04:48.602440 151474 net.cpp:129] Top shape: 256 4096 (1048576)
I0116 20:04:48.602452 151474 net.cpp:137] Memory required for data: 2963246080
I0116 20:04:48.602459 151474 layer_factory.hpp:77] Creating layer fc7
I0116 20:04:48.602479 151474 net.cpp:84] Creating Layer fc7
I0116 20:04:48.602490 151474 net.cpp:406] fc7 <- fc6
I0116 20:04:48.602502 151474 net.cpp:380] fc7 -> fc7
I0116 20:04:48.895956 151474 net.cpp:122] Setting up fc7
I0116 20:04:48.896044 151474 net.cpp:129] Top shape: 256 4096 (1048576)
I0116 20:04:48.896049 151474 net.cpp:137] Memory required for data: 2967440384
I0116 20:04:48.896070 151474 layer_factory.hpp:77] Creating layer bn7
I0116 20:04:48.896092 151474 net.cpp:84] Creating Layer bn7
I0116 20:04:48.896102 151474 net.cpp:406] bn7 <- fc7
I0116 20:04:48.896118 151474 net.cpp:367] bn7 -> fc7 (in-place)
I0116 20:04:48.896325 151474 net.cpp:122] Setting up bn7
I0116 20:04:48.896338 151474 net.cpp:129] Top shape: 256 4096 (1048576)
I0116 20:04:48.896343 151474 net.cpp:137] Memory required for data: 2971634688
I0116 20:04:48.896354 151474 layer_factory.hpp:77] Creating layer scale7
I0116 20:04:48.896379 151474 net.cpp:84] Creating Layer scale7
I0116 20:04:48.896387 151474 net.cpp:406] scale7 <- fc7
I0116 20:04:48.896394 151474 net.cpp:367] scale7 -> fc7 (in-place)
I0116 20:04:48.896445 151474 layer_factory.hpp:77] Creating layer scale7
I0116 20:04:48.896597 151474 net.cpp:122] Setting up scale7
I0116 20:04:48.896611 151474 net.cpp:129] Top shape: 256 4096 (1048576)
I0116 20:04:48.896616 151474 net.cpp:137] Memory required for data: 2975828992
I0116 20:04:48.896625 151474 layer_factory.hpp:77] Creating layer relu7
I0116 20:04:48.896637 151474 net.cpp:84] Creating Layer relu7
I0116 20:04:48.896646 151474 net.cpp:406] relu7 <- fc7
I0116 20:04:48.896652 151474 net.cpp:367] relu7 -> fc7 (in-place)
I0116 20:04:48.896663 151474 net.cpp:122] Setting up relu7
I0116 20:04:48.896670 151474 net.cpp:129] Top shape: 256 4096 (1048576)
I0116 20:04:48.896677 151474 net.cpp:137] Memory required for data: 2980023296
I0116 20:04:48.896685 151474 layer_factory.hpp:77] Creating layer drop7
I0116 20:04:48.896697 151474 net.cpp:84] Creating Layer drop7
I0116 20:04:48.896704 151474 net.cpp:406] drop7 <- fc7
I0116 20:04:48.896716 151474 net.cpp:367] drop7 -> fc7 (in-place)
I0116 20:04:48.896744 151474 net.cpp:122] Setting up drop7
I0116 20:04:48.896755 151474 net.cpp:129] Top shape: 256 4096 (1048576)
I0116 20:04:48.896764 151474 net.cpp:137] Memory required for data: 2984217600
I0116 20:04:48.896827 151474 layer_factory.hpp:77] Creating layer fc8
I0116 20:04:48.896847 151474 net.cpp:84] Creating Layer fc8
I0116 20:04:48.896854 151474 net.cpp:406] fc8 <- fc7
I0116 20:04:48.896865 151474 net.cpp:380] fc8 -> fc8
I0116 20:04:48.967970 151474 net.cpp:122] Setting up fc8
I0116 20:04:48.968017 151474 net.cpp:129] Top shape: 256 1000 (256000)
I0116 20:04:48.968024 151474 net.cpp:137] Memory required for data: 2985241600
I0116 20:04:48.968040 151474 layer_factory.hpp:77] Creating layer fc8_fc8_0_split
I0116 20:04:48.968057 151474 net.cpp:84] Creating Layer fc8_fc8_0_split
I0116 20:04:48.968067 151474 net.cpp:406] fc8_fc8_0_split <- fc8
I0116 20:04:48.968082 151474 net.cpp:380] fc8_fc8_0_split -> fc8_fc8_0_split_0
I0116 20:04:48.968098 151474 net.cpp:380] fc8_fc8_0_split -> fc8_fc8_0_split_1
I0116 20:04:48.968153 151474 net.cpp:122] Setting up fc8_fc8_0_split
I0116 20:04:48.968165 151474 net.cpp:129] Top shape: 256 1000 (256000)
I0116 20:04:48.968173 151474 net.cpp:129] Top shape: 256 1000 (256000)
I0116 20:04:48.968178 151474 net.cpp:137] Memory required for data: 2987289600
I0116 20:04:48.968183 151474 layer_factory.hpp:77] Creating layer accuracy_5_TRAIN
I0116 20:04:48.968195 151474 net.cpp:84] Creating Layer accuracy_5_TRAIN
I0116 20:04:48.968204 151474 net.cpp:406] accuracy_5_TRAIN <- fc8_fc8_0_split_0
I0116 20:04:48.968210 151474 net.cpp:406] accuracy_5_TRAIN <- label_data_1_split_0
…
I0116 20:04:49.232045 151474 net.cpp:294] The NetState phase (1) differed from the phase (0) specified by a rule in layer accuracy_5_TRAIN
I0116 20:04:49.232345 151474 net.cpp:51] Initializing net from parameters: 
name: "AlexNet-BN"
state {
  phase: TEST
}
layer {
  name: "data"
  type: "Data"
  top: "data"
  top: "label"
  include {
    phase: TEST
  }
  transform_param {
    mirror: false
    crop_size: 224
    mean_value: 103.939
    mean_value: 116.779
    mean_value: 123.68
  }
  data_param {
    source: "/home/ydwu/database/imagenet/ilsvrc12/lmdb_resize/ilsvrc12_val_lmdb"
    batch_size: 50
    backend: LMDB
  }
}
layer {
  name: "conv1"
  type: "Convolution"
  bottom: "data"
  top: "conv1"
  param {
    lr_mult: 1
    decay_mult: 1
  }
  param {
    lr_mult: 2
    decay_mult: 0
  }
  convolution_param {
    num_output: 96
    pad: 2
    kernel_size: 11
    stride: 4
    weight_filler {
      type: "gaussian"
      std: 0.01
    }
    bias_filler {
      type: "constant"
      value: 0
    }
  }
}
layer {
  name: "bn1"
  type: "BatchNorm"
  bottom: "conv1"
  top: "conv1"
}
layer {
  name: "scale1"
  type: "Scale"
  bottom: "conv1"
  top: "conv1"
  scale_param {
    bias_term: true
  }
}
layer {
  name: "relu1"
  type: "ReLU"
  bottom: "conv1"
  top: "conv1"
}
layer {
  name: "pool1"
  type: "Pooling"
  bottom: "conv1"
  top: "pool1"
  pooling_param {
    pool: MAX
    kernel_size: 3
    stride: 2
  }
}
layer {
  name: "conv2"
  type: "Convolution"
  bottom: "pool1"
  top: "conv2"
  param {
    lr_mult: 1
    decay_mult: 1
  }
  param {
    lr_mult: 2
    decay_mult: 0
  }
  convolution_param {
    num_output: 256
    pad: 2
    kernel_size: 5
    weight_filler {
      type: "gaussian"
      std: 0.01
    }
    bias_filler {
      type: "constant"
      value: 0.1
    }
  }
}
layer {
  name: "bn2"
  type: "BatchNorm"
  bottom: "conv2"
  top: "conv2"
}
layer {
  name: "scale2"
  type: "Scale"
  bottom: "conv2"
  top: "conv2"
  scale_param {
    bias_term: true
  }
}
layer {
  name: "relu2"
  type: "ReLU"
  bottom: "conv2"
  top: "conv2"
}
layer {
  name: "pool2"
  type: "Pooling"
  bottom: "conv2"
  top: "pool2"
  pooling_param {
    pool: MAX
    kernel_size: 3
    stride: 2
  }
}
layer {
  name: "conv3"
  type: "Convolution"
  bottom: "pool2"
  top: "conv3"
  param {
    lr_mult: 1
    decay_mult: 1
  }
  param {
    lr_mult: 2
    decay_mult: 0
  }
  convolution_param {
    num_output: 384
    pad: 1
    kernel_size: 3
    weight_filler {
      type: "gaussian"
      std: 0.01
    }
    bias_filler {
      type: "constant"
      value: 0
    }
  }
}
layer {
  name: "bn3"
  type: "BatchNorm"
  bottom: "conv3"
  top: "conv3"
}
layer {
  name: "scale3"
  type: "Scale"
  bottom: "conv3"
  top: "conv3"
  scale_param {
    bias_term: true
  }
}
layer {
  name: "relu3"
  type: "ReLU"
  bottom: "conv3"
  top: "conv3"
}
layer {
  name: "conv4"
  type: "Convolution"
  bottom: "conv3"
  top: "conv4"
  param {
    lr_mult: 1
    decay_mult: 1
  }
  param {
    lr_mult: 2
    decay_mult: 0
  }
  convolution_param {
    num_output: 384
    pad: 1
    kernel_size: 3
    weight_filler {
      type: "gaussian"
      std: 0.01
    }
    bias_filler {
      type: "constant"
      value: 0.1
    }
  }
}
layer {
  name: "bn4"
  type: "BatchNorm"
  bottom: "conv4"
  top: "conv4"
}
layer {
  name: "scale4"
  type: "Scale"
  bottom: "conv4"
  top: "conv4"
  scale_param {
    bias_term: true
  }
}
layer {
  name: "relu4"
  type: "ReLU"
  bottom: "conv4"
  top: "conv4"
}
layer {
  name: "conv5"
  type: "Convolution"
  bottom: "conv4"
  top: "conv5"
  param {
    lr_mult: 1
    decay_mult: 1
  }
  param {
    lr_mult: 2
    decay_mult: 0
  }
  convolution_param {
    num_output: 256
    pad: 1
    kernel_size: 3
    weight_filler {
      type: "gaussian"
      std: 0.01
    }
    bias_filler {
      type: "constant"
      value: 0.1
    }
  }
}
layer {
  name: "bn5"
  type: "BatchNorm"
  bottom: "conv5"
  top: "conv5"
}
layer {
  name: "scale5"
  type: "Scale"
  bottom: "conv5"
  top: "conv5"
  scale_param {
    bias_term: true
  }
}
layer {
  name: "relu5"
  type: "ReLU"
  bottom: "conv5"
  top: "conv5"
}
layer {
  name: "pool5"
  type: "Pooling"
  bottom: "conv5"
  top: "pool5"
  pooling_param {
    pool: MAX
    kernel_size: 3
    stride: 2
  }
}
layer {
  name: "fc6"
  type: "InnerProduct"
  bottom: "pool5"
  top: "fc6"
  param {
    lr_mult: 1
    decay_mult: 1
  }
  param {
    lr_mult: 2
    decay_mult: 0
  }
  inner_product_param {
    num_output: 4096
    weight_filler {
      type: "gaussian"
      std: 0.005
    }
    bias_filler {
      type: "constant"
      value: 0.1
    }
  }
}
layer {
  name: "bn6"
  type: "BatchNorm"
  bottom: "fc6"
  top: "fc6"
}
layer {
  name: "scale6"
  type: "Scale"
  bottom: "fc6"
  top: "fc6"
  scale_param {
    bias_term: true
  }
}
layer {
  name: "relu6"
  type: "ReLU"
  bottom: "fc6"
  top: "fc6"
}
layer {
  name: "drop6"
  type: "Dropout"
  bottom: "fc6"
  top: "fc6"
  dropout_param {
    dropout_ratio: 0.5
  }
}
layer {
  name: "fc7"
  type: "InnerProduct"
  bottom: "fc6"
  top: "fc7"
  param {
    lr_mult: 1
    decay_mult: 1
  }
  param {
    lr_mult: 2
    decay_mult: 0
  }
  inner_product_param {
    num_output: 4096
    weight_filler {
      type: "gaussian"
      std: 0.005
    }
    bias_filler {
      type: "constant"
      value: 0.1
    }
  }
}
layer {
  name: "bn7"
  type: "BatchNorm"
  bottom: "fc7"
  top: "fc7"
}
layer {
  name: "scale7"
  type: "Scale"
  bottom: "fc7"
  top: "fc7"
  scale_param {
    bias_term: true
  }
}
layer {
  name: "relu7"
  type: "ReLU"
  bottom: "fc7"
  top: "fc7"
}
layer {
  name: "drop7"
  type: "Dropout"
  bottom: "fc7"
  top: "fc7"
  dropout_param {
    dropout_ratio: 0.5
  }
}
layer {
  name: "fc8"
  type: "InnerProduct"
  bottom: "fc7"
  top: "fc8"
  param {
    lr_mult: 1
    decay_mult: 1
  }
  param {
    lr_mult: 2
    decay_mult: 0
  }
  inner_product_param {
    num_output: 1000
    weight_filler {
      type: "gaussian"
      std: 0.01
    }
    bias_filler {
      type: "constant"
      value: 0
    }
  }
}
layer {
  name: "accuracy"
  type: "Accuracy"
  bottom: "fc8"
  bottom: "label"
  top: "accuracy"
  include {
    phase: TEST
  }
}
layer {
  name: "accuracy_5"
  type: "Accuracy"
  bottom: "fc8"
  bottom: "label"
  top: "accuracy_5"
  include {
    phase: TEST
  }
  accuracy_param {
    top_k: 5
  }
}
layer {
  name: "loss"
  type: "SoftmaxWithLoss"
  bottom: "fc8"
  bottom: "label"
  top: "loss"
}
I0116 20:04:49.232610 151474 layer_factory.hpp:77] Creating layer data
I0116 20:04:50.400354 151474 db_lmdb.cpp:35] Opened lmdb /home/ydwu/database/imagenet/ilsvrc12/lmdb_resize/ilsvrc12_val_lmdb
I0116 20:04:50.886169 151474 net.cpp:84] Creating Layer data
I0116 20:04:50.886268 151474 net.cpp:380] data -> data
I0116 20:04:50.886307 151474 net.cpp:380] data -> label
I0116 20:04:51.018393 151474 data_layer.cpp:45] output data size: 50,3,224,224
I0116 20:04:51.164129 151474 net.cpp:122] Setting up data
I0116 20:04:51.164214 151474 net.cpp:129] Top shape: 50 3 224 224 (7526400)
I0116 20:04:51.164225 151474 net.cpp:129] Top shape: 50 (50)
I0116 20:04:51.164233 151474 net.cpp:137] Memory required for data: 30105800
I0116 20:04:51.164247 151474 layer_factory.hpp:77] Creating layer label_data_1_split
I0116 20:04:51.164283 151474 net.cpp:84] Creating Layer label_data_1_split
I0116 20:04:51.164294 151474 net.cpp:406] label_data_1_split <- label
I0116 20:04:51.164311 151474 net.cpp:380] label_data_1_split -> label_data_1_split_0
I0116 20:04:51.164335 151474 net.cpp:380] label_data_1_split -> label_data_1_split_1
I0116 20:04:51.164345 151474 net.cpp:380] label_data_1_split -> label_data_1_split_2
I0116 20:04:51.164574 151474 net.cpp:122] Setting up label_data_1_split
I0116 20:04:51.164624 151474 net.cpp:129] Top shape: 50 (50)
I0116 20:04:51.164633 151474 net.cpp:129] Top shape: 50 (50)
I0116 20:04:51.164643 151474 net.cpp:129] Top shape: 50 (50)
I0116 20:04:51.164649 151474 net.cpp:137] Memory required for data: 30106400
I0116 20:04:51.164659 151474 layer_factory.hpp:77] Creating layer conv1
I0116 20:04:51.164700 151474 net.cpp:84] Creating Layer conv1
I0116 20:04:51.164708 151474 net.cpp:406] conv1 <- data
I0116 20:04:51.164724 151474 net.cpp:380] conv1 -> conv1
I0116 20:04:51.165616 151474 net.cpp:122] Setting up conv1
I0116 20:04:51.165633 151474 net.cpp:129] Top shape: 50 96 55 55 (14520000)
I0116 20:04:51.165639 151474 net.cpp:137] Memory required for data: 88186400
I0116 20:04:51.165658 151474 layer_factory.hpp:77] Creating layer bn1
I0116 20:04:51.165673 151474 net.cpp:84] Creating Layer bn1
I0116 20:04:51.165680 151474 net.cpp:406] bn1 <- conv1
I0116 20:04:51.165690 151474 net.cpp:367] bn1 -> conv1 (in-place)
I0116 20:04:51.165958 151474 net.cpp:122] Setting up bn1
I0116 20:04:51.165976 151474 net.cpp:129] Top shape: 50 96 55 55 (14520000)
I0116 20:04:51.165982 151474 net.cpp:137] Memory required for data: 146266400
I0116 20:04:51.165997 151474 layer_factory.hpp:77] Creating layer scale1
I0116 20:04:51.166013 151474 net.cpp:84] Creating Layer scale1
I0116 20:04:51.166020 151474 net.cpp:406] scale1 <- conv1
I0116 20:04:51.166039 151474 net.cpp:367] scale1 -> conv1 (in-place)
I0116 20:04:51.170687 151474 layer_factory.hpp:77] Creating layer scale1
I0116 20:04:51.170871 151474 net.cpp:122] Setting up scale1
I0116 20:04:51.170889 151474 net.cpp:129] Top shape: 50 96 55 55 (14520000)
I0116 20:04:51.170895 151474 net.cpp:137] Memory required for data: 204346400
I0116 20:04:51.170907 151474 layer_factory.hpp:77] Creating layer relu1
I0116 20:04:51.170917 151474 net.cpp:84] Creating Layer relu1
I0116 20:04:51.170928 151474 net.cpp:406] relu1 <- conv1
I0116 20:04:51.170939 151474 net.cpp:367] relu1 -> conv1 (in-place)
I0116 20:04:51.170953 151474 net.cpp:122] Setting up relu1
I0116 20:04:51.170961 151474 net.cpp:129] Top shape: 50 96 55 55 (14520000)
I0116 20:04:51.170967 151474 net.cpp:137] Memory required for data: 262426400
I0116 20:04:51.170974 151474 layer_factory.hpp:77] Creating layer pool1
I0116 20:04:51.170987 151474 net.cpp:84] Creating Layer pool1
I0116 20:04:51.170994 151474 net.cpp:406] pool1 <- conv1
I0116 20:04:51.171005 151474 net.cpp:380] pool1 -> pool1
I0116 20:04:51.171068 151474 net.cpp:122] Setting up pool1
I0116 20:04:51.171082 151474 net.cpp:129] Top shape: 50 96 27 27 (3499200)
I0116 20:04:51.171088 151474 net.cpp:137] Memory required for data: 276423200
I0116 20:04:51.171095 151474 layer_factory.hpp:77] Creating layer conv2
I0116 20:04:51.171161 151474 net.cpp:84] Creating Layer conv2
I0116 20:04:51.171171 151474 net.cpp:406] conv2 <- pool1
I0116 20:04:51.171183 151474 net.cpp:380] conv2 -> conv2
I0116 20:04:51.182776 151474 net.cpp:122] Setting up conv2
I0116 20:04:51.182858 151474 net.cpp:129] Top shape: 50 256 27 27 (9331200)
I0116 20:04:51.182871 151474 net.cpp:137] Memory required for data: 313748000
I0116 20:04:51.182902 151474 layer_factory.hpp:77] Creating layer bn2
I0116 20:04:51.182931 151474 net.cpp:84] Creating Layer bn2
I0116 20:04:51.182942 151474 net.cpp:406] bn2 <- conv2
I0116 20:04:51.182960 151474 net.cpp:367] bn2 -> conv2 (in-place)
I0116 20:04:51.183259 151474 net.cpp:122] Setting up bn2
I0116 20:04:51.183281 151474 net.cpp:129] Top shape: 50 256 27 27 (9331200)
I0116 20:04:51.183288 151474 net.cpp:137] Memory required for data: 351072800
I0116 20:04:51.183307 151474 layer_factory.hpp:77] Creating layer scale2
I0116 20:04:51.183326 151474 net.cpp:84] Creating Layer scale2
I0116 20:04:51.183333 151474 net.cpp:406] scale2 <- conv2
I0116 20:04:51.183346 151474 net.cpp:367] scale2 -> conv2 (in-place)
I0116 20:04:51.183436 151474 layer_factory.hpp:77] Creating layer scale2
I0116 20:04:51.183609 151474 net.cpp:122] Setting up scale2
I0116 20:04:51.183629 151474 net.cpp:129] Top shape: 50 256 27 27 (9331200)
I0116 20:04:51.183636 151474 net.cpp:137] Memory required for data: 388397600
I0116 20:04:51.183648 151474 layer_factory.hpp:77] Creating layer relu2
I0116 20:04:51.183671 151474 net.cpp:84] Creating Layer relu2
I0116 20:04:51.183679 151474 net.cpp:406] relu2 <- conv2
I0116 20:04:51.183692 151474 net.cpp:367] relu2 -> conv2 (in-place)
I0116 20:04:51.183706 151474 net.cpp:122] Setting up relu2
I0116 20:04:51.183715 151474 net.cpp:129] Top shape: 50 256 27 27 (9331200)
I0116 20:04:51.183722 151474 net.cpp:137] Memory required for data: 425722400
I0116 20:04:51.183734 151474 layer_factory.hpp:77] Creating layer pool2
I0116 20:04:51.183753 151474 net.cpp:84] Creating Layer pool2
I0116 20:04:51.183761 151474 net.cpp:406] pool2 <- conv2
I0116 20:04:51.183778 151474 net.cpp:380] pool2 -> pool2
I0116 20:04:51.183845 151474 net.cpp:122] Setting up pool2
I0116 20:04:51.183867 151474 net.cpp:129] Top shape: 50 256 13 13 (2163200)
I0116 20:04:51.183874 151474 net.cpp:137] Memory required for data: 434375200
I0116 20:04:51.183881 151474 layer_factory.hpp:77] Creating layer conv3
I0116 20:04:51.183907 151474 net.cpp:84] Creating Layer conv3
I0116 20:04:51.183915 151474 net.cpp:406] conv3 <- pool2
I0116 20:04:51.183928 151474 net.cpp:380] conv3 -> conv3
I0116 20:04:51.200789 151474 net.cpp:122] Setting up conv3
I0116 20:04:51.200839 151474 net.cpp:129] Top shape: 50 384 13 13 (3244800)
I0116 20:04:51.200853 151474 net.cpp:137] Memory required for data: 447354400
I0116 20:04:51.200870 151474 layer_factory.hpp:77] Creating layer bn3
I0116 20:04:51.200889 151474 net.cpp:84] Creating Layer bn3
I0116 20:04:51.200899 151474 net.cpp:406] bn3 <- conv3
I0116 20:04:51.200915 151474 net.cpp:367] bn3 -> conv3 (in-place)
I0116 20:04:51.201174 151474 net.cpp:122] Setting up bn3
I0116 20:04:51.201189 151474 net.cpp:129] Top shape: 50 384 13 13 (3244800)
I0116 20:04:51.201198 151474 net.cpp:137] Memory required for data: 460333600
I0116 20:04:51.201223 151474 layer_factory.hpp:77] Creating layer scale3
I0116 20:04:51.201241 151474 net.cpp:84] Creating Layer scale3
I0116 20:04:51.201251 151474 net.cpp:406] scale3 <- conv3
I0116 20:04:51.201264 151474 net.cpp:367] scale3 -> conv3 (in-place)
I0116 20:04:51.201329 151474 layer_factory.hpp:77] Creating layer scale3
I0116 20:04:51.201509 151474 net.cpp:122] Setting up scale3
I0116 20:04:51.201526 151474 net.cpp:129] Top shape: 50 384 13 13 (3244800)
I0116 20:04:51.201534 151474 net.cpp:137] Memory required for data: 473312800
I0116 20:04:51.201548 151474 layer_factory.hpp:77] Creating layer relu3
I0116 20:04:51.201563 151474 net.cpp:84] Creating Layer relu3
I0116 20:04:51.201571 151474 net.cpp:406] relu3 <- conv3
I0116 20:04:51.201586 151474 net.cpp:367] relu3 -> conv3 (in-place)
I0116 20:04:51.201597 151474 net.cpp:122] Setting up relu3
I0116 20:04:51.201653 151474 net.cpp:129] Top shape: 50 384 13 13 (3244800)
I0116 20:04:51.201663 151474 net.cpp:137] Memory required for data: 486292000
I0116 20:04:51.201669 151474 layer_factory.hpp:77] Creating layer conv4
I0116 20:04:51.201704 151474 net.cpp:84] Creating Layer conv4
I0116 20:04:51.201712 151474 net.cpp:406] conv4 <- conv3
I0116 20:04:51.201725 151474 net.cpp:380] conv4 -> conv4
I0116 20:04:51.225282 151474 net.cpp:122] Setting up conv4
I0116 20:04:51.225337 151474 net.cpp:129] Top shape: 50 384 13 13 (3244800)
I0116 20:04:51.225359 151474 net.cpp:137] Memory required for data: 499271200
I0116 20:04:51.225378 151474 layer_factory.hpp:77] Creating layer bn4
I0116 20:04:51.225395 151474 net.cpp:84] Creating Layer bn4
I0116 20:04:51.225414 151474 net.cpp:406] bn4 <- conv4
I0116 20:04:51.225431 151474 net.cpp:367] bn4 -> conv4 (in-place)
I0116 20:04:51.225709 151474 net.cpp:122] Setting up bn4
I0116 20:04:51.225728 151474 net.cpp:129] Top shape: 50 384 13 13 (3244800)
I0116 20:04:51.225734 151474 net.cpp:137] Memory required for data: 512250400
I0116 20:04:51.225749 151474 layer_factory.hpp:77] Creating layer scale4
I0116 20:04:51.225766 151474 net.cpp:84] Creating Layer scale4
I0116 20:04:51.225775 151474 net.cpp:406] scale4 <- conv4
I0116 20:04:51.225788 151474 net.cpp:367] scale4 -> conv4 (in-place)
I0116 20:04:51.225858 151474 layer_factory.hpp:77] Creating layer scale4
I0116 20:04:51.226009 151474 net.cpp:122] Setting up scale4
I0116 20:04:51.226024 151474 net.cpp:129] Top shape: 50 384 13 13 (3244800)
I0116 20:04:51.226032 151474 net.cpp:137] Memory required for data: 525229600
I0116 20:04:51.226044 151474 layer_factory.hpp:77] Creating layer relu4
I0116 20:04:51.226063 151474 net.cpp:84] Creating Layer relu4
I0116 20:04:51.226070 151474 net.cpp:406] relu4 <- conv4
I0116 20:04:51.226080 151474 net.cpp:367] relu4 -> conv4 (in-place)
I0116 20:04:51.226091 151474 net.cpp:122] Setting up relu4
I0116 20:04:51.226100 151474 net.cpp:129] Top shape: 50 384 13 13 (3244800)
I0116 20:04:51.226106 151474 net.cpp:137] Memory required for data: 538208800
I0116 20:04:51.226114 151474 layer_factory.hpp:77] Creating layer conv5
I0116 20:04:51.226135 151474 net.cpp:84] Creating Layer conv5
I0116 20:04:51.226142 151474 net.cpp:406] conv5 <- conv4
I0116 20:04:51.226156 151474 net.cpp:380] conv5 -> conv5
I0116 20:04:51.242807 151474 net.cpp:122] Setting up conv5
I0116 20:04:51.242866 151474 net.cpp:129] Top shape: 50 256 13 13 (2163200)
I0116 20:04:51.242877 151474 net.cpp:137] Memory required for data: 546861600
I0116 20:04:51.242897 151474 layer_factory.hpp:77] Creating layer bn5
I0116 20:04:51.242918 151474 net.cpp:84] Creating Layer bn5
I0116 20:04:51.242931 151474 net.cpp:406] bn5 <- conv5
I0116 20:04:51.242952 151474 net.cpp:367] bn5 -> conv5 (in-place)
I0116 20:04:51.243254 151474 net.cpp:122] Setting up bn5
I0116 20:04:51.243269 151474 net.cpp:129] Top shape: 50 256 13 13 (2163200)
I0116 20:04:51.243276 151474 net.cpp:137] Memory required for data: 555514400
I0116 20:04:51.243309 151474 layer_factory.hpp:77] Creating layer scale5
I0116 20:04:51.243324 151474 net.cpp:84] Creating Layer scale5
I0116 20:04:51.243331 151474 net.cpp:406] scale5 <- conv5
I0116 20:04:51.243341 151474 net.cpp:367] scale5 -> conv5 (in-place)
I0116 20:04:51.246062 151474 layer_factory.hpp:77] Creating layer scale5
I0116 20:04:51.246250 151474 net.cpp:122] Setting up scale5
I0116 20:04:51.246268 151474 net.cpp:129] Top shape: 50 256 13 13 (2163200)
I0116 20:04:51.246274 151474 net.cpp:137] Memory required for data: 564167200
I0116 20:04:51.246287 151474 layer_factory.hpp:77] Creating layer relu5
I0116 20:04:51.246299 151474 net.cpp:84] Creating Layer relu5
I0116 20:04:51.246306 151474 net.cpp:406] relu5 <- conv5
I0116 20:04:51.246323 151474 net.cpp:367] relu5 -> conv5 (in-place)
I0116 20:04:51.246335 151474 net.cpp:122] Setting up relu5
I0116 20:04:51.246345 151474 net.cpp:129] Top shape: 50 256 13 13 (2163200)
I0116 20:04:51.246351 151474 net.cpp:137] Memory required for data: 572820000
I0116 20:04:51.246358 151474 layer_factory.hpp:77] Creating layer pool5
I0116 20:04:51.246420 151474 net.cpp:84] Creating Layer pool5
I0116 20:04:51.246429 151474 net.cpp:406] pool5 <- conv5
I0116 20:04:51.246440 151474 net.cpp:380] pool5 -> pool5
I0116 20:04:51.246498 151474 net.cpp:122] Setting up pool5
I0116 20:04:51.246512 151474 net.cpp:129] Top shape: 50 256 6 6 (460800)
I0116 20:04:51.246520 151474 net.cpp:137] Memory required for data: 574663200
I0116 20:04:51.246526 151474 layer_factory.hpp:77] Creating layer fc6
I0116 20:04:51.246541 151474 net.cpp:84] Creating Layer fc6
I0116 20:04:51.246549 151474 net.cpp:406] fc6 <- pool5
I0116 20:04:51.246562 151474 net.cpp:380] fc6 -> fc6
I0116 20:04:51.918699 151474 net.cpp:122] Setting up fc6
I0116 20:04:51.918787 151474 net.cpp:129] Top shape: 50 4096 (204800)
I0116 20:04:51.918802 151474 net.cpp:137] Memory required for data: 575482400
I0116 20:04:51.918831 151474 layer_factory.hpp:77] Creating layer bn6
I0116 20:04:51.918859 151474 net.cpp:84] Creating Layer bn6
I0116 20:04:51.918874 151474 net.cpp:406] bn6 <- fc6
I0116 20:04:51.918893 151474 net.cpp:367] bn6 -> fc6 (in-place)
I0116 20:04:51.919157 151474 net.cpp:122] Setting up bn6
I0116 20:04:51.919190 151474 net.cpp:129] Top shape: 50 4096 (204800)
I0116 20:04:51.919198 151474 net.cpp:137] Memory required for data: 576301600
I0116 20:04:51.919217 151474 layer_factory.hpp:77] Creating layer scale6
I0116 20:04:51.919237 151474 net.cpp:84] Creating Layer scale6
I0116 20:04:51.919245 151474 net.cpp:406] scale6 <- fc6
I0116 20:04:51.919255 151474 net.cpp:367] scale6 -> fc6 (in-place)
I0116 20:04:51.919317 151474 layer_factory.hpp:77] Creating layer scale6
I0116 20:04:51.919462 151474 net.cpp:122] Setting up scale6
I0116 20:04:51.919476 151474 net.cpp:129] Top shape: 50 4096 (204800)
I0116 20:04:51.919484 151474 net.cpp:137] Memory required for data: 577120800
I0116 20:04:51.919497 151474 layer_factory.hpp:77] Creating layer relu6
I0116 20:04:51.919509 151474 net.cpp:84] Creating Layer relu6
I0116 20:04:51.919517 151474 net.cpp:406] relu6 <- fc6
I0116 20:04:51.919533 151474 net.cpp:367] relu6 -> fc6 (in-place)
I0116 20:04:51.919544 151474 net.cpp:122] Setting up relu6
I0116 20:04:51.919554 151474 net.cpp:129] Top shape: 50 4096 (204800)
I0116 20:04:51.919559 151474 net.cpp:137] Memory required for data: 577940000
I0116 20:04:51.919564 151474 layer_factory.hpp:77] Creating layer drop6
I0116 20:04:51.919580 151474 net.cpp:84] Creating Layer drop6
I0116 20:04:51.919589 151474 net.cpp:406] drop6 <- fc6
I0116 20:04:51.919597 151474 net.cpp:367] drop6 -> fc6 (in-place)
I0116 20:04:51.919636 151474 net.cpp:122] Setting up drop6
I0116 20:04:51.919648 151474 net.cpp:129] Top shape: 50 4096 (204800)
I0116 20:04:51.919656 151474 net.cpp:137] Memory required for data: 578759200
I0116 20:04:51.919669 151474 layer_factory.hpp:77] Creating layer fc7
I0116 20:04:51.919703 151474 net.cpp:84] Creating Layer fc7
I0116 20:04:51.919723 151474 net.cpp:406] fc7 <- fc6
I0116 20:04:51.919734 151474 net.cpp:380] fc7 -> fc7
I0116 20:04:52.212450 151474 net.cpp:122] Setting up fc7
I0116 20:04:52.212518 151474 net.cpp:129] Top shape: 50 4096 (204800)
I0116 20:04:52.212525 151474 net.cpp:137] Memory required for data: 579578400
I0116 20:04:52.212543 151474 layer_factory.hpp:77] Creating layer bn7
I0116 20:04:52.212579 151474 net.cpp:84] Creating Layer bn7
I0116 20:04:52.212589 151474 net.cpp:406] bn7 <- fc7
I0116 20:04:52.212604 151474 net.cpp:367] bn7 -> fc7 (in-place)
I0116 20:04:52.212839 151474 net.cpp:122] Setting up bn7
I0116 20:04:52.212853 151474 net.cpp:129] Top shape: 50 4096 (204800)
I0116 20:04:52.212867 151474 net.cpp:137] Memory required for data: 580397600
I0116 20:04:52.212878 151474 layer_factory.hpp:77] Creating layer scale7
I0116 20:04:52.212910 151474 net.cpp:84] Creating Layer scale7
I0116 20:04:52.212927 151474 net.cpp:406] scale7 <- fc7
I0116 20:04:52.212935 151474 net.cpp:367] scale7 -> fc7 (in-place)
I0116 20:04:52.213003 151474 layer_factory.hpp:77] Creating layer scale7
I0116 20:04:52.213160 151474 net.cpp:122] Setting up scale7
I0116 20:04:52.213176 151474 net.cpp:129] Top shape: 50 4096 (204800)
I0116 20:04:52.213230 151474 net.cpp:137] Memory required for data: 581216800
I0116 20:04:52.213248 151474 layer_factory.hpp:77] Creating layer relu7
I0116 20:04:52.213258 151474 net.cpp:84] Creating Layer relu7
I0116 20:04:52.213263 151474 net.cpp:406] relu7 <- fc7
I0116 20:04:52.213274 151474 net.cpp:367] relu7 -> fc7 (in-place)
I0116 20:04:52.213284 151474 net.cpp:122] Setting up relu7
I0116 20:04:52.213290 151474 net.cpp:129] Top shape: 50 4096 (204800)
I0116 20:04:52.213295 151474 net.cpp:137] Memory required for data: 582036000
I0116 20:04:52.213309 151474 layer_factory.hpp:77] Creating layer drop7
I0116 20:04:52.213318 151474 net.cpp:84] Creating Layer drop7
I0116 20:04:52.213325 151474 net.cpp:406] drop7 <- fc7
I0116 20:04:52.213335 151474 net.cpp:367] drop7 -> fc7 (in-place)
I0116 20:04:52.213371 151474 net.cpp:122] Setting up drop7
I0116 20:04:52.213383 151474 net.cpp:129] Top shape: 50 4096 (204800)
I0116 20:04:52.213390 151474 net.cpp:137] Memory required for data: 582855200
I0116 20:04:52.213397 151474 layer_factory.hpp:77] Creating layer fc8
I0116 20:04:52.213409 151474 net.cpp:84] Creating Layer fc8
I0116 20:04:52.213418 151474 net.cpp:406] fc8 <- fc7
I0116 20:04:52.213425 151474 net.cpp:380] fc8 -> fc8
I0116 20:04:52.287123 151474 net.cpp:122] Setting up fc8
I0116 20:04:52.287187 151474 net.cpp:129] Top shape: 50 1000 (50000)
I0116 20:04:52.287201 151474 net.cpp:137] Memory required for data: 583055200
I0116 20:04:52.287237 151474 layer_factory.hpp:77] Creating layer fc8_fc8_0_split
I0116 20:04:52.287271 151474 net.cpp:84] Creating Layer fc8_fc8_0_split
I0116 20:04:52.287281 151474 net.cpp:406] fc8_fc8_0_split <- fc8
I0116 20:04:52.287309 151474 net.cpp:380] fc8_fc8_0_split -> fc8_fc8_0_split_0
I0116 20:04:52.287341 151474 net.cpp:380] fc8_fc8_0_split -> fc8_fc8_0_split_1
I0116 20:04:52.287353 151474 net.cpp:380] fc8_fc8_0_split -> fc8_fc8_0_split_2
I0116 20:04:52.287442 151474 net.cpp:122] Setting up fc8_fc8_0_split
I0116 20:04:52.287456 151474 net.cpp:129] Top shape: 50 1000 (50000)
I0116 20:04:52.287462 151474 net.cpp:129] Top shape: 50 1000 (50000)
I0116 20:04:52.287472 151474 net.cpp:129] Top shape: 50 1000 (50000)
I0116 20:04:52.287483 151474 net.cpp:137] Memory required for data: 583655200
I0116 20:04:52.287492 151474 layer_factory.hpp:77] Creating layer accuracy
I0116 20:04:52.287505 151474 net.cpp:84] Creating Layer accuracy
I0116 20:04:52.287516 151474 net.cpp:406] accuracy <- fc8_fc8_0_split_0
I0116 20:04:52.287526 151474 net.cpp:406] accuracy <- label_data_1_split_0
I0116 20:04:52.287536 151474 net.cpp:380] accuracy -> accuracy
…
