…
I0117 09:02:52.525648 156614 net.cpp:294] The NetState phase (0) differed from the phase (1) specified by a rule in layer accuracy_5
I0117 09:02:52.526011 156614 net.cpp:51] Initializing net from parameters: 
name: "AlexNet-BN"
state {
  phase: TRAIN
  level: 0
  stage: ""
}
layer {
  name: "data"
  type: "Data"
  top: "data"
  top: "label"
  include {
    phase: TRAIN
  }
  transform_param {
    mirror: true
    crop_size: 224
    mean_value: 103.939
    mean_value: 116.779
    mean_value: 123.68
  }
  data_param {
    source: "/home/ydwu/database/imagenet/ilsvrc12/lmdb_resize/ilsvrc12_train_lmdb"
    batch_size: 256
    backend: LMDB
  }
}
layer {
  name: "conv1"
  type: "Convolution"
  bottom: "data"
  top: "conv1"
  param {
    lr_mult: 1
    decay_mult: 1
  }
  param {
    lr_mult: 2
    decay_mult: 0
  }
  convolution_param {
    num_output: 96
    pad: 2
    kernel_size: 11
    stride: 4
    weight_filler {
      type: "gaussian"
      std: 0.01
    }
    bias_filler {
      type: "constant"
      value: 0
    }
  }
}
layer {
  name: "bn1"
  type: "BatchNorm"
  bottom: "conv1"
  top: "conv1"
}
layer {
  name: "scale1"
  type: "Scale"
  bottom: "conv1"
  top: "conv1"
  scale_param {
    bias_term: true
  }
}
layer {
  name: "relu1"
  type: "ReLU"
  bottom: "conv1"
  top: "conv1"
}
layer {
  name: "pool1"
  type: "Pooling"
  bottom: "conv1"
  top: "pool1"
  pooling_param {
    pool: MAX
    kernel_size: 3
    stride: 2
  }
}
layer {
  name: "conv2"
  type: "Convolution"
  bottom: "pool1"
  top: "conv2"
  param {
    lr_mult: 1
    decay_mult: 1
  }
  param {
    lr_mult: 2
    decay_mult: 0
  }
  convolution_param {
    num_output: 256
    pad: 2
    kernel_size: 5
    weight_filler {
      type: "gaussian"
      std: 0.01
    }
    bias_filler {
      type: "constant"
      value: 0.1
    }
  }
}
layer {
  name: "bn2"
  type: "BatchNorm"
  bottom: "conv2"
  top: "conv2"
}
layer {
  name: "scale2"
  type: "Scale"
  bottom: "conv2"
  top: "conv2"
  scale_param {
    bias_term: true
  }
}
layer {
  name: "relu2"
  type: "ReLU"
  bottom: "conv2"
  top: "conv2"
}
layer {
  name: "pool2"
  type: "Pooling"
  bottom: "conv2"
  top: "pool2"
  pooling_param {
    pool: MAX
    kernel_size: 3
    stride: 2
  }
}
layer {
  name: "conv3"
  type: "Convolution"
  bottom: "pool2"
  top: "conv3"
  param {
    lr_mult: 1
    decay_mult: 1
  }
  param {
    lr_mult: 2
    decay_mult: 0
  }
  convolution_param {
    num_output: 384
    pad: 1
    kernel_size: 3
    weight_filler {
      type: "gaussian"
      std: 0.01
    }
    bias_filler {
      type: "constant"
      value: 0
    }
  }
}
layer {
  name: "bn3"
  type: "BatchNorm"
  bottom: "conv3"
  top: "conv3"
}
layer {
  name: "scale3"
  type: "Scale"
  bottom: "conv3"
  top: "conv3"
  scale_param {
    bias_term: true
  }
}
layer {
  name: "relu3"
  type: "ReLU"
  bottom: "conv3"
  top: "conv3"
}
layer {
  name: "conv4"
  type: "Convolution"
  bottom: "conv3"
  top: "conv4"
  param {
    lr_mult: 1
    decay_mult: 1
  }
  param {
    lr_mult: 2
    decay_mult: 0
  }
  convolution_param {
    num_output: 384
    pad: 1
    kernel_size: 3
    weight_filler {
      type: "gaussian"
      std: 0.01
    }
    bias_filler {
      type: "constant"
      value: 0.1
    }
  }
}
layer {
  name: "bn4"
  type: "BatchNorm"
  bottom: "conv4"
  top: "conv4"
}
layer {
  name: "scale4"
  type: "Scale"
  bottom: "conv4"
  top: "conv4"
  scale_param {
    bias_term: true
  }
}
layer {
  name: "relu4"
  type: "ReLU"
  bottom: "conv4"
  top: "conv4"
}
layer {
  name: "conv5"
  type: "Convolution"
  bottom: "conv4"
  top: "conv5"
  param {
    lr_mult: 1
    decay_mult: 1
  }
  param {
    lr_mult: 2
    decay_mult: 0
  }
  convolution_param {
    num_output: 256
    pad: 1
    kernel_size: 3
    weight_filler {
      type: "gaussian"
      std: 0.01
    }
    bias_filler {
      type: "constant"
      value: 0.1
    }
  }
}
layer {
  name: "bn5"
  type: "BatchNorm"
  bottom: "conv5"
  top: "conv5"
}
layer {
  name: "scale5"
  type: "Scale"
  bottom: "conv5"
  top: "conv5"
  scale_param {
    bias_term: true
  }
}
layer {
  name: "relu5"
  type: "ReLU"
  bottom: "conv5"
  top: "conv5"
}
layer {
  name: "pool5"
  type: "Pooling"
  bottom: "conv5"
  top: "pool5"
  pooling_param {
    pool: MAX
    kernel_size: 3
    stride: 2
  }
}
layer {
  name: "fc6"
  type: "InnerProduct"
  bottom: "pool5"
  top: "fc6"
  param {
    lr_mult: 1
    decay_mult: 1
  }
  param {
    lr_mult: 2
    decay_mult: 0
  }
  inner_product_param {
    num_output: 4096
    weight_filler {
      type: "gaussian"
      std: 0.005
    }
    bias_filler {
      type: "constant"
      value: 0.1
    }
  }
}
layer {
  name: "bn6"
  type: "BatchNorm"
  bottom: "fc6"
  top: "fc6"
}
layer {
  name: "scale6"
  type: "Scale"
  bottom: "fc6"
  top: "fc6"
  scale_param {
    bias_term: true
  }
}
layer {
  name: "relu6"
  type: "ReLU"
  bottom: "fc6"
  top: "fc6"
}
layer {
  name: "drop6"
  type: "Dropout"
  bottom: "fc6"
  top: "fc6"
  dropout_param {
    dropout_ratio: 0.5
  }
}
layer {
  name: "fc7"
  type: "InnerProduct"
  bottom: "fc6"
  top: "fc7"
  param {
    lr_mult: 1
    decay_mult: 1
  }
  param {
    lr_mult: 2
    decay_mult: 0
  }
  inner_product_param {
    num_output: 4096
    weight_filler {
      type: "gaussian"
      std: 0.005
    }
    bias_filler {
      type: "constant"
      value: 0.1
    }
  }
}
layer {
  name: "bn7"
  type: "BatchNorm"
  bottom: "fc7"
  top: "fc7"
}
layer {
  name: "scale7"
  type: "Scale"
  bottom: "fc7"
  top: "fc7"
  scale_param {
    bias_term: true
  }
}
layer {
  name: "relu7"
  type: "ReLU"
  bottom: "fc7"
  top: "fc7"
}
layer {
  name: "drop7"
  type: "Dropout"
  bottom: "fc7"
  top: "fc7"
  dropout_param {
    dropout_ratio: 0.5
  }
}
layer {
  name: "fc8"
  type: "InnerProduct"
  bottom: "fc7"
  top: "fc8"
  param {
    lr_mult: 1
    decay_mult: 1
  }
  param {
    lr_mult: 2
    decay_mult: 0
  }
  inner_product_param {
    num_output: 1000
    weight_filler {
      type: "gaussian"
      std: 0.01
    }
    bias_filler {
      type: "constant"
      value: 0
    }
  }
}
layer {
  name: "accuracy_5_TRAIN"
  type: "Accuracy"
  bottom: "fc8"
  bottom: "label"
  top: "accuracy_5_TRAIN"
  include {
    phase: TRAIN
  }
  accuracy_param {
    top_k: 5
  }
}
layer {
  name: "loss"
  type: "SoftmaxWithLoss"
  bottom: "fc8"
  bottom: "label"
  top: "loss"
}
I0117 09:02:52.526329 156614 layer_factory.hpp:77] Creating layer data
I0117 09:02:52.576047 156614 db_lmdb.cpp:35] Opened lmdb /home/ydwu/database/imagenet/ilsvrc12/lmdb_resize/ilsvrc12_train_lmdb
I0117 09:02:52.849123 156614 net.cpp:84] Creating Layer data
I0117 09:02:52.849210 156614 net.cpp:380] data -> data
I0117 09:02:52.849290 156614 net.cpp:380] data -> label
I0117 09:02:52.930665 156614 data_layer.cpp:45] output data size: 256,3,224,224
I0117 09:02:53.490301 156614 net.cpp:122] Setting up data
I0117 09:02:53.490386 156614 net.cpp:129] Top shape: 256 3 224 224 (38535168)
I0117 09:02:53.490401 156614 net.cpp:129] Top shape: 256 (256)
I0117 09:02:53.490408 156614 net.cpp:137] Memory required for data: 154141696
I0117 09:02:53.490430 156614 layer_factory.hpp:77] Creating layer label_data_1_split
I0117 09:02:53.490466 156614 net.cpp:84] Creating Layer label_data_1_split
I0117 09:02:53.490478 156614 net.cpp:406] label_data_1_split <- label
I0117 09:02:53.490588 156614 net.cpp:380] label_data_1_split -> label_data_1_split_0
I0117 09:02:53.490614 156614 net.cpp:380] label_data_1_split -> label_data_1_split_1
I0117 09:02:53.490734 156614 net.cpp:122] Setting up label_data_1_split
I0117 09:02:53.490748 156614 net.cpp:129] Top shape: 256 (256)
I0117 09:02:53.490756 156614 net.cpp:129] Top shape: 256 (256)
I0117 09:02:53.490759 156614 net.cpp:137] Memory required for data: 154143744
I0117 09:02:53.490772 156614 layer_factory.hpp:77] Creating layer conv1
I0117 09:02:53.490803 156614 net.cpp:84] Creating Layer conv1
I0117 09:02:53.490813 156614 net.cpp:406] conv1 <- data
I0117 09:02:53.490824 156614 net.cpp:380] conv1 -> conv1
I0117 09:02:53.495733 156614 net.cpp:122] Setting up conv1
I0117 09:02:53.495784 156614 net.cpp:129] Top shape: 256 96 55 55 (74342400)
I0117 09:02:53.495790 156614 net.cpp:137] Memory required for data: 451513344
I0117 09:02:53.505959 156614 layer_factory.hpp:77] Creating layer bn1
I0117 09:02:53.506057 156614 net.cpp:84] Creating Layer bn1
I0117 09:02:53.506076 156614 net.cpp:406] bn1 <- conv1
I0117 09:02:53.506098 156614 net.cpp:367] bn1 -> conv1 (in-place)
I0117 09:02:53.519904 156614 net.cpp:122] Setting up bn1
I0117 09:02:53.520000 156614 net.cpp:129] Top shape: 256 96 55 55 (74342400)
I0117 09:02:53.520016 156614 net.cpp:137] Memory required for data: 748882944
I0117 09:02:53.520056 156614 layer_factory.hpp:77] Creating layer scale1
I0117 09:02:53.520092 156614 net.cpp:84] Creating Layer scale1
I0117 09:02:53.520109 156614 net.cpp:406] scale1 <- conv1
I0117 09:02:53.520133 156614 net.cpp:367] scale1 -> conv1 (in-place)
I0117 09:02:53.520279 156614 layer_factory.hpp:77] Creating layer scale1
I0117 09:02:53.520484 156614 net.cpp:122] Setting up scale1
I0117 09:02:53.520503 156614 net.cpp:129] Top shape: 256 96 55 55 (74342400)
I0117 09:02:53.520509 156614 net.cpp:137] Memory required for data: 1046252544
I0117 09:02:53.520519 156614 layer_factory.hpp:77] Creating layer relu1
I0117 09:02:53.520535 156614 net.cpp:84] Creating Layer relu1
I0117 09:02:53.520545 156614 net.cpp:406] relu1 <- conv1
I0117 09:02:53.520557 156614 net.cpp:367] relu1 -> conv1 (in-place)
I0117 09:02:53.520570 156614 net.cpp:122] Setting up relu1
I0117 09:02:53.520579 156614 net.cpp:129] Top shape: 256 96 55 55 (74342400)
I0117 09:02:53.520586 156614 net.cpp:137] Memory required for data: 1343622144
I0117 09:02:53.520593 156614 layer_factory.hpp:77] Creating layer pool1
I0117 09:02:53.520606 156614 net.cpp:84] Creating Layer pool1
I0117 09:02:53.520617 156614 net.cpp:406] pool1 <- conv1
I0117 09:02:53.520627 156614 net.cpp:380] pool1 -> pool1
I0117 09:02:53.520709 156614 net.cpp:122] Setting up pool1
I0117 09:02:53.520725 156614 net.cpp:129] Top shape: 256 96 27 27 (17915904)
I0117 09:02:53.520731 156614 net.cpp:137] Memory required for data: 1415285760
I0117 09:02:53.520738 156614 layer_factory.hpp:77] Creating layer conv2
I0117 09:02:53.520757 156614 net.cpp:84] Creating Layer conv2
I0117 09:02:53.520766 156614 net.cpp:406] conv2 <- pool1
I0117 09:02:53.520781 156614 net.cpp:380] conv2 -> conv2
I0117 09:02:53.535578 156614 net.cpp:122] Setting up conv2
I0117 09:02:53.535634 156614 net.cpp:129] Top shape: 256 256 27 27 (47775744)
I0117 09:02:53.535642 156614 net.cpp:137] Memory required for data: 1606388736
I0117 09:02:53.535670 156614 layer_factory.hpp:77] Creating layer bn2
I0117 09:02:53.535701 156614 net.cpp:84] Creating Layer bn2
I0117 09:02:53.535712 156614 net.cpp:406] bn2 <- conv2
I0117 09:02:53.535725 156614 net.cpp:367] bn2 -> conv2 (in-place)
I0117 09:02:53.535991 156614 net.cpp:122] Setting up bn2
I0117 09:02:53.536006 156614 net.cpp:129] Top shape: 256 256 27 27 (47775744)
I0117 09:02:53.536016 156614 net.cpp:137] Memory required for data: 1797491712
I0117 09:02:53.536037 156614 layer_factory.hpp:77] Creating layer scale2
I0117 09:02:53.536056 156614 net.cpp:84] Creating Layer scale2
I0117 09:02:53.536063 156614 net.cpp:406] scale2 <- conv2
I0117 09:02:53.536074 156614 net.cpp:367] scale2 -> conv2 (in-place)
I0117 09:02:53.536136 156614 layer_factory.hpp:77] Creating layer scale2
I0117 09:02:53.536341 156614 net.cpp:122] Setting up scale2
I0117 09:02:53.536357 156614 net.cpp:129] Top shape: 256 256 27 27 (47775744)
I0117 09:02:53.536366 156614 net.cpp:137] Memory required for data: 1988594688
I0117 09:02:53.536381 156614 layer_factory.hpp:77] Creating layer relu2
I0117 09:02:53.536393 156614 net.cpp:84] Creating Layer relu2
I0117 09:02:53.536403 156614 net.cpp:406] relu2 <- conv2
I0117 09:02:53.536417 156614 net.cpp:367] relu2 -> conv2 (in-place)
I0117 09:02:53.536428 156614 net.cpp:122] Setting up relu2
I0117 09:02:53.536437 156614 net.cpp:129] Top shape: 256 256 27 27 (47775744)
I0117 09:02:53.536448 156614 net.cpp:137] Memory required for data: 2179697664
I0117 09:02:53.536455 156614 layer_factory.hpp:77] Creating layer pool2
I0117 09:02:53.536468 156614 net.cpp:84] Creating Layer pool2
I0117 09:02:53.536478 156614 net.cpp:406] pool2 <- conv2
I0117 09:02:53.536491 156614 net.cpp:380] pool2 -> pool2
I0117 09:02:53.536550 156614 net.cpp:122] Setting up pool2
I0117 09:02:53.536566 156614 net.cpp:129] Top shape: 256 256 13 13 (11075584)
I0117 09:02:53.536573 156614 net.cpp:137] Memory required for data: 2224000000
I0117 09:02:53.536581 156614 layer_factory.hpp:77] Creating layer conv3
I0117 09:02:53.536602 156614 net.cpp:84] Creating Layer conv3
I0117 09:02:53.536612 156614 net.cpp:406] conv3 <- pool2
I0117 09:02:53.536625 156614 net.cpp:380] conv3 -> conv3
I0117 09:02:53.552824 156614 net.cpp:122] Setting up conv3
I0117 09:02:53.552904 156614 net.cpp:129] Top shape: 256 384 13 13 (16613376)
I0117 09:02:53.552913 156614 net.cpp:137] Memory required for data: 2290453504
I0117 09:02:53.552942 156614 layer_factory.hpp:77] Creating layer bn3
I0117 09:02:53.552963 156614 net.cpp:84] Creating Layer bn3
I0117 09:02:53.552974 156614 net.cpp:406] bn3 <- conv3
I0117 09:02:53.552990 156614 net.cpp:367] bn3 -> conv3 (in-place)
I0117 09:02:53.553233 156614 net.cpp:122] Setting up bn3
I0117 09:02:53.553248 156614 net.cpp:129] Top shape: 256 384 13 13 (16613376)
I0117 09:02:53.553256 156614 net.cpp:137] Memory required for data: 2356907008
I0117 09:02:53.553282 156614 layer_factory.hpp:77] Creating layer scale3
I0117 09:02:53.553297 156614 net.cpp:84] Creating Layer scale3
I0117 09:02:53.553304 156614 net.cpp:406] scale3 <- conv3
I0117 09:02:53.553314 156614 net.cpp:367] scale3 -> conv3 (in-place)
I0117 09:02:53.553361 156614 layer_factory.hpp:77] Creating layer scale3
I0117 09:02:53.553493 156614 net.cpp:122] Setting up scale3
I0117 09:02:53.553508 156614 net.cpp:129] Top shape: 256 384 13 13 (16613376)
I0117 09:02:53.553514 156614 net.cpp:137] Memory required for data: 2423360512
I0117 09:02:53.553525 156614 layer_factory.hpp:77] Creating layer relu3
I0117 09:02:53.553539 156614 net.cpp:84] Creating Layer relu3
I0117 09:02:53.553545 156614 net.cpp:406] relu3 <- conv3
I0117 09:02:53.553555 156614 net.cpp:367] relu3 -> conv3 (in-place)
I0117 09:02:53.553567 156614 net.cpp:122] Setting up relu3
I0117 09:02:53.553576 156614 net.cpp:129] Top shape: 256 384 13 13 (16613376)
I0117 09:02:53.553583 156614 net.cpp:137] Memory required for data: 2489814016
I0117 09:02:53.553589 156614 layer_factory.hpp:77] Creating layer conv4
I0117 09:02:53.553613 156614 net.cpp:84] Creating Layer conv4
I0117 09:02:53.553622 156614 net.cpp:406] conv4 <- conv3
I0117 09:02:53.553632 156614 net.cpp:380] conv4 -> conv4
I0117 09:02:53.580147 156614 net.cpp:122] Setting up conv4
I0117 09:02:53.580199 156614 net.cpp:129] Top shape: 256 384 13 13 (16613376)
I0117 09:02:53.580206 156614 net.cpp:137] Memory required for data: 2556267520
I0117 09:02:53.580222 156614 layer_factory.hpp:77] Creating layer bn4
I0117 09:02:53.580240 156614 net.cpp:84] Creating Layer bn4
I0117 09:02:53.580250 156614 net.cpp:406] bn4 <- conv4
I0117 09:02:53.580268 156614 net.cpp:367] bn4 -> conv4 (in-place)
I0117 09:02:53.580487 156614 net.cpp:122] Setting up bn4
I0117 09:02:53.580500 156614 net.cpp:129] Top shape: 256 384 13 13 (16613376)
I0117 09:02:53.580507 156614 net.cpp:137] Memory required for data: 2622721024
I0117 09:02:53.580557 156614 layer_factory.hpp:77] Creating layer scale4
I0117 09:02:53.580569 156614 net.cpp:84] Creating Layer scale4
I0117 09:02:53.580575 156614 net.cpp:406] scale4 <- conv4
I0117 09:02:53.580593 156614 net.cpp:367] scale4 -> conv4 (in-place)
I0117 09:02:53.580639 156614 layer_factory.hpp:77] Creating layer scale4
I0117 09:02:53.580775 156614 net.cpp:122] Setting up scale4
I0117 09:02:53.580790 156614 net.cpp:129] Top shape: 256 384 13 13 (16613376)
I0117 09:02:53.580801 156614 net.cpp:137] Memory required for data: 2689174528
I0117 09:02:53.580817 156614 layer_factory.hpp:77] Creating layer relu4
I0117 09:02:53.580837 156614 net.cpp:84] Creating Layer relu4
I0117 09:02:53.580844 156614 net.cpp:406] relu4 <- conv4
I0117 09:02:53.580858 156614 net.cpp:367] relu4 -> conv4 (in-place)
I0117 09:02:53.580871 156614 net.cpp:122] Setting up relu4
I0117 09:02:53.580880 156614 net.cpp:129] Top shape: 256 384 13 13 (16613376)
I0117 09:02:53.580888 156614 net.cpp:137] Memory required for data: 2755628032
I0117 09:02:53.580894 156614 layer_factory.hpp:77] Creating layer conv5
I0117 09:02:53.580914 156614 net.cpp:84] Creating Layer conv5
I0117 09:02:53.580922 156614 net.cpp:406] conv5 <- conv4
I0117 09:02:53.580934 156614 net.cpp:380] conv5 -> conv5
I0117 09:02:53.597789 156614 net.cpp:122] Setting up conv5
I0117 09:02:53.597945 156614 net.cpp:129] Top shape: 256 256 13 13 (11075584)
I0117 09:02:53.597964 156614 net.cpp:137] Memory required for data: 2799930368
I0117 09:02:53.598008 156614 layer_factory.hpp:77] Creating layer bn5
I0117 09:02:53.598070 156614 net.cpp:84] Creating Layer bn5
I0117 09:02:53.598088 156614 net.cpp:406] bn5 <- conv5
I0117 09:02:53.598115 156614 net.cpp:367] bn5 -> conv5 (in-place)
I0117 09:02:53.598426 156614 net.cpp:122] Setting up bn5
I0117 09:02:53.598453 156614 net.cpp:129] Top shape: 256 256 13 13 (11075584)
I0117 09:02:53.598460 156614 net.cpp:137] Memory required for data: 2844232704
I0117 09:02:53.598510 156614 layer_factory.hpp:77] Creating layer scale5
I0117 09:02:53.598536 156614 net.cpp:84] Creating Layer scale5
I0117 09:02:53.598544 156614 net.cpp:406] scale5 <- conv5
I0117 09:02:53.598557 156614 net.cpp:367] scale5 -> conv5 (in-place)
I0117 09:02:53.598623 156614 layer_factory.hpp:77] Creating layer scale5
I0117 09:02:53.598785 156614 net.cpp:122] Setting up scale5
I0117 09:02:53.598804 156614 net.cpp:129] Top shape: 256 256 13 13 (11075584)
I0117 09:02:53.598812 156614 net.cpp:137] Memory required for data: 2888535040
I0117 09:02:53.598824 156614 layer_factory.hpp:77] Creating layer relu5
I0117 09:02:53.598836 156614 net.cpp:84] Creating Layer relu5
I0117 09:02:53.598845 156614 net.cpp:406] relu5 <- conv5
I0117 09:02:53.598853 156614 net.cpp:367] relu5 -> conv5 (in-place)
I0117 09:02:53.598865 156614 net.cpp:122] Setting up relu5
I0117 09:02:53.598875 156614 net.cpp:129] Top shape: 256 256 13 13 (11075584)
I0117 09:02:53.598881 156614 net.cpp:137] Memory required for data: 2932837376
I0117 09:02:53.598888 156614 layer_factory.hpp:77] Creating layer pool5
I0117 09:02:53.598906 156614 net.cpp:84] Creating Layer pool5
I0117 09:02:53.598913 156614 net.cpp:406] pool5 <- conv5
I0117 09:02:53.598925 156614 net.cpp:380] pool5 -> pool5
I0117 09:02:53.598973 156614 net.cpp:122] Setting up pool5
I0117 09:02:53.598986 156614 net.cpp:129] Top shape: 256 256 6 6 (2359296)
I0117 09:02:53.598994 156614 net.cpp:137] Memory required for data: 2942274560
I0117 09:02:53.599002 156614 layer_factory.hpp:77] Creating layer fc6
I0117 09:02:53.599030 156614 net.cpp:84] Creating Layer fc6
I0117 09:02:53.599038 156614 net.cpp:406] fc6 <- pool5
I0117 09:02:53.599050 156614 net.cpp:380] fc6 -> fc6
I0117 09:02:54.331809 156614 net.cpp:122] Setting up fc6
I0117 09:02:54.331943 156614 net.cpp:129] Top shape: 256 4096 (1048576)
I0117 09:02:54.331954 156614 net.cpp:137] Memory required for data: 2946468864
I0117 09:02:54.331981 156614 layer_factory.hpp:77] Creating layer bn6
I0117 09:02:54.332010 156614 net.cpp:84] Creating Layer bn6
I0117 09:02:54.332020 156614 net.cpp:406] bn6 <- fc6
I0117 09:02:54.332044 156614 net.cpp:367] bn6 -> fc6 (in-place)
I0117 09:02:54.332388 156614 net.cpp:122] Setting up bn6
I0117 09:02:54.332408 156614 net.cpp:129] Top shape: 256 4096 (1048576)
I0117 09:02:54.332425 156614 net.cpp:137] Memory required for data: 2950663168
I0117 09:02:54.332438 156614 layer_factory.hpp:77] Creating layer scale6
I0117 09:02:54.332451 156614 net.cpp:84] Creating Layer scale6
I0117 09:02:54.332459 156614 net.cpp:406] scale6 <- fc6
I0117 09:02:54.332474 156614 net.cpp:367] scale6 -> fc6 (in-place)
I0117 09:02:54.332543 156614 layer_factory.hpp:77] Creating layer scale6
I0117 09:02:54.332741 156614 net.cpp:122] Setting up scale6
I0117 09:02:54.332756 156614 net.cpp:129] Top shape: 256 4096 (1048576)
I0117 09:02:54.332762 156614 net.cpp:137] Memory required for data: 2954857472
I0117 09:02:54.332772 156614 layer_factory.hpp:77] Creating layer relu6
I0117 09:02:54.332793 156614 net.cpp:84] Creating Layer relu6
I0117 09:02:54.332800 156614 net.cpp:406] relu6 <- fc6
I0117 09:02:54.332815 156614 net.cpp:367] relu6 -> fc6 (in-place)
I0117 09:02:54.332834 156614 net.cpp:122] Setting up relu6
I0117 09:02:54.332844 156614 net.cpp:129] Top shape: 256 4096 (1048576)
I0117 09:02:54.332850 156614 net.cpp:137] Memory required for data: 2959051776
I0117 09:02:54.332859 156614 layer_factory.hpp:77] Creating layer drop6
I0117 09:02:54.332883 156614 net.cpp:84] Creating Layer drop6
I0117 09:02:54.332895 156614 net.cpp:406] drop6 <- fc6
I0117 09:02:54.332912 156614 net.cpp:367] drop6 -> fc6 (in-place)
I0117 09:02:54.332962 156614 net.cpp:122] Setting up drop6
I0117 09:02:54.332980 156614 net.cpp:129] Top shape: 256 4096 (1048576)
I0117 09:02:54.332988 156614 net.cpp:137] Memory required for data: 2963246080
I0117 09:02:54.333004 156614 layer_factory.hpp:77] Creating layer fc7
I0117 09:02:54.333036 156614 net.cpp:84] Creating Layer fc7
I0117 09:02:54.333045 156614 net.cpp:406] fc7 <- fc6
I0117 09:02:54.333063 156614 net.cpp:380] fc7 -> fc7
I0117 09:02:54.674880 156614 net.cpp:122] Setting up fc7
I0117 09:02:54.674968 156614 net.cpp:129] Top shape: 256 4096 (1048576)
I0117 09:02:54.674975 156614 net.cpp:137] Memory required for data: 2967440384
I0117 09:02:54.675001 156614 layer_factory.hpp:77] Creating layer bn7
I0117 09:02:54.675021 156614 net.cpp:84] Creating Layer bn7
I0117 09:02:54.675034 156614 net.cpp:406] bn7 <- fc7
I0117 09:02:54.675048 156614 net.cpp:367] bn7 -> fc7 (in-place)
I0117 09:02:54.675285 156614 net.cpp:122] Setting up bn7
I0117 09:02:54.675299 156614 net.cpp:129] Top shape: 256 4096 (1048576)
I0117 09:02:54.675307 156614 net.cpp:137] Memory required for data: 2971634688
I0117 09:02:54.675321 156614 layer_factory.hpp:77] Creating layer scale7
I0117 09:02:54.675346 156614 net.cpp:84] Creating Layer scale7
I0117 09:02:54.675354 156614 net.cpp:406] scale7 <- fc7
I0117 09:02:54.675364 156614 net.cpp:367] scale7 -> fc7 (in-place)
I0117 09:02:54.675420 156614 layer_factory.hpp:77] Creating layer scale7
I0117 09:02:54.675580 156614 net.cpp:122] Setting up scale7
I0117 09:02:54.675595 156614 net.cpp:129] Top shape: 256 4096 (1048576)
I0117 09:02:54.675602 156614 net.cpp:137] Memory required for data: 2975828992
I0117 09:02:54.675614 156614 layer_factory.hpp:77] Creating layer relu7
I0117 09:02:54.675628 156614 net.cpp:84] Creating Layer relu7
I0117 09:02:54.675635 156614 net.cpp:406] relu7 <- fc7
I0117 09:02:54.675645 156614 net.cpp:367] relu7 -> fc7 (in-place)
I0117 09:02:54.675657 156614 net.cpp:122] Setting up relu7
I0117 09:02:54.675665 156614 net.cpp:129] Top shape: 256 4096 (1048576)
I0117 09:02:54.675671 156614 net.cpp:137] Memory required for data: 2980023296
I0117 09:02:54.675678 156614 layer_factory.hpp:77] Creating layer drop7
I0117 09:02:54.675690 156614 net.cpp:84] Creating Layer drop7
I0117 09:02:54.675698 156614 net.cpp:406] drop7 <- fc7
I0117 09:02:54.675709 156614 net.cpp:367] drop7 -> fc7 (in-place)
I0117 09:02:54.675737 156614 net.cpp:122] Setting up drop7
I0117 09:02:54.675750 156614 net.cpp:129] Top shape: 256 4096 (1048576)
I0117 09:02:54.675756 156614 net.cpp:137] Memory required for data: 2984217600
I0117 09:02:54.675812 156614 layer_factory.hpp:77] Creating layer fc8
I0117 09:02:54.675832 156614 net.cpp:84] Creating Layer fc8
I0117 09:02:54.675839 156614 net.cpp:406] fc8 <- fc7
I0117 09:02:54.675850 156614 net.cpp:380] fc8 -> fc8
I0117 09:02:54.766607 156614 net.cpp:122] Setting up fc8
I0117 09:02:54.766705 156614 net.cpp:129] Top shape: 256 1000 (256000)
I0117 09:02:54.766734 156614 net.cpp:137] Memory required for data: 2985241600
I0117 09:02:54.766769 156614 layer_factory.hpp:77] Creating layer fc8_fc8_0_split
I0117 09:02:54.766800 156614 net.cpp:84] Creating Layer fc8_fc8_0_split
I0117 09:02:54.766831 156614 net.cpp:406] fc8_fc8_0_split <- fc8
I0117 09:02:54.766850 156614 net.cpp:380] fc8_fc8_0_split -> fc8_fc8_0_split_0
I0117 09:02:54.766894 156614 net.cpp:380] fc8_fc8_0_split -> fc8_fc8_0_split_1
I0117 09:02:54.767004 156614 net.cpp:122] Setting up fc8_fc8_0_split
I0117 09:02:54.767035 156614 net.cpp:129] Top shape: 256 1000 (256000)
I0117 09:02:54.767065 156614 net.cpp:129] Top shape: 256 1000 (256000)
I0117 09:02:54.767071 156614 net.cpp:137] Memory required for data: 2987289600
I0117 09:02:54.767076 156614 layer_factory.hpp:77] Creating layer accuracy_5_TRAIN
I0117 09:02:54.767096 156614 net.cpp:84] Creating Layer accuracy_5_TRAIN
I0117 09:02:54.767132 156614 net.cpp:406] accuracy_5_TRAIN <- fc8_fc8_0_split_0
I0117 09:02:54.767140 156614 net.cpp:406] accuracy_5_TRAIN <- label_data_1_split_0
…
I0117 09:02:54.771270 156614 net.cpp:294] The NetState phase (1) differed from the phase (0) specified by a rule in layer accuracy_5_TRAIN
I0117 09:02:54.771572 156614 net.cpp:51] Initializing net from parameters: 
name: "AlexNet-BN"
state {
  phase: TEST
}
layer {
  name: "data"
  type: "Data"
  top: "data"
  top: "label"
  include {
    phase: TEST
  }
  transform_param {
    mirror: false
    crop_size: 224
    mean_value: 103.939
    mean_value: 116.779
    mean_value: 123.68
  }
  data_param {
    source: "/home/ydwu/database/imagenet/ilsvrc12/lmdb_resize/ilsvrc12_val_lmdb"
    batch_size: 50
    backend: LMDB
  }
}
layer {
  name: "conv1"
  type: "Convolution"
  bottom: "data"
  top: "conv1"
  param {
    lr_mult: 1
    decay_mult: 1
  }
  param {
    lr_mult: 2
    decay_mult: 0
  }
  convolution_param {
    num_output: 96
    pad: 2
    kernel_size: 11
    stride: 4
    weight_filler {
      type: "gaussian"
      std: 0.01
    }
    bias_filler {
      type: "constant"
      value: 0
    }
  }
}
layer {
  name: "bn1"
  type: "BatchNorm"
  bottom: "conv1"
  top: "conv1"
}
layer {
  name: "scale1"
  type: "Scale"
  bottom: "conv1"
  top: "conv1"
  scale_param {
    bias_term: true
  }
}
layer {
  name: "relu1"
  type: "ReLU"
  bottom: "conv1"
  top: "conv1"
}
layer {
  name: "pool1"
  type: "Pooling"
  bottom: "conv1"
  top: "pool1"
  pooling_param {
    pool: MAX
    kernel_size: 3
    stride: 2
  }
}
layer {
  name: "conv2"
  type: "Convolution"
  bottom: "pool1"
  top: "conv2"
  param {
    lr_mult: 1
    decay_mult: 1
  }
  param {
    lr_mult: 2
    decay_mult: 0
  }
  convolution_param {
    num_output: 256
    pad: 2
    kernel_size: 5
    weight_filler {
      type: "gaussian"
      std: 0.01
    }
    bias_filler {
      type: "constant"
      value: 0.1
    }
  }
}
layer {
  name: "bn2"
  type: "BatchNorm"
  bottom: "conv2"
  top: "conv2"
}
layer {
  name: "scale2"
  type: "Scale"
  bottom: "conv2"
  top: "conv2"
  scale_param {
    bias_term: true
  }
}
layer {
  name: "relu2"
  type: "ReLU"
  bottom: "conv2"
  top: "conv2"
}
layer {
  name: "pool2"
  type: "Pooling"
  bottom: "conv2"
  top: "pool2"
  pooling_param {
    pool: MAX
    kernel_size: 3
    stride: 2
  }
}
layer {
  name: "conv3"
  type: "Convolution"
  bottom: "pool2"
  top: "conv3"
  param {
    lr_mult: 1
    decay_mult: 1
  }
  param {
    lr_mult: 2
    decay_mult: 0
  }
  convolution_param {
    num_output: 384
    pad: 1
    kernel_size: 3
    weight_filler {
      type: "gaussian"
      std: 0.01
    }
    bias_filler {
      type: "constant"
      value: 0
    }
  }
}
layer {
  name: "bn3"
  type: "BatchNorm"
  bottom: "conv3"
  top: "conv3"
}
layer {
  name: "scale3"
  type: "Scale"
  bottom: "conv3"
  top: "conv3"
  scale_param {
    bias_term: true
  }
}
layer {
  name: "relu3"
  type: "ReLU"
  bottom: "conv3"
  top: "conv3"
}
layer {
  name: "conv4"
  type: "Convolution"
  bottom: "conv3"
  top: "conv4"
  param {
    lr_mult: 1
    decay_mult: 1
  }
  param {
    lr_mult: 2
    decay_mult: 0
  }
  convolution_param {
    num_output: 384
    pad: 1
    kernel_size: 3
    weight_filler {
      type: "gaussian"
      std: 0.01
    }
    bias_filler {
      type: "constant"
      value: 0.1
    }
  }
}
layer {
  name: "bn4"
  type: "BatchNorm"
  bottom: "conv4"
  top: "conv4"
}
layer {
  name: "scale4"
  type: "Scale"
  bottom: "conv4"
  top: "conv4"
  scale_param {
    bias_term: true
  }
}
layer {
  name: "relu4"
  type: "ReLU"
  bottom: "conv4"
  top: "conv4"
}
layer {
  name: "conv5"
  type: "Convolution"
  bottom: "conv4"
  top: "conv5"
  param {
    lr_mult: 1
    decay_mult: 1
  }
  param {
    lr_mult: 2
    decay_mult: 0
  }
  convolution_param {
    num_output: 256
    pad: 1
    kernel_size: 3
    weight_filler {
      type: "gaussian"
      std: 0.01
    }
    bias_filler {
      type: "constant"
      value: 0.1
    }
  }
}
layer {
  name: "bn5"
  type: "BatchNorm"
  bottom: "conv5"
  top: "conv5"
}
layer {
  name: "scale5"
  type: "Scale"
  bottom: "conv5"
  top: "conv5"
  scale_param {
    bias_term: true
  }
}
layer {
  name: "relu5"
  type: "ReLU"
  bottom: "conv5"
  top: "conv5"
}
layer {
  name: "pool5"
  type: "Pooling"
  bottom: "conv5"
  top: "pool5"
  pooling_param {
    pool: MAX
    kernel_size: 3
    stride: 2
  }
}
layer {
  name: "fc6"
  type: "InnerProduct"
  bottom: "pool5"
  top: "fc6"
  param {
    lr_mult: 1
    decay_mult: 1
  }
  param {
    lr_mult: 2
    decay_mult: 0
  }
  inner_product_param {
    num_output: 4096
    weight_filler {
      type: "gaussian"
      std: 0.005
    }
    bias_filler {
      type: "constant"
      value: 0.1
    }
  }
}
layer {
  name: "bn6"
  type: "BatchNorm"
  bottom: "fc6"
  top: "fc6"
}
layer {
  name: "scale6"
  type: "Scale"
  bottom: "fc6"
  top: "fc6"
  scale_param {
    bias_term: true
  }
}
layer {
  name: "relu6"
  type: "ReLU"
  bottom: "fc6"
  top: "fc6"
}
layer {
  name: "drop6"
  type: "Dropout"
  bottom: "fc6"
  top: "fc6"
  dropout_param {
    dropout_ratio: 0.5
  }
}
layer {
  name: "fc7"
  type: "InnerProduct"
  bottom: "fc6"
  top: "fc7"
  param {
    lr_mult: 1
    decay_mult: 1
  }
  param {
    lr_mult: 2
    decay_mult: 0
  }
  inner_product_param {
    num_output: 4096
    weight_filler {
      type: "gaussian"
      std: 0.005
    }
    bias_filler {
      type: "constant"
      value: 0.1
    }
  }
}
layer {
  name: "bn7"
  type: "BatchNorm"
  bottom: "fc7"
  top: "fc7"
}
layer {
  name: "scale7"
  type: "Scale"
  bottom: "fc7"
  top: "fc7"
  scale_param {
    bias_term: true
  }
}
layer {
  name: "relu7"
  type: "ReLU"
  bottom: "fc7"
  top: "fc7"
}
layer {
  name: "drop7"
  type: "Dropout"
  bottom: "fc7"
  top: "fc7"
  dropout_param {
    dropout_ratio: 0.5
  }
}
layer {
  name: "fc8"
  type: "InnerProduct"
  bottom: "fc7"
  top: "fc8"
  param {
    lr_mult: 1
    decay_mult: 1
  }
  param {
    lr_mult: 2
    decay_mult: 0
  }
  inner_product_param {
    num_output: 1000
    weight_filler {
      type: "gaussian"
      std: 0.01
    }
    bias_filler {
      type: "constant"
      value: 0
    }
  }
}
layer {
  name: "accuracy"
  type: "Accuracy"
  bottom: "fc8"
  bottom: "label"
  top: "accuracy"
  include {
    phase: TEST
  }
}
layer {
  name: "accuracy_5"
  type: "Accuracy"
  bottom: "fc8"
  bottom: "label"
  top: "accuracy_5"
  include {
    phase: TEST
  }
  accuracy_param {
    top_k: 5
  }
}
layer {
  name: "loss"
  type: "SoftmaxWithLoss"
  bottom: "fc8"
  bottom: "label"
  top: "loss"
}
I0117 09:02:54.771809 156614 layer_factory.hpp:77] Creating layer data
I0117 09:02:55.856812 156614 db_lmdb.cpp:35] Opened lmdb /home/ydwu/database/imagenet/ilsvrc12/lmdb_resize/ilsvrc12_val_lmdb
I0117 09:02:55.857149 156614 net.cpp:84] Creating Layer data
I0117 09:02:55.857213 156614 net.cpp:380] data -> data
I0117 09:02:55.857255 156614 net.cpp:380] data -> label
I0117 09:02:55.868722 156614 data_layer.cpp:45] output data size: 50,3,224,224
I0117 09:02:56.033977 156614 net.cpp:122] Setting up data
I0117 09:02:56.034052 156614 net.cpp:129] Top shape: 50 3 224 224 (7526400)
I0117 09:02:56.034066 156614 net.cpp:129] Top shape: 50 (50)
I0117 09:02:56.034075 156614 net.cpp:137] Memory required for data: 30105800
I0117 09:02:56.034088 156614 layer_factory.hpp:77] Creating layer label_data_1_split
I0117 09:02:56.034124 156614 net.cpp:84] Creating Layer label_data_1_split
I0117 09:02:56.034135 156614 net.cpp:406] label_data_1_split <- label
I0117 09:02:56.034154 156614 net.cpp:380] label_data_1_split -> label_data_1_split_0
I0117 09:02:56.034178 156614 net.cpp:380] label_data_1_split -> label_data_1_split_1
I0117 09:02:56.034193 156614 net.cpp:380] label_data_1_split -> label_data_1_split_2
I0117 09:02:56.034389 156614 net.cpp:122] Setting up label_data_1_split
I0117 09:02:56.034421 156614 net.cpp:129] Top shape: 50 (50)
I0117 09:02:56.034431 156614 net.cpp:129] Top shape: 50 (50)
I0117 09:02:56.034440 156614 net.cpp:129] Top shape: 50 (50)
I0117 09:02:56.034446 156614 net.cpp:137] Memory required for data: 30106400
I0117 09:02:56.034454 156614 layer_factory.hpp:77] Creating layer conv1
I0117 09:02:56.034483 156614 net.cpp:84] Creating Layer conv1
I0117 09:02:56.034492 156614 net.cpp:406] conv1 <- data
I0117 09:02:56.034507 156614 net.cpp:380] conv1 -> conv1
I0117 09:02:56.035428 156614 net.cpp:122] Setting up conv1
I0117 09:02:56.035447 156614 net.cpp:129] Top shape: 50 96 55 55 (14520000)
I0117 09:02:56.035454 156614 net.cpp:137] Memory required for data: 88186400
I0117 09:02:56.035473 156614 layer_factory.hpp:77] Creating layer bn1
I0117 09:02:56.035487 156614 net.cpp:84] Creating Layer bn1
I0117 09:02:56.035495 156614 net.cpp:406] bn1 <- conv1
I0117 09:02:56.035506 156614 net.cpp:367] bn1 -> conv1 (in-place)
I0117 09:02:56.035761 156614 net.cpp:122] Setting up bn1
I0117 09:02:56.035778 156614 net.cpp:129] Top shape: 50 96 55 55 (14520000)
I0117 09:02:56.035785 156614 net.cpp:137] Memory required for data: 146266400
I0117 09:02:56.035805 156614 layer_factory.hpp:77] Creating layer scale1
I0117 09:02:56.035821 156614 net.cpp:84] Creating Layer scale1
I0117 09:02:56.035830 156614 net.cpp:406] scale1 <- conv1
I0117 09:02:56.035841 156614 net.cpp:367] scale1 -> conv1 (in-place)
I0117 09:02:56.040597 156614 layer_factory.hpp:77] Creating layer scale1
I0117 09:02:56.040782 156614 net.cpp:122] Setting up scale1
I0117 09:02:56.040802 156614 net.cpp:129] Top shape: 50 96 55 55 (14520000)
I0117 09:02:56.040809 156614 net.cpp:137] Memory required for data: 204346400
I0117 09:02:56.040822 156614 layer_factory.hpp:77] Creating layer relu1
I0117 09:02:56.040835 156614 net.cpp:84] Creating Layer relu1
I0117 09:02:56.040843 156614 net.cpp:406] relu1 <- conv1
I0117 09:02:56.040854 156614 net.cpp:367] relu1 -> conv1 (in-place)
I0117 09:02:56.040868 156614 net.cpp:122] Setting up relu1
I0117 09:02:56.040876 156614 net.cpp:129] Top shape: 50 96 55 55 (14520000)
I0117 09:02:56.040884 156614 net.cpp:137] Memory required for data: 262426400
I0117 09:02:56.040890 156614 layer_factory.hpp:77] Creating layer pool1
I0117 09:02:56.040904 156614 net.cpp:84] Creating Layer pool1
I0117 09:02:56.040911 156614 net.cpp:406] pool1 <- conv1
I0117 09:02:56.040921 156614 net.cpp:380] pool1 -> pool1
I0117 09:02:56.040976 156614 net.cpp:122] Setting up pool1
I0117 09:02:56.040988 156614 net.cpp:129] Top shape: 50 96 27 27 (3499200)
I0117 09:02:56.040995 156614 net.cpp:137] Memory required for data: 276423200
I0117 09:02:56.041002 156614 layer_factory.hpp:77] Creating layer conv2
I0117 09:02:56.041075 156614 net.cpp:84] Creating Layer conv2
I0117 09:02:56.041085 156614 net.cpp:406] conv2 <- pool1
I0117 09:02:56.041097 156614 net.cpp:380] conv2 -> conv2
I0117 09:02:56.056089 156614 net.cpp:122] Setting up conv2
I0117 09:02:56.056167 156614 net.cpp:129] Top shape: 50 256 27 27 (9331200)
I0117 09:02:56.056176 156614 net.cpp:137] Memory required for data: 313748000
I0117 09:02:56.056201 156614 layer_factory.hpp:77] Creating layer bn2
I0117 09:02:56.056226 156614 net.cpp:84] Creating Layer bn2
I0117 09:02:56.056234 156614 net.cpp:406] bn2 <- conv2
I0117 09:02:56.056249 156614 net.cpp:367] bn2 -> conv2 (in-place)
I0117 09:02:56.056485 156614 net.cpp:122] Setting up bn2
I0117 09:02:56.056500 156614 net.cpp:129] Top shape: 50 256 27 27 (9331200)
I0117 09:02:56.056507 156614 net.cpp:137] Memory required for data: 351072800
I0117 09:02:56.056521 156614 layer_factory.hpp:77] Creating layer scale2
I0117 09:02:56.056535 156614 net.cpp:84] Creating Layer scale2
I0117 09:02:56.056542 156614 net.cpp:406] scale2 <- conv2
I0117 09:02:56.056553 156614 net.cpp:367] scale2 -> conv2 (in-place)
I0117 09:02:56.056617 156614 layer_factory.hpp:77] Creating layer scale2
I0117 09:02:56.056761 156614 net.cpp:122] Setting up scale2
I0117 09:02:56.056774 156614 net.cpp:129] Top shape: 50 256 27 27 (9331200)
I0117 09:02:56.056782 156614 net.cpp:137] Memory required for data: 388397600
I0117 09:02:56.056793 156614 layer_factory.hpp:77] Creating layer relu2
I0117 09:02:56.056805 156614 net.cpp:84] Creating Layer relu2
I0117 09:02:56.056813 156614 net.cpp:406] relu2 <- conv2
I0117 09:02:56.056824 156614 net.cpp:367] relu2 -> conv2 (in-place)
I0117 09:02:56.056835 156614 net.cpp:122] Setting up relu2
I0117 09:02:56.056844 156614 net.cpp:129] Top shape: 50 256 27 27 (9331200)
I0117 09:02:56.056864 156614 net.cpp:137] Memory required for data: 425722400
I0117 09:02:56.056872 156614 layer_factory.hpp:77] Creating layer pool2
I0117 09:02:56.056885 156614 net.cpp:84] Creating Layer pool2
I0117 09:02:56.056893 156614 net.cpp:406] pool2 <- conv2
I0117 09:02:56.056905 156614 net.cpp:380] pool2 -> pool2
I0117 09:02:56.056962 156614 net.cpp:122] Setting up pool2
I0117 09:02:56.056974 156614 net.cpp:129] Top shape: 50 256 13 13 (2163200)
I0117 09:02:56.056982 156614 net.cpp:137] Memory required for data: 434375200
I0117 09:02:56.056989 156614 layer_factory.hpp:77] Creating layer conv3
I0117 09:02:56.057008 156614 net.cpp:84] Creating Layer conv3
I0117 09:02:56.057016 156614 net.cpp:406] conv3 <- pool2
I0117 09:02:56.057029 156614 net.cpp:380] conv3 -> conv3
I0117 09:02:56.076068 156614 net.cpp:122] Setting up conv3
I0117 09:02:56.076189 156614 net.cpp:129] Top shape: 50 384 13 13 (3244800)
I0117 09:02:56.076213 156614 net.cpp:137] Memory required for data: 447354400
I0117 09:02:56.076259 156614 layer_factory.hpp:77] Creating layer bn3
I0117 09:02:56.076313 156614 net.cpp:84] Creating Layer bn3
I0117 09:02:56.076339 156614 net.cpp:406] bn3 <- conv3
I0117 09:02:56.076380 156614 net.cpp:367] bn3 -> conv3 (in-place)
I0117 09:02:56.076920 156614 net.cpp:122] Setting up bn3
I0117 09:02:56.076938 156614 net.cpp:129] Top shape: 50 384 13 13 (3244800)
I0117 09:02:56.076946 156614 net.cpp:137] Memory required for data: 460333600
I0117 09:02:56.076979 156614 layer_factory.hpp:77] Creating layer scale3
I0117 09:02:56.076995 156614 net.cpp:84] Creating Layer scale3
I0117 09:02:56.077003 156614 net.cpp:406] scale3 <- conv3
I0117 09:02:56.077015 156614 net.cpp:367] scale3 -> conv3 (in-place)
I0117 09:02:56.077086 156614 layer_factory.hpp:77] Creating layer scale3
I0117 09:02:56.077251 156614 net.cpp:122] Setting up scale3
I0117 09:02:56.077266 156614 net.cpp:129] Top shape: 50 384 13 13 (3244800)
I0117 09:02:56.077276 156614 net.cpp:137] Memory required for data: 473312800
I0117 09:02:56.077292 156614 layer_factory.hpp:77] Creating layer relu3
I0117 09:02:56.077306 156614 net.cpp:84] Creating Layer relu3
I0117 09:02:56.077312 156614 net.cpp:406] relu3 <- conv3
I0117 09:02:56.077323 156614 net.cpp:367] relu3 -> conv3 (in-place)
I0117 09:02:56.077334 156614 net.cpp:122] Setting up relu3
I0117 09:02:56.077402 156614 net.cpp:129] Top shape: 50 384 13 13 (3244800)
I0117 09:02:56.077411 156614 net.cpp:137] Memory required for data: 486292000
I0117 09:02:56.077419 156614 layer_factory.hpp:77] Creating layer conv4
I0117 09:02:56.077450 156614 net.cpp:84] Creating Layer conv4
I0117 09:02:56.077458 156614 net.cpp:406] conv4 <- conv3
I0117 09:02:56.077471 156614 net.cpp:380] conv4 -> conv4
I0117 09:02:56.105377 156614 net.cpp:122] Setting up conv4
I0117 09:02:56.105425 156614 net.cpp:129] Top shape: 50 384 13 13 (3244800)
I0117 09:02:56.105434 156614 net.cpp:137] Memory required for data: 499271200
I0117 09:02:56.105450 156614 layer_factory.hpp:77] Creating layer bn4
I0117 09:02:56.105468 156614 net.cpp:84] Creating Layer bn4
I0117 09:02:56.105479 156614 net.cpp:406] bn4 <- conv4
I0117 09:02:56.105495 156614 net.cpp:367] bn4 -> conv4 (in-place)
I0117 09:02:56.105741 156614 net.cpp:122] Setting up bn4
I0117 09:02:56.105754 156614 net.cpp:129] Top shape: 50 384 13 13 (3244800)
I0117 09:02:56.105762 156614 net.cpp:137] Memory required for data: 512250400
I0117 09:02:56.105777 156614 layer_factory.hpp:77] Creating layer scale4
I0117 09:02:56.105788 156614 net.cpp:84] Creating Layer scale4
I0117 09:02:56.105796 156614 net.cpp:406] scale4 <- conv4
I0117 09:02:56.105818 156614 net.cpp:367] scale4 -> conv4 (in-place)
I0117 09:02:56.105878 156614 layer_factory.hpp:77] Creating layer scale4
I0117 09:02:56.106070 156614 net.cpp:122] Setting up scale4
I0117 09:02:56.106089 156614 net.cpp:129] Top shape: 50 384 13 13 (3244800)
I0117 09:02:56.106096 156614 net.cpp:137] Memory required for data: 525229600
I0117 09:02:56.106108 156614 layer_factory.hpp:77] Creating layer relu4
I0117 09:02:56.106119 156614 net.cpp:84] Creating Layer relu4
I0117 09:02:56.106130 156614 net.cpp:406] relu4 <- conv4
I0117 09:02:56.106140 156614 net.cpp:367] relu4 -> conv4 (in-place)
I0117 09:02:56.106151 156614 net.cpp:122] Setting up relu4
I0117 09:02:56.106160 156614 net.cpp:129] Top shape: 50 384 13 13 (3244800)
I0117 09:02:56.106168 156614 net.cpp:137] Memory required for data: 538208800
I0117 09:02:56.106174 156614 layer_factory.hpp:77] Creating layer conv5
I0117 09:02:56.106196 156614 net.cpp:84] Creating Layer conv5
I0117 09:02:56.106205 156614 net.cpp:406] conv5 <- conv4
I0117 09:02:56.106220 156614 net.cpp:380] conv5 -> conv5
I0117 09:02:56.125588 156614 net.cpp:122] Setting up conv5
I0117 09:02:56.125656 156614 net.cpp:129] Top shape: 50 256 13 13 (2163200)
I0117 09:02:56.125672 156614 net.cpp:137] Memory required for data: 546861600
I0117 09:02:56.125705 156614 layer_factory.hpp:77] Creating layer bn5
I0117 09:02:56.125725 156614 net.cpp:84] Creating Layer bn5
I0117 09:02:56.125737 156614 net.cpp:406] bn5 <- conv5
I0117 09:02:56.125758 156614 net.cpp:367] bn5 -> conv5 (in-place)
I0117 09:02:56.126201 156614 net.cpp:122] Setting up bn5
I0117 09:02:56.126226 156614 net.cpp:129] Top shape: 50 256 13 13 (2163200)
I0117 09:02:56.126235 156614 net.cpp:137] Memory required for data: 555514400
I0117 09:02:56.126267 156614 layer_factory.hpp:77] Creating layer scale5
I0117 09:02:56.126286 156614 net.cpp:84] Creating Layer scale5
I0117 09:02:56.126298 156614 net.cpp:406] scale5 <- conv5
I0117 09:02:56.126310 156614 net.cpp:367] scale5 -> conv5 (in-place)
I0117 09:02:56.126407 156614 layer_factory.hpp:77] Creating layer scale5
I0117 09:02:56.126575 156614 net.cpp:122] Setting up scale5
I0117 09:02:56.126595 156614 net.cpp:129] Top shape: 50 256 13 13 (2163200)
I0117 09:02:56.126602 156614 net.cpp:137] Memory required for data: 564167200
I0117 09:02:56.126619 156614 layer_factory.hpp:77] Creating layer relu5
I0117 09:02:56.126634 156614 net.cpp:84] Creating Layer relu5
I0117 09:02:56.126646 156614 net.cpp:406] relu5 <- conv5
I0117 09:02:56.126657 156614 net.cpp:367] relu5 -> conv5 (in-place)
I0117 09:02:56.126668 156614 net.cpp:122] Setting up relu5
I0117 09:02:56.126682 156614 net.cpp:129] Top shape: 50 256 13 13 (2163200)
I0117 09:02:56.126690 156614 net.cpp:137] Memory required for data: 572820000
I0117 09:02:56.126698 156614 layer_factory.hpp:77] Creating layer pool5
I0117 09:02:56.126768 156614 net.cpp:84] Creating Layer pool5
I0117 09:02:56.126778 156614 net.cpp:406] pool5 <- conv5
I0117 09:02:56.126793 156614 net.cpp:380] pool5 -> pool5
I0117 09:02:56.126864 156614 net.cpp:122] Setting up pool5
I0117 09:02:56.126885 156614 net.cpp:129] Top shape: 50 256 6 6 (460800)
I0117 09:02:56.126896 156614 net.cpp:137] Memory required for data: 574663200
I0117 09:02:56.126910 156614 layer_factory.hpp:77] Creating layer fc6
I0117 09:02:56.126929 156614 net.cpp:84] Creating Layer fc6
I0117 09:02:56.126941 156614 net.cpp:406] fc6 <- pool5
I0117 09:02:56.126963 156614 net.cpp:380] fc6 -> fc6
I0117 09:02:56.870329 156614 net.cpp:122] Setting up fc6
I0117 09:02:56.870412 156614 net.cpp:129] Top shape: 50 4096 (204800)
I0117 09:02:56.870420 156614 net.cpp:137] Memory required for data: 575482400
I0117 09:02:56.870443 156614 layer_factory.hpp:77] Creating layer bn6
I0117 09:02:56.870467 156614 net.cpp:84] Creating Layer bn6
I0117 09:02:56.870479 156614 net.cpp:406] bn6 <- fc6
I0117 09:02:56.870499 156614 net.cpp:367] bn6 -> fc6 (in-place)
I0117 09:02:56.870759 156614 net.cpp:122] Setting up bn6
I0117 09:02:56.870774 156614 net.cpp:129] Top shape: 50 4096 (204800)
I0117 09:02:56.870780 156614 net.cpp:137] Memory required for data: 576301600
I0117 09:02:56.870792 156614 layer_factory.hpp:77] Creating layer scale6
I0117 09:02:56.870803 156614 net.cpp:84] Creating Layer scale6
I0117 09:02:56.870811 156614 net.cpp:406] scale6 <- fc6
I0117 09:02:56.870818 156614 net.cpp:367] scale6 -> fc6 (in-place)
I0117 09:02:56.870879 156614 layer_factory.hpp:77] Creating layer scale6
I0117 09:02:56.871055 156614 net.cpp:122] Setting up scale6
I0117 09:02:56.871069 156614 net.cpp:129] Top shape: 50 4096 (204800)
I0117 09:02:56.871074 156614 net.cpp:137] Memory required for data: 577120800
I0117 09:02:56.871083 156614 layer_factory.hpp:77] Creating layer relu6
I0117 09:02:56.871093 156614 net.cpp:84] Creating Layer relu6
I0117 09:02:56.871104 156614 net.cpp:406] relu6 <- fc6
I0117 09:02:56.871114 156614 net.cpp:367] relu6 -> fc6 (in-place)
I0117 09:02:56.871125 156614 net.cpp:122] Setting up relu6
I0117 09:02:56.871132 156614 net.cpp:129] Top shape: 50 4096 (204800)
I0117 09:02:56.871139 156614 net.cpp:137] Memory required for data: 577940000
I0117 09:02:56.871145 156614 layer_factory.hpp:77] Creating layer drop6
I0117 09:02:56.871157 156614 net.cpp:84] Creating Layer drop6
I0117 09:02:56.871165 156614 net.cpp:406] drop6 <- fc6
I0117 09:02:56.871176 156614 net.cpp:367] drop6 -> fc6 (in-place)
I0117 09:02:56.871206 156614 net.cpp:122] Setting up drop6
I0117 09:02:56.871217 156614 net.cpp:129] Top shape: 50 4096 (204800)
I0117 09:02:56.871224 156614 net.cpp:137] Memory required for data: 578759200
I0117 09:02:56.871232 156614 layer_factory.hpp:77] Creating layer fc7
I0117 09:02:56.871248 156614 net.cpp:84] Creating Layer fc7
I0117 09:02:56.871255 156614 net.cpp:406] fc7 <- fc6
I0117 09:02:56.871266 156614 net.cpp:380] fc7 -> fc7
I0117 09:02:57.211343 156614 net.cpp:122] Setting up fc7
I0117 09:02:57.211421 156614 net.cpp:129] Top shape: 50 4096 (204800)
I0117 09:02:57.211431 156614 net.cpp:137] Memory required for data: 579578400
I0117 09:02:57.211458 156614 layer_factory.hpp:77] Creating layer bn7
I0117 09:02:57.211503 156614 net.cpp:84] Creating Layer bn7
I0117 09:02:57.211516 156614 net.cpp:406] bn7 <- fc7
I0117 09:02:57.211536 156614 net.cpp:367] bn7 -> fc7 (in-place)
I0117 09:02:57.211961 156614 net.cpp:122] Setting up bn7
I0117 09:02:57.211988 156614 net.cpp:129] Top shape: 50 4096 (204800)
I0117 09:02:57.212000 156614 net.cpp:137] Memory required for data: 580397600
I0117 09:02:57.212011 156614 layer_factory.hpp:77] Creating layer scale7
I0117 09:02:57.212070 156614 net.cpp:84] Creating Layer scale7
I0117 09:02:57.212088 156614 net.cpp:406] scale7 <- fc7
I0117 09:02:57.212096 156614 net.cpp:367] scale7 -> fc7 (in-place)
I0117 09:02:57.212208 156614 layer_factory.hpp:77] Creating layer scale7
I0117 09:02:57.212478 156614 net.cpp:122] Setting up scale7
I0117 09:02:57.212509 156614 net.cpp:129] Top shape: 50 4096 (204800)
I0117 09:02:57.212564 156614 net.cpp:137] Memory required for data: 581216800
I0117 09:02:57.212605 156614 layer_factory.hpp:77] Creating layer relu7
I0117 09:02:57.212635 156614 net.cpp:84] Creating Layer relu7
I0117 09:02:57.212642 156614 net.cpp:406] relu7 <- fc7
I0117 09:02:57.212669 156614 net.cpp:367] relu7 -> fc7 (in-place)
I0117 09:02:57.212695 156614 net.cpp:122] Setting up relu7
I0117 09:02:57.212718 156614 net.cpp:129] Top shape: 50 4096 (204800)
I0117 09:02:57.212735 156614 net.cpp:137] Memory required for data: 582036000
I0117 09:02:57.212751 156614 layer_factory.hpp:77] Creating layer drop7
I0117 09:02:57.212776 156614 net.cpp:84] Creating Layer drop7
I0117 09:02:57.212795 156614 net.cpp:406] drop7 <- fc7
I0117 09:02:57.212815 156614 net.cpp:367] drop7 -> fc7 (in-place)
I0117 09:02:57.212910 156614 net.cpp:122] Setting up drop7
I0117 09:02:57.212934 156614 net.cpp:129] Top shape: 50 4096 (204800)
I0117 09:02:57.212954 156614 net.cpp:137] Memory required for data: 582855200
I0117 09:02:57.212970 156614 layer_factory.hpp:77] Creating layer fc8
I0117 09:02:57.213006 156614 net.cpp:84] Creating Layer fc8
I0117 09:02:57.213023 156614 net.cpp:406] fc8 <- fc7
I0117 09:02:57.213052 156614 net.cpp:380] fc8 -> fc8
I0117 09:02:57.294528 156614 net.cpp:122] Setting up fc8
I0117 09:02:57.294589 156614 net.cpp:129] Top shape: 50 1000 (50000)
I0117 09:02:57.294598 156614 net.cpp:137] Memory required for data: 583055200
I0117 09:02:57.294618 156614 layer_factory.hpp:77] Creating layer fc8_fc8_0_split
I0117 09:02:57.294641 156614 net.cpp:84] Creating Layer fc8_fc8_0_split
I0117 09:02:57.294651 156614 net.cpp:406] fc8_fc8_0_split <- fc8
I0117 09:02:57.294677 156614 net.cpp:380] fc8_fc8_0_split -> fc8_fc8_0_split_0
I0117 09:02:57.294704 156614 net.cpp:380] fc8_fc8_0_split -> fc8_fc8_0_split_1
I0117 09:02:57.294718 156614 net.cpp:380] fc8_fc8_0_split -> fc8_fc8_0_split_2
I0117 09:02:57.294795 156614 net.cpp:122] Setting up fc8_fc8_0_split
I0117 09:02:57.294808 156614 net.cpp:129] Top shape: 50 1000 (50000)
I0117 09:02:57.294817 156614 net.cpp:129] Top shape: 50 1000 (50000)
I0117 09:02:57.294826 156614 net.cpp:129] Top shape: 50 1000 (50000)
I0117 09:02:57.294832 156614 net.cpp:137] Memory required for data: 583655200
I0117 09:02:57.294839 156614 layer_factory.hpp:77] Creating layer accuracy
I0117 09:02:57.294854 156614 net.cpp:84] Creating Layer accuracy
I0117 09:02:57.294862 156614 net.cpp:406] accuracy <- fc8_fc8_0_split_0
I0117 09:02:57.294872 156614 net.cpp:406] accuracy <- label_data_1_split_0
I0117 09:02:57.294881 156614 net.cpp:380] accuracy -> accuracy
…
