…
I0115 21:18:38.739146 141805 net.cpp:294] The NetState phase (0) differed from the phase (1) specified by a rule in layer accuracy_5
I0115 21:18:38.739542 141805 net.cpp:51] Initializing net from parameters: 
name: "AlexNet-BN"
state {
  phase: TRAIN
  level: 0
  stage: ""
}
layer {
  name: "data"
  type: "Data"
  top: "data"
  top: "label"
  include {
    phase: TRAIN
  }
  transform_param {
    mirror: true
    crop_size: 224
    mean_value: 103.939
    mean_value: 116.779
    mean_value: 123.68
  }
  data_param {
    source: "/home/DATA/imagenet_resize/lmdb_resize/ilsvrc12_train_lmdb"
    batch_size: 256
    backend: LMDB
  }
}
layer {
  name: "conv1"
  type: "Convolution"
  bottom: "data"
  top: "conv1"
  param {
    lr_mult: 1
    decay_mult: 1
  }
  param {
    lr_mult: 2
    decay_mult: 0
  }
  convolution_param {
    num_output: 96
    pad: 2
    kernel_size: 11
    stride: 4
    weight_filler {
      type: "gaussian"
      std: 0.01
    }
    bias_filler {
      type: "constant"
      value: 0
    }
  }
}
layer {
  name: "bn1"
  type: "BatchNorm"
  bottom: "conv1"
  top: "conv1"
}
layer {
  name: "scale1"
  type: "Scale"
  bottom: "conv1"
  top: "conv1"
  scale_param {
    bias_term: true
  }
}
layer {
  name: "relu1"
  type: "ReLU"
  bottom: "conv1"
  top: "conv1"
}
layer {
  name: "pool1"
  type: "Pooling"
  bottom: "conv1"
  top: "pool1"
  pooling_param {
    pool: MAX
    kernel_size: 3
    stride: 2
  }
}
layer {
  name: "conv2"
  type: "Convolution"
  bottom: "pool1"
  top: "conv2"
  param {
    lr_mult: 1
    decay_mult: 1
  }
  param {
    lr_mult: 2
    decay_mult: 0
  }
  convolution_param {
    num_output: 256
    pad: 2
    kernel_size: 5
    weight_filler {
      type: "gaussian"
      std: 0.01
    }
    bias_filler {
      type: "constant"
      value: 0.1
    }
  }
}
layer {
  name: "bn2"
  type: "BatchNorm"
  bottom: "conv2"
  top: "conv2"
}
layer {
  name: "scale2"
  type: "Scale"
  bottom: "conv2"
  top: "conv2"
  scale_param {
    bias_term: true
  }
}
layer {
  name: "relu2"
  type: "ReLU"
  bottom: "conv2"
  top: "conv2"
}
layer {
  name: "pool2"
  type: "Pooling"
  bottom: "conv2"
  top: "pool2"
  pooling_param {
    pool: MAX
    kernel_size: 3
    stride: 2
  }
}
layer {
  name: "conv3"
  type: "Convolution"
  bottom: "pool2"
  top: "conv3"
  param {
    lr_mult: 1
    decay_mult: 1
  }
  param {
    lr_mult: 2
    decay_mult: 0
  }
  convolution_param {
    num_output: 384
    pad: 1
    kernel_size: 3
    weight_filler {
      type: "gaussian"
      std: 0.01
    }
    bias_filler {
      type: "constant"
      value: 0
    }
  }
}
layer {
  name: "bn3"
  type: "BatchNorm"
  bottom: "conv3"
  top: "conv3"
}
layer {
  name: "scale3"
  type: "Scale"
  bottom: "conv3"
  top: "conv3"
  scale_param {
    bias_term: true
  }
}
layer {
  name: "relu3"
  type: "ReLU"
  bottom: "conv3"
  top: "conv3"
}
layer {
  name: "conv4"
  type: "Convolution"
  bottom: "conv3"
  top: "conv4"
  param {
    lr_mult: 1
    decay_mult: 1
  }
  param {
    lr_mult: 2
    decay_mult: 0
  }
  convolution_param {
    num_output: 384
    pad: 1
    kernel_size: 3
    weight_filler {
      type: "gaussian"
      std: 0.01
    }
    bias_filler {
      type: "constant"
      value: 0.1
    }
  }
}
layer {
  name: "bn4"
  type: "BatchNorm"
  bottom: "conv4"
  top: "conv4"
}
layer {
  name: "scale4"
  type: "Scale"
  bottom: "conv4"
  top: "conv4"
  scale_param {
    bias_term: true
  }
}
layer {
  name: "relu4"
  type: "ReLU"
  bottom: "conv4"
  top: "conv4"
}
layer {
  name: "conv5"
  type: "Convolution"
  bottom: "conv4"
  top: "conv5"
  param {
    lr_mult: 1
    decay_mult: 1
  }
  param {
    lr_mult: 2
    decay_mult: 0
  }
  convolution_param {
    num_output: 256
    pad: 1
    kernel_size: 3
    weight_filler {
      type: "gaussian"
      std: 0.01
    }
    bias_filler {
      type: "constant"
      value: 0.1
    }
  }
}
layer {
  name: "bn5"
  type: "BatchNorm"
  bottom: "conv5"
  top: "conv5"
}
layer {
  name: "scale5"
  type: "Scale"
  bottom: "conv5"
  top: "conv5"
  scale_param {
    bias_term: true
  }
}
layer {
  name: "relu5"
  type: "ReLU"
  bottom: "conv5"
  top: "conv5"
}
layer {
  name: "pool5"
  type: "Pooling"
  bottom: "conv5"
  top: "pool5"
  pooling_param {
    pool: MAX
    kernel_size: 3
    stride: 2
  }
}
layer {
  name: "fc6"
  type: "InnerProduct"
  bottom: "pool5"
  top: "fc6"
  param {
    lr_mult: 1
    decay_mult: 1
  }
  param {
    lr_mult: 2
    decay_mult: 0
  }
  inner_product_param {
    num_output: 4096
    weight_filler {
      type: "gaussian"
      std: 0.005
    }
    bias_filler {
      type: "constant"
      value: 0.1
    }
  }
}
layer {
  name: "bn6"
  type: "BatchNorm"
  bottom: "fc6"
  top: "fc6"
}
layer {
  name: "scale6"
  type: "Scale"
  bottom: "fc6"
  top: "fc6"
  scale_param {
    bias_term: true
  }
}
layer {
  name: "relu6"
  type: "ReLU"
  bottom: "fc6"
  top: "fc6"
}
layer {
  name: "drop6"
  type: "Dropout"
  bottom: "fc6"
  top: "fc6"
  dropout_param {
    dropout_ratio: 0.5
  }
}
layer {
  name: "fc7"
  type: "InnerProduct"
  bottom: "fc6"
  top: "fc7"
  param {
    lr_mult: 1
    decay_mult: 1
  }
  param {
    lr_mult: 2
    decay_mult: 0
  }
  inner_product_param {
    num_output: 4096
    weight_filler {
      type: "gaussian"
      std: 0.005
    }
    bias_filler {
      type: "constant"
      value: 0.1
    }
  }
}
layer {
  name: "bn7"
  type: "BatchNorm"
  bottom: "fc7"
  top: "fc7"
}
layer {
  name: "scale7"
  type: "Scale"
  bottom: "fc7"
  top: "fc7"
  scale_param {
    bias_term: true
  }
}
layer {
  name: "relu7"
  type: "ReLU"
  bottom: "fc7"
  top: "fc7"
}
layer {
  name: "drop7"
  type: "Dropout"
  bottom: "fc7"
  top: "fc7"
  dropout_param {
    dropout_ratio: 0.5
  }
}
layer {
  name: "fc8"
  type: "InnerProduct"
  bottom: "fc7"
  top: "fc8"
  param {
    lr_mult: 1
    decay_mult: 1
  }
  param {
    lr_mult: 2
    decay_mult: 0
  }
  inner_product_param {
    num_output: 1000
    weight_filler {
      type: "gaussian"
      std: 0.01
    }
    bias_filler {
      type: "constant"
      value: 0
    }
  }
}
layer {
  name: "accuracy_5_TRAIN"
  type: "Accuracy"
  bottom: "fc8"
  bottom: "label"
  top: "accuracy_5_TRAIN"
  include {
    phase: TRAIN
  }
  accuracy_param {
    top_k: 5
  }
}
layer {
  name: "loss"
  type: "SoftmaxWithLoss"
  bottom: "fc8"
  bottom: "label"
  top: "loss"
}
I0115 21:18:38.739817 141805 layer_factory.hpp:77] Creating layer data
I0115 21:18:38.740015 141805 db_lmdb.cpp:35] Opened lmdb /home/DATA/imagenet_resize/lmdb_resize/ilsvrc12_train_lmdb
I0115 21:18:38.740110 141805 net.cpp:84] Creating Layer data
I0115 21:18:38.740128 141805 net.cpp:380] data -> data
I0115 21:18:38.740172 141805 net.cpp:380] data -> label
I0115 21:18:38.742133 141805 data_layer.cpp:45] output data size: 256,3,224,224
I0115 21:18:39.275781 141805 net.cpp:122] Setting up data
I0115 21:18:39.275897 141805 net.cpp:129] Top shape: 256 3 224 224 (38535168)
I0115 21:18:39.275921 141805 net.cpp:129] Top shape: 256 (256)
I0115 21:18:39.275941 141805 net.cpp:137] Memory required for data: 154141696
I0115 21:18:39.275980 141805 layer_factory.hpp:77] Creating layer label_data_1_split
I0115 21:18:39.276036 141805 net.cpp:84] Creating Layer label_data_1_split
I0115 21:18:39.276067 141805 net.cpp:406] label_data_1_split <- label
I0115 21:18:39.276211 141805 net.cpp:380] label_data_1_split -> label_data_1_split_0
I0115 21:18:39.276273 141805 net.cpp:380] label_data_1_split -> label_data_1_split_1
I0115 21:18:39.276428 141805 net.cpp:122] Setting up label_data_1_split
I0115 21:18:39.276458 141805 net.cpp:129] Top shape: 256 (256)
I0115 21:18:39.276479 141805 net.cpp:129] Top shape: 256 (256)
I0115 21:18:39.276491 141805 net.cpp:137] Memory required for data: 154143744
I0115 21:18:39.276505 141805 layer_factory.hpp:77] Creating layer conv1
I0115 21:18:39.276557 141805 net.cpp:84] Creating Layer conv1
I0115 21:18:39.276567 141805 net.cpp:406] conv1 <- data
I0115 21:18:39.276584 141805 net.cpp:380] conv1 -> conv1
I0115 21:18:39.304939 141805 net.cpp:122] Setting up conv1
I0115 21:18:39.304989 141805 net.cpp:129] Top shape: 256 96 55 55 (74342400)
I0115 21:18:39.304997 141805 net.cpp:137] Memory required for data: 451513344
I0115 21:18:39.305057 141805 layer_factory.hpp:77] Creating layer bn1
I0115 21:18:39.305081 141805 net.cpp:84] Creating Layer bn1
I0115 21:18:39.305099 141805 net.cpp:406] bn1 <- conv1
I0115 21:18:39.305126 141805 net.cpp:367] bn1 -> conv1 (in-place)
I0115 21:18:39.305562 141805 net.cpp:122] Setting up bn1
I0115 21:18:39.305598 141805 net.cpp:129] Top shape: 256 96 55 55 (74342400)
I0115 21:18:39.305614 141805 net.cpp:137] Memory required for data: 748882944
I0115 21:18:39.305652 141805 layer_factory.hpp:77] Creating layer scale1
I0115 21:18:39.305703 141805 net.cpp:84] Creating Layer scale1
I0115 21:18:39.305713 141805 net.cpp:406] scale1 <- conv1
I0115 21:18:39.305737 141805 net.cpp:367] scale1 -> conv1 (in-place)
I0115 21:18:39.305879 141805 layer_factory.hpp:77] Creating layer scale1
I0115 21:18:39.306289 141805 net.cpp:122] Setting up scale1
I0115 21:18:39.306314 141805 net.cpp:129] Top shape: 256 96 55 55 (74342400)
I0115 21:18:39.306326 141805 net.cpp:137] Memory required for data: 1046252544
I0115 21:18:39.306360 141805 layer_factory.hpp:77] Creating layer relu1
I0115 21:18:39.306393 141805 net.cpp:84] Creating Layer relu1
I0115 21:18:39.306403 141805 net.cpp:406] relu1 <- conv1
I0115 21:18:39.306427 141805 net.cpp:367] relu1 -> conv1 (in-place)
I0115 21:18:39.306448 141805 net.cpp:122] Setting up relu1
I0115 21:18:39.306473 141805 net.cpp:129] Top shape: 256 96 55 55 (74342400)
I0115 21:18:39.306483 141805 net.cpp:137] Memory required for data: 1343622144
I0115 21:18:39.306496 141805 layer_factory.hpp:77] Creating layer pool1
I0115 21:18:39.306530 141805 net.cpp:84] Creating Layer pool1
I0115 21:18:39.306547 141805 net.cpp:406] pool1 <- conv1
I0115 21:18:39.306572 141805 net.cpp:380] pool1 -> pool1
I0115 21:18:39.306723 141805 net.cpp:122] Setting up pool1
I0115 21:18:39.306759 141805 net.cpp:129] Top shape: 256 96 27 27 (17915904)
I0115 21:18:39.306773 141805 net.cpp:137] Memory required for data: 1415285760
I0115 21:18:39.306793 141805 layer_factory.hpp:77] Creating layer conv2
I0115 21:18:39.306830 141805 net.cpp:84] Creating Layer conv2
I0115 21:18:39.306854 141805 net.cpp:406] conv2 <- pool1
I0115 21:18:39.306880 141805 net.cpp:380] conv2 -> conv2
I0115 21:18:39.321547 141805 net.cpp:122] Setting up conv2
I0115 21:18:39.321571 141805 net.cpp:129] Top shape: 256 256 27 27 (47775744)
I0115 21:18:39.321583 141805 net.cpp:137] Memory required for data: 1606388736
I0115 21:18:39.321599 141805 layer_factory.hpp:77] Creating layer bn2
I0115 21:18:39.321611 141805 net.cpp:84] Creating Layer bn2
I0115 21:18:39.321620 141805 net.cpp:406] bn2 <- conv2
I0115 21:18:39.321631 141805 net.cpp:367] bn2 -> conv2 (in-place)
I0115 21:18:39.321847 141805 net.cpp:122] Setting up bn2
I0115 21:18:39.321862 141805 net.cpp:129] Top shape: 256 256 27 27 (47775744)
I0115 21:18:39.321867 141805 net.cpp:137] Memory required for data: 1797491712
I0115 21:18:39.321879 141805 layer_factory.hpp:77] Creating layer scale2
I0115 21:18:39.321888 141805 net.cpp:84] Creating Layer scale2
I0115 21:18:39.321897 141805 net.cpp:406] scale2 <- conv2
I0115 21:18:39.321905 141805 net.cpp:367] scale2 -> conv2 (in-place)
I0115 21:18:39.321967 141805 layer_factory.hpp:77] Creating layer scale2
I0115 21:18:39.322144 141805 net.cpp:122] Setting up scale2
I0115 21:18:39.322157 141805 net.cpp:129] Top shape: 256 256 27 27 (47775744)
I0115 21:18:39.322170 141805 net.cpp:137] Memory required for data: 1988594688
I0115 21:18:39.322178 141805 layer_factory.hpp:77] Creating layer relu2
I0115 21:18:39.322187 141805 net.cpp:84] Creating Layer relu2
I0115 21:18:39.322214 141805 net.cpp:406] relu2 <- conv2
I0115 21:18:39.322232 141805 net.cpp:367] relu2 -> conv2 (in-place)
I0115 21:18:39.322240 141805 net.cpp:122] Setting up relu2
I0115 21:18:39.322247 141805 net.cpp:129] Top shape: 256 256 27 27 (47775744)
I0115 21:18:39.322252 141805 net.cpp:137] Memory required for data: 2179697664
I0115 21:18:39.322257 141805 layer_factory.hpp:77] Creating layer pool2
I0115 21:18:39.322268 141805 net.cpp:84] Creating Layer pool2
I0115 21:18:39.322273 141805 net.cpp:406] pool2 <- conv2
I0115 21:18:39.322281 141805 net.cpp:380] pool2 -> pool2
I0115 21:18:39.322332 141805 net.cpp:122] Setting up pool2
I0115 21:18:39.322353 141805 net.cpp:129] Top shape: 256 256 13 13 (11075584)
I0115 21:18:39.322358 141805 net.cpp:137] Memory required for data: 2224000000
I0115 21:18:39.322365 141805 layer_factory.hpp:77] Creating layer conv3
I0115 21:18:39.322377 141805 net.cpp:84] Creating Layer conv3
I0115 21:18:39.322383 141805 net.cpp:406] conv3 <- pool2
I0115 21:18:39.322393 141805 net.cpp:380] conv3 -> conv3
I0115 21:18:39.343936 141805 net.cpp:122] Setting up conv3
I0115 21:18:39.343971 141805 net.cpp:129] Top shape: 256 384 13 13 (16613376)
I0115 21:18:39.343976 141805 net.cpp:137] Memory required for data: 2290453504
I0115 21:18:39.343986 141805 layer_factory.hpp:77] Creating layer bn3
I0115 21:18:39.343998 141805 net.cpp:84] Creating Layer bn3
I0115 21:18:39.344005 141805 net.cpp:406] bn3 <- conv3
I0115 21:18:39.344014 141805 net.cpp:367] bn3 -> conv3 (in-place)
I0115 21:18:39.344231 141805 net.cpp:122] Setting up bn3
I0115 21:18:39.344247 141805 net.cpp:129] Top shape: 256 384 13 13 (16613376)
I0115 21:18:39.344295 141805 net.cpp:137] Memory required for data: 2356907008
I0115 21:18:39.344314 141805 layer_factory.hpp:77] Creating layer scale3
I0115 21:18:39.344326 141805 net.cpp:84] Creating Layer scale3
I0115 21:18:39.344331 141805 net.cpp:406] scale3 <- conv3
I0115 21:18:39.344341 141805 net.cpp:367] scale3 -> conv3 (in-place)
I0115 21:18:39.344388 141805 layer_factory.hpp:77] Creating layer scale3
I0115 21:18:39.344516 141805 net.cpp:122] Setting up scale3
I0115 21:18:39.344528 141805 net.cpp:129] Top shape: 256 384 13 13 (16613376)
I0115 21:18:39.344533 141805 net.cpp:137] Memory required for data: 2423360512
I0115 21:18:39.344542 141805 layer_factory.hpp:77] Creating layer relu3
I0115 21:18:39.344550 141805 net.cpp:84] Creating Layer relu3
I0115 21:18:39.344555 141805 net.cpp:406] relu3 <- conv3
I0115 21:18:39.344570 141805 net.cpp:367] relu3 -> conv3 (in-place)
I0115 21:18:39.344578 141805 net.cpp:122] Setting up relu3
I0115 21:18:39.344585 141805 net.cpp:129] Top shape: 256 384 13 13 (16613376)
I0115 21:18:39.344593 141805 net.cpp:137] Memory required for data: 2489814016
I0115 21:18:39.344609 141805 layer_factory.hpp:77] Creating layer conv4
I0115 21:18:39.344630 141805 net.cpp:84] Creating Layer conv4
I0115 21:18:39.344647 141805 net.cpp:406] conv4 <- conv3
I0115 21:18:39.344658 141805 net.cpp:380] conv4 -> conv4
I0115 21:18:39.383415 141805 net.cpp:122] Setting up conv4
I0115 21:18:39.383514 141805 net.cpp:129] Top shape: 256 384 13 13 (16613376)
I0115 21:18:39.383536 141805 net.cpp:137] Memory required for data: 2556267520
I0115 21:18:39.383584 141805 layer_factory.hpp:77] Creating layer bn4
I0115 21:18:39.383630 141805 net.cpp:84] Creating Layer bn4
I0115 21:18:39.383652 141805 net.cpp:406] bn4 <- conv4
I0115 21:18:39.383687 141805 net.cpp:367] bn4 -> conv4 (in-place)
I0115 21:18:39.384414 141805 net.cpp:122] Setting up bn4
I0115 21:18:39.384444 141805 net.cpp:129] Top shape: 256 384 13 13 (16613376)
I0115 21:18:39.384460 141805 net.cpp:137] Memory required for data: 2622721024
I0115 21:18:39.384516 141805 layer_factory.hpp:77] Creating layer scale4
I0115 21:18:39.384626 141805 net.cpp:84] Creating Layer scale4
I0115 21:18:39.384644 141805 net.cpp:406] scale4 <- conv4
I0115 21:18:39.384671 141805 net.cpp:367] scale4 -> conv4 (in-place)
I0115 21:18:39.384804 141805 layer_factory.hpp:77] Creating layer scale4
I0115 21:18:39.385210 141805 net.cpp:122] Setting up scale4
I0115 21:18:39.385246 141805 net.cpp:129] Top shape: 256 384 13 13 (16613376)
I0115 21:18:39.385269 141805 net.cpp:137] Memory required for data: 2689174528
I0115 21:18:39.385303 141805 layer_factory.hpp:77] Creating layer relu4
I0115 21:18:39.385342 141805 net.cpp:84] Creating Layer relu4
I0115 21:18:39.385362 141805 net.cpp:406] relu4 <- conv4
I0115 21:18:39.385387 141805 net.cpp:367] relu4 -> conv4 (in-place)
I0115 21:18:39.385418 141805 net.cpp:122] Setting up relu4
I0115 21:18:39.385435 141805 net.cpp:129] Top shape: 256 384 13 13 (16613376)
I0115 21:18:39.385447 141805 net.cpp:137] Memory required for data: 2755628032
I0115 21:18:39.385468 141805 layer_factory.hpp:77] Creating layer conv5
I0115 21:18:39.385519 141805 net.cpp:84] Creating Layer conv5
I0115 21:18:39.385540 141805 net.cpp:406] conv5 <- conv4
I0115 21:18:39.385576 141805 net.cpp:380] conv5 -> conv5
I0115 21:18:39.413359 141805 net.cpp:122] Setting up conv5
I0115 21:18:39.413419 141805 net.cpp:129] Top shape: 256 256 13 13 (11075584)
I0115 21:18:39.413427 141805 net.cpp:137] Memory required for data: 2799930368
I0115 21:18:39.413460 141805 layer_factory.hpp:77] Creating layer bn5
I0115 21:18:39.413497 141805 net.cpp:84] Creating Layer bn5
I0115 21:18:39.413522 141805 net.cpp:406] bn5 <- conv5
I0115 21:18:39.413547 141805 net.cpp:367] bn5 -> conv5 (in-place)
I0115 21:18:39.414078 141805 net.cpp:122] Setting up bn5
I0115 21:18:39.414098 141805 net.cpp:129] Top shape: 256 256 13 13 (11075584)
I0115 21:18:39.414106 141805 net.cpp:137] Memory required for data: 2844232704
I0115 21:18:39.414170 141805 layer_factory.hpp:77] Creating layer scale5
I0115 21:18:39.414199 141805 net.cpp:84] Creating Layer scale5
I0115 21:18:39.414211 141805 net.cpp:406] scale5 <- conv5
I0115 21:18:39.414235 141805 net.cpp:367] scale5 -> conv5 (in-place)
I0115 21:18:39.414350 141805 layer_factory.hpp:77] Creating layer scale5
I0115 21:18:39.414729 141805 net.cpp:122] Setting up scale5
I0115 21:18:39.414758 141805 net.cpp:129] Top shape: 256 256 13 13 (11075584)
I0115 21:18:39.414777 141805 net.cpp:137] Memory required for data: 2888535040
I0115 21:18:39.414803 141805 layer_factory.hpp:77] Creating layer relu5
I0115 21:18:39.414839 141805 net.cpp:84] Creating Layer relu5
I0115 21:18:39.414856 141805 net.cpp:406] relu5 <- conv5
I0115 21:18:39.414876 141805 net.cpp:367] relu5 -> conv5 (in-place)
I0115 21:18:39.414913 141805 net.cpp:122] Setting up relu5
I0115 21:18:39.414935 141805 net.cpp:129] Top shape: 256 256 13 13 (11075584)
I0115 21:18:39.414949 141805 net.cpp:137] Memory required for data: 2932837376
I0115 21:18:39.414968 141805 layer_factory.hpp:77] Creating layer pool5
I0115 21:18:39.414999 141805 net.cpp:84] Creating Layer pool5
I0115 21:18:39.415011 141805 net.cpp:406] pool5 <- conv5
I0115 21:18:39.415037 141805 net.cpp:380] pool5 -> pool5
I0115 21:18:39.415143 141805 net.cpp:122] Setting up pool5
I0115 21:18:39.415176 141805 net.cpp:129] Top shape: 256 256 6 6 (2359296)
I0115 21:18:39.415192 141805 net.cpp:137] Memory required for data: 2942274560
I0115 21:18:39.415208 141805 layer_factory.hpp:77] Creating layer fc6
I0115 21:18:39.415244 141805 net.cpp:84] Creating Layer fc6
I0115 21:18:39.415259 141805 net.cpp:406] fc6 <- pool5
I0115 21:18:39.415293 141805 net.cpp:380] fc6 -> fc6
I0115 21:18:40.219774 141805 net.cpp:122] Setting up fc6
I0115 21:18:40.219859 141805 net.cpp:129] Top shape: 256 4096 (1048576)
I0115 21:18:40.219877 141805 net.cpp:137] Memory required for data: 2946468864
I0115 21:18:40.219907 141805 layer_factory.hpp:77] Creating layer bn6
I0115 21:18:40.219928 141805 net.cpp:84] Creating Layer bn6
I0115 21:18:40.219936 141805 net.cpp:406] bn6 <- fc6
I0115 21:18:40.219954 141805 net.cpp:367] bn6 -> fc6 (in-place)
I0115 21:18:40.220336 141805 net.cpp:122] Setting up bn6
I0115 21:18:40.220357 141805 net.cpp:129] Top shape: 256 4096 (1048576)
I0115 21:18:40.220367 141805 net.cpp:137] Memory required for data: 2950663168
I0115 21:18:40.220389 141805 layer_factory.hpp:77] Creating layer scale6
I0115 21:18:40.220413 141805 net.cpp:84] Creating Layer scale6
I0115 21:18:40.220427 141805 net.cpp:406] scale6 <- fc6
I0115 21:18:40.220441 141805 net.cpp:367] scale6 -> fc6 (in-place)
I0115 21:18:40.220543 141805 layer_factory.hpp:77] Creating layer scale6
I0115 21:18:40.220821 141805 net.cpp:122] Setting up scale6
I0115 21:18:40.220844 141805 net.cpp:129] Top shape: 256 4096 (1048576)
I0115 21:18:40.220852 141805 net.cpp:137] Memory required for data: 2954857472
I0115 21:18:40.220872 141805 layer_factory.hpp:77] Creating layer relu6
I0115 21:18:40.220916 141805 net.cpp:84] Creating Layer relu6
I0115 21:18:40.220928 141805 net.cpp:406] relu6 <- fc6
I0115 21:18:40.220942 141805 net.cpp:367] relu6 -> fc6 (in-place)
I0115 21:18:40.220952 141805 net.cpp:122] Setting up relu6
I0115 21:18:40.220964 141805 net.cpp:129] Top shape: 256 4096 (1048576)
I0115 21:18:40.220974 141805 net.cpp:137] Memory required for data: 2959051776
I0115 21:18:40.220999 141805 layer_factory.hpp:77] Creating layer drop6
I0115 21:18:40.221020 141805 net.cpp:84] Creating Layer drop6
I0115 21:18:40.221034 141805 net.cpp:406] drop6 <- fc6
I0115 21:18:40.221053 141805 net.cpp:367] drop6 -> fc6 (in-place)
I0115 21:18:40.221108 141805 net.cpp:122] Setting up drop6
I0115 21:18:40.221128 141805 net.cpp:129] Top shape: 256 4096 (1048576)
I0115 21:18:40.221143 141805 net.cpp:137] Memory required for data: 2963246080
I0115 21:18:40.221155 141805 layer_factory.hpp:77] Creating layer fc7
I0115 21:18:40.221184 141805 net.cpp:84] Creating Layer fc7
I0115 21:18:40.221195 141805 net.cpp:406] fc7 <- fc6
I0115 21:18:40.221213 141805 net.cpp:380] fc7 -> fc7
I0115 21:18:40.527285 141805 net.cpp:122] Setting up fc7
I0115 21:18:40.527343 141805 net.cpp:129] Top shape: 256 4096 (1048576)
I0115 21:18:40.527348 141805 net.cpp:137] Memory required for data: 2967440384
I0115 21:18:40.527366 141805 layer_factory.hpp:77] Creating layer bn7
I0115 21:18:40.527393 141805 net.cpp:84] Creating Layer bn7
I0115 21:18:40.527402 141805 net.cpp:406] bn7 <- fc7
I0115 21:18:40.527417 141805 net.cpp:367] bn7 -> fc7 (in-place)
I0115 21:18:40.527679 141805 net.cpp:122] Setting up bn7
I0115 21:18:40.527693 141805 net.cpp:129] Top shape: 256 4096 (1048576)
I0115 21:18:40.527706 141805 net.cpp:137] Memory required for data: 2971634688
I0115 21:18:40.527726 141805 layer_factory.hpp:77] Creating layer scale7
I0115 21:18:40.527767 141805 net.cpp:84] Creating Layer scale7
I0115 21:18:40.527784 141805 net.cpp:406] scale7 <- fc7
I0115 21:18:40.527792 141805 net.cpp:367] scale7 -> fc7 (in-place)
I0115 21:18:40.527856 141805 layer_factory.hpp:77] Creating layer scale7
I0115 21:18:40.528039 141805 net.cpp:122] Setting up scale7
I0115 21:18:40.528059 141805 net.cpp:129] Top shape: 256 4096 (1048576)
I0115 21:18:40.528071 141805 net.cpp:137] Memory required for data: 2975828992
I0115 21:18:40.528084 141805 layer_factory.hpp:77] Creating layer relu7
I0115 21:18:40.528100 141805 net.cpp:84] Creating Layer relu7
I0115 21:18:40.528107 141805 net.cpp:406] relu7 <- fc7
I0115 21:18:40.528117 141805 net.cpp:367] relu7 -> fc7 (in-place)
I0115 21:18:40.528127 141805 net.cpp:122] Setting up relu7
I0115 21:18:40.528151 141805 net.cpp:129] Top shape: 256 4096 (1048576)
I0115 21:18:40.528162 141805 net.cpp:137] Memory required for data: 2980023296
I0115 21:18:40.528169 141805 layer_factory.hpp:77] Creating layer drop7
I0115 21:18:40.528185 141805 net.cpp:84] Creating Layer drop7
I0115 21:18:40.528201 141805 net.cpp:406] drop7 <- fc7
I0115 21:18:40.528211 141805 net.cpp:367] drop7 -> fc7 (in-place)
I0115 21:18:40.528245 141805 net.cpp:122] Setting up drop7
I0115 21:18:40.528259 141805 net.cpp:129] Top shape: 256 4096 (1048576)
I0115 21:18:40.528267 141805 net.cpp:137] Memory required for data: 2984217600
I0115 21:18:40.528276 141805 layer_factory.hpp:77] Creating layer fc8
I0115 21:18:40.528345 141805 net.cpp:84] Creating Layer fc8
I0115 21:18:40.528355 141805 net.cpp:406] fc8 <- fc7
I0115 21:18:40.528363 141805 net.cpp:380] fc8 -> fc8
I0115 21:18:40.596902 141805 net.cpp:122] Setting up fc8
I0115 21:18:40.596952 141805 net.cpp:129] Top shape: 256 1000 (256000)
I0115 21:18:40.596959 141805 net.cpp:137] Memory required for data: 2985241600
I0115 21:18:40.596976 141805 layer_factory.hpp:77] Creating layer fc8_fc8_0_split
I0115 21:18:40.597013 141805 net.cpp:84] Creating Layer fc8_fc8_0_split
I0115 21:18:40.597023 141805 net.cpp:406] fc8_fc8_0_split <- fc8
I0115 21:18:40.597036 141805 net.cpp:380] fc8_fc8_0_split -> fc8_fc8_0_split_0
I0115 21:18:40.597050 141805 net.cpp:380] fc8_fc8_0_split -> fc8_fc8_0_split_1
I0115 21:18:40.597108 141805 net.cpp:122] Setting up fc8_fc8_0_split
I0115 21:18:40.597121 141805 net.cpp:129] Top shape: 256 1000 (256000)
I0115 21:18:40.597127 141805 net.cpp:129] Top shape: 256 1000 (256000)
I0115 21:18:40.597132 141805 net.cpp:137] Memory required for data: 2987289600
I0115 21:18:40.597137 141805 layer_factory.hpp:77] Creating layer accuracy_5_TRAIN
I0115 21:18:40.597157 141805 net.cpp:84] Creating Layer accuracy_5_TRAIN
I0115 21:18:40.597163 141805 net.cpp:406] accuracy_5_TRAIN <- fc8_fc8_0_split_0
I0115 21:18:40.597172 141805 net.cpp:406] accuracy_5_TRAIN <- label_data_1_split_0
…
I0115 21:18:40.600075 141805 net.cpp:294] The NetState phase (1) differed from the phase (0) specified by a rule in layer accuracy_5_TRAIN
I0115 21:18:40.600361 141805 net.cpp:51] Initializing net from parameters: 
name: "AlexNet-BN"
state {
  phase: TEST
}
layer {
  name: "data"
  type: "Data"
  top: "data"
  top: "label"
  include {
    phase: TEST
  }
  transform_param {
    mirror: false
    crop_size: 224
    mean_value: 103.939
    mean_value: 116.779
    mean_value: 123.68
  }
  data_param {
    source: "/home/DATA/imagenet_resize/lmdb_resize/ilsvrc12_val_lmdb"
    batch_size: 50
    backend: LMDB
  }
}
layer {
  name: "conv1"
  type: "Convolution"
  bottom: "data"
  top: "conv1"
  param {
    lr_mult: 1
    decay_mult: 1
  }
  param {
    lr_mult: 2
    decay_mult: 0
  }
  convolution_param {
    num_output: 96
    pad: 2
    kernel_size: 11
    stride: 4
    weight_filler {
      type: "gaussian"
      std: 0.01
    }
    bias_filler {
      type: "constant"
      value: 0
    }
  }
}
layer {
  name: "bn1"
  type: "BatchNorm"
  bottom: "conv1"
  top: "conv1"
}
layer {
  name: "scale1"
  type: "Scale"
  bottom: "conv1"
  top: "conv1"
  scale_param {
    bias_term: true
  }
}
layer {
  name: "relu1"
  type: "ReLU"
  bottom: "conv1"
  top: "conv1"
}
layer {
  name: "pool1"
  type: "Pooling"
  bottom: "conv1"
  top: "pool1"
  pooling_param {
    pool: MAX
    kernel_size: 3
    stride: 2
  }
}
layer {
  name: "conv2"
  type: "Convolution"
  bottom: "pool1"
  top: "conv2"
  param {
    lr_mult: 1
    decay_mult: 1
  }
  param {
    lr_mult: 2
    decay_mult: 0
  }
  convolution_param {
    num_output: 256
    pad: 2
    kernel_size: 5
    weight_filler {
      type: "gaussian"
      std: 0.01
    }
    bias_filler {
      type: "constant"
      value: 0.1
    }
  }
}
layer {
  name: "bn2"
  type: "BatchNorm"
  bottom: "conv2"
  top: "conv2"
}
layer {
  name: "scale2"
  type: "Scale"
  bottom: "conv2"
  top: "conv2"
  scale_param {
    bias_term: true
  }
}
layer {
  name: "relu2"
  type: "ReLU"
  bottom: "conv2"
  top: "conv2"
}
layer {
  name: "pool2"
  type: "Pooling"
  bottom: "conv2"
  top: "pool2"
  pooling_param {
    pool: MAX
    kernel_size: 3
    stride: 2
  }
}
layer {
  name: "conv3"
  type: "Convolution"
  bottom: "pool2"
  top: "conv3"
  param {
    lr_mult: 1
    decay_mult: 1
  }
  param {
    lr_mult: 2
    decay_mult: 0
  }
  convolution_param {
    num_output: 384
    pad: 1
    kernel_size: 3
    weight_filler {
      type: "gaussian"
      std: 0.01
    }
    bias_filler {
      type: "constant"
      value: 0
    }
  }
}
layer {
  name: "bn3"
  type: "BatchNorm"
  bottom: "conv3"
  top: "conv3"
}
layer {
  name: "scale3"
  type: "Scale"
  bottom: "conv3"
  top: "conv3"
  scale_param {
    bias_term: true
  }
}
layer {
  name: "relu3"
  type: "ReLU"
  bottom: "conv3"
  top: "conv3"
}
layer {
  name: "conv4"
  type: "Convolution"
  bottom: "conv3"
  top: "conv4"
  param {
    lr_mult: 1
    decay_mult: 1
  }
  param {
    lr_mult: 2
    decay_mult: 0
  }
  convolution_param {
    num_output: 384
    pad: 1
    kernel_size: 3
    weight_filler {
      type: "gaussian"
      std: 0.01
    }
    bias_filler {
      type: "constant"
      value: 0.1
    }
  }
}
layer {
  name: "bn4"
  type: "BatchNorm"
  bottom: "conv4"
  top: "conv4"
}
layer {
  name: "scale4"
  type: "Scale"
  bottom: "conv4"
  top: "conv4"
  scale_param {
    bias_term: true
  }
}
layer {
  name: "relu4"
  type: "ReLU"
  bottom: "conv4"
  top: "conv4"
}
layer {
  name: "conv5"
  type: "Convolution"
  bottom: "conv4"
  top: "conv5"
  param {
    lr_mult: 1
    decay_mult: 1
  }
  param {
    lr_mult: 2
    decay_mult: 0
  }
  convolution_param {
    num_output: 256
    pad: 1
    kernel_size: 3
    weight_filler {
      type: "gaussian"
      std: 0.01
    }
    bias_filler {
      type: "constant"
      value: 0.1
    }
  }
}
layer {
  name: "bn5"
  type: "BatchNorm"
  bottom: "conv5"
  top: "conv5"
}
layer {
  name: "scale5"
  type: "Scale"
  bottom: "conv5"
  top: "conv5"
  scale_param {
    bias_term: true
  }
}
layer {
  name: "relu5"
  type: "ReLU"
  bottom: "conv5"
  top: "conv5"
}
layer {
  name: "pool5"
  type: "Pooling"
  bottom: "conv5"
  top: "pool5"
  pooling_param {
    pool: MAX
    kernel_size: 3
    stride: 2
  }
}
layer {
  name: "fc6"
  type: "InnerProduct"
  bottom: "pool5"
  top: "fc6"
  param {
    lr_mult: 1
    decay_mult: 1
  }
  param {
    lr_mult: 2
    decay_mult: 0
  }
  inner_product_param {
    num_output: 4096
    weight_filler {
      type: "gaussian"
      std: 0.005
    }
    bias_filler {
      type: "constant"
      value: 0.1
    }
  }
}
layer {
  name: "bn6"
  type: "BatchNorm"
  bottom: "fc6"
  top: "fc6"
}
layer {
  name: "scale6"
  type: "Scale"
  bottom: "fc6"
  top: "fc6"
  scale_param {
    bias_term: true
  }
}
layer {
  name: "relu6"
  type: "ReLU"
  bottom: "fc6"
  top: "fc6"
}
layer {
  name: "drop6"
  type: "Dropout"
  bottom: "fc6"
  top: "fc6"
  dropout_param {
    dropout_ratio: 0.5
  }
}
layer {
  name: "fc7"
  type: "InnerProduct"
  bottom: "fc6"
  top: "fc7"
  param {
    lr_mult: 1
    decay_mult: 1
  }
  param {
    lr_mult: 2
    decay_mult: 0
  }
  inner_product_param {
    num_output: 4096
    weight_filler {
      type: "gaussian"
      std: 0.005
    }
    bias_filler {
      type: "constant"
      value: 0.1
    }
  }
}
layer {
  name: "bn7"
  type: "BatchNorm"
  bottom: "fc7"
  top: "fc7"
}
layer {
  name: "scale7"
  type: "Scale"
  bottom: "fc7"
  top: "fc7"
  scale_param {
    bias_term: true
  }
}
layer {
  name: "relu7"
  type: "ReLU"
  bottom: "fc7"
  top: "fc7"
}
layer {
  name: "drop7"
  type: "Dropout"
  bottom: "fc7"
  top: "fc7"
  dropout_param {
    dropout_ratio: 0.5
  }
}
layer {
  name: "fc8"
  type: "InnerProduct"
  bottom: "fc7"
  top: "fc8"
  param {
    lr_mult: 1
    decay_mult: 1
  }
  param {
    lr_mult: 2
    decay_mult: 0
  }
  inner_product_param {
    num_output: 1000
    weight_filler {
      type: "gaussian"
      std: 0.01
    }
    bias_filler {
      type: "constant"
      value: 0
    }
  }
}
layer {
  name: "accuracy"
  type: "Accuracy"
  bottom: "fc8"
  bottom: "label"
  top: "accuracy"
  include {
    phase: TEST
  }
}
layer {
  name: "accuracy_5"
  type: "Accuracy"
  bottom: "fc8"
  bottom: "label"
  top: "accuracy_5"
  include {
    phase: TEST
  }
  accuracy_param {
    top_k: 5
  }
}
layer {
  name: "loss"
  type: "SoftmaxWithLoss"
  bottom: "fc8"
  bottom: "label"
  top: "loss"
}
I0115 21:18:40.600597 141805 layer_factory.hpp:77] Creating layer data
I0115 21:18:40.600716 141805 db_lmdb.cpp:35] Opened lmdb /home/DATA/imagenet_resize/lmdb_resize/ilsvrc12_val_lmdb
I0115 21:18:40.600780 141805 net.cpp:84] Creating Layer data
I0115 21:18:40.600792 141805 net.cpp:380] data -> data
I0115 21:18:40.600807 141805 net.cpp:380] data -> label
I0115 21:18:40.601192 141805 data_layer.cpp:45] output data size: 50,3,224,224
I0115 21:18:40.712694 141805 net.cpp:122] Setting up data
I0115 21:18:40.712797 141805 net.cpp:129] Top shape: 50 3 224 224 (7526400)
I0115 21:18:40.712818 141805 net.cpp:129] Top shape: 50 (50)
I0115 21:18:40.712824 141805 net.cpp:137] Memory required for data: 30105800
I0115 21:18:40.712837 141805 layer_factory.hpp:77] Creating layer label_data_1_split
I0115 21:18:40.712879 141805 net.cpp:84] Creating Layer label_data_1_split
I0115 21:18:40.712888 141805 net.cpp:406] label_data_1_split <- label
I0115 21:18:40.712903 141805 net.cpp:380] label_data_1_split -> label_data_1_split_0
I0115 21:18:40.712935 141805 net.cpp:380] label_data_1_split -> label_data_1_split_1
I0115 21:18:40.712947 141805 net.cpp:380] label_data_1_split -> label_data_1_split_2
I0115 21:18:40.713089 141805 net.cpp:122] Setting up label_data_1_split
I0115 21:18:40.713114 141805 net.cpp:129] Top shape: 50 (50)
I0115 21:18:40.713122 141805 net.cpp:129] Top shape: 50 (50)
I0115 21:18:40.713129 141805 net.cpp:129] Top shape: 50 (50)
I0115 21:18:40.713135 141805 net.cpp:137] Memory required for data: 30106400
I0115 21:18:40.713140 141805 layer_factory.hpp:77] Creating layer conv1
I0115 21:18:40.713184 141805 net.cpp:84] Creating Layer conv1
I0115 21:18:40.713194 141805 net.cpp:406] conv1 <- data
I0115 21:18:40.713208 141805 net.cpp:380] conv1 -> conv1
I0115 21:18:40.714102 141805 net.cpp:122] Setting up conv1
I0115 21:18:40.714129 141805 net.cpp:129] Top shape: 50 96 55 55 (14520000)
I0115 21:18:40.714135 141805 net.cpp:137] Memory required for data: 88186400
I0115 21:18:40.714154 141805 layer_factory.hpp:77] Creating layer bn1
I0115 21:18:40.714167 141805 net.cpp:84] Creating Layer bn1
I0115 21:18:40.714174 141805 net.cpp:406] bn1 <- conv1
I0115 21:18:40.714184 141805 net.cpp:367] bn1 -> conv1 (in-place)
I0115 21:18:40.714545 141805 net.cpp:122] Setting up bn1
I0115 21:18:40.714581 141805 net.cpp:129] Top shape: 50 96 55 55 (14520000)
I0115 21:18:40.714588 141805 net.cpp:137] Memory required for data: 146266400
I0115 21:18:40.714607 141805 layer_factory.hpp:77] Creating layer scale1
I0115 21:18:40.714623 141805 net.cpp:84] Creating Layer scale1
I0115 21:18:40.714630 141805 net.cpp:406] scale1 <- conv1
I0115 21:18:40.714640 141805 net.cpp:367] scale1 -> conv1 (in-place)
I0115 21:18:40.719269 141805 layer_factory.hpp:77] Creating layer scale1
I0115 21:18:40.719450 141805 net.cpp:122] Setting up scale1
I0115 21:18:40.719466 141805 net.cpp:129] Top shape: 50 96 55 55 (14520000)
I0115 21:18:40.719485 141805 net.cpp:137] Memory required for data: 204346400
I0115 21:18:40.719494 141805 layer_factory.hpp:77] Creating layer relu1
I0115 21:18:40.719506 141805 net.cpp:84] Creating Layer relu1
I0115 21:18:40.719513 141805 net.cpp:406] relu1 <- conv1
I0115 21:18:40.719524 141805 net.cpp:367] relu1 -> conv1 (in-place)
I0115 21:18:40.719535 141805 net.cpp:122] Setting up relu1
I0115 21:18:40.719554 141805 net.cpp:129] Top shape: 50 96 55 55 (14520000)
I0115 21:18:40.719559 141805 net.cpp:137] Memory required for data: 262426400
I0115 21:18:40.719565 141805 layer_factory.hpp:77] Creating layer pool1
I0115 21:18:40.719578 141805 net.cpp:84] Creating Layer pool1
I0115 21:18:40.719583 141805 net.cpp:406] pool1 <- conv1
I0115 21:18:40.719593 141805 net.cpp:380] pool1 -> pool1
I0115 21:18:40.719655 141805 net.cpp:122] Setting up pool1
I0115 21:18:40.719679 141805 net.cpp:129] Top shape: 50 96 27 27 (3499200)
I0115 21:18:40.719684 141805 net.cpp:137] Memory required for data: 276423200
I0115 21:18:40.719691 141805 layer_factory.hpp:77] Creating layer conv2
I0115 21:18:40.719704 141805 net.cpp:84] Creating Layer conv2
I0115 21:18:40.719787 141805 net.cpp:406] conv2 <- pool1
I0115 21:18:40.719805 141805 net.cpp:380] conv2 -> conv2
I0115 21:18:40.730384 141805 net.cpp:122] Setting up conv2
I0115 21:18:40.730403 141805 net.cpp:129] Top shape: 50 256 27 27 (9331200)
I0115 21:18:40.730410 141805 net.cpp:137] Memory required for data: 313748000
I0115 21:18:40.730425 141805 layer_factory.hpp:77] Creating layer bn2
I0115 21:18:40.730438 141805 net.cpp:84] Creating Layer bn2
I0115 21:18:40.730445 141805 net.cpp:406] bn2 <- conv2
I0115 21:18:40.730455 141805 net.cpp:367] bn2 -> conv2 (in-place)
I0115 21:18:40.730659 141805 net.cpp:122] Setting up bn2
I0115 21:18:40.730672 141805 net.cpp:129] Top shape: 50 256 27 27 (9331200)
I0115 21:18:40.730679 141805 net.cpp:137] Memory required for data: 351072800
I0115 21:18:40.730690 141805 layer_factory.hpp:77] Creating layer scale2
I0115 21:18:40.730701 141805 net.cpp:84] Creating Layer scale2
I0115 21:18:40.730708 141805 net.cpp:406] scale2 <- conv2
I0115 21:18:40.730718 141805 net.cpp:367] scale2 -> conv2 (in-place)
I0115 21:18:40.730768 141805 layer_factory.hpp:77] Creating layer scale2
I0115 21:18:40.730895 141805 net.cpp:122] Setting up scale2
I0115 21:18:40.730908 141805 net.cpp:129] Top shape: 50 256 27 27 (9331200)
I0115 21:18:40.730914 141805 net.cpp:137] Memory required for data: 388397600
I0115 21:18:40.730924 141805 layer_factory.hpp:77] Creating layer relu2
I0115 21:18:40.730934 141805 net.cpp:84] Creating Layer relu2
I0115 21:18:40.730940 141805 net.cpp:406] relu2 <- conv2
I0115 21:18:40.730950 141805 net.cpp:367] relu2 -> conv2 (in-place)
I0115 21:18:40.730959 141805 net.cpp:122] Setting up relu2
I0115 21:18:40.730968 141805 net.cpp:129] Top shape: 50 256 27 27 (9331200)
I0115 21:18:40.730974 141805 net.cpp:137] Memory required for data: 425722400
I0115 21:18:40.730980 141805 layer_factory.hpp:77] Creating layer pool2
I0115 21:18:40.730990 141805 net.cpp:84] Creating Layer pool2
I0115 21:18:40.730998 141805 net.cpp:406] pool2 <- conv2
I0115 21:18:40.731007 141805 net.cpp:380] pool2 -> pool2
I0115 21:18:40.731055 141805 net.cpp:122] Setting up pool2
I0115 21:18:40.731067 141805 net.cpp:129] Top shape: 50 256 13 13 (2163200)
I0115 21:18:40.731073 141805 net.cpp:137] Memory required for data: 434375200
I0115 21:18:40.731079 141805 layer_factory.hpp:77] Creating layer conv3
I0115 21:18:40.731093 141805 net.cpp:84] Creating Layer conv3
I0115 21:18:40.731101 141805 net.cpp:406] conv3 <- pool2
I0115 21:18:40.731112 141805 net.cpp:380] conv3 -> conv3
I0115 21:18:40.745465 141805 net.cpp:122] Setting up conv3
I0115 21:18:40.745498 141805 net.cpp:129] Top shape: 50 384 13 13 (3244800)
I0115 21:18:40.745504 141805 net.cpp:137] Memory required for data: 447354400
I0115 21:18:40.745515 141805 layer_factory.hpp:77] Creating layer bn3
I0115 21:18:40.745529 141805 net.cpp:84] Creating Layer bn3
I0115 21:18:40.745537 141805 net.cpp:406] bn3 <- conv3
I0115 21:18:40.745546 141805 net.cpp:367] bn3 -> conv3 (in-place)
I0115 21:18:40.745749 141805 net.cpp:122] Setting up bn3
I0115 21:18:40.745764 141805 net.cpp:129] Top shape: 50 384 13 13 (3244800)
I0115 21:18:40.745769 141805 net.cpp:137] Memory required for data: 460333600
I0115 21:18:40.745785 141805 layer_factory.hpp:77] Creating layer scale3
I0115 21:18:40.745795 141805 net.cpp:84] Creating Layer scale3
I0115 21:18:40.745802 141805 net.cpp:406] scale3 <- conv3
I0115 21:18:40.745810 141805 net.cpp:367] scale3 -> conv3 (in-place)
I0115 21:18:40.745888 141805 layer_factory.hpp:77] Creating layer scale3
I0115 21:18:40.746058 141805 net.cpp:122] Setting up scale3
I0115 21:18:40.746073 141805 net.cpp:129] Top shape: 50 384 13 13 (3244800)
I0115 21:18:40.746078 141805 net.cpp:137] Memory required for data: 473312800
I0115 21:18:40.746093 141805 layer_factory.hpp:77] Creating layer relu3
I0115 21:18:40.746101 141805 net.cpp:84] Creating Layer relu3
I0115 21:18:40.746107 141805 net.cpp:406] relu3 <- conv3
I0115 21:18:40.746114 141805 net.cpp:367] relu3 -> conv3 (in-place)
I0115 21:18:40.746125 141805 net.cpp:122] Setting up relu3
I0115 21:18:40.746131 141805 net.cpp:129] Top shape: 50 384 13 13 (3244800)
I0115 21:18:40.746160 141805 net.cpp:137] Memory required for data: 486292000
I0115 21:18:40.746168 141805 layer_factory.hpp:77] Creating layer conv4
I0115 21:18:40.746186 141805 net.cpp:84] Creating Layer conv4
I0115 21:18:40.746192 141805 net.cpp:406] conv4 <- conv3
I0115 21:18:40.746204 141805 net.cpp:380] conv4 -> conv4
I0115 21:18:40.767388 141805 net.cpp:122] Setting up conv4
I0115 21:18:40.767416 141805 net.cpp:129] Top shape: 50 384 13 13 (3244800)
I0115 21:18:40.767423 141805 net.cpp:137] Memory required for data: 499271200
I0115 21:18:40.767436 141805 layer_factory.hpp:77] Creating layer bn4
I0115 21:18:40.767449 141805 net.cpp:84] Creating Layer bn4
I0115 21:18:40.767457 141805 net.cpp:406] bn4 <- conv4
I0115 21:18:40.767468 141805 net.cpp:367] bn4 -> conv4 (in-place)
I0115 21:18:40.767688 141805 net.cpp:122] Setting up bn4
I0115 21:18:40.767702 141805 net.cpp:129] Top shape: 50 384 13 13 (3244800)
I0115 21:18:40.767710 141805 net.cpp:137] Memory required for data: 512250400
I0115 21:18:40.767722 141805 layer_factory.hpp:77] Creating layer scale4
I0115 21:18:40.767732 141805 net.cpp:84] Creating Layer scale4
I0115 21:18:40.767740 141805 net.cpp:406] scale4 <- conv4
I0115 21:18:40.767750 141805 net.cpp:367] scale4 -> conv4 (in-place)
I0115 21:18:40.767801 141805 layer_factory.hpp:77] Creating layer scale4
I0115 21:18:40.767935 141805 net.cpp:122] Setting up scale4
I0115 21:18:40.767948 141805 net.cpp:129] Top shape: 50 384 13 13 (3244800)
I0115 21:18:40.767956 141805 net.cpp:137] Memory required for data: 525229600
I0115 21:18:40.767966 141805 layer_factory.hpp:77] Creating layer relu4
I0115 21:18:40.767978 141805 net.cpp:84] Creating Layer relu4
I0115 21:18:40.767985 141805 net.cpp:406] relu4 <- conv4
I0115 21:18:40.767995 141805 net.cpp:367] relu4 -> conv4 (in-place)
I0115 21:18:40.768005 141805 net.cpp:122] Setting up relu4
I0115 21:18:40.768013 141805 net.cpp:129] Top shape: 50 384 13 13 (3244800)
I0115 21:18:40.768019 141805 net.cpp:137] Memory required for data: 538208800
I0115 21:18:40.768026 141805 layer_factory.hpp:77] Creating layer conv5
I0115 21:18:40.768043 141805 net.cpp:84] Creating Layer conv5
I0115 21:18:40.768051 141805 net.cpp:406] conv5 <- conv4
I0115 21:18:40.768064 141805 net.cpp:380] conv5 -> conv5
I0115 21:18:40.782187 141805 net.cpp:122] Setting up conv5
I0115 21:18:40.782210 141805 net.cpp:129] Top shape: 50 256 13 13 (2163200)
I0115 21:18:40.782215 141805 net.cpp:137] Memory required for data: 546861600
I0115 21:18:40.782225 141805 layer_factory.hpp:77] Creating layer bn5
I0115 21:18:40.782238 141805 net.cpp:84] Creating Layer bn5
I0115 21:18:40.782245 141805 net.cpp:406] bn5 <- conv5
I0115 21:18:40.782255 141805 net.cpp:367] bn5 -> conv5 (in-place)
I0115 21:18:40.782459 141805 net.cpp:122] Setting up bn5
I0115 21:18:40.782472 141805 net.cpp:129] Top shape: 50 256 13 13 (2163200)
I0115 21:18:40.782477 141805 net.cpp:137] Memory required for data: 555514400
I0115 21:18:40.782497 141805 layer_factory.hpp:77] Creating layer scale5
I0115 21:18:40.782508 141805 net.cpp:84] Creating Layer scale5
I0115 21:18:40.782519 141805 net.cpp:406] scale5 <- conv5
I0115 21:18:40.782528 141805 net.cpp:367] scale5 -> conv5 (in-place)
I0115 21:18:40.782588 141805 layer_factory.hpp:77] Creating layer scale5
I0115 21:18:40.782716 141805 net.cpp:122] Setting up scale5
I0115 21:18:40.782729 141805 net.cpp:129] Top shape: 50 256 13 13 (2163200)
I0115 21:18:40.782737 141805 net.cpp:137] Memory required for data: 564167200
I0115 21:18:40.782747 141805 layer_factory.hpp:77] Creating layer relu5
I0115 21:18:40.782758 141805 net.cpp:84] Creating Layer relu5
I0115 21:18:40.782765 141805 net.cpp:406] relu5 <- conv5
I0115 21:18:40.782774 141805 net.cpp:367] relu5 -> conv5 (in-place)
I0115 21:18:40.782784 141805 net.cpp:122] Setting up relu5
I0115 21:18:40.782793 141805 net.cpp:129] Top shape: 50 256 13 13 (2163200)
I0115 21:18:40.782799 141805 net.cpp:137] Memory required for data: 572820000
I0115 21:18:40.782805 141805 layer_factory.hpp:77] Creating layer pool5
I0115 21:18:40.782851 141805 net.cpp:84] Creating Layer pool5
I0115 21:18:40.782858 141805 net.cpp:406] pool5 <- conv5
I0115 21:18:40.782871 141805 net.cpp:380] pool5 -> pool5
I0115 21:18:40.782919 141805 net.cpp:122] Setting up pool5
I0115 21:18:40.782932 141805 net.cpp:129] Top shape: 50 256 6 6 (460800)
I0115 21:18:40.782938 141805 net.cpp:137] Memory required for data: 574663200
I0115 21:18:40.782944 141805 layer_factory.hpp:77] Creating layer fc6
I0115 21:18:40.782960 141805 net.cpp:84] Creating Layer fc6
I0115 21:18:40.782968 141805 net.cpp:406] fc6 <- pool5
I0115 21:18:40.782977 141805 net.cpp:380] fc6 -> fc6
I0115 21:18:41.457810 141805 net.cpp:122] Setting up fc6
I0115 21:18:41.457873 141805 net.cpp:129] Top shape: 50 4096 (204800)
I0115 21:18:41.457885 141805 net.cpp:137] Memory required for data: 575482400
I0115 21:18:41.457916 141805 layer_factory.hpp:77] Creating layer bn6
I0115 21:18:41.457947 141805 net.cpp:84] Creating Layer bn6
I0115 21:18:41.457962 141805 net.cpp:406] bn6 <- fc6
I0115 21:18:41.457986 141805 net.cpp:367] bn6 -> fc6 (in-place)
I0115 21:18:41.458371 141805 net.cpp:122] Setting up bn6
I0115 21:18:41.458395 141805 net.cpp:129] Top shape: 50 4096 (204800)
I0115 21:18:41.458405 141805 net.cpp:137] Memory required for data: 576301600
I0115 21:18:41.458425 141805 layer_factory.hpp:77] Creating layer scale6
I0115 21:18:41.458448 141805 net.cpp:84] Creating Layer scale6
I0115 21:18:41.458461 141805 net.cpp:406] scale6 <- fc6
I0115 21:18:41.458474 141805 net.cpp:367] scale6 -> fc6 (in-place)
I0115 21:18:41.458565 141805 layer_factory.hpp:77] Creating layer scale6
I0115 21:18:41.458820 141805 net.cpp:122] Setting up scale6
I0115 21:18:41.458844 141805 net.cpp:129] Top shape: 50 4096 (204800)
I0115 21:18:41.458853 141805 net.cpp:137] Memory required for data: 577120800
I0115 21:18:41.458869 141805 layer_factory.hpp:77] Creating layer relu6
I0115 21:18:41.458887 141805 net.cpp:84] Creating Layer relu6
I0115 21:18:41.458899 141805 net.cpp:406] relu6 <- fc6
I0115 21:18:41.458916 141805 net.cpp:367] relu6 -> fc6 (in-place)
I0115 21:18:41.458935 141805 net.cpp:122] Setting up relu6
I0115 21:18:41.458948 141805 net.cpp:129] Top shape: 50 4096 (204800)
I0115 21:18:41.458957 141805 net.cpp:137] Memory required for data: 577940000
I0115 21:18:41.458971 141805 layer_factory.hpp:77] Creating layer drop6
I0115 21:18:41.458987 141805 net.cpp:84] Creating Layer drop6
I0115 21:18:41.458999 141805 net.cpp:406] drop6 <- fc6
I0115 21:18:41.459017 141805 net.cpp:367] drop6 -> fc6 (in-place)
I0115 21:18:41.459072 141805 net.cpp:122] Setting up drop6
I0115 21:18:41.459094 141805 net.cpp:129] Top shape: 50 4096 (204800)
I0115 21:18:41.459105 141805 net.cpp:137] Memory required for data: 578759200
I0115 21:18:41.459116 141805 layer_factory.hpp:77] Creating layer fc7
I0115 21:18:41.459141 141805 net.cpp:84] Creating Layer fc7
I0115 21:18:41.459153 141805 net.cpp:406] fc7 <- fc6
I0115 21:18:41.459170 141805 net.cpp:380] fc7 -> fc7
I0115 21:18:41.741220 141805 net.cpp:122] Setting up fc7
I0115 21:18:41.741281 141805 net.cpp:129] Top shape: 50 4096 (204800)
I0115 21:18:41.741305 141805 net.cpp:137] Memory required for data: 579578400
I0115 21:18:41.741323 141805 layer_factory.hpp:77] Creating layer bn7
I0115 21:18:41.741343 141805 net.cpp:84] Creating Layer bn7
I0115 21:18:41.741351 141805 net.cpp:406] bn7 <- fc7
I0115 21:18:41.741379 141805 net.cpp:367] bn7 -> fc7 (in-place)
I0115 21:18:41.741631 141805 net.cpp:122] Setting up bn7
I0115 21:18:41.741650 141805 net.cpp:129] Top shape: 50 4096 (204800)
I0115 21:18:41.741655 141805 net.cpp:137] Memory required for data: 580397600
I0115 21:18:41.741667 141805 layer_factory.hpp:77] Creating layer scale7
I0115 21:18:41.741711 141805 net.cpp:84] Creating Layer scale7
I0115 21:18:41.741719 141805 net.cpp:406] scale7 <- fc7
I0115 21:18:41.741729 141805 net.cpp:367] scale7 -> fc7 (in-place)
I0115 21:18:41.741803 141805 layer_factory.hpp:77] Creating layer scale7
I0115 21:18:41.741964 141805 net.cpp:122] Setting up scale7
I0115 21:18:41.741978 141805 net.cpp:129] Top shape: 50 4096 (204800)
I0115 21:18:41.742036 141805 net.cpp:137] Memory required for data: 581216800
I0115 21:18:41.742046 141805 layer_factory.hpp:77] Creating layer relu7
I0115 21:18:41.742055 141805 net.cpp:84] Creating Layer relu7
I0115 21:18:41.742060 141805 net.cpp:406] relu7 <- fc7
I0115 21:18:41.742072 141805 net.cpp:367] relu7 -> fc7 (in-place)
I0115 21:18:41.742082 141805 net.cpp:122] Setting up relu7
I0115 21:18:41.742090 141805 net.cpp:129] Top shape: 50 4096 (204800)
I0115 21:18:41.742096 141805 net.cpp:137] Memory required for data: 582036000
I0115 21:18:41.742102 141805 layer_factory.hpp:77] Creating layer drop7
I0115 21:18:41.742111 141805 net.cpp:84] Creating Layer drop7
I0115 21:18:41.742117 141805 net.cpp:406] drop7 <- fc7
I0115 21:18:41.742125 141805 net.cpp:367] drop7 -> fc7 (in-place)
I0115 21:18:41.742161 141805 net.cpp:122] Setting up drop7
I0115 21:18:41.742172 141805 net.cpp:129] Top shape: 50 4096 (204800)
I0115 21:18:41.742177 141805 net.cpp:137] Memory required for data: 582855200
I0115 21:18:41.742183 141805 layer_factory.hpp:77] Creating layer fc8
I0115 21:18:41.742198 141805 net.cpp:84] Creating Layer fc8
I0115 21:18:41.742205 141805 net.cpp:406] fc8 <- fc7
I0115 21:18:41.742214 141805 net.cpp:380] fc8 -> fc8
I0115 21:18:41.804265 141805 net.cpp:122] Setting up fc8
I0115 21:18:41.804311 141805 net.cpp:129] Top shape: 50 1000 (50000)
I0115 21:18:41.804317 141805 net.cpp:137] Memory required for data: 583055200
I0115 21:18:41.804332 141805 layer_factory.hpp:77] Creating layer fc8_fc8_0_split
I0115 21:18:41.804349 141805 net.cpp:84] Creating Layer fc8_fc8_0_split
I0115 21:18:41.804358 141805 net.cpp:406] fc8_fc8_0_split <- fc8
I0115 21:18:41.804373 141805 net.cpp:380] fc8_fc8_0_split -> fc8_fc8_0_split_0
I0115 21:18:41.804399 141805 net.cpp:380] fc8_fc8_0_split -> fc8_fc8_0_split_1
I0115 21:18:41.804409 141805 net.cpp:380] fc8_fc8_0_split -> fc8_fc8_0_split_2
I0115 21:18:41.804473 141805 net.cpp:122] Setting up fc8_fc8_0_split
I0115 21:18:41.804486 141805 net.cpp:129] Top shape: 50 1000 (50000)
I0115 21:18:41.804491 141805 net.cpp:129] Top shape: 50 1000 (50000)
I0115 21:18:41.804497 141805 net.cpp:129] Top shape: 50 1000 (50000)
I0115 21:18:41.804502 141805 net.cpp:137] Memory required for data: 583655200
I0115 21:18:41.804507 141805 layer_factory.hpp:77] Creating layer accuracy
I0115 21:18:41.804522 141805 net.cpp:84] Creating Layer accuracy
I0115 21:18:41.804527 141805 net.cpp:406] accuracy <- fc8_fc8_0_split_0
I0115 21:18:41.804534 141805 net.cpp:406] accuracy <- label_data_1_split_0
I0115 21:18:41.804543 141805 net.cpp:380] accuracy -> accuracy
…
