…
I0116 09:03:40.154732 145377 net.cpp:294] The NetState phase (0) differed from the phase (1) specified by a rule in layer accuracy_5
I0116 09:03:40.155102 145377 net.cpp:51] Initializing net from parameters: 
name: "AlexNet-BN"
state {
  phase: TRAIN
  level: 0
  stage: ""
}
layer {
  name: "data"
  type: "Data"
  top: "data"
  top: "label"
  include {
    phase: TRAIN
  }
  transform_param {
    mirror: true
    crop_size: 224
    mean_value: 103.939
    mean_value: 116.779
    mean_value: 123.68
  }
  data_param {
    source: "/home/DATA/imagenet_resize/lmdb_resize/ilsvrc12_train_lmdb"
    batch_size: 256
    backend: LMDB
  }
}
layer {
  name: "conv1"
  type: "Convolution"
  bottom: "data"
  top: "conv1"
  param {
    lr_mult: 1
    decay_mult: 1
  }
  param {
    lr_mult: 2
    decay_mult: 0
  }
  convolution_param {
    num_output: 96
    pad: 2
    kernel_size: 11
    stride: 4
    weight_filler {
      type: "gaussian"
      std: 0.01
    }
    bias_filler {
      type: "constant"
      value: 0
    }
  }
}
layer {
  name: "bn1"
  type: "BatchNorm"
  bottom: "conv1"
  top: "conv1"
}
layer {
  name: "scale1"
  type: "Scale"
  bottom: "conv1"
  top: "conv1"
  scale_param {
    bias_term: true
  }
}
layer {
  name: "relu1"
  type: "ReLU"
  bottom: "conv1"
  top: "conv1"
}
layer {
  name: "pool1"
  type: "Pooling"
  bottom: "conv1"
  top: "pool1"
  pooling_param {
    pool: MAX
    kernel_size: 3
    stride: 2
  }
}
layer {
  name: "conv2"
  type: "Convolution"
  bottom: "pool1"
  top: "conv2"
  param {
    lr_mult: 1
    decay_mult: 1
  }
  param {
    lr_mult: 2
    decay_mult: 0
  }
  convolution_param {
    num_output: 256
    pad: 2
    kernel_size: 5
    weight_filler {
      type: "gaussian"
      std: 0.01
    }
    bias_filler {
      type: "constant"
      value: 0.1
    }
  }
}
layer {
  name: "bn2"
  type: "BatchNorm"
  bottom: "conv2"
  top: "conv2"
}
layer {
  name: "scale2"
  type: "Scale"
  bottom: "conv2"
  top: "conv2"
  scale_param {
    bias_term: true
  }
}
layer {
  name: "relu2"
  type: "ReLU"
  bottom: "conv2"
  top: "conv2"
}
layer {
  name: "pool2"
  type: "Pooling"
  bottom: "conv2"
  top: "pool2"
  pooling_param {
    pool: MAX
    kernel_size: 3
    stride: 2
  }
}
layer {
  name: "conv3"
  type: "Convolution"
  bottom: "pool2"
  top: "conv3"
  param {
    lr_mult: 1
    decay_mult: 1
  }
  param {
    lr_mult: 2
    decay_mult: 0
  }
  convolution_param {
    num_output: 384
    pad: 1
    kernel_size: 3
    weight_filler {
      type: "gaussian"
      std: 0.01
    }
    bias_filler {
      type: "constant"
      value: 0
    }
  }
}
layer {
  name: "bn3"
  type: "BatchNorm"
  bottom: "conv3"
  top: "conv3"
}
layer {
  name: "scale3"
  type: "Scale"
  bottom: "conv3"
  top: "conv3"
  scale_param {
    bias_term: true
  }
}
layer {
  name: "relu3"
  type: "ReLU"
  bottom: "conv3"
  top: "conv3"
}
layer {
  name: "conv4"
  type: "Convolution"
  bottom: "conv3"
  top: "conv4"
  param {
    lr_mult: 1
    decay_mult: 1
  }
  param {
    lr_mult: 2
    decay_mult: 0
  }
  convolution_param {
    num_output: 384
    pad: 1
    kernel_size: 3
    weight_filler {
      type: "gaussian"
      std: 0.01
    }
    bias_filler {
      type: "constant"
      value: 0.1
    }
  }
}
layer {
  name: "bn4"
  type: "BatchNorm"
  bottom: "conv4"
  top: "conv4"
}
layer {
  name: "scale4"
  type: "Scale"
  bottom: "conv4"
  top: "conv4"
  scale_param {
    bias_term: true
  }
}
layer {
  name: "relu4"
  type: "ReLU"
  bottom: "conv4"
  top: "conv4"
}
layer {
  name: "conv5"
  type: "Convolution"
  bottom: "conv4"
  top: "conv5"
  param {
    lr_mult: 1
    decay_mult: 1
  }
  param {
    lr_mult: 2
    decay_mult: 0
  }
  convolution_param {
    num_output: 256
    pad: 1
    kernel_size: 3
    weight_filler {
      type: "gaussian"
      std: 0.01
    }
    bias_filler {
      type: "constant"
      value: 0.1
    }
  }
}
layer {
  name: "bn5"
  type: "BatchNorm"
  bottom: "conv5"
  top: "conv5"
}
layer {
  name: "scale5"
  type: "Scale"
  bottom: "conv5"
  top: "conv5"
  scale_param {
    bias_term: true
  }
}
layer {
  name: "relu5"
  type: "ReLU"
  bottom: "conv5"
  top: "conv5"
}
layer {
  name: "pool5"
  type: "Pooling"
  bottom: "conv5"
  top: "pool5"
  pooling_param {
    pool: MAX
    kernel_size: 3
    stride: 2
  }
}
layer {
  name: "fc6"
  type: "InnerProduct"
  bottom: "pool5"
  top: "fc6"
  param {
    lr_mult: 1
    decay_mult: 1
  }
  param {
    lr_mult: 2
    decay_mult: 0
  }
  inner_product_param {
    num_output: 4096
    weight_filler {
      type: "gaussian"
      std: 0.005
    }
    bias_filler {
      type: "constant"
      value: 0.1
    }
  }
}
layer {
  name: "bn6"
  type: "BatchNorm"
  bottom: "fc6"
  top: "fc6"
}
layer {
  name: "scale6"
  type: "Scale"
  bottom: "fc6"
  top: "fc6"
  scale_param {
    bias_term: true
  }
}
layer {
  name: "relu6"
  type: "ReLU"
  bottom: "fc6"
  top: "fc6"
}
layer {
  name: "drop6"
  type: "Dropout"
  bottom: "fc6"
  top: "fc6"
  dropout_param {
    dropout_ratio: 0.5
  }
}
layer {
  name: "fc7"
  type: "InnerProduct"
  bottom: "fc6"
  top: "fc7"
  param {
    lr_mult: 1
    decay_mult: 1
  }
  param {
    lr_mult: 2
    decay_mult: 0
  }
  inner_product_param {
    num_output: 4096
    weight_filler {
      type: "gaussian"
      std: 0.005
    }
    bias_filler {
      type: "constant"
      value: 0.1
    }
  }
}
layer {
  name: "bn7"
  type: "BatchNorm"
  bottom: "fc7"
  top: "fc7"
}
layer {
  name: "scale7"
  type: "Scale"
  bottom: "fc7"
  top: "fc7"
  scale_param {
    bias_term: true
  }
}
layer {
  name: "relu7"
  type: "ReLU"
  bottom: "fc7"
  top: "fc7"
}
layer {
  name: "drop7"
  type: "Dropout"
  bottom: "fc7"
  top: "fc7"
  dropout_param {
    dropout_ratio: 0.5
  }
}
layer {
  name: "fc8"
  type: "InnerProduct"
  bottom: "fc7"
  top: "fc8"
  param {
    lr_mult: 1
    decay_mult: 1
  }
  param {
    lr_mult: 2
    decay_mult: 0
  }
  inner_product_param {
    num_output: 1000
    weight_filler {
      type: "gaussian"
      std: 0.01
    }
    bias_filler {
      type: "constant"
      value: 0
    }
  }
}
layer {
  name: "accuracy_5_TRAIN"
  type: "Accuracy"
  bottom: "fc8"
  bottom: "label"
  top: "accuracy_5_TRAIN"
  include {
    phase: TRAIN
  }
  accuracy_param {
    top_k: 5
  }
}
layer {
  name: "loss"
  type: "SoftmaxWithLoss"
  bottom: "fc8"
  bottom: "label"
  top: "loss"
}
I0116 09:03:40.155460 145377 layer_factory.hpp:77] Creating layer data
I0116 09:03:40.169080 145377 db_lmdb.cpp:35] Opened lmdb /home/DATA/imagenet_resize/lmdb_resize/ilsvrc12_train_lmdb
I0116 09:03:40.171313 145377 net.cpp:84] Creating Layer data
I0116 09:03:40.171351 145377 net.cpp:380] data -> data
I0116 09:03:40.171396 145377 net.cpp:380] data -> label
I0116 09:03:40.181695 145377 data_layer.cpp:45] output data size: 256,3,224,224
I0116 09:03:40.671182 145377 net.cpp:122] Setting up data
I0116 09:03:40.671247 145377 net.cpp:129] Top shape: 256 3 224 224 (38535168)
I0116 09:03:40.671286 145377 net.cpp:129] Top shape: 256 (256)
I0116 09:03:40.671294 145377 net.cpp:137] Memory required for data: 154141696
I0116 09:03:40.671313 145377 layer_factory.hpp:77] Creating layer label_data_1_split
I0116 09:03:40.671337 145377 net.cpp:84] Creating Layer label_data_1_split
I0116 09:03:40.671350 145377 net.cpp:406] label_data_1_split <- label
I0116 09:03:40.671425 145377 net.cpp:380] label_data_1_split -> label_data_1_split_0
I0116 09:03:40.671448 145377 net.cpp:380] label_data_1_split -> label_data_1_split_1
I0116 09:03:40.671521 145377 net.cpp:122] Setting up label_data_1_split
I0116 09:03:40.671533 145377 net.cpp:129] Top shape: 256 (256)
I0116 09:03:40.671541 145377 net.cpp:129] Top shape: 256 (256)
I0116 09:03:40.671548 145377 net.cpp:137] Memory required for data: 154143744
I0116 09:03:40.671555 145377 layer_factory.hpp:77] Creating layer conv1
I0116 09:03:40.671584 145377 net.cpp:84] Creating Layer conv1
I0116 09:03:40.671592 145377 net.cpp:406] conv1 <- data
I0116 09:03:40.671605 145377 net.cpp:380] conv1 -> conv1
I0116 09:03:40.706043 145377 net.cpp:122] Setting up conv1
I0116 09:03:40.706095 145377 net.cpp:129] Top shape: 256 96 55 55 (74342400)
I0116 09:03:40.706104 145377 net.cpp:137] Memory required for data: 451513344
I0116 09:03:40.706140 145377 layer_factory.hpp:77] Creating layer bn1
I0116 09:03:40.706161 145377 net.cpp:84] Creating Layer bn1
I0116 09:03:40.706169 145377 net.cpp:406] bn1 <- conv1
I0116 09:03:40.706182 145377 net.cpp:367] bn1 -> conv1 (in-place)
I0116 09:03:40.706388 145377 net.cpp:122] Setting up bn1
I0116 09:03:40.706403 145377 net.cpp:129] Top shape: 256 96 55 55 (74342400)
I0116 09:03:40.706408 145377 net.cpp:137] Memory required for data: 748882944
I0116 09:03:40.706423 145377 layer_factory.hpp:77] Creating layer scale1
I0116 09:03:40.706439 145377 net.cpp:84] Creating Layer scale1
I0116 09:03:40.706447 145377 net.cpp:406] scale1 <- conv1
I0116 09:03:40.706457 145377 net.cpp:367] scale1 -> conv1 (in-place)
I0116 09:03:40.706504 145377 layer_factory.hpp:77] Creating layer scale1
I0116 09:03:40.706636 145377 net.cpp:122] Setting up scale1
I0116 09:03:40.706650 145377 net.cpp:129] Top shape: 256 96 55 55 (74342400)
I0116 09:03:40.706657 145377 net.cpp:137] Memory required for data: 1046252544
I0116 09:03:40.706668 145377 layer_factory.hpp:77] Creating layer relu1
I0116 09:03:40.706679 145377 net.cpp:84] Creating Layer relu1
I0116 09:03:40.706686 145377 net.cpp:406] relu1 <- conv1
I0116 09:03:40.706696 145377 net.cpp:367] relu1 -> conv1 (in-place)
I0116 09:03:40.706707 145377 net.cpp:122] Setting up relu1
I0116 09:03:40.706715 145377 net.cpp:129] Top shape: 256 96 55 55 (74342400)
I0116 09:03:40.706722 145377 net.cpp:137] Memory required for data: 1343622144
I0116 09:03:40.706729 145377 layer_factory.hpp:77] Creating layer pool1
I0116 09:03:40.706743 145377 net.cpp:84] Creating Layer pool1
I0116 09:03:40.706748 145377 net.cpp:406] pool1 <- conv1
I0116 09:03:40.706758 145377 net.cpp:380] pool1 -> pool1
I0116 09:03:40.706820 145377 net.cpp:122] Setting up pool1
I0116 09:03:40.706831 145377 net.cpp:129] Top shape: 256 96 27 27 (17915904)
I0116 09:03:40.706838 145377 net.cpp:137] Memory required for data: 1415285760
I0116 09:03:40.706845 145377 layer_factory.hpp:77] Creating layer conv2
I0116 09:03:40.706862 145377 net.cpp:84] Creating Layer conv2
I0116 09:03:40.706871 145377 net.cpp:406] conv2 <- pool1
I0116 09:03:40.706881 145377 net.cpp:380] conv2 -> conv2
I0116 09:03:40.717874 145377 net.cpp:122] Setting up conv2
I0116 09:03:40.717892 145377 net.cpp:129] Top shape: 256 256 27 27 (47775744)
I0116 09:03:40.717900 145377 net.cpp:137] Memory required for data: 1606388736
I0116 09:03:40.717916 145377 layer_factory.hpp:77] Creating layer bn2
I0116 09:03:40.717941 145377 net.cpp:84] Creating Layer bn2
I0116 09:03:40.717949 145377 net.cpp:406] bn2 <- conv2
I0116 09:03:40.717972 145377 net.cpp:367] bn2 -> conv2 (in-place)
I0116 09:03:40.718148 145377 net.cpp:122] Setting up bn2
I0116 09:03:40.718163 145377 net.cpp:129] Top shape: 256 256 27 27 (47775744)
I0116 09:03:40.718169 145377 net.cpp:137] Memory required for data: 1797491712
I0116 09:03:40.718183 145377 layer_factory.hpp:77] Creating layer scale2
I0116 09:03:40.718192 145377 net.cpp:84] Creating Layer scale2
I0116 09:03:40.718199 145377 net.cpp:406] scale2 <- conv2
I0116 09:03:40.718209 145377 net.cpp:367] scale2 -> conv2 (in-place)
I0116 09:03:40.718248 145377 layer_factory.hpp:77] Creating layer scale2
I0116 09:03:40.718399 145377 net.cpp:122] Setting up scale2
I0116 09:03:40.718412 145377 net.cpp:129] Top shape: 256 256 27 27 (47775744)
I0116 09:03:40.718420 145377 net.cpp:137] Memory required for data: 1988594688
I0116 09:03:40.718430 145377 layer_factory.hpp:77] Creating layer relu2
I0116 09:03:40.718441 145377 net.cpp:84] Creating Layer relu2
I0116 09:03:40.718448 145377 net.cpp:406] relu2 <- conv2
I0116 09:03:40.718457 145377 net.cpp:367] relu2 -> conv2 (in-place)
I0116 09:03:40.718467 145377 net.cpp:122] Setting up relu2
I0116 09:03:40.718475 145377 net.cpp:129] Top shape: 256 256 27 27 (47775744)
I0116 09:03:40.718482 145377 net.cpp:137] Memory required for data: 2179697664
I0116 09:03:40.718488 145377 layer_factory.hpp:77] Creating layer pool2
I0116 09:03:40.718499 145377 net.cpp:84] Creating Layer pool2
I0116 09:03:40.718505 145377 net.cpp:406] pool2 <- conv2
I0116 09:03:40.718515 145377 net.cpp:380] pool2 -> pool2
I0116 09:03:40.718556 145377 net.cpp:122] Setting up pool2
I0116 09:03:40.718569 145377 net.cpp:129] Top shape: 256 256 13 13 (11075584)
I0116 09:03:40.718575 145377 net.cpp:137] Memory required for data: 2224000000
I0116 09:03:40.718582 145377 layer_factory.hpp:77] Creating layer conv3
I0116 09:03:40.718595 145377 net.cpp:84] Creating Layer conv3
I0116 09:03:40.718603 145377 net.cpp:406] conv3 <- pool2
I0116 09:03:40.718613 145377 net.cpp:380] conv3 -> conv3
I0116 09:03:40.732501 145377 net.cpp:122] Setting up conv3
I0116 09:03:40.732535 145377 net.cpp:129] Top shape: 256 384 13 13 (16613376)
I0116 09:03:40.732545 145377 net.cpp:137] Memory required for data: 2290453504
I0116 09:03:40.732558 145377 layer_factory.hpp:77] Creating layer bn3
I0116 09:03:40.732573 145377 net.cpp:84] Creating Layer bn3
I0116 09:03:40.732581 145377 net.cpp:406] bn3 <- conv3
I0116 09:03:40.732591 145377 net.cpp:367] bn3 -> conv3 (in-place)
I0116 09:03:40.732789 145377 net.cpp:122] Setting up bn3
I0116 09:03:40.732802 145377 net.cpp:129] Top shape: 256 384 13 13 (16613376)
I0116 09:03:40.732816 145377 net.cpp:137] Memory required for data: 2356907008
I0116 09:03:40.732833 145377 layer_factory.hpp:77] Creating layer scale3
I0116 09:03:40.732846 145377 net.cpp:84] Creating Layer scale3
I0116 09:03:40.732852 145377 net.cpp:406] scale3 <- conv3
I0116 09:03:40.732861 145377 net.cpp:367] scale3 -> conv3 (in-place)
I0116 09:03:40.732898 145377 layer_factory.hpp:77] Creating layer scale3
I0116 09:03:40.733013 145377 net.cpp:122] Setting up scale3
I0116 09:03:40.733026 145377 net.cpp:129] Top shape: 256 384 13 13 (16613376)
I0116 09:03:40.733033 145377 net.cpp:137] Memory required for data: 2423360512
I0116 09:03:40.733043 145377 layer_factory.hpp:77] Creating layer relu3
I0116 09:03:40.733054 145377 net.cpp:84] Creating Layer relu3
I0116 09:03:40.733062 145377 net.cpp:406] relu3 <- conv3
I0116 09:03:40.733072 145377 net.cpp:367] relu3 -> conv3 (in-place)
I0116 09:03:40.733081 145377 net.cpp:122] Setting up relu3
I0116 09:03:40.733090 145377 net.cpp:129] Top shape: 256 384 13 13 (16613376)
I0116 09:03:40.733098 145377 net.cpp:137] Memory required for data: 2489814016
I0116 09:03:40.733104 145377 layer_factory.hpp:77] Creating layer conv4
I0116 09:03:40.733124 145377 net.cpp:84] Creating Layer conv4
I0116 09:03:40.733130 145377 net.cpp:406] conv4 <- conv3
I0116 09:03:40.733141 145377 net.cpp:380] conv4 -> conv4
I0116 09:03:40.754509 145377 net.cpp:122] Setting up conv4
I0116 09:03:40.754565 145377 net.cpp:129] Top shape: 256 384 13 13 (16613376)
I0116 09:03:40.754575 145377 net.cpp:137] Memory required for data: 2556267520
I0116 09:03:40.754590 145377 layer_factory.hpp:77] Creating layer bn4
I0116 09:03:40.754607 145377 net.cpp:84] Creating Layer bn4
I0116 09:03:40.754616 145377 net.cpp:406] bn4 <- conv4
I0116 09:03:40.754631 145377 net.cpp:367] bn4 -> conv4 (in-place)
I0116 09:03:40.754825 145377 net.cpp:122] Setting up bn4
I0116 09:03:40.754838 145377 net.cpp:129] Top shape: 256 384 13 13 (16613376)
I0116 09:03:40.754845 145377 net.cpp:137] Memory required for data: 2622721024
I0116 09:03:40.754856 145377 layer_factory.hpp:77] Creating layer scale4
I0116 09:03:40.754911 145377 net.cpp:84] Creating Layer scale4
I0116 09:03:40.754920 145377 net.cpp:406] scale4 <- conv4
I0116 09:03:40.754928 145377 net.cpp:367] scale4 -> conv4 (in-place)
I0116 09:03:40.754973 145377 layer_factory.hpp:77] Creating layer scale4
I0116 09:03:40.755101 145377 net.cpp:122] Setting up scale4
I0116 09:03:40.755115 145377 net.cpp:129] Top shape: 256 384 13 13 (16613376)
I0116 09:03:40.755121 145377 net.cpp:137] Memory required for data: 2689174528
I0116 09:03:40.755131 145377 layer_factory.hpp:77] Creating layer relu4
I0116 09:03:40.755144 145377 net.cpp:84] Creating Layer relu4
I0116 09:03:40.755151 145377 net.cpp:406] relu4 <- conv4
I0116 09:03:40.755161 145377 net.cpp:367] relu4 -> conv4 (in-place)
I0116 09:03:40.755170 145377 net.cpp:122] Setting up relu4
I0116 09:03:40.755179 145377 net.cpp:129] Top shape: 256 384 13 13 (16613376)
I0116 09:03:40.755185 145377 net.cpp:137] Memory required for data: 2755628032
I0116 09:03:40.755192 145377 layer_factory.hpp:77] Creating layer conv5
I0116 09:03:40.755210 145377 net.cpp:84] Creating Layer conv5
I0116 09:03:40.755218 145377 net.cpp:406] conv5 <- conv4
I0116 09:03:40.755230 145377 net.cpp:380] conv5 -> conv5
I0116 09:03:40.769274 145377 net.cpp:122] Setting up conv5
I0116 09:03:40.769291 145377 net.cpp:129] Top shape: 256 256 13 13 (11075584)
I0116 09:03:40.769304 145377 net.cpp:137] Memory required for data: 2799930368
I0116 09:03:40.769315 145377 layer_factory.hpp:77] Creating layer bn5
I0116 09:03:40.769328 145377 net.cpp:84] Creating Layer bn5
I0116 09:03:40.769336 145377 net.cpp:406] bn5 <- conv5
I0116 09:03:40.769347 145377 net.cpp:367] bn5 -> conv5 (in-place)
I0116 09:03:40.769528 145377 net.cpp:122] Setting up bn5
I0116 09:03:40.769541 145377 net.cpp:129] Top shape: 256 256 13 13 (11075584)
I0116 09:03:40.769548 145377 net.cpp:137] Memory required for data: 2844232704
I0116 09:03:40.769569 145377 layer_factory.hpp:77] Creating layer scale5
I0116 09:03:40.769580 145377 net.cpp:84] Creating Layer scale5
I0116 09:03:40.769587 145377 net.cpp:406] scale5 <- conv5
I0116 09:03:40.769596 145377 net.cpp:367] scale5 -> conv5 (in-place)
I0116 09:03:40.769646 145377 layer_factory.hpp:77] Creating layer scale5
I0116 09:03:40.769762 145377 net.cpp:122] Setting up scale5
I0116 09:03:40.769775 145377 net.cpp:129] Top shape: 256 256 13 13 (11075584)
I0116 09:03:40.769783 145377 net.cpp:137] Memory required for data: 2888535040
I0116 09:03:40.769793 145377 layer_factory.hpp:77] Creating layer relu5
I0116 09:03:40.769820 145377 net.cpp:84] Creating Layer relu5
I0116 09:03:40.769829 145377 net.cpp:406] relu5 <- conv5
I0116 09:03:40.769841 145377 net.cpp:367] relu5 -> conv5 (in-place)
I0116 09:03:40.769852 145377 net.cpp:122] Setting up relu5
I0116 09:03:40.769861 145377 net.cpp:129] Top shape: 256 256 13 13 (11075584)
I0116 09:03:40.769868 145377 net.cpp:137] Memory required for data: 2932837376
I0116 09:03:40.769876 145377 layer_factory.hpp:77] Creating layer pool5
I0116 09:03:40.769887 145377 net.cpp:84] Creating Layer pool5
I0116 09:03:40.769893 145377 net.cpp:406] pool5 <- conv5
I0116 09:03:40.769904 145377 net.cpp:380] pool5 -> pool5
I0116 09:03:40.769950 145377 net.cpp:122] Setting up pool5
I0116 09:03:40.769963 145377 net.cpp:129] Top shape: 256 256 6 6 (2359296)
I0116 09:03:40.769970 145377 net.cpp:137] Memory required for data: 2942274560
I0116 09:03:40.769978 145377 layer_factory.hpp:77] Creating layer fc6
I0116 09:03:40.770004 145377 net.cpp:84] Creating Layer fc6
I0116 09:03:40.770011 145377 net.cpp:406] fc6 <- pool5
I0116 09:03:40.770023 145377 net.cpp:380] fc6 -> fc6
I0116 09:03:41.374258 145377 net.cpp:122] Setting up fc6
I0116 09:03:41.374310 145377 net.cpp:129] Top shape: 256 4096 (1048576)
I0116 09:03:41.374317 145377 net.cpp:137] Memory required for data: 2946468864
I0116 09:03:41.374336 145377 layer_factory.hpp:77] Creating layer bn6
I0116 09:03:41.374372 145377 net.cpp:84] Creating Layer bn6
I0116 09:03:41.374382 145377 net.cpp:406] bn6 <- fc6
I0116 09:03:41.374397 145377 net.cpp:367] bn6 -> fc6 (in-place)
I0116 09:03:41.374680 145377 net.cpp:122] Setting up bn6
I0116 09:03:41.374697 145377 net.cpp:129] Top shape: 256 4096 (1048576)
I0116 09:03:41.374702 145377 net.cpp:137] Memory required for data: 2950663168
I0116 09:03:41.374716 145377 layer_factory.hpp:77] Creating layer scale6
I0116 09:03:41.374742 145377 net.cpp:84] Creating Layer scale6
I0116 09:03:41.374749 145377 net.cpp:406] scale6 <- fc6
I0116 09:03:41.374758 145377 net.cpp:367] scale6 -> fc6 (in-place)
I0116 09:03:41.374819 145377 layer_factory.hpp:77] Creating layer scale6
I0116 09:03:41.374959 145377 net.cpp:122] Setting up scale6
I0116 09:03:41.374974 145377 net.cpp:129] Top shape: 256 4096 (1048576)
I0116 09:03:41.374987 145377 net.cpp:137] Memory required for data: 2954857472
I0116 09:03:41.374996 145377 layer_factory.hpp:77] Creating layer relu6
I0116 09:03:41.375005 145377 net.cpp:84] Creating Layer relu6
I0116 09:03:41.375025 145377 net.cpp:406] relu6 <- fc6
I0116 09:03:41.375037 145377 net.cpp:367] relu6 -> fc6 (in-place)
I0116 09:03:41.375056 145377 net.cpp:122] Setting up relu6
I0116 09:03:41.375062 145377 net.cpp:129] Top shape: 256 4096 (1048576)
I0116 09:03:41.375069 145377 net.cpp:137] Memory required for data: 2959051776
I0116 09:03:41.375074 145377 layer_factory.hpp:77] Creating layer drop6
I0116 09:03:41.375084 145377 net.cpp:84] Creating Layer drop6
I0116 09:03:41.375092 145377 net.cpp:406] drop6 <- fc6
I0116 09:03:41.375098 145377 net.cpp:367] drop6 -> fc6 (in-place)
I0116 09:03:41.375131 145377 net.cpp:122] Setting up drop6
I0116 09:03:41.375142 145377 net.cpp:129] Top shape: 256 4096 (1048576)
I0116 09:03:41.375149 145377 net.cpp:137] Memory required for data: 2963246080
I0116 09:03:41.375154 145377 layer_factory.hpp:77] Creating layer fc7
I0116 09:03:41.375169 145377 net.cpp:84] Creating Layer fc7
I0116 09:03:41.375175 145377 net.cpp:406] fc7 <- fc6
I0116 09:03:41.375188 145377 net.cpp:380] fc7 -> fc7
I0116 09:03:41.646615 145377 net.cpp:122] Setting up fc7
I0116 09:03:41.646698 145377 net.cpp:129] Top shape: 256 4096 (1048576)
I0116 09:03:41.646706 145377 net.cpp:137] Memory required for data: 2967440384
I0116 09:03:41.646728 145377 layer_factory.hpp:77] Creating layer bn7
I0116 09:03:41.646751 145377 net.cpp:84] Creating Layer bn7
I0116 09:03:41.646761 145377 net.cpp:406] bn7 <- fc7
I0116 09:03:41.646775 145377 net.cpp:367] bn7 -> fc7 (in-place)
I0116 09:03:41.646972 145377 net.cpp:122] Setting up bn7
I0116 09:03:41.646986 145377 net.cpp:129] Top shape: 256 4096 (1048576)
I0116 09:03:41.646993 145377 net.cpp:137] Memory required for data: 2971634688
I0116 09:03:41.647006 145377 layer_factory.hpp:77] Creating layer scale7
I0116 09:03:41.647080 145377 net.cpp:84] Creating Layer scale7
I0116 09:03:41.647090 145377 net.cpp:406] scale7 <- fc7
I0116 09:03:41.647101 145377 net.cpp:367] scale7 -> fc7 (in-place)
I0116 09:03:41.647150 145377 layer_factory.hpp:77] Creating layer scale7
I0116 09:03:41.647284 145377 net.cpp:122] Setting up scale7
I0116 09:03:41.647297 145377 net.cpp:129] Top shape: 256 4096 (1048576)
I0116 09:03:41.647305 145377 net.cpp:137] Memory required for data: 2975828992
I0116 09:03:41.647315 145377 layer_factory.hpp:77] Creating layer relu7
I0116 09:03:41.647325 145377 net.cpp:84] Creating Layer relu7
I0116 09:03:41.647332 145377 net.cpp:406] relu7 <- fc7
I0116 09:03:41.647343 145377 net.cpp:367] relu7 -> fc7 (in-place)
I0116 09:03:41.647354 145377 net.cpp:122] Setting up relu7
I0116 09:03:41.647363 145377 net.cpp:129] Top shape: 256 4096 (1048576)
I0116 09:03:41.647369 145377 net.cpp:137] Memory required for data: 2980023296
I0116 09:03:41.647377 145377 layer_factory.hpp:77] Creating layer drop7
I0116 09:03:41.647388 145377 net.cpp:84] Creating Layer drop7
I0116 09:03:41.647395 145377 net.cpp:406] drop7 <- fc7
I0116 09:03:41.647403 145377 net.cpp:367] drop7 -> fc7 (in-place)
I0116 09:03:41.647431 145377 net.cpp:122] Setting up drop7
I0116 09:03:41.647442 145377 net.cpp:129] Top shape: 256 4096 (1048576)
I0116 09:03:41.647449 145377 net.cpp:137] Memory required for data: 2984217600
I0116 09:03:41.647456 145377 layer_factory.hpp:77] Creating layer fc8
I0116 09:03:41.647526 145377 net.cpp:84] Creating Layer fc8
I0116 09:03:41.647533 145377 net.cpp:406] fc8 <- fc7
I0116 09:03:41.647547 145377 net.cpp:380] fc8 -> fc8
I0116 09:03:41.715965 145377 net.cpp:122] Setting up fc8
I0116 09:03:41.716032 145377 net.cpp:129] Top shape: 256 1000 (256000)
I0116 09:03:41.716037 145377 net.cpp:137] Memory required for data: 2985241600
I0116 09:03:41.716058 145377 layer_factory.hpp:77] Creating layer fc8_fc8_0_split
I0116 09:03:41.716074 145377 net.cpp:84] Creating Layer fc8_fc8_0_split
I0116 09:03:41.716089 145377 net.cpp:406] fc8_fc8_0_split <- fc8
I0116 09:03:41.716104 145377 net.cpp:380] fc8_fc8_0_split -> fc8_fc8_0_split_0
I0116 09:03:41.716122 145377 net.cpp:380] fc8_fc8_0_split -> fc8_fc8_0_split_1
I0116 09:03:41.716179 145377 net.cpp:122] Setting up fc8_fc8_0_split
I0116 09:03:41.716190 145377 net.cpp:129] Top shape: 256 1000 (256000)
I0116 09:03:41.716197 145377 net.cpp:129] Top shape: 256 1000 (256000)
I0116 09:03:41.716202 145377 net.cpp:137] Memory required for data: 2987289600
I0116 09:03:41.716214 145377 layer_factory.hpp:77] Creating layer accuracy_5_TRAIN
I0116 09:03:41.716230 145377 net.cpp:84] Creating Layer accuracy_5_TRAIN
I0116 09:03:41.716238 145377 net.cpp:406] accuracy_5_TRAIN <- fc8_fc8_0_split_0
I0116 09:03:41.716248 145377 net.cpp:406] accuracy_5_TRAIN <- label_data_1_split_0
…
I0116 09:03:41.719259 145377 net.cpp:294] The NetState phase (1) differed from the phase (0) specified by a rule in layer accuracy_5_TRAIN
I0116 09:03:41.719525 145377 net.cpp:51] Initializing net from parameters: 
name: "AlexNet-BN"
state {
  phase: TEST
}
layer {
  name: "data"
  type: "Data"
  top: "data"
  top: "label"
  include {
    phase: TEST
  }
  transform_param {
    mirror: false
    crop_size: 224
    mean_value: 103.939
    mean_value: 116.779
    mean_value: 123.68
  }
  data_param {
    source: "/home/DATA/imagenet_resize/lmdb_resize/ilsvrc12_val_lmdb"
    batch_size: 50
    backend: LMDB
  }
}
layer {
  name: "conv1"
  type: "Convolution"
  bottom: "data"
  top: "conv1"
  param {
    lr_mult: 1
    decay_mult: 1
  }
  param {
    lr_mult: 2
    decay_mult: 0
  }
  convolution_param {
    num_output: 96
    pad: 2
    kernel_size: 11
    stride: 4
    weight_filler {
      type: "gaussian"
      std: 0.01
    }
    bias_filler {
      type: "constant"
      value: 0
    }
  }
}
layer {
  name: "bn1"
  type: "BatchNorm"
  bottom: "conv1"
  top: "conv1"
}
layer {
  name: "scale1"
  type: "Scale"
  bottom: "conv1"
  top: "conv1"
  scale_param {
    bias_term: true
  }
}
layer {
  name: "relu1"
  type: "ReLU"
  bottom: "conv1"
  top: "conv1"
}
layer {
  name: "pool1"
  type: "Pooling"
  bottom: "conv1"
  top: "pool1"
  pooling_param {
    pool: MAX
    kernel_size: 3
    stride: 2
  }
}
layer {
  name: "conv2"
  type: "Convolution"
  bottom: "pool1"
  top: "conv2"
  param {
    lr_mult: 1
    decay_mult: 1
  }
  param {
    lr_mult: 2
    decay_mult: 0
  }
  convolution_param {
    num_output: 256
    pad: 2
    kernel_size: 5
    weight_filler {
      type: "gaussian"
      std: 0.01
    }
    bias_filler {
      type: "constant"
      value: 0.1
    }
  }
}
layer {
  name: "bn2"
  type: "BatchNorm"
  bottom: "conv2"
  top: "conv2"
}
layer {
  name: "scale2"
  type: "Scale"
  bottom: "conv2"
  top: "conv2"
  scale_param {
    bias_term: true
  }
}
layer {
  name: "relu2"
  type: "ReLU"
  bottom: "conv2"
  top: "conv2"
}
layer {
  name: "pool2"
  type: "Pooling"
  bottom: "conv2"
  top: "pool2"
  pooling_param {
    pool: MAX
    kernel_size: 3
    stride: 2
  }
}
layer {
  name: "conv3"
  type: "Convolution"
  bottom: "pool2"
  top: "conv3"
  param {
    lr_mult: 1
    decay_mult: 1
  }
  param {
    lr_mult: 2
    decay_mult: 0
  }
  convolution_param {
    num_output: 384
    pad: 1
    kernel_size: 3
    weight_filler {
      type: "gaussian"
      std: 0.01
    }
    bias_filler {
      type: "constant"
      value: 0
    }
  }
}
layer {
  name: "bn3"
  type: "BatchNorm"
  bottom: "conv3"
  top: "conv3"
}
layer {
  name: "scale3"
  type: "Scale"
  bottom: "conv3"
  top: "conv3"
  scale_param {
    bias_term: true
  }
}
layer {
  name: "relu3"
  type: "ReLU"
  bottom: "conv3"
  top: "conv3"
}
layer {
  name: "conv4"
  type: "Convolution"
  bottom: "conv3"
  top: "conv4"
  param {
    lr_mult: 1
    decay_mult: 1
  }
  param {
    lr_mult: 2
    decay_mult: 0
  }
  convolution_param {
    num_output: 384
    pad: 1
    kernel_size: 3
    weight_filler {
      type: "gaussian"
      std: 0.01
    }
    bias_filler {
      type: "constant"
      value: 0.1
    }
  }
}
layer {
  name: "bn4"
  type: "BatchNorm"
  bottom: "conv4"
  top: "conv4"
}
layer {
  name: "scale4"
  type: "Scale"
  bottom: "conv4"
  top: "conv4"
  scale_param {
    bias_term: true
  }
}
layer {
  name: "relu4"
  type: "ReLU"
  bottom: "conv4"
  top: "conv4"
}
layer {
  name: "conv5"
  type: "Convolution"
  bottom: "conv4"
  top: "conv5"
  param {
    lr_mult: 1
    decay_mult: 1
  }
  param {
    lr_mult: 2
    decay_mult: 0
  }
  convolution_param {
    num_output: 256
    pad: 1
    kernel_size: 3
    weight_filler {
      type: "gaussian"
      std: 0.01
    }
    bias_filler {
      type: "constant"
      value: 0.1
    }
  }
}
layer {
  name: "bn5"
  type: "BatchNorm"
  bottom: "conv5"
  top: "conv5"
}
layer {
  name: "scale5"
  type: "Scale"
  bottom: "conv5"
  top: "conv5"
  scale_param {
    bias_term: true
  }
}
layer {
  name: "relu5"
  type: "ReLU"
  bottom: "conv5"
  top: "conv5"
}
layer {
  name: "pool5"
  type: "Pooling"
  bottom: "conv5"
  top: "pool5"
  pooling_param {
    pool: MAX
    kernel_size: 3
    stride: 2
  }
}
layer {
  name: "fc6"
  type: "InnerProduct"
  bottom: "pool5"
  top: "fc6"
  param {
    lr_mult: 1
    decay_mult: 1
  }
  param {
    lr_mult: 2
    decay_mult: 0
  }
  inner_product_param {
    num_output: 4096
    weight_filler {
      type: "gaussian"
      std: 0.005
    }
    bias_filler {
      type: "constant"
      value: 0.1
    }
  }
}
layer {
  name: "bn6"
  type: "BatchNorm"
  bottom: "fc6"
  top: "fc6"
}
layer {
  name: "scale6"
  type: "Scale"
  bottom: "fc6"
  top: "fc6"
  scale_param {
    bias_term: true
  }
}
layer {
  name: "relu6"
  type: "ReLU"
  bottom: "fc6"
  top: "fc6"
}
layer {
  name: "drop6"
  type: "Dropout"
  bottom: "fc6"
  top: "fc6"
  dropout_param {
    dropout_ratio: 0.5
  }
}
layer {
  name: "fc7"
  type: "InnerProduct"
  bottom: "fc6"
  top: "fc7"
  param {
    lr_mult: 1
    decay_mult: 1
  }
  param {
    lr_mult: 2
    decay_mult: 0
  }
  inner_product_param {
    num_output: 4096
    weight_filler {
      type: "gaussian"
      std: 0.005
    }
    bias_filler {
      type: "constant"
      value: 0.1
    }
  }
}
layer {
  name: "bn7"
  type: "BatchNorm"
  bottom: "fc7"
  top: "fc7"
}
layer {
  name: "scale7"
  type: "Scale"
  bottom: "fc7"
  top: "fc7"
  scale_param {
    bias_term: true
  }
}
layer {
  name: "relu7"
  type: "ReLU"
  bottom: "fc7"
  top: "fc7"
}
layer {
  name: "drop7"
  type: "Dropout"
  bottom: "fc7"
  top: "fc7"
  dropout_param {
    dropout_ratio: 0.5
  }
}
layer {
  name: "fc8"
  type: "InnerProduct"
  bottom: "fc7"
  top: "fc8"
  param {
    lr_mult: 1
    decay_mult: 1
  }
  param {
    lr_mult: 2
    decay_mult: 0
  }
  inner_product_param {
    num_output: 1000
    weight_filler {
      type: "gaussian"
      std: 0.01
    }
    bias_filler {
      type: "constant"
      value: 0
    }
  }
}
layer {
  name: "accuracy"
  type: "Accuracy"
  bottom: "fc8"
  bottom: "label"
  top: "accuracy"
  include {
    phase: TEST
  }
}
layer {
  name: "accuracy_5"
  type: "Accuracy"
  bottom: "fc8"
  bottom: "label"
  top: "accuracy_5"
  include {
    phase: TEST
  }
  accuracy_param {
    top_k: 5
  }
}
layer {
  name: "loss"
  type: "SoftmaxWithLoss"
  bottom: "fc8"
  bottom: "label"
  top: "loss"
}
I0116 09:03:41.720078 145377 layer_factory.hpp:77] Creating layer data
I0116 09:03:41.850755 145377 db_lmdb.cpp:35] Opened lmdb /home/DATA/imagenet_resize/lmdb_resize/ilsvrc12_val_lmdb
I0116 09:03:41.850904 145377 net.cpp:84] Creating Layer data
I0116 09:03:41.850934 145377 net.cpp:380] data -> data
I0116 09:03:41.850963 145377 net.cpp:380] data -> label
I0116 09:03:41.851434 145377 data_layer.cpp:45] output data size: 50,3,224,224
I0116 09:03:41.993908 145377 net.cpp:122] Setting up data
I0116 09:03:41.993974 145377 net.cpp:129] Top shape: 50 3 224 224 (7526400)
I0116 09:03:41.993988 145377 net.cpp:129] Top shape: 50 (50)
I0116 09:03:41.994014 145377 net.cpp:137] Memory required for data: 30105800
I0116 09:03:41.994027 145377 layer_factory.hpp:77] Creating layer label_data_1_split
I0116 09:03:41.994052 145377 net.cpp:84] Creating Layer label_data_1_split
I0116 09:03:41.994061 145377 net.cpp:406] label_data_1_split <- label
I0116 09:03:41.994084 145377 net.cpp:380] label_data_1_split -> label_data_1_split_0
I0116 09:03:41.994104 145377 net.cpp:380] label_data_1_split -> label_data_1_split_1
I0116 09:03:41.994117 145377 net.cpp:380] label_data_1_split -> label_data_1_split_2
I0116 09:03:41.994282 145377 net.cpp:122] Setting up label_data_1_split
I0116 09:03:41.994294 145377 net.cpp:129] Top shape: 50 (50)
I0116 09:03:41.994314 145377 net.cpp:129] Top shape: 50 (50)
I0116 09:03:41.994321 145377 net.cpp:129] Top shape: 50 (50)
I0116 09:03:41.994328 145377 net.cpp:137] Memory required for data: 30106400
I0116 09:03:41.994336 145377 layer_factory.hpp:77] Creating layer conv1
I0116 09:03:41.994360 145377 net.cpp:84] Creating Layer conv1
I0116 09:03:41.994369 145377 net.cpp:406] conv1 <- data
I0116 09:03:41.994380 145377 net.cpp:380] conv1 -> conv1
I0116 09:03:41.995604 145377 net.cpp:122] Setting up conv1
I0116 09:03:41.995630 145377 net.cpp:129] Top shape: 50 96 55 55 (14520000)
I0116 09:03:41.995636 145377 net.cpp:137] Memory required for data: 88186400
I0116 09:03:41.995654 145377 layer_factory.hpp:77] Creating layer bn1
I0116 09:03:41.995697 145377 net.cpp:84] Creating Layer bn1
I0116 09:03:41.995703 145377 net.cpp:406] bn1 <- conv1
I0116 09:03:41.995713 145377 net.cpp:367] bn1 -> conv1 (in-place)
I0116 09:03:41.996122 145377 net.cpp:122] Setting up bn1
I0116 09:03:41.996147 145377 net.cpp:129] Top shape: 50 96 55 55 (14520000)
I0116 09:03:41.996155 145377 net.cpp:137] Memory required for data: 146266400
I0116 09:03:41.996186 145377 layer_factory.hpp:77] Creating layer scale1
I0116 09:03:41.996202 145377 net.cpp:84] Creating Layer scale1
I0116 09:03:41.996208 145377 net.cpp:406] scale1 <- conv1
I0116 09:03:41.996217 145377 net.cpp:367] scale1 -> conv1 (in-place)
I0116 09:03:41.996310 145377 layer_factory.hpp:77] Creating layer scale1
I0116 09:03:42.001350 145377 net.cpp:122] Setting up scale1
I0116 09:03:42.001394 145377 net.cpp:129] Top shape: 50 96 55 55 (14520000)
I0116 09:03:42.001401 145377 net.cpp:137] Memory required for data: 204346400
I0116 09:03:42.001413 145377 layer_factory.hpp:77] Creating layer relu1
I0116 09:03:42.001426 145377 net.cpp:84] Creating Layer relu1
I0116 09:03:42.001433 145377 net.cpp:406] relu1 <- conv1
I0116 09:03:42.001443 145377 net.cpp:367] relu1 -> conv1 (in-place)
I0116 09:03:42.001466 145377 net.cpp:122] Setting up relu1
I0116 09:03:42.001472 145377 net.cpp:129] Top shape: 50 96 55 55 (14520000)
I0116 09:03:42.001477 145377 net.cpp:137] Memory required for data: 262426400
I0116 09:03:42.001482 145377 layer_factory.hpp:77] Creating layer pool1
I0116 09:03:42.001493 145377 net.cpp:84] Creating Layer pool1
I0116 09:03:42.001498 145377 net.cpp:406] pool1 <- conv1
I0116 09:03:42.001518 145377 net.cpp:380] pool1 -> pool1
I0116 09:03:42.001590 145377 net.cpp:122] Setting up pool1
I0116 09:03:42.001602 145377 net.cpp:129] Top shape: 50 96 27 27 (3499200)
I0116 09:03:42.001607 145377 net.cpp:137] Memory required for data: 276423200
I0116 09:03:42.001613 145377 layer_factory.hpp:77] Creating layer conv2
I0116 09:03:42.001626 145377 net.cpp:84] Creating Layer conv2
I0116 09:03:42.001708 145377 net.cpp:406] conv2 <- pool1
I0116 09:03:42.001721 145377 net.cpp:380] conv2 -> conv2
I0116 09:03:42.012094 145377 net.cpp:122] Setting up conv2
I0116 09:03:42.012130 145377 net.cpp:129] Top shape: 50 256 27 27 (9331200)
I0116 09:03:42.012137 145377 net.cpp:137] Memory required for data: 313748000
I0116 09:03:42.012151 145377 layer_factory.hpp:77] Creating layer bn2
I0116 09:03:42.012166 145377 net.cpp:84] Creating Layer bn2
I0116 09:03:42.012173 145377 net.cpp:406] bn2 <- conv2
I0116 09:03:42.012183 145377 net.cpp:367] bn2 -> conv2 (in-place)
I0116 09:03:42.012419 145377 net.cpp:122] Setting up bn2
I0116 09:03:42.012434 145377 net.cpp:129] Top shape: 50 256 27 27 (9331200)
I0116 09:03:42.012451 145377 net.cpp:137] Memory required for data: 351072800
I0116 09:03:42.012462 145377 layer_factory.hpp:77] Creating layer scale2
I0116 09:03:42.012473 145377 net.cpp:84] Creating Layer scale2
I0116 09:03:42.012480 145377 net.cpp:406] scale2 <- conv2
I0116 09:03:42.012488 145377 net.cpp:367] scale2 -> conv2 (in-place)
I0116 09:03:42.012550 145377 layer_factory.hpp:77] Creating layer scale2
I0116 09:03:42.012698 145377 net.cpp:122] Setting up scale2
I0116 09:03:42.012712 145377 net.cpp:129] Top shape: 50 256 27 27 (9331200)
I0116 09:03:42.012729 145377 net.cpp:137] Memory required for data: 388397600
I0116 09:03:42.012738 145377 layer_factory.hpp:77] Creating layer relu2
I0116 09:03:42.012750 145377 net.cpp:84] Creating Layer relu2
I0116 09:03:42.012758 145377 net.cpp:406] relu2 <- conv2
I0116 09:03:42.012768 145377 net.cpp:367] relu2 -> conv2 (in-place)
I0116 09:03:42.012789 145377 net.cpp:122] Setting up relu2
I0116 09:03:42.012799 145377 net.cpp:129] Top shape: 50 256 27 27 (9331200)
I0116 09:03:42.012805 145377 net.cpp:137] Memory required for data: 425722400
I0116 09:03:42.012812 145377 layer_factory.hpp:77] Creating layer pool2
I0116 09:03:42.012823 145377 net.cpp:84] Creating Layer pool2
I0116 09:03:42.012830 145377 net.cpp:406] pool2 <- conv2
I0116 09:03:42.012840 145377 net.cpp:380] pool2 -> pool2
I0116 09:03:42.012902 145377 net.cpp:122] Setting up pool2
I0116 09:03:42.012915 145377 net.cpp:129] Top shape: 50 256 13 13 (2163200)
I0116 09:03:42.012922 145377 net.cpp:137] Memory required for data: 434375200
I0116 09:03:42.012928 145377 layer_factory.hpp:77] Creating layer conv3
I0116 09:03:42.012943 145377 net.cpp:84] Creating Layer conv3
I0116 09:03:42.012950 145377 net.cpp:406] conv3 <- pool2
I0116 09:03:42.012961 145377 net.cpp:380] conv3 -> conv3
I0116 09:03:42.027406 145377 net.cpp:122] Setting up conv3
I0116 09:03:42.027436 145377 net.cpp:129] Top shape: 50 384 13 13 (3244800)
I0116 09:03:42.027443 145377 net.cpp:137] Memory required for data: 447354400
I0116 09:03:42.027456 145377 layer_factory.hpp:77] Creating layer bn3
I0116 09:03:42.027468 145377 net.cpp:84] Creating Layer bn3
I0116 09:03:42.027477 145377 net.cpp:406] bn3 <- conv3
I0116 09:03:42.027488 145377 net.cpp:367] bn3 -> conv3 (in-place)
I0116 09:03:42.027694 145377 net.cpp:122] Setting up bn3
I0116 09:03:42.027709 145377 net.cpp:129] Top shape: 50 384 13 13 (3244800)
I0116 09:03:42.027715 145377 net.cpp:137] Memory required for data: 460333600
I0116 09:03:42.027734 145377 layer_factory.hpp:77] Creating layer scale3
I0116 09:03:42.027751 145377 net.cpp:84] Creating Layer scale3
I0116 09:03:42.027761 145377 net.cpp:406] scale3 <- conv3
I0116 09:03:42.027776 145377 net.cpp:367] scale3 -> conv3 (in-place)
I0116 09:03:42.027832 145377 layer_factory.hpp:77] Creating layer scale3
I0116 09:03:42.027961 145377 net.cpp:122] Setting up scale3
I0116 09:03:42.027974 145377 net.cpp:129] Top shape: 50 384 13 13 (3244800)
I0116 09:03:42.027981 145377 net.cpp:137] Memory required for data: 473312800
I0116 09:03:42.027990 145377 layer_factory.hpp:77] Creating layer relu3
I0116 09:03:42.028002 145377 net.cpp:84] Creating Layer relu3
I0116 09:03:42.028007 145377 net.cpp:406] relu3 <- conv3
I0116 09:03:42.028017 145377 net.cpp:367] relu3 -> conv3 (in-place)
I0116 09:03:42.028028 145377 net.cpp:122] Setting up relu3
I0116 09:03:42.028035 145377 net.cpp:129] Top shape: 50 384 13 13 (3244800)
I0116 09:03:42.028074 145377 net.cpp:137] Memory required for data: 486292000
I0116 09:03:42.028081 145377 layer_factory.hpp:77] Creating layer conv4
I0116 09:03:42.028100 145377 net.cpp:84] Creating Layer conv4
I0116 09:03:42.028107 145377 net.cpp:406] conv4 <- conv3
I0116 09:03:42.028118 145377 net.cpp:380] conv4 -> conv4
I0116 09:03:42.055186 145377 net.cpp:122] Setting up conv4
I0116 09:03:42.055249 145377 net.cpp:129] Top shape: 50 384 13 13 (3244800)
I0116 09:03:42.055256 145377 net.cpp:137] Memory required for data: 499271200
I0116 09:03:42.055284 145377 layer_factory.hpp:77] Creating layer bn4
I0116 09:03:42.055302 145377 net.cpp:84] Creating Layer bn4
I0116 09:03:42.055316 145377 net.cpp:406] bn4 <- conv4
I0116 09:03:42.055332 145377 net.cpp:367] bn4 -> conv4 (in-place)
I0116 09:03:42.055591 145377 net.cpp:122] Setting up bn4
I0116 09:03:42.055614 145377 net.cpp:129] Top shape: 50 384 13 13 (3244800)
I0116 09:03:42.055620 145377 net.cpp:137] Memory required for data: 512250400
I0116 09:03:42.055634 145377 layer_factory.hpp:77] Creating layer scale4
I0116 09:03:42.055657 145377 net.cpp:84] Creating Layer scale4
I0116 09:03:42.055665 145377 net.cpp:406] scale4 <- conv4
I0116 09:03:42.055673 145377 net.cpp:367] scale4 -> conv4 (in-place)
I0116 09:03:42.055742 145377 layer_factory.hpp:77] Creating layer scale4
I0116 09:03:42.055897 145377 net.cpp:122] Setting up scale4
I0116 09:03:42.055912 145377 net.cpp:129] Top shape: 50 384 13 13 (3244800)
I0116 09:03:42.055917 145377 net.cpp:137] Memory required for data: 525229600
I0116 09:03:42.055927 145377 layer_factory.hpp:77] Creating layer relu4
I0116 09:03:42.055938 145377 net.cpp:84] Creating Layer relu4
I0116 09:03:42.055946 145377 net.cpp:406] relu4 <- conv4
I0116 09:03:42.055958 145377 net.cpp:367] relu4 -> conv4 (in-place)
I0116 09:03:42.055969 145377 net.cpp:122] Setting up relu4
I0116 09:03:42.055979 145377 net.cpp:129] Top shape: 50 384 13 13 (3244800)
I0116 09:03:42.055985 145377 net.cpp:137] Memory required for data: 538208800
I0116 09:03:42.055992 145377 layer_factory.hpp:77] Creating layer conv5
I0116 09:03:42.056010 145377 net.cpp:84] Creating Layer conv5
I0116 09:03:42.056017 145377 net.cpp:406] conv5 <- conv4
I0116 09:03:42.056030 145377 net.cpp:380] conv5 -> conv5
I0116 09:03:42.094666 145377 net.cpp:122] Setting up conv5
I0116 09:03:42.094728 145377 net.cpp:129] Top shape: 50 256 13 13 (2163200)
I0116 09:03:42.094738 145377 net.cpp:137] Memory required for data: 546861600
I0116 09:03:42.094755 145377 layer_factory.hpp:77] Creating layer bn5
I0116 09:03:42.094780 145377 net.cpp:84] Creating Layer bn5
I0116 09:03:42.094791 145377 net.cpp:406] bn5 <- conv5
I0116 09:03:42.094805 145377 net.cpp:367] bn5 -> conv5 (in-place)
I0116 09:03:42.095058 145377 net.cpp:122] Setting up bn5
I0116 09:03:42.095074 145377 net.cpp:129] Top shape: 50 256 13 13 (2163200)
I0116 09:03:42.095082 145377 net.cpp:137] Memory required for data: 555514400
I0116 09:03:42.095104 145377 layer_factory.hpp:77] Creating layer scale5
I0116 09:03:42.095253 145377 net.cpp:84] Creating Layer scale5
I0116 09:03:42.095275 145377 net.cpp:406] scale5 <- conv5
I0116 09:03:42.095289 145377 net.cpp:367] scale5 -> conv5 (in-place)
I0116 09:03:42.095367 145377 layer_factory.hpp:77] Creating layer scale5
I0116 09:03:42.095510 145377 net.cpp:122] Setting up scale5
I0116 09:03:42.095525 145377 net.cpp:129] Top shape: 50 256 13 13 (2163200)
I0116 09:03:42.095531 145377 net.cpp:137] Memory required for data: 564167200
I0116 09:03:42.095541 145377 layer_factory.hpp:77] Creating layer relu5
I0116 09:03:42.095551 145377 net.cpp:84] Creating Layer relu5
I0116 09:03:42.095558 145377 net.cpp:406] relu5 <- conv5
I0116 09:03:42.095568 145377 net.cpp:367] relu5 -> conv5 (in-place)
I0116 09:03:42.095579 145377 net.cpp:122] Setting up relu5
I0116 09:03:42.095588 145377 net.cpp:129] Top shape: 50 256 13 13 (2163200)
I0116 09:03:42.095595 145377 net.cpp:137] Memory required for data: 572820000
I0116 09:03:42.095602 145377 layer_factory.hpp:77] Creating layer pool5
I0116 09:03:42.095659 145377 net.cpp:84] Creating Layer pool5
I0116 09:03:42.095667 145377 net.cpp:406] pool5 <- conv5
I0116 09:03:42.095679 145377 net.cpp:380] pool5 -> pool5
I0116 09:03:42.095736 145377 net.cpp:122] Setting up pool5
I0116 09:03:42.095748 145377 net.cpp:129] Top shape: 50 256 6 6 (460800)
I0116 09:03:42.095755 145377 net.cpp:137] Memory required for data: 574663200
I0116 09:03:42.095762 145377 layer_factory.hpp:77] Creating layer fc6
I0116 09:03:42.095777 145377 net.cpp:84] Creating Layer fc6
I0116 09:03:42.095784 145377 net.cpp:406] fc6 <- pool5
I0116 09:03:42.095794 145377 net.cpp:380] fc6 -> fc6
I0116 09:03:42.890307 145377 net.cpp:122] Setting up fc6
I0116 09:03:42.890496 145377 net.cpp:129] Top shape: 50 4096 (204800)
I0116 09:03:42.890514 145377 net.cpp:137] Memory required for data: 575482400
I0116 09:03:42.890537 145377 layer_factory.hpp:77] Creating layer bn6
I0116 09:03:42.890563 145377 net.cpp:84] Creating Layer bn6
I0116 09:03:42.890575 145377 net.cpp:406] bn6 <- fc6
I0116 09:03:42.890592 145377 net.cpp:367] bn6 -> fc6 (in-place)
I0116 09:03:42.890902 145377 net.cpp:122] Setting up bn6
I0116 09:03:42.890933 145377 net.cpp:129] Top shape: 50 4096 (204800)
I0116 09:03:42.890947 145377 net.cpp:137] Memory required for data: 576301600
I0116 09:03:42.890985 145377 layer_factory.hpp:77] Creating layer scale6
I0116 09:03:42.891011 145377 net.cpp:84] Creating Layer scale6
I0116 09:03:42.891026 145377 net.cpp:406] scale6 <- fc6
I0116 09:03:42.891047 145377 net.cpp:367] scale6 -> fc6 (in-place)
I0116 09:03:42.891175 145377 layer_factory.hpp:77] Creating layer scale6
I0116 09:03:42.891542 145377 net.cpp:122] Setting up scale6
I0116 09:03:42.891569 145377 net.cpp:129] Top shape: 50 4096 (204800)
I0116 09:03:42.891584 145377 net.cpp:137] Memory required for data: 577120800
I0116 09:03:42.891609 145377 layer_factory.hpp:77] Creating layer relu6
I0116 09:03:42.891633 145377 net.cpp:84] Creating Layer relu6
I0116 09:03:42.891649 145377 net.cpp:406] relu6 <- fc6
I0116 09:03:42.891669 145377 net.cpp:367] relu6 -> fc6 (in-place)
I0116 09:03:42.891690 145377 net.cpp:122] Setting up relu6
I0116 09:03:42.891707 145377 net.cpp:129] Top shape: 50 4096 (204800)
I0116 09:03:42.891722 145377 net.cpp:137] Memory required for data: 577940000
I0116 09:03:42.891736 145377 layer_factory.hpp:77] Creating layer drop6
I0116 09:03:42.891767 145377 net.cpp:84] Creating Layer drop6
I0116 09:03:42.891783 145377 net.cpp:406] drop6 <- fc6
I0116 09:03:42.891803 145377 net.cpp:367] drop6 -> fc6 (in-place)
I0116 09:03:42.891881 145377 net.cpp:122] Setting up drop6
I0116 09:03:42.891911 145377 net.cpp:129] Top shape: 50 4096 (204800)
I0116 09:03:42.891927 145377 net.cpp:137] Memory required for data: 578759200
I0116 09:03:42.891940 145377 layer_factory.hpp:77] Creating layer fc7
I0116 09:03:42.891999 145377 net.cpp:84] Creating Layer fc7
I0116 09:03:42.892043 145377 net.cpp:406] fc7 <- fc6
I0116 09:03:42.892098 145377 net.cpp:380] fc7 -> fc7
I0116 09:03:43.275425 145377 net.cpp:122] Setting up fc7
I0116 09:03:43.275523 145377 net.cpp:129] Top shape: 50 4096 (204800)
I0116 09:03:43.275539 145377 net.cpp:137] Memory required for data: 579578400
I0116 09:03:43.275581 145377 layer_factory.hpp:77] Creating layer bn7
I0116 09:03:43.275622 145377 net.cpp:84] Creating Layer bn7
I0116 09:03:43.275640 145377 net.cpp:406] bn7 <- fc7
I0116 09:03:43.275710 145377 net.cpp:367] bn7 -> fc7 (in-place)
I0116 09:03:43.276316 145377 net.cpp:122] Setting up bn7
I0116 09:03:43.276340 145377 net.cpp:129] Top shape: 50 4096 (204800)
I0116 09:03:43.276355 145377 net.cpp:137] Memory required for data: 580397600
I0116 09:03:43.276387 145377 layer_factory.hpp:77] Creating layer scale7
I0116 09:03:43.276427 145377 net.cpp:84] Creating Layer scale7
I0116 09:03:43.276443 145377 net.cpp:406] scale7 <- fc7
I0116 09:03:43.276463 145377 net.cpp:367] scale7 -> fc7 (in-place)
I0116 09:03:43.276585 145377 layer_factory.hpp:77] Creating layer scale7
I0116 09:03:43.276913 145377 net.cpp:122] Setting up scale7
I0116 09:03:43.276935 145377 net.cpp:129] Top shape: 50 4096 (204800)
I0116 09:03:43.276998 145377 net.cpp:137] Memory required for data: 581216800
I0116 09:03:43.277024 145377 layer_factory.hpp:77] Creating layer relu7
I0116 09:03:43.277050 145377 net.cpp:84] Creating Layer relu7
I0116 09:03:43.277065 145377 net.cpp:406] relu7 <- fc7
I0116 09:03:43.277082 145377 net.cpp:367] relu7 -> fc7 (in-place)
I0116 09:03:43.277106 145377 net.cpp:122] Setting up relu7
I0116 09:03:43.277122 145377 net.cpp:129] Top shape: 50 4096 (204800)
I0116 09:03:43.277158 145377 net.cpp:137] Memory required for data: 582036000
I0116 09:03:43.277199 145377 layer_factory.hpp:77] Creating layer drop7
I0116 09:03:43.277261 145377 net.cpp:84] Creating Layer drop7
I0116 09:03:43.277302 145377 net.cpp:406] drop7 <- fc7
I0116 09:03:43.277367 145377 net.cpp:367] drop7 -> fc7 (in-place)
I0116 09:03:43.277451 145377 net.cpp:122] Setting up drop7
I0116 09:03:43.277470 145377 net.cpp:129] Top shape: 50 4096 (204800)
I0116 09:03:43.277483 145377 net.cpp:137] Memory required for data: 582855200
I0116 09:03:43.277499 145377 layer_factory.hpp:77] Creating layer fc8
I0116 09:03:43.277559 145377 net.cpp:84] Creating Layer fc8
I0116 09:03:43.277592 145377 net.cpp:406] fc8 <- fc7
I0116 09:03:43.277617 145377 net.cpp:380] fc8 -> fc8
I0116 09:03:43.380264 145377 net.cpp:122] Setting up fc8
I0116 09:03:43.380370 145377 net.cpp:129] Top shape: 50 1000 (50000)
I0116 09:03:43.380412 145377 net.cpp:137] Memory required for data: 583055200
I0116 09:03:43.380448 145377 layer_factory.hpp:77] Creating layer fc8_fc8_0_split
I0116 09:03:43.380501 145377 net.cpp:84] Creating Layer fc8_fc8_0_split
I0116 09:03:43.380511 145377 net.cpp:406] fc8_fc8_0_split <- fc8
I0116 09:03:43.380538 145377 net.cpp:380] fc8_fc8_0_split -> fc8_fc8_0_split_0
I0116 09:03:43.380576 145377 net.cpp:380] fc8_fc8_0_split -> fc8_fc8_0_split_1
I0116 09:03:43.380589 145377 net.cpp:380] fc8_fc8_0_split -> fc8_fc8_0_split_2
I0116 09:03:43.380723 145377 net.cpp:122] Setting up fc8_fc8_0_split
I0116 09:03:43.380759 145377 net.cpp:129] Top shape: 50 1000 (50000)
I0116 09:03:43.380765 145377 net.cpp:129] Top shape: 50 1000 (50000)
I0116 09:03:43.380774 145377 net.cpp:129] Top shape: 50 1000 (50000)
I0116 09:03:43.380780 145377 net.cpp:137] Memory required for data: 583655200
I0116 09:03:43.380786 145377 layer_factory.hpp:77] Creating layer accuracy
I0116 09:03:43.380797 145377 net.cpp:84] Creating Layer accuracy
I0116 09:03:43.380817 145377 net.cpp:406] accuracy <- fc8_fc8_0_split_0
I0116 09:03:43.380837 145377 net.cpp:406] accuracy <- label_data_1_split_0
I0116 09:03:43.380848 145377 net.cpp:380] accuracy -> accuracy
…
