…
I0117 12:22:03.965361 158840 net.cpp:294] The NetState phase (0) differed from the phase (1) specified by a rule in layer accuracy_5
I0117 12:22:03.965652 158840 net.cpp:51] Initializing net from parameters: 
name: "AlexNet-BN"
state {
  phase: TRAIN
  level: 0
  stage: ""
}
layer {
  name: "data"
  type: "Data"
  top: "data"
  top: "label"
  include {
    phase: TRAIN
  }
  transform_param {
    mirror: true
    crop_size: 224
    mean_value: 103.939
    mean_value: 116.779
    mean_value: 123.68
  }
  data_param {
    source: "/home/ydwu/database/imagenet/ilsvrc12/lmdb_resize/ilsvrc12_train_lmdb"
    batch_size: 256
    backend: LMDB
  }
}
layer {
  name: "conv1"
  type: "Convolution"
  bottom: "data"
  top: "conv1"
  param {
    lr_mult: 1
    decay_mult: 1
  }
  param {
    lr_mult: 2
    decay_mult: 0
  }
  convolution_param {
    num_output: 96
    pad: 2
    kernel_size: 11
    stride: 4
    weight_filler {
      type: "gaussian"
      std: 0.01
    }
    bias_filler {
      type: "constant"
      value: 0
    }
  }
}
layer {
  name: "bn1"
  type: "BatchNorm"
  bottom: "conv1"
  top: "conv1"
}
layer {
  name: "scale1"
  type: "Scale"
  bottom: "conv1"
  top: "conv1"
  scale_param {
    bias_term: true
  }
}
layer {
  name: "relu1"
  type: "ReLU"
  bottom: "conv1"
  top: "conv1"
}
layer {
  name: "pool1"
  type: "Pooling"
  bottom: "conv1"
  top: "pool1"
  pooling_param {
    pool: MAX
    kernel_size: 3
    stride: 2
  }
}
layer {
  name: "conv2"
  type: "Convolution"
  bottom: "pool1"
  top: "conv2"
  param {
    lr_mult: 1
    decay_mult: 1
  }
  param {
    lr_mult: 2
    decay_mult: 0
  }
  convolution_param {
    num_output: 256
    pad: 2
    kernel_size: 5
    weight_filler {
      type: "gaussian"
      std: 0.01
    }
    bias_filler {
      type: "constant"
      value: 0
    }
  }
}
layer {
  name: "bn2"
  type: "BatchNorm"
  bottom: "conv2"
  top: "conv2"
}
layer {
  name: "scale2"
  type: "Scale"
  bottom: "conv2"
  top: "conv2"
  scale_param {
    bias_term: true
  }
}
layer {
  name: "relu2"
  type: "ReLU"
  bottom: "conv2"
  top: "conv2"
}
layer {
  name: "pool2"
  type: "Pooling"
  bottom: "conv2"
  top: "pool2"
  pooling_param {
    pool: MAX
    kernel_size: 3
    stride: 2
  }
}
layer {
  name: "conv3"
  type: "Convolution"
  bottom: "pool2"
  top: "conv3"
  param {
    lr_mult: 1
    decay_mult: 1
  }
  param {
    lr_mult: 2
    decay_mult: 0
  }
  convolution_param {
    num_output: 384
    pad: 1
    kernel_size: 3
    weight_filler {
      type: "gaussian"
      std: 0.01
    }
    bias_filler {
      type: "constant"
      value: 0
    }
  }
}
layer {
  name: "bn3"
  type: "BatchNorm"
  bottom: "conv3"
  top: "conv3"
}
layer {
  name: "scale3"
  type: "Scale"
  bottom: "conv3"
  top: "conv3"
  scale_param {
    bias_term: true
  }
}
layer {
  name: "relu3"
  type: "ReLU"
  bottom: "conv3"
  top: "conv3"
}
layer {
  name: "conv4"
  type: "Convolution"
  bottom: "conv3"
  top: "conv4"
  param {
    lr_mult: 1
    decay_mult: 1
  }
  param {
    lr_mult: 2
    decay_mult: 0
  }
  convolution_param {
    num_output: 384
    pad: 1
    kernel_size: 3
    weight_filler {
      type: "gaussian"
      std: 0.01
    }
    bias_filler {
      type: "constant"
      value: 0
    }
  }
}
layer {
  name: "bn4"
  type: "BatchNorm"
  bottom: "conv4"
  top: "conv4"
}
layer {
  name: "scale4"
  type: "Scale"
  bottom: "conv4"
  top: "conv4"
  scale_param {
    bias_term: true
  }
}
layer {
  name: "relu4"
  type: "ReLU"
  bottom: "conv4"
  top: "conv4"
}
layer {
  name: "conv5"
  type: "Convolution"
  bottom: "conv4"
  top: "conv5"
  param {
    lr_mult: 1
    decay_mult: 1
  }
  param {
    lr_mult: 2
    decay_mult: 0
  }
  convolution_param {
    num_output: 256
    pad: 1
    kernel_size: 3
    weight_filler {
      type: "gaussian"
      std: 0.01
    }
    bias_filler {
      type: "constant"
      value: 0
    }
  }
}
layer {
  name: "bn5"
  type: "BatchNorm"
  bottom: "conv5"
  top: "conv5"
}
layer {
  name: "scale5"
  type: "Scale"
  bottom: "conv5"
  top: "conv5"
  scale_param {
    bias_term: true
  }
}
layer {
  name: "relu5"
  type: "ReLU"
  bottom: "conv5"
  top: "conv5"
}
layer {
  name: "pool5"
  type: "Pooling"
  bottom: "conv5"
  top: "pool5"
  pooling_param {
    pool: MAX
    kernel_size: 3
    stride: 2
  }
}
layer {
  name: "fc6"
  type: "InnerProduct"
  bottom: "pool5"
  top: "fc6"
  param {
    lr_mult: 1
    decay_mult: 1
  }
  param {
    lr_mult: 2
    decay_mult: 0
  }
  inner_product_param {
    num_output: 4096
    weight_filler {
      type: "gaussian"
      std: 0.01
    }
    bias_filler {
      type: "constant"
      value: 0
    }
  }
}
layer {
  name: "bn6"
  type: "BatchNorm"
  bottom: "fc6"
  top: "fc6"
}
layer {
  name: "scale6"
  type: "Scale"
  bottom: "fc6"
  top: "fc6"
  scale_param {
    bias_term: true
  }
}
layer {
  name: "relu6"
  type: "ReLU"
  bottom: "fc6"
  top: "fc6"
}
layer {
  name: "drop6"
  type: "Dropout"
  bottom: "fc6"
  top: "fc6"
  dropout_param {
    dropout_ratio: 0.5
  }
}
layer {
  name: "fc7"
  type: "InnerProduct"
  bottom: "fc6"
  top: "fc7"
  param {
    lr_mult: 1
    decay_mult: 1
  }
  param {
    lr_mult: 2
    decay_mult: 0
  }
  inner_product_param {
    num_output: 4096
    weight_filler {
      type: "gaussian"
      std: 0.01
    }
    bias_filler {
      type: "constant"
      value: 0
    }
  }
}
layer {
  name: "bn7"
  type: "BatchNorm"
  bottom: "fc7"
  top: "fc7"
}
layer {
  name: "scale7"
  type: "Scale"
  bottom: "fc7"
  top: "fc7"
  scale_param {
    bias_term: true
  }
}
layer {
  name: "relu7"
  type: "ReLU"
  bottom: "fc7"
  top: "fc7"
}
layer {
  name: "drop7"
  type: "Dropout"
  bottom: "fc7"
  top: "fc7"
  dropout_param {
    dropout_ratio: 0.5
  }
}
layer {
  name: "fc8"
  type: "InnerProduct"
  bottom: "fc7"
  top: "fc8"
  param {
    lr_mult: 1
    decay_mult: 1
  }
  param {
    lr_mult: 2
    decay_mult: 0
  }
  inner_product_param {
    num_output: 1000
    weight_filler {
      type: "gaussian"
      std: 0.01
    }
    bias_filler {
      type: "constant"
      value: 0
    }
  }
}
layer {
  name: "accuracy_5_TRAIN"
  type: "Accuracy"
  bottom: "fc8"
  bottom: "label"
  top: "accuracy_5_TRAIN"
  include {
    phase: TRAIN
  }
  accuracy_param {
    top_k: 5
  }
}
layer {
  name: "loss"
  type: "SoftmaxWithLoss"
  bottom: "fc8"
  bottom: "label"
  top: "loss"
}
I0117 12:22:03.965982 158840 layer_factory.hpp:77] Creating layer data
I0117 12:22:04.002926 158840 db_lmdb.cpp:35] Opened lmdb /home/ydwu/database/imagenet/ilsvrc12/lmdb_resize/ilsvrc12_train_lmdb
I0117 12:22:04.003245 158840 net.cpp:84] Creating Layer data
I0117 12:22:04.003291 158840 net.cpp:380] data -> data
I0117 12:22:04.003340 158840 net.cpp:380] data -> label
I0117 12:22:04.005060 158840 data_layer.cpp:45] output data size: 256,3,224,224
I0117 12:22:04.448011 158840 net.cpp:122] Setting up data
I0117 12:22:04.448082 158840 net.cpp:129] Top shape: 256 3 224 224 (38535168)
I0117 12:22:04.448091 158840 net.cpp:129] Top shape: 256 (256)
I0117 12:22:04.448099 158840 net.cpp:137] Memory required for data: 154141696
I0117 12:22:04.448117 158840 layer_factory.hpp:77] Creating layer label_data_1_split
I0117 12:22:04.448141 158840 net.cpp:84] Creating Layer label_data_1_split
I0117 12:22:04.448153 158840 net.cpp:406] label_data_1_split <- label
I0117 12:22:04.448218 158840 net.cpp:380] label_data_1_split -> label_data_1_split_0
I0117 12:22:04.448238 158840 net.cpp:380] label_data_1_split -> label_data_1_split_1
I0117 12:22:04.448303 158840 net.cpp:122] Setting up label_data_1_split
I0117 12:22:04.448315 158840 net.cpp:129] Top shape: 256 (256)
I0117 12:22:04.448321 158840 net.cpp:129] Top shape: 256 (256)
I0117 12:22:04.448326 158840 net.cpp:137] Memory required for data: 154143744
I0117 12:22:04.448331 158840 layer_factory.hpp:77] Creating layer conv1
I0117 12:22:04.448357 158840 net.cpp:84] Creating Layer conv1
I0117 12:22:04.448366 158840 net.cpp:406] conv1 <- data
I0117 12:22:04.448375 158840 net.cpp:380] conv1 -> conv1
I0117 12:22:04.474876 158840 net.cpp:122] Setting up conv1
I0117 12:22:04.474910 158840 net.cpp:129] Top shape: 256 96 55 55 (74342400)
I0117 12:22:04.474915 158840 net.cpp:137] Memory required for data: 451513344
I0117 12:22:04.474942 158840 layer_factory.hpp:77] Creating layer bn1
I0117 12:22:04.474957 158840 net.cpp:84] Creating Layer bn1
I0117 12:22:04.474963 158840 net.cpp:406] bn1 <- conv1
I0117 12:22:04.474972 158840 net.cpp:367] bn1 -> conv1 (in-place)
I0117 12:22:04.475178 158840 net.cpp:122] Setting up bn1
I0117 12:22:04.475191 158840 net.cpp:129] Top shape: 256 96 55 55 (74342400)
I0117 12:22:04.475204 158840 net.cpp:137] Memory required for data: 748882944
I0117 12:22:04.475219 158840 layer_factory.hpp:77] Creating layer scale1
I0117 12:22:04.475234 158840 net.cpp:84] Creating Layer scale1
I0117 12:22:04.475241 158840 net.cpp:406] scale1 <- conv1
I0117 12:22:04.475250 158840 net.cpp:367] scale1 -> conv1 (in-place)
I0117 12:22:04.475302 158840 layer_factory.hpp:77] Creating layer scale1
I0117 12:22:04.475447 158840 net.cpp:122] Setting up scale1
I0117 12:22:04.475461 158840 net.cpp:129] Top shape: 256 96 55 55 (74342400)
I0117 12:22:04.475473 158840 net.cpp:137] Memory required for data: 1046252544
I0117 12:22:04.475482 158840 layer_factory.hpp:77] Creating layer relu1
I0117 12:22:04.475492 158840 net.cpp:84] Creating Layer relu1
I0117 12:22:04.475499 158840 net.cpp:406] relu1 <- conv1
I0117 12:22:04.475507 158840 net.cpp:367] relu1 -> conv1 (in-place)
I0117 12:22:04.475517 158840 net.cpp:122] Setting up relu1
I0117 12:22:04.475525 158840 net.cpp:129] Top shape: 256 96 55 55 (74342400)
I0117 12:22:04.475531 158840 net.cpp:137] Memory required for data: 1343622144
I0117 12:22:04.475536 158840 layer_factory.hpp:77] Creating layer pool1
I0117 12:22:04.475549 158840 net.cpp:84] Creating Layer pool1
I0117 12:22:04.475565 158840 net.cpp:406] pool1 <- conv1
I0117 12:22:04.475574 158840 net.cpp:380] pool1 -> pool1
I0117 12:22:04.475638 158840 net.cpp:122] Setting up pool1
I0117 12:22:04.475651 158840 net.cpp:129] Top shape: 256 96 27 27 (17915904)
I0117 12:22:04.475657 158840 net.cpp:137] Memory required for data: 1415285760
I0117 12:22:04.475664 158840 layer_factory.hpp:77] Creating layer conv2
I0117 12:22:04.475679 158840 net.cpp:84] Creating Layer conv2
I0117 12:22:04.475687 158840 net.cpp:406] conv2 <- pool1
I0117 12:22:04.475698 158840 net.cpp:380] conv2 -> conv2
I0117 12:22:04.486568 158840 net.cpp:122] Setting up conv2
I0117 12:22:04.486591 158840 net.cpp:129] Top shape: 256 256 27 27 (47775744)
I0117 12:22:04.486599 158840 net.cpp:137] Memory required for data: 1606388736
I0117 12:22:04.486615 158840 layer_factory.hpp:77] Creating layer bn2
I0117 12:22:04.486630 158840 net.cpp:84] Creating Layer bn2
I0117 12:22:04.486639 158840 net.cpp:406] bn2 <- conv2
I0117 12:22:04.486656 158840 net.cpp:367] bn2 -> conv2 (in-place)
I0117 12:22:04.486845 158840 net.cpp:122] Setting up bn2
I0117 12:22:04.486860 158840 net.cpp:129] Top shape: 256 256 27 27 (47775744)
I0117 12:22:04.486866 158840 net.cpp:137] Memory required for data: 1797491712
I0117 12:22:04.486883 158840 layer_factory.hpp:77] Creating layer scale2
I0117 12:22:04.486894 158840 net.cpp:84] Creating Layer scale2
I0117 12:22:04.486902 158840 net.cpp:406] scale2 <- conv2
I0117 12:22:04.486912 158840 net.cpp:367] scale2 -> conv2 (in-place)
I0117 12:22:04.486959 158840 layer_factory.hpp:77] Creating layer scale2
I0117 12:22:04.487114 158840 net.cpp:122] Setting up scale2
I0117 12:22:04.487128 158840 net.cpp:129] Top shape: 256 256 27 27 (47775744)
I0117 12:22:04.487135 158840 net.cpp:137] Memory required for data: 1988594688
I0117 12:22:04.487144 158840 layer_factory.hpp:77] Creating layer relu2
I0117 12:22:04.487157 158840 net.cpp:84] Creating Layer relu2
I0117 12:22:04.487164 158840 net.cpp:406] relu2 <- conv2
I0117 12:22:04.487174 158840 net.cpp:367] relu2 -> conv2 (in-place)
I0117 12:22:04.487185 158840 net.cpp:122] Setting up relu2
I0117 12:22:04.487193 158840 net.cpp:129] Top shape: 256 256 27 27 (47775744)
I0117 12:22:04.487200 158840 net.cpp:137] Memory required for data: 2179697664
I0117 12:22:04.487206 158840 layer_factory.hpp:77] Creating layer pool2
I0117 12:22:04.487217 158840 net.cpp:84] Creating Layer pool2
I0117 12:22:04.487224 158840 net.cpp:406] pool2 <- conv2
I0117 12:22:04.487234 158840 net.cpp:380] pool2 -> pool2
I0117 12:22:04.487275 158840 net.cpp:122] Setting up pool2
I0117 12:22:04.487287 158840 net.cpp:129] Top shape: 256 256 13 13 (11075584)
I0117 12:22:04.487295 158840 net.cpp:137] Memory required for data: 2224000000
I0117 12:22:04.487301 158840 layer_factory.hpp:77] Creating layer conv3
I0117 12:22:04.487316 158840 net.cpp:84] Creating Layer conv3
I0117 12:22:04.487323 158840 net.cpp:406] conv3 <- pool2
I0117 12:22:04.487334 158840 net.cpp:380] conv3 -> conv3
I0117 12:22:04.501119 158840 net.cpp:122] Setting up conv3
I0117 12:22:04.501147 158840 net.cpp:129] Top shape: 256 384 13 13 (16613376)
I0117 12:22:04.501153 158840 net.cpp:137] Memory required for data: 2290453504
I0117 12:22:04.501163 158840 layer_factory.hpp:77] Creating layer bn3
I0117 12:22:04.501176 158840 net.cpp:84] Creating Layer bn3
I0117 12:22:04.501184 158840 net.cpp:406] bn3 <- conv3
I0117 12:22:04.501195 158840 net.cpp:367] bn3 -> conv3 (in-place)
I0117 12:22:04.501377 158840 net.cpp:122] Setting up bn3
I0117 12:22:04.501392 158840 net.cpp:129] Top shape: 256 384 13 13 (16613376)
I0117 12:22:04.501400 158840 net.cpp:137] Memory required for data: 2356907008
I0117 12:22:04.501416 158840 layer_factory.hpp:77] Creating layer scale3
I0117 12:22:04.501430 158840 net.cpp:84] Creating Layer scale3
I0117 12:22:04.501435 158840 net.cpp:406] scale3 <- conv3
I0117 12:22:04.501443 158840 net.cpp:367] scale3 -> conv3 (in-place)
I0117 12:22:04.501479 158840 layer_factory.hpp:77] Creating layer scale3
I0117 12:22:04.501593 158840 net.cpp:122] Setting up scale3
I0117 12:22:04.501606 158840 net.cpp:129] Top shape: 256 384 13 13 (16613376)
I0117 12:22:04.501615 158840 net.cpp:137] Memory required for data: 2423360512
I0117 12:22:04.501624 158840 layer_factory.hpp:77] Creating layer relu3
I0117 12:22:04.501636 158840 net.cpp:84] Creating Layer relu3
I0117 12:22:04.501642 158840 net.cpp:406] relu3 <- conv3
I0117 12:22:04.501653 158840 net.cpp:367] relu3 -> conv3 (in-place)
I0117 12:22:04.501663 158840 net.cpp:122] Setting up relu3
I0117 12:22:04.501672 158840 net.cpp:129] Top shape: 256 384 13 13 (16613376)
I0117 12:22:04.501678 158840 net.cpp:137] Memory required for data: 2489814016
I0117 12:22:04.501685 158840 layer_factory.hpp:77] Creating layer conv4
I0117 12:22:04.501703 158840 net.cpp:84] Creating Layer conv4
I0117 12:22:04.501710 158840 net.cpp:406] conv4 <- conv3
I0117 12:22:04.501721 158840 net.cpp:380] conv4 -> conv4
I0117 12:22:04.522454 158840 net.cpp:122] Setting up conv4
I0117 12:22:04.522490 158840 net.cpp:129] Top shape: 256 384 13 13 (16613376)
I0117 12:22:04.522495 158840 net.cpp:137] Memory required for data: 2556267520
I0117 12:22:04.522519 158840 layer_factory.hpp:77] Creating layer bn4
I0117 12:22:04.522534 158840 net.cpp:84] Creating Layer bn4
I0117 12:22:04.522543 158840 net.cpp:406] bn4 <- conv4
I0117 12:22:04.522557 158840 net.cpp:367] bn4 -> conv4 (in-place)
I0117 12:22:04.522753 158840 net.cpp:122] Setting up bn4
I0117 12:22:04.522766 158840 net.cpp:129] Top shape: 256 384 13 13 (16613376)
I0117 12:22:04.522780 158840 net.cpp:137] Memory required for data: 2622721024
I0117 12:22:04.522830 158840 layer_factory.hpp:77] Creating layer scale4
I0117 12:22:04.522840 158840 net.cpp:84] Creating Layer scale4
I0117 12:22:04.522846 158840 net.cpp:406] scale4 <- conv4
I0117 12:22:04.522855 158840 net.cpp:367] scale4 -> conv4 (in-place)
I0117 12:22:04.522898 158840 layer_factory.hpp:77] Creating layer scale4
I0117 12:22:04.523035 158840 net.cpp:122] Setting up scale4
I0117 12:22:04.523047 158840 net.cpp:129] Top shape: 256 384 13 13 (16613376)
I0117 12:22:04.523052 158840 net.cpp:137] Memory required for data: 2689174528
I0117 12:22:04.523061 158840 layer_factory.hpp:77] Creating layer relu4
I0117 12:22:04.523069 158840 net.cpp:84] Creating Layer relu4
I0117 12:22:04.523074 158840 net.cpp:406] relu4 <- conv4
I0117 12:22:04.523083 158840 net.cpp:367] relu4 -> conv4 (in-place)
I0117 12:22:04.523097 158840 net.cpp:122] Setting up relu4
I0117 12:22:04.523103 158840 net.cpp:129] Top shape: 256 384 13 13 (16613376)
I0117 12:22:04.523108 158840 net.cpp:137] Memory required for data: 2755628032
I0117 12:22:04.523116 158840 layer_factory.hpp:77] Creating layer conv5
I0117 12:22:04.523129 158840 net.cpp:84] Creating Layer conv5
I0117 12:22:04.523138 158840 net.cpp:406] conv5 <- conv4
I0117 12:22:04.523150 158840 net.cpp:380] conv5 -> conv5
I0117 12:22:04.537608 158840 net.cpp:122] Setting up conv5
I0117 12:22:04.537681 158840 net.cpp:129] Top shape: 256 256 13 13 (11075584)
I0117 12:22:04.537689 158840 net.cpp:137] Memory required for data: 2799930368
I0117 12:22:04.537714 158840 layer_factory.hpp:77] Creating layer bn5
I0117 12:22:04.537745 158840 net.cpp:84] Creating Layer bn5
I0117 12:22:04.537763 158840 net.cpp:406] bn5 <- conv5
I0117 12:22:04.537783 158840 net.cpp:367] bn5 -> conv5 (in-place)
I0117 12:22:04.538085 158840 net.cpp:122] Setting up bn5
I0117 12:22:04.538100 158840 net.cpp:129] Top shape: 256 256 13 13 (11075584)
I0117 12:22:04.538112 158840 net.cpp:137] Memory required for data: 2844232704
I0117 12:22:04.538139 158840 layer_factory.hpp:77] Creating layer scale5
I0117 12:22:04.538156 158840 net.cpp:84] Creating Layer scale5
I0117 12:22:04.538162 158840 net.cpp:406] scale5 <- conv5
I0117 12:22:04.538188 158840 net.cpp:367] scale5 -> conv5 (in-place)
I0117 12:22:04.538249 158840 layer_factory.hpp:77] Creating layer scale5
I0117 12:22:04.538374 158840 net.cpp:122] Setting up scale5
I0117 12:22:04.538388 158840 net.cpp:129] Top shape: 256 256 13 13 (11075584)
I0117 12:22:04.538394 158840 net.cpp:137] Memory required for data: 2888535040
I0117 12:22:04.538403 158840 layer_factory.hpp:77] Creating layer relu5
I0117 12:22:04.538414 158840 net.cpp:84] Creating Layer relu5
I0117 12:22:04.538424 158840 net.cpp:406] relu5 <- conv5
I0117 12:22:04.538431 158840 net.cpp:367] relu5 -> conv5 (in-place)
I0117 12:22:04.538442 158840 net.cpp:122] Setting up relu5
I0117 12:22:04.538451 158840 net.cpp:129] Top shape: 256 256 13 13 (11075584)
I0117 12:22:04.538458 158840 net.cpp:137] Memory required for data: 2932837376
I0117 12:22:04.538466 158840 layer_factory.hpp:77] Creating layer pool5
I0117 12:22:04.538478 158840 net.cpp:84] Creating Layer pool5
I0117 12:22:04.538486 158840 net.cpp:406] pool5 <- conv5
I0117 12:22:04.538503 158840 net.cpp:380] pool5 -> pool5
I0117 12:22:04.538547 158840 net.cpp:122] Setting up pool5
I0117 12:22:04.538558 158840 net.cpp:129] Top shape: 256 256 6 6 (2359296)
I0117 12:22:04.538566 158840 net.cpp:137] Memory required for data: 2942274560
I0117 12:22:04.538574 158840 layer_factory.hpp:77] Creating layer fc6
I0117 12:22:04.538592 158840 net.cpp:84] Creating Layer fc6
I0117 12:22:04.538600 158840 net.cpp:406] fc6 <- pool5
I0117 12:22:04.538610 158840 net.cpp:380] fc6 -> fc6
I0117 12:22:05.257223 158840 net.cpp:122] Setting up fc6
I0117 12:22:05.257309 158840 net.cpp:129] Top shape: 256 4096 (1048576)
I0117 12:22:05.257333 158840 net.cpp:137] Memory required for data: 2946468864
I0117 12:22:05.257366 158840 layer_factory.hpp:77] Creating layer bn6
I0117 12:22:05.257390 158840 net.cpp:84] Creating Layer bn6
I0117 12:22:05.257400 158840 net.cpp:406] bn6 <- fc6
I0117 12:22:05.257432 158840 net.cpp:367] bn6 -> fc6 (in-place)
I0117 12:22:05.257941 158840 net.cpp:122] Setting up bn6
I0117 12:22:05.257959 158840 net.cpp:129] Top shape: 256 4096 (1048576)
I0117 12:22:05.257964 158840 net.cpp:137] Memory required for data: 2950663168
I0117 12:22:05.257984 158840 layer_factory.hpp:77] Creating layer scale6
I0117 12:22:05.258016 158840 net.cpp:84] Creating Layer scale6
I0117 12:22:05.258026 158840 net.cpp:406] scale6 <- fc6
I0117 12:22:05.258039 158840 net.cpp:367] scale6 -> fc6 (in-place)
I0117 12:22:05.258121 158840 layer_factory.hpp:77] Creating layer scale6
I0117 12:22:05.258353 158840 net.cpp:122] Setting up scale6
I0117 12:22:05.258368 158840 net.cpp:129] Top shape: 256 4096 (1048576)
I0117 12:22:05.258374 158840 net.cpp:137] Memory required for data: 2954857472
I0117 12:22:05.258383 158840 layer_factory.hpp:77] Creating layer relu6
I0117 12:22:05.258394 158840 net.cpp:84] Creating Layer relu6
I0117 12:22:05.258405 158840 net.cpp:406] relu6 <- fc6
I0117 12:22:05.258426 158840 net.cpp:367] relu6 -> fc6 (in-place)
I0117 12:22:05.258445 158840 net.cpp:122] Setting up relu6
I0117 12:22:05.258453 158840 net.cpp:129] Top shape: 256 4096 (1048576)
I0117 12:22:05.258460 158840 net.cpp:137] Memory required for data: 2959051776
I0117 12:22:05.258466 158840 layer_factory.hpp:77] Creating layer drop6
I0117 12:22:05.258478 158840 net.cpp:84] Creating Layer drop6
I0117 12:22:05.258486 158840 net.cpp:406] drop6 <- fc6
I0117 12:22:05.258510 158840 net.cpp:367] drop6 -> fc6 (in-place)
I0117 12:22:05.258550 158840 net.cpp:122] Setting up drop6
I0117 12:22:05.258563 158840 net.cpp:129] Top shape: 256 4096 (1048576)
I0117 12:22:05.258569 158840 net.cpp:137] Memory required for data: 2963246080
I0117 12:22:05.258586 158840 layer_factory.hpp:77] Creating layer fc7
I0117 12:22:05.258610 158840 net.cpp:84] Creating Layer fc7
I0117 12:22:05.258618 158840 net.cpp:406] fc7 <- fc6
I0117 12:22:05.258630 158840 net.cpp:380] fc7 -> fc7
I0117 12:22:05.531353 158840 net.cpp:122] Setting up fc7
I0117 12:22:05.531452 158840 net.cpp:129] Top shape: 256 4096 (1048576)
I0117 12:22:05.531460 158840 net.cpp:137] Memory required for data: 2967440384
I0117 12:22:05.531479 158840 layer_factory.hpp:77] Creating layer bn7
I0117 12:22:05.531517 158840 net.cpp:84] Creating Layer bn7
I0117 12:22:05.531528 158840 net.cpp:406] bn7 <- fc7
I0117 12:22:05.531545 158840 net.cpp:367] bn7 -> fc7 (in-place)
I0117 12:22:05.531769 158840 net.cpp:122] Setting up bn7
I0117 12:22:05.531781 158840 net.cpp:129] Top shape: 256 4096 (1048576)
I0117 12:22:05.531800 158840 net.cpp:137] Memory required for data: 2971634688
I0117 12:22:05.531812 158840 layer_factory.hpp:77] Creating layer scale7
I0117 12:22:05.531863 158840 net.cpp:84] Creating Layer scale7
I0117 12:22:05.531872 158840 net.cpp:406] scale7 <- fc7
I0117 12:22:05.531880 158840 net.cpp:367] scale7 -> fc7 (in-place)
I0117 12:22:05.531949 158840 layer_factory.hpp:77] Creating layer scale7
I0117 12:22:05.532107 158840 net.cpp:122] Setting up scale7
I0117 12:22:05.532120 158840 net.cpp:129] Top shape: 256 4096 (1048576)
I0117 12:22:05.532140 158840 net.cpp:137] Memory required for data: 2975828992
I0117 12:22:05.532150 158840 layer_factory.hpp:77] Creating layer relu7
I0117 12:22:05.532161 158840 net.cpp:84] Creating Layer relu7
I0117 12:22:05.532167 158840 net.cpp:406] relu7 <- fc7
I0117 12:22:05.532179 158840 net.cpp:367] relu7 -> fc7 (in-place)
I0117 12:22:05.532191 158840 net.cpp:122] Setting up relu7
I0117 12:22:05.532198 158840 net.cpp:129] Top shape: 256 4096 (1048576)
I0117 12:22:05.532203 158840 net.cpp:137] Memory required for data: 2980023296
I0117 12:22:05.532209 158840 layer_factory.hpp:77] Creating layer drop7
I0117 12:22:05.532220 158840 net.cpp:84] Creating Layer drop7
I0117 12:22:05.532228 158840 net.cpp:406] drop7 <- fc7
I0117 12:22:05.532238 158840 net.cpp:367] drop7 -> fc7 (in-place)
I0117 12:22:05.532268 158840 net.cpp:122] Setting up drop7
I0117 12:22:05.532279 158840 net.cpp:129] Top shape: 256 4096 (1048576)
I0117 12:22:05.532286 158840 net.cpp:137] Memory required for data: 2984217600
I0117 12:22:05.532356 158840 layer_factory.hpp:77] Creating layer fc8
I0117 12:22:05.532377 158840 net.cpp:84] Creating Layer fc8
I0117 12:22:05.532385 158840 net.cpp:406] fc8 <- fc7
I0117 12:22:05.532397 158840 net.cpp:380] fc8 -> fc8
I0117 12:22:05.615136 158840 net.cpp:122] Setting up fc8
I0117 12:22:05.615236 158840 net.cpp:129] Top shape: 256 1000 (256000)
I0117 12:22:05.615255 158840 net.cpp:137] Memory required for data: 2985241600
I0117 12:22:05.615299 158840 layer_factory.hpp:77] Creating layer fc8_fc8_0_split
I0117 12:22:05.615327 158840 net.cpp:84] Creating Layer fc8_fc8_0_split
I0117 12:22:05.615344 158840 net.cpp:406] fc8_fc8_0_split <- fc8
I0117 12:22:05.615381 158840 net.cpp:380] fc8_fc8_0_split -> fc8_fc8_0_split_0
I0117 12:22:05.615413 158840 net.cpp:380] fc8_fc8_0_split -> fc8_fc8_0_split_1
I0117 12:22:05.615511 158840 net.cpp:122] Setting up fc8_fc8_0_split
I0117 12:22:05.615536 158840 net.cpp:129] Top shape: 256 1000 (256000)
I0117 12:22:05.615546 158840 net.cpp:129] Top shape: 256 1000 (256000)
I0117 12:22:05.615557 158840 net.cpp:137] Memory required for data: 2987289600
I0117 12:22:05.615573 158840 layer_factory.hpp:77] Creating layer accuracy_5_TRAIN
I0117 12:22:05.615608 158840 net.cpp:84] Creating Layer accuracy_5_TRAIN
I0117 12:22:05.615617 158840 net.cpp:406] accuracy_5_TRAIN <- fc8_fc8_0_split_0
I0117 12:22:05.615625 158840 net.cpp:406] accuracy_5_TRAIN <- label_data_1_split_0
…
I0117 12:22:05.620870 158840 net.cpp:294] The NetState phase (1) differed from the phase (0) specified by a rule in layer accuracy_5_TRAIN
I0117 12:22:05.621246 158840 net.cpp:51] Initializing net from parameters: 
name: "AlexNet-BN"
state {
  phase: TEST
}
layer {
  name: "data"
  type: "Data"
  top: "data"
  top: "label"
  include {
    phase: TEST
  }
  transform_param {
    mirror: false
    crop_size: 224
    mean_value: 103.939
    mean_value: 116.779
    mean_value: 123.68
  }
  data_param {
    source: "/home/ydwu/database/imagenet/ilsvrc12/lmdb_resize/ilsvrc12_val_lmdb"
    batch_size: 50
    backend: LMDB
  }
}
layer {
  name: "conv1"
  type: "Convolution"
  bottom: "data"
  top: "conv1"
  param {
    lr_mult: 1
    decay_mult: 1
  }
  param {
    lr_mult: 2
    decay_mult: 0
  }
  convolution_param {
    num_output: 96
    pad: 2
    kernel_size: 11
    stride: 4
    weight_filler {
      type: "gaussian"
      std: 0.01
    }
    bias_filler {
      type: "constant"
      value: 0
    }
  }
}
layer {
  name: "bn1"
  type: "BatchNorm"
  bottom: "conv1"
  top: "conv1"
}
layer {
  name: "scale1"
  type: "Scale"
  bottom: "conv1"
  top: "conv1"
  scale_param {
    bias_term: true
  }
}
layer {
  name: "relu1"
  type: "ReLU"
  bottom: "conv1"
  top: "conv1"
}
layer {
  name: "pool1"
  type: "Pooling"
  bottom: "conv1"
  top: "pool1"
  pooling_param {
    pool: MAX
    kernel_size: 3
    stride: 2
  }
}
layer {
  name: "conv2"
  type: "Convolution"
  bottom: "pool1"
  top: "conv2"
  param {
    lr_mult: 1
    decay_mult: 1
  }
  param {
    lr_mult: 2
    decay_mult: 0
  }
  convolution_param {
    num_output: 256
    pad: 2
    kernel_size: 5
    weight_filler {
      type: "gaussian"
      std: 0.01
    }
    bias_filler {
      type: "constant"
      value: 0
    }
  }
}
layer {
  name: "bn2"
  type: "BatchNorm"
  bottom: "conv2"
  top: "conv2"
}
layer {
  name: "scale2"
  type: "Scale"
  bottom: "conv2"
  top: "conv2"
  scale_param {
    bias_term: true
  }
}
layer {
  name: "relu2"
  type: "ReLU"
  bottom: "conv2"
  top: "conv2"
}
layer {
  name: "pool2"
  type: "Pooling"
  bottom: "conv2"
  top: "pool2"
  pooling_param {
    pool: MAX
    kernel_size: 3
    stride: 2
  }
}
layer {
  name: "conv3"
  type: "Convolution"
  bottom: "pool2"
  top: "conv3"
  param {
    lr_mult: 1
    decay_mult: 1
  }
  param {
    lr_mult: 2
    decay_mult: 0
  }
  convolution_param {
    num_output: 384
    pad: 1
    kernel_size: 3
    weight_filler {
      type: "gaussian"
      std: 0.01
    }
    bias_filler {
      type: "constant"
      value: 0
    }
  }
}
layer {
  name: "bn3"
  type: "BatchNorm"
  bottom: "conv3"
  top: "conv3"
}
layer {
  name: "scale3"
  type: "Scale"
  bottom: "conv3"
  top: "conv3"
  scale_param {
    bias_term: true
  }
}
layer {
  name: "relu3"
  type: "ReLU"
  bottom: "conv3"
  top: "conv3"
}
layer {
  name: "conv4"
  type: "Convolution"
  bottom: "conv3"
  top: "conv4"
  param {
    lr_mult: 1
    decay_mult: 1
  }
  param {
    lr_mult: 2
    decay_mult: 0
  }
  convolution_param {
    num_output: 384
    pad: 1
    kernel_size: 3
    weight_filler {
      type: "gaussian"
      std: 0.01
    }
    bias_filler {
      type: "constant"
      value: 0
    }
  }
}
layer {
  name: "bn4"
  type: "BatchNorm"
  bottom: "conv4"
  top: "conv4"
}
layer {
  name: "scale4"
  type: "Scale"
  bottom: "conv4"
  top: "conv4"
  scale_param {
    bias_term: true
  }
}
layer {
  name: "relu4"
  type: "ReLU"
  bottom: "conv4"
  top: "conv4"
}
layer {
  name: "conv5"
  type: "Convolution"
  bottom: "conv4"
  top: "conv5"
  param {
    lr_mult: 1
    decay_mult: 1
  }
  param {
    lr_mult: 2
    decay_mult: 0
  }
  convolution_param {
    num_output: 256
    pad: 1
    kernel_size: 3
    weight_filler {
      type: "gaussian"
      std: 0.01
    }
    bias_filler {
      type: "constant"
      value: 0
    }
  }
}
layer {
  name: "bn5"
  type: "BatchNorm"
  bottom: "conv5"
  top: "conv5"
}
layer {
  name: "scale5"
  type: "Scale"
  bottom: "conv5"
  top: "conv5"
  scale_param {
    bias_term: true
  }
}
layer {
  name: "relu5"
  type: "ReLU"
  bottom: "conv5"
  top: "conv5"
}
layer {
  name: "pool5"
  type: "Pooling"
  bottom: "conv5"
  top: "pool5"
  pooling_param {
    pool: MAX
    kernel_size: 3
    stride: 2
  }
}
layer {
  name: "fc6"
  type: "InnerProduct"
  bottom: "pool5"
  top: "fc6"
  param {
    lr_mult: 1
    decay_mult: 1
  }
  param {
    lr_mult: 2
    decay_mult: 0
  }
  inner_product_param {
    num_output: 4096
    weight_filler {
      type: "gaussian"
      std: 0.01
    }
    bias_filler {
      type: "constant"
      value: 0
    }
  }
}
layer {
  name: "bn6"
  type: "BatchNorm"
  bottom: "fc6"
  top: "fc6"
}
layer {
  name: "scale6"
  type: "Scale"
  bottom: "fc6"
  top: "fc6"
  scale_param {
    bias_term: true
  }
}
layer {
  name: "relu6"
  type: "ReLU"
  bottom: "fc6"
  top: "fc6"
}
layer {
  name: "drop6"
  type: "Dropout"
  bottom: "fc6"
  top: "fc6"
  dropout_param {
    dropout_ratio: 0.5
  }
}
layer {
  name: "fc7"
  type: "InnerProduct"
  bottom: "fc6"
  top: "fc7"
  param {
    lr_mult: 1
    decay_mult: 1
  }
  param {
    lr_mult: 2
    decay_mult: 0
  }
  inner_product_param {
    num_output: 4096
    weight_filler {
      type: "gaussian"
      std: 0.01
    }
    bias_filler {
      type: "constant"
      value: 0
    }
  }
}
layer {
  name: "bn7"
  type: "BatchNorm"
  bottom: "fc7"
  top: "fc7"
}
layer {
  name: "scale7"
  type: "Scale"
  bottom: "fc7"
  top: "fc7"
  scale_param {
    bias_term: true
  }
}
layer {
  name: "relu7"
  type: "ReLU"
  bottom: "fc7"
  top: "fc7"
}
layer {
  name: "drop7"
  type: "Dropout"
  bottom: "fc7"
  top: "fc7"
  dropout_param {
    dropout_ratio: 0.5
  }
}
layer {
  name: "fc8"
  type: "InnerProduct"
  bottom: "fc7"
  top: "fc8"
  param {
    lr_mult: 1
    decay_mult: 1
  }
  param {
    lr_mult: 2
    decay_mult: 0
  }
  inner_product_param {
    num_output: 1000
    weight_filler {
      type: "gaussian"
      std: 0.01
    }
    bias_filler {
      type: "constant"
      value: 0
    }
  }
}
layer {
  name: "accuracy"
  type: "Accuracy"
  bottom: "fc8"
  bottom: "label"
  top: "accuracy"
  include {
    phase: TEST
  }
}
layer {
  name: "accuracy_5"
  type: "Accuracy"
  bottom: "fc8"
  bottom: "label"
  top: "accuracy_5"
  include {
    phase: TEST
  }
  accuracy_param {
    top_k: 5
  }
}
layer {
  name: "loss"
  type: "SoftmaxWithLoss"
  bottom: "fc8"
  bottom: "label"
  top: "loss"
}
I0117 12:22:05.621541 158840 layer_factory.hpp:77] Creating layer data
I0117 12:22:05.624603 158840 db_lmdb.cpp:35] Opened lmdb /home/ydwu/database/imagenet/ilsvrc12/lmdb_resize/ilsvrc12_val_lmdb
I0117 12:22:05.624981 158840 net.cpp:84] Creating Layer data
I0117 12:22:05.625033 158840 net.cpp:380] data -> data
I0117 12:22:05.625092 158840 net.cpp:380] data -> label
I0117 12:22:05.625756 158840 data_layer.cpp:45] output data size: 50,3,224,224
I0117 12:22:05.773967 158840 net.cpp:122] Setting up data
I0117 12:22:05.774049 158840 net.cpp:129] Top shape: 50 3 224 224 (7526400)
I0117 12:22:05.774060 158840 net.cpp:129] Top shape: 50 (50)
I0117 12:22:05.774071 158840 net.cpp:137] Memory required for data: 30105800
I0117 12:22:05.774085 158840 layer_factory.hpp:77] Creating layer label_data_1_split
I0117 12:22:05.774111 158840 net.cpp:84] Creating Layer label_data_1_split
I0117 12:22:05.774121 158840 net.cpp:406] label_data_1_split <- label
I0117 12:22:05.774144 158840 net.cpp:380] label_data_1_split -> label_data_1_split_0
I0117 12:22:05.774163 158840 net.cpp:380] label_data_1_split -> label_data_1_split_1
I0117 12:22:05.774173 158840 net.cpp:380] label_data_1_split -> label_data_1_split_2
I0117 12:22:05.774464 158840 net.cpp:122] Setting up label_data_1_split
I0117 12:22:05.774533 158840 net.cpp:129] Top shape: 50 (50)
I0117 12:22:05.774541 158840 net.cpp:129] Top shape: 50 (50)
I0117 12:22:05.774550 158840 net.cpp:129] Top shape: 50 (50)
I0117 12:22:05.774556 158840 net.cpp:137] Memory required for data: 30106400
I0117 12:22:05.774565 158840 layer_factory.hpp:77] Creating layer conv1
I0117 12:22:05.774601 158840 net.cpp:84] Creating Layer conv1
I0117 12:22:05.774623 158840 net.cpp:406] conv1 <- data
I0117 12:22:05.774638 158840 net.cpp:380] conv1 -> conv1
I0117 12:22:05.775480 158840 net.cpp:122] Setting up conv1
I0117 12:22:05.775496 158840 net.cpp:129] Top shape: 50 96 55 55 (14520000)
I0117 12:22:05.775516 158840 net.cpp:137] Memory required for data: 88186400
I0117 12:22:05.775534 158840 layer_factory.hpp:77] Creating layer bn1
I0117 12:22:05.775547 158840 net.cpp:84] Creating Layer bn1
I0117 12:22:05.775554 158840 net.cpp:406] bn1 <- conv1
I0117 12:22:05.775563 158840 net.cpp:367] bn1 -> conv1 (in-place)
I0117 12:22:05.775955 158840 net.cpp:122] Setting up bn1
I0117 12:22:05.775990 158840 net.cpp:129] Top shape: 50 96 55 55 (14520000)
I0117 12:22:05.775997 158840 net.cpp:137] Memory required for data: 146266400
I0117 12:22:05.776015 158840 layer_factory.hpp:77] Creating layer scale1
I0117 12:22:05.776041 158840 net.cpp:84] Creating Layer scale1
I0117 12:22:05.776047 158840 net.cpp:406] scale1 <- conv1
I0117 12:22:05.776057 158840 net.cpp:367] scale1 -> conv1 (in-place)
I0117 12:22:05.780725 158840 layer_factory.hpp:77] Creating layer scale1
I0117 12:22:05.780917 158840 net.cpp:122] Setting up scale1
I0117 12:22:05.780933 158840 net.cpp:129] Top shape: 50 96 55 55 (14520000)
I0117 12:22:05.780952 158840 net.cpp:137] Memory required for data: 204346400
I0117 12:22:05.780963 158840 layer_factory.hpp:77] Creating layer relu1
I0117 12:22:05.780977 158840 net.cpp:84] Creating Layer relu1
I0117 12:22:05.780983 158840 net.cpp:406] relu1 <- conv1
I0117 12:22:05.780995 158840 net.cpp:367] relu1 -> conv1 (in-place)
I0117 12:22:05.781006 158840 net.cpp:122] Setting up relu1
I0117 12:22:05.781016 158840 net.cpp:129] Top shape: 50 96 55 55 (14520000)
I0117 12:22:05.781021 158840 net.cpp:137] Memory required for data: 262426400
I0117 12:22:05.781028 158840 layer_factory.hpp:77] Creating layer pool1
I0117 12:22:05.781041 158840 net.cpp:84] Creating Layer pool1
I0117 12:22:05.781049 158840 net.cpp:406] pool1 <- conv1
I0117 12:22:05.781059 158840 net.cpp:380] pool1 -> pool1
I0117 12:22:05.781113 158840 net.cpp:122] Setting up pool1
I0117 12:22:05.781126 158840 net.cpp:129] Top shape: 50 96 27 27 (3499200)
I0117 12:22:05.781134 158840 net.cpp:137] Memory required for data: 276423200
I0117 12:22:05.781141 158840 layer_factory.hpp:77] Creating layer conv2
I0117 12:22:05.781157 158840 net.cpp:84] Creating Layer conv2
I0117 12:22:05.781221 158840 net.cpp:406] conv2 <- pool1
I0117 12:22:05.781235 158840 net.cpp:380] conv2 -> conv2
I0117 12:22:05.792443 158840 net.cpp:122] Setting up conv2
I0117 12:22:05.792492 158840 net.cpp:129] Top shape: 50 256 27 27 (9331200)
I0117 12:22:05.792500 158840 net.cpp:137] Memory required for data: 313748000
I0117 12:22:05.792526 158840 layer_factory.hpp:77] Creating layer bn2
I0117 12:22:05.792547 158840 net.cpp:84] Creating Layer bn2
I0117 12:22:05.792557 158840 net.cpp:406] bn2 <- conv2
I0117 12:22:05.792570 158840 net.cpp:367] bn2 -> conv2 (in-place)
I0117 12:22:05.792809 158840 net.cpp:122] Setting up bn2
I0117 12:22:05.792824 158840 net.cpp:129] Top shape: 50 256 27 27 (9331200)
I0117 12:22:05.792830 158840 net.cpp:137] Memory required for data: 351072800
I0117 12:22:05.792843 158840 layer_factory.hpp:77] Creating layer scale2
I0117 12:22:05.792857 158840 net.cpp:84] Creating Layer scale2
I0117 12:22:05.792865 158840 net.cpp:406] scale2 <- conv2
I0117 12:22:05.792876 158840 net.cpp:367] scale2 -> conv2 (in-place)
I0117 12:22:05.792937 158840 layer_factory.hpp:77] Creating layer scale2
I0117 12:22:05.793082 158840 net.cpp:122] Setting up scale2
I0117 12:22:05.793097 158840 net.cpp:129] Top shape: 50 256 27 27 (9331200)
I0117 12:22:05.793104 158840 net.cpp:137] Memory required for data: 388397600
I0117 12:22:05.793115 158840 layer_factory.hpp:77] Creating layer relu2
I0117 12:22:05.793128 158840 net.cpp:84] Creating Layer relu2
I0117 12:22:05.793134 158840 net.cpp:406] relu2 <- conv2
I0117 12:22:05.793145 158840 net.cpp:367] relu2 -> conv2 (in-place)
I0117 12:22:05.793157 158840 net.cpp:122] Setting up relu2
I0117 12:22:05.793166 158840 net.cpp:129] Top shape: 50 256 27 27 (9331200)
I0117 12:22:05.793172 158840 net.cpp:137] Memory required for data: 425722400
I0117 12:22:05.793179 158840 layer_factory.hpp:77] Creating layer pool2
I0117 12:22:05.793192 158840 net.cpp:84] Creating Layer pool2
I0117 12:22:05.793200 158840 net.cpp:406] pool2 <- conv2
I0117 12:22:05.793211 158840 net.cpp:380] pool2 -> pool2
I0117 12:22:05.793267 158840 net.cpp:122] Setting up pool2
I0117 12:22:05.793279 158840 net.cpp:129] Top shape: 50 256 13 13 (2163200)
I0117 12:22:05.793287 158840 net.cpp:137] Memory required for data: 434375200
I0117 12:22:05.793294 158840 layer_factory.hpp:77] Creating layer conv3
I0117 12:22:05.793311 158840 net.cpp:84] Creating Layer conv3
I0117 12:22:05.793319 158840 net.cpp:406] conv3 <- pool2
I0117 12:22:05.793330 158840 net.cpp:380] conv3 -> conv3
I0117 12:22:05.809026 158840 net.cpp:122] Setting up conv3
I0117 12:22:05.809080 158840 net.cpp:129] Top shape: 50 384 13 13 (3244800)
I0117 12:22:05.809088 158840 net.cpp:137] Memory required for data: 447354400
I0117 12:22:05.809108 158840 layer_factory.hpp:77] Creating layer bn3
I0117 12:22:05.809128 158840 net.cpp:84] Creating Layer bn3
I0117 12:22:05.809137 158840 net.cpp:406] bn3 <- conv3
I0117 12:22:05.809154 158840 net.cpp:367] bn3 -> conv3 (in-place)
I0117 12:22:05.809392 158840 net.cpp:122] Setting up bn3
I0117 12:22:05.809407 158840 net.cpp:129] Top shape: 50 384 13 13 (3244800)
I0117 12:22:05.809414 158840 net.cpp:137] Memory required for data: 460333600
I0117 12:22:05.809438 158840 layer_factory.hpp:77] Creating layer scale3
I0117 12:22:05.809453 158840 net.cpp:84] Creating Layer scale3
I0117 12:22:05.809460 158840 net.cpp:406] scale3 <- conv3
I0117 12:22:05.809470 158840 net.cpp:367] scale3 -> conv3 (in-place)
I0117 12:22:05.809530 158840 layer_factory.hpp:77] Creating layer scale3
I0117 12:22:05.809672 158840 net.cpp:122] Setting up scale3
I0117 12:22:05.809687 158840 net.cpp:129] Top shape: 50 384 13 13 (3244800)
I0117 12:22:05.809695 158840 net.cpp:137] Memory required for data: 473312800
I0117 12:22:05.809705 158840 layer_factory.hpp:77] Creating layer relu3
I0117 12:22:05.809717 158840 net.cpp:84] Creating Layer relu3
I0117 12:22:05.809725 158840 net.cpp:406] relu3 <- conv3
I0117 12:22:05.809736 158840 net.cpp:367] relu3 -> conv3 (in-place)
I0117 12:22:05.809746 158840 net.cpp:122] Setting up relu3
I0117 12:22:05.809810 158840 net.cpp:129] Top shape: 50 384 13 13 (3244800)
I0117 12:22:05.809823 158840 net.cpp:137] Memory required for data: 486292000
I0117 12:22:05.809831 158840 layer_factory.hpp:77] Creating layer conv4
I0117 12:22:05.809854 158840 net.cpp:84] Creating Layer conv4
I0117 12:22:05.809862 158840 net.cpp:406] conv4 <- conv3
I0117 12:22:05.809875 158840 net.cpp:380] conv4 -> conv4
I0117 12:22:05.833024 158840 net.cpp:122] Setting up conv4
I0117 12:22:05.833076 158840 net.cpp:129] Top shape: 50 384 13 13 (3244800)
I0117 12:22:05.833082 158840 net.cpp:137] Memory required for data: 499271200
I0117 12:22:05.833113 158840 layer_factory.hpp:77] Creating layer bn4
I0117 12:22:05.833132 158840 net.cpp:84] Creating Layer bn4
I0117 12:22:05.833139 158840 net.cpp:406] bn4 <- conv4
I0117 12:22:05.833169 158840 net.cpp:367] bn4 -> conv4 (in-place)
I0117 12:22:05.833425 158840 net.cpp:122] Setting up bn4
I0117 12:22:05.833451 158840 net.cpp:129] Top shape: 50 384 13 13 (3244800)
I0117 12:22:05.833458 158840 net.cpp:137] Memory required for data: 512250400
I0117 12:22:05.833470 158840 layer_factory.hpp:77] Creating layer scale4
I0117 12:22:05.833483 158840 net.cpp:84] Creating Layer scale4
I0117 12:22:05.833492 158840 net.cpp:406] scale4 <- conv4
I0117 12:22:05.833500 158840 net.cpp:367] scale4 -> conv4 (in-place)
I0117 12:22:05.833572 158840 layer_factory.hpp:77] Creating layer scale4
I0117 12:22:05.833745 158840 net.cpp:122] Setting up scale4
I0117 12:22:05.833760 158840 net.cpp:129] Top shape: 50 384 13 13 (3244800)
I0117 12:22:05.833778 158840 net.cpp:137] Memory required for data: 525229600
I0117 12:22:05.833788 158840 layer_factory.hpp:77] Creating layer relu4
I0117 12:22:05.833809 158840 net.cpp:84] Creating Layer relu4
I0117 12:22:05.833825 158840 net.cpp:406] relu4 <- conv4
I0117 12:22:05.833834 158840 net.cpp:367] relu4 -> conv4 (in-place)
I0117 12:22:05.833844 158840 net.cpp:122] Setting up relu4
I0117 12:22:05.833853 158840 net.cpp:129] Top shape: 50 384 13 13 (3244800)
I0117 12:22:05.833858 158840 net.cpp:137] Memory required for data: 538208800
I0117 12:22:05.833863 158840 layer_factory.hpp:77] Creating layer conv5
I0117 12:22:05.833884 158840 net.cpp:84] Creating Layer conv5
I0117 12:22:05.833891 158840 net.cpp:406] conv5 <- conv4
I0117 12:22:05.833904 158840 net.cpp:380] conv5 -> conv5
I0117 12:22:05.849674 158840 net.cpp:122] Setting up conv5
I0117 12:22:05.849735 158840 net.cpp:129] Top shape: 50 256 13 13 (2163200)
I0117 12:22:05.849743 158840 net.cpp:137] Memory required for data: 546861600
I0117 12:22:05.849759 158840 layer_factory.hpp:77] Creating layer bn5
I0117 12:22:05.849784 158840 net.cpp:84] Creating Layer bn5
I0117 12:22:05.849807 158840 net.cpp:406] bn5 <- conv5
I0117 12:22:05.849828 158840 net.cpp:367] bn5 -> conv5 (in-place)
I0117 12:22:05.850152 158840 net.cpp:122] Setting up bn5
I0117 12:22:05.850168 158840 net.cpp:129] Top shape: 50 256 13 13 (2163200)
I0117 12:22:05.850191 158840 net.cpp:137] Memory required for data: 555514400
I0117 12:22:05.850227 158840 layer_factory.hpp:77] Creating layer scale5
I0117 12:22:05.850253 158840 net.cpp:84] Creating Layer scale5
I0117 12:22:05.850260 158840 net.cpp:406] scale5 <- conv5
I0117 12:22:05.850267 158840 net.cpp:367] scale5 -> conv5 (in-place)
I0117 12:22:05.850347 158840 layer_factory.hpp:77] Creating layer scale5
I0117 12:22:05.850519 158840 net.cpp:122] Setting up scale5
I0117 12:22:05.850540 158840 net.cpp:129] Top shape: 50 256 13 13 (2163200)
I0117 12:22:05.850545 158840 net.cpp:137] Memory required for data: 564167200
I0117 12:22:05.850555 158840 layer_factory.hpp:77] Creating layer relu5
I0117 12:22:05.850564 158840 net.cpp:84] Creating Layer relu5
I0117 12:22:05.850572 158840 net.cpp:406] relu5 <- conv5
I0117 12:22:05.850582 158840 net.cpp:367] relu5 -> conv5 (in-place)
I0117 12:22:05.850594 158840 net.cpp:122] Setting up relu5
I0117 12:22:05.850606 158840 net.cpp:129] Top shape: 50 256 13 13 (2163200)
I0117 12:22:05.850613 158840 net.cpp:137] Memory required for data: 572820000
I0117 12:22:05.850621 158840 layer_factory.hpp:77] Creating layer pool5
I0117 12:22:05.850702 158840 net.cpp:84] Creating Layer pool5
I0117 12:22:05.850709 158840 net.cpp:406] pool5 <- conv5
I0117 12:22:05.850731 158840 net.cpp:380] pool5 -> pool5
I0117 12:22:05.850803 158840 net.cpp:122] Setting up pool5
I0117 12:22:05.850826 158840 net.cpp:129] Top shape: 50 256 6 6 (460800)
I0117 12:22:05.850833 158840 net.cpp:137] Memory required for data: 574663200
I0117 12:22:05.850839 158840 layer_factory.hpp:77] Creating layer fc6
I0117 12:22:05.850852 158840 net.cpp:84] Creating Layer fc6
I0117 12:22:05.850858 158840 net.cpp:406] fc6 <- pool5
I0117 12:22:05.850877 158840 net.cpp:380] fc6 -> fc6
I0117 12:22:06.538691 158840 net.cpp:122] Setting up fc6
I0117 12:22:06.538760 158840 net.cpp:129] Top shape: 50 4096 (204800)
I0117 12:22:06.538772 158840 net.cpp:137] Memory required for data: 575482400
I0117 12:22:06.538800 158840 layer_factory.hpp:77] Creating layer bn6
I0117 12:22:06.538818 158840 net.cpp:84] Creating Layer bn6
I0117 12:22:06.538827 158840 net.cpp:406] bn6 <- fc6
I0117 12:22:06.538839 158840 net.cpp:367] bn6 -> fc6 (in-place)
I0117 12:22:06.539134 158840 net.cpp:122] Setting up bn6
I0117 12:22:06.539149 158840 net.cpp:129] Top shape: 50 4096 (204800)
I0117 12:22:06.539160 158840 net.cpp:137] Memory required for data: 576301600
I0117 12:22:06.539171 158840 layer_factory.hpp:77] Creating layer scale6
I0117 12:22:06.539181 158840 net.cpp:84] Creating Layer scale6
I0117 12:22:06.539188 158840 net.cpp:406] scale6 <- fc6
I0117 12:22:06.539206 158840 net.cpp:367] scale6 -> fc6 (in-place)
I0117 12:22:06.539266 158840 layer_factory.hpp:77] Creating layer scale6
I0117 12:22:06.539446 158840 net.cpp:122] Setting up scale6
I0117 12:22:06.539464 158840 net.cpp:129] Top shape: 50 4096 (204800)
I0117 12:22:06.539476 158840 net.cpp:137] Memory required for data: 577120800
I0117 12:22:06.539490 158840 layer_factory.hpp:77] Creating layer relu6
I0117 12:22:06.539501 158840 net.cpp:84] Creating Layer relu6
I0117 12:22:06.539508 158840 net.cpp:406] relu6 <- fc6
I0117 12:22:06.539520 158840 net.cpp:367] relu6 -> fc6 (in-place)
I0117 12:22:06.539530 158840 net.cpp:122] Setting up relu6
I0117 12:22:06.539539 158840 net.cpp:129] Top shape: 50 4096 (204800)
I0117 12:22:06.539551 158840 net.cpp:137] Memory required for data: 577940000
I0117 12:22:06.539566 158840 layer_factory.hpp:77] Creating layer drop6
I0117 12:22:06.539577 158840 net.cpp:84] Creating Layer drop6
I0117 12:22:06.539583 158840 net.cpp:406] drop6 <- fc6
I0117 12:22:06.539592 158840 net.cpp:367] drop6 -> fc6 (in-place)
I0117 12:22:06.539626 158840 net.cpp:122] Setting up drop6
I0117 12:22:06.539646 158840 net.cpp:129] Top shape: 50 4096 (204800)
I0117 12:22:06.539665 158840 net.cpp:137] Memory required for data: 578759200
I0117 12:22:06.539680 158840 layer_factory.hpp:77] Creating layer fc7
I0117 12:22:06.539696 158840 net.cpp:84] Creating Layer fc7
I0117 12:22:06.539707 158840 net.cpp:406] fc7 <- fc6
I0117 12:22:06.539737 158840 net.cpp:380] fc7 -> fc7
I0117 12:22:06.834465 158840 net.cpp:122] Setting up fc7
I0117 12:22:06.834595 158840 net.cpp:129] Top shape: 50 4096 (204800)
I0117 12:22:06.834631 158840 net.cpp:137] Memory required for data: 579578400
I0117 12:22:06.834693 158840 layer_factory.hpp:77] Creating layer bn7
I0117 12:22:06.834755 158840 net.cpp:84] Creating Layer bn7
I0117 12:22:06.834780 158840 net.cpp:406] bn7 <- fc7
I0117 12:22:06.834826 158840 net.cpp:367] bn7 -> fc7 (in-place)
I0117 12:22:06.835448 158840 net.cpp:122] Setting up bn7
I0117 12:22:06.835490 158840 net.cpp:129] Top shape: 50 4096 (204800)
I0117 12:22:06.835505 158840 net.cpp:137] Memory required for data: 580397600
I0117 12:22:06.835536 158840 layer_factory.hpp:77] Creating layer scale7
I0117 12:22:06.835604 158840 net.cpp:84] Creating Layer scale7
I0117 12:22:06.835638 158840 net.cpp:406] scale7 <- fc7
I0117 12:22:06.835656 158840 net.cpp:367] scale7 -> fc7 (in-place)
I0117 12:22:06.835827 158840 layer_factory.hpp:77] Creating layer scale7
I0117 12:22:06.836215 158840 net.cpp:122] Setting up scale7
I0117 12:22:06.836257 158840 net.cpp:129] Top shape: 50 4096 (204800)
I0117 12:22:06.836345 158840 net.cpp:137] Memory required for data: 581216800
I0117 12:22:06.836380 158840 layer_factory.hpp:77] Creating layer relu7
I0117 12:22:06.836403 158840 net.cpp:84] Creating Layer relu7
I0117 12:22:06.836423 158840 net.cpp:406] relu7 <- fc7
I0117 12:22:06.836453 158840 net.cpp:367] relu7 -> fc7 (in-place)
I0117 12:22:06.836483 158840 net.cpp:122] Setting up relu7
I0117 12:22:06.836505 158840 net.cpp:129] Top shape: 50 4096 (204800)
I0117 12:22:06.836518 158840 net.cpp:137] Memory required for data: 582036000
I0117 12:22:06.836525 158840 layer_factory.hpp:77] Creating layer drop7
I0117 12:22:06.836537 158840 net.cpp:84] Creating Layer drop7
I0117 12:22:06.836547 158840 net.cpp:406] drop7 <- fc7
I0117 12:22:06.836561 158840 net.cpp:367] drop7 -> fc7 (in-place)
I0117 12:22:06.836612 158840 net.cpp:122] Setting up drop7
I0117 12:22:06.836632 158840 net.cpp:129] Top shape: 50 4096 (204800)
I0117 12:22:06.836640 158840 net.cpp:137] Memory required for data: 582855200
I0117 12:22:06.836654 158840 layer_factory.hpp:77] Creating layer fc8
I0117 12:22:06.836671 158840 net.cpp:84] Creating Layer fc8
I0117 12:22:06.836683 158840 net.cpp:406] fc8 <- fc7
I0117 12:22:06.836695 158840 net.cpp:380] fc8 -> fc8
I0117 12:22:06.944449 158840 net.cpp:122] Setting up fc8
I0117 12:22:06.944517 158840 net.cpp:129] Top shape: 50 1000 (50000)
I0117 12:22:06.944525 158840 net.cpp:137] Memory required for data: 583055200
I0117 12:22:06.944545 158840 layer_factory.hpp:77] Creating layer fc8_fc8_0_split
I0117 12:22:06.944564 158840 net.cpp:84] Creating Layer fc8_fc8_0_split
I0117 12:22:06.944579 158840 net.cpp:406] fc8_fc8_0_split <- fc8
I0117 12:22:06.944598 158840 net.cpp:380] fc8_fc8_0_split -> fc8_fc8_0_split_0
I0117 12:22:06.944627 158840 net.cpp:380] fc8_fc8_0_split -> fc8_fc8_0_split_1
I0117 12:22:06.944648 158840 net.cpp:380] fc8_fc8_0_split -> fc8_fc8_0_split_2
I0117 12:22:06.944725 158840 net.cpp:122] Setting up fc8_fc8_0_split
I0117 12:22:06.944738 158840 net.cpp:129] Top shape: 50 1000 (50000)
I0117 12:22:06.944748 158840 net.cpp:129] Top shape: 50 1000 (50000)
I0117 12:22:06.944761 158840 net.cpp:129] Top shape: 50 1000 (50000)
I0117 12:22:06.944766 158840 net.cpp:137] Memory required for data: 583655200
I0117 12:22:06.944772 158840 layer_factory.hpp:77] Creating layer accuracy
I0117 12:22:06.944782 158840 net.cpp:84] Creating Layer accuracy
I0117 12:22:06.944793 158840 net.cpp:406] accuracy <- fc8_fc8_0_split_0
I0117 12:22:06.944800 158840 net.cpp:406] accuracy <- label_data_1_split_0
I0117 12:22:06.944808 158840 net.cpp:380] accuracy -> accuracy
…
