…
I0110 19:07:05.216132 32604 net.cpp:294] The NetState phase (1) differed from the phase (0) specified by a rule in layer accuracy_5_TRAIN
I0110 19:07:05.216449 32604 net.cpp:51] Initializing net from parameters: 
name: "AlexNet-BN"
state {
  phase: TEST
  level: 0
  stage: ""
}
layer {
  name: "data"
  type: "Data"
  top: "data"
  top: "label"
  include {
    phase: TEST
  }
  transform_param {
    mirror: false
    crop_size: 224
    mean_value: 103.939
    mean_value: 116.779
    mean_value: 123.68
  }
  data_param {
    source: "/home/ydwu/database/imagenet/ilsvrc12/lmdb_resize/ilsvrc12_val_lmdb"
    batch_size: 200
    backend: LMDB
  }
}
layer {
  name: "conv1"
  type: "QuanConvolution"
  bottom: "data"
  top: "conv1"
  param {
    lr_mult: 1
    decay_mult: 1
  }
  param {
    lr_mult: 2
    decay_mult: 0
  }
  quan_convolution_param {
    num_output: 96
    pad: 2
    kernel_size: 11
    stride: 4
    weight_filler {
      type: "gaussian"
      std: 0.01
    }
    bias_filler {
      type: "constant"
      value: 0
    }
    round_method: ROUND
    round_strategy: NEUTRAL
    bit_width: 8
    range_low: -0.872089
    range_high: 0.927025
  }
}
layer {
  name: "bn1"
  type: "BatchNorm"
  bottom: "conv1"
  top: "conv1"
}
layer {
  name: "scale1"
  type: "Scale"
  bottom: "conv1"
  top: "conv1"
  scale_param {
    bias_term: true
  }
}
layer {
  name: "relu1"
  type: "ReLU"
  bottom: "conv1"
  top: "conv1"
}
layer {
  name: "pool1"
  type: "Pooling"
  bottom: "conv1"
  top: "pool1"
  pooling_param {
    pool: MAX
    kernel_size: 3
    stride: 2
  }
}
layer {
  name: "quantized_conv1"
  type: "Quantization"
  bottom: "pool1"
  top: "pool1"
  quantization_param {
    round_method: ROUND
    round_strategy: AGGRESSIVE
    bit_width: 8
    range: 0
    range: 13.965383
  }
}
layer {
  name: "conv2"
  type: "QuanConvolution"
  bottom: "pool1"
  top: "conv2"
  param {
    lr_mult: 1
    decay_mult: 1
  }
  param {
    lr_mult: 2
    decay_mult: 0
  }
  quan_convolution_param {
    num_output: 256
    pad: 2
    kernel_size: 5
    weight_filler {
      type: "gaussian"
      std: 0.01
    }
    bias_filler {
      type: "constant"
      value: 0.1
    }
    round_method: ROUND
    round_strategy: NEUTRAL
    bit_width: 8
    range_low: -0.806018
    range_high: 1.5182
  }
}
layer {
  name: "bn2"
  type: "BatchNorm"
  bottom: "conv2"
  top: "conv2"
}
layer {
  name: "scale2"
  type: "Scale"
  bottom: "conv2"
  top: "conv2"
  scale_param {
    bias_term: true
  }
}
layer {
  name: "relu2"
  type: "ReLU"
  bottom: "conv2"
  top: "conv2"
}
layer {
  name: "pool2"
  type: "Pooling"
  bottom: "conv2"
  top: "pool2"
  pooling_param {
    pool: MAX
    kernel_size: 3
    stride: 2
  }
}
layer {
  name: "quantized_conv2"
  type: "Quantization"
  bottom: "pool2"
  top: "pool2"
  quantization_param {
    round_method: ROUND
    round_strategy: AGGRESSIVE
    bit_width: 8
    range: 0
    range: 6.74956
  }
}
layer {
  name: "conv3"
  type: "QuanConvolution"
  bottom: "pool2"
  top: "conv3"
  param {
    lr_mult: 1
    decay_mult: 1
  }
  param {
    lr_mult: 2
    decay_mult: 0
  }
  quan_convolution_param {
    num_output: 384
    pad: 1
    kernel_size: 3
    weight_filler {
      type: "gaussian"
      std: 0.01
    }
    bias_filler {
      type: "constant"
      value: 0
    }
    round_method: ROUND
    round_strategy: NEUTRAL
    bit_width: 8
    range_low: -0.621858
    range_high: 0.673858
  }
}
layer {
  name: "bn3"
  type: "BatchNorm"
  bottom: "conv3"
  top: "conv3"
}
layer {
  name: "scale3"
  type: "Scale"
  bottom: "conv3"
  top: "conv3"
  scale_param {
    bias_term: true
  }
}
layer {
  name: "relu3"
  type: "ReLU"
  bottom: "conv3"
  top: "conv3"
}
layer {
  name: "quantized_conv3"
  type: "Quantization"
  bottom: "conv3"
  top: "conv3"
  quantization_param {
    round_method: ROUND
    round_strategy: AGGRESSIVE
    bit_width: 8
    range: 0
    range: 8.48454
  }
}
layer {
  name: "conv4"
  type: "QuanConvolution"
  bottom: "conv3"
  top: "conv4"
  param {
    lr_mult: 1
    decay_mult: 1
  }
  param {
    lr_mult: 2
    decay_mult: 0
  }
  quan_convolution_param {
    num_output: 384
    pad: 1
    kernel_size: 3
    weight_filler {
      type: "gaussian"
      std: 0.01
    }
    bias_filler {
      type: "constant"
      value: 0.1
    }
    round_method: ROUND
    round_strategy: NEUTRAL
    bit_width: 8
    range_low: -0.376634
    range_high: 0.341829
  }
}
layer {
  name: "bn4"
  type: "BatchNorm"
  bottom: "conv4"
  top: "conv4"
}
layer {
  name: "scale4"
  type: "Scale"
  bottom: "conv4"
  top: "conv4"
  scale_param {
    bias_term: true
  }
}
layer {
  name: "relu4"
  type: "ReLU"
  bottom: "conv4"
  top: "conv4"
}
layer {
  name: "quantized_conv4"
  type: "Quantization"
  bottom: "conv4"
  top: "conv4"
  quantization_param {
    round_method: ROUND
    round_strategy: AGGRESSIVE
    bit_width: 8
    range: 0
    range: 7.3369722
  }
}
layer {
  name: "conv5"
  type: "QuanConvolution"
  bottom: "conv4"
  top: "conv5"
  param {
    lr_mult: 1
    decay_mult: 1
  }
  param {
    lr_mult: 2
    decay_mult: 0
  }
  quan_convolution_param {
    num_output: 256
    pad: 1
    kernel_size: 3
    weight_filler {
      type: "gaussian"
      std: 0.01
    }
    bias_filler {
      type: "constant"
      value: 0.1
    }
    round_method: ROUND
    round_strategy: NEUTRAL
    bit_width: 8
    range_low: -0.347658
    range_high: 0.330042
  }
}
layer {
  name: "bn5"
  type: "BatchNorm"
  bottom: "conv5"
  top: "conv5"
}
layer {
  name: "scale5"
  type: "Scale"
  bottom: "conv5"
  top: "conv5"
  scale_param {
    bias_term: true
  }
}
layer {
  name: "relu5"
  type: "ReLU"
  bottom: "conv5"
  top: "conv5"
}
layer {
  name: "pool5"
  type: "Pooling"
  bottom: "conv5"
  top: "pool5"
  pooling_param {
    pool: MAX
    kernel_size: 3
    stride: 2
  }
}
layer {
  name: "quantized_conv5"
  type: "Quantization"
  bottom: "pool5"
  top: "pool5"
  quantization_param {
    round_method: ROUND
    round_strategy: AGGRESSIVE
    bit_width: 8
    range: 0
    range: 8.7577133
  }
}
layer {
  name: "fc6"
  type: "QuanInnerProduct"
  bottom: "pool5"
  top: "fc6"
  param {
    lr_mult: 1
    decay_mult: 1
  }
  param {
    lr_mult: 2
    decay_mult: 0
  }
  quan_inner_product_param {
    num_output: 4096
    weight_filler {
      type: "gaussian"
      std: 0.005
    }
    bias_filler {
      type: "constant"
      value: 0.1
    }
    round_method: ROUND
    round_strategy: NEUTRAL
    bit_width: 8
    range_low: -0.160061
    range_high: 0.148064
  }
}
layer {
  name: "bn6"
  type: "BatchNorm"
  bottom: "fc6"
  top: "fc6"
}
layer {
  name: "scale6"
  type: "Scale"
  bottom: "fc6"
  top: "fc6"
  scale_param {
    bias_term: true
  }
}
layer {
  name: "relu6"
  type: "ReLU"
  bottom: "fc6"
  top: "fc6"
}
layer {
  name: "drop6"
  type: "Dropout"
  bottom: "fc6"
  top: "fc6"
  dropout_param {
    dropout_ratio: 0.5
  }
}
layer {
  name: "quantized_fc6"
  type: "Quantization"
  bottom: "fc6"
  top: "fc6"
  quantization_param {
    round_method: ROUND
    round_strategy: AGGRESSIVE
    bit_width: 8
    range: 0
    range: 1.659358
  }
}
layer {
  name: "fc7"
  type: "QuanInnerProduct"
  bottom: "fc6"
  top: "fc7"
  param {
    lr_mult: 1
    decay_mult: 1
  }
  param {
    lr_mult: 2
    decay_mult: 0
  }
  quan_inner_product_param {
    num_output: 4096
    weight_filler {
      type: "gaussian"
      std: 0.005
    }
    bias_filler {
      type: "constant"
      value: 0.1
    }
    round_method: ROUND
    round_strategy: NEUTRAL
    bit_width: 8
    range_low: -0.162636
    range_high: 0.197684
  }
}
layer {
  name: "bn7"
  type: "BatchNorm"
  bottom: "fc7"
  top: "fc7"
}
layer {
  name: "scale7"
  type: "Scale"
  bottom: "fc7"
  top: "fc7"
  scale_param {
    bias_term: true
  }
}
layer {
  name: "relu7"
  type: "ReLU"
  bottom: "fc7"
  top: "fc7"
}
layer {
  name: "drop7"
  type: "Dropout"
  bottom: "fc7"
  top: "fc7"
  dropout_param {
    dropout_ratio: 0.5
  }
}
layer {
  name: "quantized_fc7"
  type: "Quantization"
  bottom: "fc7"
  top: "fc7"
  quantization_param {
    round_method: ROUND
    round_strategy: AGGRESSIVE
    bit_width: 8
    range: 0
    range: 7.5598521
  }
}
layer {
  name: "fc8"
  type: "QuanInnerProduct"
  bottom: "fc7"
  top: "fc8"
  param {
    lr_mult: 1
    decay_mult: 1
  }
  param {
    lr_mult: 2
    decay_mult: 0
  }
  quan_inner_product_param {
    num_output: 1000
    weight_filler {
      type: "gaussian"
      std: 0.01
    }
    bias_filler {
      type: "constant"
      value: 0
    }
    round_method: ROUND
    round_strategy: NEUTRAL
    bit_width: 8
    range_low: -0.141857
    range_high: 0.274249
  }
}
layer {
  name: "accuracy"
  type: "Accuracy"
  bottom: "fc8"
  bottom: "label"
  top: "accuracy"
  include {
    phase: TEST
  }
}
layer {
  name: "accuracy_5"
  type: "Accuracy"
  bottom: "fc8"
  bottom: "label"
  top: "accuracy_5"
  include {
    phase: TEST
  }
  accuracy_param {
    top_k: 5
  }
}
layer {
  name: "loss"
  type: "SoftmaxWithLoss"
  bottom: "fc8"
  bottom: "label"
  top: "loss"
}
I0110 19:07:05.216715 32604 layer_factory.hpp:77] Creating layer data
I0110 19:07:05.216828 32604 db_lmdb.cpp:35] Opened lmdb /home/ydwu/database/imagenet/ilsvrc12/lmdb_resize/ilsvrc12_val_lmdb
I0110 19:07:05.216879 32604 net.cpp:84] Creating Layer data
I0110 19:07:05.216903 32604 net.cpp:380] data -> data
I0110 19:07:05.216938 32604 net.cpp:380] data -> label
I0110 19:07:05.240236 32604 data_layer.cpp:45] output data size: 200,3,224,224
I0110 19:07:05.615799 32604 net.cpp:122] Setting up data
I0110 19:07:05.615885 32604 net.cpp:129] Top shape: 200 3 224 224 (30105600)
I0110 19:07:05.615898 32604 net.cpp:129] Top shape: 200 (200)
I0110 19:07:05.615908 32604 net.cpp:137] Memory required for data: 120423200
I0110 19:07:05.615926 32604 layer_factory.hpp:77] Creating layer label_data_1_split
I0110 19:07:05.615952 32604 net.cpp:84] Creating Layer label_data_1_split
I0110 19:07:05.615964 32604 net.cpp:406] label_data_1_split <- label
I0110 19:07:05.615989 32604 net.cpp:380] label_data_1_split -> label_data_1_split_0
I0110 19:07:05.616009 32604 net.cpp:380] label_data_1_split -> label_data_1_split_1
I0110 19:07:05.616024 32604 net.cpp:380] label_data_1_split -> label_data_1_split_2
I0110 19:07:05.616087 32604 net.cpp:122] Setting up label_data_1_split
I0110 19:07:05.616103 32604 net.cpp:129] Top shape: 200 (200)
I0110 19:07:05.616113 32604 net.cpp:129] Top shape: 200 (200)
I0110 19:07:05.616123 32604 net.cpp:129] Top shape: 200 (200)
I0110 19:07:05.616132 32604 net.cpp:137] Memory required for data: 120425600
I0110 19:07:05.616142 32604 layer_factory.hpp:77] Creating layer conv1
I0110 19:07:05.616173 32604 net.cpp:84] Creating Layer conv1
I0110 19:07:05.616183 32604 net.cpp:406] conv1 <- data
I0110 19:07:05.616197 32604 net.cpp:380] conv1 -> conv1
ydwu=======get:
bit_width=8;  round_method=0;  round_strategy=1;  is_runtime=0;  range_low=-0.872089;  range_high=0.927025
I0110 19:07:05.637884 32604 net.cpp:122] Setting up conv1
I0110 19:07:05.637912 32604 net.cpp:129] Top shape: 200 96 55 55 (58080000)
I0110 19:07:05.637923 32604 net.cpp:137] Memory required for data: 352745600
I0110 19:07:05.637949 32604 layer_factory.hpp:77] Creating layer bn1
I0110 19:07:05.637969 32604 net.cpp:84] Creating Layer bn1
I0110 19:07:05.637992 32604 net.cpp:406] bn1 <- conv1
I0110 19:07:05.638005 32604 net.cpp:367] bn1 -> conv1 (in-place)
I0110 19:07:05.638192 32604 net.cpp:122] Setting up bn1
I0110 19:07:05.638211 32604 net.cpp:129] Top shape: 200 96 55 55 (58080000)
I0110 19:07:05.638219 32604 net.cpp:137] Memory required for data: 585065600
I0110 19:07:05.638236 32604 layer_factory.hpp:77] Creating layer scale1
I0110 19:07:05.638254 32604 net.cpp:84] Creating Layer scale1
I0110 19:07:05.638264 32604 net.cpp:406] scale1 <- conv1
I0110 19:07:05.638276 32604 net.cpp:367] scale1 -> conv1 (in-place)
I0110 19:07:05.638334 32604 layer_factory.hpp:77] Creating layer scale1
I0110 19:07:05.638464 32604 net.cpp:122] Setting up scale1
I0110 19:07:05.638481 32604 net.cpp:129] Top shape: 200 96 55 55 (58080000)
I0110 19:07:05.638490 32604 net.cpp:137] Memory required for data: 817385600
I0110 19:07:05.638537 32604 layer_factory.hpp:77] Creating layer relu1
I0110 19:07:05.638555 32604 net.cpp:84] Creating Layer relu1
I0110 19:07:05.638564 32604 net.cpp:406] relu1 <- conv1
I0110 19:07:05.638576 32604 net.cpp:367] relu1 -> conv1 (in-place)
I0110 19:07:05.638590 32604 net.cpp:122] Setting up relu1
I0110 19:07:05.638602 32604 net.cpp:129] Top shape: 200 96 55 55 (58080000)
I0110 19:07:05.638610 32604 net.cpp:137] Memory required for data: 1049705600
I0110 19:07:05.638619 32604 layer_factory.hpp:77] Creating layer pool1
I0110 19:07:05.638633 32604 net.cpp:84] Creating Layer pool1
I0110 19:07:05.638643 32604 net.cpp:406] pool1 <- conv1
I0110 19:07:05.638654 32604 net.cpp:380] pool1 -> pool1
I0110 19:07:05.638711 32604 net.cpp:122] Setting up pool1
I0110 19:07:05.638728 32604 net.cpp:129] Top shape: 200 96 27 27 (13996800)
I0110 19:07:05.638737 32604 net.cpp:137] Memory required for data: 1105692800
I0110 19:07:05.638746 32604 layer_factory.hpp:77] Creating layer quantized_conv1
I0110 19:07:05.638761 32604 net.cpp:84] Creating Layer quantized_conv1
I0110 19:07:05.638772 32604 net.cpp:406] quantized_conv1 <- pool1
I0110 19:07:05.638783 32604 net.cpp:367] quantized_conv1 -> pool1 (in-place)
I0110 19:07:05.638799 32604 net.cpp:122] Setting up quantized_conv1
I0110 19:07:05.638810 32604 net.cpp:129] Top shape: 200 96 27 27 (13996800)
I0110 19:07:05.638819 32604 net.cpp:137] Memory required for data: 1161680000
I0110 19:07:05.638828 32604 layer_factory.hpp:77] Creating layer conv2
I0110 19:07:05.638844 32604 net.cpp:84] Creating Layer conv2
I0110 19:07:05.638854 32604 net.cpp:406] conv2 <- pool1
I0110 19:07:05.638866 32604 net.cpp:380] conv2 -> conv2
ydwu=======get:
bit_width=8;  round_method=0;  round_strategy=1;  is_runtime=0;  range_low=-0.806018;  range_high=1.5182
I0110 19:07:05.659637 32604 net.cpp:122] Setting up conv2
I0110 19:07:05.659670 32604 net.cpp:129] Top shape: 200 256 27 27 (37324800)
I0110 19:07:05.659680 32604 net.cpp:137] Memory required for data: 1310979200
I0110 19:07:05.659703 32604 layer_factory.hpp:77] Creating layer bn2
I0110 19:07:05.659723 32604 net.cpp:84] Creating Layer bn2
I0110 19:07:05.659734 32604 net.cpp:406] bn2 <- conv2
I0110 19:07:05.659749 32604 net.cpp:367] bn2 -> conv2 (in-place)
I0110 19:07:05.659920 32604 net.cpp:122] Setting up bn2
I0110 19:07:05.659938 32604 net.cpp:129] Top shape: 200 256 27 27 (37324800)
I0110 19:07:05.659947 32604 net.cpp:137] Memory required for data: 1460278400
I0110 19:07:05.659960 32604 layer_factory.hpp:77] Creating layer scale2
I0110 19:07:05.659976 32604 net.cpp:84] Creating Layer scale2
I0110 19:07:05.659984 32604 net.cpp:406] scale2 <- conv2
I0110 19:07:05.659996 32604 net.cpp:367] scale2 -> conv2 (in-place)
I0110 19:07:05.660051 32604 layer_factory.hpp:77] Creating layer scale2
I0110 19:07:05.660158 32604 net.cpp:122] Setting up scale2
I0110 19:07:05.660176 32604 net.cpp:129] Top shape: 200 256 27 27 (37324800)
I0110 19:07:05.660184 32604 net.cpp:137] Memory required for data: 1609577600
I0110 19:07:05.660197 32604 layer_factory.hpp:77] Creating layer relu2
I0110 19:07:05.660210 32604 net.cpp:84] Creating Layer relu2
I0110 19:07:05.660219 32604 net.cpp:406] relu2 <- conv2
I0110 19:07:05.660230 32604 net.cpp:367] relu2 -> conv2 (in-place)
I0110 19:07:05.660243 32604 net.cpp:122] Setting up relu2
I0110 19:07:05.660254 32604 net.cpp:129] Top shape: 200 256 27 27 (37324800)
I0110 19:07:05.660262 32604 net.cpp:137] Memory required for data: 1758876800
I0110 19:07:05.660270 32604 layer_factory.hpp:77] Creating layer pool2
I0110 19:07:05.660284 32604 net.cpp:84] Creating Layer pool2
I0110 19:07:05.660293 32604 net.cpp:406] pool2 <- conv2
I0110 19:07:05.660305 32604 net.cpp:380] pool2 -> pool2
I0110 19:07:05.660352 32604 net.cpp:122] Setting up pool2
I0110 19:07:05.660368 32604 net.cpp:129] Top shape: 200 256 13 13 (8652800)
I0110 19:07:05.660377 32604 net.cpp:137] Memory required for data: 1793488000
I0110 19:07:05.660387 32604 layer_factory.hpp:77] Creating layer quantized_conv2
I0110 19:07:05.660400 32604 net.cpp:84] Creating Layer quantized_conv2
I0110 19:07:05.660410 32604 net.cpp:406] quantized_conv2 <- pool2
I0110 19:07:05.660421 32604 net.cpp:367] quantized_conv2 -> pool2 (in-place)
I0110 19:07:05.660470 32604 net.cpp:122] Setting up quantized_conv2
I0110 19:07:05.660483 32604 net.cpp:129] Top shape: 200 256 13 13 (8652800)
I0110 19:07:05.660493 32604 net.cpp:137] Memory required for data: 1828099200
I0110 19:07:05.660502 32604 layer_factory.hpp:77] Creating layer conv3
I0110 19:07:05.660521 32604 net.cpp:84] Creating Layer conv3
I0110 19:07:05.660531 32604 net.cpp:406] conv3 <- pool2
I0110 19:07:05.660543 32604 net.cpp:380] conv3 -> conv3
ydwu=======get:
bit_width=8;  round_method=0;  round_strategy=1;  is_runtime=0;  range_low=-0.621858;  range_high=0.673858
I0110 19:07:05.687963 32604 net.cpp:122] Setting up conv3
I0110 19:07:05.687994 32604 net.cpp:129] Top shape: 200 384 13 13 (12979200)
I0110 19:07:05.688004 32604 net.cpp:137] Memory required for data: 1880016000
I0110 19:07:05.688019 32604 layer_factory.hpp:77] Creating layer bn3
I0110 19:07:05.688038 32604 net.cpp:84] Creating Layer bn3
I0110 19:07:05.688050 32604 net.cpp:406] bn3 <- conv3
I0110 19:07:05.688064 32604 net.cpp:367] bn3 -> conv3 (in-place)
I0110 19:07:05.688231 32604 net.cpp:122] Setting up bn3
I0110 19:07:05.688248 32604 net.cpp:129] Top shape: 200 384 13 13 (12979200)
I0110 19:07:05.688257 32604 net.cpp:137] Memory required for data: 1931932800
I0110 19:07:05.688277 32604 layer_factory.hpp:77] Creating layer scale3
I0110 19:07:05.688295 32604 net.cpp:84] Creating Layer scale3
I0110 19:07:05.688305 32604 net.cpp:406] scale3 <- conv3
I0110 19:07:05.688316 32604 net.cpp:367] scale3 -> conv3 (in-place)
I0110 19:07:05.688369 32604 layer_factory.hpp:77] Creating layer scale3
I0110 19:07:05.688482 32604 net.cpp:122] Setting up scale3
I0110 19:07:05.688498 32604 net.cpp:129] Top shape: 200 384 13 13 (12979200)
I0110 19:07:05.688506 32604 net.cpp:137] Memory required for data: 1983849600
I0110 19:07:05.688519 32604 layer_factory.hpp:77] Creating layer relu3
I0110 19:07:05.688532 32604 net.cpp:84] Creating Layer relu3
I0110 19:07:05.688541 32604 net.cpp:406] relu3 <- conv3
I0110 19:07:05.688552 32604 net.cpp:367] relu3 -> conv3 (in-place)
I0110 19:07:05.688565 32604 net.cpp:122] Setting up relu3
I0110 19:07:05.688575 32604 net.cpp:129] Top shape: 200 384 13 13 (12979200)
I0110 19:07:05.688585 32604 net.cpp:137] Memory required for data: 2035766400
I0110 19:07:05.688593 32604 layer_factory.hpp:77] Creating layer quantized_conv3
I0110 19:07:05.688606 32604 net.cpp:84] Creating Layer quantized_conv3
I0110 19:07:05.688616 32604 net.cpp:406] quantized_conv3 <- conv3
I0110 19:07:05.688627 32604 net.cpp:367] quantized_conv3 -> conv3 (in-place)
I0110 19:07:05.688639 32604 net.cpp:122] Setting up quantized_conv3
I0110 19:07:05.688652 32604 net.cpp:129] Top shape: 200 384 13 13 (12979200)
I0110 19:07:05.688659 32604 net.cpp:137] Memory required for data: 2087683200
I0110 19:07:05.688668 32604 layer_factory.hpp:77] Creating layer conv4
I0110 19:07:05.688685 32604 net.cpp:84] Creating Layer conv4
I0110 19:07:05.688695 32604 net.cpp:406] conv4 <- conv3
I0110 19:07:05.688709 32604 net.cpp:380] conv4 -> conv4
ydwu=======get:
bit_width=8;  round_method=0;  round_strategy=1;  is_runtime=0;  range_low=-0.376634;  range_high=0.341829
I0110 19:07:05.729812 32604 net.cpp:122] Setting up conv4
I0110 19:07:05.729846 32604 net.cpp:129] Top shape: 200 384 13 13 (12979200)
I0110 19:07:05.729856 32604 net.cpp:137] Memory required for data: 2139600000
I0110 19:07:05.729873 32604 layer_factory.hpp:77] Creating layer bn4
I0110 19:07:05.729893 32604 net.cpp:84] Creating Layer bn4
I0110 19:07:05.729905 32604 net.cpp:406] bn4 <- conv4
I0110 19:07:05.729920 32604 net.cpp:367] bn4 -> conv4 (in-place)
I0110 19:07:05.730088 32604 net.cpp:122] Setting up bn4
I0110 19:07:05.730104 32604 net.cpp:129] Top shape: 200 384 13 13 (12979200)
I0110 19:07:05.730113 32604 net.cpp:137] Memory required for data: 2191516800
I0110 19:07:05.730128 32604 layer_factory.hpp:77] Creating layer scale4
I0110 19:07:05.730144 32604 net.cpp:84] Creating Layer scale4
I0110 19:07:05.730152 32604 net.cpp:406] scale4 <- conv4
I0110 19:07:05.730165 32604 net.cpp:367] scale4 -> conv4 (in-place)
I0110 19:07:05.730218 32604 layer_factory.hpp:77] Creating layer scale4
I0110 19:07:05.730332 32604 net.cpp:122] Setting up scale4
I0110 19:07:05.730350 32604 net.cpp:129] Top shape: 200 384 13 13 (12979200)
I0110 19:07:05.730358 32604 net.cpp:137] Memory required for data: 2243433600
I0110 19:07:05.730415 32604 layer_factory.hpp:77] Creating layer relu4
I0110 19:07:05.730432 32604 net.cpp:84] Creating Layer relu4
I0110 19:07:05.730440 32604 net.cpp:406] relu4 <- conv4
I0110 19:07:05.730453 32604 net.cpp:367] relu4 -> conv4 (in-place)
I0110 19:07:05.730465 32604 net.cpp:122] Setting up relu4
I0110 19:07:05.730476 32604 net.cpp:129] Top shape: 200 384 13 13 (12979200)
I0110 19:07:05.730484 32604 net.cpp:137] Memory required for data: 2295350400
I0110 19:07:05.730494 32604 layer_factory.hpp:77] Creating layer quantized_conv4
I0110 19:07:05.730507 32604 net.cpp:84] Creating Layer quantized_conv4
I0110 19:07:05.730517 32604 net.cpp:406] quantized_conv4 <- conv4
I0110 19:07:05.730528 32604 net.cpp:367] quantized_conv4 -> conv4 (in-place)
I0110 19:07:05.730541 32604 net.cpp:122] Setting up quantized_conv4
I0110 19:07:05.730551 32604 net.cpp:129] Top shape: 200 384 13 13 (12979200)
I0110 19:07:05.730561 32604 net.cpp:137] Memory required for data: 2347267200
I0110 19:07:05.730568 32604 layer_factory.hpp:77] Creating layer conv5
I0110 19:07:05.730587 32604 net.cpp:84] Creating Layer conv5
I0110 19:07:05.730597 32604 net.cpp:406] conv5 <- conv4
I0110 19:07:05.730610 32604 net.cpp:380] conv5 -> conv5
ydwu=======get:
bit_width=8;  round_method=0;  round_strategy=1;  is_runtime=0;  range_low=-0.347658;  range_high=0.330042
I0110 19:07:05.758133 32604 net.cpp:122] Setting up conv5
I0110 19:07:05.758165 32604 net.cpp:129] Top shape: 200 256 13 13 (8652800)
I0110 19:07:05.758175 32604 net.cpp:137] Memory required for data: 2381878400
I0110 19:07:05.758190 32604 layer_factory.hpp:77] Creating layer bn5
I0110 19:07:05.758209 32604 net.cpp:84] Creating Layer bn5
I0110 19:07:05.758221 32604 net.cpp:406] bn5 <- conv5
I0110 19:07:05.758235 32604 net.cpp:367] bn5 -> conv5 (in-place)
I0110 19:07:05.758405 32604 net.cpp:122] Setting up bn5
I0110 19:07:05.758422 32604 net.cpp:129] Top shape: 200 256 13 13 (8652800)
I0110 19:07:05.758431 32604 net.cpp:137] Memory required for data: 2416489600
I0110 19:07:05.758453 32604 layer_factory.hpp:77] Creating layer scale5
I0110 19:07:05.758468 32604 net.cpp:84] Creating Layer scale5
I0110 19:07:05.758478 32604 net.cpp:406] scale5 <- conv5
I0110 19:07:05.758489 32604 net.cpp:367] scale5 -> conv5 (in-place)
I0110 19:07:05.758546 32604 layer_factory.hpp:77] Creating layer scale5
I0110 19:07:05.758656 32604 net.cpp:122] Setting up scale5
I0110 19:07:05.758673 32604 net.cpp:129] Top shape: 200 256 13 13 (8652800)
I0110 19:07:05.758682 32604 net.cpp:137] Memory required for data: 2451100800
I0110 19:07:05.758694 32604 layer_factory.hpp:77] Creating layer relu5
I0110 19:07:05.758708 32604 net.cpp:84] Creating Layer relu5
I0110 19:07:05.758716 32604 net.cpp:406] relu5 <- conv5
I0110 19:07:05.758728 32604 net.cpp:367] relu5 -> conv5 (in-place)
I0110 19:07:05.758740 32604 net.cpp:122] Setting up relu5
I0110 19:07:05.758751 32604 net.cpp:129] Top shape: 200 256 13 13 (8652800)
I0110 19:07:05.758759 32604 net.cpp:137] Memory required for data: 2485712000
I0110 19:07:05.758769 32604 layer_factory.hpp:77] Creating layer pool5
I0110 19:07:05.758781 32604 net.cpp:84] Creating Layer pool5
I0110 19:07:05.758791 32604 net.cpp:406] pool5 <- conv5
I0110 19:07:05.758803 32604 net.cpp:380] pool5 -> pool5
I0110 19:07:05.758850 32604 net.cpp:122] Setting up pool5
I0110 19:07:05.758867 32604 net.cpp:129] Top shape: 200 256 6 6 (1843200)
I0110 19:07:05.758875 32604 net.cpp:137] Memory required for data: 2493084800
I0110 19:07:05.758884 32604 layer_factory.hpp:77] Creating layer quantized_conv5
I0110 19:07:05.758898 32604 net.cpp:84] Creating Layer quantized_conv5
I0110 19:07:05.758908 32604 net.cpp:406] quantized_conv5 <- pool5
I0110 19:07:05.758919 32604 net.cpp:367] quantized_conv5 -> pool5 (in-place)
I0110 19:07:05.758932 32604 net.cpp:122] Setting up quantized_conv5
I0110 19:07:05.758944 32604 net.cpp:129] Top shape: 200 256 6 6 (1843200)
I0110 19:07:05.758951 32604 net.cpp:137] Memory required for data: 2500457600
I0110 19:07:05.758965 32604 layer_factory.hpp:77] Creating layer fc6
I0110 19:07:05.758987 32604 net.cpp:84] Creating Layer fc6
I0110 19:07:05.758997 32604 net.cpp:406] fc6 <- pool5
I0110 19:07:05.759052 32604 net.cpp:380] fc6 -> fc6
I0110 19:07:05.759073 32604 quan_inner_product_layer.cpp:21] 4096   4096
ydwu=======get:
bit_width=8;  round_method=0;  round_strategy=1;  is_runtime=0;  range_low=-0.160061;  range_high=0.148064
I0110 19:07:06.899677 32604 net.cpp:122] Setting up fc6
I0110 19:07:06.899720 32604 net.cpp:129] Top shape: 200 4096 (819200)
I0110 19:07:06.899731 32604 net.cpp:137] Memory required for data: 2503734400
I0110 19:07:06.899749 32604 layer_factory.hpp:77] Creating layer bn6
I0110 19:07:06.899767 32604 net.cpp:84] Creating Layer bn6
I0110 19:07:06.899780 32604 net.cpp:406] bn6 <- fc6
I0110 19:07:06.899794 32604 net.cpp:367] bn6 -> fc6 (in-place)
I0110 19:07:06.899977 32604 net.cpp:122] Setting up bn6
I0110 19:07:06.899994 32604 net.cpp:129] Top shape: 200 4096 (819200)
I0110 19:07:06.900003 32604 net.cpp:137] Memory required for data: 2507011200
I0110 19:07:06.900017 32604 layer_factory.hpp:77] Creating layer scale6
I0110 19:07:06.900038 32604 net.cpp:84] Creating Layer scale6
I0110 19:07:06.900048 32604 net.cpp:406] scale6 <- fc6
I0110 19:07:06.900059 32604 net.cpp:367] scale6 -> fc6 (in-place)
I0110 19:07:06.900110 32604 layer_factory.hpp:77] Creating layer scale6
I0110 19:07:06.900231 32604 net.cpp:122] Setting up scale6
I0110 19:07:06.900247 32604 net.cpp:129] Top shape: 200 4096 (819200)
I0110 19:07:06.900256 32604 net.cpp:137] Memory required for data: 2510288000
I0110 19:07:06.900269 32604 layer_factory.hpp:77] Creating layer relu6
I0110 19:07:06.900282 32604 net.cpp:84] Creating Layer relu6
I0110 19:07:06.900292 32604 net.cpp:406] relu6 <- fc6
I0110 19:07:06.900303 32604 net.cpp:367] relu6 -> fc6 (in-place)
I0110 19:07:06.900315 32604 net.cpp:122] Setting up relu6
I0110 19:07:06.900326 32604 net.cpp:129] Top shape: 200 4096 (819200)
I0110 19:07:06.900334 32604 net.cpp:137] Memory required for data: 2513564800
I0110 19:07:06.900343 32604 layer_factory.hpp:77] Creating layer drop6
I0110 19:07:06.900368 32604 net.cpp:84] Creating Layer drop6
I0110 19:07:06.900378 32604 net.cpp:406] drop6 <- fc6
I0110 19:07:06.900389 32604 net.cpp:367] drop6 -> fc6 (in-place)
I0110 19:07:06.900430 32604 net.cpp:122] Setting up drop6
I0110 19:07:06.900445 32604 net.cpp:129] Top shape: 200 4096 (819200)
I0110 19:07:06.900454 32604 net.cpp:137] Memory required for data: 2516841600
I0110 19:07:06.900463 32604 layer_factory.hpp:77] Creating layer quantized_fc6
I0110 19:07:06.900478 32604 net.cpp:84] Creating Layer quantized_fc6
I0110 19:07:06.900487 32604 net.cpp:406] quantized_fc6 <- fc6
I0110 19:07:06.900499 32604 net.cpp:367] quantized_fc6 -> fc6 (in-place)
I0110 19:07:06.900511 32604 net.cpp:122] Setting up quantized_fc6
I0110 19:07:06.900522 32604 net.cpp:129] Top shape: 200 4096 (819200)
I0110 19:07:06.900532 32604 net.cpp:137] Memory required for data: 2520118400
I0110 19:07:06.900540 32604 layer_factory.hpp:77] Creating layer fc7
I0110 19:07:06.900554 32604 net.cpp:84] Creating Layer fc7
I0110 19:07:06.900563 32604 net.cpp:406] fc7 <- fc6
I0110 19:07:06.900575 32604 net.cpp:380] fc7 -> fc7
I0110 19:07:06.900590 32604 quan_inner_product_layer.cpp:21] 4096   4096
ydwu=======get:
bit_width=8;  round_method=0;  round_strategy=1;  is_runtime=0;  range_low=-0.162636;  range_high=0.197684
I0110 19:07:07.411274 32604 net.cpp:122] Setting up fc7
I0110 19:07:07.411310 32604 net.cpp:129] Top shape: 200 4096 (819200)
I0110 19:07:07.411320 32604 net.cpp:137] Memory required for data: 2523395200
I0110 19:07:07.411339 32604 layer_factory.hpp:77] Creating layer bn7
I0110 19:07:07.411357 32604 net.cpp:84] Creating Layer bn7
I0110 19:07:07.411370 32604 net.cpp:406] bn7 <- fc7
I0110 19:07:07.411384 32604 net.cpp:367] bn7 -> fc7 (in-place)
I0110 19:07:07.411568 32604 net.cpp:122] Setting up bn7
I0110 19:07:07.411586 32604 net.cpp:129] Top shape: 200 4096 (819200)
I0110 19:07:07.411594 32604 net.cpp:137] Memory required for data: 2526672000
I0110 19:07:07.411608 32604 layer_factory.hpp:77] Creating layer scale7
I0110 19:07:07.411623 32604 net.cpp:84] Creating Layer scale7
I0110 19:07:07.411631 32604 net.cpp:406] scale7 <- fc7
I0110 19:07:07.411643 32604 net.cpp:367] scale7 -> fc7 (in-place)
I0110 19:07:07.411694 32604 layer_factory.hpp:77] Creating layer scale7
I0110 19:07:07.411813 32604 net.cpp:122] Setting up scale7
I0110 19:07:07.411829 32604 net.cpp:129] Top shape: 200 4096 (819200)
I0110 19:07:07.411881 32604 net.cpp:137] Memory required for data: 2529948800
I0110 19:07:07.411895 32604 layer_factory.hpp:77] Creating layer relu7
I0110 19:07:07.411909 32604 net.cpp:84] Creating Layer relu7
I0110 19:07:07.411918 32604 net.cpp:406] relu7 <- fc7
I0110 19:07:07.411929 32604 net.cpp:367] relu7 -> fc7 (in-place)
I0110 19:07:07.411942 32604 net.cpp:122] Setting up relu7
I0110 19:07:07.411952 32604 net.cpp:129] Top shape: 200 4096 (819200)
I0110 19:07:07.411962 32604 net.cpp:137] Memory required for data: 2533225600
I0110 19:07:07.411969 32604 layer_factory.hpp:77] Creating layer drop7
I0110 19:07:07.411983 32604 net.cpp:84] Creating Layer drop7
I0110 19:07:07.411991 32604 net.cpp:406] drop7 <- fc7
I0110 19:07:07.412003 32604 net.cpp:367] drop7 -> fc7 (in-place)
I0110 19:07:07.412035 32604 net.cpp:122] Setting up drop7
I0110 19:07:07.412050 32604 net.cpp:129] Top shape: 200 4096 (819200)
I0110 19:07:07.412060 32604 net.cpp:137] Memory required for data: 2536502400
I0110 19:07:07.412067 32604 layer_factory.hpp:77] Creating layer quantized_fc7
I0110 19:07:07.412081 32604 net.cpp:84] Creating Layer quantized_fc7
I0110 19:07:07.412091 32604 net.cpp:406] quantized_fc7 <- fc7
I0110 19:07:07.412102 32604 net.cpp:367] quantized_fc7 -> fc7 (in-place)
I0110 19:07:07.412114 32604 net.cpp:122] Setting up quantized_fc7
I0110 19:07:07.412125 32604 net.cpp:129] Top shape: 200 4096 (819200)
I0110 19:07:07.412133 32604 net.cpp:137] Memory required for data: 2539779200
I0110 19:07:07.412142 32604 layer_factory.hpp:77] Creating layer fc8
I0110 19:07:07.412156 32604 net.cpp:84] Creating Layer fc8
I0110 19:07:07.412165 32604 net.cpp:406] fc8 <- fc7
I0110 19:07:07.412178 32604 net.cpp:380] fc8 -> fc8
I0110 19:07:07.412192 32604 quan_inner_product_layer.cpp:21] 1000   1000
ydwu=======get:
bit_width=8;  round_method=0;  round_strategy=1;  is_runtime=0;  range_low=-0.141857;  range_high=0.274249
I0110 19:07:07.539513 32604 net.cpp:122] Setting up fc8
I0110 19:07:07.539546 32604 net.cpp:129] Top shape: 200 1000 (200000)
I0110 19:07:07.539556 32604 net.cpp:137] Memory required for data: 2540579200
I0110 19:07:07.539572 32604 layer_factory.hpp:77] Creating layer fc8_fc8_0_split
I0110 19:07:07.539592 32604 net.cpp:84] Creating Layer fc8_fc8_0_split
I0110 19:07:07.539602 32604 net.cpp:406] fc8_fc8_0_split <- fc8
I0110 19:07:07.539618 32604 net.cpp:380] fc8_fc8_0_split -> fc8_fc8_0_split_0
I0110 19:07:07.539638 32604 net.cpp:380] fc8_fc8_0_split -> fc8_fc8_0_split_1
I0110 19:07:07.539651 32604 net.cpp:380] fc8_fc8_0_split -> fc8_fc8_0_split_2
I0110 19:07:07.539713 32604 net.cpp:122] Setting up fc8_fc8_0_split
I0110 19:07:07.539729 32604 net.cpp:129] Top shape: 200 1000 (200000)
I0110 19:07:07.539739 32604 net.cpp:129] Top shape: 200 1000 (200000)
I0110 19:07:07.539748 32604 net.cpp:129] Top shape: 200 1000 (200000)
I0110 19:07:07.539757 32604 net.cpp:137] Memory required for data: 2542979200
I0110 19:07:07.539767 32604 layer_factory.hpp:77] Creating layer accuracy
I0110 19:07:07.539788 32604 net.cpp:84] Creating Layer accuracy
I0110 19:07:07.539798 32604 net.cpp:406] accuracy <- fc8_fc8_0_split_0
I0110 19:07:07.539808 32604 net.cpp:406] accuracy <- label_data_1_split_0
I0110 19:07:07.539820 32604 net.cpp:380] accuracy -> accuracy
…
