…
I1227 14:21:22.432013 64870 net.cpp:294] The NetState phase (0) differed from the phase (1) specified by a rule in layer mnist
I1227 14:21:22.432034 64870 net.cpp:294] The NetState phase (0) differed from the phase (1) specified by a rule in layer accuracy
I1227 14:21:22.432164 64870 net.cpp:51] Initializing net from parameters: 
name: "LeNet"
state {
  phase: TRAIN
  level: 0
  stage: ""
}
layer {
  name: "mnist"
  type: "Data"
  top: "data"
  top: "label"
  include {
    phase: TRAIN
  }
  transform_param {
    scale: 0.00390625
  }
  data_param {
    source: "mnist_train_lmdb"
    batch_size: 64
    backend: LMDB
  }
}
layer {
  name: "quantized_data"
  type: "Quantization"
  bottom: "data"
  top: "quantized_data"
  quantization_param {
    round_method: FLOOR
    round_strategy: AGGRESSIVE
    bit_width: 4
    range: 0
    range: 0.996094
  }
}
layer {
  name: "conv1"
  type: "QuanConvolution"
  bottom: "quantized_data"
  top: "conv1"
  param {
    lr_mult: 1
  }
  param {
    lr_mult: 2
  }
  quan_convolution_param {
    num_output: 20
    kernel_size: 5
    stride: 1
    weight_filler {
      type: "xavier"
    }
    bias_filler {
      type: "constant"
    }
    bit_width: 4
    range_low: -0.480178
    range_high: 0.526403
  }
}
layer {
  name: "pool1"
  type: "Pooling"
  bottom: "conv1"
  top: "pool1"
  pooling_param {
    pool: MAX
    kernel_size: 2
    stride: 2
  }
}
layer {
  name: "quantized_pool1"
  type: "Quantization"
  bottom: "pool1"
  top: "quantized_pool1"
  quantization_param {
    round_method: FLOOR
    round_strategy: AGGRESSIVE
    bit_width: 4
    range: -2.6871431
    range: 4.0181918
  }
}
layer {
  name: "conv2"
  type: "QuanConvolution"
  bottom: "quantized_pool1"
  top: "conv2"
  param {
    lr_mult: 1
  }
  param {
    lr_mult: 2
  }
  quan_convolution_param {
    num_output: 50
    kernel_size: 5
    stride: 1
    weight_filler {
      type: "xavier"
    }
    bias_filler {
      type: "constant"
    }
    bit_width: 4
    range_low: -0.143537
    range_high: 0.179069
  }
}
layer {
  name: "pool2"
  type: "Pooling"
  bottom: "conv2"
  top: "pool2"
  pooling_param {
    pool: MAX
    kernel_size: 2
    stride: 2
  }
}
layer {
  name: "quantized_pool2"
  type: "Quantization"
  bottom: "pool2"
  top: "quantized_pool2"
  quantization_param {
    round_method: FLOOR
    round_strategy: AGGRESSIVE
    bit_width: 4
    range: -10.569159
    range: 10.587986
  }
}
layer {
  name: "ip1"
  type: "QuanInnerProduct"
  bottom: "quantized_pool2"
  top: "ip1"
  param {
    lr_mult: 1
  }
  param {
    lr_mult: 2
  }
  quan_inner_product_param {
    num_output: 500
    weight_filler {
      type: "xavier"
    }
    bias_filler {
      type: "constant"
    }
    bit_width: 4
    range_low: -0.094222
    range_high: 0.097742
  }
}
layer {
  name: "relu1"
  type: "ReLU"
  bottom: "ip1"
  top: "relu1"
}
layer {
  name: "quantized_relu1"
  type: "Quantization"
  bottom: "relu1"
  top: "quantized_relu1"
  quantization_param {
    round_method: FLOOR
    round_strategy: AGGRESSIVE
    bit_width: 4
    range: -10.569159
    range: 10.587986
  }
}
layer {
  name: "ip2"
  type: "QuanInnerProduct"
  bottom: "quantized_relu1"
  top: "ip2"
  param {
    lr_mult: 1
  }
  param {
    lr_mult: 2
  }
  quan_inner_product_param {
    num_output: 10
    weight_filler {
      type: "xavier"
    }
    bias_filler {
      type: "constant"
    }
    bit_width: 4
    range_low: -0.243986
    range_high: 0.215615
  }
}
layer {
  name: "loss"
  type: "SoftmaxWithLoss"
  bottom: "ip2"
  bottom: "label"
  top: "loss"
}
I1227 14:21:22.432276 64870 layer_factory.hpp:77] Creating layer mnist
I1227 14:21:22.432397 64870 db_lmdb.cpp:35] Opened lmdb mnist_train_lmdb
I1227 14:21:22.432433 64870 net.cpp:84] Creating Layer mnist
I1227 14:21:22.432451 64870 net.cpp:380] mnist -> data
I1227 14:21:22.432485 64870 net.cpp:380] mnist -> label
I1227 14:21:22.433676 64870 data_layer.cpp:45] output data size: 64,1,28,28
I1227 14:21:22.451036 64870 net.cpp:122] Setting up mnist
I1227 14:21:22.451062 64870 net.cpp:129] Top shape: 64 1 28 28 (50176)
I1227 14:21:22.451072 64870 net.cpp:129] Top shape: 64 (64)
I1227 14:21:22.451078 64870 net.cpp:137] Memory required for data: 200960
I1227 14:21:22.451089 64870 layer_factory.hpp:77] Creating layer quantized_data
I1227 14:21:22.451105 64870 net.cpp:84] Creating Layer quantized_data
I1227 14:21:22.451117 64870 net.cpp:406] quantized_data <- data
I1227 14:21:22.451134 64870 net.cpp:380] quantized_data -> quantized_data
I1227 14:21:22.451326 64870 net.cpp:122] Setting up quantized_data
I1227 14:21:22.451370 64870 net.cpp:129] Top shape: 64 1 28 28 (50176)
I1227 14:21:22.451377 64870 net.cpp:137] Memory required for data: 401664
I1227 14:21:22.451387 64870 layer_factory.hpp:77] Creating layer conv1
I1227 14:21:22.451424 64870 net.cpp:84] Creating Layer conv1
I1227 14:21:22.451433 64870 net.cpp:406] conv1 <- quantized_data
I1227 14:21:22.451447 64870 net.cpp:380] conv1 -> conv1
ydwu=======get:
bit_width=4;  round_method=1;  round_strategy=2;  is_runtime=0;  range_low=-0.480178;  range_high=0.526403
I1227 14:21:22.452958 64870 net.cpp:122] Setting up conv1
I1227 14:21:22.452975 64870 net.cpp:129] Top shape: 64 20 24 24 (737280)
I1227 14:21:22.452982 64870 net.cpp:137] Memory required for data: 3350784
I1227 14:21:22.453002 64870 layer_factory.hpp:77] Creating layer pool1
I1227 14:21:22.453016 64870 net.cpp:84] Creating Layer pool1
I1227 14:21:22.453023 64870 net.cpp:406] pool1 <- conv1
I1227 14:21:22.453032 64870 net.cpp:380] pool1 -> pool1
I1227 14:21:22.453084 64870 net.cpp:122] Setting up pool1
I1227 14:21:22.453100 64870 net.cpp:129] Top shape: 64 20 12 12 (184320)
I1227 14:21:22.453107 64870 net.cpp:137] Memory required for data: 4088064
I1227 14:21:22.453114 64870 layer_factory.hpp:77] Creating layer quantized_pool1
I1227 14:21:22.453130 64870 net.cpp:84] Creating Layer quantized_pool1
I1227 14:21:22.453140 64870 net.cpp:406] quantized_pool1 <- pool1
I1227 14:21:22.453171 64870 net.cpp:380] quantized_pool1 -> quantized_pool1
I1227 14:21:22.453200 64870 net.cpp:122] Setting up quantized_pool1
I1227 14:21:22.453215 64870 net.cpp:129] Top shape: 64 20 12 12 (184320)
I1227 14:21:22.453224 64870 net.cpp:137] Memory required for data: 4825344
I1227 14:21:22.453233 64870 layer_factory.hpp:77] Creating layer conv2
I1227 14:21:22.453245 64870 net.cpp:84] Creating Layer conv2
I1227 14:21:22.453253 64870 net.cpp:406] conv2 <- quantized_pool1
I1227 14:21:22.453264 64870 net.cpp:380] conv2 -> conv2
ydwu=======get:
bit_width=4;  round_method=1;  round_strategy=2;  is_runtime=0;  range_low=-0.143537;  range_high=0.179069
I1227 14:21:22.453650 64870 net.cpp:122] Setting up conv2
I1227 14:21:22.453665 64870 net.cpp:129] Top shape: 64 50 8 8 (204800)
I1227 14:21:22.453671 64870 net.cpp:137] Memory required for data: 5644544
I1227 14:21:22.453682 64870 layer_factory.hpp:77] Creating layer pool2
I1227 14:21:22.453693 64870 net.cpp:84] Creating Layer pool2
I1227 14:21:22.453701 64870 net.cpp:406] pool2 <- conv2
I1227 14:21:22.453709 64870 net.cpp:380] pool2 -> pool2
I1227 14:21:22.453784 64870 net.cpp:122] Setting up pool2
I1227 14:21:22.453807 64870 net.cpp:129] Top shape: 64 50 4 4 (51200)
I1227 14:21:22.453820 64870 net.cpp:137] Memory required for data: 5849344
I1227 14:21:22.453830 64870 layer_factory.hpp:77] Creating layer quantized_pool2
I1227 14:21:22.453842 64870 net.cpp:84] Creating Layer quantized_pool2
I1227 14:21:22.453861 64870 net.cpp:406] quantized_pool2 <- pool2
I1227 14:21:22.453882 64870 net.cpp:380] quantized_pool2 -> quantized_pool2
I1227 14:21:22.453922 64870 net.cpp:122] Setting up quantized_pool2
I1227 14:21:22.453938 64870 net.cpp:129] Top shape: 64 50 4 4 (51200)
I1227 14:21:22.453944 64870 net.cpp:137] Memory required for data: 6054144
I1227 14:21:22.453951 64870 layer_factory.hpp:77] Creating layer ip1
I1227 14:21:22.453985 64870 net.cpp:84] Creating Layer ip1
I1227 14:21:22.453996 64870 net.cpp:406] ip1 <- quantized_pool2
I1227 14:21:22.454007 64870 net.cpp:380] ip1 -> ip1
I1227 14:21:22.454025 64870 quan_inner_product_layer.cpp:21] 500   500
ydwu=======get:
bit_width=4;  round_method=1;  round_strategy=2;  is_runtime=0;  range_low=-0.094222;  range_high=0.097742
I1227 14:21:22.457566 64870 net.cpp:122] Setting up ip1
I1227 14:21:22.457581 64870 net.cpp:129] Top shape: 64 500 (32000)
I1227 14:21:22.457588 64870 net.cpp:137] Memory required for data: 6182144
I1227 14:21:22.457599 64870 layer_factory.hpp:77] Creating layer relu1
I1227 14:21:22.457612 64870 net.cpp:84] Creating Layer relu1
I1227 14:21:22.457618 64870 net.cpp:406] relu1 <- ip1
I1227 14:21:22.457628 64870 net.cpp:380] relu1 -> relu1
I1227 14:21:22.457653 64870 net.cpp:122] Setting up relu1
I1227 14:21:22.457664 64870 net.cpp:129] Top shape: 64 500 (32000)
I1227 14:21:22.457671 64870 net.cpp:137] Memory required for data: 6310144
I1227 14:21:22.457677 64870 layer_factory.hpp:77] Creating layer quantized_relu1
I1227 14:21:22.457687 64870 net.cpp:84] Creating Layer quantized_relu1
I1227 14:21:22.457695 64870 net.cpp:406] quantized_relu1 <- relu1
I1227 14:21:22.457703 64870 net.cpp:380] quantized_relu1 -> quantized_relu1
I1227 14:21:22.457727 64870 net.cpp:122] Setting up quantized_relu1
I1227 14:21:22.457739 64870 net.cpp:129] Top shape: 64 500 (32000)
I1227 14:21:22.457746 64870 net.cpp:137] Memory required for data: 6438144
I1227 14:21:22.457752 64870 layer_factory.hpp:77] Creating layer ip2
I1227 14:21:22.457762 64870 net.cpp:84] Creating Layer ip2
I1227 14:21:22.457769 64870 net.cpp:406] ip2 <- quantized_relu1
I1227 14:21:22.457779 64870 net.cpp:380] ip2 -> ip2
I1227 14:21:22.457789 64870 quan_inner_product_layer.cpp:21] 10   10
ydwu=======get:
bit_width=4;  round_method=1;  round_strategy=2;  is_runtime=0;  range_low=-0.243986;  range_high=0.215615
I1227 14:21:22.459003 64870 net.cpp:122] Setting up ip2
I1227 14:21:22.459018 64870 net.cpp:129] Top shape: 64 10 (640)
I1227 14:21:22.459025 64870 net.cpp:137] Memory required for data: 6440704
I1227 14:21:22.459035 64870 layer_factory.hpp:77] Creating layer loss
I1227 14:21:22.459049 64870 net.cpp:84] Creating Layer loss
I1227 14:21:22.459058 64870 net.cpp:406] loss <- ip2
I1227 14:21:22.459065 64870 net.cpp:406] loss <- label
I1227 14:21:22.459075 64870 net.cpp:380] loss -> loss
I1227 14:21:22.459096 64870 layer_factory.hpp:77] Creating layer loss
…
I1227 14:21:22.459697 64870 solver.cpp:172] Creating test net (#0) specified by net file: quan_lenet_aw.prototxt
I1227 14:21:22.459734 64870 net.cpp:294] The NetState phase (1) differed from the phase (0) specified by a rule in layer mnist
I1227 14:21:22.459867 64870 net.cpp:51] Initializing net from parameters: 
name: "LeNet"
state {
  phase: TEST
}
layer {
  name: "mnist"
  type: "Data"
  top: "data"
  top: "label"
  include {
    phase: TEST
  }
  transform_param {
    scale: 0.00390625
  }
  data_param {
    source: "mnist_test_lmdb"
    batch_size: 100
    backend: LMDB
  }
}
layer {
  name: "quantized_data"
  type: "Quantization"
  bottom: "data"
  top: "quantized_data"
  quantization_param {
    round_method: FLOOR
    round_strategy: AGGRESSIVE
    bit_width: 4
    range: 0
    range: 0.996094
  }
}
layer {
  name: "conv1"
  type: "QuanConvolution"
  bottom: "quantized_data"
  top: "conv1"
  param {
    lr_mult: 1
  }
  param {
    lr_mult: 2
  }
  quan_convolution_param {
    num_output: 20
    kernel_size: 5
    stride: 1
    weight_filler {
      type: "xavier"
    }
    bias_filler {
      type: "constant"
    }
    bit_width: 4
    range_low: -0.480178
    range_high: 0.526403
  }
}
layer {
  name: "pool1"
  type: "Pooling"
  bottom: "conv1"
  top: "pool1"
  pooling_param {
    pool: MAX
    kernel_size: 2
    stride: 2
  }
}
layer {
  name: "quantized_pool1"
  type: "Quantization"
  bottom: "pool1"
  top: "quantized_pool1"
  quantization_param {
    round_method: FLOOR
    round_strategy: AGGRESSIVE
    bit_width: 4
    range: -2.6871431
    range: 4.0181918
  }
}
layer {
  name: "conv2"
  type: "QuanConvolution"
  bottom: "quantized_pool1"
  top: "conv2"
  param {
    lr_mult: 1
  }
  param {
    lr_mult: 2
  }
  quan_convolution_param {
    num_output: 50
    kernel_size: 5
    stride: 1
    weight_filler {
      type: "xavier"
    }
    bias_filler {
      type: "constant"
    }
    bit_width: 4
    range_low: -0.143537
    range_high: 0.179069
  }
}
layer {
  name: "pool2"
  type: "Pooling"
  bottom: "conv2"
  top: "pool2"
  pooling_param {
    pool: MAX
    kernel_size: 2
    stride: 2
  }
}
layer {
  name: "quantized_pool2"
  type: "Quantization"
  bottom: "pool2"
  top: "quantized_pool2"
  quantization_param {
    round_method: FLOOR
    round_strategy: AGGRESSIVE
    bit_width: 4
    range: -10.569159
    range: 10.587986
  }
}
layer {
  name: "ip1"
  type: "QuanInnerProduct"
  bottom: "quantized_pool2"
  top: "ip1"
  param {
    lr_mult: 1
  }
  param {
    lr_mult: 2
  }
  quan_inner_product_param {
    num_output: 500
    weight_filler {
      type: "xavier"
    }
    bias_filler {
      type: "constant"
    }
    bit_width: 4
    range_low: -0.094222
    range_high: 0.097742
  }
}
layer {
  name: "relu1"
  type: "ReLU"
  bottom: "ip1"
  top: "relu1"
}
layer {
  name: "quantized_relu1"
  type: "Quantization"
  bottom: "relu1"
  top: "quantized_relu1"
  quantization_param {
    round_method: FLOOR
    round_strategy: AGGRESSIVE
    bit_width: 4
    range: -10.569159
    range: 10.587986
  }
}
layer {
  name: "ip2"
  type: "QuanInnerProduct"
  bottom: "quantized_relu1"
  top: "ip2"
  param {
    lr_mult: 1
  }
  param {
    lr_mult: 2
  }
  quan_inner_product_param {
    num_output: 10
    weight_filler {
      type: "xavier"
    }
    bias_filler {
      type: "constant"
    }
    bit_width: 4
    range_low: -0.243986
    range_high: 0.215615
  }
}
layer {
  name: "accuracy"
  type: "Accuracy"
  bottom: "ip2"
  bottom: "label"
  top: "accuracy"
  include {
    phase: TEST
  }
}
layer {
  name: "loss"
  type: "SoftmaxWithLoss"
  bottom: "ip2"
  bottom: "label"
  top: "loss"
}
I1227 14:21:22.459957 64870 layer_factory.hpp:77] Creating layer mnist
I1227 14:21:22.460019 64870 db_lmdb.cpp:35] Opened lmdb mnist_test_lmdb
I1227 14:21:22.460039 64870 net.cpp:84] Creating Layer mnist
I1227 14:21:22.460049 64870 net.cpp:380] mnist -> data
I1227 14:21:22.460062 64870 net.cpp:380] mnist -> label
I1227 14:21:22.460157 64870 data_layer.cpp:45] output data size: 100,1,28,28
I1227 14:21:22.462502 64870 net.cpp:122] Setting up mnist
I1227 14:21:22.462522 64870 net.cpp:129] Top shape: 100 1 28 28 (78400)
I1227 14:21:22.462530 64870 net.cpp:129] Top shape: 100 (100)
I1227 14:21:22.462538 64870 net.cpp:137] Memory required for data: 314000
I1227 14:21:22.462544 64870 layer_factory.hpp:77] Creating layer label_mnist_1_split
I1227 14:21:22.462555 64870 net.cpp:84] Creating Layer label_mnist_1_split
I1227 14:21:22.462563 64870 net.cpp:406] label_mnist_1_split <- label
I1227 14:21:22.462584 64870 net.cpp:380] label_mnist_1_split -> label_mnist_1_split_0
I1227 14:21:22.462596 64870 net.cpp:380] label_mnist_1_split -> label_mnist_1_split_1
I1227 14:21:22.462746 64870 net.cpp:122] Setting up label_mnist_1_split
I1227 14:21:22.462769 64870 net.cpp:129] Top shape: 100 (100)
I1227 14:21:22.462777 64870 net.cpp:129] Top shape: 100 (100)
I1227 14:21:22.462783 64870 net.cpp:137] Memory required for data: 314800
I1227 14:21:22.462791 64870 layer_factory.hpp:77] Creating layer quantized_data
I1227 14:21:22.462803 64870 net.cpp:84] Creating Layer quantized_data
I1227 14:21:22.462811 64870 net.cpp:406] quantized_data <- data
I1227 14:21:22.462821 64870 net.cpp:380] quantized_data -> quantized_data
I1227 14:21:22.462852 64870 net.cpp:122] Setting up quantized_data
I1227 14:21:22.462864 64870 net.cpp:129] Top shape: 100 1 28 28 (78400)
I1227 14:21:22.462872 64870 net.cpp:137] Memory required for data: 628400
I1227 14:21:22.462878 64870 layer_factory.hpp:77] Creating layer conv1
I1227 14:21:22.462893 64870 net.cpp:84] Creating Layer conv1
I1227 14:21:22.462901 64870 net.cpp:406] conv1 <- quantized_data
I1227 14:21:22.462911 64870 net.cpp:380] conv1 -> conv1
ydwu=======get:
bit_width=4;  round_method=1;  round_strategy=2;  is_runtime=0;  range_low=-0.480178;  range_high=0.526403
I1227 14:21:22.463174 64870 net.cpp:122] Setting up conv1
I1227 14:21:22.463188 64870 net.cpp:129] Top shape: 100 20 24 24 (1152000)
I1227 14:21:22.463196 64870 net.cpp:137] Memory required for data: 5236400
I1227 14:21:22.463209 64870 layer_factory.hpp:77] Creating layer pool1
I1227 14:21:22.463222 64870 net.cpp:84] Creating Layer pool1
I1227 14:21:22.463229 64870 net.cpp:406] pool1 <- conv1
I1227 14:21:22.463239 64870 net.cpp:380] pool1 -> pool1
I1227 14:21:22.463281 64870 net.cpp:122] Setting up pool1
I1227 14:21:22.463294 64870 net.cpp:129] Top shape: 100 20 12 12 (288000)
I1227 14:21:22.463301 64870 net.cpp:137] Memory required for data: 6388400
I1227 14:21:22.463309 64870 layer_factory.hpp:77] Creating layer quantized_pool1
I1227 14:21:22.463317 64870 net.cpp:84] Creating Layer quantized_pool1
I1227 14:21:22.463325 64870 net.cpp:406] quantized_pool1 <- pool1
I1227 14:21:22.463335 64870 net.cpp:380] quantized_pool1 -> quantized_pool1
I1227 14:21:22.463361 64870 net.cpp:122] Setting up quantized_pool1
I1227 14:21:22.463372 64870 net.cpp:129] Top shape: 100 20 12 12 (288000)
I1227 14:21:22.463379 64870 net.cpp:137] Memory required for data: 7540400
I1227 14:21:22.463387 64870 layer_factory.hpp:77] Creating layer conv2
I1227 14:21:22.463399 64870 net.cpp:84] Creating Layer conv2
I1227 14:21:22.463407 64870 net.cpp:406] conv2 <- quantized_pool1
I1227 14:21:22.463418 64870 net.cpp:380] conv2 -> conv2
ydwu=======get:
bit_width=4;  round_method=1;  round_strategy=2;  is_runtime=0;  range_low=-0.143537;  range_high=0.179069
I1227 14:21:22.463824 64870 net.cpp:122] Setting up conv2
I1227 14:21:22.463840 64870 net.cpp:129] Top shape: 100 50 8 8 (320000)
I1227 14:21:22.463846 64870 net.cpp:137] Memory required for data: 8820400
I1227 14:21:22.463857 64870 layer_factory.hpp:77] Creating layer pool2
I1227 14:21:22.463868 64870 net.cpp:84] Creating Layer pool2
I1227 14:21:22.463876 64870 net.cpp:406] pool2 <- conv2
I1227 14:21:22.463886 64870 net.cpp:380] pool2 -> pool2
I1227 14:21:22.466542 64870 net.cpp:122] Setting up pool2
I1227 14:21:22.466567 64870 net.cpp:129] Top shape: 100 50 4 4 (80000)
I1227 14:21:22.466573 64870 net.cpp:137] Memory required for data: 9140400
I1227 14:21:22.466590 64870 layer_factory.hpp:77] Creating layer quantized_pool2
I1227 14:21:22.466605 64870 net.cpp:84] Creating Layer quantized_pool2
I1227 14:21:22.466615 64870 net.cpp:406] quantized_pool2 <- pool2
I1227 14:21:22.466625 64870 net.cpp:380] quantized_pool2 -> quantized_pool2
I1227 14:21:22.466658 64870 net.cpp:122] Setting up quantized_pool2
I1227 14:21:22.466675 64870 net.cpp:129] Top shape: 100 50 4 4 (80000)
I1227 14:21:22.466682 64870 net.cpp:137] Memory required for data: 9460400
I1227 14:21:22.466688 64870 layer_factory.hpp:77] Creating layer ip1
I1227 14:21:22.466701 64870 net.cpp:84] Creating Layer ip1
I1227 14:21:22.466708 64870 net.cpp:406] ip1 <- quantized_pool2
I1227 14:21:22.466719 64870 net.cpp:380] ip1 -> ip1
I1227 14:21:22.466733 64870 quan_inner_product_layer.cpp:21] 500   500
ydwu=======get:
bit_width=4;  round_method=1;  round_strategy=2;  is_runtime=0;  range_low=-0.094222;  range_high=0.097742
I1227 14:21:22.470402 64870 net.cpp:122] Setting up ip1
I1227 14:21:22.470418 64870 net.cpp:129] Top shape: 100 500 (50000)
I1227 14:21:22.470425 64870 net.cpp:137] Memory required for data: 9660400
I1227 14:21:22.470440 64870 layer_factory.hpp:77] Creating layer relu1
I1227 14:21:22.470453 64870 net.cpp:84] Creating Layer relu1
I1227 14:21:22.470460 64870 net.cpp:406] relu1 <- ip1
I1227 14:21:22.470470 64870 net.cpp:380] relu1 -> relu1
I1227 14:21:22.470500 64870 net.cpp:122] Setting up relu1
I1227 14:21:22.470512 64870 net.cpp:129] Top shape: 100 500 (50000)
I1227 14:21:22.470520 64870 net.cpp:137] Memory required for data: 9860400
I1227 14:21:22.470525 64870 layer_factory.hpp:77] Creating layer quantized_relu1
I1227 14:21:22.470536 64870 net.cpp:84] Creating Layer quantized_relu1
I1227 14:21:22.470543 64870 net.cpp:406] quantized_relu1 <- relu1
I1227 14:21:22.470552 64870 net.cpp:380] quantized_relu1 -> quantized_relu1
I1227 14:21:22.470579 64870 net.cpp:122] Setting up quantized_relu1
I1227 14:21:22.470592 64870 net.cpp:129] Top shape: 100 500 (50000)
I1227 14:21:22.470598 64870 net.cpp:137] Memory required for data: 10060400
I1227 14:21:22.470604 64870 layer_factory.hpp:77] Creating layer ip2
I1227 14:21:22.470616 64870 net.cpp:84] Creating Layer ip2
I1227 14:21:22.470623 64870 net.cpp:406] ip2 <- quantized_relu1
I1227 14:21:22.470633 64870 net.cpp:380] ip2 -> ip2
I1227 14:21:22.470644 64870 quan_inner_product_layer.cpp:21] 10   10
ydwu=======get:
bit_width=4;  round_method=1;  round_strategy=2;  is_runtime=0;  range_low=-0.243986;  range_high=0.215615
I1227 14:21:22.470790 64870 net.cpp:122] Setting up ip2
I1227 14:21:22.470803 64870 net.cpp:129] Top shape: 100 10 (1000)
I1227 14:21:22.470810 64870 net.cpp:137] Memory required for data: 10064400
I1227 14:21:22.470819 64870 layer_factory.hpp:77] Creating layer ip2_ip2_0_split
I1227 14:21:22.470830 64870 net.cpp:84] Creating Layer ip2_ip2_0_split
I1227 14:21:22.470837 64870 net.cpp:406] ip2_ip2_0_split <- ip2
I1227 14:21:22.470846 64870 net.cpp:380] ip2_ip2_0_split -> ip2_ip2_0_split_0
I1227 14:21:22.470857 64870 net.cpp:380] ip2_ip2_0_split -> ip2_ip2_0_split_1
I1227 14:21:22.470899 64870 net.cpp:122] Setting up ip2_ip2_0_split
I1227 14:21:22.470911 64870 net.cpp:129] Top shape: 100 10 (1000)
I1227 14:21:22.470921 64870 net.cpp:129] Top shape: 100 10 (1000)
I1227 14:21:22.470927 64870 net.cpp:137] Memory required for data: 10072400
I1227 14:21:22.470933 64870 layer_factory.hpp:77] Creating layer accuracy
I1227 14:21:22.470948 64870 net.cpp:84] Creating Layer accuracy
I1227 14:21:22.471007 64870 net.cpp:406] accuracy <- ip2_ip2_0_split_0
I1227 14:21:22.471017 64870 net.cpp:406] accuracy <- label_mnist_1_split_0
I1227 14:21:22.471026 64870 net.cpp:380] accuracy -> accuracy
…
