…
I1227 14:39:47.670357 65393 net.cpp:294] The NetState phase (1) differed from the phase (0) specified by a rule in layer data
I1227 14:39:47.670785 65393 net.cpp:51] Initializing net from parameters: 
name: "ResNet-18"
state {
  phase: TEST
  level: 0
  stage: ""
}
layer {
  name: "data"
  type: "Data"
  top: "data"
  top: "label"
  include {
    phase: TEST
  }
  transform_param {
    mirror: false
    crop_size: 224
    mean_file: "/mllib/imagenet/ilsvrc12/imagenet_mean.binaryproto"
  }
  data_param {
    source: "/mllib/imagenet/ilsvrc12/lmdb_resize/ilsvrc12_val_lmdb"
    batch_size: 50
    backend: LMDB
  }
}
layer {
  name: "conv1"
  type: "Convolution"
  bottom: "data"
  top: "conv1"
  convolution_param {
    num_output: 64
    bias_term: false
    pad: 3
    kernel_size: 7
    stride: 2
    weight_filler {
      type: "msra"
    }
  }
}
layer {
  name: "bn_conv1"
  type: "BatchNorm"
  bottom: "conv1"
  top: "conv1"
}
layer {
  name: "scale_conv1"
  type: "Scale"
  bottom: "conv1"
  top: "conv1"
  scale_param {
    bias_term: true
  }
}
layer {
  name: "conv1_relu"
  type: "ReLU"
  bottom: "conv1"
  top: "conv1"
}
layer {
  name: "pool1"
  type: "Pooling"
  bottom: "conv1"
  top: "pool1"
  pooling_param {
    pool: MAX
    kernel_size: 3
    stride: 2
  }
}
layer {
  name: "res2a_branch1"
  type: "Convolution"
  bottom: "pool1"
  top: "res2a_branch1"
  convolution_param {
    num_output: 64
    bias_term: false
    pad: 0
    kernel_size: 1
    stride: 1
    weight_filler {
      type: "msra"
    }
  }
}
layer {
  name: "bn2a_branch1"
  type: "BatchNorm"
  bottom: "res2a_branch1"
  top: "res2a_branch1"
}
layer {
  name: "scale2a_branch1"
  type: "Scale"
  bottom: "res2a_branch1"
  top: "res2a_branch1"
  scale_param {
    bias_term: true
  }
}
layer {
  name: "res2a_branch2a"
  type: "Convolution"
  bottom: "pool1"
  top: "res2a_branch2a"
  convolution_param {
    num_output: 64
    bias_term: false
    pad: 1
    kernel_size: 3
    stride: 1
    weight_filler {
      type: "msra"
    }
  }
}
layer {
  name: "bn2a_branch2a"
  type: "BatchNorm"
  bottom: "res2a_branch2a"
  top: "res2a_branch2a"
}
layer {
  name: "scale2a_branch2a"
  type: "Scale"
  bottom: "res2a_branch2a"
  top: "res2a_branch2a"
  scale_param {
    bias_term: true
  }
}
layer {
  name: "res2a_branch2a_relu"
  type: "ReLU"
  bottom: "res2a_branch2a"
  top: "res2a_branch2a"
}
layer {
  name: "res2a_branch2b"
  type: "Convolution"
  bottom: "res2a_branch2a"
  top: "res2a_branch2b"
  convolution_param {
    num_output: 64
    bias_term: false
    pad: 1
    kernel_size: 3
    stride: 1
    weight_filler {
      type: "msra"
    }
  }
}
layer {
  name: "bn2a_branch2b"
  type: "BatchNorm"
  bottom: "res2a_branch2b"
  top: "res2a_branch2b"
}
layer {
  name: "scale2a_branch2b"
  type: "Scale"
  bottom: "res2a_branch2b"
  top: "res2a_branch2b"
  scale_param {
    bias_term: true
  }
}
layer {
  name: "res2a"
  type: "Eltwise"
  bottom: "res2a_branch1"
  bottom: "res2a_branch2b"
  top: "res2a"
  eltwise_param {
    operation: SUM
  }
}
layer {
  name: "res2a_relu"
  type: "ReLU"
  bottom: "res2a"
  top: "res2a"
}
layer {
  name: "res2b_branch2a"
  type: "Convolution"
  bottom: "res2a"
  top: "res2b_branch2a"
  convolution_param {
    num_output: 64
    bias_term: false
    pad: 1
    kernel_size: 3
    stride: 1
    weight_filler {
      type: "msra"
    }
  }
}
layer {
  name: "bn2b_branch2a"
  type: "BatchNorm"
  bottom: "res2b_branch2a"
  top: "res2b_branch2a"
}
layer {
  name: "scale2b_branch2a"
  type: "Scale"
  bottom: "res2b_branch2a"
  top: "res2b_branch2a"
  scale_param {
    bias_term: true
  }
}
layer {
  name: "res2b_branch2a_relu"
  type: "ReLU"
  bottom: "res2b_branch2a"
  top: "res2b_branch2a"
}
layer {
  name: "res2b_branch2b"
  type: "Convolution"
  bottom: "res2b_branch2a"
  top: "res2b_branch2b"
  convolution_param {
    num_output: 64
    bias_term: false
    pad: 1
    kernel_size: 3
    stride: 1
    weight_filler {
      type: "msra"
    }
  }
}
layer {
  name: "bn2b_branch2b"
  type: "BatchNorm"
  bottom: "res2b_branch2b"
  top: "res2b_branch2b"
}
layer {
  name: "scale2b_branch2b"
  type: "Scale"
  bottom: "res2b_branch2b"
  top: "res2b_branch2b"
  scale_param {
    bias_term: true
  }
}
layer {
  name: "res2b"
  type: "Eltwise"
  bottom: "res2a"
  bottom: "res2b_branch2b"
  top: "res2b"
  eltwise_param {
    operation: SUM
  }
}
layer {
  name: "res2b_relu"
  type: "ReLU"
  bottom: "res2b"
  top: "res2b"
}
layer {
  name: "res3a_branch1"
  type: "Convolution"
  bottom: "res2b"
  top: "res3a_branch1"
  convolution_param {
    num_output: 128
    bias_term: false
    pad: 0
    kernel_size: 1
    stride: 2
    weight_filler {
      type: "msra"
    }
  }
}
layer {
  name: "bn3a_branch1"
  type: "BatchNorm"
  bottom: "res3a_branch1"
  top: "res3a_branch1"
}
layer {
  name: "scale3a_branch1"
  type: "Scale"
  bottom: "res3a_branch1"
  top: "res3a_branch1"
  scale_param {
    bias_term: true
  }
}
layer {
  name: "res3a_branch2a"
  type: "Convolution"
  bottom: "res2b"
  top: "res3a_branch2a"
  convolution_param {
    num_output: 128
    bias_term: false
    pad: 1
    kernel_size: 3
    stride: 2
    weight_filler {
      type: "msra"
    }
  }
}
layer {
  name: "bn3a_branch2a"
  type: "BatchNorm"
  bottom: "res3a_branch2a"
  top: "res3a_branch2a"
}
layer {
  name: "scale3a_branch2a"
  type: "Scale"
  bottom: "res3a_branch2a"
  top: "res3a_branch2a"
  scale_param {
    bias_term: true
  }
}
layer {
  name: "res3a_branch2a_relu"
  type: "ReLU"
  bottom: "res3a_branch2a"
  top: "res3a_branch2a"
}
layer {
  name: "res3a_branch2b"
  type: "Convolution"
  bottom: "res3a_branch2a"
  top: "res3a_branch2b"
  convolution_param {
    num_output: 128
    bias_term: false
    pad: 1
    kernel_size: 3
    stride: 1
    weight_filler {
      type: "msra"
    }
  }
}
layer {
  name: "bn3a_branch2b"
  type: "BatchNorm"
  bottom: "res3a_branch2b"
  top: "res3a_branch2b"
}
layer {
  name: "scale3a_branch2b"
  type: "Scale"
  bottom: "res3a_branch2b"
  top: "res3a_branch2b"
  scale_param {
    bias_term: true
  }
}
layer {
  name: "res3a"
  type: "Eltwise"
  bottom: "res3a_branch1"
  bottom: "res3a_branch2b"
  top: "res3a"
  eltwise_param {
    operation: SUM
  }
}
layer {
  name: "res3a_relu"
  type: "ReLU"
  bottom: "res3a"
  top: "res3a"
}
layer {
  name: "res3b_branch2a"
  type: "Convolution"
  bottom: "res3a"
  top: "res3b_branch2a"
  convolution_param {
    num_output: 128
    bias_term: false
    pad: 1
    kernel_size: 3
    stride: 1
    weight_filler {
      type: "msra"
    }
  }
}
layer {
  name: "bn3b_branch2a"
  type: "BatchNorm"
  bottom: "res3b_branch2a"
  top: "res3b_branch2a"
}
layer {
  name: "scale3b_branch2a"
  type: "Scale"
  bottom: "res3b_branch2a"
  top: "res3b_branch2a"
  scale_param {
    bias_term: true
  }
}
layer {
  name: "res3b_branch2a_relu"
  type: "ReLU"
  bottom: "res3b_branch2a"
  top: "res3b_branch2a"
}
layer {
  name: "res3b_branch2b"
  type: "Convolution"
  bottom: "res3b_branch2a"
  top: "res3b_branch2b"
  convolution_param {
    num_output: 128
    bias_term: false
    pad: 1
    kernel_size: 3
    stride: 1
    weight_filler {
      type: "msra"
    }
  }
}
layer {
  name: "bn3b_branch2b"
  type: "BatchNorm"
  bottom: "res3b_branch2b"
  top: "res3b_branch2b"
}
layer {
  name: "scale3b_branch2b"
  type: "Scale"
  bottom: "res3b_branch2b"
  top: "res3b_branch2b"
  scale_param {
    bias_term: true
  }
}
layer {
  name: "res3b"
  type: "Eltwise"
  bottom: "res3a"
  bottom: "res3b_branch2b"
  top: "res3b"
  eltwise_param {
    operation: SUM
  }
}
layer {
  name: "res3b_relu"
  type: "ReLU"
  bottom: "res3b"
  top: "res3b"
}
layer {
  name: "res4a_branch1"
  type: "Convolution"
  bottom: "res3b"
  top: "res4a_branch1"
  convolution_param {
    num_output: 256
    bias_term: false
    pad: 0
    kernel_size: 1
    stride: 2
    weight_filler {
      type: "msra"
    }
  }
}
layer {
  name: "bn4a_branch1"
  type: "BatchNorm"
  bottom: "res4a_branch1"
  top: "res4a_branch1"
}
layer {
  name: "scale4a_branch1"
  type: "Scale"
  bottom: "res4a_branch1"
  top: "res4a_branch1"
  scale_param {
    bias_term: true
  }
}
layer {
  name: "res4a_branch2a"
  type: "Convolution"
  bottom: "res3b"
  top: "res4a_branch2a"
  convolution_param {
    num_output: 256
    bias_term: false
    pad: 1
    kernel_size: 3
    stride: 2
    weight_filler {
      type: "msra"
    }
  }
}
layer {
  name: "bn4a_branch2a"
  type: "BatchNorm"
  bottom: "res4a_branch2a"
  top: "res4a_branch2a"
}
layer {
  name: "scale4a_branch2a"
  type: "Scale"
  bottom: "res4a_branch2a"
  top: "res4a_branch2a"
  scale_param {
    bias_term: true
  }
}
layer {
  name: "res4a_branch2a_relu"
  type: "ReLU"
  bottom: "res4a_branch2a"
  top: "res4a_branch2a"
}
layer {
  name: "res4a_branch2b"
  type: "Convolution"
  bottom: "res4a_branch2a"
  top: "res4a_branch2b"
  convolution_param {
    num_output: 256
    bias_term: false
    pad: 1
    kernel_size: 3
    stride: 1
    weight_filler {
      type: "msra"
    }
  }
}
layer {
  name: "bn4a_branch2b"
  type: "BatchNorm"
  bottom: "res4a_branch2b"
  top: "res4a_branch2b"
}
layer {
  name: "scale4a_branch2b"
  type: "Scale"
  bottom: "res4a_branch2b"
  top: "res4a_branch2b"
  scale_param {
    bias_term: true
  }
}
layer {
  name: "res4a"
  type: "Eltwise"
  bottom: "res4a_branch1"
  bottom: "res4a_branch2b"
  top: "res4a"
  eltwise_param {
    operation: SUM
  }
}
layer {
  name: "res4a_relu"
  type: "ReLU"
  bottom: "res4a"
  top: "res4a"
}
layer {
  name: "res4b_branch2a"
  type: "Convolution"
  bottom: "res4a"
  top: "res4b_branch2a"
  convolution_param {
    num_output: 256
    bias_term: false
    pad: 1
    kernel_size: 3
    stride: 1
    weight_filler {
      type: "msra"
    }
  }
}
layer {
  name: "bn4b_branch2a"
  type: "BatchNorm"
  bottom: "res4b_branch2a"
  top: "res4b_branch2a"
}
layer {
  name: "scale4b_branch2a"
  type: "Scale"
  bottom: "res4b_branch2a"
  top: "res4b_branch2a"
  scale_param {
    bias_term: true
  }
}
layer {
  name: "res4b_branch2a_relu"
  type: "ReLU"
  bottom: "res4b_branch2a"
  top: "res4b_branch2a"
}
layer {
  name: "res4b_branch2b"
  type: "Convolution"
  bottom: "res4b_branch2a"
  top: "res4b_branch2b"
  convolution_param {
    num_output: 256
    bias_term: false
    pad: 1
    kernel_size: 3
    stride: 1
    weight_filler {
      type: "msra"
    }
  }
}
layer {
  name: "bn4b_branch2b"
  type: "BatchNorm"
  bottom: "res4b_branch2b"
  top: "res4b_branch2b"
}
layer {
  name: "scale4b_branch2b"
  type: "Scale"
  bottom: "res4b_branch2b"
  top: "res4b_branch2b"
  scale_param {
    bias_term: true
  }
}
layer {
  name: "res4b"
  type: "Eltwise"
  bottom: "res4a"
  bottom: "res4b_branch2b"
  top: "res4b"
  eltwise_param {
    operation: SUM
  }
}
layer {
  name: "res4b_relu"
  type: "ReLU"
  bottom: "res4b"
  top: "res4b"
}
layer {
  name: "res5a_branch1"
  type: "Convolution"
  bottom: "res4b"
  top: "res5a_branch1"
  convolution_param {
    num_output: 512
    bias_term: false
    pad: 0
    kernel_size: 1
    stride: 2
    weight_filler {
      type: "msra"
    }
  }
}
layer {
  name: "bn5a_branch1"
  type: "BatchNorm"
  bottom: "res5a_branch1"
  top: "res5a_branch1"
}
layer {
  name: "scale5a_branch1"
  type: "Scale"
  bottom: "res5a_branch1"
  top: "res5a_branch1"
  scale_param {
    bias_term: true
  }
}
layer {
  name: "res5a_branch2a"
  type: "Convolution"
  bottom: "res4b"
  top: "res5a_branch2a"
  convolution_param {
    num_output: 512
    bias_term: false
    pad: 1
    kernel_size: 3
    stride: 2
    weight_filler {
      type: "msra"
    }
  }
}
layer {
  name: "bn5a_branch2a"
  type: "BatchNorm"
  bottom: "res5a_branch2a"
  top: "res5a_branch2a"
}
layer {
  name: "scale5a_branch2a"
  type: "Scale"
  bottom: "res5a_branch2a"
  top: "res5a_branch2a"
  scale_param {
    bias_term: true
  }
}
layer {
  name: "res5a_branch2a_relu"
  type: "ReLU"
  bottom: "res5a_branch2a"
  top: "res5a_branch2a"
}
layer {
  name: "res5a_branch2b"
  type: "Convolution"
  bottom: "res5a_branch2a"
  top: "res5a_branch2b"
  convolution_param {
    num_output: 512
    bias_term: false
    pad: 1
    kernel_size: 3
    stride: 1
    weight_filler {
      type: "msra"
    }
  }
}
layer {
  name: "bn5a_branch2b"
  type: "BatchNorm"
  bottom: "res5a_branch2b"
  top: "res5a_branch2b"
}
layer {
  name: "scale5a_branch2b"
  type: "Scale"
  bottom: "res5a_branch2b"
  top: "res5a_branch2b"
  scale_param {
    bias_term: true
  }
}
layer {
  name: "res5a"
  type: "Eltwise"
  bottom: "res5a_branch1"
  bottom: "res5a_branch2b"
  top: "res5a"
  eltwise_param {
    operation: SUM
  }
}
layer {
  name: "res5a_relu"
  type: "ReLU"
  bottom: "res5a"
  top: "res5a"
}
layer {
  name: "res5b_branch2a"
  type: "Convolution"
  bottom: "res5a"
  top: "res5b_branch2a"
  convolution_param {
    num_output: 512
    bias_term: false
    pad: 1
    kernel_size: 3
    stride: 1
    weight_filler {
      type: "msra"
    }
  }
}
layer {
  name: "bn5b_branch2a"
  type: "BatchNorm"
  bottom: "res5b_branch2a"
  top: "res5b_branch2a"
}
layer {
  name: "scale5b_branch2a"
  type: "Scale"
  bottom: "res5b_branch2a"
  top: "res5b_branch2a"
  scale_param {
    bias_term: true
  }
}
layer {
  name: "res5b_branch2a_relu"
  type: "ReLU"
  bottom: "res5b_branch2a"
  top: "res5b_branch2a"
}
layer {
  name: "res5b_branch2b"
  type: "Convolution"
  bottom: "res5b_branch2a"
  top: "res5b_branch2b"
  convolution_param {
    num_output: 512
    bias_term: false
    pad: 1
    kernel_size: 3
    stride: 1
    weight_filler {
      type: "msra"
    }
  }
}
layer {
  name: "bn5b_branch2b"
  type: "BatchNorm"
  bottom: "res5b_branch2b"
  top: "res5b_branch2b"
}
layer {
  name: "scale5b_branch2b"
  type: "Scale"
  bottom: "res5b_branch2b"
  top: "res5b_branch2b"
  scale_param {
    bias_term: true
  }
}
layer {
  name: "res5b"
  type: "Eltwise"
  bottom: "res5a"
  bottom: "res5b_branch2b"
  top: "res5b"
  eltwise_param {
    operation: SUM
  }
}
layer {
  name: "res5b_relu"
  type: "ReLU"
  bottom: "res5b"
  top: "res5b"
}
layer {
  name: "pool5"
  type: "Pooling"
  bottom: "res5b"
  top: "pool5"
  pooling_param {
    pool: AVE
    kernel_size: 7
    stride: 1
  }
}
layer {
  name: "fc1000"
  type: "InnerProduct"
  bottom: "pool5"
  top: "fc1000"
  param {
    lr_mult: 1
    decay_mult: 1
  }
  param {
    lr_mult: 2
    decay_mult: 1
  }
  inner_product_param {
    num_output: 1000
    weight_filler {
      type: "msra"
    }
    bias_filler {
      type: "constant"
      value: 0
    }
  }
}
layer {
  name: "loss"
  type: "SoftmaxWithLoss"
  bottom: "fc1000"
  bottom: "label"
  top: "loss"
}
layer {
  name: "top1"
  type: "Accuracy"
  bottom: "fc1000"
  bottom: "label"
  top: "top1"
}
layer {
  name: "top5"
  type: "Accuracy"
  bottom: "fc1000"
  bottom: "label"
  top: "top5"
  accuracy_param {
    top_k: 5
  }
}
I1227 14:39:47.671267 65393 layer_factory.hpp:77] Creating layer data
I1227 14:39:47.671398 65393 db_lmdb.cpp:35] Opened lmdb /mllib/imagenet/ilsvrc12/lmdb_resize/ilsvrc12_val_lmdb
I1227 14:39:47.671438 65393 net.cpp:84] Creating Layer data
I1227 14:39:47.671458 65393 net.cpp:380] data -> data
I1227 14:39:47.671494 65393 net.cpp:380] data -> label
I1227 14:39:47.671519 65393 data_transformer.cpp:25] Loading mean file from: /mllib/imagenet/ilsvrc12/imagenet_mean.binaryproto
I1227 14:39:47.765497 65393 blob.cpp:485] 1  3  256  256
I1227 14:39:47.765532 65393 blob.cpp:490] 1  3  256  256   196608
I1227 14:39:47.766937 65393 data_layer.cpp:45] output data size: 50,3,224,224
I1227 14:39:47.889060 65393 net.cpp:122] Setting up data
I1227 14:39:47.889122 65393 net.cpp:129] Top shape: 50 3 224 224 (7526400)
I1227 14:39:47.889137 65393 net.cpp:129] Top shape: 50 (50)
I1227 14:39:47.889145 65393 net.cpp:137] Memory required for data: 30105800
I1227 14:39:47.889161 65393 layer_factory.hpp:77] Creating layer label_data_1_split
I1227 14:39:47.889185 65393 net.cpp:84] Creating Layer label_data_1_split
I1227 14:39:47.889199 65393 net.cpp:406] label_data_1_split <- label
I1227 14:39:47.889222 65393 net.cpp:380] label_data_1_split -> label_data_1_split_0
I1227 14:39:47.889241 65393 net.cpp:380] label_data_1_split -> label_data_1_split_1
I1227 14:39:47.889253 65393 net.cpp:380] label_data_1_split -> label_data_1_split_2
I1227 14:39:47.889317 65393 net.cpp:122] Setting up label_data_1_split
I1227 14:39:47.889366 65393 net.cpp:129] Top shape: 50 (50)
I1227 14:39:47.889377 65393 net.cpp:129] Top shape: 50 (50)
I1227 14:39:47.889386 65393 net.cpp:129] Top shape: 50 (50)
I1227 14:39:47.889394 65393 net.cpp:137] Memory required for data: 30106400
I1227 14:39:47.889402 65393 layer_factory.hpp:77] Creating layer conv1
I1227 14:39:47.889431 65393 net.cpp:84] Creating Layer conv1
I1227 14:39:47.889442 65393 net.cpp:406] conv1 <- data
I1227 14:39:47.889456 65393 net.cpp:380] conv1 -> conv1
I1227 14:39:47.890990 65393 net.cpp:122] Setting up conv1
I1227 14:39:47.891010 65393 net.cpp:129] Top shape: 50 64 112 112 (40140800)
I1227 14:39:47.891019 65393 net.cpp:137] Memory required for data: 190669600
I1227 14:39:47.891041 65393 layer_factory.hpp:77] Creating layer bn_conv1
I1227 14:39:47.891060 65393 net.cpp:84] Creating Layer bn_conv1
I1227 14:39:47.891069 65393 net.cpp:406] bn_conv1 <- conv1
I1227 14:39:47.891080 65393 net.cpp:367] bn_conv1 -> conv1 (in-place)
I1227 14:39:47.895859 65393 net.cpp:122] Setting up bn_conv1
I1227 14:39:47.895880 65393 net.cpp:129] Top shape: 50 64 112 112 (40140800)
I1227 14:39:47.895890 65393 net.cpp:137] Memory required for data: 351232800
I1227 14:39:47.895906 65393 layer_factory.hpp:77] Creating layer scale_conv1
I1227 14:39:47.895925 65393 net.cpp:84] Creating Layer scale_conv1
I1227 14:39:47.895934 65393 net.cpp:406] scale_conv1 <- conv1
I1227 14:39:47.895946 65393 net.cpp:367] scale_conv1 -> conv1 (in-place)
I1227 14:39:47.896003 65393 layer_factory.hpp:77] Creating layer scale_conv1
I1227 14:39:47.896195 65393 net.cpp:122] Setting up scale_conv1
I1227 14:39:47.896215 65393 net.cpp:129] Top shape: 50 64 112 112 (40140800)
I1227 14:39:47.896224 65393 net.cpp:137] Memory required for data: 511796000
I1227 14:39:47.896239 65393 layer_factory.hpp:77] Creating layer conv1_relu
I1227 14:39:47.896252 65393 net.cpp:84] Creating Layer conv1_relu
I1227 14:39:47.896261 65393 net.cpp:406] conv1_relu <- conv1
I1227 14:39:47.896272 65393 net.cpp:367] conv1_relu -> conv1 (in-place)
I1227 14:39:47.896286 65393 net.cpp:122] Setting up conv1_relu
I1227 14:39:47.896296 65393 net.cpp:129] Top shape: 50 64 112 112 (40140800)
I1227 14:39:47.896304 65393 net.cpp:137] Memory required for data: 672359200
I1227 14:39:47.896312 65393 layer_factory.hpp:77] Creating layer pool1
I1227 14:39:47.896325 65393 net.cpp:84] Creating Layer pool1
I1227 14:39:47.896333 65393 net.cpp:406] pool1 <- conv1
I1227 14:39:47.896344 65393 net.cpp:380] pool1 -> pool1
I1227 14:39:47.896397 65393 net.cpp:122] Setting up pool1
I1227 14:39:47.896416 65393 net.cpp:129] Top shape: 50 64 56 56 (10035200)
I1227 14:39:47.896425 65393 net.cpp:137] Memory required for data: 712500000
I1227 14:39:47.896433 65393 layer_factory.hpp:77] Creating layer pool1_pool1_0_split
I1227 14:39:47.896445 65393 net.cpp:84] Creating Layer pool1_pool1_0_split
I1227 14:39:47.896455 65393 net.cpp:406] pool1_pool1_0_split <- pool1
I1227 14:39:47.896466 65393 net.cpp:380] pool1_pool1_0_split -> pool1_pool1_0_split_0
I1227 14:39:47.896477 65393 net.cpp:380] pool1_pool1_0_split -> pool1_pool1_0_split_1
I1227 14:39:47.896517 65393 net.cpp:122] Setting up pool1_pool1_0_split
I1227 14:39:47.896533 65393 net.cpp:129] Top shape: 50 64 56 56 (10035200)
I1227 14:39:47.896543 65393 net.cpp:129] Top shape: 50 64 56 56 (10035200)
I1227 14:39:47.896550 65393 net.cpp:137] Memory required for data: 792781600
I1227 14:39:47.896559 65393 layer_factory.hpp:77] Creating layer res2a_branch1
I1227 14:39:47.896574 65393 net.cpp:84] Creating Layer res2a_branch1
I1227 14:39:47.896584 65393 net.cpp:406] res2a_branch1 <- pool1_pool1_0_split_0
I1227 14:39:47.896595 65393 net.cpp:380] res2a_branch1 -> res2a_branch1
I1227 14:39:47.898017 65393 net.cpp:122] Setting up res2a_branch1
I1227 14:39:47.898051 65393 net.cpp:129] Top shape: 50 64 56 56 (10035200)
I1227 14:39:47.898059 65393 net.cpp:137] Memory required for data: 832922400
I1227 14:39:47.898072 65393 layer_factory.hpp:77] Creating layer bn2a_branch1
I1227 14:39:47.898087 65393 net.cpp:84] Creating Layer bn2a_branch1
I1227 14:39:47.898120 65393 net.cpp:406] bn2a_branch1 <- res2a_branch1
I1227 14:39:47.898134 65393 net.cpp:367] bn2a_branch1 -> res2a_branch1 (in-place)
I1227 14:39:47.898305 65393 net.cpp:122] Setting up bn2a_branch1
I1227 14:39:47.898324 65393 net.cpp:129] Top shape: 50 64 56 56 (10035200)
I1227 14:39:47.898331 65393 net.cpp:137] Memory required for data: 873063200
I1227 14:39:47.898350 65393 layer_factory.hpp:77] Creating layer scale2a_branch1
I1227 14:39:47.898363 65393 net.cpp:84] Creating Layer scale2a_branch1
I1227 14:39:47.898372 65393 net.cpp:406] scale2a_branch1 <- res2a_branch1
I1227 14:39:47.898383 65393 net.cpp:367] scale2a_branch1 -> res2a_branch1 (in-place)
I1227 14:39:47.898430 65393 layer_factory.hpp:77] Creating layer scale2a_branch1
I1227 14:39:47.898542 65393 net.cpp:122] Setting up scale2a_branch1
I1227 14:39:47.898560 65393 net.cpp:129] Top shape: 50 64 56 56 (10035200)
I1227 14:39:47.898567 65393 net.cpp:137] Memory required for data: 913204000
I1227 14:39:47.898578 65393 layer_factory.hpp:77] Creating layer res2a_branch2a
I1227 14:39:47.898597 65393 net.cpp:84] Creating Layer res2a_branch2a
I1227 14:39:47.898605 65393 net.cpp:406] res2a_branch2a <- pool1_pool1_0_split_1
I1227 14:39:47.898617 65393 net.cpp:380] res2a_branch2a -> res2a_branch2a
I1227 14:39:47.901021 65393 net.cpp:122] Setting up res2a_branch2a
I1227 14:39:47.901051 65393 net.cpp:129] Top shape: 50 64 56 56 (10035200)
I1227 14:39:47.901060 65393 net.cpp:137] Memory required for data: 953344800
I1227 14:39:47.901072 65393 layer_factory.hpp:77] Creating layer bn2a_branch2a
I1227 14:39:47.901087 65393 net.cpp:84] Creating Layer bn2a_branch2a
I1227 14:39:47.901098 65393 net.cpp:406] bn2a_branch2a <- res2a_branch2a
I1227 14:39:47.901109 65393 net.cpp:367] bn2a_branch2a -> res2a_branch2a (in-place)
I1227 14:39:47.901289 65393 net.cpp:122] Setting up bn2a_branch2a
I1227 14:39:47.901307 65393 net.cpp:129] Top shape: 50 64 56 56 (10035200)
I1227 14:39:47.901316 65393 net.cpp:137] Memory required for data: 993485600
I1227 14:39:47.901329 65393 layer_factory.hpp:77] Creating layer scale2a_branch2a
I1227 14:39:47.901342 65393 net.cpp:84] Creating Layer scale2a_branch2a
I1227 14:39:47.901351 65393 net.cpp:406] scale2a_branch2a <- res2a_branch2a
I1227 14:39:47.901362 65393 net.cpp:367] scale2a_branch2a -> res2a_branch2a (in-place)
I1227 14:39:47.901410 65393 layer_factory.hpp:77] Creating layer scale2a_branch2a
I1227 14:39:47.901533 65393 net.cpp:122] Setting up scale2a_branch2a
I1227 14:39:47.901551 65393 net.cpp:129] Top shape: 50 64 56 56 (10035200)
I1227 14:39:47.901576 65393 net.cpp:137] Memory required for data: 1033626400
I1227 14:39:47.901593 65393 layer_factory.hpp:77] Creating layer res2a_branch2a_relu
I1227 14:39:47.901607 65393 net.cpp:84] Creating Layer res2a_branch2a_relu
I1227 14:39:47.901615 65393 net.cpp:406] res2a_branch2a_relu <- res2a_branch2a
I1227 14:39:47.901626 65393 net.cpp:367] res2a_branch2a_relu -> res2a_branch2a (in-place)
I1227 14:39:47.901639 65393 net.cpp:122] Setting up res2a_branch2a_relu
I1227 14:39:47.901649 65393 net.cpp:129] Top shape: 50 64 56 56 (10035200)
I1227 14:39:47.901657 65393 net.cpp:137] Memory required for data: 1073767200
I1227 14:39:47.901665 65393 layer_factory.hpp:77] Creating layer res2a_branch2b
I1227 14:39:47.901680 65393 net.cpp:84] Creating Layer res2a_branch2b
I1227 14:39:47.901690 65393 net.cpp:406] res2a_branch2b <- res2a_branch2a
I1227 14:39:47.901701 65393 net.cpp:380] res2a_branch2b -> res2a_branch2b
I1227 14:39:47.902909 65393 net.cpp:122] Setting up res2a_branch2b
I1227 14:39:47.902928 65393 net.cpp:129] Top shape: 50 64 56 56 (10035200)
I1227 14:39:47.902937 65393 net.cpp:137] Memory required for data: 1113908000
I1227 14:39:47.902947 65393 layer_factory.hpp:77] Creating layer bn2a_branch2b
I1227 14:39:47.902972 65393 net.cpp:84] Creating Layer bn2a_branch2b
I1227 14:39:47.902984 65393 net.cpp:406] bn2a_branch2b <- res2a_branch2b
I1227 14:39:47.902995 65393 net.cpp:367] bn2a_branch2b -> res2a_branch2b (in-place)
I1227 14:39:47.903168 65393 net.cpp:122] Setting up bn2a_branch2b
I1227 14:39:47.903220 65393 net.cpp:129] Top shape: 50 64 56 56 (10035200)
I1227 14:39:47.903230 65393 net.cpp:137] Memory required for data: 1154048800
I1227 14:39:47.903244 65393 layer_factory.hpp:77] Creating layer scale2a_branch2b
I1227 14:39:47.903256 65393 net.cpp:84] Creating Layer scale2a_branch2b
I1227 14:39:47.903265 65393 net.cpp:406] scale2a_branch2b <- res2a_branch2b
I1227 14:39:47.903276 65393 net.cpp:367] scale2a_branch2b -> res2a_branch2b (in-place)
I1227 14:39:47.903322 65393 layer_factory.hpp:77] Creating layer scale2a_branch2b
I1227 14:39:47.903440 65393 net.cpp:122] Setting up scale2a_branch2b
I1227 14:39:47.903461 65393 net.cpp:129] Top shape: 50 64 56 56 (10035200)
I1227 14:39:47.903470 65393 net.cpp:137] Memory required for data: 1194189600
I1227 14:39:47.903481 65393 layer_factory.hpp:77] Creating layer res2a
I1227 14:39:47.903501 65393 net.cpp:84] Creating Layer res2a
I1227 14:39:47.903512 65393 net.cpp:406] res2a <- res2a_branch1
I1227 14:39:47.903520 65393 net.cpp:406] res2a <- res2a_branch2b
I1227 14:39:47.903532 65393 net.cpp:380] res2a -> res2a
I1227 14:39:47.903573 65393 net.cpp:122] Setting up res2a
I1227 14:39:47.903589 65393 net.cpp:129] Top shape: 50 64 56 56 (10035200)
I1227 14:39:47.903599 65393 net.cpp:137] Memory required for data: 1234330400
I1227 14:39:47.903609 65393 layer_factory.hpp:77] Creating layer res2a_relu
I1227 14:39:47.903620 65393 net.cpp:84] Creating Layer res2a_relu
I1227 14:39:47.903628 65393 net.cpp:406] res2a_relu <- res2a
I1227 14:39:47.903640 65393 net.cpp:367] res2a_relu -> res2a (in-place)
I1227 14:39:47.903651 65393 net.cpp:122] Setting up res2a_relu
I1227 14:39:47.903661 65393 net.cpp:129] Top shape: 50 64 56 56 (10035200)
I1227 14:39:47.903671 65393 net.cpp:137] Memory required for data: 1274471200
I1227 14:39:47.903678 65393 layer_factory.hpp:77] Creating layer res2a_res2a_relu_0_split
I1227 14:39:47.903689 65393 net.cpp:84] Creating Layer res2a_res2a_relu_0_split
I1227 14:39:47.903698 65393 net.cpp:406] res2a_res2a_relu_0_split <- res2a
I1227 14:39:47.903708 65393 net.cpp:380] res2a_res2a_relu_0_split -> res2a_res2a_relu_0_split_0
I1227 14:39:47.903720 65393 net.cpp:380] res2a_res2a_relu_0_split -> res2a_res2a_relu_0_split_1
I1227 14:39:47.903760 65393 net.cpp:122] Setting up res2a_res2a_relu_0_split
I1227 14:39:47.903775 65393 net.cpp:129] Top shape: 50 64 56 56 (10035200)
I1227 14:39:47.903784 65393 net.cpp:129] Top shape: 50 64 56 56 (10035200)
I1227 14:39:47.903792 65393 net.cpp:137] Memory required for data: 1354752800
I1227 14:39:47.903801 65393 layer_factory.hpp:77] Creating layer res2b_branch2a
I1227 14:39:47.903815 65393 net.cpp:84] Creating Layer res2b_branch2a
I1227 14:39:47.903825 65393 net.cpp:406] res2b_branch2a <- res2a_res2a_relu_0_split_0
I1227 14:39:47.903837 65393 net.cpp:380] res2b_branch2a -> res2b_branch2a
I1227 14:39:47.905071 65393 net.cpp:122] Setting up res2b_branch2a
I1227 14:39:47.905099 65393 net.cpp:129] Top shape: 50 64 56 56 (10035200)
I1227 14:39:47.905107 65393 net.cpp:137] Memory required for data: 1394893600
I1227 14:39:47.905119 65393 layer_factory.hpp:77] Creating layer bn2b_branch2a
I1227 14:39:47.905134 65393 net.cpp:84] Creating Layer bn2b_branch2a
I1227 14:39:47.905144 65393 net.cpp:406] bn2b_branch2a <- res2b_branch2a
I1227 14:39:47.905155 65393 net.cpp:367] bn2b_branch2a -> res2b_branch2a (in-place)
I1227 14:39:47.905335 65393 net.cpp:122] Setting up bn2b_branch2a
I1227 14:39:47.905352 65393 net.cpp:129] Top shape: 50 64 56 56 (10035200)
I1227 14:39:47.905360 65393 net.cpp:137] Memory required for data: 1435034400
I1227 14:39:47.905374 65393 layer_factory.hpp:77] Creating layer scale2b_branch2a
I1227 14:39:47.905387 65393 net.cpp:84] Creating Layer scale2b_branch2a
I1227 14:39:47.905396 65393 net.cpp:406] scale2b_branch2a <- res2b_branch2a
I1227 14:39:47.905407 65393 net.cpp:367] scale2b_branch2a -> res2b_branch2a (in-place)
I1227 14:39:47.905455 65393 layer_factory.hpp:77] Creating layer scale2b_branch2a
I1227 14:39:47.905578 65393 net.cpp:122] Setting up scale2b_branch2a
I1227 14:39:47.905627 65393 net.cpp:129] Top shape: 50 64 56 56 (10035200)
I1227 14:39:47.905637 65393 net.cpp:137] Memory required for data: 1475175200
I1227 14:39:47.905649 65393 layer_factory.hpp:77] Creating layer res2b_branch2a_relu
I1227 14:39:47.905661 65393 net.cpp:84] Creating Layer res2b_branch2a_relu
I1227 14:39:47.905670 65393 net.cpp:406] res2b_branch2a_relu <- res2b_branch2a
I1227 14:39:47.905681 65393 net.cpp:367] res2b_branch2a_relu -> res2b_branch2a (in-place)
I1227 14:39:47.905694 65393 net.cpp:122] Setting up res2b_branch2a_relu
I1227 14:39:47.905704 65393 net.cpp:129] Top shape: 50 64 56 56 (10035200)
I1227 14:39:47.905711 65393 net.cpp:137] Memory required for data: 1515316000
I1227 14:39:47.905719 65393 layer_factory.hpp:77] Creating layer res2b_branch2b
I1227 14:39:47.905735 65393 net.cpp:84] Creating Layer res2b_branch2b
I1227 14:39:47.905745 65393 net.cpp:406] res2b_branch2b <- res2b_branch2a
I1227 14:39:47.905755 65393 net.cpp:380] res2b_branch2b -> res2b_branch2b
I1227 14:39:47.907012 65393 net.cpp:122] Setting up res2b_branch2b
I1227 14:39:47.907038 65393 net.cpp:129] Top shape: 50 64 56 56 (10035200)
I1227 14:39:47.907048 65393 net.cpp:137] Memory required for data: 1555456800
I1227 14:39:47.907059 65393 layer_factory.hpp:77] Creating layer bn2b_branch2b
I1227 14:39:47.907073 65393 net.cpp:84] Creating Layer bn2b_branch2b
I1227 14:39:47.907083 65393 net.cpp:406] bn2b_branch2b <- res2b_branch2b
I1227 14:39:47.907093 65393 net.cpp:367] bn2b_branch2b -> res2b_branch2b (in-place)
I1227 14:39:47.907269 65393 net.cpp:122] Setting up bn2b_branch2b
I1227 14:39:47.907286 65393 net.cpp:129] Top shape: 50 64 56 56 (10035200)
I1227 14:39:47.907294 65393 net.cpp:137] Memory required for data: 1595597600
I1227 14:39:47.907315 65393 layer_factory.hpp:77] Creating layer scale2b_branch2b
I1227 14:39:47.907328 65393 net.cpp:84] Creating Layer scale2b_branch2b
I1227 14:39:47.907337 65393 net.cpp:406] scale2b_branch2b <- res2b_branch2b
I1227 14:39:47.907348 65393 net.cpp:367] scale2b_branch2b -> res2b_branch2b (in-place)
I1227 14:39:47.907398 65393 layer_factory.hpp:77] Creating layer scale2b_branch2b
I1227 14:39:47.907521 65393 net.cpp:122] Setting up scale2b_branch2b
I1227 14:39:47.907538 65393 net.cpp:129] Top shape: 50 64 56 56 (10035200)
I1227 14:39:47.907547 65393 net.cpp:137] Memory required for data: 1635738400
I1227 14:39:47.907558 65393 layer_factory.hpp:77] Creating layer res2b
I1227 14:39:47.907572 65393 net.cpp:84] Creating Layer res2b
I1227 14:39:47.907582 65393 net.cpp:406] res2b <- res2a_res2a_relu_0_split_1
I1227 14:39:47.907591 65393 net.cpp:406] res2b <- res2b_branch2b
I1227 14:39:47.907603 65393 net.cpp:380] res2b -> res2b
I1227 14:39:47.907637 65393 net.cpp:122] Setting up res2b
I1227 14:39:47.907652 65393 net.cpp:129] Top shape: 50 64 56 56 (10035200)
I1227 14:39:47.907661 65393 net.cpp:137] Memory required for data: 1675879200
I1227 14:39:47.907670 65393 layer_factory.hpp:77] Creating layer res2b_relu
I1227 14:39:47.907682 65393 net.cpp:84] Creating Layer res2b_relu
I1227 14:39:47.907691 65393 net.cpp:406] res2b_relu <- res2b
I1227 14:39:47.907702 65393 net.cpp:367] res2b_relu -> res2b (in-place)
I1227 14:39:47.907712 65393 net.cpp:122] Setting up res2b_relu
I1227 14:39:47.907722 65393 net.cpp:129] Top shape: 50 64 56 56 (10035200)
I1227 14:39:47.907732 65393 net.cpp:137] Memory required for data: 1716020000
I1227 14:39:47.907739 65393 layer_factory.hpp:77] Creating layer res2b_res2b_relu_0_split
I1227 14:39:47.907750 65393 net.cpp:84] Creating Layer res2b_res2b_relu_0_split
I1227 14:39:47.907759 65393 net.cpp:406] res2b_res2b_relu_0_split <- res2b
I1227 14:39:47.907770 65393 net.cpp:380] res2b_res2b_relu_0_split -> res2b_res2b_relu_0_split_0
I1227 14:39:47.907783 65393 net.cpp:380] res2b_res2b_relu_0_split -> res2b_res2b_relu_0_split_1
I1227 14:39:47.907822 65393 net.cpp:122] Setting up res2b_res2b_relu_0_split
I1227 14:39:47.907836 65393 net.cpp:129] Top shape: 50 64 56 56 (10035200)
I1227 14:39:47.907846 65393 net.cpp:129] Top shape: 50 64 56 56 (10035200)
I1227 14:39:47.907855 65393 net.cpp:137] Memory required for data: 1796301600
I1227 14:39:47.907886 65393 layer_factory.hpp:77] Creating layer res3a_branch1
I1227 14:39:47.907902 65393 net.cpp:84] Creating Layer res3a_branch1
I1227 14:39:47.907912 65393 net.cpp:406] res3a_branch1 <- res2b_res2b_relu_0_split_0
I1227 14:39:47.907924 65393 net.cpp:380] res3a_branch1 -> res3a_branch1
I1227 14:39:47.908329 65393 net.cpp:122] Setting up res3a_branch1
I1227 14:39:47.908347 65393 net.cpp:129] Top shape: 50 128 28 28 (5017600)
I1227 14:39:47.908355 65393 net.cpp:137] Memory required for data: 1816372000
I1227 14:39:47.908366 65393 layer_factory.hpp:77] Creating layer bn3a_branch1
I1227 14:39:47.908382 65393 net.cpp:84] Creating Layer bn3a_branch1
I1227 14:39:47.908392 65393 net.cpp:406] bn3a_branch1 <- res3a_branch1
I1227 14:39:47.908403 65393 net.cpp:367] bn3a_branch1 -> res3a_branch1 (in-place)
I1227 14:39:47.909893 65393 net.cpp:122] Setting up bn3a_branch1
I1227 14:39:47.909926 65393 net.cpp:129] Top shape: 50 128 28 28 (5017600)
I1227 14:39:47.909936 65393 net.cpp:137] Memory required for data: 1836442400
I1227 14:39:47.909955 65393 layer_factory.hpp:77] Creating layer scale3a_branch1
I1227 14:39:47.909973 65393 net.cpp:84] Creating Layer scale3a_branch1
I1227 14:39:47.909984 65393 net.cpp:406] scale3a_branch1 <- res3a_branch1
I1227 14:39:47.909998 65393 net.cpp:367] scale3a_branch1 -> res3a_branch1 (in-place)
I1227 14:39:47.910055 65393 layer_factory.hpp:77] Creating layer scale3a_branch1
I1227 14:39:47.910167 65393 net.cpp:122] Setting up scale3a_branch1
I1227 14:39:47.910184 65393 net.cpp:129] Top shape: 50 128 28 28 (5017600)
I1227 14:39:47.910193 65393 net.cpp:137] Memory required for data: 1856512800
I1227 14:39:47.910204 65393 layer_factory.hpp:77] Creating layer res3a_branch2a
I1227 14:39:47.910223 65393 net.cpp:84] Creating Layer res3a_branch2a
I1227 14:39:47.910233 65393 net.cpp:406] res3a_branch2a <- res2b_res2b_relu_0_split_1
I1227 14:39:47.910244 65393 net.cpp:380] res3a_branch2a -> res3a_branch2a
I1227 14:39:47.912598 65393 net.cpp:122] Setting up res3a_branch2a
I1227 14:39:47.912634 65393 net.cpp:129] Top shape: 50 128 28 28 (5017600)
I1227 14:39:47.912643 65393 net.cpp:137] Memory required for data: 1876583200
I1227 14:39:47.912655 65393 layer_factory.hpp:77] Creating layer bn3a_branch2a
I1227 14:39:47.912672 65393 net.cpp:84] Creating Layer bn3a_branch2a
I1227 14:39:47.912683 65393 net.cpp:406] bn3a_branch2a <- res3a_branch2a
I1227 14:39:47.912695 65393 net.cpp:367] bn3a_branch2a -> res3a_branch2a (in-place)
I1227 14:39:47.912878 65393 net.cpp:122] Setting up bn3a_branch2a
I1227 14:39:47.912895 65393 net.cpp:129] Top shape: 50 128 28 28 (5017600)
I1227 14:39:47.912904 65393 net.cpp:137] Memory required for data: 1896653600
I1227 14:39:47.912916 65393 layer_factory.hpp:77] Creating layer scale3a_branch2a
I1227 14:39:47.912930 65393 net.cpp:84] Creating Layer scale3a_branch2a
I1227 14:39:47.912940 65393 net.cpp:406] scale3a_branch2a <- res3a_branch2a
I1227 14:39:47.912951 65393 net.cpp:367] scale3a_branch2a -> res3a_branch2a (in-place)
I1227 14:39:47.912999 65393 layer_factory.hpp:77] Creating layer scale3a_branch2a
I1227 14:39:47.913110 65393 net.cpp:122] Setting up scale3a_branch2a
I1227 14:39:47.913127 65393 net.cpp:129] Top shape: 50 128 28 28 (5017600)
I1227 14:39:47.913136 65393 net.cpp:137] Memory required for data: 1916724000
I1227 14:39:47.913147 65393 layer_factory.hpp:77] Creating layer res3a_branch2a_relu
I1227 14:39:47.913161 65393 net.cpp:84] Creating Layer res3a_branch2a_relu
I1227 14:39:47.913169 65393 net.cpp:406] res3a_branch2a_relu <- res3a_branch2a
I1227 14:39:47.913180 65393 net.cpp:367] res3a_branch2a_relu -> res3a_branch2a (in-place)
I1227 14:39:47.913192 65393 net.cpp:122] Setting up res3a_branch2a_relu
I1227 14:39:47.913203 65393 net.cpp:129] Top shape: 50 128 28 28 (5017600)
I1227 14:39:47.913211 65393 net.cpp:137] Memory required for data: 1936794400
I1227 14:39:47.913219 65393 layer_factory.hpp:77] Creating layer res3a_branch2b
I1227 14:39:47.913235 65393 net.cpp:84] Creating Layer res3a_branch2b
I1227 14:39:47.913244 65393 net.cpp:406] res3a_branch2b <- res3a_branch2a
I1227 14:39:47.913297 65393 net.cpp:380] res3a_branch2b -> res3a_branch2b
I1227 14:39:47.917786 65393 net.cpp:122] Setting up res3a_branch2b
I1227 14:39:47.917837 65393 net.cpp:129] Top shape: 50 128 28 28 (5017600)
I1227 14:39:47.917847 65393 net.cpp:137] Memory required for data: 1956864800
I1227 14:39:47.917861 65393 layer_factory.hpp:77] Creating layer bn3a_branch2b
I1227 14:39:47.917879 65393 net.cpp:84] Creating Layer bn3a_branch2b
I1227 14:39:47.917891 65393 net.cpp:406] bn3a_branch2b <- res3a_branch2b
I1227 14:39:47.917904 65393 net.cpp:367] bn3a_branch2b -> res3a_branch2b (in-place)
I1227 14:39:47.918104 65393 net.cpp:122] Setting up bn3a_branch2b
I1227 14:39:47.918121 65393 net.cpp:129] Top shape: 50 128 28 28 (5017600)
I1227 14:39:47.918129 65393 net.cpp:137] Memory required for data: 1976935200
I1227 14:39:47.918143 65393 layer_factory.hpp:77] Creating layer scale3a_branch2b
I1227 14:39:47.918159 65393 net.cpp:84] Creating Layer scale3a_branch2b
I1227 14:39:47.918169 65393 net.cpp:406] scale3a_branch2b <- res3a_branch2b
I1227 14:39:47.918180 65393 net.cpp:367] scale3a_branch2b -> res3a_branch2b (in-place)
I1227 14:39:47.918236 65393 layer_factory.hpp:77] Creating layer scale3a_branch2b
I1227 14:39:47.918362 65393 net.cpp:122] Setting up scale3a_branch2b
I1227 14:39:47.918380 65393 net.cpp:129] Top shape: 50 128 28 28 (5017600)
I1227 14:39:47.918387 65393 net.cpp:137] Memory required for data: 1997005600
I1227 14:39:47.918400 65393 layer_factory.hpp:77] Creating layer res3a
I1227 14:39:47.918414 65393 net.cpp:84] Creating Layer res3a
I1227 14:39:47.918424 65393 net.cpp:406] res3a <- res3a_branch1
I1227 14:39:47.918434 65393 net.cpp:406] res3a <- res3a_branch2b
I1227 14:39:47.918445 65393 net.cpp:380] res3a -> res3a
I1227 14:39:47.918481 65393 net.cpp:122] Setting up res3a
I1227 14:39:47.918496 65393 net.cpp:129] Top shape: 50 128 28 28 (5017600)
I1227 14:39:47.918504 65393 net.cpp:137] Memory required for data: 2017076000
I1227 14:39:47.918514 65393 layer_factory.hpp:77] Creating layer res3a_relu
I1227 14:39:47.918525 65393 net.cpp:84] Creating Layer res3a_relu
I1227 14:39:47.918534 65393 net.cpp:406] res3a_relu <- res3a
I1227 14:39:47.918547 65393 net.cpp:367] res3a_relu -> res3a (in-place)
I1227 14:39:47.918560 65393 net.cpp:122] Setting up res3a_relu
I1227 14:39:47.918570 65393 net.cpp:129] Top shape: 50 128 28 28 (5017600)
I1227 14:39:47.918577 65393 net.cpp:137] Memory required for data: 2037146400
I1227 14:39:47.918586 65393 layer_factory.hpp:77] Creating layer res3a_res3a_relu_0_split
I1227 14:39:47.918597 65393 net.cpp:84] Creating Layer res3a_res3a_relu_0_split
I1227 14:39:47.918606 65393 net.cpp:406] res3a_res3a_relu_0_split <- res3a
I1227 14:39:47.918615 65393 net.cpp:380] res3a_res3a_relu_0_split -> res3a_res3a_relu_0_split_0
I1227 14:39:47.918627 65393 net.cpp:380] res3a_res3a_relu_0_split -> res3a_res3a_relu_0_split_1
I1227 14:39:47.918669 65393 net.cpp:122] Setting up res3a_res3a_relu_0_split
I1227 14:39:47.918684 65393 net.cpp:129] Top shape: 50 128 28 28 (5017600)
I1227 14:39:47.918694 65393 net.cpp:129] Top shape: 50 128 28 28 (5017600)
I1227 14:39:47.918704 65393 net.cpp:137] Memory required for data: 2077287200
I1227 14:39:47.918712 65393 layer_factory.hpp:77] Creating layer res3b_branch2a
I1227 14:39:47.918730 65393 net.cpp:84] Creating Layer res3b_branch2a
I1227 14:39:47.918740 65393 net.cpp:406] res3b_branch2a <- res3a_res3a_relu_0_split_0
I1227 14:39:47.918751 65393 net.cpp:380] res3b_branch2a -> res3b_branch2a
I1227 14:39:47.924548 65393 net.cpp:122] Setting up res3b_branch2a
I1227 14:39:47.924597 65393 net.cpp:129] Top shape: 50 128 28 28 (5017600)
I1227 14:39:47.924607 65393 net.cpp:137] Memory required for data: 2097357600
I1227 14:39:47.924621 65393 layer_factory.hpp:77] Creating layer bn3b_branch2a
I1227 14:39:47.924640 65393 net.cpp:84] Creating Layer bn3b_branch2a
I1227 14:39:47.924652 65393 net.cpp:406] bn3b_branch2a <- res3b_branch2a
I1227 14:39:47.924666 65393 net.cpp:367] bn3b_branch2a -> res3b_branch2a (in-place)
I1227 14:39:47.924906 65393 net.cpp:122] Setting up bn3b_branch2a
I1227 14:39:47.924922 65393 net.cpp:129] Top shape: 50 128 28 28 (5017600)
I1227 14:39:47.924932 65393 net.cpp:137] Memory required for data: 2117428000
I1227 14:39:47.924944 65393 layer_factory.hpp:77] Creating layer scale3b_branch2a
I1227 14:39:47.924962 65393 net.cpp:84] Creating Layer scale3b_branch2a
I1227 14:39:47.924971 65393 net.cpp:406] scale3b_branch2a <- res3b_branch2a
I1227 14:39:47.924983 65393 net.cpp:367] scale3b_branch2a -> res3b_branch2a (in-place)
I1227 14:39:47.925037 65393 layer_factory.hpp:77] Creating layer scale3b_branch2a
I1227 14:39:47.925156 65393 net.cpp:122] Setting up scale3b_branch2a
I1227 14:39:47.925173 65393 net.cpp:129] Top shape: 50 128 28 28 (5017600)
I1227 14:39:47.925181 65393 net.cpp:137] Memory required for data: 2137498400
I1227 14:39:47.925194 65393 layer_factory.hpp:77] Creating layer res3b_branch2a_relu
I1227 14:39:47.925209 65393 net.cpp:84] Creating Layer res3b_branch2a_relu
I1227 14:39:47.925217 65393 net.cpp:406] res3b_branch2a_relu <- res3b_branch2a
I1227 14:39:47.925227 65393 net.cpp:367] res3b_branch2a_relu -> res3b_branch2a (in-place)
I1227 14:39:47.925240 65393 net.cpp:122] Setting up res3b_branch2a_relu
I1227 14:39:47.925249 65393 net.cpp:129] Top shape: 50 128 28 28 (5017600)
I1227 14:39:47.925257 65393 net.cpp:137] Memory required for data: 2157568800
I1227 14:39:47.925266 65393 layer_factory.hpp:77] Creating layer res3b_branch2b
I1227 14:39:47.925285 65393 net.cpp:84] Creating Layer res3b_branch2b
I1227 14:39:47.925294 65393 net.cpp:406] res3b_branch2b <- res3b_branch2a
I1227 14:39:47.925307 65393 net.cpp:380] res3b_branch2b -> res3b_branch2b
I1227 14:39:47.933416 65393 net.cpp:122] Setting up res3b_branch2b
I1227 14:39:47.933442 65393 net.cpp:129] Top shape: 50 128 28 28 (5017600)
I1227 14:39:47.933452 65393 net.cpp:137] Memory required for data: 2177639200
I1227 14:39:47.933465 65393 layer_factory.hpp:77] Creating layer bn3b_branch2b
I1227 14:39:47.933478 65393 net.cpp:84] Creating Layer bn3b_branch2b
I1227 14:39:47.933490 65393 net.cpp:406] bn3b_branch2b <- res3b_branch2b
I1227 14:39:47.933504 65393 net.cpp:367] bn3b_branch2b -> res3b_branch2b (in-place)
I1227 14:39:47.933696 65393 net.cpp:122] Setting up bn3b_branch2b
I1227 14:39:47.933712 65393 net.cpp:129] Top shape: 50 128 28 28 (5017600)
I1227 14:39:47.933720 65393 net.cpp:137] Memory required for data: 2197709600
I1227 14:39:47.933743 65393 layer_factory.hpp:77] Creating layer scale3b_branch2b
I1227 14:39:47.933756 65393 net.cpp:84] Creating Layer scale3b_branch2b
I1227 14:39:47.933766 65393 net.cpp:406] scale3b_branch2b <- res3b_branch2b
I1227 14:39:47.933776 65393 net.cpp:367] scale3b_branch2b -> res3b_branch2b (in-place)
I1227 14:39:47.933825 65393 layer_factory.hpp:77] Creating layer scale3b_branch2b
I1227 14:39:47.933940 65393 net.cpp:122] Setting up scale3b_branch2b
I1227 14:39:47.933957 65393 net.cpp:129] Top shape: 50 128 28 28 (5017600)
I1227 14:39:47.933966 65393 net.cpp:137] Memory required for data: 2217780000
I1227 14:39:47.933992 65393 layer_factory.hpp:77] Creating layer res3b
I1227 14:39:47.934010 65393 net.cpp:84] Creating Layer res3b
I1227 14:39:47.934020 65393 net.cpp:406] res3b <- res3a_res3a_relu_0_split_1
I1227 14:39:47.934029 65393 net.cpp:406] res3b <- res3b_branch2b
I1227 14:39:47.934039 65393 net.cpp:380] res3b -> res3b
I1227 14:39:47.934072 65393 net.cpp:122] Setting up res3b
I1227 14:39:47.934087 65393 net.cpp:129] Top shape: 50 128 28 28 (5017600)
I1227 14:39:47.934095 65393 net.cpp:137] Memory required for data: 2237850400
I1227 14:39:47.934103 65393 layer_factory.hpp:77] Creating layer res3b_relu
I1227 14:39:47.934118 65393 net.cpp:84] Creating Layer res3b_relu
I1227 14:39:47.934126 65393 net.cpp:406] res3b_relu <- res3b
I1227 14:39:47.934136 65393 net.cpp:367] res3b_relu -> res3b (in-place)
I1227 14:39:47.934149 65393 net.cpp:122] Setting up res3b_relu
I1227 14:39:47.934159 65393 net.cpp:129] Top shape: 50 128 28 28 (5017600)
I1227 14:39:47.934166 65393 net.cpp:137] Memory required for data: 2257920800
I1227 14:39:47.934175 65393 layer_factory.hpp:77] Creating layer res3b_res3b_relu_0_split
I1227 14:39:47.934207 65393 net.cpp:84] Creating Layer res3b_res3b_relu_0_split
I1227 14:39:47.934217 65393 net.cpp:406] res3b_res3b_relu_0_split <- res3b
I1227 14:39:47.934227 65393 net.cpp:380] res3b_res3b_relu_0_split -> res3b_res3b_relu_0_split_0
I1227 14:39:47.934239 65393 net.cpp:380] res3b_res3b_relu_0_split -> res3b_res3b_relu_0_split_1
I1227 14:39:47.934283 65393 net.cpp:122] Setting up res3b_res3b_relu_0_split
I1227 14:39:47.934298 65393 net.cpp:129] Top shape: 50 128 28 28 (5017600)
I1227 14:39:47.934307 65393 net.cpp:129] Top shape: 50 128 28 28 (5017600)
I1227 14:39:47.934315 65393 net.cpp:137] Memory required for data: 2298061600
I1227 14:39:47.934324 65393 layer_factory.hpp:77] Creating layer res4a_branch1
I1227 14:39:47.934340 65393 net.cpp:84] Creating Layer res4a_branch1
I1227 14:39:47.934348 65393 net.cpp:406] res4a_branch1 <- res3b_res3b_relu_0_split_0
I1227 14:39:47.934362 65393 net.cpp:380] res4a_branch1 -> res4a_branch1
I1227 14:39:47.935482 65393 net.cpp:122] Setting up res4a_branch1
I1227 14:39:47.935501 65393 net.cpp:129] Top shape: 50 256 14 14 (2508800)
I1227 14:39:47.935509 65393 net.cpp:137] Memory required for data: 2308096800
I1227 14:39:47.935519 65393 layer_factory.hpp:77] Creating layer bn4a_branch1
I1227 14:39:47.935534 65393 net.cpp:84] Creating Layer bn4a_branch1
I1227 14:39:47.935544 65393 net.cpp:406] bn4a_branch1 <- res4a_branch1
I1227 14:39:47.935554 65393 net.cpp:367] bn4a_branch1 -> res4a_branch1 (in-place)
I1227 14:39:47.935732 65393 net.cpp:122] Setting up bn4a_branch1
I1227 14:39:47.935750 65393 net.cpp:129] Top shape: 50 256 14 14 (2508800)
I1227 14:39:47.935757 65393 net.cpp:137] Memory required for data: 2318132000
I1227 14:39:47.935770 65393 layer_factory.hpp:77] Creating layer scale4a_branch1
I1227 14:39:47.935782 65393 net.cpp:84] Creating Layer scale4a_branch1
I1227 14:39:47.935791 65393 net.cpp:406] scale4a_branch1 <- res4a_branch1
I1227 14:39:47.935801 65393 net.cpp:367] scale4a_branch1 -> res4a_branch1 (in-place)
I1227 14:39:47.935845 65393 layer_factory.hpp:77] Creating layer scale4a_branch1
I1227 14:39:47.935955 65393 net.cpp:122] Setting up scale4a_branch1
I1227 14:39:47.935971 65393 net.cpp:129] Top shape: 50 256 14 14 (2508800)
I1227 14:39:47.935981 65393 net.cpp:137] Memory required for data: 2328167200
I1227 14:39:47.935992 65393 layer_factory.hpp:77] Creating layer res4a_branch2a
I1227 14:39:47.936008 65393 net.cpp:84] Creating Layer res4a_branch2a
I1227 14:39:47.936018 65393 net.cpp:406] res4a_branch2a <- res3b_res3b_relu_0_split_1
I1227 14:39:47.936029 65393 net.cpp:380] res4a_branch2a -> res4a_branch2a
I1227 14:39:47.950101 65393 net.cpp:122] Setting up res4a_branch2a
I1227 14:39:47.950151 65393 net.cpp:129] Top shape: 50 256 14 14 (2508800)
I1227 14:39:47.950160 65393 net.cpp:137] Memory required for data: 2338202400
I1227 14:39:47.950176 65393 layer_factory.hpp:77] Creating layer bn4a_branch2a
I1227 14:39:47.950193 65393 net.cpp:84] Creating Layer bn4a_branch2a
I1227 14:39:47.950206 65393 net.cpp:406] bn4a_branch2a <- res4a_branch2a
I1227 14:39:47.950218 65393 net.cpp:367] bn4a_branch2a -> res4a_branch2a (in-place)
I1227 14:39:47.950419 65393 net.cpp:122] Setting up bn4a_branch2a
I1227 14:39:47.950435 65393 net.cpp:129] Top shape: 50 256 14 14 (2508800)
I1227 14:39:47.950444 65393 net.cpp:137] Memory required for data: 2348237600
I1227 14:39:47.950458 65393 layer_factory.hpp:77] Creating layer scale4a_branch2a
I1227 14:39:47.950470 65393 net.cpp:84] Creating Layer scale4a_branch2a
I1227 14:39:47.950480 65393 net.cpp:406] scale4a_branch2a <- res4a_branch2a
I1227 14:39:47.950490 65393 net.cpp:367] scale4a_branch2a -> res4a_branch2a (in-place)
I1227 14:39:47.950548 65393 layer_factory.hpp:77] Creating layer scale4a_branch2a
I1227 14:39:47.950670 65393 net.cpp:122] Setting up scale4a_branch2a
I1227 14:39:47.950686 65393 net.cpp:129] Top shape: 50 256 14 14 (2508800)
I1227 14:39:47.950695 65393 net.cpp:137] Memory required for data: 2358272800
I1227 14:39:47.950706 65393 layer_factory.hpp:77] Creating layer res4a_branch2a_relu
I1227 14:39:47.950759 65393 net.cpp:84] Creating Layer res4a_branch2a_relu
I1227 14:39:47.950770 65393 net.cpp:406] res4a_branch2a_relu <- res4a_branch2a
I1227 14:39:47.950780 65393 net.cpp:367] res4a_branch2a_relu -> res4a_branch2a (in-place)
I1227 14:39:47.950791 65393 net.cpp:122] Setting up res4a_branch2a_relu
I1227 14:39:47.950801 65393 net.cpp:129] Top shape: 50 256 14 14 (2508800)
I1227 14:39:47.950809 65393 net.cpp:137] Memory required for data: 2368308000
I1227 14:39:47.950817 65393 layer_factory.hpp:77] Creating layer res4a_branch2b
I1227 14:39:47.950835 65393 net.cpp:84] Creating Layer res4a_branch2b
I1227 14:39:47.950845 65393 net.cpp:406] res4a_branch2b <- res4a_branch2a
I1227 14:39:47.950858 65393 net.cpp:380] res4a_branch2b -> res4a_branch2b
I1227 14:39:47.970940 65393 net.cpp:122] Setting up res4a_branch2b
I1227 14:39:47.970993 65393 net.cpp:129] Top shape: 50 256 14 14 (2508800)
I1227 14:39:47.971004 65393 net.cpp:137] Memory required for data: 2378343200
I1227 14:39:47.971016 65393 layer_factory.hpp:77] Creating layer bn4a_branch2b
I1227 14:39:47.971035 65393 net.cpp:84] Creating Layer bn4a_branch2b
I1227 14:39:47.971048 65393 net.cpp:406] bn4a_branch2b <- res4a_branch2b
I1227 14:39:47.971062 65393 net.cpp:367] bn4a_branch2b -> res4a_branch2b (in-place)
I1227 14:39:47.971271 65393 net.cpp:122] Setting up bn4a_branch2b
I1227 14:39:47.971288 65393 net.cpp:129] Top shape: 50 256 14 14 (2508800)
I1227 14:39:47.971321 65393 net.cpp:137] Memory required for data: 2388378400
I1227 14:39:47.971339 65393 layer_factory.hpp:77] Creating layer scale4a_branch2b
I1227 14:39:47.971354 65393 net.cpp:84] Creating Layer scale4a_branch2b
I1227 14:39:47.971364 65393 net.cpp:406] scale4a_branch2b <- res4a_branch2b
I1227 14:39:47.971374 65393 net.cpp:367] scale4a_branch2b -> res4a_branch2b (in-place)
I1227 14:39:47.971438 65393 layer_factory.hpp:77] Creating layer scale4a_branch2b
I1227 14:39:47.971559 65393 net.cpp:122] Setting up scale4a_branch2b
I1227 14:39:47.971575 65393 net.cpp:129] Top shape: 50 256 14 14 (2508800)
I1227 14:39:47.971583 65393 net.cpp:137] Memory required for data: 2398413600
I1227 14:39:47.971596 65393 layer_factory.hpp:77] Creating layer res4a
I1227 14:39:47.971621 65393 net.cpp:84] Creating Layer res4a
I1227 14:39:47.971631 65393 net.cpp:406] res4a <- res4a_branch1
I1227 14:39:47.971640 65393 net.cpp:406] res4a <- res4a_branch2b
I1227 14:39:47.971650 65393 net.cpp:380] res4a -> res4a
I1227 14:39:47.971684 65393 net.cpp:122] Setting up res4a
I1227 14:39:47.971699 65393 net.cpp:129] Top shape: 50 256 14 14 (2508800)
I1227 14:39:47.971707 65393 net.cpp:137] Memory required for data: 2408448800
I1227 14:39:47.971716 65393 layer_factory.hpp:77] Creating layer res4a_relu
I1227 14:39:47.971730 65393 net.cpp:84] Creating Layer res4a_relu
I1227 14:39:47.971740 65393 net.cpp:406] res4a_relu <- res4a
I1227 14:39:47.971750 65393 net.cpp:367] res4a_relu -> res4a (in-place)
I1227 14:39:47.971761 65393 net.cpp:122] Setting up res4a_relu
I1227 14:39:47.971771 65393 net.cpp:129] Top shape: 50 256 14 14 (2508800)
I1227 14:39:47.971779 65393 net.cpp:137] Memory required for data: 2418484000
I1227 14:39:47.971787 65393 layer_factory.hpp:77] Creating layer res4a_res4a_relu_0_split
I1227 14:39:47.971799 65393 net.cpp:84] Creating Layer res4a_res4a_relu_0_split
I1227 14:39:47.971807 65393 net.cpp:406] res4a_res4a_relu_0_split <- res4a
I1227 14:39:47.971817 65393 net.cpp:380] res4a_res4a_relu_0_split -> res4a_res4a_relu_0_split_0
I1227 14:39:47.971828 65393 net.cpp:380] res4a_res4a_relu_0_split -> res4a_res4a_relu_0_split_1
I1227 14:39:47.971873 65393 net.cpp:122] Setting up res4a_res4a_relu_0_split
I1227 14:39:47.971887 65393 net.cpp:129] Top shape: 50 256 14 14 (2508800)
I1227 14:39:47.971896 65393 net.cpp:129] Top shape: 50 256 14 14 (2508800)
I1227 14:39:47.971904 65393 net.cpp:137] Memory required for data: 2438554400
I1227 14:39:47.971913 65393 layer_factory.hpp:77] Creating layer res4b_branch2a
I1227 14:39:47.971931 65393 net.cpp:84] Creating Layer res4b_branch2a
I1227 14:39:47.971987 65393 net.cpp:406] res4b_branch2a <- res4a_res4a_relu_0_split_0
I1227 14:39:47.972000 65393 net.cpp:380] res4b_branch2a -> res4b_branch2a
I1227 14:39:47.990305 65393 net.cpp:122] Setting up res4b_branch2a
I1227 14:39:47.990362 65393 net.cpp:129] Top shape: 50 256 14 14 (2508800)
I1227 14:39:47.990372 65393 net.cpp:137] Memory required for data: 2448589600
I1227 14:39:47.990386 65393 layer_factory.hpp:77] Creating layer bn4b_branch2a
I1227 14:39:47.990406 65393 net.cpp:84] Creating Layer bn4b_branch2a
I1227 14:39:47.990417 65393 net.cpp:406] bn4b_branch2a <- res4b_branch2a
I1227 14:39:47.990434 65393 net.cpp:367] bn4b_branch2a -> res4b_branch2a (in-place)
I1227 14:39:47.990639 65393 net.cpp:122] Setting up bn4b_branch2a
I1227 14:39:47.990655 65393 net.cpp:129] Top shape: 50 256 14 14 (2508800)
I1227 14:39:47.990664 65393 net.cpp:137] Memory required for data: 2458624800
I1227 14:39:47.990677 65393 layer_factory.hpp:77] Creating layer scale4b_branch2a
I1227 14:39:47.990690 65393 net.cpp:84] Creating Layer scale4b_branch2a
I1227 14:39:47.990700 65393 net.cpp:406] scale4b_branch2a <- res4b_branch2a
I1227 14:39:47.990710 65393 net.cpp:367] scale4b_branch2a -> res4b_branch2a (in-place)
I1227 14:39:47.990768 65393 layer_factory.hpp:77] Creating layer scale4b_branch2a
I1227 14:39:47.990892 65393 net.cpp:122] Setting up scale4b_branch2a
I1227 14:39:47.990911 65393 net.cpp:129] Top shape: 50 256 14 14 (2508800)
I1227 14:39:47.990918 65393 net.cpp:137] Memory required for data: 2468660000
I1227 14:39:47.990929 65393 layer_factory.hpp:77] Creating layer res4b_branch2a_relu
I1227 14:39:47.990942 65393 net.cpp:84] Creating Layer res4b_branch2a_relu
I1227 14:39:47.990952 65393 net.cpp:406] res4b_branch2a_relu <- res4b_branch2a
I1227 14:39:47.990973 65393 net.cpp:367] res4b_branch2a_relu -> res4b_branch2a (in-place)
I1227 14:39:47.990986 65393 net.cpp:122] Setting up res4b_branch2a_relu
I1227 14:39:47.990998 65393 net.cpp:129] Top shape: 50 256 14 14 (2508800)
I1227 14:39:47.991005 65393 net.cpp:137] Memory required for data: 2478695200
I1227 14:39:47.991015 65393 layer_factory.hpp:77] Creating layer res4b_branch2b
I1227 14:39:47.991031 65393 net.cpp:84] Creating Layer res4b_branch2b
I1227 14:39:47.991040 65393 net.cpp:406] res4b_branch2b <- res4b_branch2a
I1227 14:39:47.991053 65393 net.cpp:380] res4b_branch2b -> res4b_branch2b
I1227 14:39:48.009338 65393 net.cpp:122] Setting up res4b_branch2b
I1227 14:39:48.009385 65393 net.cpp:129] Top shape: 50 256 14 14 (2508800)
I1227 14:39:48.009395 65393 net.cpp:137] Memory required for data: 2488730400
I1227 14:39:48.009407 65393 layer_factory.hpp:77] Creating layer bn4b_branch2b
I1227 14:39:48.009424 65393 net.cpp:84] Creating Layer bn4b_branch2b
I1227 14:39:48.009435 65393 net.cpp:406] bn4b_branch2b <- res4b_branch2b
I1227 14:39:48.009457 65393 net.cpp:367] bn4b_branch2b -> res4b_branch2b (in-place)
I1227 14:39:48.009656 65393 net.cpp:122] Setting up bn4b_branch2b
I1227 14:39:48.009673 65393 net.cpp:129] Top shape: 50 256 14 14 (2508800)
I1227 14:39:48.009682 65393 net.cpp:137] Memory required for data: 2498765600
I1227 14:39:48.009696 65393 layer_factory.hpp:77] Creating layer scale4b_branch2b
I1227 14:39:48.009708 65393 net.cpp:84] Creating Layer scale4b_branch2b
I1227 14:39:48.009717 65393 net.cpp:406] scale4b_branch2b <- res4b_branch2b
I1227 14:39:48.009728 65393 net.cpp:367] scale4b_branch2b -> res4b_branch2b (in-place)
I1227 14:39:48.009784 65393 layer_factory.hpp:77] Creating layer scale4b_branch2b
I1227 14:39:48.009907 65393 net.cpp:122] Setting up scale4b_branch2b
I1227 14:39:48.009922 65393 net.cpp:129] Top shape: 50 256 14 14 (2508800)
I1227 14:39:48.009932 65393 net.cpp:137] Memory required for data: 2508800800
I1227 14:39:48.009943 65393 layer_factory.hpp:77] Creating layer res4b
I1227 14:39:48.009956 65393 net.cpp:84] Creating Layer res4b
I1227 14:39:48.009965 65393 net.cpp:406] res4b <- res4a_res4a_relu_0_split_1
I1227 14:39:48.009975 65393 net.cpp:406] res4b <- res4b_branch2b
I1227 14:39:48.009989 65393 net.cpp:380] res4b -> res4b
I1227 14:39:48.010022 65393 net.cpp:122] Setting up res4b
I1227 14:39:48.010068 65393 net.cpp:129] Top shape: 50 256 14 14 (2508800)
I1227 14:39:48.010077 65393 net.cpp:137] Memory required for data: 2518836000
I1227 14:39:48.010087 65393 layer_factory.hpp:77] Creating layer res4b_relu
I1227 14:39:48.010100 65393 net.cpp:84] Creating Layer res4b_relu
I1227 14:39:48.010109 65393 net.cpp:406] res4b_relu <- res4b
I1227 14:39:48.010120 65393 net.cpp:367] res4b_relu -> res4b (in-place)
I1227 14:39:48.010131 65393 net.cpp:122] Setting up res4b_relu
I1227 14:39:48.010143 65393 net.cpp:129] Top shape: 50 256 14 14 (2508800)
I1227 14:39:48.010150 65393 net.cpp:137] Memory required for data: 2528871200
I1227 14:39:48.010159 65393 layer_factory.hpp:77] Creating layer res4b_res4b_relu_0_split
I1227 14:39:48.010169 65393 net.cpp:84] Creating Layer res4b_res4b_relu_0_split
I1227 14:39:48.010180 65393 net.cpp:406] res4b_res4b_relu_0_split <- res4b
I1227 14:39:48.010193 65393 net.cpp:380] res4b_res4b_relu_0_split -> res4b_res4b_relu_0_split_0
I1227 14:39:48.010205 65393 net.cpp:380] res4b_res4b_relu_0_split -> res4b_res4b_relu_0_split_1
I1227 14:39:48.010251 65393 net.cpp:122] Setting up res4b_res4b_relu_0_split
I1227 14:39:48.010265 65393 net.cpp:129] Top shape: 50 256 14 14 (2508800)
I1227 14:39:48.010275 65393 net.cpp:129] Top shape: 50 256 14 14 (2508800)
I1227 14:39:48.010283 65393 net.cpp:137] Memory required for data: 2548941600
I1227 14:39:48.010291 65393 layer_factory.hpp:77] Creating layer res5a_branch1
I1227 14:39:48.010306 65393 net.cpp:84] Creating Layer res5a_branch1
I1227 14:39:48.010316 65393 net.cpp:406] res5a_branch1 <- res4b_res4b_relu_0_split_0
I1227 14:39:48.010329 65393 net.cpp:380] res5a_branch1 -> res5a_branch1
I1227 14:39:48.014279 65393 net.cpp:122] Setting up res5a_branch1
I1227 14:39:48.014309 65393 net.cpp:129] Top shape: 50 512 7 7 (1254400)
I1227 14:39:48.014318 65393 net.cpp:137] Memory required for data: 2553959200
I1227 14:39:48.014330 65393 layer_factory.hpp:77] Creating layer bn5a_branch1
I1227 14:39:48.014348 65393 net.cpp:84] Creating Layer bn5a_branch1
I1227 14:39:48.014358 65393 net.cpp:406] bn5a_branch1 <- res5a_branch1
I1227 14:39:48.014369 65393 net.cpp:367] bn5a_branch1 -> res5a_branch1 (in-place)
I1227 14:39:48.014566 65393 net.cpp:122] Setting up bn5a_branch1
I1227 14:39:48.014583 65393 net.cpp:129] Top shape: 50 512 7 7 (1254400)
I1227 14:39:48.014591 65393 net.cpp:137] Memory required for data: 2558976800
I1227 14:39:48.014605 65393 layer_factory.hpp:77] Creating layer scale5a_branch1
I1227 14:39:48.014618 65393 net.cpp:84] Creating Layer scale5a_branch1
I1227 14:39:48.014628 65393 net.cpp:406] scale5a_branch1 <- res5a_branch1
I1227 14:39:48.014638 65393 net.cpp:367] scale5a_branch1 -> res5a_branch1 (in-place)
I1227 14:39:48.014683 65393 layer_factory.hpp:77] Creating layer scale5a_branch1
I1227 14:39:48.014809 65393 net.cpp:122] Setting up scale5a_branch1
I1227 14:39:48.014827 65393 net.cpp:129] Top shape: 50 512 7 7 (1254400)
I1227 14:39:48.014835 65393 net.cpp:137] Memory required for data: 2563994400
I1227 14:39:48.014847 65393 layer_factory.hpp:77] Creating layer res5a_branch2a
I1227 14:39:48.014864 65393 net.cpp:84] Creating Layer res5a_branch2a
I1227 14:39:48.014874 65393 net.cpp:406] res5a_branch2a <- res4b_res4b_relu_0_split_1
I1227 14:39:48.014886 65393 net.cpp:380] res5a_branch2a -> res5a_branch2a
I1227 14:39:48.050895 65393 net.cpp:122] Setting up res5a_branch2a
I1227 14:39:48.050940 65393 net.cpp:129] Top shape: 50 512 7 7 (1254400)
I1227 14:39:48.050951 65393 net.cpp:137] Memory required for data: 2569012000
I1227 14:39:48.050969 65393 layer_factory.hpp:77] Creating layer bn5a_branch2a
I1227 14:39:48.050988 65393 net.cpp:84] Creating Layer bn5a_branch2a
I1227 14:39:48.051002 65393 net.cpp:406] bn5a_branch2a <- res5a_branch2a
I1227 14:39:48.051017 65393 net.cpp:367] bn5a_branch2a -> res5a_branch2a (in-place)
I1227 14:39:48.051230 65393 net.cpp:122] Setting up bn5a_branch2a
I1227 14:39:48.051246 65393 net.cpp:129] Top shape: 50 512 7 7 (1254400)
I1227 14:39:48.051255 65393 net.cpp:137] Memory required for data: 2574029600
I1227 14:39:48.051306 65393 layer_factory.hpp:77] Creating layer scale5a_branch2a
I1227 14:39:48.051321 65393 net.cpp:84] Creating Layer scale5a_branch2a
I1227 14:39:48.051331 65393 net.cpp:406] scale5a_branch2a <- res5a_branch2a
I1227 14:39:48.051342 65393 net.cpp:367] scale5a_branch2a -> res5a_branch2a (in-place)
I1227 14:39:48.051393 65393 layer_factory.hpp:77] Creating layer scale5a_branch2a
I1227 14:39:48.051518 65393 net.cpp:122] Setting up scale5a_branch2a
I1227 14:39:48.051534 65393 net.cpp:129] Top shape: 50 512 7 7 (1254400)
I1227 14:39:48.051543 65393 net.cpp:137] Memory required for data: 2579047200
I1227 14:39:48.051554 65393 layer_factory.hpp:77] Creating layer res5a_branch2a_relu
I1227 14:39:48.051568 65393 net.cpp:84] Creating Layer res5a_branch2a_relu
I1227 14:39:48.051576 65393 net.cpp:406] res5a_branch2a_relu <- res5a_branch2a
I1227 14:39:48.051589 65393 net.cpp:367] res5a_branch2a_relu -> res5a_branch2a (in-place)
I1227 14:39:48.051600 65393 net.cpp:122] Setting up res5a_branch2a_relu
I1227 14:39:48.051610 65393 net.cpp:129] Top shape: 50 512 7 7 (1254400)
I1227 14:39:48.051620 65393 net.cpp:137] Memory required for data: 2584064800
I1227 14:39:48.051627 65393 layer_factory.hpp:77] Creating layer res5a_branch2b
I1227 14:39:48.051642 65393 net.cpp:84] Creating Layer res5a_branch2b
I1227 14:39:48.051652 65393 net.cpp:406] res5a_branch2b <- res5a_branch2a
I1227 14:39:48.051664 65393 net.cpp:380] res5a_branch2b -> res5a_branch2b
I1227 14:39:48.122439 65393 net.cpp:122] Setting up res5a_branch2b
I1227 14:39:48.122491 65393 net.cpp:129] Top shape: 50 512 7 7 (1254400)
I1227 14:39:48.122501 65393 net.cpp:137] Memory required for data: 2589082400
I1227 14:39:48.122515 65393 layer_factory.hpp:77] Creating layer bn5a_branch2b
I1227 14:39:48.122534 65393 net.cpp:84] Creating Layer bn5a_branch2b
I1227 14:39:48.122546 65393 net.cpp:406] bn5a_branch2b <- res5a_branch2b
I1227 14:39:48.122561 65393 net.cpp:367] bn5a_branch2b -> res5a_branch2b (in-place)
I1227 14:39:48.122784 65393 net.cpp:122] Setting up bn5a_branch2b
I1227 14:39:48.122802 65393 net.cpp:129] Top shape: 50 512 7 7 (1254400)
I1227 14:39:48.122810 65393 net.cpp:137] Memory required for data: 2594100000
I1227 14:39:48.122823 65393 layer_factory.hpp:77] Creating layer scale5a_branch2b
I1227 14:39:48.122838 65393 net.cpp:84] Creating Layer scale5a_branch2b
I1227 14:39:48.122846 65393 net.cpp:406] scale5a_branch2b <- res5a_branch2b
I1227 14:39:48.122858 65393 net.cpp:367] scale5a_branch2b -> res5a_branch2b (in-place)
I1227 14:39:48.122910 65393 layer_factory.hpp:77] Creating layer scale5a_branch2b
I1227 14:39:48.123044 65393 net.cpp:122] Setting up scale5a_branch2b
I1227 14:39:48.123061 65393 net.cpp:129] Top shape: 50 512 7 7 (1254400)
I1227 14:39:48.123070 65393 net.cpp:137] Memory required for data: 2599117600
I1227 14:39:48.123080 65393 layer_factory.hpp:77] Creating layer res5a
I1227 14:39:48.123095 65393 net.cpp:84] Creating Layer res5a
I1227 14:39:48.123103 65393 net.cpp:406] res5a <- res5a_branch1
I1227 14:39:48.123113 65393 net.cpp:406] res5a <- res5a_branch2b
I1227 14:39:48.123126 65393 net.cpp:380] res5a -> res5a
I1227 14:39:48.123160 65393 net.cpp:122] Setting up res5a
I1227 14:39:48.123175 65393 net.cpp:129] Top shape: 50 512 7 7 (1254400)
I1227 14:39:48.123183 65393 net.cpp:137] Memory required for data: 2604135200
I1227 14:39:48.123191 65393 layer_factory.hpp:77] Creating layer res5a_relu
I1227 14:39:48.123205 65393 net.cpp:84] Creating Layer res5a_relu
I1227 14:39:48.123215 65393 net.cpp:406] res5a_relu <- res5a
I1227 14:39:48.123225 65393 net.cpp:367] res5a_relu -> res5a (in-place)
I1227 14:39:48.123236 65393 net.cpp:122] Setting up res5a_relu
I1227 14:39:48.123246 65393 net.cpp:129] Top shape: 50 512 7 7 (1254400)
I1227 14:39:48.123255 65393 net.cpp:137] Memory required for data: 2609152800
I1227 14:39:48.123262 65393 layer_factory.hpp:77] Creating layer res5a_res5a_relu_0_split
I1227 14:39:48.123273 65393 net.cpp:84] Creating Layer res5a_res5a_relu_0_split
I1227 14:39:48.123282 65393 net.cpp:406] res5a_res5a_relu_0_split <- res5a
I1227 14:39:48.123333 65393 net.cpp:380] res5a_res5a_relu_0_split -> res5a_res5a_relu_0_split_0
I1227 14:39:48.123347 65393 net.cpp:380] res5a_res5a_relu_0_split -> res5a_res5a_relu_0_split_1
I1227 14:39:48.123400 65393 net.cpp:122] Setting up res5a_res5a_relu_0_split
I1227 14:39:48.123416 65393 net.cpp:129] Top shape: 50 512 7 7 (1254400)
I1227 14:39:48.123425 65393 net.cpp:129] Top shape: 50 512 7 7 (1254400)
I1227 14:39:48.123433 65393 net.cpp:137] Memory required for data: 2619188000
I1227 14:39:48.123441 65393 layer_factory.hpp:77] Creating layer res5b_branch2a
I1227 14:39:48.123458 65393 net.cpp:84] Creating Layer res5b_branch2a
I1227 14:39:48.123468 65393 net.cpp:406] res5b_branch2a <- res5a_res5a_relu_0_split_0
I1227 14:39:48.123481 65393 net.cpp:380] res5b_branch2a -> res5b_branch2a
I1227 14:39:48.194509 65393 net.cpp:122] Setting up res5b_branch2a
I1227 14:39:48.194542 65393 net.cpp:129] Top shape: 50 512 7 7 (1254400)
I1227 14:39:48.194551 65393 net.cpp:137] Memory required for data: 2624205600
I1227 14:39:48.194562 65393 layer_factory.hpp:77] Creating layer bn5b_branch2a
I1227 14:39:48.194577 65393 net.cpp:84] Creating Layer bn5b_branch2a
I1227 14:39:48.194588 65393 net.cpp:406] bn5b_branch2a <- res5b_branch2a
I1227 14:39:48.194602 65393 net.cpp:367] bn5b_branch2a -> res5b_branch2a (in-place)
I1227 14:39:48.194806 65393 net.cpp:122] Setting up bn5b_branch2a
I1227 14:39:48.194823 65393 net.cpp:129] Top shape: 50 512 7 7 (1254400)
I1227 14:39:48.194830 65393 net.cpp:137] Memory required for data: 2629223200
I1227 14:39:48.194844 65393 layer_factory.hpp:77] Creating layer scale5b_branch2a
I1227 14:39:48.194855 65393 net.cpp:84] Creating Layer scale5b_branch2a
I1227 14:39:48.194865 65393 net.cpp:406] scale5b_branch2a <- res5b_branch2a
I1227 14:39:48.194875 65393 net.cpp:367] scale5b_branch2a -> res5b_branch2a (in-place)
I1227 14:39:48.194923 65393 layer_factory.hpp:77] Creating layer scale5b_branch2a
I1227 14:39:48.195053 65393 net.cpp:122] Setting up scale5b_branch2a
I1227 14:39:48.195070 65393 net.cpp:129] Top shape: 50 512 7 7 (1254400)
I1227 14:39:48.195078 65393 net.cpp:137] Memory required for data: 2634240800
I1227 14:39:48.195089 65393 layer_factory.hpp:77] Creating layer res5b_branch2a_relu
I1227 14:39:48.195101 65393 net.cpp:84] Creating Layer res5b_branch2a_relu
I1227 14:39:48.195109 65393 net.cpp:406] res5b_branch2a_relu <- res5b_branch2a
I1227 14:39:48.195122 65393 net.cpp:367] res5b_branch2a_relu -> res5b_branch2a (in-place)
I1227 14:39:48.195134 65393 net.cpp:122] Setting up res5b_branch2a_relu
I1227 14:39:48.195144 65393 net.cpp:129] Top shape: 50 512 7 7 (1254400)
I1227 14:39:48.195152 65393 net.cpp:137] Memory required for data: 2639258400
I1227 14:39:48.195159 65393 layer_factory.hpp:77] Creating layer res5b_branch2b
I1227 14:39:48.195174 65393 net.cpp:84] Creating Layer res5b_branch2b
I1227 14:39:48.195183 65393 net.cpp:406] res5b_branch2b <- res5b_branch2a
I1227 14:39:48.195195 65393 net.cpp:380] res5b_branch2b -> res5b_branch2b
I1227 14:39:48.265839 65393 net.cpp:122] Setting up res5b_branch2b
I1227 14:39:48.265882 65393 net.cpp:129] Top shape: 50 512 7 7 (1254400)
I1227 14:39:48.265890 65393 net.cpp:137] Memory required for data: 2644276000
I1227 14:39:48.265903 65393 layer_factory.hpp:77] Creating layer bn5b_branch2b
I1227 14:39:48.265919 65393 net.cpp:84] Creating Layer bn5b_branch2b
I1227 14:39:48.265930 65393 net.cpp:406] bn5b_branch2b <- res5b_branch2b
I1227 14:39:48.265944 65393 net.cpp:367] bn5b_branch2b -> res5b_branch2b (in-place)
I1227 14:39:48.266155 65393 net.cpp:122] Setting up bn5b_branch2b
I1227 14:39:48.266170 65393 net.cpp:129] Top shape: 50 512 7 7 (1254400)
I1227 14:39:48.266178 65393 net.cpp:137] Memory required for data: 2649293600
I1227 14:39:48.266191 65393 layer_factory.hpp:77] Creating layer scale5b_branch2b
I1227 14:39:48.266206 65393 net.cpp:84] Creating Layer scale5b_branch2b
I1227 14:39:48.266214 65393 net.cpp:406] scale5b_branch2b <- res5b_branch2b
I1227 14:39:48.266224 65393 net.cpp:367] scale5b_branch2b -> res5b_branch2b (in-place)
I1227 14:39:48.266278 65393 layer_factory.hpp:77] Creating layer scale5b_branch2b
I1227 14:39:48.266438 65393 net.cpp:122] Setting up scale5b_branch2b
I1227 14:39:48.266454 65393 net.cpp:129] Top shape: 50 512 7 7 (1254400)
I1227 14:39:48.266463 65393 net.cpp:137] Memory required for data: 2654311200
I1227 14:39:48.266475 65393 layer_factory.hpp:77] Creating layer res5b
I1227 14:39:48.266490 65393 net.cpp:84] Creating Layer res5b
I1227 14:39:48.266500 65393 net.cpp:406] res5b <- res5a_res5a_relu_0_split_1
I1227 14:39:48.266510 65393 net.cpp:406] res5b <- res5b_branch2b
I1227 14:39:48.266520 65393 net.cpp:380] res5b -> res5b
I1227 14:39:48.266556 65393 net.cpp:122] Setting up res5b
I1227 14:39:48.266571 65393 net.cpp:129] Top shape: 50 512 7 7 (1254400)
I1227 14:39:48.266578 65393 net.cpp:137] Memory required for data: 2659328800
I1227 14:39:48.266587 65393 layer_factory.hpp:77] Creating layer res5b_relu
I1227 14:39:48.266597 65393 net.cpp:84] Creating Layer res5b_relu
I1227 14:39:48.266605 65393 net.cpp:406] res5b_relu <- res5b
I1227 14:39:48.266618 65393 net.cpp:367] res5b_relu -> res5b (in-place)
I1227 14:39:48.266629 65393 net.cpp:122] Setting up res5b_relu
I1227 14:39:48.266639 65393 net.cpp:129] Top shape: 50 512 7 7 (1254400)
I1227 14:39:48.266647 65393 net.cpp:137] Memory required for data: 2664346400
I1227 14:39:48.266654 65393 layer_factory.hpp:77] Creating layer pool5
I1227 14:39:48.266666 65393 net.cpp:84] Creating Layer pool5
I1227 14:39:48.266675 65393 net.cpp:406] pool5 <- res5b
I1227 14:39:48.266685 65393 net.cpp:380] pool5 -> pool5
I1227 14:39:48.266719 65393 net.cpp:122] Setting up pool5
I1227 14:39:48.266733 65393 net.cpp:129] Top shape: 50 512 1 1 (25600)
I1227 14:39:48.266741 65393 net.cpp:137] Memory required for data: 2664448800
I1227 14:39:48.266749 65393 layer_factory.hpp:77] Creating layer fc1000
I1227 14:39:48.266772 65393 net.cpp:84] Creating Layer fc1000
I1227 14:39:48.266782 65393 net.cpp:406] fc1000 <- pool5
I1227 14:39:48.266793 65393 net.cpp:380] fc1000 -> fc1000
I1227 14:39:48.282573 65393 net.cpp:122] Setting up fc1000
I1227 14:39:48.282605 65393 net.cpp:129] Top shape: 50 1000 (50000)
I1227 14:39:48.282614 65393 net.cpp:137] Memory required for data: 2664648800
I1227 14:39:48.282629 65393 layer_factory.hpp:77] Creating layer fc1000_fc1000_0_split
I1227 14:39:48.282644 65393 net.cpp:84] Creating Layer fc1000_fc1000_0_split
I1227 14:39:48.282654 65393 net.cpp:406] fc1000_fc1000_0_split <- fc1000
I1227 14:39:48.282668 65393 net.cpp:380] fc1000_fc1000_0_split -> fc1000_fc1000_0_split_0
I1227 14:39:48.282682 65393 net.cpp:380] fc1000_fc1000_0_split -> fc1000_fc1000_0_split_1
I1227 14:39:48.282694 65393 net.cpp:380] fc1000_fc1000_0_split -> fc1000_fc1000_0_split_2
I1227 14:39:48.282760 65393 net.cpp:122] Setting up fc1000_fc1000_0_split
I1227 14:39:48.282776 65393 net.cpp:129] Top shape: 50 1000 (50000)
I1227 14:39:48.282786 65393 net.cpp:129] Top shape: 50 1000 (50000)
I1227 14:39:48.282794 65393 net.cpp:129] Top shape: 50 1000 (50000)
I1227 14:39:48.282802 65393 net.cpp:137] Memory required for data: 2665248800
I1227 14:39:48.282811 65393 layer_factory.hpp:77] Creating layer loss
I1227 14:39:48.282826 65393 net.cpp:84] Creating Layer loss
I1227 14:39:48.282835 65393 net.cpp:406] loss <- fc1000_fc1000_0_split_0
I1227 14:39:48.282846 65393 net.cpp:406] loss <- label_data_1_split_0
I1227 14:39:48.282858 65393 net.cpp:380] loss -> loss
…
