…
I1227 20:37:41.868819  2690 net.cpp:294] The NetState phase (1) differed from the phase (0) specified by a rule in layer data
I1227 20:37:41.869468  2690 net.cpp:51] Initializing net from parameters: 
name: "ResNet-18"
state {
  phase: TEST
  level: 0
  stage: ""
}
layer {
  name: "data"
  type: "Data"
  top: "data"
  top: "label"
  include {
    phase: TEST
  }
  transform_param {
    mirror: false
    crop_size: 224
    mean_file: "/mllib/imagenet/ilsvrc12/imagenet_mean.binaryproto"
  }
  data_param {
    source: "/mllib/imagenet/ilsvrc12/lmdb_resize/ilsvrc12_val_lmdb"
    batch_size: 50
    backend: LMDB
  }
}
layer {
  name: "conv1"
  type: "Convolution"
  bottom: "data"
  top: "conv1"
  convolution_param {
    num_output: 64
    bias_term: false
    pad: 3
    kernel_size: 7
    stride: 2
    weight_filler {
      type: "msra"
    }
  }
}
layer {
  name: "bn_conv1"
  type: "BatchNorm"
  bottom: "conv1"
  top: "conv1"
}
layer {
  name: "scale_conv1"
  type: "Scale"
  bottom: "conv1"
  top: "conv1"
  scale_param {
    bias_term: true
  }
}
layer {
  name: "conv1_relu"
  type: "ReLU"
  bottom: "conv1"
  top: "conv1"
}
layer {
  name: "quantized_conv1"
  type: "Quantization"
  bottom: "conv1"
  top: "quantized_conv1"
  quantization_param {
    round_method: FLOOR
    round_strategy: AGGRESSIVE
    bit_width: 8
    range: 0
    range: 20.756613
  }
}
layer {
  name: "pool1"
  type: "Pooling"
  bottom: "quantized_conv1"
  top: "pool1"
  pooling_param {
    pool: MAX
    kernel_size: 3
    stride: 2
  }
}
layer {
  name: "res2a_branch1"
  type: "Convolution"
  bottom: "pool1"
  top: "res2a_branch1"
  convolution_param {
    num_output: 64
    bias_term: false
    pad: 0
    kernel_size: 1
    stride: 1
    weight_filler {
      type: "msra"
    }
  }
}
layer {
  name: "bn2a_branch1"
  type: "BatchNorm"
  bottom: "res2a_branch1"
  top: "res2a_branch1"
}
layer {
  name: "scale2a_branch1"
  type: "Scale"
  bottom: "res2a_branch1"
  top: "res2a_branch1"
  scale_param {
    bias_term: true
  }
}
layer {
  name: "quantized_res2a_branch1"
  type: "Quantization"
  bottom: "res2a_branch1"
  top: "res2a_branch1"
  quantization_param {
    round_method: FLOOR
    round_strategy: AGGRESSIVE
    bit_width: 8
    range: -17.40053
    range: 10.660799
  }
}
layer {
  name: "res2a_branch2a"
  type: "Convolution"
  bottom: "pool1"
  top: "res2a_branch2a"
  convolution_param {
    num_output: 64
    bias_term: false
    pad: 1
    kernel_size: 3
    stride: 1
    weight_filler {
      type: "msra"
    }
  }
}
layer {
  name: "bn2a_branch2a"
  type: "BatchNorm"
  bottom: "res2a_branch2a"
  top: "res2a_branch2a"
}
layer {
  name: "scale2a_branch2a"
  type: "Scale"
  bottom: "res2a_branch2a"
  top: "res2a_branch2a"
  scale_param {
    bias_term: true
  }
}
layer {
  name: "res2a_branch2a_relu"
  type: "ReLU"
  bottom: "res2a_branch2a"
  top: "res2a_branch2a"
}
layer {
  name: "quantized_res2a_branch2a"
  type: "Quantization"
  bottom: "res2a_branch2a"
  top: "res2a_branch2a"
  quantization_param {
    round_method: FLOOR
    round_strategy: AGGRESSIVE
    bit_width: 8
    range: 0
    range: 8.8238039
  }
}
layer {
  name: "res2a_branch2b"
  type: "Convolution"
  bottom: "res2a_branch2a"
  top: "res2a_branch2b"
  convolution_param {
    num_output: 64
    bias_term: false
    pad: 1
    kernel_size: 3
    stride: 1
    weight_filler {
      type: "msra"
    }
  }
}
layer {
  name: "bn2a_branch2b"
  type: "BatchNorm"
  bottom: "res2a_branch2b"
  top: "res2a_branch2b"
}
layer {
  name: "scale2a_branch2b"
  type: "Scale"
  bottom: "res2a_branch2b"
  top: "res2a_branch2b"
  scale_param {
    bias_term: true
  }
}
layer {
  name: "quantized_res2a_branch2b"
  type: "Quantization"
  bottom: "res2a_branch2b"
  top: "res2a_branch2b"
  quantization_param {
    round_method: FLOOR
    round_strategy: AGGRESSIVE
    bit_width: 8
    range: -11.454288
    range: 7.041914
  }
}
layer {
  name: "res2a"
  type: "Eltwise"
  bottom: "res2a_branch1"
  bottom: "res2a_branch2b"
  top: "res2a"
  eltwise_param {
    operation: SUM
  }
}
layer {
  name: "res2a_relu"
  type: "ReLU"
  bottom: "res2a"
  top: "res2a"
}
layer {
  name: "quantized_res2a"
  type: "Quantization"
  bottom: "res2a"
  top: "res2a"
  quantization_param {
    round_method: FLOOR
    round_strategy: AGGRESSIVE
    bit_width: 8
    range: 0
    range: 13.009123
  }
}
layer {
  name: "res2b_branch2a"
  type: "Convolution"
  bottom: "res2a"
  top: "res2b_branch2a"
  convolution_param {
    num_output: 64
    bias_term: false
    pad: 1
    kernel_size: 3
    stride: 1
    weight_filler {
      type: "msra"
    }
  }
}
layer {
  name: "bn2b_branch2a"
  type: "BatchNorm"
  bottom: "res2b_branch2a"
  top: "res2b_branch2a"
}
layer {
  name: "scale2b_branch2a"
  type: "Scale"
  bottom: "res2b_branch2a"
  top: "res2b_branch2a"
  scale_param {
    bias_term: true
  }
}
layer {
  name: "res2b_branch2a_relu"
  type: "ReLU"
  bottom: "res2b_branch2a"
  top: "res2b_branch2a"
}
layer {
  name: "quantized_res2b_branch2a"
  type: "Quantization"
  bottom: "res2b_branch2a"
  top: "res2b_branch2a"
  quantization_param {
    round_method: FLOOR
    round_strategy: AGGRESSIVE
    bit_width: 8
    range: 0
    range: 8.8807116
  }
}
layer {
  name: "res2b_branch2b"
  type: "Convolution"
  bottom: "res2b_branch2a"
  top: "res2b_branch2b"
  convolution_param {
    num_output: 64
    bias_term: false
    pad: 1
    kernel_size: 3
    stride: 1
    weight_filler {
      type: "msra"
    }
  }
}
layer {
  name: "bn2b_branch2b"
  type: "BatchNorm"
  bottom: "res2b_branch2b"
  top: "res2b_branch2b"
}
layer {
  name: "scale2b_branch2b"
  type: "Scale"
  bottom: "res2b_branch2b"
  top: "res2b_branch2b"
  scale_param {
    bias_term: true
  }
}
layer {
  name: "quantized_res2b_branch2b"
  type: "Quantization"
  bottom: "res2b_branch2b"
  top: "res2b_branch2b"
  quantization_param {
    round_method: FLOOR
    round_strategy: AGGRESSIVE
    bit_width: 8
    range: -9.7979622
    range: 9.198802
  }
}
layer {
  name: "res2b"
  type: "Eltwise"
  bottom: "res2a"
  bottom: "res2b_branch2b"
  top: "res2b"
  eltwise_param {
    operation: SUM
  }
}
layer {
  name: "res2b_relu"
  type: "ReLU"
  bottom: "res2b"
  top: "res2b"
}
layer {
  name: "quantized_res2b"
  type: "Quantization"
  bottom: "res2b"
  top: "res2b"
  quantization_param {
    round_method: FLOOR
    round_strategy: AGGRESSIVE
    bit_width: 8
    range: 0
    range: 16.73156
  }
}
layer {
  name: "res3a_branch1"
  type: "Convolution"
  bottom: "res2b"
  top: "res3a_branch1"
  convolution_param {
    num_output: 128
    bias_term: false
    pad: 0
    kernel_size: 1
    stride: 2
    weight_filler {
      type: "msra"
    }
  }
}
layer {
  name: "bn3a_branch1"
  type: "BatchNorm"
  bottom: "res3a_branch1"
  top: "res3a_branch1"
}
layer {
  name: "scale3a_branch1"
  type: "Scale"
  bottom: "res3a_branch1"
  top: "res3a_branch1"
  scale_param {
    bias_term: true
  }
}
layer {
  name: "quantized_res3a_branch1"
  type: "Quantization"
  bottom: "res3a_branch1"
  top: "res3a_branch1"
  quantization_param {
    round_method: FLOOR
    round_strategy: AGGRESSIVE
    bit_width: 8
    range: -7.5694089
    range: 13.997952
  }
}
layer {
  name: "res3a_branch2a"
  type: "Convolution"
  bottom: "res2b"
  top: "res3a_branch2a"
  convolution_param {
    num_output: 128
    bias_term: false
    pad: 1
    kernel_size: 3
    stride: 2
    weight_filler {
      type: "msra"
    }
  }
}
layer {
  name: "bn3a_branch2a"
  type: "BatchNorm"
  bottom: "res3a_branch2a"
  top: "res3a_branch2a"
}
layer {
  name: "scale3a_branch2a"
  type: "Scale"
  bottom: "res3a_branch2a"
  top: "res3a_branch2a"
  scale_param {
    bias_term: true
  }
}
layer {
  name: "res3a_branch2a_relu"
  type: "ReLU"
  bottom: "res3a_branch2a"
  top: "res3a_branch2a"
}
layer {
  name: "quantized_res3a_branch2a"
  type: "Quantization"
  bottom: "res3a_branch2a"
  top: "res3a_branch2a"
  quantization_param {
    round_method: FLOOR
    round_strategy: AGGRESSIVE
    bit_width: 8
    range: 0
    range: 7.2437668
  }
}
layer {
  name: "res3a_branch2b"
  type: "Convolution"
  bottom: "res3a_branch2a"
  top: "res3a_branch2b"
  convolution_param {
    num_output: 128
    bias_term: false
    pad: 1
    kernel_size: 3
    stride: 1
    weight_filler {
      type: "msra"
    }
  }
}
layer {
  name: "bn3a_branch2b"
  type: "BatchNorm"
  bottom: "res3a_branch2b"
  top: "res3a_branch2b"
}
layer {
  name: "scale3a_branch2b"
  type: "Scale"
  bottom: "res3a_branch2b"
  top: "res3a_branch2b"
  scale_param {
    bias_term: true
  }
}
layer {
  name: "quantized_res3a_branch2b"
  type: "Quantization"
  bottom: "res3a_branch2b"
  top: "res3a_branch2b"
  quantization_param {
    round_method: FLOOR
    round_strategy: AGGRESSIVE
    bit_width: 8
    range: -8.2086267
    range: 13.289404
  }
}
layer {
  name: "res3a"
  type: "Eltwise"
  bottom: "res3a_branch1"
  bottom: "res3a_branch2b"
  top: "res3a"
  eltwise_param {
    operation: SUM
  }
}
layer {
  name: "res3a_relu"
  type: "ReLU"
  bottom: "res3a"
  top: "res3a"
}
layer {
  name: "quantized_res3a"
  type: "Quantization"
  bottom: "res3a"
  top: "res3a"
  quantization_param {
    round_method: FLOOR
    round_strategy: AGGRESSIVE
    bit_width: 8
    range: 0
    range: 16.047813
  }
}
layer {
  name: "res3b_branch2a"
  type: "Convolution"
  bottom: "res3a"
  top: "res3b_branch2a"
  convolution_param {
    num_output: 128
    bias_term: false
    pad: 1
    kernel_size: 3
    stride: 1
    weight_filler {
      type: "msra"
    }
  }
}
layer {
  name: "bn3b_branch2a"
  type: "BatchNorm"
  bottom: "res3b_branch2a"
  top: "res3b_branch2a"
}
layer {
  name: "scale3b_branch2a"
  type: "Scale"
  bottom: "res3b_branch2a"
  top: "res3b_branch2a"
  scale_param {
    bias_term: true
  }
}
layer {
  name: "res3b_branch2a_relu"
  type: "ReLU"
  bottom: "res3b_branch2a"
  top: "res3b_branch2a"
}
layer {
  name: "quantized_res3b_branch2a"
  type: "Quantization"
  bottom: "res3b_branch2a"
  top: "res3b_branch2a"
  quantization_param {
    round_method: FLOOR
    round_strategy: AGGRESSIVE
    bit_width: 8
    range: 0
    range: 11.069953
  }
}
layer {
  name: "res3b_branch2b"
  type: "Convolution"
  bottom: "res3b_branch2a"
  top: "res3b_branch2b"
  convolution_param {
    num_output: 128
    bias_term: false
    pad: 1
    kernel_size: 3
    stride: 1
    weight_filler {
      type: "msra"
    }
  }
}
layer {
  name: "bn3b_branch2b"
  type: "BatchNorm"
  bottom: "res3b_branch2b"
  top: "res3b_branch2b"
}
layer {
  name: "scale3b_branch2b"
  type: "Scale"
  bottom: "res3b_branch2b"
  top: "res3b_branch2b"
  scale_param {
    bias_term: true
  }
}
layer {
  name: "quantized_res3b_branch2b"
  type: "Quantization"
  bottom: "res3b_branch2b"
  top: "res3b_branch2b"
  quantization_param {
    round_method: FLOOR
    round_strategy: AGGRESSIVE
    bit_width: 8
    range: -10.578491
    range: 9.741951
  }
}
layer {
  name: "res3b"
  type: "Eltwise"
  bottom: "res3a"
  bottom: "res3b_branch2b"
  top: "res3b"
  eltwise_param {
    operation: SUM
  }
}
layer {
  name: "res3b_relu"
  type: "ReLU"
  bottom: "res3b"
  top: "res3b"
}
layer {
  name: "quantized_res3b"
  type: "Quantization"
  bottom: "res3b"
  top: "res3b"
  quantization_param {
    round_method: FLOOR
    round_strategy: AGGRESSIVE
    bit_width: 8
    range: 0
    range: 21.433855
  }
}
layer {
  name: "res4a_branch1"
  type: "Convolution"
  bottom: "res3b"
  top: "res4a_branch1"
  convolution_param {
    num_output: 256
    bias_term: false
    pad: 0
    kernel_size: 1
    stride: 2
    weight_filler {
      type: "msra"
    }
  }
}
layer {
  name: "bn4a_branch1"
  type: "BatchNorm"
  bottom: "res4a_branch1"
  top: "res4a_branch1"
}
layer {
  name: "scale4a_branch1"
  type: "Scale"
  bottom: "res4a_branch1"
  top: "res4a_branch1"
  scale_param {
    bias_term: true
  }
}
layer {
  name: "quantized_res4a_branch1"
  type: "Quantization"
  bottom: "res4a_branch1"
  top: "res4a_branch1"
  quantization_param {
    round_method: FLOOR
    round_strategy: AGGRESSIVE
    bit_width: 8
    range: -4.2085242
    range: 6.2801151
  }
}
layer {
  name: "res4a_branch2a"
  type: "Convolution"
  bottom: "res3b"
  top: "res4a_branch2a"
  convolution_param {
    num_output: 256
    bias_term: false
    pad: 1
    kernel_size: 3
    stride: 2
    weight_filler {
      type: "msra"
    }
  }
}
layer {
  name: "bn4a_branch2a"
  type: "BatchNorm"
  bottom: "res4a_branch2a"
  top: "res4a_branch2a"
}
layer {
  name: "scale4a_branch2a"
  type: "Scale"
  bottom: "res4a_branch2a"
  top: "res4a_branch2a"
  scale_param {
    bias_term: true
  }
}
layer {
  name: "res4a_branch2a_relu"
  type: "ReLU"
  bottom: "res4a_branch2a"
  top: "res4a_branch2a"
}
layer {
  name: "quantized_res4a_branch2a"
  type: "Quantization"
  bottom: "res4a_branch2a"
  top: "res4a_branch2a"
  quantization_param {
    round_method: FLOOR
    round_strategy: AGGRESSIVE
    bit_width: 8
    range: 0
    range: 9.6955
  }
}
layer {
  name: "res4a_branch2b"
  type: "Convolution"
  bottom: "res4a_branch2a"
  top: "res4a_branch2b"
  convolution_param {
    num_output: 256
    bias_term: false
    pad: 1
    kernel_size: 3
    stride: 1
    weight_filler {
      type: "msra"
    }
  }
}
layer {
  name: "bn4a_branch2b"
  type: "BatchNorm"
  bottom: "res4a_branch2b"
  top: "res4a_branch2b"
}
layer {
  name: "scale4a_branch2b"
  type: "Scale"
  bottom: "res4a_branch2b"
  top: "res4a_branch2b"
  scale_param {
    bias_term: true
  }
}
layer {
  name: "quantized_res4a_branch2b"
  type: "Quantization"
  bottom: "res4a_branch2b"
  top: "res4a_branch2b"
  quantization_param {
    round_method: FLOOR
    round_strategy: AGGRESSIVE
    bit_width: 8
    range: -8.957634
    range: 14.615593
  }
}
layer {
  name: "res4a"
  type: "Eltwise"
  bottom: "res4a_branch1"
  bottom: "res4a_branch2b"
  top: "res4a"
  eltwise_param {
    operation: SUM
  }
}
layer {
  name: "res4a_relu"
  type: "ReLU"
  bottom: "res4a"
  top: "res4a"
}
layer {
  name: "quantized_res4a"
  type: "Quantization"
  bottom: "res4a"
  top: "res4a"
  quantization_param {
    round_method: FLOOR
    round_strategy: AGGRESSIVE
    bit_width: 8
    range: 0
    range: 17.200615
  }
}
layer {
  name: "res4b_branch2a"
  type: "Convolution"
  bottom: "res4a"
  top: "res4b_branch2a"
  convolution_param {
    num_output: 256
    bias_term: false
    pad: 1
    kernel_size: 3
    stride: 1
    weight_filler {
      type: "msra"
    }
  }
}
layer {
  name: "bn4b_branch2a"
  type: "BatchNorm"
  bottom: "res4b_branch2a"
  top: "res4b_branch2a"
}
layer {
  name: "scale4b_branch2a"
  type: "Scale"
  bottom: "res4b_branch2a"
  top: "res4b_branch2a"
  scale_param {
    bias_term: true
  }
}
layer {
  name: "res4b_branch2a_relu"
  type: "ReLU"
  bottom: "res4b_branch2a"
  top: "res4b_branch2a"
}
layer {
  name: "quantized_res4b_branch2a"
  type: "Quantization"
  bottom: "res4b_branch2a"
  top: "res4b_branch2a"
  quantization_param {
    round_method: FLOOR
    round_strategy: AGGRESSIVE
    bit_width: 8
    range: 0
    range: 8.0272427
  }
}
layer {
  name: "res4b_branch2b"
  type: "Convolution"
  bottom: "res4b_branch2a"
  top: "res4b_branch2b"
  convolution_param {
    num_output: 256
    bias_term: false
    pad: 1
    kernel_size: 3
    stride: 1
    weight_filler {
      type: "msra"
    }
  }
}
layer {
  name: "bn4b_branch2b"
  type: "BatchNorm"
  bottom: "res4b_branch2b"
  top: "res4b_branch2b"
}
layer {
  name: "scale4b_branch2b"
  type: "Scale"
  bottom: "res4b_branch2b"
  top: "res4b_branch2b"
  scale_param {
    bias_term: true
  }
}
layer {
  name: "quantized_res4b_branch2b"
  type: "Quantization"
  bottom: "res4b_branch2b"
  top: "res4b_branch2b"
  quantization_param {
    round_method: FLOOR
    round_strategy: AGGRESSIVE
    bit_width: 8
    range: -11.837559
    range: 9.8303728
  }
}
layer {
  name: "res4b"
  type: "Eltwise"
  bottom: "res4a"
  bottom: "res4b_branch2b"
  top: "res4b"
  eltwise_param {
    operation: SUM
  }
}
layer {
  name: "res4b_relu"
  type: "ReLU"
  bottom: "res4b"
  top: "res4b"
}
layer {
  name: "quantized_res4b"
  type: "Quantization"
  bottom: "res4b"
  top: "res4b"
  quantization_param {
    round_method: FLOOR
    round_strategy: AGGRESSIVE
    bit_width: 8
    range: 0
    range: 15.533745
  }
}
layer {
  name: "res5a_branch1"
  type: "Convolution"
  bottom: "res4b"
  top: "res5a_branch1"
  convolution_param {
    num_output: 512
    bias_term: false
    pad: 0
    kernel_size: 1
    stride: 2
    weight_filler {
      type: "msra"
    }
  }
}
layer {
  name: "bn5a_branch1"
  type: "BatchNorm"
  bottom: "res5a_branch1"
  top: "res5a_branch1"
}
layer {
  name: "scale5a_branch1"
  type: "Scale"
  bottom: "res5a_branch1"
  top: "res5a_branch1"
  scale_param {
    bias_term: true
  }
}
layer {
  name: "quantized_res5a_branch1"
  type: "Quantization"
  bottom: "res5a_branch1"
  top: "res5a_branch1"
  quantization_param {
    round_method: FLOOR
    round_strategy: AGGRESSIVE
    bit_width: 8
    range: -5.1432471
    range: 7.2782469
  }
}
layer {
  name: "res5a_branch2a"
  type: "Convolution"
  bottom: "res4b"
  top: "res5a_branch2a"
  convolution_param {
    num_output: 512
    bias_term: false
    pad: 1
    kernel_size: 3
    stride: 2
    weight_filler {
      type: "msra"
    }
  }
}
layer {
  name: "bn5a_branch2a"
  type: "BatchNorm"
  bottom: "res5a_branch2a"
  top: "res5a_branch2a"
}
layer {
  name: "scale5a_branch2a"
  type: "Scale"
  bottom: "res5a_branch2a"
  top: "res5a_branch2a"
  scale_param {
    bias_term: true
  }
}
layer {
  name: "res5a_branch2a_relu"
  type: "ReLU"
  bottom: "res5a_branch2a"
  top: "res5a_branch2a"
}
layer {
  name: "quantized_res5a_branch2a"
  type: "Quantization"
  bottom: "res5a_branch2a"
  top: "res5a_branch2a"
  quantization_param {
    round_method: FLOOR
    round_strategy: AGGRESSIVE
    bit_width: 8
    range: 0
    range: 5.5225992
  }
}
layer {
  name: "res5a_branch2b"
  type: "Convolution"
  bottom: "res5a_branch2a"
  top: "res5a_branch2b"
  convolution_param {
    num_output: 512
    bias_term: false
    pad: 1
    kernel_size: 3
    stride: 1
    weight_filler {
      type: "msra"
    }
  }
}
layer {
  name: "bn5a_branch2b"
  type: "BatchNorm"
  bottom: "res5a_branch2b"
  top: "res5a_branch2b"
}
layer {
  name: "scale5a_branch2b"
  type: "Scale"
  bottom: "res5a_branch2b"
  top: "res5a_branch2b"
  scale_param {
    bias_term: true
  }
}
layer {
  name: "quantized_res5a_branch2b"
  type: "Quantization"
  bottom: "res5a_branch2b"
  top: "res5a_branch2b"
  quantization_param {
    round_method: FLOOR
    round_strategy: AGGRESSIVE
    bit_width: 8
    range: -7.9446859
    range: 12.387192
  }
}
layer {
  name: "res5a"
  type: "Eltwise"
  bottom: "res5a_branch1"
  bottom: "res5a_branch2b"
  top: "res5a"
  eltwise_param {
    operation: SUM
  }
}
layer {
  name: "res5a_relu"
  type: "ReLU"
  bottom: "res5a"
  top: "res5a"
}
layer {
  name: "quantized_res5a"
  type: "Quantization"
  bottom: "res5a"
  top: "res5a"
  quantization_param {
    round_method: FLOOR
    round_strategy: AGGRESSIVE
    bit_width: 8
    range: 0
    range: 14.911362
  }
}
layer {
  name: "res5b_branch2a"
  type: "Convolution"
  bottom: "res5a"
  top: "res5b_branch2a"
  convolution_param {
    num_output: 512
    bias_term: false
    pad: 1
    kernel_size: 3
    stride: 1
    weight_filler {
      type: "msra"
    }
  }
}
layer {
  name: "bn5b_branch2a"
  type: "BatchNorm"
  bottom: "res5b_branch2a"
  top: "res5b_branch2a"
}
layer {
  name: "scale5b_branch2a"
  type: "Scale"
  bottom: "res5b_branch2a"
  top: "res5b_branch2a"
  scale_param {
    bias_term: true
  }
}
layer {
  name: "res5b_branch2a_relu"
  type: "ReLU"
  bottom: "res5b_branch2a"
  top: "res5b_branch2a"
}
layer {
  name: "quantized_res5b_branch2a"
  type: "Quantization"
  bottom: "res5b_branch2a"
  top: "res5b_branch2a"
  quantization_param {
    round_method: FLOOR
    round_strategy: AGGRESSIVE
    bit_width: 8
    range: 0
    range: 9.0142164
  }
}
layer {
  name: "res5b_branch2b"
  type: "Convolution"
  bottom: "res5b_branch2a"
  top: "res5b_branch2b"
  convolution_param {
    num_output: 512
    bias_term: false
    pad: 1
    kernel_size: 3
    stride: 1
    weight_filler {
      type: "msra"
    }
  }
}
layer {
  name: "bn5b_branch2b"
  type: "BatchNorm"
  bottom: "res5b_branch2b"
  top: "res5b_branch2b"
}
layer {
  name: "scale5b_branch2b"
  type: "Scale"
  bottom: "res5b_branch2b"
  top: "res5b_branch2b"
  scale_param {
    bias_term: true
  }
}
layer {
  name: "quantized_res5b_branch2b"
  type: "Quantization"
  bottom: "res5b_branch2b"
  top: "res5b_branch2b"
  quantization_param {
    round_method: FLOOR
    round_strategy: AGGRESSIVE
    bit_width: 8
    range: -21.284969
    range: 33.256569
  }
}
layer {
  name: "res5b"
  type: "Eltwise"
  bottom: "res5a"
  bottom: "res5b_branch2b"
  top: "res5b"
  eltwise_param {
    operation: SUM
  }
}
layer {
  name: "res5b_relu"
  type: "ReLU"
  bottom: "res5b"
  top: "res5b"
}
layer {
  name: "quantized_res5b"
  type: "Quantization"
  bottom: "res5b"
  top: "res5b"
  quantization_param {
    round_method: FLOOR
    round_strategy: AGGRESSIVE
    bit_width: 8
    range: 0
    range: 43.090839
  }
}
layer {
  name: "pool5"
  type: "Pooling"
  bottom: "res5b"
  top: "pool5"
  pooling_param {
    pool: AVE
    kernel_size: 7
    stride: 1
  }
}
layer {
  name: "fc1000"
  type: "InnerProduct"
  bottom: "pool5"
  top: "fc1000"
  param {
    lr_mult: 1
    decay_mult: 1
  }
  param {
    lr_mult: 2
    decay_mult: 1
  }
  inner_product_param {
    num_output: 1000
    weight_filler {
      type: "msra"
    }
    bias_filler {
      type: "constant"
      value: 0
    }
  }
}
layer {
  name: "loss"
  type: "SoftmaxWithLoss"
  bottom: "fc1000"
  bottom: "label"
  top: "loss"
}
layer {
  name: "top1"
  type: "Accuracy"
  bottom: "fc1000"
  bottom: "label"
  top: "top1"
}
layer {
  name: "top5"
  type: "Accuracy"
  bottom: "fc1000"
  bottom: "label"
  top: "top5"
  accuracy_param {
    top_k: 5
  }
}
I1227 20:37:41.870030  2690 layer_factory.hpp:77] Creating layer data
I1227 20:37:42.159934  2690 db_lmdb.cpp:35] Opened lmdb /mllib/imagenet/ilsvrc12/lmdb_resize/ilsvrc12_val_lmdb
I1227 20:37:42.183285  2690 net.cpp:84] Creating Layer data
I1227 20:37:42.183324  2690 net.cpp:380] data -> data
I1227 20:37:42.183370  2690 net.cpp:380] data -> label
I1227 20:37:42.183398  2690 data_transformer.cpp:25] Loading mean file from: /mllib/imagenet/ilsvrc12/imagenet_mean.binaryproto
I1227 20:37:42.531286  2690 blob.cpp:485] 1  3  256  256
I1227 20:37:42.531325  2690 blob.cpp:490] 1  3  256  256   196608
I1227 20:37:42.577217  2690 data_layer.cpp:45] output data size: 50,3,224,224
I1227 20:37:42.695094  2690 net.cpp:122] Setting up data
I1227 20:37:42.695152  2690 net.cpp:129] Top shape: 50 3 224 224 (7526400)
I1227 20:37:42.695169  2690 net.cpp:129] Top shape: 50 (50)
I1227 20:37:42.695178  2690 net.cpp:137] Memory required for data: 30105800
I1227 20:37:42.695196  2690 layer_factory.hpp:77] Creating layer label_data_1_split
I1227 20:37:42.695219  2690 net.cpp:84] Creating Layer label_data_1_split
I1227 20:37:42.695233  2690 net.cpp:406] label_data_1_split <- label
I1227 20:37:42.695257  2690 net.cpp:380] label_data_1_split -> label_data_1_split_0
I1227 20:37:42.695277  2690 net.cpp:380] label_data_1_split -> label_data_1_split_1
I1227 20:37:42.695291  2690 net.cpp:380] label_data_1_split -> label_data_1_split_2
I1227 20:37:42.695353  2690 net.cpp:122] Setting up label_data_1_split
I1227 20:37:42.695369  2690 net.cpp:129] Top shape: 50 (50)
I1227 20:37:42.695379  2690 net.cpp:129] Top shape: 50 (50)
I1227 20:37:42.695389  2690 net.cpp:129] Top shape: 50 (50)
I1227 20:37:42.695396  2690 net.cpp:137] Memory required for data: 30106400
I1227 20:37:42.695405  2690 layer_factory.hpp:77] Creating layer conv1
I1227 20:37:42.695433  2690 net.cpp:84] Creating Layer conv1
I1227 20:37:42.695443  2690 net.cpp:406] conv1 <- data
I1227 20:37:42.695456  2690 net.cpp:380] conv1 -> conv1
I1227 20:37:42.697044  2690 net.cpp:122] Setting up conv1
I1227 20:37:42.697065  2690 net.cpp:129] Top shape: 50 64 112 112 (40140800)
I1227 20:37:42.697088  2690 net.cpp:137] Memory required for data: 190669600
I1227 20:37:42.697113  2690 layer_factory.hpp:77] Creating layer bn_conv1
I1227 20:37:42.697130  2690 net.cpp:84] Creating Layer bn_conv1
I1227 20:37:42.697140  2690 net.cpp:406] bn_conv1 <- conv1
I1227 20:37:42.697151  2690 net.cpp:367] bn_conv1 -> conv1 (in-place)
I1227 20:37:42.697368  2690 net.cpp:122] Setting up bn_conv1
I1227 20:37:42.697386  2690 net.cpp:129] Top shape: 50 64 112 112 (40140800)
I1227 20:37:42.697408  2690 net.cpp:137] Memory required for data: 351232800
I1227 20:37:42.697424  2690 layer_factory.hpp:77] Creating layer scale_conv1
I1227 20:37:42.697443  2690 net.cpp:84] Creating Layer scale_conv1
I1227 20:37:42.697453  2690 net.cpp:406] scale_conv1 <- conv1
I1227 20:37:42.697464  2690 net.cpp:367] scale_conv1 -> conv1 (in-place)
I1227 20:37:42.702036  2690 layer_factory.hpp:77] Creating layer scale_conv1
I1227 20:37:42.702180  2690 net.cpp:122] Setting up scale_conv1
I1227 20:37:42.702199  2690 net.cpp:129] Top shape: 50 64 112 112 (40140800)
I1227 20:37:42.702208  2690 net.cpp:137] Memory required for data: 511796000
I1227 20:37:42.702222  2690 layer_factory.hpp:77] Creating layer conv1_relu
I1227 20:37:42.702236  2690 net.cpp:84] Creating Layer conv1_relu
I1227 20:37:42.702245  2690 net.cpp:406] conv1_relu <- conv1
I1227 20:37:42.702256  2690 net.cpp:367] conv1_relu -> conv1 (in-place)
I1227 20:37:42.702270  2690 net.cpp:122] Setting up conv1_relu
I1227 20:37:42.702280  2690 net.cpp:129] Top shape: 50 64 112 112 (40140800)
I1227 20:37:42.702288  2690 net.cpp:137] Memory required for data: 672359200
I1227 20:37:42.702297  2690 layer_factory.hpp:77] Creating layer quantized_conv1
I1227 20:37:42.702309  2690 net.cpp:84] Creating Layer quantized_conv1
I1227 20:37:42.702318  2690 net.cpp:406] quantized_conv1 <- conv1
I1227 20:37:42.702329  2690 net.cpp:380] quantized_conv1 -> quantized_conv1
I1227 20:37:42.702363  2690 net.cpp:122] Setting up quantized_conv1
I1227 20:37:42.702378  2690 net.cpp:129] Top shape: 50 64 112 112 (40140800)
I1227 20:37:42.702386  2690 net.cpp:137] Memory required for data: 832922400
I1227 20:37:42.702394  2690 layer_factory.hpp:77] Creating layer pool1
I1227 20:37:42.702409  2690 net.cpp:84] Creating Layer pool1
I1227 20:37:42.702417  2690 net.cpp:406] pool1 <- quantized_conv1
I1227 20:37:42.702428  2690 net.cpp:380] pool1 -> pool1
I1227 20:37:42.702481  2690 net.cpp:122] Setting up pool1
I1227 20:37:42.702497  2690 net.cpp:129] Top shape: 50 64 56 56 (10035200)
I1227 20:37:42.702505  2690 net.cpp:137] Memory required for data: 873063200
I1227 20:37:42.702513  2690 layer_factory.hpp:77] Creating layer pool1_pool1_0_split
I1227 20:37:42.702527  2690 net.cpp:84] Creating Layer pool1_pool1_0_split
I1227 20:37:42.702535  2690 net.cpp:406] pool1_pool1_0_split <- pool1
I1227 20:37:42.702546  2690 net.cpp:380] pool1_pool1_0_split -> pool1_pool1_0_split_0
I1227 20:37:42.702560  2690 net.cpp:380] pool1_pool1_0_split -> pool1_pool1_0_split_1
I1227 20:37:42.702599  2690 net.cpp:122] Setting up pool1_pool1_0_split
I1227 20:37:42.702613  2690 net.cpp:129] Top shape: 50 64 56 56 (10035200)
I1227 20:37:42.702623  2690 net.cpp:129] Top shape: 50 64 56 56 (10035200)
I1227 20:37:42.702631  2690 net.cpp:137] Memory required for data: 953344800
I1227 20:37:42.702641  2690 layer_factory.hpp:77] Creating layer res2a_branch1
I1227 20:37:42.702656  2690 net.cpp:84] Creating Layer res2a_branch1
I1227 20:37:42.702666  2690 net.cpp:406] res2a_branch1 <- pool1_pool1_0_split_0
I1227 20:37:42.702677  2690 net.cpp:380] res2a_branch1 -> res2a_branch1
I1227 20:37:42.704097  2690 net.cpp:122] Setting up res2a_branch1
I1227 20:37:42.704120  2690 net.cpp:129] Top shape: 50 64 56 56 (10035200)
I1227 20:37:42.704129  2690 net.cpp:137] Memory required for data: 993485600
I1227 20:37:42.704141  2690 layer_factory.hpp:77] Creating layer bn2a_branch1
I1227 20:37:42.704154  2690 net.cpp:84] Creating Layer bn2a_branch1
I1227 20:37:42.704164  2690 net.cpp:406] bn2a_branch1 <- res2a_branch1
I1227 20:37:42.704175  2690 net.cpp:367] bn2a_branch1 -> res2a_branch1 (in-place)
I1227 20:37:42.704339  2690 net.cpp:122] Setting up bn2a_branch1
I1227 20:37:42.704355  2690 net.cpp:129] Top shape: 50 64 56 56 (10035200)
I1227 20:37:42.704363  2690 net.cpp:137] Memory required for data: 1033626400
I1227 20:37:42.704380  2690 layer_factory.hpp:77] Creating layer scale2a_branch1
I1227 20:37:42.704408  2690 net.cpp:84] Creating Layer scale2a_branch1
I1227 20:37:42.704419  2690 net.cpp:406] scale2a_branch1 <- res2a_branch1
I1227 20:37:42.704430  2690 net.cpp:367] scale2a_branch1 -> res2a_branch1 (in-place)
I1227 20:37:42.704476  2690 layer_factory.hpp:77] Creating layer scale2a_branch1
I1227 20:37:42.704587  2690 net.cpp:122] Setting up scale2a_branch1
I1227 20:37:42.704603  2690 net.cpp:129] Top shape: 50 64 56 56 (10035200)
I1227 20:37:42.704612  2690 net.cpp:137] Memory required for data: 1073767200
I1227 20:37:42.704627  2690 layer_factory.hpp:77] Creating layer quantized_res2a_branch1
I1227 20:37:42.704639  2690 net.cpp:84] Creating Layer quantized_res2a_branch1
I1227 20:37:42.704648  2690 net.cpp:406] quantized_res2a_branch1 <- res2a_branch1
I1227 20:37:42.704660  2690 net.cpp:367] quantized_res2a_branch1 -> res2a_branch1 (in-place)
I1227 20:37:42.704672  2690 net.cpp:122] Setting up quantized_res2a_branch1
I1227 20:37:42.704682  2690 net.cpp:129] Top shape: 50 64 56 56 (10035200)
I1227 20:37:42.704690  2690 net.cpp:137] Memory required for data: 1113908000
I1227 20:37:42.704699  2690 layer_factory.hpp:77] Creating layer res2a_branch2a
I1227 20:37:42.704712  2690 net.cpp:84] Creating Layer res2a_branch2a
I1227 20:37:42.704722  2690 net.cpp:406] res2a_branch2a <- pool1_pool1_0_split_1
I1227 20:37:42.704733  2690 net.cpp:380] res2a_branch2a -> res2a_branch2a
I1227 20:37:42.707180  2690 net.cpp:122] Setting up res2a_branch2a
I1227 20:37:42.707207  2690 net.cpp:129] Top shape: 50 64 56 56 (10035200)
I1227 20:37:42.707216  2690 net.cpp:137] Memory required for data: 1154048800
I1227 20:37:42.707228  2690 layer_factory.hpp:77] Creating layer bn2a_branch2a
I1227 20:37:42.707244  2690 net.cpp:84] Creating Layer bn2a_branch2a
I1227 20:37:42.707254  2690 net.cpp:406] bn2a_branch2a <- res2a_branch2a
I1227 20:37:42.707267  2690 net.cpp:367] bn2a_branch2a -> res2a_branch2a (in-place)
I1227 20:37:42.707446  2690 net.cpp:122] Setting up bn2a_branch2a
I1227 20:37:42.707463  2690 net.cpp:129] Top shape: 50 64 56 56 (10035200)
I1227 20:37:42.707473  2690 net.cpp:137] Memory required for data: 1194189600
I1227 20:37:42.707485  2690 layer_factory.hpp:77] Creating layer scale2a_branch2a
I1227 20:37:42.707499  2690 net.cpp:84] Creating Layer scale2a_branch2a
I1227 20:37:42.707509  2690 net.cpp:406] scale2a_branch2a <- res2a_branch2a
I1227 20:37:42.707520  2690 net.cpp:367] scale2a_branch2a -> res2a_branch2a (in-place)
I1227 20:37:42.707566  2690 layer_factory.hpp:77] Creating layer scale2a_branch2a
I1227 20:37:42.707685  2690 net.cpp:122] Setting up scale2a_branch2a
I1227 20:37:42.707702  2690 net.cpp:129] Top shape: 50 64 56 56 (10035200)
I1227 20:37:42.707710  2690 net.cpp:137] Memory required for data: 1234330400
I1227 20:37:42.707727  2690 layer_factory.hpp:77] Creating layer res2a_branch2a_relu
I1227 20:37:42.707743  2690 net.cpp:84] Creating Layer res2a_branch2a_relu
I1227 20:37:42.707752  2690 net.cpp:406] res2a_branch2a_relu <- res2a_branch2a
I1227 20:37:42.707767  2690 net.cpp:367] res2a_branch2a_relu -> res2a_branch2a (in-place)
I1227 20:37:42.707779  2690 net.cpp:122] Setting up res2a_branch2a_relu
I1227 20:37:42.707789  2690 net.cpp:129] Top shape: 50 64 56 56 (10035200)
I1227 20:37:42.707798  2690 net.cpp:137] Memory required for data: 1274471200
I1227 20:37:42.707806  2690 layer_factory.hpp:77] Creating layer quantized_res2a_branch2a
I1227 20:37:42.707818  2690 net.cpp:84] Creating Layer quantized_res2a_branch2a
I1227 20:37:42.707826  2690 net.cpp:406] quantized_res2a_branch2a <- res2a_branch2a
I1227 20:37:42.707837  2690 net.cpp:367] quantized_res2a_branch2a -> res2a_branch2a (in-place)
I1227 20:37:42.707849  2690 net.cpp:122] Setting up quantized_res2a_branch2a
I1227 20:37:42.707859  2690 net.cpp:129] Top shape: 50 64 56 56 (10035200)
I1227 20:37:42.707867  2690 net.cpp:137] Memory required for data: 1314612000
I1227 20:37:42.707876  2690 layer_factory.hpp:77] Creating layer res2a_branch2b
I1227 20:37:42.707891  2690 net.cpp:84] Creating Layer res2a_branch2b
I1227 20:37:42.707901  2690 net.cpp:406] res2a_branch2b <- res2a_branch2a
I1227 20:37:42.707937  2690 net.cpp:380] res2a_branch2b -> res2a_branch2b
I1227 20:37:42.709264  2690 net.cpp:122] Setting up res2a_branch2b
I1227 20:37:42.709283  2690 net.cpp:129] Top shape: 50 64 56 56 (10035200)
I1227 20:37:42.709292  2690 net.cpp:137] Memory required for data: 1354752800
I1227 20:37:42.709302  2690 layer_factory.hpp:77] Creating layer bn2a_branch2b
I1227 20:37:42.709316  2690 net.cpp:84] Creating Layer bn2a_branch2b
I1227 20:37:42.709326  2690 net.cpp:406] bn2a_branch2b <- res2a_branch2b
I1227 20:37:42.709336  2690 net.cpp:367] bn2a_branch2b -> res2a_branch2b (in-place)
I1227 20:37:42.709509  2690 net.cpp:122] Setting up bn2a_branch2b
I1227 20:37:42.709525  2690 net.cpp:129] Top shape: 50 64 56 56 (10035200)
I1227 20:37:42.709534  2690 net.cpp:137] Memory required for data: 1394893600
I1227 20:37:42.709547  2690 layer_factory.hpp:77] Creating layer scale2a_branch2b
I1227 20:37:42.709560  2690 net.cpp:84] Creating Layer scale2a_branch2b
I1227 20:37:42.709569  2690 net.cpp:406] scale2a_branch2b <- res2a_branch2b
I1227 20:37:42.709581  2690 net.cpp:367] scale2a_branch2b -> res2a_branch2b (in-place)
I1227 20:37:42.709626  2690 layer_factory.hpp:77] Creating layer scale2a_branch2b
I1227 20:37:42.709744  2690 net.cpp:122] Setting up scale2a_branch2b
I1227 20:37:42.709761  2690 net.cpp:129] Top shape: 50 64 56 56 (10035200)
I1227 20:37:42.709770  2690 net.cpp:137] Memory required for data: 1435034400
I1227 20:37:42.709781  2690 layer_factory.hpp:77] Creating layer quantized_res2a_branch2b
I1227 20:37:42.709794  2690 net.cpp:84] Creating Layer quantized_res2a_branch2b
I1227 20:37:42.709805  2690 net.cpp:406] quantized_res2a_branch2b <- res2a_branch2b
I1227 20:37:42.709815  2690 net.cpp:367] quantized_res2a_branch2b -> res2a_branch2b (in-place)
I1227 20:37:42.709828  2690 net.cpp:122] Setting up quantized_res2a_branch2b
I1227 20:37:42.709839  2690 net.cpp:129] Top shape: 50 64 56 56 (10035200)
I1227 20:37:42.709847  2690 net.cpp:137] Memory required for data: 1475175200
I1227 20:37:42.709856  2690 layer_factory.hpp:77] Creating layer res2a
I1227 20:37:42.709874  2690 net.cpp:84] Creating Layer res2a
I1227 20:37:42.709883  2690 net.cpp:406] res2a <- res2a_branch1
I1227 20:37:42.709893  2690 net.cpp:406] res2a <- res2a_branch2b
I1227 20:37:42.709905  2690 net.cpp:380] res2a -> res2a
I1227 20:37:42.709944  2690 net.cpp:122] Setting up res2a
I1227 20:37:42.709960  2690 net.cpp:129] Top shape: 50 64 56 56 (10035200)
I1227 20:37:42.709969  2690 net.cpp:137] Memory required for data: 1515316000
I1227 20:37:42.709978  2690 layer_factory.hpp:77] Creating layer res2a_relu
I1227 20:37:42.709990  2690 net.cpp:84] Creating Layer res2a_relu
I1227 20:37:42.709998  2690 net.cpp:406] res2a_relu <- res2a
I1227 20:37:42.710009  2690 net.cpp:367] res2a_relu -> res2a (in-place)
I1227 20:37:42.710021  2690 net.cpp:122] Setting up res2a_relu
I1227 20:37:42.710031  2690 net.cpp:129] Top shape: 50 64 56 56 (10035200)
I1227 20:37:42.710041  2690 net.cpp:137] Memory required for data: 1555456800
I1227 20:37:42.710048  2690 layer_factory.hpp:77] Creating layer quantized_res2a
I1227 20:37:42.710059  2690 net.cpp:84] Creating Layer quantized_res2a
I1227 20:37:42.710068  2690 net.cpp:406] quantized_res2a <- res2a
I1227 20:37:42.710079  2690 net.cpp:367] quantized_res2a -> res2a (in-place)
I1227 20:37:42.710091  2690 net.cpp:122] Setting up quantized_res2a
I1227 20:37:42.710101  2690 net.cpp:129] Top shape: 50 64 56 56 (10035200)
I1227 20:37:42.710109  2690 net.cpp:137] Memory required for data: 1595597600
I1227 20:37:42.710117  2690 layer_factory.hpp:77] Creating layer res2a_quantized_res2a_0_split
I1227 20:37:42.710129  2690 net.cpp:84] Creating Layer res2a_quantized_res2a_0_split
I1227 20:37:42.710139  2690 net.cpp:406] res2a_quantized_res2a_0_split <- res2a
I1227 20:37:42.710150  2690 net.cpp:380] res2a_quantized_res2a_0_split -> res2a_quantized_res2a_0_split_0
I1227 20:37:42.710162  2690 net.cpp:380] res2a_quantized_res2a_0_split -> res2a_quantized_res2a_0_split_1
I1227 20:37:42.710201  2690 net.cpp:122] Setting up res2a_quantized_res2a_0_split
I1227 20:37:42.710230  2690 net.cpp:129] Top shape: 50 64 56 56 (10035200)
I1227 20:37:42.710242  2690 net.cpp:129] Top shape: 50 64 56 56 (10035200)
I1227 20:37:42.710249  2690 net.cpp:137] Memory required for data: 1675879200
I1227 20:37:42.710258  2690 layer_factory.hpp:77] Creating layer res2b_branch2a
I1227 20:37:42.710274  2690 net.cpp:84] Creating Layer res2b_branch2a
I1227 20:37:42.710284  2690 net.cpp:406] res2b_branch2a <- res2a_quantized_res2a_0_split_0
I1227 20:37:42.710297  2690 net.cpp:380] res2b_branch2a -> res2b_branch2a
I1227 20:37:42.711635  2690 net.cpp:122] Setting up res2b_branch2a
I1227 20:37:42.711655  2690 net.cpp:129] Top shape: 50 64 56 56 (10035200)
I1227 20:37:42.711665  2690 net.cpp:137] Memory required for data: 1716020000
I1227 20:37:42.711675  2690 layer_factory.hpp:77] Creating layer bn2b_branch2a
I1227 20:37:42.711688  2690 net.cpp:84] Creating Layer bn2b_branch2a
I1227 20:37:42.711697  2690 net.cpp:406] bn2b_branch2a <- res2b_branch2a
I1227 20:37:42.711709  2690 net.cpp:367] bn2b_branch2a -> res2b_branch2a (in-place)
I1227 20:37:42.711880  2690 net.cpp:122] Setting up bn2b_branch2a
I1227 20:37:42.711897  2690 net.cpp:129] Top shape: 50 64 56 56 (10035200)
I1227 20:37:42.711905  2690 net.cpp:137] Memory required for data: 1756160800
I1227 20:37:42.711918  2690 layer_factory.hpp:77] Creating layer scale2b_branch2a
I1227 20:37:42.711931  2690 net.cpp:84] Creating Layer scale2b_branch2a
I1227 20:37:42.711941  2690 net.cpp:406] scale2b_branch2a <- res2b_branch2a
I1227 20:37:42.711951  2690 net.cpp:367] scale2b_branch2a -> res2b_branch2a (in-place)
I1227 20:37:42.711997  2690 layer_factory.hpp:77] Creating layer scale2b_branch2a
I1227 20:37:42.712113  2690 net.cpp:122] Setting up scale2b_branch2a
I1227 20:37:42.712129  2690 net.cpp:129] Top shape: 50 64 56 56 (10035200)
I1227 20:37:42.712138  2690 net.cpp:137] Memory required for data: 1796301600
I1227 20:37:42.712149  2690 layer_factory.hpp:77] Creating layer res2b_branch2a_relu
I1227 20:37:42.712162  2690 net.cpp:84] Creating Layer res2b_branch2a_relu
I1227 20:37:42.712172  2690 net.cpp:406] res2b_branch2a_relu <- res2b_branch2a
I1227 20:37:42.712182  2690 net.cpp:367] res2b_branch2a_relu -> res2b_branch2a (in-place)
I1227 20:37:42.712194  2690 net.cpp:122] Setting up res2b_branch2a_relu
I1227 20:37:42.712205  2690 net.cpp:129] Top shape: 50 64 56 56 (10035200)
I1227 20:37:42.712214  2690 net.cpp:137] Memory required for data: 1836442400
I1227 20:37:42.712222  2690 layer_factory.hpp:77] Creating layer quantized_res2b_branch2a
I1227 20:37:42.712234  2690 net.cpp:84] Creating Layer quantized_res2b_branch2a
I1227 20:37:42.712244  2690 net.cpp:406] quantized_res2b_branch2a <- res2b_branch2a
I1227 20:37:42.712255  2690 net.cpp:367] quantized_res2b_branch2a -> res2b_branch2a (in-place)
I1227 20:37:42.712265  2690 net.cpp:122] Setting up quantized_res2b_branch2a
I1227 20:37:42.712276  2690 net.cpp:129] Top shape: 50 64 56 56 (10035200)
I1227 20:37:42.712285  2690 net.cpp:137] Memory required for data: 1876583200
I1227 20:37:42.712292  2690 layer_factory.hpp:77] Creating layer res2b_branch2b
I1227 20:37:42.712307  2690 net.cpp:84] Creating Layer res2b_branch2b
I1227 20:37:42.712316  2690 net.cpp:406] res2b_branch2b <- res2b_branch2a
I1227 20:37:42.712328  2690 net.cpp:380] res2b_branch2b -> res2b_branch2b
I1227 20:37:42.713655  2690 net.cpp:122] Setting up res2b_branch2b
I1227 20:37:42.713675  2690 net.cpp:129] Top shape: 50 64 56 56 (10035200)
I1227 20:37:42.713683  2690 net.cpp:137] Memory required for data: 1916724000
I1227 20:37:42.713695  2690 layer_factory.hpp:77] Creating layer bn2b_branch2b
I1227 20:37:42.713708  2690 net.cpp:84] Creating Layer bn2b_branch2b
I1227 20:37:42.713718  2690 net.cpp:406] bn2b_branch2b <- res2b_branch2b
I1227 20:37:42.713729  2690 net.cpp:367] bn2b_branch2b -> res2b_branch2b (in-place)
I1227 20:37:42.713899  2690 net.cpp:122] Setting up bn2b_branch2b
I1227 20:37:42.713917  2690 net.cpp:129] Top shape: 50 64 56 56 (10035200)
I1227 20:37:42.713925  2690 net.cpp:137] Memory required for data: 1956864800
I1227 20:37:42.713958  2690 layer_factory.hpp:77] Creating layer scale2b_branch2b
I1227 20:37:42.713973  2690 net.cpp:84] Creating Layer scale2b_branch2b
I1227 20:37:42.713982  2690 net.cpp:406] scale2b_branch2b <- res2b_branch2b
I1227 20:37:42.713992  2690 net.cpp:367] scale2b_branch2b -> res2b_branch2b (in-place)
I1227 20:37:42.714040  2690 layer_factory.hpp:77] Creating layer scale2b_branch2b
I1227 20:37:42.714157  2690 net.cpp:122] Setting up scale2b_branch2b
I1227 20:37:42.714174  2690 net.cpp:129] Top shape: 50 64 56 56 (10035200)
I1227 20:37:42.714184  2690 net.cpp:137] Memory required for data: 1997005600
I1227 20:37:42.714195  2690 layer_factory.hpp:77] Creating layer quantized_res2b_branch2b
I1227 20:37:42.714208  2690 net.cpp:84] Creating Layer quantized_res2b_branch2b
I1227 20:37:42.714218  2690 net.cpp:406] quantized_res2b_branch2b <- res2b_branch2b
I1227 20:37:42.714229  2690 net.cpp:367] quantized_res2b_branch2b -> res2b_branch2b (in-place)
I1227 20:37:42.714242  2690 net.cpp:122] Setting up quantized_res2b_branch2b
I1227 20:37:42.714253  2690 net.cpp:129] Top shape: 50 64 56 56 (10035200)
I1227 20:37:42.714262  2690 net.cpp:137] Memory required for data: 2037146400
I1227 20:37:42.714269  2690 layer_factory.hpp:77] Creating layer res2b
I1227 20:37:42.714280  2690 net.cpp:84] Creating Layer res2b
I1227 20:37:42.714290  2690 net.cpp:406] res2b <- res2a_quantized_res2a_0_split_1
I1227 20:37:42.714299  2690 net.cpp:406] res2b <- res2b_branch2b
I1227 20:37:42.714310  2690 net.cpp:380] res2b -> res2b
I1227 20:37:42.714340  2690 net.cpp:122] Setting up res2b
I1227 20:37:42.714355  2690 net.cpp:129] Top shape: 50 64 56 56 (10035200)
I1227 20:37:42.714365  2690 net.cpp:137] Memory required for data: 2077287200
I1227 20:37:42.714372  2690 layer_factory.hpp:77] Creating layer res2b_relu
I1227 20:37:42.714385  2690 net.cpp:84] Creating Layer res2b_relu
I1227 20:37:42.714393  2690 net.cpp:406] res2b_relu <- res2b
I1227 20:37:42.714404  2690 net.cpp:367] res2b_relu -> res2b (in-place)
I1227 20:37:42.714416  2690 net.cpp:122] Setting up res2b_relu
I1227 20:37:42.714427  2690 net.cpp:129] Top shape: 50 64 56 56 (10035200)
I1227 20:37:42.714435  2690 net.cpp:137] Memory required for data: 2117428000
I1227 20:37:42.714443  2690 layer_factory.hpp:77] Creating layer quantized_res2b
I1227 20:37:42.714454  2690 net.cpp:84] Creating Layer quantized_res2b
I1227 20:37:42.714463  2690 net.cpp:406] quantized_res2b <- res2b
I1227 20:37:42.714474  2690 net.cpp:367] quantized_res2b -> res2b (in-place)
I1227 20:37:42.714486  2690 net.cpp:122] Setting up quantized_res2b
I1227 20:37:42.714496  2690 net.cpp:129] Top shape: 50 64 56 56 (10035200)
I1227 20:37:42.714504  2690 net.cpp:137] Memory required for data: 2157568800
I1227 20:37:42.714512  2690 layer_factory.hpp:77] Creating layer res2b_quantized_res2b_0_split
I1227 20:37:42.714524  2690 net.cpp:84] Creating Layer res2b_quantized_res2b_0_split
I1227 20:37:42.714532  2690 net.cpp:406] res2b_quantized_res2b_0_split <- res2b
I1227 20:37:42.714543  2690 net.cpp:380] res2b_quantized_res2b_0_split -> res2b_quantized_res2b_0_split_0
I1227 20:37:42.714556  2690 net.cpp:380] res2b_quantized_res2b_0_split -> res2b_quantized_res2b_0_split_1
I1227 20:37:42.714596  2690 net.cpp:122] Setting up res2b_quantized_res2b_0_split
I1227 20:37:42.714612  2690 net.cpp:129] Top shape: 50 64 56 56 (10035200)
I1227 20:37:42.714622  2690 net.cpp:129] Top shape: 50 64 56 56 (10035200)
I1227 20:37:42.714629  2690 net.cpp:137] Memory required for data: 2237850400
I1227 20:37:42.714637  2690 layer_factory.hpp:77] Creating layer res3a_branch1
I1227 20:37:42.714653  2690 net.cpp:84] Creating Layer res3a_branch1
I1227 20:37:42.714661  2690 net.cpp:406] res3a_branch1 <- res2b_quantized_res2b_0_split_0
I1227 20:37:42.714674  2690 net.cpp:380] res3a_branch1 -> res3a_branch1
I1227 20:37:42.715149  2690 net.cpp:122] Setting up res3a_branch1
I1227 20:37:42.715167  2690 net.cpp:129] Top shape: 50 128 28 28 (5017600)
I1227 20:37:42.715176  2690 net.cpp:137] Memory required for data: 2257920800
I1227 20:37:42.715199  2690 layer_factory.hpp:77] Creating layer bn3a_branch1
I1227 20:37:42.715212  2690 net.cpp:84] Creating Layer bn3a_branch1
I1227 20:37:42.715222  2690 net.cpp:406] bn3a_branch1 <- res3a_branch1
I1227 20:37:42.715234  2690 net.cpp:367] bn3a_branch1 -> res3a_branch1 (in-place)
I1227 20:37:42.716545  2690 net.cpp:122] Setting up bn3a_branch1
I1227 20:37:42.716567  2690 net.cpp:129] Top shape: 50 128 28 28 (5017600)
I1227 20:37:42.716576  2690 net.cpp:137] Memory required for data: 2277991200
I1227 20:37:42.716590  2690 layer_factory.hpp:77] Creating layer scale3a_branch1
I1227 20:37:42.716604  2690 net.cpp:84] Creating Layer scale3a_branch1
I1227 20:37:42.716614  2690 net.cpp:406] scale3a_branch1 <- res3a_branch1
I1227 20:37:42.716626  2690 net.cpp:367] scale3a_branch1 -> res3a_branch1 (in-place)
I1227 20:37:42.716675  2690 layer_factory.hpp:77] Creating layer scale3a_branch1
I1227 20:37:42.716779  2690 net.cpp:122] Setting up scale3a_branch1
I1227 20:37:42.716796  2690 net.cpp:129] Top shape: 50 128 28 28 (5017600)
I1227 20:37:42.716805  2690 net.cpp:137] Memory required for data: 2298061600
I1227 20:37:42.716817  2690 layer_factory.hpp:77] Creating layer quantized_res3a_branch1
I1227 20:37:42.716830  2690 net.cpp:84] Creating Layer quantized_res3a_branch1
I1227 20:37:42.716840  2690 net.cpp:406] quantized_res3a_branch1 <- res3a_branch1
I1227 20:37:42.716851  2690 net.cpp:367] quantized_res3a_branch1 -> res3a_branch1 (in-place)
I1227 20:37:42.716864  2690 net.cpp:122] Setting up quantized_res3a_branch1
I1227 20:37:42.716876  2690 net.cpp:129] Top shape: 50 128 28 28 (5017600)
I1227 20:37:42.716884  2690 net.cpp:137] Memory required for data: 2318132000
I1227 20:37:42.716892  2690 layer_factory.hpp:77] Creating layer res3a_branch2a
I1227 20:37:42.716908  2690 net.cpp:84] Creating Layer res3a_branch2a
I1227 20:37:42.716918  2690 net.cpp:406] res3a_branch2a <- res2b_quantized_res2b_0_split_1
I1227 20:37:42.716931  2690 net.cpp:380] res3a_branch2a -> res3a_branch2a
I1227 20:37:42.719498  2690 net.cpp:122] Setting up res3a_branch2a
I1227 20:37:42.719517  2690 net.cpp:129] Top shape: 50 128 28 28 (5017600)
I1227 20:37:42.719527  2690 net.cpp:137] Memory required for data: 2338202400
I1227 20:37:42.719537  2690 layer_factory.hpp:77] Creating layer bn3a_branch2a
I1227 20:37:42.719550  2690 net.cpp:84] Creating Layer bn3a_branch2a
I1227 20:37:42.719560  2690 net.cpp:406] bn3a_branch2a <- res3a_branch2a
I1227 20:37:42.719570  2690 net.cpp:367] bn3a_branch2a -> res3a_branch2a (in-place)
I1227 20:37:42.719738  2690 net.cpp:122] Setting up bn3a_branch2a
I1227 20:37:42.719754  2690 net.cpp:129] Top shape: 50 128 28 28 (5017600)
I1227 20:37:42.719763  2690 net.cpp:137] Memory required for data: 2358272800
I1227 20:37:42.719776  2690 layer_factory.hpp:77] Creating layer scale3a_branch2a
I1227 20:37:42.719789  2690 net.cpp:84] Creating Layer scale3a_branch2a
I1227 20:37:42.719799  2690 net.cpp:406] scale3a_branch2a <- res3a_branch2a
I1227 20:37:42.719810  2690 net.cpp:367] scale3a_branch2a -> res3a_branch2a (in-place)
I1227 20:37:42.719856  2690 layer_factory.hpp:77] Creating layer scale3a_branch2a
I1227 20:37:42.719962  2690 net.cpp:122] Setting up scale3a_branch2a
I1227 20:37:42.719979  2690 net.cpp:129] Top shape: 50 128 28 28 (5017600)
I1227 20:37:42.719987  2690 net.cpp:137] Memory required for data: 2378343200
I1227 20:37:42.720000  2690 layer_factory.hpp:77] Creating layer res3a_branch2a_relu
I1227 20:37:42.720011  2690 net.cpp:84] Creating Layer res3a_branch2a_relu
I1227 20:37:42.720021  2690 net.cpp:406] res3a_branch2a_relu <- res3a_branch2a
I1227 20:37:42.720032  2690 net.cpp:367] res3a_branch2a_relu -> res3a_branch2a (in-place)
I1227 20:37:42.720044  2690 net.cpp:122] Setting up res3a_branch2a_relu
I1227 20:37:42.720054  2690 net.cpp:129] Top shape: 50 128 28 28 (5017600)
I1227 20:37:42.720063  2690 net.cpp:137] Memory required for data: 2398413600
I1227 20:37:42.720072  2690 layer_factory.hpp:77] Creating layer quantized_res3a_branch2a
I1227 20:37:42.720082  2690 net.cpp:84] Creating Layer quantized_res3a_branch2a
I1227 20:37:42.720109  2690 net.cpp:406] quantized_res3a_branch2a <- res3a_branch2a
I1227 20:37:42.720122  2690 net.cpp:367] quantized_res3a_branch2a -> res3a_branch2a (in-place)
I1227 20:37:42.720135  2690 net.cpp:122] Setting up quantized_res3a_branch2a
I1227 20:37:42.720146  2690 net.cpp:129] Top shape: 50 128 28 28 (5017600)
I1227 20:37:42.720155  2690 net.cpp:137] Memory required for data: 2418484000
I1227 20:37:42.720163  2690 layer_factory.hpp:77] Creating layer res3a_branch2b
I1227 20:37:42.720178  2690 net.cpp:84] Creating Layer res3a_branch2b
I1227 20:37:42.720188  2690 net.cpp:406] res3a_branch2b <- res3a_branch2a
I1227 20:37:42.720201  2690 net.cpp:380] res3a_branch2b -> res3a_branch2b
I1227 20:37:42.725023  2690 net.cpp:122] Setting up res3a_branch2b
I1227 20:37:42.725049  2690 net.cpp:129] Top shape: 50 128 28 28 (5017600)
I1227 20:37:42.725057  2690 net.cpp:137] Memory required for data: 2438554400
I1227 20:37:42.725069  2690 layer_factory.hpp:77] Creating layer bn3a_branch2b
I1227 20:37:42.725082  2690 net.cpp:84] Creating Layer bn3a_branch2b
I1227 20:37:42.725092  2690 net.cpp:406] bn3a_branch2b <- res3a_branch2b
I1227 20:37:42.725106  2690 net.cpp:367] bn3a_branch2b -> res3a_branch2b (in-place)
I1227 20:37:42.725284  2690 net.cpp:122] Setting up bn3a_branch2b
I1227 20:37:42.725303  2690 net.cpp:129] Top shape: 50 128 28 28 (5017600)
I1227 20:37:42.725312  2690 net.cpp:137] Memory required for data: 2458624800
I1227 20:37:42.725325  2690 layer_factory.hpp:77] Creating layer scale3a_branch2b
I1227 20:37:42.725338  2690 net.cpp:84] Creating Layer scale3a_branch2b
I1227 20:37:42.725348  2690 net.cpp:406] scale3a_branch2b <- res3a_branch2b
I1227 20:37:42.725359  2690 net.cpp:367] scale3a_branch2b -> res3a_branch2b (in-place)
I1227 20:37:42.725409  2690 layer_factory.hpp:77] Creating layer scale3a_branch2b
I1227 20:37:42.725525  2690 net.cpp:122] Setting up scale3a_branch2b
I1227 20:37:42.725543  2690 net.cpp:129] Top shape: 50 128 28 28 (5017600)
I1227 20:37:42.725551  2690 net.cpp:137] Memory required for data: 2478695200
I1227 20:37:42.725563  2690 layer_factory.hpp:77] Creating layer quantized_res3a_branch2b
I1227 20:37:42.725579  2690 net.cpp:84] Creating Layer quantized_res3a_branch2b
I1227 20:37:42.725589  2690 net.cpp:406] quantized_res3a_branch2b <- res3a_branch2b
I1227 20:37:42.725600  2690 net.cpp:367] quantized_res3a_branch2b -> res3a_branch2b (in-place)
I1227 20:37:42.725612  2690 net.cpp:122] Setting up quantized_res3a_branch2b
I1227 20:37:42.725622  2690 net.cpp:129] Top shape: 50 128 28 28 (5017600)
I1227 20:37:42.725630  2690 net.cpp:137] Memory required for data: 2498765600
I1227 20:37:42.725639  2690 layer_factory.hpp:77] Creating layer res3a
I1227 20:37:42.725651  2690 net.cpp:84] Creating Layer res3a
I1227 20:37:42.725661  2690 net.cpp:406] res3a <- res3a_branch1
I1227 20:37:42.725670  2690 net.cpp:406] res3a <- res3a_branch2b
I1227 20:37:42.725680  2690 net.cpp:380] res3a -> res3a
I1227 20:37:42.725715  2690 net.cpp:122] Setting up res3a
I1227 20:37:42.725729  2690 net.cpp:129] Top shape: 50 128 28 28 (5017600)
I1227 20:37:42.725739  2690 net.cpp:137] Memory required for data: 2518836000
I1227 20:37:42.725747  2690 layer_factory.hpp:77] Creating layer res3a_relu
I1227 20:37:42.725761  2690 net.cpp:84] Creating Layer res3a_relu
I1227 20:37:42.725771  2690 net.cpp:406] res3a_relu <- res3a
I1227 20:37:42.725781  2690 net.cpp:367] res3a_relu -> res3a (in-place)
I1227 20:37:42.725793  2690 net.cpp:122] Setting up res3a_relu
I1227 20:37:42.725805  2690 net.cpp:129] Top shape: 50 128 28 28 (5017600)
I1227 20:37:42.725812  2690 net.cpp:137] Memory required for data: 2538906400
I1227 20:37:42.725821  2690 layer_factory.hpp:77] Creating layer quantized_res3a
I1227 20:37:42.725831  2690 net.cpp:84] Creating Layer quantized_res3a
I1227 20:37:42.725841  2690 net.cpp:406] quantized_res3a <- res3a
I1227 20:37:42.725850  2690 net.cpp:367] quantized_res3a -> res3a (in-place)
I1227 20:37:42.725862  2690 net.cpp:122] Setting up quantized_res3a
I1227 20:37:42.725872  2690 net.cpp:129] Top shape: 50 128 28 28 (5017600)
I1227 20:37:42.725901  2690 net.cpp:137] Memory required for data: 2558976800
I1227 20:37:42.725911  2690 layer_factory.hpp:77] Creating layer res3a_quantized_res3a_0_split
I1227 20:37:42.725924  2690 net.cpp:84] Creating Layer res3a_quantized_res3a_0_split
I1227 20:37:42.725934  2690 net.cpp:406] res3a_quantized_res3a_0_split <- res3a
I1227 20:37:42.725946  2690 net.cpp:380] res3a_quantized_res3a_0_split -> res3a_quantized_res3a_0_split_0
I1227 20:37:42.725960  2690 net.cpp:380] res3a_quantized_res3a_0_split -> res3a_quantized_res3a_0_split_1
I1227 20:37:42.726006  2690 net.cpp:122] Setting up res3a_quantized_res3a_0_split
I1227 20:37:42.726022  2690 net.cpp:129] Top shape: 50 128 28 28 (5017600)
I1227 20:37:42.726032  2690 net.cpp:129] Top shape: 50 128 28 28 (5017600)
I1227 20:37:42.726039  2690 net.cpp:137] Memory required for data: 2599117600
I1227 20:37:42.726048  2690 layer_factory.hpp:77] Creating layer res3b_branch2a
I1227 20:37:42.726063  2690 net.cpp:84] Creating Layer res3b_branch2a
I1227 20:37:42.726073  2690 net.cpp:406] res3b_branch2a <- res3a_quantized_res3a_0_split_0
I1227 20:37:42.726085  2690 net.cpp:380] res3b_branch2a -> res3b_branch2a
I1227 20:37:42.732247  2690 net.cpp:122] Setting up res3b_branch2a
I1227 20:37:42.732288  2690 net.cpp:129] Top shape: 50 128 28 28 (5017600)
I1227 20:37:42.732298  2690 net.cpp:137] Memory required for data: 2619188000
I1227 20:37:42.732312  2690 layer_factory.hpp:77] Creating layer bn3b_branch2a
I1227 20:37:42.732331  2690 net.cpp:84] Creating Layer bn3b_branch2a
I1227 20:37:42.732342  2690 net.cpp:406] bn3b_branch2a <- res3b_branch2a
I1227 20:37:42.732354  2690 net.cpp:367] bn3b_branch2a -> res3b_branch2a (in-place)
I1227 20:37:42.732547  2690 net.cpp:122] Setting up bn3b_branch2a
I1227 20:37:42.732564  2690 net.cpp:129] Top shape: 50 128 28 28 (5017600)
I1227 20:37:42.732573  2690 net.cpp:137] Memory required for data: 2639258400
I1227 20:37:42.732585  2690 layer_factory.hpp:77] Creating layer scale3b_branch2a
I1227 20:37:42.732601  2690 net.cpp:84] Creating Layer scale3b_branch2a
I1227 20:37:42.732611  2690 net.cpp:406] scale3b_branch2a <- res3b_branch2a
I1227 20:37:42.732622  2690 net.cpp:367] scale3b_branch2a -> res3b_branch2a (in-place)
I1227 20:37:42.732677  2690 layer_factory.hpp:77] Creating layer scale3b_branch2a
I1227 20:37:42.732800  2690 net.cpp:122] Setting up scale3b_branch2a
I1227 20:37:42.732816  2690 net.cpp:129] Top shape: 50 128 28 28 (5017600)
I1227 20:37:42.732826  2690 net.cpp:137] Memory required for data: 2659328800
I1227 20:37:42.732838  2690 layer_factory.hpp:77] Creating layer res3b_branch2a_relu
I1227 20:37:42.732851  2690 net.cpp:84] Creating Layer res3b_branch2a_relu
I1227 20:37:42.732861  2690 net.cpp:406] res3b_branch2a_relu <- res3b_branch2a
I1227 20:37:42.732874  2690 net.cpp:367] res3b_branch2a_relu -> res3b_branch2a (in-place)
I1227 20:37:42.732887  2690 net.cpp:122] Setting up res3b_branch2a_relu
I1227 20:37:42.732898  2690 net.cpp:129] Top shape: 50 128 28 28 (5017600)
I1227 20:37:42.732906  2690 net.cpp:137] Memory required for data: 2679399200
I1227 20:37:42.732914  2690 layer_factory.hpp:77] Creating layer quantized_res3b_branch2a
I1227 20:37:42.732928  2690 net.cpp:84] Creating Layer quantized_res3b_branch2a
I1227 20:37:42.732936  2690 net.cpp:406] quantized_res3b_branch2a <- res3b_branch2a
I1227 20:37:42.732949  2690 net.cpp:367] quantized_res3b_branch2a -> res3b_branch2a (in-place)
I1227 20:37:42.732966  2690 net.cpp:122] Setting up quantized_res3b_branch2a
I1227 20:37:42.732976  2690 net.cpp:129] Top shape: 50 128 28 28 (5017600)
I1227 20:37:42.732985  2690 net.cpp:137] Memory required for data: 2699469600
I1227 20:37:42.732993  2690 layer_factory.hpp:77] Creating layer res3b_branch2b
I1227 20:37:42.733009  2690 net.cpp:84] Creating Layer res3b_branch2b
I1227 20:37:42.733018  2690 net.cpp:406] res3b_branch2b <- res3b_branch2a
I1227 20:37:42.733031  2690 net.cpp:380] res3b_branch2b -> res3b_branch2b
I1227 20:37:42.738386  2690 net.cpp:122] Setting up res3b_branch2b
I1227 20:37:42.738422  2690 net.cpp:129] Top shape: 50 128 28 28 (5017600)
I1227 20:37:42.738461  2690 net.cpp:137] Memory required for data: 2719540000
I1227 20:37:42.738477  2690 layer_factory.hpp:77] Creating layer bn3b_branch2b
I1227 20:37:42.738498  2690 net.cpp:84] Creating Layer bn3b_branch2b
I1227 20:37:42.738512  2690 net.cpp:406] bn3b_branch2b <- res3b_branch2b
I1227 20:37:42.738525  2690 net.cpp:367] bn3b_branch2b -> res3b_branch2b (in-place)
I1227 20:37:42.738723  2690 net.cpp:122] Setting up bn3b_branch2b
I1227 20:37:42.738741  2690 net.cpp:129] Top shape: 50 128 28 28 (5017600)
I1227 20:37:42.738750  2690 net.cpp:137] Memory required for data: 2739610400
I1227 20:37:42.738765  2690 layer_factory.hpp:77] Creating layer scale3b_branch2b
I1227 20:37:42.738778  2690 net.cpp:84] Creating Layer scale3b_branch2b
I1227 20:37:42.738788  2690 net.cpp:406] scale3b_branch2b <- res3b_branch2b
I1227 20:37:42.738801  2690 net.cpp:367] scale3b_branch2b -> res3b_branch2b (in-place)
I1227 20:37:42.738855  2690 layer_factory.hpp:77] Creating layer scale3b_branch2b
I1227 20:37:42.738981  2690 net.cpp:122] Setting up scale3b_branch2b
I1227 20:37:42.738998  2690 net.cpp:129] Top shape: 50 128 28 28 (5017600)
I1227 20:37:42.739008  2690 net.cpp:137] Memory required for data: 2759680800
I1227 20:37:42.739037  2690 layer_factory.hpp:77] Creating layer quantized_res3b_branch2b
I1227 20:37:42.739068  2690 net.cpp:84] Creating Layer quantized_res3b_branch2b
I1227 20:37:42.739080  2690 net.cpp:406] quantized_res3b_branch2b <- res3b_branch2b
I1227 20:37:42.739091  2690 net.cpp:367] quantized_res3b_branch2b -> res3b_branch2b (in-place)
I1227 20:37:42.739105  2690 net.cpp:122] Setting up quantized_res3b_branch2b
I1227 20:37:42.739117  2690 net.cpp:129] Top shape: 50 128 28 28 (5017600)
I1227 20:37:42.739125  2690 net.cpp:137] Memory required for data: 2779751200
I1227 20:37:42.739135  2690 layer_factory.hpp:77] Creating layer res3b
I1227 20:37:42.739147  2690 net.cpp:84] Creating Layer res3b
I1227 20:37:42.739157  2690 net.cpp:406] res3b <- res3a_quantized_res3a_0_split_1
I1227 20:37:42.739167  2690 net.cpp:406] res3b <- res3b_branch2b
I1227 20:37:42.739178  2690 net.cpp:380] res3b -> res3b
I1227 20:37:42.739212  2690 net.cpp:122] Setting up res3b
I1227 20:37:42.739228  2690 net.cpp:129] Top shape: 50 128 28 28 (5017600)
I1227 20:37:42.739236  2690 net.cpp:137] Memory required for data: 2799821600
I1227 20:37:42.739245  2690 layer_factory.hpp:77] Creating layer res3b_relu
I1227 20:37:42.739257  2690 net.cpp:84] Creating Layer res3b_relu
I1227 20:37:42.739267  2690 net.cpp:406] res3b_relu <- res3b
I1227 20:37:42.739281  2690 net.cpp:367] res3b_relu -> res3b (in-place)
I1227 20:37:42.739295  2690 net.cpp:122] Setting up res3b_relu
I1227 20:37:42.739305  2690 net.cpp:129] Top shape: 50 128 28 28 (5017600)
I1227 20:37:42.739313  2690 net.cpp:137] Memory required for data: 2819892000
I1227 20:37:42.739322  2690 layer_factory.hpp:77] Creating layer quantized_res3b
I1227 20:37:42.739333  2690 net.cpp:84] Creating Layer quantized_res3b
I1227 20:37:42.739342  2690 net.cpp:406] quantized_res3b <- res3b
I1227 20:37:42.739353  2690 net.cpp:367] quantized_res3b -> res3b (in-place)
I1227 20:37:42.739365  2690 net.cpp:122] Setting up quantized_res3b
I1227 20:37:42.739377  2690 net.cpp:129] Top shape: 50 128 28 28 (5017600)
I1227 20:37:42.739384  2690 net.cpp:137] Memory required for data: 2839962400
I1227 20:37:42.739393  2690 layer_factory.hpp:77] Creating layer res3b_quantized_res3b_0_split
I1227 20:37:42.739405  2690 net.cpp:84] Creating Layer res3b_quantized_res3b_0_split
I1227 20:37:42.739414  2690 net.cpp:406] res3b_quantized_res3b_0_split <- res3b
I1227 20:37:42.739424  2690 net.cpp:380] res3b_quantized_res3b_0_split -> res3b_quantized_res3b_0_split_0
I1227 20:37:42.739437  2690 net.cpp:380] res3b_quantized_res3b_0_split -> res3b_quantized_res3b_0_split_1
I1227 20:37:42.739487  2690 net.cpp:122] Setting up res3b_quantized_res3b_0_split
I1227 20:37:42.739503  2690 net.cpp:129] Top shape: 50 128 28 28 (5017600)
I1227 20:37:42.739513  2690 net.cpp:129] Top shape: 50 128 28 28 (5017600)
I1227 20:37:42.739534  2690 net.cpp:137] Memory required for data: 2880103200
I1227 20:37:42.739544  2690 layer_factory.hpp:77] Creating layer res4a_branch1
I1227 20:37:42.739564  2690 net.cpp:84] Creating Layer res4a_branch1
I1227 20:37:42.739575  2690 net.cpp:406] res4a_branch1 <- res3b_quantized_res3b_0_split_0
I1227 20:37:42.739588  2690 net.cpp:380] res4a_branch1 -> res4a_branch1
I1227 20:37:42.740862  2690 net.cpp:122] Setting up res4a_branch1
I1227 20:37:42.740882  2690 net.cpp:129] Top shape: 50 256 14 14 (2508800)
I1227 20:37:42.740891  2690 net.cpp:137] Memory required for data: 2890138400
I1227 20:37:42.740902  2690 layer_factory.hpp:77] Creating layer bn4a_branch1
I1227 20:37:42.740914  2690 net.cpp:84] Creating Layer bn4a_branch1
I1227 20:37:42.740924  2690 net.cpp:406] bn4a_branch1 <- res4a_branch1
I1227 20:37:42.740936  2690 net.cpp:367] bn4a_branch1 -> res4a_branch1 (in-place)
I1227 20:37:42.741120  2690 net.cpp:122] Setting up bn4a_branch1
I1227 20:37:42.741137  2690 net.cpp:129] Top shape: 50 256 14 14 (2508800)
I1227 20:37:42.741147  2690 net.cpp:137] Memory required for data: 2900173600
I1227 20:37:42.741159  2690 layer_factory.hpp:77] Creating layer scale4a_branch1
I1227 20:37:42.741173  2690 net.cpp:84] Creating Layer scale4a_branch1
I1227 20:37:42.741183  2690 net.cpp:406] scale4a_branch1 <- res4a_branch1
I1227 20:37:42.741197  2690 net.cpp:367] scale4a_branch1 -> res4a_branch1 (in-place)
I1227 20:37:42.741255  2690 layer_factory.hpp:77] Creating layer scale4a_branch1
I1227 20:37:42.741371  2690 net.cpp:122] Setting up scale4a_branch1
I1227 20:37:42.741389  2690 net.cpp:129] Top shape: 50 256 14 14 (2508800)
I1227 20:37:42.741397  2690 net.cpp:137] Memory required for data: 2910208800
I1227 20:37:42.741410  2690 layer_factory.hpp:77] Creating layer quantized_res4a_branch1
I1227 20:37:42.741421  2690 net.cpp:84] Creating Layer quantized_res4a_branch1
I1227 20:37:42.741431  2690 net.cpp:406] quantized_res4a_branch1 <- res4a_branch1
I1227 20:37:42.741446  2690 net.cpp:367] quantized_res4a_branch1 -> res4a_branch1 (in-place)
I1227 20:37:42.741458  2690 net.cpp:122] Setting up quantized_res4a_branch1
I1227 20:37:42.741469  2690 net.cpp:129] Top shape: 50 256 14 14 (2508800)
I1227 20:37:42.741477  2690 net.cpp:137] Memory required for data: 2920244000
I1227 20:37:42.741487  2690 layer_factory.hpp:77] Creating layer res4a_branch2a
I1227 20:37:42.741500  2690 net.cpp:84] Creating Layer res4a_branch2a
I1227 20:37:42.741509  2690 net.cpp:406] res4a_branch2a <- res3b_quantized_res3b_0_split_1
I1227 20:37:42.741524  2690 net.cpp:380] res4a_branch2a -> res4a_branch2a
I1227 20:37:42.752638  2690 net.cpp:122] Setting up res4a_branch2a
I1227 20:37:42.752660  2690 net.cpp:129] Top shape: 50 256 14 14 (2508800)
I1227 20:37:42.752670  2690 net.cpp:137] Memory required for data: 2930279200
I1227 20:37:42.752681  2690 layer_factory.hpp:77] Creating layer bn4a_branch2a
I1227 20:37:42.752696  2690 net.cpp:84] Creating Layer bn4a_branch2a
I1227 20:37:42.752707  2690 net.cpp:406] bn4a_branch2a <- res4a_branch2a
I1227 20:37:42.752717  2690 net.cpp:367] bn4a_branch2a -> res4a_branch2a (in-place)
I1227 20:37:42.752908  2690 net.cpp:122] Setting up bn4a_branch2a
I1227 20:37:42.752925  2690 net.cpp:129] Top shape: 50 256 14 14 (2508800)
I1227 20:37:42.752934  2690 net.cpp:137] Memory required for data: 2940314400
I1227 20:37:42.752948  2690 layer_factory.hpp:77] Creating layer scale4a_branch2a
I1227 20:37:42.752961  2690 net.cpp:84] Creating Layer scale4a_branch2a
I1227 20:37:42.752970  2690 net.cpp:406] scale4a_branch2a <- res4a_branch2a
I1227 20:37:42.752988  2690 net.cpp:367] scale4a_branch2a -> res4a_branch2a (in-place)
I1227 20:37:42.753036  2690 layer_factory.hpp:77] Creating layer scale4a_branch2a
I1227 20:37:42.753152  2690 net.cpp:122] Setting up scale4a_branch2a
I1227 20:37:42.753170  2690 net.cpp:129] Top shape: 50 256 14 14 (2508800)
I1227 20:37:42.753177  2690 net.cpp:137] Memory required for data: 2950349600
I1227 20:37:42.753190  2690 layer_factory.hpp:77] Creating layer res4a_branch2a_relu
I1227 20:37:42.753201  2690 net.cpp:84] Creating Layer res4a_branch2a_relu
I1227 20:37:42.753226  2690 net.cpp:406] res4a_branch2a_relu <- res4a_branch2a
I1227 20:37:42.753237  2690 net.cpp:367] res4a_branch2a_relu -> res4a_branch2a (in-place)
I1227 20:37:42.753250  2690 net.cpp:122] Setting up res4a_branch2a_relu
I1227 20:37:42.753262  2690 net.cpp:129] Top shape: 50 256 14 14 (2508800)
I1227 20:37:42.753270  2690 net.cpp:137] Memory required for data: 2960384800
I1227 20:37:42.753278  2690 layer_factory.hpp:77] Creating layer quantized_res4a_branch2a
I1227 20:37:42.753289  2690 net.cpp:84] Creating Layer quantized_res4a_branch2a
I1227 20:37:42.753299  2690 net.cpp:406] quantized_res4a_branch2a <- res4a_branch2a
I1227 20:37:42.753312  2690 net.cpp:367] quantized_res4a_branch2a -> res4a_branch2a (in-place)
I1227 20:37:42.753324  2690 net.cpp:122] Setting up quantized_res4a_branch2a
I1227 20:37:42.753335  2690 net.cpp:129] Top shape: 50 256 14 14 (2508800)
I1227 20:37:42.753345  2690 net.cpp:137] Memory required for data: 2970420000
I1227 20:37:42.753353  2690 layer_factory.hpp:77] Creating layer res4a_branch2b
I1227 20:37:42.753370  2690 net.cpp:84] Creating Layer res4a_branch2b
I1227 20:37:42.753381  2690 net.cpp:406] res4a_branch2b <- res4a_branch2a
I1227 20:37:42.753392  2690 net.cpp:380] res4a_branch2b -> res4a_branch2b
I1227 20:37:42.774088  2690 net.cpp:122] Setting up res4a_branch2b
I1227 20:37:42.774114  2690 net.cpp:129] Top shape: 50 256 14 14 (2508800)
I1227 20:37:42.774124  2690 net.cpp:137] Memory required for data: 2980455200
I1227 20:37:42.774137  2690 layer_factory.hpp:77] Creating layer bn4a_branch2b
I1227 20:37:42.774149  2690 net.cpp:84] Creating Layer bn4a_branch2b
I1227 20:37:42.774159  2690 net.cpp:406] bn4a_branch2b <- res4a_branch2b
I1227 20:37:42.774170  2690 net.cpp:367] bn4a_branch2b -> res4a_branch2b (in-place)
I1227 20:37:42.774361  2690 net.cpp:122] Setting up bn4a_branch2b
I1227 20:37:42.774379  2690 net.cpp:129] Top shape: 50 256 14 14 (2508800)
I1227 20:37:42.774387  2690 net.cpp:137] Memory required for data: 2990490400
I1227 20:37:42.774401  2690 layer_factory.hpp:77] Creating layer scale4a_branch2b
I1227 20:37:42.774417  2690 net.cpp:84] Creating Layer scale4a_branch2b
I1227 20:37:42.774427  2690 net.cpp:406] scale4a_branch2b <- res4a_branch2b
I1227 20:37:42.774438  2690 net.cpp:367] scale4a_branch2b -> res4a_branch2b (in-place)
I1227 20:37:42.774490  2690 layer_factory.hpp:77] Creating layer scale4a_branch2b
I1227 20:37:42.774615  2690 net.cpp:122] Setting up scale4a_branch2b
I1227 20:37:42.774631  2690 net.cpp:129] Top shape: 50 256 14 14 (2508800)
I1227 20:37:42.774641  2690 net.cpp:137] Memory required for data: 3000525600
I1227 20:37:42.774652  2690 layer_factory.hpp:77] Creating layer quantized_res4a_branch2b
I1227 20:37:42.774667  2690 net.cpp:84] Creating Layer quantized_res4a_branch2b
I1227 20:37:42.774677  2690 net.cpp:406] quantized_res4a_branch2b <- res4a_branch2b
I1227 20:37:42.774690  2690 net.cpp:367] quantized_res4a_branch2b -> res4a_branch2b (in-place)
I1227 20:37:42.774703  2690 net.cpp:122] Setting up quantized_res4a_branch2b
I1227 20:37:42.774714  2690 net.cpp:129] Top shape: 50 256 14 14 (2508800)
I1227 20:37:42.774722  2690 net.cpp:137] Memory required for data: 3010560800
I1227 20:37:42.774731  2690 layer_factory.hpp:77] Creating layer res4a
I1227 20:37:42.774742  2690 net.cpp:84] Creating Layer res4a
I1227 20:37:42.774751  2690 net.cpp:406] res4a <- res4a_branch1
I1227 20:37:42.774761  2690 net.cpp:406] res4a <- res4a_branch2b
I1227 20:37:42.774771  2690 net.cpp:380] res4a -> res4a
I1227 20:37:42.774806  2690 net.cpp:122] Setting up res4a
I1227 20:37:42.774822  2690 net.cpp:129] Top shape: 50 256 14 14 (2508800)
I1227 20:37:42.774830  2690 net.cpp:137] Memory required for data: 3020596000
I1227 20:37:42.774839  2690 layer_factory.hpp:77] Creating layer res4a_relu
I1227 20:37:42.774850  2690 net.cpp:84] Creating Layer res4a_relu
I1227 20:37:42.774860  2690 net.cpp:406] res4a_relu <- res4a
I1227 20:37:42.774873  2690 net.cpp:367] res4a_relu -> res4a (in-place)
I1227 20:37:42.774884  2690 net.cpp:122] Setting up res4a_relu
I1227 20:37:42.774914  2690 net.cpp:129] Top shape: 50 256 14 14 (2508800)
I1227 20:37:42.774924  2690 net.cpp:137] Memory required for data: 3030631200
I1227 20:37:42.774932  2690 layer_factory.hpp:77] Creating layer quantized_res4a
I1227 20:37:42.774945  2690 net.cpp:84] Creating Layer quantized_res4a
I1227 20:37:42.774953  2690 net.cpp:406] quantized_res4a <- res4a
I1227 20:37:42.774969  2690 net.cpp:367] quantized_res4a -> res4a (in-place)
I1227 20:37:42.774982  2690 net.cpp:122] Setting up quantized_res4a
I1227 20:37:42.774993  2690 net.cpp:129] Top shape: 50 256 14 14 (2508800)
I1227 20:37:42.775002  2690 net.cpp:137] Memory required for data: 3040666400
I1227 20:37:42.775010  2690 layer_factory.hpp:77] Creating layer res4a_quantized_res4a_0_split
I1227 20:37:42.775022  2690 net.cpp:84] Creating Layer res4a_quantized_res4a_0_split
I1227 20:37:42.775029  2690 net.cpp:406] res4a_quantized_res4a_0_split <- res4a
I1227 20:37:42.775040  2690 net.cpp:380] res4a_quantized_res4a_0_split -> res4a_quantized_res4a_0_split_0
I1227 20:37:42.775053  2690 net.cpp:380] res4a_quantized_res4a_0_split -> res4a_quantized_res4a_0_split_1
I1227 20:37:42.775097  2690 net.cpp:122] Setting up res4a_quantized_res4a_0_split
I1227 20:37:42.775113  2690 net.cpp:129] Top shape: 50 256 14 14 (2508800)
I1227 20:37:42.775123  2690 net.cpp:129] Top shape: 50 256 14 14 (2508800)
I1227 20:37:42.775131  2690 net.cpp:137] Memory required for data: 3060736800
I1227 20:37:42.775141  2690 layer_factory.hpp:77] Creating layer res4b_branch2a
I1227 20:37:42.775157  2690 net.cpp:84] Creating Layer res4b_branch2a
I1227 20:37:42.775167  2690 net.cpp:406] res4b_branch2a <- res4a_quantized_res4a_0_split_0
I1227 20:37:42.775179  2690 net.cpp:380] res4b_branch2a -> res4b_branch2a
I1227 20:37:42.797518  2690 net.cpp:122] Setting up res4b_branch2a
I1227 20:37:42.797540  2690 net.cpp:129] Top shape: 50 256 14 14 (2508800)
I1227 20:37:42.797550  2690 net.cpp:137] Memory required for data: 3070772000
I1227 20:37:42.797562  2690 layer_factory.hpp:77] Creating layer bn4b_branch2a
I1227 20:37:42.797574  2690 net.cpp:84] Creating Layer bn4b_branch2a
I1227 20:37:42.797585  2690 net.cpp:406] bn4b_branch2a <- res4b_branch2a
I1227 20:37:42.797598  2690 net.cpp:367] bn4b_branch2a -> res4b_branch2a (in-place)
I1227 20:37:42.797788  2690 net.cpp:122] Setting up bn4b_branch2a
I1227 20:37:42.797806  2690 net.cpp:129] Top shape: 50 256 14 14 (2508800)
I1227 20:37:42.797814  2690 net.cpp:137] Memory required for data: 3080807200
I1227 20:37:42.797845  2690 layer_factory.hpp:77] Creating layer scale4b_branch2a
I1227 20:37:42.797858  2690 net.cpp:84] Creating Layer scale4b_branch2a
I1227 20:37:42.797868  2690 net.cpp:406] scale4b_branch2a <- res4b_branch2a
I1227 20:37:42.797879  2690 net.cpp:367] scale4b_branch2a -> res4b_branch2a (in-place)
I1227 20:37:42.797932  2690 layer_factory.hpp:77] Creating layer scale4b_branch2a
I1227 20:37:42.798055  2690 net.cpp:122] Setting up scale4b_branch2a
I1227 20:37:42.798072  2690 net.cpp:129] Top shape: 50 256 14 14 (2508800)
I1227 20:37:42.798081  2690 net.cpp:137] Memory required for data: 3090842400
I1227 20:37:42.798094  2690 layer_factory.hpp:77] Creating layer res4b_branch2a_relu
I1227 20:37:42.798105  2690 net.cpp:84] Creating Layer res4b_branch2a_relu
I1227 20:37:42.798115  2690 net.cpp:406] res4b_branch2a_relu <- res4b_branch2a
I1227 20:37:42.798128  2690 net.cpp:367] res4b_branch2a_relu -> res4b_branch2a (in-place)
I1227 20:37:42.798141  2690 net.cpp:122] Setting up res4b_branch2a_relu
I1227 20:37:42.798151  2690 net.cpp:129] Top shape: 50 256 14 14 (2508800)
I1227 20:37:42.798159  2690 net.cpp:137] Memory required for data: 3100877600
I1227 20:37:42.798168  2690 layer_factory.hpp:77] Creating layer quantized_res4b_branch2a
I1227 20:37:42.798180  2690 net.cpp:84] Creating Layer quantized_res4b_branch2a
I1227 20:37:42.798189  2690 net.cpp:406] quantized_res4b_branch2a <- res4b_branch2a
I1227 20:37:42.798199  2690 net.cpp:367] quantized_res4b_branch2a -> res4b_branch2a (in-place)
I1227 20:37:42.798211  2690 net.cpp:122] Setting up quantized_res4b_branch2a
I1227 20:37:42.798238  2690 net.cpp:129] Top shape: 50 256 14 14 (2508800)
I1227 20:37:42.798247  2690 net.cpp:137] Memory required for data: 3110912800
I1227 20:37:42.798255  2690 layer_factory.hpp:77] Creating layer res4b_branch2b
I1227 20:37:42.798272  2690 net.cpp:84] Creating Layer res4b_branch2b
I1227 20:37:42.798282  2690 net.cpp:406] res4b_branch2b <- res4b_branch2a
I1227 20:37:42.798296  2690 net.cpp:380] res4b_branch2b -> res4b_branch2b
I1227 20:37:42.818986  2690 net.cpp:122] Setting up res4b_branch2b
I1227 20:37:42.819008  2690 net.cpp:129] Top shape: 50 256 14 14 (2508800)
I1227 20:37:42.819017  2690 net.cpp:137] Memory required for data: 3120948000
I1227 20:37:42.819030  2690 layer_factory.hpp:77] Creating layer bn4b_branch2b
I1227 20:37:42.819044  2690 net.cpp:84] Creating Layer bn4b_branch2b
I1227 20:37:42.819054  2690 net.cpp:406] bn4b_branch2b <- res4b_branch2b
I1227 20:37:42.819066  2690 net.cpp:367] bn4b_branch2b -> res4b_branch2b (in-place)
I1227 20:37:42.819259  2690 net.cpp:122] Setting up bn4b_branch2b
I1227 20:37:42.819277  2690 net.cpp:129] Top shape: 50 256 14 14 (2508800)
I1227 20:37:42.819285  2690 net.cpp:137] Memory required for data: 3130983200
I1227 20:37:42.819298  2690 layer_factory.hpp:77] Creating layer scale4b_branch2b
I1227 20:37:42.819313  2690 net.cpp:84] Creating Layer scale4b_branch2b
I1227 20:37:42.819321  2690 net.cpp:406] scale4b_branch2b <- res4b_branch2b
I1227 20:37:42.819335  2690 net.cpp:367] scale4b_branch2b -> res4b_branch2b (in-place)
I1227 20:37:42.819383  2690 layer_factory.hpp:77] Creating layer scale4b_branch2b
I1227 20:37:42.819505  2690 net.cpp:122] Setting up scale4b_branch2b
I1227 20:37:42.819525  2690 net.cpp:129] Top shape: 50 256 14 14 (2508800)
I1227 20:37:42.819538  2690 net.cpp:137] Memory required for data: 3141018400
I1227 20:37:42.819550  2690 layer_factory.hpp:77] Creating layer quantized_res4b_branch2b
I1227 20:37:42.819563  2690 net.cpp:84] Creating Layer quantized_res4b_branch2b
I1227 20:37:42.819573  2690 net.cpp:406] quantized_res4b_branch2b <- res4b_branch2b
I1227 20:37:42.819584  2690 net.cpp:367] quantized_res4b_branch2b -> res4b_branch2b (in-place)
I1227 20:37:42.819597  2690 net.cpp:122] Setting up quantized_res4b_branch2b
I1227 20:37:42.819608  2690 net.cpp:129] Top shape: 50 256 14 14 (2508800)
I1227 20:37:42.819617  2690 net.cpp:137] Memory required for data: 3151053600
I1227 20:37:42.819625  2690 layer_factory.hpp:77] Creating layer res4b
I1227 20:37:42.819638  2690 net.cpp:84] Creating Layer res4b
I1227 20:37:42.819646  2690 net.cpp:406] res4b <- res4a_quantized_res4a_0_split_1
I1227 20:37:42.819656  2690 net.cpp:406] res4b <- res4b_branch2b
I1227 20:37:42.819670  2690 net.cpp:380] res4b -> res4b
I1227 20:37:42.819705  2690 net.cpp:122] Setting up res4b
I1227 20:37:42.819721  2690 net.cpp:129] Top shape: 50 256 14 14 (2508800)
I1227 20:37:42.819730  2690 net.cpp:137] Memory required for data: 3161088800
I1227 20:37:42.819739  2690 layer_factory.hpp:77] Creating layer res4b_relu
I1227 20:37:42.819751  2690 net.cpp:84] Creating Layer res4b_relu
I1227 20:37:42.819761  2690 net.cpp:406] res4b_relu <- res4b
I1227 20:37:42.819774  2690 net.cpp:367] res4b_relu -> res4b (in-place)
I1227 20:37:42.819787  2690 net.cpp:122] Setting up res4b_relu
I1227 20:37:42.819797  2690 net.cpp:129] Top shape: 50 256 14 14 (2508800)
I1227 20:37:42.819806  2690 net.cpp:137] Memory required for data: 3171124000
I1227 20:37:42.819815  2690 layer_factory.hpp:77] Creating layer quantized_res4b
I1227 20:37:42.819825  2690 net.cpp:84] Creating Layer quantized_res4b
I1227 20:37:42.819835  2690 net.cpp:406] quantized_res4b <- res4b
I1227 20:37:42.819849  2690 net.cpp:367] quantized_res4b -> res4b (in-place)
I1227 20:37:42.819860  2690 net.cpp:122] Setting up quantized_res4b
I1227 20:37:42.819871  2690 net.cpp:129] Top shape: 50 256 14 14 (2508800)
I1227 20:37:42.819880  2690 net.cpp:137] Memory required for data: 3181159200
I1227 20:37:42.819888  2690 layer_factory.hpp:77] Creating layer res4b_quantized_res4b_0_split
I1227 20:37:42.819916  2690 net.cpp:84] Creating Layer res4b_quantized_res4b_0_split
I1227 20:37:42.819926  2690 net.cpp:406] res4b_quantized_res4b_0_split <- res4b
I1227 20:37:42.819937  2690 net.cpp:380] res4b_quantized_res4b_0_split -> res4b_quantized_res4b_0_split_0
I1227 20:37:42.819950  2690 net.cpp:380] res4b_quantized_res4b_0_split -> res4b_quantized_res4b_0_split_1
I1227 20:37:42.819996  2690 net.cpp:122] Setting up res4b_quantized_res4b_0_split
I1227 20:37:42.820013  2690 net.cpp:129] Top shape: 50 256 14 14 (2508800)
I1227 20:37:42.820022  2690 net.cpp:129] Top shape: 50 256 14 14 (2508800)
I1227 20:37:42.820031  2690 net.cpp:137] Memory required for data: 3201229600
I1227 20:37:42.820040  2690 layer_factory.hpp:77] Creating layer res5a_branch1
I1227 20:37:42.820053  2690 net.cpp:84] Creating Layer res5a_branch1
I1227 20:37:42.820065  2690 net.cpp:406] res5a_branch1 <- res4b_quantized_res4b_0_split_0
I1227 20:37:42.820078  2690 net.cpp:380] res5a_branch1 -> res5a_branch1
I1227 20:37:42.824585  2690 net.cpp:122] Setting up res5a_branch1
I1227 20:37:42.824604  2690 net.cpp:129] Top shape: 50 512 7 7 (1254400)
I1227 20:37:42.824614  2690 net.cpp:137] Memory required for data: 3206247200
I1227 20:37:42.824625  2690 layer_factory.hpp:77] Creating layer bn5a_branch1
I1227 20:37:42.824638  2690 net.cpp:84] Creating Layer bn5a_branch1
I1227 20:37:42.824650  2690 net.cpp:406] bn5a_branch1 <- res5a_branch1
I1227 20:37:42.824659  2690 net.cpp:367] bn5a_branch1 -> res5a_branch1 (in-place)
I1227 20:37:42.824859  2690 net.cpp:122] Setting up bn5a_branch1
I1227 20:37:42.824877  2690 net.cpp:129] Top shape: 50 512 7 7 (1254400)
I1227 20:37:42.824885  2690 net.cpp:137] Memory required for data: 3211264800
I1227 20:37:42.824898  2690 layer_factory.hpp:77] Creating layer scale5a_branch1
I1227 20:37:42.824914  2690 net.cpp:84] Creating Layer scale5a_branch1
I1227 20:37:42.824923  2690 net.cpp:406] scale5a_branch1 <- res5a_branch1
I1227 20:37:42.824935  2690 net.cpp:367] scale5a_branch1 -> res5a_branch1 (in-place)
I1227 20:37:42.824980  2690 layer_factory.hpp:77] Creating layer scale5a_branch1
I1227 20:37:42.825104  2690 net.cpp:122] Setting up scale5a_branch1
I1227 20:37:42.825121  2690 net.cpp:129] Top shape: 50 512 7 7 (1254400)
I1227 20:37:42.825130  2690 net.cpp:137] Memory required for data: 3216282400
I1227 20:37:42.825141  2690 layer_factory.hpp:77] Creating layer quantized_res5a_branch1
I1227 20:37:42.825155  2690 net.cpp:84] Creating Layer quantized_res5a_branch1
I1227 20:37:42.825163  2690 net.cpp:406] quantized_res5a_branch1 <- res5a_branch1
I1227 20:37:42.825175  2690 net.cpp:367] quantized_res5a_branch1 -> res5a_branch1 (in-place)
I1227 20:37:42.825186  2690 net.cpp:122] Setting up quantized_res5a_branch1
I1227 20:37:42.825197  2690 net.cpp:129] Top shape: 50 512 7 7 (1254400)
I1227 20:37:42.825206  2690 net.cpp:137] Memory required for data: 3221300000
I1227 20:37:42.825214  2690 layer_factory.hpp:77] Creating layer res5a_branch2a
I1227 20:37:42.825230  2690 net.cpp:84] Creating Layer res5a_branch2a
I1227 20:37:42.825240  2690 net.cpp:406] res5a_branch2a <- res4b_quantized_res4b_0_split_1
I1227 20:37:42.825254  2690 net.cpp:380] res5a_branch2a -> res5a_branch2a
I1227 20:37:42.866150  2690 net.cpp:122] Setting up res5a_branch2a
I1227 20:37:42.866178  2690 net.cpp:129] Top shape: 50 512 7 7 (1254400)
I1227 20:37:42.866188  2690 net.cpp:137] Memory required for data: 3226317600
I1227 20:37:42.866199  2690 layer_factory.hpp:77] Creating layer bn5a_branch2a
I1227 20:37:42.866214  2690 net.cpp:84] Creating Layer bn5a_branch2a
I1227 20:37:42.866225  2690 net.cpp:406] bn5a_branch2a <- res5a_branch2a
I1227 20:37:42.866237  2690 net.cpp:367] bn5a_branch2a -> res5a_branch2a (in-place)
I1227 20:37:42.866431  2690 net.cpp:122] Setting up bn5a_branch2a
I1227 20:37:42.866447  2690 net.cpp:129] Top shape: 50 512 7 7 (1254400)
I1227 20:37:42.866456  2690 net.cpp:137] Memory required for data: 3231335200
I1227 20:37:42.866470  2690 layer_factory.hpp:77] Creating layer scale5a_branch2a
I1227 20:37:42.866483  2690 net.cpp:84] Creating Layer scale5a_branch2a
I1227 20:37:42.866511  2690 net.cpp:406] scale5a_branch2a <- res5a_branch2a
I1227 20:37:42.866528  2690 net.cpp:367] scale5a_branch2a -> res5a_branch2a (in-place)
I1227 20:37:42.866575  2690 layer_factory.hpp:77] Creating layer scale5a_branch2a
I1227 20:37:42.866700  2690 net.cpp:122] Setting up scale5a_branch2a
I1227 20:37:42.866719  2690 net.cpp:129] Top shape: 50 512 7 7 (1254400)
I1227 20:37:42.866729  2690 net.cpp:137] Memory required for data: 3236352800
I1227 20:37:42.866740  2690 layer_factory.hpp:77] Creating layer res5a_branch2a_relu
I1227 20:37:42.866753  2690 net.cpp:84] Creating Layer res5a_branch2a_relu
I1227 20:37:42.866762  2690 net.cpp:406] res5a_branch2a_relu <- res5a_branch2a
I1227 20:37:42.866773  2690 net.cpp:367] res5a_branch2a_relu -> res5a_branch2a (in-place)
I1227 20:37:42.866786  2690 net.cpp:122] Setting up res5a_branch2a_relu
I1227 20:37:42.866796  2690 net.cpp:129] Top shape: 50 512 7 7 (1254400)
I1227 20:37:42.866804  2690 net.cpp:137] Memory required for data: 3241370400
I1227 20:37:42.866812  2690 layer_factory.hpp:77] Creating layer quantized_res5a_branch2a
I1227 20:37:42.866824  2690 net.cpp:84] Creating Layer quantized_res5a_branch2a
I1227 20:37:42.866833  2690 net.cpp:406] quantized_res5a_branch2a <- res5a_branch2a
I1227 20:37:42.866847  2690 net.cpp:367] quantized_res5a_branch2a -> res5a_branch2a (in-place)
I1227 20:37:42.866858  2690 net.cpp:122] Setting up quantized_res5a_branch2a
I1227 20:37:42.866869  2690 net.cpp:129] Top shape: 50 512 7 7 (1254400)
I1227 20:37:42.866878  2690 net.cpp:137] Memory required for data: 3246388000
I1227 20:37:42.866886  2690 layer_factory.hpp:77] Creating layer res5a_branch2b
I1227 20:37:42.866904  2690 net.cpp:84] Creating Layer res5a_branch2b
I1227 20:37:42.866914  2690 net.cpp:406] res5a_branch2b <- res5a_branch2a
I1227 20:37:42.866925  2690 net.cpp:380] res5a_branch2b -> res5a_branch2b
I1227 20:37:42.951123  2690 net.cpp:122] Setting up res5a_branch2b
I1227 20:37:42.951166  2690 net.cpp:129] Top shape: 50 512 7 7 (1254400)
I1227 20:37:42.951177  2690 net.cpp:137] Memory required for data: 3251405600
I1227 20:37:42.951190  2690 layer_factory.hpp:77] Creating layer bn5a_branch2b
I1227 20:37:42.951212  2690 net.cpp:84] Creating Layer bn5a_branch2b
I1227 20:37:42.951225  2690 net.cpp:406] bn5a_branch2b <- res5a_branch2b
I1227 20:37:42.951241  2690 net.cpp:367] bn5a_branch2b -> res5a_branch2b (in-place)
I1227 20:37:42.951534  2690 net.cpp:122] Setting up bn5a_branch2b
I1227 20:37:42.951553  2690 net.cpp:129] Top shape: 50 512 7 7 (1254400)
I1227 20:37:42.951562  2690 net.cpp:137] Memory required for data: 3256423200
I1227 20:37:42.951576  2690 layer_factory.hpp:77] Creating layer scale5a_branch2b
I1227 20:37:42.951594  2690 net.cpp:84] Creating Layer scale5a_branch2b
I1227 20:37:42.951604  2690 net.cpp:406] scale5a_branch2b <- res5a_branch2b
I1227 20:37:42.951616  2690 net.cpp:367] scale5a_branch2b -> res5a_branch2b (in-place)
I1227 20:37:42.951666  2690 layer_factory.hpp:77] Creating layer scale5a_branch2b
I1227 20:37:42.951797  2690 net.cpp:122] Setting up scale5a_branch2b
I1227 20:37:42.951814  2690 net.cpp:129] Top shape: 50 512 7 7 (1254400)
I1227 20:37:42.951823  2690 net.cpp:137] Memory required for data: 3261440800
I1227 20:37:42.951835  2690 layer_factory.hpp:77] Creating layer quantized_res5a_branch2b
I1227 20:37:42.951849  2690 net.cpp:84] Creating Layer quantized_res5a_branch2b
I1227 20:37:42.951859  2690 net.cpp:406] quantized_res5a_branch2b <- res5a_branch2b
I1227 20:37:42.951872  2690 net.cpp:367] quantized_res5a_branch2b -> res5a_branch2b (in-place)
I1227 20:37:42.951886  2690 net.cpp:122] Setting up quantized_res5a_branch2b
I1227 20:37:42.951897  2690 net.cpp:129] Top shape: 50 512 7 7 (1254400)
I1227 20:37:42.951905  2690 net.cpp:137] Memory required for data: 3266458400
I1227 20:37:42.951915  2690 layer_factory.hpp:77] Creating layer res5a
I1227 20:37:42.951928  2690 net.cpp:84] Creating Layer res5a
I1227 20:37:42.951938  2690 net.cpp:406] res5a <- res5a_branch1
I1227 20:37:42.951948  2690 net.cpp:406] res5a <- res5a_branch2b
I1227 20:37:42.952003  2690 net.cpp:380] res5a -> res5a
I1227 20:37:42.952044  2690 net.cpp:122] Setting up res5a
I1227 20:37:42.952060  2690 net.cpp:129] Top shape: 50 512 7 7 (1254400)
I1227 20:37:42.952069  2690 net.cpp:137] Memory required for data: 3271476000
I1227 20:37:42.952078  2690 layer_factory.hpp:77] Creating layer res5a_relu
I1227 20:37:42.952090  2690 net.cpp:84] Creating Layer res5a_relu
I1227 20:37:42.952100  2690 net.cpp:406] res5a_relu <- res5a
I1227 20:37:42.952113  2690 net.cpp:367] res5a_relu -> res5a (in-place)
I1227 20:37:42.952129  2690 net.cpp:122] Setting up res5a_relu
I1227 20:37:42.952141  2690 net.cpp:129] Top shape: 50 512 7 7 (1254400)
I1227 20:37:42.952149  2690 net.cpp:137] Memory required for data: 3276493600
I1227 20:37:42.952157  2690 layer_factory.hpp:77] Creating layer quantized_res5a
I1227 20:37:42.952169  2690 net.cpp:84] Creating Layer quantized_res5a
I1227 20:37:42.952178  2690 net.cpp:406] quantized_res5a <- res5a
I1227 20:37:42.952188  2690 net.cpp:367] quantized_res5a -> res5a (in-place)
I1227 20:37:42.952200  2690 net.cpp:122] Setting up quantized_res5a
I1227 20:37:42.952211  2690 net.cpp:129] Top shape: 50 512 7 7 (1254400)
I1227 20:37:42.952219  2690 net.cpp:137] Memory required for data: 3281511200
I1227 20:37:42.952227  2690 layer_factory.hpp:77] Creating layer res5a_quantized_res5a_0_split
I1227 20:37:42.952239  2690 net.cpp:84] Creating Layer res5a_quantized_res5a_0_split
I1227 20:37:42.952249  2690 net.cpp:406] res5a_quantized_res5a_0_split <- res5a
I1227 20:37:42.952258  2690 net.cpp:380] res5a_quantized_res5a_0_split -> res5a_quantized_res5a_0_split_0
I1227 20:37:42.952270  2690 net.cpp:380] res5a_quantized_res5a_0_split -> res5a_quantized_res5a_0_split_1
I1227 20:37:42.952316  2690 net.cpp:122] Setting up res5a_quantized_res5a_0_split
I1227 20:37:42.952332  2690 net.cpp:129] Top shape: 50 512 7 7 (1254400)
I1227 20:37:42.952342  2690 net.cpp:129] Top shape: 50 512 7 7 (1254400)
I1227 20:37:42.952349  2690 net.cpp:137] Memory required for data: 3291546400
I1227 20:37:42.952358  2690 layer_factory.hpp:77] Creating layer res5b_branch2a
I1227 20:37:42.952378  2690 net.cpp:84] Creating Layer res5b_branch2a
I1227 20:37:42.952389  2690 net.cpp:406] res5b_branch2a <- res5a_quantized_res5a_0_split_0
I1227 20:37:42.952401  2690 net.cpp:380] res5b_branch2a -> res5b_branch2a
I1227 20:37:43.035763  2690 net.cpp:122] Setting up res5b_branch2a
I1227 20:37:43.035822  2690 net.cpp:129] Top shape: 50 512 7 7 (1254400)
I1227 20:37:43.035833  2690 net.cpp:137] Memory required for data: 3296564000
I1227 20:37:43.035850  2690 layer_factory.hpp:77] Creating layer bn5b_branch2a
I1227 20:37:43.035868  2690 net.cpp:84] Creating Layer bn5b_branch2a
I1227 20:37:43.035882  2690 net.cpp:406] bn5b_branch2a <- res5b_branch2a
I1227 20:37:43.035898  2690 net.cpp:367] bn5b_branch2a -> res5b_branch2a (in-place)
I1227 20:37:43.036123  2690 net.cpp:122] Setting up bn5b_branch2a
I1227 20:37:43.036140  2690 net.cpp:129] Top shape: 50 512 7 7 (1254400)
I1227 20:37:43.036149  2690 net.cpp:137] Memory required for data: 3301581600
I1227 20:37:43.036164  2690 layer_factory.hpp:77] Creating layer scale5b_branch2a
I1227 20:37:43.036180  2690 net.cpp:84] Creating Layer scale5b_branch2a
I1227 20:37:43.036190  2690 net.cpp:406] scale5b_branch2a <- res5b_branch2a
I1227 20:37:43.036201  2690 net.cpp:367] scale5b_branch2a -> res5b_branch2a (in-place)
I1227 20:37:43.036257  2690 layer_factory.hpp:77] Creating layer scale5b_branch2a
I1227 20:37:43.036388  2690 net.cpp:122] Setting up scale5b_branch2a
I1227 20:37:43.036406  2690 net.cpp:129] Top shape: 50 512 7 7 (1254400)
I1227 20:37:43.036414  2690 net.cpp:137] Memory required for data: 3306599200
I1227 20:37:43.036427  2690 layer_factory.hpp:77] Creating layer res5b_branch2a_relu
I1227 20:37:43.036440  2690 net.cpp:84] Creating Layer res5b_branch2a_relu
I1227 20:37:43.036450  2690 net.cpp:406] res5b_branch2a_relu <- res5b_branch2a
I1227 20:37:43.036463  2690 net.cpp:367] res5b_branch2a_relu -> res5b_branch2a (in-place)
I1227 20:37:43.036476  2690 net.cpp:122] Setting up res5b_branch2a_relu
I1227 20:37:43.036530  2690 net.cpp:129] Top shape: 50 512 7 7 (1254400)
I1227 20:37:43.036540  2690 net.cpp:137] Memory required for data: 3311616800
I1227 20:37:43.036550  2690 layer_factory.hpp:77] Creating layer quantized_res5b_branch2a
I1227 20:37:43.036564  2690 net.cpp:84] Creating Layer quantized_res5b_branch2a
I1227 20:37:43.036574  2690 net.cpp:406] quantized_res5b_branch2a <- res5b_branch2a
I1227 20:37:43.036584  2690 net.cpp:367] quantized_res5b_branch2a -> res5b_branch2a (in-place)
I1227 20:37:43.036597  2690 net.cpp:122] Setting up quantized_res5b_branch2a
I1227 20:37:43.036609  2690 net.cpp:129] Top shape: 50 512 7 7 (1254400)
I1227 20:37:43.036617  2690 net.cpp:137] Memory required for data: 3316634400
I1227 20:37:43.036628  2690 layer_factory.hpp:77] Creating layer res5b_branch2b
I1227 20:37:43.036648  2690 net.cpp:84] Creating Layer res5b_branch2b
I1227 20:37:43.036658  2690 net.cpp:406] res5b_branch2b <- res5b_branch2a
I1227 20:37:43.036671  2690 net.cpp:380] res5b_branch2b -> res5b_branch2b
I1227 20:37:43.119743  2690 net.cpp:122] Setting up res5b_branch2b
I1227 20:37:43.119801  2690 net.cpp:129] Top shape: 50 512 7 7 (1254400)
I1227 20:37:43.119812  2690 net.cpp:137] Memory required for data: 3321652000
I1227 20:37:43.119827  2690 layer_factory.hpp:77] Creating layer bn5b_branch2b
I1227 20:37:43.119849  2690 net.cpp:84] Creating Layer bn5b_branch2b
I1227 20:37:43.119863  2690 net.cpp:406] bn5b_branch2b <- res5b_branch2b
I1227 20:37:43.119876  2690 net.cpp:367] bn5b_branch2b -> res5b_branch2b (in-place)
I1227 20:37:43.120097  2690 net.cpp:122] Setting up bn5b_branch2b
I1227 20:37:43.120115  2690 net.cpp:129] Top shape: 50 512 7 7 (1254400)
I1227 20:37:43.120124  2690 net.cpp:137] Memory required for data: 3326669600
I1227 20:37:43.120138  2690 layer_factory.hpp:77] Creating layer scale5b_branch2b
I1227 20:37:43.120152  2690 net.cpp:84] Creating Layer scale5b_branch2b
I1227 20:37:43.120162  2690 net.cpp:406] scale5b_branch2b <- res5b_branch2b
I1227 20:37:43.120177  2690 net.cpp:367] scale5b_branch2b -> res5b_branch2b (in-place)
I1227 20:37:43.120227  2690 layer_factory.hpp:77] Creating layer scale5b_branch2b
I1227 20:37:43.120357  2690 net.cpp:122] Setting up scale5b_branch2b
I1227 20:37:43.120375  2690 net.cpp:129] Top shape: 50 512 7 7 (1254400)
I1227 20:37:43.120384  2690 net.cpp:137] Memory required for data: 3331687200
I1227 20:37:43.120396  2690 layer_factory.hpp:77] Creating layer quantized_res5b_branch2b
I1227 20:37:43.120411  2690 net.cpp:84] Creating Layer quantized_res5b_branch2b
I1227 20:37:43.120420  2690 net.cpp:406] quantized_res5b_branch2b <- res5b_branch2b
I1227 20:37:43.120431  2690 net.cpp:367] quantized_res5b_branch2b -> res5b_branch2b (in-place)
I1227 20:37:43.120445  2690 net.cpp:122] Setting up quantized_res5b_branch2b
I1227 20:37:43.120455  2690 net.cpp:129] Top shape: 50 512 7 7 (1254400)
I1227 20:37:43.120465  2690 net.cpp:137] Memory required for data: 3336704800
I1227 20:37:43.120473  2690 layer_factory.hpp:77] Creating layer res5b
I1227 20:37:43.120486  2690 net.cpp:84] Creating Layer res5b
I1227 20:37:43.120496  2690 net.cpp:406] res5b <- res5a_quantized_res5a_0_split_1
I1227 20:37:43.120506  2690 net.cpp:406] res5b <- res5b_branch2b
I1227 20:37:43.120519  2690 net.cpp:380] res5b -> res5b
I1227 20:37:43.120558  2690 net.cpp:122] Setting up res5b
I1227 20:37:43.120573  2690 net.cpp:129] Top shape: 50 512 7 7 (1254400)
I1227 20:37:43.120580  2690 net.cpp:137] Memory required for data: 3341722400
I1227 20:37:43.120589  2690 layer_factory.hpp:77] Creating layer res5b_relu
I1227 20:37:43.120601  2690 net.cpp:84] Creating Layer res5b_relu
I1227 20:37:43.120610  2690 net.cpp:406] res5b_relu <- res5b
I1227 20:37:43.120621  2690 net.cpp:367] res5b_relu -> res5b (in-place)
I1227 20:37:43.120632  2690 net.cpp:122] Setting up res5b_relu
I1227 20:37:43.120643  2690 net.cpp:129] Top shape: 50 512 7 7 (1254400)
I1227 20:37:43.120651  2690 net.cpp:137] Memory required for data: 3346740000
I1227 20:37:43.120661  2690 layer_factory.hpp:77] Creating layer quantized_res5b
I1227 20:37:43.120709  2690 net.cpp:84] Creating Layer quantized_res5b
I1227 20:37:43.120720  2690 net.cpp:406] quantized_res5b <- res5b
I1227 20:37:43.120733  2690 net.cpp:367] quantized_res5b -> res5b (in-place)
I1227 20:37:43.120746  2690 net.cpp:122] Setting up quantized_res5b
I1227 20:37:43.120757  2690 net.cpp:129] Top shape: 50 512 7 7 (1254400)
I1227 20:37:43.120765  2690 net.cpp:137] Memory required for data: 3351757600
I1227 20:37:43.120774  2690 layer_factory.hpp:77] Creating layer pool5
I1227 20:37:43.120803  2690 net.cpp:84] Creating Layer pool5
I1227 20:37:43.120815  2690 net.cpp:406] pool5 <- res5b
I1227 20:37:43.120826  2690 net.cpp:380] pool5 -> pool5
I1227 20:37:43.120862  2690 net.cpp:122] Setting up pool5
I1227 20:37:43.120877  2690 net.cpp:129] Top shape: 50 512 1 1 (25600)
I1227 20:37:43.120887  2690 net.cpp:137] Memory required for data: 3351860000
I1227 20:37:43.120895  2690 layer_factory.hpp:77] Creating layer fc1000
I1227 20:37:43.120918  2690 net.cpp:84] Creating Layer fc1000
I1227 20:37:43.120929  2690 net.cpp:406] fc1000 <- pool5
I1227 20:37:43.120940  2690 net.cpp:380] fc1000 -> fc1000
I1227 20:37:43.138463  2690 net.cpp:122] Setting up fc1000
I1227 20:37:43.138522  2690 net.cpp:129] Top shape: 50 1000 (50000)
I1227 20:37:43.138533  2690 net.cpp:137] Memory required for data: 3352060000
I1227 20:37:43.138550  2690 layer_factory.hpp:77] Creating layer fc1000_fc1000_0_split
I1227 20:37:43.138568  2690 net.cpp:84] Creating Layer fc1000_fc1000_0_split
I1227 20:37:43.138581  2690 net.cpp:406] fc1000_fc1000_0_split <- fc1000
I1227 20:37:43.138597  2690 net.cpp:380] fc1000_fc1000_0_split -> fc1000_fc1000_0_split_0
I1227 20:37:43.138615  2690 net.cpp:380] fc1000_fc1000_0_split -> fc1000_fc1000_0_split_1
I1227 20:37:43.138629  2690 net.cpp:380] fc1000_fc1000_0_split -> fc1000_fc1000_0_split_2
I1227 20:37:43.138696  2690 net.cpp:122] Setting up fc1000_fc1000_0_split
I1227 20:37:43.138712  2690 net.cpp:129] Top shape: 50 1000 (50000)
I1227 20:37:43.138722  2690 net.cpp:129] Top shape: 50 1000 (50000)
I1227 20:37:43.138732  2690 net.cpp:129] Top shape: 50 1000 (50000)
I1227 20:37:43.138741  2690 net.cpp:137] Memory required for data: 3352660000
I1227 20:37:43.138749  2690 layer_factory.hpp:77] Creating layer loss
I1227 20:37:43.138768  2690 net.cpp:84] Creating Layer loss
I1227 20:37:43.138778  2690 net.cpp:406] loss <- fc1000_fc1000_0_split_0
I1227 20:37:43.138788  2690 net.cpp:406] loss <- label_data_1_split_0
I1227 20:37:43.138800  2690 net.cpp:380] loss -> loss
…
