…
I1228 11:09:34.221026 32357 net.cpp:294] The NetState phase (1) differed from the phase (0) specified by a rule in layer data
I1228 11:09:34.221786 32357 net.cpp:51] Initializing net from parameters: 
name: "ResNet-18"
state {
  phase: TEST
  level: 0
  stage: ""
}
layer {
  name: "data"
  type: "Data"
  top: "data"
  top: "label"
  include {
    phase: TEST
  }
  transform_param {
    mirror: false
    crop_size: 224
    mean_file: "/mllib/imagenet/ilsvrc12/imagenet_mean.binaryproto"
  }
  data_param {
    source: "/mllib/imagenet/ilsvrc12/lmdb_resize/ilsvrc12_val_lmdb"
    batch_size: 50
    backend: LMDB
  }
}
layer {
  name: "conv1"
  type: "QuanConvolution"
  bottom: "data"
  top: "conv1"
  quan_convolution_param {
    num_output: 64
    bias_term: false
    pad: 3
    kernel_size: 7
    stride: 2
    weight_filler {
      type: "msra"
    }
    bit_width: 8
    range_low: -1.962863
    range_high: 1.6103849
  }
}
layer {
  name: "bn_conv1"
  type: "BatchNorm"
  bottom: "conv1"
  top: "conv1"
}
layer {
  name: "scale_conv1"
  type: "Scale"
  bottom: "conv1"
  top: "conv1"
  scale_param {
    bias_term: true
  }
}
layer {
  name: "conv1_relu"
  type: "ReLU"
  bottom: "conv1"
  top: "conv1"
}
layer {
  name: "quantized_conv1"
  type: "Quantization"
  bottom: "conv1"
  top: "quantized_conv1"
  quantization_param {
    round_method: FLOOR
    round_strategy: AGGRESSIVE
    bit_width: 8
    range: 0
    range: 20.756613
  }
}
layer {
  name: "pool1"
  type: "Pooling"
  bottom: "quantized_conv1"
  top: "pool1"
  pooling_param {
    pool: MAX
    kernel_size: 3
    stride: 2
  }
}
layer {
  name: "res2a_branch1"
  type: "QuanConvolution"
  bottom: "pool1"
  top: "res2a_branch1"
  quan_convolution_param {
    num_output: 64
    bias_term: false
    pad: 0
    kernel_size: 1
    stride: 1
    weight_filler {
      type: "msra"
    }
    bit_width: 8
    range_low: -1.313164
    range_high: 0.912394
  }
}
layer {
  name: "bn2a_branch1"
  type: "BatchNorm"
  bottom: "res2a_branch1"
  top: "res2a_branch1"
}
layer {
  name: "scale2a_branch1"
  type: "Scale"
  bottom: "res2a_branch1"
  top: "res2a_branch1"
  scale_param {
    bias_term: true
  }
}
layer {
  name: "quantized_res2a_branch1"
  type: "Quantization"
  bottom: "res2a_branch1"
  top: "res2a_branch1"
  quantization_param {
    round_method: FLOOR
    round_strategy: AGGRESSIVE
    bit_width: 8
    range: -17.40053
    range: 10.660799
  }
}
layer {
  name: "res2a_branch2a"
  type: "QuanConvolution"
  bottom: "pool1"
  top: "res2a_branch2a"
  quan_convolution_param {
    num_output: 64
    bias_term: false
    pad: 1
    kernel_size: 3
    stride: 1
    weight_filler {
      type: "msra"
    }
    bit_width: 8
    range_low: -0.775398
    range_high: 0.766093
  }
}
layer {
  name: "bn2a_branch2a"
  type: "BatchNorm"
  bottom: "res2a_branch2a"
  top: "res2a_branch2a"
}
layer {
  name: "scale2a_branch2a"
  type: "Scale"
  bottom: "res2a_branch2a"
  top: "res2a_branch2a"
  scale_param {
    bias_term: true
  }
}
layer {
  name: "res2a_branch2a_relu"
  type: "ReLU"
  bottom: "res2a_branch2a"
  top: "res2a_branch2a"
}
layer {
  name: "quantized_res2a_branch2a"
  type: "Quantization"
  bottom: "res2a_branch2a"
  top: "res2a_branch2a"
  quantization_param {
    round_method: FLOOR
    round_strategy: AGGRESSIVE
    bit_width: 8
    range: 0
    range: 8.8238039
  }
}
layer {
  name: "res2a_branch2b"
  type: "QuanConvolution"
  bottom: "res2a_branch2a"
  top: "res2a_branch2b"
  quan_convolution_param {
    num_output: 64
    bias_term: false
    pad: 1
    kernel_size: 3
    stride: 1
    weight_filler {
      type: "msra"
    }
    bit_width: 8
    range_low: -0.655141
    range_high: 0.540852
  }
}
layer {
  name: "bn2a_branch2b"
  type: "BatchNorm"
  bottom: "res2a_branch2b"
  top: "res2a_branch2b"
}
layer {
  name: "scale2a_branch2b"
  type: "Scale"
  bottom: "res2a_branch2b"
  top: "res2a_branch2b"
  scale_param {
    bias_term: true
  }
}
layer {
  name: "quantized_res2a_branch2b"
  type: "Quantization"
  bottom: "res2a_branch2b"
  top: "res2a_branch2b"
  quantization_param {
    round_method: FLOOR
    round_strategy: AGGRESSIVE
    bit_width: 8
    range: -11.454288
    range: 7.041914
  }
}
layer {
  name: "res2a"
  type: "Eltwise"
  bottom: "res2a_branch1"
  bottom: "res2a_branch2b"
  top: "res2a"
  eltwise_param {
    operation: SUM
  }
}
layer {
  name: "res2a_relu"
  type: "ReLU"
  bottom: "res2a"
  top: "res2a"
}
layer {
  name: "quantized_res2a"
  type: "Quantization"
  bottom: "res2a"
  top: "res2a"
  quantization_param {
    round_method: FLOOR
    round_strategy: AGGRESSIVE
    bit_width: 8
    range: 0
    range: 13.009123
  }
}
layer {
  name: "res2b_branch2a"
  type: "QuanConvolution"
  bottom: "res2a"
  top: "res2b_branch2a"
  quan_convolution_param {
    num_output: 64
    bias_term: false
    pad: 1
    kernel_size: 3
    stride: 1
    weight_filler {
      type: "msra"
    }
    bit_width: 8
    range_low: -0.568788
    range_high: 0.56491
  }
}
layer {
  name: "bn2b_branch2a"
  type: "BatchNorm"
  bottom: "res2b_branch2a"
  top: "res2b_branch2a"
}
layer {
  name: "scale2b_branch2a"
  type: "Scale"
  bottom: "res2b_branch2a"
  top: "res2b_branch2a"
  scale_param {
    bias_term: true
  }
}
layer {
  name: "res2b_branch2a_relu"
  type: "ReLU"
  bottom: "res2b_branch2a"
  top: "res2b_branch2a"
}
layer {
  name: "quantized_res2b_branch2a"
  type: "Quantization"
  bottom: "res2b_branch2a"
  top: "res2b_branch2a"
  quantization_param {
    round_method: FLOOR
    round_strategy: AGGRESSIVE
    bit_width: 8
    range: 0
    range: 8.8807116
  }
}
layer {
  name: "res2b_branch2b"
  type: "QuanConvolution"
  bottom: "res2b_branch2a"
  top: "res2b_branch2b"
  quan_convolution_param {
    num_output: 64
    bias_term: false
    pad: 1
    kernel_size: 3
    stride: 1
    weight_filler {
      type: "msra"
    }
    bit_width: 8
    range_low: -0.622088
    range_high: 0.687465
  }
}
layer {
  name: "bn2b_branch2b"
  type: "BatchNorm"
  bottom: "res2b_branch2b"
  top: "res2b_branch2b"
}
layer {
  name: "scale2b_branch2b"
  type: "Scale"
  bottom: "res2b_branch2b"
  top: "res2b_branch2b"
  scale_param {
    bias_term: true
  }
}
layer {
  name: "quantized_res2b_branch2b"
  type: "Quantization"
  bottom: "res2b_branch2b"
  top: "res2b_branch2b"
  quantization_param {
    round_method: FLOOR
    round_strategy: AGGRESSIVE
    bit_width: 8
    range: -9.7979622
    range: 9.198802
  }
}
layer {
  name: "res2b"
  type: "Eltwise"
  bottom: "res2a"
  bottom: "res2b_branch2b"
  top: "res2b"
  eltwise_param {
    operation: SUM
  }
}
layer {
  name: "res2b_relu"
  type: "ReLU"
  bottom: "res2b"
  top: "res2b"
}
layer {
  name: "quantized_res2b"
  type: "Quantization"
  bottom: "res2b"
  top: "res2b"
  quantization_param {
    round_method: FLOOR
    round_strategy: AGGRESSIVE
    bit_width: 8
    range: 0
    range: 16.73156
  }
}
layer {
  name: "res3a_branch1"
  type: "QuanConvolution"
  bottom: "res2b"
  top: "res3a_branch1"
  quan_convolution_param {
    num_output: 128
    bias_term: false
    pad: 0
    kernel_size: 1
    stride: 2
    weight_filler {
      type: "msra"
    }
    bit_width: 8
    range_low: -1.006775
    range_high: 1.011977
  }
}
layer {
  name: "bn3a_branch1"
  type: "BatchNorm"
  bottom: "res3a_branch1"
  top: "res3a_branch1"
}
layer {
  name: "scale3a_branch1"
  type: "Scale"
  bottom: "res3a_branch1"
  top: "res3a_branch1"
  scale_param {
    bias_term: true
  }
}
layer {
  name: "quantized_res3a_branch1"
  type: "Quantization"
  bottom: "res3a_branch1"
  top: "res3a_branch1"
  quantization_param {
    round_method: FLOOR
    round_strategy: AGGRESSIVE
    bit_width: 8
    range: -7.5694089
    range: 13.997952
  }
}
layer {
  name: "res3a_branch2a"
  type: "QuanConvolution"
  bottom: "res2b"
  top: "res3a_branch2a"
  quan_convolution_param {
    num_output: 128
    bias_term: false
    pad: 1
    kernel_size: 3
    stride: 2
    weight_filler {
      type: "msra"
    }
    bit_width: 8
    range_low: -0.580899
    range_high: 0.490194
  }
}
layer {
  name: "bn3a_branch2a"
  type: "BatchNorm"
  bottom: "res3a_branch2a"
  top: "res3a_branch2a"
}
layer {
  name: "scale3a_branch2a"
  type: "Scale"
  bottom: "res3a_branch2a"
  top: "res3a_branch2a"
  scale_param {
    bias_term: true
  }
}
layer {
  name: "res3a_branch2a_relu"
  type: "ReLU"
  bottom: "res3a_branch2a"
  top: "res3a_branch2a"
}
layer {
  name: "quantized_res3a_branch2a"
  type: "Quantization"
  bottom: "res3a_branch2a"
  top: "res3a_branch2a"
  quantization_param {
    round_method: FLOOR
    round_strategy: AGGRESSIVE
    bit_width: 8
    range: 0
    range: 7.2437668
  }
}
layer {
  name: "res3a_branch2b"
  type: "QuanConvolution"
  bottom: "res3a_branch2a"
  top: "res3a_branch2b"
  quan_convolution_param {
    num_output: 128
    bias_term: false
    pad: 1
    kernel_size: 3
    stride: 1
    weight_filler {
      type: "msra"
    }
    bit_width: 8
    range_low: -0.573389
    range_high: 0.902467
  }
}
layer {
  name: "bn3a_branch2b"
  type: "BatchNorm"
  bottom: "res3a_branch2b"
  top: "res3a_branch2b"
}
layer {
  name: "scale3a_branch2b"
  type: "Scale"
  bottom: "res3a_branch2b"
  top: "res3a_branch2b"
  scale_param {
    bias_term: true
  }
}
layer {
  name: "quantized_res3a_branch2b"
  type: "Quantization"
  bottom: "res3a_branch2b"
  top: "res3a_branch2b"
  quantization_param {
    round_method: FLOOR
    round_strategy: AGGRESSIVE
    bit_width: 8
    range: -8.2086267
    range: 13.289404
  }
}
layer {
  name: "res3a"
  type: "Eltwise"
  bottom: "res3a_branch1"
  bottom: "res3a_branch2b"
  top: "res3a"
  eltwise_param {
    operation: SUM
  }
}
layer {
  name: "res3a_relu"
  type: "ReLU"
  bottom: "res3a"
  top: "res3a"
}
layer {
  name: "quantized_res3a"
  type: "Quantization"
  bottom: "res3a"
  top: "res3a"
  quantization_param {
    round_method: FLOOR
    round_strategy: AGGRESSIVE
    bit_width: 8
    range: 0
    range: 16.047813
  }
}
layer {
  name: "res3b_branch2a"
  type: "QuanConvolution"
  bottom: "res3a"
  top: "res3b_branch2a"
  quan_convolution_param {
    num_output: 128
    bias_term: false
    pad: 1
    kernel_size: 3
    stride: 1
    weight_filler {
      type: "msra"
    }
    bit_width: 8
    range_low: -0.708082
    range_high: 0.889211
  }
}
layer {
  name: "bn3b_branch2a"
  type: "BatchNorm"
  bottom: "res3b_branch2a"
  top: "res3b_branch2a"
}
layer {
  name: "scale3b_branch2a"
  type: "Scale"
  bottom: "res3b_branch2a"
  top: "res3b_branch2a"
  scale_param {
    bias_term: true
  }
}
layer {
  name: "res3b_branch2a_relu"
  type: "ReLU"
  bottom: "res3b_branch2a"
  top: "res3b_branch2a"
}
layer {
  name: "quantized_res3b_branch2a"
  type: "Quantization"
  bottom: "res3b_branch2a"
  top: "res3b_branch2a"
  quantization_param {
    round_method: FLOOR
    round_strategy: AGGRESSIVE
    bit_width: 8
    range: 0
    range: 11.069953
  }
}
layer {
  name: "res3b_branch2b"
  type: "QuanConvolution"
  bottom: "res3b_branch2a"
  top: "res3b_branch2b"
  quan_convolution_param {
    num_output: 128
    bias_term: false
    pad: 1
    kernel_size: 3
    stride: 1
    weight_filler {
      type: "msra"
    }
    bit_width: 8
    range_low: -0.514097
    range_high: 0.581038
  }
}
layer {
  name: "bn3b_branch2b"
  type: "BatchNorm"
  bottom: "res3b_branch2b"
  top: "res3b_branch2b"
}
layer {
  name: "scale3b_branch2b"
  type: "Scale"
  bottom: "res3b_branch2b"
  top: "res3b_branch2b"
  scale_param {
    bias_term: true
  }
}
layer {
  name: "quantized_res3b_branch2b"
  type: "Quantization"
  bottom: "res3b_branch2b"
  top: "res3b_branch2b"
  quantization_param {
    round_method: FLOOR
    round_strategy: AGGRESSIVE
    bit_width: 8
    range: -10.578491
    range: 9.741951
  }
}
layer {
  name: "res3b"
  type: "Eltwise"
  bottom: "res3a"
  bottom: "res3b_branch2b"
  top: "res3b"
  eltwise_param {
    operation: SUM
  }
}
layer {
  name: "res3b_relu"
  type: "ReLU"
  bottom: "res3b"
  top: "res3b"
}
layer {
  name: "quantized_res3b"
  type: "Quantization"
  bottom: "res3b"
  top: "res3b"
  quantization_param {
    round_method: FLOOR
    round_strategy: AGGRESSIVE
    bit_width: 8
    range: 0
    range: 21.433855
  }
}
layer {
  name: "res4a_branch1"
  type: "QuanConvolution"
  bottom: "res3b"
  top: "res4a_branch1"
  quan_convolution_param {
    num_output: 256
    bias_term: false
    pad: 0
    kernel_size: 1
    stride: 2
    weight_filler {
      type: "msra"
    }
    bit_width: 8
    range_low: -0.48113
    range_high: 0.65802
  }
}
layer {
  name: "bn4a_branch1"
  type: "BatchNorm"
  bottom: "res4a_branch1"
  top: "res4a_branch1"
}
layer {
  name: "scale4a_branch1"
  type: "Scale"
  bottom: "res4a_branch1"
  top: "res4a_branch1"
  scale_param {
    bias_term: true
  }
}
layer {
  name: "quantized_res4a_branch1"
  type: "Quantization"
  bottom: "res4a_branch1"
  top: "res4a_branch1"
  quantization_param {
    round_method: FLOOR
    round_strategy: AGGRESSIVE
    bit_width: 8
    range: -4.2085242
    range: 6.2801151
  }
}
layer {
  name: "res4a_branch2a"
  type: "QuanConvolution"
  bottom: "res3b"
  top: "res4a_branch2a"
  quan_convolution_param {
    num_output: 256
    bias_term: false
    pad: 1
    kernel_size: 3
    stride: 2
    weight_filler {
      type: "msra"
    }
    bit_width: 8
    range_low: -0.441803
    range_high: 0.797406
  }
}
layer {
  name: "bn4a_branch2a"
  type: "BatchNorm"
  bottom: "res4a_branch2a"
  top: "res4a_branch2a"
}
layer {
  name: "scale4a_branch2a"
  type: "Scale"
  bottom: "res4a_branch2a"
  top: "res4a_branch2a"
  scale_param {
    bias_term: true
  }
}
layer {
  name: "res4a_branch2a_relu"
  type: "ReLU"
  bottom: "res4a_branch2a"
  top: "res4a_branch2a"
}
layer {
  name: "quantized_res4a_branch2a"
  type: "Quantization"
  bottom: "res4a_branch2a"
  top: "res4a_branch2a"
  quantization_param {
    round_method: FLOOR
    round_strategy: AGGRESSIVE
    bit_width: 8
    range: 0
    range: 9.6955
  }
}
layer {
  name: "res4a_branch2b"
  type: "QuanConvolution"
  bottom: "res4a_branch2a"
  top: "res4a_branch2b"
  quan_convolution_param {
    num_output: 256
    bias_term: false
    pad: 1
    kernel_size: 3
    stride: 1
    weight_filler {
      type: "msra"
    }
    bit_width: 8
    range_low: -0.495432
    range_high: 0.719875
  }
}
layer {
  name: "bn4a_branch2b"
  type: "BatchNorm"
  bottom: "res4a_branch2b"
  top: "res4a_branch2b"
}
layer {
  name: "scale4a_branch2b"
  type: "Scale"
  bottom: "res4a_branch2b"
  top: "res4a_branch2b"
  scale_param {
    bias_term: true
  }
}
layer {
  name: "quantized_res4a_branch2b"
  type: "Quantization"
  bottom: "res4a_branch2b"
  top: "res4a_branch2b"
  quantization_param {
    round_method: FLOOR
    round_strategy: AGGRESSIVE
    bit_width: 8
    range: -8.957634
    range: 14.615593
  }
}
layer {
  name: "res4a"
  type: "Eltwise"
  bottom: "res4a_branch1"
  bottom: "res4a_branch2b"
  top: "res4a"
  eltwise_param {
    operation: SUM
  }
}
layer {
  name: "res4a_relu"
  type: "ReLU"
  bottom: "res4a"
  top: "res4a"
}
layer {
  name: "quantized_res4a"
  type: "Quantization"
  bottom: "res4a"
  top: "res4a"
  quantization_param {
    round_method: FLOOR
    round_strategy: AGGRESSIVE
    bit_width: 8
    range: 0
    range: 17.200615
  }
}
layer {
  name: "res4b_branch2a"
  type: "QuanConvolution"
  bottom: "res4a"
  top: "res4b_branch2a"
  quan_convolution_param {
    num_output: 256
    bias_term: false
    pad: 1
    kernel_size: 3
    stride: 1
    weight_filler {
      type: "msra"
    }
    bit_width: 8
    range_low: -0.44581
    range_high: 0.524512
  }
}
layer {
  name: "bn4b_branch2a"
  type: "BatchNorm"
  bottom: "res4b_branch2a"
  top: "res4b_branch2a"
}
layer {
  name: "scale4b_branch2a"
  type: "Scale"
  bottom: "res4b_branch2a"
  top: "res4b_branch2a"
  scale_param {
    bias_term: true
  }
}
layer {
  name: "res4b_branch2a_relu"
  type: "ReLU"
  bottom: "res4b_branch2a"
  top: "res4b_branch2a"
}
layer {
  name: "quantized_res4b_branch2a"
  type: "Quantization"
  bottom: "res4b_branch2a"
  top: "res4b_branch2a"
  quantization_param {
    round_method: FLOOR
    round_strategy: AGGRESSIVE
    bit_width: 8
    range: 0
    range: 8.0272427
  }
}
layer {
  name: "res4b_branch2b"
  type: "QuanConvolution"
  bottom: "res4b_branch2a"
  top: "res4b_branch2b"
  quan_convolution_param {
    num_output: 256
    bias_term: false
    pad: 1
    kernel_size: 3
    stride: 1
    weight_filler {
      type: "msra"
    }
    bit_width: 8
    range_low: -0.311174
    range_high: 0.351175
  }
}
layer {
  name: "bn4b_branch2b"
  type: "BatchNorm"
  bottom: "res4b_branch2b"
  top: "res4b_branch2b"
}
layer {
  name: "scale4b_branch2b"
  type: "Scale"
  bottom: "res4b_branch2b"
  top: "res4b_branch2b"
  scale_param {
    bias_term: true
  }
}
layer {
  name: "quantized_res4b_branch2b"
  type: "Quantization"
  bottom: "res4b_branch2b"
  top: "res4b_branch2b"
  quantization_param {
    round_method: FLOOR
    round_strategy: AGGRESSIVE
    bit_width: 8
    range: -11.837559
    range: 9.8303728
  }
}
layer {
  name: "res4b"
  type: "Eltwise"
  bottom: "res4a"
  bottom: "res4b_branch2b"
  top: "res4b"
  eltwise_param {
    operation: SUM
  }
}
layer {
  name: "res4b_relu"
  type: "ReLU"
  bottom: "res4b"
  top: "res4b"
}
layer {
  name: "quantized_res4b"
  type: "Quantization"
  bottom: "res4b"
  top: "res4b"
  quantization_param {
    round_method: FLOOR
    round_strategy: AGGRESSIVE
    bit_width: 8
    range: 0
    range: 15.533745
  }
}
layer {
  name: "res5a_branch1"
  type: "QuanConvolution"
  bottom: "res4b"
  top: "res5a_branch1"
  quan_convolution_param {
    num_output: 512
    bias_term: false
    pad: 0
    kernel_size: 1
    stride: 2
    weight_filler {
      type: "msra"
    }
    bit_width: 8
    range_low: -1.073258
    range_high: 0.782129
  }
}
layer {
  name: "bn5a_branch1"
  type: "BatchNorm"
  bottom: "res5a_branch1"
  top: "res5a_branch1"
}
layer {
  name: "scale5a_branch1"
  type: "Scale"
  bottom: "res5a_branch1"
  top: "res5a_branch1"
  scale_param {
    bias_term: true
  }
}
layer {
  name: "quantized_res5a_branch1"
  type: "Quantization"
  bottom: "res5a_branch1"
  top: "res5a_branch1"
  quantization_param {
    round_method: FLOOR
    round_strategy: AGGRESSIVE
    bit_width: 8
    range: -5.1432471
    range: 7.2782469
  }
}
layer {
  name: "res5a_branch2a"
  type: "QuanConvolution"
  bottom: "res4b"
  top: "res5a_branch2a"
  quan_convolution_param {
    num_output: 512
    bias_term: false
    pad: 1
    kernel_size: 3
    stride: 2
    weight_filler {
      type: "msra"
    }
    bit_width: 8
    range_low: -0.287673
    range_high: 0.504284
  }
}
layer {
  name: "bn5a_branch2a"
  type: "BatchNorm"
  bottom: "res5a_branch2a"
  top: "res5a_branch2a"
}
layer {
  name: "scale5a_branch2a"
  type: "Scale"
  bottom: "res5a_branch2a"
  top: "res5a_branch2a"
  scale_param {
    bias_term: true
  }
}
layer {
  name: "res5a_branch2a_relu"
  type: "ReLU"
  bottom: "res5a_branch2a"
  top: "res5a_branch2a"
}
layer {
  name: "quantized_res5a_branch2a"
  type: "Quantization"
  bottom: "res5a_branch2a"
  top: "res5a_branch2a"
  quantization_param {
    round_method: FLOOR
    round_strategy: AGGRESSIVE
    bit_width: 8
    range: 0
    range: 5.5225992
  }
}
layer {
  name: "res5a_branch2b"
  type: "QuanConvolution"
  bottom: "res5a_branch2a"
  top: "res5a_branch2b"
  quan_convolution_param {
    num_output: 512
    bias_term: false
    pad: 1
    kernel_size: 3
    stride: 1
    weight_filler {
      type: "msra"
    }
    bit_width: 8
    range_low: -0.273284
    range_high: 0.454792
  }
}
layer {
  name: "bn5a_branch2b"
  type: "BatchNorm"
  bottom: "res5a_branch2b"
  top: "res5a_branch2b"
}
layer {
  name: "scale5a_branch2b"
  type: "Scale"
  bottom: "res5a_branch2b"
  top: "res5a_branch2b"
  scale_param {
    bias_term: true
  }
}
layer {
  name: "quantized_res5a_branch2b"
  type: "Quantization"
  bottom: "res5a_branch2b"
  top: "res5a_branch2b"
  quantization_param {
    round_method: FLOOR
    round_strategy: AGGRESSIVE
    bit_width: 8
    range: -7.9446859
    range: 12.387192
  }
}
layer {
  name: "res5a"
  type: "Eltwise"
  bottom: "res5a_branch1"
  bottom: "res5a_branch2b"
  top: "res5a"
  eltwise_param {
    operation: SUM
  }
}
layer {
  name: "res5a_relu"
  type: "ReLU"
  bottom: "res5a"
  top: "res5a"
}
layer {
  name: "quantized_res5a"
  type: "Quantization"
  bottom: "res5a"
  top: "res5a"
  quantization_param {
    round_method: FLOOR
    round_strategy: AGGRESSIVE
    bit_width: 8
    range: 0
    range: 14.911362
  }
}
layer {
  name: "res5b_branch2a"
  type: "QuanConvolution"
  bottom: "res5a"
  top: "res5b_branch2a"
  quan_convolution_param {
    num_output: 512
    bias_term: false
    pad: 1
    kernel_size: 3
    stride: 1
    weight_filler {
      type: "msra"
    }
    bit_width: 8
    range_low: -0.334819
    range_high: 0.411482
  }
}
layer {
  name: "bn5b_branch2a"
  type: "BatchNorm"
  bottom: "res5b_branch2a"
  top: "res5b_branch2a"
}
layer {
  name: "scale5b_branch2a"
  type: "Scale"
  bottom: "res5b_branch2a"
  top: "res5b_branch2a"
  scale_param {
    bias_term: true
  }
}
layer {
  name: "res5b_branch2a_relu"
  type: "ReLU"
  bottom: "res5b_branch2a"
  top: "res5b_branch2a"
}
layer {
  name: "quantized_res5b_branch2a"
  type: "Quantization"
  bottom: "res5b_branch2a"
  top: "res5b_branch2a"
  quantization_param {
    round_method: FLOOR
    round_strategy: AGGRESSIVE
    bit_width: 8
    range: 0
    range: 9.0142164
  }
}
layer {
  name: "res5b_branch2b"
  type: "QuanConvolution"
  bottom: "res5b_branch2a"
  top: "res5b_branch2b"
  quan_convolution_param {
    num_output: 512
    bias_term: false
    pad: 1
    kernel_size: 3
    stride: 1
    weight_filler {
      type: "msra"
    }
    bit_width: 8
    range_low: -0.263203
    range_high: 0.427561
  }
}
layer {
  name: "bn5b_branch2b"
  type: "BatchNorm"
  bottom: "res5b_branch2b"
  top: "res5b_branch2b"
}
layer {
  name: "scale5b_branch2b"
  type: "Scale"
  bottom: "res5b_branch2b"
  top: "res5b_branch2b"
  scale_param {
    bias_term: true
  }
}
layer {
  name: "quantized_res5b_branch2b"
  type: "Quantization"
  bottom: "res5b_branch2b"
  top: "res5b_branch2b"
  quantization_param {
    round_method: FLOOR
    round_strategy: AGGRESSIVE
    bit_width: 8
    range: -21.284969
    range: 33.256569
  }
}
layer {
  name: "res5b"
  type: "Eltwise"
  bottom: "res5a"
  bottom: "res5b_branch2b"
  top: "res5b"
  eltwise_param {
    operation: SUM
  }
}
layer {
  name: "res5b_relu"
  type: "ReLU"
  bottom: "res5b"
  top: "res5b"
}
layer {
  name: "quantized_res5b"
  type: "Quantization"
  bottom: "res5b"
  top: "res5b"
  quantization_param {
    round_method: FLOOR
    round_strategy: AGGRESSIVE
    bit_width: 8
    range: 0
    range: 43.090839
  }
}
layer {
  name: "pool5"
  type: "Pooling"
  bottom: "res5b"
  top: "pool5"
  pooling_param {
    pool: AVE
    kernel_size: 7
    stride: 1
  }
}
layer {
  name: "fc1000"
  type: "InnerProduct"
  bottom: "pool5"
  top: "fc1000"
  param {
    lr_mult: 1
    decay_mult: 1
  }
  param {
    lr_mult: 2
    decay_mult: 1
  }
  inner_product_param {
    num_output: 1000
    weight_filler {
      type: "msra"
    }
    bias_filler {
      type: "constant"
      value: 0
    }
  }
}
layer {
  name: "loss"
  type: "SoftmaxWithLoss"
  bottom: "fc1000"
  bottom: "label"
  top: "loss"
}
layer {
  name: "top1"
  type: "Accuracy"
  bottom: "fc1000"
  bottom: "label"
  top: "top1"
}
layer {
  name: "top5"
  type: "Accuracy"
  bottom: "fc1000"
  bottom: "label"
  top: "top5"
  accuracy_param {
    top_k: 5
  }
}
I1228 11:09:34.222368 32357 layer_factory.hpp:77] Creating layer data
I1228 11:09:34.222487 32357 db_lmdb.cpp:35] Opened lmdb /mllib/imagenet/ilsvrc12/lmdb_resize/ilsvrc12_val_lmdb
I1228 11:09:34.222538 32357 net.cpp:84] Creating Layer data
I1228 11:09:34.222561 32357 net.cpp:380] data -> data
I1228 11:09:34.222597 32357 net.cpp:380] data -> label
I1228 11:09:34.222625 32357 data_transformer.cpp:25] Loading mean file from: /mllib/imagenet/ilsvrc12/imagenet_mean.binaryproto
I1228 11:09:34.246943 32357 blob.cpp:485] 1  3  256  256
I1228 11:09:34.246989 32357 blob.cpp:490] 1  3  256  256   196608
I1228 11:09:34.248589 32357 data_layer.cpp:45] output data size: 50,3,224,224
I1228 11:09:34.348170 32357 net.cpp:122] Setting up data
I1228 11:09:34.348314 32357 net.cpp:129] Top shape: 50 3 224 224 (7526400)
I1228 11:09:34.348363 32357 net.cpp:129] Top shape: 50 (50)
I1228 11:09:34.348419 32357 net.cpp:137] Memory required for data: 30105800
I1228 11:09:34.348443 32357 layer_factory.hpp:77] Creating layer label_data_1_split
I1228 11:09:34.348469 32357 net.cpp:84] Creating Layer label_data_1_split
I1228 11:09:34.348484 32357 net.cpp:406] label_data_1_split <- label
I1228 11:09:34.348511 32357 net.cpp:380] label_data_1_split -> label_data_1_split_0
I1228 11:09:34.348532 32357 net.cpp:380] label_data_1_split -> label_data_1_split_1
I1228 11:09:34.348546 32357 net.cpp:380] label_data_1_split -> label_data_1_split_2
I1228 11:09:34.348618 32357 net.cpp:122] Setting up label_data_1_split
I1228 11:09:34.348635 32357 net.cpp:129] Top shape: 50 (50)
I1228 11:09:34.348645 32357 net.cpp:129] Top shape: 50 (50)
I1228 11:09:34.348655 32357 net.cpp:129] Top shape: 50 (50)
I1228 11:09:34.348664 32357 net.cpp:137] Memory required for data: 30106400
I1228 11:09:34.348673 32357 layer_factory.hpp:77] Creating layer conv1
I1228 11:09:34.348704 32357 net.cpp:84] Creating Layer conv1
I1228 11:09:34.348716 32357 net.cpp:406] conv1 <- data
I1228 11:09:34.348729 32357 net.cpp:380] conv1 -> conv1
ydwu=======get:
bit_width=8;  round_method=1;  round_strategy=2;  is_runtime=0;  range_low=-1.96286;  range_high=1.61038
I1228 11:09:34.350623 32357 net.cpp:122] Setting up conv1
I1228 11:09:34.350643 32357 net.cpp:129] Top shape: 50 64 112 112 (40140800)
I1228 11:09:34.350653 32357 net.cpp:137] Memory required for data: 190669600
I1228 11:09:34.350677 32357 layer_factory.hpp:77] Creating layer bn_conv1
I1228 11:09:34.350697 32357 net.cpp:84] Creating Layer bn_conv1
I1228 11:09:34.350708 32357 net.cpp:406] bn_conv1 <- conv1
I1228 11:09:34.350719 32357 net.cpp:367] bn_conv1 -> conv1 (in-place)
I1228 11:09:34.355449 32357 net.cpp:122] Setting up bn_conv1
I1228 11:09:34.355475 32357 net.cpp:129] Top shape: 50 64 112 112 (40140800)
I1228 11:09:34.355486 32357 net.cpp:137] Memory required for data: 351232800
I1228 11:09:34.355505 32357 layer_factory.hpp:77] Creating layer scale_conv1
I1228 11:09:34.355525 32357 net.cpp:84] Creating Layer scale_conv1
I1228 11:09:34.355536 32357 net.cpp:406] scale_conv1 <- conv1
I1228 11:09:34.355549 32357 net.cpp:367] scale_conv1 -> conv1 (in-place)
I1228 11:09:34.355610 32357 layer_factory.hpp:77] Creating layer scale_conv1
I1228 11:09:34.355809 32357 net.cpp:122] Setting up scale_conv1
I1228 11:09:34.355829 32357 net.cpp:129] Top shape: 50 64 112 112 (40140800)
I1228 11:09:34.355839 32357 net.cpp:137] Memory required for data: 511796000
I1228 11:09:34.355855 32357 layer_factory.hpp:77] Creating layer conv1_relu
I1228 11:09:34.355870 32357 net.cpp:84] Creating Layer conv1_relu
I1228 11:09:34.355880 32357 net.cpp:406] conv1_relu <- conv1
I1228 11:09:34.355890 32357 net.cpp:367] conv1_relu -> conv1 (in-place)
I1228 11:09:34.355906 32357 net.cpp:122] Setting up conv1_relu
I1228 11:09:34.355917 32357 net.cpp:129] Top shape: 50 64 112 112 (40140800)
I1228 11:09:34.355926 32357 net.cpp:137] Memory required for data: 672359200
I1228 11:09:34.355934 32357 layer_factory.hpp:77] Creating layer quantized_conv1
I1228 11:09:34.355947 32357 net.cpp:84] Creating Layer quantized_conv1
I1228 11:09:34.355957 32357 net.cpp:406] quantized_conv1 <- conv1
I1228 11:09:34.355969 32357 net.cpp:380] quantized_conv1 -> quantized_conv1
I1228 11:09:34.356004 32357 net.cpp:122] Setting up quantized_conv1
I1228 11:09:34.356021 32357 net.cpp:129] Top shape: 50 64 112 112 (40140800)
I1228 11:09:34.356030 32357 net.cpp:137] Memory required for data: 832922400
I1228 11:09:34.356040 32357 layer_factory.hpp:77] Creating layer pool1
I1228 11:09:34.356053 32357 net.cpp:84] Creating Layer pool1
I1228 11:09:34.356063 32357 net.cpp:406] pool1 <- quantized_conv1
I1228 11:09:34.356075 32357 net.cpp:380] pool1 -> pool1
I1228 11:09:34.356132 32357 net.cpp:122] Setting up pool1
I1228 11:09:34.356148 32357 net.cpp:129] Top shape: 50 64 56 56 (10035200)
I1228 11:09:34.356158 32357 net.cpp:137] Memory required for data: 873063200
I1228 11:09:34.356166 32357 layer_factory.hpp:77] Creating layer pool1_pool1_0_split
I1228 11:09:34.356180 32357 net.cpp:84] Creating Layer pool1_pool1_0_split
I1228 11:09:34.356189 32357 net.cpp:406] pool1_pool1_0_split <- pool1
I1228 11:09:34.356235 32357 net.cpp:380] pool1_pool1_0_split -> pool1_pool1_0_split_0
I1228 11:09:34.356251 32357 net.cpp:380] pool1_pool1_0_split -> pool1_pool1_0_split_1
I1228 11:09:34.356294 32357 net.cpp:122] Setting up pool1_pool1_0_split
I1228 11:09:34.356312 32357 net.cpp:129] Top shape: 50 64 56 56 (10035200)
I1228 11:09:34.356322 32357 net.cpp:129] Top shape: 50 64 56 56 (10035200)
I1228 11:09:34.356330 32357 net.cpp:137] Memory required for data: 953344800
I1228 11:09:34.356339 32357 layer_factory.hpp:77] Creating layer res2a_branch1
I1228 11:09:34.356356 32357 net.cpp:84] Creating Layer res2a_branch1
I1228 11:09:34.356367 32357 net.cpp:406] res2a_branch1 <- pool1_pool1_0_split_0
I1228 11:09:34.356380 32357 net.cpp:380] res2a_branch1 -> res2a_branch1
ydwu=======get:
bit_width=8;  round_method=1;  round_strategy=2;  is_runtime=0;  range_low=-1.31316;  range_high=0.912394
I1228 11:09:34.358031 32357 net.cpp:122] Setting up res2a_branch1
I1228 11:09:34.358053 32357 net.cpp:129] Top shape: 50 64 56 56 (10035200)
I1228 11:09:34.358062 32357 net.cpp:137] Memory required for data: 993485600
I1228 11:09:34.358074 32357 layer_factory.hpp:77] Creating layer bn2a_branch1
I1228 11:09:34.358089 32357 net.cpp:84] Creating Layer bn2a_branch1
I1228 11:09:34.358100 32357 net.cpp:406] bn2a_branch1 <- res2a_branch1
I1228 11:09:34.358113 32357 net.cpp:367] bn2a_branch1 -> res2a_branch1 (in-place)
I1228 11:09:34.358288 32357 net.cpp:122] Setting up bn2a_branch1
I1228 11:09:34.358304 32357 net.cpp:129] Top shape: 50 64 56 56 (10035200)
I1228 11:09:34.358314 32357 net.cpp:137] Memory required for data: 1033626400
I1228 11:09:34.358331 32357 layer_factory.hpp:77] Creating layer scale2a_branch1
I1228 11:09:34.358346 32357 net.cpp:84] Creating Layer scale2a_branch1
I1228 11:09:34.358355 32357 net.cpp:406] scale2a_branch1 <- res2a_branch1
I1228 11:09:34.358367 32357 net.cpp:367] scale2a_branch1 -> res2a_branch1 (in-place)
I1228 11:09:34.358417 32357 layer_factory.hpp:77] Creating layer scale2a_branch1
I1228 11:09:34.358536 32357 net.cpp:122] Setting up scale2a_branch1
I1228 11:09:34.358554 32357 net.cpp:129] Top shape: 50 64 56 56 (10035200)
I1228 11:09:34.358563 32357 net.cpp:137] Memory required for data: 1073767200
I1228 11:09:34.358575 32357 layer_factory.hpp:77] Creating layer quantized_res2a_branch1
I1228 11:09:34.358589 32357 net.cpp:84] Creating Layer quantized_res2a_branch1
I1228 11:09:34.358599 32357 net.cpp:406] quantized_res2a_branch1 <- res2a_branch1
I1228 11:09:34.358611 32357 net.cpp:367] quantized_res2a_branch1 -> res2a_branch1 (in-place)
I1228 11:09:34.358625 32357 net.cpp:122] Setting up quantized_res2a_branch1
I1228 11:09:34.358636 32357 net.cpp:129] Top shape: 50 64 56 56 (10035200)
I1228 11:09:34.358652 32357 net.cpp:137] Memory required for data: 1113908000
I1228 11:09:34.358661 32357 layer_factory.hpp:77] Creating layer res2a_branch2a
I1228 11:09:34.358676 32357 net.cpp:84] Creating Layer res2a_branch2a
I1228 11:09:34.358687 32357 net.cpp:406] res2a_branch2a <- pool1_pool1_0_split_1
I1228 11:09:34.358700 32357 net.cpp:380] res2a_branch2a -> res2a_branch2a
ydwu=======get:
bit_width=8;  round_method=1;  round_strategy=2;  is_runtime=0;  range_low=-0.775398;  range_high=0.766093
I1228 11:09:34.361274 32357 net.cpp:122] Setting up res2a_branch2a
I1228 11:09:34.361296 32357 net.cpp:129] Top shape: 50 64 56 56 (10035200)
I1228 11:09:34.361305 32357 net.cpp:137] Memory required for data: 1154048800
I1228 11:09:34.361318 32357 layer_factory.hpp:77] Creating layer bn2a_branch2a
I1228 11:09:34.361335 32357 net.cpp:84] Creating Layer bn2a_branch2a
I1228 11:09:34.361346 32357 net.cpp:406] bn2a_branch2a <- res2a_branch2a
I1228 11:09:34.361358 32357 net.cpp:367] bn2a_branch2a -> res2a_branch2a (in-place)
I1228 11:09:34.361544 32357 net.cpp:122] Setting up bn2a_branch2a
I1228 11:09:34.361562 32357 net.cpp:129] Top shape: 50 64 56 56 (10035200)
I1228 11:09:34.361572 32357 net.cpp:137] Memory required for data: 1194189600
I1228 11:09:34.361584 32357 layer_factory.hpp:77] Creating layer scale2a_branch2a
I1228 11:09:34.361598 32357 net.cpp:84] Creating Layer scale2a_branch2a
I1228 11:09:34.361608 32357 net.cpp:406] scale2a_branch2a <- res2a_branch2a
I1228 11:09:34.361620 32357 net.cpp:367] scale2a_branch2a -> res2a_branch2a (in-place)
I1228 11:09:34.361670 32357 layer_factory.hpp:77] Creating layer scale2a_branch2a
I1228 11:09:34.361829 32357 net.cpp:122] Setting up scale2a_branch2a
I1228 11:09:34.361847 32357 net.cpp:129] Top shape: 50 64 56 56 (10035200)
I1228 11:09:34.361856 32357 net.cpp:137] Memory required for data: 1234330400
I1228 11:09:34.361873 32357 layer_factory.hpp:77] Creating layer res2a_branch2a_relu
I1228 11:09:34.361891 32357 net.cpp:84] Creating Layer res2a_branch2a_relu
I1228 11:09:34.361901 32357 net.cpp:406] res2a_branch2a_relu <- res2a_branch2a
I1228 11:09:34.361913 32357 net.cpp:367] res2a_branch2a_relu -> res2a_branch2a (in-place)
I1228 11:09:34.361925 32357 net.cpp:122] Setting up res2a_branch2a_relu
I1228 11:09:34.361937 32357 net.cpp:129] Top shape: 50 64 56 56 (10035200)
I1228 11:09:34.361945 32357 net.cpp:137] Memory required for data: 1274471200
I1228 11:09:34.361954 32357 layer_factory.hpp:77] Creating layer quantized_res2a_branch2a
I1228 11:09:34.361966 32357 net.cpp:84] Creating Layer quantized_res2a_branch2a
I1228 11:09:34.361975 32357 net.cpp:406] quantized_res2a_branch2a <- res2a_branch2a
I1228 11:09:34.361986 32357 net.cpp:367] quantized_res2a_branch2a -> res2a_branch2a (in-place)
I1228 11:09:34.361999 32357 net.cpp:122] Setting up quantized_res2a_branch2a
I1228 11:09:34.362028 32357 net.cpp:129] Top shape: 50 64 56 56 (10035200)
I1228 11:09:34.362037 32357 net.cpp:137] Memory required for data: 1314612000
I1228 11:09:34.362046 32357 layer_factory.hpp:77] Creating layer res2a_branch2b
I1228 11:09:34.362062 32357 net.cpp:84] Creating Layer res2a_branch2b
I1228 11:09:34.362072 32357 net.cpp:406] res2a_branch2b <- res2a_branch2a
I1228 11:09:34.362085 32357 net.cpp:380] res2a_branch2b -> res2a_branch2b
ydwu=======get:
bit_width=8;  round_method=1;  round_strategy=2;  is_runtime=0;  range_low=-0.655141;  range_high=0.540852
I1228 11:09:34.363422 32357 net.cpp:122] Setting up res2a_branch2b
I1228 11:09:34.363440 32357 net.cpp:129] Top shape: 50 64 56 56 (10035200)
I1228 11:09:34.363450 32357 net.cpp:137] Memory required for data: 1354752800
I1228 11:09:34.363461 32357 layer_factory.hpp:77] Creating layer bn2a_branch2b
I1228 11:09:34.363473 32357 net.cpp:84] Creating Layer bn2a_branch2b
I1228 11:09:34.363483 32357 net.cpp:406] bn2a_branch2b <- res2a_branch2b
I1228 11:09:34.363494 32357 net.cpp:367] bn2a_branch2b -> res2a_branch2b (in-place)
I1228 11:09:34.363670 32357 net.cpp:122] Setting up bn2a_branch2b
I1228 11:09:34.363687 32357 net.cpp:129] Top shape: 50 64 56 56 (10035200)
I1228 11:09:34.363696 32357 net.cpp:137] Memory required for data: 1394893600
I1228 11:09:34.363710 32357 layer_factory.hpp:77] Creating layer scale2a_branch2b
I1228 11:09:34.363723 32357 net.cpp:84] Creating Layer scale2a_branch2b
I1228 11:09:34.363734 32357 net.cpp:406] scale2a_branch2b <- res2a_branch2b
I1228 11:09:34.363745 32357 net.cpp:367] scale2a_branch2b -> res2a_branch2b (in-place)
I1228 11:09:34.363792 32357 layer_factory.hpp:77] Creating layer scale2a_branch2b
I1228 11:09:34.363911 32357 net.cpp:122] Setting up scale2a_branch2b
I1228 11:09:34.363929 32357 net.cpp:129] Top shape: 50 64 56 56 (10035200)
I1228 11:09:34.363937 32357 net.cpp:137] Memory required for data: 1435034400
I1228 11:09:34.363950 32357 layer_factory.hpp:77] Creating layer quantized_res2a_branch2b
I1228 11:09:34.363963 32357 net.cpp:84] Creating Layer quantized_res2a_branch2b
I1228 11:09:34.363973 32357 net.cpp:406] quantized_res2a_branch2b <- res2a_branch2b
I1228 11:09:34.363986 32357 net.cpp:367] quantized_res2a_branch2b -> res2a_branch2b (in-place)
I1228 11:09:34.363998 32357 net.cpp:122] Setting up quantized_res2a_branch2b
I1228 11:09:34.364009 32357 net.cpp:129] Top shape: 50 64 56 56 (10035200)
I1228 11:09:34.364018 32357 net.cpp:137] Memory required for data: 1475175200
I1228 11:09:34.364027 32357 layer_factory.hpp:77] Creating layer res2a
I1228 11:09:34.364045 32357 net.cpp:84] Creating Layer res2a
I1228 11:09:34.364056 32357 net.cpp:406] res2a <- res2a_branch1
I1228 11:09:34.364066 32357 net.cpp:406] res2a <- res2a_branch2b
I1228 11:09:34.364078 32357 net.cpp:380] res2a -> res2a
I1228 11:09:34.364120 32357 net.cpp:122] Setting up res2a
I1228 11:09:34.364137 32357 net.cpp:129] Top shape: 50 64 56 56 (10035200)
I1228 11:09:34.364163 32357 net.cpp:137] Memory required for data: 1515316000
I1228 11:09:34.364174 32357 layer_factory.hpp:77] Creating layer res2a_relu
I1228 11:09:34.364187 32357 net.cpp:84] Creating Layer res2a_relu
I1228 11:09:34.364197 32357 net.cpp:406] res2a_relu <- res2a
I1228 11:09:34.364208 32357 net.cpp:367] res2a_relu -> res2a (in-place)
I1228 11:09:34.364222 32357 net.cpp:122] Setting up res2a_relu
I1228 11:09:34.364234 32357 net.cpp:129] Top shape: 50 64 56 56 (10035200)
I1228 11:09:34.364243 32357 net.cpp:137] Memory required for data: 1555456800
I1228 11:09:34.364251 32357 layer_factory.hpp:77] Creating layer quantized_res2a
I1228 11:09:34.364264 32357 net.cpp:84] Creating Layer quantized_res2a
I1228 11:09:34.364272 32357 net.cpp:406] quantized_res2a <- res2a
I1228 11:09:34.364284 32357 net.cpp:367] quantized_res2a -> res2a (in-place)
I1228 11:09:34.364296 32357 net.cpp:122] Setting up quantized_res2a
I1228 11:09:34.364307 32357 net.cpp:129] Top shape: 50 64 56 56 (10035200)
I1228 11:09:34.364315 32357 net.cpp:137] Memory required for data: 1595597600
I1228 11:09:34.364325 32357 layer_factory.hpp:77] Creating layer res2a_quantized_res2a_0_split
I1228 11:09:34.364336 32357 net.cpp:84] Creating Layer res2a_quantized_res2a_0_split
I1228 11:09:34.364346 32357 net.cpp:406] res2a_quantized_res2a_0_split <- res2a
I1228 11:09:34.364356 32357 net.cpp:380] res2a_quantized_res2a_0_split -> res2a_quantized_res2a_0_split_0
I1228 11:09:34.364369 32357 net.cpp:380] res2a_quantized_res2a_0_split -> res2a_quantized_res2a_0_split_1
I1228 11:09:34.364411 32357 net.cpp:122] Setting up res2a_quantized_res2a_0_split
I1228 11:09:34.364426 32357 net.cpp:129] Top shape: 50 64 56 56 (10035200)
I1228 11:09:34.364436 32357 net.cpp:129] Top shape: 50 64 56 56 (10035200)
I1228 11:09:34.364445 32357 net.cpp:137] Memory required for data: 1675879200
I1228 11:09:34.364454 32357 layer_factory.hpp:77] Creating layer res2b_branch2a
I1228 11:09:34.364470 32357 net.cpp:84] Creating Layer res2b_branch2a
I1228 11:09:34.364480 32357 net.cpp:406] res2b_branch2a <- res2a_quantized_res2a_0_split_0
I1228 11:09:34.364493 32357 net.cpp:380] res2b_branch2a -> res2b_branch2a
ydwu=======get:
bit_width=8;  round_method=1;  round_strategy=2;  is_runtime=0;  range_low=-0.568788;  range_high=0.56491
I1228 11:09:34.365830 32357 net.cpp:122] Setting up res2b_branch2a
I1228 11:09:34.365850 32357 net.cpp:129] Top shape: 50 64 56 56 (10035200)
I1228 11:09:34.365859 32357 net.cpp:137] Memory required for data: 1716020000
I1228 11:09:34.365870 32357 layer_factory.hpp:77] Creating layer bn2b_branch2a
I1228 11:09:34.365885 32357 net.cpp:84] Creating Layer bn2b_branch2a
I1228 11:09:34.365895 32357 net.cpp:406] bn2b_branch2a <- res2b_branch2a
I1228 11:09:34.365907 32357 net.cpp:367] bn2b_branch2a -> res2b_branch2a (in-place)
I1228 11:09:34.366083 32357 net.cpp:122] Setting up bn2b_branch2a
I1228 11:09:34.366101 32357 net.cpp:129] Top shape: 50 64 56 56 (10035200)
I1228 11:09:34.366111 32357 net.cpp:137] Memory required for data: 1756160800
I1228 11:09:34.366125 32357 layer_factory.hpp:77] Creating layer scale2b_branch2a
I1228 11:09:34.366138 32357 net.cpp:84] Creating Layer scale2b_branch2a
I1228 11:09:34.366148 32357 net.cpp:406] scale2b_branch2a <- res2b_branch2a
I1228 11:09:34.366160 32357 net.cpp:367] scale2b_branch2a -> res2b_branch2a (in-place)
I1228 11:09:34.366209 32357 layer_factory.hpp:77] Creating layer scale2b_branch2a
I1228 11:09:34.366330 32357 net.cpp:122] Setting up scale2b_branch2a
I1228 11:09:34.366348 32357 net.cpp:129] Top shape: 50 64 56 56 (10035200)
I1228 11:09:34.366358 32357 net.cpp:137] Memory required for data: 1796301600
I1228 11:09:34.366370 32357 layer_factory.hpp:77] Creating layer res2b_branch2a_relu
I1228 11:09:34.366384 32357 net.cpp:84] Creating Layer res2b_branch2a_relu
I1228 11:09:34.366392 32357 net.cpp:406] res2b_branch2a_relu <- res2b_branch2a
I1228 11:09:34.366405 32357 net.cpp:367] res2b_branch2a_relu -> res2b_branch2a (in-place)
I1228 11:09:34.366416 32357 net.cpp:122] Setting up res2b_branch2a_relu
I1228 11:09:34.366427 32357 net.cpp:129] Top shape: 50 64 56 56 (10035200)
I1228 11:09:34.366436 32357 net.cpp:137] Memory required for data: 1836442400
I1228 11:09:34.366464 32357 layer_factory.hpp:77] Creating layer quantized_res2b_branch2a
I1228 11:09:34.366478 32357 net.cpp:84] Creating Layer quantized_res2b_branch2a
I1228 11:09:34.366488 32357 net.cpp:406] quantized_res2b_branch2a <- res2b_branch2a
I1228 11:09:34.366500 32357 net.cpp:367] quantized_res2b_branch2a -> res2b_branch2a (in-place)
I1228 11:09:34.366513 32357 net.cpp:122] Setting up quantized_res2b_branch2a
I1228 11:09:34.366524 32357 net.cpp:129] Top shape: 50 64 56 56 (10035200)
I1228 11:09:34.366533 32357 net.cpp:137] Memory required for data: 1876583200
I1228 11:09:34.366541 32357 layer_factory.hpp:77] Creating layer res2b_branch2b
I1228 11:09:34.366556 32357 net.cpp:84] Creating Layer res2b_branch2b
I1228 11:09:34.366566 32357 net.cpp:406] res2b_branch2b <- res2b_branch2a
I1228 11:09:34.366578 32357 net.cpp:380] res2b_branch2b -> res2b_branch2b
ydwu=======get:
bit_width=8;  round_method=1;  round_strategy=2;  is_runtime=0;  range_low=-0.622088;  range_high=0.687465
I1228 11:09:34.367925 32357 net.cpp:122] Setting up res2b_branch2b
I1228 11:09:34.367944 32357 net.cpp:129] Top shape: 50 64 56 56 (10035200)
I1228 11:09:34.367952 32357 net.cpp:137] Memory required for data: 1916724000
I1228 11:09:34.367964 32357 layer_factory.hpp:77] Creating layer bn2b_branch2b
I1228 11:09:34.367980 32357 net.cpp:84] Creating Layer bn2b_branch2b
I1228 11:09:34.367991 32357 net.cpp:406] bn2b_branch2b <- res2b_branch2b
I1228 11:09:34.368003 32357 net.cpp:367] bn2b_branch2b -> res2b_branch2b (in-place)
I1228 11:09:34.368180 32357 net.cpp:122] Setting up bn2b_branch2b
I1228 11:09:34.368197 32357 net.cpp:129] Top shape: 50 64 56 56 (10035200)
I1228 11:09:34.368206 32357 net.cpp:137] Memory required for data: 1956864800
I1228 11:09:34.368227 32357 layer_factory.hpp:77] Creating layer scale2b_branch2b
I1228 11:09:34.368242 32357 net.cpp:84] Creating Layer scale2b_branch2b
I1228 11:09:34.368252 32357 net.cpp:406] scale2b_branch2b <- res2b_branch2b
I1228 11:09:34.368263 32357 net.cpp:367] scale2b_branch2b -> res2b_branch2b (in-place)
I1228 11:09:34.368309 32357 layer_factory.hpp:77] Creating layer scale2b_branch2b
I1228 11:09:34.368430 32357 net.cpp:122] Setting up scale2b_branch2b
I1228 11:09:34.368448 32357 net.cpp:129] Top shape: 50 64 56 56 (10035200)
I1228 11:09:34.368456 32357 net.cpp:137] Memory required for data: 1997005600
I1228 11:09:34.368469 32357 layer_factory.hpp:77] Creating layer quantized_res2b_branch2b
I1228 11:09:34.368482 32357 net.cpp:84] Creating Layer quantized_res2b_branch2b
I1228 11:09:34.368492 32357 net.cpp:406] quantized_res2b_branch2b <- res2b_branch2b
I1228 11:09:34.368505 32357 net.cpp:367] quantized_res2b_branch2b -> res2b_branch2b (in-place)
I1228 11:09:34.368517 32357 net.cpp:122] Setting up quantized_res2b_branch2b
I1228 11:09:34.368530 32357 net.cpp:129] Top shape: 50 64 56 56 (10035200)
I1228 11:09:34.368538 32357 net.cpp:137] Memory required for data: 2037146400
I1228 11:09:34.368547 32357 layer_factory.hpp:77] Creating layer res2b
I1228 11:09:34.368559 32357 net.cpp:84] Creating Layer res2b
I1228 11:09:34.368569 32357 net.cpp:406] res2b <- res2a_quantized_res2a_0_split_1
I1228 11:09:34.368579 32357 net.cpp:406] res2b <- res2b_branch2b
I1228 11:09:34.368592 32357 net.cpp:380] res2b -> res2b
I1228 11:09:34.368624 32357 net.cpp:122] Setting up res2b
I1228 11:09:34.368644 32357 net.cpp:129] Top shape: 50 64 56 56 (10035200)
I1228 11:09:34.368654 32357 net.cpp:137] Memory required for data: 2077287200
I1228 11:09:34.368664 32357 layer_factory.hpp:77] Creating layer res2b_relu
I1228 11:09:34.368675 32357 net.cpp:84] Creating Layer res2b_relu
I1228 11:09:34.368685 32357 net.cpp:406] res2b_relu <- res2b
I1228 11:09:34.368696 32357 net.cpp:367] res2b_relu -> res2b (in-place)
I1228 11:09:34.368708 32357 net.cpp:122] Setting up res2b_relu
I1228 11:09:34.368719 32357 net.cpp:129] Top shape: 50 64 56 56 (10035200)
I1228 11:09:34.368727 32357 net.cpp:137] Memory required for data: 2117428000
I1228 11:09:34.368736 32357 layer_factory.hpp:77] Creating layer quantized_res2b
I1228 11:09:34.368748 32357 net.cpp:84] Creating Layer quantized_res2b
I1228 11:09:34.368757 32357 net.cpp:406] quantized_res2b <- res2b
I1228 11:09:34.368768 32357 net.cpp:367] quantized_res2b -> res2b (in-place)
I1228 11:09:34.368796 32357 net.cpp:122] Setting up quantized_res2b
I1228 11:09:34.368809 32357 net.cpp:129] Top shape: 50 64 56 56 (10035200)
I1228 11:09:34.368818 32357 net.cpp:137] Memory required for data: 2157568800
I1228 11:09:34.368826 32357 layer_factory.hpp:77] Creating layer res2b_quantized_res2b_0_split
I1228 11:09:34.368839 32357 net.cpp:84] Creating Layer res2b_quantized_res2b_0_split
I1228 11:09:34.368847 32357 net.cpp:406] res2b_quantized_res2b_0_split <- res2b
I1228 11:09:34.368860 32357 net.cpp:380] res2b_quantized_res2b_0_split -> res2b_quantized_res2b_0_split_0
I1228 11:09:34.368872 32357 net.cpp:380] res2b_quantized_res2b_0_split -> res2b_quantized_res2b_0_split_1
I1228 11:09:34.368916 32357 net.cpp:122] Setting up res2b_quantized_res2b_0_split
I1228 11:09:34.368932 32357 net.cpp:129] Top shape: 50 64 56 56 (10035200)
I1228 11:09:34.368942 32357 net.cpp:129] Top shape: 50 64 56 56 (10035200)
I1228 11:09:34.368950 32357 net.cpp:137] Memory required for data: 2237850400
I1228 11:09:34.368958 32357 layer_factory.hpp:77] Creating layer res3a_branch1
I1228 11:09:34.368974 32357 net.cpp:84] Creating Layer res3a_branch1
I1228 11:09:34.368984 32357 net.cpp:406] res3a_branch1 <- res2b_quantized_res2b_0_split_0
I1228 11:09:34.368997 32357 net.cpp:380] res3a_branch1 -> res3a_branch1
ydwu=======get:
bit_width=8;  round_method=1;  round_strategy=2;  is_runtime=0;  range_low=-1.00678;  range_high=1.01198
I1228 11:09:34.369444 32357 net.cpp:122] Setting up res3a_branch1
I1228 11:09:34.369462 32357 net.cpp:129] Top shape: 50 128 28 28 (5017600)
I1228 11:09:34.369472 32357 net.cpp:137] Memory required for data: 2257920800
I1228 11:09:34.369482 32357 layer_factory.hpp:77] Creating layer bn3a_branch1
I1228 11:09:34.369496 32357 net.cpp:84] Creating Layer bn3a_branch1
I1228 11:09:34.369506 32357 net.cpp:406] bn3a_branch1 <- res3a_branch1
I1228 11:09:34.369518 32357 net.cpp:367] bn3a_branch1 -> res3a_branch1 (in-place)
I1228 11:09:34.371111 32357 net.cpp:122] Setting up bn3a_branch1
I1228 11:09:34.371139 32357 net.cpp:129] Top shape: 50 128 28 28 (5017600)
I1228 11:09:34.371150 32357 net.cpp:137] Memory required for data: 2277991200
I1228 11:09:34.371170 32357 layer_factory.hpp:77] Creating layer scale3a_branch1
I1228 11:09:34.371188 32357 net.cpp:84] Creating Layer scale3a_branch1
I1228 11:09:34.371201 32357 net.cpp:406] scale3a_branch1 <- res3a_branch1
I1228 11:09:34.371214 32357 net.cpp:367] scale3a_branch1 -> res3a_branch1 (in-place)
I1228 11:09:34.371273 32357 layer_factory.hpp:77] Creating layer scale3a_branch1
I1228 11:09:34.371388 32357 net.cpp:122] Setting up scale3a_branch1
I1228 11:09:34.371407 32357 net.cpp:129] Top shape: 50 128 28 28 (5017600)
I1228 11:09:34.371415 32357 net.cpp:137] Memory required for data: 2298061600
I1228 11:09:34.371428 32357 layer_factory.hpp:77] Creating layer quantized_res3a_branch1
I1228 11:09:34.371443 32357 net.cpp:84] Creating Layer quantized_res3a_branch1
I1228 11:09:34.371453 32357 net.cpp:406] quantized_res3a_branch1 <- res3a_branch1
I1228 11:09:34.371464 32357 net.cpp:367] quantized_res3a_branch1 -> res3a_branch1 (in-place)
I1228 11:09:34.371479 32357 net.cpp:122] Setting up quantized_res3a_branch1
I1228 11:09:34.371490 32357 net.cpp:129] Top shape: 50 128 28 28 (5017600)
I1228 11:09:34.371498 32357 net.cpp:137] Memory required for data: 2318132000
I1228 11:09:34.371506 32357 layer_factory.hpp:77] Creating layer res3a_branch2a
I1228 11:09:34.371523 32357 net.cpp:84] Creating Layer res3a_branch2a
I1228 11:09:34.371533 32357 net.cpp:406] res3a_branch2a <- res2b_quantized_res2b_0_split_1
I1228 11:09:34.371546 32357 net.cpp:380] res3a_branch2a -> res3a_branch2a
ydwu=======get:
bit_width=8;  round_method=1;  round_strategy=2;  is_runtime=0;  range_low=-0.580899;  range_high=0.490194
I1228 11:09:34.374027 32357 net.cpp:122] Setting up res3a_branch2a
I1228 11:09:34.374045 32357 net.cpp:129] Top shape: 50 128 28 28 (5017600)
I1228 11:09:34.374054 32357 net.cpp:137] Memory required for data: 2338202400
I1228 11:09:34.374065 32357 layer_factory.hpp:77] Creating layer bn3a_branch2a
I1228 11:09:34.374079 32357 net.cpp:84] Creating Layer bn3a_branch2a
I1228 11:09:34.374089 32357 net.cpp:406] bn3a_branch2a <- res3a_branch2a
I1228 11:09:34.374101 32357 net.cpp:367] bn3a_branch2a -> res3a_branch2a (in-place)
I1228 11:09:34.374310 32357 net.cpp:122] Setting up bn3a_branch2a
I1228 11:09:34.374328 32357 net.cpp:129] Top shape: 50 128 28 28 (5017600)
I1228 11:09:34.374337 32357 net.cpp:137] Memory required for data: 2358272800
I1228 11:09:34.374351 32357 layer_factory.hpp:77] Creating layer scale3a_branch2a
I1228 11:09:34.374364 32357 net.cpp:84] Creating Layer scale3a_branch2a
I1228 11:09:34.374374 32357 net.cpp:406] scale3a_branch2a <- res3a_branch2a
I1228 11:09:34.374387 32357 net.cpp:367] scale3a_branch2a -> res3a_branch2a (in-place)
I1228 11:09:34.374433 32357 layer_factory.hpp:77] Creating layer scale3a_branch2a
I1228 11:09:34.374541 32357 net.cpp:122] Setting up scale3a_branch2a
I1228 11:09:34.374557 32357 net.cpp:129] Top shape: 50 128 28 28 (5017600)
I1228 11:09:34.374565 32357 net.cpp:137] Memory required for data: 2378343200
I1228 11:09:34.374578 32357 layer_factory.hpp:77] Creating layer res3a_branch2a_relu
I1228 11:09:34.374591 32357 net.cpp:84] Creating Layer res3a_branch2a_relu
I1228 11:09:34.374601 32357 net.cpp:406] res3a_branch2a_relu <- res3a_branch2a
I1228 11:09:34.374613 32357 net.cpp:367] res3a_branch2a_relu -> res3a_branch2a (in-place)
I1228 11:09:34.374625 32357 net.cpp:122] Setting up res3a_branch2a_relu
I1228 11:09:34.374636 32357 net.cpp:129] Top shape: 50 128 28 28 (5017600)
I1228 11:09:34.374645 32357 net.cpp:137] Memory required for data: 2398413600
I1228 11:09:34.374655 32357 layer_factory.hpp:77] Creating layer quantized_res3a_branch2a
I1228 11:09:34.374666 32357 net.cpp:84] Creating Layer quantized_res3a_branch2a
I1228 11:09:34.374676 32357 net.cpp:406] quantized_res3a_branch2a <- res3a_branch2a
I1228 11:09:34.374687 32357 net.cpp:367] quantized_res3a_branch2a -> res3a_branch2a (in-place)
I1228 11:09:34.374701 32357 net.cpp:122] Setting up quantized_res3a_branch2a
I1228 11:09:34.374711 32357 net.cpp:129] Top shape: 50 128 28 28 (5017600)
I1228 11:09:34.374721 32357 net.cpp:137] Memory required for data: 2418484000
I1228 11:09:34.374729 32357 layer_factory.hpp:77] Creating layer res3a_branch2b
I1228 11:09:34.374743 32357 net.cpp:84] Creating Layer res3a_branch2b
I1228 11:09:34.374753 32357 net.cpp:406] res3a_branch2b <- res3a_branch2a
I1228 11:09:34.374766 32357 net.cpp:380] res3a_branch2b -> res3a_branch2b
ydwu=======get:
bit_width=8;  round_method=1;  round_strategy=2;  is_runtime=0;  range_low=-0.573389;  range_high=0.902467
I1228 11:09:34.379508 32357 net.cpp:122] Setting up res3a_branch2b
I1228 11:09:34.379524 32357 net.cpp:129] Top shape: 50 128 28 28 (5017600)
I1228 11:09:34.379534 32357 net.cpp:137] Memory required for data: 2438554400
I1228 11:09:34.379545 32357 layer_factory.hpp:77] Creating layer bn3a_branch2b
I1228 11:09:34.379557 32357 net.cpp:84] Creating Layer bn3a_branch2b
I1228 11:09:34.379567 32357 net.cpp:406] bn3a_branch2b <- res3a_branch2b
I1228 11:09:34.379581 32357 net.cpp:367] bn3a_branch2b -> res3a_branch2b (in-place)
I1228 11:09:34.379750 32357 net.cpp:122] Setting up bn3a_branch2b
I1228 11:09:34.379766 32357 net.cpp:129] Top shape: 50 128 28 28 (5017600)
I1228 11:09:34.379776 32357 net.cpp:137] Memory required for data: 2458624800
I1228 11:09:34.379789 32357 layer_factory.hpp:77] Creating layer scale3a_branch2b
I1228 11:09:34.379802 32357 net.cpp:84] Creating Layer scale3a_branch2b
I1228 11:09:34.379812 32357 net.cpp:406] scale3a_branch2b <- res3a_branch2b
I1228 11:09:34.379824 32357 net.cpp:367] scale3a_branch2b -> res3a_branch2b (in-place)
I1228 11:09:34.379869 32357 layer_factory.hpp:77] Creating layer scale3a_branch2b
I1228 11:09:34.379976 32357 net.cpp:122] Setting up scale3a_branch2b
I1228 11:09:34.379992 32357 net.cpp:129] Top shape: 50 128 28 28 (5017600)
I1228 11:09:34.380002 32357 net.cpp:137] Memory required for data: 2478695200
I1228 11:09:34.380013 32357 layer_factory.hpp:77] Creating layer quantized_res3a_branch2b
I1228 11:09:34.380026 32357 net.cpp:84] Creating Layer quantized_res3a_branch2b
I1228 11:09:34.380036 32357 net.cpp:406] quantized_res3a_branch2b <- res3a_branch2b
I1228 11:09:34.380048 32357 net.cpp:367] quantized_res3a_branch2b -> res3a_branch2b (in-place)
I1228 11:09:34.380061 32357 net.cpp:122] Setting up quantized_res3a_branch2b
I1228 11:09:34.380086 32357 net.cpp:129] Top shape: 50 128 28 28 (5017600)
I1228 11:09:34.380097 32357 net.cpp:137] Memory required for data: 2498765600
I1228 11:09:34.380106 32357 layer_factory.hpp:77] Creating layer res3a
I1228 11:09:34.380120 32357 net.cpp:84] Creating Layer res3a
I1228 11:09:34.380131 32357 net.cpp:406] res3a <- res3a_branch1
I1228 11:09:34.380141 32357 net.cpp:406] res3a <- res3a_branch2b
I1228 11:09:34.380153 32357 net.cpp:380] res3a -> res3a
I1228 11:09:34.380189 32357 net.cpp:122] Setting up res3a
I1228 11:09:34.380204 32357 net.cpp:129] Top shape: 50 128 28 28 (5017600)
I1228 11:09:34.380213 32357 net.cpp:137] Memory required for data: 2518836000
I1228 11:09:34.380223 32357 layer_factory.hpp:77] Creating layer res3a_relu
I1228 11:09:34.380235 32357 net.cpp:84] Creating Layer res3a_relu
I1228 11:09:34.380244 32357 net.cpp:406] res3a_relu <- res3a
I1228 11:09:34.380256 32357 net.cpp:367] res3a_relu -> res3a (in-place)
I1228 11:09:34.380269 32357 net.cpp:122] Setting up res3a_relu
I1228 11:09:34.380280 32357 net.cpp:129] Top shape: 50 128 28 28 (5017600)
I1228 11:09:34.380287 32357 net.cpp:137] Memory required for data: 2538906400
I1228 11:09:34.380296 32357 layer_factory.hpp:77] Creating layer quantized_res3a
I1228 11:09:34.380308 32357 net.cpp:84] Creating Layer quantized_res3a
I1228 11:09:34.380317 32357 net.cpp:406] quantized_res3a <- res3a
I1228 11:09:34.380329 32357 net.cpp:367] quantized_res3a -> res3a (in-place)
I1228 11:09:34.380340 32357 net.cpp:122] Setting up quantized_res3a
I1228 11:09:34.380352 32357 net.cpp:129] Top shape: 50 128 28 28 (5017600)
I1228 11:09:34.380360 32357 net.cpp:137] Memory required for data: 2558976800
I1228 11:09:34.380368 32357 layer_factory.hpp:77] Creating layer res3a_quantized_res3a_0_split
I1228 11:09:34.380381 32357 net.cpp:84] Creating Layer res3a_quantized_res3a_0_split
I1228 11:09:34.380390 32357 net.cpp:406] res3a_quantized_res3a_0_split <- res3a
I1228 11:09:34.380401 32357 net.cpp:380] res3a_quantized_res3a_0_split -> res3a_quantized_res3a_0_split_0
I1228 11:09:34.380415 32357 net.cpp:380] res3a_quantized_res3a_0_split -> res3a_quantized_res3a_0_split_1
I1228 11:09:34.380456 32357 net.cpp:122] Setting up res3a_quantized_res3a_0_split
I1228 11:09:34.380472 32357 net.cpp:129] Top shape: 50 128 28 28 (5017600)
I1228 11:09:34.380482 32357 net.cpp:129] Top shape: 50 128 28 28 (5017600)
I1228 11:09:34.380491 32357 net.cpp:137] Memory required for data: 2599117600
I1228 11:09:34.380499 32357 layer_factory.hpp:77] Creating layer res3b_branch2a
I1228 11:09:34.380515 32357 net.cpp:84] Creating Layer res3b_branch2a
I1228 11:09:34.380525 32357 net.cpp:406] res3b_branch2a <- res3a_quantized_res3a_0_split_0
I1228 11:09:34.380538 32357 net.cpp:380] res3b_branch2a -> res3b_branch2a
ydwu=======get:
bit_width=8;  round_method=1;  round_strategy=2;  is_runtime=0;  range_low=-0.708082;  range_high=0.889211
I1228 11:09:34.389700 32357 net.cpp:122] Setting up res3b_branch2a
I1228 11:09:34.389719 32357 net.cpp:129] Top shape: 50 128 28 28 (5017600)
I1228 11:09:34.389729 32357 net.cpp:137] Memory required for data: 2619188000
I1228 11:09:34.389740 32357 layer_factory.hpp:77] Creating layer bn3b_branch2a
I1228 11:09:34.389753 32357 net.cpp:84] Creating Layer bn3b_branch2a
I1228 11:09:34.389763 32357 net.cpp:406] bn3b_branch2a <- res3b_branch2a
I1228 11:09:34.389775 32357 net.cpp:367] bn3b_branch2a -> res3b_branch2a (in-place)
I1228 11:09:34.389946 32357 net.cpp:122] Setting up bn3b_branch2a
I1228 11:09:34.389963 32357 net.cpp:129] Top shape: 50 128 28 28 (5017600)
I1228 11:09:34.389972 32357 net.cpp:137] Memory required for data: 2639258400
I1228 11:09:34.389986 32357 layer_factory.hpp:77] Creating layer scale3b_branch2a
I1228 11:09:34.389999 32357 net.cpp:84] Creating Layer scale3b_branch2a
I1228 11:09:34.390009 32357 net.cpp:406] scale3b_branch2a <- res3b_branch2a
I1228 11:09:34.390022 32357 net.cpp:367] scale3b_branch2a -> res3b_branch2a (in-place)
I1228 11:09:34.390067 32357 layer_factory.hpp:77] Creating layer scale3b_branch2a
I1228 11:09:34.390184 32357 net.cpp:122] Setting up scale3b_branch2a
I1228 11:09:34.390202 32357 net.cpp:129] Top shape: 50 128 28 28 (5017600)
I1228 11:09:34.390210 32357 net.cpp:137] Memory required for data: 2659328800
I1228 11:09:34.390236 32357 layer_factory.hpp:77] Creating layer res3b_branch2a_relu
I1228 11:09:34.390250 32357 net.cpp:84] Creating Layer res3b_branch2a_relu
I1228 11:09:34.390260 32357 net.cpp:406] res3b_branch2a_relu <- res3b_branch2a
I1228 11:09:34.390271 32357 net.cpp:367] res3b_branch2a_relu -> res3b_branch2a (in-place)
I1228 11:09:34.390285 32357 net.cpp:122] Setting up res3b_branch2a_relu
I1228 11:09:34.390295 32357 net.cpp:129] Top shape: 50 128 28 28 (5017600)
I1228 11:09:34.390305 32357 net.cpp:137] Memory required for data: 2679399200
I1228 11:09:34.390313 32357 layer_factory.hpp:77] Creating layer quantized_res3b_branch2a
I1228 11:09:34.390324 32357 net.cpp:84] Creating Layer quantized_res3b_branch2a
I1228 11:09:34.390334 32357 net.cpp:406] quantized_res3b_branch2a <- res3b_branch2a
I1228 11:09:34.390347 32357 net.cpp:367] quantized_res3b_branch2a -> res3b_branch2a (in-place)
I1228 11:09:34.390359 32357 net.cpp:122] Setting up quantized_res3b_branch2a
I1228 11:09:34.390372 32357 net.cpp:129] Top shape: 50 128 28 28 (5017600)
I1228 11:09:34.390380 32357 net.cpp:137] Memory required for data: 2699469600
I1228 11:09:34.390389 32357 layer_factory.hpp:77] Creating layer res3b_branch2b
I1228 11:09:34.390404 32357 net.cpp:84] Creating Layer res3b_branch2b
I1228 11:09:34.390414 32357 net.cpp:406] res3b_branch2b <- res3b_branch2a
I1228 11:09:34.390427 32357 net.cpp:380] res3b_branch2b -> res3b_branch2b
ydwu=======get:
bit_width=8;  round_method=1;  round_strategy=2;  is_runtime=0;  range_low=-0.514097;  range_high=0.581038
I1228 11:09:34.395123 32357 net.cpp:122] Setting up res3b_branch2b
I1228 11:09:34.395141 32357 net.cpp:129] Top shape: 50 128 28 28 (5017600)
I1228 11:09:34.395150 32357 net.cpp:137] Memory required for data: 2719540000
I1228 11:09:34.395161 32357 layer_factory.hpp:77] Creating layer bn3b_branch2b
I1228 11:09:34.395174 32357 net.cpp:84] Creating Layer bn3b_branch2b
I1228 11:09:34.395184 32357 net.cpp:406] bn3b_branch2b <- res3b_branch2b
I1228 11:09:34.395195 32357 net.cpp:367] bn3b_branch2b -> res3b_branch2b (in-place)
I1228 11:09:34.395368 32357 net.cpp:122] Setting up bn3b_branch2b
I1228 11:09:34.395385 32357 net.cpp:129] Top shape: 50 128 28 28 (5017600)
I1228 11:09:34.395395 32357 net.cpp:137] Memory required for data: 2739610400
I1228 11:09:34.395407 32357 layer_factory.hpp:77] Creating layer scale3b_branch2b
I1228 11:09:34.395421 32357 net.cpp:84] Creating Layer scale3b_branch2b
I1228 11:09:34.395431 32357 net.cpp:406] scale3b_branch2b <- res3b_branch2b
I1228 11:09:34.395443 32357 net.cpp:367] scale3b_branch2b -> res3b_branch2b (in-place)
I1228 11:09:34.395488 32357 layer_factory.hpp:77] Creating layer scale3b_branch2b
I1228 11:09:34.395659 32357 net.cpp:122] Setting up scale3b_branch2b
I1228 11:09:34.395676 32357 net.cpp:129] Top shape: 50 128 28 28 (5017600)
I1228 11:09:34.395706 32357 net.cpp:137] Memory required for data: 2759680800
I1228 11:09:34.395731 32357 layer_factory.hpp:77] Creating layer quantized_res3b_branch2b
I1228 11:09:34.395753 32357 net.cpp:84] Creating Layer quantized_res3b_branch2b
I1228 11:09:34.395763 32357 net.cpp:406] quantized_res3b_branch2b <- res3b_branch2b
I1228 11:09:34.395776 32357 net.cpp:367] quantized_res3b_branch2b -> res3b_branch2b (in-place)
I1228 11:09:34.395789 32357 net.cpp:122] Setting up quantized_res3b_branch2b
I1228 11:09:34.395800 32357 net.cpp:129] Top shape: 50 128 28 28 (5017600)
I1228 11:09:34.395809 32357 net.cpp:137] Memory required for data: 2779751200
I1228 11:09:34.395820 32357 layer_factory.hpp:77] Creating layer res3b
I1228 11:09:34.395833 32357 net.cpp:84] Creating Layer res3b
I1228 11:09:34.395841 32357 net.cpp:406] res3b <- res3a_quantized_res3a_0_split_1
I1228 11:09:34.395851 32357 net.cpp:406] res3b <- res3b_branch2b
I1228 11:09:34.395864 32357 net.cpp:380] res3b -> res3b
I1228 11:09:34.401121 32357 net.cpp:122] Setting up res3b
I1228 11:09:34.401139 32357 net.cpp:129] Top shape: 50 128 28 28 (5017600)
I1228 11:09:34.401149 32357 net.cpp:137] Memory required for data: 2799821600
I1228 11:09:34.401157 32357 layer_factory.hpp:77] Creating layer res3b_relu
I1228 11:09:34.401170 32357 net.cpp:84] Creating Layer res3b_relu
I1228 11:09:34.401192 32357 net.cpp:406] res3b_relu <- res3b
I1228 11:09:34.401206 32357 net.cpp:367] res3b_relu -> res3b (in-place)
I1228 11:09:34.401219 32357 net.cpp:122] Setting up res3b_relu
I1228 11:09:34.401231 32357 net.cpp:129] Top shape: 50 128 28 28 (5017600)
I1228 11:09:34.401239 32357 net.cpp:137] Memory required for data: 2819892000
I1228 11:09:34.401247 32357 layer_factory.hpp:77] Creating layer quantized_res3b
I1228 11:09:34.401259 32357 net.cpp:84] Creating Layer quantized_res3b
I1228 11:09:34.401268 32357 net.cpp:406] quantized_res3b <- res3b
I1228 11:09:34.401280 32357 net.cpp:367] quantized_res3b -> res3b (in-place)
I1228 11:09:34.401293 32357 net.cpp:122] Setting up quantized_res3b
I1228 11:09:34.401304 32357 net.cpp:129] Top shape: 50 128 28 28 (5017600)
I1228 11:09:34.401311 32357 net.cpp:137] Memory required for data: 2839962400
I1228 11:09:34.401320 32357 layer_factory.hpp:77] Creating layer res3b_quantized_res3b_0_split
I1228 11:09:34.401331 32357 net.cpp:84] Creating Layer res3b_quantized_res3b_0_split
I1228 11:09:34.401340 32357 net.cpp:406] res3b_quantized_res3b_0_split <- res3b
I1228 11:09:34.401352 32357 net.cpp:380] res3b_quantized_res3b_0_split -> res3b_quantized_res3b_0_split_0
I1228 11:09:34.401365 32357 net.cpp:380] res3b_quantized_res3b_0_split -> res3b_quantized_res3b_0_split_1
I1228 11:09:34.401409 32357 net.cpp:122] Setting up res3b_quantized_res3b_0_split
I1228 11:09:34.401424 32357 net.cpp:129] Top shape: 50 128 28 28 (5017600)
I1228 11:09:34.401434 32357 net.cpp:129] Top shape: 50 128 28 28 (5017600)
I1228 11:09:34.401443 32357 net.cpp:137] Memory required for data: 2880103200
I1228 11:09:34.401451 32357 layer_factory.hpp:77] Creating layer res4a_branch1
I1228 11:09:34.401466 32357 net.cpp:84] Creating Layer res4a_branch1
I1228 11:09:34.401477 32357 net.cpp:406] res4a_branch1 <- res3b_quantized_res3b_0_split_0
I1228 11:09:34.401490 32357 net.cpp:380] res4a_branch1 -> res4a_branch1
ydwu=======get:
bit_width=8;  round_method=1;  round_strategy=2;  is_runtime=0;  range_low=-0.48113;  range_high=0.65802
I1228 11:09:34.403271 32357 net.cpp:122] Setting up res4a_branch1
I1228 11:09:34.403290 32357 net.cpp:129] Top shape: 50 256 14 14 (2508800)
I1228 11:09:34.403300 32357 net.cpp:137] Memory required for data: 2890138400
I1228 11:09:34.403311 32357 layer_factory.hpp:77] Creating layer bn4a_branch1
I1228 11:09:34.403323 32357 net.cpp:84] Creating Layer bn4a_branch1
I1228 11:09:34.403333 32357 net.cpp:406] bn4a_branch1 <- res4a_branch1
I1228 11:09:34.403344 32357 net.cpp:367] bn4a_branch1 -> res4a_branch1 (in-place)
I1228 11:09:34.403522 32357 net.cpp:122] Setting up bn4a_branch1
I1228 11:09:34.403539 32357 net.cpp:129] Top shape: 50 256 14 14 (2508800)
I1228 11:09:34.403548 32357 net.cpp:137] Memory required for data: 2900173600
I1228 11:09:34.403563 32357 layer_factory.hpp:77] Creating layer scale4a_branch1
I1228 11:09:34.403575 32357 net.cpp:84] Creating Layer scale4a_branch1
I1228 11:09:34.403585 32357 net.cpp:406] scale4a_branch1 <- res4a_branch1
I1228 11:09:34.403596 32357 net.cpp:367] scale4a_branch1 -> res4a_branch1 (in-place)
I1228 11:09:34.403643 32357 layer_factory.hpp:77] Creating layer scale4a_branch1
I1228 11:09:34.403751 32357 net.cpp:122] Setting up scale4a_branch1
I1228 11:09:34.403767 32357 net.cpp:129] Top shape: 50 256 14 14 (2508800)
I1228 11:09:34.403777 32357 net.cpp:137] Memory required for data: 2910208800
I1228 11:09:34.403789 32357 layer_factory.hpp:77] Creating layer quantized_res4a_branch1
I1228 11:09:34.403803 32357 net.cpp:84] Creating Layer quantized_res4a_branch1
I1228 11:09:34.403813 32357 net.cpp:406] quantized_res4a_branch1 <- res4a_branch1
I1228 11:09:34.403825 32357 net.cpp:367] quantized_res4a_branch1 -> res4a_branch1 (in-place)
I1228 11:09:34.403837 32357 net.cpp:122] Setting up quantized_res4a_branch1
I1228 11:09:34.403848 32357 net.cpp:129] Top shape: 50 256 14 14 (2508800)
I1228 11:09:34.403857 32357 net.cpp:137] Memory required for data: 2920244000
I1228 11:09:34.403867 32357 layer_factory.hpp:77] Creating layer res4a_branch2a
I1228 11:09:34.403882 32357 net.cpp:84] Creating Layer res4a_branch2a
I1228 11:09:34.403892 32357 net.cpp:406] res4a_branch2a <- res3b_quantized_res3b_0_split_1
I1228 11:09:34.403918 32357 net.cpp:380] res4a_branch2a -> res4a_branch2a
ydwu=======get:
bit_width=8;  round_method=1;  round_strategy=2;  is_runtime=0;  range_low=-0.441803;  range_high=0.797406
I1228 11:09:34.414358 32357 net.cpp:122] Setting up res4a_branch2a
I1228 11:09:34.414377 32357 net.cpp:129] Top shape: 50 256 14 14 (2508800)
I1228 11:09:34.414387 32357 net.cpp:137] Memory required for data: 2930279200
I1228 11:09:34.414398 32357 layer_factory.hpp:77] Creating layer bn4a_branch2a
I1228 11:09:34.414412 32357 net.cpp:84] Creating Layer bn4a_branch2a
I1228 11:09:34.414422 32357 net.cpp:406] bn4a_branch2a <- res4a_branch2a
I1228 11:09:34.414434 32357 net.cpp:367] bn4a_branch2a -> res4a_branch2a (in-place)
I1228 11:09:34.414608 32357 net.cpp:122] Setting up bn4a_branch2a
I1228 11:09:34.414624 32357 net.cpp:129] Top shape: 50 256 14 14 (2508800)
I1228 11:09:34.414633 32357 net.cpp:137] Memory required for data: 2940314400
I1228 11:09:34.414647 32357 layer_factory.hpp:77] Creating layer scale4a_branch2a
I1228 11:09:34.414660 32357 net.cpp:84] Creating Layer scale4a_branch2a
I1228 11:09:34.414671 32357 net.cpp:406] scale4a_branch2a <- res4a_branch2a
I1228 11:09:34.414682 32357 net.cpp:367] scale4a_branch2a -> res4a_branch2a (in-place)
I1228 11:09:34.414731 32357 layer_factory.hpp:77] Creating layer scale4a_branch2a
I1228 11:09:34.414839 32357 net.cpp:122] Setting up scale4a_branch2a
I1228 11:09:34.414855 32357 net.cpp:129] Top shape: 50 256 14 14 (2508800)
I1228 11:09:34.414865 32357 net.cpp:137] Memory required for data: 2950349600
I1228 11:09:34.414876 32357 layer_factory.hpp:77] Creating layer res4a_branch2a_relu
I1228 11:09:34.414889 32357 net.cpp:84] Creating Layer res4a_branch2a_relu
I1228 11:09:34.414899 32357 net.cpp:406] res4a_branch2a_relu <- res4a_branch2a
I1228 11:09:34.414911 32357 net.cpp:367] res4a_branch2a_relu -> res4a_branch2a (in-place)
I1228 11:09:34.414923 32357 net.cpp:122] Setting up res4a_branch2a_relu
I1228 11:09:34.414934 32357 net.cpp:129] Top shape: 50 256 14 14 (2508800)
I1228 11:09:34.414943 32357 net.cpp:137] Memory required for data: 2960384800
I1228 11:09:34.414952 32357 layer_factory.hpp:77] Creating layer quantized_res4a_branch2a
I1228 11:09:34.414970 32357 net.cpp:84] Creating Layer quantized_res4a_branch2a
I1228 11:09:34.414983 32357 net.cpp:406] quantized_res4a_branch2a <- res4a_branch2a
I1228 11:09:34.414995 32357 net.cpp:367] quantized_res4a_branch2a -> res4a_branch2a (in-place)
I1228 11:09:34.415007 32357 net.cpp:122] Setting up quantized_res4a_branch2a
I1228 11:09:34.415019 32357 net.cpp:129] Top shape: 50 256 14 14 (2508800)
I1228 11:09:34.415027 32357 net.cpp:137] Memory required for data: 2970420000
I1228 11:09:34.415036 32357 layer_factory.hpp:77] Creating layer res4a_branch2b
I1228 11:09:34.415050 32357 net.cpp:84] Creating Layer res4a_branch2b
I1228 11:09:34.415060 32357 net.cpp:406] res4a_branch2b <- res4a_branch2a
I1228 11:09:34.415073 32357 net.cpp:380] res4a_branch2b -> res4a_branch2b
ydwu=======get:
bit_width=8;  round_method=1;  round_strategy=2;  is_runtime=0;  range_low=-0.495432;  range_high=0.719875
I1228 11:09:34.434494 32357 net.cpp:122] Setting up res4a_branch2b
I1228 11:09:34.434517 32357 net.cpp:129] Top shape: 50 256 14 14 (2508800)
I1228 11:09:34.434526 32357 net.cpp:137] Memory required for data: 2980455200
I1228 11:09:34.434540 32357 layer_factory.hpp:77] Creating layer bn4a_branch2b
I1228 11:09:34.434553 32357 net.cpp:84] Creating Layer bn4a_branch2b
I1228 11:09:34.434564 32357 net.cpp:406] bn4a_branch2b <- res4a_branch2b
I1228 11:09:34.434576 32357 net.cpp:367] bn4a_branch2b -> res4a_branch2b (in-place)
I1228 11:09:34.434754 32357 net.cpp:122] Setting up bn4a_branch2b
I1228 11:09:34.434772 32357 net.cpp:129] Top shape: 50 256 14 14 (2508800)
I1228 11:09:34.434782 32357 net.cpp:137] Memory required for data: 2990490400
I1228 11:09:34.434794 32357 layer_factory.hpp:77] Creating layer scale4a_branch2b
I1228 11:09:34.434808 32357 net.cpp:84] Creating Layer scale4a_branch2b
I1228 11:09:34.434818 32357 net.cpp:406] scale4a_branch2b <- res4a_branch2b
I1228 11:09:34.434829 32357 net.cpp:367] scale4a_branch2b -> res4a_branch2b (in-place)
I1228 11:09:34.434880 32357 layer_factory.hpp:77] Creating layer scale4a_branch2b
I1228 11:09:34.435001 32357 net.cpp:122] Setting up scale4a_branch2b
I1228 11:09:34.435044 32357 net.cpp:129] Top shape: 50 256 14 14 (2508800)
I1228 11:09:34.435053 32357 net.cpp:137] Memory required for data: 3000525600
I1228 11:09:34.435066 32357 layer_factory.hpp:77] Creating layer quantized_res4a_branch2b
I1228 11:09:34.435081 32357 net.cpp:84] Creating Layer quantized_res4a_branch2b
I1228 11:09:34.435091 32357 net.cpp:406] quantized_res4a_branch2b <- res4a_branch2b
I1228 11:09:34.435102 32357 net.cpp:367] quantized_res4a_branch2b -> res4a_branch2b (in-place)
I1228 11:09:34.435115 32357 net.cpp:122] Setting up quantized_res4a_branch2b
I1228 11:09:34.435127 32357 net.cpp:129] Top shape: 50 256 14 14 (2508800)
I1228 11:09:34.435135 32357 net.cpp:137] Memory required for data: 3010560800
I1228 11:09:34.435144 32357 layer_factory.hpp:77] Creating layer res4a
I1228 11:09:34.435156 32357 net.cpp:84] Creating Layer res4a
I1228 11:09:34.435166 32357 net.cpp:406] res4a <- res4a_branch1
I1228 11:09:34.435176 32357 net.cpp:406] res4a <- res4a_branch2b
I1228 11:09:34.435189 32357 net.cpp:380] res4a -> res4a
I1228 11:09:34.435223 32357 net.cpp:122] Setting up res4a
I1228 11:09:34.435240 32357 net.cpp:129] Top shape: 50 256 14 14 (2508800)
I1228 11:09:34.435247 32357 net.cpp:137] Memory required for data: 3020596000
I1228 11:09:34.435256 32357 layer_factory.hpp:77] Creating layer res4a_relu
I1228 11:09:34.435269 32357 net.cpp:84] Creating Layer res4a_relu
I1228 11:09:34.435278 32357 net.cpp:406] res4a_relu <- res4a
I1228 11:09:34.435289 32357 net.cpp:367] res4a_relu -> res4a (in-place)
I1228 11:09:34.435302 32357 net.cpp:122] Setting up res4a_relu
I1228 11:09:34.435312 32357 net.cpp:129] Top shape: 50 256 14 14 (2508800)
I1228 11:09:34.435322 32357 net.cpp:137] Memory required for data: 3030631200
I1228 11:09:34.435330 32357 layer_factory.hpp:77] Creating layer quantized_res4a
I1228 11:09:34.435341 32357 net.cpp:84] Creating Layer quantized_res4a
I1228 11:09:34.435351 32357 net.cpp:406] quantized_res4a <- res4a
I1228 11:09:34.435362 32357 net.cpp:367] quantized_res4a -> res4a (in-place)
I1228 11:09:34.435374 32357 net.cpp:122] Setting up quantized_res4a
I1228 11:09:34.435384 32357 net.cpp:129] Top shape: 50 256 14 14 (2508800)
I1228 11:09:34.435394 32357 net.cpp:137] Memory required for data: 3040666400
I1228 11:09:34.435401 32357 layer_factory.hpp:77] Creating layer res4a_quantized_res4a_0_split
I1228 11:09:34.435412 32357 net.cpp:84] Creating Layer res4a_quantized_res4a_0_split
I1228 11:09:34.435421 32357 net.cpp:406] res4a_quantized_res4a_0_split <- res4a
I1228 11:09:34.435433 32357 net.cpp:380] res4a_quantized_res4a_0_split -> res4a_quantized_res4a_0_split_0
I1228 11:09:34.435446 32357 net.cpp:380] res4a_quantized_res4a_0_split -> res4a_quantized_res4a_0_split_1
I1228 11:09:34.435488 32357 net.cpp:122] Setting up res4a_quantized_res4a_0_split
I1228 11:09:34.435504 32357 net.cpp:129] Top shape: 50 256 14 14 (2508800)
I1228 11:09:34.435514 32357 net.cpp:129] Top shape: 50 256 14 14 (2508800)
I1228 11:09:34.435523 32357 net.cpp:137] Memory required for data: 3060736800
I1228 11:09:34.435531 32357 layer_factory.hpp:77] Creating layer res4b_branch2a
I1228 11:09:34.435547 32357 net.cpp:84] Creating Layer res4b_branch2a
I1228 11:09:34.435557 32357 net.cpp:406] res4b_branch2a <- res4a_quantized_res4a_0_split_0
I1228 11:09:34.435570 32357 net.cpp:380] res4b_branch2a -> res4b_branch2a
ydwu=======get:
bit_width=8;  round_method=1;  round_strategy=2;  is_runtime=0;  range_low=-0.44581;  range_high=0.524512
I1228 11:09:34.455049 32357 net.cpp:122] Setting up res4b_branch2a
I1228 11:09:34.455068 32357 net.cpp:129] Top shape: 50 256 14 14 (2508800)
I1228 11:09:34.455077 32357 net.cpp:137] Memory required for data: 3070772000
I1228 11:09:34.455090 32357 layer_factory.hpp:77] Creating layer bn4b_branch2a
I1228 11:09:34.455103 32357 net.cpp:84] Creating Layer bn4b_branch2a
I1228 11:09:34.455113 32357 net.cpp:406] bn4b_branch2a <- res4b_branch2a
I1228 11:09:34.455126 32357 net.cpp:367] bn4b_branch2a -> res4b_branch2a (in-place)
I1228 11:09:34.455310 32357 net.cpp:122] Setting up bn4b_branch2a
I1228 11:09:34.455327 32357 net.cpp:129] Top shape: 50 256 14 14 (2508800)
I1228 11:09:34.455338 32357 net.cpp:137] Memory required for data: 3080807200
I1228 11:09:34.455368 32357 layer_factory.hpp:77] Creating layer scale4b_branch2a
I1228 11:09:34.455382 32357 net.cpp:84] Creating Layer scale4b_branch2a
I1228 11:09:34.455392 32357 net.cpp:406] scale4b_branch2a <- res4b_branch2a
I1228 11:09:34.455404 32357 net.cpp:367] scale4b_branch2a -> res4b_branch2a (in-place)
I1228 11:09:34.455456 32357 layer_factory.hpp:77] Creating layer scale4b_branch2a
I1228 11:09:34.455571 32357 net.cpp:122] Setting up scale4b_branch2a
I1228 11:09:34.455587 32357 net.cpp:129] Top shape: 50 256 14 14 (2508800)
I1228 11:09:34.455597 32357 net.cpp:137] Memory required for data: 3090842400
I1228 11:09:34.455610 32357 layer_factory.hpp:77] Creating layer res4b_branch2a_relu
I1228 11:09:34.455622 32357 net.cpp:84] Creating Layer res4b_branch2a_relu
I1228 11:09:34.455632 32357 net.cpp:406] res4b_branch2a_relu <- res4b_branch2a
I1228 11:09:34.455643 32357 net.cpp:367] res4b_branch2a_relu -> res4b_branch2a (in-place)
I1228 11:09:34.455657 32357 net.cpp:122] Setting up res4b_branch2a_relu
I1228 11:09:34.455667 32357 net.cpp:129] Top shape: 50 256 14 14 (2508800)
I1228 11:09:34.455675 32357 net.cpp:137] Memory required for data: 3100877600
I1228 11:09:34.455684 32357 layer_factory.hpp:77] Creating layer quantized_res4b_branch2a
I1228 11:09:34.455696 32357 net.cpp:84] Creating Layer quantized_res4b_branch2a
I1228 11:09:34.455705 32357 net.cpp:406] quantized_res4b_branch2a <- res4b_branch2a
I1228 11:09:34.455718 32357 net.cpp:367] quantized_res4b_branch2a -> res4b_branch2a (in-place)
I1228 11:09:34.455729 32357 net.cpp:122] Setting up quantized_res4b_branch2a
I1228 11:09:34.455740 32357 net.cpp:129] Top shape: 50 256 14 14 (2508800)
I1228 11:09:34.455749 32357 net.cpp:137] Memory required for data: 3110912800
I1228 11:09:34.455757 32357 layer_factory.hpp:77] Creating layer res4b_branch2b
I1228 11:09:34.455773 32357 net.cpp:84] Creating Layer res4b_branch2b
I1228 11:09:34.455783 32357 net.cpp:406] res4b_branch2b <- res4b_branch2a
I1228 11:09:34.455796 32357 net.cpp:380] res4b_branch2b -> res4b_branch2b
ydwu=======get:
bit_width=8;  round_method=1;  round_strategy=2;  is_runtime=0;  range_low=-0.311174;  range_high=0.351175
I1228 11:09:34.475328 32357 net.cpp:122] Setting up res4b_branch2b
I1228 11:09:34.475348 32357 net.cpp:129] Top shape: 50 256 14 14 (2508800)
I1228 11:09:34.475358 32357 net.cpp:137] Memory required for data: 3120948000
I1228 11:09:34.475370 32357 layer_factory.hpp:77] Creating layer bn4b_branch2b
I1228 11:09:34.475385 32357 net.cpp:84] Creating Layer bn4b_branch2b
I1228 11:09:34.475394 32357 net.cpp:406] bn4b_branch2b <- res4b_branch2b
I1228 11:09:34.475406 32357 net.cpp:367] bn4b_branch2b -> res4b_branch2b (in-place)
I1228 11:09:34.475587 32357 net.cpp:122] Setting up bn4b_branch2b
I1228 11:09:34.475605 32357 net.cpp:129] Top shape: 50 256 14 14 (2508800)
I1228 11:09:34.475613 32357 net.cpp:137] Memory required for data: 3130983200
I1228 11:09:34.475626 32357 layer_factory.hpp:77] Creating layer scale4b_branch2b
I1228 11:09:34.475641 32357 net.cpp:84] Creating Layer scale4b_branch2b
I1228 11:09:34.475651 32357 net.cpp:406] scale4b_branch2b <- res4b_branch2b
I1228 11:09:34.475663 32357 net.cpp:367] scale4b_branch2b -> res4b_branch2b (in-place)
I1228 11:09:34.475713 32357 layer_factory.hpp:77] Creating layer scale4b_branch2b
I1228 11:09:34.475826 32357 net.cpp:122] Setting up scale4b_branch2b
I1228 11:09:34.475842 32357 net.cpp:129] Top shape: 50 256 14 14 (2508800)
I1228 11:09:34.475852 32357 net.cpp:137] Memory required for data: 3141018400
I1228 11:09:34.475864 32357 layer_factory.hpp:77] Creating layer quantized_res4b_branch2b
I1228 11:09:34.475878 32357 net.cpp:84] Creating Layer quantized_res4b_branch2b
I1228 11:09:34.475888 32357 net.cpp:406] quantized_res4b_branch2b <- res4b_branch2b
I1228 11:09:34.475899 32357 net.cpp:367] quantized_res4b_branch2b -> res4b_branch2b (in-place)
I1228 11:09:34.475913 32357 net.cpp:122] Setting up quantized_res4b_branch2b
I1228 11:09:34.475924 32357 net.cpp:129] Top shape: 50 256 14 14 (2508800)
I1228 11:09:34.475932 32357 net.cpp:137] Memory required for data: 3151053600
I1228 11:09:34.475941 32357 layer_factory.hpp:77] Creating layer res4b
I1228 11:09:34.475970 32357 net.cpp:84] Creating Layer res4b
I1228 11:09:34.475981 32357 net.cpp:406] res4b <- res4a_quantized_res4a_0_split_1
I1228 11:09:34.475991 32357 net.cpp:406] res4b <- res4b_branch2b
I1228 11:09:34.476003 32357 net.cpp:380] res4b -> res4b
I1228 11:09:34.476039 32357 net.cpp:122] Setting up res4b
I1228 11:09:34.476054 32357 net.cpp:129] Top shape: 50 256 14 14 (2508800)
I1228 11:09:34.476063 32357 net.cpp:137] Memory required for data: 3161088800
I1228 11:09:34.476073 32357 layer_factory.hpp:77] Creating layer res4b_relu
I1228 11:09:34.476084 32357 net.cpp:84] Creating Layer res4b_relu
I1228 11:09:34.476094 32357 net.cpp:406] res4b_relu <- res4b
I1228 11:09:34.476105 32357 net.cpp:367] res4b_relu -> res4b (in-place)
I1228 11:09:34.476117 32357 net.cpp:122] Setting up res4b_relu
I1228 11:09:34.476128 32357 net.cpp:129] Top shape: 50 256 14 14 (2508800)
I1228 11:09:34.476137 32357 net.cpp:137] Memory required for data: 3171124000
I1228 11:09:34.476145 32357 layer_factory.hpp:77] Creating layer quantized_res4b
I1228 11:09:34.476157 32357 net.cpp:84] Creating Layer quantized_res4b
I1228 11:09:34.476166 32357 net.cpp:406] quantized_res4b <- res4b
I1228 11:09:34.476177 32357 net.cpp:367] quantized_res4b -> res4b (in-place)
I1228 11:09:34.476189 32357 net.cpp:122] Setting up quantized_res4b
I1228 11:09:34.476200 32357 net.cpp:129] Top shape: 50 256 14 14 (2508800)
I1228 11:09:34.476208 32357 net.cpp:137] Memory required for data: 3181159200
I1228 11:09:34.476217 32357 layer_factory.hpp:77] Creating layer res4b_quantized_res4b_0_split
I1228 11:09:34.476229 32357 net.cpp:84] Creating Layer res4b_quantized_res4b_0_split
I1228 11:09:34.476238 32357 net.cpp:406] res4b_quantized_res4b_0_split <- res4b
I1228 11:09:34.476250 32357 net.cpp:380] res4b_quantized_res4b_0_split -> res4b_quantized_res4b_0_split_0
I1228 11:09:34.518302 32357 net.cpp:380] res4b_quantized_res4b_0_split -> res4b_quantized_res4b_0_split_1
I1228 11:09:34.518352 32357 net.cpp:122] Setting up res4b_quantized_res4b_0_split
I1228 11:09:34.518368 32357 net.cpp:129] Top shape: 50 256 14 14 (2508800)
I1228 11:09:34.518379 32357 net.cpp:129] Top shape: 50 256 14 14 (2508800)
I1228 11:09:34.518388 32357 net.cpp:137] Memory required for data: 3201229600
I1228 11:09:34.518396 32357 layer_factory.hpp:77] Creating layer res5a_branch1
I1228 11:09:34.518412 32357 net.cpp:84] Creating Layer res5a_branch1
I1228 11:09:34.518422 32357 net.cpp:406] res5a_branch1 <- res4b_quantized_res4b_0_split_0
I1228 11:09:34.518435 32357 net.cpp:380] res5a_branch1 -> res5a_branch1
ydwu=======get:
bit_width=8;  round_method=1;  round_strategy=2;  is_runtime=0;  range_low=-1.07326;  range_high=0.782129
I1228 11:09:34.522665 32357 net.cpp:122] Setting up res5a_branch1
I1228 11:09:34.522682 32357 net.cpp:129] Top shape: 50 512 7 7 (1254400)
I1228 11:09:34.522691 32357 net.cpp:137] Memory required for data: 3206247200
I1228 11:09:34.522702 32357 layer_factory.hpp:77] Creating layer bn5a_branch1
I1228 11:09:34.522716 32357 net.cpp:84] Creating Layer bn5a_branch1
I1228 11:09:34.522725 32357 net.cpp:406] bn5a_branch1 <- res5a_branch1
I1228 11:09:34.522737 32357 net.cpp:367] bn5a_branch1 -> res5a_branch1 (in-place)
I1228 11:09:34.522927 32357 net.cpp:122] Setting up bn5a_branch1
I1228 11:09:34.522944 32357 net.cpp:129] Top shape: 50 512 7 7 (1254400)
I1228 11:09:34.522953 32357 net.cpp:137] Memory required for data: 3211264800
I1228 11:09:34.522974 32357 layer_factory.hpp:77] Creating layer scale5a_branch1
I1228 11:09:34.522986 32357 net.cpp:84] Creating Layer scale5a_branch1
I1228 11:09:34.522997 32357 net.cpp:406] scale5a_branch1 <- res5a_branch1
I1228 11:09:34.523008 32357 net.cpp:367] scale5a_branch1 -> res5a_branch1 (in-place)
I1228 11:09:34.523057 32357 layer_factory.hpp:77] Creating layer scale5a_branch1
I1228 11:09:34.523181 32357 net.cpp:122] Setting up scale5a_branch1
I1228 11:09:34.523198 32357 net.cpp:129] Top shape: 50 512 7 7 (1254400)
I1228 11:09:34.523207 32357 net.cpp:137] Memory required for data: 3216282400
I1228 11:09:34.523219 32357 layer_factory.hpp:77] Creating layer quantized_res5a_branch1
I1228 11:09:34.523234 32357 net.cpp:84] Creating Layer quantized_res5a_branch1
I1228 11:09:34.523257 32357 net.cpp:406] quantized_res5a_branch1 <- res5a_branch1
I1228 11:09:34.523272 32357 net.cpp:367] quantized_res5a_branch1 -> res5a_branch1 (in-place)
I1228 11:09:34.523286 32357 net.cpp:122] Setting up quantized_res5a_branch1
I1228 11:09:34.523298 32357 net.cpp:129] Top shape: 50 512 7 7 (1254400)
I1228 11:09:34.523306 32357 net.cpp:137] Memory required for data: 3221300000
I1228 11:09:34.523315 32357 layer_factory.hpp:77] Creating layer res5a_branch2a
I1228 11:09:34.523329 32357 net.cpp:84] Creating Layer res5a_branch2a
I1228 11:09:34.523339 32357 net.cpp:406] res5a_branch2a <- res4b_quantized_res4b_0_split_1
I1228 11:09:34.523352 32357 net.cpp:380] res5a_branch2a -> res5a_branch2a
ydwu=======get:
bit_width=8;  round_method=1;  round_strategy=2;  is_runtime=0;  range_low=-0.287673;  range_high=0.504284
I1228 11:09:34.561704 32357 net.cpp:122] Setting up res5a_branch2a
I1228 11:09:34.561729 32357 net.cpp:129] Top shape: 50 512 7 7 (1254400)
I1228 11:09:34.561738 32357 net.cpp:137] Memory required for data: 3226317600
I1228 11:09:34.561750 32357 layer_factory.hpp:77] Creating layer bn5a_branch2a
I1228 11:09:34.561764 32357 net.cpp:84] Creating Layer bn5a_branch2a
I1228 11:09:34.561774 32357 net.cpp:406] bn5a_branch2a <- res5a_branch2a
I1228 11:09:34.561787 32357 net.cpp:367] bn5a_branch2a -> res5a_branch2a (in-place)
I1228 11:09:34.561985 32357 net.cpp:122] Setting up bn5a_branch2a
I1228 11:09:34.562001 32357 net.cpp:129] Top shape: 50 512 7 7 (1254400)
I1228 11:09:34.562011 32357 net.cpp:137] Memory required for data: 3231335200
I1228 11:09:34.562024 32357 layer_factory.hpp:77] Creating layer scale5a_branch2a
I1228 11:09:34.562038 32357 net.cpp:84] Creating Layer scale5a_branch2a
I1228 11:09:34.562048 32357 net.cpp:406] scale5a_branch2a <- res5a_branch2a
I1228 11:09:34.562059 32357 net.cpp:367] scale5a_branch2a -> res5a_branch2a (in-place)
I1228 11:09:34.562108 32357 layer_factory.hpp:77] Creating layer scale5a_branch2a
I1228 11:09:34.562234 32357 net.cpp:122] Setting up scale5a_branch2a
I1228 11:09:34.562252 32357 net.cpp:129] Top shape: 50 512 7 7 (1254400)
I1228 11:09:34.562261 32357 net.cpp:137] Memory required for data: 3236352800
I1228 11:09:34.562273 32357 layer_factory.hpp:77] Creating layer res5a_branch2a_relu
I1228 11:09:34.562288 32357 net.cpp:84] Creating Layer res5a_branch2a_relu
I1228 11:09:34.562299 32357 net.cpp:406] res5a_branch2a_relu <- res5a_branch2a
I1228 11:09:34.562311 32357 net.cpp:367] res5a_branch2a_relu -> res5a_branch2a (in-place)
I1228 11:09:34.562325 32357 net.cpp:122] Setting up res5a_branch2a_relu
I1228 11:09:34.562335 32357 net.cpp:129] Top shape: 50 512 7 7 (1254400)
I1228 11:09:34.562345 32357 net.cpp:137] Memory required for data: 3241370400
I1228 11:09:34.562353 32357 layer_factory.hpp:77] Creating layer quantized_res5a_branch2a
I1228 11:09:34.562364 32357 net.cpp:84] Creating Layer quantized_res5a_branch2a
I1228 11:09:34.562374 32357 net.cpp:406] quantized_res5a_branch2a <- res5a_branch2a
I1228 11:09:34.562386 32357 net.cpp:367] quantized_res5a_branch2a -> res5a_branch2a (in-place)
I1228 11:09:34.562397 32357 net.cpp:122] Setting up quantized_res5a_branch2a
I1228 11:09:34.562408 32357 net.cpp:129] Top shape: 50 512 7 7 (1254400)
I1228 11:09:34.562417 32357 net.cpp:137] Memory required for data: 3246388000
I1228 11:09:34.562425 32357 layer_factory.hpp:77] Creating layer res5a_branch2b
I1228 11:09:34.562439 32357 net.cpp:84] Creating Layer res5a_branch2b
I1228 11:09:34.562449 32357 net.cpp:406] res5a_branch2b <- res5a_branch2a
I1228 11:09:34.562464 32357 net.cpp:380] res5a_branch2b -> res5a_branch2b
ydwu=======get:
bit_width=8;  round_method=1;  round_strategy=2;  is_runtime=0;  range_low=-0.273284;  range_high=0.454792
I1228 11:09:34.639432 32357 net.cpp:122] Setting up res5a_branch2b
I1228 11:09:34.639468 32357 net.cpp:129] Top shape: 50 512 7 7 (1254400)
I1228 11:09:34.639477 32357 net.cpp:137] Memory required for data: 3251405600
I1228 11:09:34.639492 32357 layer_factory.hpp:77] Creating layer bn5a_branch2b
I1228 11:09:34.639513 32357 net.cpp:84] Creating Layer bn5a_branch2b
I1228 11:09:34.639524 32357 net.cpp:406] bn5a_branch2b <- res5a_branch2b
I1228 11:09:34.639541 32357 net.cpp:367] bn5a_branch2b -> res5a_branch2b (in-place)
I1228 11:09:34.639760 32357 net.cpp:122] Setting up bn5a_branch2b
I1228 11:09:34.639811 32357 net.cpp:129] Top shape: 50 512 7 7 (1254400)
I1228 11:09:34.639822 32357 net.cpp:137] Memory required for data: 3256423200
I1228 11:09:34.639837 32357 layer_factory.hpp:77] Creating layer scale5a_branch2b
I1228 11:09:34.639852 32357 net.cpp:84] Creating Layer scale5a_branch2b
I1228 11:09:34.639861 32357 net.cpp:406] scale5a_branch2b <- res5a_branch2b
I1228 11:09:34.639873 32357 net.cpp:367] scale5a_branch2b -> res5a_branch2b (in-place)
I1228 11:09:34.639925 32357 layer_factory.hpp:77] Creating layer scale5a_branch2b
I1228 11:09:34.640056 32357 net.cpp:122] Setting up scale5a_branch2b
I1228 11:09:34.640074 32357 net.cpp:129] Top shape: 50 512 7 7 (1254400)
I1228 11:09:34.640082 32357 net.cpp:137] Memory required for data: 3261440800
I1228 11:09:34.640094 32357 layer_factory.hpp:77] Creating layer quantized_res5a_branch2b
I1228 11:09:34.640111 32357 net.cpp:84] Creating Layer quantized_res5a_branch2b
I1228 11:09:34.640121 32357 net.cpp:406] quantized_res5a_branch2b <- res5a_branch2b
I1228 11:09:34.640132 32357 net.cpp:367] quantized_res5a_branch2b -> res5a_branch2b (in-place)
I1228 11:09:34.640146 32357 net.cpp:122] Setting up quantized_res5a_branch2b
I1228 11:09:34.640157 32357 net.cpp:129] Top shape: 50 512 7 7 (1254400)
I1228 11:09:34.640166 32357 net.cpp:137] Memory required for data: 3266458400
I1228 11:09:34.640174 32357 layer_factory.hpp:77] Creating layer res5a
I1228 11:09:34.640187 32357 net.cpp:84] Creating Layer res5a
I1228 11:09:34.640197 32357 net.cpp:406] res5a <- res5a_branch1
I1228 11:09:34.640206 32357 net.cpp:406] res5a <- res5a_branch2b
I1228 11:09:34.640218 32357 net.cpp:380] res5a -> res5a
I1228 11:09:34.640254 32357 net.cpp:122] Setting up res5a
I1228 11:09:34.640270 32357 net.cpp:129] Top shape: 50 512 7 7 (1254400)
I1228 11:09:34.640280 32357 net.cpp:137] Memory required for data: 3271476000
I1228 11:09:34.640288 32357 layer_factory.hpp:77] Creating layer res5a_relu
I1228 11:09:34.640302 32357 net.cpp:84] Creating Layer res5a_relu
I1228 11:09:34.640312 32357 net.cpp:406] res5a_relu <- res5a
I1228 11:09:34.640323 32357 net.cpp:367] res5a_relu -> res5a (in-place)
I1228 11:09:34.640336 32357 net.cpp:122] Setting up res5a_relu
I1228 11:09:34.640347 32357 net.cpp:129] Top shape: 50 512 7 7 (1254400)
I1228 11:09:34.640355 32357 net.cpp:137] Memory required for data: 3276493600
I1228 11:09:34.640363 32357 layer_factory.hpp:77] Creating layer quantized_res5a
I1228 11:09:34.640374 32357 net.cpp:84] Creating Layer quantized_res5a
I1228 11:09:34.640383 32357 net.cpp:406] quantized_res5a <- res5a
I1228 11:09:34.640394 32357 net.cpp:367] quantized_res5a -> res5a (in-place)
I1228 11:09:34.640405 32357 net.cpp:122] Setting up quantized_res5a
I1228 11:09:34.640416 32357 net.cpp:129] Top shape: 50 512 7 7 (1254400)
I1228 11:09:34.640425 32357 net.cpp:137] Memory required for data: 3281511200
I1228 11:09:34.640434 32357 layer_factory.hpp:77] Creating layer res5a_quantized_res5a_0_split
I1228 11:09:34.640445 32357 net.cpp:84] Creating Layer res5a_quantized_res5a_0_split
I1228 11:09:34.640455 32357 net.cpp:406] res5a_quantized_res5a_0_split <- res5a
I1228 11:09:34.640466 32357 net.cpp:380] res5a_quantized_res5a_0_split -> res5a_quantized_res5a_0_split_0
I1228 11:09:34.640480 32357 net.cpp:380] res5a_quantized_res5a_0_split -> res5a_quantized_res5a_0_split_1
I1228 11:09:34.640527 32357 net.cpp:122] Setting up res5a_quantized_res5a_0_split
I1228 11:09:34.640542 32357 net.cpp:129] Top shape: 50 512 7 7 (1254400)
I1228 11:09:34.640552 32357 net.cpp:129] Top shape: 50 512 7 7 (1254400)
I1228 11:09:34.640560 32357 net.cpp:137] Memory required for data: 3291546400
I1228 11:09:34.640569 32357 layer_factory.hpp:77] Creating layer res5b_branch2a
I1228 11:09:34.640585 32357 net.cpp:84] Creating Layer res5b_branch2a
I1228 11:09:34.640595 32357 net.cpp:406] res5b_branch2a <- res5a_quantized_res5a_0_split_0
I1228 11:09:34.640607 32357 net.cpp:380] res5b_branch2a -> res5b_branch2a
ydwu=======get:
bit_width=8;  round_method=1;  round_strategy=2;  is_runtime=0;  range_low=-0.334819;  range_high=0.411482
I1228 11:09:34.721904 32357 net.cpp:122] Setting up res5b_branch2a
I1228 11:09:34.721940 32357 net.cpp:129] Top shape: 50 512 7 7 (1254400)
I1228 11:09:34.721983 32357 net.cpp:137] Memory required for data: 3296564000
I1228 11:09:34.721999 32357 layer_factory.hpp:77] Creating layer bn5b_branch2a
I1228 11:09:34.722019 32357 net.cpp:84] Creating Layer bn5b_branch2a
I1228 11:09:34.722031 32357 net.cpp:406] bn5b_branch2a <- res5b_branch2a
I1228 11:09:34.722045 32357 net.cpp:367] bn5b_branch2a -> res5b_branch2a (in-place)
I1228 11:09:34.722266 32357 net.cpp:122] Setting up bn5b_branch2a
I1228 11:09:34.722283 32357 net.cpp:129] Top shape: 50 512 7 7 (1254400)
I1228 11:09:34.722293 32357 net.cpp:137] Memory required for data: 3301581600
I1228 11:09:34.722306 32357 layer_factory.hpp:77] Creating layer scale5b_branch2a
I1228 11:09:34.722321 32357 net.cpp:84] Creating Layer scale5b_branch2a
I1228 11:09:34.722332 32357 net.cpp:406] scale5b_branch2a <- res5b_branch2a
I1228 11:09:34.722343 32357 net.cpp:367] scale5b_branch2a -> res5b_branch2a (in-place)
I1228 11:09:34.722394 32357 layer_factory.hpp:77] Creating layer scale5b_branch2a
I1228 11:09:34.722522 32357 net.cpp:122] Setting up scale5b_branch2a
I1228 11:09:34.722539 32357 net.cpp:129] Top shape: 50 512 7 7 (1254400)
I1228 11:09:34.722549 32357 net.cpp:137] Memory required for data: 3306599200
I1228 11:09:34.722561 32357 layer_factory.hpp:77] Creating layer res5b_branch2a_relu
I1228 11:09:34.722574 32357 net.cpp:84] Creating Layer res5b_branch2a_relu
I1228 11:09:34.722584 32357 net.cpp:406] res5b_branch2a_relu <- res5b_branch2a
I1228 11:09:34.722595 32357 net.cpp:367] res5b_branch2a_relu -> res5b_branch2a (in-place)
I1228 11:09:34.722609 32357 net.cpp:122] Setting up res5b_branch2a_relu
I1228 11:09:34.722620 32357 net.cpp:129] Top shape: 50 512 7 7 (1254400)
I1228 11:09:34.722627 32357 net.cpp:137] Memory required for data: 3311616800
I1228 11:09:34.722636 32357 layer_factory.hpp:77] Creating layer quantized_res5b_branch2a
I1228 11:09:34.722648 32357 net.cpp:84] Creating Layer quantized_res5b_branch2a
I1228 11:09:34.722658 32357 net.cpp:406] quantized_res5b_branch2a <- res5b_branch2a
I1228 11:09:34.722671 32357 net.cpp:367] quantized_res5b_branch2a -> res5b_branch2a (in-place)
I1228 11:09:34.722685 32357 net.cpp:122] Setting up quantized_res5b_branch2a
I1228 11:09:34.722697 32357 net.cpp:129] Top shape: 50 512 7 7 (1254400)
I1228 11:09:34.722704 32357 net.cpp:137] Memory required for data: 3316634400
I1228 11:09:34.722713 32357 layer_factory.hpp:77] Creating layer res5b_branch2b
I1228 11:09:34.722728 32357 net.cpp:84] Creating Layer res5b_branch2b
I1228 11:09:34.722738 32357 net.cpp:406] res5b_branch2b <- res5b_branch2a
I1228 11:09:34.722750 32357 net.cpp:380] res5b_branch2b -> res5b_branch2b
ydwu=======get:
bit_width=8;  round_method=1;  round_strategy=2;  is_runtime=0;  range_low=-0.263203;  range_high=0.427561
I1228 11:09:34.799919 32357 net.cpp:122] Setting up res5b_branch2b
I1228 11:09:34.799950 32357 net.cpp:129] Top shape: 50 512 7 7 (1254400)
I1228 11:09:34.799960 32357 net.cpp:137] Memory required for data: 3321652000
I1228 11:09:34.799974 32357 layer_factory.hpp:77] Creating layer bn5b_branch2b
I1228 11:09:34.799993 32357 net.cpp:84] Creating Layer bn5b_branch2b
I1228 11:09:34.800005 32357 net.cpp:406] bn5b_branch2b <- res5b_branch2b
I1228 11:09:34.800019 32357 net.cpp:367] bn5b_branch2b -> res5b_branch2b (in-place)
I1228 11:09:34.800222 32357 net.cpp:122] Setting up bn5b_branch2b
I1228 11:09:34.800240 32357 net.cpp:129] Top shape: 50 512 7 7 (1254400)
I1228 11:09:34.800248 32357 net.cpp:137] Memory required for data: 3326669600
I1228 11:09:34.800262 32357 layer_factory.hpp:77] Creating layer scale5b_branch2b
I1228 11:09:34.800276 32357 net.cpp:84] Creating Layer scale5b_branch2b
I1228 11:09:34.800287 32357 net.cpp:406] scale5b_branch2b <- res5b_branch2b
I1228 11:09:34.800298 32357 net.cpp:367] scale5b_branch2b -> res5b_branch2b (in-place)
I1228 11:09:34.800349 32357 layer_factory.hpp:77] Creating layer scale5b_branch2b
I1228 11:09:34.800472 32357 net.cpp:122] Setting up scale5b_branch2b
I1228 11:09:34.800489 32357 net.cpp:129] Top shape: 50 512 7 7 (1254400)
I1228 11:09:34.800498 32357 net.cpp:137] Memory required for data: 3331687200
I1228 11:09:34.800511 32357 layer_factory.hpp:77] Creating layer quantized_res5b_branch2b
I1228 11:09:34.800561 32357 net.cpp:84] Creating Layer quantized_res5b_branch2b
I1228 11:09:34.800572 32357 net.cpp:406] quantized_res5b_branch2b <- res5b_branch2b
I1228 11:09:34.800585 32357 net.cpp:367] quantized_res5b_branch2b -> res5b_branch2b (in-place)
I1228 11:09:34.800598 32357 net.cpp:122] Setting up quantized_res5b_branch2b
I1228 11:09:34.800611 32357 net.cpp:129] Top shape: 50 512 7 7 (1254400)
I1228 11:09:34.800619 32357 net.cpp:137] Memory required for data: 3336704800
I1228 11:09:34.800627 32357 layer_factory.hpp:77] Creating layer res5b
I1228 11:09:34.800642 32357 net.cpp:84] Creating Layer res5b
I1228 11:09:34.800652 32357 net.cpp:406] res5b <- res5a_quantized_res5a_0_split_1
I1228 11:09:34.800660 32357 net.cpp:406] res5b <- res5b_branch2b
I1228 11:09:34.800673 32357 net.cpp:380] res5b -> res5b
I1228 11:09:34.800709 32357 net.cpp:122] Setting up res5b
I1228 11:09:34.800724 32357 net.cpp:129] Top shape: 50 512 7 7 (1254400)
I1228 11:09:34.800735 32357 net.cpp:137] Memory required for data: 3341722400
I1228 11:09:34.800745 32357 layer_factory.hpp:77] Creating layer res5b_relu
I1228 11:09:34.800756 32357 net.cpp:84] Creating Layer res5b_relu
I1228 11:09:34.800766 32357 net.cpp:406] res5b_relu <- res5b
I1228 11:09:34.800778 32357 net.cpp:367] res5b_relu -> res5b (in-place)
I1228 11:09:34.800791 32357 net.cpp:122] Setting up res5b_relu
I1228 11:09:34.800802 32357 net.cpp:129] Top shape: 50 512 7 7 (1254400)
I1228 11:09:34.800812 32357 net.cpp:137] Memory required for data: 3346740000
I1228 11:09:34.800820 32357 layer_factory.hpp:77] Creating layer quantized_res5b
I1228 11:09:34.800832 32357 net.cpp:84] Creating Layer quantized_res5b
I1228 11:09:34.800842 32357 net.cpp:406] quantized_res5b <- res5b
I1228 11:09:34.800853 32357 net.cpp:367] quantized_res5b -> res5b (in-place)
I1228 11:09:34.800865 32357 net.cpp:122] Setting up quantized_res5b
I1228 11:09:34.800875 32357 net.cpp:129] Top shape: 50 512 7 7 (1254400)
I1228 11:09:34.800884 32357 net.cpp:137] Memory required for data: 3351757600
I1228 11:09:34.800892 32357 layer_factory.hpp:77] Creating layer pool5
I1228 11:09:34.800922 32357 net.cpp:84] Creating Layer pool5
I1228 11:09:34.800932 32357 net.cpp:406] pool5 <- res5b
I1228 11:09:34.800945 32357 net.cpp:380] pool5 -> pool5
I1228 11:09:34.800979 32357 net.cpp:122] Setting up pool5
I1228 11:09:34.800994 32357 net.cpp:129] Top shape: 50 512 1 1 (25600)
I1228 11:09:34.801003 32357 net.cpp:137] Memory required for data: 3351860000
I1228 11:09:34.801012 32357 layer_factory.hpp:77] Creating layer fc1000
I1228 11:09:34.801035 32357 net.cpp:84] Creating Layer fc1000
I1228 11:09:34.801046 32357 net.cpp:406] fc1000 <- pool5
I1228 11:09:34.801059 32357 net.cpp:380] fc1000 -> fc1000
I1228 11:09:34.817540 32357 net.cpp:122] Setting up fc1000
I1228 11:09:34.817564 32357 net.cpp:129] Top shape: 50 1000 (50000)
I1228 11:09:34.817572 32357 net.cpp:137] Memory required for data: 3352060000
I1228 11:09:34.817585 32357 layer_factory.hpp:77] Creating layer fc1000_fc1000_0_split
I1228 11:09:34.817600 32357 net.cpp:84] Creating Layer fc1000_fc1000_0_split
I1228 11:09:34.817610 32357 net.cpp:406] fc1000_fc1000_0_split <- fc1000
I1228 11:09:34.817621 32357 net.cpp:380] fc1000_fc1000_0_split -> fc1000_fc1000_0_split_0
I1228 11:09:34.817636 32357 net.cpp:380] fc1000_fc1000_0_split -> fc1000_fc1000_0_split_1
I1228 11:09:34.817648 32357 net.cpp:380] fc1000_fc1000_0_split -> fc1000_fc1000_0_split_2
I1228 11:09:34.817704 32357 net.cpp:122] Setting up fc1000_fc1000_0_split
I1228 11:09:34.817719 32357 net.cpp:129] Top shape: 50 1000 (50000)
I1228 11:09:34.817729 32357 net.cpp:129] Top shape: 50 1000 (50000)
I1228 11:09:34.817739 32357 net.cpp:129] Top shape: 50 1000 (50000)
I1228 11:09:34.817747 32357 net.cpp:137] Memory required for data: 3352660000
I1228 11:09:34.817756 32357 layer_factory.hpp:77] Creating layer loss
I1228 11:09:34.817771 32357 net.cpp:84] Creating Layer loss
I1228 11:09:34.817781 32357 net.cpp:406] loss <- fc1000_fc1000_0_split_0
I1228 11:09:34.817791 32357 net.cpp:406] loss <- label_data_1_split_0
I1228 11:09:34.817818 32357 net.cpp:380] loss -> loss
…
