…
I1228 17:22:51.178048 40041 net.cpp:294] The NetState phase (0) differed from the phase (1) specified by a rule in layer data
I1228 17:22:51.178627 40041 net.cpp:51] Initializing net from parameters: 
name: "ResNet-18"
state {
  phase: TRAIN
  level: 0
  stage: ""
}
layer {
  name: "data"
  type: "Data"
  top: "data"
  top: "label"
  include {
    phase: TRAIN
  }
  transform_param {
    mirror: true
    crop_size: 224
    mean_file: "/mllib/imagenet/ilsvrc12/imagenet_mean.binaryproto"
  }
  data_param {
    source: "/mllib/imagenet/ilsvrc12/lmdb_resize/ilsvrc12_train_lmdb"
    batch_size: 50
    backend: LMDB
  }
}
layer {
  name: "conv1"
  type: "Convolution"
  bottom: "data"
  top: "conv1"
  convolution_param {
    num_output: 64
    bias_term: false
    pad: 3
    kernel_size: 7
    stride: 2
    weight_filler {
      type: "msra"
    }
  }
}
layer {
  name: "bn_conv1"
  type: "BatchNorm"
  bottom: "conv1"
  top: "conv1"
}
layer {
  name: "scale_conv1"
  type: "Scale"
  bottom: "conv1"
  top: "conv1"
  scale_param {
    bias_term: true
  }
}
layer {
  name: "conv1_relu"
  type: "ReLU"
  bottom: "conv1"
  top: "conv1"
}
layer {
  name: "quantized_conv1"
  type: "Quantization"
  bottom: "conv1"
  top: "conv1"
  quantization_param {
    round_method: FLOOR
    round_strategy: AGGRESSIVE
    bit_width: 8
    range: 0
    range: 20.756613
  }
}
layer {
  name: "pool1"
  type: "Pooling"
  bottom: "conv1"
  top: "pool1"
  pooling_param {
    pool: MAX
    kernel_size: 3
    stride: 2
  }
}
layer {
  name: "res2a_branch1"
  type: "Convolution"
  bottom: "pool1"
  top: "res2a_branch1"
  convolution_param {
    num_output: 64
    bias_term: false
    pad: 0
    kernel_size: 1
    stride: 1
    weight_filler {
      type: "msra"
    }
  }
}
layer {
  name: "bn2a_branch1"
  type: "BatchNorm"
  bottom: "res2a_branch1"
  top: "res2a_branch1"
}
layer {
  name: "scale2a_branch1"
  type: "Scale"
  bottom: "res2a_branch1"
  top: "res2a_branch1"
  scale_param {
    bias_term: true
  }
}
layer {
  name: "quantized_res2a_branch1"
  type: "Quantization"
  bottom: "res2a_branch1"
  top: "res2a_branch1"
  quantization_param {
    round_method: FLOOR
    round_strategy: AGGRESSIVE
    bit_width: 8
    range: -17.40053
    range: 10.660799
  }
}
layer {
  name: "res2a_branch2a"
  type: "Convolution"
  bottom: "pool1"
  top: "res2a_branch2a"
  convolution_param {
    num_output: 64
    bias_term: false
    pad: 1
    kernel_size: 3
    stride: 1
    weight_filler {
      type: "msra"
    }
  }
}
layer {
  name: "bn2a_branch2a"
  type: "BatchNorm"
  bottom: "res2a_branch2a"
  top: "res2a_branch2a"
}
layer {
  name: "scale2a_branch2a"
  type: "Scale"
  bottom: "res2a_branch2a"
  top: "res2a_branch2a"
  scale_param {
    bias_term: true
  }
}
layer {
  name: "res2a_branch2a_relu"
  type: "ReLU"
  bottom: "res2a_branch2a"
  top: "res2a_branch2a"
}
layer {
  name: "quantized_res2a_branch2a"
  type: "Quantization"
  bottom: "res2a_branch2a"
  top: "res2a_branch2a"
  quantization_param {
    round_method: FLOOR
    round_strategy: AGGRESSIVE
    bit_width: 8
    range: 0
    range: 8.8238039
  }
}
layer {
  name: "res2a_branch2b"
  type: "Convolution"
  bottom: "res2a_branch2a"
  top: "res2a_branch2b"
  convolution_param {
    num_output: 64
    bias_term: false
    pad: 1
    kernel_size: 3
    stride: 1
    weight_filler {
      type: "msra"
    }
  }
}
layer {
  name: "bn2a_branch2b"
  type: "BatchNorm"
  bottom: "res2a_branch2b"
  top: "res2a_branch2b"
}
layer {
  name: "scale2a_branch2b"
  type: "Scale"
  bottom: "res2a_branch2b"
  top: "res2a_branch2b"
  scale_param {
    bias_term: true
  }
}
layer {
  name: "quantized_res2a_branch2b"
  type: "Quantization"
  bottom: "res2a_branch2b"
  top: "res2a_branch2b"
  quantization_param {
    round_method: FLOOR
    round_strategy: AGGRESSIVE
    bit_width: 8
    range: -11.454288
    range: 7.041914
  }
}
layer {
  name: "res2a"
  type: "Eltwise"
  bottom: "res2a_branch1"
  bottom: "res2a_branch2b"
  top: "res2a"
  eltwise_param {
    operation: SUM
  }
}
layer {
  name: "res2a_relu"
  type: "ReLU"
  bottom: "res2a"
  top: "res2a"
}
layer {
  name: "quantized_res2a"
  type: "Quantization"
  bottom: "res2a"
  top: "res2a"
  quantization_param {
    round_method: FLOOR
    round_strategy: AGGRESSIVE
    bit_width: 8
    range: 0
    range: 13.009123
  }
}
layer {
  name: "res2b_branch2a"
  type: "Convolution"
  bottom: "res2a"
  top: "res2b_branch2a"
  convolution_param {
    num_output: 64
    bias_term: false
    pad: 1
    kernel_size: 3
    stride: 1
    weight_filler {
      type: "msra"
    }
  }
}
layer {
  name: "bn2b_branch2a"
  type: "BatchNorm"
  bottom: "res2b_branch2a"
  top: "res2b_branch2a"
}
layer {
  name: "scale2b_branch2a"
  type: "Scale"
  bottom: "res2b_branch2a"
  top: "res2b_branch2a"
  scale_param {
    bias_term: true
  }
}
layer {
  name: "res2b_branch2a_relu"
  type: "ReLU"
  bottom: "res2b_branch2a"
  top: "res2b_branch2a"
}
layer {
  name: "quantized_res2b_branch2a"
  type: "Quantization"
  bottom: "res2b_branch2a"
  top: "res2b_branch2a"
  quantization_param {
    round_method: FLOOR
    round_strategy: AGGRESSIVE
    bit_width: 8
    range: 0
    range: 8.8807116
  }
}
layer {
  name: "res2b_branch2b"
  type: "Convolution"
  bottom: "res2b_branch2a"
  top: "res2b_branch2b"
  convolution_param {
    num_output: 64
    bias_term: false
    pad: 1
    kernel_size: 3
    stride: 1
    weight_filler {
      type: "msra"
    }
  }
}
layer {
  name: "bn2b_branch2b"
  type: "BatchNorm"
  bottom: "res2b_branch2b"
  top: "res2b_branch2b"
}
layer {
  name: "scale2b_branch2b"
  type: "Scale"
  bottom: "res2b_branch2b"
  top: "res2b_branch2b"
  scale_param {
    bias_term: true
  }
}
layer {
  name: "quantized_res2b_branch2b"
  type: "Quantization"
  bottom: "res2b_branch2b"
  top: "res2b_branch2b"
  quantization_param {
    round_method: FLOOR
    round_strategy: AGGRESSIVE
    bit_width: 8
    range: -9.7979622
    range: 9.198802
  }
}
layer {
  name: "res2b"
  type: "Eltwise"
  bottom: "res2a"
  bottom: "res2b_branch2b"
  top: "res2b"
  eltwise_param {
    operation: SUM
  }
}
layer {
  name: "res2b_relu"
  type: "ReLU"
  bottom: "res2b"
  top: "res2b"
}
layer {
  name: "quantized_res2b"
  type: "Quantization"
  bottom: "res2b"
  top: "res2b"
  quantization_param {
    round_method: FLOOR
    round_strategy: AGGRESSIVE
    bit_width: 8
    range: 0
    range: 16.73156
  }
}
layer {
  name: "res3a_branch1"
  type: "Convolution"
  bottom: "res2b"
  top: "res3a_branch1"
  convolution_param {
    num_output: 128
    bias_term: false
    pad: 0
    kernel_size: 1
    stride: 2
    weight_filler {
      type: "msra"
    }
  }
}
layer {
  name: "bn3a_branch1"
  type: "BatchNorm"
  bottom: "res3a_branch1"
  top: "res3a_branch1"
}
layer {
  name: "scale3a_branch1"
  type: "Scale"
  bottom: "res3a_branch1"
  top: "res3a_branch1"
  scale_param {
    bias_term: true
  }
}
layer {
  name: "quantized_res3a_branch1"
  type: "Quantization"
  bottom: "res3a_branch1"
  top: "res3a_branch1"
  quantization_param {
    round_method: FLOOR
    round_strategy: AGGRESSIVE
    bit_width: 8
    range: -7.5694089
    range: 13.997952
  }
}
layer {
  name: "res3a_branch2a"
  type: "Convolution"
  bottom: "res2b"
  top: "res3a_branch2a"
  convolution_param {
    num_output: 128
    bias_term: false
    pad: 1
    kernel_size: 3
    stride: 2
    weight_filler {
      type: "msra"
    }
  }
}
layer {
  name: "bn3a_branch2a"
  type: "BatchNorm"
  bottom: "res3a_branch2a"
  top: "res3a_branch2a"
}
layer {
  name: "scale3a_branch2a"
  type: "Scale"
  bottom: "res3a_branch2a"
  top: "res3a_branch2a"
  scale_param {
    bias_term: true
  }
}
layer {
  name: "res3a_branch2a_relu"
  type: "ReLU"
  bottom: "res3a_branch2a"
  top: "res3a_branch2a"
}
layer {
  name: "quantized_res3a_branch2a"
  type: "Quantization"
  bottom: "res3a_branch2a"
  top: "res3a_branch2a"
  quantization_param {
    round_method: FLOOR
    round_strategy: AGGRESSIVE
    bit_width: 8
    range: 0
    range: 7.2437668
  }
}
layer {
  name: "res3a_branch2b"
  type: "Convolution"
  bottom: "res3a_branch2a"
  top: "res3a_branch2b"
  convolution_param {
    num_output: 128
    bias_term: false
    pad: 1
    kernel_size: 3
    stride: 1
    weight_filler {
      type: "msra"
    }
  }
}
layer {
  name: "bn3a_branch2b"
  type: "BatchNorm"
  bottom: "res3a_branch2b"
  top: "res3a_branch2b"
}
layer {
  name: "scale3a_branch2b"
  type: "Scale"
  bottom: "res3a_branch2b"
  top: "res3a_branch2b"
  scale_param {
    bias_term: true
  }
}
layer {
  name: "quantized_res3a_branch2b"
  type: "Quantization"
  bottom: "res3a_branch2b"
  top: "res3a_branch2b"
  quantization_param {
    round_method: FLOOR
    round_strategy: AGGRESSIVE
    bit_width: 8
    range: -8.2086267
    range: 13.289404
  }
}
layer {
  name: "res3a"
  type: "Eltwise"
  bottom: "res3a_branch1"
  bottom: "res3a_branch2b"
  top: "res3a"
  eltwise_param {
    operation: SUM
  }
}
layer {
  name: "res3a_relu"
  type: "ReLU"
  bottom: "res3a"
  top: "res3a"
}
layer {
  name: "quantized_res3a"
  type: "Quantization"
  bottom: "res3a"
  top: "res3a"
  quantization_param {
    round_method: FLOOR
    round_strategy: AGGRESSIVE
    bit_width: 8
    range: 0
    range: 16.047813
  }
}
layer {
  name: "res3b_branch2a"
  type: "Convolution"
  bottom: "res3a"
  top: "res3b_branch2a"
  convolution_param {
    num_output: 128
    bias_term: false
    pad: 1
    kernel_size: 3
    stride: 1
    weight_filler {
      type: "msra"
    }
  }
}
layer {
  name: "bn3b_branch2a"
  type: "BatchNorm"
  bottom: "res3b_branch2a"
  top: "res3b_branch2a"
}
layer {
  name: "scale3b_branch2a"
  type: "Scale"
  bottom: "res3b_branch2a"
  top: "res3b_branch2a"
  scale_param {
    bias_term: true
  }
}
layer {
  name: "res3b_branch2a_relu"
  type: "ReLU"
  bottom: "res3b_branch2a"
  top: "res3b_branch2a"
}
layer {
  name: "quantized_res3b_branch2a"
  type: "Quantization"
  bottom: "res3b_branch2a"
  top: "res3b_branch2a"
  quantization_param {
    round_method: FLOOR
    round_strategy: AGGRESSIVE
    bit_width: 8
    range: 0
    range: 11.069953
  }
}
layer {
  name: "res3b_branch2b"
  type: "Convolution"
  bottom: "res3b_branch2a"
  top: "res3b_branch2b"
  convolution_param {
    num_output: 128
    bias_term: false
    pad: 1
    kernel_size: 3
    stride: 1
    weight_filler {
      type: "msra"
    }
  }
}
layer {
  name: "bn3b_branch2b"
  type: "BatchNorm"
  bottom: "res3b_branch2b"
  top: "res3b_branch2b"
}
layer {
  name: "scale3b_branch2b"
  type: "Scale"
  bottom: "res3b_branch2b"
  top: "res3b_branch2b"
  scale_param {
    bias_term: true
  }
}
layer {
  name: "quantized_res3b_branch2b"
  type: "Quantization"
  bottom: "res3b_branch2b"
  top: "res3b_branch2b"
  quantization_param {
    round_method: FLOOR
    round_strategy: AGGRESSIVE
    bit_width: 8
    range: -10.578491
    range: 9.741951
  }
}
layer {
  name: "res3b"
  type: "Eltwise"
  bottom: "res3a"
  bottom: "res3b_branch2b"
  top: "res3b"
  eltwise_param {
    operation: SUM
  }
}
layer {
  name: "res3b_relu"
  type: "ReLU"
  bottom: "res3b"
  top: "res3b"
}
layer {
  name: "quantized_res3b"
  type: "Quantization"
  bottom: "res3b"
  top: "res3b"
  quantization_param {
    round_method: FLOOR
    round_strategy: AGGRESSIVE
    bit_width: 8
    range: 0
    range: 21.433855
  }
}
layer {
  name: "res4a_branch1"
  type: "Convolution"
  bottom: "res3b"
  top: "res4a_branch1"
  convolution_param {
    num_output: 256
    bias_term: false
    pad: 0
    kernel_size: 1
    stride: 2
    weight_filler {
      type: "msra"
    }
  }
}
layer {
  name: "bn4a_branch1"
  type: "BatchNorm"
  bottom: "res4a_branch1"
  top: "res4a_branch1"
}
layer {
  name: "scale4a_branch1"
  type: "Scale"
  bottom: "res4a_branch1"
  top: "res4a_branch1"
  scale_param {
    bias_term: true
  }
}
layer {
  name: "quantized_res4a_branch1"
  type: "Quantization"
  bottom: "res4a_branch1"
  top: "res4a_branch1"
  quantization_param {
    round_method: FLOOR
    round_strategy: AGGRESSIVE
    bit_width: 8
    range: -4.2085242
    range: 6.2801151
  }
}
layer {
  name: "res4a_branch2a"
  type: "Convolution"
  bottom: "res3b"
  top: "res4a_branch2a"
  convolution_param {
    num_output: 256
    bias_term: false
    pad: 1
    kernel_size: 3
    stride: 2
    weight_filler {
      type: "msra"
    }
  }
}
layer {
  name: "bn4a_branch2a"
  type: "BatchNorm"
  bottom: "res4a_branch2a"
  top: "res4a_branch2a"
}
layer {
  name: "scale4a_branch2a"
  type: "Scale"
  bottom: "res4a_branch2a"
  top: "res4a_branch2a"
  scale_param {
    bias_term: true
  }
}
layer {
  name: "res4a_branch2a_relu"
  type: "ReLU"
  bottom: "res4a_branch2a"
  top: "res4a_branch2a"
}
layer {
  name: "quantized_res4a_branch2a"
  type: "Quantization"
  bottom: "res4a_branch2a"
  top: "res4a_branch2a"
  quantization_param {
    round_method: FLOOR
    round_strategy: AGGRESSIVE
    bit_width: 8
    range: 0
    range: 9.6955
  }
}
layer {
  name: "res4a_branch2b"
  type: "Convolution"
  bottom: "res4a_branch2a"
  top: "res4a_branch2b"
  convolution_param {
    num_output: 256
    bias_term: false
    pad: 1
    kernel_size: 3
    stride: 1
    weight_filler {
      type: "msra"
    }
  }
}
layer {
  name: "bn4a_branch2b"
  type: "BatchNorm"
  bottom: "res4a_branch2b"
  top: "res4a_branch2b"
}
layer {
  name: "scale4a_branch2b"
  type: "Scale"
  bottom: "res4a_branch2b"
  top: "res4a_branch2b"
  scale_param {
    bias_term: true
  }
}
layer {
  name: "quantized_res4a_branch2b"
  type: "Quantization"
  bottom: "res4a_branch2b"
  top: "res4a_branch2b"
  quantization_param {
    round_method: FLOOR
    round_strategy: AGGRESSIVE
    bit_width: 8
    range: -8.957634
    range: 14.615593
  }
}
layer {
  name: "res4a"
  type: "Eltwise"
  bottom: "res4a_branch1"
  bottom: "res4a_branch2b"
  top: "res4a"
  eltwise_param {
    operation: SUM
  }
}
layer {
  name: "res4a_relu"
  type: "ReLU"
  bottom: "res4a"
  top: "res4a"
}
layer {
  name: "quantized_res4a"
  type: "Quantization"
  bottom: "res4a"
  top: "res4a"
  quantization_param {
    round_method: FLOOR
    round_strategy: AGGRESSIVE
    bit_width: 8
    range: 0
    range: 17.200615
  }
}
layer {
  name: "res4b_branch2a"
  type: "Convolution"
  bottom: "res4a"
  top: "res4b_branch2a"
  convolution_param {
    num_output: 256
    bias_term: false
    pad: 1
    kernel_size: 3
    stride: 1
    weight_filler {
      type: "msra"
    }
  }
}
layer {
  name: "bn4b_branch2a"
  type: "BatchNorm"
  bottom: "res4b_branch2a"
  top: "res4b_branch2a"
}
layer {
  name: "scale4b_branch2a"
  type: "Scale"
  bottom: "res4b_branch2a"
  top: "res4b_branch2a"
  scale_param {
    bias_term: true
  }
}
layer {
  name: "res4b_branch2a_relu"
  type: "ReLU"
  bottom: "res4b_branch2a"
  top: "res4b_branch2a"
}
layer {
  name: "quantized_res4b_branch2a"
  type: "Quantization"
  bottom: "res4b_branch2a"
  top: "res4b_branch2a"
  quantization_param {
    round_method: FLOOR
    round_strategy: AGGRESSIVE
    bit_width: 8
    range: 0
    range: 8.0272427
  }
}
layer {
  name: "res4b_branch2b"
  type: "Convolution"
  bottom: "res4b_branch2a"
  top: "res4b_branch2b"
  convolution_param {
    num_output: 256
    bias_term: false
    pad: 1
    kernel_size: 3
    stride: 1
    weight_filler {
      type: "msra"
    }
  }
}
layer {
  name: "bn4b_branch2b"
  type: "BatchNorm"
  bottom: "res4b_branch2b"
  top: "res4b_branch2b"
}
layer {
  name: "scale4b_branch2b"
  type: "Scale"
  bottom: "res4b_branch2b"
  top: "res4b_branch2b"
  scale_param {
    bias_term: true
  }
}
layer {
  name: "quantized_res4b_branch2b"
  type: "Quantization"
  bottom: "res4b_branch2b"
  top: "res4b_branch2b"
  quantization_param {
    round_method: FLOOR
    round_strategy: AGGRESSIVE
    bit_width: 8
    range: -11.837559
    range: 9.8303728
  }
}
layer {
  name: "res4b"
  type: "Eltwise"
  bottom: "res4a"
  bottom: "res4b_branch2b"
  top: "res4b"
  eltwise_param {
    operation: SUM
  }
}
layer {
  name: "res4b_relu"
  type: "ReLU"
  bottom: "res4b"
  top: "res4b"
}
layer {
  name: "quantized_res4b"
  type: "Quantization"
  bottom: "res4b"
  top: "res4b"
  quantization_param {
    round_method: FLOOR
    round_strategy: AGGRESSIVE
    bit_width: 8
    range: 0
    range: 15.533745
  }
}
layer {
  name: "res5a_branch1"
  type: "Convolution"
  bottom: "res4b"
  top: "res5a_branch1"
  convolution_param {
    num_output: 512
    bias_term: false
    pad: 0
    kernel_size: 1
    stride: 2
    weight_filler {
      type: "msra"
    }
  }
}
layer {
  name: "bn5a_branch1"
  type: "BatchNorm"
  bottom: "res5a_branch1"
  top: "res5a_branch1"
}
layer {
  name: "scale5a_branch1"
  type: "Scale"
  bottom: "res5a_branch1"
  top: "res5a_branch1"
  scale_param {
    bias_term: true
  }
}
layer {
  name: "quantized_res5a_branch1"
  type: "Quantization"
  bottom: "res5a_branch1"
  top: "res5a_branch1"
  quantization_param {
    round_method: FLOOR
    round_strategy: AGGRESSIVE
    bit_width: 8
    range: -5.1432471
    range: 7.2782469
  }
}
layer {
  name: "res5a_branch2a"
  type: "Convolution"
  bottom: "res4b"
  top: "res5a_branch2a"
  convolution_param {
    num_output: 512
    bias_term: false
    pad: 1
    kernel_size: 3
    stride: 2
    weight_filler {
      type: "msra"
    }
  }
}
layer {
  name: "bn5a_branch2a"
  type: "BatchNorm"
  bottom: "res5a_branch2a"
  top: "res5a_branch2a"
}
layer {
  name: "scale5a_branch2a"
  type: "Scale"
  bottom: "res5a_branch2a"
  top: "res5a_branch2a"
  scale_param {
    bias_term: true
  }
}
layer {
  name: "res5a_branch2a_relu"
  type: "ReLU"
  bottom: "res5a_branch2a"
  top: "res5a_branch2a"
}
layer {
  name: "quantized_res5a_branch2a"
  type: "Quantization"
  bottom: "res5a_branch2a"
  top: "res5a_branch2a"
  quantization_param {
    round_method: FLOOR
    round_strategy: AGGRESSIVE
    bit_width: 8
    range: 0
    range: 5.5225992
  }
}
layer {
  name: "res5a_branch2b"
  type: "Convolution"
  bottom: "res5a_branch2a"
  top: "res5a_branch2b"
  convolution_param {
    num_output: 512
    bias_term: false
    pad: 1
    kernel_size: 3
    stride: 1
    weight_filler {
      type: "msra"
    }
  }
}
layer {
  name: "bn5a_branch2b"
  type: "BatchNorm"
  bottom: "res5a_branch2b"
  top: "res5a_branch2b"
}
layer {
  name: "scale5a_branch2b"
  type: "Scale"
  bottom: "res5a_branch2b"
  top: "res5a_branch2b"
  scale_param {
    bias_term: true
  }
}
layer {
  name: "quantized_res5a_branch2b"
  type: "Quantization"
  bottom: "res5a_branch2b"
  top: "res5a_branch2b"
  quantization_param {
    round_method: FLOOR
    round_strategy: AGGRESSIVE
    bit_width: 8
    range: -7.9446859
    range: 12.387192
  }
}
layer {
  name: "res5a"
  type: "Eltwise"
  bottom: "res5a_branch1"
  bottom: "res5a_branch2b"
  top: "res5a"
  eltwise_param {
    operation: SUM
  }
}
layer {
  name: "res5a_relu"
  type: "ReLU"
  bottom: "res5a"
  top: "res5a"
}
layer {
  name: "quantized_res5a"
  type: "Quantization"
  bottom: "res5a"
  top: "res5a"
  quantization_param {
    round_method: FLOOR
    round_strategy: AGGRESSIVE
    bit_width: 8
    range: 0
    range: 14.911362
  }
}
layer {
  name: "res5b_branch2a"
  type: "Convolution"
  bottom: "res5a"
  top: "res5b_branch2a"
  convolution_param {
    num_output: 512
    bias_term: false
    pad: 1
    kernel_size: 3
    stride: 1
    weight_filler {
      type: "msra"
    }
  }
}
layer {
  name: "bn5b_branch2a"
  type: "BatchNorm"
  bottom: "res5b_branch2a"
  top: "res5b_branch2a"
}
layer {
  name: "scale5b_branch2a"
  type: "Scale"
  bottom: "res5b_branch2a"
  top: "res5b_branch2a"
  scale_param {
    bias_term: true
  }
}
layer {
  name: "res5b_branch2a_relu"
  type: "ReLU"
  bottom: "res5b_branch2a"
  top: "res5b_branch2a"
}
layer {
  name: "quantized_res5b_branch2a"
  type: "Quantization"
  bottom: "res5b_branch2a"
  top: "res5b_branch2a"
  quantization_param {
    round_method: FLOOR
    round_strategy: AGGRESSIVE
    bit_width: 8
    range: 0
    range: 9.0142164
  }
}
layer {
  name: "res5b_branch2b"
  type: "Convolution"
  bottom: "res5b_branch2a"
  top: "res5b_branch2b"
  convolution_param {
    num_output: 512
    bias_term: false
    pad: 1
    kernel_size: 3
    stride: 1
    weight_filler {
      type: "msra"
    }
  }
}
layer {
  name: "bn5b_branch2b"
  type: "BatchNorm"
  bottom: "res5b_branch2b"
  top: "res5b_branch2b"
}
layer {
  name: "scale5b_branch2b"
  type: "Scale"
  bottom: "res5b_branch2b"
  top: "res5b_branch2b"
  scale_param {
    bias_term: true
  }
}
layer {
  name: "quantized_res5b_branch2b"
  type: "Quantization"
  bottom: "res5b_branch2b"
  top: "res5b_branch2b"
  quantization_param {
    round_method: FLOOR
    round_strategy: AGGRESSIVE
    bit_width: 8
    range: -21.284969
    range: 33.256569
  }
}
layer {
  name: "res5b"
  type: "Eltwise"
  bottom: "res5a"
  bottom: "res5b_branch2b"
  top: "res5b"
  eltwise_param {
    operation: SUM
  }
}
layer {
  name: "res5b_relu"
  type: "ReLU"
  bottom: "res5b"
  top: "res5b"
}
layer {
  name: "quantized_res5b"
  type: "Quantization"
  bottom: "res5b"
  top: "res5b"
  quantization_param {
    round_method: FLOOR
    round_strategy: AGGRESSIVE
    bit_width: 8
    range: 0
    range: 43.090839
  }
}
layer {
  name: "pool5"
  type: "Pooling"
  bottom: "res5b"
  top: "pool5"
  pooling_param {
    pool: AVE
    kernel_size: 7
    stride: 1
  }
}
layer {
  name: "fc1000"
  type: "InnerProduct"
  bottom: "pool5"
  top: "fc1000"
  param {
    lr_mult: 1
    decay_mult: 1
  }
  param {
    lr_mult: 2
    decay_mult: 1
  }
  inner_product_param {
    num_output: 1000
    weight_filler {
      type: "msra"
    }
    bias_filler {
      type: "constant"
      value: 0
    }
  }
}
layer {
  name: "loss"
  type: "SoftmaxWithLoss"
  bottom: "fc1000"
  bottom: "label"
  top: "loss"
}
layer {
  name: "top1"
  type: "Accuracy"
  bottom: "fc1000"
  bottom: "label"
  top: "top1"
}
layer {
  name: "top5"
  type: "Accuracy"
  bottom: "fc1000"
  bottom: "label"
  top: "top5"
  accuracy_param {
    top_k: 5
  }
}
I1228 17:22:51.179183 40041 layer_factory.hpp:77] Creating layer data
I1228 17:22:51.179334 40041 db_lmdb.cpp:35] Opened lmdb /mllib/imagenet/ilsvrc12/lmdb_resize/ilsvrc12_train_lmdb
I1228 17:22:51.179378 40041 net.cpp:84] Creating Layer data
I1228 17:22:51.179399 40041 net.cpp:380] data -> data
I1228 17:22:51.179435 40041 net.cpp:380] data -> label
I1228 17:22:51.179461 40041 data_transformer.cpp:25] Loading mean file from: /mllib/imagenet/ilsvrc12/imagenet_mean.binaryproto
I1228 17:22:51.285526 40041 blob.cpp:485] 1  3  256  256
I1228 17:22:51.285547 40041 blob.cpp:490] 1  3  256  256   196608
I1228 17:22:51.287379 40041 data_layer.cpp:45] output data size: 50,3,224,224
I1228 17:22:51.384160 40041 net.cpp:122] Setting up data
I1228 17:22:51.384208 40041 net.cpp:129] Top shape: 50 3 224 224 (7526400)
I1228 17:22:51.384222 40041 net.cpp:129] Top shape: 50 (50)
I1228 17:22:51.384230 40041 net.cpp:137] Memory required for data: 30105800
I1228 17:22:51.384248 40041 layer_factory.hpp:77] Creating layer label_data_1_split
I1228 17:22:51.384269 40041 net.cpp:84] Creating Layer label_data_1_split
I1228 17:22:51.384284 40041 net.cpp:406] label_data_1_split <- label
I1228 17:22:51.384307 40041 net.cpp:380] label_data_1_split -> label_data_1_split_0
I1228 17:22:51.384326 40041 net.cpp:380] label_data_1_split -> label_data_1_split_1
I1228 17:22:51.384340 40041 net.cpp:380] label_data_1_split -> label_data_1_split_2
I1228 17:22:51.384402 40041 net.cpp:122] Setting up label_data_1_split
I1228 17:22:51.384418 40041 net.cpp:129] Top shape: 50 (50)
I1228 17:22:51.384428 40041 net.cpp:129] Top shape: 50 (50)
I1228 17:22:51.384436 40041 net.cpp:129] Top shape: 50 (50)
I1228 17:22:51.384444 40041 net.cpp:137] Memory required for data: 30106400
I1228 17:22:51.384454 40041 layer_factory.hpp:77] Creating layer conv1
I1228 17:22:51.384481 40041 net.cpp:84] Creating Layer conv1
I1228 17:22:51.384527 40041 net.cpp:406] conv1 <- data
I1228 17:22:51.384542 40041 net.cpp:380] conv1 -> conv1
I1228 17:22:51.386276 40041 net.cpp:122] Setting up conv1
I1228 17:22:51.386296 40041 net.cpp:129] Top shape: 50 64 112 112 (40140800)
I1228 17:22:51.386307 40041 net.cpp:137] Memory required for data: 190669600
I1228 17:22:51.386327 40041 layer_factory.hpp:77] Creating layer bn_conv1
I1228 17:22:51.386344 40041 net.cpp:84] Creating Layer bn_conv1
I1228 17:22:51.386353 40041 net.cpp:406] bn_conv1 <- conv1
I1228 17:22:51.386364 40041 net.cpp:367] bn_conv1 -> conv1 (in-place)
I1228 17:22:51.391005 40041 net.cpp:122] Setting up bn_conv1
I1228 17:22:51.391024 40041 net.cpp:129] Top shape: 50 64 112 112 (40140800)
I1228 17:22:51.391033 40041 net.cpp:137] Memory required for data: 351232800
I1228 17:22:51.391049 40041 layer_factory.hpp:77] Creating layer scale_conv1
I1228 17:22:51.391067 40041 net.cpp:84] Creating Layer scale_conv1
I1228 17:22:51.391077 40041 net.cpp:406] scale_conv1 <- conv1
I1228 17:22:51.391088 40041 net.cpp:367] scale_conv1 -> conv1 (in-place)
I1228 17:22:51.391144 40041 layer_factory.hpp:77] Creating layer scale_conv1
I1228 17:22:51.391279 40041 net.cpp:122] Setting up scale_conv1
I1228 17:22:51.391297 40041 net.cpp:129] Top shape: 50 64 112 112 (40140800)
I1228 17:22:51.391305 40041 net.cpp:137] Memory required for data: 511796000
I1228 17:22:51.391319 40041 layer_factory.hpp:77] Creating layer conv1_relu
I1228 17:22:51.391342 40041 net.cpp:84] Creating Layer conv1_relu
I1228 17:22:51.391352 40041 net.cpp:406] conv1_relu <- conv1
I1228 17:22:51.391363 40041 net.cpp:367] conv1_relu -> conv1 (in-place)
I1228 17:22:51.391378 40041 net.cpp:122] Setting up conv1_relu
I1228 17:22:51.391389 40041 net.cpp:129] Top shape: 50 64 112 112 (40140800)
I1228 17:22:51.391397 40041 net.cpp:137] Memory required for data: 672359200
I1228 17:22:51.391405 40041 layer_factory.hpp:77] Creating layer quantized_conv1
I1228 17:22:51.391418 40041 net.cpp:84] Creating Layer quantized_conv1
I1228 17:22:51.391427 40041 net.cpp:406] quantized_conv1 <- conv1
I1228 17:22:51.391438 40041 net.cpp:367] quantized_conv1 -> conv1 (in-place)
I1228 17:22:51.391465 40041 net.cpp:122] Setting up quantized_conv1
I1228 17:22:51.391477 40041 net.cpp:129] Top shape: 50 64 112 112 (40140800)
I1228 17:22:51.391485 40041 net.cpp:137] Memory required for data: 832922400
I1228 17:22:51.391494 40041 layer_factory.hpp:77] Creating layer pool1
I1228 17:22:51.391506 40041 net.cpp:84] Creating Layer pool1
I1228 17:22:51.391515 40041 net.cpp:406] pool1 <- conv1
I1228 17:22:51.391526 40041 net.cpp:380] pool1 -> pool1
I1228 17:22:51.391579 40041 net.cpp:122] Setting up pool1
I1228 17:22:51.391595 40041 net.cpp:129] Top shape: 50 64 56 56 (10035200)
I1228 17:22:51.391604 40041 net.cpp:137] Memory required for data: 873063200
I1228 17:22:51.391613 40041 layer_factory.hpp:77] Creating layer pool1_pool1_0_split
I1228 17:22:51.391625 40041 net.cpp:84] Creating Layer pool1_pool1_0_split
I1228 17:22:51.391634 40041 net.cpp:406] pool1_pool1_0_split <- pool1
I1228 17:22:51.391645 40041 net.cpp:380] pool1_pool1_0_split -> pool1_pool1_0_split_0
I1228 17:22:51.391659 40041 net.cpp:380] pool1_pool1_0_split -> pool1_pool1_0_split_1
I1228 17:22:51.391696 40041 net.cpp:122] Setting up pool1_pool1_0_split
I1228 17:22:51.391710 40041 net.cpp:129] Top shape: 50 64 56 56 (10035200)
I1228 17:22:51.391721 40041 net.cpp:129] Top shape: 50 64 56 56 (10035200)
I1228 17:22:51.391729 40041 net.cpp:137] Memory required for data: 953344800
I1228 17:22:51.391737 40041 layer_factory.hpp:77] Creating layer res2a_branch1
I1228 17:22:51.391752 40041 net.cpp:84] Creating Layer res2a_branch1
I1228 17:22:51.391762 40041 net.cpp:406] res2a_branch1 <- pool1_pool1_0_split_0
I1228 17:22:51.391773 40041 net.cpp:380] res2a_branch1 -> res2a_branch1
I1228 17:22:51.393290 40041 net.cpp:122] Setting up res2a_branch1
I1228 17:22:51.393321 40041 net.cpp:129] Top shape: 50 64 56 56 (10035200)
I1228 17:22:51.393329 40041 net.cpp:137] Memory required for data: 993485600
I1228 17:22:51.393342 40041 layer_factory.hpp:77] Creating layer bn2a_branch1
I1228 17:22:51.393379 40041 net.cpp:84] Creating Layer bn2a_branch1
I1228 17:22:51.393390 40041 net.cpp:406] bn2a_branch1 <- res2a_branch1
I1228 17:22:51.393404 40041 net.cpp:367] bn2a_branch1 -> res2a_branch1 (in-place)
I1228 17:22:51.393576 40041 net.cpp:122] Setting up bn2a_branch1
I1228 17:22:51.393594 40041 net.cpp:129] Top shape: 50 64 56 56 (10035200)
I1228 17:22:51.393602 40041 net.cpp:137] Memory required for data: 1033626400
I1228 17:22:51.393620 40041 layer_factory.hpp:77] Creating layer scale2a_branch1
I1228 17:22:51.393633 40041 net.cpp:84] Creating Layer scale2a_branch1
I1228 17:22:51.393642 40041 net.cpp:406] scale2a_branch1 <- res2a_branch1
I1228 17:22:51.393652 40041 net.cpp:367] scale2a_branch1 -> res2a_branch1 (in-place)
I1228 17:22:51.393700 40041 layer_factory.hpp:77] Creating layer scale2a_branch1
I1228 17:22:51.393811 40041 net.cpp:122] Setting up scale2a_branch1
I1228 17:22:51.393828 40041 net.cpp:129] Top shape: 50 64 56 56 (10035200)
I1228 17:22:51.393836 40041 net.cpp:137] Memory required for data: 1073767200
I1228 17:22:51.393848 40041 layer_factory.hpp:77] Creating layer quantized_res2a_branch1
I1228 17:22:51.393862 40041 net.cpp:84] Creating Layer quantized_res2a_branch1
I1228 17:22:51.393870 40041 net.cpp:406] quantized_res2a_branch1 <- res2a_branch1
I1228 17:22:51.393880 40041 net.cpp:367] quantized_res2a_branch1 -> res2a_branch1 (in-place)
I1228 17:22:51.393893 40041 net.cpp:122] Setting up quantized_res2a_branch1
I1228 17:22:51.393903 40041 net.cpp:129] Top shape: 50 64 56 56 (10035200)
I1228 17:22:51.393911 40041 net.cpp:137] Memory required for data: 1113908000
I1228 17:22:51.393919 40041 layer_factory.hpp:77] Creating layer res2a_branch2a
I1228 17:22:51.393934 40041 net.cpp:84] Creating Layer res2a_branch2a
I1228 17:22:51.393944 40041 net.cpp:406] res2a_branch2a <- pool1_pool1_0_split_1
I1228 17:22:51.393955 40041 net.cpp:380] res2a_branch2a -> res2a_branch2a
I1228 17:22:51.396467 40041 net.cpp:122] Setting up res2a_branch2a
I1228 17:22:51.396497 40041 net.cpp:129] Top shape: 50 64 56 56 (10035200)
I1228 17:22:51.396507 40041 net.cpp:137] Memory required for data: 1154048800
I1228 17:22:51.396519 40041 layer_factory.hpp:77] Creating layer bn2a_branch2a
I1228 17:22:51.396533 40041 net.cpp:84] Creating Layer bn2a_branch2a
I1228 17:22:51.396543 40041 net.cpp:406] bn2a_branch2a <- res2a_branch2a
I1228 17:22:51.396555 40041 net.cpp:367] bn2a_branch2a -> res2a_branch2a (in-place)
I1228 17:22:51.396733 40041 net.cpp:122] Setting up bn2a_branch2a
I1228 17:22:51.396749 40041 net.cpp:129] Top shape: 50 64 56 56 (10035200)
I1228 17:22:51.396759 40041 net.cpp:137] Memory required for data: 1194189600
I1228 17:22:51.396771 40041 layer_factory.hpp:77] Creating layer scale2a_branch2a
I1228 17:22:51.396785 40041 net.cpp:84] Creating Layer scale2a_branch2a
I1228 17:22:51.396795 40041 net.cpp:406] scale2a_branch2a <- res2a_branch2a
I1228 17:22:51.396806 40041 net.cpp:367] scale2a_branch2a -> res2a_branch2a (in-place)
I1228 17:22:51.396852 40041 layer_factory.hpp:77] Creating layer scale2a_branch2a
I1228 17:22:51.396971 40041 net.cpp:122] Setting up scale2a_branch2a
I1228 17:22:51.396987 40041 net.cpp:129] Top shape: 50 64 56 56 (10035200)
I1228 17:22:51.396996 40041 net.cpp:137] Memory required for data: 1234330400
I1228 17:22:51.397013 40041 layer_factory.hpp:77] Creating layer res2a_branch2a_relu
I1228 17:22:51.397029 40041 net.cpp:84] Creating Layer res2a_branch2a_relu
I1228 17:22:51.397038 40041 net.cpp:406] res2a_branch2a_relu <- res2a_branch2a
I1228 17:22:51.397049 40041 net.cpp:367] res2a_branch2a_relu -> res2a_branch2a (in-place)
I1228 17:22:51.397063 40041 net.cpp:122] Setting up res2a_branch2a_relu
I1228 17:22:51.397073 40041 net.cpp:129] Top shape: 50 64 56 56 (10035200)
I1228 17:22:51.397080 40041 net.cpp:137] Memory required for data: 1274471200
I1228 17:22:51.397089 40041 layer_factory.hpp:77] Creating layer quantized_res2a_branch2a
I1228 17:22:51.397101 40041 net.cpp:84] Creating Layer quantized_res2a_branch2a
I1228 17:22:51.397110 40041 net.cpp:406] quantized_res2a_branch2a <- res2a_branch2a
I1228 17:22:51.397147 40041 net.cpp:367] quantized_res2a_branch2a -> res2a_branch2a (in-place)
I1228 17:22:51.397161 40041 net.cpp:122] Setting up quantized_res2a_branch2a
I1228 17:22:51.397171 40041 net.cpp:129] Top shape: 50 64 56 56 (10035200)
I1228 17:22:51.397179 40041 net.cpp:137] Memory required for data: 1314612000
I1228 17:22:51.397188 40041 layer_factory.hpp:77] Creating layer res2a_branch2b
I1228 17:22:51.397203 40041 net.cpp:84] Creating Layer res2a_branch2b
I1228 17:22:51.397212 40041 net.cpp:406] res2a_branch2b <- res2a_branch2a
I1228 17:22:51.397224 40041 net.cpp:380] res2a_branch2b -> res2a_branch2b
I1228 17:22:51.398470 40041 net.cpp:122] Setting up res2a_branch2b
I1228 17:22:51.398490 40041 net.cpp:129] Top shape: 50 64 56 56 (10035200)
I1228 17:22:51.398499 40041 net.cpp:137] Memory required for data: 1354752800
I1228 17:22:51.398509 40041 layer_factory.hpp:77] Creating layer bn2a_branch2b
I1228 17:22:51.398522 40041 net.cpp:84] Creating Layer bn2a_branch2b
I1228 17:22:51.398535 40041 net.cpp:406] bn2a_branch2b <- res2a_branch2b
I1228 17:22:51.398545 40041 net.cpp:367] bn2a_branch2b -> res2a_branch2b (in-place)
I1228 17:22:51.398720 40041 net.cpp:122] Setting up bn2a_branch2b
I1228 17:22:51.398736 40041 net.cpp:129] Top shape: 50 64 56 56 (10035200)
I1228 17:22:51.398744 40041 net.cpp:137] Memory required for data: 1394893600
I1228 17:22:51.398757 40041 layer_factory.hpp:77] Creating layer scale2a_branch2b
I1228 17:22:51.398769 40041 net.cpp:84] Creating Layer scale2a_branch2b
I1228 17:22:51.398778 40041 net.cpp:406] scale2a_branch2b <- res2a_branch2b
I1228 17:22:51.398789 40041 net.cpp:367] scale2a_branch2b -> res2a_branch2b (in-place)
I1228 17:22:51.398833 40041 layer_factory.hpp:77] Creating layer scale2a_branch2b
I1228 17:22:51.398950 40041 net.cpp:122] Setting up scale2a_branch2b
I1228 17:22:51.398973 40041 net.cpp:129] Top shape: 50 64 56 56 (10035200)
I1228 17:22:51.398983 40041 net.cpp:137] Memory required for data: 1435034400
I1228 17:22:51.398995 40041 layer_factory.hpp:77] Creating layer quantized_res2a_branch2b
I1228 17:22:51.399008 40041 net.cpp:84] Creating Layer quantized_res2a_branch2b
I1228 17:22:51.399018 40041 net.cpp:406] quantized_res2a_branch2b <- res2a_branch2b
I1228 17:22:51.399027 40041 net.cpp:367] quantized_res2a_branch2b -> res2a_branch2b (in-place)
I1228 17:22:51.399040 40041 net.cpp:122] Setting up quantized_res2a_branch2b
I1228 17:22:51.399050 40041 net.cpp:129] Top shape: 50 64 56 56 (10035200)
I1228 17:22:51.399058 40041 net.cpp:137] Memory required for data: 1475175200
I1228 17:22:51.399066 40041 layer_factory.hpp:77] Creating layer res2a
I1228 17:22:51.399085 40041 net.cpp:84] Creating Layer res2a
I1228 17:22:51.399093 40041 net.cpp:406] res2a <- res2a_branch1
I1228 17:22:51.399103 40041 net.cpp:406] res2a <- res2a_branch2b
I1228 17:22:51.399114 40041 net.cpp:380] res2a -> res2a
I1228 17:22:51.399155 40041 net.cpp:122] Setting up res2a
I1228 17:22:51.399170 40041 net.cpp:129] Top shape: 50 64 56 56 (10035200)
I1228 17:22:51.399179 40041 net.cpp:137] Memory required for data: 1515316000
I1228 17:22:51.399188 40041 layer_factory.hpp:77] Creating layer res2a_relu
I1228 17:22:51.399199 40041 net.cpp:84] Creating Layer res2a_relu
I1228 17:22:51.399207 40041 net.cpp:406] res2a_relu <- res2a
I1228 17:22:51.399219 40041 net.cpp:367] res2a_relu -> res2a (in-place)
I1228 17:22:51.399231 40041 net.cpp:122] Setting up res2a_relu
I1228 17:22:51.399242 40041 net.cpp:129] Top shape: 50 64 56 56 (10035200)
I1228 17:22:51.399251 40041 net.cpp:137] Memory required for data: 1555456800
I1228 17:22:51.399260 40041 layer_factory.hpp:77] Creating layer quantized_res2a
I1228 17:22:51.399271 40041 net.cpp:84] Creating Layer quantized_res2a
I1228 17:22:51.399281 40041 net.cpp:406] quantized_res2a <- res2a
I1228 17:22:51.399291 40041 net.cpp:367] quantized_res2a -> res2a (in-place)
I1228 17:22:51.399302 40041 net.cpp:122] Setting up quantized_res2a
I1228 17:22:51.399312 40041 net.cpp:129] Top shape: 50 64 56 56 (10035200)
I1228 17:22:51.399320 40041 net.cpp:137] Memory required for data: 1595597600
I1228 17:22:51.399344 40041 layer_factory.hpp:77] Creating layer res2a_quantized_res2a_0_split
I1228 17:22:51.399358 40041 net.cpp:84] Creating Layer res2a_quantized_res2a_0_split
I1228 17:22:51.399366 40041 net.cpp:406] res2a_quantized_res2a_0_split <- res2a
I1228 17:22:51.399377 40041 net.cpp:380] res2a_quantized_res2a_0_split -> res2a_quantized_res2a_0_split_0
I1228 17:22:51.399389 40041 net.cpp:380] res2a_quantized_res2a_0_split -> res2a_quantized_res2a_0_split_1
I1228 17:22:51.399430 40041 net.cpp:122] Setting up res2a_quantized_res2a_0_split
I1228 17:22:51.399444 40041 net.cpp:129] Top shape: 50 64 56 56 (10035200)
I1228 17:22:51.399453 40041 net.cpp:129] Top shape: 50 64 56 56 (10035200)
I1228 17:22:51.399461 40041 net.cpp:137] Memory required for data: 1675879200
I1228 17:22:51.399471 40041 layer_factory.hpp:77] Creating layer res2b_branch2a
I1228 17:22:51.399484 40041 net.cpp:84] Creating Layer res2b_branch2a
I1228 17:22:51.399494 40041 net.cpp:406] res2b_branch2a <- res2a_quantized_res2a_0_split_0
I1228 17:22:51.399507 40041 net.cpp:380] res2b_branch2a -> res2b_branch2a
I1228 17:22:51.400758 40041 net.cpp:122] Setting up res2b_branch2a
I1228 17:22:51.400777 40041 net.cpp:129] Top shape: 50 64 56 56 (10035200)
I1228 17:22:51.400786 40041 net.cpp:137] Memory required for data: 1716020000
I1228 17:22:51.400796 40041 layer_factory.hpp:77] Creating layer bn2b_branch2a
I1228 17:22:51.400810 40041 net.cpp:84] Creating Layer bn2b_branch2a
I1228 17:22:51.400818 40041 net.cpp:406] bn2b_branch2a <- res2b_branch2a
I1228 17:22:51.400830 40041 net.cpp:367] bn2b_branch2a -> res2b_branch2a (in-place)
I1228 17:22:51.401003 40041 net.cpp:122] Setting up bn2b_branch2a
I1228 17:22:51.401020 40041 net.cpp:129] Top shape: 50 64 56 56 (10035200)
I1228 17:22:51.401027 40041 net.cpp:137] Memory required for data: 1756160800
I1228 17:22:51.401041 40041 layer_factory.hpp:77] Creating layer scale2b_branch2a
I1228 17:22:51.401053 40041 net.cpp:84] Creating Layer scale2b_branch2a
I1228 17:22:51.401062 40041 net.cpp:406] scale2b_branch2a <- res2b_branch2a
I1228 17:22:51.401073 40041 net.cpp:367] scale2b_branch2a -> res2b_branch2a (in-place)
I1228 17:22:51.401119 40041 layer_factory.hpp:77] Creating layer scale2b_branch2a
I1228 17:22:51.401237 40041 net.cpp:122] Setting up scale2b_branch2a
I1228 17:22:51.401252 40041 net.cpp:129] Top shape: 50 64 56 56 (10035200)
I1228 17:22:51.401262 40041 net.cpp:137] Memory required for data: 1796301600
I1228 17:22:51.401273 40041 layer_factory.hpp:77] Creating layer res2b_branch2a_relu
I1228 17:22:51.401284 40041 net.cpp:84] Creating Layer res2b_branch2a_relu
I1228 17:22:51.401293 40041 net.cpp:406] res2b_branch2a_relu <- res2b_branch2a
I1228 17:22:51.401304 40041 net.cpp:367] res2b_branch2a_relu -> res2b_branch2a (in-place)
I1228 17:22:51.401316 40041 net.cpp:122] Setting up res2b_branch2a_relu
I1228 17:22:51.401326 40041 net.cpp:129] Top shape: 50 64 56 56 (10035200)
I1228 17:22:51.401335 40041 net.cpp:137] Memory required for data: 1836442400
I1228 17:22:51.401343 40041 layer_factory.hpp:77] Creating layer quantized_res2b_branch2a
I1228 17:22:51.401355 40041 net.cpp:84] Creating Layer quantized_res2b_branch2a
I1228 17:22:51.401363 40041 net.cpp:406] quantized_res2b_branch2a <- res2b_branch2a
I1228 17:22:51.401374 40041 net.cpp:367] quantized_res2b_branch2a -> res2b_branch2a (in-place)
I1228 17:22:51.401386 40041 net.cpp:122] Setting up quantized_res2b_branch2a
I1228 17:22:51.401396 40041 net.cpp:129] Top shape: 50 64 56 56 (10035200)
I1228 17:22:51.401403 40041 net.cpp:137] Memory required for data: 1876583200
I1228 17:22:51.401412 40041 layer_factory.hpp:77] Creating layer res2b_branch2b
I1228 17:22:51.401425 40041 net.cpp:84] Creating Layer res2b_branch2b
I1228 17:22:51.401434 40041 net.cpp:406] res2b_branch2b <- res2b_branch2a
I1228 17:22:51.401446 40041 net.cpp:380] res2b_branch2b -> res2b_branch2b
I1228 17:22:51.402704 40041 net.cpp:122] Setting up res2b_branch2b
I1228 17:22:51.402724 40041 net.cpp:129] Top shape: 50 64 56 56 (10035200)
I1228 17:22:51.402750 40041 net.cpp:137] Memory required for data: 1916724000
I1228 17:22:51.402762 40041 layer_factory.hpp:77] Creating layer bn2b_branch2b
I1228 17:22:51.402777 40041 net.cpp:84] Creating Layer bn2b_branch2b
I1228 17:22:51.402787 40041 net.cpp:406] bn2b_branch2b <- res2b_branch2b
I1228 17:22:51.402798 40041 net.cpp:367] bn2b_branch2b -> res2b_branch2b (in-place)
I1228 17:22:51.402990 40041 net.cpp:122] Setting up bn2b_branch2b
I1228 17:22:51.403008 40041 net.cpp:129] Top shape: 50 64 56 56 (10035200)
I1228 17:22:51.403017 40041 net.cpp:137] Memory required for data: 1956864800
I1228 17:22:51.403036 40041 layer_factory.hpp:77] Creating layer scale2b_branch2b
I1228 17:22:51.403049 40041 net.cpp:84] Creating Layer scale2b_branch2b
I1228 17:22:51.403059 40041 net.cpp:406] scale2b_branch2b <- res2b_branch2b
I1228 17:22:51.403069 40041 net.cpp:367] scale2b_branch2b -> res2b_branch2b (in-place)
I1228 17:22:51.403115 40041 layer_factory.hpp:77] Creating layer scale2b_branch2b
I1228 17:22:51.403232 40041 net.cpp:122] Setting up scale2b_branch2b
I1228 17:22:51.403249 40041 net.cpp:129] Top shape: 50 64 56 56 (10035200)
I1228 17:22:51.403257 40041 net.cpp:137] Memory required for data: 1997005600
I1228 17:22:51.403270 40041 layer_factory.hpp:77] Creating layer quantized_res2b_branch2b
I1228 17:22:51.403281 40041 net.cpp:84] Creating Layer quantized_res2b_branch2b
I1228 17:22:51.403290 40041 net.cpp:406] quantized_res2b_branch2b <- res2b_branch2b
I1228 17:22:51.403301 40041 net.cpp:367] quantized_res2b_branch2b -> res2b_branch2b (in-place)
I1228 17:22:51.403313 40041 net.cpp:122] Setting up quantized_res2b_branch2b
I1228 17:22:51.403324 40041 net.cpp:129] Top shape: 50 64 56 56 (10035200)
I1228 17:22:51.403332 40041 net.cpp:137] Memory required for data: 2037146400
I1228 17:22:51.403340 40041 layer_factory.hpp:77] Creating layer res2b
I1228 17:22:51.403352 40041 net.cpp:84] Creating Layer res2b
I1228 17:22:51.403360 40041 net.cpp:406] res2b <- res2a_quantized_res2a_0_split_1
I1228 17:22:51.403370 40041 net.cpp:406] res2b <- res2b_branch2b
I1228 17:22:51.403381 40041 net.cpp:380] res2b -> res2b
I1228 17:22:51.403411 40041 net.cpp:122] Setting up res2b
I1228 17:22:51.403426 40041 net.cpp:129] Top shape: 50 64 56 56 (10035200)
I1228 17:22:51.403434 40041 net.cpp:137] Memory required for data: 2077287200
I1228 17:22:51.403442 40041 layer_factory.hpp:77] Creating layer res2b_relu
I1228 17:22:51.403453 40041 net.cpp:84] Creating Layer res2b_relu
I1228 17:22:51.403462 40041 net.cpp:406] res2b_relu <- res2b
I1228 17:22:51.403473 40041 net.cpp:367] res2b_relu -> res2b (in-place)
I1228 17:22:51.403486 40041 net.cpp:122] Setting up res2b_relu
I1228 17:22:51.403496 40041 net.cpp:129] Top shape: 50 64 56 56 (10035200)
I1228 17:22:51.403503 40041 net.cpp:137] Memory required for data: 2117428000
I1228 17:22:51.403512 40041 layer_factory.hpp:77] Creating layer quantized_res2b
I1228 17:22:51.403522 40041 net.cpp:84] Creating Layer quantized_res2b
I1228 17:22:51.403532 40041 net.cpp:406] quantized_res2b <- res2b
I1228 17:22:51.403542 40041 net.cpp:367] quantized_res2b -> res2b (in-place)
I1228 17:22:51.403553 40041 net.cpp:122] Setting up quantized_res2b
I1228 17:22:51.403563 40041 net.cpp:129] Top shape: 50 64 56 56 (10035200)
I1228 17:22:51.403571 40041 net.cpp:137] Memory required for data: 2157568800
I1228 17:22:51.403579 40041 layer_factory.hpp:77] Creating layer res2b_quantized_res2b_0_split
I1228 17:22:51.403590 40041 net.cpp:84] Creating Layer res2b_quantized_res2b_0_split
I1228 17:22:51.403599 40041 net.cpp:406] res2b_quantized_res2b_0_split <- res2b
I1228 17:22:51.403609 40041 net.cpp:380] res2b_quantized_res2b_0_split -> res2b_quantized_res2b_0_split_0
I1228 17:22:51.403621 40041 net.cpp:380] res2b_quantized_res2b_0_split -> res2b_quantized_res2b_0_split_1
I1228 17:22:51.403661 40041 net.cpp:122] Setting up res2b_quantized_res2b_0_split
I1228 17:22:51.403674 40041 net.cpp:129] Top shape: 50 64 56 56 (10035200)
I1228 17:22:51.403683 40041 net.cpp:129] Top shape: 50 64 56 56 (10035200)
I1228 17:22:51.403692 40041 net.cpp:137] Memory required for data: 2237850400
I1228 17:22:51.403714 40041 layer_factory.hpp:77] Creating layer res3a_branch1
I1228 17:22:51.403729 40041 net.cpp:84] Creating Layer res3a_branch1
I1228 17:22:51.403739 40041 net.cpp:406] res3a_branch1 <- res2b_quantized_res2b_0_split_0
I1228 17:22:51.403751 40041 net.cpp:380] res3a_branch1 -> res3a_branch1
I1228 17:22:51.404160 40041 net.cpp:122] Setting up res3a_branch1
I1228 17:22:51.404177 40041 net.cpp:129] Top shape: 50 128 28 28 (5017600)
I1228 17:22:51.404186 40041 net.cpp:137] Memory required for data: 2257920800
I1228 17:22:51.404196 40041 layer_factory.hpp:77] Creating layer bn3a_branch1
I1228 17:22:51.404208 40041 net.cpp:84] Creating Layer bn3a_branch1
I1228 17:22:51.404217 40041 net.cpp:406] bn3a_branch1 <- res3a_branch1
I1228 17:22:51.404227 40041 net.cpp:367] bn3a_branch1 -> res3a_branch1 (in-place)
I1228 17:22:51.405835 40041 net.cpp:122] Setting up bn3a_branch1
I1228 17:22:51.405861 40041 net.cpp:129] Top shape: 50 128 28 28 (5017600)
I1228 17:22:51.405871 40041 net.cpp:137] Memory required for data: 2277991200
I1228 17:22:51.405886 40041 layer_factory.hpp:77] Creating layer scale3a_branch1
I1228 17:22:51.405901 40041 net.cpp:84] Creating Layer scale3a_branch1
I1228 17:22:51.405911 40041 net.cpp:406] scale3a_branch1 <- res3a_branch1
I1228 17:22:51.405922 40041 net.cpp:367] scale3a_branch1 -> res3a_branch1 (in-place)
I1228 17:22:51.405972 40041 layer_factory.hpp:77] Creating layer scale3a_branch1
I1228 17:22:51.406078 40041 net.cpp:122] Setting up scale3a_branch1
I1228 17:22:51.406095 40041 net.cpp:129] Top shape: 50 128 28 28 (5017600)
I1228 17:22:51.406103 40041 net.cpp:137] Memory required for data: 2298061600
I1228 17:22:51.406114 40041 layer_factory.hpp:77] Creating layer quantized_res3a_branch1
I1228 17:22:51.406127 40041 net.cpp:84] Creating Layer quantized_res3a_branch1
I1228 17:22:51.406137 40041 net.cpp:406] quantized_res3a_branch1 <- res3a_branch1
I1228 17:22:51.406148 40041 net.cpp:367] quantized_res3a_branch1 -> res3a_branch1 (in-place)
I1228 17:22:51.406160 40041 net.cpp:122] Setting up quantized_res3a_branch1
I1228 17:22:51.406170 40041 net.cpp:129] Top shape: 50 128 28 28 (5017600)
I1228 17:22:51.406178 40041 net.cpp:137] Memory required for data: 2318132000
I1228 17:22:51.406188 40041 layer_factory.hpp:77] Creating layer res3a_branch2a
I1228 17:22:51.406203 40041 net.cpp:84] Creating Layer res3a_branch2a
I1228 17:22:51.406211 40041 net.cpp:406] res3a_branch2a <- res2b_quantized_res2b_0_split_1
I1228 17:22:51.406224 40041 net.cpp:380] res3a_branch2a -> res3a_branch2a
I1228 17:22:51.408596 40041 net.cpp:122] Setting up res3a_branch2a
I1228 17:22:51.408617 40041 net.cpp:129] Top shape: 50 128 28 28 (5017600)
I1228 17:22:51.408627 40041 net.cpp:137] Memory required for data: 2338202400
I1228 17:22:51.408638 40041 layer_factory.hpp:77] Creating layer bn3a_branch2a
I1228 17:22:51.408650 40041 net.cpp:84] Creating Layer bn3a_branch2a
I1228 17:22:51.408660 40041 net.cpp:406] bn3a_branch2a <- res3a_branch2a
I1228 17:22:51.408671 40041 net.cpp:367] bn3a_branch2a -> res3a_branch2a (in-place)
I1228 17:22:51.408841 40041 net.cpp:122] Setting up bn3a_branch2a
I1228 17:22:51.408857 40041 net.cpp:129] Top shape: 50 128 28 28 (5017600)
I1228 17:22:51.408866 40041 net.cpp:137] Memory required for data: 2358272800
I1228 17:22:51.408879 40041 layer_factory.hpp:77] Creating layer scale3a_branch2a
I1228 17:22:51.408892 40041 net.cpp:84] Creating Layer scale3a_branch2a
I1228 17:22:51.408901 40041 net.cpp:406] scale3a_branch2a <- res3a_branch2a
I1228 17:22:51.408912 40041 net.cpp:367] scale3a_branch2a -> res3a_branch2a (in-place)
I1228 17:22:51.408958 40041 layer_factory.hpp:77] Creating layer scale3a_branch2a
I1228 17:22:51.409063 40041 net.cpp:122] Setting up scale3a_branch2a
I1228 17:22:51.409080 40041 net.cpp:129] Top shape: 50 128 28 28 (5017600)
I1228 17:22:51.409087 40041 net.cpp:137] Memory required for data: 2378343200
I1228 17:22:51.409099 40041 layer_factory.hpp:77] Creating layer res3a_branch2a_relu
I1228 17:22:51.409112 40041 net.cpp:84] Creating Layer res3a_branch2a_relu
I1228 17:22:51.409150 40041 net.cpp:406] res3a_branch2a_relu <- res3a_branch2a
I1228 17:22:51.409163 40041 net.cpp:367] res3a_branch2a_relu -> res3a_branch2a (in-place)
I1228 17:22:51.409175 40041 net.cpp:122] Setting up res3a_branch2a_relu
I1228 17:22:51.409186 40041 net.cpp:129] Top shape: 50 128 28 28 (5017600)
I1228 17:22:51.409194 40041 net.cpp:137] Memory required for data: 2398413600
I1228 17:22:51.409202 40041 layer_factory.hpp:77] Creating layer quantized_res3a_branch2a
I1228 17:22:51.409214 40041 net.cpp:84] Creating Layer quantized_res3a_branch2a
I1228 17:22:51.409224 40041 net.cpp:406] quantized_res3a_branch2a <- res3a_branch2a
I1228 17:22:51.409234 40041 net.cpp:367] quantized_res3a_branch2a -> res3a_branch2a (in-place)
I1228 17:22:51.409245 40041 net.cpp:122] Setting up quantized_res3a_branch2a
I1228 17:22:51.409255 40041 net.cpp:129] Top shape: 50 128 28 28 (5017600)
I1228 17:22:51.409262 40041 net.cpp:137] Memory required for data: 2418484000
I1228 17:22:51.409271 40041 layer_factory.hpp:77] Creating layer res3a_branch2b
I1228 17:22:51.409286 40041 net.cpp:84] Creating Layer res3a_branch2b
I1228 17:22:51.409294 40041 net.cpp:406] res3a_branch2b <- res3a_branch2a
I1228 17:22:51.409307 40041 net.cpp:380] res3a_branch2b -> res3a_branch2b
I1228 17:22:51.413869 40041 net.cpp:122] Setting up res3a_branch2b
I1228 17:22:51.413900 40041 net.cpp:129] Top shape: 50 128 28 28 (5017600)
I1228 17:22:51.413910 40041 net.cpp:137] Memory required for data: 2438554400
I1228 17:22:51.413923 40041 layer_factory.hpp:77] Creating layer bn3a_branch2b
I1228 17:22:51.413938 40041 net.cpp:84] Creating Layer bn3a_branch2b
I1228 17:22:51.413949 40041 net.cpp:406] bn3a_branch2b <- res3a_branch2b
I1228 17:22:51.413959 40041 net.cpp:367] bn3a_branch2b -> res3a_branch2b (in-place)
I1228 17:22:51.414140 40041 net.cpp:122] Setting up bn3a_branch2b
I1228 17:22:51.414157 40041 net.cpp:129] Top shape: 50 128 28 28 (5017600)
I1228 17:22:51.414165 40041 net.cpp:137] Memory required for data: 2458624800
I1228 17:22:51.414178 40041 layer_factory.hpp:77] Creating layer scale3a_branch2b
I1228 17:22:51.414192 40041 net.cpp:84] Creating Layer scale3a_branch2b
I1228 17:22:51.414201 40041 net.cpp:406] scale3a_branch2b <- res3a_branch2b
I1228 17:22:51.414212 40041 net.cpp:367] scale3a_branch2b -> res3a_branch2b (in-place)
I1228 17:22:51.414260 40041 layer_factory.hpp:77] Creating layer scale3a_branch2b
I1228 17:22:51.414371 40041 net.cpp:122] Setting up scale3a_branch2b
I1228 17:22:51.414387 40041 net.cpp:129] Top shape: 50 128 28 28 (5017600)
I1228 17:22:51.414396 40041 net.cpp:137] Memory required for data: 2478695200
I1228 17:22:51.414407 40041 layer_factory.hpp:77] Creating layer quantized_res3a_branch2b
I1228 17:22:51.414420 40041 net.cpp:84] Creating Layer quantized_res3a_branch2b
I1228 17:22:51.414430 40041 net.cpp:406] quantized_res3a_branch2b <- res3a_branch2b
I1228 17:22:51.414441 40041 net.cpp:367] quantized_res3a_branch2b -> res3a_branch2b (in-place)
I1228 17:22:51.414454 40041 net.cpp:122] Setting up quantized_res3a_branch2b
I1228 17:22:51.414464 40041 net.cpp:129] Top shape: 50 128 28 28 (5017600)
I1228 17:22:51.414472 40041 net.cpp:137] Memory required for data: 2498765600
I1228 17:22:51.414481 40041 layer_factory.hpp:77] Creating layer res3a
I1228 17:22:51.414494 40041 net.cpp:84] Creating Layer res3a
I1228 17:22:51.414503 40041 net.cpp:406] res3a <- res3a_branch1
I1228 17:22:51.414512 40041 net.cpp:406] res3a <- res3a_branch2b
I1228 17:22:51.414523 40041 net.cpp:380] res3a -> res3a
I1228 17:22:51.414556 40041 net.cpp:122] Setting up res3a
I1228 17:22:51.414571 40041 net.cpp:129] Top shape: 50 128 28 28 (5017600)
I1228 17:22:51.414579 40041 net.cpp:137] Memory required for data: 2518836000
I1228 17:22:51.414587 40041 layer_factory.hpp:77] Creating layer res3a_relu
I1228 17:22:51.414598 40041 net.cpp:84] Creating Layer res3a_relu
I1228 17:22:51.414608 40041 net.cpp:406] res3a_relu <- res3a
I1228 17:22:51.414618 40041 net.cpp:367] res3a_relu -> res3a (in-place)
I1228 17:22:51.414629 40041 net.cpp:122] Setting up res3a_relu
I1228 17:22:51.414661 40041 net.cpp:129] Top shape: 50 128 28 28 (5017600)
I1228 17:22:51.414670 40041 net.cpp:137] Memory required for data: 2538906400
I1228 17:22:51.414680 40041 layer_factory.hpp:77] Creating layer quantized_res3a
I1228 17:22:51.414690 40041 net.cpp:84] Creating Layer quantized_res3a
I1228 17:22:51.414700 40041 net.cpp:406] quantized_res3a <- res3a
I1228 17:22:51.414710 40041 net.cpp:367] quantized_res3a -> res3a (in-place)
I1228 17:22:51.414722 40041 net.cpp:122] Setting up quantized_res3a
I1228 17:22:51.414732 40041 net.cpp:129] Top shape: 50 128 28 28 (5017600)
I1228 17:22:51.414741 40041 net.cpp:137] Memory required for data: 2558976800
I1228 17:22:51.414749 40041 layer_factory.hpp:77] Creating layer res3a_quantized_res3a_0_split
I1228 17:22:51.414760 40041 net.cpp:84] Creating Layer res3a_quantized_res3a_0_split
I1228 17:22:51.414769 40041 net.cpp:406] res3a_quantized_res3a_0_split <- res3a
I1228 17:22:51.414779 40041 net.cpp:380] res3a_quantized_res3a_0_split -> res3a_quantized_res3a_0_split_0
I1228 17:22:51.414793 40041 net.cpp:380] res3a_quantized_res3a_0_split -> res3a_quantized_res3a_0_split_1
I1228 17:22:51.414834 40041 net.cpp:122] Setting up res3a_quantized_res3a_0_split
I1228 17:22:51.414849 40041 net.cpp:129] Top shape: 50 128 28 28 (5017600)
I1228 17:22:51.414857 40041 net.cpp:129] Top shape: 50 128 28 28 (5017600)
I1228 17:22:51.414865 40041 net.cpp:137] Memory required for data: 2599117600
I1228 17:22:51.414875 40041 layer_factory.hpp:77] Creating layer res3b_branch2a
I1228 17:22:51.414889 40041 net.cpp:84] Creating Layer res3b_branch2a
I1228 17:22:51.414899 40041 net.cpp:406] res3b_branch2a <- res3a_quantized_res3a_0_split_0
I1228 17:22:51.414912 40041 net.cpp:380] res3b_branch2a -> res3b_branch2a
I1228 17:22:51.420814 40041 net.cpp:122] Setting up res3b_branch2a
I1228 17:22:51.420845 40041 net.cpp:129] Top shape: 50 128 28 28 (5017600)
I1228 17:22:51.420853 40041 net.cpp:137] Memory required for data: 2619188000
I1228 17:22:51.420866 40041 layer_factory.hpp:77] Creating layer bn3b_branch2a
I1228 17:22:51.420881 40041 net.cpp:84] Creating Layer bn3b_branch2a
I1228 17:22:51.420892 40041 net.cpp:406] bn3b_branch2a <- res3b_branch2a
I1228 17:22:51.420904 40041 net.cpp:367] bn3b_branch2a -> res3b_branch2a (in-place)
I1228 17:22:51.421084 40041 net.cpp:122] Setting up bn3b_branch2a
I1228 17:22:51.421100 40041 net.cpp:129] Top shape: 50 128 28 28 (5017600)
I1228 17:22:51.421108 40041 net.cpp:137] Memory required for data: 2639258400
I1228 17:22:51.421123 40041 layer_factory.hpp:77] Creating layer scale3b_branch2a
I1228 17:22:51.421138 40041 net.cpp:84] Creating Layer scale3b_branch2a
I1228 17:22:51.421147 40041 net.cpp:406] scale3b_branch2a <- res3b_branch2a
I1228 17:22:51.421159 40041 net.cpp:367] scale3b_branch2a -> res3b_branch2a (in-place)
I1228 17:22:51.421208 40041 layer_factory.hpp:77] Creating layer scale3b_branch2a
I1228 17:22:51.421319 40041 net.cpp:122] Setting up scale3b_branch2a
I1228 17:22:51.421334 40041 net.cpp:129] Top shape: 50 128 28 28 (5017600)
I1228 17:22:51.421344 40041 net.cpp:137] Memory required for data: 2659328800
I1228 17:22:51.421355 40041 layer_factory.hpp:77] Creating layer res3b_branch2a_relu
I1228 17:22:51.421367 40041 net.cpp:84] Creating Layer res3b_branch2a_relu
I1228 17:22:51.421376 40041 net.cpp:406] res3b_branch2a_relu <- res3b_branch2a
I1228 17:22:51.421387 40041 net.cpp:367] res3b_branch2a_relu -> res3b_branch2a (in-place)
I1228 17:22:51.421398 40041 net.cpp:122] Setting up res3b_branch2a_relu
I1228 17:22:51.421409 40041 net.cpp:129] Top shape: 50 128 28 28 (5017600)
I1228 17:22:51.421417 40041 net.cpp:137] Memory required for data: 2679399200
I1228 17:22:51.421425 40041 layer_factory.hpp:77] Creating layer quantized_res3b_branch2a
I1228 17:22:51.421437 40041 net.cpp:84] Creating Layer quantized_res3b_branch2a
I1228 17:22:51.421447 40041 net.cpp:406] quantized_res3b_branch2a <- res3b_branch2a
I1228 17:22:51.421456 40041 net.cpp:367] quantized_res3b_branch2a -> res3b_branch2a (in-place)
I1228 17:22:51.421468 40041 net.cpp:122] Setting up quantized_res3b_branch2a
I1228 17:22:51.421504 40041 net.cpp:129] Top shape: 50 128 28 28 (5017600)
I1228 17:22:51.421514 40041 net.cpp:137] Memory required for data: 2699469600
I1228 17:22:51.421521 40041 layer_factory.hpp:77] Creating layer res3b_branch2b
I1228 17:22:51.421537 40041 net.cpp:84] Creating Layer res3b_branch2b
I1228 17:22:51.421546 40041 net.cpp:406] res3b_branch2b <- res3b_branch2a
I1228 17:22:51.421558 40041 net.cpp:380] res3b_branch2b -> res3b_branch2b
I1228 17:22:51.429100 40041 net.cpp:122] Setting up res3b_branch2b
I1228 17:22:51.429119 40041 net.cpp:129] Top shape: 50 128 28 28 (5017600)
I1228 17:22:51.429128 40041 net.cpp:137] Memory required for data: 2719540000
I1228 17:22:51.429138 40041 layer_factory.hpp:77] Creating layer bn3b_branch2b
I1228 17:22:51.429152 40041 net.cpp:84] Creating Layer bn3b_branch2b
I1228 17:22:51.429160 40041 net.cpp:406] bn3b_branch2b <- res3b_branch2b
I1228 17:22:51.429170 40041 net.cpp:367] bn3b_branch2b -> res3b_branch2b (in-place)
I1228 17:22:51.429342 40041 net.cpp:122] Setting up bn3b_branch2b
I1228 17:22:51.429358 40041 net.cpp:129] Top shape: 50 128 28 28 (5017600)
I1228 17:22:51.429368 40041 net.cpp:137] Memory required for data: 2739610400
I1228 17:22:51.429380 40041 layer_factory.hpp:77] Creating layer scale3b_branch2b
I1228 17:22:51.429394 40041 net.cpp:84] Creating Layer scale3b_branch2b
I1228 17:22:51.429402 40041 net.cpp:406] scale3b_branch2b <- res3b_branch2b
I1228 17:22:51.429414 40041 net.cpp:367] scale3b_branch2b -> res3b_branch2b (in-place)
I1228 17:22:51.429457 40041 layer_factory.hpp:77] Creating layer scale3b_branch2b
I1228 17:22:51.429595 40041 net.cpp:122] Setting up scale3b_branch2b
I1228 17:22:51.429612 40041 net.cpp:129] Top shape: 50 128 28 28 (5017600)
I1228 17:22:51.429621 40041 net.cpp:137] Memory required for data: 2759680800
I1228 17:22:51.429644 40041 layer_factory.hpp:77] Creating layer quantized_res3b_branch2b
I1228 17:22:51.429663 40041 net.cpp:84] Creating Layer quantized_res3b_branch2b
I1228 17:22:51.429673 40041 net.cpp:406] quantized_res3b_branch2b <- res3b_branch2b
I1228 17:22:51.429684 40041 net.cpp:367] quantized_res3b_branch2b -> res3b_branch2b (in-place)
I1228 17:22:51.429697 40041 net.cpp:122] Setting up quantized_res3b_branch2b
I1228 17:22:51.429708 40041 net.cpp:129] Top shape: 50 128 28 28 (5017600)
I1228 17:22:51.429715 40041 net.cpp:137] Memory required for data: 2779751200
I1228 17:22:51.429725 40041 layer_factory.hpp:77] Creating layer res3b
I1228 17:22:51.429738 40041 net.cpp:84] Creating Layer res3b
I1228 17:22:51.429746 40041 net.cpp:406] res3b <- res3a_quantized_res3a_0_split_1
I1228 17:22:51.429755 40041 net.cpp:406] res3b <- res3b_branch2b
I1228 17:22:51.429766 40041 net.cpp:380] res3b -> res3b
I1228 17:22:51.429798 40041 net.cpp:122] Setting up res3b
I1228 17:22:51.429812 40041 net.cpp:129] Top shape: 50 128 28 28 (5017600)
I1228 17:22:51.429821 40041 net.cpp:137] Memory required for data: 2799821600
I1228 17:22:51.429829 40041 layer_factory.hpp:77] Creating layer res3b_relu
I1228 17:22:51.429841 40041 net.cpp:84] Creating Layer res3b_relu
I1228 17:22:51.429849 40041 net.cpp:406] res3b_relu <- res3b
I1228 17:22:51.429859 40041 net.cpp:367] res3b_relu -> res3b (in-place)
I1228 17:22:51.429872 40041 net.cpp:122] Setting up res3b_relu
I1228 17:22:51.429882 40041 net.cpp:129] Top shape: 50 128 28 28 (5017600)
I1228 17:22:51.429889 40041 net.cpp:137] Memory required for data: 2819892000
I1228 17:22:51.429898 40041 layer_factory.hpp:77] Creating layer quantized_res3b
I1228 17:22:51.429908 40041 net.cpp:84] Creating Layer quantized_res3b
I1228 17:22:51.429917 40041 net.cpp:406] quantized_res3b <- res3b
I1228 17:22:51.429929 40041 net.cpp:367] quantized_res3b -> res3b (in-place)
I1228 17:22:51.429939 40041 net.cpp:122] Setting up quantized_res3b
I1228 17:22:51.429949 40041 net.cpp:129] Top shape: 50 128 28 28 (5017600)
I1228 17:22:51.429957 40041 net.cpp:137] Memory required for data: 2839962400
I1228 17:22:51.429966 40041 layer_factory.hpp:77] Creating layer res3b_quantized_res3b_0_split
I1228 17:22:51.429977 40041 net.cpp:84] Creating Layer res3b_quantized_res3b_0_split
I1228 17:22:51.430006 40041 net.cpp:406] res3b_quantized_res3b_0_split <- res3b
I1228 17:22:51.430017 40041 net.cpp:380] res3b_quantized_res3b_0_split -> res3b_quantized_res3b_0_split_0
I1228 17:22:51.430032 40041 net.cpp:380] res3b_quantized_res3b_0_split -> res3b_quantized_res3b_0_split_1
I1228 17:22:51.430073 40041 net.cpp:122] Setting up res3b_quantized_res3b_0_split
I1228 17:22:51.430088 40041 net.cpp:129] Top shape: 50 128 28 28 (5017600)
I1228 17:22:51.430097 40041 net.cpp:129] Top shape: 50 128 28 28 (5017600)
I1228 17:22:51.430105 40041 net.cpp:137] Memory required for data: 2880103200
I1228 17:22:51.430114 40041 layer_factory.hpp:77] Creating layer res4a_branch1
I1228 17:22:51.430128 40041 net.cpp:84] Creating Layer res4a_branch1
I1228 17:22:51.430138 40041 net.cpp:406] res4a_branch1 <- res3b_quantized_res3b_0_split_0
I1228 17:22:51.430150 40041 net.cpp:380] res4a_branch1 -> res4a_branch1
I1228 17:22:51.431298 40041 net.cpp:122] Setting up res4a_branch1
I1228 17:22:51.431318 40041 net.cpp:129] Top shape: 50 256 14 14 (2508800)
I1228 17:22:51.431325 40041 net.cpp:137] Memory required for data: 2890138400
I1228 17:22:51.431336 40041 layer_factory.hpp:77] Creating layer bn4a_branch1
I1228 17:22:51.431349 40041 net.cpp:84] Creating Layer bn4a_branch1
I1228 17:22:51.431358 40041 net.cpp:406] bn4a_branch1 <- res4a_branch1
I1228 17:22:51.431368 40041 net.cpp:367] bn4a_branch1 -> res4a_branch1 (in-place)
I1228 17:22:51.431545 40041 net.cpp:122] Setting up bn4a_branch1
I1228 17:22:51.431561 40041 net.cpp:129] Top shape: 50 256 14 14 (2508800)
I1228 17:22:51.431571 40041 net.cpp:137] Memory required for data: 2900173600
I1228 17:22:51.431583 40041 layer_factory.hpp:77] Creating layer scale4a_branch1
I1228 17:22:51.431596 40041 net.cpp:84] Creating Layer scale4a_branch1
I1228 17:22:51.431605 40041 net.cpp:406] scale4a_branch1 <- res4a_branch1
I1228 17:22:51.431615 40041 net.cpp:367] scale4a_branch1 -> res4a_branch1 (in-place)
I1228 17:22:51.431663 40041 layer_factory.hpp:77] Creating layer scale4a_branch1
I1228 17:22:51.431771 40041 net.cpp:122] Setting up scale4a_branch1
I1228 17:22:51.431787 40041 net.cpp:129] Top shape: 50 256 14 14 (2508800)
I1228 17:22:51.431794 40041 net.cpp:137] Memory required for data: 2910208800
I1228 17:22:51.431807 40041 layer_factory.hpp:77] Creating layer quantized_res4a_branch1
I1228 17:22:51.431818 40041 net.cpp:84] Creating Layer quantized_res4a_branch1
I1228 17:22:51.431828 40041 net.cpp:406] quantized_res4a_branch1 <- res4a_branch1
I1228 17:22:51.431839 40041 net.cpp:367] quantized_res4a_branch1 -> res4a_branch1 (in-place)
I1228 17:22:51.431851 40041 net.cpp:122] Setting up quantized_res4a_branch1
I1228 17:22:51.431862 40041 net.cpp:129] Top shape: 50 256 14 14 (2508800)
I1228 17:22:51.431870 40041 net.cpp:137] Memory required for data: 2920244000
I1228 17:22:51.431879 40041 layer_factory.hpp:77] Creating layer res4a_branch2a
I1228 17:22:51.431891 40041 net.cpp:84] Creating Layer res4a_branch2a
I1228 17:22:51.431901 40041 net.cpp:406] res4a_branch2a <- res3b_quantized_res3b_0_split_1
I1228 17:22:51.431912 40041 net.cpp:380] res4a_branch2a -> res4a_branch2a
I1228 17:22:51.442219 40041 net.cpp:122] Setting up res4a_branch2a
I1228 17:22:51.442272 40041 net.cpp:129] Top shape: 50 256 14 14 (2508800)
I1228 17:22:51.442282 40041 net.cpp:137] Memory required for data: 2930279200
I1228 17:22:51.442296 40041 layer_factory.hpp:77] Creating layer bn4a_branch2a
I1228 17:22:51.442314 40041 net.cpp:84] Creating Layer bn4a_branch2a
I1228 17:22:51.442327 40041 net.cpp:406] bn4a_branch2a <- res4a_branch2a
I1228 17:22:51.442340 40041 net.cpp:367] bn4a_branch2a -> res4a_branch2a (in-place)
I1228 17:22:51.442535 40041 net.cpp:122] Setting up bn4a_branch2a
I1228 17:22:51.442551 40041 net.cpp:129] Top shape: 50 256 14 14 (2508800)
I1228 17:22:51.442560 40041 net.cpp:137] Memory required for data: 2940314400
I1228 17:22:51.442574 40041 layer_factory.hpp:77] Creating layer scale4a_branch2a
I1228 17:22:51.442589 40041 net.cpp:84] Creating Layer scale4a_branch2a
I1228 17:22:51.442636 40041 net.cpp:406] scale4a_branch2a <- res4a_branch2a
I1228 17:22:51.442649 40041 net.cpp:367] scale4a_branch2a -> res4a_branch2a (in-place)
I1228 17:22:51.442708 40041 layer_factory.hpp:77] Creating layer scale4a_branch2a
I1228 17:22:51.442822 40041 net.cpp:122] Setting up scale4a_branch2a
I1228 17:22:51.442838 40041 net.cpp:129] Top shape: 50 256 14 14 (2508800)
I1228 17:22:51.442849 40041 net.cpp:137] Memory required for data: 2950349600
I1228 17:22:51.442860 40041 layer_factory.hpp:77] Creating layer res4a_branch2a_relu
I1228 17:22:51.442873 40041 net.cpp:84] Creating Layer res4a_branch2a_relu
I1228 17:22:51.442883 40041 net.cpp:406] res4a_branch2a_relu <- res4a_branch2a
I1228 17:22:51.442893 40041 net.cpp:367] res4a_branch2a_relu -> res4a_branch2a (in-place)
I1228 17:22:51.442904 40041 net.cpp:122] Setting up res4a_branch2a_relu
I1228 17:22:51.442915 40041 net.cpp:129] Top shape: 50 256 14 14 (2508800)
I1228 17:22:51.442924 40041 net.cpp:137] Memory required for data: 2960384800
I1228 17:22:51.442931 40041 layer_factory.hpp:77] Creating layer quantized_res4a_branch2a
I1228 17:22:51.442944 40041 net.cpp:84] Creating Layer quantized_res4a_branch2a
I1228 17:22:51.442953 40041 net.cpp:406] quantized_res4a_branch2a <- res4a_branch2a
I1228 17:22:51.443013 40041 net.cpp:367] quantized_res4a_branch2a -> res4a_branch2a (in-place)
I1228 17:22:51.443027 40041 net.cpp:122] Setting up quantized_res4a_branch2a
I1228 17:22:51.443038 40041 net.cpp:129] Top shape: 50 256 14 14 (2508800)
I1228 17:22:51.443048 40041 net.cpp:137] Memory required for data: 2970420000
I1228 17:22:51.443055 40041 layer_factory.hpp:77] Creating layer res4a_branch2b
I1228 17:22:51.443071 40041 net.cpp:84] Creating Layer res4a_branch2b
I1228 17:22:51.443080 40041 net.cpp:406] res4a_branch2b <- res4a_branch2a
I1228 17:22:51.443094 40041 net.cpp:380] res4a_branch2b -> res4a_branch2b
I1228 17:22:51.462323 40041 net.cpp:122] Setting up res4a_branch2b
I1228 17:22:51.462378 40041 net.cpp:129] Top shape: 50 256 14 14 (2508800)
I1228 17:22:51.462389 40041 net.cpp:137] Memory required for data: 2980455200
I1228 17:22:51.462404 40041 layer_factory.hpp:77] Creating layer bn4a_branch2b
I1228 17:22:51.462424 40041 net.cpp:84] Creating Layer bn4a_branch2b
I1228 17:22:51.462435 40041 net.cpp:406] bn4a_branch2b <- res4a_branch2b
I1228 17:22:51.462450 40041 net.cpp:367] bn4a_branch2b -> res4a_branch2b (in-place)
I1228 17:22:51.467216 40041 net.cpp:122] Setting up bn4a_branch2b
I1228 17:22:51.467233 40041 net.cpp:129] Top shape: 50 256 14 14 (2508800)
I1228 17:22:51.467242 40041 net.cpp:137] Memory required for data: 2990490400
I1228 17:22:51.467257 40041 layer_factory.hpp:77] Creating layer scale4a_branch2b
I1228 17:22:51.467272 40041 net.cpp:84] Creating Layer scale4a_branch2b
I1228 17:22:51.467280 40041 net.cpp:406] scale4a_branch2b <- res4a_branch2b
I1228 17:22:51.467291 40041 net.cpp:367] scale4a_branch2b -> res4a_branch2b (in-place)
I1228 17:22:51.467348 40041 layer_factory.hpp:77] Creating layer scale4a_branch2b
I1228 17:22:51.467463 40041 net.cpp:122] Setting up scale4a_branch2b
I1228 17:22:51.467478 40041 net.cpp:129] Top shape: 50 256 14 14 (2508800)
I1228 17:22:51.467486 40041 net.cpp:137] Memory required for data: 3000525600
I1228 17:22:51.467497 40041 layer_factory.hpp:77] Creating layer quantized_res4a_branch2b
I1228 17:22:51.467511 40041 net.cpp:84] Creating Layer quantized_res4a_branch2b
I1228 17:22:51.467520 40041 net.cpp:406] quantized_res4a_branch2b <- res4a_branch2b
I1228 17:22:51.467532 40041 net.cpp:367] quantized_res4a_branch2b -> res4a_branch2b (in-place)
I1228 17:22:51.467545 40041 net.cpp:122] Setting up quantized_res4a_branch2b
I1228 17:22:51.467555 40041 net.cpp:129] Top shape: 50 256 14 14 (2508800)
I1228 17:22:51.467563 40041 net.cpp:137] Memory required for data: 3010560800
I1228 17:22:51.467571 40041 layer_factory.hpp:77] Creating layer res4a
I1228 17:22:51.467584 40041 net.cpp:84] Creating Layer res4a
I1228 17:22:51.467593 40041 net.cpp:406] res4a <- res4a_branch1
I1228 17:22:51.467602 40041 net.cpp:406] res4a <- res4a_branch2b
I1228 17:22:51.467651 40041 net.cpp:380] res4a -> res4a
I1228 17:22:51.467687 40041 net.cpp:122] Setting up res4a
I1228 17:22:51.467702 40041 net.cpp:129] Top shape: 50 256 14 14 (2508800)
I1228 17:22:51.467711 40041 net.cpp:137] Memory required for data: 3020596000
I1228 17:22:51.467720 40041 layer_factory.hpp:77] Creating layer res4a_relu
I1228 17:22:51.467731 40041 net.cpp:84] Creating Layer res4a_relu
I1228 17:22:51.467741 40041 net.cpp:406] res4a_relu <- res4a
I1228 17:22:51.467751 40041 net.cpp:367] res4a_relu -> res4a (in-place)
I1228 17:22:51.467762 40041 net.cpp:122] Setting up res4a_relu
I1228 17:22:51.467772 40041 net.cpp:129] Top shape: 50 256 14 14 (2508800)
I1228 17:22:51.467780 40041 net.cpp:137] Memory required for data: 3030631200
I1228 17:22:51.467789 40041 layer_factory.hpp:77] Creating layer quantized_res4a
I1228 17:22:51.467799 40041 net.cpp:84] Creating Layer quantized_res4a
I1228 17:22:51.467808 40041 net.cpp:406] quantized_res4a <- res4a
I1228 17:22:51.467818 40041 net.cpp:367] quantized_res4a -> res4a (in-place)
I1228 17:22:51.467829 40041 net.cpp:122] Setting up quantized_res4a
I1228 17:22:51.467839 40041 net.cpp:129] Top shape: 50 256 14 14 (2508800)
I1228 17:22:51.467847 40041 net.cpp:137] Memory required for data: 3040666400
I1228 17:22:51.467856 40041 layer_factory.hpp:77] Creating layer res4a_quantized_res4a_0_split
I1228 17:22:51.467867 40041 net.cpp:84] Creating Layer res4a_quantized_res4a_0_split
I1228 17:22:51.467875 40041 net.cpp:406] res4a_quantized_res4a_0_split <- res4a
I1228 17:22:51.467886 40041 net.cpp:380] res4a_quantized_res4a_0_split -> res4a_quantized_res4a_0_split_0
I1228 17:22:51.467898 40041 net.cpp:380] res4a_quantized_res4a_0_split -> res4a_quantized_res4a_0_split_1
I1228 17:22:51.467938 40041 net.cpp:122] Setting up res4a_quantized_res4a_0_split
I1228 17:22:51.467953 40041 net.cpp:129] Top shape: 50 256 14 14 (2508800)
I1228 17:22:51.467962 40041 net.cpp:129] Top shape: 50 256 14 14 (2508800)
I1228 17:22:51.467970 40041 net.cpp:137] Memory required for data: 3060736800
I1228 17:22:51.467978 40041 layer_factory.hpp:77] Creating layer res4b_branch2a
I1228 17:22:51.467995 40041 net.cpp:84] Creating Layer res4b_branch2a
I1228 17:22:51.468004 40041 net.cpp:406] res4b_branch2a <- res4a_quantized_res4a_0_split_0
I1228 17:22:51.468017 40041 net.cpp:380] res4b_branch2a -> res4b_branch2a
I1228 17:22:51.487143 40041 net.cpp:122] Setting up res4b_branch2a
I1228 17:22:51.487195 40041 net.cpp:129] Top shape: 50 256 14 14 (2508800)
I1228 17:22:51.487205 40041 net.cpp:137] Memory required for data: 3070772000
I1228 17:22:51.487221 40041 layer_factory.hpp:77] Creating layer bn4b_branch2a
I1228 17:22:51.487238 40041 net.cpp:84] Creating Layer bn4b_branch2a
I1228 17:22:51.487251 40041 net.cpp:406] bn4b_branch2a <- res4b_branch2a
I1228 17:22:51.487264 40041 net.cpp:367] bn4b_branch2a -> res4b_branch2a (in-place)
I1228 17:22:51.487468 40041 net.cpp:122] Setting up bn4b_branch2a
I1228 17:22:51.487485 40041 net.cpp:129] Top shape: 50 256 14 14 (2508800)
I1228 17:22:51.487494 40041 net.cpp:137] Memory required for data: 3080807200
I1228 17:22:51.487507 40041 layer_factory.hpp:77] Creating layer scale4b_branch2a
I1228 17:22:51.487522 40041 net.cpp:84] Creating Layer scale4b_branch2a
I1228 17:22:51.487532 40041 net.cpp:406] scale4b_branch2a <- res4b_branch2a
I1228 17:22:51.487543 40041 net.cpp:367] scale4b_branch2a -> res4b_branch2a (in-place)
I1228 17:22:51.487601 40041 layer_factory.hpp:77] Creating layer scale4b_branch2a
I1228 17:22:51.487718 40041 net.cpp:122] Setting up scale4b_branch2a
I1228 17:22:51.487735 40041 net.cpp:129] Top shape: 50 256 14 14 (2508800)
I1228 17:22:51.487742 40041 net.cpp:137] Memory required for data: 3090842400
I1228 17:22:51.487754 40041 layer_factory.hpp:77] Creating layer res4b_branch2a_relu
I1228 17:22:51.487767 40041 net.cpp:84] Creating Layer res4b_branch2a_relu
I1228 17:22:51.487777 40041 net.cpp:406] res4b_branch2a_relu <- res4b_branch2a
I1228 17:22:51.487787 40041 net.cpp:367] res4b_branch2a_relu -> res4b_branch2a (in-place)
I1228 17:22:51.487799 40041 net.cpp:122] Setting up res4b_branch2a_relu
I1228 17:22:51.487856 40041 net.cpp:129] Top shape: 50 256 14 14 (2508800)
I1228 17:22:51.487866 40041 net.cpp:137] Memory required for data: 3100877600
I1228 17:22:51.487874 40041 layer_factory.hpp:77] Creating layer quantized_res4b_branch2a
I1228 17:22:51.487888 40041 net.cpp:84] Creating Layer quantized_res4b_branch2a
I1228 17:22:51.487897 40041 net.cpp:406] quantized_res4b_branch2a <- res4b_branch2a
I1228 17:22:51.487908 40041 net.cpp:367] quantized_res4b_branch2a -> res4b_branch2a (in-place)
I1228 17:22:51.487920 40041 net.cpp:122] Setting up quantized_res4b_branch2a
I1228 17:22:51.487931 40041 net.cpp:129] Top shape: 50 256 14 14 (2508800)
I1228 17:22:51.487938 40041 net.cpp:137] Memory required for data: 3110912800
I1228 17:22:51.487947 40041 layer_factory.hpp:77] Creating layer res4b_branch2b
I1228 17:22:51.487963 40041 net.cpp:84] Creating Layer res4b_branch2b
I1228 17:22:51.487972 40041 net.cpp:406] res4b_branch2b <- res4b_branch2a
I1228 17:22:51.487984 40041 net.cpp:380] res4b_branch2b -> res4b_branch2b
I1228 17:22:51.507113 40041 net.cpp:122] Setting up res4b_branch2b
I1228 17:22:51.507153 40041 net.cpp:129] Top shape: 50 256 14 14 (2508800)
I1228 17:22:51.507164 40041 net.cpp:137] Memory required for data: 3120948000
I1228 17:22:51.507176 40041 layer_factory.hpp:77] Creating layer bn4b_branch2b
I1228 17:22:51.507194 40041 net.cpp:84] Creating Layer bn4b_branch2b
I1228 17:22:51.507205 40041 net.cpp:406] bn4b_branch2b <- res4b_branch2b
I1228 17:22:51.507220 40041 net.cpp:367] bn4b_branch2b -> res4b_branch2b (in-place)
I1228 17:22:51.507414 40041 net.cpp:122] Setting up bn4b_branch2b
I1228 17:22:51.507431 40041 net.cpp:129] Top shape: 50 256 14 14 (2508800)
I1228 17:22:51.507441 40041 net.cpp:137] Memory required for data: 3130983200
I1228 17:22:51.507453 40041 layer_factory.hpp:77] Creating layer scale4b_branch2b
I1228 17:22:51.507468 40041 net.cpp:84] Creating Layer scale4b_branch2b
I1228 17:22:51.507477 40041 net.cpp:406] scale4b_branch2b <- res4b_branch2b
I1228 17:22:51.507488 40041 net.cpp:367] scale4b_branch2b -> res4b_branch2b (in-place)
I1228 17:22:51.507544 40041 layer_factory.hpp:77] Creating layer scale4b_branch2b
I1228 17:22:51.507658 40041 net.cpp:122] Setting up scale4b_branch2b
I1228 17:22:51.507673 40041 net.cpp:129] Top shape: 50 256 14 14 (2508800)
I1228 17:22:51.507681 40041 net.cpp:137] Memory required for data: 3141018400
I1228 17:22:51.507692 40041 layer_factory.hpp:77] Creating layer quantized_res4b_branch2b
I1228 17:22:51.507706 40041 net.cpp:84] Creating Layer quantized_res4b_branch2b
I1228 17:22:51.507716 40041 net.cpp:406] quantized_res4b_branch2b <- res4b_branch2b
I1228 17:22:51.507727 40041 net.cpp:367] quantized_res4b_branch2b -> res4b_branch2b (in-place)
I1228 17:22:51.507740 40041 net.cpp:122] Setting up quantized_res4b_branch2b
I1228 17:22:51.507750 40041 net.cpp:129] Top shape: 50 256 14 14 (2508800)
I1228 17:22:51.507758 40041 net.cpp:137] Memory required for data: 3151053600
I1228 17:22:51.507767 40041 layer_factory.hpp:77] Creating layer res4b
I1228 17:22:51.507781 40041 net.cpp:84] Creating Layer res4b
I1228 17:22:51.507789 40041 net.cpp:406] res4b <- res4a_quantized_res4a_0_split_1
I1228 17:22:51.507799 40041 net.cpp:406] res4b <- res4b_branch2b
I1228 17:22:51.507812 40041 net.cpp:380] res4b -> res4b
I1228 17:22:51.507844 40041 net.cpp:122] Setting up res4b
I1228 17:22:51.507859 40041 net.cpp:129] Top shape: 50 256 14 14 (2508800)
I1228 17:22:51.507867 40041 net.cpp:137] Memory required for data: 3161088800
I1228 17:22:51.507876 40041 layer_factory.hpp:77] Creating layer res4b_relu
I1228 17:22:51.507889 40041 net.cpp:84] Creating Layer res4b_relu
I1228 17:22:51.507897 40041 net.cpp:406] res4b_relu <- res4b
I1228 17:22:51.507907 40041 net.cpp:367] res4b_relu -> res4b (in-place)
I1228 17:22:51.507920 40041 net.cpp:122] Setting up res4b_relu
I1228 17:22:51.507930 40041 net.cpp:129] Top shape: 50 256 14 14 (2508800)
I1228 17:22:51.507939 40041 net.cpp:137] Memory required for data: 3171124000
I1228 17:22:51.507947 40041 layer_factory.hpp:77] Creating layer quantized_res4b
I1228 17:22:51.507994 40041 net.cpp:84] Creating Layer quantized_res4b
I1228 17:22:51.508005 40041 net.cpp:406] quantized_res4b <- res4b
I1228 17:22:51.508016 40041 net.cpp:367] quantized_res4b -> res4b (in-place)
I1228 17:22:51.508028 40041 net.cpp:122] Setting up quantized_res4b
I1228 17:22:51.508038 40041 net.cpp:129] Top shape: 50 256 14 14 (2508800)
I1228 17:22:51.508046 40041 net.cpp:137] Memory required for data: 3181159200
I1228 17:22:51.508054 40041 layer_factory.hpp:77] Creating layer res4b_quantized_res4b_0_split
I1228 17:22:51.508065 40041 net.cpp:84] Creating Layer res4b_quantized_res4b_0_split
I1228 17:22:51.508074 40041 net.cpp:406] res4b_quantized_res4b_0_split <- res4b
I1228 17:22:51.508085 40041 net.cpp:380] res4b_quantized_res4b_0_split -> res4b_quantized_res4b_0_split_0
I1228 17:22:51.508097 40041 net.cpp:380] res4b_quantized_res4b_0_split -> res4b_quantized_res4b_0_split_1
I1228 17:22:51.508138 40041 net.cpp:122] Setting up res4b_quantized_res4b_0_split
I1228 17:22:51.508153 40041 net.cpp:129] Top shape: 50 256 14 14 (2508800)
I1228 17:22:51.508163 40041 net.cpp:129] Top shape: 50 256 14 14 (2508800)
I1228 17:22:51.508172 40041 net.cpp:137] Memory required for data: 3201229600
I1228 17:22:51.508179 40041 layer_factory.hpp:77] Creating layer res5a_branch1
I1228 17:22:51.508195 40041 net.cpp:84] Creating Layer res5a_branch1
I1228 17:22:51.508205 40041 net.cpp:406] res5a_branch1 <- res4b_quantized_res4b_0_split_0
I1228 17:22:51.508218 40041 net.cpp:380] res5a_branch1 -> res5a_branch1
I1228 17:22:51.512306 40041 net.cpp:122] Setting up res5a_branch1
I1228 17:22:51.512336 40041 net.cpp:129] Top shape: 50 512 7 7 (1254400)
I1228 17:22:51.512344 40041 net.cpp:137] Memory required for data: 3206247200
I1228 17:22:51.512356 40041 layer_factory.hpp:77] Creating layer bn5a_branch1
I1228 17:22:51.512372 40041 net.cpp:84] Creating Layer bn5a_branch1
I1228 17:22:51.512382 40041 net.cpp:406] bn5a_branch1 <- res5a_branch1
I1228 17:22:51.512392 40041 net.cpp:367] bn5a_branch1 -> res5a_branch1 (in-place)
I1228 17:22:51.512588 40041 net.cpp:122] Setting up bn5a_branch1
I1228 17:22:51.512603 40041 net.cpp:129] Top shape: 50 512 7 7 (1254400)
I1228 17:22:51.512611 40041 net.cpp:137] Memory required for data: 3211264800
I1228 17:22:51.512625 40041 layer_factory.hpp:77] Creating layer scale5a_branch1
I1228 17:22:51.512639 40041 net.cpp:84] Creating Layer scale5a_branch1
I1228 17:22:51.512648 40041 net.cpp:406] scale5a_branch1 <- res5a_branch1
I1228 17:22:51.512658 40041 net.cpp:367] scale5a_branch1 -> res5a_branch1 (in-place)
I1228 17:22:51.512703 40041 layer_factory.hpp:77] Creating layer scale5a_branch1
I1228 17:22:51.512821 40041 net.cpp:122] Setting up scale5a_branch1
I1228 17:22:51.512837 40041 net.cpp:129] Top shape: 50 512 7 7 (1254400)
I1228 17:22:51.512845 40041 net.cpp:137] Memory required for data: 3216282400
I1228 17:22:51.512857 40041 layer_factory.hpp:77] Creating layer quantized_res5a_branch1
I1228 17:22:51.512869 40041 net.cpp:84] Creating Layer quantized_res5a_branch1
I1228 17:22:51.512879 40041 net.cpp:406] quantized_res5a_branch1 <- res5a_branch1
I1228 17:22:51.512890 40041 net.cpp:367] quantized_res5a_branch1 -> res5a_branch1 (in-place)
I1228 17:22:51.512902 40041 net.cpp:122] Setting up quantized_res5a_branch1
I1228 17:22:51.512912 40041 net.cpp:129] Top shape: 50 512 7 7 (1254400)
I1228 17:22:51.512920 40041 net.cpp:137] Memory required for data: 3221300000
I1228 17:22:51.512929 40041 layer_factory.hpp:77] Creating layer res5a_branch2a
I1228 17:22:51.512944 40041 net.cpp:84] Creating Layer res5a_branch2a
I1228 17:22:51.512953 40041 net.cpp:406] res5a_branch2a <- res4b_quantized_res4b_0_split_1
I1228 17:22:51.512965 40041 net.cpp:380] res5a_branch2a -> res5a_branch2a
I1228 17:22:51.550560 40041 net.cpp:122] Setting up res5a_branch2a
I1228 17:22:51.550611 40041 net.cpp:129] Top shape: 50 512 7 7 (1254400)
I1228 17:22:51.550621 40041 net.cpp:137] Memory required for data: 3226317600
I1228 17:22:51.550634 40041 layer_factory.hpp:77] Creating layer bn5a_branch2a
I1228 17:22:51.550693 40041 net.cpp:84] Creating Layer bn5a_branch2a
I1228 17:22:51.550705 40041 net.cpp:406] bn5a_branch2a <- res5a_branch2a
I1228 17:22:51.550720 40041 net.cpp:367] bn5a_branch2a -> res5a_branch2a (in-place)
I1228 17:22:51.550926 40041 net.cpp:122] Setting up bn5a_branch2a
I1228 17:22:51.550943 40041 net.cpp:129] Top shape: 50 512 7 7 (1254400)
I1228 17:22:51.550951 40041 net.cpp:137] Memory required for data: 3231335200
I1228 17:22:51.550971 40041 layer_factory.hpp:77] Creating layer scale5a_branch2a
I1228 17:22:51.550984 40041 net.cpp:84] Creating Layer scale5a_branch2a
I1228 17:22:51.550994 40041 net.cpp:406] scale5a_branch2a <- res5a_branch2a
I1228 17:22:51.551005 40041 net.cpp:367] scale5a_branch2a -> res5a_branch2a (in-place)
I1228 17:22:51.551054 40041 layer_factory.hpp:77] Creating layer scale5a_branch2a
I1228 17:22:51.551177 40041 net.cpp:122] Setting up scale5a_branch2a
I1228 17:22:51.551192 40041 net.cpp:129] Top shape: 50 512 7 7 (1254400)
I1228 17:22:51.551201 40041 net.cpp:137] Memory required for data: 3236352800
I1228 17:22:51.551213 40041 layer_factory.hpp:77] Creating layer res5a_branch2a_relu
I1228 17:22:51.551225 40041 net.cpp:84] Creating Layer res5a_branch2a_relu
I1228 17:22:51.551234 40041 net.cpp:406] res5a_branch2a_relu <- res5a_branch2a
I1228 17:22:51.551245 40041 net.cpp:367] res5a_branch2a_relu -> res5a_branch2a (in-place)
I1228 17:22:51.551257 40041 net.cpp:122] Setting up res5a_branch2a_relu
I1228 17:22:51.551267 40041 net.cpp:129] Top shape: 50 512 7 7 (1254400)
I1228 17:22:51.551275 40041 net.cpp:137] Memory required for data: 3241370400
I1228 17:22:51.551285 40041 layer_factory.hpp:77] Creating layer quantized_res5a_branch2a
I1228 17:22:51.551297 40041 net.cpp:84] Creating Layer quantized_res5a_branch2a
I1228 17:22:51.551306 40041 net.cpp:406] quantized_res5a_branch2a <- res5a_branch2a
I1228 17:22:51.551316 40041 net.cpp:367] quantized_res5a_branch2a -> res5a_branch2a (in-place)
I1228 17:22:51.551328 40041 net.cpp:122] Setting up quantized_res5a_branch2a
I1228 17:22:51.551338 40041 net.cpp:129] Top shape: 50 512 7 7 (1254400)
I1228 17:22:51.551347 40041 net.cpp:137] Memory required for data: 3246388000
I1228 17:22:51.551355 40041 layer_factory.hpp:77] Creating layer res5a_branch2b
I1228 17:22:51.551370 40041 net.cpp:84] Creating Layer res5a_branch2b
I1228 17:22:51.551379 40041 net.cpp:406] res5a_branch2b <- res5a_branch2a
I1228 17:22:51.551391 40041 net.cpp:380] res5a_branch2b -> res5a_branch2b
I1228 17:22:51.625324 40041 net.cpp:122] Setting up res5a_branch2b
I1228 17:22:51.625370 40041 net.cpp:129] Top shape: 50 512 7 7 (1254400)
I1228 17:22:51.625380 40041 net.cpp:137] Memory required for data: 3251405600
I1228 17:22:51.625393 40041 layer_factory.hpp:77] Creating layer bn5a_branch2b
I1228 17:22:51.625411 40041 net.cpp:84] Creating Layer bn5a_branch2b
I1228 17:22:51.625422 40041 net.cpp:406] bn5a_branch2b <- res5a_branch2b
I1228 17:22:51.625434 40041 net.cpp:367] bn5a_branch2b -> res5a_branch2b (in-place)
I1228 17:22:51.625633 40041 net.cpp:122] Setting up bn5a_branch2b
I1228 17:22:51.625649 40041 net.cpp:129] Top shape: 50 512 7 7 (1254400)
I1228 17:22:51.625658 40041 net.cpp:137] Memory required for data: 3256423200
I1228 17:22:51.625671 40041 layer_factory.hpp:77] Creating layer scale5a_branch2b
I1228 17:22:51.625685 40041 net.cpp:84] Creating Layer scale5a_branch2b
I1228 17:22:51.625695 40041 net.cpp:406] scale5a_branch2b <- res5a_branch2b
I1228 17:22:51.625706 40041 net.cpp:367] scale5a_branch2b -> res5a_branch2b (in-place)
I1228 17:22:51.625753 40041 layer_factory.hpp:77] Creating layer scale5a_branch2b
I1228 17:22:51.625874 40041 net.cpp:122] Setting up scale5a_branch2b
I1228 17:22:51.625890 40041 net.cpp:129] Top shape: 50 512 7 7 (1254400)
I1228 17:22:51.625898 40041 net.cpp:137] Memory required for data: 3261440800
I1228 17:22:51.625910 40041 layer_factory.hpp:77] Creating layer quantized_res5a_branch2b
I1228 17:22:51.625924 40041 net.cpp:84] Creating Layer quantized_res5a_branch2b
I1228 17:22:51.625933 40041 net.cpp:406] quantized_res5a_branch2b <- res5a_branch2b
I1228 17:22:51.625973 40041 net.cpp:367] quantized_res5a_branch2b -> res5a_branch2b (in-place)
I1228 17:22:51.625988 40041 net.cpp:122] Setting up quantized_res5a_branch2b
I1228 17:22:51.625998 40041 net.cpp:129] Top shape: 50 512 7 7 (1254400)
I1228 17:22:51.626006 40041 net.cpp:137] Memory required for data: 3266458400
I1228 17:22:51.626015 40041 layer_factory.hpp:77] Creating layer res5a
I1228 17:22:51.626027 40041 net.cpp:84] Creating Layer res5a
I1228 17:22:51.626036 40041 net.cpp:406] res5a <- res5a_branch1
I1228 17:22:51.626046 40041 net.cpp:406] res5a <- res5a_branch2b
I1228 17:22:51.626057 40041 net.cpp:380] res5a -> res5a
I1228 17:22:51.626091 40041 net.cpp:122] Setting up res5a
I1228 17:22:51.626106 40041 net.cpp:129] Top shape: 50 512 7 7 (1254400)
I1228 17:22:51.626113 40041 net.cpp:137] Memory required for data: 3271476000
I1228 17:22:51.626121 40041 layer_factory.hpp:77] Creating layer res5a_relu
I1228 17:22:51.626133 40041 net.cpp:84] Creating Layer res5a_relu
I1228 17:22:51.626142 40041 net.cpp:406] res5a_relu <- res5a
I1228 17:22:51.626152 40041 net.cpp:367] res5a_relu -> res5a (in-place)
I1228 17:22:51.626164 40041 net.cpp:122] Setting up res5a_relu
I1228 17:22:51.626174 40041 net.cpp:129] Top shape: 50 512 7 7 (1254400)
I1228 17:22:51.626183 40041 net.cpp:137] Memory required for data: 3276493600
I1228 17:22:51.626191 40041 layer_factory.hpp:77] Creating layer quantized_res5a
I1228 17:22:51.626202 40041 net.cpp:84] Creating Layer quantized_res5a
I1228 17:22:51.626211 40041 net.cpp:406] quantized_res5a <- res5a
I1228 17:22:51.626221 40041 net.cpp:367] quantized_res5a -> res5a (in-place)
I1228 17:22:51.626233 40041 net.cpp:122] Setting up quantized_res5a
I1228 17:22:51.626243 40041 net.cpp:129] Top shape: 50 512 7 7 (1254400)
I1228 17:22:51.626251 40041 net.cpp:137] Memory required for data: 3281511200
I1228 17:22:51.626260 40041 layer_factory.hpp:77] Creating layer res5a_quantized_res5a_0_split
I1228 17:22:51.626271 40041 net.cpp:84] Creating Layer res5a_quantized_res5a_0_split
I1228 17:22:51.626279 40041 net.cpp:406] res5a_quantized_res5a_0_split <- res5a
I1228 17:22:51.626289 40041 net.cpp:380] res5a_quantized_res5a_0_split -> res5a_quantized_res5a_0_split_0
I1228 17:22:51.626302 40041 net.cpp:380] res5a_quantized_res5a_0_split -> res5a_quantized_res5a_0_split_1
I1228 17:22:51.626343 40041 net.cpp:122] Setting up res5a_quantized_res5a_0_split
I1228 17:22:51.626358 40041 net.cpp:129] Top shape: 50 512 7 7 (1254400)
I1228 17:22:51.626368 40041 net.cpp:129] Top shape: 50 512 7 7 (1254400)
I1228 17:22:51.626375 40041 net.cpp:137] Memory required for data: 3291546400
I1228 17:22:51.626384 40041 layer_factory.hpp:77] Creating layer res5b_branch2a
I1228 17:22:51.626399 40041 net.cpp:84] Creating Layer res5b_branch2a
I1228 17:22:51.626410 40041 net.cpp:406] res5b_branch2a <- res5a_quantized_res5a_0_split_0
I1228 17:22:51.626421 40041 net.cpp:380] res5b_branch2a -> res5b_branch2a
I1228 17:22:51.700388 40041 net.cpp:122] Setting up res5b_branch2a
I1228 17:22:51.700436 40041 net.cpp:129] Top shape: 50 512 7 7 (1254400)
I1228 17:22:51.700446 40041 net.cpp:137] Memory required for data: 3296564000
I1228 17:22:51.700459 40041 layer_factory.hpp:77] Creating layer bn5b_branch2a
I1228 17:22:51.700476 40041 net.cpp:84] Creating Layer bn5b_branch2a
I1228 17:22:51.700489 40041 net.cpp:406] bn5b_branch2a <- res5b_branch2a
I1228 17:22:51.700502 40041 net.cpp:367] bn5b_branch2a -> res5b_branch2a (in-place)
I1228 17:22:51.700698 40041 net.cpp:122] Setting up bn5b_branch2a
I1228 17:22:51.700714 40041 net.cpp:129] Top shape: 50 512 7 7 (1254400)
I1228 17:22:51.700723 40041 net.cpp:137] Memory required for data: 3301581600
I1228 17:22:51.700736 40041 layer_factory.hpp:77] Creating layer scale5b_branch2a
I1228 17:22:51.700752 40041 net.cpp:84] Creating Layer scale5b_branch2a
I1228 17:22:51.700760 40041 net.cpp:406] scale5b_branch2a <- res5b_branch2a
I1228 17:22:51.700772 40041 net.cpp:367] scale5b_branch2a -> res5b_branch2a (in-place)
I1228 17:22:51.700820 40041 layer_factory.hpp:77] Creating layer scale5b_branch2a
I1228 17:22:51.700974 40041 net.cpp:122] Setting up scale5b_branch2a
I1228 17:22:51.700991 40041 net.cpp:129] Top shape: 50 512 7 7 (1254400)
I1228 17:22:51.701000 40041 net.cpp:137] Memory required for data: 3306599200
I1228 17:22:51.701011 40041 layer_factory.hpp:77] Creating layer res5b_branch2a_relu
I1228 17:22:51.701023 40041 net.cpp:84] Creating Layer res5b_branch2a_relu
I1228 17:22:51.701033 40041 net.cpp:406] res5b_branch2a_relu <- res5b_branch2a
I1228 17:22:51.701043 40041 net.cpp:367] res5b_branch2a_relu -> res5b_branch2a (in-place)
I1228 17:22:51.701056 40041 net.cpp:122] Setting up res5b_branch2a_relu
I1228 17:22:51.701066 40041 net.cpp:129] Top shape: 50 512 7 7 (1254400)
I1228 17:22:51.701074 40041 net.cpp:137] Memory required for data: 3311616800
I1228 17:22:51.701082 40041 layer_factory.hpp:77] Creating layer quantized_res5b_branch2a
I1228 17:22:51.701095 40041 net.cpp:84] Creating Layer quantized_res5b_branch2a
I1228 17:22:51.701104 40041 net.cpp:406] quantized_res5b_branch2a <- res5b_branch2a
I1228 17:22:51.701115 40041 net.cpp:367] quantized_res5b_branch2a -> res5b_branch2a (in-place)
I1228 17:22:51.701128 40041 net.cpp:122] Setting up quantized_res5b_branch2a
I1228 17:22:51.701138 40041 net.cpp:129] Top shape: 50 512 7 7 (1254400)
I1228 17:22:51.701145 40041 net.cpp:137] Memory required for data: 3316634400
I1228 17:22:51.701154 40041 layer_factory.hpp:77] Creating layer res5b_branch2b
I1228 17:22:51.701169 40041 net.cpp:84] Creating Layer res5b_branch2b
I1228 17:22:51.701179 40041 net.cpp:406] res5b_branch2b <- res5b_branch2a
I1228 17:22:51.701189 40041 net.cpp:380] res5b_branch2b -> res5b_branch2b
I1228 17:22:51.775033 40041 net.cpp:122] Setting up res5b_branch2b
I1228 17:22:51.775075 40041 net.cpp:129] Top shape: 50 512 7 7 (1254400)
I1228 17:22:51.775085 40041 net.cpp:137] Memory required for data: 3321652000
I1228 17:22:51.775099 40041 layer_factory.hpp:77] Creating layer bn5b_branch2b
I1228 17:22:51.775115 40041 net.cpp:84] Creating Layer bn5b_branch2b
I1228 17:22:51.775126 40041 net.cpp:406] bn5b_branch2b <- res5b_branch2b
I1228 17:22:51.775141 40041 net.cpp:367] bn5b_branch2b -> res5b_branch2b (in-place)
I1228 17:22:51.775336 40041 net.cpp:122] Setting up bn5b_branch2b
I1228 17:22:51.775353 40041 net.cpp:129] Top shape: 50 512 7 7 (1254400)
I1228 17:22:51.775362 40041 net.cpp:137] Memory required for data: 3326669600
I1228 17:22:51.775375 40041 layer_factory.hpp:77] Creating layer scale5b_branch2b
I1228 17:22:51.775389 40041 net.cpp:84] Creating Layer scale5b_branch2b
I1228 17:22:51.775398 40041 net.cpp:406] scale5b_branch2b <- res5b_branch2b
I1228 17:22:51.775409 40041 net.cpp:367] scale5b_branch2b -> res5b_branch2b (in-place)
I1228 17:22:51.775457 40041 layer_factory.hpp:77] Creating layer scale5b_branch2b
I1228 17:22:51.775578 40041 net.cpp:122] Setting up scale5b_branch2b
I1228 17:22:51.775593 40041 net.cpp:129] Top shape: 50 512 7 7 (1254400)
I1228 17:22:51.775601 40041 net.cpp:137] Memory required for data: 3331687200
I1228 17:22:51.775614 40041 layer_factory.hpp:77] Creating layer quantized_res5b_branch2b
I1228 17:22:51.775626 40041 net.cpp:84] Creating Layer quantized_res5b_branch2b
I1228 17:22:51.775635 40041 net.cpp:406] quantized_res5b_branch2b <- res5b_branch2b
I1228 17:22:51.775646 40041 net.cpp:367] quantized_res5b_branch2b -> res5b_branch2b (in-place)
I1228 17:22:51.775658 40041 net.cpp:122] Setting up quantized_res5b_branch2b
I1228 17:22:51.775669 40041 net.cpp:129] Top shape: 50 512 7 7 (1254400)
I1228 17:22:51.775677 40041 net.cpp:137] Memory required for data: 3336704800
I1228 17:22:51.775686 40041 layer_factory.hpp:77] Creating layer res5b
I1228 17:22:51.775698 40041 net.cpp:84] Creating Layer res5b
I1228 17:22:51.775707 40041 net.cpp:406] res5b <- res5a_quantized_res5a_0_split_1
I1228 17:22:51.775717 40041 net.cpp:406] res5b <- res5b_branch2b
I1228 17:22:51.775728 40041 net.cpp:380] res5b -> res5b
I1228 17:22:51.775763 40041 net.cpp:122] Setting up res5b
I1228 17:22:51.775776 40041 net.cpp:129] Top shape: 50 512 7 7 (1254400)
I1228 17:22:51.775784 40041 net.cpp:137] Memory required for data: 3341722400
I1228 17:22:51.775827 40041 layer_factory.hpp:77] Creating layer res5b_relu
I1228 17:22:51.775840 40041 net.cpp:84] Creating Layer res5b_relu
I1228 17:22:51.775849 40041 net.cpp:406] res5b_relu <- res5b
I1228 17:22:51.775861 40041 net.cpp:367] res5b_relu -> res5b (in-place)
I1228 17:22:51.775871 40041 net.cpp:122] Setting up res5b_relu
I1228 17:22:51.775882 40041 net.cpp:129] Top shape: 50 512 7 7 (1254400)
I1228 17:22:51.775892 40041 net.cpp:137] Memory required for data: 3346740000
I1228 17:22:51.775900 40041 layer_factory.hpp:77] Creating layer quantized_res5b
I1228 17:22:51.775912 40041 net.cpp:84] Creating Layer quantized_res5b
I1228 17:22:51.775921 40041 net.cpp:406] quantized_res5b <- res5b
I1228 17:22:51.775933 40041 net.cpp:367] quantized_res5b -> res5b (in-place)
I1228 17:22:51.775944 40041 net.cpp:122] Setting up quantized_res5b
I1228 17:22:51.775954 40041 net.cpp:129] Top shape: 50 512 7 7 (1254400)
I1228 17:22:51.775962 40041 net.cpp:137] Memory required for data: 3351757600
I1228 17:22:51.775970 40041 layer_factory.hpp:77] Creating layer pool5
I1228 17:22:51.776002 40041 net.cpp:84] Creating Layer pool5
I1228 17:22:51.776012 40041 net.cpp:406] pool5 <- res5b
I1228 17:22:51.776023 40041 net.cpp:380] pool5 -> pool5
I1228 17:22:51.776059 40041 net.cpp:122] Setting up pool5
I1228 17:22:51.776073 40041 net.cpp:129] Top shape: 50 512 1 1 (25600)
I1228 17:22:51.776082 40041 net.cpp:137] Memory required for data: 3351860000
I1228 17:22:51.776091 40041 layer_factory.hpp:77] Creating layer fc1000
I1228 17:22:51.776110 40041 net.cpp:84] Creating Layer fc1000
I1228 17:22:51.776120 40041 net.cpp:406] fc1000 <- pool5
I1228 17:22:51.776134 40041 net.cpp:380] fc1000 -> fc1000
I1228 17:22:51.792528 40041 net.cpp:122] Setting up fc1000
I1228 17:22:51.792549 40041 net.cpp:129] Top shape: 50 1000 (50000)
I1228 17:22:51.792558 40041 net.cpp:137] Memory required for data: 3352060000
I1228 17:22:51.792570 40041 layer_factory.hpp:77] Creating layer fc1000_fc1000_0_split
I1228 17:22:51.792583 40041 net.cpp:84] Creating Layer fc1000_fc1000_0_split
I1228 17:22:51.792593 40041 net.cpp:406] fc1000_fc1000_0_split <- fc1000
I1228 17:22:51.792603 40041 net.cpp:380] fc1000_fc1000_0_split -> fc1000_fc1000_0_split_0
I1228 17:22:51.792616 40041 net.cpp:380] fc1000_fc1000_0_split -> fc1000_fc1000_0_split_1
I1228 17:22:51.792629 40041 net.cpp:380] fc1000_fc1000_0_split -> fc1000_fc1000_0_split_2
I1228 17:22:51.792687 40041 net.cpp:122] Setting up fc1000_fc1000_0_split
I1228 17:22:51.792702 40041 net.cpp:129] Top shape: 50 1000 (50000)
I1228 17:22:51.792712 40041 net.cpp:129] Top shape: 50 1000 (50000)
I1228 17:22:51.792721 40041 net.cpp:129] Top shape: 50 1000 (50000)
I1228 17:22:51.792729 40041 net.cpp:137] Memory required for data: 3352660000
I1228 17:22:51.792737 40041 layer_factory.hpp:77] Creating layer loss
I1228 17:22:51.792752 40041 net.cpp:84] Creating Layer loss
I1228 17:22:51.792760 40041 net.cpp:406] loss <- fc1000_fc1000_0_split_0
I1228 17:22:51.792770 40041 net.cpp:406] loss <- label_data_1_split_0
I1228 17:22:51.792784 40041 net.cpp:380] loss -> loss
…
