…
I1227 21:13:50.027698 12641 net.cpp:294] The NetState phase (1) differed from the phase (0) specified by a rule in layer data
I1227 21:13:50.028338 12641 net.cpp:51] Initializing net from parameters: 
name: "ResNet-18"
state {
  phase: TEST
  level: 0
  stage: ""
}
layer {
  name: "data"
  type: "Data"
  top: "data"
  top: "label"
  include {
    phase: TEST
  }
  transform_param {
    mirror: false
    crop_size: 224
    mean_file: "/mllib/imagenet/ilsvrc12/imagenet_mean.binaryproto"
  }
  data_param {
    source: "/mllib/imagenet/ilsvrc12/lmdb_resize/ilsvrc12_val_lmdb"
    batch_size: 50
    backend: LMDB
  }
}
layer {
  name: "quantized_data"
  type: "Quantization"
  bottom: "data"
  top: "data"
  quantization_param {
    round_method: FLOOR
    round_strategy: AGGRESSIVE
    bit_width: 8
    range: -130.11699
    range: 160.85782
  }
}
layer {
  name: "conv1"
  type: "Convolution"
  bottom: "data"
  top: "conv1"
  convolution_param {
    num_output: 64
    bias_term: false
    pad: 3
    kernel_size: 7
    stride: 2
    weight_filler {
      type: "msra"
    }
  }
}
layer {
  name: "bn_conv1"
  type: "BatchNorm"
  bottom: "conv1"
  top: "conv1"
}
layer {
  name: "scale_conv1"
  type: "Scale"
  bottom: "conv1"
  top: "conv1"
  scale_param {
    bias_term: true
  }
}
layer {
  name: "conv1_relu"
  type: "ReLU"
  bottom: "conv1"
  top: "conv1"
}
layer {
  name: "quantized_conv1"
  type: "Quantization"
  bottom: "conv1"
  top: "quantized_conv1"
  quantization_param {
    round_method: FLOOR
    round_strategy: AGGRESSIVE
    bit_width: 8
    range: 0
    range: 20.756613
  }
}
layer {
  name: "pool1"
  type: "Pooling"
  bottom: "quantized_conv1"
  top: "pool1"
  pooling_param {
    pool: MAX
    kernel_size: 3
    stride: 2
  }
}
layer {
  name: "res2a_branch1"
  type: "Convolution"
  bottom: "pool1"
  top: "res2a_branch1"
  convolution_param {
    num_output: 64
    bias_term: false
    pad: 0
    kernel_size: 1
    stride: 1
    weight_filler {
      type: "msra"
    }
  }
}
layer {
  name: "bn2a_branch1"
  type: "BatchNorm"
  bottom: "res2a_branch1"
  top: "res2a_branch1"
}
layer {
  name: "scale2a_branch1"
  type: "Scale"
  bottom: "res2a_branch1"
  top: "res2a_branch1"
  scale_param {
    bias_term: true
  }
}
layer {
  name: "quantized_res2a_branch1"
  type: "Quantization"
  bottom: "res2a_branch1"
  top: "res2a_branch1"
  quantization_param {
    round_method: FLOOR
    round_strategy: AGGRESSIVE
    bit_width: 8
    range: -17.40053
    range: 10.660799
  }
}
layer {
  name: "res2a_branch2a"
  type: "Convolution"
  bottom: "pool1"
  top: "res2a_branch2a"
  convolution_param {
    num_output: 64
    bias_term: false
    pad: 1
    kernel_size: 3
    stride: 1
    weight_filler {
      type: "msra"
    }
  }
}
layer {
  name: "bn2a_branch2a"
  type: "BatchNorm"
  bottom: "res2a_branch2a"
  top: "res2a_branch2a"
}
layer {
  name: "scale2a_branch2a"
  type: "Scale"
  bottom: "res2a_branch2a"
  top: "res2a_branch2a"
  scale_param {
    bias_term: true
  }
}
layer {
  name: "res2a_branch2a_relu"
  type: "ReLU"
  bottom: "res2a_branch2a"
  top: "res2a_branch2a"
}
layer {
  name: "quantized_res2a_branch2a"
  type: "Quantization"
  bottom: "res2a_branch2a"
  top: "res2a_branch2a"
  quantization_param {
    round_method: FLOOR
    round_strategy: AGGRESSIVE
    bit_width: 8
    range: 0
    range: 8.8238039
  }
}
layer {
  name: "res2a_branch2b"
  type: "Convolution"
  bottom: "res2a_branch2a"
  top: "res2a_branch2b"
  convolution_param {
    num_output: 64
    bias_term: false
    pad: 1
    kernel_size: 3
    stride: 1
    weight_filler {
      type: "msra"
    }
  }
}
layer {
  name: "bn2a_branch2b"
  type: "BatchNorm"
  bottom: "res2a_branch2b"
  top: "res2a_branch2b"
}
layer {
  name: "scale2a_branch2b"
  type: "Scale"
  bottom: "res2a_branch2b"
  top: "res2a_branch2b"
  scale_param {
    bias_term: true
  }
}
layer {
  name: "quantized_res2a_branch2b"
  type: "Quantization"
  bottom: "res2a_branch2b"
  top: "res2a_branch2b"
  quantization_param {
    round_method: FLOOR
    round_strategy: AGGRESSIVE
    bit_width: 8
    range: -11.454288
    range: 7.041914
  }
}
layer {
  name: "res2a"
  type: "Eltwise"
  bottom: "res2a_branch1"
  bottom: "res2a_branch2b"
  top: "res2a"
  eltwise_param {
    operation: SUM
  }
}
layer {
  name: "res2a_relu"
  type: "ReLU"
  bottom: "res2a"
  top: "res2a"
}
layer {
  name: "quantized_res2a"
  type: "Quantization"
  bottom: "res2a"
  top: "res2a"
  quantization_param {
    round_method: FLOOR
    round_strategy: AGGRESSIVE
    bit_width: 8
    range: 0
    range: 13.009123
  }
}
layer {
  name: "res2b_branch2a"
  type: "Convolution"
  bottom: "res2a"
  top: "res2b_branch2a"
  convolution_param {
    num_output: 64
    bias_term: false
    pad: 1
    kernel_size: 3
    stride: 1
    weight_filler {
      type: "msra"
    }
  }
}
layer {
  name: "bn2b_branch2a"
  type: "BatchNorm"
  bottom: "res2b_branch2a"
  top: "res2b_branch2a"
}
layer {
  name: "scale2b_branch2a"
  type: "Scale"
  bottom: "res2b_branch2a"
  top: "res2b_branch2a"
  scale_param {
    bias_term: true
  }
}
layer {
  name: "res2b_branch2a_relu"
  type: "ReLU"
  bottom: "res2b_branch2a"
  top: "res2b_branch2a"
}
layer {
  name: "quantized_res2b_branch2a"
  type: "Quantization"
  bottom: "res2b_branch2a"
  top: "res2b_branch2a"
  quantization_param {
    round_method: FLOOR
    round_strategy: AGGRESSIVE
    bit_width: 8
    range: 0
    range: 8.8807116
  }
}
layer {
  name: "res2b_branch2b"
  type: "Convolution"
  bottom: "res2b_branch2a"
  top: "res2b_branch2b"
  convolution_param {
    num_output: 64
    bias_term: false
    pad: 1
    kernel_size: 3
    stride: 1
    weight_filler {
      type: "msra"
    }
  }
}
layer {
  name: "bn2b_branch2b"
  type: "BatchNorm"
  bottom: "res2b_branch2b"
  top: "res2b_branch2b"
}
layer {
  name: "scale2b_branch2b"
  type: "Scale"
  bottom: "res2b_branch2b"
  top: "res2b_branch2b"
  scale_param {
    bias_term: true
  }
}
layer {
  name: "quantized_res2b_branch2b"
  type: "Quantization"
  bottom: "res2b_branch2b"
  top: "res2b_branch2b"
  quantization_param {
    round_method: FLOOR
    round_strategy: AGGRESSIVE
    bit_width: 8
    range: -9.7979622
    range: 9.198802
  }
}
layer {
  name: "res2b"
  type: "Eltwise"
  bottom: "res2a"
  bottom: "res2b_branch2b"
  top: "res2b"
  eltwise_param {
    operation: SUM
  }
}
layer {
  name: "res2b_relu"
  type: "ReLU"
  bottom: "res2b"
  top: "res2b"
}
layer {
  name: "quantized_res2b"
  type: "Quantization"
  bottom: "res2b"
  top: "res2b"
  quantization_param {
    round_method: FLOOR
    round_strategy: AGGRESSIVE
    bit_width: 8
    range: 0
    range: 16.73156
  }
}
layer {
  name: "res3a_branch1"
  type: "Convolution"
  bottom: "res2b"
  top: "res3a_branch1"
  convolution_param {
    num_output: 128
    bias_term: false
    pad: 0
    kernel_size: 1
    stride: 2
    weight_filler {
      type: "msra"
    }
  }
}
layer {
  name: "bn3a_branch1"
  type: "BatchNorm"
  bottom: "res3a_branch1"
  top: "res3a_branch1"
}
layer {
  name: "scale3a_branch1"
  type: "Scale"
  bottom: "res3a_branch1"
  top: "res3a_branch1"
  scale_param {
    bias_term: true
  }
}
layer {
  name: "quantized_res3a_branch1"
  type: "Quantization"
  bottom: "res3a_branch1"
  top: "res3a_branch1"
  quantization_param {
    round_method: FLOOR
    round_strategy: AGGRESSIVE
    bit_width: 8
    range: -7.5694089
    range: 13.997952
  }
}
layer {
  name: "res3a_branch2a"
  type: "Convolution"
  bottom: "res2b"
  top: "res3a_branch2a"
  convolution_param {
    num_output: 128
    bias_term: false
    pad: 1
    kernel_size: 3
    stride: 2
    weight_filler {
      type: "msra"
    }
  }
}
layer {
  name: "bn3a_branch2a"
  type: "BatchNorm"
  bottom: "res3a_branch2a"
  top: "res3a_branch2a"
}
layer {
  name: "scale3a_branch2a"
  type: "Scale"
  bottom: "res3a_branch2a"
  top: "res3a_branch2a"
  scale_param {
    bias_term: true
  }
}
layer {
  name: "res3a_branch2a_relu"
  type: "ReLU"
  bottom: "res3a_branch2a"
  top: "res3a_branch2a"
}
layer {
  name: "quantized_res3a_branch2a"
  type: "Quantization"
  bottom: "res3a_branch2a"
  top: "res3a_branch2a"
  quantization_param {
    round_method: FLOOR
    round_strategy: AGGRESSIVE
    bit_width: 8
    range: 0
    range: 7.2437668
  }
}
layer {
  name: "res3a_branch2b"
  type: "Convolution"
  bottom: "res3a_branch2a"
  top: "res3a_branch2b"
  convolution_param {
    num_output: 128
    bias_term: false
    pad: 1
    kernel_size: 3
    stride: 1
    weight_filler {
      type: "msra"
    }
  }
}
layer {
  name: "bn3a_branch2b"
  type: "BatchNorm"
  bottom: "res3a_branch2b"
  top: "res3a_branch2b"
}
layer {
  name: "scale3a_branch2b"
  type: "Scale"
  bottom: "res3a_branch2b"
  top: "res3a_branch2b"
  scale_param {
    bias_term: true
  }
}
layer {
  name: "quantized_res3a_branch2b"
  type: "Quantization"
  bottom: "res3a_branch2b"
  top: "res3a_branch2b"
  quantization_param {
    round_method: FLOOR
    round_strategy: AGGRESSIVE
    bit_width: 8
    range: -8.2086267
    range: 13.289404
  }
}
layer {
  name: "res3a"
  type: "Eltwise"
  bottom: "res3a_branch1"
  bottom: "res3a_branch2b"
  top: "res3a"
  eltwise_param {
    operation: SUM
  }
}
layer {
  name: "res3a_relu"
  type: "ReLU"
  bottom: "res3a"
  top: "res3a"
}
layer {
  name: "quantized_res3a"
  type: "Quantization"
  bottom: "res3a"
  top: "res3a"
  quantization_param {
    round_method: FLOOR
    round_strategy: AGGRESSIVE
    bit_width: 8
    range: 0
    range: 16.047813
  }
}
layer {
  name: "res3b_branch2a"
  type: "Convolution"
  bottom: "res3a"
  top: "res3b_branch2a"
  convolution_param {
    num_output: 128
    bias_term: false
    pad: 1
    kernel_size: 3
    stride: 1
    weight_filler {
      type: "msra"
    }
  }
}
layer {
  name: "bn3b_branch2a"
  type: "BatchNorm"
  bottom: "res3b_branch2a"
  top: "res3b_branch2a"
}
layer {
  name: "scale3b_branch2a"
  type: "Scale"
  bottom: "res3b_branch2a"
  top: "res3b_branch2a"
  scale_param {
    bias_term: true
  }
}
layer {
  name: "res3b_branch2a_relu"
  type: "ReLU"
  bottom: "res3b_branch2a"
  top: "res3b_branch2a"
}
layer {
  name: "quantized_res3b_branch2a"
  type: "Quantization"
  bottom: "res3b_branch2a"
  top: "res3b_branch2a"
  quantization_param {
    round_method: FLOOR
    round_strategy: AGGRESSIVE
    bit_width: 8
    range: 0
    range: 11.069953
  }
}
layer {
  name: "res3b_branch2b"
  type: "Convolution"
  bottom: "res3b_branch2a"
  top: "res3b_branch2b"
  convolution_param {
    num_output: 128
    bias_term: false
    pad: 1
    kernel_size: 3
    stride: 1
    weight_filler {
      type: "msra"
    }
  }
}
layer {
  name: "bn3b_branch2b"
  type: "BatchNorm"
  bottom: "res3b_branch2b"
  top: "res3b_branch2b"
}
layer {
  name: "scale3b_branch2b"
  type: "Scale"
  bottom: "res3b_branch2b"
  top: "res3b_branch2b"
  scale_param {
    bias_term: true
  }
}
layer {
  name: "quantized_res3b_branch2b"
  type: "Quantization"
  bottom: "res3b_branch2b"
  top: "res3b_branch2b"
  quantization_param {
    round_method: FLOOR
    round_strategy: AGGRESSIVE
    bit_width: 8
    range: -10.578491
    range: 9.741951
  }
}
layer {
  name: "res3b"
  type: "Eltwise"
  bottom: "res3a"
  bottom: "res3b_branch2b"
  top: "res3b"
  eltwise_param {
    operation: SUM
  }
}
layer {
  name: "res3b_relu"
  type: "ReLU"
  bottom: "res3b"
  top: "res3b"
}
layer {
  name: "quantized_res3b"
  type: "Quantization"
  bottom: "res3b"
  top: "res3b"
  quantization_param {
    round_method: FLOOR
    round_strategy: AGGRESSIVE
    bit_width: 8
    range: 0
    range: 21.433855
  }
}
layer {
  name: "res4a_branch1"
  type: "Convolution"
  bottom: "res3b"
  top: "res4a_branch1"
  convolution_param {
    num_output: 256
    bias_term: false
    pad: 0
    kernel_size: 1
    stride: 2
    weight_filler {
      type: "msra"
    }
  }
}
layer {
  name: "bn4a_branch1"
  type: "BatchNorm"
  bottom: "res4a_branch1"
  top: "res4a_branch1"
}
layer {
  name: "scale4a_branch1"
  type: "Scale"
  bottom: "res4a_branch1"
  top: "res4a_branch1"
  scale_param {
    bias_term: true
  }
}
layer {
  name: "quantized_res4a_branch1"
  type: "Quantization"
  bottom: "res4a_branch1"
  top: "res4a_branch1"
  quantization_param {
    round_method: FLOOR
    round_strategy: AGGRESSIVE
    bit_width: 8
    range: -4.2085242
    range: 6.2801151
  }
}
layer {
  name: "res4a_branch2a"
  type: "Convolution"
  bottom: "res3b"
  top: "res4a_branch2a"
  convolution_param {
    num_output: 256
    bias_term: false
    pad: 1
    kernel_size: 3
    stride: 2
    weight_filler {
      type: "msra"
    }
  }
}
layer {
  name: "bn4a_branch2a"
  type: "BatchNorm"
  bottom: "res4a_branch2a"
  top: "res4a_branch2a"
}
layer {
  name: "scale4a_branch2a"
  type: "Scale"
  bottom: "res4a_branch2a"
  top: "res4a_branch2a"
  scale_param {
    bias_term: true
  }
}
layer {
  name: "res4a_branch2a_relu"
  type: "ReLU"
  bottom: "res4a_branch2a"
  top: "res4a_branch2a"
}
layer {
  name: "quantized_res4a_branch2a"
  type: "Quantization"
  bottom: "res4a_branch2a"
  top: "res4a_branch2a"
  quantization_param {
    round_method: FLOOR
    round_strategy: AGGRESSIVE
    bit_width: 8
    range: 0
    range: 9.6955
  }
}
layer {
  name: "res4a_branch2b"
  type: "Convolution"
  bottom: "res4a_branch2a"
  top: "res4a_branch2b"
  convolution_param {
    num_output: 256
    bias_term: false
    pad: 1
    kernel_size: 3
    stride: 1
    weight_filler {
      type: "msra"
    }
  }
}
layer {
  name: "bn4a_branch2b"
  type: "BatchNorm"
  bottom: "res4a_branch2b"
  top: "res4a_branch2b"
}
layer {
  name: "scale4a_branch2b"
  type: "Scale"
  bottom: "res4a_branch2b"
  top: "res4a_branch2b"
  scale_param {
    bias_term: true
  }
}
layer {
  name: "quantized_res4a_branch2b"
  type: "Quantization"
  bottom: "res4a_branch2b"
  top: "res4a_branch2b"
  quantization_param {
    round_method: FLOOR
    round_strategy: AGGRESSIVE
    bit_width: 8
    range: -8.957634
    range: 14.615593
  }
}
layer {
  name: "res4a"
  type: "Eltwise"
  bottom: "res4a_branch1"
  bottom: "res4a_branch2b"
  top: "res4a"
  eltwise_param {
    operation: SUM
  }
}
layer {
  name: "res4a_relu"
  type: "ReLU"
  bottom: "res4a"
  top: "res4a"
}
layer {
  name: "quantized_res4a"
  type: "Quantization"
  bottom: "res4a"
  top: "res4a"
  quantization_param {
    round_method: FLOOR
    round_strategy: AGGRESSIVE
    bit_width: 8
    range: 0
    range: 17.200615
  }
}
layer {
  name: "res4b_branch2a"
  type: "Convolution"
  bottom: "res4a"
  top: "res4b_branch2a"
  convolution_param {
    num_output: 256
    bias_term: false
    pad: 1
    kernel_size: 3
    stride: 1
    weight_filler {
      type: "msra"
    }
  }
}
layer {
  name: "bn4b_branch2a"
  type: "BatchNorm"
  bottom: "res4b_branch2a"
  top: "res4b_branch2a"
}
layer {
  name: "scale4b_branch2a"
  type: "Scale"
  bottom: "res4b_branch2a"
  top: "res4b_branch2a"
  scale_param {
    bias_term: true
  }
}
layer {
  name: "res4b_branch2a_relu"
  type: "ReLU"
  bottom: "res4b_branch2a"
  top: "res4b_branch2a"
}
layer {
  name: "quantized_res4b_branch2a"
  type: "Quantization"
  bottom: "res4b_branch2a"
  top: "res4b_branch2a"
  quantization_param {
    round_method: FLOOR
    round_strategy: AGGRESSIVE
    bit_width: 8
    range: 0
    range: 8.0272427
  }
}
layer {
  name: "res4b_branch2b"
  type: "Convolution"
  bottom: "res4b_branch2a"
  top: "res4b_branch2b"
  convolution_param {
    num_output: 256
    bias_term: false
    pad: 1
    kernel_size: 3
    stride: 1
    weight_filler {
      type: "msra"
    }
  }
}
layer {
  name: "bn4b_branch2b"
  type: "BatchNorm"
  bottom: "res4b_branch2b"
  top: "res4b_branch2b"
}
layer {
  name: "scale4b_branch2b"
  type: "Scale"
  bottom: "res4b_branch2b"
  top: "res4b_branch2b"
  scale_param {
    bias_term: true
  }
}
layer {
  name: "quantized_res4b_branch2b"
  type: "Quantization"
  bottom: "res4b_branch2b"
  top: "res4b_branch2b"
  quantization_param {
    round_method: FLOOR
    round_strategy: AGGRESSIVE
    bit_width: 8
    range: -11.837559
    range: 9.8303728
  }
}
layer {
  name: "res4b"
  type: "Eltwise"
  bottom: "res4a"
  bottom: "res4b_branch2b"
  top: "res4b"
  eltwise_param {
    operation: SUM
  }
}
layer {
  name: "res4b_relu"
  type: "ReLU"
  bottom: "res4b"
  top: "res4b"
}
layer {
  name: "quantized_res4b"
  type: "Quantization"
  bottom: "res4b"
  top: "res4b"
  quantization_param {
    round_method: FLOOR
    round_strategy: AGGRESSIVE
    bit_width: 8
    range: 0
    range: 15.533745
  }
}
layer {
  name: "res5a_branch1"
  type: "Convolution"
  bottom: "res4b"
  top: "res5a_branch1"
  convolution_param {
    num_output: 512
    bias_term: false
    pad: 0
    kernel_size: 1
    stride: 2
    weight_filler {
      type: "msra"
    }
  }
}
layer {
  name: "bn5a_branch1"
  type: "BatchNorm"
  bottom: "res5a_branch1"
  top: "res5a_branch1"
}
layer {
  name: "scale5a_branch1"
  type: "Scale"
  bottom: "res5a_branch1"
  top: "res5a_branch1"
  scale_param {
    bias_term: true
  }
}
layer {
  name: "quantized_res5a_branch1"
  type: "Quantization"
  bottom: "res5a_branch1"
  top: "res5a_branch1"
  quantization_param {
    round_method: FLOOR
    round_strategy: AGGRESSIVE
    bit_width: 8
    range: -5.1432471
    range: 7.2782469
  }
}
layer {
  name: "res5a_branch2a"
  type: "Convolution"
  bottom: "res4b"
  top: "res5a_branch2a"
  convolution_param {
    num_output: 512
    bias_term: false
    pad: 1
    kernel_size: 3
    stride: 2
    weight_filler {
      type: "msra"
    }
  }
}
layer {
  name: "bn5a_branch2a"
  type: "BatchNorm"
  bottom: "res5a_branch2a"
  top: "res5a_branch2a"
}
layer {
  name: "scale5a_branch2a"
  type: "Scale"
  bottom: "res5a_branch2a"
  top: "res5a_branch2a"
  scale_param {
    bias_term: true
  }
}
layer {
  name: "res5a_branch2a_relu"
  type: "ReLU"
  bottom: "res5a_branch2a"
  top: "res5a_branch2a"
}
layer {
  name: "quantized_res5a_branch2a"
  type: "Quantization"
  bottom: "res5a_branch2a"
  top: "res5a_branch2a"
  quantization_param {
    round_method: FLOOR
    round_strategy: AGGRESSIVE
    bit_width: 8
    range: 0
    range: 5.5225992
  }
}
layer {
  name: "res5a_branch2b"
  type: "Convolution"
  bottom: "res5a_branch2a"
  top: "res5a_branch2b"
  convolution_param {
    num_output: 512
    bias_term: false
    pad: 1
    kernel_size: 3
    stride: 1
    weight_filler {
      type: "msra"
    }
  }
}
layer {
  name: "bn5a_branch2b"
  type: "BatchNorm"
  bottom: "res5a_branch2b"
  top: "res5a_branch2b"
}
layer {
  name: "scale5a_branch2b"
  type: "Scale"
  bottom: "res5a_branch2b"
  top: "res5a_branch2b"
  scale_param {
    bias_term: true
  }
}
layer {
  name: "quantized_res5a_branch2b"
  type: "Quantization"
  bottom: "res5a_branch2b"
  top: "res5a_branch2b"
  quantization_param {
    round_method: FLOOR
    round_strategy: AGGRESSIVE
    bit_width: 8
    range: -7.9446859
    range: 12.387192
  }
}
layer {
  name: "res5a"
  type: "Eltwise"
  bottom: "res5a_branch1"
  bottom: "res5a_branch2b"
  top: "res5a"
  eltwise_param {
    operation: SUM
  }
}
layer {
  name: "res5a_relu"
  type: "ReLU"
  bottom: "res5a"
  top: "res5a"
}
layer {
  name: "quantized_res5a"
  type: "Quantization"
  bottom: "res5a"
  top: "res5a"
  quantization_param {
    round_method: FLOOR
    round_strategy: AGGRESSIVE
    bit_width: 8
    range: 0
    range: 14.911362
  }
}
layer {
  name: "res5b_branch2a"
  type: "Convolution"
  bottom: "res5a"
  top: "res5b_branch2a"
  convolution_param {
    num_output: 512
    bias_term: false
    pad: 1
    kernel_size: 3
    stride: 1
    weight_filler {
      type: "msra"
    }
  }
}
layer {
  name: "bn5b_branch2a"
  type: "BatchNorm"
  bottom: "res5b_branch2a"
  top: "res5b_branch2a"
}
layer {
  name: "scale5b_branch2a"
  type: "Scale"
  bottom: "res5b_branch2a"
  top: "res5b_branch2a"
  scale_param {
    bias_term: true
  }
}
layer {
  name: "res5b_branch2a_relu"
  type: "ReLU"
  bottom: "res5b_branch2a"
  top: "res5b_branch2a"
}
layer {
  name: "quantized_res5b_branch2a"
  type: "Quantization"
  bottom: "res5b_branch2a"
  top: "res5b_branch2a"
  quantization_param {
    round_method: FLOOR
    round_strategy: AGGRESSIVE
    bit_width: 8
    range: 0
    range: 9.0142164
  }
}
layer {
  name: "res5b_branch2b"
  type: "Convolution"
  bottom: "res5b_branch2a"
  top: "res5b_branch2b"
  convolution_param {
    num_output: 512
    bias_term: false
    pad: 1
    kernel_size: 3
    stride: 1
    weight_filler {
      type: "msra"
    }
  }
}
layer {
  name: "bn5b_branch2b"
  type: "BatchNorm"
  bottom: "res5b_branch2b"
  top: "res5b_branch2b"
}
layer {
  name: "scale5b_branch2b"
  type: "Scale"
  bottom: "res5b_branch2b"
  top: "res5b_branch2b"
  scale_param {
    bias_term: true
  }
}
layer {
  name: "quantized_res5b_branch2b"
  type: "Quantization"
  bottom: "res5b_branch2b"
  top: "res5b_branch2b"
  quantization_param {
    round_method: FLOOR
    round_strategy: AGGRESSIVE
    bit_width: 8
    range: -21.284969
    range: 33.256569
  }
}
layer {
  name: "res5b"
  type: "Eltwise"
  bottom: "res5a"
  bottom: "res5b_branch2b"
  top: "res5b"
  eltwise_param {
    operation: SUM
  }
}
layer {
  name: "res5b_relu"
  type: "ReLU"
  bottom: "res5b"
  top: "res5b"
}
layer {
  name: "quantized_res5b"
  type: "Quantization"
  bottom: "res5b"
  top: "res5b"
  quantization_param {
    round_method: FLOOR
    round_strategy: AGGRESSIVE
    bit_width: 8
    range: 0
    range: 43.090839
  }
}
layer {
  name: "pool5"
  type: "Pooling"
  bottom: "res5b"
  top: "pool5"
  pooling_param {
    pool: AVE
    kernel_size: 7
    stride: 1
  }
}
layer {
  name: "fc1000"
  type: "InnerProduct"
  bottom: "pool5"
  top: "fc1000"
  param {
    lr_mult: 1
    decay_mult: 1
  }
  param {
    lr_mult: 2
    decay_mult: 1
  }
  inner_product_param {
    num_output: 1000
    weight_filler {
      type: "msra"
    }
    bias_filler {
      type: "constant"
      value: 0
    }
  }
}
layer {
  name: "loss"
  type: "SoftmaxWithLoss"
  bottom: "fc1000"
  bottom: "label"
  top: "loss"
}
layer {
  name: "top1"
  type: "Accuracy"
  bottom: "fc1000"
  bottom: "label"
  top: "top1"
}
layer {
  name: "top5"
  type: "Accuracy"
  bottom: "fc1000"
  bottom: "label"
  top: "top5"
  accuracy_param {
    top_k: 5
  }
}
I1227 21:13:50.028893 12641 layer_factory.hpp:77] Creating layer data
I1227 21:13:50.029009 12641 db_lmdb.cpp:35] Opened lmdb /mllib/imagenet/ilsvrc12/lmdb_resize/ilsvrc12_val_lmdb
I1227 21:13:50.029058 12641 net.cpp:84] Creating Layer data
I1227 21:13:50.029080 12641 net.cpp:380] data -> data
I1227 21:13:50.029116 12641 net.cpp:380] data -> label
I1227 21:13:50.029144 12641 data_transformer.cpp:25] Loading mean file from: /mllib/imagenet/ilsvrc12/imagenet_mean.binaryproto
I1227 21:13:50.059921 12641 blob.cpp:485] 1  3  256  256
I1227 21:13:50.059962 12641 blob.cpp:490] 1  3  256  256   196608
I1227 21:13:50.061496 12641 data_layer.cpp:45] output data size: 50,3,224,224
I1227 21:13:50.166923 12641 net.cpp:122] Setting up data
I1227 21:13:50.167037 12641 net.cpp:129] Top shape: 50 3 224 224 (7526400)
I1227 21:13:50.167054 12641 net.cpp:129] Top shape: 50 (50)
I1227 21:13:50.167064 12641 net.cpp:137] Memory required for data: 30105800
I1227 21:13:50.167083 12641 layer_factory.hpp:77] Creating layer label_data_1_split
I1227 21:13:50.167106 12641 net.cpp:84] Creating Layer label_data_1_split
I1227 21:13:50.167120 12641 net.cpp:406] label_data_1_split <- label
I1227 21:13:50.167145 12641 net.cpp:380] label_data_1_split -> label_data_1_split_0
I1227 21:13:50.167163 12641 net.cpp:380] label_data_1_split -> label_data_1_split_1
I1227 21:13:50.167176 12641 net.cpp:380] label_data_1_split -> label_data_1_split_2
I1227 21:13:50.167248 12641 net.cpp:122] Setting up label_data_1_split
I1227 21:13:50.167263 12641 net.cpp:129] Top shape: 50 (50)
I1227 21:13:50.167273 12641 net.cpp:129] Top shape: 50 (50)
I1227 21:13:50.167281 12641 net.cpp:129] Top shape: 50 (50)
I1227 21:13:50.167289 12641 net.cpp:137] Memory required for data: 30106400
I1227 21:13:50.167299 12641 layer_factory.hpp:77] Creating layer quantized_data
I1227 21:13:50.167315 12641 net.cpp:84] Creating Layer quantized_data
I1227 21:13:50.167325 12641 net.cpp:406] quantized_data <- data
I1227 21:13:50.167336 12641 net.cpp:367] quantized_data -> data (in-place)
I1227 21:13:50.167354 12641 net.cpp:122] Setting up quantized_data
I1227 21:13:50.167364 12641 net.cpp:129] Top shape: 50 3 224 224 (7526400)
I1227 21:13:50.167373 12641 net.cpp:137] Memory required for data: 60212000
I1227 21:13:50.167415 12641 layer_factory.hpp:77] Creating layer conv1
I1227 21:13:50.167443 12641 net.cpp:84] Creating Layer conv1
I1227 21:13:50.167454 12641 net.cpp:406] conv1 <- data
I1227 21:13:50.167466 12641 net.cpp:380] conv1 -> conv1
I1227 21:13:50.173807 12641 net.cpp:122] Setting up conv1
I1227 21:13:50.173842 12641 net.cpp:129] Top shape: 50 64 112 112 (40140800)
I1227 21:13:50.173852 12641 net.cpp:137] Memory required for data: 220775200
I1227 21:13:50.173879 12641 layer_factory.hpp:77] Creating layer bn_conv1
I1227 21:13:50.173902 12641 net.cpp:84] Creating Layer bn_conv1
I1227 21:13:50.173913 12641 net.cpp:406] bn_conv1 <- conv1
I1227 21:13:50.173925 12641 net.cpp:367] bn_conv1 -> conv1 (in-place)
I1227 21:13:50.174124 12641 net.cpp:122] Setting up bn_conv1
I1227 21:13:50.174141 12641 net.cpp:129] Top shape: 50 64 112 112 (40140800)
I1227 21:13:50.174150 12641 net.cpp:137] Memory required for data: 381338400
I1227 21:13:50.174166 12641 layer_factory.hpp:77] Creating layer scale_conv1
I1227 21:13:50.174183 12641 net.cpp:84] Creating Layer scale_conv1
I1227 21:13:50.174192 12641 net.cpp:406] scale_conv1 <- conv1
I1227 21:13:50.174203 12641 net.cpp:367] scale_conv1 -> conv1 (in-place)
I1227 21:13:50.174262 12641 layer_factory.hpp:77] Creating layer scale_conv1
I1227 21:13:50.174396 12641 net.cpp:122] Setting up scale_conv1
I1227 21:13:50.174414 12641 net.cpp:129] Top shape: 50 64 112 112 (40140800)
I1227 21:13:50.174422 12641 net.cpp:137] Memory required for data: 541901600
I1227 21:13:50.174437 12641 layer_factory.hpp:77] Creating layer conv1_relu
I1227 21:13:50.174450 12641 net.cpp:84] Creating Layer conv1_relu
I1227 21:13:50.174458 12641 net.cpp:406] conv1_relu <- conv1
I1227 21:13:50.174469 12641 net.cpp:367] conv1_relu -> conv1 (in-place)
I1227 21:13:50.174481 12641 net.cpp:122] Setting up conv1_relu
I1227 21:13:50.174491 12641 net.cpp:129] Top shape: 50 64 112 112 (40140800)
I1227 21:13:50.174499 12641 net.cpp:137] Memory required for data: 702464800
I1227 21:13:50.174507 12641 layer_factory.hpp:77] Creating layer quantized_conv1
I1227 21:13:50.174520 12641 net.cpp:84] Creating Layer quantized_conv1
I1227 21:13:50.174528 12641 net.cpp:406] quantized_conv1 <- conv1
I1227 21:13:50.174540 12641 net.cpp:380] quantized_conv1 -> quantized_conv1
I1227 21:13:50.174568 12641 net.cpp:122] Setting up quantized_conv1
I1227 21:13:50.174582 12641 net.cpp:129] Top shape: 50 64 112 112 (40140800)
I1227 21:13:50.174592 12641 net.cpp:137] Memory required for data: 863028000
I1227 21:13:50.174599 12641 layer_factory.hpp:77] Creating layer pool1
I1227 21:13:50.174614 12641 net.cpp:84] Creating Layer pool1
I1227 21:13:50.174623 12641 net.cpp:406] pool1 <- quantized_conv1
I1227 21:13:50.174635 12641 net.cpp:380] pool1 -> pool1
I1227 21:13:50.174688 12641 net.cpp:122] Setting up pool1
I1227 21:13:50.174705 12641 net.cpp:129] Top shape: 50 64 56 56 (10035200)
I1227 21:13:50.174712 12641 net.cpp:137] Memory required for data: 903168800
I1227 21:13:50.174721 12641 layer_factory.hpp:77] Creating layer pool1_pool1_0_split
I1227 21:13:50.174733 12641 net.cpp:84] Creating Layer pool1_pool1_0_split
I1227 21:13:50.174741 12641 net.cpp:406] pool1_pool1_0_split <- pool1
I1227 21:13:50.174753 12641 net.cpp:380] pool1_pool1_0_split -> pool1_pool1_0_split_0
I1227 21:13:50.174767 12641 net.cpp:380] pool1_pool1_0_split -> pool1_pool1_0_split_1
I1227 21:13:50.174806 12641 net.cpp:122] Setting up pool1_pool1_0_split
I1227 21:13:50.174820 12641 net.cpp:129] Top shape: 50 64 56 56 (10035200)
I1227 21:13:50.174830 12641 net.cpp:129] Top shape: 50 64 56 56 (10035200)
I1227 21:13:50.174839 12641 net.cpp:137] Memory required for data: 983450400
I1227 21:13:50.174846 12641 layer_factory.hpp:77] Creating layer res2a_branch1
I1227 21:13:50.174862 12641 net.cpp:84] Creating Layer res2a_branch1
I1227 21:13:50.174871 12641 net.cpp:406] res2a_branch1 <- pool1_pool1_0_split_0
I1227 21:13:50.174883 12641 net.cpp:380] res2a_branch1 -> res2a_branch1
I1227 21:13:50.176285 12641 net.cpp:122] Setting up res2a_branch1
I1227 21:13:50.176309 12641 net.cpp:129] Top shape: 50 64 56 56 (10035200)
I1227 21:13:50.176349 12641 net.cpp:137] Memory required for data: 1023591200
I1227 21:13:50.176363 12641 layer_factory.hpp:77] Creating layer bn2a_branch1
I1227 21:13:50.176376 12641 net.cpp:84] Creating Layer bn2a_branch1
I1227 21:13:50.176386 12641 net.cpp:406] bn2a_branch1 <- res2a_branch1
I1227 21:13:50.176398 12641 net.cpp:367] bn2a_branch1 -> res2a_branch1 (in-place)
I1227 21:13:50.176568 12641 net.cpp:122] Setting up bn2a_branch1
I1227 21:13:50.176584 12641 net.cpp:129] Top shape: 50 64 56 56 (10035200)
I1227 21:13:50.176594 12641 net.cpp:137] Memory required for data: 1063732000
I1227 21:13:50.176609 12641 layer_factory.hpp:77] Creating layer scale2a_branch1
I1227 21:13:50.176622 12641 net.cpp:84] Creating Layer scale2a_branch1
I1227 21:13:50.176632 12641 net.cpp:406] scale2a_branch1 <- res2a_branch1
I1227 21:13:50.176642 12641 net.cpp:367] scale2a_branch1 -> res2a_branch1 (in-place)
I1227 21:13:50.176688 12641 layer_factory.hpp:77] Creating layer scale2a_branch1
I1227 21:13:50.176802 12641 net.cpp:122] Setting up scale2a_branch1
I1227 21:13:50.176818 12641 net.cpp:129] Top shape: 50 64 56 56 (10035200)
I1227 21:13:50.176827 12641 net.cpp:137] Memory required for data: 1103872800
I1227 21:13:50.176841 12641 layer_factory.hpp:77] Creating layer quantized_res2a_branch1
I1227 21:13:50.176853 12641 net.cpp:84] Creating Layer quantized_res2a_branch1
I1227 21:13:50.176862 12641 net.cpp:406] quantized_res2a_branch1 <- res2a_branch1
I1227 21:13:50.176873 12641 net.cpp:367] quantized_res2a_branch1 -> res2a_branch1 (in-place)
I1227 21:13:50.176887 12641 net.cpp:122] Setting up quantized_res2a_branch1
I1227 21:13:50.176897 12641 net.cpp:129] Top shape: 50 64 56 56 (10035200)
I1227 21:13:50.176904 12641 net.cpp:137] Memory required for data: 1144013600
I1227 21:13:50.176913 12641 layer_factory.hpp:77] Creating layer res2a_branch2a
I1227 21:13:50.176928 12641 net.cpp:84] Creating Layer res2a_branch2a
I1227 21:13:50.176937 12641 net.cpp:406] res2a_branch2a <- pool1_pool1_0_split_1
I1227 21:13:50.176949 12641 net.cpp:380] res2a_branch2a -> res2a_branch2a
I1227 21:13:50.179249 12641 net.cpp:122] Setting up res2a_branch2a
I1227 21:13:50.179277 12641 net.cpp:129] Top shape: 50 64 56 56 (10035200)
I1227 21:13:50.179286 12641 net.cpp:137] Memory required for data: 1184154400
I1227 21:13:50.179298 12641 layer_factory.hpp:77] Creating layer bn2a_branch2a
I1227 21:13:50.179312 12641 net.cpp:84] Creating Layer bn2a_branch2a
I1227 21:13:50.179322 12641 net.cpp:406] bn2a_branch2a <- res2a_branch2a
I1227 21:13:50.179335 12641 net.cpp:367] bn2a_branch2a -> res2a_branch2a (in-place)
I1227 21:13:50.179517 12641 net.cpp:122] Setting up bn2a_branch2a
I1227 21:13:50.179533 12641 net.cpp:129] Top shape: 50 64 56 56 (10035200)
I1227 21:13:50.179543 12641 net.cpp:137] Memory required for data: 1224295200
I1227 21:13:50.179556 12641 layer_factory.hpp:77] Creating layer scale2a_branch2a
I1227 21:13:50.179574 12641 net.cpp:84] Creating Layer scale2a_branch2a
I1227 21:13:50.179584 12641 net.cpp:406] scale2a_branch2a <- res2a_branch2a
I1227 21:13:50.179594 12641 net.cpp:367] scale2a_branch2a -> res2a_branch2a (in-place)
I1227 21:13:50.179641 12641 layer_factory.hpp:77] Creating layer scale2a_branch2a
I1227 21:13:50.179757 12641 net.cpp:122] Setting up scale2a_branch2a
I1227 21:13:50.179774 12641 net.cpp:129] Top shape: 50 64 56 56 (10035200)
I1227 21:13:50.179782 12641 net.cpp:137] Memory required for data: 1264436000
I1227 21:13:50.179798 12641 layer_factory.hpp:77] Creating layer res2a_branch2a_relu
I1227 21:13:50.179812 12641 net.cpp:84] Creating Layer res2a_branch2a_relu
I1227 21:13:50.179821 12641 net.cpp:406] res2a_branch2a_relu <- res2a_branch2a
I1227 21:13:50.179831 12641 net.cpp:367] res2a_branch2a_relu -> res2a_branch2a (in-place)
I1227 21:13:50.179843 12641 net.cpp:122] Setting up res2a_branch2a_relu
I1227 21:13:50.179853 12641 net.cpp:129] Top shape: 50 64 56 56 (10035200)
I1227 21:13:50.179862 12641 net.cpp:137] Memory required for data: 1304576800
I1227 21:13:50.179869 12641 layer_factory.hpp:77] Creating layer quantized_res2a_branch2a
I1227 21:13:50.179903 12641 net.cpp:84] Creating Layer quantized_res2a_branch2a
I1227 21:13:50.179913 12641 net.cpp:406] quantized_res2a_branch2a <- res2a_branch2a
I1227 21:13:50.179924 12641 net.cpp:367] quantized_res2a_branch2a -> res2a_branch2a (in-place)
I1227 21:13:50.179935 12641 net.cpp:122] Setting up quantized_res2a_branch2a
I1227 21:13:50.179945 12641 net.cpp:129] Top shape: 50 64 56 56 (10035200)
I1227 21:13:50.179953 12641 net.cpp:137] Memory required for data: 1344717600
I1227 21:13:50.179962 12641 layer_factory.hpp:77] Creating layer res2a_branch2b
I1227 21:13:50.179976 12641 net.cpp:84] Creating Layer res2a_branch2b
I1227 21:13:50.179986 12641 net.cpp:406] res2a_branch2b <- res2a_branch2a
I1227 21:13:50.179997 12641 net.cpp:380] res2a_branch2b -> res2a_branch2b
I1227 21:13:50.181205 12641 net.cpp:122] Setting up res2a_branch2b
I1227 21:13:50.181224 12641 net.cpp:129] Top shape: 50 64 56 56 (10035200)
I1227 21:13:50.181232 12641 net.cpp:137] Memory required for data: 1384858400
I1227 21:13:50.181243 12641 layer_factory.hpp:77] Creating layer bn2a_branch2b
I1227 21:13:50.181255 12641 net.cpp:84] Creating Layer bn2a_branch2b
I1227 21:13:50.181264 12641 net.cpp:406] bn2a_branch2b <- res2a_branch2b
I1227 21:13:50.181274 12641 net.cpp:367] bn2a_branch2b -> res2a_branch2b (in-place)
I1227 21:13:50.181444 12641 net.cpp:122] Setting up bn2a_branch2b
I1227 21:13:50.181460 12641 net.cpp:129] Top shape: 50 64 56 56 (10035200)
I1227 21:13:50.181469 12641 net.cpp:137] Memory required for data: 1424999200
I1227 21:13:50.181481 12641 layer_factory.hpp:77] Creating layer scale2a_branch2b
I1227 21:13:50.181493 12641 net.cpp:84] Creating Layer scale2a_branch2b
I1227 21:13:50.181502 12641 net.cpp:406] scale2a_branch2b <- res2a_branch2b
I1227 21:13:50.181514 12641 net.cpp:367] scale2a_branch2b -> res2a_branch2b (in-place)
I1227 21:13:50.181557 12641 layer_factory.hpp:77] Creating layer scale2a_branch2b
I1227 21:13:50.181686 12641 net.cpp:122] Setting up scale2a_branch2b
I1227 21:13:50.181702 12641 net.cpp:129] Top shape: 50 64 56 56 (10035200)
I1227 21:13:50.181710 12641 net.cpp:137] Memory required for data: 1465140000
I1227 21:13:50.181722 12641 layer_factory.hpp:77] Creating layer quantized_res2a_branch2b
I1227 21:13:50.181735 12641 net.cpp:84] Creating Layer quantized_res2a_branch2b
I1227 21:13:50.181743 12641 net.cpp:406] quantized_res2a_branch2b <- res2a_branch2b
I1227 21:13:50.181754 12641 net.cpp:367] quantized_res2a_branch2b -> res2a_branch2b (in-place)
I1227 21:13:50.181767 12641 net.cpp:122] Setting up quantized_res2a_branch2b
I1227 21:13:50.181777 12641 net.cpp:129] Top shape: 50 64 56 56 (10035200)
I1227 21:13:50.181785 12641 net.cpp:137] Memory required for data: 1505280800
I1227 21:13:50.181793 12641 layer_factory.hpp:77] Creating layer res2a
I1227 21:13:50.181810 12641 net.cpp:84] Creating Layer res2a
I1227 21:13:50.181820 12641 net.cpp:406] res2a <- res2a_branch1
I1227 21:13:50.181829 12641 net.cpp:406] res2a <- res2a_branch2b
I1227 21:13:50.181840 12641 net.cpp:380] res2a -> res2a
I1227 21:13:50.181880 12641 net.cpp:122] Setting up res2a
I1227 21:13:50.181895 12641 net.cpp:129] Top shape: 50 64 56 56 (10035200)
I1227 21:13:50.181903 12641 net.cpp:137] Memory required for data: 1545421600
I1227 21:13:50.181911 12641 layer_factory.hpp:77] Creating layer res2a_relu
I1227 21:13:50.181923 12641 net.cpp:84] Creating Layer res2a_relu
I1227 21:13:50.181931 12641 net.cpp:406] res2a_relu <- res2a
I1227 21:13:50.181942 12641 net.cpp:367] res2a_relu -> res2a (in-place)
I1227 21:13:50.181953 12641 net.cpp:122] Setting up res2a_relu
I1227 21:13:50.181963 12641 net.cpp:129] Top shape: 50 64 56 56 (10035200)
I1227 21:13:50.181972 12641 net.cpp:137] Memory required for data: 1585562400
I1227 21:13:50.181979 12641 layer_factory.hpp:77] Creating layer quantized_res2a
I1227 21:13:50.181990 12641 net.cpp:84] Creating Layer quantized_res2a
I1227 21:13:50.181998 12641 net.cpp:406] quantized_res2a <- res2a
I1227 21:13:50.182009 12641 net.cpp:367] quantized_res2a -> res2a (in-place)
I1227 21:13:50.182035 12641 net.cpp:122] Setting up quantized_res2a
I1227 21:13:50.182046 12641 net.cpp:129] Top shape: 50 64 56 56 (10035200)
I1227 21:13:50.182054 12641 net.cpp:137] Memory required for data: 1625703200
I1227 21:13:50.182062 12641 layer_factory.hpp:77] Creating layer res2a_quantized_res2a_0_split
I1227 21:13:50.182075 12641 net.cpp:84] Creating Layer res2a_quantized_res2a_0_split
I1227 21:13:50.182082 12641 net.cpp:406] res2a_quantized_res2a_0_split <- res2a
I1227 21:13:50.182093 12641 net.cpp:380] res2a_quantized_res2a_0_split -> res2a_quantized_res2a_0_split_0
I1227 21:13:50.182106 12641 net.cpp:380] res2a_quantized_res2a_0_split -> res2a_quantized_res2a_0_split_1
I1227 21:13:50.182145 12641 net.cpp:122] Setting up res2a_quantized_res2a_0_split
I1227 21:13:50.182160 12641 net.cpp:129] Top shape: 50 64 56 56 (10035200)
I1227 21:13:50.182169 12641 net.cpp:129] Top shape: 50 64 56 56 (10035200)
I1227 21:13:50.182178 12641 net.cpp:137] Memory required for data: 1705984800
I1227 21:13:50.182186 12641 layer_factory.hpp:77] Creating layer res2b_branch2a
I1227 21:13:50.182200 12641 net.cpp:84] Creating Layer res2b_branch2a
I1227 21:13:50.182224 12641 net.cpp:406] res2b_branch2a <- res2a_quantized_res2a_0_split_0
I1227 21:13:50.182236 12641 net.cpp:380] res2b_branch2a -> res2b_branch2a
I1227 21:13:50.183454 12641 net.cpp:122] Setting up res2b_branch2a
I1227 21:13:50.183473 12641 net.cpp:129] Top shape: 50 64 56 56 (10035200)
I1227 21:13:50.183482 12641 net.cpp:137] Memory required for data: 1746125600
I1227 21:13:50.183493 12641 layer_factory.hpp:77] Creating layer bn2b_branch2a
I1227 21:13:50.183506 12641 net.cpp:84] Creating Layer bn2b_branch2a
I1227 21:13:50.183514 12641 net.cpp:406] bn2b_branch2a <- res2b_branch2a
I1227 21:13:50.183524 12641 net.cpp:367] bn2b_branch2a -> res2b_branch2a (in-place)
I1227 21:13:50.183696 12641 net.cpp:122] Setting up bn2b_branch2a
I1227 21:13:50.183712 12641 net.cpp:129] Top shape: 50 64 56 56 (10035200)
I1227 21:13:50.183720 12641 net.cpp:137] Memory required for data: 1786266400
I1227 21:13:50.183733 12641 layer_factory.hpp:77] Creating layer scale2b_branch2a
I1227 21:13:50.183748 12641 net.cpp:84] Creating Layer scale2b_branch2a
I1227 21:13:50.183756 12641 net.cpp:406] scale2b_branch2a <- res2b_branch2a
I1227 21:13:50.183768 12641 net.cpp:367] scale2b_branch2a -> res2b_branch2a (in-place)
I1227 21:13:50.183815 12641 layer_factory.hpp:77] Creating layer scale2b_branch2a
I1227 21:13:50.183931 12641 net.cpp:122] Setting up scale2b_branch2a
I1227 21:13:50.183948 12641 net.cpp:129] Top shape: 50 64 56 56 (10035200)
I1227 21:13:50.183957 12641 net.cpp:137] Memory required for data: 1826407200
I1227 21:13:50.183969 12641 layer_factory.hpp:77] Creating layer res2b_branch2a_relu
I1227 21:13:50.183980 12641 net.cpp:84] Creating Layer res2b_branch2a_relu
I1227 21:13:50.183990 12641 net.cpp:406] res2b_branch2a_relu <- res2b_branch2a
I1227 21:13:50.184000 12641 net.cpp:367] res2b_branch2a_relu -> res2b_branch2a (in-place)
I1227 21:13:50.184011 12641 net.cpp:122] Setting up res2b_branch2a_relu
I1227 21:13:50.184021 12641 net.cpp:129] Top shape: 50 64 56 56 (10035200)
I1227 21:13:50.184029 12641 net.cpp:137] Memory required for data: 1866548000
I1227 21:13:50.184038 12641 layer_factory.hpp:77] Creating layer quantized_res2b_branch2a
I1227 21:13:50.184049 12641 net.cpp:84] Creating Layer quantized_res2b_branch2a
I1227 21:13:50.184058 12641 net.cpp:406] quantized_res2b_branch2a <- res2b_branch2a
I1227 21:13:50.184069 12641 net.cpp:367] quantized_res2b_branch2a -> res2b_branch2a (in-place)
I1227 21:13:50.184080 12641 net.cpp:122] Setting up quantized_res2b_branch2a
I1227 21:13:50.184090 12641 net.cpp:129] Top shape: 50 64 56 56 (10035200)
I1227 21:13:50.184098 12641 net.cpp:137] Memory required for data: 1906688800
I1227 21:13:50.184106 12641 layer_factory.hpp:77] Creating layer res2b_branch2b
I1227 21:13:50.184123 12641 net.cpp:84] Creating Layer res2b_branch2b
I1227 21:13:50.184132 12641 net.cpp:406] res2b_branch2b <- res2b_branch2a
I1227 21:13:50.184144 12641 net.cpp:380] res2b_branch2b -> res2b_branch2b
I1227 21:13:50.185374 12641 net.cpp:122] Setting up res2b_branch2b
I1227 21:13:50.185394 12641 net.cpp:129] Top shape: 50 64 56 56 (10035200)
I1227 21:13:50.185402 12641 net.cpp:137] Memory required for data: 1946829600
I1227 21:13:50.185413 12641 layer_factory.hpp:77] Creating layer bn2b_branch2b
I1227 21:13:50.185425 12641 net.cpp:84] Creating Layer bn2b_branch2b
I1227 21:13:50.185434 12641 net.cpp:406] bn2b_branch2b <- res2b_branch2b
I1227 21:13:50.185446 12641 net.cpp:367] bn2b_branch2b -> res2b_branch2b (in-place)
I1227 21:13:50.185616 12641 net.cpp:122] Setting up bn2b_branch2b
I1227 21:13:50.185632 12641 net.cpp:129] Top shape: 50 64 56 56 (10035200)
I1227 21:13:50.185641 12641 net.cpp:137] Memory required for data: 1986970400
I1227 21:13:50.185659 12641 layer_factory.hpp:77] Creating layer scale2b_branch2b
I1227 21:13:50.185672 12641 net.cpp:84] Creating Layer scale2b_branch2b
I1227 21:13:50.185681 12641 net.cpp:406] scale2b_branch2b <- res2b_branch2b
I1227 21:13:50.185693 12641 net.cpp:367] scale2b_branch2b -> res2b_branch2b (in-place)
I1227 21:13:50.185737 12641 layer_factory.hpp:77] Creating layer scale2b_branch2b
I1227 21:13:50.185853 12641 net.cpp:122] Setting up scale2b_branch2b
I1227 21:13:50.185869 12641 net.cpp:129] Top shape: 50 64 56 56 (10035200)
I1227 21:13:50.185878 12641 net.cpp:137] Memory required for data: 2027111200
I1227 21:13:50.185889 12641 layer_factory.hpp:77] Creating layer quantized_res2b_branch2b
I1227 21:13:50.185902 12641 net.cpp:84] Creating Layer quantized_res2b_branch2b
I1227 21:13:50.185911 12641 net.cpp:406] quantized_res2b_branch2b <- res2b_branch2b
I1227 21:13:50.185922 12641 net.cpp:367] quantized_res2b_branch2b -> res2b_branch2b (in-place)
I1227 21:13:50.185935 12641 net.cpp:122] Setting up quantized_res2b_branch2b
I1227 21:13:50.185945 12641 net.cpp:129] Top shape: 50 64 56 56 (10035200)
I1227 21:13:50.185955 12641 net.cpp:137] Memory required for data: 2067252000
I1227 21:13:50.185963 12641 layer_factory.hpp:77] Creating layer res2b
I1227 21:13:50.185974 12641 net.cpp:84] Creating Layer res2b
I1227 21:13:50.185983 12641 net.cpp:406] res2b <- res2a_quantized_res2a_0_split_1
I1227 21:13:50.185992 12641 net.cpp:406] res2b <- res2b_branch2b
I1227 21:13:50.186004 12641 net.cpp:380] res2b -> res2b
I1227 21:13:50.186033 12641 net.cpp:122] Setting up res2b
I1227 21:13:50.186048 12641 net.cpp:129] Top shape: 50 64 56 56 (10035200)
I1227 21:13:50.186056 12641 net.cpp:137] Memory required for data: 2107392800
I1227 21:13:50.186064 12641 layer_factory.hpp:77] Creating layer res2b_relu
I1227 21:13:50.186076 12641 net.cpp:84] Creating Layer res2b_relu
I1227 21:13:50.186084 12641 net.cpp:406] res2b_relu <- res2b
I1227 21:13:50.186095 12641 net.cpp:367] res2b_relu -> res2b (in-place)
I1227 21:13:50.186106 12641 net.cpp:122] Setting up res2b_relu
I1227 21:13:50.186116 12641 net.cpp:129] Top shape: 50 64 56 56 (10035200)
I1227 21:13:50.186125 12641 net.cpp:137] Memory required for data: 2147533600
I1227 21:13:50.186132 12641 layer_factory.hpp:77] Creating layer quantized_res2b
I1227 21:13:50.186143 12641 net.cpp:84] Creating Layer quantized_res2b
I1227 21:13:50.186151 12641 net.cpp:406] quantized_res2b <- res2b
I1227 21:13:50.186162 12641 net.cpp:367] quantized_res2b -> res2b (in-place)
I1227 21:13:50.186173 12641 net.cpp:122] Setting up quantized_res2b
I1227 21:13:50.186183 12641 net.cpp:129] Top shape: 50 64 56 56 (10035200)
I1227 21:13:50.186192 12641 net.cpp:137] Memory required for data: 2187674400
I1227 21:13:50.186199 12641 layer_factory.hpp:77] Creating layer res2b_quantized_res2b_0_split
I1227 21:13:50.186210 12641 net.cpp:84] Creating Layer res2b_quantized_res2b_0_split
I1227 21:13:50.186218 12641 net.cpp:406] res2b_quantized_res2b_0_split <- res2b
I1227 21:13:50.186229 12641 net.cpp:380] res2b_quantized_res2b_0_split -> res2b_quantized_res2b_0_split_0
I1227 21:13:50.186241 12641 net.cpp:380] res2b_quantized_res2b_0_split -> res2b_quantized_res2b_0_split_1
I1227 21:13:50.186280 12641 net.cpp:122] Setting up res2b_quantized_res2b_0_split
I1227 21:13:50.186295 12641 net.cpp:129] Top shape: 50 64 56 56 (10035200)
I1227 21:13:50.186318 12641 net.cpp:129] Top shape: 50 64 56 56 (10035200)
I1227 21:13:50.186327 12641 net.cpp:137] Memory required for data: 2267956000
I1227 21:13:50.186336 12641 layer_factory.hpp:77] Creating layer res3a_branch1
I1227 21:13:50.186349 12641 net.cpp:84] Creating Layer res3a_branch1
I1227 21:13:50.186359 12641 net.cpp:406] res3a_branch1 <- res2b_quantized_res2b_0_split_0
I1227 21:13:50.186372 12641 net.cpp:380] res3a_branch1 -> res3a_branch1
I1227 21:13:50.186767 12641 net.cpp:122] Setting up res3a_branch1
I1227 21:13:50.186784 12641 net.cpp:129] Top shape: 50 128 28 28 (5017600)
I1227 21:13:50.186794 12641 net.cpp:137] Memory required for data: 2288026400
I1227 21:13:50.186803 12641 layer_factory.hpp:77] Creating layer bn3a_branch1
I1227 21:13:50.186813 12641 net.cpp:84] Creating Layer bn3a_branch1
I1227 21:13:50.186820 12641 net.cpp:406] bn3a_branch1 <- res3a_branch1
I1227 21:13:50.186827 12641 net.cpp:367] bn3a_branch1 -> res3a_branch1 (in-place)
I1227 21:13:50.188237 12641 net.cpp:122] Setting up bn3a_branch1
I1227 21:13:50.188261 12641 net.cpp:129] Top shape: 50 128 28 28 (5017600)
I1227 21:13:50.188269 12641 net.cpp:137] Memory required for data: 2308096800
I1227 21:13:50.188284 12641 layer_factory.hpp:77] Creating layer scale3a_branch1
I1227 21:13:50.188299 12641 net.cpp:84] Creating Layer scale3a_branch1
I1227 21:13:50.188308 12641 net.cpp:406] scale3a_branch1 <- res3a_branch1
I1227 21:13:50.188320 12641 net.cpp:367] scale3a_branch1 -> res3a_branch1 (in-place)
I1227 21:13:50.188369 12641 layer_factory.hpp:77] Creating layer scale3a_branch1
I1227 21:13:50.188475 12641 net.cpp:122] Setting up scale3a_branch1
I1227 21:13:50.188491 12641 net.cpp:129] Top shape: 50 128 28 28 (5017600)
I1227 21:13:50.188499 12641 net.cpp:137] Memory required for data: 2328167200
I1227 21:13:50.188513 12641 layer_factory.hpp:77] Creating layer quantized_res3a_branch1
I1227 21:13:50.188525 12641 net.cpp:84] Creating Layer quantized_res3a_branch1
I1227 21:13:50.188534 12641 net.cpp:406] quantized_res3a_branch1 <- res3a_branch1
I1227 21:13:50.188545 12641 net.cpp:367] quantized_res3a_branch1 -> res3a_branch1 (in-place)
I1227 21:13:50.188557 12641 net.cpp:122] Setting up quantized_res3a_branch1
I1227 21:13:50.188568 12641 net.cpp:129] Top shape: 50 128 28 28 (5017600)
I1227 21:13:50.188575 12641 net.cpp:137] Memory required for data: 2348237600
I1227 21:13:50.188585 12641 layer_factory.hpp:77] Creating layer res3a_branch2a
I1227 21:13:50.188599 12641 net.cpp:84] Creating Layer res3a_branch2a
I1227 21:13:50.188608 12641 net.cpp:406] res3a_branch2a <- res2b_quantized_res2b_0_split_1
I1227 21:13:50.188619 12641 net.cpp:380] res3a_branch2a -> res3a_branch2a
I1227 21:13:50.190897 12641 net.cpp:122] Setting up res3a_branch2a
I1227 21:13:50.190918 12641 net.cpp:129] Top shape: 50 128 28 28 (5017600)
I1227 21:13:50.190927 12641 net.cpp:137] Memory required for data: 2368308000
I1227 21:13:50.190938 12641 layer_factory.hpp:77] Creating layer bn3a_branch2a
I1227 21:13:50.190951 12641 net.cpp:84] Creating Layer bn3a_branch2a
I1227 21:13:50.190968 12641 net.cpp:406] bn3a_branch2a <- res3a_branch2a
I1227 21:13:50.190979 12641 net.cpp:367] bn3a_branch2a -> res3a_branch2a (in-place)
I1227 21:13:50.191161 12641 net.cpp:122] Setting up bn3a_branch2a
I1227 21:13:50.191180 12641 net.cpp:129] Top shape: 50 128 28 28 (5017600)
I1227 21:13:50.191190 12641 net.cpp:137] Memory required for data: 2388378400
I1227 21:13:50.191201 12641 layer_factory.hpp:77] Creating layer scale3a_branch2a
I1227 21:13:50.191215 12641 net.cpp:84] Creating Layer scale3a_branch2a
I1227 21:13:50.191223 12641 net.cpp:406] scale3a_branch2a <- res3a_branch2a
I1227 21:13:50.191234 12641 net.cpp:367] scale3a_branch2a -> res3a_branch2a (in-place)
I1227 21:13:50.191279 12641 layer_factory.hpp:77] Creating layer scale3a_branch2a
I1227 21:13:50.191383 12641 net.cpp:122] Setting up scale3a_branch2a
I1227 21:13:50.191399 12641 net.cpp:129] Top shape: 50 128 28 28 (5017600)
I1227 21:13:50.191407 12641 net.cpp:137] Memory required for data: 2408448800
I1227 21:13:50.191450 12641 layer_factory.hpp:77] Creating layer res3a_branch2a_relu
I1227 21:13:50.191464 12641 net.cpp:84] Creating Layer res3a_branch2a_relu
I1227 21:13:50.191473 12641 net.cpp:406] res3a_branch2a_relu <- res3a_branch2a
I1227 21:13:50.191483 12641 net.cpp:367] res3a_branch2a_relu -> res3a_branch2a (in-place)
I1227 21:13:50.191495 12641 net.cpp:122] Setting up res3a_branch2a_relu
I1227 21:13:50.191506 12641 net.cpp:129] Top shape: 50 128 28 28 (5017600)
I1227 21:13:50.191514 12641 net.cpp:137] Memory required for data: 2428519200
I1227 21:13:50.191522 12641 layer_factory.hpp:77] Creating layer quantized_res3a_branch2a
I1227 21:13:50.191534 12641 net.cpp:84] Creating Layer quantized_res3a_branch2a
I1227 21:13:50.191543 12641 net.cpp:406] quantized_res3a_branch2a <- res3a_branch2a
I1227 21:13:50.191553 12641 net.cpp:367] quantized_res3a_branch2a -> res3a_branch2a (in-place)
I1227 21:13:50.191565 12641 net.cpp:122] Setting up quantized_res3a_branch2a
I1227 21:13:50.191575 12641 net.cpp:129] Top shape: 50 128 28 28 (5017600)
I1227 21:13:50.191582 12641 net.cpp:137] Memory required for data: 2448589600
I1227 21:13:50.191591 12641 layer_factory.hpp:77] Creating layer res3a_branch2b
I1227 21:13:50.191604 12641 net.cpp:84] Creating Layer res3a_branch2b
I1227 21:13:50.191613 12641 net.cpp:406] res3a_branch2b <- res3a_branch2a
I1227 21:13:50.191625 12641 net.cpp:380] res3a_branch2b -> res3a_branch2b
I1227 21:13:50.196038 12641 net.cpp:122] Setting up res3a_branch2b
I1227 21:13:50.196065 12641 net.cpp:129] Top shape: 50 128 28 28 (5017600)
I1227 21:13:50.196074 12641 net.cpp:137] Memory required for data: 2468660000
I1227 21:13:50.196086 12641 layer_factory.hpp:77] Creating layer bn3a_branch2b
I1227 21:13:50.196102 12641 net.cpp:84] Creating Layer bn3a_branch2b
I1227 21:13:50.196113 12641 net.cpp:406] bn3a_branch2b <- res3a_branch2b
I1227 21:13:50.196125 12641 net.cpp:367] bn3a_branch2b -> res3a_branch2b (in-place)
I1227 21:13:50.196301 12641 net.cpp:122] Setting up bn3a_branch2b
I1227 21:13:50.196317 12641 net.cpp:129] Top shape: 50 128 28 28 (5017600)
I1227 21:13:50.196326 12641 net.cpp:137] Memory required for data: 2488730400
I1227 21:13:50.196339 12641 layer_factory.hpp:77] Creating layer scale3a_branch2b
I1227 21:13:50.196352 12641 net.cpp:84] Creating Layer scale3a_branch2b
I1227 21:13:50.196362 12641 net.cpp:406] scale3a_branch2b <- res3a_branch2b
I1227 21:13:50.196372 12641 net.cpp:367] scale3a_branch2b -> res3a_branch2b (in-place)
I1227 21:13:50.196422 12641 layer_factory.hpp:77] Creating layer scale3a_branch2b
I1227 21:13:50.196535 12641 net.cpp:122] Setting up scale3a_branch2b
I1227 21:13:50.196552 12641 net.cpp:129] Top shape: 50 128 28 28 (5017600)
I1227 21:13:50.196560 12641 net.cpp:137] Memory required for data: 2508800800
I1227 21:13:50.196571 12641 layer_factory.hpp:77] Creating layer quantized_res3a_branch2b
I1227 21:13:50.196586 12641 net.cpp:84] Creating Layer quantized_res3a_branch2b
I1227 21:13:50.196595 12641 net.cpp:406] quantized_res3a_branch2b <- res3a_branch2b
I1227 21:13:50.196606 12641 net.cpp:367] quantized_res3a_branch2b -> res3a_branch2b (in-place)
I1227 21:13:50.196619 12641 net.cpp:122] Setting up quantized_res3a_branch2b
I1227 21:13:50.196629 12641 net.cpp:129] Top shape: 50 128 28 28 (5017600)
I1227 21:13:50.196636 12641 net.cpp:137] Memory required for data: 2528871200
I1227 21:13:50.196645 12641 layer_factory.hpp:77] Creating layer res3a
I1227 21:13:50.196657 12641 net.cpp:84] Creating Layer res3a
I1227 21:13:50.196666 12641 net.cpp:406] res3a <- res3a_branch1
I1227 21:13:50.196676 12641 net.cpp:406] res3a <- res3a_branch2b
I1227 21:13:50.196687 12641 net.cpp:380] res3a -> res3a
I1227 21:13:50.196719 12641 net.cpp:122] Setting up res3a
I1227 21:13:50.196736 12641 net.cpp:129] Top shape: 50 128 28 28 (5017600)
I1227 21:13:50.196745 12641 net.cpp:137] Memory required for data: 2548941600
I1227 21:13:50.196753 12641 layer_factory.hpp:77] Creating layer res3a_relu
I1227 21:13:50.196764 12641 net.cpp:84] Creating Layer res3a_relu
I1227 21:13:50.196774 12641 net.cpp:406] res3a_relu <- res3a
I1227 21:13:50.196807 12641 net.cpp:367] res3a_relu -> res3a (in-place)
I1227 21:13:50.196820 12641 net.cpp:122] Setting up res3a_relu
I1227 21:13:50.196830 12641 net.cpp:129] Top shape: 50 128 28 28 (5017600)
I1227 21:13:50.196838 12641 net.cpp:137] Memory required for data: 2569012000
I1227 21:13:50.196846 12641 layer_factory.hpp:77] Creating layer quantized_res3a
I1227 21:13:50.196857 12641 net.cpp:84] Creating Layer quantized_res3a
I1227 21:13:50.196866 12641 net.cpp:406] quantized_res3a <- res3a
I1227 21:13:50.196878 12641 net.cpp:367] quantized_res3a -> res3a (in-place)
I1227 21:13:50.196890 12641 net.cpp:122] Setting up quantized_res3a
I1227 21:13:50.196900 12641 net.cpp:129] Top shape: 50 128 28 28 (5017600)
I1227 21:13:50.196908 12641 net.cpp:137] Memory required for data: 2589082400
I1227 21:13:50.196916 12641 layer_factory.hpp:77] Creating layer res3a_quantized_res3a_0_split
I1227 21:13:50.196928 12641 net.cpp:84] Creating Layer res3a_quantized_res3a_0_split
I1227 21:13:50.196936 12641 net.cpp:406] res3a_quantized_res3a_0_split <- res3a
I1227 21:13:50.196946 12641 net.cpp:380] res3a_quantized_res3a_0_split -> res3a_quantized_res3a_0_split_0
I1227 21:13:50.196959 12641 net.cpp:380] res3a_quantized_res3a_0_split -> res3a_quantized_res3a_0_split_1
I1227 21:13:50.197001 12641 net.cpp:122] Setting up res3a_quantized_res3a_0_split
I1227 21:13:50.197016 12641 net.cpp:129] Top shape: 50 128 28 28 (5017600)
I1227 21:13:50.197043 12641 net.cpp:129] Top shape: 50 128 28 28 (5017600)
I1227 21:13:50.197052 12641 net.cpp:137] Memory required for data: 2629223200
I1227 21:13:50.197060 12641 layer_factory.hpp:77] Creating layer res3b_branch2a
I1227 21:13:50.197074 12641 net.cpp:84] Creating Layer res3b_branch2a
I1227 21:13:50.197084 12641 net.cpp:406] res3b_branch2a <- res3a_quantized_res3a_0_split_0
I1227 21:13:50.197098 12641 net.cpp:380] res3b_branch2a -> res3b_branch2a
I1227 21:13:50.202715 12641 net.cpp:122] Setting up res3b_branch2a
I1227 21:13:50.202742 12641 net.cpp:129] Top shape: 50 128 28 28 (5017600)
I1227 21:13:50.202752 12641 net.cpp:137] Memory required for data: 2649293600
I1227 21:13:50.202764 12641 layer_factory.hpp:77] Creating layer bn3b_branch2a
I1227 21:13:50.202780 12641 net.cpp:84] Creating Layer bn3b_branch2a
I1227 21:13:50.202790 12641 net.cpp:406] bn3b_branch2a <- res3b_branch2a
I1227 21:13:50.202801 12641 net.cpp:367] bn3b_branch2a -> res3b_branch2a (in-place)
I1227 21:13:50.202991 12641 net.cpp:122] Setting up bn3b_branch2a
I1227 21:13:50.203007 12641 net.cpp:129] Top shape: 50 128 28 28 (5017600)
I1227 21:13:50.203016 12641 net.cpp:137] Memory required for data: 2669364000
I1227 21:13:50.203028 12641 layer_factory.hpp:77] Creating layer scale3b_branch2a
I1227 21:13:50.203045 12641 net.cpp:84] Creating Layer scale3b_branch2a
I1227 21:13:50.203055 12641 net.cpp:406] scale3b_branch2a <- res3b_branch2a
I1227 21:13:50.203066 12641 net.cpp:367] scale3b_branch2a -> res3b_branch2a (in-place)
I1227 21:13:50.203115 12641 layer_factory.hpp:77] Creating layer scale3b_branch2a
I1227 21:13:50.203227 12641 net.cpp:122] Setting up scale3b_branch2a
I1227 21:13:50.203243 12641 net.cpp:129] Top shape: 50 128 28 28 (5017600)
I1227 21:13:50.203251 12641 net.cpp:137] Memory required for data: 2689434400
I1227 21:13:50.203263 12641 layer_factory.hpp:77] Creating layer res3b_branch2a_relu
I1227 21:13:50.203281 12641 net.cpp:84] Creating Layer res3b_branch2a_relu
I1227 21:13:50.203291 12641 net.cpp:406] res3b_branch2a_relu <- res3b_branch2a
I1227 21:13:50.203301 12641 net.cpp:367] res3b_branch2a_relu -> res3b_branch2a (in-place)
I1227 21:13:50.203313 12641 net.cpp:122] Setting up res3b_branch2a_relu
I1227 21:13:50.203323 12641 net.cpp:129] Top shape: 50 128 28 28 (5017600)
I1227 21:13:50.203331 12641 net.cpp:137] Memory required for data: 2709504800
I1227 21:13:50.203339 12641 layer_factory.hpp:77] Creating layer quantized_res3b_branch2a
I1227 21:13:50.203353 12641 net.cpp:84] Creating Layer quantized_res3b_branch2a
I1227 21:13:50.203362 12641 net.cpp:406] quantized_res3b_branch2a <- res3b_branch2a
I1227 21:13:50.203393 12641 net.cpp:367] quantized_res3b_branch2a -> res3b_branch2a (in-place)
I1227 21:13:50.203408 12641 net.cpp:122] Setting up quantized_res3b_branch2a
I1227 21:13:50.203418 12641 net.cpp:129] Top shape: 50 128 28 28 (5017600)
I1227 21:13:50.203425 12641 net.cpp:137] Memory required for data: 2729575200
I1227 21:13:50.203434 12641 layer_factory.hpp:77] Creating layer res3b_branch2b
I1227 21:13:50.203449 12641 net.cpp:84] Creating Layer res3b_branch2b
I1227 21:13:50.203459 12641 net.cpp:406] res3b_branch2b <- res3b_branch2a
I1227 21:13:50.203472 12641 net.cpp:380] res3b_branch2b -> res3b_branch2b
I1227 21:13:50.210988 12641 net.cpp:122] Setting up res3b_branch2b
I1227 21:13:50.211009 12641 net.cpp:129] Top shape: 50 128 28 28 (5017600)
I1227 21:13:50.211017 12641 net.cpp:137] Memory required for data: 2749645600
I1227 21:13:50.211028 12641 layer_factory.hpp:77] Creating layer bn3b_branch2b
I1227 21:13:50.211045 12641 net.cpp:84] Creating Layer bn3b_branch2b
I1227 21:13:50.211055 12641 net.cpp:406] bn3b_branch2b <- res3b_branch2b
I1227 21:13:50.211066 12641 net.cpp:367] bn3b_branch2b -> res3b_branch2b (in-place)
I1227 21:13:50.211237 12641 net.cpp:122] Setting up bn3b_branch2b
I1227 21:13:50.211253 12641 net.cpp:129] Top shape: 50 128 28 28 (5017600)
I1227 21:13:50.211261 12641 net.cpp:137] Memory required for data: 2769716000
I1227 21:13:50.211274 12641 layer_factory.hpp:77] Creating layer scale3b_branch2b
I1227 21:13:50.211297 12641 net.cpp:84] Creating Layer scale3b_branch2b
I1227 21:13:50.211307 12641 net.cpp:406] scale3b_branch2b <- res3b_branch2b
I1227 21:13:50.211318 12641 net.cpp:367] scale3b_branch2b -> res3b_branch2b (in-place)
I1227 21:13:50.211365 12641 layer_factory.hpp:77] Creating layer scale3b_branch2b
I1227 21:13:50.211477 12641 net.cpp:122] Setting up scale3b_branch2b
I1227 21:13:50.211493 12641 net.cpp:129] Top shape: 50 128 28 28 (5017600)
I1227 21:13:50.211501 12641 net.cpp:137] Memory required for data: 2789786400
I1227 21:13:50.211527 12641 layer_factory.hpp:77] Creating layer quantized_res3b_branch2b
I1227 21:13:50.211542 12641 net.cpp:84] Creating Layer quantized_res3b_branch2b
I1227 21:13:50.211552 12641 net.cpp:406] quantized_res3b_branch2b <- res3b_branch2b
I1227 21:13:50.211563 12641 net.cpp:367] quantized_res3b_branch2b -> res3b_branch2b (in-place)
I1227 21:13:50.211575 12641 net.cpp:122] Setting up quantized_res3b_branch2b
I1227 21:13:50.211585 12641 net.cpp:129] Top shape: 50 128 28 28 (5017600)
I1227 21:13:50.211593 12641 net.cpp:137] Memory required for data: 2809856800
I1227 21:13:50.211601 12641 layer_factory.hpp:77] Creating layer res3b
I1227 21:13:50.211613 12641 net.cpp:84] Creating Layer res3b
I1227 21:13:50.211622 12641 net.cpp:406] res3b <- res3a_quantized_res3a_0_split_1
I1227 21:13:50.211632 12641 net.cpp:406] res3b <- res3b_branch2b
I1227 21:13:50.211642 12641 net.cpp:380] res3b -> res3b
I1227 21:13:50.211673 12641 net.cpp:122] Setting up res3b
I1227 21:13:50.211686 12641 net.cpp:129] Top shape: 50 128 28 28 (5017600)
I1227 21:13:50.211694 12641 net.cpp:137] Memory required for data: 2829927200
I1227 21:13:50.211702 12641 layer_factory.hpp:77] Creating layer res3b_relu
I1227 21:13:50.211716 12641 net.cpp:84] Creating Layer res3b_relu
I1227 21:13:50.211725 12641 net.cpp:406] res3b_relu <- res3b
I1227 21:13:50.211735 12641 net.cpp:367] res3b_relu -> res3b (in-place)
I1227 21:13:50.211747 12641 net.cpp:122] Setting up res3b_relu
I1227 21:13:50.211756 12641 net.cpp:129] Top shape: 50 128 28 28 (5017600)
I1227 21:13:50.211764 12641 net.cpp:137] Memory required for data: 2849997600
I1227 21:13:50.211773 12641 layer_factory.hpp:77] Creating layer quantized_res3b
I1227 21:13:50.211783 12641 net.cpp:84] Creating Layer quantized_res3b
I1227 21:13:50.211792 12641 net.cpp:406] quantized_res3b <- res3b
I1227 21:13:50.211802 12641 net.cpp:367] quantized_res3b -> res3b (in-place)
I1227 21:13:50.211813 12641 net.cpp:122] Setting up quantized_res3b
I1227 21:13:50.211824 12641 net.cpp:129] Top shape: 50 128 28 28 (5017600)
I1227 21:13:50.211833 12641 net.cpp:137] Memory required for data: 2870068000
I1227 21:13:50.211854 12641 layer_factory.hpp:77] Creating layer res3b_quantized_res3b_0_split
I1227 21:13:50.211868 12641 net.cpp:84] Creating Layer res3b_quantized_res3b_0_split
I1227 21:13:50.211876 12641 net.cpp:406] res3b_quantized_res3b_0_split <- res3b
I1227 21:13:50.211886 12641 net.cpp:380] res3b_quantized_res3b_0_split -> res3b_quantized_res3b_0_split_0
I1227 21:13:50.211899 12641 net.cpp:380] res3b_quantized_res3b_0_split -> res3b_quantized_res3b_0_split_1
I1227 21:13:50.211941 12641 net.cpp:122] Setting up res3b_quantized_res3b_0_split
I1227 21:13:50.211956 12641 net.cpp:129] Top shape: 50 128 28 28 (5017600)
I1227 21:13:50.211966 12641 net.cpp:129] Top shape: 50 128 28 28 (5017600)
I1227 21:13:50.211973 12641 net.cpp:137] Memory required for data: 2910208800
I1227 21:13:50.211982 12641 layer_factory.hpp:77] Creating layer res4a_branch1
I1227 21:13:50.211998 12641 net.cpp:84] Creating Layer res4a_branch1
I1227 21:13:50.212008 12641 net.cpp:406] res4a_branch1 <- res3b_quantized_res3b_0_split_0
I1227 21:13:50.212021 12641 net.cpp:380] res4a_branch1 -> res4a_branch1
I1227 21:13:50.213124 12641 net.cpp:122] Setting up res4a_branch1
I1227 21:13:50.213142 12641 net.cpp:129] Top shape: 50 256 14 14 (2508800)
I1227 21:13:50.213151 12641 net.cpp:137] Memory required for data: 2920244000
I1227 21:13:50.213161 12641 layer_factory.hpp:77] Creating layer bn4a_branch1
I1227 21:13:50.213174 12641 net.cpp:84] Creating Layer bn4a_branch1
I1227 21:13:50.213183 12641 net.cpp:406] bn4a_branch1 <- res4a_branch1
I1227 21:13:50.213193 12641 net.cpp:367] bn4a_branch1 -> res4a_branch1 (in-place)
I1227 21:13:50.213373 12641 net.cpp:122] Setting up bn4a_branch1
I1227 21:13:50.213389 12641 net.cpp:129] Top shape: 50 256 14 14 (2508800)
I1227 21:13:50.213397 12641 net.cpp:137] Memory required for data: 2930279200
I1227 21:13:50.213410 12641 layer_factory.hpp:77] Creating layer scale4a_branch1
I1227 21:13:50.213423 12641 net.cpp:84] Creating Layer scale4a_branch1
I1227 21:13:50.213431 12641 net.cpp:406] scale4a_branch1 <- res4a_branch1
I1227 21:13:50.213445 12641 net.cpp:367] scale4a_branch1 -> res4a_branch1 (in-place)
I1227 21:13:50.213493 12641 layer_factory.hpp:77] Creating layer scale4a_branch1
I1227 21:13:50.213603 12641 net.cpp:122] Setting up scale4a_branch1
I1227 21:13:50.213618 12641 net.cpp:129] Top shape: 50 256 14 14 (2508800)
I1227 21:13:50.213626 12641 net.cpp:137] Memory required for data: 2940314400
I1227 21:13:50.213637 12641 layer_factory.hpp:77] Creating layer quantized_res4a_branch1
I1227 21:13:50.213649 12641 net.cpp:84] Creating Layer quantized_res4a_branch1
I1227 21:13:50.213659 12641 net.cpp:406] quantized_res4a_branch1 <- res4a_branch1
I1227 21:13:50.213670 12641 net.cpp:367] quantized_res4a_branch1 -> res4a_branch1 (in-place)
I1227 21:13:50.213682 12641 net.cpp:122] Setting up quantized_res4a_branch1
I1227 21:13:50.213693 12641 net.cpp:129] Top shape: 50 256 14 14 (2508800)
I1227 21:13:50.213701 12641 net.cpp:137] Memory required for data: 2950349600
I1227 21:13:50.213709 12641 layer_factory.hpp:77] Creating layer res4a_branch2a
I1227 21:13:50.213724 12641 net.cpp:84] Creating Layer res4a_branch2a
I1227 21:13:50.213733 12641 net.cpp:406] res4a_branch2a <- res3b_quantized_res3b_0_split_1
I1227 21:13:50.213744 12641 net.cpp:380] res4a_branch2a -> res4a_branch2a
I1227 21:13:50.223515 12641 net.cpp:122] Setting up res4a_branch2a
I1227 21:13:50.223564 12641 net.cpp:129] Top shape: 50 256 14 14 (2508800)
I1227 21:13:50.223573 12641 net.cpp:137] Memory required for data: 2960384800
I1227 21:13:50.223589 12641 layer_factory.hpp:77] Creating layer bn4a_branch2a
I1227 21:13:50.223608 12641 net.cpp:84] Creating Layer bn4a_branch2a
I1227 21:13:50.223619 12641 net.cpp:406] bn4a_branch2a <- res4a_branch2a
I1227 21:13:50.223634 12641 net.cpp:367] bn4a_branch2a -> res4a_branch2a (in-place)
I1227 21:13:50.223829 12641 net.cpp:122] Setting up bn4a_branch2a
I1227 21:13:50.223845 12641 net.cpp:129] Top shape: 50 256 14 14 (2508800)
I1227 21:13:50.223853 12641 net.cpp:137] Memory required for data: 2970420000
I1227 21:13:50.223906 12641 layer_factory.hpp:77] Creating layer scale4a_branch2a
I1227 21:13:50.223924 12641 net.cpp:84] Creating Layer scale4a_branch2a
I1227 21:13:50.223934 12641 net.cpp:406] scale4a_branch2a <- res4a_branch2a
I1227 21:13:50.223944 12641 net.cpp:367] scale4a_branch2a -> res4a_branch2a (in-place)
I1227 21:13:50.224002 12641 layer_factory.hpp:77] Creating layer scale4a_branch2a
I1227 21:13:50.224118 12641 net.cpp:122] Setting up scale4a_branch2a
I1227 21:13:50.224133 12641 net.cpp:129] Top shape: 50 256 14 14 (2508800)
I1227 21:13:50.224141 12641 net.cpp:137] Memory required for data: 2980455200
I1227 21:13:50.224153 12641 layer_factory.hpp:77] Creating layer res4a_branch2a_relu
I1227 21:13:50.224165 12641 net.cpp:84] Creating Layer res4a_branch2a_relu
I1227 21:13:50.224174 12641 net.cpp:406] res4a_branch2a_relu <- res4a_branch2a
I1227 21:13:50.224186 12641 net.cpp:367] res4a_branch2a_relu -> res4a_branch2a (in-place)
I1227 21:13:50.224198 12641 net.cpp:122] Setting up res4a_branch2a_relu
I1227 21:13:50.224208 12641 net.cpp:129] Top shape: 50 256 14 14 (2508800)
I1227 21:13:50.224216 12641 net.cpp:137] Memory required for data: 2990490400
I1227 21:13:50.224225 12641 layer_factory.hpp:77] Creating layer quantized_res4a_branch2a
I1227 21:13:50.224236 12641 net.cpp:84] Creating Layer quantized_res4a_branch2a
I1227 21:13:50.224246 12641 net.cpp:406] quantized_res4a_branch2a <- res4a_branch2a
I1227 21:13:50.224254 12641 net.cpp:367] quantized_res4a_branch2a -> res4a_branch2a (in-place)
I1227 21:13:50.224267 12641 net.cpp:122] Setting up quantized_res4a_branch2a
I1227 21:13:50.224277 12641 net.cpp:129] Top shape: 50 256 14 14 (2508800)
I1227 21:13:50.224283 12641 net.cpp:137] Memory required for data: 3000525600
I1227 21:13:50.224292 12641 layer_factory.hpp:77] Creating layer res4a_branch2b
I1227 21:13:50.224310 12641 net.cpp:84] Creating Layer res4a_branch2b
I1227 21:13:50.224319 12641 net.cpp:406] res4a_branch2b <- res4a_branch2a
I1227 21:13:50.224330 12641 net.cpp:380] res4a_branch2b -> res4a_branch2b
I1227 21:13:50.247870 12641 net.cpp:122] Setting up res4a_branch2b
I1227 21:13:50.247921 12641 net.cpp:129] Top shape: 50 256 14 14 (2508800)
I1227 21:13:50.247931 12641 net.cpp:137] Memory required for data: 3010560800
I1227 21:13:50.247946 12641 layer_factory.hpp:77] Creating layer bn4a_branch2b
I1227 21:13:50.247963 12641 net.cpp:84] Creating Layer bn4a_branch2b
I1227 21:13:50.247975 12641 net.cpp:406] bn4a_branch2b <- res4a_branch2b
I1227 21:13:50.247988 12641 net.cpp:367] bn4a_branch2b -> res4a_branch2b (in-place)
I1227 21:13:50.248214 12641 net.cpp:122] Setting up bn4a_branch2b
I1227 21:13:50.248230 12641 net.cpp:129] Top shape: 50 256 14 14 (2508800)
I1227 21:13:50.248244 12641 net.cpp:137] Memory required for data: 3020596000
I1227 21:13:50.248257 12641 layer_factory.hpp:77] Creating layer scale4a_branch2b
I1227 21:13:50.248275 12641 net.cpp:84] Creating Layer scale4a_branch2b
I1227 21:13:50.248284 12641 net.cpp:406] scale4a_branch2b <- res4a_branch2b
I1227 21:13:50.248294 12641 net.cpp:367] scale4a_branch2b -> res4a_branch2b (in-place)
I1227 21:13:50.248353 12641 layer_factory.hpp:77] Creating layer scale4a_branch2b
I1227 21:13:50.248469 12641 net.cpp:122] Setting up scale4a_branch2b
I1227 21:13:50.248486 12641 net.cpp:129] Top shape: 50 256 14 14 (2508800)
I1227 21:13:50.248494 12641 net.cpp:137] Memory required for data: 3030631200
I1227 21:13:50.248507 12641 layer_factory.hpp:77] Creating layer quantized_res4a_branch2b
I1227 21:13:50.248519 12641 net.cpp:84] Creating Layer quantized_res4a_branch2b
I1227 21:13:50.248528 12641 net.cpp:406] quantized_res4a_branch2b <- res4a_branch2b
I1227 21:13:50.248541 12641 net.cpp:367] quantized_res4a_branch2b -> res4a_branch2b (in-place)
I1227 21:13:50.248555 12641 net.cpp:122] Setting up quantized_res4a_branch2b
I1227 21:13:50.248565 12641 net.cpp:129] Top shape: 50 256 14 14 (2508800)
I1227 21:13:50.248574 12641 net.cpp:137] Memory required for data: 3040666400
I1227 21:13:50.248581 12641 layer_factory.hpp:77] Creating layer res4a
I1227 21:13:50.248594 12641 net.cpp:84] Creating Layer res4a
I1227 21:13:50.248642 12641 net.cpp:406] res4a <- res4a_branch1
I1227 21:13:50.248653 12641 net.cpp:406] res4a <- res4a_branch2b
I1227 21:13:50.248667 12641 net.cpp:380] res4a -> res4a
I1227 21:13:50.248702 12641 net.cpp:122] Setting up res4a
I1227 21:13:50.248716 12641 net.cpp:129] Top shape: 50 256 14 14 (2508800)
I1227 21:13:50.248724 12641 net.cpp:137] Memory required for data: 3050701600
I1227 21:13:50.248733 12641 layer_factory.hpp:77] Creating layer res4a_relu
I1227 21:13:50.248747 12641 net.cpp:84] Creating Layer res4a_relu
I1227 21:13:50.248759 12641 net.cpp:406] res4a_relu <- res4a
I1227 21:13:50.248769 12641 net.cpp:367] res4a_relu -> res4a (in-place)
I1227 21:13:50.248780 12641 net.cpp:122] Setting up res4a_relu
I1227 21:13:50.248790 12641 net.cpp:129] Top shape: 50 256 14 14 (2508800)
I1227 21:13:50.248798 12641 net.cpp:137] Memory required for data: 3060736800
I1227 21:13:50.248806 12641 layer_factory.hpp:77] Creating layer quantized_res4a
I1227 21:13:50.248816 12641 net.cpp:84] Creating Layer quantized_res4a
I1227 21:13:50.248826 12641 net.cpp:406] quantized_res4a <- res4a
I1227 21:13:50.248834 12641 net.cpp:367] quantized_res4a -> res4a (in-place)
I1227 21:13:50.248845 12641 net.cpp:122] Setting up quantized_res4a
I1227 21:13:50.248857 12641 net.cpp:129] Top shape: 50 256 14 14 (2508800)
I1227 21:13:50.248863 12641 net.cpp:137] Memory required for data: 3070772000
I1227 21:13:50.248872 12641 layer_factory.hpp:77] Creating layer res4a_quantized_res4a_0_split
I1227 21:13:50.248883 12641 net.cpp:84] Creating Layer res4a_quantized_res4a_0_split
I1227 21:13:50.248891 12641 net.cpp:406] res4a_quantized_res4a_0_split <- res4a
I1227 21:13:50.248901 12641 net.cpp:380] res4a_quantized_res4a_0_split -> res4a_quantized_res4a_0_split_0
I1227 21:13:50.248914 12641 net.cpp:380] res4a_quantized_res4a_0_split -> res4a_quantized_res4a_0_split_1
I1227 21:13:50.248956 12641 net.cpp:122] Setting up res4a_quantized_res4a_0_split
I1227 21:13:50.248972 12641 net.cpp:129] Top shape: 50 256 14 14 (2508800)
I1227 21:13:50.248981 12641 net.cpp:129] Top shape: 50 256 14 14 (2508800)
I1227 21:13:50.248989 12641 net.cpp:137] Memory required for data: 3090842400
I1227 21:13:50.248997 12641 layer_factory.hpp:77] Creating layer res4b_branch2a
I1227 21:13:50.249016 12641 net.cpp:84] Creating Layer res4b_branch2a
I1227 21:13:50.249024 12641 net.cpp:406] res4b_branch2a <- res4a_quantized_res4a_0_split_0
I1227 21:13:50.249037 12641 net.cpp:380] res4b_branch2a -> res4b_branch2a
I1227 21:13:50.266907 12641 net.cpp:122] Setting up res4b_branch2a
I1227 21:13:50.267055 12641 net.cpp:129] Top shape: 50 256 14 14 (2508800)
I1227 21:13:50.267078 12641 net.cpp:137] Memory required for data: 3100877600
I1227 21:13:50.267093 12641 layer_factory.hpp:77] Creating layer bn4b_branch2a
I1227 21:13:50.267114 12641 net.cpp:84] Creating Layer bn4b_branch2a
I1227 21:13:50.267127 12641 net.cpp:406] bn4b_branch2a <- res4b_branch2a
I1227 21:13:50.267140 12641 net.cpp:367] bn4b_branch2a -> res4b_branch2a (in-place)
I1227 21:13:50.267349 12641 net.cpp:122] Setting up bn4b_branch2a
I1227 21:13:50.267366 12641 net.cpp:129] Top shape: 50 256 14 14 (2508800)
I1227 21:13:50.267374 12641 net.cpp:137] Memory required for data: 3110912800
I1227 21:13:50.267388 12641 layer_factory.hpp:77] Creating layer scale4b_branch2a
I1227 21:13:50.267401 12641 net.cpp:84] Creating Layer scale4b_branch2a
I1227 21:13:50.267410 12641 net.cpp:406] scale4b_branch2a <- res4b_branch2a
I1227 21:13:50.267423 12641 net.cpp:367] scale4b_branch2a -> res4b_branch2a (in-place)
I1227 21:13:50.267477 12641 layer_factory.hpp:77] Creating layer scale4b_branch2a
I1227 21:13:50.267594 12641 net.cpp:122] Setting up scale4b_branch2a
I1227 21:13:50.267612 12641 net.cpp:129] Top shape: 50 256 14 14 (2508800)
I1227 21:13:50.267621 12641 net.cpp:137] Memory required for data: 3120948000
I1227 21:13:50.267632 12641 layer_factory.hpp:77] Creating layer res4b_branch2a_relu
I1227 21:13:50.267644 12641 net.cpp:84] Creating Layer res4b_branch2a_relu
I1227 21:13:50.267653 12641 net.cpp:406] res4b_branch2a_relu <- res4b_branch2a
I1227 21:13:50.267698 12641 net.cpp:367] res4b_branch2a_relu -> res4b_branch2a (in-place)
I1227 21:13:50.267710 12641 net.cpp:122] Setting up res4b_branch2a_relu
I1227 21:13:50.267721 12641 net.cpp:129] Top shape: 50 256 14 14 (2508800)
I1227 21:13:50.267729 12641 net.cpp:137] Memory required for data: 3130983200
I1227 21:13:50.267737 12641 layer_factory.hpp:77] Creating layer quantized_res4b_branch2a
I1227 21:13:50.267750 12641 net.cpp:84] Creating Layer quantized_res4b_branch2a
I1227 21:13:50.267758 12641 net.cpp:406] quantized_res4b_branch2a <- res4b_branch2a
I1227 21:13:50.267771 12641 net.cpp:367] quantized_res4b_branch2a -> res4b_branch2a (in-place)
I1227 21:13:50.267783 12641 net.cpp:122] Setting up quantized_res4b_branch2a
I1227 21:13:50.267792 12641 net.cpp:129] Top shape: 50 256 14 14 (2508800)
I1227 21:13:50.267801 12641 net.cpp:137] Memory required for data: 3141018400
I1227 21:13:50.267808 12641 layer_factory.hpp:77] Creating layer res4b_branch2b
I1227 21:13:50.267827 12641 net.cpp:84] Creating Layer res4b_branch2b
I1227 21:13:50.267835 12641 net.cpp:406] res4b_branch2b <- res4b_branch2a
I1227 21:13:50.267846 12641 net.cpp:380] res4b_branch2b -> res4b_branch2b
I1227 21:13:50.285753 12641 net.cpp:122] Setting up res4b_branch2b
I1227 21:13:50.285804 12641 net.cpp:129] Top shape: 50 256 14 14 (2508800)
I1227 21:13:50.285815 12641 net.cpp:137] Memory required for data: 3151053600
I1227 21:13:50.285828 12641 layer_factory.hpp:77] Creating layer bn4b_branch2b
I1227 21:13:50.285848 12641 net.cpp:84] Creating Layer bn4b_branch2b
I1227 21:13:50.285861 12641 net.cpp:406] bn4b_branch2b <- res4b_branch2b
I1227 21:13:50.285873 12641 net.cpp:367] bn4b_branch2b -> res4b_branch2b (in-place)
I1227 21:13:50.286065 12641 net.cpp:122] Setting up bn4b_branch2b
I1227 21:13:50.286082 12641 net.cpp:129] Top shape: 50 256 14 14 (2508800)
I1227 21:13:50.286089 12641 net.cpp:137] Memory required for data: 3161088800
I1227 21:13:50.286103 12641 layer_factory.hpp:77] Creating layer scale4b_branch2b
I1227 21:13:50.286118 12641 net.cpp:84] Creating Layer scale4b_branch2b
I1227 21:13:50.286128 12641 net.cpp:406] scale4b_branch2b <- res4b_branch2b
I1227 21:13:50.286137 12641 net.cpp:367] scale4b_branch2b -> res4b_branch2b (in-place)
I1227 21:13:50.286195 12641 layer_factory.hpp:77] Creating layer scale4b_branch2b
I1227 21:13:50.286310 12641 net.cpp:122] Setting up scale4b_branch2b
I1227 21:13:50.286326 12641 net.cpp:129] Top shape: 50 256 14 14 (2508800)
I1227 21:13:50.286334 12641 net.cpp:137] Memory required for data: 3171124000
I1227 21:13:50.286346 12641 layer_factory.hpp:77] Creating layer quantized_res4b_branch2b
I1227 21:13:50.286360 12641 net.cpp:84] Creating Layer quantized_res4b_branch2b
I1227 21:13:50.286368 12641 net.cpp:406] quantized_res4b_branch2b <- res4b_branch2b
I1227 21:13:50.286381 12641 net.cpp:367] quantized_res4b_branch2b -> res4b_branch2b (in-place)
I1227 21:13:50.286394 12641 net.cpp:122] Setting up quantized_res4b_branch2b
I1227 21:13:50.286406 12641 net.cpp:129] Top shape: 50 256 14 14 (2508800)
I1227 21:13:50.286412 12641 net.cpp:137] Memory required for data: 3181159200
I1227 21:13:50.286422 12641 layer_factory.hpp:77] Creating layer res4b
I1227 21:13:50.286433 12641 net.cpp:84] Creating Layer res4b
I1227 21:13:50.286442 12641 net.cpp:406] res4b <- res4a_quantized_res4a_0_split_1
I1227 21:13:50.286451 12641 net.cpp:406] res4b <- res4b_branch2b
I1227 21:13:50.286461 12641 net.cpp:380] res4b -> res4b
I1227 21:13:50.286497 12641 net.cpp:122] Setting up res4b
I1227 21:13:50.286512 12641 net.cpp:129] Top shape: 50 256 14 14 (2508800)
I1227 21:13:50.286520 12641 net.cpp:137] Memory required for data: 3191194400
I1227 21:13:50.286528 12641 layer_factory.hpp:77] Creating layer res4b_relu
I1227 21:13:50.286540 12641 net.cpp:84] Creating Layer res4b_relu
I1227 21:13:50.286548 12641 net.cpp:406] res4b_relu <- res4b
I1227 21:13:50.286561 12641 net.cpp:367] res4b_relu -> res4b (in-place)
I1227 21:13:50.286571 12641 net.cpp:122] Setting up res4b_relu
I1227 21:13:50.286581 12641 net.cpp:129] Top shape: 50 256 14 14 (2508800)
I1227 21:13:50.286624 12641 net.cpp:137] Memory required for data: 3201229600
I1227 21:13:50.286634 12641 layer_factory.hpp:77] Creating layer quantized_res4b
I1227 21:13:50.286645 12641 net.cpp:84] Creating Layer quantized_res4b
I1227 21:13:50.286653 12641 net.cpp:406] quantized_res4b <- res4b
I1227 21:13:50.286664 12641 net.cpp:367] quantized_res4b -> res4b (in-place)
I1227 21:13:50.286674 12641 net.cpp:122] Setting up quantized_res4b
I1227 21:13:50.286684 12641 net.cpp:129] Top shape: 50 256 14 14 (2508800)
I1227 21:13:50.286692 12641 net.cpp:137] Memory required for data: 3211264800
I1227 21:13:50.286701 12641 layer_factory.hpp:77] Creating layer res4b_quantized_res4b_0_split
I1227 21:13:50.286712 12641 net.cpp:84] Creating Layer res4b_quantized_res4b_0_split
I1227 21:13:50.286720 12641 net.cpp:406] res4b_quantized_res4b_0_split <- res4b
I1227 21:13:50.286731 12641 net.cpp:380] res4b_quantized_res4b_0_split -> res4b_quantized_res4b_0_split_0
I1227 21:13:50.286742 12641 net.cpp:380] res4b_quantized_res4b_0_split -> res4b_quantized_res4b_0_split_1
I1227 21:13:50.286785 12641 net.cpp:122] Setting up res4b_quantized_res4b_0_split
I1227 21:13:50.286800 12641 net.cpp:129] Top shape: 50 256 14 14 (2508800)
I1227 21:13:50.286811 12641 net.cpp:129] Top shape: 50 256 14 14 (2508800)
I1227 21:13:50.286818 12641 net.cpp:137] Memory required for data: 3231335200
I1227 21:13:50.286828 12641 layer_factory.hpp:77] Creating layer res5a_branch1
I1227 21:13:50.286845 12641 net.cpp:84] Creating Layer res5a_branch1
I1227 21:13:50.286855 12641 net.cpp:406] res5a_branch1 <- res4b_quantized_res4b_0_split_0
I1227 21:13:50.286866 12641 net.cpp:380] res5a_branch1 -> res5a_branch1
I1227 21:13:50.290688 12641 net.cpp:122] Setting up res5a_branch1
I1227 21:13:50.290709 12641 net.cpp:129] Top shape: 50 512 7 7 (1254400)
I1227 21:13:50.290717 12641 net.cpp:137] Memory required for data: 3236352800
I1227 21:13:50.290727 12641 layer_factory.hpp:77] Creating layer bn5a_branch1
I1227 21:13:50.290741 12641 net.cpp:84] Creating Layer bn5a_branch1
I1227 21:13:50.290750 12641 net.cpp:406] bn5a_branch1 <- res5a_branch1
I1227 21:13:50.290760 12641 net.cpp:367] bn5a_branch1 -> res5a_branch1 (in-place)
I1227 21:13:50.290949 12641 net.cpp:122] Setting up bn5a_branch1
I1227 21:13:50.290977 12641 net.cpp:129] Top shape: 50 512 7 7 (1254400)
I1227 21:13:50.290985 12641 net.cpp:137] Memory required for data: 3241370400
I1227 21:13:50.290998 12641 layer_factory.hpp:77] Creating layer scale5a_branch1
I1227 21:13:50.291014 12641 net.cpp:84] Creating Layer scale5a_branch1
I1227 21:13:50.291024 12641 net.cpp:406] scale5a_branch1 <- res5a_branch1
I1227 21:13:50.291034 12641 net.cpp:367] scale5a_branch1 -> res5a_branch1 (in-place)
I1227 21:13:50.291081 12641 layer_factory.hpp:77] Creating layer scale5a_branch1
I1227 21:13:50.291205 12641 net.cpp:122] Setting up scale5a_branch1
I1227 21:13:50.291221 12641 net.cpp:129] Top shape: 50 512 7 7 (1254400)
I1227 21:13:50.291229 12641 net.cpp:137] Memory required for data: 3246388000
I1227 21:13:50.291240 12641 layer_factory.hpp:77] Creating layer quantized_res5a_branch1
I1227 21:13:50.291252 12641 net.cpp:84] Creating Layer quantized_res5a_branch1
I1227 21:13:50.291261 12641 net.cpp:406] quantized_res5a_branch1 <- res5a_branch1
I1227 21:13:50.291272 12641 net.cpp:367] quantized_res5a_branch1 -> res5a_branch1 (in-place)
I1227 21:13:50.291285 12641 net.cpp:122] Setting up quantized_res5a_branch1
I1227 21:13:50.291294 12641 net.cpp:129] Top shape: 50 512 7 7 (1254400)
I1227 21:13:50.291302 12641 net.cpp:137] Memory required for data: 3251405600
I1227 21:13:50.291311 12641 layer_factory.hpp:77] Creating layer res5a_branch2a
I1227 21:13:50.291326 12641 net.cpp:84] Creating Layer res5a_branch2a
I1227 21:13:50.291334 12641 net.cpp:406] res5a_branch2a <- res4b_quantized_res4b_0_split_1
I1227 21:13:50.291345 12641 net.cpp:380] res5a_branch2a -> res5a_branch2a
I1227 21:13:50.326701 12641 net.cpp:122] Setting up res5a_branch2a
I1227 21:13:50.326751 12641 net.cpp:129] Top shape: 50 512 7 7 (1254400)
I1227 21:13:50.326797 12641 net.cpp:137] Memory required for data: 3256423200
I1227 21:13:50.326813 12641 layer_factory.hpp:77] Creating layer bn5a_branch2a
I1227 21:13:50.326833 12641 net.cpp:84] Creating Layer bn5a_branch2a
I1227 21:13:50.326846 12641 net.cpp:406] bn5a_branch2a <- res5a_branch2a
I1227 21:13:50.326859 12641 net.cpp:367] bn5a_branch2a -> res5a_branch2a (in-place)
I1227 21:13:50.327118 12641 net.cpp:122] Setting up bn5a_branch2a
I1227 21:13:50.327136 12641 net.cpp:129] Top shape: 50 512 7 7 (1254400)
I1227 21:13:50.327144 12641 net.cpp:137] Memory required for data: 3261440800
I1227 21:13:50.327157 12641 layer_factory.hpp:77] Creating layer scale5a_branch2a
I1227 21:13:50.327175 12641 net.cpp:84] Creating Layer scale5a_branch2a
I1227 21:13:50.327185 12641 net.cpp:406] scale5a_branch2a <- res5a_branch2a
I1227 21:13:50.327195 12641 net.cpp:367] scale5a_branch2a -> res5a_branch2a (in-place)
I1227 21:13:50.327242 12641 layer_factory.hpp:77] Creating layer scale5a_branch2a
I1227 21:13:50.327370 12641 net.cpp:122] Setting up scale5a_branch2a
I1227 21:13:50.327388 12641 net.cpp:129] Top shape: 50 512 7 7 (1254400)
I1227 21:13:50.327395 12641 net.cpp:137] Memory required for data: 3266458400
I1227 21:13:50.327407 12641 layer_factory.hpp:77] Creating layer res5a_branch2a_relu
I1227 21:13:50.327419 12641 net.cpp:84] Creating Layer res5a_branch2a_relu
I1227 21:13:50.327428 12641 net.cpp:406] res5a_branch2a_relu <- res5a_branch2a
I1227 21:13:50.327438 12641 net.cpp:367] res5a_branch2a_relu -> res5a_branch2a (in-place)
I1227 21:13:50.327450 12641 net.cpp:122] Setting up res5a_branch2a_relu
I1227 21:13:50.327460 12641 net.cpp:129] Top shape: 50 512 7 7 (1254400)
I1227 21:13:50.327467 12641 net.cpp:137] Memory required for data: 3271476000
I1227 21:13:50.327476 12641 layer_factory.hpp:77] Creating layer quantized_res5a_branch2a
I1227 21:13:50.327491 12641 net.cpp:84] Creating Layer quantized_res5a_branch2a
I1227 21:13:50.327499 12641 net.cpp:406] quantized_res5a_branch2a <- res5a_branch2a
I1227 21:13:50.327509 12641 net.cpp:367] quantized_res5a_branch2a -> res5a_branch2a (in-place)
I1227 21:13:50.327522 12641 net.cpp:122] Setting up quantized_res5a_branch2a
I1227 21:13:50.327531 12641 net.cpp:129] Top shape: 50 512 7 7 (1254400)
I1227 21:13:50.327538 12641 net.cpp:137] Memory required for data: 3276493600
I1227 21:13:50.327548 12641 layer_factory.hpp:77] Creating layer res5a_branch2b
I1227 21:13:50.327565 12641 net.cpp:84] Creating Layer res5a_branch2b
I1227 21:13:50.327574 12641 net.cpp:406] res5a_branch2b <- res5a_branch2a
I1227 21:13:50.327585 12641 net.cpp:380] res5a_branch2b -> res5a_branch2b
I1227 21:13:50.398753 12641 net.cpp:122] Setting up res5a_branch2b
I1227 21:13:50.398799 12641 net.cpp:129] Top shape: 50 512 7 7 (1254400)
I1227 21:13:50.398809 12641 net.cpp:137] Memory required for data: 3281511200
I1227 21:13:50.398824 12641 layer_factory.hpp:77] Creating layer bn5a_branch2b
I1227 21:13:50.398843 12641 net.cpp:84] Creating Layer bn5a_branch2b
I1227 21:13:50.398854 12641 net.cpp:406] bn5a_branch2b <- res5a_branch2b
I1227 21:13:50.398867 12641 net.cpp:367] bn5a_branch2b -> res5a_branch2b (in-place)
I1227 21:13:50.399119 12641 net.cpp:122] Setting up bn5a_branch2b
I1227 21:13:50.399137 12641 net.cpp:129] Top shape: 50 512 7 7 (1254400)
I1227 21:13:50.399145 12641 net.cpp:137] Memory required for data: 3286528800
I1227 21:13:50.399158 12641 layer_factory.hpp:77] Creating layer scale5a_branch2b
I1227 21:13:50.399175 12641 net.cpp:84] Creating Layer scale5a_branch2b
I1227 21:13:50.399184 12641 net.cpp:406] scale5a_branch2b <- res5a_branch2b
I1227 21:13:50.399195 12641 net.cpp:367] scale5a_branch2b -> res5a_branch2b (in-place)
I1227 21:13:50.399246 12641 layer_factory.hpp:77] Creating layer scale5a_branch2b
I1227 21:13:50.399375 12641 net.cpp:122] Setting up scale5a_branch2b
I1227 21:13:50.399392 12641 net.cpp:129] Top shape: 50 512 7 7 (1254400)
I1227 21:13:50.399401 12641 net.cpp:137] Memory required for data: 3291546400
I1227 21:13:50.399412 12641 layer_factory.hpp:77] Creating layer quantized_res5a_branch2b
I1227 21:13:50.399463 12641 net.cpp:84] Creating Layer quantized_res5a_branch2b
I1227 21:13:50.399473 12641 net.cpp:406] quantized_res5a_branch2b <- res5a_branch2b
I1227 21:13:50.399487 12641 net.cpp:367] quantized_res5a_branch2b -> res5a_branch2b (in-place)
I1227 21:13:50.399500 12641 net.cpp:122] Setting up quantized_res5a_branch2b
I1227 21:13:50.399511 12641 net.cpp:129] Top shape: 50 512 7 7 (1254400)
I1227 21:13:50.399518 12641 net.cpp:137] Memory required for data: 3296564000
I1227 21:13:50.399526 12641 layer_factory.hpp:77] Creating layer res5a
I1227 21:13:50.399539 12641 net.cpp:84] Creating Layer res5a
I1227 21:13:50.399547 12641 net.cpp:406] res5a <- res5a_branch1
I1227 21:13:50.399557 12641 net.cpp:406] res5a <- res5a_branch2b
I1227 21:13:50.399570 12641 net.cpp:380] res5a -> res5a
I1227 21:13:50.399605 12641 net.cpp:122] Setting up res5a
I1227 21:13:50.399619 12641 net.cpp:129] Top shape: 50 512 7 7 (1254400)
I1227 21:13:50.399627 12641 net.cpp:137] Memory required for data: 3301581600
I1227 21:13:50.399636 12641 layer_factory.hpp:77] Creating layer res5a_relu
I1227 21:13:50.399649 12641 net.cpp:84] Creating Layer res5a_relu
I1227 21:13:50.399658 12641 net.cpp:406] res5a_relu <- res5a
I1227 21:13:50.399668 12641 net.cpp:367] res5a_relu -> res5a (in-place)
I1227 21:13:50.399679 12641 net.cpp:122] Setting up res5a_relu
I1227 21:13:50.399690 12641 net.cpp:129] Top shape: 50 512 7 7 (1254400)
I1227 21:13:50.399698 12641 net.cpp:137] Memory required for data: 3306599200
I1227 21:13:50.399705 12641 layer_factory.hpp:77] Creating layer quantized_res5a
I1227 21:13:50.399716 12641 net.cpp:84] Creating Layer quantized_res5a
I1227 21:13:50.399724 12641 net.cpp:406] quantized_res5a <- res5a
I1227 21:13:50.399734 12641 net.cpp:367] quantized_res5a -> res5a (in-place)
I1227 21:13:50.399745 12641 net.cpp:122] Setting up quantized_res5a
I1227 21:13:50.399755 12641 net.cpp:129] Top shape: 50 512 7 7 (1254400)
I1227 21:13:50.399762 12641 net.cpp:137] Memory required for data: 3311616800
I1227 21:13:50.399771 12641 layer_factory.hpp:77] Creating layer res5a_quantized_res5a_0_split
I1227 21:13:50.399781 12641 net.cpp:84] Creating Layer res5a_quantized_res5a_0_split
I1227 21:13:50.399791 12641 net.cpp:406] res5a_quantized_res5a_0_split <- res5a
I1227 21:13:50.399799 12641 net.cpp:380] res5a_quantized_res5a_0_split -> res5a_quantized_res5a_0_split_0
I1227 21:13:50.399811 12641 net.cpp:380] res5a_quantized_res5a_0_split -> res5a_quantized_res5a_0_split_1
I1227 21:13:50.399855 12641 net.cpp:122] Setting up res5a_quantized_res5a_0_split
I1227 21:13:50.399870 12641 net.cpp:129] Top shape: 50 512 7 7 (1254400)
I1227 21:13:50.399880 12641 net.cpp:129] Top shape: 50 512 7 7 (1254400)
I1227 21:13:50.399888 12641 net.cpp:137] Memory required for data: 3321652000
I1227 21:13:50.399895 12641 layer_factory.hpp:77] Creating layer res5b_branch2a
I1227 21:13:50.399915 12641 net.cpp:84] Creating Layer res5b_branch2a
I1227 21:13:50.399925 12641 net.cpp:406] res5b_branch2a <- res5a_quantized_res5a_0_split_0
I1227 21:13:50.399936 12641 net.cpp:380] res5b_branch2a -> res5b_branch2a
I1227 21:13:50.470625 12641 net.cpp:122] Setting up res5b_branch2a
I1227 21:13:50.470675 12641 net.cpp:129] Top shape: 50 512 7 7 (1254400)
I1227 21:13:50.470687 12641 net.cpp:137] Memory required for data: 3326669600
I1227 21:13:50.470702 12641 layer_factory.hpp:77] Creating layer bn5b_branch2a
I1227 21:13:50.470723 12641 net.cpp:84] Creating Layer bn5b_branch2a
I1227 21:13:50.470736 12641 net.cpp:406] bn5b_branch2a <- res5b_branch2a
I1227 21:13:50.470749 12641 net.cpp:367] bn5b_branch2a -> res5b_branch2a (in-place)
I1227 21:13:50.471007 12641 net.cpp:122] Setting up bn5b_branch2a
I1227 21:13:50.471027 12641 net.cpp:129] Top shape: 50 512 7 7 (1254400)
I1227 21:13:50.471035 12641 net.cpp:137] Memory required for data: 3331687200
I1227 21:13:50.471050 12641 layer_factory.hpp:77] Creating layer scale5b_branch2a
I1227 21:13:50.471065 12641 net.cpp:84] Creating Layer scale5b_branch2a
I1227 21:13:50.471073 12641 net.cpp:406] scale5b_branch2a <- res5b_branch2a
I1227 21:13:50.471127 12641 net.cpp:367] scale5b_branch2a -> res5b_branch2a (in-place)
I1227 21:13:50.471180 12641 layer_factory.hpp:77] Creating layer scale5b_branch2a
I1227 21:13:50.471305 12641 net.cpp:122] Setting up scale5b_branch2a
I1227 21:13:50.471321 12641 net.cpp:129] Top shape: 50 512 7 7 (1254400)
I1227 21:13:50.471330 12641 net.cpp:137] Memory required for data: 3336704800
I1227 21:13:50.471341 12641 layer_factory.hpp:77] Creating layer res5b_branch2a_relu
I1227 21:13:50.471356 12641 net.cpp:84] Creating Layer res5b_branch2a_relu
I1227 21:13:50.471366 12641 net.cpp:406] res5b_branch2a_relu <- res5b_branch2a
I1227 21:13:50.471376 12641 net.cpp:367] res5b_branch2a_relu -> res5b_branch2a (in-place)
I1227 21:13:50.471387 12641 net.cpp:122] Setting up res5b_branch2a_relu
I1227 21:13:50.471397 12641 net.cpp:129] Top shape: 50 512 7 7 (1254400)
I1227 21:13:50.471405 12641 net.cpp:137] Memory required for data: 3341722400
I1227 21:13:50.471413 12641 layer_factory.hpp:77] Creating layer quantized_res5b_branch2a
I1227 21:13:50.471426 12641 net.cpp:84] Creating Layer quantized_res5b_branch2a
I1227 21:13:50.471434 12641 net.cpp:406] quantized_res5b_branch2a <- res5b_branch2a
I1227 21:13:50.471446 12641 net.cpp:367] quantized_res5b_branch2a -> res5b_branch2a (in-place)
I1227 21:13:50.471459 12641 net.cpp:122] Setting up quantized_res5b_branch2a
I1227 21:13:50.471469 12641 net.cpp:129] Top shape: 50 512 7 7 (1254400)
I1227 21:13:50.471477 12641 net.cpp:137] Memory required for data: 3346740000
I1227 21:13:50.471485 12641 layer_factory.hpp:77] Creating layer res5b_branch2b
I1227 21:13:50.471503 12641 net.cpp:84] Creating Layer res5b_branch2b
I1227 21:13:50.471513 12641 net.cpp:406] res5b_branch2b <- res5b_branch2a
I1227 21:13:50.471524 12641 net.cpp:380] res5b_branch2b -> res5b_branch2b
I1227 21:13:50.542135 12641 net.cpp:122] Setting up res5b_branch2b
I1227 21:13:50.542186 12641 net.cpp:129] Top shape: 50 512 7 7 (1254400)
I1227 21:13:50.542196 12641 net.cpp:137] Memory required for data: 3351757600
I1227 21:13:50.542210 12641 layer_factory.hpp:77] Creating layer bn5b_branch2b
I1227 21:13:50.542230 12641 net.cpp:84] Creating Layer bn5b_branch2b
I1227 21:13:50.542243 12641 net.cpp:406] bn5b_branch2b <- res5b_branch2b
I1227 21:13:50.542255 12641 net.cpp:367] bn5b_branch2b -> res5b_branch2b (in-place)
I1227 21:13:50.542462 12641 net.cpp:122] Setting up bn5b_branch2b
I1227 21:13:50.542479 12641 net.cpp:129] Top shape: 50 512 7 7 (1254400)
I1227 21:13:50.542487 12641 net.cpp:137] Memory required for data: 3356775200
I1227 21:13:50.542500 12641 layer_factory.hpp:77] Creating layer scale5b_branch2b
I1227 21:13:50.542516 12641 net.cpp:84] Creating Layer scale5b_branch2b
I1227 21:13:50.542526 12641 net.cpp:406] scale5b_branch2b <- res5b_branch2b
I1227 21:13:50.542536 12641 net.cpp:367] scale5b_branch2b -> res5b_branch2b (in-place)
I1227 21:13:50.542585 12641 layer_factory.hpp:77] Creating layer scale5b_branch2b
I1227 21:13:50.542712 12641 net.cpp:122] Setting up scale5b_branch2b
I1227 21:13:50.542729 12641 net.cpp:129] Top shape: 50 512 7 7 (1254400)
I1227 21:13:50.542737 12641 net.cpp:137] Memory required for data: 3361792800
I1227 21:13:50.542748 12641 layer_factory.hpp:77] Creating layer quantized_res5b_branch2b
I1227 21:13:50.542762 12641 net.cpp:84] Creating Layer quantized_res5b_branch2b
I1227 21:13:50.542771 12641 net.cpp:406] quantized_res5b_branch2b <- res5b_branch2b
I1227 21:13:50.542781 12641 net.cpp:367] quantized_res5b_branch2b -> res5b_branch2b (in-place)
I1227 21:13:50.542793 12641 net.cpp:122] Setting up quantized_res5b_branch2b
I1227 21:13:50.542804 12641 net.cpp:129] Top shape: 50 512 7 7 (1254400)
I1227 21:13:50.542811 12641 net.cpp:137] Memory required for data: 3366810400
I1227 21:13:50.542819 12641 layer_factory.hpp:77] Creating layer res5b
I1227 21:13:50.542834 12641 net.cpp:84] Creating Layer res5b
I1227 21:13:50.542842 12641 net.cpp:406] res5b <- res5a_quantized_res5a_0_split_1
I1227 21:13:50.542851 12641 net.cpp:406] res5b <- res5b_branch2b
I1227 21:13:50.542862 12641 net.cpp:380] res5b -> res5b
I1227 21:13:50.542898 12641 net.cpp:122] Setting up res5b
I1227 21:13:50.542948 12641 net.cpp:129] Top shape: 50 512 7 7 (1254400)
I1227 21:13:50.543051 12641 net.cpp:137] Memory required for data: 3371828000
I1227 21:13:50.543074 12641 layer_factory.hpp:77] Creating layer res5b_relu
I1227 21:13:50.543087 12641 net.cpp:84] Creating Layer res5b_relu
I1227 21:13:50.543095 12641 net.cpp:406] res5b_relu <- res5b
I1227 21:13:50.543109 12641 net.cpp:367] res5b_relu -> res5b (in-place)
I1227 21:13:50.543121 12641 net.cpp:122] Setting up res5b_relu
I1227 21:13:50.543133 12641 net.cpp:129] Top shape: 50 512 7 7 (1254400)
I1227 21:13:50.543140 12641 net.cpp:137] Memory required for data: 3376845600
I1227 21:13:50.543148 12641 layer_factory.hpp:77] Creating layer quantized_res5b
I1227 21:13:50.543175 12641 net.cpp:84] Creating Layer quantized_res5b
I1227 21:13:50.543186 12641 net.cpp:406] quantized_res5b <- res5b
I1227 21:13:50.543196 12641 net.cpp:367] quantized_res5b -> res5b (in-place)
I1227 21:13:50.543208 12641 net.cpp:122] Setting up quantized_res5b
I1227 21:13:50.543218 12641 net.cpp:129] Top shape: 50 512 7 7 (1254400)
I1227 21:13:50.543226 12641 net.cpp:137] Memory required for data: 3381863200
I1227 21:13:50.543234 12641 layer_factory.hpp:77] Creating layer pool5
I1227 21:13:50.543246 12641 net.cpp:84] Creating Layer pool5
I1227 21:13:50.543254 12641 net.cpp:406] pool5 <- res5b
I1227 21:13:50.543264 12641 net.cpp:380] pool5 -> pool5
I1227 21:13:50.543298 12641 net.cpp:122] Setting up pool5
I1227 21:13:50.543313 12641 net.cpp:129] Top shape: 50 512 1 1 (25600)
I1227 21:13:50.543320 12641 net.cpp:137] Memory required for data: 3381965600
I1227 21:13:50.543329 12641 layer_factory.hpp:77] Creating layer fc1000
I1227 21:13:50.543350 12641 net.cpp:84] Creating Layer fc1000
I1227 21:13:50.543360 12641 net.cpp:406] fc1000 <- pool5
I1227 21:13:50.543373 12641 net.cpp:380] fc1000 -> fc1000
I1227 21:13:50.559025 12641 net.cpp:122] Setting up fc1000
I1227 21:13:50.559079 12641 net.cpp:129] Top shape: 50 1000 (50000)
I1227 21:13:50.559089 12641 net.cpp:137] Memory required for data: 3382165600
I1227 21:13:50.559103 12641 layer_factory.hpp:77] Creating layer fc1000_fc1000_0_split
I1227 21:13:50.559118 12641 net.cpp:84] Creating Layer fc1000_fc1000_0_split
I1227 21:13:50.559128 12641 net.cpp:406] fc1000_fc1000_0_split <- fc1000
I1227 21:13:50.559145 12641 net.cpp:380] fc1000_fc1000_0_split -> fc1000_fc1000_0_split_0
I1227 21:13:50.559165 12641 net.cpp:380] fc1000_fc1000_0_split -> fc1000_fc1000_0_split_1
I1227 21:13:50.559176 12641 net.cpp:380] fc1000_fc1000_0_split -> fc1000_fc1000_0_split_2
I1227 21:13:50.559233 12641 net.cpp:122] Setting up fc1000_fc1000_0_split
I1227 21:13:50.559248 12641 net.cpp:129] Top shape: 50 1000 (50000)
I1227 21:13:50.559257 12641 net.cpp:129] Top shape: 50 1000 (50000)
I1227 21:13:50.559267 12641 net.cpp:129] Top shape: 50 1000 (50000)
I1227 21:13:50.559273 12641 net.cpp:137] Memory required for data: 3382765600
I1227 21:13:50.559281 12641 layer_factory.hpp:77] Creating layer loss
I1227 21:13:50.559298 12641 net.cpp:84] Creating Layer loss
I1227 21:13:50.559305 12641 net.cpp:406] loss <- fc1000_fc1000_0_split_0
I1227 21:13:50.559315 12641 net.cpp:406] loss <- label_data_1_split_0
I1227 21:13:50.559329 12641 net.cpp:380] loss -> loss
…
