…
I0102 10:40:25.485836 42534 net.cpp:294] The NetState phase (1) differed from the phase (0) specified by a rule in layer accuracy_5_TRAIN
I0102 10:40:25.486116 42534 net.cpp:51] Initializing net from parameters: 
name: "AlexNet-BN"
state {
  phase: TEST
  level: 0
  stage: ""
}
layer {
  name: "data"
  type: "Data"
  top: "data"
  top: "label"
  include {
    phase: TEST
  }
  transform_param {
    mirror: false
    crop_size: 224
    mean_value: 103.939
    mean_value: 116.779
    mean_value: 123.68
  }
  data_param {
    source: "/home/ydwu/database/imagenet/ilsvrc12/lmdb_resize/ilsvrc12_val_lmdb"
    batch_size: 200
    backend: LMDB
  }
}
layer {
  name: "conv1"
  type: "QuanConvolution"
  bottom: "data"
  top: "conv1"
  param {
    lr_mult: 1
    decay_mult: 1
  }
  param {
    lr_mult: 2
    decay_mult: 0
  }
  quan_convolution_param {
    num_output: 96
    pad: 2
    kernel_size: 11
    stride: 4
    weight_filler {
      type: "gaussian"
      std: 0.01
    }
    bias_filler {
      type: "constant"
      value: 0
    }
    bit_width: 16
    range_low: -0.872089
    range_high: 0.927025
  }
}
layer {
  name: "bn1"
  type: "BatchNorm"
  bottom: "conv1"
  top: "conv1"
}
layer {
  name: "scale1"
  type: "Scale"
  bottom: "conv1"
  top: "conv1"
  scale_param {
    bias_term: true
  }
}
layer {
  name: "relu1"
  type: "ReLU"
  bottom: "conv1"
  top: "conv1"
}
layer {
  name: "pool1"
  type: "Pooling"
  bottom: "conv1"
  top: "pool1"
  pooling_param {
    pool: MAX
    kernel_size: 3
    stride: 2
  }
}
layer {
  name: "conv2"
  type: "QuanConvolution"
  bottom: "pool1"
  top: "conv2"
  param {
    lr_mult: 1
    decay_mult: 1
  }
  param {
    lr_mult: 2
    decay_mult: 0
  }
  quan_convolution_param {
    num_output: 256
    pad: 2
    kernel_size: 5
    weight_filler {
      type: "gaussian"
      std: 0.01
    }
    bias_filler {
      type: "constant"
      value: 0.1
    }
    bit_width: 16
    range_low: -0.806018
    range_high: 1.5182
  }
}
layer {
  name: "bn2"
  type: "BatchNorm"
  bottom: "conv2"
  top: "conv2"
}
layer {
  name: "scale2"
  type: "Scale"
  bottom: "conv2"
  top: "conv2"
  scale_param {
    bias_term: true
  }
}
layer {
  name: "relu2"
  type: "ReLU"
  bottom: "conv2"
  top: "conv2"
}
layer {
  name: "pool2"
  type: "Pooling"
  bottom: "conv2"
  top: "pool2"
  pooling_param {
    pool: MAX
    kernel_size: 3
    stride: 2
  }
}
layer {
  name: "conv3"
  type: "QuanConvolution"
  bottom: "pool2"
  top: "conv3"
  param {
    lr_mult: 1
    decay_mult: 1
  }
  param {
    lr_mult: 2
    decay_mult: 0
  }
  quan_convolution_param {
    num_output: 384
    pad: 1
    kernel_size: 3
    weight_filler {
      type: "gaussian"
      std: 0.01
    }
    bias_filler {
      type: "constant"
      value: 0
    }
    bit_width: 16
    range_low: -0.621858
    range_high: 0.673858
  }
}
layer {
  name: "bn3"
  type: "BatchNorm"
  bottom: "conv3"
  top: "conv3"
}
layer {
  name: "scale3"
  type: "Scale"
  bottom: "conv3"
  top: "conv3"
  scale_param {
    bias_term: true
  }
}
layer {
  name: "relu3"
  type: "ReLU"
  bottom: "conv3"
  top: "conv3"
}
layer {
  name: "conv4"
  type: "QuanConvolution"
  bottom: "conv3"
  top: "conv4"
  param {
    lr_mult: 1
    decay_mult: 1
  }
  param {
    lr_mult: 2
    decay_mult: 0
  }
  quan_convolution_param {
    num_output: 384
    pad: 1
    kernel_size: 3
    weight_filler {
      type: "gaussian"
      std: 0.01
    }
    bias_filler {
      type: "constant"
      value: 0.1
    }
    bit_width: 16
    range_low: -0.376634
    range_high: 0.341829
  }
}
layer {
  name: "bn4"
  type: "BatchNorm"
  bottom: "conv4"
  top: "conv4"
}
layer {
  name: "scale4"
  type: "Scale"
  bottom: "conv4"
  top: "conv4"
  scale_param {
    bias_term: true
  }
}
layer {
  name: "relu4"
  type: "ReLU"
  bottom: "conv4"
  top: "conv4"
}
layer {
  name: "conv5"
  type: "QuanConvolution"
  bottom: "conv4"
  top: "conv5"
  param {
    lr_mult: 1
    decay_mult: 1
  }
  param {
    lr_mult: 2
    decay_mult: 0
  }
  quan_convolution_param {
    num_output: 256
    pad: 1
    kernel_size: 3
    weight_filler {
      type: "gaussian"
      std: 0.01
    }
    bias_filler {
      type: "constant"
      value: 0.1
    }
    bit_width: 16
    range_low: -0.347658
    range_high: 0.330042
  }
}
layer {
  name: "bn5"
  type: "BatchNorm"
  bottom: "conv5"
  top: "conv5"
}
layer {
  name: "scale5"
  type: "Scale"
  bottom: "conv5"
  top: "conv5"
  scale_param {
    bias_term: true
  }
}
layer {
  name: "relu5"
  type: "ReLU"
  bottom: "conv5"
  top: "conv5"
}
layer {
  name: "pool5"
  type: "Pooling"
  bottom: "conv5"
  top: "pool5"
  pooling_param {
    pool: MAX
    kernel_size: 3
    stride: 2
  }
}
layer {
  name: "fc6"
  type: "QuanInnerProduct"
  bottom: "pool5"
  top: "fc6"
  param {
    lr_mult: 1
    decay_mult: 1
  }
  param {
    lr_mult: 2
    decay_mult: 0
  }
  quan_inner_product_param {
    num_output: 4096
    weight_filler {
      type: "gaussian"
      std: 0.005
    }
    bias_filler {
      type: "constant"
      value: 0.1
    }
    bit_width: 16
    range_low: -0.160061
    range_high: 0.148064
  }
}
layer {
  name: "bn6"
  type: "BatchNorm"
  bottom: "fc6"
  top: "fc6"
}
layer {
  name: "scale6"
  type: "Scale"
  bottom: "fc6"
  top: "fc6"
  scale_param {
    bias_term: true
  }
}
layer {
  name: "relu6"
  type: "ReLU"
  bottom: "fc6"
  top: "fc6"
}
layer {
  name: "drop6"
  type: "Dropout"
  bottom: "fc6"
  top: "fc6"
  dropout_param {
    dropout_ratio: 0.5
  }
}
layer {
  name: "fc7"
  type: "QuanInnerProduct"
  bottom: "fc6"
  top: "fc7"
  param {
    lr_mult: 1
    decay_mult: 1
  }
  param {
    lr_mult: 2
    decay_mult: 0
  }
  quan_inner_product_param {
    num_output: 4096
    weight_filler {
      type: "gaussian"
      std: 0.005
    }
    bias_filler {
      type: "constant"
      value: 0.1
    }
    bit_width: 16
    range_low: -0.162636
    range_high: 0.197684
  }
}
layer {
  name: "bn7"
  type: "BatchNorm"
  bottom: "fc7"
  top: "fc7"
}
layer {
  name: "scale7"
  type: "Scale"
  bottom: "fc7"
  top: "fc7"
  scale_param {
    bias_term: true
  }
}
layer {
  name: "relu7"
  type: "ReLU"
  bottom: "fc7"
  top: "fc7"
}
layer {
  name: "drop7"
  type: "Dropout"
  bottom: "fc7"
  top: "fc7"
  dropout_param {
    dropout_ratio: 0.5
  }
}
layer {
  name: "fc8"
  type: "QuanInnerProduct"
  bottom: "fc7"
  top: "fc8"
  param {
    lr_mult: 1
    decay_mult: 1
  }
  param {
    lr_mult: 2
    decay_mult: 0
  }
  quan_inner_product_param {
    num_output: 1000
    weight_filler {
      type: "gaussian"
      std: 0.01
    }
    bias_filler {
      type: "constant"
      value: 0
    }
    bit_width: 16
    range_low: -0.141857
    range_high: 0.274249
  }
}
layer {
  name: "accuracy"
  type: "Accuracy"
  bottom: "fc8"
  bottom: "label"
  top: "accuracy"
  include {
    phase: TEST
  }
}
layer {
  name: "accuracy_5"
  type: "Accuracy"
  bottom: "fc8"
  bottom: "label"
  top: "accuracy_5"
  include {
    phase: TEST
  }
  accuracy_param {
    top_k: 5
  }
}
layer {
  name: "loss"
  type: "SoftmaxWithLoss"
  bottom: "fc8"
  bottom: "label"
  top: "loss"
}
I0102 10:40:25.486351 42534 layer_factory.hpp:77] Creating layer data
I0102 10:40:25.486483 42534 db_lmdb.cpp:35] Opened lmdb /home/ydwu/database/imagenet/ilsvrc12/lmdb_resize/ilsvrc12_val_lmdb
I0102 10:40:25.486526 42534 net.cpp:84] Creating Layer data
I0102 10:40:25.486546 42534 net.cpp:380] data -> data
I0102 10:40:25.486584 42534 net.cpp:380] data -> label
I0102 10:40:25.509551 42534 data_layer.cpp:45] output data size: 200,3,224,224
I0102 10:40:25.883420 42534 net.cpp:122] Setting up data
I0102 10:40:25.883474 42534 net.cpp:129] Top shape: 200 3 224 224 (30105600)
I0102 10:40:25.883489 42534 net.cpp:129] Top shape: 200 (200)
I0102 10:40:25.883499 42534 net.cpp:137] Memory required for data: 120423200
I0102 10:40:25.883517 42534 layer_factory.hpp:77] Creating layer label_data_1_split
I0102 10:40:25.883545 42534 net.cpp:84] Creating Layer label_data_1_split
I0102 10:40:25.883597 42534 net.cpp:406] label_data_1_split <- label
I0102 10:40:25.883623 42534 net.cpp:380] label_data_1_split -> label_data_1_split_0
I0102 10:40:25.883644 42534 net.cpp:380] label_data_1_split -> label_data_1_split_1
I0102 10:40:25.883657 42534 net.cpp:380] label_data_1_split -> label_data_1_split_2
I0102 10:40:25.883728 42534 net.cpp:122] Setting up label_data_1_split
I0102 10:40:25.883745 42534 net.cpp:129] Top shape: 200 (200)
I0102 10:40:25.883756 42534 net.cpp:129] Top shape: 200 (200)
I0102 10:40:25.883765 42534 net.cpp:129] Top shape: 200 (200)
I0102 10:40:25.883774 42534 net.cpp:137] Memory required for data: 120425600
I0102 10:40:25.883783 42534 layer_factory.hpp:77] Creating layer conv1
I0102 10:40:25.883813 42534 net.cpp:84] Creating Layer conv1
I0102 10:40:25.883826 42534 net.cpp:406] conv1 <- data
I0102 10:40:25.883839 42534 net.cpp:380] conv1 -> conv1
ydwu=======get:
bit_width=16;  round_method=1;  round_strategy=2;  is_runtime=0;  range_low=-0.872089;  range_high=0.927025
I0102 10:40:25.905006 42534 net.cpp:122] Setting up conv1
I0102 10:40:25.905030 42534 net.cpp:129] Top shape: 200 96 55 55 (58080000)
I0102 10:40:25.905040 42534 net.cpp:137] Memory required for data: 352745600
I0102 10:40:25.905068 42534 layer_factory.hpp:77] Creating layer bn1
I0102 10:40:25.905087 42534 net.cpp:84] Creating Layer bn1
I0102 10:40:25.905098 42534 net.cpp:406] bn1 <- conv1
I0102 10:40:25.905110 42534 net.cpp:367] bn1 -> conv1 (in-place)
I0102 10:40:25.905299 42534 net.cpp:122] Setting up bn1
I0102 10:40:25.905318 42534 net.cpp:129] Top shape: 200 96 55 55 (58080000)
I0102 10:40:25.905326 42534 net.cpp:137] Memory required for data: 585065600
I0102 10:40:25.905344 42534 layer_factory.hpp:77] Creating layer scale1
I0102 10:40:25.905364 42534 net.cpp:84] Creating Layer scale1
I0102 10:40:25.905374 42534 net.cpp:406] scale1 <- conv1
I0102 10:40:25.905385 42534 net.cpp:367] scale1 -> conv1 (in-place)
I0102 10:40:25.905442 42534 layer_factory.hpp:77] Creating layer scale1
I0102 10:40:25.905576 42534 net.cpp:122] Setting up scale1
I0102 10:40:25.905596 42534 net.cpp:129] Top shape: 200 96 55 55 (58080000)
I0102 10:40:25.905606 42534 net.cpp:137] Memory required for data: 817385600
I0102 10:40:25.905619 42534 layer_factory.hpp:77] Creating layer relu1
I0102 10:40:25.905632 42534 net.cpp:84] Creating Layer relu1
I0102 10:40:25.905642 42534 net.cpp:406] relu1 <- conv1
I0102 10:40:25.905653 42534 net.cpp:367] relu1 -> conv1 (in-place)
I0102 10:40:25.905668 42534 net.cpp:122] Setting up relu1
I0102 10:40:25.905680 42534 net.cpp:129] Top shape: 200 96 55 55 (58080000)
I0102 10:40:25.905689 42534 net.cpp:137] Memory required for data: 1049705600
I0102 10:40:25.905699 42534 layer_factory.hpp:77] Creating layer pool1
I0102 10:40:25.905710 42534 net.cpp:84] Creating Layer pool1
I0102 10:40:25.905720 42534 net.cpp:406] pool1 <- conv1
I0102 10:40:25.905732 42534 net.cpp:380] pool1 -> pool1
I0102 10:40:25.905787 42534 net.cpp:122] Setting up pool1
I0102 10:40:25.905804 42534 net.cpp:129] Top shape: 200 96 27 27 (13996800)
I0102 10:40:25.905814 42534 net.cpp:137] Memory required for data: 1105692800
I0102 10:40:25.905823 42534 layer_factory.hpp:77] Creating layer conv2
I0102 10:40:25.905839 42534 net.cpp:84] Creating Layer conv2
I0102 10:40:25.905849 42534 net.cpp:406] conv2 <- pool1
I0102 10:40:25.905863 42534 net.cpp:380] conv2 -> conv2
ydwu=======get:
bit_width=16;  round_method=1;  round_strategy=2;  is_runtime=0;  range_low=-0.806018;  range_high=1.5182
I0102 10:40:25.926753 42534 net.cpp:122] Setting up conv2
I0102 10:40:25.926784 42534 net.cpp:129] Top shape: 200 256 27 27 (37324800)
I0102 10:40:25.926791 42534 net.cpp:137] Memory required for data: 1254992000
I0102 10:40:25.926810 42534 layer_factory.hpp:77] Creating layer bn2
I0102 10:40:25.926826 42534 net.cpp:84] Creating Layer bn2
I0102 10:40:25.926834 42534 net.cpp:406] bn2 <- conv2
I0102 10:40:25.926843 42534 net.cpp:367] bn2 -> conv2 (in-place)
I0102 10:40:25.927104 42534 net.cpp:122] Setting up bn2
I0102 10:40:25.927116 42534 net.cpp:129] Top shape: 200 256 27 27 (37324800)
I0102 10:40:25.927122 42534 net.cpp:137] Memory required for data: 1404291200
I0102 10:40:25.927134 42534 layer_factory.hpp:77] Creating layer scale2
I0102 10:40:25.927147 42534 net.cpp:84] Creating Layer scale2
I0102 10:40:25.927183 42534 net.cpp:406] scale2 <- conv2
I0102 10:40:25.927192 42534 net.cpp:367] scale2 -> conv2 (in-place)
I0102 10:40:25.927253 42534 layer_factory.hpp:77] Creating layer scale2
I0102 10:40:25.927362 42534 net.cpp:122] Setting up scale2
I0102 10:40:25.927374 42534 net.cpp:129] Top shape: 200 256 27 27 (37324800)
I0102 10:40:25.927379 42534 net.cpp:137] Memory required for data: 1553590400
I0102 10:40:25.927388 42534 layer_factory.hpp:77] Creating layer relu2
I0102 10:40:25.927397 42534 net.cpp:84] Creating Layer relu2
I0102 10:40:25.927403 42534 net.cpp:406] relu2 <- conv2
I0102 10:40:25.927413 42534 net.cpp:367] relu2 -> conv2 (in-place)
I0102 10:40:25.927423 42534 net.cpp:122] Setting up relu2
I0102 10:40:25.927429 42534 net.cpp:129] Top shape: 200 256 27 27 (37324800)
I0102 10:40:25.927434 42534 net.cpp:137] Memory required for data: 1702889600
I0102 10:40:25.927440 42534 layer_factory.hpp:77] Creating layer pool2
I0102 10:40:25.927448 42534 net.cpp:84] Creating Layer pool2
I0102 10:40:25.927454 42534 net.cpp:406] pool2 <- conv2
I0102 10:40:25.927464 42534 net.cpp:380] pool2 -> pool2
I0102 10:40:25.927507 42534 net.cpp:122] Setting up pool2
I0102 10:40:25.927518 42534 net.cpp:129] Top shape: 200 256 13 13 (8652800)
I0102 10:40:25.927525 42534 net.cpp:137] Memory required for data: 1737500800
I0102 10:40:25.927531 42534 layer_factory.hpp:77] Creating layer conv3
I0102 10:40:25.927543 42534 net.cpp:84] Creating Layer conv3
I0102 10:40:25.927551 42534 net.cpp:406] conv3 <- pool2
I0102 10:40:25.927561 42534 net.cpp:380] conv3 -> conv3
ydwu=======get:
bit_width=16;  round_method=1;  round_strategy=2;  is_runtime=0;  range_low=-0.621858;  range_high=0.673858
I0102 10:40:25.955862 42534 net.cpp:122] Setting up conv3
I0102 10:40:25.955886 42534 net.cpp:129] Top shape: 200 384 13 13 (12979200)
I0102 10:40:25.955895 42534 net.cpp:137] Memory required for data: 1789417600
I0102 10:40:25.955909 42534 layer_factory.hpp:77] Creating layer bn3
I0102 10:40:25.955924 42534 net.cpp:84] Creating Layer bn3
I0102 10:40:25.955935 42534 net.cpp:406] bn3 <- conv3
I0102 10:40:25.955955 42534 net.cpp:367] bn3 -> conv3 (in-place)
I0102 10:40:25.956130 42534 net.cpp:122] Setting up bn3
I0102 10:40:25.956147 42534 net.cpp:129] Top shape: 200 384 13 13 (12979200)
I0102 10:40:25.956156 42534 net.cpp:137] Memory required for data: 1841334400
I0102 10:40:25.956176 42534 layer_factory.hpp:77] Creating layer scale3
I0102 10:40:25.956190 42534 net.cpp:84] Creating Layer scale3
I0102 10:40:25.956200 42534 net.cpp:406] scale3 <- conv3
I0102 10:40:25.956212 42534 net.cpp:367] scale3 -> conv3 (in-place)
I0102 10:40:25.956259 42534 layer_factory.hpp:77] Creating layer scale3
I0102 10:40:25.956377 42534 net.cpp:122] Setting up scale3
I0102 10:40:25.956394 42534 net.cpp:129] Top shape: 200 384 13 13 (12979200)
I0102 10:40:25.956403 42534 net.cpp:137] Memory required for data: 1893251200
I0102 10:40:25.956415 42534 layer_factory.hpp:77] Creating layer relu3
I0102 10:40:25.956430 42534 net.cpp:84] Creating Layer relu3
I0102 10:40:25.956440 42534 net.cpp:406] relu3 <- conv3
I0102 10:40:25.956450 42534 net.cpp:367] relu3 -> conv3 (in-place)
I0102 10:40:25.956462 42534 net.cpp:122] Setting up relu3
I0102 10:40:25.956473 42534 net.cpp:129] Top shape: 200 384 13 13 (12979200)
I0102 10:40:25.956481 42534 net.cpp:137] Memory required for data: 1945168000
I0102 10:40:25.956490 42534 layer_factory.hpp:77] Creating layer conv4
I0102 10:40:25.956511 42534 net.cpp:84] Creating Layer conv4
I0102 10:40:25.956521 42534 net.cpp:406] conv4 <- conv3
I0102 10:40:25.956542 42534 net.cpp:380] conv4 -> conv4
ydwu=======get:
bit_width=16;  round_method=1;  round_strategy=2;  is_runtime=0;  range_low=-0.376634;  range_high=0.341829
I0102 10:40:25.998353 42534 net.cpp:122] Setting up conv4
I0102 10:40:25.998378 42534 net.cpp:129] Top shape: 200 384 13 13 (12979200)
I0102 10:40:25.998387 42534 net.cpp:137] Memory required for data: 1997084800
I0102 10:40:25.998401 42534 layer_factory.hpp:77] Creating layer bn4
I0102 10:40:25.998420 42534 net.cpp:84] Creating Layer bn4
I0102 10:40:25.998431 42534 net.cpp:406] bn4 <- conv4
I0102 10:40:25.998446 42534 net.cpp:367] bn4 -> conv4 (in-place)
I0102 10:40:25.998631 42534 net.cpp:122] Setting up bn4
I0102 10:40:25.998648 42534 net.cpp:129] Top shape: 200 384 13 13 (12979200)
I0102 10:40:25.998693 42534 net.cpp:137] Memory required for data: 2049001600
I0102 10:40:25.998709 42534 layer_factory.hpp:77] Creating layer scale4
I0102 10:40:25.998723 42534 net.cpp:84] Creating Layer scale4
I0102 10:40:25.998733 42534 net.cpp:406] scale4 <- conv4
I0102 10:40:25.998747 42534 net.cpp:367] scale4 -> conv4 (in-place)
I0102 10:40:25.998795 42534 layer_factory.hpp:77] Creating layer scale4
I0102 10:40:25.998913 42534 net.cpp:122] Setting up scale4
I0102 10:40:25.998932 42534 net.cpp:129] Top shape: 200 384 13 13 (12979200)
I0102 10:40:25.998941 42534 net.cpp:137] Memory required for data: 2100918400
I0102 10:40:25.998953 42534 layer_factory.hpp:77] Creating layer relu4
I0102 10:40:25.999023 42534 net.cpp:84] Creating Layer relu4
I0102 10:40:25.999033 42534 net.cpp:406] relu4 <- conv4
I0102 10:40:25.999043 42534 net.cpp:367] relu4 -> conv4 (in-place)
I0102 10:40:25.999055 42534 net.cpp:122] Setting up relu4
I0102 10:40:25.999066 42534 net.cpp:129] Top shape: 200 384 13 13 (12979200)
I0102 10:40:25.999074 42534 net.cpp:137] Memory required for data: 2152835200
I0102 10:40:25.999083 42534 layer_factory.hpp:77] Creating layer conv5
I0102 10:40:25.999100 42534 net.cpp:84] Creating Layer conv5
I0102 10:40:25.999111 42534 net.cpp:406] conv5 <- conv4
I0102 10:40:25.999126 42534 net.cpp:380] conv5 -> conv5
ydwu=======get:
bit_width=16;  round_method=1;  round_strategy=2;  is_runtime=0;  range_low=-0.347658;  range_high=0.330042
I0102 10:40:26.027341 42534 net.cpp:122] Setting up conv5
I0102 10:40:26.027369 42534 net.cpp:129] Top shape: 200 256 13 13 (8652800)
I0102 10:40:26.027377 42534 net.cpp:137] Memory required for data: 2187446400
I0102 10:40:26.027390 42534 layer_factory.hpp:77] Creating layer bn5
I0102 10:40:26.027403 42534 net.cpp:84] Creating Layer bn5
I0102 10:40:26.027412 42534 net.cpp:406] bn5 <- conv5
I0102 10:40:26.027424 42534 net.cpp:367] bn5 -> conv5 (in-place)
I0102 10:40:26.027611 42534 net.cpp:122] Setting up bn5
I0102 10:40:26.027627 42534 net.cpp:129] Top shape: 200 256 13 13 (8652800)
I0102 10:40:26.027637 42534 net.cpp:137] Memory required for data: 2222057600
I0102 10:40:26.027657 42534 layer_factory.hpp:77] Creating layer scale5
I0102 10:40:26.027669 42534 net.cpp:84] Creating Layer scale5
I0102 10:40:26.027679 42534 net.cpp:406] scale5 <- conv5
I0102 10:40:26.027693 42534 net.cpp:367] scale5 -> conv5 (in-place)
I0102 10:40:26.027743 42534 layer_factory.hpp:77] Creating layer scale5
I0102 10:40:26.027856 42534 net.cpp:122] Setting up scale5
I0102 10:40:26.027875 42534 net.cpp:129] Top shape: 200 256 13 13 (8652800)
I0102 10:40:26.027885 42534 net.cpp:137] Memory required for data: 2256668800
I0102 10:40:26.027897 42534 layer_factory.hpp:77] Creating layer relu5
I0102 10:40:26.027909 42534 net.cpp:84] Creating Layer relu5
I0102 10:40:26.027918 42534 net.cpp:406] relu5 <- conv5
I0102 10:40:26.027928 42534 net.cpp:367] relu5 -> conv5 (in-place)
I0102 10:40:26.027940 42534 net.cpp:122] Setting up relu5
I0102 10:40:26.027951 42534 net.cpp:129] Top shape: 200 256 13 13 (8652800)
I0102 10:40:26.027958 42534 net.cpp:137] Memory required for data: 2291280000
I0102 10:40:26.027967 42534 layer_factory.hpp:77] Creating layer pool5
I0102 10:40:26.027979 42534 net.cpp:84] Creating Layer pool5
I0102 10:40:26.027988 42534 net.cpp:406] pool5 <- conv5
I0102 10:40:26.028003 42534 net.cpp:380] pool5 -> pool5
I0102 10:40:26.028048 42534 net.cpp:122] Setting up pool5
I0102 10:40:26.028064 42534 net.cpp:129] Top shape: 200 256 6 6 (1843200)
I0102 10:40:26.028072 42534 net.cpp:137] Memory required for data: 2298652800
I0102 10:40:26.028081 42534 layer_factory.hpp:77] Creating layer fc6
I0102 10:40:26.028105 42534 net.cpp:84] Creating Layer fc6
I0102 10:40:26.028115 42534 net.cpp:406] fc6 <- pool5
I0102 10:40:26.028126 42534 net.cpp:380] fc6 -> fc6
I0102 10:40:26.028146 42534 quan_inner_product_layer.cpp:21] 4096   4096
ydwu=======get:
bit_width=16;  round_method=1;  round_strategy=2;  is_runtime=0;  range_low=-0.160061;  range_high=0.148064
I0102 10:40:27.170655 42534 net.cpp:122] Setting up fc6
I0102 10:40:27.170693 42534 net.cpp:129] Top shape: 200 4096 (819200)
I0102 10:40:27.170702 42534 net.cpp:137] Memory required for data: 2301929600
I0102 10:40:27.170719 42534 layer_factory.hpp:77] Creating layer bn6
I0102 10:40:27.170739 42534 net.cpp:84] Creating Layer bn6
I0102 10:40:27.170789 42534 net.cpp:406] bn6 <- fc6
I0102 10:40:27.170807 42534 net.cpp:367] bn6 -> fc6 (in-place)
I0102 10:40:27.171011 42534 net.cpp:122] Setting up bn6
I0102 10:40:27.171048 42534 net.cpp:129] Top shape: 200 4096 (819200)
I0102 10:40:27.171067 42534 net.cpp:137] Memory required for data: 2305206400
I0102 10:40:27.171088 42534 layer_factory.hpp:77] Creating layer scale6
I0102 10:40:27.171106 42534 net.cpp:84] Creating Layer scale6
I0102 10:40:27.171115 42534 net.cpp:406] scale6 <- fc6
I0102 10:40:27.171126 42534 net.cpp:367] scale6 -> fc6 (in-place)
I0102 10:40:27.171180 42534 layer_factory.hpp:77] Creating layer scale6
I0102 10:40:27.171305 42534 net.cpp:122] Setting up scale6
I0102 10:40:27.171321 42534 net.cpp:129] Top shape: 200 4096 (819200)
I0102 10:40:27.171330 42534 net.cpp:137] Memory required for data: 2308483200
I0102 10:40:27.171341 42534 layer_factory.hpp:77] Creating layer relu6
I0102 10:40:27.171353 42534 net.cpp:84] Creating Layer relu6
I0102 10:40:27.171362 42534 net.cpp:406] relu6 <- fc6
I0102 10:40:27.171372 42534 net.cpp:367] relu6 -> fc6 (in-place)
I0102 10:40:27.171383 42534 net.cpp:122] Setting up relu6
I0102 10:40:27.171392 42534 net.cpp:129] Top shape: 200 4096 (819200)
I0102 10:40:27.171401 42534 net.cpp:137] Memory required for data: 2311760000
I0102 10:40:27.171408 42534 layer_factory.hpp:77] Creating layer drop6
I0102 10:40:27.171427 42534 net.cpp:84] Creating Layer drop6
I0102 10:40:27.171437 42534 net.cpp:406] drop6 <- fc6
I0102 10:40:27.171447 42534 net.cpp:367] drop6 -> fc6 (in-place)
I0102 10:40:27.171489 42534 net.cpp:122] Setting up drop6
I0102 10:40:27.171504 42534 net.cpp:129] Top shape: 200 4096 (819200)
I0102 10:40:27.171511 42534 net.cpp:137] Memory required for data: 2315036800
I0102 10:40:27.171520 42534 layer_factory.hpp:77] Creating layer fc7
I0102 10:40:27.171533 42534 net.cpp:84] Creating Layer fc7
I0102 10:40:27.171542 42534 net.cpp:406] fc7 <- fc6
I0102 10:40:27.171555 42534 net.cpp:380] fc7 -> fc7
I0102 10:40:27.171571 42534 quan_inner_product_layer.cpp:21] 4096   4096
ydwu=======get:
bit_width=16;  round_method=1;  round_strategy=2;  is_runtime=0;  range_low=-0.162636;  range_high=0.197684
I0102 10:40:27.659669 42534 net.cpp:122] Setting up fc7
I0102 10:40:27.659710 42534 net.cpp:129] Top shape: 200 4096 (819200)
I0102 10:40:27.659720 42534 net.cpp:137] Memory required for data: 2318313600
I0102 10:40:27.659736 42534 layer_factory.hpp:77] Creating layer bn7
I0102 10:40:27.659757 42534 net.cpp:84] Creating Layer bn7
I0102 10:40:27.659768 42534 net.cpp:406] bn7 <- fc7
I0102 10:40:27.659782 42534 net.cpp:367] bn7 -> fc7 (in-place)
I0102 10:40:27.659971 42534 net.cpp:122] Setting up bn7
I0102 10:40:27.659987 42534 net.cpp:129] Top shape: 200 4096 (819200)
I0102 10:40:27.659996 42534 net.cpp:137] Memory required for data: 2321590400
I0102 10:40:27.660012 42534 layer_factory.hpp:77] Creating layer scale7
I0102 10:40:27.660032 42534 net.cpp:84] Creating Layer scale7
I0102 10:40:27.660042 42534 net.cpp:406] scale7 <- fc7
I0102 10:40:27.660053 42534 net.cpp:367] scale7 -> fc7 (in-place)
I0102 10:40:27.660104 42534 layer_factory.hpp:77] Creating layer scale7
I0102 10:40:27.660229 42534 net.cpp:122] Setting up scale7
I0102 10:40:27.660245 42534 net.cpp:129] Top shape: 200 4096 (819200)
I0102 10:40:27.660254 42534 net.cpp:137] Memory required for data: 2324867200
I0102 10:40:27.660265 42534 layer_factory.hpp:77] Creating layer relu7
I0102 10:40:27.660277 42534 net.cpp:84] Creating Layer relu7
I0102 10:40:27.660286 42534 net.cpp:406] relu7 <- fc7
I0102 10:40:27.660303 42534 net.cpp:367] relu7 -> fc7 (in-place)
I0102 10:40:27.660315 42534 net.cpp:122] Setting up relu7
I0102 10:40:27.660326 42534 net.cpp:129] Top shape: 200 4096 (819200)
I0102 10:40:27.660333 42534 net.cpp:137] Memory required for data: 2328144000
I0102 10:40:27.660341 42534 layer_factory.hpp:77] Creating layer drop7
I0102 10:40:27.660354 42534 net.cpp:84] Creating Layer drop7
I0102 10:40:27.660362 42534 net.cpp:406] drop7 <- fc7
I0102 10:40:27.660372 42534 net.cpp:367] drop7 -> fc7 (in-place)
I0102 10:40:27.660404 42534 net.cpp:122] Setting up drop7
I0102 10:40:27.660419 42534 net.cpp:129] Top shape: 200 4096 (819200)
I0102 10:40:27.660466 42534 net.cpp:137] Memory required for data: 2331420800
I0102 10:40:27.660475 42534 layer_factory.hpp:77] Creating layer fc8
I0102 10:40:27.660490 42534 net.cpp:84] Creating Layer fc8
I0102 10:40:27.660500 42534 net.cpp:406] fc8 <- fc7
I0102 10:40:27.660511 42534 net.cpp:380] fc8 -> fc8
I0102 10:40:27.660524 42534 quan_inner_product_layer.cpp:21] 1000   1000
ydwu=======get:
bit_width=16;  round_method=1;  round_strategy=2;  is_runtime=0;  range_low=-0.141857;  range_high=0.274249
I0102 10:40:27.780431 42534 net.cpp:122] Setting up fc8
I0102 10:40:27.780470 42534 net.cpp:129] Top shape: 200 1000 (200000)
I0102 10:40:27.780479 42534 net.cpp:137] Memory required for data: 2332220800
I0102 10:40:27.780495 42534 layer_factory.hpp:77] Creating layer fc8_fc8_0_split
I0102 10:40:27.780513 42534 net.cpp:84] Creating Layer fc8_fc8_0_split
I0102 10:40:27.780524 42534 net.cpp:406] fc8_fc8_0_split <- fc8
I0102 10:40:27.780540 42534 net.cpp:380] fc8_fc8_0_split -> fc8_fc8_0_split_0
I0102 10:40:27.780561 42534 net.cpp:380] fc8_fc8_0_split -> fc8_fc8_0_split_1
I0102 10:40:27.780576 42534 net.cpp:380] fc8_fc8_0_split -> fc8_fc8_0_split_2
I0102 10:40:27.780638 42534 net.cpp:122] Setting up fc8_fc8_0_split
I0102 10:40:27.780654 42534 net.cpp:129] Top shape: 200 1000 (200000)
I0102 10:40:27.780663 42534 net.cpp:129] Top shape: 200 1000 (200000)
I0102 10:40:27.780673 42534 net.cpp:129] Top shape: 200 1000 (200000)
I0102 10:40:27.780680 42534 net.cpp:137] Memory required for data: 2334620800
I0102 10:40:27.780689 42534 layer_factory.hpp:77] Creating layer accuracy
I0102 10:40:27.780709 42534 net.cpp:84] Creating Layer accuracy
I0102 10:40:27.780719 42534 net.cpp:406] accuracy <- fc8_fc8_0_split_0
I0102 10:40:27.780728 42534 net.cpp:406] accuracy <- label_data_1_split_0
I0102 10:40:27.780742 42534 net.cpp:380] accuracy -> accuracy
…
