…
I0105 15:34:04.087608 36513 net.cpp:294] The NetState phase (0) differed from the phase (1) specified by a rule in layer accuracy_5
I0105 15:34:04.087827 36513 net.cpp:51] Initializing net from parameters: 
name: "AlexNet-BN"
state {
  phase: TRAIN
  level: 0
  stage: ""
}
layer {
  name: "data"
  type: "Data"
  top: "data"
  top: "label"
  include {
    phase: TRAIN
  }
  transform_param {
    mirror: true
    crop_size: 224
    mean_value: 103.939
    mean_value: 116.779
    mean_value: 123.68
  }
  data_param {
    source: "/mllib/imagenet/ilsvrc12/lmdb_resize/ilsvrc12_train_lmdb"
    batch_size: 256
    backend: LMDB
  }
}
layer {
  name: "conv1"
  type: "Convolution"
  bottom: "data"
  top: "conv1"
  param {
    lr_mult: 1
    decay_mult: 1
  }
  param {
    lr_mult: 2
    decay_mult: 0
  }
  convolution_param {
    num_output: 96
    pad: 2
    kernel_size: 11
    stride: 4
    weight_filler {
      type: "gaussian"
      std: 0.01
    }
    bias_filler {
      type: "constant"
      value: 0
    }
  }
}
layer {
  name: "bn1"
  type: "BatchNorm"
  bottom: "conv1"
  top: "conv1"
}
layer {
  name: "scale1"
  type: "Scale"
  bottom: "conv1"
  top: "conv1"
  scale_param {
    bias_term: true
  }
}
layer {
  name: "relu1"
  type: "ReLU"
  bottom: "conv1"
  top: "conv1"
}
layer {
  name: "pool1"
  type: "Pooling"
  bottom: "conv1"
  top: "pool1"
  pooling_param {
    pool: MAX
    kernel_size: 3
    stride: 2
  }
}
layer {
  name: "conv2"
  type: "Convolution"
  bottom: "pool1"
  top: "conv2"
  param {
    lr_mult: 1
    decay_mult: 1
  }
  param {
    lr_mult: 2
    decay_mult: 0
  }
  convolution_param {
    num_output: 256
    pad: 2
    kernel_size: 5
    weight_filler {
      type: "gaussian"
      std: 0.01
    }
    bias_filler {
      type: "constant"
      value: 0.1
    }
  }
}
layer {
  name: "bn2"
  type: "BatchNorm"
  bottom: "conv2"
  top: "conv2"
}
layer {
  name: "scale2"
  type: "Scale"
  bottom: "conv2"
  top: "conv2"
  scale_param {
    bias_term: true
  }
}
layer {
  name: "relu2"
  type: "ReLU"
  bottom: "conv2"
  top: "conv2"
}
layer {
  name: "pool2"
  type: "Pooling"
  bottom: "conv2"
  top: "pool2"
  pooling_param {
    pool: MAX
    kernel_size: 3
    stride: 2
  }
}
layer {
  name: "conv3"
  type: "Convolution"
  bottom: "pool2"
  top: "conv3"
  param {
    lr_mult: 1
    decay_mult: 1
  }
  param {
    lr_mult: 2
    decay_mult: 0
  }
  convolution_param {
    num_output: 384
    pad: 1
    kernel_size: 3
    weight_filler {
      type: "gaussian"
      std: 0.01
    }
    bias_filler {
      type: "constant"
      value: 0
    }
  }
}
layer {
  name: "bn3"
  type: "BatchNorm"
  bottom: "conv3"
  top: "conv3"
}
layer {
  name: "scale3"
  type: "Scale"
  bottom: "conv3"
  top: "conv3"
  scale_param {
    bias_term: true
  }
}
layer {
  name: "relu3"
  type: "ReLU"
  bottom: "conv3"
  top: "conv3"
}
layer {
  name: "conv4"
  type: "Convolution"
  bottom: "conv3"
  top: "conv4"
  param {
    lr_mult: 1
    decay_mult: 1
  }
  param {
    lr_mult: 2
    decay_mult: 0
  }
  convolution_param {
    num_output: 384
    pad: 1
    kernel_size: 3
    weight_filler {
      type: "gaussian"
      std: 0.01
    }
    bias_filler {
      type: "constant"
      value: 0.1
    }
  }
}
layer {
  name: "bn4"
  type: "BatchNorm"
  bottom: "conv4"
  top: "conv4"
}
layer {
  name: "scale4"
  type: "Scale"
  bottom: "conv4"
  top: "conv4"
  scale_param {
    bias_term: true
  }
}
layer {
  name: "relu4"
  type: "ReLU"
  bottom: "conv4"
  top: "conv4"
}
layer {
  name: "conv5"
  type: "Convolution"
  bottom: "conv4"
  top: "conv5"
  param {
    lr_mult: 1
    decay_mult: 1
  }
  param {
    lr_mult: 2
    decay_mult: 0
  }
  convolution_param {
    num_output: 256
    pad: 1
    kernel_size: 3
    weight_filler {
      type: "gaussian"
      std: 0.01
    }
    bias_filler {
      type: "constant"
      value: 0.1
    }
  }
}
layer {
  name: "bn5"
  type: "BatchNorm"
  bottom: "conv5"
  top: "conv5"
}
layer {
  name: "scale5"
  type: "Scale"
  bottom: "conv5"
  top: "conv5"
  scale_param {
    bias_term: true
  }
}
layer {
  name: "relu5"
  type: "ReLU"
  bottom: "conv5"
  top: "conv5"
}
layer {
  name: "pool5"
  type: "Pooling"
  bottom: "conv5"
  top: "pool5"
  pooling_param {
    pool: MAX
    kernel_size: 3
    stride: 2
  }
}
layer {
  name: "fc6"
  type: "InnerProduct"
  bottom: "pool5"
  top: "fc6"
  param {
    lr_mult: 1
    decay_mult: 1
  }
  param {
    lr_mult: 2
    decay_mult: 0
  }
  inner_product_param {
    num_output: 4096
    weight_filler {
      type: "gaussian"
      std: 0.005
    }
    bias_filler {
      type: "constant"
      value: 0.1
    }
  }
}
layer {
  name: "bn6"
  type: "BatchNorm"
  bottom: "fc6"
  top: "fc6"
}
layer {
  name: "scale6"
  type: "Scale"
  bottom: "fc6"
  top: "fc6"
  scale_param {
    bias_term: true
  }
}
layer {
  name: "relu6"
  type: "ReLU"
  bottom: "fc6"
  top: "fc6"
}
layer {
  name: "drop6"
  type: "Dropout"
  bottom: "fc6"
  top: "fc6"
  dropout_param {
    dropout_ratio: 0.5
  }
}
layer {
  name: "fc7"
  type: "InnerProduct"
  bottom: "fc6"
  top: "fc7"
  param {
    lr_mult: 1
    decay_mult: 1
  }
  param {
    lr_mult: 2
    decay_mult: 0
  }
  inner_product_param {
    num_output: 4096
    weight_filler {
      type: "gaussian"
      std: 0.005
    }
    bias_filler {
      type: "constant"
      value: 0.1
    }
  }
}
layer {
  name: "bn7"
  type: "BatchNorm"
  bottom: "fc7"
  top: "fc7"
}
layer {
  name: "scale7"
  type: "Scale"
  bottom: "fc7"
  top: "fc7"
  scale_param {
    bias_term: true
  }
}
layer {
  name: "relu7"
  type: "ReLU"
  bottom: "fc7"
  top: "fc7"
}
layer {
  name: "drop7"
  type: "Dropout"
  bottom: "fc7"
  top: "fc7"
  dropout_param {
    dropout_ratio: 0.5
  }
}
layer {
  name: "fc8"
  type: "InnerProduct"
  bottom: "fc7"
  top: "fc8"
  param {
    lr_mult: 1
    decay_mult: 1
  }
  param {
    lr_mult: 2
    decay_mult: 0
  }
  inner_product_param {
    num_output: 1000
    weight_filler {
      type: "gaussian"
      std: 0.01
    }
    bias_filler {
      type: "constant"
      value: 0
    }
  }
}
layer {
  name: "accuracy_5_TRAIN"
  type: "Accuracy"
  bottom: "fc8"
  bottom: "label"
  top: "accuracy_5_TRAIN"
  include {
    phase: TRAIN
  }
  accuracy_param {
    top_k: 5
  }
}
layer {
  name: "loss"
  type: "SoftmaxWithLoss"
  bottom: "fc8"
  bottom: "label"
  top: "loss"
}
I0105 15:34:04.088057 36513 layer_factory.hpp:77] Creating layer data
I0105 15:34:04.088193 36513 db_lmdb.cpp:35] Opened lmdb /mllib/imagenet/ilsvrc12/lmdb_resize/ilsvrc12_train_lmdb
I0105 15:34:04.088240 36513 net.cpp:84] Creating Layer data
I0105 15:34:04.088261 36513 net.cpp:380] data -> data
I0105 15:34:04.088297 36513 net.cpp:380] data -> label
I0105 15:34:04.090102 36513 data_layer.cpp:45] output data size: 256,3,224,224
I0105 15:34:04.543045 36513 net.cpp:122] Setting up data
I0105 15:34:04.543145 36513 net.cpp:129] Top shape: 256 3 224 224 (38535168)
I0105 15:34:04.543160 36513 net.cpp:129] Top shape: 256 (256)
I0105 15:34:04.543170 36513 net.cpp:137] Memory required for data: 154141696
I0105 15:34:04.543187 36513 layer_factory.hpp:77] Creating layer label_data_1_split
I0105 15:34:04.543212 36513 net.cpp:84] Creating Layer label_data_1_split
I0105 15:34:04.543226 36513 net.cpp:406] label_data_1_split <- label
I0105 15:34:04.543290 36513 net.cpp:380] label_data_1_split -> label_data_1_split_0
I0105 15:34:04.543313 36513 net.cpp:380] label_data_1_split -> label_data_1_split_1
I0105 15:34:04.543368 36513 net.cpp:122] Setting up label_data_1_split
I0105 15:34:04.543385 36513 net.cpp:129] Top shape: 256 (256)
I0105 15:34:04.543395 36513 net.cpp:129] Top shape: 256 (256)
I0105 15:34:04.543403 36513 net.cpp:137] Memory required for data: 154143744
I0105 15:34:04.543411 36513 layer_factory.hpp:77] Creating layer conv1
I0105 15:34:04.543442 36513 net.cpp:84] Creating Layer conv1
I0105 15:34:04.543453 36513 net.cpp:406] conv1 <- data
I0105 15:34:04.543467 36513 net.cpp:380] conv1 -> conv1
I0105 15:34:04.569509 36513 net.cpp:122] Setting up conv1
I0105 15:34:04.569530 36513 net.cpp:129] Top shape: 256 96 55 55 (74342400)
I0105 15:34:04.569540 36513 net.cpp:137] Memory required for data: 451513344
I0105 15:34:04.569564 36513 layer_factory.hpp:77] Creating layer bn1
I0105 15:34:04.569582 36513 net.cpp:84] Creating Layer bn1
I0105 15:34:04.569593 36513 net.cpp:406] bn1 <- conv1
I0105 15:34:04.569605 36513 net.cpp:367] bn1 -> conv1 (in-place)
I0105 15:34:04.569798 36513 net.cpp:122] Setting up bn1
I0105 15:34:04.569816 36513 net.cpp:129] Top shape: 256 96 55 55 (74342400)
I0105 15:34:04.569825 36513 net.cpp:137] Memory required for data: 748882944
I0105 15:34:04.569842 36513 layer_factory.hpp:77] Creating layer scale1
I0105 15:34:04.569859 36513 net.cpp:84] Creating Layer scale1
I0105 15:34:04.569869 36513 net.cpp:406] scale1 <- conv1
I0105 15:34:04.569880 36513 net.cpp:367] scale1 -> conv1 (in-place)
I0105 15:34:04.569932 36513 layer_factory.hpp:77] Creating layer scale1
I0105 15:34:04.570065 36513 net.cpp:122] Setting up scale1
I0105 15:34:04.570082 36513 net.cpp:129] Top shape: 256 96 55 55 (74342400)
I0105 15:34:04.570091 36513 net.cpp:137] Memory required for data: 1046252544
I0105 15:34:04.570103 36513 layer_factory.hpp:77] Creating layer relu1
I0105 15:34:04.570119 36513 net.cpp:84] Creating Layer relu1
I0105 15:34:04.570129 36513 net.cpp:406] relu1 <- conv1
I0105 15:34:04.570140 36513 net.cpp:367] relu1 -> conv1 (in-place)
I0105 15:34:04.570153 36513 net.cpp:122] Setting up relu1
I0105 15:34:04.570165 36513 net.cpp:129] Top shape: 256 96 55 55 (74342400)
I0105 15:34:04.570174 36513 net.cpp:137] Memory required for data: 1343622144
I0105 15:34:04.570183 36513 layer_factory.hpp:77] Creating layer pool1
I0105 15:34:04.570196 36513 net.cpp:84] Creating Layer pool1
I0105 15:34:04.570205 36513 net.cpp:406] pool1 <- conv1
I0105 15:34:04.570216 36513 net.cpp:380] pool1 -> pool1
I0105 15:34:04.570273 36513 net.cpp:122] Setting up pool1
I0105 15:34:04.570291 36513 net.cpp:129] Top shape: 256 96 27 27 (17915904)
I0105 15:34:04.570299 36513 net.cpp:137] Memory required for data: 1415285760
I0105 15:34:04.570308 36513 layer_factory.hpp:77] Creating layer conv2
I0105 15:34:04.570324 36513 net.cpp:84] Creating Layer conv2
I0105 15:34:04.570335 36513 net.cpp:406] conv2 <- pool1
I0105 15:34:04.570348 36513 net.cpp:380] conv2 -> conv2
I0105 15:34:04.590868 36513 net.cpp:122] Setting up conv2
I0105 15:34:04.590901 36513 net.cpp:129] Top shape: 256 256 27 27 (47775744)
I0105 15:34:04.590912 36513 net.cpp:137] Memory required for data: 1606388736
I0105 15:34:04.590929 36513 layer_factory.hpp:77] Creating layer bn2
I0105 15:34:04.590947 36513 net.cpp:84] Creating Layer bn2
I0105 15:34:04.590963 36513 net.cpp:406] bn2 <- conv2
I0105 15:34:04.590977 36513 net.cpp:367] bn2 -> conv2 (in-place)
I0105 15:34:04.591147 36513 net.cpp:122] Setting up bn2
I0105 15:34:04.591164 36513 net.cpp:129] Top shape: 256 256 27 27 (47775744)
I0105 15:34:04.591173 36513 net.cpp:137] Memory required for data: 1797491712
I0105 15:34:04.591187 36513 layer_factory.hpp:77] Creating layer scale2
I0105 15:34:04.591200 36513 net.cpp:84] Creating Layer scale2
I0105 15:34:04.591210 36513 net.cpp:406] scale2 <- conv2
I0105 15:34:04.591222 36513 net.cpp:367] scale2 -> conv2 (in-place)
I0105 15:34:04.591262 36513 layer_factory.hpp:77] Creating layer scale2
I0105 15:34:04.591364 36513 net.cpp:122] Setting up scale2
I0105 15:34:04.591404 36513 net.cpp:129] Top shape: 256 256 27 27 (47775744)
I0105 15:34:04.591414 36513 net.cpp:137] Memory required for data: 1988594688
I0105 15:34:04.591428 36513 layer_factory.hpp:77] Creating layer relu2
I0105 15:34:04.591440 36513 net.cpp:84] Creating Layer relu2
I0105 15:34:04.591449 36513 net.cpp:406] relu2 <- conv2
I0105 15:34:04.591461 36513 net.cpp:367] relu2 -> conv2 (in-place)
I0105 15:34:04.591473 36513 net.cpp:122] Setting up relu2
I0105 15:34:04.591483 36513 net.cpp:129] Top shape: 256 256 27 27 (47775744)
I0105 15:34:04.591492 36513 net.cpp:137] Memory required for data: 2179697664
I0105 15:34:04.591501 36513 layer_factory.hpp:77] Creating layer pool2
I0105 15:34:04.591512 36513 net.cpp:84] Creating Layer pool2
I0105 15:34:04.591521 36513 net.cpp:406] pool2 <- conv2
I0105 15:34:04.591532 36513 net.cpp:380] pool2 -> pool2
I0105 15:34:04.591576 36513 net.cpp:122] Setting up pool2
I0105 15:34:04.591591 36513 net.cpp:129] Top shape: 256 256 13 13 (11075584)
I0105 15:34:04.591600 36513 net.cpp:137] Memory required for data: 2224000000
I0105 15:34:04.591609 36513 layer_factory.hpp:77] Creating layer conv3
I0105 15:34:04.591625 36513 net.cpp:84] Creating Layer conv3
I0105 15:34:04.591635 36513 net.cpp:406] conv3 <- pool2
I0105 15:34:04.591648 36513 net.cpp:380] conv3 -> conv3
I0105 15:34:04.619405 36513 net.cpp:122] Setting up conv3
I0105 15:34:04.619434 36513 net.cpp:129] Top shape: 256 384 13 13 (16613376)
I0105 15:34:04.619444 36513 net.cpp:137] Memory required for data: 2290453504
I0105 15:34:04.619457 36513 layer_factory.hpp:77] Creating layer bn3
I0105 15:34:04.619470 36513 net.cpp:84] Creating Layer bn3
I0105 15:34:04.619480 36513 net.cpp:406] bn3 <- conv3
I0105 15:34:04.619493 36513 net.cpp:367] bn3 -> conv3 (in-place)
I0105 15:34:04.619658 36513 net.cpp:122] Setting up bn3
I0105 15:34:04.619674 36513 net.cpp:129] Top shape: 256 384 13 13 (16613376)
I0105 15:34:04.619684 36513 net.cpp:137] Memory required for data: 2356907008
I0105 15:34:04.619700 36513 layer_factory.hpp:77] Creating layer scale3
I0105 15:34:04.619715 36513 net.cpp:84] Creating Layer scale3
I0105 15:34:04.619724 36513 net.cpp:406] scale3 <- conv3
I0105 15:34:04.619736 36513 net.cpp:367] scale3 -> conv3 (in-place)
I0105 15:34:04.619773 36513 layer_factory.hpp:77] Creating layer scale3
I0105 15:34:04.619881 36513 net.cpp:122] Setting up scale3
I0105 15:34:04.619899 36513 net.cpp:129] Top shape: 256 384 13 13 (16613376)
I0105 15:34:04.619907 36513 net.cpp:137] Memory required for data: 2423360512
I0105 15:34:04.619920 36513 layer_factory.hpp:77] Creating layer relu3
I0105 15:34:04.619932 36513 net.cpp:84] Creating Layer relu3
I0105 15:34:04.619941 36513 net.cpp:406] relu3 <- conv3
I0105 15:34:04.619952 36513 net.cpp:367] relu3 -> conv3 (in-place)
I0105 15:34:04.619966 36513 net.cpp:122] Setting up relu3
I0105 15:34:04.619977 36513 net.cpp:129] Top shape: 256 384 13 13 (16613376)
I0105 15:34:04.619987 36513 net.cpp:137] Memory required for data: 2489814016
I0105 15:34:04.619995 36513 layer_factory.hpp:77] Creating layer conv4
I0105 15:34:04.620013 36513 net.cpp:84] Creating Layer conv4
I0105 15:34:04.620023 36513 net.cpp:406] conv4 <- conv3
I0105 15:34:04.620036 36513 net.cpp:380] conv4 -> conv4
I0105 15:34:04.661458 36513 net.cpp:122] Setting up conv4
I0105 15:34:04.661490 36513 net.cpp:129] Top shape: 256 384 13 13 (16613376)
I0105 15:34:04.661500 36513 net.cpp:137] Memory required for data: 2556267520
I0105 15:34:04.661514 36513 layer_factory.hpp:77] Creating layer bn4
I0105 15:34:04.661530 36513 net.cpp:84] Creating Layer bn4
I0105 15:34:04.661540 36513 net.cpp:406] bn4 <- conv4
I0105 15:34:04.661551 36513 net.cpp:367] bn4 -> conv4 (in-place)
I0105 15:34:04.661722 36513 net.cpp:122] Setting up bn4
I0105 15:34:04.661739 36513 net.cpp:129] Top shape: 256 384 13 13 (16613376)
I0105 15:34:04.661748 36513 net.cpp:137] Memory required for data: 2622721024
I0105 15:34:04.661761 36513 layer_factory.hpp:77] Creating layer scale4
I0105 15:34:04.661777 36513 net.cpp:84] Creating Layer scale4
I0105 15:34:04.661815 36513 net.cpp:406] scale4 <- conv4
I0105 15:34:04.661828 36513 net.cpp:367] scale4 -> conv4 (in-place)
I0105 15:34:04.661869 36513 layer_factory.hpp:77] Creating layer scale4
I0105 15:34:04.661988 36513 net.cpp:122] Setting up scale4
I0105 15:34:04.662004 36513 net.cpp:129] Top shape: 256 384 13 13 (16613376)
I0105 15:34:04.662014 36513 net.cpp:137] Memory required for data: 2689174528
I0105 15:34:04.662025 36513 layer_factory.hpp:77] Creating layer relu4
I0105 15:34:04.662039 36513 net.cpp:84] Creating Layer relu4
I0105 15:34:04.662047 36513 net.cpp:406] relu4 <- conv4
I0105 15:34:04.662057 36513 net.cpp:367] relu4 -> conv4 (in-place)
I0105 15:34:04.662070 36513 net.cpp:122] Setting up relu4
I0105 15:34:04.662081 36513 net.cpp:129] Top shape: 256 384 13 13 (16613376)
I0105 15:34:04.662088 36513 net.cpp:137] Memory required for data: 2755628032
I0105 15:34:04.662097 36513 layer_factory.hpp:77] Creating layer conv5
I0105 15:34:04.662117 36513 net.cpp:84] Creating Layer conv5
I0105 15:34:04.662127 36513 net.cpp:406] conv5 <- conv4
I0105 15:34:04.662140 36513 net.cpp:380] conv5 -> conv5
I0105 15:34:04.689937 36513 net.cpp:122] Setting up conv5
I0105 15:34:04.689962 36513 net.cpp:129] Top shape: 256 256 13 13 (11075584)
I0105 15:34:04.689975 36513 net.cpp:137] Memory required for data: 2799930368
I0105 15:34:04.689987 36513 layer_factory.hpp:77] Creating layer bn5
I0105 15:34:04.690004 36513 net.cpp:84] Creating Layer bn5
I0105 15:34:04.690014 36513 net.cpp:406] bn5 <- conv5
I0105 15:34:04.690026 36513 net.cpp:367] bn5 -> conv5 (in-place)
I0105 15:34:04.690210 36513 net.cpp:122] Setting up bn5
I0105 15:34:04.690227 36513 net.cpp:129] Top shape: 256 256 13 13 (11075584)
I0105 15:34:04.690237 36513 net.cpp:137] Memory required for data: 2844232704
I0105 15:34:04.690258 36513 layer_factory.hpp:77] Creating layer scale5
I0105 15:34:04.690271 36513 net.cpp:84] Creating Layer scale5
I0105 15:34:04.690281 36513 net.cpp:406] scale5 <- conv5
I0105 15:34:04.690294 36513 net.cpp:367] scale5 -> conv5 (in-place)
I0105 15:34:04.690340 36513 layer_factory.hpp:77] Creating layer scale5
I0105 15:34:04.690450 36513 net.cpp:122] Setting up scale5
I0105 15:34:04.690467 36513 net.cpp:129] Top shape: 256 256 13 13 (11075584)
I0105 15:34:04.690476 36513 net.cpp:137] Memory required for data: 2888535040
I0105 15:34:04.690488 36513 layer_factory.hpp:77] Creating layer relu5
I0105 15:34:04.690500 36513 net.cpp:84] Creating Layer relu5
I0105 15:34:04.690510 36513 net.cpp:406] relu5 <- conv5
I0105 15:34:04.690526 36513 net.cpp:367] relu5 -> conv5 (in-place)
I0105 15:34:04.690538 36513 net.cpp:122] Setting up relu5
I0105 15:34:04.690549 36513 net.cpp:129] Top shape: 256 256 13 13 (11075584)
I0105 15:34:04.690558 36513 net.cpp:137] Memory required for data: 2932837376
I0105 15:34:04.690567 36513 layer_factory.hpp:77] Creating layer pool5
I0105 15:34:04.690580 36513 net.cpp:84] Creating Layer pool5
I0105 15:34:04.690589 36513 net.cpp:406] pool5 <- conv5
I0105 15:34:04.690600 36513 net.cpp:380] pool5 -> pool5
I0105 15:34:04.690642 36513 net.cpp:122] Setting up pool5
I0105 15:34:04.690659 36513 net.cpp:129] Top shape: 256 256 6 6 (2359296)
I0105 15:34:04.690667 36513 net.cpp:137] Memory required for data: 2942274560
I0105 15:34:04.690675 36513 layer_factory.hpp:77] Creating layer fc6
I0105 15:34:04.690693 36513 net.cpp:84] Creating Layer fc6
I0105 15:34:04.690703 36513 net.cpp:406] fc6 <- pool5
I0105 15:34:04.690721 36513 net.cpp:380] fc6 -> fc6
I0105 15:34:05.862663 36513 net.cpp:122] Setting up fc6
I0105 15:34:05.862757 36513 net.cpp:129] Top shape: 256 4096 (1048576)
I0105 15:34:05.862769 36513 net.cpp:137] Memory required for data: 2946468864
I0105 15:34:05.862787 36513 layer_factory.hpp:77] Creating layer bn6
I0105 15:34:05.862805 36513 net.cpp:84] Creating Layer bn6
I0105 15:34:05.862818 36513 net.cpp:406] bn6 <- fc6
I0105 15:34:05.862833 36513 net.cpp:367] bn6 -> fc6 (in-place)
I0105 15:34:05.863021 36513 net.cpp:122] Setting up bn6
I0105 15:34:05.863039 36513 net.cpp:129] Top shape: 256 4096 (1048576)
I0105 15:34:05.863047 36513 net.cpp:137] Memory required for data: 2950663168
I0105 15:34:05.863101 36513 layer_factory.hpp:77] Creating layer scale6
I0105 15:34:05.863117 36513 net.cpp:84] Creating Layer scale6
I0105 15:34:05.863126 36513 net.cpp:406] scale6 <- fc6
I0105 15:34:05.863137 36513 net.cpp:367] scale6 -> fc6 (in-place)
I0105 15:34:05.863188 36513 layer_factory.hpp:77] Creating layer scale6
I0105 15:34:05.863319 36513 net.cpp:122] Setting up scale6
I0105 15:34:05.863337 36513 net.cpp:129] Top shape: 256 4096 (1048576)
I0105 15:34:05.863345 36513 net.cpp:137] Memory required for data: 2954857472
I0105 15:34:05.863356 36513 layer_factory.hpp:77] Creating layer relu6
I0105 15:34:05.863373 36513 net.cpp:84] Creating Layer relu6
I0105 15:34:05.863381 36513 net.cpp:406] relu6 <- fc6
I0105 15:34:05.863391 36513 net.cpp:367] relu6 -> fc6 (in-place)
I0105 15:34:05.863404 36513 net.cpp:122] Setting up relu6
I0105 15:34:05.863415 36513 net.cpp:129] Top shape: 256 4096 (1048576)
I0105 15:34:05.863422 36513 net.cpp:137] Memory required for data: 2959051776
I0105 15:34:05.863431 36513 layer_factory.hpp:77] Creating layer drop6
I0105 15:34:05.863451 36513 net.cpp:84] Creating Layer drop6
I0105 15:34:05.863461 36513 net.cpp:406] drop6 <- fc6
I0105 15:34:05.863472 36513 net.cpp:367] drop6 -> fc6 (in-place)
I0105 15:34:05.863507 36513 net.cpp:122] Setting up drop6
I0105 15:34:05.863521 36513 net.cpp:129] Top shape: 256 4096 (1048576)
I0105 15:34:05.863530 36513 net.cpp:137] Memory required for data: 2963246080
I0105 15:34:05.863539 36513 layer_factory.hpp:77] Creating layer fc7
I0105 15:34:05.863555 36513 net.cpp:84] Creating Layer fc7
I0105 15:34:05.863565 36513 net.cpp:406] fc7 <- fc6
I0105 15:34:05.863579 36513 net.cpp:380] fc7 -> fc7
I0105 15:34:06.370211 36513 net.cpp:122] Setting up fc7
I0105 15:34:06.370313 36513 net.cpp:129] Top shape: 256 4096 (1048576)
I0105 15:34:06.370327 36513 net.cpp:137] Memory required for data: 2967440384
I0105 15:34:06.370345 36513 layer_factory.hpp:77] Creating layer bn7
I0105 15:34:06.370365 36513 net.cpp:84] Creating Layer bn7
I0105 15:34:06.370376 36513 net.cpp:406] bn7 <- fc7
I0105 15:34:06.370393 36513 net.cpp:367] bn7 -> fc7 (in-place)
I0105 15:34:06.370574 36513 net.cpp:122] Setting up bn7
I0105 15:34:06.370590 36513 net.cpp:129] Top shape: 256 4096 (1048576)
I0105 15:34:06.370599 36513 net.cpp:137] Memory required for data: 2971634688
I0105 15:34:06.370620 36513 layer_factory.hpp:77] Creating layer scale7
I0105 15:34:06.370640 36513 net.cpp:84] Creating Layer scale7
I0105 15:34:06.370649 36513 net.cpp:406] scale7 <- fc7
I0105 15:34:06.370659 36513 net.cpp:367] scale7 -> fc7 (in-place)
I0105 15:34:06.370707 36513 layer_factory.hpp:77] Creating layer scale7
I0105 15:34:06.370831 36513 net.cpp:122] Setting up scale7
I0105 15:34:06.370847 36513 net.cpp:129] Top shape: 256 4096 (1048576)
I0105 15:34:06.370856 36513 net.cpp:137] Memory required for data: 2975828992
I0105 15:34:06.370867 36513 layer_factory.hpp:77] Creating layer relu7
I0105 15:34:06.370882 36513 net.cpp:84] Creating Layer relu7
I0105 15:34:06.370892 36513 net.cpp:406] relu7 <- fc7
I0105 15:34:06.370901 36513 net.cpp:367] relu7 -> fc7 (in-place)
I0105 15:34:06.370913 36513 net.cpp:122] Setting up relu7
I0105 15:34:06.370923 36513 net.cpp:129] Top shape: 256 4096 (1048576)
I0105 15:34:06.370930 36513 net.cpp:137] Memory required for data: 2980023296
I0105 15:34:06.370939 36513 layer_factory.hpp:77] Creating layer drop7
I0105 15:34:06.370954 36513 net.cpp:84] Creating Layer drop7
I0105 15:34:06.370968 36513 net.cpp:406] drop7 <- fc7
I0105 15:34:06.370980 36513 net.cpp:367] drop7 -> fc7 (in-place)
I0105 15:34:06.371004 36513 net.cpp:122] Setting up drop7
I0105 15:34:06.371018 36513 net.cpp:129] Top shape: 256 4096 (1048576)
I0105 15:34:06.371026 36513 net.cpp:137] Memory required for data: 2984217600
I0105 15:34:06.371034 36513 layer_factory.hpp:77] Creating layer fc8
I0105 15:34:06.371052 36513 net.cpp:84] Creating Layer fc8
I0105 15:34:06.371060 36513 net.cpp:406] fc8 <- fc7
I0105 15:34:06.371071 36513 net.cpp:380] fc8 -> fc8
I0105 15:34:06.491295 36513 net.cpp:122] Setting up fc8
I0105 15:34:06.491425 36513 net.cpp:129] Top shape: 256 1000 (256000)
I0105 15:34:06.491437 36513 net.cpp:137] Memory required for data: 2985241600
I0105 15:34:06.491454 36513 layer_factory.hpp:77] Creating layer fc8_fc8_0_split
I0105 15:34:06.491472 36513 net.cpp:84] Creating Layer fc8_fc8_0_split
I0105 15:34:06.491484 36513 net.cpp:406] fc8_fc8_0_split <- fc8
I0105 15:34:06.491497 36513 net.cpp:380] fc8_fc8_0_split -> fc8_fc8_0_split_0
I0105 15:34:06.491518 36513 net.cpp:380] fc8_fc8_0_split -> fc8_fc8_0_split_1
I0105 15:34:06.491565 36513 net.cpp:122] Setting up fc8_fc8_0_split
I0105 15:34:06.491580 36513 net.cpp:129] Top shape: 256 1000 (256000)
I0105 15:34:06.491590 36513 net.cpp:129] Top shape: 256 1000 (256000)
I0105 15:34:06.491598 36513 net.cpp:137] Memory required for data: 2987289600
I0105 15:34:06.491606 36513 layer_factory.hpp:77] Creating layer accuracy_5_TRAIN
I0105 15:34:06.491628 36513 net.cpp:84] Creating Layer accuracy_5_TRAIN
I0105 15:34:06.491638 36513 net.cpp:406] accuracy_5_TRAIN <- fc8_fc8_0_split_0
I0105 15:34:06.491648 36513 net.cpp:406] accuracy_5_TRAIN <- label_data_1_split_0
…
I0105 15:34:06.494604 36513 net.cpp:294] The NetState phase (1) differed from the phase (0) specified by a rule in layer accuracy_5_TRAIN
I0105 15:34:06.494805 36513 net.cpp:51] Initializing net from parameters: 
name: "AlexNet-BN"
state {
  phase: TEST
}
layer {
  name: "data"
  type: "Data"
  top: "data"
  top: "label"
  include {
    phase: TEST
  }
  transform_param {
    mirror: false
    crop_size: 224
    mean_value: 103.939
    mean_value: 116.779
    mean_value: 123.68
  }
  data_param {
    source: "/mllib/imagenet/ilsvrc12/lmdb_resize/ilsvrc12_val_lmdb"
    batch_size: 50
    backend: LMDB
  }
}
layer {
  name: "conv1"
  type: "Convolution"
  bottom: "data"
  top: "conv1"
  param {
    lr_mult: 1
    decay_mult: 1
  }
  param {
    lr_mult: 2
    decay_mult: 0
  }
  convolution_param {
    num_output: 96
    pad: 2
    kernel_size: 11
    stride: 4
    weight_filler {
      type: "gaussian"
      std: 0.01
    }
    bias_filler {
      type: "constant"
      value: 0
    }
  }
}
layer {
  name: "bn1"
  type: "BatchNorm"
  bottom: "conv1"
  top: "conv1"
}
layer {
  name: "scale1"
  type: "Scale"
  bottom: "conv1"
  top: "conv1"
  scale_param {
    bias_term: true
  }
}
layer {
  name: "relu1"
  type: "ReLU"
  bottom: "conv1"
  top: "conv1"
}
layer {
  name: "pool1"
  type: "Pooling"
  bottom: "conv1"
  top: "pool1"
  pooling_param {
    pool: MAX
    kernel_size: 3
    stride: 2
  }
}
layer {
  name: "conv2"
  type: "Convolution"
  bottom: "pool1"
  top: "conv2"
  param {
    lr_mult: 1
    decay_mult: 1
  }
  param {
    lr_mult: 2
    decay_mult: 0
  }
  convolution_param {
    num_output: 256
    pad: 2
    kernel_size: 5
    weight_filler {
      type: "gaussian"
      std: 0.01
    }
    bias_filler {
      type: "constant"
      value: 0.1
    }
  }
}
layer {
  name: "bn2"
  type: "BatchNorm"
  bottom: "conv2"
  top: "conv2"
}
layer {
  name: "scale2"
  type: "Scale"
  bottom: "conv2"
  top: "conv2"
  scale_param {
    bias_term: true
  }
}
layer {
  name: "relu2"
  type: "ReLU"
  bottom: "conv2"
  top: "conv2"
}
layer {
  name: "pool2"
  type: "Pooling"
  bottom: "conv2"
  top: "pool2"
  pooling_param {
    pool: MAX
    kernel_size: 3
    stride: 2
  }
}
layer {
  name: "conv3"
  type: "Convolution"
  bottom: "pool2"
  top: "conv3"
  param {
    lr_mult: 1
    decay_mult: 1
  }
  param {
    lr_mult: 2
    decay_mult: 0
  }
  convolution_param {
    num_output: 384
    pad: 1
    kernel_size: 3
    weight_filler {
      type: "gaussian"
      std: 0.01
    }
    bias_filler {
      type: "constant"
      value: 0
    }
  }
}
layer {
  name: "bn3"
  type: "BatchNorm"
  bottom: "conv3"
  top: "conv3"
}
layer {
  name: "scale3"
  type: "Scale"
  bottom: "conv3"
  top: "conv3"
  scale_param {
    bias_term: true
  }
}
layer {
  name: "relu3"
  type: "ReLU"
  bottom: "conv3"
  top: "conv3"
}
layer {
  name: "conv4"
  type: "Convolution"
  bottom: "conv3"
  top: "conv4"
  param {
    lr_mult: 1
    decay_mult: 1
  }
  param {
    lr_mult: 2
    decay_mult: 0
  }
  convolution_param {
    num_output: 384
    pad: 1
    kernel_size: 3
    weight_filler {
      type: "gaussian"
      std: 0.01
    }
    bias_filler {
      type: "constant"
      value: 0.1
    }
  }
}
layer {
  name: "bn4"
  type: "BatchNorm"
  bottom: "conv4"
  top: "conv4"
}
layer {
  name: "scale4"
  type: "Scale"
  bottom: "conv4"
  top: "conv4"
  scale_param {
    bias_term: true
  }
}
layer {
  name: "relu4"
  type: "ReLU"
  bottom: "conv4"
  top: "conv4"
}
layer {
  name: "conv5"
  type: "Convolution"
  bottom: "conv4"
  top: "conv5"
  param {
    lr_mult: 1
    decay_mult: 1
  }
  param {
    lr_mult: 2
    decay_mult: 0
  }
  convolution_param {
    num_output: 256
    pad: 1
    kernel_size: 3
    weight_filler {
      type: "gaussian"
      std: 0.01
    }
    bias_filler {
      type: "constant"
      value: 0.1
    }
  }
}
layer {
  name: "bn5"
  type: "BatchNorm"
  bottom: "conv5"
  top: "conv5"
}
layer {
  name: "scale5"
  type: "Scale"
  bottom: "conv5"
  top: "conv5"
  scale_param {
    bias_term: true
  }
}
layer {
  name: "relu5"
  type: "ReLU"
  bottom: "conv5"
  top: "conv5"
}
layer {
  name: "pool5"
  type: "Pooling"
  bottom: "conv5"
  top: "pool5"
  pooling_param {
    pool: MAX
    kernel_size: 3
    stride: 2
  }
}
layer {
  name: "fc6"
  type: "InnerProduct"
  bottom: "pool5"
  top: "fc6"
  param {
    lr_mult: 1
    decay_mult: 1
  }
  param {
    lr_mult: 2
    decay_mult: 0
  }
  inner_product_param {
    num_output: 4096
    weight_filler {
      type: "gaussian"
      std: 0.005
    }
    bias_filler {
      type: "constant"
      value: 0.1
    }
  }
}
layer {
  name: "bn6"
  type: "BatchNorm"
  bottom: "fc6"
  top: "fc6"
}
layer {
  name: "scale6"
  type: "Scale"
  bottom: "fc6"
  top: "fc6"
  scale_param {
    bias_term: true
  }
}
layer {
  name: "relu6"
  type: "ReLU"
  bottom: "fc6"
  top: "fc6"
}
layer {
  name: "drop6"
  type: "Dropout"
  bottom: "fc6"
  top: "fc6"
  dropout_param {
    dropout_ratio: 0.5
  }
}
layer {
  name: "fc7"
  type: "InnerProduct"
  bottom: "fc6"
  top: "fc7"
  param {
    lr_mult: 1
    decay_mult: 1
  }
  param {
    lr_mult: 2
    decay_mult: 0
  }
  inner_product_param {
    num_output: 4096
    weight_filler {
      type: "gaussian"
      std: 0.005
    }
    bias_filler {
      type: "constant"
      value: 0.1
    }
  }
}
layer {
  name: "bn7"
  type: "BatchNorm"
  bottom: "fc7"
  top: "fc7"
}
layer {
  name: "scale7"
  type: "Scale"
  bottom: "fc7"
  top: "fc7"
  scale_param {
    bias_term: true
  }
}
layer {
  name: "relu7"
  type: "ReLU"
  bottom: "fc7"
  top: "fc7"
}
layer {
  name: "drop7"
  type: "Dropout"
  bottom: "fc7"
  top: "fc7"
  dropout_param {
    dropout_ratio: 0.5
  }
}
layer {
  name: "fc8"
  type: "InnerProduct"
  bottom: "fc7"
  top: "fc8"
  param {
    lr_mult: 1
    decay_mult: 1
  }
  param {
    lr_mult: 2
    decay_mult: 0
  }
  inner_product_param {
    num_output: 1000
    weight_filler {
      type: "gaussian"
      std: 0.01
    }
    bias_filler {
      type: "constant"
      value: 0
    }
  }
}
layer {
  name: "accuracy"
  type: "Accuracy"
  bottom: "fc8"
  bottom: "label"
  top: "accuracy"
  include {
    phase: TEST
  }
}
layer {
  name: "accuracy_5"
  type: "Accuracy"
  bottom: "fc8"
  bottom: "label"
  top: "accuracy_5"
  include {
    phase: TEST
  }
  accuracy_param {
    top_k: 5
  }
}
layer {
  name: "loss"
  type: "SoftmaxWithLoss"
  bottom: "fc8"
  bottom: "label"
  top: "loss"
}
I0105 15:34:06.494992 36513 layer_factory.hpp:77] Creating layer data
I0105 15:34:06.495069 36513 db_lmdb.cpp:35] Opened lmdb /mllib/imagenet/ilsvrc12/lmdb_resize/ilsvrc12_val_lmdb
I0105 15:34:06.495097 36513 net.cpp:84] Creating Layer data
I0105 15:34:06.495113 36513 net.cpp:380] data -> data
I0105 15:34:06.495141 36513 net.cpp:380] data -> label
I0105 15:34:06.495484 36513 data_layer.cpp:45] output data size: 50,3,224,224
I0105 15:34:06.586829 36513 net.cpp:122] Setting up data
I0105 15:34:06.586882 36513 net.cpp:129] Top shape: 50 3 224 224 (7526400)
I0105 15:34:06.586896 36513 net.cpp:129] Top shape: 50 (50)
I0105 15:34:06.586905 36513 net.cpp:137] Memory required for data: 30105800
I0105 15:34:06.586918 36513 layer_factory.hpp:77] Creating layer label_data_1_split
I0105 15:34:06.586941 36513 net.cpp:84] Creating Layer label_data_1_split
I0105 15:34:06.586951 36513 net.cpp:406] label_data_1_split <- label
I0105 15:34:06.586989 36513 net.cpp:380] label_data_1_split -> label_data_1_split_0
I0105 15:34:06.587018 36513 net.cpp:380] label_data_1_split -> label_data_1_split_1
I0105 15:34:06.587031 36513 net.cpp:380] label_data_1_split -> label_data_1_split_2
I0105 15:34:06.587196 36513 net.cpp:122] Setting up label_data_1_split
I0105 15:34:06.587227 36513 net.cpp:129] Top shape: 50 (50)
I0105 15:34:06.587235 36513 net.cpp:129] Top shape: 50 (50)
I0105 15:34:06.587241 36513 net.cpp:129] Top shape: 50 (50)
I0105 15:34:06.587247 36513 net.cpp:137] Memory required for data: 30106400
I0105 15:34:06.587255 36513 layer_factory.hpp:77] Creating layer conv1
I0105 15:34:06.587277 36513 net.cpp:84] Creating Layer conv1
I0105 15:34:06.587285 36513 net.cpp:406] conv1 <- data
I0105 15:34:06.587298 36513 net.cpp:380] conv1 -> conv1
I0105 15:34:06.592849 36513 net.cpp:122] Setting up conv1
I0105 15:34:06.592871 36513 net.cpp:129] Top shape: 50 96 55 55 (14520000)
I0105 15:34:06.592882 36513 net.cpp:137] Memory required for data: 88186400
I0105 15:34:06.592898 36513 layer_factory.hpp:77] Creating layer bn1
I0105 15:34:06.592913 36513 net.cpp:84] Creating Layer bn1
I0105 15:34:06.592923 36513 net.cpp:406] bn1 <- conv1
I0105 15:34:06.592934 36513 net.cpp:367] bn1 -> conv1 (in-place)
I0105 15:34:06.593181 36513 net.cpp:122] Setting up bn1
I0105 15:34:06.593202 36513 net.cpp:129] Top shape: 50 96 55 55 (14520000)
I0105 15:34:06.593211 36513 net.cpp:137] Memory required for data: 146266400
I0105 15:34:06.593230 36513 layer_factory.hpp:77] Creating layer scale1
I0105 15:34:06.593245 36513 net.cpp:84] Creating Layer scale1
I0105 15:34:06.593255 36513 net.cpp:406] scale1 <- conv1
I0105 15:34:06.593266 36513 net.cpp:367] scale1 -> conv1 (in-place)
I0105 15:34:06.593318 36513 layer_factory.hpp:77] Creating layer scale1
I0105 15:34:06.593451 36513 net.cpp:122] Setting up scale1
I0105 15:34:06.593468 36513 net.cpp:129] Top shape: 50 96 55 55 (14520000)
I0105 15:34:06.593477 36513 net.cpp:137] Memory required for data: 204346400
I0105 15:34:06.593490 36513 layer_factory.hpp:77] Creating layer relu1
I0105 15:34:06.593503 36513 net.cpp:84] Creating Layer relu1
I0105 15:34:06.593513 36513 net.cpp:406] relu1 <- conv1
I0105 15:34:06.593523 36513 net.cpp:367] relu1 -> conv1 (in-place)
I0105 15:34:06.593536 36513 net.cpp:122] Setting up relu1
I0105 15:34:06.593547 36513 net.cpp:129] Top shape: 50 96 55 55 (14520000)
I0105 15:34:06.593556 36513 net.cpp:137] Memory required for data: 262426400
I0105 15:34:06.593564 36513 layer_factory.hpp:77] Creating layer pool1
I0105 15:34:06.593577 36513 net.cpp:84] Creating Layer pool1
I0105 15:34:06.593587 36513 net.cpp:406] pool1 <- conv1
I0105 15:34:06.593598 36513 net.cpp:380] pool1 -> pool1
I0105 15:34:06.593644 36513 net.cpp:122] Setting up pool1
I0105 15:34:06.593660 36513 net.cpp:129] Top shape: 50 96 27 27 (3499200)
I0105 15:34:06.593669 36513 net.cpp:137] Memory required for data: 276423200
I0105 15:34:06.593678 36513 layer_factory.hpp:77] Creating layer conv2
I0105 15:34:06.593694 36513 net.cpp:84] Creating Layer conv2
I0105 15:34:06.593704 36513 net.cpp:406] conv2 <- pool1
I0105 15:34:06.593717 36513 net.cpp:380] conv2 -> conv2
I0105 15:34:06.613525 36513 net.cpp:122] Setting up conv2
I0105 15:34:06.613580 36513 net.cpp:129] Top shape: 50 256 27 27 (9331200)
I0105 15:34:06.613591 36513 net.cpp:137] Memory required for data: 313748000
I0105 15:34:06.613612 36513 layer_factory.hpp:77] Creating layer bn2
I0105 15:34:06.613678 36513 net.cpp:84] Creating Layer bn2
I0105 15:34:06.613692 36513 net.cpp:406] bn2 <- conv2
I0105 15:34:06.613706 36513 net.cpp:367] bn2 -> conv2 (in-place)
I0105 15:34:06.613906 36513 net.cpp:122] Setting up bn2
I0105 15:34:06.613924 36513 net.cpp:129] Top shape: 50 256 27 27 (9331200)
I0105 15:34:06.613934 36513 net.cpp:137] Memory required for data: 351072800
I0105 15:34:06.613948 36513 layer_factory.hpp:77] Creating layer scale2
I0105 15:34:06.613963 36513 net.cpp:84] Creating Layer scale2
I0105 15:34:06.613973 36513 net.cpp:406] scale2 <- conv2
I0105 15:34:06.613984 36513 net.cpp:367] scale2 -> conv2 (in-place)
I0105 15:34:06.614038 36513 layer_factory.hpp:77] Creating layer scale2
I0105 15:34:06.614156 36513 net.cpp:122] Setting up scale2
I0105 15:34:06.614172 36513 net.cpp:129] Top shape: 50 256 27 27 (9331200)
I0105 15:34:06.614181 36513 net.cpp:137] Memory required for data: 388397600
I0105 15:34:06.614193 36513 layer_factory.hpp:77] Creating layer relu2
I0105 15:34:06.614207 36513 net.cpp:84] Creating Layer relu2
I0105 15:34:06.614217 36513 net.cpp:406] relu2 <- conv2
I0105 15:34:06.614228 36513 net.cpp:367] relu2 -> conv2 (in-place)
I0105 15:34:06.614240 36513 net.cpp:122] Setting up relu2
I0105 15:34:06.614253 36513 net.cpp:129] Top shape: 50 256 27 27 (9331200)
I0105 15:34:06.614261 36513 net.cpp:137] Memory required for data: 425722400
I0105 15:34:06.614271 36513 layer_factory.hpp:77] Creating layer pool2
I0105 15:34:06.614284 36513 net.cpp:84] Creating Layer pool2
I0105 15:34:06.614293 36513 net.cpp:406] pool2 <- conv2
I0105 15:34:06.614305 36513 net.cpp:380] pool2 -> pool2
I0105 15:34:06.614356 36513 net.cpp:122] Setting up pool2
I0105 15:34:06.614372 36513 net.cpp:129] Top shape: 50 256 13 13 (2163200)
I0105 15:34:06.614382 36513 net.cpp:137] Memory required for data: 434375200
I0105 15:34:06.614390 36513 layer_factory.hpp:77] Creating layer conv3
I0105 15:34:06.614408 36513 net.cpp:84] Creating Layer conv3
I0105 15:34:06.614418 36513 net.cpp:406] conv3 <- pool2
I0105 15:34:06.614431 36513 net.cpp:380] conv3 -> conv3
I0105 15:34:06.641636 36513 net.cpp:122] Setting up conv3
I0105 15:34:06.641661 36513 net.cpp:129] Top shape: 50 384 13 13 (3244800)
I0105 15:34:06.641670 36513 net.cpp:137] Memory required for data: 447354400
I0105 15:34:06.641685 36513 layer_factory.hpp:77] Creating layer bn3
I0105 15:34:06.641700 36513 net.cpp:84] Creating Layer bn3
I0105 15:34:06.641710 36513 net.cpp:406] bn3 <- conv3
I0105 15:34:06.641721 36513 net.cpp:367] bn3 -> conv3 (in-place)
I0105 15:34:06.641896 36513 net.cpp:122] Setting up bn3
I0105 15:34:06.641911 36513 net.cpp:129] Top shape: 50 384 13 13 (3244800)
I0105 15:34:06.641921 36513 net.cpp:137] Memory required for data: 460333600
I0105 15:34:06.641938 36513 layer_factory.hpp:77] Creating layer scale3
I0105 15:34:06.641953 36513 net.cpp:84] Creating Layer scale3
I0105 15:34:06.641963 36513 net.cpp:406] scale3 <- conv3
I0105 15:34:06.641973 36513 net.cpp:367] scale3 -> conv3 (in-place)
I0105 15:34:06.642020 36513 layer_factory.hpp:77] Creating layer scale3
I0105 15:34:06.642138 36513 net.cpp:122] Setting up scale3
I0105 15:34:06.642153 36513 net.cpp:129] Top shape: 50 384 13 13 (3244800)
I0105 15:34:06.642163 36513 net.cpp:137] Memory required for data: 473312800
I0105 15:34:06.642174 36513 layer_factory.hpp:77] Creating layer relu3
I0105 15:34:06.642186 36513 net.cpp:84] Creating Layer relu3
I0105 15:34:06.642195 36513 net.cpp:406] relu3 <- conv3
I0105 15:34:06.642206 36513 net.cpp:367] relu3 -> conv3 (in-place)
I0105 15:34:06.642217 36513 net.cpp:122] Setting up relu3
I0105 15:34:06.642228 36513 net.cpp:129] Top shape: 50 384 13 13 (3244800)
I0105 15:34:06.642236 36513 net.cpp:137] Memory required for data: 486292000
I0105 15:34:06.642244 36513 layer_factory.hpp:77] Creating layer conv4
I0105 15:34:06.642264 36513 net.cpp:84] Creating Layer conv4
I0105 15:34:06.642274 36513 net.cpp:406] conv4 <- conv3
I0105 15:34:06.642287 36513 net.cpp:380] conv4 -> conv4
I0105 15:34:06.680953 36513 net.cpp:122] Setting up conv4
I0105 15:34:06.680979 36513 net.cpp:129] Top shape: 50 384 13 13 (3244800)
I0105 15:34:06.681023 36513 net.cpp:137] Memory required for data: 499271200
I0105 15:34:06.681037 36513 layer_factory.hpp:77] Creating layer bn4
I0105 15:34:06.681051 36513 net.cpp:84] Creating Layer bn4
I0105 15:34:06.681061 36513 net.cpp:406] bn4 <- conv4
I0105 15:34:06.681071 36513 net.cpp:367] bn4 -> conv4 (in-place)
I0105 15:34:06.681251 36513 net.cpp:122] Setting up bn4
I0105 15:34:06.681267 36513 net.cpp:129] Top shape: 50 384 13 13 (3244800)
I0105 15:34:06.681277 36513 net.cpp:137] Memory required for data: 512250400
I0105 15:34:06.681289 36513 layer_factory.hpp:77] Creating layer scale4
I0105 15:34:06.681301 36513 net.cpp:84] Creating Layer scale4
I0105 15:34:06.681310 36513 net.cpp:406] scale4 <- conv4
I0105 15:34:06.681324 36513 net.cpp:367] scale4 -> conv4 (in-place)
I0105 15:34:06.681367 36513 layer_factory.hpp:77] Creating layer scale4
I0105 15:34:06.681488 36513 net.cpp:122] Setting up scale4
I0105 15:34:06.681506 36513 net.cpp:129] Top shape: 50 384 13 13 (3244800)
I0105 15:34:06.681515 36513 net.cpp:137] Memory required for data: 525229600
I0105 15:34:06.681526 36513 layer_factory.hpp:77] Creating layer relu4
I0105 15:34:06.681538 36513 net.cpp:84] Creating Layer relu4
I0105 15:34:06.681547 36513 net.cpp:406] relu4 <- conv4
I0105 15:34:06.681557 36513 net.cpp:367] relu4 -> conv4 (in-place)
I0105 15:34:06.681567 36513 net.cpp:122] Setting up relu4
I0105 15:34:06.681578 36513 net.cpp:129] Top shape: 50 384 13 13 (3244800)
I0105 15:34:06.681586 36513 net.cpp:137] Memory required for data: 538208800
I0105 15:34:06.681594 36513 layer_factory.hpp:77] Creating layer conv5
I0105 15:34:06.681610 36513 net.cpp:84] Creating Layer conv5
I0105 15:34:06.681619 36513 net.cpp:406] conv5 <- conv4
I0105 15:34:06.681633 36513 net.cpp:380] conv5 -> conv5
I0105 15:34:06.707669 36513 net.cpp:122] Setting up conv5
I0105 15:34:06.707701 36513 net.cpp:129] Top shape: 50 256 13 13 (2163200)
I0105 15:34:06.707710 36513 net.cpp:137] Memory required for data: 546861600
I0105 15:34:06.707723 36513 layer_factory.hpp:77] Creating layer bn5
I0105 15:34:06.707738 36513 net.cpp:84] Creating Layer bn5
I0105 15:34:06.707748 36513 net.cpp:406] bn5 <- conv5
I0105 15:34:06.707759 36513 net.cpp:367] bn5 -> conv5 (in-place)
I0105 15:34:06.707949 36513 net.cpp:122] Setting up bn5
I0105 15:34:06.707965 36513 net.cpp:129] Top shape: 50 256 13 13 (2163200)
I0105 15:34:06.707974 36513 net.cpp:137] Memory required for data: 555514400
I0105 15:34:06.707991 36513 layer_factory.hpp:77] Creating layer scale5
I0105 15:34:06.708004 36513 net.cpp:84] Creating Layer scale5
I0105 15:34:06.708014 36513 net.cpp:406] scale5 <- conv5
I0105 15:34:06.708026 36513 net.cpp:367] scale5 -> conv5 (in-place)
I0105 15:34:06.708076 36513 layer_factory.hpp:77] Creating layer scale5
I0105 15:34:06.708196 36513 net.cpp:122] Setting up scale5
I0105 15:34:06.708214 36513 net.cpp:129] Top shape: 50 256 13 13 (2163200)
I0105 15:34:06.708225 36513 net.cpp:137] Memory required for data: 564167200
I0105 15:34:06.708235 36513 layer_factory.hpp:77] Creating layer relu5
I0105 15:34:06.708250 36513 net.cpp:84] Creating Layer relu5
I0105 15:34:06.708259 36513 net.cpp:406] relu5 <- conv5
I0105 15:34:06.708268 36513 net.cpp:367] relu5 -> conv5 (in-place)
I0105 15:34:06.708281 36513 net.cpp:122] Setting up relu5
I0105 15:34:06.708290 36513 net.cpp:129] Top shape: 50 256 13 13 (2163200)
I0105 15:34:06.708298 36513 net.cpp:137] Memory required for data: 572820000
I0105 15:34:06.708307 36513 layer_factory.hpp:77] Creating layer pool5
I0105 15:34:06.708318 36513 net.cpp:84] Creating Layer pool5
I0105 15:34:06.708328 36513 net.cpp:406] pool5 <- conv5
I0105 15:34:06.708344 36513 net.cpp:380] pool5 -> pool5
I0105 15:34:06.708391 36513 net.cpp:122] Setting up pool5
I0105 15:34:06.708406 36513 net.cpp:129] Top shape: 50 256 6 6 (460800)
I0105 15:34:06.708415 36513 net.cpp:137] Memory required for data: 574663200
I0105 15:34:06.708423 36513 layer_factory.hpp:77] Creating layer fc6
I0105 15:34:06.708441 36513 net.cpp:84] Creating Layer fc6
I0105 15:34:06.708464 36513 net.cpp:406] fc6 <- pool5
I0105 15:34:06.708477 36513 net.cpp:380] fc6 -> fc6
I0105 15:34:07.844349 36513 net.cpp:122] Setting up fc6
I0105 15:34:07.844416 36513 net.cpp:129] Top shape: 50 4096 (204800)
I0105 15:34:07.844427 36513 net.cpp:137] Memory required for data: 575482400
I0105 15:34:07.844445 36513 layer_factory.hpp:77] Creating layer bn6
I0105 15:34:07.844468 36513 net.cpp:84] Creating Layer bn6
I0105 15:34:07.844481 36513 net.cpp:406] bn6 <- fc6
I0105 15:34:07.844498 36513 net.cpp:367] bn6 -> fc6 (in-place)
I0105 15:34:07.844710 36513 net.cpp:122] Setting up bn6
I0105 15:34:07.844728 36513 net.cpp:129] Top shape: 50 4096 (204800)
I0105 15:34:07.844738 36513 net.cpp:137] Memory required for data: 576301600
I0105 15:34:07.844751 36513 layer_factory.hpp:77] Creating layer scale6
I0105 15:34:07.844769 36513 net.cpp:84] Creating Layer scale6
I0105 15:34:07.844779 36513 net.cpp:406] scale6 <- fc6
I0105 15:34:07.844790 36513 net.cpp:367] scale6 -> fc6 (in-place)
I0105 15:34:07.844844 36513 layer_factory.hpp:77] Creating layer scale6
I0105 15:34:07.844985 36513 net.cpp:122] Setting up scale6
I0105 15:34:07.845002 36513 net.cpp:129] Top shape: 50 4096 (204800)
I0105 15:34:07.845011 36513 net.cpp:137] Memory required for data: 577120800
I0105 15:34:07.845023 36513 layer_factory.hpp:77] Creating layer relu6
I0105 15:34:07.845037 36513 net.cpp:84] Creating Layer relu6
I0105 15:34:07.845046 36513 net.cpp:406] relu6 <- fc6
I0105 15:34:07.845057 36513 net.cpp:367] relu6 -> fc6 (in-place)
I0105 15:34:07.845069 36513 net.cpp:122] Setting up relu6
I0105 15:34:07.845080 36513 net.cpp:129] Top shape: 50 4096 (204800)
I0105 15:34:07.845089 36513 net.cpp:137] Memory required for data: 577940000
I0105 15:34:07.845098 36513 layer_factory.hpp:77] Creating layer drop6
I0105 15:34:07.845111 36513 net.cpp:84] Creating Layer drop6
I0105 15:34:07.845120 36513 net.cpp:406] drop6 <- fc6
I0105 15:34:07.845134 36513 net.cpp:367] drop6 -> fc6 (in-place)
I0105 15:34:07.845170 36513 net.cpp:122] Setting up drop6
I0105 15:34:07.845185 36513 net.cpp:129] Top shape: 50 4096 (204800)
I0105 15:34:07.845194 36513 net.cpp:137] Memory required for data: 578759200
I0105 15:34:07.845203 36513 layer_factory.hpp:77] Creating layer fc7
I0105 15:34:07.845217 36513 net.cpp:84] Creating Layer fc7
I0105 15:34:07.845227 36513 net.cpp:406] fc7 <- fc6
I0105 15:34:07.845242 36513 net.cpp:380] fc7 -> fc7
I0105 15:34:08.366931 36513 net.cpp:122] Setting up fc7
I0105 15:34:08.366996 36513 net.cpp:129] Top shape: 50 4096 (204800)
I0105 15:34:08.367007 36513 net.cpp:137] Memory required for data: 579578400
I0105 15:34:08.367027 36513 layer_factory.hpp:77] Creating layer bn7
I0105 15:34:08.367048 36513 net.cpp:84] Creating Layer bn7
I0105 15:34:08.367060 36513 net.cpp:406] bn7 <- fc7
I0105 15:34:08.367075 36513 net.cpp:367] bn7 -> fc7 (in-place)
I0105 15:34:08.367290 36513 net.cpp:122] Setting up bn7
I0105 15:34:08.367307 36513 net.cpp:129] Top shape: 50 4096 (204800)
I0105 15:34:08.367317 36513 net.cpp:137] Memory required for data: 580397600
I0105 15:34:08.367331 36513 layer_factory.hpp:77] Creating layer scale7
I0105 15:34:08.367353 36513 net.cpp:84] Creating Layer scale7
I0105 15:34:08.367364 36513 net.cpp:406] scale7 <- fc7
I0105 15:34:08.367375 36513 net.cpp:367] scale7 -> fc7 (in-place)
I0105 15:34:08.367434 36513 layer_factory.hpp:77] Creating layer scale7
I0105 15:34:08.367581 36513 net.cpp:122] Setting up scale7
I0105 15:34:08.367599 36513 net.cpp:129] Top shape: 50 4096 (204800)
I0105 15:34:08.367607 36513 net.cpp:137] Memory required for data: 581216800
I0105 15:34:08.367620 36513 layer_factory.hpp:77] Creating layer relu7
I0105 15:34:08.367643 36513 net.cpp:84] Creating Layer relu7
I0105 15:34:08.367653 36513 net.cpp:406] relu7 <- fc7
I0105 15:34:08.367664 36513 net.cpp:367] relu7 -> fc7 (in-place)
I0105 15:34:08.367677 36513 net.cpp:122] Setting up relu7
I0105 15:34:08.367687 36513 net.cpp:129] Top shape: 50 4096 (204800)
I0105 15:34:08.367697 36513 net.cpp:137] Memory required for data: 582036000
I0105 15:34:08.367705 36513 layer_factory.hpp:77] Creating layer drop7
I0105 15:34:08.367763 36513 net.cpp:84] Creating Layer drop7
I0105 15:34:08.367774 36513 net.cpp:406] drop7 <- fc7
I0105 15:34:08.367786 36513 net.cpp:367] drop7 -> fc7 (in-place)
I0105 15:34:08.367820 36513 net.cpp:122] Setting up drop7
I0105 15:34:08.367836 36513 net.cpp:129] Top shape: 50 4096 (204800)
I0105 15:34:08.367846 36513 net.cpp:137] Memory required for data: 582855200
I0105 15:34:08.367856 36513 layer_factory.hpp:77] Creating layer fc8
I0105 15:34:08.367873 36513 net.cpp:84] Creating Layer fc8
I0105 15:34:08.367883 36513 net.cpp:406] fc8 <- fc7
I0105 15:34:08.367895 36513 net.cpp:380] fc8 -> fc8
I0105 15:34:08.496217 36513 net.cpp:122] Setting up fc8
I0105 15:34:08.496284 36513 net.cpp:129] Top shape: 50 1000 (50000)
I0105 15:34:08.496294 36513 net.cpp:137] Memory required for data: 583055200
I0105 15:34:08.496312 36513 layer_factory.hpp:77] Creating layer fc8_fc8_0_split
I0105 15:34:08.496331 36513 net.cpp:84] Creating Layer fc8_fc8_0_split
I0105 15:34:08.496343 36513 net.cpp:406] fc8_fc8_0_split <- fc8
I0105 15:34:08.496361 36513 net.cpp:380] fc8_fc8_0_split -> fc8_fc8_0_split_0
I0105 15:34:08.496382 36513 net.cpp:380] fc8_fc8_0_split -> fc8_fc8_0_split_1
I0105 15:34:08.496397 36513 net.cpp:380] fc8_fc8_0_split -> fc8_fc8_0_split_2
I0105 15:34:08.496467 36513 net.cpp:122] Setting up fc8_fc8_0_split
I0105 15:34:08.496484 36513 net.cpp:129] Top shape: 50 1000 (50000)
I0105 15:34:08.496495 36513 net.cpp:129] Top shape: 50 1000 (50000)
I0105 15:34:08.496505 36513 net.cpp:129] Top shape: 50 1000 (50000)
I0105 15:34:08.496513 36513 net.cpp:137] Memory required for data: 583655200
I0105 15:34:08.496521 36513 layer_factory.hpp:77] Creating layer accuracy
I0105 15:34:08.496536 36513 net.cpp:84] Creating Layer accuracy
I0105 15:34:08.496546 36513 net.cpp:406] accuracy <- fc8_fc8_0_split_0
I0105 15:34:08.496556 36513 net.cpp:406] accuracy <- label_data_1_split_0
I0105 15:34:08.496572 36513 net.cpp:380] accuracy -> accuracy
…
