…
I0108 14:27:00.463197 40036 net.cpp:294] The NetState phase (0) differed from the phase (1) specified by a rule in layer accuracy_5
I0108 14:27:00.463415 40036 net.cpp:51] Initializing net from parameters: 
name: "AlexNet-BN"
state {
  phase: TRAIN
  level: 0
  stage: ""
}
layer {
  name: "data"
  type: "Data"
  top: "data"
  top: "label"
  include {
    phase: TRAIN
  }
  transform_param {
    mirror: true
    crop_size: 224
    mean_value: 103.939
    mean_value: 116.779
    mean_value: 123.68
  }
  data_param {
    source: "/mllib/imagenet/ilsvrc12/lmdb_resize/ilsvrc12_train_lmdb"
    batch_size: 256
    backend: LMDB
  }
}
layer {
  name: "conv1"
  type: "Convolution"
  bottom: "data"
  top: "conv1"
  param {
    lr_mult: 1
    decay_mult: 1
  }
  param {
    lr_mult: 2
    decay_mult: 0
  }
  convolution_param {
    num_output: 96
    pad: 2
    kernel_size: 11
    stride: 4
    weight_filler {
      type: "gaussian"
      std: 0.01
    }
    bias_filler {
      type: "constant"
      value: 0
    }
  }
}
layer {
  name: "bn1"
  type: "BatchNorm"
  bottom: "conv1"
  top: "conv1"
}
layer {
  name: "scale1"
  type: "Scale"
  bottom: "conv1"
  top: "conv1"
  scale_param {
    bias_term: true
  }
}
layer {
  name: "relu1"
  type: "ReLU"
  bottom: "conv1"
  top: "conv1"
}
layer {
  name: "pool1"
  type: "Pooling"
  bottom: "conv1"
  top: "pool1"
  pooling_param {
    pool: MAX
    kernel_size: 3
    stride: 2
  }
}
layer {
  name: "conv2"
  type: "Convolution"
  bottom: "pool1"
  top: "conv2"
  param {
    lr_mult: 1
    decay_mult: 1
  }
  param {
    lr_mult: 2
    decay_mult: 0
  }
  convolution_param {
    num_output: 256
    pad: 2
    kernel_size: 5
    weight_filler {
      type: "gaussian"
      std: 0.01
    }
    bias_filler {
      type: "constant"
      value: 0.1
    }
  }
}
layer {
  name: "bn2"
  type: "BatchNorm"
  bottom: "conv2"
  top: "conv2"
}
layer {
  name: "scale2"
  type: "Scale"
  bottom: "conv2"
  top: "conv2"
  scale_param {
    bias_term: true
  }
}
layer {
  name: "relu2"
  type: "ReLU"
  bottom: "conv2"
  top: "conv2"
}
layer {
  name: "pool2"
  type: "Pooling"
  bottom: "conv2"
  top: "pool2"
  pooling_param {
    pool: MAX
    kernel_size: 3
    stride: 2
  }
}
layer {
  name: "conv3"
  type: "Convolution"
  bottom: "pool2"
  top: "conv3"
  param {
    lr_mult: 1
    decay_mult: 1
  }
  param {
    lr_mult: 2
    decay_mult: 0
  }
  convolution_param {
    num_output: 384
    pad: 1
    kernel_size: 3
    weight_filler {
      type: "gaussian"
      std: 0.01
    }
    bias_filler {
      type: "constant"
      value: 0
    }
  }
}
layer {
  name: "bn3"
  type: "BatchNorm"
  bottom: "conv3"
  top: "conv3"
}
layer {
  name: "scale3"
  type: "Scale"
  bottom: "conv3"
  top: "conv3"
  scale_param {
    bias_term: true
  }
}
layer {
  name: "relu3"
  type: "ReLU"
  bottom: "conv3"
  top: "conv3"
}
layer {
  name: "conv4"
  type: "Convolution"
  bottom: "conv3"
  top: "conv4"
  param {
    lr_mult: 1
    decay_mult: 1
  }
  param {
    lr_mult: 2
    decay_mult: 0
  }
  convolution_param {
    num_output: 384
    pad: 1
    kernel_size: 3
    weight_filler {
      type: "gaussian"
      std: 0.01
    }
    bias_filler {
      type: "constant"
      value: 0.1
    }
  }
}
layer {
  name: "bn4"
  type: "BatchNorm"
  bottom: "conv4"
  top: "conv4"
}
layer {
  name: "scale4"
  type: "Scale"
  bottom: "conv4"
  top: "conv4"
  scale_param {
    bias_term: true
  }
}
layer {
  name: "relu4"
  type: "ReLU"
  bottom: "conv4"
  top: "conv4"
}
layer {
  name: "conv5"
  type: "Convolution"
  bottom: "conv4"
  top: "conv5"
  param {
    lr_mult: 1
    decay_mult: 1
  }
  param {
    lr_mult: 2
    decay_mult: 0
  }
  convolution_param {
    num_output: 256
    pad: 1
    kernel_size: 3
    weight_filler {
      type: "gaussian"
      std: 0.01
    }
    bias_filler {
      type: "constant"
      value: 0.1
    }
  }
}
layer {
  name: "bn5"
  type: "BatchNorm"
  bottom: "conv5"
  top: "conv5"
}
layer {
  name: "scale5"
  type: "Scale"
  bottom: "conv5"
  top: "conv5"
  scale_param {
    bias_term: true
  }
}
layer {
  name: "relu5"
  type: "ReLU"
  bottom: "conv5"
  top: "conv5"
}
layer {
  name: "pool5"
  type: "Pooling"
  bottom: "conv5"
  top: "pool5"
  pooling_param {
    pool: MAX
    kernel_size: 3
    stride: 2
  }
}
layer {
  name: "fc6"
  type: "InnerProduct"
  bottom: "pool5"
  top: "fc6"
  param {
    lr_mult: 1
    decay_mult: 1
  }
  param {
    lr_mult: 2
    decay_mult: 0
  }
  inner_product_param {
    num_output: 4096
    weight_filler {
      type: "gaussian"
      std: 0.005
    }
    bias_filler {
      type: "constant"
      value: 0.1
    }
  }
}
layer {
  name: "bn6"
  type: "BatchNorm"
  bottom: "fc6"
  top: "fc6"
}
layer {
  name: "scale6"
  type: "Scale"
  bottom: "fc6"
  top: "fc6"
  scale_param {
    bias_term: true
  }
}
layer {
  name: "relu6"
  type: "ReLU"
  bottom: "fc6"
  top: "fc6"
}
layer {
  name: "drop6"
  type: "Dropout"
  bottom: "fc6"
  top: "fc6"
  dropout_param {
    dropout_ratio: 0.5
  }
}
layer {
  name: "fc7"
  type: "InnerProduct"
  bottom: "fc6"
  top: "fc7"
  param {
    lr_mult: 1
    decay_mult: 1
  }
  param {
    lr_mult: 2
    decay_mult: 0
  }
  inner_product_param {
    num_output: 4096
    weight_filler {
      type: "gaussian"
      std: 0.005
    }
    bias_filler {
      type: "constant"
      value: 0.1
    }
  }
}
layer {
  name: "bn7"
  type: "BatchNorm"
  bottom: "fc7"
  top: "fc7"
}
layer {
  name: "scale7"
  type: "Scale"
  bottom: "fc7"
  top: "fc7"
  scale_param {
    bias_term: true
  }
}
layer {
  name: "relu7"
  type: "ReLU"
  bottom: "fc7"
  top: "fc7"
}
layer {
  name: "drop7"
  type: "Dropout"
  bottom: "fc7"
  top: "fc7"
  dropout_param {
    dropout_ratio: 0.5
  }
}
layer {
  name: "fc8"
  type: "InnerProduct"
  bottom: "fc7"
  top: "fc8"
  param {
    lr_mult: 1
    decay_mult: 1
  }
  param {
    lr_mult: 2
    decay_mult: 0
  }
  inner_product_param {
    num_output: 1000
    weight_filler {
      type: "gaussian"
      std: 0.01
    }
    bias_filler {
      type: "constant"
      value: 0
    }
  }
}
layer {
  name: "accuracy_5_TRAIN"
  type: "Accuracy"
  bottom: "fc8"
  bottom: "label"
  top: "accuracy_5_TRAIN"
  include {
    phase: TRAIN
  }
  accuracy_param {
    top_k: 5
  }
}
layer {
  name: "loss"
  type: "SoftmaxWithLoss"
  bottom: "fc8"
  bottom: "label"
  top: "loss"
}
I0108 14:27:00.463632 40036 layer_factory.hpp:77] Creating layer data
I0108 14:27:00.463779 40036 db_lmdb.cpp:35] Opened lmdb /mllib/imagenet/ilsvrc12/lmdb_resize/ilsvrc12_train_lmdb
I0108 14:27:00.566025 40036 net.cpp:84] Creating Layer data
I0108 14:27:00.566112 40036 net.cpp:380] data -> data
I0108 14:27:00.566157 40036 net.cpp:380] data -> label
I0108 14:27:00.569314 40036 data_layer.cpp:45] output data size: 256,3,224,224
I0108 14:27:01.042637 40036 net.cpp:122] Setting up data
I0108 14:27:01.042738 40036 net.cpp:129] Top shape: 256 3 224 224 (38535168)
I0108 14:27:01.042757 40036 net.cpp:129] Top shape: 256 (256)
I0108 14:27:01.042767 40036 net.cpp:137] Memory required for data: 154141696
I0108 14:27:01.042784 40036 layer_factory.hpp:77] Creating layer label_data_1_split
I0108 14:27:01.042809 40036 net.cpp:84] Creating Layer label_data_1_split
I0108 14:27:01.042821 40036 net.cpp:406] label_data_1_split <- label
I0108 14:27:01.042883 40036 net.cpp:380] label_data_1_split -> label_data_1_split_0
I0108 14:27:01.042906 40036 net.cpp:380] label_data_1_split -> label_data_1_split_1
I0108 14:27:01.042969 40036 net.cpp:122] Setting up label_data_1_split
I0108 14:27:01.042986 40036 net.cpp:129] Top shape: 256 (256)
I0108 14:27:01.042996 40036 net.cpp:129] Top shape: 256 (256)
I0108 14:27:01.043004 40036 net.cpp:137] Memory required for data: 154143744
I0108 14:27:01.043012 40036 layer_factory.hpp:77] Creating layer conv1
I0108 14:27:01.043042 40036 net.cpp:84] Creating Layer conv1
I0108 14:27:01.043054 40036 net.cpp:406] conv1 <- data
I0108 14:27:01.043071 40036 net.cpp:380] conv1 -> conv1
I0108 14:27:01.079272 40036 net.cpp:122] Setting up conv1
I0108 14:27:01.079363 40036 net.cpp:129] Top shape: 256 96 55 55 (74342400)
I0108 14:27:01.079375 40036 net.cpp:137] Memory required for data: 451513344
I0108 14:27:01.079402 40036 layer_factory.hpp:77] Creating layer bn1
I0108 14:27:01.079426 40036 net.cpp:84] Creating Layer bn1
I0108 14:27:01.079437 40036 net.cpp:406] bn1 <- conv1
I0108 14:27:01.079449 40036 net.cpp:367] bn1 -> conv1 (in-place)
I0108 14:27:01.079649 40036 net.cpp:122] Setting up bn1
I0108 14:27:01.079668 40036 net.cpp:129] Top shape: 256 96 55 55 (74342400)
I0108 14:27:01.079677 40036 net.cpp:137] Memory required for data: 748882944
I0108 14:27:01.079694 40036 layer_factory.hpp:77] Creating layer scale1
I0108 14:27:01.079715 40036 net.cpp:84] Creating Layer scale1
I0108 14:27:01.079726 40036 net.cpp:406] scale1 <- conv1
I0108 14:27:01.079737 40036 net.cpp:367] scale1 -> conv1 (in-place)
I0108 14:27:01.079789 40036 layer_factory.hpp:77] Creating layer scale1
I0108 14:27:01.079918 40036 net.cpp:122] Setting up scale1
I0108 14:27:01.079936 40036 net.cpp:129] Top shape: 256 96 55 55 (74342400)
I0108 14:27:01.079944 40036 net.cpp:137] Memory required for data: 1046252544
I0108 14:27:01.079957 40036 layer_factory.hpp:77] Creating layer relu1
I0108 14:27:01.079970 40036 net.cpp:84] Creating Layer relu1
I0108 14:27:01.079980 40036 net.cpp:406] relu1 <- conv1
I0108 14:27:01.079991 40036 net.cpp:367] relu1 -> conv1 (in-place)
I0108 14:27:01.080004 40036 net.cpp:122] Setting up relu1
I0108 14:27:01.080015 40036 net.cpp:129] Top shape: 256 96 55 55 (74342400)
I0108 14:27:01.080024 40036 net.cpp:137] Memory required for data: 1343622144
I0108 14:27:01.080031 40036 layer_factory.hpp:77] Creating layer pool1
I0108 14:27:01.080044 40036 net.cpp:84] Creating Layer pool1
I0108 14:27:01.080052 40036 net.cpp:406] pool1 <- conv1
I0108 14:27:01.080063 40036 net.cpp:380] pool1 -> pool1
I0108 14:27:01.080121 40036 net.cpp:122] Setting up pool1
I0108 14:27:01.080142 40036 net.cpp:129] Top shape: 256 96 27 27 (17915904)
I0108 14:27:01.080150 40036 net.cpp:137] Memory required for data: 1415285760
I0108 14:27:01.080159 40036 layer_factory.hpp:77] Creating layer conv2
I0108 14:27:01.080178 40036 net.cpp:84] Creating Layer conv2
I0108 14:27:01.080188 40036 net.cpp:406] conv2 <- pool1
I0108 14:27:01.080199 40036 net.cpp:380] conv2 -> conv2
I0108 14:27:01.101601 40036 net.cpp:122] Setting up conv2
I0108 14:27:01.101642 40036 net.cpp:129] Top shape: 256 256 27 27 (47775744)
I0108 14:27:01.101653 40036 net.cpp:137] Memory required for data: 1606388736
I0108 14:27:01.101675 40036 layer_factory.hpp:77] Creating layer bn2
I0108 14:27:01.101696 40036 net.cpp:84] Creating Layer bn2
I0108 14:27:01.101707 40036 net.cpp:406] bn2 <- conv2
I0108 14:27:01.101721 40036 net.cpp:367] bn2 -> conv2 (in-place)
I0108 14:27:01.101891 40036 net.cpp:122] Setting up bn2
I0108 14:27:01.101907 40036 net.cpp:129] Top shape: 256 256 27 27 (47775744)
I0108 14:27:01.101917 40036 net.cpp:137] Memory required for data: 1797491712
I0108 14:27:01.101930 40036 layer_factory.hpp:77] Creating layer scale2
I0108 14:27:01.101944 40036 net.cpp:84] Creating Layer scale2
I0108 14:27:01.101953 40036 net.cpp:406] scale2 <- conv2
I0108 14:27:01.101964 40036 net.cpp:367] scale2 -> conv2 (in-place)
I0108 14:27:01.102005 40036 layer_factory.hpp:77] Creating layer scale2
I0108 14:27:01.102113 40036 net.cpp:122] Setting up scale2
I0108 14:27:01.102160 40036 net.cpp:129] Top shape: 256 256 27 27 (47775744)
I0108 14:27:01.102170 40036 net.cpp:137] Memory required for data: 1988594688
I0108 14:27:01.102182 40036 layer_factory.hpp:77] Creating layer relu2
I0108 14:27:01.102200 40036 net.cpp:84] Creating Layer relu2
I0108 14:27:01.102208 40036 net.cpp:406] relu2 <- conv2
I0108 14:27:01.102219 40036 net.cpp:367] relu2 -> conv2 (in-place)
I0108 14:27:01.102231 40036 net.cpp:122] Setting up relu2
I0108 14:27:01.102241 40036 net.cpp:129] Top shape: 256 256 27 27 (47775744)
I0108 14:27:01.102249 40036 net.cpp:137] Memory required for data: 2179697664
I0108 14:27:01.102257 40036 layer_factory.hpp:77] Creating layer pool2
I0108 14:27:01.102269 40036 net.cpp:84] Creating Layer pool2
I0108 14:27:01.102278 40036 net.cpp:406] pool2 <- conv2
I0108 14:27:01.102289 40036 net.cpp:380] pool2 -> pool2
I0108 14:27:01.102334 40036 net.cpp:122] Setting up pool2
I0108 14:27:01.102349 40036 net.cpp:129] Top shape: 256 256 13 13 (11075584)
I0108 14:27:01.102357 40036 net.cpp:137] Memory required for data: 2224000000
I0108 14:27:01.102365 40036 layer_factory.hpp:77] Creating layer conv3
I0108 14:27:01.102383 40036 net.cpp:84] Creating Layer conv3
I0108 14:27:01.102392 40036 net.cpp:406] conv3 <- pool2
I0108 14:27:01.102406 40036 net.cpp:380] conv3 -> conv3
I0108 14:27:01.129400 40036 net.cpp:122] Setting up conv3
I0108 14:27:01.129447 40036 net.cpp:129] Top shape: 256 384 13 13 (16613376)
I0108 14:27:01.129459 40036 net.cpp:137] Memory required for data: 2290453504
I0108 14:27:01.129473 40036 layer_factory.hpp:77] Creating layer bn3
I0108 14:27:01.129493 40036 net.cpp:84] Creating Layer bn3
I0108 14:27:01.129504 40036 net.cpp:406] bn3 <- conv3
I0108 14:27:01.129518 40036 net.cpp:367] bn3 -> conv3 (in-place)
I0108 14:27:01.129690 40036 net.cpp:122] Setting up bn3
I0108 14:27:01.129706 40036 net.cpp:129] Top shape: 256 384 13 13 (16613376)
I0108 14:27:01.129715 40036 net.cpp:137] Memory required for data: 2356907008
I0108 14:27:01.129735 40036 layer_factory.hpp:77] Creating layer scale3
I0108 14:27:01.129751 40036 net.cpp:84] Creating Layer scale3
I0108 14:27:01.129761 40036 net.cpp:406] scale3 <- conv3
I0108 14:27:01.129773 40036 net.cpp:367] scale3 -> conv3 (in-place)
I0108 14:27:01.129814 40036 layer_factory.hpp:77] Creating layer scale3
I0108 14:27:01.129925 40036 net.cpp:122] Setting up scale3
I0108 14:27:01.129941 40036 net.cpp:129] Top shape: 256 384 13 13 (16613376)
I0108 14:27:01.129951 40036 net.cpp:137] Memory required for data: 2423360512
I0108 14:27:01.129962 40036 layer_factory.hpp:77] Creating layer relu3
I0108 14:27:01.129976 40036 net.cpp:84] Creating Layer relu3
I0108 14:27:01.129984 40036 net.cpp:406] relu3 <- conv3
I0108 14:27:01.129995 40036 net.cpp:367] relu3 -> conv3 (in-place)
I0108 14:27:01.130007 40036 net.cpp:122] Setting up relu3
I0108 14:27:01.130018 40036 net.cpp:129] Top shape: 256 384 13 13 (16613376)
I0108 14:27:01.130029 40036 net.cpp:137] Memory required for data: 2489814016
I0108 14:27:01.130038 40036 layer_factory.hpp:77] Creating layer conv4
I0108 14:27:01.130059 40036 net.cpp:84] Creating Layer conv4
I0108 14:27:01.130069 40036 net.cpp:406] conv4 <- conv3
I0108 14:27:01.130082 40036 net.cpp:380] conv4 -> conv4
I0108 14:27:01.170671 40036 net.cpp:122] Setting up conv4
I0108 14:27:01.170790 40036 net.cpp:129] Top shape: 256 384 13 13 (16613376)
I0108 14:27:01.170801 40036 net.cpp:137] Memory required for data: 2556267520
I0108 14:27:01.170819 40036 layer_factory.hpp:77] Creating layer bn4
I0108 14:27:01.170838 40036 net.cpp:84] Creating Layer bn4
I0108 14:27:01.170850 40036 net.cpp:406] bn4 <- conv4
I0108 14:27:01.170866 40036 net.cpp:367] bn4 -> conv4 (in-place)
I0108 14:27:01.171087 40036 net.cpp:122] Setting up bn4
I0108 14:27:01.171105 40036 net.cpp:129] Top shape: 256 384 13 13 (16613376)
I0108 14:27:01.171114 40036 net.cpp:137] Memory required for data: 2622721024
I0108 14:27:01.171128 40036 layer_factory.hpp:77] Creating layer scale4
I0108 14:27:01.171144 40036 net.cpp:84] Creating Layer scale4
I0108 14:27:01.171196 40036 net.cpp:406] scale4 <- conv4
I0108 14:27:01.171212 40036 net.cpp:367] scale4 -> conv4 (in-place)
I0108 14:27:01.171255 40036 layer_factory.hpp:77] Creating layer scale4
I0108 14:27:01.171366 40036 net.cpp:122] Setting up scale4
I0108 14:27:01.171383 40036 net.cpp:129] Top shape: 256 384 13 13 (16613376)
I0108 14:27:01.171391 40036 net.cpp:137] Memory required for data: 2689174528
I0108 14:27:01.171402 40036 layer_factory.hpp:77] Creating layer relu4
I0108 14:27:01.171416 40036 net.cpp:84] Creating Layer relu4
I0108 14:27:01.171425 40036 net.cpp:406] relu4 <- conv4
I0108 14:27:01.171435 40036 net.cpp:367] relu4 -> conv4 (in-place)
I0108 14:27:01.171447 40036 net.cpp:122] Setting up relu4
I0108 14:27:01.171458 40036 net.cpp:129] Top shape: 256 384 13 13 (16613376)
I0108 14:27:01.171465 40036 net.cpp:137] Memory required for data: 2755628032
I0108 14:27:01.171473 40036 layer_factory.hpp:77] Creating layer conv5
I0108 14:27:01.171490 40036 net.cpp:84] Creating Layer conv5
I0108 14:27:01.171500 40036 net.cpp:406] conv5 <- conv4
I0108 14:27:01.171512 40036 net.cpp:380] conv5 -> conv5
I0108 14:27:01.198874 40036 net.cpp:122] Setting up conv5
I0108 14:27:01.198920 40036 net.cpp:129] Top shape: 256 256 13 13 (11075584)
I0108 14:27:01.198931 40036 net.cpp:137] Memory required for data: 2799930368
I0108 14:27:01.198946 40036 layer_factory.hpp:77] Creating layer bn5
I0108 14:27:01.199021 40036 net.cpp:84] Creating Layer bn5
I0108 14:27:01.199048 40036 net.cpp:406] bn5 <- conv5
I0108 14:27:01.199069 40036 net.cpp:367] bn5 -> conv5 (in-place)
I0108 14:27:01.199244 40036 net.cpp:122] Setting up bn5
I0108 14:27:01.199260 40036 net.cpp:129] Top shape: 256 256 13 13 (11075584)
I0108 14:27:01.199270 40036 net.cpp:137] Memory required for data: 2844232704
I0108 14:27:01.199290 40036 layer_factory.hpp:77] Creating layer scale5
I0108 14:27:01.199304 40036 net.cpp:84] Creating Layer scale5
I0108 14:27:01.199313 40036 net.cpp:406] scale5 <- conv5
I0108 14:27:01.199326 40036 net.cpp:367] scale5 -> conv5 (in-place)
I0108 14:27:01.199368 40036 layer_factory.hpp:77] Creating layer scale5
I0108 14:27:01.199473 40036 net.cpp:122] Setting up scale5
I0108 14:27:01.199489 40036 net.cpp:129] Top shape: 256 256 13 13 (11075584)
I0108 14:27:01.199497 40036 net.cpp:137] Memory required for data: 2888535040
I0108 14:27:01.199509 40036 layer_factory.hpp:77] Creating layer relu5
I0108 14:27:01.199522 40036 net.cpp:84] Creating Layer relu5
I0108 14:27:01.199532 40036 net.cpp:406] relu5 <- conv5
I0108 14:27:01.199542 40036 net.cpp:367] relu5 -> conv5 (in-place)
I0108 14:27:01.199554 40036 net.cpp:122] Setting up relu5
I0108 14:27:01.199565 40036 net.cpp:129] Top shape: 256 256 13 13 (11075584)
I0108 14:27:01.199573 40036 net.cpp:137] Memory required for data: 2932837376
I0108 14:27:01.199581 40036 layer_factory.hpp:77] Creating layer pool5
I0108 14:27:01.199594 40036 net.cpp:84] Creating Layer pool5
I0108 14:27:01.199604 40036 net.cpp:406] pool5 <- conv5
I0108 14:27:01.199615 40036 net.cpp:380] pool5 -> pool5
I0108 14:27:01.199654 40036 net.cpp:122] Setting up pool5
I0108 14:27:01.199669 40036 net.cpp:129] Top shape: 256 256 6 6 (2359296)
I0108 14:27:01.199677 40036 net.cpp:137] Memory required for data: 2942274560
I0108 14:27:01.199687 40036 layer_factory.hpp:77] Creating layer fc6
I0108 14:27:01.199707 40036 net.cpp:84] Creating Layer fc6
I0108 14:27:01.199717 40036 net.cpp:406] fc6 <- pool5
I0108 14:27:01.199729 40036 net.cpp:380] fc6 -> fc6
I0108 14:27:02.332650 40036 net.cpp:122] Setting up fc6
I0108 14:27:02.332741 40036 net.cpp:129] Top shape: 256 4096 (1048576)
I0108 14:27:02.332756 40036 net.cpp:137] Memory required for data: 2946468864
I0108 14:27:02.332773 40036 layer_factory.hpp:77] Creating layer bn6
I0108 14:27:02.332793 40036 net.cpp:84] Creating Layer bn6
I0108 14:27:02.332805 40036 net.cpp:406] bn6 <- fc6
I0108 14:27:02.332820 40036 net.cpp:367] bn6 -> fc6 (in-place)
I0108 14:27:02.332996 40036 net.cpp:122] Setting up bn6
I0108 14:27:02.333014 40036 net.cpp:129] Top shape: 256 4096 (1048576)
I0108 14:27:02.333022 40036 net.cpp:137] Memory required for data: 2950663168
I0108 14:27:02.333078 40036 layer_factory.hpp:77] Creating layer scale6
I0108 14:27:02.333096 40036 net.cpp:84] Creating Layer scale6
I0108 14:27:02.333106 40036 net.cpp:406] scale6 <- fc6
I0108 14:27:02.333117 40036 net.cpp:367] scale6 -> fc6 (in-place)
I0108 14:27:02.333165 40036 layer_factory.hpp:77] Creating layer scale6
I0108 14:27:02.333288 40036 net.cpp:122] Setting up scale6
I0108 14:27:02.333305 40036 net.cpp:129] Top shape: 256 4096 (1048576)
I0108 14:27:02.333313 40036 net.cpp:137] Memory required for data: 2954857472
I0108 14:27:02.333325 40036 layer_factory.hpp:77] Creating layer relu6
I0108 14:27:02.333338 40036 net.cpp:84] Creating Layer relu6
I0108 14:27:02.333348 40036 net.cpp:406] relu6 <- fc6
I0108 14:27:02.333358 40036 net.cpp:367] relu6 -> fc6 (in-place)
I0108 14:27:02.333369 40036 net.cpp:122] Setting up relu6
I0108 14:27:02.333379 40036 net.cpp:129] Top shape: 256 4096 (1048576)
I0108 14:27:02.333387 40036 net.cpp:137] Memory required for data: 2959051776
I0108 14:27:02.333396 40036 layer_factory.hpp:77] Creating layer drop6
I0108 14:27:02.333415 40036 net.cpp:84] Creating Layer drop6
I0108 14:27:02.333425 40036 net.cpp:406] drop6 <- fc6
I0108 14:27:02.333436 40036 net.cpp:367] drop6 -> fc6 (in-place)
I0108 14:27:02.333472 40036 net.cpp:122] Setting up drop6
I0108 14:27:02.333489 40036 net.cpp:129] Top shape: 256 4096 (1048576)
I0108 14:27:02.333498 40036 net.cpp:137] Memory required for data: 2963246080
I0108 14:27:02.333508 40036 layer_factory.hpp:77] Creating layer fc7
I0108 14:27:02.333523 40036 net.cpp:84] Creating Layer fc7
I0108 14:27:02.333533 40036 net.cpp:406] fc7 <- fc6
I0108 14:27:02.333544 40036 net.cpp:380] fc7 -> fc7
I0108 14:27:02.835790 40036 net.cpp:122] Setting up fc7
I0108 14:27:02.835887 40036 net.cpp:129] Top shape: 256 4096 (1048576)
I0108 14:27:02.835898 40036 net.cpp:137] Memory required for data: 2967440384
I0108 14:27:02.835914 40036 layer_factory.hpp:77] Creating layer bn7
I0108 14:27:02.835933 40036 net.cpp:84] Creating Layer bn7
I0108 14:27:02.835944 40036 net.cpp:406] bn7 <- fc7
I0108 14:27:02.835958 40036 net.cpp:367] bn7 -> fc7 (in-place)
I0108 14:27:02.836127 40036 net.cpp:122] Setting up bn7
I0108 14:27:02.836143 40036 net.cpp:129] Top shape: 256 4096 (1048576)
I0108 14:27:02.836151 40036 net.cpp:137] Memory required for data: 2971634688
I0108 14:27:02.836164 40036 layer_factory.hpp:77] Creating layer scale7
I0108 14:27:02.836184 40036 net.cpp:84] Creating Layer scale7
I0108 14:27:02.836194 40036 net.cpp:406] scale7 <- fc7
I0108 14:27:02.836205 40036 net.cpp:367] scale7 -> fc7 (in-place)
I0108 14:27:02.836249 40036 layer_factory.hpp:77] Creating layer scale7
I0108 14:27:02.836365 40036 net.cpp:122] Setting up scale7
I0108 14:27:02.836382 40036 net.cpp:129] Top shape: 256 4096 (1048576)
I0108 14:27:02.836390 40036 net.cpp:137] Memory required for data: 2975828992
I0108 14:27:02.836402 40036 layer_factory.hpp:77] Creating layer relu7
I0108 14:27:02.836416 40036 net.cpp:84] Creating Layer relu7
I0108 14:27:02.836424 40036 net.cpp:406] relu7 <- fc7
I0108 14:27:02.836434 40036 net.cpp:367] relu7 -> fc7 (in-place)
I0108 14:27:02.836447 40036 net.cpp:122] Setting up relu7
I0108 14:27:02.836457 40036 net.cpp:129] Top shape: 256 4096 (1048576)
I0108 14:27:02.836465 40036 net.cpp:137] Memory required for data: 2980023296
I0108 14:27:02.836473 40036 layer_factory.hpp:77] Creating layer drop7
I0108 14:27:02.836486 40036 net.cpp:84] Creating Layer drop7
I0108 14:27:02.836495 40036 net.cpp:406] drop7 <- fc7
I0108 14:27:02.836506 40036 net.cpp:367] drop7 -> fc7 (in-place)
I0108 14:27:02.836531 40036 net.cpp:122] Setting up drop7
I0108 14:27:02.836544 40036 net.cpp:129] Top shape: 256 4096 (1048576)
I0108 14:27:02.836554 40036 net.cpp:137] Memory required for data: 2984217600
I0108 14:27:02.836561 40036 layer_factory.hpp:77] Creating layer fc8
I0108 14:27:02.836576 40036 net.cpp:84] Creating Layer fc8
I0108 14:27:02.836585 40036 net.cpp:406] fc8 <- fc7
I0108 14:27:02.836597 40036 net.cpp:380] fc8 -> fc8
I0108 14:27:02.958932 40036 net.cpp:122] Setting up fc8
I0108 14:27:02.959136 40036 net.cpp:129] Top shape: 256 1000 (256000)
I0108 14:27:02.959151 40036 net.cpp:137] Memory required for data: 2985241600
I0108 14:27:02.959170 40036 layer_factory.hpp:77] Creating layer fc8_fc8_0_split
I0108 14:27:02.959188 40036 net.cpp:84] Creating Layer fc8_fc8_0_split
I0108 14:27:02.959200 40036 net.cpp:406] fc8_fc8_0_split <- fc8
I0108 14:27:02.959215 40036 net.cpp:380] fc8_fc8_0_split -> fc8_fc8_0_split_0
I0108 14:27:02.959233 40036 net.cpp:380] fc8_fc8_0_split -> fc8_fc8_0_split_1
I0108 14:27:02.959280 40036 net.cpp:122] Setting up fc8_fc8_0_split
I0108 14:27:02.959295 40036 net.cpp:129] Top shape: 256 1000 (256000)
I0108 14:27:02.959306 40036 net.cpp:129] Top shape: 256 1000 (256000)
I0108 14:27:02.959314 40036 net.cpp:137] Memory required for data: 2987289600
I0108 14:27:02.959322 40036 layer_factory.hpp:77] Creating layer accuracy_5_TRAIN
I0108 14:27:02.959345 40036 net.cpp:84] Creating Layer accuracy_5_TRAIN
I0108 14:27:02.959355 40036 net.cpp:406] accuracy_5_TRAIN <- fc8_fc8_0_split_0
I0108 14:27:02.959365 40036 net.cpp:406] accuracy_5_TRAIN <- label_data_1_split_0
…
I0108 14:27:02.962376 40036 net.cpp:294] The NetState phase (1) differed from the phase (0) specified by a rule in layer accuracy_5_TRAIN
I0108 14:27:02.962576 40036 net.cpp:51] Initializing net from parameters: 
name: "AlexNet-BN"
state {
  phase: TEST
}
layer {
  name: "data"
  type: "Data"
  top: "data"
  top: "label"
  include {
    phase: TEST
  }
  transform_param {
    mirror: false
    crop_size: 224
    mean_value: 103.939
    mean_value: 116.779
    mean_value: 123.68
  }
  data_param {
    source: "/mllib/imagenet/ilsvrc12/lmdb_resize/ilsvrc12_val_lmdb"
    batch_size: 50
    backend: LMDB
  }
}
layer {
  name: "conv1"
  type: "Convolution"
  bottom: "data"
  top: "conv1"
  param {
    lr_mult: 1
    decay_mult: 1
  }
  param {
    lr_mult: 2
    decay_mult: 0
  }
  convolution_param {
    num_output: 96
    pad: 2
    kernel_size: 11
    stride: 4
    weight_filler {
      type: "gaussian"
      std: 0.01
    }
    bias_filler {
      type: "constant"
      value: 0
    }
  }
}
layer {
  name: "bn1"
  type: "BatchNorm"
  bottom: "conv1"
  top: "conv1"
}
layer {
  name: "scale1"
  type: "Scale"
  bottom: "conv1"
  top: "conv1"
  scale_param {
    bias_term: true
  }
}
layer {
  name: "relu1"
  type: "ReLU"
  bottom: "conv1"
  top: "conv1"
}
layer {
  name: "pool1"
  type: "Pooling"
  bottom: "conv1"
  top: "pool1"
  pooling_param {
    pool: MAX
    kernel_size: 3
    stride: 2
  }
}
layer {
  name: "conv2"
  type: "Convolution"
  bottom: "pool1"
  top: "conv2"
  param {
    lr_mult: 1
    decay_mult: 1
  }
  param {
    lr_mult: 2
    decay_mult: 0
  }
  convolution_param {
    num_output: 256
    pad: 2
    kernel_size: 5
    weight_filler {
      type: "gaussian"
      std: 0.01
    }
    bias_filler {
      type: "constant"
      value: 0.1
    }
  }
}
layer {
  name: "bn2"
  type: "BatchNorm"
  bottom: "conv2"
  top: "conv2"
}
layer {
  name: "scale2"
  type: "Scale"
  bottom: "conv2"
  top: "conv2"
  scale_param {
    bias_term: true
  }
}
layer {
  name: "relu2"
  type: "ReLU"
  bottom: "conv2"
  top: "conv2"
}
layer {
  name: "pool2"
  type: "Pooling"
  bottom: "conv2"
  top: "pool2"
  pooling_param {
    pool: MAX
    kernel_size: 3
    stride: 2
  }
}
layer {
  name: "conv3"
  type: "Convolution"
  bottom: "pool2"
  top: "conv3"
  param {
    lr_mult: 1
    decay_mult: 1
  }
  param {
    lr_mult: 2
    decay_mult: 0
  }
  convolution_param {
    num_output: 384
    pad: 1
    kernel_size: 3
    weight_filler {
      type: "gaussian"
      std: 0.01
    }
    bias_filler {
      type: "constant"
      value: 0
    }
  }
}
layer {
  name: "bn3"
  type: "BatchNorm"
  bottom: "conv3"
  top: "conv3"
}
layer {
  name: "scale3"
  type: "Scale"
  bottom: "conv3"
  top: "conv3"
  scale_param {
    bias_term: true
  }
}
layer {
  name: "relu3"
  type: "ReLU"
  bottom: "conv3"
  top: "conv3"
}
layer {
  name: "conv4"
  type: "Convolution"
  bottom: "conv3"
  top: "conv4"
  param {
    lr_mult: 1
    decay_mult: 1
  }
  param {
    lr_mult: 2
    decay_mult: 0
  }
  convolution_param {
    num_output: 384
    pad: 1
    kernel_size: 3
    weight_filler {
      type: "gaussian"
      std: 0.01
    }
    bias_filler {
      type: "constant"
      value: 0.1
    }
  }
}
layer {
  name: "bn4"
  type: "BatchNorm"
  bottom: "conv4"
  top: "conv4"
}
layer {
  name: "scale4"
  type: "Scale"
  bottom: "conv4"
  top: "conv4"
  scale_param {
    bias_term: true
  }
}
layer {
  name: "relu4"
  type: "ReLU"
  bottom: "conv4"
  top: "conv4"
}
layer {
  name: "conv5"
  type: "Convolution"
  bottom: "conv4"
  top: "conv5"
  param {
    lr_mult: 1
    decay_mult: 1
  }
  param {
    lr_mult: 2
    decay_mult: 0
  }
  convolution_param {
    num_output: 256
    pad: 1
    kernel_size: 3
    weight_filler {
      type: "gaussian"
      std: 0.01
    }
    bias_filler {
      type: "constant"
      value: 0.1
    }
  }
}
layer {
  name: "bn5"
  type: "BatchNorm"
  bottom: "conv5"
  top: "conv5"
}
layer {
  name: "scale5"
  type: "Scale"
  bottom: "conv5"
  top: "conv5"
  scale_param {
    bias_term: true
  }
}
layer {
  name: "relu5"
  type: "ReLU"
  bottom: "conv5"
  top: "conv5"
}
layer {
  name: "pool5"
  type: "Pooling"
  bottom: "conv5"
  top: "pool5"
  pooling_param {
    pool: MAX
    kernel_size: 3
    stride: 2
  }
}
layer {
  name: "fc6"
  type: "InnerProduct"
  bottom: "pool5"
  top: "fc6"
  param {
    lr_mult: 1
    decay_mult: 1
  }
  param {
    lr_mult: 2
    decay_mult: 0
  }
  inner_product_param {
    num_output: 4096
    weight_filler {
      type: "gaussian"
      std: 0.005
    }
    bias_filler {
      type: "constant"
      value: 0.1
    }
  }
}
layer {
  name: "bn6"
  type: "BatchNorm"
  bottom: "fc6"
  top: "fc6"
}
layer {
  name: "scale6"
  type: "Scale"
  bottom: "fc6"
  top: "fc6"
  scale_param {
    bias_term: true
  }
}
layer {
  name: "relu6"
  type: "ReLU"
  bottom: "fc6"
  top: "fc6"
}
layer {
  name: "drop6"
  type: "Dropout"
  bottom: "fc6"
  top: "fc6"
  dropout_param {
    dropout_ratio: 0.5
  }
}
layer {
  name: "fc7"
  type: "InnerProduct"
  bottom: "fc6"
  top: "fc7"
  param {
    lr_mult: 1
    decay_mult: 1
  }
  param {
    lr_mult: 2
    decay_mult: 0
  }
  inner_product_param {
    num_output: 4096
    weight_filler {
      type: "gaussian"
      std: 0.005
    }
    bias_filler {
      type: "constant"
      value: 0.1
    }
  }
}
layer {
  name: "bn7"
  type: "BatchNorm"
  bottom: "fc7"
  top: "fc7"
}
layer {
  name: "scale7"
  type: "Scale"
  bottom: "fc7"
  top: "fc7"
  scale_param {
    bias_term: true
  }
}
layer {
  name: "relu7"
  type: "ReLU"
  bottom: "fc7"
  top: "fc7"
}
layer {
  name: "drop7"
  type: "Dropout"
  bottom: "fc7"
  top: "fc7"
  dropout_param {
    dropout_ratio: 0.5
  }
}
layer {
  name: "fc8"
  type: "InnerProduct"
  bottom: "fc7"
  top: "fc8"
  param {
    lr_mult: 1
    decay_mult: 1
  }
  param {
    lr_mult: 2
    decay_mult: 0
  }
  inner_product_param {
    num_output: 1000
    weight_filler {
      type: "gaussian"
      std: 0.01
    }
    bias_filler {
      type: "constant"
      value: 0
    }
  }
}
layer {
  name: "accuracy"
  type: "Accuracy"
  bottom: "fc8"
  bottom: "label"
  top: "accuracy"
  include {
    phase: TEST
  }
}
layer {
  name: "accuracy_5"
  type: "Accuracy"
  bottom: "fc8"
  bottom: "label"
  top: "accuracy_5"
  include {
    phase: TEST
  }
  accuracy_param {
    top_k: 5
  }
}
layer {
  name: "loss"
  type: "SoftmaxWithLoss"
  bottom: "fc8"
  bottom: "label"
  top: "loss"
}
I0108 14:27:02.962736 40036 layer_factory.hpp:77] Creating layer data
I0108 14:27:02.962810 40036 db_lmdb.cpp:35] Opened lmdb /mllib/imagenet/ilsvrc12/lmdb_resize/ilsvrc12_val_lmdb
I0108 14:27:02.962838 40036 net.cpp:84] Creating Layer data
I0108 14:27:02.962852 40036 net.cpp:380] data -> data
I0108 14:27:02.962877 40036 net.cpp:380] data -> label
I0108 14:27:02.963168 40036 data_layer.cpp:45] output data size: 50,3,224,224
I0108 14:27:03.070467 40036 net.cpp:122] Setting up data
I0108 14:27:03.070516 40036 net.cpp:129] Top shape: 50 3 224 224 (7526400)
I0108 14:27:03.070529 40036 net.cpp:129] Top shape: 50 (50)
I0108 14:27:03.070538 40036 net.cpp:137] Memory required for data: 30105800
I0108 14:27:03.070552 40036 layer_factory.hpp:77] Creating layer label_data_1_split
I0108 14:27:03.070575 40036 net.cpp:84] Creating Layer label_data_1_split
I0108 14:27:03.070586 40036 net.cpp:406] label_data_1_split <- label
I0108 14:27:03.070601 40036 net.cpp:380] label_data_1_split -> label_data_1_split_0
I0108 14:27:03.070621 40036 net.cpp:380] label_data_1_split -> label_data_1_split_1
I0108 14:27:03.070632 40036 net.cpp:380] label_data_1_split -> label_data_1_split_2
I0108 14:27:03.070806 40036 net.cpp:122] Setting up label_data_1_split
I0108 14:27:03.070844 40036 net.cpp:129] Top shape: 50 (50)
I0108 14:27:03.070852 40036 net.cpp:129] Top shape: 50 (50)
I0108 14:27:03.070859 40036 net.cpp:129] Top shape: 50 (50)
I0108 14:27:03.070864 40036 net.cpp:137] Memory required for data: 30106400
I0108 14:27:03.070873 40036 layer_factory.hpp:77] Creating layer conv1
I0108 14:27:03.070897 40036 net.cpp:84] Creating Layer conv1
I0108 14:27:03.070904 40036 net.cpp:406] conv1 <- data
I0108 14:27:03.070917 40036 net.cpp:380] conv1 -> conv1
I0108 14:27:03.076526 40036 net.cpp:122] Setting up conv1
I0108 14:27:03.076550 40036 net.cpp:129] Top shape: 50 96 55 55 (14520000)
I0108 14:27:03.076558 40036 net.cpp:137] Memory required for data: 88186400
I0108 14:27:03.076576 40036 layer_factory.hpp:77] Creating layer bn1
I0108 14:27:03.076591 40036 net.cpp:84] Creating Layer bn1
I0108 14:27:03.076601 40036 net.cpp:406] bn1 <- conv1
I0108 14:27:03.076612 40036 net.cpp:367] bn1 -> conv1 (in-place)
I0108 14:27:03.076869 40036 net.cpp:122] Setting up bn1
I0108 14:27:03.076890 40036 net.cpp:129] Top shape: 50 96 55 55 (14520000)
I0108 14:27:03.076900 40036 net.cpp:137] Memory required for data: 146266400
I0108 14:27:03.076917 40036 layer_factory.hpp:77] Creating layer scale1
I0108 14:27:03.076934 40036 net.cpp:84] Creating Layer scale1
I0108 14:27:03.076944 40036 net.cpp:406] scale1 <- conv1
I0108 14:27:03.076957 40036 net.cpp:367] scale1 -> conv1 (in-place)
I0108 14:27:03.077011 40036 layer_factory.hpp:77] Creating layer scale1
I0108 14:27:03.077144 40036 net.cpp:122] Setting up scale1
I0108 14:27:03.077162 40036 net.cpp:129] Top shape: 50 96 55 55 (14520000)
I0108 14:27:03.077172 40036 net.cpp:137] Memory required for data: 204346400
I0108 14:27:03.077183 40036 layer_factory.hpp:77] Creating layer relu1
I0108 14:27:03.077196 40036 net.cpp:84] Creating Layer relu1
I0108 14:27:03.077206 40036 net.cpp:406] relu1 <- conv1
I0108 14:27:03.077217 40036 net.cpp:367] relu1 -> conv1 (in-place)
I0108 14:27:03.077230 40036 net.cpp:122] Setting up relu1
I0108 14:27:03.077241 40036 net.cpp:129] Top shape: 50 96 55 55 (14520000)
I0108 14:27:03.077250 40036 net.cpp:137] Memory required for data: 262426400
I0108 14:27:03.077258 40036 layer_factory.hpp:77] Creating layer pool1
I0108 14:27:03.077271 40036 net.cpp:84] Creating Layer pool1
I0108 14:27:03.077281 40036 net.cpp:406] pool1 <- conv1
I0108 14:27:03.077292 40036 net.cpp:380] pool1 -> pool1
I0108 14:27:03.077340 40036 net.cpp:122] Setting up pool1
I0108 14:27:03.077356 40036 net.cpp:129] Top shape: 50 96 27 27 (3499200)
I0108 14:27:03.077365 40036 net.cpp:137] Memory required for data: 276423200
I0108 14:27:03.077374 40036 layer_factory.hpp:77] Creating layer conv2
I0108 14:27:03.077391 40036 net.cpp:84] Creating Layer conv2
I0108 14:27:03.077401 40036 net.cpp:406] conv2 <- pool1
I0108 14:27:03.077414 40036 net.cpp:380] conv2 -> conv2
I0108 14:27:03.097198 40036 net.cpp:122] Setting up conv2
I0108 14:27:03.097254 40036 net.cpp:129] Top shape: 50 256 27 27 (9331200)
I0108 14:27:03.097265 40036 net.cpp:137] Memory required for data: 313748000
I0108 14:27:03.097286 40036 layer_factory.hpp:77] Creating layer bn2
I0108 14:27:03.097352 40036 net.cpp:84] Creating Layer bn2
I0108 14:27:03.097365 40036 net.cpp:406] bn2 <- conv2
I0108 14:27:03.097379 40036 net.cpp:367] bn2 -> conv2 (in-place)
I0108 14:27:03.097574 40036 net.cpp:122] Setting up bn2
I0108 14:27:03.097592 40036 net.cpp:129] Top shape: 50 256 27 27 (9331200)
I0108 14:27:03.097601 40036 net.cpp:137] Memory required for data: 351072800
I0108 14:27:03.097615 40036 layer_factory.hpp:77] Creating layer scale2
I0108 14:27:03.097631 40036 net.cpp:84] Creating Layer scale2
I0108 14:27:03.097641 40036 net.cpp:406] scale2 <- conv2
I0108 14:27:03.097652 40036 net.cpp:367] scale2 -> conv2 (in-place)
I0108 14:27:03.097704 40036 layer_factory.hpp:77] Creating layer scale2
I0108 14:27:03.097821 40036 net.cpp:122] Setting up scale2
I0108 14:27:03.097838 40036 net.cpp:129] Top shape: 50 256 27 27 (9331200)
I0108 14:27:03.097846 40036 net.cpp:137] Memory required for data: 388397600
I0108 14:27:03.097858 40036 layer_factory.hpp:77] Creating layer relu2
I0108 14:27:03.097872 40036 net.cpp:84] Creating Layer relu2
I0108 14:27:03.097880 40036 net.cpp:406] relu2 <- conv2
I0108 14:27:03.097892 40036 net.cpp:367] relu2 -> conv2 (in-place)
I0108 14:27:03.097903 40036 net.cpp:122] Setting up relu2
I0108 14:27:03.097914 40036 net.cpp:129] Top shape: 50 256 27 27 (9331200)
I0108 14:27:03.097923 40036 net.cpp:137] Memory required for data: 425722400
I0108 14:27:03.097931 40036 layer_factory.hpp:77] Creating layer pool2
I0108 14:27:03.097944 40036 net.cpp:84] Creating Layer pool2
I0108 14:27:03.097954 40036 net.cpp:406] pool2 <- conv2
I0108 14:27:03.097965 40036 net.cpp:380] pool2 -> pool2
I0108 14:27:03.098014 40036 net.cpp:122] Setting up pool2
I0108 14:27:03.098031 40036 net.cpp:129] Top shape: 50 256 13 13 (2163200)
I0108 14:27:03.098038 40036 net.cpp:137] Memory required for data: 434375200
I0108 14:27:03.098047 40036 layer_factory.hpp:77] Creating layer conv3
I0108 14:27:03.098067 40036 net.cpp:84] Creating Layer conv3
I0108 14:27:03.098076 40036 net.cpp:406] conv3 <- pool2
I0108 14:27:03.098089 40036 net.cpp:380] conv3 -> conv3
I0108 14:27:03.125517 40036 net.cpp:122] Setting up conv3
I0108 14:27:03.125567 40036 net.cpp:129] Top shape: 50 384 13 13 (3244800)
I0108 14:27:03.125577 40036 net.cpp:137] Memory required for data: 447354400
I0108 14:27:03.125593 40036 layer_factory.hpp:77] Creating layer bn3
I0108 14:27:03.125612 40036 net.cpp:84] Creating Layer bn3
I0108 14:27:03.125623 40036 net.cpp:406] bn3 <- conv3
I0108 14:27:03.125638 40036 net.cpp:367] bn3 -> conv3 (in-place)
I0108 14:27:03.125828 40036 net.cpp:122] Setting up bn3
I0108 14:27:03.125844 40036 net.cpp:129] Top shape: 50 384 13 13 (3244800)
I0108 14:27:03.125854 40036 net.cpp:137] Memory required for data: 460333600
I0108 14:27:03.125872 40036 layer_factory.hpp:77] Creating layer scale3
I0108 14:27:03.125888 40036 net.cpp:84] Creating Layer scale3
I0108 14:27:03.125897 40036 net.cpp:406] scale3 <- conv3
I0108 14:27:03.125908 40036 net.cpp:367] scale3 -> conv3 (in-place)
I0108 14:27:03.125958 40036 layer_factory.hpp:77] Creating layer scale3
I0108 14:27:03.126077 40036 net.cpp:122] Setting up scale3
I0108 14:27:03.126093 40036 net.cpp:129] Top shape: 50 384 13 13 (3244800)
I0108 14:27:03.126102 40036 net.cpp:137] Memory required for data: 473312800
I0108 14:27:03.126114 40036 layer_factory.hpp:77] Creating layer relu3
I0108 14:27:03.126127 40036 net.cpp:84] Creating Layer relu3
I0108 14:27:03.126137 40036 net.cpp:406] relu3 <- conv3
I0108 14:27:03.126147 40036 net.cpp:367] relu3 -> conv3 (in-place)
I0108 14:27:03.126159 40036 net.cpp:122] Setting up relu3
I0108 14:27:03.126170 40036 net.cpp:129] Top shape: 50 384 13 13 (3244800)
I0108 14:27:03.126178 40036 net.cpp:137] Memory required for data: 486292000
I0108 14:27:03.126188 40036 layer_factory.hpp:77] Creating layer conv4
I0108 14:27:03.126209 40036 net.cpp:84] Creating Layer conv4
I0108 14:27:03.126219 40036 net.cpp:406] conv4 <- conv3
I0108 14:27:03.126231 40036 net.cpp:380] conv4 -> conv4
I0108 14:27:03.167052 40036 net.cpp:122] Setting up conv4
I0108 14:27:03.167101 40036 net.cpp:129] Top shape: 50 384 13 13 (3244800)
I0108 14:27:03.167158 40036 net.cpp:137] Memory required for data: 499271200
I0108 14:27:03.167179 40036 layer_factory.hpp:77] Creating layer bn4
I0108 14:27:03.167199 40036 net.cpp:84] Creating Layer bn4
I0108 14:27:03.167212 40036 net.cpp:406] bn4 <- conv4
I0108 14:27:03.167225 40036 net.cpp:367] bn4 -> conv4 (in-place)
I0108 14:27:03.167423 40036 net.cpp:122] Setting up bn4
I0108 14:27:03.167440 40036 net.cpp:129] Top shape: 50 384 13 13 (3244800)
I0108 14:27:03.167448 40036 net.cpp:137] Memory required for data: 512250400
I0108 14:27:03.167462 40036 layer_factory.hpp:77] Creating layer scale4
I0108 14:27:03.167477 40036 net.cpp:84] Creating Layer scale4
I0108 14:27:03.167486 40036 net.cpp:406] scale4 <- conv4
I0108 14:27:03.167497 40036 net.cpp:367] scale4 -> conv4 (in-place)
I0108 14:27:03.167546 40036 layer_factory.hpp:77] Creating layer scale4
I0108 14:27:03.167671 40036 net.cpp:122] Setting up scale4
I0108 14:27:03.167690 40036 net.cpp:129] Top shape: 50 384 13 13 (3244800)
I0108 14:27:03.167698 40036 net.cpp:137] Memory required for data: 525229600
I0108 14:27:03.167713 40036 layer_factory.hpp:77] Creating layer relu4
I0108 14:27:03.167727 40036 net.cpp:84] Creating Layer relu4
I0108 14:27:03.167737 40036 net.cpp:406] relu4 <- conv4
I0108 14:27:03.167747 40036 net.cpp:367] relu4 -> conv4 (in-place)
I0108 14:27:03.167758 40036 net.cpp:122] Setting up relu4
I0108 14:27:03.167768 40036 net.cpp:129] Top shape: 50 384 13 13 (3244800)
I0108 14:27:03.167776 40036 net.cpp:137] Memory required for data: 538208800
I0108 14:27:03.167785 40036 layer_factory.hpp:77] Creating layer conv5
I0108 14:27:03.167804 40036 net.cpp:84] Creating Layer conv5
I0108 14:27:03.167814 40036 net.cpp:406] conv5 <- conv4
I0108 14:27:03.167825 40036 net.cpp:380] conv5 -> conv5
I0108 14:27:03.201783 40036 net.cpp:122] Setting up conv5
I0108 14:27:03.201830 40036 net.cpp:129] Top shape: 50 256 13 13 (2163200)
I0108 14:27:03.201840 40036 net.cpp:137] Memory required for data: 546861600
I0108 14:27:03.201856 40036 layer_factory.hpp:77] Creating layer bn5
I0108 14:27:03.201875 40036 net.cpp:84] Creating Layer bn5
I0108 14:27:03.201886 40036 net.cpp:406] bn5 <- conv5
I0108 14:27:03.201901 40036 net.cpp:367] bn5 -> conv5 (in-place)
I0108 14:27:03.202092 40036 net.cpp:122] Setting up bn5
I0108 14:27:03.202109 40036 net.cpp:129] Top shape: 50 256 13 13 (2163200)
I0108 14:27:03.202118 40036 net.cpp:137] Memory required for data: 555514400
I0108 14:27:03.202139 40036 layer_factory.hpp:77] Creating layer scale5
I0108 14:27:03.202155 40036 net.cpp:84] Creating Layer scale5
I0108 14:27:03.202164 40036 net.cpp:406] scale5 <- conv5
I0108 14:27:03.202175 40036 net.cpp:367] scale5 -> conv5 (in-place)
I0108 14:27:03.202244 40036 layer_factory.hpp:77] Creating layer scale5
I0108 14:27:03.202363 40036 net.cpp:122] Setting up scale5
I0108 14:27:03.202379 40036 net.cpp:129] Top shape: 50 256 13 13 (2163200)
I0108 14:27:03.202389 40036 net.cpp:137] Memory required for data: 564167200
I0108 14:27:03.202400 40036 layer_factory.hpp:77] Creating layer relu5
I0108 14:27:03.202414 40036 net.cpp:84] Creating Layer relu5
I0108 14:27:03.202424 40036 net.cpp:406] relu5 <- conv5
I0108 14:27:03.202435 40036 net.cpp:367] relu5 -> conv5 (in-place)
I0108 14:27:03.202445 40036 net.cpp:122] Setting up relu5
I0108 14:27:03.202456 40036 net.cpp:129] Top shape: 50 256 13 13 (2163200)
I0108 14:27:03.202466 40036 net.cpp:137] Memory required for data: 572820000
I0108 14:27:03.202473 40036 layer_factory.hpp:77] Creating layer pool5
I0108 14:27:03.202486 40036 net.cpp:84] Creating Layer pool5
I0108 14:27:03.202495 40036 net.cpp:406] pool5 <- conv5
I0108 14:27:03.202507 40036 net.cpp:380] pool5 -> pool5
I0108 14:27:03.202555 40036 net.cpp:122] Setting up pool5
I0108 14:27:03.202571 40036 net.cpp:129] Top shape: 50 256 6 6 (460800)
I0108 14:27:03.202580 40036 net.cpp:137] Memory required for data: 574663200
I0108 14:27:03.202589 40036 layer_factory.hpp:77] Creating layer fc6
I0108 14:27:03.202605 40036 net.cpp:84] Creating Layer fc6
I0108 14:27:03.202652 40036 net.cpp:406] fc6 <- pool5
I0108 14:27:03.202666 40036 net.cpp:380] fc6 -> fc6
I0108 14:27:04.342571 40036 net.cpp:122] Setting up fc6
I0108 14:27:04.342629 40036 net.cpp:129] Top shape: 50 4096 (204800)
I0108 14:27:04.342641 40036 net.cpp:137] Memory required for data: 575482400
I0108 14:27:04.342658 40036 layer_factory.hpp:77] Creating layer bn6
I0108 14:27:04.342679 40036 net.cpp:84] Creating Layer bn6
I0108 14:27:04.342690 40036 net.cpp:406] bn6 <- fc6
I0108 14:27:04.342705 40036 net.cpp:367] bn6 -> fc6 (in-place)
I0108 14:27:04.342905 40036 net.cpp:122] Setting up bn6
I0108 14:27:04.342923 40036 net.cpp:129] Top shape: 50 4096 (204800)
I0108 14:27:04.342932 40036 net.cpp:137] Memory required for data: 576301600
I0108 14:27:04.342945 40036 layer_factory.hpp:77] Creating layer scale6
I0108 14:27:04.342964 40036 net.cpp:84] Creating Layer scale6
I0108 14:27:04.342974 40036 net.cpp:406] scale6 <- fc6
I0108 14:27:04.342986 40036 net.cpp:367] scale6 -> fc6 (in-place)
I0108 14:27:04.343040 40036 layer_factory.hpp:77] Creating layer scale6
I0108 14:27:04.343173 40036 net.cpp:122] Setting up scale6
I0108 14:27:04.343189 40036 net.cpp:129] Top shape: 50 4096 (204800)
I0108 14:27:04.343197 40036 net.cpp:137] Memory required for data: 577120800
I0108 14:27:04.343209 40036 layer_factory.hpp:77] Creating layer relu6
I0108 14:27:04.343222 40036 net.cpp:84] Creating Layer relu6
I0108 14:27:04.343231 40036 net.cpp:406] relu6 <- fc6
I0108 14:27:04.343242 40036 net.cpp:367] relu6 -> fc6 (in-place)
I0108 14:27:04.343253 40036 net.cpp:122] Setting up relu6
I0108 14:27:04.343263 40036 net.cpp:129] Top shape: 50 4096 (204800)
I0108 14:27:04.343271 40036 net.cpp:137] Memory required for data: 577940000
I0108 14:27:04.343279 40036 layer_factory.hpp:77] Creating layer drop6
I0108 14:27:04.343292 40036 net.cpp:84] Creating Layer drop6
I0108 14:27:04.343302 40036 net.cpp:406] drop6 <- fc6
I0108 14:27:04.343312 40036 net.cpp:367] drop6 -> fc6 (in-place)
I0108 14:27:04.343343 40036 net.cpp:122] Setting up drop6
I0108 14:27:04.343358 40036 net.cpp:129] Top shape: 50 4096 (204800)
I0108 14:27:04.343366 40036 net.cpp:137] Memory required for data: 578759200
I0108 14:27:04.343374 40036 layer_factory.hpp:77] Creating layer fc7
I0108 14:27:04.343389 40036 net.cpp:84] Creating Layer fc7
I0108 14:27:04.343399 40036 net.cpp:406] fc7 <- fc6
I0108 14:27:04.343410 40036 net.cpp:380] fc7 -> fc7
I0108 14:27:04.836868 40036 net.cpp:122] Setting up fc7
I0108 14:27:04.836926 40036 net.cpp:129] Top shape: 50 4096 (204800)
I0108 14:27:04.836936 40036 net.cpp:137] Memory required for data: 579578400
I0108 14:27:04.836953 40036 layer_factory.hpp:77] Creating layer bn7
I0108 14:27:04.836971 40036 net.cpp:84] Creating Layer bn7
I0108 14:27:04.836983 40036 net.cpp:406] bn7 <- fc7
I0108 14:27:04.836997 40036 net.cpp:367] bn7 -> fc7 (in-place)
I0108 14:27:04.837191 40036 net.cpp:122] Setting up bn7
I0108 14:27:04.837208 40036 net.cpp:129] Top shape: 50 4096 (204800)
I0108 14:27:04.837216 40036 net.cpp:137] Memory required for data: 580397600
I0108 14:27:04.837230 40036 layer_factory.hpp:77] Creating layer scale7
I0108 14:27:04.837249 40036 net.cpp:84] Creating Layer scale7
I0108 14:27:04.837258 40036 net.cpp:406] scale7 <- fc7
I0108 14:27:04.837270 40036 net.cpp:367] scale7 -> fc7 (in-place)
I0108 14:27:04.837321 40036 layer_factory.hpp:77] Creating layer scale7
I0108 14:27:04.837445 40036 net.cpp:122] Setting up scale7
I0108 14:27:04.837462 40036 net.cpp:129] Top shape: 50 4096 (204800)
I0108 14:27:04.837471 40036 net.cpp:137] Memory required for data: 581216800
I0108 14:27:04.837482 40036 layer_factory.hpp:77] Creating layer relu7
I0108 14:27:04.837496 40036 net.cpp:84] Creating Layer relu7
I0108 14:27:04.837504 40036 net.cpp:406] relu7 <- fc7
I0108 14:27:04.837514 40036 net.cpp:367] relu7 -> fc7 (in-place)
I0108 14:27:04.837527 40036 net.cpp:122] Setting up relu7
I0108 14:27:04.837537 40036 net.cpp:129] Top shape: 50 4096 (204800)
I0108 14:27:04.837544 40036 net.cpp:137] Memory required for data: 582036000
I0108 14:27:04.837553 40036 layer_factory.hpp:77] Creating layer drop7
I0108 14:27:04.837606 40036 net.cpp:84] Creating Layer drop7
I0108 14:27:04.837617 40036 net.cpp:406] drop7 <- fc7
I0108 14:27:04.837628 40036 net.cpp:367] drop7 -> fc7 (in-place)
I0108 14:27:04.837662 40036 net.cpp:122] Setting up drop7
I0108 14:27:04.837677 40036 net.cpp:129] Top shape: 50 4096 (204800)
I0108 14:27:04.837684 40036 net.cpp:137] Memory required for data: 582855200
I0108 14:27:04.837693 40036 layer_factory.hpp:77] Creating layer fc8
I0108 14:27:04.837708 40036 net.cpp:84] Creating Layer fc8
I0108 14:27:04.837716 40036 net.cpp:406] fc8 <- fc7
I0108 14:27:04.837729 40036 net.cpp:380] fc8 -> fc8
I0108 14:27:04.958372 40036 net.cpp:122] Setting up fc8
I0108 14:27:04.958442 40036 net.cpp:129] Top shape: 50 1000 (50000)
I0108 14:27:04.958453 40036 net.cpp:137] Memory required for data: 583055200
I0108 14:27:04.958473 40036 layer_factory.hpp:77] Creating layer fc8_fc8_0_split
I0108 14:27:04.958493 40036 net.cpp:84] Creating Layer fc8_fc8_0_split
I0108 14:27:04.958505 40036 net.cpp:406] fc8_fc8_0_split <- fc8
I0108 14:27:04.958521 40036 net.cpp:380] fc8_fc8_0_split -> fc8_fc8_0_split_0
I0108 14:27:04.958542 40036 net.cpp:380] fc8_fc8_0_split -> fc8_fc8_0_split_1
I0108 14:27:04.958555 40036 net.cpp:380] fc8_fc8_0_split -> fc8_fc8_0_split_2
I0108 14:27:04.958618 40036 net.cpp:122] Setting up fc8_fc8_0_split
I0108 14:27:04.958636 40036 net.cpp:129] Top shape: 50 1000 (50000)
I0108 14:27:04.958644 40036 net.cpp:129] Top shape: 50 1000 (50000)
I0108 14:27:04.958653 40036 net.cpp:129] Top shape: 50 1000 (50000)
I0108 14:27:04.958662 40036 net.cpp:137] Memory required for data: 583655200
I0108 14:27:04.958670 40036 layer_factory.hpp:77] Creating layer accuracy
I0108 14:27:04.958685 40036 net.cpp:84] Creating Layer accuracy
I0108 14:27:04.958694 40036 net.cpp:406] accuracy <- fc8_fc8_0_split_0
I0108 14:27:04.958704 40036 net.cpp:406] accuracy <- label_data_1_split_0
I0108 14:27:04.958716 40036 net.cpp:380] accuracy -> accuracy
…
