…
I0108 21:04:34.098907 46008 net.cpp:294] The NetState phase (0) differed from the phase (1) specified by a rule in layer accuracy_5
I0108 21:04:34.099186 46008 net.cpp:51] Initializing net from parameters: 
name: "AlexNet-BN"
state {
  phase: TRAIN
  level: 0
  stage: ""
}
layer {
  name: "data"
  type: "Data"
  top: "data"
  top: "label"
  include {
    phase: TRAIN
  }
  transform_param {
    mirror: true
    crop_size: 224
    mean_value: 103.939
    mean_value: 116.779
    mean_value: 123.68
  }
  data_param {
    source: "/home/ydwu/database/imagenet/ilsvrc12/lmdb_resize/ilsvrc12_train_lmdb"
    batch_size: 200
    backend: LMDB
  }
}
layer {
  name: "conv1"
  type: "Convolution"
  bottom: "data"
  top: "conv1"
  param {
    lr_mult: 1
    decay_mult: 1
  }
  param {
    lr_mult: 2
    decay_mult: 0
  }
  convolution_param {
    num_output: 96
    pad: 2
    kernel_size: 11
    stride: 4
    weight_filler {
      type: "gaussian"
      std: 0.01
    }
    bias_filler {
      type: "constant"
      value: 0
    }
  }
}
layer {
  name: "bn1"
  type: "BatchNorm"
  bottom: "conv1"
  top: "conv1"
}
layer {
  name: "scale1"
  type: "Scale"
  bottom: "conv1"
  top: "conv1"
  scale_param {
    bias_term: true
  }
}
layer {
  name: "relu1"
  type: "ReLU"
  bottom: "conv1"
  top: "conv1"
}
layer {
  name: "pool1"
  type: "Pooling"
  bottom: "conv1"
  top: "pool1"
  pooling_param {
    pool: MAX
    kernel_size: 3
    stride: 2
  }
}
layer {
  name: "quantized_conv1"
  type: "Quantization"
  bottom: "pool1"
  top: "pool1"
  quantization_param {
    round_method: FLOOR
    round_strategy: AGGRESSIVE
    bit_width: 4
    range: 0
    range: 6.9826913
  }
}
layer {
  name: "conv2"
  type: "Convolution"
  bottom: "pool1"
  top: "conv2"
  param {
    lr_mult: 1
    decay_mult: 1
  }
  param {
    lr_mult: 2
    decay_mult: 0
  }
  convolution_param {
    num_output: 256
    pad: 2
    kernel_size: 5
    weight_filler {
      type: "gaussian"
      std: 0.01
    }
    bias_filler {
      type: "constant"
      value: 0.1
    }
  }
}
layer {
  name: "bn2"
  type: "BatchNorm"
  bottom: "conv2"
  top: "conv2"
}
layer {
  name: "scale2"
  type: "Scale"
  bottom: "conv2"
  top: "conv2"
  scale_param {
    bias_term: true
  }
}
layer {
  name: "relu2"
  type: "ReLU"
  bottom: "conv2"
  top: "conv2"
}
layer {
  name: "pool2"
  type: "Pooling"
  bottom: "conv2"
  top: "pool2"
  pooling_param {
    pool: MAX
    kernel_size: 3
    stride: 2
  }
}
layer {
  name: "quantized_conv2"
  type: "Quantization"
  bottom: "pool2"
  top: "pool2"
  quantization_param {
    round_method: FLOOR
    round_strategy: AGGRESSIVE
    bit_width: 4
    range: 0
    range: 3.37478
  }
}
layer {
  name: "conv3"
  type: "Convolution"
  bottom: "pool2"
  top: "conv3"
  param {
    lr_mult: 1
    decay_mult: 1
  }
  param {
    lr_mult: 2
    decay_mult: 0
  }
  convolution_param {
    num_output: 384
    pad: 1
    kernel_size: 3
    weight_filler {
      type: "gaussian"
      std: 0.01
    }
    bias_filler {
      type: "constant"
      value: 0
    }
  }
}
layer {
  name: "bn3"
  type: "BatchNorm"
  bottom: "conv3"
  top: "conv3"
}
layer {
  name: "scale3"
  type: "Scale"
  bottom: "conv3"
  top: "conv3"
  scale_param {
    bias_term: true
  }
}
layer {
  name: "relu3"
  type: "ReLU"
  bottom: "conv3"
  top: "conv3"
}
layer {
  name: "quantized_conv3"
  type: "Quantization"
  bottom: "conv3"
  top: "conv3"
  quantization_param {
    round_method: FLOOR
    round_strategy: AGGRESSIVE
    bit_width: 4
    range: 0
    range: 4.24227
  }
}
layer {
  name: "conv4"
  type: "Convolution"
  bottom: "conv3"
  top: "conv4"
  param {
    lr_mult: 1
    decay_mult: 1
  }
  param {
    lr_mult: 2
    decay_mult: 0
  }
  convolution_param {
    num_output: 384
    pad: 1
    kernel_size: 3
    weight_filler {
      type: "gaussian"
      std: 0.01
    }
    bias_filler {
      type: "constant"
      value: 0.1
    }
  }
}
layer {
  name: "bn4"
  type: "BatchNorm"
  bottom: "conv4"
  top: "conv4"
}
layer {
  name: "scale4"
  type: "Scale"
  bottom: "conv4"
  top: "conv4"
  scale_param {
    bias_term: true
  }
}
layer {
  name: "relu4"
  type: "ReLU"
  bottom: "conv4"
  top: "conv4"
}
layer {
  name: "quantized_conv4"
  type: "Quantization"
  bottom: "conv4"
  top: "conv4"
  quantization_param {
    round_method: FLOOR
    round_strategy: AGGRESSIVE
    bit_width: 4
    range: 0
    range: 3.6684861
  }
}
layer {
  name: "conv5"
  type: "Convolution"
  bottom: "conv4"
  top: "conv5"
  param {
    lr_mult: 1
    decay_mult: 1
  }
  param {
    lr_mult: 2
    decay_mult: 0
  }
  convolution_param {
    num_output: 256
    pad: 1
    kernel_size: 3
    weight_filler {
      type: "gaussian"
      std: 0.01
    }
    bias_filler {
      type: "constant"
      value: 0.1
    }
  }
}
layer {
  name: "bn5"
  type: "BatchNorm"
  bottom: "conv5"
  top: "conv5"
}
layer {
  name: "scale5"
  type: "Scale"
  bottom: "conv5"
  top: "conv5"
  scale_param {
    bias_term: true
  }
}
layer {
  name: "relu5"
  type: "ReLU"
  bottom: "conv5"
  top: "conv5"
}
layer {
  name: "pool5"
  type: "Pooling"
  bottom: "conv5"
  top: "pool5"
  pooling_param {
    pool: MAX
    kernel_size: 3
    stride: 2
  }
}
layer {
  name: "quantized_conv5"
  type: "Quantization"
  bottom: "pool5"
  top: "pool5"
  quantization_param {
    round_method: FLOOR
    round_strategy: AGGRESSIVE
    bit_width: 4
    range: 0
    range: 4.3788567
  }
}
layer {
  name: "fc6"
  type: "InnerProduct"
  bottom: "pool5"
  top: "fc6"
  param {
    lr_mult: 1
    decay_mult: 1
  }
  param {
    lr_mult: 2
    decay_mult: 0
  }
  inner_product_param {
    num_output: 4096
    weight_filler {
      type: "gaussian"
      std: 0.005
    }
    bias_filler {
      type: "constant"
      value: 0.1
    }
  }
}
layer {
  name: "bn6"
  type: "BatchNorm"
  bottom: "fc6"
  top: "fc6"
}
layer {
  name: "scale6"
  type: "Scale"
  bottom: "fc6"
  top: "fc6"
  scale_param {
    bias_term: true
  }
}
layer {
  name: "relu6"
  type: "ReLU"
  bottom: "fc6"
  top: "fc6"
}
layer {
  name: "drop6"
  type: "Dropout"
  bottom: "fc6"
  top: "fc6"
  dropout_param {
    dropout_ratio: 0.5
  }
}
layer {
  name: "quantized_fc6"
  type: "Quantization"
  bottom: "fc6"
  top: "fc6"
  quantization_param {
    round_method: FLOOR
    round_strategy: AGGRESSIVE
    bit_width: 4
    range: 0
    range: 0.829679
  }
}
layer {
  name: "fc7"
  type: "InnerProduct"
  bottom: "fc6"
  top: "fc7"
  param {
    lr_mult: 1
    decay_mult: 1
  }
  param {
    lr_mult: 2
    decay_mult: 0
  }
  inner_product_param {
    num_output: 4096
    weight_filler {
      type: "gaussian"
      std: 0.005
    }
    bias_filler {
      type: "constant"
      value: 0.1
    }
  }
}
layer {
  name: "bn7"
  type: "BatchNorm"
  bottom: "fc7"
  top: "fc7"
}
layer {
  name: "scale7"
  type: "Scale"
  bottom: "fc7"
  top: "fc7"
  scale_param {
    bias_term: true
  }
}
layer {
  name: "relu7"
  type: "ReLU"
  bottom: "fc7"
  top: "fc7"
}
layer {
  name: "drop7"
  type: "Dropout"
  bottom: "fc7"
  top: "fc7"
  dropout_param {
    dropout_ratio: 0.5
  }
}
layer {
  name: "quantized_fc7"
  type: "Quantization"
  bottom: "fc7"
  top: "fc7"
  quantization_param {
    round_method: FLOOR
    round_strategy: AGGRESSIVE
    bit_width: 4
    range: 0
    range: 3.7799261
  }
}
layer {
  name: "fc8"
  type: "InnerProduct"
  bottom: "fc7"
  top: "fc8"
  param {
    lr_mult: 1
    decay_mult: 1
  }
  param {
    lr_mult: 2
    decay_mult: 0
  }
  inner_product_param {
    num_output: 1000
    weight_filler {
      type: "gaussian"
      std: 0.01
    }
    bias_filler {
      type: "constant"
      value: 0
    }
  }
}
layer {
  name: "accuracy_5_TRAIN"
  type: "Accuracy"
  bottom: "fc8"
  bottom: "label"
  top: "accuracy_5_TRAIN"
  include {
    phase: TRAIN
  }
  accuracy_param {
    top_k: 5
  }
}
layer {
  name: "loss"
  type: "SoftmaxWithLoss"
  bottom: "fc8"
  bottom: "label"
  top: "loss"
}
I0108 21:04:34.099455 46008 layer_factory.hpp:77] Creating layer data
I0108 21:04:34.099598 46008 db_lmdb.cpp:35] Opened lmdb /home/ydwu/database/imagenet/ilsvrc12/lmdb_resize/ilsvrc12_train_lmdb
I0108 21:04:34.099670 46008 net.cpp:84] Creating Layer data
I0108 21:04:34.099697 46008 net.cpp:380] data -> data
I0108 21:04:34.099736 46008 net.cpp:380] data -> label
I0108 21:04:34.101528 46008 data_layer.cpp:45] output data size: 200,3,224,224
I0108 21:04:34.511591 46008 net.cpp:122] Setting up data
I0108 21:04:34.511745 46008 net.cpp:129] Top shape: 200 3 224 224 (30105600)
I0108 21:04:34.511759 46008 net.cpp:129] Top shape: 200 (200)
I0108 21:04:34.511770 46008 net.cpp:137] Memory required for data: 120423200
I0108 21:04:34.511788 46008 layer_factory.hpp:77] Creating layer label_data_1_split
I0108 21:04:34.511814 46008 net.cpp:84] Creating Layer label_data_1_split
I0108 21:04:34.511827 46008 net.cpp:406] label_data_1_split <- label
I0108 21:04:34.511852 46008 net.cpp:380] label_data_1_split -> label_data_1_split_0
I0108 21:04:34.511873 46008 net.cpp:380] label_data_1_split -> label_data_1_split_1
I0108 21:04:34.511931 46008 net.cpp:122] Setting up label_data_1_split
I0108 21:04:34.511948 46008 net.cpp:129] Top shape: 200 (200)
I0108 21:04:34.511960 46008 net.cpp:129] Top shape: 200 (200)
I0108 21:04:34.511967 46008 net.cpp:137] Memory required for data: 120424800
I0108 21:04:34.511976 46008 layer_factory.hpp:77] Creating layer conv1
I0108 21:04:34.512007 46008 net.cpp:84] Creating Layer conv1
I0108 21:04:34.512019 46008 net.cpp:406] conv1 <- data
I0108 21:04:34.512033 46008 net.cpp:380] conv1 -> conv1
I0108 21:04:34.552697 46008 net.cpp:122] Setting up conv1
I0108 21:04:34.552836 46008 net.cpp:129] Top shape: 200 96 55 55 (58080000)
I0108 21:04:34.552848 46008 net.cpp:137] Memory required for data: 352744800
I0108 21:04:34.552878 46008 layer_factory.hpp:77] Creating layer bn1
I0108 21:04:34.552901 46008 net.cpp:84] Creating Layer bn1
I0108 21:04:34.552912 46008 net.cpp:406] bn1 <- conv1
I0108 21:04:34.552927 46008 net.cpp:367] bn1 -> conv1 (in-place)
I0108 21:04:34.553124 46008 net.cpp:122] Setting up bn1
I0108 21:04:34.553143 46008 net.cpp:129] Top shape: 200 96 55 55 (58080000)
I0108 21:04:34.553153 46008 net.cpp:137] Memory required for data: 585064800
I0108 21:04:34.553170 46008 layer_factory.hpp:77] Creating layer scale1
I0108 21:04:34.553189 46008 net.cpp:84] Creating Layer scale1
I0108 21:04:34.553200 46008 net.cpp:406] scale1 <- conv1
I0108 21:04:34.553211 46008 net.cpp:367] scale1 -> conv1 (in-place)
I0108 21:04:34.553274 46008 layer_factory.hpp:77] Creating layer scale1
I0108 21:04:34.553412 46008 net.cpp:122] Setting up scale1
I0108 21:04:34.553431 46008 net.cpp:129] Top shape: 200 96 55 55 (58080000)
I0108 21:04:34.553442 46008 net.cpp:137] Memory required for data: 817384800
I0108 21:04:34.553453 46008 layer_factory.hpp:77] Creating layer relu1
I0108 21:04:34.553469 46008 net.cpp:84] Creating Layer relu1
I0108 21:04:34.553480 46008 net.cpp:406] relu1 <- conv1
I0108 21:04:34.553491 46008 net.cpp:367] relu1 -> conv1 (in-place)
I0108 21:04:34.553506 46008 net.cpp:122] Setting up relu1
I0108 21:04:34.553519 46008 net.cpp:129] Top shape: 200 96 55 55 (58080000)
I0108 21:04:34.553527 46008 net.cpp:137] Memory required for data: 1049704800
I0108 21:04:34.553536 46008 layer_factory.hpp:77] Creating layer pool1
I0108 21:04:34.553550 46008 net.cpp:84] Creating Layer pool1
I0108 21:04:34.553560 46008 net.cpp:406] pool1 <- conv1
I0108 21:04:34.555282 46008 net.cpp:380] pool1 -> pool1
I0108 21:04:34.555354 46008 net.cpp:122] Setting up pool1
I0108 21:04:34.555373 46008 net.cpp:129] Top shape: 200 96 27 27 (13996800)
I0108 21:04:34.555383 46008 net.cpp:137] Memory required for data: 1105692000
I0108 21:04:34.555392 46008 layer_factory.hpp:77] Creating layer quantized_conv1
I0108 21:04:34.555408 46008 net.cpp:84] Creating Layer quantized_conv1
I0108 21:04:34.555418 46008 net.cpp:406] quantized_conv1 <- pool1
I0108 21:04:34.555430 46008 net.cpp:367] quantized_conv1 -> pool1 (in-place)
I0108 21:04:34.555447 46008 net.cpp:122] Setting up quantized_conv1
I0108 21:04:34.555459 46008 net.cpp:129] Top shape: 200 96 27 27 (13996800)
I0108 21:04:34.555467 46008 net.cpp:137] Memory required for data: 1161679200
I0108 21:04:34.555476 46008 layer_factory.hpp:77] Creating layer conv2
I0108 21:04:34.555495 46008 net.cpp:84] Creating Layer conv2
I0108 21:04:34.555505 46008 net.cpp:406] conv2 <- pool1
I0108 21:04:34.555518 46008 net.cpp:380] conv2 -> conv2
I0108 21:04:34.591851 46008 net.cpp:122] Setting up conv2
I0108 21:04:34.591899 46008 net.cpp:129] Top shape: 200 256 27 27 (37324800)
I0108 21:04:34.591910 46008 net.cpp:137] Memory required for data: 1310978400
I0108 21:04:34.591936 46008 layer_factory.hpp:77] Creating layer bn2
I0108 21:04:34.591959 46008 net.cpp:84] Creating Layer bn2
I0108 21:04:34.591971 46008 net.cpp:406] bn2 <- conv2
I0108 21:04:34.591986 46008 net.cpp:367] bn2 -> conv2 (in-place)
I0108 21:04:34.592190 46008 net.cpp:122] Setting up bn2
I0108 21:04:34.592207 46008 net.cpp:129] Top shape: 200 256 27 27 (37324800)
I0108 21:04:34.592217 46008 net.cpp:137] Memory required for data: 1460277600
I0108 21:04:34.592232 46008 layer_factory.hpp:77] Creating layer scale2
I0108 21:04:34.592248 46008 net.cpp:84] Creating Layer scale2
I0108 21:04:34.592258 46008 net.cpp:406] scale2 <- conv2
I0108 21:04:34.592270 46008 net.cpp:367] scale2 -> conv2 (in-place)
I0108 21:04:34.592329 46008 layer_factory.hpp:77] Creating layer scale2
I0108 21:04:34.592445 46008 net.cpp:122] Setting up scale2
I0108 21:04:34.592463 46008 net.cpp:129] Top shape: 200 256 27 27 (37324800)
I0108 21:04:34.592473 46008 net.cpp:137] Memory required for data: 1609576800
I0108 21:04:34.592485 46008 layer_factory.hpp:77] Creating layer relu2
I0108 21:04:34.592499 46008 net.cpp:84] Creating Layer relu2
I0108 21:04:34.592509 46008 net.cpp:406] relu2 <- conv2
I0108 21:04:34.592520 46008 net.cpp:367] relu2 -> conv2 (in-place)
I0108 21:04:34.592533 46008 net.cpp:122] Setting up relu2
I0108 21:04:34.592545 46008 net.cpp:129] Top shape: 200 256 27 27 (37324800)
I0108 21:04:34.592553 46008 net.cpp:137] Memory required for data: 1758876000
I0108 21:04:34.592562 46008 layer_factory.hpp:77] Creating layer pool2
I0108 21:04:34.592576 46008 net.cpp:84] Creating Layer pool2
I0108 21:04:34.592586 46008 net.cpp:406] pool2 <- conv2
I0108 21:04:34.592597 46008 net.cpp:380] pool2 -> pool2
I0108 21:04:34.592644 46008 net.cpp:122] Setting up pool2
I0108 21:04:34.592661 46008 net.cpp:129] Top shape: 200 256 13 13 (8652800)
I0108 21:04:34.592670 46008 net.cpp:137] Memory required for data: 1793487200
I0108 21:04:34.592679 46008 layer_factory.hpp:77] Creating layer quantized_conv2
I0108 21:04:34.592694 46008 net.cpp:84] Creating Layer quantized_conv2
I0108 21:04:34.592703 46008 net.cpp:406] quantized_conv2 <- pool2
I0108 21:04:34.592715 46008 net.cpp:367] quantized_conv2 -> pool2 (in-place)
I0108 21:04:34.592728 46008 net.cpp:122] Setting up quantized_conv2
I0108 21:04:34.592741 46008 net.cpp:129] Top shape: 200 256 13 13 (8652800)
I0108 21:04:34.592748 46008 net.cpp:137] Memory required for data: 1828098400
I0108 21:04:34.592757 46008 layer_factory.hpp:77] Creating layer conv3
I0108 21:04:34.592777 46008 net.cpp:84] Creating Layer conv3
I0108 21:04:34.592787 46008 net.cpp:406] conv3 <- pool2
I0108 21:04:34.592800 46008 net.cpp:380] conv3 -> conv3
I0108 21:04:34.635886 46008 net.cpp:122] Setting up conv3
I0108 21:04:34.635946 46008 net.cpp:129] Top shape: 200 384 13 13 (12979200)
I0108 21:04:34.635957 46008 net.cpp:137] Memory required for data: 1880015200
I0108 21:04:34.636015 46008 layer_factory.hpp:77] Creating layer bn3
I0108 21:04:34.636039 46008 net.cpp:84] Creating Layer bn3
I0108 21:04:34.636050 46008 net.cpp:406] bn3 <- conv3
I0108 21:04:34.636065 46008 net.cpp:367] bn3 -> conv3 (in-place)
I0108 21:04:34.636245 46008 net.cpp:122] Setting up bn3
I0108 21:04:34.636261 46008 net.cpp:129] Top shape: 200 384 13 13 (12979200)
I0108 21:04:34.636271 46008 net.cpp:137] Memory required for data: 1931932000
I0108 21:04:34.636291 46008 layer_factory.hpp:77] Creating layer scale3
I0108 21:04:34.636310 46008 net.cpp:84] Creating Layer scale3
I0108 21:04:34.636320 46008 net.cpp:406] scale3 <- conv3
I0108 21:04:34.636332 46008 net.cpp:367] scale3 -> conv3 (in-place)
I0108 21:04:34.636404 46008 layer_factory.hpp:77] Creating layer scale3
I0108 21:04:34.636520 46008 net.cpp:122] Setting up scale3
I0108 21:04:34.636538 46008 net.cpp:129] Top shape: 200 384 13 13 (12979200)
I0108 21:04:34.636546 46008 net.cpp:137] Memory required for data: 1983848800
I0108 21:04:34.636559 46008 layer_factory.hpp:77] Creating layer relu3
I0108 21:04:34.636572 46008 net.cpp:84] Creating Layer relu3
I0108 21:04:34.636581 46008 net.cpp:406] relu3 <- conv3
I0108 21:04:34.636593 46008 net.cpp:367] relu3 -> conv3 (in-place)
I0108 21:04:34.636605 46008 net.cpp:122] Setting up relu3
I0108 21:04:34.636617 46008 net.cpp:129] Top shape: 200 384 13 13 (12979200)
I0108 21:04:34.636626 46008 net.cpp:137] Memory required for data: 2035765600
I0108 21:04:34.636634 46008 layer_factory.hpp:77] Creating layer quantized_conv3
I0108 21:04:34.636647 46008 net.cpp:84] Creating Layer quantized_conv3
I0108 21:04:34.636657 46008 net.cpp:406] quantized_conv3 <- conv3
I0108 21:04:34.636668 46008 net.cpp:367] quantized_conv3 -> conv3 (in-place)
I0108 21:04:34.636682 46008 net.cpp:122] Setting up quantized_conv3
I0108 21:04:34.636693 46008 net.cpp:129] Top shape: 200 384 13 13 (12979200)
I0108 21:04:34.636700 46008 net.cpp:137] Memory required for data: 2087682400
I0108 21:04:34.636709 46008 layer_factory.hpp:77] Creating layer conv4
I0108 21:04:34.636729 46008 net.cpp:84] Creating Layer conv4
I0108 21:04:34.636739 46008 net.cpp:406] conv4 <- conv3
I0108 21:04:34.636751 46008 net.cpp:380] conv4 -> conv4
I0108 21:04:34.678584 46008 net.cpp:122] Setting up conv4
I0108 21:04:34.678637 46008 net.cpp:129] Top shape: 200 384 13 13 (12979200)
I0108 21:04:34.678647 46008 net.cpp:137] Memory required for data: 2139599200
I0108 21:04:34.678663 46008 layer_factory.hpp:77] Creating layer bn4
I0108 21:04:34.678683 46008 net.cpp:84] Creating Layer bn4
I0108 21:04:34.678694 46008 net.cpp:406] bn4 <- conv4
I0108 21:04:34.678709 46008 net.cpp:367] bn4 -> conv4 (in-place)
I0108 21:04:34.678889 46008 net.cpp:122] Setting up bn4
I0108 21:04:34.678905 46008 net.cpp:129] Top shape: 200 384 13 13 (12979200)
I0108 21:04:34.678915 46008 net.cpp:137] Memory required for data: 2191516000
I0108 21:04:34.678928 46008 layer_factory.hpp:77] Creating layer scale4
I0108 21:04:34.678944 46008 net.cpp:84] Creating Layer scale4
I0108 21:04:34.678953 46008 net.cpp:406] scale4 <- conv4
I0108 21:04:34.678970 46008 net.cpp:367] scale4 -> conv4 (in-place)
I0108 21:04:34.679024 46008 layer_factory.hpp:77] Creating layer scale4
I0108 21:04:34.679139 46008 net.cpp:122] Setting up scale4
I0108 21:04:34.679157 46008 net.cpp:129] Top shape: 200 384 13 13 (12979200)
I0108 21:04:34.679167 46008 net.cpp:137] Memory required for data: 2243432800
I0108 21:04:34.679179 46008 layer_factory.hpp:77] Creating layer relu4
I0108 21:04:34.679193 46008 net.cpp:84] Creating Layer relu4
I0108 21:04:34.679203 46008 net.cpp:406] relu4 <- conv4
I0108 21:04:34.679214 46008 net.cpp:367] relu4 -> conv4 (in-place)
I0108 21:04:34.679226 46008 net.cpp:122] Setting up relu4
I0108 21:04:34.679237 46008 net.cpp:129] Top shape: 200 384 13 13 (12979200)
I0108 21:04:34.679246 46008 net.cpp:137] Memory required for data: 2295349600
I0108 21:04:34.679255 46008 layer_factory.hpp:77] Creating layer quantized_conv4
I0108 21:04:34.679268 46008 net.cpp:84] Creating Layer quantized_conv4
I0108 21:04:34.679316 46008 net.cpp:406] quantized_conv4 <- conv4
I0108 21:04:34.679329 46008 net.cpp:367] quantized_conv4 -> conv4 (in-place)
I0108 21:04:34.679343 46008 net.cpp:122] Setting up quantized_conv4
I0108 21:04:34.679355 46008 net.cpp:129] Top shape: 200 384 13 13 (12979200)
I0108 21:04:34.679363 46008 net.cpp:137] Memory required for data: 2347266400
I0108 21:04:34.679373 46008 layer_factory.hpp:77] Creating layer conv5
I0108 21:04:34.679390 46008 net.cpp:84] Creating Layer conv5
I0108 21:04:34.679401 46008 net.cpp:406] conv5 <- conv4
I0108 21:04:34.679414 46008 net.cpp:380] conv5 -> conv5
I0108 21:04:34.710660 46008 net.cpp:122] Setting up conv5
I0108 21:04:34.710713 46008 net.cpp:129] Top shape: 200 256 13 13 (8652800)
I0108 21:04:34.710724 46008 net.cpp:137] Memory required for data: 2381877600
I0108 21:04:34.710741 46008 layer_factory.hpp:77] Creating layer bn5
I0108 21:04:34.710759 46008 net.cpp:84] Creating Layer bn5
I0108 21:04:34.710772 46008 net.cpp:406] bn5 <- conv5
I0108 21:04:34.710786 46008 net.cpp:367] bn5 -> conv5 (in-place)
I0108 21:04:34.710985 46008 net.cpp:122] Setting up bn5
I0108 21:04:34.711002 46008 net.cpp:129] Top shape: 200 256 13 13 (8652800)
I0108 21:04:34.711012 46008 net.cpp:137] Memory required for data: 2416488800
I0108 21:04:34.711046 46008 layer_factory.hpp:77] Creating layer scale5
I0108 21:04:34.711063 46008 net.cpp:84] Creating Layer scale5
I0108 21:04:34.711073 46008 net.cpp:406] scale5 <- conv5
I0108 21:04:34.711086 46008 net.cpp:367] scale5 -> conv5 (in-place)
I0108 21:04:34.711146 46008 layer_factory.hpp:77] Creating layer scale5
I0108 21:04:34.711262 46008 net.cpp:122] Setting up scale5
I0108 21:04:34.711279 46008 net.cpp:129] Top shape: 200 256 13 13 (8652800)
I0108 21:04:34.711289 46008 net.cpp:137] Memory required for data: 2451100000
I0108 21:04:34.711302 46008 layer_factory.hpp:77] Creating layer relu5
I0108 21:04:34.711320 46008 net.cpp:84] Creating Layer relu5
I0108 21:04:34.711331 46008 net.cpp:406] relu5 <- conv5
I0108 21:04:34.711343 46008 net.cpp:367] relu5 -> conv5 (in-place)
I0108 21:04:34.711354 46008 net.cpp:122] Setting up relu5
I0108 21:04:34.711366 46008 net.cpp:129] Top shape: 200 256 13 13 (8652800)
I0108 21:04:34.711375 46008 net.cpp:137] Memory required for data: 2485711200
I0108 21:04:34.711383 46008 layer_factory.hpp:77] Creating layer pool5
I0108 21:04:34.711396 46008 net.cpp:84] Creating Layer pool5
I0108 21:04:34.711405 46008 net.cpp:406] pool5 <- conv5
I0108 21:04:34.711419 46008 net.cpp:380] pool5 -> pool5
I0108 21:04:34.711467 46008 net.cpp:122] Setting up pool5
I0108 21:04:34.711483 46008 net.cpp:129] Top shape: 200 256 6 6 (1843200)
I0108 21:04:34.711493 46008 net.cpp:137] Memory required for data: 2493084000
I0108 21:04:34.711501 46008 layer_factory.hpp:77] Creating layer quantized_conv5
I0108 21:04:34.711518 46008 net.cpp:84] Creating Layer quantized_conv5
I0108 21:04:34.711527 46008 net.cpp:406] quantized_conv5 <- pool5
I0108 21:04:34.711539 46008 net.cpp:367] quantized_conv5 -> pool5 (in-place)
I0108 21:04:34.711551 46008 net.cpp:122] Setting up quantized_conv5
I0108 21:04:34.711562 46008 net.cpp:129] Top shape: 200 256 6 6 (1843200)
I0108 21:04:34.711571 46008 net.cpp:137] Memory required for data: 2500456800
I0108 21:04:34.711580 46008 layer_factory.hpp:77] Creating layer fc6
I0108 21:04:34.711599 46008 net.cpp:84] Creating Layer fc6
I0108 21:04:34.711609 46008 net.cpp:406] fc6 <- pool5
I0108 21:04:34.711621 46008 net.cpp:380] fc6 -> fc6
I0108 21:04:36.227656 46008 net.cpp:122] Setting up fc6
I0108 21:04:36.227754 46008 net.cpp:129] Top shape: 200 4096 (819200)
I0108 21:04:36.227768 46008 net.cpp:137] Memory required for data: 2503733600
I0108 21:04:36.227787 46008 layer_factory.hpp:77] Creating layer bn6
I0108 21:04:36.227813 46008 net.cpp:84] Creating Layer bn6
I0108 21:04:36.227825 46008 net.cpp:406] bn6 <- fc6
I0108 21:04:36.227838 46008 net.cpp:367] bn6 -> fc6 (in-place)
I0108 21:04:36.228029 46008 net.cpp:122] Setting up bn6
I0108 21:04:36.228046 46008 net.cpp:129] Top shape: 200 4096 (819200)
I0108 21:04:36.228093 46008 net.cpp:137] Memory required for data: 2507010400
I0108 21:04:36.228108 46008 layer_factory.hpp:77] Creating layer scale6
I0108 21:04:36.228130 46008 net.cpp:84] Creating Layer scale6
I0108 21:04:36.228140 46008 net.cpp:406] scale6 <- fc6
I0108 21:04:36.228152 46008 net.cpp:367] scale6 -> fc6 (in-place)
I0108 21:04:36.228204 46008 layer_factory.hpp:77] Creating layer scale6
I0108 21:04:36.228327 46008 net.cpp:122] Setting up scale6
I0108 21:04:36.228343 46008 net.cpp:129] Top shape: 200 4096 (819200)
I0108 21:04:36.228351 46008 net.cpp:137] Memory required for data: 2510287200
I0108 21:04:36.228363 46008 layer_factory.hpp:77] Creating layer relu6
I0108 21:04:36.228377 46008 net.cpp:84] Creating Layer relu6
I0108 21:04:36.228387 46008 net.cpp:406] relu6 <- fc6
I0108 21:04:36.228397 46008 net.cpp:367] relu6 -> fc6 (in-place)
I0108 21:04:36.228408 46008 net.cpp:122] Setting up relu6
I0108 21:04:36.228418 46008 net.cpp:129] Top shape: 200 4096 (819200)
I0108 21:04:36.228426 46008 net.cpp:137] Memory required for data: 2513564000
I0108 21:04:36.228435 46008 layer_factory.hpp:77] Creating layer drop6
I0108 21:04:36.228456 46008 net.cpp:84] Creating Layer drop6
I0108 21:04:36.228466 46008 net.cpp:406] drop6 <- fc6
I0108 21:04:36.228476 46008 net.cpp:367] drop6 -> fc6 (in-place)
I0108 21:04:36.228515 46008 net.cpp:122] Setting up drop6
I0108 21:04:36.228530 46008 net.cpp:129] Top shape: 200 4096 (819200)
I0108 21:04:36.228539 46008 net.cpp:137] Memory required for data: 2516840800
I0108 21:04:36.228548 46008 layer_factory.hpp:77] Creating layer quantized_fc6
I0108 21:04:36.228564 46008 net.cpp:84] Creating Layer quantized_fc6
I0108 21:04:36.228574 46008 net.cpp:406] quantized_fc6 <- fc6
I0108 21:04:36.228583 46008 net.cpp:367] quantized_fc6 -> fc6 (in-place)
I0108 21:04:36.228596 46008 net.cpp:122] Setting up quantized_fc6
I0108 21:04:36.228606 46008 net.cpp:129] Top shape: 200 4096 (819200)
I0108 21:04:36.228615 46008 net.cpp:137] Memory required for data: 2520117600
I0108 21:04:36.228622 46008 layer_factory.hpp:77] Creating layer fc7
I0108 21:04:36.228636 46008 net.cpp:84] Creating Layer fc7
I0108 21:04:36.228646 46008 net.cpp:406] fc7 <- fc6
I0108 21:04:36.228655 46008 net.cpp:380] fc7 -> fc7
I0108 21:04:36.794899 46008 net.cpp:122] Setting up fc7
I0108 21:04:36.795009 46008 net.cpp:129] Top shape: 200 4096 (819200)
I0108 21:04:36.795024 46008 net.cpp:137] Memory required for data: 2523394400
I0108 21:04:36.795042 46008 layer_factory.hpp:77] Creating layer bn7
I0108 21:04:36.795071 46008 net.cpp:84] Creating Layer bn7
I0108 21:04:36.795096 46008 net.cpp:406] bn7 <- fc7
I0108 21:04:36.795119 46008 net.cpp:367] bn7 -> fc7 (in-place)
I0108 21:04:36.795315 46008 net.cpp:122] Setting up bn7
I0108 21:04:36.795331 46008 net.cpp:129] Top shape: 200 4096 (819200)
I0108 21:04:36.795341 46008 net.cpp:137] Memory required for data: 2526671200
I0108 21:04:36.795353 46008 layer_factory.hpp:77] Creating layer scale7
I0108 21:04:36.795369 46008 net.cpp:84] Creating Layer scale7
I0108 21:04:36.795379 46008 net.cpp:406] scale7 <- fc7
I0108 21:04:36.795389 46008 net.cpp:367] scale7 -> fc7 (in-place)
I0108 21:04:36.795439 46008 layer_factory.hpp:77] Creating layer scale7
I0108 21:04:36.795562 46008 net.cpp:122] Setting up scale7
I0108 21:04:36.795578 46008 net.cpp:129] Top shape: 200 4096 (819200)
I0108 21:04:36.795586 46008 net.cpp:137] Memory required for data: 2529948000
I0108 21:04:36.795598 46008 layer_factory.hpp:77] Creating layer relu7
I0108 21:04:36.795610 46008 net.cpp:84] Creating Layer relu7
I0108 21:04:36.795619 46008 net.cpp:406] relu7 <- fc7
I0108 21:04:36.795629 46008 net.cpp:367] relu7 -> fc7 (in-place)
I0108 21:04:36.795640 46008 net.cpp:122] Setting up relu7
I0108 21:04:36.795650 46008 net.cpp:129] Top shape: 200 4096 (819200)
I0108 21:04:36.795658 46008 net.cpp:137] Memory required for data: 2533224800
I0108 21:04:36.795666 46008 layer_factory.hpp:77] Creating layer drop7
I0108 21:04:36.795678 46008 net.cpp:84] Creating Layer drop7
I0108 21:04:36.795687 46008 net.cpp:406] drop7 <- fc7
I0108 21:04:36.795699 46008 net.cpp:367] drop7 -> fc7 (in-place)
I0108 21:04:36.795773 46008 net.cpp:122] Setting up drop7
I0108 21:04:36.795788 46008 net.cpp:129] Top shape: 200 4096 (819200)
I0108 21:04:36.795795 46008 net.cpp:137] Memory required for data: 2536501600
I0108 21:04:36.795804 46008 layer_factory.hpp:77] Creating layer quantized_fc7
I0108 21:04:36.795817 46008 net.cpp:84] Creating Layer quantized_fc7
I0108 21:04:36.795825 46008 net.cpp:406] quantized_fc7 <- fc7
I0108 21:04:36.795835 46008 net.cpp:367] quantized_fc7 -> fc7 (in-place)
I0108 21:04:36.795847 46008 net.cpp:122] Setting up quantized_fc7
I0108 21:04:36.795857 46008 net.cpp:129] Top shape: 200 4096 (819200)
I0108 21:04:36.795866 46008 net.cpp:137] Memory required for data: 2539778400
I0108 21:04:36.795873 46008 layer_factory.hpp:77] Creating layer fc8
I0108 21:04:36.795889 46008 net.cpp:84] Creating Layer fc8
I0108 21:04:36.795898 46008 net.cpp:406] fc8 <- fc7
I0108 21:04:36.795908 46008 net.cpp:380] fc8 -> fc8
I0108 21:04:36.916246 46008 net.cpp:122] Setting up fc8
I0108 21:04:36.916352 46008 net.cpp:129] Top shape: 200 1000 (200000)
I0108 21:04:36.916363 46008 net.cpp:137] Memory required for data: 2540578400
I0108 21:04:36.916380 46008 layer_factory.hpp:77] Creating layer fc8_fc8_0_split
I0108 21:04:36.916399 46008 net.cpp:84] Creating Layer fc8_fc8_0_split
I0108 21:04:36.916410 46008 net.cpp:406] fc8_fc8_0_split <- fc8
I0108 21:04:36.916424 46008 net.cpp:380] fc8_fc8_0_split -> fc8_fc8_0_split_0
I0108 21:04:36.916445 46008 net.cpp:380] fc8_fc8_0_split -> fc8_fc8_0_split_1
I0108 21:04:36.916502 46008 net.cpp:122] Setting up fc8_fc8_0_split
I0108 21:04:36.916518 46008 net.cpp:129] Top shape: 200 1000 (200000)
I0108 21:04:36.916529 46008 net.cpp:129] Top shape: 200 1000 (200000)
I0108 21:04:36.916538 46008 net.cpp:137] Memory required for data: 2542178400
I0108 21:04:36.916545 46008 layer_factory.hpp:77] Creating layer accuracy_5_TRAIN
I0108 21:04:36.916568 46008 net.cpp:84] Creating Layer accuracy_5_TRAIN
I0108 21:04:36.916579 46008 net.cpp:406] accuracy_5_TRAIN <- fc8_fc8_0_split_0
I0108 21:04:36.916589 46008 net.cpp:406] accuracy_5_TRAIN <- label_data_1_split_0
…
I0108 21:04:36.920033 46008 net.cpp:294] The NetState phase (1) differed from the phase (0) specified by a rule in layer accuracy_5_TRAIN
I0108 21:04:36.920274 46008 net.cpp:51] Initializing net from parameters: 
name: "AlexNet-BN"
state {
  phase: TEST
}
layer {
  name: "data"
  type: "Data"
  top: "data"
  top: "label"
  include {
    phase: TEST
  }
  transform_param {
    mirror: false
    crop_size: 224
    mean_value: 103.939
    mean_value: 116.779
    mean_value: 123.68
  }
  data_param {
    source: "/home/ydwu/database/imagenet/ilsvrc12/lmdb_resize/ilsvrc12_val_lmdb"
    batch_size: 200
    backend: LMDB
  }
}
layer {
  name: "conv1"
  type: "Convolution"
  bottom: "data"
  top: "conv1"
  param {
    lr_mult: 1
    decay_mult: 1
  }
  param {
    lr_mult: 2
    decay_mult: 0
  }
  convolution_param {
    num_output: 96
    pad: 2
    kernel_size: 11
    stride: 4
    weight_filler {
      type: "gaussian"
      std: 0.01
    }
    bias_filler {
      type: "constant"
      value: 0
    }
  }
}
layer {
  name: "bn1"
  type: "BatchNorm"
  bottom: "conv1"
  top: "conv1"
}
layer {
  name: "scale1"
  type: "Scale"
  bottom: "conv1"
  top: "conv1"
  scale_param {
    bias_term: true
  }
}
layer {
  name: "relu1"
  type: "ReLU"
  bottom: "conv1"
  top: "conv1"
}
layer {
  name: "pool1"
  type: "Pooling"
  bottom: "conv1"
  top: "pool1"
  pooling_param {
    pool: MAX
    kernel_size: 3
    stride: 2
  }
}
layer {
  name: "quantized_conv1"
  type: "Quantization"
  bottom: "pool1"
  top: "pool1"
  quantization_param {
    round_method: FLOOR
    round_strategy: AGGRESSIVE
    bit_width: 4
    range: 0
    range: 6.9826913
  }
}
layer {
  name: "conv2"
  type: "Convolution"
  bottom: "pool1"
  top: "conv2"
  param {
    lr_mult: 1
    decay_mult: 1
  }
  param {
    lr_mult: 2
    decay_mult: 0
  }
  convolution_param {
    num_output: 256
    pad: 2
    kernel_size: 5
    weight_filler {
      type: "gaussian"
      std: 0.01
    }
    bias_filler {
      type: "constant"
      value: 0.1
    }
  }
}
layer {
  name: "bn2"
  type: "BatchNorm"
  bottom: "conv2"
  top: "conv2"
}
layer {
  name: "scale2"
  type: "Scale"
  bottom: "conv2"
  top: "conv2"
  scale_param {
    bias_term: true
  }
}
layer {
  name: "relu2"
  type: "ReLU"
  bottom: "conv2"
  top: "conv2"
}
layer {
  name: "pool2"
  type: "Pooling"
  bottom: "conv2"
  top: "pool2"
  pooling_param {
    pool: MAX
    kernel_size: 3
    stride: 2
  }
}
layer {
  name: "quantized_conv2"
  type: "Quantization"
  bottom: "pool2"
  top: "pool2"
  quantization_param {
    round_method: FLOOR
    round_strategy: AGGRESSIVE
    bit_width: 4
    range: 0
    range: 3.37478
  }
}
layer {
  name: "conv3"
  type: "Convolution"
  bottom: "pool2"
  top: "conv3"
  param {
    lr_mult: 1
    decay_mult: 1
  }
  param {
    lr_mult: 2
    decay_mult: 0
  }
  convolution_param {
    num_output: 384
    pad: 1
    kernel_size: 3
    weight_filler {
      type: "gaussian"
      std: 0.01
    }
    bias_filler {
      type: "constant"
      value: 0
    }
  }
}
layer {
  name: "bn3"
  type: "BatchNorm"
  bottom: "conv3"
  top: "conv3"
}
layer {
  name: "scale3"
  type: "Scale"
  bottom: "conv3"
  top: "conv3"
  scale_param {
    bias_term: true
  }
}
layer {
  name: "relu3"
  type: "ReLU"
  bottom: "conv3"
  top: "conv3"
}
layer {
  name: "quantized_conv3"
  type: "Quantization"
  bottom: "conv3"
  top: "conv3"
  quantization_param {
    round_method: FLOOR
    round_strategy: AGGRESSIVE
    bit_width: 4
    range: 0
    range: 4.24227
  }
}
layer {
  name: "conv4"
  type: "Convolution"
  bottom: "conv3"
  top: "conv4"
  param {
    lr_mult: 1
    decay_mult: 1
  }
  param {
    lr_mult: 2
    decay_mult: 0
  }
  convolution_param {
    num_output: 384
    pad: 1
    kernel_size: 3
    weight_filler {
      type: "gaussian"
      std: 0.01
    }
    bias_filler {
      type: "constant"
      value: 0.1
    }
  }
}
layer {
  name: "bn4"
  type: "BatchNorm"
  bottom: "conv4"
  top: "conv4"
}
layer {
  name: "scale4"
  type: "Scale"
  bottom: "conv4"
  top: "conv4"
  scale_param {
    bias_term: true
  }
}
layer {
  name: "relu4"
  type: "ReLU"
  bottom: "conv4"
  top: "conv4"
}
layer {
  name: "quantized_conv4"
  type: "Quantization"
  bottom: "conv4"
  top: "conv4"
  quantization_param {
    round_method: FLOOR
    round_strategy: AGGRESSIVE
    bit_width: 4
    range: 0
    range: 3.6684861
  }
}
layer {
  name: "conv5"
  type: "Convolution"
  bottom: "conv4"
  top: "conv5"
  param {
    lr_mult: 1
    decay_mult: 1
  }
  param {
    lr_mult: 2
    decay_mult: 0
  }
  convolution_param {
    num_output: 256
    pad: 1
    kernel_size: 3
    weight_filler {
      type: "gaussian"
      std: 0.01
    }
    bias_filler {
      type: "constant"
      value: 0.1
    }
  }
}
layer {
  name: "bn5"
  type: "BatchNorm"
  bottom: "conv5"
  top: "conv5"
}
layer {
  name: "scale5"
  type: "Scale"
  bottom: "conv5"
  top: "conv5"
  scale_param {
    bias_term: true
  }
}
layer {
  name: "relu5"
  type: "ReLU"
  bottom: "conv5"
  top: "conv5"
}
layer {
  name: "pool5"
  type: "Pooling"
  bottom: "conv5"
  top: "pool5"
  pooling_param {
    pool: MAX
    kernel_size: 3
    stride: 2
  }
}
layer {
  name: "quantized_conv5"
  type: "Quantization"
  bottom: "pool5"
  top: "pool5"
  quantization_param {
    round_method: FLOOR
    round_strategy: AGGRESSIVE
    bit_width: 4
    range: 0
    range: 4.3788567
  }
}
layer {
  name: "fc6"
  type: "InnerProduct"
  bottom: "pool5"
  top: "fc6"
  param {
    lr_mult: 1
    decay_mult: 1
  }
  param {
    lr_mult: 2
    decay_mult: 0
  }
  inner_product_param {
    num_output: 4096
    weight_filler {
      type: "gaussian"
      std: 0.005
    }
    bias_filler {
      type: "constant"
      value: 0.1
    }
  }
}
layer {
  name: "bn6"
  type: "BatchNorm"
  bottom: "fc6"
  top: "fc6"
}
layer {
  name: "scale6"
  type: "Scale"
  bottom: "fc6"
  top: "fc6"
  scale_param {
    bias_term: true
  }
}
layer {
  name: "relu6"
  type: "ReLU"
  bottom: "fc6"
  top: "fc6"
}
layer {
  name: "drop6"
  type: "Dropout"
  bottom: "fc6"
  top: "fc6"
  dropout_param {
    dropout_ratio: 0.5
  }
}
layer {
  name: "quantized_fc6"
  type: "Quantization"
  bottom: "fc6"
  top: "fc6"
  quantization_param {
    round_method: FLOOR
    round_strategy: AGGRESSIVE
    bit_width: 4
    range: 0
    range: 0.829679
  }
}
layer {
  name: "fc7"
  type: "InnerProduct"
  bottom: "fc6"
  top: "fc7"
  param {
    lr_mult: 1
    decay_mult: 1
  }
  param {
    lr_mult: 2
    decay_mult: 0
  }
  inner_product_param {
    num_output: 4096
    weight_filler {
      type: "gaussian"
      std: 0.005
    }
    bias_filler {
      type: "constant"
      value: 0.1
    }
  }
}
layer {
  name: "bn7"
  type: "BatchNorm"
  bottom: "fc7"
  top: "fc7"
}
layer {
  name: "scale7"
  type: "Scale"
  bottom: "fc7"
  top: "fc7"
  scale_param {
    bias_term: true
  }
}
layer {
  name: "relu7"
  type: "ReLU"
  bottom: "fc7"
  top: "fc7"
}
layer {
  name: "drop7"
  type: "Dropout"
  bottom: "fc7"
  top: "fc7"
  dropout_param {
    dropout_ratio: 0.5
  }
}
layer {
  name: "quantized_fc7"
  type: "Quantization"
  bottom: "fc7"
  top: "fc7"
  quantization_param {
    round_method: FLOOR
    round_strategy: AGGRESSIVE
    bit_width: 4
    range: 0
    range: 3.7799261
  }
}
layer {
  name: "fc8"
  type: "InnerProduct"
  bottom: "fc7"
  top: "fc8"
  param {
    lr_mult: 1
    decay_mult: 1
  }
  param {
    lr_mult: 2
    decay_mult: 0
  }
  inner_product_param {
    num_output: 1000
    weight_filler {
      type: "gaussian"
      std: 0.01
    }
    bias_filler {
      type: "constant"
      value: 0
    }
  }
}
layer {
  name: "accuracy"
  type: "Accuracy"
  bottom: "fc8"
  bottom: "label"
  top: "accuracy"
  include {
    phase: TEST
  }
}
layer {
  name: "accuracy_5"
  type: "Accuracy"
  bottom: "fc8"
  bottom: "label"
  top: "accuracy_5"
  include {
    phase: TEST
  }
  accuracy_param {
    top_k: 5
  }
}
layer {
  name: "loss"
  type: "SoftmaxWithLoss"
  bottom: "fc8"
  bottom: "label"
  top: "loss"
}
I0108 21:04:36.920473 46008 layer_factory.hpp:77] Creating layer data
I0108 21:04:36.920557 46008 db_lmdb.cpp:35] Opened lmdb /home/ydwu/database/imagenet/ilsvrc12/lmdb_resize/ilsvrc12_val_lmdb
I0108 21:04:36.920596 46008 net.cpp:84] Creating Layer data
I0108 21:04:36.920611 46008 net.cpp:380] data -> data
I0108 21:04:36.920629 46008 net.cpp:380] data -> label
I0108 21:04:36.921042 46008 data_layer.cpp:45] output data size: 200,3,224,224
I0108 21:04:37.265377 46008 net.cpp:122] Setting up data
I0108 21:04:37.265491 46008 net.cpp:129] Top shape: 200 3 224 224 (30105600)
I0108 21:04:37.265503 46008 net.cpp:129] Top shape: 200 (200)
I0108 21:04:37.265513 46008 net.cpp:137] Memory required for data: 120423200
I0108 21:04:37.265527 46008 layer_factory.hpp:77] Creating layer label_data_1_split
I0108 21:04:37.265549 46008 net.cpp:84] Creating Layer label_data_1_split
I0108 21:04:37.265561 46008 net.cpp:406] label_data_1_split <- label
I0108 21:04:37.265575 46008 net.cpp:380] label_data_1_split -> label_data_1_split_0
I0108 21:04:37.265594 46008 net.cpp:380] label_data_1_split -> label_data_1_split_1
I0108 21:04:37.265609 46008 net.cpp:380] label_data_1_split -> label_data_1_split_2
I0108 21:04:37.265734 46008 net.cpp:122] Setting up label_data_1_split
I0108 21:04:37.265753 46008 net.cpp:129] Top shape: 200 (200)
I0108 21:04:37.265763 46008 net.cpp:129] Top shape: 200 (200)
I0108 21:04:37.265771 46008 net.cpp:129] Top shape: 200 (200)
I0108 21:04:37.265779 46008 net.cpp:137] Memory required for data: 120425600
I0108 21:04:37.265789 46008 layer_factory.hpp:77] Creating layer conv1
I0108 21:04:37.265810 46008 net.cpp:84] Creating Layer conv1
I0108 21:04:37.265820 46008 net.cpp:406] conv1 <- data
I0108 21:04:37.265832 46008 net.cpp:380] conv1 -> conv1
I0108 21:04:37.285009 46008 net.cpp:122] Setting up conv1
I0108 21:04:37.285059 46008 net.cpp:129] Top shape: 200 96 55 55 (58080000)
I0108 21:04:37.285069 46008 net.cpp:137] Memory required for data: 352745600
I0108 21:04:37.285089 46008 layer_factory.hpp:77] Creating layer bn1
I0108 21:04:37.285109 46008 net.cpp:84] Creating Layer bn1
I0108 21:04:37.285120 46008 net.cpp:406] bn1 <- conv1
I0108 21:04:37.285133 46008 net.cpp:367] bn1 -> conv1 (in-place)
I0108 21:04:37.285398 46008 net.cpp:122] Setting up bn1
I0108 21:04:37.285416 46008 net.cpp:129] Top shape: 200 96 55 55 (58080000)
I0108 21:04:37.285426 46008 net.cpp:137] Memory required for data: 585065600
I0108 21:04:37.285444 46008 layer_factory.hpp:77] Creating layer scale1
I0108 21:04:37.285461 46008 net.cpp:84] Creating Layer scale1
I0108 21:04:37.285470 46008 net.cpp:406] scale1 <- conv1
I0108 21:04:37.285481 46008 net.cpp:367] scale1 -> conv1 (in-place)
I0108 21:04:37.285539 46008 layer_factory.hpp:77] Creating layer scale1
I0108 21:04:37.285673 46008 net.cpp:122] Setting up scale1
I0108 21:04:37.285691 46008 net.cpp:129] Top shape: 200 96 55 55 (58080000)
I0108 21:04:37.285699 46008 net.cpp:137] Memory required for data: 817385600
I0108 21:04:37.285712 46008 layer_factory.hpp:77] Creating layer relu1
I0108 21:04:37.285724 46008 net.cpp:84] Creating Layer relu1
I0108 21:04:37.285733 46008 net.cpp:406] relu1 <- conv1
I0108 21:04:37.285744 46008 net.cpp:367] relu1 -> conv1 (in-place)
I0108 21:04:37.285756 46008 net.cpp:122] Setting up relu1
I0108 21:04:37.285768 46008 net.cpp:129] Top shape: 200 96 55 55 (58080000)
I0108 21:04:37.285775 46008 net.cpp:137] Memory required for data: 1049705600
I0108 21:04:37.285784 46008 layer_factory.hpp:77] Creating layer pool1
I0108 21:04:37.285797 46008 net.cpp:84] Creating Layer pool1
I0108 21:04:37.285806 46008 net.cpp:406] pool1 <- conv1
I0108 21:04:37.285817 46008 net.cpp:380] pool1 -> pool1
I0108 21:04:37.285866 46008 net.cpp:122] Setting up pool1
I0108 21:04:37.285882 46008 net.cpp:129] Top shape: 200 96 27 27 (13996800)
I0108 21:04:37.285892 46008 net.cpp:137] Memory required for data: 1105692800
I0108 21:04:37.285899 46008 layer_factory.hpp:77] Creating layer quantized_conv1
I0108 21:04:37.285913 46008 net.cpp:84] Creating Layer quantized_conv1
I0108 21:04:37.285923 46008 net.cpp:406] quantized_conv1 <- pool1
I0108 21:04:37.285934 46008 net.cpp:367] quantized_conv1 -> pool1 (in-place)
I0108 21:04:37.285948 46008 net.cpp:122] Setting up quantized_conv1
I0108 21:04:37.285959 46008 net.cpp:129] Top shape: 200 96 27 27 (13996800)
I0108 21:04:37.285966 46008 net.cpp:137] Memory required for data: 1161680000
I0108 21:04:37.285974 46008 layer_factory.hpp:77] Creating layer conv2
I0108 21:04:37.285992 46008 net.cpp:84] Creating Layer conv2
I0108 21:04:37.286003 46008 net.cpp:406] conv2 <- pool1
I0108 21:04:37.286015 46008 net.cpp:380] conv2 -> conv2
I0108 21:04:37.305291 46008 net.cpp:122] Setting up conv2
I0108 21:04:37.305356 46008 net.cpp:129] Top shape: 200 256 27 27 (37324800)
I0108 21:04:37.305366 46008 net.cpp:137] Memory required for data: 1310979200
I0108 21:04:37.305387 46008 layer_factory.hpp:77] Creating layer bn2
I0108 21:04:37.305407 46008 net.cpp:84] Creating Layer bn2
I0108 21:04:37.305418 46008 net.cpp:406] bn2 <- conv2
I0108 21:04:37.305431 46008 net.cpp:367] bn2 -> conv2 (in-place)
I0108 21:04:37.305619 46008 net.cpp:122] Setting up bn2
I0108 21:04:37.305636 46008 net.cpp:129] Top shape: 200 256 27 27 (37324800)
I0108 21:04:37.305645 46008 net.cpp:137] Memory required for data: 1460278400
I0108 21:04:37.305706 46008 layer_factory.hpp:77] Creating layer scale2
I0108 21:04:37.305724 46008 net.cpp:84] Creating Layer scale2
I0108 21:04:37.305734 46008 net.cpp:406] scale2 <- conv2
I0108 21:04:37.305747 46008 net.cpp:367] scale2 -> conv2 (in-place)
I0108 21:04:37.305806 46008 layer_factory.hpp:77] Creating layer scale2
I0108 21:04:37.305924 46008 net.cpp:122] Setting up scale2
I0108 21:04:37.305941 46008 net.cpp:129] Top shape: 200 256 27 27 (37324800)
I0108 21:04:37.305950 46008 net.cpp:137] Memory required for data: 1609577600
I0108 21:04:37.305961 46008 layer_factory.hpp:77] Creating layer relu2
I0108 21:04:37.305975 46008 net.cpp:84] Creating Layer relu2
I0108 21:04:37.305984 46008 net.cpp:406] relu2 <- conv2
I0108 21:04:37.305994 46008 net.cpp:367] relu2 -> conv2 (in-place)
I0108 21:04:37.306006 46008 net.cpp:122] Setting up relu2
I0108 21:04:37.306017 46008 net.cpp:129] Top shape: 200 256 27 27 (37324800)
I0108 21:04:37.306025 46008 net.cpp:137] Memory required for data: 1758876800
I0108 21:04:37.306035 46008 layer_factory.hpp:77] Creating layer pool2
I0108 21:04:37.306047 46008 net.cpp:84] Creating Layer pool2
I0108 21:04:37.306056 46008 net.cpp:406] pool2 <- conv2
I0108 21:04:37.306067 46008 net.cpp:380] pool2 -> pool2
I0108 21:04:37.306118 46008 net.cpp:122] Setting up pool2
I0108 21:04:37.306133 46008 net.cpp:129] Top shape: 200 256 13 13 (8652800)
I0108 21:04:37.306143 46008 net.cpp:137] Memory required for data: 1793488000
I0108 21:04:37.306151 46008 layer_factory.hpp:77] Creating layer quantized_conv2
I0108 21:04:37.306164 46008 net.cpp:84] Creating Layer quantized_conv2
I0108 21:04:37.306174 46008 net.cpp:406] quantized_conv2 <- pool2
I0108 21:04:37.306185 46008 net.cpp:367] quantized_conv2 -> pool2 (in-place)
I0108 21:04:37.306197 46008 net.cpp:122] Setting up quantized_conv2
I0108 21:04:37.306210 46008 net.cpp:129] Top shape: 200 256 13 13 (8652800)
I0108 21:04:37.306217 46008 net.cpp:137] Memory required for data: 1828099200
I0108 21:04:37.306226 46008 layer_factory.hpp:77] Creating layer conv3
I0108 21:04:37.306242 46008 net.cpp:84] Creating Layer conv3
I0108 21:04:37.306252 46008 net.cpp:406] conv3 <- pool2
I0108 21:04:37.306264 46008 net.cpp:380] conv3 -> conv3
I0108 21:04:37.334101 46008 net.cpp:122] Setting up conv3
I0108 21:04:37.334157 46008 net.cpp:129] Top shape: 200 384 13 13 (12979200)
I0108 21:04:37.334168 46008 net.cpp:137] Memory required for data: 1880016000
I0108 21:04:37.334183 46008 layer_factory.hpp:77] Creating layer bn3
I0108 21:04:37.334203 46008 net.cpp:84] Creating Layer bn3
I0108 21:04:37.334214 46008 net.cpp:406] bn3 <- conv3
I0108 21:04:37.334228 46008 net.cpp:367] bn3 -> conv3 (in-place)
I0108 21:04:37.334414 46008 net.cpp:122] Setting up bn3
I0108 21:04:37.334430 46008 net.cpp:129] Top shape: 200 384 13 13 (12979200)
I0108 21:04:37.334439 46008 net.cpp:137] Memory required for data: 1931932800
I0108 21:04:37.334460 46008 layer_factory.hpp:77] Creating layer scale3
I0108 21:04:37.334477 46008 net.cpp:84] Creating Layer scale3
I0108 21:04:37.334487 46008 net.cpp:406] scale3 <- conv3
I0108 21:04:37.334498 46008 net.cpp:367] scale3 -> conv3 (in-place)
I0108 21:04:37.334554 46008 layer_factory.hpp:77] Creating layer scale3
I0108 21:04:37.334674 46008 net.cpp:122] Setting up scale3
I0108 21:04:37.334692 46008 net.cpp:129] Top shape: 200 384 13 13 (12979200)
I0108 21:04:37.334700 46008 net.cpp:137] Memory required for data: 1983849600
I0108 21:04:37.334712 46008 layer_factory.hpp:77] Creating layer relu3
I0108 21:04:37.334725 46008 net.cpp:84] Creating Layer relu3
I0108 21:04:37.334734 46008 net.cpp:406] relu3 <- conv3
I0108 21:04:37.334744 46008 net.cpp:367] relu3 -> conv3 (in-place)
I0108 21:04:37.334756 46008 net.cpp:122] Setting up relu3
I0108 21:04:37.334766 46008 net.cpp:129] Top shape: 200 384 13 13 (12979200)
I0108 21:04:37.334775 46008 net.cpp:137] Memory required for data: 2035766400
I0108 21:04:37.334784 46008 layer_factory.hpp:77] Creating layer quantized_conv3
I0108 21:04:37.334796 46008 net.cpp:84] Creating Layer quantized_conv3
I0108 21:04:37.334851 46008 net.cpp:406] quantized_conv3 <- conv3
I0108 21:04:37.334866 46008 net.cpp:367] quantized_conv3 -> conv3 (in-place)
I0108 21:04:37.334878 46008 net.cpp:122] Setting up quantized_conv3
I0108 21:04:37.334889 46008 net.cpp:129] Top shape: 200 384 13 13 (12979200)
I0108 21:04:37.334897 46008 net.cpp:137] Memory required for data: 2087683200
I0108 21:04:37.334905 46008 layer_factory.hpp:77] Creating layer conv4
I0108 21:04:37.334923 46008 net.cpp:84] Creating Layer conv4
I0108 21:04:37.334933 46008 net.cpp:406] conv4 <- conv3
I0108 21:04:37.334945 46008 net.cpp:380] conv4 -> conv4
I0108 21:04:37.375397 46008 net.cpp:122] Setting up conv4
I0108 21:04:37.375444 46008 net.cpp:129] Top shape: 200 384 13 13 (12979200)
I0108 21:04:37.375454 46008 net.cpp:137] Memory required for data: 2139600000
I0108 21:04:37.375469 46008 layer_factory.hpp:77] Creating layer bn4
I0108 21:04:37.375496 46008 net.cpp:84] Creating Layer bn4
I0108 21:04:37.375509 46008 net.cpp:406] bn4 <- conv4
I0108 21:04:37.375522 46008 net.cpp:367] bn4 -> conv4 (in-place)
I0108 21:04:37.375717 46008 net.cpp:122] Setting up bn4
I0108 21:04:37.375735 46008 net.cpp:129] Top shape: 200 384 13 13 (12979200)
I0108 21:04:37.375744 46008 net.cpp:137] Memory required for data: 2191516800
I0108 21:04:37.375757 46008 layer_factory.hpp:77] Creating layer scale4
I0108 21:04:37.375772 46008 net.cpp:84] Creating Layer scale4
I0108 21:04:37.375782 46008 net.cpp:406] scale4 <- conv4
I0108 21:04:37.375792 46008 net.cpp:367] scale4 -> conv4 (in-place)
I0108 21:04:37.375849 46008 layer_factory.hpp:77] Creating layer scale4
I0108 21:04:37.375977 46008 net.cpp:122] Setting up scale4
I0108 21:04:37.375994 46008 net.cpp:129] Top shape: 200 384 13 13 (12979200)
I0108 21:04:37.376003 46008 net.cpp:137] Memory required for data: 2243433600
I0108 21:04:37.376015 46008 layer_factory.hpp:77] Creating layer relu4
I0108 21:04:37.376030 46008 net.cpp:84] Creating Layer relu4
I0108 21:04:37.376039 46008 net.cpp:406] relu4 <- conv4
I0108 21:04:37.376049 46008 net.cpp:367] relu4 -> conv4 (in-place)
I0108 21:04:37.376061 46008 net.cpp:122] Setting up relu4
I0108 21:04:37.376072 46008 net.cpp:129] Top shape: 200 384 13 13 (12979200)
I0108 21:04:37.376081 46008 net.cpp:137] Memory required for data: 2295350400
I0108 21:04:37.376090 46008 layer_factory.hpp:77] Creating layer quantized_conv4
I0108 21:04:37.376102 46008 net.cpp:84] Creating Layer quantized_conv4
I0108 21:04:37.376111 46008 net.cpp:406] quantized_conv4 <- conv4
I0108 21:04:37.376122 46008 net.cpp:367] quantized_conv4 -> conv4 (in-place)
I0108 21:04:37.376133 46008 net.cpp:122] Setting up quantized_conv4
I0108 21:04:37.376144 46008 net.cpp:129] Top shape: 200 384 13 13 (12979200)
I0108 21:04:37.376153 46008 net.cpp:137] Memory required for data: 2347267200
I0108 21:04:37.376161 46008 layer_factory.hpp:77] Creating layer conv5
I0108 21:04:37.376183 46008 net.cpp:84] Creating Layer conv5
I0108 21:04:37.376194 46008 net.cpp:406] conv5 <- conv4
I0108 21:04:37.376205 46008 net.cpp:380] conv5 -> conv5
I0108 21:04:37.402982 46008 net.cpp:122] Setting up conv5
I0108 21:04:37.403024 46008 net.cpp:129] Top shape: 200 256 13 13 (8652800)
I0108 21:04:37.403034 46008 net.cpp:137] Memory required for data: 2381878400
I0108 21:04:37.403048 46008 layer_factory.hpp:77] Creating layer bn5
I0108 21:04:37.403064 46008 net.cpp:84] Creating Layer bn5
I0108 21:04:37.403077 46008 net.cpp:406] bn5 <- conv5
I0108 21:04:37.403092 46008 net.cpp:367] bn5 -> conv5 (in-place)
I0108 21:04:37.403288 46008 net.cpp:122] Setting up bn5
I0108 21:04:37.403304 46008 net.cpp:129] Top shape: 200 256 13 13 (8652800)
I0108 21:04:37.403312 46008 net.cpp:137] Memory required for data: 2416489600
I0108 21:04:37.403332 46008 layer_factory.hpp:77] Creating layer scale5
I0108 21:04:37.403348 46008 net.cpp:84] Creating Layer scale5
I0108 21:04:37.403357 46008 net.cpp:406] scale5 <- conv5
I0108 21:04:37.403367 46008 net.cpp:367] scale5 -> conv5 (in-place)
I0108 21:04:37.403422 46008 layer_factory.hpp:77] Creating layer scale5
I0108 21:04:37.403542 46008 net.cpp:122] Setting up scale5
I0108 21:04:37.403594 46008 net.cpp:129] Top shape: 200 256 13 13 (8652800)
I0108 21:04:37.403604 46008 net.cpp:137] Memory required for data: 2451100800
I0108 21:04:37.403614 46008 layer_factory.hpp:77] Creating layer relu5
I0108 21:04:37.403627 46008 net.cpp:84] Creating Layer relu5
I0108 21:04:37.403636 46008 net.cpp:406] relu5 <- conv5
I0108 21:04:37.403645 46008 net.cpp:367] relu5 -> conv5 (in-place)
I0108 21:04:37.403657 46008 net.cpp:122] Setting up relu5
I0108 21:04:37.403667 46008 net.cpp:129] Top shape: 200 256 13 13 (8652800)
I0108 21:04:37.403676 46008 net.cpp:137] Memory required for data: 2485712000
I0108 21:04:37.403683 46008 layer_factory.hpp:77] Creating layer pool5
I0108 21:04:37.403697 46008 net.cpp:84] Creating Layer pool5
I0108 21:04:37.403707 46008 net.cpp:406] pool5 <- conv5
I0108 21:04:37.403717 46008 net.cpp:380] pool5 -> pool5
I0108 21:04:37.403769 46008 net.cpp:122] Setting up pool5
I0108 21:04:37.403784 46008 net.cpp:129] Top shape: 200 256 6 6 (1843200)
I0108 21:04:37.403791 46008 net.cpp:137] Memory required for data: 2493084800
I0108 21:04:37.403800 46008 layer_factory.hpp:77] Creating layer quantized_conv5
I0108 21:04:37.403812 46008 net.cpp:84] Creating Layer quantized_conv5
I0108 21:04:37.403821 46008 net.cpp:406] quantized_conv5 <- pool5
I0108 21:04:37.403831 46008 net.cpp:367] quantized_conv5 -> pool5 (in-place)
I0108 21:04:37.403843 46008 net.cpp:122] Setting up quantized_conv5
I0108 21:04:37.403853 46008 net.cpp:129] Top shape: 200 256 6 6 (1843200)
I0108 21:04:37.403861 46008 net.cpp:137] Memory required for data: 2500457600
I0108 21:04:37.403869 46008 layer_factory.hpp:77] Creating layer fc6
I0108 21:04:37.403882 46008 net.cpp:84] Creating Layer fc6
I0108 21:04:37.403892 46008 net.cpp:406] fc6 <- pool5
I0108 21:04:37.403903 46008 net.cpp:380] fc6 -> fc6
I0108 21:04:38.591521 46008 net.cpp:122] Setting up fc6
I0108 21:04:38.591639 46008 net.cpp:129] Top shape: 200 4096 (819200)
I0108 21:04:38.591650 46008 net.cpp:137] Memory required for data: 2503734400
I0108 21:04:38.591668 46008 layer_factory.hpp:77] Creating layer bn6
I0108 21:04:38.591688 46008 net.cpp:84] Creating Layer bn6
I0108 21:04:38.591701 46008 net.cpp:406] bn6 <- fc6
I0108 21:04:38.591713 46008 net.cpp:367] bn6 -> fc6 (in-place)
I0108 21:04:38.591920 46008 net.cpp:122] Setting up bn6
I0108 21:04:38.591938 46008 net.cpp:129] Top shape: 200 4096 (819200)
I0108 21:04:38.591946 46008 net.cpp:137] Memory required for data: 2507011200
I0108 21:04:38.591959 46008 layer_factory.hpp:77] Creating layer scale6
I0108 21:04:38.591979 46008 net.cpp:84] Creating Layer scale6
I0108 21:04:38.591987 46008 net.cpp:406] scale6 <- fc6
I0108 21:04:38.591997 46008 net.cpp:367] scale6 -> fc6 (in-place)
I0108 21:04:38.592054 46008 layer_factory.hpp:77] Creating layer scale6
I0108 21:04:38.592185 46008 net.cpp:122] Setting up scale6
I0108 21:04:38.592200 46008 net.cpp:129] Top shape: 200 4096 (819200)
I0108 21:04:38.592208 46008 net.cpp:137] Memory required for data: 2510288000
I0108 21:04:38.592221 46008 layer_factory.hpp:77] Creating layer relu6
I0108 21:04:38.592232 46008 net.cpp:84] Creating Layer relu6
I0108 21:04:38.592242 46008 net.cpp:406] relu6 <- fc6
I0108 21:04:38.592254 46008 net.cpp:367] relu6 -> fc6 (in-place)
I0108 21:04:38.592267 46008 net.cpp:122] Setting up relu6
I0108 21:04:38.592277 46008 net.cpp:129] Top shape: 200 4096 (819200)
I0108 21:04:38.592284 46008 net.cpp:137] Memory required for data: 2513564800
I0108 21:04:38.592293 46008 layer_factory.hpp:77] Creating layer drop6
I0108 21:04:38.592304 46008 net.cpp:84] Creating Layer drop6
I0108 21:04:38.592314 46008 net.cpp:406] drop6 <- fc6
I0108 21:04:38.592324 46008 net.cpp:367] drop6 -> fc6 (in-place)
I0108 21:04:38.592357 46008 net.cpp:122] Setting up drop6
I0108 21:04:38.592372 46008 net.cpp:129] Top shape: 200 4096 (819200)
I0108 21:04:38.592381 46008 net.cpp:137] Memory required for data: 2516841600
I0108 21:04:38.592388 46008 layer_factory.hpp:77] Creating layer quantized_fc6
I0108 21:04:38.592402 46008 net.cpp:84] Creating Layer quantized_fc6
I0108 21:04:38.592484 46008 net.cpp:406] quantized_fc6 <- fc6
I0108 21:04:38.592496 46008 net.cpp:367] quantized_fc6 -> fc6 (in-place)
I0108 21:04:38.592509 46008 net.cpp:122] Setting up quantized_fc6
I0108 21:04:38.592520 46008 net.cpp:129] Top shape: 200 4096 (819200)
I0108 21:04:38.592528 46008 net.cpp:137] Memory required for data: 2520118400
I0108 21:04:38.592536 46008 layer_factory.hpp:77] Creating layer fc7
I0108 21:04:38.592550 46008 net.cpp:84] Creating Layer fc7
I0108 21:04:38.592559 46008 net.cpp:406] fc7 <- fc6
I0108 21:04:38.592573 46008 net.cpp:380] fc7 -> fc7
I0108 21:04:39.154352 46008 net.cpp:122] Setting up fc7
I0108 21:04:39.154464 46008 net.cpp:129] Top shape: 200 4096 (819200)
I0108 21:04:39.154475 46008 net.cpp:137] Memory required for data: 2523395200
I0108 21:04:39.154492 46008 layer_factory.hpp:77] Creating layer bn7
I0108 21:04:39.154515 46008 net.cpp:84] Creating Layer bn7
I0108 21:04:39.154526 46008 net.cpp:406] bn7 <- fc7
I0108 21:04:39.154541 46008 net.cpp:367] bn7 -> fc7 (in-place)
I0108 21:04:39.154738 46008 net.cpp:122] Setting up bn7
I0108 21:04:39.154754 46008 net.cpp:129] Top shape: 200 4096 (819200)
I0108 21:04:39.154763 46008 net.cpp:137] Memory required for data: 2526672000
I0108 21:04:39.154777 46008 layer_factory.hpp:77] Creating layer scale7
I0108 21:04:39.154793 46008 net.cpp:84] Creating Layer scale7
I0108 21:04:39.154803 46008 net.cpp:406] scale7 <- fc7
I0108 21:04:39.154812 46008 net.cpp:367] scale7 -> fc7 (in-place)
I0108 21:04:39.154867 46008 layer_factory.hpp:77] Creating layer scale7
I0108 21:04:39.155019 46008 net.cpp:122] Setting up scale7
I0108 21:04:39.155038 46008 net.cpp:129] Top shape: 200 4096 (819200)
I0108 21:04:39.155047 46008 net.cpp:137] Memory required for data: 2529948800
I0108 21:04:39.155061 46008 layer_factory.hpp:77] Creating layer relu7
I0108 21:04:39.155073 46008 net.cpp:84] Creating Layer relu7
I0108 21:04:39.155082 46008 net.cpp:406] relu7 <- fc7
I0108 21:04:39.155095 46008 net.cpp:367] relu7 -> fc7 (in-place)
I0108 21:04:39.155107 46008 net.cpp:122] Setting up relu7
I0108 21:04:39.155118 46008 net.cpp:129] Top shape: 200 4096 (819200)
I0108 21:04:39.155130 46008 net.cpp:137] Memory required for data: 2533225600
I0108 21:04:39.155138 46008 layer_factory.hpp:77] Creating layer drop7
I0108 21:04:39.155151 46008 net.cpp:84] Creating Layer drop7
I0108 21:04:39.155159 46008 net.cpp:406] drop7 <- fc7
I0108 21:04:39.155172 46008 net.cpp:367] drop7 -> fc7 (in-place)
I0108 21:04:39.155203 46008 net.cpp:122] Setting up drop7
I0108 21:04:39.155218 46008 net.cpp:129] Top shape: 200 4096 (819200)
I0108 21:04:39.155226 46008 net.cpp:137] Memory required for data: 2536502400
I0108 21:04:39.155234 46008 layer_factory.hpp:77] Creating layer quantized_fc7
I0108 21:04:39.155251 46008 net.cpp:84] Creating Layer quantized_fc7
I0108 21:04:39.155259 46008 net.cpp:406] quantized_fc7 <- fc7
I0108 21:04:39.155270 46008 net.cpp:367] quantized_fc7 -> fc7 (in-place)
I0108 21:04:39.155282 46008 net.cpp:122] Setting up quantized_fc7
I0108 21:04:39.155292 46008 net.cpp:129] Top shape: 200 4096 (819200)
I0108 21:04:39.155300 46008 net.cpp:137] Memory required for data: 2539779200
I0108 21:04:39.155308 46008 layer_factory.hpp:77] Creating layer fc8
I0108 21:04:39.155321 46008 net.cpp:84] Creating Layer fc8
I0108 21:04:39.155330 46008 net.cpp:406] fc8 <- fc7
I0108 21:04:39.155340 46008 net.cpp:380] fc8 -> fc8
I0108 21:04:39.275938 46008 net.cpp:122] Setting up fc8
I0108 21:04:39.276003 46008 net.cpp:129] Top shape: 200 1000 (200000)
I0108 21:04:39.276013 46008 net.cpp:137] Memory required for data: 2540579200
I0108 21:04:39.276031 46008 layer_factory.hpp:77] Creating layer fc8_fc8_0_split
I0108 21:04:39.276049 46008 net.cpp:84] Creating Layer fc8_fc8_0_split
I0108 21:04:39.276062 46008 net.cpp:406] fc8_fc8_0_split <- fc8
I0108 21:04:39.276078 46008 net.cpp:380] fc8_fc8_0_split -> fc8_fc8_0_split_0
I0108 21:04:39.276099 46008 net.cpp:380] fc8_fc8_0_split -> fc8_fc8_0_split_1
I0108 21:04:39.276115 46008 net.cpp:380] fc8_fc8_0_split -> fc8_fc8_0_split_2
I0108 21:04:39.276183 46008 net.cpp:122] Setting up fc8_fc8_0_split
I0108 21:04:39.276242 46008 net.cpp:129] Top shape: 200 1000 (200000)
I0108 21:04:39.276252 46008 net.cpp:129] Top shape: 200 1000 (200000)
I0108 21:04:39.276262 46008 net.cpp:129] Top shape: 200 1000 (200000)
I0108 21:04:39.276270 46008 net.cpp:137] Memory required for data: 2542979200
I0108 21:04:39.276279 46008 layer_factory.hpp:77] Creating layer accuracy
I0108 21:04:39.276294 46008 net.cpp:84] Creating Layer accuracy
I0108 21:04:39.276304 46008 net.cpp:406] accuracy <- fc8_fc8_0_split_0
I0108 21:04:39.276314 46008 net.cpp:406] accuracy <- label_data_1_split_0
I0108 21:04:39.276327 46008 net.cpp:380] accuracy -> accuracy
…
