…
I0108 11:51:06.358729 36324 net.cpp:294] The NetState phase (0) differed from the phase (1) specified by a rule in layer accuracy_5
I0108 11:51:06.358994 36324 net.cpp:51] Initializing net from parameters: 
name: "AlexNet-BN"
state {
  phase: TRAIN
  level: 0
  stage: ""
}
layer {
  name: "data"
  type: "Data"
  top: "data"
  top: "label"
  include {
    phase: TRAIN
  }
  transform_param {
    mirror: true
    crop_size: 224
    mean_value: 103.939
    mean_value: 116.779
    mean_value: 123.68
  }
  data_param {
    source: "/home/ydwu/database/imagenet/ilsvrc12/lmdb_resize/ilsvrc12_train_lmdb"
    batch_size: 200
    backend: LMDB
  }
}
layer {
  name: "conv1"
  type: "Convolution"
  bottom: "data"
  top: "conv1"
  param {
    lr_mult: 1
    decay_mult: 1
  }
  param {
    lr_mult: 2
    decay_mult: 0
  }
  convolution_param {
    num_output: 96
    pad: 2
    kernel_size: 11
    stride: 4
    weight_filler {
      type: "gaussian"
      std: 0.01
    }
    bias_filler {
      type: "constant"
      value: 0
    }
  }
}
layer {
  name: "bn1"
  type: "BatchNorm"
  bottom: "conv1"
  top: "conv1"
}
layer {
  name: "scale1"
  type: "Scale"
  bottom: "conv1"
  top: "conv1"
  scale_param {
    bias_term: true
  }
}
layer {
  name: "relu1"
  type: "ReLU"
  bottom: "conv1"
  top: "conv1"
}
layer {
  name: "pool1"
  type: "Pooling"
  bottom: "conv1"
  top: "pool1"
  pooling_param {
    pool: MAX
    kernel_size: 3
    stride: 2
  }
}
layer {
  name: "quantized_conv1"
  type: "Quantization"
  bottom: "pool1"
  top: "pool1"
  quantization_param {
    round_method: FLOOR
    round_strategy: AGGRESSIVE
    bit_width: 4
    range: 0
    range: 9.3102551
  }
}
layer {
  name: "conv2"
  type: "Convolution"
  bottom: "pool1"
  top: "conv2"
  param {
    lr_mult: 1
    decay_mult: 1
  }
  param {
    lr_mult: 2
    decay_mult: 0
  }
  convolution_param {
    num_output: 256
    pad: 2
    kernel_size: 5
    weight_filler {
      type: "gaussian"
      std: 0.01
    }
    bias_filler {
      type: "constant"
      value: 0.1
    }
  }
}
layer {
  name: "bn2"
  type: "BatchNorm"
  bottom: "conv2"
  top: "conv2"
}
layer {
  name: "scale2"
  type: "Scale"
  bottom: "conv2"
  top: "conv2"
  scale_param {
    bias_term: true
  }
}
layer {
  name: "relu2"
  type: "ReLU"
  bottom: "conv2"
  top: "conv2"
}
layer {
  name: "pool2"
  type: "Pooling"
  bottom: "conv2"
  top: "pool2"
  pooling_param {
    pool: MAX
    kernel_size: 3
    stride: 2
  }
}
layer {
  name: "quantized_conv2"
  type: "Quantization"
  bottom: "pool2"
  top: "pool2"
  quantization_param {
    round_method: FLOOR
    round_strategy: AGGRESSIVE
    bit_width: 4
    range: 0
    range: 4.4997
  }
}
layer {
  name: "conv3"
  type: "Convolution"
  bottom: "pool2"
  top: "conv3"
  param {
    lr_mult: 1
    decay_mult: 1
  }
  param {
    lr_mult: 2
    decay_mult: 0
  }
  convolution_param {
    num_output: 384
    pad: 1
    kernel_size: 3
    weight_filler {
      type: "gaussian"
      std: 0.01
    }
    bias_filler {
      type: "constant"
      value: 0
    }
  }
}
layer {
  name: "bn3"
  type: "BatchNorm"
  bottom: "conv3"
  top: "conv3"
}
layer {
  name: "scale3"
  type: "Scale"
  bottom: "conv3"
  top: "conv3"
  scale_param {
    bias_term: true
  }
}
layer {
  name: "relu3"
  type: "ReLU"
  bottom: "conv3"
  top: "conv3"
}
layer {
  name: "quantized_conv3"
  type: "Quantization"
  bottom: "conv3"
  top: "conv3"
  quantization_param {
    round_method: FLOOR
    round_strategy: AGGRESSIVE
    bit_width: 4
    range: 0
    range: 5.65636
  }
}
layer {
  name: "conv4"
  type: "Convolution"
  bottom: "conv3"
  top: "conv4"
  param {
    lr_mult: 1
    decay_mult: 1
  }
  param {
    lr_mult: 2
    decay_mult: 0
  }
  convolution_param {
    num_output: 384
    pad: 1
    kernel_size: 3
    weight_filler {
      type: "gaussian"
      std: 0.01
    }
    bias_filler {
      type: "constant"
      value: 0.1
    }
  }
}
layer {
  name: "bn4"
  type: "BatchNorm"
  bottom: "conv4"
  top: "conv4"
}
layer {
  name: "scale4"
  type: "Scale"
  bottom: "conv4"
  top: "conv4"
  scale_param {
    bias_term: true
  }
}
layer {
  name: "relu4"
  type: "ReLU"
  bottom: "conv4"
  top: "conv4"
}
layer {
  name: "quantized_conv4"
  type: "Quantization"
  bottom: "conv4"
  top: "conv4"
  quantization_param {
    round_method: FLOOR
    round_strategy: AGGRESSIVE
    bit_width: 4
    range: 0
    range: 4.891314
  }
}
layer {
  name: "conv5"
  type: "Convolution"
  bottom: "conv4"
  top: "conv5"
  param {
    lr_mult: 1
    decay_mult: 1
  }
  param {
    lr_mult: 2
    decay_mult: 0
  }
  convolution_param {
    num_output: 256
    pad: 1
    kernel_size: 3
    weight_filler {
      type: "gaussian"
      std: 0.01
    }
    bias_filler {
      type: "constant"
      value: 0.1
    }
  }
}
layer {
  name: "bn5"
  type: "BatchNorm"
  bottom: "conv5"
  top: "conv5"
}
layer {
  name: "scale5"
  type: "Scale"
  bottom: "conv5"
  top: "conv5"
  scale_param {
    bias_term: true
  }
}
layer {
  name: "relu5"
  type: "ReLU"
  bottom: "conv5"
  top: "conv5"
}
layer {
  name: "pool5"
  type: "Pooling"
  bottom: "conv5"
  top: "pool5"
  pooling_param {
    pool: MAX
    kernel_size: 3
    stride: 2
  }
}
layer {
  name: "quantized_conv5"
  type: "Quantization"
  bottom: "pool5"
  top: "pool5"
  quantization_param {
    round_method: FLOOR
    round_strategy: AGGRESSIVE
    bit_width: 4
    range: 0
    range: 5.8384752
  }
}
layer {
  name: "fc6"
  type: "InnerProduct"
  bottom: "pool5"
  top: "fc6"
  param {
    lr_mult: 1
    decay_mult: 1
  }
  param {
    lr_mult: 2
    decay_mult: 0
  }
  inner_product_param {
    num_output: 4096
    weight_filler {
      type: "gaussian"
      std: 0.005
    }
    bias_filler {
      type: "constant"
      value: 0.1
    }
  }
}
layer {
  name: "bn6"
  type: "BatchNorm"
  bottom: "fc6"
  top: "fc6"
}
layer {
  name: "scale6"
  type: "Scale"
  bottom: "fc6"
  top: "fc6"
  scale_param {
    bias_term: true
  }
}
layer {
  name: "relu6"
  type: "ReLU"
  bottom: "fc6"
  top: "fc6"
}
layer {
  name: "drop6"
  type: "Dropout"
  bottom: "fc6"
  top: "fc6"
  dropout_param {
    dropout_ratio: 0.5
  }
}
layer {
  name: "quantized_fc6"
  type: "Quantization"
  bottom: "fc6"
  top: "fc6"
  quantization_param {
    round_method: FLOOR
    round_strategy: AGGRESSIVE
    bit_width: 4
    range: 0
    range: 1.106238
  }
}
layer {
  name: "fc7"
  type: "InnerProduct"
  bottom: "fc6"
  top: "fc7"
  param {
    lr_mult: 1
    decay_mult: 1
  }
  param {
    lr_mult: 2
    decay_mult: 0
  }
  inner_product_param {
    num_output: 4096
    weight_filler {
      type: "gaussian"
      std: 0.005
    }
    bias_filler {
      type: "constant"
      value: 0.1
    }
  }
}
layer {
  name: "bn7"
  type: "BatchNorm"
  bottom: "fc7"
  top: "fc7"
}
layer {
  name: "scale7"
  type: "Scale"
  bottom: "fc7"
  top: "fc7"
  scale_param {
    bias_term: true
  }
}
layer {
  name: "relu7"
  type: "ReLU"
  bottom: "fc7"
  top: "fc7"
}
layer {
  name: "drop7"
  type: "Dropout"
  bottom: "fc7"
  top: "fc7"
  dropout_param {
    dropout_ratio: 0.5
  }
}
layer {
  name: "quantized_fc7"
  type: "Quantization"
  bottom: "fc7"
  top: "fc7"
  quantization_param {
    round_method: FLOOR
    round_strategy: AGGRESSIVE
    bit_width: 4
    range: 0
    range: 5.0399008
  }
}
layer {
  name: "fc8"
  type: "InnerProduct"
  bottom: "fc7"
  top: "fc8"
  param {
    lr_mult: 1
    decay_mult: 1
  }
  param {
    lr_mult: 2
    decay_mult: 0
  }
  inner_product_param {
    num_output: 1000
    weight_filler {
      type: "gaussian"
      std: 0.01
    }
    bias_filler {
      type: "constant"
      value: 0
    }
  }
}
layer {
  name: "accuracy_5_TRAIN"
  type: "Accuracy"
  bottom: "fc8"
  bottom: "label"
  top: "accuracy_5_TRAIN"
  include {
    phase: TRAIN
  }
  accuracy_param {
    top_k: 5
  }
}
layer {
  name: "loss"
  type: "SoftmaxWithLoss"
  bottom: "fc8"
  bottom: "label"
  top: "loss"
}
I0108 11:51:06.359258 36324 layer_factory.hpp:77] Creating layer data
I0108 11:51:06.375183 36324 db_lmdb.cpp:35] Opened lmdb /home/ydwu/database/imagenet/ilsvrc12/lmdb_resize/ilsvrc12_train_lmdb
I0108 11:51:06.375234 36324 net.cpp:84] Creating Layer data
I0108 11:51:06.375255 36324 net.cpp:380] data -> data
I0108 11:51:06.375291 36324 net.cpp:380] data -> label
I0108 11:51:06.377202 36324 data_layer.cpp:45] output data size: 200,3,224,224
I0108 11:51:06.735618 36324 net.cpp:122] Setting up data
I0108 11:51:06.735702 36324 net.cpp:129] Top shape: 200 3 224 224 (30105600)
I0108 11:51:06.735718 36324 net.cpp:129] Top shape: 200 (200)
I0108 11:51:06.735728 36324 net.cpp:137] Memory required for data: 120423200
I0108 11:51:06.735743 36324 layer_factory.hpp:77] Creating layer label_data_1_split
I0108 11:51:06.735769 36324 net.cpp:84] Creating Layer label_data_1_split
I0108 11:51:06.735782 36324 net.cpp:406] label_data_1_split <- label
I0108 11:51:06.735805 36324 net.cpp:380] label_data_1_split -> label_data_1_split_0
I0108 11:51:06.735827 36324 net.cpp:380] label_data_1_split -> label_data_1_split_1
I0108 11:51:06.735882 36324 net.cpp:122] Setting up label_data_1_split
I0108 11:51:06.735898 36324 net.cpp:129] Top shape: 200 (200)
I0108 11:51:06.735908 36324 net.cpp:129] Top shape: 200 (200)
I0108 11:51:06.735916 36324 net.cpp:137] Memory required for data: 120424800
I0108 11:51:06.735925 36324 layer_factory.hpp:77] Creating layer conv1
I0108 11:51:06.735955 36324 net.cpp:84] Creating Layer conv1
I0108 11:51:06.735966 36324 net.cpp:406] conv1 <- data
I0108 11:51:06.735980 36324 net.cpp:380] conv1 -> conv1
I0108 11:51:06.756875 36324 net.cpp:122] Setting up conv1
I0108 11:51:06.756897 36324 net.cpp:129] Top shape: 200 96 55 55 (58080000)
I0108 11:51:06.756907 36324 net.cpp:137] Memory required for data: 352744800
I0108 11:51:06.756930 36324 layer_factory.hpp:77] Creating layer bn1
I0108 11:51:06.756949 36324 net.cpp:84] Creating Layer bn1
I0108 11:51:06.756959 36324 net.cpp:406] bn1 <- conv1
I0108 11:51:06.756971 36324 net.cpp:367] bn1 -> conv1 (in-place)
I0108 11:51:06.757160 36324 net.cpp:122] Setting up bn1
I0108 11:51:06.757177 36324 net.cpp:129] Top shape: 200 96 55 55 (58080000)
I0108 11:51:06.757187 36324 net.cpp:137] Memory required for data: 585064800
I0108 11:51:06.757205 36324 layer_factory.hpp:77] Creating layer scale1
I0108 11:51:06.757222 36324 net.cpp:84] Creating Layer scale1
I0108 11:51:06.757232 36324 net.cpp:406] scale1 <- conv1
I0108 11:51:06.757243 36324 net.cpp:367] scale1 -> conv1 (in-place)
I0108 11:51:06.757302 36324 layer_factory.hpp:77] Creating layer scale1
I0108 11:51:06.757436 36324 net.cpp:122] Setting up scale1
I0108 11:51:06.757453 36324 net.cpp:129] Top shape: 200 96 55 55 (58080000)
I0108 11:51:06.757463 36324 net.cpp:137] Memory required for data: 817384800
I0108 11:51:06.757475 36324 layer_factory.hpp:77] Creating layer relu1
I0108 11:51:06.757490 36324 net.cpp:84] Creating Layer relu1
I0108 11:51:06.757501 36324 net.cpp:406] relu1 <- conv1
I0108 11:51:06.757513 36324 net.cpp:367] relu1 -> conv1 (in-place)
I0108 11:51:06.757527 36324 net.cpp:122] Setting up relu1
I0108 11:51:06.757539 36324 net.cpp:129] Top shape: 200 96 55 55 (58080000)
I0108 11:51:06.757547 36324 net.cpp:137] Memory required for data: 1049704800
I0108 11:51:06.757556 36324 layer_factory.hpp:77] Creating layer pool1
I0108 11:51:06.757570 36324 net.cpp:84] Creating Layer pool1
I0108 11:51:06.757580 36324 net.cpp:406] pool1 <- conv1
I0108 11:51:06.757625 36324 net.cpp:380] pool1 -> pool1
I0108 11:51:06.757686 36324 net.cpp:122] Setting up pool1
I0108 11:51:06.757704 36324 net.cpp:129] Top shape: 200 96 27 27 (13996800)
I0108 11:51:06.757712 36324 net.cpp:137] Memory required for data: 1105692000
I0108 11:51:06.757721 36324 layer_factory.hpp:77] Creating layer quantized_conv1
I0108 11:51:06.757737 36324 net.cpp:84] Creating Layer quantized_conv1
I0108 11:51:06.757747 36324 net.cpp:406] quantized_conv1 <- pool1
I0108 11:51:06.757758 36324 net.cpp:367] quantized_conv1 -> pool1 (in-place)
I0108 11:51:06.757776 36324 net.cpp:122] Setting up quantized_conv1
I0108 11:51:06.757787 36324 net.cpp:129] Top shape: 200 96 27 27 (13996800)
I0108 11:51:06.757796 36324 net.cpp:137] Memory required for data: 1161679200
I0108 11:51:06.757804 36324 layer_factory.hpp:77] Creating layer conv2
I0108 11:51:06.757820 36324 net.cpp:84] Creating Layer conv2
I0108 11:51:06.757832 36324 net.cpp:406] conv2 <- pool1
I0108 11:51:06.757844 36324 net.cpp:380] conv2 -> conv2
I0108 11:51:06.778712 36324 net.cpp:122] Setting up conv2
I0108 11:51:06.778759 36324 net.cpp:129] Top shape: 200 256 27 27 (37324800)
I0108 11:51:06.778769 36324 net.cpp:137] Memory required for data: 1310978400
I0108 11:51:06.778791 36324 layer_factory.hpp:77] Creating layer bn2
I0108 11:51:06.778811 36324 net.cpp:84] Creating Layer bn2
I0108 11:51:06.778822 36324 net.cpp:406] bn2 <- conv2
I0108 11:51:06.778836 36324 net.cpp:367] bn2 -> conv2 (in-place)
I0108 11:51:06.779021 36324 net.cpp:122] Setting up bn2
I0108 11:51:06.779037 36324 net.cpp:129] Top shape: 200 256 27 27 (37324800)
I0108 11:51:06.779047 36324 net.cpp:137] Memory required for data: 1460277600
I0108 11:51:06.779060 36324 layer_factory.hpp:77] Creating layer scale2
I0108 11:51:06.779075 36324 net.cpp:84] Creating Layer scale2
I0108 11:51:06.779088 36324 net.cpp:406] scale2 <- conv2
I0108 11:51:06.779098 36324 net.cpp:367] scale2 -> conv2 (in-place)
I0108 11:51:06.779155 36324 layer_factory.hpp:77] Creating layer scale2
I0108 11:51:06.779264 36324 net.cpp:122] Setting up scale2
I0108 11:51:06.779280 36324 net.cpp:129] Top shape: 200 256 27 27 (37324800)
I0108 11:51:06.779290 36324 net.cpp:137] Memory required for data: 1609576800
I0108 11:51:06.779301 36324 layer_factory.hpp:77] Creating layer relu2
I0108 11:51:06.779315 36324 net.cpp:84] Creating Layer relu2
I0108 11:51:06.779325 36324 net.cpp:406] relu2 <- conv2
I0108 11:51:06.779335 36324 net.cpp:367] relu2 -> conv2 (in-place)
I0108 11:51:06.779347 36324 net.cpp:122] Setting up relu2
I0108 11:51:06.779358 36324 net.cpp:129] Top shape: 200 256 27 27 (37324800)
I0108 11:51:06.779367 36324 net.cpp:137] Memory required for data: 1758876000
I0108 11:51:06.779376 36324 layer_factory.hpp:77] Creating layer pool2
I0108 11:51:06.779388 36324 net.cpp:84] Creating Layer pool2
I0108 11:51:06.779398 36324 net.cpp:406] pool2 <- conv2
I0108 11:51:06.779410 36324 net.cpp:380] pool2 -> pool2
I0108 11:51:06.779455 36324 net.cpp:122] Setting up pool2
I0108 11:51:06.779471 36324 net.cpp:129] Top shape: 200 256 13 13 (8652800)
I0108 11:51:06.779480 36324 net.cpp:137] Memory required for data: 1793487200
I0108 11:51:06.779489 36324 layer_factory.hpp:77] Creating layer quantized_conv2
I0108 11:51:06.779502 36324 net.cpp:84] Creating Layer quantized_conv2
I0108 11:51:06.779512 36324 net.cpp:406] quantized_conv2 <- pool2
I0108 11:51:06.779523 36324 net.cpp:367] quantized_conv2 -> pool2 (in-place)
I0108 11:51:06.779536 36324 net.cpp:122] Setting up quantized_conv2
I0108 11:51:06.779547 36324 net.cpp:129] Top shape: 200 256 13 13 (8652800)
I0108 11:51:06.779556 36324 net.cpp:137] Memory required for data: 1828098400
I0108 11:51:06.779564 36324 layer_factory.hpp:77] Creating layer conv3
I0108 11:51:06.779582 36324 net.cpp:84] Creating Layer conv3
I0108 11:51:06.779592 36324 net.cpp:406] conv3 <- pool2
I0108 11:51:06.779604 36324 net.cpp:380] conv3 -> conv3
I0108 11:51:06.807484 36324 net.cpp:122] Setting up conv3
I0108 11:51:06.807544 36324 net.cpp:129] Top shape: 200 384 13 13 (12979200)
I0108 11:51:06.807554 36324 net.cpp:137] Memory required for data: 1880015200
I0108 11:51:06.807612 36324 layer_factory.hpp:77] Creating layer bn3
I0108 11:51:06.807633 36324 net.cpp:84] Creating Layer bn3
I0108 11:51:06.807646 36324 net.cpp:406] bn3 <- conv3
I0108 11:51:06.807659 36324 net.cpp:367] bn3 -> conv3 (in-place)
I0108 11:51:06.807833 36324 net.cpp:122] Setting up bn3
I0108 11:51:06.807852 36324 net.cpp:129] Top shape: 200 384 13 13 (12979200)
I0108 11:51:06.807860 36324 net.cpp:137] Memory required for data: 1931932000
I0108 11:51:06.807880 36324 layer_factory.hpp:77] Creating layer scale3
I0108 11:51:06.807898 36324 net.cpp:84] Creating Layer scale3
I0108 11:51:06.807909 36324 net.cpp:406] scale3 <- conv3
I0108 11:51:06.807919 36324 net.cpp:367] scale3 -> conv3 (in-place)
I0108 11:51:06.807971 36324 layer_factory.hpp:77] Creating layer scale3
I0108 11:51:06.808085 36324 net.cpp:122] Setting up scale3
I0108 11:51:06.808102 36324 net.cpp:129] Top shape: 200 384 13 13 (12979200)
I0108 11:51:06.808110 36324 net.cpp:137] Memory required for data: 1983848800
I0108 11:51:06.808122 36324 layer_factory.hpp:77] Creating layer relu3
I0108 11:51:06.808135 36324 net.cpp:84] Creating Layer relu3
I0108 11:51:06.808145 36324 net.cpp:406] relu3 <- conv3
I0108 11:51:06.808156 36324 net.cpp:367] relu3 -> conv3 (in-place)
I0108 11:51:06.808167 36324 net.cpp:122] Setting up relu3
I0108 11:51:06.808178 36324 net.cpp:129] Top shape: 200 384 13 13 (12979200)
I0108 11:51:06.808187 36324 net.cpp:137] Memory required for data: 2035765600
I0108 11:51:06.808195 36324 layer_factory.hpp:77] Creating layer quantized_conv3
I0108 11:51:06.808209 36324 net.cpp:84] Creating Layer quantized_conv3
I0108 11:51:06.808218 36324 net.cpp:406] quantized_conv3 <- conv3
I0108 11:51:06.808229 36324 net.cpp:367] quantized_conv3 -> conv3 (in-place)
I0108 11:51:06.808241 36324 net.cpp:122] Setting up quantized_conv3
I0108 11:51:06.808253 36324 net.cpp:129] Top shape: 200 384 13 13 (12979200)
I0108 11:51:06.808261 36324 net.cpp:137] Memory required for data: 2087682400
I0108 11:51:06.808269 36324 layer_factory.hpp:77] Creating layer conv4
I0108 11:51:06.808287 36324 net.cpp:84] Creating Layer conv4
I0108 11:51:06.808297 36324 net.cpp:406] conv4 <- conv3
I0108 11:51:06.808310 36324 net.cpp:380] conv4 -> conv4
I0108 11:51:06.850078 36324 net.cpp:122] Setting up conv4
I0108 11:51:06.850134 36324 net.cpp:129] Top shape: 200 384 13 13 (12979200)
I0108 11:51:06.850144 36324 net.cpp:137] Memory required for data: 2139599200
I0108 11:51:06.850159 36324 layer_factory.hpp:77] Creating layer bn4
I0108 11:51:06.850181 36324 net.cpp:84] Creating Layer bn4
I0108 11:51:06.850193 36324 net.cpp:406] bn4 <- conv4
I0108 11:51:06.850208 36324 net.cpp:367] bn4 -> conv4 (in-place)
I0108 11:51:06.850389 36324 net.cpp:122] Setting up bn4
I0108 11:51:06.850405 36324 net.cpp:129] Top shape: 200 384 13 13 (12979200)
I0108 11:51:06.850414 36324 net.cpp:137] Memory required for data: 2191516000
I0108 11:51:06.850427 36324 layer_factory.hpp:77] Creating layer scale4
I0108 11:51:06.850445 36324 net.cpp:84] Creating Layer scale4
I0108 11:51:06.850455 36324 net.cpp:406] scale4 <- conv4
I0108 11:51:06.850466 36324 net.cpp:367] scale4 -> conv4 (in-place)
I0108 11:51:06.850517 36324 layer_factory.hpp:77] Creating layer scale4
I0108 11:51:06.850641 36324 net.cpp:122] Setting up scale4
I0108 11:51:06.850657 36324 net.cpp:129] Top shape: 200 384 13 13 (12979200)
I0108 11:51:06.850666 36324 net.cpp:137] Memory required for data: 2243432800
I0108 11:51:06.850678 36324 layer_factory.hpp:77] Creating layer relu4
I0108 11:51:06.850692 36324 net.cpp:84] Creating Layer relu4
I0108 11:51:06.850700 36324 net.cpp:406] relu4 <- conv4
I0108 11:51:06.850710 36324 net.cpp:367] relu4 -> conv4 (in-place)
I0108 11:51:06.850723 36324 net.cpp:122] Setting up relu4
I0108 11:51:06.850734 36324 net.cpp:129] Top shape: 200 384 13 13 (12979200)
I0108 11:51:06.850742 36324 net.cpp:137] Memory required for data: 2295349600
I0108 11:51:06.850751 36324 layer_factory.hpp:77] Creating layer quantized_conv4
I0108 11:51:06.850764 36324 net.cpp:84] Creating Layer quantized_conv4
I0108 11:51:06.850811 36324 net.cpp:406] quantized_conv4 <- conv4
I0108 11:51:06.850826 36324 net.cpp:367] quantized_conv4 -> conv4 (in-place)
I0108 11:51:06.850841 36324 net.cpp:122] Setting up quantized_conv4
I0108 11:51:06.850852 36324 net.cpp:129] Top shape: 200 384 13 13 (12979200)
I0108 11:51:06.850860 36324 net.cpp:137] Memory required for data: 2347266400
I0108 11:51:06.850869 36324 layer_factory.hpp:77] Creating layer conv5
I0108 11:51:06.850888 36324 net.cpp:84] Creating Layer conv5
I0108 11:51:06.850899 36324 net.cpp:406] conv5 <- conv4
I0108 11:51:06.850911 36324 net.cpp:380] conv5 -> conv5
I0108 11:51:06.878971 36324 net.cpp:122] Setting up conv5
I0108 11:51:06.879020 36324 net.cpp:129] Top shape: 200 256 13 13 (8652800)
I0108 11:51:06.879031 36324 net.cpp:137] Memory required for data: 2381877600
I0108 11:51:06.879046 36324 layer_factory.hpp:77] Creating layer bn5
I0108 11:51:06.879068 36324 net.cpp:84] Creating Layer bn5
I0108 11:51:06.879081 36324 net.cpp:406] bn5 <- conv5
I0108 11:51:06.879096 36324 net.cpp:367] bn5 -> conv5 (in-place)
I0108 11:51:06.879285 36324 net.cpp:122] Setting up bn5
I0108 11:51:06.879302 36324 net.cpp:129] Top shape: 200 256 13 13 (8652800)
I0108 11:51:06.879312 36324 net.cpp:137] Memory required for data: 2416488800
I0108 11:51:06.879334 36324 layer_factory.hpp:77] Creating layer scale5
I0108 11:51:06.879350 36324 net.cpp:84] Creating Layer scale5
I0108 11:51:06.879359 36324 net.cpp:406] scale5 <- conv5
I0108 11:51:06.879370 36324 net.cpp:367] scale5 -> conv5 (in-place)
I0108 11:51:06.879431 36324 layer_factory.hpp:77] Creating layer scale5
I0108 11:51:06.879554 36324 net.cpp:122] Setting up scale5
I0108 11:51:06.879572 36324 net.cpp:129] Top shape: 200 256 13 13 (8652800)
I0108 11:51:06.879581 36324 net.cpp:137] Memory required for data: 2451100000
I0108 11:51:06.879593 36324 layer_factory.hpp:77] Creating layer relu5
I0108 11:51:06.879606 36324 net.cpp:84] Creating Layer relu5
I0108 11:51:06.879616 36324 net.cpp:406] relu5 <- conv5
I0108 11:51:06.879631 36324 net.cpp:367] relu5 -> conv5 (in-place)
I0108 11:51:06.879642 36324 net.cpp:122] Setting up relu5
I0108 11:51:06.879654 36324 net.cpp:129] Top shape: 200 256 13 13 (8652800)
I0108 11:51:06.879662 36324 net.cpp:137] Memory required for data: 2485711200
I0108 11:51:06.879672 36324 layer_factory.hpp:77] Creating layer pool5
I0108 11:51:06.879684 36324 net.cpp:84] Creating Layer pool5
I0108 11:51:06.879693 36324 net.cpp:406] pool5 <- conv5
I0108 11:51:06.879711 36324 net.cpp:380] pool5 -> pool5
I0108 11:51:06.879762 36324 net.cpp:122] Setting up pool5
I0108 11:51:06.879778 36324 net.cpp:129] Top shape: 200 256 6 6 (1843200)
I0108 11:51:06.879787 36324 net.cpp:137] Memory required for data: 2493084000
I0108 11:51:06.879796 36324 layer_factory.hpp:77] Creating layer quantized_conv5
I0108 11:51:06.879809 36324 net.cpp:84] Creating Layer quantized_conv5
I0108 11:51:06.879819 36324 net.cpp:406] quantized_conv5 <- pool5
I0108 11:51:06.879829 36324 net.cpp:367] quantized_conv5 -> pool5 (in-place)
I0108 11:51:06.879842 36324 net.cpp:122] Setting up quantized_conv5
I0108 11:51:06.879853 36324 net.cpp:129] Top shape: 200 256 6 6 (1843200)
I0108 11:51:06.879863 36324 net.cpp:137] Memory required for data: 2500456800
I0108 11:51:06.879871 36324 layer_factory.hpp:77] Creating layer fc6
I0108 11:51:06.879889 36324 net.cpp:84] Creating Layer fc6
I0108 11:51:06.879899 36324 net.cpp:406] fc6 <- pool5
I0108 11:51:06.879914 36324 net.cpp:380] fc6 -> fc6
I0108 11:51:08.019042 36324 net.cpp:122] Setting up fc6
I0108 11:51:08.019141 36324 net.cpp:129] Top shape: 200 4096 (819200)
I0108 11:51:08.019152 36324 net.cpp:137] Memory required for data: 2503733600
I0108 11:51:08.019170 36324 layer_factory.hpp:77] Creating layer bn6
I0108 11:51:08.019187 36324 net.cpp:84] Creating Layer bn6
I0108 11:51:08.019198 36324 net.cpp:406] bn6 <- fc6
I0108 11:51:08.019214 36324 net.cpp:367] bn6 -> fc6 (in-place)
I0108 11:51:08.019398 36324 net.cpp:122] Setting up bn6
I0108 11:51:08.019414 36324 net.cpp:129] Top shape: 200 4096 (819200)
I0108 11:51:08.019457 36324 net.cpp:137] Memory required for data: 2507010400
I0108 11:51:08.019471 36324 layer_factory.hpp:77] Creating layer scale6
I0108 11:51:08.019490 36324 net.cpp:84] Creating Layer scale6
I0108 11:51:08.019500 36324 net.cpp:406] scale6 <- fc6
I0108 11:51:08.019513 36324 net.cpp:367] scale6 -> fc6 (in-place)
I0108 11:51:08.019563 36324 layer_factory.hpp:77] Creating layer scale6
I0108 11:51:08.019686 36324 net.cpp:122] Setting up scale6
I0108 11:51:08.019704 36324 net.cpp:129] Top shape: 200 4096 (819200)
I0108 11:51:08.019712 36324 net.cpp:137] Memory required for data: 2510287200
I0108 11:51:08.019724 36324 layer_factory.hpp:77] Creating layer relu6
I0108 11:51:08.019737 36324 net.cpp:84] Creating Layer relu6
I0108 11:51:08.019745 36324 net.cpp:406] relu6 <- fc6
I0108 11:51:08.019755 36324 net.cpp:367] relu6 -> fc6 (in-place)
I0108 11:51:08.019767 36324 net.cpp:122] Setting up relu6
I0108 11:51:08.019776 36324 net.cpp:129] Top shape: 200 4096 (819200)
I0108 11:51:08.019784 36324 net.cpp:137] Memory required for data: 2513564000
I0108 11:51:08.019793 36324 layer_factory.hpp:77] Creating layer drop6
I0108 11:51:08.019811 36324 net.cpp:84] Creating Layer drop6
I0108 11:51:08.019821 36324 net.cpp:406] drop6 <- fc6
I0108 11:51:08.019834 36324 net.cpp:367] drop6 -> fc6 (in-place)
I0108 11:51:08.019873 36324 net.cpp:122] Setting up drop6
I0108 11:51:08.019891 36324 net.cpp:129] Top shape: 200 4096 (819200)
I0108 11:51:08.019899 36324 net.cpp:137] Memory required for data: 2516840800
I0108 11:51:08.019908 36324 layer_factory.hpp:77] Creating layer quantized_fc6
I0108 11:51:08.019922 36324 net.cpp:84] Creating Layer quantized_fc6
I0108 11:51:08.019929 36324 net.cpp:406] quantized_fc6 <- fc6
I0108 11:51:08.019940 36324 net.cpp:367] quantized_fc6 -> fc6 (in-place)
I0108 11:51:08.019953 36324 net.cpp:122] Setting up quantized_fc6
I0108 11:51:08.019963 36324 net.cpp:129] Top shape: 200 4096 (819200)
I0108 11:51:08.019970 36324 net.cpp:137] Memory required for data: 2520117600
I0108 11:51:08.019979 36324 layer_factory.hpp:77] Creating layer fc7
I0108 11:51:08.019995 36324 net.cpp:84] Creating Layer fc7
I0108 11:51:08.020004 36324 net.cpp:406] fc7 <- fc6
I0108 11:51:08.020015 36324 net.cpp:380] fc7 -> fc7
I0108 11:51:08.505950 36324 net.cpp:122] Setting up fc7
I0108 11:51:08.506054 36324 net.cpp:129] Top shape: 200 4096 (819200)
I0108 11:51:08.506068 36324 net.cpp:137] Memory required for data: 2523394400
I0108 11:51:08.506088 36324 layer_factory.hpp:77] Creating layer bn7
I0108 11:51:08.506105 36324 net.cpp:84] Creating Layer bn7
I0108 11:51:08.506116 36324 net.cpp:406] bn7 <- fc7
I0108 11:51:08.506130 36324 net.cpp:367] bn7 -> fc7 (in-place)
I0108 11:51:08.506321 36324 net.cpp:122] Setting up bn7
I0108 11:51:08.506337 36324 net.cpp:129] Top shape: 200 4096 (819200)
I0108 11:51:08.506345 36324 net.cpp:137] Memory required for data: 2526671200
I0108 11:51:08.506358 36324 layer_factory.hpp:77] Creating layer scale7
I0108 11:51:08.506372 36324 net.cpp:84] Creating Layer scale7
I0108 11:51:08.506381 36324 net.cpp:406] scale7 <- fc7
I0108 11:51:08.506392 36324 net.cpp:367] scale7 -> fc7 (in-place)
I0108 11:51:08.506444 36324 layer_factory.hpp:77] Creating layer scale7
I0108 11:51:08.506575 36324 net.cpp:122] Setting up scale7
I0108 11:51:08.506592 36324 net.cpp:129] Top shape: 200 4096 (819200)
I0108 11:51:08.506600 36324 net.cpp:137] Memory required for data: 2529948000
I0108 11:51:08.506611 36324 layer_factory.hpp:77] Creating layer relu7
I0108 11:51:08.506626 36324 net.cpp:84] Creating Layer relu7
I0108 11:51:08.506635 36324 net.cpp:406] relu7 <- fc7
I0108 11:51:08.506645 36324 net.cpp:367] relu7 -> fc7 (in-place)
I0108 11:51:08.506659 36324 net.cpp:122] Setting up relu7
I0108 11:51:08.506669 36324 net.cpp:129] Top shape: 200 4096 (819200)
I0108 11:51:08.506677 36324 net.cpp:137] Memory required for data: 2533224800
I0108 11:51:08.506685 36324 layer_factory.hpp:77] Creating layer drop7
I0108 11:51:08.506697 36324 net.cpp:84] Creating Layer drop7
I0108 11:51:08.506706 36324 net.cpp:406] drop7 <- fc7
I0108 11:51:08.506716 36324 net.cpp:367] drop7 -> fc7 (in-place)
I0108 11:51:08.506785 36324 net.cpp:122] Setting up drop7
I0108 11:51:08.506803 36324 net.cpp:129] Top shape: 200 4096 (819200)
I0108 11:51:08.506811 36324 net.cpp:137] Memory required for data: 2536501600
I0108 11:51:08.506819 36324 layer_factory.hpp:77] Creating layer quantized_fc7
I0108 11:51:08.506832 36324 net.cpp:84] Creating Layer quantized_fc7
I0108 11:51:08.506841 36324 net.cpp:406] quantized_fc7 <- fc7
I0108 11:51:08.506855 36324 net.cpp:367] quantized_fc7 -> fc7 (in-place)
I0108 11:51:08.506866 36324 net.cpp:122] Setting up quantized_fc7
I0108 11:51:08.506876 36324 net.cpp:129] Top shape: 200 4096 (819200)
I0108 11:51:08.506884 36324 net.cpp:137] Memory required for data: 2539778400
I0108 11:51:08.506892 36324 layer_factory.hpp:77] Creating layer fc8
I0108 11:51:08.506906 36324 net.cpp:84] Creating Layer fc8
I0108 11:51:08.506914 36324 net.cpp:406] fc8 <- fc7
I0108 11:51:08.506927 36324 net.cpp:380] fc8 -> fc8
I0108 11:51:08.626116 36324 net.cpp:122] Setting up fc8
I0108 11:51:08.626220 36324 net.cpp:129] Top shape: 200 1000 (200000)
I0108 11:51:08.626235 36324 net.cpp:137] Memory required for data: 2540578400
I0108 11:51:08.626255 36324 layer_factory.hpp:77] Creating layer fc8_fc8_0_split
I0108 11:51:08.626273 36324 net.cpp:84] Creating Layer fc8_fc8_0_split
I0108 11:51:08.626284 36324 net.cpp:406] fc8_fc8_0_split <- fc8
I0108 11:51:08.626302 36324 net.cpp:380] fc8_fc8_0_split -> fc8_fc8_0_split_0
I0108 11:51:08.626319 36324 net.cpp:380] fc8_fc8_0_split -> fc8_fc8_0_split_1
I0108 11:51:08.626382 36324 net.cpp:122] Setting up fc8_fc8_0_split
I0108 11:51:08.626399 36324 net.cpp:129] Top shape: 200 1000 (200000)
I0108 11:51:08.626410 36324 net.cpp:129] Top shape: 200 1000 (200000)
I0108 11:51:08.626418 36324 net.cpp:137] Memory required for data: 2542178400
I0108 11:51:08.626427 36324 layer_factory.hpp:77] Creating layer accuracy_5_TRAIN
I0108 11:51:08.626449 36324 net.cpp:84] Creating Layer accuracy_5_TRAIN
I0108 11:51:08.626458 36324 net.cpp:406] accuracy_5_TRAIN <- fc8_fc8_0_split_0
I0108 11:51:08.626468 36324 net.cpp:406] accuracy_5_TRAIN <- label_data_1_split_0
…
I0108 11:51:08.629529 36324 net.cpp:294] The NetState phase (1) differed from the phase (0) specified by a rule in layer accuracy_5_TRAIN
I0108 11:51:08.629765 36324 net.cpp:51] Initializing net from parameters: 
name: "AlexNet-BN"
state {
  phase: TEST
}
layer {
  name: "data"
  type: "Data"
  top: "data"
  top: "label"
  include {
    phase: TEST
  }
  transform_param {
    mirror: false
    crop_size: 224
    mean_value: 103.939
    mean_value: 116.779
    mean_value: 123.68
  }
  data_param {
    source: "/home/ydwu/database/imagenet/ilsvrc12/lmdb_resize/ilsvrc12_val_lmdb"
    batch_size: 200
    backend: LMDB
  }
}
layer {
  name: "conv1"
  type: "Convolution"
  bottom: "data"
  top: "conv1"
  param {
    lr_mult: 1
    decay_mult: 1
  }
  param {
    lr_mult: 2
    decay_mult: 0
  }
  convolution_param {
    num_output: 96
    pad: 2
    kernel_size: 11
    stride: 4
    weight_filler {
      type: "gaussian"
      std: 0.01
    }
    bias_filler {
      type: "constant"
      value: 0
    }
  }
}
layer {
  name: "bn1"
  type: "BatchNorm"
  bottom: "conv1"
  top: "conv1"
}
layer {
  name: "scale1"
  type: "Scale"
  bottom: "conv1"
  top: "conv1"
  scale_param {
    bias_term: true
  }
}
layer {
  name: "relu1"
  type: "ReLU"
  bottom: "conv1"
  top: "conv1"
}
layer {
  name: "pool1"
  type: "Pooling"
  bottom: "conv1"
  top: "pool1"
  pooling_param {
    pool: MAX
    kernel_size: 3
    stride: 2
  }
}
layer {
  name: "quantized_conv1"
  type: "Quantization"
  bottom: "pool1"
  top: "pool1"
  quantization_param {
    round_method: FLOOR
    round_strategy: AGGRESSIVE
    bit_width: 4
    range: 0
    range: 9.3102551
  }
}
layer {
  name: "conv2"
  type: "Convolution"
  bottom: "pool1"
  top: "conv2"
  param {
    lr_mult: 1
    decay_mult: 1
  }
  param {
    lr_mult: 2
    decay_mult: 0
  }
  convolution_param {
    num_output: 256
    pad: 2
    kernel_size: 5
    weight_filler {
      type: "gaussian"
      std: 0.01
    }
    bias_filler {
      type: "constant"
      value: 0.1
    }
  }
}
layer {
  name: "bn2"
  type: "BatchNorm"
  bottom: "conv2"
  top: "conv2"
}
layer {
  name: "scale2"
  type: "Scale"
  bottom: "conv2"
  top: "conv2"
  scale_param {
    bias_term: true
  }
}
layer {
  name: "relu2"
  type: "ReLU"
  bottom: "conv2"
  top: "conv2"
}
layer {
  name: "pool2"
  type: "Pooling"
  bottom: "conv2"
  top: "pool2"
  pooling_param {
    pool: MAX
    kernel_size: 3
    stride: 2
  }
}
layer {
  name: "quantized_conv2"
  type: "Quantization"
  bottom: "pool2"
  top: "pool2"
  quantization_param {
    round_method: FLOOR
    round_strategy: AGGRESSIVE
    bit_width: 4
    range: 0
    range: 4.4997
  }
}
layer {
  name: "conv3"
  type: "Convolution"
  bottom: "pool2"
  top: "conv3"
  param {
    lr_mult: 1
    decay_mult: 1
  }
  param {
    lr_mult: 2
    decay_mult: 0
  }
  convolution_param {
    num_output: 384
    pad: 1
    kernel_size: 3
    weight_filler {
      type: "gaussian"
      std: 0.01
    }
    bias_filler {
      type: "constant"
      value: 0
    }
  }
}
layer {
  name: "bn3"
  type: "BatchNorm"
  bottom: "conv3"
  top: "conv3"
}
layer {
  name: "scale3"
  type: "Scale"
  bottom: "conv3"
  top: "conv3"
  scale_param {
    bias_term: true
  }
}
layer {
  name: "relu3"
  type: "ReLU"
  bottom: "conv3"
  top: "conv3"
}
layer {
  name: "quantized_conv3"
  type: "Quantization"
  bottom: "conv3"
  top: "conv3"
  quantization_param {
    round_method: FLOOR
    round_strategy: AGGRESSIVE
    bit_width: 4
    range: 0
    range: 5.65636
  }
}
layer {
  name: "conv4"
  type: "Convolution"
  bottom: "conv3"
  top: "conv4"
  param {
    lr_mult: 1
    decay_mult: 1
  }
  param {
    lr_mult: 2
    decay_mult: 0
  }
  convolution_param {
    num_output: 384
    pad: 1
    kernel_size: 3
    weight_filler {
      type: "gaussian"
      std: 0.01
    }
    bias_filler {
      type: "constant"
      value: 0.1
    }
  }
}
layer {
  name: "bn4"
  type: "BatchNorm"
  bottom: "conv4"
  top: "conv4"
}
layer {
  name: "scale4"
  type: "Scale"
  bottom: "conv4"
  top: "conv4"
  scale_param {
    bias_term: true
  }
}
layer {
  name: "relu4"
  type: "ReLU"
  bottom: "conv4"
  top: "conv4"
}
layer {
  name: "quantized_conv4"
  type: "Quantization"
  bottom: "conv4"
  top: "conv4"
  quantization_param {
    round_method: FLOOR
    round_strategy: AGGRESSIVE
    bit_width: 4
    range: 0
    range: 4.891314
  }
}
layer {
  name: "conv5"
  type: "Convolution"
  bottom: "conv4"
  top: "conv5"
  param {
    lr_mult: 1
    decay_mult: 1
  }
  param {
    lr_mult: 2
    decay_mult: 0
  }
  convolution_param {
    num_output: 256
    pad: 1
    kernel_size: 3
    weight_filler {
      type: "gaussian"
      std: 0.01
    }
    bias_filler {
      type: "constant"
      value: 0.1
    }
  }
}
layer {
  name: "bn5"
  type: "BatchNorm"
  bottom: "conv5"
  top: "conv5"
}
layer {
  name: "scale5"
  type: "Scale"
  bottom: "conv5"
  top: "conv5"
  scale_param {
    bias_term: true
  }
}
layer {
  name: "relu5"
  type: "ReLU"
  bottom: "conv5"
  top: "conv5"
}
layer {
  name: "pool5"
  type: "Pooling"
  bottom: "conv5"
  top: "pool5"
  pooling_param {
    pool: MAX
    kernel_size: 3
    stride: 2
  }
}
layer {
  name: "quantized_conv5"
  type: "Quantization"
  bottom: "pool5"
  top: "pool5"
  quantization_param {
    round_method: FLOOR
    round_strategy: AGGRESSIVE
    bit_width: 4
    range: 0
    range: 5.8384752
  }
}
layer {
  name: "fc6"
  type: "InnerProduct"
  bottom: "pool5"
  top: "fc6"
  param {
    lr_mult: 1
    decay_mult: 1
  }
  param {
    lr_mult: 2
    decay_mult: 0
  }
  inner_product_param {
    num_output: 4096
    weight_filler {
      type: "gaussian"
      std: 0.005
    }
    bias_filler {
      type: "constant"
      value: 0.1
    }
  }
}
layer {
  name: "bn6"
  type: "BatchNorm"
  bottom: "fc6"
  top: "fc6"
}
layer {
  name: "scale6"
  type: "Scale"
  bottom: "fc6"
  top: "fc6"
  scale_param {
    bias_term: true
  }
}
layer {
  name: "relu6"
  type: "ReLU"
  bottom: "fc6"
  top: "fc6"
}
layer {
  name: "drop6"
  type: "Dropout"
  bottom: "fc6"
  top: "fc6"
  dropout_param {
    dropout_ratio: 0.5
  }
}
layer {
  name: "quantized_fc6"
  type: "Quantization"
  bottom: "fc6"
  top: "fc6"
  quantization_param {
    round_method: FLOOR
    round_strategy: AGGRESSIVE
    bit_width: 4
    range: 0
    range: 1.106238
  }
}
layer {
  name: "fc7"
  type: "InnerProduct"
  bottom: "fc6"
  top: "fc7"
  param {
    lr_mult: 1
    decay_mult: 1
  }
  param {
    lr_mult: 2
    decay_mult: 0
  }
  inner_product_param {
    num_output: 4096
    weight_filler {
      type: "gaussian"
      std: 0.005
    }
    bias_filler {
      type: "constant"
      value: 0.1
    }
  }
}
layer {
  name: "bn7"
  type: "BatchNorm"
  bottom: "fc7"
  top: "fc7"
}
layer {
  name: "scale7"
  type: "Scale"
  bottom: "fc7"
  top: "fc7"
  scale_param {
    bias_term: true
  }
}
layer {
  name: "relu7"
  type: "ReLU"
  bottom: "fc7"
  top: "fc7"
}
layer {
  name: "drop7"
  type: "Dropout"
  bottom: "fc7"
  top: "fc7"
  dropout_param {
    dropout_ratio: 0.5
  }
}
layer {
  name: "quantized_fc7"
  type: "Quantization"
  bottom: "fc7"
  top: "fc7"
  quantization_param {
    round_method: FLOOR
    round_strategy: AGGRESSIVE
    bit_width: 4
    range: 0
    range: 5.0399008
  }
}
layer {
  name: "fc8"
  type: "InnerProduct"
  bottom: "fc7"
  top: "fc8"
  param {
    lr_mult: 1
    decay_mult: 1
  }
  param {
    lr_mult: 2
    decay_mult: 0
  }
  inner_product_param {
    num_output: 1000
    weight_filler {
      type: "gaussian"
      std: 0.01
    }
    bias_filler {
      type: "constant"
      value: 0
    }
  }
}
layer {
  name: "accuracy"
  type: "Accuracy"
  bottom: "fc8"
  bottom: "label"
  top: "accuracy"
  include {
    phase: TEST
  }
}
layer {
  name: "accuracy_5"
  type: "Accuracy"
  bottom: "fc8"
  bottom: "label"
  top: "accuracy_5"
  include {
    phase: TEST
  }
  accuracy_param {
    top_k: 5
  }
}
layer {
  name: "loss"
  type: "SoftmaxWithLoss"
  bottom: "fc8"
  bottom: "label"
  top: "loss"
}
I0108 11:51:08.629952 36324 layer_factory.hpp:77] Creating layer data
I0108 11:51:08.676651 36324 db_lmdb.cpp:35] Opened lmdb /home/ydwu/database/imagenet/ilsvrc12/lmdb_resize/ilsvrc12_val_lmdb
I0108 11:51:08.676709 36324 net.cpp:84] Creating Layer data
I0108 11:51:08.676738 36324 net.cpp:380] data -> data
I0108 11:51:08.676754 36324 net.cpp:380] data -> label
I0108 11:51:08.677124 36324 data_layer.cpp:45] output data size: 200,3,224,224
I0108 11:51:09.022419 36324 net.cpp:122] Setting up data
I0108 11:51:09.022516 36324 net.cpp:129] Top shape: 200 3 224 224 (30105600)
I0108 11:51:09.022531 36324 net.cpp:129] Top shape: 200 (200)
I0108 11:51:09.022541 36324 net.cpp:137] Memory required for data: 120423200
I0108 11:51:09.022553 36324 layer_factory.hpp:77] Creating layer label_data_1_split
I0108 11:51:09.022577 36324 net.cpp:84] Creating Layer label_data_1_split
I0108 11:51:09.022588 36324 net.cpp:406] label_data_1_split <- label
I0108 11:51:09.022601 36324 net.cpp:380] label_data_1_split -> label_data_1_split_0
I0108 11:51:09.022621 36324 net.cpp:380] label_data_1_split -> label_data_1_split_1
I0108 11:51:09.022634 36324 net.cpp:380] label_data_1_split -> label_data_1_split_2
I0108 11:51:09.022763 36324 net.cpp:122] Setting up label_data_1_split
I0108 11:51:09.022780 36324 net.cpp:129] Top shape: 200 (200)
I0108 11:51:09.022790 36324 net.cpp:129] Top shape: 200 (200)
I0108 11:51:09.022800 36324 net.cpp:129] Top shape: 200 (200)
I0108 11:51:09.022809 36324 net.cpp:137] Memory required for data: 120425600
I0108 11:51:09.022817 36324 layer_factory.hpp:77] Creating layer conv1
I0108 11:51:09.022840 36324 net.cpp:84] Creating Layer conv1
I0108 11:51:09.022850 36324 net.cpp:406] conv1 <- data
I0108 11:51:09.022863 36324 net.cpp:380] conv1 -> conv1
I0108 11:51:09.041826 36324 net.cpp:122] Setting up conv1
I0108 11:51:09.041848 36324 net.cpp:129] Top shape: 200 96 55 55 (58080000)
I0108 11:51:09.041857 36324 net.cpp:137] Memory required for data: 352745600
I0108 11:51:09.041874 36324 layer_factory.hpp:77] Creating layer bn1
I0108 11:51:09.041889 36324 net.cpp:84] Creating Layer bn1
I0108 11:51:09.041898 36324 net.cpp:406] bn1 <- conv1
I0108 11:51:09.041909 36324 net.cpp:367] bn1 -> conv1 (in-place)
I0108 11:51:09.042134 36324 net.cpp:122] Setting up bn1
I0108 11:51:09.042150 36324 net.cpp:129] Top shape: 200 96 55 55 (58080000)
I0108 11:51:09.042160 36324 net.cpp:137] Memory required for data: 585065600
I0108 11:51:09.042178 36324 layer_factory.hpp:77] Creating layer scale1
I0108 11:51:09.042194 36324 net.cpp:84] Creating Layer scale1
I0108 11:51:09.042204 36324 net.cpp:406] scale1 <- conv1
I0108 11:51:09.042215 36324 net.cpp:367] scale1 -> conv1 (in-place)
I0108 11:51:09.042268 36324 layer_factory.hpp:77] Creating layer scale1
I0108 11:51:09.042402 36324 net.cpp:122] Setting up scale1
I0108 11:51:09.042419 36324 net.cpp:129] Top shape: 200 96 55 55 (58080000)
I0108 11:51:09.042428 36324 net.cpp:137] Memory required for data: 817385600
I0108 11:51:09.042440 36324 layer_factory.hpp:77] Creating layer relu1
I0108 11:51:09.042454 36324 net.cpp:84] Creating Layer relu1
I0108 11:51:09.042464 36324 net.cpp:406] relu1 <- conv1
I0108 11:51:09.042474 36324 net.cpp:367] relu1 -> conv1 (in-place)
I0108 11:51:09.042486 36324 net.cpp:122] Setting up relu1
I0108 11:51:09.042497 36324 net.cpp:129] Top shape: 200 96 55 55 (58080000)
I0108 11:51:09.042506 36324 net.cpp:137] Memory required for data: 1049705600
I0108 11:51:09.042515 36324 layer_factory.hpp:77] Creating layer pool1
I0108 11:51:09.042528 36324 net.cpp:84] Creating Layer pool1
I0108 11:51:09.042537 36324 net.cpp:406] pool1 <- conv1
I0108 11:51:09.042548 36324 net.cpp:380] pool1 -> pool1
I0108 11:51:09.042596 36324 net.cpp:122] Setting up pool1
I0108 11:51:09.042611 36324 net.cpp:129] Top shape: 200 96 27 27 (13996800)
I0108 11:51:09.042620 36324 net.cpp:137] Memory required for data: 1105692800
I0108 11:51:09.042629 36324 layer_factory.hpp:77] Creating layer quantized_conv1
I0108 11:51:09.042644 36324 net.cpp:84] Creating Layer quantized_conv1
I0108 11:51:09.042652 36324 net.cpp:406] quantized_conv1 <- pool1
I0108 11:51:09.042663 36324 net.cpp:367] quantized_conv1 -> pool1 (in-place)
I0108 11:51:09.042676 36324 net.cpp:122] Setting up quantized_conv1
I0108 11:51:09.042687 36324 net.cpp:129] Top shape: 200 96 27 27 (13996800)
I0108 11:51:09.042696 36324 net.cpp:137] Memory required for data: 1161680000
I0108 11:51:09.042704 36324 layer_factory.hpp:77] Creating layer conv2
I0108 11:51:09.042721 36324 net.cpp:84] Creating Layer conv2
I0108 11:51:09.042732 36324 net.cpp:406] conv2 <- pool1
I0108 11:51:09.042744 36324 net.cpp:380] conv2 -> conv2
I0108 11:51:09.062332 36324 net.cpp:122] Setting up conv2
I0108 11:51:09.062388 36324 net.cpp:129] Top shape: 200 256 27 27 (37324800)
I0108 11:51:09.062399 36324 net.cpp:137] Memory required for data: 1310979200
I0108 11:51:09.062420 36324 layer_factory.hpp:77] Creating layer bn2
I0108 11:51:09.062440 36324 net.cpp:84] Creating Layer bn2
I0108 11:51:09.062453 36324 net.cpp:406] bn2 <- conv2
I0108 11:51:09.062466 36324 net.cpp:367] bn2 -> conv2 (in-place)
I0108 11:51:09.062659 36324 net.cpp:122] Setting up bn2
I0108 11:51:09.062676 36324 net.cpp:129] Top shape: 200 256 27 27 (37324800)
I0108 11:51:09.062685 36324 net.cpp:137] Memory required for data: 1460278400
I0108 11:51:09.062741 36324 layer_factory.hpp:77] Creating layer scale2
I0108 11:51:09.062757 36324 net.cpp:84] Creating Layer scale2
I0108 11:51:09.062767 36324 net.cpp:406] scale2 <- conv2
I0108 11:51:09.062778 36324 net.cpp:367] scale2 -> conv2 (in-place)
I0108 11:51:09.062839 36324 layer_factory.hpp:77] Creating layer scale2
I0108 11:51:09.062966 36324 net.cpp:122] Setting up scale2
I0108 11:51:09.062984 36324 net.cpp:129] Top shape: 200 256 27 27 (37324800)
I0108 11:51:09.062994 36324 net.cpp:137] Memory required for data: 1609577600
I0108 11:51:09.063005 36324 layer_factory.hpp:77] Creating layer relu2
I0108 11:51:09.063019 36324 net.cpp:84] Creating Layer relu2
I0108 11:51:09.063028 36324 net.cpp:406] relu2 <- conv2
I0108 11:51:09.063040 36324 net.cpp:367] relu2 -> conv2 (in-place)
I0108 11:51:09.063051 36324 net.cpp:122] Setting up relu2
I0108 11:51:09.063062 36324 net.cpp:129] Top shape: 200 256 27 27 (37324800)
I0108 11:51:09.063071 36324 net.cpp:137] Memory required for data: 1758876800
I0108 11:51:09.063081 36324 layer_factory.hpp:77] Creating layer pool2
I0108 11:51:09.063094 36324 net.cpp:84] Creating Layer pool2
I0108 11:51:09.063104 36324 net.cpp:406] pool2 <- conv2
I0108 11:51:09.063115 36324 net.cpp:380] pool2 -> pool2
I0108 11:51:09.063166 36324 net.cpp:122] Setting up pool2
I0108 11:51:09.063184 36324 net.cpp:129] Top shape: 200 256 13 13 (8652800)
I0108 11:51:09.063192 36324 net.cpp:137] Memory required for data: 1793488000
I0108 11:51:09.063201 36324 layer_factory.hpp:77] Creating layer quantized_conv2
I0108 11:51:09.063215 36324 net.cpp:84] Creating Layer quantized_conv2
I0108 11:51:09.063225 36324 net.cpp:406] quantized_conv2 <- pool2
I0108 11:51:09.063236 36324 net.cpp:367] quantized_conv2 -> pool2 (in-place)
I0108 11:51:09.063249 36324 net.cpp:122] Setting up quantized_conv2
I0108 11:51:09.063261 36324 net.cpp:129] Top shape: 200 256 13 13 (8652800)
I0108 11:51:09.063268 36324 net.cpp:137] Memory required for data: 1828099200
I0108 11:51:09.063277 36324 layer_factory.hpp:77] Creating layer conv3
I0108 11:51:09.063295 36324 net.cpp:84] Creating Layer conv3
I0108 11:51:09.063305 36324 net.cpp:406] conv3 <- pool2
I0108 11:51:09.063318 36324 net.cpp:380] conv3 -> conv3
I0108 11:51:09.091717 36324 net.cpp:122] Setting up conv3
I0108 11:51:09.091768 36324 net.cpp:129] Top shape: 200 384 13 13 (12979200)
I0108 11:51:09.091779 36324 net.cpp:137] Memory required for data: 1880016000
I0108 11:51:09.091797 36324 layer_factory.hpp:77] Creating layer bn3
I0108 11:51:09.091817 36324 net.cpp:84] Creating Layer bn3
I0108 11:51:09.091828 36324 net.cpp:406] bn3 <- conv3
I0108 11:51:09.091845 36324 net.cpp:367] bn3 -> conv3 (in-place)
I0108 11:51:09.092037 36324 net.cpp:122] Setting up bn3
I0108 11:51:09.092056 36324 net.cpp:129] Top shape: 200 384 13 13 (12979200)
I0108 11:51:09.092064 36324 net.cpp:137] Memory required for data: 1931932800
I0108 11:51:09.092085 36324 layer_factory.hpp:77] Creating layer scale3
I0108 11:51:09.092103 36324 net.cpp:84] Creating Layer scale3
I0108 11:51:09.092113 36324 net.cpp:406] scale3 <- conv3
I0108 11:51:09.092124 36324 net.cpp:367] scale3 -> conv3 (in-place)
I0108 11:51:09.092180 36324 layer_factory.hpp:77] Creating layer scale3
I0108 11:51:09.092303 36324 net.cpp:122] Setting up scale3
I0108 11:51:09.092319 36324 net.cpp:129] Top shape: 200 384 13 13 (12979200)
I0108 11:51:09.092329 36324 net.cpp:137] Memory required for data: 1983849600
I0108 11:51:09.092341 36324 layer_factory.hpp:77] Creating layer relu3
I0108 11:51:09.092355 36324 net.cpp:84] Creating Layer relu3
I0108 11:51:09.092365 36324 net.cpp:406] relu3 <- conv3
I0108 11:51:09.092375 36324 net.cpp:367] relu3 -> conv3 (in-place)
I0108 11:51:09.092387 36324 net.cpp:122] Setting up relu3
I0108 11:51:09.092398 36324 net.cpp:129] Top shape: 200 384 13 13 (12979200)
I0108 11:51:09.092406 36324 net.cpp:137] Memory required for data: 2035766400
I0108 11:51:09.092416 36324 layer_factory.hpp:77] Creating layer quantized_conv3
I0108 11:51:09.092428 36324 net.cpp:84] Creating Layer quantized_conv3
I0108 11:51:09.092478 36324 net.cpp:406] quantized_conv3 <- conv3
I0108 11:51:09.092491 36324 net.cpp:367] quantized_conv3 -> conv3 (in-place)
I0108 11:51:09.092504 36324 net.cpp:122] Setting up quantized_conv3
I0108 11:51:09.092515 36324 net.cpp:129] Top shape: 200 384 13 13 (12979200)
I0108 11:51:09.092525 36324 net.cpp:137] Memory required for data: 2087683200
I0108 11:51:09.092533 36324 layer_factory.hpp:77] Creating layer conv4
I0108 11:51:09.092551 36324 net.cpp:84] Creating Layer conv4
I0108 11:51:09.092561 36324 net.cpp:406] conv4 <- conv3
I0108 11:51:09.092573 36324 net.cpp:380] conv4 -> conv4
I0108 11:51:09.134429 36324 net.cpp:122] Setting up conv4
I0108 11:51:09.134481 36324 net.cpp:129] Top shape: 200 384 13 13 (12979200)
I0108 11:51:09.134492 36324 net.cpp:137] Memory required for data: 2139600000
I0108 11:51:09.134508 36324 layer_factory.hpp:77] Creating layer bn4
I0108 11:51:09.134527 36324 net.cpp:84] Creating Layer bn4
I0108 11:51:09.134538 36324 net.cpp:406] bn4 <- conv4
I0108 11:51:09.134553 36324 net.cpp:367] bn4 -> conv4 (in-place)
I0108 11:51:09.134752 36324 net.cpp:122] Setting up bn4
I0108 11:51:09.134768 36324 net.cpp:129] Top shape: 200 384 13 13 (12979200)
I0108 11:51:09.134778 36324 net.cpp:137] Memory required for data: 2191516800
I0108 11:51:09.134791 36324 layer_factory.hpp:77] Creating layer scale4
I0108 11:51:09.134809 36324 net.cpp:84] Creating Layer scale4
I0108 11:51:09.134819 36324 net.cpp:406] scale4 <- conv4
I0108 11:51:09.134830 36324 net.cpp:367] scale4 -> conv4 (in-place)
I0108 11:51:09.134894 36324 layer_factory.hpp:77] Creating layer scale4
I0108 11:51:09.135036 36324 net.cpp:122] Setting up scale4
I0108 11:51:09.135054 36324 net.cpp:129] Top shape: 200 384 13 13 (12979200)
I0108 11:51:09.135063 36324 net.cpp:137] Memory required for data: 2243433600
I0108 11:51:09.135076 36324 layer_factory.hpp:77] Creating layer relu4
I0108 11:51:09.135088 36324 net.cpp:84] Creating Layer relu4
I0108 11:51:09.135098 36324 net.cpp:406] relu4 <- conv4
I0108 11:51:09.135112 36324 net.cpp:367] relu4 -> conv4 (in-place)
I0108 11:51:09.135124 36324 net.cpp:122] Setting up relu4
I0108 11:51:09.135135 36324 net.cpp:129] Top shape: 200 384 13 13 (12979200)
I0108 11:51:09.135145 36324 net.cpp:137] Memory required for data: 2295350400
I0108 11:51:09.135154 36324 layer_factory.hpp:77] Creating layer quantized_conv4
I0108 11:51:09.135169 36324 net.cpp:84] Creating Layer quantized_conv4
I0108 11:51:09.135179 36324 net.cpp:406] quantized_conv4 <- conv4
I0108 11:51:09.135191 36324 net.cpp:367] quantized_conv4 -> conv4 (in-place)
I0108 11:51:09.135205 36324 net.cpp:122] Setting up quantized_conv4
I0108 11:51:09.135216 36324 net.cpp:129] Top shape: 200 384 13 13 (12979200)
I0108 11:51:09.135224 36324 net.cpp:137] Memory required for data: 2347267200
I0108 11:51:09.135233 36324 layer_factory.hpp:77] Creating layer conv5
I0108 11:51:09.135251 36324 net.cpp:84] Creating Layer conv5
I0108 11:51:09.135259 36324 net.cpp:406] conv5 <- conv4
I0108 11:51:09.135274 36324 net.cpp:380] conv5 -> conv5
I0108 11:51:09.163372 36324 net.cpp:122] Setting up conv5
I0108 11:51:09.163429 36324 net.cpp:129] Top shape: 200 256 13 13 (8652800)
I0108 11:51:09.163439 36324 net.cpp:137] Memory required for data: 2381878400
I0108 11:51:09.163455 36324 layer_factory.hpp:77] Creating layer bn5
I0108 11:51:09.163473 36324 net.cpp:84] Creating Layer bn5
I0108 11:51:09.163486 36324 net.cpp:406] bn5 <- conv5
I0108 11:51:09.163502 36324 net.cpp:367] bn5 -> conv5 (in-place)
I0108 11:51:09.163713 36324 net.cpp:122] Setting up bn5
I0108 11:51:09.163730 36324 net.cpp:129] Top shape: 200 256 13 13 (8652800)
I0108 11:51:09.163739 36324 net.cpp:137] Memory required for data: 2416489600
I0108 11:51:09.163763 36324 layer_factory.hpp:77] Creating layer scale5
I0108 11:51:09.163779 36324 net.cpp:84] Creating Layer scale5
I0108 11:51:09.163789 36324 net.cpp:406] scale5 <- conv5
I0108 11:51:09.163800 36324 net.cpp:367] scale5 -> conv5 (in-place)
I0108 11:51:09.163864 36324 layer_factory.hpp:77] Creating layer scale5
I0108 11:51:09.163996 36324 net.cpp:122] Setting up scale5
I0108 11:51:09.164049 36324 net.cpp:129] Top shape: 200 256 13 13 (8652800)
I0108 11:51:09.164059 36324 net.cpp:137] Memory required for data: 2451100800
I0108 11:51:09.164072 36324 layer_factory.hpp:77] Creating layer relu5
I0108 11:51:09.164088 36324 net.cpp:84] Creating Layer relu5
I0108 11:51:09.164098 36324 net.cpp:406] relu5 <- conv5
I0108 11:51:09.164111 36324 net.cpp:367] relu5 -> conv5 (in-place)
I0108 11:51:09.164124 36324 net.cpp:122] Setting up relu5
I0108 11:51:09.164135 36324 net.cpp:129] Top shape: 200 256 13 13 (8652800)
I0108 11:51:09.164144 36324 net.cpp:137] Memory required for data: 2485712000
I0108 11:51:09.164153 36324 layer_factory.hpp:77] Creating layer pool5
I0108 11:51:09.164165 36324 net.cpp:84] Creating Layer pool5
I0108 11:51:09.164175 36324 net.cpp:406] pool5 <- conv5
I0108 11:51:09.164186 36324 net.cpp:380] pool5 -> pool5
I0108 11:51:09.164238 36324 net.cpp:122] Setting up pool5
I0108 11:51:09.164254 36324 net.cpp:129] Top shape: 200 256 6 6 (1843200)
I0108 11:51:09.164263 36324 net.cpp:137] Memory required for data: 2493084800
I0108 11:51:09.164271 36324 layer_factory.hpp:77] Creating layer quantized_conv5
I0108 11:51:09.164285 36324 net.cpp:84] Creating Layer quantized_conv5
I0108 11:51:09.164295 36324 net.cpp:406] quantized_conv5 <- pool5
I0108 11:51:09.164309 36324 net.cpp:367] quantized_conv5 -> pool5 (in-place)
I0108 11:51:09.164322 36324 net.cpp:122] Setting up quantized_conv5
I0108 11:51:09.164333 36324 net.cpp:129] Top shape: 200 256 6 6 (1843200)
I0108 11:51:09.164341 36324 net.cpp:137] Memory required for data: 2500457600
I0108 11:51:09.164350 36324 layer_factory.hpp:77] Creating layer fc6
I0108 11:51:09.164364 36324 net.cpp:84] Creating Layer fc6
I0108 11:51:09.164374 36324 net.cpp:406] fc6 <- pool5
I0108 11:51:09.164386 36324 net.cpp:380] fc6 -> fc6
I0108 11:51:10.337236 36324 net.cpp:122] Setting up fc6
I0108 11:51:10.337329 36324 net.cpp:129] Top shape: 200 4096 (819200)
I0108 11:51:10.337339 36324 net.cpp:137] Memory required for data: 2503734400
I0108 11:51:10.337357 36324 layer_factory.hpp:77] Creating layer bn6
I0108 11:51:10.337379 36324 net.cpp:84] Creating Layer bn6
I0108 11:51:10.337391 36324 net.cpp:406] bn6 <- fc6
I0108 11:51:10.337405 36324 net.cpp:367] bn6 -> fc6 (in-place)
I0108 11:51:10.337616 36324 net.cpp:122] Setting up bn6
I0108 11:51:10.337633 36324 net.cpp:129] Top shape: 200 4096 (819200)
I0108 11:51:10.337642 36324 net.cpp:137] Memory required for data: 2507011200
I0108 11:51:10.337656 36324 layer_factory.hpp:77] Creating layer scale6
I0108 11:51:10.337678 36324 net.cpp:84] Creating Layer scale6
I0108 11:51:10.337689 36324 net.cpp:406] scale6 <- fc6
I0108 11:51:10.337700 36324 net.cpp:367] scale6 -> fc6 (in-place)
I0108 11:51:10.337757 36324 layer_factory.hpp:77] Creating layer scale6
I0108 11:51:10.337894 36324 net.cpp:122] Setting up scale6
I0108 11:51:10.337911 36324 net.cpp:129] Top shape: 200 4096 (819200)
I0108 11:51:10.337920 36324 net.cpp:137] Memory required for data: 2510288000
I0108 11:51:10.337932 36324 layer_factory.hpp:77] Creating layer relu6
I0108 11:51:10.337945 36324 net.cpp:84] Creating Layer relu6
I0108 11:51:10.337955 36324 net.cpp:406] relu6 <- fc6
I0108 11:51:10.337968 36324 net.cpp:367] relu6 -> fc6 (in-place)
I0108 11:51:10.337980 36324 net.cpp:122] Setting up relu6
I0108 11:51:10.337991 36324 net.cpp:129] Top shape: 200 4096 (819200)
I0108 11:51:10.338001 36324 net.cpp:137] Memory required for data: 2513564800
I0108 11:51:10.338009 36324 layer_factory.hpp:77] Creating layer drop6
I0108 11:51:10.338022 36324 net.cpp:84] Creating Layer drop6
I0108 11:51:10.338032 36324 net.cpp:406] drop6 <- fc6
I0108 11:51:10.338042 36324 net.cpp:367] drop6 -> fc6 (in-place)
I0108 11:51:10.338078 36324 net.cpp:122] Setting up drop6
I0108 11:51:10.338093 36324 net.cpp:129] Top shape: 200 4096 (819200)
I0108 11:51:10.338101 36324 net.cpp:137] Memory required for data: 2516841600
I0108 11:51:10.338110 36324 layer_factory.hpp:77] Creating layer quantized_fc6
I0108 11:51:10.338124 36324 net.cpp:84] Creating Layer quantized_fc6
I0108 11:51:10.338171 36324 net.cpp:406] quantized_fc6 <- fc6
I0108 11:51:10.338187 36324 net.cpp:367] quantized_fc6 -> fc6 (in-place)
I0108 11:51:10.338201 36324 net.cpp:122] Setting up quantized_fc6
I0108 11:51:10.338212 36324 net.cpp:129] Top shape: 200 4096 (819200)
I0108 11:51:10.338222 36324 net.cpp:137] Memory required for data: 2520118400
I0108 11:51:10.338229 36324 layer_factory.hpp:77] Creating layer fc7
I0108 11:51:10.338243 36324 net.cpp:84] Creating Layer fc7
I0108 11:51:10.338253 36324 net.cpp:406] fc7 <- fc6
I0108 11:51:10.338264 36324 net.cpp:380] fc7 -> fc7
I0108 11:51:10.858964 36324 net.cpp:122] Setting up fc7
I0108 11:51:10.859066 36324 net.cpp:129] Top shape: 200 4096 (819200)
I0108 11:51:10.859077 36324 net.cpp:137] Memory required for data: 2523395200
I0108 11:51:10.859094 36324 layer_factory.hpp:77] Creating layer bn7
I0108 11:51:10.859117 36324 net.cpp:84] Creating Layer bn7
I0108 11:51:10.859128 36324 net.cpp:406] bn7 <- fc7
I0108 11:51:10.859143 36324 net.cpp:367] bn7 -> fc7 (in-place)
I0108 11:51:10.859354 36324 net.cpp:122] Setting up bn7
I0108 11:51:10.859371 36324 net.cpp:129] Top shape: 200 4096 (819200)
I0108 11:51:10.859380 36324 net.cpp:137] Memory required for data: 2526672000
I0108 11:51:10.859395 36324 layer_factory.hpp:77] Creating layer scale7
I0108 11:51:10.859410 36324 net.cpp:84] Creating Layer scale7
I0108 11:51:10.859419 36324 net.cpp:406] scale7 <- fc7
I0108 11:51:10.859429 36324 net.cpp:367] scale7 -> fc7 (in-place)
I0108 11:51:10.859486 36324 layer_factory.hpp:77] Creating layer scale7
I0108 11:51:10.859630 36324 net.cpp:122] Setting up scale7
I0108 11:51:10.859647 36324 net.cpp:129] Top shape: 200 4096 (819200)
I0108 11:51:10.859657 36324 net.cpp:137] Memory required for data: 2529948800
I0108 11:51:10.859669 36324 layer_factory.hpp:77] Creating layer relu7
I0108 11:51:10.859684 36324 net.cpp:84] Creating Layer relu7
I0108 11:51:10.859694 36324 net.cpp:406] relu7 <- fc7
I0108 11:51:10.859705 36324 net.cpp:367] relu7 -> fc7 (in-place)
I0108 11:51:10.859717 36324 net.cpp:122] Setting up relu7
I0108 11:51:10.859728 36324 net.cpp:129] Top shape: 200 4096 (819200)
I0108 11:51:10.859737 36324 net.cpp:137] Memory required for data: 2533225600
I0108 11:51:10.859746 36324 layer_factory.hpp:77] Creating layer drop7
I0108 11:51:10.859760 36324 net.cpp:84] Creating Layer drop7
I0108 11:51:10.859768 36324 net.cpp:406] drop7 <- fc7
I0108 11:51:10.859781 36324 net.cpp:367] drop7 -> fc7 (in-place)
I0108 11:51:10.859814 36324 net.cpp:122] Setting up drop7
I0108 11:51:10.859829 36324 net.cpp:129] Top shape: 200 4096 (819200)
I0108 11:51:10.859838 36324 net.cpp:137] Memory required for data: 2536502400
I0108 11:51:10.859846 36324 layer_factory.hpp:77] Creating layer quantized_fc7
I0108 11:51:10.859863 36324 net.cpp:84] Creating Layer quantized_fc7
I0108 11:51:10.859874 36324 net.cpp:406] quantized_fc7 <- fc7
I0108 11:51:10.859884 36324 net.cpp:367] quantized_fc7 -> fc7 (in-place)
I0108 11:51:10.859897 36324 net.cpp:122] Setting up quantized_fc7
I0108 11:51:10.859908 36324 net.cpp:129] Top shape: 200 4096 (819200)
I0108 11:51:10.859917 36324 net.cpp:137] Memory required for data: 2539779200
I0108 11:51:10.859925 36324 layer_factory.hpp:77] Creating layer fc8
I0108 11:51:10.859941 36324 net.cpp:84] Creating Layer fc8
I0108 11:51:10.859949 36324 net.cpp:406] fc8 <- fc7
I0108 11:51:10.859963 36324 net.cpp:380] fc8 -> fc8
I0108 11:51:10.987754 36324 net.cpp:122] Setting up fc8
I0108 11:51:10.987854 36324 net.cpp:129] Top shape: 200 1000 (200000)
I0108 11:51:10.987865 36324 net.cpp:137] Memory required for data: 2540579200
I0108 11:51:10.987884 36324 layer_factory.hpp:77] Creating layer fc8_fc8_0_split
I0108 11:51:10.987905 36324 net.cpp:84] Creating Layer fc8_fc8_0_split
I0108 11:51:10.987917 36324 net.cpp:406] fc8_fc8_0_split <- fc8
I0108 11:51:10.987932 36324 net.cpp:380] fc8_fc8_0_split -> fc8_fc8_0_split_0
I0108 11:51:10.987954 36324 net.cpp:380] fc8_fc8_0_split -> fc8_fc8_0_split_1
I0108 11:51:10.987967 36324 net.cpp:380] fc8_fc8_0_split -> fc8_fc8_0_split_2
I0108 11:51:10.988039 36324 net.cpp:122] Setting up fc8_fc8_0_split
I0108 11:51:10.988092 36324 net.cpp:129] Top shape: 200 1000 (200000)
I0108 11:51:10.988104 36324 net.cpp:129] Top shape: 200 1000 (200000)
I0108 11:51:10.988114 36324 net.cpp:129] Top shape: 200 1000 (200000)
I0108 11:51:10.988122 36324 net.cpp:137] Memory required for data: 2542979200
I0108 11:51:10.988131 36324 layer_factory.hpp:77] Creating layer accuracy
I0108 11:51:10.988145 36324 net.cpp:84] Creating Layer accuracy
I0108 11:51:10.988154 36324 net.cpp:406] accuracy <- fc8_fc8_0_split_0
I0108 11:51:10.988164 36324 net.cpp:406] accuracy <- label_data_1_split_0
I0108 11:51:10.988176 36324 net.cpp:380] accuracy -> accuracy
…
