…
I0108 08:43:54.162282 25645 net.cpp:294] The NetState phase (0) differed from the phase (1) specified by a rule in layer accuracy_5
I0108 08:43:54.162537 25645 net.cpp:51] Initializing net from parameters: 
name: "AlexNet-BN"
state {
  phase: TRAIN
  level: 0
  stage: ""
}
layer {
  name: "data"
  type: "Data"
  top: "data"
  top: "label"
  include {
    phase: TRAIN
  }
  transform_param {
    mirror: true
    crop_size: 224
    mean_value: 103.939
    mean_value: 116.779
    mean_value: 123.68
  }
  data_param {
    source: "/home/ydwu/database/imagenet/ilsvrc12/lmdb_resize/ilsvrc12_train_lmdb"
    batch_size: 200
    backend: LMDB
  }
}
layer {
  name: "conv1"
  type: "Convolution"
  bottom: "data"
  top: "conv1"
  param {
    lr_mult: 1
    decay_mult: 1
  }
  param {
    lr_mult: 2
    decay_mult: 0
  }
  convolution_param {
    num_output: 96
    pad: 2
    kernel_size: 11
    stride: 4
    weight_filler {
      type: "gaussian"
      std: 0.01
    }
    bias_filler {
      type: "constant"
      value: 0
    }
  }
}
layer {
  name: "bn1"
  type: "BatchNorm"
  bottom: "conv1"
  top: "conv1"
}
layer {
  name: "scale1"
  type: "Scale"
  bottom: "conv1"
  top: "conv1"
  scale_param {
    bias_term: true
  }
}
layer {
  name: "relu1"
  type: "ReLU"
  bottom: "conv1"
  top: "conv1"
}
layer {
  name: "pool1"
  type: "Pooling"
  bottom: "conv1"
  top: "pool1"
  pooling_param {
    pool: MAX
    kernel_size: 3
    stride: 2
  }
}
layer {
  name: "quantized_conv1"
  type: "Quantization"
  bottom: "pool1"
  top: "pool1"
  quantization_param {
    round_method: FLOOR
    round_strategy: AGGRESSIVE
    bit_width: 4
    range: 0
    range: 9.3102551
  }
}
layer {
  name: "conv2"
  type: "Convolution"
  bottom: "pool1"
  top: "conv2"
  param {
    lr_mult: 1
    decay_mult: 1
  }
  param {
    lr_mult: 2
    decay_mult: 0
  }
  convolution_param {
    num_output: 256
    pad: 2
    kernel_size: 5
    weight_filler {
      type: "gaussian"
      std: 0.01
    }
    bias_filler {
      type: "constant"
      value: 0.1
    }
  }
}
layer {
  name: "bn2"
  type: "BatchNorm"
  bottom: "conv2"
  top: "conv2"
}
layer {
  name: "scale2"
  type: "Scale"
  bottom: "conv2"
  top: "conv2"
  scale_param {
    bias_term: true
  }
}
layer {
  name: "relu2"
  type: "ReLU"
  bottom: "conv2"
  top: "conv2"
}
layer {
  name: "pool2"
  type: "Pooling"
  bottom: "conv2"
  top: "pool2"
  pooling_param {
    pool: MAX
    kernel_size: 3
    stride: 2
  }
}
layer {
  name: "quantized_conv2"
  type: "Quantization"
  bottom: "pool2"
  top: "pool2"
  quantization_param {
    round_method: FLOOR
    round_strategy: AGGRESSIVE
    bit_width: 4
    range: 0
    range: 4.4997
  }
}
layer {
  name: "conv3"
  type: "Convolution"
  bottom: "pool2"
  top: "conv3"
  param {
    lr_mult: 1
    decay_mult: 1
  }
  param {
    lr_mult: 2
    decay_mult: 0
  }
  convolution_param {
    num_output: 384
    pad: 1
    kernel_size: 3
    weight_filler {
      type: "gaussian"
      std: 0.01
    }
    bias_filler {
      type: "constant"
      value: 0
    }
  }
}
layer {
  name: "bn3"
  type: "BatchNorm"
  bottom: "conv3"
  top: "conv3"
}
layer {
  name: "scale3"
  type: "Scale"
  bottom: "conv3"
  top: "conv3"
  scale_param {
    bias_term: true
  }
}
layer {
  name: "relu3"
  type: "ReLU"
  bottom: "conv3"
  top: "conv3"
}
layer {
  name: "quantized_conv3"
  type: "Quantization"
  bottom: "conv3"
  top: "conv3"
  quantization_param {
    round_method: FLOOR
    round_strategy: AGGRESSIVE
    bit_width: 4
    range: 0
    range: 5.65636
  }
}
layer {
  name: "conv4"
  type: "Convolution"
  bottom: "conv3"
  top: "conv4"
  param {
    lr_mult: 1
    decay_mult: 1
  }
  param {
    lr_mult: 2
    decay_mult: 0
  }
  convolution_param {
    num_output: 384
    pad: 1
    kernel_size: 3
    weight_filler {
      type: "gaussian"
      std: 0.01
    }
    bias_filler {
      type: "constant"
      value: 0.1
    }
  }
}
layer {
  name: "bn4"
  type: "BatchNorm"
  bottom: "conv4"
  top: "conv4"
}
layer {
  name: "scale4"
  type: "Scale"
  bottom: "conv4"
  top: "conv4"
  scale_param {
    bias_term: true
  }
}
layer {
  name: "relu4"
  type: "ReLU"
  bottom: "conv4"
  top: "conv4"
}
layer {
  name: "quantized_conv4"
  type: "Quantization"
  bottom: "conv4"
  top: "conv4"
  quantization_param {
    round_method: FLOOR
    round_strategy: AGGRESSIVE
    bit_width: 4
    range: 0
    range: 4.891314
  }
}
layer {
  name: "conv5"
  type: "Convolution"
  bottom: "conv4"
  top: "conv5"
  param {
    lr_mult: 1
    decay_mult: 1
  }
  param {
    lr_mult: 2
    decay_mult: 0
  }
  convolution_param {
    num_output: 256
    pad: 1
    kernel_size: 3
    weight_filler {
      type: "gaussian"
      std: 0.01
    }
    bias_filler {
      type: "constant"
      value: 0.1
    }
  }
}
layer {
  name: "bn5"
  type: "BatchNorm"
  bottom: "conv5"
  top: "conv5"
}
layer {
  name: "scale5"
  type: "Scale"
  bottom: "conv5"
  top: "conv5"
  scale_param {
    bias_term: true
  }
}
layer {
  name: "relu5"
  type: "ReLU"
  bottom: "conv5"
  top: "conv5"
}
layer {
  name: "pool5"
  type: "Pooling"
  bottom: "conv5"
  top: "pool5"
  pooling_param {
    pool: MAX
    kernel_size: 3
    stride: 2
  }
}
layer {
  name: "quantized_conv5"
  type: "Quantization"
  bottom: "pool5"
  top: "pool5"
  quantization_param {
    round_method: FLOOR
    round_strategy: AGGRESSIVE
    bit_width: 4
    range: 0
    range: 5.8384752
  }
}
layer {
  name: "fc6"
  type: "InnerProduct"
  bottom: "pool5"
  top: "fc6"
  param {
    lr_mult: 1
    decay_mult: 1
  }
  param {
    lr_mult: 2
    decay_mult: 0
  }
  inner_product_param {
    num_output: 4096
    weight_filler {
      type: "gaussian"
      std: 0.005
    }
    bias_filler {
      type: "constant"
      value: 0.1
    }
  }
}
layer {
  name: "bn6"
  type: "BatchNorm"
  bottom: "fc6"
  top: "fc6"
}
layer {
  name: "scale6"
  type: "Scale"
  bottom: "fc6"
  top: "fc6"
  scale_param {
    bias_term: true
  }
}
layer {
  name: "relu6"
  type: "ReLU"
  bottom: "fc6"
  top: "fc6"
}
layer {
  name: "drop6"
  type: "Dropout"
  bottom: "fc6"
  top: "fc6"
  dropout_param {
    dropout_ratio: 0.5
  }
}
layer {
  name: "quantized_fc6"
  type: "Quantization"
  bottom: "fc6"
  top: "fc6"
  quantization_param {
    round_method: FLOOR
    round_strategy: AGGRESSIVE
    bit_width: 4
    range: 0
    range: 1.106238
  }
}
layer {
  name: "fc7"
  type: "InnerProduct"
  bottom: "fc6"
  top: "fc7"
  param {
    lr_mult: 1
    decay_mult: 1
  }
  param {
    lr_mult: 2
    decay_mult: 0
  }
  inner_product_param {
    num_output: 4096
    weight_filler {
      type: "gaussian"
      std: 0.005
    }
    bias_filler {
      type: "constant"
      value: 0.1
    }
  }
}
layer {
  name: "bn7"
  type: "BatchNorm"
  bottom: "fc7"
  top: "fc7"
}
layer {
  name: "scale7"
  type: "Scale"
  bottom: "fc7"
  top: "fc7"
  scale_param {
    bias_term: true
  }
}
layer {
  name: "relu7"
  type: "ReLU"
  bottom: "fc7"
  top: "fc7"
}
layer {
  name: "drop7"
  type: "Dropout"
  bottom: "fc7"
  top: "fc7"
  dropout_param {
    dropout_ratio: 0.5
  }
}
layer {
  name: "quantized_fc7"
  type: "Quantization"
  bottom: "fc7"
  top: "fc7"
  quantization_param {
    round_method: FLOOR
    round_strategy: AGGRESSIVE
    bit_width: 4
    range: 0
    range: 5.0399008
  }
}
layer {
  name: "fc8"
  type: "InnerProduct"
  bottom: "fc7"
  top: "fc8"
  param {
    lr_mult: 1
    decay_mult: 1
  }
  param {
    lr_mult: 2
    decay_mult: 0
  }
  inner_product_param {
    num_output: 1000
    weight_filler {
      type: "gaussian"
      std: 0.01
    }
    bias_filler {
      type: "constant"
      value: 0
    }
  }
}
layer {
  name: "accuracy_5_TRAIN"
  type: "Accuracy"
  bottom: "fc8"
  bottom: "label"
  top: "accuracy_5_TRAIN"
  include {
    phase: TRAIN
  }
  accuracy_param {
    top_k: 5
  }
}
layer {
  name: "loss"
  type: "SoftmaxWithLoss"
  bottom: "fc8"
  bottom: "label"
  top: "loss"
}
I0108 08:43:54.162788 25645 layer_factory.hpp:77] Creating layer data
I0108 08:43:54.162922 25645 db_lmdb.cpp:35] Opened lmdb /home/ydwu/database/imagenet/ilsvrc12/lmdb_resize/ilsvrc12_train_lmdb
I0108 08:43:54.162972 25645 net.cpp:84] Creating Layer data
I0108 08:43:54.162989 25645 net.cpp:380] data -> data
I0108 08:43:54.163022 25645 net.cpp:380] data -> label
I0108 08:43:54.164984 25645 data_layer.cpp:45] output data size: 200,3,224,224
I0108 08:43:54.541857 25645 net.cpp:122] Setting up data
I0108 08:43:54.541946 25645 net.cpp:129] Top shape: 200 3 224 224 (30105600)
I0108 08:43:54.541961 25645 net.cpp:129] Top shape: 200 (200)
I0108 08:43:54.541971 25645 net.cpp:137] Memory required for data: 120423200
I0108 08:43:54.541988 25645 layer_factory.hpp:77] Creating layer label_data_1_split
I0108 08:43:54.542016 25645 net.cpp:84] Creating Layer label_data_1_split
I0108 08:43:54.542029 25645 net.cpp:406] label_data_1_split <- label
I0108 08:43:54.542053 25645 net.cpp:380] label_data_1_split -> label_data_1_split_0
I0108 08:43:54.542073 25645 net.cpp:380] label_data_1_split -> label_data_1_split_1
I0108 08:43:54.542138 25645 net.cpp:122] Setting up label_data_1_split
I0108 08:43:54.542155 25645 net.cpp:129] Top shape: 200 (200)
I0108 08:43:54.542165 25645 net.cpp:129] Top shape: 200 (200)
I0108 08:43:54.542173 25645 net.cpp:137] Memory required for data: 120424800
I0108 08:43:54.542182 25645 layer_factory.hpp:77] Creating layer conv1
I0108 08:43:54.542213 25645 net.cpp:84] Creating Layer conv1
I0108 08:43:54.542224 25645 net.cpp:406] conv1 <- data
I0108 08:43:54.542237 25645 net.cpp:380] conv1 -> conv1
I0108 08:43:54.563773 25645 net.cpp:122] Setting up conv1
I0108 08:43:54.563818 25645 net.cpp:129] Top shape: 200 96 55 55 (58080000)
I0108 08:43:54.563838 25645 net.cpp:137] Memory required for data: 352744800
I0108 08:43:54.563881 25645 layer_factory.hpp:77] Creating layer bn1
I0108 08:43:54.563908 25645 net.cpp:84] Creating Layer bn1
I0108 08:43:54.563920 25645 net.cpp:406] bn1 <- conv1
I0108 08:43:54.563933 25645 net.cpp:367] bn1 -> conv1 (in-place)
I0108 08:43:54.564234 25645 net.cpp:122] Setting up bn1
I0108 08:43:54.564261 25645 net.cpp:129] Top shape: 200 96 55 55 (58080000)
I0108 08:43:54.564281 25645 net.cpp:137] Memory required for data: 585064800
I0108 08:43:54.564308 25645 layer_factory.hpp:77] Creating layer scale1
I0108 08:43:54.564332 25645 net.cpp:84] Creating Layer scale1
I0108 08:43:54.564342 25645 net.cpp:406] scale1 <- conv1
I0108 08:43:54.564353 25645 net.cpp:367] scale1 -> conv1 (in-place)
I0108 08:43:54.564417 25645 layer_factory.hpp:77] Creating layer scale1
I0108 08:43:54.564600 25645 net.cpp:122] Setting up scale1
I0108 08:43:54.564620 25645 net.cpp:129] Top shape: 200 96 55 55 (58080000)
I0108 08:43:54.564635 25645 net.cpp:137] Memory required for data: 817384800
I0108 08:43:54.564649 25645 layer_factory.hpp:77] Creating layer relu1
I0108 08:43:54.564666 25645 net.cpp:84] Creating Layer relu1
I0108 08:43:54.564677 25645 net.cpp:406] relu1 <- conv1
I0108 08:43:54.564688 25645 net.cpp:367] relu1 -> conv1 (in-place)
I0108 08:43:54.564702 25645 net.cpp:122] Setting up relu1
I0108 08:43:54.564720 25645 net.cpp:129] Top shape: 200 96 55 55 (58080000)
I0108 08:43:54.564738 25645 net.cpp:137] Memory required for data: 1049704800
I0108 08:43:54.564754 25645 layer_factory.hpp:77] Creating layer pool1
I0108 08:43:54.564776 25645 net.cpp:84] Creating Layer pool1
I0108 08:43:54.564797 25645 net.cpp:406] pool1 <- conv1
I0108 08:43:54.564860 25645 net.cpp:380] pool1 -> pool1
I0108 08:43:54.564934 25645 net.cpp:122] Setting up pool1
I0108 08:43:54.564954 25645 net.cpp:129] Top shape: 200 96 27 27 (13996800)
I0108 08:43:54.564963 25645 net.cpp:137] Memory required for data: 1105692000
I0108 08:43:54.564975 25645 layer_factory.hpp:77] Creating layer quantized_conv1
I0108 08:43:54.564999 25645 net.cpp:84] Creating Layer quantized_conv1
I0108 08:43:54.565019 25645 net.cpp:406] quantized_conv1 <- pool1
I0108 08:43:54.565042 25645 net.cpp:367] quantized_conv1 -> pool1 (in-place)
I0108 08:43:54.565066 25645 net.cpp:122] Setting up quantized_conv1
I0108 08:43:54.565080 25645 net.cpp:129] Top shape: 200 96 27 27 (13996800)
I0108 08:43:54.565089 25645 net.cpp:137] Memory required for data: 1161679200
I0108 08:43:54.565099 25645 layer_factory.hpp:77] Creating layer conv2
I0108 08:43:54.565119 25645 net.cpp:84] Creating Layer conv2
I0108 08:43:54.565129 25645 net.cpp:406] conv2 <- pool1
I0108 08:43:54.565150 25645 net.cpp:380] conv2 -> conv2
I0108 08:43:54.590683 25645 net.cpp:122] Setting up conv2
I0108 08:43:54.590728 25645 net.cpp:129] Top shape: 200 256 27 27 (37324800)
I0108 08:43:54.590747 25645 net.cpp:137] Memory required for data: 1310978400
I0108 08:43:54.590780 25645 layer_factory.hpp:77] Creating layer bn2
I0108 08:43:54.590806 25645 net.cpp:84] Creating Layer bn2
I0108 08:43:54.590826 25645 net.cpp:406] bn2 <- conv2
I0108 08:43:54.590847 25645 net.cpp:367] bn2 -> conv2 (in-place)
I0108 08:43:54.591110 25645 net.cpp:122] Setting up bn2
I0108 08:43:54.591131 25645 net.cpp:129] Top shape: 200 256 27 27 (37324800)
I0108 08:43:54.591140 25645 net.cpp:137] Memory required for data: 1460277600
I0108 08:43:54.591156 25645 layer_factory.hpp:77] Creating layer scale2
I0108 08:43:54.591169 25645 net.cpp:84] Creating Layer scale2
I0108 08:43:54.591179 25645 net.cpp:406] scale2 <- conv2
I0108 08:43:54.591190 25645 net.cpp:367] scale2 -> conv2 (in-place)
I0108 08:43:54.591243 25645 layer_factory.hpp:77] Creating layer scale2
I0108 08:43:54.591347 25645 net.cpp:122] Setting up scale2
I0108 08:43:54.591363 25645 net.cpp:129] Top shape: 200 256 27 27 (37324800)
I0108 08:43:54.591373 25645 net.cpp:137] Memory required for data: 1609576800
I0108 08:43:54.591385 25645 layer_factory.hpp:77] Creating layer relu2
I0108 08:43:54.591398 25645 net.cpp:84] Creating Layer relu2
I0108 08:43:54.591408 25645 net.cpp:406] relu2 <- conv2
I0108 08:43:54.591418 25645 net.cpp:367] relu2 -> conv2 (in-place)
I0108 08:43:54.591430 25645 net.cpp:122] Setting up relu2
I0108 08:43:54.591440 25645 net.cpp:129] Top shape: 200 256 27 27 (37324800)
I0108 08:43:54.591449 25645 net.cpp:137] Memory required for data: 1758876000
I0108 08:43:54.591459 25645 layer_factory.hpp:77] Creating layer pool2
I0108 08:43:54.591470 25645 net.cpp:84] Creating Layer pool2
I0108 08:43:54.591480 25645 net.cpp:406] pool2 <- conv2
I0108 08:43:54.591491 25645 net.cpp:380] pool2 -> pool2
I0108 08:43:54.591534 25645 net.cpp:122] Setting up pool2
I0108 08:43:54.591549 25645 net.cpp:129] Top shape: 200 256 13 13 (8652800)
I0108 08:43:54.591558 25645 net.cpp:137] Memory required for data: 1793487200
I0108 08:43:54.591567 25645 layer_factory.hpp:77] Creating layer quantized_conv2
I0108 08:43:54.591581 25645 net.cpp:84] Creating Layer quantized_conv2
I0108 08:43:54.591590 25645 net.cpp:406] quantized_conv2 <- pool2
I0108 08:43:54.591603 25645 net.cpp:367] quantized_conv2 -> pool2 (in-place)
I0108 08:43:54.591614 25645 net.cpp:122] Setting up quantized_conv2
I0108 08:43:54.591625 25645 net.cpp:129] Top shape: 200 256 13 13 (8652800)
I0108 08:43:54.591634 25645 net.cpp:137] Memory required for data: 1828098400
I0108 08:43:54.591642 25645 layer_factory.hpp:77] Creating layer conv3
I0108 08:43:54.591660 25645 net.cpp:84] Creating Layer conv3
I0108 08:43:54.591670 25645 net.cpp:406] conv3 <- pool2
I0108 08:43:54.591681 25645 net.cpp:380] conv3 -> conv3
I0108 08:43:54.619691 25645 net.cpp:122] Setting up conv3
I0108 08:43:54.619719 25645 net.cpp:129] Top shape: 200 384 13 13 (12979200)
I0108 08:43:54.619729 25645 net.cpp:137] Memory required for data: 1880015200
I0108 08:43:54.619771 25645 layer_factory.hpp:77] Creating layer bn3
I0108 08:43:54.619786 25645 net.cpp:84] Creating Layer bn3
I0108 08:43:54.619796 25645 net.cpp:406] bn3 <- conv3
I0108 08:43:54.619808 25645 net.cpp:367] bn3 -> conv3 (in-place)
I0108 08:43:54.619977 25645 net.cpp:122] Setting up bn3
I0108 08:43:54.619994 25645 net.cpp:129] Top shape: 200 384 13 13 (12979200)
I0108 08:43:54.620003 25645 net.cpp:137] Memory required for data: 1931932000
I0108 08:43:54.620020 25645 layer_factory.hpp:77] Creating layer scale3
I0108 08:43:54.620036 25645 net.cpp:84] Creating Layer scale3
I0108 08:43:54.620045 25645 net.cpp:406] scale3 <- conv3
I0108 08:43:54.620057 25645 net.cpp:367] scale3 -> conv3 (in-place)
I0108 08:43:54.620100 25645 layer_factory.hpp:77] Creating layer scale3
I0108 08:43:54.620208 25645 net.cpp:122] Setting up scale3
I0108 08:43:54.620223 25645 net.cpp:129] Top shape: 200 384 13 13 (12979200)
I0108 08:43:54.620232 25645 net.cpp:137] Memory required for data: 1983848800
I0108 08:43:54.620244 25645 layer_factory.hpp:77] Creating layer relu3
I0108 08:43:54.620255 25645 net.cpp:84] Creating Layer relu3
I0108 08:43:54.620265 25645 net.cpp:406] relu3 <- conv3
I0108 08:43:54.620275 25645 net.cpp:367] relu3 -> conv3 (in-place)
I0108 08:43:54.620287 25645 net.cpp:122] Setting up relu3
I0108 08:43:54.620298 25645 net.cpp:129] Top shape: 200 384 13 13 (12979200)
I0108 08:43:54.620307 25645 net.cpp:137] Memory required for data: 2035765600
I0108 08:43:54.620316 25645 layer_factory.hpp:77] Creating layer quantized_conv3
I0108 08:43:54.620328 25645 net.cpp:84] Creating Layer quantized_conv3
I0108 08:43:54.620337 25645 net.cpp:406] quantized_conv3 <- conv3
I0108 08:43:54.620349 25645 net.cpp:367] quantized_conv3 -> conv3 (in-place)
I0108 08:43:54.620362 25645 net.cpp:122] Setting up quantized_conv3
I0108 08:43:54.620371 25645 net.cpp:129] Top shape: 200 384 13 13 (12979200)
I0108 08:43:54.620383 25645 net.cpp:137] Memory required for data: 2087682400
I0108 08:43:54.620393 25645 layer_factory.hpp:77] Creating layer conv4
I0108 08:43:54.620407 25645 net.cpp:84] Creating Layer conv4
I0108 08:43:54.620417 25645 net.cpp:406] conv4 <- conv3
I0108 08:43:54.620429 25645 net.cpp:380] conv4 -> conv4
I0108 08:43:54.661960 25645 net.cpp:122] Setting up conv4
I0108 08:43:54.662010 25645 net.cpp:129] Top shape: 200 384 13 13 (12979200)
I0108 08:43:54.662021 25645 net.cpp:137] Memory required for data: 2139599200
I0108 08:43:54.662035 25645 layer_factory.hpp:77] Creating layer bn4
I0108 08:43:54.662056 25645 net.cpp:84] Creating Layer bn4
I0108 08:43:54.662068 25645 net.cpp:406] bn4 <- conv4
I0108 08:43:54.662083 25645 net.cpp:367] bn4 -> conv4 (in-place)
I0108 08:43:54.662262 25645 net.cpp:122] Setting up bn4
I0108 08:43:54.662279 25645 net.cpp:129] Top shape: 200 384 13 13 (12979200)
I0108 08:43:54.662289 25645 net.cpp:137] Memory required for data: 2191516000
I0108 08:43:54.662302 25645 layer_factory.hpp:77] Creating layer scale4
I0108 08:43:54.662317 25645 net.cpp:84] Creating Layer scale4
I0108 08:43:54.662326 25645 net.cpp:406] scale4 <- conv4
I0108 08:43:54.662340 25645 net.cpp:367] scale4 -> conv4 (in-place)
I0108 08:43:54.662389 25645 layer_factory.hpp:77] Creating layer scale4
I0108 08:43:54.662509 25645 net.cpp:122] Setting up scale4
I0108 08:43:54.662526 25645 net.cpp:129] Top shape: 200 384 13 13 (12979200)
I0108 08:43:54.662535 25645 net.cpp:137] Memory required for data: 2243432800
I0108 08:43:54.662547 25645 layer_factory.hpp:77] Creating layer relu4
I0108 08:43:54.662564 25645 net.cpp:84] Creating Layer relu4
I0108 08:43:54.662572 25645 net.cpp:406] relu4 <- conv4
I0108 08:43:54.662583 25645 net.cpp:367] relu4 -> conv4 (in-place)
I0108 08:43:54.662596 25645 net.cpp:122] Setting up relu4
I0108 08:43:54.662607 25645 net.cpp:129] Top shape: 200 384 13 13 (12979200)
I0108 08:43:54.662616 25645 net.cpp:137] Memory required for data: 2295349600
I0108 08:43:54.662624 25645 layer_factory.hpp:77] Creating layer quantized_conv4
I0108 08:43:54.662637 25645 net.cpp:84] Creating Layer quantized_conv4
I0108 08:43:54.662678 25645 net.cpp:406] quantized_conv4 <- conv4
I0108 08:43:54.662693 25645 net.cpp:367] quantized_conv4 -> conv4 (in-place)
I0108 08:43:54.662706 25645 net.cpp:122] Setting up quantized_conv4
I0108 08:43:54.662717 25645 net.cpp:129] Top shape: 200 384 13 13 (12979200)
I0108 08:43:54.662726 25645 net.cpp:137] Memory required for data: 2347266400
I0108 08:43:54.662735 25645 layer_factory.hpp:77] Creating layer conv5
I0108 08:43:54.662755 25645 net.cpp:84] Creating Layer conv5
I0108 08:43:54.662765 25645 net.cpp:406] conv5 <- conv4
I0108 08:43:54.662777 25645 net.cpp:380] conv5 -> conv5
I0108 08:43:54.690810 25645 net.cpp:122] Setting up conv5
I0108 08:43:54.690835 25645 net.cpp:129] Top shape: 200 256 13 13 (8652800)
I0108 08:43:54.690845 25645 net.cpp:137] Memory required for data: 2381877600
I0108 08:43:54.690858 25645 layer_factory.hpp:77] Creating layer bn5
I0108 08:43:54.690871 25645 net.cpp:84] Creating Layer bn5
I0108 08:43:54.690881 25645 net.cpp:406] bn5 <- conv5
I0108 08:43:54.690896 25645 net.cpp:367] bn5 -> conv5 (in-place)
I0108 08:43:54.691083 25645 net.cpp:122] Setting up bn5
I0108 08:43:54.691100 25645 net.cpp:129] Top shape: 200 256 13 13 (8652800)
I0108 08:43:54.691109 25645 net.cpp:137] Memory required for data: 2416488800
I0108 08:43:54.691129 25645 layer_factory.hpp:77] Creating layer scale5
I0108 08:43:54.691145 25645 net.cpp:84] Creating Layer scale5
I0108 08:43:54.691156 25645 net.cpp:406] scale5 <- conv5
I0108 08:43:54.691169 25645 net.cpp:367] scale5 -> conv5 (in-place)
I0108 08:43:54.691218 25645 layer_factory.hpp:77] Creating layer scale5
I0108 08:43:54.691344 25645 net.cpp:122] Setting up scale5
I0108 08:43:54.691360 25645 net.cpp:129] Top shape: 200 256 13 13 (8652800)
I0108 08:43:54.691370 25645 net.cpp:137] Memory required for data: 2451100000
I0108 08:43:54.691381 25645 layer_factory.hpp:77] Creating layer relu5
I0108 08:43:54.691395 25645 net.cpp:84] Creating Layer relu5
I0108 08:43:54.691403 25645 net.cpp:406] relu5 <- conv5
I0108 08:43:54.691413 25645 net.cpp:367] relu5 -> conv5 (in-place)
I0108 08:43:54.691426 25645 net.cpp:122] Setting up relu5
I0108 08:43:54.691435 25645 net.cpp:129] Top shape: 200 256 13 13 (8652800)
I0108 08:43:54.691444 25645 net.cpp:137] Memory required for data: 2485711200
I0108 08:43:54.691453 25645 layer_factory.hpp:77] Creating layer pool5
I0108 08:43:54.691470 25645 net.cpp:84] Creating Layer pool5
I0108 08:43:54.691480 25645 net.cpp:406] pool5 <- conv5
I0108 08:43:54.691491 25645 net.cpp:380] pool5 -> pool5
I0108 08:43:54.691542 25645 net.cpp:122] Setting up pool5
I0108 08:43:54.691558 25645 net.cpp:129] Top shape: 200 256 6 6 (1843200)
I0108 08:43:54.691567 25645 net.cpp:137] Memory required for data: 2493084000
I0108 08:43:54.691576 25645 layer_factory.hpp:77] Creating layer quantized_conv5
I0108 08:43:54.691588 25645 net.cpp:84] Creating Layer quantized_conv5
I0108 08:43:54.691597 25645 net.cpp:406] quantized_conv5 <- pool5
I0108 08:43:54.691608 25645 net.cpp:367] quantized_conv5 -> pool5 (in-place)
I0108 08:43:54.691620 25645 net.cpp:122] Setting up quantized_conv5
I0108 08:43:54.691632 25645 net.cpp:129] Top shape: 200 256 6 6 (1843200)
I0108 08:43:54.691640 25645 net.cpp:137] Memory required for data: 2500456800
I0108 08:43:54.691649 25645 layer_factory.hpp:77] Creating layer fc6
I0108 08:43:54.691668 25645 net.cpp:84] Creating Layer fc6
I0108 08:43:54.691678 25645 net.cpp:406] fc6 <- pool5
I0108 08:43:54.691691 25645 net.cpp:380] fc6 -> fc6
I0108 08:43:55.871879 25645 net.cpp:122] Setting up fc6
I0108 08:43:55.871966 25645 net.cpp:129] Top shape: 200 4096 (819200)
I0108 08:43:55.871978 25645 net.cpp:137] Memory required for data: 2503733600
I0108 08:43:55.871994 25645 layer_factory.hpp:77] Creating layer bn6
I0108 08:43:55.872014 25645 net.cpp:84] Creating Layer bn6
I0108 08:43:55.872025 25645 net.cpp:406] bn6 <- fc6
I0108 08:43:55.872042 25645 net.cpp:367] bn6 -> fc6 (in-place)
I0108 08:43:55.872241 25645 net.cpp:122] Setting up bn6
I0108 08:43:55.872257 25645 net.cpp:129] Top shape: 200 4096 (819200)
I0108 08:43:55.872303 25645 net.cpp:137] Memory required for data: 2507010400
I0108 08:43:55.872318 25645 layer_factory.hpp:77] Creating layer scale6
I0108 08:43:55.872339 25645 net.cpp:84] Creating Layer scale6
I0108 08:43:55.872349 25645 net.cpp:406] scale6 <- fc6
I0108 08:43:55.872359 25645 net.cpp:367] scale6 -> fc6 (in-place)
I0108 08:43:55.872413 25645 layer_factory.hpp:77] Creating layer scale6
I0108 08:43:55.872542 25645 net.cpp:122] Setting up scale6
I0108 08:43:55.872560 25645 net.cpp:129] Top shape: 200 4096 (819200)
I0108 08:43:55.872568 25645 net.cpp:137] Memory required for data: 2510287200
I0108 08:43:55.872581 25645 layer_factory.hpp:77] Creating layer relu6
I0108 08:43:55.872593 25645 net.cpp:84] Creating Layer relu6
I0108 08:43:55.872602 25645 net.cpp:406] relu6 <- fc6
I0108 08:43:55.872617 25645 net.cpp:367] relu6 -> fc6 (in-place)
I0108 08:43:55.872628 25645 net.cpp:122] Setting up relu6
I0108 08:43:55.872639 25645 net.cpp:129] Top shape: 200 4096 (819200)
I0108 08:43:55.872648 25645 net.cpp:137] Memory required for data: 2513564000
I0108 08:43:55.872656 25645 layer_factory.hpp:77] Creating layer drop6
I0108 08:43:55.872675 25645 net.cpp:84] Creating Layer drop6
I0108 08:43:55.872685 25645 net.cpp:406] drop6 <- fc6
I0108 08:43:55.872695 25645 net.cpp:367] drop6 -> fc6 (in-place)
I0108 08:43:55.872738 25645 net.cpp:122] Setting up drop6
I0108 08:43:55.872753 25645 net.cpp:129] Top shape: 200 4096 (819200)
I0108 08:43:55.872762 25645 net.cpp:137] Memory required for data: 2516840800
I0108 08:43:55.872771 25645 layer_factory.hpp:77] Creating layer quantized_fc6
I0108 08:43:55.872788 25645 net.cpp:84] Creating Layer quantized_fc6
I0108 08:43:55.872798 25645 net.cpp:406] quantized_fc6 <- fc6
I0108 08:43:55.872808 25645 net.cpp:367] quantized_fc6 -> fc6 (in-place)
I0108 08:43:55.872822 25645 net.cpp:122] Setting up quantized_fc6
I0108 08:43:55.872833 25645 net.cpp:129] Top shape: 200 4096 (819200)
I0108 08:43:55.872840 25645 net.cpp:137] Memory required for data: 2520117600
I0108 08:43:55.872849 25645 layer_factory.hpp:77] Creating layer fc7
I0108 08:43:55.872864 25645 net.cpp:84] Creating Layer fc7
I0108 08:43:55.872872 25645 net.cpp:406] fc7 <- fc6
I0108 08:43:55.872886 25645 net.cpp:380] fc7 -> fc7
I0108 08:43:56.396682 25645 net.cpp:122] Setting up fc7
I0108 08:43:56.396756 25645 net.cpp:129] Top shape: 200 4096 (819200)
I0108 08:43:56.396767 25645 net.cpp:137] Memory required for data: 2523394400
I0108 08:43:56.396783 25645 layer_factory.hpp:77] Creating layer bn7
I0108 08:43:56.396806 25645 net.cpp:84] Creating Layer bn7
I0108 08:43:56.396817 25645 net.cpp:406] bn7 <- fc7
I0108 08:43:56.396831 25645 net.cpp:367] bn7 -> fc7 (in-place)
I0108 08:43:56.397027 25645 net.cpp:122] Setting up bn7
I0108 08:43:56.397043 25645 net.cpp:129] Top shape: 200 4096 (819200)
I0108 08:43:56.397053 25645 net.cpp:137] Memory required for data: 2526671200
I0108 08:43:56.397069 25645 layer_factory.hpp:77] Creating layer scale7
I0108 08:43:56.397084 25645 net.cpp:84] Creating Layer scale7
I0108 08:43:56.397094 25645 net.cpp:406] scale7 <- fc7
I0108 08:43:56.397105 25645 net.cpp:367] scale7 -> fc7 (in-place)
I0108 08:43:56.397158 25645 layer_factory.hpp:77] Creating layer scale7
I0108 08:43:56.397294 25645 net.cpp:122] Setting up scale7
I0108 08:43:56.397311 25645 net.cpp:129] Top shape: 200 4096 (819200)
I0108 08:43:56.397320 25645 net.cpp:137] Memory required for data: 2529948000
I0108 08:43:56.397333 25645 layer_factory.hpp:77] Creating layer relu7
I0108 08:43:56.397346 25645 net.cpp:84] Creating Layer relu7
I0108 08:43:56.397356 25645 net.cpp:406] relu7 <- fc7
I0108 08:43:56.397368 25645 net.cpp:367] relu7 -> fc7 (in-place)
I0108 08:43:56.397382 25645 net.cpp:122] Setting up relu7
I0108 08:43:56.397392 25645 net.cpp:129] Top shape: 200 4096 (819200)
I0108 08:43:56.397400 25645 net.cpp:137] Memory required for data: 2533224800
I0108 08:43:56.397409 25645 layer_factory.hpp:77] Creating layer drop7
I0108 08:43:56.397423 25645 net.cpp:84] Creating Layer drop7
I0108 08:43:56.397431 25645 net.cpp:406] drop7 <- fc7
I0108 08:43:56.397444 25645 net.cpp:367] drop7 -> fc7 (in-place)
I0108 08:43:56.397521 25645 net.cpp:122] Setting up drop7
I0108 08:43:56.397537 25645 net.cpp:129] Top shape: 200 4096 (819200)
I0108 08:43:56.397547 25645 net.cpp:137] Memory required for data: 2536501600
I0108 08:43:56.397555 25645 layer_factory.hpp:77] Creating layer quantized_fc7
I0108 08:43:56.397575 25645 net.cpp:84] Creating Layer quantized_fc7
I0108 08:43:56.397585 25645 net.cpp:406] quantized_fc7 <- fc7
I0108 08:43:56.397596 25645 net.cpp:367] quantized_fc7 -> fc7 (in-place)
I0108 08:43:56.397609 25645 net.cpp:122] Setting up quantized_fc7
I0108 08:43:56.397620 25645 net.cpp:129] Top shape: 200 4096 (819200)
I0108 08:43:56.397629 25645 net.cpp:137] Memory required for data: 2539778400
I0108 08:43:56.397637 25645 layer_factory.hpp:77] Creating layer fc8
I0108 08:43:56.397651 25645 net.cpp:84] Creating Layer fc8
I0108 08:43:56.397660 25645 net.cpp:406] fc8 <- fc7
I0108 08:43:56.397672 25645 net.cpp:380] fc8 -> fc8
I0108 08:43:56.525943 25645 net.cpp:122] Setting up fc8
I0108 08:43:56.526000 25645 net.cpp:129] Top shape: 200 1000 (200000)
I0108 08:43:56.526010 25645 net.cpp:137] Memory required for data: 2540578400
I0108 08:43:56.526027 25645 layer_factory.hpp:77] Creating layer fc8_fc8_0_split
I0108 08:43:56.526049 25645 net.cpp:84] Creating Layer fc8_fc8_0_split
I0108 08:43:56.526062 25645 net.cpp:406] fc8_fc8_0_split <- fc8
I0108 08:43:56.526077 25645 net.cpp:380] fc8_fc8_0_split -> fc8_fc8_0_split_0
I0108 08:43:56.526094 25645 net.cpp:380] fc8_fc8_0_split -> fc8_fc8_0_split_1
I0108 08:43:56.526154 25645 net.cpp:122] Setting up fc8_fc8_0_split
I0108 08:43:56.526170 25645 net.cpp:129] Top shape: 200 1000 (200000)
I0108 08:43:56.526180 25645 net.cpp:129] Top shape: 200 1000 (200000)
I0108 08:43:56.526190 25645 net.cpp:137] Memory required for data: 2542178400
I0108 08:43:56.526198 25645 layer_factory.hpp:77] Creating layer accuracy_5_TRAIN
I0108 08:43:56.526219 25645 net.cpp:84] Creating Layer accuracy_5_TRAIN
I0108 08:43:56.526229 25645 net.cpp:406] accuracy_5_TRAIN <- fc8_fc8_0_split_0
I0108 08:43:56.526240 25645 net.cpp:406] accuracy_5_TRAIN <- label_data_1_split_0
…
I0108 08:43:56.529450 25645 net.cpp:294] The NetState phase (1) differed from the phase (0) specified by a rule in layer accuracy_5_TRAIN
I0108 08:43:56.529703 25645 net.cpp:51] Initializing net from parameters: 
name: "AlexNet-BN"
state {
  phase: TEST
}
layer {
  name: "data"
  type: "Data"
  top: "data"
  top: "label"
  include {
    phase: TEST
  }
  transform_param {
    mirror: false
    crop_size: 224
    mean_value: 103.939
    mean_value: 116.779
    mean_value: 123.68
  }
  data_param {
    source: "/home/ydwu/database/imagenet/ilsvrc12/lmdb_resize/ilsvrc12_val_lmdb"
    batch_size: 200
    backend: LMDB
  }
}
layer {
  name: "conv1"
  type: "Convolution"
  bottom: "data"
  top: "conv1"
  param {
    lr_mult: 1
    decay_mult: 1
  }
  param {
    lr_mult: 2
    decay_mult: 0
  }
  convolution_param {
    num_output: 96
    pad: 2
    kernel_size: 11
    stride: 4
    weight_filler {
      type: "gaussian"
      std: 0.01
    }
    bias_filler {
      type: "constant"
      value: 0
    }
  }
}
layer {
  name: "bn1"
  type: "BatchNorm"
  bottom: "conv1"
  top: "conv1"
}
layer {
  name: "scale1"
  type: "Scale"
  bottom: "conv1"
  top: "conv1"
  scale_param {
    bias_term: true
  }
}
layer {
  name: "relu1"
  type: "ReLU"
  bottom: "conv1"
  top: "conv1"
}
layer {
  name: "pool1"
  type: "Pooling"
  bottom: "conv1"
  top: "pool1"
  pooling_param {
    pool: MAX
    kernel_size: 3
    stride: 2
  }
}
layer {
  name: "quantized_conv1"
  type: "Quantization"
  bottom: "pool1"
  top: "pool1"
  quantization_param {
    round_method: FLOOR
    round_strategy: AGGRESSIVE
    bit_width: 4
    range: 0
    range: 9.3102551
  }
}
layer {
  name: "conv2"
  type: "Convolution"
  bottom: "pool1"
  top: "conv2"
  param {
    lr_mult: 1
    decay_mult: 1
  }
  param {
    lr_mult: 2
    decay_mult: 0
  }
  convolution_param {
    num_output: 256
    pad: 2
    kernel_size: 5
    weight_filler {
      type: "gaussian"
      std: 0.01
    }
    bias_filler {
      type: "constant"
      value: 0.1
    }
  }
}
layer {
  name: "bn2"
  type: "BatchNorm"
  bottom: "conv2"
  top: "conv2"
}
layer {
  name: "scale2"
  type: "Scale"
  bottom: "conv2"
  top: "conv2"
  scale_param {
    bias_term: true
  }
}
layer {
  name: "relu2"
  type: "ReLU"
  bottom: "conv2"
  top: "conv2"
}
layer {
  name: "pool2"
  type: "Pooling"
  bottom: "conv2"
  top: "pool2"
  pooling_param {
    pool: MAX
    kernel_size: 3
    stride: 2
  }
}
layer {
  name: "quantized_conv2"
  type: "Quantization"
  bottom: "pool2"
  top: "pool2"
  quantization_param {
    round_method: FLOOR
    round_strategy: AGGRESSIVE
    bit_width: 4
    range: 0
    range: 4.4997
  }
}
layer {
  name: "conv3"
  type: "Convolution"
  bottom: "pool2"
  top: "conv3"
  param {
    lr_mult: 1
    decay_mult: 1
  }
  param {
    lr_mult: 2
    decay_mult: 0
  }
  convolution_param {
    num_output: 384
    pad: 1
    kernel_size: 3
    weight_filler {
      type: "gaussian"
      std: 0.01
    }
    bias_filler {
      type: "constant"
      value: 0
    }
  }
}
layer {
  name: "bn3"
  type: "BatchNorm"
  bottom: "conv3"
  top: "conv3"
}
layer {
  name: "scale3"
  type: "Scale"
  bottom: "conv3"
  top: "conv3"
  scale_param {
    bias_term: true
  }
}
layer {
  name: "relu3"
  type: "ReLU"
  bottom: "conv3"
  top: "conv3"
}
layer {
  name: "quantized_conv3"
  type: "Quantization"
  bottom: "conv3"
  top: "conv3"
  quantization_param {
    round_method: FLOOR
    round_strategy: AGGRESSIVE
    bit_width: 4
    range: 0
    range: 5.65636
  }
}
layer {
  name: "conv4"
  type: "Convolution"
  bottom: "conv3"
  top: "conv4"
  param {
    lr_mult: 1
    decay_mult: 1
  }
  param {
    lr_mult: 2
    decay_mult: 0
  }
  convolution_param {
    num_output: 384
    pad: 1
    kernel_size: 3
    weight_filler {
      type: "gaussian"
      std: 0.01
    }
    bias_filler {
      type: "constant"
      value: 0.1
    }
  }
}
layer {
  name: "bn4"
  type: "BatchNorm"
  bottom: "conv4"
  top: "conv4"
}
layer {
  name: "scale4"
  type: "Scale"
  bottom: "conv4"
  top: "conv4"
  scale_param {
    bias_term: true
  }
}
layer {
  name: "relu4"
  type: "ReLU"
  bottom: "conv4"
  top: "conv4"
}
layer {
  name: "quantized_conv4"
  type: "Quantization"
  bottom: "conv4"
  top: "conv4"
  quantization_param {
    round_method: FLOOR
    round_strategy: AGGRESSIVE
    bit_width: 4
    range: 0
    range: 4.891314
  }
}
layer {
  name: "conv5"
  type: "Convolution"
  bottom: "conv4"
  top: "conv5"
  param {
    lr_mult: 1
    decay_mult: 1
  }
  param {
    lr_mult: 2
    decay_mult: 0
  }
  convolution_param {
    num_output: 256
    pad: 1
    kernel_size: 3
    weight_filler {
      type: "gaussian"
      std: 0.01
    }
    bias_filler {
      type: "constant"
      value: 0.1
    }
  }
}
layer {
  name: "bn5"
  type: "BatchNorm"
  bottom: "conv5"
  top: "conv5"
}
layer {
  name: "scale5"
  type: "Scale"
  bottom: "conv5"
  top: "conv5"
  scale_param {
    bias_term: true
  }
}
layer {
  name: "relu5"
  type: "ReLU"
  bottom: "conv5"
  top: "conv5"
}
layer {
  name: "pool5"
  type: "Pooling"
  bottom: "conv5"
  top: "pool5"
  pooling_param {
    pool: MAX
    kernel_size: 3
    stride: 2
  }
}
layer {
  name: "quantized_conv5"
  type: "Quantization"
  bottom: "pool5"
  top: "pool5"
  quantization_param {
    round_method: FLOOR
    round_strategy: AGGRESSIVE
    bit_width: 4
    range: 0
    range: 5.8384752
  }
}
layer {
  name: "fc6"
  type: "InnerProduct"
  bottom: "pool5"
  top: "fc6"
  param {
    lr_mult: 1
    decay_mult: 1
  }
  param {
    lr_mult: 2
    decay_mult: 0
  }
  inner_product_param {
    num_output: 4096
    weight_filler {
      type: "gaussian"
      std: 0.005
    }
    bias_filler {
      type: "constant"
      value: 0.1
    }
  }
}
layer {
  name: "bn6"
  type: "BatchNorm"
  bottom: "fc6"
  top: "fc6"
}
layer {
  name: "scale6"
  type: "Scale"
  bottom: "fc6"
  top: "fc6"
  scale_param {
    bias_term: true
  }
}
layer {
  name: "relu6"
  type: "ReLU"
  bottom: "fc6"
  top: "fc6"
}
layer {
  name: "drop6"
  type: "Dropout"
  bottom: "fc6"
  top: "fc6"
  dropout_param {
    dropout_ratio: 0.5
  }
}
layer {
  name: "quantized_fc6"
  type: "Quantization"
  bottom: "fc6"
  top: "fc6"
  quantization_param {
    round_method: FLOOR
    round_strategy: AGGRESSIVE
    bit_width: 4
    range: 0
    range: 1.106238
  }
}
layer {
  name: "fc7"
  type: "InnerProduct"
  bottom: "fc6"
  top: "fc7"
  param {
    lr_mult: 1
    decay_mult: 1
  }
  param {
    lr_mult: 2
    decay_mult: 0
  }
  inner_product_param {
    num_output: 4096
    weight_filler {
      type: "gaussian"
      std: 0.005
    }
    bias_filler {
      type: "constant"
      value: 0.1
    }
  }
}
layer {
  name: "bn7"
  type: "BatchNorm"
  bottom: "fc7"
  top: "fc7"
}
layer {
  name: "scale7"
  type: "Scale"
  bottom: "fc7"
  top: "fc7"
  scale_param {
    bias_term: true
  }
}
layer {
  name: "relu7"
  type: "ReLU"
  bottom: "fc7"
  top: "fc7"
}
layer {
  name: "drop7"
  type: "Dropout"
  bottom: "fc7"
  top: "fc7"
  dropout_param {
    dropout_ratio: 0.5
  }
}
layer {
  name: "quantized_fc7"
  type: "Quantization"
  bottom: "fc7"
  top: "fc7"
  quantization_param {
    round_method: FLOOR
    round_strategy: AGGRESSIVE
    bit_width: 4
    range: 0
    range: 5.0399008
  }
}
layer {
  name: "fc8"
  type: "InnerProduct"
  bottom: "fc7"
  top: "fc8"
  param {
    lr_mult: 1
    decay_mult: 1
  }
  param {
    lr_mult: 2
    decay_mult: 0
  }
  inner_product_param {
    num_output: 1000
    weight_filler {
      type: "gaussian"
      std: 0.01
    }
    bias_filler {
      type: "constant"
      value: 0
    }
  }
}
layer {
  name: "accuracy"
  type: "Accuracy"
  bottom: "fc8"
  bottom: "label"
  top: "accuracy"
  include {
    phase: TEST
  }
}
layer {
  name: "accuracy_5"
  type: "Accuracy"
  bottom: "fc8"
  bottom: "label"
  top: "accuracy_5"
  include {
    phase: TEST
  }
  accuracy_param {
    top_k: 5
  }
}
layer {
  name: "loss"
  type: "SoftmaxWithLoss"
  bottom: "fc8"
  bottom: "label"
  top: "loss"
}
I0108 08:43:56.529904 25645 layer_factory.hpp:77] Creating layer data
I0108 08:43:56.529984 25645 db_lmdb.cpp:35] Opened lmdb /home/ydwu/database/imagenet/ilsvrc12/lmdb_resize/ilsvrc12_val_lmdb
I0108 08:43:56.530014 25645 net.cpp:84] Creating Layer data
I0108 08:43:56.530030 25645 net.cpp:380] data -> data
I0108 08:43:56.530045 25645 net.cpp:380] data -> label
I0108 08:43:56.530416 25645 data_layer.cpp:45] output data size: 200,3,224,224
I0108 08:43:56.880713 25645 net.cpp:122] Setting up data
I0108 08:43:56.880800 25645 net.cpp:129] Top shape: 200 3 224 224 (30105600)
I0108 08:43:56.880815 25645 net.cpp:129] Top shape: 200 (200)
I0108 08:43:56.880825 25645 net.cpp:137] Memory required for data: 120423200
I0108 08:43:56.880839 25645 layer_factory.hpp:77] Creating layer label_data_1_split
I0108 08:43:56.880862 25645 net.cpp:84] Creating Layer label_data_1_split
I0108 08:43:56.880872 25645 net.cpp:406] label_data_1_split <- label
I0108 08:43:56.880887 25645 net.cpp:380] label_data_1_split -> label_data_1_split_0
I0108 08:43:56.880908 25645 net.cpp:380] label_data_1_split -> label_data_1_split_1
I0108 08:43:56.880919 25645 net.cpp:380] label_data_1_split -> label_data_1_split_2
I0108 08:43:56.881024 25645 net.cpp:122] Setting up label_data_1_split
I0108 08:43:56.881042 25645 net.cpp:129] Top shape: 200 (200)
I0108 08:43:56.881052 25645 net.cpp:129] Top shape: 200 (200)
I0108 08:43:56.881060 25645 net.cpp:129] Top shape: 200 (200)
I0108 08:43:56.881069 25645 net.cpp:137] Memory required for data: 120425600
I0108 08:43:56.881078 25645 layer_factory.hpp:77] Creating layer conv1
I0108 08:43:56.881101 25645 net.cpp:84] Creating Layer conv1
I0108 08:43:56.881110 25645 net.cpp:406] conv1 <- data
I0108 08:43:56.881124 25645 net.cpp:380] conv1 -> conv1
I0108 08:43:56.900099 25645 net.cpp:122] Setting up conv1
I0108 08:43:56.900121 25645 net.cpp:129] Top shape: 200 96 55 55 (58080000)
I0108 08:43:56.900130 25645 net.cpp:137] Memory required for data: 352745600
I0108 08:43:56.900146 25645 layer_factory.hpp:77] Creating layer bn1
I0108 08:43:56.900161 25645 net.cpp:84] Creating Layer bn1
I0108 08:43:56.900171 25645 net.cpp:406] bn1 <- conv1
I0108 08:43:56.900182 25645 net.cpp:367] bn1 -> conv1 (in-place)
I0108 08:43:56.900395 25645 net.cpp:122] Setting up bn1
I0108 08:43:56.900413 25645 net.cpp:129] Top shape: 200 96 55 55 (58080000)
I0108 08:43:56.900420 25645 net.cpp:137] Memory required for data: 585065600
I0108 08:43:56.900439 25645 layer_factory.hpp:77] Creating layer scale1
I0108 08:43:56.900455 25645 net.cpp:84] Creating Layer scale1
I0108 08:43:56.900465 25645 net.cpp:406] scale1 <- conv1
I0108 08:43:56.900475 25645 net.cpp:367] scale1 -> conv1 (in-place)
I0108 08:43:56.900527 25645 layer_factory.hpp:77] Creating layer scale1
I0108 08:43:56.900658 25645 net.cpp:122] Setting up scale1
I0108 08:43:56.900676 25645 net.cpp:129] Top shape: 200 96 55 55 (58080000)
I0108 08:43:56.900683 25645 net.cpp:137] Memory required for data: 817385600
I0108 08:43:56.900696 25645 layer_factory.hpp:77] Creating layer relu1
I0108 08:43:56.900708 25645 net.cpp:84] Creating Layer relu1
I0108 08:43:56.900717 25645 net.cpp:406] relu1 <- conv1
I0108 08:43:56.900727 25645 net.cpp:367] relu1 -> conv1 (in-place)
I0108 08:43:56.900739 25645 net.cpp:122] Setting up relu1
I0108 08:43:56.900750 25645 net.cpp:129] Top shape: 200 96 55 55 (58080000)
I0108 08:43:56.900758 25645 net.cpp:137] Memory required for data: 1049705600
I0108 08:43:56.900768 25645 layer_factory.hpp:77] Creating layer pool1
I0108 08:43:56.900780 25645 net.cpp:84] Creating Layer pool1
I0108 08:43:56.900789 25645 net.cpp:406] pool1 <- conv1
I0108 08:43:56.900799 25645 net.cpp:380] pool1 -> pool1
I0108 08:43:56.900846 25645 net.cpp:122] Setting up pool1
I0108 08:43:56.900861 25645 net.cpp:129] Top shape: 200 96 27 27 (13996800)
I0108 08:43:56.900871 25645 net.cpp:137] Memory required for data: 1105692800
I0108 08:43:56.900878 25645 layer_factory.hpp:77] Creating layer quantized_conv1
I0108 08:43:56.900892 25645 net.cpp:84] Creating Layer quantized_conv1
I0108 08:43:56.900902 25645 net.cpp:406] quantized_conv1 <- pool1
I0108 08:43:56.900913 25645 net.cpp:367] quantized_conv1 -> pool1 (in-place)
I0108 08:43:56.900925 25645 net.cpp:122] Setting up quantized_conv1
I0108 08:43:56.900935 25645 net.cpp:129] Top shape: 200 96 27 27 (13996800)
I0108 08:43:56.900944 25645 net.cpp:137] Memory required for data: 1161680000
I0108 08:43:56.900952 25645 layer_factory.hpp:77] Creating layer conv2
I0108 08:43:56.900969 25645 net.cpp:84] Creating Layer conv2
I0108 08:43:56.900979 25645 net.cpp:406] conv2 <- pool1
I0108 08:43:56.900990 25645 net.cpp:380] conv2 -> conv2
I0108 08:43:56.920325 25645 net.cpp:122] Setting up conv2
I0108 08:43:56.920377 25645 net.cpp:129] Top shape: 200 256 27 27 (37324800)
I0108 08:43:56.920385 25645 net.cpp:137] Memory required for data: 1310979200
I0108 08:43:56.920406 25645 layer_factory.hpp:77] Creating layer bn2
I0108 08:43:56.920426 25645 net.cpp:84] Creating Layer bn2
I0108 08:43:56.920437 25645 net.cpp:406] bn2 <- conv2
I0108 08:43:56.920451 25645 net.cpp:367] bn2 -> conv2 (in-place)
I0108 08:43:56.920634 25645 net.cpp:122] Setting up bn2
I0108 08:43:56.920650 25645 net.cpp:129] Top shape: 200 256 27 27 (37324800)
I0108 08:43:56.920660 25645 net.cpp:137] Memory required for data: 1460278400
I0108 08:43:56.920712 25645 layer_factory.hpp:77] Creating layer scale2
I0108 08:43:56.920728 25645 net.cpp:84] Creating Layer scale2
I0108 08:43:56.920737 25645 net.cpp:406] scale2 <- conv2
I0108 08:43:56.920748 25645 net.cpp:367] scale2 -> conv2 (in-place)
I0108 08:43:56.920806 25645 layer_factory.hpp:77] Creating layer scale2
I0108 08:43:56.920922 25645 net.cpp:122] Setting up scale2
I0108 08:43:56.920938 25645 net.cpp:129] Top shape: 200 256 27 27 (37324800)
I0108 08:43:56.920946 25645 net.cpp:137] Memory required for data: 1609577600
I0108 08:43:56.920958 25645 layer_factory.hpp:77] Creating layer relu2
I0108 08:43:56.920970 25645 net.cpp:84] Creating Layer relu2
I0108 08:43:56.920979 25645 net.cpp:406] relu2 <- conv2
I0108 08:43:56.920990 25645 net.cpp:367] relu2 -> conv2 (in-place)
I0108 08:43:56.921002 25645 net.cpp:122] Setting up relu2
I0108 08:43:56.921012 25645 net.cpp:129] Top shape: 200 256 27 27 (37324800)
I0108 08:43:56.921021 25645 net.cpp:137] Memory required for data: 1758876800
I0108 08:43:56.921030 25645 layer_factory.hpp:77] Creating layer pool2
I0108 08:43:56.921042 25645 net.cpp:84] Creating Layer pool2
I0108 08:43:56.921051 25645 net.cpp:406] pool2 <- conv2
I0108 08:43:56.921062 25645 net.cpp:380] pool2 -> pool2
I0108 08:43:56.921111 25645 net.cpp:122] Setting up pool2
I0108 08:43:56.921128 25645 net.cpp:129] Top shape: 200 256 13 13 (8652800)
I0108 08:43:56.921136 25645 net.cpp:137] Memory required for data: 1793488000
I0108 08:43:56.921145 25645 layer_factory.hpp:77] Creating layer quantized_conv2
I0108 08:43:56.921159 25645 net.cpp:84] Creating Layer quantized_conv2
I0108 08:43:56.921167 25645 net.cpp:406] quantized_conv2 <- pool2
I0108 08:43:56.921178 25645 net.cpp:367] quantized_conv2 -> pool2 (in-place)
I0108 08:43:56.921190 25645 net.cpp:122] Setting up quantized_conv2
I0108 08:43:56.921201 25645 net.cpp:129] Top shape: 200 256 13 13 (8652800)
I0108 08:43:56.921210 25645 net.cpp:137] Memory required for data: 1828099200
I0108 08:43:56.921218 25645 layer_factory.hpp:77] Creating layer conv3
I0108 08:43:56.921234 25645 net.cpp:84] Creating Layer conv3
I0108 08:43:56.921244 25645 net.cpp:406] conv3 <- pool2
I0108 08:43:56.921257 25645 net.cpp:380] conv3 -> conv3
I0108 08:43:56.949820 25645 net.cpp:122] Setting up conv3
I0108 08:43:56.949872 25645 net.cpp:129] Top shape: 200 384 13 13 (12979200)
I0108 08:43:56.949882 25645 net.cpp:137] Memory required for data: 1880016000
I0108 08:43:56.949898 25645 layer_factory.hpp:77] Creating layer bn3
I0108 08:43:56.949916 25645 net.cpp:84] Creating Layer bn3
I0108 08:43:56.949928 25645 net.cpp:406] bn3 <- conv3
I0108 08:43:56.949941 25645 net.cpp:367] bn3 -> conv3 (in-place)
I0108 08:43:56.950126 25645 net.cpp:122] Setting up bn3
I0108 08:43:56.950142 25645 net.cpp:129] Top shape: 200 384 13 13 (12979200)
I0108 08:43:56.950151 25645 net.cpp:137] Memory required for data: 1931932800
I0108 08:43:56.950170 25645 layer_factory.hpp:77] Creating layer scale3
I0108 08:43:56.950189 25645 net.cpp:84] Creating Layer scale3
I0108 08:43:56.950198 25645 net.cpp:406] scale3 <- conv3
I0108 08:43:56.950212 25645 net.cpp:367] scale3 -> conv3 (in-place)
I0108 08:43:56.950292 25645 layer_factory.hpp:77] Creating layer scale3
I0108 08:43:56.950443 25645 net.cpp:122] Setting up scale3
I0108 08:43:56.950461 25645 net.cpp:129] Top shape: 200 384 13 13 (12979200)
I0108 08:43:56.950470 25645 net.cpp:137] Memory required for data: 1983849600
I0108 08:43:56.950482 25645 layer_factory.hpp:77] Creating layer relu3
I0108 08:43:56.950496 25645 net.cpp:84] Creating Layer relu3
I0108 08:43:56.950505 25645 net.cpp:406] relu3 <- conv3
I0108 08:43:56.950515 25645 net.cpp:367] relu3 -> conv3 (in-place)
I0108 08:43:56.950527 25645 net.cpp:122] Setting up relu3
I0108 08:43:56.950538 25645 net.cpp:129] Top shape: 200 384 13 13 (12979200)
I0108 08:43:56.950546 25645 net.cpp:137] Memory required for data: 2035766400
I0108 08:43:56.950556 25645 layer_factory.hpp:77] Creating layer quantized_conv3
I0108 08:43:56.950568 25645 net.cpp:84] Creating Layer quantized_conv3
I0108 08:43:56.950614 25645 net.cpp:406] quantized_conv3 <- conv3
I0108 08:43:56.950628 25645 net.cpp:367] quantized_conv3 -> conv3 (in-place)
I0108 08:43:56.950640 25645 net.cpp:122] Setting up quantized_conv3
I0108 08:43:56.950651 25645 net.cpp:129] Top shape: 200 384 13 13 (12979200)
I0108 08:43:56.950659 25645 net.cpp:137] Memory required for data: 2087683200
I0108 08:43:56.950669 25645 layer_factory.hpp:77] Creating layer conv4
I0108 08:43:56.950685 25645 net.cpp:84] Creating Layer conv4
I0108 08:43:56.950695 25645 net.cpp:406] conv4 <- conv3
I0108 08:43:56.950707 25645 net.cpp:380] conv4 -> conv4
I0108 08:43:56.992455 25645 net.cpp:122] Setting up conv4
I0108 08:43:56.992511 25645 net.cpp:129] Top shape: 200 384 13 13 (12979200)
I0108 08:43:56.992522 25645 net.cpp:137] Memory required for data: 2139600000
I0108 08:43:56.992537 25645 layer_factory.hpp:77] Creating layer bn4
I0108 08:43:56.992555 25645 net.cpp:84] Creating Layer bn4
I0108 08:43:56.992566 25645 net.cpp:406] bn4 <- conv4
I0108 08:43:56.992581 25645 net.cpp:367] bn4 -> conv4 (in-place)
I0108 08:43:56.992770 25645 net.cpp:122] Setting up bn4
I0108 08:43:56.992789 25645 net.cpp:129] Top shape: 200 384 13 13 (12979200)
I0108 08:43:56.992797 25645 net.cpp:137] Memory required for data: 2191516800
I0108 08:43:56.992811 25645 layer_factory.hpp:77] Creating layer scale4
I0108 08:43:56.992830 25645 net.cpp:84] Creating Layer scale4
I0108 08:43:56.992838 25645 net.cpp:406] scale4 <- conv4
I0108 08:43:56.992851 25645 net.cpp:367] scale4 -> conv4 (in-place)
I0108 08:43:56.992902 25645 layer_factory.hpp:77] Creating layer scale4
I0108 08:43:56.993031 25645 net.cpp:122] Setting up scale4
I0108 08:43:56.993047 25645 net.cpp:129] Top shape: 200 384 13 13 (12979200)
I0108 08:43:56.993057 25645 net.cpp:137] Memory required for data: 2243433600
I0108 08:43:56.993068 25645 layer_factory.hpp:77] Creating layer relu4
I0108 08:43:56.993080 25645 net.cpp:84] Creating Layer relu4
I0108 08:43:56.993089 25645 net.cpp:406] relu4 <- conv4
I0108 08:43:56.993099 25645 net.cpp:367] relu4 -> conv4 (in-place)
I0108 08:43:56.993111 25645 net.cpp:122] Setting up relu4
I0108 08:43:56.993122 25645 net.cpp:129] Top shape: 200 384 13 13 (12979200)
I0108 08:43:56.993130 25645 net.cpp:137] Memory required for data: 2295350400
I0108 08:43:56.993139 25645 layer_factory.hpp:77] Creating layer quantized_conv4
I0108 08:43:56.993155 25645 net.cpp:84] Creating Layer quantized_conv4
I0108 08:43:56.993165 25645 net.cpp:406] quantized_conv4 <- conv4
I0108 08:43:56.993175 25645 net.cpp:367] quantized_conv4 -> conv4 (in-place)
I0108 08:43:56.993186 25645 net.cpp:122] Setting up quantized_conv4
I0108 08:43:56.993196 25645 net.cpp:129] Top shape: 200 384 13 13 (12979200)
I0108 08:43:56.993206 25645 net.cpp:137] Memory required for data: 2347267200
I0108 08:43:56.993213 25645 layer_factory.hpp:77] Creating layer conv5
I0108 08:43:56.993232 25645 net.cpp:84] Creating Layer conv5
I0108 08:43:56.993242 25645 net.cpp:406] conv5 <- conv4
I0108 08:43:56.993257 25645 net.cpp:380] conv5 -> conv5
I0108 08:43:57.021644 25645 net.cpp:122] Setting up conv5
I0108 08:43:57.021690 25645 net.cpp:129] Top shape: 200 256 13 13 (8652800)
I0108 08:43:57.021701 25645 net.cpp:137] Memory required for data: 2381878400
I0108 08:43:57.021716 25645 layer_factory.hpp:77] Creating layer bn5
I0108 08:43:57.021741 25645 net.cpp:84] Creating Layer bn5
I0108 08:43:57.021754 25645 net.cpp:406] bn5 <- conv5
I0108 08:43:57.021771 25645 net.cpp:367] bn5 -> conv5 (in-place)
I0108 08:43:57.021975 25645 net.cpp:122] Setting up bn5
I0108 08:43:57.021991 25645 net.cpp:129] Top shape: 200 256 13 13 (8652800)
I0108 08:43:57.022001 25645 net.cpp:137] Memory required for data: 2416489600
I0108 08:43:57.022022 25645 layer_factory.hpp:77] Creating layer scale5
I0108 08:43:57.022037 25645 net.cpp:84] Creating Layer scale5
I0108 08:43:57.022050 25645 net.cpp:406] scale5 <- conv5
I0108 08:43:57.022061 25645 net.cpp:367] scale5 -> conv5 (in-place)
I0108 08:43:57.022120 25645 layer_factory.hpp:77] Creating layer scale5
I0108 08:43:57.022253 25645 net.cpp:122] Setting up scale5
I0108 08:43:57.022307 25645 net.cpp:129] Top shape: 200 256 13 13 (8652800)
I0108 08:43:57.022316 25645 net.cpp:137] Memory required for data: 2451100800
I0108 08:43:57.022328 25645 layer_factory.hpp:77] Creating layer relu5
I0108 08:43:57.022347 25645 net.cpp:84] Creating Layer relu5
I0108 08:43:57.022358 25645 net.cpp:406] relu5 <- conv5
I0108 08:43:57.022368 25645 net.cpp:367] relu5 -> conv5 (in-place)
I0108 08:43:57.022380 25645 net.cpp:122] Setting up relu5
I0108 08:43:57.022392 25645 net.cpp:129] Top shape: 200 256 13 13 (8652800)
I0108 08:43:57.022399 25645 net.cpp:137] Memory required for data: 2485712000
I0108 08:43:57.022408 25645 layer_factory.hpp:77] Creating layer pool5
I0108 08:43:57.022423 25645 net.cpp:84] Creating Layer pool5
I0108 08:43:57.022433 25645 net.cpp:406] pool5 <- conv5
I0108 08:43:57.022444 25645 net.cpp:380] pool5 -> pool5
I0108 08:43:57.022495 25645 net.cpp:122] Setting up pool5
I0108 08:43:57.022511 25645 net.cpp:129] Top shape: 200 256 6 6 (1843200)
I0108 08:43:57.022518 25645 net.cpp:137] Memory required for data: 2493084800
I0108 08:43:57.022527 25645 layer_factory.hpp:77] Creating layer quantized_conv5
I0108 08:43:57.022541 25645 net.cpp:84] Creating Layer quantized_conv5
I0108 08:43:57.022549 25645 net.cpp:406] quantized_conv5 <- pool5
I0108 08:43:57.022559 25645 net.cpp:367] quantized_conv5 -> pool5 (in-place)
I0108 08:43:57.022572 25645 net.cpp:122] Setting up quantized_conv5
I0108 08:43:57.022583 25645 net.cpp:129] Top shape: 200 256 6 6 (1843200)
I0108 08:43:57.022591 25645 net.cpp:137] Memory required for data: 2500457600
I0108 08:43:57.022599 25645 layer_factory.hpp:77] Creating layer fc6
I0108 08:43:57.022615 25645 net.cpp:84] Creating Layer fc6
I0108 08:43:57.022624 25645 net.cpp:406] fc6 <- pool5
I0108 08:43:57.022639 25645 net.cpp:380] fc6 -> fc6
I0108 08:43:58.170616 25645 net.cpp:122] Setting up fc6
I0108 08:43:58.170671 25645 net.cpp:129] Top shape: 200 4096 (819200)
I0108 08:43:58.170681 25645 net.cpp:137] Memory required for data: 2503734400
I0108 08:43:58.170698 25645 layer_factory.hpp:77] Creating layer bn6
I0108 08:43:58.170718 25645 net.cpp:84] Creating Layer bn6
I0108 08:43:58.170730 25645 net.cpp:406] bn6 <- fc6
I0108 08:43:58.170744 25645 net.cpp:367] bn6 -> fc6 (in-place)
I0108 08:43:58.170943 25645 net.cpp:122] Setting up bn6
I0108 08:43:58.170964 25645 net.cpp:129] Top shape: 200 4096 (819200)
I0108 08:43:58.170981 25645 net.cpp:137] Memory required for data: 2507011200
I0108 08:43:58.170996 25645 layer_factory.hpp:77] Creating layer scale6
I0108 08:43:58.171018 25645 net.cpp:84] Creating Layer scale6
I0108 08:43:58.171030 25645 net.cpp:406] scale6 <- fc6
I0108 08:43:58.171041 25645 net.cpp:367] scale6 -> fc6 (in-place)
I0108 08:43:58.171095 25645 layer_factory.hpp:77] Creating layer scale6
I0108 08:43:58.171226 25645 net.cpp:122] Setting up scale6
I0108 08:43:58.171241 25645 net.cpp:129] Top shape: 200 4096 (819200)
I0108 08:43:58.171249 25645 net.cpp:137] Memory required for data: 2510288000
I0108 08:43:58.171262 25645 layer_factory.hpp:77] Creating layer relu6
I0108 08:43:58.171274 25645 net.cpp:84] Creating Layer relu6
I0108 08:43:58.171283 25645 net.cpp:406] relu6 <- fc6
I0108 08:43:58.171293 25645 net.cpp:367] relu6 -> fc6 (in-place)
I0108 08:43:58.171304 25645 net.cpp:122] Setting up relu6
I0108 08:43:58.171314 25645 net.cpp:129] Top shape: 200 4096 (819200)
I0108 08:43:58.171322 25645 net.cpp:137] Memory required for data: 2513564800
I0108 08:43:58.171330 25645 layer_factory.hpp:77] Creating layer drop6
I0108 08:43:58.171344 25645 net.cpp:84] Creating Layer drop6
I0108 08:43:58.171351 25645 net.cpp:406] drop6 <- fc6
I0108 08:43:58.171363 25645 net.cpp:367] drop6 -> fc6 (in-place)
I0108 08:43:58.171397 25645 net.cpp:122] Setting up drop6
I0108 08:43:58.171411 25645 net.cpp:129] Top shape: 200 4096 (819200)
I0108 08:43:58.171419 25645 net.cpp:137] Memory required for data: 2516841600
I0108 08:43:58.171428 25645 layer_factory.hpp:77] Creating layer quantized_fc6
I0108 08:43:58.171442 25645 net.cpp:84] Creating Layer quantized_fc6
I0108 08:43:58.171488 25645 net.cpp:406] quantized_fc6 <- fc6
I0108 08:43:58.171500 25645 net.cpp:367] quantized_fc6 -> fc6 (in-place)
I0108 08:43:58.171512 25645 net.cpp:122] Setting up quantized_fc6
I0108 08:43:58.171524 25645 net.cpp:129] Top shape: 200 4096 (819200)
I0108 08:43:58.171532 25645 net.cpp:137] Memory required for data: 2520118400
I0108 08:43:58.171540 25645 layer_factory.hpp:77] Creating layer fc7
I0108 08:43:58.171557 25645 net.cpp:84] Creating Layer fc7
I0108 08:43:58.171566 25645 net.cpp:406] fc7 <- fc6
I0108 08:43:58.171577 25645 net.cpp:380] fc7 -> fc7
I0108 08:43:58.677700 25645 net.cpp:122] Setting up fc7
I0108 08:43:58.677791 25645 net.cpp:129] Top shape: 200 4096 (819200)
I0108 08:43:58.677803 25645 net.cpp:137] Memory required for data: 2523395200
I0108 08:43:58.677819 25645 layer_factory.hpp:77] Creating layer bn7
I0108 08:43:58.677839 25645 net.cpp:84] Creating Layer bn7
I0108 08:43:58.677850 25645 net.cpp:406] bn7 <- fc7
I0108 08:43:58.677866 25645 net.cpp:367] bn7 -> fc7 (in-place)
I0108 08:43:58.678072 25645 net.cpp:122] Setting up bn7
I0108 08:43:58.678089 25645 net.cpp:129] Top shape: 200 4096 (819200)
I0108 08:43:58.678098 25645 net.cpp:137] Memory required for data: 2526672000
I0108 08:43:58.678112 25645 layer_factory.hpp:77] Creating layer scale7
I0108 08:43:58.678127 25645 net.cpp:84] Creating Layer scale7
I0108 08:43:58.678135 25645 net.cpp:406] scale7 <- fc7
I0108 08:43:58.678145 25645 net.cpp:367] scale7 -> fc7 (in-place)
I0108 08:43:58.678200 25645 layer_factory.hpp:77] Creating layer scale7
I0108 08:43:58.678346 25645 net.cpp:122] Setting up scale7
I0108 08:43:58.678362 25645 net.cpp:129] Top shape: 200 4096 (819200)
I0108 08:43:58.678371 25645 net.cpp:137] Memory required for data: 2529948800
I0108 08:43:58.678383 25645 layer_factory.hpp:77] Creating layer relu7
I0108 08:43:58.678395 25645 net.cpp:84] Creating Layer relu7
I0108 08:43:58.678405 25645 net.cpp:406] relu7 <- fc7
I0108 08:43:58.678417 25645 net.cpp:367] relu7 -> fc7 (in-place)
I0108 08:43:58.678431 25645 net.cpp:122] Setting up relu7
I0108 08:43:58.678441 25645 net.cpp:129] Top shape: 200 4096 (819200)
I0108 08:43:58.678449 25645 net.cpp:137] Memory required for data: 2533225600
I0108 08:43:58.678457 25645 layer_factory.hpp:77] Creating layer drop7
I0108 08:43:58.678470 25645 net.cpp:84] Creating Layer drop7
I0108 08:43:58.678479 25645 net.cpp:406] drop7 <- fc7
I0108 08:43:58.678489 25645 net.cpp:367] drop7 -> fc7 (in-place)
I0108 08:43:58.678524 25645 net.cpp:122] Setting up drop7
I0108 08:43:58.678539 25645 net.cpp:129] Top shape: 200 4096 (819200)
I0108 08:43:58.678548 25645 net.cpp:137] Memory required for data: 2536502400
I0108 08:43:58.678556 25645 layer_factory.hpp:77] Creating layer quantized_fc7
I0108 08:43:58.678570 25645 net.cpp:84] Creating Layer quantized_fc7
I0108 08:43:58.678580 25645 net.cpp:406] quantized_fc7 <- fc7
I0108 08:43:58.678591 25645 net.cpp:367] quantized_fc7 -> fc7 (in-place)
I0108 08:43:58.678606 25645 net.cpp:122] Setting up quantized_fc7
I0108 08:43:58.678616 25645 net.cpp:129] Top shape: 200 4096 (819200)
I0108 08:43:58.678623 25645 net.cpp:137] Memory required for data: 2539779200
I0108 08:43:58.678632 25645 layer_factory.hpp:77] Creating layer fc8
I0108 08:43:58.678647 25645 net.cpp:84] Creating Layer fc8
I0108 08:43:58.678655 25645 net.cpp:406] fc8 <- fc7
I0108 08:43:58.678669 25645 net.cpp:380] fc8 -> fc8
I0108 08:43:58.802642 25645 net.cpp:122] Setting up fc8
I0108 08:43:58.802702 25645 net.cpp:129] Top shape: 200 1000 (200000)
I0108 08:43:58.802713 25645 net.cpp:137] Memory required for data: 2540579200
I0108 08:43:58.802731 25645 layer_factory.hpp:77] Creating layer fc8_fc8_0_split
I0108 08:43:58.802749 25645 net.cpp:84] Creating Layer fc8_fc8_0_split
I0108 08:43:58.802760 25645 net.cpp:406] fc8_fc8_0_split <- fc8
I0108 08:43:58.802778 25645 net.cpp:380] fc8_fc8_0_split -> fc8_fc8_0_split_0
I0108 08:43:58.802799 25645 net.cpp:380] fc8_fc8_0_split -> fc8_fc8_0_split_1
I0108 08:43:58.802811 25645 net.cpp:380] fc8_fc8_0_split -> fc8_fc8_0_split_2
I0108 08:43:58.802880 25645 net.cpp:122] Setting up fc8_fc8_0_split
I0108 08:43:58.802929 25645 net.cpp:129] Top shape: 200 1000 (200000)
I0108 08:43:58.802940 25645 net.cpp:129] Top shape: 200 1000 (200000)
I0108 08:43:58.802949 25645 net.cpp:129] Top shape: 200 1000 (200000)
I0108 08:43:58.802963 25645 net.cpp:137] Memory required for data: 2542979200
I0108 08:43:58.802971 25645 layer_factory.hpp:77] Creating layer accuracy
I0108 08:43:58.802989 25645 net.cpp:84] Creating Layer accuracy
I0108 08:43:58.802999 25645 net.cpp:406] accuracy <- fc8_fc8_0_split_0
I0108 08:43:58.803009 25645 net.cpp:406] accuracy <- label_data_1_split_0
I0108 08:43:58.803020 25645 net.cpp:380] accuracy -> accuracy
…
