…
I0109 19:51:12.006784   473 net.cpp:294] The NetState phase (0) differed from the phase (1) specified by a rule in layer accuracy_5
I0109 19:51:12.007052   473 net.cpp:51] Initializing net from parameters: 
name: "AlexNet-BN"
state {
  phase: TRAIN
  level: 0
  stage: ""
}
layer {
  name: "data"
  type: "Data"
  top: "data"
  top: "label"
  include {
    phase: TRAIN
  }
  transform_param {
    mirror: true
    crop_size: 224
    mean_value: 103.939
    mean_value: 116.779
    mean_value: 123.68
  }
  data_param {
    source: "/home/ydwu/database/imagenet/ilsvrc12/lmdb_resize/ilsvrc12_train_lmdb"
    batch_size: 200
    backend: LMDB
  }
}
layer {
  name: "conv1"
  type: "Convolution"
  bottom: "data"
  top: "conv1"
  param {
    lr_mult: 1
    decay_mult: 1
  }
  param {
    lr_mult: 2
    decay_mult: 0
  }
  convolution_param {
    num_output: 96
    pad: 2
    kernel_size: 11
    stride: 4
    weight_filler {
      type: "gaussian"
      std: 0.01
    }
    bias_filler {
      type: "constant"
      value: 0
    }
  }
}
layer {
  name: "bn1"
  type: "BatchNorm"
  bottom: "conv1"
  top: "conv1"
}
layer {
  name: "scale1"
  type: "Scale"
  bottom: "conv1"
  top: "conv1"
  scale_param {
    bias_term: true
  }
}
layer {
  name: "relu1"
  type: "ReLU"
  bottom: "conv1"
  top: "conv1"
}
layer {
  name: "pool1"
  type: "Pooling"
  bottom: "conv1"
  top: "pool1"
  pooling_param {
    pool: MAX
    kernel_size: 3
    stride: 2
  }
}
layer {
  name: "quantized_conv1"
  type: "Quantization"
  bottom: "pool1"
  top: "pool1"
  quantization_param {
    round_method: FLOOR
    round_strategy: AGGRESSIVE
    bit_width: 4
    range: 0
    range: 13.965383
  }
}
layer {
  name: "conv2"
  type: "Convolution"
  bottom: "pool1"
  top: "conv2"
  param {
    lr_mult: 1
    decay_mult: 1
  }
  param {
    lr_mult: 2
    decay_mult: 0
  }
  convolution_param {
    num_output: 256
    pad: 2
    kernel_size: 5
    weight_filler {
      type: "gaussian"
      std: 0.01
    }
    bias_filler {
      type: "constant"
      value: 0.1
    }
  }
}
layer {
  name: "bn2"
  type: "BatchNorm"
  bottom: "conv2"
  top: "conv2"
}
layer {
  name: "scale2"
  type: "Scale"
  bottom: "conv2"
  top: "conv2"
  scale_param {
    bias_term: true
  }
}
layer {
  name: "relu2"
  type: "ReLU"
  bottom: "conv2"
  top: "conv2"
}
layer {
  name: "pool2"
  type: "Pooling"
  bottom: "conv2"
  top: "pool2"
  pooling_param {
    pool: MAX
    kernel_size: 3
    stride: 2
  }
}
layer {
  name: "quantized_conv2"
  type: "Quantization"
  bottom: "pool2"
  top: "pool2"
  quantization_param {
    round_method: FLOOR
    round_strategy: AGGRESSIVE
    bit_width: 4
    range: 0
    range: 6.74956
  }
}
layer {
  name: "conv3"
  type: "Convolution"
  bottom: "pool2"
  top: "conv3"
  param {
    lr_mult: 1
    decay_mult: 1
  }
  param {
    lr_mult: 2
    decay_mult: 0
  }
  convolution_param {
    num_output: 384
    pad: 1
    kernel_size: 3
    weight_filler {
      type: "gaussian"
      std: 0.01
    }
    bias_filler {
      type: "constant"
      value: 0
    }
  }
}
layer {
  name: "bn3"
  type: "BatchNorm"
  bottom: "conv3"
  top: "conv3"
}
layer {
  name: "scale3"
  type: "Scale"
  bottom: "conv3"
  top: "conv3"
  scale_param {
    bias_term: true
  }
}
layer {
  name: "relu3"
  type: "ReLU"
  bottom: "conv3"
  top: "conv3"
}
layer {
  name: "quantized_conv3"
  type: "Quantization"
  bottom: "conv3"
  top: "conv3"
  quantization_param {
    round_method: FLOOR
    round_strategy: AGGRESSIVE
    bit_width: 4
    range: 0
    range: 8.48454
  }
}
layer {
  name: "conv4"
  type: "Convolution"
  bottom: "conv3"
  top: "conv4"
  param {
    lr_mult: 1
    decay_mult: 1
  }
  param {
    lr_mult: 2
    decay_mult: 0
  }
  convolution_param {
    num_output: 384
    pad: 1
    kernel_size: 3
    weight_filler {
      type: "gaussian"
      std: 0.01
    }
    bias_filler {
      type: "constant"
      value: 0.1
    }
  }
}
layer {
  name: "bn4"
  type: "BatchNorm"
  bottom: "conv4"
  top: "conv4"
}
layer {
  name: "scale4"
  type: "Scale"
  bottom: "conv4"
  top: "conv4"
  scale_param {
    bias_term: true
  }
}
layer {
  name: "relu4"
  type: "ReLU"
  bottom: "conv4"
  top: "conv4"
}
layer {
  name: "quantized_conv4"
  type: "Quantization"
  bottom: "conv4"
  top: "conv4"
  quantization_param {
    round_method: FLOOR
    round_strategy: AGGRESSIVE
    bit_width: 4
    range: 0
    range: 7.3369722
  }
}
layer {
  name: "conv5"
  type: "Convolution"
  bottom: "conv4"
  top: "conv5"
  param {
    lr_mult: 1
    decay_mult: 1
  }
  param {
    lr_mult: 2
    decay_mult: 0
  }
  convolution_param {
    num_output: 256
    pad: 1
    kernel_size: 3
    weight_filler {
      type: "gaussian"
      std: 0.01
    }
    bias_filler {
      type: "constant"
      value: 0.1
    }
  }
}
layer {
  name: "bn5"
  type: "BatchNorm"
  bottom: "conv5"
  top: "conv5"
}
layer {
  name: "scale5"
  type: "Scale"
  bottom: "conv5"
  top: "conv5"
  scale_param {
    bias_term: true
  }
}
layer {
  name: "relu5"
  type: "ReLU"
  bottom: "conv5"
  top: "conv5"
}
layer {
  name: "pool5"
  type: "Pooling"
  bottom: "conv5"
  top: "pool5"
  pooling_param {
    pool: MAX
    kernel_size: 3
    stride: 2
  }
}
layer {
  name: "quantized_conv5"
  type: "Quantization"
  bottom: "pool5"
  top: "pool5"
  quantization_param {
    round_method: FLOOR
    round_strategy: AGGRESSIVE
    bit_width: 4
    range: 0
    range: 8.7577133
  }
}
layer {
  name: "fc6"
  type: "InnerProduct"
  bottom: "pool5"
  top: "fc6"
  param {
    lr_mult: 1
    decay_mult: 1
  }
  param {
    lr_mult: 2
    decay_mult: 0
  }
  inner_product_param {
    num_output: 4096
    weight_filler {
      type: "gaussian"
      std: 0.005
    }
    bias_filler {
      type: "constant"
      value: 0.1
    }
  }
}
layer {
  name: "bn6"
  type: "BatchNorm"
  bottom: "fc6"
  top: "fc6"
}
layer {
  name: "scale6"
  type: "Scale"
  bottom: "fc6"
  top: "fc6"
  scale_param {
    bias_term: true
  }
}
layer {
  name: "relu6"
  type: "ReLU"
  bottom: "fc6"
  top: "fc6"
}
layer {
  name: "drop6"
  type: "Dropout"
  bottom: "fc6"
  top: "fc6"
  dropout_param {
    dropout_ratio: 0.5
  }
}
layer {
  name: "quantized_fc6"
  type: "Quantization"
  bottom: "fc6"
  top: "fc6"
  quantization_param {
    round_method: FLOOR
    round_strategy: AGGRESSIVE
    bit_width: 4
    range: 0
    range: 1.659358
  }
}
layer {
  name: "fc7"
  type: "InnerProduct"
  bottom: "fc6"
  top: "fc7"
  param {
    lr_mult: 1
    decay_mult: 1
  }
  param {
    lr_mult: 2
    decay_mult: 0
  }
  inner_product_param {
    num_output: 4096
    weight_filler {
      type: "gaussian"
      std: 0.005
    }
    bias_filler {
      type: "constant"
      value: 0.1
    }
  }
}
layer {
  name: "bn7"
  type: "BatchNorm"
  bottom: "fc7"
  top: "fc7"
}
layer {
  name: "scale7"
  type: "Scale"
  bottom: "fc7"
  top: "fc7"
  scale_param {
    bias_term: true
  }
}
layer {
  name: "relu7"
  type: "ReLU"
  bottom: "fc7"
  top: "fc7"
}
layer {
  name: "drop7"
  type: "Dropout"
  bottom: "fc7"
  top: "fc7"
  dropout_param {
    dropout_ratio: 0.5
  }
}
layer {
  name: "quantized_fc7"
  type: "Quantization"
  bottom: "fc7"
  top: "fc7"
  quantization_param {
    round_method: FLOOR
    round_strategy: AGGRESSIVE
    bit_width: 4
    range: 0
    range: 7.5598521
  }
}
layer {
  name: "fc8"
  type: "InnerProduct"
  bottom: "fc7"
  top: "fc8"
  param {
    lr_mult: 1
    decay_mult: 1
  }
  param {
    lr_mult: 2
    decay_mult: 0
  }
  inner_product_param {
    num_output: 1000
    weight_filler {
      type: "gaussian"
      std: 0.01
    }
    bias_filler {
      type: "constant"
      value: 0
    }
  }
}
layer {
  name: "accuracy_5_TRAIN"
  type: "Accuracy"
  bottom: "fc8"
  bottom: "label"
  top: "accuracy_5_TRAIN"
  include {
    phase: TRAIN
  }
  accuracy_param {
    top_k: 5
  }
}
layer {
  name: "loss"
  type: "SoftmaxWithLoss"
  bottom: "fc8"
  bottom: "label"
  top: "loss"
}
I0109 19:51:12.007306   473 layer_factory.hpp:77] Creating layer data
I0109 19:51:12.007421   473 db_lmdb.cpp:35] Opened lmdb /home/ydwu/database/imagenet/ilsvrc12/lmdb_resize/ilsvrc12_train_lmdb
I0109 19:51:12.007481   473 net.cpp:84] Creating Layer data
I0109 19:51:12.007504   473 net.cpp:380] data -> data
I0109 19:51:12.007539   473 net.cpp:380] data -> label
I0109 19:51:12.009320   473 data_layer.cpp:45] output data size: 200,3,224,224
I0109 19:51:12.366999   473 net.cpp:122] Setting up data
I0109 19:51:12.367105   473 net.cpp:129] Top shape: 200 3 224 224 (30105600)
I0109 19:51:12.367120   473 net.cpp:129] Top shape: 200 (200)
I0109 19:51:12.367130   473 net.cpp:137] Memory required for data: 120423200
I0109 19:51:12.367151   473 layer_factory.hpp:77] Creating layer label_data_1_split
I0109 19:51:12.367180   473 net.cpp:84] Creating Layer label_data_1_split
I0109 19:51:12.367197   473 net.cpp:406] label_data_1_split <- label
I0109 19:51:12.367223   473 net.cpp:380] label_data_1_split -> label_data_1_split_0
I0109 19:51:12.367245   473 net.cpp:380] label_data_1_split -> label_data_1_split_1
I0109 19:51:12.367317   473 net.cpp:122] Setting up label_data_1_split
I0109 19:51:12.367336   473 net.cpp:129] Top shape: 200 (200)
I0109 19:51:12.367346   473 net.cpp:129] Top shape: 200 (200)
I0109 19:51:12.367354   473 net.cpp:137] Memory required for data: 120424800
I0109 19:51:12.367364   473 layer_factory.hpp:77] Creating layer conv1
I0109 19:51:12.367395   473 net.cpp:84] Creating Layer conv1
I0109 19:51:12.367406   473 net.cpp:406] conv1 <- data
I0109 19:51:12.367421   473 net.cpp:380] conv1 -> conv1
I0109 19:51:12.392681   473 net.cpp:122] Setting up conv1
I0109 19:51:12.392762   473 net.cpp:129] Top shape: 200 96 55 55 (58080000)
I0109 19:51:12.392774   473 net.cpp:137] Memory required for data: 352744800
I0109 19:51:12.392807   473 layer_factory.hpp:77] Creating layer bn1
I0109 19:51:12.392830   473 net.cpp:84] Creating Layer bn1
I0109 19:51:12.392841   473 net.cpp:406] bn1 <- conv1
I0109 19:51:12.392854   473 net.cpp:367] bn1 -> conv1 (in-place)
I0109 19:51:12.393048   473 net.cpp:122] Setting up bn1
I0109 19:51:12.393065   473 net.cpp:129] Top shape: 200 96 55 55 (58080000)
I0109 19:51:12.393075   473 net.cpp:137] Memory required for data: 585064800
I0109 19:51:12.393092   473 layer_factory.hpp:77] Creating layer scale1
I0109 19:51:12.393112   473 net.cpp:84] Creating Layer scale1
I0109 19:51:12.393123   473 net.cpp:406] scale1 <- conv1
I0109 19:51:12.393136   473 net.cpp:367] scale1 -> conv1 (in-place)
I0109 19:51:12.393196   473 layer_factory.hpp:77] Creating layer scale1
I0109 19:51:12.393333   473 net.cpp:122] Setting up scale1
I0109 19:51:12.393352   473 net.cpp:129] Top shape: 200 96 55 55 (58080000)
I0109 19:51:12.393362   473 net.cpp:137] Memory required for data: 817384800
I0109 19:51:12.393374   473 layer_factory.hpp:77] Creating layer relu1
I0109 19:51:12.393391   473 net.cpp:84] Creating Layer relu1
I0109 19:51:12.393401   473 net.cpp:406] relu1 <- conv1
I0109 19:51:12.393414   473 net.cpp:367] relu1 -> conv1 (in-place)
I0109 19:51:12.393427   473 net.cpp:122] Setting up relu1
I0109 19:51:12.393440   473 net.cpp:129] Top shape: 200 96 55 55 (58080000)
I0109 19:51:12.393450   473 net.cpp:137] Memory required for data: 1049704800
I0109 19:51:12.393458   473 layer_factory.hpp:77] Creating layer pool1
I0109 19:51:12.393472   473 net.cpp:84] Creating Layer pool1
I0109 19:51:12.393482   473 net.cpp:406] pool1 <- conv1
I0109 19:51:12.393532   473 net.cpp:380] pool1 -> pool1
I0109 19:51:12.393594   473 net.cpp:122] Setting up pool1
I0109 19:51:12.393610   473 net.cpp:129] Top shape: 200 96 27 27 (13996800)
I0109 19:51:12.393620   473 net.cpp:137] Memory required for data: 1105692000
I0109 19:51:12.393630   473 layer_factory.hpp:77] Creating layer quantized_conv1
I0109 19:51:12.393647   473 net.cpp:84] Creating Layer quantized_conv1
I0109 19:51:12.393657   473 net.cpp:406] quantized_conv1 <- pool1
I0109 19:51:12.393669   473 net.cpp:367] quantized_conv1 -> pool1 (in-place)
I0109 19:51:12.393685   473 net.cpp:122] Setting up quantized_conv1
I0109 19:51:12.393698   473 net.cpp:129] Top shape: 200 96 27 27 (13996800)
I0109 19:51:12.393707   473 net.cpp:137] Memory required for data: 1161679200
I0109 19:51:12.393717   473 layer_factory.hpp:77] Creating layer conv2
I0109 19:51:12.393735   473 net.cpp:84] Creating Layer conv2
I0109 19:51:12.393746   473 net.cpp:406] conv2 <- pool1
I0109 19:51:12.393759   473 net.cpp:380] conv2 -> conv2
I0109 19:51:12.414710   473 net.cpp:122] Setting up conv2
I0109 19:51:12.414753   473 net.cpp:129] Top shape: 200 256 27 27 (37324800)
I0109 19:51:12.414764   473 net.cpp:137] Memory required for data: 1310978400
I0109 19:51:12.414785   473 layer_factory.hpp:77] Creating layer bn2
I0109 19:51:12.414803   473 net.cpp:84] Creating Layer bn2
I0109 19:51:12.414815   473 net.cpp:406] bn2 <- conv2
I0109 19:51:12.414829   473 net.cpp:367] bn2 -> conv2 (in-place)
I0109 19:51:12.415012   473 net.cpp:122] Setting up bn2
I0109 19:51:12.415030   473 net.cpp:129] Top shape: 200 256 27 27 (37324800)
I0109 19:51:12.415040   473 net.cpp:137] Memory required for data: 1460277600
I0109 19:51:12.415055   473 layer_factory.hpp:77] Creating layer scale2
I0109 19:51:12.415069   473 net.cpp:84] Creating Layer scale2
I0109 19:51:12.415079   473 net.cpp:406] scale2 <- conv2
I0109 19:51:12.415091   473 net.cpp:367] scale2 -> conv2 (in-place)
I0109 19:51:12.415143   473 layer_factory.hpp:77] Creating layer scale2
I0109 19:51:12.415256   473 net.cpp:122] Setting up scale2
I0109 19:51:12.415273   473 net.cpp:129] Top shape: 200 256 27 27 (37324800)
I0109 19:51:12.415282   473 net.cpp:137] Memory required for data: 1609576800
I0109 19:51:12.415295   473 layer_factory.hpp:77] Creating layer relu2
I0109 19:51:12.415308   473 net.cpp:84] Creating Layer relu2
I0109 19:51:12.415318   473 net.cpp:406] relu2 <- conv2
I0109 19:51:12.415330   473 net.cpp:367] relu2 -> conv2 (in-place)
I0109 19:51:12.415343   473 net.cpp:122] Setting up relu2
I0109 19:51:12.415354   473 net.cpp:129] Top shape: 200 256 27 27 (37324800)
I0109 19:51:12.415362   473 net.cpp:137] Memory required for data: 1758876000
I0109 19:51:12.415371   473 layer_factory.hpp:77] Creating layer pool2
I0109 19:51:12.415385   473 net.cpp:84] Creating Layer pool2
I0109 19:51:12.415395   473 net.cpp:406] pool2 <- conv2
I0109 19:51:12.415406   473 net.cpp:380] pool2 -> pool2
I0109 19:51:12.415452   473 net.cpp:122] Setting up pool2
I0109 19:51:12.415467   473 net.cpp:129] Top shape: 200 256 13 13 (8652800)
I0109 19:51:12.415477   473 net.cpp:137] Memory required for data: 1793487200
I0109 19:51:12.415486   473 layer_factory.hpp:77] Creating layer quantized_conv2
I0109 19:51:12.415501   473 net.cpp:84] Creating Layer quantized_conv2
I0109 19:51:12.415511   473 net.cpp:406] quantized_conv2 <- pool2
I0109 19:51:12.415522   473 net.cpp:367] quantized_conv2 -> pool2 (in-place)
I0109 19:51:12.415536   473 net.cpp:122] Setting up quantized_conv2
I0109 19:51:12.415547   473 net.cpp:129] Top shape: 200 256 13 13 (8652800)
I0109 19:51:12.415557   473 net.cpp:137] Memory required for data: 1828098400
I0109 19:51:12.415566   473 layer_factory.hpp:77] Creating layer conv3
I0109 19:51:12.415583   473 net.cpp:84] Creating Layer conv3
I0109 19:51:12.415593   473 net.cpp:406] conv3 <- pool2
I0109 19:51:12.415606   473 net.cpp:380] conv3 -> conv3
I0109 19:51:12.443439   473 net.cpp:122] Setting up conv3
I0109 19:51:12.443495   473 net.cpp:129] Top shape: 200 384 13 13 (12979200)
I0109 19:51:12.443505   473 net.cpp:137] Memory required for data: 1880015200
I0109 19:51:12.443563   473 layer_factory.hpp:77] Creating layer bn3
I0109 19:51:12.443584   473 net.cpp:84] Creating Layer bn3
I0109 19:51:12.443595   473 net.cpp:406] bn3 <- conv3
I0109 19:51:12.443610   473 net.cpp:367] bn3 -> conv3 (in-place)
I0109 19:51:12.443789   473 net.cpp:122] Setting up bn3
I0109 19:51:12.443805   473 net.cpp:129] Top shape: 200 384 13 13 (12979200)
I0109 19:51:12.443814   473 net.cpp:137] Memory required for data: 1931932000
I0109 19:51:12.443835   473 layer_factory.hpp:77] Creating layer scale3
I0109 19:51:12.443855   473 net.cpp:84] Creating Layer scale3
I0109 19:51:12.443864   473 net.cpp:406] scale3 <- conv3
I0109 19:51:12.443876   473 net.cpp:367] scale3 -> conv3 (in-place)
I0109 19:51:12.443928   473 layer_factory.hpp:77] Creating layer scale3
I0109 19:51:12.444044   473 net.cpp:122] Setting up scale3
I0109 19:51:12.444061   473 net.cpp:129] Top shape: 200 384 13 13 (12979200)
I0109 19:51:12.444070   473 net.cpp:137] Memory required for data: 1983848800
I0109 19:51:12.444082   473 layer_factory.hpp:77] Creating layer relu3
I0109 19:51:12.444097   473 net.cpp:84] Creating Layer relu3
I0109 19:51:12.444105   473 net.cpp:406] relu3 <- conv3
I0109 19:51:12.444116   473 net.cpp:367] relu3 -> conv3 (in-place)
I0109 19:51:12.444129   473 net.cpp:122] Setting up relu3
I0109 19:51:12.444140   473 net.cpp:129] Top shape: 200 384 13 13 (12979200)
I0109 19:51:12.444149   473 net.cpp:137] Memory required for data: 2035765600
I0109 19:51:12.444159   473 layer_factory.hpp:77] Creating layer quantized_conv3
I0109 19:51:12.444172   473 net.cpp:84] Creating Layer quantized_conv3
I0109 19:51:12.444181   473 net.cpp:406] quantized_conv3 <- conv3
I0109 19:51:12.444193   473 net.cpp:367] quantized_conv3 -> conv3 (in-place)
I0109 19:51:12.444205   473 net.cpp:122] Setting up quantized_conv3
I0109 19:51:12.444217   473 net.cpp:129] Top shape: 200 384 13 13 (12979200)
I0109 19:51:12.444226   473 net.cpp:137] Memory required for data: 2087682400
I0109 19:51:12.444236   473 layer_factory.hpp:77] Creating layer conv4
I0109 19:51:12.444252   473 net.cpp:84] Creating Layer conv4
I0109 19:51:12.444263   473 net.cpp:406] conv4 <- conv3
I0109 19:51:12.444275   473 net.cpp:380] conv4 -> conv4
I0109 19:51:12.485975   473 net.cpp:122] Setting up conv4
I0109 19:51:12.486035   473 net.cpp:129] Top shape: 200 384 13 13 (12979200)
I0109 19:51:12.486047   473 net.cpp:137] Memory required for data: 2139599200
I0109 19:51:12.486063   473 layer_factory.hpp:77] Creating layer bn4
I0109 19:51:12.486083   473 net.cpp:84] Creating Layer bn4
I0109 19:51:12.486094   473 net.cpp:406] bn4 <- conv4
I0109 19:51:12.486109   473 net.cpp:367] bn4 -> conv4 (in-place)
I0109 19:51:12.486292   473 net.cpp:122] Setting up bn4
I0109 19:51:12.486310   473 net.cpp:129] Top shape: 200 384 13 13 (12979200)
I0109 19:51:12.486320   473 net.cpp:137] Memory required for data: 2191516000
I0109 19:51:12.486333   473 layer_factory.hpp:77] Creating layer scale4
I0109 19:51:12.486349   473 net.cpp:84] Creating Layer scale4
I0109 19:51:12.486358   473 net.cpp:406] scale4 <- conv4
I0109 19:51:12.486369   473 net.cpp:367] scale4 -> conv4 (in-place)
I0109 19:51:12.486424   473 layer_factory.hpp:77] Creating layer scale4
I0109 19:51:12.486555   473 net.cpp:122] Setting up scale4
I0109 19:51:12.486573   473 net.cpp:129] Top shape: 200 384 13 13 (12979200)
I0109 19:51:12.486582   473 net.cpp:137] Memory required for data: 2243432800
I0109 19:51:12.486595   473 layer_factory.hpp:77] Creating layer relu4
I0109 19:51:12.486611   473 net.cpp:84] Creating Layer relu4
I0109 19:51:12.486623   473 net.cpp:406] relu4 <- conv4
I0109 19:51:12.486632   473 net.cpp:367] relu4 -> conv4 (in-place)
I0109 19:51:12.486647   473 net.cpp:122] Setting up relu4
I0109 19:51:12.486660   473 net.cpp:129] Top shape: 200 384 13 13 (12979200)
I0109 19:51:12.486670   473 net.cpp:137] Memory required for data: 2295349600
I0109 19:51:12.486678   473 layer_factory.hpp:77] Creating layer quantized_conv4
I0109 19:51:12.486692   473 net.cpp:84] Creating Layer quantized_conv4
I0109 19:51:12.486739   473 net.cpp:406] quantized_conv4 <- conv4
I0109 19:51:12.486752   473 net.cpp:367] quantized_conv4 -> conv4 (in-place)
I0109 19:51:12.486765   473 net.cpp:122] Setting up quantized_conv4
I0109 19:51:12.486776   473 net.cpp:129] Top shape: 200 384 13 13 (12979200)
I0109 19:51:12.486785   473 net.cpp:137] Memory required for data: 2347266400
I0109 19:51:12.486794   473 layer_factory.hpp:77] Creating layer conv5
I0109 19:51:12.486814   473 net.cpp:84] Creating Layer conv5
I0109 19:51:12.486825   473 net.cpp:406] conv5 <- conv4
I0109 19:51:12.486840   473 net.cpp:380] conv5 -> conv5
I0109 19:51:12.514879   473 net.cpp:122] Setting up conv5
I0109 19:51:12.514936   473 net.cpp:129] Top shape: 200 256 13 13 (8652800)
I0109 19:51:12.514946   473 net.cpp:137] Memory required for data: 2381877600
I0109 19:51:12.514968   473 layer_factory.hpp:77] Creating layer bn5
I0109 19:51:12.514991   473 net.cpp:84] Creating Layer bn5
I0109 19:51:12.515003   473 net.cpp:406] bn5 <- conv5
I0109 19:51:12.515018   473 net.cpp:367] bn5 -> conv5 (in-place)
I0109 19:51:12.515210   473 net.cpp:122] Setting up bn5
I0109 19:51:12.515226   473 net.cpp:129] Top shape: 200 256 13 13 (8652800)
I0109 19:51:12.515236   473 net.cpp:137] Memory required for data: 2416488800
I0109 19:51:12.515259   473 layer_factory.hpp:77] Creating layer scale5
I0109 19:51:12.515276   473 net.cpp:84] Creating Layer scale5
I0109 19:51:12.515285   473 net.cpp:406] scale5 <- conv5
I0109 19:51:12.515300   473 net.cpp:367] scale5 -> conv5 (in-place)
I0109 19:51:12.515359   473 layer_factory.hpp:77] Creating layer scale5
I0109 19:51:12.515485   473 net.cpp:122] Setting up scale5
I0109 19:51:12.515501   473 net.cpp:129] Top shape: 200 256 13 13 (8652800)
I0109 19:51:12.515511   473 net.cpp:137] Memory required for data: 2451100000
I0109 19:51:12.515522   473 layer_factory.hpp:77] Creating layer relu5
I0109 19:51:12.515538   473 net.cpp:84] Creating Layer relu5
I0109 19:51:12.515548   473 net.cpp:406] relu5 <- conv5
I0109 19:51:12.515559   473 net.cpp:367] relu5 -> conv5 (in-place)
I0109 19:51:12.515573   473 net.cpp:122] Setting up relu5
I0109 19:51:12.515583   473 net.cpp:129] Top shape: 200 256 13 13 (8652800)
I0109 19:51:12.515592   473 net.cpp:137] Memory required for data: 2485711200
I0109 19:51:12.515601   473 layer_factory.hpp:77] Creating layer pool5
I0109 19:51:12.515614   473 net.cpp:84] Creating Layer pool5
I0109 19:51:12.515624   473 net.cpp:406] pool5 <- conv5
I0109 19:51:12.515638   473 net.cpp:380] pool5 -> pool5
I0109 19:51:12.515686   473 net.cpp:122] Setting up pool5
I0109 19:51:12.515703   473 net.cpp:129] Top shape: 200 256 6 6 (1843200)
I0109 19:51:12.515712   473 net.cpp:137] Memory required for data: 2493084000
I0109 19:51:12.515722   473 layer_factory.hpp:77] Creating layer quantized_conv5
I0109 19:51:12.515740   473 net.cpp:84] Creating Layer quantized_conv5
I0109 19:51:12.515751   473 net.cpp:406] quantized_conv5 <- pool5
I0109 19:51:12.515763   473 net.cpp:367] quantized_conv5 -> pool5 (in-place)
I0109 19:51:12.515776   473 net.cpp:122] Setting up quantized_conv5
I0109 19:51:12.515789   473 net.cpp:129] Top shape: 200 256 6 6 (1843200)
I0109 19:51:12.515797   473 net.cpp:137] Memory required for data: 2500456800
I0109 19:51:12.515806   473 layer_factory.hpp:77] Creating layer fc6
I0109 19:51:12.515827   473 net.cpp:84] Creating Layer fc6
I0109 19:51:12.515837   473 net.cpp:406] fc6 <- pool5
I0109 19:51:12.515849   473 net.cpp:380] fc6 -> fc6
I0109 19:51:13.657629   473 net.cpp:122] Setting up fc6
I0109 19:51:13.657750   473 net.cpp:129] Top shape: 200 4096 (819200)
I0109 19:51:13.657762   473 net.cpp:137] Memory required for data: 2503733600
I0109 19:51:13.657778   473 layer_factory.hpp:77] Creating layer bn6
I0109 19:51:13.657801   473 net.cpp:84] Creating Layer bn6
I0109 19:51:13.657814   473 net.cpp:406] bn6 <- fc6
I0109 19:51:13.657827   473 net.cpp:367] bn6 -> fc6 (in-place)
I0109 19:51:13.658017   473 net.cpp:122] Setting up bn6
I0109 19:51:13.658035   473 net.cpp:129] Top shape: 200 4096 (819200)
I0109 19:51:13.658082   473 net.cpp:137] Memory required for data: 2507010400
I0109 19:51:13.658097   473 layer_factory.hpp:77] Creating layer scale6
I0109 19:51:13.658119   473 net.cpp:84] Creating Layer scale6
I0109 19:51:13.658130   473 net.cpp:406] scale6 <- fc6
I0109 19:51:13.658141   473 net.cpp:367] scale6 -> fc6 (in-place)
I0109 19:51:13.658195   473 layer_factory.hpp:77] Creating layer scale6
I0109 19:51:13.658325   473 net.cpp:122] Setting up scale6
I0109 19:51:13.658342   473 net.cpp:129] Top shape: 200 4096 (819200)
I0109 19:51:13.658351   473 net.cpp:137] Memory required for data: 2510287200
I0109 19:51:13.658363   473 layer_factory.hpp:77] Creating layer relu6
I0109 19:51:13.658380   473 net.cpp:84] Creating Layer relu6
I0109 19:51:13.658390   473 net.cpp:406] relu6 <- fc6
I0109 19:51:13.658399   473 net.cpp:367] relu6 -> fc6 (in-place)
I0109 19:51:13.658411   473 net.cpp:122] Setting up relu6
I0109 19:51:13.658422   473 net.cpp:129] Top shape: 200 4096 (819200)
I0109 19:51:13.658432   473 net.cpp:137] Memory required for data: 2513564000
I0109 19:51:13.658440   473 layer_factory.hpp:77] Creating layer drop6
I0109 19:51:13.658460   473 net.cpp:84] Creating Layer drop6
I0109 19:51:13.658470   473 net.cpp:406] drop6 <- fc6
I0109 19:51:13.658481   473 net.cpp:367] drop6 -> fc6 (in-place)
I0109 19:51:13.658521   473 net.cpp:122] Setting up drop6
I0109 19:51:13.658536   473 net.cpp:129] Top shape: 200 4096 (819200)
I0109 19:51:13.658545   473 net.cpp:137] Memory required for data: 2516840800
I0109 19:51:13.658555   473 layer_factory.hpp:77] Creating layer quantized_fc6
I0109 19:51:13.658571   473 net.cpp:84] Creating Layer quantized_fc6
I0109 19:51:13.658581   473 net.cpp:406] quantized_fc6 <- fc6
I0109 19:51:13.658592   473 net.cpp:367] quantized_fc6 -> fc6 (in-place)
I0109 19:51:13.658605   473 net.cpp:122] Setting up quantized_fc6
I0109 19:51:13.658615   473 net.cpp:129] Top shape: 200 4096 (819200)
I0109 19:51:13.658624   473 net.cpp:137] Memory required for data: 2520117600
I0109 19:51:13.658633   473 layer_factory.hpp:77] Creating layer fc7
I0109 19:51:13.658646   473 net.cpp:84] Creating Layer fc7
I0109 19:51:13.658656   473 net.cpp:406] fc7 <- fc6
I0109 19:51:13.658668   473 net.cpp:380] fc7 -> fc7
I0109 19:51:14.163185   473 net.cpp:122] Setting up fc7
I0109 19:51:14.163306   473 net.cpp:129] Top shape: 200 4096 (819200)
I0109 19:51:14.163318   473 net.cpp:137] Memory required for data: 2523394400
I0109 19:51:14.163334   473 layer_factory.hpp:77] Creating layer bn7
I0109 19:51:14.163357   473 net.cpp:84] Creating Layer bn7
I0109 19:51:14.163369   473 net.cpp:406] bn7 <- fc7
I0109 19:51:14.163385   473 net.cpp:367] bn7 -> fc7 (in-place)
I0109 19:51:14.163573   473 net.cpp:122] Setting up bn7
I0109 19:51:14.163589   473 net.cpp:129] Top shape: 200 4096 (819200)
I0109 19:51:14.163599   473 net.cpp:137] Memory required for data: 2526671200
I0109 19:51:14.163612   473 layer_factory.hpp:77] Creating layer scale7
I0109 19:51:14.163630   473 net.cpp:84] Creating Layer scale7
I0109 19:51:14.163640   473 net.cpp:406] scale7 <- fc7
I0109 19:51:14.163650   473 net.cpp:367] scale7 -> fc7 (in-place)
I0109 19:51:14.163700   473 layer_factory.hpp:77] Creating layer scale7
I0109 19:51:14.163832   473 net.cpp:122] Setting up scale7
I0109 19:51:14.163849   473 net.cpp:129] Top shape: 200 4096 (819200)
I0109 19:51:14.163858   473 net.cpp:137] Memory required for data: 2529948000
I0109 19:51:14.163872   473 layer_factory.hpp:77] Creating layer relu7
I0109 19:51:14.163884   473 net.cpp:84] Creating Layer relu7
I0109 19:51:14.163893   473 net.cpp:406] relu7 <- fc7
I0109 19:51:14.163903   473 net.cpp:367] relu7 -> fc7 (in-place)
I0109 19:51:14.163915   473 net.cpp:122] Setting up relu7
I0109 19:51:14.163926   473 net.cpp:129] Top shape: 200 4096 (819200)
I0109 19:51:14.163935   473 net.cpp:137] Memory required for data: 2533224800
I0109 19:51:14.163944   473 layer_factory.hpp:77] Creating layer drop7
I0109 19:51:14.163959   473 net.cpp:84] Creating Layer drop7
I0109 19:51:14.163969   473 net.cpp:406] drop7 <- fc7
I0109 19:51:14.164019   473 net.cpp:367] drop7 -> fc7 (in-place)
I0109 19:51:14.164055   473 net.cpp:122] Setting up drop7
I0109 19:51:14.164070   473 net.cpp:129] Top shape: 200 4096 (819200)
I0109 19:51:14.164080   473 net.cpp:137] Memory required for data: 2536501600
I0109 19:51:14.164089   473 layer_factory.hpp:77] Creating layer quantized_fc7
I0109 19:51:14.164103   473 net.cpp:84] Creating Layer quantized_fc7
I0109 19:51:14.164111   473 net.cpp:406] quantized_fc7 <- fc7
I0109 19:51:14.164122   473 net.cpp:367] quantized_fc7 -> fc7 (in-place)
I0109 19:51:14.164134   473 net.cpp:122] Setting up quantized_fc7
I0109 19:51:14.164145   473 net.cpp:129] Top shape: 200 4096 (819200)
I0109 19:51:14.164155   473 net.cpp:137] Memory required for data: 2539778400
I0109 19:51:14.164163   473 layer_factory.hpp:77] Creating layer fc8
I0109 19:51:14.164180   473 net.cpp:84] Creating Layer fc8
I0109 19:51:14.164189   473 net.cpp:406] fc8 <- fc7
I0109 19:51:14.164201   473 net.cpp:380] fc8 -> fc8
I0109 19:51:14.287490   473 net.cpp:122] Setting up fc8
I0109 19:51:14.287608   473 net.cpp:129] Top shape: 200 1000 (200000)
I0109 19:51:14.287619   473 net.cpp:137] Memory required for data: 2540578400
I0109 19:51:14.287637   473 layer_factory.hpp:77] Creating layer fc8_fc8_0_split
I0109 19:51:14.287655   473 net.cpp:84] Creating Layer fc8_fc8_0_split
I0109 19:51:14.287667   473 net.cpp:406] fc8_fc8_0_split <- fc8
I0109 19:51:14.287680   473 net.cpp:380] fc8_fc8_0_split -> fc8_fc8_0_split_0
I0109 19:51:14.287700   473 net.cpp:380] fc8_fc8_0_split -> fc8_fc8_0_split_1
I0109 19:51:14.287758   473 net.cpp:122] Setting up fc8_fc8_0_split
I0109 19:51:14.287775   473 net.cpp:129] Top shape: 200 1000 (200000)
I0109 19:51:14.287786   473 net.cpp:129] Top shape: 200 1000 (200000)
I0109 19:51:14.287794   473 net.cpp:137] Memory required for data: 2542178400
I0109 19:51:14.287804   473 layer_factory.hpp:77] Creating layer accuracy_5_TRAIN
I0109 19:51:14.287827   473 net.cpp:84] Creating Layer accuracy_5_TRAIN
I0109 19:51:14.287837   473 net.cpp:406] accuracy_5_TRAIN <- fc8_fc8_0_split_0
I0109 19:51:14.287847   473 net.cpp:406] accuracy_5_TRAIN <- label_data_1_split_0
…
I0109 19:51:14.290951   473 net.cpp:294] The NetState phase (1) differed from the phase (0) specified by a rule in layer accuracy_5_TRAIN
I0109 19:51:14.291203   473 net.cpp:51] Initializing net from parameters: 
name: "AlexNet-BN"
state {
  phase: TEST
}
layer {
  name: "data"
  type: "Data"
  top: "data"
  top: "label"
  include {
    phase: TEST
  }
  transform_param {
    mirror: false
    crop_size: 224
    mean_value: 103.939
    mean_value: 116.779
    mean_value: 123.68
  }
  data_param {
    source: "/home/ydwu/database/imagenet/ilsvrc12/lmdb_resize/ilsvrc12_val_lmdb"
    batch_size: 200
    backend: LMDB
  }
}
layer {
  name: "conv1"
  type: "Convolution"
  bottom: "data"
  top: "conv1"
  param {
    lr_mult: 1
    decay_mult: 1
  }
  param {
    lr_mult: 2
    decay_mult: 0
  }
  convolution_param {
    num_output: 96
    pad: 2
    kernel_size: 11
    stride: 4
    weight_filler {
      type: "gaussian"
      std: 0.01
    }
    bias_filler {
      type: "constant"
      value: 0
    }
  }
}
layer {
  name: "bn1"
  type: "BatchNorm"
  bottom: "conv1"
  top: "conv1"
}
layer {
  name: "scale1"
  type: "Scale"
  bottom: "conv1"
  top: "conv1"
  scale_param {
    bias_term: true
  }
}
layer {
  name: "relu1"
  type: "ReLU"
  bottom: "conv1"
  top: "conv1"
}
layer {
  name: "pool1"
  type: "Pooling"
  bottom: "conv1"
  top: "pool1"
  pooling_param {
    pool: MAX
    kernel_size: 3
    stride: 2
  }
}
layer {
  name: "quantized_conv1"
  type: "Quantization"
  bottom: "pool1"
  top: "pool1"
  quantization_param {
    round_method: FLOOR
    round_strategy: AGGRESSIVE
    bit_width: 4
    range: 0
    range: 13.965383
  }
}
layer {
  name: "conv2"
  type: "Convolution"
  bottom: "pool1"
  top: "conv2"
  param {
    lr_mult: 1
    decay_mult: 1
  }
  param {
    lr_mult: 2
    decay_mult: 0
  }
  convolution_param {
    num_output: 256
    pad: 2
    kernel_size: 5
    weight_filler {
      type: "gaussian"
      std: 0.01
    }
    bias_filler {
      type: "constant"
      value: 0.1
    }
  }
}
layer {
  name: "bn2"
  type: "BatchNorm"
  bottom: "conv2"
  top: "conv2"
}
layer {
  name: "scale2"
  type: "Scale"
  bottom: "conv2"
  top: "conv2"
  scale_param {
    bias_term: true
  }
}
layer {
  name: "relu2"
  type: "ReLU"
  bottom: "conv2"
  top: "conv2"
}
layer {
  name: "pool2"
  type: "Pooling"
  bottom: "conv2"
  top: "pool2"
  pooling_param {
    pool: MAX
    kernel_size: 3
    stride: 2
  }
}
layer {
  name: "quantized_conv2"
  type: "Quantization"
  bottom: "pool2"
  top: "pool2"
  quantization_param {
    round_method: FLOOR
    round_strategy: AGGRESSIVE
    bit_width: 4
    range: 0
    range: 6.74956
  }
}
layer {
  name: "conv3"
  type: "Convolution"
  bottom: "pool2"
  top: "conv3"
  param {
    lr_mult: 1
    decay_mult: 1
  }
  param {
    lr_mult: 2
    decay_mult: 0
  }
  convolution_param {
    num_output: 384
    pad: 1
    kernel_size: 3
    weight_filler {
      type: "gaussian"
      std: 0.01
    }
    bias_filler {
      type: "constant"
      value: 0
    }
  }
}
layer {
  name: "bn3"
  type: "BatchNorm"
  bottom: "conv3"
  top: "conv3"
}
layer {
  name: "scale3"
  type: "Scale"
  bottom: "conv3"
  top: "conv3"
  scale_param {
    bias_term: true
  }
}
layer {
  name: "relu3"
  type: "ReLU"
  bottom: "conv3"
  top: "conv3"
}
layer {
  name: "quantized_conv3"
  type: "Quantization"
  bottom: "conv3"
  top: "conv3"
  quantization_param {
    round_method: FLOOR
    round_strategy: AGGRESSIVE
    bit_width: 4
    range: 0
    range: 8.48454
  }
}
layer {
  name: "conv4"
  type: "Convolution"
  bottom: "conv3"
  top: "conv4"
  param {
    lr_mult: 1
    decay_mult: 1
  }
  param {
    lr_mult: 2
    decay_mult: 0
  }
  convolution_param {
    num_output: 384
    pad: 1
    kernel_size: 3
    weight_filler {
      type: "gaussian"
      std: 0.01
    }
    bias_filler {
      type: "constant"
      value: 0.1
    }
  }
}
layer {
  name: "bn4"
  type: "BatchNorm"
  bottom: "conv4"
  top: "conv4"
}
layer {
  name: "scale4"
  type: "Scale"
  bottom: "conv4"
  top: "conv4"
  scale_param {
    bias_term: true
  }
}
layer {
  name: "relu4"
  type: "ReLU"
  bottom: "conv4"
  top: "conv4"
}
layer {
  name: "quantized_conv4"
  type: "Quantization"
  bottom: "conv4"
  top: "conv4"
  quantization_param {
    round_method: FLOOR
    round_strategy: AGGRESSIVE
    bit_width: 4
    range: 0
    range: 7.3369722
  }
}
layer {
  name: "conv5"
  type: "Convolution"
  bottom: "conv4"
  top: "conv5"
  param {
    lr_mult: 1
    decay_mult: 1
  }
  param {
    lr_mult: 2
    decay_mult: 0
  }
  convolution_param {
    num_output: 256
    pad: 1
    kernel_size: 3
    weight_filler {
      type: "gaussian"
      std: 0.01
    }
    bias_filler {
      type: "constant"
      value: 0.1
    }
  }
}
layer {
  name: "bn5"
  type: "BatchNorm"
  bottom: "conv5"
  top: "conv5"
}
layer {
  name: "scale5"
  type: "Scale"
  bottom: "conv5"
  top: "conv5"
  scale_param {
    bias_term: true
  }
}
layer {
  name: "relu5"
  type: "ReLU"
  bottom: "conv5"
  top: "conv5"
}
layer {
  name: "pool5"
  type: "Pooling"
  bottom: "conv5"
  top: "pool5"
  pooling_param {
    pool: MAX
    kernel_size: 3
    stride: 2
  }
}
layer {
  name: "quantized_conv5"
  type: "Quantization"
  bottom: "pool5"
  top: "pool5"
  quantization_param {
    round_method: FLOOR
    round_strategy: AGGRESSIVE
    bit_width: 4
    range: 0
    range: 8.7577133
  }
}
layer {
  name: "fc6"
  type: "InnerProduct"
  bottom: "pool5"
  top: "fc6"
  param {
    lr_mult: 1
    decay_mult: 1
  }
  param {
    lr_mult: 2
    decay_mult: 0
  }
  inner_product_param {
    num_output: 4096
    weight_filler {
      type: "gaussian"
      std: 0.005
    }
    bias_filler {
      type: "constant"
      value: 0.1
    }
  }
}
layer {
  name: "bn6"
  type: "BatchNorm"
  bottom: "fc6"
  top: "fc6"
}
layer {
  name: "scale6"
  type: "Scale"
  bottom: "fc6"
  top: "fc6"
  scale_param {
    bias_term: true
  }
}
layer {
  name: "relu6"
  type: "ReLU"
  bottom: "fc6"
  top: "fc6"
}
layer {
  name: "drop6"
  type: "Dropout"
  bottom: "fc6"
  top: "fc6"
  dropout_param {
    dropout_ratio: 0.5
  }
}
layer {
  name: "quantized_fc6"
  type: "Quantization"
  bottom: "fc6"
  top: "fc6"
  quantization_param {
    round_method: FLOOR
    round_strategy: AGGRESSIVE
    bit_width: 4
    range: 0
    range: 1.659358
  }
}
layer {
  name: "fc7"
  type: "InnerProduct"
  bottom: "fc6"
  top: "fc7"
  param {
    lr_mult: 1
    decay_mult: 1
  }
  param {
    lr_mult: 2
    decay_mult: 0
  }
  inner_product_param {
    num_output: 4096
    weight_filler {
      type: "gaussian"
      std: 0.005
    }
    bias_filler {
      type: "constant"
      value: 0.1
    }
  }
}
layer {
  name: "bn7"
  type: "BatchNorm"
  bottom: "fc7"
  top: "fc7"
}
layer {
  name: "scale7"
  type: "Scale"
  bottom: "fc7"
  top: "fc7"
  scale_param {
    bias_term: true
  }
}
layer {
  name: "relu7"
  type: "ReLU"
  bottom: "fc7"
  top: "fc7"
}
layer {
  name: "drop7"
  type: "Dropout"
  bottom: "fc7"
  top: "fc7"
  dropout_param {
    dropout_ratio: 0.5
  }
}
layer {
  name: "quantized_fc7"
  type: "Quantization"
  bottom: "fc7"
  top: "fc7"
  quantization_param {
    round_method: FLOOR
    round_strategy: AGGRESSIVE
    bit_width: 4
    range: 0
    range: 7.5598521
  }
}
layer {
  name: "fc8"
  type: "InnerProduct"
  bottom: "fc7"
  top: "fc8"
  param {
    lr_mult: 1
    decay_mult: 1
  }
  param {
    lr_mult: 2
    decay_mult: 0
  }
  inner_product_param {
    num_output: 1000
    weight_filler {
      type: "gaussian"
      std: 0.01
    }
    bias_filler {
      type: "constant"
      value: 0
    }
  }
}
layer {
  name: "accuracy"
  type: "Accuracy"
  bottom: "fc8"
  bottom: "label"
  top: "accuracy"
  include {
    phase: TEST
  }
}
layer {
  name: "accuracy_5"
  type: "Accuracy"
  bottom: "fc8"
  bottom: "label"
  top: "accuracy_5"
  include {
    phase: TEST
  }
  accuracy_param {
    top_k: 5
  }
}
layer {
  name: "loss"
  type: "SoftmaxWithLoss"
  bottom: "fc8"
  bottom: "label"
  top: "loss"
}
I0109 19:51:14.291400   473 layer_factory.hpp:77] Creating layer data
I0109 19:51:14.291466   473 db_lmdb.cpp:35] Opened lmdb /home/ydwu/database/imagenet/ilsvrc12/lmdb_resize/ilsvrc12_val_lmdb
I0109 19:51:14.291503   473 net.cpp:84] Creating Layer data
I0109 19:51:14.291518   473 net.cpp:380] data -> data
I0109 19:51:14.291533   473 net.cpp:380] data -> label
I0109 19:51:14.291872   473 data_layer.cpp:45] output data size: 200,3,224,224
I0109 19:51:14.634656   473 net.cpp:122] Setting up data
I0109 19:51:14.634748   473 net.cpp:129] Top shape: 200 3 224 224 (30105600)
I0109 19:51:14.634763   473 net.cpp:129] Top shape: 200 (200)
I0109 19:51:14.634773   473 net.cpp:137] Memory required for data: 120423200
I0109 19:51:14.634786   473 layer_factory.hpp:77] Creating layer label_data_1_split
I0109 19:51:14.634809   473 net.cpp:84] Creating Layer label_data_1_split
I0109 19:51:14.634819   473 net.cpp:406] label_data_1_split <- label
I0109 19:51:14.634833   473 net.cpp:380] label_data_1_split -> label_data_1_split_0
I0109 19:51:14.634852   473 net.cpp:380] label_data_1_split -> label_data_1_split_1
I0109 19:51:14.634865   473 net.cpp:380] label_data_1_split -> label_data_1_split_2
I0109 19:51:14.634974   473 net.cpp:122] Setting up label_data_1_split
I0109 19:51:14.634992   473 net.cpp:129] Top shape: 200 (200)
I0109 19:51:14.635004   473 net.cpp:129] Top shape: 200 (200)
I0109 19:51:14.635015   473 net.cpp:129] Top shape: 200 (200)
I0109 19:51:14.635023   473 net.cpp:137] Memory required for data: 120425600
I0109 19:51:14.635032   473 layer_factory.hpp:77] Creating layer conv1
I0109 19:51:14.635056   473 net.cpp:84] Creating Layer conv1
I0109 19:51:14.635066   473 net.cpp:406] conv1 <- data
I0109 19:51:14.635078   473 net.cpp:380] conv1 -> conv1
I0109 19:51:14.654070   473 net.cpp:122] Setting up conv1
I0109 19:51:14.654095   473 net.cpp:129] Top shape: 200 96 55 55 (58080000)
I0109 19:51:14.654105   473 net.cpp:137] Memory required for data: 352745600
I0109 19:51:14.654122   473 layer_factory.hpp:77] Creating layer bn1
I0109 19:51:14.654139   473 net.cpp:84] Creating Layer bn1
I0109 19:51:14.654148   473 net.cpp:406] bn1 <- conv1
I0109 19:51:14.654160   473 net.cpp:367] bn1 -> conv1 (in-place)
I0109 19:51:14.654356   473 net.cpp:122] Setting up bn1
I0109 19:51:14.654373   473 net.cpp:129] Top shape: 200 96 55 55 (58080000)
I0109 19:51:14.654382   473 net.cpp:137] Memory required for data: 585065600
I0109 19:51:14.654399   473 layer_factory.hpp:77] Creating layer scale1
I0109 19:51:14.654417   473 net.cpp:84] Creating Layer scale1
I0109 19:51:14.654426   473 net.cpp:406] scale1 <- conv1
I0109 19:51:14.654438   473 net.cpp:367] scale1 -> conv1 (in-place)
I0109 19:51:14.654491   473 layer_factory.hpp:77] Creating layer scale1
I0109 19:51:14.654628   473 net.cpp:122] Setting up scale1
I0109 19:51:14.654645   473 net.cpp:129] Top shape: 200 96 55 55 (58080000)
I0109 19:51:14.654654   473 net.cpp:137] Memory required for data: 817385600
I0109 19:51:14.654666   473 layer_factory.hpp:77] Creating layer relu1
I0109 19:51:14.654680   473 net.cpp:84] Creating Layer relu1
I0109 19:51:14.654690   473 net.cpp:406] relu1 <- conv1
I0109 19:51:14.654700   473 net.cpp:367] relu1 -> conv1 (in-place)
I0109 19:51:14.654712   473 net.cpp:122] Setting up relu1
I0109 19:51:14.654723   473 net.cpp:129] Top shape: 200 96 55 55 (58080000)
I0109 19:51:14.654732   473 net.cpp:137] Memory required for data: 1049705600
I0109 19:51:14.654741   473 layer_factory.hpp:77] Creating layer pool1
I0109 19:51:14.654754   473 net.cpp:84] Creating Layer pool1
I0109 19:51:14.654763   473 net.cpp:406] pool1 <- conv1
I0109 19:51:14.654774   473 net.cpp:380] pool1 -> pool1
I0109 19:51:14.654820   473 net.cpp:122] Setting up pool1
I0109 19:51:14.654836   473 net.cpp:129] Top shape: 200 96 27 27 (13996800)
I0109 19:51:14.654845   473 net.cpp:137] Memory required for data: 1105692800
I0109 19:51:14.654855   473 layer_factory.hpp:77] Creating layer quantized_conv1
I0109 19:51:14.654868   473 net.cpp:84] Creating Layer quantized_conv1
I0109 19:51:14.654877   473 net.cpp:406] quantized_conv1 <- pool1
I0109 19:51:14.654888   473 net.cpp:367] quantized_conv1 -> pool1 (in-place)
I0109 19:51:14.654901   473 net.cpp:122] Setting up quantized_conv1
I0109 19:51:14.654912   473 net.cpp:129] Top shape: 200 96 27 27 (13996800)
I0109 19:51:14.654922   473 net.cpp:137] Memory required for data: 1161680000
I0109 19:51:14.654929   473 layer_factory.hpp:77] Creating layer conv2
I0109 19:51:14.654947   473 net.cpp:84] Creating Layer conv2
I0109 19:51:14.654964   473 net.cpp:406] conv2 <- pool1
I0109 19:51:14.654978   473 net.cpp:380] conv2 -> conv2
I0109 19:51:14.674095   473 net.cpp:122] Setting up conv2
I0109 19:51:14.674146   473 net.cpp:129] Top shape: 200 256 27 27 (37324800)
I0109 19:51:14.674159   473 net.cpp:137] Memory required for data: 1310979200
I0109 19:51:14.674180   473 layer_factory.hpp:77] Creating layer bn2
I0109 19:51:14.674201   473 net.cpp:84] Creating Layer bn2
I0109 19:51:14.674211   473 net.cpp:406] bn2 <- conv2
I0109 19:51:14.674226   473 net.cpp:367] bn2 -> conv2 (in-place)
I0109 19:51:14.674413   473 net.cpp:122] Setting up bn2
I0109 19:51:14.674430   473 net.cpp:129] Top shape: 200 256 27 27 (37324800)
I0109 19:51:14.674440   473 net.cpp:137] Memory required for data: 1460278400
I0109 19:51:14.674494   473 layer_factory.hpp:77] Creating layer scale2
I0109 19:51:14.674512   473 net.cpp:84] Creating Layer scale2
I0109 19:51:14.674521   473 net.cpp:406] scale2 <- conv2
I0109 19:51:14.674533   473 net.cpp:367] scale2 -> conv2 (in-place)
I0109 19:51:14.674593   473 layer_factory.hpp:77] Creating layer scale2
I0109 19:51:14.674710   473 net.cpp:122] Setting up scale2
I0109 19:51:14.674727   473 net.cpp:129] Top shape: 200 256 27 27 (37324800)
I0109 19:51:14.674736   473 net.cpp:137] Memory required for data: 1609577600
I0109 19:51:14.674748   473 layer_factory.hpp:77] Creating layer relu2
I0109 19:51:14.674762   473 net.cpp:84] Creating Layer relu2
I0109 19:51:14.674772   473 net.cpp:406] relu2 <- conv2
I0109 19:51:14.674783   473 net.cpp:367] relu2 -> conv2 (in-place)
I0109 19:51:14.674795   473 net.cpp:122] Setting up relu2
I0109 19:51:14.674805   473 net.cpp:129] Top shape: 200 256 27 27 (37324800)
I0109 19:51:14.674814   473 net.cpp:137] Memory required for data: 1758876800
I0109 19:51:14.674823   473 layer_factory.hpp:77] Creating layer pool2
I0109 19:51:14.674836   473 net.cpp:84] Creating Layer pool2
I0109 19:51:14.674845   473 net.cpp:406] pool2 <- conv2
I0109 19:51:14.674857   473 net.cpp:380] pool2 -> pool2
I0109 19:51:14.674906   473 net.cpp:122] Setting up pool2
I0109 19:51:14.674921   473 net.cpp:129] Top shape: 200 256 13 13 (8652800)
I0109 19:51:14.674931   473 net.cpp:137] Memory required for data: 1793488000
I0109 19:51:14.674939   473 layer_factory.hpp:77] Creating layer quantized_conv2
I0109 19:51:14.674954   473 net.cpp:84] Creating Layer quantized_conv2
I0109 19:51:14.674969   473 net.cpp:406] quantized_conv2 <- pool2
I0109 19:51:14.674981   473 net.cpp:367] quantized_conv2 -> pool2 (in-place)
I0109 19:51:14.674994   473 net.cpp:122] Setting up quantized_conv2
I0109 19:51:14.675007   473 net.cpp:129] Top shape: 200 256 13 13 (8652800)
I0109 19:51:14.675016   473 net.cpp:137] Memory required for data: 1828099200
I0109 19:51:14.675025   473 layer_factory.hpp:77] Creating layer conv3
I0109 19:51:14.675043   473 net.cpp:84] Creating Layer conv3
I0109 19:51:14.675053   473 net.cpp:406] conv3 <- pool2
I0109 19:51:14.675065   473 net.cpp:380] conv3 -> conv3
I0109 19:51:14.702388   473 net.cpp:122] Setting up conv3
I0109 19:51:14.702445   473 net.cpp:129] Top shape: 200 384 13 13 (12979200)
I0109 19:51:14.702456   473 net.cpp:137] Memory required for data: 1880016000
I0109 19:51:14.702471   473 layer_factory.hpp:77] Creating layer bn3
I0109 19:51:14.702491   473 net.cpp:84] Creating Layer bn3
I0109 19:51:14.702503   473 net.cpp:406] bn3 <- conv3
I0109 19:51:14.702518   473 net.cpp:367] bn3 -> conv3 (in-place)
I0109 19:51:14.702704   473 net.cpp:122] Setting up bn3
I0109 19:51:14.702721   473 net.cpp:129] Top shape: 200 384 13 13 (12979200)
I0109 19:51:14.702730   473 net.cpp:137] Memory required for data: 1931932800
I0109 19:51:14.702750   473 layer_factory.hpp:77] Creating layer scale3
I0109 19:51:14.702769   473 net.cpp:84] Creating Layer scale3
I0109 19:51:14.702780   473 net.cpp:406] scale3 <- conv3
I0109 19:51:14.702790   473 net.cpp:367] scale3 -> conv3 (in-place)
I0109 19:51:14.702847   473 layer_factory.hpp:77] Creating layer scale3
I0109 19:51:14.702977   473 net.cpp:122] Setting up scale3
I0109 19:51:14.702994   473 net.cpp:129] Top shape: 200 384 13 13 (12979200)
I0109 19:51:14.703004   473 net.cpp:137] Memory required for data: 1983849600
I0109 19:51:14.703017   473 layer_factory.hpp:77] Creating layer relu3
I0109 19:51:14.703032   473 net.cpp:84] Creating Layer relu3
I0109 19:51:14.703042   473 net.cpp:406] relu3 <- conv3
I0109 19:51:14.703052   473 net.cpp:367] relu3 -> conv3 (in-place)
I0109 19:51:14.703065   473 net.cpp:122] Setting up relu3
I0109 19:51:14.703075   473 net.cpp:129] Top shape: 200 384 13 13 (12979200)
I0109 19:51:14.703084   473 net.cpp:137] Memory required for data: 2035766400
I0109 19:51:14.703094   473 layer_factory.hpp:77] Creating layer quantized_conv3
I0109 19:51:14.703107   473 net.cpp:84] Creating Layer quantized_conv3
I0109 19:51:14.703155   473 net.cpp:406] quantized_conv3 <- conv3
I0109 19:51:14.703167   473 net.cpp:367] quantized_conv3 -> conv3 (in-place)
I0109 19:51:14.703181   473 net.cpp:122] Setting up quantized_conv3
I0109 19:51:14.703192   473 net.cpp:129] Top shape: 200 384 13 13 (12979200)
I0109 19:51:14.703202   473 net.cpp:137] Memory required for data: 2087683200
I0109 19:51:14.703210   473 layer_factory.hpp:77] Creating layer conv4
I0109 19:51:14.703228   473 net.cpp:84] Creating Layer conv4
I0109 19:51:14.703238   473 net.cpp:406] conv4 <- conv3
I0109 19:51:14.703250   473 net.cpp:380] conv4 -> conv4
I0109 19:51:14.744633   473 net.cpp:122] Setting up conv4
I0109 19:51:14.744693   473 net.cpp:129] Top shape: 200 384 13 13 (12979200)
I0109 19:51:14.744702   473 net.cpp:137] Memory required for data: 2139600000
I0109 19:51:14.744717   473 layer_factory.hpp:77] Creating layer bn4
I0109 19:51:14.744745   473 net.cpp:84] Creating Layer bn4
I0109 19:51:14.744757   473 net.cpp:406] bn4 <- conv4
I0109 19:51:14.744772   473 net.cpp:367] bn4 -> conv4 (in-place)
I0109 19:51:14.744966   473 net.cpp:122] Setting up bn4
I0109 19:51:14.744983   473 net.cpp:129] Top shape: 200 384 13 13 (12979200)
I0109 19:51:14.744992   473 net.cpp:137] Memory required for data: 2191516800
I0109 19:51:14.745007   473 layer_factory.hpp:77] Creating layer scale4
I0109 19:51:14.745021   473 net.cpp:84] Creating Layer scale4
I0109 19:51:14.745031   473 net.cpp:406] scale4 <- conv4
I0109 19:51:14.745043   473 net.cpp:367] scale4 -> conv4 (in-place)
I0109 19:51:14.745100   473 layer_factory.hpp:77] Creating layer scale4
I0109 19:51:14.745231   473 net.cpp:122] Setting up scale4
I0109 19:51:14.745249   473 net.cpp:129] Top shape: 200 384 13 13 (12979200)
I0109 19:51:14.745259   473 net.cpp:137] Memory required for data: 2243433600
I0109 19:51:14.745270   473 layer_factory.hpp:77] Creating layer relu4
I0109 19:51:14.745286   473 net.cpp:84] Creating Layer relu4
I0109 19:51:14.745296   473 net.cpp:406] relu4 <- conv4
I0109 19:51:14.745306   473 net.cpp:367] relu4 -> conv4 (in-place)
I0109 19:51:14.745318   473 net.cpp:122] Setting up relu4
I0109 19:51:14.745329   473 net.cpp:129] Top shape: 200 384 13 13 (12979200)
I0109 19:51:14.745338   473 net.cpp:137] Memory required for data: 2295350400
I0109 19:51:14.745347   473 layer_factory.hpp:77] Creating layer quantized_conv4
I0109 19:51:14.745362   473 net.cpp:84] Creating Layer quantized_conv4
I0109 19:51:14.745370   473 net.cpp:406] quantized_conv4 <- conv4
I0109 19:51:14.745380   473 net.cpp:367] quantized_conv4 -> conv4 (in-place)
I0109 19:51:14.745393   473 net.cpp:122] Setting up quantized_conv4
I0109 19:51:14.745404   473 net.cpp:129] Top shape: 200 384 13 13 (12979200)
I0109 19:51:14.745412   473 net.cpp:137] Memory required for data: 2347267200
I0109 19:51:14.745421   473 layer_factory.hpp:77] Creating layer conv5
I0109 19:51:14.745443   473 net.cpp:84] Creating Layer conv5
I0109 19:51:14.745456   473 net.cpp:406] conv5 <- conv4
I0109 19:51:14.745470   473 net.cpp:380] conv5 -> conv5
I0109 19:51:14.772830   473 net.cpp:122] Setting up conv5
I0109 19:51:14.772876   473 net.cpp:129] Top shape: 200 256 13 13 (8652800)
I0109 19:51:14.772886   473 net.cpp:137] Memory required for data: 2381878400
I0109 19:51:14.772902   473 layer_factory.hpp:77] Creating layer bn5
I0109 19:51:14.772922   473 net.cpp:84] Creating Layer bn5
I0109 19:51:14.772933   473 net.cpp:406] bn5 <- conv5
I0109 19:51:14.772949   473 net.cpp:367] bn5 -> conv5 (in-place)
I0109 19:51:14.773154   473 net.cpp:122] Setting up bn5
I0109 19:51:14.773170   473 net.cpp:129] Top shape: 200 256 13 13 (8652800)
I0109 19:51:14.773180   473 net.cpp:137] Memory required for data: 2416489600
I0109 19:51:14.773200   473 layer_factory.hpp:77] Creating layer scale5
I0109 19:51:14.773219   473 net.cpp:84] Creating Layer scale5
I0109 19:51:14.773229   473 net.cpp:406] scale5 <- conv5
I0109 19:51:14.773241   473 net.cpp:367] scale5 -> conv5 (in-place)
I0109 19:51:14.773299   473 layer_factory.hpp:77] Creating layer scale5
I0109 19:51:14.773432   473 net.cpp:122] Setting up scale5
I0109 19:51:14.773488   473 net.cpp:129] Top shape: 200 256 13 13 (8652800)
I0109 19:51:14.773499   473 net.cpp:137] Memory required for data: 2451100800
I0109 19:51:14.773511   473 layer_factory.hpp:77] Creating layer relu5
I0109 19:51:14.773524   473 net.cpp:84] Creating Layer relu5
I0109 19:51:14.773535   473 net.cpp:406] relu5 <- conv5
I0109 19:51:14.773545   473 net.cpp:367] relu5 -> conv5 (in-place)
I0109 19:51:14.773557   473 net.cpp:122] Setting up relu5
I0109 19:51:14.773567   473 net.cpp:129] Top shape: 200 256 13 13 (8652800)
I0109 19:51:14.773576   473 net.cpp:137] Memory required for data: 2485712000
I0109 19:51:14.773586   473 layer_factory.hpp:77] Creating layer pool5
I0109 19:51:14.773607   473 net.cpp:84] Creating Layer pool5
I0109 19:51:14.773617   473 net.cpp:406] pool5 <- conv5
I0109 19:51:14.773628   473 net.cpp:380] pool5 -> pool5
I0109 19:51:14.773682   473 net.cpp:122] Setting up pool5
I0109 19:51:14.773699   473 net.cpp:129] Top shape: 200 256 6 6 (1843200)
I0109 19:51:14.773707   473 net.cpp:137] Memory required for data: 2493084800
I0109 19:51:14.773716   473 layer_factory.hpp:77] Creating layer quantized_conv5
I0109 19:51:14.773730   473 net.cpp:84] Creating Layer quantized_conv5
I0109 19:51:14.773741   473 net.cpp:406] quantized_conv5 <- pool5
I0109 19:51:14.773751   473 net.cpp:367] quantized_conv5 -> pool5 (in-place)
I0109 19:51:14.773763   473 net.cpp:122] Setting up quantized_conv5
I0109 19:51:14.773774   473 net.cpp:129] Top shape: 200 256 6 6 (1843200)
I0109 19:51:14.773783   473 net.cpp:137] Memory required for data: 2500457600
I0109 19:51:14.773792   473 layer_factory.hpp:77] Creating layer fc6
I0109 19:51:14.773808   473 net.cpp:84] Creating Layer fc6
I0109 19:51:14.773816   473 net.cpp:406] fc6 <- pool5
I0109 19:51:14.773829   473 net.cpp:380] fc6 -> fc6
I0109 19:51:15.911284   473 net.cpp:122] Setting up fc6
I0109 19:51:15.911379   473 net.cpp:129] Top shape: 200 4096 (819200)
I0109 19:51:15.911392   473 net.cpp:137] Memory required for data: 2503734400
I0109 19:51:15.911408   473 layer_factory.hpp:77] Creating layer bn6
I0109 19:51:15.911428   473 net.cpp:84] Creating Layer bn6
I0109 19:51:15.911439   473 net.cpp:406] bn6 <- fc6
I0109 19:51:15.911453   473 net.cpp:367] bn6 -> fc6 (in-place)
I0109 19:51:15.911654   473 net.cpp:122] Setting up bn6
I0109 19:51:15.911671   473 net.cpp:129] Top shape: 200 4096 (819200)
I0109 19:51:15.911680   473 net.cpp:137] Memory required for data: 2507011200
I0109 19:51:15.911694   473 layer_factory.hpp:77] Creating layer scale6
I0109 19:51:15.911713   473 net.cpp:84] Creating Layer scale6
I0109 19:51:15.911723   473 net.cpp:406] scale6 <- fc6
I0109 19:51:15.911733   473 net.cpp:367] scale6 -> fc6 (in-place)
I0109 19:51:15.911792   473 layer_factory.hpp:77] Creating layer scale6
I0109 19:51:15.911919   473 net.cpp:122] Setting up scale6
I0109 19:51:15.911936   473 net.cpp:129] Top shape: 200 4096 (819200)
I0109 19:51:15.911945   473 net.cpp:137] Memory required for data: 2510288000
I0109 19:51:15.911957   473 layer_factory.hpp:77] Creating layer relu6
I0109 19:51:15.911969   473 net.cpp:84] Creating Layer relu6
I0109 19:51:15.911978   473 net.cpp:406] relu6 <- fc6
I0109 19:51:15.911993   473 net.cpp:367] relu6 -> fc6 (in-place)
I0109 19:51:15.912004   473 net.cpp:122] Setting up relu6
I0109 19:51:15.912015   473 net.cpp:129] Top shape: 200 4096 (819200)
I0109 19:51:15.912024   473 net.cpp:137] Memory required for data: 2513564800
I0109 19:51:15.912032   473 layer_factory.hpp:77] Creating layer drop6
I0109 19:51:15.912045   473 net.cpp:84] Creating Layer drop6
I0109 19:51:15.912055   473 net.cpp:406] drop6 <- fc6
I0109 19:51:15.912065   473 net.cpp:367] drop6 -> fc6 (in-place)
I0109 19:51:15.912101   473 net.cpp:122] Setting up drop6
I0109 19:51:15.912115   473 net.cpp:129] Top shape: 200 4096 (819200)
I0109 19:51:15.912124   473 net.cpp:137] Memory required for data: 2516841600
I0109 19:51:15.912133   473 layer_factory.hpp:77] Creating layer quantized_fc6
I0109 19:51:15.912147   473 net.cpp:84] Creating Layer quantized_fc6
I0109 19:51:15.912192   473 net.cpp:406] quantized_fc6 <- fc6
I0109 19:51:15.912204   473 net.cpp:367] quantized_fc6 -> fc6 (in-place)
I0109 19:51:15.912217   473 net.cpp:122] Setting up quantized_fc6
I0109 19:51:15.912228   473 net.cpp:129] Top shape: 200 4096 (819200)
I0109 19:51:15.912237   473 net.cpp:137] Memory required for data: 2520118400
I0109 19:51:15.912245   473 layer_factory.hpp:77] Creating layer fc7
I0109 19:51:15.912259   473 net.cpp:84] Creating Layer fc7
I0109 19:51:15.912268   473 net.cpp:406] fc7 <- fc6
I0109 19:51:15.912282   473 net.cpp:380] fc7 -> fc7
I0109 19:51:16.409258   473 net.cpp:122] Setting up fc7
I0109 19:51:16.409381   473 net.cpp:129] Top shape: 200 4096 (819200)
I0109 19:51:16.409394   473 net.cpp:137] Memory required for data: 2523395200
I0109 19:51:16.409415   473 layer_factory.hpp:77] Creating layer bn7
I0109 19:51:16.409445   473 net.cpp:84] Creating Layer bn7
I0109 19:51:16.409456   473 net.cpp:406] bn7 <- fc7
I0109 19:51:16.409471   473 net.cpp:367] bn7 -> fc7 (in-place)
I0109 19:51:16.409673   473 net.cpp:122] Setting up bn7
I0109 19:51:16.409689   473 net.cpp:129] Top shape: 200 4096 (819200)
I0109 19:51:16.409699   473 net.cpp:137] Memory required for data: 2526672000
I0109 19:51:16.409713   473 layer_factory.hpp:77] Creating layer scale7
I0109 19:51:16.409731   473 net.cpp:84] Creating Layer scale7
I0109 19:51:16.409740   473 net.cpp:406] scale7 <- fc7
I0109 19:51:16.409751   473 net.cpp:367] scale7 -> fc7 (in-place)
I0109 19:51:16.409806   473 layer_factory.hpp:77] Creating layer scale7
I0109 19:51:16.409952   473 net.cpp:122] Setting up scale7
I0109 19:51:16.409970   473 net.cpp:129] Top shape: 200 4096 (819200)
I0109 19:51:16.409978   473 net.cpp:137] Memory required for data: 2529948800
I0109 19:51:16.409991   473 layer_factory.hpp:77] Creating layer relu7
I0109 19:51:16.410004   473 net.cpp:84] Creating Layer relu7
I0109 19:51:16.410013   473 net.cpp:406] relu7 <- fc7
I0109 19:51:16.410027   473 net.cpp:367] relu7 -> fc7 (in-place)
I0109 19:51:16.410038   473 net.cpp:122] Setting up relu7
I0109 19:51:16.410049   473 net.cpp:129] Top shape: 200 4096 (819200)
I0109 19:51:16.410058   473 net.cpp:137] Memory required for data: 2533225600
I0109 19:51:16.410066   473 layer_factory.hpp:77] Creating layer drop7
I0109 19:51:16.410079   473 net.cpp:84] Creating Layer drop7
I0109 19:51:16.410089   473 net.cpp:406] drop7 <- fc7
I0109 19:51:16.410101   473 net.cpp:367] drop7 -> fc7 (in-place)
I0109 19:51:16.410135   473 net.cpp:122] Setting up drop7
I0109 19:51:16.410149   473 net.cpp:129] Top shape: 200 4096 (819200)
I0109 19:51:16.410158   473 net.cpp:137] Memory required for data: 2536502400
I0109 19:51:16.410166   473 layer_factory.hpp:77] Creating layer quantized_fc7
I0109 19:51:16.410183   473 net.cpp:84] Creating Layer quantized_fc7
I0109 19:51:16.410193   473 net.cpp:406] quantized_fc7 <- fc7
I0109 19:51:16.410204   473 net.cpp:367] quantized_fc7 -> fc7 (in-place)
I0109 19:51:16.410217   473 net.cpp:122] Setting up quantized_fc7
I0109 19:51:16.410226   473 net.cpp:129] Top shape: 200 4096 (819200)
I0109 19:51:16.410235   473 net.cpp:137] Memory required for data: 2539779200
I0109 19:51:16.410243   473 layer_factory.hpp:77] Creating layer fc8
I0109 19:51:16.410259   473 net.cpp:84] Creating Layer fc8
I0109 19:51:16.410267   473 net.cpp:406] fc8 <- fc7
I0109 19:51:16.410279   473 net.cpp:380] fc8 -> fc8
I0109 19:51:16.532021   473 net.cpp:122] Setting up fc8
I0109 19:51:16.532088   473 net.cpp:129] Top shape: 200 1000 (200000)
I0109 19:51:16.532099   473 net.cpp:137] Memory required for data: 2540579200
I0109 19:51:16.532116   473 layer_factory.hpp:77] Creating layer fc8_fc8_0_split
I0109 19:51:16.532135   473 net.cpp:84] Creating Layer fc8_fc8_0_split
I0109 19:51:16.532145   473 net.cpp:406] fc8_fc8_0_split <- fc8
I0109 19:51:16.532163   473 net.cpp:380] fc8_fc8_0_split -> fc8_fc8_0_split_0
I0109 19:51:16.532184   473 net.cpp:380] fc8_fc8_0_split -> fc8_fc8_0_split_1
I0109 19:51:16.532200   473 net.cpp:380] fc8_fc8_0_split -> fc8_fc8_0_split_2
I0109 19:51:16.532271   473 net.cpp:122] Setting up fc8_fc8_0_split
I0109 19:51:16.532372   473 net.cpp:129] Top shape: 200 1000 (200000)
I0109 19:51:16.532383   473 net.cpp:129] Top shape: 200 1000 (200000)
I0109 19:51:16.532393   473 net.cpp:129] Top shape: 200 1000 (200000)
I0109 19:51:16.532402   473 net.cpp:137] Memory required for data: 2542979200
I0109 19:51:16.532413   473 layer_factory.hpp:77] Creating layer accuracy
I0109 19:51:16.532426   473 net.cpp:84] Creating Layer accuracy
I0109 19:51:16.532435   473 net.cpp:406] accuracy <- fc8_fc8_0_split_0
I0109 19:51:16.532445   473 net.cpp:406] accuracy <- label_data_1_split_0
I0109 19:51:16.532460   473 net.cpp:380] accuracy -> accuracy
…
