…
I0104 18:40:01.046257 42509 net.cpp:294] The NetState phase (0) differed from the phase (1) specified by a rule in layer accuracy_5
I0104 18:40:01.046496 42509 net.cpp:51] Initializing net from parameters: 
name: "AlexNet-BN"
state {
  phase: TRAIN
  level: 0
  stage: ""
}
layer {
  name: "data"
  type: "Data"
  top: "data"
  top: "label"
  include {
    phase: TRAIN
  }
  transform_param {
    mirror: true
    crop_size: 224
    mean_value: 103.939
    mean_value: 116.779
    mean_value: 123.68
  }
  data_param {
    source: "/home/ydwu/database/imagenet/ilsvrc12/lmdb_resize/ilsvrc12_train_lmdb"
    batch_size: 200
    backend: LMDB
  }
}
layer {
  name: "conv1"
  type: "Convolution"
  bottom: "data"
  top: "conv1"
  param {
    lr_mult: 1
    decay_mult: 1
  }
  param {
    lr_mult: 2
    decay_mult: 0
  }
  convolution_param {
    num_output: 96
    pad: 2
    kernel_size: 11
    stride: 4
    weight_filler {
      type: "gaussian"
      std: 0.01
    }
    bias_filler {
      type: "constant"
      value: 0
    }
  }
}
layer {
  name: "bn1"
  type: "BatchNorm"
  bottom: "conv1"
  top: "conv1"
}
layer {
  name: "scale1"
  type: "Scale"
  bottom: "conv1"
  top: "conv1"
  scale_param {
    bias_term: true
  }
}
layer {
  name: "relu1"
  type: "ReLU"
  bottom: "conv1"
  top: "conv1"
}
layer {
  name: "pool1"
  type: "Pooling"
  bottom: "conv1"
  top: "pool1"
  pooling_param {
    pool: MAX
    kernel_size: 3
    stride: 2
  }
}
layer {
  name: "quantized_conv1"
  type: "Quantization"
  bottom: "pool1"
  top: "pool1"
  quantization_param {
    round_method: FLOOR
    round_strategy: AGGRESSIVE
    bit_width: 4
    range: 0
    range: 13.965383
  }
}
layer {
  name: "conv2"
  type: "Convolution"
  bottom: "pool1"
  top: "conv2"
  param {
    lr_mult: 1
    decay_mult: 1
  }
  param {
    lr_mult: 2
    decay_mult: 0
  }
  convolution_param {
    num_output: 256
    pad: 2
    kernel_size: 5
    weight_filler {
      type: "gaussian"
      std: 0.01
    }
    bias_filler {
      type: "constant"
      value: 0.1
    }
  }
}
layer {
  name: "bn2"
  type: "BatchNorm"
  bottom: "conv2"
  top: "conv2"
}
layer {
  name: "scale2"
  type: "Scale"
  bottom: "conv2"
  top: "conv2"
  scale_param {
    bias_term: true
  }
}
layer {
  name: "relu2"
  type: "ReLU"
  bottom: "conv2"
  top: "conv2"
}
layer {
  name: "pool2"
  type: "Pooling"
  bottom: "conv2"
  top: "pool2"
  pooling_param {
    pool: MAX
    kernel_size: 3
    stride: 2
  }
}
layer {
  name: "quantized_conv2"
  type: "Quantization"
  bottom: "pool2"
  top: "pool2"
  quantization_param {
    round_method: FLOOR
    round_strategy: AGGRESSIVE
    bit_width: 4
    range: 0
    range: 6.74956
  }
}
layer {
  name: "conv3"
  type: "Convolution"
  bottom: "pool2"
  top: "conv3"
  param {
    lr_mult: 1
    decay_mult: 1
  }
  param {
    lr_mult: 2
    decay_mult: 0
  }
  convolution_param {
    num_output: 384
    pad: 1
    kernel_size: 3
    weight_filler {
      type: "gaussian"
      std: 0.01
    }
    bias_filler {
      type: "constant"
      value: 0
    }
  }
}
layer {
  name: "bn3"
  type: "BatchNorm"
  bottom: "conv3"
  top: "conv3"
}
layer {
  name: "scale3"
  type: "Scale"
  bottom: "conv3"
  top: "conv3"
  scale_param {
    bias_term: true
  }
}
layer {
  name: "relu3"
  type: "ReLU"
  bottom: "conv3"
  top: "conv3"
}
layer {
  name: "quantized_conv3"
  type: "Quantization"
  bottom: "conv3"
  top: "conv3"
  quantization_param {
    round_method: FLOOR
    round_strategy: AGGRESSIVE
    bit_width: 4
    range: 0
    range: 8.48454
  }
}
layer {
  name: "conv4"
  type: "Convolution"
  bottom: "conv3"
  top: "conv4"
  param {
    lr_mult: 1
    decay_mult: 1
  }
  param {
    lr_mult: 2
    decay_mult: 0
  }
  convolution_param {
    num_output: 384
    pad: 1
    kernel_size: 3
    weight_filler {
      type: "gaussian"
      std: 0.01
    }
    bias_filler {
      type: "constant"
      value: 0.1
    }
  }
}
layer {
  name: "bn4"
  type: "BatchNorm"
  bottom: "conv4"
  top: "conv4"
}
layer {
  name: "scale4"
  type: "Scale"
  bottom: "conv4"
  top: "conv4"
  scale_param {
    bias_term: true
  }
}
layer {
  name: "relu4"
  type: "ReLU"
  bottom: "conv4"
  top: "conv4"
}
layer {
  name: "quantized_conv4"
  type: "Quantization"
  bottom: "conv4"
  top: "conv4"
  quantization_param {
    round_method: FLOOR
    round_strategy: AGGRESSIVE
    bit_width: 4
    range: 0
    range: 7.3369722
  }
}
layer {
  name: "conv5"
  type: "Convolution"
  bottom: "conv4"
  top: "conv5"
  param {
    lr_mult: 1
    decay_mult: 1
  }
  param {
    lr_mult: 2
    decay_mult: 0
  }
  convolution_param {
    num_output: 256
    pad: 1
    kernel_size: 3
    weight_filler {
      type: "gaussian"
      std: 0.01
    }
    bias_filler {
      type: "constant"
      value: 0.1
    }
  }
}
layer {
  name: "bn5"
  type: "BatchNorm"
  bottom: "conv5"
  top: "conv5"
}
layer {
  name: "scale5"
  type: "Scale"
  bottom: "conv5"
  top: "conv5"
  scale_param {
    bias_term: true
  }
}
layer {
  name: "relu5"
  type: "ReLU"
  bottom: "conv5"
  top: "conv5"
}
layer {
  name: "pool5"
  type: "Pooling"
  bottom: "conv5"
  top: "pool5"
  pooling_param {
    pool: MAX
    kernel_size: 3
    stride: 2
  }
}
layer {
  name: "quantized_conv5"
  type: "Quantization"
  bottom: "pool5"
  top: "pool5"
  quantization_param {
    round_method: FLOOR
    round_strategy: AGGRESSIVE
    bit_width: 4
    range: 0
    range: 8.7577133
  }
}
layer {
  name: "fc6"
  type: "InnerProduct"
  bottom: "pool5"
  top: "fc6"
  param {
    lr_mult: 1
    decay_mult: 1
  }
  param {
    lr_mult: 2
    decay_mult: 0
  }
  inner_product_param {
    num_output: 4096
    weight_filler {
      type: "gaussian"
      std: 0.005
    }
    bias_filler {
      type: "constant"
      value: 0.1
    }
  }
}
layer {
  name: "bn6"
  type: "BatchNorm"
  bottom: "fc6"
  top: "fc6"
}
layer {
  name: "scale6"
  type: "Scale"
  bottom: "fc6"
  top: "fc6"
  scale_param {
    bias_term: true
  }
}
layer {
  name: "relu6"
  type: "ReLU"
  bottom: "fc6"
  top: "fc6"
}
layer {
  name: "drop6"
  type: "Dropout"
  bottom: "fc6"
  top: "fc6"
  dropout_param {
    dropout_ratio: 0.5
  }
}
layer {
  name: "quantized_fc6"
  type: "Quantization"
  bottom: "fc6"
  top: "fc6"
  quantization_param {
    round_method: FLOOR
    round_strategy: AGGRESSIVE
    bit_width: 4
    range: 0
    range: 1.659358
  }
}
layer {
  name: "fc7"
  type: "InnerProduct"
  bottom: "fc6"
  top: "fc7"
  param {
    lr_mult: 1
    decay_mult: 1
  }
  param {
    lr_mult: 2
    decay_mult: 0
  }
  inner_product_param {
    num_output: 4096
    weight_filler {
      type: "gaussian"
      std: 0.005
    }
    bias_filler {
      type: "constant"
      value: 0.1
    }
  }
}
layer {
  name: "bn7"
  type: "BatchNorm"
  bottom: "fc7"
  top: "fc7"
}
layer {
  name: "scale7"
  type: "Scale"
  bottom: "fc7"
  top: "fc7"
  scale_param {
    bias_term: true
  }
}
layer {
  name: "relu7"
  type: "ReLU"
  bottom: "fc7"
  top: "fc7"
}
layer {
  name: "drop7"
  type: "Dropout"
  bottom: "fc7"
  top: "fc7"
  dropout_param {
    dropout_ratio: 0.5
  }
}
layer {
  name: "quantized_fc7"
  type: "Quantization"
  bottom: "fc7"
  top: "fc7"
  quantization_param {
    round_method: FLOOR
    round_strategy: AGGRESSIVE
    bit_width: 4
    range: 0
    range: 7.5598521
  }
}
layer {
  name: "fc8"
  type: "InnerProduct"
  bottom: "fc7"
  top: "fc8"
  param {
    lr_mult: 1
    decay_mult: 1
  }
  param {
    lr_mult: 2
    decay_mult: 0
  }
  inner_product_param {
    num_output: 1000
    weight_filler {
      type: "gaussian"
      std: 0.01
    }
    bias_filler {
      type: "constant"
      value: 0
    }
  }
}
layer {
  name: "accuracy_5_TRAIN"
  type: "Accuracy"
  bottom: "fc8"
  bottom: "label"
  top: "accuracy_5_TRAIN"
  include {
    phase: TRAIN
  }
  accuracy_param {
    top_k: 5
  }
}
layer {
  name: "loss"
  type: "SoftmaxWithLoss"
  bottom: "fc8"
  bottom: "label"
  top: "loss"
}
I0104 18:40:01.046732 42509 layer_factory.hpp:77] Creating layer data
I0104 18:40:01.046865 42509 db_lmdb.cpp:35] Opened lmdb /home/ydwu/database/imagenet/ilsvrc12/lmdb_resize/ilsvrc12_train_lmdb
I0104 18:40:01.046911 42509 net.cpp:84] Creating Layer data
I0104 18:40:01.046931 42509 net.cpp:380] data -> data
I0104 18:40:01.046972 42509 net.cpp:380] data -> label
I0104 18:40:01.048573 42509 data_layer.cpp:45] output data size: 200,3,224,224
I0104 18:40:01.379638 42509 net.cpp:122] Setting up data
I0104 18:40:01.379735 42509 net.cpp:129] Top shape: 200 3 224 224 (30105600)
I0104 18:40:01.379760 42509 net.cpp:129] Top shape: 200 (200)
I0104 18:40:01.379767 42509 net.cpp:137] Memory required for data: 120423200
I0104 18:40:01.379784 42509 layer_factory.hpp:77] Creating layer label_data_1_split
I0104 18:40:01.379806 42509 net.cpp:84] Creating Layer label_data_1_split
I0104 18:40:01.379815 42509 net.cpp:406] label_data_1_split <- label
I0104 18:40:01.379835 42509 net.cpp:380] label_data_1_split -> label_data_1_split_0
I0104 18:40:01.379851 42509 net.cpp:380] label_data_1_split -> label_data_1_split_1
I0104 18:40:01.379932 42509 net.cpp:122] Setting up label_data_1_split
I0104 18:40:01.379950 42509 net.cpp:129] Top shape: 200 (200)
I0104 18:40:01.379956 42509 net.cpp:129] Top shape: 200 (200)
I0104 18:40:01.379961 42509 net.cpp:137] Memory required for data: 120424800
I0104 18:40:01.379967 42509 layer_factory.hpp:77] Creating layer conv1
I0104 18:40:01.379997 42509 net.cpp:84] Creating Layer conv1
I0104 18:40:01.380003 42509 net.cpp:406] conv1 <- data
I0104 18:40:01.380012 42509 net.cpp:380] conv1 -> conv1
I0104 18:40:01.401347 42509 net.cpp:122] Setting up conv1
I0104 18:40:01.401376 42509 net.cpp:129] Top shape: 200 96 55 55 (58080000)
I0104 18:40:01.401386 42509 net.cpp:137] Memory required for data: 352744800
I0104 18:40:01.401412 42509 layer_factory.hpp:77] Creating layer bn1
I0104 18:40:01.401432 42509 net.cpp:84] Creating Layer bn1
I0104 18:40:01.401443 42509 net.cpp:406] bn1 <- conv1
I0104 18:40:01.401453 42509 net.cpp:367] bn1 -> conv1 (in-place)
I0104 18:40:01.401638 42509 net.cpp:122] Setting up bn1
I0104 18:40:01.401655 42509 net.cpp:129] Top shape: 200 96 55 55 (58080000)
I0104 18:40:01.401664 42509 net.cpp:137] Memory required for data: 585064800
I0104 18:40:01.401680 42509 layer_factory.hpp:77] Creating layer scale1
I0104 18:40:01.401698 42509 net.cpp:84] Creating Layer scale1
I0104 18:40:01.401708 42509 net.cpp:406] scale1 <- conv1
I0104 18:40:01.401720 42509 net.cpp:367] scale1 -> conv1 (in-place)
I0104 18:40:01.401775 42509 layer_factory.hpp:77] Creating layer scale1
I0104 18:40:01.401902 42509 net.cpp:122] Setting up scale1
I0104 18:40:01.401919 42509 net.cpp:129] Top shape: 200 96 55 55 (58080000)
I0104 18:40:01.401928 42509 net.cpp:137] Memory required for data: 817384800
I0104 18:40:01.401939 42509 layer_factory.hpp:77] Creating layer relu1
I0104 18:40:01.401954 42509 net.cpp:84] Creating Layer relu1
I0104 18:40:01.401964 42509 net.cpp:406] relu1 <- conv1
I0104 18:40:01.401974 42509 net.cpp:367] relu1 -> conv1 (in-place)
I0104 18:40:01.401988 42509 net.cpp:122] Setting up relu1
I0104 18:40:01.401999 42509 net.cpp:129] Top shape: 200 96 55 55 (58080000)
I0104 18:40:01.402007 42509 net.cpp:137] Memory required for data: 1049704800
I0104 18:40:01.402016 42509 layer_factory.hpp:77] Creating layer pool1
I0104 18:40:01.402029 42509 net.cpp:84] Creating Layer pool1
I0104 18:40:01.402038 42509 net.cpp:406] pool1 <- conv1
I0104 18:40:01.402081 42509 net.cpp:380] pool1 -> pool1
I0104 18:40:01.402139 42509 net.cpp:122] Setting up pool1
I0104 18:40:01.402155 42509 net.cpp:129] Top shape: 200 96 27 27 (13996800)
I0104 18:40:01.402164 42509 net.cpp:137] Memory required for data: 1105692000
I0104 18:40:01.402173 42509 layer_factory.hpp:77] Creating layer quantized_conv1
I0104 18:40:01.402186 42509 net.cpp:84] Creating Layer quantized_conv1
I0104 18:40:01.402196 42509 net.cpp:406] quantized_conv1 <- pool1
I0104 18:40:01.402206 42509 net.cpp:367] quantized_conv1 -> pool1 (in-place)
I0104 18:40:01.402222 42509 net.cpp:122] Setting up quantized_conv1
I0104 18:40:01.402233 42509 net.cpp:129] Top shape: 200 96 27 27 (13996800)
I0104 18:40:01.402241 42509 net.cpp:137] Memory required for data: 1161679200
I0104 18:40:01.402251 42509 layer_factory.hpp:77] Creating layer conv2
I0104 18:40:01.402267 42509 net.cpp:84] Creating Layer conv2
I0104 18:40:01.402277 42509 net.cpp:406] conv2 <- pool1
I0104 18:40:01.402288 42509 net.cpp:380] conv2 -> conv2
I0104 18:40:01.422510 42509 net.cpp:122] Setting up conv2
I0104 18:40:01.422552 42509 net.cpp:129] Top shape: 200 256 27 27 (37324800)
I0104 18:40:01.422564 42509 net.cpp:137] Memory required for data: 1310978400
I0104 18:40:01.422583 42509 layer_factory.hpp:77] Creating layer bn2
I0104 18:40:01.422603 42509 net.cpp:84] Creating Layer bn2
I0104 18:40:01.422614 42509 net.cpp:406] bn2 <- conv2
I0104 18:40:01.422627 42509 net.cpp:367] bn2 -> conv2 (in-place)
I0104 18:40:01.422796 42509 net.cpp:122] Setting up bn2
I0104 18:40:01.422812 42509 net.cpp:129] Top shape: 200 256 27 27 (37324800)
I0104 18:40:01.422821 42509 net.cpp:137] Memory required for data: 1460277600
I0104 18:40:01.422834 42509 layer_factory.hpp:77] Creating layer scale2
I0104 18:40:01.422849 42509 net.cpp:84] Creating Layer scale2
I0104 18:40:01.422858 42509 net.cpp:406] scale2 <- conv2
I0104 18:40:01.422869 42509 net.cpp:367] scale2 -> conv2 (in-place)
I0104 18:40:01.422920 42509 layer_factory.hpp:77] Creating layer scale2
I0104 18:40:01.423080 42509 net.cpp:122] Setting up scale2
I0104 18:40:01.423096 42509 net.cpp:129] Top shape: 200 256 27 27 (37324800)
I0104 18:40:01.423105 42509 net.cpp:137] Memory required for data: 1609576800
I0104 18:40:01.423117 42509 layer_factory.hpp:77] Creating layer relu2
I0104 18:40:01.423130 42509 net.cpp:84] Creating Layer relu2
I0104 18:40:01.423138 42509 net.cpp:406] relu2 <- conv2
I0104 18:40:01.423149 42509 net.cpp:367] relu2 -> conv2 (in-place)
I0104 18:40:01.423161 42509 net.cpp:122] Setting up relu2
I0104 18:40:01.423171 42509 net.cpp:129] Top shape: 200 256 27 27 (37324800)
I0104 18:40:01.423179 42509 net.cpp:137] Memory required for data: 1758876000
I0104 18:40:01.423187 42509 layer_factory.hpp:77] Creating layer pool2
I0104 18:40:01.423199 42509 net.cpp:84] Creating Layer pool2
I0104 18:40:01.423208 42509 net.cpp:406] pool2 <- conv2
I0104 18:40:01.423220 42509 net.cpp:380] pool2 -> pool2
I0104 18:40:01.423264 42509 net.cpp:122] Setting up pool2
I0104 18:40:01.423280 42509 net.cpp:129] Top shape: 200 256 13 13 (8652800)
I0104 18:40:01.423287 42509 net.cpp:137] Memory required for data: 1793487200
I0104 18:40:01.423296 42509 layer_factory.hpp:77] Creating layer quantized_conv2
I0104 18:40:01.423310 42509 net.cpp:84] Creating Layer quantized_conv2
I0104 18:40:01.423318 42509 net.cpp:406] quantized_conv2 <- pool2
I0104 18:40:01.423329 42509 net.cpp:367] quantized_conv2 -> pool2 (in-place)
I0104 18:40:01.423341 42509 net.cpp:122] Setting up quantized_conv2
I0104 18:40:01.423352 42509 net.cpp:129] Top shape: 200 256 13 13 (8652800)
I0104 18:40:01.423360 42509 net.cpp:137] Memory required for data: 1828098400
I0104 18:40:01.423368 42509 layer_factory.hpp:77] Creating layer conv3
I0104 18:40:01.423385 42509 net.cpp:84] Creating Layer conv3
I0104 18:40:01.423395 42509 net.cpp:406] conv3 <- pool2
I0104 18:40:01.423408 42509 net.cpp:380] conv3 -> conv3
I0104 18:40:01.450404 42509 net.cpp:122] Setting up conv3
I0104 18:40:01.450451 42509 net.cpp:129] Top shape: 200 384 13 13 (12979200)
I0104 18:40:01.450501 42509 net.cpp:137] Memory required for data: 1880015200
I0104 18:40:01.450518 42509 layer_factory.hpp:77] Creating layer bn3
I0104 18:40:01.450536 42509 net.cpp:84] Creating Layer bn3
I0104 18:40:01.450547 42509 net.cpp:406] bn3 <- conv3
I0104 18:40:01.450562 42509 net.cpp:367] bn3 -> conv3 (in-place)
I0104 18:40:01.450731 42509 net.cpp:122] Setting up bn3
I0104 18:40:01.450747 42509 net.cpp:129] Top shape: 200 384 13 13 (12979200)
I0104 18:40:01.450755 42509 net.cpp:137] Memory required for data: 1931932000
I0104 18:40:01.450774 42509 layer_factory.hpp:77] Creating layer scale3
I0104 18:40:01.450793 42509 net.cpp:84] Creating Layer scale3
I0104 18:40:01.450801 42509 net.cpp:406] scale3 <- conv3
I0104 18:40:01.450812 42509 net.cpp:367] scale3 -> conv3 (in-place)
I0104 18:40:01.450861 42509 layer_factory.hpp:77] Creating layer scale3
I0104 18:40:01.450981 42509 net.cpp:122] Setting up scale3
I0104 18:40:01.450997 42509 net.cpp:129] Top shape: 200 384 13 13 (12979200)
I0104 18:40:01.451006 42509 net.cpp:137] Memory required for data: 1983848800
I0104 18:40:01.451019 42509 layer_factory.hpp:77] Creating layer relu3
I0104 18:40:01.451113 42509 net.cpp:84] Creating Layer relu3
I0104 18:40:01.451141 42509 net.cpp:406] relu3 <- conv3
I0104 18:40:01.451164 42509 net.cpp:367] relu3 -> conv3 (in-place)
I0104 18:40:01.451182 42509 net.cpp:122] Setting up relu3
I0104 18:40:01.451195 42509 net.cpp:129] Top shape: 200 384 13 13 (12979200)
I0104 18:40:01.451205 42509 net.cpp:137] Memory required for data: 2035765600
I0104 18:40:01.451213 42509 layer_factory.hpp:77] Creating layer quantized_conv3
I0104 18:40:01.451228 42509 net.cpp:84] Creating Layer quantized_conv3
I0104 18:40:01.451237 42509 net.cpp:406] quantized_conv3 <- conv3
I0104 18:40:01.451247 42509 net.cpp:367] quantized_conv3 -> conv3 (in-place)
I0104 18:40:01.451259 42509 net.cpp:122] Setting up quantized_conv3
I0104 18:40:01.451269 42509 net.cpp:129] Top shape: 200 384 13 13 (12979200)
I0104 18:40:01.451277 42509 net.cpp:137] Memory required for data: 2087682400
I0104 18:40:01.451287 42509 layer_factory.hpp:77] Creating layer conv4
I0104 18:40:01.451304 42509 net.cpp:84] Creating Layer conv4
I0104 18:40:01.451314 42509 net.cpp:406] conv4 <- conv3
I0104 18:40:01.451326 42509 net.cpp:380] conv4 -> conv4
I0104 18:40:01.494645 42509 net.cpp:122] Setting up conv4
I0104 18:40:01.494668 42509 net.cpp:129] Top shape: 200 384 13 13 (12979200)
I0104 18:40:01.494678 42509 net.cpp:137] Memory required for data: 2139599200
I0104 18:40:01.494691 42509 layer_factory.hpp:77] Creating layer bn4
I0104 18:40:01.494705 42509 net.cpp:84] Creating Layer bn4
I0104 18:40:01.494715 42509 net.cpp:406] bn4 <- conv4
I0104 18:40:01.494729 42509 net.cpp:367] bn4 -> conv4 (in-place)
I0104 18:40:01.494899 42509 net.cpp:122] Setting up bn4
I0104 18:40:01.494915 42509 net.cpp:129] Top shape: 200 384 13 13 (12979200)
I0104 18:40:01.494925 42509 net.cpp:137] Memory required for data: 2191516000
I0104 18:40:01.494937 42509 layer_factory.hpp:77] Creating layer scale4
I0104 18:40:01.494951 42509 net.cpp:84] Creating Layer scale4
I0104 18:40:01.494992 42509 net.cpp:406] scale4 <- conv4
I0104 18:40:01.495004 42509 net.cpp:367] scale4 -> conv4 (in-place)
I0104 18:40:01.495054 42509 layer_factory.hpp:77] Creating layer scale4
I0104 18:40:01.495173 42509 net.cpp:122] Setting up scale4
I0104 18:40:01.495190 42509 net.cpp:129] Top shape: 200 384 13 13 (12979200)
I0104 18:40:01.495198 42509 net.cpp:137] Memory required for data: 2243432800
I0104 18:40:01.495210 42509 layer_factory.hpp:77] Creating layer relu4
I0104 18:40:01.495223 42509 net.cpp:84] Creating Layer relu4
I0104 18:40:01.495232 42509 net.cpp:406] relu4 <- conv4
I0104 18:40:01.495244 42509 net.cpp:367] relu4 -> conv4 (in-place)
I0104 18:40:01.495256 42509 net.cpp:122] Setting up relu4
I0104 18:40:01.495267 42509 net.cpp:129] Top shape: 200 384 13 13 (12979200)
I0104 18:40:01.495276 42509 net.cpp:137] Memory required for data: 2295349600
I0104 18:40:01.495285 42509 layer_factory.hpp:77] Creating layer quantized_conv4
I0104 18:40:01.495297 42509 net.cpp:84] Creating Layer quantized_conv4
I0104 18:40:01.495343 42509 net.cpp:406] quantized_conv4 <- conv4
I0104 18:40:01.495355 42509 net.cpp:367] quantized_conv4 -> conv4 (in-place)
I0104 18:40:01.495368 42509 net.cpp:122] Setting up quantized_conv4
I0104 18:40:01.495378 42509 net.cpp:129] Top shape: 200 384 13 13 (12979200)
I0104 18:40:01.495388 42509 net.cpp:137] Memory required for data: 2347266400
I0104 18:40:01.495395 42509 layer_factory.hpp:77] Creating layer conv5
I0104 18:40:01.495412 42509 net.cpp:84] Creating Layer conv5
I0104 18:40:01.495422 42509 net.cpp:406] conv5 <- conv4
I0104 18:40:01.495438 42509 net.cpp:380] conv5 -> conv5
I0104 18:40:01.522130 42509 net.cpp:122] Setting up conv5
I0104 18:40:01.522167 42509 net.cpp:129] Top shape: 200 256 13 13 (8652800)
I0104 18:40:01.522177 42509 net.cpp:137] Memory required for data: 2381877600
I0104 18:40:01.522191 42509 layer_factory.hpp:77] Creating layer bn5
I0104 18:40:01.522204 42509 net.cpp:84] Creating Layer bn5
I0104 18:40:01.522214 42509 net.cpp:406] bn5 <- conv5
I0104 18:40:01.522228 42509 net.cpp:367] bn5 -> conv5 (in-place)
I0104 18:40:01.522409 42509 net.cpp:122] Setting up bn5
I0104 18:40:01.522425 42509 net.cpp:129] Top shape: 200 256 13 13 (8652800)
I0104 18:40:01.522434 42509 net.cpp:137] Memory required for data: 2416488800
I0104 18:40:01.522454 42509 layer_factory.hpp:77] Creating layer scale5
I0104 18:40:01.522466 42509 net.cpp:84] Creating Layer scale5
I0104 18:40:01.522475 42509 net.cpp:406] scale5 <- conv5
I0104 18:40:01.522488 42509 net.cpp:367] scale5 -> conv5 (in-place)
I0104 18:40:01.522538 42509 layer_factory.hpp:77] Creating layer scale5
I0104 18:40:01.522651 42509 net.cpp:122] Setting up scale5
I0104 18:40:01.522668 42509 net.cpp:129] Top shape: 200 256 13 13 (8652800)
I0104 18:40:01.522676 42509 net.cpp:137] Memory required for data: 2451100000
I0104 18:40:01.522688 42509 layer_factory.hpp:77] Creating layer relu5
I0104 18:40:01.522702 42509 net.cpp:84] Creating Layer relu5
I0104 18:40:01.522712 42509 net.cpp:406] relu5 <- conv5
I0104 18:40:01.522722 42509 net.cpp:367] relu5 -> conv5 (in-place)
I0104 18:40:01.522733 42509 net.cpp:122] Setting up relu5
I0104 18:40:01.522744 42509 net.cpp:129] Top shape: 200 256 13 13 (8652800)
I0104 18:40:01.522753 42509 net.cpp:137] Memory required for data: 2485711200
I0104 18:40:01.522760 42509 layer_factory.hpp:77] Creating layer pool5
I0104 18:40:01.522773 42509 net.cpp:84] Creating Layer pool5
I0104 18:40:01.522783 42509 net.cpp:406] pool5 <- conv5
I0104 18:40:01.522795 42509 net.cpp:380] pool5 -> pool5
I0104 18:40:01.522840 42509 net.cpp:122] Setting up pool5
I0104 18:40:01.522855 42509 net.cpp:129] Top shape: 200 256 6 6 (1843200)
I0104 18:40:01.522864 42509 net.cpp:137] Memory required for data: 2493084000
I0104 18:40:01.522872 42509 layer_factory.hpp:77] Creating layer quantized_conv5
I0104 18:40:01.522888 42509 net.cpp:84] Creating Layer quantized_conv5
I0104 18:40:01.522898 42509 net.cpp:406] quantized_conv5 <- pool5
I0104 18:40:01.522908 42509 net.cpp:367] quantized_conv5 -> pool5 (in-place)
I0104 18:40:01.522920 42509 net.cpp:122] Setting up quantized_conv5
I0104 18:40:01.522931 42509 net.cpp:129] Top shape: 200 256 6 6 (1843200)
I0104 18:40:01.522939 42509 net.cpp:137] Memory required for data: 2500456800
I0104 18:40:01.522948 42509 layer_factory.hpp:77] Creating layer fc6
I0104 18:40:01.522972 42509 net.cpp:84] Creating Layer fc6
I0104 18:40:01.522984 42509 net.cpp:406] fc6 <- pool5
I0104 18:40:01.522994 42509 net.cpp:380] fc6 -> fc6
I0104 18:40:02.653779 42509 net.cpp:122] Setting up fc6
I0104 18:40:02.653872 42509 net.cpp:129] Top shape: 200 4096 (819200)
I0104 18:40:02.653883 42509 net.cpp:137] Memory required for data: 2503733600
I0104 18:40:02.653899 42509 layer_factory.hpp:77] Creating layer bn6
I0104 18:40:02.653920 42509 net.cpp:84] Creating Layer bn6
I0104 18:40:02.653933 42509 net.cpp:406] bn6 <- fc6
I0104 18:40:02.653945 42509 net.cpp:367] bn6 -> fc6 (in-place)
I0104 18:40:02.654126 42509 net.cpp:122] Setting up bn6
I0104 18:40:02.654142 42509 net.cpp:129] Top shape: 200 4096 (819200)
I0104 18:40:02.654181 42509 net.cpp:137] Memory required for data: 2507010400
I0104 18:40:02.654196 42509 layer_factory.hpp:77] Creating layer scale6
I0104 18:40:02.654217 42509 net.cpp:84] Creating Layer scale6
I0104 18:40:02.654227 42509 net.cpp:406] scale6 <- fc6
I0104 18:40:02.654237 42509 net.cpp:367] scale6 -> fc6 (in-place)
I0104 18:40:02.654289 42509 layer_factory.hpp:77] Creating layer scale6
I0104 18:40:02.654415 42509 net.cpp:122] Setting up scale6
I0104 18:40:02.654431 42509 net.cpp:129] Top shape: 200 4096 (819200)
I0104 18:40:02.654439 42509 net.cpp:137] Memory required for data: 2510287200
I0104 18:40:02.654451 42509 layer_factory.hpp:77] Creating layer relu6
I0104 18:40:02.654465 42509 net.cpp:84] Creating Layer relu6
I0104 18:40:02.654475 42509 net.cpp:406] relu6 <- fc6
I0104 18:40:02.654484 42509 net.cpp:367] relu6 -> fc6 (in-place)
I0104 18:40:02.654496 42509 net.cpp:122] Setting up relu6
I0104 18:40:02.654505 42509 net.cpp:129] Top shape: 200 4096 (819200)
I0104 18:40:02.654513 42509 net.cpp:137] Memory required for data: 2513564000
I0104 18:40:02.654521 42509 layer_factory.hpp:77] Creating layer drop6
I0104 18:40:02.654541 42509 net.cpp:84] Creating Layer drop6
I0104 18:40:02.654551 42509 net.cpp:406] drop6 <- fc6
I0104 18:40:02.654561 42509 net.cpp:367] drop6 -> fc6 (in-place)
I0104 18:40:02.654600 42509 net.cpp:122] Setting up drop6
I0104 18:40:02.654615 42509 net.cpp:129] Top shape: 200 4096 (819200)
I0104 18:40:02.654624 42509 net.cpp:137] Memory required for data: 2516840800
I0104 18:40:02.654633 42509 layer_factory.hpp:77] Creating layer quantized_fc6
I0104 18:40:02.654649 42509 net.cpp:84] Creating Layer quantized_fc6
I0104 18:40:02.654657 42509 net.cpp:406] quantized_fc6 <- fc6
I0104 18:40:02.654667 42509 net.cpp:367] quantized_fc6 -> fc6 (in-place)
I0104 18:40:02.654680 42509 net.cpp:122] Setting up quantized_fc6
I0104 18:40:02.654690 42509 net.cpp:129] Top shape: 200 4096 (819200)
I0104 18:40:02.654696 42509 net.cpp:137] Memory required for data: 2520117600
I0104 18:40:02.654705 42509 layer_factory.hpp:77] Creating layer fc7
I0104 18:40:02.654718 42509 net.cpp:84] Creating Layer fc7
I0104 18:40:02.654726 42509 net.cpp:406] fc7 <- fc6
I0104 18:40:02.654736 42509 net.cpp:380] fc7 -> fc7
I0104 18:40:03.149026 42509 net.cpp:122] Setting up fc7
I0104 18:40:03.149114 42509 net.cpp:129] Top shape: 200 4096 (819200)
I0104 18:40:03.149125 42509 net.cpp:137] Memory required for data: 2523394400
I0104 18:40:03.149142 42509 layer_factory.hpp:77] Creating layer bn7
I0104 18:40:03.149165 42509 net.cpp:84] Creating Layer bn7
I0104 18:40:03.149178 42509 net.cpp:406] bn7 <- fc7
I0104 18:40:03.149193 42509 net.cpp:367] bn7 -> fc7 (in-place)
I0104 18:40:03.149371 42509 net.cpp:122] Setting up bn7
I0104 18:40:03.149389 42509 net.cpp:129] Top shape: 200 4096 (819200)
I0104 18:40:03.149396 42509 net.cpp:137] Memory required for data: 2526671200
I0104 18:40:03.149410 42509 layer_factory.hpp:77] Creating layer scale7
I0104 18:40:03.149425 42509 net.cpp:84] Creating Layer scale7
I0104 18:40:03.149433 42509 net.cpp:406] scale7 <- fc7
I0104 18:40:03.149444 42509 net.cpp:367] scale7 -> fc7 (in-place)
I0104 18:40:03.149492 42509 layer_factory.hpp:77] Creating layer scale7
I0104 18:40:03.149623 42509 net.cpp:122] Setting up scale7
I0104 18:40:03.149639 42509 net.cpp:129] Top shape: 200 4096 (819200)
I0104 18:40:03.149648 42509 net.cpp:137] Memory required for data: 2529948000
I0104 18:40:03.149659 42509 layer_factory.hpp:77] Creating layer relu7
I0104 18:40:03.149672 42509 net.cpp:84] Creating Layer relu7
I0104 18:40:03.149680 42509 net.cpp:406] relu7 <- fc7
I0104 18:40:03.149690 42509 net.cpp:367] relu7 -> fc7 (in-place)
I0104 18:40:03.149701 42509 net.cpp:122] Setting up relu7
I0104 18:40:03.149711 42509 net.cpp:129] Top shape: 200 4096 (819200)
I0104 18:40:03.149719 42509 net.cpp:137] Memory required for data: 2533224800
I0104 18:40:03.149727 42509 layer_factory.hpp:77] Creating layer drop7
I0104 18:40:03.149742 42509 net.cpp:84] Creating Layer drop7
I0104 18:40:03.149751 42509 net.cpp:406] drop7 <- fc7
I0104 18:40:03.149801 42509 net.cpp:367] drop7 -> fc7 (in-place)
I0104 18:40:03.149835 42509 net.cpp:122] Setting up drop7
I0104 18:40:03.149850 42509 net.cpp:129] Top shape: 200 4096 (819200)
I0104 18:40:03.149858 42509 net.cpp:137] Memory required for data: 2536501600
I0104 18:40:03.149866 42509 layer_factory.hpp:77] Creating layer quantized_fc7
I0104 18:40:03.149879 42509 net.cpp:84] Creating Layer quantized_fc7
I0104 18:40:03.149888 42509 net.cpp:406] quantized_fc7 <- fc7
I0104 18:40:03.149899 42509 net.cpp:367] quantized_fc7 -> fc7 (in-place)
I0104 18:40:03.149912 42509 net.cpp:122] Setting up quantized_fc7
I0104 18:40:03.149922 42509 net.cpp:129] Top shape: 200 4096 (819200)
I0104 18:40:03.149930 42509 net.cpp:137] Memory required for data: 2539778400
I0104 18:40:03.149938 42509 layer_factory.hpp:77] Creating layer fc8
I0104 18:40:03.149952 42509 net.cpp:84] Creating Layer fc8
I0104 18:40:03.149960 42509 net.cpp:406] fc8 <- fc7
I0104 18:40:03.149971 42509 net.cpp:380] fc8 -> fc8
I0104 18:40:03.270843 42509 net.cpp:122] Setting up fc8
I0104 18:40:03.270905 42509 net.cpp:129] Top shape: 200 1000 (200000)
I0104 18:40:03.270915 42509 net.cpp:137] Memory required for data: 2540578400
I0104 18:40:03.270931 42509 layer_factory.hpp:77] Creating layer fc8_fc8_0_split
I0104 18:40:03.270948 42509 net.cpp:84] Creating Layer fc8_fc8_0_split
I0104 18:40:03.271003 42509 net.cpp:406] fc8_fc8_0_split <- fc8
I0104 18:40:03.271024 42509 net.cpp:380] fc8_fc8_0_split -> fc8_fc8_0_split_0
I0104 18:40:03.271044 42509 net.cpp:380] fc8_fc8_0_split -> fc8_fc8_0_split_1
I0104 18:40:03.271101 42509 net.cpp:122] Setting up fc8_fc8_0_split
I0104 18:40:03.271121 42509 net.cpp:129] Top shape: 200 1000 (200000)
I0104 18:40:03.271134 42509 net.cpp:129] Top shape: 200 1000 (200000)
I0104 18:40:03.271142 42509 net.cpp:137] Memory required for data: 2542178400
I0104 18:40:03.271150 42509 layer_factory.hpp:77] Creating layer accuracy_5_TRAIN
I0104 18:40:03.271172 42509 net.cpp:84] Creating Layer accuracy_5_TRAIN
I0104 18:40:03.271180 42509 net.cpp:406] accuracy_5_TRAIN <- fc8_fc8_0_split_0
I0104 18:40:03.271190 42509 net.cpp:406] accuracy_5_TRAIN <- label_data_1_split_0
…
I0104 18:40:03.274204 42509 net.cpp:294] The NetState phase (1) differed from the phase (0) specified by a rule in layer accuracy_5_TRAIN
I0104 18:40:03.274443 42509 net.cpp:51] Initializing net from parameters: 
name: "AlexNet-BN"
state {
  phase: TEST
}
layer {
  name: "data"
  type: "Data"
  top: "data"
  top: "label"
  include {
    phase: TEST
  }
  transform_param {
    mirror: false
    crop_size: 224
    mean_value: 103.939
    mean_value: 116.779
    mean_value: 123.68
  }
  data_param {
    source: "/home/ydwu/database/imagenet/ilsvrc12/lmdb_resize/ilsvrc12_val_lmdb"
    batch_size: 200
    backend: LMDB
  }
}
layer {
  name: "conv1"
  type: "Convolution"
  bottom: "data"
  top: "conv1"
  param {
    lr_mult: 1
    decay_mult: 1
  }
  param {
    lr_mult: 2
    decay_mult: 0
  }
  convolution_param {
    num_output: 96
    pad: 2
    kernel_size: 11
    stride: 4
    weight_filler {
      type: "gaussian"
      std: 0.01
    }
    bias_filler {
      type: "constant"
      value: 0
    }
  }
}
layer {
  name: "bn1"
  type: "BatchNorm"
  bottom: "conv1"
  top: "conv1"
}
layer {
  name: "scale1"
  type: "Scale"
  bottom: "conv1"
  top: "conv1"
  scale_param {
    bias_term: true
  }
}
layer {
  name: "relu1"
  type: "ReLU"
  bottom: "conv1"
  top: "conv1"
}
layer {
  name: "pool1"
  type: "Pooling"
  bottom: "conv1"
  top: "pool1"
  pooling_param {
    pool: MAX
    kernel_size: 3
    stride: 2
  }
}
layer {
  name: "quantized_conv1"
  type: "Quantization"
  bottom: "pool1"
  top: "pool1"
  quantization_param {
    round_method: FLOOR
    round_strategy: AGGRESSIVE
    bit_width: 4
    range: 0
    range: 13.965383
  }
}
layer {
  name: "conv2"
  type: "Convolution"
  bottom: "pool1"
  top: "conv2"
  param {
    lr_mult: 1
    decay_mult: 1
  }
  param {
    lr_mult: 2
    decay_mult: 0
  }
  convolution_param {
    num_output: 256
    pad: 2
    kernel_size: 5
    weight_filler {
      type: "gaussian"
      std: 0.01
    }
    bias_filler {
      type: "constant"
      value: 0.1
    }
  }
}
layer {
  name: "bn2"
  type: "BatchNorm"
  bottom: "conv2"
  top: "conv2"
}
layer {
  name: "scale2"
  type: "Scale"
  bottom: "conv2"
  top: "conv2"
  scale_param {
    bias_term: true
  }
}
layer {
  name: "relu2"
  type: "ReLU"
  bottom: "conv2"
  top: "conv2"
}
layer {
  name: "pool2"
  type: "Pooling"
  bottom: "conv2"
  top: "pool2"
  pooling_param {
    pool: MAX
    kernel_size: 3
    stride: 2
  }
}
layer {
  name: "quantized_conv2"
  type: "Quantization"
  bottom: "pool2"
  top: "pool2"
  quantization_param {
    round_method: FLOOR
    round_strategy: AGGRESSIVE
    bit_width: 4
    range: 0
    range: 6.74956
  }
}
layer {
  name: "conv3"
  type: "Convolution"
  bottom: "pool2"
  top: "conv3"
  param {
    lr_mult: 1
    decay_mult: 1
  }
  param {
    lr_mult: 2
    decay_mult: 0
  }
  convolution_param {
    num_output: 384
    pad: 1
    kernel_size: 3
    weight_filler {
      type: "gaussian"
      std: 0.01
    }
    bias_filler {
      type: "constant"
      value: 0
    }
  }
}
layer {
  name: "bn3"
  type: "BatchNorm"
  bottom: "conv3"
  top: "conv3"
}
layer {
  name: "scale3"
  type: "Scale"
  bottom: "conv3"
  top: "conv3"
  scale_param {
    bias_term: true
  }
}
layer {
  name: "relu3"
  type: "ReLU"
  bottom: "conv3"
  top: "conv3"
}
layer {
  name: "quantized_conv3"
  type: "Quantization"
  bottom: "conv3"
  top: "conv3"
  quantization_param {
    round_method: FLOOR
    round_strategy: AGGRESSIVE
    bit_width: 4
    range: 0
    range: 8.48454
  }
}
layer {
  name: "conv4"
  type: "Convolution"
  bottom: "conv3"
  top: "conv4"
  param {
    lr_mult: 1
    decay_mult: 1
  }
  param {
    lr_mult: 2
    decay_mult: 0
  }
  convolution_param {
    num_output: 384
    pad: 1
    kernel_size: 3
    weight_filler {
      type: "gaussian"
      std: 0.01
    }
    bias_filler {
      type: "constant"
      value: 0.1
    }
  }
}
layer {
  name: "bn4"
  type: "BatchNorm"
  bottom: "conv4"
  top: "conv4"
}
layer {
  name: "scale4"
  type: "Scale"
  bottom: "conv4"
  top: "conv4"
  scale_param {
    bias_term: true
  }
}
layer {
  name: "relu4"
  type: "ReLU"
  bottom: "conv4"
  top: "conv4"
}
layer {
  name: "quantized_conv4"
  type: "Quantization"
  bottom: "conv4"
  top: "conv4"
  quantization_param {
    round_method: FLOOR
    round_strategy: AGGRESSIVE
    bit_width: 4
    range: 0
    range: 7.3369722
  }
}
layer {
  name: "conv5"
  type: "Convolution"
  bottom: "conv4"
  top: "conv5"
  param {
    lr_mult: 1
    decay_mult: 1
  }
  param {
    lr_mult: 2
    decay_mult: 0
  }
  convolution_param {
    num_output: 256
    pad: 1
    kernel_size: 3
    weight_filler {
      type: "gaussian"
      std: 0.01
    }
    bias_filler {
      type: "constant"
      value: 0.1
    }
  }
}
layer {
  name: "bn5"
  type: "BatchNorm"
  bottom: "conv5"
  top: "conv5"
}
layer {
  name: "scale5"
  type: "Scale"
  bottom: "conv5"
  top: "conv5"
  scale_param {
    bias_term: true
  }
}
layer {
  name: "relu5"
  type: "ReLU"
  bottom: "conv5"
  top: "conv5"
}
layer {
  name: "pool5"
  type: "Pooling"
  bottom: "conv5"
  top: "pool5"
  pooling_param {
    pool: MAX
    kernel_size: 3
    stride: 2
  }
}
layer {
  name: "quantized_conv5"
  type: "Quantization"
  bottom: "pool5"
  top: "pool5"
  quantization_param {
    round_method: FLOOR
    round_strategy: AGGRESSIVE
    bit_width: 4
    range: 0
    range: 8.7577133
  }
}
layer {
  name: "fc6"
  type: "InnerProduct"
  bottom: "pool5"
  top: "fc6"
  param {
    lr_mult: 1
    decay_mult: 1
  }
  param {
    lr_mult: 2
    decay_mult: 0
  }
  inner_product_param {
    num_output: 4096
    weight_filler {
      type: "gaussian"
      std: 0.005
    }
    bias_filler {
      type: "constant"
      value: 0.1
    }
  }
}
layer {
  name: "bn6"
  type: "BatchNorm"
  bottom: "fc6"
  top: "fc6"
}
layer {
  name: "scale6"
  type: "Scale"
  bottom: "fc6"
  top: "fc6"
  scale_param {
    bias_term: true
  }
}
layer {
  name: "relu6"
  type: "ReLU"
  bottom: "fc6"
  top: "fc6"
}
layer {
  name: "drop6"
  type: "Dropout"
  bottom: "fc6"
  top: "fc6"
  dropout_param {
    dropout_ratio: 0.5
  }
}
layer {
  name: "quantized_fc6"
  type: "Quantization"
  bottom: "fc6"
  top: "fc6"
  quantization_param {
    round_method: FLOOR
    round_strategy: AGGRESSIVE
    bit_width: 4
    range: 0
    range: 1.659358
  }
}
layer {
  name: "fc7"
  type: "InnerProduct"
  bottom: "fc6"
  top: "fc7"
  param {
    lr_mult: 1
    decay_mult: 1
  }
  param {
    lr_mult: 2
    decay_mult: 0
  }
  inner_product_param {
    num_output: 4096
    weight_filler {
      type: "gaussian"
      std: 0.005
    }
    bias_filler {
      type: "constant"
      value: 0.1
    }
  }
}
layer {
  name: "bn7"
  type: "BatchNorm"
  bottom: "fc7"
  top: "fc7"
}
layer {
  name: "scale7"
  type: "Scale"
  bottom: "fc7"
  top: "fc7"
  scale_param {
    bias_term: true
  }
}
layer {
  name: "relu7"
  type: "ReLU"
  bottom: "fc7"
  top: "fc7"
}
layer {
  name: "drop7"
  type: "Dropout"
  bottom: "fc7"
  top: "fc7"
  dropout_param {
    dropout_ratio: 0.5
  }
}
layer {
  name: "quantized_fc7"
  type: "Quantization"
  bottom: "fc7"
  top: "fc7"
  quantization_param {
    round_method: FLOOR
    round_strategy: AGGRESSIVE
    bit_width: 4
    range: 0
    range: 7.5598521
  }
}
layer {
  name: "fc8"
  type: "InnerProduct"
  bottom: "fc7"
  top: "fc8"
  param {
    lr_mult: 1
    decay_mult: 1
  }
  param {
    lr_mult: 2
    decay_mult: 0
  }
  inner_product_param {
    num_output: 1000
    weight_filler {
      type: "gaussian"
      std: 0.01
    }
    bias_filler {
      type: "constant"
      value: 0
    }
  }
}
layer {
  name: "accuracy"
  type: "Accuracy"
  bottom: "fc8"
  bottom: "label"
  top: "accuracy"
  include {
    phase: TEST
  }
}
layer {
  name: "accuracy_5"
  type: "Accuracy"
  bottom: "fc8"
  bottom: "label"
  top: "accuracy_5"
  include {
    phase: TEST
  }
  accuracy_param {
    top_k: 5
  }
}
layer {
  name: "loss"
  type: "SoftmaxWithLoss"
  bottom: "fc8"
  bottom: "label"
  top: "loss"
}
I0104 18:40:03.274631 42509 layer_factory.hpp:77] Creating layer data
I0104 18:40:03.287968 42509 db_lmdb.cpp:35] Opened lmdb /home/ydwu/database/imagenet/ilsvrc12/lmdb_resize/ilsvrc12_val_lmdb
I0104 18:40:03.288017 42509 net.cpp:84] Creating Layer data
I0104 18:40:03.288033 42509 net.cpp:380] data -> data
I0104 18:40:03.288048 42509 net.cpp:380] data -> label
I0104 18:40:03.288377 42509 data_layer.cpp:45] output data size: 200,3,224,224
I0104 18:40:03.630127 42509 net.cpp:122] Setting up data
I0104 18:40:03.630242 42509 net.cpp:129] Top shape: 200 3 224 224 (30105600)
I0104 18:40:03.630256 42509 net.cpp:129] Top shape: 200 (200)
I0104 18:40:03.630278 42509 net.cpp:137] Memory required for data: 120423200
I0104 18:40:03.630304 42509 layer_factory.hpp:77] Creating layer label_data_1_split
I0104 18:40:03.630326 42509 net.cpp:84] Creating Layer label_data_1_split
I0104 18:40:03.630337 42509 net.cpp:406] label_data_1_split <- label
I0104 18:40:03.630355 42509 net.cpp:380] label_data_1_split -> label_data_1_split_0
I0104 18:40:03.630373 42509 net.cpp:380] label_data_1_split -> label_data_1_split_1
I0104 18:40:03.630385 42509 net.cpp:380] label_data_1_split -> label_data_1_split_2
I0104 18:40:03.630488 42509 net.cpp:122] Setting up label_data_1_split
I0104 18:40:03.630506 42509 net.cpp:129] Top shape: 200 (200)
I0104 18:40:03.630517 42509 net.cpp:129] Top shape: 200 (200)
I0104 18:40:03.630525 42509 net.cpp:129] Top shape: 200 (200)
I0104 18:40:03.630534 42509 net.cpp:137] Memory required for data: 120425600
I0104 18:40:03.630542 42509 layer_factory.hpp:77] Creating layer conv1
I0104 18:40:03.630564 42509 net.cpp:84] Creating Layer conv1
I0104 18:40:03.630574 42509 net.cpp:406] conv1 <- data
I0104 18:40:03.630586 42509 net.cpp:380] conv1 -> conv1
I0104 18:40:03.649646 42509 net.cpp:122] Setting up conv1
I0104 18:40:03.649667 42509 net.cpp:129] Top shape: 200 96 55 55 (58080000)
I0104 18:40:03.649677 42509 net.cpp:137] Memory required for data: 352745600
I0104 18:40:03.649693 42509 layer_factory.hpp:77] Creating layer bn1
I0104 18:40:03.649706 42509 net.cpp:84] Creating Layer bn1
I0104 18:40:03.649715 42509 net.cpp:406] bn1 <- conv1
I0104 18:40:03.649726 42509 net.cpp:367] bn1 -> conv1 (in-place)
I0104 18:40:03.649921 42509 net.cpp:122] Setting up bn1
I0104 18:40:03.649938 42509 net.cpp:129] Top shape: 200 96 55 55 (58080000)
I0104 18:40:03.649946 42509 net.cpp:137] Memory required for data: 585065600
I0104 18:40:03.649963 42509 layer_factory.hpp:77] Creating layer scale1
I0104 18:40:03.649978 42509 net.cpp:84] Creating Layer scale1
I0104 18:40:03.649987 42509 net.cpp:406] scale1 <- conv1
I0104 18:40:03.649998 42509 net.cpp:367] scale1 -> conv1 (in-place)
I0104 18:40:03.650049 42509 layer_factory.hpp:77] Creating layer scale1
I0104 18:40:03.650182 42509 net.cpp:122] Setting up scale1
I0104 18:40:03.650198 42509 net.cpp:129] Top shape: 200 96 55 55 (58080000)
I0104 18:40:03.650207 42509 net.cpp:137] Memory required for data: 817385600
I0104 18:40:03.650218 42509 layer_factory.hpp:77] Creating layer relu1
I0104 18:40:03.650230 42509 net.cpp:84] Creating Layer relu1
I0104 18:40:03.650239 42509 net.cpp:406] relu1 <- conv1
I0104 18:40:03.650250 42509 net.cpp:367] relu1 -> conv1 (in-place)
I0104 18:40:03.650261 42509 net.cpp:122] Setting up relu1
I0104 18:40:03.650271 42509 net.cpp:129] Top shape: 200 96 55 55 (58080000)
I0104 18:40:03.650279 42509 net.cpp:137] Memory required for data: 1049705600
I0104 18:40:03.650287 42509 layer_factory.hpp:77] Creating layer pool1
I0104 18:40:03.650300 42509 net.cpp:84] Creating Layer pool1
I0104 18:40:03.650308 42509 net.cpp:406] pool1 <- conv1
I0104 18:40:03.650318 42509 net.cpp:380] pool1 -> pool1
I0104 18:40:03.650365 42509 net.cpp:122] Setting up pool1
I0104 18:40:03.650380 42509 net.cpp:129] Top shape: 200 96 27 27 (13996800)
I0104 18:40:03.650388 42509 net.cpp:137] Memory required for data: 1105692800
I0104 18:40:03.650396 42509 layer_factory.hpp:77] Creating layer quantized_conv1
I0104 18:40:03.650409 42509 net.cpp:84] Creating Layer quantized_conv1
I0104 18:40:03.650418 42509 net.cpp:406] quantized_conv1 <- pool1
I0104 18:40:03.650429 42509 net.cpp:367] quantized_conv1 -> pool1 (in-place)
I0104 18:40:03.650440 42509 net.cpp:122] Setting up quantized_conv1
I0104 18:40:03.650450 42509 net.cpp:129] Top shape: 200 96 27 27 (13996800)
I0104 18:40:03.650458 42509 net.cpp:137] Memory required for data: 1161680000
I0104 18:40:03.650466 42509 layer_factory.hpp:77] Creating layer conv2
I0104 18:40:03.650483 42509 net.cpp:84] Creating Layer conv2
I0104 18:40:03.650492 42509 net.cpp:406] conv2 <- pool1
I0104 18:40:03.650504 42509 net.cpp:380] conv2 -> conv2
I0104 18:40:03.668890 42509 net.cpp:122] Setting up conv2
I0104 18:40:03.668911 42509 net.cpp:129] Top shape: 200 256 27 27 (37324800)
I0104 18:40:03.668920 42509 net.cpp:137] Memory required for data: 1310979200
I0104 18:40:03.668936 42509 layer_factory.hpp:77] Creating layer bn2
I0104 18:40:03.668948 42509 net.cpp:84] Creating Layer bn2
I0104 18:40:03.668957 42509 net.cpp:406] bn2 <- conv2
I0104 18:40:03.668968 42509 net.cpp:367] bn2 -> conv2 (in-place)
I0104 18:40:03.669142 42509 net.cpp:122] Setting up bn2
I0104 18:40:03.669158 42509 net.cpp:129] Top shape: 200 256 27 27 (37324800)
I0104 18:40:03.669167 42509 net.cpp:137] Memory required for data: 1460278400
I0104 18:40:03.669193 42509 layer_factory.hpp:77] Creating layer scale2
I0104 18:40:03.669209 42509 net.cpp:84] Creating Layer scale2
I0104 18:40:03.669216 42509 net.cpp:406] scale2 <- conv2
I0104 18:40:03.669227 42509 net.cpp:367] scale2 -> conv2 (in-place)
I0104 18:40:03.669275 42509 layer_factory.hpp:77] Creating layer scale2
I0104 18:40:03.669384 42509 net.cpp:122] Setting up scale2
I0104 18:40:03.669400 42509 net.cpp:129] Top shape: 200 256 27 27 (37324800)
I0104 18:40:03.669409 42509 net.cpp:137] Memory required for data: 1609577600
I0104 18:40:03.669420 42509 layer_factory.hpp:77] Creating layer relu2
I0104 18:40:03.669431 42509 net.cpp:84] Creating Layer relu2
I0104 18:40:03.669456 42509 net.cpp:406] relu2 <- conv2
I0104 18:40:03.669493 42509 net.cpp:367] relu2 -> conv2 (in-place)
I0104 18:40:03.669505 42509 net.cpp:122] Setting up relu2
I0104 18:40:03.669517 42509 net.cpp:129] Top shape: 200 256 27 27 (37324800)
I0104 18:40:03.669524 42509 net.cpp:137] Memory required for data: 1758876800
I0104 18:40:03.669533 42509 layer_factory.hpp:77] Creating layer pool2
I0104 18:40:03.669543 42509 net.cpp:84] Creating Layer pool2
I0104 18:40:03.669553 42509 net.cpp:406] pool2 <- conv2
I0104 18:40:03.669562 42509 net.cpp:380] pool2 -> pool2
I0104 18:40:03.669610 42509 net.cpp:122] Setting up pool2
I0104 18:40:03.669625 42509 net.cpp:129] Top shape: 200 256 13 13 (8652800)
I0104 18:40:03.669633 42509 net.cpp:137] Memory required for data: 1793488000
I0104 18:40:03.669641 42509 layer_factory.hpp:77] Creating layer quantized_conv2
I0104 18:40:03.669652 42509 net.cpp:84] Creating Layer quantized_conv2
I0104 18:40:03.669661 42509 net.cpp:406] quantized_conv2 <- pool2
I0104 18:40:03.669672 42509 net.cpp:367] quantized_conv2 -> pool2 (in-place)
I0104 18:40:03.669683 42509 net.cpp:122] Setting up quantized_conv2
I0104 18:40:03.669693 42509 net.cpp:129] Top shape: 200 256 13 13 (8652800)
I0104 18:40:03.669701 42509 net.cpp:137] Memory required for data: 1828099200
I0104 18:40:03.669709 42509 layer_factory.hpp:77] Creating layer conv3
I0104 18:40:03.669724 42509 net.cpp:84] Creating Layer conv3
I0104 18:40:03.669734 42509 net.cpp:406] conv3 <- pool2
I0104 18:40:03.669744 42509 net.cpp:380] conv3 -> conv3
I0104 18:40:03.695881 42509 net.cpp:122] Setting up conv3
I0104 18:40:03.695904 42509 net.cpp:129] Top shape: 200 384 13 13 (12979200)
I0104 18:40:03.695914 42509 net.cpp:137] Memory required for data: 1880016000
I0104 18:40:03.695924 42509 layer_factory.hpp:77] Creating layer bn3
I0104 18:40:03.695937 42509 net.cpp:84] Creating Layer bn3
I0104 18:40:03.695946 42509 net.cpp:406] bn3 <- conv3
I0104 18:40:03.695956 42509 net.cpp:367] bn3 -> conv3 (in-place)
I0104 18:40:03.696126 42509 net.cpp:122] Setting up bn3
I0104 18:40:03.696143 42509 net.cpp:129] Top shape: 200 384 13 13 (12979200)
I0104 18:40:03.696151 42509 net.cpp:137] Memory required for data: 1931932800
I0104 18:40:03.696167 42509 layer_factory.hpp:77] Creating layer scale3
I0104 18:40:03.696182 42509 net.cpp:84] Creating Layer scale3
I0104 18:40:03.696190 42509 net.cpp:406] scale3 <- conv3
I0104 18:40:03.696202 42509 net.cpp:367] scale3 -> conv3 (in-place)
I0104 18:40:03.696244 42509 layer_factory.hpp:77] Creating layer scale3
I0104 18:40:03.696358 42509 net.cpp:122] Setting up scale3
I0104 18:40:03.696375 42509 net.cpp:129] Top shape: 200 384 13 13 (12979200)
I0104 18:40:03.696383 42509 net.cpp:137] Memory required for data: 1983849600
I0104 18:40:03.696394 42509 layer_factory.hpp:77] Creating layer relu3
I0104 18:40:03.696406 42509 net.cpp:84] Creating Layer relu3
I0104 18:40:03.696415 42509 net.cpp:406] relu3 <- conv3
I0104 18:40:03.696425 42509 net.cpp:367] relu3 -> conv3 (in-place)
I0104 18:40:03.696436 42509 net.cpp:122] Setting up relu3
I0104 18:40:03.696445 42509 net.cpp:129] Top shape: 200 384 13 13 (12979200)
I0104 18:40:03.696454 42509 net.cpp:137] Memory required for data: 2035766400
I0104 18:40:03.696461 42509 layer_factory.hpp:77] Creating layer quantized_conv3
I0104 18:40:03.696472 42509 net.cpp:84] Creating Layer quantized_conv3
I0104 18:40:03.696496 42509 net.cpp:406] quantized_conv3 <- conv3
I0104 18:40:03.696507 42509 net.cpp:367] quantized_conv3 -> conv3 (in-place)
I0104 18:40:03.696519 42509 net.cpp:122] Setting up quantized_conv3
I0104 18:40:03.696529 42509 net.cpp:129] Top shape: 200 384 13 13 (12979200)
I0104 18:40:03.696537 42509 net.cpp:137] Memory required for data: 2087683200
I0104 18:40:03.696545 42509 layer_factory.hpp:77] Creating layer conv4
I0104 18:40:03.696560 42509 net.cpp:84] Creating Layer conv4
I0104 18:40:03.696570 42509 net.cpp:406] conv4 <- conv3
I0104 18:40:03.696581 42509 net.cpp:380] conv4 -> conv4
I0104 18:40:03.735543 42509 net.cpp:122] Setting up conv4
I0104 18:40:03.735575 42509 net.cpp:129] Top shape: 200 384 13 13 (12979200)
I0104 18:40:03.735585 42509 net.cpp:137] Memory required for data: 2139600000
I0104 18:40:03.735597 42509 layer_factory.hpp:77] Creating layer bn4
I0104 18:40:03.735616 42509 net.cpp:84] Creating Layer bn4
I0104 18:40:03.735627 42509 net.cpp:406] bn4 <- conv4
I0104 18:40:03.735638 42509 net.cpp:367] bn4 -> conv4 (in-place)
I0104 18:40:03.735818 42509 net.cpp:122] Setting up bn4
I0104 18:40:03.735834 42509 net.cpp:129] Top shape: 200 384 13 13 (12979200)
I0104 18:40:03.735843 42509 net.cpp:137] Memory required for data: 2191516800
I0104 18:40:03.735855 42509 layer_factory.hpp:77] Creating layer scale4
I0104 18:40:03.735869 42509 net.cpp:84] Creating Layer scale4
I0104 18:40:03.735877 42509 net.cpp:406] scale4 <- conv4
I0104 18:40:03.735890 42509 net.cpp:367] scale4 -> conv4 (in-place)
I0104 18:40:03.735936 42509 layer_factory.hpp:77] Creating layer scale4
I0104 18:40:03.736057 42509 net.cpp:122] Setting up scale4
I0104 18:40:03.736073 42509 net.cpp:129] Top shape: 200 384 13 13 (12979200)
I0104 18:40:03.736081 42509 net.cpp:137] Memory required for data: 2243433600
I0104 18:40:03.736093 42509 layer_factory.hpp:77] Creating layer relu4
I0104 18:40:03.736106 42509 net.cpp:84] Creating Layer relu4
I0104 18:40:03.736115 42509 net.cpp:406] relu4 <- conv4
I0104 18:40:03.736124 42509 net.cpp:367] relu4 -> conv4 (in-place)
I0104 18:40:03.736136 42509 net.cpp:122] Setting up relu4
I0104 18:40:03.736146 42509 net.cpp:129] Top shape: 200 384 13 13 (12979200)
I0104 18:40:03.736155 42509 net.cpp:137] Memory required for data: 2295350400
I0104 18:40:03.736162 42509 layer_factory.hpp:77] Creating layer quantized_conv4
I0104 18:40:03.736174 42509 net.cpp:84] Creating Layer quantized_conv4
I0104 18:40:03.736183 42509 net.cpp:406] quantized_conv4 <- conv4
I0104 18:40:03.736196 42509 net.cpp:367] quantized_conv4 -> conv4 (in-place)
I0104 18:40:03.736207 42509 net.cpp:122] Setting up quantized_conv4
I0104 18:40:03.736217 42509 net.cpp:129] Top shape: 200 384 13 13 (12979200)
I0104 18:40:03.736225 42509 net.cpp:137] Memory required for data: 2347267200
I0104 18:40:03.736233 42509 layer_factory.hpp:77] Creating layer conv5
I0104 18:40:03.736251 42509 net.cpp:84] Creating Layer conv5
I0104 18:40:03.736260 42509 net.cpp:406] conv5 <- conv4
I0104 18:40:03.736271 42509 net.cpp:380] conv5 -> conv5
I0104 18:40:03.762501 42509 net.cpp:122] Setting up conv5
I0104 18:40:03.762527 42509 net.cpp:129] Top shape: 200 256 13 13 (8652800)
I0104 18:40:03.762537 42509 net.cpp:137] Memory required for data: 2381878400
I0104 18:40:03.762547 42509 layer_factory.hpp:77] Creating layer bn5
I0104 18:40:03.762562 42509 net.cpp:84] Creating Layer bn5
I0104 18:40:03.762570 42509 net.cpp:406] bn5 <- conv5
I0104 18:40:03.762584 42509 net.cpp:367] bn5 -> conv5 (in-place)
I0104 18:40:03.762766 42509 net.cpp:122] Setting up bn5
I0104 18:40:03.762784 42509 net.cpp:129] Top shape: 200 256 13 13 (8652800)
I0104 18:40:03.762791 42509 net.cpp:137] Memory required for data: 2416489600
I0104 18:40:03.762809 42509 layer_factory.hpp:77] Creating layer scale5
I0104 18:40:03.762825 42509 net.cpp:84] Creating Layer scale5
I0104 18:40:03.762835 42509 net.cpp:406] scale5 <- conv5
I0104 18:40:03.762845 42509 net.cpp:367] scale5 -> conv5 (in-place)
I0104 18:40:03.762893 42509 layer_factory.hpp:77] Creating layer scale5
I0104 18:40:03.763018 42509 net.cpp:122] Setting up scale5
I0104 18:40:03.763067 42509 net.cpp:129] Top shape: 200 256 13 13 (8652800)
I0104 18:40:03.763077 42509 net.cpp:137] Memory required for data: 2451100800
I0104 18:40:03.763090 42509 layer_factory.hpp:77] Creating layer relu5
I0104 18:40:03.763103 42509 net.cpp:84] Creating Layer relu5
I0104 18:40:03.763111 42509 net.cpp:406] relu5 <- conv5
I0104 18:40:03.763124 42509 net.cpp:367] relu5 -> conv5 (in-place)
I0104 18:40:03.763136 42509 net.cpp:122] Setting up relu5
I0104 18:40:03.763146 42509 net.cpp:129] Top shape: 200 256 13 13 (8652800)
I0104 18:40:03.763154 42509 net.cpp:137] Memory required for data: 2485712000
I0104 18:40:03.763162 42509 layer_factory.hpp:77] Creating layer pool5
I0104 18:40:03.763175 42509 net.cpp:84] Creating Layer pool5
I0104 18:40:03.763183 42509 net.cpp:406] pool5 <- conv5
I0104 18:40:03.763193 42509 net.cpp:380] pool5 -> pool5
I0104 18:40:03.763247 42509 net.cpp:122] Setting up pool5
I0104 18:40:03.763262 42509 net.cpp:129] Top shape: 200 256 6 6 (1843200)
I0104 18:40:03.763270 42509 net.cpp:137] Memory required for data: 2493084800
I0104 18:40:03.763278 42509 layer_factory.hpp:77] Creating layer quantized_conv5
I0104 18:40:03.763289 42509 net.cpp:84] Creating Layer quantized_conv5
I0104 18:40:03.763298 42509 net.cpp:406] quantized_conv5 <- pool5
I0104 18:40:03.763309 42509 net.cpp:367] quantized_conv5 -> pool5 (in-place)
I0104 18:40:03.763319 42509 net.cpp:122] Setting up quantized_conv5
I0104 18:40:03.763330 42509 net.cpp:129] Top shape: 200 256 6 6 (1843200)
I0104 18:40:03.763339 42509 net.cpp:137] Memory required for data: 2500457600
I0104 18:40:03.763346 42509 layer_factory.hpp:77] Creating layer fc6
I0104 18:40:03.763360 42509 net.cpp:84] Creating Layer fc6
I0104 18:40:03.763368 42509 net.cpp:406] fc6 <- pool5
I0104 18:40:03.763381 42509 net.cpp:380] fc6 -> fc6
I0104 18:40:04.882266 42509 net.cpp:122] Setting up fc6
I0104 18:40:04.882364 42509 net.cpp:129] Top shape: 200 4096 (819200)
I0104 18:40:04.882377 42509 net.cpp:137] Memory required for data: 2503734400
I0104 18:40:04.882395 42509 layer_factory.hpp:77] Creating layer bn6
I0104 18:40:04.882414 42509 net.cpp:84] Creating Layer bn6
I0104 18:40:04.882426 42509 net.cpp:406] bn6 <- fc6
I0104 18:40:04.882443 42509 net.cpp:367] bn6 -> fc6 (in-place)
I0104 18:40:04.882647 42509 net.cpp:122] Setting up bn6
I0104 18:40:04.882663 42509 net.cpp:129] Top shape: 200 4096 (819200)
I0104 18:40:04.882671 42509 net.cpp:137] Memory required for data: 2507011200
I0104 18:40:04.882684 42509 layer_factory.hpp:77] Creating layer scale6
I0104 18:40:04.882702 42509 net.cpp:84] Creating Layer scale6
I0104 18:40:04.882712 42509 net.cpp:406] scale6 <- fc6
I0104 18:40:04.882722 42509 net.cpp:367] scale6 -> fc6 (in-place)
I0104 18:40:04.882776 42509 layer_factory.hpp:77] Creating layer scale6
I0104 18:40:04.882903 42509 net.cpp:122] Setting up scale6
I0104 18:40:04.882920 42509 net.cpp:129] Top shape: 200 4096 (819200)
I0104 18:40:04.882927 42509 net.cpp:137] Memory required for data: 2510288000
I0104 18:40:04.882939 42509 layer_factory.hpp:77] Creating layer relu6
I0104 18:40:04.882961 42509 net.cpp:84] Creating Layer relu6
I0104 18:40:04.882972 42509 net.cpp:406] relu6 <- fc6
I0104 18:40:04.882982 42509 net.cpp:367] relu6 -> fc6 (in-place)
I0104 18:40:04.882993 42509 net.cpp:122] Setting up relu6
I0104 18:40:04.883003 42509 net.cpp:129] Top shape: 200 4096 (819200)
I0104 18:40:04.883011 42509 net.cpp:137] Memory required for data: 2513564800
I0104 18:40:04.883023 42509 layer_factory.hpp:77] Creating layer drop6
I0104 18:40:04.883038 42509 net.cpp:84] Creating Layer drop6
I0104 18:40:04.883049 42509 net.cpp:406] drop6 <- fc6
I0104 18:40:04.883060 42509 net.cpp:367] drop6 -> fc6 (in-place)
I0104 18:40:04.883095 42509 net.cpp:122] Setting up drop6
I0104 18:40:04.883113 42509 net.cpp:129] Top shape: 200 4096 (819200)
I0104 18:40:04.883122 42509 net.cpp:137] Memory required for data: 2516841600
I0104 18:40:04.883131 42509 layer_factory.hpp:77] Creating layer quantized_fc6
I0104 18:40:04.883146 42509 net.cpp:84] Creating Layer quantized_fc6
I0104 18:40:04.883185 42509 net.cpp:406] quantized_fc6 <- fc6
I0104 18:40:04.883198 42509 net.cpp:367] quantized_fc6 -> fc6 (in-place)
I0104 18:40:04.883209 42509 net.cpp:122] Setting up quantized_fc6
I0104 18:40:04.883220 42509 net.cpp:129] Top shape: 200 4096 (819200)
I0104 18:40:04.883229 42509 net.cpp:137] Memory required for data: 2520118400
I0104 18:40:04.883237 42509 layer_factory.hpp:77] Creating layer fc7
I0104 18:40:04.883251 42509 net.cpp:84] Creating Layer fc7
I0104 18:40:04.883260 42509 net.cpp:406] fc7 <- fc6
I0104 18:40:04.883273 42509 net.cpp:380] fc7 -> fc7
I0104 18:40:05.373306 42509 net.cpp:122] Setting up fc7
I0104 18:40:05.373409 42509 net.cpp:129] Top shape: 200 4096 (819200)
I0104 18:40:05.373423 42509 net.cpp:137] Memory required for data: 2523395200
I0104 18:40:05.373440 42509 layer_factory.hpp:77] Creating layer bn7
I0104 18:40:05.373461 42509 net.cpp:84] Creating Layer bn7
I0104 18:40:05.373472 42509 net.cpp:406] bn7 <- fc7
I0104 18:40:05.373486 42509 net.cpp:367] bn7 -> fc7 (in-place)
I0104 18:40:05.373685 42509 net.cpp:122] Setting up bn7
I0104 18:40:05.373703 42509 net.cpp:129] Top shape: 200 4096 (819200)
I0104 18:40:05.373711 42509 net.cpp:137] Memory required for data: 2526672000
I0104 18:40:05.373726 42509 layer_factory.hpp:77] Creating layer scale7
I0104 18:40:05.373740 42509 net.cpp:84] Creating Layer scale7
I0104 18:40:05.373749 42509 net.cpp:406] scale7 <- fc7
I0104 18:40:05.373759 42509 net.cpp:367] scale7 -> fc7 (in-place)
I0104 18:40:05.373811 42509 layer_factory.hpp:77] Creating layer scale7
I0104 18:40:05.373948 42509 net.cpp:122] Setting up scale7
I0104 18:40:05.373965 42509 net.cpp:129] Top shape: 200 4096 (819200)
I0104 18:40:05.373973 42509 net.cpp:137] Memory required for data: 2529948800
I0104 18:40:05.373984 42509 layer_factory.hpp:77] Creating layer relu7
I0104 18:40:05.373999 42509 net.cpp:84] Creating Layer relu7
I0104 18:40:05.374008 42509 net.cpp:406] relu7 <- fc7
I0104 18:40:05.374018 42509 net.cpp:367] relu7 -> fc7 (in-place)
I0104 18:40:05.374029 42509 net.cpp:122] Setting up relu7
I0104 18:40:05.374039 42509 net.cpp:129] Top shape: 200 4096 (819200)
I0104 18:40:05.374047 42509 net.cpp:137] Memory required for data: 2533225600
I0104 18:40:05.374055 42509 layer_factory.hpp:77] Creating layer drop7
I0104 18:40:05.374069 42509 net.cpp:84] Creating Layer drop7
I0104 18:40:05.374078 42509 net.cpp:406] drop7 <- fc7
I0104 18:40:05.374089 42509 net.cpp:367] drop7 -> fc7 (in-place)
I0104 18:40:05.374119 42509 net.cpp:122] Setting up drop7
I0104 18:40:05.374133 42509 net.cpp:129] Top shape: 200 4096 (819200)
I0104 18:40:05.374142 42509 net.cpp:137] Memory required for data: 2536502400
I0104 18:40:05.374150 42509 layer_factory.hpp:77] Creating layer quantized_fc7
I0104 18:40:05.374166 42509 net.cpp:84] Creating Layer quantized_fc7
I0104 18:40:05.374176 42509 net.cpp:406] quantized_fc7 <- fc7
I0104 18:40:05.374186 42509 net.cpp:367] quantized_fc7 -> fc7 (in-place)
I0104 18:40:05.374197 42509 net.cpp:122] Setting up quantized_fc7
I0104 18:40:05.374207 42509 net.cpp:129] Top shape: 200 4096 (819200)
I0104 18:40:05.374215 42509 net.cpp:137] Memory required for data: 2539779200
I0104 18:40:05.374223 42509 layer_factory.hpp:77] Creating layer fc8
I0104 18:40:05.374236 42509 net.cpp:84] Creating Layer fc8
I0104 18:40:05.374245 42509 net.cpp:406] fc8 <- fc7
I0104 18:40:05.374256 42509 net.cpp:380] fc8 -> fc8
I0104 18:40:05.495265 42509 net.cpp:122] Setting up fc8
I0104 18:40:05.495322 42509 net.cpp:129] Top shape: 200 1000 (200000)
I0104 18:40:05.495332 42509 net.cpp:137] Memory required for data: 2540579200
I0104 18:40:05.495348 42509 layer_factory.hpp:77] Creating layer fc8_fc8_0_split
I0104 18:40:05.495368 42509 net.cpp:84] Creating Layer fc8_fc8_0_split
I0104 18:40:05.495380 42509 net.cpp:406] fc8_fc8_0_split <- fc8
I0104 18:40:05.495394 42509 net.cpp:380] fc8_fc8_0_split -> fc8_fc8_0_split_0
I0104 18:40:05.495417 42509 net.cpp:380] fc8_fc8_0_split -> fc8_fc8_0_split_1
I0104 18:40:05.495430 42509 net.cpp:380] fc8_fc8_0_split -> fc8_fc8_0_split_2
I0104 18:40:05.495494 42509 net.cpp:122] Setting up fc8_fc8_0_split
I0104 18:40:05.495584 42509 net.cpp:129] Top shape: 200 1000 (200000)
I0104 18:40:05.495595 42509 net.cpp:129] Top shape: 200 1000 (200000)
I0104 18:40:05.495604 42509 net.cpp:129] Top shape: 200 1000 (200000)
I0104 18:40:05.495611 42509 net.cpp:137] Memory required for data: 2542979200
I0104 18:40:05.495620 42509 layer_factory.hpp:77] Creating layer accuracy
I0104 18:40:05.495635 42509 net.cpp:84] Creating Layer accuracy
I0104 18:40:05.495645 42509 net.cpp:406] accuracy <- fc8_fc8_0_split_0
I0104 18:40:05.495656 42509 net.cpp:406] accuracy <- label_data_1_split_0
I0104 18:40:05.495666 42509 net.cpp:380] accuracy -> accuracy
…
