…
I0105 08:50:52.291692  2985 net.cpp:294] The NetState phase (0) differed from the phase (1) specified by a rule in layer accuracy_5
I0105 08:50:52.291950  2985 net.cpp:51] Initializing net from parameters: 
name: "AlexNet-BN"
state {
  phase: TRAIN
  level: 0
  stage: ""
}
layer {
  name: "data"
  type: "Data"
  top: "data"
  top: "label"
  include {
    phase: TRAIN
  }
  transform_param {
    mirror: true
    crop_size: 224
    mean_value: 103.939
    mean_value: 116.779
    mean_value: 123.68
  }
  data_param {
    source: "/home/ydwu/database/imagenet/ilsvrc12/lmdb_resize/ilsvrc12_train_lmdb"
    batch_size: 200
    backend: LMDB
  }
}
layer {
  name: "conv1"
  type: "Convolution"
  bottom: "data"
  top: "conv1"
  param {
    lr_mult: 1
    decay_mult: 1
  }
  param {
    lr_mult: 2
    decay_mult: 0
  }
  convolution_param {
    num_output: 96
    pad: 2
    kernel_size: 11
    stride: 4
    weight_filler {
      type: "gaussian"
      std: 0.01
    }
    bias_filler {
      type: "constant"
      value: 0
    }
  }
}
layer {
  name: "bn1"
  type: "BatchNorm"
  bottom: "conv1"
  top: "conv1"
}
layer {
  name: "scale1"
  type: "Scale"
  bottom: "conv1"
  top: "conv1"
  scale_param {
    bias_term: true
  }
}
layer {
  name: "relu1"
  type: "ReLU"
  bottom: "conv1"
  top: "conv1"
}
layer {
  name: "pool1"
  type: "Pooling"
  bottom: "conv1"
  top: "pool1"
  pooling_param {
    pool: MAX
    kernel_size: 3
    stride: 2
  }
}
layer {
  name: "quantized_conv1"
  type: "Quantization"
  bottom: "pool1"
  top: "pool1"
  quantization_param {
    round_method: FLOOR
    round_strategy: AGGRESSIVE
    bit_width: 4
    range: 0
    range: 13.965383
  }
}
layer {
  name: "conv2"
  type: "Convolution"
  bottom: "pool1"
  top: "conv2"
  param {
    lr_mult: 1
    decay_mult: 1
  }
  param {
    lr_mult: 2
    decay_mult: 0
  }
  convolution_param {
    num_output: 256
    pad: 2
    kernel_size: 5
    weight_filler {
      type: "gaussian"
      std: 0.01
    }
    bias_filler {
      type: "constant"
      value: 0.1
    }
  }
}
layer {
  name: "bn2"
  type: "BatchNorm"
  bottom: "conv2"
  top: "conv2"
}
layer {
  name: "scale2"
  type: "Scale"
  bottom: "conv2"
  top: "conv2"
  scale_param {
    bias_term: true
  }
}
layer {
  name: "relu2"
  type: "ReLU"
  bottom: "conv2"
  top: "conv2"
}
layer {
  name: "pool2"
  type: "Pooling"
  bottom: "conv2"
  top: "pool2"
  pooling_param {
    pool: MAX
    kernel_size: 3
    stride: 2
  }
}
layer {
  name: "quantized_conv2"
  type: "Quantization"
  bottom: "pool2"
  top: "pool2"
  quantization_param {
    round_method: FLOOR
    round_strategy: AGGRESSIVE
    bit_width: 4
    range: 0
    range: 6.74956
  }
}
layer {
  name: "conv3"
  type: "Convolution"
  bottom: "pool2"
  top: "conv3"
  param {
    lr_mult: 1
    decay_mult: 1
  }
  param {
    lr_mult: 2
    decay_mult: 0
  }
  convolution_param {
    num_output: 384
    pad: 1
    kernel_size: 3
    weight_filler {
      type: "gaussian"
      std: 0.01
    }
    bias_filler {
      type: "constant"
      value: 0
    }
  }
}
layer {
  name: "bn3"
  type: "BatchNorm"
  bottom: "conv3"
  top: "conv3"
}
layer {
  name: "scale3"
  type: "Scale"
  bottom: "conv3"
  top: "conv3"
  scale_param {
    bias_term: true
  }
}
layer {
  name: "relu3"
  type: "ReLU"
  bottom: "conv3"
  top: "conv3"
}
layer {
  name: "quantized_conv3"
  type: "Quantization"
  bottom: "conv3"
  top: "conv3"
  quantization_param {
    round_method: FLOOR
    round_strategy: AGGRESSIVE
    bit_width: 4
    range: 0
    range: 8.48454
  }
}
layer {
  name: "conv4"
  type: "Convolution"
  bottom: "conv3"
  top: "conv4"
  param {
    lr_mult: 1
    decay_mult: 1
  }
  param {
    lr_mult: 2
    decay_mult: 0
  }
  convolution_param {
    num_output: 384
    pad: 1
    kernel_size: 3
    weight_filler {
      type: "gaussian"
      std: 0.01
    }
    bias_filler {
      type: "constant"
      value: 0.1
    }
  }
}
layer {
  name: "bn4"
  type: "BatchNorm"
  bottom: "conv4"
  top: "conv4"
}
layer {
  name: "scale4"
  type: "Scale"
  bottom: "conv4"
  top: "conv4"
  scale_param {
    bias_term: true
  }
}
layer {
  name: "relu4"
  type: "ReLU"
  bottom: "conv4"
  top: "conv4"
}
layer {
  name: "quantized_conv4"
  type: "Quantization"
  bottom: "conv4"
  top: "conv4"
  quantization_param {
    round_method: FLOOR
    round_strategy: AGGRESSIVE
    bit_width: 4
    range: 0
    range: 7.3369722
  }
}
layer {
  name: "conv5"
  type: "Convolution"
  bottom: "conv4"
  top: "conv5"
  param {
    lr_mult: 1
    decay_mult: 1
  }
  param {
    lr_mult: 2
    decay_mult: 0
  }
  convolution_param {
    num_output: 256
    pad: 1
    kernel_size: 3
    weight_filler {
      type: "gaussian"
      std: 0.01
    }
    bias_filler {
      type: "constant"
      value: 0.1
    }
  }
}
layer {
  name: "bn5"
  type: "BatchNorm"
  bottom: "conv5"
  top: "conv5"
}
layer {
  name: "scale5"
  type: "Scale"
  bottom: "conv5"
  top: "conv5"
  scale_param {
    bias_term: true
  }
}
layer {
  name: "relu5"
  type: "ReLU"
  bottom: "conv5"
  top: "conv5"
}
layer {
  name: "pool5"
  type: "Pooling"
  bottom: "conv5"
  top: "pool5"
  pooling_param {
    pool: MAX
    kernel_size: 3
    stride: 2
  }
}
layer {
  name: "quantized_conv5"
  type: "Quantization"
  bottom: "pool5"
  top: "pool5"
  quantization_param {
    round_method: FLOOR
    round_strategy: AGGRESSIVE
    bit_width: 4
    range: 0
    range: 8.7577133
  }
}
layer {
  name: "fc6"
  type: "InnerProduct"
  bottom: "pool5"
  top: "fc6"
  param {
    lr_mult: 1
    decay_mult: 1
  }
  param {
    lr_mult: 2
    decay_mult: 0
  }
  inner_product_param {
    num_output: 4096
    weight_filler {
      type: "gaussian"
      std: 0.005
    }
    bias_filler {
      type: "constant"
      value: 0.1
    }
  }
}
layer {
  name: "bn6"
  type: "BatchNorm"
  bottom: "fc6"
  top: "fc6"
}
layer {
  name: "scale6"
  type: "Scale"
  bottom: "fc6"
  top: "fc6"
  scale_param {
    bias_term: true
  }
}
layer {
  name: "relu6"
  type: "ReLU"
  bottom: "fc6"
  top: "fc6"
}
layer {
  name: "drop6"
  type: "Dropout"
  bottom: "fc6"
  top: "fc6"
  dropout_param {
    dropout_ratio: 0.5
  }
}
layer {
  name: "quantized_fc6"
  type: "Quantization"
  bottom: "fc6"
  top: "fc6"
  quantization_param {
    round_method: FLOOR
    round_strategy: AGGRESSIVE
    bit_width: 4
    range: 0
    range: 1.659358
  }
}
layer {
  name: "fc7"
  type: "InnerProduct"
  bottom: "fc6"
  top: "fc7"
  param {
    lr_mult: 1
    decay_mult: 1
  }
  param {
    lr_mult: 2
    decay_mult: 0
  }
  inner_product_param {
    num_output: 4096
    weight_filler {
      type: "gaussian"
      std: 0.005
    }
    bias_filler {
      type: "constant"
      value: 0.1
    }
  }
}
layer {
  name: "bn7"
  type: "BatchNorm"
  bottom: "fc7"
  top: "fc7"
}
layer {
  name: "scale7"
  type: "Scale"
  bottom: "fc7"
  top: "fc7"
  scale_param {
    bias_term: true
  }
}
layer {
  name: "relu7"
  type: "ReLU"
  bottom: "fc7"
  top: "fc7"
}
layer {
  name: "drop7"
  type: "Dropout"
  bottom: "fc7"
  top: "fc7"
  dropout_param {
    dropout_ratio: 0.5
  }
}
layer {
  name: "quantized_fc7"
  type: "Quantization"
  bottom: "fc7"
  top: "fc7"
  quantization_param {
    round_method: FLOOR
    round_strategy: AGGRESSIVE
    bit_width: 4
    range: 0
    range: 7.5598521
  }
}
layer {
  name: "fc8"
  type: "InnerProduct"
  bottom: "fc7"
  top: "fc8"
  param {
    lr_mult: 1
    decay_mult: 1
  }
  param {
    lr_mult: 2
    decay_mult: 0
  }
  inner_product_param {
    num_output: 1000
    weight_filler {
      type: "gaussian"
      std: 0.01
    }
    bias_filler {
      type: "constant"
      value: 0
    }
  }
}
layer {
  name: "accuracy_5_TRAIN"
  type: "Accuracy"
  bottom: "fc8"
  bottom: "label"
  top: "accuracy_5_TRAIN"
  include {
    phase: TRAIN
  }
  accuracy_param {
    top_k: 5
  }
}
layer {
  name: "loss"
  type: "SoftmaxWithLoss"
  bottom: "fc8"
  bottom: "label"
  top: "loss"
}
I0105 08:50:52.292203  2985 layer_factory.hpp:77] Creating layer data
I0105 08:50:52.292336  2985 db_lmdb.cpp:35] Opened lmdb /home/ydwu/database/imagenet/ilsvrc12/lmdb_resize/ilsvrc12_train_lmdb
I0105 08:50:52.292383  2985 net.cpp:84] Creating Layer data
I0105 08:50:52.292405  2985 net.cpp:380] data -> data
I0105 08:50:52.292439  2985 net.cpp:380] data -> label
I0105 08:50:52.294237  2985 data_layer.cpp:45] output data size: 200,3,224,224
I0105 08:50:52.640722  2985 net.cpp:122] Setting up data
I0105 08:50:52.640820  2985 net.cpp:129] Top shape: 200 3 224 224 (30105600)
I0105 08:50:52.640835  2985 net.cpp:129] Top shape: 200 (200)
I0105 08:50:52.640844  2985 net.cpp:137] Memory required for data: 120423200
I0105 08:50:52.640862  2985 layer_factory.hpp:77] Creating layer label_data_1_split
I0105 08:50:52.640887  2985 net.cpp:84] Creating Layer label_data_1_split
I0105 08:50:52.640902  2985 net.cpp:406] label_data_1_split <- label
I0105 08:50:52.640925  2985 net.cpp:380] label_data_1_split -> label_data_1_split_0
I0105 08:50:52.640945  2985 net.cpp:380] label_data_1_split -> label_data_1_split_1
I0105 08:50:52.641000  2985 net.cpp:122] Setting up label_data_1_split
I0105 08:50:52.641016  2985 net.cpp:129] Top shape: 200 (200)
I0105 08:50:52.641026  2985 net.cpp:129] Top shape: 200 (200)
I0105 08:50:52.641036  2985 net.cpp:137] Memory required for data: 120424800
I0105 08:50:52.641043  2985 layer_factory.hpp:77] Creating layer conv1
I0105 08:50:52.641074  2985 net.cpp:84] Creating Layer conv1
I0105 08:50:52.641085  2985 net.cpp:406] conv1 <- data
I0105 08:50:52.641099  2985 net.cpp:380] conv1 -> conv1
I0105 08:50:52.661867  2985 net.cpp:122] Setting up conv1
I0105 08:50:52.661890  2985 net.cpp:129] Top shape: 200 96 55 55 (58080000)
I0105 08:50:52.661900  2985 net.cpp:137] Memory required for data: 352744800
I0105 08:50:52.661923  2985 layer_factory.hpp:77] Creating layer bn1
I0105 08:50:52.661940  2985 net.cpp:84] Creating Layer bn1
I0105 08:50:52.661952  2985 net.cpp:406] bn1 <- conv1
I0105 08:50:52.661962  2985 net.cpp:367] bn1 -> conv1 (in-place)
I0105 08:50:52.662149  2985 net.cpp:122] Setting up bn1
I0105 08:50:52.662168  2985 net.cpp:129] Top shape: 200 96 55 55 (58080000)
I0105 08:50:52.662176  2985 net.cpp:137] Memory required for data: 585064800
I0105 08:50:52.662194  2985 layer_factory.hpp:77] Creating layer scale1
I0105 08:50:52.662211  2985 net.cpp:84] Creating Layer scale1
I0105 08:50:52.662221  2985 net.cpp:406] scale1 <- conv1
I0105 08:50:52.662233  2985 net.cpp:367] scale1 -> conv1 (in-place)
I0105 08:50:52.662289  2985 layer_factory.hpp:77] Creating layer scale1
I0105 08:50:52.662422  2985 net.cpp:122] Setting up scale1
I0105 08:50:52.662441  2985 net.cpp:129] Top shape: 200 96 55 55 (58080000)
I0105 08:50:52.662449  2985 net.cpp:137] Memory required for data: 817384800
I0105 08:50:52.662462  2985 layer_factory.hpp:77] Creating layer relu1
I0105 08:50:52.662477  2985 net.cpp:84] Creating Layer relu1
I0105 08:50:52.662487  2985 net.cpp:406] relu1 <- conv1
I0105 08:50:52.662498  2985 net.cpp:367] relu1 -> conv1 (in-place)
I0105 08:50:52.662513  2985 net.cpp:122] Setting up relu1
I0105 08:50:52.662525  2985 net.cpp:129] Top shape: 200 96 55 55 (58080000)
I0105 08:50:52.662533  2985 net.cpp:137] Memory required for data: 1049704800
I0105 08:50:52.662542  2985 layer_factory.hpp:77] Creating layer pool1
I0105 08:50:52.662555  2985 net.cpp:84] Creating Layer pool1
I0105 08:50:52.662565  2985 net.cpp:406] pool1 <- conv1
I0105 08:50:52.662609  2985 net.cpp:380] pool1 -> pool1
I0105 08:50:52.662667  2985 net.cpp:122] Setting up pool1
I0105 08:50:52.662685  2985 net.cpp:129] Top shape: 200 96 27 27 (13996800)
I0105 08:50:52.662694  2985 net.cpp:137] Memory required for data: 1105692000
I0105 08:50:52.662703  2985 layer_factory.hpp:77] Creating layer quantized_conv1
I0105 08:50:52.662719  2985 net.cpp:84] Creating Layer quantized_conv1
I0105 08:50:52.662729  2985 net.cpp:406] quantized_conv1 <- pool1
I0105 08:50:52.662740  2985 net.cpp:367] quantized_conv1 -> pool1 (in-place)
I0105 08:50:52.662756  2985 net.cpp:122] Setting up quantized_conv1
I0105 08:50:52.662768  2985 net.cpp:129] Top shape: 200 96 27 27 (13996800)
I0105 08:50:52.662777  2985 net.cpp:137] Memory required for data: 1161679200
I0105 08:50:52.662786  2985 layer_factory.hpp:77] Creating layer conv2
I0105 08:50:52.662802  2985 net.cpp:84] Creating Layer conv2
I0105 08:50:52.662812  2985 net.cpp:406] conv2 <- pool1
I0105 08:50:52.662825  2985 net.cpp:380] conv2 -> conv2
I0105 08:50:52.683393  2985 net.cpp:122] Setting up conv2
I0105 08:50:52.683437  2985 net.cpp:129] Top shape: 200 256 27 27 (37324800)
I0105 08:50:52.683447  2985 net.cpp:137] Memory required for data: 1310978400
I0105 08:50:52.683468  2985 layer_factory.hpp:77] Creating layer bn2
I0105 08:50:52.683487  2985 net.cpp:84] Creating Layer bn2
I0105 08:50:52.683498  2985 net.cpp:406] bn2 <- conv2
I0105 08:50:52.683511  2985 net.cpp:367] bn2 -> conv2 (in-place)
I0105 08:50:52.683684  2985 net.cpp:122] Setting up bn2
I0105 08:50:52.683720  2985 net.cpp:129] Top shape: 200 256 27 27 (37324800)
I0105 08:50:52.683729  2985 net.cpp:137] Memory required for data: 1460277600
I0105 08:50:52.683743  2985 layer_factory.hpp:77] Creating layer scale2
I0105 08:50:52.683758  2985 net.cpp:84] Creating Layer scale2
I0105 08:50:52.683768  2985 net.cpp:406] scale2 <- conv2
I0105 08:50:52.683779  2985 net.cpp:367] scale2 -> conv2 (in-place)
I0105 08:50:52.683835  2985 layer_factory.hpp:77] Creating layer scale2
I0105 08:50:52.683944  2985 net.cpp:122] Setting up scale2
I0105 08:50:52.683961  2985 net.cpp:129] Top shape: 200 256 27 27 (37324800)
I0105 08:50:52.683970  2985 net.cpp:137] Memory required for data: 1609576800
I0105 08:50:52.683982  2985 layer_factory.hpp:77] Creating layer relu2
I0105 08:50:52.683996  2985 net.cpp:84] Creating Layer relu2
I0105 08:50:52.684005  2985 net.cpp:406] relu2 <- conv2
I0105 08:50:52.684017  2985 net.cpp:367] relu2 -> conv2 (in-place)
I0105 08:50:52.684029  2985 net.cpp:122] Setting up relu2
I0105 08:50:52.684042  2985 net.cpp:129] Top shape: 200 256 27 27 (37324800)
I0105 08:50:52.684051  2985 net.cpp:137] Memory required for data: 1758876000
I0105 08:50:52.684061  2985 layer_factory.hpp:77] Creating layer pool2
I0105 08:50:52.684073  2985 net.cpp:84] Creating Layer pool2
I0105 08:50:52.684082  2985 net.cpp:406] pool2 <- conv2
I0105 08:50:52.684095  2985 net.cpp:380] pool2 -> pool2
I0105 08:50:52.684139  2985 net.cpp:122] Setting up pool2
I0105 08:50:52.684155  2985 net.cpp:129] Top shape: 200 256 13 13 (8652800)
I0105 08:50:52.684165  2985 net.cpp:137] Memory required for data: 1793487200
I0105 08:50:52.684173  2985 layer_factory.hpp:77] Creating layer quantized_conv2
I0105 08:50:52.684187  2985 net.cpp:84] Creating Layer quantized_conv2
I0105 08:50:52.684196  2985 net.cpp:406] quantized_conv2 <- pool2
I0105 08:50:52.684207  2985 net.cpp:367] quantized_conv2 -> pool2 (in-place)
I0105 08:50:52.684221  2985 net.cpp:122] Setting up quantized_conv2
I0105 08:50:52.684231  2985 net.cpp:129] Top shape: 200 256 13 13 (8652800)
I0105 08:50:52.684240  2985 net.cpp:137] Memory required for data: 1828098400
I0105 08:50:52.684249  2985 layer_factory.hpp:77] Creating layer conv3
I0105 08:50:52.684267  2985 net.cpp:84] Creating Layer conv3
I0105 08:50:52.684278  2985 net.cpp:406] conv3 <- pool2
I0105 08:50:52.684289  2985 net.cpp:380] conv3 -> conv3
I0105 08:50:52.712241  2985 net.cpp:122] Setting up conv3
I0105 08:50:52.712292  2985 net.cpp:129] Top shape: 200 384 13 13 (12979200)
I0105 08:50:52.712339  2985 net.cpp:137] Memory required for data: 1880015200
I0105 08:50:52.712357  2985 layer_factory.hpp:77] Creating layer bn3
I0105 08:50:52.712375  2985 net.cpp:84] Creating Layer bn3
I0105 08:50:52.712388  2985 net.cpp:406] bn3 <- conv3
I0105 08:50:52.712401  2985 net.cpp:367] bn3 -> conv3 (in-place)
I0105 08:50:52.712575  2985 net.cpp:122] Setting up bn3
I0105 08:50:52.712594  2985 net.cpp:129] Top shape: 200 384 13 13 (12979200)
I0105 08:50:52.712604  2985 net.cpp:137] Memory required for data: 1931932000
I0105 08:50:52.712623  2985 layer_factory.hpp:77] Creating layer scale3
I0105 08:50:52.712641  2985 net.cpp:84] Creating Layer scale3
I0105 08:50:52.712651  2985 net.cpp:406] scale3 <- conv3
I0105 08:50:52.712663  2985 net.cpp:367] scale3 -> conv3 (in-place)
I0105 08:50:52.712715  2985 layer_factory.hpp:77] Creating layer scale3
I0105 08:50:52.712828  2985 net.cpp:122] Setting up scale3
I0105 08:50:52.712846  2985 net.cpp:129] Top shape: 200 384 13 13 (12979200)
I0105 08:50:52.712854  2985 net.cpp:137] Memory required for data: 1983848800
I0105 08:50:52.712867  2985 layer_factory.hpp:77] Creating layer relu3
I0105 08:50:52.712882  2985 net.cpp:84] Creating Layer relu3
I0105 08:50:52.712890  2985 net.cpp:406] relu3 <- conv3
I0105 08:50:52.712901  2985 net.cpp:367] relu3 -> conv3 (in-place)
I0105 08:50:52.712913  2985 net.cpp:122] Setting up relu3
I0105 08:50:52.712924  2985 net.cpp:129] Top shape: 200 384 13 13 (12979200)
I0105 08:50:52.712934  2985 net.cpp:137] Memory required for data: 2035765600
I0105 08:50:52.712942  2985 layer_factory.hpp:77] Creating layer quantized_conv3
I0105 08:50:52.712955  2985 net.cpp:84] Creating Layer quantized_conv3
I0105 08:50:52.712965  2985 net.cpp:406] quantized_conv3 <- conv3
I0105 08:50:52.712975  2985 net.cpp:367] quantized_conv3 -> conv3 (in-place)
I0105 08:50:52.712988  2985 net.cpp:122] Setting up quantized_conv3
I0105 08:50:52.712999  2985 net.cpp:129] Top shape: 200 384 13 13 (12979200)
I0105 08:50:52.713007  2985 net.cpp:137] Memory required for data: 2087682400
I0105 08:50:52.713016  2985 layer_factory.hpp:77] Creating layer conv4
I0105 08:50:52.713034  2985 net.cpp:84] Creating Layer conv4
I0105 08:50:52.713044  2985 net.cpp:406] conv4 <- conv3
I0105 08:50:52.713057  2985 net.cpp:380] conv4 -> conv4
I0105 08:50:52.754559  2985 net.cpp:122] Setting up conv4
I0105 08:50:52.754613  2985 net.cpp:129] Top shape: 200 384 13 13 (12979200)
I0105 08:50:52.754623  2985 net.cpp:137] Memory required for data: 2139599200
I0105 08:50:52.754639  2985 layer_factory.hpp:77] Creating layer bn4
I0105 08:50:52.754658  2985 net.cpp:84] Creating Layer bn4
I0105 08:50:52.754670  2985 net.cpp:406] bn4 <- conv4
I0105 08:50:52.754684  2985 net.cpp:367] bn4 -> conv4 (in-place)
I0105 08:50:52.754865  2985 net.cpp:122] Setting up bn4
I0105 08:50:52.754882  2985 net.cpp:129] Top shape: 200 384 13 13 (12979200)
I0105 08:50:52.754892  2985 net.cpp:137] Memory required for data: 2191516000
I0105 08:50:52.754909  2985 layer_factory.hpp:77] Creating layer scale4
I0105 08:50:52.754925  2985 net.cpp:84] Creating Layer scale4
I0105 08:50:52.754933  2985 net.cpp:406] scale4 <- conv4
I0105 08:50:52.754945  2985 net.cpp:367] scale4 -> conv4 (in-place)
I0105 08:50:52.755058  2985 layer_factory.hpp:77] Creating layer scale4
I0105 08:50:52.755178  2985 net.cpp:122] Setting up scale4
I0105 08:50:52.755195  2985 net.cpp:129] Top shape: 200 384 13 13 (12979200)
I0105 08:50:52.755204  2985 net.cpp:137] Memory required for data: 2243432800
I0105 08:50:52.755218  2985 layer_factory.hpp:77] Creating layer relu4
I0105 08:50:52.755233  2985 net.cpp:84] Creating Layer relu4
I0105 08:50:52.755242  2985 net.cpp:406] relu4 <- conv4
I0105 08:50:52.755254  2985 net.cpp:367] relu4 -> conv4 (in-place)
I0105 08:50:52.755265  2985 net.cpp:122] Setting up relu4
I0105 08:50:52.755276  2985 net.cpp:129] Top shape: 200 384 13 13 (12979200)
I0105 08:50:52.755285  2985 net.cpp:137] Memory required for data: 2295349600
I0105 08:50:52.755295  2985 layer_factory.hpp:77] Creating layer quantized_conv4
I0105 08:50:52.755307  2985 net.cpp:84] Creating Layer quantized_conv4
I0105 08:50:52.755354  2985 net.cpp:406] quantized_conv4 <- conv4
I0105 08:50:52.755369  2985 net.cpp:367] quantized_conv4 -> conv4 (in-place)
I0105 08:50:52.755383  2985 net.cpp:122] Setting up quantized_conv4
I0105 08:50:52.755393  2985 net.cpp:129] Top shape: 200 384 13 13 (12979200)
I0105 08:50:52.755403  2985 net.cpp:137] Memory required for data: 2347266400
I0105 08:50:52.755411  2985 layer_factory.hpp:77] Creating layer conv5
I0105 08:50:52.755432  2985 net.cpp:84] Creating Layer conv5
I0105 08:50:52.755442  2985 net.cpp:406] conv5 <- conv4
I0105 08:50:52.755455  2985 net.cpp:380] conv5 -> conv5
I0105 08:50:52.783486  2985 net.cpp:122] Setting up conv5
I0105 08:50:52.783538  2985 net.cpp:129] Top shape: 200 256 13 13 (8652800)
I0105 08:50:52.783548  2985 net.cpp:137] Memory required for data: 2381877600
I0105 08:50:52.783565  2985 layer_factory.hpp:77] Creating layer bn5
I0105 08:50:52.783586  2985 net.cpp:84] Creating Layer bn5
I0105 08:50:52.783597  2985 net.cpp:406] bn5 <- conv5
I0105 08:50:52.783612  2985 net.cpp:367] bn5 -> conv5 (in-place)
I0105 08:50:52.783802  2985 net.cpp:122] Setting up bn5
I0105 08:50:52.783819  2985 net.cpp:129] Top shape: 200 256 13 13 (8652800)
I0105 08:50:52.783828  2985 net.cpp:137] Memory required for data: 2416488800
I0105 08:50:52.783851  2985 layer_factory.hpp:77] Creating layer scale5
I0105 08:50:52.783869  2985 net.cpp:84] Creating Layer scale5
I0105 08:50:52.783877  2985 net.cpp:406] scale5 <- conv5
I0105 08:50:52.783888  2985 net.cpp:367] scale5 -> conv5 (in-place)
I0105 08:50:52.783947  2985 layer_factory.hpp:77] Creating layer scale5
I0105 08:50:52.784071  2985 net.cpp:122] Setting up scale5
I0105 08:50:52.784087  2985 net.cpp:129] Top shape: 200 256 13 13 (8652800)
I0105 08:50:52.784097  2985 net.cpp:137] Memory required for data: 2451100000
I0105 08:50:52.784109  2985 layer_factory.hpp:77] Creating layer relu5
I0105 08:50:52.784122  2985 net.cpp:84] Creating Layer relu5
I0105 08:50:52.784132  2985 net.cpp:406] relu5 <- conv5
I0105 08:50:52.784145  2985 net.cpp:367] relu5 -> conv5 (in-place)
I0105 08:50:52.784158  2985 net.cpp:122] Setting up relu5
I0105 08:50:52.784169  2985 net.cpp:129] Top shape: 200 256 13 13 (8652800)
I0105 08:50:52.784178  2985 net.cpp:137] Memory required for data: 2485711200
I0105 08:50:52.784186  2985 layer_factory.hpp:77] Creating layer pool5
I0105 08:50:52.784199  2985 net.cpp:84] Creating Layer pool5
I0105 08:50:52.784209  2985 net.cpp:406] pool5 <- conv5
I0105 08:50:52.784220  2985 net.cpp:380] pool5 -> pool5
I0105 08:50:52.784270  2985 net.cpp:122] Setting up pool5
I0105 08:50:52.784286  2985 net.cpp:129] Top shape: 200 256 6 6 (1843200)
I0105 08:50:52.784296  2985 net.cpp:137] Memory required for data: 2493084000
I0105 08:50:52.784304  2985 layer_factory.hpp:77] Creating layer quantized_conv5
I0105 08:50:52.784317  2985 net.cpp:84] Creating Layer quantized_conv5
I0105 08:50:52.784327  2985 net.cpp:406] quantized_conv5 <- pool5
I0105 08:50:52.784342  2985 net.cpp:367] quantized_conv5 -> pool5 (in-place)
I0105 08:50:52.784354  2985 net.cpp:122] Setting up quantized_conv5
I0105 08:50:52.784366  2985 net.cpp:129] Top shape: 200 256 6 6 (1843200)
I0105 08:50:52.784374  2985 net.cpp:137] Memory required for data: 2500456800
I0105 08:50:52.784384  2985 layer_factory.hpp:77] Creating layer fc6
I0105 08:50:52.784404  2985 net.cpp:84] Creating Layer fc6
I0105 08:50:52.784413  2985 net.cpp:406] fc6 <- pool5
I0105 08:50:52.784425  2985 net.cpp:380] fc6 -> fc6
I0105 08:50:53.929091  2985 net.cpp:122] Setting up fc6
I0105 08:50:53.929191  2985 net.cpp:129] Top shape: 200 4096 (819200)
I0105 08:50:53.929205  2985 net.cpp:137] Memory required for data: 2503733600
I0105 08:50:53.929224  2985 layer_factory.hpp:77] Creating layer bn6
I0105 08:50:53.929244  2985 net.cpp:84] Creating Layer bn6
I0105 08:50:53.929256  2985 net.cpp:406] bn6 <- fc6
I0105 08:50:53.929273  2985 net.cpp:367] bn6 -> fc6 (in-place)
I0105 08:50:53.929458  2985 net.cpp:122] Setting up bn6
I0105 08:50:53.929474  2985 net.cpp:129] Top shape: 200 4096 (819200)
I0105 08:50:53.929522  2985 net.cpp:137] Memory required for data: 2507010400
I0105 08:50:53.929535  2985 layer_factory.hpp:77] Creating layer scale6
I0105 08:50:53.929558  2985 net.cpp:84] Creating Layer scale6
I0105 08:50:53.929567  2985 net.cpp:406] scale6 <- fc6
I0105 08:50:53.929579  2985 net.cpp:367] scale6 -> fc6 (in-place)
I0105 08:50:53.929630  2985 layer_factory.hpp:77] Creating layer scale6
I0105 08:50:53.929752  2985 net.cpp:122] Setting up scale6
I0105 08:50:53.929769  2985 net.cpp:129] Top shape: 200 4096 (819200)
I0105 08:50:53.929776  2985 net.cpp:137] Memory required for data: 2510287200
I0105 08:50:53.929788  2985 layer_factory.hpp:77] Creating layer relu6
I0105 08:50:53.929801  2985 net.cpp:84] Creating Layer relu6
I0105 08:50:53.929810  2985 net.cpp:406] relu6 <- fc6
I0105 08:50:53.929822  2985 net.cpp:367] relu6 -> fc6 (in-place)
I0105 08:50:53.929834  2985 net.cpp:122] Setting up relu6
I0105 08:50:53.929844  2985 net.cpp:129] Top shape: 200 4096 (819200)
I0105 08:50:53.929852  2985 net.cpp:137] Memory required for data: 2513564000
I0105 08:50:53.929860  2985 layer_factory.hpp:77] Creating layer drop6
I0105 08:50:53.929878  2985 net.cpp:84] Creating Layer drop6
I0105 08:50:53.929888  2985 net.cpp:406] drop6 <- fc6
I0105 08:50:53.929900  2985 net.cpp:367] drop6 -> fc6 (in-place)
I0105 08:50:53.929939  2985 net.cpp:122] Setting up drop6
I0105 08:50:53.929955  2985 net.cpp:129] Top shape: 200 4096 (819200)
I0105 08:50:53.929963  2985 net.cpp:137] Memory required for data: 2516840800
I0105 08:50:53.929971  2985 layer_factory.hpp:77] Creating layer quantized_fc6
I0105 08:50:53.929987  2985 net.cpp:84] Creating Layer quantized_fc6
I0105 08:50:53.929996  2985 net.cpp:406] quantized_fc6 <- fc6
I0105 08:50:53.930007  2985 net.cpp:367] quantized_fc6 -> fc6 (in-place)
I0105 08:50:53.930019  2985 net.cpp:122] Setting up quantized_fc6
I0105 08:50:53.930029  2985 net.cpp:129] Top shape: 200 4096 (819200)
I0105 08:50:53.930037  2985 net.cpp:137] Memory required for data: 2520117600
I0105 08:50:53.930045  2985 layer_factory.hpp:77] Creating layer fc7
I0105 08:50:53.930059  2985 net.cpp:84] Creating Layer fc7
I0105 08:50:53.930068  2985 net.cpp:406] fc7 <- fc6
I0105 08:50:53.930078  2985 net.cpp:380] fc7 -> fc7
I0105 08:50:54.447515  2985 net.cpp:122] Setting up fc7
I0105 08:50:54.447580  2985 net.cpp:129] Top shape: 200 4096 (819200)
I0105 08:50:54.447592  2985 net.cpp:137] Memory required for data: 2523394400
I0105 08:50:54.447609  2985 layer_factory.hpp:77] Creating layer bn7
I0105 08:50:54.447633  2985 net.cpp:84] Creating Layer bn7
I0105 08:50:54.447645  2985 net.cpp:406] bn7 <- fc7
I0105 08:50:54.447659  2985 net.cpp:367] bn7 -> fc7 (in-place)
I0105 08:50:54.447854  2985 net.cpp:122] Setting up bn7
I0105 08:50:54.447871  2985 net.cpp:129] Top shape: 200 4096 (819200)
I0105 08:50:54.447881  2985 net.cpp:137] Memory required for data: 2526671200
I0105 08:50:54.447896  2985 layer_factory.hpp:77] Creating layer scale7
I0105 08:50:54.447911  2985 net.cpp:84] Creating Layer scale7
I0105 08:50:54.447921  2985 net.cpp:406] scale7 <- fc7
I0105 08:50:54.447933  2985 net.cpp:367] scale7 -> fc7 (in-place)
I0105 08:50:54.447984  2985 layer_factory.hpp:77] Creating layer scale7
I0105 08:50:54.448120  2985 net.cpp:122] Setting up scale7
I0105 08:50:54.448140  2985 net.cpp:129] Top shape: 200 4096 (819200)
I0105 08:50:54.448149  2985 net.cpp:137] Memory required for data: 2529948000
I0105 08:50:54.448163  2985 layer_factory.hpp:77] Creating layer relu7
I0105 08:50:54.448175  2985 net.cpp:84] Creating Layer relu7
I0105 08:50:54.448184  2985 net.cpp:406] relu7 <- fc7
I0105 08:50:54.448195  2985 net.cpp:367] relu7 -> fc7 (in-place)
I0105 08:50:54.448209  2985 net.cpp:122] Setting up relu7
I0105 08:50:54.448218  2985 net.cpp:129] Top shape: 200 4096 (819200)
I0105 08:50:54.448227  2985 net.cpp:137] Memory required for data: 2533224800
I0105 08:50:54.448236  2985 layer_factory.hpp:77] Creating layer drop7
I0105 08:50:54.448249  2985 net.cpp:84] Creating Layer drop7
I0105 08:50:54.448258  2985 net.cpp:406] drop7 <- fc7
I0105 08:50:54.448315  2985 net.cpp:367] drop7 -> fc7 (in-place)
I0105 08:50:54.448350  2985 net.cpp:122] Setting up drop7
I0105 08:50:54.448369  2985 net.cpp:129] Top shape: 200 4096 (819200)
I0105 08:50:54.448379  2985 net.cpp:137] Memory required for data: 2536501600
I0105 08:50:54.448387  2985 layer_factory.hpp:77] Creating layer quantized_fc7
I0105 08:50:54.448401  2985 net.cpp:84] Creating Layer quantized_fc7
I0105 08:50:54.448410  2985 net.cpp:406] quantized_fc7 <- fc7
I0105 08:50:54.448421  2985 net.cpp:367] quantized_fc7 -> fc7 (in-place)
I0105 08:50:54.448434  2985 net.cpp:122] Setting up quantized_fc7
I0105 08:50:54.448446  2985 net.cpp:129] Top shape: 200 4096 (819200)
I0105 08:50:54.448454  2985 net.cpp:137] Memory required for data: 2539778400
I0105 08:50:54.448463  2985 layer_factory.hpp:77] Creating layer fc8
I0105 08:50:54.448480  2985 net.cpp:84] Creating Layer fc8
I0105 08:50:54.448490  2985 net.cpp:406] fc8 <- fc7
I0105 08:50:54.448501  2985 net.cpp:380] fc8 -> fc8
I0105 08:50:54.575806  2985 net.cpp:122] Setting up fc8
I0105 08:50:54.575873  2985 net.cpp:129] Top shape: 200 1000 (200000)
I0105 08:50:54.575884  2985 net.cpp:137] Memory required for data: 2540578400
I0105 08:50:54.575902  2985 layer_factory.hpp:77] Creating layer fc8_fc8_0_split
I0105 08:50:54.575922  2985 net.cpp:84] Creating Layer fc8_fc8_0_split
I0105 08:50:54.575933  2985 net.cpp:406] fc8_fc8_0_split <- fc8
I0105 08:50:54.575948  2985 net.cpp:380] fc8_fc8_0_split -> fc8_fc8_0_split_0
I0105 08:50:54.575965  2985 net.cpp:380] fc8_fc8_0_split -> fc8_fc8_0_split_1
I0105 08:50:54.576030  2985 net.cpp:122] Setting up fc8_fc8_0_split
I0105 08:50:54.576045  2985 net.cpp:129] Top shape: 200 1000 (200000)
I0105 08:50:54.576056  2985 net.cpp:129] Top shape: 200 1000 (200000)
I0105 08:50:54.576066  2985 net.cpp:137] Memory required for data: 2542178400
I0105 08:50:54.576076  2985 layer_factory.hpp:77] Creating layer accuracy_5_TRAIN
I0105 08:50:54.576099  2985 net.cpp:84] Creating Layer accuracy_5_TRAIN
I0105 08:50:54.576109  2985 net.cpp:406] accuracy_5_TRAIN <- fc8_fc8_0_split_0
I0105 08:50:54.576120  2985 net.cpp:406] accuracy_5_TRAIN <- label_data_1_split_0
…
I0105 08:50:54.579298  2985 net.cpp:294] The NetState phase (1) differed from the phase (0) specified by a rule in layer accuracy_5_TRAIN
I0105 08:50:54.579550  2985 net.cpp:51] Initializing net from parameters: 
name: "AlexNet-BN"
state {
  phase: TEST
}
layer {
  name: "data"
  type: "Data"
  top: "data"
  top: "label"
  include {
    phase: TEST
  }
  transform_param {
    mirror: false
    crop_size: 224
    mean_value: 103.939
    mean_value: 116.779
    mean_value: 123.68
  }
  data_param {
    source: "/home/ydwu/database/imagenet/ilsvrc12/lmdb_resize/ilsvrc12_val_lmdb"
    batch_size: 200
    backend: LMDB
  }
}
layer {
  name: "conv1"
  type: "Convolution"
  bottom: "data"
  top: "conv1"
  param {
    lr_mult: 1
    decay_mult: 1
  }
  param {
    lr_mult: 2
    decay_mult: 0
  }
  convolution_param {
    num_output: 96
    pad: 2
    kernel_size: 11
    stride: 4
    weight_filler {
      type: "gaussian"
      std: 0.01
    }
    bias_filler {
      type: "constant"
      value: 0
    }
  }
}
layer {
  name: "bn1"
  type: "BatchNorm"
  bottom: "conv1"
  top: "conv1"
}
layer {
  name: "scale1"
  type: "Scale"
  bottom: "conv1"
  top: "conv1"
  scale_param {
    bias_term: true
  }
}
layer {
  name: "relu1"
  type: "ReLU"
  bottom: "conv1"
  top: "conv1"
}
layer {
  name: "pool1"
  type: "Pooling"
  bottom: "conv1"
  top: "pool1"
  pooling_param {
    pool: MAX
    kernel_size: 3
    stride: 2
  }
}
layer {
  name: "quantized_conv1"
  type: "Quantization"
  bottom: "pool1"
  top: "pool1"
  quantization_param {
    round_method: FLOOR
    round_strategy: AGGRESSIVE
    bit_width: 4
    range: 0
    range: 13.965383
  }
}
layer {
  name: "conv2"
  type: "Convolution"
  bottom: "pool1"
  top: "conv2"
  param {
    lr_mult: 1
    decay_mult: 1
  }
  param {
    lr_mult: 2
    decay_mult: 0
  }
  convolution_param {
    num_output: 256
    pad: 2
    kernel_size: 5
    weight_filler {
      type: "gaussian"
      std: 0.01
    }
    bias_filler {
      type: "constant"
      value: 0.1
    }
  }
}
layer {
  name: "bn2"
  type: "BatchNorm"
  bottom: "conv2"
  top: "conv2"
}
layer {
  name: "scale2"
  type: "Scale"
  bottom: "conv2"
  top: "conv2"
  scale_param {
    bias_term: true
  }
}
layer {
  name: "relu2"
  type: "ReLU"
  bottom: "conv2"
  top: "conv2"
}
layer {
  name: "pool2"
  type: "Pooling"
  bottom: "conv2"
  top: "pool2"
  pooling_param {
    pool: MAX
    kernel_size: 3
    stride: 2
  }
}
layer {
  name: "quantized_conv2"
  type: "Quantization"
  bottom: "pool2"
  top: "pool2"
  quantization_param {
    round_method: FLOOR
    round_strategy: AGGRESSIVE
    bit_width: 4
    range: 0
    range: 6.74956
  }
}
layer {
  name: "conv3"
  type: "Convolution"
  bottom: "pool2"
  top: "conv3"
  param {
    lr_mult: 1
    decay_mult: 1
  }
  param {
    lr_mult: 2
    decay_mult: 0
  }
  convolution_param {
    num_output: 384
    pad: 1
    kernel_size: 3
    weight_filler {
      type: "gaussian"
      std: 0.01
    }
    bias_filler {
      type: "constant"
      value: 0
    }
  }
}
layer {
  name: "bn3"
  type: "BatchNorm"
  bottom: "conv3"
  top: "conv3"
}
layer {
  name: "scale3"
  type: "Scale"
  bottom: "conv3"
  top: "conv3"
  scale_param {
    bias_term: true
  }
}
layer {
  name: "relu3"
  type: "ReLU"
  bottom: "conv3"
  top: "conv3"
}
layer {
  name: "quantized_conv3"
  type: "Quantization"
  bottom: "conv3"
  top: "conv3"
  quantization_param {
    round_method: FLOOR
    round_strategy: AGGRESSIVE
    bit_width: 4
    range: 0
    range: 8.48454
  }
}
layer {
  name: "conv4"
  type: "Convolution"
  bottom: "conv3"
  top: "conv4"
  param {
    lr_mult: 1
    decay_mult: 1
  }
  param {
    lr_mult: 2
    decay_mult: 0
  }
  convolution_param {
    num_output: 384
    pad: 1
    kernel_size: 3
    weight_filler {
      type: "gaussian"
      std: 0.01
    }
    bias_filler {
      type: "constant"
      value: 0.1
    }
  }
}
layer {
  name: "bn4"
  type: "BatchNorm"
  bottom: "conv4"
  top: "conv4"
}
layer {
  name: "scale4"
  type: "Scale"
  bottom: "conv4"
  top: "conv4"
  scale_param {
    bias_term: true
  }
}
layer {
  name: "relu4"
  type: "ReLU"
  bottom: "conv4"
  top: "conv4"
}
layer {
  name: "quantized_conv4"
  type: "Quantization"
  bottom: "conv4"
  top: "conv4"
  quantization_param {
    round_method: FLOOR
    round_strategy: AGGRESSIVE
    bit_width: 4
    range: 0
    range: 7.3369722
  }
}
layer {
  name: "conv5"
  type: "Convolution"
  bottom: "conv4"
  top: "conv5"
  param {
    lr_mult: 1
    decay_mult: 1
  }
  param {
    lr_mult: 2
    decay_mult: 0
  }
  convolution_param {
    num_output: 256
    pad: 1
    kernel_size: 3
    weight_filler {
      type: "gaussian"
      std: 0.01
    }
    bias_filler {
      type: "constant"
      value: 0.1
    }
  }
}
layer {
  name: "bn5"
  type: "BatchNorm"
  bottom: "conv5"
  top: "conv5"
}
layer {
  name: "scale5"
  type: "Scale"
  bottom: "conv5"
  top: "conv5"
  scale_param {
    bias_term: true
  }
}
layer {
  name: "relu5"
  type: "ReLU"
  bottom: "conv5"
  top: "conv5"
}
layer {
  name: "pool5"
  type: "Pooling"
  bottom: "conv5"
  top: "pool5"
  pooling_param {
    pool: MAX
    kernel_size: 3
    stride: 2
  }
}
layer {
  name: "quantized_conv5"
  type: "Quantization"
  bottom: "pool5"
  top: "pool5"
  quantization_param {
    round_method: FLOOR
    round_strategy: AGGRESSIVE
    bit_width: 4
    range: 0
    range: 8.7577133
  }
}
layer {
  name: "fc6"
  type: "InnerProduct"
  bottom: "pool5"
  top: "fc6"
  param {
    lr_mult: 1
    decay_mult: 1
  }
  param {
    lr_mult: 2
    decay_mult: 0
  }
  inner_product_param {
    num_output: 4096
    weight_filler {
      type: "gaussian"
      std: 0.005
    }
    bias_filler {
      type: "constant"
      value: 0.1
    }
  }
}
layer {
  name: "bn6"
  type: "BatchNorm"
  bottom: "fc6"
  top: "fc6"
}
layer {
  name: "scale6"
  type: "Scale"
  bottom: "fc6"
  top: "fc6"
  scale_param {
    bias_term: true
  }
}
layer {
  name: "relu6"
  type: "ReLU"
  bottom: "fc6"
  top: "fc6"
}
layer {
  name: "drop6"
  type: "Dropout"
  bottom: "fc6"
  top: "fc6"
  dropout_param {
    dropout_ratio: 0.5
  }
}
layer {
  name: "quantized_fc6"
  type: "Quantization"
  bottom: "fc6"
  top: "fc6"
  quantization_param {
    round_method: FLOOR
    round_strategy: AGGRESSIVE
    bit_width: 4
    range: 0
    range: 1.659358
  }
}
layer {
  name: "fc7"
  type: "InnerProduct"
  bottom: "fc6"
  top: "fc7"
  param {
    lr_mult: 1
    decay_mult: 1
  }
  param {
    lr_mult: 2
    decay_mult: 0
  }
  inner_product_param {
    num_output: 4096
    weight_filler {
      type: "gaussian"
      std: 0.005
    }
    bias_filler {
      type: "constant"
      value: 0.1
    }
  }
}
layer {
  name: "bn7"
  type: "BatchNorm"
  bottom: "fc7"
  top: "fc7"
}
layer {
  name: "scale7"
  type: "Scale"
  bottom: "fc7"
  top: "fc7"
  scale_param {
    bias_term: true
  }
}
layer {
  name: "relu7"
  type: "ReLU"
  bottom: "fc7"
  top: "fc7"
}
layer {
  name: "drop7"
  type: "Dropout"
  bottom: "fc7"
  top: "fc7"
  dropout_param {
    dropout_ratio: 0.5
  }
}
layer {
  name: "quantized_fc7"
  type: "Quantization"
  bottom: "fc7"
  top: "fc7"
  quantization_param {
    round_method: FLOOR
    round_strategy: AGGRESSIVE
    bit_width: 4
    range: 0
    range: 7.5598521
  }
}
layer {
  name: "fc8"
  type: "InnerProduct"
  bottom: "fc7"
  top: "fc8"
  param {
    lr_mult: 1
    decay_mult: 1
  }
  param {
    lr_mult: 2
    decay_mult: 0
  }
  inner_product_param {
    num_output: 1000
    weight_filler {
      type: "gaussian"
      std: 0.01
    }
    bias_filler {
      type: "constant"
      value: 0
    }
  }
}
layer {
  name: "accuracy"
  type: "Accuracy"
  bottom: "fc8"
  bottom: "label"
  top: "accuracy"
  include {
    phase: TEST
  }
}
layer {
  name: "accuracy_5"
  type: "Accuracy"
  bottom: "fc8"
  bottom: "label"
  top: "accuracy_5"
  include {
    phase: TEST
  }
  accuracy_param {
    top_k: 5
  }
}
layer {
  name: "loss"
  type: "SoftmaxWithLoss"
  bottom: "fc8"
  bottom: "label"
  top: "loss"
}
I0105 08:50:54.579747  2985 layer_factory.hpp:77] Creating layer data
I0105 08:50:54.749922  2985 db_lmdb.cpp:35] Opened lmdb /home/ydwu/database/imagenet/ilsvrc12/lmdb_resize/ilsvrc12_val_lmdb
I0105 08:50:54.749979  2985 net.cpp:84] Creating Layer data
I0105 08:50:54.749997  2985 net.cpp:380] data -> data
I0105 08:50:54.750015  2985 net.cpp:380] data -> label
I0105 08:50:54.750365  2985 data_layer.cpp:45] output data size: 200,3,224,224
I0105 08:50:55.087724  2985 net.cpp:122] Setting up data
I0105 08:50:55.087776  2985 net.cpp:129] Top shape: 200 3 224 224 (30105600)
I0105 08:50:55.087790  2985 net.cpp:129] Top shape: 200 (200)
I0105 08:50:55.087800  2985 net.cpp:137] Memory required for data: 120423200
I0105 08:50:55.087813  2985 layer_factory.hpp:77] Creating layer label_data_1_split
I0105 08:50:55.087836  2985 net.cpp:84] Creating Layer label_data_1_split
I0105 08:50:55.087846  2985 net.cpp:406] label_data_1_split <- label
I0105 08:50:55.087860  2985 net.cpp:380] label_data_1_split -> label_data_1_split_0
I0105 08:50:55.087879  2985 net.cpp:380] label_data_1_split -> label_data_1_split_1
I0105 08:50:55.087893  2985 net.cpp:380] label_data_1_split -> label_data_1_split_2
I0105 08:50:55.087994  2985 net.cpp:122] Setting up label_data_1_split
I0105 08:50:55.088012  2985 net.cpp:129] Top shape: 200 (200)
I0105 08:50:55.088022  2985 net.cpp:129] Top shape: 200 (200)
I0105 08:50:55.088032  2985 net.cpp:129] Top shape: 200 (200)
I0105 08:50:55.088042  2985 net.cpp:137] Memory required for data: 120425600
I0105 08:50:55.088050  2985 layer_factory.hpp:77] Creating layer conv1
I0105 08:50:55.088073  2985 net.cpp:84] Creating Layer conv1
I0105 08:50:55.088083  2985 net.cpp:406] conv1 <- data
I0105 08:50:55.088095  2985 net.cpp:380] conv1 -> conv1
I0105 08:50:55.107509  2985 net.cpp:122] Setting up conv1
I0105 08:50:55.107532  2985 net.cpp:129] Top shape: 200 96 55 55 (58080000)
I0105 08:50:55.107542  2985 net.cpp:137] Memory required for data: 352745600
I0105 08:50:55.107558  2985 layer_factory.hpp:77] Creating layer bn1
I0105 08:50:55.107574  2985 net.cpp:84] Creating Layer bn1
I0105 08:50:55.107584  2985 net.cpp:406] bn1 <- conv1
I0105 08:50:55.107595  2985 net.cpp:367] bn1 -> conv1 (in-place)
I0105 08:50:55.107801  2985 net.cpp:122] Setting up bn1
I0105 08:50:55.107818  2985 net.cpp:129] Top shape: 200 96 55 55 (58080000)
I0105 08:50:55.107843  2985 net.cpp:137] Memory required for data: 585065600
I0105 08:50:55.107861  2985 layer_factory.hpp:77] Creating layer scale1
I0105 08:50:55.107877  2985 net.cpp:84] Creating Layer scale1
I0105 08:50:55.107887  2985 net.cpp:406] scale1 <- conv1
I0105 08:50:55.107898  2985 net.cpp:367] scale1 -> conv1 (in-place)
I0105 08:50:55.107952  2985 layer_factory.hpp:77] Creating layer scale1
I0105 08:50:55.108088  2985 net.cpp:122] Setting up scale1
I0105 08:50:55.108105  2985 net.cpp:129] Top shape: 200 96 55 55 (58080000)
I0105 08:50:55.108114  2985 net.cpp:137] Memory required for data: 817385600
I0105 08:50:55.108126  2985 layer_factory.hpp:77] Creating layer relu1
I0105 08:50:55.108140  2985 net.cpp:84] Creating Layer relu1
I0105 08:50:55.108150  2985 net.cpp:406] relu1 <- conv1
I0105 08:50:55.108161  2985 net.cpp:367] relu1 -> conv1 (in-place)
I0105 08:50:55.108173  2985 net.cpp:122] Setting up relu1
I0105 08:50:55.108184  2985 net.cpp:129] Top shape: 200 96 55 55 (58080000)
I0105 08:50:55.108193  2985 net.cpp:137] Memory required for data: 1049705600
I0105 08:50:55.108202  2985 layer_factory.hpp:77] Creating layer pool1
I0105 08:50:55.108216  2985 net.cpp:84] Creating Layer pool1
I0105 08:50:55.108224  2985 net.cpp:406] pool1 <- conv1
I0105 08:50:55.108235  2985 net.cpp:380] pool1 -> pool1
I0105 08:50:55.108285  2985 net.cpp:122] Setting up pool1
I0105 08:50:55.108301  2985 net.cpp:129] Top shape: 200 96 27 27 (13996800)
I0105 08:50:55.108310  2985 net.cpp:137] Memory required for data: 1105692800
I0105 08:50:55.108319  2985 layer_factory.hpp:77] Creating layer quantized_conv1
I0105 08:50:55.108333  2985 net.cpp:84] Creating Layer quantized_conv1
I0105 08:50:55.108342  2985 net.cpp:406] quantized_conv1 <- pool1
I0105 08:50:55.108355  2985 net.cpp:367] quantized_conv1 -> pool1 (in-place)
I0105 08:50:55.108367  2985 net.cpp:122] Setting up quantized_conv1
I0105 08:50:55.108378  2985 net.cpp:129] Top shape: 200 96 27 27 (13996800)
I0105 08:50:55.108387  2985 net.cpp:137] Memory required for data: 1161680000
I0105 08:50:55.108397  2985 layer_factory.hpp:77] Creating layer conv2
I0105 08:50:55.108412  2985 net.cpp:84] Creating Layer conv2
I0105 08:50:55.108423  2985 net.cpp:406] conv2 <- pool1
I0105 08:50:55.108435  2985 net.cpp:380] conv2 -> conv2
I0105 08:50:55.128126  2985 net.cpp:122] Setting up conv2
I0105 08:50:55.128182  2985 net.cpp:129] Top shape: 200 256 27 27 (37324800)
I0105 08:50:55.128192  2985 net.cpp:137] Memory required for data: 1310979200
I0105 08:50:55.128216  2985 layer_factory.hpp:77] Creating layer bn2
I0105 08:50:55.128234  2985 net.cpp:84] Creating Layer bn2
I0105 08:50:55.128247  2985 net.cpp:406] bn2 <- conv2
I0105 08:50:55.128262  2985 net.cpp:367] bn2 -> conv2 (in-place)
I0105 08:50:55.128454  2985 net.cpp:122] Setting up bn2
I0105 08:50:55.128471  2985 net.cpp:129] Top shape: 200 256 27 27 (37324800)
I0105 08:50:55.128481  2985 net.cpp:137] Memory required for data: 1460278400
I0105 08:50:55.128536  2985 layer_factory.hpp:77] Creating layer scale2
I0105 08:50:55.128553  2985 net.cpp:84] Creating Layer scale2
I0105 08:50:55.128562  2985 net.cpp:406] scale2 <- conv2
I0105 08:50:55.128574  2985 net.cpp:367] scale2 -> conv2 (in-place)
I0105 08:50:55.128634  2985 layer_factory.hpp:77] Creating layer scale2
I0105 08:50:55.128754  2985 net.cpp:122] Setting up scale2
I0105 08:50:55.128772  2985 net.cpp:129] Top shape: 200 256 27 27 (37324800)
I0105 08:50:55.128780  2985 net.cpp:137] Memory required for data: 1609577600
I0105 08:50:55.128793  2985 layer_factory.hpp:77] Creating layer relu2
I0105 08:50:55.128806  2985 net.cpp:84] Creating Layer relu2
I0105 08:50:55.128815  2985 net.cpp:406] relu2 <- conv2
I0105 08:50:55.128826  2985 net.cpp:367] relu2 -> conv2 (in-place)
I0105 08:50:55.128839  2985 net.cpp:122] Setting up relu2
I0105 08:50:55.128849  2985 net.cpp:129] Top shape: 200 256 27 27 (37324800)
I0105 08:50:55.128859  2985 net.cpp:137] Memory required for data: 1758876800
I0105 08:50:55.128867  2985 layer_factory.hpp:77] Creating layer pool2
I0105 08:50:55.128880  2985 net.cpp:84] Creating Layer pool2
I0105 08:50:55.128890  2985 net.cpp:406] pool2 <- conv2
I0105 08:50:55.128901  2985 net.cpp:380] pool2 -> pool2
I0105 08:50:55.128950  2985 net.cpp:122] Setting up pool2
I0105 08:50:55.128968  2985 net.cpp:129] Top shape: 200 256 13 13 (8652800)
I0105 08:50:55.128976  2985 net.cpp:137] Memory required for data: 1793488000
I0105 08:50:55.128985  2985 layer_factory.hpp:77] Creating layer quantized_conv2
I0105 08:50:55.129000  2985 net.cpp:84] Creating Layer quantized_conv2
I0105 08:50:55.129009  2985 net.cpp:406] quantized_conv2 <- pool2
I0105 08:50:55.129021  2985 net.cpp:367] quantized_conv2 -> pool2 (in-place)
I0105 08:50:55.129034  2985 net.cpp:122] Setting up quantized_conv2
I0105 08:50:55.129045  2985 net.cpp:129] Top shape: 200 256 13 13 (8652800)
I0105 08:50:55.129055  2985 net.cpp:137] Memory required for data: 1828099200
I0105 08:50:55.129062  2985 layer_factory.hpp:77] Creating layer conv3
I0105 08:50:55.129081  2985 net.cpp:84] Creating Layer conv3
I0105 08:50:55.129091  2985 net.cpp:406] conv3 <- pool2
I0105 08:50:55.129103  2985 net.cpp:380] conv3 -> conv3
I0105 08:50:55.157274  2985 net.cpp:122] Setting up conv3
I0105 08:50:55.157332  2985 net.cpp:129] Top shape: 200 384 13 13 (12979200)
I0105 08:50:55.157346  2985 net.cpp:137] Memory required for data: 1880016000
I0105 08:50:55.157361  2985 layer_factory.hpp:77] Creating layer bn3
I0105 08:50:55.157382  2985 net.cpp:84] Creating Layer bn3
I0105 08:50:55.157392  2985 net.cpp:406] bn3 <- conv3
I0105 08:50:55.157408  2985 net.cpp:367] bn3 -> conv3 (in-place)
I0105 08:50:55.157598  2985 net.cpp:122] Setting up bn3
I0105 08:50:55.157616  2985 net.cpp:129] Top shape: 200 384 13 13 (12979200)
I0105 08:50:55.157625  2985 net.cpp:137] Memory required for data: 1931932800
I0105 08:50:55.157646  2985 layer_factory.hpp:77] Creating layer scale3
I0105 08:50:55.157665  2985 net.cpp:84] Creating Layer scale3
I0105 08:50:55.157675  2985 net.cpp:406] scale3 <- conv3
I0105 08:50:55.157687  2985 net.cpp:367] scale3 -> conv3 (in-place)
I0105 08:50:55.157744  2985 layer_factory.hpp:77] Creating layer scale3
I0105 08:50:55.157866  2985 net.cpp:122] Setting up scale3
I0105 08:50:55.157883  2985 net.cpp:129] Top shape: 200 384 13 13 (12979200)
I0105 08:50:55.157893  2985 net.cpp:137] Memory required for data: 1983849600
I0105 08:50:55.157905  2985 layer_factory.hpp:77] Creating layer relu3
I0105 08:50:55.157918  2985 net.cpp:84] Creating Layer relu3
I0105 08:50:55.157928  2985 net.cpp:406] relu3 <- conv3
I0105 08:50:55.157939  2985 net.cpp:367] relu3 -> conv3 (in-place)
I0105 08:50:55.157953  2985 net.cpp:122] Setting up relu3
I0105 08:50:55.157963  2985 net.cpp:129] Top shape: 200 384 13 13 (12979200)
I0105 08:50:55.157972  2985 net.cpp:137] Memory required for data: 2035766400
I0105 08:50:55.157981  2985 layer_factory.hpp:77] Creating layer quantized_conv3
I0105 08:50:55.157995  2985 net.cpp:84] Creating Layer quantized_conv3
I0105 08:50:55.158046  2985 net.cpp:406] quantized_conv3 <- conv3
I0105 08:50:55.158059  2985 net.cpp:367] quantized_conv3 -> conv3 (in-place)
I0105 08:50:55.158072  2985 net.cpp:122] Setting up quantized_conv3
I0105 08:50:55.158083  2985 net.cpp:129] Top shape: 200 384 13 13 (12979200)
I0105 08:50:55.158092  2985 net.cpp:137] Memory required for data: 2087683200
I0105 08:50:55.158102  2985 layer_factory.hpp:77] Creating layer conv4
I0105 08:50:55.158119  2985 net.cpp:84] Creating Layer conv4
I0105 08:50:55.158129  2985 net.cpp:406] conv4 <- conv3
I0105 08:50:55.158143  2985 net.cpp:380] conv4 -> conv4
I0105 08:50:55.200182  2985 net.cpp:122] Setting up conv4
I0105 08:50:55.200232  2985 net.cpp:129] Top shape: 200 384 13 13 (12979200)
I0105 08:50:55.200242  2985 net.cpp:137] Memory required for data: 2139600000
I0105 08:50:55.200256  2985 layer_factory.hpp:77] Creating layer bn4
I0105 08:50:55.200276  2985 net.cpp:84] Creating Layer bn4
I0105 08:50:55.200289  2985 net.cpp:406] bn4 <- conv4
I0105 08:50:55.200311  2985 net.cpp:367] bn4 -> conv4 (in-place)
I0105 08:50:55.200510  2985 net.cpp:122] Setting up bn4
I0105 08:50:55.200527  2985 net.cpp:129] Top shape: 200 384 13 13 (12979200)
I0105 08:50:55.200536  2985 net.cpp:137] Memory required for data: 2191516800
I0105 08:50:55.200551  2985 layer_factory.hpp:77] Creating layer scale4
I0105 08:50:55.200567  2985 net.cpp:84] Creating Layer scale4
I0105 08:50:55.200575  2985 net.cpp:406] scale4 <- conv4
I0105 08:50:55.200587  2985 net.cpp:367] scale4 -> conv4 (in-place)
I0105 08:50:55.200649  2985 layer_factory.hpp:77] Creating layer scale4
I0105 08:50:55.200780  2985 net.cpp:122] Setting up scale4
I0105 08:50:55.200798  2985 net.cpp:129] Top shape: 200 384 13 13 (12979200)
I0105 08:50:55.200808  2985 net.cpp:137] Memory required for data: 2243433600
I0105 08:50:55.200819  2985 layer_factory.hpp:77] Creating layer relu4
I0105 08:50:55.200832  2985 net.cpp:84] Creating Layer relu4
I0105 08:50:55.200845  2985 net.cpp:406] relu4 <- conv4
I0105 08:50:55.200860  2985 net.cpp:367] relu4 -> conv4 (in-place)
I0105 08:50:55.200872  2985 net.cpp:122] Setting up relu4
I0105 08:50:55.200883  2985 net.cpp:129] Top shape: 200 384 13 13 (12979200)
I0105 08:50:55.200892  2985 net.cpp:137] Memory required for data: 2295350400
I0105 08:50:55.200901  2985 layer_factory.hpp:77] Creating layer quantized_conv4
I0105 08:50:55.200915  2985 net.cpp:84] Creating Layer quantized_conv4
I0105 08:50:55.200925  2985 net.cpp:406] quantized_conv4 <- conv4
I0105 08:50:55.200937  2985 net.cpp:367] quantized_conv4 -> conv4 (in-place)
I0105 08:50:55.200948  2985 net.cpp:122] Setting up quantized_conv4
I0105 08:50:55.200960  2985 net.cpp:129] Top shape: 200 384 13 13 (12979200)
I0105 08:50:55.200968  2985 net.cpp:137] Memory required for data: 2347267200
I0105 08:50:55.200978  2985 layer_factory.hpp:77] Creating layer conv5
I0105 08:50:55.200997  2985 net.cpp:84] Creating Layer conv5
I0105 08:50:55.201007  2985 net.cpp:406] conv5 <- conv4
I0105 08:50:55.201022  2985 net.cpp:380] conv5 -> conv5
I0105 08:50:55.229274  2985 net.cpp:122] Setting up conv5
I0105 08:50:55.229336  2985 net.cpp:129] Top shape: 200 256 13 13 (8652800)
I0105 08:50:55.229346  2985 net.cpp:137] Memory required for data: 2381878400
I0105 08:50:55.229362  2985 layer_factory.hpp:77] Creating layer bn5
I0105 08:50:55.229382  2985 net.cpp:84] Creating Layer bn5
I0105 08:50:55.229393  2985 net.cpp:406] bn5 <- conv5
I0105 08:50:55.229408  2985 net.cpp:367] bn5 -> conv5 (in-place)
I0105 08:50:55.229615  2985 net.cpp:122] Setting up bn5
I0105 08:50:55.229632  2985 net.cpp:129] Top shape: 200 256 13 13 (8652800)
I0105 08:50:55.229641  2985 net.cpp:137] Memory required for data: 2416489600
I0105 08:50:55.229663  2985 layer_factory.hpp:77] Creating layer scale5
I0105 08:50:55.229678  2985 net.cpp:84] Creating Layer scale5
I0105 08:50:55.229688  2985 net.cpp:406] scale5 <- conv5
I0105 08:50:55.229701  2985 net.cpp:367] scale5 -> conv5 (in-place)
I0105 08:50:55.229765  2985 layer_factory.hpp:77] Creating layer scale5
I0105 08:50:55.229900  2985 net.cpp:122] Setting up scale5
I0105 08:50:55.229964  2985 net.cpp:129] Top shape: 200 256 13 13 (8652800)
I0105 08:50:55.229974  2985 net.cpp:137] Memory required for data: 2451100800
I0105 08:50:55.229986  2985 layer_factory.hpp:77] Creating layer relu5
I0105 08:50:55.230000  2985 net.cpp:84] Creating Layer relu5
I0105 08:50:55.230010  2985 net.cpp:406] relu5 <- conv5
I0105 08:50:55.230020  2985 net.cpp:367] relu5 -> conv5 (in-place)
I0105 08:50:55.230032  2985 net.cpp:122] Setting up relu5
I0105 08:50:55.230043  2985 net.cpp:129] Top shape: 200 256 13 13 (8652800)
I0105 08:50:55.230052  2985 net.cpp:137] Memory required for data: 2485712000
I0105 08:50:55.230062  2985 layer_factory.hpp:77] Creating layer pool5
I0105 08:50:55.230074  2985 net.cpp:84] Creating Layer pool5
I0105 08:50:55.230083  2985 net.cpp:406] pool5 <- conv5
I0105 08:50:55.230098  2985 net.cpp:380] pool5 -> pool5
I0105 08:50:55.230146  2985 net.cpp:122] Setting up pool5
I0105 08:50:55.230162  2985 net.cpp:129] Top shape: 200 256 6 6 (1843200)
I0105 08:50:55.230171  2985 net.cpp:137] Memory required for data: 2493084800
I0105 08:50:55.230180  2985 layer_factory.hpp:77] Creating layer quantized_conv5
I0105 08:50:55.230197  2985 net.cpp:84] Creating Layer quantized_conv5
I0105 08:50:55.230207  2985 net.cpp:406] quantized_conv5 <- pool5
I0105 08:50:55.230218  2985 net.cpp:367] quantized_conv5 -> pool5 (in-place)
I0105 08:50:55.230232  2985 net.cpp:122] Setting up quantized_conv5
I0105 08:50:55.230242  2985 net.cpp:129] Top shape: 200 256 6 6 (1843200)
I0105 08:50:55.230250  2985 net.cpp:137] Memory required for data: 2500457600
I0105 08:50:55.230259  2985 layer_factory.hpp:77] Creating layer fc6
I0105 08:50:55.230273  2985 net.cpp:84] Creating Layer fc6
I0105 08:50:55.230283  2985 net.cpp:406] fc6 <- pool5
I0105 08:50:55.230293  2985 net.cpp:380] fc6 -> fc6
I0105 08:50:56.422768  2985 net.cpp:122] Setting up fc6
I0105 08:50:56.422837  2985 net.cpp:129] Top shape: 200 4096 (819200)
I0105 08:50:56.422848  2985 net.cpp:137] Memory required for data: 2503734400
I0105 08:50:56.422868  2985 layer_factory.hpp:77] Creating layer bn6
I0105 08:50:56.422889  2985 net.cpp:84] Creating Layer bn6
I0105 08:50:56.422901  2985 net.cpp:406] bn6 <- fc6
I0105 08:50:56.422916  2985 net.cpp:367] bn6 -> fc6 (in-place)
I0105 08:50:56.423176  2985 net.cpp:122] Setting up bn6
I0105 08:50:56.423193  2985 net.cpp:129] Top shape: 200 4096 (819200)
I0105 08:50:56.423202  2985 net.cpp:137] Memory required for data: 2507011200
I0105 08:50:56.423219  2985 layer_factory.hpp:77] Creating layer scale6
I0105 08:50:56.423239  2985 net.cpp:84] Creating Layer scale6
I0105 08:50:56.423250  2985 net.cpp:406] scale6 <- fc6
I0105 08:50:56.423261  2985 net.cpp:367] scale6 -> fc6 (in-place)
I0105 08:50:56.423317  2985 layer_factory.hpp:77] Creating layer scale6
I0105 08:50:56.423454  2985 net.cpp:122] Setting up scale6
I0105 08:50:56.423471  2985 net.cpp:129] Top shape: 200 4096 (819200)
I0105 08:50:56.423481  2985 net.cpp:137] Memory required for data: 2510288000
I0105 08:50:56.423493  2985 layer_factory.hpp:77] Creating layer relu6
I0105 08:50:56.423513  2985 net.cpp:84] Creating Layer relu6
I0105 08:50:56.423523  2985 net.cpp:406] relu6 <- fc6
I0105 08:50:56.423537  2985 net.cpp:367] relu6 -> fc6 (in-place)
I0105 08:50:56.423549  2985 net.cpp:122] Setting up relu6
I0105 08:50:56.423560  2985 net.cpp:129] Top shape: 200 4096 (819200)
I0105 08:50:56.423569  2985 net.cpp:137] Memory required for data: 2513564800
I0105 08:50:56.423578  2985 layer_factory.hpp:77] Creating layer drop6
I0105 08:50:56.423591  2985 net.cpp:84] Creating Layer drop6
I0105 08:50:56.423600  2985 net.cpp:406] drop6 <- fc6
I0105 08:50:56.423611  2985 net.cpp:367] drop6 -> fc6 (in-place)
I0105 08:50:56.423646  2985 net.cpp:122] Setting up drop6
I0105 08:50:56.423662  2985 net.cpp:129] Top shape: 200 4096 (819200)
I0105 08:50:56.423671  2985 net.cpp:137] Memory required for data: 2516841600
I0105 08:50:56.423681  2985 layer_factory.hpp:77] Creating layer quantized_fc6
I0105 08:50:56.423694  2985 net.cpp:84] Creating Layer quantized_fc6
I0105 08:50:56.423746  2985 net.cpp:406] quantized_fc6 <- fc6
I0105 08:50:56.423759  2985 net.cpp:367] quantized_fc6 -> fc6 (in-place)
I0105 08:50:56.423774  2985 net.cpp:122] Setting up quantized_fc6
I0105 08:50:56.423784  2985 net.cpp:129] Top shape: 200 4096 (819200)
I0105 08:50:56.423792  2985 net.cpp:137] Memory required for data: 2520118400
I0105 08:50:56.423801  2985 layer_factory.hpp:77] Creating layer fc7
I0105 08:50:56.423815  2985 net.cpp:84] Creating Layer fc7
I0105 08:50:56.423825  2985 net.cpp:406] fc7 <- fc6
I0105 08:50:56.423840  2985 net.cpp:380] fc7 -> fc7
I0105 08:50:56.928747  2985 net.cpp:122] Setting up fc7
I0105 08:50:56.928812  2985 net.cpp:129] Top shape: 200 4096 (819200)
I0105 08:50:56.928822  2985 net.cpp:137] Memory required for data: 2523395200
I0105 08:50:56.928840  2985 layer_factory.hpp:77] Creating layer bn7
I0105 08:50:56.928858  2985 net.cpp:84] Creating Layer bn7
I0105 08:50:56.928870  2985 net.cpp:406] bn7 <- fc7
I0105 08:50:56.928889  2985 net.cpp:367] bn7 -> fc7 (in-place)
I0105 08:50:56.929083  2985 net.cpp:122] Setting up bn7
I0105 08:50:56.929100  2985 net.cpp:129] Top shape: 200 4096 (819200)
I0105 08:50:56.929108  2985 net.cpp:137] Memory required for data: 2526672000
I0105 08:50:56.929122  2985 layer_factory.hpp:77] Creating layer scale7
I0105 08:50:56.929138  2985 net.cpp:84] Creating Layer scale7
I0105 08:50:56.929148  2985 net.cpp:406] scale7 <- fc7
I0105 08:50:56.929159  2985 net.cpp:367] scale7 -> fc7 (in-place)
I0105 08:50:56.929209  2985 layer_factory.hpp:77] Creating layer scale7
I0105 08:50:56.929347  2985 net.cpp:122] Setting up scale7
I0105 08:50:56.929363  2985 net.cpp:129] Top shape: 200 4096 (819200)
I0105 08:50:56.929371  2985 net.cpp:137] Memory required for data: 2529948800
I0105 08:50:56.929383  2985 layer_factory.hpp:77] Creating layer relu7
I0105 08:50:56.929395  2985 net.cpp:84] Creating Layer relu7
I0105 08:50:56.929404  2985 net.cpp:406] relu7 <- fc7
I0105 08:50:56.929416  2985 net.cpp:367] relu7 -> fc7 (in-place)
I0105 08:50:56.929428  2985 net.cpp:122] Setting up relu7
I0105 08:50:56.929438  2985 net.cpp:129] Top shape: 200 4096 (819200)
I0105 08:50:56.929447  2985 net.cpp:137] Memory required for data: 2533225600
I0105 08:50:56.929455  2985 layer_factory.hpp:77] Creating layer drop7
I0105 08:50:56.929468  2985 net.cpp:84] Creating Layer drop7
I0105 08:50:56.929476  2985 net.cpp:406] drop7 <- fc7
I0105 08:50:56.929487  2985 net.cpp:367] drop7 -> fc7 (in-place)
I0105 08:50:56.929522  2985 net.cpp:122] Setting up drop7
I0105 08:50:56.929536  2985 net.cpp:129] Top shape: 200 4096 (819200)
I0105 08:50:56.929544  2985 net.cpp:137] Memory required for data: 2536502400
I0105 08:50:56.929553  2985 layer_factory.hpp:77] Creating layer quantized_fc7
I0105 08:50:56.929566  2985 net.cpp:84] Creating Layer quantized_fc7
I0105 08:50:56.929575  2985 net.cpp:406] quantized_fc7 <- fc7
I0105 08:50:56.929589  2985 net.cpp:367] quantized_fc7 -> fc7 (in-place)
I0105 08:50:56.929601  2985 net.cpp:122] Setting up quantized_fc7
I0105 08:50:56.929611  2985 net.cpp:129] Top shape: 200 4096 (819200)
I0105 08:50:56.929620  2985 net.cpp:137] Memory required for data: 2539779200
I0105 08:50:56.929627  2985 layer_factory.hpp:77] Creating layer fc8
I0105 08:50:56.929641  2985 net.cpp:84] Creating Layer fc8
I0105 08:50:56.929651  2985 net.cpp:406] fc8 <- fc7
I0105 08:50:56.929661  2985 net.cpp:380] fc8 -> fc8
I0105 08:50:57.049173  2985 net.cpp:122] Setting up fc8
I0105 08:50:57.049229  2985 net.cpp:129] Top shape: 200 1000 (200000)
I0105 08:50:57.049238  2985 net.cpp:137] Memory required for data: 2540579200
I0105 08:50:57.049255  2985 layer_factory.hpp:77] Creating layer fc8_fc8_0_split
I0105 08:50:57.049273  2985 net.cpp:84] Creating Layer fc8_fc8_0_split
I0105 08:50:57.049284  2985 net.cpp:406] fc8_fc8_0_split <- fc8
I0105 08:50:57.049300  2985 net.cpp:380] fc8_fc8_0_split -> fc8_fc8_0_split_0
I0105 08:50:57.049321  2985 net.cpp:380] fc8_fc8_0_split -> fc8_fc8_0_split_1
I0105 08:50:57.049334  2985 net.cpp:380] fc8_fc8_0_split -> fc8_fc8_0_split_2
I0105 08:50:57.049402  2985 net.cpp:122] Setting up fc8_fc8_0_split
I0105 08:50:57.049458  2985 net.cpp:129] Top shape: 200 1000 (200000)
I0105 08:50:57.049468  2985 net.cpp:129] Top shape: 200 1000 (200000)
I0105 08:50:57.049477  2985 net.cpp:129] Top shape: 200 1000 (200000)
I0105 08:50:57.049485  2985 net.cpp:137] Memory required for data: 2542979200
I0105 08:50:57.049494  2985 layer_factory.hpp:77] Creating layer accuracy
I0105 08:50:57.049507  2985 net.cpp:84] Creating Layer accuracy
I0105 08:50:57.049516  2985 net.cpp:406] accuracy <- fc8_fc8_0_split_0
I0105 08:50:57.049526  2985 net.cpp:406] accuracy <- label_data_1_split_0
I0105 08:50:57.049540  2985 net.cpp:380] accuracy -> accuracy
…
