…
I0106 14:05:03.679052 57232 net.cpp:294] The NetState phase (0) differed from the phase (1) specified by a rule in layer accuracy_5
I0106 14:05:03.679282 57232 net.cpp:51] Initializing net from parameters: 
name: "AlexNet-BN"
state {
  phase: TRAIN
  level: 0
  stage: ""
}
layer {
  name: "data"
  type: "Data"
  top: "data"
  top: "label"
  include {
    phase: TRAIN
  }
  transform_param {
    mirror: true
    crop_size: 224
    mean_value: 103.939
    mean_value: 116.779
    mean_value: 123.68
  }
  data_param {
    source: "/home/ydwu/database/imagenet/ilsvrc12/lmdb_resize/ilsvrc12_train_lmdb"
    batch_size: 200
    backend: LMDB
  }
}
layer {
  name: "conv1"
  type: "Convolution"
  bottom: "data"
  top: "conv1"
  param {
    lr_mult: 1
    decay_mult: 1
  }
  param {
    lr_mult: 2
    decay_mult: 0
  }
  convolution_param {
    num_output: 96
    pad: 2
    kernel_size: 11
    stride: 4
    weight_filler {
      type: "gaussian"
      std: 0.01
    }
    bias_filler {
      type: "constant"
      value: 0
    }
  }
}
layer {
  name: "bn1"
  type: "BatchNorm"
  bottom: "conv1"
  top: "conv1"
}
layer {
  name: "scale1"
  type: "Scale"
  bottom: "conv1"
  top: "conv1"
  scale_param {
    bias_term: true
  }
}
layer {
  name: "relu1"
  type: "ReLU"
  bottom: "conv1"
  top: "conv1"
}
layer {
  name: "pool1"
  type: "Pooling"
  bottom: "conv1"
  top: "pool1"
  pooling_param {
    pool: MAX
    kernel_size: 3
    stride: 2
  }
}
layer {
  name: "quantized_conv1"
  type: "Quantization"
  bottom: "pool1"
  top: "pool1"
  quantization_param {
    round_method: FLOOR
    round_strategy: AGGRESSIVE
    bit_width: 4
    range: 0
    range: 9.3102551
  }
}
layer {
  name: "conv2"
  type: "Convolution"
  bottom: "pool1"
  top: "conv2"
  param {
    lr_mult: 1
    decay_mult: 1
  }
  param {
    lr_mult: 2
    decay_mult: 0
  }
  convolution_param {
    num_output: 256
    pad: 2
    kernel_size: 5
    weight_filler {
      type: "gaussian"
      std: 0.01
    }
    bias_filler {
      type: "constant"
      value: 0.1
    }
  }
}
layer {
  name: "bn2"
  type: "BatchNorm"
  bottom: "conv2"
  top: "conv2"
}
layer {
  name: "scale2"
  type: "Scale"
  bottom: "conv2"
  top: "conv2"
  scale_param {
    bias_term: true
  }
}
layer {
  name: "relu2"
  type: "ReLU"
  bottom: "conv2"
  top: "conv2"
}
layer {
  name: "pool2"
  type: "Pooling"
  bottom: "conv2"
  top: "pool2"
  pooling_param {
    pool: MAX
    kernel_size: 3
    stride: 2
  }
}
layer {
  name: "quantized_conv2"
  type: "Quantization"
  bottom: "pool2"
  top: "pool2"
  quantization_param {
    round_method: FLOOR
    round_strategy: AGGRESSIVE
    bit_width: 4
    range: 0
    range: 4.4997
  }
}
layer {
  name: "conv3"
  type: "Convolution"
  bottom: "pool2"
  top: "conv3"
  param {
    lr_mult: 1
    decay_mult: 1
  }
  param {
    lr_mult: 2
    decay_mult: 0
  }
  convolution_param {
    num_output: 384
    pad: 1
    kernel_size: 3
    weight_filler {
      type: "gaussian"
      std: 0.01
    }
    bias_filler {
      type: "constant"
      value: 0
    }
  }
}
layer {
  name: "bn3"
  type: "BatchNorm"
  bottom: "conv3"
  top: "conv3"
}
layer {
  name: "scale3"
  type: "Scale"
  bottom: "conv3"
  top: "conv3"
  scale_param {
    bias_term: true
  }
}
layer {
  name: "relu3"
  type: "ReLU"
  bottom: "conv3"
  top: "conv3"
}
layer {
  name: "quantized_conv3"
  type: "Quantization"
  bottom: "conv3"
  top: "conv3"
  quantization_param {
    round_method: FLOOR
    round_strategy: AGGRESSIVE
    bit_width: 4
    range: 0
    range: 5.65636
  }
}
layer {
  name: "conv4"
  type: "Convolution"
  bottom: "conv3"
  top: "conv4"
  param {
    lr_mult: 1
    decay_mult: 1
  }
  param {
    lr_mult: 2
    decay_mult: 0
  }
  convolution_param {
    num_output: 384
    pad: 1
    kernel_size: 3
    weight_filler {
      type: "gaussian"
      std: 0.01
    }
    bias_filler {
      type: "constant"
      value: 0.1
    }
  }
}
layer {
  name: "bn4"
  type: "BatchNorm"
  bottom: "conv4"
  top: "conv4"
}
layer {
  name: "scale4"
  type: "Scale"
  bottom: "conv4"
  top: "conv4"
  scale_param {
    bias_term: true
  }
}
layer {
  name: "relu4"
  type: "ReLU"
  bottom: "conv4"
  top: "conv4"
}
layer {
  name: "quantized_conv4"
  type: "Quantization"
  bottom: "conv4"
  top: "conv4"
  quantization_param {
    round_method: FLOOR
    round_strategy: AGGRESSIVE
    bit_width: 4
    range: 0
    range: 4.891314
  }
}
layer {
  name: "conv5"
  type: "Convolution"
  bottom: "conv4"
  top: "conv5"
  param {
    lr_mult: 1
    decay_mult: 1
  }
  param {
    lr_mult: 2
    decay_mult: 0
  }
  convolution_param {
    num_output: 256
    pad: 1
    kernel_size: 3
    weight_filler {
      type: "gaussian"
      std: 0.01
    }
    bias_filler {
      type: "constant"
      value: 0.1
    }
  }
}
layer {
  name: "bn5"
  type: "BatchNorm"
  bottom: "conv5"
  top: "conv5"
}
layer {
  name: "scale5"
  type: "Scale"
  bottom: "conv5"
  top: "conv5"
  scale_param {
    bias_term: true
  }
}
layer {
  name: "relu5"
  type: "ReLU"
  bottom: "conv5"
  top: "conv5"
}
layer {
  name: "pool5"
  type: "Pooling"
  bottom: "conv5"
  top: "pool5"
  pooling_param {
    pool: MAX
    kernel_size: 3
    stride: 2
  }
}
layer {
  name: "quantized_conv5"
  type: "Quantization"
  bottom: "pool5"
  top: "pool5"
  quantization_param {
    round_method: FLOOR
    round_strategy: AGGRESSIVE
    bit_width: 4
    range: 0
    range: 5.8384752
  }
}
layer {
  name: "fc6"
  type: "InnerProduct"
  bottom: "pool5"
  top: "fc6"
  param {
    lr_mult: 1
    decay_mult: 1
  }
  param {
    lr_mult: 2
    decay_mult: 0
  }
  inner_product_param {
    num_output: 4096
    weight_filler {
      type: "gaussian"
      std: 0.005
    }
    bias_filler {
      type: "constant"
      value: 0.1
    }
  }
}
layer {
  name: "bn6"
  type: "BatchNorm"
  bottom: "fc6"
  top: "fc6"
}
layer {
  name: "scale6"
  type: "Scale"
  bottom: "fc6"
  top: "fc6"
  scale_param {
    bias_term: true
  }
}
layer {
  name: "relu6"
  type: "ReLU"
  bottom: "fc6"
  top: "fc6"
}
layer {
  name: "drop6"
  type: "Dropout"
  bottom: "fc6"
  top: "fc6"
  dropout_param {
    dropout_ratio: 0.5
  }
}
layer {
  name: "quantized_fc6"
  type: "Quantization"
  bottom: "fc6"
  top: "fc6"
  quantization_param {
    round_method: FLOOR
    round_strategy: AGGRESSIVE
    bit_width: 4
    range: 0
    range: 1.106238
  }
}
layer {
  name: "fc7"
  type: "InnerProduct"
  bottom: "fc6"
  top: "fc7"
  param {
    lr_mult: 1
    decay_mult: 1
  }
  param {
    lr_mult: 2
    decay_mult: 0
  }
  inner_product_param {
    num_output: 4096
    weight_filler {
      type: "gaussian"
      std: 0.005
    }
    bias_filler {
      type: "constant"
      value: 0.1
    }
  }
}
layer {
  name: "bn7"
  type: "BatchNorm"
  bottom: "fc7"
  top: "fc7"
}
layer {
  name: "scale7"
  type: "Scale"
  bottom: "fc7"
  top: "fc7"
  scale_param {
    bias_term: true
  }
}
layer {
  name: "relu7"
  type: "ReLU"
  bottom: "fc7"
  top: "fc7"
}
layer {
  name: "drop7"
  type: "Dropout"
  bottom: "fc7"
  top: "fc7"
  dropout_param {
    dropout_ratio: 0.5
  }
}
layer {
  name: "quantized_fc7"
  type: "Quantization"
  bottom: "fc7"
  top: "fc7"
  quantization_param {
    round_method: FLOOR
    round_strategy: AGGRESSIVE
    bit_width: 4
    range: 0
    range: 5.0399008
  }
}
layer {
  name: "fc8"
  type: "InnerProduct"
  bottom: "fc7"
  top: "fc8"
  param {
    lr_mult: 1
    decay_mult: 1
  }
  param {
    lr_mult: 2
    decay_mult: 0
  }
  inner_product_param {
    num_output: 1000
    weight_filler {
      type: "gaussian"
      std: 0.01
    }
    bias_filler {
      type: "constant"
      value: 0
    }
  }
}
layer {
  name: "accuracy_5_TRAIN"
  type: "Accuracy"
  bottom: "fc8"
  bottom: "label"
  top: "accuracy_5_TRAIN"
  include {
    phase: TRAIN
  }
  accuracy_param {
    top_k: 5
  }
}
layer {
  name: "loss"
  type: "SoftmaxWithLoss"
  bottom: "fc8"
  bottom: "label"
  top: "loss"
}
I0106 14:05:03.679507 57232 layer_factory.hpp:77] Creating layer data
I0106 14:05:03.679633 57232 db_lmdb.cpp:35] Opened lmdb /home/ydwu/database/imagenet/ilsvrc12/lmdb_resize/ilsvrc12_train_lmdb
I0106 14:05:03.679679 57232 net.cpp:84] Creating Layer data
I0106 14:05:03.679700 57232 net.cpp:380] data -> data
I0106 14:05:03.679733 57232 net.cpp:380] data -> label
I0106 14:05:03.681407 57232 data_layer.cpp:45] output data size: 200,3,224,224
I0106 14:05:04.037544 57232 net.cpp:122] Setting up data
I0106 14:05:04.037647 57232 net.cpp:129] Top shape: 200 3 224 224 (30105600)
I0106 14:05:04.037662 57232 net.cpp:129] Top shape: 200 (200)
I0106 14:05:04.037672 57232 net.cpp:137] Memory required for data: 120423200
I0106 14:05:04.037688 57232 layer_factory.hpp:77] Creating layer label_data_1_split
I0106 14:05:04.037714 57232 net.cpp:84] Creating Layer label_data_1_split
I0106 14:05:04.037726 57232 net.cpp:406] label_data_1_split <- label
I0106 14:05:04.037753 57232 net.cpp:380] label_data_1_split -> label_data_1_split_0
I0106 14:05:04.037775 57232 net.cpp:380] label_data_1_split -> label_data_1_split_1
I0106 14:05:04.037827 57232 net.cpp:122] Setting up label_data_1_split
I0106 14:05:04.037842 57232 net.cpp:129] Top shape: 200 (200)
I0106 14:05:04.037853 57232 net.cpp:129] Top shape: 200 (200)
I0106 14:05:04.037861 57232 net.cpp:137] Memory required for data: 120424800
I0106 14:05:04.037869 57232 layer_factory.hpp:77] Creating layer conv1
I0106 14:05:04.037900 57232 net.cpp:84] Creating Layer conv1
I0106 14:05:04.037911 57232 net.cpp:406] conv1 <- data
I0106 14:05:04.037925 57232 net.cpp:380] conv1 -> conv1
I0106 14:05:04.058815 57232 net.cpp:122] Setting up conv1
I0106 14:05:04.058841 57232 net.cpp:129] Top shape: 200 96 55 55 (58080000)
I0106 14:05:04.058851 57232 net.cpp:137] Memory required for data: 352744800
I0106 14:05:04.058874 57232 layer_factory.hpp:77] Creating layer bn1
I0106 14:05:04.058892 57232 net.cpp:84] Creating Layer bn1
I0106 14:05:04.058903 57232 net.cpp:406] bn1 <- conv1
I0106 14:05:04.058914 57232 net.cpp:367] bn1 -> conv1 (in-place)
I0106 14:05:04.059111 57232 net.cpp:122] Setting up bn1
I0106 14:05:04.059134 57232 net.cpp:129] Top shape: 200 96 55 55 (58080000)
I0106 14:05:04.059142 57232 net.cpp:137] Memory required for data: 585064800
I0106 14:05:04.059159 57232 layer_factory.hpp:77] Creating layer scale1
I0106 14:05:04.059177 57232 net.cpp:84] Creating Layer scale1
I0106 14:05:04.059187 57232 net.cpp:406] scale1 <- conv1
I0106 14:05:04.059198 57232 net.cpp:367] scale1 -> conv1 (in-place)
I0106 14:05:04.059255 57232 layer_factory.hpp:77] Creating layer scale1
I0106 14:05:04.059381 57232 net.cpp:122] Setting up scale1
I0106 14:05:04.059397 57232 net.cpp:129] Top shape: 200 96 55 55 (58080000)
I0106 14:05:04.059407 57232 net.cpp:137] Memory required for data: 817384800
I0106 14:05:04.059419 57232 layer_factory.hpp:77] Creating layer relu1
I0106 14:05:04.059434 57232 net.cpp:84] Creating Layer relu1
I0106 14:05:04.059444 57232 net.cpp:406] relu1 <- conv1
I0106 14:05:04.059454 57232 net.cpp:367] relu1 -> conv1 (in-place)
I0106 14:05:04.059469 57232 net.cpp:122] Setting up relu1
I0106 14:05:04.059480 57232 net.cpp:129] Top shape: 200 96 55 55 (58080000)
I0106 14:05:04.059489 57232 net.cpp:137] Memory required for data: 1049704800
I0106 14:05:04.059497 57232 layer_factory.hpp:77] Creating layer pool1
I0106 14:05:04.059510 57232 net.cpp:84] Creating Layer pool1
I0106 14:05:04.059520 57232 net.cpp:406] pool1 <- conv1
I0106 14:05:04.059563 57232 net.cpp:380] pool1 -> pool1
I0106 14:05:04.059623 57232 net.cpp:122] Setting up pool1
I0106 14:05:04.059638 57232 net.cpp:129] Top shape: 200 96 27 27 (13996800)
I0106 14:05:04.059648 57232 net.cpp:137] Memory required for data: 1105692000
I0106 14:05:04.059656 57232 layer_factory.hpp:77] Creating layer quantized_conv1
I0106 14:05:04.059672 57232 net.cpp:84] Creating Layer quantized_conv1
I0106 14:05:04.059682 57232 net.cpp:406] quantized_conv1 <- pool1
I0106 14:05:04.059693 57232 net.cpp:367] quantized_conv1 -> pool1 (in-place)
I0106 14:05:04.059708 57232 net.cpp:122] Setting up quantized_conv1
I0106 14:05:04.059720 57232 net.cpp:129] Top shape: 200 96 27 27 (13996800)
I0106 14:05:04.059728 57232 net.cpp:137] Memory required for data: 1161679200
I0106 14:05:04.059736 57232 layer_factory.hpp:77] Creating layer conv2
I0106 14:05:04.059753 57232 net.cpp:84] Creating Layer conv2
I0106 14:05:04.059763 57232 net.cpp:406] conv2 <- pool1
I0106 14:05:04.059774 57232 net.cpp:380] conv2 -> conv2
I0106 14:05:04.079630 57232 net.cpp:122] Setting up conv2
I0106 14:05:04.079674 57232 net.cpp:129] Top shape: 200 256 27 27 (37324800)
I0106 14:05:04.079684 57232 net.cpp:137] Memory required for data: 1310978400
I0106 14:05:04.079706 57232 layer_factory.hpp:77] Creating layer bn2
I0106 14:05:04.079725 57232 net.cpp:84] Creating Layer bn2
I0106 14:05:04.079736 57232 net.cpp:406] bn2 <- conv2
I0106 14:05:04.079751 57232 net.cpp:367] bn2 -> conv2 (in-place)
I0106 14:05:04.079921 57232 net.cpp:122] Setting up bn2
I0106 14:05:04.079937 57232 net.cpp:129] Top shape: 200 256 27 27 (37324800)
I0106 14:05:04.079946 57232 net.cpp:137] Memory required for data: 1460277600
I0106 14:05:04.079960 57232 layer_factory.hpp:77] Creating layer scale2
I0106 14:05:04.079974 57232 net.cpp:84] Creating Layer scale2
I0106 14:05:04.079983 57232 net.cpp:406] scale2 <- conv2
I0106 14:05:04.079993 57232 net.cpp:367] scale2 -> conv2 (in-place)
I0106 14:05:04.080047 57232 layer_factory.hpp:77] Creating layer scale2
I0106 14:05:04.080149 57232 net.cpp:122] Setting up scale2
I0106 14:05:04.080165 57232 net.cpp:129] Top shape: 200 256 27 27 (37324800)
I0106 14:05:04.080174 57232 net.cpp:137] Memory required for data: 1609576800
I0106 14:05:04.080186 57232 layer_factory.hpp:77] Creating layer relu2
I0106 14:05:04.080199 57232 net.cpp:84] Creating Layer relu2
I0106 14:05:04.080209 57232 net.cpp:406] relu2 <- conv2
I0106 14:05:04.080219 57232 net.cpp:367] relu2 -> conv2 (in-place)
I0106 14:05:04.080230 57232 net.cpp:122] Setting up relu2
I0106 14:05:04.080240 57232 net.cpp:129] Top shape: 200 256 27 27 (37324800)
I0106 14:05:04.080250 57232 net.cpp:137] Memory required for data: 1758876000
I0106 14:05:04.080257 57232 layer_factory.hpp:77] Creating layer pool2
I0106 14:05:04.080271 57232 net.cpp:84] Creating Layer pool2
I0106 14:05:04.080278 57232 net.cpp:406] pool2 <- conv2
I0106 14:05:04.080291 57232 net.cpp:380] pool2 -> pool2
I0106 14:05:04.080333 57232 net.cpp:122] Setting up pool2
I0106 14:05:04.080348 57232 net.cpp:129] Top shape: 200 256 13 13 (8652800)
I0106 14:05:04.080358 57232 net.cpp:137] Memory required for data: 1793487200
I0106 14:05:04.080365 57232 layer_factory.hpp:77] Creating layer quantized_conv2
I0106 14:05:04.080379 57232 net.cpp:84] Creating Layer quantized_conv2
I0106 14:05:04.080389 57232 net.cpp:406] quantized_conv2 <- pool2
I0106 14:05:04.080399 57232 net.cpp:367] quantized_conv2 -> pool2 (in-place)
I0106 14:05:04.080412 57232 net.cpp:122] Setting up quantized_conv2
I0106 14:05:04.080423 57232 net.cpp:129] Top shape: 200 256 13 13 (8652800)
I0106 14:05:04.080431 57232 net.cpp:137] Memory required for data: 1828098400
I0106 14:05:04.080440 57232 layer_factory.hpp:77] Creating layer conv3
I0106 14:05:04.080456 57232 net.cpp:84] Creating Layer conv3
I0106 14:05:04.080466 57232 net.cpp:406] conv3 <- pool2
I0106 14:05:04.080478 57232 net.cpp:380] conv3 -> conv3
I0106 14:05:04.107059 57232 net.cpp:122] Setting up conv3
I0106 14:05:04.107112 57232 net.cpp:129] Top shape: 200 384 13 13 (12979200)
I0106 14:05:04.107161 57232 net.cpp:137] Memory required for data: 1880015200
I0106 14:05:04.107179 57232 layer_factory.hpp:77] Creating layer bn3
I0106 14:05:04.107198 57232 net.cpp:84] Creating Layer bn3
I0106 14:05:04.107209 57232 net.cpp:406] bn3 <- conv3
I0106 14:05:04.107223 57232 net.cpp:367] bn3 -> conv3 (in-place)
I0106 14:05:04.107393 57232 net.cpp:122] Setting up bn3
I0106 14:05:04.107409 57232 net.cpp:129] Top shape: 200 384 13 13 (12979200)
I0106 14:05:04.107419 57232 net.cpp:137] Memory required for data: 1931932000
I0106 14:05:04.107439 57232 layer_factory.hpp:77] Creating layer scale3
I0106 14:05:04.107456 57232 net.cpp:84] Creating Layer scale3
I0106 14:05:04.107466 57232 net.cpp:406] scale3 <- conv3
I0106 14:05:04.107477 57232 net.cpp:367] scale3 -> conv3 (in-place)
I0106 14:05:04.107529 57232 layer_factory.hpp:77] Creating layer scale3
I0106 14:05:04.107638 57232 net.cpp:122] Setting up scale3
I0106 14:05:04.107658 57232 net.cpp:129] Top shape: 200 384 13 13 (12979200)
I0106 14:05:04.107667 57232 net.cpp:137] Memory required for data: 1983848800
I0106 14:05:04.107679 57232 layer_factory.hpp:77] Creating layer relu3
I0106 14:05:04.107692 57232 net.cpp:84] Creating Layer relu3
I0106 14:05:04.107702 57232 net.cpp:406] relu3 <- conv3
I0106 14:05:04.107712 57232 net.cpp:367] relu3 -> conv3 (in-place)
I0106 14:05:04.107723 57232 net.cpp:122] Setting up relu3
I0106 14:05:04.107733 57232 net.cpp:129] Top shape: 200 384 13 13 (12979200)
I0106 14:05:04.107743 57232 net.cpp:137] Memory required for data: 2035765600
I0106 14:05:04.107750 57232 layer_factory.hpp:77] Creating layer quantized_conv3
I0106 14:05:04.107762 57232 net.cpp:84] Creating Layer quantized_conv3
I0106 14:05:04.107771 57232 net.cpp:406] quantized_conv3 <- conv3
I0106 14:05:04.107782 57232 net.cpp:367] quantized_conv3 -> conv3 (in-place)
I0106 14:05:04.107795 57232 net.cpp:122] Setting up quantized_conv3
I0106 14:05:04.107805 57232 net.cpp:129] Top shape: 200 384 13 13 (12979200)
I0106 14:05:04.107812 57232 net.cpp:137] Memory required for data: 2087682400
I0106 14:05:04.107820 57232 layer_factory.hpp:77] Creating layer conv4
I0106 14:05:04.107837 57232 net.cpp:84] Creating Layer conv4
I0106 14:05:04.107847 57232 net.cpp:406] conv4 <- conv3
I0106 14:05:04.107859 57232 net.cpp:380] conv4 -> conv4
I0106 14:05:04.147558 57232 net.cpp:122] Setting up conv4
I0106 14:05:04.147616 57232 net.cpp:129] Top shape: 200 384 13 13 (12979200)
I0106 14:05:04.147626 57232 net.cpp:137] Memory required for data: 2139599200
I0106 14:05:04.147640 57232 layer_factory.hpp:77] Creating layer bn4
I0106 14:05:04.147660 57232 net.cpp:84] Creating Layer bn4
I0106 14:05:04.147670 57232 net.cpp:406] bn4 <- conv4
I0106 14:05:04.147686 57232 net.cpp:367] bn4 -> conv4 (in-place)
I0106 14:05:04.147847 57232 net.cpp:122] Setting up bn4
I0106 14:05:04.147864 57232 net.cpp:129] Top shape: 200 384 13 13 (12979200)
I0106 14:05:04.147873 57232 net.cpp:137] Memory required for data: 2191516000
I0106 14:05:04.147886 57232 layer_factory.hpp:77] Creating layer scale4
I0106 14:05:04.147902 57232 net.cpp:84] Creating Layer scale4
I0106 14:05:04.147910 57232 net.cpp:406] scale4 <- conv4
I0106 14:05:04.147924 57232 net.cpp:367] scale4 -> conv4 (in-place)
I0106 14:05:04.147974 57232 layer_factory.hpp:77] Creating layer scale4
I0106 14:05:04.148079 57232 net.cpp:122] Setting up scale4
I0106 14:05:04.148095 57232 net.cpp:129] Top shape: 200 384 13 13 (12979200)
I0106 14:05:04.148104 57232 net.cpp:137] Memory required for data: 2243432800
I0106 14:05:04.148116 57232 layer_factory.hpp:77] Creating layer relu4
I0106 14:05:04.148129 57232 net.cpp:84] Creating Layer relu4
I0106 14:05:04.148139 57232 net.cpp:406] relu4 <- conv4
I0106 14:05:04.148149 57232 net.cpp:367] relu4 -> conv4 (in-place)
I0106 14:05:04.148161 57232 net.cpp:122] Setting up relu4
I0106 14:05:04.148171 57232 net.cpp:129] Top shape: 200 384 13 13 (12979200)
I0106 14:05:04.148180 57232 net.cpp:137] Memory required for data: 2295349600
I0106 14:05:04.148188 57232 layer_factory.hpp:77] Creating layer quantized_conv4
I0106 14:05:04.148201 57232 net.cpp:84] Creating Layer quantized_conv4
I0106 14:05:04.148250 57232 net.cpp:406] quantized_conv4 <- conv4
I0106 14:05:04.148262 57232 net.cpp:367] quantized_conv4 -> conv4 (in-place)
I0106 14:05:04.148275 57232 net.cpp:122] Setting up quantized_conv4
I0106 14:05:04.148286 57232 net.cpp:129] Top shape: 200 384 13 13 (12979200)
I0106 14:05:04.148294 57232 net.cpp:137] Memory required for data: 2347266400
I0106 14:05:04.148303 57232 layer_factory.hpp:77] Creating layer conv5
I0106 14:05:04.148320 57232 net.cpp:84] Creating Layer conv5
I0106 14:05:04.148336 57232 net.cpp:406] conv5 <- conv4
I0106 14:05:04.148350 57232 net.cpp:380] conv5 -> conv5
I0106 14:05:04.174926 57232 net.cpp:122] Setting up conv5
I0106 14:05:04.174979 57232 net.cpp:129] Top shape: 200 256 13 13 (8652800)
I0106 14:05:04.174989 57232 net.cpp:137] Memory required for data: 2381877600
I0106 14:05:04.175004 57232 layer_factory.hpp:77] Creating layer bn5
I0106 14:05:04.175029 57232 net.cpp:84] Creating Layer bn5
I0106 14:05:04.175041 57232 net.cpp:406] bn5 <- conv5
I0106 14:05:04.175057 57232 net.cpp:367] bn5 -> conv5 (in-place)
I0106 14:05:04.175230 57232 net.cpp:122] Setting up bn5
I0106 14:05:04.175246 57232 net.cpp:129] Top shape: 200 256 13 13 (8652800)
I0106 14:05:04.175256 57232 net.cpp:137] Memory required for data: 2416488800
I0106 14:05:04.175276 57232 layer_factory.hpp:77] Creating layer scale5
I0106 14:05:04.175292 57232 net.cpp:84] Creating Layer scale5
I0106 14:05:04.175300 57232 net.cpp:406] scale5 <- conv5
I0106 14:05:04.175312 57232 net.cpp:367] scale5 -> conv5 (in-place)
I0106 14:05:04.175365 57232 layer_factory.hpp:77] Creating layer scale5
I0106 14:05:04.175468 57232 net.cpp:122] Setting up scale5
I0106 14:05:04.175484 57232 net.cpp:129] Top shape: 200 256 13 13 (8652800)
I0106 14:05:04.175493 57232 net.cpp:137] Memory required for data: 2451100000
I0106 14:05:04.175504 57232 layer_factory.hpp:77] Creating layer relu5
I0106 14:05:04.175518 57232 net.cpp:84] Creating Layer relu5
I0106 14:05:04.175526 57232 net.cpp:406] relu5 <- conv5
I0106 14:05:04.175536 57232 net.cpp:367] relu5 -> conv5 (in-place)
I0106 14:05:04.175549 57232 net.cpp:122] Setting up relu5
I0106 14:05:04.175559 57232 net.cpp:129] Top shape: 200 256 13 13 (8652800)
I0106 14:05:04.175567 57232 net.cpp:137] Memory required for data: 2485711200
I0106 14:05:04.175575 57232 layer_factory.hpp:77] Creating layer pool5
I0106 14:05:04.175587 57232 net.cpp:84] Creating Layer pool5
I0106 14:05:04.175597 57232 net.cpp:406] pool5 <- conv5
I0106 14:05:04.175609 57232 net.cpp:380] pool5 -> pool5
I0106 14:05:04.175653 57232 net.cpp:122] Setting up pool5
I0106 14:05:04.175668 57232 net.cpp:129] Top shape: 200 256 6 6 (1843200)
I0106 14:05:04.175678 57232 net.cpp:137] Memory required for data: 2493084000
I0106 14:05:04.175685 57232 layer_factory.hpp:77] Creating layer quantized_conv5
I0106 14:05:04.175700 57232 net.cpp:84] Creating Layer quantized_conv5
I0106 14:05:04.175709 57232 net.cpp:406] quantized_conv5 <- pool5
I0106 14:05:04.175720 57232 net.cpp:367] quantized_conv5 -> pool5 (in-place)
I0106 14:05:04.175734 57232 net.cpp:122] Setting up quantized_conv5
I0106 14:05:04.175745 57232 net.cpp:129] Top shape: 200 256 6 6 (1843200)
I0106 14:05:04.175753 57232 net.cpp:137] Memory required for data: 2500456800
I0106 14:05:04.175762 57232 layer_factory.hpp:77] Creating layer fc6
I0106 14:05:04.175783 57232 net.cpp:84] Creating Layer fc6
I0106 14:05:04.175793 57232 net.cpp:406] fc6 <- pool5
I0106 14:05:04.175806 57232 net.cpp:380] fc6 -> fc6
I0106 14:05:05.274976 57232 net.cpp:122] Setting up fc6
I0106 14:05:05.275079 57232 net.cpp:129] Top shape: 200 4096 (819200)
I0106 14:05:05.275091 57232 net.cpp:137] Memory required for data: 2503733600
I0106 14:05:05.275108 57232 layer_factory.hpp:77] Creating layer bn6
I0106 14:05:05.275127 57232 net.cpp:84] Creating Layer bn6
I0106 14:05:05.275140 57232 net.cpp:406] bn6 <- fc6
I0106 14:05:05.275154 57232 net.cpp:367] bn6 -> fc6 (in-place)
I0106 14:05:05.275334 57232 net.cpp:122] Setting up bn6
I0106 14:05:05.275352 57232 net.cpp:129] Top shape: 200 4096 (819200)
I0106 14:05:05.275400 57232 net.cpp:137] Memory required for data: 2507010400
I0106 14:05:05.275415 57232 layer_factory.hpp:77] Creating layer scale6
I0106 14:05:05.275435 57232 net.cpp:84] Creating Layer scale6
I0106 14:05:05.275445 57232 net.cpp:406] scale6 <- fc6
I0106 14:05:05.275455 57232 net.cpp:367] scale6 -> fc6 (in-place)
I0106 14:05:05.275506 57232 layer_factory.hpp:77] Creating layer scale6
I0106 14:05:05.275622 57232 net.cpp:122] Setting up scale6
I0106 14:05:05.275638 57232 net.cpp:129] Top shape: 200 4096 (819200)
I0106 14:05:05.275647 57232 net.cpp:137] Memory required for data: 2510287200
I0106 14:05:05.275660 57232 layer_factory.hpp:77] Creating layer relu6
I0106 14:05:05.275672 57232 net.cpp:84] Creating Layer relu6
I0106 14:05:05.275682 57232 net.cpp:406] relu6 <- fc6
I0106 14:05:05.275693 57232 net.cpp:367] relu6 -> fc6 (in-place)
I0106 14:05:05.275704 57232 net.cpp:122] Setting up relu6
I0106 14:05:05.275715 57232 net.cpp:129] Top shape: 200 4096 (819200)
I0106 14:05:05.275723 57232 net.cpp:137] Memory required for data: 2513564000
I0106 14:05:05.275732 57232 layer_factory.hpp:77] Creating layer drop6
I0106 14:05:05.275753 57232 net.cpp:84] Creating Layer drop6
I0106 14:05:05.275763 57232 net.cpp:406] drop6 <- fc6
I0106 14:05:05.275774 57232 net.cpp:367] drop6 -> fc6 (in-place)
I0106 14:05:05.275813 57232 net.cpp:122] Setting up drop6
I0106 14:05:05.275828 57232 net.cpp:129] Top shape: 200 4096 (819200)
I0106 14:05:05.275837 57232 net.cpp:137] Memory required for data: 2516840800
I0106 14:05:05.275846 57232 layer_factory.hpp:77] Creating layer quantized_fc6
I0106 14:05:05.275861 57232 net.cpp:84] Creating Layer quantized_fc6
I0106 14:05:05.275869 57232 net.cpp:406] quantized_fc6 <- fc6
I0106 14:05:05.275880 57232 net.cpp:367] quantized_fc6 -> fc6 (in-place)
I0106 14:05:05.275893 57232 net.cpp:122] Setting up quantized_fc6
I0106 14:05:05.275904 57232 net.cpp:129] Top shape: 200 4096 (819200)
I0106 14:05:05.275913 57232 net.cpp:137] Memory required for data: 2520117600
I0106 14:05:05.275920 57232 layer_factory.hpp:77] Creating layer fc7
I0106 14:05:05.275934 57232 net.cpp:84] Creating Layer fc7
I0106 14:05:05.275943 57232 net.cpp:406] fc7 <- fc6
I0106 14:05:05.275955 57232 net.cpp:380] fc7 -> fc7
I0106 14:05:05.761792 57232 net.cpp:122] Setting up fc7
I0106 14:05:05.761894 57232 net.cpp:129] Top shape: 200 4096 (819200)
I0106 14:05:05.761910 57232 net.cpp:137] Memory required for data: 2523394400
I0106 14:05:05.761929 57232 layer_factory.hpp:77] Creating layer bn7
I0106 14:05:05.761947 57232 net.cpp:84] Creating Layer bn7
I0106 14:05:05.761958 57232 net.cpp:406] bn7 <- fc7
I0106 14:05:05.761973 57232 net.cpp:367] bn7 -> fc7 (in-place)
I0106 14:05:05.762158 57232 net.cpp:122] Setting up bn7
I0106 14:05:05.762176 57232 net.cpp:129] Top shape: 200 4096 (819200)
I0106 14:05:05.762184 57232 net.cpp:137] Memory required for data: 2526671200
I0106 14:05:05.762198 57232 layer_factory.hpp:77] Creating layer scale7
I0106 14:05:05.762212 57232 net.cpp:84] Creating Layer scale7
I0106 14:05:05.762221 57232 net.cpp:406] scale7 <- fc7
I0106 14:05:05.762233 57232 net.cpp:367] scale7 -> fc7 (in-place)
I0106 14:05:05.762281 57232 layer_factory.hpp:77] Creating layer scale7
I0106 14:05:05.762395 57232 net.cpp:122] Setting up scale7
I0106 14:05:05.762413 57232 net.cpp:129] Top shape: 200 4096 (819200)
I0106 14:05:05.762421 57232 net.cpp:137] Memory required for data: 2529948000
I0106 14:05:05.762434 57232 layer_factory.hpp:77] Creating layer relu7
I0106 14:05:05.762446 57232 net.cpp:84] Creating Layer relu7
I0106 14:05:05.762455 57232 net.cpp:406] relu7 <- fc7
I0106 14:05:05.762466 57232 net.cpp:367] relu7 -> fc7 (in-place)
I0106 14:05:05.762478 57232 net.cpp:122] Setting up relu7
I0106 14:05:05.762488 57232 net.cpp:129] Top shape: 200 4096 (819200)
I0106 14:05:05.762497 57232 net.cpp:137] Memory required for data: 2533224800
I0106 14:05:05.762506 57232 layer_factory.hpp:77] Creating layer drop7
I0106 14:05:05.762518 57232 net.cpp:84] Creating Layer drop7
I0106 14:05:05.762527 57232 net.cpp:406] drop7 <- fc7
I0106 14:05:05.762578 57232 net.cpp:367] drop7 -> fc7 (in-place)
I0106 14:05:05.762611 57232 net.cpp:122] Setting up drop7
I0106 14:05:05.762625 57232 net.cpp:129] Top shape: 200 4096 (819200)
I0106 14:05:05.762634 57232 net.cpp:137] Memory required for data: 2536501600
I0106 14:05:05.762642 57232 layer_factory.hpp:77] Creating layer quantized_fc7
I0106 14:05:05.762657 57232 net.cpp:84] Creating Layer quantized_fc7
I0106 14:05:05.762666 57232 net.cpp:406] quantized_fc7 <- fc7
I0106 14:05:05.762677 57232 net.cpp:367] quantized_fc7 -> fc7 (in-place)
I0106 14:05:05.762691 57232 net.cpp:122] Setting up quantized_fc7
I0106 14:05:05.762701 57232 net.cpp:129] Top shape: 200 4096 (819200)
I0106 14:05:05.762708 57232 net.cpp:137] Memory required for data: 2539778400
I0106 14:05:05.762717 57232 layer_factory.hpp:77] Creating layer fc8
I0106 14:05:05.762732 57232 net.cpp:84] Creating Layer fc8
I0106 14:05:05.762740 57232 net.cpp:406] fc8 <- fc7
I0106 14:05:05.762753 57232 net.cpp:380] fc8 -> fc8
I0106 14:05:05.881805 57232 net.cpp:122] Setting up fc8
I0106 14:05:05.881860 57232 net.cpp:129] Top shape: 200 1000 (200000)
I0106 14:05:05.881871 57232 net.cpp:137] Memory required for data: 2540578400
I0106 14:05:05.881888 57232 layer_factory.hpp:77] Creating layer fc8_fc8_0_split
I0106 14:05:05.881906 57232 net.cpp:84] Creating Layer fc8_fc8_0_split
I0106 14:05:05.881917 57232 net.cpp:406] fc8_fc8_0_split <- fc8
I0106 14:05:05.881932 57232 net.cpp:380] fc8_fc8_0_split -> fc8_fc8_0_split_0
I0106 14:05:05.881949 57232 net.cpp:380] fc8_fc8_0_split -> fc8_fc8_0_split_1
I0106 14:05:05.882001 57232 net.cpp:122] Setting up fc8_fc8_0_split
I0106 14:05:05.882016 57232 net.cpp:129] Top shape: 200 1000 (200000)
I0106 14:05:05.882028 57232 net.cpp:129] Top shape: 200 1000 (200000)
I0106 14:05:05.882036 57232 net.cpp:137] Memory required for data: 2542178400
I0106 14:05:05.882045 57232 layer_factory.hpp:77] Creating layer accuracy_5_TRAIN
I0106 14:05:05.882069 57232 net.cpp:84] Creating Layer accuracy_5_TRAIN
I0106 14:05:05.882078 57232 net.cpp:406] accuracy_5_TRAIN <- fc8_fc8_0_split_0
I0106 14:05:05.882089 57232 net.cpp:406] accuracy_5_TRAIN <- label_data_1_split_0
…
I0106 14:05:05.885205 57232 net.cpp:294] The NetState phase (1) differed from the phase (0) specified by a rule in layer accuracy_5_TRAIN
I0106 14:05:05.885443 57232 net.cpp:51] Initializing net from parameters: 
name: "AlexNet-BN"
state {
  phase: TEST
}
layer {
  name: "data"
  type: "Data"
  top: "data"
  top: "label"
  include {
    phase: TEST
  }
  transform_param {
    mirror: false
    crop_size: 224
    mean_value: 103.939
    mean_value: 116.779
    mean_value: 123.68
  }
  data_param {
    source: "/home/ydwu/database/imagenet/ilsvrc12/lmdb_resize/ilsvrc12_val_lmdb"
    batch_size: 200
    backend: LMDB
  }
}
layer {
  name: "conv1"
  type: "Convolution"
  bottom: "data"
  top: "conv1"
  param {
    lr_mult: 1
    decay_mult: 1
  }
  param {
    lr_mult: 2
    decay_mult: 0
  }
  convolution_param {
    num_output: 96
    pad: 2
    kernel_size: 11
    stride: 4
    weight_filler {
      type: "gaussian"
      std: 0.01
    }
    bias_filler {
      type: "constant"
      value: 0
    }
  }
}
layer {
  name: "bn1"
  type: "BatchNorm"
  bottom: "conv1"
  top: "conv1"
}
layer {
  name: "scale1"
  type: "Scale"
  bottom: "conv1"
  top: "conv1"
  scale_param {
    bias_term: true
  }
}
layer {
  name: "relu1"
  type: "ReLU"
  bottom: "conv1"
  top: "conv1"
}
layer {
  name: "pool1"
  type: "Pooling"
  bottom: "conv1"
  top: "pool1"
  pooling_param {
    pool: MAX
    kernel_size: 3
    stride: 2
  }
}
layer {
  name: "quantized_conv1"
  type: "Quantization"
  bottom: "pool1"
  top: "pool1"
  quantization_param {
    round_method: FLOOR
    round_strategy: AGGRESSIVE
    bit_width: 4
    range: 0
    range: 9.3102551
  }
}
layer {
  name: "conv2"
  type: "Convolution"
  bottom: "pool1"
  top: "conv2"
  param {
    lr_mult: 1
    decay_mult: 1
  }
  param {
    lr_mult: 2
    decay_mult: 0
  }
  convolution_param {
    num_output: 256
    pad: 2
    kernel_size: 5
    weight_filler {
      type: "gaussian"
      std: 0.01
    }
    bias_filler {
      type: "constant"
      value: 0.1
    }
  }
}
layer {
  name: "bn2"
  type: "BatchNorm"
  bottom: "conv2"
  top: "conv2"
}
layer {
  name: "scale2"
  type: "Scale"
  bottom: "conv2"
  top: "conv2"
  scale_param {
    bias_term: true
  }
}
layer {
  name: "relu2"
  type: "ReLU"
  bottom: "conv2"
  top: "conv2"
}
layer {
  name: "pool2"
  type: "Pooling"
  bottom: "conv2"
  top: "pool2"
  pooling_param {
    pool: MAX
    kernel_size: 3
    stride: 2
  }
}
layer {
  name: "quantized_conv2"
  type: "Quantization"
  bottom: "pool2"
  top: "pool2"
  quantization_param {
    round_method: FLOOR
    round_strategy: AGGRESSIVE
    bit_width: 4
    range: 0
    range: 4.4997
  }
}
layer {
  name: "conv3"
  type: "Convolution"
  bottom: "pool2"
  top: "conv3"
  param {
    lr_mult: 1
    decay_mult: 1
  }
  param {
    lr_mult: 2
    decay_mult: 0
  }
  convolution_param {
    num_output: 384
    pad: 1
    kernel_size: 3
    weight_filler {
      type: "gaussian"
      std: 0.01
    }
    bias_filler {
      type: "constant"
      value: 0
    }
  }
}
layer {
  name: "bn3"
  type: "BatchNorm"
  bottom: "conv3"
  top: "conv3"
}
layer {
  name: "scale3"
  type: "Scale"
  bottom: "conv3"
  top: "conv3"
  scale_param {
    bias_term: true
  }
}
layer {
  name: "relu3"
  type: "ReLU"
  bottom: "conv3"
  top: "conv3"
}
layer {
  name: "quantized_conv3"
  type: "Quantization"
  bottom: "conv3"
  top: "conv3"
  quantization_param {
    round_method: FLOOR
    round_strategy: AGGRESSIVE
    bit_width: 4
    range: 0
    range: 5.65636
  }
}
layer {
  name: "conv4"
  type: "Convolution"
  bottom: "conv3"
  top: "conv4"
  param {
    lr_mult: 1
    decay_mult: 1
  }
  param {
    lr_mult: 2
    decay_mult: 0
  }
  convolution_param {
    num_output: 384
    pad: 1
    kernel_size: 3
    weight_filler {
      type: "gaussian"
      std: 0.01
    }
    bias_filler {
      type: "constant"
      value: 0.1
    }
  }
}
layer {
  name: "bn4"
  type: "BatchNorm"
  bottom: "conv4"
  top: "conv4"
}
layer {
  name: "scale4"
  type: "Scale"
  bottom: "conv4"
  top: "conv4"
  scale_param {
    bias_term: true
  }
}
layer {
  name: "relu4"
  type: "ReLU"
  bottom: "conv4"
  top: "conv4"
}
layer {
  name: "quantized_conv4"
  type: "Quantization"
  bottom: "conv4"
  top: "conv4"
  quantization_param {
    round_method: FLOOR
    round_strategy: AGGRESSIVE
    bit_width: 4
    range: 0
    range: 4.891314
  }
}
layer {
  name: "conv5"
  type: "Convolution"
  bottom: "conv4"
  top: "conv5"
  param {
    lr_mult: 1
    decay_mult: 1
  }
  param {
    lr_mult: 2
    decay_mult: 0
  }
  convolution_param {
    num_output: 256
    pad: 1
    kernel_size: 3
    weight_filler {
      type: "gaussian"
      std: 0.01
    }
    bias_filler {
      type: "constant"
      value: 0.1
    }
  }
}
layer {
  name: "bn5"
  type: "BatchNorm"
  bottom: "conv5"
  top: "conv5"
}
layer {
  name: "scale5"
  type: "Scale"
  bottom: "conv5"
  top: "conv5"
  scale_param {
    bias_term: true
  }
}
layer {
  name: "relu5"
  type: "ReLU"
  bottom: "conv5"
  top: "conv5"
}
layer {
  name: "pool5"
  type: "Pooling"
  bottom: "conv5"
  top: "pool5"
  pooling_param {
    pool: MAX
    kernel_size: 3
    stride: 2
  }
}
layer {
  name: "quantized_conv5"
  type: "Quantization"
  bottom: "pool5"
  top: "pool5"
  quantization_param {
    round_method: FLOOR
    round_strategy: AGGRESSIVE
    bit_width: 4
    range: 0
    range: 5.8384752
  }
}
layer {
  name: "fc6"
  type: "InnerProduct"
  bottom: "pool5"
  top: "fc6"
  param {
    lr_mult: 1
    decay_mult: 1
  }
  param {
    lr_mult: 2
    decay_mult: 0
  }
  inner_product_param {
    num_output: 4096
    weight_filler {
      type: "gaussian"
      std: 0.005
    }
    bias_filler {
      type: "constant"
      value: 0.1
    }
  }
}
layer {
  name: "bn6"
  type: "BatchNorm"
  bottom: "fc6"
  top: "fc6"
}
layer {
  name: "scale6"
  type: "Scale"
  bottom: "fc6"
  top: "fc6"
  scale_param {
    bias_term: true
  }
}
layer {
  name: "relu6"
  type: "ReLU"
  bottom: "fc6"
  top: "fc6"
}
layer {
  name: "drop6"
  type: "Dropout"
  bottom: "fc6"
  top: "fc6"
  dropout_param {
    dropout_ratio: 0.5
  }
}
layer {
  name: "quantized_fc6"
  type: "Quantization"
  bottom: "fc6"
  top: "fc6"
  quantization_param {
    round_method: FLOOR
    round_strategy: AGGRESSIVE
    bit_width: 4
    range: 0
    range: 1.106238
  }
}
layer {
  name: "fc7"
  type: "InnerProduct"
  bottom: "fc6"
  top: "fc7"
  param {
    lr_mult: 1
    decay_mult: 1
  }
  param {
    lr_mult: 2
    decay_mult: 0
  }
  inner_product_param {
    num_output: 4096
    weight_filler {
      type: "gaussian"
      std: 0.005
    }
    bias_filler {
      type: "constant"
      value: 0.1
    }
  }
}
layer {
  name: "bn7"
  type: "BatchNorm"
  bottom: "fc7"
  top: "fc7"
}
layer {
  name: "scale7"
  type: "Scale"
  bottom: "fc7"
  top: "fc7"
  scale_param {
    bias_term: true
  }
}
layer {
  name: "relu7"
  type: "ReLU"
  bottom: "fc7"
  top: "fc7"
}
layer {
  name: "drop7"
  type: "Dropout"
  bottom: "fc7"
  top: "fc7"
  dropout_param {
    dropout_ratio: 0.5
  }
}
layer {
  name: "quantized_fc7"
  type: "Quantization"
  bottom: "fc7"
  top: "fc7"
  quantization_param {
    round_method: FLOOR
    round_strategy: AGGRESSIVE
    bit_width: 4
    range: 0
    range: 5.0399008
  }
}
layer {
  name: "fc8"
  type: "InnerProduct"
  bottom: "fc7"
  top: "fc8"
  param {
    lr_mult: 1
    decay_mult: 1
  }
  param {
    lr_mult: 2
    decay_mult: 0
  }
  inner_product_param {
    num_output: 1000
    weight_filler {
      type: "gaussian"
      std: 0.01
    }
    bias_filler {
      type: "constant"
      value: 0
    }
  }
}
layer {
  name: "accuracy"
  type: "Accuracy"
  bottom: "fc8"
  bottom: "label"
  top: "accuracy"
  include {
    phase: TEST
  }
}
layer {
  name: "accuracy_5"
  type: "Accuracy"
  bottom: "fc8"
  bottom: "label"
  top: "accuracy_5"
  include {
    phase: TEST
  }
  accuracy_param {
    top_k: 5
  }
}
layer {
  name: "loss"
  type: "SoftmaxWithLoss"
  bottom: "fc8"
  bottom: "label"
  top: "loss"
}
I0106 14:05:05.885628 57232 layer_factory.hpp:77] Creating layer data
I0106 14:05:05.885701 57232 db_lmdb.cpp:35] Opened lmdb /home/ydwu/database/imagenet/ilsvrc12/lmdb_resize/ilsvrc12_val_lmdb
I0106 14:05:05.885730 57232 net.cpp:84] Creating Layer data
I0106 14:05:05.885743 57232 net.cpp:380] data -> data
I0106 14:05:05.885759 57232 net.cpp:380] data -> label
I0106 14:05:05.885977 57232 data_layer.cpp:45] output data size: 200,3,224,224
I0106 14:05:06.230224 57232 net.cpp:122] Setting up data
I0106 14:05:06.230309 57232 net.cpp:129] Top shape: 200 3 224 224 (30105600)
I0106 14:05:06.230324 57232 net.cpp:129] Top shape: 200 (200)
I0106 14:05:06.230332 57232 net.cpp:137] Memory required for data: 120423200
I0106 14:05:06.230345 57232 layer_factory.hpp:77] Creating layer label_data_1_split
I0106 14:05:06.230367 57232 net.cpp:84] Creating Layer label_data_1_split
I0106 14:05:06.230378 57232 net.cpp:406] label_data_1_split <- label
I0106 14:05:06.230392 57232 net.cpp:380] label_data_1_split -> label_data_1_split_0
I0106 14:05:06.230412 57232 net.cpp:380] label_data_1_split -> label_data_1_split_1
I0106 14:05:06.230424 57232 net.cpp:380] label_data_1_split -> label_data_1_split_2
I0106 14:05:06.230521 57232 net.cpp:122] Setting up label_data_1_split
I0106 14:05:06.230538 57232 net.cpp:129] Top shape: 200 (200)
I0106 14:05:06.230548 57232 net.cpp:129] Top shape: 200 (200)
I0106 14:05:06.230557 57232 net.cpp:129] Top shape: 200 (200)
I0106 14:05:06.230566 57232 net.cpp:137] Memory required for data: 120425600
I0106 14:05:06.230574 57232 layer_factory.hpp:77] Creating layer conv1
I0106 14:05:06.230595 57232 net.cpp:84] Creating Layer conv1
I0106 14:05:06.230605 57232 net.cpp:406] conv1 <- data
I0106 14:05:06.230618 57232 net.cpp:380] conv1 -> conv1
I0106 14:05:06.249544 57232 net.cpp:122] Setting up conv1
I0106 14:05:06.249564 57232 net.cpp:129] Top shape: 200 96 55 55 (58080000)
I0106 14:05:06.249573 57232 net.cpp:137] Memory required for data: 352745600
I0106 14:05:06.249589 57232 layer_factory.hpp:77] Creating layer bn1
I0106 14:05:06.249603 57232 net.cpp:84] Creating Layer bn1
I0106 14:05:06.249613 57232 net.cpp:406] bn1 <- conv1
I0106 14:05:06.249624 57232 net.cpp:367] bn1 -> conv1 (in-place)
I0106 14:05:06.249807 57232 net.cpp:122] Setting up bn1
I0106 14:05:06.249824 57232 net.cpp:129] Top shape: 200 96 55 55 (58080000)
I0106 14:05:06.249832 57232 net.cpp:137] Memory required for data: 585065600
I0106 14:05:06.249848 57232 layer_factory.hpp:77] Creating layer scale1
I0106 14:05:06.249883 57232 net.cpp:84] Creating Layer scale1
I0106 14:05:06.249893 57232 net.cpp:406] scale1 <- conv1
I0106 14:05:06.249904 57232 net.cpp:367] scale1 -> conv1 (in-place)
I0106 14:05:06.249955 57232 layer_factory.hpp:77] Creating layer scale1
I0106 14:05:06.250085 57232 net.cpp:122] Setting up scale1
I0106 14:05:06.250102 57232 net.cpp:129] Top shape: 200 96 55 55 (58080000)
I0106 14:05:06.250111 57232 net.cpp:137] Memory required for data: 817385600
I0106 14:05:06.250123 57232 layer_factory.hpp:77] Creating layer relu1
I0106 14:05:06.250135 57232 net.cpp:84] Creating Layer relu1
I0106 14:05:06.250145 57232 net.cpp:406] relu1 <- conv1
I0106 14:05:06.250155 57232 net.cpp:367] relu1 -> conv1 (in-place)
I0106 14:05:06.250167 57232 net.cpp:122] Setting up relu1
I0106 14:05:06.250178 57232 net.cpp:129] Top shape: 200 96 55 55 (58080000)
I0106 14:05:06.250186 57232 net.cpp:137] Memory required for data: 1049705600
I0106 14:05:06.250195 57232 layer_factory.hpp:77] Creating layer pool1
I0106 14:05:06.250208 57232 net.cpp:84] Creating Layer pool1
I0106 14:05:06.250217 57232 net.cpp:406] pool1 <- conv1
I0106 14:05:06.250228 57232 net.cpp:380] pool1 -> pool1
I0106 14:05:06.250274 57232 net.cpp:122] Setting up pool1
I0106 14:05:06.250289 57232 net.cpp:129] Top shape: 200 96 27 27 (13996800)
I0106 14:05:06.250298 57232 net.cpp:137] Memory required for data: 1105692800
I0106 14:05:06.250308 57232 layer_factory.hpp:77] Creating layer quantized_conv1
I0106 14:05:06.250320 57232 net.cpp:84] Creating Layer quantized_conv1
I0106 14:05:06.250329 57232 net.cpp:406] quantized_conv1 <- pool1
I0106 14:05:06.250340 57232 net.cpp:367] quantized_conv1 -> pool1 (in-place)
I0106 14:05:06.250353 57232 net.cpp:122] Setting up quantized_conv1
I0106 14:05:06.250365 57232 net.cpp:129] Top shape: 200 96 27 27 (13996800)
I0106 14:05:06.250372 57232 net.cpp:137] Memory required for data: 1161680000
I0106 14:05:06.250380 57232 layer_factory.hpp:77] Creating layer conv2
I0106 14:05:06.250396 57232 net.cpp:84] Creating Layer conv2
I0106 14:05:06.250406 57232 net.cpp:406] conv2 <- pool1
I0106 14:05:06.250418 57232 net.cpp:380] conv2 -> conv2
I0106 14:05:06.268914 57232 net.cpp:122] Setting up conv2
I0106 14:05:06.268971 57232 net.cpp:129] Top shape: 200 256 27 27 (37324800)
I0106 14:05:06.268982 57232 net.cpp:137] Memory required for data: 1310979200
I0106 14:05:06.269006 57232 layer_factory.hpp:77] Creating layer bn2
I0106 14:05:06.269026 57232 net.cpp:84] Creating Layer bn2
I0106 14:05:06.269037 57232 net.cpp:406] bn2 <- conv2
I0106 14:05:06.269052 57232 net.cpp:367] bn2 -> conv2 (in-place)
I0106 14:05:06.269235 57232 net.cpp:122] Setting up bn2
I0106 14:05:06.269253 57232 net.cpp:129] Top shape: 200 256 27 27 (37324800)
I0106 14:05:06.269261 57232 net.cpp:137] Memory required for data: 1460278400
I0106 14:05:06.269315 57232 layer_factory.hpp:77] Creating layer scale2
I0106 14:05:06.269330 57232 net.cpp:84] Creating Layer scale2
I0106 14:05:06.269340 57232 net.cpp:406] scale2 <- conv2
I0106 14:05:06.269351 57232 net.cpp:367] scale2 -> conv2 (in-place)
I0106 14:05:06.269405 57232 layer_factory.hpp:77] Creating layer scale2
I0106 14:05:06.269520 57232 net.cpp:122] Setting up scale2
I0106 14:05:06.269536 57232 net.cpp:129] Top shape: 200 256 27 27 (37324800)
I0106 14:05:06.269546 57232 net.cpp:137] Memory required for data: 1609577600
I0106 14:05:06.269557 57232 layer_factory.hpp:77] Creating layer relu2
I0106 14:05:06.269570 57232 net.cpp:84] Creating Layer relu2
I0106 14:05:06.269579 57232 net.cpp:406] relu2 <- conv2
I0106 14:05:06.269590 57232 net.cpp:367] relu2 -> conv2 (in-place)
I0106 14:05:06.269601 57232 net.cpp:122] Setting up relu2
I0106 14:05:06.269613 57232 net.cpp:129] Top shape: 200 256 27 27 (37324800)
I0106 14:05:06.269620 57232 net.cpp:137] Memory required for data: 1758876800
I0106 14:05:06.269629 57232 layer_factory.hpp:77] Creating layer pool2
I0106 14:05:06.269641 57232 net.cpp:84] Creating Layer pool2
I0106 14:05:06.269650 57232 net.cpp:406] pool2 <- conv2
I0106 14:05:06.269661 57232 net.cpp:380] pool2 -> pool2
I0106 14:05:06.269709 57232 net.cpp:122] Setting up pool2
I0106 14:05:06.269726 57232 net.cpp:129] Top shape: 200 256 13 13 (8652800)
I0106 14:05:06.269734 57232 net.cpp:137] Memory required for data: 1793488000
I0106 14:05:06.269742 57232 layer_factory.hpp:77] Creating layer quantized_conv2
I0106 14:05:06.269757 57232 net.cpp:84] Creating Layer quantized_conv2
I0106 14:05:06.269765 57232 net.cpp:406] quantized_conv2 <- pool2
I0106 14:05:06.269776 57232 net.cpp:367] quantized_conv2 -> pool2 (in-place)
I0106 14:05:06.269789 57232 net.cpp:122] Setting up quantized_conv2
I0106 14:05:06.269799 57232 net.cpp:129] Top shape: 200 256 13 13 (8652800)
I0106 14:05:06.269809 57232 net.cpp:137] Memory required for data: 1828099200
I0106 14:05:06.269816 57232 layer_factory.hpp:77] Creating layer conv3
I0106 14:05:06.269834 57232 net.cpp:84] Creating Layer conv3
I0106 14:05:06.269843 57232 net.cpp:406] conv3 <- pool2
I0106 14:05:06.269855 57232 net.cpp:380] conv3 -> conv3
I0106 14:05:06.296504 57232 net.cpp:122] Setting up conv3
I0106 14:05:06.296563 57232 net.cpp:129] Top shape: 200 384 13 13 (12979200)
I0106 14:05:06.296573 57232 net.cpp:137] Memory required for data: 1880016000
I0106 14:05:06.296588 57232 layer_factory.hpp:77] Creating layer bn3
I0106 14:05:06.296607 57232 net.cpp:84] Creating Layer bn3
I0106 14:05:06.296619 57232 net.cpp:406] bn3 <- conv3
I0106 14:05:06.296633 57232 net.cpp:367] bn3 -> conv3 (in-place)
I0106 14:05:06.296811 57232 net.cpp:122] Setting up bn3
I0106 14:05:06.296828 57232 net.cpp:129] Top shape: 200 384 13 13 (12979200)
I0106 14:05:06.296836 57232 net.cpp:137] Memory required for data: 1931932800
I0106 14:05:06.296856 57232 layer_factory.hpp:77] Creating layer scale3
I0106 14:05:06.296875 57232 net.cpp:84] Creating Layer scale3
I0106 14:05:06.296885 57232 net.cpp:406] scale3 <- conv3
I0106 14:05:06.296895 57232 net.cpp:367] scale3 -> conv3 (in-place)
I0106 14:05:06.296948 57232 layer_factory.hpp:77] Creating layer scale3
I0106 14:05:06.297063 57232 net.cpp:122] Setting up scale3
I0106 14:05:06.297080 57232 net.cpp:129] Top shape: 200 384 13 13 (12979200)
I0106 14:05:06.297088 57232 net.cpp:137] Memory required for data: 1983849600
I0106 14:05:06.297101 57232 layer_factory.hpp:77] Creating layer relu3
I0106 14:05:06.297113 57232 net.cpp:84] Creating Layer relu3
I0106 14:05:06.297123 57232 net.cpp:406] relu3 <- conv3
I0106 14:05:06.297134 57232 net.cpp:367] relu3 -> conv3 (in-place)
I0106 14:05:06.297145 57232 net.cpp:122] Setting up relu3
I0106 14:05:06.297157 57232 net.cpp:129] Top shape: 200 384 13 13 (12979200)
I0106 14:05:06.297164 57232 net.cpp:137] Memory required for data: 2035766400
I0106 14:05:06.297173 57232 layer_factory.hpp:77] Creating layer quantized_conv3
I0106 14:05:06.297185 57232 net.cpp:84] Creating Layer quantized_conv3
I0106 14:05:06.297235 57232 net.cpp:406] quantized_conv3 <- conv3
I0106 14:05:06.297248 57232 net.cpp:367] quantized_conv3 -> conv3 (in-place)
I0106 14:05:06.297261 57232 net.cpp:122] Setting up quantized_conv3
I0106 14:05:06.297272 57232 net.cpp:129] Top shape: 200 384 13 13 (12979200)
I0106 14:05:06.297281 57232 net.cpp:137] Memory required for data: 2087683200
I0106 14:05:06.297289 57232 layer_factory.hpp:77] Creating layer conv4
I0106 14:05:06.297307 57232 net.cpp:84] Creating Layer conv4
I0106 14:05:06.297315 57232 net.cpp:406] conv4 <- conv3
I0106 14:05:06.297327 57232 net.cpp:380] conv4 -> conv4
I0106 14:05:06.336730 57232 net.cpp:122] Setting up conv4
I0106 14:05:06.336829 57232 net.cpp:129] Top shape: 200 384 13 13 (12979200)
I0106 14:05:06.336844 57232 net.cpp:137] Memory required for data: 2139600000
I0106 14:05:06.336861 57232 layer_factory.hpp:77] Creating layer bn4
I0106 14:05:06.336881 57232 net.cpp:84] Creating Layer bn4
I0106 14:05:06.336892 57232 net.cpp:406] bn4 <- conv4
I0106 14:05:06.336907 57232 net.cpp:367] bn4 -> conv4 (in-place)
I0106 14:05:06.337095 57232 net.cpp:122] Setting up bn4
I0106 14:05:06.337112 57232 net.cpp:129] Top shape: 200 384 13 13 (12979200)
I0106 14:05:06.337121 57232 net.cpp:137] Memory required for data: 2191516800
I0106 14:05:06.337134 57232 layer_factory.hpp:77] Creating layer scale4
I0106 14:05:06.337149 57232 net.cpp:84] Creating Layer scale4
I0106 14:05:06.337159 57232 net.cpp:406] scale4 <- conv4
I0106 14:05:06.337170 57232 net.cpp:367] scale4 -> conv4 (in-place)
I0106 14:05:06.337224 57232 layer_factory.hpp:77] Creating layer scale4
I0106 14:05:06.337342 57232 net.cpp:122] Setting up scale4
I0106 14:05:06.337357 57232 net.cpp:129] Top shape: 200 384 13 13 (12979200)
I0106 14:05:06.337366 57232 net.cpp:137] Memory required for data: 2243433600
I0106 14:05:06.337378 57232 layer_factory.hpp:77] Creating layer relu4
I0106 14:05:06.337391 57232 net.cpp:84] Creating Layer relu4
I0106 14:05:06.337400 57232 net.cpp:406] relu4 <- conv4
I0106 14:05:06.337411 57232 net.cpp:367] relu4 -> conv4 (in-place)
I0106 14:05:06.337424 57232 net.cpp:122] Setting up relu4
I0106 14:05:06.337435 57232 net.cpp:129] Top shape: 200 384 13 13 (12979200)
I0106 14:05:06.337442 57232 net.cpp:137] Memory required for data: 2295350400
I0106 14:05:06.337450 57232 layer_factory.hpp:77] Creating layer quantized_conv4
I0106 14:05:06.337463 57232 net.cpp:84] Creating Layer quantized_conv4
I0106 14:05:06.337472 57232 net.cpp:406] quantized_conv4 <- conv4
I0106 14:05:06.337483 57232 net.cpp:367] quantized_conv4 -> conv4 (in-place)
I0106 14:05:06.337496 57232 net.cpp:122] Setting up quantized_conv4
I0106 14:05:06.337505 57232 net.cpp:129] Top shape: 200 384 13 13 (12979200)
I0106 14:05:06.337514 57232 net.cpp:137] Memory required for data: 2347267200
I0106 14:05:06.337522 57232 layer_factory.hpp:77] Creating layer conv5
I0106 14:05:06.337539 57232 net.cpp:84] Creating Layer conv5
I0106 14:05:06.337548 57232 net.cpp:406] conv5 <- conv4
I0106 14:05:06.337560 57232 net.cpp:380] conv5 -> conv5
I0106 14:05:06.364065 57232 net.cpp:122] Setting up conv5
I0106 14:05:06.364118 57232 net.cpp:129] Top shape: 200 256 13 13 (8652800)
I0106 14:05:06.364128 57232 net.cpp:137] Memory required for data: 2381878400
I0106 14:05:06.364143 57232 layer_factory.hpp:77] Creating layer bn5
I0106 14:05:06.364161 57232 net.cpp:84] Creating Layer bn5
I0106 14:05:06.364173 57232 net.cpp:406] bn5 <- conv5
I0106 14:05:06.364187 57232 net.cpp:367] bn5 -> conv5 (in-place)
I0106 14:05:06.364365 57232 net.cpp:122] Setting up bn5
I0106 14:05:06.364382 57232 net.cpp:129] Top shape: 200 256 13 13 (8652800)
I0106 14:05:06.364392 57232 net.cpp:137] Memory required for data: 2416489600
I0106 14:05:06.364411 57232 layer_factory.hpp:77] Creating layer scale5
I0106 14:05:06.364428 57232 net.cpp:84] Creating Layer scale5
I0106 14:05:06.364436 57232 net.cpp:406] scale5 <- conv5
I0106 14:05:06.364449 57232 net.cpp:367] scale5 -> conv5 (in-place)
I0106 14:05:06.364504 57232 layer_factory.hpp:77] Creating layer scale5
I0106 14:05:06.364658 57232 net.cpp:122] Setting up scale5
I0106 14:05:06.364675 57232 net.cpp:129] Top shape: 200 256 13 13 (8652800)
I0106 14:05:06.364683 57232 net.cpp:137] Memory required for data: 2451100800
I0106 14:05:06.364696 57232 layer_factory.hpp:77] Creating layer relu5
I0106 14:05:06.364709 57232 net.cpp:84] Creating Layer relu5
I0106 14:05:06.364719 57232 net.cpp:406] relu5 <- conv5
I0106 14:05:06.364729 57232 net.cpp:367] relu5 -> conv5 (in-place)
I0106 14:05:06.364742 57232 net.cpp:122] Setting up relu5
I0106 14:05:06.364753 57232 net.cpp:129] Top shape: 200 256 13 13 (8652800)
I0106 14:05:06.364760 57232 net.cpp:137] Memory required for data: 2485712000
I0106 14:05:06.364769 57232 layer_factory.hpp:77] Creating layer pool5
I0106 14:05:06.364781 57232 net.cpp:84] Creating Layer pool5
I0106 14:05:06.364790 57232 net.cpp:406] pool5 <- conv5
I0106 14:05:06.364801 57232 net.cpp:380] pool5 -> pool5
I0106 14:05:06.364848 57232 net.cpp:122] Setting up pool5
I0106 14:05:06.364863 57232 net.cpp:129] Top shape: 200 256 6 6 (1843200)
I0106 14:05:06.364872 57232 net.cpp:137] Memory required for data: 2493084800
I0106 14:05:06.364881 57232 layer_factory.hpp:77] Creating layer quantized_conv5
I0106 14:05:06.364894 57232 net.cpp:84] Creating Layer quantized_conv5
I0106 14:05:06.364903 57232 net.cpp:406] quantized_conv5 <- pool5
I0106 14:05:06.364915 57232 net.cpp:367] quantized_conv5 -> pool5 (in-place)
I0106 14:05:06.364928 57232 net.cpp:122] Setting up quantized_conv5
I0106 14:05:06.364938 57232 net.cpp:129] Top shape: 200 256 6 6 (1843200)
I0106 14:05:06.364946 57232 net.cpp:137] Memory required for data: 2500457600
I0106 14:05:06.364954 57232 layer_factory.hpp:77] Creating layer fc6
I0106 14:05:06.364969 57232 net.cpp:84] Creating Layer fc6
I0106 14:05:06.364979 57232 net.cpp:406] fc6 <- pool5
I0106 14:05:06.364989 57232 net.cpp:380] fc6 -> fc6
I0106 14:05:07.466120 57232 net.cpp:122] Setting up fc6
I0106 14:05:07.466223 57232 net.cpp:129] Top shape: 200 4096 (819200)
I0106 14:05:07.466234 57232 net.cpp:137] Memory required for data: 2503734400
I0106 14:05:07.466253 57232 layer_factory.hpp:77] Creating layer bn6
I0106 14:05:07.466271 57232 net.cpp:84] Creating Layer bn6
I0106 14:05:07.466284 57232 net.cpp:406] bn6 <- fc6
I0106 14:05:07.466298 57232 net.cpp:367] bn6 -> fc6 (in-place)
I0106 14:05:07.466493 57232 net.cpp:122] Setting up bn6
I0106 14:05:07.466511 57232 net.cpp:129] Top shape: 200 4096 (819200)
I0106 14:05:07.466519 57232 net.cpp:137] Memory required for data: 2507011200
I0106 14:05:07.466533 57232 layer_factory.hpp:77] Creating layer scale6
I0106 14:05:07.466553 57232 net.cpp:84] Creating Layer scale6
I0106 14:05:07.466562 57232 net.cpp:406] scale6 <- fc6
I0106 14:05:07.466573 57232 net.cpp:367] scale6 -> fc6 (in-place)
I0106 14:05:07.466624 57232 layer_factory.hpp:77] Creating layer scale6
I0106 14:05:07.466747 57232 net.cpp:122] Setting up scale6
I0106 14:05:07.466763 57232 net.cpp:129] Top shape: 200 4096 (819200)
I0106 14:05:07.466771 57232 net.cpp:137] Memory required for data: 2510288000
I0106 14:05:07.466784 57232 layer_factory.hpp:77] Creating layer relu6
I0106 14:05:07.466796 57232 net.cpp:84] Creating Layer relu6
I0106 14:05:07.466805 57232 net.cpp:406] relu6 <- fc6
I0106 14:05:07.466816 57232 net.cpp:367] relu6 -> fc6 (in-place)
I0106 14:05:07.466828 57232 net.cpp:122] Setting up relu6
I0106 14:05:07.466840 57232 net.cpp:129] Top shape: 200 4096 (819200)
I0106 14:05:07.466847 57232 net.cpp:137] Memory required for data: 2513564800
I0106 14:05:07.466856 57232 layer_factory.hpp:77] Creating layer drop6
I0106 14:05:07.466869 57232 net.cpp:84] Creating Layer drop6
I0106 14:05:07.466877 57232 net.cpp:406] drop6 <- fc6
I0106 14:05:07.466888 57232 net.cpp:367] drop6 -> fc6 (in-place)
I0106 14:05:07.466920 57232 net.cpp:122] Setting up drop6
I0106 14:05:07.466934 57232 net.cpp:129] Top shape: 200 4096 (819200)
I0106 14:05:07.466943 57232 net.cpp:137] Memory required for data: 2516841600
I0106 14:05:07.466953 57232 layer_factory.hpp:77] Creating layer quantized_fc6
I0106 14:05:07.466971 57232 net.cpp:84] Creating Layer quantized_fc6
I0106 14:05:07.467021 57232 net.cpp:406] quantized_fc6 <- fc6
I0106 14:05:07.467034 57232 net.cpp:367] quantized_fc6 -> fc6 (in-place)
I0106 14:05:07.467047 57232 net.cpp:122] Setting up quantized_fc6
I0106 14:05:07.467058 57232 net.cpp:129] Top shape: 200 4096 (819200)
I0106 14:05:07.467067 57232 net.cpp:137] Memory required for data: 2520118400
I0106 14:05:07.467075 57232 layer_factory.hpp:77] Creating layer fc7
I0106 14:05:07.467092 57232 net.cpp:84] Creating Layer fc7
I0106 14:05:07.467101 57232 net.cpp:406] fc7 <- fc6
I0106 14:05:07.467114 57232 net.cpp:380] fc7 -> fc7
I0106 14:05:07.953116 57232 net.cpp:122] Setting up fc7
I0106 14:05:07.953219 57232 net.cpp:129] Top shape: 200 4096 (819200)
I0106 14:05:07.953235 57232 net.cpp:137] Memory required for data: 2523395200
I0106 14:05:07.953253 57232 layer_factory.hpp:77] Creating layer bn7
I0106 14:05:07.953274 57232 net.cpp:84] Creating Layer bn7
I0106 14:05:07.953285 57232 net.cpp:406] bn7 <- fc7
I0106 14:05:07.953300 57232 net.cpp:367] bn7 -> fc7 (in-place)
I0106 14:05:07.953496 57232 net.cpp:122] Setting up bn7
I0106 14:05:07.953513 57232 net.cpp:129] Top shape: 200 4096 (819200)
I0106 14:05:07.953522 57232 net.cpp:137] Memory required for data: 2526672000
I0106 14:05:07.953536 57232 layer_factory.hpp:77] Creating layer scale7
I0106 14:05:07.953550 57232 net.cpp:84] Creating Layer scale7
I0106 14:05:07.953559 57232 net.cpp:406] scale7 <- fc7
I0106 14:05:07.953570 57232 net.cpp:367] scale7 -> fc7 (in-place)
I0106 14:05:07.953622 57232 layer_factory.hpp:77] Creating layer scale7
I0106 14:05:07.953743 57232 net.cpp:122] Setting up scale7
I0106 14:05:07.953759 57232 net.cpp:129] Top shape: 200 4096 (819200)
I0106 14:05:07.953768 57232 net.cpp:137] Memory required for data: 2529948800
I0106 14:05:07.953781 57232 layer_factory.hpp:77] Creating layer relu7
I0106 14:05:07.953794 57232 net.cpp:84] Creating Layer relu7
I0106 14:05:07.953804 57232 net.cpp:406] relu7 <- fc7
I0106 14:05:07.953814 57232 net.cpp:367] relu7 -> fc7 (in-place)
I0106 14:05:07.953825 57232 net.cpp:122] Setting up relu7
I0106 14:05:07.953836 57232 net.cpp:129] Top shape: 200 4096 (819200)
I0106 14:05:07.953845 57232 net.cpp:137] Memory required for data: 2533225600
I0106 14:05:07.953853 57232 layer_factory.hpp:77] Creating layer drop7
I0106 14:05:07.953866 57232 net.cpp:84] Creating Layer drop7
I0106 14:05:07.953876 57232 net.cpp:406] drop7 <- fc7
I0106 14:05:07.953886 57232 net.cpp:367] drop7 -> fc7 (in-place)
I0106 14:05:07.953917 57232 net.cpp:122] Setting up drop7
I0106 14:05:07.953932 57232 net.cpp:129] Top shape: 200 4096 (819200)
I0106 14:05:07.953940 57232 net.cpp:137] Memory required for data: 2536502400
I0106 14:05:07.953949 57232 layer_factory.hpp:77] Creating layer quantized_fc7
I0106 14:05:07.953963 57232 net.cpp:84] Creating Layer quantized_fc7
I0106 14:05:07.953972 57232 net.cpp:406] quantized_fc7 <- fc7
I0106 14:05:07.953984 57232 net.cpp:367] quantized_fc7 -> fc7 (in-place)
I0106 14:05:07.953996 57232 net.cpp:122] Setting up quantized_fc7
I0106 14:05:07.954006 57232 net.cpp:129] Top shape: 200 4096 (819200)
I0106 14:05:07.954015 57232 net.cpp:137] Memory required for data: 2539779200
I0106 14:05:07.954023 57232 layer_factory.hpp:77] Creating layer fc8
I0106 14:05:07.954037 57232 net.cpp:84] Creating Layer fc8
I0106 14:05:07.954046 57232 net.cpp:406] fc8 <- fc7
I0106 14:05:07.954058 57232 net.cpp:380] fc8 -> fc8
I0106 14:05:08.073364 57232 net.cpp:122] Setting up fc8
I0106 14:05:08.073462 57232 net.cpp:129] Top shape: 200 1000 (200000)
I0106 14:05:08.073472 57232 net.cpp:137] Memory required for data: 2540579200
I0106 14:05:08.073494 57232 layer_factory.hpp:77] Creating layer fc8_fc8_0_split
I0106 14:05:08.073513 57232 net.cpp:84] Creating Layer fc8_fc8_0_split
I0106 14:05:08.073525 57232 net.cpp:406] fc8_fc8_0_split <- fc8
I0106 14:05:08.073541 57232 net.cpp:380] fc8_fc8_0_split -> fc8_fc8_0_split_0
I0106 14:05:08.073563 57232 net.cpp:380] fc8_fc8_0_split -> fc8_fc8_0_split_1
I0106 14:05:08.073576 57232 net.cpp:380] fc8_fc8_0_split -> fc8_fc8_0_split_2
I0106 14:05:08.073683 57232 net.cpp:122] Setting up fc8_fc8_0_split
I0106 14:05:08.073699 57232 net.cpp:129] Top shape: 200 1000 (200000)
I0106 14:05:08.073709 57232 net.cpp:129] Top shape: 200 1000 (200000)
I0106 14:05:08.073719 57232 net.cpp:129] Top shape: 200 1000 (200000)
I0106 14:05:08.073727 57232 net.cpp:137] Memory required for data: 2542979200
I0106 14:05:08.073737 57232 layer_factory.hpp:77] Creating layer accuracy
I0106 14:05:08.073751 57232 net.cpp:84] Creating Layer accuracy
I0106 14:05:08.073760 57232 net.cpp:406] accuracy <- fc8_fc8_0_split_0
I0106 14:05:08.073771 57232 net.cpp:406] accuracy <- label_data_1_split_0
I0106 14:05:08.073782 57232 net.cpp:380] accuracy -> accuracy
…
