…
I0108 14:10:08.450662 39915 net.cpp:294] The NetState phase (0) differed from the phase (1) specified by a rule in layer accuracy_5
I0108 14:10:08.450899 39915 net.cpp:51] Initializing net from parameters: 
name: "AlexNet-BN"
state {
  phase: TRAIN
  level: 0
  stage: ""
}
layer {
  name: "data"
  type: "Data"
  top: "data"
  top: "label"
  include {
    phase: TRAIN
  }
  transform_param {
    mirror: true
    crop_size: 224
    mean_value: 103.939
    mean_value: 116.779
    mean_value: 123.68
  }
  data_param {
    source: "/home/ydwu/database/imagenet/ilsvrc12/lmdb_resize/ilsvrc12_train_lmdb"
    batch_size: 200
    backend: LMDB
  }
}
layer {
  name: "conv1"
  type: "Convolution"
  bottom: "data"
  top: "conv1"
  param {
    lr_mult: 1
    decay_mult: 1
  }
  param {
    lr_mult: 2
    decay_mult: 0
  }
  convolution_param {
    num_output: 96
    pad: 2
    kernel_size: 11
    stride: 4
    weight_filler {
      type: "gaussian"
      std: 0.01
    }
    bias_filler {
      type: "constant"
      value: 0
    }
  }
}
layer {
  name: "bn1"
  type: "BatchNorm"
  bottom: "conv1"
  top: "conv1"
}
layer {
  name: "scale1"
  type: "Scale"
  bottom: "conv1"
  top: "conv1"
  scale_param {
    bias_term: true
  }
}
layer {
  name: "relu1"
  type: "ReLU"
  bottom: "conv1"
  top: "conv1"
}
layer {
  name: "pool1"
  type: "Pooling"
  bottom: "conv1"
  top: "pool1"
  pooling_param {
    pool: MAX
    kernel_size: 3
    stride: 2
  }
}
layer {
  name: "quantized_conv1"
  type: "Quantization"
  bottom: "pool1"
  top: "pool1"
  quantization_param {
    round_method: FLOOR
    round_strategy: AGGRESSIVE
    bit_width: 4
    range: 0
    range: 6.9826913
  }
}
layer {
  name: "conv2"
  type: "Convolution"
  bottom: "pool1"
  top: "conv2"
  param {
    lr_mult: 1
    decay_mult: 1
  }
  param {
    lr_mult: 2
    decay_mult: 0
  }
  convolution_param {
    num_output: 256
    pad: 2
    kernel_size: 5
    weight_filler {
      type: "gaussian"
      std: 0.01
    }
    bias_filler {
      type: "constant"
      value: 0.1
    }
  }
}
layer {
  name: "bn2"
  type: "BatchNorm"
  bottom: "conv2"
  top: "conv2"
}
layer {
  name: "scale2"
  type: "Scale"
  bottom: "conv2"
  top: "conv2"
  scale_param {
    bias_term: true
  }
}
layer {
  name: "relu2"
  type: "ReLU"
  bottom: "conv2"
  top: "conv2"
}
layer {
  name: "pool2"
  type: "Pooling"
  bottom: "conv2"
  top: "pool2"
  pooling_param {
    pool: MAX
    kernel_size: 3
    stride: 2
  }
}
layer {
  name: "quantized_conv2"
  type: "Quantization"
  bottom: "pool2"
  top: "pool2"
  quantization_param {
    round_method: FLOOR
    round_strategy: AGGRESSIVE
    bit_width: 4
    range: 0
    range: 3.37478
  }
}
layer {
  name: "conv3"
  type: "Convolution"
  bottom: "pool2"
  top: "conv3"
  param {
    lr_mult: 1
    decay_mult: 1
  }
  param {
    lr_mult: 2
    decay_mult: 0
  }
  convolution_param {
    num_output: 384
    pad: 1
    kernel_size: 3
    weight_filler {
      type: "gaussian"
      std: 0.01
    }
    bias_filler {
      type: "constant"
      value: 0
    }
  }
}
layer {
  name: "bn3"
  type: "BatchNorm"
  bottom: "conv3"
  top: "conv3"
}
layer {
  name: "scale3"
  type: "Scale"
  bottom: "conv3"
  top: "conv3"
  scale_param {
    bias_term: true
  }
}
layer {
  name: "relu3"
  type: "ReLU"
  bottom: "conv3"
  top: "conv3"
}
layer {
  name: "quantized_conv3"
  type: "Quantization"
  bottom: "conv3"
  top: "conv3"
  quantization_param {
    round_method: FLOOR
    round_strategy: AGGRESSIVE
    bit_width: 4
    range: 0
    range: 4.24227
  }
}
layer {
  name: "conv4"
  type: "Convolution"
  bottom: "conv3"
  top: "conv4"
  param {
    lr_mult: 1
    decay_mult: 1
  }
  param {
    lr_mult: 2
    decay_mult: 0
  }
  convolution_param {
    num_output: 384
    pad: 1
    kernel_size: 3
    weight_filler {
      type: "gaussian"
      std: 0.01
    }
    bias_filler {
      type: "constant"
      value: 0.1
    }
  }
}
layer {
  name: "bn4"
  type: "BatchNorm"
  bottom: "conv4"
  top: "conv4"
}
layer {
  name: "scale4"
  type: "Scale"
  bottom: "conv4"
  top: "conv4"
  scale_param {
    bias_term: true
  }
}
layer {
  name: "relu4"
  type: "ReLU"
  bottom: "conv4"
  top: "conv4"
}
layer {
  name: "quantized_conv4"
  type: "Quantization"
  bottom: "conv4"
  top: "conv4"
  quantization_param {
    round_method: FLOOR
    round_strategy: AGGRESSIVE
    bit_width: 4
    range: 0
    range: 3.6684861
  }
}
layer {
  name: "conv5"
  type: "Convolution"
  bottom: "conv4"
  top: "conv5"
  param {
    lr_mult: 1
    decay_mult: 1
  }
  param {
    lr_mult: 2
    decay_mult: 0
  }
  convolution_param {
    num_output: 256
    pad: 1
    kernel_size: 3
    weight_filler {
      type: "gaussian"
      std: 0.01
    }
    bias_filler {
      type: "constant"
      value: 0.1
    }
  }
}
layer {
  name: "bn5"
  type: "BatchNorm"
  bottom: "conv5"
  top: "conv5"
}
layer {
  name: "scale5"
  type: "Scale"
  bottom: "conv5"
  top: "conv5"
  scale_param {
    bias_term: true
  }
}
layer {
  name: "relu5"
  type: "ReLU"
  bottom: "conv5"
  top: "conv5"
}
layer {
  name: "pool5"
  type: "Pooling"
  bottom: "conv5"
  top: "pool5"
  pooling_param {
    pool: MAX
    kernel_size: 3
    stride: 2
  }
}
layer {
  name: "quantized_conv5"
  type: "Quantization"
  bottom: "pool5"
  top: "pool5"
  quantization_param {
    round_method: FLOOR
    round_strategy: AGGRESSIVE
    bit_width: 4
    range: 0
    range: 4.3788567
  }
}
layer {
  name: "fc6"
  type: "InnerProduct"
  bottom: "pool5"
  top: "fc6"
  param {
    lr_mult: 1
    decay_mult: 1
  }
  param {
    lr_mult: 2
    decay_mult: 0
  }
  inner_product_param {
    num_output: 4096
    weight_filler {
      type: "gaussian"
      std: 0.005
    }
    bias_filler {
      type: "constant"
      value: 0.1
    }
  }
}
layer {
  name: "bn6"
  type: "BatchNorm"
  bottom: "fc6"
  top: "fc6"
}
layer {
  name: "scale6"
  type: "Scale"
  bottom: "fc6"
  top: "fc6"
  scale_param {
    bias_term: true
  }
}
layer {
  name: "relu6"
  type: "ReLU"
  bottom: "fc6"
  top: "fc6"
}
layer {
  name: "drop6"
  type: "Dropout"
  bottom: "fc6"
  top: "fc6"
  dropout_param {
    dropout_ratio: 0.5
  }
}
layer {
  name: "quantized_fc6"
  type: "Quantization"
  bottom: "fc6"
  top: "fc6"
  quantization_param {
    round_method: FLOOR
    round_strategy: AGGRESSIVE
    bit_width: 4
    range: 0
    range: 0.829679
  }
}
layer {
  name: "fc7"
  type: "InnerProduct"
  bottom: "fc6"
  top: "fc7"
  param {
    lr_mult: 1
    decay_mult: 1
  }
  param {
    lr_mult: 2
    decay_mult: 0
  }
  inner_product_param {
    num_output: 4096
    weight_filler {
      type: "gaussian"
      std: 0.005
    }
    bias_filler {
      type: "constant"
      value: 0.1
    }
  }
}
layer {
  name: "bn7"
  type: "BatchNorm"
  bottom: "fc7"
  top: "fc7"
}
layer {
  name: "scale7"
  type: "Scale"
  bottom: "fc7"
  top: "fc7"
  scale_param {
    bias_term: true
  }
}
layer {
  name: "relu7"
  type: "ReLU"
  bottom: "fc7"
  top: "fc7"
}
layer {
  name: "drop7"
  type: "Dropout"
  bottom: "fc7"
  top: "fc7"
  dropout_param {
    dropout_ratio: 0.5
  }
}
layer {
  name: "quantized_fc7"
  type: "Quantization"
  bottom: "fc7"
  top: "fc7"
  quantization_param {
    round_method: FLOOR
    round_strategy: AGGRESSIVE
    bit_width: 4
    range: 0
    range: 3.7799261
  }
}
layer {
  name: "fc8"
  type: "InnerProduct"
  bottom: "fc7"
  top: "fc8"
  param {
    lr_mult: 1
    decay_mult: 1
  }
  param {
    lr_mult: 2
    decay_mult: 0
  }
  inner_product_param {
    num_output: 1000
    weight_filler {
      type: "gaussian"
      std: 0.01
    }
    bias_filler {
      type: "constant"
      value: 0
    }
  }
}
layer {
  name: "accuracy_5_TRAIN"
  type: "Accuracy"
  bottom: "fc8"
  bottom: "label"
  top: "accuracy_5_TRAIN"
  include {
    phase: TRAIN
  }
  accuracy_param {
    top_k: 5
  }
}
layer {
  name: "loss"
  type: "SoftmaxWithLoss"
  bottom: "fc8"
  bottom: "label"
  top: "loss"
}
I0108 14:10:08.451134 39915 layer_factory.hpp:77] Creating layer data
I0108 14:10:08.510931 39915 db_lmdb.cpp:35] Opened lmdb /home/ydwu/database/imagenet/ilsvrc12/lmdb_resize/ilsvrc12_train_lmdb
I0108 14:10:08.528115 39915 net.cpp:84] Creating Layer data
I0108 14:10:08.528169 39915 net.cpp:380] data -> data
I0108 14:10:08.528215 39915 net.cpp:380] data -> label
I0108 14:10:08.541070 39915 data_layer.cpp:45] output data size: 200,3,224,224
I0108 14:10:08.892151 39915 net.cpp:122] Setting up data
I0108 14:10:08.892256 39915 net.cpp:129] Top shape: 200 3 224 224 (30105600)
I0108 14:10:08.892269 39915 net.cpp:129] Top shape: 200 (200)
I0108 14:10:08.892278 39915 net.cpp:137] Memory required for data: 120423200
I0108 14:10:08.892297 39915 layer_factory.hpp:77] Creating layer label_data_1_split
I0108 14:10:08.892320 39915 net.cpp:84] Creating Layer label_data_1_split
I0108 14:10:08.892333 39915 net.cpp:406] label_data_1_split <- label
I0108 14:10:08.892355 39915 net.cpp:380] label_data_1_split -> label_data_1_split_0
I0108 14:10:08.892375 39915 net.cpp:380] label_data_1_split -> label_data_1_split_1
I0108 14:10:08.892426 39915 net.cpp:122] Setting up label_data_1_split
I0108 14:10:08.892442 39915 net.cpp:129] Top shape: 200 (200)
I0108 14:10:08.892452 39915 net.cpp:129] Top shape: 200 (200)
I0108 14:10:08.892460 39915 net.cpp:137] Memory required for data: 120424800
I0108 14:10:08.892470 39915 layer_factory.hpp:77] Creating layer conv1
I0108 14:10:08.892500 39915 net.cpp:84] Creating Layer conv1
I0108 14:10:08.892511 39915 net.cpp:406] conv1 <- data
I0108 14:10:08.892524 39915 net.cpp:380] conv1 -> conv1
I0108 14:10:08.914005 39915 net.cpp:122] Setting up conv1
I0108 14:10:08.914031 39915 net.cpp:129] Top shape: 200 96 55 55 (58080000)
I0108 14:10:08.914041 39915 net.cpp:137] Memory required for data: 352744800
I0108 14:10:08.914065 39915 layer_factory.hpp:77] Creating layer bn1
I0108 14:10:08.914083 39915 net.cpp:84] Creating Layer bn1
I0108 14:10:08.914093 39915 net.cpp:406] bn1 <- conv1
I0108 14:10:08.914105 39915 net.cpp:367] bn1 -> conv1 (in-place)
I0108 14:10:08.914288 39915 net.cpp:122] Setting up bn1
I0108 14:10:08.914305 39915 net.cpp:129] Top shape: 200 96 55 55 (58080000)
I0108 14:10:08.914314 39915 net.cpp:137] Memory required for data: 585064800
I0108 14:10:08.914330 39915 layer_factory.hpp:77] Creating layer scale1
I0108 14:10:08.914347 39915 net.cpp:84] Creating Layer scale1
I0108 14:10:08.914357 39915 net.cpp:406] scale1 <- conv1
I0108 14:10:08.914368 39915 net.cpp:367] scale1 -> conv1 (in-place)
I0108 14:10:08.914423 39915 layer_factory.hpp:77] Creating layer scale1
I0108 14:10:08.914548 39915 net.cpp:122] Setting up scale1
I0108 14:10:08.914566 39915 net.cpp:129] Top shape: 200 96 55 55 (58080000)
I0108 14:10:08.914575 39915 net.cpp:137] Memory required for data: 817384800
I0108 14:10:08.914592 39915 layer_factory.hpp:77] Creating layer relu1
I0108 14:10:08.914605 39915 net.cpp:84] Creating Layer relu1
I0108 14:10:08.914615 39915 net.cpp:406] relu1 <- conv1
I0108 14:10:08.914626 39915 net.cpp:367] relu1 -> conv1 (in-place)
I0108 14:10:08.914640 39915 net.cpp:122] Setting up relu1
I0108 14:10:08.914651 39915 net.cpp:129] Top shape: 200 96 55 55 (58080000)
I0108 14:10:08.914660 39915 net.cpp:137] Memory required for data: 1049704800
I0108 14:10:08.914669 39915 layer_factory.hpp:77] Creating layer pool1
I0108 14:10:08.914681 39915 net.cpp:84] Creating Layer pool1
I0108 14:10:08.914691 39915 net.cpp:406] pool1 <- conv1
I0108 14:10:08.914760 39915 net.cpp:380] pool1 -> pool1
I0108 14:10:08.914818 39915 net.cpp:122] Setting up pool1
I0108 14:10:08.914834 39915 net.cpp:129] Top shape: 200 96 27 27 (13996800)
I0108 14:10:08.914844 39915 net.cpp:137] Memory required for data: 1105692000
I0108 14:10:08.914852 39915 layer_factory.hpp:77] Creating layer quantized_conv1
I0108 14:10:08.926658 39915 net.cpp:84] Creating Layer quantized_conv1
I0108 14:10:08.926686 39915 net.cpp:406] quantized_conv1 <- pool1
I0108 14:10:08.926704 39915 net.cpp:367] quantized_conv1 -> pool1 (in-place)
I0108 14:10:08.926723 39915 net.cpp:122] Setting up quantized_conv1
I0108 14:10:08.926734 39915 net.cpp:129] Top shape: 200 96 27 27 (13996800)
I0108 14:10:08.926743 39915 net.cpp:137] Memory required for data: 1161679200
I0108 14:10:08.926751 39915 layer_factory.hpp:77] Creating layer conv2
I0108 14:10:08.926774 39915 net.cpp:84] Creating Layer conv2
I0108 14:10:08.926785 39915 net.cpp:406] conv2 <- pool1
I0108 14:10:08.926798 39915 net.cpp:380] conv2 -> conv2
I0108 14:10:08.949326 39915 net.cpp:122] Setting up conv2
I0108 14:10:08.949362 39915 net.cpp:129] Top shape: 200 256 27 27 (37324800)
I0108 14:10:08.949373 39915 net.cpp:137] Memory required for data: 1310978400
I0108 14:10:08.949391 39915 layer_factory.hpp:77] Creating layer bn2
I0108 14:10:08.949407 39915 net.cpp:84] Creating Layer bn2
I0108 14:10:08.949417 39915 net.cpp:406] bn2 <- conv2
I0108 14:10:08.949429 39915 net.cpp:367] bn2 -> conv2 (in-place)
I0108 14:10:08.949594 39915 net.cpp:122] Setting up bn2
I0108 14:10:08.949615 39915 net.cpp:129] Top shape: 200 256 27 27 (37324800)
I0108 14:10:08.949625 39915 net.cpp:137] Memory required for data: 1460277600
I0108 14:10:08.949637 39915 layer_factory.hpp:77] Creating layer scale2
I0108 14:10:08.949651 39915 net.cpp:84] Creating Layer scale2
I0108 14:10:08.949659 39915 net.cpp:406] scale2 <- conv2
I0108 14:10:08.949669 39915 net.cpp:367] scale2 -> conv2 (in-place)
I0108 14:10:08.949714 39915 layer_factory.hpp:77] Creating layer scale2
I0108 14:10:08.949811 39915 net.cpp:122] Setting up scale2
I0108 14:10:08.949827 39915 net.cpp:129] Top shape: 200 256 27 27 (37324800)
I0108 14:10:08.949836 39915 net.cpp:137] Memory required for data: 1609576800
I0108 14:10:08.949847 39915 layer_factory.hpp:77] Creating layer relu2
I0108 14:10:08.949859 39915 net.cpp:84] Creating Layer relu2
I0108 14:10:08.949868 39915 net.cpp:406] relu2 <- conv2
I0108 14:10:08.949879 39915 net.cpp:367] relu2 -> conv2 (in-place)
I0108 14:10:08.949890 39915 net.cpp:122] Setting up relu2
I0108 14:10:08.949901 39915 net.cpp:129] Top shape: 200 256 27 27 (37324800)
I0108 14:10:08.949909 39915 net.cpp:137] Memory required for data: 1758876000
I0108 14:10:08.949918 39915 layer_factory.hpp:77] Creating layer pool2
I0108 14:10:08.949928 39915 net.cpp:84] Creating Layer pool2
I0108 14:10:08.949937 39915 net.cpp:406] pool2 <- conv2
I0108 14:10:08.949949 39915 net.cpp:380] pool2 -> pool2
I0108 14:10:08.949990 39915 net.cpp:122] Setting up pool2
I0108 14:10:08.950003 39915 net.cpp:129] Top shape: 200 256 13 13 (8652800)
I0108 14:10:08.950012 39915 net.cpp:137] Memory required for data: 1793487200
I0108 14:10:08.950021 39915 layer_factory.hpp:77] Creating layer quantized_conv2
I0108 14:10:08.950033 39915 net.cpp:84] Creating Layer quantized_conv2
I0108 14:10:08.950042 39915 net.cpp:406] quantized_conv2 <- pool2
I0108 14:10:08.950052 39915 net.cpp:367] quantized_conv2 -> pool2 (in-place)
I0108 14:10:08.950064 39915 net.cpp:122] Setting up quantized_conv2
I0108 14:10:08.950074 39915 net.cpp:129] Top shape: 200 256 13 13 (8652800)
I0108 14:10:08.950083 39915 net.cpp:137] Memory required for data: 1828098400
I0108 14:10:08.950091 39915 layer_factory.hpp:77] Creating layer conv3
I0108 14:10:08.950106 39915 net.cpp:84] Creating Layer conv3
I0108 14:10:08.950115 39915 net.cpp:406] conv3 <- pool2
I0108 14:10:08.950127 39915 net.cpp:380] conv3 -> conv3
I0108 14:10:08.976550 39915 net.cpp:122] Setting up conv3
I0108 14:10:08.976577 39915 net.cpp:129] Top shape: 200 384 13 13 (12979200)
I0108 14:10:08.976588 39915 net.cpp:137] Memory required for data: 1880015200
I0108 14:10:08.976631 39915 layer_factory.hpp:77] Creating layer bn3
I0108 14:10:08.976647 39915 net.cpp:84] Creating Layer bn3
I0108 14:10:08.976657 39915 net.cpp:406] bn3 <- conv3
I0108 14:10:08.976670 39915 net.cpp:367] bn3 -> conv3 (in-place)
I0108 14:10:08.976825 39915 net.cpp:122] Setting up bn3
I0108 14:10:08.976842 39915 net.cpp:129] Top shape: 200 384 13 13 (12979200)
I0108 14:10:08.976850 39915 net.cpp:137] Memory required for data: 1931932000
I0108 14:10:08.976867 39915 layer_factory.hpp:77] Creating layer scale3
I0108 14:10:08.976882 39915 net.cpp:84] Creating Layer scale3
I0108 14:10:08.976891 39915 net.cpp:406] scale3 <- conv3
I0108 14:10:08.976902 39915 net.cpp:367] scale3 -> conv3 (in-place)
I0108 14:10:08.976944 39915 layer_factory.hpp:77] Creating layer scale3
I0108 14:10:08.977052 39915 net.cpp:122] Setting up scale3
I0108 14:10:08.977071 39915 net.cpp:129] Top shape: 200 384 13 13 (12979200)
I0108 14:10:08.977079 39915 net.cpp:137] Memory required for data: 1983848800
I0108 14:10:08.977092 39915 layer_factory.hpp:77] Creating layer relu3
I0108 14:10:08.977104 39915 net.cpp:84] Creating Layer relu3
I0108 14:10:08.977118 39915 net.cpp:406] relu3 <- conv3
I0108 14:10:08.977128 39915 net.cpp:367] relu3 -> conv3 (in-place)
I0108 14:10:08.977140 39915 net.cpp:122] Setting up relu3
I0108 14:10:08.977150 39915 net.cpp:129] Top shape: 200 384 13 13 (12979200)
I0108 14:10:08.977159 39915 net.cpp:137] Memory required for data: 2035765600
I0108 14:10:08.977167 39915 layer_factory.hpp:77] Creating layer quantized_conv3
I0108 14:10:08.977179 39915 net.cpp:84] Creating Layer quantized_conv3
I0108 14:10:08.977188 39915 net.cpp:406] quantized_conv3 <- conv3
I0108 14:10:08.977198 39915 net.cpp:367] quantized_conv3 -> conv3 (in-place)
I0108 14:10:08.977210 39915 net.cpp:122] Setting up quantized_conv3
I0108 14:10:08.977219 39915 net.cpp:129] Top shape: 200 384 13 13 (12979200)
I0108 14:10:08.977227 39915 net.cpp:137] Memory required for data: 2087682400
I0108 14:10:08.977236 39915 layer_factory.hpp:77] Creating layer conv4
I0108 14:10:08.977252 39915 net.cpp:84] Creating Layer conv4
I0108 14:10:08.977260 39915 net.cpp:406] conv4 <- conv3
I0108 14:10:08.977272 39915 net.cpp:380] conv4 -> conv4
I0108 14:10:09.017128 39915 net.cpp:122] Setting up conv4
I0108 14:10:09.017177 39915 net.cpp:129] Top shape: 200 384 13 13 (12979200)
I0108 14:10:09.017187 39915 net.cpp:137] Memory required for data: 2139599200
I0108 14:10:09.017202 39915 layer_factory.hpp:77] Creating layer bn4
I0108 14:10:09.017220 39915 net.cpp:84] Creating Layer bn4
I0108 14:10:09.017232 39915 net.cpp:406] bn4 <- conv4
I0108 14:10:09.017246 39915 net.cpp:367] bn4 -> conv4 (in-place)
I0108 14:10:09.017415 39915 net.cpp:122] Setting up bn4
I0108 14:10:09.017431 39915 net.cpp:129] Top shape: 200 384 13 13 (12979200)
I0108 14:10:09.017439 39915 net.cpp:137] Memory required for data: 2191516000
I0108 14:10:09.017454 39915 layer_factory.hpp:77] Creating layer scale4
I0108 14:10:09.017469 39915 net.cpp:84] Creating Layer scale4
I0108 14:10:09.017478 39915 net.cpp:406] scale4 <- conv4
I0108 14:10:09.017490 39915 net.cpp:367] scale4 -> conv4 (in-place)
I0108 14:10:09.017539 39915 layer_factory.hpp:77] Creating layer scale4
I0108 14:10:09.017649 39915 net.cpp:122] Setting up scale4
I0108 14:10:09.017665 39915 net.cpp:129] Top shape: 200 384 13 13 (12979200)
I0108 14:10:09.017675 39915 net.cpp:137] Memory required for data: 2243432800
I0108 14:10:09.017688 39915 layer_factory.hpp:77] Creating layer relu4
I0108 14:10:09.017699 39915 net.cpp:84] Creating Layer relu4
I0108 14:10:09.017709 39915 net.cpp:406] relu4 <- conv4
I0108 14:10:09.017719 39915 net.cpp:367] relu4 -> conv4 (in-place)
I0108 14:10:09.017732 39915 net.cpp:122] Setting up relu4
I0108 14:10:09.017743 39915 net.cpp:129] Top shape: 200 384 13 13 (12979200)
I0108 14:10:09.017751 39915 net.cpp:137] Memory required for data: 2295349600
I0108 14:10:09.017760 39915 layer_factory.hpp:77] Creating layer quantized_conv4
I0108 14:10:09.017773 39915 net.cpp:84] Creating Layer quantized_conv4
I0108 14:10:09.017818 39915 net.cpp:406] quantized_conv4 <- conv4
I0108 14:10:09.017832 39915 net.cpp:367] quantized_conv4 -> conv4 (in-place)
I0108 14:10:09.017844 39915 net.cpp:122] Setting up quantized_conv4
I0108 14:10:09.017855 39915 net.cpp:129] Top shape: 200 384 13 13 (12979200)
I0108 14:10:09.017864 39915 net.cpp:137] Memory required for data: 2347266400
I0108 14:10:09.017873 39915 layer_factory.hpp:77] Creating layer conv5
I0108 14:10:09.017890 39915 net.cpp:84] Creating Layer conv5
I0108 14:10:09.017899 39915 net.cpp:406] conv5 <- conv4
I0108 14:10:09.017912 39915 net.cpp:380] conv5 -> conv5
I0108 14:10:09.047857 39915 net.cpp:122] Setting up conv5
I0108 14:10:09.047909 39915 net.cpp:129] Top shape: 200 256 13 13 (8652800)
I0108 14:10:09.047919 39915 net.cpp:137] Memory required for data: 2381877600
I0108 14:10:09.047935 39915 layer_factory.hpp:77] Creating layer bn5
I0108 14:10:09.047953 39915 net.cpp:84] Creating Layer bn5
I0108 14:10:09.047965 39915 net.cpp:406] bn5 <- conv5
I0108 14:10:09.047978 39915 net.cpp:367] bn5 -> conv5 (in-place)
I0108 14:10:09.048147 39915 net.cpp:122] Setting up bn5
I0108 14:10:09.048164 39915 net.cpp:129] Top shape: 200 256 13 13 (8652800)
I0108 14:10:09.048173 39915 net.cpp:137] Memory required for data: 2416488800
I0108 14:10:09.048193 39915 layer_factory.hpp:77] Creating layer scale5
I0108 14:10:09.048208 39915 net.cpp:84] Creating Layer scale5
I0108 14:10:09.048218 39915 net.cpp:406] scale5 <- conv5
I0108 14:10:09.048228 39915 net.cpp:367] scale5 -> conv5 (in-place)
I0108 14:10:09.048281 39915 layer_factory.hpp:77] Creating layer scale5
I0108 14:10:09.048390 39915 net.cpp:122] Setting up scale5
I0108 14:10:09.048408 39915 net.cpp:129] Top shape: 200 256 13 13 (8652800)
I0108 14:10:09.048416 39915 net.cpp:137] Memory required for data: 2451100000
I0108 14:10:09.048431 39915 layer_factory.hpp:77] Creating layer relu5
I0108 14:10:09.048445 39915 net.cpp:84] Creating Layer relu5
I0108 14:10:09.048454 39915 net.cpp:406] relu5 <- conv5
I0108 14:10:09.048465 39915 net.cpp:367] relu5 -> conv5 (in-place)
I0108 14:10:09.048477 39915 net.cpp:122] Setting up relu5
I0108 14:10:09.048487 39915 net.cpp:129] Top shape: 200 256 13 13 (8652800)
I0108 14:10:09.048496 39915 net.cpp:137] Memory required for data: 2485711200
I0108 14:10:09.048504 39915 layer_factory.hpp:77] Creating layer pool5
I0108 14:10:09.048516 39915 net.cpp:84] Creating Layer pool5
I0108 14:10:09.048526 39915 net.cpp:406] pool5 <- conv5
I0108 14:10:09.048537 39915 net.cpp:380] pool5 -> pool5
I0108 14:10:09.048581 39915 net.cpp:122] Setting up pool5
I0108 14:10:09.048596 39915 net.cpp:129] Top shape: 200 256 6 6 (1843200)
I0108 14:10:09.048605 39915 net.cpp:137] Memory required for data: 2493084000
I0108 14:10:09.048614 39915 layer_factory.hpp:77] Creating layer quantized_conv5
I0108 14:10:09.048627 39915 net.cpp:84] Creating Layer quantized_conv5
I0108 14:10:09.048635 39915 net.cpp:406] quantized_conv5 <- pool5
I0108 14:10:09.048646 39915 net.cpp:367] quantized_conv5 -> pool5 (in-place)
I0108 14:10:09.048660 39915 net.cpp:122] Setting up quantized_conv5
I0108 14:10:09.048669 39915 net.cpp:129] Top shape: 200 256 6 6 (1843200)
I0108 14:10:09.048677 39915 net.cpp:137] Memory required for data: 2500456800
I0108 14:10:09.048686 39915 layer_factory.hpp:77] Creating layer fc6
I0108 14:10:09.048705 39915 net.cpp:84] Creating Layer fc6
I0108 14:10:09.048715 39915 net.cpp:406] fc6 <- pool5
I0108 14:10:09.048727 39915 net.cpp:380] fc6 -> fc6
I0108 14:10:10.182166 39915 net.cpp:122] Setting up fc6
I0108 14:10:10.182267 39915 net.cpp:129] Top shape: 200 4096 (819200)
I0108 14:10:10.182278 39915 net.cpp:137] Memory required for data: 2503733600
I0108 14:10:10.182294 39915 layer_factory.hpp:77] Creating layer bn6
I0108 14:10:10.182314 39915 net.cpp:84] Creating Layer bn6
I0108 14:10:10.182327 39915 net.cpp:406] bn6 <- fc6
I0108 14:10:10.182340 39915 net.cpp:367] bn6 -> fc6 (in-place)
I0108 14:10:10.182523 39915 net.cpp:122] Setting up bn6
I0108 14:10:10.182539 39915 net.cpp:129] Top shape: 200 4096 (819200)
I0108 14:10:10.182585 39915 net.cpp:137] Memory required for data: 2507010400
I0108 14:10:10.182600 39915 layer_factory.hpp:77] Creating layer scale6
I0108 14:10:10.182621 39915 net.cpp:84] Creating Layer scale6
I0108 14:10:10.182631 39915 net.cpp:406] scale6 <- fc6
I0108 14:10:10.182641 39915 net.cpp:367] scale6 -> fc6 (in-place)
I0108 14:10:10.182691 39915 layer_factory.hpp:77] Creating layer scale6
I0108 14:10:10.182813 39915 net.cpp:122] Setting up scale6
I0108 14:10:10.182831 39915 net.cpp:129] Top shape: 200 4096 (819200)
I0108 14:10:10.182838 39915 net.cpp:137] Memory required for data: 2510287200
I0108 14:10:10.182850 39915 layer_factory.hpp:77] Creating layer relu6
I0108 14:10:10.182863 39915 net.cpp:84] Creating Layer relu6
I0108 14:10:10.182873 39915 net.cpp:406] relu6 <- fc6
I0108 14:10:10.182883 39915 net.cpp:367] relu6 -> fc6 (in-place)
I0108 14:10:10.182896 39915 net.cpp:122] Setting up relu6
I0108 14:10:10.182906 39915 net.cpp:129] Top shape: 200 4096 (819200)
I0108 14:10:10.182915 39915 net.cpp:137] Memory required for data: 2513564000
I0108 14:10:10.182924 39915 layer_factory.hpp:77] Creating layer drop6
I0108 14:10:10.182942 39915 net.cpp:84] Creating Layer drop6
I0108 14:10:10.182952 39915 net.cpp:406] drop6 <- fc6
I0108 14:10:10.182968 39915 net.cpp:367] drop6 -> fc6 (in-place)
I0108 14:10:10.183010 39915 net.cpp:122] Setting up drop6
I0108 14:10:10.183027 39915 net.cpp:129] Top shape: 200 4096 (819200)
I0108 14:10:10.183037 39915 net.cpp:137] Memory required for data: 2516840800
I0108 14:10:10.183045 39915 layer_factory.hpp:77] Creating layer quantized_fc6
I0108 14:10:10.183060 39915 net.cpp:84] Creating Layer quantized_fc6
I0108 14:10:10.183070 39915 net.cpp:406] quantized_fc6 <- fc6
I0108 14:10:10.183081 39915 net.cpp:367] quantized_fc6 -> fc6 (in-place)
I0108 14:10:10.183094 39915 net.cpp:122] Setting up quantized_fc6
I0108 14:10:10.183105 39915 net.cpp:129] Top shape: 200 4096 (819200)
I0108 14:10:10.183113 39915 net.cpp:137] Memory required for data: 2520117600
I0108 14:10:10.183122 39915 layer_factory.hpp:77] Creating layer fc7
I0108 14:10:10.183136 39915 net.cpp:84] Creating Layer fc7
I0108 14:10:10.183145 39915 net.cpp:406] fc7 <- fc6
I0108 14:10:10.183158 39915 net.cpp:380] fc7 -> fc7
I0108 14:10:10.684010 39915 net.cpp:122] Setting up fc7
I0108 14:10:10.684123 39915 net.cpp:129] Top shape: 200 4096 (819200)
I0108 14:10:10.684134 39915 net.cpp:137] Memory required for data: 2523394400
I0108 14:10:10.684152 39915 layer_factory.hpp:77] Creating layer bn7
I0108 14:10:10.684171 39915 net.cpp:84] Creating Layer bn7
I0108 14:10:10.684183 39915 net.cpp:406] bn7 <- fc7
I0108 14:10:10.684198 39915 net.cpp:367] bn7 -> fc7 (in-place)
I0108 14:10:10.684378 39915 net.cpp:122] Setting up bn7
I0108 14:10:10.684394 39915 net.cpp:129] Top shape: 200 4096 (819200)
I0108 14:10:10.684403 39915 net.cpp:137] Memory required for data: 2526671200
I0108 14:10:10.684417 39915 layer_factory.hpp:77] Creating layer scale7
I0108 14:10:10.684432 39915 net.cpp:84] Creating Layer scale7
I0108 14:10:10.684440 39915 net.cpp:406] scale7 <- fc7
I0108 14:10:10.684451 39915 net.cpp:367] scale7 -> fc7 (in-place)
I0108 14:10:10.684499 39915 layer_factory.hpp:77] Creating layer scale7
I0108 14:10:10.684613 39915 net.cpp:122] Setting up scale7
I0108 14:10:10.684629 39915 net.cpp:129] Top shape: 200 4096 (819200)
I0108 14:10:10.684638 39915 net.cpp:137] Memory required for data: 2529948000
I0108 14:10:10.684650 39915 layer_factory.hpp:77] Creating layer relu7
I0108 14:10:10.684662 39915 net.cpp:84] Creating Layer relu7
I0108 14:10:10.684671 39915 net.cpp:406] relu7 <- fc7
I0108 14:10:10.684682 39915 net.cpp:367] relu7 -> fc7 (in-place)
I0108 14:10:10.684695 39915 net.cpp:122] Setting up relu7
I0108 14:10:10.684705 39915 net.cpp:129] Top shape: 200 4096 (819200)
I0108 14:10:10.684713 39915 net.cpp:137] Memory required for data: 2533224800
I0108 14:10:10.684721 39915 layer_factory.hpp:77] Creating layer drop7
I0108 14:10:10.684734 39915 net.cpp:84] Creating Layer drop7
I0108 14:10:10.684743 39915 net.cpp:406] drop7 <- fc7
I0108 14:10:10.684753 39915 net.cpp:367] drop7 -> fc7 (in-place)
I0108 14:10:10.684824 39915 net.cpp:122] Setting up drop7
I0108 14:10:10.684840 39915 net.cpp:129] Top shape: 200 4096 (819200)
I0108 14:10:10.684849 39915 net.cpp:137] Memory required for data: 2536501600
I0108 14:10:10.684857 39915 layer_factory.hpp:77] Creating layer quantized_fc7
I0108 14:10:10.684871 39915 net.cpp:84] Creating Layer quantized_fc7
I0108 14:10:10.684880 39915 net.cpp:406] quantized_fc7 <- fc7
I0108 14:10:10.684890 39915 net.cpp:367] quantized_fc7 -> fc7 (in-place)
I0108 14:10:10.684903 39915 net.cpp:122] Setting up quantized_fc7
I0108 14:10:10.684913 39915 net.cpp:129] Top shape: 200 4096 (819200)
I0108 14:10:10.684921 39915 net.cpp:137] Memory required for data: 2539778400
I0108 14:10:10.684929 39915 layer_factory.hpp:77] Creating layer fc8
I0108 14:10:10.684943 39915 net.cpp:84] Creating Layer fc8
I0108 14:10:10.684952 39915 net.cpp:406] fc8 <- fc7
I0108 14:10:10.684964 39915 net.cpp:380] fc8 -> fc8
I0108 14:10:10.805061 39915 net.cpp:122] Setting up fc8
I0108 14:10:10.805120 39915 net.cpp:129] Top shape: 200 1000 (200000)
I0108 14:10:10.805131 39915 net.cpp:137] Memory required for data: 2540578400
I0108 14:10:10.805147 39915 layer_factory.hpp:77] Creating layer fc8_fc8_0_split
I0108 14:10:10.805166 39915 net.cpp:84] Creating Layer fc8_fc8_0_split
I0108 14:10:10.805176 39915 net.cpp:406] fc8_fc8_0_split <- fc8
I0108 14:10:10.805191 39915 net.cpp:380] fc8_fc8_0_split -> fc8_fc8_0_split_0
I0108 14:10:10.805209 39915 net.cpp:380] fc8_fc8_0_split -> fc8_fc8_0_split_1
I0108 14:10:10.805260 39915 net.cpp:122] Setting up fc8_fc8_0_split
I0108 14:10:10.805276 39915 net.cpp:129] Top shape: 200 1000 (200000)
I0108 14:10:10.805286 39915 net.cpp:129] Top shape: 200 1000 (200000)
I0108 14:10:10.805294 39915 net.cpp:137] Memory required for data: 2542178400
I0108 14:10:10.805304 39915 layer_factory.hpp:77] Creating layer accuracy_5_TRAIN
I0108 14:10:10.805327 39915 net.cpp:84] Creating Layer accuracy_5_TRAIN
I0108 14:10:10.805336 39915 net.cpp:406] accuracy_5_TRAIN <- fc8_fc8_0_split_0
I0108 14:10:10.805346 39915 net.cpp:406] accuracy_5_TRAIN <- label_data_1_split_0
…
I0108 14:10:10.808472 39915 net.cpp:294] The NetState phase (1) differed from the phase (0) specified by a rule in layer accuracy_5_TRAIN
I0108 14:10:10.808709 39915 net.cpp:51] Initializing net from parameters: 
name: "AlexNet-BN"
state {
  phase: TEST
}
layer {
  name: "data"
  type: "Data"
  top: "data"
  top: "label"
  include {
    phase: TEST
  }
  transform_param {
    mirror: false
    crop_size: 224
    mean_value: 103.939
    mean_value: 116.779
    mean_value: 123.68
  }
  data_param {
    source: "/home/ydwu/database/imagenet/ilsvrc12/lmdb_resize/ilsvrc12_val_lmdb"
    batch_size: 200
    backend: LMDB
  }
}
layer {
  name: "conv1"
  type: "Convolution"
  bottom: "data"
  top: "conv1"
  param {
    lr_mult: 1
    decay_mult: 1
  }
  param {
    lr_mult: 2
    decay_mult: 0
  }
  convolution_param {
    num_output: 96
    pad: 2
    kernel_size: 11
    stride: 4
    weight_filler {
      type: "gaussian"
      std: 0.01
    }
    bias_filler {
      type: "constant"
      value: 0
    }
  }
}
layer {
  name: "bn1"
  type: "BatchNorm"
  bottom: "conv1"
  top: "conv1"
}
layer {
  name: "scale1"
  type: "Scale"
  bottom: "conv1"
  top: "conv1"
  scale_param {
    bias_term: true
  }
}
layer {
  name: "relu1"
  type: "ReLU"
  bottom: "conv1"
  top: "conv1"
}
layer {
  name: "pool1"
  type: "Pooling"
  bottom: "conv1"
  top: "pool1"
  pooling_param {
    pool: MAX
    kernel_size: 3
    stride: 2
  }
}
layer {
  name: "quantized_conv1"
  type: "Quantization"
  bottom: "pool1"
  top: "pool1"
  quantization_param {
    round_method: FLOOR
    round_strategy: AGGRESSIVE
    bit_width: 4
    range: 0
    range: 6.9826913
  }
}
layer {
  name: "conv2"
  type: "Convolution"
  bottom: "pool1"
  top: "conv2"
  param {
    lr_mult: 1
    decay_mult: 1
  }
  param {
    lr_mult: 2
    decay_mult: 0
  }
  convolution_param {
    num_output: 256
    pad: 2
    kernel_size: 5
    weight_filler {
      type: "gaussian"
      std: 0.01
    }
    bias_filler {
      type: "constant"
      value: 0.1
    }
  }
}
layer {
  name: "bn2"
  type: "BatchNorm"
  bottom: "conv2"
  top: "conv2"
}
layer {
  name: "scale2"
  type: "Scale"
  bottom: "conv2"
  top: "conv2"
  scale_param {
    bias_term: true
  }
}
layer {
  name: "relu2"
  type: "ReLU"
  bottom: "conv2"
  top: "conv2"
}
layer {
  name: "pool2"
  type: "Pooling"
  bottom: "conv2"
  top: "pool2"
  pooling_param {
    pool: MAX
    kernel_size: 3
    stride: 2
  }
}
layer {
  name: "quantized_conv2"
  type: "Quantization"
  bottom: "pool2"
  top: "pool2"
  quantization_param {
    round_method: FLOOR
    round_strategy: AGGRESSIVE
    bit_width: 4
    range: 0
    range: 3.37478
  }
}
layer {
  name: "conv3"
  type: "Convolution"
  bottom: "pool2"
  top: "conv3"
  param {
    lr_mult: 1
    decay_mult: 1
  }
  param {
    lr_mult: 2
    decay_mult: 0
  }
  convolution_param {
    num_output: 384
    pad: 1
    kernel_size: 3
    weight_filler {
      type: "gaussian"
      std: 0.01
    }
    bias_filler {
      type: "constant"
      value: 0
    }
  }
}
layer {
  name: "bn3"
  type: "BatchNorm"
  bottom: "conv3"
  top: "conv3"
}
layer {
  name: "scale3"
  type: "Scale"
  bottom: "conv3"
  top: "conv3"
  scale_param {
    bias_term: true
  }
}
layer {
  name: "relu3"
  type: "ReLU"
  bottom: "conv3"
  top: "conv3"
}
layer {
  name: "quantized_conv3"
  type: "Quantization"
  bottom: "conv3"
  top: "conv3"
  quantization_param {
    round_method: FLOOR
    round_strategy: AGGRESSIVE
    bit_width: 4
    range: 0
    range: 4.24227
  }
}
layer {
  name: "conv4"
  type: "Convolution"
  bottom: "conv3"
  top: "conv4"
  param {
    lr_mult: 1
    decay_mult: 1
  }
  param {
    lr_mult: 2
    decay_mult: 0
  }
  convolution_param {
    num_output: 384
    pad: 1
    kernel_size: 3
    weight_filler {
      type: "gaussian"
      std: 0.01
    }
    bias_filler {
      type: "constant"
      value: 0.1
    }
  }
}
layer {
  name: "bn4"
  type: "BatchNorm"
  bottom: "conv4"
  top: "conv4"
}
layer {
  name: "scale4"
  type: "Scale"
  bottom: "conv4"
  top: "conv4"
  scale_param {
    bias_term: true
  }
}
layer {
  name: "relu4"
  type: "ReLU"
  bottom: "conv4"
  top: "conv4"
}
layer {
  name: "quantized_conv4"
  type: "Quantization"
  bottom: "conv4"
  top: "conv4"
  quantization_param {
    round_method: FLOOR
    round_strategy: AGGRESSIVE
    bit_width: 4
    range: 0
    range: 3.6684861
  }
}
layer {
  name: "conv5"
  type: "Convolution"
  bottom: "conv4"
  top: "conv5"
  param {
    lr_mult: 1
    decay_mult: 1
  }
  param {
    lr_mult: 2
    decay_mult: 0
  }
  convolution_param {
    num_output: 256
    pad: 1
    kernel_size: 3
    weight_filler {
      type: "gaussian"
      std: 0.01
    }
    bias_filler {
      type: "constant"
      value: 0.1
    }
  }
}
layer {
  name: "bn5"
  type: "BatchNorm"
  bottom: "conv5"
  top: "conv5"
}
layer {
  name: "scale5"
  type: "Scale"
  bottom: "conv5"
  top: "conv5"
  scale_param {
    bias_term: true
  }
}
layer {
  name: "relu5"
  type: "ReLU"
  bottom: "conv5"
  top: "conv5"
}
layer {
  name: "pool5"
  type: "Pooling"
  bottom: "conv5"
  top: "pool5"
  pooling_param {
    pool: MAX
    kernel_size: 3
    stride: 2
  }
}
layer {
  name: "quantized_conv5"
  type: "Quantization"
  bottom: "pool5"
  top: "pool5"
  quantization_param {
    round_method: FLOOR
    round_strategy: AGGRESSIVE
    bit_width: 4
    range: 0
    range: 4.3788567
  }
}
layer {
  name: "fc6"
  type: "InnerProduct"
  bottom: "pool5"
  top: "fc6"
  param {
    lr_mult: 1
    decay_mult: 1
  }
  param {
    lr_mult: 2
    decay_mult: 0
  }
  inner_product_param {
    num_output: 4096
    weight_filler {
      type: "gaussian"
      std: 0.005
    }
    bias_filler {
      type: "constant"
      value: 0.1
    }
  }
}
layer {
  name: "bn6"
  type: "BatchNorm"
  bottom: "fc6"
  top: "fc6"
}
layer {
  name: "scale6"
  type: "Scale"
  bottom: "fc6"
  top: "fc6"
  scale_param {
    bias_term: true
  }
}
layer {
  name: "relu6"
  type: "ReLU"
  bottom: "fc6"
  top: "fc6"
}
layer {
  name: "drop6"
  type: "Dropout"
  bottom: "fc6"
  top: "fc6"
  dropout_param {
    dropout_ratio: 0.5
  }
}
layer {
  name: "quantized_fc6"
  type: "Quantization"
  bottom: "fc6"
  top: "fc6"
  quantization_param {
    round_method: FLOOR
    round_strategy: AGGRESSIVE
    bit_width: 4
    range: 0
    range: 0.829679
  }
}
layer {
  name: "fc7"
  type: "InnerProduct"
  bottom: "fc6"
  top: "fc7"
  param {
    lr_mult: 1
    decay_mult: 1
  }
  param {
    lr_mult: 2
    decay_mult: 0
  }
  inner_product_param {
    num_output: 4096
    weight_filler {
      type: "gaussian"
      std: 0.005
    }
    bias_filler {
      type: "constant"
      value: 0.1
    }
  }
}
layer {
  name: "bn7"
  type: "BatchNorm"
  bottom: "fc7"
  top: "fc7"
}
layer {
  name: "scale7"
  type: "Scale"
  bottom: "fc7"
  top: "fc7"
  scale_param {
    bias_term: true
  }
}
layer {
  name: "relu7"
  type: "ReLU"
  bottom: "fc7"
  top: "fc7"
}
layer {
  name: "drop7"
  type: "Dropout"
  bottom: "fc7"
  top: "fc7"
  dropout_param {
    dropout_ratio: 0.5
  }
}
layer {
  name: "quantized_fc7"
  type: "Quantization"
  bottom: "fc7"
  top: "fc7"
  quantization_param {
    round_method: FLOOR
    round_strategy: AGGRESSIVE
    bit_width: 4
    range: 0
    range: 3.7799261
  }
}
layer {
  name: "fc8"
  type: "InnerProduct"
  bottom: "fc7"
  top: "fc8"
  param {
    lr_mult: 1
    decay_mult: 1
  }
  param {
    lr_mult: 2
    decay_mult: 0
  }
  inner_product_param {
    num_output: 1000
    weight_filler {
      type: "gaussian"
      std: 0.01
    }
    bias_filler {
      type: "constant"
      value: 0
    }
  }
}
layer {
  name: "accuracy"
  type: "Accuracy"
  bottom: "fc8"
  bottom: "label"
  top: "accuracy"
  include {
    phase: TEST
  }
}
layer {
  name: "accuracy_5"
  type: "Accuracy"
  bottom: "fc8"
  bottom: "label"
  top: "accuracy_5"
  include {
    phase: TEST
  }
  accuracy_param {
    top_k: 5
  }
}
layer {
  name: "loss"
  type: "SoftmaxWithLoss"
  bottom: "fc8"
  bottom: "label"
  top: "loss"
}
I0108 14:10:10.808890 39915 layer_factory.hpp:77] Creating layer data
I0108 14:10:10.837275 39915 db_lmdb.cpp:35] Opened lmdb /home/ydwu/database/imagenet/ilsvrc12/lmdb_resize/ilsvrc12_val_lmdb
I0108 14:10:10.852558 39915 net.cpp:84] Creating Layer data
I0108 14:10:10.852584 39915 net.cpp:380] data -> data
I0108 14:10:10.852607 39915 net.cpp:380] data -> label
I0108 14:10:10.856739 39915 data_layer.cpp:45] output data size: 200,3,224,224
I0108 14:10:11.213016 39915 net.cpp:122] Setting up data
I0108 14:10:11.213099 39915 net.cpp:129] Top shape: 200 3 224 224 (30105600)
I0108 14:10:11.213112 39915 net.cpp:129] Top shape: 200 (200)
I0108 14:10:11.213122 39915 net.cpp:137] Memory required for data: 120423200
I0108 14:10:11.213136 39915 layer_factory.hpp:77] Creating layer label_data_1_split
I0108 14:10:11.213160 39915 net.cpp:84] Creating Layer label_data_1_split
I0108 14:10:11.213171 39915 net.cpp:406] label_data_1_split <- label
I0108 14:10:11.213186 39915 net.cpp:380] label_data_1_split -> label_data_1_split_0
I0108 14:10:11.213205 39915 net.cpp:380] label_data_1_split -> label_data_1_split_1
I0108 14:10:11.213218 39915 net.cpp:380] label_data_1_split -> label_data_1_split_2
I0108 14:10:11.213299 39915 net.cpp:122] Setting up label_data_1_split
I0108 14:10:11.213317 39915 net.cpp:129] Top shape: 200 (200)
I0108 14:10:11.213327 39915 net.cpp:129] Top shape: 200 (200)
I0108 14:10:11.213336 39915 net.cpp:129] Top shape: 200 (200)
I0108 14:10:11.213346 39915 net.cpp:137] Memory required for data: 120425600
I0108 14:10:11.213354 39915 layer_factory.hpp:77] Creating layer conv1
I0108 14:10:11.213376 39915 net.cpp:84] Creating Layer conv1
I0108 14:10:11.213387 39915 net.cpp:406] conv1 <- data
I0108 14:10:11.213399 39915 net.cpp:380] conv1 -> conv1
I0108 14:10:11.232883 39915 net.cpp:122] Setting up conv1
I0108 14:10:11.232928 39915 net.cpp:129] Top shape: 200 96 55 55 (58080000)
I0108 14:10:11.232939 39915 net.cpp:137] Memory required for data: 352745600
I0108 14:10:11.232959 39915 layer_factory.hpp:77] Creating layer bn1
I0108 14:10:11.232978 39915 net.cpp:84] Creating Layer bn1
I0108 14:10:11.232990 39915 net.cpp:406] bn1 <- conv1
I0108 14:10:11.233003 39915 net.cpp:367] bn1 -> conv1 (in-place)
I0108 14:10:11.233304 39915 net.cpp:122] Setting up bn1
I0108 14:10:11.233325 39915 net.cpp:129] Top shape: 200 96 55 55 (58080000)
I0108 14:10:11.233335 39915 net.cpp:137] Memory required for data: 585065600
I0108 14:10:11.233351 39915 layer_factory.hpp:77] Creating layer scale1
I0108 14:10:11.233368 39915 net.cpp:84] Creating Layer scale1
I0108 14:10:11.233377 39915 net.cpp:406] scale1 <- conv1
I0108 14:10:11.233389 39915 net.cpp:367] scale1 -> conv1 (in-place)
I0108 14:10:11.233445 39915 layer_factory.hpp:77] Creating layer scale1
I0108 14:10:11.233582 39915 net.cpp:122] Setting up scale1
I0108 14:10:11.233599 39915 net.cpp:129] Top shape: 200 96 55 55 (58080000)
I0108 14:10:11.233608 39915 net.cpp:137] Memory required for data: 817385600
I0108 14:10:11.233620 39915 layer_factory.hpp:77] Creating layer relu1
I0108 14:10:11.233633 39915 net.cpp:84] Creating Layer relu1
I0108 14:10:11.233644 39915 net.cpp:406] relu1 <- conv1
I0108 14:10:11.233654 39915 net.cpp:367] relu1 -> conv1 (in-place)
I0108 14:10:11.233666 39915 net.cpp:122] Setting up relu1
I0108 14:10:11.233680 39915 net.cpp:129] Top shape: 200 96 55 55 (58080000)
I0108 14:10:11.233690 39915 net.cpp:137] Memory required for data: 1049705600
I0108 14:10:11.233697 39915 layer_factory.hpp:77] Creating layer pool1
I0108 14:10:11.233711 39915 net.cpp:84] Creating Layer pool1
I0108 14:10:11.233719 39915 net.cpp:406] pool1 <- conv1
I0108 14:10:11.233731 39915 net.cpp:380] pool1 -> pool1
I0108 14:10:11.233777 39915 net.cpp:122] Setting up pool1
I0108 14:10:11.233793 39915 net.cpp:129] Top shape: 200 96 27 27 (13996800)
I0108 14:10:11.233801 39915 net.cpp:137] Memory required for data: 1105692800
I0108 14:10:11.233809 39915 layer_factory.hpp:77] Creating layer quantized_conv1
I0108 14:10:11.233824 39915 net.cpp:84] Creating Layer quantized_conv1
I0108 14:10:11.233831 39915 net.cpp:406] quantized_conv1 <- pool1
I0108 14:10:11.233844 39915 net.cpp:367] quantized_conv1 -> pool1 (in-place)
I0108 14:10:11.233855 39915 net.cpp:122] Setting up quantized_conv1
I0108 14:10:11.233866 39915 net.cpp:129] Top shape: 200 96 27 27 (13996800)
I0108 14:10:11.233877 39915 net.cpp:137] Memory required for data: 1161680000
I0108 14:10:11.233886 39915 layer_factory.hpp:77] Creating layer conv2
I0108 14:10:11.233906 39915 net.cpp:84] Creating Layer conv2
I0108 14:10:11.233916 39915 net.cpp:406] conv2 <- pool1
I0108 14:10:11.233928 39915 net.cpp:380] conv2 -> conv2
I0108 14:10:11.252959 39915 net.cpp:122] Setting up conv2
I0108 14:10:11.253006 39915 net.cpp:129] Top shape: 200 256 27 27 (37324800)
I0108 14:10:11.253017 39915 net.cpp:137] Memory required for data: 1310979200
I0108 14:10:11.253037 39915 layer_factory.hpp:77] Creating layer bn2
I0108 14:10:11.253060 39915 net.cpp:84] Creating Layer bn2
I0108 14:10:11.253072 39915 net.cpp:406] bn2 <- conv2
I0108 14:10:11.253085 39915 net.cpp:367] bn2 -> conv2 (in-place)
I0108 14:10:11.253262 39915 net.cpp:122] Setting up bn2
I0108 14:10:11.253278 39915 net.cpp:129] Top shape: 200 256 27 27 (37324800)
I0108 14:10:11.253286 39915 net.cpp:137] Memory required for data: 1460278400
I0108 14:10:11.253340 39915 layer_factory.hpp:77] Creating layer scale2
I0108 14:10:11.253356 39915 net.cpp:84] Creating Layer scale2
I0108 14:10:11.253365 39915 net.cpp:406] scale2 <- conv2
I0108 14:10:11.253376 39915 net.cpp:367] scale2 -> conv2 (in-place)
I0108 14:10:11.253433 39915 layer_factory.hpp:77] Creating layer scale2
I0108 14:10:11.253551 39915 net.cpp:122] Setting up scale2
I0108 14:10:11.253567 39915 net.cpp:129] Top shape: 200 256 27 27 (37324800)
I0108 14:10:11.253576 39915 net.cpp:137] Memory required for data: 1609577600
I0108 14:10:11.253588 39915 layer_factory.hpp:77] Creating layer relu2
I0108 14:10:11.253602 39915 net.cpp:84] Creating Layer relu2
I0108 14:10:11.253610 39915 net.cpp:406] relu2 <- conv2
I0108 14:10:11.253621 39915 net.cpp:367] relu2 -> conv2 (in-place)
I0108 14:10:11.253633 39915 net.cpp:122] Setting up relu2
I0108 14:10:11.253644 39915 net.cpp:129] Top shape: 200 256 27 27 (37324800)
I0108 14:10:11.253653 39915 net.cpp:137] Memory required for data: 1758876800
I0108 14:10:11.253661 39915 layer_factory.hpp:77] Creating layer pool2
I0108 14:10:11.253674 39915 net.cpp:84] Creating Layer pool2
I0108 14:10:11.253684 39915 net.cpp:406] pool2 <- conv2
I0108 14:10:11.253695 39915 net.cpp:380] pool2 -> pool2
I0108 14:10:11.253743 39915 net.cpp:122] Setting up pool2
I0108 14:10:11.253759 39915 net.cpp:129] Top shape: 200 256 13 13 (8652800)
I0108 14:10:11.253769 39915 net.cpp:137] Memory required for data: 1793488000
I0108 14:10:11.253777 39915 layer_factory.hpp:77] Creating layer quantized_conv2
I0108 14:10:11.253793 39915 net.cpp:84] Creating Layer quantized_conv2
I0108 14:10:11.253801 39915 net.cpp:406] quantized_conv2 <- pool2
I0108 14:10:11.253813 39915 net.cpp:367] quantized_conv2 -> pool2 (in-place)
I0108 14:10:11.253825 39915 net.cpp:122] Setting up quantized_conv2
I0108 14:10:11.253836 39915 net.cpp:129] Top shape: 200 256 13 13 (8652800)
I0108 14:10:11.253844 39915 net.cpp:137] Memory required for data: 1828099200
I0108 14:10:11.253852 39915 layer_factory.hpp:77] Creating layer conv3
I0108 14:10:11.253870 39915 net.cpp:84] Creating Layer conv3
I0108 14:10:11.253880 39915 net.cpp:406] conv3 <- pool2
I0108 14:10:11.253892 39915 net.cpp:380] conv3 -> conv3
I0108 14:10:11.281101 39915 net.cpp:122] Setting up conv3
I0108 14:10:11.281152 39915 net.cpp:129] Top shape: 200 384 13 13 (12979200)
I0108 14:10:11.281162 39915 net.cpp:137] Memory required for data: 1880016000
I0108 14:10:11.281178 39915 layer_factory.hpp:77] Creating layer bn3
I0108 14:10:11.281198 39915 net.cpp:84] Creating Layer bn3
I0108 14:10:11.281209 39915 net.cpp:406] bn3 <- conv3
I0108 14:10:11.281224 39915 net.cpp:367] bn3 -> conv3 (in-place)
I0108 14:10:11.281410 39915 net.cpp:122] Setting up bn3
I0108 14:10:11.281427 39915 net.cpp:129] Top shape: 200 384 13 13 (12979200)
I0108 14:10:11.281436 39915 net.cpp:137] Memory required for data: 1931932800
I0108 14:10:11.281455 39915 layer_factory.hpp:77] Creating layer scale3
I0108 14:10:11.281474 39915 net.cpp:84] Creating Layer scale3
I0108 14:10:11.281484 39915 net.cpp:406] scale3 <- conv3
I0108 14:10:11.281496 39915 net.cpp:367] scale3 -> conv3 (in-place)
I0108 14:10:11.281553 39915 layer_factory.hpp:77] Creating layer scale3
I0108 14:10:11.281672 39915 net.cpp:122] Setting up scale3
I0108 14:10:11.281690 39915 net.cpp:129] Top shape: 200 384 13 13 (12979200)
I0108 14:10:11.281699 39915 net.cpp:137] Memory required for data: 1983849600
I0108 14:10:11.281711 39915 layer_factory.hpp:77] Creating layer relu3
I0108 14:10:11.281724 39915 net.cpp:84] Creating Layer relu3
I0108 14:10:11.281734 39915 net.cpp:406] relu3 <- conv3
I0108 14:10:11.281744 39915 net.cpp:367] relu3 -> conv3 (in-place)
I0108 14:10:11.281757 39915 net.cpp:122] Setting up relu3
I0108 14:10:11.281767 39915 net.cpp:129] Top shape: 200 384 13 13 (12979200)
I0108 14:10:11.281776 39915 net.cpp:137] Memory required for data: 2035766400
I0108 14:10:11.281785 39915 layer_factory.hpp:77] Creating layer quantized_conv3
I0108 14:10:11.281797 39915 net.cpp:84] Creating Layer quantized_conv3
I0108 14:10:11.281842 39915 net.cpp:406] quantized_conv3 <- conv3
I0108 14:10:11.281855 39915 net.cpp:367] quantized_conv3 -> conv3 (in-place)
I0108 14:10:11.281868 39915 net.cpp:122] Setting up quantized_conv3
I0108 14:10:11.281879 39915 net.cpp:129] Top shape: 200 384 13 13 (12979200)
I0108 14:10:11.281888 39915 net.cpp:137] Memory required for data: 2087683200
I0108 14:10:11.281896 39915 layer_factory.hpp:77] Creating layer conv4
I0108 14:10:11.281915 39915 net.cpp:84] Creating Layer conv4
I0108 14:10:11.281924 39915 net.cpp:406] conv4 <- conv3
I0108 14:10:11.281937 39915 net.cpp:380] conv4 -> conv4
I0108 14:10:11.322276 39915 net.cpp:122] Setting up conv4
I0108 14:10:11.322322 39915 net.cpp:129] Top shape: 200 384 13 13 (12979200)
I0108 14:10:11.322333 39915 net.cpp:137] Memory required for data: 2139600000
I0108 14:10:11.322348 39915 layer_factory.hpp:77] Creating layer bn4
I0108 14:10:11.322366 39915 net.cpp:84] Creating Layer bn4
I0108 14:10:11.322378 39915 net.cpp:406] bn4 <- conv4
I0108 14:10:11.322392 39915 net.cpp:367] bn4 -> conv4 (in-place)
I0108 14:10:11.322577 39915 net.cpp:122] Setting up bn4
I0108 14:10:11.322594 39915 net.cpp:129] Top shape: 200 384 13 13 (12979200)
I0108 14:10:11.322602 39915 net.cpp:137] Memory required for data: 2191516800
I0108 14:10:11.322615 39915 layer_factory.hpp:77] Creating layer scale4
I0108 14:10:11.322630 39915 net.cpp:84] Creating Layer scale4
I0108 14:10:11.322639 39915 net.cpp:406] scale4 <- conv4
I0108 14:10:11.322650 39915 net.cpp:367] scale4 -> conv4 (in-place)
I0108 14:10:11.322702 39915 layer_factory.hpp:77] Creating layer scale4
I0108 14:10:11.322819 39915 net.cpp:122] Setting up scale4
I0108 14:10:11.322835 39915 net.cpp:129] Top shape: 200 384 13 13 (12979200)
I0108 14:10:11.322844 39915 net.cpp:137] Memory required for data: 2243433600
I0108 14:10:11.322856 39915 layer_factory.hpp:77] Creating layer relu4
I0108 14:10:11.322870 39915 net.cpp:84] Creating Layer relu4
I0108 14:10:11.322878 39915 net.cpp:406] relu4 <- conv4
I0108 14:10:11.322890 39915 net.cpp:367] relu4 -> conv4 (in-place)
I0108 14:10:11.322901 39915 net.cpp:122] Setting up relu4
I0108 14:10:11.322911 39915 net.cpp:129] Top shape: 200 384 13 13 (12979200)
I0108 14:10:11.322921 39915 net.cpp:137] Memory required for data: 2295350400
I0108 14:10:11.322928 39915 layer_factory.hpp:77] Creating layer quantized_conv4
I0108 14:10:11.322942 39915 net.cpp:84] Creating Layer quantized_conv4
I0108 14:10:11.322950 39915 net.cpp:406] quantized_conv4 <- conv4
I0108 14:10:11.322965 39915 net.cpp:367] quantized_conv4 -> conv4 (in-place)
I0108 14:10:11.322978 39915 net.cpp:122] Setting up quantized_conv4
I0108 14:10:11.322989 39915 net.cpp:129] Top shape: 200 384 13 13 (12979200)
I0108 14:10:11.322999 39915 net.cpp:137] Memory required for data: 2347267200
I0108 14:10:11.323006 39915 layer_factory.hpp:77] Creating layer conv5
I0108 14:10:11.323024 39915 net.cpp:84] Creating Layer conv5
I0108 14:10:11.323038 39915 net.cpp:406] conv5 <- conv4
I0108 14:10:11.323053 39915 net.cpp:380] conv5 -> conv5
I0108 14:10:11.350064 39915 net.cpp:122] Setting up conv5
I0108 14:10:11.350112 39915 net.cpp:129] Top shape: 200 256 13 13 (8652800)
I0108 14:10:11.350123 39915 net.cpp:137] Memory required for data: 2381878400
I0108 14:10:11.350138 39915 layer_factory.hpp:77] Creating layer bn5
I0108 14:10:11.350157 39915 net.cpp:84] Creating Layer bn5
I0108 14:10:11.350169 39915 net.cpp:406] bn5 <- conv5
I0108 14:10:11.350183 39915 net.cpp:367] bn5 -> conv5 (in-place)
I0108 14:10:11.350368 39915 net.cpp:122] Setting up bn5
I0108 14:10:11.350384 39915 net.cpp:129] Top shape: 200 256 13 13 (8652800)
I0108 14:10:11.350392 39915 net.cpp:137] Memory required for data: 2416489600
I0108 14:10:11.350412 39915 layer_factory.hpp:77] Creating layer scale5
I0108 14:10:11.350427 39915 net.cpp:84] Creating Layer scale5
I0108 14:10:11.350436 39915 net.cpp:406] scale5 <- conv5
I0108 14:10:11.350447 39915 net.cpp:367] scale5 -> conv5 (in-place)
I0108 14:10:11.350503 39915 layer_factory.hpp:77] Creating layer scale5
I0108 14:10:11.350616 39915 net.cpp:122] Setting up scale5
I0108 14:10:11.350666 39915 net.cpp:129] Top shape: 200 256 13 13 (8652800)
I0108 14:10:11.350677 39915 net.cpp:137] Memory required for data: 2451100800
I0108 14:10:11.350688 39915 layer_factory.hpp:77] Creating layer relu5
I0108 14:10:11.350702 39915 net.cpp:84] Creating Layer relu5
I0108 14:10:11.350714 39915 net.cpp:406] relu5 <- conv5
I0108 14:10:11.350725 39915 net.cpp:367] relu5 -> conv5 (in-place)
I0108 14:10:11.350739 39915 net.cpp:122] Setting up relu5
I0108 14:10:11.350749 39915 net.cpp:129] Top shape: 200 256 13 13 (8652800)
I0108 14:10:11.350757 39915 net.cpp:137] Memory required for data: 2485712000
I0108 14:10:11.350765 39915 layer_factory.hpp:77] Creating layer pool5
I0108 14:10:11.350778 39915 net.cpp:84] Creating Layer pool5
I0108 14:10:11.350787 39915 net.cpp:406] pool5 <- conv5
I0108 14:10:11.350800 39915 net.cpp:380] pool5 -> pool5
I0108 14:10:11.350848 39915 net.cpp:122] Setting up pool5
I0108 14:10:11.350864 39915 net.cpp:129] Top shape: 200 256 6 6 (1843200)
I0108 14:10:11.350873 39915 net.cpp:137] Memory required for data: 2493084800
I0108 14:10:11.350883 39915 layer_factory.hpp:77] Creating layer quantized_conv5
I0108 14:10:11.350900 39915 net.cpp:84] Creating Layer quantized_conv5
I0108 14:10:11.350913 39915 net.cpp:406] quantized_conv5 <- pool5
I0108 14:10:11.350924 39915 net.cpp:367] quantized_conv5 -> pool5 (in-place)
I0108 14:10:11.350937 39915 net.cpp:122] Setting up quantized_conv5
I0108 14:10:11.350949 39915 net.cpp:129] Top shape: 200 256 6 6 (1843200)
I0108 14:10:11.350961 39915 net.cpp:137] Memory required for data: 2500457600
I0108 14:10:11.350971 39915 layer_factory.hpp:77] Creating layer fc6
I0108 14:10:11.350987 39915 net.cpp:84] Creating Layer fc6
I0108 14:10:11.350997 39915 net.cpp:406] fc6 <- pool5
I0108 14:10:11.351009 39915 net.cpp:380] fc6 -> fc6
I0108 14:10:12.476121 39915 net.cpp:122] Setting up fc6
I0108 14:10:12.476182 39915 net.cpp:129] Top shape: 200 4096 (819200)
I0108 14:10:12.476194 39915 net.cpp:137] Memory required for data: 2503734400
I0108 14:10:12.476210 39915 layer_factory.hpp:77] Creating layer bn6
I0108 14:10:12.476229 39915 net.cpp:84] Creating Layer bn6
I0108 14:10:12.476240 39915 net.cpp:406] bn6 <- fc6
I0108 14:10:12.476255 39915 net.cpp:367] bn6 -> fc6 (in-place)
I0108 14:10:12.476454 39915 net.cpp:122] Setting up bn6
I0108 14:10:12.476470 39915 net.cpp:129] Top shape: 200 4096 (819200)
I0108 14:10:12.476480 39915 net.cpp:137] Memory required for data: 2507011200
I0108 14:10:12.476493 39915 layer_factory.hpp:77] Creating layer scale6
I0108 14:10:12.476513 39915 net.cpp:84] Creating Layer scale6
I0108 14:10:12.476523 39915 net.cpp:406] scale6 <- fc6
I0108 14:10:12.476534 39915 net.cpp:367] scale6 -> fc6 (in-place)
I0108 14:10:12.476588 39915 layer_factory.hpp:77] Creating layer scale6
I0108 14:10:12.476716 39915 net.cpp:122] Setting up scale6
I0108 14:10:12.476732 39915 net.cpp:129] Top shape: 200 4096 (819200)
I0108 14:10:12.476742 39915 net.cpp:137] Memory required for data: 2510288000
I0108 14:10:12.476753 39915 layer_factory.hpp:77] Creating layer relu6
I0108 14:10:12.476766 39915 net.cpp:84] Creating Layer relu6
I0108 14:10:12.476775 39915 net.cpp:406] relu6 <- fc6
I0108 14:10:12.476786 39915 net.cpp:367] relu6 -> fc6 (in-place)
I0108 14:10:12.476799 39915 net.cpp:122] Setting up relu6
I0108 14:10:12.476809 39915 net.cpp:129] Top shape: 200 4096 (819200)
I0108 14:10:12.476819 39915 net.cpp:137] Memory required for data: 2513564800
I0108 14:10:12.476826 39915 layer_factory.hpp:77] Creating layer drop6
I0108 14:10:12.476840 39915 net.cpp:84] Creating Layer drop6
I0108 14:10:12.476850 39915 net.cpp:406] drop6 <- fc6
I0108 14:10:12.476861 39915 net.cpp:367] drop6 -> fc6 (in-place)
I0108 14:10:12.476891 39915 net.cpp:122] Setting up drop6
I0108 14:10:12.476905 39915 net.cpp:129] Top shape: 200 4096 (819200)
I0108 14:10:12.476914 39915 net.cpp:137] Memory required for data: 2516841600
I0108 14:10:12.476923 39915 layer_factory.hpp:77] Creating layer quantized_fc6
I0108 14:10:12.476938 39915 net.cpp:84] Creating Layer quantized_fc6
I0108 14:10:12.476987 39915 net.cpp:406] quantized_fc6 <- fc6
I0108 14:10:12.477000 39915 net.cpp:367] quantized_fc6 -> fc6 (in-place)
I0108 14:10:12.477013 39915 net.cpp:122] Setting up quantized_fc6
I0108 14:10:12.477025 39915 net.cpp:129] Top shape: 200 4096 (819200)
I0108 14:10:12.477033 39915 net.cpp:137] Memory required for data: 2520118400
I0108 14:10:12.477041 39915 layer_factory.hpp:77] Creating layer fc7
I0108 14:10:12.477056 39915 net.cpp:84] Creating Layer fc7
I0108 14:10:12.477066 39915 net.cpp:406] fc7 <- fc6
I0108 14:10:12.477077 39915 net.cpp:380] fc7 -> fc7
I0108 14:10:12.976888 39915 net.cpp:122] Setting up fc7
I0108 14:10:12.976945 39915 net.cpp:129] Top shape: 200 4096 (819200)
I0108 14:10:12.976956 39915 net.cpp:137] Memory required for data: 2523395200
I0108 14:10:12.976972 39915 layer_factory.hpp:77] Creating layer bn7
I0108 14:10:12.976991 39915 net.cpp:84] Creating Layer bn7
I0108 14:10:12.977003 39915 net.cpp:406] bn7 <- fc7
I0108 14:10:12.977018 39915 net.cpp:367] bn7 -> fc7 (in-place)
I0108 14:10:12.977218 39915 net.cpp:122] Setting up bn7
I0108 14:10:12.977236 39915 net.cpp:129] Top shape: 200 4096 (819200)
I0108 14:10:12.977244 39915 net.cpp:137] Memory required for data: 2526672000
I0108 14:10:12.977258 39915 layer_factory.hpp:77] Creating layer scale7
I0108 14:10:12.977273 39915 net.cpp:84] Creating Layer scale7
I0108 14:10:12.977283 39915 net.cpp:406] scale7 <- fc7
I0108 14:10:12.977293 39915 net.cpp:367] scale7 -> fc7 (in-place)
I0108 14:10:12.977347 39915 layer_factory.hpp:77] Creating layer scale7
I0108 14:10:12.977473 39915 net.cpp:122] Setting up scale7
I0108 14:10:12.977490 39915 net.cpp:129] Top shape: 200 4096 (819200)
I0108 14:10:12.977499 39915 net.cpp:137] Memory required for data: 2529948800
I0108 14:10:12.977512 39915 layer_factory.hpp:77] Creating layer relu7
I0108 14:10:12.977525 39915 net.cpp:84] Creating Layer relu7
I0108 14:10:12.977535 39915 net.cpp:406] relu7 <- fc7
I0108 14:10:12.977545 39915 net.cpp:367] relu7 -> fc7 (in-place)
I0108 14:10:12.977558 39915 net.cpp:122] Setting up relu7
I0108 14:10:12.977568 39915 net.cpp:129] Top shape: 200 4096 (819200)
I0108 14:10:12.977577 39915 net.cpp:137] Memory required for data: 2533225600
I0108 14:10:12.977586 39915 layer_factory.hpp:77] Creating layer drop7
I0108 14:10:12.977599 39915 net.cpp:84] Creating Layer drop7
I0108 14:10:12.977609 39915 net.cpp:406] drop7 <- fc7
I0108 14:10:12.977620 39915 net.cpp:367] drop7 -> fc7 (in-place)
I0108 14:10:12.977653 39915 net.cpp:122] Setting up drop7
I0108 14:10:12.977666 39915 net.cpp:129] Top shape: 200 4096 (819200)
I0108 14:10:12.977675 39915 net.cpp:137] Memory required for data: 2536502400
I0108 14:10:12.977684 39915 layer_factory.hpp:77] Creating layer quantized_fc7
I0108 14:10:12.977699 39915 net.cpp:84] Creating Layer quantized_fc7
I0108 14:10:12.977707 39915 net.cpp:406] quantized_fc7 <- fc7
I0108 14:10:12.977720 39915 net.cpp:367] quantized_fc7 -> fc7 (in-place)
I0108 14:10:12.977732 39915 net.cpp:122] Setting up quantized_fc7
I0108 14:10:12.977742 39915 net.cpp:129] Top shape: 200 4096 (819200)
I0108 14:10:12.977751 39915 net.cpp:137] Memory required for data: 2539779200
I0108 14:10:12.977759 39915 layer_factory.hpp:77] Creating layer fc8
I0108 14:10:12.977774 39915 net.cpp:84] Creating Layer fc8
I0108 14:10:12.977783 39915 net.cpp:406] fc8 <- fc7
I0108 14:10:12.977797 39915 net.cpp:380] fc8 -> fc8
I0108 14:10:13.100702 39915 net.cpp:122] Setting up fc8
I0108 14:10:13.100756 39915 net.cpp:129] Top shape: 200 1000 (200000)
I0108 14:10:13.100766 39915 net.cpp:137] Memory required for data: 2540579200
I0108 14:10:13.100782 39915 layer_factory.hpp:77] Creating layer fc8_fc8_0_split
I0108 14:10:13.100800 39915 net.cpp:84] Creating Layer fc8_fc8_0_split
I0108 14:10:13.100812 39915 net.cpp:406] fc8_fc8_0_split <- fc8
I0108 14:10:13.100827 39915 net.cpp:380] fc8_fc8_0_split -> fc8_fc8_0_split_0
I0108 14:10:13.100847 39915 net.cpp:380] fc8_fc8_0_split -> fc8_fc8_0_split_1
I0108 14:10:13.100860 39915 net.cpp:380] fc8_fc8_0_split -> fc8_fc8_0_split_2
I0108 14:10:13.100924 39915 net.cpp:122] Setting up fc8_fc8_0_split
I0108 14:10:13.100978 39915 net.cpp:129] Top shape: 200 1000 (200000)
I0108 14:10:13.100988 39915 net.cpp:129] Top shape: 200 1000 (200000)
I0108 14:10:13.100997 39915 net.cpp:129] Top shape: 200 1000 (200000)
I0108 14:10:13.101006 39915 net.cpp:137] Memory required for data: 2542979200
I0108 14:10:13.101014 39915 layer_factory.hpp:77] Creating layer accuracy
I0108 14:10:13.101028 39915 net.cpp:84] Creating Layer accuracy
I0108 14:10:13.101037 39915 net.cpp:406] accuracy <- fc8_fc8_0_split_0
I0108 14:10:13.101047 39915 net.cpp:406] accuracy <- label_data_1_split_0
I0108 14:10:13.101059 39915 net.cpp:380] accuracy -> accuracy
…
