…
I0109 12:05:42.235592 55826 net.cpp:294] The NetState phase (0) differed from the phase (1) specified by a rule in layer accuracy_5
I0109 12:05:42.235848 55826 net.cpp:51] Initializing net from parameters: 
name: "AlexNet-BN"
state {
  phase: TRAIN
  level: 0
  stage: ""
}
layer {
  name: "data"
  type: "Data"
  top: "data"
  top: "label"
  include {
    phase: TRAIN
  }
  transform_param {
    mirror: true
    crop_size: 224
    mean_value: 103.939
    mean_value: 116.779
    mean_value: 123.68
  }
  data_param {
    source: "/home/ydwu/database/imagenet/ilsvrc12/lmdb_resize/ilsvrc12_train_lmdb"
    batch_size: 200
    backend: LMDB
  }
}
layer {
  name: "conv1"
  type: "Convolution"
  bottom: "data"
  top: "conv1"
  param {
    lr_mult: 1
    decay_mult: 1
  }
  param {
    lr_mult: 2
    decay_mult: 0
  }
  convolution_param {
    num_output: 96
    pad: 2
    kernel_size: 11
    stride: 4
    weight_filler {
      type: "gaussian"
      std: 0.01
    }
    bias_filler {
      type: "constant"
      value: 0
    }
  }
}
layer {
  name: "bn1"
  type: "BatchNorm"
  bottom: "conv1"
  top: "conv1"
}
layer {
  name: "scale1"
  type: "Scale"
  bottom: "conv1"
  top: "conv1"
  scale_param {
    bias_term: true
  }
}
layer {
  name: "relu1"
  type: "ReLU"
  bottom: "conv1"
  top: "conv1"
}
layer {
  name: "pool1"
  type: "Pooling"
  bottom: "conv1"
  top: "pool1"
  pooling_param {
    pool: MAX
    kernel_size: 3
    stride: 2
  }
}
layer {
  name: "quantized_conv1"
  type: "Quantization"
  bottom: "pool1"
  top: "pool1"
  quantization_param {
    round_method: FLOOR
    round_strategy: AGGRESSIVE
    bit_width: 4
    range: 0
    range: 5.586153
  }
}
layer {
  name: "conv2"
  type: "Convolution"
  bottom: "pool1"
  top: "conv2"
  param {
    lr_mult: 1
    decay_mult: 1
  }
  param {
    lr_mult: 2
    decay_mult: 0
  }
  convolution_param {
    num_output: 256
    pad: 2
    kernel_size: 5
    weight_filler {
      type: "gaussian"
      std: 0.01
    }
    bias_filler {
      type: "constant"
      value: 0.1
    }
  }
}
layer {
  name: "bn2"
  type: "BatchNorm"
  bottom: "conv2"
  top: "conv2"
}
layer {
  name: "scale2"
  type: "Scale"
  bottom: "conv2"
  top: "conv2"
  scale_param {
    bias_term: true
  }
}
layer {
  name: "relu2"
  type: "ReLU"
  bottom: "conv2"
  top: "conv2"
}
layer {
  name: "pool2"
  type: "Pooling"
  bottom: "conv2"
  top: "pool2"
  pooling_param {
    pool: MAX
    kernel_size: 3
    stride: 2
  }
}
layer {
  name: "quantized_conv2"
  type: "Quantization"
  bottom: "pool2"
  top: "pool2"
  quantization_param {
    round_method: FLOOR
    round_strategy: AGGRESSIVE
    bit_width: 4
    range: 0
    range: 2.6998241
  }
}
layer {
  name: "conv3"
  type: "Convolution"
  bottom: "pool2"
  top: "conv3"
  param {
    lr_mult: 1
    decay_mult: 1
  }
  param {
    lr_mult: 2
    decay_mult: 0
  }
  convolution_param {
    num_output: 384
    pad: 1
    kernel_size: 3
    weight_filler {
      type: "gaussian"
      std: 0.01
    }
    bias_filler {
      type: "constant"
      value: 0
    }
  }
}
layer {
  name: "bn3"
  type: "BatchNorm"
  bottom: "conv3"
  top: "conv3"
}
layer {
  name: "scale3"
  type: "Scale"
  bottom: "conv3"
  top: "conv3"
  scale_param {
    bias_term: true
  }
}
layer {
  name: "relu3"
  type: "ReLU"
  bottom: "conv3"
  top: "conv3"
}
layer {
  name: "quantized_conv3"
  type: "Quantization"
  bottom: "conv3"
  top: "conv3"
  quantization_param {
    round_method: FLOOR
    round_strategy: AGGRESSIVE
    bit_width: 4
    range: 0
    range: 3.393816
  }
}
layer {
  name: "conv4"
  type: "Convolution"
  bottom: "conv3"
  top: "conv4"
  param {
    lr_mult: 1
    decay_mult: 1
  }
  param {
    lr_mult: 2
    decay_mult: 0
  }
  convolution_param {
    num_output: 384
    pad: 1
    kernel_size: 3
    weight_filler {
      type: "gaussian"
      std: 0.01
    }
    bias_filler {
      type: "constant"
      value: 0.1
    }
  }
}
layer {
  name: "bn4"
  type: "BatchNorm"
  bottom: "conv4"
  top: "conv4"
}
layer {
  name: "scale4"
  type: "Scale"
  bottom: "conv4"
  top: "conv4"
  scale_param {
    bias_term: true
  }
}
layer {
  name: "relu4"
  type: "ReLU"
  bottom: "conv4"
  top: "conv4"
}
layer {
  name: "quantized_conv4"
  type: "Quantization"
  bottom: "conv4"
  top: "conv4"
  quantization_param {
    round_method: FLOOR
    round_strategy: AGGRESSIVE
    bit_width: 4
    range: 0
    range: 2.93478
  }
}
layer {
  name: "conv5"
  type: "Convolution"
  bottom: "conv4"
  top: "conv5"
  param {
    lr_mult: 1
    decay_mult: 1
  }
  param {
    lr_mult: 2
    decay_mult: 0
  }
  convolution_param {
    num_output: 256
    pad: 1
    kernel_size: 3
    weight_filler {
      type: "gaussian"
      std: 0.01
    }
    bias_filler {
      type: "constant"
      value: 0.1
    }
  }
}
layer {
  name: "bn5"
  type: "BatchNorm"
  bottom: "conv5"
  top: "conv5"
}
layer {
  name: "scale5"
  type: "Scale"
  bottom: "conv5"
  top: "conv5"
  scale_param {
    bias_term: true
  }
}
layer {
  name: "relu5"
  type: "ReLU"
  bottom: "conv5"
  top: "conv5"
}
layer {
  name: "pool5"
  type: "Pooling"
  bottom: "conv5"
  top: "pool5"
  pooling_param {
    pool: MAX
    kernel_size: 3
    stride: 2
  }
}
layer {
  name: "quantized_conv5"
  type: "Quantization"
  bottom: "pool5"
  top: "pool5"
  quantization_param {
    round_method: FLOOR
    round_strategy: AGGRESSIVE
    bit_width: 4
    range: 0
    range: 3.5030851
  }
}
layer {
  name: "fc6"
  type: "InnerProduct"
  bottom: "pool5"
  top: "fc6"
  param {
    lr_mult: 1
    decay_mult: 1
  }
  param {
    lr_mult: 2
    decay_mult: 0
  }
  inner_product_param {
    num_output: 4096
    weight_filler {
      type: "gaussian"
      std: 0.005
    }
    bias_filler {
      type: "constant"
      value: 0.1
    }
  }
}
layer {
  name: "bn6"
  type: "BatchNorm"
  bottom: "fc6"
  top: "fc6"
}
layer {
  name: "scale6"
  type: "Scale"
  bottom: "fc6"
  top: "fc6"
  scale_param {
    bias_term: true
  }
}
layer {
  name: "relu6"
  type: "ReLU"
  bottom: "fc6"
  top: "fc6"
}
layer {
  name: "drop6"
  type: "Dropout"
  bottom: "fc6"
  top: "fc6"
  dropout_param {
    dropout_ratio: 0.5
  }
}
layer {
  name: "quantized_fc6"
  type: "Quantization"
  bottom: "fc6"
  top: "fc6"
  quantization_param {
    round_method: FLOOR
    round_strategy: AGGRESSIVE
    bit_width: 4
    range: 0
    range: 0.6637432
  }
}
layer {
  name: "fc7"
  type: "InnerProduct"
  bottom: "fc6"
  top: "fc7"
  param {
    lr_mult: 1
    decay_mult: 1
  }
  param {
    lr_mult: 2
    decay_mult: 0
  }
  inner_product_param {
    num_output: 4096
    weight_filler {
      type: "gaussian"
      std: 0.005
    }
    bias_filler {
      type: "constant"
      value: 0.1
    }
  }
}
layer {
  name: "bn7"
  type: "BatchNorm"
  bottom: "fc7"
  top: "fc7"
}
layer {
  name: "scale7"
  type: "Scale"
  bottom: "fc7"
  top: "fc7"
  scale_param {
    bias_term: true
  }
}
layer {
  name: "relu7"
  type: "ReLU"
  bottom: "fc7"
  top: "fc7"
}
layer {
  name: "drop7"
  type: "Dropout"
  bottom: "fc7"
  top: "fc7"
  dropout_param {
    dropout_ratio: 0.5
  }
}
layer {
  name: "quantized_fc7"
  type: "Quantization"
  bottom: "fc7"
  top: "fc7"
  quantization_param {
    round_method: FLOOR
    round_strategy: AGGRESSIVE
    bit_width: 4
    range: 0
    range: 3.0239408
  }
}
layer {
  name: "fc8"
  type: "InnerProduct"
  bottom: "fc7"
  top: "fc8"
  param {
    lr_mult: 1
    decay_mult: 1
  }
  param {
    lr_mult: 2
    decay_mult: 0
  }
  inner_product_param {
    num_output: 1000
    weight_filler {
      type: "gaussian"
      std: 0.01
    }
    bias_filler {
      type: "constant"
      value: 0
    }
  }
}
layer {
  name: "accuracy_5_TRAIN"
  type: "Accuracy"
  bottom: "fc8"
  bottom: "label"
  top: "accuracy_5_TRAIN"
  include {
    phase: TRAIN
  }
  accuracy_param {
    top_k: 5
  }
}
layer {
  name: "loss"
  type: "SoftmaxWithLoss"
  bottom: "fc8"
  bottom: "label"
  top: "loss"
}
I0109 12:05:42.236196 55826 layer_factory.hpp:77] Creating layer data
I0109 12:05:42.236342 55826 db_lmdb.cpp:35] Opened lmdb /home/ydwu/database/imagenet/ilsvrc12/lmdb_resize/ilsvrc12_train_lmdb
I0109 12:05:42.236413 55826 net.cpp:84] Creating Layer data
I0109 12:05:42.236443 55826 net.cpp:380] data -> data
I0109 12:05:42.236485 55826 net.cpp:380] data -> label
I0109 12:05:42.238713 55826 data_layer.cpp:45] output data size: 200,3,224,224
I0109 12:05:42.600715 55826 net.cpp:122] Setting up data
I0109 12:05:42.600812 55826 net.cpp:129] Top shape: 200 3 224 224 (30105600)
I0109 12:05:42.600828 55826 net.cpp:129] Top shape: 200 (200)
I0109 12:05:42.600838 55826 net.cpp:137] Memory required for data: 120423200
I0109 12:05:42.600857 55826 layer_factory.hpp:77] Creating layer label_data_1_split
I0109 12:05:42.600883 55826 net.cpp:84] Creating Layer label_data_1_split
I0109 12:05:42.600896 55826 net.cpp:406] label_data_1_split <- label
I0109 12:05:42.600922 55826 net.cpp:380] label_data_1_split -> label_data_1_split_0
I0109 12:05:42.600945 55826 net.cpp:380] label_data_1_split -> label_data_1_split_1
I0109 12:05:42.601019 55826 net.cpp:122] Setting up label_data_1_split
I0109 12:05:42.601035 55826 net.cpp:129] Top shape: 200 (200)
I0109 12:05:42.601045 55826 net.cpp:129] Top shape: 200 (200)
I0109 12:05:42.601054 55826 net.cpp:137] Memory required for data: 120424800
I0109 12:05:42.601063 55826 layer_factory.hpp:77] Creating layer conv1
I0109 12:05:42.601094 55826 net.cpp:84] Creating Layer conv1
I0109 12:05:42.601104 55826 net.cpp:406] conv1 <- data
I0109 12:05:42.601119 55826 net.cpp:380] conv1 -> conv1
I0109 12:05:42.622503 55826 net.cpp:122] Setting up conv1
I0109 12:05:42.622551 55826 net.cpp:129] Top shape: 200 96 55 55 (58080000)
I0109 12:05:42.622563 55826 net.cpp:137] Memory required for data: 352744800
I0109 12:05:42.622592 55826 layer_factory.hpp:77] Creating layer bn1
I0109 12:05:42.622615 55826 net.cpp:84] Creating Layer bn1
I0109 12:05:42.622627 55826 net.cpp:406] bn1 <- conv1
I0109 12:05:42.622640 55826 net.cpp:367] bn1 -> conv1 (in-place)
I0109 12:05:42.622833 55826 net.cpp:122] Setting up bn1
I0109 12:05:42.622851 55826 net.cpp:129] Top shape: 200 96 55 55 (58080000)
I0109 12:05:42.622860 55826 net.cpp:137] Memory required for data: 585064800
I0109 12:05:42.622877 55826 layer_factory.hpp:77] Creating layer scale1
I0109 12:05:42.622897 55826 net.cpp:84] Creating Layer scale1
I0109 12:05:42.622907 55826 net.cpp:406] scale1 <- conv1
I0109 12:05:42.622918 55826 net.cpp:367] scale1 -> conv1 (in-place)
I0109 12:05:42.622992 55826 layer_factory.hpp:77] Creating layer scale1
I0109 12:05:42.623126 55826 net.cpp:122] Setting up scale1
I0109 12:05:42.623144 55826 net.cpp:129] Top shape: 200 96 55 55 (58080000)
I0109 12:05:42.623153 55826 net.cpp:137] Memory required for data: 817384800
I0109 12:05:42.623167 55826 layer_factory.hpp:77] Creating layer relu1
I0109 12:05:42.623183 55826 net.cpp:84] Creating Layer relu1
I0109 12:05:42.623193 55826 net.cpp:406] relu1 <- conv1
I0109 12:05:42.623203 55826 net.cpp:367] relu1 -> conv1 (in-place)
I0109 12:05:42.623217 55826 net.cpp:122] Setting up relu1
I0109 12:05:42.623229 55826 net.cpp:129] Top shape: 200 96 55 55 (58080000)
I0109 12:05:42.623239 55826 net.cpp:137] Memory required for data: 1049704800
I0109 12:05:42.623247 55826 layer_factory.hpp:77] Creating layer pool1
I0109 12:05:42.623260 55826 net.cpp:84] Creating Layer pool1
I0109 12:05:42.623270 55826 net.cpp:406] pool1 <- conv1
I0109 12:05:42.623318 55826 net.cpp:380] pool1 -> pool1
I0109 12:05:42.623380 55826 net.cpp:122] Setting up pool1
I0109 12:05:42.623397 55826 net.cpp:129] Top shape: 200 96 27 27 (13996800)
I0109 12:05:42.623406 55826 net.cpp:137] Memory required for data: 1105692000
I0109 12:05:42.623415 55826 layer_factory.hpp:77] Creating layer quantized_conv1
I0109 12:05:42.623431 55826 net.cpp:84] Creating Layer quantized_conv1
I0109 12:05:42.623441 55826 net.cpp:406] quantized_conv1 <- pool1
I0109 12:05:42.623453 55826 net.cpp:367] quantized_conv1 -> pool1 (in-place)
I0109 12:05:42.623469 55826 net.cpp:122] Setting up quantized_conv1
I0109 12:05:42.623481 55826 net.cpp:129] Top shape: 200 96 27 27 (13996800)
I0109 12:05:42.623491 55826 net.cpp:137] Memory required for data: 1161679200
I0109 12:05:42.623499 55826 layer_factory.hpp:77] Creating layer conv2
I0109 12:05:42.623518 55826 net.cpp:84] Creating Layer conv2
I0109 12:05:42.623529 55826 net.cpp:406] conv2 <- pool1
I0109 12:05:42.623541 55826 net.cpp:380] conv2 -> conv2
I0109 12:05:42.644326 55826 net.cpp:122] Setting up conv2
I0109 12:05:42.644371 55826 net.cpp:129] Top shape: 200 256 27 27 (37324800)
I0109 12:05:42.644382 55826 net.cpp:137] Memory required for data: 1310978400
I0109 12:05:42.644402 55826 layer_factory.hpp:77] Creating layer bn2
I0109 12:05:42.644423 55826 net.cpp:84] Creating Layer bn2
I0109 12:05:42.644433 55826 net.cpp:406] bn2 <- conv2
I0109 12:05:42.644448 55826 net.cpp:367] bn2 -> conv2 (in-place)
I0109 12:05:42.644621 55826 net.cpp:122] Setting up bn2
I0109 12:05:42.644641 55826 net.cpp:129] Top shape: 200 256 27 27 (37324800)
I0109 12:05:42.644650 55826 net.cpp:137] Memory required for data: 1460277600
I0109 12:05:42.644665 55826 layer_factory.hpp:77] Creating layer scale2
I0109 12:05:42.644680 55826 net.cpp:84] Creating Layer scale2
I0109 12:05:42.644690 55826 net.cpp:406] scale2 <- conv2
I0109 12:05:42.644701 55826 net.cpp:367] scale2 -> conv2 (in-place)
I0109 12:05:42.644757 55826 layer_factory.hpp:77] Creating layer scale2
I0109 12:05:42.644866 55826 net.cpp:122] Setting up scale2
I0109 12:05:42.644883 55826 net.cpp:129] Top shape: 200 256 27 27 (37324800)
I0109 12:05:42.644892 55826 net.cpp:137] Memory required for data: 1609576800
I0109 12:05:42.644904 55826 layer_factory.hpp:77] Creating layer relu2
I0109 12:05:42.644918 55826 net.cpp:84] Creating Layer relu2
I0109 12:05:42.644927 55826 net.cpp:406] relu2 <- conv2
I0109 12:05:42.644938 55826 net.cpp:367] relu2 -> conv2 (in-place)
I0109 12:05:42.644951 55826 net.cpp:122] Setting up relu2
I0109 12:05:42.644963 55826 net.cpp:129] Top shape: 200 256 27 27 (37324800)
I0109 12:05:42.644970 55826 net.cpp:137] Memory required for data: 1758876000
I0109 12:05:42.644979 55826 layer_factory.hpp:77] Creating layer pool2
I0109 12:05:42.644992 55826 net.cpp:84] Creating Layer pool2
I0109 12:05:42.645001 55826 net.cpp:406] pool2 <- conv2
I0109 12:05:42.645014 55826 net.cpp:380] pool2 -> pool2
I0109 12:05:42.645061 55826 net.cpp:122] Setting up pool2
I0109 12:05:42.645076 55826 net.cpp:129] Top shape: 200 256 13 13 (8652800)
I0109 12:05:42.645086 55826 net.cpp:137] Memory required for data: 1793487200
I0109 12:05:42.645093 55826 layer_factory.hpp:77] Creating layer quantized_conv2
I0109 12:05:42.645107 55826 net.cpp:84] Creating Layer quantized_conv2
I0109 12:05:42.645117 55826 net.cpp:406] quantized_conv2 <- pool2
I0109 12:05:42.645129 55826 net.cpp:367] quantized_conv2 -> pool2 (in-place)
I0109 12:05:42.645143 55826 net.cpp:122] Setting up quantized_conv2
I0109 12:05:42.645153 55826 net.cpp:129] Top shape: 200 256 13 13 (8652800)
I0109 12:05:42.645162 55826 net.cpp:137] Memory required for data: 1828098400
I0109 12:05:42.645172 55826 layer_factory.hpp:77] Creating layer conv3
I0109 12:05:42.645190 55826 net.cpp:84] Creating Layer conv3
I0109 12:05:42.645200 55826 net.cpp:406] conv3 <- pool2
I0109 12:05:42.645213 55826 net.cpp:380] conv3 -> conv3
I0109 12:05:42.673027 55826 net.cpp:122] Setting up conv3
I0109 12:05:42.673080 55826 net.cpp:129] Top shape: 200 384 13 13 (12979200)
I0109 12:05:42.673090 55826 net.cpp:137] Memory required for data: 1880015200
I0109 12:05:42.673148 55826 layer_factory.hpp:77] Creating layer bn3
I0109 12:05:42.673169 55826 net.cpp:84] Creating Layer bn3
I0109 12:05:42.673180 55826 net.cpp:406] bn3 <- conv3
I0109 12:05:42.673194 55826 net.cpp:367] bn3 -> conv3 (in-place)
I0109 12:05:42.673369 55826 net.cpp:122] Setting up bn3
I0109 12:05:42.673387 55826 net.cpp:129] Top shape: 200 384 13 13 (12979200)
I0109 12:05:42.673395 55826 net.cpp:137] Memory required for data: 1931932000
I0109 12:05:42.673416 55826 layer_factory.hpp:77] Creating layer scale3
I0109 12:05:42.673434 55826 net.cpp:84] Creating Layer scale3
I0109 12:05:42.673444 55826 net.cpp:406] scale3 <- conv3
I0109 12:05:42.673455 55826 net.cpp:367] scale3 -> conv3 (in-place)
I0109 12:05:42.673508 55826 layer_factory.hpp:77] Creating layer scale3
I0109 12:05:42.673622 55826 net.cpp:122] Setting up scale3
I0109 12:05:42.673640 55826 net.cpp:129] Top shape: 200 384 13 13 (12979200)
I0109 12:05:42.673648 55826 net.cpp:137] Memory required for data: 1983848800
I0109 12:05:42.673660 55826 layer_factory.hpp:77] Creating layer relu3
I0109 12:05:42.673674 55826 net.cpp:84] Creating Layer relu3
I0109 12:05:42.673683 55826 net.cpp:406] relu3 <- conv3
I0109 12:05:42.673694 55826 net.cpp:367] relu3 -> conv3 (in-place)
I0109 12:05:42.673707 55826 net.cpp:122] Setting up relu3
I0109 12:05:42.673717 55826 net.cpp:129] Top shape: 200 384 13 13 (12979200)
I0109 12:05:42.673727 55826 net.cpp:137] Memory required for data: 2035765600
I0109 12:05:42.673734 55826 layer_factory.hpp:77] Creating layer quantized_conv3
I0109 12:05:42.673748 55826 net.cpp:84] Creating Layer quantized_conv3
I0109 12:05:42.673756 55826 net.cpp:406] quantized_conv3 <- conv3
I0109 12:05:42.673768 55826 net.cpp:367] quantized_conv3 -> conv3 (in-place)
I0109 12:05:42.673780 55826 net.cpp:122] Setting up quantized_conv3
I0109 12:05:42.673790 55826 net.cpp:129] Top shape: 200 384 13 13 (12979200)
I0109 12:05:42.673799 55826 net.cpp:137] Memory required for data: 2087682400
I0109 12:05:42.673808 55826 layer_factory.hpp:77] Creating layer conv4
I0109 12:05:42.673825 55826 net.cpp:84] Creating Layer conv4
I0109 12:05:42.673835 55826 net.cpp:406] conv4 <- conv3
I0109 12:05:42.673849 55826 net.cpp:380] conv4 -> conv4
I0109 12:05:42.715597 55826 net.cpp:122] Setting up conv4
I0109 12:05:42.715664 55826 net.cpp:129] Top shape: 200 384 13 13 (12979200)
I0109 12:05:42.715675 55826 net.cpp:137] Memory required for data: 2139599200
I0109 12:05:42.715692 55826 layer_factory.hpp:77] Creating layer bn4
I0109 12:05:42.715714 55826 net.cpp:84] Creating Layer bn4
I0109 12:05:42.715726 55826 net.cpp:406] bn4 <- conv4
I0109 12:05:42.715741 55826 net.cpp:367] bn4 -> conv4 (in-place)
I0109 12:05:42.715917 55826 net.cpp:122] Setting up bn4
I0109 12:05:42.715934 55826 net.cpp:129] Top shape: 200 384 13 13 (12979200)
I0109 12:05:42.715943 55826 net.cpp:137] Memory required for data: 2191516000
I0109 12:05:42.715957 55826 layer_factory.hpp:77] Creating layer scale4
I0109 12:05:42.715975 55826 net.cpp:84] Creating Layer scale4
I0109 12:05:42.715986 55826 net.cpp:406] scale4 <- conv4
I0109 12:05:42.715996 55826 net.cpp:367] scale4 -> conv4 (in-place)
I0109 12:05:42.716048 55826 layer_factory.hpp:77] Creating layer scale4
I0109 12:05:42.716173 55826 net.cpp:122] Setting up scale4
I0109 12:05:42.716190 55826 net.cpp:129] Top shape: 200 384 13 13 (12979200)
I0109 12:05:42.716199 55826 net.cpp:137] Memory required for data: 2243432800
I0109 12:05:42.716212 55826 layer_factory.hpp:77] Creating layer relu4
I0109 12:05:42.716225 55826 net.cpp:84] Creating Layer relu4
I0109 12:05:42.716234 55826 net.cpp:406] relu4 <- conv4
I0109 12:05:42.716245 55826 net.cpp:367] relu4 -> conv4 (in-place)
I0109 12:05:42.716258 55826 net.cpp:122] Setting up relu4
I0109 12:05:42.716269 55826 net.cpp:129] Top shape: 200 384 13 13 (12979200)
I0109 12:05:42.716276 55826 net.cpp:137] Memory required for data: 2295349600
I0109 12:05:42.716285 55826 layer_factory.hpp:77] Creating layer quantized_conv4
I0109 12:05:42.716301 55826 net.cpp:84] Creating Layer quantized_conv4
I0109 12:05:42.716352 55826 net.cpp:406] quantized_conv4 <- conv4
I0109 12:05:42.716364 55826 net.cpp:367] quantized_conv4 -> conv4 (in-place)
I0109 12:05:42.716377 55826 net.cpp:122] Setting up quantized_conv4
I0109 12:05:42.716389 55826 net.cpp:129] Top shape: 200 384 13 13 (12979200)
I0109 12:05:42.716398 55826 net.cpp:137] Memory required for data: 2347266400
I0109 12:05:42.716406 55826 layer_factory.hpp:77] Creating layer conv5
I0109 12:05:42.716428 55826 net.cpp:84] Creating Layer conv5
I0109 12:05:42.716437 55826 net.cpp:406] conv5 <- conv4
I0109 12:05:42.716449 55826 net.cpp:380] conv5 -> conv5
I0109 12:05:42.744499 55826 net.cpp:122] Setting up conv5
I0109 12:05:42.744552 55826 net.cpp:129] Top shape: 200 256 13 13 (8652800)
I0109 12:05:42.744563 55826 net.cpp:137] Memory required for data: 2381877600
I0109 12:05:42.744578 55826 layer_factory.hpp:77] Creating layer bn5
I0109 12:05:42.744601 55826 net.cpp:84] Creating Layer bn5
I0109 12:05:42.744613 55826 net.cpp:406] bn5 <- conv5
I0109 12:05:42.744627 55826 net.cpp:367] bn5 -> conv5 (in-place)
I0109 12:05:42.744823 55826 net.cpp:122] Setting up bn5
I0109 12:05:42.744840 55826 net.cpp:129] Top shape: 200 256 13 13 (8652800)
I0109 12:05:42.744849 55826 net.cpp:137] Memory required for data: 2416488800
I0109 12:05:42.744874 55826 layer_factory.hpp:77] Creating layer scale5
I0109 12:05:42.744889 55826 net.cpp:84] Creating Layer scale5
I0109 12:05:42.744897 55826 net.cpp:406] scale5 <- conv5
I0109 12:05:42.744909 55826 net.cpp:367] scale5 -> conv5 (in-place)
I0109 12:05:42.744969 55826 layer_factory.hpp:77] Creating layer scale5
I0109 12:05:42.745095 55826 net.cpp:122] Setting up scale5
I0109 12:05:42.745112 55826 net.cpp:129] Top shape: 200 256 13 13 (8652800)
I0109 12:05:42.745121 55826 net.cpp:137] Memory required for data: 2451100000
I0109 12:05:42.745134 55826 layer_factory.hpp:77] Creating layer relu5
I0109 12:05:42.745148 55826 net.cpp:84] Creating Layer relu5
I0109 12:05:42.745157 55826 net.cpp:406] relu5 <- conv5
I0109 12:05:42.745172 55826 net.cpp:367] relu5 -> conv5 (in-place)
I0109 12:05:42.745184 55826 net.cpp:122] Setting up relu5
I0109 12:05:42.745195 55826 net.cpp:129] Top shape: 200 256 13 13 (8652800)
I0109 12:05:42.745204 55826 net.cpp:137] Memory required for data: 2485711200
I0109 12:05:42.745213 55826 layer_factory.hpp:77] Creating layer pool5
I0109 12:05:42.745226 55826 net.cpp:84] Creating Layer pool5
I0109 12:05:42.745235 55826 net.cpp:406] pool5 <- conv5
I0109 12:05:42.745249 55826 net.cpp:380] pool5 -> pool5
I0109 12:05:42.745299 55826 net.cpp:122] Setting up pool5
I0109 12:05:42.745316 55826 net.cpp:129] Top shape: 200 256 6 6 (1843200)
I0109 12:05:42.745324 55826 net.cpp:137] Memory required for data: 2493084000
I0109 12:05:42.745333 55826 layer_factory.hpp:77] Creating layer quantized_conv5
I0109 12:05:42.745347 55826 net.cpp:84] Creating Layer quantized_conv5
I0109 12:05:42.745357 55826 net.cpp:406] quantized_conv5 <- pool5
I0109 12:05:42.745367 55826 net.cpp:367] quantized_conv5 -> pool5 (in-place)
I0109 12:05:42.745380 55826 net.cpp:122] Setting up quantized_conv5
I0109 12:05:42.745390 55826 net.cpp:129] Top shape: 200 256 6 6 (1843200)
I0109 12:05:42.745399 55826 net.cpp:137] Memory required for data: 2500456800
I0109 12:05:42.745409 55826 layer_factory.hpp:77] Creating layer fc6
I0109 12:05:42.745429 55826 net.cpp:84] Creating Layer fc6
I0109 12:05:42.745440 55826 net.cpp:406] fc6 <- pool5
I0109 12:05:42.745453 55826 net.cpp:380] fc6 -> fc6
I0109 12:05:43.881252 55826 net.cpp:122] Setting up fc6
I0109 12:05:43.881359 55826 net.cpp:129] Top shape: 200 4096 (819200)
I0109 12:05:43.881374 55826 net.cpp:137] Memory required for data: 2503733600
I0109 12:05:43.881392 55826 layer_factory.hpp:77] Creating layer bn6
I0109 12:05:43.881412 55826 net.cpp:84] Creating Layer bn6
I0109 12:05:43.881423 55826 net.cpp:406] bn6 <- fc6
I0109 12:05:43.881439 55826 net.cpp:367] bn6 -> fc6 (in-place)
I0109 12:05:43.881631 55826 net.cpp:122] Setting up bn6
I0109 12:05:43.881649 55826 net.cpp:129] Top shape: 200 4096 (819200)
I0109 12:05:43.881657 55826 net.cpp:137] Memory required for data: 2507010400
I0109 12:05:43.881711 55826 layer_factory.hpp:77] Creating layer scale6
I0109 12:05:43.881731 55826 net.cpp:84] Creating Layer scale6
I0109 12:05:43.881742 55826 net.cpp:406] scale6 <- fc6
I0109 12:05:43.881754 55826 net.cpp:367] scale6 -> fc6 (in-place)
I0109 12:05:43.881805 55826 layer_factory.hpp:77] Creating layer scale6
I0109 12:05:43.881928 55826 net.cpp:122] Setting up scale6
I0109 12:05:43.881947 55826 net.cpp:129] Top shape: 200 4096 (819200)
I0109 12:05:43.881954 55826 net.cpp:137] Memory required for data: 2510287200
I0109 12:05:43.881966 55826 layer_factory.hpp:77] Creating layer relu6
I0109 12:05:43.881979 55826 net.cpp:84] Creating Layer relu6
I0109 12:05:43.881989 55826 net.cpp:406] relu6 <- fc6
I0109 12:05:43.881999 55826 net.cpp:367] relu6 -> fc6 (in-place)
I0109 12:05:43.882010 55826 net.cpp:122] Setting up relu6
I0109 12:05:43.882020 55826 net.cpp:129] Top shape: 200 4096 (819200)
I0109 12:05:43.882028 55826 net.cpp:137] Memory required for data: 2513564000
I0109 12:05:43.882036 55826 layer_factory.hpp:77] Creating layer drop6
I0109 12:05:43.882055 55826 net.cpp:84] Creating Layer drop6
I0109 12:05:43.882064 55826 net.cpp:406] drop6 <- fc6
I0109 12:05:43.882081 55826 net.cpp:367] drop6 -> fc6 (in-place)
I0109 12:05:43.882122 55826 net.cpp:122] Setting up drop6
I0109 12:05:43.882140 55826 net.cpp:129] Top shape: 200 4096 (819200)
I0109 12:05:43.882148 55826 net.cpp:137] Memory required for data: 2516840800
I0109 12:05:43.882158 55826 layer_factory.hpp:77] Creating layer quantized_fc6
I0109 12:05:43.882170 55826 net.cpp:84] Creating Layer quantized_fc6
I0109 12:05:43.882179 55826 net.cpp:406] quantized_fc6 <- fc6
I0109 12:05:43.882189 55826 net.cpp:367] quantized_fc6 -> fc6 (in-place)
I0109 12:05:43.882201 55826 net.cpp:122] Setting up quantized_fc6
I0109 12:05:43.882211 55826 net.cpp:129] Top shape: 200 4096 (819200)
I0109 12:05:43.882220 55826 net.cpp:137] Memory required for data: 2520117600
I0109 12:05:43.882228 55826 layer_factory.hpp:77] Creating layer fc7
I0109 12:05:43.882244 55826 net.cpp:84] Creating Layer fc7
I0109 12:05:43.882253 55826 net.cpp:406] fc7 <- fc6
I0109 12:05:43.882264 55826 net.cpp:380] fc7 -> fc7
I0109 12:05:44.370442 55826 net.cpp:122] Setting up fc7
I0109 12:05:44.370543 55826 net.cpp:129] Top shape: 200 4096 (819200)
I0109 12:05:44.370558 55826 net.cpp:137] Memory required for data: 2523394400
I0109 12:05:44.370575 55826 layer_factory.hpp:77] Creating layer bn7
I0109 12:05:44.370595 55826 net.cpp:84] Creating Layer bn7
I0109 12:05:44.370607 55826 net.cpp:406] bn7 <- fc7
I0109 12:05:44.370620 55826 net.cpp:367] bn7 -> fc7 (in-place)
I0109 12:05:44.370810 55826 net.cpp:122] Setting up bn7
I0109 12:05:44.370827 55826 net.cpp:129] Top shape: 200 4096 (819200)
I0109 12:05:44.370836 55826 net.cpp:137] Memory required for data: 2526671200
I0109 12:05:44.370848 55826 layer_factory.hpp:77] Creating layer scale7
I0109 12:05:44.370862 55826 net.cpp:84] Creating Layer scale7
I0109 12:05:44.370872 55826 net.cpp:406] scale7 <- fc7
I0109 12:05:44.370882 55826 net.cpp:367] scale7 -> fc7 (in-place)
I0109 12:05:44.370934 55826 layer_factory.hpp:77] Creating layer scale7
I0109 12:05:44.371073 55826 net.cpp:122] Setting up scale7
I0109 12:05:44.371090 55826 net.cpp:129] Top shape: 200 4096 (819200)
I0109 12:05:44.371099 55826 net.cpp:137] Memory required for data: 2529948000
I0109 12:05:44.371111 55826 layer_factory.hpp:77] Creating layer relu7
I0109 12:05:44.371126 55826 net.cpp:84] Creating Layer relu7
I0109 12:05:44.371135 55826 net.cpp:406] relu7 <- fc7
I0109 12:05:44.371147 55826 net.cpp:367] relu7 -> fc7 (in-place)
I0109 12:05:44.371160 55826 net.cpp:122] Setting up relu7
I0109 12:05:44.371170 55826 net.cpp:129] Top shape: 200 4096 (819200)
I0109 12:05:44.371177 55826 net.cpp:137] Memory required for data: 2533224800
I0109 12:05:44.371186 55826 layer_factory.hpp:77] Creating layer drop7
I0109 12:05:44.371198 55826 net.cpp:84] Creating Layer drop7
I0109 12:05:44.371207 55826 net.cpp:406] drop7 <- fc7
I0109 12:05:44.371217 55826 net.cpp:367] drop7 -> fc7 (in-place)
I0109 12:05:44.371285 55826 net.cpp:122] Setting up drop7
I0109 12:05:44.371304 55826 net.cpp:129] Top shape: 200 4096 (819200)
I0109 12:05:44.371312 55826 net.cpp:137] Memory required for data: 2536501600
I0109 12:05:44.371320 55826 layer_factory.hpp:77] Creating layer quantized_fc7
I0109 12:05:44.371333 55826 net.cpp:84] Creating Layer quantized_fc7
I0109 12:05:44.371342 55826 net.cpp:406] quantized_fc7 <- fc7
I0109 12:05:44.371356 55826 net.cpp:367] quantized_fc7 -> fc7 (in-place)
I0109 12:05:44.371367 55826 net.cpp:122] Setting up quantized_fc7
I0109 12:05:44.371377 55826 net.cpp:129] Top shape: 200 4096 (819200)
I0109 12:05:44.371385 55826 net.cpp:137] Memory required for data: 2539778400
I0109 12:05:44.371393 55826 layer_factory.hpp:77] Creating layer fc8
I0109 12:05:44.371407 55826 net.cpp:84] Creating Layer fc8
I0109 12:05:44.371417 55826 net.cpp:406] fc8 <- fc7
I0109 12:05:44.371428 55826 net.cpp:380] fc8 -> fc8
I0109 12:05:44.493574 55826 net.cpp:122] Setting up fc8
I0109 12:05:44.493664 55826 net.cpp:129] Top shape: 200 1000 (200000)
I0109 12:05:44.493679 55826 net.cpp:137] Memory required for data: 2540578400
I0109 12:05:44.493696 55826 layer_factory.hpp:77] Creating layer fc8_fc8_0_split
I0109 12:05:44.493715 55826 net.cpp:84] Creating Layer fc8_fc8_0_split
I0109 12:05:44.493726 55826 net.cpp:406] fc8_fc8_0_split <- fc8
I0109 12:05:44.493742 55826 net.cpp:380] fc8_fc8_0_split -> fc8_fc8_0_split_0
I0109 12:05:44.493760 55826 net.cpp:380] fc8_fc8_0_split -> fc8_fc8_0_split_1
I0109 12:05:44.493821 55826 net.cpp:122] Setting up fc8_fc8_0_split
I0109 12:05:44.493837 55826 net.cpp:129] Top shape: 200 1000 (200000)
I0109 12:05:44.493847 55826 net.cpp:129] Top shape: 200 1000 (200000)
I0109 12:05:44.493855 55826 net.cpp:137] Memory required for data: 2542178400
I0109 12:05:44.493865 55826 layer_factory.hpp:77] Creating layer accuracy_5_TRAIN
I0109 12:05:44.493886 55826 net.cpp:84] Creating Layer accuracy_5_TRAIN
I0109 12:05:44.493896 55826 net.cpp:406] accuracy_5_TRAIN <- fc8_fc8_0_split_0
I0109 12:05:44.493906 55826 net.cpp:406] accuracy_5_TRAIN <- label_data_1_split_0
…
I0109 12:05:44.496951 55826 net.cpp:294] The NetState phase (1) differed from the phase (0) specified by a rule in layer accuracy_5_TRAIN
I0109 12:05:44.497189 55826 net.cpp:51] Initializing net from parameters: 
name: "AlexNet-BN"
state {
  phase: TEST
}
layer {
  name: "data"
  type: "Data"
  top: "data"
  top: "label"
  include {
    phase: TEST
  }
  transform_param {
    mirror: false
    crop_size: 224
    mean_value: 103.939
    mean_value: 116.779
    mean_value: 123.68
  }
  data_param {
    source: "/home/ydwu/database/imagenet/ilsvrc12/lmdb_resize/ilsvrc12_val_lmdb"
    batch_size: 200
    backend: LMDB
  }
}
layer {
  name: "conv1"
  type: "Convolution"
  bottom: "data"
  top: "conv1"
  param {
    lr_mult: 1
    decay_mult: 1
  }
  param {
    lr_mult: 2
    decay_mult: 0
  }
  convolution_param {
    num_output: 96
    pad: 2
    kernel_size: 11
    stride: 4
    weight_filler {
      type: "gaussian"
      std: 0.01
    }
    bias_filler {
      type: "constant"
      value: 0
    }
  }
}
layer {
  name: "bn1"
  type: "BatchNorm"
  bottom: "conv1"
  top: "conv1"
}
layer {
  name: "scale1"
  type: "Scale"
  bottom: "conv1"
  top: "conv1"
  scale_param {
    bias_term: true
  }
}
layer {
  name: "relu1"
  type: "ReLU"
  bottom: "conv1"
  top: "conv1"
}
layer {
  name: "pool1"
  type: "Pooling"
  bottom: "conv1"
  top: "pool1"
  pooling_param {
    pool: MAX
    kernel_size: 3
    stride: 2
  }
}
layer {
  name: "quantized_conv1"
  type: "Quantization"
  bottom: "pool1"
  top: "pool1"
  quantization_param {
    round_method: FLOOR
    round_strategy: AGGRESSIVE
    bit_width: 4
    range: 0
    range: 5.586153
  }
}
layer {
  name: "conv2"
  type: "Convolution"
  bottom: "pool1"
  top: "conv2"
  param {
    lr_mult: 1
    decay_mult: 1
  }
  param {
    lr_mult: 2
    decay_mult: 0
  }
  convolution_param {
    num_output: 256
    pad: 2
    kernel_size: 5
    weight_filler {
      type: "gaussian"
      std: 0.01
    }
    bias_filler {
      type: "constant"
      value: 0.1
    }
  }
}
layer {
  name: "bn2"
  type: "BatchNorm"
  bottom: "conv2"
  top: "conv2"
}
layer {
  name: "scale2"
  type: "Scale"
  bottom: "conv2"
  top: "conv2"
  scale_param {
    bias_term: true
  }
}
layer {
  name: "relu2"
  type: "ReLU"
  bottom: "conv2"
  top: "conv2"
}
layer {
  name: "pool2"
  type: "Pooling"
  bottom: "conv2"
  top: "pool2"
  pooling_param {
    pool: MAX
    kernel_size: 3
    stride: 2
  }
}
layer {
  name: "quantized_conv2"
  type: "Quantization"
  bottom: "pool2"
  top: "pool2"
  quantization_param {
    round_method: FLOOR
    round_strategy: AGGRESSIVE
    bit_width: 4
    range: 0
    range: 2.6998241
  }
}
layer {
  name: "conv3"
  type: "Convolution"
  bottom: "pool2"
  top: "conv3"
  param {
    lr_mult: 1
    decay_mult: 1
  }
  param {
    lr_mult: 2
    decay_mult: 0
  }
  convolution_param {
    num_output: 384
    pad: 1
    kernel_size: 3
    weight_filler {
      type: "gaussian"
      std: 0.01
    }
    bias_filler {
      type: "constant"
      value: 0
    }
  }
}
layer {
  name: "bn3"
  type: "BatchNorm"
  bottom: "conv3"
  top: "conv3"
}
layer {
  name: "scale3"
  type: "Scale"
  bottom: "conv3"
  top: "conv3"
  scale_param {
    bias_term: true
  }
}
layer {
  name: "relu3"
  type: "ReLU"
  bottom: "conv3"
  top: "conv3"
}
layer {
  name: "quantized_conv3"
  type: "Quantization"
  bottom: "conv3"
  top: "conv3"
  quantization_param {
    round_method: FLOOR
    round_strategy: AGGRESSIVE
    bit_width: 4
    range: 0
    range: 3.393816
  }
}
layer {
  name: "conv4"
  type: "Convolution"
  bottom: "conv3"
  top: "conv4"
  param {
    lr_mult: 1
    decay_mult: 1
  }
  param {
    lr_mult: 2
    decay_mult: 0
  }
  convolution_param {
    num_output: 384
    pad: 1
    kernel_size: 3
    weight_filler {
      type: "gaussian"
      std: 0.01
    }
    bias_filler {
      type: "constant"
      value: 0.1
    }
  }
}
layer {
  name: "bn4"
  type: "BatchNorm"
  bottom: "conv4"
  top: "conv4"
}
layer {
  name: "scale4"
  type: "Scale"
  bottom: "conv4"
  top: "conv4"
  scale_param {
    bias_term: true
  }
}
layer {
  name: "relu4"
  type: "ReLU"
  bottom: "conv4"
  top: "conv4"
}
layer {
  name: "quantized_conv4"
  type: "Quantization"
  bottom: "conv4"
  top: "conv4"
  quantization_param {
    round_method: FLOOR
    round_strategy: AGGRESSIVE
    bit_width: 4
    range: 0
    range: 2.93478
  }
}
layer {
  name: "conv5"
  type: "Convolution"
  bottom: "conv4"
  top: "conv5"
  param {
    lr_mult: 1
    decay_mult: 1
  }
  param {
    lr_mult: 2
    decay_mult: 0
  }
  convolution_param {
    num_output: 256
    pad: 1
    kernel_size: 3
    weight_filler {
      type: "gaussian"
      std: 0.01
    }
    bias_filler {
      type: "constant"
      value: 0.1
    }
  }
}
layer {
  name: "bn5"
  type: "BatchNorm"
  bottom: "conv5"
  top: "conv5"
}
layer {
  name: "scale5"
  type: "Scale"
  bottom: "conv5"
  top: "conv5"
  scale_param {
    bias_term: true
  }
}
layer {
  name: "relu5"
  type: "ReLU"
  bottom: "conv5"
  top: "conv5"
}
layer {
  name: "pool5"
  type: "Pooling"
  bottom: "conv5"
  top: "pool5"
  pooling_param {
    pool: MAX
    kernel_size: 3
    stride: 2
  }
}
layer {
  name: "quantized_conv5"
  type: "Quantization"
  bottom: "pool5"
  top: "pool5"
  quantization_param {
    round_method: FLOOR
    round_strategy: AGGRESSIVE
    bit_width: 4
    range: 0
    range: 3.5030851
  }
}
layer {
  name: "fc6"
  type: "InnerProduct"
  bottom: "pool5"
  top: "fc6"
  param {
    lr_mult: 1
    decay_mult: 1
  }
  param {
    lr_mult: 2
    decay_mult: 0
  }
  inner_product_param {
    num_output: 4096
    weight_filler {
      type: "gaussian"
      std: 0.005
    }
    bias_filler {
      type: "constant"
      value: 0.1
    }
  }
}
layer {
  name: "bn6"
  type: "BatchNorm"
  bottom: "fc6"
  top: "fc6"
}
layer {
  name: "scale6"
  type: "Scale"
  bottom: "fc6"
  top: "fc6"
  scale_param {
    bias_term: true
  }
}
layer {
  name: "relu6"
  type: "ReLU"
  bottom: "fc6"
  top: "fc6"
}
layer {
  name: "drop6"
  type: "Dropout"
  bottom: "fc6"
  top: "fc6"
  dropout_param {
    dropout_ratio: 0.5
  }
}
layer {
  name: "quantized_fc6"
  type: "Quantization"
  bottom: "fc6"
  top: "fc6"
  quantization_param {
    round_method: FLOOR
    round_strategy: AGGRESSIVE
    bit_width: 4
    range: 0
    range: 0.6637432
  }
}
layer {
  name: "fc7"
  type: "InnerProduct"
  bottom: "fc6"
  top: "fc7"
  param {
    lr_mult: 1
    decay_mult: 1
  }
  param {
    lr_mult: 2
    decay_mult: 0
  }
  inner_product_param {
    num_output: 4096
    weight_filler {
      type: "gaussian"
      std: 0.005
    }
    bias_filler {
      type: "constant"
      value: 0.1
    }
  }
}
layer {
  name: "bn7"
  type: "BatchNorm"
  bottom: "fc7"
  top: "fc7"
}
layer {
  name: "scale7"
  type: "Scale"
  bottom: "fc7"
  top: "fc7"
  scale_param {
    bias_term: true
  }
}
layer {
  name: "relu7"
  type: "ReLU"
  bottom: "fc7"
  top: "fc7"
}
layer {
  name: "drop7"
  type: "Dropout"
  bottom: "fc7"
  top: "fc7"
  dropout_param {
    dropout_ratio: 0.5
  }
}
layer {
  name: "quantized_fc7"
  type: "Quantization"
  bottom: "fc7"
  top: "fc7"
  quantization_param {
    round_method: FLOOR
    round_strategy: AGGRESSIVE
    bit_width: 4
    range: 0
    range: 3.0239408
  }
}
layer {
  name: "fc8"
  type: "InnerProduct"
  bottom: "fc7"
  top: "fc8"
  param {
    lr_mult: 1
    decay_mult: 1
  }
  param {
    lr_mult: 2
    decay_mult: 0
  }
  inner_product_param {
    num_output: 1000
    weight_filler {
      type: "gaussian"
      std: 0.01
    }
    bias_filler {
      type: "constant"
      value: 0
    }
  }
}
layer {
  name: "accuracy"
  type: "Accuracy"
  bottom: "fc8"
  bottom: "label"
  top: "accuracy"
  include {
    phase: TEST
  }
}
layer {
  name: "accuracy_5"
  type: "Accuracy"
  bottom: "fc8"
  bottom: "label"
  top: "accuracy_5"
  include {
    phase: TEST
  }
  accuracy_param {
    top_k: 5
  }
}
layer {
  name: "loss"
  type: "SoftmaxWithLoss"
  bottom: "fc8"
  bottom: "label"
  top: "loss"
}
I0109 12:05:44.497375 55826 layer_factory.hpp:77] Creating layer data
I0109 12:05:44.497443 55826 db_lmdb.cpp:35] Opened lmdb /home/ydwu/database/imagenet/ilsvrc12/lmdb_resize/ilsvrc12_val_lmdb
I0109 12:05:44.497481 55826 net.cpp:84] Creating Layer data
I0109 12:05:44.497496 55826 net.cpp:380] data -> data
I0109 12:05:44.497511 55826 net.cpp:380] data -> label
I0109 12:05:44.497838 55826 data_layer.cpp:45] output data size: 200,3,224,224
I0109 12:05:44.841889 55826 net.cpp:122] Setting up data
I0109 12:05:44.842007 55826 net.cpp:129] Top shape: 200 3 224 224 (30105600)
I0109 12:05:44.842031 55826 net.cpp:129] Top shape: 200 (200)
I0109 12:05:44.842052 55826 net.cpp:137] Memory required for data: 120423200
I0109 12:05:44.842073 55826 layer_factory.hpp:77] Creating layer label_data_1_split
I0109 12:05:44.842097 55826 net.cpp:84] Creating Layer label_data_1_split
I0109 12:05:44.842111 55826 net.cpp:406] label_data_1_split <- label
I0109 12:05:44.842125 55826 net.cpp:380] label_data_1_split -> label_data_1_split_0
I0109 12:05:44.842144 55826 net.cpp:380] label_data_1_split -> label_data_1_split_1
I0109 12:05:44.842156 55826 net.cpp:380] label_data_1_split -> label_data_1_split_2
I0109 12:05:44.842234 55826 net.cpp:122] Setting up label_data_1_split
I0109 12:05:44.842285 55826 net.cpp:129] Top shape: 200 (200)
I0109 12:05:44.842295 55826 net.cpp:129] Top shape: 200 (200)
I0109 12:05:44.842305 55826 net.cpp:129] Top shape: 200 (200)
I0109 12:05:44.842314 55826 net.cpp:137] Memory required for data: 120425600
I0109 12:05:44.842321 55826 layer_factory.hpp:77] Creating layer conv1
I0109 12:05:44.842342 55826 net.cpp:84] Creating Layer conv1
I0109 12:05:44.842352 55826 net.cpp:406] conv1 <- data
I0109 12:05:44.842365 55826 net.cpp:380] conv1 -> conv1
I0109 12:05:44.865295 55826 net.cpp:122] Setting up conv1
I0109 12:05:44.865321 55826 net.cpp:129] Top shape: 200 96 55 55 (58080000)
I0109 12:05:44.865331 55826 net.cpp:137] Memory required for data: 352745600
I0109 12:05:44.865348 55826 layer_factory.hpp:77] Creating layer bn1
I0109 12:05:44.865365 55826 net.cpp:84] Creating Layer bn1
I0109 12:05:44.865375 55826 net.cpp:406] bn1 <- conv1
I0109 12:05:44.865386 55826 net.cpp:367] bn1 -> conv1 (in-place)
I0109 12:05:44.865597 55826 net.cpp:122] Setting up bn1
I0109 12:05:44.865612 55826 net.cpp:129] Top shape: 200 96 55 55 (58080000)
I0109 12:05:44.865622 55826 net.cpp:137] Memory required for data: 585065600
I0109 12:05:44.865638 55826 layer_factory.hpp:77] Creating layer scale1
I0109 12:05:44.865653 55826 net.cpp:84] Creating Layer scale1
I0109 12:05:44.865664 55826 net.cpp:406] scale1 <- conv1
I0109 12:05:44.865674 55826 net.cpp:367] scale1 -> conv1 (in-place)
I0109 12:05:44.865728 55826 layer_factory.hpp:77] Creating layer scale1
I0109 12:05:44.865857 55826 net.cpp:122] Setting up scale1
I0109 12:05:44.865875 55826 net.cpp:129] Top shape: 200 96 55 55 (58080000)
I0109 12:05:44.865882 55826 net.cpp:137] Memory required for data: 817385600
I0109 12:05:44.865895 55826 layer_factory.hpp:77] Creating layer relu1
I0109 12:05:44.865907 55826 net.cpp:84] Creating Layer relu1
I0109 12:05:44.865916 55826 net.cpp:406] relu1 <- conv1
I0109 12:05:44.865926 55826 net.cpp:367] relu1 -> conv1 (in-place)
I0109 12:05:44.865937 55826 net.cpp:122] Setting up relu1
I0109 12:05:44.865948 55826 net.cpp:129] Top shape: 200 96 55 55 (58080000)
I0109 12:05:44.865957 55826 net.cpp:137] Memory required for data: 1049705600
I0109 12:05:44.865964 55826 layer_factory.hpp:77] Creating layer pool1
I0109 12:05:44.865978 55826 net.cpp:84] Creating Layer pool1
I0109 12:05:44.865985 55826 net.cpp:406] pool1 <- conv1
I0109 12:05:44.865998 55826 net.cpp:380] pool1 -> pool1
I0109 12:05:44.866041 55826 net.cpp:122] Setting up pool1
I0109 12:05:44.866056 55826 net.cpp:129] Top shape: 200 96 27 27 (13996800)
I0109 12:05:44.866065 55826 net.cpp:137] Memory required for data: 1105692800
I0109 12:05:44.866073 55826 layer_factory.hpp:77] Creating layer quantized_conv1
I0109 12:05:44.866086 55826 net.cpp:84] Creating Layer quantized_conv1
I0109 12:05:44.866096 55826 net.cpp:406] quantized_conv1 <- pool1
I0109 12:05:44.866106 55826 net.cpp:367] quantized_conv1 -> pool1 (in-place)
I0109 12:05:44.866119 55826 net.cpp:122] Setting up quantized_conv1
I0109 12:05:44.866129 55826 net.cpp:129] Top shape: 200 96 27 27 (13996800)
I0109 12:05:44.866137 55826 net.cpp:137] Memory required for data: 1161680000
I0109 12:05:44.866145 55826 layer_factory.hpp:77] Creating layer conv2
I0109 12:05:44.866161 55826 net.cpp:84] Creating Layer conv2
I0109 12:05:44.866171 55826 net.cpp:406] conv2 <- pool1
I0109 12:05:44.866183 55826 net.cpp:380] conv2 -> conv2
I0109 12:05:44.884723 55826 net.cpp:122] Setting up conv2
I0109 12:05:44.884752 55826 net.cpp:129] Top shape: 200 256 27 27 (37324800)
I0109 12:05:44.884762 55826 net.cpp:137] Memory required for data: 1310979200
I0109 12:05:44.884778 55826 layer_factory.hpp:77] Creating layer bn2
I0109 12:05:44.884791 55826 net.cpp:84] Creating Layer bn2
I0109 12:05:44.884801 55826 net.cpp:406] bn2 <- conv2
I0109 12:05:44.884812 55826 net.cpp:367] bn2 -> conv2 (in-place)
I0109 12:05:44.884990 55826 net.cpp:122] Setting up bn2
I0109 12:05:44.885007 55826 net.cpp:129] Top shape: 200 256 27 27 (37324800)
I0109 12:05:44.885015 55826 net.cpp:137] Memory required for data: 1460278400
I0109 12:05:44.885051 55826 layer_factory.hpp:77] Creating layer scale2
I0109 12:05:44.885066 55826 net.cpp:84] Creating Layer scale2
I0109 12:05:44.885076 55826 net.cpp:406] scale2 <- conv2
I0109 12:05:44.885085 55826 net.cpp:367] scale2 -> conv2 (in-place)
I0109 12:05:44.885138 55826 layer_factory.hpp:77] Creating layer scale2
I0109 12:05:44.885251 55826 net.cpp:122] Setting up scale2
I0109 12:05:44.885268 55826 net.cpp:129] Top shape: 200 256 27 27 (37324800)
I0109 12:05:44.885277 55826 net.cpp:137] Memory required for data: 1609577600
I0109 12:05:44.885291 55826 layer_factory.hpp:77] Creating layer relu2
I0109 12:05:44.885303 55826 net.cpp:84] Creating Layer relu2
I0109 12:05:44.885313 55826 net.cpp:406] relu2 <- conv2
I0109 12:05:44.885323 55826 net.cpp:367] relu2 -> conv2 (in-place)
I0109 12:05:44.885334 55826 net.cpp:122] Setting up relu2
I0109 12:05:44.885344 55826 net.cpp:129] Top shape: 200 256 27 27 (37324800)
I0109 12:05:44.885352 55826 net.cpp:137] Memory required for data: 1758876800
I0109 12:05:44.885360 55826 layer_factory.hpp:77] Creating layer pool2
I0109 12:05:44.885371 55826 net.cpp:84] Creating Layer pool2
I0109 12:05:44.885380 55826 net.cpp:406] pool2 <- conv2
I0109 12:05:44.885390 55826 net.cpp:380] pool2 -> pool2
I0109 12:05:44.885437 55826 net.cpp:122] Setting up pool2
I0109 12:05:44.885453 55826 net.cpp:129] Top shape: 200 256 13 13 (8652800)
I0109 12:05:44.885462 55826 net.cpp:137] Memory required for data: 1793488000
I0109 12:05:44.885469 55826 layer_factory.hpp:77] Creating layer quantized_conv2
I0109 12:05:44.885483 55826 net.cpp:84] Creating Layer quantized_conv2
I0109 12:05:44.885491 55826 net.cpp:406] quantized_conv2 <- pool2
I0109 12:05:44.885502 55826 net.cpp:367] quantized_conv2 -> pool2 (in-place)
I0109 12:05:44.885514 55826 net.cpp:122] Setting up quantized_conv2
I0109 12:05:44.885524 55826 net.cpp:129] Top shape: 200 256 13 13 (8652800)
I0109 12:05:44.885532 55826 net.cpp:137] Memory required for data: 1828099200
I0109 12:05:44.885540 55826 layer_factory.hpp:77] Creating layer conv3
I0109 12:05:44.885556 55826 net.cpp:84] Creating Layer conv3
I0109 12:05:44.885565 55826 net.cpp:406] conv3 <- pool2
I0109 12:05:44.885577 55826 net.cpp:380] conv3 -> conv3
I0109 12:05:44.914813 55826 net.cpp:122] Setting up conv3
I0109 12:05:44.914851 55826 net.cpp:129] Top shape: 200 384 13 13 (12979200)
I0109 12:05:44.914861 55826 net.cpp:137] Memory required for data: 1880016000
I0109 12:05:44.914875 55826 layer_factory.hpp:77] Creating layer bn3
I0109 12:05:44.914889 55826 net.cpp:84] Creating Layer bn3
I0109 12:05:44.914899 55826 net.cpp:406] bn3 <- conv3
I0109 12:05:44.914912 55826 net.cpp:367] bn3 -> conv3 (in-place)
I0109 12:05:44.915096 55826 net.cpp:122] Setting up bn3
I0109 12:05:44.915112 55826 net.cpp:129] Top shape: 200 384 13 13 (12979200)
I0109 12:05:44.915122 55826 net.cpp:137] Memory required for data: 1931932800
I0109 12:05:44.915139 55826 layer_factory.hpp:77] Creating layer scale3
I0109 12:05:44.915154 55826 net.cpp:84] Creating Layer scale3
I0109 12:05:44.915164 55826 net.cpp:406] scale3 <- conv3
I0109 12:05:44.915175 55826 net.cpp:367] scale3 -> conv3 (in-place)
I0109 12:05:44.915225 55826 layer_factory.hpp:77] Creating layer scale3
I0109 12:05:44.915339 55826 net.cpp:122] Setting up scale3
I0109 12:05:44.915355 55826 net.cpp:129] Top shape: 200 384 13 13 (12979200)
I0109 12:05:44.915364 55826 net.cpp:137] Memory required for data: 1983849600
I0109 12:05:44.915375 55826 layer_factory.hpp:77] Creating layer relu3
I0109 12:05:44.915387 55826 net.cpp:84] Creating Layer relu3
I0109 12:05:44.915395 55826 net.cpp:406] relu3 <- conv3
I0109 12:05:44.915406 55826 net.cpp:367] relu3 -> conv3 (in-place)
I0109 12:05:44.915417 55826 net.cpp:122] Setting up relu3
I0109 12:05:44.915427 55826 net.cpp:129] Top shape: 200 384 13 13 (12979200)
I0109 12:05:44.915436 55826 net.cpp:137] Memory required for data: 2035766400
I0109 12:05:44.915443 55826 layer_factory.hpp:77] Creating layer quantized_conv3
I0109 12:05:44.915455 55826 net.cpp:84] Creating Layer quantized_conv3
I0109 12:05:44.915493 55826 net.cpp:406] quantized_conv3 <- conv3
I0109 12:05:44.915505 55826 net.cpp:367] quantized_conv3 -> conv3 (in-place)
I0109 12:05:44.915518 55826 net.cpp:122] Setting up quantized_conv3
I0109 12:05:44.915527 55826 net.cpp:129] Top shape: 200 384 13 13 (12979200)
I0109 12:05:44.915535 55826 net.cpp:137] Memory required for data: 2087683200
I0109 12:05:44.915544 55826 layer_factory.hpp:77] Creating layer conv4
I0109 12:05:44.915560 55826 net.cpp:84] Creating Layer conv4
I0109 12:05:44.915570 55826 net.cpp:406] conv4 <- conv3
I0109 12:05:44.915581 55826 net.cpp:380] conv4 -> conv4
I0109 12:05:44.954757 55826 net.cpp:122] Setting up conv4
I0109 12:05:44.954810 55826 net.cpp:129] Top shape: 200 384 13 13 (12979200)
I0109 12:05:44.954820 55826 net.cpp:137] Memory required for data: 2139600000
I0109 12:05:44.954835 55826 layer_factory.hpp:77] Creating layer bn4
I0109 12:05:44.954854 55826 net.cpp:84] Creating Layer bn4
I0109 12:05:44.954865 55826 net.cpp:406] bn4 <- conv4
I0109 12:05:44.954879 55826 net.cpp:367] bn4 -> conv4 (in-place)
I0109 12:05:44.955077 55826 net.cpp:122] Setting up bn4
I0109 12:05:44.955094 55826 net.cpp:129] Top shape: 200 384 13 13 (12979200)
I0109 12:05:44.955102 55826 net.cpp:137] Memory required for data: 2191516800
I0109 12:05:44.955116 55826 layer_factory.hpp:77] Creating layer scale4
I0109 12:05:44.955133 55826 net.cpp:84] Creating Layer scale4
I0109 12:05:44.955143 55826 net.cpp:406] scale4 <- conv4
I0109 12:05:44.955153 55826 net.cpp:367] scale4 -> conv4 (in-place)
I0109 12:05:44.955211 55826 layer_factory.hpp:77] Creating layer scale4
I0109 12:05:44.955335 55826 net.cpp:122] Setting up scale4
I0109 12:05:44.955351 55826 net.cpp:129] Top shape: 200 384 13 13 (12979200)
I0109 12:05:44.955360 55826 net.cpp:137] Memory required for data: 2243433600
I0109 12:05:44.955373 55826 layer_factory.hpp:77] Creating layer relu4
I0109 12:05:44.955384 55826 net.cpp:84] Creating Layer relu4
I0109 12:05:44.955394 55826 net.cpp:406] relu4 <- conv4
I0109 12:05:44.955406 55826 net.cpp:367] relu4 -> conv4 (in-place)
I0109 12:05:44.955418 55826 net.cpp:122] Setting up relu4
I0109 12:05:44.955430 55826 net.cpp:129] Top shape: 200 384 13 13 (12979200)
I0109 12:05:44.955437 55826 net.cpp:137] Memory required for data: 2295350400
I0109 12:05:44.955446 55826 layer_factory.hpp:77] Creating layer quantized_conv4
I0109 12:05:44.955458 55826 net.cpp:84] Creating Layer quantized_conv4
I0109 12:05:44.955467 55826 net.cpp:406] quantized_conv4 <- conv4
I0109 12:05:44.955480 55826 net.cpp:367] quantized_conv4 -> conv4 (in-place)
I0109 12:05:44.955492 55826 net.cpp:122] Setting up quantized_conv4
I0109 12:05:44.955502 55826 net.cpp:129] Top shape: 200 384 13 13 (12979200)
I0109 12:05:44.955510 55826 net.cpp:137] Memory required for data: 2347267200
I0109 12:05:44.955518 55826 layer_factory.hpp:77] Creating layer conv5
I0109 12:05:44.955536 55826 net.cpp:84] Creating Layer conv5
I0109 12:05:44.955545 55826 net.cpp:406] conv5 <- conv4
I0109 12:05:44.955559 55826 net.cpp:380] conv5 -> conv5
I0109 12:05:44.981904 55826 net.cpp:122] Setting up conv5
I0109 12:05:44.981963 55826 net.cpp:129] Top shape: 200 256 13 13 (8652800)
I0109 12:05:44.981973 55826 net.cpp:137] Memory required for data: 2381878400
I0109 12:05:44.981989 55826 layer_factory.hpp:77] Creating layer bn5
I0109 12:05:44.982007 55826 net.cpp:84] Creating Layer bn5
I0109 12:05:44.982019 55826 net.cpp:406] bn5 <- conv5
I0109 12:05:44.982035 55826 net.cpp:367] bn5 -> conv5 (in-place)
I0109 12:05:44.982230 55826 net.cpp:122] Setting up bn5
I0109 12:05:44.982246 55826 net.cpp:129] Top shape: 200 256 13 13 (8652800)
I0109 12:05:44.982255 55826 net.cpp:137] Memory required for data: 2416489600
I0109 12:05:44.982277 55826 layer_factory.hpp:77] Creating layer scale5
I0109 12:05:44.982292 55826 net.cpp:84] Creating Layer scale5
I0109 12:05:44.982301 55826 net.cpp:406] scale5 <- conv5
I0109 12:05:44.982312 55826 net.cpp:367] scale5 -> conv5 (in-place)
I0109 12:05:44.982373 55826 layer_factory.hpp:77] Creating layer scale5
I0109 12:05:44.982506 55826 net.cpp:122] Setting up scale5
I0109 12:05:44.982558 55826 net.cpp:129] Top shape: 200 256 13 13 (8652800)
I0109 12:05:44.982568 55826 net.cpp:137] Memory required for data: 2451100800
I0109 12:05:44.982580 55826 layer_factory.hpp:77] Creating layer relu5
I0109 12:05:44.982592 55826 net.cpp:84] Creating Layer relu5
I0109 12:05:44.982602 55826 net.cpp:406] relu5 <- conv5
I0109 12:05:44.982614 55826 net.cpp:367] relu5 -> conv5 (in-place)
I0109 12:05:44.982626 55826 net.cpp:122] Setting up relu5
I0109 12:05:44.982637 55826 net.cpp:129] Top shape: 200 256 13 13 (8652800)
I0109 12:05:44.982645 55826 net.cpp:137] Memory required for data: 2485712000
I0109 12:05:44.982653 55826 layer_factory.hpp:77] Creating layer pool5
I0109 12:05:44.982666 55826 net.cpp:84] Creating Layer pool5
I0109 12:05:44.982674 55826 net.cpp:406] pool5 <- conv5
I0109 12:05:44.982686 55826 net.cpp:380] pool5 -> pool5
I0109 12:05:44.982734 55826 net.cpp:122] Setting up pool5
I0109 12:05:44.982750 55826 net.cpp:129] Top shape: 200 256 6 6 (1843200)
I0109 12:05:44.982758 55826 net.cpp:137] Memory required for data: 2493084800
I0109 12:05:44.982766 55826 layer_factory.hpp:77] Creating layer quantized_conv5
I0109 12:05:44.982779 55826 net.cpp:84] Creating Layer quantized_conv5
I0109 12:05:44.982789 55826 net.cpp:406] quantized_conv5 <- pool5
I0109 12:05:44.982801 55826 net.cpp:367] quantized_conv5 -> pool5 (in-place)
I0109 12:05:44.982815 55826 net.cpp:122] Setting up quantized_conv5
I0109 12:05:44.982825 55826 net.cpp:129] Top shape: 200 256 6 6 (1843200)
I0109 12:05:44.982833 55826 net.cpp:137] Memory required for data: 2500457600
I0109 12:05:44.982841 55826 layer_factory.hpp:77] Creating layer fc6
I0109 12:05:44.982856 55826 net.cpp:84] Creating Layer fc6
I0109 12:05:44.982863 55826 net.cpp:406] fc6 <- pool5
I0109 12:05:44.982874 55826 net.cpp:380] fc6 -> fc6
I0109 12:05:46.104308 55826 net.cpp:122] Setting up fc6
I0109 12:05:46.104408 55826 net.cpp:129] Top shape: 200 4096 (819200)
I0109 12:05:46.104418 55826 net.cpp:137] Memory required for data: 2503734400
I0109 12:05:46.104435 55826 layer_factory.hpp:77] Creating layer bn6
I0109 12:05:46.104457 55826 net.cpp:84] Creating Layer bn6
I0109 12:05:46.104470 55826 net.cpp:406] bn6 <- fc6
I0109 12:05:46.104482 55826 net.cpp:367] bn6 -> fc6 (in-place)
I0109 12:05:46.104687 55826 net.cpp:122] Setting up bn6
I0109 12:05:46.104704 55826 net.cpp:129] Top shape: 200 4096 (819200)
I0109 12:05:46.104713 55826 net.cpp:137] Memory required for data: 2507011200
I0109 12:05:46.104727 55826 layer_factory.hpp:77] Creating layer scale6
I0109 12:05:46.104746 55826 net.cpp:84] Creating Layer scale6
I0109 12:05:46.104758 55826 net.cpp:406] scale6 <- fc6
I0109 12:05:46.104768 55826 net.cpp:367] scale6 -> fc6 (in-place)
I0109 12:05:46.104821 55826 layer_factory.hpp:77] Creating layer scale6
I0109 12:05:46.104949 55826 net.cpp:122] Setting up scale6
I0109 12:05:46.104966 55826 net.cpp:129] Top shape: 200 4096 (819200)
I0109 12:05:46.104974 55826 net.cpp:137] Memory required for data: 2510288000
I0109 12:05:46.104986 55826 layer_factory.hpp:77] Creating layer relu6
I0109 12:05:46.104998 55826 net.cpp:84] Creating Layer relu6
I0109 12:05:46.105007 55826 net.cpp:406] relu6 <- fc6
I0109 12:05:46.105020 55826 net.cpp:367] relu6 -> fc6 (in-place)
I0109 12:05:46.105032 55826 net.cpp:122] Setting up relu6
I0109 12:05:46.105042 55826 net.cpp:129] Top shape: 200 4096 (819200)
I0109 12:05:46.105051 55826 net.cpp:137] Memory required for data: 2513564800
I0109 12:05:46.105058 55826 layer_factory.hpp:77] Creating layer drop6
I0109 12:05:46.105072 55826 net.cpp:84] Creating Layer drop6
I0109 12:05:46.105079 55826 net.cpp:406] drop6 <- fc6
I0109 12:05:46.105093 55826 net.cpp:367] drop6 -> fc6 (in-place)
I0109 12:05:46.105123 55826 net.cpp:122] Setting up drop6
I0109 12:05:46.105139 55826 net.cpp:129] Top shape: 200 4096 (819200)
I0109 12:05:46.105146 55826 net.cpp:137] Memory required for data: 2516841600
I0109 12:05:46.105154 55826 layer_factory.hpp:77] Creating layer quantized_fc6
I0109 12:05:46.105167 55826 net.cpp:84] Creating Layer quantized_fc6
I0109 12:05:46.105214 55826 net.cpp:406] quantized_fc6 <- fc6
I0109 12:05:46.105229 55826 net.cpp:367] quantized_fc6 -> fc6 (in-place)
I0109 12:05:46.105242 55826 net.cpp:122] Setting up quantized_fc6
I0109 12:05:46.105252 55826 net.cpp:129] Top shape: 200 4096 (819200)
I0109 12:05:46.105260 55826 net.cpp:137] Memory required for data: 2520118400
I0109 12:05:46.105269 55826 layer_factory.hpp:77] Creating layer fc7
I0109 12:05:46.105283 55826 net.cpp:84] Creating Layer fc7
I0109 12:05:46.105291 55826 net.cpp:406] fc7 <- fc6
I0109 12:05:46.105301 55826 net.cpp:380] fc7 -> fc7
I0109 12:05:46.591751 55826 net.cpp:122] Setting up fc7
I0109 12:05:46.591858 55826 net.cpp:129] Top shape: 200 4096 (819200)
I0109 12:05:46.591869 55826 net.cpp:137] Memory required for data: 2523395200
I0109 12:05:46.591889 55826 layer_factory.hpp:77] Creating layer bn7
I0109 12:05:46.591910 55826 net.cpp:84] Creating Layer bn7
I0109 12:05:46.591922 55826 net.cpp:406] bn7 <- fc7
I0109 12:05:46.591935 55826 net.cpp:367] bn7 -> fc7 (in-place)
I0109 12:05:46.592139 55826 net.cpp:122] Setting up bn7
I0109 12:05:46.592156 55826 net.cpp:129] Top shape: 200 4096 (819200)
I0109 12:05:46.592164 55826 net.cpp:137] Memory required for data: 2526672000
I0109 12:05:46.592178 55826 layer_factory.hpp:77] Creating layer scale7
I0109 12:05:46.592191 55826 net.cpp:84] Creating Layer scale7
I0109 12:05:46.592200 55826 net.cpp:406] scale7 <- fc7
I0109 12:05:46.592213 55826 net.cpp:367] scale7 -> fc7 (in-place)
I0109 12:05:46.592264 55826 layer_factory.hpp:77] Creating layer scale7
I0109 12:05:46.592401 55826 net.cpp:122] Setting up scale7
I0109 12:05:46.592417 55826 net.cpp:129] Top shape: 200 4096 (819200)
I0109 12:05:46.592425 55826 net.cpp:137] Memory required for data: 2529948800
I0109 12:05:46.592437 55826 layer_factory.hpp:77] Creating layer relu7
I0109 12:05:46.592453 55826 net.cpp:84] Creating Layer relu7
I0109 12:05:46.592461 55826 net.cpp:406] relu7 <- fc7
I0109 12:05:46.592471 55826 net.cpp:367] relu7 -> fc7 (in-place)
I0109 12:05:46.592483 55826 net.cpp:122] Setting up relu7
I0109 12:05:46.592494 55826 net.cpp:129] Top shape: 200 4096 (819200)
I0109 12:05:46.592501 55826 net.cpp:137] Memory required for data: 2533225600
I0109 12:05:46.592509 55826 layer_factory.hpp:77] Creating layer drop7
I0109 12:05:46.592521 55826 net.cpp:84] Creating Layer drop7
I0109 12:05:46.592530 55826 net.cpp:406] drop7 <- fc7
I0109 12:05:46.592542 55826 net.cpp:367] drop7 -> fc7 (in-place)
I0109 12:05:46.592574 55826 net.cpp:122] Setting up drop7
I0109 12:05:46.592588 55826 net.cpp:129] Top shape: 200 4096 (819200)
I0109 12:05:46.592597 55826 net.cpp:137] Memory required for data: 2536502400
I0109 12:05:46.592605 55826 layer_factory.hpp:77] Creating layer quantized_fc7
I0109 12:05:46.592620 55826 net.cpp:84] Creating Layer quantized_fc7
I0109 12:05:46.592630 55826 net.cpp:406] quantized_fc7 <- fc7
I0109 12:05:46.592640 55826 net.cpp:367] quantized_fc7 -> fc7 (in-place)
I0109 12:05:46.592653 55826 net.cpp:122] Setting up quantized_fc7
I0109 12:05:46.592663 55826 net.cpp:129] Top shape: 200 4096 (819200)
I0109 12:05:46.592670 55826 net.cpp:137] Memory required for data: 2539779200
I0109 12:05:46.592679 55826 layer_factory.hpp:77] Creating layer fc8
I0109 12:05:46.592692 55826 net.cpp:84] Creating Layer fc8
I0109 12:05:46.592701 55826 net.cpp:406] fc8 <- fc7
I0109 12:05:46.592715 55826 net.cpp:380] fc8 -> fc8
I0109 12:05:46.713503 55826 net.cpp:122] Setting up fc8
I0109 12:05:46.713603 55826 net.cpp:129] Top shape: 200 1000 (200000)
I0109 12:05:46.713619 55826 net.cpp:137] Memory required for data: 2540579200
I0109 12:05:46.713636 55826 layer_factory.hpp:77] Creating layer fc8_fc8_0_split
I0109 12:05:46.713657 55826 net.cpp:84] Creating Layer fc8_fc8_0_split
I0109 12:05:46.713670 55826 net.cpp:406] fc8_fc8_0_split <- fc8
I0109 12:05:46.713685 55826 net.cpp:380] fc8_fc8_0_split -> fc8_fc8_0_split_0
I0109 12:05:46.713704 55826 net.cpp:380] fc8_fc8_0_split -> fc8_fc8_0_split_1
I0109 12:05:46.713721 55826 net.cpp:380] fc8_fc8_0_split -> fc8_fc8_0_split_2
I0109 12:05:46.713789 55826 net.cpp:122] Setting up fc8_fc8_0_split
I0109 12:05:46.713877 55826 net.cpp:129] Top shape: 200 1000 (200000)
I0109 12:05:46.713888 55826 net.cpp:129] Top shape: 200 1000 (200000)
I0109 12:05:46.713897 55826 net.cpp:129] Top shape: 200 1000 (200000)
I0109 12:05:46.713904 55826 net.cpp:137] Memory required for data: 2542979200
I0109 12:05:46.713913 55826 layer_factory.hpp:77] Creating layer accuracy
I0109 12:05:46.713927 55826 net.cpp:84] Creating Layer accuracy
I0109 12:05:46.713935 55826 net.cpp:406] accuracy <- fc8_fc8_0_split_0
I0109 12:05:46.713945 55826 net.cpp:406] accuracy <- label_data_1_split_0
I0109 12:05:46.713956 55826 net.cpp:380] accuracy -> accuracy
…
