…
I0107 16:42:52.463887 19102 net.cpp:294] The NetState phase (0) differed from the phase (1) specified by a rule in layer accuracy_5
I0107 16:42:52.464144 19102 net.cpp:51] Initializing net from parameters: 
name: "AlexNet-BN"
state {
  phase: TRAIN
  level: 0
  stage: ""
}
layer {
  name: "data"
  type: "Data"
  top: "data"
  top: "label"
  include {
    phase: TRAIN
  }
  transform_param {
    mirror: true
    crop_size: 224
    mean_value: 103.939
    mean_value: 116.779
    mean_value: 123.68
  }
  data_param {
    source: "/home/ydwu/database/imagenet/ilsvrc12/lmdb_resize/ilsvrc12_train_lmdb"
    batch_size: 200
    backend: LMDB
  }
}
layer {
  name: "conv1"
  type: "Convolution"
  bottom: "data"
  top: "conv1"
  param {
    lr_mult: 1
    decay_mult: 1
  }
  param {
    lr_mult: 2
    decay_mult: 0
  }
  convolution_param {
    num_output: 96
    pad: 2
    kernel_size: 11
    stride: 4
    weight_filler {
      type: "gaussian"
      std: 0.01
    }
    bias_filler {
      type: "constant"
      value: 0
    }
  }
}
layer {
  name: "bn1"
  type: "BatchNorm"
  bottom: "conv1"
  top: "conv1"
}
layer {
  name: "scale1"
  type: "Scale"
  bottom: "conv1"
  top: "conv1"
  scale_param {
    bias_term: true
  }
}
layer {
  name: "relu1"
  type: "ReLU"
  bottom: "conv1"
  top: "conv1"
}
layer {
  name: "pool1"
  type: "Pooling"
  bottom: "conv1"
  top: "pool1"
  pooling_param {
    pool: MAX
    kernel_size: 3
    stride: 2
  }
}
layer {
  name: "quantized_conv1"
  type: "Quantization"
  bottom: "pool1"
  top: "pool1"
  quantization_param {
    round_method: FLOOR
    round_strategy: AGGRESSIVE
    bit_width: 4
    range: 0
    range: 9.3102551
  }
}
layer {
  name: "conv2"
  type: "Convolution"
  bottom: "pool1"
  top: "conv2"
  param {
    lr_mult: 1
    decay_mult: 1
  }
  param {
    lr_mult: 2
    decay_mult: 0
  }
  convolution_param {
    num_output: 256
    pad: 2
    kernel_size: 5
    weight_filler {
      type: "gaussian"
      std: 0.01
    }
    bias_filler {
      type: "constant"
      value: 0.1
    }
  }
}
layer {
  name: "bn2"
  type: "BatchNorm"
  bottom: "conv2"
  top: "conv2"
}
layer {
  name: "scale2"
  type: "Scale"
  bottom: "conv2"
  top: "conv2"
  scale_param {
    bias_term: true
  }
}
layer {
  name: "relu2"
  type: "ReLU"
  bottom: "conv2"
  top: "conv2"
}
layer {
  name: "pool2"
  type: "Pooling"
  bottom: "conv2"
  top: "pool2"
  pooling_param {
    pool: MAX
    kernel_size: 3
    stride: 2
  }
}
layer {
  name: "quantized_conv2"
  type: "Quantization"
  bottom: "pool2"
  top: "pool2"
  quantization_param {
    round_method: FLOOR
    round_strategy: AGGRESSIVE
    bit_width: 4
    range: 0
    range: 4.4997
  }
}
layer {
  name: "conv3"
  type: "Convolution"
  bottom: "pool2"
  top: "conv3"
  param {
    lr_mult: 1
    decay_mult: 1
  }
  param {
    lr_mult: 2
    decay_mult: 0
  }
  convolution_param {
    num_output: 384
    pad: 1
    kernel_size: 3
    weight_filler {
      type: "gaussian"
      std: 0.01
    }
    bias_filler {
      type: "constant"
      value: 0
    }
  }
}
layer {
  name: "bn3"
  type: "BatchNorm"
  bottom: "conv3"
  top: "conv3"
}
layer {
  name: "scale3"
  type: "Scale"
  bottom: "conv3"
  top: "conv3"
  scale_param {
    bias_term: true
  }
}
layer {
  name: "relu3"
  type: "ReLU"
  bottom: "conv3"
  top: "conv3"
}
layer {
  name: "quantized_conv3"
  type: "Quantization"
  bottom: "conv3"
  top: "conv3"
  quantization_param {
    round_method: FLOOR
    round_strategy: AGGRESSIVE
    bit_width: 4
    range: 0
    range: 5.65636
  }
}
layer {
  name: "conv4"
  type: "Convolution"
  bottom: "conv3"
  top: "conv4"
  param {
    lr_mult: 1
    decay_mult: 1
  }
  param {
    lr_mult: 2
    decay_mult: 0
  }
  convolution_param {
    num_output: 384
    pad: 1
    kernel_size: 3
    weight_filler {
      type: "gaussian"
      std: 0.01
    }
    bias_filler {
      type: "constant"
      value: 0.1
    }
  }
}
layer {
  name: "bn4"
  type: "BatchNorm"
  bottom: "conv4"
  top: "conv4"
}
layer {
  name: "scale4"
  type: "Scale"
  bottom: "conv4"
  top: "conv4"
  scale_param {
    bias_term: true
  }
}
layer {
  name: "relu4"
  type: "ReLU"
  bottom: "conv4"
  top: "conv4"
}
layer {
  name: "quantized_conv4"
  type: "Quantization"
  bottom: "conv4"
  top: "conv4"
  quantization_param {
    round_method: FLOOR
    round_strategy: AGGRESSIVE
    bit_width: 4
    range: 0
    range: 4.891314
  }
}
layer {
  name: "conv5"
  type: "Convolution"
  bottom: "conv4"
  top: "conv5"
  param {
    lr_mult: 1
    decay_mult: 1
  }
  param {
    lr_mult: 2
    decay_mult: 0
  }
  convolution_param {
    num_output: 256
    pad: 1
    kernel_size: 3
    weight_filler {
      type: "gaussian"
      std: 0.01
    }
    bias_filler {
      type: "constant"
      value: 0.1
    }
  }
}
layer {
  name: "bn5"
  type: "BatchNorm"
  bottom: "conv5"
  top: "conv5"
}
layer {
  name: "scale5"
  type: "Scale"
  bottom: "conv5"
  top: "conv5"
  scale_param {
    bias_term: true
  }
}
layer {
  name: "relu5"
  type: "ReLU"
  bottom: "conv5"
  top: "conv5"
}
layer {
  name: "pool5"
  type: "Pooling"
  bottom: "conv5"
  top: "pool5"
  pooling_param {
    pool: MAX
    kernel_size: 3
    stride: 2
  }
}
layer {
  name: "quantized_conv5"
  type: "Quantization"
  bottom: "pool5"
  top: "pool5"
  quantization_param {
    round_method: FLOOR
    round_strategy: AGGRESSIVE
    bit_width: 4
    range: 0
    range: 5.8384752
  }
}
layer {
  name: "fc6"
  type: "InnerProduct"
  bottom: "pool5"
  top: "fc6"
  param {
    lr_mult: 1
    decay_mult: 1
  }
  param {
    lr_mult: 2
    decay_mult: 0
  }
  inner_product_param {
    num_output: 4096
    weight_filler {
      type: "gaussian"
      std: 0.005
    }
    bias_filler {
      type: "constant"
      value: 0.1
    }
  }
}
layer {
  name: "bn6"
  type: "BatchNorm"
  bottom: "fc6"
  top: "fc6"
}
layer {
  name: "scale6"
  type: "Scale"
  bottom: "fc6"
  top: "fc6"
  scale_param {
    bias_term: true
  }
}
layer {
  name: "relu6"
  type: "ReLU"
  bottom: "fc6"
  top: "fc6"
}
layer {
  name: "drop6"
  type: "Dropout"
  bottom: "fc6"
  top: "fc6"
  dropout_param {
    dropout_ratio: 0.5
  }
}
layer {
  name: "quantized_fc6"
  type: "Quantization"
  bottom: "fc6"
  top: "fc6"
  quantization_param {
    round_method: FLOOR
    round_strategy: AGGRESSIVE
    bit_width: 4
    range: 0
    range: 1.106238
  }
}
layer {
  name: "fc7"
  type: "InnerProduct"
  bottom: "fc6"
  top: "fc7"
  param {
    lr_mult: 1
    decay_mult: 1
  }
  param {
    lr_mult: 2
    decay_mult: 0
  }
  inner_product_param {
    num_output: 4096
    weight_filler {
      type: "gaussian"
      std: 0.005
    }
    bias_filler {
      type: "constant"
      value: 0.1
    }
  }
}
layer {
  name: "bn7"
  type: "BatchNorm"
  bottom: "fc7"
  top: "fc7"
}
layer {
  name: "scale7"
  type: "Scale"
  bottom: "fc7"
  top: "fc7"
  scale_param {
    bias_term: true
  }
}
layer {
  name: "relu7"
  type: "ReLU"
  bottom: "fc7"
  top: "fc7"
}
layer {
  name: "drop7"
  type: "Dropout"
  bottom: "fc7"
  top: "fc7"
  dropout_param {
    dropout_ratio: 0.5
  }
}
layer {
  name: "quantized_fc7"
  type: "Quantization"
  bottom: "fc7"
  top: "fc7"
  quantization_param {
    round_method: FLOOR
    round_strategy: AGGRESSIVE
    bit_width: 4
    range: 0
    range: 5.0399008
  }
}
layer {
  name: "fc8"
  type: "InnerProduct"
  bottom: "fc7"
  top: "fc8"
  param {
    lr_mult: 1
    decay_mult: 1
  }
  param {
    lr_mult: 2
    decay_mult: 0
  }
  inner_product_param {
    num_output: 1000
    weight_filler {
      type: "gaussian"
      std: 0.01
    }
    bias_filler {
      type: "constant"
      value: 0
    }
  }
}
layer {
  name: "accuracy_5_TRAIN"
  type: "Accuracy"
  bottom: "fc8"
  bottom: "label"
  top: "accuracy_5_TRAIN"
  include {
    phase: TRAIN
  }
  accuracy_param {
    top_k: 5
  }
}
layer {
  name: "loss"
  type: "SoftmaxWithLoss"
  bottom: "fc8"
  bottom: "label"
  top: "loss"
}
I0107 16:42:52.464402 19102 layer_factory.hpp:77] Creating layer data
I0107 16:42:52.464550 19102 db_lmdb.cpp:35] Opened lmdb /home/ydwu/database/imagenet/ilsvrc12/lmdb_resize/ilsvrc12_train_lmdb
I0107 16:42:52.464599 19102 net.cpp:84] Creating Layer data
I0107 16:42:52.464620 19102 net.cpp:380] data -> data
I0107 16:42:52.464658 19102 net.cpp:380] data -> label
I0107 16:42:52.466521 19102 data_layer.cpp:45] output data size: 200,3,224,224
I0107 16:42:52.825675 19102 net.cpp:122] Setting up data
I0107 16:42:52.825762 19102 net.cpp:129] Top shape: 200 3 224 224 (30105600)
I0107 16:42:52.825778 19102 net.cpp:129] Top shape: 200 (200)
I0107 16:42:52.825788 19102 net.cpp:137] Memory required for data: 120423200
I0107 16:42:52.825805 19102 layer_factory.hpp:77] Creating layer label_data_1_split
I0107 16:42:52.825829 19102 net.cpp:84] Creating Layer label_data_1_split
I0107 16:42:52.825842 19102 net.cpp:406] label_data_1_split <- label
I0107 16:42:52.825866 19102 net.cpp:380] label_data_1_split -> label_data_1_split_0
I0107 16:42:52.825886 19102 net.cpp:380] label_data_1_split -> label_data_1_split_1
I0107 16:42:52.825947 19102 net.cpp:122] Setting up label_data_1_split
I0107 16:42:52.825963 19102 net.cpp:129] Top shape: 200 (200)
I0107 16:42:52.825973 19102 net.cpp:129] Top shape: 200 (200)
I0107 16:42:52.825981 19102 net.cpp:137] Memory required for data: 120424800
I0107 16:42:52.825990 19102 layer_factory.hpp:77] Creating layer conv1
I0107 16:42:52.826021 19102 net.cpp:84] Creating Layer conv1
I0107 16:42:52.826032 19102 net.cpp:406] conv1 <- data
I0107 16:42:52.826045 19102 net.cpp:380] conv1 -> conv1
I0107 16:42:52.847087 19102 net.cpp:122] Setting up conv1
I0107 16:42:52.847115 19102 net.cpp:129] Top shape: 200 96 55 55 (58080000)
I0107 16:42:52.847126 19102 net.cpp:137] Memory required for data: 352744800
I0107 16:42:52.847152 19102 layer_factory.hpp:77] Creating layer bn1
I0107 16:42:52.847172 19102 net.cpp:84] Creating Layer bn1
I0107 16:42:52.847183 19102 net.cpp:406] bn1 <- conv1
I0107 16:42:52.847195 19102 net.cpp:367] bn1 -> conv1 (in-place)
I0107 16:42:52.847386 19102 net.cpp:122] Setting up bn1
I0107 16:42:52.847404 19102 net.cpp:129] Top shape: 200 96 55 55 (58080000)
I0107 16:42:52.847414 19102 net.cpp:137] Memory required for data: 585064800
I0107 16:42:52.847430 19102 layer_factory.hpp:77] Creating layer scale1
I0107 16:42:52.847450 19102 net.cpp:84] Creating Layer scale1
I0107 16:42:52.847460 19102 net.cpp:406] scale1 <- conv1
I0107 16:42:52.847471 19102 net.cpp:367] scale1 -> conv1 (in-place)
I0107 16:42:52.847530 19102 layer_factory.hpp:77] Creating layer scale1
I0107 16:42:52.847666 19102 net.cpp:122] Setting up scale1
I0107 16:42:52.847684 19102 net.cpp:129] Top shape: 200 96 55 55 (58080000)
I0107 16:42:52.847693 19102 net.cpp:137] Memory required for data: 817384800
I0107 16:42:52.847705 19102 layer_factory.hpp:77] Creating layer relu1
I0107 16:42:52.847721 19102 net.cpp:84] Creating Layer relu1
I0107 16:42:52.847731 19102 net.cpp:406] relu1 <- conv1
I0107 16:42:52.847743 19102 net.cpp:367] relu1 -> conv1 (in-place)
I0107 16:42:52.847757 19102 net.cpp:122] Setting up relu1
I0107 16:42:52.847769 19102 net.cpp:129] Top shape: 200 96 55 55 (58080000)
I0107 16:42:52.847779 19102 net.cpp:137] Memory required for data: 1049704800
I0107 16:42:52.847787 19102 layer_factory.hpp:77] Creating layer pool1
I0107 16:42:52.847800 19102 net.cpp:84] Creating Layer pool1
I0107 16:42:52.847810 19102 net.cpp:406] pool1 <- conv1
I0107 16:42:52.847856 19102 net.cpp:380] pool1 -> pool1
I0107 16:42:52.847918 19102 net.cpp:122] Setting up pool1
I0107 16:42:52.847934 19102 net.cpp:129] Top shape: 200 96 27 27 (13996800)
I0107 16:42:52.847944 19102 net.cpp:137] Memory required for data: 1105692000
I0107 16:42:52.847954 19102 layer_factory.hpp:77] Creating layer quantized_conv1
I0107 16:42:52.847970 19102 net.cpp:84] Creating Layer quantized_conv1
I0107 16:42:52.847980 19102 net.cpp:406] quantized_conv1 <- pool1
I0107 16:42:52.847990 19102 net.cpp:367] quantized_conv1 -> pool1 (in-place)
I0107 16:42:52.848006 19102 net.cpp:122] Setting up quantized_conv1
I0107 16:42:52.848018 19102 net.cpp:129] Top shape: 200 96 27 27 (13996800)
I0107 16:42:52.848027 19102 net.cpp:137] Memory required for data: 1161679200
I0107 16:42:52.848035 19102 layer_factory.hpp:77] Creating layer conv2
I0107 16:42:52.848054 19102 net.cpp:84] Creating Layer conv2
I0107 16:42:52.848064 19102 net.cpp:406] conv2 <- pool1
I0107 16:42:52.848076 19102 net.cpp:380] conv2 -> conv2
I0107 16:42:52.869123 19102 net.cpp:122] Setting up conv2
I0107 16:42:52.869168 19102 net.cpp:129] Top shape: 200 256 27 27 (37324800)
I0107 16:42:52.869179 19102 net.cpp:137] Memory required for data: 1310978400
I0107 16:42:52.869200 19102 layer_factory.hpp:77] Creating layer bn2
I0107 16:42:52.869220 19102 net.cpp:84] Creating Layer bn2
I0107 16:42:52.869231 19102 net.cpp:406] bn2 <- conv2
I0107 16:42:52.869246 19102 net.cpp:367] bn2 -> conv2 (in-place)
I0107 16:42:52.869421 19102 net.cpp:122] Setting up bn2
I0107 16:42:52.869438 19102 net.cpp:129] Top shape: 200 256 27 27 (37324800)
I0107 16:42:52.869448 19102 net.cpp:137] Memory required for data: 1460277600
I0107 16:42:52.869462 19102 layer_factory.hpp:77] Creating layer scale2
I0107 16:42:52.869477 19102 net.cpp:84] Creating Layer scale2
I0107 16:42:52.869488 19102 net.cpp:406] scale2 <- conv2
I0107 16:42:52.869514 19102 net.cpp:367] scale2 -> conv2 (in-place)
I0107 16:42:52.869571 19102 layer_factory.hpp:77] Creating layer scale2
I0107 16:42:52.869683 19102 net.cpp:122] Setting up scale2
I0107 16:42:52.869700 19102 net.cpp:129] Top shape: 200 256 27 27 (37324800)
I0107 16:42:52.869709 19102 net.cpp:137] Memory required for data: 1609576800
I0107 16:42:52.869721 19102 layer_factory.hpp:77] Creating layer relu2
I0107 16:42:52.869735 19102 net.cpp:84] Creating Layer relu2
I0107 16:42:52.869745 19102 net.cpp:406] relu2 <- conv2
I0107 16:42:52.869755 19102 net.cpp:367] relu2 -> conv2 (in-place)
I0107 16:42:52.869768 19102 net.cpp:122] Setting up relu2
I0107 16:42:52.869779 19102 net.cpp:129] Top shape: 200 256 27 27 (37324800)
I0107 16:42:52.869788 19102 net.cpp:137] Memory required for data: 1758876000
I0107 16:42:52.869797 19102 layer_factory.hpp:77] Creating layer pool2
I0107 16:42:52.869810 19102 net.cpp:84] Creating Layer pool2
I0107 16:42:52.869819 19102 net.cpp:406] pool2 <- conv2
I0107 16:42:52.869832 19102 net.cpp:380] pool2 -> pool2
I0107 16:42:52.869877 19102 net.cpp:122] Setting up pool2
I0107 16:42:52.869894 19102 net.cpp:129] Top shape: 200 256 13 13 (8652800)
I0107 16:42:52.869902 19102 net.cpp:137] Memory required for data: 1793487200
I0107 16:42:52.869911 19102 layer_factory.hpp:77] Creating layer quantized_conv2
I0107 16:42:52.869925 19102 net.cpp:84] Creating Layer quantized_conv2
I0107 16:42:52.869935 19102 net.cpp:406] quantized_conv2 <- pool2
I0107 16:42:52.869946 19102 net.cpp:367] quantized_conv2 -> pool2 (in-place)
I0107 16:42:52.869971 19102 net.cpp:122] Setting up quantized_conv2
I0107 16:42:52.869982 19102 net.cpp:129] Top shape: 200 256 13 13 (8652800)
I0107 16:42:52.869992 19102 net.cpp:137] Memory required for data: 1828098400
I0107 16:42:52.870000 19102 layer_factory.hpp:77] Creating layer conv3
I0107 16:42:52.870019 19102 net.cpp:84] Creating Layer conv3
I0107 16:42:52.870029 19102 net.cpp:406] conv3 <- pool2
I0107 16:42:52.870043 19102 net.cpp:380] conv3 -> conv3
I0107 16:42:52.898192 19102 net.cpp:122] Setting up conv3
I0107 16:42:52.898242 19102 net.cpp:129] Top shape: 200 384 13 13 (12979200)
I0107 16:42:52.898252 19102 net.cpp:137] Memory required for data: 1880015200
I0107 16:42:52.898305 19102 layer_factory.hpp:77] Creating layer bn3
I0107 16:42:52.898325 19102 net.cpp:84] Creating Layer bn3
I0107 16:42:52.898336 19102 net.cpp:406] bn3 <- conv3
I0107 16:42:52.898350 19102 net.cpp:367] bn3 -> conv3 (in-place)
I0107 16:42:52.898525 19102 net.cpp:122] Setting up bn3
I0107 16:42:52.898542 19102 net.cpp:129] Top shape: 200 384 13 13 (12979200)
I0107 16:42:52.898551 19102 net.cpp:137] Memory required for data: 1931932000
I0107 16:42:52.898571 19102 layer_factory.hpp:77] Creating layer scale3
I0107 16:42:52.898591 19102 net.cpp:84] Creating Layer scale3
I0107 16:42:52.898600 19102 net.cpp:406] scale3 <- conv3
I0107 16:42:52.898612 19102 net.cpp:367] scale3 -> conv3 (in-place)
I0107 16:42:52.898663 19102 layer_factory.hpp:77] Creating layer scale3
I0107 16:42:52.898777 19102 net.cpp:122] Setting up scale3
I0107 16:42:52.898793 19102 net.cpp:129] Top shape: 200 384 13 13 (12979200)
I0107 16:42:52.898802 19102 net.cpp:137] Memory required for data: 1983848800
I0107 16:42:52.898814 19102 layer_factory.hpp:77] Creating layer relu3
I0107 16:42:52.898828 19102 net.cpp:84] Creating Layer relu3
I0107 16:42:52.898838 19102 net.cpp:406] relu3 <- conv3
I0107 16:42:52.898847 19102 net.cpp:367] relu3 -> conv3 (in-place)
I0107 16:42:52.898859 19102 net.cpp:122] Setting up relu3
I0107 16:42:52.898870 19102 net.cpp:129] Top shape: 200 384 13 13 (12979200)
I0107 16:42:52.898880 19102 net.cpp:137] Memory required for data: 2035765600
I0107 16:42:52.898887 19102 layer_factory.hpp:77] Creating layer quantized_conv3
I0107 16:42:52.898901 19102 net.cpp:84] Creating Layer quantized_conv3
I0107 16:42:52.898910 19102 net.cpp:406] quantized_conv3 <- conv3
I0107 16:42:52.898921 19102 net.cpp:367] quantized_conv3 -> conv3 (in-place)
I0107 16:42:52.898933 19102 net.cpp:122] Setting up quantized_conv3
I0107 16:42:52.898944 19102 net.cpp:129] Top shape: 200 384 13 13 (12979200)
I0107 16:42:52.898952 19102 net.cpp:137] Memory required for data: 2087682400
I0107 16:42:52.898999 19102 layer_factory.hpp:77] Creating layer conv4
I0107 16:42:52.899020 19102 net.cpp:84] Creating Layer conv4
I0107 16:42:52.899030 19102 net.cpp:406] conv4 <- conv3
I0107 16:42:52.899044 19102 net.cpp:380] conv4 -> conv4
I0107 16:42:52.949947 19102 net.cpp:122] Setting up conv4
I0107 16:42:52.950031 19102 net.cpp:129] Top shape: 200 384 13 13 (12979200)
I0107 16:42:52.950045 19102 net.cpp:137] Memory required for data: 2139599200
I0107 16:42:52.950062 19102 layer_factory.hpp:77] Creating layer bn4
I0107 16:42:52.950079 19102 net.cpp:84] Creating Layer bn4
I0107 16:42:52.950091 19102 net.cpp:406] bn4 <- conv4
I0107 16:42:52.950105 19102 net.cpp:367] bn4 -> conv4 (in-place)
I0107 16:42:52.950287 19102 net.cpp:122] Setting up bn4
I0107 16:42:52.950304 19102 net.cpp:129] Top shape: 200 384 13 13 (12979200)
I0107 16:42:52.950314 19102 net.cpp:137] Memory required for data: 2191516000
I0107 16:42:52.950327 19102 layer_factory.hpp:77] Creating layer scale4
I0107 16:42:52.950345 19102 net.cpp:84] Creating Layer scale4
I0107 16:42:52.950354 19102 net.cpp:406] scale4 <- conv4
I0107 16:42:52.950366 19102 net.cpp:367] scale4 -> conv4 (in-place)
I0107 16:42:52.950419 19102 layer_factory.hpp:77] Creating layer scale4
I0107 16:42:52.950546 19102 net.cpp:122] Setting up scale4
I0107 16:42:52.950562 19102 net.cpp:129] Top shape: 200 384 13 13 (12979200)
I0107 16:42:52.950572 19102 net.cpp:137] Memory required for data: 2243432800
I0107 16:42:52.950584 19102 layer_factory.hpp:77] Creating layer relu4
I0107 16:42:52.950598 19102 net.cpp:84] Creating Layer relu4
I0107 16:42:52.950606 19102 net.cpp:406] relu4 <- conv4
I0107 16:42:52.950619 19102 net.cpp:367] relu4 -> conv4 (in-place)
I0107 16:42:52.950633 19102 net.cpp:122] Setting up relu4
I0107 16:42:52.950644 19102 net.cpp:129] Top shape: 200 384 13 13 (12979200)
I0107 16:42:52.950652 19102 net.cpp:137] Memory required for data: 2295349600
I0107 16:42:52.950661 19102 layer_factory.hpp:77] Creating layer quantized_conv4
I0107 16:42:52.950675 19102 net.cpp:84] Creating Layer quantized_conv4
I0107 16:42:52.950717 19102 net.cpp:406] quantized_conv4 <- conv4
I0107 16:42:52.950732 19102 net.cpp:367] quantized_conv4 -> conv4 (in-place)
I0107 16:42:52.950745 19102 net.cpp:122] Setting up quantized_conv4
I0107 16:42:52.950757 19102 net.cpp:129] Top shape: 200 384 13 13 (12979200)
I0107 16:42:52.950765 19102 net.cpp:137] Memory required for data: 2347266400
I0107 16:42:52.950774 19102 layer_factory.hpp:77] Creating layer conv5
I0107 16:42:52.950791 19102 net.cpp:84] Creating Layer conv5
I0107 16:42:52.950801 19102 net.cpp:406] conv5 <- conv4
I0107 16:42:52.950815 19102 net.cpp:380] conv5 -> conv5
I0107 16:42:52.978879 19102 net.cpp:122] Setting up conv5
I0107 16:42:52.978994 19102 net.cpp:129] Top shape: 200 256 13 13 (8652800)
I0107 16:42:52.979007 19102 net.cpp:137] Memory required for data: 2381877600
I0107 16:42:52.979022 19102 layer_factory.hpp:77] Creating layer bn5
I0107 16:42:52.979043 19102 net.cpp:84] Creating Layer bn5
I0107 16:42:52.979056 19102 net.cpp:406] bn5 <- conv5
I0107 16:42:52.979074 19102 net.cpp:367] bn5 -> conv5 (in-place)
I0107 16:42:52.979265 19102 net.cpp:122] Setting up bn5
I0107 16:42:52.979282 19102 net.cpp:129] Top shape: 200 256 13 13 (8652800)
I0107 16:42:52.979291 19102 net.cpp:137] Memory required for data: 2416488800
I0107 16:42:52.979315 19102 layer_factory.hpp:77] Creating layer scale5
I0107 16:42:52.979331 19102 net.cpp:84] Creating Layer scale5
I0107 16:42:52.979341 19102 net.cpp:406] scale5 <- conv5
I0107 16:42:52.979352 19102 net.cpp:367] scale5 -> conv5 (in-place)
I0107 16:42:52.979414 19102 layer_factory.hpp:77] Creating layer scale5
I0107 16:42:52.979542 19102 net.cpp:122] Setting up scale5
I0107 16:42:52.979559 19102 net.cpp:129] Top shape: 200 256 13 13 (8652800)
I0107 16:42:52.979568 19102 net.cpp:137] Memory required for data: 2451100000
I0107 16:42:52.979581 19102 layer_factory.hpp:77] Creating layer relu5
I0107 16:42:52.979594 19102 net.cpp:84] Creating Layer relu5
I0107 16:42:52.979604 19102 net.cpp:406] relu5 <- conv5
I0107 16:42:52.979617 19102 net.cpp:367] relu5 -> conv5 (in-place)
I0107 16:42:52.979631 19102 net.cpp:122] Setting up relu5
I0107 16:42:52.979642 19102 net.cpp:129] Top shape: 200 256 13 13 (8652800)
I0107 16:42:52.979651 19102 net.cpp:137] Memory required for data: 2485711200
I0107 16:42:52.979660 19102 layer_factory.hpp:77] Creating layer pool5
I0107 16:42:52.979672 19102 net.cpp:84] Creating Layer pool5
I0107 16:42:52.979682 19102 net.cpp:406] pool5 <- conv5
I0107 16:42:52.979693 19102 net.cpp:380] pool5 -> pool5
I0107 16:42:52.979743 19102 net.cpp:122] Setting up pool5
I0107 16:42:52.979759 19102 net.cpp:129] Top shape: 200 256 6 6 (1843200)
I0107 16:42:52.979768 19102 net.cpp:137] Memory required for data: 2493084000
I0107 16:42:52.979777 19102 layer_factory.hpp:77] Creating layer quantized_conv5
I0107 16:42:52.979791 19102 net.cpp:84] Creating Layer quantized_conv5
I0107 16:42:52.979800 19102 net.cpp:406] quantized_conv5 <- pool5
I0107 16:42:52.979813 19102 net.cpp:367] quantized_conv5 -> pool5 (in-place)
I0107 16:42:52.979827 19102 net.cpp:122] Setting up quantized_conv5
I0107 16:42:52.979838 19102 net.cpp:129] Top shape: 200 256 6 6 (1843200)
I0107 16:42:52.979847 19102 net.cpp:137] Memory required for data: 2500456800
I0107 16:42:52.979856 19102 layer_factory.hpp:77] Creating layer fc6
I0107 16:42:52.979876 19102 net.cpp:84] Creating Layer fc6
I0107 16:42:52.979885 19102 net.cpp:406] fc6 <- pool5
I0107 16:42:52.979897 19102 net.cpp:380] fc6 -> fc6
I0107 16:42:54.160557 19102 net.cpp:122] Setting up fc6
I0107 16:42:54.160676 19102 net.cpp:129] Top shape: 200 4096 (819200)
I0107 16:42:54.160687 19102 net.cpp:137] Memory required for data: 2503733600
I0107 16:42:54.160704 19102 layer_factory.hpp:77] Creating layer bn6
I0107 16:42:54.160727 19102 net.cpp:84] Creating Layer bn6
I0107 16:42:54.160739 19102 net.cpp:406] bn6 <- fc6
I0107 16:42:54.160753 19102 net.cpp:367] bn6 -> fc6 (in-place)
I0107 16:42:54.160948 19102 net.cpp:122] Setting up bn6
I0107 16:42:54.160965 19102 net.cpp:129] Top shape: 200 4096 (819200)
I0107 16:42:54.161010 19102 net.cpp:137] Memory required for data: 2507010400
I0107 16:42:54.161025 19102 layer_factory.hpp:77] Creating layer scale6
I0107 16:42:54.161047 19102 net.cpp:84] Creating Layer scale6
I0107 16:42:54.161058 19102 net.cpp:406] scale6 <- fc6
I0107 16:42:54.161070 19102 net.cpp:367] scale6 -> fc6 (in-place)
I0107 16:42:54.161125 19102 layer_factory.hpp:77] Creating layer scale6
I0107 16:42:54.161260 19102 net.cpp:122] Setting up scale6
I0107 16:42:54.161278 19102 net.cpp:129] Top shape: 200 4096 (819200)
I0107 16:42:54.161286 19102 net.cpp:137] Memory required for data: 2510287200
I0107 16:42:54.161298 19102 layer_factory.hpp:77] Creating layer relu6
I0107 16:42:54.161311 19102 net.cpp:84] Creating Layer relu6
I0107 16:42:54.161320 19102 net.cpp:406] relu6 <- fc6
I0107 16:42:54.161334 19102 net.cpp:367] relu6 -> fc6 (in-place)
I0107 16:42:54.161347 19102 net.cpp:122] Setting up relu6
I0107 16:42:54.161357 19102 net.cpp:129] Top shape: 200 4096 (819200)
I0107 16:42:54.161366 19102 net.cpp:137] Memory required for data: 2513564000
I0107 16:42:54.161375 19102 layer_factory.hpp:77] Creating layer drop6
I0107 16:42:54.161394 19102 net.cpp:84] Creating Layer drop6
I0107 16:42:54.161404 19102 net.cpp:406] drop6 <- fc6
I0107 16:42:54.161417 19102 net.cpp:367] drop6 -> fc6 (in-place)
I0107 16:42:54.161459 19102 net.cpp:122] Setting up drop6
I0107 16:42:54.161474 19102 net.cpp:129] Top shape: 200 4096 (819200)
I0107 16:42:54.161484 19102 net.cpp:137] Memory required for data: 2516840800
I0107 16:42:54.161492 19102 layer_factory.hpp:77] Creating layer quantized_fc6
I0107 16:42:54.161505 19102 net.cpp:84] Creating Layer quantized_fc6
I0107 16:42:54.161514 19102 net.cpp:406] quantized_fc6 <- fc6
I0107 16:42:54.161528 19102 net.cpp:367] quantized_fc6 -> fc6 (in-place)
I0107 16:42:54.161541 19102 net.cpp:122] Setting up quantized_fc6
I0107 16:42:54.161552 19102 net.cpp:129] Top shape: 200 4096 (819200)
I0107 16:42:54.161561 19102 net.cpp:137] Memory required for data: 2520117600
I0107 16:42:54.161569 19102 layer_factory.hpp:77] Creating layer fc7
I0107 16:42:54.161583 19102 net.cpp:84] Creating Layer fc7
I0107 16:42:54.161593 19102 net.cpp:406] fc7 <- fc6
I0107 16:42:54.161604 19102 net.cpp:380] fc7 -> fc7
I0107 16:42:54.675348 19102 net.cpp:122] Setting up fc7
I0107 16:42:54.675437 19102 net.cpp:129] Top shape: 200 4096 (819200)
I0107 16:42:54.675451 19102 net.cpp:137] Memory required for data: 2523394400
I0107 16:42:54.675469 19102 layer_factory.hpp:77] Creating layer bn7
I0107 16:42:54.675490 19102 net.cpp:84] Creating Layer bn7
I0107 16:42:54.675513 19102 net.cpp:406] bn7 <- fc7
I0107 16:42:54.675539 19102 net.cpp:367] bn7 -> fc7 (in-place)
I0107 16:42:54.675731 19102 net.cpp:122] Setting up bn7
I0107 16:42:54.675748 19102 net.cpp:129] Top shape: 200 4096 (819200)
I0107 16:42:54.675757 19102 net.cpp:137] Memory required for data: 2526671200
I0107 16:42:54.675770 19102 layer_factory.hpp:77] Creating layer scale7
I0107 16:42:54.675786 19102 net.cpp:84] Creating Layer scale7
I0107 16:42:54.675794 19102 net.cpp:406] scale7 <- fc7
I0107 16:42:54.675807 19102 net.cpp:367] scale7 -> fc7 (in-place)
I0107 16:42:54.675858 19102 layer_factory.hpp:77] Creating layer scale7
I0107 16:42:54.675992 19102 net.cpp:122] Setting up scale7
I0107 16:42:54.676010 19102 net.cpp:129] Top shape: 200 4096 (819200)
I0107 16:42:54.676018 19102 net.cpp:137] Memory required for data: 2529948000
I0107 16:42:54.676031 19102 layer_factory.hpp:77] Creating layer relu7
I0107 16:42:54.676046 19102 net.cpp:84] Creating Layer relu7
I0107 16:42:54.676056 19102 net.cpp:406] relu7 <- fc7
I0107 16:42:54.676066 19102 net.cpp:367] relu7 -> fc7 (in-place)
I0107 16:42:54.676079 19102 net.cpp:122] Setting up relu7
I0107 16:42:54.676090 19102 net.cpp:129] Top shape: 200 4096 (819200)
I0107 16:42:54.676097 19102 net.cpp:137] Memory required for data: 2533224800
I0107 16:42:54.676106 19102 layer_factory.hpp:77] Creating layer drop7
I0107 16:42:54.676120 19102 net.cpp:84] Creating Layer drop7
I0107 16:42:54.676128 19102 net.cpp:406] drop7 <- fc7
I0107 16:42:54.676141 19102 net.cpp:367] drop7 -> fc7 (in-place)
I0107 16:42:54.676231 19102 net.cpp:122] Setting up drop7
I0107 16:42:54.676247 19102 net.cpp:129] Top shape: 200 4096 (819200)
I0107 16:42:54.676256 19102 net.cpp:137] Memory required for data: 2536501600
I0107 16:42:54.676265 19102 layer_factory.hpp:77] Creating layer quantized_fc7
I0107 16:42:54.676282 19102 net.cpp:84] Creating Layer quantized_fc7
I0107 16:42:54.676292 19102 net.cpp:406] quantized_fc7 <- fc7
I0107 16:42:54.676302 19102 net.cpp:367] quantized_fc7 -> fc7 (in-place)
I0107 16:42:54.676316 19102 net.cpp:122] Setting up quantized_fc7
I0107 16:42:54.676326 19102 net.cpp:129] Top shape: 200 4096 (819200)
I0107 16:42:54.676334 19102 net.cpp:137] Memory required for data: 2539778400
I0107 16:42:54.676343 19102 layer_factory.hpp:77] Creating layer fc8
I0107 16:42:54.676357 19102 net.cpp:84] Creating Layer fc8
I0107 16:42:54.676367 19102 net.cpp:406] fc8 <- fc7
I0107 16:42:54.676381 19102 net.cpp:380] fc8 -> fc8
I0107 16:42:54.800760 19102 net.cpp:122] Setting up fc8
I0107 16:42:54.800885 19102 net.cpp:129] Top shape: 200 1000 (200000)
I0107 16:42:54.800896 19102 net.cpp:137] Memory required for data: 2540578400
I0107 16:42:54.800915 19102 layer_factory.hpp:77] Creating layer fc8_fc8_0_split
I0107 16:42:54.800935 19102 net.cpp:84] Creating Layer fc8_fc8_0_split
I0107 16:42:54.800947 19102 net.cpp:406] fc8_fc8_0_split <- fc8
I0107 16:42:54.800962 19102 net.cpp:380] fc8_fc8_0_split -> fc8_fc8_0_split_0
I0107 16:42:54.800981 19102 net.cpp:380] fc8_fc8_0_split -> fc8_fc8_0_split_1
I0107 16:42:54.801040 19102 net.cpp:122] Setting up fc8_fc8_0_split
I0107 16:42:54.801056 19102 net.cpp:129] Top shape: 200 1000 (200000)
I0107 16:42:54.801067 19102 net.cpp:129] Top shape: 200 1000 (200000)
I0107 16:42:54.801075 19102 net.cpp:137] Memory required for data: 2542178400
I0107 16:42:54.801084 19102 layer_factory.hpp:77] Creating layer accuracy_5_TRAIN
I0107 16:42:54.801105 19102 net.cpp:84] Creating Layer accuracy_5_TRAIN
I0107 16:42:54.801115 19102 net.cpp:406] accuracy_5_TRAIN <- fc8_fc8_0_split_0
I0107 16:42:54.801126 19102 net.cpp:406] accuracy_5_TRAIN <- label_data_1_split_0
…
I0107 16:42:54.804401 19102 net.cpp:294] The NetState phase (1) differed from the phase (0) specified by a rule in layer accuracy_5_TRAIN
I0107 16:42:54.804661 19102 net.cpp:51] Initializing net from parameters: 
name: "AlexNet-BN"
state {
  phase: TEST
}
layer {
  name: "data"
  type: "Data"
  top: "data"
  top: "label"
  include {
    phase: TEST
  }
  transform_param {
    mirror: false
    crop_size: 224
    mean_value: 103.939
    mean_value: 116.779
    mean_value: 123.68
  }
  data_param {
    source: "/home/ydwu/database/imagenet/ilsvrc12/lmdb_resize/ilsvrc12_val_lmdb"
    batch_size: 200
    backend: LMDB
  }
}
layer {
  name: "conv1"
  type: "Convolution"
  bottom: "data"
  top: "conv1"
  param {
    lr_mult: 1
    decay_mult: 1
  }
  param {
    lr_mult: 2
    decay_mult: 0
  }
  convolution_param {
    num_output: 96
    pad: 2
    kernel_size: 11
    stride: 4
    weight_filler {
      type: "gaussian"
      std: 0.01
    }
    bias_filler {
      type: "constant"
      value: 0
    }
  }
}
layer {
  name: "bn1"
  type: "BatchNorm"
  bottom: "conv1"
  top: "conv1"
}
layer {
  name: "scale1"
  type: "Scale"
  bottom: "conv1"
  top: "conv1"
  scale_param {
    bias_term: true
  }
}
layer {
  name: "relu1"
  type: "ReLU"
  bottom: "conv1"
  top: "conv1"
}
layer {
  name: "pool1"
  type: "Pooling"
  bottom: "conv1"
  top: "pool1"
  pooling_param {
    pool: MAX
    kernel_size: 3
    stride: 2
  }
}
layer {
  name: "quantized_conv1"
  type: "Quantization"
  bottom: "pool1"
  top: "pool1"
  quantization_param {
    round_method: FLOOR
    round_strategy: AGGRESSIVE
    bit_width: 4
    range: 0
    range: 9.3102551
  }
}
layer {
  name: "conv2"
  type: "Convolution"
  bottom: "pool1"
  top: "conv2"
  param {
    lr_mult: 1
    decay_mult: 1
  }
  param {
    lr_mult: 2
    decay_mult: 0
  }
  convolution_param {
    num_output: 256
    pad: 2
    kernel_size: 5
    weight_filler {
      type: "gaussian"
      std: 0.01
    }
    bias_filler {
      type: "constant"
      value: 0.1
    }
  }
}
layer {
  name: "bn2"
  type: "BatchNorm"
  bottom: "conv2"
  top: "conv2"
}
layer {
  name: "scale2"
  type: "Scale"
  bottom: "conv2"
  top: "conv2"
  scale_param {
    bias_term: true
  }
}
layer {
  name: "relu2"
  type: "ReLU"
  bottom: "conv2"
  top: "conv2"
}
layer {
  name: "pool2"
  type: "Pooling"
  bottom: "conv2"
  top: "pool2"
  pooling_param {
    pool: MAX
    kernel_size: 3
    stride: 2
  }
}
layer {
  name: "quantized_conv2"
  type: "Quantization"
  bottom: "pool2"
  top: "pool2"
  quantization_param {
    round_method: FLOOR
    round_strategy: AGGRESSIVE
    bit_width: 4
    range: 0
    range: 4.4997
  }
}
layer {
  name: "conv3"
  type: "Convolution"
  bottom: "pool2"
  top: "conv3"
  param {
    lr_mult: 1
    decay_mult: 1
  }
  param {
    lr_mult: 2
    decay_mult: 0
  }
  convolution_param {
    num_output: 384
    pad: 1
    kernel_size: 3
    weight_filler {
      type: "gaussian"
      std: 0.01
    }
    bias_filler {
      type: "constant"
      value: 0
    }
  }
}
layer {
  name: "bn3"
  type: "BatchNorm"
  bottom: "conv3"
  top: "conv3"
}
layer {
  name: "scale3"
  type: "Scale"
  bottom: "conv3"
  top: "conv3"
  scale_param {
    bias_term: true
  }
}
layer {
  name: "relu3"
  type: "ReLU"
  bottom: "conv3"
  top: "conv3"
}
layer {
  name: "quantized_conv3"
  type: "Quantization"
  bottom: "conv3"
  top: "conv3"
  quantization_param {
    round_method: FLOOR
    round_strategy: AGGRESSIVE
    bit_width: 4
    range: 0
    range: 5.65636
  }
}
layer {
  name: "conv4"
  type: "Convolution"
  bottom: "conv3"
  top: "conv4"
  param {
    lr_mult: 1
    decay_mult: 1
  }
  param {
    lr_mult: 2
    decay_mult: 0
  }
  convolution_param {
    num_output: 384
    pad: 1
    kernel_size: 3
    weight_filler {
      type: "gaussian"
      std: 0.01
    }
    bias_filler {
      type: "constant"
      value: 0.1
    }
  }
}
layer {
  name: "bn4"
  type: "BatchNorm"
  bottom: "conv4"
  top: "conv4"
}
layer {
  name: "scale4"
  type: "Scale"
  bottom: "conv4"
  top: "conv4"
  scale_param {
    bias_term: true
  }
}
layer {
  name: "relu4"
  type: "ReLU"
  bottom: "conv4"
  top: "conv4"
}
layer {
  name: "quantized_conv4"
  type: "Quantization"
  bottom: "conv4"
  top: "conv4"
  quantization_param {
    round_method: FLOOR
    round_strategy: AGGRESSIVE
    bit_width: 4
    range: 0
    range: 4.891314
  }
}
layer {
  name: "conv5"
  type: "Convolution"
  bottom: "conv4"
  top: "conv5"
  param {
    lr_mult: 1
    decay_mult: 1
  }
  param {
    lr_mult: 2
    decay_mult: 0
  }
  convolution_param {
    num_output: 256
    pad: 1
    kernel_size: 3
    weight_filler {
      type: "gaussian"
      std: 0.01
    }
    bias_filler {
      type: "constant"
      value: 0.1
    }
  }
}
layer {
  name: "bn5"
  type: "BatchNorm"
  bottom: "conv5"
  top: "conv5"
}
layer {
  name: "scale5"
  type: "Scale"
  bottom: "conv5"
  top: "conv5"
  scale_param {
    bias_term: true
  }
}
layer {
  name: "relu5"
  type: "ReLU"
  bottom: "conv5"
  top: "conv5"
}
layer {
  name: "pool5"
  type: "Pooling"
  bottom: "conv5"
  top: "pool5"
  pooling_param {
    pool: MAX
    kernel_size: 3
    stride: 2
  }
}
layer {
  name: "quantized_conv5"
  type: "Quantization"
  bottom: "pool5"
  top: "pool5"
  quantization_param {
    round_method: FLOOR
    round_strategy: AGGRESSIVE
    bit_width: 4
    range: 0
    range: 5.8384752
  }
}
layer {
  name: "fc6"
  type: "InnerProduct"
  bottom: "pool5"
  top: "fc6"
  param {
    lr_mult: 1
    decay_mult: 1
  }
  param {
    lr_mult: 2
    decay_mult: 0
  }
  inner_product_param {
    num_output: 4096
    weight_filler {
      type: "gaussian"
      std: 0.005
    }
    bias_filler {
      type: "constant"
      value: 0.1
    }
  }
}
layer {
  name: "bn6"
  type: "BatchNorm"
  bottom: "fc6"
  top: "fc6"
}
layer {
  name: "scale6"
  type: "Scale"
  bottom: "fc6"
  top: "fc6"
  scale_param {
    bias_term: true
  }
}
layer {
  name: "relu6"
  type: "ReLU"
  bottom: "fc6"
  top: "fc6"
}
layer {
  name: "drop6"
  type: "Dropout"
  bottom: "fc6"
  top: "fc6"
  dropout_param {
    dropout_ratio: 0.5
  }
}
layer {
  name: "quantized_fc6"
  type: "Quantization"
  bottom: "fc6"
  top: "fc6"
  quantization_param {
    round_method: FLOOR
    round_strategy: AGGRESSIVE
    bit_width: 4
    range: 0
    range: 1.106238
  }
}
layer {
  name: "fc7"
  type: "InnerProduct"
  bottom: "fc6"
  top: "fc7"
  param {
    lr_mult: 1
    decay_mult: 1
  }
  param {
    lr_mult: 2
    decay_mult: 0
  }
  inner_product_param {
    num_output: 4096
    weight_filler {
      type: "gaussian"
      std: 0.005
    }
    bias_filler {
      type: "constant"
      value: 0.1
    }
  }
}
layer {
  name: "bn7"
  type: "BatchNorm"
  bottom: "fc7"
  top: "fc7"
}
layer {
  name: "scale7"
  type: "Scale"
  bottom: "fc7"
  top: "fc7"
  scale_param {
    bias_term: true
  }
}
layer {
  name: "relu7"
  type: "ReLU"
  bottom: "fc7"
  top: "fc7"
}
layer {
  name: "drop7"
  type: "Dropout"
  bottom: "fc7"
  top: "fc7"
  dropout_param {
    dropout_ratio: 0.5
  }
}
layer {
  name: "quantized_fc7"
  type: "Quantization"
  bottom: "fc7"
  top: "fc7"
  quantization_param {
    round_method: FLOOR
    round_strategy: AGGRESSIVE
    bit_width: 4
    range: 0
    range: 5.0399008
  }
}
layer {
  name: "fc8"
  type: "InnerProduct"
  bottom: "fc7"
  top: "fc8"
  param {
    lr_mult: 1
    decay_mult: 1
  }
  param {
    lr_mult: 2
    decay_mult: 0
  }
  inner_product_param {
    num_output: 1000
    weight_filler {
      type: "gaussian"
      std: 0.01
    }
    bias_filler {
      type: "constant"
      value: 0
    }
  }
}
layer {
  name: "accuracy"
  type: "Accuracy"
  bottom: "fc8"
  bottom: "label"
  top: "accuracy"
  include {
    phase: TEST
  }
}
layer {
  name: "accuracy_5"
  type: "Accuracy"
  bottom: "fc8"
  bottom: "label"
  top: "accuracy_5"
  include {
    phase: TEST
  }
  accuracy_param {
    top_k: 5
  }
}
layer {
  name: "loss"
  type: "SoftmaxWithLoss"
  bottom: "fc8"
  bottom: "label"
  top: "loss"
}
I0107 16:42:54.804860 19102 layer_factory.hpp:77] Creating layer data
I0107 16:42:54.804975 19102 db_lmdb.cpp:35] Opened lmdb /home/ydwu/database/imagenet/ilsvrc12/lmdb_resize/ilsvrc12_val_lmdb
I0107 16:42:54.805003 19102 net.cpp:84] Creating Layer data
I0107 16:42:54.805017 19102 net.cpp:380] data -> data
I0107 16:42:54.805032 19102 net.cpp:380] data -> label
I0107 16:42:54.805413 19102 data_layer.cpp:45] output data size: 200,3,224,224
I0107 16:42:55.163314 19102 net.cpp:122] Setting up data
I0107 16:42:55.163367 19102 net.cpp:129] Top shape: 200 3 224 224 (30105600)
I0107 16:42:55.163381 19102 net.cpp:129] Top shape: 200 (200)
I0107 16:42:55.163390 19102 net.cpp:137] Memory required for data: 120423200
I0107 16:42:55.163403 19102 layer_factory.hpp:77] Creating layer label_data_1_split
I0107 16:42:55.163425 19102 net.cpp:84] Creating Layer label_data_1_split
I0107 16:42:55.163436 19102 net.cpp:406] label_data_1_split <- label
I0107 16:42:55.163451 19102 net.cpp:380] label_data_1_split -> label_data_1_split_0
I0107 16:42:55.163470 19102 net.cpp:380] label_data_1_split -> label_data_1_split_1
I0107 16:42:55.163483 19102 net.cpp:380] label_data_1_split -> label_data_1_split_2
I0107 16:42:55.163594 19102 net.cpp:122] Setting up label_data_1_split
I0107 16:42:55.163615 19102 net.cpp:129] Top shape: 200 (200)
I0107 16:42:55.163625 19102 net.cpp:129] Top shape: 200 (200)
I0107 16:42:55.163635 19102 net.cpp:129] Top shape: 200 (200)
I0107 16:42:55.163642 19102 net.cpp:137] Memory required for data: 120425600
I0107 16:42:55.163650 19102 layer_factory.hpp:77] Creating layer conv1
I0107 16:42:55.163676 19102 net.cpp:84] Creating Layer conv1
I0107 16:42:55.163686 19102 net.cpp:406] conv1 <- data
I0107 16:42:55.163699 19102 net.cpp:380] conv1 -> conv1
I0107 16:42:55.183168 19102 net.cpp:122] Setting up conv1
I0107 16:42:55.183192 19102 net.cpp:129] Top shape: 200 96 55 55 (58080000)
I0107 16:42:55.183202 19102 net.cpp:137] Memory required for data: 352745600
I0107 16:42:55.183218 19102 layer_factory.hpp:77] Creating layer bn1
I0107 16:42:55.183233 19102 net.cpp:84] Creating Layer bn1
I0107 16:42:55.183243 19102 net.cpp:406] bn1 <- conv1
I0107 16:42:55.183254 19102 net.cpp:367] bn1 -> conv1 (in-place)
I0107 16:42:55.183459 19102 net.cpp:122] Setting up bn1
I0107 16:42:55.183475 19102 net.cpp:129] Top shape: 200 96 55 55 (58080000)
I0107 16:42:55.183485 19102 net.cpp:137] Memory required for data: 585065600
I0107 16:42:55.183501 19102 layer_factory.hpp:77] Creating layer scale1
I0107 16:42:55.183517 19102 net.cpp:84] Creating Layer scale1
I0107 16:42:55.183526 19102 net.cpp:406] scale1 <- conv1
I0107 16:42:55.183538 19102 net.cpp:367] scale1 -> conv1 (in-place)
I0107 16:42:55.183590 19102 layer_factory.hpp:77] Creating layer scale1
I0107 16:42:55.183722 19102 net.cpp:122] Setting up scale1
I0107 16:42:55.183738 19102 net.cpp:129] Top shape: 200 96 55 55 (58080000)
I0107 16:42:55.183746 19102 net.cpp:137] Memory required for data: 817385600
I0107 16:42:55.183758 19102 layer_factory.hpp:77] Creating layer relu1
I0107 16:42:55.183771 19102 net.cpp:84] Creating Layer relu1
I0107 16:42:55.183780 19102 net.cpp:406] relu1 <- conv1
I0107 16:42:55.183791 19102 net.cpp:367] relu1 -> conv1 (in-place)
I0107 16:42:55.183804 19102 net.cpp:122] Setting up relu1
I0107 16:42:55.183814 19102 net.cpp:129] Top shape: 200 96 55 55 (58080000)
I0107 16:42:55.183821 19102 net.cpp:137] Memory required for data: 1049705600
I0107 16:42:55.183830 19102 layer_factory.hpp:77] Creating layer pool1
I0107 16:42:55.183843 19102 net.cpp:84] Creating Layer pool1
I0107 16:42:55.183852 19102 net.cpp:406] pool1 <- conv1
I0107 16:42:55.183863 19102 net.cpp:380] pool1 -> pool1
I0107 16:42:55.183910 19102 net.cpp:122] Setting up pool1
I0107 16:42:55.183925 19102 net.cpp:129] Top shape: 200 96 27 27 (13996800)
I0107 16:42:55.183934 19102 net.cpp:137] Memory required for data: 1105692800
I0107 16:42:55.183943 19102 layer_factory.hpp:77] Creating layer quantized_conv1
I0107 16:42:55.183956 19102 net.cpp:84] Creating Layer quantized_conv1
I0107 16:42:55.183965 19102 net.cpp:406] quantized_conv1 <- pool1
I0107 16:42:55.183976 19102 net.cpp:367] quantized_conv1 -> pool1 (in-place)
I0107 16:42:55.183989 19102 net.cpp:122] Setting up quantized_conv1
I0107 16:42:55.184000 19102 net.cpp:129] Top shape: 200 96 27 27 (13996800)
I0107 16:42:55.184007 19102 net.cpp:137] Memory required for data: 1161680000
I0107 16:42:55.184016 19102 layer_factory.hpp:77] Creating layer conv2
I0107 16:42:55.184032 19102 net.cpp:84] Creating Layer conv2
I0107 16:42:55.184042 19102 net.cpp:406] conv2 <- pool1
I0107 16:42:55.184054 19102 net.cpp:380] conv2 -> conv2
I0107 16:42:55.203372 19102 net.cpp:122] Setting up conv2
I0107 16:42:55.203421 19102 net.cpp:129] Top shape: 200 256 27 27 (37324800)
I0107 16:42:55.203431 19102 net.cpp:137] Memory required for data: 1310979200
I0107 16:42:55.203451 19102 layer_factory.hpp:77] Creating layer bn2
I0107 16:42:55.203472 19102 net.cpp:84] Creating Layer bn2
I0107 16:42:55.203483 19102 net.cpp:406] bn2 <- conv2
I0107 16:42:55.203497 19102 net.cpp:367] bn2 -> conv2 (in-place)
I0107 16:42:55.203682 19102 net.cpp:122] Setting up bn2
I0107 16:42:55.203699 19102 net.cpp:129] Top shape: 200 256 27 27 (37324800)
I0107 16:42:55.203708 19102 net.cpp:137] Memory required for data: 1460278400
I0107 16:42:55.203763 19102 layer_factory.hpp:77] Creating layer scale2
I0107 16:42:55.203780 19102 net.cpp:84] Creating Layer scale2
I0107 16:42:55.203789 19102 net.cpp:406] scale2 <- conv2
I0107 16:42:55.203800 19102 net.cpp:367] scale2 -> conv2 (in-place)
I0107 16:42:55.203858 19102 layer_factory.hpp:77] Creating layer scale2
I0107 16:42:55.203977 19102 net.cpp:122] Setting up scale2
I0107 16:42:55.203995 19102 net.cpp:129] Top shape: 200 256 27 27 (37324800)
I0107 16:42:55.204005 19102 net.cpp:137] Memory required for data: 1609577600
I0107 16:42:55.204016 19102 layer_factory.hpp:77] Creating layer relu2
I0107 16:42:55.204030 19102 net.cpp:84] Creating Layer relu2
I0107 16:42:55.204038 19102 net.cpp:406] relu2 <- conv2
I0107 16:42:55.204048 19102 net.cpp:367] relu2 -> conv2 (in-place)
I0107 16:42:55.204061 19102 net.cpp:122] Setting up relu2
I0107 16:42:55.204071 19102 net.cpp:129] Top shape: 200 256 27 27 (37324800)
I0107 16:42:55.204079 19102 net.cpp:137] Memory required for data: 1758876800
I0107 16:42:55.204088 19102 layer_factory.hpp:77] Creating layer pool2
I0107 16:42:55.204100 19102 net.cpp:84] Creating Layer pool2
I0107 16:42:55.204109 19102 net.cpp:406] pool2 <- conv2
I0107 16:42:55.204121 19102 net.cpp:380] pool2 -> pool2
I0107 16:42:55.204170 19102 net.cpp:122] Setting up pool2
I0107 16:42:55.204185 19102 net.cpp:129] Top shape: 200 256 13 13 (8652800)
I0107 16:42:55.204195 19102 net.cpp:137] Memory required for data: 1793488000
I0107 16:42:55.204203 19102 layer_factory.hpp:77] Creating layer quantized_conv2
I0107 16:42:55.204217 19102 net.cpp:84] Creating Layer quantized_conv2
I0107 16:42:55.204226 19102 net.cpp:406] quantized_conv2 <- pool2
I0107 16:42:55.204237 19102 net.cpp:367] quantized_conv2 -> pool2 (in-place)
I0107 16:42:55.204250 19102 net.cpp:122] Setting up quantized_conv2
I0107 16:42:55.204260 19102 net.cpp:129] Top shape: 200 256 13 13 (8652800)
I0107 16:42:55.204268 19102 net.cpp:137] Memory required for data: 1828099200
I0107 16:42:55.204277 19102 layer_factory.hpp:77] Creating layer conv3
I0107 16:42:55.204294 19102 net.cpp:84] Creating Layer conv3
I0107 16:42:55.204303 19102 net.cpp:406] conv3 <- pool2
I0107 16:42:55.204316 19102 net.cpp:380] conv3 -> conv3
I0107 16:42:55.231799 19102 net.cpp:122] Setting up conv3
I0107 16:42:55.231848 19102 net.cpp:129] Top shape: 200 384 13 13 (12979200)
I0107 16:42:55.231858 19102 net.cpp:137] Memory required for data: 1880016000
I0107 16:42:55.231873 19102 layer_factory.hpp:77] Creating layer bn3
I0107 16:42:55.231892 19102 net.cpp:84] Creating Layer bn3
I0107 16:42:55.231904 19102 net.cpp:406] bn3 <- conv3
I0107 16:42:55.231920 19102 net.cpp:367] bn3 -> conv3 (in-place)
I0107 16:42:55.232105 19102 net.cpp:122] Setting up bn3
I0107 16:42:55.232121 19102 net.cpp:129] Top shape: 200 384 13 13 (12979200)
I0107 16:42:55.232129 19102 net.cpp:137] Memory required for data: 1931932800
I0107 16:42:55.232149 19102 layer_factory.hpp:77] Creating layer scale3
I0107 16:42:55.232167 19102 net.cpp:84] Creating Layer scale3
I0107 16:42:55.232178 19102 net.cpp:406] scale3 <- conv3
I0107 16:42:55.232189 19102 net.cpp:367] scale3 -> conv3 (in-place)
I0107 16:42:55.232245 19102 layer_factory.hpp:77] Creating layer scale3
I0107 16:42:55.232368 19102 net.cpp:122] Setting up scale3
I0107 16:42:55.232385 19102 net.cpp:129] Top shape: 200 384 13 13 (12979200)
I0107 16:42:55.232394 19102 net.cpp:137] Memory required for data: 1983849600
I0107 16:42:55.232405 19102 layer_factory.hpp:77] Creating layer relu3
I0107 16:42:55.232419 19102 net.cpp:84] Creating Layer relu3
I0107 16:42:55.232427 19102 net.cpp:406] relu3 <- conv3
I0107 16:42:55.232439 19102 net.cpp:367] relu3 -> conv3 (in-place)
I0107 16:42:55.232450 19102 net.cpp:122] Setting up relu3
I0107 16:42:55.232460 19102 net.cpp:129] Top shape: 200 384 13 13 (12979200)
I0107 16:42:55.232468 19102 net.cpp:137] Memory required for data: 2035766400
I0107 16:42:55.232477 19102 layer_factory.hpp:77] Creating layer quantized_conv3
I0107 16:42:55.232491 19102 net.cpp:84] Creating Layer quantized_conv3
I0107 16:42:55.232539 19102 net.cpp:406] quantized_conv3 <- conv3
I0107 16:42:55.232553 19102 net.cpp:367] quantized_conv3 -> conv3 (in-place)
I0107 16:42:55.232565 19102 net.cpp:122] Setting up quantized_conv3
I0107 16:42:55.232576 19102 net.cpp:129] Top shape: 200 384 13 13 (12979200)
I0107 16:42:55.232584 19102 net.cpp:137] Memory required for data: 2087683200
I0107 16:42:55.232594 19102 layer_factory.hpp:77] Creating layer conv4
I0107 16:42:55.232611 19102 net.cpp:84] Creating Layer conv4
I0107 16:42:55.232620 19102 net.cpp:406] conv4 <- conv3
I0107 16:42:55.232632 19102 net.cpp:380] conv4 -> conv4
I0107 16:42:55.273490 19102 net.cpp:122] Setting up conv4
I0107 16:42:55.273541 19102 net.cpp:129] Top shape: 200 384 13 13 (12979200)
I0107 16:42:55.273551 19102 net.cpp:137] Memory required for data: 2139600000
I0107 16:42:55.273566 19102 layer_factory.hpp:77] Creating layer bn4
I0107 16:42:55.273586 19102 net.cpp:84] Creating Layer bn4
I0107 16:42:55.273597 19102 net.cpp:406] bn4 <- conv4
I0107 16:42:55.273618 19102 net.cpp:367] bn4 -> conv4 (in-place)
I0107 16:42:55.273809 19102 net.cpp:122] Setting up bn4
I0107 16:42:55.273825 19102 net.cpp:129] Top shape: 200 384 13 13 (12979200)
I0107 16:42:55.273834 19102 net.cpp:137] Memory required for data: 2191516800
I0107 16:42:55.273849 19102 layer_factory.hpp:77] Creating layer scale4
I0107 16:42:55.273862 19102 net.cpp:84] Creating Layer scale4
I0107 16:42:55.273871 19102 net.cpp:406] scale4 <- conv4
I0107 16:42:55.273882 19102 net.cpp:367] scale4 -> conv4 (in-place)
I0107 16:42:55.273941 19102 layer_factory.hpp:77] Creating layer scale4
I0107 16:42:55.274078 19102 net.cpp:122] Setting up scale4
I0107 16:42:55.274096 19102 net.cpp:129] Top shape: 200 384 13 13 (12979200)
I0107 16:42:55.274106 19102 net.cpp:137] Memory required for data: 2243433600
I0107 16:42:55.274117 19102 layer_factory.hpp:77] Creating layer relu4
I0107 16:42:55.274130 19102 net.cpp:84] Creating Layer relu4
I0107 16:42:55.274139 19102 net.cpp:406] relu4 <- conv4
I0107 16:42:55.274152 19102 net.cpp:367] relu4 -> conv4 (in-place)
I0107 16:42:55.274165 19102 net.cpp:122] Setting up relu4
I0107 16:42:55.274175 19102 net.cpp:129] Top shape: 200 384 13 13 (12979200)
I0107 16:42:55.274184 19102 net.cpp:137] Memory required for data: 2295350400
I0107 16:42:55.274193 19102 layer_factory.hpp:77] Creating layer quantized_conv4
I0107 16:42:55.274205 19102 net.cpp:84] Creating Layer quantized_conv4
I0107 16:42:55.274214 19102 net.cpp:406] quantized_conv4 <- conv4
I0107 16:42:55.274224 19102 net.cpp:367] quantized_conv4 -> conv4 (in-place)
I0107 16:42:55.274236 19102 net.cpp:122] Setting up quantized_conv4
I0107 16:42:55.274246 19102 net.cpp:129] Top shape: 200 384 13 13 (12979200)
I0107 16:42:55.274255 19102 net.cpp:137] Memory required for data: 2347267200
I0107 16:42:55.274263 19102 layer_factory.hpp:77] Creating layer conv5
I0107 16:42:55.274283 19102 net.cpp:84] Creating Layer conv5
I0107 16:42:55.274292 19102 net.cpp:406] conv5 <- conv4
I0107 16:42:55.274307 19102 net.cpp:380] conv5 -> conv5
I0107 16:42:55.301720 19102 net.cpp:122] Setting up conv5
I0107 16:42:55.301769 19102 net.cpp:129] Top shape: 200 256 13 13 (8652800)
I0107 16:42:55.301779 19102 net.cpp:137] Memory required for data: 2381878400
I0107 16:42:55.301795 19102 layer_factory.hpp:77] Creating layer bn5
I0107 16:42:55.301815 19102 net.cpp:84] Creating Layer bn5
I0107 16:42:55.301827 19102 net.cpp:406] bn5 <- conv5
I0107 16:42:55.301841 19102 net.cpp:367] bn5 -> conv5 (in-place)
I0107 16:42:55.302040 19102 net.cpp:122] Setting up bn5
I0107 16:42:55.302057 19102 net.cpp:129] Top shape: 200 256 13 13 (8652800)
I0107 16:42:55.302065 19102 net.cpp:137] Memory required for data: 2416489600
I0107 16:42:55.302088 19102 layer_factory.hpp:77] Creating layer scale5
I0107 16:42:55.302104 19102 net.cpp:84] Creating Layer scale5
I0107 16:42:55.302114 19102 net.cpp:406] scale5 <- conv5
I0107 16:42:55.302127 19102 net.cpp:367] scale5 -> conv5 (in-place)
I0107 16:42:55.302191 19102 layer_factory.hpp:77] Creating layer scale5
I0107 16:42:55.302320 19102 net.cpp:122] Setting up scale5
I0107 16:42:55.302371 19102 net.cpp:129] Top shape: 200 256 13 13 (8652800)
I0107 16:42:55.302381 19102 net.cpp:137] Memory required for data: 2451100800
I0107 16:42:55.302393 19102 layer_factory.hpp:77] Creating layer relu5
I0107 16:42:55.302410 19102 net.cpp:84] Creating Layer relu5
I0107 16:42:55.302420 19102 net.cpp:406] relu5 <- conv5
I0107 16:42:55.302431 19102 net.cpp:367] relu5 -> conv5 (in-place)
I0107 16:42:55.302443 19102 net.cpp:122] Setting up relu5
I0107 16:42:55.302453 19102 net.cpp:129] Top shape: 200 256 13 13 (8652800)
I0107 16:42:55.302462 19102 net.cpp:137] Memory required for data: 2485712000
I0107 16:42:55.302470 19102 layer_factory.hpp:77] Creating layer pool5
I0107 16:42:55.302482 19102 net.cpp:84] Creating Layer pool5
I0107 16:42:55.302491 19102 net.cpp:406] pool5 <- conv5
I0107 16:42:55.302505 19102 net.cpp:380] pool5 -> pool5
I0107 16:42:55.302553 19102 net.cpp:122] Setting up pool5
I0107 16:42:55.302569 19102 net.cpp:129] Top shape: 200 256 6 6 (1843200)
I0107 16:42:55.302578 19102 net.cpp:137] Memory required for data: 2493084800
I0107 16:42:55.302587 19102 layer_factory.hpp:77] Creating layer quantized_conv5
I0107 16:42:55.302603 19102 net.cpp:84] Creating Layer quantized_conv5
I0107 16:42:55.302613 19102 net.cpp:406] quantized_conv5 <- pool5
I0107 16:42:55.302623 19102 net.cpp:367] quantized_conv5 -> pool5 (in-place)
I0107 16:42:55.302636 19102 net.cpp:122] Setting up quantized_conv5
I0107 16:42:55.302647 19102 net.cpp:129] Top shape: 200 256 6 6 (1843200)
I0107 16:42:55.302655 19102 net.cpp:137] Memory required for data: 2500457600
I0107 16:42:55.302664 19102 layer_factory.hpp:77] Creating layer fc6
I0107 16:42:55.302678 19102 net.cpp:84] Creating Layer fc6
I0107 16:42:55.302687 19102 net.cpp:406] fc6 <- pool5
I0107 16:42:55.302697 19102 net.cpp:380] fc6 -> fc6
I0107 16:42:56.446012 19102 net.cpp:122] Setting up fc6
I0107 16:42:56.446115 19102 net.cpp:129] Top shape: 200 4096 (819200)
I0107 16:42:56.446125 19102 net.cpp:137] Memory required for data: 2503734400
I0107 16:42:56.446142 19102 layer_factory.hpp:77] Creating layer bn6
I0107 16:42:56.446164 19102 net.cpp:84] Creating Layer bn6
I0107 16:42:56.446177 19102 net.cpp:406] bn6 <- fc6
I0107 16:42:56.446192 19102 net.cpp:367] bn6 -> fc6 (in-place)
I0107 16:42:56.446393 19102 net.cpp:122] Setting up bn6
I0107 16:42:56.446409 19102 net.cpp:129] Top shape: 200 4096 (819200)
I0107 16:42:56.446419 19102 net.cpp:137] Memory required for data: 2507011200
I0107 16:42:56.446432 19102 layer_factory.hpp:77] Creating layer scale6
I0107 16:42:56.446455 19102 net.cpp:84] Creating Layer scale6
I0107 16:42:56.446465 19102 net.cpp:406] scale6 <- fc6
I0107 16:42:56.446475 19102 net.cpp:367] scale6 -> fc6 (in-place)
I0107 16:42:56.446532 19102 layer_factory.hpp:77] Creating layer scale6
I0107 16:42:56.446669 19102 net.cpp:122] Setting up scale6
I0107 16:42:56.446686 19102 net.cpp:129] Top shape: 200 4096 (819200)
I0107 16:42:56.446694 19102 net.cpp:137] Memory required for data: 2510288000
I0107 16:42:56.446707 19102 layer_factory.hpp:77] Creating layer relu6
I0107 16:42:56.446722 19102 net.cpp:84] Creating Layer relu6
I0107 16:42:56.446732 19102 net.cpp:406] relu6 <- fc6
I0107 16:42:56.446743 19102 net.cpp:367] relu6 -> fc6 (in-place)
I0107 16:42:56.446754 19102 net.cpp:122] Setting up relu6
I0107 16:42:56.446764 19102 net.cpp:129] Top shape: 200 4096 (819200)
I0107 16:42:56.446774 19102 net.cpp:137] Memory required for data: 2513564800
I0107 16:42:56.446781 19102 layer_factory.hpp:77] Creating layer drop6
I0107 16:42:56.446797 19102 net.cpp:84] Creating Layer drop6
I0107 16:42:56.446806 19102 net.cpp:406] drop6 <- fc6
I0107 16:42:56.446817 19102 net.cpp:367] drop6 -> fc6 (in-place)
I0107 16:42:56.446848 19102 net.cpp:122] Setting up drop6
I0107 16:42:56.446863 19102 net.cpp:129] Top shape: 200 4096 (819200)
I0107 16:42:56.446872 19102 net.cpp:137] Memory required for data: 2516841600
I0107 16:42:56.446880 19102 layer_factory.hpp:77] Creating layer quantized_fc6
I0107 16:42:56.446897 19102 net.cpp:84] Creating Layer quantized_fc6
I0107 16:42:56.446939 19102 net.cpp:406] quantized_fc6 <- fc6
I0107 16:42:56.446952 19102 net.cpp:367] quantized_fc6 -> fc6 (in-place)
I0107 16:42:56.447016 19102 net.cpp:122] Setting up quantized_fc6
I0107 16:42:56.447029 19102 net.cpp:129] Top shape: 200 4096 (819200)
I0107 16:42:56.447038 19102 net.cpp:137] Memory required for data: 2520118400
I0107 16:42:56.447048 19102 layer_factory.hpp:77] Creating layer fc7
I0107 16:42:56.447062 19102 net.cpp:84] Creating Layer fc7
I0107 16:42:56.447070 19102 net.cpp:406] fc7 <- fc6
I0107 16:42:56.447082 19102 net.cpp:380] fc7 -> fc7
I0107 16:42:56.952450 19102 net.cpp:122] Setting up fc7
I0107 16:42:56.952518 19102 net.cpp:129] Top shape: 200 4096 (819200)
I0107 16:42:56.952539 19102 net.cpp:137] Memory required for data: 2523395200
I0107 16:42:56.952556 19102 layer_factory.hpp:77] Creating layer bn7
I0107 16:42:56.952582 19102 net.cpp:84] Creating Layer bn7
I0107 16:42:56.952597 19102 net.cpp:406] bn7 <- fc7
I0107 16:42:56.952615 19102 net.cpp:367] bn7 -> fc7 (in-place)
I0107 16:42:56.952816 19102 net.cpp:122] Setting up bn7
I0107 16:42:56.952833 19102 net.cpp:129] Top shape: 200 4096 (819200)
I0107 16:42:56.952842 19102 net.cpp:137] Memory required for data: 2526672000
I0107 16:42:56.952857 19102 layer_factory.hpp:77] Creating layer scale7
I0107 16:42:56.952872 19102 net.cpp:84] Creating Layer scale7
I0107 16:42:56.952883 19102 net.cpp:406] scale7 <- fc7
I0107 16:42:56.952893 19102 net.cpp:367] scale7 -> fc7 (in-place)
I0107 16:42:56.952944 19102 layer_factory.hpp:77] Creating layer scale7
I0107 16:42:56.953091 19102 net.cpp:122] Setting up scale7
I0107 16:42:56.953109 19102 net.cpp:129] Top shape: 200 4096 (819200)
I0107 16:42:56.953117 19102 net.cpp:137] Memory required for data: 2529948800
I0107 16:42:56.953130 19102 layer_factory.hpp:77] Creating layer relu7
I0107 16:42:56.953142 19102 net.cpp:84] Creating Layer relu7
I0107 16:42:56.953151 19102 net.cpp:406] relu7 <- fc7
I0107 16:42:56.953161 19102 net.cpp:367] relu7 -> fc7 (in-place)
I0107 16:42:56.953173 19102 net.cpp:122] Setting up relu7
I0107 16:42:56.953183 19102 net.cpp:129] Top shape: 200 4096 (819200)
I0107 16:42:56.953192 19102 net.cpp:137] Memory required for data: 2533225600
I0107 16:42:56.953200 19102 layer_factory.hpp:77] Creating layer drop7
I0107 16:42:56.953217 19102 net.cpp:84] Creating Layer drop7
I0107 16:42:56.953227 19102 net.cpp:406] drop7 <- fc7
I0107 16:42:56.953236 19102 net.cpp:367] drop7 -> fc7 (in-place)
I0107 16:42:56.953272 19102 net.cpp:122] Setting up drop7
I0107 16:42:56.953287 19102 net.cpp:129] Top shape: 200 4096 (819200)
I0107 16:42:56.953295 19102 net.cpp:137] Memory required for data: 2536502400
I0107 16:42:56.953305 19102 layer_factory.hpp:77] Creating layer quantized_fc7
I0107 16:42:56.953317 19102 net.cpp:84] Creating Layer quantized_fc7
I0107 16:42:56.953326 19102 net.cpp:406] quantized_fc7 <- fc7
I0107 16:42:56.953341 19102 net.cpp:367] quantized_fc7 -> fc7 (in-place)
I0107 16:42:56.953353 19102 net.cpp:122] Setting up quantized_fc7
I0107 16:42:56.953364 19102 net.cpp:129] Top shape: 200 4096 (819200)
I0107 16:42:56.953372 19102 net.cpp:137] Memory required for data: 2539779200
I0107 16:42:56.953380 19102 layer_factory.hpp:77] Creating layer fc8
I0107 16:42:56.953395 19102 net.cpp:84] Creating Layer fc8
I0107 16:42:56.953404 19102 net.cpp:406] fc8 <- fc7
I0107 16:42:56.953415 19102 net.cpp:380] fc8 -> fc8
I0107 16:42:57.076637 19102 net.cpp:122] Setting up fc8
I0107 16:42:57.076696 19102 net.cpp:129] Top shape: 200 1000 (200000)
I0107 16:42:57.076707 19102 net.cpp:137] Memory required for data: 2540579200
I0107 16:42:57.076725 19102 layer_factory.hpp:77] Creating layer fc8_fc8_0_split
I0107 16:42:57.076742 19102 net.cpp:84] Creating Layer fc8_fc8_0_split
I0107 16:42:57.076755 19102 net.cpp:406] fc8_fc8_0_split <- fc8
I0107 16:42:57.076771 19102 net.cpp:380] fc8_fc8_0_split -> fc8_fc8_0_split_0
I0107 16:42:57.076792 19102 net.cpp:380] fc8_fc8_0_split -> fc8_fc8_0_split_1
I0107 16:42:57.076804 19102 net.cpp:380] fc8_fc8_0_split -> fc8_fc8_0_split_2
I0107 16:42:57.076874 19102 net.cpp:122] Setting up fc8_fc8_0_split
I0107 16:42:57.076922 19102 net.cpp:129] Top shape: 200 1000 (200000)
I0107 16:42:57.076933 19102 net.cpp:129] Top shape: 200 1000 (200000)
I0107 16:42:57.076942 19102 net.cpp:129] Top shape: 200 1000 (200000)
I0107 16:42:57.076951 19102 net.cpp:137] Memory required for data: 2542979200
I0107 16:42:57.076958 19102 layer_factory.hpp:77] Creating layer accuracy
I0107 16:42:57.076972 19102 net.cpp:84] Creating Layer accuracy
I0107 16:42:57.076982 19102 net.cpp:406] accuracy <- fc8_fc8_0_split_0
I0107 16:42:57.076992 19102 net.cpp:406] accuracy <- label_data_1_split_0
I0107 16:42:57.077002 19102 net.cpp:380] accuracy -> accuracy
…
