…
I0105 17:36:55.182582 41651 net.cpp:294] The NetState phase (0) differed from the phase (1) specified by a rule in layer accuracy_5
I0105 17:36:55.182842 41651 net.cpp:51] Initializing net from parameters: 
name: "AlexNet-BN"
state {
  phase: TRAIN
  level: 0
  stage: ""
}
layer {
  name: "data"
  type: "Data"
  top: "data"
  top: "label"
  include {
    phase: TRAIN
  }
  transform_param {
    mirror: true
    crop_size: 224
    mean_value: 103.939
    mean_value: 116.779
    mean_value: 123.68
  }
  data_param {
    source: "/home/ydwu/database/imagenet/ilsvrc12/lmdb_resize/ilsvrc12_train_lmdb"
    batch_size: 200
    backend: LMDB
  }
}
layer {
  name: "conv1"
  type: "Convolution"
  bottom: "data"
  top: "conv1"
  param {
    lr_mult: 1
    decay_mult: 1
  }
  param {
    lr_mult: 2
    decay_mult: 0
  }
  convolution_param {
    num_output: 96
    pad: 2
    kernel_size: 11
    stride: 4
    weight_filler {
      type: "gaussian"
      std: 0.01
    }
    bias_filler {
      type: "constant"
      value: 0
    }
  }
}
layer {
  name: "bn1"
  type: "BatchNorm"
  bottom: "conv1"
  top: "conv1"
}
layer {
  name: "scale1"
  type: "Scale"
  bottom: "conv1"
  top: "conv1"
  scale_param {
    bias_term: true
  }
}
layer {
  name: "relu1"
  type: "ReLU"
  bottom: "conv1"
  top: "conv1"
}
layer {
  name: "pool1"
  type: "Pooling"
  bottom: "conv1"
  top: "pool1"
  pooling_param {
    pool: MAX
    kernel_size: 3
    stride: 2
  }
}
layer {
  name: "quantized_conv1"
  type: "Quantization"
  bottom: "pool1"
  top: "pool1"
  quantization_param {
    round_method: FLOOR
    round_strategy: AGGRESSIVE
    bit_width: 4
    range: 0
    range: 9.3102551
  }
}
layer {
  name: "conv2"
  type: "Convolution"
  bottom: "pool1"
  top: "conv2"
  param {
    lr_mult: 1
    decay_mult: 1
  }
  param {
    lr_mult: 2
    decay_mult: 0
  }
  convolution_param {
    num_output: 256
    pad: 2
    kernel_size: 5
    weight_filler {
      type: "gaussian"
      std: 0.01
    }
    bias_filler {
      type: "constant"
      value: 0.1
    }
  }
}
layer {
  name: "bn2"
  type: "BatchNorm"
  bottom: "conv2"
  top: "conv2"
}
layer {
  name: "scale2"
  type: "Scale"
  bottom: "conv2"
  top: "conv2"
  scale_param {
    bias_term: true
  }
}
layer {
  name: "relu2"
  type: "ReLU"
  bottom: "conv2"
  top: "conv2"
}
layer {
  name: "pool2"
  type: "Pooling"
  bottom: "conv2"
  top: "pool2"
  pooling_param {
    pool: MAX
    kernel_size: 3
    stride: 2
  }
}
layer {
  name: "quantized_conv2"
  type: "Quantization"
  bottom: "pool2"
  top: "pool2"
  quantization_param {
    round_method: FLOOR
    round_strategy: AGGRESSIVE
    bit_width: 4
    range: 0
    range: 4.4997
  }
}
layer {
  name: "conv3"
  type: "Convolution"
  bottom: "pool2"
  top: "conv3"
  param {
    lr_mult: 1
    decay_mult: 1
  }
  param {
    lr_mult: 2
    decay_mult: 0
  }
  convolution_param {
    num_output: 384
    pad: 1
    kernel_size: 3
    weight_filler {
      type: "gaussian"
      std: 0.01
    }
    bias_filler {
      type: "constant"
      value: 0
    }
  }
}
layer {
  name: "bn3"
  type: "BatchNorm"
  bottom: "conv3"
  top: "conv3"
}
layer {
  name: "scale3"
  type: "Scale"
  bottom: "conv3"
  top: "conv3"
  scale_param {
    bias_term: true
  }
}
layer {
  name: "relu3"
  type: "ReLU"
  bottom: "conv3"
  top: "conv3"
}
layer {
  name: "quantized_conv3"
  type: "Quantization"
  bottom: "conv3"
  top: "conv3"
  quantization_param {
    round_method: FLOOR
    round_strategy: AGGRESSIVE
    bit_width: 4
    range: 0
    range: 5.65636
  }
}
layer {
  name: "conv4"
  type: "Convolution"
  bottom: "conv3"
  top: "conv4"
  param {
    lr_mult: 1
    decay_mult: 1
  }
  param {
    lr_mult: 2
    decay_mult: 0
  }
  convolution_param {
    num_output: 384
    pad: 1
    kernel_size: 3
    weight_filler {
      type: "gaussian"
      std: 0.01
    }
    bias_filler {
      type: "constant"
      value: 0.1
    }
  }
}
layer {
  name: "bn4"
  type: "BatchNorm"
  bottom: "conv4"
  top: "conv4"
}
layer {
  name: "scale4"
  type: "Scale"
  bottom: "conv4"
  top: "conv4"
  scale_param {
    bias_term: true
  }
}
layer {
  name: "relu4"
  type: "ReLU"
  bottom: "conv4"
  top: "conv4"
}
layer {
  name: "quantized_conv4"
  type: "Quantization"
  bottom: "conv4"
  top: "conv4"
  quantization_param {
    round_method: FLOOR
    round_strategy: AGGRESSIVE
    bit_width: 4
    range: 0
    range: 4.891314
  }
}
layer {
  name: "conv5"
  type: "Convolution"
  bottom: "conv4"
  top: "conv5"
  param {
    lr_mult: 1
    decay_mult: 1
  }
  param {
    lr_mult: 2
    decay_mult: 0
  }
  convolution_param {
    num_output: 256
    pad: 1
    kernel_size: 3
    weight_filler {
      type: "gaussian"
      std: 0.01
    }
    bias_filler {
      type: "constant"
      value: 0.1
    }
  }
}
layer {
  name: "bn5"
  type: "BatchNorm"
  bottom: "conv5"
  top: "conv5"
}
layer {
  name: "scale5"
  type: "Scale"
  bottom: "conv5"
  top: "conv5"
  scale_param {
    bias_term: true
  }
}
layer {
  name: "relu5"
  type: "ReLU"
  bottom: "conv5"
  top: "conv5"
}
layer {
  name: "pool5"
  type: "Pooling"
  bottom: "conv5"
  top: "pool5"
  pooling_param {
    pool: MAX
    kernel_size: 3
    stride: 2
  }
}
layer {
  name: "quantized_conv5"
  type: "Quantization"
  bottom: "pool5"
  top: "pool5"
  quantization_param {
    round_method: FLOOR
    round_strategy: AGGRESSIVE
    bit_width: 4
    range: 0
    range: 5.8384752
  }
}
layer {
  name: "fc6"
  type: "InnerProduct"
  bottom: "pool5"
  top: "fc6"
  param {
    lr_mult: 1
    decay_mult: 1
  }
  param {
    lr_mult: 2
    decay_mult: 0
  }
  inner_product_param {
    num_output: 4096
    weight_filler {
      type: "gaussian"
      std: 0.005
    }
    bias_filler {
      type: "constant"
      value: 0.1
    }
  }
}
layer {
  name: "bn6"
  type: "BatchNorm"
  bottom: "fc6"
  top: "fc6"
}
layer {
  name: "scale6"
  type: "Scale"
  bottom: "fc6"
  top: "fc6"
  scale_param {
    bias_term: true
  }
}
layer {
  name: "relu6"
  type: "ReLU"
  bottom: "fc6"
  top: "fc6"
}
layer {
  name: "drop6"
  type: "Dropout"
  bottom: "fc6"
  top: "fc6"
  dropout_param {
    dropout_ratio: 0.5
  }
}
layer {
  name: "quantized_fc6"
  type: "Quantization"
  bottom: "fc6"
  top: "fc6"
  quantization_param {
    round_method: FLOOR
    round_strategy: AGGRESSIVE
    bit_width: 4
    range: 0
    range: 1.106238
  }
}
layer {
  name: "fc7"
  type: "InnerProduct"
  bottom: "fc6"
  top: "fc7"
  param {
    lr_mult: 1
    decay_mult: 1
  }
  param {
    lr_mult: 2
    decay_mult: 0
  }
  inner_product_param {
    num_output: 4096
    weight_filler {
      type: "gaussian"
      std: 0.005
    }
    bias_filler {
      type: "constant"
      value: 0.1
    }
  }
}
layer {
  name: "bn7"
  type: "BatchNorm"
  bottom: "fc7"
  top: "fc7"
}
layer {
  name: "scale7"
  type: "Scale"
  bottom: "fc7"
  top: "fc7"
  scale_param {
    bias_term: true
  }
}
layer {
  name: "relu7"
  type: "ReLU"
  bottom: "fc7"
  top: "fc7"
}
layer {
  name: "drop7"
  type: "Dropout"
  bottom: "fc7"
  top: "fc7"
  dropout_param {
    dropout_ratio: 0.5
  }
}
layer {
  name: "quantized_fc7"
  type: "Quantization"
  bottom: "fc7"
  top: "fc7"
  quantization_param {
    round_method: FLOOR
    round_strategy: AGGRESSIVE
    bit_width: 4
    range: 0
    range: 5.0399008
  }
}
layer {
  name: "fc8"
  type: "InnerProduct"
  bottom: "fc7"
  top: "fc8"
  param {
    lr_mult: 1
    decay_mult: 1
  }
  param {
    lr_mult: 2
    decay_mult: 0
  }
  inner_product_param {
    num_output: 1000
    weight_filler {
      type: "gaussian"
      std: 0.01
    }
    bias_filler {
      type: "constant"
      value: 0
    }
  }
}
layer {
  name: "accuracy_5_TRAIN"
  type: "Accuracy"
  bottom: "fc8"
  bottom: "label"
  top: "accuracy_5_TRAIN"
  include {
    phase: TRAIN
  }
  accuracy_param {
    top_k: 5
  }
}
layer {
  name: "loss"
  type: "SoftmaxWithLoss"
  bottom: "fc8"
  bottom: "label"
  top: "loss"
}
I0105 17:36:55.183101 41651 layer_factory.hpp:77] Creating layer data
I0105 17:36:55.183241 41651 db_lmdb.cpp:35] Opened lmdb /home/ydwu/database/imagenet/ilsvrc12/lmdb_resize/ilsvrc12_train_lmdb
I0105 17:36:55.183291 41651 net.cpp:84] Creating Layer data
I0105 17:36:55.183313 41651 net.cpp:380] data -> data
I0105 17:36:55.183357 41651 net.cpp:380] data -> label
I0105 17:36:55.185339 41651 data_layer.cpp:45] output data size: 200,3,224,224
I0105 17:36:55.550515 41651 net.cpp:122] Setting up data
I0105 17:36:55.550635 41651 net.cpp:129] Top shape: 200 3 224 224 (30105600)
I0105 17:36:55.550669 41651 net.cpp:129] Top shape: 200 (200)
I0105 17:36:55.550683 41651 net.cpp:137] Memory required for data: 120423200
I0105 17:36:55.550703 41651 layer_factory.hpp:77] Creating layer label_data_1_split
I0105 17:36:55.550729 41651 net.cpp:84] Creating Layer label_data_1_split
I0105 17:36:55.550742 41651 net.cpp:406] label_data_1_split <- label
I0105 17:36:55.550767 41651 net.cpp:380] label_data_1_split -> label_data_1_split_0
I0105 17:36:55.550797 41651 net.cpp:380] label_data_1_split -> label_data_1_split_1
I0105 17:36:55.550874 41651 net.cpp:122] Setting up label_data_1_split
I0105 17:36:55.550892 41651 net.cpp:129] Top shape: 200 (200)
I0105 17:36:55.550902 41651 net.cpp:129] Top shape: 200 (200)
I0105 17:36:55.550910 41651 net.cpp:137] Memory required for data: 120424800
I0105 17:36:55.550920 41651 layer_factory.hpp:77] Creating layer conv1
I0105 17:36:55.550951 41651 net.cpp:84] Creating Layer conv1
I0105 17:36:55.550966 41651 net.cpp:406] conv1 <- data
I0105 17:36:55.550979 41651 net.cpp:380] conv1 -> conv1
I0105 17:36:55.576021 41651 net.cpp:122] Setting up conv1
I0105 17:36:55.576067 41651 net.cpp:129] Top shape: 200 96 55 55 (58080000)
I0105 17:36:55.576077 41651 net.cpp:137] Memory required for data: 352744800
I0105 17:36:55.576117 41651 layer_factory.hpp:77] Creating layer bn1
I0105 17:36:55.576141 41651 net.cpp:84] Creating Layer bn1
I0105 17:36:55.576154 41651 net.cpp:406] bn1 <- conv1
I0105 17:36:55.576169 41651 net.cpp:367] bn1 -> conv1 (in-place)
I0105 17:36:55.576355 41651 net.cpp:122] Setting up bn1
I0105 17:36:55.576373 41651 net.cpp:129] Top shape: 200 96 55 55 (58080000)
I0105 17:36:55.576382 41651 net.cpp:137] Memory required for data: 585064800
I0105 17:36:55.576398 41651 layer_factory.hpp:77] Creating layer scale1
I0105 17:36:55.576418 41651 net.cpp:84] Creating Layer scale1
I0105 17:36:55.576428 41651 net.cpp:406] scale1 <- conv1
I0105 17:36:55.576441 41651 net.cpp:367] scale1 -> conv1 (in-place)
I0105 17:36:55.576499 41651 layer_factory.hpp:77] Creating layer scale1
I0105 17:36:55.576627 41651 net.cpp:122] Setting up scale1
I0105 17:36:55.576644 41651 net.cpp:129] Top shape: 200 96 55 55 (58080000)
I0105 17:36:55.576653 41651 net.cpp:137] Memory required for data: 817384800
I0105 17:36:55.576665 41651 layer_factory.hpp:77] Creating layer relu1
I0105 17:36:55.576680 41651 net.cpp:84] Creating Layer relu1
I0105 17:36:55.576689 41651 net.cpp:406] relu1 <- conv1
I0105 17:36:55.576702 41651 net.cpp:367] relu1 -> conv1 (in-place)
I0105 17:36:55.576719 41651 net.cpp:122] Setting up relu1
I0105 17:36:55.576732 41651 net.cpp:129] Top shape: 200 96 55 55 (58080000)
I0105 17:36:55.576740 41651 net.cpp:137] Memory required for data: 1049704800
I0105 17:36:55.576750 41651 layer_factory.hpp:77] Creating layer pool1
I0105 17:36:55.576762 41651 net.cpp:84] Creating Layer pool1
I0105 17:36:55.576771 41651 net.cpp:406] pool1 <- conv1
I0105 17:36:55.576818 41651 net.cpp:380] pool1 -> pool1
I0105 17:36:55.576881 41651 net.cpp:122] Setting up pool1
I0105 17:36:55.576898 41651 net.cpp:129] Top shape: 200 96 27 27 (13996800)
I0105 17:36:55.576907 41651 net.cpp:137] Memory required for data: 1105692000
I0105 17:36:55.576916 41651 layer_factory.hpp:77] Creating layer quantized_conv1
I0105 17:36:55.576932 41651 net.cpp:84] Creating Layer quantized_conv1
I0105 17:36:55.576942 41651 net.cpp:406] quantized_conv1 <- pool1
I0105 17:36:55.576953 41651 net.cpp:367] quantized_conv1 -> pool1 (in-place)
I0105 17:36:55.576969 41651 net.cpp:122] Setting up quantized_conv1
I0105 17:36:55.576982 41651 net.cpp:129] Top shape: 200 96 27 27 (13996800)
I0105 17:36:55.576989 41651 net.cpp:137] Memory required for data: 1161679200
I0105 17:36:55.576998 41651 layer_factory.hpp:77] Creating layer conv2
I0105 17:36:55.577018 41651 net.cpp:84] Creating Layer conv2
I0105 17:36:55.577028 41651 net.cpp:406] conv2 <- pool1
I0105 17:36:55.577039 41651 net.cpp:380] conv2 -> conv2
I0105 17:36:55.597348 41651 net.cpp:122] Setting up conv2
I0105 17:36:55.597393 41651 net.cpp:129] Top shape: 200 256 27 27 (37324800)
I0105 17:36:55.597404 41651 net.cpp:137] Memory required for data: 1310978400
I0105 17:36:55.597425 41651 layer_factory.hpp:77] Creating layer bn2
I0105 17:36:55.597445 41651 net.cpp:84] Creating Layer bn2
I0105 17:36:55.597455 41651 net.cpp:406] bn2 <- conv2
I0105 17:36:55.597468 41651 net.cpp:367] bn2 -> conv2 (in-place)
I0105 17:36:55.597641 41651 net.cpp:122] Setting up bn2
I0105 17:36:55.597658 41651 net.cpp:129] Top shape: 200 256 27 27 (37324800)
I0105 17:36:55.597667 41651 net.cpp:137] Memory required for data: 1460277600
I0105 17:36:55.597681 41651 layer_factory.hpp:77] Creating layer scale2
I0105 17:36:55.597695 41651 net.cpp:84] Creating Layer scale2
I0105 17:36:55.597704 41651 net.cpp:406] scale2 <- conv2
I0105 17:36:55.597715 41651 net.cpp:367] scale2 -> conv2 (in-place)
I0105 17:36:55.597769 41651 layer_factory.hpp:77] Creating layer scale2
I0105 17:36:55.597879 41651 net.cpp:122] Setting up scale2
I0105 17:36:55.597895 41651 net.cpp:129] Top shape: 200 256 27 27 (37324800)
I0105 17:36:55.597904 41651 net.cpp:137] Memory required for data: 1609576800
I0105 17:36:55.597915 41651 layer_factory.hpp:77] Creating layer relu2
I0105 17:36:55.597929 41651 net.cpp:84] Creating Layer relu2
I0105 17:36:55.597939 41651 net.cpp:406] relu2 <- conv2
I0105 17:36:55.597949 41651 net.cpp:367] relu2 -> conv2 (in-place)
I0105 17:36:55.597960 41651 net.cpp:122] Setting up relu2
I0105 17:36:55.597971 41651 net.cpp:129] Top shape: 200 256 27 27 (37324800)
I0105 17:36:55.597980 41651 net.cpp:137] Memory required for data: 1758876000
I0105 17:36:55.597988 41651 layer_factory.hpp:77] Creating layer pool2
I0105 17:36:55.598001 41651 net.cpp:84] Creating Layer pool2
I0105 17:36:55.598009 41651 net.cpp:406] pool2 <- conv2
I0105 17:36:55.598021 41651 net.cpp:380] pool2 -> pool2
I0105 17:36:55.598067 41651 net.cpp:122] Setting up pool2
I0105 17:36:55.598083 41651 net.cpp:129] Top shape: 200 256 13 13 (8652800)
I0105 17:36:55.598091 41651 net.cpp:137] Memory required for data: 1793487200
I0105 17:36:55.598100 41651 layer_factory.hpp:77] Creating layer quantized_conv2
I0105 17:36:55.598114 41651 net.cpp:84] Creating Layer quantized_conv2
I0105 17:36:55.598124 41651 net.cpp:406] quantized_conv2 <- pool2
I0105 17:36:55.598135 41651 net.cpp:367] quantized_conv2 -> pool2 (in-place)
I0105 17:36:55.598147 41651 net.cpp:122] Setting up quantized_conv2
I0105 17:36:55.598158 41651 net.cpp:129] Top shape: 200 256 13 13 (8652800)
I0105 17:36:55.598166 41651 net.cpp:137] Memory required for data: 1828098400
I0105 17:36:55.598176 41651 layer_factory.hpp:77] Creating layer conv3
I0105 17:36:55.598193 41651 net.cpp:84] Creating Layer conv3
I0105 17:36:55.598202 41651 net.cpp:406] conv3 <- pool2
I0105 17:36:55.598214 41651 net.cpp:380] conv3 -> conv3
I0105 17:36:55.625277 41651 net.cpp:122] Setting up conv3
I0105 17:36:55.625327 41651 net.cpp:129] Top shape: 200 384 13 13 (12979200)
I0105 17:36:55.625375 41651 net.cpp:137] Memory required for data: 1880015200
I0105 17:36:55.625391 41651 layer_factory.hpp:77] Creating layer bn3
I0105 17:36:55.625411 41651 net.cpp:84] Creating Layer bn3
I0105 17:36:55.625422 41651 net.cpp:406] bn3 <- conv3
I0105 17:36:55.625437 41651 net.cpp:367] bn3 -> conv3 (in-place)
I0105 17:36:55.625607 41651 net.cpp:122] Setting up bn3
I0105 17:36:55.625623 41651 net.cpp:129] Top shape: 200 384 13 13 (12979200)
I0105 17:36:55.625633 41651 net.cpp:137] Memory required for data: 1931932000
I0105 17:36:55.625651 41651 layer_factory.hpp:77] Creating layer scale3
I0105 17:36:55.625669 41651 net.cpp:84] Creating Layer scale3
I0105 17:36:55.625679 41651 net.cpp:406] scale3 <- conv3
I0105 17:36:55.625689 41651 net.cpp:367] scale3 -> conv3 (in-place)
I0105 17:36:55.625739 41651 layer_factory.hpp:77] Creating layer scale3
I0105 17:36:55.625849 41651 net.cpp:122] Setting up scale3
I0105 17:36:55.625866 41651 net.cpp:129] Top shape: 200 384 13 13 (12979200)
I0105 17:36:55.625875 41651 net.cpp:137] Memory required for data: 1983848800
I0105 17:36:55.625886 41651 layer_factory.hpp:77] Creating layer relu3
I0105 17:36:55.625900 41651 net.cpp:84] Creating Layer relu3
I0105 17:36:55.625908 41651 net.cpp:406] relu3 <- conv3
I0105 17:36:55.625927 41651 net.cpp:367] relu3 -> conv3 (in-place)
I0105 17:36:55.625939 41651 net.cpp:122] Setting up relu3
I0105 17:36:55.625949 41651 net.cpp:129] Top shape: 200 384 13 13 (12979200)
I0105 17:36:55.625958 41651 net.cpp:137] Memory required for data: 2035765600
I0105 17:36:55.625967 41651 layer_factory.hpp:77] Creating layer quantized_conv3
I0105 17:36:55.625979 41651 net.cpp:84] Creating Layer quantized_conv3
I0105 17:36:55.625988 41651 net.cpp:406] quantized_conv3 <- conv3
I0105 17:36:55.625999 41651 net.cpp:367] quantized_conv3 -> conv3 (in-place)
I0105 17:36:55.626011 41651 net.cpp:122] Setting up quantized_conv3
I0105 17:36:55.626021 41651 net.cpp:129] Top shape: 200 384 13 13 (12979200)
I0105 17:36:55.626030 41651 net.cpp:137] Memory required for data: 2087682400
I0105 17:36:55.626039 41651 layer_factory.hpp:77] Creating layer conv4
I0105 17:36:55.626056 41651 net.cpp:84] Creating Layer conv4
I0105 17:36:55.626065 41651 net.cpp:406] conv4 <- conv3
I0105 17:36:55.626078 41651 net.cpp:380] conv4 -> conv4
I0105 17:36:55.671048 41651 net.cpp:122] Setting up conv4
I0105 17:36:55.671097 41651 net.cpp:129] Top shape: 200 384 13 13 (12979200)
I0105 17:36:55.671108 41651 net.cpp:137] Memory required for data: 2139599200
I0105 17:36:55.671123 41651 layer_factory.hpp:77] Creating layer bn4
I0105 17:36:55.671141 41651 net.cpp:84] Creating Layer bn4
I0105 17:36:55.671152 41651 net.cpp:406] bn4 <- conv4
I0105 17:36:55.671166 41651 net.cpp:367] bn4 -> conv4 (in-place)
I0105 17:36:55.671344 41651 net.cpp:122] Setting up bn4
I0105 17:36:55.671360 41651 net.cpp:129] Top shape: 200 384 13 13 (12979200)
I0105 17:36:55.671397 41651 net.cpp:137] Memory required for data: 2191516000
I0105 17:36:55.671411 41651 layer_factory.hpp:77] Creating layer scale4
I0105 17:36:55.671427 41651 net.cpp:84] Creating Layer scale4
I0105 17:36:55.671437 41651 net.cpp:406] scale4 <- conv4
I0105 17:36:55.671447 41651 net.cpp:367] scale4 -> conv4 (in-place)
I0105 17:36:55.671501 41651 layer_factory.hpp:77] Creating layer scale4
I0105 17:36:55.671622 41651 net.cpp:122] Setting up scale4
I0105 17:36:55.671638 41651 net.cpp:129] Top shape: 200 384 13 13 (12979200)
I0105 17:36:55.671648 41651 net.cpp:137] Memory required for data: 2243432800
I0105 17:36:55.671659 41651 layer_factory.hpp:77] Creating layer relu4
I0105 17:36:55.671674 41651 net.cpp:84] Creating Layer relu4
I0105 17:36:55.671684 41651 net.cpp:406] relu4 <- conv4
I0105 17:36:55.671694 41651 net.cpp:367] relu4 -> conv4 (in-place)
I0105 17:36:55.671705 41651 net.cpp:122] Setting up relu4
I0105 17:36:55.671716 41651 net.cpp:129] Top shape: 200 384 13 13 (12979200)
I0105 17:36:55.671725 41651 net.cpp:137] Memory required for data: 2295349600
I0105 17:36:55.671733 41651 layer_factory.hpp:77] Creating layer quantized_conv4
I0105 17:36:55.671746 41651 net.cpp:84] Creating Layer quantized_conv4
I0105 17:36:55.671797 41651 net.cpp:406] quantized_conv4 <- conv4
I0105 17:36:55.671808 41651 net.cpp:367] quantized_conv4 -> conv4 (in-place)
I0105 17:36:55.671821 41651 net.cpp:122] Setting up quantized_conv4
I0105 17:36:55.671833 41651 net.cpp:129] Top shape: 200 384 13 13 (12979200)
I0105 17:36:55.671841 41651 net.cpp:137] Memory required for data: 2347266400
I0105 17:36:55.671850 41651 layer_factory.hpp:77] Creating layer conv5
I0105 17:36:55.671871 41651 net.cpp:84] Creating Layer conv5
I0105 17:36:55.671881 41651 net.cpp:406] conv5 <- conv4
I0105 17:36:55.671893 41651 net.cpp:380] conv5 -> conv5
I0105 17:36:55.699142 41651 net.cpp:122] Setting up conv5
I0105 17:36:55.699190 41651 net.cpp:129] Top shape: 200 256 13 13 (8652800)
I0105 17:36:55.699200 41651 net.cpp:137] Memory required for data: 2381877600
I0105 17:36:55.699216 41651 layer_factory.hpp:77] Creating layer bn5
I0105 17:36:55.699237 41651 net.cpp:84] Creating Layer bn5
I0105 17:36:55.699250 41651 net.cpp:406] bn5 <- conv5
I0105 17:36:55.699265 41651 net.cpp:367] bn5 -> conv5 (in-place)
I0105 17:36:55.699446 41651 net.cpp:122] Setting up bn5
I0105 17:36:55.699463 41651 net.cpp:129] Top shape: 200 256 13 13 (8652800)
I0105 17:36:55.699472 41651 net.cpp:137] Memory required for data: 2416488800
I0105 17:36:55.699494 41651 layer_factory.hpp:77] Creating layer scale5
I0105 17:36:55.699510 41651 net.cpp:84] Creating Layer scale5
I0105 17:36:55.699520 41651 net.cpp:406] scale5 <- conv5
I0105 17:36:55.699530 41651 net.cpp:367] scale5 -> conv5 (in-place)
I0105 17:36:55.699590 41651 layer_factory.hpp:77] Creating layer scale5
I0105 17:36:55.699709 41651 net.cpp:122] Setting up scale5
I0105 17:36:55.699726 41651 net.cpp:129] Top shape: 200 256 13 13 (8652800)
I0105 17:36:55.699735 41651 net.cpp:137] Memory required for data: 2451100000
I0105 17:36:55.699748 41651 layer_factory.hpp:77] Creating layer relu5
I0105 17:36:55.699759 41651 net.cpp:84] Creating Layer relu5
I0105 17:36:55.699769 41651 net.cpp:406] relu5 <- conv5
I0105 17:36:55.699781 41651 net.cpp:367] relu5 -> conv5 (in-place)
I0105 17:36:55.699795 41651 net.cpp:122] Setting up relu5
I0105 17:36:55.699805 41651 net.cpp:129] Top shape: 200 256 13 13 (8652800)
I0105 17:36:55.699815 41651 net.cpp:137] Memory required for data: 2485711200
I0105 17:36:55.699825 41651 layer_factory.hpp:77] Creating layer pool5
I0105 17:36:55.699837 41651 net.cpp:84] Creating Layer pool5
I0105 17:36:55.699847 41651 net.cpp:406] pool5 <- conv5
I0105 17:36:55.699859 41651 net.cpp:380] pool5 -> pool5
I0105 17:36:55.699908 41651 net.cpp:122] Setting up pool5
I0105 17:36:55.699923 41651 net.cpp:129] Top shape: 200 256 6 6 (1843200)
I0105 17:36:55.699932 41651 net.cpp:137] Memory required for data: 2493084000
I0105 17:36:55.699941 41651 layer_factory.hpp:77] Creating layer quantized_conv5
I0105 17:36:55.699954 41651 net.cpp:84] Creating Layer quantized_conv5
I0105 17:36:55.699964 41651 net.cpp:406] quantized_conv5 <- pool5
I0105 17:36:55.699976 41651 net.cpp:367] quantized_conv5 -> pool5 (in-place)
I0105 17:36:55.699990 41651 net.cpp:122] Setting up quantized_conv5
I0105 17:36:55.700001 41651 net.cpp:129] Top shape: 200 256 6 6 (1843200)
I0105 17:36:55.700008 41651 net.cpp:137] Memory required for data: 2500456800
I0105 17:36:55.700017 41651 layer_factory.hpp:77] Creating layer fc6
I0105 17:36:55.700037 41651 net.cpp:84] Creating Layer fc6
I0105 17:36:55.700047 41651 net.cpp:406] fc6 <- pool5
I0105 17:36:55.700057 41651 net.cpp:380] fc6 -> fc6
I0105 17:36:56.839532 41651 net.cpp:122] Setting up fc6
I0105 17:36:56.839593 41651 net.cpp:129] Top shape: 200 4096 (819200)
I0105 17:36:56.839604 41651 net.cpp:137] Memory required for data: 2503733600
I0105 17:36:56.839620 41651 layer_factory.hpp:77] Creating layer bn6
I0105 17:36:56.839639 41651 net.cpp:84] Creating Layer bn6
I0105 17:36:56.839651 41651 net.cpp:406] bn6 <- fc6
I0105 17:36:56.839668 41651 net.cpp:367] bn6 -> fc6 (in-place)
I0105 17:36:56.839848 41651 net.cpp:122] Setting up bn6
I0105 17:36:56.839864 41651 net.cpp:129] Top shape: 200 4096 (819200)
I0105 17:36:56.839910 41651 net.cpp:137] Memory required for data: 2507010400
I0105 17:36:56.839924 41651 layer_factory.hpp:77] Creating layer scale6
I0105 17:36:56.839946 41651 net.cpp:84] Creating Layer scale6
I0105 17:36:56.839956 41651 net.cpp:406] scale6 <- fc6
I0105 17:36:56.839967 41651 net.cpp:367] scale6 -> fc6 (in-place)
I0105 17:36:56.840019 41651 layer_factory.hpp:77] Creating layer scale6
I0105 17:36:56.840144 41651 net.cpp:122] Setting up scale6
I0105 17:36:56.840160 41651 net.cpp:129] Top shape: 200 4096 (819200)
I0105 17:36:56.840168 41651 net.cpp:137] Memory required for data: 2510287200
I0105 17:36:56.840180 41651 layer_factory.hpp:77] Creating layer relu6
I0105 17:36:56.840195 41651 net.cpp:84] Creating Layer relu6
I0105 17:36:56.840204 41651 net.cpp:406] relu6 <- fc6
I0105 17:36:56.840214 41651 net.cpp:367] relu6 -> fc6 (in-place)
I0105 17:36:56.840226 41651 net.cpp:122] Setting up relu6
I0105 17:36:56.840236 41651 net.cpp:129] Top shape: 200 4096 (819200)
I0105 17:36:56.840245 41651 net.cpp:137] Memory required for data: 2513564000
I0105 17:36:56.840252 41651 layer_factory.hpp:77] Creating layer drop6
I0105 17:36:56.840270 41651 net.cpp:84] Creating Layer drop6
I0105 17:36:56.840282 41651 net.cpp:406] drop6 <- fc6
I0105 17:36:56.840293 41651 net.cpp:367] drop6 -> fc6 (in-place)
I0105 17:36:56.840332 41651 net.cpp:122] Setting up drop6
I0105 17:36:56.840348 41651 net.cpp:129] Top shape: 200 4096 (819200)
I0105 17:36:56.840355 41651 net.cpp:137] Memory required for data: 2516840800
I0105 17:36:56.840364 41651 layer_factory.hpp:77] Creating layer quantized_fc6
I0105 17:36:56.840379 41651 net.cpp:84] Creating Layer quantized_fc6
I0105 17:36:56.840389 41651 net.cpp:406] quantized_fc6 <- fc6
I0105 17:36:56.840399 41651 net.cpp:367] quantized_fc6 -> fc6 (in-place)
I0105 17:36:56.840411 41651 net.cpp:122] Setting up quantized_fc6
I0105 17:36:56.840422 41651 net.cpp:129] Top shape: 200 4096 (819200)
I0105 17:36:56.840430 41651 net.cpp:137] Memory required for data: 2520117600
I0105 17:36:56.840438 41651 layer_factory.hpp:77] Creating layer fc7
I0105 17:36:56.840452 41651 net.cpp:84] Creating Layer fc7
I0105 17:36:56.840461 41651 net.cpp:406] fc7 <- fc6
I0105 17:36:56.840471 41651 net.cpp:380] fc7 -> fc7
I0105 17:36:57.340553 41651 net.cpp:122] Setting up fc7
I0105 17:36:57.340637 41651 net.cpp:129] Top shape: 200 4096 (819200)
I0105 17:36:57.340648 41651 net.cpp:137] Memory required for data: 2523394400
I0105 17:36:57.340667 41651 layer_factory.hpp:77] Creating layer bn7
I0105 17:36:57.340690 41651 net.cpp:84] Creating Layer bn7
I0105 17:36:57.340703 41651 net.cpp:406] bn7 <- fc7
I0105 17:36:57.340718 41651 net.cpp:367] bn7 -> fc7 (in-place)
I0105 17:36:57.340909 41651 net.cpp:122] Setting up bn7
I0105 17:36:57.340925 41651 net.cpp:129] Top shape: 200 4096 (819200)
I0105 17:36:57.340934 41651 net.cpp:137] Memory required for data: 2526671200
I0105 17:36:57.340948 41651 layer_factory.hpp:77] Creating layer scale7
I0105 17:36:57.340962 41651 net.cpp:84] Creating Layer scale7
I0105 17:36:57.340971 41651 net.cpp:406] scale7 <- fc7
I0105 17:36:57.340984 41651 net.cpp:367] scale7 -> fc7 (in-place)
I0105 17:36:57.341034 41651 layer_factory.hpp:77] Creating layer scale7
I0105 17:36:57.341168 41651 net.cpp:122] Setting up scale7
I0105 17:36:57.341187 41651 net.cpp:129] Top shape: 200 4096 (819200)
I0105 17:36:57.341197 41651 net.cpp:137] Memory required for data: 2529948000
I0105 17:36:57.341208 41651 layer_factory.hpp:77] Creating layer relu7
I0105 17:36:57.341222 41651 net.cpp:84] Creating Layer relu7
I0105 17:36:57.341229 41651 net.cpp:406] relu7 <- fc7
I0105 17:36:57.341240 41651 net.cpp:367] relu7 -> fc7 (in-place)
I0105 17:36:57.341251 41651 net.cpp:122] Setting up relu7
I0105 17:36:57.341262 41651 net.cpp:129] Top shape: 200 4096 (819200)
I0105 17:36:57.341270 41651 net.cpp:137] Memory required for data: 2533224800
I0105 17:36:57.341279 41651 layer_factory.hpp:77] Creating layer drop7
I0105 17:36:57.341291 41651 net.cpp:84] Creating Layer drop7
I0105 17:36:57.341300 41651 net.cpp:406] drop7 <- fc7
I0105 17:36:57.341356 41651 net.cpp:367] drop7 -> fc7 (in-place)
I0105 17:36:57.341392 41651 net.cpp:122] Setting up drop7
I0105 17:36:57.341410 41651 net.cpp:129] Top shape: 200 4096 (819200)
I0105 17:36:57.341418 41651 net.cpp:137] Memory required for data: 2536501600
I0105 17:36:57.341428 41651 layer_factory.hpp:77] Creating layer quantized_fc7
I0105 17:36:57.341441 41651 net.cpp:84] Creating Layer quantized_fc7
I0105 17:36:57.341450 41651 net.cpp:406] quantized_fc7 <- fc7
I0105 17:36:57.341460 41651 net.cpp:367] quantized_fc7 -> fc7 (in-place)
I0105 17:36:57.341472 41651 net.cpp:122] Setting up quantized_fc7
I0105 17:36:57.341482 41651 net.cpp:129] Top shape: 200 4096 (819200)
I0105 17:36:57.341490 41651 net.cpp:137] Memory required for data: 2539778400
I0105 17:36:57.341500 41651 layer_factory.hpp:77] Creating layer fc8
I0105 17:36:57.341516 41651 net.cpp:84] Creating Layer fc8
I0105 17:36:57.341526 41651 net.cpp:406] fc8 <- fc7
I0105 17:36:57.341536 41651 net.cpp:380] fc8 -> fc8
I0105 17:36:57.464721 41651 net.cpp:122] Setting up fc8
I0105 17:36:57.464787 41651 net.cpp:129] Top shape: 200 1000 (200000)
I0105 17:36:57.464797 41651 net.cpp:137] Memory required for data: 2540578400
I0105 17:36:57.464815 41651 layer_factory.hpp:77] Creating layer fc8_fc8_0_split
I0105 17:36:57.464834 41651 net.cpp:84] Creating Layer fc8_fc8_0_split
I0105 17:36:57.464845 41651 net.cpp:406] fc8_fc8_0_split <- fc8
I0105 17:36:57.464861 41651 net.cpp:380] fc8_fc8_0_split -> fc8_fc8_0_split_0
I0105 17:36:57.464879 41651 net.cpp:380] fc8_fc8_0_split -> fc8_fc8_0_split_1
I0105 17:36:57.464941 41651 net.cpp:122] Setting up fc8_fc8_0_split
I0105 17:36:57.464956 41651 net.cpp:129] Top shape: 200 1000 (200000)
I0105 17:36:57.464967 41651 net.cpp:129] Top shape: 200 1000 (200000)
I0105 17:36:57.464975 41651 net.cpp:137] Memory required for data: 2542178400
I0105 17:36:57.464985 41651 layer_factory.hpp:77] Creating layer accuracy_5_TRAIN
I0105 17:36:57.465008 41651 net.cpp:84] Creating Layer accuracy_5_TRAIN
I0105 17:36:57.465018 41651 net.cpp:406] accuracy_5_TRAIN <- fc8_fc8_0_split_0
I0105 17:36:57.465029 41651 net.cpp:406] accuracy_5_TRAIN <- label_data_1_split_0
…
I0105 17:36:57.472110 41651 net.cpp:294] The NetState phase (1) differed from the phase (0) specified by a rule in layer accuracy_5_TRAIN
I0105 17:36:57.472368 41651 net.cpp:51] Initializing net from parameters: 
name: "AlexNet-BN"
state {
  phase: TEST
}
layer {
  name: "data"
  type: "Data"
  top: "data"
  top: "label"
  include {
    phase: TEST
  }
  transform_param {
    mirror: false
    crop_size: 224
    mean_value: 103.939
    mean_value: 116.779
    mean_value: 123.68
  }
  data_param {
    source: "/home/ydwu/database/imagenet/ilsvrc12/lmdb_resize/ilsvrc12_val_lmdb"
    batch_size: 200
    backend: LMDB
  }
}
layer {
  name: "conv1"
  type: "Convolution"
  bottom: "data"
  top: "conv1"
  param {
    lr_mult: 1
    decay_mult: 1
  }
  param {
    lr_mult: 2
    decay_mult: 0
  }
  convolution_param {
    num_output: 96
    pad: 2
    kernel_size: 11
    stride: 4
    weight_filler {
      type: "gaussian"
      std: 0.01
    }
    bias_filler {
      type: "constant"
      value: 0
    }
  }
}
layer {
  name: "bn1"
  type: "BatchNorm"
  bottom: "conv1"
  top: "conv1"
}
layer {
  name: "scale1"
  type: "Scale"
  bottom: "conv1"
  top: "conv1"
  scale_param {
    bias_term: true
  }
}
layer {
  name: "relu1"
  type: "ReLU"
  bottom: "conv1"
  top: "conv1"
}
layer {
  name: "pool1"
  type: "Pooling"
  bottom: "conv1"
  top: "pool1"
  pooling_param {
    pool: MAX
    kernel_size: 3
    stride: 2
  }
}
layer {
  name: "quantized_conv1"
  type: "Quantization"
  bottom: "pool1"
  top: "pool1"
  quantization_param {
    round_method: FLOOR
    round_strategy: AGGRESSIVE
    bit_width: 4
    range: 0
    range: 9.3102551
  }
}
layer {
  name: "conv2"
  type: "Convolution"
  bottom: "pool1"
  top: "conv2"
  param {
    lr_mult: 1
    decay_mult: 1
  }
  param {
    lr_mult: 2
    decay_mult: 0
  }
  convolution_param {
    num_output: 256
    pad: 2
    kernel_size: 5
    weight_filler {
      type: "gaussian"
      std: 0.01
    }
    bias_filler {
      type: "constant"
      value: 0.1
    }
  }
}
layer {
  name: "bn2"
  type: "BatchNorm"
  bottom: "conv2"
  top: "conv2"
}
layer {
  name: "scale2"
  type: "Scale"
  bottom: "conv2"
  top: "conv2"
  scale_param {
    bias_term: true
  }
}
layer {
  name: "relu2"
  type: "ReLU"
  bottom: "conv2"
  top: "conv2"
}
layer {
  name: "pool2"
  type: "Pooling"
  bottom: "conv2"
  top: "pool2"
  pooling_param {
    pool: MAX
    kernel_size: 3
    stride: 2
  }
}
layer {
  name: "quantized_conv2"
  type: "Quantization"
  bottom: "pool2"
  top: "pool2"
  quantization_param {
    round_method: FLOOR
    round_strategy: AGGRESSIVE
    bit_width: 4
    range: 0
    range: 4.4997
  }
}
layer {
  name: "conv3"
  type: "Convolution"
  bottom: "pool2"
  top: "conv3"
  param {
    lr_mult: 1
    decay_mult: 1
  }
  param {
    lr_mult: 2
    decay_mult: 0
  }
  convolution_param {
    num_output: 384
    pad: 1
    kernel_size: 3
    weight_filler {
      type: "gaussian"
      std: 0.01
    }
    bias_filler {
      type: "constant"
      value: 0
    }
  }
}
layer {
  name: "bn3"
  type: "BatchNorm"
  bottom: "conv3"
  top: "conv3"
}
layer {
  name: "scale3"
  type: "Scale"
  bottom: "conv3"
  top: "conv3"
  scale_param {
    bias_term: true
  }
}
layer {
  name: "relu3"
  type: "ReLU"
  bottom: "conv3"
  top: "conv3"
}
layer {
  name: "quantized_conv3"
  type: "Quantization"
  bottom: "conv3"
  top: "conv3"
  quantization_param {
    round_method: FLOOR
    round_strategy: AGGRESSIVE
    bit_width: 4
    range: 0
    range: 5.65636
  }
}
layer {
  name: "conv4"
  type: "Convolution"
  bottom: "conv3"
  top: "conv4"
  param {
    lr_mult: 1
    decay_mult: 1
  }
  param {
    lr_mult: 2
    decay_mult: 0
  }
  convolution_param {
    num_output: 384
    pad: 1
    kernel_size: 3
    weight_filler {
      type: "gaussian"
      std: 0.01
    }
    bias_filler {
      type: "constant"
      value: 0.1
    }
  }
}
layer {
  name: "bn4"
  type: "BatchNorm"
  bottom: "conv4"
  top: "conv4"
}
layer {
  name: "scale4"
  type: "Scale"
  bottom: "conv4"
  top: "conv4"
  scale_param {
    bias_term: true
  }
}
layer {
  name: "relu4"
  type: "ReLU"
  bottom: "conv4"
  top: "conv4"
}
layer {
  name: "quantized_conv4"
  type: "Quantization"
  bottom: "conv4"
  top: "conv4"
  quantization_param {
    round_method: FLOOR
    round_strategy: AGGRESSIVE
    bit_width: 4
    range: 0
    range: 4.891314
  }
}
layer {
  name: "conv5"
  type: "Convolution"
  bottom: "conv4"
  top: "conv5"
  param {
    lr_mult: 1
    decay_mult: 1
  }
  param {
    lr_mult: 2
    decay_mult: 0
  }
  convolution_param {
    num_output: 256
    pad: 1
    kernel_size: 3
    weight_filler {
      type: "gaussian"
      std: 0.01
    }
    bias_filler {
      type: "constant"
      value: 0.1
    }
  }
}
layer {
  name: "bn5"
  type: "BatchNorm"
  bottom: "conv5"
  top: "conv5"
}
layer {
  name: "scale5"
  type: "Scale"
  bottom: "conv5"
  top: "conv5"
  scale_param {
    bias_term: true
  }
}
layer {
  name: "relu5"
  type: "ReLU"
  bottom: "conv5"
  top: "conv5"
}
layer {
  name: "pool5"
  type: "Pooling"
  bottom: "conv5"
  top: "pool5"
  pooling_param {
    pool: MAX
    kernel_size: 3
    stride: 2
  }
}
layer {
  name: "quantized_conv5"
  type: "Quantization"
  bottom: "pool5"
  top: "pool5"
  quantization_param {
    round_method: FLOOR
    round_strategy: AGGRESSIVE
    bit_width: 4
    range: 0
    range: 5.8384752
  }
}
layer {
  name: "fc6"
  type: "InnerProduct"
  bottom: "pool5"
  top: "fc6"
  param {
    lr_mult: 1
    decay_mult: 1
  }
  param {
    lr_mult: 2
    decay_mult: 0
  }
  inner_product_param {
    num_output: 4096
    weight_filler {
      type: "gaussian"
      std: 0.005
    }
    bias_filler {
      type: "constant"
      value: 0.1
    }
  }
}
layer {
  name: "bn6"
  type: "BatchNorm"
  bottom: "fc6"
  top: "fc6"
}
layer {
  name: "scale6"
  type: "Scale"
  bottom: "fc6"
  top: "fc6"
  scale_param {
    bias_term: true
  }
}
layer {
  name: "relu6"
  type: "ReLU"
  bottom: "fc6"
  top: "fc6"
}
layer {
  name: "drop6"
  type: "Dropout"
  bottom: "fc6"
  top: "fc6"
  dropout_param {
    dropout_ratio: 0.5
  }
}
layer {
  name: "quantized_fc6"
  type: "Quantization"
  bottom: "fc6"
  top: "fc6"
  quantization_param {
    round_method: FLOOR
    round_strategy: AGGRESSIVE
    bit_width: 4
    range: 0
    range: 1.106238
  }
}
layer {
  name: "fc7"
  type: "InnerProduct"
  bottom: "fc6"
  top: "fc7"
  param {
    lr_mult: 1
    decay_mult: 1
  }
  param {
    lr_mult: 2
    decay_mult: 0
  }
  inner_product_param {
    num_output: 4096
    weight_filler {
      type: "gaussian"
      std: 0.005
    }
    bias_filler {
      type: "constant"
      value: 0.1
    }
  }
}
layer {
  name: "bn7"
  type: "BatchNorm"
  bottom: "fc7"
  top: "fc7"
}
layer {
  name: "scale7"
  type: "Scale"
  bottom: "fc7"
  top: "fc7"
  scale_param {
    bias_term: true
  }
}
layer {
  name: "relu7"
  type: "ReLU"
  bottom: "fc7"
  top: "fc7"
}
layer {
  name: "drop7"
  type: "Dropout"
  bottom: "fc7"
  top: "fc7"
  dropout_param {
    dropout_ratio: 0.5
  }
}
layer {
  name: "quantized_fc7"
  type: "Quantization"
  bottom: "fc7"
  top: "fc7"
  quantization_param {
    round_method: FLOOR
    round_strategy: AGGRESSIVE
    bit_width: 4
    range: 0
    range: 5.0399008
  }
}
layer {
  name: "fc8"
  type: "InnerProduct"
  bottom: "fc7"
  top: "fc8"
  param {
    lr_mult: 1
    decay_mult: 1
  }
  param {
    lr_mult: 2
    decay_mult: 0
  }
  inner_product_param {
    num_output: 1000
    weight_filler {
      type: "gaussian"
      std: 0.01
    }
    bias_filler {
      type: "constant"
      value: 0
    }
  }
}
layer {
  name: "accuracy"
  type: "Accuracy"
  bottom: "fc8"
  bottom: "label"
  top: "accuracy"
  include {
    phase: TEST
  }
}
layer {
  name: "accuracy_5"
  type: "Accuracy"
  bottom: "fc8"
  bottom: "label"
  top: "accuracy_5"
  include {
    phase: TEST
  }
  accuracy_param {
    top_k: 5
  }
}
layer {
  name: "loss"
  type: "SoftmaxWithLoss"
  bottom: "fc8"
  bottom: "label"
  top: "loss"
}
I0105 17:36:57.472579 41651 layer_factory.hpp:77] Creating layer data
I0105 17:36:57.472688 41651 db_lmdb.cpp:35] Opened lmdb /home/ydwu/database/imagenet/ilsvrc12/lmdb_resize/ilsvrc12_val_lmdb
I0105 17:36:57.472721 41651 net.cpp:84] Creating Layer data
I0105 17:36:57.472735 41651 net.cpp:380] data -> data
I0105 17:36:57.472754 41651 net.cpp:380] data -> label
I0105 17:36:57.473181 41651 data_layer.cpp:45] output data size: 200,3,224,224
I0105 17:36:57.865464 41651 net.cpp:122] Setting up data
I0105 17:36:57.865515 41651 net.cpp:129] Top shape: 200 3 224 224 (30105600)
I0105 17:36:57.865530 41651 net.cpp:129] Top shape: 200 (200)
I0105 17:36:57.865538 41651 net.cpp:137] Memory required for data: 120423200
I0105 17:36:57.865551 41651 layer_factory.hpp:77] Creating layer label_data_1_split
I0105 17:36:57.865573 41651 net.cpp:84] Creating Layer label_data_1_split
I0105 17:36:57.865584 41651 net.cpp:406] label_data_1_split <- label
I0105 17:36:57.865599 41651 net.cpp:380] label_data_1_split -> label_data_1_split_0
I0105 17:36:57.865618 41651 net.cpp:380] label_data_1_split -> label_data_1_split_1
I0105 17:36:57.865630 41651 net.cpp:380] label_data_1_split -> label_data_1_split_2
I0105 17:36:57.865754 41651 net.cpp:122] Setting up label_data_1_split
I0105 17:36:57.865772 41651 net.cpp:129] Top shape: 200 (200)
I0105 17:36:57.865782 41651 net.cpp:129] Top shape: 200 (200)
I0105 17:36:57.865792 41651 net.cpp:129] Top shape: 200 (200)
I0105 17:36:57.865800 41651 net.cpp:137] Memory required for data: 120425600
I0105 17:36:57.865809 41651 layer_factory.hpp:77] Creating layer conv1
I0105 17:36:57.865833 41651 net.cpp:84] Creating Layer conv1
I0105 17:36:57.865841 41651 net.cpp:406] conv1 <- data
I0105 17:36:57.865854 41651 net.cpp:380] conv1 -> conv1
I0105 17:36:57.885476 41651 net.cpp:122] Setting up conv1
I0105 17:36:57.885519 41651 net.cpp:129] Top shape: 200 96 55 55 (58080000)
I0105 17:36:57.885529 41651 net.cpp:137] Memory required for data: 352745600
I0105 17:36:57.885547 41651 layer_factory.hpp:77] Creating layer bn1
I0105 17:36:57.885566 41651 net.cpp:84] Creating Layer bn1
I0105 17:36:57.885576 41651 net.cpp:406] bn1 <- conv1
I0105 17:36:57.885589 41651 net.cpp:367] bn1 -> conv1 (in-place)
I0105 17:36:57.885825 41651 net.cpp:122] Setting up bn1
I0105 17:36:57.885841 41651 net.cpp:129] Top shape: 200 96 55 55 (58080000)
I0105 17:36:57.885851 41651 net.cpp:137] Memory required for data: 585065600
I0105 17:36:57.885867 41651 layer_factory.hpp:77] Creating layer scale1
I0105 17:36:57.885885 41651 net.cpp:84] Creating Layer scale1
I0105 17:36:57.885895 41651 net.cpp:406] scale1 <- conv1
I0105 17:36:57.885905 41651 net.cpp:367] scale1 -> conv1 (in-place)
I0105 17:36:57.885963 41651 layer_factory.hpp:77] Creating layer scale1
I0105 17:36:57.886096 41651 net.cpp:122] Setting up scale1
I0105 17:36:57.886113 41651 net.cpp:129] Top shape: 200 96 55 55 (58080000)
I0105 17:36:57.886122 41651 net.cpp:137] Memory required for data: 817385600
I0105 17:36:57.886134 41651 layer_factory.hpp:77] Creating layer relu1
I0105 17:36:57.886147 41651 net.cpp:84] Creating Layer relu1
I0105 17:36:57.886157 41651 net.cpp:406] relu1 <- conv1
I0105 17:36:57.886168 41651 net.cpp:367] relu1 -> conv1 (in-place)
I0105 17:36:57.886179 41651 net.cpp:122] Setting up relu1
I0105 17:36:57.886189 41651 net.cpp:129] Top shape: 200 96 55 55 (58080000)
I0105 17:36:57.886198 41651 net.cpp:137] Memory required for data: 1049705600
I0105 17:36:57.886206 41651 layer_factory.hpp:77] Creating layer pool1
I0105 17:36:57.886219 41651 net.cpp:84] Creating Layer pool1
I0105 17:36:57.886229 41651 net.cpp:406] pool1 <- conv1
I0105 17:36:57.886240 41651 net.cpp:380] pool1 -> pool1
I0105 17:36:57.886286 41651 net.cpp:122] Setting up pool1
I0105 17:36:57.886301 41651 net.cpp:129] Top shape: 200 96 27 27 (13996800)
I0105 17:36:57.886310 41651 net.cpp:137] Memory required for data: 1105692800
I0105 17:36:57.886319 41651 layer_factory.hpp:77] Creating layer quantized_conv1
I0105 17:36:57.886334 41651 net.cpp:84] Creating Layer quantized_conv1
I0105 17:36:57.886344 41651 net.cpp:406] quantized_conv1 <- pool1
I0105 17:36:57.886356 41651 net.cpp:367] quantized_conv1 -> pool1 (in-place)
I0105 17:36:57.886369 41651 net.cpp:122] Setting up quantized_conv1
I0105 17:36:57.886380 41651 net.cpp:129] Top shape: 200 96 27 27 (13996800)
I0105 17:36:57.886389 41651 net.cpp:137] Memory required for data: 1161680000
I0105 17:36:57.886397 41651 layer_factory.hpp:77] Creating layer conv2
I0105 17:36:57.886415 41651 net.cpp:84] Creating Layer conv2
I0105 17:36:57.886425 41651 net.cpp:406] conv2 <- pool1
I0105 17:36:57.886436 41651 net.cpp:380] conv2 -> conv2
I0105 17:36:57.905568 41651 net.cpp:122] Setting up conv2
I0105 17:36:57.905616 41651 net.cpp:129] Top shape: 200 256 27 27 (37324800)
I0105 17:36:57.905625 41651 net.cpp:137] Memory required for data: 1310979200
I0105 17:36:57.905647 41651 layer_factory.hpp:77] Creating layer bn2
I0105 17:36:57.905666 41651 net.cpp:84] Creating Layer bn2
I0105 17:36:57.905678 41651 net.cpp:406] bn2 <- conv2
I0105 17:36:57.905690 41651 net.cpp:367] bn2 -> conv2 (in-place)
I0105 17:36:57.905876 41651 net.cpp:122] Setting up bn2
I0105 17:36:57.905894 41651 net.cpp:129] Top shape: 200 256 27 27 (37324800)
I0105 17:36:57.905902 41651 net.cpp:137] Memory required for data: 1460278400
I0105 17:36:57.905951 41651 layer_factory.hpp:77] Creating layer scale2
I0105 17:36:57.905967 41651 net.cpp:84] Creating Layer scale2
I0105 17:36:57.905977 41651 net.cpp:406] scale2 <- conv2
I0105 17:36:57.905987 41651 net.cpp:367] scale2 -> conv2 (in-place)
I0105 17:36:57.906044 41651 layer_factory.hpp:77] Creating layer scale2
I0105 17:36:57.906160 41651 net.cpp:122] Setting up scale2
I0105 17:36:57.906177 41651 net.cpp:129] Top shape: 200 256 27 27 (37324800)
I0105 17:36:57.906185 41651 net.cpp:137] Memory required for data: 1609577600
I0105 17:36:57.906196 41651 layer_factory.hpp:77] Creating layer relu2
I0105 17:36:57.906209 41651 net.cpp:84] Creating Layer relu2
I0105 17:36:57.906222 41651 net.cpp:406] relu2 <- conv2
I0105 17:36:57.906234 41651 net.cpp:367] relu2 -> conv2 (in-place)
I0105 17:36:57.906245 41651 net.cpp:122] Setting up relu2
I0105 17:36:57.906255 41651 net.cpp:129] Top shape: 200 256 27 27 (37324800)
I0105 17:36:57.906265 41651 net.cpp:137] Memory required for data: 1758876800
I0105 17:36:57.906272 41651 layer_factory.hpp:77] Creating layer pool2
I0105 17:36:57.906286 41651 net.cpp:84] Creating Layer pool2
I0105 17:36:57.906294 41651 net.cpp:406] pool2 <- conv2
I0105 17:36:57.906306 41651 net.cpp:380] pool2 -> pool2
I0105 17:36:57.906355 41651 net.cpp:122] Setting up pool2
I0105 17:36:57.906371 41651 net.cpp:129] Top shape: 200 256 13 13 (8652800)
I0105 17:36:57.906380 41651 net.cpp:137] Memory required for data: 1793488000
I0105 17:36:57.906389 41651 layer_factory.hpp:77] Creating layer quantized_conv2
I0105 17:36:57.906404 41651 net.cpp:84] Creating Layer quantized_conv2
I0105 17:36:57.906412 41651 net.cpp:406] quantized_conv2 <- pool2
I0105 17:36:57.906424 41651 net.cpp:367] quantized_conv2 -> pool2 (in-place)
I0105 17:36:57.906436 41651 net.cpp:122] Setting up quantized_conv2
I0105 17:36:57.906447 41651 net.cpp:129] Top shape: 200 256 13 13 (8652800)
I0105 17:36:57.906455 41651 net.cpp:137] Memory required for data: 1828099200
I0105 17:36:57.906464 41651 layer_factory.hpp:77] Creating layer conv3
I0105 17:36:57.906482 41651 net.cpp:84] Creating Layer conv3
I0105 17:36:57.906491 41651 net.cpp:406] conv3 <- pool2
I0105 17:36:57.906503 41651 net.cpp:380] conv3 -> conv3
I0105 17:36:57.933712 41651 net.cpp:122] Setting up conv3
I0105 17:36:57.933768 41651 net.cpp:129] Top shape: 200 384 13 13 (12979200)
I0105 17:36:57.933776 41651 net.cpp:137] Memory required for data: 1880016000
I0105 17:36:57.933794 41651 layer_factory.hpp:77] Creating layer bn3
I0105 17:36:57.933814 41651 net.cpp:84] Creating Layer bn3
I0105 17:36:57.933825 41651 net.cpp:406] bn3 <- conv3
I0105 17:36:57.933840 41651 net.cpp:367] bn3 -> conv3 (in-place)
I0105 17:36:57.934025 41651 net.cpp:122] Setting up bn3
I0105 17:36:57.934041 41651 net.cpp:129] Top shape: 200 384 13 13 (12979200)
I0105 17:36:57.934051 41651 net.cpp:137] Memory required for data: 1931932800
I0105 17:36:57.934070 41651 layer_factory.hpp:77] Creating layer scale3
I0105 17:36:57.934088 41651 net.cpp:84] Creating Layer scale3
I0105 17:36:57.934098 41651 net.cpp:406] scale3 <- conv3
I0105 17:36:57.934109 41651 net.cpp:367] scale3 -> conv3 (in-place)
I0105 17:36:57.934165 41651 layer_factory.hpp:77] Creating layer scale3
I0105 17:36:57.934288 41651 net.cpp:122] Setting up scale3
I0105 17:36:57.934304 41651 net.cpp:129] Top shape: 200 384 13 13 (12979200)
I0105 17:36:57.934314 41651 net.cpp:137] Memory required for data: 1983849600
I0105 17:36:57.934325 41651 layer_factory.hpp:77] Creating layer relu3
I0105 17:36:57.934340 41651 net.cpp:84] Creating Layer relu3
I0105 17:36:57.934348 41651 net.cpp:406] relu3 <- conv3
I0105 17:36:57.934358 41651 net.cpp:367] relu3 -> conv3 (in-place)
I0105 17:36:57.934370 41651 net.cpp:122] Setting up relu3
I0105 17:36:57.934381 41651 net.cpp:129] Top shape: 200 384 13 13 (12979200)
I0105 17:36:57.934389 41651 net.cpp:137] Memory required for data: 2035766400
I0105 17:36:57.934398 41651 layer_factory.hpp:77] Creating layer quantized_conv3
I0105 17:36:57.934412 41651 net.cpp:84] Creating Layer quantized_conv3
I0105 17:36:57.934459 41651 net.cpp:406] quantized_conv3 <- conv3
I0105 17:36:57.934471 41651 net.cpp:367] quantized_conv3 -> conv3 (in-place)
I0105 17:36:57.934485 41651 net.cpp:122] Setting up quantized_conv3
I0105 17:36:57.934496 41651 net.cpp:129] Top shape: 200 384 13 13 (12979200)
I0105 17:36:57.934504 41651 net.cpp:137] Memory required for data: 2087683200
I0105 17:36:57.934514 41651 layer_factory.hpp:77] Creating layer conv4
I0105 17:36:57.934531 41651 net.cpp:84] Creating Layer conv4
I0105 17:36:57.934540 41651 net.cpp:406] conv4 <- conv3
I0105 17:36:57.934553 41651 net.cpp:380] conv4 -> conv4
I0105 17:36:57.974694 41651 net.cpp:122] Setting up conv4
I0105 17:36:57.974720 41651 net.cpp:129] Top shape: 200 384 13 13 (12979200)
I0105 17:36:57.974730 41651 net.cpp:137] Memory required for data: 2139600000
I0105 17:36:57.974740 41651 layer_factory.hpp:77] Creating layer bn4
I0105 17:36:57.974755 41651 net.cpp:84] Creating Layer bn4
I0105 17:36:57.974763 41651 net.cpp:406] bn4 <- conv4
I0105 17:36:57.974779 41651 net.cpp:367] bn4 -> conv4 (in-place)
I0105 17:36:57.975000 41651 net.cpp:122] Setting up bn4
I0105 17:36:57.975023 41651 net.cpp:129] Top shape: 200 384 13 13 (12979200)
I0105 17:36:57.975031 41651 net.cpp:137] Memory required for data: 2191516800
I0105 17:36:57.975046 41651 layer_factory.hpp:77] Creating layer scale4
I0105 17:36:57.975059 41651 net.cpp:84] Creating Layer scale4
I0105 17:36:57.975069 41651 net.cpp:406] scale4 <- conv4
I0105 17:36:57.975080 41651 net.cpp:367] scale4 -> conv4 (in-place)
I0105 17:36:57.975134 41651 layer_factory.hpp:77] Creating layer scale4
I0105 17:36:57.975252 41651 net.cpp:122] Setting up scale4
I0105 17:36:57.975270 41651 net.cpp:129] Top shape: 200 384 13 13 (12979200)
I0105 17:36:57.975278 41651 net.cpp:137] Memory required for data: 2243433600
I0105 17:36:57.975289 41651 layer_factory.hpp:77] Creating layer relu4
I0105 17:36:57.975301 41651 net.cpp:84] Creating Layer relu4
I0105 17:36:57.975309 41651 net.cpp:406] relu4 <- conv4
I0105 17:36:57.975322 41651 net.cpp:367] relu4 -> conv4 (in-place)
I0105 17:36:57.975333 41651 net.cpp:122] Setting up relu4
I0105 17:36:57.975343 41651 net.cpp:129] Top shape: 200 384 13 13 (12979200)
I0105 17:36:57.975353 41651 net.cpp:137] Memory required for data: 2295350400
I0105 17:36:57.975360 41651 layer_factory.hpp:77] Creating layer quantized_conv4
I0105 17:36:57.975371 41651 net.cpp:84] Creating Layer quantized_conv4
I0105 17:36:57.975380 41651 net.cpp:406] quantized_conv4 <- conv4
I0105 17:36:57.975390 41651 net.cpp:367] quantized_conv4 -> conv4 (in-place)
I0105 17:36:57.975401 41651 net.cpp:122] Setting up quantized_conv4
I0105 17:36:57.975412 41651 net.cpp:129] Top shape: 200 384 13 13 (12979200)
I0105 17:36:57.975420 41651 net.cpp:137] Memory required for data: 2347267200
I0105 17:36:57.975428 41651 layer_factory.hpp:77] Creating layer conv5
I0105 17:36:57.975446 41651 net.cpp:84] Creating Layer conv5
I0105 17:36:57.975456 41651 net.cpp:406] conv5 <- conv4
I0105 17:36:57.975471 41651 net.cpp:380] conv5 -> conv5
I0105 17:36:58.001629 41651 net.cpp:122] Setting up conv5
I0105 17:36:58.001654 41651 net.cpp:129] Top shape: 200 256 13 13 (8652800)
I0105 17:36:58.001663 41651 net.cpp:137] Memory required for data: 2381878400
I0105 17:36:58.001675 41651 layer_factory.hpp:77] Creating layer bn5
I0105 17:36:58.001689 41651 net.cpp:84] Creating Layer bn5
I0105 17:36:58.001698 41651 net.cpp:406] bn5 <- conv5
I0105 17:36:58.001709 41651 net.cpp:367] bn5 -> conv5 (in-place)
I0105 17:36:58.001891 41651 net.cpp:122] Setting up bn5
I0105 17:36:58.001907 41651 net.cpp:129] Top shape: 200 256 13 13 (8652800)
I0105 17:36:58.001915 41651 net.cpp:137] Memory required for data: 2416489600
I0105 17:36:58.001932 41651 layer_factory.hpp:77] Creating layer scale5
I0105 17:36:58.001947 41651 net.cpp:84] Creating Layer scale5
I0105 17:36:58.001956 41651 net.cpp:406] scale5 <- conv5
I0105 17:36:58.001966 41651 net.cpp:367] scale5 -> conv5 (in-place)
I0105 17:36:58.002017 41651 layer_factory.hpp:77] Creating layer scale5
I0105 17:36:58.002166 41651 net.cpp:122] Setting up scale5
I0105 17:36:58.002183 41651 net.cpp:129] Top shape: 200 256 13 13 (8652800)
I0105 17:36:58.002192 41651 net.cpp:137] Memory required for data: 2451100800
I0105 17:36:58.002203 41651 layer_factory.hpp:77] Creating layer relu5
I0105 17:36:58.002214 41651 net.cpp:84] Creating Layer relu5
I0105 17:36:58.002223 41651 net.cpp:406] relu5 <- conv5
I0105 17:36:58.002233 41651 net.cpp:367] relu5 -> conv5 (in-place)
I0105 17:36:58.002244 41651 net.cpp:122] Setting up relu5
I0105 17:36:58.002254 41651 net.cpp:129] Top shape: 200 256 13 13 (8652800)
I0105 17:36:58.002262 41651 net.cpp:137] Memory required for data: 2485712000
I0105 17:36:58.002270 41651 layer_factory.hpp:77] Creating layer pool5
I0105 17:36:58.002282 41651 net.cpp:84] Creating Layer pool5
I0105 17:36:58.002290 41651 net.cpp:406] pool5 <- conv5
I0105 17:36:58.002305 41651 net.cpp:380] pool5 -> pool5
I0105 17:36:58.002353 41651 net.cpp:122] Setting up pool5
I0105 17:36:58.002369 41651 net.cpp:129] Top shape: 200 256 6 6 (1843200)
I0105 17:36:58.002377 41651 net.cpp:137] Memory required for data: 2493084800
I0105 17:36:58.002385 41651 layer_factory.hpp:77] Creating layer quantized_conv5
I0105 17:36:58.002399 41651 net.cpp:84] Creating Layer quantized_conv5
I0105 17:36:58.002409 41651 net.cpp:406] quantized_conv5 <- pool5
I0105 17:36:58.002419 41651 net.cpp:367] quantized_conv5 -> pool5 (in-place)
I0105 17:36:58.002431 41651 net.cpp:122] Setting up quantized_conv5
I0105 17:36:58.002441 41651 net.cpp:129] Top shape: 200 256 6 6 (1843200)
I0105 17:36:58.002450 41651 net.cpp:137] Memory required for data: 2500457600
I0105 17:36:58.002459 41651 layer_factory.hpp:77] Creating layer fc6
I0105 17:36:58.002471 41651 net.cpp:84] Creating Layer fc6
I0105 17:36:58.002480 41651 net.cpp:406] fc6 <- pool5
I0105 17:36:58.002490 41651 net.cpp:380] fc6 -> fc6
I0105 17:36:59.119328 41651 net.cpp:122] Setting up fc6
I0105 17:36:59.119436 41651 net.cpp:129] Top shape: 200 4096 (819200)
I0105 17:36:59.119447 41651 net.cpp:137] Memory required for data: 2503734400
I0105 17:36:59.119464 41651 layer_factory.hpp:77] Creating layer bn6
I0105 17:36:59.119488 41651 net.cpp:84] Creating Layer bn6
I0105 17:36:59.119499 41651 net.cpp:406] bn6 <- fc6
I0105 17:36:59.119513 41651 net.cpp:367] bn6 -> fc6 (in-place)
I0105 17:36:59.119726 41651 net.cpp:122] Setting up bn6
I0105 17:36:59.119745 41651 net.cpp:129] Top shape: 200 4096 (819200)
I0105 17:36:59.119755 41651 net.cpp:137] Memory required for data: 2507011200
I0105 17:36:59.119768 41651 layer_factory.hpp:77] Creating layer scale6
I0105 17:36:59.119787 41651 net.cpp:84] Creating Layer scale6
I0105 17:36:59.119796 41651 net.cpp:406] scale6 <- fc6
I0105 17:36:59.119807 41651 net.cpp:367] scale6 -> fc6 (in-place)
I0105 17:36:59.119863 41651 layer_factory.hpp:77] Creating layer scale6
I0105 17:36:59.120014 41651 net.cpp:122] Setting up scale6
I0105 17:36:59.120035 41651 net.cpp:129] Top shape: 200 4096 (819200)
I0105 17:36:59.120043 41651 net.cpp:137] Memory required for data: 2510288000
I0105 17:36:59.120055 41651 layer_factory.hpp:77] Creating layer relu6
I0105 17:36:59.120067 41651 net.cpp:84] Creating Layer relu6
I0105 17:36:59.120076 41651 net.cpp:406] relu6 <- fc6
I0105 17:36:59.120090 41651 net.cpp:367] relu6 -> fc6 (in-place)
I0105 17:36:59.120101 41651 net.cpp:122] Setting up relu6
I0105 17:36:59.120111 41651 net.cpp:129] Top shape: 200 4096 (819200)
I0105 17:36:59.120121 41651 net.cpp:137] Memory required for data: 2513564800
I0105 17:36:59.120128 41651 layer_factory.hpp:77] Creating layer drop6
I0105 17:36:59.120141 41651 net.cpp:84] Creating Layer drop6
I0105 17:36:59.120151 41651 net.cpp:406] drop6 <- fc6
I0105 17:36:59.120160 41651 net.cpp:367] drop6 -> fc6 (in-place)
I0105 17:36:59.120194 41651 net.cpp:122] Setting up drop6
I0105 17:36:59.120208 41651 net.cpp:129] Top shape: 200 4096 (819200)
I0105 17:36:59.120218 41651 net.cpp:137] Memory required for data: 2516841600
I0105 17:36:59.120226 41651 layer_factory.hpp:77] Creating layer quantized_fc6
I0105 17:36:59.120239 41651 net.cpp:84] Creating Layer quantized_fc6
I0105 17:36:59.120293 41651 net.cpp:406] quantized_fc6 <- fc6
I0105 17:36:59.120306 41651 net.cpp:367] quantized_fc6 -> fc6 (in-place)
I0105 17:36:59.120321 41651 net.cpp:122] Setting up quantized_fc6
I0105 17:36:59.120331 41651 net.cpp:129] Top shape: 200 4096 (819200)
I0105 17:36:59.120339 41651 net.cpp:137] Memory required for data: 2520118400
I0105 17:36:59.120347 41651 layer_factory.hpp:77] Creating layer fc7
I0105 17:36:59.120362 41651 net.cpp:84] Creating Layer fc7
I0105 17:36:59.120373 41651 net.cpp:406] fc7 <- fc6
I0105 17:36:59.120386 41651 net.cpp:380] fc7 -> fc7
I0105 17:36:59.615959 41651 net.cpp:122] Setting up fc7
I0105 17:36:59.616066 41651 net.cpp:129] Top shape: 200 4096 (819200)
I0105 17:36:59.616077 41651 net.cpp:137] Memory required for data: 2523395200
I0105 17:36:59.616094 41651 layer_factory.hpp:77] Creating layer bn7
I0105 17:36:59.616117 41651 net.cpp:84] Creating Layer bn7
I0105 17:36:59.616129 41651 net.cpp:406] bn7 <- fc7
I0105 17:36:59.616147 41651 net.cpp:367] bn7 -> fc7 (in-place)
I0105 17:36:59.616344 41651 net.cpp:122] Setting up bn7
I0105 17:36:59.616360 41651 net.cpp:129] Top shape: 200 4096 (819200)
I0105 17:36:59.616369 41651 net.cpp:137] Memory required for data: 2526672000
I0105 17:36:59.616382 41651 layer_factory.hpp:77] Creating layer scale7
I0105 17:36:59.616400 41651 net.cpp:84] Creating Layer scale7
I0105 17:36:59.616410 41651 net.cpp:406] scale7 <- fc7
I0105 17:36:59.616420 41651 net.cpp:367] scale7 -> fc7 (in-place)
I0105 17:36:59.616474 41651 layer_factory.hpp:77] Creating layer scale7
I0105 17:36:59.616614 41651 net.cpp:122] Setting up scale7
I0105 17:36:59.616631 41651 net.cpp:129] Top shape: 200 4096 (819200)
I0105 17:36:59.616638 41651 net.cpp:137] Memory required for data: 2529948800
I0105 17:36:59.616650 41651 layer_factory.hpp:77] Creating layer relu7
I0105 17:36:59.616663 41651 net.cpp:84] Creating Layer relu7
I0105 17:36:59.616672 41651 net.cpp:406] relu7 <- fc7
I0105 17:36:59.616684 41651 net.cpp:367] relu7 -> fc7 (in-place)
I0105 17:36:59.616696 41651 net.cpp:122] Setting up relu7
I0105 17:36:59.616706 41651 net.cpp:129] Top shape: 200 4096 (819200)
I0105 17:36:59.616714 41651 net.cpp:137] Memory required for data: 2533225600
I0105 17:36:59.616724 41651 layer_factory.hpp:77] Creating layer drop7
I0105 17:36:59.616735 41651 net.cpp:84] Creating Layer drop7
I0105 17:36:59.616744 41651 net.cpp:406] drop7 <- fc7
I0105 17:36:59.616756 41651 net.cpp:367] drop7 -> fc7 (in-place)
I0105 17:36:59.616788 41651 net.cpp:122] Setting up drop7
I0105 17:36:59.616802 41651 net.cpp:129] Top shape: 200 4096 (819200)
I0105 17:36:59.616811 41651 net.cpp:137] Memory required for data: 2536502400
I0105 17:36:59.616819 41651 layer_factory.hpp:77] Creating layer quantized_fc7
I0105 17:36:59.616832 41651 net.cpp:84] Creating Layer quantized_fc7
I0105 17:36:59.616840 41651 net.cpp:406] quantized_fc7 <- fc7
I0105 17:36:59.616853 41651 net.cpp:367] quantized_fc7 -> fc7 (in-place)
I0105 17:36:59.616866 41651 net.cpp:122] Setting up quantized_fc7
I0105 17:36:59.616881 41651 net.cpp:129] Top shape: 200 4096 (819200)
I0105 17:36:59.616889 41651 net.cpp:137] Memory required for data: 2539779200
I0105 17:36:59.616899 41651 layer_factory.hpp:77] Creating layer fc8
I0105 17:36:59.616914 41651 net.cpp:84] Creating Layer fc8
I0105 17:36:59.616925 41651 net.cpp:406] fc8 <- fc7
I0105 17:36:59.616935 41651 net.cpp:380] fc8 -> fc8
I0105 17:36:59.740528 41651 net.cpp:122] Setting up fc8
I0105 17:36:59.740629 41651 net.cpp:129] Top shape: 200 1000 (200000)
I0105 17:36:59.740644 41651 net.cpp:137] Memory required for data: 2540579200
I0105 17:36:59.740662 41651 layer_factory.hpp:77] Creating layer fc8_fc8_0_split
I0105 17:36:59.740681 41651 net.cpp:84] Creating Layer fc8_fc8_0_split
I0105 17:36:59.740694 41651 net.cpp:406] fc8_fc8_0_split <- fc8
I0105 17:36:59.740710 41651 net.cpp:380] fc8_fc8_0_split -> fc8_fc8_0_split_0
I0105 17:36:59.740736 41651 net.cpp:380] fc8_fc8_0_split -> fc8_fc8_0_split_1
I0105 17:36:59.740749 41651 net.cpp:380] fc8_fc8_0_split -> fc8_fc8_0_split_2
I0105 17:36:59.740860 41651 net.cpp:122] Setting up fc8_fc8_0_split
I0105 17:36:59.740877 41651 net.cpp:129] Top shape: 200 1000 (200000)
I0105 17:36:59.740887 41651 net.cpp:129] Top shape: 200 1000 (200000)
I0105 17:36:59.740896 41651 net.cpp:129] Top shape: 200 1000 (200000)
I0105 17:36:59.740905 41651 net.cpp:137] Memory required for data: 2542979200
I0105 17:36:59.740912 41651 layer_factory.hpp:77] Creating layer accuracy
I0105 17:36:59.740926 41651 net.cpp:84] Creating Layer accuracy
I0105 17:36:59.740936 41651 net.cpp:406] accuracy <- fc8_fc8_0_split_0
I0105 17:36:59.740945 41651 net.cpp:406] accuracy <- label_data_1_split_0
I0105 17:36:59.740958 41651 net.cpp:380] accuracy -> accuracy
…
