…
I0109 11:53:02.676328 55786 net.cpp:294] The NetState phase (0) differed from the phase (1) specified by a rule in layer accuracy_5
I0109 11:53:02.676559 55786 net.cpp:51] Initializing net from parameters: 
name: "AlexNet-BN"
state {
  phase: TRAIN
  level: 0
  stage: ""
}
layer {
  name: "data"
  type: "Data"
  top: "data"
  top: "label"
  include {
    phase: TRAIN
  }
  transform_param {
    mirror: true
    crop_size: 224
    mean_value: 103.939
    mean_value: 116.779
    mean_value: 123.68
  }
  data_param {
    source: "/home/ydwu/database/imagenet/ilsvrc12/lmdb_resize/ilsvrc12_train_lmdb"
    batch_size: 200
    backend: LMDB
  }
}
layer {
  name: "conv1"
  type: "QuanConvolution"
  bottom: "data"
  top: "conv1"
  param {
    lr_mult: 1
    decay_mult: 1
  }
  param {
    lr_mult: 2
    decay_mult: 0
  }
  quan_convolution_param {
    num_output: 96
    pad: 2
    kernel_size: 11
    stride: 4
    weight_filler {
      type: "gaussian"
      std: 0.01
    }
    bias_filler {
      type: "constant"
      value: 0
    }
    bit_width: 8
    range_low: -0.69767118
    range_high: 0.74162
  }
}
layer {
  name: "bn1"
  type: "BatchNorm"
  bottom: "conv1"
  top: "conv1"
}
layer {
  name: "scale1"
  type: "Scale"
  bottom: "conv1"
  top: "conv1"
  scale_param {
    bias_term: true
  }
}
layer {
  name: "relu1"
  type: "ReLU"
  bottom: "conv1"
  top: "conv1"
}
layer {
  name: "pool1"
  type: "Pooling"
  bottom: "conv1"
  top: "pool1"
  pooling_param {
    pool: MAX
    kernel_size: 3
    stride: 2
  }
}
layer {
  name: "conv2"
  type: "QuanConvolution"
  bottom: "pool1"
  top: "conv2"
  param {
    lr_mult: 1
    decay_mult: 1
  }
  param {
    lr_mult: 2
    decay_mult: 0
  }
  quan_convolution_param {
    num_output: 256
    pad: 2
    kernel_size: 5
    weight_filler {
      type: "gaussian"
      std: 0.01
    }
    bias_filler {
      type: "constant"
      value: 0.1
    }
    bit_width: 8
    range_low: -0.64481437
    range_high: 1.21456
  }
}
layer {
  name: "bn2"
  type: "BatchNorm"
  bottom: "conv2"
  top: "conv2"
}
layer {
  name: "scale2"
  type: "Scale"
  bottom: "conv2"
  top: "conv2"
  scale_param {
    bias_term: true
  }
}
layer {
  name: "relu2"
  type: "ReLU"
  bottom: "conv2"
  top: "conv2"
}
layer {
  name: "pool2"
  type: "Pooling"
  bottom: "conv2"
  top: "pool2"
  pooling_param {
    pool: MAX
    kernel_size: 3
    stride: 2
  }
}
layer {
  name: "conv3"
  type: "QuanConvolution"
  bottom: "pool2"
  top: "conv3"
  param {
    lr_mult: 1
    decay_mult: 1
  }
  param {
    lr_mult: 2
    decay_mult: 0
  }
  quan_convolution_param {
    num_output: 384
    pad: 1
    kernel_size: 3
    weight_filler {
      type: "gaussian"
      std: 0.01
    }
    bias_filler {
      type: "constant"
      value: 0
    }
    bit_width: 8
    range_low: -0.49748641
    range_high: 0.5390864
  }
}
layer {
  name: "bn3"
  type: "BatchNorm"
  bottom: "conv3"
  top: "conv3"
}
layer {
  name: "scale3"
  type: "Scale"
  bottom: "conv3"
  top: "conv3"
  scale_param {
    bias_term: true
  }
}
layer {
  name: "relu3"
  type: "ReLU"
  bottom: "conv3"
  top: "conv3"
}
layer {
  name: "conv4"
  type: "QuanConvolution"
  bottom: "conv3"
  top: "conv4"
  param {
    lr_mult: 1
    decay_mult: 1
  }
  param {
    lr_mult: 2
    decay_mult: 0
  }
  quan_convolution_param {
    num_output: 384
    pad: 1
    kernel_size: 3
    weight_filler {
      type: "gaussian"
      std: 0.01
    }
    bias_filler {
      type: "constant"
      value: 0.1
    }
    bit_width: 8
    range_low: -0.3013072
    range_high: 0.27346319
  }
}
layer {
  name: "bn4"
  type: "BatchNorm"
  bottom: "conv4"
  top: "conv4"
}
layer {
  name: "scale4"
  type: "Scale"
  bottom: "conv4"
  top: "conv4"
  scale_param {
    bias_term: true
  }
}
layer {
  name: "relu4"
  type: "ReLU"
  bottom: "conv4"
  top: "conv4"
}
layer {
  name: "conv5"
  type: "QuanConvolution"
  bottom: "conv4"
  top: "conv5"
  param {
    lr_mult: 1
    decay_mult: 1
  }
  param {
    lr_mult: 2
    decay_mult: 0
  }
  quan_convolution_param {
    num_output: 256
    pad: 1
    kernel_size: 3
    weight_filler {
      type: "gaussian"
      std: 0.01
    }
    bias_filler {
      type: "constant"
      value: 0.1
    }
    bit_width: 8
    range_low: -0.27812639
    range_high: 0.26403359
  }
}
layer {
  name: "bn5"
  type: "BatchNorm"
  bottom: "conv5"
  top: "conv5"
}
layer {
  name: "scale5"
  type: "Scale"
  bottom: "conv5"
  top: "conv5"
  scale_param {
    bias_term: true
  }
}
layer {
  name: "relu5"
  type: "ReLU"
  bottom: "conv5"
  top: "conv5"
}
layer {
  name: "pool5"
  type: "Pooling"
  bottom: "conv5"
  top: "pool5"
  pooling_param {
    pool: MAX
    kernel_size: 3
    stride: 2
  }
}
layer {
  name: "fc6"
  type: "QuanInnerProduct"
  bottom: "pool5"
  top: "fc6"
  param {
    lr_mult: 1
    decay_mult: 1
  }
  param {
    lr_mult: 2
    decay_mult: 0
  }
  quan_inner_product_param {
    num_output: 4096
    weight_filler {
      type: "gaussian"
      std: 0.005
    }
    bias_filler {
      type: "constant"
      value: 0.1
    }
    bit_width: 8
    range_low: -0.12804881
    range_high: 0.1184512
  }
}
layer {
  name: "bn6"
  type: "BatchNorm"
  bottom: "fc6"
  top: "fc6"
}
layer {
  name: "scale6"
  type: "Scale"
  bottom: "fc6"
  top: "fc6"
  scale_param {
    bias_term: true
  }
}
layer {
  name: "relu6"
  type: "ReLU"
  bottom: "fc6"
  top: "fc6"
}
layer {
  name: "drop6"
  type: "Dropout"
  bottom: "fc6"
  top: "fc6"
  dropout_param {
    dropout_ratio: 0.5
  }
}
layer {
  name: "fc7"
  type: "QuanInnerProduct"
  bottom: "fc6"
  top: "fc7"
  param {
    lr_mult: 1
    decay_mult: 1
  }
  param {
    lr_mult: 2
    decay_mult: 0
  }
  quan_inner_product_param {
    num_output: 4096
    weight_filler {
      type: "gaussian"
      std: 0.005
    }
    bias_filler {
      type: "constant"
      value: 0.1
    }
    bit_width: 8
    range_low: -0.1301088
    range_high: 0.1581472
  }
}
layer {
  name: "bn7"
  type: "BatchNorm"
  bottom: "fc7"
  top: "fc7"
}
layer {
  name: "scale7"
  type: "Scale"
  bottom: "fc7"
  top: "fc7"
  scale_param {
    bias_term: true
  }
}
layer {
  name: "relu7"
  type: "ReLU"
  bottom: "fc7"
  top: "fc7"
}
layer {
  name: "drop7"
  type: "Dropout"
  bottom: "fc7"
  top: "fc7"
  dropout_param {
    dropout_ratio: 0.5
  }
}
layer {
  name: "fc8"
  type: "QuanInnerProduct"
  bottom: "fc7"
  top: "fc8"
  param {
    lr_mult: 1
    decay_mult: 1
  }
  param {
    lr_mult: 2
    decay_mult: 0
  }
  quan_inner_product_param {
    num_output: 1000
    weight_filler {
      type: "gaussian"
      std: 0.01
    }
    bias_filler {
      type: "constant"
      value: 0
    }
    bit_width: 8
    range_low: -0.1134856
    range_high: 0.2193992
  }
}
layer {
  name: "accuracy_5_TRAIN"
  type: "Accuracy"
  bottom: "fc8"
  bottom: "label"
  top: "accuracy_5_TRAIN"
  include {
    phase: TRAIN
  }
  accuracy_param {
    top_k: 5
  }
}
layer {
  name: "loss"
  type: "SoftmaxWithLoss"
  bottom: "fc8"
  bottom: "label"
  top: "loss"
}
I0109 11:53:02.676772 55786 layer_factory.hpp:77] Creating layer data
I0109 11:53:02.676882 55786 db_lmdb.cpp:35] Opened lmdb /home/ydwu/database/imagenet/ilsvrc12/lmdb_resize/ilsvrc12_train_lmdb
I0109 11:53:02.676937 55786 net.cpp:84] Creating Layer data
I0109 11:53:02.676959 55786 net.cpp:380] data -> data
I0109 11:53:02.676995 55786 net.cpp:380] data -> label
I0109 11:53:02.678602 55786 data_layer.cpp:45] output data size: 200,3,224,224
I0109 11:53:03.040664 55786 net.cpp:122] Setting up data
I0109 11:53:03.040774 55786 net.cpp:129] Top shape: 200 3 224 224 (30105600)
I0109 11:53:03.040791 55786 net.cpp:129] Top shape: 200 (200)
I0109 11:53:03.040799 55786 net.cpp:137] Memory required for data: 120423200
I0109 11:53:03.040817 55786 layer_factory.hpp:77] Creating layer label_data_1_split
I0109 11:53:03.040839 55786 net.cpp:84] Creating Layer label_data_1_split
I0109 11:53:03.040853 55786 net.cpp:406] label_data_1_split <- label
I0109 11:53:03.040875 55786 net.cpp:380] label_data_1_split -> label_data_1_split_0
I0109 11:53:03.040895 55786 net.cpp:380] label_data_1_split -> label_data_1_split_1
I0109 11:53:03.040948 55786 net.cpp:122] Setting up label_data_1_split
I0109 11:53:03.040964 55786 net.cpp:129] Top shape: 200 (200)
I0109 11:53:03.040974 55786 net.cpp:129] Top shape: 200 (200)
I0109 11:53:03.040982 55786 net.cpp:137] Memory required for data: 120424800
I0109 11:53:03.040992 55786 layer_factory.hpp:77] Creating layer conv1
I0109 11:53:03.041020 55786 net.cpp:84] Creating Layer conv1
I0109 11:53:03.041031 55786 net.cpp:406] conv1 <- data
I0109 11:53:03.041044 55786 net.cpp:380] conv1 -> conv1
ydwu=======get:
bit_width=8;  round_method=1;  round_strategy=2;  is_runtime=0;  range_low=-0.697671;  range_high=0.74162
I0109 11:53:03.066341 55786 net.cpp:122] Setting up conv1
I0109 11:53:03.066367 55786 net.cpp:129] Top shape: 200 96 55 55 (58080000)
I0109 11:53:03.066377 55786 net.cpp:137] Memory required for data: 352744800
I0109 11:53:03.066401 55786 layer_factory.hpp:77] Creating layer bn1
I0109 11:53:03.066418 55786 net.cpp:84] Creating Layer bn1
I0109 11:53:03.066442 55786 net.cpp:406] bn1 <- conv1
I0109 11:53:03.066453 55786 net.cpp:367] bn1 -> conv1 (in-place)
I0109 11:53:03.066645 55786 net.cpp:122] Setting up bn1
I0109 11:53:03.066661 55786 net.cpp:129] Top shape: 200 96 55 55 (58080000)
I0109 11:53:03.066670 55786 net.cpp:137] Memory required for data: 585064800
I0109 11:53:03.066687 55786 layer_factory.hpp:77] Creating layer scale1
I0109 11:53:03.066705 55786 net.cpp:84] Creating Layer scale1
I0109 11:53:03.066715 55786 net.cpp:406] scale1 <- conv1
I0109 11:53:03.066727 55786 net.cpp:367] scale1 -> conv1 (in-place)
I0109 11:53:03.066784 55786 layer_factory.hpp:77] Creating layer scale1
I0109 11:53:03.066920 55786 net.cpp:122] Setting up scale1
I0109 11:53:03.066936 55786 net.cpp:129] Top shape: 200 96 55 55 (58080000)
I0109 11:53:03.066946 55786 net.cpp:137] Memory required for data: 817384800
I0109 11:53:03.066964 55786 layer_factory.hpp:77] Creating layer relu1
I0109 11:53:03.066980 55786 net.cpp:84] Creating Layer relu1
I0109 11:53:03.066990 55786 net.cpp:406] relu1 <- conv1
I0109 11:53:03.067003 55786 net.cpp:367] relu1 -> conv1 (in-place)
I0109 11:53:03.067016 55786 net.cpp:122] Setting up relu1
I0109 11:53:03.067037 55786 net.cpp:129] Top shape: 200 96 55 55 (58080000)
I0109 11:53:03.067047 55786 net.cpp:137] Memory required for data: 1049704800
I0109 11:53:03.067056 55786 layer_factory.hpp:77] Creating layer pool1
I0109 11:53:03.067070 55786 net.cpp:84] Creating Layer pool1
I0109 11:53:03.067080 55786 net.cpp:406] pool1 <- conv1
I0109 11:53:03.067090 55786 net.cpp:380] pool1 -> pool1
I0109 11:53:03.067150 55786 net.cpp:122] Setting up pool1
I0109 11:53:03.067167 55786 net.cpp:129] Top shape: 200 96 27 27 (13996800)
I0109 11:53:03.067176 55786 net.cpp:137] Memory required for data: 1105692000
I0109 11:53:03.067185 55786 layer_factory.hpp:77] Creating layer conv2
I0109 11:53:03.067203 55786 net.cpp:84] Creating Layer conv2
I0109 11:53:03.067212 55786 net.cpp:406] conv2 <- pool1
I0109 11:53:03.067225 55786 net.cpp:380] conv2 -> conv2
ydwu=======get:
bit_width=8;  round_method=1;  round_strategy=2;  is_runtime=0;  range_low=-0.644814;  range_high=1.21456
I0109 11:53:03.087532 55786 net.cpp:122] Setting up conv2
I0109 11:53:03.087563 55786 net.cpp:129] Top shape: 200 256 27 27 (37324800)
I0109 11:53:03.087574 55786 net.cpp:137] Memory required for data: 1254991200
I0109 11:53:03.087596 55786 layer_factory.hpp:77] Creating layer bn2
I0109 11:53:03.087618 55786 net.cpp:84] Creating Layer bn2
I0109 11:53:03.087630 55786 net.cpp:406] bn2 <- conv2
I0109 11:53:03.087642 55786 net.cpp:367] bn2 -> conv2 (in-place)
I0109 11:53:03.087859 55786 net.cpp:122] Setting up bn2
I0109 11:53:03.087875 55786 net.cpp:129] Top shape: 200 256 27 27 (37324800)
I0109 11:53:03.087884 55786 net.cpp:137] Memory required for data: 1404290400
I0109 11:53:03.087898 55786 layer_factory.hpp:77] Creating layer scale2
I0109 11:53:03.087913 55786 net.cpp:84] Creating Layer scale2
I0109 11:53:03.087923 55786 net.cpp:406] scale2 <- conv2
I0109 11:53:03.087934 55786 net.cpp:367] scale2 -> conv2 (in-place)
I0109 11:53:03.087986 55786 layer_factory.hpp:77] Creating layer scale2
I0109 11:53:03.088099 55786 net.cpp:122] Setting up scale2
I0109 11:53:03.088114 55786 net.cpp:129] Top shape: 200 256 27 27 (37324800)
I0109 11:53:03.088124 55786 net.cpp:137] Memory required for data: 1553589600
I0109 11:53:03.088135 55786 layer_factory.hpp:77] Creating layer relu2
I0109 11:53:03.088148 55786 net.cpp:84] Creating Layer relu2
I0109 11:53:03.088157 55786 net.cpp:406] relu2 <- conv2
I0109 11:53:03.088168 55786 net.cpp:367] relu2 -> conv2 (in-place)
I0109 11:53:03.088181 55786 net.cpp:122] Setting up relu2
I0109 11:53:03.088191 55786 net.cpp:129] Top shape: 200 256 27 27 (37324800)
I0109 11:53:03.088201 55786 net.cpp:137] Memory required for data: 1702888800
I0109 11:53:03.088208 55786 layer_factory.hpp:77] Creating layer pool2
I0109 11:53:03.088222 55786 net.cpp:84] Creating Layer pool2
I0109 11:53:03.088230 55786 net.cpp:406] pool2 <- conv2
I0109 11:53:03.088243 55786 net.cpp:380] pool2 -> pool2
I0109 11:53:03.088289 55786 net.cpp:122] Setting up pool2
I0109 11:53:03.088304 55786 net.cpp:129] Top shape: 200 256 13 13 (8652800)
I0109 11:53:03.088312 55786 net.cpp:137] Memory required for data: 1737500000
I0109 11:53:03.088321 55786 layer_factory.hpp:77] Creating layer conv3
I0109 11:53:03.088340 55786 net.cpp:84] Creating Layer conv3
I0109 11:53:03.088349 55786 net.cpp:406] conv3 <- pool2
I0109 11:53:03.088361 55786 net.cpp:380] conv3 -> conv3
ydwu=======get:
bit_width=8;  round_method=1;  round_strategy=2;  is_runtime=0;  range_low=-0.497486;  range_high=0.539086
I0109 11:53:03.115458 55786 net.cpp:122] Setting up conv3
I0109 11:53:03.115489 55786 net.cpp:129] Top shape: 200 384 13 13 (12979200)
I0109 11:53:03.115499 55786 net.cpp:137] Memory required for data: 1789416800
I0109 11:53:03.115514 55786 layer_factory.hpp:77] Creating layer bn3
I0109 11:53:03.115535 55786 net.cpp:84] Creating Layer bn3
I0109 11:53:03.115545 55786 net.cpp:406] bn3 <- conv3
I0109 11:53:03.115559 55786 net.cpp:367] bn3 -> conv3 (in-place)
I0109 11:53:03.115737 55786 net.cpp:122] Setting up bn3
I0109 11:53:03.115753 55786 net.cpp:129] Top shape: 200 384 13 13 (12979200)
I0109 11:53:03.115762 55786 net.cpp:137] Memory required for data: 1841333600
I0109 11:53:03.115782 55786 layer_factory.hpp:77] Creating layer scale3
I0109 11:53:03.115797 55786 net.cpp:84] Creating Layer scale3
I0109 11:53:03.115808 55786 net.cpp:406] scale3 <- conv3
I0109 11:53:03.115818 55786 net.cpp:367] scale3 -> conv3 (in-place)
I0109 11:53:03.115869 55786 layer_factory.hpp:77] Creating layer scale3
I0109 11:53:03.115988 55786 net.cpp:122] Setting up scale3
I0109 11:53:03.116003 55786 net.cpp:129] Top shape: 200 384 13 13 (12979200)
I0109 11:53:03.116011 55786 net.cpp:137] Memory required for data: 1893250400
I0109 11:53:03.116024 55786 layer_factory.hpp:77] Creating layer relu3
I0109 11:53:03.116037 55786 net.cpp:84] Creating Layer relu3
I0109 11:53:03.116046 55786 net.cpp:406] relu3 <- conv3
I0109 11:53:03.116057 55786 net.cpp:367] relu3 -> conv3 (in-place)
I0109 11:53:03.116070 55786 net.cpp:122] Setting up relu3
I0109 11:53:03.116080 55786 net.cpp:129] Top shape: 200 384 13 13 (12979200)
I0109 11:53:03.116088 55786 net.cpp:137] Memory required for data: 1945167200
I0109 11:53:03.116097 55786 layer_factory.hpp:77] Creating layer conv4
I0109 11:53:03.116117 55786 net.cpp:84] Creating Layer conv4
I0109 11:53:03.116128 55786 net.cpp:406] conv4 <- conv3
I0109 11:53:03.116142 55786 net.cpp:380] conv4 -> conv4
ydwu=======get:
bit_width=8;  round_method=1;  round_strategy=2;  is_runtime=0;  range_low=-0.301307;  range_high=0.273463
I0109 11:53:03.156677 55786 net.cpp:122] Setting up conv4
I0109 11:53:03.156708 55786 net.cpp:129] Top shape: 200 384 13 13 (12979200)
I0109 11:53:03.156716 55786 net.cpp:137] Memory required for data: 1997084000
I0109 11:53:03.156774 55786 layer_factory.hpp:77] Creating layer bn4
I0109 11:53:03.156795 55786 net.cpp:84] Creating Layer bn4
I0109 11:53:03.156805 55786 net.cpp:406] bn4 <- conv4
I0109 11:53:03.156819 55786 net.cpp:367] bn4 -> conv4 (in-place)
I0109 11:53:03.156997 55786 net.cpp:122] Setting up bn4
I0109 11:53:03.157013 55786 net.cpp:129] Top shape: 200 384 13 13 (12979200)
I0109 11:53:03.157022 55786 net.cpp:137] Memory required for data: 2049000800
I0109 11:53:03.157037 55786 layer_factory.hpp:77] Creating layer scale4
I0109 11:53:03.157052 55786 net.cpp:84] Creating Layer scale4
I0109 11:53:03.157060 55786 net.cpp:406] scale4 <- conv4
I0109 11:53:03.157071 55786 net.cpp:367] scale4 -> conv4 (in-place)
I0109 11:53:03.157121 55786 layer_factory.hpp:77] Creating layer scale4
I0109 11:53:03.157238 55786 net.cpp:122] Setting up scale4
I0109 11:53:03.157254 55786 net.cpp:129] Top shape: 200 384 13 13 (12979200)
I0109 11:53:03.157263 55786 net.cpp:137] Memory required for data: 2100917600
I0109 11:53:03.157274 55786 layer_factory.hpp:77] Creating layer relu4
I0109 11:53:03.157289 55786 net.cpp:84] Creating Layer relu4
I0109 11:53:03.157297 55786 net.cpp:406] relu4 <- conv4
I0109 11:53:03.157308 55786 net.cpp:367] relu4 -> conv4 (in-place)
I0109 11:53:03.157320 55786 net.cpp:122] Setting up relu4
I0109 11:53:03.157330 55786 net.cpp:129] Top shape: 200 384 13 13 (12979200)
I0109 11:53:03.157340 55786 net.cpp:137] Memory required for data: 2152834400
I0109 11:53:03.157347 55786 layer_factory.hpp:77] Creating layer conv5
I0109 11:53:03.157364 55786 net.cpp:84] Creating Layer conv5
I0109 11:53:03.157373 55786 net.cpp:406] conv5 <- conv4
I0109 11:53:03.157385 55786 net.cpp:380] conv5 -> conv5
ydwu=======get:
bit_width=8;  round_method=1;  round_strategy=2;  is_runtime=0;  range_low=-0.278126;  range_high=0.264034
I0109 11:53:03.184577 55786 net.cpp:122] Setting up conv5
I0109 11:53:03.184608 55786 net.cpp:129] Top shape: 200 256 13 13 (8652800)
I0109 11:53:03.184618 55786 net.cpp:137] Memory required for data: 2187445600
I0109 11:53:03.184634 55786 layer_factory.hpp:77] Creating layer bn5
I0109 11:53:03.184653 55786 net.cpp:84] Creating Layer bn5
I0109 11:53:03.184664 55786 net.cpp:406] bn5 <- conv5
I0109 11:53:03.184679 55786 net.cpp:367] bn5 -> conv5 (in-place)
I0109 11:53:03.184859 55786 net.cpp:122] Setting up bn5
I0109 11:53:03.184875 55786 net.cpp:129] Top shape: 200 256 13 13 (8652800)
I0109 11:53:03.184885 55786 net.cpp:137] Memory required for data: 2222056800
I0109 11:53:03.184906 55786 layer_factory.hpp:77] Creating layer scale5
I0109 11:53:03.184921 55786 net.cpp:84] Creating Layer scale5
I0109 11:53:03.184931 55786 net.cpp:406] scale5 <- conv5
I0109 11:53:03.184942 55786 net.cpp:367] scale5 -> conv5 (in-place)
I0109 11:53:03.184998 55786 layer_factory.hpp:77] Creating layer scale5
I0109 11:53:03.185113 55786 net.cpp:122] Setting up scale5
I0109 11:53:03.185128 55786 net.cpp:129] Top shape: 200 256 13 13 (8652800)
I0109 11:53:03.185137 55786 net.cpp:137] Memory required for data: 2256668000
I0109 11:53:03.185149 55786 layer_factory.hpp:77] Creating layer relu5
I0109 11:53:03.185163 55786 net.cpp:84] Creating Layer relu5
I0109 11:53:03.185173 55786 net.cpp:406] relu5 <- conv5
I0109 11:53:03.185183 55786 net.cpp:367] relu5 -> conv5 (in-place)
I0109 11:53:03.185195 55786 net.cpp:122] Setting up relu5
I0109 11:53:03.185206 55786 net.cpp:129] Top shape: 200 256 13 13 (8652800)
I0109 11:53:03.185214 55786 net.cpp:137] Memory required for data: 2291279200
I0109 11:53:03.185223 55786 layer_factory.hpp:77] Creating layer pool5
I0109 11:53:03.185236 55786 net.cpp:84] Creating Layer pool5
I0109 11:53:03.185246 55786 net.cpp:406] pool5 <- conv5
I0109 11:53:03.185258 55786 net.cpp:380] pool5 -> pool5
I0109 11:53:03.185307 55786 net.cpp:122] Setting up pool5
I0109 11:53:03.185322 55786 net.cpp:129] Top shape: 200 256 6 6 (1843200)
I0109 11:53:03.185330 55786 net.cpp:137] Memory required for data: 2298652000
I0109 11:53:03.185339 55786 layer_factory.hpp:77] Creating layer fc6
I0109 11:53:03.185359 55786 net.cpp:84] Creating Layer fc6
I0109 11:53:03.185369 55786 net.cpp:406] fc6 <- pool5
I0109 11:53:03.185381 55786 net.cpp:380] fc6 -> fc6
I0109 11:53:03.185441 55786 quan_inner_product_layer.cpp:21] 4096   4096
ydwu=======get:
bit_width=8;  round_method=1;  round_strategy=2;  is_runtime=0;  range_low=-0.128049;  range_high=0.118451
I0109 11:53:04.315191 55786 net.cpp:122] Setting up fc6
I0109 11:53:04.315232 55786 net.cpp:129] Top shape: 200 4096 (819200)
I0109 11:53:04.315241 55786 net.cpp:137] Memory required for data: 2301928800
I0109 11:53:04.315259 55786 layer_factory.hpp:77] Creating layer bn6
I0109 11:53:04.315279 55786 net.cpp:84] Creating Layer bn6
I0109 11:53:04.315290 55786 net.cpp:406] bn6 <- fc6
I0109 11:53:04.315305 55786 net.cpp:367] bn6 -> fc6 (in-place)
I0109 11:53:04.315492 55786 net.cpp:122] Setting up bn6
I0109 11:53:04.315510 55786 net.cpp:129] Top shape: 200 4096 (819200)
I0109 11:53:04.315517 55786 net.cpp:137] Memory required for data: 2305205600
I0109 11:53:04.315531 55786 layer_factory.hpp:77] Creating layer scale6
I0109 11:53:04.315546 55786 net.cpp:84] Creating Layer scale6
I0109 11:53:04.315557 55786 net.cpp:406] scale6 <- fc6
I0109 11:53:04.315567 55786 net.cpp:367] scale6 -> fc6 (in-place)
I0109 11:53:04.315619 55786 layer_factory.hpp:77] Creating layer scale6
I0109 11:53:04.315745 55786 net.cpp:122] Setting up scale6
I0109 11:53:04.315762 55786 net.cpp:129] Top shape: 200 4096 (819200)
I0109 11:53:04.315770 55786 net.cpp:137] Memory required for data: 2308482400
I0109 11:53:04.315783 55786 layer_factory.hpp:77] Creating layer relu6
I0109 11:53:04.315796 55786 net.cpp:84] Creating Layer relu6
I0109 11:53:04.315805 55786 net.cpp:406] relu6 <- fc6
I0109 11:53:04.315816 55786 net.cpp:367] relu6 -> fc6 (in-place)
I0109 11:53:04.315829 55786 net.cpp:122] Setting up relu6
I0109 11:53:04.315840 55786 net.cpp:129] Top shape: 200 4096 (819200)
I0109 11:53:04.315847 55786 net.cpp:137] Memory required for data: 2311759200
I0109 11:53:04.315856 55786 layer_factory.hpp:77] Creating layer drop6
I0109 11:53:04.315876 55786 net.cpp:84] Creating Layer drop6
I0109 11:53:04.315886 55786 net.cpp:406] drop6 <- fc6
I0109 11:53:04.315897 55786 net.cpp:367] drop6 -> fc6 (in-place)
I0109 11:53:04.315938 55786 net.cpp:122] Setting up drop6
I0109 11:53:04.315953 55786 net.cpp:129] Top shape: 200 4096 (819200)
I0109 11:53:04.315963 55786 net.cpp:137] Memory required for data: 2315036000
I0109 11:53:04.315971 55786 layer_factory.hpp:77] Creating layer fc7
I0109 11:53:04.315986 55786 net.cpp:84] Creating Layer fc7
I0109 11:53:04.315996 55786 net.cpp:406] fc7 <- fc6
I0109 11:53:04.316009 55786 net.cpp:380] fc7 -> fc7
I0109 11:53:04.316023 55786 quan_inner_product_layer.cpp:21] 4096   4096
ydwu=======get:
bit_width=8;  round_method=1;  round_strategy=2;  is_runtime=0;  range_low=-0.130109;  range_high=0.158147
I0109 11:53:04.822281 55786 net.cpp:122] Setting up fc7
I0109 11:53:04.822320 55786 net.cpp:129] Top shape: 200 4096 (819200)
I0109 11:53:04.822330 55786 net.cpp:137] Memory required for data: 2318312800
I0109 11:53:04.822347 55786 layer_factory.hpp:77] Creating layer bn7
I0109 11:53:04.822366 55786 net.cpp:84] Creating Layer bn7
I0109 11:53:04.822377 55786 net.cpp:406] bn7 <- fc7
I0109 11:53:04.822391 55786 net.cpp:367] bn7 -> fc7 (in-place)
I0109 11:53:04.822579 55786 net.cpp:122] Setting up bn7
I0109 11:53:04.822595 55786 net.cpp:129] Top shape: 200 4096 (819200)
I0109 11:53:04.822604 55786 net.cpp:137] Memory required for data: 2321589600
I0109 11:53:04.822618 55786 layer_factory.hpp:77] Creating layer scale7
I0109 11:53:04.822638 55786 net.cpp:84] Creating Layer scale7
I0109 11:53:04.822649 55786 net.cpp:406] scale7 <- fc7
I0109 11:53:04.822659 55786 net.cpp:367] scale7 -> fc7 (in-place)
I0109 11:53:04.822710 55786 layer_factory.hpp:77] Creating layer scale7
I0109 11:53:04.822836 55786 net.cpp:122] Setting up scale7
I0109 11:53:04.822852 55786 net.cpp:129] Top shape: 200 4096 (819200)
I0109 11:53:04.822860 55786 net.cpp:137] Memory required for data: 2324866400
I0109 11:53:04.822872 55786 layer_factory.hpp:77] Creating layer relu7
I0109 11:53:04.822886 55786 net.cpp:84] Creating Layer relu7
I0109 11:53:04.822896 55786 net.cpp:406] relu7 <- fc7
I0109 11:53:04.822906 55786 net.cpp:367] relu7 -> fc7 (in-place)
I0109 11:53:04.822918 55786 net.cpp:122] Setting up relu7
I0109 11:53:04.822929 55786 net.cpp:129] Top shape: 200 4096 (819200)
I0109 11:53:04.822937 55786 net.cpp:137] Memory required for data: 2328143200
I0109 11:53:04.822993 55786 layer_factory.hpp:77] Creating layer drop7
I0109 11:53:04.823009 55786 net.cpp:84] Creating Layer drop7
I0109 11:53:04.823019 55786 net.cpp:406] drop7 <- fc7
I0109 11:53:04.823030 55786 net.cpp:367] drop7 -> fc7 (in-place)
I0109 11:53:04.823063 55786 net.cpp:122] Setting up drop7
I0109 11:53:04.823078 55786 net.cpp:129] Top shape: 200 4096 (819200)
I0109 11:53:04.823087 55786 net.cpp:137] Memory required for data: 2331420000
I0109 11:53:04.823096 55786 layer_factory.hpp:77] Creating layer fc8
I0109 11:53:04.823112 55786 net.cpp:84] Creating Layer fc8
I0109 11:53:04.823120 55786 net.cpp:406] fc8 <- fc7
I0109 11:53:04.823132 55786 net.cpp:380] fc8 -> fc8
I0109 11:53:04.823146 55786 quan_inner_product_layer.cpp:21] 1000   1000
ydwu=======get:
bit_width=8;  round_method=1;  round_strategy=2;  is_runtime=0;  range_low=-0.113486;  range_high=0.219399
I0109 11:53:04.946632 55786 net.cpp:122] Setting up fc8
I0109 11:53:04.946674 55786 net.cpp:129] Top shape: 200 1000 (200000)
I0109 11:53:04.946684 55786 net.cpp:137] Memory required for data: 2332220000
I0109 11:53:04.946702 55786 layer_factory.hpp:77] Creating layer fc8_fc8_0_split
I0109 11:53:04.946720 55786 net.cpp:84] Creating Layer fc8_fc8_0_split
I0109 11:53:04.946732 55786 net.cpp:406] fc8_fc8_0_split <- fc8
I0109 11:53:04.946746 55786 net.cpp:380] fc8_fc8_0_split -> fc8_fc8_0_split_0
I0109 11:53:04.946765 55786 net.cpp:380] fc8_fc8_0_split -> fc8_fc8_0_split_1
I0109 11:53:04.946820 55786 net.cpp:122] Setting up fc8_fc8_0_split
I0109 11:53:04.946835 55786 net.cpp:129] Top shape: 200 1000 (200000)
I0109 11:53:04.946846 55786 net.cpp:129] Top shape: 200 1000 (200000)
I0109 11:53:04.946856 55786 net.cpp:137] Memory required for data: 2333820000
I0109 11:53:04.946864 55786 layer_factory.hpp:77] Creating layer accuracy_5_TRAIN
I0109 11:53:04.946888 55786 net.cpp:84] Creating Layer accuracy_5_TRAIN
I0109 11:53:04.946898 55786 net.cpp:406] accuracy_5_TRAIN <- fc8_fc8_0_split_0
I0109 11:53:04.946908 55786 net.cpp:406] accuracy_5_TRAIN <- label_data_1_split_0
…
I0109 11:53:04.949934 55786 net.cpp:294] The NetState phase (1) differed from the phase (0) specified by a rule in layer accuracy_5_TRAIN
I0109 11:53:04.950175 55786 net.cpp:51] Initializing net from parameters: 
name: "AlexNet-BN"
state {
  phase: TEST
}
layer {
  name: "data"
  type: "Data"
  top: "data"
  top: "label"
  include {
    phase: TEST
  }
  transform_param {
    mirror: false
    crop_size: 224
    mean_value: 103.939
    mean_value: 116.779
    mean_value: 123.68
  }
  data_param {
    source: "/home/ydwu/database/imagenet/ilsvrc12/lmdb_resize/ilsvrc12_val_lmdb"
    batch_size: 200
    backend: LMDB
  }
}
layer {
  name: "conv1"
  type: "QuanConvolution"
  bottom: "data"
  top: "conv1"
  param {
    lr_mult: 1
    decay_mult: 1
  }
  param {
    lr_mult: 2
    decay_mult: 0
  }
  quan_convolution_param {
    num_output: 96
    pad: 2
    kernel_size: 11
    stride: 4
    weight_filler {
      type: "gaussian"
      std: 0.01
    }
    bias_filler {
      type: "constant"
      value: 0
    }
    bit_width: 8
    range_low: -0.69767118
    range_high: 0.74162
  }
}
layer {
  name: "bn1"
  type: "BatchNorm"
  bottom: "conv1"
  top: "conv1"
}
layer {
  name: "scale1"
  type: "Scale"
  bottom: "conv1"
  top: "conv1"
  scale_param {
    bias_term: true
  }
}
layer {
  name: "relu1"
  type: "ReLU"
  bottom: "conv1"
  top: "conv1"
}
layer {
  name: "pool1"
  type: "Pooling"
  bottom: "conv1"
  top: "pool1"
  pooling_param {
    pool: MAX
    kernel_size: 3
    stride: 2
  }
}
layer {
  name: "conv2"
  type: "QuanConvolution"
  bottom: "pool1"
  top: "conv2"
  param {
    lr_mult: 1
    decay_mult: 1
  }
  param {
    lr_mult: 2
    decay_mult: 0
  }
  quan_convolution_param {
    num_output: 256
    pad: 2
    kernel_size: 5
    weight_filler {
      type: "gaussian"
      std: 0.01
    }
    bias_filler {
      type: "constant"
      value: 0.1
    }
    bit_width: 8
    range_low: -0.64481437
    range_high: 1.21456
  }
}
layer {
  name: "bn2"
  type: "BatchNorm"
  bottom: "conv2"
  top: "conv2"
}
layer {
  name: "scale2"
  type: "Scale"
  bottom: "conv2"
  top: "conv2"
  scale_param {
    bias_term: true
  }
}
layer {
  name: "relu2"
  type: "ReLU"
  bottom: "conv2"
  top: "conv2"
}
layer {
  name: "pool2"
  type: "Pooling"
  bottom: "conv2"
  top: "pool2"
  pooling_param {
    pool: MAX
    kernel_size: 3
    stride: 2
  }
}
layer {
  name: "conv3"
  type: "QuanConvolution"
  bottom: "pool2"
  top: "conv3"
  param {
    lr_mult: 1
    decay_mult: 1
  }
  param {
    lr_mult: 2
    decay_mult: 0
  }
  quan_convolution_param {
    num_output: 384
    pad: 1
    kernel_size: 3
    weight_filler {
      type: "gaussian"
      std: 0.01
    }
    bias_filler {
      type: "constant"
      value: 0
    }
    bit_width: 8
    range_low: -0.49748641
    range_high: 0.5390864
  }
}
layer {
  name: "bn3"
  type: "BatchNorm"
  bottom: "conv3"
  top: "conv3"
}
layer {
  name: "scale3"
  type: "Scale"
  bottom: "conv3"
  top: "conv3"
  scale_param {
    bias_term: true
  }
}
layer {
  name: "relu3"
  type: "ReLU"
  bottom: "conv3"
  top: "conv3"
}
layer {
  name: "conv4"
  type: "QuanConvolution"
  bottom: "conv3"
  top: "conv4"
  param {
    lr_mult: 1
    decay_mult: 1
  }
  param {
    lr_mult: 2
    decay_mult: 0
  }
  quan_convolution_param {
    num_output: 384
    pad: 1
    kernel_size: 3
    weight_filler {
      type: "gaussian"
      std: 0.01
    }
    bias_filler {
      type: "constant"
      value: 0.1
    }
    bit_width: 8
    range_low: -0.3013072
    range_high: 0.27346319
  }
}
layer {
  name: "bn4"
  type: "BatchNorm"
  bottom: "conv4"
  top: "conv4"
}
layer {
  name: "scale4"
  type: "Scale"
  bottom: "conv4"
  top: "conv4"
  scale_param {
    bias_term: true
  }
}
layer {
  name: "relu4"
  type: "ReLU"
  bottom: "conv4"
  top: "conv4"
}
layer {
  name: "conv5"
  type: "QuanConvolution"
  bottom: "conv4"
  top: "conv5"
  param {
    lr_mult: 1
    decay_mult: 1
  }
  param {
    lr_mult: 2
    decay_mult: 0
  }
  quan_convolution_param {
    num_output: 256
    pad: 1
    kernel_size: 3
    weight_filler {
      type: "gaussian"
      std: 0.01
    }
    bias_filler {
      type: "constant"
      value: 0.1
    }
    bit_width: 8
    range_low: -0.27812639
    range_high: 0.26403359
  }
}
layer {
  name: "bn5"
  type: "BatchNorm"
  bottom: "conv5"
  top: "conv5"
}
layer {
  name: "scale5"
  type: "Scale"
  bottom: "conv5"
  top: "conv5"
  scale_param {
    bias_term: true
  }
}
layer {
  name: "relu5"
  type: "ReLU"
  bottom: "conv5"
  top: "conv5"
}
layer {
  name: "pool5"
  type: "Pooling"
  bottom: "conv5"
  top: "pool5"
  pooling_param {
    pool: MAX
    kernel_size: 3
    stride: 2
  }
}
layer {
  name: "fc6"
  type: "QuanInnerProduct"
  bottom: "pool5"
  top: "fc6"
  param {
    lr_mult: 1
    decay_mult: 1
  }
  param {
    lr_mult: 2
    decay_mult: 0
  }
  quan_inner_product_param {
    num_output: 4096
    weight_filler {
      type: "gaussian"
      std: 0.005
    }
    bias_filler {
      type: "constant"
      value: 0.1
    }
    bit_width: 8
    range_low: -0.12804881
    range_high: 0.1184512
  }
}
layer {
  name: "bn6"
  type: "BatchNorm"
  bottom: "fc6"
  top: "fc6"
}
layer {
  name: "scale6"
  type: "Scale"
  bottom: "fc6"
  top: "fc6"
  scale_param {
    bias_term: true
  }
}
layer {
  name: "relu6"
  type: "ReLU"
  bottom: "fc6"
  top: "fc6"
}
layer {
  name: "drop6"
  type: "Dropout"
  bottom: "fc6"
  top: "fc6"
  dropout_param {
    dropout_ratio: 0.5
  }
}
layer {
  name: "fc7"
  type: "QuanInnerProduct"
  bottom: "fc6"
  top: "fc7"
  param {
    lr_mult: 1
    decay_mult: 1
  }
  param {
    lr_mult: 2
    decay_mult: 0
  }
  quan_inner_product_param {
    num_output: 4096
    weight_filler {
      type: "gaussian"
      std: 0.005
    }
    bias_filler {
      type: "constant"
      value: 0.1
    }
    bit_width: 8
    range_low: -0.1301088
    range_high: 0.1581472
  }
}
layer {
  name: "bn7"
  type: "BatchNorm"
  bottom: "fc7"
  top: "fc7"
}
layer {
  name: "scale7"
  type: "Scale"
  bottom: "fc7"
  top: "fc7"
  scale_param {
    bias_term: true
  }
}
layer {
  name: "relu7"
  type: "ReLU"
  bottom: "fc7"
  top: "fc7"
}
layer {
  name: "drop7"
  type: "Dropout"
  bottom: "fc7"
  top: "fc7"
  dropout_param {
    dropout_ratio: 0.5
  }
}
layer {
  name: "fc8"
  type: "QuanInnerProduct"
  bottom: "fc7"
  top: "fc8"
  param {
    lr_mult: 1
    decay_mult: 1
  }
  param {
    lr_mult: 2
    decay_mult: 0
  }
  quan_inner_product_param {
    num_output: 1000
    weight_filler {
      type: "gaussian"
      std: 0.01
    }
    bias_filler {
      type: "constant"
      value: 0
    }
    bit_width: 8
    range_low: -0.1134856
    range_high: 0.2193992
  }
}
layer {
  name: "accuracy"
  type: "Accuracy"
  bottom: "fc8"
  bottom: "label"
  top: "accuracy"
  include {
    phase: TEST
  }
}
layer {
  name: "accuracy_5"
  type: "Accuracy"
  bottom: "fc8"
  bottom: "label"
  top: "accuracy_5"
  include {
    phase: TEST
  }
  accuracy_param {
    top_k: 5
  }
}
layer {
  name: "loss"
  type: "SoftmaxWithLoss"
  bottom: "fc8"
  bottom: "label"
  top: "loss"
}
I0109 11:53:04.950367 55786 layer_factory.hpp:77] Creating layer data
I0109 11:53:04.950453 55786 db_lmdb.cpp:35] Opened lmdb /home/ydwu/database/imagenet/ilsvrc12/lmdb_resize/ilsvrc12_val_lmdb
I0109 11:53:04.950495 55786 net.cpp:84] Creating Layer data
I0109 11:53:04.950510 55786 net.cpp:380] data -> data
I0109 11:53:04.950527 55786 net.cpp:380] data -> label
I0109 11:53:04.950815 55786 data_layer.cpp:45] output data size: 200,3,224,224
I0109 11:53:05.296167 55786 net.cpp:122] Setting up data
I0109 11:53:05.296275 55786 net.cpp:129] Top shape: 200 3 224 224 (30105600)
I0109 11:53:05.296289 55786 net.cpp:129] Top shape: 200 (200)
I0109 11:53:05.296298 55786 net.cpp:137] Memory required for data: 120423200
I0109 11:53:05.296313 55786 layer_factory.hpp:77] Creating layer label_data_1_split
I0109 11:53:05.296335 55786 net.cpp:84] Creating Layer label_data_1_split
I0109 11:53:05.296347 55786 net.cpp:406] label_data_1_split <- label
I0109 11:53:05.296361 55786 net.cpp:380] label_data_1_split -> label_data_1_split_0
I0109 11:53:05.296380 55786 net.cpp:380] label_data_1_split -> label_data_1_split_1
I0109 11:53:05.296393 55786 net.cpp:380] label_data_1_split -> label_data_1_split_2
I0109 11:53:05.296468 55786 net.cpp:122] Setting up label_data_1_split
I0109 11:53:05.296484 55786 net.cpp:129] Top shape: 200 (200)
I0109 11:53:05.296494 55786 net.cpp:129] Top shape: 200 (200)
I0109 11:53:05.296504 55786 net.cpp:129] Top shape: 200 (200)
I0109 11:53:05.296512 55786 net.cpp:137] Memory required for data: 120425600
I0109 11:53:05.296521 55786 layer_factory.hpp:77] Creating layer conv1
I0109 11:53:05.296543 55786 net.cpp:84] Creating Layer conv1
I0109 11:53:05.296553 55786 net.cpp:406] conv1 <- data
I0109 11:53:05.296567 55786 net.cpp:380] conv1 -> conv1
ydwu=======get:
bit_width=8;  round_method=1;  round_strategy=2;  is_runtime=0;  range_low=-0.697671;  range_high=0.74162
I0109 11:53:05.320013 55786 net.cpp:122] Setting up conv1
I0109 11:53:05.320044 55786 net.cpp:129] Top shape: 200 96 55 55 (58080000)
I0109 11:53:05.320055 55786 net.cpp:137] Memory required for data: 352745600
I0109 11:53:05.320075 55786 layer_factory.hpp:77] Creating layer bn1
I0109 11:53:05.320096 55786 net.cpp:84] Creating Layer bn1
I0109 11:53:05.320106 55786 net.cpp:406] bn1 <- conv1
I0109 11:53:05.320121 55786 net.cpp:367] bn1 -> conv1 (in-place)
I0109 11:53:05.320348 55786 net.cpp:122] Setting up bn1
I0109 11:53:05.320365 55786 net.cpp:129] Top shape: 200 96 55 55 (58080000)
I0109 11:53:05.320374 55786 net.cpp:137] Memory required for data: 585065600
I0109 11:53:05.320390 55786 layer_factory.hpp:77] Creating layer scale1
I0109 11:53:05.320408 55786 net.cpp:84] Creating Layer scale1
I0109 11:53:05.320417 55786 net.cpp:406] scale1 <- conv1
I0109 11:53:05.320430 55786 net.cpp:367] scale1 -> conv1 (in-place)
I0109 11:53:05.320488 55786 layer_factory.hpp:77] Creating layer scale1
I0109 11:53:05.320633 55786 net.cpp:122] Setting up scale1
I0109 11:53:05.320650 55786 net.cpp:129] Top shape: 200 96 55 55 (58080000)
I0109 11:53:05.320659 55786 net.cpp:137] Memory required for data: 817385600
I0109 11:53:05.320713 55786 layer_factory.hpp:77] Creating layer relu1
I0109 11:53:05.320729 55786 net.cpp:84] Creating Layer relu1
I0109 11:53:05.320737 55786 net.cpp:406] relu1 <- conv1
I0109 11:53:05.320749 55786 net.cpp:367] relu1 -> conv1 (in-place)
I0109 11:53:05.320761 55786 net.cpp:122] Setting up relu1
I0109 11:53:05.320772 55786 net.cpp:129] Top shape: 200 96 55 55 (58080000)
I0109 11:53:05.320781 55786 net.cpp:137] Memory required for data: 1049705600
I0109 11:53:05.320791 55786 layer_factory.hpp:77] Creating layer pool1
I0109 11:53:05.320802 55786 net.cpp:84] Creating Layer pool1
I0109 11:53:05.320812 55786 net.cpp:406] pool1 <- conv1
I0109 11:53:05.320823 55786 net.cpp:380] pool1 -> pool1
I0109 11:53:05.320874 55786 net.cpp:122] Setting up pool1
I0109 11:53:05.320890 55786 net.cpp:129] Top shape: 200 96 27 27 (13996800)
I0109 11:53:05.320899 55786 net.cpp:137] Memory required for data: 1105692800
I0109 11:53:05.320909 55786 layer_factory.hpp:77] Creating layer conv2
I0109 11:53:05.320926 55786 net.cpp:84] Creating Layer conv2
I0109 11:53:05.320936 55786 net.cpp:406] conv2 <- pool1
I0109 11:53:05.320948 55786 net.cpp:380] conv2 -> conv2
ydwu=======get:
bit_width=8;  round_method=1;  round_strategy=2;  is_runtime=0;  range_low=-0.644814;  range_high=1.21456
I0109 11:53:05.340247 55786 net.cpp:122] Setting up conv2
I0109 11:53:05.340281 55786 net.cpp:129] Top shape: 200 256 27 27 (37324800)
I0109 11:53:05.340291 55786 net.cpp:137] Memory required for data: 1254992000
I0109 11:53:05.340312 55786 layer_factory.hpp:77] Creating layer bn2
I0109 11:53:05.340334 55786 net.cpp:84] Creating Layer bn2
I0109 11:53:05.340346 55786 net.cpp:406] bn2 <- conv2
I0109 11:53:05.340360 55786 net.cpp:367] bn2 -> conv2 (in-place)
I0109 11:53:05.340570 55786 net.cpp:122] Setting up bn2
I0109 11:53:05.340589 55786 net.cpp:129] Top shape: 200 256 27 27 (37324800)
I0109 11:53:05.340597 55786 net.cpp:137] Memory required for data: 1404291200
I0109 11:53:05.340611 55786 layer_factory.hpp:77] Creating layer scale2
I0109 11:53:05.340626 55786 net.cpp:84] Creating Layer scale2
I0109 11:53:05.340636 55786 net.cpp:406] scale2 <- conv2
I0109 11:53:05.340648 55786 net.cpp:367] scale2 -> conv2 (in-place)
I0109 11:53:05.340706 55786 layer_factory.hpp:77] Creating layer scale2
I0109 11:53:05.340837 55786 net.cpp:122] Setting up scale2
I0109 11:53:05.340852 55786 net.cpp:129] Top shape: 200 256 27 27 (37324800)
I0109 11:53:05.340862 55786 net.cpp:137] Memory required for data: 1553590400
I0109 11:53:05.340874 55786 layer_factory.hpp:77] Creating layer relu2
I0109 11:53:05.340888 55786 net.cpp:84] Creating Layer relu2
I0109 11:53:05.340896 55786 net.cpp:406] relu2 <- conv2
I0109 11:53:05.340908 55786 net.cpp:367] relu2 -> conv2 (in-place)
I0109 11:53:05.340919 55786 net.cpp:122] Setting up relu2
I0109 11:53:05.340930 55786 net.cpp:129] Top shape: 200 256 27 27 (37324800)
I0109 11:53:05.340939 55786 net.cpp:137] Memory required for data: 1702889600
I0109 11:53:05.340947 55786 layer_factory.hpp:77] Creating layer pool2
I0109 11:53:05.340960 55786 net.cpp:84] Creating Layer pool2
I0109 11:53:05.340970 55786 net.cpp:406] pool2 <- conv2
I0109 11:53:05.340983 55786 net.cpp:380] pool2 -> pool2
I0109 11:53:05.341034 55786 net.cpp:122] Setting up pool2
I0109 11:53:05.341051 55786 net.cpp:129] Top shape: 200 256 13 13 (8652800)
I0109 11:53:05.341060 55786 net.cpp:137] Memory required for data: 1737500800
I0109 11:53:05.341069 55786 layer_factory.hpp:77] Creating layer conv3
I0109 11:53:05.341087 55786 net.cpp:84] Creating Layer conv3
I0109 11:53:05.341099 55786 net.cpp:406] conv3 <- pool2
I0109 11:53:05.341110 55786 net.cpp:380] conv3 -> conv3
ydwu=======get:
bit_width=8;  round_method=1;  round_strategy=2;  is_runtime=0;  range_low=-0.497486;  range_high=0.539086
I0109 11:53:05.368762 55786 net.cpp:122] Setting up conv3
I0109 11:53:05.368795 55786 net.cpp:129] Top shape: 200 384 13 13 (12979200)
I0109 11:53:05.368804 55786 net.cpp:137] Memory required for data: 1789417600
I0109 11:53:05.368820 55786 layer_factory.hpp:77] Creating layer bn3
I0109 11:53:05.368841 55786 net.cpp:84] Creating Layer bn3
I0109 11:53:05.368854 55786 net.cpp:406] bn3 <- conv3
I0109 11:53:05.368868 55786 net.cpp:367] bn3 -> conv3 (in-place)
I0109 11:53:05.369074 55786 net.cpp:122] Setting up bn3
I0109 11:53:05.369133 55786 net.cpp:129] Top shape: 200 384 13 13 (12979200)
I0109 11:53:05.369144 55786 net.cpp:137] Memory required for data: 1841334400
I0109 11:53:05.369164 55786 layer_factory.hpp:77] Creating layer scale3
I0109 11:53:05.369180 55786 net.cpp:84] Creating Layer scale3
I0109 11:53:05.369189 55786 net.cpp:406] scale3 <- conv3
I0109 11:53:05.369201 55786 net.cpp:367] scale3 -> conv3 (in-place)
I0109 11:53:05.369256 55786 layer_factory.hpp:77] Creating layer scale3
I0109 11:53:05.369388 55786 net.cpp:122] Setting up scale3
I0109 11:53:05.369405 55786 net.cpp:129] Top shape: 200 384 13 13 (12979200)
I0109 11:53:05.369413 55786 net.cpp:137] Memory required for data: 1893251200
I0109 11:53:05.369426 55786 layer_factory.hpp:77] Creating layer relu3
I0109 11:53:05.369438 55786 net.cpp:84] Creating Layer relu3
I0109 11:53:05.369447 55786 net.cpp:406] relu3 <- conv3
I0109 11:53:05.369458 55786 net.cpp:367] relu3 -> conv3 (in-place)
I0109 11:53:05.369491 55786 net.cpp:122] Setting up relu3
I0109 11:53:05.369503 55786 net.cpp:129] Top shape: 200 384 13 13 (12979200)
I0109 11:53:05.369511 55786 net.cpp:137] Memory required for data: 1945168000
I0109 11:53:05.369519 55786 layer_factory.hpp:77] Creating layer conv4
I0109 11:53:05.369540 55786 net.cpp:84] Creating Layer conv4
I0109 11:53:05.369550 55786 net.cpp:406] conv4 <- conv3
I0109 11:53:05.369562 55786 net.cpp:380] conv4 -> conv4
ydwu=======get:
bit_width=8;  round_method=1;  round_strategy=2;  is_runtime=0;  range_low=-0.301307;  range_high=0.273463
I0109 11:53:05.410631 55786 net.cpp:122] Setting up conv4
I0109 11:53:05.410663 55786 net.cpp:129] Top shape: 200 384 13 13 (12979200)
I0109 11:53:05.410673 55786 net.cpp:137] Memory required for data: 1997084800
I0109 11:53:05.410689 55786 layer_factory.hpp:77] Creating layer bn4
I0109 11:53:05.410709 55786 net.cpp:84] Creating Layer bn4
I0109 11:53:05.410720 55786 net.cpp:406] bn4 <- conv4
I0109 11:53:05.410735 55786 net.cpp:367] bn4 -> conv4 (in-place)
I0109 11:53:05.410939 55786 net.cpp:122] Setting up bn4
I0109 11:53:05.410961 55786 net.cpp:129] Top shape: 200 384 13 13 (12979200)
I0109 11:53:05.410971 55786 net.cpp:137] Memory required for data: 2049001600
I0109 11:53:05.410985 55786 layer_factory.hpp:77] Creating layer scale4
I0109 11:53:05.411000 55786 net.cpp:84] Creating Layer scale4
I0109 11:53:05.411010 55786 net.cpp:406] scale4 <- conv4
I0109 11:53:05.411022 55786 net.cpp:367] scale4 -> conv4 (in-place)
I0109 11:53:05.411078 55786 layer_factory.hpp:77] Creating layer scale4
I0109 11:53:05.411211 55786 net.cpp:122] Setting up scale4
I0109 11:53:05.411227 55786 net.cpp:129] Top shape: 200 384 13 13 (12979200)
I0109 11:53:05.411237 55786 net.cpp:137] Memory required for data: 2100918400
I0109 11:53:05.411248 55786 layer_factory.hpp:77] Creating layer relu4
I0109 11:53:05.411262 55786 net.cpp:84] Creating Layer relu4
I0109 11:53:05.411270 55786 net.cpp:406] relu4 <- conv4
I0109 11:53:05.411281 55786 net.cpp:367] relu4 -> conv4 (in-place)
I0109 11:53:05.411293 55786 net.cpp:122] Setting up relu4
I0109 11:53:05.411304 55786 net.cpp:129] Top shape: 200 384 13 13 (12979200)
I0109 11:53:05.411312 55786 net.cpp:137] Memory required for data: 2152835200
I0109 11:53:05.411321 55786 layer_factory.hpp:77] Creating layer conv5
I0109 11:53:05.411339 55786 net.cpp:84] Creating Layer conv5
I0109 11:53:05.411350 55786 net.cpp:406] conv5 <- conv4
I0109 11:53:05.411361 55786 net.cpp:380] conv5 -> conv5
ydwu=======get:
bit_width=8;  round_method=1;  round_strategy=2;  is_runtime=0;  range_low=-0.278126;  range_high=0.264034
I0109 11:53:05.438735 55786 net.cpp:122] Setting up conv5
I0109 11:53:05.438765 55786 net.cpp:129] Top shape: 200 256 13 13 (8652800)
I0109 11:53:05.438774 55786 net.cpp:137] Memory required for data: 2187446400
I0109 11:53:05.438789 55786 layer_factory.hpp:77] Creating layer bn5
I0109 11:53:05.438809 55786 net.cpp:84] Creating Layer bn5
I0109 11:53:05.438820 55786 net.cpp:406] bn5 <- conv5
I0109 11:53:05.438834 55786 net.cpp:367] bn5 -> conv5 (in-place)
I0109 11:53:05.439049 55786 net.cpp:122] Setting up bn5
I0109 11:53:05.439066 55786 net.cpp:129] Top shape: 200 256 13 13 (8652800)
I0109 11:53:05.439075 55786 net.cpp:137] Memory required for data: 2222057600
I0109 11:53:05.439097 55786 layer_factory.hpp:77] Creating layer scale5
I0109 11:53:05.439154 55786 net.cpp:84] Creating Layer scale5
I0109 11:53:05.439165 55786 net.cpp:406] scale5 <- conv5
I0109 11:53:05.439177 55786 net.cpp:367] scale5 -> conv5 (in-place)
I0109 11:53:05.439237 55786 layer_factory.hpp:77] Creating layer scale5
I0109 11:53:05.439363 55786 net.cpp:122] Setting up scale5
I0109 11:53:05.439379 55786 net.cpp:129] Top shape: 200 256 13 13 (8652800)
I0109 11:53:05.439388 55786 net.cpp:137] Memory required for data: 2256668800
I0109 11:53:05.439400 55786 layer_factory.hpp:77] Creating layer relu5
I0109 11:53:05.439414 55786 net.cpp:84] Creating Layer relu5
I0109 11:53:05.439424 55786 net.cpp:406] relu5 <- conv5
I0109 11:53:05.439435 55786 net.cpp:367] relu5 -> conv5 (in-place)
I0109 11:53:05.439446 55786 net.cpp:122] Setting up relu5
I0109 11:53:05.439457 55786 net.cpp:129] Top shape: 200 256 13 13 (8652800)
I0109 11:53:05.439465 55786 net.cpp:137] Memory required for data: 2291280000
I0109 11:53:05.439474 55786 layer_factory.hpp:77] Creating layer pool5
I0109 11:53:05.439487 55786 net.cpp:84] Creating Layer pool5
I0109 11:53:05.439496 55786 net.cpp:406] pool5 <- conv5
I0109 11:53:05.439508 55786 net.cpp:380] pool5 -> pool5
I0109 11:53:05.439558 55786 net.cpp:122] Setting up pool5
I0109 11:53:05.439573 55786 net.cpp:129] Top shape: 200 256 6 6 (1843200)
I0109 11:53:05.439581 55786 net.cpp:137] Memory required for data: 2298652800
I0109 11:53:05.439590 55786 layer_factory.hpp:77] Creating layer fc6
I0109 11:53:05.439605 55786 net.cpp:84] Creating Layer fc6
I0109 11:53:05.439615 55786 net.cpp:406] fc6 <- pool5
I0109 11:53:05.439627 55786 net.cpp:380] fc6 -> fc6
I0109 11:53:05.439640 55786 quan_inner_product_layer.cpp:21] 4096   4096
ydwu=======get:
bit_width=8;  round_method=1;  round_strategy=2;  is_runtime=0;  range_low=-0.128049;  range_high=0.118451
I0109 11:53:06.562232 55786 net.cpp:122] Setting up fc6
I0109 11:53:06.562273 55786 net.cpp:129] Top shape: 200 4096 (819200)
I0109 11:53:06.562283 55786 net.cpp:137] Memory required for data: 2301929600
I0109 11:53:06.562299 55786 layer_factory.hpp:77] Creating layer bn6
I0109 11:53:06.562319 55786 net.cpp:84] Creating Layer bn6
I0109 11:53:06.562330 55786 net.cpp:406] bn6 <- fc6
I0109 11:53:06.562345 55786 net.cpp:367] bn6 -> fc6 (in-place)
I0109 11:53:06.562557 55786 net.cpp:122] Setting up bn6
I0109 11:53:06.562573 55786 net.cpp:129] Top shape: 200 4096 (819200)
I0109 11:53:06.562582 55786 net.cpp:137] Memory required for data: 2305206400
I0109 11:53:06.562594 55786 layer_factory.hpp:77] Creating layer scale6
I0109 11:53:06.562609 55786 net.cpp:84] Creating Layer scale6
I0109 11:53:06.562618 55786 net.cpp:406] scale6 <- fc6
I0109 11:53:06.562628 55786 net.cpp:367] scale6 -> fc6 (in-place)
I0109 11:53:06.562680 55786 layer_factory.hpp:77] Creating layer scale6
I0109 11:53:06.562813 55786 net.cpp:122] Setting up scale6
I0109 11:53:06.562829 55786 net.cpp:129] Top shape: 200 4096 (819200)
I0109 11:53:06.562836 55786 net.cpp:137] Memory required for data: 2308483200
I0109 11:53:06.562849 55786 layer_factory.hpp:77] Creating layer relu6
I0109 11:53:06.562861 55786 net.cpp:84] Creating Layer relu6
I0109 11:53:06.562870 55786 net.cpp:406] relu6 <- fc6
I0109 11:53:06.562881 55786 net.cpp:367] relu6 -> fc6 (in-place)
I0109 11:53:06.562892 55786 net.cpp:122] Setting up relu6
I0109 11:53:06.562903 55786 net.cpp:129] Top shape: 200 4096 (819200)
I0109 11:53:06.562911 55786 net.cpp:137] Memory required for data: 2311760000
I0109 11:53:06.562921 55786 layer_factory.hpp:77] Creating layer drop6
I0109 11:53:06.562932 55786 net.cpp:84] Creating Layer drop6
I0109 11:53:06.562942 55786 net.cpp:406] drop6 <- fc6
I0109 11:53:06.562952 55786 net.cpp:367] drop6 -> fc6 (in-place)
I0109 11:53:06.563045 55786 net.cpp:122] Setting up drop6
I0109 11:53:06.563060 55786 net.cpp:129] Top shape: 200 4096 (819200)
I0109 11:53:06.563068 55786 net.cpp:137] Memory required for data: 2315036800
I0109 11:53:06.563077 55786 layer_factory.hpp:77] Creating layer fc7
I0109 11:53:06.563093 55786 net.cpp:84] Creating Layer fc7
I0109 11:53:06.563102 55786 net.cpp:406] fc7 <- fc6
I0109 11:53:06.563114 55786 net.cpp:380] fc7 -> fc7
I0109 11:53:06.563133 55786 quan_inner_product_layer.cpp:21] 4096   4096
ydwu=======get:
bit_width=8;  round_method=1;  round_strategy=2;  is_runtime=0;  range_low=-0.130109;  range_high=0.158147
I0109 11:53:07.052175 55786 net.cpp:122] Setting up fc7
I0109 11:53:07.052217 55786 net.cpp:129] Top shape: 200 4096 (819200)
I0109 11:53:07.052227 55786 net.cpp:137] Memory required for data: 2318313600
I0109 11:53:07.052242 55786 layer_factory.hpp:77] Creating layer bn7
I0109 11:53:07.052260 55786 net.cpp:84] Creating Layer bn7
I0109 11:53:07.052273 55786 net.cpp:406] bn7 <- fc7
I0109 11:53:07.052285 55786 net.cpp:367] bn7 -> fc7 (in-place)
I0109 11:53:07.052495 55786 net.cpp:122] Setting up bn7
I0109 11:53:07.052510 55786 net.cpp:129] Top shape: 200 4096 (819200)
I0109 11:53:07.052520 55786 net.cpp:137] Memory required for data: 2321590400
I0109 11:53:07.052532 55786 layer_factory.hpp:77] Creating layer scale7
I0109 11:53:07.052551 55786 net.cpp:84] Creating Layer scale7
I0109 11:53:07.052561 55786 net.cpp:406] scale7 <- fc7
I0109 11:53:07.052572 55786 net.cpp:367] scale7 -> fc7 (in-place)
I0109 11:53:07.052623 55786 layer_factory.hpp:77] Creating layer scale7
I0109 11:53:07.052757 55786 net.cpp:122] Setting up scale7
I0109 11:53:07.052772 55786 net.cpp:129] Top shape: 200 4096 (819200)
I0109 11:53:07.052781 55786 net.cpp:137] Memory required for data: 2324867200
I0109 11:53:07.052793 55786 layer_factory.hpp:77] Creating layer relu7
I0109 11:53:07.052806 55786 net.cpp:84] Creating Layer relu7
I0109 11:53:07.052815 55786 net.cpp:406] relu7 <- fc7
I0109 11:53:07.052825 55786 net.cpp:367] relu7 -> fc7 (in-place)
I0109 11:53:07.052837 55786 net.cpp:122] Setting up relu7
I0109 11:53:07.052847 55786 net.cpp:129] Top shape: 200 4096 (819200)
I0109 11:53:07.052856 55786 net.cpp:137] Memory required for data: 2328144000
I0109 11:53:07.052865 55786 layer_factory.hpp:77] Creating layer drop7
I0109 11:53:07.052877 55786 net.cpp:84] Creating Layer drop7
I0109 11:53:07.052886 55786 net.cpp:406] drop7 <- fc7
I0109 11:53:07.052896 55786 net.cpp:367] drop7 -> fc7 (in-place)
I0109 11:53:07.052927 55786 net.cpp:122] Setting up drop7
I0109 11:53:07.052940 55786 net.cpp:129] Top shape: 200 4096 (819200)
I0109 11:53:07.052948 55786 net.cpp:137] Memory required for data: 2331420800
I0109 11:53:07.052958 55786 layer_factory.hpp:77] Creating layer fc8
I0109 11:53:07.052973 55786 net.cpp:84] Creating Layer fc8
I0109 11:53:07.052981 55786 net.cpp:406] fc8 <- fc7
I0109 11:53:07.052994 55786 net.cpp:380] fc8 -> fc8
I0109 11:53:07.053007 55786 quan_inner_product_layer.cpp:21] 1000   1000
ydwu=======get:
bit_width=8;  round_method=1;  round_strategy=2;  is_runtime=0;  range_low=-0.113486;  range_high=0.219399
I0109 11:53:07.173086 55786 net.cpp:122] Setting up fc8
I0109 11:53:07.173125 55786 net.cpp:129] Top shape: 200 1000 (200000)
I0109 11:53:07.173135 55786 net.cpp:137] Memory required for data: 2332220800
I0109 11:53:07.173152 55786 layer_factory.hpp:77] Creating layer fc8_fc8_0_split
I0109 11:53:07.173171 55786 net.cpp:84] Creating Layer fc8_fc8_0_split
I0109 11:53:07.173183 55786 net.cpp:406] fc8_fc8_0_split <- fc8
I0109 11:53:07.173198 55786 net.cpp:380] fc8_fc8_0_split -> fc8_fc8_0_split_0
I0109 11:53:07.173220 55786 net.cpp:380] fc8_fc8_0_split -> fc8_fc8_0_split_1
I0109 11:53:07.173233 55786 net.cpp:380] fc8_fc8_0_split -> fc8_fc8_0_split_2
I0109 11:53:07.173301 55786 net.cpp:122] Setting up fc8_fc8_0_split
I0109 11:53:07.173317 55786 net.cpp:129] Top shape: 200 1000 (200000)
I0109 11:53:07.173327 55786 net.cpp:129] Top shape: 200 1000 (200000)
I0109 11:53:07.173336 55786 net.cpp:129] Top shape: 200 1000 (200000)
I0109 11:53:07.173346 55786 net.cpp:137] Memory required for data: 2334620800
I0109 11:53:07.173353 55786 layer_factory.hpp:77] Creating layer accuracy
I0109 11:53:07.173368 55786 net.cpp:84] Creating Layer accuracy
I0109 11:53:07.173378 55786 net.cpp:406] accuracy <- fc8_fc8_0_split_0
I0109 11:53:07.173388 55786 net.cpp:406] accuracy <- label_data_1_split_0
I0109 11:53:07.173399 55786 net.cpp:380] accuracy -> accuracy
…
