…
I0109 14:03:44.071111 57605 net.cpp:294] The NetState phase (0) differed from the phase (1) specified by a rule in layer accuracy_5
I0109 14:03:44.071368 57605 net.cpp:51] Initializing net from parameters: 
name: "AlexNet-BN"
state {
  phase: TRAIN
  level: 0
  stage: ""
}
layer {
  name: "data"
  type: "Data"
  top: "data"
  top: "label"
  include {
    phase: TRAIN
  }
  transform_param {
    mirror: true
    crop_size: 224
    mean_value: 103.939
    mean_value: 116.779
    mean_value: 123.68
  }
  data_param {
    source: "/home/ydwu/database/imagenet/ilsvrc12/lmdb_resize/ilsvrc12_train_lmdb"
    batch_size: 200
    backend: LMDB
  }
}
layer {
  name: "conv1"
  type: "QuanConvolution"
  bottom: "data"
  top: "conv1"
  param {
    lr_mult: 1
    decay_mult: 1
  }
  param {
    lr_mult: 2
    decay_mult: 0
  }
  quan_convolution_param {
    num_output: 96
    pad: 2
    kernel_size: 11
    stride: 4
    weight_filler {
      type: "gaussian"
      std: 0.01
    }
    bias_filler {
      type: "constant"
      value: 0
    }
    bit_width: 8
    range_low: -0.69767118
    range_high: 0.74162
  }
}
layer {
  name: "bn1"
  type: "BatchNorm"
  bottom: "conv1"
  top: "conv1"
}
layer {
  name: "scale1"
  type: "Scale"
  bottom: "conv1"
  top: "conv1"
  scale_param {
    bias_term: true
  }
}
layer {
  name: "relu1"
  type: "ReLU"
  bottom: "conv1"
  top: "conv1"
}
layer {
  name: "pool1"
  type: "Pooling"
  bottom: "conv1"
  top: "pool1"
  pooling_param {
    pool: MAX
    kernel_size: 3
    stride: 2
  }
}
layer {
  name: "conv2"
  type: "QuanConvolution"
  bottom: "pool1"
  top: "conv2"
  param {
    lr_mult: 1
    decay_mult: 1
  }
  param {
    lr_mult: 2
    decay_mult: 0
  }
  quan_convolution_param {
    num_output: 256
    pad: 2
    kernel_size: 5
    weight_filler {
      type: "gaussian"
      std: 0.01
    }
    bias_filler {
      type: "constant"
      value: 0.1
    }
    bit_width: 8
    range_low: -0.64481437
    range_high: 1.21456
  }
}
layer {
  name: "bn2"
  type: "BatchNorm"
  bottom: "conv2"
  top: "conv2"
}
layer {
  name: "scale2"
  type: "Scale"
  bottom: "conv2"
  top: "conv2"
  scale_param {
    bias_term: true
  }
}
layer {
  name: "relu2"
  type: "ReLU"
  bottom: "conv2"
  top: "conv2"
}
layer {
  name: "pool2"
  type: "Pooling"
  bottom: "conv2"
  top: "pool2"
  pooling_param {
    pool: MAX
    kernel_size: 3
    stride: 2
  }
}
layer {
  name: "conv3"
  type: "QuanConvolution"
  bottom: "pool2"
  top: "conv3"
  param {
    lr_mult: 1
    decay_mult: 1
  }
  param {
    lr_mult: 2
    decay_mult: 0
  }
  quan_convolution_param {
    num_output: 384
    pad: 1
    kernel_size: 3
    weight_filler {
      type: "gaussian"
      std: 0.01
    }
    bias_filler {
      type: "constant"
      value: 0
    }
    bit_width: 8
    range_low: -0.49748641
    range_high: 0.5390864
  }
}
layer {
  name: "bn3"
  type: "BatchNorm"
  bottom: "conv3"
  top: "conv3"
}
layer {
  name: "scale3"
  type: "Scale"
  bottom: "conv3"
  top: "conv3"
  scale_param {
    bias_term: true
  }
}
layer {
  name: "relu3"
  type: "ReLU"
  bottom: "conv3"
  top: "conv3"
}
layer {
  name: "conv4"
  type: "QuanConvolution"
  bottom: "conv3"
  top: "conv4"
  param {
    lr_mult: 1
    decay_mult: 1
  }
  param {
    lr_mult: 2
    decay_mult: 0
  }
  quan_convolution_param {
    num_output: 384
    pad: 1
    kernel_size: 3
    weight_filler {
      type: "gaussian"
      std: 0.01
    }
    bias_filler {
      type: "constant"
      value: 0.1
    }
    bit_width: 8
    range_low: -0.3013072
    range_high: 0.27346319
  }
}
layer {
  name: "bn4"
  type: "BatchNorm"
  bottom: "conv4"
  top: "conv4"
}
layer {
  name: "scale4"
  type: "Scale"
  bottom: "conv4"
  top: "conv4"
  scale_param {
    bias_term: true
  }
}
layer {
  name: "relu4"
  type: "ReLU"
  bottom: "conv4"
  top: "conv4"
}
layer {
  name: "conv5"
  type: "QuanConvolution"
  bottom: "conv4"
  top: "conv5"
  param {
    lr_mult: 1
    decay_mult: 1
  }
  param {
    lr_mult: 2
    decay_mult: 0
  }
  quan_convolution_param {
    num_output: 256
    pad: 1
    kernel_size: 3
    weight_filler {
      type: "gaussian"
      std: 0.01
    }
    bias_filler {
      type: "constant"
      value: 0.1
    }
    bit_width: 8
    range_low: -0.27812639
    range_high: 0.26403359
  }
}
layer {
  name: "bn5"
  type: "BatchNorm"
  bottom: "conv5"
  top: "conv5"
}
layer {
  name: "scale5"
  type: "Scale"
  bottom: "conv5"
  top: "conv5"
  scale_param {
    bias_term: true
  }
}
layer {
  name: "relu5"
  type: "ReLU"
  bottom: "conv5"
  top: "conv5"
}
layer {
  name: "pool5"
  type: "Pooling"
  bottom: "conv5"
  top: "pool5"
  pooling_param {
    pool: MAX
    kernel_size: 3
    stride: 2
  }
}
layer {
  name: "fc6"
  type: "QuanInnerProduct"
  bottom: "pool5"
  top: "fc6"
  param {
    lr_mult: 1
    decay_mult: 1
  }
  param {
    lr_mult: 2
    decay_mult: 0
  }
  quan_inner_product_param {
    num_output: 4096
    weight_filler {
      type: "gaussian"
      std: 0.005
    }
    bias_filler {
      type: "constant"
      value: 0.1
    }
    bit_width: 8
    range_low: -0.12804881
    range_high: 0.1184512
  }
}
layer {
  name: "bn6"
  type: "BatchNorm"
  bottom: "fc6"
  top: "fc6"
}
layer {
  name: "scale6"
  type: "Scale"
  bottom: "fc6"
  top: "fc6"
  scale_param {
    bias_term: true
  }
}
layer {
  name: "relu6"
  type: "ReLU"
  bottom: "fc6"
  top: "fc6"
}
layer {
  name: "drop6"
  type: "Dropout"
  bottom: "fc6"
  top: "fc6"
  dropout_param {
    dropout_ratio: 0.5
  }
}
layer {
  name: "fc7"
  type: "QuanInnerProduct"
  bottom: "fc6"
  top: "fc7"
  param {
    lr_mult: 1
    decay_mult: 1
  }
  param {
    lr_mult: 2
    decay_mult: 0
  }
  quan_inner_product_param {
    num_output: 4096
    weight_filler {
      type: "gaussian"
      std: 0.005
    }
    bias_filler {
      type: "constant"
      value: 0.1
    }
    bit_width: 8
    range_low: -0.1301088
    range_high: 0.1581472
  }
}
layer {
  name: "bn7"
  type: "BatchNorm"
  bottom: "fc7"
  top: "fc7"
}
layer {
  name: "scale7"
  type: "Scale"
  bottom: "fc7"
  top: "fc7"
  scale_param {
    bias_term: true
  }
}
layer {
  name: "relu7"
  type: "ReLU"
  bottom: "fc7"
  top: "fc7"
}
layer {
  name: "drop7"
  type: "Dropout"
  bottom: "fc7"
  top: "fc7"
  dropout_param {
    dropout_ratio: 0.5
  }
}
layer {
  name: "fc8"
  type: "QuanInnerProduct"
  bottom: "fc7"
  top: "fc8"
  param {
    lr_mult: 1
    decay_mult: 1
  }
  param {
    lr_mult: 2
    decay_mult: 0
  }
  quan_inner_product_param {
    num_output: 1000
    weight_filler {
      type: "gaussian"
      std: 0.01
    }
    bias_filler {
      type: "constant"
      value: 0
    }
    bit_width: 8
    range_low: -0.1134856
    range_high: 0.2193992
  }
}
layer {
  name: "accuracy_5_TRAIN"
  type: "Accuracy"
  bottom: "fc8"
  bottom: "label"
  top: "accuracy_5_TRAIN"
  include {
    phase: TRAIN
  }
  accuracy_param {
    top_k: 5
  }
}
layer {
  name: "loss"
  type: "SoftmaxWithLoss"
  bottom: "fc8"
  bottom: "label"
  top: "loss"
}
I0109 14:03:44.071596 57605 layer_factory.hpp:77] Creating layer data
I0109 14:03:44.124625 57605 db_lmdb.cpp:35] Opened lmdb /home/ydwu/database/imagenet/ilsvrc12/lmdb_resize/ilsvrc12_train_lmdb
I0109 14:03:44.133509 57605 net.cpp:84] Creating Layer data
I0109 14:03:44.133548 57605 net.cpp:380] data -> data
I0109 14:03:44.133589 57605 net.cpp:380] data -> label
I0109 14:03:44.156180 57605 data_layer.cpp:45] output data size: 200,3,224,224
I0109 14:03:44.528654 57605 net.cpp:122] Setting up data
I0109 14:03:44.528982 57605 net.cpp:129] Top shape: 200 3 224 224 (30105600)
I0109 14:03:44.529019 57605 net.cpp:129] Top shape: 200 (200)
I0109 14:03:44.529031 57605 net.cpp:137] Memory required for data: 120423200
I0109 14:03:44.529052 57605 layer_factory.hpp:77] Creating layer label_data_1_split
I0109 14:03:44.529078 57605 net.cpp:84] Creating Layer label_data_1_split
I0109 14:03:44.529091 57605 net.cpp:406] label_data_1_split <- label
I0109 14:03:44.529115 57605 net.cpp:380] label_data_1_split -> label_data_1_split_0
I0109 14:03:44.529136 57605 net.cpp:380] label_data_1_split -> label_data_1_split_1
I0109 14:03:44.529198 57605 net.cpp:122] Setting up label_data_1_split
I0109 14:03:44.529215 57605 net.cpp:129] Top shape: 200 (200)
I0109 14:03:44.529225 57605 net.cpp:129] Top shape: 200 (200)
I0109 14:03:44.529234 57605 net.cpp:137] Memory required for data: 120424800
I0109 14:03:44.529243 57605 layer_factory.hpp:77] Creating layer conv1
I0109 14:03:44.529275 57605 net.cpp:84] Creating Layer conv1
I0109 14:03:44.529286 57605 net.cpp:406] conv1 <- data
I0109 14:03:44.529299 57605 net.cpp:380] conv1 -> conv1
ydwu=======get:
bit_width=8;  round_method=1;  round_strategy=2;  is_runtime=0;  range_low=-0.697671;  range_high=0.74162
I0109 14:03:44.560499 57605 net.cpp:122] Setting up conv1
I0109 14:03:44.560525 57605 net.cpp:129] Top shape: 200 96 55 55 (58080000)
I0109 14:03:44.560535 57605 net.cpp:137] Memory required for data: 352744800
I0109 14:03:44.560561 57605 layer_factory.hpp:77] Creating layer bn1
I0109 14:03:44.560580 57605 net.cpp:84] Creating Layer bn1
I0109 14:03:44.560590 57605 net.cpp:406] bn1 <- conv1
I0109 14:03:44.560601 57605 net.cpp:367] bn1 -> conv1 (in-place)
I0109 14:03:44.560780 57605 net.cpp:122] Setting up bn1
I0109 14:03:44.560796 57605 net.cpp:129] Top shape: 200 96 55 55 (58080000)
I0109 14:03:44.560806 57605 net.cpp:137] Memory required for data: 585064800
I0109 14:03:44.560822 57605 layer_factory.hpp:77] Creating layer scale1
I0109 14:03:44.560838 57605 net.cpp:84] Creating Layer scale1
I0109 14:03:44.560848 57605 net.cpp:406] scale1 <- conv1
I0109 14:03:44.560859 57605 net.cpp:367] scale1 -> conv1 (in-place)
I0109 14:03:44.560919 57605 layer_factory.hpp:77] Creating layer scale1
I0109 14:03:44.561048 57605 net.cpp:122] Setting up scale1
I0109 14:03:44.561064 57605 net.cpp:129] Top shape: 200 96 55 55 (58080000)
I0109 14:03:44.561074 57605 net.cpp:137] Memory required for data: 817384800
I0109 14:03:44.561085 57605 layer_factory.hpp:77] Creating layer relu1
I0109 14:03:44.561100 57605 net.cpp:84] Creating Layer relu1
I0109 14:03:44.561110 57605 net.cpp:406] relu1 <- conv1
I0109 14:03:44.561120 57605 net.cpp:367] relu1 -> conv1 (in-place)
I0109 14:03:44.561134 57605 net.cpp:122] Setting up relu1
I0109 14:03:44.561146 57605 net.cpp:129] Top shape: 200 96 55 55 (58080000)
I0109 14:03:44.561153 57605 net.cpp:137] Memory required for data: 1049704800
I0109 14:03:44.561161 57605 layer_factory.hpp:77] Creating layer pool1
I0109 14:03:44.561174 57605 net.cpp:84] Creating Layer pool1
I0109 14:03:44.561183 57605 net.cpp:406] pool1 <- conv1
I0109 14:03:44.561194 57605 net.cpp:380] pool1 -> pool1
I0109 14:03:44.561249 57605 net.cpp:122] Setting up pool1
I0109 14:03:44.561265 57605 net.cpp:129] Top shape: 200 96 27 27 (13996800)
I0109 14:03:44.561275 57605 net.cpp:137] Memory required for data: 1105692000
I0109 14:03:44.561283 57605 layer_factory.hpp:77] Creating layer conv2
I0109 14:03:44.561300 57605 net.cpp:84] Creating Layer conv2
I0109 14:03:44.561308 57605 net.cpp:406] conv2 <- pool1
I0109 14:03:44.561321 57605 net.cpp:380] conv2 -> conv2
ydwu=======get:
bit_width=8;  round_method=1;  round_strategy=2;  is_runtime=0;  range_low=-0.644814;  range_high=1.21456
I0109 14:03:44.580991 57605 net.cpp:122] Setting up conv2
I0109 14:03:44.581014 57605 net.cpp:129] Top shape: 200 256 27 27 (37324800)
I0109 14:03:44.581023 57605 net.cpp:137] Memory required for data: 1254991200
I0109 14:03:44.581040 57605 layer_factory.hpp:77] Creating layer bn2
I0109 14:03:44.581055 57605 net.cpp:84] Creating Layer bn2
I0109 14:03:44.581065 57605 net.cpp:406] bn2 <- conv2
I0109 14:03:44.581076 57605 net.cpp:367] bn2 -> conv2 (in-place)
I0109 14:03:44.581276 57605 net.cpp:122] Setting up bn2
I0109 14:03:44.581295 57605 net.cpp:129] Top shape: 200 256 27 27 (37324800)
I0109 14:03:44.581303 57605 net.cpp:137] Memory required for data: 1404290400
I0109 14:03:44.581317 57605 layer_factory.hpp:77] Creating layer scale2
I0109 14:03:44.581331 57605 net.cpp:84] Creating Layer scale2
I0109 14:03:44.581341 57605 net.cpp:406] scale2 <- conv2
I0109 14:03:44.581351 57605 net.cpp:367] scale2 -> conv2 (in-place)
I0109 14:03:44.581400 57605 layer_factory.hpp:77] Creating layer scale2
I0109 14:03:44.581501 57605 net.cpp:122] Setting up scale2
I0109 14:03:44.581517 57605 net.cpp:129] Top shape: 200 256 27 27 (37324800)
I0109 14:03:44.581526 57605 net.cpp:137] Memory required for data: 1553589600
I0109 14:03:44.581538 57605 layer_factory.hpp:77] Creating layer relu2
I0109 14:03:44.581550 57605 net.cpp:84] Creating Layer relu2
I0109 14:03:44.581559 57605 net.cpp:406] relu2 <- conv2
I0109 14:03:44.581570 57605 net.cpp:367] relu2 -> conv2 (in-place)
I0109 14:03:44.581583 57605 net.cpp:122] Setting up relu2
I0109 14:03:44.581593 57605 net.cpp:129] Top shape: 200 256 27 27 (37324800)
I0109 14:03:44.581601 57605 net.cpp:137] Memory required for data: 1702888800
I0109 14:03:44.581609 57605 layer_factory.hpp:77] Creating layer pool2
I0109 14:03:44.581621 57605 net.cpp:84] Creating Layer pool2
I0109 14:03:44.581630 57605 net.cpp:406] pool2 <- conv2
I0109 14:03:44.581641 57605 net.cpp:380] pool2 -> pool2
I0109 14:03:44.581684 57605 net.cpp:122] Setting up pool2
I0109 14:03:44.581699 57605 net.cpp:129] Top shape: 200 256 13 13 (8652800)
I0109 14:03:44.581708 57605 net.cpp:137] Memory required for data: 1737500000
I0109 14:03:44.581717 57605 layer_factory.hpp:77] Creating layer conv3
I0109 14:03:44.581734 57605 net.cpp:84] Creating Layer conv3
I0109 14:03:44.581743 57605 net.cpp:406] conv3 <- pool2
I0109 14:03:44.581759 57605 net.cpp:380] conv3 -> conv3
ydwu=======get:
bit_width=8;  round_method=1;  round_strategy=2;  is_runtime=0;  range_low=-0.497486;  range_high=0.539086
I0109 14:03:44.608634 57605 net.cpp:122] Setting up conv3
I0109 14:03:44.608664 57605 net.cpp:129] Top shape: 200 384 13 13 (12979200)
I0109 14:03:44.608674 57605 net.cpp:137] Memory required for data: 1789416800
I0109 14:03:44.608688 57605 layer_factory.hpp:77] Creating layer bn3
I0109 14:03:44.608707 57605 net.cpp:84] Creating Layer bn3
I0109 14:03:44.608717 57605 net.cpp:406] bn3 <- conv3
I0109 14:03:44.608731 57605 net.cpp:367] bn3 -> conv3 (in-place)
I0109 14:03:44.608896 57605 net.cpp:122] Setting up bn3
I0109 14:03:44.608913 57605 net.cpp:129] Top shape: 200 384 13 13 (12979200)
I0109 14:03:44.608922 57605 net.cpp:137] Memory required for data: 1841333600
I0109 14:03:44.608942 57605 layer_factory.hpp:77] Creating layer scale3
I0109 14:03:44.608956 57605 net.cpp:84] Creating Layer scale3
I0109 14:03:44.608965 57605 net.cpp:406] scale3 <- conv3
I0109 14:03:44.608976 57605 net.cpp:367] scale3 -> conv3 (in-place)
I0109 14:03:44.609031 57605 layer_factory.hpp:77] Creating layer scale3
I0109 14:03:44.609143 57605 net.cpp:122] Setting up scale3
I0109 14:03:44.609160 57605 net.cpp:129] Top shape: 200 384 13 13 (12979200)
I0109 14:03:44.609169 57605 net.cpp:137] Memory required for data: 1893250400
I0109 14:03:44.609181 57605 layer_factory.hpp:77] Creating layer relu3
I0109 14:03:44.609199 57605 net.cpp:84] Creating Layer relu3
I0109 14:03:44.609207 57605 net.cpp:406] relu3 <- conv3
I0109 14:03:44.609217 57605 net.cpp:367] relu3 -> conv3 (in-place)
I0109 14:03:44.609230 57605 net.cpp:122] Setting up relu3
I0109 14:03:44.609239 57605 net.cpp:129] Top shape: 200 384 13 13 (12979200)
I0109 14:03:44.609248 57605 net.cpp:137] Memory required for data: 1945167200
I0109 14:03:44.609256 57605 layer_factory.hpp:77] Creating layer conv4
I0109 14:03:44.609277 57605 net.cpp:84] Creating Layer conv4
I0109 14:03:44.609287 57605 net.cpp:406] conv4 <- conv3
I0109 14:03:44.609298 57605 net.cpp:380] conv4 -> conv4
ydwu=======get:
bit_width=8;  round_method=1;  round_strategy=2;  is_runtime=0;  range_low=-0.301307;  range_high=0.273463
I0109 14:03:44.649194 57605 net.cpp:122] Setting up conv4
I0109 14:03:44.649221 57605 net.cpp:129] Top shape: 200 384 13 13 (12979200)
I0109 14:03:44.649230 57605 net.cpp:137] Memory required for data: 1997084000
I0109 14:03:44.649277 57605 layer_factory.hpp:77] Creating layer bn4
I0109 14:03:44.649294 57605 net.cpp:84] Creating Layer bn4
I0109 14:03:44.649304 57605 net.cpp:406] bn4 <- conv4
I0109 14:03:44.649317 57605 net.cpp:367] bn4 -> conv4 (in-place)
I0109 14:03:44.649479 57605 net.cpp:122] Setting up bn4
I0109 14:03:44.649495 57605 net.cpp:129] Top shape: 200 384 13 13 (12979200)
I0109 14:03:44.649504 57605 net.cpp:137] Memory required for data: 2049000800
I0109 14:03:44.649518 57605 layer_factory.hpp:77] Creating layer scale4
I0109 14:03:44.649531 57605 net.cpp:84] Creating Layer scale4
I0109 14:03:44.649539 57605 net.cpp:406] scale4 <- conv4
I0109 14:03:44.649550 57605 net.cpp:367] scale4 -> conv4 (in-place)
I0109 14:03:44.649596 57605 layer_factory.hpp:77] Creating layer scale4
I0109 14:03:44.649703 57605 net.cpp:122] Setting up scale4
I0109 14:03:44.649719 57605 net.cpp:129] Top shape: 200 384 13 13 (12979200)
I0109 14:03:44.649729 57605 net.cpp:137] Memory required for data: 2100917600
I0109 14:03:44.649740 57605 layer_factory.hpp:77] Creating layer relu4
I0109 14:03:44.649754 57605 net.cpp:84] Creating Layer relu4
I0109 14:03:44.649762 57605 net.cpp:406] relu4 <- conv4
I0109 14:03:44.649772 57605 net.cpp:367] relu4 -> conv4 (in-place)
I0109 14:03:44.649785 57605 net.cpp:122] Setting up relu4
I0109 14:03:44.649794 57605 net.cpp:129] Top shape: 200 384 13 13 (12979200)
I0109 14:03:44.649802 57605 net.cpp:137] Memory required for data: 2152834400
I0109 14:03:44.649811 57605 layer_factory.hpp:77] Creating layer conv5
I0109 14:03:44.649827 57605 net.cpp:84] Creating Layer conv5
I0109 14:03:44.649837 57605 net.cpp:406] conv5 <- conv4
I0109 14:03:44.649848 57605 net.cpp:380] conv5 -> conv5
ydwu=======get:
bit_width=8;  round_method=1;  round_strategy=2;  is_runtime=0;  range_low=-0.278126;  range_high=0.264034
I0109 14:03:44.676306 57605 net.cpp:122] Setting up conv5
I0109 14:03:44.676333 57605 net.cpp:129] Top shape: 200 256 13 13 (8652800)
I0109 14:03:44.676343 57605 net.cpp:137] Memory required for data: 2187445600
I0109 14:03:44.676358 57605 layer_factory.hpp:77] Creating layer bn5
I0109 14:03:44.676375 57605 net.cpp:84] Creating Layer bn5
I0109 14:03:44.676386 57605 net.cpp:406] bn5 <- conv5
I0109 14:03:44.676400 57605 net.cpp:367] bn5 -> conv5 (in-place)
I0109 14:03:44.676566 57605 net.cpp:122] Setting up bn5
I0109 14:03:44.676582 57605 net.cpp:129] Top shape: 200 256 13 13 (8652800)
I0109 14:03:44.676591 57605 net.cpp:137] Memory required for data: 2222056800
I0109 14:03:44.676611 57605 layer_factory.hpp:77] Creating layer scale5
I0109 14:03:44.676626 57605 net.cpp:84] Creating Layer scale5
I0109 14:03:44.676635 57605 net.cpp:406] scale5 <- conv5
I0109 14:03:44.676646 57605 net.cpp:367] scale5 -> conv5 (in-place)
I0109 14:03:44.676699 57605 layer_factory.hpp:77] Creating layer scale5
I0109 14:03:44.676803 57605 net.cpp:122] Setting up scale5
I0109 14:03:44.676820 57605 net.cpp:129] Top shape: 200 256 13 13 (8652800)
I0109 14:03:44.676828 57605 net.cpp:137] Memory required for data: 2256668000
I0109 14:03:44.676841 57605 layer_factory.hpp:77] Creating layer relu5
I0109 14:03:44.676852 57605 net.cpp:84] Creating Layer relu5
I0109 14:03:44.676862 57605 net.cpp:406] relu5 <- conv5
I0109 14:03:44.676872 57605 net.cpp:367] relu5 -> conv5 (in-place)
I0109 14:03:44.676883 57605 net.cpp:122] Setting up relu5
I0109 14:03:44.676893 57605 net.cpp:129] Top shape: 200 256 13 13 (8652800)
I0109 14:03:44.676901 57605 net.cpp:137] Memory required for data: 2291279200
I0109 14:03:44.676910 57605 layer_factory.hpp:77] Creating layer pool5
I0109 14:03:44.676923 57605 net.cpp:84] Creating Layer pool5
I0109 14:03:44.676931 57605 net.cpp:406] pool5 <- conv5
I0109 14:03:44.676944 57605 net.cpp:380] pool5 -> pool5
I0109 14:03:44.676987 57605 net.cpp:122] Setting up pool5
I0109 14:03:44.677002 57605 net.cpp:129] Top shape: 200 256 6 6 (1843200)
I0109 14:03:44.677011 57605 net.cpp:137] Memory required for data: 2298652000
I0109 14:03:44.677019 57605 layer_factory.hpp:77] Creating layer fc6
I0109 14:03:44.677040 57605 net.cpp:84] Creating Layer fc6
I0109 14:03:44.677050 57605 net.cpp:406] fc6 <- pool5
I0109 14:03:44.677062 57605 net.cpp:380] fc6 -> fc6
I0109 14:03:44.677081 57605 quan_inner_product_layer.cpp:21] 4096   4096
ydwu=======get:
bit_width=8;  round_method=1;  round_strategy=2;  is_runtime=0;  range_low=-0.128049;  range_high=0.118451
I0109 14:03:45.794632 57605 net.cpp:122] Setting up fc6
I0109 14:03:45.794662 57605 net.cpp:129] Top shape: 200 4096 (819200)
I0109 14:03:45.794672 57605 net.cpp:137] Memory required for data: 2301928800
I0109 14:03:45.794693 57605 layer_factory.hpp:77] Creating layer bn6
I0109 14:03:45.794711 57605 net.cpp:84] Creating Layer bn6
I0109 14:03:45.794723 57605 net.cpp:406] bn6 <- fc6
I0109 14:03:45.794736 57605 net.cpp:367] bn6 -> fc6 (in-place)
I0109 14:03:45.794912 57605 net.cpp:122] Setting up bn6
I0109 14:03:45.794929 57605 net.cpp:129] Top shape: 200 4096 (819200)
I0109 14:03:45.794939 57605 net.cpp:137] Memory required for data: 2305205600
I0109 14:03:45.794951 57605 layer_factory.hpp:77] Creating layer scale6
I0109 14:03:45.795019 57605 net.cpp:84] Creating Layer scale6
I0109 14:03:45.795030 57605 net.cpp:406] scale6 <- fc6
I0109 14:03:45.795042 57605 net.cpp:367] scale6 -> fc6 (in-place)
I0109 14:03:45.795094 57605 layer_factory.hpp:77] Creating layer scale6
I0109 14:03:45.795214 57605 net.cpp:122] Setting up scale6
I0109 14:03:45.795231 57605 net.cpp:129] Top shape: 200 4096 (819200)
I0109 14:03:45.795240 57605 net.cpp:137] Memory required for data: 2308482400
I0109 14:03:45.795253 57605 layer_factory.hpp:77] Creating layer relu6
I0109 14:03:45.795264 57605 net.cpp:84] Creating Layer relu6
I0109 14:03:45.795274 57605 net.cpp:406] relu6 <- fc6
I0109 14:03:45.795284 57605 net.cpp:367] relu6 -> fc6 (in-place)
I0109 14:03:45.795295 57605 net.cpp:122] Setting up relu6
I0109 14:03:45.795306 57605 net.cpp:129] Top shape: 200 4096 (819200)
I0109 14:03:45.795315 57605 net.cpp:137] Memory required for data: 2311759200
I0109 14:03:45.795322 57605 layer_factory.hpp:77] Creating layer drop6
I0109 14:03:45.795341 57605 net.cpp:84] Creating Layer drop6
I0109 14:03:45.795351 57605 net.cpp:406] drop6 <- fc6
I0109 14:03:45.795362 57605 net.cpp:367] drop6 -> fc6 (in-place)
I0109 14:03:45.795403 57605 net.cpp:122] Setting up drop6
I0109 14:03:45.795418 57605 net.cpp:129] Top shape: 200 4096 (819200)
I0109 14:03:45.795426 57605 net.cpp:137] Memory required for data: 2315036000
I0109 14:03:45.795435 57605 layer_factory.hpp:77] Creating layer fc7
I0109 14:03:45.795449 57605 net.cpp:84] Creating Layer fc7
I0109 14:03:45.795459 57605 net.cpp:406] fc7 <- fc6
I0109 14:03:45.795470 57605 net.cpp:380] fc7 -> fc7
I0109 14:03:45.795483 57605 quan_inner_product_layer.cpp:21] 4096   4096
ydwu=======get:
bit_width=8;  round_method=1;  round_strategy=2;  is_runtime=0;  range_low=-0.130109;  range_high=0.158147
I0109 14:03:46.317476 57605 net.cpp:122] Setting up fc7
I0109 14:03:46.317508 57605 net.cpp:129] Top shape: 200 4096 (819200)
I0109 14:03:46.317518 57605 net.cpp:137] Memory required for data: 2318312800
I0109 14:03:46.317535 57605 layer_factory.hpp:77] Creating layer bn7
I0109 14:03:46.317555 57605 net.cpp:84] Creating Layer bn7
I0109 14:03:46.317566 57605 net.cpp:406] bn7 <- fc7
I0109 14:03:46.317581 57605 net.cpp:367] bn7 -> fc7 (in-place)
I0109 14:03:46.317771 57605 net.cpp:122] Setting up bn7
I0109 14:03:46.317790 57605 net.cpp:129] Top shape: 200 4096 (819200)
I0109 14:03:46.317798 57605 net.cpp:137] Memory required for data: 2321589600
I0109 14:03:46.317813 57605 layer_factory.hpp:77] Creating layer scale7
I0109 14:03:46.317833 57605 net.cpp:84] Creating Layer scale7
I0109 14:03:46.317843 57605 net.cpp:406] scale7 <- fc7
I0109 14:03:46.317855 57605 net.cpp:367] scale7 -> fc7 (in-place)
I0109 14:03:46.317908 57605 layer_factory.hpp:77] Creating layer scale7
I0109 14:03:46.318030 57605 net.cpp:122] Setting up scale7
I0109 14:03:46.318048 57605 net.cpp:129] Top shape: 200 4096 (819200)
I0109 14:03:46.318058 57605 net.cpp:137] Memory required for data: 2324866400
I0109 14:03:46.318071 57605 layer_factory.hpp:77] Creating layer relu7
I0109 14:03:46.318085 57605 net.cpp:84] Creating Layer relu7
I0109 14:03:46.318095 57605 net.cpp:406] relu7 <- fc7
I0109 14:03:46.318106 57605 net.cpp:367] relu7 -> fc7 (in-place)
I0109 14:03:46.318120 57605 net.cpp:122] Setting up relu7
I0109 14:03:46.318130 57605 net.cpp:129] Top shape: 200 4096 (819200)
I0109 14:03:46.318140 57605 net.cpp:137] Memory required for data: 2328143200
I0109 14:03:46.318187 57605 layer_factory.hpp:77] Creating layer drop7
I0109 14:03:46.318202 57605 net.cpp:84] Creating Layer drop7
I0109 14:03:46.318212 57605 net.cpp:406] drop7 <- fc7
I0109 14:03:46.318224 57605 net.cpp:367] drop7 -> fc7 (in-place)
I0109 14:03:46.318259 57605 net.cpp:122] Setting up drop7
I0109 14:03:46.318274 57605 net.cpp:129] Top shape: 200 4096 (819200)
I0109 14:03:46.318284 57605 net.cpp:137] Memory required for data: 2331420000
I0109 14:03:46.318292 57605 layer_factory.hpp:77] Creating layer fc8
I0109 14:03:46.318308 57605 net.cpp:84] Creating Layer fc8
I0109 14:03:46.318318 57605 net.cpp:406] fc8 <- fc7
I0109 14:03:46.318331 57605 net.cpp:380] fc8 -> fc8
I0109 14:03:46.318346 57605 quan_inner_product_layer.cpp:21] 1000   1000
ydwu=======get:
bit_width=8;  round_method=1;  round_strategy=2;  is_runtime=0;  range_low=-0.113486;  range_high=0.219399
I0109 14:03:46.447057 57605 net.cpp:122] Setting up fc8
I0109 14:03:46.447088 57605 net.cpp:129] Top shape: 200 1000 (200000)
I0109 14:03:46.447098 57605 net.cpp:137] Memory required for data: 2332220000
I0109 14:03:46.447115 57605 layer_factory.hpp:77] Creating layer fc8_fc8_0_split
I0109 14:03:46.447134 57605 net.cpp:84] Creating Layer fc8_fc8_0_split
I0109 14:03:46.447146 57605 net.cpp:406] fc8_fc8_0_split <- fc8
I0109 14:03:46.447161 57605 net.cpp:380] fc8_fc8_0_split -> fc8_fc8_0_split_0
I0109 14:03:46.447180 57605 net.cpp:380] fc8_fc8_0_split -> fc8_fc8_0_split_1
I0109 14:03:46.447235 57605 net.cpp:122] Setting up fc8_fc8_0_split
I0109 14:03:46.447252 57605 net.cpp:129] Top shape: 200 1000 (200000)
I0109 14:03:46.447263 57605 net.cpp:129] Top shape: 200 1000 (200000)
I0109 14:03:46.447273 57605 net.cpp:137] Memory required for data: 2333820000
I0109 14:03:46.447281 57605 layer_factory.hpp:77] Creating layer accuracy_5_TRAIN
I0109 14:03:46.447304 57605 net.cpp:84] Creating Layer accuracy_5_TRAIN
I0109 14:03:46.447315 57605 net.cpp:406] accuracy_5_TRAIN <- fc8_fc8_0_split_0
I0109 14:03:46.447326 57605 net.cpp:406] accuracy_5_TRAIN <- label_data_1_split_0
…
I0109 14:03:46.450507 57605 net.cpp:294] The NetState phase (1) differed from the phase (0) specified by a rule in layer accuracy_5_TRAIN
I0109 14:03:46.450750 57605 net.cpp:51] Initializing net from parameters: 
name: "AlexNet-BN"
state {
  phase: TEST
}
layer {
  name: "data"
  type: "Data"
  top: "data"
  top: "label"
  include {
    phase: TEST
  }
  transform_param {
    mirror: false
    crop_size: 224
    mean_value: 103.939
    mean_value: 116.779
    mean_value: 123.68
  }
  data_param {
    source: "/home/ydwu/database/imagenet/ilsvrc12/lmdb_resize/ilsvrc12_val_lmdb"
    batch_size: 200
    backend: LMDB
  }
}
layer {
  name: "conv1"
  type: "QuanConvolution"
  bottom: "data"
  top: "conv1"
  param {
    lr_mult: 1
    decay_mult: 1
  }
  param {
    lr_mult: 2
    decay_mult: 0
  }
  quan_convolution_param {
    num_output: 96
    pad: 2
    kernel_size: 11
    stride: 4
    weight_filler {
      type: "gaussian"
      std: 0.01
    }
    bias_filler {
      type: "constant"
      value: 0
    }
    bit_width: 8
    range_low: -0.69767118
    range_high: 0.74162
  }
}
layer {
  name: "bn1"
  type: "BatchNorm"
  bottom: "conv1"
  top: "conv1"
}
layer {
  name: "scale1"
  type: "Scale"
  bottom: "conv1"
  top: "conv1"
  scale_param {
    bias_term: true
  }
}
layer {
  name: "relu1"
  type: "ReLU"
  bottom: "conv1"
  top: "conv1"
}
layer {
  name: "pool1"
  type: "Pooling"
  bottom: "conv1"
  top: "pool1"
  pooling_param {
    pool: MAX
    kernel_size: 3
    stride: 2
  }
}
layer {
  name: "conv2"
  type: "QuanConvolution"
  bottom: "pool1"
  top: "conv2"
  param {
    lr_mult: 1
    decay_mult: 1
  }
  param {
    lr_mult: 2
    decay_mult: 0
  }
  quan_convolution_param {
    num_output: 256
    pad: 2
    kernel_size: 5
    weight_filler {
      type: "gaussian"
      std: 0.01
    }
    bias_filler {
      type: "constant"
      value: 0.1
    }
    bit_width: 8
    range_low: -0.64481437
    range_high: 1.21456
  }
}
layer {
  name: "bn2"
  type: "BatchNorm"
  bottom: "conv2"
  top: "conv2"
}
layer {
  name: "scale2"
  type: "Scale"
  bottom: "conv2"
  top: "conv2"
  scale_param {
    bias_term: true
  }
}
layer {
  name: "relu2"
  type: "ReLU"
  bottom: "conv2"
  top: "conv2"
}
layer {
  name: "pool2"
  type: "Pooling"
  bottom: "conv2"
  top: "pool2"
  pooling_param {
    pool: MAX
    kernel_size: 3
    stride: 2
  }
}
layer {
  name: "conv3"
  type: "QuanConvolution"
  bottom: "pool2"
  top: "conv3"
  param {
    lr_mult: 1
    decay_mult: 1
  }
  param {
    lr_mult: 2
    decay_mult: 0
  }
  quan_convolution_param {
    num_output: 384
    pad: 1
    kernel_size: 3
    weight_filler {
      type: "gaussian"
      std: 0.01
    }
    bias_filler {
      type: "constant"
      value: 0
    }
    bit_width: 8
    range_low: -0.49748641
    range_high: 0.5390864
  }
}
layer {
  name: "bn3"
  type: "BatchNorm"
  bottom: "conv3"
  top: "conv3"
}
layer {
  name: "scale3"
  type: "Scale"
  bottom: "conv3"
  top: "conv3"
  scale_param {
    bias_term: true
  }
}
layer {
  name: "relu3"
  type: "ReLU"
  bottom: "conv3"
  top: "conv3"
}
layer {
  name: "conv4"
  type: "QuanConvolution"
  bottom: "conv3"
  top: "conv4"
  param {
    lr_mult: 1
    decay_mult: 1
  }
  param {
    lr_mult: 2
    decay_mult: 0
  }
  quan_convolution_param {
    num_output: 384
    pad: 1
    kernel_size: 3
    weight_filler {
      type: "gaussian"
      std: 0.01
    }
    bias_filler {
      type: "constant"
      value: 0.1
    }
    bit_width: 8
    range_low: -0.3013072
    range_high: 0.27346319
  }
}
layer {
  name: "bn4"
  type: "BatchNorm"
  bottom: "conv4"
  top: "conv4"
}
layer {
  name: "scale4"
  type: "Scale"
  bottom: "conv4"
  top: "conv4"
  scale_param {
    bias_term: true
  }
}
layer {
  name: "relu4"
  type: "ReLU"
  bottom: "conv4"
  top: "conv4"
}
layer {
  name: "conv5"
  type: "QuanConvolution"
  bottom: "conv4"
  top: "conv5"
  param {
    lr_mult: 1
    decay_mult: 1
  }
  param {
    lr_mult: 2
    decay_mult: 0
  }
  quan_convolution_param {
    num_output: 256
    pad: 1
    kernel_size: 3
    weight_filler {
      type: "gaussian"
      std: 0.01
    }
    bias_filler {
      type: "constant"
      value: 0.1
    }
    bit_width: 8
    range_low: -0.27812639
    range_high: 0.26403359
  }
}
layer {
  name: "bn5"
  type: "BatchNorm"
  bottom: "conv5"
  top: "conv5"
}
layer {
  name: "scale5"
  type: "Scale"
  bottom: "conv5"
  top: "conv5"
  scale_param {
    bias_term: true
  }
}
layer {
  name: "relu5"
  type: "ReLU"
  bottom: "conv5"
  top: "conv5"
}
layer {
  name: "pool5"
  type: "Pooling"
  bottom: "conv5"
  top: "pool5"
  pooling_param {
    pool: MAX
    kernel_size: 3
    stride: 2
  }
}
layer {
  name: "fc6"
  type: "QuanInnerProduct"
  bottom: "pool5"
  top: "fc6"
  param {
    lr_mult: 1
    decay_mult: 1
  }
  param {
    lr_mult: 2
    decay_mult: 0
  }
  quan_inner_product_param {
    num_output: 4096
    weight_filler {
      type: "gaussian"
      std: 0.005
    }
    bias_filler {
      type: "constant"
      value: 0.1
    }
    bit_width: 8
    range_low: -0.12804881
    range_high: 0.1184512
  }
}
layer {
  name: "bn6"
  type: "BatchNorm"
  bottom: "fc6"
  top: "fc6"
}
layer {
  name: "scale6"
  type: "Scale"
  bottom: "fc6"
  top: "fc6"
  scale_param {
    bias_term: true
  }
}
layer {
  name: "relu6"
  type: "ReLU"
  bottom: "fc6"
  top: "fc6"
}
layer {
  name: "drop6"
  type: "Dropout"
  bottom: "fc6"
  top: "fc6"
  dropout_param {
    dropout_ratio: 0.5
  }
}
layer {
  name: "fc7"
  type: "QuanInnerProduct"
  bottom: "fc6"
  top: "fc7"
  param {
    lr_mult: 1
    decay_mult: 1
  }
  param {
    lr_mult: 2
    decay_mult: 0
  }
  quan_inner_product_param {
    num_output: 4096
    weight_filler {
      type: "gaussian"
      std: 0.005
    }
    bias_filler {
      type: "constant"
      value: 0.1
    }
    bit_width: 8
    range_low: -0.1301088
    range_high: 0.1581472
  }
}
layer {
  name: "bn7"
  type: "BatchNorm"
  bottom: "fc7"
  top: "fc7"
}
layer {
  name: "scale7"
  type: "Scale"
  bottom: "fc7"
  top: "fc7"
  scale_param {
    bias_term: true
  }
}
layer {
  name: "relu7"
  type: "ReLU"
  bottom: "fc7"
  top: "fc7"
}
layer {
  name: "drop7"
  type: "Dropout"
  bottom: "fc7"
  top: "fc7"
  dropout_param {
    dropout_ratio: 0.5
  }
}
layer {
  name: "fc8"
  type: "QuanInnerProduct"
  bottom: "fc7"
  top: "fc8"
  param {
    lr_mult: 1
    decay_mult: 1
  }
  param {
    lr_mult: 2
    decay_mult: 0
  }
  quan_inner_product_param {
    num_output: 1000
    weight_filler {
      type: "gaussian"
      std: 0.01
    }
    bias_filler {
      type: "constant"
      value: 0
    }
    bit_width: 8
    range_low: -0.1134856
    range_high: 0.2193992
  }
}
layer {
  name: "accuracy"
  type: "Accuracy"
  bottom: "fc8"
  bottom: "label"
  top: "accuracy"
  include {
    phase: TEST
  }
}
layer {
  name: "accuracy_5"
  type: "Accuracy"
  bottom: "fc8"
  bottom: "label"
  top: "accuracy_5"
  include {
    phase: TEST
  }
  accuracy_param {
    top_k: 5
  }
}
layer {
  name: "loss"
  type: "SoftmaxWithLoss"
  bottom: "fc8"
  bottom: "label"
  top: "loss"
}
I0109 14:03:46.450927 57605 layer_factory.hpp:77] Creating layer data
I0109 14:03:46.475962 57605 db_lmdb.cpp:35] Opened lmdb /home/ydwu/database/imagenet/ilsvrc12/lmdb_resize/ilsvrc12_val_lmdb
I0109 14:03:46.476034 57605 net.cpp:84] Creating Layer data
I0109 14:03:46.476052 57605 net.cpp:380] data -> data
I0109 14:03:46.476066 57605 net.cpp:380] data -> label
I0109 14:03:46.476358 57605 data_layer.cpp:45] output data size: 200,3,224,224
I0109 14:03:46.837930 57605 net.cpp:122] Setting up data
I0109 14:03:46.837977 57605 net.cpp:129] Top shape: 200 3 224 224 (30105600)
I0109 14:03:46.837991 57605 net.cpp:129] Top shape: 200 (200)
I0109 14:03:46.838001 57605 net.cpp:137] Memory required for data: 120423200
I0109 14:03:46.838014 57605 layer_factory.hpp:77] Creating layer label_data_1_split
I0109 14:03:46.838037 57605 net.cpp:84] Creating Layer label_data_1_split
I0109 14:03:46.838047 57605 net.cpp:406] label_data_1_split <- label
I0109 14:03:46.838063 57605 net.cpp:380] label_data_1_split -> label_data_1_split_0
I0109 14:03:46.838083 57605 net.cpp:380] label_data_1_split -> label_data_1_split_1
I0109 14:03:46.838095 57605 net.cpp:380] label_data_1_split -> label_data_1_split_2
I0109 14:03:46.838165 57605 net.cpp:122] Setting up label_data_1_split
I0109 14:03:46.838181 57605 net.cpp:129] Top shape: 200 (200)
I0109 14:03:46.838192 57605 net.cpp:129] Top shape: 200 (200)
I0109 14:03:46.838202 57605 net.cpp:129] Top shape: 200 (200)
I0109 14:03:46.838210 57605 net.cpp:137] Memory required for data: 120425600
I0109 14:03:46.838220 57605 layer_factory.hpp:77] Creating layer conv1
I0109 14:03:46.838243 57605 net.cpp:84] Creating Layer conv1
I0109 14:03:46.838253 57605 net.cpp:406] conv1 <- data
I0109 14:03:46.838266 57605 net.cpp:380] conv1 -> conv1
ydwu=======get:
bit_width=8;  round_method=1;  round_strategy=2;  is_runtime=0;  range_low=-0.697671;  range_high=0.74162
I0109 14:03:46.857497 57605 net.cpp:122] Setting up conv1
I0109 14:03:46.857520 57605 net.cpp:129] Top shape: 200 96 55 55 (58080000)
I0109 14:03:46.857530 57605 net.cpp:137] Memory required for data: 352745600
I0109 14:03:46.857548 57605 layer_factory.hpp:77] Creating layer bn1
I0109 14:03:46.857564 57605 net.cpp:84] Creating Layer bn1
I0109 14:03:46.857574 57605 net.cpp:406] bn1 <- conv1
I0109 14:03:46.857587 57605 net.cpp:367] bn1 -> conv1 (in-place)
I0109 14:03:46.857820 57605 net.cpp:122] Setting up bn1
I0109 14:03:46.857837 57605 net.cpp:129] Top shape: 200 96 55 55 (58080000)
I0109 14:03:46.857847 57605 net.cpp:137] Memory required for data: 585065600
I0109 14:03:46.857864 57605 layer_factory.hpp:77] Creating layer scale1
I0109 14:03:46.857882 57605 net.cpp:84] Creating Layer scale1
I0109 14:03:46.857892 57605 net.cpp:406] scale1 <- conv1
I0109 14:03:46.857904 57605 net.cpp:367] scale1 -> conv1 (in-place)
I0109 14:03:46.857960 57605 layer_factory.hpp:77] Creating layer scale1
I0109 14:03:46.858098 57605 net.cpp:122] Setting up scale1
I0109 14:03:46.858115 57605 net.cpp:129] Top shape: 200 96 55 55 (58080000)
I0109 14:03:46.858125 57605 net.cpp:137] Memory required for data: 817385600
I0109 14:03:46.858175 57605 layer_factory.hpp:77] Creating layer relu1
I0109 14:03:46.858189 57605 net.cpp:84] Creating Layer relu1
I0109 14:03:46.858199 57605 net.cpp:406] relu1 <- conv1
I0109 14:03:46.858211 57605 net.cpp:367] relu1 -> conv1 (in-place)
I0109 14:03:46.858223 57605 net.cpp:122] Setting up relu1
I0109 14:03:46.858234 57605 net.cpp:129] Top shape: 200 96 55 55 (58080000)
I0109 14:03:46.858243 57605 net.cpp:137] Memory required for data: 1049705600
I0109 14:03:46.858253 57605 layer_factory.hpp:77] Creating layer pool1
I0109 14:03:46.858265 57605 net.cpp:84] Creating Layer pool1
I0109 14:03:46.858275 57605 net.cpp:406] pool1 <- conv1
I0109 14:03:46.858288 57605 net.cpp:380] pool1 -> pool1
I0109 14:03:46.858335 57605 net.cpp:122] Setting up pool1
I0109 14:03:46.858352 57605 net.cpp:129] Top shape: 200 96 27 27 (13996800)
I0109 14:03:46.858361 57605 net.cpp:137] Memory required for data: 1105692800
I0109 14:03:46.858371 57605 layer_factory.hpp:77] Creating layer conv2
I0109 14:03:46.858387 57605 net.cpp:84] Creating Layer conv2
I0109 14:03:46.858397 57605 net.cpp:406] conv2 <- pool1
I0109 14:03:46.858410 57605 net.cpp:380] conv2 -> conv2
ydwu=======get:
bit_width=8;  round_method=1;  round_strategy=2;  is_runtime=0;  range_low=-0.644814;  range_high=1.21456
I0109 14:03:46.878648 57605 net.cpp:122] Setting up conv2
I0109 14:03:46.878679 57605 net.cpp:129] Top shape: 200 256 27 27 (37324800)
I0109 14:03:46.878721 57605 net.cpp:137] Memory required for data: 1254992000
I0109 14:03:46.878746 57605 layer_factory.hpp:77] Creating layer bn2
I0109 14:03:46.878770 57605 net.cpp:84] Creating Layer bn2
I0109 14:03:46.878782 57605 net.cpp:406] bn2 <- conv2
I0109 14:03:46.878798 57605 net.cpp:367] bn2 -> conv2 (in-place)
I0109 14:03:46.879046 57605 net.cpp:122] Setting up bn2
I0109 14:03:46.879065 57605 net.cpp:129] Top shape: 200 256 27 27 (37324800)
I0109 14:03:46.879073 57605 net.cpp:137] Memory required for data: 1404291200
I0109 14:03:46.879088 57605 layer_factory.hpp:77] Creating layer scale2
I0109 14:03:46.879103 57605 net.cpp:84] Creating Layer scale2
I0109 14:03:46.879113 57605 net.cpp:406] scale2 <- conv2
I0109 14:03:46.879124 57605 net.cpp:367] scale2 -> conv2 (in-place)
I0109 14:03:46.879184 57605 layer_factory.hpp:77] Creating layer scale2
I0109 14:03:46.879305 57605 net.cpp:122] Setting up scale2
I0109 14:03:46.879323 57605 net.cpp:129] Top shape: 200 256 27 27 (37324800)
I0109 14:03:46.879333 57605 net.cpp:137] Memory required for data: 1553590400
I0109 14:03:46.879345 57605 layer_factory.hpp:77] Creating layer relu2
I0109 14:03:46.879359 57605 net.cpp:84] Creating Layer relu2
I0109 14:03:46.879367 57605 net.cpp:406] relu2 <- conv2
I0109 14:03:46.879379 57605 net.cpp:367] relu2 -> conv2 (in-place)
I0109 14:03:46.879391 57605 net.cpp:122] Setting up relu2
I0109 14:03:46.879402 57605 net.cpp:129] Top shape: 200 256 27 27 (37324800)
I0109 14:03:46.879411 57605 net.cpp:137] Memory required for data: 1702889600
I0109 14:03:46.879420 57605 layer_factory.hpp:77] Creating layer pool2
I0109 14:03:46.879433 57605 net.cpp:84] Creating Layer pool2
I0109 14:03:46.879442 57605 net.cpp:406] pool2 <- conv2
I0109 14:03:46.879454 57605 net.cpp:380] pool2 -> pool2
I0109 14:03:46.879518 57605 net.cpp:122] Setting up pool2
I0109 14:03:46.879536 57605 net.cpp:129] Top shape: 200 256 13 13 (8652800)
I0109 14:03:46.879546 57605 net.cpp:137] Memory required for data: 1737500800
I0109 14:03:46.879555 57605 layer_factory.hpp:77] Creating layer conv3
I0109 14:03:46.879575 57605 net.cpp:84] Creating Layer conv3
I0109 14:03:46.879585 57605 net.cpp:406] conv3 <- pool2
I0109 14:03:46.879597 57605 net.cpp:380] conv3 -> conv3
ydwu=======get:
bit_width=8;  round_method=1;  round_strategy=2;  is_runtime=0;  range_low=-0.497486;  range_high=0.539086
I0109 14:03:46.908525 57605 net.cpp:122] Setting up conv3
I0109 14:03:46.908557 57605 net.cpp:129] Top shape: 200 384 13 13 (12979200)
I0109 14:03:46.908567 57605 net.cpp:137] Memory required for data: 1789417600
I0109 14:03:46.908584 57605 layer_factory.hpp:77] Creating layer bn3
I0109 14:03:46.908604 57605 net.cpp:84] Creating Layer bn3
I0109 14:03:46.908617 57605 net.cpp:406] bn3 <- conv3
I0109 14:03:46.908632 57605 net.cpp:367] bn3 -> conv3 (in-place)
I0109 14:03:46.908820 57605 net.cpp:122] Setting up bn3
I0109 14:03:46.908920 57605 net.cpp:129] Top shape: 200 384 13 13 (12979200)
I0109 14:03:46.908931 57605 net.cpp:137] Memory required for data: 1841334400
I0109 14:03:46.908952 57605 layer_factory.hpp:77] Creating layer scale3
I0109 14:03:46.908968 57605 net.cpp:84] Creating Layer scale3
I0109 14:03:46.908978 57605 net.cpp:406] scale3 <- conv3
I0109 14:03:46.908989 57605 net.cpp:367] scale3 -> conv3 (in-place)
I0109 14:03:46.909047 57605 layer_factory.hpp:77] Creating layer scale3
I0109 14:03:46.909179 57605 net.cpp:122] Setting up scale3
I0109 14:03:46.909198 57605 net.cpp:129] Top shape: 200 384 13 13 (12979200)
I0109 14:03:46.909206 57605 net.cpp:137] Memory required for data: 1893251200
I0109 14:03:46.909219 57605 layer_factory.hpp:77] Creating layer relu3
I0109 14:03:46.909232 57605 net.cpp:84] Creating Layer relu3
I0109 14:03:46.909242 57605 net.cpp:406] relu3 <- conv3
I0109 14:03:46.909253 57605 net.cpp:367] relu3 -> conv3 (in-place)
I0109 14:03:46.909266 57605 net.cpp:122] Setting up relu3
I0109 14:03:46.909277 57605 net.cpp:129] Top shape: 200 384 13 13 (12979200)
I0109 14:03:46.909286 57605 net.cpp:137] Memory required for data: 1945168000
I0109 14:03:46.909296 57605 layer_factory.hpp:77] Creating layer conv4
I0109 14:03:46.909317 57605 net.cpp:84] Creating Layer conv4
I0109 14:03:46.909327 57605 net.cpp:406] conv4 <- conv3
I0109 14:03:46.909340 57605 net.cpp:380] conv4 -> conv4
ydwu=======get:
bit_width=8;  round_method=1;  round_strategy=2;  is_runtime=0;  range_low=-0.301307;  range_high=0.273463
I0109 14:03:46.952558 57605 net.cpp:122] Setting up conv4
I0109 14:03:46.952589 57605 net.cpp:129] Top shape: 200 384 13 13 (12979200)
I0109 14:03:46.952599 57605 net.cpp:137] Memory required for data: 1997084800
I0109 14:03:46.952615 57605 layer_factory.hpp:77] Creating layer bn4
I0109 14:03:46.952635 57605 net.cpp:84] Creating Layer bn4
I0109 14:03:46.952646 57605 net.cpp:406] bn4 <- conv4
I0109 14:03:46.952661 57605 net.cpp:367] bn4 -> conv4 (in-place)
I0109 14:03:46.952852 57605 net.cpp:122] Setting up bn4
I0109 14:03:46.952868 57605 net.cpp:129] Top shape: 200 384 13 13 (12979200)
I0109 14:03:46.952878 57605 net.cpp:137] Memory required for data: 2049001600
I0109 14:03:46.952893 57605 layer_factory.hpp:77] Creating layer scale4
I0109 14:03:46.952908 57605 net.cpp:84] Creating Layer scale4
I0109 14:03:46.952916 57605 net.cpp:406] scale4 <- conv4
I0109 14:03:46.952929 57605 net.cpp:367] scale4 -> conv4 (in-place)
I0109 14:03:46.952985 57605 layer_factory.hpp:77] Creating layer scale4
I0109 14:03:46.953107 57605 net.cpp:122] Setting up scale4
I0109 14:03:46.953125 57605 net.cpp:129] Top shape: 200 384 13 13 (12979200)
I0109 14:03:46.953135 57605 net.cpp:137] Memory required for data: 2100918400
I0109 14:03:46.953147 57605 layer_factory.hpp:77] Creating layer relu4
I0109 14:03:46.953161 57605 net.cpp:84] Creating Layer relu4
I0109 14:03:46.953171 57605 net.cpp:406] relu4 <- conv4
I0109 14:03:46.953182 57605 net.cpp:367] relu4 -> conv4 (in-place)
I0109 14:03:46.953194 57605 net.cpp:122] Setting up relu4
I0109 14:03:46.953205 57605 net.cpp:129] Top shape: 200 384 13 13 (12979200)
I0109 14:03:46.953214 57605 net.cpp:137] Memory required for data: 2152835200
I0109 14:03:46.953223 57605 layer_factory.hpp:77] Creating layer conv5
I0109 14:03:46.953241 57605 net.cpp:84] Creating Layer conv5
I0109 14:03:46.953251 57605 net.cpp:406] conv5 <- conv4
I0109 14:03:46.953264 57605 net.cpp:380] conv5 -> conv5
ydwu=======get:
bit_width=8;  round_method=1;  round_strategy=2;  is_runtime=0;  range_low=-0.278126;  range_high=0.264034
I0109 14:03:46.982031 57605 net.cpp:122] Setting up conv5
I0109 14:03:46.982065 57605 net.cpp:129] Top shape: 200 256 13 13 (8652800)
I0109 14:03:46.982075 57605 net.cpp:137] Memory required for data: 2187446400
I0109 14:03:46.982091 57605 layer_factory.hpp:77] Creating layer bn5
I0109 14:03:46.982111 57605 net.cpp:84] Creating Layer bn5
I0109 14:03:46.982123 57605 net.cpp:406] bn5 <- conv5
I0109 14:03:46.982139 57605 net.cpp:367] bn5 -> conv5 (in-place)
I0109 14:03:46.982331 57605 net.cpp:122] Setting up bn5
I0109 14:03:46.982347 57605 net.cpp:129] Top shape: 200 256 13 13 (8652800)
I0109 14:03:46.982357 57605 net.cpp:137] Memory required for data: 2222057600
I0109 14:03:46.982379 57605 layer_factory.hpp:77] Creating layer scale5
I0109 14:03:46.982435 57605 net.cpp:84] Creating Layer scale5
I0109 14:03:46.982447 57605 net.cpp:406] scale5 <- conv5
I0109 14:03:46.982458 57605 net.cpp:367] scale5 -> conv5 (in-place)
I0109 14:03:46.982566 57605 layer_factory.hpp:77] Creating layer scale5
I0109 14:03:46.982686 57605 net.cpp:122] Setting up scale5
I0109 14:03:46.982703 57605 net.cpp:129] Top shape: 200 256 13 13 (8652800)
I0109 14:03:46.982713 57605 net.cpp:137] Memory required for data: 2256668800
I0109 14:03:46.982725 57605 layer_factory.hpp:77] Creating layer relu5
I0109 14:03:46.982738 57605 net.cpp:84] Creating Layer relu5
I0109 14:03:46.982748 57605 net.cpp:406] relu5 <- conv5
I0109 14:03:46.982759 57605 net.cpp:367] relu5 -> conv5 (in-place)
I0109 14:03:46.982771 57605 net.cpp:122] Setting up relu5
I0109 14:03:46.982782 57605 net.cpp:129] Top shape: 200 256 13 13 (8652800)
I0109 14:03:46.982791 57605 net.cpp:137] Memory required for data: 2291280000
I0109 14:03:46.982800 57605 layer_factory.hpp:77] Creating layer pool5
I0109 14:03:46.982813 57605 net.cpp:84] Creating Layer pool5
I0109 14:03:46.982823 57605 net.cpp:406] pool5 <- conv5
I0109 14:03:46.982836 57605 net.cpp:380] pool5 -> pool5
I0109 14:03:46.982884 57605 net.cpp:122] Setting up pool5
I0109 14:03:46.982902 57605 net.cpp:129] Top shape: 200 256 6 6 (1843200)
I0109 14:03:46.982910 57605 net.cpp:137] Memory required for data: 2298652800
I0109 14:03:46.982919 57605 layer_factory.hpp:77] Creating layer fc6
I0109 14:03:46.982934 57605 net.cpp:84] Creating Layer fc6
I0109 14:03:46.982944 57605 net.cpp:406] fc6 <- pool5
I0109 14:03:46.982978 57605 net.cpp:380] fc6 -> fc6
I0109 14:03:46.982995 57605 quan_inner_product_layer.cpp:21] 4096   4096
ydwu=======get:
bit_width=8;  round_method=1;  round_strategy=2;  is_runtime=0;  range_low=-0.128049;  range_high=0.118451
I0109 14:03:48.173120 57605 net.cpp:122] Setting up fc6
I0109 14:03:48.173151 57605 net.cpp:129] Top shape: 200 4096 (819200)
I0109 14:03:48.173161 57605 net.cpp:137] Memory required for data: 2301929600
I0109 14:03:48.173178 57605 layer_factory.hpp:77] Creating layer bn6
I0109 14:03:48.173197 57605 net.cpp:84] Creating Layer bn6
I0109 14:03:48.173209 57605 net.cpp:406] bn6 <- fc6
I0109 14:03:48.173224 57605 net.cpp:367] bn6 -> fc6 (in-place)
I0109 14:03:48.173434 57605 net.cpp:122] Setting up bn6
I0109 14:03:48.173450 57605 net.cpp:129] Top shape: 200 4096 (819200)
I0109 14:03:48.173460 57605 net.cpp:137] Memory required for data: 2305206400
I0109 14:03:48.173475 57605 layer_factory.hpp:77] Creating layer scale6
I0109 14:03:48.173490 57605 net.cpp:84] Creating Layer scale6
I0109 14:03:48.173498 57605 net.cpp:406] scale6 <- fc6
I0109 14:03:48.173513 57605 net.cpp:367] scale6 -> fc6 (in-place)
I0109 14:03:48.173568 57605 layer_factory.hpp:77] Creating layer scale6
I0109 14:03:48.173703 57605 net.cpp:122] Setting up scale6
I0109 14:03:48.173722 57605 net.cpp:129] Top shape: 200 4096 (819200)
I0109 14:03:48.173732 57605 net.cpp:137] Memory required for data: 2308483200
I0109 14:03:48.173744 57605 layer_factory.hpp:77] Creating layer relu6
I0109 14:03:48.173758 57605 net.cpp:84] Creating Layer relu6
I0109 14:03:48.173768 57605 net.cpp:406] relu6 <- fc6
I0109 14:03:48.173777 57605 net.cpp:367] relu6 -> fc6 (in-place)
I0109 14:03:48.173789 57605 net.cpp:122] Setting up relu6
I0109 14:03:48.173800 57605 net.cpp:129] Top shape: 200 4096 (819200)
I0109 14:03:48.173810 57605 net.cpp:137] Memory required for data: 2311760000
I0109 14:03:48.173817 57605 layer_factory.hpp:77] Creating layer drop6
I0109 14:03:48.173830 57605 net.cpp:84] Creating Layer drop6
I0109 14:03:48.173840 57605 net.cpp:406] drop6 <- fc6
I0109 14:03:48.173853 57605 net.cpp:367] drop6 -> fc6 (in-place)
I0109 14:03:48.173887 57605 net.cpp:122] Setting up drop6
I0109 14:03:48.173904 57605 net.cpp:129] Top shape: 200 4096 (819200)
I0109 14:03:48.173914 57605 net.cpp:137] Memory required for data: 2315036800
I0109 14:03:48.173923 57605 layer_factory.hpp:77] Creating layer fc7
I0109 14:03:48.173938 57605 net.cpp:84] Creating Layer fc7
I0109 14:03:48.173948 57605 net.cpp:406] fc7 <- fc6
I0109 14:03:48.173961 57605 net.cpp:380] fc7 -> fc7
I0109 14:03:48.173976 57605 quan_inner_product_layer.cpp:21] 4096   4096
ydwu=======get:
bit_width=8;  round_method=1;  round_strategy=2;  is_runtime=0;  range_low=-0.130109;  range_high=0.158147
I0109 14:03:48.686763 57605 net.cpp:122] Setting up fc7
I0109 14:03:48.686794 57605 net.cpp:129] Top shape: 200 4096 (819200)
I0109 14:03:48.686802 57605 net.cpp:137] Memory required for data: 2318313600
I0109 14:03:48.686820 57605 layer_factory.hpp:77] Creating layer bn7
I0109 14:03:48.686839 57605 net.cpp:84] Creating Layer bn7
I0109 14:03:48.686851 57605 net.cpp:406] bn7 <- fc7
I0109 14:03:48.686864 57605 net.cpp:367] bn7 -> fc7 (in-place)
I0109 14:03:48.687111 57605 net.cpp:122] Setting up bn7
I0109 14:03:48.687129 57605 net.cpp:129] Top shape: 200 4096 (819200)
I0109 14:03:48.687139 57605 net.cpp:137] Memory required for data: 2321590400
I0109 14:03:48.687152 57605 layer_factory.hpp:77] Creating layer scale7
I0109 14:03:48.687177 57605 net.cpp:84] Creating Layer scale7
I0109 14:03:48.687188 57605 net.cpp:406] scale7 <- fc7
I0109 14:03:48.687199 57605 net.cpp:367] scale7 -> fc7 (in-place)
I0109 14:03:48.687254 57605 layer_factory.hpp:77] Creating layer scale7
I0109 14:03:48.687386 57605 net.cpp:122] Setting up scale7
I0109 14:03:48.687423 57605 net.cpp:129] Top shape: 200 4096 (819200)
I0109 14:03:48.687433 57605 net.cpp:137] Memory required for data: 2324867200
I0109 14:03:48.687445 57605 layer_factory.hpp:77] Creating layer relu7
I0109 14:03:48.687461 57605 net.cpp:84] Creating Layer relu7
I0109 14:03:48.687471 57605 net.cpp:406] relu7 <- fc7
I0109 14:03:48.687482 57605 net.cpp:367] relu7 -> fc7 (in-place)
I0109 14:03:48.687494 57605 net.cpp:122] Setting up relu7
I0109 14:03:48.687505 57605 net.cpp:129] Top shape: 200 4096 (819200)
I0109 14:03:48.687512 57605 net.cpp:137] Memory required for data: 2328144000
I0109 14:03:48.687521 57605 layer_factory.hpp:77] Creating layer drop7
I0109 14:03:48.687536 57605 net.cpp:84] Creating Layer drop7
I0109 14:03:48.687546 57605 net.cpp:406] drop7 <- fc7
I0109 14:03:48.687556 57605 net.cpp:367] drop7 -> fc7 (in-place)
I0109 14:03:48.687589 57605 net.cpp:122] Setting up drop7
I0109 14:03:48.687604 57605 net.cpp:129] Top shape: 200 4096 (819200)
I0109 14:03:48.687613 57605 net.cpp:137] Memory required for data: 2331420800
I0109 14:03:48.687625 57605 layer_factory.hpp:77] Creating layer fc8
I0109 14:03:48.687641 57605 net.cpp:84] Creating Layer fc8
I0109 14:03:48.687651 57605 net.cpp:406] fc8 <- fc7
I0109 14:03:48.687662 57605 net.cpp:380] fc8 -> fc8
I0109 14:03:48.687676 57605 quan_inner_product_layer.cpp:21] 1000   1000
ydwu=======get:
bit_width=8;  round_method=1;  round_strategy=2;  is_runtime=0;  range_low=-0.113486;  range_high=0.219399
I0109 14:03:48.809151 57605 net.cpp:122] Setting up fc8
I0109 14:03:48.809180 57605 net.cpp:129] Top shape: 200 1000 (200000)
I0109 14:03:48.809190 57605 net.cpp:137] Memory required for data: 2332220800
I0109 14:03:48.809206 57605 layer_factory.hpp:77] Creating layer fc8_fc8_0_split
I0109 14:03:48.809223 57605 net.cpp:84] Creating Layer fc8_fc8_0_split
I0109 14:03:48.809236 57605 net.cpp:406] fc8_fc8_0_split <- fc8
I0109 14:03:48.809252 57605 net.cpp:380] fc8_fc8_0_split -> fc8_fc8_0_split_0
I0109 14:03:48.809273 57605 net.cpp:380] fc8_fc8_0_split -> fc8_fc8_0_split_1
I0109 14:03:48.809284 57605 net.cpp:380] fc8_fc8_0_split -> fc8_fc8_0_split_2
I0109 14:03:48.809353 57605 net.cpp:122] Setting up fc8_fc8_0_split
I0109 14:03:48.809370 57605 net.cpp:129] Top shape: 200 1000 (200000)
I0109 14:03:48.809379 57605 net.cpp:129] Top shape: 200 1000 (200000)
I0109 14:03:48.809388 57605 net.cpp:129] Top shape: 200 1000 (200000)
I0109 14:03:48.809396 57605 net.cpp:137] Memory required for data: 2334620800
I0109 14:03:48.809404 57605 layer_factory.hpp:77] Creating layer accuracy
I0109 14:03:48.809418 57605 net.cpp:84] Creating Layer accuracy
I0109 14:03:48.809427 57605 net.cpp:406] accuracy <- fc8_fc8_0_split_0
I0109 14:03:48.809437 57605 net.cpp:406] accuracy <- label_data_1_split_0
I0109 14:03:48.809458 57605 net.cpp:380] accuracy -> accuracy
…
