…
I0108 19:03:06.189196 45666 net.cpp:294] The NetState phase (0) differed from the phase (1) specified by a rule in layer accuracy_5
I0108 19:03:06.189425 45666 net.cpp:51] Initializing net from parameters: 
name: "AlexNet-BN"
state {
  phase: TRAIN
  level: 0
  stage: ""
}
layer {
  name: "data"
  type: "Data"
  top: "data"
  top: "label"
  include {
    phase: TRAIN
  }
  transform_param {
    mirror: true
    crop_size: 224
    mean_value: 103.939
    mean_value: 116.779
    mean_value: 123.68
  }
  data_param {
    source: "/home/ydwu/database/imagenet/ilsvrc12/lmdb_resize/ilsvrc12_train_lmdb"
    batch_size: 200
    backend: LMDB
  }
}
layer {
  name: "conv1"
  type: "QuanConvolution"
  bottom: "data"
  top: "conv1"
  param {
    lr_mult: 1
    decay_mult: 1
  }
  param {
    lr_mult: 2
    decay_mult: 0
  }
  quan_convolution_param {
    num_output: 96
    pad: 2
    kernel_size: 11
    stride: 4
    weight_filler {
      type: "gaussian"
      std: 0.01
    }
    bias_filler {
      type: "constant"
      value: 0
    }
    bit_width: 8
    range_low: -0.69767118
    range_high: 0.74162
  }
}
layer {
  name: "bn1"
  type: "BatchNorm"
  bottom: "conv1"
  top: "conv1"
}
layer {
  name: "scale1"
  type: "Scale"
  bottom: "conv1"
  top: "conv1"
  scale_param {
    bias_term: true
  }
}
layer {
  name: "relu1"
  type: "ReLU"
  bottom: "conv1"
  top: "conv1"
}
layer {
  name: "pool1"
  type: "Pooling"
  bottom: "conv1"
  top: "pool1"
  pooling_param {
    pool: MAX
    kernel_size: 3
    stride: 2
  }
}
layer {
  name: "conv2"
  type: "QuanConvolution"
  bottom: "pool1"
  top: "conv2"
  param {
    lr_mult: 1
    decay_mult: 1
  }
  param {
    lr_mult: 2
    decay_mult: 0
  }
  quan_convolution_param {
    num_output: 256
    pad: 2
    kernel_size: 5
    weight_filler {
      type: "gaussian"
      std: 0.01
    }
    bias_filler {
      type: "constant"
      value: 0.1
    }
    bit_width: 8
    range_low: -0.64481437
    range_high: 1.21456
  }
}
layer {
  name: "bn2"
  type: "BatchNorm"
  bottom: "conv2"
  top: "conv2"
}
layer {
  name: "scale2"
  type: "Scale"
  bottom: "conv2"
  top: "conv2"
  scale_param {
    bias_term: true
  }
}
layer {
  name: "relu2"
  type: "ReLU"
  bottom: "conv2"
  top: "conv2"
}
layer {
  name: "pool2"
  type: "Pooling"
  bottom: "conv2"
  top: "pool2"
  pooling_param {
    pool: MAX
    kernel_size: 3
    stride: 2
  }
}
layer {
  name: "conv3"
  type: "QuanConvolution"
  bottom: "pool2"
  top: "conv3"
  param {
    lr_mult: 1
    decay_mult: 1
  }
  param {
    lr_mult: 2
    decay_mult: 0
  }
  quan_convolution_param {
    num_output: 384
    pad: 1
    kernel_size: 3
    weight_filler {
      type: "gaussian"
      std: 0.01
    }
    bias_filler {
      type: "constant"
      value: 0
    }
    bit_width: 8
    range_low: -0.49748641
    range_high: 0.5390864
  }
}
layer {
  name: "bn3"
  type: "BatchNorm"
  bottom: "conv3"
  top: "conv3"
}
layer {
  name: "scale3"
  type: "Scale"
  bottom: "conv3"
  top: "conv3"
  scale_param {
    bias_term: true
  }
}
layer {
  name: "relu3"
  type: "ReLU"
  bottom: "conv3"
  top: "conv3"
}
layer {
  name: "conv4"
  type: "QuanConvolution"
  bottom: "conv3"
  top: "conv4"
  param {
    lr_mult: 1
    decay_mult: 1
  }
  param {
    lr_mult: 2
    decay_mult: 0
  }
  quan_convolution_param {
    num_output: 384
    pad: 1
    kernel_size: 3
    weight_filler {
      type: "gaussian"
      std: 0.01
    }
    bias_filler {
      type: "constant"
      value: 0.1
    }
    bit_width: 8
    range_low: -0.3013072
    range_high: 0.27346319
  }
}
layer {
  name: "bn4"
  type: "BatchNorm"
  bottom: "conv4"
  top: "conv4"
}
layer {
  name: "scale4"
  type: "Scale"
  bottom: "conv4"
  top: "conv4"
  scale_param {
    bias_term: true
  }
}
layer {
  name: "relu4"
  type: "ReLU"
  bottom: "conv4"
  top: "conv4"
}
layer {
  name: "conv5"
  type: "QuanConvolution"
  bottom: "conv4"
  top: "conv5"
  param {
    lr_mult: 1
    decay_mult: 1
  }
  param {
    lr_mult: 2
    decay_mult: 0
  }
  quan_convolution_param {
    num_output: 256
    pad: 1
    kernel_size: 3
    weight_filler {
      type: "gaussian"
      std: 0.01
    }
    bias_filler {
      type: "constant"
      value: 0.1
    }
    bit_width: 8
    range_low: -0.27812639
    range_high: 0.26403359
  }
}
layer {
  name: "bn5"
  type: "BatchNorm"
  bottom: "conv5"
  top: "conv5"
}
layer {
  name: "scale5"
  type: "Scale"
  bottom: "conv5"
  top: "conv5"
  scale_param {
    bias_term: true
  }
}
layer {
  name: "relu5"
  type: "ReLU"
  bottom: "conv5"
  top: "conv5"
}
layer {
  name: "pool5"
  type: "Pooling"
  bottom: "conv5"
  top: "pool5"
  pooling_param {
    pool: MAX
    kernel_size: 3
    stride: 2
  }
}
layer {
  name: "fc6"
  type: "QuanInnerProduct"
  bottom: "pool5"
  top: "fc6"
  param {
    lr_mult: 1
    decay_mult: 1
  }
  param {
    lr_mult: 2
    decay_mult: 0
  }
  quan_inner_product_param {
    num_output: 4096
    weight_filler {
      type: "gaussian"
      std: 0.005
    }
    bias_filler {
      type: "constant"
      value: 0.1
    }
    bit_width: 8
    range_low: -0.12804881
    range_high: 0.1184512
  }
}
layer {
  name: "bn6"
  type: "BatchNorm"
  bottom: "fc6"
  top: "fc6"
}
layer {
  name: "scale6"
  type: "Scale"
  bottom: "fc6"
  top: "fc6"
  scale_param {
    bias_term: true
  }
}
layer {
  name: "relu6"
  type: "ReLU"
  bottom: "fc6"
  top: "fc6"
}
layer {
  name: "drop6"
  type: "Dropout"
  bottom: "fc6"
  top: "fc6"
  dropout_param {
    dropout_ratio: 0.5
  }
}
layer {
  name: "fc7"
  type: "QuanInnerProduct"
  bottom: "fc6"
  top: "fc7"
  param {
    lr_mult: 1
    decay_mult: 1
  }
  param {
    lr_mult: 2
    decay_mult: 0
  }
  quan_inner_product_param {
    num_output: 4096
    weight_filler {
      type: "gaussian"
      std: 0.005
    }
    bias_filler {
      type: "constant"
      value: 0.1
    }
    bit_width: 8
    range_low: -0.1301088
    range_high: 0.1581472
  }
}
layer {
  name: "bn7"
  type: "BatchNorm"
  bottom: "fc7"
  top: "fc7"
}
layer {
  name: "scale7"
  type: "Scale"
  bottom: "fc7"
  top: "fc7"
  scale_param {
    bias_term: true
  }
}
layer {
  name: "relu7"
  type: "ReLU"
  bottom: "fc7"
  top: "fc7"
}
layer {
  name: "drop7"
  type: "Dropout"
  bottom: "fc7"
  top: "fc7"
  dropout_param {
    dropout_ratio: 0.5
  }
}
layer {
  name: "fc8"
  type: "QuanInnerProduct"
  bottom: "fc7"
  top: "fc8"
  param {
    lr_mult: 1
    decay_mult: 1
  }
  param {
    lr_mult: 2
    decay_mult: 0
  }
  quan_inner_product_param {
    num_output: 1000
    weight_filler {
      type: "gaussian"
      std: 0.01
    }
    bias_filler {
      type: "constant"
      value: 0
    }
    bit_width: 8
    range_low: -0.1134856
    range_high: 0.2193992
  }
}
layer {
  name: "accuracy_5_TRAIN"
  type: "Accuracy"
  bottom: "fc8"
  bottom: "label"
  top: "accuracy_5_TRAIN"
  include {
    phase: TRAIN
  }
  accuracy_param {
    top_k: 5
  }
}
layer {
  name: "loss"
  type: "SoftmaxWithLoss"
  bottom: "fc8"
  bottom: "label"
  top: "loss"
}
I0108 19:03:06.189631 45666 layer_factory.hpp:77] Creating layer data
I0108 19:03:06.189745 45666 db_lmdb.cpp:35] Opened lmdb /home/ydwu/database/imagenet/ilsvrc12/lmdb_resize/ilsvrc12_train_lmdb
I0108 19:03:06.189801 45666 net.cpp:84] Creating Layer data
I0108 19:03:06.189823 45666 net.cpp:380] data -> data
I0108 19:03:06.189857 45666 net.cpp:380] data -> label
I0108 19:03:06.191473 45666 data_layer.cpp:45] output data size: 200,3,224,224
I0108 19:03:06.545881 45666 net.cpp:122] Setting up data
I0108 19:03:06.545985 45666 net.cpp:129] Top shape: 200 3 224 224 (30105600)
I0108 19:03:06.546000 45666 net.cpp:129] Top shape: 200 (200)
I0108 19:03:06.546010 45666 net.cpp:137] Memory required for data: 120423200
I0108 19:03:06.546027 45666 layer_factory.hpp:77] Creating layer label_data_1_split
I0108 19:03:06.546051 45666 net.cpp:84] Creating Layer label_data_1_split
I0108 19:03:06.546066 45666 net.cpp:406] label_data_1_split <- label
I0108 19:03:06.546092 45666 net.cpp:380] label_data_1_split -> label_data_1_split_0
I0108 19:03:06.546111 45666 net.cpp:380] label_data_1_split -> label_data_1_split_1
I0108 19:03:06.546162 45666 net.cpp:122] Setting up label_data_1_split
I0108 19:03:06.546178 45666 net.cpp:129] Top shape: 200 (200)
I0108 19:03:06.546188 45666 net.cpp:129] Top shape: 200 (200)
I0108 19:03:06.546196 45666 net.cpp:137] Memory required for data: 120424800
I0108 19:03:06.546205 45666 layer_factory.hpp:77] Creating layer conv1
I0108 19:03:06.546236 45666 net.cpp:84] Creating Layer conv1
I0108 19:03:06.546247 45666 net.cpp:406] conv1 <- data
I0108 19:03:06.546259 45666 net.cpp:380] conv1 -> conv1
ydwu=======get:
bit_width=8;  round_method=1;  round_strategy=2;  is_runtime=0;  range_low=-0.697671;  range_high=0.74162
I0108 19:03:06.567193 45666 net.cpp:122] Setting up conv1
I0108 19:03:06.567214 45666 net.cpp:129] Top shape: 200 96 55 55 (58080000)
I0108 19:03:06.567222 45666 net.cpp:137] Memory required for data: 352744800
I0108 19:03:06.567245 45666 layer_factory.hpp:77] Creating layer bn1
I0108 19:03:06.567281 45666 net.cpp:84] Creating Layer bn1
I0108 19:03:06.567291 45666 net.cpp:406] bn1 <- conv1
I0108 19:03:06.567301 45666 net.cpp:367] bn1 -> conv1 (in-place)
I0108 19:03:06.567474 45666 net.cpp:122] Setting up bn1
I0108 19:03:06.567492 45666 net.cpp:129] Top shape: 200 96 55 55 (58080000)
I0108 19:03:06.567502 45666 net.cpp:137] Memory required for data: 585064800
I0108 19:03:06.567517 45666 layer_factory.hpp:77] Creating layer scale1
I0108 19:03:06.567534 45666 net.cpp:84] Creating Layer scale1
I0108 19:03:06.567544 45666 net.cpp:406] scale1 <- conv1
I0108 19:03:06.567555 45666 net.cpp:367] scale1 -> conv1 (in-place)
I0108 19:03:06.567610 45666 layer_factory.hpp:77] Creating layer scale1
I0108 19:03:06.567734 45666 net.cpp:122] Setting up scale1
I0108 19:03:06.567751 45666 net.cpp:129] Top shape: 200 96 55 55 (58080000)
I0108 19:03:06.567760 45666 net.cpp:137] Memory required for data: 817384800
I0108 19:03:06.567772 45666 layer_factory.hpp:77] Creating layer relu1
I0108 19:03:06.567788 45666 net.cpp:84] Creating Layer relu1
I0108 19:03:06.567798 45666 net.cpp:406] relu1 <- conv1
I0108 19:03:06.567809 45666 net.cpp:367] relu1 -> conv1 (in-place)
I0108 19:03:06.567823 45666 net.cpp:122] Setting up relu1
I0108 19:03:06.567833 45666 net.cpp:129] Top shape: 200 96 55 55 (58080000)
I0108 19:03:06.567842 45666 net.cpp:137] Memory required for data: 1049704800
I0108 19:03:06.567850 45666 layer_factory.hpp:77] Creating layer pool1
I0108 19:03:06.567863 45666 net.cpp:84] Creating Layer pool1
I0108 19:03:06.567873 45666 net.cpp:406] pool1 <- conv1
I0108 19:03:06.567883 45666 net.cpp:380] pool1 -> pool1
I0108 19:03:06.567937 45666 net.cpp:122] Setting up pool1
I0108 19:03:06.567953 45666 net.cpp:129] Top shape: 200 96 27 27 (13996800)
I0108 19:03:06.567962 45666 net.cpp:137] Memory required for data: 1105692000
I0108 19:03:06.567971 45666 layer_factory.hpp:77] Creating layer conv2
I0108 19:03:06.567987 45666 net.cpp:84] Creating Layer conv2
I0108 19:03:06.567997 45666 net.cpp:406] conv2 <- pool1
I0108 19:03:06.568008 45666 net.cpp:380] conv2 -> conv2
ydwu=======get:
bit_width=8;  round_method=1;  round_strategy=2;  is_runtime=0;  range_low=-0.644814;  range_high=1.21456
I0108 19:03:06.587754 45666 net.cpp:122] Setting up conv2
I0108 19:03:06.587785 45666 net.cpp:129] Top shape: 200 256 27 27 (37324800)
I0108 19:03:06.587795 45666 net.cpp:137] Memory required for data: 1254991200
I0108 19:03:06.587816 45666 layer_factory.hpp:77] Creating layer bn2
I0108 19:03:06.587838 45666 net.cpp:84] Creating Layer bn2
I0108 19:03:06.587848 45666 net.cpp:406] bn2 <- conv2
I0108 19:03:06.587862 45666 net.cpp:367] bn2 -> conv2 (in-place)
I0108 19:03:06.588059 45666 net.cpp:122] Setting up bn2
I0108 19:03:06.588076 45666 net.cpp:129] Top shape: 200 256 27 27 (37324800)
I0108 19:03:06.588085 45666 net.cpp:137] Memory required for data: 1404290400
I0108 19:03:06.588099 45666 layer_factory.hpp:77] Creating layer scale2
I0108 19:03:06.588114 45666 net.cpp:84] Creating Layer scale2
I0108 19:03:06.588122 45666 net.cpp:406] scale2 <- conv2
I0108 19:03:06.588132 45666 net.cpp:367] scale2 -> conv2 (in-place)
I0108 19:03:06.588186 45666 layer_factory.hpp:77] Creating layer scale2
I0108 19:03:06.588286 45666 net.cpp:122] Setting up scale2
I0108 19:03:06.588302 45666 net.cpp:129] Top shape: 200 256 27 27 (37324800)
I0108 19:03:06.588311 45666 net.cpp:137] Memory required for data: 1553589600
I0108 19:03:06.588323 45666 layer_factory.hpp:77] Creating layer relu2
I0108 19:03:06.588335 45666 net.cpp:84] Creating Layer relu2
I0108 19:03:06.588344 45666 net.cpp:406] relu2 <- conv2
I0108 19:03:06.588356 45666 net.cpp:367] relu2 -> conv2 (in-place)
I0108 19:03:06.588367 45666 net.cpp:122] Setting up relu2
I0108 19:03:06.588377 45666 net.cpp:129] Top shape: 200 256 27 27 (37324800)
I0108 19:03:06.588387 45666 net.cpp:137] Memory required for data: 1702888800
I0108 19:03:06.588394 45666 layer_factory.hpp:77] Creating layer pool2
I0108 19:03:06.588407 45666 net.cpp:84] Creating Layer pool2
I0108 19:03:06.588415 45666 net.cpp:406] pool2 <- conv2
I0108 19:03:06.588428 45666 net.cpp:380] pool2 -> pool2
I0108 19:03:06.588470 45666 net.cpp:122] Setting up pool2
I0108 19:03:06.588485 45666 net.cpp:129] Top shape: 200 256 13 13 (8652800)
I0108 19:03:06.588493 45666 net.cpp:137] Memory required for data: 1737500000
I0108 19:03:06.588502 45666 layer_factory.hpp:77] Creating layer conv3
I0108 19:03:06.588521 45666 net.cpp:84] Creating Layer conv3
I0108 19:03:06.588531 45666 net.cpp:406] conv3 <- pool2
I0108 19:03:06.588543 45666 net.cpp:380] conv3 -> conv3
ydwu=======get:
bit_width=8;  round_method=1;  round_strategy=2;  is_runtime=0;  range_low=-0.497486;  range_high=0.539086
I0108 19:03:06.615011 45666 net.cpp:122] Setting up conv3
I0108 19:03:06.615042 45666 net.cpp:129] Top shape: 200 384 13 13 (12979200)
I0108 19:03:06.615053 45666 net.cpp:137] Memory required for data: 1789416800
I0108 19:03:06.615068 45666 layer_factory.hpp:77] Creating layer bn3
I0108 19:03:06.615087 45666 net.cpp:84] Creating Layer bn3
I0108 19:03:06.615100 45666 net.cpp:406] bn3 <- conv3
I0108 19:03:06.615118 45666 net.cpp:367] bn3 -> conv3 (in-place)
I0108 19:03:06.615283 45666 net.cpp:122] Setting up bn3
I0108 19:03:06.615298 45666 net.cpp:129] Top shape: 200 384 13 13 (12979200)
I0108 19:03:06.615308 45666 net.cpp:137] Memory required for data: 1841333600
I0108 19:03:06.615326 45666 layer_factory.hpp:77] Creating layer scale3
I0108 19:03:06.615342 45666 net.cpp:84] Creating Layer scale3
I0108 19:03:06.615351 45666 net.cpp:406] scale3 <- conv3
I0108 19:03:06.615362 45666 net.cpp:367] scale3 -> conv3 (in-place)
I0108 19:03:06.615411 45666 layer_factory.hpp:77] Creating layer scale3
I0108 19:03:06.615519 45666 net.cpp:122] Setting up scale3
I0108 19:03:06.615535 45666 net.cpp:129] Top shape: 200 384 13 13 (12979200)
I0108 19:03:06.615543 45666 net.cpp:137] Memory required for data: 1893250400
I0108 19:03:06.615556 45666 layer_factory.hpp:77] Creating layer relu3
I0108 19:03:06.615568 45666 net.cpp:84] Creating Layer relu3
I0108 19:03:06.615577 45666 net.cpp:406] relu3 <- conv3
I0108 19:03:06.615588 45666 net.cpp:367] relu3 -> conv3 (in-place)
I0108 19:03:06.615600 45666 net.cpp:122] Setting up relu3
I0108 19:03:06.615620 45666 net.cpp:129] Top shape: 200 384 13 13 (12979200)
I0108 19:03:06.615629 45666 net.cpp:137] Memory required for data: 1945167200
I0108 19:03:06.615638 45666 layer_factory.hpp:77] Creating layer conv4
I0108 19:03:06.615658 45666 net.cpp:84] Creating Layer conv4
I0108 19:03:06.615669 45666 net.cpp:406] conv4 <- conv3
I0108 19:03:06.615681 45666 net.cpp:380] conv4 -> conv4
ydwu=======get:
bit_width=8;  round_method=1;  round_strategy=2;  is_runtime=0;  range_low=-0.301307;  range_high=0.273463
I0108 19:03:06.655112 45666 net.cpp:122] Setting up conv4
I0108 19:03:06.655149 45666 net.cpp:129] Top shape: 200 384 13 13 (12979200)
I0108 19:03:06.655159 45666 net.cpp:137] Memory required for data: 1997084000
I0108 19:03:06.655216 45666 layer_factory.hpp:77] Creating layer bn4
I0108 19:03:06.655239 45666 net.cpp:84] Creating Layer bn4
I0108 19:03:06.655251 45666 net.cpp:406] bn4 <- conv4
I0108 19:03:06.655266 45666 net.cpp:367] bn4 -> conv4 (in-place)
I0108 19:03:06.655431 45666 net.cpp:122] Setting up bn4
I0108 19:03:06.655447 45666 net.cpp:129] Top shape: 200 384 13 13 (12979200)
I0108 19:03:06.655455 45666 net.cpp:137] Memory required for data: 2049000800
I0108 19:03:06.655468 45666 layer_factory.hpp:77] Creating layer scale4
I0108 19:03:06.655483 45666 net.cpp:84] Creating Layer scale4
I0108 19:03:06.655491 45666 net.cpp:406] scale4 <- conv4
I0108 19:03:06.655503 45666 net.cpp:367] scale4 -> conv4 (in-place)
I0108 19:03:06.655551 45666 layer_factory.hpp:77] Creating layer scale4
I0108 19:03:06.655664 45666 net.cpp:122] Setting up scale4
I0108 19:03:06.655681 45666 net.cpp:129] Top shape: 200 384 13 13 (12979200)
I0108 19:03:06.655689 45666 net.cpp:137] Memory required for data: 2100917600
I0108 19:03:06.655701 45666 layer_factory.hpp:77] Creating layer relu4
I0108 19:03:06.655714 45666 net.cpp:84] Creating Layer relu4
I0108 19:03:06.655722 45666 net.cpp:406] relu4 <- conv4
I0108 19:03:06.655733 45666 net.cpp:367] relu4 -> conv4 (in-place)
I0108 19:03:06.655745 45666 net.cpp:122] Setting up relu4
I0108 19:03:06.655755 45666 net.cpp:129] Top shape: 200 384 13 13 (12979200)
I0108 19:03:06.655763 45666 net.cpp:137] Memory required for data: 2152834400
I0108 19:03:06.655772 45666 layer_factory.hpp:77] Creating layer conv5
I0108 19:03:06.655791 45666 net.cpp:84] Creating Layer conv5
I0108 19:03:06.655799 45666 net.cpp:406] conv5 <- conv4
I0108 19:03:06.655812 45666 net.cpp:380] conv5 -> conv5
ydwu=======get:
bit_width=8;  round_method=1;  round_strategy=2;  is_runtime=0;  range_low=-0.278126;  range_high=0.264034
I0108 19:03:06.682384 45666 net.cpp:122] Setting up conv5
I0108 19:03:06.682415 45666 net.cpp:129] Top shape: 200 256 13 13 (8652800)
I0108 19:03:06.682425 45666 net.cpp:137] Memory required for data: 2187445600
I0108 19:03:06.682440 45666 layer_factory.hpp:77] Creating layer bn5
I0108 19:03:06.682457 45666 net.cpp:84] Creating Layer bn5
I0108 19:03:06.682468 45666 net.cpp:406] bn5 <- conv5
I0108 19:03:06.682485 45666 net.cpp:367] bn5 -> conv5 (in-place)
I0108 19:03:06.682660 45666 net.cpp:122] Setting up bn5
I0108 19:03:06.682677 45666 net.cpp:129] Top shape: 200 256 13 13 (8652800)
I0108 19:03:06.682685 45666 net.cpp:137] Memory required for data: 2222056800
I0108 19:03:06.682705 45666 layer_factory.hpp:77] Creating layer scale5
I0108 19:03:06.682723 45666 net.cpp:84] Creating Layer scale5
I0108 19:03:06.682732 45666 net.cpp:406] scale5 <- conv5
I0108 19:03:06.682742 45666 net.cpp:367] scale5 -> conv5 (in-place)
I0108 19:03:06.682802 45666 layer_factory.hpp:77] Creating layer scale5
I0108 19:03:06.682914 45666 net.cpp:122] Setting up scale5
I0108 19:03:06.682930 45666 net.cpp:129] Top shape: 200 256 13 13 (8652800)
I0108 19:03:06.682938 45666 net.cpp:137] Memory required for data: 2256668000
I0108 19:03:06.682950 45666 layer_factory.hpp:77] Creating layer relu5
I0108 19:03:06.682967 45666 net.cpp:84] Creating Layer relu5
I0108 19:03:06.682976 45666 net.cpp:406] relu5 <- conv5
I0108 19:03:06.682989 45666 net.cpp:367] relu5 -> conv5 (in-place)
I0108 19:03:06.683002 45666 net.cpp:122] Setting up relu5
I0108 19:03:06.683012 45666 net.cpp:129] Top shape: 200 256 13 13 (8652800)
I0108 19:03:06.683025 45666 net.cpp:137] Memory required for data: 2291279200
I0108 19:03:06.683034 45666 layer_factory.hpp:77] Creating layer pool5
I0108 19:03:06.683048 45666 net.cpp:84] Creating Layer pool5
I0108 19:03:06.683058 45666 net.cpp:406] pool5 <- conv5
I0108 19:03:06.683069 45666 net.cpp:380] pool5 -> pool5
I0108 19:03:06.683123 45666 net.cpp:122] Setting up pool5
I0108 19:03:06.683140 45666 net.cpp:129] Top shape: 200 256 6 6 (1843200)
I0108 19:03:06.683147 45666 net.cpp:137] Memory required for data: 2298652000
I0108 19:03:06.683156 45666 layer_factory.hpp:77] Creating layer fc6
I0108 19:03:06.683174 45666 net.cpp:84] Creating Layer fc6
I0108 19:03:06.683184 45666 net.cpp:406] fc6 <- pool5
I0108 19:03:06.683195 45666 net.cpp:380] fc6 -> fc6
I0108 19:03:06.683251 45666 quan_inner_product_layer.cpp:21] 4096   4096
ydwu=======get:
bit_width=8;  round_method=1;  round_strategy=2;  is_runtime=0;  range_low=-0.128049;  range_high=0.118451
I0108 19:03:07.800626 45666 net.cpp:122] Setting up fc6
I0108 19:03:07.800664 45666 net.cpp:129] Top shape: 200 4096 (819200)
I0108 19:03:07.800673 45666 net.cpp:137] Memory required for data: 2301928800
I0108 19:03:07.800689 45666 layer_factory.hpp:77] Creating layer bn6
I0108 19:03:07.800709 45666 net.cpp:84] Creating Layer bn6
I0108 19:03:07.800721 45666 net.cpp:406] bn6 <- fc6
I0108 19:03:07.800734 45666 net.cpp:367] bn6 -> fc6 (in-place)
I0108 19:03:07.800912 45666 net.cpp:122] Setting up bn6
I0108 19:03:07.800930 45666 net.cpp:129] Top shape: 200 4096 (819200)
I0108 19:03:07.800938 45666 net.cpp:137] Memory required for data: 2305205600
I0108 19:03:07.800951 45666 layer_factory.hpp:77] Creating layer scale6
I0108 19:03:07.800968 45666 net.cpp:84] Creating Layer scale6
I0108 19:03:07.800978 45666 net.cpp:406] scale6 <- fc6
I0108 19:03:07.800988 45666 net.cpp:367] scale6 -> fc6 (in-place)
I0108 19:03:07.801039 45666 layer_factory.hpp:77] Creating layer scale6
I0108 19:03:07.801160 45666 net.cpp:122] Setting up scale6
I0108 19:03:07.801177 45666 net.cpp:129] Top shape: 200 4096 (819200)
I0108 19:03:07.801184 45666 net.cpp:137] Memory required for data: 2308482400
I0108 19:03:07.801196 45666 layer_factory.hpp:77] Creating layer relu6
I0108 19:03:07.801209 45666 net.cpp:84] Creating Layer relu6
I0108 19:03:07.801218 45666 net.cpp:406] relu6 <- fc6
I0108 19:03:07.801229 45666 net.cpp:367] relu6 -> fc6 (in-place)
I0108 19:03:07.801242 45666 net.cpp:122] Setting up relu6
I0108 19:03:07.801252 45666 net.cpp:129] Top shape: 200 4096 (819200)
I0108 19:03:07.801260 45666 net.cpp:137] Memory required for data: 2311759200
I0108 19:03:07.801268 45666 layer_factory.hpp:77] Creating layer drop6
I0108 19:03:07.801286 45666 net.cpp:84] Creating Layer drop6
I0108 19:03:07.801296 45666 net.cpp:406] drop6 <- fc6
I0108 19:03:07.801308 45666 net.cpp:367] drop6 -> fc6 (in-place)
I0108 19:03:07.801347 45666 net.cpp:122] Setting up drop6
I0108 19:03:07.801362 45666 net.cpp:129] Top shape: 200 4096 (819200)
I0108 19:03:07.801370 45666 net.cpp:137] Memory required for data: 2315036000
I0108 19:03:07.801379 45666 layer_factory.hpp:77] Creating layer fc7
I0108 19:03:07.801399 45666 net.cpp:84] Creating Layer fc7
I0108 19:03:07.801409 45666 net.cpp:406] fc7 <- fc6
I0108 19:03:07.801419 45666 net.cpp:380] fc7 -> fc7
I0108 19:03:07.801434 45666 quan_inner_product_layer.cpp:21] 4096   4096
ydwu=======get:
bit_width=8;  round_method=1;  round_strategy=2;  is_runtime=0;  range_low=-0.130109;  range_high=0.158147
I0108 19:03:08.302852 45666 net.cpp:122] Setting up fc7
I0108 19:03:08.302891 45666 net.cpp:129] Top shape: 200 4096 (819200)
I0108 19:03:08.302901 45666 net.cpp:137] Memory required for data: 2318312800
I0108 19:03:08.302917 45666 layer_factory.hpp:77] Creating layer bn7
I0108 19:03:08.302935 45666 net.cpp:84] Creating Layer bn7
I0108 19:03:08.302947 45666 net.cpp:406] bn7 <- fc7
I0108 19:03:08.303025 45666 net.cpp:367] bn7 -> fc7 (in-place)
I0108 19:03:08.303220 45666 net.cpp:122] Setting up bn7
I0108 19:03:08.303237 45666 net.cpp:129] Top shape: 200 4096 (819200)
I0108 19:03:08.303246 45666 net.cpp:137] Memory required for data: 2321589600
I0108 19:03:08.303259 45666 layer_factory.hpp:77] Creating layer scale7
I0108 19:03:08.303278 45666 net.cpp:84] Creating Layer scale7
I0108 19:03:08.303287 45666 net.cpp:406] scale7 <- fc7
I0108 19:03:08.303298 45666 net.cpp:367] scale7 -> fc7 (in-place)
I0108 19:03:08.303350 45666 layer_factory.hpp:77] Creating layer scale7
I0108 19:03:08.303470 45666 net.cpp:122] Setting up scale7
I0108 19:03:08.303488 45666 net.cpp:129] Top shape: 200 4096 (819200)
I0108 19:03:08.303495 45666 net.cpp:137] Memory required for data: 2324866400
I0108 19:03:08.303508 45666 layer_factory.hpp:77] Creating layer relu7
I0108 19:03:08.303519 45666 net.cpp:84] Creating Layer relu7
I0108 19:03:08.303531 45666 net.cpp:406] relu7 <- fc7
I0108 19:03:08.303541 45666 net.cpp:367] relu7 -> fc7 (in-place)
I0108 19:03:08.303552 45666 net.cpp:122] Setting up relu7
I0108 19:03:08.303562 45666 net.cpp:129] Top shape: 200 4096 (819200)
I0108 19:03:08.303570 45666 net.cpp:137] Memory required for data: 2328143200
I0108 19:03:08.303618 45666 layer_factory.hpp:77] Creating layer drop7
I0108 19:03:08.303632 45666 net.cpp:84] Creating Layer drop7
I0108 19:03:08.303642 45666 net.cpp:406] drop7 <- fc7
I0108 19:03:08.303652 45666 net.cpp:367] drop7 -> fc7 (in-place)
I0108 19:03:08.303689 45666 net.cpp:122] Setting up drop7
I0108 19:03:08.303704 45666 net.cpp:129] Top shape: 200 4096 (819200)
I0108 19:03:08.303712 45666 net.cpp:137] Memory required for data: 2331420000
I0108 19:03:08.303720 45666 layer_factory.hpp:77] Creating layer fc8
I0108 19:03:08.303736 45666 net.cpp:84] Creating Layer fc8
I0108 19:03:08.303746 45666 net.cpp:406] fc8 <- fc7
I0108 19:03:08.303757 45666 net.cpp:380] fc8 -> fc8
I0108 19:03:08.303771 45666 quan_inner_product_layer.cpp:21] 1000   1000
ydwu=======get:
bit_width=8;  round_method=1;  round_strategy=2;  is_runtime=0;  range_low=-0.113486;  range_high=0.219399
I0108 19:03:08.423635 45666 net.cpp:122] Setting up fc8
I0108 19:03:08.423681 45666 net.cpp:129] Top shape: 200 1000 (200000)
I0108 19:03:08.423689 45666 net.cpp:137] Memory required for data: 2332220000
I0108 19:03:08.423707 45666 layer_factory.hpp:77] Creating layer fc8_fc8_0_split
I0108 19:03:08.423727 45666 net.cpp:84] Creating Layer fc8_fc8_0_split
I0108 19:03:08.423738 45666 net.cpp:406] fc8_fc8_0_split <- fc8
I0108 19:03:08.423751 45666 net.cpp:380] fc8_fc8_0_split -> fc8_fc8_0_split_0
I0108 19:03:08.423770 45666 net.cpp:380] fc8_fc8_0_split -> fc8_fc8_0_split_1
I0108 19:03:08.423825 45666 net.cpp:122] Setting up fc8_fc8_0_split
I0108 19:03:08.423840 45666 net.cpp:129] Top shape: 200 1000 (200000)
I0108 19:03:08.423852 45666 net.cpp:129] Top shape: 200 1000 (200000)
I0108 19:03:08.423861 45666 net.cpp:137] Memory required for data: 2333820000
I0108 19:03:08.423869 45666 layer_factory.hpp:77] Creating layer accuracy_5_TRAIN
I0108 19:03:08.423890 45666 net.cpp:84] Creating Layer accuracy_5_TRAIN
I0108 19:03:08.423900 45666 net.cpp:406] accuracy_5_TRAIN <- fc8_fc8_0_split_0
I0108 19:03:08.423910 45666 net.cpp:406] accuracy_5_TRAIN <- label_data_1_split_0
…
I0108 19:03:08.426774 45666 net.cpp:294] The NetState phase (1) differed from the phase (0) specified by a rule in layer accuracy_5_TRAIN
I0108 19:03:08.427006 45666 net.cpp:51] Initializing net from parameters: 
name: "AlexNet-BN"
state {
  phase: TEST
}
layer {
  name: "data"
  type: "Data"
  top: "data"
  top: "label"
  include {
    phase: TEST
  }
  transform_param {
    mirror: false
    crop_size: 224
    mean_value: 103.939
    mean_value: 116.779
    mean_value: 123.68
  }
  data_param {
    source: "/home/ydwu/database/imagenet/ilsvrc12/lmdb_resize/ilsvrc12_val_lmdb"
    batch_size: 200
    backend: LMDB
  }
}
layer {
  name: "conv1"
  type: "QuanConvolution"
  bottom: "data"
  top: "conv1"
  param {
    lr_mult: 1
    decay_mult: 1
  }
  param {
    lr_mult: 2
    decay_mult: 0
  }
  quan_convolution_param {
    num_output: 96
    pad: 2
    kernel_size: 11
    stride: 4
    weight_filler {
      type: "gaussian"
      std: 0.01
    }
    bias_filler {
      type: "constant"
      value: 0
    }
    bit_width: 8
    range_low: -0.69767118
    range_high: 0.74162
  }
}
layer {
  name: "bn1"
  type: "BatchNorm"
  bottom: "conv1"
  top: "conv1"
}
layer {
  name: "scale1"
  type: "Scale"
  bottom: "conv1"
  top: "conv1"
  scale_param {
    bias_term: true
  }
}
layer {
  name: "relu1"
  type: "ReLU"
  bottom: "conv1"
  top: "conv1"
}
layer {
  name: "pool1"
  type: "Pooling"
  bottom: "conv1"
  top: "pool1"
  pooling_param {
    pool: MAX
    kernel_size: 3
    stride: 2
  }
}
layer {
  name: "conv2"
  type: "QuanConvolution"
  bottom: "pool1"
  top: "conv2"
  param {
    lr_mult: 1
    decay_mult: 1
  }
  param {
    lr_mult: 2
    decay_mult: 0
  }
  quan_convolution_param {
    num_output: 256
    pad: 2
    kernel_size: 5
    weight_filler {
      type: "gaussian"
      std: 0.01
    }
    bias_filler {
      type: "constant"
      value: 0.1
    }
    bit_width: 8
    range_low: -0.64481437
    range_high: 1.21456
  }
}
layer {
  name: "bn2"
  type: "BatchNorm"
  bottom: "conv2"
  top: "conv2"
}
layer {
  name: "scale2"
  type: "Scale"
  bottom: "conv2"
  top: "conv2"
  scale_param {
    bias_term: true
  }
}
layer {
  name: "relu2"
  type: "ReLU"
  bottom: "conv2"
  top: "conv2"
}
layer {
  name: "pool2"
  type: "Pooling"
  bottom: "conv2"
  top: "pool2"
  pooling_param {
    pool: MAX
    kernel_size: 3
    stride: 2
  }
}
layer {
  name: "conv3"
  type: "QuanConvolution"
  bottom: "pool2"
  top: "conv3"
  param {
    lr_mult: 1
    decay_mult: 1
  }
  param {
    lr_mult: 2
    decay_mult: 0
  }
  quan_convolution_param {
    num_output: 384
    pad: 1
    kernel_size: 3
    weight_filler {
      type: "gaussian"
      std: 0.01
    }
    bias_filler {
      type: "constant"
      value: 0
    }
    bit_width: 8
    range_low: -0.49748641
    range_high: 0.5390864
  }
}
layer {
  name: "bn3"
  type: "BatchNorm"
  bottom: "conv3"
  top: "conv3"
}
layer {
  name: "scale3"
  type: "Scale"
  bottom: "conv3"
  top: "conv3"
  scale_param {
    bias_term: true
  }
}
layer {
  name: "relu3"
  type: "ReLU"
  bottom: "conv3"
  top: "conv3"
}
layer {
  name: "conv4"
  type: "QuanConvolution"
  bottom: "conv3"
  top: "conv4"
  param {
    lr_mult: 1
    decay_mult: 1
  }
  param {
    lr_mult: 2
    decay_mult: 0
  }
  quan_convolution_param {
    num_output: 384
    pad: 1
    kernel_size: 3
    weight_filler {
      type: "gaussian"
      std: 0.01
    }
    bias_filler {
      type: "constant"
      value: 0.1
    }
    bit_width: 8
    range_low: -0.3013072
    range_high: 0.27346319
  }
}
layer {
  name: "bn4"
  type: "BatchNorm"
  bottom: "conv4"
  top: "conv4"
}
layer {
  name: "scale4"
  type: "Scale"
  bottom: "conv4"
  top: "conv4"
  scale_param {
    bias_term: true
  }
}
layer {
  name: "relu4"
  type: "ReLU"
  bottom: "conv4"
  top: "conv4"
}
layer {
  name: "conv5"
  type: "QuanConvolution"
  bottom: "conv4"
  top: "conv5"
  param {
    lr_mult: 1
    decay_mult: 1
  }
  param {
    lr_mult: 2
    decay_mult: 0
  }
  quan_convolution_param {
    num_output: 256
    pad: 1
    kernel_size: 3
    weight_filler {
      type: "gaussian"
      std: 0.01
    }
    bias_filler {
      type: "constant"
      value: 0.1
    }
    bit_width: 8
    range_low: -0.27812639
    range_high: 0.26403359
  }
}
layer {
  name: "bn5"
  type: "BatchNorm"
  bottom: "conv5"
  top: "conv5"
}
layer {
  name: "scale5"
  type: "Scale"
  bottom: "conv5"
  top: "conv5"
  scale_param {
    bias_term: true
  }
}
layer {
  name: "relu5"
  type: "ReLU"
  bottom: "conv5"
  top: "conv5"
}
layer {
  name: "pool5"
  type: "Pooling"
  bottom: "conv5"
  top: "pool5"
  pooling_param {
    pool: MAX
    kernel_size: 3
    stride: 2
  }
}
layer {
  name: "fc6"
  type: "QuanInnerProduct"
  bottom: "pool5"
  top: "fc6"
  param {
    lr_mult: 1
    decay_mult: 1
  }
  param {
    lr_mult: 2
    decay_mult: 0
  }
  quan_inner_product_param {
    num_output: 4096
    weight_filler {
      type: "gaussian"
      std: 0.005
    }
    bias_filler {
      type: "constant"
      value: 0.1
    }
    bit_width: 8
    range_low: -0.12804881
    range_high: 0.1184512
  }
}
layer {
  name: "bn6"
  type: "BatchNorm"
  bottom: "fc6"
  top: "fc6"
}
layer {
  name: "scale6"
  type: "Scale"
  bottom: "fc6"
  top: "fc6"
  scale_param {
    bias_term: true
  }
}
layer {
  name: "relu6"
  type: "ReLU"
  bottom: "fc6"
  top: "fc6"
}
layer {
  name: "drop6"
  type: "Dropout"
  bottom: "fc6"
  top: "fc6"
  dropout_param {
    dropout_ratio: 0.5
  }
}
layer {
  name: "fc7"
  type: "QuanInnerProduct"
  bottom: "fc6"
  top: "fc7"
  param {
    lr_mult: 1
    decay_mult: 1
  }
  param {
    lr_mult: 2
    decay_mult: 0
  }
  quan_inner_product_param {
    num_output: 4096
    weight_filler {
      type: "gaussian"
      std: 0.005
    }
    bias_filler {
      type: "constant"
      value: 0.1
    }
    bit_width: 8
    range_low: -0.1301088
    range_high: 0.1581472
  }
}
layer {
  name: "bn7"
  type: "BatchNorm"
  bottom: "fc7"
  top: "fc7"
}
layer {
  name: "scale7"
  type: "Scale"
  bottom: "fc7"
  top: "fc7"
  scale_param {
    bias_term: true
  }
}
layer {
  name: "relu7"
  type: "ReLU"
  bottom: "fc7"
  top: "fc7"
}
layer {
  name: "drop7"
  type: "Dropout"
  bottom: "fc7"
  top: "fc7"
  dropout_param {
    dropout_ratio: 0.5
  }
}
layer {
  name: "fc8"
  type: "QuanInnerProduct"
  bottom: "fc7"
  top: "fc8"
  param {
    lr_mult: 1
    decay_mult: 1
  }
  param {
    lr_mult: 2
    decay_mult: 0
  }
  quan_inner_product_param {
    num_output: 1000
    weight_filler {
      type: "gaussian"
      std: 0.01
    }
    bias_filler {
      type: "constant"
      value: 0
    }
    bit_width: 8
    range_low: -0.1134856
    range_high: 0.2193992
  }
}
layer {
  name: "accuracy"
  type: "Accuracy"
  bottom: "fc8"
  bottom: "label"
  top: "accuracy"
  include {
    phase: TEST
  }
}
layer {
  name: "accuracy_5"
  type: "Accuracy"
  bottom: "fc8"
  bottom: "label"
  top: "accuracy_5"
  include {
    phase: TEST
  }
  accuracy_param {
    top_k: 5
  }
}
layer {
  name: "loss"
  type: "SoftmaxWithLoss"
  bottom: "fc8"
  bottom: "label"
  top: "loss"
}
I0108 19:03:08.427181 45666 layer_factory.hpp:77] Creating layer data
I0108 19:03:08.427250 45666 db_lmdb.cpp:35] Opened lmdb /home/ydwu/database/imagenet/ilsvrc12/lmdb_resize/ilsvrc12_val_lmdb
I0108 19:03:08.427287 45666 net.cpp:84] Creating Layer data
I0108 19:03:08.427301 45666 net.cpp:380] data -> data
I0108 19:03:08.427316 45666 net.cpp:380] data -> label
I0108 19:03:08.427645 45666 data_layer.cpp:45] output data size: 200,3,224,224
I0108 19:03:08.786744 45666 net.cpp:122] Setting up data
I0108 19:03:08.786855 45666 net.cpp:129] Top shape: 200 3 224 224 (30105600)
I0108 19:03:08.786870 45666 net.cpp:129] Top shape: 200 (200)
I0108 19:03:08.786888 45666 net.cpp:137] Memory required for data: 120423200
I0108 19:03:08.786912 45666 layer_factory.hpp:77] Creating layer label_data_1_split
I0108 19:03:08.786940 45666 net.cpp:84] Creating Layer label_data_1_split
I0108 19:03:08.786952 45666 net.cpp:406] label_data_1_split <- label
I0108 19:03:08.786973 45666 net.cpp:380] label_data_1_split -> label_data_1_split_0
I0108 19:03:08.786993 45666 net.cpp:380] label_data_1_split -> label_data_1_split_1
I0108 19:03:08.787005 45666 net.cpp:380] label_data_1_split -> label_data_1_split_2
I0108 19:03:08.787066 45666 net.cpp:122] Setting up label_data_1_split
I0108 19:03:08.787082 45666 net.cpp:129] Top shape: 200 (200)
I0108 19:03:08.787091 45666 net.cpp:129] Top shape: 200 (200)
I0108 19:03:08.787101 45666 net.cpp:129] Top shape: 200 (200)
I0108 19:03:08.787109 45666 net.cpp:137] Memory required for data: 120425600
I0108 19:03:08.787117 45666 layer_factory.hpp:77] Creating layer conv1
I0108 19:03:08.787138 45666 net.cpp:84] Creating Layer conv1
I0108 19:03:08.787148 45666 net.cpp:406] conv1 <- data
I0108 19:03:08.787160 45666 net.cpp:380] conv1 -> conv1
ydwu=======get:
bit_width=8;  round_method=1;  round_strategy=2;  is_runtime=0;  range_low=-0.697671;  range_high=0.74162
I0108 19:03:08.810472 45666 net.cpp:122] Setting up conv1
I0108 19:03:08.810490 45666 net.cpp:129] Top shape: 200 96 55 55 (58080000)
I0108 19:03:08.810499 45666 net.cpp:137] Memory required for data: 352745600
I0108 19:03:08.810516 45666 layer_factory.hpp:77] Creating layer bn1
I0108 19:03:08.810530 45666 net.cpp:84] Creating Layer bn1
I0108 19:03:08.810539 45666 net.cpp:406] bn1 <- conv1
I0108 19:03:08.810550 45666 net.cpp:367] bn1 -> conv1 (in-place)
I0108 19:03:08.810756 45666 net.cpp:122] Setting up bn1
I0108 19:03:08.810773 45666 net.cpp:129] Top shape: 200 96 55 55 (58080000)
I0108 19:03:08.810793 45666 net.cpp:137] Memory required for data: 585065600
I0108 19:03:08.810811 45666 layer_factory.hpp:77] Creating layer scale1
I0108 19:03:08.810827 45666 net.cpp:84] Creating Layer scale1
I0108 19:03:08.810835 45666 net.cpp:406] scale1 <- conv1
I0108 19:03:08.810847 45666 net.cpp:367] scale1 -> conv1 (in-place)
I0108 19:03:08.810897 45666 layer_factory.hpp:77] Creating layer scale1
I0108 19:03:08.811033 45666 net.cpp:122] Setting up scale1
I0108 19:03:08.811050 45666 net.cpp:129] Top shape: 200 96 55 55 (58080000)
I0108 19:03:08.811059 45666 net.cpp:137] Memory required for data: 817385600
I0108 19:03:08.811107 45666 layer_factory.hpp:77] Creating layer relu1
I0108 19:03:08.811121 45666 net.cpp:84] Creating Layer relu1
I0108 19:03:08.811131 45666 net.cpp:406] relu1 <- conv1
I0108 19:03:08.811141 45666 net.cpp:367] relu1 -> conv1 (in-place)
I0108 19:03:08.811153 45666 net.cpp:122] Setting up relu1
I0108 19:03:08.811163 45666 net.cpp:129] Top shape: 200 96 55 55 (58080000)
I0108 19:03:08.811172 45666 net.cpp:137] Memory required for data: 1049705600
I0108 19:03:08.811180 45666 layer_factory.hpp:77] Creating layer pool1
I0108 19:03:08.811193 45666 net.cpp:84] Creating Layer pool1
I0108 19:03:08.811203 45666 net.cpp:406] pool1 <- conv1
I0108 19:03:08.811213 45666 net.cpp:380] pool1 -> pool1
I0108 19:03:08.811259 45666 net.cpp:122] Setting up pool1
I0108 19:03:08.811275 45666 net.cpp:129] Top shape: 200 96 27 27 (13996800)
I0108 19:03:08.811283 45666 net.cpp:137] Memory required for data: 1105692800
I0108 19:03:08.811291 45666 layer_factory.hpp:77] Creating layer conv2
I0108 19:03:08.811306 45666 net.cpp:84] Creating Layer conv2
I0108 19:03:08.811316 45666 net.cpp:406] conv2 <- pool1
I0108 19:03:08.811327 45666 net.cpp:380] conv2 -> conv2
ydwu=======get:
bit_width=8;  round_method=1;  round_strategy=2;  is_runtime=0;  range_low=-0.644814;  range_high=1.21456
I0108 19:03:08.830000 45666 net.cpp:122] Setting up conv2
I0108 19:03:08.830030 45666 net.cpp:129] Top shape: 200 256 27 27 (37324800)
I0108 19:03:08.830040 45666 net.cpp:137] Memory required for data: 1254992000
I0108 19:03:08.830060 45666 layer_factory.hpp:77] Creating layer bn2
I0108 19:03:08.830082 45666 net.cpp:84] Creating Layer bn2
I0108 19:03:08.830092 45666 net.cpp:406] bn2 <- conv2
I0108 19:03:08.830106 45666 net.cpp:367] bn2 -> conv2 (in-place)
I0108 19:03:08.830284 45666 net.cpp:122] Setting up bn2
I0108 19:03:08.830301 45666 net.cpp:129] Top shape: 200 256 27 27 (37324800)
I0108 19:03:08.830309 45666 net.cpp:137] Memory required for data: 1404291200
I0108 19:03:08.830322 45666 layer_factory.hpp:77] Creating layer scale2
I0108 19:03:08.830337 45666 net.cpp:84] Creating Layer scale2
I0108 19:03:08.830345 45666 net.cpp:406] scale2 <- conv2
I0108 19:03:08.830356 45666 net.cpp:367] scale2 -> conv2 (in-place)
I0108 19:03:08.830410 45666 layer_factory.hpp:77] Creating layer scale2
I0108 19:03:08.830521 45666 net.cpp:122] Setting up scale2
I0108 19:03:08.830538 45666 net.cpp:129] Top shape: 200 256 27 27 (37324800)
I0108 19:03:08.830546 45666 net.cpp:137] Memory required for data: 1553590400
I0108 19:03:08.830557 45666 layer_factory.hpp:77] Creating layer relu2
I0108 19:03:08.830571 45666 net.cpp:84] Creating Layer relu2
I0108 19:03:08.830580 45666 net.cpp:406] relu2 <- conv2
I0108 19:03:08.830590 45666 net.cpp:367] relu2 -> conv2 (in-place)
I0108 19:03:08.830602 45666 net.cpp:122] Setting up relu2
I0108 19:03:08.830612 45666 net.cpp:129] Top shape: 200 256 27 27 (37324800)
I0108 19:03:08.830621 45666 net.cpp:137] Memory required for data: 1702889600
I0108 19:03:08.830629 45666 layer_factory.hpp:77] Creating layer pool2
I0108 19:03:08.830641 45666 net.cpp:84] Creating Layer pool2
I0108 19:03:08.830651 45666 net.cpp:406] pool2 <- conv2
I0108 19:03:08.830662 45666 net.cpp:380] pool2 -> pool2
I0108 19:03:08.830709 45666 net.cpp:122] Setting up pool2
I0108 19:03:08.830724 45666 net.cpp:129] Top shape: 200 256 13 13 (8652800)
I0108 19:03:08.830734 45666 net.cpp:137] Memory required for data: 1737500800
I0108 19:03:08.830741 45666 layer_factory.hpp:77] Creating layer conv3
I0108 19:03:08.830760 45666 net.cpp:84] Creating Layer conv3
I0108 19:03:08.830768 45666 net.cpp:406] conv3 <- pool2
I0108 19:03:08.830780 45666 net.cpp:380] conv3 -> conv3
ydwu=======get:
bit_width=8;  round_method=1;  round_strategy=2;  is_runtime=0;  range_low=-0.497486;  range_high=0.539086
I0108 19:03:08.857167 45666 net.cpp:122] Setting up conv3
I0108 19:03:08.857197 45666 net.cpp:129] Top shape: 200 384 13 13 (12979200)
I0108 19:03:08.857206 45666 net.cpp:137] Memory required for data: 1789417600
I0108 19:03:08.857223 45666 layer_factory.hpp:77] Creating layer bn3
I0108 19:03:08.857241 45666 net.cpp:84] Creating Layer bn3
I0108 19:03:08.857251 45666 net.cpp:406] bn3 <- conv3
I0108 19:03:08.857265 45666 net.cpp:367] bn3 -> conv3 (in-place)
I0108 19:03:08.857444 45666 net.cpp:122] Setting up bn3
I0108 19:03:08.857501 45666 net.cpp:129] Top shape: 200 384 13 13 (12979200)
I0108 19:03:08.857511 45666 net.cpp:137] Memory required for data: 1841334400
I0108 19:03:08.857530 45666 layer_factory.hpp:77] Creating layer scale3
I0108 19:03:08.857547 45666 net.cpp:84] Creating Layer scale3
I0108 19:03:08.857555 45666 net.cpp:406] scale3 <- conv3
I0108 19:03:08.857566 45666 net.cpp:367] scale3 -> conv3 (in-place)
I0108 19:03:08.857620 45666 layer_factory.hpp:77] Creating layer scale3
I0108 19:03:08.857735 45666 net.cpp:122] Setting up scale3
I0108 19:03:08.857753 45666 net.cpp:129] Top shape: 200 384 13 13 (12979200)
I0108 19:03:08.857760 45666 net.cpp:137] Memory required for data: 1893251200
I0108 19:03:08.857772 45666 layer_factory.hpp:77] Creating layer relu3
I0108 19:03:08.857785 45666 net.cpp:84] Creating Layer relu3
I0108 19:03:08.857795 45666 net.cpp:406] relu3 <- conv3
I0108 19:03:08.857805 45666 net.cpp:367] relu3 -> conv3 (in-place)
I0108 19:03:08.857815 45666 net.cpp:122] Setting up relu3
I0108 19:03:08.857825 45666 net.cpp:129] Top shape: 200 384 13 13 (12979200)
I0108 19:03:08.857833 45666 net.cpp:137] Memory required for data: 1945168000
I0108 19:03:08.857841 45666 layer_factory.hpp:77] Creating layer conv4
I0108 19:03:08.857861 45666 net.cpp:84] Creating Layer conv4
I0108 19:03:08.857872 45666 net.cpp:406] conv4 <- conv3
I0108 19:03:08.857883 45666 net.cpp:380] conv4 -> conv4
ydwu=======get:
bit_width=8;  round_method=1;  round_strategy=2;  is_runtime=0;  range_low=-0.301307;  range_high=0.273463
I0108 19:03:08.897127 45666 net.cpp:122] Setting up conv4
I0108 19:03:08.897157 45666 net.cpp:129] Top shape: 200 384 13 13 (12979200)
I0108 19:03:08.897166 45666 net.cpp:137] Memory required for data: 1997084800
I0108 19:03:08.897182 45666 layer_factory.hpp:77] Creating layer bn4
I0108 19:03:08.897200 45666 net.cpp:84] Creating Layer bn4
I0108 19:03:08.897212 45666 net.cpp:406] bn4 <- conv4
I0108 19:03:08.897225 45666 net.cpp:367] bn4 -> conv4 (in-place)
I0108 19:03:08.897414 45666 net.cpp:122] Setting up bn4
I0108 19:03:08.897430 45666 net.cpp:129] Top shape: 200 384 13 13 (12979200)
I0108 19:03:08.897439 45666 net.cpp:137] Memory required for data: 2049001600
I0108 19:03:08.897452 45666 layer_factory.hpp:77] Creating layer scale4
I0108 19:03:08.897466 45666 net.cpp:84] Creating Layer scale4
I0108 19:03:08.897475 45666 net.cpp:406] scale4 <- conv4
I0108 19:03:08.897485 45666 net.cpp:367] scale4 -> conv4 (in-place)
I0108 19:03:08.897541 45666 layer_factory.hpp:77] Creating layer scale4
I0108 19:03:08.897665 45666 net.cpp:122] Setting up scale4
I0108 19:03:08.897681 45666 net.cpp:129] Top shape: 200 384 13 13 (12979200)
I0108 19:03:08.897689 45666 net.cpp:137] Memory required for data: 2100918400
I0108 19:03:08.897701 45666 layer_factory.hpp:77] Creating layer relu4
I0108 19:03:08.897713 45666 net.cpp:84] Creating Layer relu4
I0108 19:03:08.897722 45666 net.cpp:406] relu4 <- conv4
I0108 19:03:08.897737 45666 net.cpp:367] relu4 -> conv4 (in-place)
I0108 19:03:08.897749 45666 net.cpp:122] Setting up relu4
I0108 19:03:08.897759 45666 net.cpp:129] Top shape: 200 384 13 13 (12979200)
I0108 19:03:08.897768 45666 net.cpp:137] Memory required for data: 2152835200
I0108 19:03:08.897776 45666 layer_factory.hpp:77] Creating layer conv5
I0108 19:03:08.897792 45666 net.cpp:84] Creating Layer conv5
I0108 19:03:08.897802 45666 net.cpp:406] conv5 <- conv4
I0108 19:03:08.897816 45666 net.cpp:380] conv5 -> conv5
ydwu=======get:
bit_width=8;  round_method=1;  round_strategy=2;  is_runtime=0;  range_low=-0.278126;  range_high=0.264034
I0108 19:03:08.924841 45666 net.cpp:122] Setting up conv5
I0108 19:03:08.924873 45666 net.cpp:129] Top shape: 200 256 13 13 (8652800)
I0108 19:03:08.924882 45666 net.cpp:137] Memory required for data: 2187446400
I0108 19:03:08.924898 45666 layer_factory.hpp:77] Creating layer bn5
I0108 19:03:08.924917 45666 net.cpp:84] Creating Layer bn5
I0108 19:03:08.924928 45666 net.cpp:406] bn5 <- conv5
I0108 19:03:08.924947 45666 net.cpp:367] bn5 -> conv5 (in-place)
I0108 19:03:08.925142 45666 net.cpp:122] Setting up bn5
I0108 19:03:08.925158 45666 net.cpp:129] Top shape: 200 256 13 13 (8652800)
I0108 19:03:08.925166 45666 net.cpp:137] Memory required for data: 2222057600
I0108 19:03:08.925189 45666 layer_factory.hpp:77] Creating layer scale5
I0108 19:03:08.925243 45666 net.cpp:84] Creating Layer scale5
I0108 19:03:08.925254 45666 net.cpp:406] scale5 <- conv5
I0108 19:03:08.925266 45666 net.cpp:367] scale5 -> conv5 (in-place)
I0108 19:03:08.925328 45666 layer_factory.hpp:77] Creating layer scale5
I0108 19:03:08.925448 45666 net.cpp:122] Setting up scale5
I0108 19:03:08.925465 45666 net.cpp:129] Top shape: 200 256 13 13 (8652800)
I0108 19:03:08.925474 45666 net.cpp:137] Memory required for data: 2256668800
I0108 19:03:08.925487 45666 layer_factory.hpp:77] Creating layer relu5
I0108 19:03:08.925499 45666 net.cpp:84] Creating Layer relu5
I0108 19:03:08.925508 45666 net.cpp:406] relu5 <- conv5
I0108 19:03:08.925521 45666 net.cpp:367] relu5 -> conv5 (in-place)
I0108 19:03:08.925534 45666 net.cpp:122] Setting up relu5
I0108 19:03:08.925544 45666 net.cpp:129] Top shape: 200 256 13 13 (8652800)
I0108 19:03:08.925554 45666 net.cpp:137] Memory required for data: 2291280000
I0108 19:03:08.925561 45666 layer_factory.hpp:77] Creating layer pool5
I0108 19:03:08.925575 45666 net.cpp:84] Creating Layer pool5
I0108 19:03:08.925582 45666 net.cpp:406] pool5 <- conv5
I0108 19:03:08.925593 45666 net.cpp:380] pool5 -> pool5
I0108 19:03:08.925642 45666 net.cpp:122] Setting up pool5
I0108 19:03:08.925657 45666 net.cpp:129] Top shape: 200 256 6 6 (1843200)
I0108 19:03:08.925667 45666 net.cpp:137] Memory required for data: 2298652800
I0108 19:03:08.925675 45666 layer_factory.hpp:77] Creating layer fc6
I0108 19:03:08.925689 45666 net.cpp:84] Creating Layer fc6
I0108 19:03:08.925698 45666 net.cpp:406] fc6 <- pool5
I0108 19:03:08.925720 45666 net.cpp:380] fc6 -> fc6
I0108 19:03:08.925735 45666 quan_inner_product_layer.cpp:21] 4096   4096
ydwu=======get:
bit_width=8;  round_method=1;  round_strategy=2;  is_runtime=0;  range_low=-0.128049;  range_high=0.118451
I0108 19:03:10.064529 45666 net.cpp:122] Setting up fc6
I0108 19:03:10.064565 45666 net.cpp:129] Top shape: 200 4096 (819200)
I0108 19:03:10.064575 45666 net.cpp:137] Memory required for data: 2301929600
I0108 19:03:10.064592 45666 layer_factory.hpp:77] Creating layer bn6
I0108 19:03:10.064610 45666 net.cpp:84] Creating Layer bn6
I0108 19:03:10.064621 45666 net.cpp:406] bn6 <- fc6
I0108 19:03:10.064638 45666 net.cpp:367] bn6 -> fc6 (in-place)
I0108 19:03:10.064839 45666 net.cpp:122] Setting up bn6
I0108 19:03:10.064857 45666 net.cpp:129] Top shape: 200 4096 (819200)
I0108 19:03:10.064867 45666 net.cpp:137] Memory required for data: 2305206400
I0108 19:03:10.064879 45666 layer_factory.hpp:77] Creating layer scale6
I0108 19:03:10.064894 45666 net.cpp:84] Creating Layer scale6
I0108 19:03:10.064903 45666 net.cpp:406] scale6 <- fc6
I0108 19:03:10.064914 45666 net.cpp:367] scale6 -> fc6 (in-place)
I0108 19:03:10.064967 45666 layer_factory.hpp:77] Creating layer scale6
I0108 19:03:10.065096 45666 net.cpp:122] Setting up scale6
I0108 19:03:10.065114 45666 net.cpp:129] Top shape: 200 4096 (819200)
I0108 19:03:10.065122 45666 net.cpp:137] Memory required for data: 2308483200
I0108 19:03:10.065135 45666 layer_factory.hpp:77] Creating layer relu6
I0108 19:03:10.065146 45666 net.cpp:84] Creating Layer relu6
I0108 19:03:10.065155 45666 net.cpp:406] relu6 <- fc6
I0108 19:03:10.065168 45666 net.cpp:367] relu6 -> fc6 (in-place)
I0108 19:03:10.065181 45666 net.cpp:122] Setting up relu6
I0108 19:03:10.065191 45666 net.cpp:129] Top shape: 200 4096 (819200)
I0108 19:03:10.065199 45666 net.cpp:137] Memory required for data: 2311760000
I0108 19:03:10.065208 45666 layer_factory.hpp:77] Creating layer drop6
I0108 19:03:10.065222 45666 net.cpp:84] Creating Layer drop6
I0108 19:03:10.065230 45666 net.cpp:406] drop6 <- fc6
I0108 19:03:10.065240 45666 net.cpp:367] drop6 -> fc6 (in-place)
I0108 19:03:10.065274 45666 net.cpp:122] Setting up drop6
I0108 19:03:10.065289 45666 net.cpp:129] Top shape: 200 4096 (819200)
I0108 19:03:10.065297 45666 net.cpp:137] Memory required for data: 2315036800
I0108 19:03:10.065306 45666 layer_factory.hpp:77] Creating layer fc7
I0108 19:03:10.065325 45666 net.cpp:84] Creating Layer fc7
I0108 19:03:10.065335 45666 net.cpp:406] fc7 <- fc6
I0108 19:03:10.065346 45666 net.cpp:380] fc7 -> fc7
I0108 19:03:10.065361 45666 quan_inner_product_layer.cpp:21] 4096   4096
ydwu=======get:
bit_width=8;  round_method=1;  round_strategy=2;  is_runtime=0;  range_low=-0.130109;  range_high=0.158147
I0108 19:03:10.567937 45666 net.cpp:122] Setting up fc7
I0108 19:03:10.567976 45666 net.cpp:129] Top shape: 200 4096 (819200)
I0108 19:03:10.567986 45666 net.cpp:137] Memory required for data: 2318313600
I0108 19:03:10.568002 45666 layer_factory.hpp:77] Creating layer bn7
I0108 19:03:10.568023 45666 net.cpp:84] Creating Layer bn7
I0108 19:03:10.568035 45666 net.cpp:406] bn7 <- fc7
I0108 19:03:10.568051 45666 net.cpp:367] bn7 -> fc7 (in-place)
I0108 19:03:10.568253 45666 net.cpp:122] Setting up bn7
I0108 19:03:10.568269 45666 net.cpp:129] Top shape: 200 4096 (819200)
I0108 19:03:10.568277 45666 net.cpp:137] Memory required for data: 2321590400
I0108 19:03:10.568291 45666 layer_factory.hpp:77] Creating layer scale7
I0108 19:03:10.568313 45666 net.cpp:84] Creating Layer scale7
I0108 19:03:10.568323 45666 net.cpp:406] scale7 <- fc7
I0108 19:03:10.568334 45666 net.cpp:367] scale7 -> fc7 (in-place)
I0108 19:03:10.568389 45666 layer_factory.hpp:77] Creating layer scale7
I0108 19:03:10.568521 45666 net.cpp:122] Setting up scale7
I0108 19:03:10.568538 45666 net.cpp:129] Top shape: 200 4096 (819200)
I0108 19:03:10.568547 45666 net.cpp:137] Memory required for data: 2324867200
I0108 19:03:10.568559 45666 layer_factory.hpp:77] Creating layer relu7
I0108 19:03:10.568572 45666 net.cpp:84] Creating Layer relu7
I0108 19:03:10.568580 45666 net.cpp:406] relu7 <- fc7
I0108 19:03:10.568593 45666 net.cpp:367] relu7 -> fc7 (in-place)
I0108 19:03:10.568605 45666 net.cpp:122] Setting up relu7
I0108 19:03:10.568615 45666 net.cpp:129] Top shape: 200 4096 (819200)
I0108 19:03:10.568624 45666 net.cpp:137] Memory required for data: 2328144000
I0108 19:03:10.568632 45666 layer_factory.hpp:77] Creating layer drop7
I0108 19:03:10.568645 45666 net.cpp:84] Creating Layer drop7
I0108 19:03:10.568653 45666 net.cpp:406] drop7 <- fc7
I0108 19:03:10.568665 45666 net.cpp:367] drop7 -> fc7 (in-place)
I0108 19:03:10.568697 45666 net.cpp:122] Setting up drop7
I0108 19:03:10.568711 45666 net.cpp:129] Top shape: 200 4096 (819200)
I0108 19:03:10.568720 45666 net.cpp:137] Memory required for data: 2331420800
I0108 19:03:10.568729 45666 layer_factory.hpp:77] Creating layer fc8
I0108 19:03:10.568753 45666 net.cpp:84] Creating Layer fc8
I0108 19:03:10.568763 45666 net.cpp:406] fc8 <- fc7
I0108 19:03:10.568774 45666 net.cpp:380] fc8 -> fc8
I0108 19:03:10.568789 45666 quan_inner_product_layer.cpp:21] 1000   1000
ydwu=======get:
bit_width=8;  round_method=1;  round_strategy=2;  is_runtime=0;  range_low=-0.113486;  range_high=0.219399
I0108 19:03:10.691488 45666 net.cpp:122] Setting up fc8
I0108 19:03:10.691531 45666 net.cpp:129] Top shape: 200 1000 (200000)
I0108 19:03:10.691541 45666 net.cpp:137] Memory required for data: 2332220800
I0108 19:03:10.691558 45666 layer_factory.hpp:77] Creating layer fc8_fc8_0_split
I0108 19:03:10.691576 45666 net.cpp:84] Creating Layer fc8_fc8_0_split
I0108 19:03:10.691587 45666 net.cpp:406] fc8_fc8_0_split <- fc8
I0108 19:03:10.691602 45666 net.cpp:380] fc8_fc8_0_split -> fc8_fc8_0_split_0
I0108 19:03:10.691623 45666 net.cpp:380] fc8_fc8_0_split -> fc8_fc8_0_split_1
I0108 19:03:10.691638 45666 net.cpp:380] fc8_fc8_0_split -> fc8_fc8_0_split_2
I0108 19:03:10.691705 45666 net.cpp:122] Setting up fc8_fc8_0_split
I0108 19:03:10.691721 45666 net.cpp:129] Top shape: 200 1000 (200000)
I0108 19:03:10.691731 45666 net.cpp:129] Top shape: 200 1000 (200000)
I0108 19:03:10.691741 45666 net.cpp:129] Top shape: 200 1000 (200000)
I0108 19:03:10.691750 45666 net.cpp:137] Memory required for data: 2334620800
I0108 19:03:10.691758 45666 layer_factory.hpp:77] Creating layer accuracy
I0108 19:03:10.691771 45666 net.cpp:84] Creating Layer accuracy
I0108 19:03:10.691781 45666 net.cpp:406] accuracy <- fc8_fc8_0_split_0
I0108 19:03:10.691790 45666 net.cpp:406] accuracy <- label_data_1_split_0
I0108 19:03:10.691802 45666 net.cpp:380] accuracy -> accuracy
…
