…
I0116 10:40:57.212211 146225 net.cpp:294] The NetState phase (0) differed from the phase (1) specified by a rule in layer accuracy
I0116 10:40:57.212431 146225 net.cpp:51] Initializing net from parameters: 
name: "AlexNet"
state {
  phase: TRAIN
  level: 0
  stage: ""
}
layer {
  name: "data"
  type: "Data"
  top: "data"
  top: "label"
  include {
    phase: TRAIN
  }
  transform_param {
    mirror: true
    crop_size: 227
    mean_file: "/home/DATA/imagenet_resize/imagenet_mean.binaryproto"
  }
  data_param {
    source: "/home/DATA/imagenet_resize/lmdb_resize/ilsvrc12_train_lmdb"
    batch_size: 256
    backend: LMDB
  }
}
layer {
  name: "conv1"
  type: "Convolution"
  bottom: "data"
  top: "conv1"
  param {
    lr_mult: 1
    decay_mult: 1
  }
  param {
    lr_mult: 2
    decay_mult: 0
  }
  convolution_param {
    num_output: 96
    kernel_size: 11
    stride: 4
    weight_filler {
      type: "gaussian"
      std: 0.01
    }
    bias_filler {
      type: "constant"
      value: 0
    }
  }
}
layer {
  name: "relu1"
  type: "ReLU"
  bottom: "conv1"
  top: "conv1"
}
layer {
  name: "norm1"
  type: "LRN"
  bottom: "conv1"
  top: "norm1"
  lrn_param {
    local_size: 5
    alpha: 0.0001
    beta: 0.75
  }
}
layer {
  name: "pool1"
  type: "Pooling"
  bottom: "norm1"
  top: "pool1"
  pooling_param {
    pool: MAX
    kernel_size: 3
    stride: 2
  }
}
layer {
  name: "conv2"
  type: "Convolution"
  bottom: "pool1"
  top: "conv2"
  param {
    lr_mult: 1
    decay_mult: 1
  }
  param {
    lr_mult: 2
    decay_mult: 0
  }
  convolution_param {
    num_output: 256
    pad: 2
    kernel_size: 5
    group: 2
    weight_filler {
      type: "gaussian"
      std: 0.01
    }
    bias_filler {
      type: "constant"
      value: 0.1
    }
  }
}
layer {
  name: "relu2"
  type: "ReLU"
  bottom: "conv2"
  top: "conv2"
}
layer {
  name: "norm2"
  type: "LRN"
  bottom: "conv2"
  top: "norm2"
  lrn_param {
    local_size: 5
    alpha: 0.0001
    beta: 0.75
  }
}
layer {
  name: "pool2"
  type: "Pooling"
  bottom: "norm2"
  top: "pool2"
  pooling_param {
    pool: MAX
    kernel_size: 3
    stride: 2
  }
}
layer {
  name: "conv3"
  type: "Convolution"
  bottom: "pool2"
  top: "conv3"
  param {
    lr_mult: 1
    decay_mult: 1
  }
  param {
    lr_mult: 2
    decay_mult: 0
  }
  convolution_param {
    num_output: 384
    pad: 1
    kernel_size: 3
    weight_filler {
      type: "gaussian"
      std: 0.01
    }
    bias_filler {
      type: "constant"
      value: 0
    }
  }
}
layer {
  name: "relu3"
  type: "ReLU"
  bottom: "conv3"
  top: "conv3"
}
layer {
  name: "conv4"
  type: "Convolution"
  bottom: "conv3"
  top: "conv4"
  param {
    lr_mult: 1
    decay_mult: 1
  }
  param {
    lr_mult: 2
    decay_mult: 0
  }
  convolution_param {
    num_output: 384
    pad: 1
    kernel_size: 3
    group: 2
    weight_filler {
      type: "gaussian"
      std: 0.01
    }
    bias_filler {
      type: "constant"
      value: 0.1
    }
  }
}
layer {
  name: "relu4"
  type: "ReLU"
  bottom: "conv4"
  top: "conv4"
}
layer {
  name: "conv5"
  type: "Convolution"
  bottom: "conv4"
  top: "conv5"
  param {
    lr_mult: 1
    decay_mult: 1
  }
  param {
    lr_mult: 2
    decay_mult: 0
  }
  convolution_param {
    num_output: 256
    pad: 1
    kernel_size: 3
    group: 2
    weight_filler {
      type: "gaussian"
      std: 0.01
    }
    bias_filler {
      type: "constant"
      value: 0.1
    }
  }
}
layer {
  name: "relu5"
  type: "ReLU"
  bottom: "conv5"
  top: "conv5"
}
layer {
  name: "pool5"
  type: "Pooling"
  bottom: "conv5"
  top: "pool5"
  pooling_param {
    pool: MAX
    kernel_size: 3
    stride: 2
  }
}
layer {
  name: "fc6"
  type: "InnerProduct"
  bottom: "pool5"
  top: "fc6"
  param {
    lr_mult: 1
    decay_mult: 1
  }
  param {
    lr_mult: 2
    decay_mult: 0
  }
  inner_product_param {
    num_output: 4096
    weight_filler {
      type: "gaussian"
      std: 0.005
    }
    bias_filler {
      type: "constant"
      value: 0.1
    }
  }
}
layer {
  name: "relu6"
  type: "ReLU"
  bottom: "fc6"
  top: "fc6"
}
layer {
  name: "drop6"
  type: "Dropout"
  bottom: "fc6"
  top: "fc6"
  dropout_param {
    dropout_ratio: 0.5
  }
}
layer {
  name: "fc7"
  type: "InnerProduct"
  bottom: "fc6"
  top: "fc7"
  param {
    lr_mult: 1
    decay_mult: 1
  }
  param {
    lr_mult: 2
    decay_mult: 0
  }
  inner_product_param {
    num_output: 4096
    weight_filler {
      type: "gaussian"
      std: 0.005
    }
    bias_filler {
      type: "constant"
      value: 0.1
    }
  }
}
layer {
  name: "relu7"
  type: "ReLU"
  bottom: "fc7"
  top: "fc7"
}
layer {
  name: "drop7"
  type: "Dropout"
  bottom: "fc7"
  top: "fc7"
  dropout_param {
    dropout_ratio: 0.5
  }
}
layer {
  name: "fc8"
  type: "InnerProduct"
  bottom: "fc7"
  top: "fc8"
  param {
    lr_mult: 1
    decay_mult: 1
  }
  param {
    lr_mult: 2
    decay_mult: 0
  }
  inner_product_param {
    num_output: 1000
    weight_filler {
      type: "gaussian"
      std: 0.01
    }
    bias_filler {
      type: "constant"
      value: 0
    }
  }
}
layer {
  name: "loss"
  type: "SoftmaxWithLoss"
  bottom: "fc8"
  bottom: "label"
  top: "loss"
}
I0116 10:40:57.212607 146225 layer_factory.hpp:77] Creating layer data
I0116 10:40:57.212755 146225 db_lmdb.cpp:35] Opened lmdb /home/DATA/imagenet_resize/lmdb_resize/ilsvrc12_train_lmdb
I0116 10:40:57.252122 146225 net.cpp:84] Creating Layer data
I0116 10:40:57.252168 146225 net.cpp:380] data -> data
I0116 10:40:57.252205 146225 net.cpp:380] data -> label
I0116 10:40:57.252252 146225 data_transformer.cpp:25] Loading mean file from: /home/DATA/imagenet_resize/imagenet_mean.binaryproto
I0116 10:40:57.258582 146225 blob.cpp:485] 1  3  256  256
I0116 10:40:57.261759 146225 data_layer.cpp:45] output data size: 256,3,227,227
I0116 10:40:57.765009 146225 net.cpp:122] Setting up data
I0116 10:40:57.765079 146225 net.cpp:129] Top shape: 256 3 227 227 (39574272)
I0116 10:40:57.765089 146225 net.cpp:129] Top shape: 256 (256)
I0116 10:40:57.765095 146225 net.cpp:137] Memory required for data: 158298112
I0116 10:40:57.765111 146225 layer_factory.hpp:77] Creating layer conv1
I0116 10:40:57.765162 146225 net.cpp:84] Creating Layer conv1
I0116 10:40:57.765173 146225 net.cpp:406] conv1 <- data
I0116 10:40:57.765197 146225 net.cpp:380] conv1 -> conv1
I0116 10:40:57.792575 146225 net.cpp:122] Setting up conv1
I0116 10:40:57.792623 146225 net.cpp:129] Top shape: 256 96 55 55 (74342400)
I0116 10:40:57.792630 146225 net.cpp:137] Memory required for data: 455667712
I0116 10:40:57.792678 146225 layer_factory.hpp:77] Creating layer relu1
I0116 10:40:57.792697 146225 net.cpp:84] Creating Layer relu1
I0116 10:40:57.792703 146225 net.cpp:406] relu1 <- conv1
I0116 10:40:57.792714 146225 net.cpp:367] relu1 -> conv1 (in-place)
I0116 10:40:57.792739 146225 net.cpp:122] Setting up relu1
I0116 10:40:57.792747 146225 net.cpp:129] Top shape: 256 96 55 55 (74342400)
I0116 10:40:57.792752 146225 net.cpp:137] Memory required for data: 753037312
I0116 10:40:57.792757 146225 layer_factory.hpp:77] Creating layer norm1
I0116 10:40:57.792770 146225 net.cpp:84] Creating Layer norm1
I0116 10:40:57.792776 146225 net.cpp:406] norm1 <- conv1
I0116 10:40:57.792784 146225 net.cpp:380] norm1 -> norm1
I0116 10:40:57.792845 146225 net.cpp:122] Setting up norm1
I0116 10:40:57.792867 146225 net.cpp:129] Top shape: 256 96 55 55 (74342400)
I0116 10:40:57.792872 146225 net.cpp:137] Memory required for data: 1050406912
I0116 10:40:57.792928 146225 layer_factory.hpp:77] Creating layer pool1
I0116 10:40:57.792942 146225 net.cpp:84] Creating Layer pool1
I0116 10:40:57.792946 146225 net.cpp:406] pool1 <- norm1
I0116 10:40:57.792955 146225 net.cpp:380] pool1 -> pool1
I0116 10:40:57.793022 146225 net.cpp:122] Setting up pool1
I0116 10:40:57.793048 146225 net.cpp:129] Top shape: 256 96 27 27 (17915904)
I0116 10:40:57.793054 146225 net.cpp:137] Memory required for data: 1122070528
I0116 10:40:57.793059 146225 layer_factory.hpp:77] Creating layer conv2
I0116 10:40:57.793081 146225 net.cpp:84] Creating Layer conv2
I0116 10:40:57.793087 146225 net.cpp:406] conv2 <- pool1
I0116 10:40:57.793108 146225 net.cpp:380] conv2 -> conv2
I0116 10:40:57.798668 146225 net.cpp:122] Setting up conv2
I0116 10:40:57.798699 146225 net.cpp:129] Top shape: 256 256 27 27 (47775744)
I0116 10:40:57.798707 146225 net.cpp:137] Memory required for data: 1313173504
I0116 10:40:57.798718 146225 layer_factory.hpp:77] Creating layer relu2
I0116 10:40:57.798729 146225 net.cpp:84] Creating Layer relu2
I0116 10:40:57.798737 146225 net.cpp:406] relu2 <- conv2
I0116 10:40:57.798745 146225 net.cpp:367] relu2 -> conv2 (in-place)
I0116 10:40:57.798755 146225 net.cpp:122] Setting up relu2
I0116 10:40:57.798763 146225 net.cpp:129] Top shape: 256 256 27 27 (47775744)
I0116 10:40:57.798769 146225 net.cpp:137] Memory required for data: 1504276480
I0116 10:40:57.798775 146225 layer_factory.hpp:77] Creating layer norm2
I0116 10:40:57.798785 146225 net.cpp:84] Creating Layer norm2
I0116 10:40:57.798792 146225 net.cpp:406] norm2 <- conv2
I0116 10:40:57.798801 146225 net.cpp:380] norm2 -> norm2
I0116 10:40:57.798846 146225 net.cpp:122] Setting up norm2
I0116 10:40:57.798857 146225 net.cpp:129] Top shape: 256 256 27 27 (47775744)
I0116 10:40:57.798863 146225 net.cpp:137] Memory required for data: 1695379456
I0116 10:40:57.798869 146225 layer_factory.hpp:77] Creating layer pool2
I0116 10:40:57.798882 146225 net.cpp:84] Creating Layer pool2
I0116 10:40:57.798887 146225 net.cpp:406] pool2 <- norm2
I0116 10:40:57.798897 146225 net.cpp:380] pool2 -> pool2
I0116 10:40:57.798938 146225 net.cpp:122] Setting up pool2
I0116 10:40:57.798949 146225 net.cpp:129] Top shape: 256 256 13 13 (11075584)
I0116 10:40:57.798955 146225 net.cpp:137] Memory required for data: 1739681792
I0116 10:40:57.798961 146225 layer_factory.hpp:77] Creating layer conv3
I0116 10:40:57.798974 146225 net.cpp:84] Creating Layer conv3
I0116 10:40:57.798981 146225 net.cpp:406] conv3 <- pool2
I0116 10:40:57.798992 146225 net.cpp:380] conv3 -> conv3
I0116 10:40:57.813107 146225 net.cpp:122] Setting up conv3
I0116 10:40:57.813127 146225 net.cpp:129] Top shape: 256 384 13 13 (16613376)
I0116 10:40:57.813133 146225 net.cpp:137] Memory required for data: 1806135296
I0116 10:40:57.813148 146225 layer_factory.hpp:77] Creating layer relu3
I0116 10:40:57.813159 146225 net.cpp:84] Creating Layer relu3
I0116 10:40:57.813166 146225 net.cpp:406] relu3 <- conv3
I0116 10:40:57.813175 146225 net.cpp:367] relu3 -> conv3 (in-place)
I0116 10:40:57.813185 146225 net.cpp:122] Setting up relu3
I0116 10:40:57.813194 146225 net.cpp:129] Top shape: 256 384 13 13 (16613376)
I0116 10:40:57.813199 146225 net.cpp:137] Memory required for data: 1872588800
I0116 10:40:57.813205 146225 layer_factory.hpp:77] Creating layer conv4
I0116 10:40:57.813217 146225 net.cpp:84] Creating Layer conv4
I0116 10:40:57.813223 146225 net.cpp:406] conv4 <- conv3
I0116 10:40:57.813235 146225 net.cpp:380] conv4 -> conv4
I0116 10:40:57.824179 146225 net.cpp:122] Setting up conv4
I0116 10:40:57.824198 146225 net.cpp:129] Top shape: 256 384 13 13 (16613376)
I0116 10:40:57.824206 146225 net.cpp:137] Memory required for data: 1939042304
I0116 10:40:57.824218 146225 layer_factory.hpp:77] Creating layer relu4
I0116 10:40:57.824228 146225 net.cpp:84] Creating Layer relu4
I0116 10:40:57.824234 146225 net.cpp:406] relu4 <- conv4
I0116 10:40:57.824244 146225 net.cpp:367] relu4 -> conv4 (in-place)
I0116 10:40:57.824254 146225 net.cpp:122] Setting up relu4
I0116 10:40:57.824261 146225 net.cpp:129] Top shape: 256 384 13 13 (16613376)
I0116 10:40:57.824290 146225 net.cpp:137] Memory required for data: 2005495808
I0116 10:40:57.824296 146225 layer_factory.hpp:77] Creating layer conv5
I0116 10:40:57.824311 146225 net.cpp:84] Creating Layer conv5
I0116 10:40:57.824316 146225 net.cpp:406] conv5 <- conv4
I0116 10:40:57.824327 146225 net.cpp:380] conv5 -> conv5
I0116 10:40:57.831540 146225 net.cpp:122] Setting up conv5
I0116 10:40:57.831558 146225 net.cpp:129] Top shape: 256 256 13 13 (11075584)
I0116 10:40:57.831568 146225 net.cpp:137] Memory required for data: 2049798144
I0116 10:40:57.831583 146225 layer_factory.hpp:77] Creating layer relu5
I0116 10:40:57.831593 146225 net.cpp:84] Creating Layer relu5
I0116 10:40:57.831600 146225 net.cpp:406] relu5 <- conv5
I0116 10:40:57.831609 146225 net.cpp:367] relu5 -> conv5 (in-place)
I0116 10:40:57.831619 146225 net.cpp:122] Setting up relu5
I0116 10:40:57.831627 146225 net.cpp:129] Top shape: 256 256 13 13 (11075584)
I0116 10:40:57.831634 146225 net.cpp:137] Memory required for data: 2094100480
I0116 10:40:57.831638 146225 layer_factory.hpp:77] Creating layer pool5
I0116 10:40:57.831648 146225 net.cpp:84] Creating Layer pool5
I0116 10:40:57.831655 146225 net.cpp:406] pool5 <- conv5
I0116 10:40:57.831665 146225 net.cpp:380] pool5 -> pool5
I0116 10:40:57.831707 146225 net.cpp:122] Setting up pool5
I0116 10:40:57.831719 146225 net.cpp:129] Top shape: 256 256 6 6 (2359296)
I0116 10:40:57.831725 146225 net.cpp:137] Memory required for data: 2103537664
I0116 10:40:57.831732 146225 layer_factory.hpp:77] Creating layer fc6
I0116 10:40:57.831748 146225 net.cpp:84] Creating Layer fc6
I0116 10:40:57.831753 146225 net.cpp:406] fc6 <- pool5
I0116 10:40:57.831763 146225 net.cpp:380] fc6 -> fc6
I0116 10:40:58.568521 146225 net.cpp:122] Setting up fc6
I0116 10:40:58.568591 146225 net.cpp:129] Top shape: 256 4096 (1048576)
I0116 10:40:58.568603 146225 net.cpp:137] Memory required for data: 2107731968
I0116 10:40:58.568651 146225 layer_factory.hpp:77] Creating layer relu6
I0116 10:40:58.568673 146225 net.cpp:84] Creating Layer relu6
I0116 10:40:58.568684 146225 net.cpp:406] relu6 <- fc6
I0116 10:40:58.568727 146225 net.cpp:367] relu6 -> fc6 (in-place)
I0116 10:40:58.568748 146225 net.cpp:122] Setting up relu6
I0116 10:40:58.568764 146225 net.cpp:129] Top shape: 256 4096 (1048576)
I0116 10:40:58.568781 146225 net.cpp:137] Memory required for data: 2111926272
I0116 10:40:58.568799 146225 layer_factory.hpp:77] Creating layer drop6
I0116 10:40:58.568826 146225 net.cpp:84] Creating Layer drop6
I0116 10:40:58.568833 146225 net.cpp:406] drop6 <- fc6
I0116 10:40:58.568840 146225 net.cpp:367] drop6 -> fc6 (in-place)
I0116 10:40:58.568913 146225 net.cpp:122] Setting up drop6
I0116 10:40:58.568944 146225 net.cpp:129] Top shape: 256 4096 (1048576)
I0116 10:40:58.568949 146225 net.cpp:137] Memory required for data: 2116120576
I0116 10:40:58.568954 146225 layer_factory.hpp:77] Creating layer fc7
I0116 10:40:58.568996 146225 net.cpp:84] Creating Layer fc7
I0116 10:40:58.569003 146225 net.cpp:406] fc7 <- fc6
I0116 10:40:58.569027 146225 net.cpp:380] fc7 -> fc7
I0116 10:40:58.900977 146225 net.cpp:122] Setting up fc7
I0116 10:40:58.901042 146225 net.cpp:129] Top shape: 256 4096 (1048576)
I0116 10:40:58.901049 146225 net.cpp:137] Memory required for data: 2120314880
I0116 10:40:58.901072 146225 layer_factory.hpp:77] Creating layer relu7
I0116 10:40:58.901106 146225 net.cpp:84] Creating Layer relu7
I0116 10:40:58.901119 146225 net.cpp:406] relu7 <- fc7
I0116 10:40:58.901139 146225 net.cpp:367] relu7 -> fc7 (in-place)
I0116 10:40:58.901155 146225 net.cpp:122] Setting up relu7
I0116 10:40:58.901166 146225 net.cpp:129] Top shape: 256 4096 (1048576)
I0116 10:40:58.901177 146225 net.cpp:137] Memory required for data: 2124509184
I0116 10:40:58.901185 146225 layer_factory.hpp:77] Creating layer drop7
I0116 10:40:58.901199 146225 net.cpp:84] Creating Layer drop7
I0116 10:40:58.901212 146225 net.cpp:406] drop7 <- fc7
I0116 10:40:58.901223 146225 net.cpp:367] drop7 -> fc7 (in-place)
I0116 10:40:58.901262 146225 net.cpp:122] Setting up drop7
I0116 10:40:58.901337 146225 net.cpp:129] Top shape: 256 4096 (1048576)
I0116 10:40:58.901353 146225 net.cpp:137] Memory required for data: 2128703488
I0116 10:40:58.901361 146225 layer_factory.hpp:77] Creating layer fc8
I0116 10:40:58.901377 146225 net.cpp:84] Creating Layer fc8
I0116 10:40:58.901384 146225 net.cpp:406] fc8 <- fc7
I0116 10:40:58.901404 146225 net.cpp:380] fc8 -> fc8
I0116 10:40:58.989567 146225 net.cpp:122] Setting up fc8
I0116 10:40:58.989635 146225 net.cpp:129] Top shape: 256 1000 (256000)
I0116 10:40:58.989642 146225 net.cpp:137] Memory required for data: 2129727488
I0116 10:40:58.989681 146225 layer_factory.hpp:77] Creating layer loss
I0116 10:40:58.989699 146225 net.cpp:84] Creating Layer loss
I0116 10:40:58.989708 146225 net.cpp:406] loss <- fc8
I0116 10:40:58.989720 146225 net.cpp:406] loss <- label
I0116 10:40:58.989751 146225 net.cpp:380] loss -> loss
I0116 10:40:58.989784 146225 layer_factory.hpp:77] Creating layer loss
…
I0116 10:40:58.993006 146225 net.cpp:294] The NetState phase (1) differed from the phase (0) specified by a rule in layer data
I0116 10:40:58.993471 146225 net.cpp:51] Initializing net from parameters: 
name: "AlexNet"
state {
  phase: TEST
}
layer {
  name: "data"
  type: "Data"
  top: "data"
  top: "label"
  include {
    phase: TEST
  }
  transform_param {
    mirror: false
    crop_size: 227
    mean_file: "/home/DATA/imagenet_resize/imagenet_mean.binaryproto"
  }
  data_param {
    source: "/home/DATA/imagenet_resize/lmdb_resize/ilsvrc12_val_lmdb"
    batch_size: 50
    backend: LMDB
  }
}
layer {
  name: "conv1"
  type: "Convolution"
  bottom: "data"
  top: "conv1"
  param {
    lr_mult: 1
    decay_mult: 1
  }
  param {
    lr_mult: 2
    decay_mult: 0
  }
  convolution_param {
    num_output: 96
    kernel_size: 11
    stride: 4
    weight_filler {
      type: "gaussian"
      std: 0.01
    }
    bias_filler {
      type: "constant"
      value: 0
    }
  }
}
layer {
  name: "relu1"
  type: "ReLU"
  bottom: "conv1"
  top: "conv1"
}
layer {
  name: "norm1"
  type: "LRN"
  bottom: "conv1"
  top: "norm1"
  lrn_param {
    local_size: 5
    alpha: 0.0001
    beta: 0.75
  }
}
layer {
  name: "pool1"
  type: "Pooling"
  bottom: "norm1"
  top: "pool1"
  pooling_param {
    pool: MAX
    kernel_size: 3
    stride: 2
  }
}
layer {
  name: "conv2"
  type: "Convolution"
  bottom: "pool1"
  top: "conv2"
  param {
    lr_mult: 1
    decay_mult: 1
  }
  param {
    lr_mult: 2
    decay_mult: 0
  }
  convolution_param {
    num_output: 256
    pad: 2
    kernel_size: 5
    group: 2
    weight_filler {
      type: "gaussian"
      std: 0.01
    }
    bias_filler {
      type: "constant"
      value: 0.1
    }
  }
}
layer {
  name: "relu2"
  type: "ReLU"
  bottom: "conv2"
  top: "conv2"
}
layer {
  name: "norm2"
  type: "LRN"
  bottom: "conv2"
  top: "norm2"
  lrn_param {
    local_size: 5
    alpha: 0.0001
    beta: 0.75
  }
}
layer {
  name: "pool2"
  type: "Pooling"
  bottom: "norm2"
  top: "pool2"
  pooling_param {
    pool: MAX
    kernel_size: 3
    stride: 2
  }
}
layer {
  name: "conv3"
  type: "Convolution"
  bottom: "pool2"
  top: "conv3"
  param {
    lr_mult: 1
    decay_mult: 1
  }
  param {
    lr_mult: 2
    decay_mult: 0
  }
  convolution_param {
    num_output: 384
    pad: 1
    kernel_size: 3
    weight_filler {
      type: "gaussian"
      std: 0.01
    }
    bias_filler {
      type: "constant"
      value: 0
    }
  }
}
layer {
  name: "relu3"
  type: "ReLU"
  bottom: "conv3"
  top: "conv3"
}
layer {
  name: "conv4"
  type: "Convolution"
  bottom: "conv3"
  top: "conv4"
  param {
    lr_mult: 1
    decay_mult: 1
  }
  param {
    lr_mult: 2
    decay_mult: 0
  }
  convolution_param {
    num_output: 384
    pad: 1
    kernel_size: 3
    group: 2
    weight_filler {
      type: "gaussian"
      std: 0.01
    }
    bias_filler {
      type: "constant"
      value: 0.1
    }
  }
}
layer {
  name: "relu4"
  type: "ReLU"
  bottom: "conv4"
  top: "conv4"
}
layer {
  name: "conv5"
  type: "Convolution"
  bottom: "conv4"
  top: "conv5"
  param {
    lr_mult: 1
    decay_mult: 1
  }
  param {
    lr_mult: 2
    decay_mult: 0
  }
  convolution_param {
    num_output: 256
    pad: 1
    kernel_size: 3
    group: 2
    weight_filler {
      type: "gaussian"
      std: 0.01
    }
    bias_filler {
      type: "constant"
      value: 0.1
    }
  }
}
layer {
  name: "relu5"
  type: "ReLU"
  bottom: "conv5"
  top: "conv5"
}
layer {
  name: "pool5"
  type: "Pooling"
  bottom: "conv5"
  top: "pool5"
  pooling_param {
    pool: MAX
    kernel_size: 3
    stride: 2
  }
}
layer {
  name: "fc6"
  type: "InnerProduct"
  bottom: "pool5"
  top: "fc6"
  param {
    lr_mult: 1
    decay_mult: 1
  }
  param {
    lr_mult: 2
    decay_mult: 0
  }
  inner_product_param {
    num_output: 4096
    weight_filler {
      type: "gaussian"
      std: 0.005
    }
    bias_filler {
      type: "constant"
      value: 0.1
    }
  }
}
layer {
  name: "relu6"
  type: "ReLU"
  bottom: "fc6"
  top: "fc6"
}
layer {
  name: "drop6"
  type: "Dropout"
  bottom: "fc6"
  top: "fc6"
  dropout_param {
    dropout_ratio: 0.5
  }
}
layer {
  name: "fc7"
  type: "InnerProduct"
  bottom: "fc6"
  top: "fc7"
  param {
    lr_mult: 1
    decay_mult: 1
  }
  param {
    lr_mult: 2
    decay_mult: 0
  }
  inner_product_param {
    num_output: 4096
    weight_filler {
      type: "gaussian"
      std: 0.005
    }
    bias_filler {
      type: "constant"
      value: 0.1
    }
  }
}
layer {
  name: "relu7"
  type: "ReLU"
  bottom: "fc7"
  top: "fc7"
}
layer {
  name: "drop7"
  type: "Dropout"
  bottom: "fc7"
  top: "fc7"
  dropout_param {
    dropout_ratio: 0.5
  }
}
layer {
  name: "fc8"
  type: "InnerProduct"
  bottom: "fc7"
  top: "fc8"
  param {
    lr_mult: 1
    decay_mult: 1
  }
  param {
    lr_mult: 2
    decay_mult: 0
  }
  inner_product_param {
    num_output: 1000
    weight_filler {
      type: "gaussian"
      std: 0.01
    }
    bias_filler {
      type: "constant"
      value: 0
    }
  }
}
layer {
  name: "accuracy"
  type: "Accuracy"
  bottom: "fc8"
  bottom: "label"
  top: "accuracy"
  include {
    phase: TEST
  }
}
layer {
  name: "loss"
  type: "SoftmaxWithLoss"
  bottom: "fc8"
  bottom: "label"
  top: "loss"
}
I0116 10:40:58.993779 146225 layer_factory.hpp:77] Creating layer data
I0116 10:40:58.993952 146225 db_lmdb.cpp:35] Opened lmdb /home/DATA/imagenet_resize/lmdb_resize/ilsvrc12_val_lmdb
I0116 10:40:58.994052 146225 net.cpp:84] Creating Layer data
I0116 10:40:58.994081 146225 net.cpp:380] data -> data
I0116 10:40:58.994109 146225 net.cpp:380] data -> label
I0116 10:40:58.994140 146225 data_transformer.cpp:25] Loading mean file from: /home/DATA/imagenet_resize/imagenet_mean.binaryproto
I0116 10:40:58.996373 146225 blob.cpp:485] 1  3  256  256
I0116 10:40:58.997138 146225 data_layer.cpp:45] output data size: 50,3,227,227
I0116 10:40:59.144979 146225 net.cpp:122] Setting up data
I0116 10:40:59.145035 146225 net.cpp:129] Top shape: 50 3 227 227 (7729350)
I0116 10:40:59.145053 146225 net.cpp:129] Top shape: 50 (50)
I0116 10:40:59.145061 146225 net.cpp:137] Memory required for data: 30917600
I0116 10:40:59.145073 146225 layer_factory.hpp:77] Creating layer label_data_1_split
I0116 10:40:59.145097 146225 net.cpp:84] Creating Layer label_data_1_split
I0116 10:40:59.145107 146225 net.cpp:406] label_data_1_split <- label
I0116 10:40:59.145120 146225 net.cpp:380] label_data_1_split -> label_data_1_split_0
I0116 10:40:59.145140 146225 net.cpp:380] label_data_1_split -> label_data_1_split_1
I0116 10:40:59.145203 146225 net.cpp:122] Setting up label_data_1_split
I0116 10:40:59.145215 146225 net.cpp:129] Top shape: 50 (50)
I0116 10:40:59.145223 146225 net.cpp:129] Top shape: 50 (50)
I0116 10:40:59.145229 146225 net.cpp:137] Memory required for data: 30918000
I0116 10:40:59.145236 146225 layer_factory.hpp:77] Creating layer conv1
I0116 10:40:59.145258 146225 net.cpp:84] Creating Layer conv1
I0116 10:40:59.145267 146225 net.cpp:406] conv1 <- data
I0116 10:40:59.145277 146225 net.cpp:380] conv1 -> conv1
I0116 10:40:59.146054 146225 net.cpp:122] Setting up conv1
I0116 10:40:59.146069 146225 net.cpp:129] Top shape: 50 96 55 55 (14520000)
I0116 10:40:59.146075 146225 net.cpp:137] Memory required for data: 88998000
I0116 10:40:59.146092 146225 layer_factory.hpp:77] Creating layer relu1
I0116 10:40:59.146104 146225 net.cpp:84] Creating Layer relu1
I0116 10:40:59.146111 146225 net.cpp:406] relu1 <- conv1
I0116 10:40:59.146122 146225 net.cpp:367] relu1 -> conv1 (in-place)
I0116 10:40:59.146133 146225 net.cpp:122] Setting up relu1
I0116 10:40:59.146142 146225 net.cpp:129] Top shape: 50 96 55 55 (14520000)
I0116 10:40:59.146148 146225 net.cpp:137] Memory required for data: 147078000
I0116 10:40:59.146154 146225 layer_factory.hpp:77] Creating layer norm1
I0116 10:40:59.146168 146225 net.cpp:84] Creating Layer norm1
I0116 10:40:59.146175 146225 net.cpp:406] norm1 <- conv1
I0116 10:40:59.146185 146225 net.cpp:380] norm1 -> norm1
I0116 10:40:59.146232 146225 net.cpp:122] Setting up norm1
I0116 10:40:59.146245 146225 net.cpp:129] Top shape: 50 96 55 55 (14520000)
I0116 10:40:59.146251 146225 net.cpp:137] Memory required for data: 205158000
I0116 10:40:59.146258 146225 layer_factory.hpp:77] Creating layer pool1
I0116 10:40:59.146270 146225 net.cpp:84] Creating Layer pool1
I0116 10:40:59.146277 146225 net.cpp:406] pool1 <- norm1
I0116 10:40:59.146287 146225 net.cpp:380] pool1 -> pool1
I0116 10:40:59.146332 146225 net.cpp:122] Setting up pool1
I0116 10:40:59.146343 146225 net.cpp:129] Top shape: 50 96 27 27 (3499200)
I0116 10:40:59.146349 146225 net.cpp:137] Memory required for data: 219154800
I0116 10:40:59.146356 146225 layer_factory.hpp:77] Creating layer conv2
I0116 10:40:59.146370 146225 net.cpp:84] Creating Layer conv2
I0116 10:40:59.146378 146225 net.cpp:406] conv2 <- pool1
I0116 10:40:59.146389 146225 net.cpp:380] conv2 -> conv2
I0116 10:40:59.153085 146225 net.cpp:122] Setting up conv2
I0116 10:40:59.153146 146225 net.cpp:129] Top shape: 50 256 27 27 (9331200)
I0116 10:40:59.153156 146225 net.cpp:137] Memory required for data: 256479600
I0116 10:40:59.153170 146225 layer_factory.hpp:77] Creating layer relu2
I0116 10:40:59.153183 146225 net.cpp:84] Creating Layer relu2
I0116 10:40:59.153192 146225 net.cpp:406] relu2 <- conv2
I0116 10:40:59.153203 146225 net.cpp:367] relu2 -> conv2 (in-place)
I0116 10:40:59.153214 146225 net.cpp:122] Setting up relu2
I0116 10:40:59.153223 146225 net.cpp:129] Top shape: 50 256 27 27 (9331200)
I0116 10:40:59.153229 146225 net.cpp:137] Memory required for data: 293804400
I0116 10:40:59.153235 146225 layer_factory.hpp:77] Creating layer norm2
I0116 10:40:59.153249 146225 net.cpp:84] Creating Layer norm2
I0116 10:40:59.153255 146225 net.cpp:406] norm2 <- conv2
I0116 10:40:59.153264 146225 net.cpp:380] norm2 -> norm2
I0116 10:40:59.153326 146225 net.cpp:122] Setting up norm2
I0116 10:40:59.153340 146225 net.cpp:129] Top shape: 50 256 27 27 (9331200)
I0116 10:40:59.153347 146225 net.cpp:137] Memory required for data: 331129200
I0116 10:40:59.153353 146225 layer_factory.hpp:77] Creating layer pool2
I0116 10:40:59.153365 146225 net.cpp:84] Creating Layer pool2
I0116 10:40:59.153384 146225 net.cpp:406] pool2 <- norm2
I0116 10:40:59.153395 146225 net.cpp:380] pool2 -> pool2
I0116 10:40:59.153443 146225 net.cpp:122] Setting up pool2
I0116 10:40:59.153455 146225 net.cpp:129] Top shape: 50 256 13 13 (2163200)
I0116 10:40:59.153477 146225 net.cpp:137] Memory required for data: 339782000
I0116 10:40:59.153486 146225 layer_factory.hpp:77] Creating layer conv3
I0116 10:40:59.153501 146225 net.cpp:84] Creating Layer conv3
I0116 10:40:59.153508 146225 net.cpp:406] conv3 <- pool2
I0116 10:40:59.153519 146225 net.cpp:380] conv3 -> conv3
I0116 10:40:59.167570 146225 net.cpp:122] Setting up conv3
I0116 10:40:59.167593 146225 net.cpp:129] Top shape: 50 384 13 13 (3244800)
I0116 10:40:59.167610 146225 net.cpp:137] Memory required for data: 352761200
I0116 10:40:59.167626 146225 layer_factory.hpp:77] Creating layer relu3
I0116 10:40:59.167639 146225 net.cpp:84] Creating Layer relu3
I0116 10:40:59.167646 146225 net.cpp:406] relu3 <- conv3
I0116 10:40:59.167656 146225 net.cpp:367] relu3 -> conv3 (in-place)
I0116 10:40:59.167668 146225 net.cpp:122] Setting up relu3
I0116 10:40:59.167677 146225 net.cpp:129] Top shape: 50 384 13 13 (3244800)
I0116 10:40:59.167683 146225 net.cpp:137] Memory required for data: 365740400
I0116 10:40:59.167690 146225 layer_factory.hpp:77] Creating layer conv4
I0116 10:40:59.167703 146225 net.cpp:84] Creating Layer conv4
I0116 10:40:59.167711 146225 net.cpp:406] conv4 <- conv3
I0116 10:40:59.167722 146225 net.cpp:380] conv4 -> conv4
I0116 10:40:59.178282 146225 net.cpp:122] Setting up conv4
I0116 10:40:59.178316 146225 net.cpp:129] Top shape: 50 384 13 13 (3244800)
I0116 10:40:59.178325 146225 net.cpp:137] Memory required for data: 378719600
I0116 10:40:59.178351 146225 layer_factory.hpp:77] Creating layer relu4
I0116 10:40:59.178366 146225 net.cpp:84] Creating Layer relu4
I0116 10:40:59.178375 146225 net.cpp:406] relu4 <- conv4
I0116 10:40:59.178387 146225 net.cpp:367] relu4 -> conv4 (in-place)
I0116 10:40:59.178401 146225 net.cpp:122] Setting up relu4
I0116 10:40:59.178411 146225 net.cpp:129] Top shape: 50 384 13 13 (3244800)
I0116 10:40:59.178417 146225 net.cpp:137] Memory required for data: 391698800
I0116 10:40:59.178423 146225 layer_factory.hpp:77] Creating layer conv5
I0116 10:40:59.178438 146225 net.cpp:84] Creating Layer conv5
I0116 10:40:59.178445 146225 net.cpp:406] conv5 <- conv4
I0116 10:40:59.178457 146225 net.cpp:380] conv5 -> conv5
I0116 10:40:59.189431 146225 net.cpp:122] Setting up conv5
I0116 10:40:59.189483 146225 net.cpp:129] Top shape: 50 256 13 13 (2163200)
I0116 10:40:59.189491 146225 net.cpp:137] Memory required for data: 400351600
I0116 10:40:59.189517 146225 layer_factory.hpp:77] Creating layer relu5
I0116 10:40:59.189535 146225 net.cpp:84] Creating Layer relu5
I0116 10:40:59.189544 146225 net.cpp:406] relu5 <- conv5
I0116 10:40:59.189615 146225 net.cpp:367] relu5 -> conv5 (in-place)
I0116 10:40:59.189631 146225 net.cpp:122] Setting up relu5
I0116 10:40:59.189640 146225 net.cpp:129] Top shape: 50 256 13 13 (2163200)
I0116 10:40:59.189647 146225 net.cpp:137] Memory required for data: 409004400
I0116 10:40:59.189654 146225 layer_factory.hpp:77] Creating layer pool5
I0116 10:40:59.189671 146225 net.cpp:84] Creating Layer pool5
I0116 10:40:59.189678 146225 net.cpp:406] pool5 <- conv5
I0116 10:40:59.189688 146225 net.cpp:380] pool5 -> pool5
I0116 10:40:59.189759 146225 net.cpp:122] Setting up pool5
I0116 10:40:59.189772 146225 net.cpp:129] Top shape: 50 256 6 6 (460800)
I0116 10:40:59.189779 146225 net.cpp:137] Memory required for data: 410847600
I0116 10:40:59.189792 146225 layer_factory.hpp:77] Creating layer fc6
I0116 10:40:59.189806 146225 net.cpp:84] Creating Layer fc6
I0116 10:40:59.189821 146225 net.cpp:406] fc6 <- pool5
I0116 10:40:59.189832 146225 net.cpp:380] fc6 -> fc6
I0116 10:40:59.949478 146225 net.cpp:122] Setting up fc6
I0116 10:40:59.949568 146225 net.cpp:129] Top shape: 50 4096 (204800)
I0116 10:40:59.949578 146225 net.cpp:137] Memory required for data: 411666800
I0116 10:40:59.949632 146225 layer_factory.hpp:77] Creating layer relu6
I0116 10:40:59.949666 146225 net.cpp:84] Creating Layer relu6
I0116 10:40:59.949689 146225 net.cpp:406] relu6 <- fc6
I0116 10:40:59.949705 146225 net.cpp:367] relu6 -> fc6 (in-place)
I0116 10:40:59.949733 146225 net.cpp:122] Setting up relu6
I0116 10:40:59.949740 146225 net.cpp:129] Top shape: 50 4096 (204800)
I0116 10:40:59.949750 146225 net.cpp:137] Memory required for data: 412486000
I0116 10:40:59.949755 146225 layer_factory.hpp:77] Creating layer drop6
I0116 10:40:59.949766 146225 net.cpp:84] Creating Layer drop6
I0116 10:40:59.949774 146225 net.cpp:406] drop6 <- fc6
I0116 10:40:59.949784 146225 net.cpp:367] drop6 -> fc6 (in-place)
I0116 10:40:59.949861 146225 net.cpp:122] Setting up drop6
I0116 10:40:59.949878 146225 net.cpp:129] Top shape: 50 4096 (204800)
I0116 10:40:59.949892 146225 net.cpp:137] Memory required for data: 413305200
I0116 10:40:59.949898 146225 layer_factory.hpp:77] Creating layer fc7
I0116 10:40:59.949913 146225 net.cpp:84] Creating Layer fc7
I0116 10:40:59.949920 146225 net.cpp:406] fc7 <- fc6
I0116 10:40:59.949931 146225 net.cpp:380] fc7 -> fc7
I0116 10:41:00.292821 146225 net.cpp:122] Setting up fc7
I0116 10:41:00.292891 146225 net.cpp:129] Top shape: 50 4096 (204800)
I0116 10:41:00.292898 146225 net.cpp:137] Memory required for data: 414124400
I0116 10:41:00.292917 146225 layer_factory.hpp:77] Creating layer relu7
I0116 10:41:00.292937 146225 net.cpp:84] Creating Layer relu7
I0116 10:41:00.292960 146225 net.cpp:406] relu7 <- fc7
I0116 10:41:00.292974 146225 net.cpp:367] relu7 -> fc7 (in-place)
I0116 10:41:00.292990 146225 net.cpp:122] Setting up relu7
I0116 10:41:00.292999 146225 net.cpp:129] Top shape: 50 4096 (204800)
I0116 10:41:00.293004 146225 net.cpp:137] Memory required for data: 414943600
I0116 10:41:00.293011 146225 layer_factory.hpp:77] Creating layer drop7
I0116 10:41:00.293023 146225 net.cpp:84] Creating Layer drop7
I0116 10:41:00.293030 146225 net.cpp:406] drop7 <- fc7
I0116 10:41:00.293040 146225 net.cpp:367] drop7 -> fc7 (in-place)
I0116 10:41:00.293092 146225 net.cpp:122] Setting up drop7
I0116 10:41:00.293102 146225 net.cpp:129] Top shape: 50 4096 (204800)
I0116 10:41:00.293118 146225 net.cpp:137] Memory required for data: 415762800
I0116 10:41:00.293124 146225 layer_factory.hpp:77] Creating layer fc8
I0116 10:41:00.293138 146225 net.cpp:84] Creating Layer fc8
I0116 10:41:00.293145 146225 net.cpp:406] fc8 <- fc7
I0116 10:41:00.293157 146225 net.cpp:380] fc8 -> fc8
I0116 10:41:00.383796 146225 net.cpp:122] Setting up fc8
I0116 10:41:00.383898 146225 net.cpp:129] Top shape: 50 1000 (50000)
I0116 10:41:00.383920 146225 net.cpp:137] Memory required for data: 415962800
I0116 10:41:00.383950 146225 layer_factory.hpp:77] Creating layer fc8_fc8_0_split
I0116 10:41:00.383987 146225 net.cpp:84] Creating Layer fc8_fc8_0_split
I0116 10:41:00.384001 146225 net.cpp:406] fc8_fc8_0_split <- fc8
I0116 10:41:00.384083 146225 net.cpp:380] fc8_fc8_0_split -> fc8_fc8_0_split_0
I0116 10:41:00.384107 146225 net.cpp:380] fc8_fc8_0_split -> fc8_fc8_0_split_1
I0116 10:41:00.384181 146225 net.cpp:122] Setting up fc8_fc8_0_split
I0116 10:41:00.384197 146225 net.cpp:129] Top shape: 50 1000 (50000)
I0116 10:41:00.384209 146225 net.cpp:129] Top shape: 50 1000 (50000)
I0116 10:41:00.384218 146225 net.cpp:137] Memory required for data: 416362800
I0116 10:41:00.384227 146225 layer_factory.hpp:77] Creating layer accuracy
I0116 10:41:00.384244 146225 net.cpp:84] Creating Layer accuracy
I0116 10:41:00.384255 146225 net.cpp:406] accuracy <- fc8_fc8_0_split_0
I0116 10:41:00.384263 146225 net.cpp:406] accuracy <- label_data_1_split_0
I0116 10:41:00.384277 146225 net.cpp:380] accuracy -> accuracy
…
