…
I1225 16:48:10.428560 61713 net.cpp:294] The NetState phase (0) differed from the phase (1) specified by a rule in layer data
I1225 16:48:10.428917 61713 net.cpp:51] Initializing net from parameters: 
state {
  phase: TRAIN
  level: 0
  stage: ""
}
layer {
  name: "data"
  type: "Data"
  top: "data"
  top: "label"
  include {
    phase: TRAIN
  }
  transform_param {
    mirror: false
    crop_size: 227
    mean_file: "/home/ydwu/database/imagenet/ilsvrc12/imagenet_mean.binaryproto"
  }
  data_param {
    source: "/home/ydwu/database/imagenet/ilsvrc12/lmdb_resize/ilsvrc12_train_lmdb/"
    batch_size: 32
    backend: LMDB
  }
}
layer {
  name: "quantized_data"
  type: "Quantization"
  bottom: "data"
  top: "quantized_data"
  quantization_param {
    round_method: FLOOR
    round_strategy: AGGRESSIVE
    bit_width: 4
    range: -129.93526
    range: 160.78912
  }
}
layer {
  name: "conv1"
  type: "Convolution"
  bottom: "quantized_data"
  top: "conv1"
  param {
    lr_mult: 1
    decay_mult: 1
  }
  param {
    lr_mult: 2
    decay_mult: 0
  }
  convolution_param {
    num_output: 96
    pad: 0
    kernel_size: 11
    group: 1
    stride: 4
    weight_filler {
      type: "gaussian"
      std: 1.1e+13
    }
    bias_filler {
      type: "constant"
      std: 0.1
    }
  }
}
layer {
  name: "quantized_conv1"
  type: "Quantization"
  bottom: "conv1"
  top: "quantized_conv1"
  quantization_param {
    round_method: FLOOR
    round_strategy: AGGRESSIVE
    bit_width: 4
    range: -2732.7351
    range: 2531.042
  }
}
layer {
  name: "relu1"
  type: "ReLU"
  bottom: "quantized_conv1"
  top: "relu1"
}
layer {
  name: "quantized_relu1"
  type: "Quantization"
  bottom: "relu1"
  top: "quantized_relu1"
  quantization_param {
    round_method: FLOOR
    round_strategy: AGGRESSIVE
    bit_width: 4
    range: 1
    range: 2531.042
  }
}
layer {
  name: "pool1"
  type: "Pooling"
  bottom: "quantized_relu1"
  top: "pool1"
  pooling_param {
    pool: MAX
    kernel_size: 3
    stride: 2
  }
}
layer {
  name: "quantized_pool1"
  type: "Quantization"
  bottom: "pool1"
  top: "quantized_pool1"
  quantization_param {
    round_method: FLOOR
    round_strategy: AGGRESSIVE
    bit_width: 4
    range: 1
    range: 2531.042
  }
}
layer {
  name: "norm1"
  type: "LRN"
  bottom: "quantized_pool1"
  top: "norm1"
  lrn_param {
    local_size: 5
    alpha: 0.0001
    beta: 0.75
  }
}
layer {
  name: "quantized_norm1"
  type: "Quantization"
  bottom: "norm1"
  top: "quantized_norm1"
  quantization_param {
    round_method: FLOOR
    round_strategy: AGGRESSIVE
    bit_width: 4
    range: 1
    range: 138.70576
  }
}
layer {
  name: "conv2"
  type: "Convolution"
  bottom: "quantized_norm1"
  top: "conv2"
  param {
    lr_mult: 1
    decay_mult: 1
  }
  param {
    lr_mult: 2
    decay_mult: 0
  }
  convolution_param {
    num_output: 256
    pad: 2
    kernel_size: 5
    group: 2
    stride: 1
    weight_filler {
      type: "gaussian"
      std: 1.1e+13
    }
    bias_filler {
      type: "constant"
      std: 0.1
    }
  }
}
layer {
  name: "quantized_conv2"
  type: "Quantization"
  bottom: "conv2"
  top: "quantized_conv2"
  quantization_param {
    round_method: FLOOR
    round_strategy: AGGRESSIVE
    bit_width: 4
    range: -647.61908
    range: 492.23111
  }
}
layer {
  name: "relu2"
  type: "ReLU"
  bottom: "quantized_conv2"
  top: "relu2"
}
layer {
  name: "quantized_relu2"
  type: "Quantization"
  bottom: "relu2"
  top: "quantized_relu2"
  quantization_param {
    round_method: FLOOR
    round_strategy: AGGRESSIVE
    bit_width: 4
    range: 1
    range: 492.23111
  }
}
layer {
  name: "pool2"
  type: "Pooling"
  bottom: "quantized_relu2"
  top: "pool2"
  pooling_param {
    pool: MAX
    kernel_size: 3
    stride: 2
  }
}
layer {
  name: "quantized_pool2"
  type: "Quantization"
  bottom: "pool2"
  top: "quantized_pool2"
  quantization_param {
    round_method: FLOOR
    round_strategy: AGGRESSIVE
    bit_width: 4
    range: 1
    range: 492.23111
  }
}
layer {
  name: "norm2"
  type: "LRN"
  bottom: "quantized_pool2"
  top: "norm2"
  lrn_param {
    local_size: 5
    alpha: 0.0001
    beta: 0.75
  }
}
layer {
  name: "quantized_norm2"
  type: "Quantization"
  bottom: "norm2"
  top: "quantized_norm2"
  quantization_param {
    round_method: FLOOR
    round_strategy: AGGRESSIVE
    bit_width: 4
    range: 1
    range: 138.72636
  }
}
layer {
  name: "conv3"
  type: "Convolution"
  bottom: "quantized_norm2"
  top: "conv3"
  param {
    lr_mult: 1
    decay_mult: 1
  }
  param {
    lr_mult: 2
    decay_mult: 0
  }
  convolution_param {
    num_output: 384
    pad: 1
    kernel_size: 3
    group: 1
    stride: 1
    weight_filler {
      type: "gaussian"
      std: 1.1e+13
    }
    bias_filler {
      type: "constant"
      std: 0.1
    }
  }
}
layer {
  name: "quantized_conv3"
  type: "Quantization"
  bottom: "conv3"
  top: "quantized_conv3"
  quantization_param {
    round_method: FLOOR
    round_strategy: AGGRESSIVE
    bit_width: 4
    range: -389.56516
    range: 331.98178
  }
}
layer {
  name: "relu3"
  type: "ReLU"
  bottom: "quantized_conv3"
  top: "relu3"
}
layer {
  name: "quantized_relu3"
  type: "Quantization"
  bottom: "relu3"
  top: "quantized_relu3"
  quantization_param {
    round_method: FLOOR
    round_strategy: AGGRESSIVE
    bit_width: 4
    range: 1
    range: 331.98178
  }
}
layer {
  name: "conv4"
  type: "Convolution"
  bottom: "quantized_relu3"
  top: "conv4"
  param {
    lr_mult: 1
    decay_mult: 1
  }
  param {
    lr_mult: 2
    decay_mult: 0
  }
  convolution_param {
    num_output: 384
    pad: 1
    kernel_size: 3
    group: 2
    stride: 1
    weight_filler {
      type: "gaussian"
      std: 1.1e+13
    }
    bias_filler {
      type: "constant"
      std: 0.1
    }
  }
}
layer {
  name: "quantized_conv4"
  type: "Quantization"
  bottom: "conv4"
  top: "quantized_conv4"
  quantization_param {
    round_method: FLOOR
    round_strategy: AGGRESSIVE
    bit_width: 4
    range: -231.20598
    range: 283.87189
  }
}
layer {
  name: "relu4"
  type: "ReLU"
  bottom: "quantized_conv4"
  top: "relu4"
}
layer {
  name: "quantized_relu4"
  type: "Quantization"
  bottom: "relu4"
  top: "quantized_relu4"
  quantization_param {
    round_method: FLOOR
    round_strategy: AGGRESSIVE
    bit_width: 4
    range: 1
    range: 283.87189
  }
}
layer {
  name: "conv5"
  type: "Convolution"
  bottom: "quantized_relu4"
  top: "conv5"
  param {
    lr_mult: 1
    decay_mult: 1
  }
  param {
    lr_mult: 2
    decay_mult: 0
  }
  convolution_param {
    num_output: 256
    pad: 1
    kernel_size: 3
    group: 2
    stride: 1
    weight_filler {
      type: "gaussian"
      std: 1.1e+13
    }
    bias_filler {
      type: "constant"
      std: 0.1
    }
  }
}
layer {
  name: "quantized_conv5"
  type: "Quantization"
  bottom: "conv5"
  top: "quantized_conv5"
  quantization_param {
    round_method: FLOOR
    round_strategy: AGGRESSIVE
    bit_width: 4
    range: -172.60567
    range: 272.57315
  }
}
layer {
  name: "relu5"
  type: "ReLU"
  bottom: "quantized_conv5"
  top: "relu5"
}
layer {
  name: "quantized_relu5"
  type: "Quantization"
  bottom: "relu5"
  top: "quantized_relu5"
  quantization_param {
    round_method: FLOOR
    round_strategy: AGGRESSIVE
    bit_width: 4
    range: 1
    range: 272.57315
  }
}
layer {
  name: "pool5"
  type: "Pooling"
  bottom: "quantized_relu5"
  top: "pool5"
  pooling_param {
    pool: MAX
    kernel_size: 3
    stride: 2
  }
}
layer {
  name: "quantized_pool5"
  type: "Quantization"
  bottom: "pool5"
  top: "quantized_pool5"
  quantization_param {
    round_method: FLOOR
    round_strategy: AGGRESSIVE
    bit_width: 4
    range: 1
    range: 272.57315
  }
}
layer {
  name: "fc6"
  type: "InnerProduct"
  bottom: "quantized_pool5"
  top: "fc6"
  param {
    lr_mult: 1
    decay_mult: 1
  }
  param {
    lr_mult: 2
    decay_mult: 0
  }
  inner_product_param {
    num_output: 4096
    weight_filler {
      type: "gaussian"
      std: 1.05e+13
    }
    bias_filler {
      type: "constant"
      value: 0.1
    }
  }
}
layer {
  name: "quantized_fc6"
  type: "Quantization"
  bottom: "fc6"
  top: "quantized_fc6"
  quantization_param {
    round_method: FLOOR
    round_strategy: AGGRESSIVE
    bit_width: 4
    range: -114.02487
    range: 58.541733
  }
}
layer {
  name: "relu6"
  type: "ReLU"
  bottom: "quantized_fc6"
  top: "relu6"
}
layer {
  name: "quantized_relu6"
  type: "Quantization"
  bottom: "relu6"
  top: "quantized_relu6"
  quantization_param {
    round_method: FLOOR
    round_strategy: AGGRESSIVE
    bit_width: 4
    range: 1
    range: 58.541733
  }
}
layer {
  name: "fc7"
  type: "InnerProduct"
  bottom: "quantized_relu6"
  top: "fc7"
  param {
    lr_mult: 1
    decay_mult: 1
  }
  param {
    lr_mult: 2
    decay_mult: 0
  }
  inner_product_param {
    num_output: 4096
    weight_filler {
      type: "gaussian"
      std: 1.05e+13
    }
    bias_filler {
      type: "constant"
      value: 0.1
    }
  }
}
layer {
  name: "quantized_fc7"
  type: "Quantization"
  bottom: "fc7"
  top: "quantized_fc7"
  quantization_param {
    round_method: FLOOR
    round_strategy: AGGRESSIVE
    bit_width: 4
    range: -26.019335
    range: 19.125257
  }
}
layer {
  name: "relu7"
  type: "ReLU"
  bottom: "quantized_fc7"
  top: "relu7"
}
layer {
  name: "quantized_relu7"
  type: "Quantization"
  bottom: "relu7"
  top: "quantized_relu7"
  quantization_param {
    round_method: FLOOR
    round_strategy: AGGRESSIVE
    bit_width: 4
    range: 1
    range: 19.125257
  }
}
layer {
  name: "fc8"
  type: "InnerProduct"
  bottom: "quantized_relu7"
  top: "fc8"
  param {
    lr_mult: 1
    decay_mult: 1
  }
  param {
    lr_mult: 2
    decay_mult: 0
  }
  inner_product_param {
    num_output: 1000
  }
}
layer {
  name: "quantized_fc8"
  type: "Quantization"
  bottom: "fc8"
  top: "quantized_fc8"
  quantization_param {
    round_method: FLOOR
    round_strategy: AGGRESSIVE
    bit_width: 4
    range: -9.849781
    range: 45.688446
  }
}
layer {
  name: "probs"
  type: "Softmax"
  bottom: "quantized_fc8"
  top: "probs"
}
layer {
  name: "loss"
  type: "SoftmaxWithLoss"
  bottom: "quantized_fc8"
  bottom: "label"
  top: "loss"
}
layer {
  name: "acc_top1"
  type: "Accuracy"
  bottom: "quantized_fc8"
  bottom: "label"
  top: "acc_top1"
  accuracy_param {
    top_k: 1
  }
}
layer {
  name: "acc_top5"
  type: "Accuracy"
  bottom: "quantized_fc8"
  bottom: "label"
  top: "acc_top5"
  accuracy_param {
    top_k: 5
  }
}
I1225 16:48:10.429200 61713 layer_factory.hpp:77] Creating layer data
I1225 16:48:10.429316 61713 db_lmdb.cpp:35] Opened lmdb /home/ydwu/database/imagenet/ilsvrc12/lmdb_resize/ilsvrc12_train_lmdb/
I1225 16:48:10.429368 61713 net.cpp:84] Creating Layer data
I1225 16:48:10.429388 61713 net.cpp:380] data -> data
I1225 16:48:10.429422 61713 net.cpp:380] data -> label
I1225 16:48:10.429446 61713 data_transformer.cpp:25] Loading mean file from: /home/ydwu/database/imagenet/ilsvrc12/imagenet_mean.binaryproto
I1225 16:48:10.431957 61713 data_layer.cpp:45] output data size: 32,3,227,227
I1225 16:48:10.453814 61713 net.cpp:122] Setting up data
I1225 16:48:10.453886 61713 net.cpp:129] Top shape: 32 3 227 227 (4946784)
I1225 16:48:10.453899 61713 net.cpp:129] Top shape: 32 (32)
I1225 16:48:10.453908 61713 net.cpp:137] Memory required for data: 19787264
I1225 16:48:10.453927 61713 layer_factory.hpp:77] Creating layer label_data_1_split
I1225 16:48:10.453951 61713 net.cpp:84] Creating Layer label_data_1_split
I1225 16:48:10.453963 61713 net.cpp:406] label_data_1_split <- label
I1225 16:48:10.453990 61713 net.cpp:380] label_data_1_split -> label_data_1_split_0
I1225 16:48:10.454010 61713 net.cpp:380] label_data_1_split -> label_data_1_split_1
I1225 16:48:10.454066 61713 net.cpp:380] label_data_1_split -> label_data_1_split_2
I1225 16:48:10.454089 61713 net.cpp:122] Setting up label_data_1_split
I1225 16:48:10.454102 61713 net.cpp:129] Top shape: 32 (32)
I1225 16:48:10.454111 61713 net.cpp:129] Top shape: 32 (32)
I1225 16:48:10.454120 61713 net.cpp:129] Top shape: 32 (32)
I1225 16:48:10.454128 61713 net.cpp:137] Memory required for data: 19787648
I1225 16:48:10.454136 61713 layer_factory.hpp:77] Creating layer quantized_data
I1225 16:48:10.454152 61713 net.cpp:84] Creating Layer quantized_data
I1225 16:48:10.454161 61713 net.cpp:406] quantized_data <- data
I1225 16:48:10.454172 61713 net.cpp:380] quantized_data -> quantized_data
I1225 16:48:10.454190 61713 net.cpp:122] Setting up quantized_data
I1225 16:48:10.454202 61713 net.cpp:129] Top shape: 32 3 227 227 (4946784)
I1225 16:48:10.454210 61713 net.cpp:137] Memory required for data: 39574784
I1225 16:48:10.454218 61713 layer_factory.hpp:77] Creating layer conv1
I1225 16:48:10.454244 61713 net.cpp:84] Creating Layer conv1
I1225 16:48:10.454254 61713 net.cpp:406] conv1 <- quantized_data
I1225 16:48:10.454267 61713 net.cpp:380] conv1 -> conv1
I1225 16:48:10.455358 61713 net.cpp:122] Setting up conv1
I1225 16:48:10.455375 61713 net.cpp:129] Top shape: 32 96 55 55 (9292800)
I1225 16:48:10.455384 61713 net.cpp:137] Memory required for data: 76745984
I1225 16:48:10.455405 61713 layer_factory.hpp:77] Creating layer quantized_conv1
I1225 16:48:10.455420 61713 net.cpp:84] Creating Layer quantized_conv1
I1225 16:48:10.455430 61713 net.cpp:406] quantized_conv1 <- conv1
I1225 16:48:10.455440 61713 net.cpp:380] quantized_conv1 -> quantized_conv1
I1225 16:48:10.455453 61713 net.cpp:122] Setting up quantized_conv1
I1225 16:48:10.455464 61713 net.cpp:129] Top shape: 32 96 55 55 (9292800)
I1225 16:48:10.455473 61713 net.cpp:137] Memory required for data: 113917184
I1225 16:48:10.455482 61713 layer_factory.hpp:77] Creating layer relu1
I1225 16:48:10.455495 61713 net.cpp:84] Creating Layer relu1
I1225 16:48:10.455505 61713 net.cpp:406] relu1 <- quantized_conv1
I1225 16:48:10.455515 61713 net.cpp:380] relu1 -> relu1
I1225 16:48:10.455528 61713 net.cpp:122] Setting up relu1
I1225 16:48:10.455539 61713 net.cpp:129] Top shape: 32 96 55 55 (9292800)
I1225 16:48:10.455549 61713 net.cpp:137] Memory required for data: 151088384
I1225 16:48:10.455556 61713 layer_factory.hpp:77] Creating layer quantized_relu1
I1225 16:48:10.455569 61713 net.cpp:84] Creating Layer quantized_relu1
I1225 16:48:10.455577 61713 net.cpp:406] quantized_relu1 <- relu1
I1225 16:48:10.455588 61713 net.cpp:380] quantized_relu1 -> quantized_relu1
I1225 16:48:10.455600 61713 net.cpp:122] Setting up quantized_relu1
I1225 16:48:10.455610 61713 net.cpp:129] Top shape: 32 96 55 55 (9292800)
I1225 16:48:10.455618 61713 net.cpp:137] Memory required for data: 188259584
I1225 16:48:10.455626 61713 layer_factory.hpp:77] Creating layer pool1
I1225 16:48:10.455638 61713 net.cpp:84] Creating Layer pool1
I1225 16:48:10.455647 61713 net.cpp:406] pool1 <- quantized_relu1
I1225 16:48:10.455657 61713 net.cpp:380] pool1 -> pool1
I1225 16:48:10.455684 61713 net.cpp:122] Setting up pool1
I1225 16:48:10.455698 61713 net.cpp:129] Top shape: 32 96 27 27 (2239488)
I1225 16:48:10.455706 61713 net.cpp:137] Memory required for data: 197217536
I1225 16:48:10.455714 61713 layer_factory.hpp:77] Creating layer quantized_pool1
I1225 16:48:10.455727 61713 net.cpp:84] Creating Layer quantized_pool1
I1225 16:48:10.455736 61713 net.cpp:406] quantized_pool1 <- pool1
I1225 16:48:10.455746 61713 net.cpp:380] quantized_pool1 -> quantized_pool1
I1225 16:48:10.455760 61713 net.cpp:122] Setting up quantized_pool1
I1225 16:48:10.455770 61713 net.cpp:129] Top shape: 32 96 27 27 (2239488)
I1225 16:48:10.455777 61713 net.cpp:137] Memory required for data: 206175488
I1225 16:48:10.455785 61713 layer_factory.hpp:77] Creating layer norm1
I1225 16:48:10.455798 61713 net.cpp:84] Creating Layer norm1
I1225 16:48:10.455807 61713 net.cpp:406] norm1 <- quantized_pool1
I1225 16:48:10.455817 61713 net.cpp:380] norm1 -> norm1
I1225 16:48:10.455852 61713 net.cpp:122] Setting up norm1
I1225 16:48:10.455865 61713 net.cpp:129] Top shape: 32 96 27 27 (2239488)
I1225 16:48:10.455873 61713 net.cpp:137] Memory required for data: 215133440
I1225 16:48:10.455881 61713 layer_factory.hpp:77] Creating layer quantized_norm1
I1225 16:48:10.455893 61713 net.cpp:84] Creating Layer quantized_norm1
I1225 16:48:10.455901 61713 net.cpp:406] quantized_norm1 <- norm1
I1225 16:48:10.455912 61713 net.cpp:380] quantized_norm1 -> quantized_norm1
I1225 16:48:10.455924 61713 net.cpp:122] Setting up quantized_norm1
I1225 16:48:10.455935 61713 net.cpp:129] Top shape: 32 96 27 27 (2239488)
I1225 16:48:10.455942 61713 net.cpp:137] Memory required for data: 224091392
I1225 16:48:10.455950 61713 layer_factory.hpp:77] Creating layer conv2
I1225 16:48:10.455965 61713 net.cpp:84] Creating Layer conv2
I1225 16:48:10.455976 61713 net.cpp:406] conv2 <- quantized_norm1
I1225 16:48:10.455986 61713 net.cpp:380] conv2 -> conv2
I1225 16:48:10.464933 61713 net.cpp:122] Setting up conv2
I1225 16:48:10.464958 61713 net.cpp:129] Top shape: 32 256 27 27 (5971968)
I1225 16:48:10.464967 61713 net.cpp:137] Memory required for data: 247979264
I1225 16:48:10.464982 61713 layer_factory.hpp:77] Creating layer quantized_conv2
I1225 16:48:10.464995 61713 net.cpp:84] Creating Layer quantized_conv2
I1225 16:48:10.465004 61713 net.cpp:406] quantized_conv2 <- conv2
I1225 16:48:10.465019 61713 net.cpp:380] quantized_conv2 -> quantized_conv2
I1225 16:48:10.465034 61713 net.cpp:122] Setting up quantized_conv2
I1225 16:48:10.465045 61713 net.cpp:129] Top shape: 32 256 27 27 (5971968)
I1225 16:48:10.465054 61713 net.cpp:137] Memory required for data: 271867136
I1225 16:48:10.465061 61713 layer_factory.hpp:77] Creating layer relu2
I1225 16:48:10.465071 61713 net.cpp:84] Creating Layer relu2
I1225 16:48:10.465080 61713 net.cpp:406] relu2 <- quantized_conv2
I1225 16:48:10.465091 61713 net.cpp:380] relu2 -> relu2
I1225 16:48:10.465106 61713 net.cpp:122] Setting up relu2
I1225 16:48:10.465116 61713 net.cpp:129] Top shape: 32 256 27 27 (5971968)
I1225 16:48:10.465124 61713 net.cpp:137] Memory required for data: 295755008
I1225 16:48:10.465132 61713 layer_factory.hpp:77] Creating layer quantized_relu2
I1225 16:48:10.465143 61713 net.cpp:84] Creating Layer quantized_relu2
I1225 16:48:10.465152 61713 net.cpp:406] quantized_relu2 <- relu2
I1225 16:48:10.465163 61713 net.cpp:380] quantized_relu2 -> quantized_relu2
I1225 16:48:10.465176 61713 net.cpp:122] Setting up quantized_relu2
I1225 16:48:10.465186 61713 net.cpp:129] Top shape: 32 256 27 27 (5971968)
I1225 16:48:10.465194 61713 net.cpp:137] Memory required for data: 319642880
I1225 16:48:10.465203 61713 layer_factory.hpp:77] Creating layer pool2
I1225 16:48:10.465212 61713 net.cpp:84] Creating Layer pool2
I1225 16:48:10.465221 61713 net.cpp:406] pool2 <- quantized_relu2
I1225 16:48:10.465234 61713 net.cpp:380] pool2 -> pool2
I1225 16:48:10.465247 61713 net.cpp:122] Setting up pool2
I1225 16:48:10.465258 61713 net.cpp:129] Top shape: 32 256 13 13 (1384448)
I1225 16:48:10.465266 61713 net.cpp:137] Memory required for data: 325180672
I1225 16:48:10.465275 61713 layer_factory.hpp:77] Creating layer quantized_pool2
I1225 16:48:10.465286 61713 net.cpp:84] Creating Layer quantized_pool2
I1225 16:48:10.465296 61713 net.cpp:406] quantized_pool2 <- pool2
I1225 16:48:10.465309 61713 net.cpp:380] quantized_pool2 -> quantized_pool2
I1225 16:48:10.465322 61713 net.cpp:122] Setting up quantized_pool2
I1225 16:48:10.465332 61713 net.cpp:129] Top shape: 32 256 13 13 (1384448)
I1225 16:48:10.465340 61713 net.cpp:137] Memory required for data: 330718464
I1225 16:48:10.465348 61713 layer_factory.hpp:77] Creating layer norm2
I1225 16:48:10.465361 61713 net.cpp:84] Creating Layer norm2
I1225 16:48:10.465370 61713 net.cpp:406] norm2 <- quantized_pool2
I1225 16:48:10.465380 61713 net.cpp:380] norm2 -> norm2
I1225 16:48:10.465394 61713 net.cpp:122] Setting up norm2
I1225 16:48:10.465404 61713 net.cpp:129] Top shape: 32 256 13 13 (1384448)
I1225 16:48:10.465411 61713 net.cpp:137] Memory required for data: 336256256
I1225 16:48:10.465436 61713 layer_factory.hpp:77] Creating layer quantized_norm2
I1225 16:48:10.465451 61713 net.cpp:84] Creating Layer quantized_norm2
I1225 16:48:10.465461 61713 net.cpp:406] quantized_norm2 <- norm2
I1225 16:48:10.465471 61713 net.cpp:380] quantized_norm2 -> quantized_norm2
I1225 16:48:10.465482 61713 net.cpp:122] Setting up quantized_norm2
I1225 16:48:10.465493 61713 net.cpp:129] Top shape: 32 256 13 13 (1384448)
I1225 16:48:10.465502 61713 net.cpp:137] Memory required for data: 341794048
I1225 16:48:10.465509 61713 layer_factory.hpp:77] Creating layer conv3
I1225 16:48:10.465525 61713 net.cpp:84] Creating Layer conv3
I1225 16:48:10.465535 61713 net.cpp:406] conv3 <- quantized_norm2
I1225 16:48:10.465553 61713 net.cpp:380] conv3 -> conv3
I1225 16:48:10.491866 61713 net.cpp:122] Setting up conv3
I1225 16:48:10.491916 61713 net.cpp:129] Top shape: 32 384 13 13 (2076672)
I1225 16:48:10.491925 61713 net.cpp:137] Memory required for data: 350100736
I1225 16:48:10.491945 61713 layer_factory.hpp:77] Creating layer quantized_conv3
I1225 16:48:10.491964 61713 net.cpp:84] Creating Layer quantized_conv3
I1225 16:48:10.491974 61713 net.cpp:406] quantized_conv3 <- conv3
I1225 16:48:10.491989 61713 net.cpp:380] quantized_conv3 -> quantized_conv3
I1225 16:48:10.492008 61713 net.cpp:122] Setting up quantized_conv3
I1225 16:48:10.492018 61713 net.cpp:129] Top shape: 32 384 13 13 (2076672)
I1225 16:48:10.492027 61713 net.cpp:137] Memory required for data: 358407424
I1225 16:48:10.492035 61713 layer_factory.hpp:77] Creating layer relu3
I1225 16:48:10.492048 61713 net.cpp:84] Creating Layer relu3
I1225 16:48:10.492058 61713 net.cpp:406] relu3 <- quantized_conv3
I1225 16:48:10.492069 61713 net.cpp:380] relu3 -> relu3
I1225 16:48:10.492080 61713 net.cpp:122] Setting up relu3
I1225 16:48:10.492090 61713 net.cpp:129] Top shape: 32 384 13 13 (2076672)
I1225 16:48:10.492099 61713 net.cpp:137] Memory required for data: 366714112
I1225 16:48:10.492106 61713 layer_factory.hpp:77] Creating layer quantized_relu3
I1225 16:48:10.492120 61713 net.cpp:84] Creating Layer quantized_relu3
I1225 16:48:10.492128 61713 net.cpp:406] quantized_relu3 <- relu3
I1225 16:48:10.492138 61713 net.cpp:380] quantized_relu3 -> quantized_relu3
I1225 16:48:10.492151 61713 net.cpp:122] Setting up quantized_relu3
I1225 16:48:10.492161 61713 net.cpp:129] Top shape: 32 384 13 13 (2076672)
I1225 16:48:10.492169 61713 net.cpp:137] Memory required for data: 375020800
I1225 16:48:10.492177 61713 layer_factory.hpp:77] Creating layer conv4
I1225 16:48:10.492195 61713 net.cpp:84] Creating Layer conv4
I1225 16:48:10.492205 61713 net.cpp:406] conv4 <- quantized_relu3
I1225 16:48:10.492218 61713 net.cpp:380] conv4 -> conv4
I1225 16:48:10.511668 61713 net.cpp:122] Setting up conv4
I1225 16:48:10.511719 61713 net.cpp:129] Top shape: 32 384 13 13 (2076672)
I1225 16:48:10.511729 61713 net.cpp:137] Memory required for data: 383327488
I1225 16:48:10.511742 61713 layer_factory.hpp:77] Creating layer quantized_conv4
I1225 16:48:10.511760 61713 net.cpp:84] Creating Layer quantized_conv4
I1225 16:48:10.511771 61713 net.cpp:406] quantized_conv4 <- conv4
I1225 16:48:10.511790 61713 net.cpp:380] quantized_conv4 -> quantized_conv4
I1225 16:48:10.511807 61713 net.cpp:122] Setting up quantized_conv4
I1225 16:48:10.511818 61713 net.cpp:129] Top shape: 32 384 13 13 (2076672)
I1225 16:48:10.511826 61713 net.cpp:137] Memory required for data: 391634176
I1225 16:48:10.511834 61713 layer_factory.hpp:77] Creating layer relu4
I1225 16:48:10.511848 61713 net.cpp:84] Creating Layer relu4
I1225 16:48:10.511857 61713 net.cpp:406] relu4 <- quantized_conv4
I1225 16:48:10.511868 61713 net.cpp:380] relu4 -> relu4
I1225 16:48:10.511879 61713 net.cpp:122] Setting up relu4
I1225 16:48:10.511889 61713 net.cpp:129] Top shape: 32 384 13 13 (2076672)
I1225 16:48:10.511898 61713 net.cpp:137] Memory required for data: 399940864
I1225 16:48:10.511906 61713 layer_factory.hpp:77] Creating layer quantized_relu4
I1225 16:48:10.511916 61713 net.cpp:84] Creating Layer quantized_relu4
I1225 16:48:10.511972 61713 net.cpp:406] quantized_relu4 <- relu4
I1225 16:48:10.511987 61713 net.cpp:380] quantized_relu4 -> quantized_relu4
I1225 16:48:10.512001 61713 net.cpp:122] Setting up quantized_relu4
I1225 16:48:10.512012 61713 net.cpp:129] Top shape: 32 384 13 13 (2076672)
I1225 16:48:10.512020 61713 net.cpp:137] Memory required for data: 408247552
I1225 16:48:10.512028 61713 layer_factory.hpp:77] Creating layer conv5
I1225 16:48:10.512046 61713 net.cpp:84] Creating Layer conv5
I1225 16:48:10.512056 61713 net.cpp:406] conv5 <- quantized_relu4
I1225 16:48:10.512068 61713 net.cpp:380] conv5 -> conv5
I1225 16:48:10.525223 61713 net.cpp:122] Setting up conv5
I1225 16:48:10.525259 61713 net.cpp:129] Top shape: 32 256 13 13 (1384448)
I1225 16:48:10.525269 61713 net.cpp:137] Memory required for data: 413785344
I1225 16:48:10.525287 61713 layer_factory.hpp:77] Creating layer quantized_conv5
I1225 16:48:10.525301 61713 net.cpp:84] Creating Layer quantized_conv5
I1225 16:48:10.525315 61713 net.cpp:406] quantized_conv5 <- conv5
I1225 16:48:10.525326 61713 net.cpp:380] quantized_conv5 -> quantized_conv5
I1225 16:48:10.525342 61713 net.cpp:122] Setting up quantized_conv5
I1225 16:48:10.525352 61713 net.cpp:129] Top shape: 32 256 13 13 (1384448)
I1225 16:48:10.525362 61713 net.cpp:137] Memory required for data: 419323136
I1225 16:48:10.525369 61713 layer_factory.hpp:77] Creating layer relu5
I1225 16:48:10.525379 61713 net.cpp:84] Creating Layer relu5
I1225 16:48:10.525388 61713 net.cpp:406] relu5 <- quantized_conv5
I1225 16:48:10.525400 61713 net.cpp:380] relu5 -> relu5
I1225 16:48:10.525415 61713 net.cpp:122] Setting up relu5
I1225 16:48:10.525426 61713 net.cpp:129] Top shape: 32 256 13 13 (1384448)
I1225 16:48:10.525435 61713 net.cpp:137] Memory required for data: 424860928
I1225 16:48:10.525442 61713 layer_factory.hpp:77] Creating layer quantized_relu5
I1225 16:48:10.525455 61713 net.cpp:84] Creating Layer quantized_relu5
I1225 16:48:10.525465 61713 net.cpp:406] quantized_relu5 <- relu5
I1225 16:48:10.525475 61713 net.cpp:380] quantized_relu5 -> quantized_relu5
I1225 16:48:10.525486 61713 net.cpp:122] Setting up quantized_relu5
I1225 16:48:10.525497 61713 net.cpp:129] Top shape: 32 256 13 13 (1384448)
I1225 16:48:10.525506 61713 net.cpp:137] Memory required for data: 430398720
I1225 16:48:10.525514 61713 layer_factory.hpp:77] Creating layer pool5
I1225 16:48:10.525527 61713 net.cpp:84] Creating Layer pool5
I1225 16:48:10.525537 61713 net.cpp:406] pool5 <- quantized_relu5
I1225 16:48:10.525550 61713 net.cpp:380] pool5 -> pool5
I1225 16:48:10.525568 61713 net.cpp:122] Setting up pool5
I1225 16:48:10.525579 61713 net.cpp:129] Top shape: 32 256 6 6 (294912)
I1225 16:48:10.525588 61713 net.cpp:137] Memory required for data: 431578368
I1225 16:48:10.525595 61713 layer_factory.hpp:77] Creating layer quantized_pool5
I1225 16:48:10.525612 61713 net.cpp:84] Creating Layer quantized_pool5
I1225 16:48:10.525621 61713 net.cpp:406] quantized_pool5 <- pool5
I1225 16:48:10.525632 61713 net.cpp:380] quantized_pool5 -> quantized_pool5
I1225 16:48:10.525645 61713 net.cpp:122] Setting up quantized_pool5
I1225 16:48:10.525655 61713 net.cpp:129] Top shape: 32 256 6 6 (294912)
I1225 16:48:10.525663 61713 net.cpp:137] Memory required for data: 432758016
I1225 16:48:10.525671 61713 layer_factory.hpp:77] Creating layer fc6
I1225 16:48:10.525693 61713 net.cpp:84] Creating Layer fc6
I1225 16:48:10.525702 61713 net.cpp:406] fc6 <- quantized_pool5
I1225 16:48:10.525715 61713 net.cpp:380] fc6 -> fc6
I1225 16:48:11.603844 61713 net.cpp:122] Setting up fc6
I1225 16:48:11.603907 61713 net.cpp:129] Top shape: 32 4096 (131072)
I1225 16:48:11.603917 61713 net.cpp:137] Memory required for data: 433282304
I1225 16:48:11.603935 61713 layer_factory.hpp:77] Creating layer quantized_fc6
I1225 16:48:11.603955 61713 net.cpp:84] Creating Layer quantized_fc6
I1225 16:48:11.603966 61713 net.cpp:406] quantized_fc6 <- fc6
I1225 16:48:11.603984 61713 net.cpp:380] quantized_fc6 -> quantized_fc6
I1225 16:48:11.604004 61713 net.cpp:122] Setting up quantized_fc6
I1225 16:48:11.604015 61713 net.cpp:129] Top shape: 32 4096 (131072)
I1225 16:48:11.604059 61713 net.cpp:137] Memory required for data: 433806592
I1225 16:48:11.604068 61713 layer_factory.hpp:77] Creating layer relu6
I1225 16:48:11.604080 61713 net.cpp:84] Creating Layer relu6
I1225 16:48:11.604089 61713 net.cpp:406] relu6 <- quantized_fc6
I1225 16:48:11.604100 61713 net.cpp:380] relu6 -> relu6
I1225 16:48:11.604112 61713 net.cpp:122] Setting up relu6
I1225 16:48:11.604122 61713 net.cpp:129] Top shape: 32 4096 (131072)
I1225 16:48:11.604131 61713 net.cpp:137] Memory required for data: 434330880
I1225 16:48:11.604140 61713 layer_factory.hpp:77] Creating layer quantized_relu6
I1225 16:48:11.604151 61713 net.cpp:84] Creating Layer quantized_relu6
I1225 16:48:11.604158 61713 net.cpp:406] quantized_relu6 <- relu6
I1225 16:48:11.604171 61713 net.cpp:380] quantized_relu6 -> quantized_relu6
I1225 16:48:11.604182 61713 net.cpp:122] Setting up quantized_relu6
I1225 16:48:11.604192 61713 net.cpp:129] Top shape: 32 4096 (131072)
I1225 16:48:11.604200 61713 net.cpp:137] Memory required for data: 434855168
I1225 16:48:11.604208 61713 layer_factory.hpp:77] Creating layer fc7
I1225 16:48:11.604225 61713 net.cpp:84] Creating Layer fc7
I1225 16:48:11.604235 61713 net.cpp:406] fc7 <- quantized_relu6
I1225 16:48:11.604245 61713 net.cpp:380] fc7 -> fc7
I1225 16:48:12.082723 61713 net.cpp:122] Setting up fc7
I1225 16:48:12.082787 61713 net.cpp:129] Top shape: 32 4096 (131072)
I1225 16:48:12.082798 61713 net.cpp:137] Memory required for data: 435379456
I1225 16:48:12.082815 61713 layer_factory.hpp:77] Creating layer quantized_fc7
I1225 16:48:12.082837 61713 net.cpp:84] Creating Layer quantized_fc7
I1225 16:48:12.082850 61713 net.cpp:406] quantized_fc7 <- fc7
I1225 16:48:12.082865 61713 net.cpp:380] quantized_fc7 -> quantized_fc7
I1225 16:48:12.082885 61713 net.cpp:122] Setting up quantized_fc7
I1225 16:48:12.082896 61713 net.cpp:129] Top shape: 32 4096 (131072)
I1225 16:48:12.082904 61713 net.cpp:137] Memory required for data: 435903744
I1225 16:48:12.082912 61713 layer_factory.hpp:77] Creating layer relu7
I1225 16:48:12.082924 61713 net.cpp:84] Creating Layer relu7
I1225 16:48:12.082933 61713 net.cpp:406] relu7 <- quantized_fc7
I1225 16:48:12.082943 61713 net.cpp:380] relu7 -> relu7
I1225 16:48:12.083001 61713 net.cpp:122] Setting up relu7
I1225 16:48:12.083014 61713 net.cpp:129] Top shape: 32 4096 (131072)
I1225 16:48:12.083021 61713 net.cpp:137] Memory required for data: 436428032
I1225 16:48:12.083029 61713 layer_factory.hpp:77] Creating layer quantized_relu7
I1225 16:48:12.083040 61713 net.cpp:84] Creating Layer quantized_relu7
I1225 16:48:12.083050 61713 net.cpp:406] quantized_relu7 <- relu7
I1225 16:48:12.083063 61713 net.cpp:380] quantized_relu7 -> quantized_relu7
I1225 16:48:12.083076 61713 net.cpp:122] Setting up quantized_relu7
I1225 16:48:12.083087 61713 net.cpp:129] Top shape: 32 4096 (131072)
I1225 16:48:12.083096 61713 net.cpp:137] Memory required for data: 436952320
I1225 16:48:12.083103 61713 layer_factory.hpp:77] Creating layer fc8
I1225 16:48:12.083117 61713 net.cpp:84] Creating Layer fc8
I1225 16:48:12.083125 61713 net.cpp:406] fc8 <- quantized_relu7
I1225 16:48:12.083137 61713 net.cpp:380] fc8 -> fc8
I1225 16:48:12.090368 61713 net.cpp:122] Setting up fc8
I1225 16:48:12.090427 61713 net.cpp:129] Top shape: 32 1000 (32000)
I1225 16:48:12.090437 61713 net.cpp:137] Memory required for data: 437080320
I1225 16:48:12.090453 61713 layer_factory.hpp:77] Creating layer quantized_fc8
I1225 16:48:12.090476 61713 net.cpp:84] Creating Layer quantized_fc8
I1225 16:48:12.090488 61713 net.cpp:406] quantized_fc8 <- fc8
I1225 16:48:12.090507 61713 net.cpp:380] quantized_fc8 -> quantized_fc8
I1225 16:48:12.090526 61713 net.cpp:122] Setting up quantized_fc8
I1225 16:48:12.090538 61713 net.cpp:129] Top shape: 32 1000 (32000)
I1225 16:48:12.090545 61713 net.cpp:137] Memory required for data: 437208320
I1225 16:48:12.090553 61713 layer_factory.hpp:77] Creating layer quantized_fc8_quantized_fc8_0_split
I1225 16:48:12.090565 61713 net.cpp:84] Creating Layer quantized_fc8_quantized_fc8_0_split
I1225 16:48:12.090612 61713 net.cpp:406] quantized_fc8_quantized_fc8_0_split <- quantized_fc8
I1225 16:48:12.090625 61713 net.cpp:380] quantized_fc8_quantized_fc8_0_split -> quantized_fc8_quantized_fc8_0_split_0
I1225 16:48:12.090637 61713 net.cpp:380] quantized_fc8_quantized_fc8_0_split -> quantized_fc8_quantized_fc8_0_split_1
I1225 16:48:12.090649 61713 net.cpp:380] quantized_fc8_quantized_fc8_0_split -> quantized_fc8_quantized_fc8_0_split_2
I1225 16:48:12.090667 61713 net.cpp:380] quantized_fc8_quantized_fc8_0_split -> quantized_fc8_quantized_fc8_0_split_3
I1225 16:48:12.090682 61713 net.cpp:122] Setting up quantized_fc8_quantized_fc8_0_split
I1225 16:48:12.090692 61713 net.cpp:129] Top shape: 32 1000 (32000)
I1225 16:48:12.090701 61713 net.cpp:129] Top shape: 32 1000 (32000)
I1225 16:48:12.090710 61713 net.cpp:129] Top shape: 32 1000 (32000)
I1225 16:48:12.090719 61713 net.cpp:129] Top shape: 32 1000 (32000)
I1225 16:48:12.090726 61713 net.cpp:137] Memory required for data: 437720320
I1225 16:48:12.090735 61713 layer_factory.hpp:77] Creating layer probs
I1225 16:48:12.090749 61713 net.cpp:84] Creating Layer probs
I1225 16:48:12.090757 61713 net.cpp:406] probs <- quantized_fc8_quantized_fc8_0_split_0
I1225 16:48:12.090768 61713 net.cpp:380] probs -> probs
I1225 16:48:12.090795 61713 net.cpp:122] Setting up probs
I1225 16:48:12.090806 61713 net.cpp:129] Top shape: 32 1000 (32000)
I1225 16:48:12.090814 61713 net.cpp:137] Memory required for data: 437848320
I1225 16:48:12.090822 61713 layer_factory.hpp:77] Creating layer loss
I1225 16:48:12.090837 61713 net.cpp:84] Creating Layer loss
I1225 16:48:12.090847 61713 net.cpp:406] loss <- quantized_fc8_quantized_fc8_0_split_1
I1225 16:48:12.090857 61713 net.cpp:406] loss <- label_data_1_split_0
I1225 16:48:12.090867 61713 net.cpp:380] loss -> loss
…
I1225 16:48:12.092759 61713 net.cpp:294] The NetState phase (1) differed from the phase (0) specified by a rule in layer data
I1225 16:48:12.093088 61713 net.cpp:51] Initializing net from parameters: 
state {
  phase: TEST
}
layer {
  name: "data"
  type: "Data"
  top: "data"
  top: "label"
  include {
    phase: TEST
  }
  transform_param {
    mirror: false
    crop_size: 227
    mean_file: "/home/ydwu/database/imagenet/ilsvrc12/imagenet_mean.binaryproto"
  }
  data_param {
    source: "/home/ydwu/database/imagenet/ilsvrc12/lmdb_resize/ilsvrc12_val_lmdb/"
    batch_size: 20
    backend: LMDB
  }
}
layer {
  name: "quantized_data"
  type: "Quantization"
  bottom: "data"
  top: "quantized_data"
  quantization_param {
    round_method: FLOOR
    round_strategy: AGGRESSIVE
    bit_width: 4
    range: -129.93526
    range: 160.78912
  }
}
layer {
  name: "conv1"
  type: "Convolution"
  bottom: "quantized_data"
  top: "conv1"
  param {
    lr_mult: 1
    decay_mult: 1
  }
  param {
    lr_mult: 2
    decay_mult: 0
  }
  convolution_param {
    num_output: 96
    pad: 0
    kernel_size: 11
    group: 1
    stride: 4
    weight_filler {
      type: "gaussian"
      std: 1.1e+13
    }
    bias_filler {
      type: "constant"
      std: 0.1
    }
  }
}
layer {
  name: "quantized_conv1"
  type: "Quantization"
  bottom: "conv1"
  top: "quantized_conv1"
  quantization_param {
    round_method: FLOOR
    round_strategy: AGGRESSIVE
    bit_width: 4
    range: -2732.7351
    range: 2531.042
  }
}
layer {
  name: "relu1"
  type: "ReLU"
  bottom: "quantized_conv1"
  top: "relu1"
}
layer {
  name: "quantized_relu1"
  type: "Quantization"
  bottom: "relu1"
  top: "quantized_relu1"
  quantization_param {
    round_method: FLOOR
    round_strategy: AGGRESSIVE
    bit_width: 4
    range: 1
    range: 2531.042
  }
}
layer {
  name: "pool1"
  type: "Pooling"
  bottom: "quantized_relu1"
  top: "pool1"
  pooling_param {
    pool: MAX
    kernel_size: 3
    stride: 2
  }
}
layer {
  name: "quantized_pool1"
  type: "Quantization"
  bottom: "pool1"
  top: "quantized_pool1"
  quantization_param {
    round_method: FLOOR
    round_strategy: AGGRESSIVE
    bit_width: 4
    range: 1
    range: 2531.042
  }
}
layer {
  name: "norm1"
  type: "LRN"
  bottom: "quantized_pool1"
  top: "norm1"
  lrn_param {
    local_size: 5
    alpha: 0.0001
    beta: 0.75
  }
}
layer {
  name: "quantized_norm1"
  type: "Quantization"
  bottom: "norm1"
  top: "quantized_norm1"
  quantization_param {
    round_method: FLOOR
    round_strategy: AGGRESSIVE
    bit_width: 4
    range: 1
    range: 138.70576
  }
}
layer {
  name: "conv2"
  type: "Convolution"
  bottom: "quantized_norm1"
  top: "conv2"
  param {
    lr_mult: 1
    decay_mult: 1
  }
  param {
    lr_mult: 2
    decay_mult: 0
  }
  convolution_param {
    num_output: 256
    pad: 2
    kernel_size: 5
    group: 2
    stride: 1
    weight_filler {
      type: "gaussian"
      std: 1.1e+13
    }
    bias_filler {
      type: "constant"
      std: 0.1
    }
  }
}
layer {
  name: "quantized_conv2"
  type: "Quantization"
  bottom: "conv2"
  top: "quantized_conv2"
  quantization_param {
    round_method: FLOOR
    round_strategy: AGGRESSIVE
    bit_width: 4
    range: -647.61908
    range: 492.23111
  }
}
layer {
  name: "relu2"
  type: "ReLU"
  bottom: "quantized_conv2"
  top: "relu2"
}
layer {
  name: "quantized_relu2"
  type: "Quantization"
  bottom: "relu2"
  top: "quantized_relu2"
  quantization_param {
    round_method: FLOOR
    round_strategy: AGGRESSIVE
    bit_width: 4
    range: 1
    range: 492.23111
  }
}
layer {
  name: "pool2"
  type: "Pooling"
  bottom: "quantized_relu2"
  top: "pool2"
  pooling_param {
    pool: MAX
    kernel_size: 3
    stride: 2
  }
}
layer {
  name: "quantized_pool2"
  type: "Quantization"
  bottom: "pool2"
  top: "quantized_pool2"
  quantization_param {
    round_method: FLOOR
    round_strategy: AGGRESSIVE
    bit_width: 4
    range: 1
    range: 492.23111
  }
}
layer {
  name: "norm2"
  type: "LRN"
  bottom: "quantized_pool2"
  top: "norm2"
  lrn_param {
    local_size: 5
    alpha: 0.0001
    beta: 0.75
  }
}
layer {
  name: "quantized_norm2"
  type: "Quantization"
  bottom: "norm2"
  top: "quantized_norm2"
  quantization_param {
    round_method: FLOOR
    round_strategy: AGGRESSIVE
    bit_width: 4
    range: 1
    range: 138.72636
  }
}
layer {
  name: "conv3"
  type: "Convolution"
  bottom: "quantized_norm2"
  top: "conv3"
  param {
    lr_mult: 1
    decay_mult: 1
  }
  param {
    lr_mult: 2
    decay_mult: 0
  }
  convolution_param {
    num_output: 384
    pad: 1
    kernel_size: 3
    group: 1
    stride: 1
    weight_filler {
      type: "gaussian"
      std: 1.1e+13
    }
    bias_filler {
      type: "constant"
      std: 0.1
    }
  }
}
layer {
  name: "quantized_conv3"
  type: "Quantization"
  bottom: "conv3"
  top: "quantized_conv3"
  quantization_param {
    round_method: FLOOR
    round_strategy: AGGRESSIVE
    bit_width: 4
    range: -389.56516
    range: 331.98178
  }
}
layer {
  name: "relu3"
  type: "ReLU"
  bottom: "quantized_conv3"
  top: "relu3"
}
layer {
  name: "quantized_relu3"
  type: "Quantization"
  bottom: "relu3"
  top: "quantized_relu3"
  quantization_param {
    round_method: FLOOR
    round_strategy: AGGRESSIVE
    bit_width: 4
    range: 1
    range: 331.98178
  }
}
layer {
  name: "conv4"
  type: "Convolution"
  bottom: "quantized_relu3"
  top: "conv4"
  param {
    lr_mult: 1
    decay_mult: 1
  }
  param {
    lr_mult: 2
    decay_mult: 0
  }
  convolution_param {
    num_output: 384
    pad: 1
    kernel_size: 3
    group: 2
    stride: 1
    weight_filler {
      type: "gaussian"
      std: 1.1e+13
    }
    bias_filler {
      type: "constant"
      std: 0.1
    }
  }
}
layer {
  name: "quantized_conv4"
  type: "Quantization"
  bottom: "conv4"
  top: "quantized_conv4"
  quantization_param {
    round_method: FLOOR
    round_strategy: AGGRESSIVE
    bit_width: 4
    range: -231.20598
    range: 283.87189
  }
}
layer {
  name: "relu4"
  type: "ReLU"
  bottom: "quantized_conv4"
  top: "relu4"
}
layer {
  name: "quantized_relu4"
  type: "Quantization"
  bottom: "relu4"
  top: "quantized_relu4"
  quantization_param {
    round_method: FLOOR
    round_strategy: AGGRESSIVE
    bit_width: 4
    range: 1
    range: 283.87189
  }
}
layer {
  name: "conv5"
  type: "Convolution"
  bottom: "quantized_relu4"
  top: "conv5"
  param {
    lr_mult: 1
    decay_mult: 1
  }
  param {
    lr_mult: 2
    decay_mult: 0
  }
  convolution_param {
    num_output: 256
    pad: 1
    kernel_size: 3
    group: 2
    stride: 1
    weight_filler {
      type: "gaussian"
      std: 1.1e+13
    }
    bias_filler {
      type: "constant"
      std: 0.1
    }
  }
}
layer {
  name: "quantized_conv5"
  type: "Quantization"
  bottom: "conv5"
  top: "quantized_conv5"
  quantization_param {
    round_method: FLOOR
    round_strategy: AGGRESSIVE
    bit_width: 4
    range: -172.60567
    range: 272.57315
  }
}
layer {
  name: "relu5"
  type: "ReLU"
  bottom: "quantized_conv5"
  top: "relu5"
}
layer {
  name: "quantized_relu5"
  type: "Quantization"
  bottom: "relu5"
  top: "quantized_relu5"
  quantization_param {
    round_method: FLOOR
    round_strategy: AGGRESSIVE
    bit_width: 4
    range: 1
    range: 272.57315
  }
}
layer {
  name: "pool5"
  type: "Pooling"
  bottom: "quantized_relu5"
  top: "pool5"
  pooling_param {
    pool: MAX
    kernel_size: 3
    stride: 2
  }
}
layer {
  name: "quantized_pool5"
  type: "Quantization"
  bottom: "pool5"
  top: "quantized_pool5"
  quantization_param {
    round_method: FLOOR
    round_strategy: AGGRESSIVE
    bit_width: 4
    range: 1
    range: 272.57315
  }
}
layer {
  name: "fc6"
  type: "InnerProduct"
  bottom: "quantized_pool5"
  top: "fc6"
  param {
    lr_mult: 1
    decay_mult: 1
  }
  param {
    lr_mult: 2
    decay_mult: 0
  }
  inner_product_param {
    num_output: 4096
    weight_filler {
      type: "gaussian"
      std: 1.05e+13
    }
    bias_filler {
      type: "constant"
      value: 0.1
    }
  }
}
layer {
  name: "quantized_fc6"
  type: "Quantization"
  bottom: "fc6"
  top: "quantized_fc6"
  quantization_param {
    round_method: FLOOR
    round_strategy: AGGRESSIVE
    bit_width: 4
    range: -114.02487
    range: 58.541733
  }
}
layer {
  name: "relu6"
  type: "ReLU"
  bottom: "quantized_fc6"
  top: "relu6"
}
layer {
  name: "quantized_relu6"
  type: "Quantization"
  bottom: "relu6"
  top: "quantized_relu6"
  quantization_param {
    round_method: FLOOR
    round_strategy: AGGRESSIVE
    bit_width: 4
    range: 1
    range: 58.541733
  }
}
layer {
  name: "fc7"
  type: "InnerProduct"
  bottom: "quantized_relu6"
  top: "fc7"
  param {
    lr_mult: 1
    decay_mult: 1
  }
  param {
    lr_mult: 2
    decay_mult: 0
  }
  inner_product_param {
    num_output: 4096
    weight_filler {
      type: "gaussian"
      std: 1.05e+13
    }
    bias_filler {
      type: "constant"
      value: 0.1
    }
  }
}
layer {
  name: "quantized_fc7"
  type: "Quantization"
  bottom: "fc7"
  top: "quantized_fc7"
  quantization_param {
    round_method: FLOOR
    round_strategy: AGGRESSIVE
    bit_width: 4
    range: -26.019335
    range: 19.125257
  }
}
layer {
  name: "relu7"
  type: "ReLU"
  bottom: "quantized_fc7"
  top: "relu7"
}
layer {
  name: "quantized_relu7"
  type: "Quantization"
  bottom: "relu7"
  top: "quantized_relu7"
  quantization_param {
    round_method: FLOOR
    round_strategy: AGGRESSIVE
    bit_width: 4
    range: 1
    range: 19.125257
  }
}
layer {
  name: "fc8"
  type: "InnerProduct"
  bottom: "quantized_relu7"
  top: "fc8"
  param {
    lr_mult: 1
    decay_mult: 1
  }
  param {
    lr_mult: 2
    decay_mult: 0
  }
  inner_product_param {
    num_output: 1000
  }
}
layer {
  name: "quantized_fc8"
  type: "Quantization"
  bottom: "fc8"
  top: "quantized_fc8"
  quantization_param {
    round_method: FLOOR
    round_strategy: AGGRESSIVE
    bit_width: 4
    range: -9.849781
    range: 45.688446
  }
}
layer {
  name: "probs"
  type: "Softmax"
  bottom: "quantized_fc8"
  top: "probs"
}
layer {
  name: "loss"
  type: "SoftmaxWithLoss"
  bottom: "quantized_fc8"
  bottom: "label"
  top: "loss"
}
layer {
  name: "acc_top1"
  type: "Accuracy"
  bottom: "quantized_fc8"
  bottom: "label"
  top: "acc_top1"
  accuracy_param {
    top_k: 1
  }
}
layer {
  name: "acc_top5"
  type: "Accuracy"
  bottom: "quantized_fc8"
  bottom: "label"
  top: "acc_top5"
  accuracy_param {
    top_k: 5
  }
}
I1225 16:48:12.093304 61713 layer_factory.hpp:77] Creating layer data
I1225 16:48:12.093381 61713 db_lmdb.cpp:35] Opened lmdb /home/ydwu/database/imagenet/ilsvrc12/lmdb_resize/ilsvrc12_val_lmdb/
I1225 16:48:12.093421 61713 net.cpp:84] Creating Layer data
I1225 16:48:12.093436 61713 net.cpp:380] data -> data
I1225 16:48:12.093449 61713 net.cpp:380] data -> label
I1225 16:48:12.093464 61713 data_transformer.cpp:25] Loading mean file from: /home/ydwu/database/imagenet/ilsvrc12/imagenet_mean.binaryproto
I1225 16:48:12.095603 61713 data_layer.cpp:45] output data size: 20,3,227,227
I1225 16:48:12.108371 61713 net.cpp:122] Setting up data
I1225 16:48:12.108428 61713 net.cpp:129] Top shape: 20 3 227 227 (3091740)
I1225 16:48:12.108440 61713 net.cpp:129] Top shape: 20 (20)
I1225 16:48:12.108448 61713 net.cpp:137] Memory required for data: 12367040
I1225 16:48:12.108461 61713 layer_factory.hpp:77] Creating layer label_data_1_split
I1225 16:48:12.108484 61713 net.cpp:84] Creating Layer label_data_1_split
I1225 16:48:12.108494 61713 net.cpp:406] label_data_1_split <- label
I1225 16:48:12.108507 61713 net.cpp:380] label_data_1_split -> label_data_1_split_0
I1225 16:48:12.108525 61713 net.cpp:380] label_data_1_split -> label_data_1_split_1
I1225 16:48:12.108538 61713 net.cpp:380] label_data_1_split -> label_data_1_split_2
I1225 16:48:12.108556 61713 net.cpp:122] Setting up label_data_1_split
I1225 16:48:12.108567 61713 net.cpp:129] Top shape: 20 (20)
I1225 16:48:12.108577 61713 net.cpp:129] Top shape: 20 (20)
I1225 16:48:12.108587 61713 net.cpp:129] Top shape: 20 (20)
I1225 16:48:12.108594 61713 net.cpp:137] Memory required for data: 12367280
I1225 16:48:12.108603 61713 layer_factory.hpp:77] Creating layer quantized_data
I1225 16:48:12.108616 61713 net.cpp:84] Creating Layer quantized_data
I1225 16:48:12.108625 61713 net.cpp:406] quantized_data <- data
I1225 16:48:12.108636 61713 net.cpp:380] quantized_data -> quantized_data
I1225 16:48:12.108649 61713 net.cpp:122] Setting up quantized_data
I1225 16:48:12.108659 61713 net.cpp:129] Top shape: 20 3 227 227 (3091740)
I1225 16:48:12.108667 61713 net.cpp:137] Memory required for data: 24734240
I1225 16:48:12.108676 61713 layer_factory.hpp:77] Creating layer conv1
I1225 16:48:12.108695 61713 net.cpp:84] Creating Layer conv1
I1225 16:48:12.108742 61713 net.cpp:406] conv1 <- quantized_data
I1225 16:48:12.108757 61713 net.cpp:380] conv1 -> conv1
I1225 16:48:12.109814 61713 net.cpp:122] Setting up conv1
I1225 16:48:12.109833 61713 net.cpp:129] Top shape: 20 96 55 55 (5808000)
I1225 16:48:12.109840 61713 net.cpp:137] Memory required for data: 47966240
I1225 16:48:12.109856 61713 layer_factory.hpp:77] Creating layer quantized_conv1
I1225 16:48:12.109872 61713 net.cpp:84] Creating Layer quantized_conv1
I1225 16:48:12.109881 61713 net.cpp:406] quantized_conv1 <- conv1
I1225 16:48:12.109894 61713 net.cpp:380] quantized_conv1 -> quantized_conv1
I1225 16:48:12.109908 61713 net.cpp:122] Setting up quantized_conv1
I1225 16:48:12.109918 61713 net.cpp:129] Top shape: 20 96 55 55 (5808000)
I1225 16:48:12.109926 61713 net.cpp:137] Memory required for data: 71198240
I1225 16:48:12.109935 61713 layer_factory.hpp:77] Creating layer relu1
I1225 16:48:12.109946 61713 net.cpp:84] Creating Layer relu1
I1225 16:48:12.109956 61713 net.cpp:406] relu1 <- quantized_conv1
I1225 16:48:12.109966 61713 net.cpp:380] relu1 -> relu1
I1225 16:48:12.109977 61713 net.cpp:122] Setting up relu1
I1225 16:48:12.109988 61713 net.cpp:129] Top shape: 20 96 55 55 (5808000)
I1225 16:48:12.109997 61713 net.cpp:137] Memory required for data: 94430240
I1225 16:48:12.110005 61713 layer_factory.hpp:77] Creating layer quantized_relu1
I1225 16:48:12.110019 61713 net.cpp:84] Creating Layer quantized_relu1
I1225 16:48:12.110029 61713 net.cpp:406] quantized_relu1 <- relu1
I1225 16:48:12.110039 61713 net.cpp:380] quantized_relu1 -> quantized_relu1
I1225 16:48:12.110051 61713 net.cpp:122] Setting up quantized_relu1
I1225 16:48:12.110062 61713 net.cpp:129] Top shape: 20 96 55 55 (5808000)
I1225 16:48:12.110069 61713 net.cpp:137] Memory required for data: 117662240
I1225 16:48:12.110077 61713 layer_factory.hpp:77] Creating layer pool1
I1225 16:48:12.110092 61713 net.cpp:84] Creating Layer pool1
I1225 16:48:12.110101 61713 net.cpp:406] pool1 <- quantized_relu1
I1225 16:48:12.110111 61713 net.cpp:380] pool1 -> pool1
I1225 16:48:12.110126 61713 net.cpp:122] Setting up pool1
I1225 16:48:12.110137 61713 net.cpp:129] Top shape: 20 96 27 27 (1399680)
I1225 16:48:12.110144 61713 net.cpp:137] Memory required for data: 123260960
I1225 16:48:12.110153 61713 layer_factory.hpp:77] Creating layer quantized_pool1
I1225 16:48:12.110168 61713 net.cpp:84] Creating Layer quantized_pool1
I1225 16:48:12.110177 61713 net.cpp:406] quantized_pool1 <- pool1
I1225 16:48:12.110188 61713 net.cpp:380] quantized_pool1 -> quantized_pool1
I1225 16:48:12.110200 61713 net.cpp:122] Setting up quantized_pool1
I1225 16:48:12.110211 61713 net.cpp:129] Top shape: 20 96 27 27 (1399680)
I1225 16:48:12.110219 61713 net.cpp:137] Memory required for data: 128859680
I1225 16:48:12.110227 61713 layer_factory.hpp:77] Creating layer norm1
I1225 16:48:12.110242 61713 net.cpp:84] Creating Layer norm1
I1225 16:48:12.110251 61713 net.cpp:406] norm1 <- quantized_pool1
I1225 16:48:12.110261 61713 net.cpp:380] norm1 -> norm1
I1225 16:48:12.110275 61713 net.cpp:122] Setting up norm1
I1225 16:48:12.110285 61713 net.cpp:129] Top shape: 20 96 27 27 (1399680)
I1225 16:48:12.110292 61713 net.cpp:137] Memory required for data: 134458400
I1225 16:48:12.110301 61713 layer_factory.hpp:77] Creating layer quantized_norm1
I1225 16:48:12.110313 61713 net.cpp:84] Creating Layer quantized_norm1
I1225 16:48:12.110321 61713 net.cpp:406] quantized_norm1 <- norm1
I1225 16:48:12.110333 61713 net.cpp:380] quantized_norm1 -> quantized_norm1
I1225 16:48:12.110347 61713 net.cpp:122] Setting up quantized_norm1
I1225 16:48:12.110357 61713 net.cpp:129] Top shape: 20 96 27 27 (1399680)
I1225 16:48:12.110364 61713 net.cpp:137] Memory required for data: 140057120
I1225 16:48:12.110373 61713 layer_factory.hpp:77] Creating layer conv2
I1225 16:48:12.110385 61713 net.cpp:84] Creating Layer conv2
I1225 16:48:12.110395 61713 net.cpp:406] conv2 <- quantized_norm1
I1225 16:48:12.110409 61713 net.cpp:380] conv2 -> conv2
I1225 16:48:12.119472 61713 net.cpp:122] Setting up conv2
I1225 16:48:12.119527 61713 net.cpp:129] Top shape: 20 256 27 27 (3732480)
I1225 16:48:12.119537 61713 net.cpp:137] Memory required for data: 154987040
I1225 16:48:12.119551 61713 layer_factory.hpp:77] Creating layer quantized_conv2
I1225 16:48:12.119570 61713 net.cpp:84] Creating Layer quantized_conv2
I1225 16:48:12.119580 61713 net.cpp:406] quantized_conv2 <- conv2
I1225 16:48:12.119590 61713 net.cpp:380] quantized_conv2 -> quantized_conv2
I1225 16:48:12.119612 61713 net.cpp:122] Setting up quantized_conv2
I1225 16:48:12.119623 61713 net.cpp:129] Top shape: 20 256 27 27 (3732480)
I1225 16:48:12.119632 61713 net.cpp:137] Memory required for data: 169916960
I1225 16:48:12.119639 61713 layer_factory.hpp:77] Creating layer relu2
I1225 16:48:12.119649 61713 net.cpp:84] Creating Layer relu2
I1225 16:48:12.119658 61713 net.cpp:406] relu2 <- quantized_conv2
I1225 16:48:12.119668 61713 net.cpp:380] relu2 -> relu2
I1225 16:48:12.119680 61713 net.cpp:122] Setting up relu2
I1225 16:48:12.119691 61713 net.cpp:129] Top shape: 20 256 27 27 (3732480)
I1225 16:48:12.119700 61713 net.cpp:137] Memory required for data: 184846880
I1225 16:48:12.119709 61713 layer_factory.hpp:77] Creating layer quantized_relu2
I1225 16:48:12.119721 61713 net.cpp:84] Creating Layer quantized_relu2
I1225 16:48:12.119730 61713 net.cpp:406] quantized_relu2 <- relu2
I1225 16:48:12.119740 61713 net.cpp:380] quantized_relu2 -> quantized_relu2
I1225 16:48:12.119752 61713 net.cpp:122] Setting up quantized_relu2
I1225 16:48:12.119763 61713 net.cpp:129] Top shape: 20 256 27 27 (3732480)
I1225 16:48:12.119774 61713 net.cpp:137] Memory required for data: 199776800
I1225 16:48:12.119783 61713 layer_factory.hpp:77] Creating layer pool2
I1225 16:48:12.119802 61713 net.cpp:84] Creating Layer pool2
I1225 16:48:12.119812 61713 net.cpp:406] pool2 <- quantized_relu2
I1225 16:48:12.119822 61713 net.cpp:380] pool2 -> pool2
I1225 16:48:12.119837 61713 net.cpp:122] Setting up pool2
I1225 16:48:12.119848 61713 net.cpp:129] Top shape: 20 256 13 13 (865280)
I1225 16:48:12.119855 61713 net.cpp:137] Memory required for data: 203237920
I1225 16:48:12.119864 61713 layer_factory.hpp:77] Creating layer quantized_pool2
I1225 16:48:12.119879 61713 net.cpp:84] Creating Layer quantized_pool2
I1225 16:48:12.119889 61713 net.cpp:406] quantized_pool2 <- pool2
I1225 16:48:12.119900 61713 net.cpp:380] quantized_pool2 -> quantized_pool2
I1225 16:48:12.120023 61713 net.cpp:122] Setting up quantized_pool2
I1225 16:48:12.120043 61713 net.cpp:129] Top shape: 20 256 13 13 (865280)
I1225 16:48:12.120061 61713 net.cpp:137] Memory required for data: 206699040
I1225 16:48:12.120067 61713 layer_factory.hpp:77] Creating layer norm2
I1225 16:48:12.120080 61713 net.cpp:84] Creating Layer norm2
I1225 16:48:12.120090 61713 net.cpp:406] norm2 <- quantized_pool2
I1225 16:48:12.120105 61713 net.cpp:380] norm2 -> norm2
I1225 16:48:12.120118 61713 net.cpp:122] Setting up norm2
I1225 16:48:12.120128 61713 net.cpp:129] Top shape: 20 256 13 13 (865280)
I1225 16:48:12.120136 61713 net.cpp:137] Memory required for data: 210160160
I1225 16:48:12.120144 61713 layer_factory.hpp:77] Creating layer quantized_norm2
I1225 16:48:12.120156 61713 net.cpp:84] Creating Layer quantized_norm2
I1225 16:48:12.120163 61713 net.cpp:406] quantized_norm2 <- norm2
I1225 16:48:12.120175 61713 net.cpp:380] quantized_norm2 -> quantized_norm2
I1225 16:48:12.120188 61713 net.cpp:122] Setting up quantized_norm2
I1225 16:48:12.120198 61713 net.cpp:129] Top shape: 20 256 13 13 (865280)
I1225 16:48:12.120206 61713 net.cpp:137] Memory required for data: 213621280
I1225 16:48:12.120214 61713 layer_factory.hpp:77] Creating layer conv3
I1225 16:48:12.120231 61713 net.cpp:84] Creating Layer conv3
I1225 16:48:12.120241 61713 net.cpp:406] conv3 <- quantized_norm2
I1225 16:48:12.120251 61713 net.cpp:380] conv3 -> conv3
I1225 16:48:12.145666 61713 net.cpp:122] Setting up conv3
I1225 16:48:12.145712 61713 net.cpp:129] Top shape: 20 384 13 13 (1297920)
I1225 16:48:12.145721 61713 net.cpp:137] Memory required for data: 218812960
I1225 16:48:12.145740 61713 layer_factory.hpp:77] Creating layer quantized_conv3
I1225 16:48:12.145790 61713 net.cpp:84] Creating Layer quantized_conv3
I1225 16:48:12.145802 61713 net.cpp:406] quantized_conv3 <- conv3
I1225 16:48:12.145818 61713 net.cpp:380] quantized_conv3 -> quantized_conv3
I1225 16:48:12.145838 61713 net.cpp:122] Setting up quantized_conv3
I1225 16:48:12.145849 61713 net.cpp:129] Top shape: 20 384 13 13 (1297920)
I1225 16:48:12.145858 61713 net.cpp:137] Memory required for data: 224004640
I1225 16:48:12.145865 61713 layer_factory.hpp:77] Creating layer relu3
I1225 16:48:12.145876 61713 net.cpp:84] Creating Layer relu3
I1225 16:48:12.145885 61713 net.cpp:406] relu3 <- quantized_conv3
I1225 16:48:12.145898 61713 net.cpp:380] relu3 -> relu3
I1225 16:48:12.145910 61713 net.cpp:122] Setting up relu3
I1225 16:48:12.145922 61713 net.cpp:129] Top shape: 20 384 13 13 (1297920)
I1225 16:48:12.145929 61713 net.cpp:137] Memory required for data: 229196320
I1225 16:48:12.145937 61713 layer_factory.hpp:77] Creating layer quantized_relu3
I1225 16:48:12.145947 61713 net.cpp:84] Creating Layer quantized_relu3
I1225 16:48:12.145956 61713 net.cpp:406] quantized_relu3 <- relu3
I1225 16:48:12.145965 61713 net.cpp:380] quantized_relu3 -> quantized_relu3
I1225 16:48:12.145977 61713 net.cpp:122] Setting up quantized_relu3
I1225 16:48:12.145987 61713 net.cpp:129] Top shape: 20 384 13 13 (1297920)
I1225 16:48:12.145994 61713 net.cpp:137] Memory required for data: 234388000
I1225 16:48:12.146003 61713 layer_factory.hpp:77] Creating layer conv4
I1225 16:48:12.146021 61713 net.cpp:84] Creating Layer conv4
I1225 16:48:12.146030 61713 net.cpp:406] conv4 <- quantized_relu3
I1225 16:48:12.146041 61713 net.cpp:380] conv4 -> conv4
I1225 16:48:12.165526 61713 net.cpp:122] Setting up conv4
I1225 16:48:12.165567 61713 net.cpp:129] Top shape: 20 384 13 13 (1297920)
I1225 16:48:12.165577 61713 net.cpp:137] Memory required for data: 239579680
I1225 16:48:12.165591 61713 layer_factory.hpp:77] Creating layer quantized_conv4
I1225 16:48:12.165607 61713 net.cpp:84] Creating Layer quantized_conv4
I1225 16:48:12.165617 61713 net.cpp:406] quantized_conv4 <- conv4
I1225 16:48:12.165632 61713 net.cpp:380] quantized_conv4 -> quantized_conv4
I1225 16:48:12.165649 61713 net.cpp:122] Setting up quantized_conv4
I1225 16:48:12.165659 61713 net.cpp:129] Top shape: 20 384 13 13 (1297920)
I1225 16:48:12.165668 61713 net.cpp:137] Memory required for data: 244771360
I1225 16:48:12.165675 61713 layer_factory.hpp:77] Creating layer relu4
I1225 16:48:12.165685 61713 net.cpp:84] Creating Layer relu4
I1225 16:48:12.165694 61713 net.cpp:406] relu4 <- quantized_conv4
I1225 16:48:12.165704 61713 net.cpp:380] relu4 -> relu4
I1225 16:48:12.165714 61713 net.cpp:122] Setting up relu4
I1225 16:48:12.165724 61713 net.cpp:129] Top shape: 20 384 13 13 (1297920)
I1225 16:48:12.165732 61713 net.cpp:137] Memory required for data: 249963040
I1225 16:48:12.165740 61713 layer_factory.hpp:77] Creating layer quantized_relu4
I1225 16:48:12.165752 61713 net.cpp:84] Creating Layer quantized_relu4
I1225 16:48:12.165761 61713 net.cpp:406] quantized_relu4 <- relu4
I1225 16:48:12.165771 61713 net.cpp:380] quantized_relu4 -> quantized_relu4
I1225 16:48:12.165782 61713 net.cpp:122] Setting up quantized_relu4
I1225 16:48:12.165793 61713 net.cpp:129] Top shape: 20 384 13 13 (1297920)
I1225 16:48:12.165801 61713 net.cpp:137] Memory required for data: 255154720
I1225 16:48:12.165808 61713 layer_factory.hpp:77] Creating layer conv5
I1225 16:48:12.165825 61713 net.cpp:84] Creating Layer conv5
I1225 16:48:12.165835 61713 net.cpp:406] conv5 <- quantized_relu4
I1225 16:48:12.165848 61713 net.cpp:380] conv5 -> conv5
I1225 16:48:12.178908 61713 net.cpp:122] Setting up conv5
I1225 16:48:12.178944 61713 net.cpp:129] Top shape: 20 256 13 13 (865280)
I1225 16:48:12.178953 61713 net.cpp:137] Memory required for data: 258615840
I1225 16:48:12.179087 61713 layer_factory.hpp:77] Creating layer quantized_conv5
I1225 16:48:12.179103 61713 net.cpp:84] Creating Layer quantized_conv5
I1225 16:48:12.179113 61713 net.cpp:406] quantized_conv5 <- conv5
I1225 16:48:12.179163 61713 net.cpp:380] quantized_conv5 -> quantized_conv5
I1225 16:48:12.179180 61713 net.cpp:122] Setting up quantized_conv5
I1225 16:48:12.179190 61713 net.cpp:129] Top shape: 20 256 13 13 (865280)
I1225 16:48:12.179198 61713 net.cpp:137] Memory required for data: 262076960
I1225 16:48:12.179206 61713 layer_factory.hpp:77] Creating layer relu5
I1225 16:48:12.179219 61713 net.cpp:84] Creating Layer relu5
I1225 16:48:12.179227 61713 net.cpp:406] relu5 <- quantized_conv5
I1225 16:48:12.179237 61713 net.cpp:380] relu5 -> relu5
I1225 16:48:12.179253 61713 net.cpp:122] Setting up relu5
I1225 16:48:12.179265 61713 net.cpp:129] Top shape: 20 256 13 13 (865280)
I1225 16:48:12.179273 61713 net.cpp:137] Memory required for data: 265538080
I1225 16:48:12.179281 61713 layer_factory.hpp:77] Creating layer quantized_relu5
I1225 16:48:12.179291 61713 net.cpp:84] Creating Layer quantized_relu5
I1225 16:48:12.179299 61713 net.cpp:406] quantized_relu5 <- relu5
I1225 16:48:12.179309 61713 net.cpp:380] quantized_relu5 -> quantized_relu5
I1225 16:48:12.179322 61713 net.cpp:122] Setting up quantized_relu5
I1225 16:48:12.179332 61713 net.cpp:129] Top shape: 20 256 13 13 (865280)
I1225 16:48:12.179339 61713 net.cpp:137] Memory required for data: 268999200
I1225 16:48:12.179347 61713 layer_factory.hpp:77] Creating layer pool5
I1225 16:48:12.179360 61713 net.cpp:84] Creating Layer pool5
I1225 16:48:12.179368 61713 net.cpp:406] pool5 <- quantized_relu5
I1225 16:48:12.179378 61713 net.cpp:380] pool5 -> pool5
I1225 16:48:12.179396 61713 net.cpp:122] Setting up pool5
I1225 16:48:12.179407 61713 net.cpp:129] Top shape: 20 256 6 6 (184320)
I1225 16:48:12.179415 61713 net.cpp:137] Memory required for data: 269736480
I1225 16:48:12.179422 61713 layer_factory.hpp:77] Creating layer quantized_pool5
I1225 16:48:12.179436 61713 net.cpp:84] Creating Layer quantized_pool5
I1225 16:48:12.179445 61713 net.cpp:406] quantized_pool5 <- pool5
I1225 16:48:12.179457 61713 net.cpp:380] quantized_pool5 -> quantized_pool5
I1225 16:48:12.179469 61713 net.cpp:122] Setting up quantized_pool5
I1225 16:48:12.179479 61713 net.cpp:129] Top shape: 20 256 6 6 (184320)
I1225 16:48:12.179487 61713 net.cpp:137] Memory required for data: 270473760
I1225 16:48:12.179496 61713 layer_factory.hpp:77] Creating layer fc6
I1225 16:48:12.179508 61713 net.cpp:84] Creating Layer fc6
I1225 16:48:12.179517 61713 net.cpp:406] fc6 <- quantized_pool5
I1225 16:48:12.179528 61713 net.cpp:380] fc6 -> fc6
I1225 16:48:13.259779 61713 net.cpp:122] Setting up fc6
I1225 16:48:13.259836 61713 net.cpp:129] Top shape: 20 4096 (81920)
I1225 16:48:13.259845 61713 net.cpp:137] Memory required for data: 270801440
I1225 16:48:13.259863 61713 layer_factory.hpp:77] Creating layer quantized_fc6
I1225 16:48:13.259891 61713 net.cpp:84] Creating Layer quantized_fc6
I1225 16:48:13.259902 61713 net.cpp:406] quantized_fc6 <- fc6
I1225 16:48:13.259918 61713 net.cpp:380] quantized_fc6 -> quantized_fc6
I1225 16:48:13.259938 61713 net.cpp:122] Setting up quantized_fc6
I1225 16:48:13.259949 61713 net.cpp:129] Top shape: 20 4096 (81920)
I1225 16:48:13.259958 61713 net.cpp:137] Memory required for data: 271129120
I1225 16:48:13.259965 61713 layer_factory.hpp:77] Creating layer relu6
I1225 16:48:13.259977 61713 net.cpp:84] Creating Layer relu6
I1225 16:48:13.259985 61713 net.cpp:406] relu6 <- quantized_fc6
I1225 16:48:13.259996 61713 net.cpp:380] relu6 -> relu6
I1225 16:48:13.260009 61713 net.cpp:122] Setting up relu6
I1225 16:48:13.260018 61713 net.cpp:129] Top shape: 20 4096 (81920)
I1225 16:48:13.260026 61713 net.cpp:137] Memory required for data: 271456800
I1225 16:48:13.260035 61713 layer_factory.hpp:77] Creating layer quantized_relu6
I1225 16:48:13.260046 61713 net.cpp:84] Creating Layer quantized_relu6
I1225 16:48:13.260053 61713 net.cpp:406] quantized_relu6 <- relu6
I1225 16:48:13.260067 61713 net.cpp:380] quantized_relu6 -> quantized_relu6
I1225 16:48:13.260080 61713 net.cpp:122] Setting up quantized_relu6
I1225 16:48:13.260092 61713 net.cpp:129] Top shape: 20 4096 (81920)
I1225 16:48:13.260099 61713 net.cpp:137] Memory required for data: 271784480
I1225 16:48:13.260149 61713 layer_factory.hpp:77] Creating layer fc7
I1225 16:48:13.260164 61713 net.cpp:84] Creating Layer fc7
I1225 16:48:13.260174 61713 net.cpp:406] fc7 <- quantized_relu6
I1225 16:48:13.260185 61713 net.cpp:380] fc7 -> fc7
I1225 16:48:13.741212 61713 net.cpp:122] Setting up fc7
I1225 16:48:13.741278 61713 net.cpp:129] Top shape: 20 4096 (81920)
I1225 16:48:13.741288 61713 net.cpp:137] Memory required for data: 272112160
I1225 16:48:13.741305 61713 layer_factory.hpp:77] Creating layer quantized_fc7
I1225 16:48:13.741327 61713 net.cpp:84] Creating Layer quantized_fc7
I1225 16:48:13.741338 61713 net.cpp:406] quantized_fc7 <- fc7
I1225 16:48:13.741354 61713 net.cpp:380] quantized_fc7 -> quantized_fc7
I1225 16:48:13.741374 61713 net.cpp:122] Setting up quantized_fc7
I1225 16:48:13.741385 61713 net.cpp:129] Top shape: 20 4096 (81920)
I1225 16:48:13.741394 61713 net.cpp:137] Memory required for data: 272439840
I1225 16:48:13.741402 61713 layer_factory.hpp:77] Creating layer relu7
I1225 16:48:13.741413 61713 net.cpp:84] Creating Layer relu7
I1225 16:48:13.741421 61713 net.cpp:406] relu7 <- quantized_fc7
I1225 16:48:13.741432 61713 net.cpp:380] relu7 -> relu7
I1225 16:48:13.741444 61713 net.cpp:122] Setting up relu7
I1225 16:48:13.741454 61713 net.cpp:129] Top shape: 20 4096 (81920)
I1225 16:48:13.741462 61713 net.cpp:137] Memory required for data: 272767520
I1225 16:48:13.741470 61713 layer_factory.hpp:77] Creating layer quantized_relu7
I1225 16:48:13.741483 61713 net.cpp:84] Creating Layer quantized_relu7
I1225 16:48:13.741493 61713 net.cpp:406] quantized_relu7 <- relu7
I1225 16:48:13.741504 61713 net.cpp:380] quantized_relu7 -> quantized_relu7
I1225 16:48:13.741516 61713 net.cpp:122] Setting up quantized_relu7
I1225 16:48:13.741528 61713 net.cpp:129] Top shape: 20 4096 (81920)
I1225 16:48:13.741535 61713 net.cpp:137] Memory required for data: 273095200
I1225 16:48:13.741544 61713 layer_factory.hpp:77] Creating layer fc8
I1225 16:48:13.741556 61713 net.cpp:84] Creating Layer fc8
I1225 16:48:13.741565 61713 net.cpp:406] fc8 <- quantized_relu7
I1225 16:48:13.741576 61713 net.cpp:380] fc8 -> fc8
I1225 16:48:13.748270 61713 net.cpp:122] Setting up fc8
I1225 16:48:13.748335 61713 net.cpp:129] Top shape: 20 1000 (20000)
I1225 16:48:13.748345 61713 net.cpp:137] Memory required for data: 273175200
I1225 16:48:13.748361 61713 layer_factory.hpp:77] Creating layer quantized_fc8
I1225 16:48:13.748380 61713 net.cpp:84] Creating Layer quantized_fc8
I1225 16:48:13.748392 61713 net.cpp:406] quantized_fc8 <- fc8
I1225 16:48:13.748410 61713 net.cpp:380] quantized_fc8 -> quantized_fc8
I1225 16:48:13.748430 61713 net.cpp:122] Setting up quantized_fc8
I1225 16:48:13.748441 61713 net.cpp:129] Top shape: 20 1000 (20000)
I1225 16:48:13.748450 61713 net.cpp:137] Memory required for data: 273255200
I1225 16:48:13.748458 61713 layer_factory.hpp:77] Creating layer quantized_fc8_quantized_fc8_0_split
I1225 16:48:13.748471 61713 net.cpp:84] Creating Layer quantized_fc8_quantized_fc8_0_split
I1225 16:48:13.748478 61713 net.cpp:406] quantized_fc8_quantized_fc8_0_split <- quantized_fc8
I1225 16:48:13.748492 61713 net.cpp:380] quantized_fc8_quantized_fc8_0_split -> quantized_fc8_quantized_fc8_0_split_0
I1225 16:48:13.748504 61713 net.cpp:380] quantized_fc8_quantized_fc8_0_split -> quantized_fc8_quantized_fc8_0_split_1
I1225 16:48:13.748517 61713 net.cpp:380] quantized_fc8_quantized_fc8_0_split -> quantized_fc8_quantized_fc8_0_split_2
I1225 16:48:13.748528 61713 net.cpp:380] quantized_fc8_quantized_fc8_0_split -> quantized_fc8_quantized_fc8_0_split_3
I1225 16:48:13.748541 61713 net.cpp:122] Setting up quantized_fc8_quantized_fc8_0_split
I1225 16:48:13.748554 61713 net.cpp:129] Top shape: 20 1000 (20000)
I1225 16:48:13.748565 61713 net.cpp:129] Top shape: 20 1000 (20000)
I1225 16:48:13.748575 61713 net.cpp:129] Top shape: 20 1000 (20000)
I1225 16:48:13.748584 61713 net.cpp:129] Top shape: 20 1000 (20000)
I1225 16:48:13.748594 61713 net.cpp:137] Memory required for data: 273575200
I1225 16:48:13.748601 61713 layer_factory.hpp:77] Creating layer probs
I1225 16:48:13.748654 61713 net.cpp:84] Creating Layer probs
I1225 16:48:13.748664 61713 net.cpp:406] probs <- quantized_fc8_quantized_fc8_0_split_0
I1225 16:48:13.748674 61713 net.cpp:380] probs -> probs
I1225 16:48:13.748697 61713 net.cpp:122] Setting up probs
I1225 16:48:13.748708 61713 net.cpp:129] Top shape: 20 1000 (20000)
I1225 16:48:13.748716 61713 net.cpp:137] Memory required for data: 273655200
I1225 16:48:13.748725 61713 layer_factory.hpp:77] Creating layer loss
I1225 16:48:13.748739 61713 net.cpp:84] Creating Layer loss
I1225 16:48:13.748747 61713 net.cpp:406] loss <- quantized_fc8_quantized_fc8_0_split_1
I1225 16:48:13.748757 61713 net.cpp:406] loss <- label_data_1_split_0
I1225 16:48:13.748769 61713 net.cpp:380] loss -> loss
…
