…
I1225 14:33:18.631268 41183 net.cpp:294] The NetState phase (0) differed from the phase (1) specified by a rule in layer data
I1225 14:33:18.631633 41183 net.cpp:51] Initializing net from parameters: 
state {
  phase: TRAIN
  level: 0
  stage: ""
}
layer {
  name: "data"
  type: "Data"
  top: "data"
  top: "label"
  include {
    phase: TRAIN
  }
  transform_param {
    mirror: false
    crop_size: 227
    mean_file: "/home/ydwu/database/imagenet/ilsvrc12/imagenet_mean.binaryproto"
  }
  data_param {
    source: "/home/ydwu/database/imagenet/ilsvrc12/lmdb_resize/ilsvrc12_train_lmdb/"
    batch_size: 32
    backend: LMDB
  }
}
layer {
  name: "quantized_data"
  type: "Quantization"
  bottom: "data"
  top: "quantized_data"
  quantization_param {
    round_method: FLOOR
    round_strategy: AGGRESSIVE
    bit_width: 8
    range: -129.93526
    range: 160.78912
  }
}
layer {
  name: "conv1"
  type: "Convolution"
  bottom: "quantized_data"
  top: "conv1"
  param {
    lr_mult: 1
    decay_mult: 1
  }
  param {
    lr_mult: 2
    decay_mult: 0
  }
  convolution_param {
    num_output: 96
    pad: 0
    kernel_size: 11
    group: 1
    stride: 4
    weight_filler {
      type: "gaussian"
      std: 1.1e+13
    }
    bias_filler {
      type: "constant"
      std: 0.1
    }
  }
}
layer {
  name: "quantized_conv1"
  type: "Quantization"
  bottom: "conv1"
  top: "quantized_conv1"
  quantization_param {
    round_method: FLOOR
    round_strategy: AGGRESSIVE
    bit_width: 8
    range: -2732.7351
    range: 2531.042
  }
}
layer {
  name: "relu1"
  type: "ReLU"
  bottom: "quantized_conv1"
  top: "relu1"
}
layer {
  name: "quantized_relu1"
  type: "Quantization"
  bottom: "relu1"
  top: "quantized_relu1"
  quantization_param {
    round_method: FLOOR
    round_strategy: AGGRESSIVE
    bit_width: 8
    range: 1
    range: 2531.042
  }
}
layer {
  name: "pool1"
  type: "Pooling"
  bottom: "quantized_relu1"
  top: "pool1"
  pooling_param {
    pool: MAX
    kernel_size: 3
    stride: 2
  }
}
layer {
  name: "quantized_pool1"
  type: "Quantization"
  bottom: "pool1"
  top: "quantized_pool1"
  quantization_param {
    round_method: FLOOR
    round_strategy: AGGRESSIVE
    bit_width: 8
    range: 1
    range: 2531.042
  }
}
layer {
  name: "norm1"
  type: "LRN"
  bottom: "quantized_pool1"
  top: "norm1"
  lrn_param {
    local_size: 5
    alpha: 0.0001
    beta: 0.75
  }
}
layer {
  name: "quantized_norm1"
  type: "Quantization"
  bottom: "norm1"
  top: "quantized_norm1"
  quantization_param {
    round_method: FLOOR
    round_strategy: AGGRESSIVE
    bit_width: 8
    range: 1
    range: 138.70576
  }
}
layer {
  name: "conv2"
  type: "Convolution"
  bottom: "quantized_norm1"
  top: "conv2"
  param {
    lr_mult: 1
    decay_mult: 1
  }
  param {
    lr_mult: 2
    decay_mult: 0
  }
  convolution_param {
    num_output: 256
    pad: 2
    kernel_size: 5
    group: 2
    stride: 1
    weight_filler {
      type: "gaussian"
      std: 1.1e+13
    }
    bias_filler {
      type: "constant"
      std: 0.1
    }
  }
}
layer {
  name: "quantized_conv2"
  type: "Quantization"
  bottom: "conv2"
  top: "quantized_conv2"
  quantization_param {
    round_method: FLOOR
    round_strategy: AGGRESSIVE
    bit_width: 8
    range: -647.61908
    range: 492.23111
  }
}
layer {
  name: "relu2"
  type: "ReLU"
  bottom: "quantized_conv2"
  top: "relu2"
}
layer {
  name: "quantized_relu2"
  type: "Quantization"
  bottom: "relu2"
  top: "quantized_relu2"
  quantization_param {
    round_method: FLOOR
    round_strategy: AGGRESSIVE
    bit_width: 8
    range: 1
    range: 492.23111
  }
}
layer {
  name: "pool2"
  type: "Pooling"
  bottom: "quantized_relu2"
  top: "pool2"
  pooling_param {
    pool: MAX
    kernel_size: 3
    stride: 2
  }
}
layer {
  name: "quantized_pool2"
  type: "Quantization"
  bottom: "pool2"
  top: "quantized_pool2"
  quantization_param {
    round_method: FLOOR
    round_strategy: AGGRESSIVE
    bit_width: 8
    range: 1
    range: 492.23111
  }
}
layer {
  name: "norm2"
  type: "LRN"
  bottom: "quantized_pool2"
  top: "norm2"
  lrn_param {
    local_size: 5
    alpha: 0.0001
    beta: 0.75
  }
}
layer {
  name: "quantized_norm2"
  type: "Quantization"
  bottom: "norm2"
  top: "quantized_norm2"
  quantization_param {
    round_method: FLOOR
    round_strategy: AGGRESSIVE
    bit_width: 8
    range: 1
    range: 138.72636
  }
}
layer {
  name: "conv3"
  type: "Convolution"
  bottom: "quantized_norm2"
  top: "conv3"
  param {
    lr_mult: 1
    decay_mult: 1
  }
  param {
    lr_mult: 2
    decay_mult: 0
  }
  convolution_param {
    num_output: 384
    pad: 1
    kernel_size: 3
    group: 1
    stride: 1
    weight_filler {
      type: "gaussian"
      std: 1.1e+13
    }
    bias_filler {
      type: "constant"
      std: 0.1
    }
  }
}
layer {
  name: "quantized_conv3"
  type: "Quantization"
  bottom: "conv3"
  top: "quantized_conv3"
  quantization_param {
    round_method: FLOOR
    round_strategy: AGGRESSIVE
    bit_width: 8
    range: -389.56516
    range: 331.98178
  }
}
layer {
  name: "relu3"
  type: "ReLU"
  bottom: "quantized_conv3"
  top: "relu3"
}
layer {
  name: "quantized_relu3"
  type: "Quantization"
  bottom: "relu3"
  top: "quantized_relu3"
  quantization_param {
    round_method: FLOOR
    round_strategy: AGGRESSIVE
    bit_width: 8
    range: 1
    range: 331.98178
  }
}
layer {
  name: "conv4"
  type: "Convolution"
  bottom: "quantized_relu3"
  top: "conv4"
  param {
    lr_mult: 1
    decay_mult: 1
  }
  param {
    lr_mult: 2
    decay_mult: 0
  }
  convolution_param {
    num_output: 384
    pad: 1
    kernel_size: 3
    group: 2
    stride: 1
    weight_filler {
      type: "gaussian"
      std: 1.1e+13
    }
    bias_filler {
      type: "constant"
      std: 0.1
    }
  }
}
layer {
  name: "quantized_conv4"
  type: "Quantization"
  bottom: "conv4"
  top: "quantized_conv4"
  quantization_param {
    round_method: FLOOR
    round_strategy: AGGRESSIVE
    bit_width: 8
    range: -231.20598
    range: 283.87189
  }
}
layer {
  name: "relu4"
  type: "ReLU"
  bottom: "quantized_conv4"
  top: "relu4"
}
layer {
  name: "quantized_relu4"
  type: "Quantization"
  bottom: "relu4"
  top: "quantized_relu4"
  quantization_param {
    round_method: FLOOR
    round_strategy: AGGRESSIVE
    bit_width: 8
    range: 1
    range: 283.87189
  }
}
layer {
  name: "conv5"
  type: "Convolution"
  bottom: "quantized_relu4"
  top: "conv5"
  param {
    lr_mult: 1
    decay_mult: 1
  }
  param {
    lr_mult: 2
    decay_mult: 0
  }
  convolution_param {
    num_output: 256
    pad: 1
    kernel_size: 3
    group: 2
    stride: 1
    weight_filler {
      type: "gaussian"
      std: 1.1e+13
    }
    bias_filler {
      type: "constant"
      std: 0.1
    }
  }
}
layer {
  name: "quantized_conv5"
  type: "Quantization"
  bottom: "conv5"
  top: "quantized_conv5"
  quantization_param {
    round_method: FLOOR
    round_strategy: AGGRESSIVE
    bit_width: 8
    range: -172.60567
    range: 272.57315
  }
}
layer {
  name: "relu5"
  type: "ReLU"
  bottom: "quantized_conv5"
  top: "relu5"
}
layer {
  name: "quantized_relu5"
  type: "Quantization"
  bottom: "relu5"
  top: "quantized_relu5"
  quantization_param {
    round_method: FLOOR
    round_strategy: AGGRESSIVE
    bit_width: 8
    range: 1
    range: 272.57315
  }
}
layer {
  name: "pool5"
  type: "Pooling"
  bottom: "quantized_relu5"
  top: "pool5"
  pooling_param {
    pool: MAX
    kernel_size: 3
    stride: 2
  }
}
layer {
  name: "quantized_pool5"
  type: "Quantization"
  bottom: "pool5"
  top: "quantized_pool5"
  quantization_param {
    round_method: FLOOR
    round_strategy: AGGRESSIVE
    bit_width: 8
    range: 1
    range: 272.57315
  }
}
layer {
  name: "fc6"
  type: "InnerProduct"
  bottom: "quantized_pool5"
  top: "fc6"
  param {
    lr_mult: 1
    decay_mult: 1
  }
  param {
    lr_mult: 2
    decay_mult: 0
  }
  inner_product_param {
    num_output: 4096
    weight_filler {
      type: "gaussian"
      std: 1.05e+13
    }
    bias_filler {
      type: "constant"
      value: 0.1
    }
  }
}
layer {
  name: "quantized_fc6"
  type: "Quantization"
  bottom: "fc6"
  top: "quantized_fc6"
  quantization_param {
    round_method: FLOOR
    round_strategy: AGGRESSIVE
    bit_width: 8
    range: -114.02487
    range: 58.541733
  }
}
layer {
  name: "relu6"
  type: "ReLU"
  bottom: "quantized_fc6"
  top: "relu6"
}
layer {
  name: "quantized_relu6"
  type: "Quantization"
  bottom: "relu6"
  top: "quantized_relu6"
  quantization_param {
    round_method: FLOOR
    round_strategy: AGGRESSIVE
    bit_width: 8
    range: 1
    range: 58.541733
  }
}
layer {
  name: "fc7"
  type: "InnerProduct"
  bottom: "quantized_relu6"
  top: "fc7"
  param {
    lr_mult: 1
    decay_mult: 1
  }
  param {
    lr_mult: 2
    decay_mult: 0
  }
  inner_product_param {
    num_output: 4096
    weight_filler {
      type: "gaussian"
      std: 1.05e+13
    }
    bias_filler {
      type: "constant"
      value: 0.1
    }
  }
}
layer {
  name: "quantized_fc7"
  type: "Quantization"
  bottom: "fc7"
  top: "quantized_fc7"
  quantization_param {
    round_method: FLOOR
    round_strategy: AGGRESSIVE
    bit_width: 8
    range: -26.019335
    range: 19.125257
  }
}
layer {
  name: "relu7"
  type: "ReLU"
  bottom: "quantized_fc7"
  top: "relu7"
}
layer {
  name: "quantized_relu7"
  type: "Quantization"
  bottom: "relu7"
  top: "quantized_relu7"
  quantization_param {
    round_method: FLOOR
    round_strategy: AGGRESSIVE
    bit_width: 8
    range: 1
    range: 19.125257
  }
}
layer {
  name: "fc8"
  type: "InnerProduct"
  bottom: "quantized_relu7"
  top: "fc8"
  param {
    lr_mult: 1
    decay_mult: 1
  }
  param {
    lr_mult: 2
    decay_mult: 0
  }
  inner_product_param {
    num_output: 1000
  }
}
layer {
  name: "quantized_fc8"
  type: "Quantization"
  bottom: "fc8"
  top: "quantized_fc8"
  quantization_param {
    round_method: FLOOR
    round_strategy: AGGRESSIVE
    bit_width: 8
    range: -9.849781
    range: 45.688446
  }
}
layer {
  name: "probs"
  type: "Softmax"
  bottom: "quantized_fc8"
  top: "probs"
}
layer {
  name: "loss"
  type: "SoftmaxWithLoss"
  bottom: "quantized_fc8"
  bottom: "label"
  top: "loss"
}
layer {
  name: "acc_top1"
  type: "Accuracy"
  bottom: "quantized_fc8"
  bottom: "label"
  top: "acc_top1"
  accuracy_param {
    top_k: 1
  }
}
layer {
  name: "acc_top5"
  type: "Accuracy"
  bottom: "quantized_fc8"
  bottom: "label"
  top: "acc_top5"
  accuracy_param {
    top_k: 5
  }
}
I1225 14:33:18.631918 41183 layer_factory.hpp:77] Creating layer data
I1225 14:33:18.632045 41183 db_lmdb.cpp:35] Opened lmdb /home/ydwu/database/imagenet/ilsvrc12/lmdb_resize/ilsvrc12_train_lmdb/
I1225 14:33:18.632088 41183 net.cpp:84] Creating Layer data
I1225 14:33:18.632107 41183 net.cpp:380] data -> data
I1225 14:33:18.632143 41183 net.cpp:380] data -> label
I1225 14:33:18.632169 41183 data_transformer.cpp:25] Loading mean file from: /home/ydwu/database/imagenet/ilsvrc12/imagenet_mean.binaryproto
I1225 14:33:18.634717 41183 data_layer.cpp:45] output data size: 32,3,227,227
I1225 14:33:18.656994 41183 net.cpp:122] Setting up data
I1225 14:33:18.657061 41183 net.cpp:129] Top shape: 32 3 227 227 (4946784)
I1225 14:33:18.657074 41183 net.cpp:129] Top shape: 32 (32)
I1225 14:33:18.657083 41183 net.cpp:137] Memory required for data: 19787264
I1225 14:33:18.657099 41183 layer_factory.hpp:77] Creating layer label_data_1_split
I1225 14:33:18.657124 41183 net.cpp:84] Creating Layer label_data_1_split
I1225 14:33:18.657136 41183 net.cpp:406] label_data_1_split <- label
I1225 14:33:18.657161 41183 net.cpp:380] label_data_1_split -> label_data_1_split_0
I1225 14:33:18.657181 41183 net.cpp:380] label_data_1_split -> label_data_1_split_1
I1225 14:33:18.657233 41183 net.cpp:380] label_data_1_split -> label_data_1_split_2
I1225 14:33:18.657256 41183 net.cpp:122] Setting up label_data_1_split
I1225 14:33:18.657269 41183 net.cpp:129] Top shape: 32 (32)
I1225 14:33:18.657279 41183 net.cpp:129] Top shape: 32 (32)
I1225 14:33:18.657287 41183 net.cpp:129] Top shape: 32 (32)
I1225 14:33:18.657295 41183 net.cpp:137] Memory required for data: 19787648
I1225 14:33:18.657304 41183 layer_factory.hpp:77] Creating layer quantized_data
I1225 14:33:18.657320 41183 net.cpp:84] Creating Layer quantized_data
I1225 14:33:18.657330 41183 net.cpp:406] quantized_data <- data
I1225 14:33:18.657341 41183 net.cpp:380] quantized_data -> quantized_data
I1225 14:33:18.657358 41183 net.cpp:122] Setting up quantized_data
I1225 14:33:18.657369 41183 net.cpp:129] Top shape: 32 3 227 227 (4946784)
I1225 14:33:18.657377 41183 net.cpp:137] Memory required for data: 39574784
I1225 14:33:18.657387 41183 layer_factory.hpp:77] Creating layer conv1
I1225 14:33:18.657413 41183 net.cpp:84] Creating Layer conv1
I1225 14:33:18.657423 41183 net.cpp:406] conv1 <- quantized_data
I1225 14:33:18.657435 41183 net.cpp:380] conv1 -> conv1
I1225 14:33:18.658661 41183 net.cpp:122] Setting up conv1
I1225 14:33:18.658679 41183 net.cpp:129] Top shape: 32 96 55 55 (9292800)
I1225 14:33:18.658689 41183 net.cpp:137] Memory required for data: 76745984
I1225 14:33:18.658710 41183 layer_factory.hpp:77] Creating layer quantized_conv1
I1225 14:33:18.658725 41183 net.cpp:84] Creating Layer quantized_conv1
I1225 14:33:18.658735 41183 net.cpp:406] quantized_conv1 <- conv1
I1225 14:33:18.658746 41183 net.cpp:380] quantized_conv1 -> quantized_conv1
I1225 14:33:18.658759 41183 net.cpp:122] Setting up quantized_conv1
I1225 14:33:18.658771 41183 net.cpp:129] Top shape: 32 96 55 55 (9292800)
I1225 14:33:18.658778 41183 net.cpp:137] Memory required for data: 113917184
I1225 14:33:18.658787 41183 layer_factory.hpp:77] Creating layer relu1
I1225 14:33:18.658800 41183 net.cpp:84] Creating Layer relu1
I1225 14:33:18.658810 41183 net.cpp:406] relu1 <- quantized_conv1
I1225 14:33:18.658820 41183 net.cpp:380] relu1 -> relu1
I1225 14:33:18.658833 41183 net.cpp:122] Setting up relu1
I1225 14:33:18.658844 41183 net.cpp:129] Top shape: 32 96 55 55 (9292800)
I1225 14:33:18.658852 41183 net.cpp:137] Memory required for data: 151088384
I1225 14:33:18.658861 41183 layer_factory.hpp:77] Creating layer quantized_relu1
I1225 14:33:18.658872 41183 net.cpp:84] Creating Layer quantized_relu1
I1225 14:33:18.658880 41183 net.cpp:406] quantized_relu1 <- relu1
I1225 14:33:18.658891 41183 net.cpp:380] quantized_relu1 -> quantized_relu1
I1225 14:33:18.658903 41183 net.cpp:122] Setting up quantized_relu1
I1225 14:33:18.658915 41183 net.cpp:129] Top shape: 32 96 55 55 (9292800)
I1225 14:33:18.658922 41183 net.cpp:137] Memory required for data: 188259584
I1225 14:33:18.658931 41183 layer_factory.hpp:77] Creating layer pool1
I1225 14:33:18.658943 41183 net.cpp:84] Creating Layer pool1
I1225 14:33:18.658952 41183 net.cpp:406] pool1 <- quantized_relu1
I1225 14:33:18.658998 41183 net.cpp:380] pool1 -> pool1
I1225 14:33:18.659027 41183 net.cpp:122] Setting up pool1
I1225 14:33:18.659041 41183 net.cpp:129] Top shape: 32 96 27 27 (2239488)
I1225 14:33:18.659049 41183 net.cpp:137] Memory required for data: 197217536
I1225 14:33:18.659057 41183 layer_factory.hpp:77] Creating layer quantized_pool1
I1225 14:33:18.659070 41183 net.cpp:84] Creating Layer quantized_pool1
I1225 14:33:18.659080 41183 net.cpp:406] quantized_pool1 <- pool1
I1225 14:33:18.659091 41183 net.cpp:380] quantized_pool1 -> quantized_pool1
I1225 14:33:18.659103 41183 net.cpp:122] Setting up quantized_pool1
I1225 14:33:18.659114 41183 net.cpp:129] Top shape: 32 96 27 27 (2239488)
I1225 14:33:18.659122 41183 net.cpp:137] Memory required for data: 206175488
I1225 14:33:18.659131 41183 layer_factory.hpp:77] Creating layer norm1
I1225 14:33:18.659144 41183 net.cpp:84] Creating Layer norm1
I1225 14:33:18.659152 41183 net.cpp:406] norm1 <- quantized_pool1
I1225 14:33:18.659163 41183 net.cpp:380] norm1 -> norm1
I1225 14:33:18.659198 41183 net.cpp:122] Setting up norm1
I1225 14:33:18.659211 41183 net.cpp:129] Top shape: 32 96 27 27 (2239488)
I1225 14:33:18.659219 41183 net.cpp:137] Memory required for data: 215133440
I1225 14:33:18.659229 41183 layer_factory.hpp:77] Creating layer quantized_norm1
I1225 14:33:18.659240 41183 net.cpp:84] Creating Layer quantized_norm1
I1225 14:33:18.659247 41183 net.cpp:406] quantized_norm1 <- norm1
I1225 14:33:18.659258 41183 net.cpp:380] quantized_norm1 -> quantized_norm1
I1225 14:33:18.659271 41183 net.cpp:122] Setting up quantized_norm1
I1225 14:33:18.659281 41183 net.cpp:129] Top shape: 32 96 27 27 (2239488)
I1225 14:33:18.659289 41183 net.cpp:137] Memory required for data: 224091392
I1225 14:33:18.659298 41183 layer_factory.hpp:77] Creating layer conv2
I1225 14:33:18.659313 41183 net.cpp:84] Creating Layer conv2
I1225 14:33:18.659322 41183 net.cpp:406] conv2 <- quantized_norm1
I1225 14:33:18.659334 41183 net.cpp:380] conv2 -> conv2
I1225 14:33:18.669090 41183 net.cpp:122] Setting up conv2
I1225 14:33:18.669133 41183 net.cpp:129] Top shape: 32 256 27 27 (5971968)
I1225 14:33:18.669143 41183 net.cpp:137] Memory required for data: 247979264
I1225 14:33:18.669162 41183 layer_factory.hpp:77] Creating layer quantized_conv2
I1225 14:33:18.669181 41183 net.cpp:84] Creating Layer quantized_conv2
I1225 14:33:18.669193 41183 net.cpp:406] quantized_conv2 <- conv2
I1225 14:33:18.669209 41183 net.cpp:380] quantized_conv2 -> quantized_conv2
I1225 14:33:18.669229 41183 net.cpp:122] Setting up quantized_conv2
I1225 14:33:18.669240 41183 net.cpp:129] Top shape: 32 256 27 27 (5971968)
I1225 14:33:18.669248 41183 net.cpp:137] Memory required for data: 271867136
I1225 14:33:18.669256 41183 layer_factory.hpp:77] Creating layer relu2
I1225 14:33:18.669270 41183 net.cpp:84] Creating Layer relu2
I1225 14:33:18.669279 41183 net.cpp:406] relu2 <- quantized_conv2
I1225 14:33:18.669291 41183 net.cpp:380] relu2 -> relu2
I1225 14:33:18.669303 41183 net.cpp:122] Setting up relu2
I1225 14:33:18.669315 41183 net.cpp:129] Top shape: 32 256 27 27 (5971968)
I1225 14:33:18.669324 41183 net.cpp:137] Memory required for data: 295755008
I1225 14:33:18.669332 41183 layer_factory.hpp:77] Creating layer quantized_relu2
I1225 14:33:18.669345 41183 net.cpp:84] Creating Layer quantized_relu2
I1225 14:33:18.669353 41183 net.cpp:406] quantized_relu2 <- relu2
I1225 14:33:18.669368 41183 net.cpp:380] quantized_relu2 -> quantized_relu2
I1225 14:33:18.669380 41183 net.cpp:122] Setting up quantized_relu2
I1225 14:33:18.669390 41183 net.cpp:129] Top shape: 32 256 27 27 (5971968)
I1225 14:33:18.669399 41183 net.cpp:137] Memory required for data: 319642880
I1225 14:33:18.669407 41183 layer_factory.hpp:77] Creating layer pool2
I1225 14:33:18.669422 41183 net.cpp:84] Creating Layer pool2
I1225 14:33:18.669431 41183 net.cpp:406] pool2 <- quantized_relu2
I1225 14:33:18.669442 41183 net.cpp:380] pool2 -> pool2
I1225 14:33:18.669468 41183 net.cpp:122] Setting up pool2
I1225 14:33:18.669479 41183 net.cpp:129] Top shape: 32 256 13 13 (1384448)
I1225 14:33:18.669487 41183 net.cpp:137] Memory required for data: 325180672
I1225 14:33:18.669497 41183 layer_factory.hpp:77] Creating layer quantized_pool2
I1225 14:33:18.669512 41183 net.cpp:84] Creating Layer quantized_pool2
I1225 14:33:18.669523 41183 net.cpp:406] quantized_pool2 <- pool2
I1225 14:33:18.669533 41183 net.cpp:380] quantized_pool2 -> quantized_pool2
I1225 14:33:18.669544 41183 net.cpp:122] Setting up quantized_pool2
I1225 14:33:18.669555 41183 net.cpp:129] Top shape: 32 256 13 13 (1384448)
I1225 14:33:18.669564 41183 net.cpp:137] Memory required for data: 330718464
I1225 14:33:18.669571 41183 layer_factory.hpp:77] Creating layer norm2
I1225 14:33:18.669587 41183 net.cpp:84] Creating Layer norm2
I1225 14:33:18.669596 41183 net.cpp:406] norm2 <- quantized_pool2
I1225 14:33:18.669607 41183 net.cpp:380] norm2 -> norm2
I1225 14:33:18.669620 41183 net.cpp:122] Setting up norm2
I1225 14:33:18.669631 41183 net.cpp:129] Top shape: 32 256 13 13 (1384448)
I1225 14:33:18.669639 41183 net.cpp:137] Memory required for data: 336256256
I1225 14:33:18.669683 41183 layer_factory.hpp:77] Creating layer quantized_norm2
I1225 14:33:18.669698 41183 net.cpp:84] Creating Layer quantized_norm2
I1225 14:33:18.669708 41183 net.cpp:406] quantized_norm2 <- norm2
I1225 14:33:18.669718 41183 net.cpp:380] quantized_norm2 -> quantized_norm2
I1225 14:33:18.669730 41183 net.cpp:122] Setting up quantized_norm2
I1225 14:33:18.669741 41183 net.cpp:129] Top shape: 32 256 13 13 (1384448)
I1225 14:33:18.669749 41183 net.cpp:137] Memory required for data: 341794048
I1225 14:33:18.669759 41183 layer_factory.hpp:77] Creating layer conv3
I1225 14:33:18.669777 41183 net.cpp:84] Creating Layer conv3
I1225 14:33:18.669787 41183 net.cpp:406] conv3 <- quantized_norm2
I1225 14:33:18.669802 41183 net.cpp:380] conv3 -> conv3
I1225 14:33:18.698117 41183 net.cpp:122] Setting up conv3
I1225 14:33:18.698168 41183 net.cpp:129] Top shape: 32 384 13 13 (2076672)
I1225 14:33:18.698177 41183 net.cpp:137] Memory required for data: 350100736
I1225 14:33:18.698197 41183 layer_factory.hpp:77] Creating layer quantized_conv3
I1225 14:33:18.698217 41183 net.cpp:84] Creating Layer quantized_conv3
I1225 14:33:18.698228 41183 net.cpp:406] quantized_conv3 <- conv3
I1225 14:33:18.698242 41183 net.cpp:380] quantized_conv3 -> quantized_conv3
I1225 14:33:18.698261 41183 net.cpp:122] Setting up quantized_conv3
I1225 14:33:18.698272 41183 net.cpp:129] Top shape: 32 384 13 13 (2076672)
I1225 14:33:18.698281 41183 net.cpp:137] Memory required for data: 358407424
I1225 14:33:18.698289 41183 layer_factory.hpp:77] Creating layer relu3
I1225 14:33:18.698303 41183 net.cpp:84] Creating Layer relu3
I1225 14:33:18.698312 41183 net.cpp:406] relu3 <- quantized_conv3
I1225 14:33:18.698323 41183 net.cpp:380] relu3 -> relu3
I1225 14:33:18.698335 41183 net.cpp:122] Setting up relu3
I1225 14:33:18.698346 41183 net.cpp:129] Top shape: 32 384 13 13 (2076672)
I1225 14:33:18.698354 41183 net.cpp:137] Memory required for data: 366714112
I1225 14:33:18.698362 41183 layer_factory.hpp:77] Creating layer quantized_relu3
I1225 14:33:18.698375 41183 net.cpp:84] Creating Layer quantized_relu3
I1225 14:33:18.698385 41183 net.cpp:406] quantized_relu3 <- relu3
I1225 14:33:18.698395 41183 net.cpp:380] quantized_relu3 -> quantized_relu3
I1225 14:33:18.698407 41183 net.cpp:122] Setting up quantized_relu3
I1225 14:33:18.698417 41183 net.cpp:129] Top shape: 32 384 13 13 (2076672)
I1225 14:33:18.698426 41183 net.cpp:137] Memory required for data: 375020800
I1225 14:33:18.698434 41183 layer_factory.hpp:77] Creating layer conv4
I1225 14:33:18.698453 41183 net.cpp:84] Creating Layer conv4
I1225 14:33:18.698462 41183 net.cpp:406] conv4 <- quantized_relu3
I1225 14:33:18.698477 41183 net.cpp:380] conv4 -> conv4
I1225 14:33:18.720059 41183 net.cpp:122] Setting up conv4
I1225 14:33:18.720103 41183 net.cpp:129] Top shape: 32 384 13 13 (2076672)
I1225 14:33:18.720113 41183 net.cpp:137] Memory required for data: 383327488
I1225 14:33:18.720129 41183 layer_factory.hpp:77] Creating layer quantized_conv4
I1225 14:33:18.720150 41183 net.cpp:84] Creating Layer quantized_conv4
I1225 14:33:18.720162 41183 net.cpp:406] quantized_conv4 <- conv4
I1225 14:33:18.720177 41183 net.cpp:380] quantized_conv4 -> quantized_conv4
I1225 14:33:18.720196 41183 net.cpp:122] Setting up quantized_conv4
I1225 14:33:18.720206 41183 net.cpp:129] Top shape: 32 384 13 13 (2076672)
I1225 14:33:18.720216 41183 net.cpp:137] Memory required for data: 391634176
I1225 14:33:18.720223 41183 layer_factory.hpp:77] Creating layer relu4
I1225 14:33:18.720237 41183 net.cpp:84] Creating Layer relu4
I1225 14:33:18.720247 41183 net.cpp:406] relu4 <- quantized_conv4
I1225 14:33:18.720257 41183 net.cpp:380] relu4 -> relu4
I1225 14:33:18.720269 41183 net.cpp:122] Setting up relu4
I1225 14:33:18.720280 41183 net.cpp:129] Top shape: 32 384 13 13 (2076672)
I1225 14:33:18.720288 41183 net.cpp:137] Memory required for data: 399940864
I1225 14:33:18.720296 41183 layer_factory.hpp:77] Creating layer quantized_relu4
I1225 14:33:18.720306 41183 net.cpp:84] Creating Layer quantized_relu4
I1225 14:33:18.720315 41183 net.cpp:406] quantized_relu4 <- relu4
I1225 14:33:18.720366 41183 net.cpp:380] quantized_relu4 -> quantized_relu4
I1225 14:33:18.720381 41183 net.cpp:122] Setting up quantized_relu4
I1225 14:33:18.720392 41183 net.cpp:129] Top shape: 32 384 13 13 (2076672)
I1225 14:33:18.720401 41183 net.cpp:137] Memory required for data: 408247552
I1225 14:33:18.720408 41183 layer_factory.hpp:77] Creating layer conv5
I1225 14:33:18.720428 41183 net.cpp:84] Creating Layer conv5
I1225 14:33:18.720438 41183 net.cpp:406] conv5 <- quantized_relu4
I1225 14:33:18.720451 41183 net.cpp:380] conv5 -> conv5
I1225 14:33:18.734803 41183 net.cpp:122] Setting up conv5
I1225 14:33:18.734846 41183 net.cpp:129] Top shape: 32 256 13 13 (1384448)
I1225 14:33:18.734855 41183 net.cpp:137] Memory required for data: 413785344
I1225 14:33:18.734876 41183 layer_factory.hpp:77] Creating layer quantized_conv5
I1225 14:33:18.734897 41183 net.cpp:84] Creating Layer quantized_conv5
I1225 14:33:18.734907 41183 net.cpp:406] quantized_conv5 <- conv5
I1225 14:33:18.734922 41183 net.cpp:380] quantized_conv5 -> quantized_conv5
I1225 14:33:18.734942 41183 net.cpp:122] Setting up quantized_conv5
I1225 14:33:18.734954 41183 net.cpp:129] Top shape: 32 256 13 13 (1384448)
I1225 14:33:18.734968 41183 net.cpp:137] Memory required for data: 419323136
I1225 14:33:18.734977 41183 layer_factory.hpp:77] Creating layer relu5
I1225 14:33:18.734989 41183 net.cpp:84] Creating Layer relu5
I1225 14:33:18.734998 41183 net.cpp:406] relu5 <- quantized_conv5
I1225 14:33:18.735013 41183 net.cpp:380] relu5 -> relu5
I1225 14:33:18.735028 41183 net.cpp:122] Setting up relu5
I1225 14:33:18.735043 41183 net.cpp:129] Top shape: 32 256 13 13 (1384448)
I1225 14:33:18.735050 41183 net.cpp:137] Memory required for data: 424860928
I1225 14:33:18.735059 41183 layer_factory.hpp:77] Creating layer quantized_relu5
I1225 14:33:18.735069 41183 net.cpp:84] Creating Layer quantized_relu5
I1225 14:33:18.735079 41183 net.cpp:406] quantized_relu5 <- relu5
I1225 14:33:18.735088 41183 net.cpp:380] quantized_relu5 -> quantized_relu5
I1225 14:33:18.735100 41183 net.cpp:122] Setting up quantized_relu5
I1225 14:33:18.735111 41183 net.cpp:129] Top shape: 32 256 13 13 (1384448)
I1225 14:33:18.735119 41183 net.cpp:137] Memory required for data: 430398720
I1225 14:33:18.735127 41183 layer_factory.hpp:77] Creating layer pool5
I1225 14:33:18.735142 41183 net.cpp:84] Creating Layer pool5
I1225 14:33:18.735152 41183 net.cpp:406] pool5 <- quantized_relu5
I1225 14:33:18.735162 41183 net.cpp:380] pool5 -> pool5
I1225 14:33:18.735178 41183 net.cpp:122] Setting up pool5
I1225 14:33:18.735189 41183 net.cpp:129] Top shape: 32 256 6 6 (294912)
I1225 14:33:18.735198 41183 net.cpp:137] Memory required for data: 431578368
I1225 14:33:18.735205 41183 layer_factory.hpp:77] Creating layer quantized_pool5
I1225 14:33:18.735224 41183 net.cpp:84] Creating Layer quantized_pool5
I1225 14:33:18.735234 41183 net.cpp:406] quantized_pool5 <- pool5
I1225 14:33:18.735244 41183 net.cpp:380] quantized_pool5 -> quantized_pool5
I1225 14:33:18.735256 41183 net.cpp:122] Setting up quantized_pool5
I1225 14:33:18.735267 41183 net.cpp:129] Top shape: 32 256 6 6 (294912)
I1225 14:33:18.735275 41183 net.cpp:137] Memory required for data: 432758016
I1225 14:33:18.735283 41183 layer_factory.hpp:77] Creating layer fc6
I1225 14:33:18.735309 41183 net.cpp:84] Creating Layer fc6
I1225 14:33:18.735319 41183 net.cpp:406] fc6 <- quantized_pool5
I1225 14:33:18.735332 41183 net.cpp:380] fc6 -> fc6
I1225 14:33:19.877961 41183 net.cpp:122] Setting up fc6
I1225 14:33:19.878017 41183 net.cpp:129] Top shape: 32 4096 (131072)
I1225 14:33:19.878027 41183 net.cpp:137] Memory required for data: 433282304
I1225 14:33:19.878046 41183 layer_factory.hpp:77] Creating layer quantized_fc6
I1225 14:33:19.878067 41183 net.cpp:84] Creating Layer quantized_fc6
I1225 14:33:19.878079 41183 net.cpp:406] quantized_fc6 <- fc6
I1225 14:33:19.878094 41183 net.cpp:380] quantized_fc6 -> quantized_fc6
I1225 14:33:19.878115 41183 net.cpp:122] Setting up quantized_fc6
I1225 14:33:19.878125 41183 net.cpp:129] Top shape: 32 4096 (131072)
I1225 14:33:19.878167 41183 net.cpp:137] Memory required for data: 433806592
I1225 14:33:19.878177 41183 layer_factory.hpp:77] Creating layer relu6
I1225 14:33:19.878257 41183 net.cpp:84] Creating Layer relu6
I1225 14:33:19.878268 41183 net.cpp:406] relu6 <- quantized_fc6
I1225 14:33:19.878278 41183 net.cpp:380] relu6 -> relu6
I1225 14:33:19.878291 41183 net.cpp:122] Setting up relu6
I1225 14:33:19.878301 41183 net.cpp:129] Top shape: 32 4096 (131072)
I1225 14:33:19.878310 41183 net.cpp:137] Memory required for data: 434330880
I1225 14:33:19.878319 41183 layer_factory.hpp:77] Creating layer quantized_relu6
I1225 14:33:19.878329 41183 net.cpp:84] Creating Layer quantized_relu6
I1225 14:33:19.878337 41183 net.cpp:406] quantized_relu6 <- relu6
I1225 14:33:19.878351 41183 net.cpp:380] quantized_relu6 -> quantized_relu6
I1225 14:33:19.878365 41183 net.cpp:122] Setting up quantized_relu6
I1225 14:33:19.878374 41183 net.cpp:129] Top shape: 32 4096 (131072)
I1225 14:33:19.878383 41183 net.cpp:137] Memory required for data: 434855168
I1225 14:33:19.878391 41183 layer_factory.hpp:77] Creating layer fc7
I1225 14:33:19.878406 41183 net.cpp:84] Creating Layer fc7
I1225 14:33:19.878414 41183 net.cpp:406] fc7 <- quantized_relu6
I1225 14:33:19.878425 41183 net.cpp:380] fc7 -> fc7
I1225 14:33:20.378891 41183 net.cpp:122] Setting up fc7
I1225 14:33:20.378945 41183 net.cpp:129] Top shape: 32 4096 (131072)
I1225 14:33:20.378960 41183 net.cpp:137] Memory required for data: 435379456
I1225 14:33:20.378978 41183 layer_factory.hpp:77] Creating layer quantized_fc7
I1225 14:33:20.379003 41183 net.cpp:84] Creating Layer quantized_fc7
I1225 14:33:20.379014 41183 net.cpp:406] quantized_fc7 <- fc7
I1225 14:33:20.379029 41183 net.cpp:380] quantized_fc7 -> quantized_fc7
I1225 14:33:20.379050 41183 net.cpp:122] Setting up quantized_fc7
I1225 14:33:20.379060 41183 net.cpp:129] Top shape: 32 4096 (131072)
I1225 14:33:20.379067 41183 net.cpp:137] Memory required for data: 435903744
I1225 14:33:20.379076 41183 layer_factory.hpp:77] Creating layer relu7
I1225 14:33:20.379087 41183 net.cpp:84] Creating Layer relu7
I1225 14:33:20.379096 41183 net.cpp:406] relu7 <- quantized_fc7
I1225 14:33:20.379106 41183 net.cpp:380] relu7 -> relu7
I1225 14:33:20.379118 41183 net.cpp:122] Setting up relu7
I1225 14:33:20.379128 41183 net.cpp:129] Top shape: 32 4096 (131072)
I1225 14:33:20.379137 41183 net.cpp:137] Memory required for data: 436428032
I1225 14:33:20.379144 41183 layer_factory.hpp:77] Creating layer quantized_relu7
I1225 14:33:20.379158 41183 net.cpp:84] Creating Layer quantized_relu7
I1225 14:33:20.379165 41183 net.cpp:406] quantized_relu7 <- relu7
I1225 14:33:20.379178 41183 net.cpp:380] quantized_relu7 -> quantized_relu7
I1225 14:33:20.379189 41183 net.cpp:122] Setting up quantized_relu7
I1225 14:33:20.379200 41183 net.cpp:129] Top shape: 32 4096 (131072)
I1225 14:33:20.379207 41183 net.cpp:137] Memory required for data: 436952320
I1225 14:33:20.379216 41183 layer_factory.hpp:77] Creating layer fc8
I1225 14:33:20.379230 41183 net.cpp:84] Creating Layer fc8
I1225 14:33:20.379237 41183 net.cpp:406] fc8 <- quantized_relu7
I1225 14:33:20.379247 41183 net.cpp:380] fc8 -> fc8
I1225 14:33:20.386050 41183 net.cpp:122] Setting up fc8
I1225 14:33:20.386117 41183 net.cpp:129] Top shape: 32 1000 (32000)
I1225 14:33:20.386127 41183 net.cpp:137] Memory required for data: 437080320
I1225 14:33:20.386143 41183 layer_factory.hpp:77] Creating layer quantized_fc8
I1225 14:33:20.386162 41183 net.cpp:84] Creating Layer quantized_fc8
I1225 14:33:20.386173 41183 net.cpp:406] quantized_fc8 <- fc8
I1225 14:33:20.386188 41183 net.cpp:380] quantized_fc8 -> quantized_fc8
I1225 14:33:20.386209 41183 net.cpp:122] Setting up quantized_fc8
I1225 14:33:20.386219 41183 net.cpp:129] Top shape: 32 1000 (32000)
I1225 14:33:20.386227 41183 net.cpp:137] Memory required for data: 437208320
I1225 14:33:20.386235 41183 layer_factory.hpp:77] Creating layer quantized_fc8_quantized_fc8_0_split
I1225 14:33:20.386247 41183 net.cpp:84] Creating Layer quantized_fc8_quantized_fc8_0_split
I1225 14:33:20.386296 41183 net.cpp:406] quantized_fc8_quantized_fc8_0_split <- quantized_fc8
I1225 14:33:20.386308 41183 net.cpp:380] quantized_fc8_quantized_fc8_0_split -> quantized_fc8_quantized_fc8_0_split_0
I1225 14:33:20.386324 41183 net.cpp:380] quantized_fc8_quantized_fc8_0_split -> quantized_fc8_quantized_fc8_0_split_1
I1225 14:33:20.386337 41183 net.cpp:380] quantized_fc8_quantized_fc8_0_split -> quantized_fc8_quantized_fc8_0_split_2
I1225 14:33:20.386349 41183 net.cpp:380] quantized_fc8_quantized_fc8_0_split -> quantized_fc8_quantized_fc8_0_split_3
I1225 14:33:20.386363 41183 net.cpp:122] Setting up quantized_fc8_quantized_fc8_0_split
I1225 14:33:20.386373 41183 net.cpp:129] Top shape: 32 1000 (32000)
I1225 14:33:20.386382 41183 net.cpp:129] Top shape: 32 1000 (32000)
I1225 14:33:20.386390 41183 net.cpp:129] Top shape: 32 1000 (32000)
I1225 14:33:20.386399 41183 net.cpp:129] Top shape: 32 1000 (32000)
I1225 14:33:20.386407 41183 net.cpp:137] Memory required for data: 437720320
I1225 14:33:20.386415 41183 layer_factory.hpp:77] Creating layer probs
I1225 14:33:20.386426 41183 net.cpp:84] Creating Layer probs
I1225 14:33:20.386435 41183 net.cpp:406] probs <- quantized_fc8_quantized_fc8_0_split_0
I1225 14:33:20.386445 41183 net.cpp:380] probs -> probs
I1225 14:33:20.386471 41183 net.cpp:122] Setting up probs
I1225 14:33:20.386482 41183 net.cpp:129] Top shape: 32 1000 (32000)
I1225 14:33:20.386490 41183 net.cpp:137] Memory required for data: 437848320
I1225 14:33:20.386498 41183 layer_factory.hpp:77] Creating layer loss
I1225 14:33:20.386514 41183 net.cpp:84] Creating Layer loss
I1225 14:33:20.386523 41183 net.cpp:406] loss <- quantized_fc8_quantized_fc8_0_split_1
I1225 14:33:20.386533 41183 net.cpp:406] loss <- label_data_1_split_0
I1225 14:33:20.386543 41183 net.cpp:380] loss -> loss
…
I1225 14:33:20.388415 41183 net.cpp:294] The NetState phase (1) differed from the phase (0) specified by a rule in layer data
I1225 14:33:20.388748 41183 net.cpp:51] Initializing net from parameters: 
state {
  phase: TEST
}
layer {
  name: "data"
  type: "Data"
  top: "data"
  top: "label"
  include {
    phase: TEST
  }
  transform_param {
    mirror: false
    crop_size: 227
    mean_file: "/home/ydwu/database/imagenet/ilsvrc12/imagenet_mean.binaryproto"
  }
  data_param {
    source: "/home/ydwu/database/imagenet/ilsvrc12/lmdb_resize/ilsvrc12_val_lmdb/"
    batch_size: 20
    backend: LMDB
  }
}
layer {
  name: "quantized_data"
  type: "Quantization"
  bottom: "data"
  top: "quantized_data"
  quantization_param {
    round_method: FLOOR
    round_strategy: AGGRESSIVE
    bit_width: 8
    range: -129.93526
    range: 160.78912
  }
}
layer {
  name: "conv1"
  type: "Convolution"
  bottom: "quantized_data"
  top: "conv1"
  param {
    lr_mult: 1
    decay_mult: 1
  }
  param {
    lr_mult: 2
    decay_mult: 0
  }
  convolution_param {
    num_output: 96
    pad: 0
    kernel_size: 11
    group: 1
    stride: 4
    weight_filler {
      type: "gaussian"
      std: 1.1e+13
    }
    bias_filler {
      type: "constant"
      std: 0.1
    }
  }
}
layer {
  name: "quantized_conv1"
  type: "Quantization"
  bottom: "conv1"
  top: "quantized_conv1"
  quantization_param {
    round_method: FLOOR
    round_strategy: AGGRESSIVE
    bit_width: 8
    range: -2732.7351
    range: 2531.042
  }
}
layer {
  name: "relu1"
  type: "ReLU"
  bottom: "quantized_conv1"
  top: "relu1"
}
layer {
  name: "quantized_relu1"
  type: "Quantization"
  bottom: "relu1"
  top: "quantized_relu1"
  quantization_param {
    round_method: FLOOR
    round_strategy: AGGRESSIVE
    bit_width: 8
    range: 1
    range: 2531.042
  }
}
layer {
  name: "pool1"
  type: "Pooling"
  bottom: "quantized_relu1"
  top: "pool1"
  pooling_param {
    pool: MAX
    kernel_size: 3
    stride: 2
  }
}
layer {
  name: "quantized_pool1"
  type: "Quantization"
  bottom: "pool1"
  top: "quantized_pool1"
  quantization_param {
    round_method: FLOOR
    round_strategy: AGGRESSIVE
    bit_width: 8
    range: 1
    range: 2531.042
  }
}
layer {
  name: "norm1"
  type: "LRN"
  bottom: "quantized_pool1"
  top: "norm1"
  lrn_param {
    local_size: 5
    alpha: 0.0001
    beta: 0.75
  }
}
layer {
  name: "quantized_norm1"
  type: "Quantization"
  bottom: "norm1"
  top: "quantized_norm1"
  quantization_param {
    round_method: FLOOR
    round_strategy: AGGRESSIVE
    bit_width: 8
    range: 1
    range: 138.70576
  }
}
layer {
  name: "conv2"
  type: "Convolution"
  bottom: "quantized_norm1"
  top: "conv2"
  param {
    lr_mult: 1
    decay_mult: 1
  }
  param {
    lr_mult: 2
    decay_mult: 0
  }
  convolution_param {
    num_output: 256
    pad: 2
    kernel_size: 5
    group: 2
    stride: 1
    weight_filler {
      type: "gaussian"
      std: 1.1e+13
    }
    bias_filler {
      type: "constant"
      std: 0.1
    }
  }
}
layer {
  name: "quantized_conv2"
  type: "Quantization"
  bottom: "conv2"
  top: "quantized_conv2"
  quantization_param {
    round_method: FLOOR
    round_strategy: AGGRESSIVE
    bit_width: 8
    range: -647.61908
    range: 492.23111
  }
}
layer {
  name: "relu2"
  type: "ReLU"
  bottom: "quantized_conv2"
  top: "relu2"
}
layer {
  name: "quantized_relu2"
  type: "Quantization"
  bottom: "relu2"
  top: "quantized_relu2"
  quantization_param {
    round_method: FLOOR
    round_strategy: AGGRESSIVE
    bit_width: 8
    range: 1
    range: 492.23111
  }
}
layer {
  name: "pool2"
  type: "Pooling"
  bottom: "quantized_relu2"
  top: "pool2"
  pooling_param {
    pool: MAX
    kernel_size: 3
    stride: 2
  }
}
layer {
  name: "quantized_pool2"
  type: "Quantization"
  bottom: "pool2"
  top: "quantized_pool2"
  quantization_param {
    round_method: FLOOR
    round_strategy: AGGRESSIVE
    bit_width: 8
    range: 1
    range: 492.23111
  }
}
layer {
  name: "norm2"
  type: "LRN"
  bottom: "quantized_pool2"
  top: "norm2"
  lrn_param {
    local_size: 5
    alpha: 0.0001
    beta: 0.75
  }
}
layer {
  name: "quantized_norm2"
  type: "Quantization"
  bottom: "norm2"
  top: "quantized_norm2"
  quantization_param {
    round_method: FLOOR
    round_strategy: AGGRESSIVE
    bit_width: 8
    range: 1
    range: 138.72636
  }
}
layer {
  name: "conv3"
  type: "Convolution"
  bottom: "quantized_norm2"
  top: "conv3"
  param {
    lr_mult: 1
    decay_mult: 1
  }
  param {
    lr_mult: 2
    decay_mult: 0
  }
  convolution_param {
    num_output: 384
    pad: 1
    kernel_size: 3
    group: 1
    stride: 1
    weight_filler {
      type: "gaussian"
      std: 1.1e+13
    }
    bias_filler {
      type: "constant"
      std: 0.1
    }
  }
}
layer {
  name: "quantized_conv3"
  type: "Quantization"
  bottom: "conv3"
  top: "quantized_conv3"
  quantization_param {
    round_method: FLOOR
    round_strategy: AGGRESSIVE
    bit_width: 8
    range: -389.56516
    range: 331.98178
  }
}
layer {
  name: "relu3"
  type: "ReLU"
  bottom: "quantized_conv3"
  top: "relu3"
}
layer {
  name: "quantized_relu3"
  type: "Quantization"
  bottom: "relu3"
  top: "quantized_relu3"
  quantization_param {
    round_method: FLOOR
    round_strategy: AGGRESSIVE
    bit_width: 8
    range: 1
    range: 331.98178
  }
}
layer {
  name: "conv4"
  type: "Convolution"
  bottom: "quantized_relu3"
  top: "conv4"
  param {
    lr_mult: 1
    decay_mult: 1
  }
  param {
    lr_mult: 2
    decay_mult: 0
  }
  convolution_param {
    num_output: 384
    pad: 1
    kernel_size: 3
    group: 2
    stride: 1
    weight_filler {
      type: "gaussian"
      std: 1.1e+13
    }
    bias_filler {
      type: "constant"
      std: 0.1
    }
  }
}
layer {
  name: "quantized_conv4"
  type: "Quantization"
  bottom: "conv4"
  top: "quantized_conv4"
  quantization_param {
    round_method: FLOOR
    round_strategy: AGGRESSIVE
    bit_width: 8
    range: -231.20598
    range: 283.87189
  }
}
layer {
  name: "relu4"
  type: "ReLU"
  bottom: "quantized_conv4"
  top: "relu4"
}
layer {
  name: "quantized_relu4"
  type: "Quantization"
  bottom: "relu4"
  top: "quantized_relu4"
  quantization_param {
    round_method: FLOOR
    round_strategy: AGGRESSIVE
    bit_width: 8
    range: 1
    range: 283.87189
  }
}
layer {
  name: "conv5"
  type: "Convolution"
  bottom: "quantized_relu4"
  top: "conv5"
  param {
    lr_mult: 1
    decay_mult: 1
  }
  param {
    lr_mult: 2
    decay_mult: 0
  }
  convolution_param {
    num_output: 256
    pad: 1
    kernel_size: 3
    group: 2
    stride: 1
    weight_filler {
      type: "gaussian"
      std: 1.1e+13
    }
    bias_filler {
      type: "constant"
      std: 0.1
    }
  }
}
layer {
  name: "quantized_conv5"
  type: "Quantization"
  bottom: "conv5"
  top: "quantized_conv5"
  quantization_param {
    round_method: FLOOR
    round_strategy: AGGRESSIVE
    bit_width: 8
    range: -172.60567
    range: 272.57315
  }
}
layer {
  name: "relu5"
  type: "ReLU"
  bottom: "quantized_conv5"
  top: "relu5"
}
layer {
  name: "quantized_relu5"
  type: "Quantization"
  bottom: "relu5"
  top: "quantized_relu5"
  quantization_param {
    round_method: FLOOR
    round_strategy: AGGRESSIVE
    bit_width: 8
    range: 1
    range: 272.57315
  }
}
layer {
  name: "pool5"
  type: "Pooling"
  bottom: "quantized_relu5"
  top: "pool5"
  pooling_param {
    pool: MAX
    kernel_size: 3
    stride: 2
  }
}
layer {
  name: "quantized_pool5"
  type: "Quantization"
  bottom: "pool5"
  top: "quantized_pool5"
  quantization_param {
    round_method: FLOOR
    round_strategy: AGGRESSIVE
    bit_width: 8
    range: 1
    range: 272.57315
  }
}
layer {
  name: "fc6"
  type: "InnerProduct"
  bottom: "quantized_pool5"
  top: "fc6"
  param {
    lr_mult: 1
    decay_mult: 1
  }
  param {
    lr_mult: 2
    decay_mult: 0
  }
  inner_product_param {
    num_output: 4096
    weight_filler {
      type: "gaussian"
      std: 1.05e+13
    }
    bias_filler {
      type: "constant"
      value: 0.1
    }
  }
}
layer {
  name: "quantized_fc6"
  type: "Quantization"
  bottom: "fc6"
  top: "quantized_fc6"
  quantization_param {
    round_method: FLOOR
    round_strategy: AGGRESSIVE
    bit_width: 8
    range: -114.02487
    range: 58.541733
  }
}
layer {
  name: "relu6"
  type: "ReLU"
  bottom: "quantized_fc6"
  top: "relu6"
}
layer {
  name: "quantized_relu6"
  type: "Quantization"
  bottom: "relu6"
  top: "quantized_relu6"
  quantization_param {
    round_method: FLOOR
    round_strategy: AGGRESSIVE
    bit_width: 8
    range: 1
    range: 58.541733
  }
}
layer {
  name: "fc7"
  type: "InnerProduct"
  bottom: "quantized_relu6"
  top: "fc7"
  param {
    lr_mult: 1
    decay_mult: 1
  }
  param {
    lr_mult: 2
    decay_mult: 0
  }
  inner_product_param {
    num_output: 4096
    weight_filler {
      type: "gaussian"
      std: 1.05e+13
    }
    bias_filler {
      type: "constant"
      value: 0.1
    }
  }
}
layer {
  name: "quantized_fc7"
  type: "Quantization"
  bottom: "fc7"
  top: "quantized_fc7"
  quantization_param {
    round_method: FLOOR
    round_strategy: AGGRESSIVE
    bit_width: 8
    range: -26.019335
    range: 19.125257
  }
}
layer {
  name: "relu7"
  type: "ReLU"
  bottom: "quantized_fc7"
  top: "relu7"
}
layer {
  name: "quantized_relu7"
  type: "Quantization"
  bottom: "relu7"
  top: "quantized_relu7"
  quantization_param {
    round_method: FLOOR
    round_strategy: AGGRESSIVE
    bit_width: 8
    range: 1
    range: 19.125257
  }
}
layer {
  name: "fc8"
  type: "InnerProduct"
  bottom: "quantized_relu7"
  top: "fc8"
  param {
    lr_mult: 1
    decay_mult: 1
  }
  param {
    lr_mult: 2
    decay_mult: 0
  }
  inner_product_param {
    num_output: 1000
  }
}
layer {
  name: "quantized_fc8"
  type: "Quantization"
  bottom: "fc8"
  top: "quantized_fc8"
  quantization_param {
    round_method: FLOOR
    round_strategy: AGGRESSIVE
    bit_width: 8
    range: -9.849781
    range: 45.688446
  }
}
layer {
  name: "probs"
  type: "Softmax"
  bottom: "quantized_fc8"
  top: "probs"
}
layer {
  name: "loss"
  type: "SoftmaxWithLoss"
  bottom: "quantized_fc8"
  bottom: "label"
  top: "loss"
}
layer {
  name: "acc_top1"
  type: "Accuracy"
  bottom: "quantized_fc8"
  bottom: "label"
  top: "acc_top1"
  accuracy_param {
    top_k: 1
  }
}
layer {
  name: "acc_top5"
  type: "Accuracy"
  bottom: "quantized_fc8"
  bottom: "label"
  top: "acc_top5"
  accuracy_param {
    top_k: 5
  }
}
I1225 14:33:20.388962 41183 layer_factory.hpp:77] Creating layer data
I1225 14:33:20.389045 41183 db_lmdb.cpp:35] Opened lmdb /home/ydwu/database/imagenet/ilsvrc12/lmdb_resize/ilsvrc12_val_lmdb/
I1225 14:33:20.389072 41183 net.cpp:84] Creating Layer data
I1225 14:33:20.389084 41183 net.cpp:380] data -> data
I1225 14:33:20.389098 41183 net.cpp:380] data -> label
I1225 14:33:20.389112 41183 data_transformer.cpp:25] Loading mean file from: /home/ydwu/database/imagenet/ilsvrc12/imagenet_mean.binaryproto
I1225 14:33:20.391171 41183 data_layer.cpp:45] output data size: 20,3,227,227
I1225 14:33:20.403486 41183 net.cpp:122] Setting up data
I1225 14:33:20.403550 41183 net.cpp:129] Top shape: 20 3 227 227 (3091740)
I1225 14:33:20.403563 41183 net.cpp:129] Top shape: 20 (20)
I1225 14:33:20.403570 41183 net.cpp:137] Memory required for data: 12367040
I1225 14:33:20.403584 41183 layer_factory.hpp:77] Creating layer label_data_1_split
I1225 14:33:20.403605 41183 net.cpp:84] Creating Layer label_data_1_split
I1225 14:33:20.403615 41183 net.cpp:406] label_data_1_split <- label
I1225 14:33:20.403631 41183 net.cpp:380] label_data_1_split -> label_data_1_split_0
I1225 14:33:20.403650 41183 net.cpp:380] label_data_1_split -> label_data_1_split_1
I1225 14:33:20.403662 41183 net.cpp:380] label_data_1_split -> label_data_1_split_2
I1225 14:33:20.403678 41183 net.cpp:122] Setting up label_data_1_split
I1225 14:33:20.403689 41183 net.cpp:129] Top shape: 20 (20)
I1225 14:33:20.403698 41183 net.cpp:129] Top shape: 20 (20)
I1225 14:33:20.403707 41183 net.cpp:129] Top shape: 20 (20)
I1225 14:33:20.403714 41183 net.cpp:137] Memory required for data: 12367280
I1225 14:33:20.403723 41183 layer_factory.hpp:77] Creating layer quantized_data
I1225 14:33:20.403739 41183 net.cpp:84] Creating Layer quantized_data
I1225 14:33:20.403748 41183 net.cpp:406] quantized_data <- data
I1225 14:33:20.403759 41183 net.cpp:380] quantized_data -> quantized_data
I1225 14:33:20.403771 41183 net.cpp:122] Setting up quantized_data
I1225 14:33:20.403782 41183 net.cpp:129] Top shape: 20 3 227 227 (3091740)
I1225 14:33:20.403789 41183 net.cpp:137] Memory required for data: 24734240
I1225 14:33:20.403798 41183 layer_factory.hpp:77] Creating layer conv1
I1225 14:33:20.403820 41183 net.cpp:84] Creating Layer conv1
I1225 14:33:20.403867 41183 net.cpp:406] conv1 <- quantized_data
I1225 14:33:20.403882 41183 net.cpp:380] conv1 -> conv1
I1225 14:33:20.404973 41183 net.cpp:122] Setting up conv1
I1225 14:33:20.404989 41183 net.cpp:129] Top shape: 20 96 55 55 (5808000)
I1225 14:33:20.404997 41183 net.cpp:137] Memory required for data: 47966240
I1225 14:33:20.405015 41183 layer_factory.hpp:77] Creating layer quantized_conv1
I1225 14:33:20.405030 41183 net.cpp:84] Creating Layer quantized_conv1
I1225 14:33:20.405038 41183 net.cpp:406] quantized_conv1 <- conv1
I1225 14:33:20.405050 41183 net.cpp:380] quantized_conv1 -> quantized_conv1
I1225 14:33:20.405064 41183 net.cpp:122] Setting up quantized_conv1
I1225 14:33:20.405076 41183 net.cpp:129] Top shape: 20 96 55 55 (5808000)
I1225 14:33:20.405083 41183 net.cpp:137] Memory required for data: 71198240
I1225 14:33:20.405092 41183 layer_factory.hpp:77] Creating layer relu1
I1225 14:33:20.405103 41183 net.cpp:84] Creating Layer relu1
I1225 14:33:20.405112 41183 net.cpp:406] relu1 <- quantized_conv1
I1225 14:33:20.405122 41183 net.cpp:380] relu1 -> relu1
I1225 14:33:20.405134 41183 net.cpp:122] Setting up relu1
I1225 14:33:20.405145 41183 net.cpp:129] Top shape: 20 96 55 55 (5808000)
I1225 14:33:20.405153 41183 net.cpp:137] Memory required for data: 94430240
I1225 14:33:20.405161 41183 layer_factory.hpp:77] Creating layer quantized_relu1
I1225 14:33:20.405175 41183 net.cpp:84] Creating Layer quantized_relu1
I1225 14:33:20.405184 41183 net.cpp:406] quantized_relu1 <- relu1
I1225 14:33:20.405196 41183 net.cpp:380] quantized_relu1 -> quantized_relu1
I1225 14:33:20.405208 41183 net.cpp:122] Setting up quantized_relu1
I1225 14:33:20.405220 41183 net.cpp:129] Top shape: 20 96 55 55 (5808000)
I1225 14:33:20.405227 41183 net.cpp:137] Memory required for data: 117662240
I1225 14:33:20.405236 41183 layer_factory.hpp:77] Creating layer pool1
I1225 14:33:20.405251 41183 net.cpp:84] Creating Layer pool1
I1225 14:33:20.405258 41183 net.cpp:406] pool1 <- quantized_relu1
I1225 14:33:20.405269 41183 net.cpp:380] pool1 -> pool1
I1225 14:33:20.405284 41183 net.cpp:122] Setting up pool1
I1225 14:33:20.405294 41183 net.cpp:129] Top shape: 20 96 27 27 (1399680)
I1225 14:33:20.405303 41183 net.cpp:137] Memory required for data: 123260960
I1225 14:33:20.405310 41183 layer_factory.hpp:77] Creating layer quantized_pool1
I1225 14:33:20.405324 41183 net.cpp:84] Creating Layer quantized_pool1
I1225 14:33:20.405333 41183 net.cpp:406] quantized_pool1 <- pool1
I1225 14:33:20.405344 41183 net.cpp:380] quantized_pool1 -> quantized_pool1
I1225 14:33:20.405355 41183 net.cpp:122] Setting up quantized_pool1
I1225 14:33:20.405369 41183 net.cpp:129] Top shape: 20 96 27 27 (1399680)
I1225 14:33:20.405376 41183 net.cpp:137] Memory required for data: 128859680
I1225 14:33:20.405385 41183 layer_factory.hpp:77] Creating layer norm1
I1225 14:33:20.405396 41183 net.cpp:84] Creating Layer norm1
I1225 14:33:20.405405 41183 net.cpp:406] norm1 <- quantized_pool1
I1225 14:33:20.405416 41183 net.cpp:380] norm1 -> norm1
I1225 14:33:20.405428 41183 net.cpp:122] Setting up norm1
I1225 14:33:20.405438 41183 net.cpp:129] Top shape: 20 96 27 27 (1399680)
I1225 14:33:20.405445 41183 net.cpp:137] Memory required for data: 134458400
I1225 14:33:20.405454 41183 layer_factory.hpp:77] Creating layer quantized_norm1
I1225 14:33:20.405467 41183 net.cpp:84] Creating Layer quantized_norm1
I1225 14:33:20.405475 41183 net.cpp:406] quantized_norm1 <- norm1
I1225 14:33:20.405488 41183 net.cpp:380] quantized_norm1 -> quantized_norm1
I1225 14:33:20.405499 41183 net.cpp:122] Setting up quantized_norm1
I1225 14:33:20.405509 41183 net.cpp:129] Top shape: 20 96 27 27 (1399680)
I1225 14:33:20.405517 41183 net.cpp:137] Memory required for data: 140057120
I1225 14:33:20.405525 41183 layer_factory.hpp:77] Creating layer conv2
I1225 14:33:20.405541 41183 net.cpp:84] Creating Layer conv2
I1225 14:33:20.405550 41183 net.cpp:406] conv2 <- quantized_norm1
I1225 14:33:20.405561 41183 net.cpp:380] conv2 -> conv2
I1225 14:33:20.414883 41183 net.cpp:122] Setting up conv2
I1225 14:33:20.414921 41183 net.cpp:129] Top shape: 20 256 27 27 (3732480)
I1225 14:33:20.414983 41183 net.cpp:137] Memory required for data: 154987040
I1225 14:33:20.415004 41183 layer_factory.hpp:77] Creating layer quantized_conv2
I1225 14:33:20.415021 41183 net.cpp:84] Creating Layer quantized_conv2
I1225 14:33:20.415032 41183 net.cpp:406] quantized_conv2 <- conv2
I1225 14:33:20.415050 41183 net.cpp:380] quantized_conv2 -> quantized_conv2
I1225 14:33:20.415069 41183 net.cpp:122] Setting up quantized_conv2
I1225 14:33:20.415081 41183 net.cpp:129] Top shape: 20 256 27 27 (3732480)
I1225 14:33:20.415088 41183 net.cpp:137] Memory required for data: 169916960
I1225 14:33:20.415096 41183 layer_factory.hpp:77] Creating layer relu2
I1225 14:33:20.415107 41183 net.cpp:84] Creating Layer relu2
I1225 14:33:20.415117 41183 net.cpp:406] relu2 <- quantized_conv2
I1225 14:33:20.415127 41183 net.cpp:380] relu2 -> relu2
I1225 14:33:20.415139 41183 net.cpp:122] Setting up relu2
I1225 14:33:20.415150 41183 net.cpp:129] Top shape: 20 256 27 27 (3732480)
I1225 14:33:20.415158 41183 net.cpp:137] Memory required for data: 184846880
I1225 14:33:20.415169 41183 layer_factory.hpp:77] Creating layer quantized_relu2
I1225 14:33:20.415182 41183 net.cpp:84] Creating Layer quantized_relu2
I1225 14:33:20.415191 41183 net.cpp:406] quantized_relu2 <- relu2
I1225 14:33:20.415201 41183 net.cpp:380] quantized_relu2 -> quantized_relu2
I1225 14:33:20.415217 41183 net.cpp:122] Setting up quantized_relu2
I1225 14:33:20.415227 41183 net.cpp:129] Top shape: 20 256 27 27 (3732480)
I1225 14:33:20.415235 41183 net.cpp:137] Memory required for data: 199776800
I1225 14:33:20.415243 41183 layer_factory.hpp:77] Creating layer pool2
I1225 14:33:20.415256 41183 net.cpp:84] Creating Layer pool2
I1225 14:33:20.415263 41183 net.cpp:406] pool2 <- quantized_relu2
I1225 14:33:20.415273 41183 net.cpp:380] pool2 -> pool2
I1225 14:33:20.415288 41183 net.cpp:122] Setting up pool2
I1225 14:33:20.415298 41183 net.cpp:129] Top shape: 20 256 13 13 (865280)
I1225 14:33:20.415307 41183 net.cpp:137] Memory required for data: 203237920
I1225 14:33:20.415314 41183 layer_factory.hpp:77] Creating layer quantized_pool2
I1225 14:33:20.415329 41183 net.cpp:84] Creating Layer quantized_pool2
I1225 14:33:20.415338 41183 net.cpp:406] quantized_pool2 <- pool2
I1225 14:33:20.415351 41183 net.cpp:380] quantized_pool2 -> quantized_pool2
I1225 14:33:20.415364 41183 net.cpp:122] Setting up quantized_pool2
I1225 14:33:20.415374 41183 net.cpp:129] Top shape: 20 256 13 13 (865280)
I1225 14:33:20.415381 41183 net.cpp:137] Memory required for data: 206699040
I1225 14:33:20.415390 41183 layer_factory.hpp:77] Creating layer norm2
I1225 14:33:20.415401 41183 net.cpp:84] Creating Layer norm2
I1225 14:33:20.415410 41183 net.cpp:406] norm2 <- quantized_pool2
I1225 14:33:20.415421 41183 net.cpp:380] norm2 -> norm2
I1225 14:33:20.415436 41183 net.cpp:122] Setting up norm2
I1225 14:33:20.415446 41183 net.cpp:129] Top shape: 20 256 13 13 (865280)
I1225 14:33:20.415453 41183 net.cpp:137] Memory required for data: 210160160
I1225 14:33:20.415460 41183 layer_factory.hpp:77] Creating layer quantized_norm2
I1225 14:33:20.415472 41183 net.cpp:84] Creating Layer quantized_norm2
I1225 14:33:20.415479 41183 net.cpp:406] quantized_norm2 <- norm2
I1225 14:33:20.415491 41183 net.cpp:380] quantized_norm2 -> quantized_norm2
I1225 14:33:20.415503 41183 net.cpp:122] Setting up quantized_norm2
I1225 14:33:20.415514 41183 net.cpp:129] Top shape: 20 256 13 13 (865280)
I1225 14:33:20.415521 41183 net.cpp:137] Memory required for data: 213621280
I1225 14:33:20.415529 41183 layer_factory.hpp:77] Creating layer conv3
I1225 14:33:20.415547 41183 net.cpp:84] Creating Layer conv3
I1225 14:33:20.415557 41183 net.cpp:406] conv3 <- quantized_norm2
I1225 14:33:20.415570 41183 net.cpp:380] conv3 -> conv3
I1225 14:33:20.442368 41183 net.cpp:122] Setting up conv3
I1225 14:33:20.442411 41183 net.cpp:129] Top shape: 20 384 13 13 (1297920)
I1225 14:33:20.442420 41183 net.cpp:137] Memory required for data: 218812960
I1225 14:33:20.442440 41183 layer_factory.hpp:77] Creating layer quantized_conv3
I1225 14:33:20.442497 41183 net.cpp:84] Creating Layer quantized_conv3
I1225 14:33:20.442508 41183 net.cpp:406] quantized_conv3 <- conv3
I1225 14:33:20.442525 41183 net.cpp:380] quantized_conv3 -> quantized_conv3
I1225 14:33:20.442544 41183 net.cpp:122] Setting up quantized_conv3
I1225 14:33:20.442555 41183 net.cpp:129] Top shape: 20 384 13 13 (1297920)
I1225 14:33:20.442564 41183 net.cpp:137] Memory required for data: 224004640
I1225 14:33:20.442571 41183 layer_factory.hpp:77] Creating layer relu3
I1225 14:33:20.442582 41183 net.cpp:84] Creating Layer relu3
I1225 14:33:20.442590 41183 net.cpp:406] relu3 <- quantized_conv3
I1225 14:33:20.442603 41183 net.cpp:380] relu3 -> relu3
I1225 14:33:20.442615 41183 net.cpp:122] Setting up relu3
I1225 14:33:20.442625 41183 net.cpp:129] Top shape: 20 384 13 13 (1297920)
I1225 14:33:20.442633 41183 net.cpp:137] Memory required for data: 229196320
I1225 14:33:20.442641 41183 layer_factory.hpp:77] Creating layer quantized_relu3
I1225 14:33:20.442651 41183 net.cpp:84] Creating Layer quantized_relu3
I1225 14:33:20.442659 41183 net.cpp:406] quantized_relu3 <- relu3
I1225 14:33:20.442672 41183 net.cpp:380] quantized_relu3 -> quantized_relu3
I1225 14:33:20.442684 41183 net.cpp:122] Setting up quantized_relu3
I1225 14:33:20.442694 41183 net.cpp:129] Top shape: 20 384 13 13 (1297920)
I1225 14:33:20.442703 41183 net.cpp:137] Memory required for data: 234388000
I1225 14:33:20.442710 41183 layer_factory.hpp:77] Creating layer conv4
I1225 14:33:20.442734 41183 net.cpp:84] Creating Layer conv4
I1225 14:33:20.442744 41183 net.cpp:406] conv4 <- quantized_relu3
I1225 14:33:20.442754 41183 net.cpp:380] conv4 -> conv4
I1225 14:33:20.462728 41183 net.cpp:122] Setting up conv4
I1225 14:33:20.462765 41183 net.cpp:129] Top shape: 20 384 13 13 (1297920)
I1225 14:33:20.462774 41183 net.cpp:137] Memory required for data: 239579680
I1225 14:33:20.462788 41183 layer_factory.hpp:77] Creating layer quantized_conv4
I1225 14:33:20.462805 41183 net.cpp:84] Creating Layer quantized_conv4
I1225 14:33:20.462815 41183 net.cpp:406] quantized_conv4 <- conv4
I1225 14:33:20.462831 41183 net.cpp:380] quantized_conv4 -> quantized_conv4
I1225 14:33:20.462849 41183 net.cpp:122] Setting up quantized_conv4
I1225 14:33:20.462859 41183 net.cpp:129] Top shape: 20 384 13 13 (1297920)
I1225 14:33:20.462867 41183 net.cpp:137] Memory required for data: 244771360
I1225 14:33:20.462875 41183 layer_factory.hpp:77] Creating layer relu4
I1225 14:33:20.462890 41183 net.cpp:84] Creating Layer relu4
I1225 14:33:20.462898 41183 net.cpp:406] relu4 <- quantized_conv4
I1225 14:33:20.462909 41183 net.cpp:380] relu4 -> relu4
I1225 14:33:20.462921 41183 net.cpp:122] Setting up relu4
I1225 14:33:20.462931 41183 net.cpp:129] Top shape: 20 384 13 13 (1297920)
I1225 14:33:20.462939 41183 net.cpp:137] Memory required for data: 249963040
I1225 14:33:20.462946 41183 layer_factory.hpp:77] Creating layer quantized_relu4
I1225 14:33:20.463011 41183 net.cpp:84] Creating Layer quantized_relu4
I1225 14:33:20.463022 41183 net.cpp:406] quantized_relu4 <- relu4
I1225 14:33:20.463032 41183 net.cpp:380] quantized_relu4 -> quantized_relu4
I1225 14:33:20.463047 41183 net.cpp:122] Setting up quantized_relu4
I1225 14:33:20.463058 41183 net.cpp:129] Top shape: 20 384 13 13 (1297920)
I1225 14:33:20.463066 41183 net.cpp:137] Memory required for data: 255154720
I1225 14:33:20.463074 41183 layer_factory.hpp:77] Creating layer conv5
I1225 14:33:20.463090 41183 net.cpp:84] Creating Layer conv5
I1225 14:33:20.463099 41183 net.cpp:406] conv5 <- quantized_relu4
I1225 14:33:20.463116 41183 net.cpp:380] conv5 -> conv5
I1225 14:33:20.476359 41183 net.cpp:122] Setting up conv5
I1225 14:33:20.476380 41183 net.cpp:129] Top shape: 20 256 13 13 (865280)
I1225 14:33:20.476388 41183 net.cpp:137] Memory required for data: 258615840
I1225 14:33:20.476404 41183 layer_factory.hpp:77] Creating layer quantized_conv5
I1225 14:33:20.476416 41183 net.cpp:84] Creating Layer quantized_conv5
I1225 14:33:20.476424 41183 net.cpp:406] quantized_conv5 <- conv5
I1225 14:33:20.476435 41183 net.cpp:380] quantized_conv5 -> quantized_conv5
I1225 14:33:20.476478 41183 net.cpp:122] Setting up quantized_conv5
I1225 14:33:20.476490 41183 net.cpp:129] Top shape: 20 256 13 13 (865280)
I1225 14:33:20.476497 41183 net.cpp:137] Memory required for data: 262076960
I1225 14:33:20.476505 41183 layer_factory.hpp:77] Creating layer relu5
I1225 14:33:20.476521 41183 net.cpp:84] Creating Layer relu5
I1225 14:33:20.476529 41183 net.cpp:406] relu5 <- quantized_conv5
I1225 14:33:20.476539 41183 net.cpp:380] relu5 -> relu5
I1225 14:33:20.476554 41183 net.cpp:122] Setting up relu5
I1225 14:33:20.476567 41183 net.cpp:129] Top shape: 20 256 13 13 (865280)
I1225 14:33:20.476574 41183 net.cpp:137] Memory required for data: 265538080
I1225 14:33:20.476583 41183 layer_factory.hpp:77] Creating layer quantized_relu5
I1225 14:33:20.476591 41183 net.cpp:84] Creating Layer quantized_relu5
I1225 14:33:20.476599 41183 net.cpp:406] quantized_relu5 <- relu5
I1225 14:33:20.476609 41183 net.cpp:380] quantized_relu5 -> quantized_relu5
I1225 14:33:20.476621 41183 net.cpp:122] Setting up quantized_relu5
I1225 14:33:20.476631 41183 net.cpp:129] Top shape: 20 256 13 13 (865280)
I1225 14:33:20.476639 41183 net.cpp:137] Memory required for data: 268999200
I1225 14:33:20.476646 41183 layer_factory.hpp:77] Creating layer pool5
I1225 14:33:20.476660 41183 net.cpp:84] Creating Layer pool5
I1225 14:33:20.476668 41183 net.cpp:406] pool5 <- quantized_relu5
I1225 14:33:20.476680 41183 net.cpp:380] pool5 -> pool5
I1225 14:33:20.476696 41183 net.cpp:122] Setting up pool5
I1225 14:33:20.476706 41183 net.cpp:129] Top shape: 20 256 6 6 (184320)
I1225 14:33:20.476713 41183 net.cpp:137] Memory required for data: 269736480
I1225 14:33:20.476722 41183 layer_factory.hpp:77] Creating layer quantized_pool5
I1225 14:33:20.476735 41183 net.cpp:84] Creating Layer quantized_pool5
I1225 14:33:20.476743 41183 net.cpp:406] quantized_pool5 <- pool5
I1225 14:33:20.476757 41183 net.cpp:380] quantized_pool5 -> quantized_pool5
I1225 14:33:20.476768 41183 net.cpp:122] Setting up quantized_pool5
I1225 14:33:20.476778 41183 net.cpp:129] Top shape: 20 256 6 6 (184320)
I1225 14:33:20.476786 41183 net.cpp:137] Memory required for data: 270473760
I1225 14:33:20.476794 41183 layer_factory.hpp:77] Creating layer fc6
I1225 14:33:20.476809 41183 net.cpp:84] Creating Layer fc6
I1225 14:33:20.476817 41183 net.cpp:406] fc6 <- quantized_pool5
I1225 14:33:20.476827 41183 net.cpp:380] fc6 -> fc6
I1225 14:33:21.562086 41183 net.cpp:122] Setting up fc6
I1225 14:33:21.562145 41183 net.cpp:129] Top shape: 20 4096 (81920)
I1225 14:33:21.562156 41183 net.cpp:137] Memory required for data: 270801440
I1225 14:33:21.562173 41183 layer_factory.hpp:77] Creating layer quantized_fc6
I1225 14:33:21.562196 41183 net.cpp:84] Creating Layer quantized_fc6
I1225 14:33:21.562206 41183 net.cpp:406] quantized_fc6 <- fc6
I1225 14:33:21.562222 41183 net.cpp:380] quantized_fc6 -> quantized_fc6
I1225 14:33:21.562242 41183 net.cpp:122] Setting up quantized_fc6
I1225 14:33:21.562252 41183 net.cpp:129] Top shape: 20 4096 (81920)
I1225 14:33:21.562260 41183 net.cpp:137] Memory required for data: 271129120
I1225 14:33:21.562268 41183 layer_factory.hpp:77] Creating layer relu6
I1225 14:33:21.562280 41183 net.cpp:84] Creating Layer relu6
I1225 14:33:21.562288 41183 net.cpp:406] relu6 <- quantized_fc6
I1225 14:33:21.562299 41183 net.cpp:380] relu6 -> relu6
I1225 14:33:21.562310 41183 net.cpp:122] Setting up relu6
I1225 14:33:21.562320 41183 net.cpp:129] Top shape: 20 4096 (81920)
I1225 14:33:21.562328 41183 net.cpp:137] Memory required for data: 271456800
I1225 14:33:21.562336 41183 layer_factory.hpp:77] Creating layer quantized_relu6
I1225 14:33:21.562350 41183 net.cpp:84] Creating Layer quantized_relu6
I1225 14:33:21.562358 41183 net.cpp:406] quantized_relu6 <- relu6
I1225 14:33:21.562369 41183 net.cpp:380] quantized_relu6 -> quantized_relu6
I1225 14:33:21.562381 41183 net.cpp:122] Setting up quantized_relu6
I1225 14:33:21.562391 41183 net.cpp:129] Top shape: 20 4096 (81920)
I1225 14:33:21.562399 41183 net.cpp:137] Memory required for data: 271784480
I1225 14:33:21.562444 41183 layer_factory.hpp:77] Creating layer fc7
I1225 14:33:21.562460 41183 net.cpp:84] Creating Layer fc7
I1225 14:33:21.562469 41183 net.cpp:406] fc7 <- quantized_relu6
I1225 14:33:21.562480 41183 net.cpp:380] fc7 -> fc7
I1225 14:33:22.039644 41183 net.cpp:122] Setting up fc7
I1225 14:33:22.039710 41183 net.cpp:129] Top shape: 20 4096 (81920)
I1225 14:33:22.039723 41183 net.cpp:137] Memory required for data: 272112160
I1225 14:33:22.039741 41183 layer_factory.hpp:77] Creating layer quantized_fc7
I1225 14:33:22.039759 41183 net.cpp:84] Creating Layer quantized_fc7
I1225 14:33:22.039772 41183 net.cpp:406] quantized_fc7 <- fc7
I1225 14:33:22.039786 41183 net.cpp:380] quantized_fc7 -> quantized_fc7
I1225 14:33:22.039806 41183 net.cpp:122] Setting up quantized_fc7
I1225 14:33:22.039816 41183 net.cpp:129] Top shape: 20 4096 (81920)
I1225 14:33:22.039824 41183 net.cpp:137] Memory required for data: 272439840
I1225 14:33:22.039832 41183 layer_factory.hpp:77] Creating layer relu7
I1225 14:33:22.039844 41183 net.cpp:84] Creating Layer relu7
I1225 14:33:22.039852 41183 net.cpp:406] relu7 <- quantized_fc7
I1225 14:33:22.039865 41183 net.cpp:380] relu7 -> relu7
I1225 14:33:22.039878 41183 net.cpp:122] Setting up relu7
I1225 14:33:22.039889 41183 net.cpp:129] Top shape: 20 4096 (81920)
I1225 14:33:22.039897 41183 net.cpp:137] Memory required for data: 272767520
I1225 14:33:22.039906 41183 layer_factory.hpp:77] Creating layer quantized_relu7
I1225 14:33:22.039916 41183 net.cpp:84] Creating Layer quantized_relu7
I1225 14:33:22.039924 41183 net.cpp:406] quantized_relu7 <- relu7
I1225 14:33:22.039937 41183 net.cpp:380] quantized_relu7 -> quantized_relu7
I1225 14:33:22.039949 41183 net.cpp:122] Setting up quantized_relu7
I1225 14:33:22.039959 41183 net.cpp:129] Top shape: 20 4096 (81920)
I1225 14:33:22.039968 41183 net.cpp:137] Memory required for data: 273095200
I1225 14:33:22.039976 41183 layer_factory.hpp:77] Creating layer fc8
I1225 14:33:22.039990 41183 net.cpp:84] Creating Layer fc8
I1225 14:33:22.039999 41183 net.cpp:406] fc8 <- quantized_relu7
I1225 14:33:22.040009 41183 net.cpp:380] fc8 -> fc8
I1225 14:33:22.046682 41183 net.cpp:122] Setting up fc8
I1225 14:33:22.046749 41183 net.cpp:129] Top shape: 20 1000 (20000)
I1225 14:33:22.046759 41183 net.cpp:137] Memory required for data: 273175200
I1225 14:33:22.046775 41183 layer_factory.hpp:77] Creating layer quantized_fc8
I1225 14:33:22.046797 41183 net.cpp:84] Creating Layer quantized_fc8
I1225 14:33:22.046809 41183 net.cpp:406] quantized_fc8 <- fc8
I1225 14:33:22.046824 41183 net.cpp:380] quantized_fc8 -> quantized_fc8
I1225 14:33:22.046844 41183 net.cpp:122] Setting up quantized_fc8
I1225 14:33:22.046854 41183 net.cpp:129] Top shape: 20 1000 (20000)
I1225 14:33:22.046862 41183 net.cpp:137] Memory required for data: 273255200
I1225 14:33:22.046870 41183 layer_factory.hpp:77] Creating layer quantized_fc8_quantized_fc8_0_split
I1225 14:33:22.046882 41183 net.cpp:84] Creating Layer quantized_fc8_quantized_fc8_0_split
I1225 14:33:22.046890 41183 net.cpp:406] quantized_fc8_quantized_fc8_0_split <- quantized_fc8
I1225 14:33:22.046903 41183 net.cpp:380] quantized_fc8_quantized_fc8_0_split -> quantized_fc8_quantized_fc8_0_split_0
I1225 14:33:22.046916 41183 net.cpp:380] quantized_fc8_quantized_fc8_0_split -> quantized_fc8_quantized_fc8_0_split_1
I1225 14:33:22.046928 41183 net.cpp:380] quantized_fc8_quantized_fc8_0_split -> quantized_fc8_quantized_fc8_0_split_2
I1225 14:33:22.046941 41183 net.cpp:380] quantized_fc8_quantized_fc8_0_split -> quantized_fc8_quantized_fc8_0_split_3
I1225 14:33:22.047008 41183 net.cpp:122] Setting up quantized_fc8_quantized_fc8_0_split
I1225 14:33:22.047021 41183 net.cpp:129] Top shape: 20 1000 (20000)
I1225 14:33:22.047030 41183 net.cpp:129] Top shape: 20 1000 (20000)
I1225 14:33:22.047039 41183 net.cpp:129] Top shape: 20 1000 (20000)
I1225 14:33:22.047047 41183 net.cpp:129] Top shape: 20 1000 (20000)
I1225 14:33:22.047055 41183 net.cpp:137] Memory required for data: 273575200
I1225 14:33:22.047065 41183 layer_factory.hpp:77] Creating layer probs
I1225 14:33:22.047116 41183 net.cpp:84] Creating Layer probs
I1225 14:33:22.047125 41183 net.cpp:406] probs <- quantized_fc8_quantized_fc8_0_split_0
I1225 14:33:22.047137 41183 net.cpp:380] probs -> probs
I1225 14:33:22.047159 41183 net.cpp:122] Setting up probs
I1225 14:33:22.047170 41183 net.cpp:129] Top shape: 20 1000 (20000)
I1225 14:33:22.047178 41183 net.cpp:137] Memory required for data: 273655200
I1225 14:33:22.047188 41183 layer_factory.hpp:77] Creating layer loss
I1225 14:33:22.047197 41183 net.cpp:84] Creating Layer loss
I1225 14:33:22.047205 41183 net.cpp:406] loss <- quantized_fc8_quantized_fc8_0_split_1
I1225 14:33:22.047215 41183 net.cpp:406] loss <- label_data_1_split_0
I1225 14:33:22.047227 41183 net.cpp:380] loss -> loss
…
